…
I0403 09:07:31.702744  6091 net.cpp:313] The NetState phase (0) differed from the phase (1) specified by a rule in layer loss3/top-5
I0403 09:07:31.707346  6091 net.cpp:49] Initializing net from parameters: 
state {
  phase: TRAIN
}
layer {
  name: "data"
  type: "Data"
  top: "data"
  top: "label"
  include {
    phase: TRAIN
  }
  transform_param {
    mirror: true
    crop_size: 224
    mean_file: "/home/mohanty/data/final_dataset/lmdb/color-40-60/mean.binaryproto"
  }
  data_param {
    source: "/home/mohanty/data/final_dataset/lmdb/color-40-60/train_db"
    batch_size: 24
    backend: LMDB
  }
}
layer {
  name: "conv1/7x7_s2"
  type: "Convolution"
  bottom: "data"
  top: "conv1/7x7_s2"
  param {
    lr_mult: 1
    decay_mult: 1
  }
  param {
    lr_mult: 2
    decay_mult: 0
  }
  convolution_param {
    num_output: 64
    pad: 3
    kernel_size: 7
    stride: 2
    weight_filler {
      type: "xavier"
      std: 0.1
    }
    bias_filler {
      type: "constant"
      value: 0.2
    }
  }
}
layer {
  name: "conv1/relu_7x7"
  type: "ReLU"
  bottom: "conv1/7x7_s2"
  top: "conv1/7x7_s2"
}
layer {
  name: "pool1/3x3_s2"
  type: "Pooling"
  bottom: "conv1/7x7_s2"
  top: "pool1/3x3_s2"
  pooling_param {
    pool: MAX
    kernel_size: 3
    stride: 2
  }
}
layer {
  name: "pool1/norm1"
  type: "LRN"
  bottom: "pool1/3x3_s2"
  top: "pool1/norm1"
  lrn_param {
    local_size: 5
    alpha: 0.0001
    beta: 0.75
  }
}
layer {
  name: "conv2/3x3_reduce"
  type: "Convolution"
  bottom: "pool1/norm1"
  top: "conv2/3x3_reduce"
  param {
    lr_mult: 1
    decay_mult: 1
  }
  param {
    lr_mult: 2
    decay_mult: 0
  }
  convolution_param {
    num_output: 64
    kernel_size: 1
    weight_filler {
      type: "xavier"
      std: 0.1
    }
    bias_filler {
      type: "constant"
      value: 0.2
    }
  }
}
layer {
  name: "conv2/relu_3x3_reduce"
  type: "ReLU"
  bottom: "conv2/3x3_reduce"
  top: "conv2/3x3_reduce"
}
layer {
  name: "conv2/3x3"
  type: "Convolution"
  bottom: "conv2/3x3_reduce"
  top: "conv2/3x3"
  param {
    lr_mult: 1
    decay_mult: 1
  }
  param {
    lr_mult: 2
    decay_mult: 0
  }
  convolution_param {
    num_output: 192
    pad: 1
    kernel_size: 3
    weight_filler {
      type: "xavier"
      std: 0.03
    }
    bias_filler {
      type: "constant"
      value: 0.2
    }
  }
}
layer {
  name: "conv2/relu_3x3"
  type: "ReLU"
  bottom: "conv2/3x3"
  top: "conv2/3x3"
}
layer {
  name: "conv2/norm2"
  type: "LRN"
  bottom: "conv2/3x3"
  top: "conv2/norm2"
  lrn_param {
    local_size: 5
    alpha: 0.0001
    beta: 0.75
  }
}
layer {
  name: "pool2/3x3_s2"
  type: "Pooling"
  bottom: "conv2/norm2"
  top: "pool2/3x3_s2"
  pooling_param {
    pool: MAX
    kernel_size: 3
    stride: 2
  }
}
layer {
  name: "inception_3a/1x1"
  type: "Convolution"
  bottom: "pool2/3x3_s2"
  top: "inception_3a/1x1"
  param {
    lr_mult: 1
    decay_mult: 1
  }
  param {
    lr_mult: 2
    decay_mult: 0
  }
  convolution_param {
    num_output: 64
    kernel_size: 1
    weight_filler {
      type: "xavier"
      std: 0.03
    }
    bias_filler {
      type: "constant"
      value: 0.2
    }
  }
}
layer {
  name: "inception_3a/relu_1x1"
  type: "ReLU"
  bottom: "inception_3a/1x1"
  top: "inception_3a/1x1"
}
layer {
  name: "inception_3a/3x3_reduce"
  type: "Convolution"
  bottom: "pool2/3x3_s2"
  top: "inception_3a/3x3_reduce"
  param {
    lr_mult: 1
    decay_mult: 1
  }
  param {
    lr_mult: 2
    decay_mult: 0
  }
  convolution_param {
    num_output: 96
    kernel_size: 1
    weight_filler {
      type: "xavier"
      std: 0.09
    }
    bias_filler {
      type: "constant"
      value: 0.2
    }
  }
}
layer {
  name: "inception_3a/relu_3x3_reduce"
  type: "ReLU"
  bottom: "inception_3a/3x3_reduce"
  top: "inception_3a/3x3_reduce"
}
layer {
  name: "inception_3a/3x3"
  type: "Convolution"
  bottom: "inception_3a/3x3_reduce"
  top: "inception_3a/3x3"
  param {
    lr_mult: 1
    decay_mult: 1
  }
  param {
    lr_mult: 2
    decay_mult: 0
  }
  convolution_param {
    num_output: 128
    pad: 1
    kernel_size: 3
    weight_filler {
      type: "xavier"
      std: 0.03
    }
    bias_filler {
      type: "constant"
      value: 0.2
    }
  }
}
layer {
  name: "inception_3a/relu_3x3"
  type: "ReLU"
  bottom: "inception_3a/3x3"
  top: "inception_3a/3x3"
}
layer {
  name: "inception_3a/5x5_reduce"
  type: "Convolution"
  bottom: "pool2/3x3_s2"
  top: "inception_3a/5x5_reduce"
  param {
    lr_mult: 1
    decay_mult: 1
  }
  param {
    lr_mult: 2
    decay_mult: 0
  }
  convolution_param {
    num_output: 16
    kernel_size: 1
    weight_filler {
      type: "xavier"
      std: 0.2
    }
    bias_filler {
      type: "constant"
      value: 0.2
    }
  }
}
layer {
  name: "inception_3a/relu_5x5_reduce"
  type: "ReLU"
  bottom: "inception_3a/5x5_reduce"
  top: "inception_3a/5x5_reduce"
}
layer {
  name: "inception_3a/5x5"
  type: "Convolution"
  bottom: "inception_3a/5x5_reduce"
  top: "inception_3a/5x5"
  param {
    lr_mult: 1
    decay_mult: 1
  }
  param {
    lr_mult: 2
    decay_mult: 0
  }
  convolution_param {
    num_output: 32
    pad: 2
    kernel_size: 5
    weight_filler {
      type: "xavier"
      std: 0.03
    }
    bias_filler {
      type: "constant"
      value: 0.2
    }
  }
}
layer {
  name: "inception_3a/relu_5x5"
  type: "ReLU"
  bottom: "inception_3a/5x5"
  top: "inception_3a/5x5"
}
layer {
  name: "inception_3a/pool"
  type: "Pooling"
  bottom: "pool2/3x3_s2"
  top: "inception_3a/pool"
  pooling_param {
    pool: MAX
    kernel_size: 3
    stride: 1
    pad: 1
  }
}
layer {
  name: "inception_3a/pool_proj"
  type: "Convolution"
  bottom: "inception_3a/pool"
  top: "inception_3a/pool_proj"
  param {
    lr_mult: 1
    decay_mult: 1
  }
  param {
    lr_mult: 2
    decay_mult: 0
  }
  convolution_param {
    num_output: 32
    kernel_size: 1
    weight_filler {
      type: "xavier"
      std: 0.1
    }
    bias_filler {
      type: "constant"
      value: 0.2
    }
  }
}
layer {
  name: "inception_3a/relu_pool_proj"
  type: "ReLU"
  bottom: "inception_3a/pool_proj"
  top: "inception_3a/pool_proj"
}
layer {
  name: "inception_3a/output"
  type: "Concat"
  bottom: "inception_3a/1x1"
  bottom: "inception_3a/3x3"
  bottom: "inception_3a/5x5"
  bottom: "inception_3a/pool_proj"
  top: "inception_3a/output"
}
layer {
  name: "inception_3b/1x1"
  type: "Convolution"
  bottom: "inception_3a/output"
  top: "inception_3b/1x1"
  param {
    lr_mult: 1
    decay_mult: 1
  }
  param {
    lr_mult: 2
    decay_mult: 0
  }
  convolution_param {
    num_output: 128
    kernel_size: 1
    weight_filler {
      type: "xavier"
      std: 0.03
    }
    bias_filler {
      type: "constant"
      value: 0.2
    }
  }
}
layer {
  name: "inception_3b/relu_1x1"
  type: "ReLU"
  bottom: "inception_3b/1x1"
  top: "inception_3b/1x1"
}
layer {
  name: "inception_3b/3x3_reduce"
  type: "Convolution"
  bottom: "inception_3a/output"
  top: "inception_3b/3x3_reduce"
  param {
    lr_mult: 1
    decay_mult: 1
  }
  param {
    lr_mult: 2
    decay_mult: 0
  }
  convolution_param {
    num_output: 128
    kernel_size: 1
    weight_filler {
      type: "xavier"
      std: 0.09
    }
    bias_filler {
      type: "constant"
      value: 0.2
    }
  }
}
layer {
  name: "inception_3b/relu_3x3_reduce"
  type: "ReLU"
  bottom: "inception_3b/3x3_reduce"
  top: "inception_3b/3x3_reduce"
}
layer {
  name: "inception_3b/3x3"
  type: "Convolution"
  bottom: "inception_3b/3x3_reduce"
  top: "inception_3b/3x3"
  param {
    lr_mult: 1
    decay_mult: 1
  }
  param {
    lr_mult: 2
    decay_mult: 0
  }
  convolution_param {
    num_output: 192
    pad: 1
    kernel_size: 3
    weight_filler {
      type: "xavier"
      std: 0.03
    }
    bias_filler {
      type: "constant"
      value: 0.2
    }
  }
}
layer {
  name: "inception_3b/relu_3x3"
  type: "ReLU"
  bottom: "inception_3b/3x3"
  top: "inception_3b/3x3"
}
layer {
  name: "inception_3b/5x5_reduce"
  type: "Convolution"
  bottom: "inception_3a/output"
  top: "inception_3b/5x5_reduce"
  param {
    lr_mult: 1
    decay_mult: 1
  }
  param {
    lr_mult: 2
    decay_mult: 0
  }
  convolution_param {
    num_output: 32
    kernel_size: 1
    weight_filler {
      type: "xavier"
      std: 0.2
    }
    bias_filler {
      type: "constant"
      value: 0.2
    }
  }
}
layer {
  name: "inception_3b/relu_5x5_reduce"
  type: "ReLU"
  bottom: "inception_3b/5x5_reduce"
  top: "inception_3b/5x5_reduce"
}
layer {
  name: "inception_3b/5x5"
  type: "Convolution"
  bottom: "inception_3b/5x5_reduce"
  top: "inception_3b/5x5"
  param {
    lr_mult: 1
    decay_mult: 1
  }
  param {
    lr_mult: 2
    decay_mult: 0
  }
  convolution_param {
    num_output: 96
    pad: 2
    kernel_size: 5
    weight_filler {
      type: "xavier"
      std: 0.03
    }
    bias_filler {
      type: "constant"
      value: 0.2
    }
  }
}
layer {
  name: "inception_3b/relu_5x5"
  type: "ReLU"
  bottom: "inception_3b/5x5"
  top: "inception_3b/5x5"
}
layer {
  name: "inception_3b/pool"
  type: "Pooling"
  bottom: "inception_3a/output"
  top: "inception_3b/pool"
  pooling_param {
    pool: MAX
    kernel_size: 3
    stride: 1
    pad: 1
  }
}
layer {
  name: "inception_3b/pool_proj"
  type: "Convolution"
  bottom: "inception_3b/pool"
  top: "inception_3b/pool_proj"
  param {
    lr_mult: 1
    decay_mult: 1
  }
  param {
    lr_mult: 2
    decay_mult: 0
  }
  convolution_param {
    num_output: 64
    kernel_size: 1
    weight_filler {
      type: "xavier"
      std: 0.1
    }
    bias_filler {
      type: "constant"
      value: 0.2
    }
  }
}
layer {
  name: "inception_3b/relu_pool_proj"
  type: "ReLU"
  bottom: "inception_3b/pool_proj"
  top: "inception_3b/pool_proj"
}
layer {
  name: "inception_3b/output"
  type: "Concat"
  bottom: "inception_3b/1x1"
  bottom: "inception_3b/3x3"
  bottom: "inception_3b/5x5"
  bottom: "inception_3b/pool_proj"
  top: "inception_3b/output"
}
layer {
  name: "pool3/3x3_s2"
  type: "Pooling"
  bottom: "inception_3b/output"
  top: "pool3/3x3_s2"
  pooling_param {
    pool: MAX
    kernel_size: 3
    stride: 2
  }
}
layer {
  name: "inception_4a/1x1"
  type: "Convolution"
  bottom: "pool3/3x3_s2"
  top: "inception_4a/1x1"
  param {
    lr_mult: 1
    decay_mult: 1
  }
  param {
    lr_mult: 2
    decay_mult: 0
  }
  convolution_param {
    num_output: 192
    kernel_size: 1
    weight_filler {
      type: "xavier"
      std: 0.03
    }
    bias_filler {
      type: "constant"
      value: 0.2
    }
  }
}
layer {
  name: "inception_4a/relu_1x1"
  type: "ReLU"
  bottom: "inception_4a/1x1"
  top: "inception_4a/1x1"
}
layer {
  name: "inception_4a/3x3_reduce"
  type: "Convolution"
  bottom: "pool3/3x3_s2"
  top: "inception_4a/3x3_reduce"
  param {
    lr_mult: 1
    decay_mult: 1
  }
  param {
    lr_mult: 2
    decay_mult: 0
  }
  convolution_param {
    num_output: 96
    kernel_size: 1
    weight_filler {
      type: "xavier"
      std: 0.09
    }
    bias_filler {
      type: "constant"
      value: 0.2
    }
  }
}
layer {
  name: "inception_4a/relu_3x3_reduce"
  type: "ReLU"
  bottom: "inception_4a/3x3_reduce"
  top: "inception_4a/3x3_reduce"
}
layer {
  name: "inception_4a/3x3"
  type: "Convolution"
  bottom: "inception_4a/3x3_reduce"
  top: "inception_4a/3x3"
  param {
    lr_mult: 1
    decay_mult: 1
  }
  param {
    lr_mult: 2
    decay_mult: 0
  }
  convolution_param {
    num_output: 208
    pad: 1
    kernel_size: 3
    weight_filler {
      type: "xavier"
      std: 0.03
    }
    bias_filler {
      type: "constant"
      value: 0.2
    }
  }
}
layer {
  name: "inception_4a/relu_3x3"
  type: "ReLU"
  bottom: "inception_4a/3x3"
  top: "inception_4a/3x3"
}
layer {
  name: "inception_4a/5x5_reduce"
  type: "Convolution"
  bottom: "pool3/3x3_s2"
  top: "inception_4a/5x5_reduce"
  param {
    lr_mult: 1
    decay_mult: 1
  }
  param {
    lr_mult: 2
    decay_mult: 0
  }
  convolution_param {
    num_output: 16
    kernel_size: 1
    weight_filler {
      type: "xavier"
      std: 0.2
    }
    bias_filler {
      type: "constant"
      value: 0.2
    }
  }
}
layer {
  name: "inception_4a/relu_5x5_reduce"
  type: "ReLU"
  bottom: "inception_4a/5x5_reduce"
  top: "inception_4a/5x5_reduce"
}
layer {
  name: "inception_4a/5x5"
  type: "Convolution"
  bottom: "inception_4a/5x5_reduce"
  top: "inception_4a/5x5"
  param {
    lr_mult: 1
    decay_mult: 1
  }
  param {
    lr_mult: 2
    decay_mult: 0
  }
  convolution_param {
    num_output: 48
    pad: 2
    kernel_size: 5
    weight_filler {
      type: "xavier"
      std: 0.03
    }
    bias_filler {
      type: "constant"
      value: 0.2
    }
  }
}
layer {
  name: "inception_4a/relu_5x5"
  type: "ReLU"
  bottom: "inception_4a/5x5"
  top: "inception_4a/5x5"
}
layer {
  name: "inception_4a/pool"
  type: "Pooling"
  bottom: "pool3/3x3_s2"
  top: "inception_4a/pool"
  pooling_param {
    pool: MAX
    kernel_size: 3
    stride: 1
    pad: 1
  }
}
layer {
  name: "inception_4a/pool_proj"
  type: "Convolution"
  bottom: "inception_4a/pool"
  top: "inception_4a/pool_proj"
  param {
    lr_mult: 1
    decay_mult: 1
  }
  param {
    lr_mult: 2
    decay_mult: 0
  }
  convolution_param {
    num_output: 64
    kernel_size: 1
    weight_filler {
      type: "xavier"
      std: 0.1
    }
    bias_filler {
      type: "constant"
      value: 0.2
    }
  }
}
layer {
  name: "inception_4a/relu_pool_proj"
  type: "ReLU"
  bottom: "inception_4a/pool_proj"
  top: "inception_4a/pool_proj"
}
layer {
  name: "inception_4a/output"
  type: "Concat"
  bottom: "inception_4a/1x1"
  bottom: "inception_4a/3x3"
  bottom: "inception_4a/5x5"
  bottom: "inception_4a/pool_proj"
  top: "inception_4a/output"
}
layer {
  name: "loss1/ave_pool"
  type: "Pooling"
  bottom: "inception_4a/output"
  top: "loss1/ave_pool"
  pooling_param {
    pool: AVE
    kernel_size: 5
    stride: 3
  }
}
layer {
  name: "loss1/conv"
  type: "Convolution"
  bottom: "loss1/ave_pool"
  top: "loss1/conv"
  param {
    lr_mult: 1
    decay_mult: 1
  }
  param {
    lr_mult: 2
    decay_mult: 0
  }
  convolution_param {
    num_output: 128
    kernel_size: 1
    weight_filler {
      type: "xavier"
      std: 0.08
    }
    bias_filler {
      type: "constant"
      value: 0.2
    }
  }
}
layer {
  name: "loss1/relu_conv"
  type: "ReLU"
  bottom: "loss1/conv"
  top: "loss1/conv"
}
layer {
  name: "loss1/fc"
  type: "InnerProduct"
  bottom: "loss1/conv"
  top: "loss1/fc"
  param {
    lr_mult: 1
    decay_mult: 1
  }
  param {
    lr_mult: 2
    decay_mult: 0
  }
  inner_product_param {
    num_output: 1024
    weight_filler {
      type: "xavier"
      std: 0.02
    }
    bias_filler {
      type: "constant"
      value: 0.2
    }
  }
}
layer {
  name: "loss1/relu_fc"
  type: "ReLU"
  bottom: "loss1/fc"
  top: "loss1/fc"
}
layer {
  name: "loss1/drop_fc"
  type: "Dropout"
  bottom: "loss1/fc"
  top: "loss1/fc"
  dropout_param {
    dropout_ratio: 0.7
  }
}
layer {
  name: "loss1/classifier_plantvillage"
  type: "InnerProduct"
  bottom: "loss1/fc"
  top: "loss1/classifier_plantvillage"
  param {
    lr_mult: 1
    decay_mult: 1
  }
  param {
    lr_mult: 2
    decay_mult: 0
  }
  inner_product_param {
    num_output: 38
    weight_filler {
      type: "xavier"
      std: 0.0009765625
    }
    bias_filler {
      type: "constant"
      value: 0
    }
  }
}
layer {
  name: "inception_4b/1x1"
  type: "Convolution"
  bottom: "inception_4a/output"
  top: "inception_4b/1x1"
  param {
    lr_mult: 1
    decay_mult: 1
  }
  param {
    lr_mult: 2
    decay_mult: 0
  }
  convolution_param {
    num_output: 160
    kernel_size: 1
    weight_filler {
      type: "xavier"
      std: 0.03
    }
    bias_filler {
      type: "constant"
      value: 0.2
    }
  }
}
layer {
  name: "inception_4b/relu_1x1"
  type: "ReLU"
  bottom: "inception_4b/1x1"
  top: "inception_4b/1x1"
}
layer {
  name: "inception_4b/3x3_reduce"
  type: "Convolution"
  bottom: "inception_4a/output"
  top: "inception_4b/3x3_reduce"
  param {
    lr_mult: 1
    decay_mult: 1
  }
  param {
    lr_mult: 2
    decay_mult: 0
  }
  convolution_param {
    num_output: 112
    kernel_size: 1
    weight_filler {
      type: "xavier"
      std: 0.09
    }
    bias_filler {
      type: "constant"
      value: 0.2
    }
  }
}
layer {
  name: "inception_4b/relu_3x3_reduce"
  type: "ReLU"
  bottom: "inception_4b/3x3_reduce"
  top: "inception_4b/3x3_reduce"
}
layer {
  name: "inception_4b/3x3"
  type: "Convolution"
  bottom: "inception_4b/3x3_reduce"
  top: "inception_4b/3x3"
  param {
    lr_mult: 1
    decay_mult: 1
  }
  param {
    lr_mult: 2
    decay_mult: 0
  }
  convolution_param {
    num_output: 224
    pad: 1
    kernel_size: 3
    weight_filler {
      type: "xavier"
      std: 0.03
    }
    bias_filler {
      type: "constant"
      value: 0.2
    }
  }
}
layer {
  name: "inception_4b/relu_3x3"
  type: "ReLU"
  bottom: "inception_4b/3x3"
  top: "inception_4b/3x3"
}
layer {
  name: "inception_4b/5x5_reduce"
  type: "Convolution"
  bottom: "inception_4a/output"
  top: "inception_4b/5x5_reduce"
  param {
    lr_mult: 1
    decay_mult: 1
  }
  param {
    lr_mult: 2
    decay_mult: 0
  }
  convolution_param {
    num_output: 24
    kernel_size: 1
    weight_filler {
      type: "xavier"
      std: 0.2
    }
    bias_filler {
      type: "constant"
      value: 0.2
    }
  }
}
layer {
  name: "inception_4b/relu_5x5_reduce"
  type: "ReLU"
  bottom: "inception_4b/5x5_reduce"
  top: "inception_4b/5x5_reduce"
}
layer {
  name: "inception_4b/5x5"
  type: "Convolution"
  bottom: "inception_4b/5x5_reduce"
  top: "inception_4b/5x5"
  param {
    lr_mult: 1
    decay_mult: 1
  }
  param {
    lr_mult: 2
    decay_mult: 0
  }
  convolution_param {
    num_output: 64
    pad: 2
    kernel_size: 5
    weight_filler {
      type: "xavier"
      std: 0.03
    }
    bias_filler {
      type: "constant"
      value: 0.2
    }
  }
}
layer {
  name: "inception_4b/relu_5x5"
  type: "ReLU"
  bottom: "inception_4b/5x5"
  top: "inception_4b/5x5"
}
layer {
  name: "inception_4b/pool"
  type: "Pooling"
  bottom: "inception_4a/output"
  top: "inception_4b/pool"
  pooling_param {
    pool: MAX
    kernel_size: 3
    stride: 1
    pad: 1
  }
}
layer {
  name: "inception_4b/pool_proj"
  type: "Convolution"
  bottom: "inception_4b/pool"
  top: "inception_4b/pool_proj"
  param {
    lr_mult: 1
    decay_mult: 1
  }
  param {
    lr_mult: 2
    decay_mult: 0
  }
  convolution_param {
    num_output: 64
    kernel_size: 1
    weight_filler {
      type: "xavier"
      std: 0.1
    }
    bias_filler {
      type: "constant"
      value: 0.2
    }
  }
}
layer {
  name: "inception_4b/relu_pool_proj"
  type: "ReLU"
  bottom: "inception_4b/pool_proj"
  top: "inception_4b/pool_proj"
}
layer {
  name: "inception_4b/output"
  type: "Concat"
  bottom: "inception_4b/1x1"
  bottom: "inception_4b/3x3"
  bottom: "inception_4b/5x5"
  bottom: "inception_4b/pool_proj"
  top: "inception_4b/output"
}
layer {
  name: "inception_4c/1x1"
  type: "Convolution"
  bottom: "inception_4b/output"
  top: "inception_4c/1x1"
  param {
    lr_mult: 1
    decay_mult: 1
  }
  param {
    lr_mult: 2
    decay_mult: 0
  }
  convolution_param {
    num_output: 128
    kernel_size: 1
    weight_filler {
      type: "xavier"
      std: 0.03
    }
    bias_filler {
      type: "constant"
      value: 0.2
    }
  }
}
layer {
  name: "inception_4c/relu_1x1"
  type: "ReLU"
  bottom: "inception_4c/1x1"
  top: "inception_4c/1x1"
}
layer {
  name: "inception_4c/3x3_reduce"
  type: "Convolution"
  bottom: "inception_4b/output"
  top: "inception_4c/3x3_reduce"
  param {
    lr_mult: 1
    decay_mult: 1
  }
  param {
    lr_mult: 2
    decay_mult: 0
  }
  convolution_param {
    num_output: 128
    kernel_size: 1
    weight_filler {
      type: "xavier"
      std: 0.09
    }
    bias_filler {
      type: "constant"
      value: 0.2
    }
  }
}
layer {
  name: "inception_4c/relu_3x3_reduce"
  type: "ReLU"
  bottom: "inception_4c/3x3_reduce"
  top: "inception_4c/3x3_reduce"
}
layer {
  name: "inception_4c/3x3"
  type: "Convolution"
  bottom: "inception_4c/3x3_reduce"
  top: "inception_4c/3x3"
  param {
    lr_mult: 1
    decay_mult: 1
  }
  param {
    lr_mult: 2
    decay_mult: 0
  }
  convolution_param {
    num_output: 256
    pad: 1
    kernel_size: 3
    weight_filler {
      type: "xavier"
      std: 0.03
    }
    bias_filler {
      type: "constant"
      value: 0.2
    }
  }
}
layer {
  name: "inception_4c/relu_3x3"
  type: "ReLU"
  bottom: "inception_4c/3x3"
  top: "inception_4c/3x3"
}
layer {
  name: "inception_4c/5x5_reduce"
  type: "Convolution"
  bottom: "inception_4b/output"
  top: "inception_4c/5x5_reduce"
  param {
    lr_mult: 1
    decay_mult: 1
  }
  param {
    lr_mult: 2
    decay_mult: 0
  }
  convolution_param {
    num_output: 24
    kernel_size: 1
    weight_filler {
      type: "xavier"
      std: 0.2
    }
    bias_filler {
      type: "constant"
      value: 0.2
    }
  }
}
layer {
  name: "inception_4c/relu_5x5_reduce"
  type: "ReLU"
  bottom: "inception_4c/5x5_reduce"
  top: "inception_4c/5x5_reduce"
}
layer {
  name: "inception_4c/5x5"
  type: "Convolution"
  bottom: "inception_4c/5x5_reduce"
  top: "inception_4c/5x5"
  param {
    lr_mult: 1
    decay_mult: 1
  }
  param {
    lr_mult: 2
    decay_mult: 0
  }
  convolution_param {
    num_output: 64
    pad: 2
    kernel_size: 5
    weight_filler {
      type: "xavier"
      std: 0.03
    }
    bias_filler {
      type: "constant"
      value: 0.2
    }
  }
}
layer {
  name: "inception_4c/relu_5x5"
  type: "ReLU"
  bottom: "inception_4c/5x5"
  top: "inception_4c/5x5"
}
layer {
  name: "inception_4c/pool"
  type: "Pooling"
  bottom: "inception_4b/output"
  top: "inception_4c/pool"
  pooling_param {
    pool: MAX
    kernel_size: 3
    stride: 1
    pad: 1
  }
}
layer {
  name: "inception_4c/pool_proj"
  type: "Convolution"
  bottom: "inception_4c/pool"
  top: "inception_4c/pool_proj"
  param {
    lr_mult: 1
    decay_mult: 1
  }
  param {
    lr_mult: 2
    decay_mult: 0
  }
  convolution_param {
    num_output: 64
    kernel_size: 1
    weight_filler {
      type: "xavier"
      std: 0.1
    }
    bias_filler {
      type: "constant"
      value: 0.2
    }
  }
}
layer {
  name: "inception_4c/relu_pool_proj"
  type: "ReLU"
  bottom: "inception_4c/pool_proj"
  top: "inception_4c/pool_proj"
}
layer {
  name: "inception_4c/output"
  type: "Concat"
  bottom: "inception_4c/1x1"
  bottom: "inception_4c/3x3"
  bottom: "inception_4c/5x5"
  bottom: "inception_4c/pool_proj"
  top: "inception_4c/output"
}
layer {
  name: "inception_4d/1x1"
  type: "Convolution"
  bottom: "inception_4c/output"
  top: "inception_4d/1x1"
  param {
    lr_mult: 1
    decay_mult: 1
  }
  param {
    lr_mult: 2
    decay_mult: 0
  }
  convolution_param {
    num_output: 112
    kernel_size: 1
    weight_filler {
      type: "xavier"
      std: 0.03
    }
    bias_filler {
      type: "constant"
      value: 0.2
    }
  }
}
layer {
  name: "inception_4d/relu_1x1"
  type: "ReLU"
  bottom: "inception_4d/1x1"
  top: "inception_4d/1x1"
}
layer {
  name: "inception_4d/3x3_reduce"
  type: "Convolution"
  bottom: "inception_4c/output"
  top: "inception_4d/3x3_reduce"
  param {
    lr_mult: 1
    decay_mult: 1
  }
  param {
    lr_mult: 2
    decay_mult: 0
  }
  convolution_param {
    num_output: 144
    kernel_size: 1
    weight_filler {
      type: "xavier"
      std: 0.09
    }
    bias_filler {
      type: "constant"
      value: 0.2
    }
  }
}
layer {
  name: "inception_4d/relu_3x3_reduce"
  type: "ReLU"
  bottom: "inception_4d/3x3_reduce"
  top: "inception_4d/3x3_reduce"
}
layer {
  name: "inception_4d/3x3"
  type: "Convolution"
  bottom: "inception_4d/3x3_reduce"
  top: "inception_4d/3x3"
  param {
    lr_mult: 1
    decay_mult: 1
  }
  param {
    lr_mult: 2
    decay_mult: 0
  }
  convolution_param {
    num_output: 288
    pad: 1
    kernel_size: 3
    weight_filler {
      type: "xavier"
      std: 0.03
    }
    bias_filler {
      type: "constant"
      value: 0.2
    }
  }
}
layer {
  name: "inception_4d/relu_3x3"
  type: "ReLU"
  bottom: "inception_4d/3x3"
  top: "inception_4d/3x3"
}
layer {
  name: "inception_4d/5x5_reduce"
  type: "Convolution"
  bottom: "inception_4c/output"
  top: "inception_4d/5x5_reduce"
  param {
    lr_mult: 1
    decay_mult: 1
  }
  param {
    lr_mult: 2
    decay_mult: 0
  }
  convolution_param {
    num_output: 32
    kernel_size: 1
    weight_filler {
      type: "xavier"
      std: 0.2
    }
    bias_filler {
      type: "constant"
      value: 0.2
    }
  }
}
layer {
  name: "inception_4d/relu_5x5_reduce"
  type: "ReLU"
  bottom: "inception_4d/5x5_reduce"
  top: "inception_4d/5x5_reduce"
}
layer {
  name: "inception_4d/5x5"
  type: "Convolution"
  bottom: "inception_4d/5x5_reduce"
  top: "inception_4d/5x5"
  param {
    lr_mult: 1
    decay_mult: 1
  }
  param {
    lr_mult: 2
    decay_mult: 0
  }
  convolution_param {
    num_output: 64
    pad: 2
    kernel_size: 5
    weight_filler {
      type: "xavier"
      std: 0.03
    }
    bias_filler {
      type: "constant"
      value: 0.2
    }
  }
}
layer {
  name: "inception_4d/relu_5x5"
  type: "ReLU"
  bottom: "inception_4d/5x5"
  top: "inception_4d/5x5"
}
layer {
  name: "inception_4d/pool"
  type: "Pooling"
  bottom: "inception_4c/output"
  top: "inception_4d/pool"
  pooling_param {
    pool: MAX
    kernel_size: 3
    stride: 1
    pad: 1
  }
}
layer {
  name: "inception_4d/pool_proj"
  type: "Convolution"
  bottom: "inception_4d/pool"
  top: "inception_4d/pool_proj"
  param {
    lr_mult: 1
    decay_mult: 1
  }
  param {
    lr_mult: 2
    decay_mult: 0
  }
  convolution_param {
    num_output: 64
    kernel_size: 1
    weight_filler {
      type: "xavier"
      std: 0.1
    }
    bias_filler {
      type: "constant"
      value: 0.2
    }
  }
}
layer {
  name: "inception_4d/relu_pool_proj"
  type: "ReLU"
  bottom: "inception_4d/pool_proj"
  top: "inception_4d/pool_proj"
}
layer {
  name: "inception_4d/output"
  type: "Concat"
  bottom: "inception_4d/1x1"
  bottom: "inception_4d/3x3"
  bottom: "inception_4d/5x5"
  bottom: "inception_4d/pool_proj"
  top: "inception_4d/output"
}
layer {
  name: "loss2/ave_pool"
  type: "Pooling"
  bottom: "inception_4d/output"
  top: "loss2/ave_pool"
  pooling_param {
    pool: AVE
    kernel_size: 5
    stride: 3
  }
}
layer {
  name: "loss2/conv"
  type: "Convolution"
  bottom: "loss2/ave_pool"
  top: "loss2/conv"
  param {
    lr_mult: 1
    decay_mult: 1
  }
  param {
    lr_mult: 2
    decay_mult: 0
  }
  convolution_param {
    num_output: 128
    kernel_size: 1
    weight_filler {
      type: "xavier"
      std: 0.08
    }
    bias_filler {
      type: "constant"
      value: 0.2
    }
  }
}
layer {
  name: "loss2/relu_conv"
  type: "ReLU"
  bottom: "loss2/conv"
  top: "loss2/conv"
}
layer {
  name: "loss2/fc"
  type: "InnerProduct"
  bottom: "loss2/conv"
  top: "loss2/fc"
  param {
    lr_mult: 1
    decay_mult: 1
  }
  param {
    lr_mult: 2
    decay_mult: 0
  }
  inner_product_param {
    num_output: 1024
    weight_filler {
      type: "xavier"
      std: 0.02
    }
    bias_filler {
      type: "constant"
      value: 0.2
    }
  }
}
layer {
  name: "loss2/relu_fc"
  type: "ReLU"
  bottom: "loss2/fc"
  top: "loss2/fc"
}
layer {
  name: "loss2/drop_fc"
  type: "Dropout"
  bottom: "loss2/fc"
  top: "loss2/fc"
  dropout_param {
    dropout_ratio: 0.7
  }
}
layer {
  name: "loss2/classifier_plantvillage"
  type: "InnerProduct"
  bottom: "loss2/fc"
  top: "loss2/classifier_plantvillage"
  param {
    lr_mult: 1
    decay_mult: 1
  }
  param {
    lr_mult: 2
    decay_mult: 0
  }
  inner_product_param {
    num_output: 38
    weight_filler {
      type: "xavier"
      std: 0.0009765625
    }
    bias_filler {
      type: "constant"
      value: 0
    }
  }
}
layer {
  name: "inception_4e/1x1"
  type: "Convolution"
  bottom: "inception_4d/output"
  top: "inception_4e/1x1"
  param {
    lr_mult: 1
    decay_mult: 1
  }
  param {
    lr_mult: 2
    decay_mult: 0
  }
  convolution_param {
    num_output: 256
    kernel_size: 1
    weight_filler {
      type: "xavier"
      std: 0.03
    }
    bias_filler {
      type: "constant"
      value: 0.2
    }
  }
}
layer {
  name: "inception_4e/relu_1x1"
  type: "ReLU"
  bottom: "inception_4e/1x1"
  top: "inception_4e/1x1"
}
layer {
  name: "inception_4e/3x3_reduce"
  type: "Convolution"
  bottom: "inception_4d/output"
  top: "inception_4e/3x3_reduce"
  param {
    lr_mult: 1
    decay_mult: 1
  }
  param {
    lr_mult: 2
    decay_mult: 0
  }
  convolution_param {
    num_output: 160
    kernel_size: 1
    weight_filler {
      type: "xavier"
      std: 0.09
    }
    bias_filler {
      type: "constant"
      value: 0.2
    }
  }
}
layer {
  name: "inception_4e/relu_3x3_reduce"
  type: "ReLU"
  bottom: "inception_4e/3x3_reduce"
  top: "inception_4e/3x3_reduce"
}
layer {
  name: "inception_4e/3x3"
  type: "Convolution"
  bottom: "inception_4e/3x3_reduce"
  top: "inception_4e/3x3"
  param {
    lr_mult: 1
    decay_mult: 1
  }
  param {
    lr_mult: 2
    decay_mult: 0
  }
  convolution_param {
    num_output: 320
    pad: 1
    kernel_size: 3
    weight_filler {
      type: "xavier"
      std: 0.03
    }
    bias_filler {
      type: "constant"
      value: 0.2
    }
  }
}
layer {
  name: "inception_4e/relu_3x3"
  type: "ReLU"
  bottom: "inception_4e/3x3"
  top: "inception_4e/3x3"
}
layer {
  name: "inception_4e/5x5_reduce"
  type: "Convolution"
  bottom: "inception_4d/output"
  top: "inception_4e/5x5_reduce"
  param {
    lr_mult: 1
    decay_mult: 1
  }
  param {
    lr_mult: 2
    decay_mult: 0
  }
  convolution_param {
    num_output: 32
    kernel_size: 1
    weight_filler {
      type: "xavier"
      std: 0.2
    }
    bias_filler {
      type: "constant"
      value: 0.2
    }
  }
}
layer {
  name: "inception_4e/relu_5x5_reduce"
  type: "ReLU"
  bottom: "inception_4e/5x5_reduce"
  top: "inception_4e/5x5_reduce"
}
layer {
  name: "inception_4e/5x5"
  type: "Convolution"
  bottom: "inception_4e/5x5_reduce"
  top: "inception_4e/5x5"
 
I0403 09:07:31.708962  6091 layer_factory.hpp:77] Creating layer data
I0403 09:07:31.709750  6091 net.cpp:91] Creating Layer data
I0403 09:07:31.709796  6091 net.cpp:399] data -> data
I0403 09:07:31.709864  6091 net.cpp:399] data -> label
I0403 09:07:31.709908  6091 data_transformer.cpp:25] Loading mean file from: /home/mohanty/data/final_dataset/lmdb/color-40-60/mean.binaryproto
I0403 09:07:31.740660  6095 db_lmdb.cpp:38] Opened lmdb /home/mohanty/data/final_dataset/lmdb/color-40-60/train_db
I0403 09:07:31.756667  6091 data_layer.cpp:41] output data size: 24,3,224,224
I0403 09:07:31.787693  6091 net.cpp:141] Setting up data
I0403 09:07:31.787780  6091 net.cpp:148] Top shape: 24 3 224 224 (3612672)
I0403 09:07:31.787806  6091 net.cpp:148] Top shape: 24 (24)
I0403 09:07:31.787825  6091 net.cpp:156] Memory required for data: 14450784
I0403 09:07:31.787900  6091 layer_factory.hpp:77] Creating layer label_data_1_split
I0403 09:07:31.787940  6091 net.cpp:91] Creating Layer label_data_1_split
I0403 09:07:31.787964  6091 net.cpp:425] label_data_1_split <- label
I0403 09:07:31.788002  6091 net.cpp:399] label_data_1_split -> label_data_1_split_0
I0403 09:07:31.788035  6091 net.cpp:399] label_data_1_split -> label_data_1_split_1
I0403 09:07:31.788060  6091 net.cpp:399] label_data_1_split -> label_data_1_split_2
I0403 09:07:31.788139  6091 net.cpp:141] Setting up label_data_1_split
I0403 09:07:31.788168  6091 net.cpp:148] Top shape: 24 (24)
I0403 09:07:31.788188  6091 net.cpp:148] Top shape: 24 (24)
I0403 09:07:31.788208  6091 net.cpp:148] Top shape: 24 (24)
I0403 09:07:31.788224  6091 net.cpp:156] Memory required for data: 14451072
I0403 09:07:31.788242  6091 layer_factory.hpp:77] Creating layer conv1/7x7_s2
I0403 09:07:31.788285  6091 net.cpp:91] Creating Layer conv1/7x7_s2
I0403 09:07:31.788306  6091 net.cpp:425] conv1/7x7_s2 <- data
I0403 09:07:31.788332  6091 net.cpp:399] conv1/7x7_s2 -> conv1/7x7_s2
I0403 09:07:31.789415  6091 net.cpp:141] Setting up conv1/7x7_s2
I0403 09:07:31.789451  6091 net.cpp:148] Top shape: 24 64 112 112 (19267584)
I0403 09:07:31.789471  6091 net.cpp:156] Memory required for data: 91521408
I0403 09:07:31.789515  6091 layer_factory.hpp:77] Creating layer conv1/relu_7x7
I0403 09:07:31.789546  6091 net.cpp:91] Creating Layer conv1/relu_7x7
I0403 09:07:31.789568  6091 net.cpp:425] conv1/relu_7x7 <- conv1/7x7_s2
I0403 09:07:31.789590  6091 net.cpp:386] conv1/relu_7x7 -> conv1/7x7_s2 (in-place)
I0403 09:07:31.789623  6091 net.cpp:141] Setting up conv1/relu_7x7
I0403 09:07:31.789647  6091 net.cpp:148] Top shape: 24 64 112 112 (19267584)
I0403 09:07:31.789664  6091 net.cpp:156] Memory required for data: 168591744
I0403 09:07:31.789682  6091 layer_factory.hpp:77] Creating layer pool1/3x3_s2
I0403 09:07:31.789707  6091 net.cpp:91] Creating Layer pool1/3x3_s2
I0403 09:07:31.789726  6091 net.cpp:425] pool1/3x3_s2 <- conv1/7x7_s2
I0403 09:07:31.789747  6091 net.cpp:399] pool1/3x3_s2 -> pool1/3x3_s2
I0403 09:07:31.789826  6091 net.cpp:141] Setting up pool1/3x3_s2
I0403 09:07:31.789855  6091 net.cpp:148] Top shape: 24 64 56 56 (4816896)
I0403 09:07:31.789875  6091 net.cpp:156] Memory required for data: 187859328
I0403 09:07:31.789893  6091 layer_factory.hpp:77] Creating layer pool1/norm1
I0403 09:07:31.789917  6091 net.cpp:91] Creating Layer pool1/norm1
I0403 09:07:31.789935  6091 net.cpp:425] pool1/norm1 <- pool1/3x3_s2
I0403 09:07:31.789958  6091 net.cpp:399] pool1/norm1 -> pool1/norm1
I0403 09:07:31.790019  6091 net.cpp:141] Setting up pool1/norm1
I0403 09:07:31.790046  6091 net.cpp:148] Top shape: 24 64 56 56 (4816896)
I0403 09:07:31.790066  6091 net.cpp:156] Memory required for data: 207126912
I0403 09:07:31.790083  6091 layer_factory.hpp:77] Creating layer conv2/3x3_reduce
I0403 09:07:31.790110  6091 net.cpp:91] Creating Layer conv2/3x3_reduce
I0403 09:07:31.790130  6091 net.cpp:425] conv2/3x3_reduce <- pool1/norm1
I0403 09:07:31.790155  6091 net.cpp:399] conv2/3x3_reduce -> conv2/3x3_reduce
I0403 09:07:31.791020  6091 net.cpp:141] Setting up conv2/3x3_reduce
I0403 09:07:31.791055  6091 net.cpp:148] Top shape: 24 64 56 56 (4816896)
I0403 09:07:31.791074  6091 net.cpp:156] Memory required for data: 226394496
I0403 09:07:31.791100  6091 layer_factory.hpp:77] Creating layer conv2/relu_3x3_reduce
I0403 09:07:31.791123  6091 net.cpp:91] Creating Layer conv2/relu_3x3_reduce
I0403 09:07:31.791143  6091 net.cpp:425] conv2/relu_3x3_reduce <- conv2/3x3_reduce
I0403 09:07:31.791167  6091 net.cpp:386] conv2/relu_3x3_reduce -> conv2/3x3_reduce (in-place)
I0403 09:07:31.791189  6091 net.cpp:141] Setting up conv2/relu_3x3_reduce
I0403 09:07:31.791210  6091 net.cpp:148] Top shape: 24 64 56 56 (4816896)
I0403 09:07:31.791229  6091 net.cpp:156] Memory required for data: 245662080
I0403 09:07:31.791245  6091 layer_factory.hpp:77] Creating layer conv2/3x3
I0403 09:07:31.791273  6091 net.cpp:91] Creating Layer conv2/3x3
I0403 09:07:31.791293  6091 net.cpp:425] conv2/3x3 <- conv2/3x3_reduce
I0403 09:07:31.791340  6091 net.cpp:399] conv2/3x3 -> conv2/3x3
I0403 09:07:31.794092  6091 net.cpp:141] Setting up conv2/3x3
I0403 09:07:31.794138  6091 net.cpp:148] Top shape: 24 192 56 56 (14450688)
I0403 09:07:31.794159  6091 net.cpp:156] Memory required for data: 303464832
I0403 09:07:31.794186  6091 layer_factory.hpp:77] Creating layer conv2/relu_3x3
I0403 09:07:31.794210  6091 net.cpp:91] Creating Layer conv2/relu_3x3
I0403 09:07:31.794231  6091 net.cpp:425] conv2/relu_3x3 <- conv2/3x3
I0403 09:07:31.794255  6091 net.cpp:386] conv2/relu_3x3 -> conv2/3x3 (in-place)
I0403 09:07:31.794278  6091 net.cpp:141] Setting up conv2/relu_3x3
I0403 09:07:31.794299  6091 net.cpp:148] Top shape: 24 192 56 56 (14450688)
I0403 09:07:31.794317  6091 net.cpp:156] Memory required for data: 361267584
I0403 09:07:31.794334  6091 layer_factory.hpp:77] Creating layer conv2/norm2
I0403 09:07:31.794356  6091 net.cpp:91] Creating Layer conv2/norm2
I0403 09:07:31.794375  6091 net.cpp:425] conv2/norm2 <- conv2/3x3
I0403 09:07:31.794397  6091 net.cpp:399] conv2/norm2 -> conv2/norm2
I0403 09:07:31.794453  6091 net.cpp:141] Setting up conv2/norm2
I0403 09:07:31.794481  6091 net.cpp:148] Top shape: 24 192 56 56 (14450688)
I0403 09:07:31.794498  6091 net.cpp:156] Memory required for data: 419070336
I0403 09:07:31.794517  6091 layer_factory.hpp:77] Creating layer pool2/3x3_s2
I0403 09:07:31.794539  6091 net.cpp:91] Creating Layer pool2/3x3_s2
I0403 09:07:31.794560  6091 net.cpp:425] pool2/3x3_s2 <- conv2/norm2
I0403 09:07:31.794581  6091 net.cpp:399] pool2/3x3_s2 -> pool2/3x3_s2
I0403 09:07:31.794639  6091 net.cpp:141] Setting up pool2/3x3_s2
I0403 09:07:31.794667  6091 net.cpp:148] Top shape: 24 192 28 28 (3612672)
I0403 09:07:31.794685  6091 net.cpp:156] Memory required for data: 433521024
I0403 09:07:31.794698  6097 blocking_queue.cpp:50] Waiting for data
I0403 09:07:31.794704  6091 layer_factory.hpp:77] Creating layer pool2/3x3_s2_pool2/3x3_s2_0_split
I0403 09:07:31.794765  6091 net.cpp:91] Creating Layer pool2/3x3_s2_pool2/3x3_s2_0_split
I0403 09:07:31.794787  6091 net.cpp:425] pool2/3x3_s2_pool2/3x3_s2_0_split <- pool2/3x3_s2
I0403 09:07:31.794809  6091 net.cpp:399] pool2/3x3_s2_pool2/3x3_s2_0_split -> pool2/3x3_s2_pool2/3x3_s2_0_split_0
I0403 09:07:31.794833  6091 net.cpp:399] pool2/3x3_s2_pool2/3x3_s2_0_split -> pool2/3x3_s2_pool2/3x3_s2_0_split_1
I0403 09:07:31.794858  6091 net.cpp:399] pool2/3x3_s2_pool2/3x3_s2_0_split -> pool2/3x3_s2_pool2/3x3_s2_0_split_2
I0403 09:07:31.794883  6091 net.cpp:399] pool2/3x3_s2_pool2/3x3_s2_0_split -> pool2/3x3_s2_pool2/3x3_s2_0_split_3
I0403 09:07:31.794955  6091 net.cpp:141] Setting up pool2/3x3_s2_pool2/3x3_s2_0_split
I0403 09:07:31.794996  6091 net.cpp:148] Top shape: 24 192 28 28 (3612672)
I0403 09:07:31.795014  6091 net.cpp:148] Top shape: 24 192 28 28 (3612672)
I0403 09:07:31.795034  6091 net.cpp:148] Top shape: 24 192 28 28 (3612672)
I0403 09:07:31.795053  6091 net.cpp:148] Top shape: 24 192 28 28 (3612672)
I0403 09:07:31.795071  6091 net.cpp:156] Memory required for data: 491323776
I0403 09:07:31.795089  6091 layer_factory.hpp:77] Creating layer inception_3a/1x1
I0403 09:07:31.795117  6091 net.cpp:91] Creating Layer inception_3a/1x1
I0403 09:07:31.795138  6091 net.cpp:425] inception_3a/1x1 <- pool2/3x3_s2_pool2/3x3_s2_0_split_0
I0403 09:07:31.795162  6091 net.cpp:399] inception_3a/1x1 -> inception_3a/1x1
I0403 09:07:31.796113  6091 net.cpp:141] Setting up inception_3a/1x1
I0403 09:07:31.796149  6091 net.cpp:148] Top shape: 24 64 28 28 (1204224)
I0403 09:07:31.796169  6091 net.cpp:156] Memory required for data: 496140672
I0403 09:07:31.796195  6091 layer_factory.hpp:77] Creating layer inception_3a/relu_1x1
I0403 09:07:31.796217  6091 net.cpp:91] Creating Layer inception_3a/relu_1x1
I0403 09:07:31.796237  6091 net.cpp:425] inception_3a/relu_1x1 <- inception_3a/1x1
I0403 09:07:31.796259  6091 net.cpp:386] inception_3a/relu_1x1 -> inception_3a/1x1 (in-place)
I0403 09:07:31.796284  6091 net.cpp:141] Setting up inception_3a/relu_1x1
I0403 09:07:31.796314  6091 net.cpp:148] Top shape: 24 64 28 28 (1204224)
I0403 09:07:31.796355  6091 net.cpp:156] Memory required for data: 500957568
I0403 09:07:31.796376  6091 layer_factory.hpp:77] Creating layer inception_3a/3x3_reduce
I0403 09:07:31.796406  6091 net.cpp:91] Creating Layer inception_3a/3x3_reduce
I0403 09:07:31.796427  6091 net.cpp:425] inception_3a/3x3_reduce <- pool2/3x3_s2_pool2/3x3_s2_0_split_1
I0403 09:07:31.796452  6091 net.cpp:399] inception_3a/3x3_reduce -> inception_3a/3x3_reduce
I0403 09:07:31.797478  6091 net.cpp:141] Setting up inception_3a/3x3_reduce
I0403 09:07:31.797514  6091 net.cpp:148] Top shape: 24 96 28 28 (1806336)
I0403 09:07:31.797534  6091 net.cpp:156] Memory required for data: 508182912
I0403 09:07:31.797560  6091 layer_factory.hpp:77] Creating layer inception_3a/relu_3x3_reduce
I0403 09:07:31.797591  6091 net.cpp:91] Creating Layer inception_3a/relu_3x3_reduce
I0403 09:07:31.797621  6091 net.cpp:425] inception_3a/relu_3x3_reduce <- inception_3a/3x3_reduce
I0403 09:07:31.797644  6091 net.cpp:386] inception_3a/relu_3x3_reduce -> inception_3a/3x3_reduce (in-place)
I0403 09:07:31.797669  6091 net.cpp:141] Setting up inception_3a/relu_3x3_reduce
I0403 09:07:31.797691  6091 net.cpp:148] Top shape: 24 96 28 28 (1806336)
I0403 09:07:31.797710  6091 net.cpp:156] Memory required for data: 515408256
I0403 09:07:31.797729  6091 layer_factory.hpp:77] Creating layer inception_3a/3x3
I0403 09:07:31.797765  6091 net.cpp:91] Creating Layer inception_3a/3x3
I0403 09:07:31.797785  6091 net.cpp:425] inception_3a/3x3 <- inception_3a/3x3_reduce
I0403 09:07:31.797814  6091 net.cpp:399] inception_3a/3x3 -> inception_3a/3x3
I0403 09:07:31.798831  6091 net.cpp:141] Setting up inception_3a/3x3
I0403 09:07:31.798866  6091 net.cpp:148] Top shape: 24 128 28 28 (2408448)
I0403 09:07:31.798884  6091 net.cpp:156] Memory required for data: 525042048
I0403 09:07:31.798907  6091 layer_factory.hpp:77] Creating layer inception_3a/relu_3x3
I0403 09:07:31.798931  6091 net.cpp:91] Creating Layer inception_3a/relu_3x3
I0403 09:07:31.798952  6091 net.cpp:425] inception_3a/relu_3x3 <- inception_3a/3x3
I0403 09:07:31.798974  6091 net.cpp:386] inception_3a/relu_3x3 -> inception_3a/3x3 (in-place)
I0403 09:07:31.798998  6091 net.cpp:141] Setting up inception_3a/relu_3x3
I0403 09:07:31.799020  6091 net.cpp:148] Top shape: 24 128 28 28 (2408448)
I0403 09:07:31.799037  6091 net.cpp:156] Memory required for data: 534675840
I0403 09:07:31.799055  6091 layer_factory.hpp:77] Creating layer inception_3a/5x5_reduce
I0403 09:07:31.799085  6091 net.cpp:91] Creating Layer inception_3a/5x5_reduce
I0403 09:07:31.799108  6091 net.cpp:425] inception_3a/5x5_reduce <- pool2/3x3_s2_pool2/3x3_s2_0_split_2
I0403 09:07:31.799132  6091 net.cpp:399] inception_3a/5x5_reduce -> inception_3a/5x5_reduce
I0403 09:07:31.799412  6091 net.cpp:141] Setting up inception_3a/5x5_reduce
I0403 09:07:31.799443  6091 net.cpp:148] Top shape: 24 16 28 28 (301056)
I0403 09:07:31.799461  6091 net.cpp:156] Memory required for data: 535880064
I0403 09:07:31.799484  6091 layer_factory.hpp:77] Creating layer inception_3a/relu_5x5_reduce
I0403 09:07:31.799510  6091 net.cpp:91] Creating Layer inception_3a/relu_5x5_reduce
I0403 09:07:31.799532  6091 net.cpp:425] inception_3a/relu_5x5_reduce <- inception_3a/5x5_reduce
I0403 09:07:31.799556  6091 net.cpp:386] inception_3a/relu_5x5_reduce -> inception_3a/5x5_reduce (in-place)
I0403 09:07:31.799578  6091 net.cpp:141] Setting up inception_3a/relu_5x5_reduce
I0403 09:07:31.799604  6091 net.cpp:148] Top shape: 24 16 28 28 (301056)
I0403 09:07:31.799624  6091 net.cpp:156] Memory required for data: 537084288
I0403 09:07:31.799643  6091 layer_factory.hpp:77] Creating layer inception_3a/5x5
I0403 09:07:31.799674  6091 net.cpp:91] Creating Layer inception_3a/5x5
I0403 09:07:31.799696  6091 net.cpp:425] inception_3a/5x5 <- inception_3a/5x5_reduce
I0403 09:07:31.799723  6091 net.cpp:399] inception_3a/5x5 -> inception_3a/5x5
I0403 09:07:31.800061  6091 net.cpp:141] Setting up inception_3a/5x5
I0403 09:07:31.800093  6091 net.cpp:148] Top shape: 24 32 28 28 (602112)
I0403 09:07:31.800132  6091 net.cpp:156] Memory required for data: 539492736
I0403 09:07:31.800156  6091 layer_factory.hpp:77] Creating layer inception_3a/relu_5x5
I0403 09:07:31.800180  6091 net.cpp:91] Creating Layer inception_3a/relu_5x5
I0403 09:07:31.800201  6091 net.cpp:425] inception_3a/relu_5x5 <- inception_3a/5x5
I0403 09:07:31.800223  6091 net.cpp:386] inception_3a/relu_5x5 -> inception_3a/5x5 (in-place)
I0403 09:07:31.800247  6091 net.cpp:141] Setting up inception_3a/relu_5x5
I0403 09:07:31.800271  6091 net.cpp:148] Top shape: 24 32 28 28 (602112)
I0403 09:07:31.800289  6091 net.cpp:156] Memory required for data: 541901184
I0403 09:07:31.800307  6091 layer_factory.hpp:77] Creating layer inception_3a/pool
I0403 09:07:31.800335  6091 net.cpp:91] Creating Layer inception_3a/pool
I0403 09:07:31.800357  6091 net.cpp:425] inception_3a/pool <- pool2/3x3_s2_pool2/3x3_s2_0_split_3
I0403 09:07:31.800380  6091 net.cpp:399] inception_3a/pool -> inception_3a/pool
I0403 09:07:31.800446  6091 net.cpp:141] Setting up inception_3a/pool
I0403 09:07:31.800475  6091 net.cpp:148] Top shape: 24 192 28 28 (3612672)
I0403 09:07:31.800494  6091 net.cpp:156] Memory required for data: 556351872
I0403 09:07:31.800513  6091 layer_factory.hpp:77] Creating layer inception_3a/pool_proj
I0403 09:07:31.800544  6091 net.cpp:91] Creating Layer inception_3a/pool_proj
I0403 09:07:31.800568  6091 net.cpp:425] inception_3a/pool_proj <- inception_3a/pool
I0403 09:07:31.800593  6091 net.cpp:399] inception_3a/pool_proj -> inception_3a/pool_proj
I0403 09:07:31.800885  6091 net.cpp:141] Setting up inception_3a/pool_proj
I0403 09:07:31.800917  6091 net.cpp:148] Top shape: 24 32 28 28 (602112)
I0403 09:07:31.800935  6091 net.cpp:156] Memory required for data: 558760320
I0403 09:07:31.800966  6091 layer_factory.hpp:77] Creating layer inception_3a/relu_pool_proj
I0403 09:07:31.800992  6091 net.cpp:91] Creating Layer inception_3a/relu_pool_proj
I0403 09:07:31.801012  6091 net.cpp:425] inception_3a/relu_pool_proj <- inception_3a/pool_proj
I0403 09:07:31.801035  6091 net.cpp:386] inception_3a/relu_pool_proj -> inception_3a/pool_proj (in-place)
I0403 09:07:31.801059  6091 net.cpp:141] Setting up inception_3a/relu_pool_proj
I0403 09:07:31.801081  6091 net.cpp:148] Top shape: 24 32 28 28 (602112)
I0403 09:07:31.801100  6091 net.cpp:156] Memory required for data: 561168768
I0403 09:07:31.801117  6091 layer_factory.hpp:77] Creating layer inception_3a/output
I0403 09:07:31.801141  6091 net.cpp:91] Creating Layer inception_3a/output
I0403 09:07:31.801161  6091 net.cpp:425] inception_3a/output <- inception_3a/1x1
I0403 09:07:31.801182  6091 net.cpp:425] inception_3a/output <- inception_3a/3x3
I0403 09:07:31.801201  6091 net.cpp:425] inception_3a/output <- inception_3a/5x5
I0403 09:07:31.801220  6091 net.cpp:425] inception_3a/output <- inception_3a/pool_proj
I0403 09:07:31.801245  6091 net.cpp:399] inception_3a/output -> inception_3a/output
I0403 09:07:31.801302  6091 net.cpp:141] Setting up inception_3a/output
I0403 09:07:31.801333  6091 net.cpp:148] Top shape: 24 256 28 28 (4816896)
I0403 09:07:31.801353  6091 net.cpp:156] Memory required for data: 580436352
I0403 09:07:31.801373  6091 layer_factory.hpp:77] Creating layer inception_3a/output_inception_3a/output_0_split
I0403 09:07:31.801396  6091 net.cpp:91] Creating Layer inception_3a/output_inception_3a/output_0_split
I0403 09:07:31.801415  6091 net.cpp:425] inception_3a/output_inception_3a/output_0_split <- inception_3a/output
I0403 09:07:31.801437  6091 net.cpp:399] inception_3a/output_inception_3a/output_0_split -> inception_3a/output_inception_3a/output_0_split_0
I0403 09:07:31.801466  6091 net.cpp:399] inception_3a/output_inception_3a/output_0_split -> inception_3a/output_inception_3a/output_0_split_1
I0403 09:07:31.801496  6091 net.cpp:399] inception_3a/output_inception_3a/output_0_split -> inception_3a/output_inception_3a/output_0_split_2
I0403 09:07:31.801522  6091 net.cpp:399] inception_3a/output_inception_3a/output_0_split -> inception_3a/output_inception_3a/output_0_split_3
I0403 09:07:31.801609  6091 net.cpp:141] Setting up inception_3a/output_inception_3a/output_0_split
I0403 09:07:31.801653  6091 net.cpp:148] Top shape: 24 256 28 28 (4816896)
I0403 09:07:31.801676  6091 net.cpp:148] Top shape: 24 256 28 28 (4816896)
I0403 09:07:31.801695  6091 net.cpp:148] Top shape: 24 256 28 28 (4816896)
I0403 09:07:31.801715  6091 net.cpp:148] Top shape: 24 256 28 28 (4816896)
I0403 09:07:31.801733  6091 net.cpp:156] Memory required for data: 657506688
I0403 09:07:31.801751  6091 layer_factory.hpp:77] Creating layer inception_3b/1x1
I0403 09:07:31.801780  6091 net.cpp:91] Creating Layer inception_3b/1x1
I0403 09:07:31.801805  6091 net.cpp:425] inception_3b/1x1 <- inception_3a/output_inception_3a/output_0_split_0
I0403 09:07:31.801831  6091 net.cpp:399] inception_3b/1x1 -> inception_3b/1x1
I0403 09:07:31.802296  6091 net.cpp:141] Setting up inception_3b/1x1
I0403 09:07:31.802331  6091 net.cpp:148] Top shape: 24 128 28 28 (2408448)
I0403 09:07:31.802351  6091 net.cpp:156] Memory required for data: 667140480
I0403 09:07:31.802374  6091 layer_factory.hpp:77] Creating layer inception_3b/relu_1x1
I0403 09:07:31.802400  6091 net.cpp:91] Creating Layer inception_3b/relu_1x1
I0403 09:07:31.802423  6091 net.cpp:425] inception_3b/relu_1x1 <- inception_3b/1x1
I0403 09:07:31.802445  6091 net.cpp:386] inception_3b/relu_1x1 -> inception_3b/1x1 (in-place)
I0403 09:07:31.802469  6091 net.cpp:141] Setting up inception_3b/relu_1x1
I0403 09:07:31.802492  6091 net.cpp:148] Top shape: 24 128 28 28 (2408448)
I0403 09:07:31.802511  6091 net.cpp:156] Memory required for data: 676774272
I0403 09:07:31.802530  6091 layer_factory.hpp:77] Creating layer inception_3b/3x3_reduce
I0403 09:07:31.802558  6091 net.cpp:91] Creating Layer inception_3b/3x3_reduce
I0403 09:07:31.802580  6091 net.cpp:425] inception_3b/3x3_reduce <- inception_3a/output_inception_3a/output_0_split_1
I0403 09:07:31.802647  6091 net.cpp:399] inception_3b/3x3_reduce -> inception_3b/3x3_reduce
I0403 09:07:31.803107  6091 net.cpp:141] Setting up inception_3b/3x3_reduce
I0403 09:07:31.803138  6091 net.cpp:148] Top shape: 24 128 28 28 (2408448)
I0403 09:07:31.803158  6091 net.cpp:156] Memory required for data: 686408064
I0403 09:07:31.803179  6091 layer_factory.hpp:77] Creating layer inception_3b/relu_3x3_reduce
I0403 09:07:31.803201  6091 net.cpp:91] Creating Layer inception_3b/relu_3x3_reduce
I0403 09:07:31.803221  6091 net.cpp:425] inception_3b/relu_3x3_reduce <- inception_3b/3x3_reduce
I0403 09:07:31.803243  6091 net.cpp:386] inception_3b/relu_3x3_reduce -> inception_3b/3x3_reduce (in-place)
I0403 09:07:31.803266  6091 net.cpp:141] Setting up inception_3b/relu_3x3_reduce
I0403 09:07:31.803285  6091 net.cpp:148] Top shape: 24 128 28 28 (2408448)
I0403 09:07:31.803302  6091 net.cpp:156] Memory required for data: 696041856
I0403 09:07:31.803319  6091 layer_factory.hpp:77] Creating layer inception_3b/3x3
I0403 09:07:31.803350  6091 net.cpp:91] Creating Layer inception_3b/3x3
I0403 09:07:31.803372  6091 net.cpp:425] inception_3b/3x3 <- inception_3b/3x3_reduce
I0403 09:07:31.803403  6091 net.cpp:399] inception_3b/3x3 -> inception_3b/3x3
I0403 09:07:31.805753  6091 net.cpp:141] Setting up inception_3b/3x3
I0403 09:07:31.805788  6091 net.cpp:148] Top shape: 24 192 28 28 (3612672)
I0403 09:07:31.805809  6091 net.cpp:156] Memory required for data: 710492544
I0403 09:07:31.805830  6091 layer_factory.hpp:77] Creating layer inception_3b/relu_3x3
I0403 09:07:31.805853  6091 net.cpp:91] Creating Layer inception_3b/relu_3x3
I0403 09:07:31.805873  6091 net.cpp:425] inception_3b/relu_3x3 <- inception_3b/3x3
I0403 09:07:31.805896  6091 net.cpp:386] inception_3b/relu_3x3 -> inception_3b/3x3 (in-place)
I0403 09:07:31.805918  6091 net.cpp:141] Setting up inception_3b/relu_3x3
I0403 09:07:31.805939  6091 net.cpp:148] Top shape: 24 192 28 28 (3612672)
I0403 09:07:31.805956  6091 net.cpp:156] Memory required for data: 724943232
I0403 09:07:31.805974  6091 layer_factory.hpp:77] Creating layer inception_3b/5x5_reduce
I0403 09:07:31.806004  6091 net.cpp:91] Creating Layer inception_3b/5x5_reduce
I0403 09:07:31.806025  6091 net.cpp:425] inception_3b/5x5_reduce <- inception_3a/output_inception_3a/output_0_split_2
I0403 09:07:31.806068  6091 net.cpp:399] inception_3b/5x5_reduce -> inception_3b/5x5_reduce
I0403 09:07:31.806370  6091 net.cpp:141] Setting up inception_3b/5x5_reduce
I0403 09:07:31.806401  6091 net.cpp:148] Top shape: 24 32 28 28 (602112)
I0403 09:07:31.806419  6091 net.cpp:156] Memory required for data: 727351680
I0403 09:07:31.806442  6091 layer_factory.hpp:77] Creating layer inception_3b/relu_5x5_reduce
I0403 09:07:31.806468  6091 net.cpp:91] Creating Layer inception_3b/relu_5x5_reduce
I0403 09:07:31.806489  6091 net.cpp:425] inception_3b/relu_5x5_reduce <- inception_3b/5x5_reduce
I0403 09:07:31.806511  6091 net.cpp:386] inception_3b/relu_5x5_reduce -> inception_3b/5x5_reduce (in-place)
I0403 09:07:31.806535  6091 net.cpp:141] Setting up inception_3b/relu_5x5_reduce
I0403 09:07:31.806556  6091 net.cpp:148] Top shape: 24 32 28 28 (602112)
I0403 09:07:31.806574  6091 net.cpp:156] Memory required for data: 729760128
I0403 09:07:31.806592  6091 layer_factory.hpp:77] Creating layer inception_3b/5x5
I0403 09:07:31.806627  6091 net.cpp:91] Creating Layer inception_3b/5x5
I0403 09:07:31.806650  6091 net.cpp:425] inception_3b/5x5 <- inception_3b/5x5_reduce
I0403 09:07:31.806679  6091 net.cpp:399] inception_3b/5x5 -> inception_3b/5x5
I0403 09:07:31.808060  6091 net.cpp:141] Setting up inception_3b/5x5
I0403 09:07:31.808095  6091 net.cpp:148] Top shape: 24 96 28 28 (1806336)
I0403 09:07:31.808115  6091 net.cpp:156] Memory required for data: 736985472
I0403 09:07:31.808138  6091 layer_factory.hpp:77] Creating layer inception_3b/relu_5x5
I0403 09:07:31.808161  6091 net.cpp:91] Creating Layer inception_3b/relu_5x5
I0403 09:07:31.808181  6091 net.cpp:425] inception_3b/relu_5x5 <- inception_3b/5x5
I0403 09:07:31.808204  6091 net.cpp:386] inception_3b/relu_5x5 -> inception_3b/5x5 (in-place)
I0403 09:07:31.808230  6091 net.cpp:141] Setting up inception_3b/relu_5x5
I0403 09:07:31.808253  6091 net.cpp:148] Top shape: 24 96 28 28 (1806336)
I0403 09:07:31.808270  6091 net.cpp:156] Memory required for data: 744210816
I0403 09:07:31.808287  6091 layer_factory.hpp:77] Creating layer inception_3b/pool
I0403 09:07:31.808310  6091 net.cpp:91] Creating Layer inception_3b/pool
I0403 09:07:31.808331  6091 net.cpp:425] inception_3b/pool <- inception_3a/output_inception_3a/output_0_split_3
I0403 09:07:31.808353  6091 net.cpp:399] inception_3b/pool -> inception_3b/pool
I0403 09:07:31.808415  6091 net.cpp:141] Setting up inception_3b/pool
I0403 09:07:31.808444  6091 net.cpp:148] Top shape: 24 256 28 28 (4816896)
I0403 09:07:31.808462  6091 net.cpp:156] Memory required for data: 763478400
I0403 09:07:31.808480  6091 layer_factory.hpp:77] Creating layer inception_3b/pool_proj
I0403 09:07:31.808508  6091 net.cpp:91] Creating Layer inception_3b/pool_proj
I0403 09:07:31.808531  6091 net.cpp:425] inception_3b/pool_proj <- inception_3b/pool
I0403 09:07:31.808557  6091 net.cpp:399] inception_3b/pool_proj -> inception_3b/pool_proj
I0403 09:07:31.808914  6091 net.cpp:141] Setting up inception_3b/pool_proj
I0403 09:07:31.808945  6091 net.cpp:148] Top shape: 24 64 28 28 (1204224)
I0403 09:07:31.808964  6091 net.cpp:156] Memory required for data: 768295296
I0403 09:07:31.808986  6091 layer_factory.hpp:77] Creating layer inception_3b/relu_pool_proj
I0403 09:07:31.809010  6091 net.cpp:91] Creating Layer inception_3b/relu_pool_proj
I0403 09:07:31.809029  6091 net.cpp:425] inception_3b/relu_pool_proj <- inception_3b/pool_proj
I0403 09:07:31.809051  6091 net.cpp:386] inception_3b/relu_pool_proj -> inception_3b/pool_proj (in-place)
I0403 09:07:31.809074  6091 net.cpp:141] Setting up inception_3b/relu_pool_proj
I0403 09:07:31.809095  6091 net.cpp:148] Top shape: 24 64 28 28 (1204224)
I0403 09:07:31.809113  6091 net.cpp:156] Memory required for data: 773112192
I0403 09:07:31.809131  6091 layer_factory.hpp:77] Creating layer inception_3b/output
I0403 09:07:31.809159  6091 net.cpp:91] Creating Layer inception_3b/output
I0403 09:07:31.809180  6091 net.cpp:425] inception_3b/output <- inception_3b/1x1
I0403 09:07:31.809218  6091 net.cpp:425] inception_3b/output <- inception_3b/3x3
I0403 09:07:31.809242  6091 net.cpp:425] inception_3b/output <- inception_3b/5x5
I0403 09:07:31.809262  6091 net.cpp:425] inception_3b/output <- inception_3b/pool_proj
I0403 09:07:31.809284  6091 net.cpp:399] inception_3b/output -> inception_3b/output
I0403 09:07:31.809329  6091 net.cpp:141] Setting up inception_3b/output
I0403 09:07:31.809360  6091 net.cpp:148] Top shape: 24 480 28 28 (9031680)
I0403 09:07:31.809381  6091 net.cpp:156] Memory required for data: 809238912
I0403 09:07:31.809401  6091 layer_factory.hpp:77] Creating layer pool3/3x3_s2
I0403 09:07:31.809422  6091 net.cpp:91] Creating Layer pool3/3x3_s2
I0403 09:07:31.809442  6091 net.cpp:425] pool3/3x3_s2 <- inception_3b/output
I0403 09:07:31.809468  6091 net.cpp:399] pool3/3x3_s2 -> pool3/3x3_s2
I0403 09:07:31.809526  6091 net.cpp:141] Setting up pool3/3x3_s2
I0403 09:07:31.809556  6091 net.cpp:148] Top shape: 24 480 14 14 (2257920)
I0403 09:07:31.809573  6091 net.cpp:156] Memory required for data: 818270592
I0403 09:07:31.809590  6091 layer_factory.hpp:77] Creating layer pool3/3x3_s2_pool3/3x3_s2_0_split
I0403 09:07:31.809622  6091 net.cpp:91] Creating Layer pool3/3x3_s2_pool3/3x3_s2_0_split
I0403 09:07:31.809644  6091 net.cpp:425] pool3/3x3_s2_pool3/3x3_s2_0_split <- pool3/3x3_s2
I0403 09:07:31.809666  6091 net.cpp:399] pool3/3x3_s2_pool3/3x3_s2_0_split -> pool3/3x3_s2_pool3/3x3_s2_0_split_0
I0403 09:07:31.809691  6091 net.cpp:399] pool3/3x3_s2_pool3/3x3_s2_0_split -> pool3/3x3_s2_pool3/3x3_s2_0_split_1
I0403 09:07:31.809715  6091 net.cpp:399] pool3/3x3_s2_pool3/3x3_s2_0_split -> pool3/3x3_s2_pool3/3x3_s2_0_split_2
I0403 09:07:31.809739  6091 net.cpp:399] pool3/3x3_s2_pool3/3x3_s2_0_split -> pool3/3x3_s2_pool3/3x3_s2_0_split_3
I0403 09:07:31.809818  6091 net.cpp:141] Setting up pool3/3x3_s2_pool3/3x3_s2_0_split
I0403 09:07:31.809844  6091 net.cpp:148] Top shape: 24 480 14 14 (2257920)
I0403 09:07:31.809865  6091 net.cpp:148] Top shape: 24 480 14 14 (2257920)
I0403 09:07:31.809885  6091 net.cpp:148] Top shape: 24 480 14 14 (2257920)
I0403 09:07:31.809905  6091 net.cpp:148] Top shape: 24 480 14 14 (2257920)
I0403 09:07:31.809921  6091 net.cpp:156] Memory required for data: 854397312
I0403 09:07:31.809938  6091 layer_factory.hpp:77] Creating layer inception_4a/1x1
I0403 09:07:31.809973  6091 net.cpp:91] Creating Layer inception_4a/1x1
I0403 09:07:31.809996  6091 net.cpp:425] inception_4a/1x1 <- pool3/3x3_s2_pool3/3x3_s2_0_split_0
I0403 09:07:31.810024  6091 net.cpp:399] inception_4a/1x1 -> inception_4a/1x1
I0403 09:07:31.810876  6091 net.cpp:141] Setting up inception_4a/1x1
I0403 09:07:31.810907  6091 net.cpp:148] Top shape: 24 192 14 14 (903168)
I0403 09:07:31.810925  6091 net.cpp:156] Memory required for data: 858009984
I0403 09:07:31.810947  6091 layer_factory.hpp:77] Creating layer inception_4a/relu_1x1
I0403 09:07:31.810972  6091 net.cpp:91] Creating Layer inception_4a/relu_1x1
I0403 09:07:31.810994  6091 net.cpp:425] inception_4a/relu_1x1 <- inception_4a/1x1
I0403 09:07:31.811017  6091 net.cpp:386] inception_4a/relu_1x1 -> inception_4a/1x1 (in-place)
I0403 09:07:31.811039  6091 net.cpp:141] Setting up inception_4a/relu_1x1
I0403 09:07:31.811058  6091 net.cpp:148] Top shape: 24 192 14 14 (903168)
I0403 09:07:31.811076  6091 net.cpp:156] Memory required for data: 861622656
I0403 09:07:31.811094  6091 layer_factory.hpp:77] Creating layer inception_4a/3x3_reduce
I0403 09:07:31.811122  6091 net.cpp:91] Creating Layer inception_4a/3x3_reduce
I0403 09:07:31.811144  6091 net.cpp:425] inception_4a/3x3_reduce <- pool3/3x3_s2_pool3/3x3_s2_0_split_1
I0403 09:07:31.811172  6091 net.cpp:399] inception_4a/3x3_reduce -> inception_4a/3x3_reduce
I0403 09:07:31.811738  6091 net.cpp:141] Setting up inception_4a/3x3_reduce
I0403 09:07:31.811769  6091 net.cpp:148] Top shape: 24 96 14 14 (451584)
I0403 09:07:31.811787  6091 net.cpp:156] Memory required for data: 863428992
I0403 09:07:31.811815  6091 layer_factory.hpp:77] Creating layer inception_4a/relu_3x3_reduce
I0403 09:07:31.811842  6091 net.cpp:91] Creating Layer inception_4a/relu_3x3_reduce
I0403 09:07:31.811879  6091 net.cpp:425] inception_4a/relu_3x3_reduce <- inception_4a/3x3_reduce
I0403 09:07:31.811904  6091 net.cpp:386] inception_4a/relu_3x3_reduce -> inception_4a/3x3_reduce (in-place)
I0403 09:07:31.811929  6091 net.cpp:141] Setting up inception_4a/relu_3x3_reduce
I0403 09:07:31.811952  6091 net.cpp:148] Top shape: 24 96 14 14 (451584)
I0403 09:07:31.811970  6091 net.cpp:156] Memory required for data: 865235328
I0403 09:07:31.811990  6091 layer_factory.hpp:77] Creating layer inception_4a/3x3
I0403 09:07:31.812018  6091 net.cpp:91] Creating Layer inception_4a/3x3
I0403 09:07:31.812041  6091 net.cpp:425] inception_4a/3x3 <- inception_4a/3x3_reduce
I0403 09:07:31.812063  6091 net.cpp:399] inception_4a/3x3 -> inception_4a/3x3
I0403 09:07:31.814141  6091 net.cpp:141] Setting up inception_4a/3x3
I0403 09:07:31.814177  6091 net.cpp:148] Top shape: 24 208 14 14 (978432)
I0403 09:07:31.814195  6091 net.cpp:156] Memory required for data: 869149056
I0403 09:07:31.814218  6091 layer_factory.hpp:77] Creating layer inception_4a/relu_3x3
I0403 09:07:31.814247  6091 net.cpp:91] Creating Layer inception_4a/relu_3x3
I0403 09:07:31.814270  6091 net.cpp:425] inception_4a/relu_3x3 <- inception_4a/3x3
I0403 09:07:31.814291  6091 net.cpp:386] inception_4a/relu_3x3 -> inception_4a/3x3 (in-place)
I0403 09:07:31.814316  6091 net.cpp:141] Setting up inception_4a/relu_3x3
I0403 09:07:31.814338  6091 net.cpp:148] Top shape: 24 208 14 14 (978432)
I0403 09:07:31.814357  6091 net.cpp:156] Memory required for data: 873062784
I0403 09:07:31.814374  6091 layer_factory.hpp:77] Creating layer inception_4a/5x5_reduce
I0403 09:07:31.814402  6091 net.cpp:91] Creating Layer inception_4a/5x5_reduce
I0403 09:07:31.814425  6091 net.cpp:425] inception_4a/5x5_reduce <- pool3/3x3_s2_pool3/3x3_s2_0_split_2
I0403 09:07:31.814450  6091 net.cpp:399] inception_4a/5x5_reduce -> inception_4a/5x5_reduce
I0403 09:07:31.814754  6091 net.cpp:141] Setting up inception_4a/5x5_reduce
I0403 09:07:31.814788  6091 net.cpp:148] Top shape: 24 16 14 14 (75264)
I0403 09:07:31.814807  6091 net.cpp:156] Memory required for data: 873363840
I0403 09:07:31.814829  6091 layer_factory.hpp:77] Creating layer inception_4a/relu_5x5_reduce
I0403 09:07:31.814851  6091 net.cpp:91] Creating Layer inception_4a/relu_5x5_reduce
I0403 09:07:31.814872  6091 net.cpp:425] inception_4a/relu_5x5_reduce <- inception_4a/5x5_reduce
I0403 09:07:31.814893  6091 net.cpp:386] inception_4a/relu_5x5_reduce -> inception_4a/5x5_reduce (in-place)
I0403 09:07:31.814916  6091 net.cpp:141] Setting up inception_4a/relu_5x5_reduce
I0403 09:07:31.814939  6091 net.cpp:148] Top shape: 24 16 14 14 (75264)
I0403 09:07:31.814956  6091 net.cpp:156] Memory required for data: 873664896
I0403 09:07:31.814975  6091 layer_factory.hpp:77] Creating layer inception_4a/5x5
I0403 09:07:31.815002  6091 net.cpp:91] Creating Layer inception_4a/5x5
I0403 09:07:31.815024  6091 net.cpp:425] inception_4a/5x5 <- inception_4a/5x5_reduce
I0403 09:07:31.815048  6091 net.cpp:399] inception_4a/5x5 -> inception_4a/5x5
I0403 09:07:31.815433  6091 net.cpp:141] Setting up inception_4a/5x5
I0403 09:07:31.815464  6091 net.cpp:148] Top shape: 24 48 14 14 (225792)
I0403 09:07:31.815481  6091 net.cpp:156] Memory required for data: 874568064
I0403 09:07:31.815503  6091 layer_factory.hpp:77] Creating layer inception_4a/relu_5x5
I0403 09:07:31.815526  6091 net.cpp:91] Creating Layer inception_4a/relu_5x5
I0403 09:07:31.815546  6091 net.cpp:425] inception_4a/relu_5x5 <- inception_4a/5x5
I0403 09:07:31.815572  6091 net.cpp:386] inception_4a/relu_5x5 -> inception_4a/5x5 (in-place)
I0403 09:07:31.815595  6091 net.cpp:141] Setting up inception_4a/relu_5x5
I0403 09:07:31.815623  6091 net.cpp:148] Top shape: 24 48 14 14 (225792)
I0403 09:07:31.815641  6091 net.cpp:156] Memory required for data: 875471232
I0403 09:07:31.815659  6091 layer_factory.hpp:77] Creating layer inception_4a/pool
I0403 09:07:31.815681  6091 net.cpp:91] Creating Layer inception_4a/pool
I0403 09:07:31.815706  6091 net.cpp:425] inception_4a/pool <- pool3/3x3_s2_pool3/3x3_s2_0_split_3
I0403 09:07:31.815748  6091 net.cpp:399] inception_4a/pool -> inception_4a/pool
I0403 09:07:31.815811  6091 net.cpp:141] Setting up inception_4a/pool
I0403 09:07:31.815843  6091 net.cpp:148] Top shape: 24 480 14 14 (2257920)
I0403 09:07:31.815863  6091 net.cpp:156] Memory required for data: 884502912
I0403 09:07:31.815882  6091 layer_factory.hpp:77] Creating layer inception_4a/pool_proj
I0403 09:07:31.815908  6091 net.cpp:91] Creating Layer inception_4a/pool_proj
I0403 09:07:31.815928  6091 net.cpp:425] inception_4a/pool_proj <- inception_4a/pool
I0403 09:07:31.815954  6091 net.cpp:399] inception_4a/pool_proj -> inception_4a/pool_proj
I0403 09:07:31.816404  6091 net.cpp:141] Setting up inception_4a/pool_proj
I0403 09:07:31.816436  6091 net.cpp:148] Top shape: 24 64 14 14 (301056)
I0403 09:07:31.816453  6091 net.cpp:156] Memory required for data: 885707136
I0403 09:07:31.816476  6091 layer_factory.hpp:77] Creating layer inception_4a/relu_pool_proj
I0403 09:07:31.816498  6091 net.cpp:91] Creating Layer inception_4a/relu_pool_proj
I0403 09:07:31.816519  6091 net.cpp:425] inception_4a/relu_pool_proj <- inception_4a/pool_proj
I0403 09:07:31.816540  6091 net.cpp:386] inception_4a/relu_pool_proj -> inception_4a/pool_proj (in-place)
I0403 09:07:31.816565  6091 net.cpp:141] Setting up inception_4a/relu_pool_proj
I0403 09:07:31.816588  6091 net.cpp:148] Top shape: 24 64 14 14 (301056)
I0403 09:07:31.816612  6091 net.cpp:156] Memory required for data: 886911360
I0403 09:07:31.816632  6091 layer_factory.hpp:77] Creating layer inception_4a/output
I0403 09:07:31.816653  6091 net.cpp:91] Creating Layer inception_4a/output
I0403 09:07:31.816671  6091 net.cpp:425] inception_4a/output <- inception_4a/1x1
I0403 09:07:31.816690  6091 net.cpp:425] inception_4a/output <- inception_4a/3x3
I0403 09:07:31.816711  6091 net.cpp:425] inception_4a/output <- inception_4a/5x5
I0403 09:07:31.816731  6091 net.cpp:425] inception_4a/output <- inception_4a/pool_proj
I0403 09:07:31.816753  6091 net.cpp:399] inception_4a/output -> inception_4a/output
I0403 09:07:31.816800  6091 net.cpp:141] Setting up inception_4a/output
I0403 09:07:31.816828  6091 net.cpp:148] Top shape: 24 512 14 14 (2408448)
I0403 09:07:31.816848  6091 net.cpp:156] Memory required for data: 896545152
I0403 09:07:31.816865  6091 layer_factory.hpp:77] Creating layer inception_4a/output_inception_4a/output_0_split
I0403 09:07:31.816889  6091 net.cpp:91] Creating Layer inception_4a/output_inception_4a/output_0_split
I0403 09:07:31.816908  6091 net.cpp:425] inception_4a/output_inception_4a/output_0_split <- inception_4a/output
I0403 09:07:31.816933  6091 net.cpp:399] inception_4a/output_inception_4a/output_0_split -> inception_4a/output_inception_4a/output_0_split_0
I0403 09:07:31.816959  6091 net.cpp:399] inception_4a/output_inception_4a/output_0_split -> inception_4a/output_inception_4a/output_0_split_1
I0403 09:07:31.816985  6091 net.cpp:399] inception_4a/output_inception_4a/output_0_split -> inception_4a/output_inception_4a/output_0_split_2
I0403 09:07:31.817009  6091 net.cpp:399] inception_4a/output_inception_4a/output_0_split -> inception_4a/output_inception_4a/output_0_split_3
I0403 09:07:31.817034  6091 net.cpp:399] inception_4a/output_inception_4a/output_0_split -> inception_4a/output_inception_4a/output_0_split_4
I0403 09:07:31.817131  6091 net.cpp:141] Setting up inception_4a/output_inception_4a/output_0_split
I0403 09:07:31.817159  6091 net.cpp:148] Top shape: 24 512 14 14 (2408448)
I0403 09:07:31.817179  6091 net.cpp:148] Top shape: 24 512 14 14 (2408448)
I0403 09:07:31.817199  6091 net.cpp:148] Top shape: 24 512 14 14 (2408448)
I0403 09:07:31.817219  6091 net.cpp:148] Top shape: 24 512 14 14 (2408448)
I0403 09:07:31.817237  6091 net.cpp:148] Top shape: 24 512 14 14 (2408448)
I0403 09:07:31.817255  6091 net.cpp:156] Memory required for data: 944714112
I0403 09:07:31.817273  6091 layer_factory.hpp:77] Creating layer loss1/ave_pool
I0403 09:07:31.817294  6091 net.cpp:91] Creating Layer loss1/ave_pool
I0403 09:07:31.817313  6091 net.cpp:425] loss1/ave_pool <- inception_4a/output_inception_4a/output_0_split_0
I0403 09:07:31.817356  6091 net.cpp:399] loss1/ave_pool -> loss1/ave_pool
I0403 09:07:31.817404  6091 net.cpp:141] Setting up loss1/ave_pool
I0403 09:07:31.817435  6091 net.cpp:148] Top shape: 24 512 4 4 (196608)
I0403 09:07:31.817456  6091 net.cpp:156] Memory required for data: 945500544
I0403 09:07:31.817474  6091 layer_factory.hpp:77] Creating layer loss1/conv
I0403 09:07:31.817500  6091 net.cpp:91] Creating Layer loss1/conv
I0403 09:07:31.817520  6091 net.cpp:425] loss1/conv <- loss1/ave_pool
I0403 09:07:31.817546  6091 net.cpp:399] loss1/conv -> loss1/conv
I0403 09:07:31.818228  6091 net.cpp:141] Setting up loss1/conv
I0403 09:07:31.818259  6091 net.cpp:148] Top shape: 24 128 4 4 (49152)
I0403 09:07:31.818279  6091 net.cpp:156] Memory required for data: 945697152
I0403 09:07:31.818300  6091 layer_factory.hpp:77] Creating layer loss1/relu_conv
I0403 09:07:31.818323  6091 net.cpp:91] Creating Layer loss1/relu_conv
I0403 09:07:31.818344  6091 net.cpp:425] loss1/relu_conv <- loss1/conv
I0403 09:07:31.818366  6091 net.cpp:386] loss1/relu_conv -> loss1/conv (in-place)
I0403 09:07:31.818387  6091 net.cpp:141] Setting up loss1/relu_conv
I0403 09:07:31.818408  6091 net.cpp:148] Top shape: 24 128 4 4 (49152)
I0403 09:07:31.818426  6091 net.cpp:156] Memory required for data: 945893760
I0403 09:07:31.818444  6091 layer_factory.hpp:77] Creating layer loss1/fc
I0403 09:07:31.818473  6091 net.cpp:91] Creating Layer loss1/fc
I0403 09:07:31.818497  6091 net.cpp:425] loss1/fc <- loss1/conv
I0403 09:07:31.818521  6091 net.cpp:399] loss1/fc -> loss1/fc
I0403 09:07:31.838160  6091 net.cpp:141] Setting up loss1/fc
I0403 09:07:31.838212  6091 net.cpp:148] Top shape: 24 1024 (24576)
I0403 09:07:31.838233  6091 net.cpp:156] Memory required for data: 945992064
I0403 09:07:31.838256  6091 layer_factory.hpp:77] Creating layer loss1/relu_fc
I0403 09:07:31.838281  6091 net.cpp:91] Creating Layer loss1/relu_fc
I0403 09:07:31.838302  6091 net.cpp:425] loss1/relu_fc <- loss1/fc
I0403 09:07:31.838328  6091 net.cpp:386] loss1/relu_fc -> loss1/fc (in-place)
I0403 09:07:31.838356  6091 net.cpp:141] Setting up loss1/relu_fc
I0403 09:07:31.838379  6091 net.cpp:148] Top shape: 24 1024 (24576)
I0403 09:07:31.838397  6091 net.cpp:156] Memory required for data: 946090368
I0403 09:07:31.838415  6091 layer_factory.hpp:77] Creating layer loss1/drop_fc
I0403 09:07:31.838451  6091 net.cpp:91] Creating Layer loss1/drop_fc
I0403 09:07:31.838475  6091 net.cpp:425] loss1/drop_fc <- loss1/fc
I0403 09:07:31.838497  6091 net.cpp:386] loss1/drop_fc -> loss1/fc (in-place)
I0403 09:07:31.838551  6091 net.cpp:141] Setting up loss1/drop_fc
I0403 09:07:31.838582  6091 net.cpp:148] Top shape: 24 1024 (24576)
I0403 09:07:31.838608  6091 net.cpp:156] Memory required for data: 946188672
I0403 09:07:31.838629  6091 layer_factory.hpp:77] Creating layer loss1/classifier_plantvillage
I0403 09:07:31.838652  6091 net.cpp:91] Creating Layer loss1/classifier_plantvillage
I0403 09:07:31.838673  6091 net.cpp:425] loss1/classifier_plantvillage <- loss1/fc
I0403 09:07:31.838701  6091 net.cpp:399] loss1/classifier_plantvillage -> loss1/classifier_plantvillage
I0403 09:07:31.839700  6091 net.cpp:141] Setting up loss1/classifier_plantvillage
I0403 09:07:31.839735  6091 net.cpp:148] Top shape: 24 38 (912)
I0403 09:07:31.839753  6091 net.cpp:156] Memory required for data: 946192320
I0403 09:07:31.839776  6091 layer_factory.hpp:77] Creating layer inception_4b/1x1
I0403 09:07:31.839807  6091 net.cpp:91] Creating Layer inception_4b/1x1
I0403 09:07:31.839830  6091 net.cpp:425] inception_4b/1x1 <- inception_4a/output_inception_4a/output_0_split_1
I0403 09:07:31.839856  6091 net.cpp:399] inception_4b/1x1 -> inception_4b/1x1
I0403 09:07:31.840662  6091 net.cpp:141] Setting up inception_4b/1x1
I0403 09:07:31.840694  6091 net.cpp:148] Top shape: 24 160 14 14 (752640)
I0403 09:07:31.840713  6091 net.cpp:156] Memory required for data: 949202880
I0403 09:07:31.840734  6091 layer_factory.hpp:77] Creating layer inception_4b/relu_1x1
I0403 09:07:31.840780  6091 net.cpp:91] Creating Layer inception_4b/relu_1x1
I0403 09:07:31.840804  6091 net.cpp:425] inception_4b/relu_1x1 <- inception_4b/1x1
I0403 09:07:31.840826  6091 net.cpp:386] inception_4b/relu_1x1 -> inception_4b/1x1 (in-place)
I0403 09:07:31.840848  6091 net.cpp:141] Setting up inception_4b/relu_1x1
I0403 09:07:31.840870  6091 net.cpp:148] Top shape: 24 160 14 14 (752640)
I0403 09:07:31.840888  6091 net.cpp:156] Memory required for data: 952213440
I0403 09:07:31.840905  6091 layer_factory.hpp:77] Creating layer inception_4b/3x3_reduce
I0403 09:07:31.840934  6091 net.cpp:91] Creating Layer inception_4b/3x3_reduce
I0403 09:07:31.840956  6091 net.cpp:425] inception_4b/3x3_reduce <- inception_4a/output_inception_4a/output_0_split_2
I0403 09:07:31.840982  6091 net.cpp:399] inception_4b/3x3_reduce -> inception_4b/3x3_reduce
I0403 09:07:31.841635  6091 net.cpp:141] Setting up inception_4b/3x3_reduce
I0403 09:07:31.841667  6091 net.cpp:148] Top shape: 24 112 14 14 (526848)
I0403 09:07:31.841687  6091 net.cpp:156] Memory required for data: 954320832
I0403 09:07:31.841709  6091 layer_factory.hpp:77] Creating layer inception_4b/relu_3x3_reduce
I0403 09:07:31.841732  6091 net.cpp:91] Creating Layer inception_4b/relu_3x3_reduce
I0403 09:07:31.841753  6091 net.cpp:425] inception_4b/relu_3x3_reduce <- inception_4b/3x3_reduce
I0403 09:07:31.841773  6091 net.cpp:386] inception_4b/relu_3x3_reduce -> inception_4b/3x3_reduce (in-place)
I0403 09:07:31.841796  6091 net.cpp:141] Setting up inception_4b/relu_3x3_reduce
I0403 09:07:31.841817  6091 net.cpp:148] Top shape: 24 112 14 14 (526848)
I0403 09:07:31.841836  6091 net.cpp:156] Memory required for data: 956428224
I0403 09:07:31.841855  6091 layer_factory.hpp:77] Creating layer inception_4b/3x3
I0403 09:07:31.841882  6091 net.cpp:91] Creating Layer inception_4b/3x3
I0403 09:07:31.841904  6091 net.cpp:425] inception_4b/3x3 <- inception_4b/3x3_reduce
I0403 09:07:31.841930  6091 net.cpp:399] inception_4b/3x3 -> inception_4b/3x3
I0403 09:07:31.844319  6091 net.cpp:141] Setting up inception_4b/3x3
I0403 09:07:31.844355  6091 net.cpp:148] Top shape: 24 224 14 14 (1053696)
I0403 09:07:31.844374  6091 net.cpp:156] Memory required for data: 960643008
I0403 09:07:31.844396  6091 layer_factory.hpp:77] Creating layer inception_4b/relu_3x3
I0403 09:07:31.844419  6091 net.cpp:91] Creating Layer inception_4b/relu_3x3
I0403 09:07:31.844440  6091 net.cpp:425] inception_4b/relu_3x3 <- inception_4b/3x3
I0403 09:07:31.844461  6091 net.cpp:386] inception_4b/relu_3x3 -> inception_4b/3x3 (in-place)
I0403 09:07:31.844485  6091 net.cpp:141] Setting up inception_4b/relu_3x3
I0403 09:07:31.844506  6091 net.cpp:148] Top shape: 24 224 14 14 (1053696)
I0403 09:07:31.844524  6091 net.cpp:156] Memory required for data: 964857792
I0403 09:07:31.844542  6091 layer_factory.hpp:77] Creating layer inception_4b/5x5_reduce
I0403 09:07:31.844570  6091 net.cpp:91] Creating Layer inception_4b/5x5_reduce
I0403 09:07:31.844593  6091 net.cpp:425] inception_4b/5x5_reduce <- inception_4a/output_inception_4a/output_0_split_3
I0403 09:07:31.844627  6091 net.cpp:399] inception_4b/5x5_reduce -> inception_4b/5x5_reduce
I0403 09:07:31.844974  6091 net.cpp:141] Setting up inception_4b/5x5_reduce
I0403 09:07:31.845005  6091 net.cpp:148] Top shape: 24 24 14 14 (112896)
I0403 09:07:31.845023  6091 net.cpp:156] Memory required for data: 965309376
I0403 09:07:31.845046  6091 layer_factory.hpp:77] Creating layer inception_4b/relu_5x5_reduce
I0403 09:07:31.845072  6091 net.cpp:91] Creating Layer inception_4b/relu_5x5_reduce
I0403 09:07:31.845094  6091 net.cpp:425] inception_4b/relu_5x5_reduce <- inception_4b/5x5_reduce
I0403 09:07:31.845118  6091 net.cpp:386] inception_4b/relu_5x5_reduce -> inception_4b/5x5_reduce (in-place)
I0403 09:07:31.845140  6091 net.cpp:141] Setting up inception_4b/relu_5x5_reduce
I0403 09:07:31.845161  6091 net.cpp:148] Top shape: 24 24 14 14 (112896)
I0403 09:07:31.845180  6091 net.cpp:156] Memory required for data: 965760960
I0403 09:07:31.845197  6091 layer_factory.hpp:77] Creating layer inception_4b/5x5
I0403 09:07:31.845244  6091 net.cpp:91] Creating Layer inception_4b/5x5
I0403 09:07:31.845268  6091 net.cpp:425] inception_4b/5x5 <- inception_4b/5x5_reduce
I0403 09:07:31.845296  6091 net.cpp:399] inception_4b/5x5 -> inception_4b/5x5
I0403 09:07:31.845816  6091 net.cpp:141] Setting up inception_4b/5x5
I0403 09:07:31.845846  6091 net.cpp:148] Top shape: 24 64 14 14 (301056)
I0403 09:07:31.845865  6091 net.cpp:156] Memory required for data: 966965184
I0403 09:07:31.845887  6091 layer_factory.hpp:77] Creating layer inception_4b/relu_5x5
I0403 09:07:31.845911  6091 net.cpp:91] Creating Layer inception_4b/relu_5x5
I0403 09:07:31.845930  6091 net.cpp:425] inception_4b/relu_5x5 <- inception_4b/5x5
I0403 09:07:31.845952  6091 net.cpp:386] inception_4b/relu_5x5 -> inception_4b/5x5 (in-place)
I0403 09:07:31.845974  6091 net.cpp:141] Setting up inception_4b/relu_5x5
I0403 09:07:31.845995  6091 net.cpp:148] Top shape: 24 64 14 14 (301056)
I0403 09:07:31.846014  6091 net.cpp:156] Memory required for data: 968169408
I0403 09:07:31.846032  6091 layer_factory.hpp:77] Creating layer inception_4b/pool
I0403 09:07:31.846056  6091 net.cpp:91] Creating Layer inception_4b/pool
I0403 09:07:31.846078  6091 net.cpp:425] inception_4b/pool <- inception_4a/output_inception_4a/output_0_split_4
I0403 09:07:31.846101  6091 net.cpp:399] inception_4b/pool -> inception_4b/pool
I0403 09:07:31.846164  6091 net.cpp:141] Setting up inception_4b/pool
I0403 09:07:31.846192  6091 net.cpp:148] Top shape: 24 512 14 14 (2408448)
I0403 09:07:31.846212  6091 net.cpp:156] Memory required for data: 977803200
I0403 09:07:31.846231  6091 layer_factory.hpp:77] Creating layer inception_4b/pool_proj
I0403 09:07:31.846261  6091 net.cpp:91] Creating Layer inception_4b/pool_proj
I0403 09:07:31.846284  6091 net.cpp:425] inception_4b/pool_proj <- inception_4b/pool
I0403 09:07:31.846308  6091 net.cpp:399] inception_4b/pool_proj -> inception_4b/pool_proj
I0403 09:07:31.846794  6091 net.cpp:141] Setting up inception_4b/pool_proj
I0403 09:07:31.846827  6091 net.cpp:148] Top shape: 24 64 14 14 (301056)
I0403 09:07:31.846845  6091 net.cpp:156] Memory required for data: 979007424
I0403 09:07:31.846866  6091 layer_factory.hpp:77] Creating layer inception_4b/relu_pool_proj
I0403 09:07:31.846889  6091 net.cpp:91] Creating Layer inception_4b/relu_pool_proj
I0403 09:07:31.846910  6091 net.cpp:425] inception_4b/relu_pool_proj <- inception_4b/pool_proj
I0403 09:07:31.846938  6091 net.cpp:386] inception_4b/relu_pool_proj -> inception_4b/pool_proj (in-place)
I0403 09:07:31.846963  6091 net.cpp:141] Setting up inception_4b/relu_pool_proj
I0403 09:07:31.846987  6091 net.cpp:148] Top shape: 24 64 14 14 (301056)
I0403 09:07:31.847004  6091 net.cpp:156] Memory required for data: 980211648
I0403 09:07:31.847021  6091 layer_factory.hpp:77] Creating layer inception_4b/output
I0403 09:07:31.847043  6091 net.cpp:91] Creating Layer inception_4b/output
I0403 09:07:31.847062  6091 net.cpp:425] inception_4b/output <- inception_4b/1x1
I0403 09:07:31.847082  6091 net.cpp:425] inception_4b/output <- inception_4b/3x3
I0403 09:07:31.847102  6091 net.cpp:425] inception_4b/output <- inception_4b/5x5
I0403 09:07:31.847122  6091 net.cpp:425] inception_4b/output <- inception_4b/pool_proj
I0403 09:07:31.847143  6091 net.cpp:399] inception_4b/output -> inception_4b/output
I0403 09:07:31.847192  6091 net.cpp:141] Setting up inception_4b/output
I0403 09:07:31.847219  6091 net.cpp:148] Top shape: 24 512 14 14 (2408448)
I0403 09:07:31.847237  6091 net.cpp:156] Memory required for data: 989845440
I0403 09:07:31.847256  6091 layer_factory.hpp:77] Creating layer inception_4b/output_inception_4b/output_0_split
I0403 09:07:31.847280  6091 net.cpp:91] Creating Layer inception_4b/output_inception_4b/output_0_split
I0403 09:07:31.847298  6091 net.cpp:425] inception_4b/output_inception_4b/output_0_split <- inception_4b/output
I0403 09:07:31.847322  6091 net.cpp:399] inception_4b/output_inception_4b/output_0_split -> inception_4b/output_inception_4b/output_0_split_0
I0403 09:07:31.847349  6091 net.cpp:399] inception_4b/output_inception_4b/output_0_split -> inception_4b/output_inception_4b/output_0_split_1
I0403 09:07:31.847393  6091 net.cpp:399] inception_4b/output_inception_4b/output_0_split -> inception_4b/output_inception_4b/output_0_split_2
I0403 09:07:31.847420  6091 net.cpp:399] inception_4b/output_inception_4b/output_0_split -> inception_4b/output_inception_4b/output_0_split_3
I0403 09:07:31.847508  6091 net.cpp:141] Setting up inception_4b/output_inception_4b/output_0_split
I0403 09:07:31.847537  6091 net.cpp:148] Top shape: 24 512 14 14 (2408448)
I0403 09:07:31.847558  6091 net.cpp:148] Top shape: 24 512 14 14 (2408448)
I0403 09:07:31.847575  6091 net.cpp:148] Top shape: 24 512 14 14 (2408448)
I0403 09:07:31.847594  6091 net.cpp:148] Top shape: 24 512 14 14 (2408448)
I0403 09:07:31.847618  6091 net.cpp:156] Memory required for data: 1028380608
I0403 09:07:31.847637  6091 layer_factory.hpp:77] Creating layer inception_4c/1x1
I0403 09:07:31.847666  6091 net.cpp:91] Creating Layer inception_4c/1x1
I0403 09:07:31.847688  6091 net.cpp:425] inception_4c/1x1 <- inception_4b/output_inception_4b/output_0_split_0
I0403 09:07:31.847712  6091 net.cpp:399] inception_4c/1x1 -> inception_4c/1x1
I0403 09:07:31.848393  6091 net.cpp:141] Setting up inception_4c/1x1
I0403 09:07:31.848424  6091 net.cpp:148] Top shape: 24 128 14 14 (602112)
I0403 09:07:31.848444  6091 net.cpp:156] Memory required for data: 1030789056
I0403 09:07:31.848465  6091 layer_factory.hpp:77] Creating layer inception_4c/relu_1x1
I0403 09:07:31.848486  6091 net.cpp:91] Creating Layer inception_4c/relu_1x1
I0403 09:07:31.848506  6091 net.cpp:425] inception_4c/relu_1x1 <- inception_4c/1x1
I0403 09:07:31.848532  6091 net.cpp:386] inception_4c/relu_1x1 -> inception_4c/1x1 (in-place)
I0403 09:07:31.848558  6091 net.cpp:141] Setting up inception_4c/relu_1x1
I0403 09:07:31.848580  6091 net.cpp:148] Top shape: 24 128 14 14 (602112)
I0403 09:07:31.848603  6091 net.cpp:156] Memory required for data: 1033197504
I0403 09:07:31.848623  6091 layer_factory.hpp:77] Creating layer inception_4c/3x3_reduce
I0403 09:07:31.848651  6091 net.cpp:91] Creating Layer inception_4c/3x3_reduce
I0403 09:07:31.848675  6091 net.cpp:425] inception_4c/3x3_reduce <- inception_4b/output_inception_4b/output_0_split_1
I0403 09:07:31.848697  6091 net.cpp:399] inception_4c/3x3_reduce -> inception_4c/3x3_reduce
I0403 09:07:31.850004  6091 net.cpp:141] Setting up inception_4c/3x3_reduce
I0403 09:07:31.850040  6091 net.cpp:148] Top shape: 24 128 14 14 (602112)
I0403 09:07:31.850060  6091 net.cpp:156] Memory required for data: 1035605952
I0403 09:07:31.850082  6091 layer_factory.hpp:77] Creating layer inception_4c/relu_3x3_reduce
I0403 09:07:31.850105  6091 net.cpp:91] Creating Layer inception_4c/relu_3x3_reduce
I0403 09:07:31.850126  6091 net.cpp:425] inception_4c/relu_3x3_reduce <- inception_4c/3x3_reduce
I0403 09:07:31.850148  6091 net.cpp:386] inception_4c/relu_3x3_reduce -> inception_4c/3x3_reduce (in-place)
I0403 09:07:31.850172  6091 net.cpp:141] Setting up inception_4c/relu_3x3_reduce
I0403 09:07:31.850193  6091 net.cpp:148] Top shape: 24 128 14 14 (602112)
I0403 09:07:31.850210  6091 net.cpp:156] Memory required for data: 1038014400
I0403 09:07:31.850227  6091 layer_factory.hpp:77] Creating layer inception_4c/3x3
I0403 09:07:31.850256  6091 net.cpp:91] Creating Layer inception_4c/3x3
I0403 09:07:31.850278  6091 net.cpp:425] inception_4c/3x3 <- inception_4c/3x3_reduce
I0403 09:07:31.850308  6091 net.cpp:399] inception_4c/3x3 -> inception_4c/3x3
I0403 09:07:31.853210  6091 net.cpp:141] Setting up inception_4c/3x3
I0403 09:07:31.853246  6091 net.cpp:148] Top shape: 24 256 14 14 (1204224)
I0403 09:07:31.853267  6091 net.cpp:156] Memory required for data: 1042831296
I0403 09:07:31.853303  6091 layer_factory.hpp:77] Creating layer inception_4c/relu_3x3
I0403 09:07:31.853335  6091 net.cpp:91] Creating Layer inception_4c/relu_3x3
I0403 09:07:31.853358  6091 net.cpp:425] inception_4c/relu_3x3 <- inception_4c/3x3
I0403 09:07:31.853380  6091 net.cpp:386] inception_4c/relu_3x3 -> inception_4c/3x3 (in-place)
I0403 09:07:31.853423  6091 net.cpp:141] Setting up inception_4c/relu_3x3
I0403 09:07:31.853447  6091 net.cpp:148] Top shape: 24 256 14 14 (1204224)
I0403 09:07:31.853466  6091 net.cpp:156] Memory required for data: 1047648192
I0403 09:07:31.853483  6091 layer_factory.hpp:77] Creating layer inception_4c/5x5_reduce
I0403 09:07:31.853513  6091 net.cpp:91] Creating Layer inception_4c/5x5_reduce
I0403 09:07:31.853536  6091 net.cpp:425] inception_4c/5x5_reduce <- inception_4b/output_inception_4b/output_0_split_2
I0403 09:07:31.853560  6091 net.cpp:399] inception_4c/5x5_reduce -> inception_4c/5x5_reduce
I0403 09:07:31.853902  6091 net.cpp:141] Setting up inception_4c/5x5_reduce
I0403 09:07:31.853934  6091 net.cpp:148] Top shape: 24 24 14 14 (112896)
I0403 09:07:31.853952  6091 net.cpp:156] Memory required for data: 1048099776
I0403 09:07:31.853974  6091 layer_factory.hpp:77] Creating layer inception_4c/relu_5x5_reduce
I0403 09:07:31.853997  6091 net.cpp:91] Creating Layer inception_4c/relu_5x5_reduce
I0403 09:07:31.854018  6091 net.cpp:425] inception_4c/relu_5x5_reduce <- inception_4c/5x5_reduce
I0403 09:07:31.854043  6091 net.cpp:386] inception_4c/relu_5x5_reduce -> inception_4c/5x5_reduce (in-place)
I0403 09:07:31.854066  6091 net.cpp:141] Setting up inception_4c/relu_5x5_reduce
I0403 09:07:31.854087  6091 net.cpp:148] Top shape: 24 24 14 14 (112896)
I0403 09:07:31.854105  6091 net.cpp:156] Memory required for data: 1048551360
I0403 09:07:31.854123  6091 layer_factory.hpp:77] Creating layer inception_4c/5x5
I0403 09:07:31.854152  6091 net.cpp:91] Creating Layer inception_4c/5x5
I0403 09:07:31.854174  6091 net.cpp:425] inception_4c/5x5 <- inception_4c/5x5_reduce
I0403 09:07:31.854197  6091 net.cpp:399] inception_4c/5x5 -> inception_4c/5x5
I0403 09:07:31.854724  6091 net.cpp:141] Setting up inception_4c/5x5
I0403 09:07:31.854756  6091 net.cpp:148] Top shape: 24 64 14 14 (301056)
I0403 09:07:31.854775  6091 net.cpp:156] Memory required for data: 1049755584
I0403 09:07:31.854797  6091 layer_factory.hpp:77] Creating layer inception_4c/relu_5x5
I0403 09:07:31.854820  6091 net.cpp:91] Creating Layer inception_4c/relu_5x5
I0403 09:07:31.854840  6091 net.cpp:425] inception_4c/relu_5x5 <- inception_4c/5x5
I0403 09:07:31.854863  6091 net.cpp:386] inception_4c/relu_5x5 -> inception_4c/5x5 (in-place)
I0403 09:07:31.854888  6091 net.cpp:141] Setting up inception_4c/relu_5x5
I0403 09:07:31.854910  6091 net.cpp:148] Top shape: 24 64 14 14 (301056)
I0403 09:07:31.854929  6091 net.cpp:156] Memory required for data: 1050959808
I0403 09:07:31.854948  6091 layer_factory.hpp:77] Creating layer inception_4c/pool
I0403 09:07:31.854969  6091 net.cpp:91] Creating Layer inception_4c/pool
I0403 09:07:31.854987  6091 net.cpp:425] inception_4c/pool <- inception_4b/output_inception_4b/output_0_split_3
I0403 09:07:31.855012  6091 net.cpp:399] inception_4c/pool -> inception_4c/pool
I0403 09:07:31.855075  6091 net.cpp:141] Setting up inception_4c/pool
I0403 09:07:31.855104  6091 net.cpp:148] Top shape: 24 512 14 14 (2408448)
I0403 09:07:31.855123  6091 net.cpp:156] Memory required for data: 1060593600
I0403 09:07:31.855140  6091 layer_factory.hpp:77] Creating layer inception_4c/pool_proj
I0403 09:07:31.855168  6091 net.cpp:91] Creating Layer inception_4c/pool_proj
I0403 09:07:31.855190  6091 net.cpp:425] inception_4c/pool_proj <- inception_4c/pool
I0403 09:07:31.855217  6091 net.cpp:399] inception_4c/pool_proj -> inception_4c/pool_proj
I0403 09:07:31.855700  6091 net.cpp:141] Setting up inception_4c/pool_proj
I0403 09:07:31.855731  6091 net.cpp:148] Top shape: 24 64 14 14 (301056)
I0403 09:07:31.855751  6091 net.cpp:156] Memory required for data: 1061797824
I0403 09:07:31.855773  6091 layer_factory.hpp:77] Creating layer inception_4c/relu_pool_proj
I0403 09:07:31.855797  6091 net.cpp:91] Creating Layer inception_4c/relu_pool_proj
I0403 09:07:31.855816  6091 net.cpp:425] inception_4c/relu_pool_proj <- inception_4c/pool_proj
I0403 09:07:31.855839  6091 net.cpp:386] inception_4c/relu_pool_proj -> inception_4c/pool_proj (in-place)
I0403 09:07:31.855864  6091 net.cpp:141] Setting up inception_4c/relu_pool_proj
I0403 09:07:31.855901  6091 net.cpp:148] Top shape: 24 64 14 14 (301056)
I0403 09:07:31.855921  6091 net.cpp:156] Memory required for data: 1063002048
I0403 09:07:31.855939  6091 layer_factory.hpp:77] Creating layer inception_4c/output
I0403 09:07:31.855964  6091 net.cpp:91] Creating Layer inception_4c/output
I0403 09:07:31.855986  6091 net.cpp:425] inception_4c/output <- inception_4c/1x1
I0403 09:07:31.856009  6091 net.cpp:425] inception_4c/output <- inception_4c/3x3
I0403 09:07:31.856027  6091 net.cpp:425] inception_4c/output <- inception_4c/5x5
I0403 09:07:31.856046  6091 net.cpp:425] inception_4c/output <- inception_4c/pool_proj
I0403 09:07:31.856067  6091 net.cpp:399] inception_4c/output -> inception_4c/output
I0403 09:07:31.856117  6091 net.cpp:141] Setting up inception_4c/output
I0403 09:07:31.856147  6091 net.cpp:148] Top shape: 24 512 14 14 (2408448)
I0403 09:07:31.856165  6091 net.cpp:156] Memory required for data: 1072635840
I0403 09:07:31.856184  6091 layer_factory.hpp:77] Creating layer inception_4c/output_inception_4c/output_0_split
I0403 09:07:31.856205  6091 net.cpp:91] Creating Layer inception_4c/output_inception_4c/output_0_split
I0403 09:07:31.856225  6091 net.cpp:425] inception_4c/output_inception_4c/output_0_split <- inception_4c/output
I0403 09:07:31.856250  6091 net.cpp:399] inception_4c/output_inception_4c/output_0_split -> inception_4c/output_inception_4c/output_0_split_0
I0403 09:07:31.856276  6091 net.cpp:399] inception_4c/output_inception_4c/output_0_split -> inception_4c/output_inception_4c/output_0_split_1
I0403 09:07:31.856302  6091 net.cpp:399] inception_4c/output_inception_4c/output_0_split -> inception_4c/output_inception_4c/output_0_split_2
I0403 09:07:31.856329  6091 net.cpp:399] inception_4c/output_inception_4c/output_0_split -> inception_4c/output_inception_4c/output_0_split_3
I0403 09:07:31.856413  6091 net.cpp:141] Setting up inception_4c/output_inception_4c/output_0_split
I0403 09:07:31.856441  6091 net.cpp:148] Top shape: 24 512 14 14 (2408448)
I0403 09:07:31.856462  6091 net.cpp:148] Top shape: 24 512 14 14 (2408448)
I0403 09:07:31.856482  6091 net.cpp:148] Top shape: 24 512 14 14 (2408448)
I0403 09:07:31.856500  6091 net.cpp:148] Top shape: 24 512 14 14 (2408448)
I0403 09:07:31.856518  6091 net.cpp:156] Memory required for data: 1111171008
I0403 09:07:31.856534  6091 layer_factory.hpp:77] Creating layer inception_4d/1x1
I0403 09:07:31.856564  6091 net.cpp:91] Creating Layer inception_4d/1x1
I0403 09:07:31.856586  6091 net.cpp:425] inception_4d/1x1 <- inception_4c/output_inception_4c/output_0_split_0
I0403 09:07:31.856617  6091 net.cpp:399] inception_4d/1x1 -> inception_4d/1x1
I0403 09:07:31.857254  6091 net.cpp:141] Setting up inception_4d/1x1
I0403 09:07:31.857285  6091 net.cpp:148] Top shape: 24 112 14 14 (526848)
I0403 09:07:31.857303  6091 net.cpp:156] Memory required for data: 1113278400
I0403 09:07:31.857326  6091 layer_factory.hpp:77] Creating layer inception_4d/relu_1x1
I0403 09:07:31.857349  6091 net.cpp:91] Creating Layer inception_4d/relu_1x1
I0403 09:07:31.857369  6091 net.cpp:425] inception_4d/relu_1x1 <- inception_4d/1x1
I0403 09:07:31.857394  6091 net.cpp:386] inception_4d/relu_1x1 -> inception_4d/1x1 (in-place)
I0403 09:07:31.857421  6091 net.cpp:141] Setting up inception_4d/relu_1x1
I0403 09:07:31.857442  6091 net.cpp:148] Top shape: 24 112 14 14 (526848)
I0403 09:07:31.857460  6091 net.cpp:156] Memory required for data: 1115385792
I0403 09:07:31.857477  6091 layer_factory.hpp:77] Creating layer inception_4d/3x3_reduce
I0403 09:07:31.857501  6091 net.cpp:91] Creating Layer inception_4d/3x3_reduce
I0403 09:07:31.857522  6091 net.cpp:425] inception_4d/3x3_reduce <- inception_4c/output_inception_4c/output_0_split_1
I0403 09:07:31.857549  6091 net.cpp:399] inception_4d/3x3_reduce -> inception_4d/3x3_reduce
I0403 09:07:31.858327  6091 net.cpp:141] Setting up inception_4d/3x3_reduce
I0403 09:07:31.858360  6091 net.cpp:148] Top shape: 24 144 14 14 (677376)
I0403 09:07:31.858378  6091 net.cpp:156] Memory required for data: 1118095296
I0403 09:07:31.858417  6091 layer_factory.hpp:77] Creating layer inception_4d/relu_3x3_reduce
I0403 09:07:31.858441  6091 net.cpp:91] Creating Layer inception_4d/relu_3x3_reduce
I0403 09:07:31.858463  6091 net.cpp:425] inception_4d/relu_3x3_reduce <- inception_4d/3x3_reduce
I0403 09:07:31.858484  6091 net.cpp:386] inception_4d/relu_3x3_reduce -> inception_4d/3x3_reduce (in-place)
I0403 09:07:31.858511  6091 net.cpp:141] Setting up inception_4d/relu_3x3_reduce
I0403 09:07:31.858535  6091 net.cpp:148] Top shape: 24 144 14 14 (677376)
I0403 09:07:31.858552  6091 net.cpp:156] Memory required for data: 1120804800
I0403 09:07:31.858571  6091 layer_factory.hpp:77] Creating layer inception_4d/3x3
I0403 09:07:31.858603  6091 net.cpp:91] Creating Layer inception_4d/3x3
I0403 09:07:31.858628  6091 net.cpp:425] inception_4d/3x3 <- inception_4d/3x3_reduce
I0403 09:07:31.858650  6091 net.cpp:399] inception_4d/3x3 -> inception_4d/3x3
I0403 09:07:31.862511  6091 net.cpp:141] Setting up inception_4d/3x3
I0403 09:07:31.862550  6091 net.cpp:148] Top shape: 24 288 14 14 (1354752)
I0403 09:07:31.862571  6091 net.cpp:156] Memory required for data: 1126223808
I0403 09:07:31.862594  6091 layer_factory.hpp:77] Creating layer inception_4d/relu_3x3
I0403 09:07:31.862632  6091 net.cpp:91] Creating Layer inception_4d/relu_3x3
I0403 09:07:31.862653  6091 net.cpp:425] inception_4d/relu_3x3 <- inception_4d/3x3
I0403 09:07:31.862675  6091 net.cpp:386] inception_4d/relu_3x3 -> inception_4d/3x3 (in-place)
I0403 09:07:31.862699  6091 net.cpp:141] Setting up inception_4d/relu_3x3
I0403 09:07:31.862720  6091 net.cpp:148] Top shape: 24 288 14 14 (1354752)
I0403 09:07:31.862737  6091 net.cpp:156] Memory required for data: 1131642816
I0403 09:07:31.862756  6091 layer_factory.hpp:77] Creating layer inception_4d/5x5_reduce
I0403 09:07:31.862784  6091 net.cpp:91] Creating Layer inception_4d/5x5_reduce
I0403 09:07:31.862807  6091 net.cpp:425] inception_4d/5x5_reduce <- inception_4c/output_inception_4c/output_0_split_2
I0403 09:07:31.862831  6091 net.cpp:399] inception_4d/5x5_reduce -> inception_4d/5x5_reduce
I0403 09:07:31.863212  6091 net.cpp:141] Setting up inception_4d/5x5_reduce
I0403 09:07:31.863243  6091 net.cpp:148] Top shape: 24 32 14 14 (150528)
I0403 09:07:31.863262  6091 net.cpp:156] Memory required for data: 1132244928
I0403 09:07:31.863283  6091 layer_factory.hpp:77] Creating layer inception_4d/relu_5x5_reduce
I0403 09:07:31.863308  6091 net.cpp:91] Creating Layer inception_4d/relu_5x5_reduce
I0403 09:07:31.863330  6091 net.cpp:425] inception_4d/relu_5x5_reduce <- inception_4d/5x5_reduce
I0403 09:07:31.863353  6091 net.cpp:386] inception_4d/relu_5x5_reduce -> inception_4d/5x5_reduce (in-place)
I0403 09:07:31.863375  6091 net.cpp:141] Setting up inception_4d/relu_5x5_reduce
I0403 09:07:31.863396  6091 net.cpp:148] Top shape: 24 32 14 14 (150528)
I0403 09:07:31.863415  6091 net.cpp:156] Memory required for data: 1132847040
I0403 09:07:31.863433  6091 layer_factory.hpp:77] Creating layer inception_4d/5x5
I0403 09:07:31.863461  6091 net.cpp:91] Creating Layer inception_4d/5x5
I0403 09:07:31.863484  6091 net.cpp:425] inception_4d/5x5 <- inception_4d/5x5_reduce
I0403 09:07:31.863507  6091 net.cpp:399] inception_4d/5x5 -> inception_4d/5x5
I0403 09:07:31.864116  6091 net.cpp:141] Setting up inception_4d/5x5
I0403 09:07:31.864151  6091 net.cpp:148] Top shape: 24 64 14 14 (301056)
I0403 09:07:31.864171  6091 net.cpp:156] Memory required for data: 1134051264
I0403 09:07:31.864193  6091 layer_factory.hpp:77] Creating layer inception_4d/relu_5x5
I0403 09:07:31.864214  6091 net.cpp:91] Creating Layer inception_4d/relu_5x5
I0403 09:07:31.864234  6091 net.cpp:425] inception_4d/relu_5x5 <- inception_4d/5x5
I0403 09:07:31.864255  6091 net.cpp:386] inception_4d/relu_5x5 -> inception_4d/5x5 (in-place)
I0403 09:07:31.864279  6091 net.cpp:141] Setting up inception_4d/relu_5x5
I0403 09:07:31.864300  6091 net.cpp:148] Top shape: 24 64 14 14 (301056)
I0403 09:07:31.864318  6091 net.cpp:156] Memory required for data: 1135255488
I0403 09:07:31.864336  6091 layer_factory.hpp:77] Creating layer inception_4d/pool
I0403 09:07:31.864377  6091 net.cpp:91] Creating Layer inception_4d/pool
I0403 09:07:31.864398  6091 net.cpp:425] inception_4d/pool <- inception_4c/output_inception_4c/output_0_split_3
I0403 09:07:31.864424  6091 net.cpp:399] inception_4d/pool -> inception_4d/pool
I0403 09:07:31.864490  6091 net.cpp:141] Setting up inception_4d/pool
I0403 09:07:31.864518  6091 net.cpp:148] Top shape: 24 512 14 14 (2408448)
I0403 09:07:31.864537  6091 net.cpp:156] Memory required for data: 1144889280
I0403 09:07:31.864555  6091 layer_factory.hpp:77] Creating layer inception_4d/pool_proj
I0403 09:07:31.864585  6091 net.cpp:91] Creating Layer inception_4d/pool_proj
I0403 09:07:31.864614  6091 net.cpp:425] inception_4d/pool_proj <- inception_4d/pool
I0403 09:07:31.864640  6091 net.cpp:399] inception_4d/pool_proj -> inception_4d/pool_proj
I0403 09:07:31.865734  6091 net.cpp:141] Setting up inception_4d/pool_proj
I0403 09:07:31.865770  6091 net.cpp:148] Top shape: 24 64 14 14 (301056)
I0403 09:07:31.865789  6091 net.cpp:156] Memory required for data: 1146093504
I0403 09:07:31.865813  6091 layer_factory.hpp:77] Creating layer inception_4d/relu_pool_proj
I0403 09:07:31.865835  6091 net.cpp:91] Creating Layer inception_4d/relu_pool_proj
I0403 09:07:31.865856  6091 net.cpp:425] inception_4d/relu_pool_proj <- inception_4d/pool_proj
I0403 09:07:31.865877  6091 net.cpp:386] inception_4d/relu_pool_proj -> inception_4d/pool_proj (in-place)
I0403 09:07:31.865903  6091 net.cpp:141] Setting up inception_4d/relu_pool_proj
I0403 09:07:31.865926  6091 net.cpp:148] Top shape: 24 64 14 14 (301056)
I0403 09:07:31.865943  6091 net.cpp:156] Memory required for data: 1147297728
I0403 09:07:31.865960  6091 layer_factory.hpp:77] Creating layer inception_4d/output
I0403 09:07:31.865981  6091 net.cpp:91] Creating Layer inception_4d/output
I0403 09:07:31.866000  6091 net.cpp:425] inception_4d/output <- inception_4d/1x1
I0403 09:07:31.866019  6091 net.cpp:425] inception_4d/output <- inception_4d/3x3
I0403 09:07:31.866039  6091 net.cpp:425] inception_4d/output <- inception_4d/5x5
I0403 09:07:31.866057  6091 net.cpp:425] inception_4d/output <- inception_4d/pool_proj
I0403 09:07:31.866078  6091 net.cpp:399] inception_4d/output -> inception_4d/output
I0403 09:07:31.866127  6091 net.cpp:141] Setting up inception_4d/output
I0403 09:07:31.866155  6091 net.cpp:148] Top shape: 24 528 14 14 (2483712)
I0403 09:07:31.866173  6091 net.cpp:156] Memory required for data: 1157232576
I0403 09:07:31.866190  6091 layer_factory.hpp:77] Creating layer inception_4d/output_inception_4d/output_0_split
I0403 09:07:31.866212  6091 net.cpp:91] Creating Layer inception_4d/output_inception_4d/output_0_split
I0403 09:07:31.866231  6091 net.cpp:425] inception_4d/output_inception_4d/output_0_split <- inception_4d/output
I0403 09:07:31.866256  6091 net.cpp:399] inception_4d/output_inception_4d/output_0_split -> inception_4d/output_inception_4d/output_0_split_0
I0403 09:07:31.866283  6091 net.cpp:399] inception_4d/output_inception_4d/output_0_split -> inception_4d/output_inception_4d/output_0_split_1
I0403 09:07:31.866308  6091 net.cpp:399] inception_4d/output_inception_4d/output_0_split -> inception_4d/output_inception_4d/output_0_split_2
I0403 09:07:31.866334  6091 net.cpp:399] inception_4d/output_inception_4d/output_0_split -> inception_4d/output_inception_4d/output_0_split_3
I0403 09:07:31.866358  6091 net.cpp:399] inception_4d/output_inception_4d/output_0_split -> inception_4d/output_inception_4d/output_0_split_4
I0403 09:07:31.866453  6091 net.cpp:141] Setting up inception_4d/output_inception_4d/output_0_split
I0403 09:07:31.866482  6091 net.cpp:148] Top shape: 24 528 14 14 (2483712)
I0403 09:07:31.866502  6091 net.cpp:148] Top shape: 24 528 14 14 (2483712)
I0403 09:07:31.866520  6091 net.cpp:148] Top shape: 24 528 14 14 (2483712)
I0403 09:07:31.866539  6091 net.cpp:148] Top shape: 24 528 14 14 (2483712)
I0403 09:07:31.866557  6091 net.cpp:148] Top shape: 24 528 14 14 (2483712)
I0403 09:07:31.866575  6091 net.cpp:156] Memory required for data: 1206906816
I0403 09:07:31.866626  6091 layer_factory.hpp:77] Creating layer loss2/ave_pool
I0403 09:07:31.866652  6091 net.cpp:91] Creating Layer loss2/ave_pool
I0403 09:07:31.866672  6091 net.cpp:425] loss2/ave_pool <- inception_4d/output_inception_4d/output_0_split_0
I0403 09:07:31.866695  6091 net.cpp:399] loss2/ave_pool -> loss2/ave_pool
I0403 09:07:31.866744  6091 net.cpp:141] Setting up loss2/ave_pool
I0403 09:07:31.866775  6091 net.cpp:148] Top shape: 24 528 4 4 (202752)
I0403 09:07:31.866793  6091 net.cpp:156] Memory required for data: 1207717824
I0403 09:07:31.866811  6091 layer_factory.hpp:77] Creating layer loss2/conv
I0403 09:07:31.866837  6091 net.cpp:91] Creating Layer loss2/conv
I0403 09:07:31.866858  6091 net.cpp:425] loss2/conv <- loss2/ave_pool
I0403 09:07:31.866883  6091 net.cpp:399] loss2/conv -> loss2/conv
I0403 09:07:31.868203  6091 net.cpp:141] Setting up loss2/conv
I0403 09:07:31.868237  6091 net.cpp:148] Top shape: 24 128 4 4 (49152)
I0403 09:07:31.868257  6091 net.cpp:156] Memory required for data: 1207914432
I0403 09:07:31.868279  6091 layer_factory.hpp:77] Creating layer loss2/relu_conv
I0403 09:07:31.868307  6091 net.cpp:91] Creating Layer loss2/relu_conv
I0403 09:07:31.868330  6091 net.cpp:425] loss2/relu_conv <- loss2/conv
I0403 09:07:31.868352  6091 net.cpp:386] loss2/relu_conv -> loss2/conv (in-place)
I0403 09:07:31.868376  6091 net.cpp:141] Setting up loss2/relu_conv
I0403 09:07:31.868397  6091 net.cpp:148] Top shape: 24 128 4 4 (49152)
I0403 09:07:31.868414  6091 net.cpp:156] Memory required for data: 1208111040
I0403 09:07:31.868432  6091 layer_factory.hpp:77] Creating layer loss2/fc
I0403 09:07:31.868458  6091 net.cpp:91] Creating Layer loss2/fc
I0403 09:07:31.868479  6091 net.cpp:425] loss2/fc <- loss2/conv
I0403 09:07:31.868501  6091 net.cpp:399] loss2/fc -> loss2/fc
I0403 09:07:31.888087  6091 net.cpp:141] Setting up loss2/fc
I0403 09:07:31.888128  6091 net.cpp:148] Top shape: 24 1024 (24576)
I0403 09:07:31.888149  6091 net.cpp:156] Memory required for data: 1208209344
I0403 09:07:31.888171  6091 layer_factory.hpp:77] Creating layer loss2/relu_fc
I0403 09:07:31.888195  6091 net.cpp:91] Creating Layer loss2/relu_fc
I0403 09:07:31.888214  6091 net.cpp:425] loss2/relu_fc <- loss2/fc
I0403 09:07:31.888236  6091 net.cpp:386] loss2/relu_fc -> loss2/fc (in-place)
I0403 09:07:31.888265  6091 net.cpp:141] Setting up loss2/relu_fc
I0403 09:07:31.888286  6091 net.cpp:148] Top shape: 24 1024 (24576)
I0403 09:07:31.888303  6091 net.cpp:156] Memory required for data: 1208307648
I0403 09:07:31.888322  6091 layer_factory.hpp:77] Creating layer loss2/drop_fc
I0403 09:07:31.888345  6091 net.cpp:91] Creating Layer loss2/drop_fc
I0403 09:07:31.888363  6091 net.cpp:425] loss2/drop_fc <- loss2/fc
I0403 09:07:31.888384  6091 net.cpp:386] loss2/drop_fc -> loss2/fc (in-place)
I0403 09:07:31.888435  6091 net.cpp:141] Setting up loss2/drop_fc
I0403 09:07:31.888463  6091 net.cpp:148] Top shape: 24 1024 (24576)
I0403 09:07:31.888481  6091 net.cpp:156] Memory required for data: 1208405952
I0403 09:07:31.888499  6091 layer_factory.hpp:77] Creating layer loss2/classifier_plantvillage
I0403 09:07:31.888523  6091 net.cpp:91] Creating Layer loss2/classifier_plantvillage
I0403 09:07:31.888547  6091 net.cpp:425] loss2/classifier_plantvillage <- loss2/fc
I0403 09:07:31.888571  6091 net.cpp:399] loss2/classifier_plantvillage -> loss2/classifier_plantvillage
I0403 09:07:31.888973  6091 net.cpp:141] Setting up loss2/classifier_plantvillage
I0403 09:07:31.889004  6091 net.cpp:148] Top shape: 24 38 (912)
I0403 09:07:31.889022  6091 net.cpp:156] Memory required for data: 1208409600
I0403 09:07:31.889044  6091 layer_factory.hpp:77] Creating layer inception_4e/1x1
I0403 09:07:31.889073  6091 net.cpp:91] Creating Layer inception_4e/1x1
I0403 09:07:31.889096  6091 net.cpp:425] inception_4e/1x1 <- inception_4d/output_inception_4d/output_0_split_1
I0403 09:07:31.889119  6091 net.cpp:399] inception_4e/1x1 -> inception_4e/1x1
I0403 09:07:31.890287  6091 net.cpp:141] Setting up inception_4e/1x1
I0403 09:07:31.890318  6091 net.cpp:148] Top shape: 24 256 14 14 (1204224)
I0403 09:07:31.890357  6091 net.cpp:156] Memory required for data: 1213226496
I0403 09:07:31.890379  6091 layer_factory.hpp:77] Creating layer inception_4e/relu_1x1
I0403 09:07:31.890403  6091 net.cpp:91] Creating Layer inception_4e/relu_1x1
I0403 09:07:31.890422  6091 net.cpp:425] inception_4e/relu_1x1 <- inception_4e/1x1
I0403 09:07:31.890444  6091 net.cpp:386] inception_4e/relu_1x1 -> inception_4e/1x1 (in-place)
I0403 09:07:31.890466  6091 net.cpp:141] Setting up inception_4e/relu_1x1
I0403 09:07:31.890486  6091 net.cpp:148] Top shape: 24 256 14 14 (1204224)
I0403 09:07:31.890503  6091 net.cpp:156] Memory required for data: 1218043392
I0403 09:07:31.890521  6091 layer_factory.hpp:77] Creating layer inception_4e/3x3_reduce
I0403 09:07:31.890549  6091 net.cpp:91] Creating Layer inception_4e/3x3_reduce
I0403 09:07:31.890570  6091 net.cpp:425] inception_4e/3x3_reduce <- inception_4d/output_inception_4d/output_0_split_2
I0403 09:07:31.890601  6091 net.cpp:399] inception_4e/3x3_reduce -> inception_4e/3x3_reduce
I0403 09:07:31.892047  6091 net.cpp:141] Setting up inception_4e/3x3_reduce
I0403 09:07:31.892084  6091 net.cpp:148] Top shape: 24 160 14 14 (752640)
I0403 09:07:31.892103  6091 net.cpp:156] Memory required for data: 1221053952
I0403 09:07:31.892127  6091 layer_factory.hpp:77] Creating layer inception_4e/relu_3x3_reduce
I0403 09:07:31.892149  6091 net.cpp:91] Creating Layer inception_4e/relu_3x3_reduce
I0403 09:07:31.892168  6091 net.cpp:425] inception_4e/relu_3x3_reduce <- inception_4e/3x3_reduce
I0403 09:07:31.892189  6091 net.cpp:386] inception_4e/relu_3x3_reduce -> inception_4e/3x3_reduce (in-place)
I0403 09:07:31.892213  6091 net.cpp:141] Setting up inception_4e/relu_3x3_reduce
I0403 09:07:31.892235  6091 net.cpp:148] Top shape: 24 160 14 14 (752640)
I0403 09:07:31.892251  6091 net.cpp:156] Memory required for data: 1224064512
I0403 09:07:31.892269  6091 layer_factory.hpp:77] Creating layer inception_4e/3x3
I0403 09:07:31.892297  6091 net.cpp:91] Creating Layer inception_4e/3x3
I0403 09:07:31.892319  6091 net.cpp:425] inception_4e/3x3 <- inception_4e/3x3_reduce
I0403 09:07:31.892345  6091 net.cpp:399] inception_4e/3x3 -> inception_4e/3x3
I0403 09:07:31.897053  6091 net.cpp:141] Setting up inception_4e/3x3
I0403 09:07:31.897089  6091 net.cpp:148] Top shape: 24 320 14 14 (1505280)
I0403 09:07:31.897106  6091 net.cpp:156] Memory required for data: 1230085632
I0403 09:07:31.897128  6091 layer_factory.hpp:77] Creating layer inception_4e/relu_3x3
I0403 09:07:31.897151  6091 net.cpp:91] Creating Layer inception_4e/relu_3x3
I0403 09:07:31.897171  6091 net.cpp:425] inception_4e/relu_3x3 <- inception_4e/3x3
I0403 09:07:31.897195  6091 net.cpp:386] inception_4e/relu_3x3 -> inception_4e/3x3 (in-place)
I0403 09:07:31.897222  6091 net.cpp:141] Setting up inception_4e/relu_3x3
I0403 09:07:31.897243  6091 net.cpp:148] Top shape: 24 320 14 14 (1505280)
I0403 09:07:31.897260  6091 net.cpp:156] Memory required for data: 1236106752
I0403 09:07:31.897276  6091 layer_factory.hpp:77] Creating layer inception_4e/5x5_reduce
I0403 09:07:31.897305  6091 net.cpp:91] Creating Layer inception_4e/5x5_reduce
I0403 09:07:31.897328  6091 net.cpp:425] inception_4e/5x5_reduce <- inception_4d/output_inception_4d/output_0_split_3
I0403 09:07:31.897352  6091 net.cpp:399] inception_4e/5x5_reduce -> inception_4e/5x5_reduce
I0403 09:07:31.897739  6091 net.cpp:141] Setting up inception_4e/5x5_reduce
I0403 09:07:31.897770  6091 net.cpp:148] Top shape: 24 32 14 14 (150528)
I0403 09:07:31.897789  6091 net.cpp:156] Memory required for data: 1236708864
I0403 09:07:31.897810  6091 layer_factory.hpp:77] Creating layer inception_4e/relu_5x5_reduce
I0403 09:07:31.897833  6091 net.cpp:91] Creating Layer inception_4e/relu_5x5_reduce
I0403 09:07:31.897853  6091 net.cpp:425] inception_4e/relu_5x5_reduce <- inception_4e/5x5_reduce
I0403 09:07:31.897877  6091 net.cpp:386] inception_4e/relu_5x5_reduce -> inception_4e/5x5_reduce (in-place)
I0403 09:07:31.897903  6091 net.cpp:141] Setting up inception_4e/relu_5x5_reduce
I0403 09:07:31.897924  6091 net.cpp:148] Top shape: 24 32 14 14 (150528)
I0403 09:07:31.897960  6091 net.cpp:156] Memory required for data: 1237310976
I0403 09:07:31.897979  6091 layer_factory.hpp:77] Creating layer inception_4e/5x5
I0403 09:07:31.898010  6091 net.cpp:91] Creating Layer inception_4e/5x5
I0403 09:07:31.898031  6091 net.cpp:425] inception_4e/5x5 <- inception_4e/5x5_reduce
I0403 09:07:31.898056  6091 net.cpp:399] inception_4e/5x5 -> inception_4e/5x5
I0403 09:07:31.899004  6091 net.cpp:141] Setting up inception_4e/5x5
I0403 09:07:31.899034  6091 net.cpp:148] Top shape: 24 128 14 14 (602112)
I0403 09:07:31.899054  6091 net.cpp:156] Memory required for data: 1239719424
I0403 09:07:31.899075  6091 layer_factory.hpp:77] Creating layer inception_4e/relu_5x5
I0403 09:07:31.899096  6091 net.cpp:91] Creating Layer inception_4e/relu_5x5
I0403 09:07:31.899116  6091 net.cpp:425] inception_4e/relu_5x5 <- inception_4e/5x5
I0403 09:07:31.899140  6091 net.cpp:386] inception_4e/relu_5x5 -> inception_4e/5x5 (in-place)
I0403 09:07:31.899164  6091 net.cpp:141] Setting up inception_4e/relu_5x5
I0403 09:07:31.899186  6091 net.cpp:148] Top shape: 24 128 14 14 (602112)
I0403 09:07:31.899204  6091 net.cpp:156] Memory required for data: 1242127872
I0403 09:07:31.899221  6091 layer_factory.hpp:77] Creating layer inception_4e/pool
I0403 09:07:31.899262  6091 net.cpp:91] Creating Layer inception_4e/pool
I0403 09:07:31.899286  6091 net.cpp:425] inception_4e/pool <- inception_4d/output_inception_4d/output_0_split_4
I0403 09:07:31.899308  6091 net.cpp:399] inception_4e/pool -> inception_4e/pool
I0403 09:07:31.899372  6091 net.cpp:141] Setting up inception_4e/pool
I0403 09:07:31.899404  6091 net.cpp:148] Top shape: 24 528 14 14 (2483712)
I0403 09:07:31.899422  6091 net.cpp:156] Memory required for data: 1252062720
I0403 09:07:31.899441  6091 layer_factory.hpp:77] Creating layer inception_4e/pool_proj
I0403 09:07:31.899466  6091 net.cpp:91] Creating Layer inception_4e/pool_proj
I0403 09:07:31.899487  6091 net.cpp:425] inception_4e/pool_proj <- inception_4e/pool
I0403 09:07:31.899513  6091 net.cpp:399] inception_4e/pool_proj -> inception_4e/pool_proj
I0403 09:07:31.900223  6091 net.cpp:141] Setting up inception_4e/pool_proj
I0403 09:07:31.900254  6091 net.cpp:148] Top shape: 24 128 14 14 (602112)
I0403 09:07:31.900274  6091 net.cpp:156] Memory required for data: 1254471168
I0403 09:07:31.900295  6091 layer_factory.hpp:77] Creating layer inception_4e/relu_pool_proj
I0403 09:07:31.900317  6091 net.cpp:91] Creating Layer inception_4e/relu_pool_proj
I0403 09:07:31.900337  6091 net.cpp:425] inception_4e/relu_pool_proj <- inception_4e/pool_proj
I0403 09:07:31.900357  6091 net.cpp:386] inception_4e/relu_pool_proj -> inception_4e/pool_proj (in-place)
I0403 09:07:31.900380  6091 net.cpp:141] Setting up inception_4e/relu_pool_proj
I0403 09:07:31.900401  6091 net.cpp:148] Top shape: 24 128 14 14 (602112)
I0403 09:07:31.900419  6091 net.cpp:156] Memory required for data: 1256879616
I0403 09:07:31.900436  6091 layer_factory.hpp:77] Creating layer inception_4e/output
I0403 09:07:31.900463  6091 net.cpp:91] Creating Layer inception_4e/output
I0403 09:07:31.900485  6091 net.cpp:425] inception_4e/output <- inception_4e/1x1
I0403 09:07:31.900504  6091 net.cpp:425] inception_4e/output <- inception_4e/3x3
I0403 09:07:31.900523  6091 net.cpp:425] inception_4e/output <- inception_4e/5x5
I0403 09:07:31.900542  6091 net.cpp:425] inception_4e/output <- inception_4e/pool_proj
I0403 09:07:31.900563  6091 net.cpp:399] inception_4e/output -> inception_4e/output
I0403 09:07:31.900616  6091 net.cpp:141] Setting up inception_4e/output
I0403 09:07:31.900645  6091 net.cpp:148] Top shape: 24 832 14 14 (3913728)
I0403 09:07:31.900662  6091 net.cpp:156] Memory required for data: 1272534528
I0403 09:07:31.900681  6091 layer_factory.hpp:77] Creating layer pool4/3x3_s2
I0403 09:07:31.900702  6091 net.cpp:91] Creating Layer pool4/3x3_s2
I0403 09:07:31.900722  6091 net.cpp:425] pool4/3x3_s2 <- inception_4e/output
I0403 09:07:31.900746  6091 net.cpp:399] pool4/3x3_s2 -> pool4/3x3_s2
I0403 09:07:31.900809  6091 net.cpp:141] Setting up pool4/3x3_s2
I0403 09:07:31.900851  6091 net.cpp:148] Top shape: 24 832 7 7 (978432)
I0403 09:07:31.900871  6091 net.cpp:156] Memory required for data: 1276448256
I0403 09:07:31.900887  6091 layer_factory.hpp:77] Creating layer pool4/3x3_s2_pool4/3x3_s2_0_split
I0403 09:07:31.900913  6091 net.cpp:91] Creating Layer pool4/3x3_s2_pool4/3x3_s2_0_split
I0403 09:07:31.900934  6091 net.cpp:425] pool4/3x3_s2_pool4/3x3_s2_0_split <- pool4/3x3_s2
I0403 09:07:31.900956  6091 net.cpp:399] pool4/3x3_s2_pool4/3x3_s2_0_split -> pool4/3x3_s2_pool4/3x3_s2_0_split_0
I0403 09:07:31.900980  6091 net.cpp:399] pool4/3x3_s2_pool4/3x3_s2_0_split -> pool4/3x3_s2_pool4/3x3_s2_0_split_1
I0403 09:07:31.901005  6091 net.cpp:399] pool4/3x3_s2_pool4/3x3_s2_0_split -> pool4/3x3_s2_pool4/3x3_s2_0_split_2
I0403 09:07:31.901034  6091 net.cpp:399] pool4/3x3_s2_pool4/3x3_s2_0_split -> pool4/3x3_s2_pool4/3x3_s2_0_split_3
I0403 09:07:31.901116  6091 net.cpp:141] Setting up pool4/3x3_s2_pool4/3x3_s2_0_split
I0403 09:07:31.901144  6091 net.cpp:148] Top shape: 24 832 7 7 (978432)
I0403 09:07:31.901165  6091 net.cpp:148] Top shape: 24 832 7 7 (978432)
I0403 09:07:31.901183  6091 net.cpp:148] Top shape: 24 832 7 7 (978432)
I0403 09:07:31.901201  6091 net.cpp:148] Top shape: 24 832 7 7 (978432)
I0403 09:07:31.901218  6091 net.cpp:156] Memory required for data: 1292103168
I0403 09:07:31.901237  6091 layer_factory.hpp:77] Creating layer inception_5a/1x1
I0403 09:07:31.901264  6091 net.cpp:91] Creating Layer inception_5a/1x1
I0403 09:07:31.901285  6091 net.cpp:425] inception_5a/1x1 <- pool4/3x3_s2_pool4/3x3_s2_0_split_0
I0403 09:07:31.901314  6091 net.cpp:399] inception_5a/1x1 -> inception_5a/1x1
I0403 09:07:31.903622  6091 net.cpp:141] Setting up inception_5a/1x1
I0403 09:07:31.903657  6091 net.cpp:148] Top shape: 24 256 7 7 (301056)
I0403 09:07:31.903677  6091 net.cpp:156] Memory required for data: 1293307392
I0403 09:07:31.903698  6091 layer_factory.hpp:77] Creating layer inception_5a/relu_1x1
I0403 09:07:31.903720  6091 net.cpp:91] Creating Layer inception_5a/relu_1x1
I0403 09:07:31.903739  6091 net.cpp:425] inception_5a/relu_1x1 <- inception_5a/1x1
I0403 09:07:31.903764  6091 net.cpp:386] inception_5a/relu_1x1 -> inception_5a/1x1 (in-place)
I0403 09:07:31.903789  6091 net.cpp:141] Setting up inception_5a/relu_1x1
I0403 09:07:31.903810  6091 net.cpp:148] Top shape: 24 256 7 7 (301056)
I0403 09:07:31.903828  6091 net.cpp:156] Memory required for data: 1294511616
I0403 09:07:31.903846  6091 layer_factory.hpp:77] Creating layer inception_5a/3x3_reduce
I0403 09:07:31.903872  6091 net.cpp:91] Creating Layer inception_5a/3x3_reduce
I0403 09:07:31.903895  6091 net.cpp:425] inception_5a/3x3_reduce <- pool4/3x3_s2_pool4/3x3_s2_0_split_1
I0403 09:07:31.903918  6091 net.cpp:399] inception_5a/3x3_reduce -> inception_5a/3x3_reduce
I0403 09:07:31.905686  6091 net.cpp:141] Setting up inception_5a/3x3_reduce
I0403 09:07:31.905720  6091 net.cpp:148] Top shape: 24 160 7 7 (188160)
I0403 09:07:31.905740  6091 net.cpp:156] Memory required for data: 1295264256
I0403 09:07:31.905761  6091 layer_factory.hpp:77] Creating layer inception_5a/relu_3x3_reduce
I0403 09:07:31.905784  6091 net.cpp:91] Creating Layer inception_5a/relu_3x3_reduce
I0403 09:07:31.905805  6091 net.cpp:425] inception_5a/relu_3x3_reduce <- inception_5a/3x3_reduce
I0403 09:07:31.905830  6091 net.cpp:386] inception_5a/relu_3x3_reduce -> inception_5a/3x3_reduce (in-place)
I0403 09:07:31.905856  6091 net.cpp:141] Setting up inception_5a/relu_3x3_reduce
I0403 09:07:31.905879  6091 net.cpp:148] Top shape: 24 160 7 7 (188160)
I0403 09:07:31.905895  6091 net.cpp:156] Memory required for data: 1296016896
I0403 09:07:31.905912  6091 layer_factory.hpp:77] Creating layer inception_5a/3x3
I0403 09:07:31.905941  6091 net.cpp:91] Creating Layer inception_5a/3x3
I0403 09:07:31.905963  6091 net.cpp:425] inception_5a/3x3 <- inception_5a/3x3_reduce
I0403 09:07:31.905987  6091 net.cpp:399] inception_5a/3x3 -> inception_5a/3x3
I0403 09:07:31.910676  6091 net.cpp:141] Setting up inception_5a/3x3
I0403 09:07:31.910709  6091 net.cpp:148] Top shape: 24 320 7 7 (376320)
I0403 09:07:31.910747  6091 net.cpp:156] Memory required for data: 1297522176
I0403 09:07:31.910770  6091 layer_factory.hpp:77] Creating layer inception_5a/relu_3x3
I0403 09:07:31.910794  6091 net.cpp:91] Creating Layer inception_5a/relu_3x3
I0403 09:07:31.910814  6091 net.cpp:425] inception_5a/relu_3x3 <- inception_5a/3x3
I0403 09:07:31.910838  6091 net.cpp:386] inception_5a/relu_3x3 -> inception_5a/3x3 (in-place)
I0403 09:07:31.910864  6091 net.cpp:141] Setting up inception_5a/relu_3x3
I0403 09:07:31.910887  6091 net.cpp:148] Top shape: 24 320 7 7 (376320)
I0403 09:07:31.910903  6091 net.cpp:156] Memory required for data: 1299027456
I0403 09:07:31.910922  6091 layer_factory.hpp:77] Creating layer inception_5a/5x5_reduce
I0403 09:07:31.910949  6091 net.cpp:91] Creating Layer inception_5a/5x5_reduce
I0403 09:07:31.910971  6091 net.cpp:425] inception_5a/5x5_reduce <- pool4/3x3_s2_pool4/3x3_s2_0_split_2
I0403 09:07:31.910995  6091 net.cpp:399] inception_5a/5x5_reduce -> inception_5a/5x5_reduce
I0403 09:07:31.911451  6091 net.cpp:141] Setting up inception_5a/5x5_reduce
I0403 09:07:31.911481  6091 net.cpp:148] Top shape: 24 32 7 7 (37632)
I0403 09:07:31.911499  6091 net.cpp:156] Memory required for data: 1299177984
I0403 09:07:31.911521  6091 layer_factory.hpp:77] Creating layer inception_5a/relu_5x5_reduce
I0403 09:07:31.911543  6091 net.cpp:91] Creating Layer inception_5a/relu_5x5_reduce
I0403 09:07:31.911563  6091 net.cpp:425] inception_5a/relu_5x5_reduce <- inception_5a/5x5_reduce
I0403 09:07:31.911587  6091 net.cpp:386] inception_5a/relu_5x5_reduce -> inception_5a/5x5_reduce (in-place)
I0403 09:07:31.911618  6091 net.cpp:141] Setting up inception_5a/relu_5x5_reduce
I0403 09:07:31.911640  6091 net.cpp:148] Top shape: 24 32 7 7 (37632)
I0403 09:07:31.911658  6091 net.cpp:156] Memory required for data: 1299328512
I0403 09:07:31.911675  6091 layer_factory.hpp:77] Creating layer inception_5a/5x5
I0403 09:07:31.911700  6091 net.cpp:91] Creating Layer inception_5a/5x5
I0403 09:07:31.911720  6091 net.cpp:425] inception_5a/5x5 <- inception_5a/5x5_reduce
I0403 09:07:31.911746  6091 net.cpp:399] inception_5a/5x5 -> inception_5a/5x5
I0403 09:07:31.912709  6091 net.cpp:141] Setting up inception_5a/5x5
I0403 09:07:31.912740  6091 net.cpp:148] Top shape: 24 128 7 7 (150528)
I0403 09:07:31.912760  6091 net.cpp:156] Memory required for data: 1299930624
I0403 09:07:31.912781  6091 layer_factory.hpp:77] Creating layer inception_5a/relu_5x5
I0403 09:07:31.912802  6091 net.cpp:91] Creating Layer inception_5a/relu_5x5
I0403 09:07:31.912822  6091 net.cpp:425] inception_5a/relu_5x5 <- inception_5a/5x5
I0403 09:07:31.912842  6091 net.cpp:386] inception_5a/relu_5x5 -> inception_5a/5x5 (in-place)
I0403 09:07:31.912864  6091 net.cpp:141] Setting up inception_5a/relu_5x5
I0403 09:07:31.912885  6091 net.cpp:148] Top shape: 24 128 7 7 (150528)
I0403 09:07:31.912902  6091 net.cpp:156] Memory required for data: 1300532736
I0403 09:07:31.912920  6091 layer_factory.hpp:77] Creating layer inception_5a/pool
I0403 09:07:31.912943  6091 net.cpp:91] Creating Layer inception_5a/pool
I0403 09:07:31.912966  6091 net.cpp:425] inception_5a/pool <- pool4/3x3_s2_pool4/3x3_s2_0_split_3
I0403 09:07:31.912987  6091 net.cpp:399] inception_5a/pool -> inception_5a/pool
I0403 09:07:31.913053  6091 net.cpp:141] Setting up inception_5a/pool
I0403 09:07:31.913082  6091 net.cpp:148] Top shape: 24 832 7 7 (978432)
I0403 09:07:31.913100  6091 net.cpp:156] Memory required for data: 1304446464
I0403 09:07:31.913117  6091 layer_factory.hpp:77] Creating layer inception_5a/pool_proj
I0403 09:07:31.913146  6091 net.cpp:91] Creating Layer inception_5a/pool_proj
I0403 09:07:31.913166  6091 net.cpp:425] inception_5a/pool_proj <- inception_5a/pool
I0403 09:07:31.913190  6091 net.cpp:399] inception_5a/pool_proj -> inception_5a/pool_proj
I0403 09:07:31.914783  6091 net.cpp:141] Setting up inception_5a/pool_proj
I0403 09:07:31.914816  6091 net.cpp:148] Top shape: 24 128 7 7 (150528)
I0403 09:07:31.914834  6091 net.cpp:156] Memory required for data: 1305048576
I0403 09:07:31.914875  6091 layer_factory.hpp:77] Creating layer inception_5a/relu_pool_proj
I0403 09:07:31.914898  6091 net.cpp:91] Creating Layer inception_5a/relu_pool_proj
I0403 09:07:31.914918  6091 net.cpp:425] inception_5a/relu_pool_proj <- inception_5a/pool_proj
I0403 09:07:31.914943  6091 net.cpp:386] inception_5a/relu_pool_proj -> inception_5a/pool_proj (in-place)
I0403 09:07:31.914969  6091 net.cpp:141] Setting up inception_5a/relu_pool_proj
I0403 09:07:31.914990  6091 net.cpp:148] Top shape: 24 128 7 7 (150528)
I0403 09:07:31.915009  6091 net.cpp:156] Memory required for data: 1305650688
I0403 09:07:31.915025  6091 layer_factory.hpp:77] Creating layer inception_5a/output
I0403 09:07:31.915046  6091 net.cpp:91] Creating Layer inception_5a/output
I0403 09:07:31.915066  6091 net.cpp:425] inception_5a/output <- inception_5a/1x1
I0403 09:07:31.915086  6091 net.cpp:425] inception_5a/output <- inception_5a/3x3
I0403 09:07:31.915104  6091 net.cpp:425] inception_5a/output <- inception_5a/5x5
I0403 09:07:31.915123  6091 net.cpp:425] inception_5a/output <- inception_5a/pool_proj
I0403 09:07:31.915144  6091 net.cpp:399] inception_5a/output -> inception_5a/output
I0403 09:07:31.915194  6091 net.cpp:141] Setting up inception_5a/output
I0403 09:07:31.915221  6091 net.cpp:148] Top shape: 24 832 7 7 (978432)
I0403 09:07:31.915240  6091 net.cpp:156] Memory required for data: 1309564416
I0403 09:07:31.915257  6091 layer_factory.hpp:77] Creating layer inception_5a/output_inception_5a/output_0_split
I0403 09:07:31.915278  6091 net.cpp:91] Creating Layer inception_5a/output_inception_5a/output_0_split
I0403 09:07:31.915297  6091 net.cpp:425] inception_5a/output_inception_5a/output_0_split <- inception_5a/output
I0403 09:07:31.915323  6091 net.cpp:399] inception_5a/output_inception_5a/output_0_split -> inception_5a/output_inception_5a/output_0_split_0
I0403 09:07:31.915350  6091 net.cpp:399] inception_5a/output_inception_5a/output_0_split -> inception_5a/output_inception_5a/output_0_split_1
I0403 09:07:31.915375  6091 net.cpp:399] inception_5a/output_inception_5a/output_0_split -> inception_5a/output_inception_5a/output_0_split_2
I0403 09:07:31.915400  6091 net.cpp:399] inception_5a/output_inception_5a/output_0_split -> inception_5a/output_inception_5a/output_0_split_3
I0403 09:07:31.915487  6091 net.cpp:141] Setting up inception_5a/output_inception_5a/output_0_split
I0403 09:07:31.915516  6091 net.cpp:148] Top shape: 24 832 7 7 (978432)
I0403 09:07:31.915537  6091 net.cpp:148] Top shape: 24 832 7 7 (978432)
I0403 09:07:31.915556  6091 net.cpp:148] Top shape: 24 832 7 7 (978432)
I0403 09:07:31.915575  6091 net.cpp:148] Top shape: 24 832 7 7 (978432)
I0403 09:07:31.915591  6091 net.cpp:156] Memory required for data: 1325219328
I0403 09:07:31.915613  6091 layer_factory.hpp:77] Creating layer inception_5b/1x1
I0403 09:07:31.915642  6091 net.cpp:91] Creating Layer inception_5b/1x1
I0403 09:07:31.915664  6091 net.cpp:425] inception_5b/1x1 <- inception_5a/output_inception_5a/output_0_split_0
I0403 09:07:31.915688  6091 net.cpp:399] inception_5b/1x1 -> inception_5b/1x1
I0403 09:07:31.918822  6091 net.cpp:141] Setting up inception_5b/1x1
I0403 09:07:31.918856  6091 net.cpp:148] Top shape: 24 384 7 7 (451584)
I0403 09:07:31.918875  6091 net.cpp:156] Memory required for data: 1327025664
I0403 09:07:31.918897  6091 layer_factory.hpp:77] Creating layer inception_5b/relu_1x1
I0403 09:07:31.918920  6091 net.cpp:91] Creating Layer inception_5b/relu_1x1
I0403 09:07:31.918939  6091 net.cpp:425] inception_5b/relu_1x1 <- inception_5b/1x1
I0403 09:07:31.918964  6091 net.cpp:386] inception_5b/relu_1x1 -> inception_5b/1x1 (in-place)
I0403 09:07:31.918990  6091 net.cpp:141] Setting up inception_5b/relu_1x1
I0403 09:07:31.919010  6091 net.cpp:148] Top shape: 24 384 7 7 (451584)
I0403 09:07:31.919028  6091 net.cpp:156] Memory required for data: 1328832000
I0403 09:07:31.919045  6091 layer_factory.hpp:77] Creating layer inception_5b/3x3_reduce
I0403 09:07:31.919075  6091 net.cpp:91] Creating Layer inception_5b/3x3_reduce
I0403 09:07:31.919112  6091 net.cpp:425] inception_5b/3x3_reduce <- inception_5a/output_inception_5a/output_0_split_1
I0403 09:07:31.919138  6091 net.cpp:399] inception_5b/3x3_reduce -> inception_5b/3x3_reduce
I0403 09:07:31.921103  6091 net.cpp:141] Setting up inception_5b/3x3_reduce
I0403 09:07:31.921136  6091 net.cpp:148] Top shape: 24 192 7 7 (225792)
I0403 09:07:31.921155  6091 net.cpp:156] Memory required for data: 1329735168
I0403 09:07:31.921178  6091 layer_factory.hpp:77] Creating layer inception_5b/relu_3x3_reduce
I0403 09:07:31.921201  6091 net.cpp:91] Creating Layer inception_5b/relu_3x3_reduce
I0403 09:07:31.921222  6091 net.cpp:425] inception_5b/relu_3x3_reduce <- inception_5b/3x3_reduce
I0403 09:07:31.921247  6091 net.cpp:386] inception_5b/relu_3x3_reduce -> inception_5b/3x3_reduce (in-place)
I0403 09:07:31.921272  6091 net.cpp:141] Setting up inception_5b/relu_3x3_reduce
I0403 09:07:31.921293  6091 net.cpp:148] Top shape: 24 192 7 7 (225792)
I0403 09:07:31.921311  6091 net.cpp:156] Memory required for data: 1330638336
I0403 09:07:31.921329  6091 layer_factory.hpp:77] Creating layer inception_5b/3x3
I0403 09:07:31.921358  6091 net.cpp:91] Creating Layer inception_5b/3x3
I0403 09:07:31.921380  6091 net.cpp:425] inception_5b/3x3 <- inception_5b/3x3_reduce
I0403 09:07:31.921404  6091 net.cpp:399] inception_5b/3x3 -> inception_5b/3x3
I0403 09:07:31.928737  6091 net.cpp:141] Setting up inception_5b/3x3
I0403 09:07:31.928771  6091 net.cpp:148] Top shape: 24 384 7 7 (451584)
I0403 09:07:31.928791  6091 net.cpp:156] Memory required for data: 1332444672
I0403 09:07:31.928812  6091 layer_factory.hpp:77] Creating layer inception_5b/relu_3x3
I0403 09:07:31.928836  6091 net.cpp:91] Creating Layer inception_5b/relu_3x3
I0403 09:07:31.928856  6091 net.cpp:425] inception_5b/relu_3x3 <- inception_5b/3x3
I0403 09:07:31.928877  6091 net.cpp:386] inception_5b/relu_3x3 -> inception_5b/3x3 (in-place)
I0403 09:07:31.928900  6091 net.cpp:141] Setting up inception_5b/relu_3x3
I0403 09:07:31.928921  6091 net.cpp:148] Top shape: 24 384 7 7 (451584)
I0403 09:07:31.928939  6091 net.cpp:156] Memory required for data: 1334251008
I0403 09:07:31.928956  6091 layer_factory.hpp:77] Creating layer inception_5b/5x5_reduce
I0403 09:07:31.928984  6091 net.cpp:91] Creating Layer inception_5b/5x5_reduce
I0403 09:07:31.929006  6091 net.cpp:425] inception_5b/5x5_reduce <- inception_5a/output_inception_5a/output_0_split_2
I0403 09:07:31.929033  6091 net.cpp:399] inception_5b/5x5_reduce -> inception_5b/5x5_reduce
I0403 09:07:31.929589  6091 net.cpp:141] Setting up inception_5b/5x5_reduce
I0403 09:07:31.929623  6091 net.cpp:148] Top shape: 24 48 7 7 (56448)
I0403 09:07:31.929643  6091 net.cpp:156] Memory required for data: 1334476800
I0403 09:07:31.929666  6091 layer_factory.hpp:77] Creating layer inception_5b/relu_5x5_reduce
I0403 09:07:31.929690  6091 net.cpp:91] Creating Layer inception_5b/relu_5x5_reduce
I0403 09:07:31.929711  6091 net.cpp:425] inception_5b/relu_5x5_reduce <- inception_5b/5x5_reduce
I0403 09:07:31.929733  6091 net.cpp:386] inception_5b/relu_5x5_reduce -> inception_5b/5x5_reduce (in-place)
I0403 09:07:31.929756  6091 net.cpp:141] Setting up inception_5b/relu_5x5_reduce
I0403 09:07:31.929777  6091 net.cpp:148] Top shape: 24 48 7 7 (56448)
I0403 09:07:31.929795  6091 net.cpp:156] Memory required for data: 1334702592
I0403 09:07:31.929812  6091 layer_factory.hpp:77] Creating layer inception_5b/5x5
I0403 09:07:31.929839  6091 net.cpp:91] Creating Layer inception_5b/5x5
I0403 09:07:31.929862  6091 net.cpp:425] inception_5b/5x5 <- inception_5b/5x5_reduce
I0403 09:07:31.929889  6091 net.cpp:399] inception_5b/5x5 -> inception_5b/5x5
I0403 09:07:31.931205  6091 net.cpp:141] Setting up inception_5b/5x5
I0403 09:07:31.931241  6091 net.cpp:148] Top shape: 24 128 7 7 (150528)
I0403 09:07:31.931259  6091 net.cpp:156] Memory required for data: 1335304704
I0403 09:07:31.931282  6091 layer_factory.hpp:77] Creating layer inception_5b/relu_5x5
I0403 09:07:31.931304  6091 net.cpp:91] Creating Layer inception_5b/relu_5x5
I0403 09:07:31.931324  6091 net.cpp:425] inception_5b/relu_5x5 <- inception_5b/5x5
I0403 09:07:31.931363  6091 net.cpp:386] inception_5b/relu_5x5 -> inception_5b/5x5 (in-place)
I0403 09:07:31.931390  6091 net.cpp:141] Setting up inception_5b/relu_5x5
I0403 09:07:31.931411  6091 net.cpp:148] Top shape: 24 128 7 7 (150528)
I0403 09:07:31.931428  6091 net.cpp:156] Memory required for data: 1335906816
I0403 09:07:31.931445  6091 layer_factory.hpp:77] Creating layer inception_5b/pool
I0403 09:07:31.931466  6091 net.cpp:91] Creating Layer inception_5b/pool
I0403 09:07:31.931486  6091 net.cpp:425] inception_5b/pool <- inception_5a/output_inception_5a/output_0_split_3
I0403 09:07:31.931509  6091 net.cpp:399] inception_5b/pool -> inception_5b/pool
I0403 09:07:31.931576  6091 net.cpp:141] Setting up inception_5b/pool
I0403 09:07:31.931608  6091 net.cpp:148] Top shape: 24 832 7 7 (978432)
I0403 09:07:31.931628  6091 net.cpp:156] Memory required for data: 1339820544
I0403 09:07:31.931646  6091 layer_factory.hpp:77] Creating layer inception_5b/pool_proj
I0403 09:07:31.931674  6091 net.cpp:91] Creating Layer inception_5b/pool_proj
I0403 09:07:31.931697  6091 net.cpp:425] inception_5b/pool_proj <- inception_5b/pool
I0403 09:07:31.931725  6091 net.cpp:399] inception_5b/pool_proj -> inception_5b/pool_proj
I0403 09:07:31.933728  6091 net.cpp:141] Setting up inception_5b/pool_proj
I0403 09:07:31.933765  6091 net.cpp:148] Top shape: 24 128 7 7 (150528)
I0403 09:07:31.933786  6091 net.cpp:156] Memory required for data: 1340422656
I0403 09:07:31.933809  6091 layer_factory.hpp:77] Creating layer inception_5b/relu_pool_proj
I0403 09:07:31.933831  6091 net.cpp:91] Creating Layer inception_5b/relu_pool_proj
I0403 09:07:31.933851  6091 net.cpp:425] inception_5b/relu_pool_proj <- inception_5b/pool_proj
I0403 09:07:31.933872  6091 net.cpp:386] inception_5b/relu_pool_proj -> inception_5b/pool_proj (in-place)
I0403 09:07:31.933895  6091 net.cpp:141] Setting up inception_5b/relu_pool_proj
I0403 09:07:31.933917  6091 net.cpp:148] Top shape: 24 128 7 7 (150528)
I0403 09:07:31.933933  6091 net.cpp:156] Memory required for data: 1341024768
I0403 09:07:31.933951  6091 layer_factory.hpp:77] Creating layer inception_5b/output
I0403 09:07:31.933972  6091 net.cpp:91] Creating Layer inception_5b/output
I0403 09:07:31.933990  6091 net.cpp:425] inception_5b/output <- inception_5b/1x1
I0403 09:07:31.934010  6091 net.cpp:425] inception_5b/output <- inception_5b/3x3
I0403 09:07:31.934028  6091 net.cpp:425] inception_5b/output <- inception_5b/5x5
I0403 09:07:31.934047  6091 net.cpp:425] inception_5b/output <- inception_5b/pool_proj
I0403 09:07:31.934072  6091 net.cpp:399] inception_5b/output -> inception_5b/output
I0403 09:07:31.934120  6091 net.cpp:141] Setting up inception_5b/output
I0403 09:07:31.934151  6091 net.cpp:148] Top shape: 24 1024 7 7 (1204224)
I0403 09:07:31.934171  6091 net.cpp:156] Memory required for data: 1345841664
I0403 09:07:31.934190  6091 layer_factory.hpp:77] Creating layer pool5/7x7_s1
I0403 09:07:31.934211  6091 net.cpp:91] Creating Layer pool5/7x7_s1
I0403 09:07:31.934231  6091 net.cpp:425] pool5/7x7_s1 <- inception_5b/output
I0403 09:07:31.934252  6091 net.cpp:399] pool5/7x7_s1 -> pool5/7x7_s1
I0403 09:07:31.934310  6091 net.cpp:141] Setting up pool5/7x7_s1
I0403 09:07:31.934340  6091 net.cpp:148] Top shape: 24 1024 1 1 (24576)
I0403 09:07:31.934356  6091 net.cpp:156] Memory required for data: 1345939968
I0403 09:07:31.934375  6091 layer_factory.hpp:77] Creating layer pool5/drop_7x7_s1
I0403 09:07:31.934399  6091 net.cpp:91] Creating Layer pool5/drop_7x7_s1
I0403 09:07:31.934420  6091 net.cpp:425] pool5/drop_7x7_s1 <- pool5/7x7_s1
I0403 09:07:31.934442  6091 net.cpp:386] pool5/drop_7x7_s1 -> pool5/7x7_s1 (in-place)
I0403 09:07:31.934489  6091 net.cpp:141] Setting up pool5/drop_7x7_s1
I0403 09:07:31.934516  6091 net.cpp:148] Top shape: 24 1024 1 1 (24576)
I0403 09:07:31.934535  6091 net.cpp:156] Memory required for data: 1346038272
I0403 09:07:31.934552  6091 layer_factory.hpp:77] Creating layer loss3/classifier_plantvillage
I0403 09:07:31.934576  6091 net.cpp:91] Creating Layer loss3/classifier_plantvillage
I0403 09:07:31.934617  6091 net.cpp:425] loss3/classifier_plantvillage <- pool5/7x7_s1
I0403 09:07:31.934648  6091 net.cpp:399] loss3/classifier_plantvillage -> loss3/classifier_plantvillage
I0403 09:07:31.935067  6091 net.cpp:141] Setting up loss3/classifier_plantvillage
I0403 09:07:31.935097  6091 net.cpp:148] Top shape: 24 38 (912)
I0403 09:07:31.935117  6091 net.cpp:156] Memory required for data: 1346041920
I0403 09:07:31.935137  6091 layer_factory.hpp:77] Creating layer loss1/loss
I0403 09:07:31.935166  6091 net.cpp:91] Creating Layer loss1/loss
I0403 09:07:31.935187  6091 net.cpp:425] loss1/loss <- loss1/classifier_plantvillage
I0403 09:07:31.935207  6091 net.cpp:425] loss1/loss <- label_data_1_split_0
I0403 09:07:31.935230  6091 net.cpp:399] loss1/loss -> loss1/loss
…
I0403 09:07:31.947183  6091 net.cpp:313] The NetState phase (1) differed from the phase (0) specified by a rule in layer data
I0403 09:07:31.951961  6091 net.cpp:49] Initializing net from parameters: 
state {
  phase: TEST
}
layer {
  name: "data"
  type: "Data"
  top: "data"
  top: "label"
  include {
    phase: TEST
  }
  transform_param {
    mirror: false
    crop_size: 224
    mean_file: "/home/mohanty/data/final_dataset/lmdb/color-40-60/mean.binaryproto"
  }
  data_param {
    source: "/home/mohanty/data/final_dataset/lmdb/color-40-60/test_db"
    batch_size: 24
    backend: LMDB
  }
}
layer {
  name: "conv1/7x7_s2"
  type: "Convolution"
  bottom: "data"
  top: "conv1/7x7_s2"
  param {
    lr_mult: 1
    decay_mult: 1
  }
  param {
    lr_mult: 2
    decay_mult: 0
  }
  convolution_param {
    num_output: 64
    pad: 3
    kernel_size: 7
    stride: 2
    weight_filler {
      type: "xavier"
      std: 0.1
    }
    bias_filler {
      type: "constant"
      value: 0.2
    }
  }
}
layer {
  name: "conv1/relu_7x7"
  type: "ReLU"
  bottom: "conv1/7x7_s2"
  top: "conv1/7x7_s2"
}
layer {
  name: "pool1/3x3_s2"
  type: "Pooling"
  bottom: "conv1/7x7_s2"
  top: "pool1/3x3_s2"
  pooling_param {
    pool: MAX
    kernel_size: 3
    stride: 2
  }
}
layer {
  name: "pool1/norm1"
  type: "LRN"
  bottom: "pool1/3x3_s2"
  top: "pool1/norm1"
  lrn_param {
    local_size: 5
    alpha: 0.0001
    beta: 0.75
  }
}
layer {
  name: "conv2/3x3_reduce"
  type: "Convolution"
  bottom: "pool1/norm1"
  top: "conv2/3x3_reduce"
  param {
    lr_mult: 1
    decay_mult: 1
  }
  param {
    lr_mult: 2
    decay_mult: 0
  }
  convolution_param {
    num_output: 64
    kernel_size: 1
    weight_filler {
      type: "xavier"
      std: 0.1
    }
    bias_filler {
      type: "constant"
      value: 0.2
    }
  }
}
layer {
  name: "conv2/relu_3x3_reduce"
  type: "ReLU"
  bottom: "conv2/3x3_reduce"
  top: "conv2/3x3_reduce"
}
layer {
  name: "conv2/3x3"
  type: "Convolution"
  bottom: "conv2/3x3_reduce"
  top: "conv2/3x3"
  param {
    lr_mult: 1
    decay_mult: 1
  }
  param {
    lr_mult: 2
    decay_mult: 0
  }
  convolution_param {
    num_output: 192
    pad: 1
    kernel_size: 3
    weight_filler {
      type: "xavier"
      std: 0.03
    }
    bias_filler {
      type: "constant"
      value: 0.2
    }
  }
}
layer {
  name: "conv2/relu_3x3"
  type: "ReLU"
  bottom: "conv2/3x3"
  top: "conv2/3x3"
}
layer {
  name: "conv2/norm2"
  type: "LRN"
  bottom: "conv2/3x3"
  top: "conv2/norm2"
  lrn_param {
    local_size: 5
    alpha: 0.0001
    beta: 0.75
  }
}
layer {
  name: "pool2/3x3_s2"
  type: "Pooling"
  bottom: "conv2/norm2"
  top: "pool2/3x3_s2"
  pooling_param {
    pool: MAX
    kernel_size: 3
    stride: 2
  }
}
layer {
  name: "inception_3a/1x1"
  type: "Convolution"
  bottom: "pool2/3x3_s2"
  top: "inception_3a/1x1"
  param {
    lr_mult: 1
    decay_mult: 1
  }
  param {
    lr_mult: 2
    decay_mult: 0
  }
  convolution_param {
    num_output: 64
    kernel_size: 1
    weight_filler {
      type: "xavier"
      std: 0.03
    }
    bias_filler {
      type: "constant"
      value: 0.2
    }
  }
}
layer {
  name: "inception_3a/relu_1x1"
  type: "ReLU"
  bottom: "inception_3a/1x1"
  top: "inception_3a/1x1"
}
layer {
  name: "inception_3a/3x3_reduce"
  type: "Convolution"
  bottom: "pool2/3x3_s2"
  top: "inception_3a/3x3_reduce"
  param {
    lr_mult: 1
    decay_mult: 1
  }
  param {
    lr_mult: 2
    decay_mult: 0
  }
  convolution_param {
    num_output: 96
    kernel_size: 1
    weight_filler {
      type: "xavier"
      std: 0.09
    }
    bias_filler {
      type: "constant"
      value: 0.2
    }
  }
}
layer {
  name: "inception_3a/relu_3x3_reduce"
  type: "ReLU"
  bottom: "inception_3a/3x3_reduce"
  top: "inception_3a/3x3_reduce"
}
layer {
  name: "inception_3a/3x3"
  type: "Convolution"
  bottom: "inception_3a/3x3_reduce"
  top: "inception_3a/3x3"
  param {
    lr_mult: 1
    decay_mult: 1
  }
  param {
    lr_mult: 2
    decay_mult: 0
  }
  convolution_param {
    num_output: 128
    pad: 1
    kernel_size: 3
    weight_filler {
      type: "xavier"
      std: 0.03
    }
    bias_filler {
      type: "constant"
      value: 0.2
    }
  }
}
layer {
  name: "inception_3a/relu_3x3"
  type: "ReLU"
  bottom: "inception_3a/3x3"
  top: "inception_3a/3x3"
}
layer {
  name: "inception_3a/5x5_reduce"
  type: "Convolution"
  bottom: "pool2/3x3_s2"
  top: "inception_3a/5x5_reduce"
  param {
    lr_mult: 1
    decay_mult: 1
  }
  param {
    lr_mult: 2
    decay_mult: 0
  }
  convolution_param {
    num_output: 16
    kernel_size: 1
    weight_filler {
      type: "xavier"
      std: 0.2
    }
    bias_filler {
      type: "constant"
      value: 0.2
    }
  }
}
layer {
  name: "inception_3a/relu_5x5_reduce"
  type: "ReLU"
  bottom: "inception_3a/5x5_reduce"
  top: "inception_3a/5x5_reduce"
}
layer {
  name: "inception_3a/5x5"
  type: "Convolution"
  bottom: "inception_3a/5x5_reduce"
  top: "inception_3a/5x5"
  param {
    lr_mult: 1
    decay_mult: 1
  }
  param {
    lr_mult: 2
    decay_mult: 0
  }
  convolution_param {
    num_output: 32
    pad: 2
    kernel_size: 5
    weight_filler {
      type: "xavier"
      std: 0.03
    }
    bias_filler {
      type: "constant"
      value: 0.2
    }
  }
}
layer {
  name: "inception_3a/relu_5x5"
  type: "ReLU"
  bottom: "inception_3a/5x5"
  top: "inception_3a/5x5"
}
layer {
  name: "inception_3a/pool"
  type: "Pooling"
  bottom: "pool2/3x3_s2"
  top: "inception_3a/pool"
  pooling_param {
    pool: MAX
    kernel_size: 3
    stride: 1
    pad: 1
  }
}
layer {
  name: "inception_3a/pool_proj"
  type: "Convolution"
  bottom: "inception_3a/pool"
  top: "inception_3a/pool_proj"
  param {
    lr_mult: 1
    decay_mult: 1
  }
  param {
    lr_mult: 2
    decay_mult: 0
  }
  convolution_param {
    num_output: 32
    kernel_size: 1
    weight_filler {
      type: "xavier"
      std: 0.1
    }
    bias_filler {
      type: "constant"
      value: 0.2
    }
  }
}
layer {
  name: "inception_3a/relu_pool_proj"
  type: "ReLU"
  bottom: "inception_3a/pool_proj"
  top: "inception_3a/pool_proj"
}
layer {
  name: "inception_3a/output"
  type: "Concat"
  bottom: "inception_3a/1x1"
  bottom: "inception_3a/3x3"
  bottom: "inception_3a/5x5"
  bottom: "inception_3a/pool_proj"
  top: "inception_3a/output"
}
layer {
  name: "inception_3b/1x1"
  type: "Convolution"
  bottom: "inception_3a/output"
  top: "inception_3b/1x1"
  param {
    lr_mult: 1
    decay_mult: 1
  }
  param {
    lr_mult: 2
    decay_mult: 0
  }
  convolution_param {
    num_output: 128
    kernel_size: 1
    weight_filler {
      type: "xavier"
      std: 0.03
    }
    bias_filler {
      type: "constant"
      value: 0.2
    }
  }
}
layer {
  name: "inception_3b/relu_1x1"
  type: "ReLU"
  bottom: "inception_3b/1x1"
  top: "inception_3b/1x1"
}
layer {
  name: "inception_3b/3x3_reduce"
  type: "Convolution"
  bottom: "inception_3a/output"
  top: "inception_3b/3x3_reduce"
  param {
    lr_mult: 1
    decay_mult: 1
  }
  param {
    lr_mult: 2
    decay_mult: 0
  }
  convolution_param {
    num_output: 128
    kernel_size: 1
    weight_filler {
      type: "xavier"
      std: 0.09
    }
    bias_filler {
      type: "constant"
      value: 0.2
    }
  }
}
layer {
  name: "inception_3b/relu_3x3_reduce"
  type: "ReLU"
  bottom: "inception_3b/3x3_reduce"
  top: "inception_3b/3x3_reduce"
}
layer {
  name: "inception_3b/3x3"
  type: "Convolution"
  bottom: "inception_3b/3x3_reduce"
  top: "inception_3b/3x3"
  param {
    lr_mult: 1
    decay_mult: 1
  }
  param {
    lr_mult: 2
    decay_mult: 0
  }
  convolution_param {
    num_output: 192
    pad: 1
    kernel_size: 3
    weight_filler {
      type: "xavier"
      std: 0.03
    }
    bias_filler {
      type: "constant"
      value: 0.2
    }
  }
}
layer {
  name: "inception_3b/relu_3x3"
  type: "ReLU"
  bottom: "inception_3b/3x3"
  top: "inception_3b/3x3"
}
layer {
  name: "inception_3b/5x5_reduce"
  type: "Convolution"
  bottom: "inception_3a/output"
  top: "inception_3b/5x5_reduce"
  param {
    lr_mult: 1
    decay_mult: 1
  }
  param {
    lr_mult: 2
    decay_mult: 0
  }
  convolution_param {
    num_output: 32
    kernel_size: 1
    weight_filler {
      type: "xavier"
      std: 0.2
    }
    bias_filler {
      type: "constant"
      value: 0.2
    }
  }
}
layer {
  name: "inception_3b/relu_5x5_reduce"
  type: "ReLU"
  bottom: "inception_3b/5x5_reduce"
  top: "inception_3b/5x5_reduce"
}
layer {
  name: "inception_3b/5x5"
  type: "Convolution"
  bottom: "inception_3b/5x5_reduce"
  top: "inception_3b/5x5"
  param {
    lr_mult: 1
    decay_mult: 1
  }
  param {
    lr_mult: 2
    decay_mult: 0
  }
  convolution_param {
    num_output: 96
    pad: 2
    kernel_size: 5
    weight_filler {
      type: "xavier"
      std: 0.03
    }
    bias_filler {
      type: "constant"
      value: 0.2
    }
  }
}
layer {
  name: "inception_3b/relu_5x5"
  type: "ReLU"
  bottom: "inception_3b/5x5"
  top: "inception_3b/5x5"
}
layer {
  name: "inception_3b/pool"
  type: "Pooling"
  bottom: "inception_3a/output"
  top: "inception_3b/pool"
  pooling_param {
    pool: MAX
    kernel_size: 3
    stride: 1
    pad: 1
  }
}
layer {
  name: "inception_3b/pool_proj"
  type: "Convolution"
  bottom: "inception_3b/pool"
  top: "inception_3b/pool_proj"
  param {
    lr_mult: 1
    decay_mult: 1
  }
  param {
    lr_mult: 2
    decay_mult: 0
  }
  convolution_param {
    num_output: 64
    kernel_size: 1
    weight_filler {
      type: "xavier"
      std: 0.1
    }
    bias_filler {
      type: "constant"
      value: 0.2
    }
  }
}
layer {
  name: "inception_3b/relu_pool_proj"
  type: "ReLU"
  bottom: "inception_3b/pool_proj"
  top: "inception_3b/pool_proj"
}
layer {
  name: "inception_3b/output"
  type: "Concat"
  bottom: "inception_3b/1x1"
  bottom: "inception_3b/3x3"
  bottom: "inception_3b/5x5"
  bottom: "inception_3b/pool_proj"
  top: "inception_3b/output"
}
layer {
  name: "pool3/3x3_s2"
  type: "Pooling"
  bottom: "inception_3b/output"
  top: "pool3/3x3_s2"
  pooling_param {
    pool: MAX
    kernel_size: 3
    stride: 2
  }
}
layer {
  name: "inception_4a/1x1"
  type: "Convolution"
  bottom: "pool3/3x3_s2"
  top: "inception_4a/1x1"
  param {
    lr_mult: 1
    decay_mult: 1
  }
  param {
    lr_mult: 2
    decay_mult: 0
  }
  convolution_param {
    num_output: 192
    kernel_size: 1
    weight_filler {
      type: "xavier"
      std: 0.03
    }
    bias_filler {
      type: "constant"
      value: 0.2
    }
  }
}
layer {
  name: "inception_4a/relu_1x1"
  type: "ReLU"
  bottom: "inception_4a/1x1"
  top: "inception_4a/1x1"
}
layer {
  name: "inception_4a/3x3_reduce"
  type: "Convolution"
  bottom: "pool3/3x3_s2"
  top: "inception_4a/3x3_reduce"
  param {
    lr_mult: 1
    decay_mult: 1
  }
  param {
    lr_mult: 2
    decay_mult: 0
  }
  convolution_param {
    num_output: 96
    kernel_size: 1
    weight_filler {
      type: "xavier"
      std: 0.09
    }
    bias_filler {
      type: "constant"
      value: 0.2
    }
  }
}
layer {
  name: "inception_4a/relu_3x3_reduce"
  type: "ReLU"
  bottom: "inception_4a/3x3_reduce"
  top: "inception_4a/3x3_reduce"
}
layer {
  name: "inception_4a/3x3"
  type: "Convolution"
  bottom: "inception_4a/3x3_reduce"
  top: "inception_4a/3x3"
  param {
    lr_mult: 1
    decay_mult: 1
  }
  param {
    lr_mult: 2
    decay_mult: 0
  }
  convolution_param {
    num_output: 208
    pad: 1
    kernel_size: 3
    weight_filler {
      type: "xavier"
      std: 0.03
    }
    bias_filler {
      type: "constant"
      value: 0.2
    }
  }
}
layer {
  name: "inception_4a/relu_3x3"
  type: "ReLU"
  bottom: "inception_4a/3x3"
  top: "inception_4a/3x3"
}
layer {
  name: "inception_4a/5x5_reduce"
  type: "Convolution"
  bottom: "pool3/3x3_s2"
  top: "inception_4a/5x5_reduce"
  param {
    lr_mult: 1
    decay_mult: 1
  }
  param {
    lr_mult: 2
    decay_mult: 0
  }
  convolution_param {
    num_output: 16
    kernel_size: 1
    weight_filler {
      type: "xavier"
      std: 0.2
    }
    bias_filler {
      type: "constant"
      value: 0.2
    }
  }
}
layer {
  name: "inception_4a/relu_5x5_reduce"
  type: "ReLU"
  bottom: "inception_4a/5x5_reduce"
  top: "inception_4a/5x5_reduce"
}
layer {
  name: "inception_4a/5x5"
  type: "Convolution"
  bottom: "inception_4a/5x5_reduce"
  top: "inception_4a/5x5"
  param {
    lr_mult: 1
    decay_mult: 1
  }
  param {
    lr_mult: 2
    decay_mult: 0
  }
  convolution_param {
    num_output: 48
    pad: 2
    kernel_size: 5
    weight_filler {
      type: "xavier"
      std: 0.03
    }
    bias_filler {
      type: "constant"
      value: 0.2
    }
  }
}
layer {
  name: "inception_4a/relu_5x5"
  type: "ReLU"
  bottom: "inception_4a/5x5"
  top: "inception_4a/5x5"
}
layer {
  name: "inception_4a/pool"
  type: "Pooling"
  bottom: "pool3/3x3_s2"
  top: "inception_4a/pool"
  pooling_param {
    pool: MAX
    kernel_size: 3
    stride: 1
    pad: 1
  }
}
layer {
  name: "inception_4a/pool_proj"
  type: "Convolution"
  bottom: "inception_4a/pool"
  top: "inception_4a/pool_proj"
  param {
    lr_mult: 1
    decay_mult: 1
  }
  param {
    lr_mult: 2
    decay_mult: 0
  }
  convolution_param {
    num_output: 64
    kernel_size: 1
    weight_filler {
      type: "xavier"
      std: 0.1
    }
    bias_filler {
      type: "constant"
      value: 0.2
    }
  }
}
layer {
  name: "inception_4a/relu_pool_proj"
  type: "ReLU"
  bottom: "inception_4a/pool_proj"
  top: "inception_4a/pool_proj"
}
layer {
  name: "inception_4a/output"
  type: "Concat"
  bottom: "inception_4a/1x1"
  bottom: "inception_4a/3x3"
  bottom: "inception_4a/5x5"
  bottom: "inception_4a/pool_proj"
  top: "inception_4a/output"
}
layer {
  name: "loss1/ave_pool"
  type: "Pooling"
  bottom: "inception_4a/output"
  top: "loss1/ave_pool"
  pooling_param {
    pool: AVE
    kernel_size: 5
    stride: 3
  }
}
layer {
  name: "loss1/conv"
  type: "Convolution"
  bottom: "loss1/ave_pool"
  top: "loss1/conv"
  param {
    lr_mult: 1
    decay_mult: 1
  }
  param {
    lr_mult: 2
    decay_mult: 0
  }
  convolution_param {
    num_output: 128
    kernel_size: 1
    weight_filler {
      type: "xavier"
      std: 0.08
    }
    bias_filler {
      type: "constant"
      value: 0.2
    }
  }
}
layer {
  name: "loss1/relu_conv"
  type: "ReLU"
  bottom: "loss1/conv"
  top: "loss1/conv"
}
layer {
  name: "loss1/fc"
  type: "InnerProduct"
  bottom: "loss1/conv"
  top: "loss1/fc"
  param {
    lr_mult: 1
    decay_mult: 1
  }
  param {
    lr_mult: 2
    decay_mult: 0
  }
  inner_product_param {
    num_output: 1024
    weight_filler {
      type: "xavier"
      std: 0.02
    }
    bias_filler {
      type: "constant"
      value: 0.2
    }
  }
}
layer {
  name: "loss1/relu_fc"
  type: "ReLU"
  bottom: "loss1/fc"
  top: "loss1/fc"
}
layer {
  name: "loss1/drop_fc"
  type: "Dropout"
  bottom: "loss1/fc"
  top: "loss1/fc"
  dropout_param {
    dropout_ratio: 0.7
  }
}
layer {
  name: "loss1/classifier_plantvillage"
  type: "InnerProduct"
  bottom: "loss1/fc"
  top: "loss1/classifier_plantvillage"
  param {
    lr_mult: 1
    decay_mult: 1
  }
  param {
    lr_mult: 2
    decay_mult: 0
  }
  inner_product_param {
    num_output: 38
    weight_filler {
      type: "xavier"
      std: 0.0009765625
    }
    bias_filler {
      type: "constant"
      value: 0
    }
  }
}
layer {
  name: "inception_4b/1x1"
  type: "Convolution"
  bottom: "inception_4a/output"
  top: "inception_4b/1x1"
  param {
    lr_mult: 1
    decay_mult: 1
  }
  param {
    lr_mult: 2
    decay_mult: 0
  }
  convolution_param {
    num_output: 160
    kernel_size: 1
    weight_filler {
      type: "xavier"
      std: 0.03
    }
    bias_filler {
      type: "constant"
      value: 0.2
    }
  }
}
layer {
  name: "inception_4b/relu_1x1"
…
I0403 09:07:32.093777  6091 layer_factory.hpp:77] Creating layer inception_4c/pool
I0403 09:07:32.093801  6091 net.cpp:91] Creating Layer inception_4c/pool
I0403 09:07:32.093821  6091 net.cpp:425] inception_4c/pool <- inception_4b/output_inception_4b/output_0_split_3
I0403 09:07:32.093843  6091 net.cpp:399] inception_4c/pool -> inception_4c/pool
I0403 09:07:32.093917  6091 net.cpp:141] Setting up inception_4c/pool
I0403 09:07:32.093946  6091 net.cpp:148] Top shape: 24 512 14 14 (2408448)
I0403 09:07:32.093966  6091 net.cpp:156] Memory required for data: 1060605120
I0403 09:07:32.093984  6091 layer_factory.hpp:77] Creating layer inception_4c/pool_proj
I0403 09:07:32.094012  6091 net.cpp:91] Creating Layer inception_4c/pool_proj
I0403 09:07:32.094035  6091 net.cpp:425] inception_4c/pool_proj <- inception_4c/pool
I0403 09:07:32.094063  6091 net.cpp:399] inception_4c/pool_proj -> inception_4c/pool_proj
I0403 09:07:32.094578  6091 net.cpp:141] Setting up inception_4c/pool_proj
I0403 09:07:32.094615  6091 net.cpp:148] Top shape: 24 64 14 14 (301056)
I0403 09:07:32.094635  6091 net.cpp:156] Memory required for data: 1061809344
I0403 09:07:32.094657  6091 layer_factory.hpp:77] Creating layer inception_4c/relu_pool_proj
I0403 09:07:32.094683  6091 net.cpp:91] Creating Layer inception_4c/relu_pool_proj
I0403 09:07:32.094707  6091 net.cpp:425] inception_4c/relu_pool_proj <- inception_4c/pool_proj
I0403 09:07:32.094729  6091 net.cpp:386] inception_4c/relu_pool_proj -> inception_4c/pool_proj (in-place)
I0403 09:07:32.094753  6091 net.cpp:141] Setting up inception_4c/relu_pool_proj
I0403 09:07:32.094775  6091 net.cpp:148] Top shape: 24 64 14 14 (301056)
I0403 09:07:32.094794  6091 net.cpp:156] Memory required for data: 1063013568
I0403 09:07:32.094811  6091 layer_factory.hpp:77] Creating layer inception_4c/output
I0403 09:07:32.094836  6091 net.cpp:91] Creating Layer inception_4c/output
I0403 09:07:32.094857  6091 net.cpp:425] inception_4c/output <- inception_4c/1x1
I0403 09:07:32.094878  6091 net.cpp:425] inception_4c/output <- inception_4c/3x3
I0403 09:07:32.094899  6091 net.cpp:425] inception_4c/output <- inception_4c/5x5
I0403 09:07:32.094919  6091 net.cpp:425] inception_4c/output <- inception_4c/pool_proj
I0403 09:07:32.094941  6091 net.cpp:399] inception_4c/output -> inception_4c/output
I0403 09:07:32.094990  6091 net.cpp:141] Setting up inception_4c/output
I0403 09:07:32.095022  6091 net.cpp:148] Top shape: 24 512 14 14 (2408448)
I0403 09:07:32.095042  6091 net.cpp:156] Memory required for data: 1072647360
I0403 09:07:32.095062  6091 layer_factory.hpp:77] Creating layer inception_4c/output_inception_4c/output_0_split
I0403 09:07:32.095084  6091 net.cpp:91] Creating Layer inception_4c/output_inception_4c/output_0_split
I0403 09:07:32.095104  6091 net.cpp:425] inception_4c/output_inception_4c/output_0_split <- inception_4c/output
I0403 09:07:32.095129  6091 net.cpp:399] inception_4c/output_inception_4c/output_0_split -> inception_4c/output_inception_4c/output_0_split_0
I0403 09:07:32.095156  6091 net.cpp:399] inception_4c/output_inception_4c/output_0_split -> inception_4c/output_inception_4c/output_0_split_1
I0403 09:07:32.095182  6091 net.cpp:399] inception_4c/output_inception_4c/output_0_split -> inception_4c/output_inception_4c/output_0_split_2
I0403 09:07:32.095207  6091 net.cpp:399] inception_4c/output_inception_4c/output_0_split -> inception_4c/output_inception_4c/output_0_split_3
I0403 09:07:32.095320  6091 net.cpp:141] Setting up inception_4c/output_inception_4c/output_0_split
I0403 09:07:32.095350  6091 net.cpp:148] Top shape: 24 512 14 14 (2408448)
I0403 09:07:32.095376  6091 net.cpp:148] Top shape: 24 512 14 14 (2408448)
I0403 09:07:32.095396  6091 net.cpp:148] Top shape: 24 512 14 14 (2408448)
I0403 09:07:32.095414  6091 net.cpp:148] Top shape: 24 512 14 14 (2408448)
I0403 09:07:32.095432  6091 net.cpp:156] Memory required for data: 1111182528
I0403 09:07:32.095449  6091 layer_factory.hpp:77] Creating layer inception_4d/1x1
I0403 09:07:32.095474  6091 net.cpp:91] Creating Layer inception_4d/1x1
I0403 09:07:32.095495  6091 net.cpp:425] inception_4d/1x1 <- inception_4c/output_inception_4c/output_0_split_0
I0403 09:07:32.095521  6091 net.cpp:399] inception_4d/1x1 -> inception_4d/1x1
I0403 09:07:32.096215  6091 net.cpp:141] Setting up inception_4d/1x1
I0403 09:07:32.096246  6091 net.cpp:148] Top shape: 24 112 14 14 (526848)
I0403 09:07:32.096266  6091 net.cpp:156] Memory required for data: 1113289920
I0403 09:07:32.096288  6091 layer_factory.hpp:77] Creating layer inception_4d/relu_1x1
I0403 09:07:32.096312  6091 net.cpp:91] Creating Layer inception_4d/relu_1x1
I0403 09:07:32.096330  6091 net.cpp:425] inception_4d/relu_1x1 <- inception_4d/1x1
I0403 09:07:32.096352  6091 net.cpp:386] inception_4d/relu_1x1 -> inception_4d/1x1 (in-place)
I0403 09:07:32.096375  6091 net.cpp:141] Setting up inception_4d/relu_1x1
I0403 09:07:32.096398  6091 net.cpp:148] Top shape: 24 112 14 14 (526848)
I0403 09:07:32.096416  6091 net.cpp:156] Memory required for data: 1115397312
I0403 09:07:32.096434  6091 layer_factory.hpp:77] Creating layer inception_4d/3x3_reduce
I0403 09:07:32.096462  6091 net.cpp:91] Creating Layer inception_4d/3x3_reduce
I0403 09:07:32.096485  6091 net.cpp:425] inception_4d/3x3_reduce <- inception_4c/output_inception_4c/output_0_split_1
I0403 09:07:32.096511  6091 net.cpp:399] inception_4d/3x3_reduce -> inception_4d/3x3_reduce
I0403 09:07:32.097342  6091 net.cpp:141] Setting up inception_4d/3x3_reduce
I0403 09:07:32.097374  6091 net.cpp:148] Top shape: 24 144 14 14 (677376)
I0403 09:07:32.097393  6091 net.cpp:156] Memory required for data: 1118106816
I0403 09:07:32.097416  6091 layer_factory.hpp:77] Creating layer inception_4d/relu_3x3_reduce
I0403 09:07:32.097440  6091 net.cpp:91] Creating Layer inception_4d/relu_3x3_reduce
I0403 09:07:32.097460  6091 net.cpp:425] inception_4d/relu_3x3_reduce <- inception_4d/3x3_reduce
I0403 09:07:32.097482  6091 net.cpp:386] inception_4d/relu_3x3_reduce -> inception_4d/3x3_reduce (in-place)
I0403 09:07:32.097512  6091 net.cpp:141] Setting up inception_4d/relu_3x3_reduce
I0403 09:07:32.097534  6091 net.cpp:148] Top shape: 24 144 14 14 (677376)
I0403 09:07:32.097553  6091 net.cpp:156] Memory required for data: 1120816320
I0403 09:07:32.097569  6091 layer_factory.hpp:77] Creating layer inception_4d/3x3
I0403 09:07:32.097594  6091 net.cpp:91] Creating Layer inception_4d/3x3
I0403 09:07:32.097620  6091 net.cpp:425] inception_4d/3x3 <- inception_4d/3x3_reduce
I0403 09:07:32.097650  6091 net.cpp:399] inception_4d/3x3 -> inception_4d/3x3
I0403 09:07:32.101523  6091 net.cpp:141] Setting up inception_4d/3x3
I0403 09:07:32.101560  6091 net.cpp:148] Top shape: 24 288 14 14 (1354752)
I0403 09:07:32.101580  6091 net.cpp:156] Memory required for data: 1126235328
I0403 09:07:32.101608  6091 layer_factory.hpp:77] Creating layer inception_4d/relu_3x3
I0403 09:07:32.101636  6091 net.cpp:91] Creating Layer inception_4d/relu_3x3
I0403 09:07:32.101660  6091 net.cpp:425] inception_4d/relu_3x3 <- inception_4d/3x3
I0403 09:07:32.101680  6091 net.cpp:386] inception_4d/relu_3x3 -> inception_4d/3x3 (in-place)
I0403 09:07:32.101704  6091 net.cpp:141] Setting up inception_4d/relu_3x3
I0403 09:07:32.101727  6091 net.cpp:148] Top shape: 24 288 14 14 (1354752)
I0403 09:07:32.101744  6091 net.cpp:156] Memory required for data: 1131654336
I0403 09:07:32.101763  6091 layer_factory.hpp:77] Creating layer inception_4d/5x5_reduce
I0403 09:07:32.101810  6091 net.cpp:91] Creating Layer inception_4d/5x5_reduce
I0403 09:07:32.101835  6091 net.cpp:425] inception_4d/5x5_reduce <- inception_4c/output_inception_4c/output_0_split_2
I0403 09:07:32.101862  6091 net.cpp:399] inception_4d/5x5_reduce -> inception_4d/5x5_reduce
I0403 09:07:32.102283  6091 net.cpp:141] Setting up inception_4d/5x5_reduce
I0403 09:07:32.102315  6091 net.cpp:148] Top shape: 24 32 14 14 (150528)
I0403 09:07:32.102334  6091 net.cpp:156] Memory required for data: 1132256448
I0403 09:07:32.102358  6091 layer_factory.hpp:77] Creating layer inception_4d/relu_5x5_reduce
I0403 09:07:32.102382  6091 net.cpp:91] Creating Layer inception_4d/relu_5x5_reduce
I0403 09:07:32.102404  6091 net.cpp:425] inception_4d/relu_5x5_reduce <- inception_4d/5x5_reduce
I0403 09:07:32.102426  6091 net.cpp:386] inception_4d/relu_5x5_reduce -> inception_4d/5x5_reduce (in-place)
I0403 09:07:32.102448  6091 net.cpp:141] Setting up inception_4d/relu_5x5_reduce
I0403 09:07:32.102470  6091 net.cpp:148] Top shape: 24 32 14 14 (150528)
I0403 09:07:32.102488  6091 net.cpp:156] Memory required for data: 1132858560
I0403 09:07:32.102506  6091 layer_factory.hpp:77] Creating layer inception_4d/5x5
I0403 09:07:32.102533  6091 net.cpp:91] Creating Layer inception_4d/5x5
I0403 09:07:32.102556  6091 net.cpp:425] inception_4d/5x5 <- inception_4d/5x5_reduce
I0403 09:07:32.102583  6091 net.cpp:399] inception_4d/5x5 -> inception_4d/5x5
I0403 09:07:32.103245  6091 net.cpp:141] Setting up inception_4d/5x5
I0403 09:07:32.103277  6091 net.cpp:148] Top shape: 24 64 14 14 (301056)
I0403 09:07:32.103296  6091 net.cpp:156] Memory required for data: 1134062784
I0403 09:07:32.103317  6091 layer_factory.hpp:77] Creating layer inception_4d/relu_5x5
I0403 09:07:32.103343  6091 net.cpp:91] Creating Layer inception_4d/relu_5x5
I0403 09:07:32.103365  6091 net.cpp:425] inception_4d/relu_5x5 <- inception_4d/5x5
I0403 09:07:32.103391  6091 net.cpp:386] inception_4d/relu_5x5 -> inception_4d/5x5 (in-place)
I0403 09:07:32.103415  6091 net.cpp:141] Setting up inception_4d/relu_5x5
I0403 09:07:32.103437  6091 net.cpp:148] Top shape: 24 64 14 14 (301056)
I0403 09:07:32.103456  6091 net.cpp:156] Memory required for data: 1135267008
I0403 09:07:32.103474  6091 layer_factory.hpp:77] Creating layer inception_4d/pool
I0403 09:07:32.103497  6091 net.cpp:91] Creating Layer inception_4d/pool
I0403 09:07:32.103516  6091 net.cpp:425] inception_4d/pool <- inception_4c/output_inception_4c/output_0_split_3
I0403 09:07:32.103541  6091 net.cpp:399] inception_4d/pool -> inception_4d/pool
I0403 09:07:32.103616  6091 net.cpp:141] Setting up inception_4d/pool
I0403 09:07:32.103651  6091 net.cpp:148] Top shape: 24 512 14 14 (2408448)
I0403 09:07:32.103670  6091 net.cpp:156] Memory required for data: 1144900800
I0403 09:07:32.103689  6091 layer_factory.hpp:77] Creating layer inception_4d/pool_proj
I0403 09:07:32.103714  6091 net.cpp:91] Creating Layer inception_4d/pool_proj
I0403 09:07:32.103736  6091 net.cpp:425] inception_4d/pool_proj <- inception_4d/pool
I0403 09:07:32.103765  6091 net.cpp:399] inception_4d/pool_proj -> inception_4d/pool_proj
I0403 09:07:32.104280  6091 net.cpp:141] Setting up inception_4d/pool_proj
I0403 09:07:32.104311  6091 net.cpp:148] Top shape: 24 64 14 14 (301056)
I0403 09:07:32.104331  6091 net.cpp:156] Memory required for data: 1146105024
I0403 09:07:32.104352  6091 layer_factory.hpp:77] Creating layer inception_4d/relu_pool_proj
I0403 09:07:32.104377  6091 net.cpp:91] Creating Layer inception_4d/relu_pool_proj
I0403 09:07:32.104396  6091 net.cpp:425] inception_4d/relu_pool_proj <- inception_4d/pool_proj
I0403 09:07:32.104418  6091 net.cpp:386] inception_4d/relu_pool_proj -> inception_4d/pool_proj (in-place)
I0403 09:07:32.104444  6091 net.cpp:141] Setting up inception_4d/relu_pool_proj
I0403 09:07:32.104465  6091 net.cpp:148] Top shape: 24 64 14 14 (301056)
I0403 09:07:32.104482  6091 net.cpp:156] Memory required for data: 1147309248
I0403 09:07:32.104501  6091 layer_factory.hpp:77] Creating layer inception_4d/output
I0403 09:07:32.104545  6091 net.cpp:91] Creating Layer inception_4d/output
I0403 09:07:32.104569  6091 net.cpp:425] inception_4d/output <- inception_4d/1x1
I0403 09:07:32.104590  6091 net.cpp:425] inception_4d/output <- inception_4d/3x3
I0403 09:07:32.104617  6091 net.cpp:425] inception_4d/output <- inception_4d/5x5
I0403 09:07:32.104640  6091 net.cpp:425] inception_4d/output <- inception_4d/pool_proj
I0403 09:07:32.104661  6091 net.cpp:399] inception_4d/output -> inception_4d/output
I0403 09:07:32.104714  6091 net.cpp:141] Setting up inception_4d/output
I0403 09:07:32.104743  6091 net.cpp:148] Top shape: 24 528 14 14 (2483712)
I0403 09:07:32.104763  6091 net.cpp:156] Memory required for data: 1157244096
I0403 09:07:32.104781  6091 layer_factory.hpp:77] Creating layer inception_4d/output_inception_4d/output_0_split
I0403 09:07:32.104804  6091 net.cpp:91] Creating Layer inception_4d/output_inception_4d/output_0_split
I0403 09:07:32.104823  6091 net.cpp:425] inception_4d/output_inception_4d/output_0_split <- inception_4d/output
I0403 09:07:32.104847  6091 net.cpp:399] inception_4d/output_inception_4d/output_0_split -> inception_4d/output_inception_4d/output_0_split_0
I0403 09:07:32.104876  6091 net.cpp:399] inception_4d/output_inception_4d/output_0_split -> inception_4d/output_inception_4d/output_0_split_1
I0403 09:07:32.104902  6091 net.cpp:399] inception_4d/output_inception_4d/output_0_split -> inception_4d/output_inception_4d/output_0_split_2
I0403 09:07:32.104926  6091 net.cpp:399] inception_4d/output_inception_4d/output_0_split -> inception_4d/output_inception_4d/output_0_split_3
I0403 09:07:32.104950  6091 net.cpp:399] inception_4d/output_inception_4d/output_0_split -> inception_4d/output_inception_4d/output_0_split_4
I0403 09:07:32.105057  6091 net.cpp:141] Setting up inception_4d/output_inception_4d/output_0_split
I0403 09:07:32.105087  6091 net.cpp:148] Top shape: 24 528 14 14 (2483712)
I0403 09:07:32.105106  6091 net.cpp:148] Top shape: 24 528 14 14 (2483712)
I0403 09:07:32.105126  6091 net.cpp:148] Top shape: 24 528 14 14 (2483712)
I0403 09:07:32.105145  6091 net.cpp:148] Top shape: 24 528 14 14 (2483712)
I0403 09:07:32.105165  6091 net.cpp:148] Top shape: 24 528 14 14 (2483712)
I0403 09:07:32.105181  6091 net.cpp:156] Memory required for data: 1206918336
I0403 09:07:32.105200  6091 layer_factory.hpp:77] Creating layer loss2/ave_pool
I0403 09:07:32.105221  6091 net.cpp:91] Creating Layer loss2/ave_pool
I0403 09:07:32.105242  6091 net.cpp:425] loss2/ave_pool <- inception_4d/output_inception_4d/output_0_split_0
I0403 09:07:32.105265  6091 net.cpp:399] loss2/ave_pool -> loss2/ave_pool
I0403 09:07:32.105319  6091 net.cpp:141] Setting up loss2/ave_pool
I0403 09:07:32.105351  6091 net.cpp:148] Top shape: 24 528 4 4 (202752)
I0403 09:07:32.105371  6091 net.cpp:156] Memory required for data: 1207729344
I0403 09:07:32.105391  6091 layer_factory.hpp:77] Creating layer loss2/conv
I0403 09:07:32.105415  6091 net.cpp:91] Creating Layer loss2/conv
I0403 09:07:32.105437  6091 net.cpp:425] loss2/conv <- loss2/ave_pool
I0403 09:07:32.105466  6091 net.cpp:399] loss2/conv -> loss2/conv
I0403 09:07:32.106840  6091 net.cpp:141] Setting up loss2/conv
I0403 09:07:32.106878  6091 net.cpp:148] Top shape: 24 128 4 4 (49152)
I0403 09:07:32.106897  6091 net.cpp:156] Memory required for data: 1207925952
I0403 09:07:32.106920  6091 layer_factory.hpp:77] Creating layer loss2/relu_conv
I0403 09:07:32.106946  6091 net.cpp:91] Creating Layer loss2/relu_conv
I0403 09:07:32.106969  6091 net.cpp:425] loss2/relu_conv <- loss2/conv
I0403 09:07:32.106992  6091 net.cpp:386] loss2/relu_conv -> loss2/conv (in-place)
I0403 09:07:32.107014  6091 net.cpp:141] Setting up loss2/relu_conv
I0403 09:07:32.107035  6091 net.cpp:148] Top shape: 24 128 4 4 (49152)
I0403 09:07:32.107053  6091 net.cpp:156] Memory required for data: 1208122560
I0403 09:07:32.107071  6091 layer_factory.hpp:77] Creating layer loss2/fc
I0403 09:07:32.107100  6091 net.cpp:91] Creating Layer loss2/fc
I0403 09:07:32.107121  6091 net.cpp:425] loss2/fc <- loss2/conv
I0403 09:07:32.107144  6091 net.cpp:399] loss2/fc -> loss2/fc
I0403 09:07:32.126595  6091 net.cpp:141] Setting up loss2/fc
I0403 09:07:32.126657  6091 net.cpp:148] Top shape: 24 1024 (24576)
I0403 09:07:32.126677  6091 net.cpp:156] Memory required for data: 1208220864
I0403 09:07:32.126701  6091 layer_factory.hpp:77] Creating layer loss2/relu_fc
I0403 09:07:32.126729  6091 net.cpp:91] Creating Layer loss2/relu_fc
I0403 09:07:32.126749  6091 net.cpp:425] loss2/relu_fc <- loss2/fc
I0403 09:07:32.126772  6091 net.cpp:386] loss2/relu_fc -> loss2/fc (in-place)
I0403 09:07:32.126807  6091 net.cpp:141] Setting up loss2/relu_fc
I0403 09:07:32.126829  6091 net.cpp:148] Top shape: 24 1024 (24576)
I0403 09:07:32.126847  6091 net.cpp:156] Memory required for data: 1208319168
I0403 09:07:32.126865  6091 layer_factory.hpp:77] Creating layer loss2/drop_fc
I0403 09:07:32.126889  6091 net.cpp:91] Creating Layer loss2/drop_fc
I0403 09:07:32.126909  6091 net.cpp:425] loss2/drop_fc <- loss2/fc
I0403 09:07:32.126929  6091 net.cpp:386] loss2/drop_fc -> loss2/fc (in-place)
I0403 09:07:32.126986  6091 net.cpp:141] Setting up loss2/drop_fc
I0403 09:07:32.127017  6091 net.cpp:148] Top shape: 24 1024 (24576)
I0403 09:07:32.127035  6091 net.cpp:156] Memory required for data: 1208417472
I0403 09:07:32.127053  6091 layer_factory.hpp:77] Creating layer loss2/classifier_plantvillage
I0403 09:07:32.127077  6091 net.cpp:91] Creating Layer loss2/classifier_plantvillage
I0403 09:07:32.127099  6091 net.cpp:425] loss2/classifier_plantvillage <- loss2/fc
I0403 09:07:32.127125  6091 net.cpp:399] loss2/classifier_plantvillage -> loss2/classifier_plantvillage
I0403 09:07:32.127562  6091 net.cpp:141] Setting up loss2/classifier_plantvillage
I0403 09:07:32.127593  6091 net.cpp:148] Top shape: 24 38 (912)
I0403 09:07:32.127619  6091 net.cpp:156] Memory required for data: 1208421120
I0403 09:07:32.127641  6091 layer_factory.hpp:77] Creating layer loss2/classifier_plantvillage_loss2/classifier_plantvillage_0_split
I0403 09:07:32.127665  6091 net.cpp:91] Creating Layer loss2/classifier_plantvillage_loss2/classifier_plantvillage_0_split
I0403 09:07:32.127686  6091 net.cpp:425] loss2/classifier_plantvillage_loss2/classifier_plantvillage_0_split <- loss2/classifier_plantvillage
I0403 09:07:32.127709  6091 net.cpp:399] loss2/classifier_plantvillage_loss2/classifier_plantvillage_0_split -> loss2/classifier_plantvillage_loss2/classifier_plantvillage_0_split_0
I0403 09:07:32.127737  6091 net.cpp:399] loss2/classifier_plantvillage_loss2/classifier_plantvillage_0_split -> loss2/classifier_plantvillage_loss2/classifier_plantvillage_0_split_1
I0403 09:07:32.127765  6091 net.cpp:399] loss2/classifier_plantvillage_loss2/classifier_plantvillage_0_split -> loss2/classifier_plantvillage_loss2/classifier_plantvillage_0_split_2
I0403 09:07:32.127851  6091 net.cpp:141] Setting up loss2/classifier_plantvillage_loss2/classifier_plantvillage_0_split
I0403 09:07:32.127879  6091 net.cpp:148] Top shape: 24 38 (912)
I0403 09:07:32.127900  6091 net.cpp:148] Top shape: 24 38 (912)
I0403 09:07:32.127919  6091 net.cpp:148] Top shape: 24 38 (912)
I0403 09:07:32.127938  6091 net.cpp:156] Memory required for data: 1208432064
I0403 09:07:32.127955  6091 layer_factory.hpp:77] Creating layer inception_4e/1x1
I0403 09:07:32.127981  6091 net.cpp:91] Creating Layer inception_4e/1x1
I0403 09:07:32.128003  6091 net.cpp:425] inception_4e/1x1 <- inception_4d/output_inception_4d/output_0_split_1
I0403 09:07:32.128031  6091 net.cpp:399] inception_4e/1x1 -> inception_4e/1x1
I0403 09:07:32.129271  6091 net.cpp:141] Setting up inception_4e/1x1
I0403 09:07:32.129302  6091 net.cpp:148] Top shape: 24 256 14 14 (1204224)
I0403 09:07:32.129322  6091 net.cpp:156] Memory required for data: 1213248960
I0403 09:07:32.129343  6091 layer_factory.hpp:77] Creating layer inception_4e/relu_1x1
I0403 09:07:32.129369  6091 net.cpp:91] Creating Layer inception_4e/relu_1x1
I0403 09:07:32.129389  6091 net.cpp:425] inception_4e/relu_1x1 <- inception_4e/1x1
I0403 09:07:32.129410  6091 net.cpp:386] inception_4e/relu_1x1 -> inception_4e/1x1 (in-place)
I0403 09:07:32.129433  6091 net.cpp:141] Setting up inception_4e/relu_1x1
I0403 09:07:32.129479  6091 net.cpp:148] Top shape: 24 256 14 14 (1204224)
I0403 09:07:32.129499  6091 net.cpp:156] Memory required for data: 1218065856
I0403 09:07:32.129518  6091 layer_factory.hpp:77] Creating layer inception_4e/3x3_reduce
I0403 09:07:32.129547  6091 net.cpp:91] Creating Layer inception_4e/3x3_reduce
I0403 09:07:32.129570  6091 net.cpp:425] inception_4e/3x3_reduce <- inception_4d/output_inception_4d/output_0_split_2
I0403 09:07:32.129601  6091 net.cpp:399] inception_4e/3x3_reduce -> inception_4e/3x3_reduce
I0403 09:07:32.131119  6091 net.cpp:141] Setting up inception_4e/3x3_reduce
I0403 09:07:32.131155  6091 net.cpp:148] Top shape: 24 160 14 14 (752640)
I0403 09:07:32.131175  6091 net.cpp:156] Memory required for data: 1221076416
I0403 09:07:32.131197  6091 layer_factory.hpp:77] Creating layer inception_4e/relu_3x3_reduce
I0403 09:07:32.131220  6091 net.cpp:91] Creating Layer inception_4e/relu_3x3_reduce
I0403 09:07:32.131242  6091 net.cpp:425] inception_4e/relu_3x3_reduce <- inception_4e/3x3_reduce
I0403 09:07:32.131266  6091 net.cpp:386] inception_4e/relu_3x3_reduce -> inception_4e/3x3_reduce (in-place)
I0403 09:07:32.131294  6091 net.cpp:141] Setting up inception_4e/relu_3x3_reduce
I0403 09:07:32.131315  6091 net.cpp:148] Top shape: 24 160 14 14 (752640)
I0403 09:07:32.131335  6091 net.cpp:156] Memory required for data: 1224086976
I0403 09:07:32.131353  6091 layer_factory.hpp:77] Creating layer inception_4e/3x3
I0403 09:07:32.131381  6091 net.cpp:91] Creating Layer inception_4e/3x3
I0403 09:07:32.131404  6091 net.cpp:425] inception_4e/3x3 <- inception_4e/3x3_reduce
I0403 09:07:32.131428  6091 net.cpp:399] inception_4e/3x3 -> inception_4e/3x3
I0403 09:07:32.136097  6091 net.cpp:141] Setting up inception_4e/3x3
I0403 09:07:32.136134  6091 net.cpp:148] Top shape: 24 320 14 14 (1505280)
I0403 09:07:32.136157  6091 net.cpp:156] Memory required for data: 1230108096
I0403 09:07:32.136178  6091 layer_factory.hpp:77] Creating layer inception_4e/relu_3x3
I0403 09:07:32.136203  6091 net.cpp:91] Creating Layer inception_4e/relu_3x3
I0403 09:07:32.136224  6091 net.cpp:425] inception_4e/relu_3x3 <- inception_4e/3x3
I0403 09:07:32.136246  6091 net.cpp:386] inception_4e/relu_3x3 -> inception_4e/3x3 (in-place)
I0403 09:07:32.136270  6091 net.cpp:141] Setting up inception_4e/relu_3x3
I0403 09:07:32.136291  6091 net.cpp:148] Top shape: 24 320 14 14 (1505280)
I0403 09:07:32.136307  6091 net.cpp:156] Memory required for data: 1236129216
I0403 09:07:32.136325  6091 layer_factory.hpp:77] Creating layer inception_4e/5x5_reduce
I0403 09:07:32.136354  6091 net.cpp:91] Creating Layer inception_4e/5x5_reduce
I0403 09:07:32.136378  6091 net.cpp:425] inception_4e/5x5_reduce <- inception_4d/output_inception_4d/output_0_split_3
I0403 09:07:32.136404  6091 net.cpp:399] inception_4e/5x5_reduce -> inception_4e/5x5_reduce
I0403 09:07:32.137435  6091 net.cpp:141] Setting up inception_4e/5x5_reduce
I0403 09:07:32.137472  6091 net.cpp:148] Top shape: 24 32 14 14 (150528)
I0403 09:07:32.137492  6091 net.cpp:156] Memory required for data: 1236731328
I0403 09:07:32.137516  6091 layer_factory.hpp:77] Creating layer inception_4e/relu_5x5_reduce
I0403 09:07:32.137542  6091 net.cpp:91] Creating Layer inception_4e/relu_5x5_reduce
I0403 09:07:32.137564  6091 net.cpp:425] inception_4e/relu_5x5_reduce <- inception_4e/5x5_reduce
I0403 09:07:32.137588  6091 net.cpp:386] inception_4e/relu_5x5_reduce -> inception_4e/5x5_reduce (in-place)
I0403 09:07:32.137620  6091 net.cpp:141] Setting up inception_4e/relu_5x5_reduce
I0403 09:07:32.137642  6091 net.cpp:148] Top shape: 24 32 14 14 (150528)
I0403 09:07:32.137661  6091 net.cpp:156] Memory required for data: 1237333440
I0403 09:07:32.137679  6091 layer_factory.hpp:77] Creating layer inception_4e/5x5
I0403 09:07:32.137730  6091 net.cpp:91] Creating Layer inception_4e/5x5
I0403 09:07:32.137754  6091 net.cpp:425] inception_4e/5x5 <- inception_4e/5x5_reduce
I0403 09:07:32.137779  6091 net.cpp:399] inception_4e/5x5 -> inception_4e/5x5
I0403 09:07:32.140053  6091 net.cpp:141] Setting up inception_4e/5x5
I0403 09:07:32.140115  6091 net.cpp:148] Top shape: 24 128 14 14 (602112)
I0403 09:07:32.140138  6091 net.cpp:156] Memory required for data: 1239741888
I0403 09:07:32.140162  6091 layer_factory.hpp:77] Creating layer inception_4e/relu_5x5
I0403 09:07:32.140190  6091 net.cpp:91] Creating Layer inception_4e/relu_5x5
I0403 09:07:32.140213  6091 net.cpp:425] inception_4e/relu_5x5 <- inception_4e/5x5
I0403 09:07:32.140235  6091 net.cpp:386] inception_4e/relu_5x5 -> inception_4e/5x5 (in-place)
I0403 09:07:32.140261  6091 net.cpp:141] Setting up inception_4e/relu_5x5
I0403 09:07:32.140283  6091 net.cpp:148] Top shape: 24 128 14 14 (602112)
I0403 09:07:32.140300  6091 net.cpp:156] Memory required for data: 1242150336
I0403 09:07:32.140318  6091 layer_factory.hpp:77] Creating layer inception_4e/pool
I0403 09:07:32.140344  6091 net.cpp:91] Creating Layer inception_4e/pool
I0403 09:07:32.140367  6091 net.cpp:425] inception_4e/pool <- inception_4d/output_inception_4d/output_0_split_4
I0403 09:07:32.140391  6091 net.cpp:399] inception_4e/pool -> inception_4e/pool
I0403 09:07:32.140465  6091 net.cpp:141] Setting up inception_4e/pool
I0403 09:07:32.140494  6091 net.cpp:148] Top shape: 24 528 14 14 (2483712)
I0403 09:07:32.140512  6091 net.cpp:156] Memory required for data: 1252085184
I0403 09:07:32.140530  6091 layer_factory.hpp:77] Creating layer inception_4e/pool_proj
I0403 09:07:32.140560  6091 net.cpp:91] Creating Layer inception_4e/pool_proj
I0403 09:07:32.140583  6091 net.cpp:425] inception_4e/pool_proj <- inception_4e/pool
I0403 09:07:32.140615  6091 net.cpp:399] inception_4e/pool_proj -> inception_4e/pool_proj
I0403 09:07:32.141340  6091 net.cpp:141] Setting up inception_4e/pool_proj
I0403 09:07:32.141371  6091 net.cpp:148] Top shape: 24 128 14 14 (602112)
I0403 09:07:32.141391  6091 net.cpp:156] Memory required for data: 1254493632
I0403 09:07:32.141415  6091 layer_factory.hpp:77] Creating layer inception_4e/relu_pool_proj
I0403 09:07:32.141438  6091 net.cpp:91] Creating Layer inception_4e/relu_pool_proj
I0403 09:07:32.141458  6091 net.cpp:425] inception_4e/relu_pool_proj <- inception_4e/pool_proj
I0403 09:07:32.141480  6091 net.cpp:386] inception_4e/relu_pool_proj -> inception_4e/pool_proj (in-place)
I0403 09:07:32.141504  6091 net.cpp:141] Setting up inception_4e/relu_pool_proj
I0403 09:07:32.141525  6091 net.cpp:148] Top shape: 24 128 14 14 (602112)
I0403 09:07:32.141542  6091 net.cpp:156] Memory required for data: 1256902080
I0403 09:07:32.141561  6091 layer_factory.hpp:77] Creating layer inception_4e/output
I0403 09:07:32.141585  6091 net.cpp:91] Creating Layer inception_4e/output
I0403 09:07:32.141613  6091 net.cpp:425] inception_4e/output <- inception_4e/1x1
I0403 09:07:32.141634  6091 net.cpp:425] inception_4e/output <- inception_4e/3x3
I0403 09:07:32.141654  6091 net.cpp:425] inception_4e/output <- inception_4e/5x5
I0403 09:07:32.141675  6091 net.cpp:425] inception_4e/output <- inception_4e/pool_proj
I0403 09:07:32.141706  6091 net.cpp:399] inception_4e/output -> inception_4e/output
I0403 09:07:32.141757  6091 net.cpp:141] Setting up inception_4e/output
I0403 09:07:32.141788  6091 net.cpp:148] Top shape: 24 832 14 14 (3913728)
I0403 09:07:32.141805  6091 net.cpp:156] Memory required for data: 1272556992
I0403 09:07:32.141824  6091 layer_factory.hpp:77] Creating layer pool4/3x3_s2
I0403 09:07:32.141846  6091 net.cpp:91] Creating Layer pool4/3x3_s2
I0403 09:07:32.141871  6091 net.cpp:425] pool4/3x3_s2 <- inception_4e/output
I0403 09:07:32.141904  6091 net.cpp:399] pool4/3x3_s2 -> pool4/3x3_s2
I0403 09:07:32.141969  6091 net.cpp:141] Setting up pool4/3x3_s2
I0403 09:07:32.141999  6091 net.cpp:148] Top shape: 24 832 7 7 (978432)
I0403 09:07:32.142019  6091 net.cpp:156] Memory required for data: 1276470720
I0403 09:07:32.142036  6091 layer_factory.hpp:77] Creating layer pool4/3x3_s2_pool4/3x3_s2_0_split
I0403 09:07:32.142061  6091 net.cpp:91] Creating Layer pool4/3x3_s2_pool4/3x3_s2_0_split
I0403 09:07:32.142082  6091 net.cpp:425] pool4/3x3_s2_pool4/3x3_s2_0_split <- pool4/3x3_s2
I0403 09:07:32.142122  6091 net.cpp:399] pool4/3x3_s2_pool4/3x3_s2_0_split -> pool4/3x3_s2_pool4/3x3_s2_0_split_0
I0403 09:07:32.142153  6091 net.cpp:399] pool4/3x3_s2_pool4/3x3_s2_0_split -> pool4/3x3_s2_pool4/3x3_s2_0_split_1
I0403 09:07:32.142180  6091 net.cpp:399] pool4/3x3_s2_pool4/3x3_s2_0_split -> pool4/3x3_s2_pool4/3x3_s2_0_split_2
I0403 09:07:32.142206  6091 net.cpp:399] pool4/3x3_s2_pool4/3x3_s2_0_split -> pool4/3x3_s2_pool4/3x3_s2_0_split_3
I0403 09:07:32.142287  6091 net.cpp:141] Setting up pool4/3x3_s2_pool4/3x3_s2_0_split
I0403 09:07:32.142315  6091 net.cpp:148] Top shape: 24 832 7 7 (978432)
I0403 09:07:32.142335  6091 net.cpp:148] Top shape: 24 832 7 7 (978432)
I0403 09:07:32.142355  6091 net.cpp:148] Top shape: 24 832 7 7 (978432)
I0403 09:07:32.142375  6091 net.cpp:148] Top shape: 24 832 7 7 (978432)
I0403 09:07:32.142392  6091 net.cpp:156] Memory required for data: 1292125632
I0403 09:07:32.142410  6091 layer_factory.hpp:77] Creating layer inception_5a/1x1
I0403 09:07:32.142439  6091 net.cpp:91] Creating Layer inception_5a/1x1
I0403 09:07:32.142463  6091 net.cpp:425] inception_5a/1x1 <- pool4/3x3_s2_pool4/3x3_s2_0_split_0
I0403 09:07:32.142490  6091 net.cpp:399] inception_5a/1x1 -> inception_5a/1x1
I0403 09:07:32.144817  6091 net.cpp:141] Setting up inception_5a/1x1
I0403 09:07:32.144856  6091 net.cpp:148] Top shape: 24 256 7 7 (301056)
I0403 09:07:32.144878  6091 net.cpp:156] Memory required for data: 1293329856
I0403 09:07:32.144901  6091 layer_factory.hpp:77] Creating layer inception_5a/relu_1x1
I0403 09:07:32.144927  6091 net.cpp:91] Creating Layer inception_5a/relu_1x1
I0403 09:07:32.144949  6091 net.cpp:425] inception_5a/relu_1x1 <- inception_5a/1x1
I0403 09:07:32.144971  6091 net.cpp:386] inception_5a/relu_1x1 -> inception_5a/1x1 (in-place)
I0403 09:07:32.144995  6091 net.cpp:141] Setting up inception_5a/relu_1x1
I0403 09:07:32.145017  6091 net.cpp:148] Top shape: 24 256 7 7 (301056)
I0403 09:07:32.145035  6091 net.cpp:156] Memory required for data: 1294534080
I0403 09:07:32.145053  6091 layer_factory.hpp:77] Creating layer inception_5a/3x3_reduce
I0403 09:07:32.145081  6091 net.cpp:91] Creating Layer inception_5a/3x3_reduce
I0403 09:07:32.145105  6091 net.cpp:425] inception_5a/3x3_reduce <- pool4/3x3_s2_pool4/3x3_s2_0_split_1
I0403 09:07:32.145130  6091 net.cpp:399] inception_5a/3x3_reduce -> inception_5a/3x3_reduce
I0403 09:07:32.146910  6091 net.cpp:141] Setting up inception_5a/3x3_reduce
I0403 09:07:32.146949  6091 net.cpp:148] Top shape: 24 160 7 7 (188160)
I0403 09:07:32.146968  6091 net.cpp:156] Memory required for data: 1295286720
I0403 09:07:32.146991  6091 layer_factory.hpp:77] Creating layer inception_5a/relu_3x3_reduce
I0403 09:07:32.147016  6091 net.cpp:91] Creating Layer inception_5a/relu_3x3_reduce
I0403 09:07:32.147039  6091 net.cpp:425] inception_5a/relu_3x3_reduce <- inception_5a/3x3_reduce
I0403 09:07:32.147061  6091 net.cpp:386] inception_5a/relu_3x3_reduce -> inception_5a/3x3_reduce (in-place)
I0403 09:07:32.147088  6091 net.cpp:141] Setting up inception_5a/relu_3x3_reduce
I0403 09:07:32.147110  6091 net.cpp:148] Top shape: 24 160 7 7 (188160)
I0403 09:07:32.147127  6091 net.cpp:156] Memory required for data: 1296039360
I0403 09:07:32.147145  6091 layer_factory.hpp:77] Creating layer inception_5a/3x3
I0403 09:07:32.147174  6091 net.cpp:91] Creating Layer inception_5a/3x3
I0403 09:07:32.147197  6091 net.cpp:425] inception_5a/3x3 <- inception_5a/3x3_reduce
I0403 09:07:32.147222  6091 net.cpp:399] inception_5a/3x3 -> inception_5a/3x3
I0403 09:07:32.151877  6091 net.cpp:141] Setting up inception_5a/3x3
I0403 09:07:32.151914  6091 net.cpp:148] Top shape: 24 320 7 7 (376320)
I0403 09:07:32.151937  6091 net.cpp:156] Memory required for data: 1297544640
I0403 09:07:32.151962  6091 layer_factory.hpp:77] Creating layer inception_5a/relu_3x3
I0403 09:07:32.151985  6091 net.cpp:91] Creating Layer inception_5a/relu_3x3
I0403 09:07:32.152006  6091 net.cpp:425] inception_5a/relu_3x3 <- inception_5a/3x3
I0403 09:07:32.152034  6091 net.cpp:386] inception_5a/relu_3x3 -> inception_5a/3x3 (in-place)
I0403 09:07:32.152077  6091 net.cpp:141] Setting up inception_5a/relu_3x3
I0403 09:07:32.152102  6091 net.cpp:148] Top shape: 24 320 7 7 (376320)
I0403 09:07:32.152120  6091 net.cpp:156] Memory required for data: 1299049920
I0403 09:07:32.152139  6091 layer_factory.hpp:77] Creating layer inception_5a/5x5_reduce
I0403 09:07:32.152168  6091 net.cpp:91] Creating Layer inception_5a/5x5_reduce
I0403 09:07:32.152191  6091 net.cpp:425] inception_5a/5x5_reduce <- pool4/3x3_s2_pool4/3x3_s2_0_split_2
I0403 09:07:32.152215  6091 net.cpp:399] inception_5a/5x5_reduce -> inception_5a/5x5_reduce
I0403 09:07:32.152689  6091 net.cpp:141] Setting up inception_5a/5x5_reduce
I0403 09:07:32.152722  6091 net.cpp:148] Top shape: 24 32 7 7 (37632)
I0403 09:07:32.152742  6091 net.cpp:156] Memory required for data: 1299200448
I0403 09:07:32.152765  6091 layer_factory.hpp:77] Creating layer inception_5a/relu_5x5_reduce
I0403 09:07:32.152788  6091 net.cpp:91] Creating Layer inception_5a/relu_5x5_reduce
I0403 09:07:32.152813  6091 net.cpp:425] inception_5a/relu_5x5_reduce <- inception_5a/5x5_reduce
I0403 09:07:32.152837  6091 net.cpp:386] inception_5a/relu_5x5_reduce -> inception_5a/5x5_reduce (in-place)
I0403 09:07:32.152861  6091 net.cpp:141] Setting up inception_5a/relu_5x5_reduce
I0403 09:07:32.152884  6091 net.cpp:148] Top shape: 24 32 7 7 (37632)
I0403 09:07:32.152901  6091 net.cpp:156] Memory required for data: 1299350976
I0403 09:07:32.152920  6091 layer_factory.hpp:77] Creating layer inception_5a/5x5
I0403 09:07:32.152947  6091 net.cpp:91] Creating Layer inception_5a/5x5
I0403 09:07:32.152971  6091 net.cpp:425] inception_5a/5x5 <- inception_5a/5x5_reduce
I0403 09:07:32.152994  6091 net.cpp:399] inception_5a/5x5 -> inception_5a/5x5
I0403 09:07:32.153955  6091 net.cpp:141] Setting up inception_5a/5x5
I0403 09:07:32.153991  6091 net.cpp:148] Top shape: 24 128 7 7 (150528)
I0403 09:07:32.154011  6091 net.cpp:156] Memory required for data: 1299953088
I0403 09:07:32.154034  6091 layer_factory.hpp:77] Creating layer inception_5a/relu_5x5
I0403 09:07:32.154057  6091 net.cpp:91] Creating Layer inception_5a/relu_5x5
I0403 09:07:32.154081  6091 net.cpp:425] inception_5a/relu_5x5 <- inception_5a/5x5
I0403 09:07:32.154103  6091 net.cpp:386] inception_5a/relu_5x5 -> inception_5a/5x5 (in-place)
I0403 09:07:32.154127  6091 net.cpp:141] Setting up inception_5a/relu_5x5
I0403 09:07:32.154150  6091 net.cpp:148] Top shape: 24 128 7 7 (150528)
I0403 09:07:32.154168  6091 net.cpp:156] Memory required for data: 1300555200
I0403 09:07:32.154186  6091 layer_factory.hpp:77] Creating layer inception_5a/pool
I0403 09:07:32.154211  6091 net.cpp:91] Creating Layer inception_5a/pool
I0403 09:07:32.154234  6091 net.cpp:425] inception_5a/pool <- pool4/3x3_s2_pool4/3x3_s2_0_split_3
I0403 09:07:32.154258  6091 net.cpp:399] inception_5a/pool -> inception_5a/pool
I0403 09:07:32.154323  6091 net.cpp:141] Setting up inception_5a/pool
I0403 09:07:32.154352  6091 net.cpp:148] Top shape: 24 832 7 7 (978432)
I0403 09:07:32.154371  6091 net.cpp:156] Memory required for data: 1304468928
I0403 09:07:32.154388  6091 layer_factory.hpp:77] Creating layer inception_5a/pool_proj
I0403 09:07:32.154417  6091 net.cpp:91] Creating Layer inception_5a/pool_proj
I0403 09:07:32.154440  6091 net.cpp:425] inception_5a/pool_proj <- inception_5a/pool
I0403 09:07:32.154464  6091 net.cpp:399] inception_5a/pool_proj -> inception_5a/pool_proj
I0403 09:07:32.156045  6091 net.cpp:141] Setting up inception_5a/pool_proj
I0403 09:07:32.156081  6091 net.cpp:148] Top shape: 24 128 7 7 (150528)
I0403 09:07:32.156102  6091 net.cpp:156] Memory required for data: 1305071040
I0403 09:07:32.156124  6091 layer_factory.hpp:77] Creating layer inception_5a/relu_pool_proj
I0403 09:07:32.156147  6091 net.cpp:91] Creating Layer inception_5a/relu_pool_proj
I0403 09:07:32.156168  6091 net.cpp:425] inception_5a/relu_pool_proj <- inception_5a/pool_proj
I0403 09:07:32.156194  6091 net.cpp:386] inception_5a/relu_pool_proj -> inception_5a/pool_proj (in-place)
I0403 09:07:32.156222  6091 net.cpp:141] Setting up inception_5a/relu_pool_proj
I0403 09:07:32.156262  6091 net.cpp:148] Top shape: 24 128 7 7 (150528)
I0403 09:07:32.156283  6091 net.cpp:156] Memory required for data: 1305673152
I0403 09:07:32.156302  6091 layer_factory.hpp:77] Creating layer inception_5a/output
I0403 09:07:32.156333  6091 net.cpp:91] Creating Layer inception_5a/output
I0403 09:07:32.156353  6091 net.cpp:425] inception_5a/output <- inception_5a/1x1
I0403 09:07:32.156374  6091 net.cpp:425] inception_5a/output <- inception_5a/3x3
I0403 09:07:32.156396  6091 net.cpp:425] inception_5a/output <- inception_5a/5x5
I0403 09:07:32.156417  6091 net.cpp:425] inception_5a/output <- inception_5a/pool_proj
I0403 09:07:32.156437  6091 net.cpp:399] inception_5a/output -> inception_5a/output
I0403 09:07:32.156488  6091 net.cpp:141] Setting up inception_5a/output
I0403 09:07:32.156517  6091 net.cpp:148] Top shape: 24 832 7 7 (978432)
I0403 09:07:32.156535  6091 net.cpp:156] Memory required for data: 1309586880
I0403 09:07:32.156554  6091 layer_factory.hpp:77] Creating layer inception_5a/output_inception_5a/output_0_split
I0403 09:07:32.156576  6091 net.cpp:91] Creating Layer inception_5a/output_inception_5a/output_0_split
I0403 09:07:32.156595  6091 net.cpp:425] inception_5a/output_inception_5a/output_0_split <- inception_5a/output
I0403 09:07:32.156631  6091 net.cpp:399] inception_5a/output_inception_5a/output_0_split -> inception_5a/output_inception_5a/output_0_split_0
I0403 09:07:32.156659  6091 net.cpp:399] inception_5a/output_inception_5a/output_0_split -> inception_5a/output_inception_5a/output_0_split_1
I0403 09:07:32.156685  6091 net.cpp:399] inception_5a/output_inception_5a/output_0_split -> inception_5a/output_inception_5a/output_0_split_2
I0403 09:07:32.156711  6091 net.cpp:399] inception_5a/output_inception_5a/output_0_split -> inception_5a/output_inception_5a/output_0_split_3
I0403 09:07:32.156796  6091 net.cpp:141] Setting up inception_5a/output_inception_5a/output_0_split
I0403 09:07:32.156828  6091 net.cpp:148] Top shape: 24 832 7 7 (978432)
I0403 09:07:32.156850  6091 net.cpp:148] Top shape: 24 832 7 7 (978432)
I0403 09:07:32.156870  6091 net.cpp:148] Top shape: 24 832 7 7 (978432)
I0403 09:07:32.156890  6091 net.cpp:148] Top shape: 24 832 7 7 (978432)
I0403 09:07:32.156909  6091 net.cpp:156] Memory required for data: 1325241792
I0403 09:07:32.156929  6091 layer_factory.hpp:77] Creating layer inception_5b/1x1
I0403 09:07:32.156956  6091 net.cpp:91] Creating Layer inception_5b/1x1
I0403 09:07:32.156978  6091 net.cpp:425] inception_5b/1x1 <- inception_5a/output_inception_5a/output_0_split_0
I0403 09:07:32.157002  6091 net.cpp:399] inception_5b/1x1 -> inception_5b/1x1
I0403 09:07:32.160110  6091 net.cpp:141] Setting up inception_5b/1x1
I0403 09:07:32.160146  6091 net.cpp:148] Top shape: 24 384 7 7 (451584)
I0403 09:07:32.160166  6091 net.cpp:156] Memory required for data: 1327048128
I0403 09:07:32.160188  6091 layer_factory.hpp:77] Creating layer inception_5b/relu_1x1
I0403 09:07:32.160212  6091 net.cpp:91] Creating Layer inception_5b/relu_1x1
I0403 09:07:32.160233  6091 net.cpp:425] inception_5b/relu_1x1 <- inception_5b/1x1
I0403 09:07:32.160256  6091 net.cpp:386] inception_5b/relu_1x1 -> inception_5b/1x1 (in-place)
I0403 09:07:32.160282  6091 net.cpp:141] Setting up inception_5b/relu_1x1
I0403 09:07:32.160305  6091 net.cpp:148] Top shape: 24 384 7 7 (451584)
I0403 09:07:32.160322  6091 net.cpp:156] Memory required for data: 1328854464
I0403 09:07:32.160341  6091 layer_factory.hpp:77] Creating layer inception_5b/3x3_reduce
I0403 09:07:32.160377  6091 net.cpp:91] Creating Layer inception_5b/3x3_reduce
I0403 09:07:32.160398  6091 net.cpp:425] inception_5b/3x3_reduce <- inception_5a/output_inception_5a/output_0_split_1
I0403 09:07:32.160423  6091 net.cpp:399] inception_5b/3x3_reduce -> inception_5b/3x3_reduce
I0403 09:07:32.162389  6091 net.cpp:141] Setting up inception_5b/3x3_reduce
I0403 09:07:32.162427  6091 net.cpp:148] Top shape: 24 192 7 7 (225792)
I0403 09:07:32.162447  6091 net.cpp:156] Memory required for data: 1329757632
I0403 09:07:32.162470  6091 layer_factory.hpp:77] Creating layer inception_5b/relu_3x3_reduce
I0403 09:07:32.162513  6091 net.cpp:91] Creating Layer inception_5b/relu_3x3_reduce
I0403 09:07:32.162536  6091 net.cpp:425] inception_5b/relu_3x3_reduce <- inception_5b/3x3_reduce
I0403 09:07:32.162561  6091 net.cpp:386] inception_5b/relu_3x3_reduce -> inception_5b/3x3_reduce (in-place)
I0403 09:07:32.162588  6091 net.cpp:141] Setting up inception_5b/relu_3x3_reduce
I0403 09:07:32.162626  6091 net.cpp:148] Top shape: 24 192 7 7 (225792)
I0403 09:07:32.162647  6091 net.cpp:156] Memory required for data: 1330660800
I0403 09:07:32.162665  6091 layer_factory.hpp:77] Creating layer inception_5b/3x3
I0403 09:07:32.162695  6091 net.cpp:91] Creating Layer inception_5b/3x3
I0403 09:07:32.162719  6091 net.cpp:425] inception_5b/3x3 <- inception_5b/3x3_reduce
I0403 09:07:32.162744  6091 net.cpp:399] inception_5b/3x3 -> inception_5b/3x3
I0403 09:07:32.169196  6091 net.cpp:141] Setting up inception_5b/3x3
I0403 09:07:32.169234  6091 net.cpp:148] Top shape: 24 384 7 7 (451584)
I0403 09:07:32.169255  6091 net.cpp:156] Memory required for data: 1332467136
I0403 09:07:32.169276  6091 layer_factory.hpp:77] Creating layer inception_5b/relu_3x3
I0403 09:07:32.169299  6091 net.cpp:91] Creating Layer inception_5b/relu_3x3
I0403 09:07:32.169322  6091 net.cpp:425] inception_5b/relu_3x3 <- inception_5b/3x3
I0403 09:07:32.169343  6091 net.cpp:386] inception_5b/relu_3x3 -> inception_5b/3x3 (in-place)
I0403 09:07:32.169368  6091 net.cpp:141] Setting up inception_5b/relu_3x3
I0403 09:07:32.169391  6091 net.cpp:148] Top shape: 24 384 7 7 (451584)
I0403 09:07:32.169409  6091 net.cpp:156] Memory required for data: 1334273472
I0403 09:07:32.169426  6091 layer_factory.hpp:77] Creating layer inception_5b/5x5_reduce
I0403 09:07:32.169456  6091 net.cpp:91] Creating Layer inception_5b/5x5_reduce
I0403 09:07:32.169478  6091 net.cpp:425] inception_5b/5x5_reduce <- inception_5a/output_inception_5a/output_0_split_2
I0403 09:07:32.169505  6091 net.cpp:399] inception_5b/5x5_reduce -> inception_5b/5x5_reduce
I0403 09:07:32.170666  6091 net.cpp:141] Setting up inception_5b/5x5_reduce
I0403 09:07:32.170702  6091 net.cpp:148] Top shape: 24 48 7 7 (56448)
I0403 09:07:32.170722  6091 net.cpp:156] Memory required for data: 1334499264
I0403 09:07:32.170743  6091 layer_factory.hpp:77] Creating layer inception_5b/relu_5x5_reduce
I0403 09:07:32.170766  6091 net.cpp:91] Creating Layer inception_5b/relu_5x5_reduce
I0403 09:07:32.170786  6091 net.cpp:425] inception_5b/relu_5x5_reduce <- inception_5b/5x5_reduce
I0403 09:07:32.170809  6091 net.cpp:386] inception_5b/relu_5x5_reduce -> inception_5b/5x5_reduce (in-place)
I0403 09:07:32.170835  6091 net.cpp:141] Setting up inception_5b/relu_5x5_reduce
I0403 09:07:32.170856  6091 net.cpp:148] Top shape: 24 48 7 7 (56448)
I0403 09:07:32.170873  6091 net.cpp:156] Memory required for data: 1334725056
I0403 09:07:32.170892  6091 layer_factory.hpp:77] Creating layer inception_5b/5x5
I0403 09:07:32.170923  6091 net.cpp:91] Creating Layer inception_5b/5x5
I0403 09:07:32.170948  6091 net.cpp:425] inception_5b/5x5 <- inception_5b/5x5_reduce
I0403 09:07:32.170976  6091 net.cpp:399] inception_5b/5x5 -> inception_5b/5x5
I0403 09:07:32.172287  6091 net.cpp:141] Setting up inception_5b/5x5
I0403 09:07:32.172329  6091 net.cpp:148] Top shape: 24 128 7 7 (150528)
I0403 09:07:32.172349  6091 net.cpp:156] Memory required for data: 1335327168
I0403 09:07:32.172371  6091 layer_factory.hpp:77] Creating layer inception_5b/relu_5x5
I0403 09:07:32.172394  6091 net.cpp:91] Creating Layer inception_5b/relu_5x5
I0403 09:07:32.172415  6091 net.cpp:425] inception_5b/relu_5x5 <- inception_5b/5x5
I0403 09:07:32.172441  6091 net.cpp:386] inception_5b/relu_5x5 -> inception_5b/5x5 (in-place)
I0403 09:07:32.172467  6091 net.cpp:141] Setting up inception_5b/relu_5x5
I0403 09:07:32.172488  6091 net.cpp:148] Top shape: 24 128 7 7 (150528)
I0403 09:07:32.172507  6091 net.cpp:156] Memory required for data: 1335929280
I0403 09:07:32.172523  6091 layer_factory.hpp:77] Creating layer inception_5b/pool
I0403 09:07:32.172545  6091 net.cpp:91] Creating Layer inception_5b/pool
I0403 09:07:32.172585  6091 net.cpp:425] inception_5b/pool <- inception_5a/output_inception_5a/output_0_split_3
I0403 09:07:32.172624  6091 net.cpp:399] inception_5b/pool -> inception_5b/pool
I0403 09:07:32.172699  6091 net.cpp:141] Setting up inception_5b/pool
I0403 09:07:32.172729  6091 net.cpp:148] Top shape: 24 832 7 7 (978432)
I0403 09:07:32.172747  6091 net.cpp:156] Memory required for data: 1339843008
I0403 09:07:32.172766  6091 layer_factory.hpp:77] Creating layer inception_5b/pool_proj
I0403 09:07:32.172796  6091 net.cpp:91] Creating Layer inception_5b/pool_proj
I0403 09:07:32.172821  6091 net.cpp:425] inception_5b/pool_proj <- inception_5b/pool
I0403 09:07:32.172848  6091 net.cpp:399] inception_5b/pool_proj -> inception_5b/pool_proj
I0403 09:07:32.174438  6091 net.cpp:141] Setting up inception_5b/pool_proj
I0403 09:07:32.174474  6091 net.cpp:148] Top shape: 24 128 7 7 (150528)
I0403 09:07:32.174494  6091 net.cpp:156] Memory required for data: 1340445120
I0403 09:07:32.174516  6091 layer_factory.hpp:77] Creating layer inception_5b/relu_pool_proj
I0403 09:07:32.174543  6091 net.cpp:91] Creating Layer inception_5b/relu_pool_proj
I0403 09:07:32.174566  6091 net.cpp:425] inception_5b/relu_pool_proj <- inception_5b/pool_proj
I0403 09:07:32.174589  6091 net.cpp:386] inception_5b/relu_pool_proj -> inception_5b/pool_proj (in-place)
I0403 09:07:32.174620  6091 net.cpp:141] Setting up inception_5b/relu_pool_proj
I0403 09:07:32.174643  6091 net.cpp:148] Top shape: 24 128 7 7 (150528)
I0403 09:07:32.174661  6091 net.cpp:156] Memory required for data: 1341047232
I0403 09:07:32.174679  6091 layer_factory.hpp:77] Creating layer inception_5b/output
I0403 09:07:32.174701  6091 net.cpp:91] Creating Layer inception_5b/output
I0403 09:07:32.174721  6091 net.cpp:425] inception_5b/output <- inception_5b/1x1
I0403 09:07:32.174742  6091 net.cpp:425] inception_5b/output <- inception_5b/3x3
I0403 09:07:32.174763  6091 net.cpp:425] inception_5b/output <- inception_5b/5x5
I0403 09:07:32.174782  6091 net.cpp:425] inception_5b/output <- inception_5b/pool_proj
I0403 09:07:32.174808  6091 net.cpp:399] inception_5b/output -> inception_5b/output
I0403 09:07:32.174857  6091 net.cpp:141] Setting up inception_5b/output
I0403 09:07:32.174885  6091 net.cpp:148] Top shape: 24 1024 7 7 (1204224)
I0403 09:07:32.174906  6091 net.cpp:156] Memory required for data: 1345864128
I0403 09:07:32.174923  6091 layer_factory.hpp:77] Creating layer pool5/7x7_s1
I0403 09:07:32.174947  6091 net.cpp:91] Creating Layer pool5/7x7_s1
I0403 09:07:32.174969  6091 net.cpp:425] pool5/7x7_s1 <- inception_5b/output
I0403 09:07:32.174993  6091 net.cpp:399] pool5/7x7_s1 -> pool5/7x7_s1
I0403 09:07:32.175041  6091 net.cpp:141] Setting up pool5/7x7_s1
I0403 09:07:32.175070  6091 net.cpp:148] Top shape: 24 1024 1 1 (24576)
I0403 09:07:32.175088  6091 net.cpp:156] Memory required for data: 1345962432
I0403 09:07:32.175107  6091 layer_factory.hpp:77] Creating layer pool5/drop_7x7_s1
I0403 09:07:32.175129  6091 net.cpp:91] Creating Layer pool5/drop_7x7_s1
I0403 09:07:32.175148  6091 net.cpp:425] pool5/drop_7x7_s1 <- pool5/7x7_s1
I0403 09:07:32.175175  6091 net.cpp:386] pool5/drop_7x7_s1 -> pool5/7x7_s1 (in-place)
I0403 09:07:32.175225  6091 net.cpp:141] Setting up pool5/drop_7x7_s1
I0403 09:07:32.175256  6091 net.cpp:148] Top shape: 24 1024 1 1 (24576)
I0403 09:07:32.175274  6091 net.cpp:156] Memory required for data: 1346060736
I0403 09:07:32.175292  6091 layer_factory.hpp:77] Creating layer loss3/classifier_plantvillage
I0403 09:07:32.175318  6091 net.cpp:91] Creating Layer loss3/classifier_plantvillage
I0403 09:07:32.175339  6091 net.cpp:425] loss3/classifier_plantvillage <- pool5/7x7_s1
I0403 09:07:32.175371  6091 net.cpp:399] loss3/classifier_plantvillage -> loss3/classifier_plantvillage
I0403 09:07:32.175786  6091 net.cpp:141] Setting up loss3/classifier_plantvillage
I0403 09:07:32.175818  6091 net.cpp:148] Top shape: 24 38 (912)
I0403 09:07:32.175837  6091 net.cpp:156] Memory required for data: 1346064384
I0403 09:07:32.175860  6091 layer_factory.hpp:77] Creating layer loss3/classifier_plantvillage_loss3/classifier_plantvillage_0_split
I0403 09:07:32.175905  6091 net.cpp:91] Creating Layer loss3/classifier_plantvillage_loss3/classifier_plantvillage_0_split
I0403 09:07:32.175930  6091 net.cpp:425] loss3/classifier_plantvillage_loss3/classifier_plantvillage_0_split <- loss3/classifier_plantvillage
I0403 09:07:32.175951  6091 net.cpp:399] loss3/classifier_plantvillage_loss3/classifier_plantvillage_0_split -> loss3/classifier_plantvillage_loss3/classifier_plantvillage_0_split_0
I0403 09:07:32.175987  6091 net.cpp:399] loss3/classifier_plantvillage_loss3/classifier_plantvillage_0_split -> loss3/classifier_plantvillage_loss3/classifier_plantvillage_0_split_1
I0403 09:07:32.176014  6091 net.cpp:399] loss3/classifier_plantvillage_loss3/classifier_plantvillage_0_split -> loss3/classifier_plantvillage_loss3/classifier_plantvillage_0_split_2
I0403 09:07:32.176095  6091 net.cpp:141] Setting up loss3/classifier_plantvillage_loss3/classifier_plantvillage_0_split
I0403 09:07:32.176123  6091 net.cpp:148] Top shape: 24 38 (912)
I0403 09:07:32.176143  6091 net.cpp:148] Top shape: 24 38 (912)
I0403 09:07:32.176163  6091 net.cpp:148] Top shape: 24 38 (912)
I0403 09:07:32.176180  6091 net.cpp:156] Memory required for data: 1346075328
I0403 09:07:32.176199  6091 layer_factory.hpp:77] Creating layer loss1/loss
I0403 09:07:32.176223  6091 net.cpp:91] Creating Layer loss1/loss
I0403 09:07:32.176242  6091 net.cpp:425] loss1/loss <- loss1/classifier_plantvillage_loss1/classifier_plantvillage_0_split_0
I0403 09:07:32.176262  6091 net.cpp:425] loss1/loss <- label_data_1_split_0
…
