…
I0403 06:31:58.664655   395 net.cpp:313] The NetState phase (0) differed from the phase (1) specified by a rule in layer accuracy
I0403 06:31:58.666333   395 net.cpp:49] Initializing net from parameters: 
state {
  phase: TRAIN
}
layer {
  name: "data"
  type: "Data"
  top: "data"
  top: "label"
  include {
    phase: TRAIN
  }
  transform_param {
    mirror: true
    crop_size: 227
    mean_file: "/home/mohanty/data/final_dataset/lmdb/segmented-50-50/mean.binaryproto"
  }
  data_param {
    source: "/home/mohanty/data/final_dataset/lmdb/segmented-50-50/train_db"
    batch_size: 100
    backend: LMDB
  }
}
layer {
  name: "conv1"
  type: "Convolution"
  bottom: "data"
  top: "conv1"
  param {
    lr_mult: 1
    decay_mult: 1
  }
  param {
    lr_mult: 2
    decay_mult: 0
  }
  convolution_param {
    num_output: 96
    kernel_size: 11
    stride: 4
    weight_filler {
      type: "gaussian"
      std: 0.01
    }
    bias_filler {
      type: "constant"
      value: 0
    }
  }
}
layer {
  name: "relu1"
  type: "ReLU"
  bottom: "conv1"
  top: "conv1"
}
layer {
  name: "norm1"
  type: "LRN"
  bottom: "conv1"
  top: "norm1"
  lrn_param {
    local_size: 5
    alpha: 0.0001
    beta: 0.75
  }
}
layer {
  name: "pool1"
  type: "Pooling"
  bottom: "norm1"
  top: "pool1"
  pooling_param {
    pool: MAX
    kernel_size: 3
    stride: 2
  }
}
layer {
  name: "conv2"
  type: "Convolution"
  bottom: "pool1"
  top: "conv2"
  param {
    lr_mult: 1
    decay_mult: 1
  }
  param {
    lr_mult: 2
    decay_mult: 0
  }
  convolution_param {
    num_output: 256
    pad: 2
    kernel_size: 5
    group: 2
    weight_filler {
      type: "gaussian"
      std: 0.01
    }
    bias_filler {
      type: "constant"
      value: 0.1
    }
  }
}
layer {
  name: "relu2"
  type: "ReLU"
  bottom: "conv2"
  top: "conv2"
}
layer {
  name: "norm2"
  type: "LRN"
  bottom: "conv2"
  top: "norm2"
  lrn_param {
    local_size: 5
    alpha: 0.0001
    beta: 0.75
  }
}
layer {
  name: "pool2"
  type: "Pooling"
  bottom: "norm2"
  top: "pool2"
  pooling_param {
    pool: MAX
    kernel_size: 3
    stride: 2
  }
}
layer {
  name: "conv3"
  type: "Convolution"
  bottom: "pool2"
  top: "conv3"
  param {
    lr_mult: 1
    decay_mult: 1
  }
  param {
    lr_mult: 2
    decay_mult: 0
  }
  convolution_param {
    num_output: 384
    pad: 1
    kernel_size: 3
    weight_filler {
      type: "gaussian"
      std: 0.01
    }
    bias_filler {
      type: "constant"
      value: 0
    }
  }
}
layer {
  name: "relu3"
  type: "ReLU"
  bottom: "conv3"
  top: "conv3"
}
layer {
  name: "conv4"
  type: "Convolution"
  bottom: "conv3"
  top: "conv4"
  param {
    lr_mult: 1
    decay_mult: 1
  }
  param {
    lr_mult: 2
    decay_mult: 0
  }
  convolution_param {
    num_output: 384
    pad: 1
    kernel_size: 3
    group: 2
    weight_filler {
      type: "gaussian"
      std: 0.01
    }
    bias_filler {
      type: "constant"
      value: 0.1
    }
  }
}
layer {
  name: "relu4"
  type: "ReLU"
  bottom: "conv4"
  top: "conv4"
}
layer {
  name: "conv5"
  type: "Convolution"
  bottom: "conv4"
  top: "conv5"
  param {
    lr_mult: 1
    decay_mult: 1
  }
  param {
    lr_mult: 2
    decay_mult: 0
  }
  convolution_param {
    num_output: 256
    pad: 1
    kernel_size: 3
    group: 2
    weight_filler {
      type: "gaussian"
      std: 0.01
    }
    bias_filler {
      type: "constant"
      value: 0.1
    }
  }
}
layer {
  name: "relu5"
  type: "ReLU"
  bottom: "conv5"
  top: "conv5"
}
layer {
  name: "pool5"
  type: "Pooling"
  bottom: "conv5"
  top: "pool5"
  pooling_param {
    pool: MAX
    kernel_size: 3
    stride: 2
  }
}
layer {
  name: "fc6"
  type: "InnerProduct"
  bottom: "pool5"
  top: "fc6"
  param {
    lr_mult: 1
    decay_mult: 1
  }
  param {
    lr_mult: 2
    decay_mult: 0
  }
  inner_product_param {
    num_output: 4096
    weight_filler {
      type: "gaussian"
      std: 0.005
    }
    bias_filler {
      type: "constant"
      value: 0.1
    }
  }
}
layer {
  name: "relu6"
  type: "ReLU"
  bottom: "fc6"
  top: "fc6"
}
layer {
  name: "drop6"
  type: "Dropout"
  bottom: "fc6"
  top: "fc6"
  dropout_param {
    dropout_ratio: 0.5
  }
}
layer {
  name: "fc7"
  type: "InnerProduct"
  bottom: "fc6"
  top: "fc7"
  param {
    lr_mult: 1
    decay_mult: 1
  }
  param {
    lr_mult: 2
    decay_mult: 0
  }
  inner_product_param {
    num_output: 4096
    weight_filler {
      type: "gaussian"
      std: 0.005
    }
    bias_filler {
      type: "constant"
      value: 0.1
    }
  }
}
layer {
  name: "relu7"
  type: "ReLU"
  bottom: "fc7"
  top: "fc7"
}
layer {
  name: "drop7"
  type: "Dropout"
  bottom: "fc7"
  top: "fc7"
  dropout_param {
    dropout_ratio: 0.5
  }
}
layer {
  name: "fc8_plantvillage"
  type: "InnerProduct"
  bottom: "fc7"
  top: "fc8_plantvillage"
  param {
    lr_mult: 1
    decay_mult: 1
  }
  param {
    lr_mult: 2
    decay_mult: 0
  }
  inner_product_param {
    num_output: 38
    weight_filler {
      type: "gaussian"
      std: 0.01
    }
    bias_filler {
      type: "constant"
      value: 0
    }
  }
}
layer {
  name: "loss"
  type: "SoftmaxWithLoss"
  bottom: "fc8_plantvillage"
  bottom: "label"
  top: "loss"
}
I0403 06:31:58.667325   395 layer_factory.hpp:77] Creating layer data
I0403 06:31:58.668975   395 net.cpp:91] Creating Layer data
I0403 06:31:58.669070   395 net.cpp:399] data -> data
I0403 06:31:58.669190   395 net.cpp:399] data -> label
I0403 06:31:58.669272   395 data_transformer.cpp:25] Loading mean file from: /home/mohanty/data/final_dataset/lmdb/segmented-50-50/mean.binaryproto
I0403 06:31:58.700822   399 db_lmdb.cpp:38] Opened lmdb /home/mohanty/data/final_dataset/lmdb/segmented-50-50/train_db
I0403 06:31:58.742949   395 data_layer.cpp:41] output data size: 100,3,227,227
I0403 06:31:58.863615   395 net.cpp:141] Setting up data
I0403 06:31:58.863724   395 net.cpp:148] Top shape: 100 3 227 227 (15458700)
I0403 06:31:58.863746   395 net.cpp:148] Top shape: 100 (100)
I0403 06:31:58.863764   395 net.cpp:156] Memory required for data: 61835200
I0403 06:31:58.863795   395 layer_factory.hpp:77] Creating layer conv1
I0403 06:31:58.863840   395 net.cpp:91] Creating Layer conv1
I0403 06:31:58.863863   395 net.cpp:425] conv1 <- data
I0403 06:31:58.863895   395 net.cpp:399] conv1 -> conv1
I0403 06:31:58.866555   395 net.cpp:141] Setting up conv1
I0403 06:31:58.866590   395 net.cpp:148] Top shape: 100 96 55 55 (29040000)
I0403 06:31:58.866610   395 net.cpp:156] Memory required for data: 177995200
I0403 06:31:58.866646   395 layer_factory.hpp:77] Creating layer relu1
I0403 06:31:58.866674   395 net.cpp:91] Creating Layer relu1
I0403 06:31:58.866695   395 net.cpp:425] relu1 <- conv1
I0403 06:31:58.866715   395 net.cpp:386] relu1 -> conv1 (in-place)
I0403 06:31:58.866742   395 net.cpp:141] Setting up relu1
I0403 06:31:58.866763   395 net.cpp:148] Top shape: 100 96 55 55 (29040000)
I0403 06:31:58.866780   395 net.cpp:156] Memory required for data: 294155200
I0403 06:31:58.866796   395 layer_factory.hpp:77] Creating layer norm1
I0403 06:31:58.866863   395 net.cpp:91] Creating Layer norm1
I0403 06:31:58.866880   395 net.cpp:425] norm1 <- conv1
I0403 06:31:58.866900   395 net.cpp:399] norm1 -> norm1
I0403 06:31:58.872542   395 net.cpp:141] Setting up norm1
I0403 06:31:58.872578   395 net.cpp:148] Top shape: 100 96 55 55 (29040000)
I0403 06:31:58.872596   395 net.cpp:156] Memory required for data: 410315200
I0403 06:31:58.872613   395 layer_factory.hpp:77] Creating layer pool1
I0403 06:31:58.872635   395 net.cpp:91] Creating Layer pool1
I0403 06:31:58.872654   395 net.cpp:425] pool1 <- norm1
I0403 06:31:58.872674   395 net.cpp:399] pool1 -> pool1
I0403 06:31:58.872737   395 net.cpp:141] Setting up pool1
I0403 06:31:58.872764   395 net.cpp:148] Top shape: 100 96 27 27 (6998400)
I0403 06:31:58.872781   395 net.cpp:156] Memory required for data: 438308800
I0403 06:31:58.872797   395 layer_factory.hpp:77] Creating layer conv2
I0403 06:31:58.872820   395 net.cpp:91] Creating Layer conv2
I0403 06:31:58.872838   395 net.cpp:425] conv2 <- pool1
I0403 06:31:58.872859   395 net.cpp:399] conv2 -> conv2
I0403 06:31:58.874109   400 blocking_queue.cpp:50] Waiting for data
I0403 06:31:58.889668   395 net.cpp:141] Setting up conv2
I0403 06:31:58.889699   395 net.cpp:148] Top shape: 100 256 27 27 (18662400)
I0403 06:31:58.889717   395 net.cpp:156] Memory required for data: 512958400
I0403 06:31:58.889740   395 layer_factory.hpp:77] Creating layer relu2
I0403 06:31:58.889762   395 net.cpp:91] Creating Layer relu2
I0403 06:31:58.889780   395 net.cpp:425] relu2 <- conv2
I0403 06:31:58.889797   395 net.cpp:386] relu2 -> conv2 (in-place)
I0403 06:31:58.889818   395 net.cpp:141] Setting up relu2
I0403 06:31:58.889847   395 net.cpp:148] Top shape: 100 256 27 27 (18662400)
I0403 06:31:58.889863   395 net.cpp:156] Memory required for data: 587608000
I0403 06:31:58.889878   395 layer_factory.hpp:77] Creating layer norm2
I0403 06:31:58.889896   395 net.cpp:91] Creating Layer norm2
I0403 06:31:58.889911   395 net.cpp:425] norm2 <- conv2
I0403 06:31:58.889930   395 net.cpp:399] norm2 -> norm2
I0403 06:31:58.889976   395 net.cpp:141] Setting up norm2
I0403 06:31:58.889998   395 net.cpp:148] Top shape: 100 256 27 27 (18662400)
I0403 06:31:58.890013   395 net.cpp:156] Memory required for data: 662257600
I0403 06:31:58.890028   395 layer_factory.hpp:77] Creating layer pool2
I0403 06:31:58.890049   395 net.cpp:91] Creating Layer pool2
I0403 06:31:58.890067   395 net.cpp:425] pool2 <- norm2
I0403 06:31:58.890085   395 net.cpp:399] pool2 -> pool2
I0403 06:31:58.890128   395 net.cpp:141] Setting up pool2
I0403 06:31:58.890152   395 net.cpp:148] Top shape: 100 256 13 13 (4326400)
I0403 06:31:58.890167   395 net.cpp:156] Memory required for data: 679563200
I0403 06:31:58.890183   395 layer_factory.hpp:77] Creating layer conv3
I0403 06:31:58.890205   395 net.cpp:91] Creating Layer conv3
I0403 06:31:58.890223   395 net.cpp:425] conv3 <- pool2
I0403 06:31:58.890240   395 net.cpp:399] conv3 -> conv3
I0403 06:31:58.922945   395 net.cpp:141] Setting up conv3
I0403 06:31:58.922973   395 net.cpp:148] Top shape: 100 384 13 13 (6489600)
I0403 06:31:58.922991   395 net.cpp:156] Memory required for data: 705521600
I0403 06:31:58.923012   395 layer_factory.hpp:77] Creating layer relu3
I0403 06:31:58.923032   395 net.cpp:91] Creating Layer relu3
I0403 06:31:58.923048   395 net.cpp:425] relu3 <- conv3
I0403 06:31:58.923065   395 net.cpp:386] relu3 -> conv3 (in-place)
I0403 06:31:58.923085   395 net.cpp:141] Setting up relu3
I0403 06:31:58.923102   395 net.cpp:148] Top shape: 100 384 13 13 (6489600)
I0403 06:31:58.923117   395 net.cpp:156] Memory required for data: 731480000
I0403 06:31:58.923132   395 layer_factory.hpp:77] Creating layer conv4
I0403 06:31:58.923153   395 net.cpp:91] Creating Layer conv4
I0403 06:31:58.923171   395 net.cpp:425] conv4 <- conv3
I0403 06:31:58.923189   395 net.cpp:399] conv4 -> conv4
I0403 06:31:58.947636   395 net.cpp:141] Setting up conv4
I0403 06:31:58.947669   395 net.cpp:148] Top shape: 100 384 13 13 (6489600)
I0403 06:31:58.947685   395 net.cpp:156] Memory required for data: 757438400
I0403 06:31:58.947721   395 layer_factory.hpp:77] Creating layer relu4
I0403 06:31:58.947741   395 net.cpp:91] Creating Layer relu4
I0403 06:31:58.947758   395 net.cpp:425] relu4 <- conv4
I0403 06:31:58.947775   395 net.cpp:386] relu4 -> conv4 (in-place)
I0403 06:31:58.947795   395 net.cpp:141] Setting up relu4
I0403 06:31:58.947813   395 net.cpp:148] Top shape: 100 384 13 13 (6489600)
I0403 06:31:58.947829   395 net.cpp:156] Memory required for data: 783396800
I0403 06:31:58.947844   395 layer_factory.hpp:77] Creating layer conv5
I0403 06:31:58.947865   395 net.cpp:91] Creating Layer conv5
I0403 06:31:58.947880   395 net.cpp:425] conv5 <- conv4
I0403 06:31:58.947899   395 net.cpp:399] conv5 -> conv5
I0403 06:31:58.964164   395 net.cpp:141] Setting up conv5
I0403 06:31:58.964195   395 net.cpp:148] Top shape: 100 256 13 13 (4326400)
I0403 06:31:58.964210   395 net.cpp:156] Memory required for data: 800702400
I0403 06:31:58.964232   395 layer_factory.hpp:77] Creating layer relu5
I0403 06:31:58.964254   395 net.cpp:91] Creating Layer relu5
I0403 06:31:58.964272   395 net.cpp:425] relu5 <- conv5
I0403 06:31:58.964296   395 net.cpp:386] relu5 -> conv5 (in-place)
I0403 06:31:58.964318   395 net.cpp:141] Setting up relu5
I0403 06:31:58.964335   395 net.cpp:148] Top shape: 100 256 13 13 (4326400)
I0403 06:31:58.964349   395 net.cpp:156] Memory required for data: 818008000
I0403 06:31:58.964364   395 layer_factory.hpp:77] Creating layer pool5
I0403 06:31:58.964381   395 net.cpp:91] Creating Layer pool5
I0403 06:31:58.964398   395 net.cpp:425] pool5 <- conv5
I0403 06:31:58.964416   395 net.cpp:399] pool5 -> pool5
I0403 06:31:58.964462   395 net.cpp:141] Setting up pool5
I0403 06:31:58.964485   395 net.cpp:148] Top shape: 100 256 6 6 (921600)
I0403 06:31:58.964501   395 net.cpp:156] Memory required for data: 821694400
I0403 06:31:58.964516   395 layer_factory.hpp:77] Creating layer fc6
I0403 06:31:58.964542   395 net.cpp:91] Creating Layer fc6
I0403 06:31:58.964560   395 net.cpp:425] fc6 <- pool5
I0403 06:31:58.964581   395 net.cpp:399] fc6 -> fc6
I0403 06:32:00.335856   395 net.cpp:141] Setting up fc6
I0403 06:32:00.335952   395 net.cpp:148] Top shape: 100 4096 (409600)
I0403 06:32:00.335969   395 net.cpp:156] Memory required for data: 823332800
I0403 06:32:00.335990   395 layer_factory.hpp:77] Creating layer relu6
I0403 06:32:00.336019   395 net.cpp:91] Creating Layer relu6
I0403 06:32:00.336037   395 net.cpp:425] relu6 <- fc6
I0403 06:32:00.336057   395 net.cpp:386] relu6 -> fc6 (in-place)
I0403 06:32:00.336079   395 net.cpp:141] Setting up relu6
I0403 06:32:00.336097   395 net.cpp:148] Top shape: 100 4096 (409600)
I0403 06:32:00.336110   395 net.cpp:156] Memory required for data: 824971200
I0403 06:32:00.336124   395 layer_factory.hpp:77] Creating layer drop6
I0403 06:32:00.336149   395 net.cpp:91] Creating Layer drop6
I0403 06:32:00.336168   395 net.cpp:425] drop6 <- fc6
I0403 06:32:00.336186   395 net.cpp:386] drop6 -> fc6 (in-place)
I0403 06:32:00.336233   395 net.cpp:141] Setting up drop6
I0403 06:32:00.336256   395 net.cpp:148] Top shape: 100 4096 (409600)
I0403 06:32:00.336271   395 net.cpp:156] Memory required for data: 826609600
I0403 06:32:00.336285   395 layer_factory.hpp:77] Creating layer fc7
I0403 06:32:00.336313   395 net.cpp:91] Creating Layer fc7
I0403 06:32:00.336330   395 net.cpp:425] fc7 <- fc6
I0403 06:32:00.336349   395 net.cpp:399] fc7 -> fc7
I0403 06:32:00.942282   395 net.cpp:141] Setting up fc7
I0403 06:32:00.942378   395 net.cpp:148] Top shape: 100 4096 (409600)
I0403 06:32:00.942395   395 net.cpp:156] Memory required for data: 828248000
I0403 06:32:00.942417   395 layer_factory.hpp:77] Creating layer relu7
I0403 06:32:00.942445   395 net.cpp:91] Creating Layer relu7
I0403 06:32:00.942466   395 net.cpp:425] relu7 <- fc7
I0403 06:32:00.942486   395 net.cpp:386] relu7 -> fc7 (in-place)
I0403 06:32:00.942507   395 net.cpp:141] Setting up relu7
I0403 06:32:00.942523   395 net.cpp:148] Top shape: 100 4096 (409600)
I0403 06:32:00.942538   395 net.cpp:156] Memory required for data: 829886400
I0403 06:32:00.942584   395 layer_factory.hpp:77] Creating layer drop7
I0403 06:32:00.942607   395 net.cpp:91] Creating Layer drop7
I0403 06:32:00.942625   395 net.cpp:425] drop7 <- fc7
I0403 06:32:00.942641   395 net.cpp:386] drop7 -> fc7 (in-place)
I0403 06:32:00.942679   395 net.cpp:141] Setting up drop7
I0403 06:32:00.942703   395 net.cpp:148] Top shape: 100 4096 (409600)
I0403 06:32:00.942719   395 net.cpp:156] Memory required for data: 831524800
I0403 06:32:00.942734   395 layer_factory.hpp:77] Creating layer fc8_plantvillage
I0403 06:32:00.942754   395 net.cpp:91] Creating Layer fc8_plantvillage
I0403 06:32:00.942769   395 net.cpp:425] fc8_plantvillage <- fc7
I0403 06:32:00.942788   395 net.cpp:399] fc8_plantvillage -> fc8_plantvillage
I0403 06:32:00.948765   395 net.cpp:141] Setting up fc8_plantvillage
I0403 06:32:00.948792   395 net.cpp:148] Top shape: 100 38 (3800)
I0403 06:32:00.948808   395 net.cpp:156] Memory required for data: 831540000
I0403 06:32:00.948825   395 layer_factory.hpp:77] Creating layer loss
I0403 06:32:00.948849   395 net.cpp:91] Creating Layer loss
I0403 06:32:00.948868   395 net.cpp:425] loss <- fc8_plantvillage
I0403 06:32:00.948884   395 net.cpp:425] loss <- label
I0403 06:32:00.948907   395 net.cpp:399] loss -> loss
I0403 06:32:00.948935   395 layer_factory.hpp:77] Creating layer loss
…
I0403 06:32:00.950603   395 net.cpp:313] The NetState phase (1) differed from the phase (0) specified by a rule in layer data
I0403 06:32:00.951198   395 net.cpp:49] Initializing net from parameters: 
state {
  phase: TEST
}
layer {
  name: "data"
  type: "Data"
  top: "data"
  top: "label"
  include {
    phase: TEST
  }
  transform_param {
    crop_size: 227
    mean_file: "/home/mohanty/data/final_dataset/lmdb/segmented-50-50/mean.binaryproto"
  }
  data_param {
    source: "/home/mohanty/data/final_dataset/lmdb/segmented-50-50/test_db"
    batch_size: 100
    backend: LMDB
  }
}
layer {
  name: "conv1"
  type: "Convolution"
  bottom: "data"
  top: "conv1"
  param {
    lr_mult: 1
    decay_mult: 1
  }
  param {
    lr_mult: 2
    decay_mult: 0
  }
  convolution_param {
    num_output: 96
    kernel_size: 11
    stride: 4
    weight_filler {
      type: "gaussian"
      std: 0.01
    }
    bias_filler {
      type: "constant"
      value: 0
    }
  }
}
layer {
  name: "relu1"
  type: "ReLU"
  bottom: "conv1"
  top: "conv1"
}
layer {
  name: "norm1"
  type: "LRN"
  bottom: "conv1"
  top: "norm1"
  lrn_param {
    local_size: 5
    alpha: 0.0001
    beta: 0.75
  }
}
layer {
  name: "pool1"
  type: "Pooling"
  bottom: "norm1"
  top: "pool1"
  pooling_param {
    pool: MAX
    kernel_size: 3
    stride: 2
  }
}
layer {
  name: "conv2"
  type: "Convolution"
  bottom: "pool1"
  top: "conv2"
  param {
    lr_mult: 1
    decay_mult: 1
  }
  param {
    lr_mult: 2
    decay_mult: 0
  }
  convolution_param {
    num_output: 256
    pad: 2
    kernel_size: 5
    group: 2
    weight_filler {
      type: "gaussian"
      std: 0.01
    }
    bias_filler {
      type: "constant"
      value: 0.1
    }
  }
}
layer {
  name: "relu2"
  type: "ReLU"
  bottom: "conv2"
  top: "conv2"
}
layer {
  name: "norm2"
  type: "LRN"
  bottom: "conv2"
  top: "norm2"
  lrn_param {
    local_size: 5
    alpha: 0.0001
    beta: 0.75
  }
}
layer {
  name: "pool2"
  type: "Pooling"
  bottom: "norm2"
  top: "pool2"
  pooling_param {
    pool: MAX
    kernel_size: 3
    stride: 2
  }
}
layer {
  name: "conv3"
  type: "Convolution"
  bottom: "pool2"
  top: "conv3"
  param {
    lr_mult: 1
    decay_mult: 1
  }
  param {
    lr_mult: 2
    decay_mult: 0
  }
  convolution_param {
    num_output: 384
    pad: 1
    kernel_size: 3
    weight_filler {
      type: "gaussian"
      std: 0.01
    }
    bias_filler {
      type: "constant"
      value: 0
    }
  }
}
layer {
  name: "relu3"
  type: "ReLU"
  bottom: "conv3"
  top: "conv3"
}
layer {
  name: "conv4"
  type: "Convolution"
  bottom: "conv3"
  top: "conv4"
  param {
    lr_mult: 1
    decay_mult: 1
  }
  param {
    lr_mult: 2
    decay_mult: 0
  }
  convolution_param {
    num_output: 384
    pad: 1
    kernel_size: 3
    group: 2
    weight_filler {
      type: "gaussian"
      std: 0.01
    }
    bias_filler {
      type: "constant"
      value: 0.1
    }
  }
}
layer {
  name: "relu4"
  type: "ReLU"
  bottom: "conv4"
  top: "conv4"
}
layer {
  name: "conv5"
  type: "Convolution"
  bottom: "conv4"
  top: "conv5"
  param {
    lr_mult: 1
    decay_mult: 1
  }
  param {
    lr_mult: 2
    decay_mult: 0
  }
  convolution_param {
    num_output: 256
    pad: 1
    kernel_size: 3
    group: 2
    weight_filler {
      type: "gaussian"
      std: 0.01
    }
    bias_filler {
      type: "constant"
      value: 0.1
    }
  }
}
layer {
  name: "relu5"
  type: "ReLU"
  bottom: "conv5"
  top: "conv5"
}
layer {
  name: "pool5"
  type: "Pooling"
  bottom: "conv5"
  top: "pool5"
  pooling_param {
    pool: MAX
    kernel_size: 3
    stride: 2
  }
}
layer {
  name: "fc6"
  type: "InnerProduct"
  bottom: "pool5"
  top: "fc6"
  param {
    lr_mult: 1
    decay_mult: 1
  }
  param {
    lr_mult: 2
    decay_mult: 0
  }
  inner_product_param {
    num_output: 4096
    weight_filler {
      type: "gaussian"
      std: 0.005
    }
    bias_filler {
      type: "constant"
      value: 0.1
    }
  }
}
layer {
  name: "relu6"
  type: "ReLU"
  bottom: "fc6"
  top: "fc6"
}
layer {
  name: "drop6"
  type: "Dropout"
  bottom: "fc6"
  top: "fc6"
  dropout_param {
    dropout_ratio: 0.5
  }
}
layer {
  name: "fc7"
  type: "InnerProduct"
  bottom: "fc6"
  top: "fc7"
  param {
    lr_mult: 1
    decay_mult: 1
  }
  param {
    lr_mult: 2
    decay_mult: 0
  }
  inner_product_param {
    num_output: 4096
    weight_filler {
      type: "gaussian"
      std: 0.005
    }
    bias_filler {
      type: "constant"
      value: 0.1
    }
  }
}
layer {
  name: "relu7"
  type: "ReLU"
  bottom: "fc7"
  top: "fc7"
}
layer {
  name: "drop7"
  type: "Dropout"
  bottom: "fc7"
  top: "fc7"
  dropout_param {
    dropout_ratio: 0.5
  }
}
layer {
  name: "fc8_plantvillage"
  type: "InnerProduct"
  bottom: "fc7"
  top: "fc8_plantvillage"
  param {
    lr_mult: 1
    decay_mult: 1
  }
  param {
    lr_mult: 2
    decay_mult: 0
  }
  inner_product_param {
    num_output: 38
    weight_filler {
      type: "gaussian"
      std: 0.01
    }
    bias_filler {
      type: "constant"
      value: 0
    }
  }
}
layer {
  name: "loss"
  type: "SoftmaxWithLoss"
  bottom: "fc8_plantvillage"
  bottom: "label"
  top: "loss"
}
layer {
  name: "accuracy"
  type: "Accuracy"
  bottom: "fc8_plantvillage"
  bottom: "label"
  top: "accuracy"
  include {
    phase: TEST
  }
}
I0403 06:32:00.951359   395 layer_factory.hpp:77] Creating layer data
I0403 06:32:00.951880   395 net.cpp:91] Creating Layer data
I0403 06:32:00.951907   395 net.cpp:399] data -> data
I0403 06:32:00.951935   395 net.cpp:399] data -> label
I0403 06:32:00.951957   395 data_transformer.cpp:25] Loading mean file from: /home/mohanty/data/final_dataset/lmdb/segmented-50-50/mean.binaryproto
I0403 06:32:00.967201   401 db_lmdb.cpp:38] Opened lmdb /home/mohanty/data/final_dataset/lmdb/segmented-50-50/test_db
I0403 06:32:00.984588   395 data_layer.cpp:41] output data size: 100,3,227,227
I0403 06:32:01.109752   395 net.cpp:141] Setting up data
I0403 06:32:01.109830   395 net.cpp:148] Top shape: 100 3 227 227 (15458700)
I0403 06:32:01.109853   395 net.cpp:148] Top shape: 100 (100)
I0403 06:32:01.109869   395 net.cpp:156] Memory required for data: 61835200
I0403 06:32:01.109889   395 layer_factory.hpp:77] Creating layer label_data_1_split
I0403 06:32:01.109918   395 net.cpp:91] Creating Layer label_data_1_split
I0403 06:32:01.109938   395 net.cpp:425] label_data_1_split <- label
I0403 06:32:01.109959   395 net.cpp:399] label_data_1_split -> label_data_1_split_0
I0403 06:32:01.109984   395 net.cpp:399] label_data_1_split -> label_data_1_split_1
I0403 06:32:01.110045   395 net.cpp:141] Setting up label_data_1_split
I0403 06:32:01.110070   395 net.cpp:148] Top shape: 100 (100)
I0403 06:32:01.110088   395 net.cpp:148] Top shape: 100 (100)
I0403 06:32:01.110105   395 net.cpp:156] Memory required for data: 61836000
I0403 06:32:01.110121   395 layer_factory.hpp:77] Creating layer conv1
I0403 06:32:01.110151   395 net.cpp:91] Creating Layer conv1
I0403 06:32:01.110168   395 net.cpp:425] conv1 <- data
I0403 06:32:01.110188   395 net.cpp:399] conv1 -> conv1
I0403 06:32:01.111798   395 net.cpp:141] Setting up conv1
I0403 06:32:01.111826   395 net.cpp:148] Top shape: 100 96 55 55 (29040000)
I0403 06:32:01.111845   395 net.cpp:156] Memory required for data: 177996000
I0403 06:32:01.111870   395 layer_factory.hpp:77] Creating layer relu1
I0403 06:32:01.111892   395 net.cpp:91] Creating Layer relu1
I0403 06:32:01.111909   395 net.cpp:425] relu1 <- conv1
I0403 06:32:01.111929   395 net.cpp:386] relu1 -> conv1 (in-place)
I0403 06:32:01.111950   395 net.cpp:141] Setting up relu1
I0403 06:32:01.111969   395 net.cpp:148] Top shape: 100 96 55 55 (29040000)
I0403 06:32:01.111986   395 net.cpp:156] Memory required for data: 294156000
I0403 06:32:01.112002   395 layer_factory.hpp:77] Creating layer norm1
I0403 06:32:01.112025   395 net.cpp:91] Creating Layer norm1
I0403 06:32:01.112041   395 net.cpp:425] norm1 <- conv1
I0403 06:32:01.112061   395 net.cpp:399] norm1 -> norm1
I0403 06:32:01.117849   395 net.cpp:141] Setting up norm1
I0403 06:32:01.117889   395 net.cpp:148] Top shape: 100 96 55 55 (29040000)
I0403 06:32:01.117908   395 net.cpp:156] Memory required for data: 410316000
I0403 06:32:01.117926   395 layer_factory.hpp:77] Creating layer pool1
I0403 06:32:01.117949   395 net.cpp:91] Creating Layer pool1
I0403 06:32:01.117967   395 net.cpp:425] pool1 <- norm1
I0403 06:32:01.117986   395 net.cpp:399] pool1 -> pool1
I0403 06:32:01.118039   395 net.cpp:141] Setting up pool1
I0403 06:32:01.118064   395 net.cpp:148] Top shape: 100 96 27 27 (6998400)
I0403 06:32:01.118082   395 net.cpp:156] Memory required for data: 438309600
I0403 06:32:01.118122   395 layer_factory.hpp:77] Creating layer conv2
I0403 06:32:01.118149   395 net.cpp:91] Creating Layer conv2
I0403 06:32:01.118167   395 net.cpp:425] conv2 <- pool1
I0403 06:32:01.118188   395 net.cpp:399] conv2 -> conv2
I0403 06:32:01.130877   395 net.cpp:141] Setting up conv2
I0403 06:32:01.130909   395 net.cpp:148] Top shape: 100 256 27 27 (18662400)
I0403 06:32:01.130928   395 net.cpp:156] Memory required for data: 512959200
I0403 06:32:01.130950   395 layer_factory.hpp:77] Creating layer relu2
I0403 06:32:01.130973   395 net.cpp:91] Creating Layer relu2
I0403 06:32:01.130992   395 net.cpp:425] relu2 <- conv2
I0403 06:32:01.131011   395 net.cpp:386] relu2 -> conv2 (in-place)
I0403 06:32:01.131033   395 net.cpp:141] Setting up relu2
I0403 06:32:01.131052   395 net.cpp:148] Top shape: 100 256 27 27 (18662400)
I0403 06:32:01.131068   395 net.cpp:156] Memory required for data: 587608800
I0403 06:32:01.131083   395 layer_factory.hpp:77] Creating layer norm2
I0403 06:32:01.131110   395 net.cpp:91] Creating Layer norm2
I0403 06:32:01.131134   395 net.cpp:425] norm2 <- conv2
I0403 06:32:01.131155   395 net.cpp:399] norm2 -> norm2
I0403 06:32:01.131206   395 net.cpp:141] Setting up norm2
I0403 06:32:01.131232   395 net.cpp:148] Top shape: 100 256 27 27 (18662400)
I0403 06:32:01.131248   395 net.cpp:156] Memory required for data: 662258400
I0403 06:32:01.131264   395 layer_factory.hpp:77] Creating layer pool2
I0403 06:32:01.131284   395 net.cpp:91] Creating Layer pool2
I0403 06:32:01.131307   395 net.cpp:425] pool2 <- norm2
I0403 06:32:01.131327   395 net.cpp:399] pool2 -> pool2
I0403 06:32:01.131376   395 net.cpp:141] Setting up pool2
I0403 06:32:01.131402   395 net.cpp:148] Top shape: 100 256 13 13 (4326400)
I0403 06:32:01.131419   395 net.cpp:156] Memory required for data: 679564000
I0403 06:32:01.131435   395 layer_factory.hpp:77] Creating layer conv3
I0403 06:32:01.131458   395 net.cpp:91] Creating Layer conv3
I0403 06:32:01.131477   395 net.cpp:425] conv3 <- pool2
I0403 06:32:01.131499   395 net.cpp:399] conv3 -> conv3
I0403 06:32:01.167698   395 net.cpp:141] Setting up conv3
I0403 06:32:01.167762   395 net.cpp:148] Top shape: 100 384 13 13 (6489600)
I0403 06:32:01.167780   395 net.cpp:156] Memory required for data: 705522400
I0403 06:32:01.167807   395 layer_factory.hpp:77] Creating layer relu3
I0403 06:32:01.167831   395 net.cpp:91] Creating Layer relu3
I0403 06:32:01.167850   395 net.cpp:425] relu3 <- conv3
I0403 06:32:01.167870   395 net.cpp:386] relu3 -> conv3 (in-place)
I0403 06:32:01.167892   395 net.cpp:141] Setting up relu3
I0403 06:32:01.167912   395 net.cpp:148] Top shape: 100 384 13 13 (6489600)
I0403 06:32:01.167929   395 net.cpp:156] Memory required for data: 731480800
I0403 06:32:01.167944   395 layer_factory.hpp:77] Creating layer conv4
I0403 06:32:01.167969   395 net.cpp:91] Creating Layer conv4
I0403 06:32:01.167989   395 net.cpp:425] conv4 <- conv3
I0403 06:32:01.168009   395 net.cpp:399] conv4 -> conv4
I0403 06:32:01.194994   395 net.cpp:141] Setting up conv4
I0403 06:32:01.195039   395 net.cpp:148] Top shape: 100 384 13 13 (6489600)
I0403 06:32:01.195058   395 net.cpp:156] Memory required for data: 757439200
I0403 06:32:01.195080   395 layer_factory.hpp:77] Creating layer relu4
I0403 06:32:01.195102   395 net.cpp:91] Creating Layer relu4
I0403 06:32:01.195122   395 net.cpp:425] relu4 <- conv4
I0403 06:32:01.195142   395 net.cpp:386] relu4 -> conv4 (in-place)
I0403 06:32:01.195163   395 net.cpp:141] Setting up relu4
I0403 06:32:01.195183   395 net.cpp:148] Top shape: 100 384 13 13 (6489600)
I0403 06:32:01.195200   395 net.cpp:156] Memory required for data: 783397600
I0403 06:32:01.195216   395 layer_factory.hpp:77] Creating layer conv5
I0403 06:32:01.195240   395 net.cpp:91] Creating Layer conv5
I0403 06:32:01.195258   395 net.cpp:425] conv5 <- conv4
I0403 06:32:01.195279   395 net.cpp:399] conv5 -> conv5
I0403 06:32:01.213579   395 net.cpp:141] Setting up conv5
I0403 06:32:01.213614   395 net.cpp:148] Top shape: 100 256 13 13 (4326400)
I0403 06:32:01.213655   395 net.cpp:156] Memory required for data: 800703200
I0403 06:32:01.213682   395 layer_factory.hpp:77] Creating layer relu5
I0403 06:32:01.213709   395 net.cpp:91] Creating Layer relu5
I0403 06:32:01.213728   395 net.cpp:425] relu5 <- conv5
I0403 06:32:01.213748   395 net.cpp:386] relu5 -> conv5 (in-place)
I0403 06:32:01.213769   395 net.cpp:141] Setting up relu5
I0403 06:32:01.213788   395 net.cpp:148] Top shape: 100 256 13 13 (4326400)
I0403 06:32:01.213804   395 net.cpp:156] Memory required for data: 818008800
I0403 06:32:01.213819   395 layer_factory.hpp:77] Creating layer pool5
I0403 06:32:01.213842   395 net.cpp:91] Creating Layer pool5
I0403 06:32:01.213860   395 net.cpp:425] pool5 <- conv5
I0403 06:32:01.213881   395 net.cpp:399] pool5 -> pool5
I0403 06:32:01.213937   395 net.cpp:141] Setting up pool5
I0403 06:32:01.213963   395 net.cpp:148] Top shape: 100 256 6 6 (921600)
I0403 06:32:01.213979   395 net.cpp:156] Memory required for data: 821695200
I0403 06:32:01.213997   395 layer_factory.hpp:77] Creating layer fc6
I0403 06:32:01.214020   395 net.cpp:91] Creating Layer fc6
I0403 06:32:01.214048   395 net.cpp:425] fc6 <- pool5
I0403 06:32:01.214069   395 net.cpp:399] fc6 -> fc6
I0403 06:32:02.616868   395 net.cpp:141] Setting up fc6
I0403 06:32:02.616962   395 net.cpp:148] Top shape: 100 4096 (409600)
I0403 06:32:02.616979   395 net.cpp:156] Memory required for data: 823333600
I0403 06:32:02.617000   395 layer_factory.hpp:77] Creating layer relu6
I0403 06:32:02.617024   395 net.cpp:91] Creating Layer relu6
I0403 06:32:02.617045   395 net.cpp:425] relu6 <- fc6
I0403 06:32:02.617065   395 net.cpp:386] relu6 -> fc6 (in-place)
I0403 06:32:02.617086   395 net.cpp:141] Setting up relu6
I0403 06:32:02.617105   395 net.cpp:148] Top shape: 100 4096 (409600)
I0403 06:32:02.617120   395 net.cpp:156] Memory required for data: 824972000
I0403 06:32:02.617135   395 layer_factory.hpp:77] Creating layer drop6
I0403 06:32:02.617153   395 net.cpp:91] Creating Layer drop6
I0403 06:32:02.617168   395 net.cpp:425] drop6 <- fc6
I0403 06:32:02.617185   395 net.cpp:386] drop6 -> fc6 (in-place)
I0403 06:32:02.617225   395 net.cpp:141] Setting up drop6
I0403 06:32:02.617247   395 net.cpp:148] Top shape: 100 4096 (409600)
I0403 06:32:02.617262   395 net.cpp:156] Memory required for data: 826610400
I0403 06:32:02.617277   395 layer_factory.hpp:77] Creating layer fc7
I0403 06:32:02.617305   395 net.cpp:91] Creating Layer fc7
I0403 06:32:02.617323   395 net.cpp:425] fc7 <- fc6
I0403 06:32:02.617342   395 net.cpp:399] fc7 -> fc7
I0403 06:32:03.223510   395 net.cpp:141] Setting up fc7
I0403 06:32:03.223603   395 net.cpp:148] Top shape: 100 4096 (409600)
I0403 06:32:03.223621   395 net.cpp:156] Memory required for data: 828248800
I0403 06:32:03.223644   395 layer_factory.hpp:77] Creating layer relu7
I0403 06:32:03.223672   395 net.cpp:91] Creating Layer relu7
I0403 06:32:03.223692   395 net.cpp:425] relu7 <- fc7
I0403 06:32:03.223713   395 net.cpp:386] relu7 -> fc7 (in-place)
I0403 06:32:03.223736   395 net.cpp:141] Setting up relu7
I0403 06:32:03.223752   395 net.cpp:148] Top shape: 100 4096 (409600)
I0403 06:32:03.223767   395 net.cpp:156] Memory required for data: 829887200
I0403 06:32:03.223780   395 layer_factory.hpp:77] Creating layer drop7
I0403 06:32:03.223803   395 net.cpp:91] Creating Layer drop7
I0403 06:32:03.223819   395 net.cpp:425] drop7 <- fc7
I0403 06:32:03.223835   395 net.cpp:386] drop7 -> fc7 (in-place)
I0403 06:32:03.223875   395 net.cpp:141] Setting up drop7
I0403 06:32:03.223898   395 net.cpp:148] Top shape: 100 4096 (409600)
I0403 06:32:03.223913   395 net.cpp:156] Memory required for data: 831525600
I0403 06:32:03.223929   395 layer_factory.hpp:77] Creating layer fc8_plantvillage
I0403 06:32:03.223950   395 net.cpp:91] Creating Layer fc8_plantvillage
I0403 06:32:03.223968   395 net.cpp:425] fc8_plantvillage <- fc7
I0403 06:32:03.223987   395 net.cpp:399] fc8_plantvillage -> fc8_plantvillage
I0403 06:32:03.229990   395 net.cpp:141] Setting up fc8_plantvillage
I0403 06:32:03.230018   395 net.cpp:148] Top shape: 100 38 (3800)
I0403 06:32:03.230067   395 net.cpp:156] Memory required for data: 831540800
I0403 06:32:03.230085   395 layer_factory.hpp:77] Creating layer fc8_plantvillage_fc8_plantvillage_0_split
I0403 06:32:03.230104   395 net.cpp:91] Creating Layer fc8_plantvillage_fc8_plantvillage_0_split
I0403 06:32:03.230120   395 net.cpp:425] fc8_plantvillage_fc8_plantvillage_0_split <- fc8_plantvillage
I0403 06:32:03.230140   395 net.cpp:399] fc8_plantvillage_fc8_plantvillage_0_split -> fc8_plantvillage_fc8_plantvillage_0_split_0
I0403 06:32:03.230161   395 net.cpp:399] fc8_plantvillage_fc8_plantvillage_0_split -> fc8_plantvillage_fc8_plantvillage_0_split_1
I0403 06:32:03.230211   395 net.cpp:141] Setting up fc8_plantvillage_fc8_plantvillage_0_split
I0403 06:32:03.230233   395 net.cpp:148] Top shape: 100 38 (3800)
I0403 06:32:03.230250   395 net.cpp:148] Top shape: 100 38 (3800)
I0403 06:32:03.230264   395 net.cpp:156] Memory required for data: 831571200
I0403 06:32:03.230278   395 layer_factory.hpp:77] Creating layer loss
I0403 06:32:03.230304   395 net.cpp:91] Creating Layer loss
I0403 06:32:03.230319   395 net.cpp:425] loss <- fc8_plantvillage_fc8_plantvillage_0_split_0
I0403 06:32:03.230336   395 net.cpp:425] loss <- label_data_1_split_0
I0403 06:32:03.230353   395 net.cpp:399] loss -> loss
…
