…
I0403 14:34:42.098733 13423 net.cpp:313] The NetState phase (1) differed from the phase (0) specified by a rule in layer data
I0403 14:34:42.099884 13423 net.cpp:49] Initializing net from parameters: 
state {
  phase: TEST
}
layer {
  name: "data"
  type: "Data"
  top: "data"
  top: "label"
  include {
    phase: TEST
  }
  transform_param {
    mirror: false
    crop_size: 224
    mean_file: "/home/mohanty/data/final_dataset/lmdb/color-40-60/mean.binaryproto"
  }
  data_param {
    source: "/home/mohanty/data/final_dataset/lmdb/color-40-60/test_db"
    batch_size: 24
    backend: LMDB
  }
}
layer {
  name: "conv1/7x7_s2"
  type: "Convolution"
  bottom: "data"
  top: "conv1/7x7_s2"
  param {
    lr_mult: 1
    decay_mult: 1
  }
  param {
    lr_mult: 2
    decay_mult: 0
  }
  convolution_param {
    num_output: 64
    pad: 3
    kernel_size: 7
    stride: 2
    weight_filler {
      type: "xavier"
      std: 0.1
    }
    bias_filler {
      type: "constant"
      value: 0.2
    }
  }
}
layer {
  name: "conv1/relu_7x7"
  type: "ReLU"
  bottom: "conv1/7x7_s2"
  top: "conv1/7x7_s2"
}
layer {
  name: "pool1/3x3_s2"
  type: "Pooling"
  bottom: "conv1/7x7_s2"
  top: "pool1/3x3_s2"
  pooling_param {
    pool: MAX
    kernel_size: 3
    stride: 2
  }
}
layer {
  name: "pool1/norm1"
  type: "LRN"
  bottom: "pool1/3x3_s2"
  top: "pool1/norm1"
  lrn_param {
    local_size: 5
    alpha: 0.0001
    beta: 0.75
  }
}
layer {
  name: "conv2/3x3_reduce"
  type: "Convolution"
  bottom: "pool1/norm1"
  top: "conv2/3x3_reduce"
  param {
    lr_mult: 1
    decay_mult: 1
  }
  param {
    lr_mult: 2
    decay_mult: 0
  }
  convolution_param {
    num_output: 64
    kernel_size: 1
    weight_filler {
      type: "xavier"
      std: 0.1
    }
    bias_filler {
      type: "constant"
      value: 0.2
    }
  }
}
layer {
  name: "conv2/relu_3x3_reduce"
  type: "ReLU"
  bottom: "conv2/3x3_reduce"
  top: "conv2/3x3_reduce"
}
layer {
  name: "conv2/3x3"
  type: "Convolution"
  bottom: "conv2/3x3_reduce"
  top: "conv2/3x3"
  param {
    lr_mult: 1
    decay_mult: 1
  }
  param {
    lr_mult: 2
    decay_mult: 0
  }
  convolution_param {
    num_output: 192
    pad: 1
    kernel_size: 3
    weight_filler {
      type: "xavier"
      std: 0.03
    }
    bias_filler {
      type: "constant"
      value: 0.2
    }
  }
}
layer {
  name: "conv2/relu_3x3"
  type: "ReLU"
  bottom: "conv2/3x3"
  top: "conv2/3x3"
}
layer {
  name: "conv2/norm2"
  type: "LRN"
  bottom: "conv2/3x3"
  top: "conv2/norm2"
  lrn_param {
    local_size: 5
    alpha: 0.0001
    beta: 0.75
  }
}
layer {
  name: "pool2/3x3_s2"
  type: "Pooling"
  bottom: "conv2/norm2"
  top: "pool2/3x3_s2"
  pooling_param {
    pool: MAX
    kernel_size: 3
    stride: 2
  }
}
layer {
  name: "inception_3a/1x1"
  type: "Convolution"
  bottom: "pool2/3x3_s2"
  top: "inception_3a/1x1"
  param {
    lr_mult: 1
    decay_mult: 1
  }
  param {
    lr_mult: 2
    decay_mult: 0
  }
  convolution_param {
    num_output: 64
    kernel_size: 1
    weight_filler {
      type: "xavier"
      std: 0.03
    }
    bias_filler {
      type: "constant"
      value: 0.2
    }
  }
}
layer {
  name: "inception_3a/relu_1x1"
  type: "ReLU"
  bottom: "inception_3a/1x1"
  top: "inception_3a/1x1"
}
layer {
  name: "inception_3a/3x3_reduce"
  type: "Convolution"
  bottom: "pool2/3x3_s2"
  top: "inception_3a/3x3_reduce"
  param {
    lr_mult: 1
    decay_mult: 1
  }
  param {
    lr_mult: 2
    decay_mult: 0
  }
  convolution_param {
    num_output: 96
    kernel_size: 1
    weight_filler {
      type: "xavier"
      std: 0.09
    }
    bias_filler {
      type: "constant"
      value: 0.2
    }
  }
}
layer {
  name: "inception_3a/relu_3x3_reduce"
  type: "ReLU"
  bottom: "inception_3a/3x3_reduce"
  top: "inception_3a/3x3_reduce"
}
layer {
  name: "inception_3a/3x3"
  type: "Convolution"
  bottom: "inception_3a/3x3_reduce"
  top: "inception_3a/3x3"
  param {
    lr_mult: 1
    decay_mult: 1
  }
  param {
    lr_mult: 2
    decay_mult: 0
  }
  convolution_param {
    num_output: 128
    pad: 1
    kernel_size: 3
    weight_filler {
      type: "xavier"
      std: 0.03
    }
    bias_filler {
      type: "constant"
      value: 0.2
    }
  }
}
layer {
  name: "inception_3a/relu_3x3"
  type: "ReLU"
  bottom: "inception_3a/3x3"
  top: "inception_3a/3x3"
}
layer {
  name: "inception_3a/5x5_reduce"
  type: "Convolution"
  bottom: "pool2/3x3_s2"
  top: "inception_3a/5x5_reduce"
  param {
    lr_mult: 1
    decay_mult: 1
  }
  param {
    lr_mult: 2
    decay_mult: 0
  }
  convolution_param {
    num_output: 16
    kernel_size: 1
    weight_filler {
      type: "xavier"
      std: 0.2
    }
    bias_filler {
      type: "constant"
      value: 0.2
    }
  }
}
layer {
  name: "inception_3a/relu_5x5_reduce"
  type: "ReLU"
  bottom: "inception_3a/5x5_reduce"
  top: "inception_3a/5x5_reduce"
}
layer {
  name: "inception_3a/5x5"
  type: "Convolution"
  bottom: "inception_3a/5x5_reduce"
  top: "inception_3a/5x5"
  param {
    lr_mult: 1
    decay_mult: 1
  }
  param {
    lr_mult: 2
    decay_mult: 0
  }
  convolution_param {
    num_output: 32
    pad: 2
    kernel_size: 5
    weight_filler {
      type: "xavier"
      std: 0.03
    }
    bias_filler {
      type: "constant"
      value: 0.2
    }
  }
}
layer {
  name: "inception_3a/relu_5x5"
  type: "ReLU"
  bottom: "inception_3a/5x5"
  top: "inception_3a/5x5"
}
layer {
  name: "inception_3a/pool"
  type: "Pooling"
  bottom: "pool2/3x3_s2"
  top: "inception_3a/pool"
  pooling_param {
    pool: MAX
    kernel_size: 3
    stride: 1
    pad: 1
  }
}
layer {
  name: "inception_3a/pool_proj"
  type: "Convolution"
  bottom: "inception_3a/pool"
  top: "inception_3a/pool_proj"
  param {
    lr_mult: 1
    decay_mult: 1
  }
  param {
    lr_mult: 2
    decay_mult: 0
  }
  convolution_param {
    num_output: 32
    kernel_size: 1
    weight_filler {
      type: "xavier"
      std: 0.1
    }
    bias_filler {
      type: "constant"
      value: 0.2
    }
  }
}
layer {
  name: "inception_3a/relu_pool_proj"
  type: "ReLU"
  bottom: "inception_3a/pool_proj"
  top: "inception_3a/pool_proj"
}
layer {
  name: "inception_3a/output"
  type: "Concat"
  bottom: "inception_3a/1x1"
  bottom: "inception_3a/3x3"
  bottom: "inception_3a/5x5"
  bottom: "inception_3a/pool_proj"
  top: "inception_3a/output"
}
layer {
  name: "inception_3b/1x1"
  type: "Convolution"
  bottom: "inception_3a/output"
  top: "inception_3b/1x1"
  param {
    lr_mult: 1
    decay_mult: 1
  }
  param {
    lr_mult: 2
    decay_mult: 0
  }
  convolution_param {
    num_output: 128
    kernel_size: 1
    weight_filler {
      type: "xavier"
      std: 0.03
    }
    bias_filler {
      type: "constant"
      value: 0.2
    }
  }
}
layer {
  name: "inception_3b/relu_1x1"
  type: "ReLU"
  bottom: "inception_3b/1x1"
  top: "inception_3b/1x1"
}
layer {
  name: "inception_3b/3x3_reduce"
  type: "Convolution"
  bottom: "inception_3a/output"
  top: "inception_3b/3x3_reduce"
  param {
    lr_mult: 1
    decay_mult: 1
  }
  param {
    lr_mult: 2
    decay_mult: 0
  }
  convolution_param {
    num_output: 128
    kernel_size: 1
    weight_filler {
      type: "xavier"
      std: 0.09
    }
    bias_filler {
      type: "constant"
      value: 0.2
    }
  }
}
layer {
  name: "inception_3b/relu_3x3_reduce"
  type: "ReLU"
  bottom: "inception_3b/3x3_reduce"
  top: "inception_3b/3x3_reduce"
}
layer {
  name: "inception_3b/3x3"
  type: "Convolution"
  bottom: "inception_3b/3x3_reduce"
  top: "inception_3b/3x3"
  param {
    lr_mult: 1
    decay_mult: 1
  }
  param {
    lr_mult: 2
    decay_mult: 0
  }
  convolution_param {
    num_output: 192
    pad: 1
    kernel_size: 3
    weight_filler {
      type: "xavier"
      std: 0.03
    }
    bias_filler {
      type: "constant"
      value: 0.2
    }
  }
}
layer {
  name: "inception_3b/relu_3x3"
  type: "ReLU"
  bottom: "inception_3b/3x3"
  top: "inception_3b/3x3"
}
layer {
  name: "inception_3b/5x5_reduce"
  type: "Convolution"
  bottom: "inception_3a/output"
  top: "inception_3b/5x5_reduce"
  param {
    lr_mult: 1
    decay_mult: 1
  }
  param {
    lr_mult: 2
    decay_mult: 0
  }
  convolution_param {
    num_output: 32
    kernel_size: 1
    weight_filler {
      type: "xavier"
      std: 0.2
    }
    bias_filler {
      type: "constant"
      value: 0.2
    }
  }
}
layer {
  name: "inception_3b/relu_5x5_reduce"
  type: "ReLU"
  bottom: "inception_3b/5x5_reduce"
  top: "inception_3b/5x5_reduce"
}
layer {
  name: "inception_3b/5x5"
  type: "Convolution"
  bottom: "inception_3b/5x5_reduce"
  top: "inception_3b/5x5"
  param {
    lr_mult: 1
    decay_mult: 1
  }
  param {
    lr_mult: 2
    decay_mult: 0
  }
  convolution_param {
    num_output: 96
    pad: 2
    kernel_size: 5
    weight_filler {
      type: "xavier"
      std: 0.03
    }
    bias_filler {
      type: "constant"
      value: 0.2
    }
  }
}
layer {
  name: "inception_3b/relu_5x5"
  type: "ReLU"
  bottom: "inception_3b/5x5"
  top: "inception_3b/5x5"
}
layer {
  name: "inception_3b/pool"
  type: "Pooling"
  bottom: "inception_3a/output"
  top: "inception_3b/pool"
  pooling_param {
    pool: MAX
    kernel_size: 3
    stride: 1
    pad: 1
  }
}
layer {
  name: "inception_3b/pool_proj"
  type: "Convolution"
  bottom: "inception_3b/pool"
  top: "inception_3b/pool_proj"
  param {
    lr_mult: 1
    decay_mult: 1
  }
  param {
    lr_mult: 2
    decay_mult: 0
  }
  convolution_param {
    num_output: 64
    kernel_size: 1
    weight_filler {
      type: "xavier"
      std: 0.1
    }
    bias_filler {
      type: "constant"
      value: 0.2
    }
  }
}
layer {
  name: "inception_3b/relu_pool_proj"
  type: "ReLU"
  bottom: "inception_3b/pool_proj"
  top: "inception_3b/pool_proj"
}
layer {
  name: "inception_3b/output"
  type: "Concat"
  bottom: "inception_3b/1x1"
  bottom: "inception_3b/3x3"
  bottom: "inception_3b/5x5"
  bottom: "inception_3b/pool_proj"
  top: "inception_3b/output"
}
layer {
  name: "pool3/3x3_s2"
  type: "Pooling"
  bottom: "inception_3b/output"
  top: "pool3/3x3_s2"
  pooling_param {
    pool: MAX
    kernel_size: 3
    stride: 2
  }
}
layer {
  name: "inception_4a/1x1"
  type: "Convolution"
  bottom: "pool3/3x3_s2"
  top: "inception_4a/1x1"
  param {
    lr_mult: 1
    decay_mult: 1
  }
  param {
    lr_mult: 2
    decay_mult: 0
  }
  convolution_param {
    num_output: 192
    kernel_size: 1
    weight_filler {
      type: "xavier"
      std: 0.03
    }
    bias_filler {
      type: "constant"
      value: 0.2
    }
  }
}
layer {
  name: "inception_4a/relu_1x1"
  type: "ReLU"
  bottom: "inception_4a/1x1"
  top: "inception_4a/1x1"
}
layer {
  name: "inception_4a/3x3_reduce"
  type: "Convolution"
  bottom: "pool3/3x3_s2"
  top: "inception_4a/3x3_reduce"
  param {
    lr_mult: 1
    decay_mult: 1
  }
  param {
    lr_mult: 2
    decay_mult: 0
  }
  convolution_param {
    num_output: 96
    kernel_size: 1
    weight_filler {
      type: "xavier"
      std: 0.09
    }
    bias_filler {
      type: "constant"
      value: 0.2
    }
  }
}
layer {
  name: "inception_4a/relu_3x3_reduce"
  type: "ReLU"
  bottom: "inception_4a/3x3_reduce"
  top: "inception_4a/3x3_reduce"
}
layer {
  name: "inception_4a/3x3"
  type: "Convolution"
  bottom: "inception_4a/3x3_reduce"
  top: "inception_4a/3x3"
  param {
    lr_mult: 1
    decay_mult: 1
  }
  param {
    lr_mult: 2
    decay_mult: 0
  }
  convolution_param {
    num_output: 208
    pad: 1
    kernel_size: 3
    weight_filler {
      type: "xavier"
      std: 0.03
    }
    bias_filler {
      type: "constant"
      value: 0.2
    }
  }
}
layer {
  name: "inception_4a/relu_3x3"
  type: "ReLU"
  bottom: "inception_4a/3x3"
  top: "inception_4a/3x3"
}
layer {
  name: "inception_4a/5x5_reduce"
  type: "Convolution"
  bottom: "pool3/3x3_s2"
  top: "inception_4a/5x5_reduce"
  param {
    lr_mult: 1
    decay_mult: 1
  }
  param {
    lr_mult: 2
    decay_mult: 0
  }
  convolution_param {
    num_output: 16
    kernel_size: 1
    weight_filler {
      type: "xavier"
      std: 0.2
    }
    bias_filler {
      type: "constant"
      value: 0.2
    }
  }
}
layer {
  name: "inception_4a/relu_5x5_reduce"
  type: "ReLU"
  bottom: "inception_4a/5x5_reduce"
  top: "inception_4a/5x5_reduce"
}
layer {
  name: "inception_4a/5x5"
  type: "Convolution"
  bottom: "inception_4a/5x5_reduce"
  top: "inception_4a/5x5"
  param {
    lr_mult: 1
    decay_mult: 1
  }
  param {
    lr_mult: 2
    decay_mult: 0
  }
  convolution_param {
    num_output: 48
    pad: 2
    kernel_size: 5
    weight_filler {
      type: "xavier"
      std: 0.03
    }
    bias_filler {
      type: "constant"
      value: 0.2
    }
  }
}
layer {
  name: "inception_4a/relu_5x5"
  type: "ReLU"
  bottom: "inception_4a/5x5"
  top: "inception_4a/5x5"
}
layer {
  name: "inception_4a/pool"
  type: "Pooling"
  bottom: "pool3/3x3_s2"
  top: "inception_4a/pool"
  pooling_param {
    pool: MAX
    kernel_size: 3
    stride: 1
    pad: 1
  }
}
layer {
  name: "inception_4a/pool_proj"
  type: "Convolution"
  bottom: "inception_4a/pool"
  top: "inception_4a/pool_proj"
  param {
    lr_mult: 1
    decay_mult: 1
  }
  param {
    lr_mult: 2
    decay_mult: 0
  }
  convolution_param {
    num_output: 64
    kernel_size: 1
    weight_filler {
      type: "xavier"
      std: 0.1
    }
    bias_filler {
      type: "constant"
      value: 0.2
    }
  }
}
layer {
  name: "inception_4a/relu_pool_proj"
  type: "ReLU"
  bottom: "inception_4a/pool_proj"
  top: "inception_4a/pool_proj"
}
layer {
  name: "inception_4a/output"
  type: "Concat"
  bottom: "inception_4a/1x1"
  bottom: "inception_4a/3x3"
  bottom: "inception_4a/5x5"
  bottom: "inception_4a/pool_proj"
  top: "inception_4a/output"
}
layer {
  name: "loss1/ave_pool"
  type: "Pooling"
  bottom: "inception_4a/output"
  top: "loss1/ave_pool"
  pooling_param {
    pool: AVE
    kernel_size: 5
    stride: 3
  }
}
layer {
  name: "loss1/conv"
  type: "Convolution"
  bottom: "loss1/ave_pool"
  top: "loss1/conv"
  param {
    lr_mult: 1
    decay_mult: 1
  }
  param {
    lr_mult: 2
    decay_mult: 0
  }
  convolution_param {
    num_output: 128
    kernel_size: 1
    weight_filler {
      type: "xavier"
      std: 0.08
    }
    bias_filler {
      type: "constant"
      value: 0.2
    }
  }
}
layer {
  name: "loss1/relu_conv"
  type: "ReLU"
  bottom: "loss1/conv"
  top: "loss1/conv"
}
layer {
  name: "loss1/fc"
  type: "InnerProduct"
  bottom: "loss1/conv"
  top: "loss1/fc"
  param {
    lr_mult: 1
    decay_mult: 1
  }
  param {
    lr_mult: 2
    decay_mult: 0
  }
  inner_product_param {
    num_output: 1024
    weight_filler {
      type: "xavier"
      std: 0.02
    }
    bias_filler {
      type: "constant"
      value: 0.2
    }
  }
}
layer {
  name: "loss1/relu_fc"
  type: "ReLU"
  bottom: "loss1/fc"
  top: "loss1/fc"
}
layer {
  name: "loss1/drop_fc"
  type: "Dropout"
  bottom: "loss1/fc"
  top: "loss1/fc"
  dropout_param {
    dropout_ratio: 0.7
  }
}
layer {
  name: "loss1/classifier_plantvillage"
  type: "InnerProduct"
  bottom: "loss1/fc"
  top: "loss1/classifier_plantvillage"
  param {
    lr_mult: 1
    decay_mult: 1
  }
  param {
    lr_mult: 2
    decay_mult: 0
  }
  inner_product_param {
    num_output: 38
    weight_filler {
      type: "xavier"
      std: 0.0009765625
    }
    bias_filler {
      type: "constant"
      value: 0
    }
  }
}
layer {
  name: "inception_4b/1x1"
  type: "Convolution"
  bottom: "inception_4a/output"
  top: "inception_4b/1x1"
  param {
    lr_mult: 1
    decay_mult: 1
  }
  param {
    lr_mult: 2
    decay_mult: 0
  }
  convolution_param {
    num_output: 160
    kernel_size: 1
    weight_filler {
      type: "xavier"
      std: 0.03
    }
    bias_filler {
      type: "constant"
      value: 0.2
    }
  }
}
layer {
  name: "inception_4b/relu_1x1"
  type: "ReLU"
  bottom: "inception_4b/1x1"
  top: "inception_4b/1x1"
}
layer {
  name: "inception_4b/3x3_reduce"
  type: "Convolution"
  bottom: "inception_4a/output"
  top: "inception_4b/3x3_reduce"
  param {
    lr_mult: 1
    decay_mult: 1
  }
  param {
    lr_mult: 2
    decay_mult: 0
  }
  convolution_param {
    num_output: 112
    kernel_size: 1
    weight_filler {
      type: "xavier"
      std: 0.09
    }
    bias_filler {
      type: "constant"
      value: 0.2
    }
  }
}
layer {
  name: "inception_4b/relu_3x3_reduce"
  type: "ReLU"
  bottom: "inception_4b/3x3_reduce"
  top: "inception_4b/3x3_reduce"
}
layer {
  name: "inception_4b/3x3"
  type: "Convolution"
  bottom: "inception_4b/3x3_reduce"
  top: "inception_4b/3x3"
  param {
    lr_mult: 1
    decay_mult: 1
  }
  param {
    lr_mult: 2
    decay_mult: 0
  }
  convolution_param {
    num_output: 224
    pad: 1
    kernel_size: 3
    weight_filler {
      type: "xavier"
      std: 0.03
    }
    bias_filler {
      type: "constant"
      value: 0.2
    }
  }
}
layer {
  name: "inception_4b/relu_3x3"
  type: "ReLU"
  bottom: "inception_4b/3x3"
  top: "inception_4b/3x3"
}
layer {
  name: "inception_4b/5x5_reduce"
  type: "Convolution"
  bottom: "inception_4a/output"
  top: "inception_4b/5x5_reduce"
  param {
    lr_mult: 1
    decay_mult: 1
  }
  param {
    lr_mult: 2
    decay_mult: 0
  }
  convolution_param {
    num_output: 24
    kernel_size: 1
    weight_filler {
      type: "xavier"
      std: 0.2
    }
    bias_filler {
      type: "constant"
      value: 0.2
    }
  }
}
layer {
  name: "inception_4b/relu_5x5_reduce"
  type: "ReLU"
  bottom: "inception_4b/5x5_reduce"
  top: "inception_4b/5x5_reduce"
}
layer {
  name: "inception_4b/5x5"
  type: "Convolution"
  bottom: "inception_4b/5x5_reduce"
  top: "inception_4b/5x5"
  param {
    lr_mult: 1
    decay_mult: 1
  }
  param {
    lr_mult: 2
    decay_mult: 0
  }
  convolution_param {
    num_output: 64
    pad: 2
    kernel_size: 5
    weight_filler {
      type: "xavier"
      std: 0.03
    }
    bias_filler {
      type: "constant"
      value: 0.2
    }
  }
}
layer {
  name: "inception_4b/relu_5x5"
  type: "ReLU"
  bottom: "inception_4b/5x5"
  top: "inception_4b/5x5"
}
layer {
  name: "inception_4b/pool"
  type: "Pooling"
  bottom: "inception_4a/output"
  top: "inception_4b/pool"
  pooling_param {
    pool: MAX
    kernel_size: 3
    stride: 1
    pad: 1
  }
}
layer {
  name: "inception_4b/pool_proj"
  type: "Convolution"
  bottom: "inception_4b/pool"
  top: "inception_4b/pool_proj"
  param {
    lr_mult: 1
    decay_mult: 1
  }
  param {
    lr_mult: 2
    decay_mult: 0
  }
  convolution_param {
    num_output: 64
    kernel_size: 1
    weight_filler {
      type: "xavier"
      std: 0.1
    }
    bias_filler {
      type: "constant"
      value: 0.2
    }
  }
}
layer {
  name: "inception_4b/relu_pool_proj"
  type: "ReLU"
  bottom: "inception_4b/pool_proj"
  top: "inception_4b/pool_proj"
}
layer {
  name: "inception_4b/output"
  type: "Concat"
  bottom: "inception_4b/1x1"
  bottom: "inception_4b/3x3"
  bottom: "inception_4b/5x5"
  bottom: "inception_4b/pool_proj"
  top: "inception_4b/output"
}
layer {
  name: "inception_4c/1x1"
  type: "Convolution"
  bottom: "inception_4b/output"
  top: "inception_4c/1x1"
  param {
    lr_mult: 1
    decay_mult: 1
  }
  param {
    lr_mult: 2
    decay_mult: 0
  }
  convolution_param {
    num_output: 128
    kernel_size: 1
    weight_filler {
      type: "xavier"
      std: 0.03
    }
    bias_filler {
      type: "constant"
      value: 0.2
    }
  }
}
layer {
  name: "inception_4c/relu_1x1"
  type: "ReLU"
  bottom: "inception_4c/1x1"
  top: "inception_4c/1x1"
}
layer {
  name: "inception_4c/3x3_reduce"
  type: "Convolution"
  bottom: "inception_4b/output"
  top: "inception_4c/3x3_reduce"
  param {
    lr_mult: 1
    decay_mult: 1
  }
  param {
    lr_mult: 2
    decay_mult: 0
  }
  convolution_param {
    num_output: 128
    kernel_size: 1
    weight_filler {
      type: "xavier"
      std: 0.09
    }
    bias_filler {
      type: "constant"
      value: 0.2
    }
  }
}
layer {
  name: "inception_4c/relu_3x3_reduce"
  type: "ReLU"
  bottom: "inception_4c/3x3_reduce"
  top: "inception_4c/3x3_reduce"
}
layer {
  name: "inception_4c/3x3"
  type: "Convolution"
  bottom: "inception_4c/3x3_reduce"
  top: "inception_4c/3x3"
  param {
    lr_mult: 1
    decay_mult: 1
  }
  param {
    lr_mult: 2
    decay_mult: 0
  }
  convolution_param {
    num_output: 256
    pad: 1
    kernel_size: 3
    weight_filler {
      type: "xavier"
      std: 0.03
    }
    bias_filler {
      type: "constant"
      value: 0.2
    }
  }
}
layer {
  name: "inception_4c/relu_3x3"
  type: "ReLU"
  bottom: "inception_4c/3x3"
  top: "inception_4c/3x3"
}
layer {
  name: "inception_4c/5x5_reduce"
  type: "Convolution"
  bottom: "inception_4b/output"
  top: "inception_4c/5x5_reduce"
  param {
    lr_mult: 1
    decay_mult: 1
  }
  param {
    lr_mult: 2
    decay_mult: 0
  }
  convolution_param {
    num_output: 24
    kernel_size: 1
    weight_filler {
      type: "xavier"
      std: 0.2
    }
    bias_filler {
      type: "constant"
      value: 0.2
    }
  }
}
layer {
  name: "inception_4c/relu_5x5_reduce"
  type: "ReLU"
  bottom: "inception_4c/5x5_reduce"
  top: "inception_4c/5x5_reduce"
}
layer {
  name: "inception_4c/5x5"
  type: "Convolution"
  bottom: "inception_4c/5x5_reduce"
  top: "inception_4c/5x5"
  param {
    lr_mult: 1
    decay_mult: 1
  }
  param {
    lr_mult: 2
    decay_mult: 0
  }
  convolution_param {
    num_output: 64
    pad: 2
    kernel_size: 5
    weight_filler {
      type: "xavier"
      std: 0.03
    }
    bias_filler {
      type: "constant"
      value: 0.2
    }
  }
}
layer {
  name: "inception_4c/relu_5x5"
  type: "ReLU"
  bottom: "inception_4c/5x5"
  top: "inception_4c/5x5"
}
layer {
  name: "inception_4c/pool"
  type: "Pooling"
  bottom: "inception_4b/output"
  top: "inception_4c/pool"
  pooling_param {
    pool: MAX
    kernel_size: 3
    stride: 1
    pad: 1
  }
}
layer {
  name: "inception_4c/pool_proj"
  type: "Convolution"
  bottom: "inception_4c/pool"
  top: "inception_4c/pool_proj"
  param {
    lr_mult: 1
    decay_mult: 1
  }
  param {
    lr_mult: 2
    decay_mult: 0
  }
  convolution_param {
    num_output: 64
    kernel_size: 1
    weight_filler {
      type: "xavier"
      std: 0.1
    }
    bias_filler {
      type: "constant"
      value: 0.2
    }
  }
}
layer {
  name: "inception_4c/relu_pool_proj"
  type: "ReLU"
  bottom: "inception_4c/pool_proj"
  top: "inception_4c/pool_proj"
}
layer {
  name: "inception_4c/output"
  type: "Concat"
  bottom: "inception_4c/1x1"
  bottom: "inception_4c/3x3"
  bottom: "inception_4c/5x5"
  bottom: "inception_4c/pool_proj"
  top: "inception_4c/output"
}
layer {
  name: "inception_4d/1x1"
  type: "Convolution"
  bottom: "inception_4c/output"
  top: "inception_4d/1x1"
  param {
    lr_mult: 1
    decay_mult: 1
  }
  param {
    lr_mult: 2
    decay_mult: 0
  }
  convolution_param {
    num_output: 112
    kernel_size: 1
    weight_filler {
      type: "xavier"
      std: 0.03
    }
    bias_filler {
      type: "constant"
      value: 0.2
    }
  }
}
layer {
  name: "inception_4d/relu_1x1"
  type: "ReLU"
  bottom: "inception_4d/1x1"
  top: "inception_4d/1x1"
}
layer {
  name: "inception_4d/3x3_reduce"
  type: "Convolution"
  bottom: "inception_4c/output"
  top: "inception_4d/3x3_reduce"
  param {
    lr_mult: 1
    decay_mult: 1
  }
  param {
    lr_mult: 2
    decay_mult: 0
  }
  convolution_param {
    num_output: 144
    kernel_size: 1
    weight_filler {
      type: "xavier"
      std: 0.09
    }
    bias_filler {
      type: "constant"
      value: 0.2
    }
  }
}
layer {
  name: "inception_4d/relu_3x3_reduce"
  type: "ReLU"
  bottom: "inception_4d/3x3_reduce"
  top: "inception_4d/3x3_reduce"
}
layer {
  name: "inception_4d/3x3"
  type: "Convolution"
  bottom: "inception_4d/3x3_reduce"
  top: "inception_4d/3x3"
  param {
    lr_mult: 1
    decay_mult: 1
  }
  param {
    lr_mult: 2
    decay_mult: 0
  }
  convolution_param {
    num_output: 288
    pad: 1
    kernel_size: 3
    weight_filler {
      type: "xavier"
      std: 0.03
    }
    bias_filler {
      type: "constant"
      value: 0.2
    }
  }
}
layer {
  name: "inception_4d/relu_3x3"
  type: "ReLU"
  bottom: "inception_4d/3x3"
  top: "inception_4d/3x3"
}
layer {
  name: "inception_4d/5x5_reduce"
  type: "Convolution"
  bottom: "inception_4c/output"
  top: "inception_4d/5x5_reduce"
  param {
    lr_mult: 1
    decay_mult: 1
  }
  param {
    lr_mult: 2
    decay_mult: 0
  }
  convolution_param {
    num_output: 32
    kernel_size: 1
    weight_filler {
      type: "xavier"
      std: 0.2
    }
    bias_filler {
      type: "constant"
      value: 0.2
    }
  }
}
layer {
  name: "inception_4d/relu_5x5_reduce"
  type: "ReLU"
  bottom: "inception_4d/5x5_reduce"
  top: "inception_4d/5x5_reduce"
}
layer {
  name: "inception_4d/5x5"
  type: "Convolution"
  bottom: "inception_4d/5x5_reduce"
  top: "inception_4d/5x5"
  param {
    lr_mult: 1
    decay_mult: 1
  }
  param {
    lr_mult: 2
    decay_mult: 0
  }
  convolution_param {
    num_output: 64
    pad: 2
    kernel_size: 5
    weight_filler {
      type: "xavier"
      std: 0.03
    }
    bias_filler {
      type: "constant"
      value: 0.2
    }
  }
}
layer {
  name: "inception_4d/relu_5x5"
  type: "ReLU"
  bottom: "inception_4d/5x5"
  top: "inception_4d/5x5"
}
layer {
  name: "inception_4d/pool"
  type: "Pooling"
  bottom: "inception_4c/output"
  top: "inception_4d/pool"
  pooling_param {
    pool: MAX
    kernel_size: 3
    stride: 1
    pad: 1
  }
}
layer {
  name: "inception_4d/pool_proj"
  type: "Convolution"
  bottom: "inception_4d/pool"
  top: "inception_4d/pool_proj"
  param {
    lr_mult: 1
    decay_mult: 1
  }
  param {
    lr_mult: 2
    decay_mult: 0
  }
  convolution_param {
    num_output: 64
    kernel_size: 1
    weight_filler {
      type: "xavier"
      std: 0.1
    }
    bias_filler {
      type: "constant"
      value: 0.2
    }
  }
}
layer {
  name: "inception_4d/relu_pool_proj"
  type: "ReLU"
  bottom: "inception_4d/pool_proj"
  top: "inception_4d/pool_proj"
}
layer {
  name: "inception_4d/output"
  type: "Concat"
  bottom: "inception_4d/1x1"
  bottom: "inception_4d/3x3"
  bottom: "inception_4d/5x5"
  bottom: "inception_4d/pool_proj"
  top: "inception_4d/output"
}
layer {
  name: "loss2/ave_pool"
  type: "Pooling"
  bottom: "inception_4d/output"
  top: "loss2/ave_pool"
  pooling_param {
    pool: AVE
    kernel_size: 5
    stride: 3
  }
}
layer {
  name: "loss2/conv"
  type: "Convolution"
  bottom: "loss2/ave_pool"
  top: "loss2/conv"
  param {
    lr_mult: 1
    decay_mult: 1
  }
  param {
    lr_mult: 2
    decay_mult: 0
  }
  convolution_param {
    num_output: 128
    kernel_size: 1
    weight_filler {
      type: "xavier"
      std: 0.08
    }
    bias_filler {
      type: "constant"
      value: 0.2
    }
  }
}
layer {
  name: "loss2/relu_conv"
  type: "ReLU"
  bottom: "loss2/conv"
  top: "loss2/conv"
}
layer {
  name: "loss2/fc"
  type: "InnerProduct"
  bottom: "loss2/conv"
  top: "loss2/fc"
  param {
    lr_mult: 1
    decay_mult: 1
  }
  param {
    lr_mult: 2
    decay_mult: 0
  }
  inner_product_param {
    num_output: 1024
    weight_filler {
      type: "xavier"
      std: 0.02
    }
    bias_filler {
      type: "constant"
      value: 0.2
    }
  }
}
layer {
  name: "loss2/relu_fc"
  type: "ReLU"
  bottom: "loss2/fc"
  top: "loss2/fc"
}
layer {
  name: "loss2/drop_fc"
  type: "Dropout"
  bottom: "loss2/fc"
  top: "loss2/fc"
  dropout_param {
    dropout_ratio: 0.7
  }
}
layer {
  name: "loss2/classifier_plantvillage"
  type: "InnerProduct"
  bottom: "loss2/fc"
  top: "loss2/classifier_plantvillage"
  param {
    lr_mult: 1
    decay_mult: 1
  }
  param {
    lr_mult: 2
    decay_mult: 0
  }
  inner_product_param {
    num_output: 38
    weight_filler {
      type: "xavier"
      std: 0.0009765625
    }
    bias_filler {
      type: "constant"
      value: 0
    }
  }
}
layer {
  name: "inception_4e/1x1"
  type: "Convolution"
  bottom: "inception_4d/output"
  top: "inception_4e/1x1"
  param {
    lr_mult: 1
    decay_mult: 1
  }
  param {
    lr_mult: 2
    decay_mult: 0
  }
  convolution_param {
    num_output: 256
    kernel_size: 1
    weight_filler {
      type: "xavier"
      std: 0.03
    }
    bias_filler {
      type: "constant"
      value: 0.2
    }
  }
}
layer {
  name: "inception_4e/relu_1x1"
  type: "ReLU"
  bottom: "inception_4e/1x1"
  top: "inception_4e/1x1"
}
layer {
  name: "inception_4e/3x3_reduce"
  type: "Convolution"
  bottom: "inception_4d/output"
  top: "inception_4e/3x3_reduce"
  param {
    lr_mult: 1
    decay_mult: 1
  }
  param {
    lr_mult: 2
    decay_mult: 0
  }
  convolution_param {
    num_output: 160
    kernel_size: 1
    weight_filler {
      type: "xavier"
      std: 0.09
    }
    bias_filler {
      type: "constant"
      value: 0.2
    }
  }
}
layer {
  name: "inception_4e/relu_3x3_reduce"
  type: "ReLU"
  bottom: "inception_4e/3x3_reduce"
  top: "inception_4e/3x3_reduce"
}
layer {
  name: "inception_4e/3x3"
  type: "Convolution"
  bottom: "inception_4e/3x3_reduce"
  top: "inception_4e/3x3"
  param {
    lr_mult: 1
    decay_mult: 1
  }
  param {
    lr_mult: 2
    decay_mult: 0
  }
  convolution_param {
    num_output: 320
    pad: 1
    kernel_size: 3
    weight_filler {
      type: "xavier"
      std: 0.03
    }
    bias_filler {
      type: "constant"
      value: 0.2
    }
  }
}
layer {
  name: "inception_4e/relu_3x3"
  type: "ReLU"
  bottom: "inception_4e/3x3"
  top: "inception_4e/3x3"
}
layer {
  name: "inception_4e/5x5_reduce"
  type: "Convolution"
  bottom: "inception_4d/output"
  top: "inception_4e/5x5_reduce"
  param {
    lr_mult: 1
    decay_mult: 1
  }
  param {
    lr_mult: 2
    decay_mult: 0
  }
  convolution_param {
    num_output: 32
    kernel_size: 1
    weight_filler {
      type: "xavier"
      std: 0.2
    }
    bias_filler {
      type: "constant"
      value: 0.2
    }
  }
}
layer {
  name: "inception_4e/relu_5x5_reduce"
  type: "ReLU"
  bottom: "inception_4e/5x5_reduce"
  top: "inception_4e/5x5_reduce"
}
layer {
  name: "inception_4e/5x5"
  type: "Convolution"
  bottom: "inception_4e/5x5_reduce"
  top: "inception_4e/5x5"
  p
I0403 14:34:42.101166 13423 layer_factory.hpp:77] Creating layer data
I0403 14:34:42.101768 13423 net.cpp:91] Creating Layer data
I0403 14:34:42.101799 13423 net.cpp:399] data -> data
I0403 14:34:42.101850 13423 net.cpp:399] data -> label
I0403 14:34:42.101886 13423 data_transformer.cpp:25] Loading mean file from: /home/mohanty/data/final_dataset/lmdb/color-40-60/mean.binaryproto
I0403 14:34:42.105499 13426 db_lmdb.cpp:38] Opened lmdb /home/mohanty/data/final_dataset/lmdb/color-40-60/test_db
I0403 14:34:42.115670 13423 data_layer.cpp:41] output data size: 24,3,224,224
I0403 14:34:42.142554 13423 net.cpp:141] Setting up data
I0403 14:34:42.142634 13423 net.cpp:148] Top shape: 24 3 224 224 (3612672)
I0403 14:34:42.142657 13423 net.cpp:148] Top shape: 24 (24)
I0403 14:34:42.142671 13423 net.cpp:156] Memory required for data: 14450784
I0403 14:34:42.142698 13423 layer_factory.hpp:77] Creating layer label_data_1_split
I0403 14:34:42.142724 13423 net.cpp:91] Creating Layer label_data_1_split
I0403 14:34:42.142740 13423 net.cpp:425] label_data_1_split <- label
I0403 14:34:42.142771 13423 net.cpp:399] label_data_1_split -> label_data_1_split_0
I0403 14:34:42.142797 13423 net.cpp:399] label_data_1_split -> label_data_1_split_1
I0403 14:34:42.142817 13423 net.cpp:399] label_data_1_split -> label_data_1_split_2
I0403 14:34:42.142838 13423 net.cpp:399] label_data_1_split -> label_data_1_split_3
I0403 14:34:42.142855 13423 net.cpp:399] label_data_1_split -> label_data_1_split_4
I0403 14:34:42.142874 13423 net.cpp:399] label_data_1_split -> label_data_1_split_5
I0403 14:34:42.142892 13423 net.cpp:399] label_data_1_split -> label_data_1_split_6
I0403 14:34:42.142912 13423 net.cpp:399] label_data_1_split -> label_data_1_split_7
I0403 14:34:42.142930 13423 net.cpp:399] label_data_1_split -> label_data_1_split_8
I0403 14:34:42.142951 13423 net.cpp:399] label_data_1_split -> label_data_1_split_9
I0403 14:34:42.143062 13423 net.cpp:141] Setting up label_data_1_split
I0403 14:34:42.143085 13423 net.cpp:148] Top shape: 24 (24)
I0403 14:34:42.143102 13423 net.cpp:148] Top shape: 24 (24)
I0403 14:34:42.143117 13423 net.cpp:148] Top shape: 24 (24)
I0403 14:34:42.143131 13423 net.cpp:148] Top shape: 24 (24)
I0403 14:34:42.143146 13423 net.cpp:148] Top shape: 24 (24)
I0403 14:34:42.143160 13423 net.cpp:148] Top shape: 24 (24)
I0403 14:34:42.143175 13423 net.cpp:148] Top shape: 24 (24)
I0403 14:34:42.143190 13423 net.cpp:148] Top shape: 24 (24)
I0403 14:34:42.143204 13423 net.cpp:148] Top shape: 24 (24)
I0403 14:34:42.143220 13423 net.cpp:148] Top shape: 24 (24)
I0403 14:34:42.143267 13423 net.cpp:156] Memory required for data: 14451744
I0403 14:34:42.143283 13423 layer_factory.hpp:77] Creating layer conv1/7x7_s2
I0403 14:34:42.143316 13423 net.cpp:91] Creating Layer conv1/7x7_s2
I0403 14:34:42.143333 13423 net.cpp:425] conv1/7x7_s2 <- data
I0403 14:34:42.143352 13423 net.cpp:399] conv1/7x7_s2 -> conv1/7x7_s2
I0403 14:34:42.285143 13423 net.cpp:141] Setting up conv1/7x7_s2
I0403 14:34:42.285244 13423 net.cpp:148] Top shape: 24 64 112 112 (19267584)
I0403 14:34:42.285266 13423 net.cpp:156] Memory required for data: 91522080
I0403 14:34:42.285296 13423 layer_factory.hpp:77] Creating layer conv1/relu_7x7
I0403 14:34:42.285325 13423 net.cpp:91] Creating Layer conv1/relu_7x7
I0403 14:34:42.285343 13423 net.cpp:425] conv1/relu_7x7 <- conv1/7x7_s2
I0403 14:34:42.285363 13423 net.cpp:386] conv1/relu_7x7 -> conv1/7x7_s2 (in-place)
I0403 14:34:42.285645 13423 net.cpp:141] Setting up conv1/relu_7x7
I0403 14:34:42.285672 13423 net.cpp:148] Top shape: 24 64 112 112 (19267584)
I0403 14:34:42.285688 13423 net.cpp:156] Memory required for data: 168592416
I0403 14:34:42.285706 13423 layer_factory.hpp:77] Creating layer pool1/3x3_s2
I0403 14:34:42.285730 13423 net.cpp:91] Creating Layer pool1/3x3_s2
I0403 14:34:42.285749 13423 net.cpp:425] pool1/3x3_s2 <- conv1/7x7_s2
I0403 14:34:42.285768 13423 net.cpp:399] pool1/3x3_s2 -> pool1/3x3_s2
I0403 14:34:42.285843 13423 net.cpp:141] Setting up pool1/3x3_s2
I0403 14:34:42.285869 13423 net.cpp:148] Top shape: 24 64 56 56 (4816896)
I0403 14:34:42.285886 13423 net.cpp:156] Memory required for data: 187860000
I0403 14:34:42.285900 13423 layer_factory.hpp:77] Creating layer pool1/norm1
I0403 14:34:42.285925 13423 net.cpp:91] Creating Layer pool1/norm1
I0403 14:34:42.285943 13423 net.cpp:425] pool1/norm1 <- pool1/3x3_s2
I0403 14:34:42.285960 13423 net.cpp:399] pool1/norm1 -> pool1/norm1
I0403 14:34:42.286259 13423 net.cpp:141] Setting up pool1/norm1
I0403 14:34:42.286288 13423 net.cpp:148] Top shape: 24 64 56 56 (4816896)
I0403 14:34:42.286303 13423 net.cpp:156] Memory required for data: 207127584
I0403 14:34:42.286319 13423 layer_factory.hpp:77] Creating layer conv2/3x3_reduce
I0403 14:34:42.286345 13423 net.cpp:91] Creating Layer conv2/3x3_reduce
I0403 14:34:42.286363 13423 net.cpp:425] conv2/3x3_reduce <- pool1/norm1
I0403 14:34:42.286381 13423 net.cpp:399] conv2/3x3_reduce -> conv2/3x3_reduce
I0403 14:34:42.287886 13423 net.cpp:141] Setting up conv2/3x3_reduce
I0403 14:34:42.287919 13423 net.cpp:148] Top shape: 24 64 56 56 (4816896)
I0403 14:34:42.287936 13423 net.cpp:156] Memory required for data: 226395168
I0403 14:34:42.287958 13423 layer_factory.hpp:77] Creating layer conv2/relu_3x3_reduce
I0403 14:34:42.287979 13423 net.cpp:91] Creating Layer conv2/relu_3x3_reduce
I0403 14:34:42.287995 13423 net.cpp:425] conv2/relu_3x3_reduce <- conv2/3x3_reduce
I0403 14:34:42.288012 13423 net.cpp:386] conv2/relu_3x3_reduce -> conv2/3x3_reduce (in-place)
I0403 14:34:42.288281 13423 net.cpp:141] Setting up conv2/relu_3x3_reduce
I0403 14:34:42.288311 13423 net.cpp:148] Top shape: 24 64 56 56 (4816896)
I0403 14:34:42.288326 13423 net.cpp:156] Memory required for data: 245662752
I0403 14:34:42.288342 13423 layer_factory.hpp:77] Creating layer conv2/3x3
I0403 14:34:42.288365 13423 net.cpp:91] Creating Layer conv2/3x3
I0403 14:34:42.288383 13423 net.cpp:425] conv2/3x3 <- conv2/3x3_reduce
I0403 14:34:42.288403 13423 net.cpp:399] conv2/3x3 -> conv2/3x3
I0403 14:34:42.290709 13423 net.cpp:141] Setting up conv2/3x3
I0403 14:34:42.290737 13423 net.cpp:148] Top shape: 24 192 56 56 (14450688)
I0403 14:34:42.290753 13423 net.cpp:156] Memory required for data: 303465504
I0403 14:34:42.290774 13423 layer_factory.hpp:77] Creating layer conv2/relu_3x3
I0403 14:34:42.290792 13423 net.cpp:91] Creating Layer conv2/relu_3x3
I0403 14:34:42.290808 13423 net.cpp:425] conv2/relu_3x3 <- conv2/3x3
I0403 14:34:42.290825 13423 net.cpp:386] conv2/relu_3x3 -> conv2/3x3 (in-place)
I0403 14:34:42.290982 13423 net.cpp:141] Setting up conv2/relu_3x3
I0403 14:34:42.291007 13423 net.cpp:148] Top shape: 24 192 56 56 (14450688)
I0403 14:34:42.291054 13423 net.cpp:156] Memory required for data: 361268256
I0403 14:34:42.291069 13423 layer_factory.hpp:77] Creating layer conv2/norm2
I0403 14:34:42.291087 13423 net.cpp:91] Creating Layer conv2/norm2
I0403 14:34:42.291103 13423 net.cpp:425] conv2/norm2 <- conv2/3x3
I0403 14:34:42.291121 13423 net.cpp:399] conv2/norm2 -> conv2/norm2
I0403 14:34:42.291400 13423 net.cpp:141] Setting up conv2/norm2
I0403 14:34:42.291426 13423 net.cpp:148] Top shape: 24 192 56 56 (14450688)
I0403 14:34:42.291441 13423 net.cpp:156] Memory required for data: 419071008
I0403 14:34:42.291456 13423 layer_factory.hpp:77] Creating layer pool2/3x3_s2
I0403 14:34:42.291473 13423 net.cpp:91] Creating Layer pool2/3x3_s2
I0403 14:34:42.291488 13423 net.cpp:425] pool2/3x3_s2 <- conv2/norm2
I0403 14:34:42.291506 13423 net.cpp:399] pool2/3x3_s2 -> pool2/3x3_s2
I0403 14:34:42.291554 13423 net.cpp:141] Setting up pool2/3x3_s2
I0403 14:34:42.291576 13423 net.cpp:148] Top shape: 24 192 28 28 (3612672)
I0403 14:34:42.291591 13423 net.cpp:156] Memory required for data: 433521696
I0403 14:34:42.291610 13423 layer_factory.hpp:77] Creating layer pool2/3x3_s2_pool2/3x3_s2_0_split
I0403 14:34:42.291628 13423 net.cpp:91] Creating Layer pool2/3x3_s2_pool2/3x3_s2_0_split
I0403 14:34:42.291642 13423 net.cpp:425] pool2/3x3_s2_pool2/3x3_s2_0_split <- pool2/3x3_s2
I0403 14:34:42.291658 13423 net.cpp:399] pool2/3x3_s2_pool2/3x3_s2_0_split -> pool2/3x3_s2_pool2/3x3_s2_0_split_0
I0403 14:34:42.291676 13423 net.cpp:399] pool2/3x3_s2_pool2/3x3_s2_0_split -> pool2/3x3_s2_pool2/3x3_s2_0_split_1
I0403 14:34:42.291697 13423 net.cpp:399] pool2/3x3_s2_pool2/3x3_s2_0_split -> pool2/3x3_s2_pool2/3x3_s2_0_split_2
I0403 14:34:42.291715 13423 net.cpp:399] pool2/3x3_s2_pool2/3x3_s2_0_split -> pool2/3x3_s2_pool2/3x3_s2_0_split_3
I0403 14:34:42.291779 13423 net.cpp:141] Setting up pool2/3x3_s2_pool2/3x3_s2_0_split
I0403 14:34:42.291800 13423 net.cpp:148] Top shape: 24 192 28 28 (3612672)
I0403 14:34:42.291816 13423 net.cpp:148] Top shape: 24 192 28 28 (3612672)
I0403 14:34:42.291831 13423 net.cpp:148] Top shape: 24 192 28 28 (3612672)
I0403 14:34:42.291847 13423 net.cpp:148] Top shape: 24 192 28 28 (3612672)
I0403 14:34:42.291860 13423 net.cpp:156] Memory required for data: 491324448
I0403 14:34:42.291874 13423 layer_factory.hpp:77] Creating layer inception_3a/1x1
I0403 14:34:42.291894 13423 net.cpp:91] Creating Layer inception_3a/1x1
I0403 14:34:42.291909 13423 net.cpp:425] inception_3a/1x1 <- pool2/3x3_s2_pool2/3x3_s2_0_split_0
I0403 14:34:42.291928 13423 net.cpp:399] inception_3a/1x1 -> inception_3a/1x1
I0403 14:34:42.293393 13423 net.cpp:141] Setting up inception_3a/1x1
I0403 14:34:42.293422 13423 net.cpp:148] Top shape: 24 64 28 28 (1204224)
I0403 14:34:42.293438 13423 net.cpp:156] Memory required for data: 496141344
I0403 14:34:42.293457 13423 layer_factory.hpp:77] Creating layer inception_3a/relu_1x1
I0403 14:34:42.293474 13423 net.cpp:91] Creating Layer inception_3a/relu_1x1
I0403 14:34:42.293489 13423 net.cpp:425] inception_3a/relu_1x1 <- inception_3a/1x1
I0403 14:34:42.293506 13423 net.cpp:386] inception_3a/relu_1x1 -> inception_3a/1x1 (in-place)
I0403 14:34:42.293669 13423 net.cpp:141] Setting up inception_3a/relu_1x1
I0403 14:34:42.293694 13423 net.cpp:148] Top shape: 24 64 28 28 (1204224)
I0403 14:34:42.293709 13423 net.cpp:156] Memory required for data: 500958240
I0403 14:34:42.293723 13423 layer_factory.hpp:77] Creating layer inception_3a/3x3_reduce
I0403 14:34:42.293743 13423 net.cpp:91] Creating Layer inception_3a/3x3_reduce
I0403 14:34:42.293759 13423 net.cpp:425] inception_3a/3x3_reduce <- pool2/3x3_s2_pool2/3x3_s2_0_split_1
I0403 14:34:42.293777 13423 net.cpp:399] inception_3a/3x3_reduce -> inception_3a/3x3_reduce
I0403 14:34:42.295485 13423 net.cpp:141] Setting up inception_3a/3x3_reduce
I0403 14:34:42.295513 13423 net.cpp:148] Top shape: 24 96 28 28 (1806336)
I0403 14:34:42.295529 13423 net.cpp:156] Memory required for data: 508183584
I0403 14:34:42.295553 13423 layer_factory.hpp:77] Creating layer inception_3a/relu_3x3_reduce
I0403 14:34:42.295588 13423 net.cpp:91] Creating Layer inception_3a/relu_3x3_reduce
I0403 14:34:42.295610 13423 net.cpp:425] inception_3a/relu_3x3_reduce <- inception_3a/3x3_reduce
I0403 14:34:42.295629 13423 net.cpp:386] inception_3a/relu_3x3_reduce -> inception_3a/3x3_reduce (in-place)
I0403 14:34:42.295812 13423 net.cpp:141] Setting up inception_3a/relu_3x3_reduce
I0403 14:34:42.295837 13423 net.cpp:148] Top shape: 24 96 28 28 (1806336)
I0403 14:34:42.295852 13423 net.cpp:156] Memory required for data: 515408928
I0403 14:34:42.295866 13423 layer_factory.hpp:77] Creating layer inception_3a/3x3
I0403 14:34:42.295887 13423 net.cpp:91] Creating Layer inception_3a/3x3
I0403 14:34:42.295904 13423 net.cpp:425] inception_3a/3x3 <- inception_3a/3x3_reduce
I0403 14:34:42.295924 13423 net.cpp:399] inception_3a/3x3 -> inception_3a/3x3
I0403 14:34:42.297550 13423 net.cpp:141] Setting up inception_3a/3x3
I0403 14:34:42.297579 13423 net.cpp:148] Top shape: 24 128 28 28 (2408448)
I0403 14:34:42.297593 13423 net.cpp:156] Memory required for data: 525042720
I0403 14:34:42.297616 13423 layer_factory.hpp:77] Creating layer inception_3a/relu_3x3
I0403 14:34:42.297637 13423 net.cpp:91] Creating Layer inception_3a/relu_3x3
I0403 14:34:42.297653 13423 net.cpp:425] inception_3a/relu_3x3 <- inception_3a/3x3
I0403 14:34:42.297672 13423 net.cpp:386] inception_3a/relu_3x3 -> inception_3a/3x3 (in-place)
I0403 14:34:42.297940 13423 net.cpp:141] Setting up inception_3a/relu_3x3
I0403 14:34:42.297966 13423 net.cpp:148] Top shape: 24 128 28 28 (2408448)
I0403 14:34:42.297981 13423 net.cpp:156] Memory required for data: 534676512
I0403 14:34:42.297994 13423 layer_factory.hpp:77] Creating layer inception_3a/5x5_reduce
I0403 14:34:42.298019 13423 net.cpp:91] Creating Layer inception_3a/5x5_reduce
I0403 14:34:42.298037 13423 net.cpp:425] inception_3a/5x5_reduce <- pool2/3x3_s2_pool2/3x3_s2_0_split_2
I0403 14:34:42.298054 13423 net.cpp:399] inception_3a/5x5_reduce -> inception_3a/5x5_reduce
I0403 14:34:42.298997 13423 net.cpp:141] Setting up inception_3a/5x5_reduce
I0403 14:34:42.299024 13423 net.cpp:148] Top shape: 24 16 28 28 (301056)
I0403 14:34:42.299041 13423 net.cpp:156] Memory required for data: 535880736
I0403 14:34:42.299057 13423 layer_factory.hpp:77] Creating layer inception_3a/relu_5x5_reduce
I0403 14:34:42.299077 13423 net.cpp:91] Creating Layer inception_3a/relu_5x5_reduce
I0403 14:34:42.299093 13423 net.cpp:425] inception_3a/relu_5x5_reduce <- inception_3a/5x5_reduce
I0403 14:34:42.299110 13423 net.cpp:386] inception_3a/relu_5x5_reduce -> inception_3a/5x5_reduce (in-place)
I0403 14:34:42.299403 13423 net.cpp:141] Setting up inception_3a/relu_5x5_reduce
I0403 14:34:42.299434 13423 net.cpp:148] Top shape: 24 16 28 28 (301056)
I0403 14:34:42.299450 13423 net.cpp:156] Memory required for data: 537084960
I0403 14:34:42.299465 13423 layer_factory.hpp:77] Creating layer inception_3a/5x5
I0403 14:34:42.299486 13423 net.cpp:91] Creating Layer inception_3a/5x5
I0403 14:34:42.299504 13423 net.cpp:425] inception_3a/5x5 <- inception_3a/5x5_reduce
I0403 14:34:42.299522 13423 net.cpp:399] inception_3a/5x5 -> inception_3a/5x5
I0403 14:34:42.300521 13423 net.cpp:141] Setting up inception_3a/5x5
I0403 14:34:42.300549 13423 net.cpp:148] Top shape: 24 32 28 28 (602112)
I0403 14:34:42.300564 13423 net.cpp:156] Memory required for data: 539493408
I0403 14:34:42.300581 13423 layer_factory.hpp:77] Creating layer inception_3a/relu_5x5
I0403 14:34:42.300606 13423 net.cpp:91] Creating Layer inception_3a/relu_5x5
I0403 14:34:42.300624 13423 net.cpp:425] inception_3a/relu_5x5 <- inception_3a/5x5
I0403 14:34:42.300642 13423 net.cpp:386] inception_3a/relu_5x5 -> inception_3a/5x5 (in-place)
I0403 14:34:42.300809 13423 net.cpp:141] Setting up inception_3a/relu_5x5
I0403 14:34:42.300837 13423 net.cpp:148] Top shape: 24 32 28 28 (602112)
I0403 14:34:42.300850 13423 net.cpp:156] Memory required for data: 541901856
I0403 14:34:42.300865 13423 layer_factory.hpp:77] Creating layer inception_3a/pool
I0403 14:34:42.300882 13423 net.cpp:91] Creating Layer inception_3a/pool
I0403 14:34:42.300897 13423 net.cpp:425] inception_3a/pool <- pool2/3x3_s2_pool2/3x3_s2_0_split_3
I0403 14:34:42.300930 13423 net.cpp:399] inception_3a/pool -> inception_3a/pool
I0403 14:34:42.300988 13423 net.cpp:141] Setting up inception_3a/pool
I0403 14:34:42.301012 13423 net.cpp:148] Top shape: 24 192 28 28 (3612672)
I0403 14:34:42.301025 13423 net.cpp:156] Memory required for data: 556352544
I0403 14:34:42.301040 13423 layer_factory.hpp:77] Creating layer inception_3a/pool_proj
I0403 14:34:42.301061 13423 net.cpp:91] Creating Layer inception_3a/pool_proj
I0403 14:34:42.301079 13423 net.cpp:425] inception_3a/pool_proj <- inception_3a/pool
I0403 14:34:42.301098 13423 net.cpp:399] inception_3a/pool_proj -> inception_3a/pool_proj
I0403 14:34:42.302081 13423 net.cpp:141] Setting up inception_3a/pool_proj
I0403 14:34:42.302109 13423 net.cpp:148] Top shape: 24 32 28 28 (602112)
I0403 14:34:42.302124 13423 net.cpp:156] Memory required for data: 558760992
I0403 14:34:42.302148 13423 layer_factory.hpp:77] Creating layer inception_3a/relu_pool_proj
I0403 14:34:42.302167 13423 net.cpp:91] Creating Layer inception_3a/relu_pool_proj
I0403 14:34:42.302183 13423 net.cpp:425] inception_3a/relu_pool_proj <- inception_3a/pool_proj
I0403 14:34:42.302202 13423 net.cpp:386] inception_3a/relu_pool_proj -> inception_3a/pool_proj (in-place)
I0403 14:34:42.302484 13423 net.cpp:141] Setting up inception_3a/relu_pool_proj
I0403 14:34:42.302511 13423 net.cpp:148] Top shape: 24 32 28 28 (602112)
I0403 14:34:42.302526 13423 net.cpp:156] Memory required for data: 561169440
I0403 14:34:42.302541 13423 layer_factory.hpp:77] Creating layer inception_3a/output
I0403 14:34:42.302566 13423 net.cpp:91] Creating Layer inception_3a/output
I0403 14:34:42.302582 13423 net.cpp:425] inception_3a/output <- inception_3a/1x1
I0403 14:34:42.302603 13423 net.cpp:425] inception_3a/output <- inception_3a/3x3
I0403 14:34:42.302621 13423 net.cpp:425] inception_3a/output <- inception_3a/5x5
I0403 14:34:42.302637 13423 net.cpp:425] inception_3a/output <- inception_3a/pool_proj
I0403 14:34:42.302654 13423 net.cpp:399] inception_3a/output -> inception_3a/output
I0403 14:34:42.302703 13423 net.cpp:141] Setting up inception_3a/output
I0403 14:34:42.302726 13423 net.cpp:148] Top shape: 24 256 28 28 (4816896)
I0403 14:34:42.302742 13423 net.cpp:156] Memory required for data: 580437024
I0403 14:34:42.302755 13423 layer_factory.hpp:77] Creating layer inception_3a/output_inception_3a/output_0_split
I0403 14:34:42.302773 13423 net.cpp:91] Creating Layer inception_3a/output_inception_3a/output_0_split
I0403 14:34:42.302788 13423 net.cpp:425] inception_3a/output_inception_3a/output_0_split <- inception_3a/output
I0403 14:34:42.302808 13423 net.cpp:399] inception_3a/output_inception_3a/output_0_split -> inception_3a/output_inception_3a/output_0_split_0
I0403 14:34:42.302829 13423 net.cpp:399] inception_3a/output_inception_3a/output_0_split -> inception_3a/output_inception_3a/output_0_split_1
I0403 14:34:42.302857 13423 net.cpp:399] inception_3a/output_inception_3a/output_0_split -> inception_3a/output_inception_3a/output_0_split_2
I0403 14:34:42.302880 13423 net.cpp:399] inception_3a/output_inception_3a/output_0_split -> inception_3a/output_inception_3a/output_0_split_3
I0403 14:34:42.302953 13423 net.cpp:141] Setting up inception_3a/output_inception_3a/output_0_split
I0403 14:34:42.302975 13423 net.cpp:148] Top shape: 24 256 28 28 (4816896)
I0403 14:34:42.302992 13423 net.cpp:148] Top shape: 24 256 28 28 (4816896)
I0403 14:34:42.303009 13423 net.cpp:148] Top shape: 24 256 28 28 (4816896)
I0403 14:34:42.303023 13423 net.cpp:148] Top shape: 24 256 28 28 (4816896)
I0403 14:34:42.303037 13423 net.cpp:156] Memory required for data: 657507360
I0403 14:34:42.303051 13423 layer_factory.hpp:77] Creating layer inception_3b/1x1
I0403 14:34:42.303074 13423 net.cpp:91] Creating Layer inception_3b/1x1
I0403 14:34:42.303092 13423 net.cpp:425] inception_3b/1x1 <- inception_3a/output_inception_3a/output_0_split_0
I0403 14:34:42.303112 13423 net.cpp:399] inception_3b/1x1 -> inception_3b/1x1
I0403 14:34:42.304270 13423 net.cpp:141] Setting up inception_3b/1x1
I0403 14:34:42.304309 13423 net.cpp:148] Top shape: 24 128 28 28 (2408448)
I0403 14:34:42.304327 13423 net.cpp:156] Memory required for data: 667141152
I0403 14:34:42.304344 13423 layer_factory.hpp:77] Creating layer inception_3b/relu_1x1
I0403 14:34:42.304364 13423 net.cpp:91] Creating Layer inception_3b/relu_1x1
I0403 14:34:42.304381 13423 net.cpp:425] inception_3b/relu_1x1 <- inception_3b/1x1
I0403 14:34:42.304399 13423 net.cpp:386] inception_3b/relu_1x1 -> inception_3b/1x1 (in-place)
I0403 14:34:42.304569 13423 net.cpp:141] Setting up inception_3b/relu_1x1
I0403 14:34:42.304594 13423 net.cpp:148] Top shape: 24 128 28 28 (2408448)
I0403 14:34:42.304620 13423 net.cpp:156] Memory required for data: 676774944
I0403 14:34:42.304637 13423 layer_factory.hpp:77] Creating layer inception_3b/3x3_reduce
I0403 14:34:42.304661 13423 net.cpp:91] Creating Layer inception_3b/3x3_reduce
I0403 14:34:42.304677 13423 net.cpp:425] inception_3b/3x3_reduce <- inception_3a/output_inception_3a/output_0_split_1
I0403 14:34:42.304695 13423 net.cpp:399] inception_3b/3x3_reduce -> inception_3b/3x3_reduce
I0403 14:34:42.305822 13423 net.cpp:141] Setting up inception_3b/3x3_reduce
I0403 14:34:42.305850 13423 net.cpp:148] Top shape: 24 128 28 28 (2408448)
I0403 14:34:42.305866 13423 net.cpp:156] Memory required for data: 686408736
I0403 14:34:42.305883 13423 layer_factory.hpp:77] Creating layer inception_3b/relu_3x3_reduce
I0403 14:34:42.305904 13423 net.cpp:91] Creating Layer inception_3b/relu_3x3_reduce
I0403 14:34:42.305920 13423 net.cpp:425] inception_3b/relu_3x3_reduce <- inception_3b/3x3_reduce
I0403 14:34:42.305938 13423 net.cpp:386] inception_3b/relu_3x3_reduce -> inception_3b/3x3_reduce (in-place)
I0403 14:34:42.306107 13423 net.cpp:141] Setting up inception_3b/relu_3x3_reduce
I0403 14:34:42.306131 13423 net.cpp:148] Top shape: 24 128 28 28 (2408448)
I0403 14:34:42.306152 13423 net.cpp:156] Memory required for data: 696042528
I0403 14:34:42.306166 13423 layer_factory.hpp:77] Creating layer inception_3b/3x3
I0403 14:34:42.306190 13423 net.cpp:91] Creating Layer inception_3b/3x3
I0403 14:34:42.306207 13423 net.cpp:425] inception_3b/3x3 <- inception_3b/3x3_reduce
I0403 14:34:42.306228 13423 net.cpp:399] inception_3b/3x3 -> inception_3b/3x3
I0403 14:34:42.309141 13423 net.cpp:141] Setting up inception_3b/3x3
I0403 14:34:42.309170 13423 net.cpp:148] Top shape: 24 192 28 28 (3612672)
I0403 14:34:42.309185 13423 net.cpp:156] Memory required for data: 710493216
I0403 14:34:42.309203 13423 layer_factory.hpp:77] Creating layer inception_3b/relu_3x3
I0403 14:34:42.309223 13423 net.cpp:91] Creating Layer inception_3b/relu_3x3
I0403 14:34:42.309239 13423 net.cpp:425] inception_3b/relu_3x3 <- inception_3b/3x3
I0403 14:34:42.309257 13423 net.cpp:386] inception_3b/relu_3x3 -> inception_3b/3x3 (in-place)
I0403 14:34:42.309535 13423 net.cpp:141] Setting up inception_3b/relu_3x3
I0403 14:34:42.309561 13423 net.cpp:148] Top shape: 24 192 28 28 (3612672)
I0403 14:34:42.309576 13423 net.cpp:156] Memory required for data: 724943904
I0403 14:34:42.309590 13423 layer_factory.hpp:77] Creating layer inception_3b/5x5_reduce
I0403 14:34:42.309619 13423 net.cpp:91] Creating Layer inception_3b/5x5_reduce
I0403 14:34:42.309638 13423 net.cpp:425] inception_3b/5x5_reduce <- inception_3a/output_inception_3a/output_0_split_2
I0403 14:34:42.309656 13423 net.cpp:399] inception_3b/5x5_reduce -> inception_3b/5x5_reduce
I0403 14:34:42.310648 13423 net.cpp:141] Setting up inception_3b/5x5_reduce
I0403 14:34:42.310675 13423 net.cpp:148] Top shape: 24 32 28 28 (602112)
I0403 14:34:42.310690 13423 net.cpp:156] Memory required for data: 727352352
I0403 14:34:42.310708 13423 layer_factory.hpp:77] Creating layer inception_3b/relu_5x5_reduce
I0403 14:34:42.310729 13423 net.cpp:91] Creating Layer inception_3b/relu_5x5_reduce
I0403 14:34:42.310745 13423 net.cpp:425] inception_3b/relu_5x5_reduce <- inception_3b/5x5_reduce
I0403 14:34:42.310762 13423 net.cpp:386] inception_3b/relu_5x5_reduce -> inception_3b/5x5_reduce (in-place)
I0403 14:34:42.310935 13423 net.cpp:141] Setting up inception_3b/relu_5x5_reduce
I0403 14:34:42.310973 13423 net.cpp:148] Top shape: 24 32 28 28 (602112)
I0403 14:34:42.310989 13423 net.cpp:156] Memory required for data: 729760800
I0403 14:34:42.311003 13423 layer_factory.hpp:77] Creating layer inception_3b/5x5
I0403 14:34:42.311025 13423 net.cpp:91] Creating Layer inception_3b/5x5
I0403 14:34:42.311041 13423 net.cpp:425] inception_3b/5x5 <- inception_3b/5x5_reduce
I0403 14:34:42.311060 13423 net.cpp:399] inception_3b/5x5 -> inception_3b/5x5
I0403 14:34:42.313040 13423 net.cpp:141] Setting up inception_3b/5x5
I0403 14:34:42.313067 13423 net.cpp:148] Top shape: 24 96 28 28 (1806336)
I0403 14:34:42.313082 13423 net.cpp:156] Memory required for data: 736986144
I0403 14:34:42.313100 13423 layer_factory.hpp:77] Creating layer inception_3b/relu_5x5
I0403 14:34:42.313118 13423 net.cpp:91] Creating Layer inception_3b/relu_5x5
I0403 14:34:42.313133 13423 net.cpp:425] inception_3b/relu_5x5 <- inception_3b/5x5
I0403 14:34:42.313153 13423 net.cpp:386] inception_3b/relu_5x5 -> inception_3b/5x5 (in-place)
I0403 14:34:42.313344 13423 net.cpp:141] Setting up inception_3b/relu_5x5
I0403 14:34:42.313369 13423 net.cpp:148] Top shape: 24 96 28 28 (1806336)
I0403 14:34:42.313382 13423 net.cpp:156] Memory required for data: 744211488
I0403 14:34:42.313397 13423 layer_factory.hpp:77] Creating layer inception_3b/pool
I0403 14:34:42.313415 13423 net.cpp:91] Creating Layer inception_3b/pool
I0403 14:34:42.313429 13423 net.cpp:425] inception_3b/pool <- inception_3a/output_inception_3a/output_0_split_3
I0403 14:34:42.313446 13423 net.cpp:399] inception_3b/pool -> inception_3b/pool
I0403 14:34:42.313500 13423 net.cpp:141] Setting up inception_3b/pool
I0403 14:34:42.313529 13423 net.cpp:148] Top shape: 24 256 28 28 (4816896)
I0403 14:34:42.313542 13423 net.cpp:156] Memory required for data: 763479072
I0403 14:34:42.313556 13423 layer_factory.hpp:77] Creating layer inception_3b/pool_proj
I0403 14:34:42.313577 13423 net.cpp:91] Creating Layer inception_3b/pool_proj
I0403 14:34:42.313594 13423 net.cpp:425] inception_3b/pool_proj <- inception_3b/pool
I0403 14:34:42.313619 13423 net.cpp:399] inception_3b/pool_proj -> inception_3b/pool_proj
I0403 14:34:42.314673 13423 net.cpp:141] Setting up inception_3b/pool_proj
I0403 14:34:42.314703 13423 net.cpp:148] Top shape: 24 64 28 28 (1204224)
I0403 14:34:42.314718 13423 net.cpp:156] Memory required for data: 768295968
I0403 14:34:42.314736 13423 layer_factory.hpp:77] Creating layer inception_3b/relu_pool_proj
I0403 14:34:42.314754 13423 net.cpp:91] Creating Layer inception_3b/relu_pool_proj
I0403 14:34:42.314769 13423 net.cpp:425] inception_3b/relu_pool_proj <- inception_3b/pool_proj
I0403 14:34:42.314788 13423 net.cpp:386] inception_3b/relu_pool_proj -> inception_3b/pool_proj (in-place)
I0403 14:34:42.315182 13423 net.cpp:141] Setting up inception_3b/relu_pool_proj
I0403 14:34:42.315210 13423 net.cpp:148] Top shape: 24 64 28 28 (1204224)
I0403 14:34:42.315225 13423 net.cpp:156] Memory required for data: 773112864
I0403 14:34:42.315240 13423 layer_factory.hpp:77] Creating layer inception_3b/output
I0403 14:34:42.315256 13423 net.cpp:91] Creating Layer inception_3b/output
I0403 14:34:42.315271 13423 net.cpp:425] inception_3b/output <- inception_3b/1x1
I0403 14:34:42.315289 13423 net.cpp:425] inception_3b/output <- inception_3b/3x3
I0403 14:34:42.315305 13423 net.cpp:425] inception_3b/output <- inception_3b/5x5
I0403 14:34:42.315321 13423 net.cpp:425] inception_3b/output <- inception_3b/pool_proj
I0403 14:34:42.315337 13423 net.cpp:399] inception_3b/output -> inception_3b/output
I0403 14:34:42.315382 13423 net.cpp:141] Setting up inception_3b/output
I0403 14:34:42.315403 13423 net.cpp:148] Top shape: 24 480 28 28 (9031680)
I0403 14:34:42.315418 13423 net.cpp:156] Memory required for data: 809239584
I0403 14:34:42.315431 13423 layer_factory.hpp:77] Creating layer pool3/3x3_s2
I0403 14:34:42.315450 13423 net.cpp:91] Creating Layer pool3/3x3_s2
I0403 14:34:42.315466 13423 net.cpp:425] pool3/3x3_s2 <- inception_3b/output
I0403 14:34:42.315484 13423 net.cpp:399] pool3/3x3_s2 -> pool3/3x3_s2
I0403 14:34:42.315557 13423 net.cpp:141] Setting up pool3/3x3_s2
I0403 14:34:42.315579 13423 net.cpp:148] Top shape: 24 480 14 14 (2257920)
I0403 14:34:42.315593 13423 net.cpp:156] Memory required for data: 818271264
I0403 14:34:42.315629 13423 layer_factory.hpp:77] Creating layer pool3/3x3_s2_pool3/3x3_s2_0_split
I0403 14:34:42.315646 13423 net.cpp:91] Creating Layer pool3/3x3_s2_pool3/3x3_s2_0_split
I0403 14:34:42.315661 13423 net.cpp:425] pool3/3x3_s2_pool3/3x3_s2_0_split <- pool3/3x3_s2
I0403 14:34:42.315680 13423 net.cpp:399] pool3/3x3_s2_pool3/3x3_s2_0_split -> pool3/3x3_s2_pool3/3x3_s2_0_split_0
I0403 14:34:42.315701 13423 net.cpp:399] pool3/3x3_s2_pool3/3x3_s2_0_split -> pool3/3x3_s2_pool3/3x3_s2_0_split_1
I0403 14:34:42.315721 13423 net.cpp:399] pool3/3x3_s2_pool3/3x3_s2_0_split -> pool3/3x3_s2_pool3/3x3_s2_0_split_2
I0403 14:34:42.315740 13423 net.cpp:399] pool3/3x3_s2_pool3/3x3_s2_0_split -> pool3/3x3_s2_pool3/3x3_s2_0_split_3
I0403 14:34:42.315817 13423 net.cpp:141] Setting up pool3/3x3_s2_pool3/3x3_s2_0_split
I0403 14:34:42.315842 13423 net.cpp:148] Top shape: 24 480 14 14 (2257920)
I0403 14:34:42.315860 13423 net.cpp:148] Top shape: 24 480 14 14 (2257920)
I0403 14:34:42.315876 13423 net.cpp:148] Top shape: 24 480 14 14 (2257920)
I0403 14:34:42.315891 13423 net.cpp:148] Top shape: 24 480 14 14 (2257920)
I0403 14:34:42.315906 13423 net.cpp:156] Memory required for data: 854397984
I0403 14:34:42.315919 13423 layer_factory.hpp:77] Creating layer inception_4a/1x1
I0403 14:34:42.315942 13423 net.cpp:91] Creating Layer inception_4a/1x1
I0403 14:34:42.315958 13423 net.cpp:425] inception_4a/1x1 <- pool3/3x3_s2_pool3/3x3_s2_0_split_0
I0403 14:34:42.315978 13423 net.cpp:399] inception_4a/1x1 -> inception_4a/1x1
I0403 14:34:42.317615 13423 net.cpp:141] Setting up inception_4a/1x1
I0403 14:34:42.317643 13423 net.cpp:148] Top shape: 24 192 14 14 (903168)
I0403 14:34:42.317659 13423 net.cpp:156] Memory required for data: 858010656
I0403 14:34:42.317678 13423 layer_factory.hpp:77] Creating layer inception_4a/relu_1x1
I0403 14:34:42.317697 13423 net.cpp:91] Creating Layer inception_4a/relu_1x1
I0403 14:34:42.317711 13423 net.cpp:425] inception_4a/relu_1x1 <- inception_4a/1x1
I0403 14:34:42.317730 13423 net.cpp:386] inception_4a/relu_1x1 -> inception_4a/1x1 (in-place)
I0403 14:34:42.317922 13423 net.cpp:141] Setting up inception_4a/relu_1x1
I0403 14:34:42.317947 13423 net.cpp:148] Top shape: 24 192 14 14 (903168)
I0403 14:34:42.317962 13423 net.cpp:156] Memory required for data: 861623328
I0403 14:34:42.317977 13423 layer_factory.hpp:77] Creating layer inception_4a/3x3_reduce
I0403 14:34:42.317999 13423 net.cpp:91] Creating Layer inception_4a/3x3_reduce
I0403 14:34:42.318017 13423 net.cpp:425] inception_4a/3x3_reduce <- pool3/3x3_s2_pool3/3x3_s2_0_split_1
I0403 14:34:42.318037 13423 net.cpp:399] inception_4a/3x3_reduce -> inception_4a/3x3_reduce
I0403 14:34:42.319329 13423 net.cpp:141] Setting up inception_4a/3x3_reduce
I0403 14:34:42.319360 13423 net.cpp:148] Top shape: 24 96 14 14 (451584)
I0403 14:34:42.319377 13423 net.cpp:156] Memory required for data: 863429664
I0403 14:34:42.319402 13423 layer_factory.hpp:77] Creating layer inception_4a/relu_3x3_reduce
I0403 14:34:42.319422 13423 net.cpp:91] Creating Layer inception_4a/relu_3x3_reduce
I0403 14:34:42.319437 13423 net.cpp:425] inception_4a/relu_3x3_reduce <- inception_4a/3x3_reduce
I0403 14:34:42.319454 13423 net.cpp:386] inception_4a/relu_3x3_reduce -> inception_4a/3x3_reduce (in-place)
I0403 14:34:42.319638 13423 net.cpp:141] Setting up inception_4a/relu_3x3_reduce
I0403 14:34:42.319664 13423 net.cpp:148] Top shape: 24 96 14 14 (451584)
I0403 14:34:42.319679 13423 net.cpp:156] Memory required for data: 865236000
I0403 14:34:42.319694 13423 layer_factory.hpp:77] Creating layer inception_4a/3x3
I0403 14:34:42.319715 13423 net.cpp:91] Creating Layer inception_4a/3x3
I0403 14:34:42.319732 13423 net.cpp:425] inception_4a/3x3 <- inception_4a/3x3_reduce
I0403 14:34:42.319753 13423 net.cpp:399] inception_4a/3x3 -> inception_4a/3x3
I0403 14:34:42.322497 13423 net.cpp:141] Setting up inception_4a/3x3
I0403 14:34:42.322527 13423 net.cpp:148] Top shape: 24 208 14 14 (978432)
I0403 14:34:42.322542 13423 net.cpp:156] Memory required for data: 869149728
I0403 14:34:42.322561 13423 layer_factory.hpp:77] Creating layer inception_4a/relu_3x3
I0403 14:34:42.322581 13423 net.cpp:91] Creating Layer inception_4a/relu_3x3
I0403 14:34:42.322597 13423 net.cpp:425] inception_4a/relu_3x3 <- inception_4a/3x3
I0403 14:34:42.322620 13423 net.cpp:386] inception_4a/relu_3x3 -> inception_4a/3x3 (in-place)
I0403 14:34:42.322911 13423 net.cpp:141] Setting up inception_4a/relu_3x3
I0403 14:34:42.322939 13423 net.cpp:148] Top shape: 24 208 14 14 (978432)
I0403 14:34:42.322955 13423 net.cpp:156] Memory required for data: 873063456
I0403 14:34:42.322970 13423 layer_factory.hpp:77] Creating layer inception_4a/5x5_reduce
I0403 14:34:42.322994 13423 net.cpp:91] Creating Layer inception_4a/5x5_reduce
I0403 14:34:42.323012 13423 net.cpp:425] inception_4a/5x5_reduce <- pool3/3x3_s2_pool3/3x3_s2_0_split_2
I0403 14:34:42.323034 13423 net.cpp:399] inception_4a/5x5_reduce -> inception_4a/5x5_reduce
I0403 14:34:42.324082 13423 net.cpp:141] Setting up inception_4a/5x5_reduce
I0403 14:34:42.324111 13423 net.cpp:148] Top shape: 24 16 14 14 (75264)
I0403 14:34:42.324126 13423 net.cpp:156] Memory required for data: 873364512
I0403 14:34:42.324146 13423 layer_factory.hpp:77] Creating layer inception_4a/relu_5x5_reduce
I0403 14:34:42.324167 13423 net.cpp:91] Creating Layer inception_4a/relu_5x5_reduce
I0403 14:34:42.324185 13423 net.cpp:425] inception_4a/relu_5x5_reduce <- inception_4a/5x5_reduce
I0403 14:34:42.324203 13423 net.cpp:386] inception_4a/relu_5x5_reduce -> inception_4a/5x5_reduce (in-place)
I0403 14:34:42.324381 13423 net.cpp:141] Setting up inception_4a/relu_5x5_reduce
I0403 14:34:42.324410 13423 net.cpp:148] Top shape: 24 16 14 14 (75264)
I0403 14:34:42.324427 13423 net.cpp:156] Memory required for data: 873665568
I0403 14:34:42.324442 13423 layer_factory.hpp:77] Creating layer inception_4a/5x5
I0403 14:34:42.324465 13423 net.cpp:91] Creating Layer inception_4a/5x5
I0403 14:34:42.324482 13423 net.cpp:425] inception_4a/5x5 <- inception_4a/5x5_reduce
I0403 14:34:42.324501 13423 net.cpp:399] inception_4a/5x5 -> inception_4a/5x5
I0403 14:34:42.325636 13423 net.cpp:141] Setting up inception_4a/5x5
I0403 14:34:42.325669 13423 net.cpp:148] Top shape: 24 48 14 14 (225792)
I0403 14:34:42.325685 13423 net.cpp:156] Memory required for data: 874568736
I0403 14:34:42.325705 13423 layer_factory.hpp:77] Creating layer inception_4a/relu_5x5
I0403 14:34:42.325722 13423 net.cpp:91] Creating Layer inception_4a/relu_5x5
I0403 14:34:42.325739 13423 net.cpp:425] inception_4a/relu_5x5 <- inception_4a/5x5
I0403 14:34:42.325760 13423 net.cpp:386] inception_4a/relu_5x5 -> inception_4a/5x5 (in-place)
I0403 14:34:42.325947 13423 net.cpp:141] Setting up inception_4a/relu_5x5
I0403 14:34:42.325973 13423 net.cpp:148] Top shape: 24 48 14 14 (225792)
I0403 14:34:42.325989 13423 net.cpp:156] Memory required for data: 875471904
I0403 14:34:42.326004 13423 layer_factory.hpp:77] Creating layer inception_4a/pool
I0403 14:34:42.326020 13423 net.cpp:91] Creating Layer inception_4a/pool
I0403 14:34:42.326036 13423 net.cpp:425] inception_4a/pool <- pool3/3x3_s2_pool3/3x3_s2_0_split_3
I0403 14:34:42.326056 13423 net.cpp:399] inception_4a/pool -> inception_4a/pool
I0403 14:34:42.326118 13423 net.cpp:141] Setting up inception_4a/pool
I0403 14:34:42.326143 13423 net.cpp:148] Top shape: 24 480 14 14 (2257920)
I0403 14:34:42.326158 13423 net.cpp:156] Memory required for data: 884503584
I0403 14:34:42.326171 13423 layer_factory.hpp:77] Creating layer inception_4a/pool_proj
I0403 14:34:42.326195 13423 net.cpp:91] Creating Layer inception_4a/pool_proj
I0403 14:34:42.326212 13423 net.cpp:425] inception_4a/pool_proj <- inception_4a/pool
I0403 14:34:42.326231 13423 net.cpp:399] inception_4a/pool_proj -> inception_4a/pool_proj
I0403 14:34:42.327417 13423 net.cpp:141] Setting up inception_4a/pool_proj
I0403 14:34:42.327451 13423 net.cpp:148] Top shape: 24 64 14 14 (301056)
I0403 14:34:42.327482 13423 net.cpp:156] Memory required for data: 885707808
I0403 14:34:42.327503 13423 layer_factory.hpp:77] Creating layer inception_4a/relu_pool_proj
I0403 14:34:42.327522 13423 net.cpp:91] Creating Layer inception_4a/relu_pool_proj
I0403 14:34:42.327538 13423 net.cpp:425] inception_4a/relu_pool_proj <- inception_4a/pool_proj
I0403 14:34:42.327559 13423 net.cpp:386] inception_4a/relu_pool_proj -> inception_4a/pool_proj (in-place)
I0403 14:34:42.327850 13423 net.cpp:141] Setting up inception_4a/relu_pool_proj
I0403 14:34:42.327879 13423 net.cpp:148] Top shape: 24 64 14 14 (301056)
I0403 14:34:42.327896 13423 net.cpp:156] Memory required for data: 886912032
I0403 14:34:42.327910 13423 layer_factory.hpp:77] Creating layer inception_4a/output
I0403 14:34:42.327929 13423 net.cpp:91] Creating Layer inception_4a/output
I0403 14:34:42.327945 13423 net.cpp:425] inception_4a/output <- inception_4a/1x1
I0403 14:34:42.327962 13423 net.cpp:425] inception_4a/output <- inception_4a/3x3
I0403 14:34:42.327978 13423 net.cpp:425] inception_4a/output <- inception_4a/5x5
I0403 14:34:42.327994 13423 net.cpp:425] inception_4a/output <- inception_4a/pool_proj
I0403 14:34:42.328013 13423 net.cpp:399] inception_4a/output -> inception_4a/output
I0403 14:34:42.328058 13423 net.cpp:141] Setting up inception_4a/output
I0403 14:34:42.328081 13423 net.cpp:148] Top shape: 24 512 14 14 (2408448)
I0403 14:34:42.328097 13423 net.cpp:156] Memory required for data: 896545824
I0403 14:34:42.328112 13423 layer_factory.hpp:77] Creating layer inception_4a/output_inception_4a/output_0_split
I0403 14:34:42.328131 13423 net.cpp:91] Creating Layer inception_4a/output_inception_4a/output_0_split
I0403 14:34:42.328147 13423 net.cpp:425] inception_4a/output_inception_4a/output_0_split <- inception_4a/output
I0403 14:34:42.328164 13423 net.cpp:399] inception_4a/output_inception_4a/output_0_split -> inception_4a/output_inception_4a/output_0_split_0
I0403 14:34:42.328191 13423 net.cpp:399] inception_4a/output_inception_4a/output_0_split -> inception_4a/output_inception_4a/output_0_split_1
I0403 14:34:42.328212 13423 net.cpp:399] inception_4a/output_inception_4a/output_0_split -> inception_4a/output_inception_4a/output_0_split_2
I0403 14:34:42.328233 13423 net.cpp:399] inception_4a/output_inception_4a/output_0_split -> inception_4a/output_inception_4a/output_0_split_3
I0403 14:34:42.328253 13423 net.cpp:399] inception_4a/output_inception_4a/output_0_split -> inception_4a/output_inception_4a/output_0_split_4
I0403 14:34:42.328346 13423 net.cpp:141] Setting up inception_4a/output_inception_4a/output_0_split
I0403 14:34:42.328371 13423 net.cpp:148] Top shape: 24 512 14 14 (2408448)
I0403 14:34:42.328387 13423 net.cpp:148] Top shape: 24 512 14 14 (2408448)
I0403 14:34:42.328403 13423 net.cpp:148] Top shape: 24 512 14 14 (2408448)
I0403 14:34:42.328418 13423 net.cpp:148] Top shape: 24 512 14 14 (2408448)
I0403 14:34:42.328434 13423 net.cpp:148] Top shape: 24 512 14 14 (2408448)
I0403 14:34:42.328449 13423 net.cpp:156] Memory required for data: 944714784
I0403 14:34:42.328462 13423 layer_factory.hpp:77] Creating layer loss1/ave_pool
I0403 14:34:42.328482 13423 net.cpp:91] Creating Layer loss1/ave_pool
I0403 14:34:42.328500 13423 net.cpp:425] loss1/ave_pool <- inception_4a/output_inception_4a/output_0_split_0
I0403 14:34:42.328516 13423 net.cpp:399] loss1/ave_pool -> loss1/ave_pool
I0403 14:34:42.328730 13423 net.cpp:141] Setting up loss1/ave_pool
I0403 14:34:42.328759 13423 net.cpp:148] Top shape: 24 512 4 4 (196608)
I0403 14:34:42.328776 13423 net.cpp:156] Memory required for data: 945501216
I0403 14:34:42.328791 13423 layer_factory.hpp:77] Creating layer loss1/conv
I0403 14:34:42.328814 13423 net.cpp:91] Creating Layer loss1/conv
I0403 14:34:42.328831 13423 net.cpp:425] loss1/conv <- loss1/ave_pool
I0403 14:34:42.328851 13423 net.cpp:399] loss1/conv -> loss1/conv
I0403 14:34:42.330283 13423 net.cpp:141] Setting up loss1/conv
I0403 14:34:42.330312 13423 net.cpp:148] Top shape: 24 128 4 4 (49152)
I0403 14:34:42.330328 13423 net.cpp:156] Memory required for data: 945697824
I0403 14:34:42.330361 13423 layer_factory.hpp:77] Creating layer loss1/relu_conv
I0403 14:34:42.330384 13423 net.cpp:91] Creating Layer loss1/relu_conv
I0403 14:34:42.330401 13423 net.cpp:425] loss1/relu_conv <- loss1/conv
I0403 14:34:42.330420 13423 net.cpp:386] loss1/relu_conv -> loss1/conv (in-place)
I0403 14:34:42.330713 13423 net.cpp:141] Setting up loss1/relu_conv
I0403 14:34:42.330740 13423 net.cpp:148] Top shape: 24 128 4 4 (49152)
I0403 14:34:42.330756 13423 net.cpp:156] Memory required for data: 945894432
I0403 14:34:42.330771 13423 layer_factory.hpp:77] Creating layer loss1/fc
I0403 14:34:42.330797 13423 net.cpp:91] Creating Layer loss1/fc
I0403 14:34:42.330816 13423 net.cpp:425] loss1/fc <- loss1/conv
I0403 14:34:42.330834 13423 net.cpp:399] loss1/fc -> loss1/fc
I0403 14:34:42.349088 13423 net.cpp:141] Setting up loss1/fc
I0403 14:34:42.349124 13423 net.cpp:148] Top shape: 24 1024 (24576)
I0403 14:34:42.349143 13423 net.cpp:156] Memory required for data: 945992736
I0403 14:34:42.349162 13423 layer_factory.hpp:77] Creating layer loss1/relu_fc
I0403 14:34:42.349182 13423 net.cpp:91] Creating Layer loss1/relu_fc
I0403 14:34:42.349198 13423 net.cpp:425] loss1/relu_fc <- loss1/fc
I0403 14:34:42.349218 13423 net.cpp:386] loss1/relu_fc -> loss1/fc (in-place)
I0403 14:34:42.349423 13423 net.cpp:141] Setting up loss1/relu_fc
I0403 14:34:42.349449 13423 net.cpp:148] Top shape: 24 1024 (24576)
I0403 14:34:42.349463 13423 net.cpp:156] Memory required for data: 946091040
I0403 14:34:42.349478 13423 layer_factory.hpp:77] Creating layer loss1/drop_fc
I0403 14:34:42.349506 13423 net.cpp:91] Creating Layer loss1/drop_fc
I0403 14:34:42.349524 13423 net.cpp:425] loss1/drop_fc <- loss1/fc
I0403 14:34:42.349544 13423 net.cpp:386] loss1/drop_fc -> loss1/fc (in-place)
I0403 14:34:42.349596 13423 net.cpp:141] Setting up loss1/drop_fc
I0403 14:34:42.349625 13423 net.cpp:148] Top shape: 24 1024 (24576)
I0403 14:34:42.349642 13423 net.cpp:156] Memory required for data: 946189344
I0403 14:34:42.349658 13423 layer_factory.hpp:77] Creating layer loss1/classifier_plantvillage
I0403 14:34:42.349675 13423 net.cpp:91] Creating Layer loss1/classifier_plantvillage
I0403 14:34:42.349691 13423 net.cpp:425] loss1/classifier_plantvillage <- loss1/fc
I0403 14:34:42.349714 13423 net.cpp:399] loss1/classifier_plantvillage -> loss1/classifier_plantvillage
I0403 14:34:42.350663 13423 net.cpp:141] Setting up loss1/classifier_plantvillage
I0403 14:34:42.350692 13423 net.cpp:148] Top shape: 24 38 (912)
I0403 14:34:42.350708 13423 net.cpp:156] Memory required for data: 946192992
I0403 14:34:42.350725 13423 layer_factory.hpp:77] Creating layer loss1/classifier_plantvillage_loss1/classifier_plantvillage_0_split
I0403 14:34:42.350744 13423 net.cpp:91] Creating Layer loss1/classifier_plantvillage_loss1/classifier_plantvillage_0_split
I0403 14:34:42.350759 13423 net.cpp:425] loss1/classifier_plantvillage_loss1/classifier_plantvillage_0_split <- loss1/classifier_plantvillage
I0403 14:34:42.350778 13423 net.cpp:399] loss1/classifier_plantvillage_loss1/classifier_plantvillage_0_split -> loss1/classifier_plantvillage_loss1/classifier_plantvillage_0_split_0
I0403 14:34:42.350800 13423 net.cpp:399] loss1/classifier_plantvillage_loss1/classifier_plantvillage_0_split -> loss1/classifier_plantvillage_loss1/classifier_plantvillage_0_split_1
I0403 14:34:42.350819 13423 net.cpp:399] loss1/classifier_plantvillage_loss1/classifier_plantvillage_0_split -> loss1/classifier_plantvillage_loss1/classifier_plantvillage_0_split_2
I0403 14:34:42.350888 13423 net.cpp:141] Setting up loss1/classifier_plantvillage_loss1/classifier_plantvillage_0_split
I0403 14:34:42.350911 13423 net.cpp:148] Top shape: 24 38 (912)
I0403 14:34:42.350927 13423 net.cpp:148] Top shape: 24 38 (912)
I0403 14:34:42.350942 13423 net.cpp:148] Top shape: 24 38 (912)
I0403 14:34:42.350957 13423 net.cpp:156] Memory required for data: 946203936
I0403 14:34:42.350971 13423 layer_factory.hpp:77] Creating layer inception_4b/1x1
I0403 14:34:42.350996 13423 net.cpp:91] Creating Layer inception_4b/1x1
I0403 14:34:42.351035 13423 net.cpp:425] inception_4b/1x1 <- inception_4a/output_inception_4a/output_0_split_1
I0403 14:34:42.351057 13423 net.cpp:399] inception_4b/1x1 -> inception_4b/1x1
I0403 14:34:42.352782 13423 net.cpp:141] Setting up inception_4b/1x1
I0403 14:34:42.352813 13423 net.cpp:148] Top shape: 24 160 14 14 (752640)
I0403 14:34:42.352828 13423 net.cpp:156] Memory required for data: 949214496
I0403 14:34:42.352846 13423 layer_factory.hpp:77] Creating layer inception_4b/relu_1x1
I0403 14:34:42.352869 13423 net.cpp:91] Creating Layer inception_4b/relu_1x1
I0403 14:34:42.352886 13423 net.cpp:425] inception_4b/relu_1x1 <- inception_4b/1x1
I0403 14:34:42.352903 13423 net.cpp:386] inception_4b/relu_1x1 -> inception_4b/1x1 (in-place)
I0403 14:34:42.353094 13423 net.cpp:141] Setting up inception_4b/relu_1x1
I0403 14:34:42.353121 13423 net.cpp:148] Top shape: 24 160 14 14 (752640)
I0403 14:34:42.353137 13423 net.cpp:156] Memory required for data: 952225056
I0403 14:34:42.353152 13423 layer_factory.hpp:77] Creating layer inception_4b/3x3_reduce
I0403 14:34:42.353176 13423 net.cpp:91] Creating Layer inception_4b/3x3_reduce
I0403 14:34:42.353194 13423 net.cpp:425] inception_4b/3x3_reduce <- inception_4a/output_inception_4a/output_0_split_2
I0403 14:34:42.353212 13423 net.cpp:399] inception_4b/3x3_reduce -> inception_4b/3x3_reduce
I0403 14:34:42.354567 13423 net.cpp:141] Setting up inception_4b/3x3_reduce
I0403 14:34:42.354598 13423 net.cpp:148] Top shape: 24 112 14 14 (526848)
I0403 14:34:42.354626 13423 net.cpp:156] Memory required for data: 954332448
I0403 14:34:42.354645 13423 layer_factory.hpp:77] Creating layer inception_4b/relu_3x3_reduce
I0403 14:34:42.354663 13423 net.cpp:91] Creating Layer inception_4b/relu_3x3_reduce
I0403 14:34:42.354678 13423 net.cpp:425] inception_4b/relu_3x3_reduce <- inception_4b/3x3_reduce
I0403 14:34:42.354696 13423 net.cpp:386] inception_4b/relu_3x3_reduce -> inception_4b/3x3_reduce (in-place)
I0403 14:34:42.354980 13423 net.cpp:141] Setting up inception_4b/relu_3x3_reduce
I0403 14:34:42.355008 13423 net.cpp:148] Top shape: 24 112 14 14 (526848)
I0403 14:34:42.355025 13423 net.cpp:156] Memory required for data: 956439840
I0403 14:34:42.355039 13423 layer_factory.hpp:77] Creating layer inception_4b/3x3
I0403 14:34:42.355062 13423 net.cpp:91] Creating Layer inception_4b/3x3
I0403 14:34:42.355079 13423 net.cpp:425] inception_4b/3x3 <- inception_4b/3x3_reduce
I0403 14:34:42.355098 13423 net.cpp:399] inception_4b/3x3 -> inception_4b/3x3
I0403 14:34:42.358080 13423 net.cpp:141] Setting up inception_4b/3x3
I0403 14:34:42.358110 13423 net.cpp:148] Top shape: 24 224 14 14 (1053696)
I0403 14:34:42.358126 13423 net.cpp:156] Memory required for data: 960654624
I0403 14:34:42.358145 13423 layer_factory.hpp:77] Creating layer inception_4b/relu_3x3
I0403 14:34:42.358163 13423 net.cpp:91] Creating Layer inception_4b/relu_3x3
I0403 14:34:42.358178 13423 net.cpp:425] inception_4b/relu_3x3 <- inception_4b/3x3
I0403 14:34:42.358197 13423 net.cpp:386] inception_4b/relu_3x3 -> inception_4b/3x3 (in-place)
I0403 14:34:42.358377 13423 net.cpp:141] Setting up inception_4b/relu_3x3
I0403 14:34:42.358402 13423 net.cpp:148] Top shape: 24 224 14 14 (1053696)
I0403 14:34:42.358417 13423 net.cpp:156] Memory required for data: 964869408
I0403 14:34:42.358431 13423 layer_factory.hpp:77] Creating layer inception_4b/5x5_reduce
I0403 14:34:42.358453 13423 net.cpp:91] Creating Layer inception_4b/5x5_reduce
I0403 14:34:42.358470 13423 net.cpp:425] inception_4b/5x5_reduce <- inception_4a/output_inception_4a/output_0_split_3
I0403 14:34:42.358492 13423 net.cpp:399] inception_4b/5x5_reduce -> inception_4b/5x5_reduce
I0403 14:34:42.359572 13423 net.cpp:141] Setting up inception_4b/5x5_reduce
I0403 14:34:42.359603 13423 net.cpp:148] Top shape: 24 24 14 14 (112896)
I0403 14:34:42.359619 13423 net.cpp:156] Memory required for data: 965320992
I0403 14:34:42.359637 13423 layer_factory.hpp:77] Creating layer inception_4b/relu_5x5_reduce
I0403 14:34:42.359658 13423 net.cpp:91] Creating Layer inception_4b/relu_5x5_reduce
I0403 14:34:42.359689 13423 net.cpp:425] inception_4b/relu_5x5_reduce <- inception_4b/5x5_reduce
I0403 14:34:42.359707 13423 net.cpp:386] inception_4b/relu_5x5_reduce -> inception_4b/5x5_reduce (in-place)
I0403 14:34:42.359890 13423 net.cpp:141] Setting up inception_4b/relu_5x5_reduce
I0403 14:34:42.359917 13423 net.cpp:148] Top shape: 24 24 14 14 (112896)
I0403 14:34:42.359932 13423 net.cpp:156] Memory required for data: 965772576
I0403 14:34:42.359947 13423 layer_factory.hpp:77] Creating layer inception_4b/5x5
I0403 14:34:42.359968 13423 net.cpp:91] Creating Layer inception_4b/5x5
I0403 14:34:42.359985 13423 net.cpp:425] inception_4b/5x5 <- inception_4b/5x5_reduce
I0403 14:34:42.360004 13423 net.cpp:399] inception_4b/5x5 -> inception_4b/5x5
I0403 14:34:42.361218 13423 net.cpp:141] Setting up inception_4b/5x5
I0403 14:34:42.361245 13423 net.cpp:148] Top shape: 24 64 14 14 (301056)
I0403 14:34:42.361263 13423 net.cpp:156] Memory required for data: 966976800
I0403 14:34:42.361289 13423 layer_factory.hpp:77] Creating layer inception_4b/relu_5x5
I0403 14:34:42.361309 13423 net.cpp:91] Creating Layer inception_4b/relu_5x5
I0403 14:34:42.361325 13423 net.cpp:425] inception_4b/relu_5x5 <- inception_4b/5x5
I0403 14:34:42.361341 13423 net.cpp:386] inception_4b/relu_5x5 -> inception_4b/5x5 (in-place)
I0403 14:34:42.361631 13423 net.cpp:141] Setting up inception_4b/relu_5x5
I0403 14:34:42.361657 13423 net.cpp:148] Top shape: 24 64 14 14 (301056)
I0403 14:34:42.361672 13423 net.cpp:156] Memory required for data: 968181024
I0403 14:34:42.361687 13423 layer_factory.hpp:77] Creating layer inception_4b/pool
I0403 14:34:42.361707 13423 net.cpp:91] Creating Layer inception_4b/pool
I0403 14:34:42.361724 13423 net.cpp:425] inception_4b/pool <- inception_4a/output_inception_4a/output_0_split_4
I0403 14:34:42.361742 13423 net.cpp:399] inception_4b/pool -> inception_4b/pool
I0403 14:34:42.361805 13423 net.cpp:141] Setting up inception_4b/pool
I0403 14:34:42.361829 13423 net.cpp:148] Top shape: 24 512 14 14 (2408448)
I0403 14:34:42.361843 13423 net.cpp:156] Memory required for data: 977814816
I0403 14:34:42.361858 13423 layer_factory.hpp:77] Creating layer inception_4b/pool_proj
I0403 14:34:42.361879 13423 net.cpp:91] Creating Layer inception_4b/pool_proj
I0403 14:34:42.361896 13423 net.cpp:425] inception_4b/pool_proj <- inception_4b/pool
I0403 14:34:42.361917 13423 net.cpp:399] inception_4b/pool_proj -> inception_4b/pool_proj
I0403 14:34:42.363113 13423 net.cpp:141] Setting up inception_4b/pool_proj
I0403 14:34:42.363142 13423 net.cpp:148] Top shape: 24 64 14 14 (301056)
I0403 14:34:42.363157 13423 net.cpp:156] Memory required for data: 979019040
I0403 14:34:42.363174 13423 layer_factory.hpp:77] Creating layer inception_4b/relu_pool_proj
I0403 14:34:42.363195 13423 net.cpp:91] Creating Layer inception_4b/relu_pool_proj
I0403 14:34:42.363212 13423 net.cpp:425] inception_4b/relu_pool_proj <- inception_4b/pool_proj
I0403 14:34:42.363229 13423 net.cpp:386] inception_4b/relu_pool_proj -> inception_4b/pool_proj (in-place)
I0403 14:34:42.363406 13423 net.cpp:141] Setting up inception_4b/relu_pool_proj
I0403 14:34:42.363433 13423 net.cpp:148] Top shape: 24 64 14 14 (301056)
I0403 14:34:42.363448 13423 net.cpp:156] Memory required for data: 980223264
I0403 14:34:42.363462 13423 layer_factory.hpp:77] Creating layer inception_4b/output
I0403 14:34:42.363479 13423 net.cpp:91] Creating Layer inception_4b/output
I0403 14:34:42.363493 13423 net.cpp:425] inception_4b/output <- inception_4b/1x1
I0403 14:34:42.363509 13423 net.cpp:425] inception_4b/output <- inception_4b/3x3
I0403 14:34:42.363524 13423 net.cpp:425] inception_4b/output <- inception_4b/5x5
I0403 14:34:42.363539 13423 net.cpp:425] inception_4b/output <- inception_4b/pool_proj
I0403 14:34:42.363556 13423 net.cpp:399] inception_4b/output -> inception_4b/output
I0403 14:34:42.363621 13423 net.cpp:141] Setting up inception_4b/output
I0403 14:34:42.363646 13423 net.cpp:148] Top shape: 24 512 14 14 (2408448)
I0403 14:34:42.363670 13423 net.cpp:156] Memory required for data: 989857056
I0403 14:34:42.363700 13423 layer_factory.hpp:77] Creating layer inception_4b/output_inception_4b/output_0_split
I0403 14:34:42.363723 13423 net.cpp:91] Creating Layer inception_4b/output_inception_4b/output_0_split
I0403 14:34:42.363739 13423 net.cpp:425] inception_4b/output_inception_4b/output_0_split <- inception_4b/output
I0403 14:34:42.363756 13423 net.cpp:399] inception_4b/output_inception_4b/output_0_split -> inception_4b/output_inception_4b/output_0_split_0
I0403 14:34:42.363776 13423 net.cpp:399] inception_4b/output_inception_4b/output_0_split -> inception_4b/output_inception_4b/output_0_split_1
I0403 14:34:42.363796 13423 net.cpp:399] inception_4b/output_inception_4b/output_0_split -> inception_4b/output_inception_4b/output_0_split_2
I0403 14:34:42.363822 13423 net.cpp:399] inception_4b/output_inception_4b/output_0_split -> inception_4b/output_inception_4b/output_0_split_3
I0403 14:34:42.363909 13423 net.cpp:141] Setting up inception_4b/output_inception_4b/output_0_split
I0403 14:34:42.363934 13423 net.cpp:148] Top shape: 24 512 14 14 (2408448)
I0403 14:34:42.363952 13423 net.cpp:148] Top shape: 24 512 14 14 (2408448)
I0403 14:34:42.363967 13423 net.cpp:148] Top shape: 24 512 14 14 (2408448)
I0403 14:34:42.363982 13423 net.cpp:148] Top shape: 24 512 14 14 (2408448)
I0403 14:34:42.363996 13423 net.cpp:156] Memory required for data: 1028392224
I0403 14:34:42.364011 13423 layer_factory.hpp:77] Creating layer inception_4c/1x1
I0403 14:34:42.364032 13423 net.cpp:91] Creating Layer inception_4c/1x1
I0403 14:34:42.364049 13423 net.cpp:425] inception_4c/1x1 <- inception_4b/output_inception_4b/output_0_split_0
I0403 14:34:42.364069 13423 net.cpp:399] inception_4c/1x1 -> inception_4c/1x1
I0403 14:34:42.365552 13423 net.cpp:141] Setting up inception_4c/1x1
I0403 14:34:42.365581 13423 net.cpp:148] Top shape: 24 128 14 14 (602112)
I0403 14:34:42.365602 13423 net.cpp:156] Memory required for data: 1030800672
I0403 14:34:42.365622 13423 layer_factory.hpp:77] Creating layer inception_4c/relu_1x1
I0403 14:34:42.365640 13423 net.cpp:91] Creating Layer inception_4c/relu_1x1
I0403 14:34:42.365656 13423 net.cpp:425] inception_4c/relu_1x1 <- inception_4c/1x1
I0403 14:34:42.365676 13423 net.cpp:386] inception_4c/relu_1x1 -> inception_4c/1x1 (in-place)
I0403 14:34:42.365870 13423 net.cpp:141] Setting up inception_4c/relu_1x1
I0403 14:34:42.365895 13423 net.cpp:148] Top shape: 24 128 14 14 (602112)
I0403 14:34:42.365911 13423 net.cpp:156] Memory required for data: 1033209120
I0403 14:34:42.365926 13423 layer_factory.hpp:77] Creating layer inception_4c/3x3_reduce
I0403 14:34:42.365947 13423 net.cpp:91] Creating Layer inception_4c/3x3_reduce
I0403 14:34:42.365965 13423 net.cpp:425] inception_4c/3x3_reduce <- inception_4b/output_inception_4b/output_0_split_1
I0403 14:34:42.365985 13423 net.cpp:399] inception_4c/3x3_reduce -> inception_4c/3x3_reduce
I0403 14:34:42.367990 13423 net.cpp:141] Setting up inception_4c/3x3_reduce
I0403 14:34:42.368018 13423 net.cpp:148] Top shape: 24 128 14 14 (602112)
I0403 14:34:42.368033 13423 net.cpp:156] Memory required for data: 1035617568
I0403 14:34:42.368052 13423 layer_factory.hpp:77] Creating layer inception_4c/relu_3x3_reduce
I0403 14:34:42.368072 13423 net.cpp:91] Creating Layer inception_4c/relu_3x3_reduce
I0403 14:34:42.368090 13423 net.cpp:425] inception_4c/relu_3x3_reduce <- inception_4c/3x3_reduce
I0403 14:34:42.368108 13423 net.cpp:386] inception_4c/relu_3x3_reduce -> inception_4c/3x3_reduce (in-place)
I0403 14:34:42.368401 13423 net.cpp:141] Setting up inception_4c/relu_3x3_reduce
I0403 14:34:42.368427 13423 net.cpp:148] Top shape: 24 128 14 14 (602112)
I0403 14:34:42.368443 13423 net.cpp:156] Memory required for data: 1038026016
I0403 14:34:42.368458 13423 layer_factory.hpp:77] Creating layer inception_4c/3x3
I0403 14:34:42.368480 13423 net.cpp:91] Creating Layer inception_4c/3x3
I0403 14:34:42.368499 13423 net.cpp:425] inception_4c/3x3 <- inception_4c/3x3_reduce
I0403 14:34:42.368520 13423 net.cpp:399] inception_4c/3x3 -> inception_4c/3x3
I0403 14:34:42.372243 13423 net.cpp:141] Setting up inception_4c/3x3
I0403 14:34:42.372285 13423 net.cpp:148] Top shape: 24 256 14 14 (1204224)
I0403 14:34:42.372303 13423 net.cpp:156] Memory required for data: 1042842912
I0403 14:34:42.372339 13423 layer_factory.hpp:77] Creating layer inception_4c/relu_3x3
I0403 14:34:42.372362 13423 net.cpp:91] Creating Layer inception_4c/relu_3x3
I0403 14:34:42.372380 13423 net.cpp:425] inception_4c/relu_3x3 <- inception_4c/3x3
I0403 14:34:42.372397 13423 net.cpp:386] inception_4c/relu_3x3 -> inception_4c/3x3 (in-place)
I0403 14:34:42.372581 13423 net.cpp:141] Setting up inception_4c/relu_3x3
I0403 14:34:42.372611 13423 net.cpp:148] Top shape: 24 256 14 14 (1204224)
I0403 14:34:42.372627 13423 net.cpp:156] Memory required for data: 1047659808
I0403 14:34:42.372642 13423 layer_factory.hpp:77] Creating layer inception_4c/5x5_reduce
I0403 14:34:42.372664 13423 net.cpp:91] Creating Layer inception_4c/5x5_reduce
I0403 14:34:42.372681 13423 net.cpp:425] inception_4c/5x5_reduce <- inception_4b/output_inception_4b/output_0_split_2
I0403 14:34:42.372704 13423 net.cpp:399] inception_4c/5x5_reduce -> inception_4c/5x5_reduce
I0403 14:34:42.373823 13423 net.cpp:141] Setting up inception_4c/5x5_reduce
I0403 14:34:42.373852 13423 net.cpp:148] Top shape: 24 24 14 14 (112896)
I0403 14:34:42.373867 13423 net.cpp:156] Memory required for data: 1048111392
I0403 14:34:42.373885 13423 layer_factory.hpp:77] Creating layer inception_4c/relu_5x5_reduce
I0403 14:34:42.373906 13423 net.cpp:91] Creating Layer inception_4c/relu_5x5_reduce
I0403 14:34:42.373924 13423 net.cpp:425] inception_4c/relu_5x5_reduce <- inception_4c/5x5_reduce
I0403 14:34:42.373940 13423 net.cpp:386] inception_4c/relu_5x5_reduce -> inception_4c/5x5_reduce (in-place)
I0403 14:34:42.374128 13423 net.cpp:141] Setting up inception_4c/relu_5x5_reduce
I0403 14:34:42.374155 13423 net.cpp:148] Top shape: 24 24 14 14 (112896)
I0403 14:34:42.374171 13423 net.cpp:156] Memory required for data: 1048562976
I0403 14:34:42.374186 13423 layer_factory.hpp:77] Creating layer inception_4c/5x5
I0403 14:34:42.374208 13423 net.cpp:91] Creating Layer inception_4c/5x5
I0403 14:34:42.374227 13423 net.cpp:425] inception_4c/5x5 <- inception_4c/5x5_reduce
I0403 14:34:42.374244 13423 net.cpp:399] inception_4c/5x5 -> inception_4c/5x5
I0403 14:34:42.375525 13423 net.cpp:141] Setting up inception_4c/5x5
I0403 14:34:42.375556 13423 net.cpp:148] Top shape: 24 64 14 14 (301056)
I0403 14:34:42.375572 13423 net.cpp:156] Memory required for data: 1049767200
I0403 14:34:42.375591 13423 layer_factory.hpp:77] Creating layer inception_4c/relu_5x5
I0403 14:34:42.375613 13423 net.cpp:91] Creating Layer inception_4c/relu_5x5
I0403 14:34:42.375630 13423 net.cpp:425] inception_4c/relu_5x5 <- inception_4c/5x5
I0403 14:34:42.375649 13423 net.cpp:386] inception_4c/relu_5x5 -> inception_4c/5x5 (in-place)
I0403 14:34:42.375946 13423 net.cpp:141] Setting up inception_4c/relu_5x5
I0403 14:34:42.375975 13423 net.cpp:148] Top shape: 24 64 14 14 (301056)
I0403 14:34:42.375991 13423 net.cpp:156] Memory required for data: 1050971424
I0403 14:34:42.376008 13423 layer_factory.hpp:77] Creating layer inception_4c/pool
I0403 14:34:42.376025 13423 net.cpp:91] Creating Layer inception_4c/pool
I0403 14:34:42.376041 13423 net.cpp:425] inception_4c/pool <- inception_4b/output_inception_4b/output_0_split_3
I0403 14:34:42.376061 13423 net.cpp:399] inception_4c/pool -> inception_4c/pool
I0403 14:34:42.376129 13423 net.cpp:141] Setting up inception_4c/pool
I0403 14:34:42.376153 13423 net.cpp:148] Top shape: 24 512 14 14 (2408448)
I0403 14:34:42.376168 13423 net.cpp:156] Memory required for data: 1060605216
I0403 14:34:42.376183 13423 layer_factory.hpp:77] Creating layer inception_4c/pool_proj
I0403 14:34:42.376205 13423 net.cpp:91] Creating Layer inception_4c/pool_proj
I0403 14:34:42.376224 13423 net.cpp:425] inception_4c/pool_proj <- inception_4c/pool
I0403 14:34:42.376243 13423 net.cpp:399] inception_4c/pool_proj -> inception_4c/pool_proj
I0403 14:34:42.377490 13423 net.cpp:141] Setting up inception_4c/pool_proj
I0403 14:34:42.377518 13423 net.cpp:148] Top shape: 24 64 14 14 (301056)
I0403 14:34:42.377547 13423 net.cpp:156] Memory required for data: 1061809440
I0403 14:34:42.377567 13423 layer_factory.hpp:77] Creating layer inception_4c/relu_pool_proj
I0403 14:34:42.377588 13423 net.cpp:91] Creating Layer inception_4c/relu_pool_proj
I0403 14:34:42.377607 13423 net.cpp:425] inception_4c/relu_pool_proj <- inception_4c/pool_proj
I0403 14:34:42.377626 13423 net.cpp:386] inception_4c/relu_pool_proj -> inception_4c/pool_proj (in-place)
I0403 14:34:42.377807 13423 net.cpp:141] Setting up inception_4c/relu_pool_proj
I0403 14:34:42.377833 13423 net.cpp:148] Top shape: 24 64 14 14 (301056)
I0403 14:34:42.377849 13423 net.cpp:156] Memory required for data: 1063013664
I0403 14:34:42.377863 13423 layer_factory.hpp:77] Creating layer inception_4c/output
I0403 14:34:42.377881 13423 net.cpp:91] Creating Layer inception_4c/output
I0403 14:34:42.377895 13423 net.cpp:425] inception_4c/output <- inception_4c/1x1
I0403 14:34:42.377910 13423 net.cpp:425] inception_4c/output <- inception_4c/3x3
I0403 14:34:42.377926 13423 net.cpp:425] inception_4c/output <- inception_4c/5x5
I0403 14:34:42.377941 13423 net.cpp:425] inception_4c/output <- inception_4c/pool_proj
I0403 14:34:42.377957 13423 net.cpp:399] inception_4c/output -> inception_4c/output
I0403 14:34:42.378005 13423 net.cpp:141] Setting up inception_4c/output
I0403 14:34:42.378027 13423 net.cpp:148] Top shape: 24 512 14 14 (2408448)
I0403 14:34:42.378041 13423 net.cpp:156] Memory required for data: 1072647456
I0403 14:34:42.378057 13423 layer_factory.hpp:77] Creating layer inception_4c/output_inception_4c/output_0_split
I0403 14:34:42.378074 13423 net.cpp:91] Creating Layer inception_4c/output_inception_4c/output_0_split
I0403 14:34:42.378089 13423 net.cpp:425] inception_4c/output_inception_4c/output_0_split <- inception_4c/output
I0403 14:34:42.378106 13423 net.cpp:399] inception_4c/output_inception_4c/output_0_split -> inception_4c/output_inception_4c/output_0_split_0
I0403 14:34:42.378125 13423 net.cpp:399] inception_4c/output_inception_4c/output_0_split -> inception_4c/output_inception_4c/output_0_split_1
I0403 14:34:42.378145 13423 net.cpp:399] inception_4c/output_inception_4c/output_0_split -> inception_4c/output_inception_4c/output_0_split_2
I0403 14:34:42.378165 13423 net.cpp:399] inception_4c/output_inception_4c/output_0_split -> inception_4c/output_inception_4c/output_0_split_3
I0403 14:34:42.378250 13423 net.cpp:141] Setting up inception_4c/output_inception_4c/output_0_split
I0403 14:34:42.378273 13423 net.cpp:148] Top shape: 24 512 14 14 (2408448)
I0403 14:34:42.378289 13423 net.cpp:148] Top shape: 24 512 14 14 (2408448)
I0403 14:34:42.378304 13423 net.cpp:148] Top shape: 24 512 14 14 (2408448)
I0403 14:34:42.378319 13423 net.cpp:148] Top shape: 24 512 14 14 (2408448)
I0403 14:34:42.378332 13423 net.cpp:156] Memory required for data: 1111182624
I0403 14:34:42.378346 13423 layer_factory.hpp:77] Creating layer inception_4d/1x1
I0403 14:34:42.378367 13423 net.cpp:91] Creating Layer inception_4d/1x1
I0403 14:34:42.378384 13423 net.cpp:425] inception_4d/1x1 <- inception_4c/output_inception_4c/output_0_split_0
I0403 14:34:42.378406 13423 net.cpp:399] inception_4d/1x1 -> inception_4d/1x1
I0403 14:34:42.379792 13423 net.cpp:141] Setting up inception_4d/1x1
I0403 14:34:42.379820 13423 net.cpp:148] Top shape: 24 112 14 14 (526848)
I0403 14:34:42.379835 13423 net.cpp:156] Memory required for data: 1113290016
I0403 14:34:42.379853 13423 layer_factory.hpp:77] Creating layer inception_4d/relu_1x1
I0403 14:34:42.379870 13423 net.cpp:91] Creating Layer inception_4d/relu_1x1
I0403 14:34:42.379885 13423 net.cpp:425] inception_4d/relu_1x1 <- inception_4d/1x1
I0403 14:34:42.379904 13423 net.cpp:386] inception_4d/relu_1x1 -> inception_4d/1x1 (in-place)
I0403 14:34:42.380091 13423 net.cpp:141] Setting up inception_4d/relu_1x1
I0403 14:34:42.380115 13423 net.cpp:148] Top shape: 24 112 14 14 (526848)
I0403 14:34:42.380131 13423 net.cpp:156] Memory required for data: 1115397408
I0403 14:34:42.380146 13423 layer_factory.hpp:77] Creating layer inception_4d/3x3_reduce
I0403 14:34:42.380182 13423 net.cpp:91] Creating Layer inception_4d/3x3_reduce
I0403 14:34:42.380200 13423 net.cpp:425] inception_4d/3x3_reduce <- inception_4c/output_inception_4c/output_0_split_1
I0403 14:34:42.380221 13423 net.cpp:399] inception_4d/3x3_reduce -> inception_4d/3x3_reduce
I0403 14:34:42.381739 13423 net.cpp:141] Setting up inception_4d/3x3_reduce
I0403 14:34:42.381769 13423 net.cpp:148] Top shape: 24 144 14 14 (677376)
I0403 14:34:42.381785 13423 net.cpp:156] Memory required for data: 1118106912
I0403 14:34:42.381803 13423 layer_factory.hpp:77] Creating layer inception_4d/relu_3x3_reduce
I0403 14:34:42.381821 13423 net.cpp:91] Creating Layer inception_4d/relu_3x3_reduce
I0403 14:34:42.381836 13423 net.cpp:425] inception_4d/relu_3x3_reduce <- inception_4d/3x3_reduce
I0403 14:34:42.381855 13423 net.cpp:386] inception_4d/relu_3x3_reduce -> inception_4d/3x3_reduce (in-place)
I0403 14:34:42.382143 13423 net.cpp:141] Setting up inception_4d/relu_3x3_reduce
I0403 14:34:42.382182 13423 net.cpp:148] Top shape: 24 144 14 14 (677376)
I0403 14:34:42.382199 13423 net.cpp:156] Memory required for data: 1120816416
I0403 14:34:42.382211 13423 layer_factory.hpp:77] Creating layer inception_4d/3x3
I0403 14:34:42.382232 13423 net.cpp:91] Creating Layer inception_4d/3x3
I0403 14:34:42.382249 13423 net.cpp:425] inception_4d/3x3 <- inception_4d/3x3_reduce
I0403 14:34:42.382266 13423 net.cpp:399] inception_4d/3x3 -> inception_4d/3x3
I0403 14:34:42.386451 13423 net.cpp:141] Setting up inception_4d/3x3
I0403 14:34:42.386479 13423 net.cpp:148] Top shape: 24 288 14 14 (1354752)
I0403 14:34:42.386494 13423 net.cpp:156] Memory required for data: 1126235424
I0403 14:34:42.386512 13423 layer_factory.hpp:77] Creating layer inception_4d/relu_3x3
I0403 14:34:42.386531 13423 net.cpp:91] Creating Layer inception_4d/relu_3x3
I0403 14:34:42.386548 13423 net.cpp:425] inception_4d/relu_3x3 <- inception_4d/3x3
I0403 14:34:42.386564 13423 net.cpp:386] inception_4d/relu_3x3 -> inception_4d/3x3 (in-place)
I0403 14:34:42.386745 13423 net.cpp:141] Setting up inception_4d/relu_3x3
I0403 14:34:42.386770 13423 net.cpp:148] Top shape: 24 288 14 14 (1354752)
I0403 14:34:42.386783 13423 net.cpp:156] Memory required for data: 1131654432
I0403 14:34:42.386798 13423 layer_factory.hpp:77] Creating layer inception_4d/5x5_reduce
I0403 14:34:42.386822 13423 net.cpp:91] Creating Layer inception_4d/5x5_reduce
I0403 14:34:42.386839 13423 net.cpp:425] inception_4d/5x5_reduce <- inception_4c/output_inception_4c/output_0_split_2
I0403 14:34:42.386857 13423 net.cpp:399] inception_4d/5x5_reduce -> inception_4d/5x5_reduce
I0403 14:34:42.387974 13423 net.cpp:141] Setting up inception_4d/5x5_reduce
I0403 14:34:42.388000 13423 net.cpp:148] Top shape: 24 32 14 14 (150528)
I0403 14:34:42.388015 13423 net.cpp:156] Memory required for data: 1132256544
I0403 14:34:42.388031 13423 layer_factory.hpp:77] Creating layer inception_4d/relu_5x5_reduce
I0403 14:34:42.388048 13423 net.cpp:91] Creating Layer inception_4d/relu_5x5_reduce
I0403 14:34:42.388064 13423 net.cpp:425] inception_4d/relu_5x5_reduce <- inception_4d/5x5_reduce
I0403 14:34:42.388083 13423 net.cpp:386] inception_4d/relu_5x5_reduce -> inception_4d/5x5_reduce (in-place)
I0403 14:34:42.388263 13423 net.cpp:141] Setting up inception_4d/relu_5x5_reduce
I0403 14:34:42.388286 13423 net.cpp:148] Top shape: 24 32 14 14 (150528)
I0403 14:34:42.388301 13423 net.cpp:156] Memory required for data: 1132858656
I0403 14:34:42.388315 13423 layer_factory.hpp:77] Creating layer inception_4d/5x5
I0403 14:34:42.388335 13423 net.cpp:91] Creating Layer inception_4d/5x5
I0403 14:34:42.388352 13423 net.cpp:425] inception_4d/5x5 <- inception_4d/5x5_reduce
I0403 14:34:42.388372 13423 net.cpp:399] inception_4d/5x5 -> inception_4d/5x5
I0403 14:34:42.389823 13423 net.cpp:141] Setting up inception_4d/5x5
I0403 14:34:42.389852 13423 net.cpp:148] Top shape: 24 64 14 14 (301056)
I0403 14:34:42.389866 13423 net.cpp:156] Memory required for data: 1134062880
I0403 14:34:42.389899 13423 layer_factory.hpp:77] Creating layer inception_4d/relu_5x5
I0403 14:34:42.389932 13423 net.cpp:91] Creating Layer inception_4d/relu_5x5
I0403 14:34:42.389948 13423 net.cpp:425] inception_4d/relu_5x5 <- inception_4d/5x5
I0403 14:34:42.389966 13423 net.cpp:386] inception_4d/relu_5x5 -> inception_4d/5x5 (in-place)
I0403 14:34:42.390267 13423 net.cpp:141] Setting up inception_4d/relu_5x5
I0403 14:34:42.390297 13423 net.cpp:148] Top shape: 24 64 14 14 (301056)
I0403 14:34:42.390314 13423 net.cpp:156] Memory required for data: 1135267104
I0403 14:34:42.390328 13423 layer_factory.hpp:77] Creating layer inception_4d/pool
I0403 14:34:42.390347 13423 net.cpp:91] Creating Layer inception_4d/pool
I0403 14:34:42.390362 13423 net.cpp:425] inception_4d/pool <- inception_4c/output_inception_4c/output_0_split_3
I0403 14:34:42.390378 13423 net.cpp:399] inception_4d/pool -> inception_4d/pool
I0403 14:34:42.390445 13423 net.cpp:141] Setting up inception_4d/pool
I0403 14:34:42.390470 13423 net.cpp:148] Top shape: 24 512 14 14 (2408448)
I0403 14:34:42.390485 13423 net.cpp:156] Memory required for data: 1144900896
I0403 14:34:42.390498 13423 layer_factory.hpp:77] Creating layer inception_4d/pool_proj
I0403 14:34:42.390522 13423 net.cpp:91] Creating Layer inception_4d/pool_proj
I0403 14:34:42.390538 13423 net.cpp:425] inception_4d/pool_proj <- inception_4d/pool
I0403 14:34:42.390558 13423 net.cpp:399] inception_4d/pool_proj -> inception_4d/pool_proj
I0403 14:34:42.392325 13423 net.cpp:141] Setting up inception_4d/pool_proj
I0403 14:34:42.392354 13423 net.cpp:148] Top shape: 24 64 14 14 (301056)
I0403 14:34:42.392369 13423 net.cpp:156] Memory required for data: 1146105120
I0403 14:34:42.392386 13423 layer_factory.hpp:77] Creating layer inception_4d/relu_pool_proj
I0403 14:34:42.392406 13423 net.cpp:91] Creating Layer inception_4d/relu_pool_proj
I0403 14:34:42.392422 13423 net.cpp:425] inception_4d/relu_pool_proj <- inception_4d/pool_proj
I0403 14:34:42.392438 13423 net.cpp:386] inception_4d/relu_pool_proj -> inception_4d/pool_proj (in-place)
I0403 14:34:42.392621 13423 net.cpp:141] Setting up inception_4d/relu_pool_proj
I0403 14:34:42.392645 13423 net.cpp:148] Top shape: 24 64 14 14 (301056)
I0403 14:34:42.392659 13423 net.cpp:156] Memory required for data: 1147309344
I0403 14:34:42.392673 13423 layer_factory.hpp:77] Creating layer inception_4d/output
I0403 14:34:42.392691 13423 net.cpp:91] Creating Layer inception_4d/output
I0403 14:34:42.392706 13423 net.cpp:425] inception_4d/output <- inception_4d/1x1
I0403 14:34:42.392722 13423 net.cpp:425] inception_4d/output <- inception_4d/3x3
I0403 14:34:42.392737 13423 net.cpp:425] inception_4d/output <- inception_4d/5x5
I0403 14:34:42.392752 13423 net.cpp:425] inception_4d/output <- inception_4d/pool_proj
I0403 14:34:42.392767 13423 net.cpp:399] inception_4d/output -> inception_4d/output
I0403 14:34:42.392815 13423 net.cpp:141] Setting up inception_4d/output
I0403 14:34:42.392838 13423 net.cpp:148] Top shape: 24 528 14 14 (2483712)
I0403 14:34:42.392851 13423 net.cpp:156] Memory required for data: 1157244192
I0403 14:34:42.392864 13423 layer_factory.hpp:77] Creating layer inception_4d/output_inception_4d/output_0_split
I0403 14:34:42.392881 13423 net.cpp:91] Creating Layer inception_4d/output_inception_4d/output_0_split
I0403 14:34:42.392895 13423 net.cpp:425] inception_4d/output_inception_4d/output_0_split <- inception_4d/output
I0403 14:34:42.392913 13423 net.cpp:399] inception_4d/output_inception_4d/output_0_split -> inception_4d/output_inception_4d/output_0_split_0
I0403 14:34:42.392933 13423 net.cpp:399] inception_4d/output_inception_4d/output_0_split -> inception_4d/output_inception_4d/output_0_split_1
I0403 14:34:42.392953 13423 net.cpp:399] inception_4d/output_inception_4d/output_0_split -> inception_4d/output_inception_4d/output_0_split_2
I0403 14:34:42.392972 13423 net.cpp:399] inception_4d/output_inception_4d/output_0_split -> inception_4d/output_inception_4d/output_0_split_3
I0403 14:34:42.392997 13423 net.cpp:399] inception_4d/output_inception_4d/output_0_split -> inception_4d/output_inception_4d/output_0_split_4
I0403 14:34:42.393095 13423 net.cpp:141] Setting up inception_4d/output_inception_4d/output_0_split
I0403 14:34:42.393128 13423 net.cpp:148] Top shape: 24 528 14 14 (2483712)
I0403 14:34:42.393144 13423 net.cpp:148] Top shape: 24 528 14 14 (2483712)
I0403 14:34:42.393158 13423 net.cpp:148] Top shape: 24 528 14 14 (2483712)
I0403 14:34:42.393173 13423 net.cpp:148] Top shape: 24 528 14 14 (2483712)
I0403 14:34:42.393188 13423 net.cpp:148] Top shape: 24 528 14 14 (2483712)
I0403 14:34:42.393201 13423 net.cpp:156] Memory required for data: 1206918432
I0403 14:34:42.393214 13423 layer_factory.hpp:77] Creating layer loss2/ave_pool
I0403 14:34:42.393230 13423 net.cpp:91] Creating Layer loss2/ave_pool
I0403 14:34:42.393245 13423 net.cpp:425] loss2/ave_pool <- inception_4d/output_inception_4d/output_0_split_0
I0403 14:34:42.393266 13423 net.cpp:399] loss2/ave_pool -> loss2/ave_pool
I0403 14:34:42.393582 13423 net.cpp:141] Setting up loss2/ave_pool
I0403 14:34:42.393611 13423 net.cpp:148] Top shape: 24 528 4 4 (202752)
I0403 14:34:42.393626 13423 net.cpp:156] Memory required for data: 1207729440
I0403 14:34:42.393641 13423 layer_factory.hpp:77] Creating layer loss2/conv
I0403 14:34:42.393662 13423 net.cpp:91] Creating Layer loss2/conv
I0403 14:34:42.393679 13423 net.cpp:425] loss2/conv <- loss2/ave_pool
I0403 14:34:42.393698 13423 net.cpp:399] loss2/conv -> loss2/conv
I0403 14:34:42.395550 13423 net.cpp:141] Setting up loss2/conv
I0403 14:34:42.395577 13423 net.cpp:148] Top shape: 24 128 4 4 (49152)
I0403 14:34:42.395593 13423 net.cpp:156] Memory required for data: 1207926048
I0403 14:34:42.395615 13423 layer_factory.hpp:77] Creating layer loss2/relu_conv
I0403 14:34:42.395634 13423 net.cpp:91] Creating Layer loss2/relu_conv
I0403 14:34:42.395651 13423 net.cpp:425] loss2/relu_conv <- loss2/conv
I0403 14:34:42.395668 13423 net.cpp:386] loss2/relu_conv -> loss2/conv (in-place)
I0403 14:34:42.395944 13423 net.cpp:141] Setting up loss2/relu_conv
I0403 14:34:42.395969 13423 net.cpp:148] Top shape: 24 128 4 4 (49152)
I0403 14:34:42.395984 13423 net.cpp:156] Memory required for data: 1208122656
I0403 14:34:42.395998 13423 layer_factory.hpp:77] Creating layer loss2/fc
I0403 14:34:42.396018 13423 net.cpp:91] Creating Layer loss2/fc
I0403 14:34:42.396034 13423 net.cpp:425] loss2/fc <- loss2/conv
I0403 14:34:42.396054 13423 net.cpp:399] loss2/fc -> loss2/fc
I0403 14:34:42.413226 13423 net.cpp:141] Setting up loss2/fc
I0403 14:34:42.413256 13423 net.cpp:148] Top shape: 24 1024 (24576)
I0403 14:34:42.413271 13423 net.cpp:156] Memory required for data: 1208220960
I0403 14:34:42.413288 13423 layer_factory.hpp:77] Creating layer loss2/relu_fc
I0403 14:34:42.413305 13423 net.cpp:91] Creating Layer loss2/relu_fc
I0403 14:34:42.413321 13423 net.cpp:425] loss2/relu_fc <- loss2/fc
I0403 14:34:42.413338 13423 net.cpp:386] loss2/relu_fc -> loss2/fc (in-place)
I0403 14:34:42.413635 13423 net.cpp:141] Setting up loss2/relu_fc
I0403 14:34:42.413661 13423 net.cpp:148] Top shape: 24 1024 (24576)
I0403 14:34:42.413674 13423 net.cpp:156] Memory required for data: 1208319264
I0403 14:34:42.413688 13423 layer_factory.hpp:77] Creating layer loss2/drop_fc
I0403 14:34:42.413707 13423 net.cpp:91] Creating Layer loss2/drop_fc
I0403 14:34:42.413722 13423 net.cpp:425] loss2/drop_fc <- loss2/fc
I0403 14:34:42.413739 13423 net.cpp:386] loss2/drop_fc -> loss2/fc (in-place)
I0403 14:34:42.413789 13423 net.cpp:141] Setting up loss2/drop_fc
I0403 14:34:42.413816 13423 net.cpp:148] Top shape: 24 1024 (24576)
I0403 14:34:42.413830 13423 net.cpp:156] Memory required for data: 1208417568
I0403 14:34:42.413844 13423 layer_factory.hpp:77] Creating layer loss2/classifier_plantvillage
I0403 14:34:42.413861 13423 net.cpp:91] Creating Layer loss2/classifier_plantvillage
I0403 14:34:42.413875 13423 net.cpp:425] loss2/classifier_plantvillage <- loss2/fc
I0403 14:34:42.413897 13423 net.cpp:399] loss2/classifier_plantvillage -> loss2/classifier_plantvillage
I0403 14:34:42.414289 13423 net.cpp:141] Setting up loss2/classifier_plantvillage
I0403 14:34:42.414312 13423 net.cpp:148] Top shape: 24 38 (912)
I0403 14:34:42.414326 13423 net.cpp:156] Memory required for data: 1208421216
I0403 14:34:42.414360 13423 layer_factory.hpp:77] Creating layer loss2/classifier_plantvillage_loss2/classifier_plantvillage_0_split
I0403 14:34:42.414379 13423 net.cpp:91] Creating Layer loss2/classifier_plantvillage_loss2/classifier_plantvillage_0_split
I0403 14:34:42.414396 13423 net.cpp:425] loss2/classifier_plantvillage_loss2/classifier_plantvillage_0_split <- loss2/classifier_plantvillage
I0403 14:34:42.414414 13423 net.cpp:399] loss2/classifier_plantvillage_loss2/classifier_plantvillage_0_split -> loss2/classifier_plantvillage_loss2/classifier_plantvillage_0_split_0
I0403 14:34:42.414434 13423 net.cpp:399] loss2/classifier_plantvillage_loss2/classifier_plantvillage_0_split -> loss2/classifier_plantvillage_loss2/classifier_plantvillage_0_split_1
I0403 14:34:42.414454 13423 net.cpp:399] loss2/classifier_plantvillage_loss2/classifier_plantvillage_0_split -> loss2/classifier_plantvillage_loss2/classifier_plantvillage_0_split_2
I0403 14:34:42.414528 13423 net.cpp:141] Setting up loss2/classifier_plantvillage_loss2/classifier_plantvillage_0_split
I0403 14:34:42.414551 13423 net.cpp:148] Top shape: 24 38 (912)
I0403 14:34:42.414566 13423 net.cpp:148] Top shape: 24 38 (912)
I0403 14:34:42.414580 13423 net.cpp:148] Top shape: 24 38 (912)
I0403 14:34:42.414593 13423 net.cpp:156] Memory required for data: 1208432160
I0403 14:34:42.414631 13423 layer_factory.hpp:77] Creating layer inception_4e/1x1
I0403 14:34:42.414655 13423 net.cpp:91] Creating Layer inception_4e/1x1
I0403 14:34:42.414674 13423 net.cpp:425] inception_4e/1x1 <- inception_4d/output_inception_4d/output_0_split_1
I0403 14:34:42.414692 13423 net.cpp:399] inception_4e/1x1 -> inception_4e/1x1
I0403 14:34:42.416527 13423 net.cpp:141] Setting up inception_4e/1x1
I0403 14:34:42.416569 13423 net.cpp:148] Top shape: 24 256 14 14 (1204224)
I0403 14:34:42.416585 13423 net.cpp:156] Memory required for data: 1213249056
I0403 14:34:42.416607 13423 layer_factory.hpp:77] Creating layer inception_4e/relu_1x1
I0403 14:34:42.416626 13423 net.cpp:91] Creating Layer inception_4e/relu_1x1
I0403 14:34:42.416641 13423 net.cpp:425] inception_4e/relu_1x1 <- inception_4e/1x1
I0403 14:34:42.416658 13423 net.cpp:386] inception_4e/relu_1x1 -> inception_4e/1x1 (in-place)
I0403 14:34:42.416956 13423 net.cpp:141] Setting up inception_4e/relu_1x1
I0403 14:34:42.416987 13423 net.cpp:148] Top shape: 24 256 14 14 (1204224)
I0403 14:34:42.417003 13423 net.cpp:156] Memory required for data: 1218065952
I0403 14:34:42.417017 13423 layer_factory.hpp:77] Creating layer inception_4e/3x3_reduce
I0403 14:34:42.417039 13423 net.cpp:91] Creating Layer inception_4e/3x3_reduce
I0403 14:34:42.417057 13423 net.cpp:425] inception_4e/3x3_reduce <- inception_4d/output_inception_4d/output_0_split_2
I0403 14:34:42.417074 13423 net.cpp:399] inception_4e/3x3_reduce -> inception_4e/3x3_reduce
I0403 14:34:42.419212 13423 net.cpp:141] Setting up inception_4e/3x3_reduce
I0403 14:34:42.419242 13423 net.cpp:148] Top shape: 24 160 14 14 (752640)
I0403 14:34:42.419257 13423 net.cpp:156] Memory required for data: 1221076512
I0403 14:34:42.419276 13423 layer_factory.hpp:77] Creating layer inception_4e/relu_3x3_reduce
I0403 14:34:42.419298 13423 net.cpp:91] Creating Layer inception_4e/relu_3x3_reduce
I0403 14:34:42.419315 13423 net.cpp:425] inception_4e/relu_3x3_reduce <- inception_4e/3x3_reduce
I0403 14:34:42.419332 13423 net.cpp:386] inception_4e/relu_3x3_reduce -> inception_4e/3x3_reduce (in-place)
I0403 14:34:42.419519 13423 net.cpp:141] Setting up inception_4e/relu_3x3_reduce
I0403 14:34:42.419544 13423 net.cpp:148] Top shape: 24 160 14 14 (752640)
I0403 14:34:42.419559 13423 net.cpp:156] Memory required for data: 1224087072
I0403 14:34:42.419572 13423 layer_factory.hpp:77] Creating layer inception_4e/3x3
I0403 14:34:42.419594 13423 net.cpp:91] Creating Layer inception_4e/3x3
I0403 14:34:42.419615 13423 net.cpp:425] inception_4e/3x3 <- inception_4e/3x3_reduce
I0403 14:34:42.419637 13423 net.cpp:399] inception_4e/3x3 -> inception_4e/3x3
I0403 14:34:42.424661 13423 net.cpp:141] Setting up inception_4e/3x3
I0403 14:34:42.424702 13423 net.cpp:148] Top shape: 24 320 14 14 (1505280)
I0403 14:34:42.424720 13423 net.cpp:156] Memory required for data: 1230108192
I0403 14:34:42.424736 13423 layer_factory.hpp:77] Creating layer inception_4e/relu_3x3
I0403 14:34:42.424754 13423 net.cpp:91] Creating Layer inception_4e/relu_3x3
I0403 14:34:42.424770 13423 net.cpp:425] inception_4e/relu_3x3 <- inception_4e/3x3
I0403 14:34:42.424789 13423 net.cpp:386] inception_4e/relu_3x3 -> inception_4e/3x3 (in-place)
I0403 14:34:42.425093 13423 net.cpp:141] Setting up inception_4e/relu_3x3
I0403 14:34:42.425119 13423 net.cpp:148] Top shape: 24 320 14 14 (1505280)
I0403 14:34:42.425134 13423 net.cpp:156] Memory required for data: 1236129312
I0403 14:34:42.425148 13423 layer_factory.hpp:77] Creating layer inception_4e/5x5_reduce
I0403 14:34:42.425171 13423 net.cpp:91] Creating Layer inception_4e/5x5_reduce
I0403 14:34:42.425189 13423 net.cpp:425] inception_4e/5x5_reduce <- inception_4d/output_inception_4d/output_0_split_3
I0403 14:34:42.425211 13423 net.cpp:399] inception_4e/5x5_reduce -> inception_4e/5x5_reduce
I0403 14:34:42.426296 13423 net.cpp:141] Setting up inception_4e/5x5_reduce
I0403 14:34:42.426326 13423 net.cpp:148] Top shape: 24 32 14 14 (150528)
I0403 14:34:42.426342 13423 net.cpp:156] Memory required for data: 1236731424
I0403 14:34:42.426360 13423 layer_factory.hpp:77] Creating layer inception_4e/relu_5x5_reduce
I0403 14:34:42.426391 13423 net.cpp:91] Creating Layer inception_4e/relu_5x5_reduce
I0403 14:34:42.426408 13423 net.cpp:425] inception_4e/relu_5x5_reduce <- inception_4e/5x5_reduce
I0403 14:34:42.426424 13423 net.cpp:386] inception_4e/relu_5x5_reduce -> inception_4e/5x5_reduce (in-place)
I0403 14:34:42.426741 13423 net.cpp:141] Setting up inception_4e/relu_5x5_reduce
I0403 14:34:42.426770 13423 net.cpp:148] Top shape: 24 32 14 14 (150528)
I0403 14:34:42.426786 13423 net.cpp:156] Memory required for data: 1237333536
I0403 14:34:42.426802 13423 layer_factory.hpp:77] Creating layer inception_4e/5x5
I0403 14:34:42.426841 13423 net.cpp:91] Creating Layer inception_4e/5x5
I0403 14:34:42.426862 13423 net.cpp:425] inception_4e/5x5 <- inception_4e/5x5_reduce
I0403 14:34:42.426883 13423 net.cpp:399] inception_4e/5x5 -> inception_4e/5x5
I0403 14:34:42.428797 13423 net.cpp:141] Setting up inception_4e/5x5
I0403 14:34:42.428827 13423 net.cpp:148] Top shape: 24 128 14 14 (602112)
I0403 14:34:42.428843 13423 net.cpp:156] Memory required for data: 1239741984
I0403 14:34:42.428861 13423 layer_factory.hpp:77] Creating layer inception_4e/relu_5x5
I0403 14:34:42.428882 13423 net.cpp:91] Creating Layer inception_4e/relu_5x5
I0403 14:34:42.428900 13423 net.cpp:425] inception_4e/relu_5x5 <- inception_4e/5x5
I0403 14:34:42.428917 13423 net.cpp:386] inception_4e/relu_5x5 -> inception_4e/5x5 (in-place)
I0403 14:34:42.429122 13423 net.cpp:141] Setting up inception_4e/relu_5x5
I0403 14:34:42.429149 13423 net.cpp:148] Top shape: 24 128 14 14 (602112)
I0403 14:34:42.429165 13423 net.cpp:156] Memory required for data: 1242150432
I0403 14:34:42.429182 13423 layer_factory.hpp:77] Creating layer inception_4e/pool
I0403 14:34:42.429199 13423 net.cpp:91] Creating Layer inception_4e/pool
I0403 14:34:42.429215 13423 net.cpp:425] inception_4e/pool <- inception_4d/output_inception_4d/output_0_split_4
I0403 14:34:42.429235 13423 net.cpp:399] inception_4e/pool -> inception_4e/pool
I0403 14:34:42.429307 13423 net.cpp:141] Setting up inception_4e/pool
I0403 14:34:42.429332 13423 net.cpp:148] Top shape: 24 528 14 14 (2483712)
I0403 14:34:42.429347 13423 net.cpp:156] Memory required for data: 1252085280
I0403 14:34:42.429361 13423 layer_factory.hpp:77] Creating layer inception_4e/pool_proj
I0403 14:34:42.429383 13423 net.cpp:91] Creating Layer inception_4e/pool_proj
I0403 14:34:42.429400 13423 net.cpp:425] inception_4e/pool_proj <- inception_4e/pool
I0403 14:34:42.429421 13423 net.cpp:399] inception_4e/pool_proj -> inception_4e/pool_proj
I0403 14:34:42.431061 13423 net.cpp:141] Setting up inception_4e/pool_proj
I0403 14:34:42.431090 13423 net.cpp:148] Top shape: 24 128 14 14 (602112)
I0403 14:34:42.431120 13423 net.cpp:156] Memory required for data: 1254493728
I0403 14:34:42.431140 13423 layer_factory.hpp:77] Creating layer inception_4e/relu_pool_proj
I0403 14:34:42.431161 13423 net.cpp:91] Creating Layer inception_4e/relu_pool_proj
I0403 14:34:42.431179 13423 net.cpp:425] inception_4e/relu_pool_proj <- inception_4e/pool_proj
I0403 14:34:42.431195 13423 net.cpp:386] inception_4e/relu_pool_proj -> inception_4e/pool_proj (in-place)
I0403 14:34:42.431504 13423 net.cpp:141] Setting up inception_4e/relu_pool_proj
I0403 14:34:42.431531 13423 net.cpp:148] Top shape: 24 128 14 14 (602112)
I0403 14:34:42.431546 13423 net.cpp:156] Memory required for data: 1256902176
I0403 14:34:42.431561 13423 layer_factory.hpp:77] Creating layer inception_4e/output
I0403 14:34:42.431578 13423 net.cpp:91] Creating Layer inception_4e/output
I0403 14:34:42.431593 13423 net.cpp:425] inception_4e/output <- inception_4e/1x1
I0403 14:34:42.431618 13423 net.cpp:425] inception_4e/output <- inception_4e/3x3
I0403 14:34:42.431637 13423 net.cpp:425] inception_4e/output <- inception_4e/5x5
I0403 14:34:42.431653 13423 net.cpp:425] inception_4e/output <- inception_4e/pool_proj
I0403 14:34:42.431669 13423 net.cpp:399] inception_4e/output -> inception_4e/output
I0403 14:34:42.431720 13423 net.cpp:141] Setting up inception_4e/output
I0403 14:34:42.431746 13423 net.cpp:148] Top shape: 24 832 14 14 (3913728)
I0403 14:34:42.431761 13423 net.cpp:156] Memory required for data: 1272557088
I0403 14:34:42.431777 13423 layer_factory.hpp:77] Creating layer pool4/3x3_s2
I0403 14:34:42.431794 13423 net.cpp:91] Creating Layer pool4/3x3_s2
I0403 14:34:42.431809 13423 net.cpp:425] pool4/3x3_s2 <- inception_4e/output
I0403 14:34:42.431830 13423 net.cpp:399] pool4/3x3_s2 -> pool4/3x3_s2
I0403 14:34:42.431900 13423 net.cpp:141] Setting up pool4/3x3_s2
I0403 14:34:42.431927 13423 net.cpp:148] Top shape: 24 832 7 7 (978432)
I0403 14:34:42.431942 13423 net.cpp:156] Memory required for data: 1276470816
I0403 14:34:42.431957 13423 layer_factory.hpp:77] Creating layer pool4/3x3_s2_pool4/3x3_s2_0_split
I0403 14:34:42.431974 13423 net.cpp:91] Creating Layer pool4/3x3_s2_pool4/3x3_s2_0_split
I0403 14:34:42.431990 13423 net.cpp:425] pool4/3x3_s2_pool4/3x3_s2_0_split <- pool4/3x3_s2
I0403 14:34:42.432008 13423 net.cpp:399] pool4/3x3_s2_pool4/3x3_s2_0_split -> pool4/3x3_s2_pool4/3x3_s2_0_split_0
I0403 14:34:42.432026 13423 net.cpp:399] pool4/3x3_s2_pool4/3x3_s2_0_split -> pool4/3x3_s2_pool4/3x3_s2_0_split_1
I0403 14:34:42.432049 13423 net.cpp:399] pool4/3x3_s2_pool4/3x3_s2_0_split -> pool4/3x3_s2_pool4/3x3_s2_0_split_2
I0403 14:34:42.432070 13423 net.cpp:399] pool4/3x3_s2_pool4/3x3_s2_0_split -> pool4/3x3_s2_pool4/3x3_s2_0_split_3
I0403 14:34:42.432165 13423 net.cpp:141] Setting up pool4/3x3_s2_pool4/3x3_s2_0_split
I0403 14:34:42.432189 13423 net.cpp:148] Top shape: 24 832 7 7 (978432)
I0403 14:34:42.432205 13423 net.cpp:148] Top shape: 24 832 7 7 (978432)
I0403 14:34:42.432221 13423 net.cpp:148] Top shape: 24 832 7 7 (978432)
I0403 14:34:42.432236 13423 net.cpp:148] Top shape: 24 832 7 7 (978432)
I0403 14:34:42.432250 13423 net.cpp:156] Memory required for data: 1292125728
I0403 14:34:42.432267 13423 layer_factory.hpp:77] Creating layer inception_5a/1x1
I0403 14:34:42.432301 13423 net.cpp:91] Creating Layer inception_5a/1x1
I0403 14:34:42.432319 13423 net.cpp:425] inception_5a/1x1 <- pool4/3x3_s2_pool4/3x3_s2_0_split_0
I0403 14:34:42.432339 13423 net.cpp:399] inception_5a/1x1 -> inception_5a/1x1
I0403 14:34:42.435232 13423 net.cpp:141] Setting up inception_5a/1x1
I0403 14:34:42.435261 13423 net.cpp:148] Top shape: 24 256 7 7 (301056)
I0403 14:34:42.435277 13423 net.cpp:156] Memory required for data: 1293329952
I0403 14:34:42.435297 13423 layer_factory.hpp:77] Creating layer inception_5a/relu_1x1
I0403 14:34:42.435317 13423 net.cpp:91] Creating Layer inception_5a/relu_1x1
I0403 14:34:42.435333 13423 net.cpp:425] inception_5a/relu_1x1 <- inception_5a/1x1
I0403 14:34:42.435351 13423 net.cpp:386] inception_5a/relu_1x1 -> inception_5a/1x1 (in-place)
I0403 14:34:42.435673 13423 net.cpp:141] Setting up inception_5a/relu_1x1
I0403 14:34:42.435699 13423 net.cpp:148] Top shape: 24 256 7 7 (301056)
I0403 14:34:42.435714 13423 net.cpp:156] Memory required for data: 1294534176
I0403 14:34:42.435729 13423 layer_factory.hpp:77] Creating layer inception_5a/3x3_reduce
I0403 14:34:42.435750 13423 net.cpp:91] Creating Layer inception_5a/3x3_reduce
I0403 14:34:42.435770 13423 net.cpp:425] inception_5a/3x3_reduce <- pool4/3x3_s2_pool4/3x3_s2_0_split_1
I0403 14:34:42.435788 13423 net.cpp:399] inception_5a/3x3_reduce -> inception_5a/3x3_reduce
I0403 14:34:42.438254 13423 net.cpp:141] Setting up inception_5a/3x3_reduce
I0403 14:34:42.438284 13423 net.cpp:148] Top shape: 24 160 7 7 (188160)
I0403 14:34:42.438300 13423 net.cpp:156] Memory required for data: 1295286816
I0403 14:34:42.438318 13423 layer_factory.hpp:77] Creating layer inception_5a/relu_3x3_reduce
I0403 14:34:42.438336 13423 net.cpp:91] Creating Layer inception_5a/relu_3x3_reduce
I0403 14:34:42.438355 13423 net.cpp:425] inception_5a/relu_3x3_reduce <- inception_5a/3x3_reduce
I0403 14:34:42.438372 13423 net.cpp:386] inception_5a/relu_3x3_reduce -> inception_5a/3x3_reduce (in-place)
I0403 14:34:42.438560 13423 net.cpp:141] Setting up inception_5a/relu_3x3_reduce
I0403 14:34:42.438585 13423 net.cpp:148] Top shape: 24 160 7 7 (188160)
I0403 14:34:42.438604 13423 net.cpp:156] Memory required for data: 1296039456
I0403 14:34:42.438619 13423 layer_factory.hpp:77] Creating layer inception_5a/3x3
I0403 14:34:42.438642 13423 net.cpp:91] Creating Layer inception_5a/3x3
I0403 14:34:42.438659 13423 net.cpp:425] inception_5a/3x3 <- inception_5a/3x3_reduce
I0403 14:34:42.438681 13423 net.cpp:399] inception_5a/3x3 -> inception_5a/3x3
I0403 14:34:42.443737 13423 net.cpp:141] Setting up inception_5a/3x3
I0403 14:34:42.443768 13423 net.cpp:148] Top shape: 24 320 7 7 (376320)
I0403 14:34:42.443783 13423 net.cpp:156] Memory required for data: 1297544736
I0403 14:34:42.443801 13423 layer_factory.hpp:77] Creating layer inception_5a/relu_3x3
I0403 14:34:42.443821 13423 net.cpp:91] Creating Layer inception_5a/relu_3x3
I0403 14:34:42.443838 13423 net.cpp:425] inception_5a/relu_3x3 <- inception_5a/3x3
I0403 14:34:42.443856 13423 net.cpp:386] inception_5a/relu_3x3 -> inception_5a/3x3 (in-place)
I0403 14:34:42.444155 13423 net.cpp:141] Setting up inception_5a/relu_3x3
I0403 14:34:42.444181 13423 net.cpp:148] Top shape: 24 320 7 7 (376320)
I0403 14:34:42.444196 13423 net.cpp:156] Memory required for data: 1299050016
I0403 14:34:42.444211 13423 layer_factory.hpp:77] Creating layer inception_5a/5x5_reduce
I0403 14:34:42.444232 13423 net.cpp:91] Creating Layer inception_5a/5x5_reduce
I0403 14:34:42.444250 13423 net.cpp:425] inception_5a/5x5_reduce <- pool4/3x3_s2_pool4/3x3_s2_0_split_2
I0403 14:34:42.444273 13423 net.cpp:399] inception_5a/5x5_reduce -> inception_5a/5x5_reduce
I0403 14:34:42.445467 13423 net.cpp:141] Setting up inception_5a/5x5_reduce
I0403 14:34:42.445495 13423 net.cpp:148] Top shape: 24 32 7 7 (37632)
I0403 14:34:42.445511 13423 net.cpp:156] Memory required for data: 1299200544
I0403 14:34:42.445528 13423 layer_factory.hpp:77] Creating layer inception_5a/relu_5x5_reduce
I0403 14:34:42.445549 13423 net.cpp:91] Creating Layer inception_5a/relu_5x5_reduce
I0403 14:34:42.445565 13423 net.cpp:425] inception_5a/relu_5x5_reduce <- inception_5a/5x5_reduce
I0403 14:34:42.445582 13423 net.cpp:386] inception_5a/relu_5x5_reduce -> inception_5a/5x5_reduce (in-place)
I0403 14:34:42.445890 13423 net.cpp:141] Setting up inception_5a/relu_5x5_reduce
I0403 14:34:42.445916 13423 net.cpp:148] Top shape: 24 32 7 7 (37632)
I0403 14:34:42.445931 13423 net.cpp:156] Memory required for data: 1299351072
I0403 14:34:42.445946 13423 layer_factory.hpp:77] Creating layer inception_5a/5x5
I0403 14:34:42.445969 13423 net.cpp:91] Creating Layer inception_5a/5x5
I0403 14:34:42.445987 13423 net.cpp:425] inception_5a/5x5 <- inception_5a/5x5_reduce
I0403 14:34:42.446005 13423 net.cpp:399] inception_5a/5x5 -> inception_5a/5x5
I0403 14:34:42.447749 13423 net.cpp:141] Setting up inception_5a/5x5
I0403 14:34:42.447790 13423 net.cpp:148] Top shape: 24 128 7 7 (150528)
I0403 14:34:42.447806 13423 net.cpp:156] Memory required for data: 1299953184
I0403 14:34:42.447824 13423 layer_factory.hpp:77] Creating layer inception_5a/relu_5x5
I0403 14:34:42.447845 13423 net.cpp:91] Creating Layer inception_5a/relu_5x5
I0403 14:34:42.447862 13423 net.cpp:425] inception_5a/relu_5x5 <- inception_5a/5x5
I0403 14:34:42.447880 13423 net.cpp:386] inception_5a/relu_5x5 -> inception_5a/5x5 (in-place)
I0403 14:34:42.448072 13423 net.cpp:141] Setting up inception_5a/relu_5x5
I0403 14:34:42.448099 13423 net.cpp:148] Top shape: 24 128 7 7 (150528)
I0403 14:34:42.448114 13423 net.cpp:156] Memory required for data: 1300555296
I0403 14:34:42.448129 13423 layer_factory.hpp:77] Creating layer inception_5a/pool
I0403 14:34:42.448146 13423 net.cpp:91] Creating Layer inception_5a/pool
I0403 14:34:42.448163 13423 net.cpp:425] inception_5a/pool <- pool4/3x3_s2_pool4/3x3_s2_0_split_3
I0403 14:34:42.448182 13423 net.cpp:399] inception_5a/pool -> inception_5a/pool
I0403 14:34:42.448251 13423 net.cpp:141] Setting up inception_5a/pool
I0403 14:34:42.448276 13423 net.cpp:148] Top shape: 24 832 7 7 (978432)
I0403 14:34:42.448289 13423 net.cpp:156] Memory required for data: 1304469024
I0403 14:34:42.448303 13423 layer_factory.hpp:77] Creating layer inception_5a/pool_proj
I0403 14:34:42.448325 13423 net.cpp:91] Creating Layer inception_5a/pool_proj
I0403 14:34:42.448343 13423 net.cpp:425] inception_5a/pool_proj <- inception_5a/pool
I0403 14:34:42.448362 13423 net.cpp:399] inception_5a/pool_proj -> inception_5a/pool_proj
I0403 14:34:42.450657 13423 net.cpp:141] Setting up inception_5a/pool_proj
I0403 14:34:42.450686 13423 net.cpp:148] Top shape: 24 128 7 7 (150528)
I0403 14:34:42.450702 13423 net.cpp:156] Memory required for data: 1305071136
I0403 14:34:42.450719 13423 layer_factory.hpp:77] Creating layer inception_5a/relu_pool_proj
I0403 14:34:42.450741 13423 net.cpp:91] Creating Layer inception_5a/relu_pool_proj
I0403 14:34:42.450757 13423 net.cpp:425] inception_5a/relu_pool_proj <- inception_5a/pool_proj
I0403 14:34:42.450774 13423 net.cpp:386] inception_5a/relu_pool_proj -> inception_5a/pool_proj (in-place)
I0403 14:34:42.451074 13423 net.cpp:141] Setting up inception_5a/relu_pool_proj
I0403 14:34:42.451100 13423 net.cpp:148] Top shape: 24 128 7 7 (150528)
I0403 14:34:42.451115 13423 net.cpp:156] Memory required for data: 1305673248
I0403 14:34:42.451129 13423 layer_factory.hpp:77] Creating layer inception_5a/output
I0403 14:34:42.451146 13423 net.cpp:91] Creating Layer inception_5a/output
I0403 14:34:42.451161 13423 net.cpp:425] inception_5a/output <- inception_5a/1x1
I0403 14:34:42.451179 13423 net.cpp:425] inception_5a/output <- inception_5a/3x3
I0403 14:34:42.451194 13423 net.cpp:425] inception_5a/output <- inception_5a/5x5
I0403 14:34:42.451210 13423 net.cpp:425] inception_5a/output <- inception_5a/pool_proj
I0403 14:34:42.451227 13423 net.cpp:399] inception_5a/output -> inception_5a/output
I0403 14:34:42.451280 13423 net.cpp:141] Setting up inception_5a/output
I0403 14:34:42.451304 13423 net.cpp:148] Top shape: 24 832 7 7 (978432)
I0403 14:34:42.451318 13423 net.cpp:156] Memory required for data: 1309586976
I0403 14:34:42.451333 13423 layer_factory.hpp:77] Creating layer inception_5a/output_inception_5a/output_0_split
I0403 14:34:42.451349 13423 net.cpp:91] Creating Layer inception_5a/output_inception_5a/output_0_split
I0403 14:34:42.451364 13423 net.cpp:425] inception_5a/output_inception_5a/output_0_split <- inception_5a/output
I0403 14:34:42.451383 13423 net.cpp:399] inception_5a/output_inception_5a/output_0_split -> inception_5a/output_inception_5a/output_0_split_0
I0403 14:34:42.451403 13423 net.cpp:399] inception_5a/output_inception_5a/output_0_split -> inception_5a/output_inception_5a/output_0_split_1
I0403 14:34:42.451424 13423 net.cpp:399] inception_5a/output_inception_5a/output_0_split -> inception_5a/output_inception_5a/output_0_split_2
I0403 14:34:42.451443 13423 net.cpp:399] inception_5a/output_inception_5a/output_0_split -> inception_5a/output_inception_5a/output_0_split_3
I0403 14:34:42.451556 13423 net.cpp:141] Setting up inception_5a/output_inception_5a/output_0_split
I0403 14:34:42.451580 13423 net.cpp:148] Top shape: 24 832 7 7 (978432)
I0403 14:34:42.451596 13423 net.cpp:148] Top shape: 24 832 7 7 (978432)
I0403 14:34:42.451617 13423 net.cpp:148] Top shape: 24 832 7 7 (978432)
I0403 14:34:42.451632 13423 net.cpp:148] Top shape: 24 832 7 7 (978432)
I0403 14:34:42.451645 13423 net.cpp:156] Memory required for data: 1325241888
I0403 14:34:42.451659 13423 layer_factory.hpp:77] Creating layer inception_5b/1x1
I0403 14:34:42.451683 13423 net.cpp:91] Creating Layer inception_5b/1x1
I0403 14:34:42.451701 13423 net.cpp:425] inception_5b/1x1 <- inception_5a/output_inception_5a/output_0_split_0
I0403 14:34:42.451719 13423 net.cpp:399] inception_5b/1x1 -> inception_5b/1x1
I0403 14:34:42.455549 13423 net.cpp:141] Setting up inception_5b/1x1
I0403 14:34:42.455579 13423 net.cpp:148] Top shape: 24 384 7 7 (451584)
I0403 14:34:42.455595 13423 net.cpp:156] Memory required for data: 1327048224
I0403 14:34:42.455618 13423 layer_factory.hpp:77] Creating layer inception_5b/relu_1x1
I0403 14:34:42.455641 13423 net.cpp:91] Creating Layer inception_5b/relu_1x1
I0403 14:34:42.455658 13423 net.cpp:425] inception_5b/relu_1x1 <- inception_5b/1x1
I0403 14:34:42.455675 13423 net.cpp:386] inception_5b/relu_1x1 -> inception_5b/1x1 (in-place)
I0403 14:34:42.455981 13423 net.cpp:141] Setting up inception_5b/relu_1x1
I0403 14:34:42.456007 13423 net.cpp:148] Top shape: 24 384 7 7 (451584)
I0403 14:34:42.456022 13423 net.cpp:156] Memory required for data: 1328854560
I0403 14:34:42.456035 13423 layer_factory.hpp:77] Creating layer inception_5b/3x3_reduce
I0403 14:34:42.456058 13423 net.cpp:91] Creating Layer inception_5b/3x3_reduce
I0403 14:34:42.456075 13423 net.cpp:425] inception_5b/3x3_reduce <- inception_5a/output_inception_5a/output_0_split_1
I0403 14:34:42.456096 13423 net.cpp:399] inception_5b/3x3_reduce -> inception_5b/3x3_reduce
I0403 14:34:42.458798 13423 net.cpp:141] Setting up inception_5b/3x3_reduce
I0403 14:34:42.458827 13423 net.cpp:148] Top shape: 24 192 7 7 (225792)
I0403 14:34:42.458843 13423 net.cpp:156] Memory required for data: 1329757728
I0403 14:34:42.458861 13423 layer_factory.hpp:77] Creating layer inception_5b/relu_3x3_reduce
I0403 14:34:42.458879 13423 net.cpp:91] Creating Layer inception_5b/relu_3x3_reduce
I0403 14:34:42.458895 13423 net.cpp:425] inception_5b/relu_3x3_reduce <- inception_5b/3x3_reduce
I0403 14:34:42.458914 13423 net.cpp:386] inception_5b/relu_3x3_reduce -> inception_5b/3x3_reduce (in-place)
I0403 14:34:42.459105 13423 net.cpp:141] Setting up inception_5b/relu_3x3_reduce
I0403 14:34:42.459130 13423 net.cpp:148] Top shape: 24 192 7 7 (225792)
I0403 14:34:42.459144 13423 net.cpp:156] Memory required for data: 1330660896
I0403 14:34:42.459159 13423 layer_factory.hpp:77] Creating layer inception_5b/3x3
I0403 14:34:42.459182 13423 net.cpp:91] Creating Layer inception_5b/3x3
I0403 14:34:42.459197 13423 net.cpp:425] inception_5b/3x3 <- inception_5b/3x3_reduce
I0403 14:34:42.459220 13423 net.cpp:399] inception_5b/3x3 -> inception_5b/3x3
I0403 14:34:42.466009 13423 net.cpp:141] Setting up inception_5b/3x3
I0403 14:34:42.466038 13423 net.cpp:148] Top shape: 24 384 7 7 (451584)
I0403 14:34:42.466054 13423 net.cpp:156] Memory required for data: 1332467232
I0403 14:34:42.466071 13423 layer_factory.hpp:77] Creating layer inception_5b/relu_3x3
I0403 14:34:42.466091 13423 net.cpp:91] Creating Layer inception_5b/relu_3x3
I0403 14:34:42.466109 13423 net.cpp:425] inception_5b/relu_3x3 <- inception_5b/3x3
I0403 14:34:42.466125 13423 net.cpp:386] inception_5b/relu_3x3 -> inception_5b/3x3 (in-place)
I0403 14:34:42.466418 13423 net.cpp:141] Setting up inception_5b/relu_3x3
I0403 14:34:42.466444 13423 net.cpp:148] Top shape: 24 384 7 7 (451584)
I0403 14:34:42.466457 13423 net.cpp:156] Memory required for data: 1334273568
I0403 14:34:42.466472 13423 layer_factory.hpp:77] Creating layer inception_5b/5x5_reduce
I0403 14:34:42.466511 13423 net.cpp:91] Creating Layer inception_5b/5x5_reduce
I0403 14:34:42.466529 13423 net.cpp:425] inception_5b/5x5_reduce <- inception_5a/output_inception_5a/output_0_split_2
I0403 14:34:42.466550 13423 net.cpp:399] inception_5b/5x5_reduce -> inception_5b/5x5_reduce
I0403 14:34:42.467857 13423 net.cpp:141] Setting up inception_5b/5x5_reduce
I0403 14:34:42.467886 13423 net.cpp:148] Top shape: 24 48 7 7 (56448)
I0403 14:34:42.467901 13423 net.cpp:156] Memory required for data: 1334499360
I0403 14:34:42.467919 13423 layer_factory.hpp:77] Creating layer inception_5b/relu_5x5_reduce
I0403 14:34:42.467939 13423 net.cpp:91] Creating Layer inception_5b/relu_5x5_reduce
I0403 14:34:42.467957 13423 net.cpp:425] inception_5b/relu_5x5_reduce <- inception_5b/5x5_reduce
I0403 14:34:42.467973 13423 net.cpp:386] inception_5b/relu_5x5_reduce -> inception_5b/5x5_reduce (in-place)
I0403 14:34:42.468353 13423 net.cpp:141] Setting up inception_5b/relu_5x5_reduce
I0403 14:34:42.468379 13423 net.cpp:148] Top shape: 24 48 7 7 (56448)
I0403 14:34:42.468394 13423 net.cpp:156] Memory required for data: 1334725152
I0403 14:34:42.468408 13423 layer_factory.hpp:77] Creating layer inception_5b/5x5
I0403 14:34:42.468427 13423 net.cpp:91] Creating Layer inception_5b/5x5
I0403 14:34:42.468444 13423 net.cpp:425] inception_5b/5x5 <- inception_5b/5x5_reduce
I0403 14:34:42.468462 13423 net.cpp:399] inception_5b/5x5 -> inception_5b/5x5
I0403 14:34:42.470554 13423 net.cpp:141] Setting up inception_5b/5x5
I0403 14:34:42.470582 13423 net.cpp:148] Top shape: 24 128 7 7 (150528)
I0403 14:34:42.470597 13423 net.cpp:156] Memory required for data: 1335327264
I0403 14:34:42.470620 13423 layer_factory.hpp:77] Creating layer inception_5b/relu_5x5
I0403 14:34:42.470641 13423 net.cpp:91] Creating Layer inception_5b/relu_5x5
I0403 14:34:42.470659 13423 net.cpp:425] inception_5b/relu_5x5 <- inception_5b/5x5
I0403 14:34:42.470675 13423 net.cpp:386] inception_5b/relu_5x5 -> inception_5b/5x5 (in-place)
I0403 14:34:42.470870 13423 net.cpp:141] Setting up inception_5b/relu_5x5
I0403 14:34:42.470897 13423 net.cpp:148] Top shape: 24 128 7 7 (150528)
I0403 14:34:42.470913 13423 net.cpp:156] Memory required for data: 1335929376
I0403 14:34:42.470927 13423 layer_factory.hpp:77] Creating layer inception_5b/pool
I0403 14:34:42.470945 13423 net.cpp:91] Creating Layer inception_5b/pool
I0403 14:34:42.470960 13423 net.cpp:425] inception_5b/pool <- inception_5a/output_inception_5a/output_0_split_3
I0403 14:34:42.470980 13423 net.cpp:399] inception_5b/pool -> inception_5b/pool
I0403 14:34:42.471055 13423 net.cpp:141] Setting up inception_5b/pool
I0403 14:34:42.471078 13423 net.cpp:148] Top shape: 24 832 7 7 (978432)
I0403 14:34:42.471092 13423 net.cpp:156] Memory required for data: 1339843104
I0403 14:34:42.471107 13423 layer_factory.hpp:77] Creating layer inception_5b/pool_proj
I0403 14:34:42.471128 13423 net.cpp:91] Creating Layer inception_5b/pool_proj
I0403 14:34:42.471148 13423 net.cpp:425] inception_5b/pool_proj <- inception_5b/pool
I0403 14:34:42.471166 13423 net.cpp:399] inception_5b/pool_proj -> inception_5b/pool_proj
I0403 14:34:42.473526 13423 net.cpp:141] Setting up inception_5b/pool_proj
I0403 14:34:42.473556 13423 net.cpp:148] Top shape: 24 128 7 7 (150528)
I0403 14:34:42.473572 13423 net.cpp:156] Memory required for data: 1340445216
I0403 14:34:42.473589 13423 layer_factory.hpp:77] Creating layer inception_5b/relu_pool_proj
I0403 14:34:42.473615 13423 net.cpp:91] Creating Layer inception_5b/relu_pool_proj
I0403 14:34:42.473633 13423 net.cpp:425] inception_5b/relu_pool_proj <- inception_5b/pool_proj
I0403 14:34:42.473649 13423 net.cpp:386] inception_5b/relu_pool_proj -> inception_5b/pool_proj (in-place)
I0403 14:34:42.473955 13423 net.cpp:141] Setting up inception_5b/relu_pool_proj
I0403 14:34:42.473981 13423 net.cpp:148] Top shape: 24 128 7 7 (150528)
I0403 14:34:42.473996 13423 net.cpp:156] Memory required for data: 1341047328
I0403 14:34:42.474010 13423 layer_factory.hpp:77] Creating layer inception_5b/output
I0403 14:34:42.474030 13423 net.cpp:91] Creating Layer inception_5b/output
I0403 14:34:42.474061 13423 net.cpp:425] inception_5b/output <- inception_5b/1x1
I0403 14:34:42.474078 13423 net.cpp:425] inception_5b/output <- inception_5b/3x3
I0403 14:34:42.474094 13423 net.cpp:425] inception_5b/output <- inception_5b/5x5
I0403 14:34:42.474109 13423 net.cpp:425] inception_5b/output <- inception_5b/pool_proj
I0403 14:34:42.474126 13423 net.cpp:399] inception_5b/output -> inception_5b/output
I0403 14:34:42.474177 13423 net.cpp:141] Setting up inception_5b/output
I0403 14:34:42.474203 13423 net.cpp:148] Top shape: 24 1024 7 7 (1204224)
I0403 14:34:42.474220 13423 net.cpp:156] Memory required for data: 1345864224
I0403 14:34:42.474233 13423 layer_factory.hpp:77] Creating layer pool5/7x7_s1
I0403 14:34:42.474251 13423 net.cpp:91] Creating Layer pool5/7x7_s1
I0403 14:34:42.474267 13423 net.cpp:425] pool5/7x7_s1 <- inception_5b/output
I0403 14:34:42.474287 13423 net.cpp:399] pool5/7x7_s1 -> pool5/7x7_s1
I0403 14:34:42.474505 13423 net.cpp:141] Setting up pool5/7x7_s1
I0403 14:34:42.474530 13423 net.cpp:148] Top shape: 24 1024 1 1 (24576)
I0403 14:34:42.474545 13423 net.cpp:156] Memory required for data: 1345962528
I0403 14:34:42.474560 13423 layer_factory.hpp:77] Creating layer pool5/drop_7x7_s1
I0403 14:34:42.474580 13423 net.cpp:91] Creating Layer pool5/drop_7x7_s1
I0403 14:34:42.474596 13423 net.cpp:425] pool5/drop_7x7_s1 <- pool5/7x7_s1
I0403 14:34:42.474625 13423 net.cpp:386] pool5/drop_7x7_s1 -> pool5/7x7_s1 (in-place)
I0403 14:34:42.474679 13423 net.cpp:141] Setting up pool5/drop_7x7_s1
I0403 14:34:42.474702 13423 net.cpp:148] Top shape: 24 1024 1 1 (24576)
I0403 14:34:42.474716 13423 net.cpp:156] Memory required for data: 1346060832
I0403 14:34:42.474730 13423 layer_factory.hpp:77] Creating layer loss3/classifier_plantvillage
I0403 14:34:42.474750 13423 net.cpp:91] Creating Layer loss3/classifier_plantvillage
I0403 14:34:42.474768 13423 net.cpp:425] loss3/classifier_plantvillage <- pool5/7x7_s1
I0403 14:34:42.474786 13423 net.cpp:399] loss3/classifier_plantvillage -> loss3/classifier_plantvillage
I0403 14:34:42.475219 13423 net.cpp:141] Setting up loss3/classifier_plantvillage
I0403 14:34:42.475244 13423 net.cpp:148] Top shape: 24 38 (912)
I0403 14:34:42.475260 13423 net.cpp:156] Memory required for data: 1346064480
I0403 14:34:42.475277 13423 layer_factory.hpp:77] Creating layer loss3/classifier_plantvillage_loss3/classifier_plantvillage_0_split
I0403 14:34:42.475296 13423 net.cpp:91] Creating Layer loss3/classifier_plantvillage_loss3/classifier_plantvillage_0_split
I0403 14:34:42.475311 13423 net.cpp:425] loss3/classifier_plantvillage_loss3/classifier_plantvillage_0_split <- loss3/classifier_plantvillage
I0403 14:34:42.475332 13423 net.cpp:399] loss3/classifier_plantvillage_loss3/classifier_plantvillage_0_split -> loss3/classifier_plantvillage_loss3/classifier_plantvillage_0_split_0
I0403 14:34:42.475353 13423 net.cpp:399] loss3/classifier_plantvillage_loss3/classifier_plantvillage_0_split -> loss3/classifier_plantvillage_loss3/classifier_plantvillage_0_split_1
I0403 14:34:42.475371 13423 net.cpp:399] loss3/classifier_plantvillage_loss3/classifier_plantvillage_0_split -> loss3/classifier_plantvillage_loss3/classifier_plantvillage_0_split_2
I0403 14:34:42.475390 13423 net.cpp:399] loss3/classifier_plantvillage_loss3/classifier_plantvillage_0_split -> loss3/classifier_plantvillage_loss3/classifier_plantvillage_0_split_3
I0403 14:34:42.475494 13423 net.cpp:141] Setting up loss3/classifier_plantvillage_loss3/classifier_plantvillage_0_split
I0403 14:34:42.475517 13423 net.cpp:148] Top shape: 24 38 (912)
I0403 14:34:42.475533 13423 net.cpp:148] Top shape: 24 38 (912)
I0403 14:34:42.475548 13423 net.cpp:148] Top shape: 24 38 (912)
I0403 14:34:42.475563 13423 net.cpp:148] Top shape: 24 38 (912)
I0403 14:34:42.475575 13423 net.cpp:156] Memory required for data: 1346079072
I0403 14:34:42.475589 13423 layer_factory.hpp:77] Creating layer loss1/loss
I0403 14:34:42.475616 13423 net.cpp:91] Creating Layer loss1/loss
I0403 14:34:42.475635 13423 net.cpp:425] loss1/loss <- loss1/classifier_plantvillage_loss1/classifier_plantvillage_0_split_0
I0403 14:34:42.475666 13423 net.cpp:425] loss1/loss <- label_data_1_split_0
…
