…
I0403 14:22:17.781378 13199 net.cpp:313] The NetState phase (1) differed from the phase (0) specified by a rule in layer data
I0403 14:22:17.782516 13199 net.cpp:49] Initializing net from parameters: 
state {
  phase: TEST
}
layer {
  name: "data"
  type: "Data"
  top: "data"
  top: "label"
  include {
    phase: TEST
  }
  transform_param {
    mirror: false
    crop_size: 224
    mean_file: "/home/mohanty/data/final_dataset/lmdb/color-40-60/mean.binaryproto"
  }
  data_param {
    source: "/home/mohanty/data/final_dataset/lmdb/color-40-60/test_db"
    batch_size: 24
    backend: LMDB
  }
}
layer {
  name: "conv1/7x7_s2"
  type: "Convolution"
  bottom: "data"
  top: "conv1/7x7_s2"
  param {
    lr_mult: 1
    decay_mult: 1
  }
  param {
    lr_mult: 2
    decay_mult: 0
  }
  convolution_param {
    num_output: 64
    pad: 3
    kernel_size: 7
    stride: 2
    weight_filler {
      type: "xavier"
      std: 0.1
    }
    bias_filler {
      type: "constant"
      value: 0.2
    }
  }
}
layer {
  name: "conv1/relu_7x7"
  type: "ReLU"
  bottom: "conv1/7x7_s2"
  top: "conv1/7x7_s2"
}
layer {
  name: "pool1/3x3_s2"
  type: "Pooling"
  bottom: "conv1/7x7_s2"
  top: "pool1/3x3_s2"
  pooling_param {
    pool: MAX
    kernel_size: 3
    stride: 2
  }
}
layer {
  name: "pool1/norm1"
  type: "LRN"
  bottom: "pool1/3x3_s2"
  top: "pool1/norm1"
  lrn_param {
    local_size: 5
    alpha: 0.0001
    beta: 0.75
  }
}
layer {
  name: "conv2/3x3_reduce"
  type: "Convolution"
  bottom: "pool1/norm1"
  top: "conv2/3x3_reduce"
  param {
    lr_mult: 1
    decay_mult: 1
  }
  param {
    lr_mult: 2
    decay_mult: 0
  }
  convolution_param {
    num_output: 64
    kernel_size: 1
    weight_filler {
      type: "xavier"
      std: 0.1
    }
    bias_filler {
      type: "constant"
      value: 0.2
    }
  }
}
layer {
  name: "conv2/relu_3x3_reduce"
  type: "ReLU"
  bottom: "conv2/3x3_reduce"
  top: "conv2/3x3_reduce"
}
layer {
  name: "conv2/3x3"
  type: "Convolution"
  bottom: "conv2/3x3_reduce"
  top: "conv2/3x3"
  param {
    lr_mult: 1
    decay_mult: 1
  }
  param {
    lr_mult: 2
    decay_mult: 0
  }
  convolution_param {
    num_output: 192
    pad: 1
    kernel_size: 3
    weight_filler {
      type: "xavier"
      std: 0.03
    }
    bias_filler {
      type: "constant"
      value: 0.2
    }
  }
}
layer {
  name: "conv2/relu_3x3"
  type: "ReLU"
  bottom: "conv2/3x3"
  top: "conv2/3x3"
}
layer {
  name: "conv2/norm2"
  type: "LRN"
  bottom: "conv2/3x3"
  top: "conv2/norm2"
  lrn_param {
    local_size: 5
    alpha: 0.0001
    beta: 0.75
  }
}
layer {
  name: "pool2/3x3_s2"
  type: "Pooling"
  bottom: "conv2/norm2"
  top: "pool2/3x3_s2"
  pooling_param {
    pool: MAX
    kernel_size: 3
    stride: 2
  }
}
layer {
  name: "inception_3a/1x1"
  type: "Convolution"
  bottom: "pool2/3x3_s2"
  top: "inception_3a/1x1"
  param {
    lr_mult: 1
    decay_mult: 1
  }
  param {
    lr_mult: 2
    decay_mult: 0
  }
  convolution_param {
    num_output: 64
    kernel_size: 1
    weight_filler {
      type: "xavier"
      std: 0.03
    }
    bias_filler {
      type: "constant"
      value: 0.2
    }
  }
}
layer {
  name: "inception_3a/relu_1x1"
  type: "ReLU"
  bottom: "inception_3a/1x1"
  top: "inception_3a/1x1"
}
layer {
  name: "inception_3a/3x3_reduce"
  type: "Convolution"
  bottom: "pool2/3x3_s2"
  top: "inception_3a/3x3_reduce"
  param {
    lr_mult: 1
    decay_mult: 1
  }
  param {
    lr_mult: 2
    decay_mult: 0
  }
  convolution_param {
    num_output: 96
    kernel_size: 1
    weight_filler {
      type: "xavier"
      std: 0.09
    }
    bias_filler {
      type: "constant"
      value: 0.2
    }
  }
}
layer {
  name: "inception_3a/relu_3x3_reduce"
  type: "ReLU"
  bottom: "inception_3a/3x3_reduce"
  top: "inception_3a/3x3_reduce"
}
layer {
  name: "inception_3a/3x3"
  type: "Convolution"
  bottom: "inception_3a/3x3_reduce"
  top: "inception_3a/3x3"
  param {
    lr_mult: 1
    decay_mult: 1
  }
  param {
    lr_mult: 2
    decay_mult: 0
  }
  convolution_param {
    num_output: 128
    pad: 1
    kernel_size: 3
    weight_filler {
      type: "xavier"
      std: 0.03
    }
    bias_filler {
      type: "constant"
      value: 0.2
    }
  }
}
layer {
  name: "inception_3a/relu_3x3"
  type: "ReLU"
  bottom: "inception_3a/3x3"
  top: "inception_3a/3x3"
}
layer {
  name: "inception_3a/5x5_reduce"
  type: "Convolution"
  bottom: "pool2/3x3_s2"
  top: "inception_3a/5x5_reduce"
  param {
    lr_mult: 1
    decay_mult: 1
  }
  param {
    lr_mult: 2
    decay_mult: 0
  }
  convolution_param {
    num_output: 16
    kernel_size: 1
    weight_filler {
      type: "xavier"
      std: 0.2
    }
    bias_filler {
      type: "constant"
      value: 0.2
    }
  }
}
layer {
  name: "inception_3a/relu_5x5_reduce"
  type: "ReLU"
  bottom: "inception_3a/5x5_reduce"
  top: "inception_3a/5x5_reduce"
}
layer {
  name: "inception_3a/5x5"
  type: "Convolution"
  bottom: "inception_3a/5x5_reduce"
  top: "inception_3a/5x5"
  param {
    lr_mult: 1
    decay_mult: 1
  }
  param {
    lr_mult: 2
    decay_mult: 0
  }
  convolution_param {
    num_output: 32
    pad: 2
    kernel_size: 5
    weight_filler {
      type: "xavier"
      std: 0.03
    }
    bias_filler {
      type: "constant"
      value: 0.2
    }
  }
}
layer {
  name: "inception_3a/relu_5x5"
  type: "ReLU"
  bottom: "inception_3a/5x5"
  top: "inception_3a/5x5"
}
layer {
  name: "inception_3a/pool"
  type: "Pooling"
  bottom: "pool2/3x3_s2"
  top: "inception_3a/pool"
  pooling_param {
    pool: MAX
    kernel_size: 3
    stride: 1
    pad: 1
  }
}
layer {
  name: "inception_3a/pool_proj"
  type: "Convolution"
  bottom: "inception_3a/pool"
  top: "inception_3a/pool_proj"
  param {
    lr_mult: 1
    decay_mult: 1
  }
  param {
    lr_mult: 2
    decay_mult: 0
  }
  convolution_param {
    num_output: 32
    kernel_size: 1
    weight_filler {
      type: "xavier"
      std: 0.1
    }
    bias_filler {
      type: "constant"
      value: 0.2
    }
  }
}
layer {
  name: "inception_3a/relu_pool_proj"
  type: "ReLU"
  bottom: "inception_3a/pool_proj"
  top: "inception_3a/pool_proj"
}
layer {
  name: "inception_3a/output"
  type: "Concat"
  bottom: "inception_3a/1x1"
  bottom: "inception_3a/3x3"
  bottom: "inception_3a/5x5"
  bottom: "inception_3a/pool_proj"
  top: "inception_3a/output"
}
layer {
  name: "inception_3b/1x1"
  type: "Convolution"
  bottom: "inception_3a/output"
  top: "inception_3b/1x1"
  param {
    lr_mult: 1
    decay_mult: 1
  }
  param {
    lr_mult: 2
    decay_mult: 0
  }
  convolution_param {
    num_output: 128
    kernel_size: 1
    weight_filler {
      type: "xavier"
      std: 0.03
    }
    bias_filler {
      type: "constant"
      value: 0.2
    }
  }
}
layer {
  name: "inception_3b/relu_1x1"
  type: "ReLU"
  bottom: "inception_3b/1x1"
  top: "inception_3b/1x1"
}
layer {
  name: "inception_3b/3x3_reduce"
  type: "Convolution"
  bottom: "inception_3a/output"
  top: "inception_3b/3x3_reduce"
  param {
    lr_mult: 1
    decay_mult: 1
  }
  param {
    lr_mult: 2
    decay_mult: 0
  }
  convolution_param {
    num_output: 128
    kernel_size: 1
    weight_filler {
      type: "xavier"
      std: 0.09
    }
    bias_filler {
      type: "constant"
      value: 0.2
    }
  }
}
layer {
  name: "inception_3b/relu_3x3_reduce"
  type: "ReLU"
  bottom: "inception_3b/3x3_reduce"
  top: "inception_3b/3x3_reduce"
}
layer {
  name: "inception_3b/3x3"
  type: "Convolution"
  bottom: "inception_3b/3x3_reduce"
  top: "inception_3b/3x3"
  param {
    lr_mult: 1
    decay_mult: 1
  }
  param {
    lr_mult: 2
    decay_mult: 0
  }
  convolution_param {
    num_output: 192
    pad: 1
    kernel_size: 3
    weight_filler {
      type: "xavier"
      std: 0.03
    }
    bias_filler {
      type: "constant"
      value: 0.2
    }
  }
}
layer {
  name: "inception_3b/relu_3x3"
  type: "ReLU"
  bottom: "inception_3b/3x3"
  top: "inception_3b/3x3"
}
layer {
  name: "inception_3b/5x5_reduce"
  type: "Convolution"
  bottom: "inception_3a/output"
  top: "inception_3b/5x5_reduce"
  param {
    lr_mult: 1
    decay_mult: 1
  }
  param {
    lr_mult: 2
    decay_mult: 0
  }
  convolution_param {
    num_output: 32
    kernel_size: 1
    weight_filler {
      type: "xavier"
      std: 0.2
    }
    bias_filler {
      type: "constant"
      value: 0.2
    }
  }
}
layer {
  name: "inception_3b/relu_5x5_reduce"
  type: "ReLU"
  bottom: "inception_3b/5x5_reduce"
  top: "inception_3b/5x5_reduce"
}
layer {
  name: "inception_3b/5x5"
  type: "Convolution"
  bottom: "inception_3b/5x5_reduce"
  top: "inception_3b/5x5"
  param {
    lr_mult: 1
    decay_mult: 1
  }
  param {
    lr_mult: 2
    decay_mult: 0
  }
  convolution_param {
    num_output: 96
    pad: 2
    kernel_size: 5
    weight_filler {
      type: "xavier"
      std: 0.03
    }
    bias_filler {
      type: "constant"
      value: 0.2
    }
  }
}
layer {
  name: "inception_3b/relu_5x5"
  type: "ReLU"
  bottom: "inception_3b/5x5"
  top: "inception_3b/5x5"
}
layer {
  name: "inception_3b/pool"
  type: "Pooling"
  bottom: "inception_3a/output"
  top: "inception_3b/pool"
  pooling_param {
    pool: MAX
    kernel_size: 3
    stride: 1
    pad: 1
  }
}
layer {
  name: "inception_3b/pool_proj"
  type: "Convolution"
  bottom: "inception_3b/pool"
  top: "inception_3b/pool_proj"
  param {
    lr_mult: 1
    decay_mult: 1
  }
  param {
    lr_mult: 2
    decay_mult: 0
  }
  convolution_param {
    num_output: 64
    kernel_size: 1
    weight_filler {
      type: "xavier"
      std: 0.1
    }
    bias_filler {
      type: "constant"
      value: 0.2
    }
  }
}
layer {
  name: "inception_3b/relu_pool_proj"
  type: "ReLU"
  bottom: "inception_3b/pool_proj"
  top: "inception_3b/pool_proj"
}
layer {
  name: "inception_3b/output"
  type: "Concat"
  bottom: "inception_3b/1x1"
  bottom: "inception_3b/3x3"
  bottom: "inception_3b/5x5"
  bottom: "inception_3b/pool_proj"
  top: "inception_3b/output"
}
layer {
  name: "pool3/3x3_s2"
  type: "Pooling"
  bottom: "inception_3b/output"
  top: "pool3/3x3_s2"
  pooling_param {
    pool: MAX
    kernel_size: 3
    stride: 2
  }
}
layer {
  name: "inception_4a/1x1"
  type: "Convolution"
  bottom: "pool3/3x3_s2"
  top: "inception_4a/1x1"
  param {
    lr_mult: 1
    decay_mult: 1
  }
  param {
    lr_mult: 2
    decay_mult: 0
  }
  convolution_param {
    num_output: 192
    kernel_size: 1
    weight_filler {
      type: "xavier"
      std: 0.03
    }
    bias_filler {
      type: "constant"
      value: 0.2
    }
  }
}
layer {
  name: "inception_4a/relu_1x1"
  type: "ReLU"
  bottom: "inception_4a/1x1"
  top: "inception_4a/1x1"
}
layer {
  name: "inception_4a/3x3_reduce"
  type: "Convolution"
  bottom: "pool3/3x3_s2"
  top: "inception_4a/3x3_reduce"
  param {
    lr_mult: 1
    decay_mult: 1
  }
  param {
    lr_mult: 2
    decay_mult: 0
  }
  convolution_param {
    num_output: 96
    kernel_size: 1
    weight_filler {
      type: "xavier"
      std: 0.09
    }
    bias_filler {
      type: "constant"
      value: 0.2
    }
  }
}
layer {
  name: "inception_4a/relu_3x3_reduce"
  type: "ReLU"
  bottom: "inception_4a/3x3_reduce"
  top: "inception_4a/3x3_reduce"
}
layer {
  name: "inception_4a/3x3"
  type: "Convolution"
  bottom: "inception_4a/3x3_reduce"
  top: "inception_4a/3x3"
  param {
    lr_mult: 1
    decay_mult: 1
  }
  param {
    lr_mult: 2
    decay_mult: 0
  }
  convolution_param {
    num_output: 208
    pad: 1
    kernel_size: 3
    weight_filler {
      type: "xavier"
      std: 0.03
    }
    bias_filler {
      type: "constant"
      value: 0.2
    }
  }
}
layer {
  name: "inception_4a/relu_3x3"
  type: "ReLU"
  bottom: "inception_4a/3x3"
  top: "inception_4a/3x3"
}
layer {
  name: "inception_4a/5x5_reduce"
  type: "Convolution"
  bottom: "pool3/3x3_s2"
  top: "inception_4a/5x5_reduce"
  param {
    lr_mult: 1
    decay_mult: 1
  }
  param {
    lr_mult: 2
    decay_mult: 0
  }
  convolution_param {
    num_output: 16
    kernel_size: 1
    weight_filler {
      type: "xavier"
      std: 0.2
    }
    bias_filler {
      type: "constant"
      value: 0.2
    }
  }
}
layer {
  name: "inception_4a/relu_5x5_reduce"
  type: "ReLU"
  bottom: "inception_4a/5x5_reduce"
  top: "inception_4a/5x5_reduce"
}
layer {
  name: "inception_4a/5x5"
  type: "Convolution"
  bottom: "inception_4a/5x5_reduce"
  top: "inception_4a/5x5"
  param {
    lr_mult: 1
    decay_mult: 1
  }
  param {
    lr_mult: 2
    decay_mult: 0
  }
  convolution_param {
    num_output: 48
    pad: 2
    kernel_size: 5
    weight_filler {
      type: "xavier"
      std: 0.03
    }
    bias_filler {
      type: "constant"
      value: 0.2
    }
  }
}
layer {
  name: "inception_4a/relu_5x5"
  type: "ReLU"
  bottom: "inception_4a/5x5"
  top: "inception_4a/5x5"
}
layer {
  name: "inception_4a/pool"
  type: "Pooling"
  bottom: "pool3/3x3_s2"
  top: "inception_4a/pool"
  pooling_param {
    pool: MAX
    kernel_size: 3
    stride: 1
    pad: 1
  }
}
layer {
  name: "inception_4a/pool_proj"
  type: "Convolution"
  bottom: "inception_4a/pool"
  top: "inception_4a/pool_proj"
  param {
    lr_mult: 1
    decay_mult: 1
  }
  param {
    lr_mult: 2
    decay_mult: 0
  }
  convolution_param {
    num_output: 64
    kernel_size: 1
    weight_filler {
      type: "xavier"
      std: 0.1
    }
    bias_filler {
      type: "constant"
      value: 0.2
    }
  }
}
layer {
  name: "inception_4a/relu_pool_proj"
  type: "ReLU"
  bottom: "inception_4a/pool_proj"
  top: "inception_4a/pool_proj"
}
layer {
  name: "inception_4a/output"
  type: "Concat"
  bottom: "inception_4a/1x1"
  bottom: "inception_4a/3x3"
  bottom: "inception_4a/5x5"
  bottom: "inception_4a/pool_proj"
  top: "inception_4a/output"
}
layer {
  name: "loss1/ave_pool"
  type: "Pooling"
  bottom: "inception_4a/output"
  top: "loss1/ave_pool"
  pooling_param {
    pool: AVE
    kernel_size: 5
    stride: 3
  }
}
layer {
  name: "loss1/conv"
  type: "Convolution"
  bottom: "loss1/ave_pool"
  top: "loss1/conv"
  param {
    lr_mult: 1
    decay_mult: 1
  }
  param {
    lr_mult: 2
    decay_mult: 0
  }
  convolution_param {
    num_output: 128
    kernel_size: 1
    weight_filler {
      type: "xavier"
      std: 0.08
    }
    bias_filler {
      type: "constant"
      value: 0.2
    }
  }
}
layer {
  name: "loss1/relu_conv"
  type: "ReLU"
  bottom: "loss1/conv"
  top: "loss1/conv"
}
layer {
  name: "loss1/fc"
  type: "InnerProduct"
  bottom: "loss1/conv"
  top: "loss1/fc"
  param {
    lr_mult: 1
    decay_mult: 1
  }
  param {
    lr_mult: 2
    decay_mult: 0
  }
  inner_product_param {
    num_output: 1024
    weight_filler {
      type: "xavier"
      std: 0.02
    }
    bias_filler {
      type: "constant"
      value: 0.2
    }
  }
}
layer {
  name: "loss1/relu_fc"
  type: "ReLU"
  bottom: "loss1/fc"
  top: "loss1/fc"
}
layer {
  name: "loss1/drop_fc"
  type: "Dropout"
  bottom: "loss1/fc"
  top: "loss1/fc"
  dropout_param {
    dropout_ratio: 0.7
  }
}
layer {
  name: "loss1/classifier_plantvillage"
  type: "InnerProduct"
  bottom: "loss1/fc"
  top: "loss1/classifier_plantvillage"
  param {
    lr_mult: 1
    decay_mult: 1
  }
  param {
    lr_mult: 2
    decay_mult: 0
  }
  inner_product_param {
    num_output: 38
    weight_filler {
      type: "xavier"
      std: 0.0009765625
    }
    bias_filler {
      type: "constant"
      value: 0
    }
  }
}
layer {
  name: "inception_4b/1x1"
  type: "Convolution"
  bottom: "inception_4a/output"
  top: "inception_4b/1x1"
  param {
    lr_mult: 1
    decay_mult: 1
  }
  param {
    lr_mult: 2
    decay_mult: 0
  }
  convolution_param {
    num_output: 160
    kernel_size: 1
    weight_filler {
      type: "xavier"
      std: 0.03
    }
    bias_filler {
      type: "constant"
      value: 0.2
    }
  }
}
layer {
  name: "inception_4b/relu_1x1"
  type: "ReLU"
  bottom: "inception_4b/1x1"
  top: "inception_4b/1x1"
}
layer {
  name: "inception_4b/3x3_reduce"
  type: "Convolution"
  bottom: "inception_4a/output"
  top: "inception_4b/3x3_reduce"
  param {
    lr_mult: 1
    decay_mult: 1
  }
  param {
    lr_mult: 2
    decay_mult: 0
  }
  convolution_param {
    num_output: 112
    kernel_size: 1
    weight_filler {
      type: "xavier"
      std: 0.09
    }
    bias_filler {
      type: "constant"
      value: 0.2
    }
  }
}
layer {
  name: "inception_4b/relu_3x3_reduce"
  type: "ReLU"
  bottom: "inception_4b/3x3_reduce"
  top: "inception_4b/3x3_reduce"
}
layer {
  name: "inception_4b/3x3"
  type: "Convolution"
  bottom: "inception_4b/3x3_reduce"
  top: "inception_4b/3x3"
  param {
    lr_mult: 1
    decay_mult: 1
  }
  param {
    lr_mult: 2
    decay_mult: 0
  }
  convolution_param {
    num_output: 224
    pad: 1
    kernel_size: 3
    weight_filler {
      type: "xavier"
      std: 0.03
    }
    bias_filler {
      type: "constant"
      value: 0.2
    }
  }
}
layer {
  name: "inception_4b/relu_3x3"
  type: "ReLU"
  bottom: "inception_4b/3x3"
  top: "inception_4b/3x3"
}
layer {
  name: "inception_4b/5x5_reduce"
  type: "Convolution"
  bottom: "inception_4a/output"
  top: "inception_4b/5x5_reduce"
  param {
    lr_mult: 1
    decay_mult: 1
  }
  param {
    lr_mult: 2
    decay_mult: 0
  }
  convolution_param {
    num_output: 24
    kernel_size: 1
    weight_filler {
      type: "xavier"
      std: 0.2
    }
    bias_filler {
      type: "constant"
      value: 0.2
    }
  }
}
layer {
  name: "inception_4b/relu_5x5_reduce"
  type: "ReLU"
  bottom: "inception_4b/5x5_reduce"
  top: "inception_4b/5x5_reduce"
}
layer {
  name: "inception_4b/5x5"
  type: "Convolution"
  bottom: "inception_4b/5x5_reduce"
  top: "inception_4b/5x5"
  param {
    lr_mult: 1
    decay_mult: 1
  }
  param {
    lr_mult: 2
    decay_mult: 0
  }
  convolution_param {
    num_output: 64
    pad: 2
    kernel_size: 5
    weight_filler {
      type: "xavier"
      std: 0.03
    }
    bias_filler {
      type: "constant"
      value: 0.2
    }
  }
}
layer {
  name: "inception_4b/relu_5x5"
  type: "ReLU"
  bottom: "inception_4b/5x5"
  top: "inception_4b/5x5"
}
layer {
  name: "inception_4b/pool"
  type: "Pooling"
  bottom: "inception_4a/output"
  top: "inception_4b/pool"
  pooling_param {
    pool: MAX
    kernel_size: 3
    stride: 1
    pad: 1
  }
}
layer {
  name: "inception_4b/pool_proj"
  type: "Convolution"
  bottom: "inception_4b/pool"
  top: "inception_4b/pool_proj"
  param {
    lr_mult: 1
    decay_mult: 1
  }
  param {
    lr_mult: 2
    decay_mult: 0
  }
  convolution_param {
    num_output: 64
    kernel_size: 1
    weight_filler {
      type: "xavier"
      std: 0.1
    }
    bias_filler {
      type: "constant"
      value: 0.2
    }
  }
}
layer {
  name: "inception_4b/relu_pool_proj"
  type: "ReLU"
  bottom: "inception_4b/pool_proj"
  top: "inception_4b/pool_proj"
}
layer {
  name: "inception_4b/output"
  type: "Concat"
  bottom: "inception_4b/1x1"
  bottom: "inception_4b/3x3"
  bottom: "inception_4b/5x5"
  bottom: "inception_4b/pool_proj"
  top: "inception_4b/output"
}
layer {
  name: "inception_4c/1x1"
  type: "Convolution"
  bottom: "inception_4b/output"
  top: "inception_4c/1x1"
  param {
    lr_mult: 1
    decay_mult: 1
  }
  param {
    lr_mult: 2
    decay_mult: 0
  }
  convolution_param {
    num_output: 128
    kernel_size: 1
    weight_filler {
      type: "xavier"
      std: 0.03
    }
    bias_filler {
      type: "constant"
      value: 0.2
    }
  }
}
layer {
  name: "inception_4c/relu_1x1"
  type: "ReLU"
  bottom: "inception_4c/1x1"
  top: "inception_4c/1x1"
}
layer {
  name: "inception_4c/3x3_reduce"
  type: "Convolution"
  bottom: "inception_4b/output"
  top: "inception_4c/3x3_reduce"
  param {
    lr_mult: 1
    decay_mult: 1
  }
  param {
    lr_mult: 2
    decay_mult: 0
  }
  convolution_param {
    num_output: 128
    kernel_size: 1
    weight_filler {
      type: "xavier"
      std: 0.09
    }
    bias_filler {
      type: "constant"
      value: 0.2
    }
  }
}
layer {
  name: "inception_4c/relu_3x3_reduce"
  type: "ReLU"
  bottom: "inception_4c/3x3_reduce"
  top: "inception_4c/3x3_reduce"
}
layer {
  name: "inception_4c/3x3"
  type: "Convolution"
  bottom: "inception_4c/3x3_reduce"
  top: "inception_4c/3x3"
  param {
    lr_mult: 1
    decay_mult: 1
  }
  param {
    lr_mult: 2
    decay_mult: 0
  }
  convolution_param {
    num_output: 256
    pad: 1
    kernel_size: 3
    weight_filler {
      type: "xavier"
      std: 0.03
    }
    bias_filler {
      type: "constant"
      value: 0.2
    }
  }
}
layer {
  name: "inception_4c/relu_3x3"
  type: "ReLU"
  bottom: "inception_4c/3x3"
  top: "inception_4c/3x3"
}
layer {
  name: "inception_4c/5x5_reduce"
  type: "Convolution"
  bottom: "inception_4b/output"
  top: "inception_4c/5x5_reduce"
  param {
    lr_mult: 1
    decay_mult: 1
  }
  param {
    lr_mult: 2
    decay_mult: 0
  }
  convolution_param {
    num_output: 24
    kernel_size: 1
    weight_filler {
      type: "xavier"
      std: 0.2
    }
    bias_filler {
      type: "constant"
      value: 0.2
    }
  }
}
layer {
  name: "inception_4c/relu_5x5_reduce"
  type: "ReLU"
  bottom: "inception_4c/5x5_reduce"
  top: "inception_4c/5x5_reduce"
}
layer {
  name: "inception_4c/5x5"
  type: "Convolution"
  bottom: "inception_4c/5x5_reduce"
  top: "inception_4c/5x5"
  param {
    lr_mult: 1
    decay_mult: 1
  }
  param {
    lr_mult: 2
    decay_mult: 0
  }
  convolution_param {
    num_output: 64
    pad: 2
    kernel_size: 5
    weight_filler {
      type: "xavier"
      std: 0.03
    }
    bias_filler {
      type: "constant"
      value: 0.2
    }
  }
}
layer {
  name: "inception_4c/relu_5x5"
  type: "ReLU"
  bottom: "inception_4c/5x5"
  top: "inception_4c/5x5"
}
layer {
  name: "inception_4c/pool"
  type: "Pooling"
  bottom: "inception_4b/output"
  top: "inception_4c/pool"
  pooling_param {
    pool: MAX
    kernel_size: 3
    stride: 1
    pad: 1
  }
}
layer {
  name: "inception_4c/pool_proj"
  type: "Convolution"
  bottom: "inception_4c/pool"
  top: "inception_4c/pool_proj"
  param {
    lr_mult: 1
    decay_mult: 1
  }
  param {
    lr_mult: 2
    decay_mult: 0
  }
  convolution_param {
    num_output: 64
    kernel_size: 1
    weight_filler {
      type: "xavier"
      std: 0.1
    }
    bias_filler {
      type: "constant"
      value: 0.2
    }
  }
}
layer {
  name: "inception_4c/relu_pool_proj"
  type: "ReLU"
  bottom: "inception_4c/pool_proj"
  top: "inception_4c/pool_proj"
}
layer {
  name: "inception_4c/output"
  type: "Concat"
  bottom: "inception_4c/1x1"
  bottom: "inception_4c/3x3"
  bottom: "inception_4c/5x5"
  bottom: "inception_4c/pool_proj"
  top: "inception_4c/output"
}
layer {
  name: "inception_4d/1x1"
  type: "Convolution"
  bottom: "inception_4c/output"
  top: "inception_4d/1x1"
  param {
    lr_mult: 1
    decay_mult: 1
  }
  param {
    lr_mult: 2
    decay_mult: 0
  }
  convolution_param {
    num_output: 112
    kernel_size: 1
    weight_filler {
      type: "xavier"
      std: 0.03
    }
    bias_filler {
      type: "constant"
      value: 0.2
    }
  }
}
layer {
  name: "inception_4d/relu_1x1"
  type: "ReLU"
  bottom: "inception_4d/1x1"
  top: "inception_4d/1x1"
}
layer {
  name: "inception_4d/3x3_reduce"
  type: "Convolution"
  bottom: "inception_4c/output"
  top: "inception_4d/3x3_reduce"
  param {
    lr_mult: 1
    decay_mult: 1
  }
  param {
    lr_mult: 2
    decay_mult: 0
  }
  convolution_param {
    num_output: 144
    kernel_size: 1
    weight_filler {
      type: "xavier"
      std: 0.09
    }
    bias_filler {
      type: "constant"
      value: 0.2
    }
  }
}
layer {
  name: "inception_4d/relu_3x3_reduce"
  type: "ReLU"
  bottom: "inception_4d/3x3_reduce"
  top: "inception_4d/3x3_reduce"
}
layer {
  name: "inception_4d/3x3"
  type: "Convolution"
  bottom: "inception_4d/3x3_reduce"
  top: "inception_4d/3x3"
  param {
    lr_mult: 1
    decay_mult: 1
  }
  param {
    lr_mult: 2
    decay_mult: 0
  }
  convolution_param {
    num_output: 288
    pad: 1
    kernel_size: 3
    weight_filler {
      type: "xavier"
      std: 0.03
    }
    bias_filler {
      type: "constant"
      value: 0.2
    }
  }
}
layer {
  name: "inception_4d/relu_3x3"
  type: "ReLU"
  bottom: "inception_4d/3x3"
  top: "inception_4d/3x3"
}
layer {
  name: "inception_4d/5x5_reduce"
  type: "Convolution"
  bottom: "inception_4c/output"
  top: "inception_4d/5x5_reduce"
  param {
    lr_mult: 1
    decay_mult: 1
  }
  param {
    lr_mult: 2
    decay_mult: 0
  }
  convolution_param {
    num_output: 32
    kernel_size: 1
    weight_filler {
      type: "xavier"
      std: 0.2
    }
    bias_filler {
      type: "constant"
      value: 0.2
    }
  }
}
layer {
  name: "inception_4d/relu_5x5_reduce"
  type: "ReLU"
  bottom: "inception_4d/5x5_reduce"
  top: "inception_4d/5x5_reduce"
}
layer {
  name: "inception_4d/5x5"
  type: "Convolution"
  bottom: "inception_4d/5x5_reduce"
  top: "inception_4d/5x5"
  param {
    lr_mult: 1
    decay_mult: 1
  }
  param {
    lr_mult: 2
    decay_mult: 0
  }
  convolution_param {
    num_output: 64
    pad: 2
    kernel_size: 5
    weight_filler {
      type: "xavier"
      std: 0.03
    }
    bias_filler {
      type: "constant"
      value: 0.2
    }
  }
}
layer {
  name: "inception_4d/relu_5x5"
  type: "ReLU"
  bottom: "inception_4d/5x5"
  top: "inception_4d/5x5"
}
layer {
  name: "inception_4d/pool"
  type: "Pooling"
  bottom: "inception_4c/output"
  top: "inception_4d/pool"
  pooling_param {
    pool: MAX
    kernel_size: 3
    stride: 1
    pad: 1
  }
}
layer {
  name: "inception_4d/pool_proj"
  type: "Convolution"
  bottom: "inception_4d/pool"
  top: "inception_4d/pool_proj"
  param {
    lr_mult: 1
    decay_mult: 1
  }
  param {
    lr_mult: 2
    decay_mult: 0
  }
  convolution_param {
    num_output: 64
    kernel_size: 1
    weight_filler {
      type: "xavier"
      std: 0.1
    }
    bias_filler {
      type: "constant"
      value: 0.2
    }
  }
}
layer {
  name: "inception_4d/relu_pool_proj"
  type: "ReLU"
  bottom: "inception_4d/pool_proj"
  top: "inception_4d/pool_proj"
}
layer {
  name: "inception_4d/output"
  type: "Concat"
  bottom: "inception_4d/1x1"
  bottom: "inception_4d/3x3"
  bottom: "inception_4d/5x5"
  bottom: "inception_4d/pool_proj"
  top: "inception_4d/output"
}
layer {
  name: "loss2/ave_pool"
  type: "Pooling"
  bottom: "inception_4d/output"
  top: "loss2/ave_pool"
  pooling_param {
    pool: AVE
    kernel_size: 5
    stride: 3
  }
}
layer {
  name: "loss2/conv"
  type: "Convolution"
  bottom: "loss2/ave_pool"
  top: "loss2/conv"
  param {
    lr_mult: 1
    decay_mult: 1
  }
  param {
    lr_mult: 2
    decay_mult: 0
  }
  convolution_param {
    num_output: 128
    kernel_size: 1
    weight_filler {
      type: "xavier"
      std: 0.08
    }
    bias_filler {
      type: "constant"
      value: 0.2
    }
  }
}
layer {
  name: "loss2/relu_conv"
  type: "ReLU"
  bottom: "loss2/conv"
  top: "loss2/conv"
}
layer {
  name: "loss2/fc"
  type: "InnerProduct"
  bottom: "loss2/conv"
  top: "loss2/fc"
  param {
    lr_mult: 1
    decay_mult: 1
  }
  param {
    lr_mult: 2
    decay_mult: 0
  }
  inner_product_param {
    num_output: 1024
    weight_filler {
      type: "xavier"
      std: 0.02
    }
    bias_filler {
      type: "constant"
      value: 0.2
    }
  }
}
layer {
  name: "loss2/relu_fc"
  type: "ReLU"
  bottom: "loss2/fc"
  top: "loss2/fc"
}
layer {
  name: "loss2/drop_fc"
  type: "Dropout"
  bottom: "loss2/fc"
  top: "loss2/fc"
  dropout_param {
    dropout_ratio: 0.7
  }
}
layer {
  name: "loss2/classifier_plantvillage"
  type: "InnerProduct"
  bottom: "loss2/fc"
  top: "loss2/classifier_plantvillage"
  param {
    lr_mult: 1
    decay_mult: 1
  }
  param {
    lr_mult: 2
    decay_mult: 0
  }
  inner_product_param {
    num_output: 38
    weight_filler {
      type: "xavier"
      std: 0.0009765625
    }
    bias_filler {
      type: "constant"
      value: 0
    }
  }
}
layer {
  name: "inception_4e/1x1"
  type: "Convolution"
  bottom: "inception_4d/output"
  top: "inception_4e/1x1"
  param {
    lr_mult: 1
    decay_mult: 1
  }
  param {
    lr_mult: 2
    decay_mult: 0
  }
  convolution_param {
    num_output: 256
    kernel_size: 1
    weight_filler {
      type: "xavier"
      std: 0.03
    }
    bias_filler {
      type: "constant"
      value: 0.2
    }
  }
}
layer {
  name: "inception_4e/relu_1x1"
  type: "ReLU"
  bottom: "inception_4e/1x1"
  top: "inception_4e/1x1"
}
layer {
  name: "inception_4e/3x3_reduce"
  type: "Convolution"
  bottom: "inception_4d/output"
  top: "inception_4e/3x3_reduce"
  param {
    lr_mult: 1
    decay_mult: 1
  }
  param {
    lr_mult: 2
    decay_mult: 0
  }
  convolution_param {
    num_output: 160
    kernel_size: 1
    weight_filler {
      type: "xavier"
      std: 0.09
    }
    bias_filler {
      type: "constant"
      value: 0.2
    }
  }
}
layer {
  name: "inception_4e/relu_3x3_reduce"
  type: "ReLU"
  bottom: "inception_4e/3x3_reduce"
  top: "inception_4e/3x3_reduce"
}
layer {
  name: "inception_4e/3x3"
  type: "Convolution"
  bottom: "inception_4e/3x3_reduce"
  top: "inception_4e/3x3"
  param {
    lr_mult: 1
    decay_mult: 1
  }
  param {
    lr_mult: 2
    decay_mult: 0
  }
  convolution_param {
    num_output: 320
    pad: 1
    kernel_size: 3
    weight_filler {
      type: "xavier"
      std: 0.03
    }
    bias_filler {
      type: "constant"
      value: 0.2
    }
  }
}
layer {
  name: "inception_4e/relu_3x3"
  type: "ReLU"
  bottom: "inception_4e/3x3"
  top: "inception_4e/3x3"
}
layer {
  name: "inception_4e/5x5_reduce"
  type: "Convolution"
  bottom: "inception_4d/output"
  top: "inception_4e/5x5_reduce"
  param {
    lr_mult: 1
    decay_mult: 1
  }
  param {
    lr_mult: 2
    decay_mult: 0
  }
  convolution_param {
    num_output: 32
    kernel_size: 1
    weight_filler {
      type: "xavier"
      std: 0.2
    }
    bias_filler {
      type: "constant"
      value: 0.2
    }
  }
}
layer {
  name: "inception_4e/relu_5x5_reduce"
  type: "ReLU"
  bottom: "inception_4e/5x5_reduce"
  top: "inception_4e/5x5_reduce"
}
layer {
  name: "inception_4e/5x5"
  type: "Convolution"
  bottom: "inception_4e/5x5_reduce"
  top: "inception_4e/5x5"
  p
I0403 14:22:17.783727 13199 layer_factory.hpp:77] Creating layer data
I0403 14:22:17.784317 13199 net.cpp:91] Creating Layer data
I0403 14:22:17.784348 13199 net.cpp:399] data -> data
I0403 14:22:17.784399 13199 net.cpp:399] data -> label
I0403 14:22:17.784435 13199 data_transformer.cpp:25] Loading mean file from: /home/mohanty/data/final_dataset/lmdb/color-40-60/mean.binaryproto
I0403 14:22:17.786788 13202 db_lmdb.cpp:38] Opened lmdb /home/mohanty/data/final_dataset/lmdb/color-40-60/test_db
I0403 14:22:17.797760 13199 data_layer.cpp:41] output data size: 24,3,224,224
I0403 14:22:17.825223 13199 net.cpp:141] Setting up data
I0403 14:22:17.825310 13199 net.cpp:148] Top shape: 24 3 224 224 (3612672)
I0403 14:22:17.825333 13199 net.cpp:148] Top shape: 24 (24)
I0403 14:22:17.825350 13199 net.cpp:156] Memory required for data: 14450784
I0403 14:22:17.825376 13199 layer_factory.hpp:77] Creating layer label_data_1_split
I0403 14:22:17.825402 13199 net.cpp:91] Creating Layer label_data_1_split
I0403 14:22:17.825422 13199 net.cpp:425] label_data_1_split <- label
I0403 14:22:17.825453 13199 net.cpp:399] label_data_1_split -> label_data_1_split_0
I0403 14:22:17.825480 13199 net.cpp:399] label_data_1_split -> label_data_1_split_1
I0403 14:22:17.825502 13199 net.cpp:399] label_data_1_split -> label_data_1_split_2
I0403 14:22:17.825525 13199 net.cpp:399] label_data_1_split -> label_data_1_split_3
I0403 14:22:17.825543 13199 net.cpp:399] label_data_1_split -> label_data_1_split_4
I0403 14:22:17.825563 13199 net.cpp:399] label_data_1_split -> label_data_1_split_5
I0403 14:22:17.825588 13199 net.cpp:399] label_data_1_split -> label_data_1_split_6
I0403 14:22:17.825611 13199 net.cpp:399] label_data_1_split -> label_data_1_split_7
I0403 14:22:17.825631 13199 net.cpp:399] label_data_1_split -> label_data_1_split_8
I0403 14:22:17.825651 13199 net.cpp:399] label_data_1_split -> label_data_1_split_9
I0403 14:22:17.825767 13199 net.cpp:141] Setting up label_data_1_split
I0403 14:22:17.825790 13199 net.cpp:148] Top shape: 24 (24)
I0403 14:22:17.825808 13199 net.cpp:148] Top shape: 24 (24)
I0403 14:22:17.825824 13199 net.cpp:148] Top shape: 24 (24)
I0403 14:22:17.825840 13199 net.cpp:148] Top shape: 24 (24)
I0403 14:22:17.825856 13199 net.cpp:148] Top shape: 24 (24)
I0403 14:22:17.825872 13199 net.cpp:148] Top shape: 24 (24)
I0403 14:22:17.825888 13199 net.cpp:148] Top shape: 24 (24)
I0403 14:22:17.825903 13199 net.cpp:148] Top shape: 24 (24)
I0403 14:22:17.825919 13199 net.cpp:148] Top shape: 24 (24)
I0403 14:22:17.825937 13199 net.cpp:148] Top shape: 24 (24)
I0403 14:22:17.825984 13199 net.cpp:156] Memory required for data: 14451744
I0403 14:22:17.826001 13199 layer_factory.hpp:77] Creating layer conv1/7x7_s2
I0403 14:22:17.826033 13199 net.cpp:91] Creating Layer conv1/7x7_s2
I0403 14:22:17.826052 13199 net.cpp:425] conv1/7x7_s2 <- data
I0403 14:22:17.826072 13199 net.cpp:399] conv1/7x7_s2 -> conv1/7x7_s2
I0403 14:22:17.968009 13199 net.cpp:141] Setting up conv1/7x7_s2
I0403 14:22:17.968086 13199 net.cpp:148] Top shape: 24 64 112 112 (19267584)
I0403 14:22:17.968102 13199 net.cpp:156] Memory required for data: 91522080
I0403 14:22:17.968132 13199 layer_factory.hpp:77] Creating layer conv1/relu_7x7
I0403 14:22:17.968159 13199 net.cpp:91] Creating Layer conv1/relu_7x7
I0403 14:22:17.968178 13199 net.cpp:425] conv1/relu_7x7 <- conv1/7x7_s2
I0403 14:22:17.968196 13199 net.cpp:386] conv1/relu_7x7 -> conv1/7x7_s2 (in-place)
I0403 14:22:17.968477 13199 net.cpp:141] Setting up conv1/relu_7x7
I0403 14:22:17.968503 13199 net.cpp:148] Top shape: 24 64 112 112 (19267584)
I0403 14:22:17.968518 13199 net.cpp:156] Memory required for data: 168592416
I0403 14:22:17.968534 13199 layer_factory.hpp:77] Creating layer pool1/3x3_s2
I0403 14:22:17.968559 13199 net.cpp:91] Creating Layer pool1/3x3_s2
I0403 14:22:17.968581 13199 net.cpp:425] pool1/3x3_s2 <- conv1/7x7_s2
I0403 14:22:17.968600 13199 net.cpp:399] pool1/3x3_s2 -> pool1/3x3_s2
I0403 14:22:17.968673 13199 net.cpp:141] Setting up pool1/3x3_s2
I0403 14:22:17.968698 13199 net.cpp:148] Top shape: 24 64 56 56 (4816896)
I0403 14:22:17.968713 13199 net.cpp:156] Memory required for data: 187860000
I0403 14:22:17.968729 13199 layer_factory.hpp:77] Creating layer pool1/norm1
I0403 14:22:17.968752 13199 net.cpp:91] Creating Layer pool1/norm1
I0403 14:22:17.968770 13199 net.cpp:425] pool1/norm1 <- pool1/3x3_s2
I0403 14:22:17.968789 13199 net.cpp:399] pool1/norm1 -> pool1/norm1
I0403 14:22:17.969069 13199 net.cpp:141] Setting up pool1/norm1
I0403 14:22:17.969096 13199 net.cpp:148] Top shape: 24 64 56 56 (4816896)
I0403 14:22:17.969111 13199 net.cpp:156] Memory required for data: 207127584
I0403 14:22:17.969126 13199 layer_factory.hpp:77] Creating layer conv2/3x3_reduce
I0403 14:22:17.969151 13199 net.cpp:91] Creating Layer conv2/3x3_reduce
I0403 14:22:17.969167 13199 net.cpp:425] conv2/3x3_reduce <- pool1/norm1
I0403 14:22:17.969185 13199 net.cpp:399] conv2/3x3_reduce -> conv2/3x3_reduce
I0403 14:22:17.970532 13199 net.cpp:141] Setting up conv2/3x3_reduce
I0403 14:22:17.970561 13199 net.cpp:148] Top shape: 24 64 56 56 (4816896)
I0403 14:22:17.970582 13199 net.cpp:156] Memory required for data: 226395168
I0403 14:22:17.970604 13199 layer_factory.hpp:77] Creating layer conv2/relu_3x3_reduce
I0403 14:22:17.970623 13199 net.cpp:91] Creating Layer conv2/relu_3x3_reduce
I0403 14:22:17.970639 13199 net.cpp:425] conv2/relu_3x3_reduce <- conv2/3x3_reduce
I0403 14:22:17.970656 13199 net.cpp:386] conv2/relu_3x3_reduce -> conv2/3x3_reduce (in-place)
I0403 14:22:17.970914 13199 net.cpp:141] Setting up conv2/relu_3x3_reduce
I0403 14:22:17.970940 13199 net.cpp:148] Top shape: 24 64 56 56 (4816896)
I0403 14:22:17.970955 13199 net.cpp:156] Memory required for data: 245662752
I0403 14:22:17.970970 13199 layer_factory.hpp:77] Creating layer conv2/3x3
I0403 14:22:17.970995 13199 net.cpp:91] Creating Layer conv2/3x3
I0403 14:22:17.971014 13199 net.cpp:425] conv2/3x3 <- conv2/3x3_reduce
I0403 14:22:17.971031 13199 net.cpp:399] conv2/3x3 -> conv2/3x3
I0403 14:22:17.973309 13199 net.cpp:141] Setting up conv2/3x3
I0403 14:22:17.973337 13199 net.cpp:148] Top shape: 24 192 56 56 (14450688)
I0403 14:22:17.973354 13199 net.cpp:156] Memory required for data: 303465504
I0403 14:22:17.973376 13199 layer_factory.hpp:77] Creating layer conv2/relu_3x3
I0403 14:22:17.973398 13199 net.cpp:91] Creating Layer conv2/relu_3x3
I0403 14:22:17.973417 13199 net.cpp:425] conv2/relu_3x3 <- conv2/3x3
I0403 14:22:17.973433 13199 net.cpp:386] conv2/relu_3x3 -> conv2/3x3 (in-place)
I0403 14:22:17.973611 13199 net.cpp:141] Setting up conv2/relu_3x3
I0403 14:22:17.973636 13199 net.cpp:148] Top shape: 24 192 56 56 (14450688)
I0403 14:22:17.973685 13199 net.cpp:156] Memory required for data: 361268256
I0403 14:22:17.973701 13199 layer_factory.hpp:77] Creating layer conv2/norm2
I0403 14:22:17.973722 13199 net.cpp:91] Creating Layer conv2/norm2
I0403 14:22:17.973739 13199 net.cpp:425] conv2/norm2 <- conv2/3x3
I0403 14:22:17.973757 13199 net.cpp:399] conv2/norm2 -> conv2/norm2
I0403 14:22:17.974057 13199 net.cpp:141] Setting up conv2/norm2
I0403 14:22:17.974084 13199 net.cpp:148] Top shape: 24 192 56 56 (14450688)
I0403 14:22:17.974099 13199 net.cpp:156] Memory required for data: 419071008
I0403 14:22:17.974114 13199 layer_factory.hpp:77] Creating layer pool2/3x3_s2
I0403 14:22:17.974134 13199 net.cpp:91] Creating Layer pool2/3x3_s2
I0403 14:22:17.974151 13199 net.cpp:425] pool2/3x3_s2 <- conv2/norm2
I0403 14:22:17.974169 13199 net.cpp:399] pool2/3x3_s2 -> pool2/3x3_s2
I0403 14:22:17.974222 13199 net.cpp:141] Setting up pool2/3x3_s2
I0403 14:22:17.974246 13199 net.cpp:148] Top shape: 24 192 28 28 (3612672)
I0403 14:22:17.974261 13199 net.cpp:156] Memory required for data: 433521696
I0403 14:22:17.974277 13199 layer_factory.hpp:77] Creating layer pool2/3x3_s2_pool2/3x3_s2_0_split
I0403 14:22:17.974293 13199 net.cpp:91] Creating Layer pool2/3x3_s2_pool2/3x3_s2_0_split
I0403 14:22:17.974308 13199 net.cpp:425] pool2/3x3_s2_pool2/3x3_s2_0_split <- pool2/3x3_s2
I0403 14:22:17.974328 13199 net.cpp:399] pool2/3x3_s2_pool2/3x3_s2_0_split -> pool2/3x3_s2_pool2/3x3_s2_0_split_0
I0403 14:22:17.974349 13199 net.cpp:399] pool2/3x3_s2_pool2/3x3_s2_0_split -> pool2/3x3_s2_pool2/3x3_s2_0_split_1
I0403 14:22:17.974370 13199 net.cpp:399] pool2/3x3_s2_pool2/3x3_s2_0_split -> pool2/3x3_s2_pool2/3x3_s2_0_split_2
I0403 14:22:17.974388 13199 net.cpp:399] pool2/3x3_s2_pool2/3x3_s2_0_split -> pool2/3x3_s2_pool2/3x3_s2_0_split_3
I0403 14:22:17.974457 13199 net.cpp:141] Setting up pool2/3x3_s2_pool2/3x3_s2_0_split
I0403 14:22:17.974483 13199 net.cpp:148] Top shape: 24 192 28 28 (3612672)
I0403 14:22:17.974499 13199 net.cpp:148] Top shape: 24 192 28 28 (3612672)
I0403 14:22:17.974515 13199 net.cpp:148] Top shape: 24 192 28 28 (3612672)
I0403 14:22:17.974531 13199 net.cpp:148] Top shape: 24 192 28 28 (3612672)
I0403 14:22:17.974545 13199 net.cpp:156] Memory required for data: 491324448
I0403 14:22:17.974560 13199 layer_factory.hpp:77] Creating layer inception_3a/1x1
I0403 14:22:17.974594 13199 net.cpp:91] Creating Layer inception_3a/1x1
I0403 14:22:17.974613 13199 net.cpp:425] inception_3a/1x1 <- pool2/3x3_s2_pool2/3x3_s2_0_split_0
I0403 14:22:17.974632 13199 net.cpp:399] inception_3a/1x1 -> inception_3a/1x1
I0403 14:22:17.976145 13199 net.cpp:141] Setting up inception_3a/1x1
I0403 14:22:17.976172 13199 net.cpp:148] Top shape: 24 64 28 28 (1204224)
I0403 14:22:17.976189 13199 net.cpp:156] Memory required for data: 496141344
I0403 14:22:17.976208 13199 layer_factory.hpp:77] Creating layer inception_3a/relu_1x1
I0403 14:22:17.976228 13199 net.cpp:91] Creating Layer inception_3a/relu_1x1
I0403 14:22:17.976246 13199 net.cpp:425] inception_3a/relu_1x1 <- inception_3a/1x1
I0403 14:22:17.976265 13199 net.cpp:386] inception_3a/relu_1x1 -> inception_3a/1x1 (in-place)
I0403 14:22:17.976438 13199 net.cpp:141] Setting up inception_3a/relu_1x1
I0403 14:22:17.976464 13199 net.cpp:148] Top shape: 24 64 28 28 (1204224)
I0403 14:22:17.976480 13199 net.cpp:156] Memory required for data: 500958240
I0403 14:22:17.976495 13199 layer_factory.hpp:77] Creating layer inception_3a/3x3_reduce
I0403 14:22:17.976517 13199 net.cpp:91] Creating Layer inception_3a/3x3_reduce
I0403 14:22:17.976536 13199 net.cpp:425] inception_3a/3x3_reduce <- pool2/3x3_s2_pool2/3x3_s2_0_split_1
I0403 14:22:17.976553 13199 net.cpp:399] inception_3a/3x3_reduce -> inception_3a/3x3_reduce
I0403 14:22:17.978242 13199 net.cpp:141] Setting up inception_3a/3x3_reduce
I0403 14:22:17.978273 13199 net.cpp:148] Top shape: 24 96 28 28 (1806336)
I0403 14:22:17.978289 13199 net.cpp:156] Memory required for data: 508183584
I0403 14:22:17.978312 13199 layer_factory.hpp:77] Creating layer inception_3a/relu_3x3_reduce
I0403 14:22:17.978350 13199 net.cpp:91] Creating Layer inception_3a/relu_3x3_reduce
I0403 14:22:17.978369 13199 net.cpp:425] inception_3a/relu_3x3_reduce <- inception_3a/3x3_reduce
I0403 14:22:17.978389 13199 net.cpp:386] inception_3a/relu_3x3_reduce -> inception_3a/3x3_reduce (in-place)
I0403 14:22:17.978565 13199 net.cpp:141] Setting up inception_3a/relu_3x3_reduce
I0403 14:22:17.978595 13199 net.cpp:148] Top shape: 24 96 28 28 (1806336)
I0403 14:22:17.978610 13199 net.cpp:156] Memory required for data: 515408928
I0403 14:22:17.978624 13199 layer_factory.hpp:77] Creating layer inception_3a/3x3
I0403 14:22:17.978647 13199 net.cpp:91] Creating Layer inception_3a/3x3
I0403 14:22:17.978664 13199 net.cpp:425] inception_3a/3x3 <- inception_3a/3x3_reduce
I0403 14:22:17.978687 13199 net.cpp:399] inception_3a/3x3 -> inception_3a/3x3
I0403 14:22:17.980314 13199 net.cpp:141] Setting up inception_3a/3x3
I0403 14:22:17.980345 13199 net.cpp:148] Top shape: 24 128 28 28 (2408448)
I0403 14:22:17.980361 13199 net.cpp:156] Memory required for data: 525042720
I0403 14:22:17.980381 13199 layer_factory.hpp:77] Creating layer inception_3a/relu_3x3
I0403 14:22:17.980398 13199 net.cpp:91] Creating Layer inception_3a/relu_3x3
I0403 14:22:17.980415 13199 net.cpp:425] inception_3a/relu_3x3 <- inception_3a/3x3
I0403 14:22:17.980432 13199 net.cpp:386] inception_3a/relu_3x3 -> inception_3a/3x3 (in-place)
I0403 14:22:17.980712 13199 net.cpp:141] Setting up inception_3a/relu_3x3
I0403 14:22:17.980741 13199 net.cpp:148] Top shape: 24 128 28 28 (2408448)
I0403 14:22:17.980756 13199 net.cpp:156] Memory required for data: 534676512
I0403 14:22:17.980772 13199 layer_factory.hpp:77] Creating layer inception_3a/5x5_reduce
I0403 14:22:17.980793 13199 net.cpp:91] Creating Layer inception_3a/5x5_reduce
I0403 14:22:17.980811 13199 net.cpp:425] inception_3a/5x5_reduce <- pool2/3x3_s2_pool2/3x3_s2_0_split_2
I0403 14:22:17.980829 13199 net.cpp:399] inception_3a/5x5_reduce -> inception_3a/5x5_reduce
I0403 14:22:17.981798 13199 net.cpp:141] Setting up inception_3a/5x5_reduce
I0403 14:22:17.981828 13199 net.cpp:148] Top shape: 24 16 28 28 (301056)
I0403 14:22:17.981845 13199 net.cpp:156] Memory required for data: 535880736
I0403 14:22:17.981864 13199 layer_factory.hpp:77] Creating layer inception_3a/relu_5x5_reduce
I0403 14:22:17.981883 13199 net.cpp:91] Creating Layer inception_3a/relu_5x5_reduce
I0403 14:22:17.981899 13199 net.cpp:425] inception_3a/relu_5x5_reduce <- inception_3a/5x5_reduce
I0403 14:22:17.981917 13199 net.cpp:386] inception_3a/relu_5x5_reduce -> inception_3a/5x5_reduce (in-place)
I0403 14:22:17.982215 13199 net.cpp:141] Setting up inception_3a/relu_5x5_reduce
I0403 14:22:17.982241 13199 net.cpp:148] Top shape: 24 16 28 28 (301056)
I0403 14:22:17.982256 13199 net.cpp:156] Memory required for data: 537084960
I0403 14:22:17.982271 13199 layer_factory.hpp:77] Creating layer inception_3a/5x5
I0403 14:22:17.982293 13199 net.cpp:91] Creating Layer inception_3a/5x5
I0403 14:22:17.982311 13199 net.cpp:425] inception_3a/5x5 <- inception_3a/5x5_reduce
I0403 14:22:17.982332 13199 net.cpp:399] inception_3a/5x5 -> inception_3a/5x5
I0403 14:22:17.983360 13199 net.cpp:141] Setting up inception_3a/5x5
I0403 14:22:17.983387 13199 net.cpp:148] Top shape: 24 32 28 28 (602112)
I0403 14:22:17.983407 13199 net.cpp:156] Memory required for data: 539493408
I0403 14:22:17.983427 13199 layer_factory.hpp:77] Creating layer inception_3a/relu_5x5
I0403 14:22:17.983446 13199 net.cpp:91] Creating Layer inception_3a/relu_5x5
I0403 14:22:17.983463 13199 net.cpp:425] inception_3a/relu_5x5 <- inception_3a/5x5
I0403 14:22:17.983479 13199 net.cpp:386] inception_3a/relu_5x5 -> inception_3a/5x5 (in-place)
I0403 14:22:17.983659 13199 net.cpp:141] Setting up inception_3a/relu_5x5
I0403 14:22:17.983686 13199 net.cpp:148] Top shape: 24 32 28 28 (602112)
I0403 14:22:17.983703 13199 net.cpp:156] Memory required for data: 541901856
I0403 14:22:17.983719 13199 layer_factory.hpp:77] Creating layer inception_3a/pool
I0403 14:22:17.983737 13199 net.cpp:91] Creating Layer inception_3a/pool
I0403 14:22:17.983753 13199 net.cpp:425] inception_3a/pool <- pool2/3x3_s2_pool2/3x3_s2_0_split_3
I0403 14:22:17.983788 13199 net.cpp:399] inception_3a/pool -> inception_3a/pool
I0403 14:22:17.983849 13199 net.cpp:141] Setting up inception_3a/pool
I0403 14:22:17.983875 13199 net.cpp:148] Top shape: 24 192 28 28 (3612672)
I0403 14:22:17.983892 13199 net.cpp:156] Memory required for data: 556352544
I0403 14:22:17.983907 13199 layer_factory.hpp:77] Creating layer inception_3a/pool_proj
I0403 14:22:17.983927 13199 net.cpp:91] Creating Layer inception_3a/pool_proj
I0403 14:22:17.983944 13199 net.cpp:425] inception_3a/pool_proj <- inception_3a/pool
I0403 14:22:17.983966 13199 net.cpp:399] inception_3a/pool_proj -> inception_3a/pool_proj
I0403 14:22:17.984953 13199 net.cpp:141] Setting up inception_3a/pool_proj
I0403 14:22:17.984982 13199 net.cpp:148] Top shape: 24 32 28 28 (602112)
I0403 14:22:17.984997 13199 net.cpp:156] Memory required for data: 558760992
I0403 14:22:17.985023 13199 layer_factory.hpp:77] Creating layer inception_3a/relu_pool_proj
I0403 14:22:17.985043 13199 net.cpp:91] Creating Layer inception_3a/relu_pool_proj
I0403 14:22:17.985059 13199 net.cpp:425] inception_3a/relu_pool_proj <- inception_3a/pool_proj
I0403 14:22:17.985079 13199 net.cpp:386] inception_3a/relu_pool_proj -> inception_3a/pool_proj (in-place)
I0403 14:22:17.985360 13199 net.cpp:141] Setting up inception_3a/relu_pool_proj
I0403 14:22:17.985390 13199 net.cpp:148] Top shape: 24 32 28 28 (602112)
I0403 14:22:17.985407 13199 net.cpp:156] Memory required for data: 561169440
I0403 14:22:17.985422 13199 layer_factory.hpp:77] Creating layer inception_3a/output
I0403 14:22:17.985441 13199 net.cpp:91] Creating Layer inception_3a/output
I0403 14:22:17.985457 13199 net.cpp:425] inception_3a/output <- inception_3a/1x1
I0403 14:22:17.985474 13199 net.cpp:425] inception_3a/output <- inception_3a/3x3
I0403 14:22:17.985491 13199 net.cpp:425] inception_3a/output <- inception_3a/5x5
I0403 14:22:17.985507 13199 net.cpp:425] inception_3a/output <- inception_3a/pool_proj
I0403 14:22:17.985523 13199 net.cpp:399] inception_3a/output -> inception_3a/output
I0403 14:22:17.985575 13199 net.cpp:141] Setting up inception_3a/output
I0403 14:22:17.985600 13199 net.cpp:148] Top shape: 24 256 28 28 (4816896)
I0403 14:22:17.985615 13199 net.cpp:156] Memory required for data: 580437024
I0403 14:22:17.985631 13199 layer_factory.hpp:77] Creating layer inception_3a/output_inception_3a/output_0_split
I0403 14:22:17.985651 13199 net.cpp:91] Creating Layer inception_3a/output_inception_3a/output_0_split
I0403 14:22:17.985667 13199 net.cpp:425] inception_3a/output_inception_3a/output_0_split <- inception_3a/output
I0403 14:22:17.985685 13199 net.cpp:399] inception_3a/output_inception_3a/output_0_split -> inception_3a/output_inception_3a/output_0_split_0
I0403 14:22:17.985705 13199 net.cpp:399] inception_3a/output_inception_3a/output_0_split -> inception_3a/output_inception_3a/output_0_split_1
I0403 14:22:17.985730 13199 net.cpp:399] inception_3a/output_inception_3a/output_0_split -> inception_3a/output_inception_3a/output_0_split_2
I0403 14:22:17.985752 13199 net.cpp:399] inception_3a/output_inception_3a/output_0_split -> inception_3a/output_inception_3a/output_0_split_3
I0403 14:22:17.985828 13199 net.cpp:141] Setting up inception_3a/output_inception_3a/output_0_split
I0403 14:22:17.985852 13199 net.cpp:148] Top shape: 24 256 28 28 (4816896)
I0403 14:22:17.985869 13199 net.cpp:148] Top shape: 24 256 28 28 (4816896)
I0403 14:22:17.985885 13199 net.cpp:148] Top shape: 24 256 28 28 (4816896)
I0403 14:22:17.985901 13199 net.cpp:148] Top shape: 24 256 28 28 (4816896)
I0403 14:22:17.985915 13199 net.cpp:156] Memory required for data: 657507360
I0403 14:22:17.985930 13199 layer_factory.hpp:77] Creating layer inception_3b/1x1
I0403 14:22:17.985954 13199 net.cpp:91] Creating Layer inception_3b/1x1
I0403 14:22:17.985971 13199 net.cpp:425] inception_3b/1x1 <- inception_3a/output_inception_3a/output_0_split_0
I0403 14:22:17.985991 13199 net.cpp:399] inception_3b/1x1 -> inception_3b/1x1
I0403 14:22:17.987149 13199 net.cpp:141] Setting up inception_3b/1x1
I0403 14:22:17.987188 13199 net.cpp:148] Top shape: 24 128 28 28 (2408448)
I0403 14:22:17.987205 13199 net.cpp:156] Memory required for data: 667141152
I0403 14:22:17.987224 13199 layer_factory.hpp:77] Creating layer inception_3b/relu_1x1
I0403 14:22:17.987246 13199 net.cpp:91] Creating Layer inception_3b/relu_1x1
I0403 14:22:17.987264 13199 net.cpp:425] inception_3b/relu_1x1 <- inception_3b/1x1
I0403 14:22:17.987282 13199 net.cpp:386] inception_3b/relu_1x1 -> inception_3b/1x1 (in-place)
I0403 14:22:17.987458 13199 net.cpp:141] Setting up inception_3b/relu_1x1
I0403 14:22:17.987486 13199 net.cpp:148] Top shape: 24 128 28 28 (2408448)
I0403 14:22:17.987503 13199 net.cpp:156] Memory required for data: 676774944
I0403 14:22:17.987519 13199 layer_factory.hpp:77] Creating layer inception_3b/3x3_reduce
I0403 14:22:17.987550 13199 net.cpp:91] Creating Layer inception_3b/3x3_reduce
I0403 14:22:17.987571 13199 net.cpp:425] inception_3b/3x3_reduce <- inception_3a/output_inception_3a/output_0_split_1
I0403 14:22:17.987593 13199 net.cpp:399] inception_3b/3x3_reduce -> inception_3b/3x3_reduce
I0403 14:22:17.988767 13199 net.cpp:141] Setting up inception_3b/3x3_reduce
I0403 14:22:17.988795 13199 net.cpp:148] Top shape: 24 128 28 28 (2408448)
I0403 14:22:17.988811 13199 net.cpp:156] Memory required for data: 686408736
I0403 14:22:17.988828 13199 layer_factory.hpp:77] Creating layer inception_3b/relu_3x3_reduce
I0403 14:22:17.988848 13199 net.cpp:91] Creating Layer inception_3b/relu_3x3_reduce
I0403 14:22:17.988870 13199 net.cpp:425] inception_3b/relu_3x3_reduce <- inception_3b/3x3_reduce
I0403 14:22:17.988888 13199 net.cpp:386] inception_3b/relu_3x3_reduce -> inception_3b/3x3_reduce (in-place)
I0403 14:22:17.989058 13199 net.cpp:141] Setting up inception_3b/relu_3x3_reduce
I0403 14:22:17.989086 13199 net.cpp:148] Top shape: 24 128 28 28 (2408448)
I0403 14:22:17.989102 13199 net.cpp:156] Memory required for data: 696042528
I0403 14:22:17.989117 13199 layer_factory.hpp:77] Creating layer inception_3b/3x3
I0403 14:22:17.989141 13199 net.cpp:91] Creating Layer inception_3b/3x3
I0403 14:22:17.989159 13199 net.cpp:425] inception_3b/3x3 <- inception_3b/3x3_reduce
I0403 14:22:17.989181 13199 net.cpp:399] inception_3b/3x3 -> inception_3b/3x3
I0403 14:22:17.992068 13199 net.cpp:141] Setting up inception_3b/3x3
I0403 14:22:17.992099 13199 net.cpp:148] Top shape: 24 192 28 28 (3612672)
I0403 14:22:17.992115 13199 net.cpp:156] Memory required for data: 710493216
I0403 14:22:17.992133 13199 layer_factory.hpp:77] Creating layer inception_3b/relu_3x3
I0403 14:22:17.992151 13199 net.cpp:91] Creating Layer inception_3b/relu_3x3
I0403 14:22:17.992168 13199 net.cpp:425] inception_3b/relu_3x3 <- inception_3b/3x3
I0403 14:22:17.992185 13199 net.cpp:386] inception_3b/relu_3x3 -> inception_3b/3x3 (in-place)
I0403 14:22:17.992462 13199 net.cpp:141] Setting up inception_3b/relu_3x3
I0403 14:22:17.992491 13199 net.cpp:148] Top shape: 24 192 28 28 (3612672)
I0403 14:22:17.992506 13199 net.cpp:156] Memory required for data: 724943904
I0403 14:22:17.992522 13199 layer_factory.hpp:77] Creating layer inception_3b/5x5_reduce
I0403 14:22:17.992543 13199 net.cpp:91] Creating Layer inception_3b/5x5_reduce
I0403 14:22:17.992561 13199 net.cpp:425] inception_3b/5x5_reduce <- inception_3a/output_inception_3a/output_0_split_2
I0403 14:22:17.992588 13199 net.cpp:399] inception_3b/5x5_reduce -> inception_3b/5x5_reduce
I0403 14:22:17.993573 13199 net.cpp:141] Setting up inception_3b/5x5_reduce
I0403 14:22:17.993604 13199 net.cpp:148] Top shape: 24 32 28 28 (602112)
I0403 14:22:17.993620 13199 net.cpp:156] Memory required for data: 727352352
I0403 14:22:17.993638 13199 layer_factory.hpp:77] Creating layer inception_3b/relu_5x5_reduce
I0403 14:22:17.993656 13199 net.cpp:91] Creating Layer inception_3b/relu_5x5_reduce
I0403 14:22:17.993672 13199 net.cpp:425] inception_3b/relu_5x5_reduce <- inception_3b/5x5_reduce
I0403 14:22:17.993690 13199 net.cpp:386] inception_3b/relu_5x5_reduce -> inception_3b/5x5_reduce (in-place)
I0403 14:22:17.993865 13199 net.cpp:141] Setting up inception_3b/relu_5x5_reduce
I0403 14:22:17.993903 13199 net.cpp:148] Top shape: 24 32 28 28 (602112)
I0403 14:22:17.993919 13199 net.cpp:156] Memory required for data: 729760800
I0403 14:22:17.993934 13199 layer_factory.hpp:77] Creating layer inception_3b/5x5
I0403 14:22:17.993957 13199 net.cpp:91] Creating Layer inception_3b/5x5
I0403 14:22:17.993974 13199 net.cpp:425] inception_3b/5x5 <- inception_3b/5x5_reduce
I0403 14:22:17.993995 13199 net.cpp:399] inception_3b/5x5 -> inception_3b/5x5
I0403 14:22:17.995981 13199 net.cpp:141] Setting up inception_3b/5x5
I0403 14:22:17.996011 13199 net.cpp:148] Top shape: 24 96 28 28 (1806336)
I0403 14:22:17.996026 13199 net.cpp:156] Memory required for data: 736986144
I0403 14:22:17.996045 13199 layer_factory.hpp:77] Creating layer inception_3b/relu_5x5
I0403 14:22:17.996067 13199 net.cpp:91] Creating Layer inception_3b/relu_5x5
I0403 14:22:17.996083 13199 net.cpp:425] inception_3b/relu_5x5 <- inception_3b/5x5
I0403 14:22:17.996101 13199 net.cpp:386] inception_3b/relu_5x5 -> inception_3b/5x5 (in-place)
I0403 14:22:17.996291 13199 net.cpp:141] Setting up inception_3b/relu_5x5
I0403 14:22:17.996316 13199 net.cpp:148] Top shape: 24 96 28 28 (1806336)
I0403 14:22:17.996331 13199 net.cpp:156] Memory required for data: 744211488
I0403 14:22:17.996346 13199 layer_factory.hpp:77] Creating layer inception_3b/pool
I0403 14:22:17.996364 13199 net.cpp:91] Creating Layer inception_3b/pool
I0403 14:22:17.996381 13199 net.cpp:425] inception_3b/pool <- inception_3a/output_inception_3a/output_0_split_3
I0403 14:22:17.996398 13199 net.cpp:399] inception_3b/pool -> inception_3b/pool
I0403 14:22:17.996453 13199 net.cpp:141] Setting up inception_3b/pool
I0403 14:22:17.996475 13199 net.cpp:148] Top shape: 24 256 28 28 (4816896)
I0403 14:22:17.996490 13199 net.cpp:156] Memory required for data: 763479072
I0403 14:22:17.996505 13199 layer_factory.hpp:77] Creating layer inception_3b/pool_proj
I0403 14:22:17.996526 13199 net.cpp:91] Creating Layer inception_3b/pool_proj
I0403 14:22:17.996544 13199 net.cpp:425] inception_3b/pool_proj <- inception_3b/pool
I0403 14:22:17.996565 13199 net.cpp:399] inception_3b/pool_proj -> inception_3b/pool_proj
I0403 14:22:17.997619 13199 net.cpp:141] Setting up inception_3b/pool_proj
I0403 14:22:17.997648 13199 net.cpp:148] Top shape: 24 64 28 28 (1204224)
I0403 14:22:17.997663 13199 net.cpp:156] Memory required for data: 768295968
I0403 14:22:17.997680 13199 layer_factory.hpp:77] Creating layer inception_3b/relu_pool_proj
I0403 14:22:17.997699 13199 net.cpp:91] Creating Layer inception_3b/relu_pool_proj
I0403 14:22:17.997715 13199 net.cpp:425] inception_3b/relu_pool_proj <- inception_3b/pool_proj
I0403 14:22:17.997735 13199 net.cpp:386] inception_3b/relu_pool_proj -> inception_3b/pool_proj (in-place)
I0403 14:22:17.998127 13199 net.cpp:141] Setting up inception_3b/relu_pool_proj
I0403 14:22:17.998153 13199 net.cpp:148] Top shape: 24 64 28 28 (1204224)
I0403 14:22:17.998168 13199 net.cpp:156] Memory required for data: 773112864
I0403 14:22:17.998183 13199 layer_factory.hpp:77] Creating layer inception_3b/output
I0403 14:22:17.998201 13199 net.cpp:91] Creating Layer inception_3b/output
I0403 14:22:17.998216 13199 net.cpp:425] inception_3b/output <- inception_3b/1x1
I0403 14:22:17.998232 13199 net.cpp:425] inception_3b/output <- inception_3b/3x3
I0403 14:22:17.998248 13199 net.cpp:425] inception_3b/output <- inception_3b/5x5
I0403 14:22:17.998265 13199 net.cpp:425] inception_3b/output <- inception_3b/pool_proj
I0403 14:22:17.998287 13199 net.cpp:399] inception_3b/output -> inception_3b/output
I0403 14:22:17.998332 13199 net.cpp:141] Setting up inception_3b/output
I0403 14:22:17.998353 13199 net.cpp:148] Top shape: 24 480 28 28 (9031680)
I0403 14:22:17.998373 13199 net.cpp:156] Memory required for data: 809239584
I0403 14:22:17.998388 13199 layer_factory.hpp:77] Creating layer pool3/3x3_s2
I0403 14:22:17.998404 13199 net.cpp:91] Creating Layer pool3/3x3_s2
I0403 14:22:17.998420 13199 net.cpp:425] pool3/3x3_s2 <- inception_3b/output
I0403 14:22:17.998437 13199 net.cpp:399] pool3/3x3_s2 -> pool3/3x3_s2
I0403 14:22:17.998512 13199 net.cpp:141] Setting up pool3/3x3_s2
I0403 14:22:17.998534 13199 net.cpp:148] Top shape: 24 480 14 14 (2257920)
I0403 14:22:17.998550 13199 net.cpp:156] Memory required for data: 818271264
I0403 14:22:17.998564 13199 layer_factory.hpp:77] Creating layer pool3/3x3_s2_pool3/3x3_s2_0_split
I0403 14:22:17.998589 13199 net.cpp:91] Creating Layer pool3/3x3_s2_pool3/3x3_s2_0_split
I0403 14:22:17.998605 13199 net.cpp:425] pool3/3x3_s2_pool3/3x3_s2_0_split <- pool3/3x3_s2
I0403 14:22:17.998623 13199 net.cpp:399] pool3/3x3_s2_pool3/3x3_s2_0_split -> pool3/3x3_s2_pool3/3x3_s2_0_split_0
I0403 14:22:17.998646 13199 net.cpp:399] pool3/3x3_s2_pool3/3x3_s2_0_split -> pool3/3x3_s2_pool3/3x3_s2_0_split_1
I0403 14:22:17.998664 13199 net.cpp:399] pool3/3x3_s2_pool3/3x3_s2_0_split -> pool3/3x3_s2_pool3/3x3_s2_0_split_2
I0403 14:22:17.998684 13199 net.cpp:399] pool3/3x3_s2_pool3/3x3_s2_0_split -> pool3/3x3_s2_pool3/3x3_s2_0_split_3
I0403 14:22:17.998759 13199 net.cpp:141] Setting up pool3/3x3_s2_pool3/3x3_s2_0_split
I0403 14:22:17.998785 13199 net.cpp:148] Top shape: 24 480 14 14 (2257920)
I0403 14:22:17.998802 13199 net.cpp:148] Top shape: 24 480 14 14 (2257920)
I0403 14:22:17.998818 13199 net.cpp:148] Top shape: 24 480 14 14 (2257920)
I0403 14:22:17.998834 13199 net.cpp:148] Top shape: 24 480 14 14 (2257920)
I0403 14:22:17.998848 13199 net.cpp:156] Memory required for data: 854397984
I0403 14:22:17.998862 13199 layer_factory.hpp:77] Creating layer inception_4a/1x1
I0403 14:22:17.998884 13199 net.cpp:91] Creating Layer inception_4a/1x1
I0403 14:22:17.998901 13199 net.cpp:425] inception_4a/1x1 <- pool3/3x3_s2_pool3/3x3_s2_0_split_0
I0403 14:22:17.998922 13199 net.cpp:399] inception_4a/1x1 -> inception_4a/1x1
I0403 14:22:18.000504 13199 net.cpp:141] Setting up inception_4a/1x1
I0403 14:22:18.000531 13199 net.cpp:148] Top shape: 24 192 14 14 (903168)
I0403 14:22:18.000547 13199 net.cpp:156] Memory required for data: 858010656
I0403 14:22:18.000573 13199 layer_factory.hpp:77] Creating layer inception_4a/relu_1x1
I0403 14:22:18.000608 13199 net.cpp:91] Creating Layer inception_4a/relu_1x1
I0403 14:22:18.000634 13199 net.cpp:425] inception_4a/relu_1x1 <- inception_4a/1x1
I0403 14:22:18.000653 13199 net.cpp:386] inception_4a/relu_1x1 -> inception_4a/1x1 (in-place)
I0403 14:22:18.000829 13199 net.cpp:141] Setting up inception_4a/relu_1x1
I0403 14:22:18.000855 13199 net.cpp:148] Top shape: 24 192 14 14 (903168)
I0403 14:22:18.000870 13199 net.cpp:156] Memory required for data: 861623328
I0403 14:22:18.000886 13199 layer_factory.hpp:77] Creating layer inception_4a/3x3_reduce
I0403 14:22:18.000916 13199 net.cpp:91] Creating Layer inception_4a/3x3_reduce
I0403 14:22:18.000934 13199 net.cpp:425] inception_4a/3x3_reduce <- pool3/3x3_s2_pool3/3x3_s2_0_split_1
I0403 14:22:18.000957 13199 net.cpp:399] inception_4a/3x3_reduce -> inception_4a/3x3_reduce
I0403 14:22:18.002254 13199 net.cpp:141] Setting up inception_4a/3x3_reduce
I0403 14:22:18.002282 13199 net.cpp:148] Top shape: 24 96 14 14 (451584)
I0403 14:22:18.002300 13199 net.cpp:156] Memory required for data: 863429664
I0403 14:22:18.002324 13199 layer_factory.hpp:77] Creating layer inception_4a/relu_3x3_reduce
I0403 14:22:18.002344 13199 net.cpp:91] Creating Layer inception_4a/relu_3x3_reduce
I0403 14:22:18.002362 13199 net.cpp:425] inception_4a/relu_3x3_reduce <- inception_4a/3x3_reduce
I0403 14:22:18.002382 13199 net.cpp:386] inception_4a/relu_3x3_reduce -> inception_4a/3x3_reduce (in-place)
I0403 14:22:18.002562 13199 net.cpp:141] Setting up inception_4a/relu_3x3_reduce
I0403 14:22:18.002593 13199 net.cpp:148] Top shape: 24 96 14 14 (451584)
I0403 14:22:18.002609 13199 net.cpp:156] Memory required for data: 865236000
I0403 14:22:18.002624 13199 layer_factory.hpp:77] Creating layer inception_4a/3x3
I0403 14:22:18.002647 13199 net.cpp:91] Creating Layer inception_4a/3x3
I0403 14:22:18.002666 13199 net.cpp:425] inception_4a/3x3 <- inception_4a/3x3_reduce
I0403 14:22:18.002687 13199 net.cpp:399] inception_4a/3x3 -> inception_4a/3x3
I0403 14:22:18.005439 13199 net.cpp:141] Setting up inception_4a/3x3
I0403 14:22:18.005468 13199 net.cpp:148] Top shape: 24 208 14 14 (978432)
I0403 14:22:18.005486 13199 net.cpp:156] Memory required for data: 869149728
I0403 14:22:18.005504 13199 layer_factory.hpp:77] Creating layer inception_4a/relu_3x3
I0403 14:22:18.005527 13199 net.cpp:91] Creating Layer inception_4a/relu_3x3
I0403 14:22:18.005544 13199 net.cpp:425] inception_4a/relu_3x3 <- inception_4a/3x3
I0403 14:22:18.005561 13199 net.cpp:386] inception_4a/relu_3x3 -> inception_4a/3x3 (in-place)
I0403 14:22:18.005852 13199 net.cpp:141] Setting up inception_4a/relu_3x3
I0403 14:22:18.005879 13199 net.cpp:148] Top shape: 24 208 14 14 (978432)
I0403 14:22:18.005895 13199 net.cpp:156] Memory required for data: 873063456
I0403 14:22:18.005910 13199 layer_factory.hpp:77] Creating layer inception_4a/5x5_reduce
I0403 14:22:18.005934 13199 net.cpp:91] Creating Layer inception_4a/5x5_reduce
I0403 14:22:18.005954 13199 net.cpp:425] inception_4a/5x5_reduce <- pool3/3x3_s2_pool3/3x3_s2_0_split_2
I0403 14:22:18.005975 13199 net.cpp:399] inception_4a/5x5_reduce -> inception_4a/5x5_reduce
I0403 14:22:18.007010 13199 net.cpp:141] Setting up inception_4a/5x5_reduce
I0403 14:22:18.007040 13199 net.cpp:148] Top shape: 24 16 14 14 (75264)
I0403 14:22:18.007062 13199 net.cpp:156] Memory required for data: 873364512
I0403 14:22:18.007082 13199 layer_factory.hpp:77] Creating layer inception_4a/relu_5x5_reduce
I0403 14:22:18.007102 13199 net.cpp:91] Creating Layer inception_4a/relu_5x5_reduce
I0403 14:22:18.007117 13199 net.cpp:425] inception_4a/relu_5x5_reduce <- inception_4a/5x5_reduce
I0403 14:22:18.007135 13199 net.cpp:386] inception_4a/relu_5x5_reduce -> inception_4a/5x5_reduce (in-place)
I0403 14:22:18.007318 13199 net.cpp:141] Setting up inception_4a/relu_5x5_reduce
I0403 14:22:18.007345 13199 net.cpp:148] Top shape: 24 16 14 14 (75264)
I0403 14:22:18.007362 13199 net.cpp:156] Memory required for data: 873665568
I0403 14:22:18.007377 13199 layer_factory.hpp:77] Creating layer inception_4a/5x5
I0403 14:22:18.007400 13199 net.cpp:91] Creating Layer inception_4a/5x5
I0403 14:22:18.007418 13199 net.cpp:425] inception_4a/5x5 <- inception_4a/5x5_reduce
I0403 14:22:18.007437 13199 net.cpp:399] inception_4a/5x5 -> inception_4a/5x5
I0403 14:22:18.008555 13199 net.cpp:141] Setting up inception_4a/5x5
I0403 14:22:18.008589 13199 net.cpp:148] Top shape: 24 48 14 14 (225792)
I0403 14:22:18.008606 13199 net.cpp:156] Memory required for data: 874568736
I0403 14:22:18.008625 13199 layer_factory.hpp:77] Creating layer inception_4a/relu_5x5
I0403 14:22:18.008644 13199 net.cpp:91] Creating Layer inception_4a/relu_5x5
I0403 14:22:18.008661 13199 net.cpp:425] inception_4a/relu_5x5 <- inception_4a/5x5
I0403 14:22:18.008680 13199 net.cpp:386] inception_4a/relu_5x5 -> inception_4a/5x5 (in-place)
I0403 14:22:18.008862 13199 net.cpp:141] Setting up inception_4a/relu_5x5
I0403 14:22:18.008888 13199 net.cpp:148] Top shape: 24 48 14 14 (225792)
I0403 14:22:18.008903 13199 net.cpp:156] Memory required for data: 875471904
I0403 14:22:18.008919 13199 layer_factory.hpp:77] Creating layer inception_4a/pool
I0403 14:22:18.008939 13199 net.cpp:91] Creating Layer inception_4a/pool
I0403 14:22:18.008955 13199 net.cpp:425] inception_4a/pool <- pool3/3x3_s2_pool3/3x3_s2_0_split_3
I0403 14:22:18.008975 13199 net.cpp:399] inception_4a/pool -> inception_4a/pool
I0403 14:22:18.009037 13199 net.cpp:141] Setting up inception_4a/pool
I0403 14:22:18.009062 13199 net.cpp:148] Top shape: 24 480 14 14 (2257920)
I0403 14:22:18.009076 13199 net.cpp:156] Memory required for data: 884503584
I0403 14:22:18.009091 13199 layer_factory.hpp:77] Creating layer inception_4a/pool_proj
I0403 14:22:18.009114 13199 net.cpp:91] Creating Layer inception_4a/pool_proj
I0403 14:22:18.009132 13199 net.cpp:425] inception_4a/pool_proj <- inception_4a/pool
I0403 14:22:18.009155 13199 net.cpp:399] inception_4a/pool_proj -> inception_4a/pool_proj
I0403 14:22:18.010356 13199 net.cpp:141] Setting up inception_4a/pool_proj
I0403 14:22:18.010386 13199 net.cpp:148] Top shape: 24 64 14 14 (301056)
I0403 14:22:18.010417 13199 net.cpp:156] Memory required for data: 885707808
I0403 14:22:18.010437 13199 layer_factory.hpp:77] Creating layer inception_4a/relu_pool_proj
I0403 14:22:18.010457 13199 net.cpp:91] Creating Layer inception_4a/relu_pool_proj
I0403 14:22:18.010473 13199 net.cpp:425] inception_4a/relu_pool_proj <- inception_4a/pool_proj
I0403 14:22:18.010498 13199 net.cpp:386] inception_4a/relu_pool_proj -> inception_4a/pool_proj (in-place)
I0403 14:22:18.010799 13199 net.cpp:141] Setting up inception_4a/relu_pool_proj
I0403 14:22:18.010826 13199 net.cpp:148] Top shape: 24 64 14 14 (301056)
I0403 14:22:18.010841 13199 net.cpp:156] Memory required for data: 886912032
I0403 14:22:18.010856 13199 layer_factory.hpp:77] Creating layer inception_4a/output
I0403 14:22:18.010874 13199 net.cpp:91] Creating Layer inception_4a/output
I0403 14:22:18.010890 13199 net.cpp:425] inception_4a/output <- inception_4a/1x1
I0403 14:22:18.010906 13199 net.cpp:425] inception_4a/output <- inception_4a/3x3
I0403 14:22:18.010922 13199 net.cpp:425] inception_4a/output <- inception_4a/5x5
I0403 14:22:18.010939 13199 net.cpp:425] inception_4a/output <- inception_4a/pool_proj
I0403 14:22:18.010960 13199 net.cpp:399] inception_4a/output -> inception_4a/output
I0403 14:22:18.011005 13199 net.cpp:141] Setting up inception_4a/output
I0403 14:22:18.011034 13199 net.cpp:148] Top shape: 24 512 14 14 (2408448)
I0403 14:22:18.011050 13199 net.cpp:156] Memory required for data: 896545824
I0403 14:22:18.011067 13199 layer_factory.hpp:77] Creating layer inception_4a/output_inception_4a/output_0_split
I0403 14:22:18.011086 13199 net.cpp:91] Creating Layer inception_4a/output_inception_4a/output_0_split
I0403 14:22:18.011101 13199 net.cpp:425] inception_4a/output_inception_4a/output_0_split <- inception_4a/output
I0403 14:22:18.011119 13199 net.cpp:399] inception_4a/output_inception_4a/output_0_split -> inception_4a/output_inception_4a/output_0_split_0
I0403 14:22:18.011142 13199 net.cpp:399] inception_4a/output_inception_4a/output_0_split -> inception_4a/output_inception_4a/output_0_split_1
I0403 14:22:18.011164 13199 net.cpp:399] inception_4a/output_inception_4a/output_0_split -> inception_4a/output_inception_4a/output_0_split_2
I0403 14:22:18.011185 13199 net.cpp:399] inception_4a/output_inception_4a/output_0_split -> inception_4a/output_inception_4a/output_0_split_3
I0403 14:22:18.011206 13199 net.cpp:399] inception_4a/output_inception_4a/output_0_split -> inception_4a/output_inception_4a/output_0_split_4
I0403 14:22:18.011299 13199 net.cpp:141] Setting up inception_4a/output_inception_4a/output_0_split
I0403 14:22:18.011325 13199 net.cpp:148] Top shape: 24 512 14 14 (2408448)
I0403 14:22:18.011343 13199 net.cpp:148] Top shape: 24 512 14 14 (2408448)
I0403 14:22:18.011360 13199 net.cpp:148] Top shape: 24 512 14 14 (2408448)
I0403 14:22:18.011376 13199 net.cpp:148] Top shape: 24 512 14 14 (2408448)
I0403 14:22:18.011392 13199 net.cpp:148] Top shape: 24 512 14 14 (2408448)
I0403 14:22:18.011407 13199 net.cpp:156] Memory required for data: 944714784
I0403 14:22:18.011423 13199 layer_factory.hpp:77] Creating layer loss1/ave_pool
I0403 14:22:18.011441 13199 net.cpp:91] Creating Layer loss1/ave_pool
I0403 14:22:18.011458 13199 net.cpp:425] loss1/ave_pool <- inception_4a/output_inception_4a/output_0_split_0
I0403 14:22:18.011476 13199 net.cpp:399] loss1/ave_pool -> loss1/ave_pool
I0403 14:22:18.011700 13199 net.cpp:141] Setting up loss1/ave_pool
I0403 14:22:18.011729 13199 net.cpp:148] Top shape: 24 512 4 4 (196608)
I0403 14:22:18.011744 13199 net.cpp:156] Memory required for data: 945501216
I0403 14:22:18.011760 13199 layer_factory.hpp:77] Creating layer loss1/conv
I0403 14:22:18.011783 13199 net.cpp:91] Creating Layer loss1/conv
I0403 14:22:18.011801 13199 net.cpp:425] loss1/conv <- loss1/ave_pool
I0403 14:22:18.011826 13199 net.cpp:399] loss1/conv -> loss1/conv
I0403 14:22:18.013269 13199 net.cpp:141] Setting up loss1/conv
I0403 14:22:18.013298 13199 net.cpp:148] Top shape: 24 128 4 4 (49152)
I0403 14:22:18.013314 13199 net.cpp:156] Memory required for data: 945697824
I0403 14:22:18.013350 13199 layer_factory.hpp:77] Creating layer loss1/relu_conv
I0403 14:22:18.013372 13199 net.cpp:91] Creating Layer loss1/relu_conv
I0403 14:22:18.013389 13199 net.cpp:425] loss1/relu_conv <- loss1/conv
I0403 14:22:18.013407 13199 net.cpp:386] loss1/relu_conv -> loss1/conv (in-place)
I0403 14:22:18.013703 13199 net.cpp:141] Setting up loss1/relu_conv
I0403 14:22:18.013731 13199 net.cpp:148] Top shape: 24 128 4 4 (49152)
I0403 14:22:18.013746 13199 net.cpp:156] Memory required for data: 945894432
I0403 14:22:18.013761 13199 layer_factory.hpp:77] Creating layer loss1/fc
I0403 14:22:18.013787 13199 net.cpp:91] Creating Layer loss1/fc
I0403 14:22:18.013805 13199 net.cpp:425] loss1/fc <- loss1/conv
I0403 14:22:18.013824 13199 net.cpp:399] loss1/fc -> loss1/fc
I0403 14:22:18.031517 13199 net.cpp:141] Setting up loss1/fc
I0403 14:22:18.031548 13199 net.cpp:148] Top shape: 24 1024 (24576)
I0403 14:22:18.031565 13199 net.cpp:156] Memory required for data: 945992736
I0403 14:22:18.031589 13199 layer_factory.hpp:77] Creating layer loss1/relu_fc
I0403 14:22:18.031610 13199 net.cpp:91] Creating Layer loss1/relu_fc
I0403 14:22:18.031626 13199 net.cpp:425] loss1/relu_fc <- loss1/fc
I0403 14:22:18.031646 13199 net.cpp:386] loss1/relu_fc -> loss1/fc (in-place)
I0403 14:22:18.031846 13199 net.cpp:141] Setting up loss1/relu_fc
I0403 14:22:18.031869 13199 net.cpp:148] Top shape: 24 1024 (24576)
I0403 14:22:18.031883 13199 net.cpp:156] Memory required for data: 946091040
I0403 14:22:18.031898 13199 layer_factory.hpp:77] Creating layer loss1/drop_fc
I0403 14:22:18.031925 13199 net.cpp:91] Creating Layer loss1/drop_fc
I0403 14:22:18.031942 13199 net.cpp:425] loss1/drop_fc <- loss1/fc
I0403 14:22:18.031960 13199 net.cpp:386] loss1/drop_fc -> loss1/fc (in-place)
I0403 14:22:18.032009 13199 net.cpp:141] Setting up loss1/drop_fc
I0403 14:22:18.032034 13199 net.cpp:148] Top shape: 24 1024 (24576)
I0403 14:22:18.032050 13199 net.cpp:156] Memory required for data: 946189344
I0403 14:22:18.032066 13199 layer_factory.hpp:77] Creating layer loss1/classifier_plantvillage
I0403 14:22:18.032084 13199 net.cpp:91] Creating Layer loss1/classifier_plantvillage
I0403 14:22:18.032099 13199 net.cpp:425] loss1/classifier_plantvillage <- loss1/fc
I0403 14:22:18.032120 13199 net.cpp:399] loss1/classifier_plantvillage -> loss1/classifier_plantvillage
I0403 14:22:18.033018 13199 net.cpp:141] Setting up loss1/classifier_plantvillage
I0403 14:22:18.033046 13199 net.cpp:148] Top shape: 24 38 (912)
I0403 14:22:18.033061 13199 net.cpp:156] Memory required for data: 946192992
I0403 14:22:18.033078 13199 layer_factory.hpp:77] Creating layer loss1/classifier_plantvillage_loss1/classifier_plantvillage_0_split
I0403 14:22:18.033099 13199 net.cpp:91] Creating Layer loss1/classifier_plantvillage_loss1/classifier_plantvillage_0_split
I0403 14:22:18.033116 13199 net.cpp:425] loss1/classifier_plantvillage_loss1/classifier_plantvillage_0_split <- loss1/classifier_plantvillage
I0403 14:22:18.033133 13199 net.cpp:399] loss1/classifier_plantvillage_loss1/classifier_plantvillage_0_split -> loss1/classifier_plantvillage_loss1/classifier_plantvillage_0_split_0
I0403 14:22:18.033154 13199 net.cpp:399] loss1/classifier_plantvillage_loss1/classifier_plantvillage_0_split -> loss1/classifier_plantvillage_loss1/classifier_plantvillage_0_split_1
I0403 14:22:18.033172 13199 net.cpp:399] loss1/classifier_plantvillage_loss1/classifier_plantvillage_0_split -> loss1/classifier_plantvillage_loss1/classifier_plantvillage_0_split_2
I0403 14:22:18.033236 13199 net.cpp:141] Setting up loss1/classifier_plantvillage_loss1/classifier_plantvillage_0_split
I0403 14:22:18.033259 13199 net.cpp:148] Top shape: 24 38 (912)
I0403 14:22:18.033275 13199 net.cpp:148] Top shape: 24 38 (912)
I0403 14:22:18.033291 13199 net.cpp:148] Top shape: 24 38 (912)
I0403 14:22:18.033304 13199 net.cpp:156] Memory required for data: 946203936
I0403 14:22:18.033318 13199 layer_factory.hpp:77] Creating layer inception_4b/1x1
I0403 14:22:18.033339 13199 net.cpp:91] Creating Layer inception_4b/1x1
I0403 14:22:18.033380 13199 net.cpp:425] inception_4b/1x1 <- inception_4a/output_inception_4a/output_0_split_1
I0403 14:22:18.033401 13199 net.cpp:399] inception_4b/1x1 -> inception_4b/1x1
I0403 14:22:18.035046 13199 net.cpp:141] Setting up inception_4b/1x1
I0403 14:22:18.035085 13199 net.cpp:148] Top shape: 24 160 14 14 (752640)
I0403 14:22:18.035101 13199 net.cpp:156] Memory required for data: 949214496
I0403 14:22:18.035120 13199 layer_factory.hpp:77] Creating layer inception_4b/relu_1x1
I0403 14:22:18.035140 13199 net.cpp:91] Creating Layer inception_4b/relu_1x1
I0403 14:22:18.035156 13199 net.cpp:425] inception_4b/relu_1x1 <- inception_4b/1x1
I0403 14:22:18.035173 13199 net.cpp:386] inception_4b/relu_1x1 -> inception_4b/1x1 (in-place)
I0403 14:22:18.035346 13199 net.cpp:141] Setting up inception_4b/relu_1x1
I0403 14:22:18.035372 13199 net.cpp:148] Top shape: 24 160 14 14 (752640)
I0403 14:22:18.035387 13199 net.cpp:156] Memory required for data: 952225056
I0403 14:22:18.035401 13199 layer_factory.hpp:77] Creating layer inception_4b/3x3_reduce
I0403 14:22:18.035423 13199 net.cpp:91] Creating Layer inception_4b/3x3_reduce
I0403 14:22:18.035440 13199 net.cpp:425] inception_4b/3x3_reduce <- inception_4a/output_inception_4a/output_0_split_2
I0403 14:22:18.035459 13199 net.cpp:399] inception_4b/3x3_reduce -> inception_4b/3x3_reduce
I0403 14:22:18.036768 13199 net.cpp:141] Setting up inception_4b/3x3_reduce
I0403 14:22:18.036798 13199 net.cpp:148] Top shape: 24 112 14 14 (526848)
I0403 14:22:18.036814 13199 net.cpp:156] Memory required for data: 954332448
I0403 14:22:18.036833 13199 layer_factory.hpp:77] Creating layer inception_4b/relu_3x3_reduce
I0403 14:22:18.036850 13199 net.cpp:91] Creating Layer inception_4b/relu_3x3_reduce
I0403 14:22:18.036865 13199 net.cpp:425] inception_4b/relu_3x3_reduce <- inception_4b/3x3_reduce
I0403 14:22:18.036885 13199 net.cpp:386] inception_4b/relu_3x3_reduce -> inception_4b/3x3_reduce (in-place)
I0403 14:22:18.037156 13199 net.cpp:141] Setting up inception_4b/relu_3x3_reduce
I0403 14:22:18.037184 13199 net.cpp:148] Top shape: 24 112 14 14 (526848)
I0403 14:22:18.037200 13199 net.cpp:156] Memory required for data: 956439840
I0403 14:22:18.037214 13199 layer_factory.hpp:77] Creating layer inception_4b/3x3
I0403 14:22:18.037237 13199 net.cpp:91] Creating Layer inception_4b/3x3
I0403 14:22:18.037255 13199 net.cpp:425] inception_4b/3x3 <- inception_4b/3x3_reduce
I0403 14:22:18.037272 13199 net.cpp:399] inception_4b/3x3 -> inception_4b/3x3
I0403 14:22:18.040169 13199 net.cpp:141] Setting up inception_4b/3x3
I0403 14:22:18.040196 13199 net.cpp:148] Top shape: 24 224 14 14 (1053696)
I0403 14:22:18.040211 13199 net.cpp:156] Memory required for data: 960654624
I0403 14:22:18.040230 13199 layer_factory.hpp:77] Creating layer inception_4b/relu_3x3
I0403 14:22:18.040251 13199 net.cpp:91] Creating Layer inception_4b/relu_3x3
I0403 14:22:18.040266 13199 net.cpp:425] inception_4b/relu_3x3 <- inception_4b/3x3
I0403 14:22:18.040283 13199 net.cpp:386] inception_4b/relu_3x3 -> inception_4b/3x3 (in-place)
I0403 14:22:18.040455 13199 net.cpp:141] Setting up inception_4b/relu_3x3
I0403 14:22:18.040479 13199 net.cpp:148] Top shape: 24 224 14 14 (1053696)
I0403 14:22:18.040493 13199 net.cpp:156] Memory required for data: 964869408
I0403 14:22:18.040508 13199 layer_factory.hpp:77] Creating layer inception_4b/5x5_reduce
I0403 14:22:18.040532 13199 net.cpp:91] Creating Layer inception_4b/5x5_reduce
I0403 14:22:18.040549 13199 net.cpp:425] inception_4b/5x5_reduce <- inception_4a/output_inception_4a/output_0_split_3
I0403 14:22:18.040573 13199 net.cpp:399] inception_4b/5x5_reduce -> inception_4b/5x5_reduce
I0403 14:22:18.041630 13199 net.cpp:141] Setting up inception_4b/5x5_reduce
I0403 14:22:18.041656 13199 net.cpp:148] Top shape: 24 24 14 14 (112896)
I0403 14:22:18.041671 13199 net.cpp:156] Memory required for data: 965320992
I0403 14:22:18.041694 13199 layer_factory.hpp:77] Creating layer inception_4b/relu_5x5_reduce
I0403 14:22:18.041713 13199 net.cpp:91] Creating Layer inception_4b/relu_5x5_reduce
I0403 14:22:18.041744 13199 net.cpp:425] inception_4b/relu_5x5_reduce <- inception_4b/5x5_reduce
I0403 14:22:18.041762 13199 net.cpp:386] inception_4b/relu_5x5_reduce -> inception_4b/5x5_reduce (in-place)
I0403 14:22:18.041939 13199 net.cpp:141] Setting up inception_4b/relu_5x5_reduce
I0403 14:22:18.041962 13199 net.cpp:148] Top shape: 24 24 14 14 (112896)
I0403 14:22:18.041976 13199 net.cpp:156] Memory required for data: 965772576
I0403 14:22:18.041991 13199 layer_factory.hpp:77] Creating layer inception_4b/5x5
I0403 14:22:18.042012 13199 net.cpp:91] Creating Layer inception_4b/5x5
I0403 14:22:18.042031 13199 net.cpp:425] inception_4b/5x5 <- inception_4b/5x5_reduce
I0403 14:22:18.042050 13199 net.cpp:399] inception_4b/5x5 -> inception_4b/5x5
I0403 14:22:18.043227 13199 net.cpp:141] Setting up inception_4b/5x5
I0403 14:22:18.043254 13199 net.cpp:148] Top shape: 24 64 14 14 (301056)
I0403 14:22:18.043269 13199 net.cpp:156] Memory required for data: 966976800
I0403 14:22:18.043287 13199 layer_factory.hpp:77] Creating layer inception_4b/relu_5x5
I0403 14:22:18.043308 13199 net.cpp:91] Creating Layer inception_4b/relu_5x5
I0403 14:22:18.043324 13199 net.cpp:425] inception_4b/relu_5x5 <- inception_4b/5x5
I0403 14:22:18.043341 13199 net.cpp:386] inception_4b/relu_5x5 -> inception_4b/5x5 (in-place)
I0403 14:22:18.043618 13199 net.cpp:141] Setting up inception_4b/relu_5x5
I0403 14:22:18.043644 13199 net.cpp:148] Top shape: 24 64 14 14 (301056)
I0403 14:22:18.043661 13199 net.cpp:156] Memory required for data: 968181024
I0403 14:22:18.043678 13199 layer_factory.hpp:77] Creating layer inception_4b/pool
I0403 14:22:18.043695 13199 net.cpp:91] Creating Layer inception_4b/pool
I0403 14:22:18.043711 13199 net.cpp:425] inception_4b/pool <- inception_4a/output_inception_4a/output_0_split_4
I0403 14:22:18.043728 13199 net.cpp:399] inception_4b/pool -> inception_4b/pool
I0403 14:22:18.043793 13199 net.cpp:141] Setting up inception_4b/pool
I0403 14:22:18.043817 13199 net.cpp:148] Top shape: 24 512 14 14 (2408448)
I0403 14:22:18.043831 13199 net.cpp:156] Memory required for data: 977814816
I0403 14:22:18.043845 13199 layer_factory.hpp:77] Creating layer inception_4b/pool_proj
I0403 14:22:18.043867 13199 net.cpp:91] Creating Layer inception_4b/pool_proj
I0403 14:22:18.043884 13199 net.cpp:425] inception_4b/pool_proj <- inception_4b/pool
I0403 14:22:18.043905 13199 net.cpp:399] inception_4b/pool_proj -> inception_4b/pool_proj
I0403 14:22:18.045071 13199 net.cpp:141] Setting up inception_4b/pool_proj
I0403 14:22:18.045101 13199 net.cpp:148] Top shape: 24 64 14 14 (301056)
I0403 14:22:18.045117 13199 net.cpp:156] Memory required for data: 979019040
I0403 14:22:18.045135 13199 layer_factory.hpp:77] Creating layer inception_4b/relu_pool_proj
I0403 14:22:18.045153 13199 net.cpp:91] Creating Layer inception_4b/relu_pool_proj
I0403 14:22:18.045169 13199 net.cpp:425] inception_4b/relu_pool_proj <- inception_4b/pool_proj
I0403 14:22:18.045186 13199 net.cpp:386] inception_4b/relu_pool_proj -> inception_4b/pool_proj (in-place)
I0403 14:22:18.045361 13199 net.cpp:141] Setting up inception_4b/relu_pool_proj
I0403 14:22:18.045385 13199 net.cpp:148] Top shape: 24 64 14 14 (301056)
I0403 14:22:18.045400 13199 net.cpp:156] Memory required for data: 980223264
I0403 14:22:18.045414 13199 layer_factory.hpp:77] Creating layer inception_4b/output
I0403 14:22:18.045433 13199 net.cpp:91] Creating Layer inception_4b/output
I0403 14:22:18.045447 13199 net.cpp:425] inception_4b/output <- inception_4b/1x1
I0403 14:22:18.045464 13199 net.cpp:425] inception_4b/output <- inception_4b/3x3
I0403 14:22:18.045480 13199 net.cpp:425] inception_4b/output <- inception_4b/5x5
I0403 14:22:18.045495 13199 net.cpp:425] inception_4b/output <- inception_4b/pool_proj
I0403 14:22:18.045514 13199 net.cpp:399] inception_4b/output -> inception_4b/output
I0403 14:22:18.045558 13199 net.cpp:141] Setting up inception_4b/output
I0403 14:22:18.045585 13199 net.cpp:148] Top shape: 24 512 14 14 (2408448)
I0403 14:22:18.045601 13199 net.cpp:156] Memory required for data: 989857056
I0403 14:22:18.045629 13199 layer_factory.hpp:77] Creating layer inception_4b/output_inception_4b/output_0_split
I0403 14:22:18.045650 13199 net.cpp:91] Creating Layer inception_4b/output_inception_4b/output_0_split
I0403 14:22:18.045666 13199 net.cpp:425] inception_4b/output_inception_4b/output_0_split <- inception_4b/output
I0403 14:22:18.045683 13199 net.cpp:399] inception_4b/output_inception_4b/output_0_split -> inception_4b/output_inception_4b/output_0_split_0
I0403 14:22:18.045706 13199 net.cpp:399] inception_4b/output_inception_4b/output_0_split -> inception_4b/output_inception_4b/output_0_split_1
I0403 14:22:18.045725 13199 net.cpp:399] inception_4b/output_inception_4b/output_0_split -> inception_4b/output_inception_4b/output_0_split_2
I0403 14:22:18.045745 13199 net.cpp:399] inception_4b/output_inception_4b/output_0_split -> inception_4b/output_inception_4b/output_0_split_3
I0403 14:22:18.045825 13199 net.cpp:141] Setting up inception_4b/output_inception_4b/output_0_split
I0403 14:22:18.045848 13199 net.cpp:148] Top shape: 24 512 14 14 (2408448)
I0403 14:22:18.045864 13199 net.cpp:148] Top shape: 24 512 14 14 (2408448)
I0403 14:22:18.045879 13199 net.cpp:148] Top shape: 24 512 14 14 (2408448)
I0403 14:22:18.045894 13199 net.cpp:148] Top shape: 24 512 14 14 (2408448)
I0403 14:22:18.045908 13199 net.cpp:156] Memory required for data: 1028392224
I0403 14:22:18.045922 13199 layer_factory.hpp:77] Creating layer inception_4c/1x1
I0403 14:22:18.045944 13199 net.cpp:91] Creating Layer inception_4c/1x1
I0403 14:22:18.045961 13199 net.cpp:425] inception_4c/1x1 <- inception_4b/output_inception_4b/output_0_split_0
I0403 14:22:18.045981 13199 net.cpp:399] inception_4c/1x1 -> inception_4c/1x1
I0403 14:22:18.047369 13199 net.cpp:141] Setting up inception_4c/1x1
I0403 14:22:18.047395 13199 net.cpp:148] Top shape: 24 128 14 14 (602112)
I0403 14:22:18.047412 13199 net.cpp:156] Memory required for data: 1030800672
I0403 14:22:18.047431 13199 layer_factory.hpp:77] Creating layer inception_4c/relu_1x1
I0403 14:22:18.047448 13199 net.cpp:91] Creating Layer inception_4c/relu_1x1
I0403 14:22:18.047468 13199 net.cpp:425] inception_4c/relu_1x1 <- inception_4c/1x1
I0403 14:22:18.047485 13199 net.cpp:386] inception_4c/relu_1x1 -> inception_4c/1x1 (in-place)
I0403 14:22:18.047683 13199 net.cpp:141] Setting up inception_4c/relu_1x1
I0403 14:22:18.047708 13199 net.cpp:148] Top shape: 24 128 14 14 (602112)
I0403 14:22:18.047722 13199 net.cpp:156] Memory required for data: 1033209120
I0403 14:22:18.047737 13199 layer_factory.hpp:77] Creating layer inception_4c/3x3_reduce
I0403 14:22:18.047760 13199 net.cpp:91] Creating Layer inception_4c/3x3_reduce
I0403 14:22:18.047777 13199 net.cpp:425] inception_4c/3x3_reduce <- inception_4b/output_inception_4b/output_0_split_1
I0403 14:22:18.047798 13199 net.cpp:399] inception_4c/3x3_reduce -> inception_4c/3x3_reduce
I0403 14:22:18.049731 13199 net.cpp:141] Setting up inception_4c/3x3_reduce
I0403 14:22:18.049760 13199 net.cpp:148] Top shape: 24 128 14 14 (602112)
I0403 14:22:18.049777 13199 net.cpp:156] Memory required for data: 1035617568
I0403 14:22:18.049794 13199 layer_factory.hpp:77] Creating layer inception_4c/relu_3x3_reduce
I0403 14:22:18.049815 13199 net.cpp:91] Creating Layer inception_4c/relu_3x3_reduce
I0403 14:22:18.049832 13199 net.cpp:425] inception_4c/relu_3x3_reduce <- inception_4c/3x3_reduce
I0403 14:22:18.049850 13199 net.cpp:386] inception_4c/relu_3x3_reduce -> inception_4c/3x3_reduce (in-place)
I0403 14:22:18.050130 13199 net.cpp:141] Setting up inception_4c/relu_3x3_reduce
I0403 14:22:18.050158 13199 net.cpp:148] Top shape: 24 128 14 14 (602112)
I0403 14:22:18.050173 13199 net.cpp:156] Memory required for data: 1038026016
I0403 14:22:18.050187 13199 layer_factory.hpp:77] Creating layer inception_4c/3x3
I0403 14:22:18.050211 13199 net.cpp:91] Creating Layer inception_4c/3x3
I0403 14:22:18.050230 13199 net.cpp:425] inception_4c/3x3 <- inception_4c/3x3_reduce
I0403 14:22:18.050248 13199 net.cpp:399] inception_4c/3x3 -> inception_4c/3x3
I0403 14:22:18.053869 13199 net.cpp:141] Setting up inception_4c/3x3
I0403 14:22:18.053911 13199 net.cpp:148] Top shape: 24 256 14 14 (1204224)
I0403 14:22:18.053930 13199 net.cpp:156] Memory required for data: 1042842912
I0403 14:22:18.053961 13199 layer_factory.hpp:77] Creating layer inception_4c/relu_3x3
I0403 14:22:18.053982 13199 net.cpp:91] Creating Layer inception_4c/relu_3x3
I0403 14:22:18.053998 13199 net.cpp:425] inception_4c/relu_3x3 <- inception_4c/3x3
I0403 14:22:18.054015 13199 net.cpp:386] inception_4c/relu_3x3 -> inception_4c/3x3 (in-place)
I0403 14:22:18.054196 13199 net.cpp:141] Setting up inception_4c/relu_3x3
I0403 14:22:18.054224 13199 net.cpp:148] Top shape: 24 256 14 14 (1204224)
I0403 14:22:18.054239 13199 net.cpp:156] Memory required for data: 1047659808
I0403 14:22:18.054255 13199 layer_factory.hpp:77] Creating layer inception_4c/5x5_reduce
I0403 14:22:18.054277 13199 net.cpp:91] Creating Layer inception_4c/5x5_reduce
I0403 14:22:18.054296 13199 net.cpp:425] inception_4c/5x5_reduce <- inception_4b/output_inception_4b/output_0_split_2
I0403 14:22:18.054314 13199 net.cpp:399] inception_4c/5x5_reduce -> inception_4c/5x5_reduce
I0403 14:22:18.055421 13199 net.cpp:141] Setting up inception_4c/5x5_reduce
I0403 14:22:18.055449 13199 net.cpp:148] Top shape: 24 24 14 14 (112896)
I0403 14:22:18.055465 13199 net.cpp:156] Memory required for data: 1048111392
I0403 14:22:18.055483 13199 layer_factory.hpp:77] Creating layer inception_4c/relu_5x5_reduce
I0403 14:22:18.055503 13199 net.cpp:91] Creating Layer inception_4c/relu_5x5_reduce
I0403 14:22:18.055521 13199 net.cpp:425] inception_4c/relu_5x5_reduce <- inception_4c/5x5_reduce
I0403 14:22:18.055538 13199 net.cpp:386] inception_4c/relu_5x5_reduce -> inception_4c/5x5_reduce (in-place)
I0403 14:22:18.055732 13199 net.cpp:141] Setting up inception_4c/relu_5x5_reduce
I0403 14:22:18.055757 13199 net.cpp:148] Top shape: 24 24 14 14 (112896)
I0403 14:22:18.055771 13199 net.cpp:156] Memory required for data: 1048562976
I0403 14:22:18.055786 13199 layer_factory.hpp:77] Creating layer inception_4c/5x5
I0403 14:22:18.055809 13199 net.cpp:91] Creating Layer inception_4c/5x5
I0403 14:22:18.055826 13199 net.cpp:425] inception_4c/5x5 <- inception_4c/5x5_reduce
I0403 14:22:18.055848 13199 net.cpp:399] inception_4c/5x5 -> inception_4c/5x5
I0403 14:22:18.057095 13199 net.cpp:141] Setting up inception_4c/5x5
I0403 14:22:18.057121 13199 net.cpp:148] Top shape: 24 64 14 14 (301056)
I0403 14:22:18.057137 13199 net.cpp:156] Memory required for data: 1049767200
I0403 14:22:18.057155 13199 layer_factory.hpp:77] Creating layer inception_4c/relu_5x5
I0403 14:22:18.057173 13199 net.cpp:91] Creating Layer inception_4c/relu_5x5
I0403 14:22:18.057189 13199 net.cpp:425] inception_4c/relu_5x5 <- inception_4c/5x5
I0403 14:22:18.057209 13199 net.cpp:386] inception_4c/relu_5x5 -> inception_4c/5x5 (in-place)
I0403 14:22:18.057497 13199 net.cpp:141] Setting up inception_4c/relu_5x5
I0403 14:22:18.057523 13199 net.cpp:148] Top shape: 24 64 14 14 (301056)
I0403 14:22:18.057538 13199 net.cpp:156] Memory required for data: 1050971424
I0403 14:22:18.057554 13199 layer_factory.hpp:77] Creating layer inception_4c/pool
I0403 14:22:18.057575 13199 net.cpp:91] Creating Layer inception_4c/pool
I0403 14:22:18.057593 13199 net.cpp:425] inception_4c/pool <- inception_4b/output_inception_4b/output_0_split_3
I0403 14:22:18.057613 13199 net.cpp:399] inception_4c/pool -> inception_4c/pool
I0403 14:22:18.057678 13199 net.cpp:141] Setting up inception_4c/pool
I0403 14:22:18.057704 13199 net.cpp:148] Top shape: 24 512 14 14 (2408448)
I0403 14:22:18.057719 13199 net.cpp:156] Memory required for data: 1060605216
I0403 14:22:18.057734 13199 layer_factory.hpp:77] Creating layer inception_4c/pool_proj
I0403 14:22:18.057756 13199 net.cpp:91] Creating Layer inception_4c/pool_proj
I0403 14:22:18.057775 13199 net.cpp:425] inception_4c/pool_proj <- inception_4c/pool
I0403 14:22:18.057792 13199 net.cpp:399] inception_4c/pool_proj -> inception_4c/pool_proj
I0403 14:22:18.059011 13199 net.cpp:141] Setting up inception_4c/pool_proj
I0403 14:22:18.059042 13199 net.cpp:148] Top shape: 24 64 14 14 (301056)
I0403 14:22:18.059072 13199 net.cpp:156] Memory required for data: 1061809440
I0403 14:22:18.059092 13199 layer_factory.hpp:77] Creating layer inception_4c/relu_pool_proj
I0403 14:22:18.059111 13199 net.cpp:91] Creating Layer inception_4c/relu_pool_proj
I0403 14:22:18.059128 13199 net.cpp:425] inception_4c/relu_pool_proj <- inception_4c/pool_proj
I0403 14:22:18.059144 13199 net.cpp:386] inception_4c/relu_pool_proj -> inception_4c/pool_proj (in-place)
I0403 14:22:18.059329 13199 net.cpp:141] Setting up inception_4c/relu_pool_proj
I0403 14:22:18.059356 13199 net.cpp:148] Top shape: 24 64 14 14 (301056)
I0403 14:22:18.059372 13199 net.cpp:156] Memory required for data: 1063013664
I0403 14:22:18.059387 13199 layer_factory.hpp:77] Creating layer inception_4c/output
I0403 14:22:18.059404 13199 net.cpp:91] Creating Layer inception_4c/output
I0403 14:22:18.059419 13199 net.cpp:425] inception_4c/output <- inception_4c/1x1
I0403 14:22:18.059435 13199 net.cpp:425] inception_4c/output <- inception_4c/3x3
I0403 14:22:18.059453 13199 net.cpp:425] inception_4c/output <- inception_4c/5x5
I0403 14:22:18.059468 13199 net.cpp:425] inception_4c/output <- inception_4c/pool_proj
I0403 14:22:18.059487 13199 net.cpp:399] inception_4c/output -> inception_4c/output
I0403 14:22:18.059533 13199 net.cpp:141] Setting up inception_4c/output
I0403 14:22:18.059556 13199 net.cpp:148] Top shape: 24 512 14 14 (2408448)
I0403 14:22:18.059576 13199 net.cpp:156] Memory required for data: 1072647456
I0403 14:22:18.059593 13199 layer_factory.hpp:77] Creating layer inception_4c/output_inception_4c/output_0_split
I0403 14:22:18.059613 13199 net.cpp:91] Creating Layer inception_4c/output_inception_4c/output_0_split
I0403 14:22:18.059629 13199 net.cpp:425] inception_4c/output_inception_4c/output_0_split <- inception_4c/output
I0403 14:22:18.059646 13199 net.cpp:399] inception_4c/output_inception_4c/output_0_split -> inception_4c/output_inception_4c/output_0_split_0
I0403 14:22:18.059669 13199 net.cpp:399] inception_4c/output_inception_4c/output_0_split -> inception_4c/output_inception_4c/output_0_split_1
I0403 14:22:18.059689 13199 net.cpp:399] inception_4c/output_inception_4c/output_0_split -> inception_4c/output_inception_4c/output_0_split_2
I0403 14:22:18.059710 13199 net.cpp:399] inception_4c/output_inception_4c/output_0_split -> inception_4c/output_inception_4c/output_0_split_3
I0403 14:22:18.059797 13199 net.cpp:141] Setting up inception_4c/output_inception_4c/output_0_split
I0403 14:22:18.059820 13199 net.cpp:148] Top shape: 24 512 14 14 (2408448)
I0403 14:22:18.059836 13199 net.cpp:148] Top shape: 24 512 14 14 (2408448)
I0403 14:22:18.059851 13199 net.cpp:148] Top shape: 24 512 14 14 (2408448)
I0403 14:22:18.059867 13199 net.cpp:148] Top shape: 24 512 14 14 (2408448)
I0403 14:22:18.059880 13199 net.cpp:156] Memory required for data: 1111182624
I0403 14:22:18.059895 13199 layer_factory.hpp:77] Creating layer inception_4d/1x1
I0403 14:22:18.059918 13199 net.cpp:91] Creating Layer inception_4d/1x1
I0403 14:22:18.059936 13199 net.cpp:425] inception_4d/1x1 <- inception_4c/output_inception_4c/output_0_split_0
I0403 14:22:18.059955 13199 net.cpp:399] inception_4d/1x1 -> inception_4d/1x1
I0403 14:22:18.061323 13199 net.cpp:141] Setting up inception_4d/1x1
I0403 14:22:18.061352 13199 net.cpp:148] Top shape: 24 112 14 14 (526848)
I0403 14:22:18.061367 13199 net.cpp:156] Memory required for data: 1113290016
I0403 14:22:18.061384 13199 layer_factory.hpp:77] Creating layer inception_4d/relu_1x1
I0403 14:22:18.061404 13199 net.cpp:91] Creating Layer inception_4d/relu_1x1
I0403 14:22:18.061421 13199 net.cpp:425] inception_4d/relu_1x1 <- inception_4d/1x1
I0403 14:22:18.061439 13199 net.cpp:386] inception_4d/relu_1x1 -> inception_4d/1x1 (in-place)
I0403 14:22:18.061628 13199 net.cpp:141] Setting up inception_4d/relu_1x1
I0403 14:22:18.061653 13199 net.cpp:148] Top shape: 24 112 14 14 (526848)
I0403 14:22:18.061668 13199 net.cpp:156] Memory required for data: 1115397408
I0403 14:22:18.061683 13199 layer_factory.hpp:77] Creating layer inception_4d/3x3_reduce
I0403 14:22:18.061720 13199 net.cpp:91] Creating Layer inception_4d/3x3_reduce
I0403 14:22:18.061739 13199 net.cpp:425] inception_4d/3x3_reduce <- inception_4c/output_inception_4c/output_0_split_1
I0403 14:22:18.061759 13199 net.cpp:399] inception_4d/3x3_reduce -> inception_4d/3x3_reduce
I0403 14:22:18.063266 13199 net.cpp:141] Setting up inception_4d/3x3_reduce
I0403 14:22:18.063293 13199 net.cpp:148] Top shape: 24 144 14 14 (677376)
I0403 14:22:18.063309 13199 net.cpp:156] Memory required for data: 1118106912
I0403 14:22:18.063328 13199 layer_factory.hpp:77] Creating layer inception_4d/relu_3x3_reduce
I0403 14:22:18.063346 13199 net.cpp:91] Creating Layer inception_4d/relu_3x3_reduce
I0403 14:22:18.063362 13199 net.cpp:425] inception_4d/relu_3x3_reduce <- inception_4d/3x3_reduce
I0403 14:22:18.063381 13199 net.cpp:386] inception_4d/relu_3x3_reduce -> inception_4d/3x3_reduce (in-place)
I0403 14:22:18.063679 13199 net.cpp:141] Setting up inception_4d/relu_3x3_reduce
I0403 14:22:18.063706 13199 net.cpp:148] Top shape: 24 144 14 14 (677376)
I0403 14:22:18.063721 13199 net.cpp:156] Memory required for data: 1120816416
I0403 14:22:18.063736 13199 layer_factory.hpp:77] Creating layer inception_4d/3x3
I0403 14:22:18.063758 13199 net.cpp:91] Creating Layer inception_4d/3x3
I0403 14:22:18.063776 13199 net.cpp:425] inception_4d/3x3 <- inception_4d/3x3_reduce
I0403 14:22:18.063797 13199 net.cpp:399] inception_4d/3x3 -> inception_4d/3x3
I0403 14:22:18.068004 13199 net.cpp:141] Setting up inception_4d/3x3
I0403 14:22:18.068032 13199 net.cpp:148] Top shape: 24 288 14 14 (1354752)
I0403 14:22:18.068048 13199 net.cpp:156] Memory required for data: 1126235424
I0403 14:22:18.068064 13199 layer_factory.hpp:77] Creating layer inception_4d/relu_3x3
I0403 14:22:18.068084 13199 net.cpp:91] Creating Layer inception_4d/relu_3x3
I0403 14:22:18.068101 13199 net.cpp:425] inception_4d/relu_3x3 <- inception_4d/3x3
I0403 14:22:18.068119 13199 net.cpp:386] inception_4d/relu_3x3 -> inception_4d/3x3 (in-place)
I0403 14:22:18.068295 13199 net.cpp:141] Setting up inception_4d/relu_3x3
I0403 14:22:18.068321 13199 net.cpp:148] Top shape: 24 288 14 14 (1354752)
I0403 14:22:18.068336 13199 net.cpp:156] Memory required for data: 1131654432
I0403 14:22:18.068351 13199 layer_factory.hpp:77] Creating layer inception_4d/5x5_reduce
I0403 14:22:18.068372 13199 net.cpp:91] Creating Layer inception_4d/5x5_reduce
I0403 14:22:18.068389 13199 net.cpp:425] inception_4d/5x5_reduce <- inception_4c/output_inception_4c/output_0_split_2
I0403 14:22:18.068408 13199 net.cpp:399] inception_4d/5x5_reduce -> inception_4d/5x5_reduce
I0403 14:22:18.069527 13199 net.cpp:141] Setting up inception_4d/5x5_reduce
I0403 14:22:18.069555 13199 net.cpp:148] Top shape: 24 32 14 14 (150528)
I0403 14:22:18.069574 13199 net.cpp:156] Memory required for data: 1132256544
I0403 14:22:18.069593 13199 layer_factory.hpp:77] Creating layer inception_4d/relu_5x5_reduce
I0403 14:22:18.069614 13199 net.cpp:91] Creating Layer inception_4d/relu_5x5_reduce
I0403 14:22:18.069631 13199 net.cpp:425] inception_4d/relu_5x5_reduce <- inception_4d/5x5_reduce
I0403 14:22:18.069648 13199 net.cpp:386] inception_4d/relu_5x5_reduce -> inception_4d/5x5_reduce (in-place)
I0403 14:22:18.069829 13199 net.cpp:141] Setting up inception_4d/relu_5x5_reduce
I0403 14:22:18.069856 13199 net.cpp:148] Top shape: 24 32 14 14 (150528)
I0403 14:22:18.069871 13199 net.cpp:156] Memory required for data: 1132858656
I0403 14:22:18.069885 13199 layer_factory.hpp:77] Creating layer inception_4d/5x5
I0403 14:22:18.069907 13199 net.cpp:91] Creating Layer inception_4d/5x5
I0403 14:22:18.069924 13199 net.cpp:425] inception_4d/5x5 <- inception_4d/5x5_reduce
I0403 14:22:18.069942 13199 net.cpp:399] inception_4d/5x5 -> inception_4d/5x5
I0403 14:22:18.071385 13199 net.cpp:141] Setting up inception_4d/5x5
I0403 14:22:18.071414 13199 net.cpp:148] Top shape: 24 64 14 14 (301056)
I0403 14:22:18.071431 13199 net.cpp:156] Memory required for data: 1134062880
I0403 14:22:18.071449 13199 layer_factory.hpp:77] Creating layer inception_4d/relu_5x5
I0403 14:22:18.071485 13199 net.cpp:91] Creating Layer inception_4d/relu_5x5
I0403 14:22:18.071502 13199 net.cpp:425] inception_4d/relu_5x5 <- inception_4d/5x5
I0403 14:22:18.071521 13199 net.cpp:386] inception_4d/relu_5x5 -> inception_4d/5x5 (in-place)
I0403 14:22:18.071842 13199 net.cpp:141] Setting up inception_4d/relu_5x5
I0403 14:22:18.071871 13199 net.cpp:148] Top shape: 24 64 14 14 (301056)
I0403 14:22:18.071887 13199 net.cpp:156] Memory required for data: 1135267104
I0403 14:22:18.071902 13199 layer_factory.hpp:77] Creating layer inception_4d/pool
I0403 14:22:18.071919 13199 net.cpp:91] Creating Layer inception_4d/pool
I0403 14:22:18.071935 13199 net.cpp:425] inception_4d/pool <- inception_4c/output_inception_4c/output_0_split_3
I0403 14:22:18.071956 13199 net.cpp:399] inception_4d/pool -> inception_4d/pool
I0403 14:22:18.072023 13199 net.cpp:141] Setting up inception_4d/pool
I0403 14:22:18.072046 13199 net.cpp:148] Top shape: 24 512 14 14 (2408448)
I0403 14:22:18.072062 13199 net.cpp:156] Memory required for data: 1144900896
I0403 14:22:18.072075 13199 layer_factory.hpp:77] Creating layer inception_4d/pool_proj
I0403 14:22:18.072098 13199 net.cpp:91] Creating Layer inception_4d/pool_proj
I0403 14:22:18.072115 13199 net.cpp:425] inception_4d/pool_proj <- inception_4d/pool
I0403 14:22:18.072136 13199 net.cpp:399] inception_4d/pool_proj -> inception_4d/pool_proj
I0403 14:22:18.073904 13199 net.cpp:141] Setting up inception_4d/pool_proj
I0403 14:22:18.073933 13199 net.cpp:148] Top shape: 24 64 14 14 (301056)
I0403 14:22:18.073951 13199 net.cpp:156] Memory required for data: 1146105120
I0403 14:22:18.073968 13199 layer_factory.hpp:77] Creating layer inception_4d/relu_pool_proj
I0403 14:22:18.073988 13199 net.cpp:91] Creating Layer inception_4d/relu_pool_proj
I0403 14:22:18.074007 13199 net.cpp:425] inception_4d/relu_pool_proj <- inception_4d/pool_proj
I0403 14:22:18.074023 13199 net.cpp:386] inception_4d/relu_pool_proj -> inception_4d/pool_proj (in-place)
I0403 14:22:18.074209 13199 net.cpp:141] Setting up inception_4d/relu_pool_proj
I0403 14:22:18.074236 13199 net.cpp:148] Top shape: 24 64 14 14 (301056)
I0403 14:22:18.074251 13199 net.cpp:156] Memory required for data: 1147309344
I0403 14:22:18.074266 13199 layer_factory.hpp:77] Creating layer inception_4d/output
I0403 14:22:18.074283 13199 net.cpp:91] Creating Layer inception_4d/output
I0403 14:22:18.074300 13199 net.cpp:425] inception_4d/output <- inception_4d/1x1
I0403 14:22:18.074316 13199 net.cpp:425] inception_4d/output <- inception_4d/3x3
I0403 14:22:18.074332 13199 net.cpp:425] inception_4d/output <- inception_4d/5x5
I0403 14:22:18.074348 13199 net.cpp:425] inception_4d/output <- inception_4d/pool_proj
I0403 14:22:18.074365 13199 net.cpp:399] inception_4d/output -> inception_4d/output
I0403 14:22:18.074414 13199 net.cpp:141] Setting up inception_4d/output
I0403 14:22:18.074437 13199 net.cpp:148] Top shape: 24 528 14 14 (2483712)
I0403 14:22:18.074451 13199 net.cpp:156] Memory required for data: 1157244192
I0403 14:22:18.074466 13199 layer_factory.hpp:77] Creating layer inception_4d/output_inception_4d/output_0_split
I0403 14:22:18.074486 13199 net.cpp:91] Creating Layer inception_4d/output_inception_4d/output_0_split
I0403 14:22:18.074502 13199 net.cpp:425] inception_4d/output_inception_4d/output_0_split <- inception_4d/output
I0403 14:22:18.074520 13199 net.cpp:399] inception_4d/output_inception_4d/output_0_split -> inception_4d/output_inception_4d/output_0_split_0
I0403 14:22:18.074542 13199 net.cpp:399] inception_4d/output_inception_4d/output_0_split -> inception_4d/output_inception_4d/output_0_split_1
I0403 14:22:18.074563 13199 net.cpp:399] inception_4d/output_inception_4d/output_0_split -> inception_4d/output_inception_4d/output_0_split_2
I0403 14:22:18.074599 13199 net.cpp:399] inception_4d/output_inception_4d/output_0_split -> inception_4d/output_inception_4d/output_0_split_3
I0403 14:22:18.074622 13199 net.cpp:399] inception_4d/output_inception_4d/output_0_split -> inception_4d/output_inception_4d/output_0_split_4
I0403 14:22:18.074726 13199 net.cpp:141] Setting up inception_4d/output_inception_4d/output_0_split
I0403 14:22:18.074762 13199 net.cpp:148] Top shape: 24 528 14 14 (2483712)
I0403 14:22:18.074780 13199 net.cpp:148] Top shape: 24 528 14 14 (2483712)
I0403 14:22:18.074795 13199 net.cpp:148] Top shape: 24 528 14 14 (2483712)
I0403 14:22:18.074818 13199 net.cpp:148] Top shape: 24 528 14 14 (2483712)
I0403 14:22:18.074833 13199 net.cpp:148] Top shape: 24 528 14 14 (2483712)
I0403 14:22:18.074847 13199 net.cpp:156] Memory required for data: 1206918432
I0403 14:22:18.074862 13199 layer_factory.hpp:77] Creating layer loss2/ave_pool
I0403 14:22:18.074882 13199 net.cpp:91] Creating Layer loss2/ave_pool
I0403 14:22:18.074898 13199 net.cpp:425] loss2/ave_pool <- inception_4d/output_inception_4d/output_0_split_0
I0403 14:22:18.074916 13199 net.cpp:399] loss2/ave_pool -> loss2/ave_pool
I0403 14:22:18.075228 13199 net.cpp:141] Setting up loss2/ave_pool
I0403 14:22:18.075254 13199 net.cpp:148] Top shape: 24 528 4 4 (202752)
I0403 14:22:18.075270 13199 net.cpp:156] Memory required for data: 1207729440
I0403 14:22:18.075285 13199 layer_factory.hpp:77] Creating layer loss2/conv
I0403 14:22:18.075309 13199 net.cpp:91] Creating Layer loss2/conv
I0403 14:22:18.075327 13199 net.cpp:425] loss2/conv <- loss2/ave_pool
I0403 14:22:18.075350 13199 net.cpp:399] loss2/conv -> loss2/conv
I0403 14:22:18.077244 13199 net.cpp:141] Setting up loss2/conv
I0403 14:22:18.077275 13199 net.cpp:148] Top shape: 24 128 4 4 (49152)
I0403 14:22:18.077292 13199 net.cpp:156] Memory required for data: 1207926048
I0403 14:22:18.077311 13199 layer_factory.hpp:77] Creating layer loss2/relu_conv
I0403 14:22:18.077329 13199 net.cpp:91] Creating Layer loss2/relu_conv
I0403 14:22:18.077345 13199 net.cpp:425] loss2/relu_conv <- loss2/conv
I0403 14:22:18.077365 13199 net.cpp:386] loss2/relu_conv -> loss2/conv (in-place)
I0403 14:22:18.077659 13199 net.cpp:141] Setting up loss2/relu_conv
I0403 14:22:18.077687 13199 net.cpp:148] Top shape: 24 128 4 4 (49152)
I0403 14:22:18.077703 13199 net.cpp:156] Memory required for data: 1208122656
I0403 14:22:18.077718 13199 layer_factory.hpp:77] Creating layer loss2/fc
I0403 14:22:18.077736 13199 net.cpp:91] Creating Layer loss2/fc
I0403 14:22:18.077754 13199 net.cpp:425] loss2/fc <- loss2/conv
I0403 14:22:18.077775 13199 net.cpp:399] loss2/fc -> loss2/fc
I0403 14:22:18.095439 13199 net.cpp:141] Setting up loss2/fc
I0403 14:22:18.095492 13199 net.cpp:148] Top shape: 24 1024 (24576)
I0403 14:22:18.095510 13199 net.cpp:156] Memory required for data: 1208220960
I0403 14:22:18.095530 13199 layer_factory.hpp:77] Creating layer loss2/relu_fc
I0403 14:22:18.095551 13199 net.cpp:91] Creating Layer loss2/relu_fc
I0403 14:22:18.095572 13199 net.cpp:425] loss2/relu_fc <- loss2/fc
I0403 14:22:18.095593 13199 net.cpp:386] loss2/relu_fc -> loss2/fc (in-place)
I0403 14:22:18.095927 13199 net.cpp:141] Setting up loss2/relu_fc
I0403 14:22:18.095954 13199 net.cpp:148] Top shape: 24 1024 (24576)
I0403 14:22:18.095973 13199 net.cpp:156] Memory required for data: 1208319264
I0403 14:22:18.095989 13199 layer_factory.hpp:77] Creating layer loss2/drop_fc
I0403 14:22:18.096007 13199 net.cpp:91] Creating Layer loss2/drop_fc
I0403 14:22:18.096024 13199 net.cpp:425] loss2/drop_fc <- loss2/fc
I0403 14:22:18.096041 13199 net.cpp:386] loss2/drop_fc -> loss2/fc (in-place)
I0403 14:22:18.096092 13199 net.cpp:141] Setting up loss2/drop_fc
I0403 14:22:18.096115 13199 net.cpp:148] Top shape: 24 1024 (24576)
I0403 14:22:18.096130 13199 net.cpp:156] Memory required for data: 1208417568
I0403 14:22:18.096145 13199 layer_factory.hpp:77] Creating layer loss2/classifier_plantvillage
I0403 14:22:18.096166 13199 net.cpp:91] Creating Layer loss2/classifier_plantvillage
I0403 14:22:18.096184 13199 net.cpp:425] loss2/classifier_plantvillage <- loss2/fc
I0403 14:22:18.096202 13199 net.cpp:399] loss2/classifier_plantvillage -> loss2/classifier_plantvillage
I0403 14:22:18.096621 13199 net.cpp:141] Setting up loss2/classifier_plantvillage
I0403 14:22:18.096645 13199 net.cpp:148] Top shape: 24 38 (912)
I0403 14:22:18.096660 13199 net.cpp:156] Memory required for data: 1208421216
I0403 14:22:18.096707 13199 layer_factory.hpp:77] Creating layer loss2/classifier_plantvillage_loss2/classifier_plantvillage_0_split
I0403 14:22:18.096727 13199 net.cpp:91] Creating Layer loss2/classifier_plantvillage_loss2/classifier_plantvillage_0_split
I0403 14:22:18.096743 13199 net.cpp:425] loss2/classifier_plantvillage_loss2/classifier_plantvillage_0_split <- loss2/classifier_plantvillage
I0403 14:22:18.096765 13199 net.cpp:399] loss2/classifier_plantvillage_loss2/classifier_plantvillage_0_split -> loss2/classifier_plantvillage_loss2/classifier_plantvillage_0_split_0
I0403 14:22:18.096786 13199 net.cpp:399] loss2/classifier_plantvillage_loss2/classifier_plantvillage_0_split -> loss2/classifier_plantvillage_loss2/classifier_plantvillage_0_split_1
I0403 14:22:18.096807 13199 net.cpp:399] loss2/classifier_plantvillage_loss2/classifier_plantvillage_0_split -> loss2/classifier_plantvillage_loss2/classifier_plantvillage_0_split_2
I0403 14:22:18.096886 13199 net.cpp:141] Setting up loss2/classifier_plantvillage_loss2/classifier_plantvillage_0_split
I0403 14:22:18.096912 13199 net.cpp:148] Top shape: 24 38 (912)
I0403 14:22:18.096930 13199 net.cpp:148] Top shape: 24 38 (912)
I0403 14:22:18.096946 13199 net.cpp:148] Top shape: 24 38 (912)
I0403 14:22:18.096959 13199 net.cpp:156] Memory required for data: 1208432160
I0403 14:22:18.096974 13199 layer_factory.hpp:77] Creating layer inception_4e/1x1
I0403 14:22:18.096997 13199 net.cpp:91] Creating Layer inception_4e/1x1
I0403 14:22:18.097017 13199 net.cpp:425] inception_4e/1x1 <- inception_4d/output_inception_4d/output_0_split_1
I0403 14:22:18.097035 13199 net.cpp:399] inception_4e/1x1 -> inception_4e/1x1
I0403 14:22:18.098929 13199 net.cpp:141] Setting up inception_4e/1x1
I0403 14:22:18.098959 13199 net.cpp:148] Top shape: 24 256 14 14 (1204224)
I0403 14:22:18.098976 13199 net.cpp:156] Memory required for data: 1213249056
I0403 14:22:18.098995 13199 layer_factory.hpp:77] Creating layer inception_4e/relu_1x1
I0403 14:22:18.099014 13199 net.cpp:91] Creating Layer inception_4e/relu_1x1
I0403 14:22:18.099030 13199 net.cpp:425] inception_4e/relu_1x1 <- inception_4e/1x1
I0403 14:22:18.099050 13199 net.cpp:386] inception_4e/relu_1x1 -> inception_4e/1x1 (in-place)
I0403 14:22:18.099346 13199 net.cpp:141] Setting up inception_4e/relu_1x1
I0403 14:22:18.099375 13199 net.cpp:148] Top shape: 24 256 14 14 (1204224)
I0403 14:22:18.099391 13199 net.cpp:156] Memory required for data: 1218065952
I0403 14:22:18.099406 13199 layer_factory.hpp:77] Creating layer inception_4e/3x3_reduce
I0403 14:22:18.099429 13199 net.cpp:91] Creating Layer inception_4e/3x3_reduce
I0403 14:22:18.099447 13199 net.cpp:425] inception_4e/3x3_reduce <- inception_4d/output_inception_4d/output_0_split_2
I0403 14:22:18.099467 13199 net.cpp:399] inception_4e/3x3_reduce -> inception_4e/3x3_reduce
I0403 14:22:18.101696 13199 net.cpp:141] Setting up inception_4e/3x3_reduce
I0403 14:22:18.101729 13199 net.cpp:148] Top shape: 24 160 14 14 (752640)
I0403 14:22:18.101747 13199 net.cpp:156] Memory required for data: 1221076512
I0403 14:22:18.101768 13199 layer_factory.hpp:77] Creating layer inception_4e/relu_3x3_reduce
I0403 14:22:18.101785 13199 net.cpp:91] Creating Layer inception_4e/relu_3x3_reduce
I0403 14:22:18.101811 13199 net.cpp:425] inception_4e/relu_3x3_reduce <- inception_4e/3x3_reduce
I0403 14:22:18.101830 13199 net.cpp:386] inception_4e/relu_3x3_reduce -> inception_4e/3x3_reduce (in-place)
I0403 14:22:18.102028 13199 net.cpp:141] Setting up inception_4e/relu_3x3_reduce
I0403 14:22:18.102053 13199 net.cpp:148] Top shape: 24 160 14 14 (752640)
I0403 14:22:18.102069 13199 net.cpp:156] Memory required for data: 1224087072
I0403 14:22:18.102084 13199 layer_factory.hpp:77] Creating layer inception_4e/3x3
I0403 14:22:18.102108 13199 net.cpp:91] Creating Layer inception_4e/3x3
I0403 14:22:18.102128 13199 net.cpp:425] inception_4e/3x3 <- inception_4e/3x3_reduce
I0403 14:22:18.102150 13199 net.cpp:399] inception_4e/3x3 -> inception_4e/3x3
I0403 14:22:18.107317 13199 net.cpp:141] Setting up inception_4e/3x3
I0403 14:22:18.107362 13199 net.cpp:148] Top shape: 24 320 14 14 (1505280)
I0403 14:22:18.107378 13199 net.cpp:156] Memory required for data: 1230108192
I0403 14:22:18.107398 13199 layer_factory.hpp:77] Creating layer inception_4e/relu_3x3
I0403 14:22:18.107420 13199 net.cpp:91] Creating Layer inception_4e/relu_3x3
I0403 14:22:18.107439 13199 net.cpp:425] inception_4e/relu_3x3 <- inception_4e/3x3
I0403 14:22:18.107457 13199 net.cpp:386] inception_4e/relu_3x3 -> inception_4e/3x3 (in-place)
I0403 14:22:18.107785 13199 net.cpp:141] Setting up inception_4e/relu_3x3
I0403 14:22:18.107812 13199 net.cpp:148] Top shape: 24 320 14 14 (1505280)
I0403 14:22:18.107828 13199 net.cpp:156] Memory required for data: 1236129312
I0403 14:22:18.107843 13199 layer_factory.hpp:77] Creating layer inception_4e/5x5_reduce
I0403 14:22:18.107867 13199 net.cpp:91] Creating Layer inception_4e/5x5_reduce
I0403 14:22:18.107884 13199 net.cpp:425] inception_4e/5x5_reduce <- inception_4d/output_inception_4d/output_0_split_3
I0403 14:22:18.107906 13199 net.cpp:399] inception_4e/5x5_reduce -> inception_4e/5x5_reduce
I0403 14:22:18.109022 13199 net.cpp:141] Setting up inception_4e/5x5_reduce
I0403 14:22:18.109053 13199 net.cpp:148] Top shape: 24 32 14 14 (150528)
I0403 14:22:18.109071 13199 net.cpp:156] Memory required for data: 1236731424
I0403 14:22:18.109091 13199 layer_factory.hpp:77] Creating layer inception_4e/relu_5x5_reduce
I0403 14:22:18.109109 13199 net.cpp:91] Creating Layer inception_4e/relu_5x5_reduce
I0403 14:22:18.109125 13199 net.cpp:425] inception_4e/relu_5x5_reduce <- inception_4e/5x5_reduce
I0403 14:22:18.109146 13199 net.cpp:386] inception_4e/relu_5x5_reduce -> inception_4e/5x5_reduce (in-place)
I0403 14:22:18.109452 13199 net.cpp:141] Setting up inception_4e/relu_5x5_reduce
I0403 14:22:18.109482 13199 net.cpp:148] Top shape: 24 32 14 14 (150528)
I0403 14:22:18.109498 13199 net.cpp:156] Memory required for data: 1237333536
I0403 14:22:18.109514 13199 layer_factory.hpp:77] Creating layer inception_4e/5x5
I0403 14:22:18.109555 13199 net.cpp:91] Creating Layer inception_4e/5x5
I0403 14:22:18.109582 13199 net.cpp:425] inception_4e/5x5 <- inception_4e/5x5_reduce
I0403 14:22:18.109604 13199 net.cpp:399] inception_4e/5x5 -> inception_4e/5x5
I0403 14:22:18.111511 13199 net.cpp:141] Setting up inception_4e/5x5
I0403 14:22:18.111539 13199 net.cpp:148] Top shape: 24 128 14 14 (602112)
I0403 14:22:18.111555 13199 net.cpp:156] Memory required for data: 1239741984
I0403 14:22:18.111579 13199 layer_factory.hpp:77] Creating layer inception_4e/relu_5x5
I0403 14:22:18.111601 13199 net.cpp:91] Creating Layer inception_4e/relu_5x5
I0403 14:22:18.111619 13199 net.cpp:425] inception_4e/relu_5x5 <- inception_4e/5x5
I0403 14:22:18.111636 13199 net.cpp:386] inception_4e/relu_5x5 -> inception_4e/5x5 (in-place)
I0403 14:22:18.111837 13199 net.cpp:141] Setting up inception_4e/relu_5x5
I0403 14:22:18.111862 13199 net.cpp:148] Top shape: 24 128 14 14 (602112)
I0403 14:22:18.111877 13199 net.cpp:156] Memory required for data: 1242150432
I0403 14:22:18.111892 13199 layer_factory.hpp:77] Creating layer inception_4e/pool
I0403 14:22:18.111910 13199 net.cpp:91] Creating Layer inception_4e/pool
I0403 14:22:18.111927 13199 net.cpp:425] inception_4e/pool <- inception_4d/output_inception_4d/output_0_split_4
I0403 14:22:18.111946 13199 net.cpp:399] inception_4e/pool -> inception_4e/pool
I0403 14:22:18.112016 13199 net.cpp:141] Setting up inception_4e/pool
I0403 14:22:18.112040 13199 net.cpp:148] Top shape: 24 528 14 14 (2483712)
I0403 14:22:18.112056 13199 net.cpp:156] Memory required for data: 1252085280
I0403 14:22:18.112071 13199 layer_factory.hpp:77] Creating layer inception_4e/pool_proj
I0403 14:22:18.112093 13199 net.cpp:91] Creating Layer inception_4e/pool_proj
I0403 14:22:18.112112 13199 net.cpp:425] inception_4e/pool_proj <- inception_4e/pool
I0403 14:22:18.112130 13199 net.cpp:399] inception_4e/pool_proj -> inception_4e/pool_proj
I0403 14:22:18.113641 13199 net.cpp:141] Setting up inception_4e/pool_proj
I0403 14:22:18.113669 13199 net.cpp:148] Top shape: 24 128 14 14 (602112)
I0403 14:22:18.113699 13199 net.cpp:156] Memory required for data: 1254493728
I0403 14:22:18.113719 13199 layer_factory.hpp:77] Creating layer inception_4e/relu_pool_proj
I0403 14:22:18.113739 13199 net.cpp:91] Creating Layer inception_4e/relu_pool_proj
I0403 14:22:18.113757 13199 net.cpp:425] inception_4e/relu_pool_proj <- inception_4e/pool_proj
I0403 14:22:18.113775 13199 net.cpp:386] inception_4e/relu_pool_proj -> inception_4e/pool_proj (in-place)
I0403 14:22:18.114073 13199 net.cpp:141] Setting up inception_4e/relu_pool_proj
I0403 14:22:18.114099 13199 net.cpp:148] Top shape: 24 128 14 14 (602112)
I0403 14:22:18.114114 13199 net.cpp:156] Memory required for data: 1256902176
I0403 14:22:18.114130 13199 layer_factory.hpp:77] Creating layer inception_4e/output
I0403 14:22:18.114150 13199 net.cpp:91] Creating Layer inception_4e/output
I0403 14:22:18.114166 13199 net.cpp:425] inception_4e/output <- inception_4e/1x1
I0403 14:22:18.114182 13199 net.cpp:425] inception_4e/output <- inception_4e/3x3
I0403 14:22:18.114198 13199 net.cpp:425] inception_4e/output <- inception_4e/5x5
I0403 14:22:18.114215 13199 net.cpp:425] inception_4e/output <- inception_4e/pool_proj
I0403 14:22:18.114233 13199 net.cpp:399] inception_4e/output -> inception_4e/output
I0403 14:22:18.114284 13199 net.cpp:141] Setting up inception_4e/output
I0403 14:22:18.114307 13199 net.cpp:148] Top shape: 24 832 14 14 (3913728)
I0403 14:22:18.114322 13199 net.cpp:156] Memory required for data: 1272557088
I0403 14:22:18.114337 13199 layer_factory.hpp:77] Creating layer pool4/3x3_s2
I0403 14:22:18.114354 13199 net.cpp:91] Creating Layer pool4/3x3_s2
I0403 14:22:18.114370 13199 net.cpp:425] pool4/3x3_s2 <- inception_4e/output
I0403 14:22:18.114392 13199 net.cpp:399] pool4/3x3_s2 -> pool4/3x3_s2
I0403 14:22:18.114459 13199 net.cpp:141] Setting up pool4/3x3_s2
I0403 14:22:18.114483 13199 net.cpp:148] Top shape: 24 832 7 7 (978432)
I0403 14:22:18.114497 13199 net.cpp:156] Memory required for data: 1276470816
I0403 14:22:18.114512 13199 layer_factory.hpp:77] Creating layer pool4/3x3_s2_pool4/3x3_s2_0_split
I0403 14:22:18.114532 13199 net.cpp:91] Creating Layer pool4/3x3_s2_pool4/3x3_s2_0_split
I0403 14:22:18.114549 13199 net.cpp:425] pool4/3x3_s2_pool4/3x3_s2_0_split <- pool4/3x3_s2
I0403 14:22:18.114580 13199 net.cpp:399] pool4/3x3_s2_pool4/3x3_s2_0_split -> pool4/3x3_s2_pool4/3x3_s2_0_split_0
I0403 14:22:18.114605 13199 net.cpp:399] pool4/3x3_s2_pool4/3x3_s2_0_split -> pool4/3x3_s2_pool4/3x3_s2_0_split_1
I0403 14:22:18.114625 13199 net.cpp:399] pool4/3x3_s2_pool4/3x3_s2_0_split -> pool4/3x3_s2_pool4/3x3_s2_0_split_2
I0403 14:22:18.114645 13199 net.cpp:399] pool4/3x3_s2_pool4/3x3_s2_0_split -> pool4/3x3_s2_pool4/3x3_s2_0_split_3
I0403 14:22:18.114737 13199 net.cpp:141] Setting up pool4/3x3_s2_pool4/3x3_s2_0_split
I0403 14:22:18.114759 13199 net.cpp:148] Top shape: 24 832 7 7 (978432)
I0403 14:22:18.114776 13199 net.cpp:148] Top shape: 24 832 7 7 (978432)
I0403 14:22:18.114792 13199 net.cpp:148] Top shape: 24 832 7 7 (978432)
I0403 14:22:18.114807 13199 net.cpp:148] Top shape: 24 832 7 7 (978432)
I0403 14:22:18.114821 13199 net.cpp:156] Memory required for data: 1292125728
I0403 14:22:18.114835 13199 layer_factory.hpp:77] Creating layer inception_5a/1x1
I0403 14:22:18.114857 13199 net.cpp:91] Creating Layer inception_5a/1x1
I0403 14:22:18.114874 13199 net.cpp:425] inception_5a/1x1 <- pool4/3x3_s2_pool4/3x3_s2_0_split_0
I0403 14:22:18.114895 13199 net.cpp:399] inception_5a/1x1 -> inception_5a/1x1
I0403 14:22:18.117789 13199 net.cpp:141] Setting up inception_5a/1x1
I0403 14:22:18.117820 13199 net.cpp:148] Top shape: 24 256 7 7 (301056)
I0403 14:22:18.117837 13199 net.cpp:156] Memory required for data: 1293329952
I0403 14:22:18.117867 13199 layer_factory.hpp:77] Creating layer inception_5a/relu_1x1
I0403 14:22:18.117885 13199 net.cpp:91] Creating Layer inception_5a/relu_1x1
I0403 14:22:18.117902 13199 net.cpp:425] inception_5a/relu_1x1 <- inception_5a/1x1
I0403 14:22:18.117918 13199 net.cpp:386] inception_5a/relu_1x1 -> inception_5a/1x1 (in-place)
I0403 14:22:18.118226 13199 net.cpp:141] Setting up inception_5a/relu_1x1
I0403 14:22:18.118253 13199 net.cpp:148] Top shape: 24 256 7 7 (301056)
I0403 14:22:18.118269 13199 net.cpp:156] Memory required for data: 1294534176
I0403 14:22:18.118284 13199 layer_factory.hpp:77] Creating layer inception_5a/3x3_reduce
I0403 14:22:18.118306 13199 net.cpp:91] Creating Layer inception_5a/3x3_reduce
I0403 14:22:18.118324 13199 net.cpp:425] inception_5a/3x3_reduce <- pool4/3x3_s2_pool4/3x3_s2_0_split_1
I0403 14:22:18.118343 13199 net.cpp:399] inception_5a/3x3_reduce -> inception_5a/3x3_reduce
I0403 14:22:18.120750 13199 net.cpp:141] Setting up inception_5a/3x3_reduce
I0403 14:22:18.120779 13199 net.cpp:148] Top shape: 24 160 7 7 (188160)
I0403 14:22:18.120795 13199 net.cpp:156] Memory required for data: 1295286816
I0403 14:22:18.120812 13199 layer_factory.hpp:77] Creating layer inception_5a/relu_3x3_reduce
I0403 14:22:18.120832 13199 net.cpp:91] Creating Layer inception_5a/relu_3x3_reduce
I0403 14:22:18.120849 13199 net.cpp:425] inception_5a/relu_3x3_reduce <- inception_5a/3x3_reduce
I0403 14:22:18.120867 13199 net.cpp:386] inception_5a/relu_3x3_reduce -> inception_5a/3x3_reduce (in-place)
I0403 14:22:18.121048 13199 net.cpp:141] Setting up inception_5a/relu_3x3_reduce
I0403 14:22:18.121074 13199 net.cpp:148] Top shape: 24 160 7 7 (188160)
I0403 14:22:18.121089 13199 net.cpp:156] Memory required for data: 1296039456
I0403 14:22:18.121104 13199 layer_factory.hpp:77] Creating layer inception_5a/3x3
I0403 14:22:18.121124 13199 net.cpp:91] Creating Layer inception_5a/3x3
I0403 14:22:18.121140 13199 net.cpp:425] inception_5a/3x3 <- inception_5a/3x3_reduce
I0403 14:22:18.121161 13199 net.cpp:399] inception_5a/3x3 -> inception_5a/3x3
I0403 14:22:18.126112 13199 net.cpp:141] Setting up inception_5a/3x3
I0403 14:22:18.126142 13199 net.cpp:148] Top shape: 24 320 7 7 (376320)
I0403 14:22:18.126157 13199 net.cpp:156] Memory required for data: 1297544736
I0403 14:22:18.126175 13199 layer_factory.hpp:77] Creating layer inception_5a/relu_3x3
I0403 14:22:18.126195 13199 net.cpp:91] Creating Layer inception_5a/relu_3x3
I0403 14:22:18.126212 13199 net.cpp:425] inception_5a/relu_3x3 <- inception_5a/3x3
I0403 14:22:18.126230 13199 net.cpp:386] inception_5a/relu_3x3 -> inception_5a/3x3 (in-place)
I0403 14:22:18.126518 13199 net.cpp:141] Setting up inception_5a/relu_3x3
I0403 14:22:18.126544 13199 net.cpp:148] Top shape: 24 320 7 7 (376320)
I0403 14:22:18.126559 13199 net.cpp:156] Memory required for data: 1299050016
I0403 14:22:18.126580 13199 layer_factory.hpp:77] Creating layer inception_5a/5x5_reduce
I0403 14:22:18.126606 13199 net.cpp:91] Creating Layer inception_5a/5x5_reduce
I0403 14:22:18.126624 13199 net.cpp:425] inception_5a/5x5_reduce <- pool4/3x3_s2_pool4/3x3_s2_0_split_2
I0403 14:22:18.126655 13199 net.cpp:399] inception_5a/5x5_reduce -> inception_5a/5x5_reduce
I0403 14:22:18.127835 13199 net.cpp:141] Setting up inception_5a/5x5_reduce
I0403 14:22:18.127866 13199 net.cpp:148] Top shape: 24 32 7 7 (37632)
I0403 14:22:18.127883 13199 net.cpp:156] Memory required for data: 1299200544
I0403 14:22:18.127902 13199 layer_factory.hpp:77] Creating layer inception_5a/relu_5x5_reduce
I0403 14:22:18.127919 13199 net.cpp:91] Creating Layer inception_5a/relu_5x5_reduce
I0403 14:22:18.127948 13199 net.cpp:425] inception_5a/relu_5x5_reduce <- inception_5a/5x5_reduce
I0403 14:22:18.127966 13199 net.cpp:386] inception_5a/relu_5x5_reduce -> inception_5a/5x5_reduce (in-place)
I0403 14:22:18.128257 13199 net.cpp:141] Setting up inception_5a/relu_5x5_reduce
I0403 14:22:18.128283 13199 net.cpp:148] Top shape: 24 32 7 7 (37632)
I0403 14:22:18.128298 13199 net.cpp:156] Memory required for data: 1299351072
I0403 14:22:18.128314 13199 layer_factory.hpp:77] Creating layer inception_5a/5x5
I0403 14:22:18.128335 13199 net.cpp:91] Creating Layer inception_5a/5x5
I0403 14:22:18.128353 13199 net.cpp:425] inception_5a/5x5 <- inception_5a/5x5_reduce
I0403 14:22:18.128374 13199 net.cpp:399] inception_5a/5x5 -> inception_5a/5x5
I0403 14:22:18.130136 13199 net.cpp:141] Setting up inception_5a/5x5
I0403 14:22:18.130173 13199 net.cpp:148] Top shape: 24 128 7 7 (150528)
I0403 14:22:18.130189 13199 net.cpp:156] Memory required for data: 1299953184
I0403 14:22:18.130208 13199 layer_factory.hpp:77] Creating layer inception_5a/relu_5x5
I0403 14:22:18.130228 13199 net.cpp:91] Creating Layer inception_5a/relu_5x5
I0403 14:22:18.130246 13199 net.cpp:425] inception_5a/relu_5x5 <- inception_5a/5x5
I0403 14:22:18.130264 13199 net.cpp:386] inception_5a/relu_5x5 -> inception_5a/5x5 (in-place)
I0403 14:22:18.130453 13199 net.cpp:141] Setting up inception_5a/relu_5x5
I0403 14:22:18.130477 13199 net.cpp:148] Top shape: 24 128 7 7 (150528)
I0403 14:22:18.130492 13199 net.cpp:156] Memory required for data: 1300555296
I0403 14:22:18.130507 13199 layer_factory.hpp:77] Creating layer inception_5a/pool
I0403 14:22:18.130524 13199 net.cpp:91] Creating Layer inception_5a/pool
I0403 14:22:18.130540 13199 net.cpp:425] inception_5a/pool <- pool4/3x3_s2_pool4/3x3_s2_0_split_3
I0403 14:22:18.130560 13199 net.cpp:399] inception_5a/pool -> inception_5a/pool
I0403 14:22:18.130635 13199 net.cpp:141] Setting up inception_5a/pool
I0403 14:22:18.130671 13199 net.cpp:148] Top shape: 24 832 7 7 (978432)
I0403 14:22:18.130686 13199 net.cpp:156] Memory required for data: 1304469024
I0403 14:22:18.130700 13199 layer_factory.hpp:77] Creating layer inception_5a/pool_proj
I0403 14:22:18.130736 13199 net.cpp:91] Creating Layer inception_5a/pool_proj
I0403 14:22:18.130755 13199 net.cpp:425] inception_5a/pool_proj <- inception_5a/pool
I0403 14:22:18.130774 13199 net.cpp:399] inception_5a/pool_proj -> inception_5a/pool_proj
I0403 14:22:18.133106 13199 net.cpp:141] Setting up inception_5a/pool_proj
I0403 14:22:18.133134 13199 net.cpp:148] Top shape: 24 128 7 7 (150528)
I0403 14:22:18.133150 13199 net.cpp:156] Memory required for data: 1305071136
I0403 14:22:18.133168 13199 layer_factory.hpp:77] Creating layer inception_5a/relu_pool_proj
I0403 14:22:18.133188 13199 net.cpp:91] Creating Layer inception_5a/relu_pool_proj
I0403 14:22:18.133205 13199 net.cpp:425] inception_5a/relu_pool_proj <- inception_5a/pool_proj
I0403 14:22:18.133222 13199 net.cpp:386] inception_5a/relu_pool_proj -> inception_5a/pool_proj (in-place)
I0403 14:22:18.133510 13199 net.cpp:141] Setting up inception_5a/relu_pool_proj
I0403 14:22:18.133535 13199 net.cpp:148] Top shape: 24 128 7 7 (150528)
I0403 14:22:18.133551 13199 net.cpp:156] Memory required for data: 1305673248
I0403 14:22:18.133565 13199 layer_factory.hpp:77] Creating layer inception_5a/output
I0403 14:22:18.133594 13199 net.cpp:91] Creating Layer inception_5a/output
I0403 14:22:18.133610 13199 net.cpp:425] inception_5a/output <- inception_5a/1x1
I0403 14:22:18.133626 13199 net.cpp:425] inception_5a/output <- inception_5a/3x3
I0403 14:22:18.133653 13199 net.cpp:425] inception_5a/output <- inception_5a/5x5
I0403 14:22:18.133669 13199 net.cpp:425] inception_5a/output <- inception_5a/pool_proj
I0403 14:22:18.133687 13199 net.cpp:399] inception_5a/output -> inception_5a/output
I0403 14:22:18.133739 13199 net.cpp:141] Setting up inception_5a/output
I0403 14:22:18.133762 13199 net.cpp:148] Top shape: 24 832 7 7 (978432)
I0403 14:22:18.133777 13199 net.cpp:156] Memory required for data: 1309586976
I0403 14:22:18.133792 13199 layer_factory.hpp:77] Creating layer inception_5a/output_inception_5a/output_0_split
I0403 14:22:18.133810 13199 net.cpp:91] Creating Layer inception_5a/output_inception_5a/output_0_split
I0403 14:22:18.133826 13199 net.cpp:425] inception_5a/output_inception_5a/output_0_split <- inception_5a/output
I0403 14:22:18.133848 13199 net.cpp:399] inception_5a/output_inception_5a/output_0_split -> inception_5a/output_inception_5a/output_0_split_0
I0403 14:22:18.133869 13199 net.cpp:399] inception_5a/output_inception_5a/output_0_split -> inception_5a/output_inception_5a/output_0_split_1
I0403 14:22:18.133890 13199 net.cpp:399] inception_5a/output_inception_5a/output_0_split -> inception_5a/output_inception_5a/output_0_split_2
I0403 14:22:18.133910 13199 net.cpp:399] inception_5a/output_inception_5a/output_0_split -> inception_5a/output_inception_5a/output_0_split_3
I0403 14:22:18.134032 13199 net.cpp:141] Setting up inception_5a/output_inception_5a/output_0_split
I0403 14:22:18.134057 13199 net.cpp:148] Top shape: 24 832 7 7 (978432)
I0403 14:22:18.134073 13199 net.cpp:148] Top shape: 24 832 7 7 (978432)
I0403 14:22:18.134089 13199 net.cpp:148] Top shape: 24 832 7 7 (978432)
I0403 14:22:18.134104 13199 net.cpp:148] Top shape: 24 832 7 7 (978432)
I0403 14:22:18.134119 13199 net.cpp:156] Memory required for data: 1325241888
I0403 14:22:18.134132 13199 layer_factory.hpp:77] Creating layer inception_5b/1x1
I0403 14:22:18.134153 13199 net.cpp:91] Creating Layer inception_5b/1x1
I0403 14:22:18.134171 13199 net.cpp:425] inception_5b/1x1 <- inception_5a/output_inception_5a/output_0_split_0
I0403 14:22:18.134191 13199 net.cpp:399] inception_5b/1x1 -> inception_5b/1x1
I0403 14:22:18.137926 13199 net.cpp:141] Setting up inception_5b/1x1
I0403 14:22:18.137955 13199 net.cpp:148] Top shape: 24 384 7 7 (451584)
I0403 14:22:18.137971 13199 net.cpp:156] Memory required for data: 1327048224
I0403 14:22:18.137989 13199 layer_factory.hpp:77] Creating layer inception_5b/relu_1x1
I0403 14:22:18.138010 13199 net.cpp:91] Creating Layer inception_5b/relu_1x1
I0403 14:22:18.138027 13199 net.cpp:425] inception_5b/relu_1x1 <- inception_5b/1x1
I0403 14:22:18.138044 13199 net.cpp:386] inception_5b/relu_1x1 -> inception_5b/1x1 (in-place)
I0403 14:22:18.138345 13199 net.cpp:141] Setting up inception_5b/relu_1x1
I0403 14:22:18.138370 13199 net.cpp:148] Top shape: 24 384 7 7 (451584)
I0403 14:22:18.138383 13199 net.cpp:156] Memory required for data: 1328854560
I0403 14:22:18.138398 13199 layer_factory.hpp:77] Creating layer inception_5b/3x3_reduce
I0403 14:22:18.138419 13199 net.cpp:91] Creating Layer inception_5b/3x3_reduce
I0403 14:22:18.138437 13199 net.cpp:425] inception_5b/3x3_reduce <- inception_5a/output_inception_5a/output_0_split_1
I0403 14:22:18.138459 13199 net.cpp:399] inception_5b/3x3_reduce -> inception_5b/3x3_reduce
I0403 14:22:18.141057 13199 net.cpp:141] Setting up inception_5b/3x3_reduce
I0403 14:22:18.141086 13199 net.cpp:148] Top shape: 24 192 7 7 (225792)
I0403 14:22:18.141103 13199 net.cpp:156] Memory required for data: 1329757728
I0403 14:22:18.141120 13199 layer_factory.hpp:77] Creating layer inception_5b/relu_3x3_reduce
I0403 14:22:18.141140 13199 net.cpp:91] Creating Layer inception_5b/relu_3x3_reduce
I0403 14:22:18.141158 13199 net.cpp:425] inception_5b/relu_3x3_reduce <- inception_5b/3x3_reduce
I0403 14:22:18.141175 13199 net.cpp:386] inception_5b/relu_3x3_reduce -> inception_5b/3x3_reduce (in-place)
I0403 14:22:18.141360 13199 net.cpp:141] Setting up inception_5b/relu_3x3_reduce
I0403 14:22:18.141387 13199 net.cpp:148] Top shape: 24 192 7 7 (225792)
I0403 14:22:18.141402 13199 net.cpp:156] Memory required for data: 1330660896
I0403 14:22:18.141417 13199 layer_factory.hpp:77] Creating layer inception_5b/3x3
I0403 14:22:18.141438 13199 net.cpp:91] Creating Layer inception_5b/3x3
I0403 14:22:18.141456 13199 net.cpp:425] inception_5b/3x3 <- inception_5b/3x3_reduce
I0403 14:22:18.141475 13199 net.cpp:399] inception_5b/3x3 -> inception_5b/3x3
I0403 14:22:18.148043 13199 net.cpp:141] Setting up inception_5b/3x3
I0403 14:22:18.148072 13199 net.cpp:148] Top shape: 24 384 7 7 (451584)
I0403 14:22:18.148087 13199 net.cpp:156] Memory required for data: 1332467232
I0403 14:22:18.148104 13199 layer_factory.hpp:77] Creating layer inception_5b/relu_3x3
I0403 14:22:18.148124 13199 net.cpp:91] Creating Layer inception_5b/relu_3x3
I0403 14:22:18.148141 13199 net.cpp:425] inception_5b/relu_3x3 <- inception_5b/3x3
I0403 14:22:18.148159 13199 net.cpp:386] inception_5b/relu_3x3 -> inception_5b/3x3 (in-place)
I0403 14:22:18.148450 13199 net.cpp:141] Setting up inception_5b/relu_3x3
I0403 14:22:18.148475 13199 net.cpp:148] Top shape: 24 384 7 7 (451584)
I0403 14:22:18.148490 13199 net.cpp:156] Memory required for data: 1334273568
I0403 14:22:18.148505 13199 layer_factory.hpp:77] Creating layer inception_5b/5x5_reduce
I0403 14:22:18.148542 13199 net.cpp:91] Creating Layer inception_5b/5x5_reduce
I0403 14:22:18.148561 13199 net.cpp:425] inception_5b/5x5_reduce <- inception_5a/output_inception_5a/output_0_split_2
I0403 14:22:18.148588 13199 net.cpp:399] inception_5b/5x5_reduce -> inception_5b/5x5_reduce
I0403 14:22:18.149832 13199 net.cpp:141] Setting up inception_5b/5x5_reduce
I0403 14:22:18.149858 13199 net.cpp:148] Top shape: 24 48 7 7 (56448)
I0403 14:22:18.149873 13199 net.cpp:156] Memory required for data: 1334499360
I0403 14:22:18.149891 13199 layer_factory.hpp:77] Creating layer inception_5b/relu_5x5_reduce
I0403 14:22:18.149911 13199 net.cpp:91] Creating Layer inception_5b/relu_5x5_reduce
I0403 14:22:18.149929 13199 net.cpp:425] inception_5b/relu_5x5_reduce <- inception_5b/5x5_reduce
I0403 14:22:18.149946 13199 net.cpp:386] inception_5b/relu_5x5_reduce -> inception_5b/5x5_reduce (in-place)
I0403 14:22:18.150312 13199 net.cpp:141] Setting up inception_5b/relu_5x5_reduce
I0403 14:22:18.150338 13199 net.cpp:148] Top shape: 24 48 7 7 (56448)
I0403 14:22:18.150353 13199 net.cpp:156] Memory required for data: 1334725152
I0403 14:22:18.150367 13199 layer_factory.hpp:77] Creating layer inception_5b/5x5
I0403 14:22:18.150388 13199 net.cpp:91] Creating Layer inception_5b/5x5
I0403 14:22:18.150404 13199 net.cpp:425] inception_5b/5x5 <- inception_5b/5x5_reduce
I0403 14:22:18.150423 13199 net.cpp:399] inception_5b/5x5 -> inception_5b/5x5
I0403 14:22:18.152425 13199 net.cpp:141] Setting up inception_5b/5x5
I0403 14:22:18.152453 13199 net.cpp:148] Top shape: 24 128 7 7 (150528)
I0403 14:22:18.152469 13199 net.cpp:156] Memory required for data: 1335327264
I0403 14:22:18.152487 13199 layer_factory.hpp:77] Creating layer inception_5b/relu_5x5
I0403 14:22:18.152505 13199 net.cpp:91] Creating Layer inception_5b/relu_5x5
I0403 14:22:18.152521 13199 net.cpp:425] inception_5b/relu_5x5 <- inception_5b/5x5
I0403 14:22:18.152539 13199 net.cpp:386] inception_5b/relu_5x5 -> inception_5b/5x5 (in-place)
I0403 14:22:18.152737 13199 net.cpp:141] Setting up inception_5b/relu_5x5
I0403 14:22:18.152761 13199 net.cpp:148] Top shape: 24 128 7 7 (150528)
I0403 14:22:18.152776 13199 net.cpp:156] Memory required for data: 1335929376
I0403 14:22:18.152791 13199 layer_factory.hpp:77] Creating layer inception_5b/pool
I0403 14:22:18.152808 13199 net.cpp:91] Creating Layer inception_5b/pool
I0403 14:22:18.152824 13199 net.cpp:425] inception_5b/pool <- inception_5a/output_inception_5a/output_0_split_3
I0403 14:22:18.152844 13199 net.cpp:399] inception_5b/pool -> inception_5b/pool
I0403 14:22:18.152915 13199 net.cpp:141] Setting up inception_5b/pool
I0403 14:22:18.152940 13199 net.cpp:148] Top shape: 24 832 7 7 (978432)
I0403 14:22:18.152956 13199 net.cpp:156] Memory required for data: 1339843104
I0403 14:22:18.152971 13199 layer_factory.hpp:77] Creating layer inception_5b/pool_proj
I0403 14:22:18.152992 13199 net.cpp:91] Creating Layer inception_5b/pool_proj
I0403 14:22:18.153009 13199 net.cpp:425] inception_5b/pool_proj <- inception_5b/pool
I0403 14:22:18.153028 13199 net.cpp:399] inception_5b/pool_proj -> inception_5b/pool_proj
I0403 14:22:18.155354 13199 net.cpp:141] Setting up inception_5b/pool_proj
I0403 14:22:18.155385 13199 net.cpp:148] Top shape: 24 128 7 7 (150528)
I0403 14:22:18.155400 13199 net.cpp:156] Memory required for data: 1340445216
I0403 14:22:18.155419 13199 layer_factory.hpp:77] Creating layer inception_5b/relu_pool_proj
I0403 14:22:18.155441 13199 net.cpp:91] Creating Layer inception_5b/relu_pool_proj
I0403 14:22:18.155458 13199 net.cpp:425] inception_5b/relu_pool_proj <- inception_5b/pool_proj
I0403 14:22:18.155475 13199 net.cpp:386] inception_5b/relu_pool_proj -> inception_5b/pool_proj (in-place)
I0403 14:22:18.155787 13199 net.cpp:141] Setting up inception_5b/relu_pool_proj
I0403 14:22:18.155813 13199 net.cpp:148] Top shape: 24 128 7 7 (150528)
I0403 14:22:18.155836 13199 net.cpp:156] Memory required for data: 1341047328
I0403 14:22:18.155851 13199 layer_factory.hpp:77] Creating layer inception_5b/output
I0403 14:22:18.155870 13199 net.cpp:91] Creating Layer inception_5b/output
I0403 14:22:18.155901 13199 net.cpp:425] inception_5b/output <- inception_5b/1x1
I0403 14:22:18.155920 13199 net.cpp:425] inception_5b/output <- inception_5b/3x3
I0403 14:22:18.155936 13199 net.cpp:425] inception_5b/output <- inception_5b/5x5
I0403 14:22:18.155952 13199 net.cpp:425] inception_5b/output <- inception_5b/pool_proj
I0403 14:22:18.155969 13199 net.cpp:399] inception_5b/output -> inception_5b/output
I0403 14:22:18.156025 13199 net.cpp:141] Setting up inception_5b/output
I0403 14:22:18.156049 13199 net.cpp:148] Top shape: 24 1024 7 7 (1204224)
I0403 14:22:18.156064 13199 net.cpp:156] Memory required for data: 1345864224
I0403 14:22:18.156078 13199 layer_factory.hpp:77] Creating layer pool5/7x7_s1
I0403 14:22:18.156096 13199 net.cpp:91] Creating Layer pool5/7x7_s1
I0403 14:22:18.156112 13199 net.cpp:425] pool5/7x7_s1 <- inception_5b/output
I0403 14:22:18.156132 13199 net.cpp:399] pool5/7x7_s1 -> pool5/7x7_s1
I0403 14:22:18.156348 13199 net.cpp:141] Setting up pool5/7x7_s1
I0403 14:22:18.156374 13199 net.cpp:148] Top shape: 24 1024 1 1 (24576)
I0403 14:22:18.156389 13199 net.cpp:156] Memory required for data: 1345962528
I0403 14:22:18.156404 13199 layer_factory.hpp:77] Creating layer pool5/drop_7x7_s1
I0403 14:22:18.156424 13199 net.cpp:91] Creating Layer pool5/drop_7x7_s1
I0403 14:22:18.156441 13199 net.cpp:425] pool5/drop_7x7_s1 <- pool5/7x7_s1
I0403 14:22:18.156458 13199 net.cpp:386] pool5/drop_7x7_s1 -> pool5/7x7_s1 (in-place)
I0403 14:22:18.156510 13199 net.cpp:141] Setting up pool5/drop_7x7_s1
I0403 14:22:18.156533 13199 net.cpp:148] Top shape: 24 1024 1 1 (24576)
I0403 14:22:18.156548 13199 net.cpp:156] Memory required for data: 1346060832
I0403 14:22:18.156563 13199 layer_factory.hpp:77] Creating layer loss3/classifier_plantvillage
I0403 14:22:18.156590 13199 net.cpp:91] Creating Layer loss3/classifier_plantvillage
I0403 14:22:18.156608 13199 net.cpp:425] loss3/classifier_plantvillage <- pool5/7x7_s1
I0403 14:22:18.156627 13199 net.cpp:399] loss3/classifier_plantvillage -> loss3/classifier_plantvillage
I0403 14:22:18.157053 13199 net.cpp:141] Setting up loss3/classifier_plantvillage
I0403 14:22:18.157079 13199 net.cpp:148] Top shape: 24 38 (912)
I0403 14:22:18.157094 13199 net.cpp:156] Memory required for data: 1346064480
I0403 14:22:18.157111 13199 layer_factory.hpp:77] Creating layer loss3/classifier_plantvillage_loss3/classifier_plantvillage_0_split
I0403 14:22:18.157130 13199 net.cpp:91] Creating Layer loss3/classifier_plantvillage_loss3/classifier_plantvillage_0_split
I0403 14:22:18.157145 13199 net.cpp:425] loss3/classifier_plantvillage_loss3/classifier_plantvillage_0_split <- loss3/classifier_plantvillage
I0403 14:22:18.157166 13199 net.cpp:399] loss3/classifier_plantvillage_loss3/classifier_plantvillage_0_split -> loss3/classifier_plantvillage_loss3/classifier_plantvillage_0_split_0
I0403 14:22:18.157188 13199 net.cpp:399] loss3/classifier_plantvillage_loss3/classifier_plantvillage_0_split -> loss3/classifier_plantvillage_loss3/classifier_plantvillage_0_split_1
I0403 14:22:18.157208 13199 net.cpp:399] loss3/classifier_plantvillage_loss3/classifier_plantvillage_0_split -> loss3/classifier_plantvillage_loss3/classifier_plantvillage_0_split_2
I0403 14:22:18.157228 13199 net.cpp:399] loss3/classifier_plantvillage_loss3/classifier_plantvillage_0_split -> loss3/classifier_plantvillage_loss3/classifier_plantvillage_0_split_3
I0403 14:22:18.157330 13199 net.cpp:141] Setting up loss3/classifier_plantvillage_loss3/classifier_plantvillage_0_split
I0403 14:22:18.157352 13199 net.cpp:148] Top shape: 24 38 (912)
I0403 14:22:18.157369 13199 net.cpp:148] Top shape: 24 38 (912)
I0403 14:22:18.157384 13199 net.cpp:148] Top shape: 24 38 (912)
I0403 14:22:18.157399 13199 net.cpp:148] Top shape: 24 38 (912)
I0403 14:22:18.157413 13199 net.cpp:156] Memory required for data: 1346079072
I0403 14:22:18.157428 13199 layer_factory.hpp:77] Creating layer loss1/loss
I0403 14:22:18.157449 13199 net.cpp:91] Creating Layer loss1/loss
I0403 14:22:18.157466 13199 net.cpp:425] loss1/loss <- loss1/classifier_plantvillage_loss1/classifier_plantvillage_0_split_0
I0403 14:22:18.157497 13199 net.cpp:425] loss1/loss <- label_data_1_split_0
…
