…
I0403 15:15:51.357409 14286 net.cpp:313] The NetState phase (1) differed from the phase (0) specified by a rule in layer data
I0403 15:15:51.358582 14286 net.cpp:49] Initializing net from parameters: 
state {
  phase: TEST
}
layer {
  name: "data"
  type: "Data"
  top: "data"
  top: "label"
  include {
    phase: TEST
  }
  transform_param {
    mirror: false
    crop_size: 224
    mean_file: "/home/mohanty/data/final_dataset/lmdb/color-40-60/mean.binaryproto"
  }
  data_param {
    source: "/home/mohanty/data/final_dataset/lmdb/color-40-60/test_db"
    batch_size: 24
    backend: LMDB
  }
}
layer {
  name: "conv1/7x7_s2"
  type: "Convolution"
  bottom: "data"
  top: "conv1/7x7_s2"
  param {
    lr_mult: 1
    decay_mult: 1
  }
  param {
    lr_mult: 2
    decay_mult: 0
  }
  convolution_param {
    num_output: 64
    pad: 3
    kernel_size: 7
    stride: 2
    weight_filler {
      type: "xavier"
      std: 0.1
    }
    bias_filler {
      type: "constant"
      value: 0.2
    }
  }
}
layer {
  name: "conv1/relu_7x7"
  type: "ReLU"
  bottom: "conv1/7x7_s2"
  top: "conv1/7x7_s2"
}
layer {
  name: "pool1/3x3_s2"
  type: "Pooling"
  bottom: "conv1/7x7_s2"
  top: "pool1/3x3_s2"
  pooling_param {
    pool: MAX
    kernel_size: 3
    stride: 2
  }
}
layer {
  name: "pool1/norm1"
  type: "LRN"
  bottom: "pool1/3x3_s2"
  top: "pool1/norm1"
  lrn_param {
    local_size: 5
    alpha: 0.0001
    beta: 0.75
  }
}
layer {
  name: "conv2/3x3_reduce"
  type: "Convolution"
  bottom: "pool1/norm1"
  top: "conv2/3x3_reduce"
  param {
    lr_mult: 1
    decay_mult: 1
  }
  param {
    lr_mult: 2
    decay_mult: 0
  }
  convolution_param {
    num_output: 64
    kernel_size: 1
    weight_filler {
      type: "xavier"
      std: 0.1
    }
    bias_filler {
      type: "constant"
      value: 0.2
    }
  }
}
layer {
  name: "conv2/relu_3x3_reduce"
  type: "ReLU"
  bottom: "conv2/3x3_reduce"
  top: "conv2/3x3_reduce"
}
layer {
  name: "conv2/3x3"
  type: "Convolution"
  bottom: "conv2/3x3_reduce"
  top: "conv2/3x3"
  param {
    lr_mult: 1
    decay_mult: 1
  }
  param {
    lr_mult: 2
    decay_mult: 0
  }
  convolution_param {
    num_output: 192
    pad: 1
    kernel_size: 3
    weight_filler {
      type: "xavier"
      std: 0.03
    }
    bias_filler {
      type: "constant"
      value: 0.2
    }
  }
}
layer {
  name: "conv2/relu_3x3"
  type: "ReLU"
  bottom: "conv2/3x3"
  top: "conv2/3x3"
}
layer {
  name: "conv2/norm2"
  type: "LRN"
  bottom: "conv2/3x3"
  top: "conv2/norm2"
  lrn_param {
    local_size: 5
    alpha: 0.0001
    beta: 0.75
  }
}
layer {
  name: "pool2/3x3_s2"
  type: "Pooling"
  bottom: "conv2/norm2"
  top: "pool2/3x3_s2"
  pooling_param {
    pool: MAX
    kernel_size: 3
    stride: 2
  }
}
layer {
  name: "inception_3a/1x1"
  type: "Convolution"
  bottom: "pool2/3x3_s2"
  top: "inception_3a/1x1"
  param {
    lr_mult: 1
    decay_mult: 1
  }
  param {
    lr_mult: 2
    decay_mult: 0
  }
  convolution_param {
    num_output: 64
    kernel_size: 1
    weight_filler {
      type: "xavier"
      std: 0.03
    }
    bias_filler {
      type: "constant"
      value: 0.2
    }
  }
}
layer {
  name: "inception_3a/relu_1x1"
  type: "ReLU"
  bottom: "inception_3a/1x1"
  top: "inception_3a/1x1"
}
layer {
  name: "inception_3a/3x3_reduce"
  type: "Convolution"
  bottom: "pool2/3x3_s2"
  top: "inception_3a/3x3_reduce"
  param {
    lr_mult: 1
    decay_mult: 1
  }
  param {
    lr_mult: 2
    decay_mult: 0
  }
  convolution_param {
    num_output: 96
    kernel_size: 1
    weight_filler {
      type: "xavier"
      std: 0.09
    }
    bias_filler {
      type: "constant"
      value: 0.2
    }
  }
}
layer {
  name: "inception_3a/relu_3x3_reduce"
  type: "ReLU"
  bottom: "inception_3a/3x3_reduce"
  top: "inception_3a/3x3_reduce"
}
layer {
  name: "inception_3a/3x3"
  type: "Convolution"
  bottom: "inception_3a/3x3_reduce"
  top: "inception_3a/3x3"
  param {
    lr_mult: 1
    decay_mult: 1
  }
  param {
    lr_mult: 2
    decay_mult: 0
  }
  convolution_param {
    num_output: 128
    pad: 1
    kernel_size: 3
    weight_filler {
      type: "xavier"
      std: 0.03
    }
    bias_filler {
      type: "constant"
      value: 0.2
    }
  }
}
layer {
  name: "inception_3a/relu_3x3"
  type: "ReLU"
  bottom: "inception_3a/3x3"
  top: "inception_3a/3x3"
}
layer {
  name: "inception_3a/5x5_reduce"
  type: "Convolution"
  bottom: "pool2/3x3_s2"
  top: "inception_3a/5x5_reduce"
  param {
    lr_mult: 1
    decay_mult: 1
  }
  param {
    lr_mult: 2
    decay_mult: 0
  }
  convolution_param {
    num_output: 16
    kernel_size: 1
    weight_filler {
      type: "xavier"
      std: 0.2
    }
    bias_filler {
      type: "constant"
      value: 0.2
    }
  }
}
layer {
  name: "inception_3a/relu_5x5_reduce"
  type: "ReLU"
  bottom: "inception_3a/5x5_reduce"
  top: "inception_3a/5x5_reduce"
}
layer {
  name: "inception_3a/5x5"
  type: "Convolution"
  bottom: "inception_3a/5x5_reduce"
  top: "inception_3a/5x5"
  param {
    lr_mult: 1
    decay_mult: 1
  }
  param {
    lr_mult: 2
    decay_mult: 0
  }
  convolution_param {
    num_output: 32
    pad: 2
    kernel_size: 5
    weight_filler {
      type: "xavier"
      std: 0.03
    }
    bias_filler {
      type: "constant"
      value: 0.2
    }
  }
}
layer {
  name: "inception_3a/relu_5x5"
  type: "ReLU"
  bottom: "inception_3a/5x5"
  top: "inception_3a/5x5"
}
layer {
  name: "inception_3a/pool"
  type: "Pooling"
  bottom: "pool2/3x3_s2"
  top: "inception_3a/pool"
  pooling_param {
    pool: MAX
    kernel_size: 3
    stride: 1
    pad: 1
  }
}
layer {
  name: "inception_3a/pool_proj"
  type: "Convolution"
  bottom: "inception_3a/pool"
  top: "inception_3a/pool_proj"
  param {
    lr_mult: 1
    decay_mult: 1
  }
  param {
    lr_mult: 2
    decay_mult: 0
  }
  convolution_param {
    num_output: 32
    kernel_size: 1
    weight_filler {
      type: "xavier"
      std: 0.1
    }
    bias_filler {
      type: "constant"
      value: 0.2
    }
  }
}
layer {
  name: "inception_3a/relu_pool_proj"
  type: "ReLU"
  bottom: "inception_3a/pool_proj"
  top: "inception_3a/pool_proj"
}
layer {
  name: "inception_3a/output"
  type: "Concat"
  bottom: "inception_3a/1x1"
  bottom: "inception_3a/3x3"
  bottom: "inception_3a/5x5"
  bottom: "inception_3a/pool_proj"
  top: "inception_3a/output"
}
layer {
  name: "inception_3b/1x1"
  type: "Convolution"
  bottom: "inception_3a/output"
  top: "inception_3b/1x1"
  param {
    lr_mult: 1
    decay_mult: 1
  }
  param {
    lr_mult: 2
    decay_mult: 0
  }
  convolution_param {
    num_output: 128
    kernel_size: 1
    weight_filler {
      type: "xavier"
      std: 0.03
    }
    bias_filler {
      type: "constant"
      value: 0.2
    }
  }
}
layer {
  name: "inception_3b/relu_1x1"
  type: "ReLU"
  bottom: "inception_3b/1x1"
  top: "inception_3b/1x1"
}
layer {
  name: "inception_3b/3x3_reduce"
  type: "Convolution"
  bottom: "inception_3a/output"
  top: "inception_3b/3x3_reduce"
  param {
    lr_mult: 1
    decay_mult: 1
  }
  param {
    lr_mult: 2
    decay_mult: 0
  }
  convolution_param {
    num_output: 128
    kernel_size: 1
    weight_filler {
      type: "xavier"
      std: 0.09
    }
    bias_filler {
      type: "constant"
      value: 0.2
    }
  }
}
layer {
  name: "inception_3b/relu_3x3_reduce"
  type: "ReLU"
  bottom: "inception_3b/3x3_reduce"
  top: "inception_3b/3x3_reduce"
}
layer {
  name: "inception_3b/3x3"
  type: "Convolution"
  bottom: "inception_3b/3x3_reduce"
  top: "inception_3b/3x3"
  param {
    lr_mult: 1
    decay_mult: 1
  }
  param {
    lr_mult: 2
    decay_mult: 0
  }
  convolution_param {
    num_output: 192
    pad: 1
    kernel_size: 3
    weight_filler {
      type: "xavier"
      std: 0.03
    }
    bias_filler {
      type: "constant"
      value: 0.2
    }
  }
}
layer {
  name: "inception_3b/relu_3x3"
  type: "ReLU"
  bottom: "inception_3b/3x3"
  top: "inception_3b/3x3"
}
layer {
  name: "inception_3b/5x5_reduce"
  type: "Convolution"
  bottom: "inception_3a/output"
  top: "inception_3b/5x5_reduce"
  param {
    lr_mult: 1
    decay_mult: 1
  }
  param {
    lr_mult: 2
    decay_mult: 0
  }
  convolution_param {
    num_output: 32
    kernel_size: 1
    weight_filler {
      type: "xavier"
      std: 0.2
    }
    bias_filler {
      type: "constant"
      value: 0.2
    }
  }
}
layer {
  name: "inception_3b/relu_5x5_reduce"
  type: "ReLU"
  bottom: "inception_3b/5x5_reduce"
  top: "inception_3b/5x5_reduce"
}
layer {
  name: "inception_3b/5x5"
  type: "Convolution"
  bottom: "inception_3b/5x5_reduce"
  top: "inception_3b/5x5"
  param {
    lr_mult: 1
    decay_mult: 1
  }
  param {
    lr_mult: 2
    decay_mult: 0
  }
  convolution_param {
    num_output: 96
    pad: 2
    kernel_size: 5
    weight_filler {
      type: "xavier"
      std: 0.03
    }
    bias_filler {
      type: "constant"
      value: 0.2
    }
  }
}
layer {
  name: "inception_3b/relu_5x5"
  type: "ReLU"
  bottom: "inception_3b/5x5"
  top: "inception_3b/5x5"
}
layer {
  name: "inception_3b/pool"
  type: "Pooling"
  bottom: "inception_3a/output"
  top: "inception_3b/pool"
  pooling_param {
    pool: MAX
    kernel_size: 3
    stride: 1
    pad: 1
  }
}
layer {
  name: "inception_3b/pool_proj"
  type: "Convolution"
  bottom: "inception_3b/pool"
  top: "inception_3b/pool_proj"
  param {
    lr_mult: 1
    decay_mult: 1
  }
  param {
    lr_mult: 2
    decay_mult: 0
  }
  convolution_param {
    num_output: 64
    kernel_size: 1
    weight_filler {
      type: "xavier"
      std: 0.1
    }
    bias_filler {
      type: "constant"
      value: 0.2
    }
  }
}
layer {
  name: "inception_3b/relu_pool_proj"
  type: "ReLU"
  bottom: "inception_3b/pool_proj"
  top: "inception_3b/pool_proj"
}
layer {
  name: "inception_3b/output"
  type: "Concat"
  bottom: "inception_3b/1x1"
  bottom: "inception_3b/3x3"
  bottom: "inception_3b/5x5"
  bottom: "inception_3b/pool_proj"
  top: "inception_3b/output"
}
layer {
  name: "pool3/3x3_s2"
  type: "Pooling"
  bottom: "inception_3b/output"
  top: "pool3/3x3_s2"
  pooling_param {
    pool: MAX
    kernel_size: 3
    stride: 2
  }
}
layer {
  name: "inception_4a/1x1"
  type: "Convolution"
  bottom: "pool3/3x3_s2"
  top: "inception_4a/1x1"
  param {
    lr_mult: 1
    decay_mult: 1
  }
  param {
    lr_mult: 2
    decay_mult: 0
  }
  convolution_param {
    num_output: 192
    kernel_size: 1
    weight_filler {
      type: "xavier"
      std: 0.03
    }
    bias_filler {
      type: "constant"
      value: 0.2
    }
  }
}
layer {
  name: "inception_4a/relu_1x1"
  type: "ReLU"
  bottom: "inception_4a/1x1"
  top: "inception_4a/1x1"
}
layer {
  name: "inception_4a/3x3_reduce"
  type: "Convolution"
  bottom: "pool3/3x3_s2"
  top: "inception_4a/3x3_reduce"
  param {
    lr_mult: 1
    decay_mult: 1
  }
  param {
    lr_mult: 2
    decay_mult: 0
  }
  convolution_param {
    num_output: 96
    kernel_size: 1
    weight_filler {
      type: "xavier"
      std: 0.09
    }
    bias_filler {
      type: "constant"
      value: 0.2
    }
  }
}
layer {
  name: "inception_4a/relu_3x3_reduce"
  type: "ReLU"
  bottom: "inception_4a/3x3_reduce"
  top: "inception_4a/3x3_reduce"
}
layer {
  name: "inception_4a/3x3"
  type: "Convolution"
  bottom: "inception_4a/3x3_reduce"
  top: "inception_4a/3x3"
  param {
    lr_mult: 1
    decay_mult: 1
  }
  param {
    lr_mult: 2
    decay_mult: 0
  }
  convolution_param {
    num_output: 208
    pad: 1
    kernel_size: 3
    weight_filler {
      type: "xavier"
      std: 0.03
    }
    bias_filler {
      type: "constant"
      value: 0.2
    }
  }
}
layer {
  name: "inception_4a/relu_3x3"
  type: "ReLU"
  bottom: "inception_4a/3x3"
  top: "inception_4a/3x3"
}
layer {
  name: "inception_4a/5x5_reduce"
  type: "Convolution"
  bottom: "pool3/3x3_s2"
  top: "inception_4a/5x5_reduce"
  param {
    lr_mult: 1
    decay_mult: 1
  }
  param {
    lr_mult: 2
    decay_mult: 0
  }
  convolution_param {
    num_output: 16
    kernel_size: 1
    weight_filler {
      type: "xavier"
      std: 0.2
    }
    bias_filler {
      type: "constant"
      value: 0.2
    }
  }
}
layer {
  name: "inception_4a/relu_5x5_reduce"
  type: "ReLU"
  bottom: "inception_4a/5x5_reduce"
  top: "inception_4a/5x5_reduce"
}
layer {
  name: "inception_4a/5x5"
  type: "Convolution"
  bottom: "inception_4a/5x5_reduce"
  top: "inception_4a/5x5"
  param {
    lr_mult: 1
    decay_mult: 1
  }
  param {
    lr_mult: 2
    decay_mult: 0
  }
  convolution_param {
    num_output: 48
    pad: 2
    kernel_size: 5
    weight_filler {
      type: "xavier"
      std: 0.03
    }
    bias_filler {
      type: "constant"
      value: 0.2
    }
  }
}
layer {
  name: "inception_4a/relu_5x5"
  type: "ReLU"
  bottom: "inception_4a/5x5"
  top: "inception_4a/5x5"
}
layer {
  name: "inception_4a/pool"
  type: "Pooling"
  bottom: "pool3/3x3_s2"
  top: "inception_4a/pool"
  pooling_param {
    pool: MAX
    kernel_size: 3
    stride: 1
    pad: 1
  }
}
layer {
  name: "inception_4a/pool_proj"
  type: "Convolution"
  bottom: "inception_4a/pool"
  top: "inception_4a/pool_proj"
  param {
    lr_mult: 1
    decay_mult: 1
  }
  param {
    lr_mult: 2
    decay_mult: 0
  }
  convolution_param {
    num_output: 64
    kernel_size: 1
    weight_filler {
      type: "xavier"
      std: 0.1
    }
    bias_filler {
      type: "constant"
      value: 0.2
    }
  }
}
layer {
  name: "inception_4a/relu_pool_proj"
  type: "ReLU"
  bottom: "inception_4a/pool_proj"
  top: "inception_4a/pool_proj"
}
layer {
  name: "inception_4a/output"
  type: "Concat"
  bottom: "inception_4a/1x1"
  bottom: "inception_4a/3x3"
  bottom: "inception_4a/5x5"
  bottom: "inception_4a/pool_proj"
  top: "inception_4a/output"
}
layer {
  name: "loss1/ave_pool"
  type: "Pooling"
  bottom: "inception_4a/output"
  top: "loss1/ave_pool"
  pooling_param {
    pool: AVE
    kernel_size: 5
    stride: 3
  }
}
layer {
  name: "loss1/conv"
  type: "Convolution"
  bottom: "loss1/ave_pool"
  top: "loss1/conv"
  param {
    lr_mult: 1
    decay_mult: 1
  }
  param {
    lr_mult: 2
    decay_mult: 0
  }
  convolution_param {
    num_output: 128
    kernel_size: 1
    weight_filler {
      type: "xavier"
      std: 0.08
    }
    bias_filler {
      type: "constant"
      value: 0.2
    }
  }
}
layer {
  name: "loss1/relu_conv"
  type: "ReLU"
  bottom: "loss1/conv"
  top: "loss1/conv"
}
layer {
  name: "loss1/fc"
  type: "InnerProduct"
  bottom: "loss1/conv"
  top: "loss1/fc"
  param {
    lr_mult: 1
    decay_mult: 1
  }
  param {
    lr_mult: 2
    decay_mult: 0
  }
  inner_product_param {
    num_output: 1024
    weight_filler {
      type: "xavier"
      std: 0.02
    }
    bias_filler {
      type: "constant"
      value: 0.2
    }
  }
}
layer {
  name: "loss1/relu_fc"
  type: "ReLU"
  bottom: "loss1/fc"
  top: "loss1/fc"
}
layer {
  name: "loss1/drop_fc"
  type: "Dropout"
  bottom: "loss1/fc"
  top: "loss1/fc"
  dropout_param {
    dropout_ratio: 0.7
  }
}
layer {
  name: "loss1/classifier_plantvillage"
  type: "InnerProduct"
  bottom: "loss1/fc"
  top: "loss1/classifier_plantvillage"
  param {
    lr_mult: 1
    decay_mult: 1
  }
  param {
    lr_mult: 2
    decay_mult: 0
  }
  inner_product_param {
    num_output: 38
    weight_filler {
      type: "xavier"
      std: 0.0009765625
    }
    bias_filler {
      type: "constant"
      value: 0
    }
  }
}
layer {
  name: "inception_4b/1x1"
  type: "Convolution"
  bottom: "inception_4a/output"
  top: "inception_4b/1x1"
  param {
    lr_mult: 1
    decay_mult: 1
  }
  param {
    lr_mult: 2
    decay_mult: 0
  }
  convolution_param {
    num_output: 160
    kernel_size: 1
    weight_filler {
      type: "xavier"
      std: 0.03
    }
    bias_filler {
      type: "constant"
      value: 0.2
    }
  }
}
layer {
  name: "inception_4b/relu_1x1"
  type: "ReLU"
  bottom: "inception_4b/1x1"
  top: "inception_4b/1x1"
}
layer {
  name: "inception_4b/3x3_reduce"
  type: "Convolution"
  bottom: "inception_4a/output"
  top: "inception_4b/3x3_reduce"
  param {
    lr_mult: 1
    decay_mult: 1
  }
  param {
    lr_mult: 2
    decay_mult: 0
  }
  convolution_param {
    num_output: 112
    kernel_size: 1
    weight_filler {
      type: "xavier"
      std: 0.09
    }
    bias_filler {
      type: "constant"
      value: 0.2
    }
  }
}
layer {
  name: "inception_4b/relu_3x3_reduce"
  type: "ReLU"
  bottom: "inception_4b/3x3_reduce"
  top: "inception_4b/3x3_reduce"
}
layer {
  name: "inception_4b/3x3"
  type: "Convolution"
  bottom: "inception_4b/3x3_reduce"
  top: "inception_4b/3x3"
  param {
    lr_mult: 1
    decay_mult: 1
  }
  param {
    lr_mult: 2
    decay_mult: 0
  }
  convolution_param {
    num_output: 224
    pad: 1
    kernel_size: 3
    weight_filler {
      type: "xavier"
      std: 0.03
    }
    bias_filler {
      type: "constant"
      value: 0.2
    }
  }
}
layer {
  name: "inception_4b/relu_3x3"
  type: "ReLU"
  bottom: "inception_4b/3x3"
  top: "inception_4b/3x3"
}
layer {
  name: "inception_4b/5x5_reduce"
  type: "Convolution"
  bottom: "inception_4a/output"
  top: "inception_4b/5x5_reduce"
  param {
    lr_mult: 1
    decay_mult: 1
  }
  param {
    lr_mult: 2
    decay_mult: 0
  }
  convolution_param {
    num_output: 24
    kernel_size: 1
    weight_filler {
      type: "xavier"
      std: 0.2
    }
    bias_filler {
      type: "constant"
      value: 0.2
    }
  }
}
layer {
  name: "inception_4b/relu_5x5_reduce"
  type: "ReLU"
  bottom: "inception_4b/5x5_reduce"
  top: "inception_4b/5x5_reduce"
}
layer {
  name: "inception_4b/5x5"
  type: "Convolution"
  bottom: "inception_4b/5x5_reduce"
  top: "inception_4b/5x5"
  param {
    lr_mult: 1
    decay_mult: 1
  }
  param {
    lr_mult: 2
    decay_mult: 0
  }
  convolution_param {
    num_output: 64
    pad: 2
    kernel_size: 5
    weight_filler {
      type: "xavier"
      std: 0.03
    }
    bias_filler {
      type: "constant"
      value: 0.2
    }
  }
}
layer {
  name: "inception_4b/relu_5x5"
  type: "ReLU"
  bottom: "inception_4b/5x5"
  top: "inception_4b/5x5"
}
layer {
  name: "inception_4b/pool"
  type: "Pooling"
  bottom: "inception_4a/output"
  top: "inception_4b/pool"
  pooling_param {
    pool: MAX
    kernel_size: 3
    stride: 1
    pad: 1
  }
}
layer {
  name: "inception_4b/pool_proj"
  type: "Convolution"
  bottom: "inception_4b/pool"
  top: "inception_4b/pool_proj"
  param {
    lr_mult: 1
    decay_mult: 1
  }
  param {
    lr_mult: 2
    decay_mult: 0
  }
  convolution_param {
    num_output: 64
    kernel_size: 1
    weight_filler {
      type: "xavier"
      std: 0.1
    }
    bias_filler {
      type: "constant"
      value: 0.2
    }
  }
}
layer {
  name: "inception_4b/relu_pool_proj"
  type: "ReLU"
  bottom: "inception_4b/pool_proj"
  top: "inception_4b/pool_proj"
}
layer {
  name: "inception_4b/output"
  type: "Concat"
  bottom: "inception_4b/1x1"
  bottom: "inception_4b/3x3"
  bottom: "inception_4b/5x5"
  bottom: "inception_4b/pool_proj"
  top: "inception_4b/output"
}
layer {
  name: "inception_4c/1x1"
  type: "Convolution"
  bottom: "inception_4b/output"
  top: "inception_4c/1x1"
  param {
    lr_mult: 1
    decay_mult: 1
  }
  param {
    lr_mult: 2
    decay_mult: 0
  }
  convolution_param {
    num_output: 128
    kernel_size: 1
    weight_filler {
      type: "xavier"
      std: 0.03
    }
    bias_filler {
      type: "constant"
      value: 0.2
    }
  }
}
layer {
  name: "inception_4c/relu_1x1"
  type: "ReLU"
  bottom: "inception_4c/1x1"
  top: "inception_4c/1x1"
}
layer {
  name: "inception_4c/3x3_reduce"
  type: "Convolution"
  bottom: "inception_4b/output"
  top: "inception_4c/3x3_reduce"
  param {
    lr_mult: 1
    decay_mult: 1
  }
  param {
    lr_mult: 2
    decay_mult: 0
  }
  convolution_param {
    num_output: 128
    kernel_size: 1
    weight_filler {
      type: "xavier"
      std: 0.09
    }
    bias_filler {
      type: "constant"
      value: 0.2
    }
  }
}
layer {
  name: "inception_4c/relu_3x3_reduce"
  type: "ReLU"
  bottom: "inception_4c/3x3_reduce"
  top: "inception_4c/3x3_reduce"
}
layer {
  name: "inception_4c/3x3"
  type: "Convolution"
  bottom: "inception_4c/3x3_reduce"
  top: "inception_4c/3x3"
  param {
    lr_mult: 1
    decay_mult: 1
  }
  param {
    lr_mult: 2
    decay_mult: 0
  }
  convolution_param {
    num_output: 256
    pad: 1
    kernel_size: 3
    weight_filler {
      type: "xavier"
      std: 0.03
    }
    bias_filler {
      type: "constant"
      value: 0.2
    }
  }
}
layer {
  name: "inception_4c/relu_3x3"
  type: "ReLU"
  bottom: "inception_4c/3x3"
  top: "inception_4c/3x3"
}
layer {
  name: "inception_4c/5x5_reduce"
  type: "Convolution"
  bottom: "inception_4b/output"
  top: "inception_4c/5x5_reduce"
  param {
    lr_mult: 1
    decay_mult: 1
  }
  param {
    lr_mult: 2
    decay_mult: 0
  }
  convolution_param {
    num_output: 24
    kernel_size: 1
    weight_filler {
      type: "xavier"
      std: 0.2
    }
    bias_filler {
      type: "constant"
      value: 0.2
    }
  }
}
layer {
  name: "inception_4c/relu_5x5_reduce"
  type: "ReLU"
  bottom: "inception_4c/5x5_reduce"
  top: "inception_4c/5x5_reduce"
}
layer {
  name: "inception_4c/5x5"
  type: "Convolution"
  bottom: "inception_4c/5x5_reduce"
  top: "inception_4c/5x5"
  param {
    lr_mult: 1
    decay_mult: 1
  }
  param {
    lr_mult: 2
    decay_mult: 0
  }
  convolution_param {
    num_output: 64
    pad: 2
    kernel_size: 5
    weight_filler {
      type: "xavier"
      std: 0.03
    }
    bias_filler {
      type: "constant"
      value: 0.2
    }
  }
}
layer {
  name: "inception_4c/relu_5x5"
  type: "ReLU"
  bottom: "inception_4c/5x5"
  top: "inception_4c/5x5"
}
layer {
  name: "inception_4c/pool"
  type: "Pooling"
  bottom: "inception_4b/output"
  top: "inception_4c/pool"
  pooling_param {
    pool: MAX
    kernel_size: 3
    stride: 1
    pad: 1
  }
}
layer {
  name: "inception_4c/pool_proj"
  type: "Convolution"
  bottom: "inception_4c/pool"
  top: "inception_4c/pool_proj"
  param {
    lr_mult: 1
    decay_mult: 1
  }
  param {
    lr_mult: 2
    decay_mult: 0
  }
  convolution_param {
    num_output: 64
    kernel_size: 1
    weight_filler {
      type: "xavier"
      std: 0.1
    }
    bias_filler {
      type: "constant"
      value: 0.2
    }
  }
}
layer {
  name: "inception_4c/relu_pool_proj"
  type: "ReLU"
  bottom: "inception_4c/pool_proj"
  top: "inception_4c/pool_proj"
}
layer {
  name: "inception_4c/output"
  type: "Concat"
  bottom: "inception_4c/1x1"
  bottom: "inception_4c/3x3"
  bottom: "inception_4c/5x5"
  bottom: "inception_4c/pool_proj"
  top: "inception_4c/output"
}
layer {
  name: "inception_4d/1x1"
  type: "Convolution"
  bottom: "inception_4c/output"
  top: "inception_4d/1x1"
  param {
    lr_mult: 1
    decay_mult: 1
  }
  param {
    lr_mult: 2
    decay_mult: 0
  }
  convolution_param {
    num_output: 112
    kernel_size: 1
    weight_filler {
      type: "xavier"
      std: 0.03
    }
    bias_filler {
      type: "constant"
      value: 0.2
    }
  }
}
layer {
  name: "inception_4d/relu_1x1"
  type: "ReLU"
  bottom: "inception_4d/1x1"
  top: "inception_4d/1x1"
}
layer {
  name: "inception_4d/3x3_reduce"
  type: "Convolution"
  bottom: "inception_4c/output"
  top: "inception_4d/3x3_reduce"
  param {
    lr_mult: 1
    decay_mult: 1
  }
  param {
    lr_mult: 2
    decay_mult: 0
  }
  convolution_param {
    num_output: 144
    kernel_size: 1
    weight_filler {
      type: "xavier"
      std: 0.09
    }
    bias_filler {
      type: "constant"
      value: 0.2
    }
  }
}
layer {
  name: "inception_4d/relu_3x3_reduce"
  type: "ReLU"
  bottom: "inception_4d/3x3_reduce"
  top: "inception_4d/3x3_reduce"
}
layer {
  name: "inception_4d/3x3"
  type: "Convolution"
  bottom: "inception_4d/3x3_reduce"
  top: "inception_4d/3x3"
  param {
    lr_mult: 1
    decay_mult: 1
  }
  param {
    lr_mult: 2
    decay_mult: 0
  }
  convolution_param {
    num_output: 288
    pad: 1
    kernel_size: 3
    weight_filler {
      type: "xavier"
      std: 0.03
    }
    bias_filler {
      type: "constant"
      value: 0.2
    }
  }
}
layer {
  name: "inception_4d/relu_3x3"
  type: "ReLU"
  bottom: "inception_4d/3x3"
  top: "inception_4d/3x3"
}
layer {
  name: "inception_4d/5x5_reduce"
  type: "Convolution"
  bottom: "inception_4c/output"
  top: "inception_4d/5x5_reduce"
  param {
    lr_mult: 1
    decay_mult: 1
  }
  param {
    lr_mult: 2
    decay_mult: 0
  }
  convolution_param {
    num_output: 32
    kernel_size: 1
    weight_filler {
      type: "xavier"
      std: 0.2
    }
    bias_filler {
      type: "constant"
      value: 0.2
    }
  }
}
layer {
  name: "inception_4d/relu_5x5_reduce"
  type: "ReLU"
  bottom: "inception_4d/5x5_reduce"
  top: "inception_4d/5x5_reduce"
}
layer {
  name: "inception_4d/5x5"
  type: "Convolution"
  bottom: "inception_4d/5x5_reduce"
  top: "inception_4d/5x5"
  param {
    lr_mult: 1
    decay_mult: 1
  }
  param {
    lr_mult: 2
    decay_mult: 0
  }
  convolution_param {
    num_output: 64
    pad: 2
    kernel_size: 5
    weight_filler {
      type: "xavier"
      std: 0.03
    }
    bias_filler {
      type: "constant"
      value: 0.2
    }
  }
}
layer {
  name: "inception_4d/relu_5x5"
  type: "ReLU"
  bottom: "inception_4d/5x5"
  top: "inception_4d/5x5"
}
layer {
  name: "inception_4d/pool"
  type: "Pooling"
  bottom: "inception_4c/output"
  top: "inception_4d/pool"
  pooling_param {
    pool: MAX
    kernel_size: 3
    stride: 1
    pad: 1
  }
}
layer {
  name: "inception_4d/pool_proj"
  type: "Convolution"
  bottom: "inception_4d/pool"
  top: "inception_4d/pool_proj"
  param {
    lr_mult: 1
    decay_mult: 1
  }
  param {
    lr_mult: 2
    decay_mult: 0
  }
  convolution_param {
    num_output: 64
    kernel_size: 1
    weight_filler {
      type: "xavier"
      std: 0.1
    }
    bias_filler {
      type: "constant"
      value: 0.2
    }
  }
}
layer {
  name: "inception_4d/relu_pool_proj"
  type: "ReLU"
  bottom: "inception_4d/pool_proj"
  top: "inception_4d/pool_proj"
}
layer {
  name: "inception_4d/output"
  type: "Concat"
  bottom: "inception_4d/1x1"
  bottom: "inception_4d/3x3"
  bottom: "inception_4d/5x5"
  bottom: "inception_4d/pool_proj"
  top: "inception_4d/output"
}
layer {
  name: "loss2/ave_pool"
  type: "Pooling"
  bottom: "inception_4d/output"
  top: "loss2/ave_pool"
  pooling_param {
    pool: AVE
    kernel_size: 5
    stride: 3
  }
}
layer {
  name: "loss2/conv"
  type: "Convolution"
  bottom: "loss2/ave_pool"
  top: "loss2/conv"
  param {
    lr_mult: 1
    decay_mult: 1
  }
  param {
    lr_mult: 2
    decay_mult: 0
  }
  convolution_param {
    num_output: 128
    kernel_size: 1
    weight_filler {
      type: "xavier"
      std: 0.08
    }
    bias_filler {
      type: "constant"
      value: 0.2
    }
  }
}
layer {
  name: "loss2/relu_conv"
  type: "ReLU"
  bottom: "loss2/conv"
  top: "loss2/conv"
}
layer {
  name: "loss2/fc"
  type: "InnerProduct"
  bottom: "loss2/conv"
  top: "loss2/fc"
  param {
    lr_mult: 1
    decay_mult: 1
  }
  param {
    lr_mult: 2
    decay_mult: 0
  }
  inner_product_param {
    num_output: 1024
    weight_filler {
      type: "xavier"
      std: 0.02
    }
    bias_filler {
      type: "constant"
      value: 0.2
    }
  }
}
layer {
  name: "loss2/relu_fc"
  type: "ReLU"
  bottom: "loss2/fc"
  top: "loss2/fc"
}
layer {
  name: "loss2/drop_fc"
  type: "Dropout"
  bottom: "loss2/fc"
  top: "loss2/fc"
  dropout_param {
    dropout_ratio: 0.7
  }
}
layer {
  name: "loss2/classifier_plantvillage"
  type: "InnerProduct"
  bottom: "loss2/fc"
  top: "loss2/classifier_plantvillage"
  param {
    lr_mult: 1
    decay_mult: 1
  }
  param {
    lr_mult: 2
    decay_mult: 0
  }
  inner_product_param {
    num_output: 38
    weight_filler {
      type: "xavier"
      std: 0.0009765625
    }
    bias_filler {
      type: "constant"
      value: 0
    }
  }
}
layer {
  name: "inception_4e/1x1"
  type: "Convolution"
  bottom: "inception_4d/output"
  top: "inception_4e/1x1"
  param {
    lr_mult: 1
    decay_mult: 1
  }
  param {
    lr_mult: 2
    decay_mult: 0
  }
  convolution_param {
    num_output: 256
    kernel_size: 1
    weight_filler {
      type: "xavier"
      std: 0.03
    }
    bias_filler {
      type: "constant"
      value: 0.2
    }
  }
}
layer {
  name: "inception_4e/relu_1x1"
  type: "ReLU"
  bottom: "inception_4e/1x1"
  top: "inception_4e/1x1"
}
layer {
  name: "inception_4e/3x3_reduce"
  type: "Convolution"
  bottom: "inception_4d/output"
  top: "inception_4e/3x3_reduce"
  param {
    lr_mult: 1
    decay_mult: 1
  }
  param {
    lr_mult: 2
    decay_mult: 0
  }
  convolution_param {
    num_output: 160
    kernel_size: 1
    weight_filler {
      type: "xavier"
      std: 0.09
    }
    bias_filler {
      type: "constant"
      value: 0.2
    }
  }
}
layer {
  name: "inception_4e/relu_3x3_reduce"
  type: "ReLU"
  bottom: "inception_4e/3x3_reduce"
  top: "inception_4e/3x3_reduce"
}
layer {
  name: "inception_4e/3x3"
  type: "Convolution"
  bottom: "inception_4e/3x3_reduce"
  top: "inception_4e/3x3"
  param {
    lr_mult: 1
    decay_mult: 1
  }
  param {
    lr_mult: 2
    decay_mult: 0
  }
  convolution_param {
    num_output: 320
    pad: 1
    kernel_size: 3
    weight_filler {
      type: "xavier"
      std: 0.03
    }
    bias_filler {
      type: "constant"
      value: 0.2
    }
  }
}
layer {
  name: "inception_4e/relu_3x3"
  type: "ReLU"
  bottom: "inception_4e/3x3"
  top: "inception_4e/3x3"
}
layer {
  name: "inception_4e/5x5_reduce"
  type: "Convolution"
  bottom: "inception_4d/output"
  top: "inception_4e/5x5_reduce"
  param {
    lr_mult: 1
    decay_mult: 1
  }
  param {
    lr_mult: 2
    decay_mult: 0
  }
  convolution_param {
    num_output: 32
    kernel_size: 1
    weight_filler {
      type: "xavier"
      std: 0.2
    }
    bias_filler {
      type: "constant"
      value: 0.2
    }
  }
}
layer {
  name: "inception_4e/relu_5x5_reduce"
  type: "ReLU"
  bottom: "inception_4e/5x5_reduce"
  top: "inception_4e/5x5_reduce"
}
layer {
  name: "inception_4e/5x5"
  type: "Convolution"
  bottom: "inception_4e/5x5_reduce"
  top: "inception_4e/5x5"
  p
I0403 15:15:51.359897 14286 layer_factory.hpp:77] Creating layer data
I0403 15:15:51.360530 14286 net.cpp:91] Creating Layer data
I0403 15:15:51.360561 14286 net.cpp:399] data -> data
I0403 15:15:51.360623 14286 net.cpp:399] data -> label
I0403 15:15:51.360661 14286 data_transformer.cpp:25] Loading mean file from: /home/mohanty/data/final_dataset/lmdb/color-40-60/mean.binaryproto
I0403 15:15:51.364224 14289 db_lmdb.cpp:38] Opened lmdb /home/mohanty/data/final_dataset/lmdb/color-40-60/test_db
I0403 15:15:51.374346 14286 data_layer.cpp:41] output data size: 24,3,224,224
I0403 15:15:51.400333 14286 net.cpp:141] Setting up data
I0403 15:15:51.400409 14286 net.cpp:148] Top shape: 24 3 224 224 (3612672)
I0403 15:15:51.400431 14286 net.cpp:148] Top shape: 24 (24)
I0403 15:15:51.400445 14286 net.cpp:156] Memory required for data: 14450784
I0403 15:15:51.400471 14286 layer_factory.hpp:77] Creating layer label_data_1_split
I0403 15:15:51.400496 14286 net.cpp:91] Creating Layer label_data_1_split
I0403 15:15:51.400512 14286 net.cpp:425] label_data_1_split <- label
I0403 15:15:51.400543 14286 net.cpp:399] label_data_1_split -> label_data_1_split_0
I0403 15:15:51.400574 14286 net.cpp:399] label_data_1_split -> label_data_1_split_1
I0403 15:15:51.400596 14286 net.cpp:399] label_data_1_split -> label_data_1_split_2
I0403 15:15:51.400617 14286 net.cpp:399] label_data_1_split -> label_data_1_split_3
I0403 15:15:51.400636 14286 net.cpp:399] label_data_1_split -> label_data_1_split_4
I0403 15:15:51.400655 14286 net.cpp:399] label_data_1_split -> label_data_1_split_5
I0403 15:15:51.400673 14286 net.cpp:399] label_data_1_split -> label_data_1_split_6
I0403 15:15:51.400693 14286 net.cpp:399] label_data_1_split -> label_data_1_split_7
I0403 15:15:51.400712 14286 net.cpp:399] label_data_1_split -> label_data_1_split_8
I0403 15:15:51.400730 14286 net.cpp:399] label_data_1_split -> label_data_1_split_9
I0403 15:15:51.400841 14286 net.cpp:141] Setting up label_data_1_split
I0403 15:15:51.400864 14286 net.cpp:148] Top shape: 24 (24)
I0403 15:15:51.400881 14286 net.cpp:148] Top shape: 24 (24)
I0403 15:15:51.400894 14286 net.cpp:148] Top shape: 24 (24)
I0403 15:15:51.400909 14286 net.cpp:148] Top shape: 24 (24)
I0403 15:15:51.400924 14286 net.cpp:148] Top shape: 24 (24)
I0403 15:15:51.400938 14286 net.cpp:148] Top shape: 24 (24)
I0403 15:15:51.400954 14286 net.cpp:148] Top shape: 24 (24)
I0403 15:15:51.400967 14286 net.cpp:148] Top shape: 24 (24)
I0403 15:15:51.400982 14286 net.cpp:148] Top shape: 24 (24)
I0403 15:15:51.400997 14286 net.cpp:148] Top shape: 24 (24)
I0403 15:15:51.401044 14286 net.cpp:156] Memory required for data: 14451744
I0403 15:15:51.401059 14286 layer_factory.hpp:77] Creating layer conv1/7x7_s2
I0403 15:15:51.401089 14286 net.cpp:91] Creating Layer conv1/7x7_s2
I0403 15:15:51.401108 14286 net.cpp:425] conv1/7x7_s2 <- data
I0403 15:15:51.401125 14286 net.cpp:399] conv1/7x7_s2 -> conv1/7x7_s2
I0403 15:15:51.540199 14286 net.cpp:141] Setting up conv1/7x7_s2
I0403 15:15:51.540241 14286 net.cpp:148] Top shape: 24 64 112 112 (19267584)
I0403 15:15:51.540257 14286 net.cpp:156] Memory required for data: 91522080
I0403 15:15:51.540288 14286 layer_factory.hpp:77] Creating layer conv1/relu_7x7
I0403 15:15:51.540315 14286 net.cpp:91] Creating Layer conv1/relu_7x7
I0403 15:15:51.540334 14286 net.cpp:425] conv1/relu_7x7 <- conv1/7x7_s2
I0403 15:15:51.540354 14286 net.cpp:386] conv1/relu_7x7 -> conv1/7x7_s2 (in-place)
I0403 15:15:51.540619 14286 net.cpp:141] Setting up conv1/relu_7x7
I0403 15:15:51.540647 14286 net.cpp:148] Top shape: 24 64 112 112 (19267584)
I0403 15:15:51.540663 14286 net.cpp:156] Memory required for data: 168592416
I0403 15:15:51.540678 14286 layer_factory.hpp:77] Creating layer pool1/3x3_s2
I0403 15:15:51.540701 14286 net.cpp:91] Creating Layer pool1/3x3_s2
I0403 15:15:51.540719 14286 net.cpp:425] pool1/3x3_s2 <- conv1/7x7_s2
I0403 15:15:51.540738 14286 net.cpp:399] pool1/3x3_s2 -> pool1/3x3_s2
I0403 15:15:51.540812 14286 net.cpp:141] Setting up pool1/3x3_s2
I0403 15:15:51.540837 14286 net.cpp:148] Top shape: 24 64 56 56 (4816896)
I0403 15:15:51.540851 14286 net.cpp:156] Memory required for data: 187860000
I0403 15:15:51.540865 14286 layer_factory.hpp:77] Creating layer pool1/norm1
I0403 15:15:51.540889 14286 net.cpp:91] Creating Layer pool1/norm1
I0403 15:15:51.540906 14286 net.cpp:425] pool1/norm1 <- pool1/3x3_s2
I0403 15:15:51.540925 14286 net.cpp:399] pool1/norm1 -> pool1/norm1
I0403 15:15:51.541225 14286 net.cpp:141] Setting up pool1/norm1
I0403 15:15:51.541252 14286 net.cpp:148] Top shape: 24 64 56 56 (4816896)
I0403 15:15:51.541270 14286 net.cpp:156] Memory required for data: 207127584
I0403 15:15:51.541285 14286 layer_factory.hpp:77] Creating layer conv2/3x3_reduce
I0403 15:15:51.541308 14286 net.cpp:91] Creating Layer conv2/3x3_reduce
I0403 15:15:51.541326 14286 net.cpp:425] conv2/3x3_reduce <- pool1/norm1
I0403 15:15:51.541344 14286 net.cpp:399] conv2/3x3_reduce -> conv2/3x3_reduce
I0403 15:15:51.542729 14286 net.cpp:141] Setting up conv2/3x3_reduce
I0403 15:15:51.542758 14286 net.cpp:148] Top shape: 24 64 56 56 (4816896)
I0403 15:15:51.542774 14286 net.cpp:156] Memory required for data: 226395168
I0403 15:15:51.542795 14286 layer_factory.hpp:77] Creating layer conv2/relu_3x3_reduce
I0403 15:15:51.542815 14286 net.cpp:91] Creating Layer conv2/relu_3x3_reduce
I0403 15:15:51.542831 14286 net.cpp:425] conv2/relu_3x3_reduce <- conv2/3x3_reduce
I0403 15:15:51.542848 14286 net.cpp:386] conv2/relu_3x3_reduce -> conv2/3x3_reduce (in-place)
I0403 15:15:51.543115 14286 net.cpp:141] Setting up conv2/relu_3x3_reduce
I0403 15:15:51.543141 14286 net.cpp:148] Top shape: 24 64 56 56 (4816896)
I0403 15:15:51.543156 14286 net.cpp:156] Memory required for data: 245662752
I0403 15:15:51.543171 14286 layer_factory.hpp:77] Creating layer conv2/3x3
I0403 15:15:51.543196 14286 net.cpp:91] Creating Layer conv2/3x3
I0403 15:15:51.543215 14286 net.cpp:425] conv2/3x3 <- conv2/3x3_reduce
I0403 15:15:51.543233 14286 net.cpp:399] conv2/3x3 -> conv2/3x3
I0403 15:15:51.545518 14286 net.cpp:141] Setting up conv2/3x3
I0403 15:15:51.545548 14286 net.cpp:148] Top shape: 24 192 56 56 (14450688)
I0403 15:15:51.545564 14286 net.cpp:156] Memory required for data: 303465504
I0403 15:15:51.545590 14286 layer_factory.hpp:77] Creating layer conv2/relu_3x3
I0403 15:15:51.545614 14286 net.cpp:91] Creating Layer conv2/relu_3x3
I0403 15:15:51.545630 14286 net.cpp:425] conv2/relu_3x3 <- conv2/3x3
I0403 15:15:51.545647 14286 net.cpp:386] conv2/relu_3x3 -> conv2/3x3 (in-place)
I0403 15:15:51.545822 14286 net.cpp:141] Setting up conv2/relu_3x3
I0403 15:15:51.545846 14286 net.cpp:148] Top shape: 24 192 56 56 (14450688)
I0403 15:15:51.545892 14286 net.cpp:156] Memory required for data: 361268256
I0403 15:15:51.545907 14286 layer_factory.hpp:77] Creating layer conv2/norm2
I0403 15:15:51.545925 14286 net.cpp:91] Creating Layer conv2/norm2
I0403 15:15:51.545940 14286 net.cpp:425] conv2/norm2 <- conv2/3x3
I0403 15:15:51.545960 14286 net.cpp:399] conv2/norm2 -> conv2/norm2
I0403 15:15:51.546268 14286 net.cpp:141] Setting up conv2/norm2
I0403 15:15:51.546294 14286 net.cpp:148] Top shape: 24 192 56 56 (14450688)
I0403 15:15:51.546309 14286 net.cpp:156] Memory required for data: 419071008
I0403 15:15:51.546324 14286 layer_factory.hpp:77] Creating layer pool2/3x3_s2
I0403 15:15:51.546340 14286 net.cpp:91] Creating Layer pool2/3x3_s2
I0403 15:15:51.546355 14286 net.cpp:425] pool2/3x3_s2 <- conv2/norm2
I0403 15:15:51.546375 14286 net.cpp:399] pool2/3x3_s2 -> pool2/3x3_s2
I0403 15:15:51.546427 14286 net.cpp:141] Setting up pool2/3x3_s2
I0403 15:15:51.546449 14286 net.cpp:148] Top shape: 24 192 28 28 (3612672)
I0403 15:15:51.546463 14286 net.cpp:156] Memory required for data: 433521696
I0403 15:15:51.546478 14286 layer_factory.hpp:77] Creating layer pool2/3x3_s2_pool2/3x3_s2_0_split
I0403 15:15:51.546499 14286 net.cpp:91] Creating Layer pool2/3x3_s2_pool2/3x3_s2_0_split
I0403 15:15:51.546514 14286 net.cpp:425] pool2/3x3_s2_pool2/3x3_s2_0_split <- pool2/3x3_s2
I0403 15:15:51.546533 14286 net.cpp:399] pool2/3x3_s2_pool2/3x3_s2_0_split -> pool2/3x3_s2_pool2/3x3_s2_0_split_0
I0403 15:15:51.546553 14286 net.cpp:399] pool2/3x3_s2_pool2/3x3_s2_0_split -> pool2/3x3_s2_pool2/3x3_s2_0_split_1
I0403 15:15:51.546577 14286 net.cpp:399] pool2/3x3_s2_pool2/3x3_s2_0_split -> pool2/3x3_s2_pool2/3x3_s2_0_split_2
I0403 15:15:51.546598 14286 net.cpp:399] pool2/3x3_s2_pool2/3x3_s2_0_split -> pool2/3x3_s2_pool2/3x3_s2_0_split_3
I0403 15:15:51.546670 14286 net.cpp:141] Setting up pool2/3x3_s2_pool2/3x3_s2_0_split
I0403 15:15:51.546697 14286 net.cpp:148] Top shape: 24 192 28 28 (3612672)
I0403 15:15:51.546713 14286 net.cpp:148] Top shape: 24 192 28 28 (3612672)
I0403 15:15:51.546728 14286 net.cpp:148] Top shape: 24 192 28 28 (3612672)
I0403 15:15:51.546742 14286 net.cpp:148] Top shape: 24 192 28 28 (3612672)
I0403 15:15:51.546756 14286 net.cpp:156] Memory required for data: 491324448
I0403 15:15:51.546769 14286 layer_factory.hpp:77] Creating layer inception_3a/1x1
I0403 15:15:51.546792 14286 net.cpp:91] Creating Layer inception_3a/1x1
I0403 15:15:51.546808 14286 net.cpp:425] inception_3a/1x1 <- pool2/3x3_s2_pool2/3x3_s2_0_split_0
I0403 15:15:51.546826 14286 net.cpp:399] inception_3a/1x1 -> inception_3a/1x1
I0403 15:15:51.548331 14286 net.cpp:141] Setting up inception_3a/1x1
I0403 15:15:51.548360 14286 net.cpp:148] Top shape: 24 64 28 28 (1204224)
I0403 15:15:51.548375 14286 net.cpp:156] Memory required for data: 496141344
I0403 15:15:51.548393 14286 layer_factory.hpp:77] Creating layer inception_3a/relu_1x1
I0403 15:15:51.548414 14286 net.cpp:91] Creating Layer inception_3a/relu_1x1
I0403 15:15:51.548431 14286 net.cpp:425] inception_3a/relu_1x1 <- inception_3a/1x1
I0403 15:15:51.548447 14286 net.cpp:386] inception_3a/relu_1x1 -> inception_3a/1x1 (in-place)
I0403 15:15:51.548627 14286 net.cpp:141] Setting up inception_3a/relu_1x1
I0403 15:15:51.548655 14286 net.cpp:148] Top shape: 24 64 28 28 (1204224)
I0403 15:15:51.548669 14286 net.cpp:156] Memory required for data: 500958240
I0403 15:15:51.548683 14286 layer_factory.hpp:77] Creating layer inception_3a/3x3_reduce
I0403 15:15:51.548705 14286 net.cpp:91] Creating Layer inception_3a/3x3_reduce
I0403 15:15:51.548722 14286 net.cpp:425] inception_3a/3x3_reduce <- pool2/3x3_s2_pool2/3x3_s2_0_split_1
I0403 15:15:51.548740 14286 net.cpp:399] inception_3a/3x3_reduce -> inception_3a/3x3_reduce
I0403 15:15:51.550400 14286 net.cpp:141] Setting up inception_3a/3x3_reduce
I0403 15:15:51.550429 14286 net.cpp:148] Top shape: 24 96 28 28 (1806336)
I0403 15:15:51.550444 14286 net.cpp:156] Memory required for data: 508183584
I0403 15:15:51.550465 14286 layer_factory.hpp:77] Creating layer inception_3a/relu_3x3_reduce
I0403 15:15:51.550501 14286 net.cpp:91] Creating Layer inception_3a/relu_3x3_reduce
I0403 15:15:51.550520 14286 net.cpp:425] inception_3a/relu_3x3_reduce <- inception_3a/3x3_reduce
I0403 15:15:51.550539 14286 net.cpp:386] inception_3a/relu_3x3_reduce -> inception_3a/3x3_reduce (in-place)
I0403 15:15:51.550721 14286 net.cpp:141] Setting up inception_3a/relu_3x3_reduce
I0403 15:15:51.550746 14286 net.cpp:148] Top shape: 24 96 28 28 (1806336)
I0403 15:15:51.550761 14286 net.cpp:156] Memory required for data: 515408928
I0403 15:15:51.550776 14286 layer_factory.hpp:77] Creating layer inception_3a/3x3
I0403 15:15:51.550797 14286 net.cpp:91] Creating Layer inception_3a/3x3
I0403 15:15:51.550814 14286 net.cpp:425] inception_3a/3x3 <- inception_3a/3x3_reduce
I0403 15:15:51.550837 14286 net.cpp:399] inception_3a/3x3 -> inception_3a/3x3
I0403 15:15:51.552459 14286 net.cpp:141] Setting up inception_3a/3x3
I0403 15:15:51.552486 14286 net.cpp:148] Top shape: 24 128 28 28 (2408448)
I0403 15:15:51.552505 14286 net.cpp:156] Memory required for data: 525042720
I0403 15:15:51.552522 14286 layer_factory.hpp:77] Creating layer inception_3a/relu_3x3
I0403 15:15:51.552541 14286 net.cpp:91] Creating Layer inception_3a/relu_3x3
I0403 15:15:51.552556 14286 net.cpp:425] inception_3a/relu_3x3 <- inception_3a/3x3
I0403 15:15:51.552577 14286 net.cpp:386] inception_3a/relu_3x3 -> inception_3a/3x3 (in-place)
I0403 15:15:51.552850 14286 net.cpp:141] Setting up inception_3a/relu_3x3
I0403 15:15:51.552876 14286 net.cpp:148] Top shape: 24 128 28 28 (2408448)
I0403 15:15:51.552896 14286 net.cpp:156] Memory required for data: 534676512
I0403 15:15:51.552909 14286 layer_factory.hpp:77] Creating layer inception_3a/5x5_reduce
I0403 15:15:51.552928 14286 net.cpp:91] Creating Layer inception_3a/5x5_reduce
I0403 15:15:51.552945 14286 net.cpp:425] inception_3a/5x5_reduce <- pool2/3x3_s2_pool2/3x3_s2_0_split_2
I0403 15:15:51.552965 14286 net.cpp:399] inception_3a/5x5_reduce -> inception_3a/5x5_reduce
I0403 15:15:51.553947 14286 net.cpp:141] Setting up inception_3a/5x5_reduce
I0403 15:15:51.553979 14286 net.cpp:148] Top shape: 24 16 28 28 (301056)
I0403 15:15:51.553997 14286 net.cpp:156] Memory required for data: 535880736
I0403 15:15:51.554014 14286 layer_factory.hpp:77] Creating layer inception_3a/relu_5x5_reduce
I0403 15:15:51.554033 14286 net.cpp:91] Creating Layer inception_3a/relu_5x5_reduce
I0403 15:15:51.554050 14286 net.cpp:425] inception_3a/relu_5x5_reduce <- inception_3a/5x5_reduce
I0403 15:15:51.554067 14286 net.cpp:386] inception_3a/relu_5x5_reduce -> inception_3a/5x5_reduce (in-place)
I0403 15:15:51.554375 14286 net.cpp:141] Setting up inception_3a/relu_5x5_reduce
I0403 15:15:51.554400 14286 net.cpp:148] Top shape: 24 16 28 28 (301056)
I0403 15:15:51.554415 14286 net.cpp:156] Memory required for data: 537084960
I0403 15:15:51.554430 14286 layer_factory.hpp:77] Creating layer inception_3a/5x5
I0403 15:15:51.554451 14286 net.cpp:91] Creating Layer inception_3a/5x5
I0403 15:15:51.554468 14286 net.cpp:425] inception_3a/5x5 <- inception_3a/5x5_reduce
I0403 15:15:51.554489 14286 net.cpp:399] inception_3a/5x5 -> inception_3a/5x5
I0403 15:15:51.555485 14286 net.cpp:141] Setting up inception_3a/5x5
I0403 15:15:51.555512 14286 net.cpp:148] Top shape: 24 32 28 28 (602112)
I0403 15:15:51.555527 14286 net.cpp:156] Memory required for data: 539493408
I0403 15:15:51.555546 14286 layer_factory.hpp:77] Creating layer inception_3a/relu_5x5
I0403 15:15:51.555565 14286 net.cpp:91] Creating Layer inception_3a/relu_5x5
I0403 15:15:51.555588 14286 net.cpp:425] inception_3a/relu_5x5 <- inception_3a/5x5
I0403 15:15:51.555604 14286 net.cpp:386] inception_3a/relu_5x5 -> inception_3a/5x5 (in-place)
I0403 15:15:51.555773 14286 net.cpp:141] Setting up inception_3a/relu_5x5
I0403 15:15:51.555800 14286 net.cpp:148] Top shape: 24 32 28 28 (602112)
I0403 15:15:51.555816 14286 net.cpp:156] Memory required for data: 541901856
I0403 15:15:51.555830 14286 layer_factory.hpp:77] Creating layer inception_3a/pool
I0403 15:15:51.555848 14286 net.cpp:91] Creating Layer inception_3a/pool
I0403 15:15:51.555863 14286 net.cpp:425] inception_3a/pool <- pool2/3x3_s2_pool2/3x3_s2_0_split_3
I0403 15:15:51.555898 14286 net.cpp:399] inception_3a/pool -> inception_3a/pool
I0403 15:15:51.555958 14286 net.cpp:141] Setting up inception_3a/pool
I0403 15:15:51.555981 14286 net.cpp:148] Top shape: 24 192 28 28 (3612672)
I0403 15:15:51.555996 14286 net.cpp:156] Memory required for data: 556352544
I0403 15:15:51.556010 14286 layer_factory.hpp:77] Creating layer inception_3a/pool_proj
I0403 15:15:51.556031 14286 net.cpp:91] Creating Layer inception_3a/pool_proj
I0403 15:15:51.556049 14286 net.cpp:425] inception_3a/pool_proj <- inception_3a/pool
I0403 15:15:51.556071 14286 net.cpp:399] inception_3a/pool_proj -> inception_3a/pool_proj
I0403 15:15:51.557018 14286 net.cpp:141] Setting up inception_3a/pool_proj
I0403 15:15:51.557045 14286 net.cpp:148] Top shape: 24 32 28 28 (602112)
I0403 15:15:51.557061 14286 net.cpp:156] Memory required for data: 558760992
I0403 15:15:51.557085 14286 layer_factory.hpp:77] Creating layer inception_3a/relu_pool_proj
I0403 15:15:51.557104 14286 net.cpp:91] Creating Layer inception_3a/relu_pool_proj
I0403 15:15:51.557119 14286 net.cpp:425] inception_3a/relu_pool_proj <- inception_3a/pool_proj
I0403 15:15:51.557137 14286 net.cpp:386] inception_3a/relu_pool_proj -> inception_3a/pool_proj (in-place)
I0403 15:15:51.557402 14286 net.cpp:141] Setting up inception_3a/relu_pool_proj
I0403 15:15:51.557428 14286 net.cpp:148] Top shape: 24 32 28 28 (602112)
I0403 15:15:51.557446 14286 net.cpp:156] Memory required for data: 561169440
I0403 15:15:51.557461 14286 layer_factory.hpp:77] Creating layer inception_3a/output
I0403 15:15:51.557478 14286 net.cpp:91] Creating Layer inception_3a/output
I0403 15:15:51.557493 14286 net.cpp:425] inception_3a/output <- inception_3a/1x1
I0403 15:15:51.557509 14286 net.cpp:425] inception_3a/output <- inception_3a/3x3
I0403 15:15:51.557525 14286 net.cpp:425] inception_3a/output <- inception_3a/5x5
I0403 15:15:51.557541 14286 net.cpp:425] inception_3a/output <- inception_3a/pool_proj
I0403 15:15:51.557559 14286 net.cpp:399] inception_3a/output -> inception_3a/output
I0403 15:15:51.557610 14286 net.cpp:141] Setting up inception_3a/output
I0403 15:15:51.557632 14286 net.cpp:148] Top shape: 24 256 28 28 (4816896)
I0403 15:15:51.557646 14286 net.cpp:156] Memory required for data: 580437024
I0403 15:15:51.557660 14286 layer_factory.hpp:77] Creating layer inception_3a/output_inception_3a/output_0_split
I0403 15:15:51.557677 14286 net.cpp:91] Creating Layer inception_3a/output_inception_3a/output_0_split
I0403 15:15:51.557690 14286 net.cpp:425] inception_3a/output_inception_3a/output_0_split <- inception_3a/output
I0403 15:15:51.557709 14286 net.cpp:399] inception_3a/output_inception_3a/output_0_split -> inception_3a/output_inception_3a/output_0_split_0
I0403 15:15:51.557730 14286 net.cpp:399] inception_3a/output_inception_3a/output_0_split -> inception_3a/output_inception_3a/output_0_split_1
I0403 15:15:51.557754 14286 net.cpp:399] inception_3a/output_inception_3a/output_0_split -> inception_3a/output_inception_3a/output_0_split_2
I0403 15:15:51.557776 14286 net.cpp:399] inception_3a/output_inception_3a/output_0_split -> inception_3a/output_inception_3a/output_0_split_3
I0403 15:15:51.557848 14286 net.cpp:141] Setting up inception_3a/output_inception_3a/output_0_split
I0403 15:15:51.557883 14286 net.cpp:148] Top shape: 24 256 28 28 (4816896)
I0403 15:15:51.557898 14286 net.cpp:148] Top shape: 24 256 28 28 (4816896)
I0403 15:15:51.557912 14286 net.cpp:148] Top shape: 24 256 28 28 (4816896)
I0403 15:15:51.557926 14286 net.cpp:148] Top shape: 24 256 28 28 (4816896)
I0403 15:15:51.557940 14286 net.cpp:156] Memory required for data: 657507360
I0403 15:15:51.557952 14286 layer_factory.hpp:77] Creating layer inception_3b/1x1
I0403 15:15:51.557973 14286 net.cpp:91] Creating Layer inception_3b/1x1
I0403 15:15:51.557989 14286 net.cpp:425] inception_3b/1x1 <- inception_3a/output_inception_3a/output_0_split_0
I0403 15:15:51.558010 14286 net.cpp:399] inception_3b/1x1 -> inception_3b/1x1
I0403 15:15:51.559095 14286 net.cpp:141] Setting up inception_3b/1x1
I0403 15:15:51.559134 14286 net.cpp:148] Top shape: 24 128 28 28 (2408448)
I0403 15:15:51.559149 14286 net.cpp:156] Memory required for data: 667141152
I0403 15:15:51.559166 14286 layer_factory.hpp:77] Creating layer inception_3b/relu_1x1
I0403 15:15:51.559185 14286 net.cpp:91] Creating Layer inception_3b/relu_1x1
I0403 15:15:51.559202 14286 net.cpp:425] inception_3b/relu_1x1 <- inception_3b/1x1
I0403 15:15:51.559218 14286 net.cpp:386] inception_3b/relu_1x1 -> inception_3b/1x1 (in-place)
I0403 15:15:51.559388 14286 net.cpp:141] Setting up inception_3b/relu_1x1
I0403 15:15:51.559413 14286 net.cpp:148] Top shape: 24 128 28 28 (2408448)
I0403 15:15:51.559427 14286 net.cpp:156] Memory required for data: 676774944
I0403 15:15:51.559442 14286 layer_factory.hpp:77] Creating layer inception_3b/3x3_reduce
I0403 15:15:51.559461 14286 net.cpp:91] Creating Layer inception_3b/3x3_reduce
I0403 15:15:51.559476 14286 net.cpp:425] inception_3b/3x3_reduce <- inception_3a/output_inception_3a/output_0_split_1
I0403 15:15:51.559496 14286 net.cpp:399] inception_3b/3x3_reduce -> inception_3b/3x3_reduce
I0403 15:15:51.560600 14286 net.cpp:141] Setting up inception_3b/3x3_reduce
I0403 15:15:51.560626 14286 net.cpp:148] Top shape: 24 128 28 28 (2408448)
I0403 15:15:51.560642 14286 net.cpp:156] Memory required for data: 686408736
I0403 15:15:51.560658 14286 layer_factory.hpp:77] Creating layer inception_3b/relu_3x3_reduce
I0403 15:15:51.560678 14286 net.cpp:91] Creating Layer inception_3b/relu_3x3_reduce
I0403 15:15:51.560694 14286 net.cpp:425] inception_3b/relu_3x3_reduce <- inception_3b/3x3_reduce
I0403 15:15:51.560710 14286 net.cpp:386] inception_3b/relu_3x3_reduce -> inception_3b/3x3_reduce (in-place)
I0403 15:15:51.560876 14286 net.cpp:141] Setting up inception_3b/relu_3x3_reduce
I0403 15:15:51.560900 14286 net.cpp:148] Top shape: 24 128 28 28 (2408448)
I0403 15:15:51.560914 14286 net.cpp:156] Memory required for data: 696042528
I0403 15:15:51.560927 14286 layer_factory.hpp:77] Creating layer inception_3b/3x3
I0403 15:15:51.560952 14286 net.cpp:91] Creating Layer inception_3b/3x3
I0403 15:15:51.560969 14286 net.cpp:425] inception_3b/3x3 <- inception_3b/3x3_reduce
I0403 15:15:51.560989 14286 net.cpp:399] inception_3b/3x3 -> inception_3b/3x3
I0403 15:15:51.563796 14286 net.cpp:141] Setting up inception_3b/3x3
I0403 15:15:51.563824 14286 net.cpp:148] Top shape: 24 192 28 28 (3612672)
I0403 15:15:51.563841 14286 net.cpp:156] Memory required for data: 710493216
I0403 15:15:51.563860 14286 layer_factory.hpp:77] Creating layer inception_3b/relu_3x3
I0403 15:15:51.563877 14286 net.cpp:91] Creating Layer inception_3b/relu_3x3
I0403 15:15:51.563891 14286 net.cpp:425] inception_3b/relu_3x3 <- inception_3b/3x3
I0403 15:15:51.563908 14286 net.cpp:386] inception_3b/relu_3x3 -> inception_3b/3x3 (in-place)
I0403 15:15:51.564180 14286 net.cpp:141] Setting up inception_3b/relu_3x3
I0403 15:15:51.564205 14286 net.cpp:148] Top shape: 24 192 28 28 (3612672)
I0403 15:15:51.564223 14286 net.cpp:156] Memory required for data: 724943904
I0403 15:15:51.564237 14286 layer_factory.hpp:77] Creating layer inception_3b/5x5_reduce
I0403 15:15:51.564256 14286 net.cpp:91] Creating Layer inception_3b/5x5_reduce
I0403 15:15:51.564272 14286 net.cpp:425] inception_3b/5x5_reduce <- inception_3a/output_inception_3a/output_0_split_2
I0403 15:15:51.564292 14286 net.cpp:399] inception_3b/5x5_reduce -> inception_3b/5x5_reduce
I0403 15:15:51.565253 14286 net.cpp:141] Setting up inception_3b/5x5_reduce
I0403 15:15:51.565279 14286 net.cpp:148] Top shape: 24 32 28 28 (602112)
I0403 15:15:51.565294 14286 net.cpp:156] Memory required for data: 727352352
I0403 15:15:51.565311 14286 layer_factory.hpp:77] Creating layer inception_3b/relu_5x5_reduce
I0403 15:15:51.565331 14286 net.cpp:91] Creating Layer inception_3b/relu_5x5_reduce
I0403 15:15:51.565347 14286 net.cpp:425] inception_3b/relu_5x5_reduce <- inception_3b/5x5_reduce
I0403 15:15:51.565364 14286 net.cpp:386] inception_3b/relu_5x5_reduce -> inception_3b/5x5_reduce (in-place)
I0403 15:15:51.565533 14286 net.cpp:141] Setting up inception_3b/relu_5x5_reduce
I0403 15:15:51.565575 14286 net.cpp:148] Top shape: 24 32 28 28 (602112)
I0403 15:15:51.565593 14286 net.cpp:156] Memory required for data: 729760800
I0403 15:15:51.565606 14286 layer_factory.hpp:77] Creating layer inception_3b/5x5
I0403 15:15:51.565628 14286 net.cpp:91] Creating Layer inception_3b/5x5
I0403 15:15:51.565644 14286 net.cpp:425] inception_3b/5x5 <- inception_3b/5x5_reduce
I0403 15:15:51.565662 14286 net.cpp:399] inception_3b/5x5 -> inception_3b/5x5
I0403 15:15:51.567610 14286 net.cpp:141] Setting up inception_3b/5x5
I0403 15:15:51.567638 14286 net.cpp:148] Top shape: 24 96 28 28 (1806336)
I0403 15:15:51.567653 14286 net.cpp:156] Memory required for data: 736986144
I0403 15:15:51.567672 14286 layer_factory.hpp:77] Creating layer inception_3b/relu_5x5
I0403 15:15:51.567692 14286 net.cpp:91] Creating Layer inception_3b/relu_5x5
I0403 15:15:51.567708 14286 net.cpp:425] inception_3b/relu_5x5 <- inception_3b/5x5
I0403 15:15:51.567723 14286 net.cpp:386] inception_3b/relu_5x5 -> inception_3b/5x5 (in-place)
I0403 15:15:51.567914 14286 net.cpp:141] Setting up inception_3b/relu_5x5
I0403 15:15:51.567939 14286 net.cpp:148] Top shape: 24 96 28 28 (1806336)
I0403 15:15:51.567953 14286 net.cpp:156] Memory required for data: 744211488
I0403 15:15:51.567967 14286 layer_factory.hpp:77] Creating layer inception_3b/pool
I0403 15:15:51.567984 14286 net.cpp:91] Creating Layer inception_3b/pool
I0403 15:15:51.568001 14286 net.cpp:425] inception_3b/pool <- inception_3a/output_inception_3a/output_0_split_3
I0403 15:15:51.568017 14286 net.cpp:399] inception_3b/pool -> inception_3b/pool
I0403 15:15:51.568073 14286 net.cpp:141] Setting up inception_3b/pool
I0403 15:15:51.568094 14286 net.cpp:148] Top shape: 24 256 28 28 (4816896)
I0403 15:15:51.568109 14286 net.cpp:156] Memory required for data: 763479072
I0403 15:15:51.568122 14286 layer_factory.hpp:77] Creating layer inception_3b/pool_proj
I0403 15:15:51.568143 14286 net.cpp:91] Creating Layer inception_3b/pool_proj
I0403 15:15:51.568161 14286 net.cpp:425] inception_3b/pool_proj <- inception_3b/pool
I0403 15:15:51.568181 14286 net.cpp:399] inception_3b/pool_proj -> inception_3b/pool_proj
I0403 15:15:51.569216 14286 net.cpp:141] Setting up inception_3b/pool_proj
I0403 15:15:51.569245 14286 net.cpp:148] Top shape: 24 64 28 28 (1204224)
I0403 15:15:51.569263 14286 net.cpp:156] Memory required for data: 768295968
I0403 15:15:51.569281 14286 layer_factory.hpp:77] Creating layer inception_3b/relu_pool_proj
I0403 15:15:51.569298 14286 net.cpp:91] Creating Layer inception_3b/relu_pool_proj
I0403 15:15:51.569314 14286 net.cpp:425] inception_3b/relu_pool_proj <- inception_3b/pool_proj
I0403 15:15:51.569332 14286 net.cpp:386] inception_3b/relu_pool_proj -> inception_3b/pool_proj (in-place)
I0403 15:15:51.569728 14286 net.cpp:141] Setting up inception_3b/relu_pool_proj
I0403 15:15:51.569757 14286 net.cpp:148] Top shape: 24 64 28 28 (1204224)
I0403 15:15:51.569772 14286 net.cpp:156] Memory required for data: 773112864
I0403 15:15:51.569787 14286 layer_factory.hpp:77] Creating layer inception_3b/output
I0403 15:15:51.569804 14286 net.cpp:91] Creating Layer inception_3b/output
I0403 15:15:51.569819 14286 net.cpp:425] inception_3b/output <- inception_3b/1x1
I0403 15:15:51.569835 14286 net.cpp:425] inception_3b/output <- inception_3b/3x3
I0403 15:15:51.569850 14286 net.cpp:425] inception_3b/output <- inception_3b/5x5
I0403 15:15:51.569866 14286 net.cpp:425] inception_3b/output <- inception_3b/pool_proj
I0403 15:15:51.569881 14286 net.cpp:399] inception_3b/output -> inception_3b/output
I0403 15:15:51.569926 14286 net.cpp:141] Setting up inception_3b/output
I0403 15:15:51.569949 14286 net.cpp:148] Top shape: 24 480 28 28 (9031680)
I0403 15:15:51.569963 14286 net.cpp:156] Memory required for data: 809239584
I0403 15:15:51.569977 14286 layer_factory.hpp:77] Creating layer pool3/3x3_s2
I0403 15:15:51.569996 14286 net.cpp:91] Creating Layer pool3/3x3_s2
I0403 15:15:51.570013 14286 net.cpp:425] pool3/3x3_s2 <- inception_3b/output
I0403 15:15:51.570029 14286 net.cpp:399] pool3/3x3_s2 -> pool3/3x3_s2
I0403 15:15:51.570102 14286 net.cpp:141] Setting up pool3/3x3_s2
I0403 15:15:51.570127 14286 net.cpp:148] Top shape: 24 480 14 14 (2257920)
I0403 15:15:51.570140 14286 net.cpp:156] Memory required for data: 818271264
I0403 15:15:51.570153 14286 layer_factory.hpp:77] Creating layer pool3/3x3_s2_pool3/3x3_s2_0_split
I0403 15:15:51.570169 14286 net.cpp:91] Creating Layer pool3/3x3_s2_pool3/3x3_s2_0_split
I0403 15:15:51.570183 14286 net.cpp:425] pool3/3x3_s2_pool3/3x3_s2_0_split <- pool3/3x3_s2
I0403 15:15:51.570202 14286 net.cpp:399] pool3/3x3_s2_pool3/3x3_s2_0_split -> pool3/3x3_s2_pool3/3x3_s2_0_split_0
I0403 15:15:51.570222 14286 net.cpp:399] pool3/3x3_s2_pool3/3x3_s2_0_split -> pool3/3x3_s2_pool3/3x3_s2_0_split_1
I0403 15:15:51.570241 14286 net.cpp:399] pool3/3x3_s2_pool3/3x3_s2_0_split -> pool3/3x3_s2_pool3/3x3_s2_0_split_2
I0403 15:15:51.570260 14286 net.cpp:399] pool3/3x3_s2_pool3/3x3_s2_0_split -> pool3/3x3_s2_pool3/3x3_s2_0_split_3
I0403 15:15:51.570334 14286 net.cpp:141] Setting up pool3/3x3_s2_pool3/3x3_s2_0_split
I0403 15:15:51.570359 14286 net.cpp:148] Top shape: 24 480 14 14 (2257920)
I0403 15:15:51.570376 14286 net.cpp:148] Top shape: 24 480 14 14 (2257920)
I0403 15:15:51.570391 14286 net.cpp:148] Top shape: 24 480 14 14 (2257920)
I0403 15:15:51.570405 14286 net.cpp:148] Top shape: 24 480 14 14 (2257920)
I0403 15:15:51.570418 14286 net.cpp:156] Memory required for data: 854397984
I0403 15:15:51.570432 14286 layer_factory.hpp:77] Creating layer inception_4a/1x1
I0403 15:15:51.570453 14286 net.cpp:91] Creating Layer inception_4a/1x1
I0403 15:15:51.570469 14286 net.cpp:425] inception_4a/1x1 <- pool3/3x3_s2_pool3/3x3_s2_0_split_0
I0403 15:15:51.570488 14286 net.cpp:399] inception_4a/1x1 -> inception_4a/1x1
I0403 15:15:51.572060 14286 net.cpp:141] Setting up inception_4a/1x1
I0403 15:15:51.572088 14286 net.cpp:148] Top shape: 24 192 14 14 (903168)
I0403 15:15:51.572103 14286 net.cpp:156] Memory required for data: 858010656
I0403 15:15:51.572120 14286 layer_factory.hpp:77] Creating layer inception_4a/relu_1x1
I0403 15:15:51.572139 14286 net.cpp:91] Creating Layer inception_4a/relu_1x1
I0403 15:15:51.572154 14286 net.cpp:425] inception_4a/relu_1x1 <- inception_4a/1x1
I0403 15:15:51.572171 14286 net.cpp:386] inception_4a/relu_1x1 -> inception_4a/1x1 (in-place)
I0403 15:15:51.572348 14286 net.cpp:141] Setting up inception_4a/relu_1x1
I0403 15:15:51.572372 14286 net.cpp:148] Top shape: 24 192 14 14 (903168)
I0403 15:15:51.572387 14286 net.cpp:156] Memory required for data: 861623328
I0403 15:15:51.572402 14286 layer_factory.hpp:77] Creating layer inception_4a/3x3_reduce
I0403 15:15:51.572423 14286 net.cpp:91] Creating Layer inception_4a/3x3_reduce
I0403 15:15:51.572440 14286 net.cpp:425] inception_4a/3x3_reduce <- pool3/3x3_s2_pool3/3x3_s2_0_split_1
I0403 15:15:51.572460 14286 net.cpp:399] inception_4a/3x3_reduce -> inception_4a/3x3_reduce
I0403 15:15:51.573721 14286 net.cpp:141] Setting up inception_4a/3x3_reduce
I0403 15:15:51.573748 14286 net.cpp:148] Top shape: 24 96 14 14 (451584)
I0403 15:15:51.573763 14286 net.cpp:156] Memory required for data: 863429664
I0403 15:15:51.573787 14286 layer_factory.hpp:77] Creating layer inception_4a/relu_3x3_reduce
I0403 15:15:51.573807 14286 net.cpp:91] Creating Layer inception_4a/relu_3x3_reduce
I0403 15:15:51.573822 14286 net.cpp:425] inception_4a/relu_3x3_reduce <- inception_4a/3x3_reduce
I0403 15:15:51.573842 14286 net.cpp:386] inception_4a/relu_3x3_reduce -> inception_4a/3x3_reduce (in-place)
I0403 15:15:51.574017 14286 net.cpp:141] Setting up inception_4a/relu_3x3_reduce
I0403 15:15:51.574041 14286 net.cpp:148] Top shape: 24 96 14 14 (451584)
I0403 15:15:51.574055 14286 net.cpp:156] Memory required for data: 865236000
I0403 15:15:51.574069 14286 layer_factory.hpp:77] Creating layer inception_4a/3x3
I0403 15:15:51.574091 14286 net.cpp:91] Creating Layer inception_4a/3x3
I0403 15:15:51.574108 14286 net.cpp:425] inception_4a/3x3 <- inception_4a/3x3_reduce
I0403 15:15:51.574129 14286 net.cpp:399] inception_4a/3x3 -> inception_4a/3x3
I0403 15:15:51.576797 14286 net.cpp:141] Setting up inception_4a/3x3
I0403 15:15:51.576827 14286 net.cpp:148] Top shape: 24 208 14 14 (978432)
I0403 15:15:51.576841 14286 net.cpp:156] Memory required for data: 869149728
I0403 15:15:51.576859 14286 layer_factory.hpp:77] Creating layer inception_4a/relu_3x3
I0403 15:15:51.576879 14286 net.cpp:91] Creating Layer inception_4a/relu_3x3
I0403 15:15:51.576895 14286 net.cpp:425] inception_4a/relu_3x3 <- inception_4a/3x3
I0403 15:15:51.576912 14286 net.cpp:386] inception_4a/relu_3x3 -> inception_4a/3x3 (in-place)
I0403 15:15:51.577186 14286 net.cpp:141] Setting up inception_4a/relu_3x3
I0403 15:15:51.577211 14286 net.cpp:148] Top shape: 24 208 14 14 (978432)
I0403 15:15:51.577225 14286 net.cpp:156] Memory required for data: 873063456
I0403 15:15:51.577239 14286 layer_factory.hpp:77] Creating layer inception_4a/5x5_reduce
I0403 15:15:51.577261 14286 net.cpp:91] Creating Layer inception_4a/5x5_reduce
I0403 15:15:51.577280 14286 net.cpp:425] inception_4a/5x5_reduce <- pool3/3x3_s2_pool3/3x3_s2_0_split_2
I0403 15:15:51.577299 14286 net.cpp:399] inception_4a/5x5_reduce -> inception_4a/5x5_reduce
I0403 15:15:51.578320 14286 net.cpp:141] Setting up inception_4a/5x5_reduce
I0403 15:15:51.578347 14286 net.cpp:148] Top shape: 24 16 14 14 (75264)
I0403 15:15:51.578362 14286 net.cpp:156] Memory required for data: 873364512
I0403 15:15:51.578380 14286 layer_factory.hpp:77] Creating layer inception_4a/relu_5x5_reduce
I0403 15:15:51.578400 14286 net.cpp:91] Creating Layer inception_4a/relu_5x5_reduce
I0403 15:15:51.578416 14286 net.cpp:425] inception_4a/relu_5x5_reduce <- inception_4a/5x5_reduce
I0403 15:15:51.578433 14286 net.cpp:386] inception_4a/relu_5x5_reduce -> inception_4a/5x5_reduce (in-place)
I0403 15:15:51.578615 14286 net.cpp:141] Setting up inception_4a/relu_5x5_reduce
I0403 15:15:51.578642 14286 net.cpp:148] Top shape: 24 16 14 14 (75264)
I0403 15:15:51.578657 14286 net.cpp:156] Memory required for data: 873665568
I0403 15:15:51.578672 14286 layer_factory.hpp:77] Creating layer inception_4a/5x5
I0403 15:15:51.578693 14286 net.cpp:91] Creating Layer inception_4a/5x5
I0403 15:15:51.578711 14286 net.cpp:425] inception_4a/5x5 <- inception_4a/5x5_reduce
I0403 15:15:51.578728 14286 net.cpp:399] inception_4a/5x5 -> inception_4a/5x5
I0403 15:15:51.579794 14286 net.cpp:141] Setting up inception_4a/5x5
I0403 15:15:51.579824 14286 net.cpp:148] Top shape: 24 48 14 14 (225792)
I0403 15:15:51.579840 14286 net.cpp:156] Memory required for data: 874568736
I0403 15:15:51.579857 14286 layer_factory.hpp:77] Creating layer inception_4a/relu_5x5
I0403 15:15:51.579875 14286 net.cpp:91] Creating Layer inception_4a/relu_5x5
I0403 15:15:51.579891 14286 net.cpp:425] inception_4a/relu_5x5 <- inception_4a/5x5
I0403 15:15:51.579907 14286 net.cpp:386] inception_4a/relu_5x5 -> inception_4a/5x5 (in-place)
I0403 15:15:51.580086 14286 net.cpp:141] Setting up inception_4a/relu_5x5
I0403 15:15:51.580111 14286 net.cpp:148] Top shape: 24 48 14 14 (225792)
I0403 15:15:51.580126 14286 net.cpp:156] Memory required for data: 875471904
I0403 15:15:51.580140 14286 layer_factory.hpp:77] Creating layer inception_4a/pool
I0403 15:15:51.580157 14286 net.cpp:91] Creating Layer inception_4a/pool
I0403 15:15:51.580173 14286 net.cpp:425] inception_4a/pool <- pool3/3x3_s2_pool3/3x3_s2_0_split_3
I0403 15:15:51.580193 14286 net.cpp:399] inception_4a/pool -> inception_4a/pool
I0403 15:15:51.580250 14286 net.cpp:141] Setting up inception_4a/pool
I0403 15:15:51.580276 14286 net.cpp:148] Top shape: 24 480 14 14 (2257920)
I0403 15:15:51.580291 14286 net.cpp:156] Memory required for data: 884503584
I0403 15:15:51.580303 14286 layer_factory.hpp:77] Creating layer inception_4a/pool_proj
I0403 15:15:51.580325 14286 net.cpp:91] Creating Layer inception_4a/pool_proj
I0403 15:15:51.580341 14286 net.cpp:425] inception_4a/pool_proj <- inception_4a/pool
I0403 15:15:51.580364 14286 net.cpp:399] inception_4a/pool_proj -> inception_4a/pool_proj
I0403 15:15:51.581518 14286 net.cpp:141] Setting up inception_4a/pool_proj
I0403 15:15:51.581547 14286 net.cpp:148] Top shape: 24 64 14 14 (301056)
I0403 15:15:51.581583 14286 net.cpp:156] Memory required for data: 885707808
I0403 15:15:51.581604 14286 layer_factory.hpp:77] Creating layer inception_4a/relu_pool_proj
I0403 15:15:51.581620 14286 net.cpp:91] Creating Layer inception_4a/relu_pool_proj
I0403 15:15:51.581636 14286 net.cpp:425] inception_4a/relu_pool_proj <- inception_4a/pool_proj
I0403 15:15:51.581656 14286 net.cpp:386] inception_4a/relu_pool_proj -> inception_4a/pool_proj (in-place)
I0403 15:15:51.581936 14286 net.cpp:141] Setting up inception_4a/relu_pool_proj
I0403 15:15:51.581962 14286 net.cpp:148] Top shape: 24 64 14 14 (301056)
I0403 15:15:51.581977 14286 net.cpp:156] Memory required for data: 886912032
I0403 15:15:51.581991 14286 layer_factory.hpp:77] Creating layer inception_4a/output
I0403 15:15:51.582008 14286 net.cpp:91] Creating Layer inception_4a/output
I0403 15:15:51.582025 14286 net.cpp:425] inception_4a/output <- inception_4a/1x1
I0403 15:15:51.582041 14286 net.cpp:425] inception_4a/output <- inception_4a/3x3
I0403 15:15:51.582056 14286 net.cpp:425] inception_4a/output <- inception_4a/5x5
I0403 15:15:51.582072 14286 net.cpp:425] inception_4a/output <- inception_4a/pool_proj
I0403 15:15:51.582090 14286 net.cpp:399] inception_4a/output -> inception_4a/output
I0403 15:15:51.582134 14286 net.cpp:141] Setting up inception_4a/output
I0403 15:15:51.582159 14286 net.cpp:148] Top shape: 24 512 14 14 (2408448)
I0403 15:15:51.582175 14286 net.cpp:156] Memory required for data: 896545824
I0403 15:15:51.582190 14286 layer_factory.hpp:77] Creating layer inception_4a/output_inception_4a/output_0_split
I0403 15:15:51.582206 14286 net.cpp:91] Creating Layer inception_4a/output_inception_4a/output_0_split
I0403 15:15:51.582221 14286 net.cpp:425] inception_4a/output_inception_4a/output_0_split <- inception_4a/output
I0403 15:15:51.582237 14286 net.cpp:399] inception_4a/output_inception_4a/output_0_split -> inception_4a/output_inception_4a/output_0_split_0
I0403 15:15:51.582258 14286 net.cpp:399] inception_4a/output_inception_4a/output_0_split -> inception_4a/output_inception_4a/output_0_split_1
I0403 15:15:51.582280 14286 net.cpp:399] inception_4a/output_inception_4a/output_0_split -> inception_4a/output_inception_4a/output_0_split_2
I0403 15:15:51.582299 14286 net.cpp:399] inception_4a/output_inception_4a/output_0_split -> inception_4a/output_inception_4a/output_0_split_3
I0403 15:15:51.582319 14286 net.cpp:399] inception_4a/output_inception_4a/output_0_split -> inception_4a/output_inception_4a/output_0_split_4
I0403 15:15:51.582408 14286 net.cpp:141] Setting up inception_4a/output_inception_4a/output_0_split
I0403 15:15:51.582432 14286 net.cpp:148] Top shape: 24 512 14 14 (2408448)
I0403 15:15:51.582448 14286 net.cpp:148] Top shape: 24 512 14 14 (2408448)
I0403 15:15:51.582461 14286 net.cpp:148] Top shape: 24 512 14 14 (2408448)
I0403 15:15:51.582476 14286 net.cpp:148] Top shape: 24 512 14 14 (2408448)
I0403 15:15:51.582491 14286 net.cpp:148] Top shape: 24 512 14 14 (2408448)
I0403 15:15:51.582504 14286 net.cpp:156] Memory required for data: 944714784
I0403 15:15:51.582518 14286 layer_factory.hpp:77] Creating layer loss1/ave_pool
I0403 15:15:51.582537 14286 net.cpp:91] Creating Layer loss1/ave_pool
I0403 15:15:51.582554 14286 net.cpp:425] loss1/ave_pool <- inception_4a/output_inception_4a/output_0_split_0
I0403 15:15:51.582576 14286 net.cpp:399] loss1/ave_pool -> loss1/ave_pool
I0403 15:15:51.582782 14286 net.cpp:141] Setting up loss1/ave_pool
I0403 15:15:51.582808 14286 net.cpp:148] Top shape: 24 512 4 4 (196608)
I0403 15:15:51.582823 14286 net.cpp:156] Memory required for data: 945501216
I0403 15:15:51.582836 14286 layer_factory.hpp:77] Creating layer loss1/conv
I0403 15:15:51.582857 14286 net.cpp:91] Creating Layer loss1/conv
I0403 15:15:51.582875 14286 net.cpp:425] loss1/conv <- loss1/ave_pool
I0403 15:15:51.582895 14286 net.cpp:399] loss1/conv -> loss1/conv
I0403 15:15:51.584277 14286 net.cpp:141] Setting up loss1/conv
I0403 15:15:51.584306 14286 net.cpp:148] Top shape: 24 128 4 4 (49152)
I0403 15:15:51.584321 14286 net.cpp:156] Memory required for data: 945697824
I0403 15:15:51.584353 14286 layer_factory.hpp:77] Creating layer loss1/relu_conv
I0403 15:15:51.584378 14286 net.cpp:91] Creating Layer loss1/relu_conv
I0403 15:15:51.584394 14286 net.cpp:425] loss1/relu_conv <- loss1/conv
I0403 15:15:51.584411 14286 net.cpp:386] loss1/relu_conv -> loss1/conv (in-place)
I0403 15:15:51.584702 14286 net.cpp:141] Setting up loss1/relu_conv
I0403 15:15:51.584728 14286 net.cpp:148] Top shape: 24 128 4 4 (49152)
I0403 15:15:51.584743 14286 net.cpp:156] Memory required for data: 945894432
I0403 15:15:51.584758 14286 layer_factory.hpp:77] Creating layer loss1/fc
I0403 15:15:51.584782 14286 net.cpp:91] Creating Layer loss1/fc
I0403 15:15:51.584800 14286 net.cpp:425] loss1/fc <- loss1/conv
I0403 15:15:51.584818 14286 net.cpp:399] loss1/fc -> loss1/fc
I0403 15:15:51.602357 14286 net.cpp:141] Setting up loss1/fc
I0403 15:15:51.602406 14286 net.cpp:148] Top shape: 24 1024 (24576)
I0403 15:15:51.602421 14286 net.cpp:156] Memory required for data: 945992736
I0403 15:15:51.602439 14286 layer_factory.hpp:77] Creating layer loss1/relu_fc
I0403 15:15:51.602458 14286 net.cpp:91] Creating Layer loss1/relu_fc
I0403 15:15:51.602473 14286 net.cpp:425] loss1/relu_fc <- loss1/fc
I0403 15:15:51.602494 14286 net.cpp:386] loss1/relu_fc -> loss1/fc (in-place)
I0403 15:15:51.602696 14286 net.cpp:141] Setting up loss1/relu_fc
I0403 15:15:51.602720 14286 net.cpp:148] Top shape: 24 1024 (24576)
I0403 15:15:51.602735 14286 net.cpp:156] Memory required for data: 946091040
I0403 15:15:51.602749 14286 layer_factory.hpp:77] Creating layer loss1/drop_fc
I0403 15:15:51.602777 14286 net.cpp:91] Creating Layer loss1/drop_fc
I0403 15:15:51.602794 14286 net.cpp:425] loss1/drop_fc <- loss1/fc
I0403 15:15:51.602812 14286 net.cpp:386] loss1/drop_fc -> loss1/fc (in-place)
I0403 15:15:51.602861 14286 net.cpp:141] Setting up loss1/drop_fc
I0403 15:15:51.602887 14286 net.cpp:148] Top shape: 24 1024 (24576)
I0403 15:15:51.602903 14286 net.cpp:156] Memory required for data: 946189344
I0403 15:15:51.602918 14286 layer_factory.hpp:77] Creating layer loss1/classifier_plantvillage
I0403 15:15:51.602936 14286 net.cpp:91] Creating Layer loss1/classifier_plantvillage
I0403 15:15:51.602952 14286 net.cpp:425] loss1/classifier_plantvillage <- loss1/fc
I0403 15:15:51.602972 14286 net.cpp:399] loss1/classifier_plantvillage -> loss1/classifier_plantvillage
I0403 15:15:51.603899 14286 net.cpp:141] Setting up loss1/classifier_plantvillage
I0403 15:15:51.603926 14286 net.cpp:148] Top shape: 24 38 (912)
I0403 15:15:51.603941 14286 net.cpp:156] Memory required for data: 946192992
I0403 15:15:51.603960 14286 layer_factory.hpp:77] Creating layer loss1/classifier_plantvillage_loss1/classifier_plantvillage_0_split
I0403 15:15:51.603977 14286 net.cpp:91] Creating Layer loss1/classifier_plantvillage_loss1/classifier_plantvillage_0_split
I0403 15:15:51.603996 14286 net.cpp:425] loss1/classifier_plantvillage_loss1/classifier_plantvillage_0_split <- loss1/classifier_plantvillage
I0403 15:15:51.604013 14286 net.cpp:399] loss1/classifier_plantvillage_loss1/classifier_plantvillage_0_split -> loss1/classifier_plantvillage_loss1/classifier_plantvillage_0_split_0
I0403 15:15:51.604033 14286 net.cpp:399] loss1/classifier_plantvillage_loss1/classifier_plantvillage_0_split -> loss1/classifier_plantvillage_loss1/classifier_plantvillage_0_split_1
I0403 15:15:51.604054 14286 net.cpp:399] loss1/classifier_plantvillage_loss1/classifier_plantvillage_0_split -> loss1/classifier_plantvillage_loss1/classifier_plantvillage_0_split_2
I0403 15:15:51.604118 14286 net.cpp:141] Setting up loss1/classifier_plantvillage_loss1/classifier_plantvillage_0_split
I0403 15:15:51.604145 14286 net.cpp:148] Top shape: 24 38 (912)
I0403 15:15:51.604161 14286 net.cpp:148] Top shape: 24 38 (912)
I0403 15:15:51.604176 14286 net.cpp:148] Top shape: 24 38 (912)
I0403 15:15:51.604189 14286 net.cpp:156] Memory required for data: 946203936
I0403 15:15:51.604203 14286 layer_factory.hpp:77] Creating layer inception_4b/1x1
I0403 15:15:51.604223 14286 net.cpp:91] Creating Layer inception_4b/1x1
I0403 15:15:51.604264 14286 net.cpp:425] inception_4b/1x1 <- inception_4a/output_inception_4a/output_0_split_1
I0403 15:15:51.604285 14286 net.cpp:399] inception_4b/1x1 -> inception_4b/1x1
I0403 15:15:51.605949 14286 net.cpp:141] Setting up inception_4b/1x1
I0403 15:15:51.605978 14286 net.cpp:148] Top shape: 24 160 14 14 (752640)
I0403 15:15:51.605993 14286 net.cpp:156] Memory required for data: 949214496
I0403 15:15:51.606010 14286 layer_factory.hpp:77] Creating layer inception_4b/relu_1x1
I0403 15:15:51.606030 14286 net.cpp:91] Creating Layer inception_4b/relu_1x1
I0403 15:15:51.606047 14286 net.cpp:425] inception_4b/relu_1x1 <- inception_4b/1x1
I0403 15:15:51.606065 14286 net.cpp:386] inception_4b/relu_1x1 -> inception_4b/1x1 (in-place)
I0403 15:15:51.606242 14286 net.cpp:141] Setting up inception_4b/relu_1x1
I0403 15:15:51.606271 14286 net.cpp:148] Top shape: 24 160 14 14 (752640)
I0403 15:15:51.606287 14286 net.cpp:156] Memory required for data: 952225056
I0403 15:15:51.606302 14286 layer_factory.hpp:77] Creating layer inception_4b/3x3_reduce
I0403 15:15:51.606323 14286 net.cpp:91] Creating Layer inception_4b/3x3_reduce
I0403 15:15:51.606339 14286 net.cpp:425] inception_4b/3x3_reduce <- inception_4a/output_inception_4a/output_0_split_2
I0403 15:15:51.606358 14286 net.cpp:399] inception_4b/3x3_reduce -> inception_4b/3x3_reduce
I0403 15:15:51.607713 14286 net.cpp:141] Setting up inception_4b/3x3_reduce
I0403 15:15:51.607740 14286 net.cpp:148] Top shape: 24 112 14 14 (526848)
I0403 15:15:51.607755 14286 net.cpp:156] Memory required for data: 954332448
I0403 15:15:51.607776 14286 layer_factory.hpp:77] Creating layer inception_4b/relu_3x3_reduce
I0403 15:15:51.607795 14286 net.cpp:91] Creating Layer inception_4b/relu_3x3_reduce
I0403 15:15:51.607811 14286 net.cpp:425] inception_4b/relu_3x3_reduce <- inception_4b/3x3_reduce
I0403 15:15:51.607828 14286 net.cpp:386] inception_4b/relu_3x3_reduce -> inception_4b/3x3_reduce (in-place)
I0403 15:15:51.608115 14286 net.cpp:141] Setting up inception_4b/relu_3x3_reduce
I0403 15:15:51.608144 14286 net.cpp:148] Top shape: 24 112 14 14 (526848)
I0403 15:15:51.608160 14286 net.cpp:156] Memory required for data: 956439840
I0403 15:15:51.608175 14286 layer_factory.hpp:77] Creating layer inception_4b/3x3
I0403 15:15:51.608196 14286 net.cpp:91] Creating Layer inception_4b/3x3
I0403 15:15:51.608213 14286 net.cpp:425] inception_4b/3x3 <- inception_4b/3x3_reduce
I0403 15:15:51.608232 14286 net.cpp:399] inception_4b/3x3 -> inception_4b/3x3
I0403 15:15:51.611253 14286 net.cpp:141] Setting up inception_4b/3x3
I0403 15:15:51.611280 14286 net.cpp:148] Top shape: 24 224 14 14 (1053696)
I0403 15:15:51.611296 14286 net.cpp:156] Memory required for data: 960654624
I0403 15:15:51.611315 14286 layer_factory.hpp:77] Creating layer inception_4b/relu_3x3
I0403 15:15:51.611332 14286 net.cpp:91] Creating Layer inception_4b/relu_3x3
I0403 15:15:51.611351 14286 net.cpp:425] inception_4b/relu_3x3 <- inception_4b/3x3
I0403 15:15:51.611368 14286 net.cpp:386] inception_4b/relu_3x3 -> inception_4b/3x3 (in-place)
I0403 15:15:51.611546 14286 net.cpp:141] Setting up inception_4b/relu_3x3
I0403 15:15:51.611575 14286 net.cpp:148] Top shape: 24 224 14 14 (1053696)
I0403 15:15:51.611591 14286 net.cpp:156] Memory required for data: 964869408
I0403 15:15:51.611605 14286 layer_factory.hpp:77] Creating layer inception_4b/5x5_reduce
I0403 15:15:51.611627 14286 net.cpp:91] Creating Layer inception_4b/5x5_reduce
I0403 15:15:51.611645 14286 net.cpp:425] inception_4b/5x5_reduce <- inception_4a/output_inception_4a/output_0_split_3
I0403 15:15:51.611667 14286 net.cpp:399] inception_4b/5x5_reduce -> inception_4b/5x5_reduce
I0403 15:15:51.612745 14286 net.cpp:141] Setting up inception_4b/5x5_reduce
I0403 15:15:51.612771 14286 net.cpp:148] Top shape: 24 24 14 14 (112896)
I0403 15:15:51.612785 14286 net.cpp:156] Memory required for data: 965320992
I0403 15:15:51.612803 14286 layer_factory.hpp:77] Creating layer inception_4b/relu_5x5_reduce
I0403 15:15:51.612823 14286 net.cpp:91] Creating Layer inception_4b/relu_5x5_reduce
I0403 15:15:51.612854 14286 net.cpp:425] inception_4b/relu_5x5_reduce <- inception_4b/5x5_reduce
I0403 15:15:51.612874 14286 net.cpp:386] inception_4b/relu_5x5_reduce -> inception_4b/5x5_reduce (in-place)
I0403 15:15:51.613056 14286 net.cpp:141] Setting up inception_4b/relu_5x5_reduce
I0403 15:15:51.613081 14286 net.cpp:148] Top shape: 24 24 14 14 (112896)
I0403 15:15:51.613096 14286 net.cpp:156] Memory required for data: 965772576
I0403 15:15:51.613111 14286 layer_factory.hpp:77] Creating layer inception_4b/5x5
I0403 15:15:51.613132 14286 net.cpp:91] Creating Layer inception_4b/5x5
I0403 15:15:51.613149 14286 net.cpp:425] inception_4b/5x5 <- inception_4b/5x5_reduce
I0403 15:15:51.613170 14286 net.cpp:399] inception_4b/5x5 -> inception_4b/5x5
I0403 15:15:51.614389 14286 net.cpp:141] Setting up inception_4b/5x5
I0403 15:15:51.614416 14286 net.cpp:148] Top shape: 24 64 14 14 (301056)
I0403 15:15:51.614431 14286 net.cpp:156] Memory required for data: 966976800
I0403 15:15:51.614450 14286 layer_factory.hpp:77] Creating layer inception_4b/relu_5x5
I0403 15:15:51.614471 14286 net.cpp:91] Creating Layer inception_4b/relu_5x5
I0403 15:15:51.614487 14286 net.cpp:425] inception_4b/relu_5x5 <- inception_4b/5x5
I0403 15:15:51.614505 14286 net.cpp:386] inception_4b/relu_5x5 -> inception_4b/5x5 (in-place)
I0403 15:15:51.614799 14286 net.cpp:141] Setting up inception_4b/relu_5x5
I0403 15:15:51.614825 14286 net.cpp:148] Top shape: 24 64 14 14 (301056)
I0403 15:15:51.614840 14286 net.cpp:156] Memory required for data: 968181024
I0403 15:15:51.614853 14286 layer_factory.hpp:77] Creating layer inception_4b/pool
I0403 15:15:51.614874 14286 net.cpp:91] Creating Layer inception_4b/pool
I0403 15:15:51.614891 14286 net.cpp:425] inception_4b/pool <- inception_4a/output_inception_4a/output_0_split_4
I0403 15:15:51.614908 14286 net.cpp:399] inception_4b/pool -> inception_4b/pool
I0403 15:15:51.614974 14286 net.cpp:141] Setting up inception_4b/pool
I0403 15:15:51.614997 14286 net.cpp:148] Top shape: 24 512 14 14 (2408448)
I0403 15:15:51.615011 14286 net.cpp:156] Memory required for data: 977814816
I0403 15:15:51.615025 14286 layer_factory.hpp:77] Creating layer inception_4b/pool_proj
I0403 15:15:51.615047 14286 net.cpp:91] Creating Layer inception_4b/pool_proj
I0403 15:15:51.615064 14286 net.cpp:425] inception_4b/pool_proj <- inception_4b/pool
I0403 15:15:51.615085 14286 net.cpp:399] inception_4b/pool_proj -> inception_4b/pool_proj
I0403 15:15:51.616324 14286 net.cpp:141] Setting up inception_4b/pool_proj
I0403 15:15:51.616353 14286 net.cpp:148] Top shape: 24 64 14 14 (301056)
I0403 15:15:51.616372 14286 net.cpp:156] Memory required for data: 979019040
I0403 15:15:51.616391 14286 layer_factory.hpp:77] Creating layer inception_4b/relu_pool_proj
I0403 15:15:51.616410 14286 net.cpp:91] Creating Layer inception_4b/relu_pool_proj
I0403 15:15:51.616425 14286 net.cpp:425] inception_4b/relu_pool_proj <- inception_4b/pool_proj
I0403 15:15:51.616443 14286 net.cpp:386] inception_4b/relu_pool_proj -> inception_4b/pool_proj (in-place)
I0403 15:15:51.616634 14286 net.cpp:141] Setting up inception_4b/relu_pool_proj
I0403 15:15:51.616662 14286 net.cpp:148] Top shape: 24 64 14 14 (301056)
I0403 15:15:51.616678 14286 net.cpp:156] Memory required for data: 980223264
I0403 15:15:51.616693 14286 layer_factory.hpp:77] Creating layer inception_4b/output
I0403 15:15:51.616710 14286 net.cpp:91] Creating Layer inception_4b/output
I0403 15:15:51.616726 14286 net.cpp:425] inception_4b/output <- inception_4b/1x1
I0403 15:15:51.616742 14286 net.cpp:425] inception_4b/output <- inception_4b/3x3
I0403 15:15:51.616760 14286 net.cpp:425] inception_4b/output <- inception_4b/5x5
I0403 15:15:51.616775 14286 net.cpp:425] inception_4b/output <- inception_4b/pool_proj
I0403 15:15:51.616796 14286 net.cpp:399] inception_4b/output -> inception_4b/output
I0403 15:15:51.616842 14286 net.cpp:141] Setting up inception_4b/output
I0403 15:15:51.616865 14286 net.cpp:148] Top shape: 24 512 14 14 (2408448)
I0403 15:15:51.616879 14286 net.cpp:156] Memory required for data: 989857056
I0403 15:15:51.616909 14286 layer_factory.hpp:77] Creating layer inception_4b/output_inception_4b/output_0_split
I0403 15:15:51.616930 14286 net.cpp:91] Creating Layer inception_4b/output_inception_4b/output_0_split
I0403 15:15:51.616947 14286 net.cpp:425] inception_4b/output_inception_4b/output_0_split <- inception_4b/output
I0403 15:15:51.616964 14286 net.cpp:399] inception_4b/output_inception_4b/output_0_split -> inception_4b/output_inception_4b/output_0_split_0
I0403 15:15:51.616986 14286 net.cpp:399] inception_4b/output_inception_4b/output_0_split -> inception_4b/output_inception_4b/output_0_split_1
I0403 15:15:51.617008 14286 net.cpp:399] inception_4b/output_inception_4b/output_0_split -> inception_4b/output_inception_4b/output_0_split_2
I0403 15:15:51.617030 14286 net.cpp:399] inception_4b/output_inception_4b/output_0_split -> inception_4b/output_inception_4b/output_0_split_3
I0403 15:15:51.617113 14286 net.cpp:141] Setting up inception_4b/output_inception_4b/output_0_split
I0403 15:15:51.617137 14286 net.cpp:148] Top shape: 24 512 14 14 (2408448)
I0403 15:15:51.617153 14286 net.cpp:148] Top shape: 24 512 14 14 (2408448)
I0403 15:15:51.617168 14286 net.cpp:148] Top shape: 24 512 14 14 (2408448)
I0403 15:15:51.617183 14286 net.cpp:148] Top shape: 24 512 14 14 (2408448)
I0403 15:15:51.617197 14286 net.cpp:156] Memory required for data: 1028392224
I0403 15:15:51.617211 14286 layer_factory.hpp:77] Creating layer inception_4c/1x1
I0403 15:15:51.617233 14286 net.cpp:91] Creating Layer inception_4c/1x1
I0403 15:15:51.617251 14286 net.cpp:425] inception_4c/1x1 <- inception_4b/output_inception_4b/output_0_split_0
I0403 15:15:51.617274 14286 net.cpp:399] inception_4c/1x1 -> inception_4c/1x1
I0403 15:15:51.618754 14286 net.cpp:141] Setting up inception_4c/1x1
I0403 15:15:51.618787 14286 net.cpp:148] Top shape: 24 128 14 14 (602112)
I0403 15:15:51.618803 14286 net.cpp:156] Memory required for data: 1030800672
I0403 15:15:51.618821 14286 layer_factory.hpp:77] Creating layer inception_4c/relu_1x1
I0403 15:15:51.618839 14286 net.cpp:91] Creating Layer inception_4c/relu_1x1
I0403 15:15:51.618855 14286 net.cpp:425] inception_4c/relu_1x1 <- inception_4c/1x1
I0403 15:15:51.618875 14286 net.cpp:386] inception_4c/relu_1x1 -> inception_4c/1x1 (in-place)
I0403 15:15:51.619065 14286 net.cpp:141] Setting up inception_4c/relu_1x1
I0403 15:15:51.619091 14286 net.cpp:148] Top shape: 24 128 14 14 (602112)
I0403 15:15:51.619105 14286 net.cpp:156] Memory required for data: 1033209120
I0403 15:15:51.619120 14286 layer_factory.hpp:77] Creating layer inception_4c/3x3_reduce
I0403 15:15:51.619143 14286 net.cpp:91] Creating Layer inception_4c/3x3_reduce
I0403 15:15:51.619160 14286 net.cpp:425] inception_4c/3x3_reduce <- inception_4b/output_inception_4b/output_0_split_1
I0403 15:15:51.619181 14286 net.cpp:399] inception_4c/3x3_reduce -> inception_4c/3x3_reduce
I0403 15:15:51.621179 14286 net.cpp:141] Setting up inception_4c/3x3_reduce
I0403 15:15:51.621208 14286 net.cpp:148] Top shape: 24 128 14 14 (602112)
I0403 15:15:51.621224 14286 net.cpp:156] Memory required for data: 1035617568
I0403 15:15:51.621243 14286 layer_factory.hpp:77] Creating layer inception_4c/relu_3x3_reduce
I0403 15:15:51.621265 14286 net.cpp:91] Creating Layer inception_4c/relu_3x3_reduce
I0403 15:15:51.621282 14286 net.cpp:425] inception_4c/relu_3x3_reduce <- inception_4c/3x3_reduce
I0403 15:15:51.621300 14286 net.cpp:386] inception_4c/relu_3x3_reduce -> inception_4c/3x3_reduce (in-place)
I0403 15:15:51.621603 14286 net.cpp:141] Setting up inception_4c/relu_3x3_reduce
I0403 15:15:51.621629 14286 net.cpp:148] Top shape: 24 128 14 14 (602112)
I0403 15:15:51.621644 14286 net.cpp:156] Memory required for data: 1038026016
I0403 15:15:51.621659 14286 layer_factory.hpp:77] Creating layer inception_4c/3x3
I0403 15:15:51.621682 14286 net.cpp:91] Creating Layer inception_4c/3x3
I0403 15:15:51.621701 14286 net.cpp:425] inception_4c/3x3 <- inception_4c/3x3_reduce
I0403 15:15:51.621722 14286 net.cpp:399] inception_4c/3x3 -> inception_4c/3x3
I0403 15:15:51.625425 14286 net.cpp:141] Setting up inception_4c/3x3
I0403 15:15:51.625471 14286 net.cpp:148] Top shape: 24 256 14 14 (1204224)
I0403 15:15:51.625488 14286 net.cpp:156] Memory required for data: 1042842912
I0403 15:15:51.625522 14286 layer_factory.hpp:77] Creating layer inception_4c/relu_3x3
I0403 15:15:51.625545 14286 net.cpp:91] Creating Layer inception_4c/relu_3x3
I0403 15:15:51.625572 14286 net.cpp:425] inception_4c/relu_3x3 <- inception_4c/3x3
I0403 15:15:51.625591 14286 net.cpp:386] inception_4c/relu_3x3 -> inception_4c/3x3 (in-place)
I0403 15:15:51.625780 14286 net.cpp:141] Setting up inception_4c/relu_3x3
I0403 15:15:51.625810 14286 net.cpp:148] Top shape: 24 256 14 14 (1204224)
I0403 15:15:51.625833 14286 net.cpp:156] Memory required for data: 1047659808
I0403 15:15:51.625855 14286 layer_factory.hpp:77] Creating layer inception_4c/5x5_reduce
I0403 15:15:51.625890 14286 net.cpp:91] Creating Layer inception_4c/5x5_reduce
I0403 15:15:51.625911 14286 net.cpp:425] inception_4c/5x5_reduce <- inception_4b/output_inception_4b/output_0_split_2
I0403 15:15:51.625936 14286 net.cpp:399] inception_4c/5x5_reduce -> inception_4c/5x5_reduce
I0403 15:15:51.627063 14286 net.cpp:141] Setting up inception_4c/5x5_reduce
I0403 15:15:51.627091 14286 net.cpp:148] Top shape: 24 24 14 14 (112896)
I0403 15:15:51.627106 14286 net.cpp:156] Memory required for data: 1048111392
I0403 15:15:51.627125 14286 layer_factory.hpp:77] Creating layer inception_4c/relu_5x5_reduce
I0403 15:15:51.627146 14286 net.cpp:91] Creating Layer inception_4c/relu_5x5_reduce
I0403 15:15:51.627163 14286 net.cpp:425] inception_4c/relu_5x5_reduce <- inception_4c/5x5_reduce
I0403 15:15:51.627182 14286 net.cpp:386] inception_4c/relu_5x5_reduce -> inception_4c/5x5_reduce (in-place)
I0403 15:15:51.627372 14286 net.cpp:141] Setting up inception_4c/relu_5x5_reduce
I0403 15:15:51.627398 14286 net.cpp:148] Top shape: 24 24 14 14 (112896)
I0403 15:15:51.627413 14286 net.cpp:156] Memory required for data: 1048562976
I0403 15:15:51.627429 14286 layer_factory.hpp:77] Creating layer inception_4c/5x5
I0403 15:15:51.627451 14286 net.cpp:91] Creating Layer inception_4c/5x5
I0403 15:15:51.627470 14286 net.cpp:425] inception_4c/5x5 <- inception_4c/5x5_reduce
I0403 15:15:51.627490 14286 net.cpp:399] inception_4c/5x5 -> inception_4c/5x5
I0403 15:15:51.628767 14286 net.cpp:141] Setting up inception_4c/5x5
I0403 15:15:51.628798 14286 net.cpp:148] Top shape: 24 64 14 14 (301056)
I0403 15:15:51.628813 14286 net.cpp:156] Memory required for data: 1049767200
I0403 15:15:51.628832 14286 layer_factory.hpp:77] Creating layer inception_4c/relu_5x5
I0403 15:15:51.628851 14286 net.cpp:91] Creating Layer inception_4c/relu_5x5
I0403 15:15:51.628867 14286 net.cpp:425] inception_4c/relu_5x5 <- inception_4c/5x5
I0403 15:15:51.628887 14286 net.cpp:386] inception_4c/relu_5x5 -> inception_4c/5x5 (in-place)
I0403 15:15:51.629179 14286 net.cpp:141] Setting up inception_4c/relu_5x5
I0403 15:15:51.629209 14286 net.cpp:148] Top shape: 24 64 14 14 (301056)
I0403 15:15:51.629225 14286 net.cpp:156] Memory required for data: 1050971424
I0403 15:15:51.629240 14286 layer_factory.hpp:77] Creating layer inception_4c/pool
I0403 15:15:51.629258 14286 net.cpp:91] Creating Layer inception_4c/pool
I0403 15:15:51.629274 14286 net.cpp:425] inception_4c/pool <- inception_4b/output_inception_4b/output_0_split_3
I0403 15:15:51.629295 14286 net.cpp:399] inception_4c/pool -> inception_4c/pool
I0403 15:15:51.629361 14286 net.cpp:141] Setting up inception_4c/pool
I0403 15:15:51.629389 14286 net.cpp:148] Top shape: 24 512 14 14 (2408448)
I0403 15:15:51.629403 14286 net.cpp:156] Memory required for data: 1060605216
I0403 15:15:51.629418 14286 layer_factory.hpp:77] Creating layer inception_4c/pool_proj
I0403 15:15:51.629438 14286 net.cpp:91] Creating Layer inception_4c/pool_proj
I0403 15:15:51.629456 14286 net.cpp:425] inception_4c/pool_proj <- inception_4c/pool
I0403 15:15:51.629477 14286 net.cpp:399] inception_4c/pool_proj -> inception_4c/pool_proj
I0403 15:15:51.630733 14286 net.cpp:141] Setting up inception_4c/pool_proj
I0403 15:15:51.630761 14286 net.cpp:148] Top shape: 24 64 14 14 (301056)
I0403 15:15:51.630792 14286 net.cpp:156] Memory required for data: 1061809440
I0403 15:15:51.630811 14286 layer_factory.hpp:77] Creating layer inception_4c/relu_pool_proj
I0403 15:15:51.630833 14286 net.cpp:91] Creating Layer inception_4c/relu_pool_proj
I0403 15:15:51.630851 14286 net.cpp:425] inception_4c/relu_pool_proj <- inception_4c/pool_proj
I0403 15:15:51.630868 14286 net.cpp:386] inception_4c/relu_pool_proj -> inception_4c/pool_proj (in-place)
I0403 15:15:51.631059 14286 net.cpp:141] Setting up inception_4c/relu_pool_proj
I0403 15:15:51.631088 14286 net.cpp:148] Top shape: 24 64 14 14 (301056)
I0403 15:15:51.631103 14286 net.cpp:156] Memory required for data: 1063013664
I0403 15:15:51.631117 14286 layer_factory.hpp:77] Creating layer inception_4c/output
I0403 15:15:51.631135 14286 net.cpp:91] Creating Layer inception_4c/output
I0403 15:15:51.631150 14286 net.cpp:425] inception_4c/output <- inception_4c/1x1
I0403 15:15:51.631167 14286 net.cpp:425] inception_4c/output <- inception_4c/3x3
I0403 15:15:51.631183 14286 net.cpp:425] inception_4c/output <- inception_4c/5x5
I0403 15:15:51.631199 14286 net.cpp:425] inception_4c/output <- inception_4c/pool_proj
I0403 15:15:51.631219 14286 net.cpp:399] inception_4c/output -> inception_4c/output
I0403 15:15:51.631266 14286 net.cpp:141] Setting up inception_4c/output
I0403 15:15:51.631290 14286 net.cpp:148] Top shape: 24 512 14 14 (2408448)
I0403 15:15:51.631305 14286 net.cpp:156] Memory required for data: 1072647456
I0403 15:15:51.631319 14286 layer_factory.hpp:77] Creating layer inception_4c/output_inception_4c/output_0_split
I0403 15:15:51.631340 14286 net.cpp:91] Creating Layer inception_4c/output_inception_4c/output_0_split
I0403 15:15:51.631356 14286 net.cpp:425] inception_4c/output_inception_4c/output_0_split <- inception_4c/output
I0403 15:15:51.631373 14286 net.cpp:399] inception_4c/output_inception_4c/output_0_split -> inception_4c/output_inception_4c/output_0_split_0
I0403 15:15:51.631393 14286 net.cpp:399] inception_4c/output_inception_4c/output_0_split -> inception_4c/output_inception_4c/output_0_split_1
I0403 15:15:51.631415 14286 net.cpp:399] inception_4c/output_inception_4c/output_0_split -> inception_4c/output_inception_4c/output_0_split_2
I0403 15:15:51.631438 14286 net.cpp:399] inception_4c/output_inception_4c/output_0_split -> inception_4c/output_inception_4c/output_0_split_3
I0403 15:15:51.631522 14286 net.cpp:141] Setting up inception_4c/output_inception_4c/output_0_split
I0403 15:15:51.631546 14286 net.cpp:148] Top shape: 24 512 14 14 (2408448)
I0403 15:15:51.631562 14286 net.cpp:148] Top shape: 24 512 14 14 (2408448)
I0403 15:15:51.631582 14286 net.cpp:148] Top shape: 24 512 14 14 (2408448)
I0403 15:15:51.631598 14286 net.cpp:148] Top shape: 24 512 14 14 (2408448)
I0403 15:15:51.631613 14286 net.cpp:156] Memory required for data: 1111182624
I0403 15:15:51.631626 14286 layer_factory.hpp:77] Creating layer inception_4d/1x1
I0403 15:15:51.631649 14286 net.cpp:91] Creating Layer inception_4d/1x1
I0403 15:15:51.631666 14286 net.cpp:425] inception_4d/1x1 <- inception_4c/output_inception_4c/output_0_split_0
I0403 15:15:51.631687 14286 net.cpp:399] inception_4d/1x1 -> inception_4d/1x1
I0403 15:15:51.633113 14286 net.cpp:141] Setting up inception_4d/1x1
I0403 15:15:51.633142 14286 net.cpp:148] Top shape: 24 112 14 14 (526848)
I0403 15:15:51.633158 14286 net.cpp:156] Memory required for data: 1113290016
I0403 15:15:51.633177 14286 layer_factory.hpp:77] Creating layer inception_4d/relu_1x1
I0403 15:15:51.633196 14286 net.cpp:91] Creating Layer inception_4d/relu_1x1
I0403 15:15:51.633214 14286 net.cpp:425] inception_4d/relu_1x1 <- inception_4d/1x1
I0403 15:15:51.633231 14286 net.cpp:386] inception_4d/relu_1x1 -> inception_4d/1x1 (in-place)
I0403 15:15:51.633429 14286 net.cpp:141] Setting up inception_4d/relu_1x1
I0403 15:15:51.633452 14286 net.cpp:148] Top shape: 24 112 14 14 (526848)
I0403 15:15:51.633467 14286 net.cpp:156] Memory required for data: 1115397408
I0403 15:15:51.633481 14286 layer_factory.hpp:77] Creating layer inception_4d/3x3_reduce
I0403 15:15:51.633517 14286 net.cpp:91] Creating Layer inception_4d/3x3_reduce
I0403 15:15:51.633538 14286 net.cpp:425] inception_4d/3x3_reduce <- inception_4c/output_inception_4c/output_0_split_1
I0403 15:15:51.633556 14286 net.cpp:399] inception_4d/3x3_reduce -> inception_4d/3x3_reduce
I0403 15:15:51.635078 14286 net.cpp:141] Setting up inception_4d/3x3_reduce
I0403 15:15:51.635104 14286 net.cpp:148] Top shape: 24 144 14 14 (677376)
I0403 15:15:51.635119 14286 net.cpp:156] Memory required for data: 1118106912
I0403 15:15:51.635138 14286 layer_factory.hpp:77] Creating layer inception_4d/relu_3x3_reduce
I0403 15:15:51.635154 14286 net.cpp:91] Creating Layer inception_4d/relu_3x3_reduce
I0403 15:15:51.635169 14286 net.cpp:425] inception_4d/relu_3x3_reduce <- inception_4d/3x3_reduce
I0403 15:15:51.635187 14286 net.cpp:386] inception_4d/relu_3x3_reduce -> inception_4d/3x3_reduce (in-place)
I0403 15:15:51.635470 14286 net.cpp:141] Setting up inception_4d/relu_3x3_reduce
I0403 15:15:51.635495 14286 net.cpp:148] Top shape: 24 144 14 14 (677376)
I0403 15:15:51.635509 14286 net.cpp:156] Memory required for data: 1120816416
I0403 15:15:51.635524 14286 layer_factory.hpp:77] Creating layer inception_4d/3x3
I0403 15:15:51.635545 14286 net.cpp:91] Creating Layer inception_4d/3x3
I0403 15:15:51.635562 14286 net.cpp:425] inception_4d/3x3 <- inception_4d/3x3_reduce
I0403 15:15:51.635587 14286 net.cpp:399] inception_4d/3x3 -> inception_4d/3x3
I0403 15:15:51.639735 14286 net.cpp:141] Setting up inception_4d/3x3
I0403 15:15:51.639765 14286 net.cpp:148] Top shape: 24 288 14 14 (1354752)
I0403 15:15:51.639780 14286 net.cpp:156] Memory required for data: 1126235424
I0403 15:15:51.639797 14286 layer_factory.hpp:77] Creating layer inception_4d/relu_3x3
I0403 15:15:51.639817 14286 net.cpp:91] Creating Layer inception_4d/relu_3x3
I0403 15:15:51.639833 14286 net.cpp:425] inception_4d/relu_3x3 <- inception_4d/3x3
I0403 15:15:51.639850 14286 net.cpp:386] inception_4d/relu_3x3 -> inception_4d/3x3 (in-place)
I0403 15:15:51.640027 14286 net.cpp:141] Setting up inception_4d/relu_3x3
I0403 15:15:51.640053 14286 net.cpp:148] Top shape: 24 288 14 14 (1354752)
I0403 15:15:51.640069 14286 net.cpp:156] Memory required for data: 1131654432
I0403 15:15:51.640084 14286 layer_factory.hpp:77] Creating layer inception_4d/5x5_reduce
I0403 15:15:51.640102 14286 net.cpp:91] Creating Layer inception_4d/5x5_reduce
I0403 15:15:51.640117 14286 net.cpp:425] inception_4d/5x5_reduce <- inception_4c/output_inception_4c/output_0_split_2
I0403 15:15:51.640137 14286 net.cpp:399] inception_4d/5x5_reduce -> inception_4d/5x5_reduce
I0403 15:15:51.641252 14286 net.cpp:141] Setting up inception_4d/5x5_reduce
I0403 15:15:51.641279 14286 net.cpp:148] Top shape: 24 32 14 14 (150528)
I0403 15:15:51.641294 14286 net.cpp:156] Memory required for data: 1132256544
I0403 15:15:51.641310 14286 layer_factory.hpp:77] Creating layer inception_4d/relu_5x5_reduce
I0403 15:15:51.641330 14286 net.cpp:91] Creating Layer inception_4d/relu_5x5_reduce
I0403 15:15:51.641347 14286 net.cpp:425] inception_4d/relu_5x5_reduce <- inception_4d/5x5_reduce
I0403 15:15:51.641363 14286 net.cpp:386] inception_4d/relu_5x5_reduce -> inception_4d/5x5_reduce (in-place)
I0403 15:15:51.641544 14286 net.cpp:141] Setting up inception_4d/relu_5x5_reduce
I0403 15:15:51.641572 14286 net.cpp:148] Top shape: 24 32 14 14 (150528)
I0403 15:15:51.641588 14286 net.cpp:156] Memory required for data: 1132858656
I0403 15:15:51.641602 14286 layer_factory.hpp:77] Creating layer inception_4d/5x5
I0403 15:15:51.641624 14286 net.cpp:91] Creating Layer inception_4d/5x5
I0403 15:15:51.641641 14286 net.cpp:425] inception_4d/5x5 <- inception_4d/5x5_reduce
I0403 15:15:51.641659 14286 net.cpp:399] inception_4d/5x5 -> inception_4d/5x5
I0403 15:15:51.643095 14286 net.cpp:141] Setting up inception_4d/5x5
I0403 15:15:51.643122 14286 net.cpp:148] Top shape: 24 64 14 14 (301056)
I0403 15:15:51.643138 14286 net.cpp:156] Memory required for data: 1134062880
I0403 15:15:51.643157 14286 layer_factory.hpp:77] Creating layer inception_4d/relu_5x5
I0403 15:15:51.643189 14286 net.cpp:91] Creating Layer inception_4d/relu_5x5
I0403 15:15:51.643205 14286 net.cpp:425] inception_4d/relu_5x5 <- inception_4d/5x5
I0403 15:15:51.643224 14286 net.cpp:386] inception_4d/relu_5x5 -> inception_4d/5x5 (in-place)
I0403 15:15:51.643513 14286 net.cpp:141] Setting up inception_4d/relu_5x5
I0403 15:15:51.643540 14286 net.cpp:148] Top shape: 24 64 14 14 (301056)
I0403 15:15:51.643556 14286 net.cpp:156] Memory required for data: 1135267104
I0403 15:15:51.643574 14286 layer_factory.hpp:77] Creating layer inception_4d/pool
I0403 15:15:51.643592 14286 net.cpp:91] Creating Layer inception_4d/pool
I0403 15:15:51.643610 14286 net.cpp:425] inception_4d/pool <- inception_4c/output_inception_4c/output_0_split_3
I0403 15:15:51.643630 14286 net.cpp:399] inception_4d/pool -> inception_4d/pool
I0403 15:15:51.643693 14286 net.cpp:141] Setting up inception_4d/pool
I0403 15:15:51.643715 14286 net.cpp:148] Top shape: 24 512 14 14 (2408448)
I0403 15:15:51.643729 14286 net.cpp:156] Memory required for data: 1144900896
I0403 15:15:51.643743 14286 layer_factory.hpp:77] Creating layer inception_4d/pool_proj
I0403 15:15:51.643764 14286 net.cpp:91] Creating Layer inception_4d/pool_proj
I0403 15:15:51.643780 14286 net.cpp:425] inception_4d/pool_proj <- inception_4d/pool
I0403 15:15:51.643800 14286 net.cpp:399] inception_4d/pool_proj -> inception_4d/pool_proj
I0403 15:15:51.645515 14286 net.cpp:141] Setting up inception_4d/pool_proj
I0403 15:15:51.645542 14286 net.cpp:148] Top shape: 24 64 14 14 (301056)
I0403 15:15:51.645557 14286 net.cpp:156] Memory required for data: 1146105120
I0403 15:15:51.645581 14286 layer_factory.hpp:77] Creating layer inception_4d/relu_pool_proj
I0403 15:15:51.645601 14286 net.cpp:91] Creating Layer inception_4d/relu_pool_proj
I0403 15:15:51.645618 14286 net.cpp:425] inception_4d/relu_pool_proj <- inception_4d/pool_proj
I0403 15:15:51.645634 14286 net.cpp:386] inception_4d/relu_pool_proj -> inception_4d/pool_proj (in-place)
I0403 15:15:51.645815 14286 net.cpp:141] Setting up inception_4d/relu_pool_proj
I0403 15:15:51.645841 14286 net.cpp:148] Top shape: 24 64 14 14 (301056)
I0403 15:15:51.645856 14286 net.cpp:156] Memory required for data: 1147309344
I0403 15:15:51.645870 14286 layer_factory.hpp:77] Creating layer inception_4d/output
I0403 15:15:51.645886 14286 net.cpp:91] Creating Layer inception_4d/output
I0403 15:15:51.645901 14286 net.cpp:425] inception_4d/output <- inception_4d/1x1
I0403 15:15:51.645917 14286 net.cpp:425] inception_4d/output <- inception_4d/3x3
I0403 15:15:51.645932 14286 net.cpp:425] inception_4d/output <- inception_4d/5x5
I0403 15:15:51.645947 14286 net.cpp:425] inception_4d/output <- inception_4d/pool_proj
I0403 15:15:51.645963 14286 net.cpp:399] inception_4d/output -> inception_4d/output
I0403 15:15:51.646011 14286 net.cpp:141] Setting up inception_4d/output
I0403 15:15:51.646034 14286 net.cpp:148] Top shape: 24 528 14 14 (2483712)
I0403 15:15:51.646047 14286 net.cpp:156] Memory required for data: 1157244192
I0403 15:15:51.646060 14286 layer_factory.hpp:77] Creating layer inception_4d/output_inception_4d/output_0_split
I0403 15:15:51.646080 14286 net.cpp:91] Creating Layer inception_4d/output_inception_4d/output_0_split
I0403 15:15:51.646095 14286 net.cpp:425] inception_4d/output_inception_4d/output_0_split <- inception_4d/output
I0403 15:15:51.646112 14286 net.cpp:399] inception_4d/output_inception_4d/output_0_split -> inception_4d/output_inception_4d/output_0_split_0
I0403 15:15:51.646131 14286 net.cpp:399] inception_4d/output_inception_4d/output_0_split -> inception_4d/output_inception_4d/output_0_split_1
I0403 15:15:51.646150 14286 net.cpp:399] inception_4d/output_inception_4d/output_0_split -> inception_4d/output_inception_4d/output_0_split_2
I0403 15:15:51.646170 14286 net.cpp:399] inception_4d/output_inception_4d/output_0_split -> inception_4d/output_inception_4d/output_0_split_3
I0403 15:15:51.646191 14286 net.cpp:399] inception_4d/output_inception_4d/output_0_split -> inception_4d/output_inception_4d/output_0_split_4
I0403 15:15:51.646292 14286 net.cpp:141] Setting up inception_4d/output_inception_4d/output_0_split
I0403 15:15:51.646327 14286 net.cpp:148] Top shape: 24 528 14 14 (2483712)
I0403 15:15:51.646343 14286 net.cpp:148] Top shape: 24 528 14 14 (2483712)
I0403 15:15:51.646358 14286 net.cpp:148] Top shape: 24 528 14 14 (2483712)
I0403 15:15:51.646373 14286 net.cpp:148] Top shape: 24 528 14 14 (2483712)
I0403 15:15:51.646386 14286 net.cpp:148] Top shape: 24 528 14 14 (2483712)
I0403 15:15:51.646399 14286 net.cpp:156] Memory required for data: 1206918432
I0403 15:15:51.646414 14286 layer_factory.hpp:77] Creating layer loss2/ave_pool
I0403 15:15:51.646430 14286 net.cpp:91] Creating Layer loss2/ave_pool
I0403 15:15:51.646445 14286 net.cpp:425] loss2/ave_pool <- inception_4d/output_inception_4d/output_0_split_0
I0403 15:15:51.646464 14286 net.cpp:399] loss2/ave_pool -> loss2/ave_pool
I0403 15:15:51.646770 14286 net.cpp:141] Setting up loss2/ave_pool
I0403 15:15:51.646795 14286 net.cpp:148] Top shape: 24 528 4 4 (202752)
I0403 15:15:51.646811 14286 net.cpp:156] Memory required for data: 1207729440
I0403 15:15:51.646824 14286 layer_factory.hpp:77] Creating layer loss2/conv
I0403 15:15:51.646847 14286 net.cpp:91] Creating Layer loss2/conv
I0403 15:15:51.646864 14286 net.cpp:425] loss2/conv <- loss2/ave_pool
I0403 15:15:51.646884 14286 net.cpp:399] loss2/conv -> loss2/conv
I0403 15:15:51.648813 14286 net.cpp:141] Setting up loss2/conv
I0403 15:15:51.648844 14286 net.cpp:148] Top shape: 24 128 4 4 (49152)
I0403 15:15:51.648861 14286 net.cpp:156] Memory required for data: 1207926048
I0403 15:15:51.648880 14286 layer_factory.hpp:77] Creating layer loss2/relu_conv
I0403 15:15:51.648897 14286 net.cpp:91] Creating Layer loss2/relu_conv
I0403 15:15:51.648913 14286 net.cpp:425] loss2/relu_conv <- loss2/conv
I0403 15:15:51.648931 14286 net.cpp:386] loss2/relu_conv -> loss2/conv (in-place)
I0403 15:15:51.649215 14286 net.cpp:141] Setting up loss2/relu_conv
I0403 15:15:51.649243 14286 net.cpp:148] Top shape: 24 128 4 4 (49152)
I0403 15:15:51.649261 14286 net.cpp:156] Memory required for data: 1208122656
I0403 15:15:51.649276 14286 layer_factory.hpp:77] Creating layer loss2/fc
I0403 15:15:51.649294 14286 net.cpp:91] Creating Layer loss2/fc
I0403 15:15:51.649310 14286 net.cpp:425] loss2/fc <- loss2/conv
I0403 15:15:51.649332 14286 net.cpp:399] loss2/fc -> loss2/fc
I0403 15:15:51.666962 14286 net.cpp:141] Setting up loss2/fc
I0403 15:15:51.666993 14286 net.cpp:148] Top shape: 24 1024 (24576)
I0403 15:15:51.667008 14286 net.cpp:156] Memory required for data: 1208220960
I0403 15:15:51.667026 14286 layer_factory.hpp:77] Creating layer loss2/relu_fc
I0403 15:15:51.667045 14286 net.cpp:91] Creating Layer loss2/relu_fc
I0403 15:15:51.667062 14286 net.cpp:425] loss2/relu_fc <- loss2/fc
I0403 15:15:51.667078 14286 net.cpp:386] loss2/relu_fc -> loss2/fc (in-place)
I0403 15:15:51.667368 14286 net.cpp:141] Setting up loss2/relu_fc
I0403 15:15:51.667393 14286 net.cpp:148] Top shape: 24 1024 (24576)
I0403 15:15:51.667408 14286 net.cpp:156] Memory required for data: 1208319264
I0403 15:15:51.667423 14286 layer_factory.hpp:77] Creating layer loss2/drop_fc
I0403 15:15:51.667441 14286 net.cpp:91] Creating Layer loss2/drop_fc
I0403 15:15:51.667459 14286 net.cpp:425] loss2/drop_fc <- loss2/fc
I0403 15:15:51.667474 14286 net.cpp:386] loss2/drop_fc -> loss2/fc (in-place)
I0403 15:15:51.667523 14286 net.cpp:141] Setting up loss2/drop_fc
I0403 15:15:51.667546 14286 net.cpp:148] Top shape: 24 1024 (24576)
I0403 15:15:51.667559 14286 net.cpp:156] Memory required for data: 1208417568
I0403 15:15:51.667579 14286 layer_factory.hpp:77] Creating layer loss2/classifier_plantvillage
I0403 15:15:51.667598 14286 net.cpp:91] Creating Layer loss2/classifier_plantvillage
I0403 15:15:51.667613 14286 net.cpp:425] loss2/classifier_plantvillage <- loss2/fc
I0403 15:15:51.667632 14286 net.cpp:399] loss2/classifier_plantvillage -> loss2/classifier_plantvillage
I0403 15:15:51.668025 14286 net.cpp:141] Setting up loss2/classifier_plantvillage
I0403 15:15:51.668050 14286 net.cpp:148] Top shape: 24 38 (912)
I0403 15:15:51.668063 14286 net.cpp:156] Memory required for data: 1208421216
I0403 15:15:51.668098 14286 layer_factory.hpp:77] Creating layer loss2/classifier_plantvillage_loss2/classifier_plantvillage_0_split
I0403 15:15:51.668128 14286 net.cpp:91] Creating Layer loss2/classifier_plantvillage_loss2/classifier_plantvillage_0_split
I0403 15:15:51.668144 14286 net.cpp:425] loss2/classifier_plantvillage_loss2/classifier_plantvillage_0_split <- loss2/classifier_plantvillage
I0403 15:15:51.668164 14286 net.cpp:399] loss2/classifier_plantvillage_loss2/classifier_plantvillage_0_split -> loss2/classifier_plantvillage_loss2/classifier_plantvillage_0_split_0
I0403 15:15:51.668185 14286 net.cpp:399] loss2/classifier_plantvillage_loss2/classifier_plantvillage_0_split -> loss2/classifier_plantvillage_loss2/classifier_plantvillage_0_split_1
I0403 15:15:51.668206 14286 net.cpp:399] loss2/classifier_plantvillage_loss2/classifier_plantvillage_0_split -> loss2/classifier_plantvillage_loss2/classifier_plantvillage_0_split_2
I0403 15:15:51.668282 14286 net.cpp:141] Setting up loss2/classifier_plantvillage_loss2/classifier_plantvillage_0_split
I0403 15:15:51.668308 14286 net.cpp:148] Top shape: 24 38 (912)
I0403 15:15:51.668325 14286 net.cpp:148] Top shape: 24 38 (912)
I0403 15:15:51.668340 14286 net.cpp:148] Top shape: 24 38 (912)
I0403 15:15:51.668354 14286 net.cpp:156] Memory required for data: 1208432160
I0403 15:15:51.668366 14286 layer_factory.hpp:77] Creating layer inception_4e/1x1
I0403 15:15:51.668386 14286 net.cpp:91] Creating Layer inception_4e/1x1
I0403 15:15:51.668403 14286 net.cpp:425] inception_4e/1x1 <- inception_4d/output_inception_4d/output_0_split_1
I0403 15:15:51.668424 14286 net.cpp:399] inception_4e/1x1 -> inception_4e/1x1
I0403 15:15:51.670202 14286 net.cpp:141] Setting up inception_4e/1x1
I0403 15:15:51.670230 14286 net.cpp:148] Top shape: 24 256 14 14 (1204224)
I0403 15:15:51.670246 14286 net.cpp:156] Memory required for data: 1213249056
I0403 15:15:51.670265 14286 layer_factory.hpp:77] Creating layer inception_4e/relu_1x1
I0403 15:15:51.670282 14286 net.cpp:91] Creating Layer inception_4e/relu_1x1
I0403 15:15:51.670298 14286 net.cpp:425] inception_4e/relu_1x1 <- inception_4e/1x1
I0403 15:15:51.670317 14286 net.cpp:386] inception_4e/relu_1x1 -> inception_4e/1x1 (in-place)
I0403 15:15:51.670606 14286 net.cpp:141] Setting up inception_4e/relu_1x1
I0403 15:15:51.670634 14286 net.cpp:148] Top shape: 24 256 14 14 (1204224)
I0403 15:15:51.670649 14286 net.cpp:156] Memory required for data: 1218065952
I0403 15:15:51.670663 14286 layer_factory.hpp:77] Creating layer inception_4e/3x3_reduce
I0403 15:15:51.670685 14286 net.cpp:91] Creating Layer inception_4e/3x3_reduce
I0403 15:15:51.670702 14286 net.cpp:425] inception_4e/3x3_reduce <- inception_4d/output_inception_4d/output_0_split_2
I0403 15:15:51.670720 14286 net.cpp:399] inception_4e/3x3_reduce -> inception_4e/3x3_reduce
I0403 15:15:51.672798 14286 net.cpp:141] Setting up inception_4e/3x3_reduce
I0403 15:15:51.672829 14286 net.cpp:148] Top shape: 24 160 14 14 (752640)
I0403 15:15:51.672844 14286 net.cpp:156] Memory required for data: 1221076512
I0403 15:15:51.672863 14286 layer_factory.hpp:77] Creating layer inception_4e/relu_3x3_reduce
I0403 15:15:51.672880 14286 net.cpp:91] Creating Layer inception_4e/relu_3x3_reduce
I0403 15:15:51.672894 14286 net.cpp:425] inception_4e/relu_3x3_reduce <- inception_4e/3x3_reduce
I0403 15:15:51.672911 14286 net.cpp:386] inception_4e/relu_3x3_reduce -> inception_4e/3x3_reduce (in-place)
I0403 15:15:51.673092 14286 net.cpp:141] Setting up inception_4e/relu_3x3_reduce
I0403 15:15:51.673120 14286 net.cpp:148] Top shape: 24 160 14 14 (752640)
I0403 15:15:51.673135 14286 net.cpp:156] Memory required for data: 1224087072
I0403 15:15:51.673149 14286 layer_factory.hpp:77] Creating layer inception_4e/3x3
I0403 15:15:51.673169 14286 net.cpp:91] Creating Layer inception_4e/3x3
I0403 15:15:51.673187 14286 net.cpp:425] inception_4e/3x3 <- inception_4e/3x3_reduce
I0403 15:15:51.673207 14286 net.cpp:399] inception_4e/3x3 -> inception_4e/3x3
I0403 15:15:51.678143 14286 net.cpp:141] Setting up inception_4e/3x3
I0403 15:15:51.678187 14286 net.cpp:148] Top shape: 24 320 14 14 (1505280)
I0403 15:15:51.678205 14286 net.cpp:156] Memory required for data: 1230108192
I0403 15:15:51.678222 14286 layer_factory.hpp:77] Creating layer inception_4e/relu_3x3
I0403 15:15:51.678241 14286 net.cpp:91] Creating Layer inception_4e/relu_3x3
I0403 15:15:51.678257 14286 net.cpp:425] inception_4e/relu_3x3 <- inception_4e/3x3
I0403 15:15:51.678277 14286 net.cpp:386] inception_4e/relu_3x3 -> inception_4e/3x3 (in-place)
I0403 15:15:51.678583 14286 net.cpp:141] Setting up inception_4e/relu_3x3
I0403 15:15:51.678611 14286 net.cpp:148] Top shape: 24 320 14 14 (1505280)
I0403 15:15:51.678625 14286 net.cpp:156] Memory required for data: 1236129312
I0403 15:15:51.678640 14286 layer_factory.hpp:77] Creating layer inception_4e/5x5_reduce
I0403 15:15:51.678663 14286 net.cpp:91] Creating Layer inception_4e/5x5_reduce
I0403 15:15:51.678679 14286 net.cpp:425] inception_4e/5x5_reduce <- inception_4d/output_inception_4d/output_0_split_3
I0403 15:15:51.678701 14286 net.cpp:399] inception_4e/5x5_reduce -> inception_4e/5x5_reduce
I0403 15:15:51.679769 14286 net.cpp:141] Setting up inception_4e/5x5_reduce
I0403 15:15:51.679797 14286 net.cpp:148] Top shape: 24 32 14 14 (150528)
I0403 15:15:51.679812 14286 net.cpp:156] Memory required for data: 1236731424
I0403 15:15:51.679832 14286 layer_factory.hpp:77] Creating layer inception_4e/relu_5x5_reduce
I0403 15:15:51.679852 14286 net.cpp:91] Creating Layer inception_4e/relu_5x5_reduce
I0403 15:15:51.679867 14286 net.cpp:425] inception_4e/relu_5x5_reduce <- inception_4e/5x5_reduce
I0403 15:15:51.679884 14286 net.cpp:386] inception_4e/relu_5x5_reduce -> inception_4e/5x5_reduce (in-place)
I0403 15:15:51.680184 14286 net.cpp:141] Setting up inception_4e/relu_5x5_reduce
I0403 15:15:51.680210 14286 net.cpp:148] Top shape: 24 32 14 14 (150528)
I0403 15:15:51.680225 14286 net.cpp:156] Memory required for data: 1237333536
I0403 15:15:51.680239 14286 layer_factory.hpp:77] Creating layer inception_4e/5x5
I0403 15:15:51.680279 14286 net.cpp:91] Creating Layer inception_4e/5x5
I0403 15:15:51.680297 14286 net.cpp:425] inception_4e/5x5 <- inception_4e/5x5_reduce
I0403 15:15:51.680316 14286 net.cpp:399] inception_4e/5x5 -> inception_4e/5x5
I0403 15:15:51.682183 14286 net.cpp:141] Setting up inception_4e/5x5
I0403 15:15:51.682210 14286 net.cpp:148] Top shape: 24 128 14 14 (602112)
I0403 15:15:51.682225 14286 net.cpp:156] Memory required for data: 1239741984
I0403 15:15:51.682243 14286 layer_factory.hpp:77] Creating layer inception_4e/relu_5x5
I0403 15:15:51.682266 14286 net.cpp:91] Creating Layer inception_4e/relu_5x5
I0403 15:15:51.682284 14286 net.cpp:425] inception_4e/relu_5x5 <- inception_4e/5x5
I0403 15:15:51.682301 14286 net.cpp:386] inception_4e/relu_5x5 -> inception_4e/5x5 (in-place)
I0403 15:15:51.682498 14286 net.cpp:141] Setting up inception_4e/relu_5x5
I0403 15:15:51.682525 14286 net.cpp:148] Top shape: 24 128 14 14 (602112)
I0403 15:15:51.682540 14286 net.cpp:156] Memory required for data: 1242150432
I0403 15:15:51.682554 14286 layer_factory.hpp:77] Creating layer inception_4e/pool
I0403 15:15:51.682576 14286 net.cpp:91] Creating Layer inception_4e/pool
I0403 15:15:51.682595 14286 net.cpp:425] inception_4e/pool <- inception_4d/output_inception_4d/output_0_split_4
I0403 15:15:51.682611 14286 net.cpp:399] inception_4e/pool -> inception_4e/pool
I0403 15:15:51.682682 14286 net.cpp:141] Setting up inception_4e/pool
I0403 15:15:51.682704 14286 net.cpp:148] Top shape: 24 528 14 14 (2483712)
I0403 15:15:51.682718 14286 net.cpp:156] Memory required for data: 1252085280
I0403 15:15:51.682731 14286 layer_factory.hpp:77] Creating layer inception_4e/pool_proj
I0403 15:15:51.682754 14286 net.cpp:91] Creating Layer inception_4e/pool_proj
I0403 15:15:51.682770 14286 net.cpp:425] inception_4e/pool_proj <- inception_4e/pool
I0403 15:15:51.682790 14286 net.cpp:399] inception_4e/pool_proj -> inception_4e/pool_proj
I0403 15:15:51.684298 14286 net.cpp:141] Setting up inception_4e/pool_proj
I0403 15:15:51.684324 14286 net.cpp:148] Top shape: 24 128 14 14 (602112)
I0403 15:15:51.684353 14286 net.cpp:156] Memory required for data: 1254493728
I0403 15:15:51.684372 14286 layer_factory.hpp:77] Creating layer inception_4e/relu_pool_proj
I0403 15:15:51.684392 14286 net.cpp:91] Creating Layer inception_4e/relu_pool_proj
I0403 15:15:51.684409 14286 net.cpp:425] inception_4e/relu_pool_proj <- inception_4e/pool_proj
I0403 15:15:51.684427 14286 net.cpp:386] inception_4e/relu_pool_proj -> inception_4e/pool_proj (in-place)
I0403 15:15:51.684734 14286 net.cpp:141] Setting up inception_4e/relu_pool_proj
I0403 15:15:51.684761 14286 net.cpp:148] Top shape: 24 128 14 14 (602112)
I0403 15:15:51.684775 14286 net.cpp:156] Memory required for data: 1256902176
I0403 15:15:51.684789 14286 layer_factory.hpp:77] Creating layer inception_4e/output
I0403 15:15:51.684808 14286 net.cpp:91] Creating Layer inception_4e/output
I0403 15:15:51.684823 14286 net.cpp:425] inception_4e/output <- inception_4e/1x1
I0403 15:15:51.684839 14286 net.cpp:425] inception_4e/output <- inception_4e/3x3
I0403 15:15:51.684855 14286 net.cpp:425] inception_4e/output <- inception_4e/5x5
I0403 15:15:51.684871 14286 net.cpp:425] inception_4e/output <- inception_4e/pool_proj
I0403 15:15:51.684890 14286 net.cpp:399] inception_4e/output -> inception_4e/output
I0403 15:15:51.684942 14286 net.cpp:141] Setting up inception_4e/output
I0403 15:15:51.684967 14286 net.cpp:148] Top shape: 24 832 14 14 (3913728)
I0403 15:15:51.684980 14286 net.cpp:156] Memory required for data: 1272557088
I0403 15:15:51.684995 14286 layer_factory.hpp:77] Creating layer pool4/3x3_s2
I0403 15:15:51.685012 14286 net.cpp:91] Creating Layer pool4/3x3_s2
I0403 15:15:51.685027 14286 net.cpp:425] pool4/3x3_s2 <- inception_4e/output
I0403 15:15:51.685048 14286 net.cpp:399] pool4/3x3_s2 -> pool4/3x3_s2
I0403 15:15:51.685114 14286 net.cpp:141] Setting up pool4/3x3_s2
I0403 15:15:51.685138 14286 net.cpp:148] Top shape: 24 832 7 7 (978432)
I0403 15:15:51.685153 14286 net.cpp:156] Memory required for data: 1276470816
I0403 15:15:51.685166 14286 layer_factory.hpp:77] Creating layer pool4/3x3_s2_pool4/3x3_s2_0_split
I0403 15:15:51.685186 14286 net.cpp:91] Creating Layer pool4/3x3_s2_pool4/3x3_s2_0_split
I0403 15:15:51.685204 14286 net.cpp:425] pool4/3x3_s2_pool4/3x3_s2_0_split <- pool4/3x3_s2
I0403 15:15:51.685220 14286 net.cpp:399] pool4/3x3_s2_pool4/3x3_s2_0_split -> pool4/3x3_s2_pool4/3x3_s2_0_split_0
I0403 15:15:51.685242 14286 net.cpp:399] pool4/3x3_s2_pool4/3x3_s2_0_split -> pool4/3x3_s2_pool4/3x3_s2_0_split_1
I0403 15:15:51.685266 14286 net.cpp:399] pool4/3x3_s2_pool4/3x3_s2_0_split -> pool4/3x3_s2_pool4/3x3_s2_0_split_2
I0403 15:15:51.685286 14286 net.cpp:399] pool4/3x3_s2_pool4/3x3_s2_0_split -> pool4/3x3_s2_pool4/3x3_s2_0_split_3
I0403 15:15:51.685374 14286 net.cpp:141] Setting up pool4/3x3_s2_pool4/3x3_s2_0_split
I0403 15:15:51.685397 14286 net.cpp:148] Top shape: 24 832 7 7 (978432)
I0403 15:15:51.685413 14286 net.cpp:148] Top shape: 24 832 7 7 (978432)
I0403 15:15:51.685430 14286 net.cpp:148] Top shape: 24 832 7 7 (978432)
I0403 15:15:51.685443 14286 net.cpp:148] Top shape: 24 832 7 7 (978432)
I0403 15:15:51.685457 14286 net.cpp:156] Memory required for data: 1292125728
I0403 15:15:51.685472 14286 layer_factory.hpp:77] Creating layer inception_5a/1x1
I0403 15:15:51.685494 14286 net.cpp:91] Creating Layer inception_5a/1x1
I0403 15:15:51.685511 14286 net.cpp:425] inception_5a/1x1 <- pool4/3x3_s2_pool4/3x3_s2_0_split_0
I0403 15:15:51.685535 14286 net.cpp:399] inception_5a/1x1 -> inception_5a/1x1
I0403 15:15:51.688395 14286 net.cpp:141] Setting up inception_5a/1x1
I0403 15:15:51.688423 14286 net.cpp:148] Top shape: 24 256 7 7 (301056)
I0403 15:15:51.688442 14286 net.cpp:156] Memory required for data: 1293329952
I0403 15:15:51.688460 14286 layer_factory.hpp:77] Creating layer inception_5a/relu_1x1
I0403 15:15:51.688478 14286 net.cpp:91] Creating Layer inception_5a/relu_1x1
I0403 15:15:51.688494 14286 net.cpp:425] inception_5a/relu_1x1 <- inception_5a/1x1
I0403 15:15:51.688510 14286 net.cpp:386] inception_5a/relu_1x1 -> inception_5a/1x1 (in-place)
I0403 15:15:51.688829 14286 net.cpp:141] Setting up inception_5a/relu_1x1
I0403 15:15:51.688855 14286 net.cpp:148] Top shape: 24 256 7 7 (301056)
I0403 15:15:51.688874 14286 net.cpp:156] Memory required for data: 1294534176
I0403 15:15:51.688887 14286 layer_factory.hpp:77] Creating layer inception_5a/3x3_reduce
I0403 15:15:51.688907 14286 net.cpp:91] Creating Layer inception_5a/3x3_reduce
I0403 15:15:51.688925 14286 net.cpp:425] inception_5a/3x3_reduce <- pool4/3x3_s2_pool4/3x3_s2_0_split_1
I0403 15:15:51.688946 14286 net.cpp:399] inception_5a/3x3_reduce -> inception_5a/3x3_reduce
I0403 15:15:51.691411 14286 net.cpp:141] Setting up inception_5a/3x3_reduce
I0403 15:15:51.691438 14286 net.cpp:148] Top shape: 24 160 7 7 (188160)
I0403 15:15:51.691454 14286 net.cpp:156] Memory required for data: 1295286816
I0403 15:15:51.691473 14286 layer_factory.hpp:77] Creating layer inception_5a/relu_3x3_reduce
I0403 15:15:51.691490 14286 net.cpp:91] Creating Layer inception_5a/relu_3x3_reduce
I0403 15:15:51.691506 14286 net.cpp:425] inception_5a/relu_3x3_reduce <- inception_5a/3x3_reduce
I0403 15:15:51.691525 14286 net.cpp:386] inception_5a/relu_3x3_reduce -> inception_5a/3x3_reduce (in-place)
I0403 15:15:51.691720 14286 net.cpp:141] Setting up inception_5a/relu_3x3_reduce
I0403 15:15:51.691745 14286 net.cpp:148] Top shape: 24 160 7 7 (188160)
I0403 15:15:51.691759 14286 net.cpp:156] Memory required for data: 1296039456
I0403 15:15:51.691774 14286 layer_factory.hpp:77] Creating layer inception_5a/3x3
I0403 15:15:51.691797 14286 net.cpp:91] Creating Layer inception_5a/3x3
I0403 15:15:51.691814 14286 net.cpp:425] inception_5a/3x3 <- inception_5a/3x3_reduce
I0403 15:15:51.691836 14286 net.cpp:399] inception_5a/3x3 -> inception_5a/3x3
I0403 15:15:51.696887 14286 net.cpp:141] Setting up inception_5a/3x3
I0403 15:15:51.696918 14286 net.cpp:148] Top shape: 24 320 7 7 (376320)
I0403 15:15:51.696934 14286 net.cpp:156] Memory required for data: 1297544736
I0403 15:15:51.696952 14286 layer_factory.hpp:77] Creating layer inception_5a/relu_3x3
I0403 15:15:51.696972 14286 net.cpp:91] Creating Layer inception_5a/relu_3x3
I0403 15:15:51.696990 14286 net.cpp:425] inception_5a/relu_3x3 <- inception_5a/3x3
I0403 15:15:51.697006 14286 net.cpp:386] inception_5a/relu_3x3 -> inception_5a/3x3 (in-place)
I0403 15:15:51.697304 14286 net.cpp:141] Setting up inception_5a/relu_3x3
I0403 15:15:51.697331 14286 net.cpp:148] Top shape: 24 320 7 7 (376320)
I0403 15:15:51.697347 14286 net.cpp:156] Memory required for data: 1299050016
I0403 15:15:51.697362 14286 layer_factory.hpp:77] Creating layer inception_5a/5x5_reduce
I0403 15:15:51.697384 14286 net.cpp:91] Creating Layer inception_5a/5x5_reduce
I0403 15:15:51.697405 14286 net.cpp:425] inception_5a/5x5_reduce <- pool4/3x3_s2_pool4/3x3_s2_0_split_2
I0403 15:15:51.697424 14286 net.cpp:399] inception_5a/5x5_reduce -> inception_5a/5x5_reduce
I0403 15:15:51.698608 14286 net.cpp:141] Setting up inception_5a/5x5_reduce
I0403 15:15:51.698638 14286 net.cpp:148] Top shape: 24 32 7 7 (37632)
I0403 15:15:51.698654 14286 net.cpp:156] Memory required for data: 1299200544
I0403 15:15:51.698673 14286 layer_factory.hpp:77] Creating layer inception_5a/relu_5x5_reduce
I0403 15:15:51.698690 14286 net.cpp:91] Creating Layer inception_5a/relu_5x5_reduce
I0403 15:15:51.698707 14286 net.cpp:425] inception_5a/relu_5x5_reduce <- inception_5a/5x5_reduce
I0403 15:15:51.698724 14286 net.cpp:386] inception_5a/relu_5x5_reduce -> inception_5a/5x5_reduce (in-place)
I0403 15:15:51.699029 14286 net.cpp:141] Setting up inception_5a/relu_5x5_reduce
I0403 15:15:51.699057 14286 net.cpp:148] Top shape: 24 32 7 7 (37632)
I0403 15:15:51.699074 14286 net.cpp:156] Memory required for data: 1299351072
I0403 15:15:51.699087 14286 layer_factory.hpp:77] Creating layer inception_5a/5x5
I0403 15:15:51.699110 14286 net.cpp:91] Creating Layer inception_5a/5x5
I0403 15:15:51.699127 14286 net.cpp:425] inception_5a/5x5 <- inception_5a/5x5_reduce
I0403 15:15:51.699146 14286 net.cpp:399] inception_5a/5x5 -> inception_5a/5x5
I0403 15:15:51.700881 14286 net.cpp:141] Setting up inception_5a/5x5
I0403 15:15:51.700920 14286 net.cpp:148] Top shape: 24 128 7 7 (150528)
I0403 15:15:51.700937 14286 net.cpp:156] Memory required for data: 1299953184
I0403 15:15:51.700954 14286 layer_factory.hpp:77] Creating layer inception_5a/relu_5x5
I0403 15:15:51.700976 14286 net.cpp:91] Creating Layer inception_5a/relu_5x5
I0403 15:15:51.700994 14286 net.cpp:425] inception_5a/relu_5x5 <- inception_5a/5x5
I0403 15:15:51.701010 14286 net.cpp:386] inception_5a/relu_5x5 -> inception_5a/5x5 (in-place)
I0403 15:15:51.701200 14286 net.cpp:141] Setting up inception_5a/relu_5x5
I0403 15:15:51.701227 14286 net.cpp:148] Top shape: 24 128 7 7 (150528)
I0403 15:15:51.701242 14286 net.cpp:156] Memory required for data: 1300555296
I0403 15:15:51.701257 14286 layer_factory.hpp:77] Creating layer inception_5a/pool
I0403 15:15:51.701274 14286 net.cpp:91] Creating Layer inception_5a/pool
I0403 15:15:51.701290 14286 net.cpp:425] inception_5a/pool <- pool4/3x3_s2_pool4/3x3_s2_0_split_3
I0403 15:15:51.701310 14286 net.cpp:399] inception_5a/pool -> inception_5a/pool
I0403 15:15:51.701381 14286 net.cpp:141] Setting up inception_5a/pool
I0403 15:15:51.701405 14286 net.cpp:148] Top shape: 24 832 7 7 (978432)
I0403 15:15:51.701418 14286 net.cpp:156] Memory required for data: 1304469024
I0403 15:15:51.701431 14286 layer_factory.hpp:77] Creating layer inception_5a/pool_proj
I0403 15:15:51.701453 14286 net.cpp:91] Creating Layer inception_5a/pool_proj
I0403 15:15:51.701472 14286 net.cpp:425] inception_5a/pool_proj <- inception_5a/pool
I0403 15:15:51.701491 14286 net.cpp:399] inception_5a/pool_proj -> inception_5a/pool_proj
I0403 15:15:51.703784 14286 net.cpp:141] Setting up inception_5a/pool_proj
I0403 15:15:51.703814 14286 net.cpp:148] Top shape: 24 128 7 7 (150528)
I0403 15:15:51.703830 14286 net.cpp:156] Memory required for data: 1305071136
I0403 15:15:51.703848 14286 layer_factory.hpp:77] Creating layer inception_5a/relu_pool_proj
I0403 15:15:51.703869 14286 net.cpp:91] Creating Layer inception_5a/relu_pool_proj
I0403 15:15:51.703886 14286 net.cpp:425] inception_5a/relu_pool_proj <- inception_5a/pool_proj
I0403 15:15:51.703903 14286 net.cpp:386] inception_5a/relu_pool_proj -> inception_5a/pool_proj (in-place)
I0403 15:15:51.704202 14286 net.cpp:141] Setting up inception_5a/relu_pool_proj
I0403 15:15:51.704229 14286 net.cpp:148] Top shape: 24 128 7 7 (150528)
I0403 15:15:51.704243 14286 net.cpp:156] Memory required for data: 1305673248
I0403 15:15:51.704258 14286 layer_factory.hpp:77] Creating layer inception_5a/output
I0403 15:15:51.704278 14286 net.cpp:91] Creating Layer inception_5a/output
I0403 15:15:51.704296 14286 net.cpp:425] inception_5a/output <- inception_5a/1x1
I0403 15:15:51.704313 14286 net.cpp:425] inception_5a/output <- inception_5a/3x3
I0403 15:15:51.704329 14286 net.cpp:425] inception_5a/output <- inception_5a/5x5
I0403 15:15:51.704344 14286 net.cpp:425] inception_5a/output <- inception_5a/pool_proj
I0403 15:15:51.704361 14286 net.cpp:399] inception_5a/output -> inception_5a/output
I0403 15:15:51.704411 14286 net.cpp:141] Setting up inception_5a/output
I0403 15:15:51.704437 14286 net.cpp:148] Top shape: 24 832 7 7 (978432)
I0403 15:15:51.704452 14286 net.cpp:156] Memory required for data: 1309586976
I0403 15:15:51.704465 14286 layer_factory.hpp:77] Creating layer inception_5a/output_inception_5a/output_0_split
I0403 15:15:51.704483 14286 net.cpp:91] Creating Layer inception_5a/output_inception_5a/output_0_split
I0403 15:15:51.704498 14286 net.cpp:425] inception_5a/output_inception_5a/output_0_split <- inception_5a/output
I0403 15:15:51.704517 14286 net.cpp:399] inception_5a/output_inception_5a/output_0_split -> inception_5a/output_inception_5a/output_0_split_0
I0403 15:15:51.704537 14286 net.cpp:399] inception_5a/output_inception_5a/output_0_split -> inception_5a/output_inception_5a/output_0_split_1
I0403 15:15:51.704558 14286 net.cpp:399] inception_5a/output_inception_5a/output_0_split -> inception_5a/output_inception_5a/output_0_split_2
I0403 15:15:51.704591 14286 net.cpp:399] inception_5a/output_inception_5a/output_0_split -> inception_5a/output_inception_5a/output_0_split_3
I0403 15:15:51.704702 14286 net.cpp:141] Setting up inception_5a/output_inception_5a/output_0_split
I0403 15:15:51.704728 14286 net.cpp:148] Top shape: 24 832 7 7 (978432)
I0403 15:15:51.704746 14286 net.cpp:148] Top shape: 24 832 7 7 (978432)
I0403 15:15:51.704759 14286 net.cpp:148] Top shape: 24 832 7 7 (978432)
I0403 15:15:51.704774 14286 net.cpp:148] Top shape: 24 832 7 7 (978432)
I0403 15:15:51.704787 14286 net.cpp:156] Memory required for data: 1325241888
I0403 15:15:51.704802 14286 layer_factory.hpp:77] Creating layer inception_5b/1x1
I0403 15:15:51.704823 14286 net.cpp:91] Creating Layer inception_5b/1x1
I0403 15:15:51.704840 14286 net.cpp:425] inception_5b/1x1 <- inception_5a/output_inception_5a/output_0_split_0
I0403 15:15:51.704859 14286 net.cpp:399] inception_5b/1x1 -> inception_5b/1x1
I0403 15:15:51.708647 14286 net.cpp:141] Setting up inception_5b/1x1
I0403 15:15:51.708678 14286 net.cpp:148] Top shape: 24 384 7 7 (451584)
I0403 15:15:51.708694 14286 net.cpp:156] Memory required for data: 1327048224
I0403 15:15:51.708712 14286 layer_factory.hpp:77] Creating layer inception_5b/relu_1x1
I0403 15:15:51.708730 14286 net.cpp:91] Creating Layer inception_5b/relu_1x1
I0403 15:15:51.708747 14286 net.cpp:425] inception_5b/relu_1x1 <- inception_5b/1x1
I0403 15:15:51.708766 14286 net.cpp:386] inception_5b/relu_1x1 -> inception_5b/1x1 (in-place)
I0403 15:15:51.709085 14286 net.cpp:141] Setting up inception_5b/relu_1x1
I0403 15:15:51.709111 14286 net.cpp:148] Top shape: 24 384 7 7 (451584)
I0403 15:15:51.709126 14286 net.cpp:156] Memory required for data: 1328854560
I0403 15:15:51.709142 14286 layer_factory.hpp:77] Creating layer inception_5b/3x3_reduce
I0403 15:15:51.709167 14286 net.cpp:91] Creating Layer inception_5b/3x3_reduce
I0403 15:15:51.709184 14286 net.cpp:425] inception_5b/3x3_reduce <- inception_5a/output_inception_5a/output_0_split_1
I0403 15:15:51.709206 14286 net.cpp:399] inception_5b/3x3_reduce -> inception_5b/3x3_reduce
I0403 15:15:51.711973 14286 net.cpp:141] Setting up inception_5b/3x3_reduce
I0403 15:15:51.712003 14286 net.cpp:148] Top shape: 24 192 7 7 (225792)
I0403 15:15:51.712019 14286 net.cpp:156] Memory required for data: 1329757728
I0403 15:15:51.712038 14286 layer_factory.hpp:77] Creating layer inception_5b/relu_3x3_reduce
I0403 15:15:51.712059 14286 net.cpp:91] Creating Layer inception_5b/relu_3x3_reduce
I0403 15:15:51.712076 14286 net.cpp:425] inception_5b/relu_3x3_reduce <- inception_5b/3x3_reduce
I0403 15:15:51.712095 14286 net.cpp:386] inception_5b/relu_3x3_reduce -> inception_5b/3x3_reduce (in-place)
I0403 15:15:51.712292 14286 net.cpp:141] Setting up inception_5b/relu_3x3_reduce
I0403 15:15:51.712317 14286 net.cpp:148] Top shape: 24 192 7 7 (225792)
I0403 15:15:51.712332 14286 net.cpp:156] Memory required for data: 1330660896
I0403 15:15:51.712347 14286 layer_factory.hpp:77] Creating layer inception_5b/3x3
I0403 15:15:51.712370 14286 net.cpp:91] Creating Layer inception_5b/3x3
I0403 15:15:51.712388 14286 net.cpp:425] inception_5b/3x3 <- inception_5b/3x3_reduce
I0403 15:15:51.712407 14286 net.cpp:399] inception_5b/3x3 -> inception_5b/3x3
I0403 15:15:51.719362 14286 net.cpp:141] Setting up inception_5b/3x3
I0403 15:15:51.719391 14286 net.cpp:148] Top shape: 24 384 7 7 (451584)
I0403 15:15:51.719408 14286 net.cpp:156] Memory required for data: 1332467232
I0403 15:15:51.719426 14286 layer_factory.hpp:77] Creating layer inception_5b/relu_3x3
I0403 15:15:51.719447 14286 net.cpp:91] Creating Layer inception_5b/relu_3x3
I0403 15:15:51.719465 14286 net.cpp:425] inception_5b/relu_3x3 <- inception_5b/3x3
I0403 15:15:51.719485 14286 net.cpp:386] inception_5b/relu_3x3 -> inception_5b/3x3 (in-place)
I0403 15:15:51.719795 14286 net.cpp:141] Setting up inception_5b/relu_3x3
I0403 15:15:51.719823 14286 net.cpp:148] Top shape: 24 384 7 7 (451584)
I0403 15:15:51.719838 14286 net.cpp:156] Memory required for data: 1334273568
I0403 15:15:51.719853 14286 layer_factory.hpp:77] Creating layer inception_5b/5x5_reduce
I0403 15:15:51.719895 14286 net.cpp:91] Creating Layer inception_5b/5x5_reduce
I0403 15:15:51.719915 14286 net.cpp:425] inception_5b/5x5_reduce <- inception_5a/output_inception_5a/output_0_split_2
I0403 15:15:51.719936 14286 net.cpp:399] inception_5b/5x5_reduce -> inception_5b/5x5_reduce
I0403 15:15:51.721251 14286 net.cpp:141] Setting up inception_5b/5x5_reduce
I0403 15:15:51.721278 14286 net.cpp:148] Top shape: 24 48 7 7 (56448)
I0403 15:15:51.721297 14286 net.cpp:156] Memory required for data: 1334499360
I0403 15:15:51.721314 14286 layer_factory.hpp:77] Creating layer inception_5b/relu_5x5_reduce
I0403 15:15:51.721335 14286 net.cpp:91] Creating Layer inception_5b/relu_5x5_reduce
I0403 15:15:51.721354 14286 net.cpp:425] inception_5b/relu_5x5_reduce <- inception_5b/5x5_reduce
I0403 15:15:51.721371 14286 net.cpp:386] inception_5b/relu_5x5_reduce -> inception_5b/5x5_reduce (in-place)
I0403 15:15:51.721758 14286 net.cpp:141] Setting up inception_5b/relu_5x5_reduce
I0403 15:15:51.721786 14286 net.cpp:148] Top shape: 24 48 7 7 (56448)
I0403 15:15:51.721801 14286 net.cpp:156] Memory required for data: 1334725152
I0403 15:15:51.721817 14286 layer_factory.hpp:77] Creating layer inception_5b/5x5
I0403 15:15:51.721837 14286 net.cpp:91] Creating Layer inception_5b/5x5
I0403 15:15:51.721853 14286 net.cpp:425] inception_5b/5x5 <- inception_5b/5x5_reduce
I0403 15:15:51.721873 14286 net.cpp:399] inception_5b/5x5 -> inception_5b/5x5
I0403 15:15:51.723959 14286 net.cpp:141] Setting up inception_5b/5x5
I0403 15:15:51.723986 14286 net.cpp:148] Top shape: 24 128 7 7 (150528)
I0403 15:15:51.724001 14286 net.cpp:156] Memory required for data: 1335327264
I0403 15:15:51.724020 14286 layer_factory.hpp:77] Creating layer inception_5b/relu_5x5
I0403 15:15:51.724040 14286 net.cpp:91] Creating Layer inception_5b/relu_5x5
I0403 15:15:51.724056 14286 net.cpp:425] inception_5b/relu_5x5 <- inception_5b/5x5
I0403 15:15:51.724072 14286 net.cpp:386] inception_5b/relu_5x5 -> inception_5b/5x5 (in-place)
I0403 15:15:51.724269 14286 net.cpp:141] Setting up inception_5b/relu_5x5
I0403 15:15:51.724298 14286 net.cpp:148] Top shape: 24 128 7 7 (150528)
I0403 15:15:51.724314 14286 net.cpp:156] Memory required for data: 1335929376
I0403 15:15:51.724328 14286 layer_factory.hpp:77] Creating layer inception_5b/pool
I0403 15:15:51.724346 14286 net.cpp:91] Creating Layer inception_5b/pool
I0403 15:15:51.724362 14286 net.cpp:425] inception_5b/pool <- inception_5a/output_inception_5a/output_0_split_3
I0403 15:15:51.724382 14286 net.cpp:399] inception_5b/pool -> inception_5b/pool
I0403 15:15:51.724454 14286 net.cpp:141] Setting up inception_5b/pool
I0403 15:15:51.724480 14286 net.cpp:148] Top shape: 24 832 7 7 (978432)
I0403 15:15:51.724496 14286 net.cpp:156] Memory required for data: 1339843104
I0403 15:15:51.724510 14286 layer_factory.hpp:77] Creating layer inception_5b/pool_proj
I0403 15:15:51.724529 14286 net.cpp:91] Creating Layer inception_5b/pool_proj
I0403 15:15:51.724546 14286 net.cpp:425] inception_5b/pool_proj <- inception_5b/pool
I0403 15:15:51.724575 14286 net.cpp:399] inception_5b/pool_proj -> inception_5b/pool_proj
I0403 15:15:51.726879 14286 net.cpp:141] Setting up inception_5b/pool_proj
I0403 15:15:51.726909 14286 net.cpp:148] Top shape: 24 128 7 7 (150528)
I0403 15:15:51.726924 14286 net.cpp:156] Memory required for data: 1340445216
I0403 15:15:51.726943 14286 layer_factory.hpp:77] Creating layer inception_5b/relu_pool_proj
I0403 15:15:51.726963 14286 net.cpp:91] Creating Layer inception_5b/relu_pool_proj
I0403 15:15:51.726981 14286 net.cpp:425] inception_5b/relu_pool_proj <- inception_5b/pool_proj
I0403 15:15:51.726999 14286 net.cpp:386] inception_5b/relu_pool_proj -> inception_5b/pool_proj (in-place)
I0403 15:15:51.727313 14286 net.cpp:141] Setting up inception_5b/relu_pool_proj
I0403 15:15:51.727339 14286 net.cpp:148] Top shape: 24 128 7 7 (150528)
I0403 15:15:51.727355 14286 net.cpp:156] Memory required for data: 1341047328
I0403 15:15:51.727370 14286 layer_factory.hpp:77] Creating layer inception_5b/output
I0403 15:15:51.727385 14286 net.cpp:91] Creating Layer inception_5b/output
I0403 15:15:51.727417 14286 net.cpp:425] inception_5b/output <- inception_5b/1x1
I0403 15:15:51.727437 14286 net.cpp:425] inception_5b/output <- inception_5b/3x3
I0403 15:15:51.727455 14286 net.cpp:425] inception_5b/output <- inception_5b/5x5
I0403 15:15:51.727471 14286 net.cpp:425] inception_5b/output <- inception_5b/pool_proj
I0403 15:15:51.727488 14286 net.cpp:399] inception_5b/output -> inception_5b/output
I0403 15:15:51.727552 14286 net.cpp:141] Setting up inception_5b/output
I0403 15:15:51.727581 14286 net.cpp:148] Top shape: 24 1024 7 7 (1204224)
I0403 15:15:51.727596 14286 net.cpp:156] Memory required for data: 1345864224
I0403 15:15:51.727609 14286 layer_factory.hpp:77] Creating layer pool5/7x7_s1
I0403 15:15:51.727627 14286 net.cpp:91] Creating Layer pool5/7x7_s1
I0403 15:15:51.727641 14286 net.cpp:425] pool5/7x7_s1 <- inception_5b/output
I0403 15:15:51.727661 14286 net.cpp:399] pool5/7x7_s1 -> pool5/7x7_s1
I0403 15:15:51.727875 14286 net.cpp:141] Setting up pool5/7x7_s1
I0403 15:15:51.727900 14286 net.cpp:148] Top shape: 24 1024 1 1 (24576)
I0403 15:15:51.727915 14286 net.cpp:156] Memory required for data: 1345962528
I0403 15:15:51.727928 14286 layer_factory.hpp:77] Creating layer pool5/drop_7x7_s1
I0403 15:15:51.727947 14286 net.cpp:91] Creating Layer pool5/drop_7x7_s1
I0403 15:15:51.727964 14286 net.cpp:425] pool5/drop_7x7_s1 <- pool5/7x7_s1
I0403 15:15:51.727982 14286 net.cpp:386] pool5/drop_7x7_s1 -> pool5/7x7_s1 (in-place)
I0403 15:15:51.728031 14286 net.cpp:141] Setting up pool5/drop_7x7_s1
I0403 15:15:51.728055 14286 net.cpp:148] Top shape: 24 1024 1 1 (24576)
I0403 15:15:51.728068 14286 net.cpp:156] Memory required for data: 1346060832
I0403 15:15:51.728082 14286 layer_factory.hpp:77] Creating layer loss3/classifier_plantvillage
I0403 15:15:51.728101 14286 net.cpp:91] Creating Layer loss3/classifier_plantvillage
I0403 15:15:51.728116 14286 net.cpp:425] loss3/classifier_plantvillage <- pool5/7x7_s1
I0403 15:15:51.728135 14286 net.cpp:399] loss3/classifier_plantvillage -> loss3/classifier_plantvillage
I0403 15:15:51.728551 14286 net.cpp:141] Setting up loss3/classifier_plantvillage
I0403 15:15:51.728579 14286 net.cpp:148] Top shape: 24 38 (912)
I0403 15:15:51.728595 14286 net.cpp:156] Memory required for data: 1346064480
I0403 15:15:51.728611 14286 layer_factory.hpp:77] Creating layer loss3/classifier_plantvillage_loss3/classifier_plantvillage_0_split
I0403 15:15:51.728631 14286 net.cpp:91] Creating Layer loss3/classifier_plantvillage_loss3/classifier_plantvillage_0_split
I0403 15:15:51.728646 14286 net.cpp:425] loss3/classifier_plantvillage_loss3/classifier_plantvillage_0_split <- loss3/classifier_plantvillage
I0403 15:15:51.728664 14286 net.cpp:399] loss3/classifier_plantvillage_loss3/classifier_plantvillage_0_split -> loss3/classifier_plantvillage_loss3/classifier_plantvillage_0_split_0
I0403 15:15:51.728684 14286 net.cpp:399] loss3/classifier_plantvillage_loss3/classifier_plantvillage_0_split -> loss3/classifier_plantvillage_loss3/classifier_plantvillage_0_split_1
I0403 15:15:51.728704 14286 net.cpp:399] loss3/classifier_plantvillage_loss3/classifier_plantvillage_0_split -> loss3/classifier_plantvillage_loss3/classifier_plantvillage_0_split_2
I0403 15:15:51.728724 14286 net.cpp:399] loss3/classifier_plantvillage_loss3/classifier_plantvillage_0_split -> loss3/classifier_plantvillage_loss3/classifier_plantvillage_0_split_3
I0403 15:15:51.728821 14286 net.cpp:141] Setting up loss3/classifier_plantvillage_loss3/classifier_plantvillage_0_split
I0403 15:15:51.728843 14286 net.cpp:148] Top shape: 24 38 (912)
I0403 15:15:51.728858 14286 net.cpp:148] Top shape: 24 38 (912)
I0403 15:15:51.728873 14286 net.cpp:148] Top shape: 24 38 (912)
I0403 15:15:51.728888 14286 net.cpp:148] Top shape: 24 38 (912)
I0403 15:15:51.728900 14286 net.cpp:156] Memory required for data: 1346079072
I0403 15:15:51.728914 14286 layer_factory.hpp:77] Creating layer loss1/loss
I0403 15:15:51.728934 14286 net.cpp:91] Creating Layer loss1/loss
I0403 15:15:51.728950 14286 net.cpp:425] loss1/loss <- loss1/classifier_plantvillage_loss1/classifier_plantvillage_0_split_0
I0403 15:15:51.728981 14286 net.cpp:425] loss1/loss <- label_data_1_split_0
…
