…
I0403 14:38:47.604634 13484 net.cpp:313] The NetState phase (1) differed from the phase (0) specified by a rule in layer data
I0403 14:38:47.605782 13484 net.cpp:49] Initializing net from parameters: 
state {
  phase: TEST
}
layer {
  name: "data"
  type: "Data"
  top: "data"
  top: "label"
  include {
    phase: TEST
  }
  transform_param {
    mirror: false
    crop_size: 224
    mean_file: "/home/mohanty/data/final_dataset/lmdb/color-40-60/mean.binaryproto"
  }
  data_param {
    source: "/home/mohanty/data/final_dataset/lmdb/color-40-60/test_db"
    batch_size: 24
    backend: LMDB
  }
}
layer {
  name: "conv1/7x7_s2"
  type: "Convolution"
  bottom: "data"
  top: "conv1/7x7_s2"
  param {
    lr_mult: 1
    decay_mult: 1
  }
  param {
    lr_mult: 2
    decay_mult: 0
  }
  convolution_param {
    num_output: 64
    pad: 3
    kernel_size: 7
    stride: 2
    weight_filler {
      type: "xavier"
      std: 0.1
    }
    bias_filler {
      type: "constant"
      value: 0.2
    }
  }
}
layer {
  name: "conv1/relu_7x7"
  type: "ReLU"
  bottom: "conv1/7x7_s2"
  top: "conv1/7x7_s2"
}
layer {
  name: "pool1/3x3_s2"
  type: "Pooling"
  bottom: "conv1/7x7_s2"
  top: "pool1/3x3_s2"
  pooling_param {
    pool: MAX
    kernel_size: 3
    stride: 2
  }
}
layer {
  name: "pool1/norm1"
  type: "LRN"
  bottom: "pool1/3x3_s2"
  top: "pool1/norm1"
  lrn_param {
    local_size: 5
    alpha: 0.0001
    beta: 0.75
  }
}
layer {
  name: "conv2/3x3_reduce"
  type: "Convolution"
  bottom: "pool1/norm1"
  top: "conv2/3x3_reduce"
  param {
    lr_mult: 1
    decay_mult: 1
  }
  param {
    lr_mult: 2
    decay_mult: 0
  }
  convolution_param {
    num_output: 64
    kernel_size: 1
    weight_filler {
      type: "xavier"
      std: 0.1
    }
    bias_filler {
      type: "constant"
      value: 0.2
    }
  }
}
layer {
  name: "conv2/relu_3x3_reduce"
  type: "ReLU"
  bottom: "conv2/3x3_reduce"
  top: "conv2/3x3_reduce"
}
layer {
  name: "conv2/3x3"
  type: "Convolution"
  bottom: "conv2/3x3_reduce"
  top: "conv2/3x3"
  param {
    lr_mult: 1
    decay_mult: 1
  }
  param {
    lr_mult: 2
    decay_mult: 0
  }
  convolution_param {
    num_output: 192
    pad: 1
    kernel_size: 3
    weight_filler {
      type: "xavier"
      std: 0.03
    }
    bias_filler {
      type: "constant"
      value: 0.2
    }
  }
}
layer {
  name: "conv2/relu_3x3"
  type: "ReLU"
  bottom: "conv2/3x3"
  top: "conv2/3x3"
}
layer {
  name: "conv2/norm2"
  type: "LRN"
  bottom: "conv2/3x3"
  top: "conv2/norm2"
  lrn_param {
    local_size: 5
    alpha: 0.0001
    beta: 0.75
  }
}
layer {
  name: "pool2/3x3_s2"
  type: "Pooling"
  bottom: "conv2/norm2"
  top: "pool2/3x3_s2"
  pooling_param {
    pool: MAX
    kernel_size: 3
    stride: 2
  }
}
layer {
  name: "inception_3a/1x1"
  type: "Convolution"
  bottom: "pool2/3x3_s2"
  top: "inception_3a/1x1"
  param {
    lr_mult: 1
    decay_mult: 1
  }
  param {
    lr_mult: 2
    decay_mult: 0
  }
  convolution_param {
    num_output: 64
    kernel_size: 1
    weight_filler {
      type: "xavier"
      std: 0.03
    }
    bias_filler {
      type: "constant"
      value: 0.2
    }
  }
}
layer {
  name: "inception_3a/relu_1x1"
  type: "ReLU"
  bottom: "inception_3a/1x1"
  top: "inception_3a/1x1"
}
layer {
  name: "inception_3a/3x3_reduce"
  type: "Convolution"
  bottom: "pool2/3x3_s2"
  top: "inception_3a/3x3_reduce"
  param {
    lr_mult: 1
    decay_mult: 1
  }
  param {
    lr_mult: 2
    decay_mult: 0
  }
  convolution_param {
    num_output: 96
    kernel_size: 1
    weight_filler {
      type: "xavier"
      std: 0.09
    }
    bias_filler {
      type: "constant"
      value: 0.2
    }
  }
}
layer {
  name: "inception_3a/relu_3x3_reduce"
  type: "ReLU"
  bottom: "inception_3a/3x3_reduce"
  top: "inception_3a/3x3_reduce"
}
layer {
  name: "inception_3a/3x3"
  type: "Convolution"
  bottom: "inception_3a/3x3_reduce"
  top: "inception_3a/3x3"
  param {
    lr_mult: 1
    decay_mult: 1
  }
  param {
    lr_mult: 2
    decay_mult: 0
  }
  convolution_param {
    num_output: 128
    pad: 1
    kernel_size: 3
    weight_filler {
      type: "xavier"
      std: 0.03
    }
    bias_filler {
      type: "constant"
      value: 0.2
    }
  }
}
layer {
  name: "inception_3a/relu_3x3"
  type: "ReLU"
  bottom: "inception_3a/3x3"
  top: "inception_3a/3x3"
}
layer {
  name: "inception_3a/5x5_reduce"
  type: "Convolution"
  bottom: "pool2/3x3_s2"
  top: "inception_3a/5x5_reduce"
  param {
    lr_mult: 1
    decay_mult: 1
  }
  param {
    lr_mult: 2
    decay_mult: 0
  }
  convolution_param {
    num_output: 16
    kernel_size: 1
    weight_filler {
      type: "xavier"
      std: 0.2
    }
    bias_filler {
      type: "constant"
      value: 0.2
    }
  }
}
layer {
  name: "inception_3a/relu_5x5_reduce"
  type: "ReLU"
  bottom: "inception_3a/5x5_reduce"
  top: "inception_3a/5x5_reduce"
}
layer {
  name: "inception_3a/5x5"
  type: "Convolution"
  bottom: "inception_3a/5x5_reduce"
  top: "inception_3a/5x5"
  param {
    lr_mult: 1
    decay_mult: 1
  }
  param {
    lr_mult: 2
    decay_mult: 0
  }
  convolution_param {
    num_output: 32
    pad: 2
    kernel_size: 5
    weight_filler {
      type: "xavier"
      std: 0.03
    }
    bias_filler {
      type: "constant"
      value: 0.2
    }
  }
}
layer {
  name: "inception_3a/relu_5x5"
  type: "ReLU"
  bottom: "inception_3a/5x5"
  top: "inception_3a/5x5"
}
layer {
  name: "inception_3a/pool"
  type: "Pooling"
  bottom: "pool2/3x3_s2"
  top: "inception_3a/pool"
  pooling_param {
    pool: MAX
    kernel_size: 3
    stride: 1
    pad: 1
  }
}
layer {
  name: "inception_3a/pool_proj"
  type: "Convolution"
  bottom: "inception_3a/pool"
  top: "inception_3a/pool_proj"
  param {
    lr_mult: 1
    decay_mult: 1
  }
  param {
    lr_mult: 2
    decay_mult: 0
  }
  convolution_param {
    num_output: 32
    kernel_size: 1
    weight_filler {
      type: "xavier"
      std: 0.1
    }
    bias_filler {
      type: "constant"
      value: 0.2
    }
  }
}
layer {
  name: "inception_3a/relu_pool_proj"
  type: "ReLU"
  bottom: "inception_3a/pool_proj"
  top: "inception_3a/pool_proj"
}
layer {
  name: "inception_3a/output"
  type: "Concat"
  bottom: "inception_3a/1x1"
  bottom: "inception_3a/3x3"
  bottom: "inception_3a/5x5"
  bottom: "inception_3a/pool_proj"
  top: "inception_3a/output"
}
layer {
  name: "inception_3b/1x1"
  type: "Convolution"
  bottom: "inception_3a/output"
  top: "inception_3b/1x1"
  param {
    lr_mult: 1
    decay_mult: 1
  }
  param {
    lr_mult: 2
    decay_mult: 0
  }
  convolution_param {
    num_output: 128
    kernel_size: 1
    weight_filler {
      type: "xavier"
      std: 0.03
    }
    bias_filler {
      type: "constant"
      value: 0.2
    }
  }
}
layer {
  name: "inception_3b/relu_1x1"
  type: "ReLU"
  bottom: "inception_3b/1x1"
  top: "inception_3b/1x1"
}
layer {
  name: "inception_3b/3x3_reduce"
  type: "Convolution"
  bottom: "inception_3a/output"
  top: "inception_3b/3x3_reduce"
  param {
    lr_mult: 1
    decay_mult: 1
  }
  param {
    lr_mult: 2
    decay_mult: 0
  }
  convolution_param {
    num_output: 128
    kernel_size: 1
    weight_filler {
      type: "xavier"
      std: 0.09
    }
    bias_filler {
      type: "constant"
      value: 0.2
    }
  }
}
layer {
  name: "inception_3b/relu_3x3_reduce"
  type: "ReLU"
  bottom: "inception_3b/3x3_reduce"
  top: "inception_3b/3x3_reduce"
}
layer {
  name: "inception_3b/3x3"
  type: "Convolution"
  bottom: "inception_3b/3x3_reduce"
  top: "inception_3b/3x3"
  param {
    lr_mult: 1
    decay_mult: 1
  }
  param {
    lr_mult: 2
    decay_mult: 0
  }
  convolution_param {
    num_output: 192
    pad: 1
    kernel_size: 3
    weight_filler {
      type: "xavier"
      std: 0.03
    }
    bias_filler {
      type: "constant"
      value: 0.2
    }
  }
}
layer {
  name: "inception_3b/relu_3x3"
  type: "ReLU"
  bottom: "inception_3b/3x3"
  top: "inception_3b/3x3"
}
layer {
  name: "inception_3b/5x5_reduce"
  type: "Convolution"
  bottom: "inception_3a/output"
  top: "inception_3b/5x5_reduce"
  param {
    lr_mult: 1
    decay_mult: 1
  }
  param {
    lr_mult: 2
    decay_mult: 0
  }
  convolution_param {
    num_output: 32
    kernel_size: 1
    weight_filler {
      type: "xavier"
      std: 0.2
    }
    bias_filler {
      type: "constant"
      value: 0.2
    }
  }
}
layer {
  name: "inception_3b/relu_5x5_reduce"
  type: "ReLU"
  bottom: "inception_3b/5x5_reduce"
  top: "inception_3b/5x5_reduce"
}
layer {
  name: "inception_3b/5x5"
  type: "Convolution"
  bottom: "inception_3b/5x5_reduce"
  top: "inception_3b/5x5"
  param {
    lr_mult: 1
    decay_mult: 1
  }
  param {
    lr_mult: 2
    decay_mult: 0
  }
  convolution_param {
    num_output: 96
    pad: 2
    kernel_size: 5
    weight_filler {
      type: "xavier"
      std: 0.03
    }
    bias_filler {
      type: "constant"
      value: 0.2
    }
  }
}
layer {
  name: "inception_3b/relu_5x5"
  type: "ReLU"
  bottom: "inception_3b/5x5"
  top: "inception_3b/5x5"
}
layer {
  name: "inception_3b/pool"
  type: "Pooling"
  bottom: "inception_3a/output"
  top: "inception_3b/pool"
  pooling_param {
    pool: MAX
    kernel_size: 3
    stride: 1
    pad: 1
  }
}
layer {
  name: "inception_3b/pool_proj"
  type: "Convolution"
  bottom: "inception_3b/pool"
  top: "inception_3b/pool_proj"
  param {
    lr_mult: 1
    decay_mult: 1
  }
  param {
    lr_mult: 2
    decay_mult: 0
  }
  convolution_param {
    num_output: 64
    kernel_size: 1
    weight_filler {
      type: "xavier"
      std: 0.1
    }
    bias_filler {
      type: "constant"
      value: 0.2
    }
  }
}
layer {
  name: "inception_3b/relu_pool_proj"
  type: "ReLU"
  bottom: "inception_3b/pool_proj"
  top: "inception_3b/pool_proj"
}
layer {
  name: "inception_3b/output"
  type: "Concat"
  bottom: "inception_3b/1x1"
  bottom: "inception_3b/3x3"
  bottom: "inception_3b/5x5"
  bottom: "inception_3b/pool_proj"
  top: "inception_3b/output"
}
layer {
  name: "pool3/3x3_s2"
  type: "Pooling"
  bottom: "inception_3b/output"
  top: "pool3/3x3_s2"
  pooling_param {
    pool: MAX
    kernel_size: 3
    stride: 2
  }
}
layer {
  name: "inception_4a/1x1"
  type: "Convolution"
  bottom: "pool3/3x3_s2"
  top: "inception_4a/1x1"
  param {
    lr_mult: 1
    decay_mult: 1
  }
  param {
    lr_mult: 2
    decay_mult: 0
  }
  convolution_param {
    num_output: 192
    kernel_size: 1
    weight_filler {
      type: "xavier"
      std: 0.03
    }
    bias_filler {
      type: "constant"
      value: 0.2
    }
  }
}
layer {
  name: "inception_4a/relu_1x1"
  type: "ReLU"
  bottom: "inception_4a/1x1"
  top: "inception_4a/1x1"
}
layer {
  name: "inception_4a/3x3_reduce"
  type: "Convolution"
  bottom: "pool3/3x3_s2"
  top: "inception_4a/3x3_reduce"
  param {
    lr_mult: 1
    decay_mult: 1
  }
  param {
    lr_mult: 2
    decay_mult: 0
  }
  convolution_param {
    num_output: 96
    kernel_size: 1
    weight_filler {
      type: "xavier"
      std: 0.09
    }
    bias_filler {
      type: "constant"
      value: 0.2
    }
  }
}
layer {
  name: "inception_4a/relu_3x3_reduce"
  type: "ReLU"
  bottom: "inception_4a/3x3_reduce"
  top: "inception_4a/3x3_reduce"
}
layer {
  name: "inception_4a/3x3"
  type: "Convolution"
  bottom: "inception_4a/3x3_reduce"
  top: "inception_4a/3x3"
  param {
    lr_mult: 1
    decay_mult: 1
  }
  param {
    lr_mult: 2
    decay_mult: 0
  }
  convolution_param {
    num_output: 208
    pad: 1
    kernel_size: 3
    weight_filler {
      type: "xavier"
      std: 0.03
    }
    bias_filler {
      type: "constant"
      value: 0.2
    }
  }
}
layer {
  name: "inception_4a/relu_3x3"
  type: "ReLU"
  bottom: "inception_4a/3x3"
  top: "inception_4a/3x3"
}
layer {
  name: "inception_4a/5x5_reduce"
  type: "Convolution"
  bottom: "pool3/3x3_s2"
  top: "inception_4a/5x5_reduce"
  param {
    lr_mult: 1
    decay_mult: 1
  }
  param {
    lr_mult: 2
    decay_mult: 0
  }
  convolution_param {
    num_output: 16
    kernel_size: 1
    weight_filler {
      type: "xavier"
      std: 0.2
    }
    bias_filler {
      type: "constant"
      value: 0.2
    }
  }
}
layer {
  name: "inception_4a/relu_5x5_reduce"
  type: "ReLU"
  bottom: "inception_4a/5x5_reduce"
  top: "inception_4a/5x5_reduce"
}
layer {
  name: "inception_4a/5x5"
  type: "Convolution"
  bottom: "inception_4a/5x5_reduce"
  top: "inception_4a/5x5"
  param {
    lr_mult: 1
    decay_mult: 1
  }
  param {
    lr_mult: 2
    decay_mult: 0
  }
  convolution_param {
    num_output: 48
    pad: 2
    kernel_size: 5
    weight_filler {
      type: "xavier"
      std: 0.03
    }
    bias_filler {
      type: "constant"
      value: 0.2
    }
  }
}
layer {
  name: "inception_4a/relu_5x5"
  type: "ReLU"
  bottom: "inception_4a/5x5"
  top: "inception_4a/5x5"
}
layer {
  name: "inception_4a/pool"
  type: "Pooling"
  bottom: "pool3/3x3_s2"
  top: "inception_4a/pool"
  pooling_param {
    pool: MAX
    kernel_size: 3
    stride: 1
    pad: 1
  }
}
layer {
  name: "inception_4a/pool_proj"
  type: "Convolution"
  bottom: "inception_4a/pool"
  top: "inception_4a/pool_proj"
  param {
    lr_mult: 1
    decay_mult: 1
  }
  param {
    lr_mult: 2
    decay_mult: 0
  }
  convolution_param {
    num_output: 64
    kernel_size: 1
    weight_filler {
      type: "xavier"
      std: 0.1
    }
    bias_filler {
      type: "constant"
      value: 0.2
    }
  }
}
layer {
  name: "inception_4a/relu_pool_proj"
  type: "ReLU"
  bottom: "inception_4a/pool_proj"
  top: "inception_4a/pool_proj"
}
layer {
  name: "inception_4a/output"
  type: "Concat"
  bottom: "inception_4a/1x1"
  bottom: "inception_4a/3x3"
  bottom: "inception_4a/5x5"
  bottom: "inception_4a/pool_proj"
  top: "inception_4a/output"
}
layer {
  name: "loss1/ave_pool"
  type: "Pooling"
  bottom: "inception_4a/output"
  top: "loss1/ave_pool"
  pooling_param {
    pool: AVE
    kernel_size: 5
    stride: 3
  }
}
layer {
  name: "loss1/conv"
  type: "Convolution"
  bottom: "loss1/ave_pool"
  top: "loss1/conv"
  param {
    lr_mult: 1
    decay_mult: 1
  }
  param {
    lr_mult: 2
    decay_mult: 0
  }
  convolution_param {
    num_output: 128
    kernel_size: 1
    weight_filler {
      type: "xavier"
      std: 0.08
    }
    bias_filler {
      type: "constant"
      value: 0.2
    }
  }
}
layer {
  name: "loss1/relu_conv"
  type: "ReLU"
  bottom: "loss1/conv"
  top: "loss1/conv"
}
layer {
  name: "loss1/fc"
  type: "InnerProduct"
  bottom: "loss1/conv"
  top: "loss1/fc"
  param {
    lr_mult: 1
    decay_mult: 1
  }
  param {
    lr_mult: 2
    decay_mult: 0
  }
  inner_product_param {
    num_output: 1024
    weight_filler {
      type: "xavier"
      std: 0.02
    }
    bias_filler {
      type: "constant"
      value: 0.2
    }
  }
}
layer {
  name: "loss1/relu_fc"
  type: "ReLU"
  bottom: "loss1/fc"
  top: "loss1/fc"
}
layer {
  name: "loss1/drop_fc"
  type: "Dropout"
  bottom: "loss1/fc"
  top: "loss1/fc"
  dropout_param {
    dropout_ratio: 0.7
  }
}
layer {
  name: "loss1/classifier_plantvillage"
  type: "InnerProduct"
  bottom: "loss1/fc"
  top: "loss1/classifier_plantvillage"
  param {
    lr_mult: 1
    decay_mult: 1
  }
  param {
    lr_mult: 2
    decay_mult: 0
  }
  inner_product_param {
    num_output: 38
    weight_filler {
      type: "xavier"
      std: 0.0009765625
    }
    bias_filler {
      type: "constant"
      value: 0
    }
  }
}
layer {
  name: "inception_4b/1x1"
  type: "Convolution"
  bottom: "inception_4a/output"
  top: "inception_4b/1x1"
  param {
    lr_mult: 1
    decay_mult: 1
  }
  param {
    lr_mult: 2
    decay_mult: 0
  }
  convolution_param {
    num_output: 160
    kernel_size: 1
    weight_filler {
      type: "xavier"
      std: 0.03
    }
    bias_filler {
      type: "constant"
      value: 0.2
    }
  }
}
layer {
  name: "inception_4b/relu_1x1"
  type: "ReLU"
  bottom: "inception_4b/1x1"
  top: "inception_4b/1x1"
}
layer {
  name: "inception_4b/3x3_reduce"
  type: "Convolution"
  bottom: "inception_4a/output"
  top: "inception_4b/3x3_reduce"
  param {
    lr_mult: 1
    decay_mult: 1
  }
  param {
    lr_mult: 2
    decay_mult: 0
  }
  convolution_param {
    num_output: 112
    kernel_size: 1
    weight_filler {
      type: "xavier"
      std: 0.09
    }
    bias_filler {
      type: "constant"
      value: 0.2
    }
  }
}
layer {
  name: "inception_4b/relu_3x3_reduce"
  type: "ReLU"
  bottom: "inception_4b/3x3_reduce"
  top: "inception_4b/3x3_reduce"
}
layer {
  name: "inception_4b/3x3"
  type: "Convolution"
  bottom: "inception_4b/3x3_reduce"
  top: "inception_4b/3x3"
  param {
    lr_mult: 1
    decay_mult: 1
  }
  param {
    lr_mult: 2
    decay_mult: 0
  }
  convolution_param {
    num_output: 224
    pad: 1
    kernel_size: 3
    weight_filler {
      type: "xavier"
      std: 0.03
    }
    bias_filler {
      type: "constant"
      value: 0.2
    }
  }
}
layer {
  name: "inception_4b/relu_3x3"
  type: "ReLU"
  bottom: "inception_4b/3x3"
  top: "inception_4b/3x3"
}
layer {
  name: "inception_4b/5x5_reduce"
  type: "Convolution"
  bottom: "inception_4a/output"
  top: "inception_4b/5x5_reduce"
  param {
    lr_mult: 1
    decay_mult: 1
  }
  param {
    lr_mult: 2
    decay_mult: 0
  }
  convolution_param {
    num_output: 24
    kernel_size: 1
    weight_filler {
      type: "xavier"
      std: 0.2
    }
    bias_filler {
      type: "constant"
      value: 0.2
    }
  }
}
layer {
  name: "inception_4b/relu_5x5_reduce"
  type: "ReLU"
  bottom: "inception_4b/5x5_reduce"
  top: "inception_4b/5x5_reduce"
}
layer {
  name: "inception_4b/5x5"
  type: "Convolution"
  bottom: "inception_4b/5x5_reduce"
  top: "inception_4b/5x5"
  param {
    lr_mult: 1
    decay_mult: 1
  }
  param {
    lr_mult: 2
    decay_mult: 0
  }
  convolution_param {
    num_output: 64
    pad: 2
    kernel_size: 5
    weight_filler {
      type: "xavier"
      std: 0.03
    }
    bias_filler {
      type: "constant"
      value: 0.2
    }
  }
}
layer {
  name: "inception_4b/relu_5x5"
  type: "ReLU"
  bottom: "inception_4b/5x5"
  top: "inception_4b/5x5"
}
layer {
  name: "inception_4b/pool"
  type: "Pooling"
  bottom: "inception_4a/output"
  top: "inception_4b/pool"
  pooling_param {
    pool: MAX
    kernel_size: 3
    stride: 1
    pad: 1
  }
}
layer {
  name: "inception_4b/pool_proj"
  type: "Convolution"
  bottom: "inception_4b/pool"
  top: "inception_4b/pool_proj"
  param {
    lr_mult: 1
    decay_mult: 1
  }
  param {
    lr_mult: 2
    decay_mult: 0
  }
  convolution_param {
    num_output: 64
    kernel_size: 1
    weight_filler {
      type: "xavier"
      std: 0.1
    }
    bias_filler {
      type: "constant"
      value: 0.2
    }
  }
}
layer {
  name: "inception_4b/relu_pool_proj"
  type: "ReLU"
  bottom: "inception_4b/pool_proj"
  top: "inception_4b/pool_proj"
}
layer {
  name: "inception_4b/output"
  type: "Concat"
  bottom: "inception_4b/1x1"
  bottom: "inception_4b/3x3"
  bottom: "inception_4b/5x5"
  bottom: "inception_4b/pool_proj"
  top: "inception_4b/output"
}
layer {
  name: "inception_4c/1x1"
  type: "Convolution"
  bottom: "inception_4b/output"
  top: "inception_4c/1x1"
  param {
    lr_mult: 1
    decay_mult: 1
  }
  param {
    lr_mult: 2
    decay_mult: 0
  }
  convolution_param {
    num_output: 128
    kernel_size: 1
    weight_filler {
      type: "xavier"
      std: 0.03
    }
    bias_filler {
      type: "constant"
      value: 0.2
    }
  }
}
layer {
  name: "inception_4c/relu_1x1"
  type: "ReLU"
  bottom: "inception_4c/1x1"
  top: "inception_4c/1x1"
}
layer {
  name: "inception_4c/3x3_reduce"
  type: "Convolution"
  bottom: "inception_4b/output"
  top: "inception_4c/3x3_reduce"
  param {
    lr_mult: 1
    decay_mult: 1
  }
  param {
    lr_mult: 2
    decay_mult: 0
  }
  convolution_param {
    num_output: 128
    kernel_size: 1
    weight_filler {
      type: "xavier"
      std: 0.09
    }
    bias_filler {
      type: "constant"
      value: 0.2
    }
  }
}
layer {
  name: "inception_4c/relu_3x3_reduce"
  type: "ReLU"
  bottom: "inception_4c/3x3_reduce"
  top: "inception_4c/3x3_reduce"
}
layer {
  name: "inception_4c/3x3"
  type: "Convolution"
  bottom: "inception_4c/3x3_reduce"
  top: "inception_4c/3x3"
  param {
    lr_mult: 1
    decay_mult: 1
  }
  param {
    lr_mult: 2
    decay_mult: 0
  }
  convolution_param {
    num_output: 256
    pad: 1
    kernel_size: 3
    weight_filler {
      type: "xavier"
      std: 0.03
    }
    bias_filler {
      type: "constant"
      value: 0.2
    }
  }
}
layer {
  name: "inception_4c/relu_3x3"
  type: "ReLU"
  bottom: "inception_4c/3x3"
  top: "inception_4c/3x3"
}
layer {
  name: "inception_4c/5x5_reduce"
  type: "Convolution"
  bottom: "inception_4b/output"
  top: "inception_4c/5x5_reduce"
  param {
    lr_mult: 1
    decay_mult: 1
  }
  param {
    lr_mult: 2
    decay_mult: 0
  }
  convolution_param {
    num_output: 24
    kernel_size: 1
    weight_filler {
      type: "xavier"
      std: 0.2
    }
    bias_filler {
      type: "constant"
      value: 0.2
    }
  }
}
layer {
  name: "inception_4c/relu_5x5_reduce"
  type: "ReLU"
  bottom: "inception_4c/5x5_reduce"
  top: "inception_4c/5x5_reduce"
}
layer {
  name: "inception_4c/5x5"
  type: "Convolution"
  bottom: "inception_4c/5x5_reduce"
  top: "inception_4c/5x5"
  param {
    lr_mult: 1
    decay_mult: 1
  }
  param {
    lr_mult: 2
    decay_mult: 0
  }
  convolution_param {
    num_output: 64
    pad: 2
    kernel_size: 5
    weight_filler {
      type: "xavier"
      std: 0.03
    }
    bias_filler {
      type: "constant"
      value: 0.2
    }
  }
}
layer {
  name: "inception_4c/relu_5x5"
  type: "ReLU"
  bottom: "inception_4c/5x5"
  top: "inception_4c/5x5"
}
layer {
  name: "inception_4c/pool"
  type: "Pooling"
  bottom: "inception_4b/output"
  top: "inception_4c/pool"
  pooling_param {
    pool: MAX
    kernel_size: 3
    stride: 1
    pad: 1
  }
}
layer {
  name: "inception_4c/pool_proj"
  type: "Convolution"
  bottom: "inception_4c/pool"
  top: "inception_4c/pool_proj"
  param {
    lr_mult: 1
    decay_mult: 1
  }
  param {
    lr_mult: 2
    decay_mult: 0
  }
  convolution_param {
    num_output: 64
    kernel_size: 1
    weight_filler {
      type: "xavier"
      std: 0.1
    }
    bias_filler {
      type: "constant"
      value: 0.2
    }
  }
}
layer {
  name: "inception_4c/relu_pool_proj"
  type: "ReLU"
  bottom: "inception_4c/pool_proj"
  top: "inception_4c/pool_proj"
}
layer {
  name: "inception_4c/output"
  type: "Concat"
  bottom: "inception_4c/1x1"
  bottom: "inception_4c/3x3"
  bottom: "inception_4c/5x5"
  bottom: "inception_4c/pool_proj"
  top: "inception_4c/output"
}
layer {
  name: "inception_4d/1x1"
  type: "Convolution"
  bottom: "inception_4c/output"
  top: "inception_4d/1x1"
  param {
    lr_mult: 1
    decay_mult: 1
  }
  param {
    lr_mult: 2
    decay_mult: 0
  }
  convolution_param {
    num_output: 112
    kernel_size: 1
    weight_filler {
      type: "xavier"
      std: 0.03
    }
    bias_filler {
      type: "constant"
      value: 0.2
    }
  }
}
layer {
  name: "inception_4d/relu_1x1"
  type: "ReLU"
  bottom: "inception_4d/1x1"
  top: "inception_4d/1x1"
}
layer {
  name: "inception_4d/3x3_reduce"
  type: "Convolution"
  bottom: "inception_4c/output"
  top: "inception_4d/3x3_reduce"
  param {
    lr_mult: 1
    decay_mult: 1
  }
  param {
    lr_mult: 2
    decay_mult: 0
  }
  convolution_param {
    num_output: 144
    kernel_size: 1
    weight_filler {
      type: "xavier"
      std: 0.09
    }
    bias_filler {
      type: "constant"
      value: 0.2
    }
  }
}
layer {
  name: "inception_4d/relu_3x3_reduce"
  type: "ReLU"
  bottom: "inception_4d/3x3_reduce"
  top: "inception_4d/3x3_reduce"
}
layer {
  name: "inception_4d/3x3"
  type: "Convolution"
  bottom: "inception_4d/3x3_reduce"
  top: "inception_4d/3x3"
  param {
    lr_mult: 1
    decay_mult: 1
  }
  param {
    lr_mult: 2
    decay_mult: 0
  }
  convolution_param {
    num_output: 288
    pad: 1
    kernel_size: 3
    weight_filler {
      type: "xavier"
      std: 0.03
    }
    bias_filler {
      type: "constant"
      value: 0.2
    }
  }
}
layer {
  name: "inception_4d/relu_3x3"
  type: "ReLU"
  bottom: "inception_4d/3x3"
  top: "inception_4d/3x3"
}
layer {
  name: "inception_4d/5x5_reduce"
  type: "Convolution"
  bottom: "inception_4c/output"
  top: "inception_4d/5x5_reduce"
  param {
    lr_mult: 1
    decay_mult: 1
  }
  param {
    lr_mult: 2
    decay_mult: 0
  }
  convolution_param {
    num_output: 32
    kernel_size: 1
    weight_filler {
      type: "xavier"
      std: 0.2
    }
    bias_filler {
      type: "constant"
      value: 0.2
    }
  }
}
layer {
  name: "inception_4d/relu_5x5_reduce"
  type: "ReLU"
  bottom: "inception_4d/5x5_reduce"
  top: "inception_4d/5x5_reduce"
}
layer {
  name: "inception_4d/5x5"
  type: "Convolution"
  bottom: "inception_4d/5x5_reduce"
  top: "inception_4d/5x5"
  param {
    lr_mult: 1
    decay_mult: 1
  }
  param {
    lr_mult: 2
    decay_mult: 0
  }
  convolution_param {
    num_output: 64
    pad: 2
    kernel_size: 5
    weight_filler {
      type: "xavier"
      std: 0.03
    }
    bias_filler {
      type: "constant"
      value: 0.2
    }
  }
}
layer {
  name: "inception_4d/relu_5x5"
  type: "ReLU"
  bottom: "inception_4d/5x5"
  top: "inception_4d/5x5"
}
layer {
  name: "inception_4d/pool"
  type: "Pooling"
  bottom: "inception_4c/output"
  top: "inception_4d/pool"
  pooling_param {
    pool: MAX
    kernel_size: 3
    stride: 1
    pad: 1
  }
}
layer {
  name: "inception_4d/pool_proj"
  type: "Convolution"
  bottom: "inception_4d/pool"
  top: "inception_4d/pool_proj"
  param {
    lr_mult: 1
    decay_mult: 1
  }
  param {
    lr_mult: 2
    decay_mult: 0
  }
  convolution_param {
    num_output: 64
    kernel_size: 1
    weight_filler {
      type: "xavier"
      std: 0.1
    }
    bias_filler {
      type: "constant"
      value: 0.2
    }
  }
}
layer {
  name: "inception_4d/relu_pool_proj"
  type: "ReLU"
  bottom: "inception_4d/pool_proj"
  top: "inception_4d/pool_proj"
}
layer {
  name: "inception_4d/output"
  type: "Concat"
  bottom: "inception_4d/1x1"
  bottom: "inception_4d/3x3"
  bottom: "inception_4d/5x5"
  bottom: "inception_4d/pool_proj"
  top: "inception_4d/output"
}
layer {
  name: "loss2/ave_pool"
  type: "Pooling"
  bottom: "inception_4d/output"
  top: "loss2/ave_pool"
  pooling_param {
    pool: AVE
    kernel_size: 5
    stride: 3
  }
}
layer {
  name: "loss2/conv"
  type: "Convolution"
  bottom: "loss2/ave_pool"
  top: "loss2/conv"
  param {
    lr_mult: 1
    decay_mult: 1
  }
  param {
    lr_mult: 2
    decay_mult: 0
  }
  convolution_param {
    num_output: 128
    kernel_size: 1
    weight_filler {
      type: "xavier"
      std: 0.08
    }
    bias_filler {
      type: "constant"
      value: 0.2
    }
  }
}
layer {
  name: "loss2/relu_conv"
  type: "ReLU"
  bottom: "loss2/conv"
  top: "loss2/conv"
}
layer {
  name: "loss2/fc"
  type: "InnerProduct"
  bottom: "loss2/conv"
  top: "loss2/fc"
  param {
    lr_mult: 1
    decay_mult: 1
  }
  param {
    lr_mult: 2
    decay_mult: 0
  }
  inner_product_param {
    num_output: 1024
    weight_filler {
      type: "xavier"
      std: 0.02
    }
    bias_filler {
      type: "constant"
      value: 0.2
    }
  }
}
layer {
  name: "loss2/relu_fc"
  type: "ReLU"
  bottom: "loss2/fc"
  top: "loss2/fc"
}
layer {
  name: "loss2/drop_fc"
  type: "Dropout"
  bottom: "loss2/fc"
  top: "loss2/fc"
  dropout_param {
    dropout_ratio: 0.7
  }
}
layer {
  name: "loss2/classifier_plantvillage"
  type: "InnerProduct"
  bottom: "loss2/fc"
  top: "loss2/classifier_plantvillage"
  param {
    lr_mult: 1
    decay_mult: 1
  }
  param {
    lr_mult: 2
    decay_mult: 0
  }
  inner_product_param {
    num_output: 38
    weight_filler {
      type: "xavier"
      std: 0.0009765625
    }
    bias_filler {
      type: "constant"
      value: 0
    }
  }
}
layer {
  name: "inception_4e/1x1"
  type: "Convolution"
  bottom: "inception_4d/output"
  top: "inception_4e/1x1"
  param {
    lr_mult: 1
    decay_mult: 1
  }
  param {
    lr_mult: 2
    decay_mult: 0
  }
  convolution_param {
    num_output: 256
    kernel_size: 1
    weight_filler {
      type: "xavier"
      std: 0.03
    }
    bias_filler {
      type: "constant"
      value: 0.2
    }
  }
}
layer {
  name: "inception_4e/relu_1x1"
  type: "ReLU"
  bottom: "inception_4e/1x1"
  top: "inception_4e/1x1"
}
layer {
  name: "inception_4e/3x3_reduce"
  type: "Convolution"
  bottom: "inception_4d/output"
  top: "inception_4e/3x3_reduce"
  param {
    lr_mult: 1
    decay_mult: 1
  }
  param {
    lr_mult: 2
    decay_mult: 0
  }
  convolution_param {
    num_output: 160
    kernel_size: 1
    weight_filler {
      type: "xavier"
      std: 0.09
    }
    bias_filler {
      type: "constant"
      value: 0.2
    }
  }
}
layer {
  name: "inception_4e/relu_3x3_reduce"
  type: "ReLU"
  bottom: "inception_4e/3x3_reduce"
  top: "inception_4e/3x3_reduce"
}
layer {
  name: "inception_4e/3x3"
  type: "Convolution"
  bottom: "inception_4e/3x3_reduce"
  top: "inception_4e/3x3"
  param {
    lr_mult: 1
    decay_mult: 1
  }
  param {
    lr_mult: 2
    decay_mult: 0
  }
  convolution_param {
    num_output: 320
    pad: 1
    kernel_size: 3
    weight_filler {
      type: "xavier"
      std: 0.03
    }
    bias_filler {
      type: "constant"
      value: 0.2
    }
  }
}
layer {
  name: "inception_4e/relu_3x3"
  type: "ReLU"
  bottom: "inception_4e/3x3"
  top: "inception_4e/3x3"
}
layer {
  name: "inception_4e/5x5_reduce"
  type: "Convolution"
  bottom: "inception_4d/output"
  top: "inception_4e/5x5_reduce"
  param {
    lr_mult: 1
    decay_mult: 1
  }
  param {
    lr_mult: 2
    decay_mult: 0
  }
  convolution_param {
    num_output: 32
    kernel_size: 1
    weight_filler {
      type: "xavier"
      std: 0.2
    }
    bias_filler {
      type: "constant"
      value: 0.2
    }
  }
}
layer {
  name: "inception_4e/relu_5x5_reduce"
  type: "ReLU"
  bottom: "inception_4e/5x5_reduce"
  top: "inception_4e/5x5_reduce"
}
layer {
  name: "inception_4e/5x5"
  type: "Convolution"
  bottom: "inception_4e/5x5_reduce"
  top: "inception_4e/5x5"
  p
I0403 14:38:47.607086 13484 layer_factory.hpp:77] Creating layer data
I0403 14:38:47.607710 13484 net.cpp:91] Creating Layer data
I0403 14:38:47.607743 13484 net.cpp:399] data -> data
I0403 14:38:47.607795 13484 net.cpp:399] data -> label
I0403 14:38:47.607833 13484 data_transformer.cpp:25] Loading mean file from: /home/mohanty/data/final_dataset/lmdb/color-40-60/mean.binaryproto
I0403 14:38:47.610931 13487 db_lmdb.cpp:38] Opened lmdb /home/mohanty/data/final_dataset/lmdb/color-40-60/test_db
I0403 14:38:47.621552 13484 data_layer.cpp:41] output data size: 24,3,224,224
I0403 14:38:47.648552 13484 net.cpp:141] Setting up data
I0403 14:38:47.648635 13484 net.cpp:148] Top shape: 24 3 224 224 (3612672)
I0403 14:38:47.648658 13484 net.cpp:148] Top shape: 24 (24)
I0403 14:38:47.648672 13484 net.cpp:156] Memory required for data: 14450784
I0403 14:38:47.648699 13484 layer_factory.hpp:77] Creating layer label_data_1_split
I0403 14:38:47.648725 13484 net.cpp:91] Creating Layer label_data_1_split
I0403 14:38:47.648742 13484 net.cpp:425] label_data_1_split <- label
I0403 14:38:47.648774 13484 net.cpp:399] label_data_1_split -> label_data_1_split_0
I0403 14:38:47.648802 13484 net.cpp:399] label_data_1_split -> label_data_1_split_1
I0403 14:38:47.648821 13484 net.cpp:399] label_data_1_split -> label_data_1_split_2
I0403 14:38:47.648841 13484 net.cpp:399] label_data_1_split -> label_data_1_split_3
I0403 14:38:47.648860 13484 net.cpp:399] label_data_1_split -> label_data_1_split_4
I0403 14:38:47.648880 13484 net.cpp:399] label_data_1_split -> label_data_1_split_5
I0403 14:38:47.648897 13484 net.cpp:399] label_data_1_split -> label_data_1_split_6
I0403 14:38:47.648916 13484 net.cpp:399] label_data_1_split -> label_data_1_split_7
I0403 14:38:47.648936 13484 net.cpp:399] label_data_1_split -> label_data_1_split_8
I0403 14:38:47.648954 13484 net.cpp:399] label_data_1_split -> label_data_1_split_9
I0403 14:38:47.649067 13484 net.cpp:141] Setting up label_data_1_split
I0403 14:38:47.649091 13484 net.cpp:148] Top shape: 24 (24)
I0403 14:38:47.649107 13484 net.cpp:148] Top shape: 24 (24)
I0403 14:38:47.649122 13484 net.cpp:148] Top shape: 24 (24)
I0403 14:38:47.649137 13484 net.cpp:148] Top shape: 24 (24)
I0403 14:38:47.649152 13484 net.cpp:148] Top shape: 24 (24)
I0403 14:38:47.649166 13484 net.cpp:148] Top shape: 24 (24)
I0403 14:38:47.649181 13484 net.cpp:148] Top shape: 24 (24)
I0403 14:38:47.649196 13484 net.cpp:148] Top shape: 24 (24)
I0403 14:38:47.649211 13484 net.cpp:148] Top shape: 24 (24)
I0403 14:38:47.649226 13484 net.cpp:148] Top shape: 24 (24)
I0403 14:38:47.649271 13484 net.cpp:156] Memory required for data: 14451744
I0403 14:38:47.649287 13484 layer_factory.hpp:77] Creating layer conv1/7x7_s2
I0403 14:38:47.649317 13484 net.cpp:91] Creating Layer conv1/7x7_s2
I0403 14:38:47.649335 13484 net.cpp:425] conv1/7x7_s2 <- data
I0403 14:38:47.649353 13484 net.cpp:399] conv1/7x7_s2 -> conv1/7x7_s2
I0403 14:38:47.794205 13484 net.cpp:141] Setting up conv1/7x7_s2
I0403 14:38:47.794286 13484 net.cpp:148] Top shape: 24 64 112 112 (19267584)
I0403 14:38:47.794306 13484 net.cpp:156] Memory required for data: 91522080
I0403 14:38:47.794335 13484 layer_factory.hpp:77] Creating layer conv1/relu_7x7
I0403 14:38:47.794363 13484 net.cpp:91] Creating Layer conv1/relu_7x7
I0403 14:38:47.794383 13484 net.cpp:425] conv1/relu_7x7 <- conv1/7x7_s2
I0403 14:38:47.794402 13484 net.cpp:386] conv1/relu_7x7 -> conv1/7x7_s2 (in-place)
I0403 14:38:47.794680 13484 net.cpp:141] Setting up conv1/relu_7x7
I0403 14:38:47.794709 13484 net.cpp:148] Top shape: 24 64 112 112 (19267584)
I0403 14:38:47.794725 13484 net.cpp:156] Memory required for data: 168592416
I0403 14:38:47.794742 13484 layer_factory.hpp:77] Creating layer pool1/3x3_s2
I0403 14:38:47.794769 13484 net.cpp:91] Creating Layer pool1/3x3_s2
I0403 14:38:47.794787 13484 net.cpp:425] pool1/3x3_s2 <- conv1/7x7_s2
I0403 14:38:47.794806 13484 net.cpp:399] pool1/3x3_s2 -> pool1/3x3_s2
I0403 14:38:47.794883 13484 net.cpp:141] Setting up pool1/3x3_s2
I0403 14:38:47.794932 13484 net.cpp:148] Top shape: 24 64 56 56 (4816896)
I0403 14:38:47.794951 13484 net.cpp:156] Memory required for data: 187860000
I0403 14:38:47.794967 13484 layer_factory.hpp:77] Creating layer pool1/norm1
I0403 14:38:47.794991 13484 net.cpp:91] Creating Layer pool1/norm1
I0403 14:38:47.795009 13484 net.cpp:425] pool1/norm1 <- pool1/3x3_s2
I0403 14:38:47.795028 13484 net.cpp:399] pool1/norm1 -> pool1/norm1
I0403 14:38:47.795323 13484 net.cpp:141] Setting up pool1/norm1
I0403 14:38:47.795352 13484 net.cpp:148] Top shape: 24 64 56 56 (4816896)
I0403 14:38:47.795368 13484 net.cpp:156] Memory required for data: 207127584
I0403 14:38:47.795384 13484 layer_factory.hpp:77] Creating layer conv2/3x3_reduce
I0403 14:38:47.795409 13484 net.cpp:91] Creating Layer conv2/3x3_reduce
I0403 14:38:47.795426 13484 net.cpp:425] conv2/3x3_reduce <- pool1/norm1
I0403 14:38:47.795446 13484 net.cpp:399] conv2/3x3_reduce -> conv2/3x3_reduce
I0403 14:38:47.796882 13484 net.cpp:141] Setting up conv2/3x3_reduce
I0403 14:38:47.796913 13484 net.cpp:148] Top shape: 24 64 56 56 (4816896)
I0403 14:38:47.796931 13484 net.cpp:156] Memory required for data: 226395168
I0403 14:38:47.796952 13484 layer_factory.hpp:77] Creating layer conv2/relu_3x3_reduce
I0403 14:38:47.796972 13484 net.cpp:91] Creating Layer conv2/relu_3x3_reduce
I0403 14:38:47.796988 13484 net.cpp:425] conv2/relu_3x3_reduce <- conv2/3x3_reduce
I0403 14:38:47.797006 13484 net.cpp:386] conv2/relu_3x3_reduce -> conv2/3x3_reduce (in-place)
I0403 14:38:47.797276 13484 net.cpp:141] Setting up conv2/relu_3x3_reduce
I0403 14:38:47.797303 13484 net.cpp:148] Top shape: 24 64 56 56 (4816896)
I0403 14:38:47.797319 13484 net.cpp:156] Memory required for data: 245662752
I0403 14:38:47.797335 13484 layer_factory.hpp:77] Creating layer conv2/3x3
I0403 14:38:47.797358 13484 net.cpp:91] Creating Layer conv2/3x3
I0403 14:38:47.797375 13484 net.cpp:425] conv2/3x3 <- conv2/3x3_reduce
I0403 14:38:47.797394 13484 net.cpp:399] conv2/3x3 -> conv2/3x3
I0403 14:38:47.799705 13484 net.cpp:141] Setting up conv2/3x3
I0403 14:38:47.799734 13484 net.cpp:148] Top shape: 24 192 56 56 (14450688)
I0403 14:38:47.799751 13484 net.cpp:156] Memory required for data: 303465504
I0403 14:38:47.799772 13484 layer_factory.hpp:77] Creating layer conv2/relu_3x3
I0403 14:38:47.799792 13484 net.cpp:91] Creating Layer conv2/relu_3x3
I0403 14:38:47.799808 13484 net.cpp:425] conv2/relu_3x3 <- conv2/3x3
I0403 14:38:47.799825 13484 net.cpp:386] conv2/relu_3x3 -> conv2/3x3 (in-place)
I0403 14:38:47.799996 13484 net.cpp:141] Setting up conv2/relu_3x3
I0403 14:38:47.800020 13484 net.cpp:148] Top shape: 24 192 56 56 (14450688)
I0403 14:38:47.800067 13484 net.cpp:156] Memory required for data: 361268256
I0403 14:38:47.800082 13484 layer_factory.hpp:77] Creating layer conv2/norm2
I0403 14:38:47.800101 13484 net.cpp:91] Creating Layer conv2/norm2
I0403 14:38:47.800117 13484 net.cpp:425] conv2/norm2 <- conv2/3x3
I0403 14:38:47.800135 13484 net.cpp:399] conv2/norm2 -> conv2/norm2
I0403 14:38:47.800431 13484 net.cpp:141] Setting up conv2/norm2
I0403 14:38:47.800459 13484 net.cpp:148] Top shape: 24 192 56 56 (14450688)
I0403 14:38:47.800474 13484 net.cpp:156] Memory required for data: 419071008
I0403 14:38:47.800488 13484 layer_factory.hpp:77] Creating layer pool2/3x3_s2
I0403 14:38:47.800506 13484 net.cpp:91] Creating Layer pool2/3x3_s2
I0403 14:38:47.800526 13484 net.cpp:425] pool2/3x3_s2 <- conv2/norm2
I0403 14:38:47.800546 13484 net.cpp:399] pool2/3x3_s2 -> pool2/3x3_s2
I0403 14:38:47.800601 13484 net.cpp:141] Setting up pool2/3x3_s2
I0403 14:38:47.800623 13484 net.cpp:148] Top shape: 24 192 28 28 (3612672)
I0403 14:38:47.800637 13484 net.cpp:156] Memory required for data: 433521696
I0403 14:38:47.800652 13484 layer_factory.hpp:77] Creating layer pool2/3x3_s2_pool2/3x3_s2_0_split
I0403 14:38:47.800670 13484 net.cpp:91] Creating Layer pool2/3x3_s2_pool2/3x3_s2_0_split
I0403 14:38:47.800685 13484 net.cpp:425] pool2/3x3_s2_pool2/3x3_s2_0_split <- pool2/3x3_s2
I0403 14:38:47.800701 13484 net.cpp:399] pool2/3x3_s2_pool2/3x3_s2_0_split -> pool2/3x3_s2_pool2/3x3_s2_0_split_0
I0403 14:38:47.800719 13484 net.cpp:399] pool2/3x3_s2_pool2/3x3_s2_0_split -> pool2/3x3_s2_pool2/3x3_s2_0_split_1
I0403 14:38:47.800739 13484 net.cpp:399] pool2/3x3_s2_pool2/3x3_s2_0_split -> pool2/3x3_s2_pool2/3x3_s2_0_split_2
I0403 14:38:47.800760 13484 net.cpp:399] pool2/3x3_s2_pool2/3x3_s2_0_split -> pool2/3x3_s2_pool2/3x3_s2_0_split_3
I0403 14:38:47.800828 13484 net.cpp:141] Setting up pool2/3x3_s2_pool2/3x3_s2_0_split
I0403 14:38:47.800849 13484 net.cpp:148] Top shape: 24 192 28 28 (3612672)
I0403 14:38:47.800865 13484 net.cpp:148] Top shape: 24 192 28 28 (3612672)
I0403 14:38:47.800880 13484 net.cpp:148] Top shape: 24 192 28 28 (3612672)
I0403 14:38:47.800895 13484 net.cpp:148] Top shape: 24 192 28 28 (3612672)
I0403 14:38:47.800909 13484 net.cpp:156] Memory required for data: 491324448
I0403 14:38:47.800921 13484 layer_factory.hpp:77] Creating layer inception_3a/1x1
I0403 14:38:47.800943 13484 net.cpp:91] Creating Layer inception_3a/1x1
I0403 14:38:47.800961 13484 net.cpp:425] inception_3a/1x1 <- pool2/3x3_s2_pool2/3x3_s2_0_split_0
I0403 14:38:47.800979 13484 net.cpp:399] inception_3a/1x1 -> inception_3a/1x1
I0403 14:38:47.802448 13484 net.cpp:141] Setting up inception_3a/1x1
I0403 14:38:47.802475 13484 net.cpp:148] Top shape: 24 64 28 28 (1204224)
I0403 14:38:47.802490 13484 net.cpp:156] Memory required for data: 496141344
I0403 14:38:47.802508 13484 layer_factory.hpp:77] Creating layer inception_3a/relu_1x1
I0403 14:38:47.802525 13484 net.cpp:91] Creating Layer inception_3a/relu_1x1
I0403 14:38:47.802541 13484 net.cpp:425] inception_3a/relu_1x1 <- inception_3a/1x1
I0403 14:38:47.802559 13484 net.cpp:386] inception_3a/relu_1x1 -> inception_3a/1x1 (in-place)
I0403 14:38:47.802728 13484 net.cpp:141] Setting up inception_3a/relu_1x1
I0403 14:38:47.802753 13484 net.cpp:148] Top shape: 24 64 28 28 (1204224)
I0403 14:38:47.802767 13484 net.cpp:156] Memory required for data: 500958240
I0403 14:38:47.802781 13484 layer_factory.hpp:77] Creating layer inception_3a/3x3_reduce
I0403 14:38:47.802804 13484 net.cpp:91] Creating Layer inception_3a/3x3_reduce
I0403 14:38:47.802821 13484 net.cpp:425] inception_3a/3x3_reduce <- pool2/3x3_s2_pool2/3x3_s2_0_split_1
I0403 14:38:47.802840 13484 net.cpp:399] inception_3a/3x3_reduce -> inception_3a/3x3_reduce
I0403 14:38:47.804481 13484 net.cpp:141] Setting up inception_3a/3x3_reduce
I0403 14:38:47.804508 13484 net.cpp:148] Top shape: 24 96 28 28 (1806336)
I0403 14:38:47.804527 13484 net.cpp:156] Memory required for data: 508183584
I0403 14:38:47.804548 13484 layer_factory.hpp:77] Creating layer inception_3a/relu_3x3_reduce
I0403 14:38:47.804594 13484 net.cpp:91] Creating Layer inception_3a/relu_3x3_reduce
I0403 14:38:47.804613 13484 net.cpp:425] inception_3a/relu_3x3_reduce <- inception_3a/3x3_reduce
I0403 14:38:47.804630 13484 net.cpp:386] inception_3a/relu_3x3_reduce -> inception_3a/3x3_reduce (in-place)
I0403 14:38:47.804812 13484 net.cpp:141] Setting up inception_3a/relu_3x3_reduce
I0403 14:38:47.804838 13484 net.cpp:148] Top shape: 24 96 28 28 (1806336)
I0403 14:38:47.804853 13484 net.cpp:156] Memory required for data: 515408928
I0403 14:38:47.804867 13484 layer_factory.hpp:77] Creating layer inception_3a/3x3
I0403 14:38:47.804890 13484 net.cpp:91] Creating Layer inception_3a/3x3
I0403 14:38:47.804908 13484 net.cpp:425] inception_3a/3x3 <- inception_3a/3x3_reduce
I0403 14:38:47.804924 13484 net.cpp:399] inception_3a/3x3 -> inception_3a/3x3
I0403 14:38:47.806509 13484 net.cpp:141] Setting up inception_3a/3x3
I0403 14:38:47.806536 13484 net.cpp:148] Top shape: 24 128 28 28 (2408448)
I0403 14:38:47.806551 13484 net.cpp:156] Memory required for data: 525042720
I0403 14:38:47.806573 13484 layer_factory.hpp:77] Creating layer inception_3a/relu_3x3
I0403 14:38:47.806593 13484 net.cpp:91] Creating Layer inception_3a/relu_3x3
I0403 14:38:47.806609 13484 net.cpp:425] inception_3a/relu_3x3 <- inception_3a/3x3
I0403 14:38:47.806627 13484 net.cpp:386] inception_3a/relu_3x3 -> inception_3a/3x3 (in-place)
I0403 14:38:47.806898 13484 net.cpp:141] Setting up inception_3a/relu_3x3
I0403 14:38:47.806923 13484 net.cpp:148] Top shape: 24 128 28 28 (2408448)
I0403 14:38:47.806938 13484 net.cpp:156] Memory required for data: 534676512
I0403 14:38:47.806952 13484 layer_factory.hpp:77] Creating layer inception_3a/5x5_reduce
I0403 14:38:47.806974 13484 net.cpp:91] Creating Layer inception_3a/5x5_reduce
I0403 14:38:47.806991 13484 net.cpp:425] inception_3a/5x5_reduce <- pool2/3x3_s2_pool2/3x3_s2_0_split_2
I0403 14:38:47.807011 13484 net.cpp:399] inception_3a/5x5_reduce -> inception_3a/5x5_reduce
I0403 14:38:47.807945 13484 net.cpp:141] Setting up inception_3a/5x5_reduce
I0403 14:38:47.807971 13484 net.cpp:148] Top shape: 24 16 28 28 (301056)
I0403 14:38:47.807986 13484 net.cpp:156] Memory required for data: 535880736
I0403 14:38:47.808003 13484 layer_factory.hpp:77] Creating layer inception_3a/relu_5x5_reduce
I0403 14:38:47.808023 13484 net.cpp:91] Creating Layer inception_3a/relu_5x5_reduce
I0403 14:38:47.808040 13484 net.cpp:425] inception_3a/relu_5x5_reduce <- inception_3a/5x5_reduce
I0403 14:38:47.808058 13484 net.cpp:386] inception_3a/relu_5x5_reduce -> inception_3a/5x5_reduce (in-place)
I0403 14:38:47.808346 13484 net.cpp:141] Setting up inception_3a/relu_5x5_reduce
I0403 14:38:47.808372 13484 net.cpp:148] Top shape: 24 16 28 28 (301056)
I0403 14:38:47.808387 13484 net.cpp:156] Memory required for data: 537084960
I0403 14:38:47.808400 13484 layer_factory.hpp:77] Creating layer inception_3a/5x5
I0403 14:38:47.808423 13484 net.cpp:91] Creating Layer inception_3a/5x5
I0403 14:38:47.808440 13484 net.cpp:425] inception_3a/5x5 <- inception_3a/5x5_reduce
I0403 14:38:47.808459 13484 net.cpp:399] inception_3a/5x5 -> inception_3a/5x5
I0403 14:38:47.809463 13484 net.cpp:141] Setting up inception_3a/5x5
I0403 14:38:47.809490 13484 net.cpp:148] Top shape: 24 32 28 28 (602112)
I0403 14:38:47.809505 13484 net.cpp:156] Memory required for data: 539493408
I0403 14:38:47.809525 13484 layer_factory.hpp:77] Creating layer inception_3a/relu_5x5
I0403 14:38:47.809542 13484 net.cpp:91] Creating Layer inception_3a/relu_5x5
I0403 14:38:47.809558 13484 net.cpp:425] inception_3a/relu_5x5 <- inception_3a/5x5
I0403 14:38:47.809581 13484 net.cpp:386] inception_3a/relu_5x5 -> inception_3a/5x5 (in-place)
I0403 14:38:47.809756 13484 net.cpp:141] Setting up inception_3a/relu_5x5
I0403 14:38:47.809780 13484 net.cpp:148] Top shape: 24 32 28 28 (602112)
I0403 14:38:47.809795 13484 net.cpp:156] Memory required for data: 541901856
I0403 14:38:47.809810 13484 layer_factory.hpp:77] Creating layer inception_3a/pool
I0403 14:38:47.809830 13484 net.cpp:91] Creating Layer inception_3a/pool
I0403 14:38:47.809846 13484 net.cpp:425] inception_3a/pool <- pool2/3x3_s2_pool2/3x3_s2_0_split_3
I0403 14:38:47.809878 13484 net.cpp:399] inception_3a/pool -> inception_3a/pool
I0403 14:38:47.809937 13484 net.cpp:141] Setting up inception_3a/pool
I0403 14:38:47.809960 13484 net.cpp:148] Top shape: 24 192 28 28 (3612672)
I0403 14:38:47.809975 13484 net.cpp:156] Memory required for data: 556352544
I0403 14:38:47.809989 13484 layer_factory.hpp:77] Creating layer inception_3a/pool_proj
I0403 14:38:47.810010 13484 net.cpp:91] Creating Layer inception_3a/pool_proj
I0403 14:38:47.810027 13484 net.cpp:425] inception_3a/pool_proj <- inception_3a/pool
I0403 14:38:47.810048 13484 net.cpp:399] inception_3a/pool_proj -> inception_3a/pool_proj
I0403 14:38:47.811005 13484 net.cpp:141] Setting up inception_3a/pool_proj
I0403 14:38:47.811034 13484 net.cpp:148] Top shape: 24 32 28 28 (602112)
I0403 14:38:47.811050 13484 net.cpp:156] Memory required for data: 558760992
I0403 14:38:47.811072 13484 layer_factory.hpp:77] Creating layer inception_3a/relu_pool_proj
I0403 14:38:47.811091 13484 net.cpp:91] Creating Layer inception_3a/relu_pool_proj
I0403 14:38:47.811107 13484 net.cpp:425] inception_3a/relu_pool_proj <- inception_3a/pool_proj
I0403 14:38:47.811125 13484 net.cpp:386] inception_3a/relu_pool_proj -> inception_3a/pool_proj (in-place)
I0403 14:38:47.811386 13484 net.cpp:141] Setting up inception_3a/relu_pool_proj
I0403 14:38:47.811411 13484 net.cpp:148] Top shape: 24 32 28 28 (602112)
I0403 14:38:47.811426 13484 net.cpp:156] Memory required for data: 561169440
I0403 14:38:47.811440 13484 layer_factory.hpp:77] Creating layer inception_3a/output
I0403 14:38:47.811457 13484 net.cpp:91] Creating Layer inception_3a/output
I0403 14:38:47.811472 13484 net.cpp:425] inception_3a/output <- inception_3a/1x1
I0403 14:38:47.811487 13484 net.cpp:425] inception_3a/output <- inception_3a/3x3
I0403 14:38:47.811503 13484 net.cpp:425] inception_3a/output <- inception_3a/5x5
I0403 14:38:47.811518 13484 net.cpp:425] inception_3a/output <- inception_3a/pool_proj
I0403 14:38:47.811537 13484 net.cpp:399] inception_3a/output -> inception_3a/output
I0403 14:38:47.811586 13484 net.cpp:141] Setting up inception_3a/output
I0403 14:38:47.811609 13484 net.cpp:148] Top shape: 24 256 28 28 (4816896)
I0403 14:38:47.811622 13484 net.cpp:156] Memory required for data: 580437024
I0403 14:38:47.811636 13484 layer_factory.hpp:77] Creating layer inception_3a/output_inception_3a/output_0_split
I0403 14:38:47.811653 13484 net.cpp:91] Creating Layer inception_3a/output_inception_3a/output_0_split
I0403 14:38:47.811668 13484 net.cpp:425] inception_3a/output_inception_3a/output_0_split <- inception_3a/output
I0403 14:38:47.811686 13484 net.cpp:399] inception_3a/output_inception_3a/output_0_split -> inception_3a/output_inception_3a/output_0_split_0
I0403 14:38:47.811707 13484 net.cpp:399] inception_3a/output_inception_3a/output_0_split -> inception_3a/output_inception_3a/output_0_split_1
I0403 14:38:47.811728 13484 net.cpp:399] inception_3a/output_inception_3a/output_0_split -> inception_3a/output_inception_3a/output_0_split_2
I0403 14:38:47.811748 13484 net.cpp:399] inception_3a/output_inception_3a/output_0_split -> inception_3a/output_inception_3a/output_0_split_3
I0403 14:38:47.811820 13484 net.cpp:141] Setting up inception_3a/output_inception_3a/output_0_split
I0403 14:38:47.811841 13484 net.cpp:148] Top shape: 24 256 28 28 (4816896)
I0403 14:38:47.811857 13484 net.cpp:148] Top shape: 24 256 28 28 (4816896)
I0403 14:38:47.811872 13484 net.cpp:148] Top shape: 24 256 28 28 (4816896)
I0403 14:38:47.811887 13484 net.cpp:148] Top shape: 24 256 28 28 (4816896)
I0403 14:38:47.811900 13484 net.cpp:156] Memory required for data: 657507360
I0403 14:38:47.811914 13484 layer_factory.hpp:77] Creating layer inception_3b/1x1
I0403 14:38:47.811939 13484 net.cpp:91] Creating Layer inception_3b/1x1
I0403 14:38:47.811954 13484 net.cpp:425] inception_3b/1x1 <- inception_3a/output_inception_3a/output_0_split_0
I0403 14:38:47.811974 13484 net.cpp:399] inception_3b/1x1 -> inception_3b/1x1
I0403 14:38:47.813071 13484 net.cpp:141] Setting up inception_3b/1x1
I0403 14:38:47.813112 13484 net.cpp:148] Top shape: 24 128 28 28 (2408448)
I0403 14:38:47.813127 13484 net.cpp:156] Memory required for data: 667141152
I0403 14:38:47.813145 13484 layer_factory.hpp:77] Creating layer inception_3b/relu_1x1
I0403 14:38:47.813163 13484 net.cpp:91] Creating Layer inception_3b/relu_1x1
I0403 14:38:47.813177 13484 net.cpp:425] inception_3b/relu_1x1 <- inception_3b/1x1
I0403 14:38:47.813197 13484 net.cpp:386] inception_3b/relu_1x1 -> inception_3b/1x1 (in-place)
I0403 14:38:47.813365 13484 net.cpp:141] Setting up inception_3b/relu_1x1
I0403 14:38:47.813390 13484 net.cpp:148] Top shape: 24 128 28 28 (2408448)
I0403 14:38:47.813402 13484 net.cpp:156] Memory required for data: 676774944
I0403 14:38:47.813417 13484 layer_factory.hpp:77] Creating layer inception_3b/3x3_reduce
I0403 14:38:47.813438 13484 net.cpp:91] Creating Layer inception_3b/3x3_reduce
I0403 14:38:47.813454 13484 net.cpp:425] inception_3b/3x3_reduce <- inception_3a/output_inception_3a/output_0_split_1
I0403 14:38:47.813475 13484 net.cpp:399] inception_3b/3x3_reduce -> inception_3b/3x3_reduce
I0403 14:38:47.814558 13484 net.cpp:141] Setting up inception_3b/3x3_reduce
I0403 14:38:47.814594 13484 net.cpp:148] Top shape: 24 128 28 28 (2408448)
I0403 14:38:47.814611 13484 net.cpp:156] Memory required for data: 686408736
I0403 14:38:47.814630 13484 layer_factory.hpp:77] Creating layer inception_3b/relu_3x3_reduce
I0403 14:38:47.814647 13484 net.cpp:91] Creating Layer inception_3b/relu_3x3_reduce
I0403 14:38:47.814662 13484 net.cpp:425] inception_3b/relu_3x3_reduce <- inception_3b/3x3_reduce
I0403 14:38:47.814680 13484 net.cpp:386] inception_3b/relu_3x3_reduce -> inception_3b/3x3_reduce (in-place)
I0403 14:38:47.814843 13484 net.cpp:141] Setting up inception_3b/relu_3x3_reduce
I0403 14:38:47.814868 13484 net.cpp:148] Top shape: 24 128 28 28 (2408448)
I0403 14:38:47.814882 13484 net.cpp:156] Memory required for data: 696042528
I0403 14:38:47.814896 13484 layer_factory.hpp:77] Creating layer inception_3b/3x3
I0403 14:38:47.814920 13484 net.cpp:91] Creating Layer inception_3b/3x3
I0403 14:38:47.814937 13484 net.cpp:425] inception_3b/3x3 <- inception_3b/3x3_reduce
I0403 14:38:47.814955 13484 net.cpp:399] inception_3b/3x3 -> inception_3b/3x3
I0403 14:38:47.817754 13484 net.cpp:141] Setting up inception_3b/3x3
I0403 14:38:47.817781 13484 net.cpp:148] Top shape: 24 192 28 28 (3612672)
I0403 14:38:47.817796 13484 net.cpp:156] Memory required for data: 710493216
I0403 14:38:47.817813 13484 layer_factory.hpp:77] Creating layer inception_3b/relu_3x3
I0403 14:38:47.817833 13484 net.cpp:91] Creating Layer inception_3b/relu_3x3
I0403 14:38:47.817849 13484 net.cpp:425] inception_3b/relu_3x3 <- inception_3b/3x3
I0403 14:38:47.817865 13484 net.cpp:386] inception_3b/relu_3x3 -> inception_3b/3x3 (in-place)
I0403 14:38:47.818130 13484 net.cpp:141] Setting up inception_3b/relu_3x3
I0403 14:38:47.818155 13484 net.cpp:148] Top shape: 24 192 28 28 (3612672)
I0403 14:38:47.818169 13484 net.cpp:156] Memory required for data: 724943904
I0403 14:38:47.818182 13484 layer_factory.hpp:77] Creating layer inception_3b/5x5_reduce
I0403 14:38:47.818205 13484 net.cpp:91] Creating Layer inception_3b/5x5_reduce
I0403 14:38:47.818222 13484 net.cpp:425] inception_3b/5x5_reduce <- inception_3a/output_inception_3a/output_0_split_2
I0403 14:38:47.818249 13484 net.cpp:399] inception_3b/5x5_reduce -> inception_3b/5x5_reduce
I0403 14:38:47.819205 13484 net.cpp:141] Setting up inception_3b/5x5_reduce
I0403 14:38:47.819231 13484 net.cpp:148] Top shape: 24 32 28 28 (602112)
I0403 14:38:47.819260 13484 net.cpp:156] Memory required for data: 727352352
I0403 14:38:47.819278 13484 layer_factory.hpp:77] Creating layer inception_3b/relu_5x5_reduce
I0403 14:38:47.819295 13484 net.cpp:91] Creating Layer inception_3b/relu_5x5_reduce
I0403 14:38:47.819313 13484 net.cpp:425] inception_3b/relu_5x5_reduce <- inception_3b/5x5_reduce
I0403 14:38:47.819331 13484 net.cpp:386] inception_3b/relu_5x5_reduce -> inception_3b/5x5_reduce (in-place)
I0403 14:38:47.819505 13484 net.cpp:141] Setting up inception_3b/relu_5x5_reduce
I0403 14:38:47.819557 13484 net.cpp:148] Top shape: 24 32 28 28 (602112)
I0403 14:38:47.819576 13484 net.cpp:156] Memory required for data: 729760800
I0403 14:38:47.819591 13484 layer_factory.hpp:77] Creating layer inception_3b/5x5
I0403 14:38:47.819615 13484 net.cpp:91] Creating Layer inception_3b/5x5
I0403 14:38:47.819633 13484 net.cpp:425] inception_3b/5x5 <- inception_3b/5x5_reduce
I0403 14:38:47.819653 13484 net.cpp:399] inception_3b/5x5 -> inception_3b/5x5
I0403 14:38:47.821552 13484 net.cpp:141] Setting up inception_3b/5x5
I0403 14:38:47.821585 13484 net.cpp:148] Top shape: 24 96 28 28 (1806336)
I0403 14:38:47.821600 13484 net.cpp:156] Memory required for data: 736986144
I0403 14:38:47.821617 13484 layer_factory.hpp:77] Creating layer inception_3b/relu_5x5
I0403 14:38:47.821635 13484 net.cpp:91] Creating Layer inception_3b/relu_5x5
I0403 14:38:47.821650 13484 net.cpp:425] inception_3b/relu_5x5 <- inception_3b/5x5
I0403 14:38:47.821668 13484 net.cpp:386] inception_3b/relu_5x5 -> inception_3b/5x5 (in-place)
I0403 14:38:47.821852 13484 net.cpp:141] Setting up inception_3b/relu_5x5
I0403 14:38:47.821877 13484 net.cpp:148] Top shape: 24 96 28 28 (1806336)
I0403 14:38:47.821890 13484 net.cpp:156] Memory required for data: 744211488
I0403 14:38:47.821904 13484 layer_factory.hpp:77] Creating layer inception_3b/pool
I0403 14:38:47.821921 13484 net.cpp:91] Creating Layer inception_3b/pool
I0403 14:38:47.821936 13484 net.cpp:425] inception_3b/pool <- inception_3a/output_inception_3a/output_0_split_3
I0403 14:38:47.821954 13484 net.cpp:399] inception_3b/pool -> inception_3b/pool
I0403 14:38:47.822010 13484 net.cpp:141] Setting up inception_3b/pool
I0403 14:38:47.822031 13484 net.cpp:148] Top shape: 24 256 28 28 (4816896)
I0403 14:38:47.822044 13484 net.cpp:156] Memory required for data: 763479072
I0403 14:38:47.822058 13484 layer_factory.hpp:77] Creating layer inception_3b/pool_proj
I0403 14:38:47.822079 13484 net.cpp:91] Creating Layer inception_3b/pool_proj
I0403 14:38:47.822096 13484 net.cpp:425] inception_3b/pool_proj <- inception_3b/pool
I0403 14:38:47.822115 13484 net.cpp:399] inception_3b/pool_proj -> inception_3b/pool_proj
I0403 14:38:47.823140 13484 net.cpp:141] Setting up inception_3b/pool_proj
I0403 14:38:47.823168 13484 net.cpp:148] Top shape: 24 64 28 28 (1204224)
I0403 14:38:47.823185 13484 net.cpp:156] Memory required for data: 768295968
I0403 14:38:47.823202 13484 layer_factory.hpp:77] Creating layer inception_3b/relu_pool_proj
I0403 14:38:47.823220 13484 net.cpp:91] Creating Layer inception_3b/relu_pool_proj
I0403 14:38:47.823235 13484 net.cpp:425] inception_3b/relu_pool_proj <- inception_3b/pool_proj
I0403 14:38:47.823251 13484 net.cpp:386] inception_3b/relu_pool_proj -> inception_3b/pool_proj (in-place)
I0403 14:38:47.823657 13484 net.cpp:141] Setting up inception_3b/relu_pool_proj
I0403 14:38:47.823683 13484 net.cpp:148] Top shape: 24 64 28 28 (1204224)
I0403 14:38:47.823698 13484 net.cpp:156] Memory required for data: 773112864
I0403 14:38:47.823711 13484 layer_factory.hpp:77] Creating layer inception_3b/output
I0403 14:38:47.823730 13484 net.cpp:91] Creating Layer inception_3b/output
I0403 14:38:47.823746 13484 net.cpp:425] inception_3b/output <- inception_3b/1x1
I0403 14:38:47.823762 13484 net.cpp:425] inception_3b/output <- inception_3b/3x3
I0403 14:38:47.823777 13484 net.cpp:425] inception_3b/output <- inception_3b/5x5
I0403 14:38:47.823792 13484 net.cpp:425] inception_3b/output <- inception_3b/pool_proj
I0403 14:38:47.823809 13484 net.cpp:399] inception_3b/output -> inception_3b/output
I0403 14:38:47.823853 13484 net.cpp:141] Setting up inception_3b/output
I0403 14:38:47.823875 13484 net.cpp:148] Top shape: 24 480 28 28 (9031680)
I0403 14:38:47.823889 13484 net.cpp:156] Memory required for data: 809239584
I0403 14:38:47.823904 13484 layer_factory.hpp:77] Creating layer pool3/3x3_s2
I0403 14:38:47.823921 13484 net.cpp:91] Creating Layer pool3/3x3_s2
I0403 14:38:47.823936 13484 net.cpp:425] pool3/3x3_s2 <- inception_3b/output
I0403 14:38:47.823956 13484 net.cpp:399] pool3/3x3_s2 -> pool3/3x3_s2
I0403 14:38:47.824028 13484 net.cpp:141] Setting up pool3/3x3_s2
I0403 14:38:47.824050 13484 net.cpp:148] Top shape: 24 480 14 14 (2257920)
I0403 14:38:47.824064 13484 net.cpp:156] Memory required for data: 818271264
I0403 14:38:47.824079 13484 layer_factory.hpp:77] Creating layer pool3/3x3_s2_pool3/3x3_s2_0_split
I0403 14:38:47.824097 13484 net.cpp:91] Creating Layer pool3/3x3_s2_pool3/3x3_s2_0_split
I0403 14:38:47.824113 13484 net.cpp:425] pool3/3x3_s2_pool3/3x3_s2_0_split <- pool3/3x3_s2
I0403 14:38:47.824132 13484 net.cpp:399] pool3/3x3_s2_pool3/3x3_s2_0_split -> pool3/3x3_s2_pool3/3x3_s2_0_split_0
I0403 14:38:47.824151 13484 net.cpp:399] pool3/3x3_s2_pool3/3x3_s2_0_split -> pool3/3x3_s2_pool3/3x3_s2_0_split_1
I0403 14:38:47.824170 13484 net.cpp:399] pool3/3x3_s2_pool3/3x3_s2_0_split -> pool3/3x3_s2_pool3/3x3_s2_0_split_2
I0403 14:38:47.824189 13484 net.cpp:399] pool3/3x3_s2_pool3/3x3_s2_0_split -> pool3/3x3_s2_pool3/3x3_s2_0_split_3
I0403 14:38:47.824265 13484 net.cpp:141] Setting up pool3/3x3_s2_pool3/3x3_s2_0_split
I0403 14:38:47.824287 13484 net.cpp:148] Top shape: 24 480 14 14 (2257920)
I0403 14:38:47.824302 13484 net.cpp:148] Top shape: 24 480 14 14 (2257920)
I0403 14:38:47.824317 13484 net.cpp:148] Top shape: 24 480 14 14 (2257920)
I0403 14:38:47.824332 13484 net.cpp:148] Top shape: 24 480 14 14 (2257920)
I0403 14:38:47.824345 13484 net.cpp:156] Memory required for data: 854397984
I0403 14:38:47.824359 13484 layer_factory.hpp:77] Creating layer inception_4a/1x1
I0403 14:38:47.824380 13484 net.cpp:91] Creating Layer inception_4a/1x1
I0403 14:38:47.824398 13484 net.cpp:425] inception_4a/1x1 <- pool3/3x3_s2_pool3/3x3_s2_0_split_0
I0403 14:38:47.824419 13484 net.cpp:399] inception_4a/1x1 -> inception_4a/1x1
I0403 14:38:47.825987 13484 net.cpp:141] Setting up inception_4a/1x1
I0403 14:38:47.826017 13484 net.cpp:148] Top shape: 24 192 14 14 (903168)
I0403 14:38:47.826033 13484 net.cpp:156] Memory required for data: 858010656
I0403 14:38:47.826051 13484 layer_factory.hpp:77] Creating layer inception_4a/relu_1x1
I0403 14:38:47.826068 13484 net.cpp:91] Creating Layer inception_4a/relu_1x1
I0403 14:38:47.826084 13484 net.cpp:425] inception_4a/relu_1x1 <- inception_4a/1x1
I0403 14:38:47.826100 13484 net.cpp:386] inception_4a/relu_1x1 -> inception_4a/1x1 (in-place)
I0403 14:38:47.826303 13484 net.cpp:141] Setting up inception_4a/relu_1x1
I0403 14:38:47.826328 13484 net.cpp:148] Top shape: 24 192 14 14 (903168)
I0403 14:38:47.826344 13484 net.cpp:156] Memory required for data: 861623328
I0403 14:38:47.826359 13484 layer_factory.hpp:77] Creating layer inception_4a/3x3_reduce
I0403 14:38:47.826380 13484 net.cpp:91] Creating Layer inception_4a/3x3_reduce
I0403 14:38:47.826396 13484 net.cpp:425] inception_4a/3x3_reduce <- pool3/3x3_s2_pool3/3x3_s2_0_split_1
I0403 14:38:47.826416 13484 net.cpp:399] inception_4a/3x3_reduce -> inception_4a/3x3_reduce
I0403 14:38:47.827679 13484 net.cpp:141] Setting up inception_4a/3x3_reduce
I0403 14:38:47.827707 13484 net.cpp:148] Top shape: 24 96 14 14 (451584)
I0403 14:38:47.827723 13484 net.cpp:156] Memory required for data: 863429664
I0403 14:38:47.827749 13484 layer_factory.hpp:77] Creating layer inception_4a/relu_3x3_reduce
I0403 14:38:47.827769 13484 net.cpp:91] Creating Layer inception_4a/relu_3x3_reduce
I0403 14:38:47.827783 13484 net.cpp:425] inception_4a/relu_3x3_reduce <- inception_4a/3x3_reduce
I0403 14:38:47.827801 13484 net.cpp:386] inception_4a/relu_3x3_reduce -> inception_4a/3x3_reduce (in-place)
I0403 14:38:47.827973 13484 net.cpp:141] Setting up inception_4a/relu_3x3_reduce
I0403 14:38:47.828001 13484 net.cpp:148] Top shape: 24 96 14 14 (451584)
I0403 14:38:47.828018 13484 net.cpp:156] Memory required for data: 865236000
I0403 14:38:47.828032 13484 layer_factory.hpp:77] Creating layer inception_4a/3x3
I0403 14:38:47.828054 13484 net.cpp:91] Creating Layer inception_4a/3x3
I0403 14:38:47.828071 13484 net.cpp:425] inception_4a/3x3 <- inception_4a/3x3_reduce
I0403 14:38:47.828089 13484 net.cpp:399] inception_4a/3x3 -> inception_4a/3x3
I0403 14:38:47.830750 13484 net.cpp:141] Setting up inception_4a/3x3
I0403 14:38:47.830780 13484 net.cpp:148] Top shape: 24 208 14 14 (978432)
I0403 14:38:47.830796 13484 net.cpp:156] Memory required for data: 869149728
I0403 14:38:47.830816 13484 layer_factory.hpp:77] Creating layer inception_4a/relu_3x3
I0403 14:38:47.830833 13484 net.cpp:91] Creating Layer inception_4a/relu_3x3
I0403 14:38:47.830849 13484 net.cpp:425] inception_4a/relu_3x3 <- inception_4a/3x3
I0403 14:38:47.830868 13484 net.cpp:386] inception_4a/relu_3x3 -> inception_4a/3x3 (in-place)
I0403 14:38:47.831146 13484 net.cpp:141] Setting up inception_4a/relu_3x3
I0403 14:38:47.831172 13484 net.cpp:148] Top shape: 24 208 14 14 (978432)
I0403 14:38:47.831187 13484 net.cpp:156] Memory required for data: 873063456
I0403 14:38:47.831202 13484 layer_factory.hpp:77] Creating layer inception_4a/5x5_reduce
I0403 14:38:47.831223 13484 net.cpp:91] Creating Layer inception_4a/5x5_reduce
I0403 14:38:47.831240 13484 net.cpp:425] inception_4a/5x5_reduce <- pool3/3x3_s2_pool3/3x3_s2_0_split_2
I0403 14:38:47.831262 13484 net.cpp:399] inception_4a/5x5_reduce -> inception_4a/5x5_reduce
I0403 14:38:47.832270 13484 net.cpp:141] Setting up inception_4a/5x5_reduce
I0403 14:38:47.832298 13484 net.cpp:148] Top shape: 24 16 14 14 (75264)
I0403 14:38:47.832312 13484 net.cpp:156] Memory required for data: 873364512
I0403 14:38:47.832330 13484 layer_factory.hpp:77] Creating layer inception_4a/relu_5x5_reduce
I0403 14:38:47.832348 13484 net.cpp:91] Creating Layer inception_4a/relu_5x5_reduce
I0403 14:38:47.832365 13484 net.cpp:425] inception_4a/relu_5x5_reduce <- inception_4a/5x5_reduce
I0403 14:38:47.832384 13484 net.cpp:386] inception_4a/relu_5x5_reduce -> inception_4a/5x5_reduce (in-place)
I0403 14:38:47.832557 13484 net.cpp:141] Setting up inception_4a/relu_5x5_reduce
I0403 14:38:47.832586 13484 net.cpp:148] Top shape: 24 16 14 14 (75264)
I0403 14:38:47.832600 13484 net.cpp:156] Memory required for data: 873665568
I0403 14:38:47.832615 13484 layer_factory.hpp:77] Creating layer inception_4a/5x5
I0403 14:38:47.832638 13484 net.cpp:91] Creating Layer inception_4a/5x5
I0403 14:38:47.832654 13484 net.cpp:425] inception_4a/5x5 <- inception_4a/5x5_reduce
I0403 14:38:47.832674 13484 net.cpp:399] inception_4a/5x5 -> inception_4a/5x5
I0403 14:38:47.833745 13484 net.cpp:141] Setting up inception_4a/5x5
I0403 14:38:47.833771 13484 net.cpp:148] Top shape: 24 48 14 14 (225792)
I0403 14:38:47.833787 13484 net.cpp:156] Memory required for data: 874568736
I0403 14:38:47.833804 13484 layer_factory.hpp:77] Creating layer inception_4a/relu_5x5
I0403 14:38:47.833824 13484 net.cpp:91] Creating Layer inception_4a/relu_5x5
I0403 14:38:47.833842 13484 net.cpp:425] inception_4a/relu_5x5 <- inception_4a/5x5
I0403 14:38:47.833858 13484 net.cpp:386] inception_4a/relu_5x5 -> inception_4a/5x5 (in-place)
I0403 14:38:47.834033 13484 net.cpp:141] Setting up inception_4a/relu_5x5
I0403 14:38:47.834060 13484 net.cpp:148] Top shape: 24 48 14 14 (225792)
I0403 14:38:47.834076 13484 net.cpp:156] Memory required for data: 875471904
I0403 14:38:47.834090 13484 layer_factory.hpp:77] Creating layer inception_4a/pool
I0403 14:38:47.834107 13484 net.cpp:91] Creating Layer inception_4a/pool
I0403 14:38:47.834123 13484 net.cpp:425] inception_4a/pool <- pool3/3x3_s2_pool3/3x3_s2_0_split_3
I0403 14:38:47.834142 13484 net.cpp:399] inception_4a/pool -> inception_4a/pool
I0403 14:38:47.834203 13484 net.cpp:141] Setting up inception_4a/pool
I0403 14:38:47.834225 13484 net.cpp:148] Top shape: 24 480 14 14 (2257920)
I0403 14:38:47.834240 13484 net.cpp:156] Memory required for data: 884503584
I0403 14:38:47.834254 13484 layer_factory.hpp:77] Creating layer inception_4a/pool_proj
I0403 14:38:47.834277 13484 net.cpp:91] Creating Layer inception_4a/pool_proj
I0403 14:38:47.834295 13484 net.cpp:425] inception_4a/pool_proj <- inception_4a/pool
I0403 14:38:47.834312 13484 net.cpp:399] inception_4a/pool_proj -> inception_4a/pool_proj
I0403 14:38:47.835489 13484 net.cpp:141] Setting up inception_4a/pool_proj
I0403 14:38:47.835517 13484 net.cpp:148] Top shape: 24 64 14 14 (301056)
I0403 14:38:47.835549 13484 net.cpp:156] Memory required for data: 885707808
I0403 14:38:47.835573 13484 layer_factory.hpp:77] Creating layer inception_4a/relu_pool_proj
I0403 14:38:47.835595 13484 net.cpp:91] Creating Layer inception_4a/relu_pool_proj
I0403 14:38:47.835611 13484 net.cpp:425] inception_4a/relu_pool_proj <- inception_4a/pool_proj
I0403 14:38:47.835628 13484 net.cpp:386] inception_4a/relu_pool_proj -> inception_4a/pool_proj (in-place)
I0403 14:38:47.835917 13484 net.cpp:141] Setting up inception_4a/relu_pool_proj
I0403 14:38:47.835942 13484 net.cpp:148] Top shape: 24 64 14 14 (301056)
I0403 14:38:47.835958 13484 net.cpp:156] Memory required for data: 886912032
I0403 14:38:47.835971 13484 layer_factory.hpp:77] Creating layer inception_4a/output
I0403 14:38:47.835990 13484 net.cpp:91] Creating Layer inception_4a/output
I0403 14:38:47.836006 13484 net.cpp:425] inception_4a/output <- inception_4a/1x1
I0403 14:38:47.836022 13484 net.cpp:425] inception_4a/output <- inception_4a/3x3
I0403 14:38:47.836038 13484 net.cpp:425] inception_4a/output <- inception_4a/5x5
I0403 14:38:47.836053 13484 net.cpp:425] inception_4a/output <- inception_4a/pool_proj
I0403 14:38:47.836069 13484 net.cpp:399] inception_4a/output -> inception_4a/output
I0403 14:38:47.836115 13484 net.cpp:141] Setting up inception_4a/output
I0403 14:38:47.836138 13484 net.cpp:148] Top shape: 24 512 14 14 (2408448)
I0403 14:38:47.836151 13484 net.cpp:156] Memory required for data: 896545824
I0403 14:38:47.836165 13484 layer_factory.hpp:77] Creating layer inception_4a/output_inception_4a/output_0_split
I0403 14:38:47.836182 13484 net.cpp:91] Creating Layer inception_4a/output_inception_4a/output_0_split
I0403 14:38:47.836197 13484 net.cpp:425] inception_4a/output_inception_4a/output_0_split <- inception_4a/output
I0403 14:38:47.836215 13484 net.cpp:399] inception_4a/output_inception_4a/output_0_split -> inception_4a/output_inception_4a/output_0_split_0
I0403 14:38:47.836236 13484 net.cpp:399] inception_4a/output_inception_4a/output_0_split -> inception_4a/output_inception_4a/output_0_split_1
I0403 14:38:47.836256 13484 net.cpp:399] inception_4a/output_inception_4a/output_0_split -> inception_4a/output_inception_4a/output_0_split_2
I0403 14:38:47.836278 13484 net.cpp:399] inception_4a/output_inception_4a/output_0_split -> inception_4a/output_inception_4a/output_0_split_3
I0403 14:38:47.836298 13484 net.cpp:399] inception_4a/output_inception_4a/output_0_split -> inception_4a/output_inception_4a/output_0_split_4
I0403 14:38:47.836390 13484 net.cpp:141] Setting up inception_4a/output_inception_4a/output_0_split
I0403 14:38:47.836412 13484 net.cpp:148] Top shape: 24 512 14 14 (2408448)
I0403 14:38:47.836428 13484 net.cpp:148] Top shape: 24 512 14 14 (2408448)
I0403 14:38:47.836443 13484 net.cpp:148] Top shape: 24 512 14 14 (2408448)
I0403 14:38:47.836458 13484 net.cpp:148] Top shape: 24 512 14 14 (2408448)
I0403 14:38:47.836473 13484 net.cpp:148] Top shape: 24 512 14 14 (2408448)
I0403 14:38:47.836486 13484 net.cpp:156] Memory required for data: 944714784
I0403 14:38:47.836500 13484 layer_factory.hpp:77] Creating layer loss1/ave_pool
I0403 14:38:47.836518 13484 net.cpp:91] Creating Layer loss1/ave_pool
I0403 14:38:47.836532 13484 net.cpp:425] loss1/ave_pool <- inception_4a/output_inception_4a/output_0_split_0
I0403 14:38:47.836551 13484 net.cpp:399] loss1/ave_pool -> loss1/ave_pool
I0403 14:38:47.836757 13484 net.cpp:141] Setting up loss1/ave_pool
I0403 14:38:47.836783 13484 net.cpp:148] Top shape: 24 512 4 4 (196608)
I0403 14:38:47.836798 13484 net.cpp:156] Memory required for data: 945501216
I0403 14:38:47.836814 13484 layer_factory.hpp:77] Creating layer loss1/conv
I0403 14:38:47.836838 13484 net.cpp:91] Creating Layer loss1/conv
I0403 14:38:47.836853 13484 net.cpp:425] loss1/conv <- loss1/ave_pool
I0403 14:38:47.836872 13484 net.cpp:399] loss1/conv -> loss1/conv
I0403 14:38:47.838261 13484 net.cpp:141] Setting up loss1/conv
I0403 14:38:47.838289 13484 net.cpp:148] Top shape: 24 128 4 4 (49152)
I0403 14:38:47.838304 13484 net.cpp:156] Memory required for data: 945697824
I0403 14:38:47.838336 13484 layer_factory.hpp:77] Creating layer loss1/relu_conv
I0403 14:38:47.838356 13484 net.cpp:91] Creating Layer loss1/relu_conv
I0403 14:38:47.838371 13484 net.cpp:425] loss1/relu_conv <- loss1/conv
I0403 14:38:47.838390 13484 net.cpp:386] loss1/relu_conv -> loss1/conv (in-place)
I0403 14:38:47.838672 13484 net.cpp:141] Setting up loss1/relu_conv
I0403 14:38:47.838698 13484 net.cpp:148] Top shape: 24 128 4 4 (49152)
I0403 14:38:47.838714 13484 net.cpp:156] Memory required for data: 945894432
I0403 14:38:47.838728 13484 layer_factory.hpp:77] Creating layer loss1/fc
I0403 14:38:47.838750 13484 net.cpp:91] Creating Layer loss1/fc
I0403 14:38:47.838768 13484 net.cpp:425] loss1/fc <- loss1/conv
I0403 14:38:47.838788 13484 net.cpp:399] loss1/fc -> loss1/fc
I0403 14:38:47.856389 13484 net.cpp:141] Setting up loss1/fc
I0403 14:38:47.856426 13484 net.cpp:148] Top shape: 24 1024 (24576)
I0403 14:38:47.856441 13484 net.cpp:156] Memory required for data: 945992736
I0403 14:38:47.856459 13484 layer_factory.hpp:77] Creating layer loss1/relu_fc
I0403 14:38:47.856479 13484 net.cpp:91] Creating Layer loss1/relu_fc
I0403 14:38:47.856497 13484 net.cpp:425] loss1/relu_fc <- loss1/fc
I0403 14:38:47.856513 13484 net.cpp:386] loss1/relu_fc -> loss1/fc (in-place)
I0403 14:38:47.856724 13484 net.cpp:141] Setting up loss1/relu_fc
I0403 14:38:47.856748 13484 net.cpp:148] Top shape: 24 1024 (24576)
I0403 14:38:47.856762 13484 net.cpp:156] Memory required for data: 946091040
I0403 14:38:47.856777 13484 layer_factory.hpp:77] Creating layer loss1/drop_fc
I0403 14:38:47.856803 13484 net.cpp:91] Creating Layer loss1/drop_fc
I0403 14:38:47.856820 13484 net.cpp:425] loss1/drop_fc <- loss1/fc
I0403 14:38:47.856840 13484 net.cpp:386] loss1/drop_fc -> loss1/fc (in-place)
I0403 14:38:47.856891 13484 net.cpp:141] Setting up loss1/drop_fc
I0403 14:38:47.856914 13484 net.cpp:148] Top shape: 24 1024 (24576)
I0403 14:38:47.856928 13484 net.cpp:156] Memory required for data: 946189344
I0403 14:38:47.856943 13484 layer_factory.hpp:77] Creating layer loss1/classifier_plantvillage
I0403 14:38:47.856966 13484 net.cpp:91] Creating Layer loss1/classifier_plantvillage
I0403 14:38:47.856981 13484 net.cpp:425] loss1/classifier_plantvillage <- loss1/fc
I0403 14:38:47.856998 13484 net.cpp:399] loss1/classifier_plantvillage -> loss1/classifier_plantvillage
I0403 14:38:47.857913 13484 net.cpp:141] Setting up loss1/classifier_plantvillage
I0403 14:38:47.857942 13484 net.cpp:148] Top shape: 24 38 (912)
I0403 14:38:47.857959 13484 net.cpp:156] Memory required for data: 946192992
I0403 14:38:47.857976 13484 layer_factory.hpp:77] Creating layer loss1/classifier_plantvillage_loss1/classifier_plantvillage_0_split
I0403 14:38:47.857995 13484 net.cpp:91] Creating Layer loss1/classifier_plantvillage_loss1/classifier_plantvillage_0_split
I0403 14:38:47.858009 13484 net.cpp:425] loss1/classifier_plantvillage_loss1/classifier_plantvillage_0_split <- loss1/classifier_plantvillage
I0403 14:38:47.858026 13484 net.cpp:399] loss1/classifier_plantvillage_loss1/classifier_plantvillage_0_split -> loss1/classifier_plantvillage_loss1/classifier_plantvillage_0_split_0
I0403 14:38:47.858048 13484 net.cpp:399] loss1/classifier_plantvillage_loss1/classifier_plantvillage_0_split -> loss1/classifier_plantvillage_loss1/classifier_plantvillage_0_split_1
I0403 14:38:47.858068 13484 net.cpp:399] loss1/classifier_plantvillage_loss1/classifier_plantvillage_0_split -> loss1/classifier_plantvillage_loss1/classifier_plantvillage_0_split_2
I0403 14:38:47.858134 13484 net.cpp:141] Setting up loss1/classifier_plantvillage_loss1/classifier_plantvillage_0_split
I0403 14:38:47.858156 13484 net.cpp:148] Top shape: 24 38 (912)
I0403 14:38:47.858172 13484 net.cpp:148] Top shape: 24 38 (912)
I0403 14:38:47.858186 13484 net.cpp:148] Top shape: 24 38 (912)
I0403 14:38:47.858201 13484 net.cpp:156] Memory required for data: 946203936
I0403 14:38:47.858214 13484 layer_factory.hpp:77] Creating layer inception_4b/1x1
I0403 14:38:47.858234 13484 net.cpp:91] Creating Layer inception_4b/1x1
I0403 14:38:47.858284 13484 net.cpp:425] inception_4b/1x1 <- inception_4a/output_inception_4a/output_0_split_1
I0403 14:38:47.858306 13484 net.cpp:399] inception_4b/1x1 -> inception_4b/1x1
I0403 14:38:47.859984 13484 net.cpp:141] Setting up inception_4b/1x1
I0403 14:38:47.860013 13484 net.cpp:148] Top shape: 24 160 14 14 (752640)
I0403 14:38:47.860028 13484 net.cpp:156] Memory required for data: 949214496
I0403 14:38:47.860046 13484 layer_factory.hpp:77] Creating layer inception_4b/relu_1x1
I0403 14:38:47.860064 13484 net.cpp:91] Creating Layer inception_4b/relu_1x1
I0403 14:38:47.860080 13484 net.cpp:425] inception_4b/relu_1x1 <- inception_4b/1x1
I0403 14:38:47.860100 13484 net.cpp:386] inception_4b/relu_1x1 -> inception_4b/1x1 (in-place)
I0403 14:38:47.860277 13484 net.cpp:141] Setting up inception_4b/relu_1x1
I0403 14:38:47.860302 13484 net.cpp:148] Top shape: 24 160 14 14 (752640)
I0403 14:38:47.860316 13484 net.cpp:156] Memory required for data: 952225056
I0403 14:38:47.860332 13484 layer_factory.hpp:77] Creating layer inception_4b/3x3_reduce
I0403 14:38:47.860353 13484 net.cpp:91] Creating Layer inception_4b/3x3_reduce
I0403 14:38:47.860369 13484 net.cpp:425] inception_4b/3x3_reduce <- inception_4a/output_inception_4a/output_0_split_2
I0403 14:38:47.860390 13484 net.cpp:399] inception_4b/3x3_reduce -> inception_4b/3x3_reduce
I0403 14:38:47.861810 13484 net.cpp:141] Setting up inception_4b/3x3_reduce
I0403 14:38:47.861837 13484 net.cpp:148] Top shape: 24 112 14 14 (526848)
I0403 14:38:47.861853 13484 net.cpp:156] Memory required for data: 954332448
I0403 14:38:47.861871 13484 layer_factory.hpp:77] Creating layer inception_4b/relu_3x3_reduce
I0403 14:38:47.861893 13484 net.cpp:91] Creating Layer inception_4b/relu_3x3_reduce
I0403 14:38:47.861910 13484 net.cpp:425] inception_4b/relu_3x3_reduce <- inception_4b/3x3_reduce
I0403 14:38:47.861927 13484 net.cpp:386] inception_4b/relu_3x3_reduce -> inception_4b/3x3_reduce (in-place)
I0403 14:38:47.862210 13484 net.cpp:141] Setting up inception_4b/relu_3x3_reduce
I0403 14:38:47.862236 13484 net.cpp:148] Top shape: 24 112 14 14 (526848)
I0403 14:38:47.862249 13484 net.cpp:156] Memory required for data: 956439840
I0403 14:38:47.862267 13484 layer_factory.hpp:77] Creating layer inception_4b/3x3
I0403 14:38:47.862288 13484 net.cpp:91] Creating Layer inception_4b/3x3
I0403 14:38:47.862305 13484 net.cpp:425] inception_4b/3x3 <- inception_4b/3x3_reduce
I0403 14:38:47.862326 13484 net.cpp:399] inception_4b/3x3 -> inception_4b/3x3
I0403 14:38:47.865377 13484 net.cpp:141] Setting up inception_4b/3x3
I0403 14:38:47.865409 13484 net.cpp:148] Top shape: 24 224 14 14 (1053696)
I0403 14:38:47.865427 13484 net.cpp:156] Memory required for data: 960654624
I0403 14:38:47.865445 13484 layer_factory.hpp:77] Creating layer inception_4b/relu_3x3
I0403 14:38:47.865463 13484 net.cpp:91] Creating Layer inception_4b/relu_3x3
I0403 14:38:47.865480 13484 net.cpp:425] inception_4b/relu_3x3 <- inception_4b/3x3
I0403 14:38:47.865497 13484 net.cpp:386] inception_4b/relu_3x3 -> inception_4b/3x3 (in-place)
I0403 14:38:47.865700 13484 net.cpp:141] Setting up inception_4b/relu_3x3
I0403 14:38:47.865725 13484 net.cpp:148] Top shape: 24 224 14 14 (1053696)
I0403 14:38:47.865741 13484 net.cpp:156] Memory required for data: 964869408
I0403 14:38:47.865754 13484 layer_factory.hpp:77] Creating layer inception_4b/5x5_reduce
I0403 14:38:47.865777 13484 net.cpp:91] Creating Layer inception_4b/5x5_reduce
I0403 14:38:47.865795 13484 net.cpp:425] inception_4b/5x5_reduce <- inception_4a/output_inception_4a/output_0_split_3
I0403 14:38:47.865815 13484 net.cpp:399] inception_4b/5x5_reduce -> inception_4b/5x5_reduce
I0403 14:38:47.866906 13484 net.cpp:141] Setting up inception_4b/5x5_reduce
I0403 14:38:47.866933 13484 net.cpp:148] Top shape: 24 24 14 14 (112896)
I0403 14:38:47.866950 13484 net.cpp:156] Memory required for data: 965320992
I0403 14:38:47.866967 13484 layer_factory.hpp:77] Creating layer inception_4b/relu_5x5_reduce
I0403 14:38:47.866987 13484 net.cpp:91] Creating Layer inception_4b/relu_5x5_reduce
I0403 14:38:47.867018 13484 net.cpp:425] inception_4b/relu_5x5_reduce <- inception_4b/5x5_reduce
I0403 14:38:47.867038 13484 net.cpp:386] inception_4b/relu_5x5_reduce -> inception_4b/5x5_reduce (in-place)
I0403 14:38:47.867218 13484 net.cpp:141] Setting up inception_4b/relu_5x5_reduce
I0403 14:38:47.867241 13484 net.cpp:148] Top shape: 24 24 14 14 (112896)
I0403 14:38:47.867256 13484 net.cpp:156] Memory required for data: 965772576
I0403 14:38:47.867270 13484 layer_factory.hpp:77] Creating layer inception_4b/5x5
I0403 14:38:47.867295 13484 net.cpp:91] Creating Layer inception_4b/5x5
I0403 14:38:47.867311 13484 net.cpp:425] inception_4b/5x5 <- inception_4b/5x5_reduce
I0403 14:38:47.867329 13484 net.cpp:399] inception_4b/5x5 -> inception_4b/5x5
I0403 14:38:47.868556 13484 net.cpp:141] Setting up inception_4b/5x5
I0403 14:38:47.868587 13484 net.cpp:148] Top shape: 24 64 14 14 (301056)
I0403 14:38:47.868602 13484 net.cpp:156] Memory required for data: 966976800
I0403 14:38:47.868619 13484 layer_factory.hpp:77] Creating layer inception_4b/relu_5x5
I0403 14:38:47.868638 13484 net.cpp:91] Creating Layer inception_4b/relu_5x5
I0403 14:38:47.868652 13484 net.cpp:425] inception_4b/relu_5x5 <- inception_4b/5x5
I0403 14:38:47.868671 13484 net.cpp:386] inception_4b/relu_5x5 -> inception_4b/5x5 (in-place)
I0403 14:38:47.868962 13484 net.cpp:141] Setting up inception_4b/relu_5x5
I0403 14:38:47.868988 13484 net.cpp:148] Top shape: 24 64 14 14 (301056)
I0403 14:38:47.869002 13484 net.cpp:156] Memory required for data: 968181024
I0403 14:38:47.869016 13484 layer_factory.hpp:77] Creating layer inception_4b/pool
I0403 14:38:47.869035 13484 net.cpp:91] Creating Layer inception_4b/pool
I0403 14:38:47.869050 13484 net.cpp:425] inception_4b/pool <- inception_4a/output_inception_4a/output_0_split_4
I0403 14:38:47.869071 13484 net.cpp:399] inception_4b/pool -> inception_4b/pool
I0403 14:38:47.869137 13484 net.cpp:141] Setting up inception_4b/pool
I0403 14:38:47.869159 13484 net.cpp:148] Top shape: 24 512 14 14 (2408448)
I0403 14:38:47.869174 13484 net.cpp:156] Memory required for data: 977814816
I0403 14:38:47.869189 13484 layer_factory.hpp:77] Creating layer inception_4b/pool_proj
I0403 14:38:47.869213 13484 net.cpp:91] Creating Layer inception_4b/pool_proj
I0403 14:38:47.869230 13484 net.cpp:425] inception_4b/pool_proj <- inception_4b/pool
I0403 14:38:47.869249 13484 net.cpp:399] inception_4b/pool_proj -> inception_4b/pool_proj
I0403 14:38:47.870498 13484 net.cpp:141] Setting up inception_4b/pool_proj
I0403 14:38:47.870527 13484 net.cpp:148] Top shape: 24 64 14 14 (301056)
I0403 14:38:47.870544 13484 net.cpp:156] Memory required for data: 979019040
I0403 14:38:47.870563 13484 layer_factory.hpp:77] Creating layer inception_4b/relu_pool_proj
I0403 14:38:47.870589 13484 net.cpp:91] Creating Layer inception_4b/relu_pool_proj
I0403 14:38:47.870607 13484 net.cpp:425] inception_4b/relu_pool_proj <- inception_4b/pool_proj
I0403 14:38:47.870625 13484 net.cpp:386] inception_4b/relu_pool_proj -> inception_4b/pool_proj (in-place)
I0403 14:38:47.870810 13484 net.cpp:141] Setting up inception_4b/relu_pool_proj
I0403 14:38:47.870837 13484 net.cpp:148] Top shape: 24 64 14 14 (301056)
I0403 14:38:47.870857 13484 net.cpp:156] Memory required for data: 980223264
I0403 14:38:47.870872 13484 layer_factory.hpp:77] Creating layer inception_4b/output
I0403 14:38:47.870890 13484 net.cpp:91] Creating Layer inception_4b/output
I0403 14:38:47.870905 13484 net.cpp:425] inception_4b/output <- inception_4b/1x1
I0403 14:38:47.870923 13484 net.cpp:425] inception_4b/output <- inception_4b/3x3
I0403 14:38:47.870939 13484 net.cpp:425] inception_4b/output <- inception_4b/5x5
I0403 14:38:47.870954 13484 net.cpp:425] inception_4b/output <- inception_4b/pool_proj
I0403 14:38:47.870971 13484 net.cpp:399] inception_4b/output -> inception_4b/output
I0403 14:38:47.871021 13484 net.cpp:141] Setting up inception_4b/output
I0403 14:38:47.871044 13484 net.cpp:148] Top shape: 24 512 14 14 (2408448)
I0403 14:38:47.871059 13484 net.cpp:156] Memory required for data: 989857056
I0403 14:38:47.871089 13484 layer_factory.hpp:77] Creating layer inception_4b/output_inception_4b/output_0_split
I0403 14:38:47.871107 13484 net.cpp:91] Creating Layer inception_4b/output_inception_4b/output_0_split
I0403 14:38:47.871124 13484 net.cpp:425] inception_4b/output_inception_4b/output_0_split <- inception_4b/output
I0403 14:38:47.871143 13484 net.cpp:399] inception_4b/output_inception_4b/output_0_split -> inception_4b/output_inception_4b/output_0_split_0
I0403 14:38:47.871165 13484 net.cpp:399] inception_4b/output_inception_4b/output_0_split -> inception_4b/output_inception_4b/output_0_split_1
I0403 14:38:47.871186 13484 net.cpp:399] inception_4b/output_inception_4b/output_0_split -> inception_4b/output_inception_4b/output_0_split_2
I0403 14:38:47.871206 13484 net.cpp:399] inception_4b/output_inception_4b/output_0_split -> inception_4b/output_inception_4b/output_0_split_3
I0403 14:38:47.871292 13484 net.cpp:141] Setting up inception_4b/output_inception_4b/output_0_split
I0403 14:38:47.871317 13484 net.cpp:148] Top shape: 24 512 14 14 (2408448)
I0403 14:38:47.871333 13484 net.cpp:148] Top shape: 24 512 14 14 (2408448)
I0403 14:38:47.871350 13484 net.cpp:148] Top shape: 24 512 14 14 (2408448)
I0403 14:38:47.871363 13484 net.cpp:148] Top shape: 24 512 14 14 (2408448)
I0403 14:38:47.871377 13484 net.cpp:156] Memory required for data: 1028392224
I0403 14:38:47.871392 13484 layer_factory.hpp:77] Creating layer inception_4c/1x1
I0403 14:38:47.871414 13484 net.cpp:91] Creating Layer inception_4c/1x1
I0403 14:38:47.871431 13484 net.cpp:425] inception_4c/1x1 <- inception_4b/output_inception_4b/output_0_split_0
I0403 14:38:47.871454 13484 net.cpp:399] inception_4c/1x1 -> inception_4c/1x1
I0403 14:38:47.872934 13484 net.cpp:141] Setting up inception_4c/1x1
I0403 14:38:47.872967 13484 net.cpp:148] Top shape: 24 128 14 14 (602112)
I0403 14:38:47.872984 13484 net.cpp:156] Memory required for data: 1030800672
I0403 14:38:47.873003 13484 layer_factory.hpp:77] Creating layer inception_4c/relu_1x1
I0403 14:38:47.873021 13484 net.cpp:91] Creating Layer inception_4c/relu_1x1
I0403 14:38:47.873039 13484 net.cpp:425] inception_4c/relu_1x1 <- inception_4c/1x1
I0403 14:38:47.873056 13484 net.cpp:386] inception_4c/relu_1x1 -> inception_4c/1x1 (in-place)
I0403 14:38:47.873241 13484 net.cpp:141] Setting up inception_4c/relu_1x1
I0403 14:38:47.873271 13484 net.cpp:148] Top shape: 24 128 14 14 (602112)
I0403 14:38:47.873286 13484 net.cpp:156] Memory required for data: 1033209120
I0403 14:38:47.873301 13484 layer_factory.hpp:77] Creating layer inception_4c/3x3_reduce
I0403 14:38:47.873323 13484 net.cpp:91] Creating Layer inception_4c/3x3_reduce
I0403 14:38:47.873342 13484 net.cpp:425] inception_4c/3x3_reduce <- inception_4b/output_inception_4b/output_0_split_1
I0403 14:38:47.873363 13484 net.cpp:399] inception_4c/3x3_reduce -> inception_4c/3x3_reduce
I0403 14:38:47.875363 13484 net.cpp:141] Setting up inception_4c/3x3_reduce
I0403 14:38:47.875393 13484 net.cpp:148] Top shape: 24 128 14 14 (602112)
I0403 14:38:47.875411 13484 net.cpp:156] Memory required for data: 1035617568
I0403 14:38:47.875429 13484 layer_factory.hpp:77] Creating layer inception_4c/relu_3x3_reduce
I0403 14:38:47.875447 13484 net.cpp:91] Creating Layer inception_4c/relu_3x3_reduce
I0403 14:38:47.875464 13484 net.cpp:425] inception_4c/relu_3x3_reduce <- inception_4c/3x3_reduce
I0403 14:38:47.875484 13484 net.cpp:386] inception_4c/relu_3x3_reduce -> inception_4c/3x3_reduce (in-place)
I0403 14:38:47.875784 13484 net.cpp:141] Setting up inception_4c/relu_3x3_reduce
I0403 14:38:47.875811 13484 net.cpp:148] Top shape: 24 128 14 14 (602112)
I0403 14:38:47.875828 13484 net.cpp:156] Memory required for data: 1038026016
I0403 14:38:47.875841 13484 layer_factory.hpp:77] Creating layer inception_4c/3x3
I0403 14:38:47.875865 13484 net.cpp:91] Creating Layer inception_4c/3x3
I0403 14:38:47.875883 13484 net.cpp:425] inception_4c/3x3 <- inception_4c/3x3_reduce
I0403 14:38:47.875905 13484 net.cpp:399] inception_4c/3x3 -> inception_4c/3x3
I0403 14:38:47.879613 13484 net.cpp:141] Setting up inception_4c/3x3
I0403 14:38:47.879658 13484 net.cpp:148] Top shape: 24 256 14 14 (1204224)
I0403 14:38:47.879675 13484 net.cpp:156] Memory required for data: 1042842912
I0403 14:38:47.879709 13484 layer_factory.hpp:77] Creating layer inception_4c/relu_3x3
I0403 14:38:47.879729 13484 net.cpp:91] Creating Layer inception_4c/relu_3x3
I0403 14:38:47.879746 13484 net.cpp:425] inception_4c/relu_3x3 <- inception_4c/3x3
I0403 14:38:47.879765 13484 net.cpp:386] inception_4c/relu_3x3 -> inception_4c/3x3 (in-place)
I0403 14:38:47.879954 13484 net.cpp:141] Setting up inception_4c/relu_3x3
I0403 14:38:47.879981 13484 net.cpp:148] Top shape: 24 256 14 14 (1204224)
I0403 14:38:47.879995 13484 net.cpp:156] Memory required for data: 1047659808
I0403 14:38:47.880010 13484 layer_factory.hpp:77] Creating layer inception_4c/5x5_reduce
I0403 14:38:47.880033 13484 net.cpp:91] Creating Layer inception_4c/5x5_reduce
I0403 14:38:47.880049 13484 net.cpp:425] inception_4c/5x5_reduce <- inception_4b/output_inception_4b/output_0_split_2
I0403 14:38:47.880071 13484 net.cpp:399] inception_4c/5x5_reduce -> inception_4c/5x5_reduce
I0403 14:38:47.881211 13484 net.cpp:141] Setting up inception_4c/5x5_reduce
I0403 14:38:47.881240 13484 net.cpp:148] Top shape: 24 24 14 14 (112896)
I0403 14:38:47.881256 13484 net.cpp:156] Memory required for data: 1048111392
I0403 14:38:47.881274 13484 layer_factory.hpp:77] Creating layer inception_4c/relu_5x5_reduce
I0403 14:38:47.881295 13484 net.cpp:91] Creating Layer inception_4c/relu_5x5_reduce
I0403 14:38:47.881312 13484 net.cpp:425] inception_4c/relu_5x5_reduce <- inception_4c/5x5_reduce
I0403 14:38:47.881330 13484 net.cpp:386] inception_4c/relu_5x5_reduce -> inception_4c/5x5_reduce (in-place)
I0403 14:38:47.881520 13484 net.cpp:141] Setting up inception_4c/relu_5x5_reduce
I0403 14:38:47.881544 13484 net.cpp:148] Top shape: 24 24 14 14 (112896)
I0403 14:38:47.881559 13484 net.cpp:156] Memory required for data: 1048562976
I0403 14:38:47.881579 13484 layer_factory.hpp:77] Creating layer inception_4c/5x5
I0403 14:38:47.881603 13484 net.cpp:91] Creating Layer inception_4c/5x5
I0403 14:38:47.881623 13484 net.cpp:425] inception_4c/5x5 <- inception_4c/5x5_reduce
I0403 14:38:47.881641 13484 net.cpp:399] inception_4c/5x5 -> inception_4c/5x5
I0403 14:38:47.882926 13484 net.cpp:141] Setting up inception_4c/5x5
I0403 14:38:47.882956 13484 net.cpp:148] Top shape: 24 64 14 14 (301056)
I0403 14:38:47.882971 13484 net.cpp:156] Memory required for data: 1049767200
I0403 14:38:47.882988 13484 layer_factory.hpp:77] Creating layer inception_4c/relu_5x5
I0403 14:38:47.883009 13484 net.cpp:91] Creating Layer inception_4c/relu_5x5
I0403 14:38:47.883026 13484 net.cpp:425] inception_4c/relu_5x5 <- inception_4c/5x5
I0403 14:38:47.883044 13484 net.cpp:386] inception_4c/relu_5x5 -> inception_4c/5x5 (in-place)
I0403 14:38:47.883344 13484 net.cpp:141] Setting up inception_4c/relu_5x5
I0403 14:38:47.883371 13484 net.cpp:148] Top shape: 24 64 14 14 (301056)
I0403 14:38:47.883385 13484 net.cpp:156] Memory required for data: 1050971424
I0403 14:38:47.883401 13484 layer_factory.hpp:77] Creating layer inception_4c/pool
I0403 14:38:47.883421 13484 net.cpp:91] Creating Layer inception_4c/pool
I0403 14:38:47.883437 13484 net.cpp:425] inception_4c/pool <- inception_4b/output_inception_4b/output_0_split_3
I0403 14:38:47.883456 13484 net.cpp:399] inception_4c/pool -> inception_4c/pool
I0403 14:38:47.883527 13484 net.cpp:141] Setting up inception_4c/pool
I0403 14:38:47.883551 13484 net.cpp:148] Top shape: 24 512 14 14 (2408448)
I0403 14:38:47.883566 13484 net.cpp:156] Memory required for data: 1060605216
I0403 14:38:47.883586 13484 layer_factory.hpp:77] Creating layer inception_4c/pool_proj
I0403 14:38:47.883610 13484 net.cpp:91] Creating Layer inception_4c/pool_proj
I0403 14:38:47.883626 13484 net.cpp:425] inception_4c/pool_proj <- inception_4c/pool
I0403 14:38:47.883646 13484 net.cpp:399] inception_4c/pool_proj -> inception_4c/pool_proj
I0403 14:38:47.884913 13484 net.cpp:141] Setting up inception_4c/pool_proj
I0403 14:38:47.884941 13484 net.cpp:148] Top shape: 24 64 14 14 (301056)
I0403 14:38:47.884971 13484 net.cpp:156] Memory required for data: 1061809440
I0403 14:38:47.884990 13484 layer_factory.hpp:77] Creating layer inception_4c/relu_pool_proj
I0403 14:38:47.885009 13484 net.cpp:91] Creating Layer inception_4c/relu_pool_proj
I0403 14:38:47.885025 13484 net.cpp:425] inception_4c/relu_pool_proj <- inception_4c/pool_proj
I0403 14:38:47.885045 13484 net.cpp:386] inception_4c/relu_pool_proj -> inception_4c/pool_proj (in-place)
I0403 14:38:47.885228 13484 net.cpp:141] Setting up inception_4c/relu_pool_proj
I0403 14:38:47.885253 13484 net.cpp:148] Top shape: 24 64 14 14 (301056)
I0403 14:38:47.885268 13484 net.cpp:156] Memory required for data: 1063013664
I0403 14:38:47.885283 13484 layer_factory.hpp:77] Creating layer inception_4c/output
I0403 14:38:47.885303 13484 net.cpp:91] Creating Layer inception_4c/output
I0403 14:38:47.885318 13484 net.cpp:425] inception_4c/output <- inception_4c/1x1
I0403 14:38:47.885345 13484 net.cpp:425] inception_4c/output <- inception_4c/3x3
I0403 14:38:47.885361 13484 net.cpp:425] inception_4c/output <- inception_4c/5x5
I0403 14:38:47.885377 13484 net.cpp:425] inception_4c/output <- inception_4c/pool_proj
I0403 14:38:47.885395 13484 net.cpp:399] inception_4c/output -> inception_4c/output
I0403 14:38:47.885443 13484 net.cpp:141] Setting up inception_4c/output
I0403 14:38:47.885468 13484 net.cpp:148] Top shape: 24 512 14 14 (2408448)
I0403 14:38:47.885483 13484 net.cpp:156] Memory required for data: 1072647456
I0403 14:38:47.885496 13484 layer_factory.hpp:77] Creating layer inception_4c/output_inception_4c/output_0_split
I0403 14:38:47.885514 13484 net.cpp:91] Creating Layer inception_4c/output_inception_4c/output_0_split
I0403 14:38:47.885529 13484 net.cpp:425] inception_4c/output_inception_4c/output_0_split <- inception_4c/output
I0403 14:38:47.885550 13484 net.cpp:399] inception_4c/output_inception_4c/output_0_split -> inception_4c/output_inception_4c/output_0_split_0
I0403 14:38:47.885574 13484 net.cpp:399] inception_4c/output_inception_4c/output_0_split -> inception_4c/output_inception_4c/output_0_split_1
I0403 14:38:47.885596 13484 net.cpp:399] inception_4c/output_inception_4c/output_0_split -> inception_4c/output_inception_4c/output_0_split_2
I0403 14:38:47.885627 13484 net.cpp:399] inception_4c/output_inception_4c/output_0_split -> inception_4c/output_inception_4c/output_0_split_3
I0403 14:38:47.885713 13484 net.cpp:141] Setting up inception_4c/output_inception_4c/output_0_split
I0403 14:38:47.885735 13484 net.cpp:148] Top shape: 24 512 14 14 (2408448)
I0403 14:38:47.885751 13484 net.cpp:148] Top shape: 24 512 14 14 (2408448)
I0403 14:38:47.885766 13484 net.cpp:148] Top shape: 24 512 14 14 (2408448)
I0403 14:38:47.885782 13484 net.cpp:148] Top shape: 24 512 14 14 (2408448)
I0403 14:38:47.885795 13484 net.cpp:156] Memory required for data: 1111182624
I0403 14:38:47.885809 13484 layer_factory.hpp:77] Creating layer inception_4d/1x1
I0403 14:38:47.885833 13484 net.cpp:91] Creating Layer inception_4d/1x1
I0403 14:38:47.885849 13484 net.cpp:425] inception_4d/1x1 <- inception_4c/output_inception_4c/output_0_split_0
I0403 14:38:47.885871 13484 net.cpp:399] inception_4d/1x1 -> inception_4d/1x1
I0403 14:38:47.887303 13484 net.cpp:141] Setting up inception_4d/1x1
I0403 14:38:47.887333 13484 net.cpp:148] Top shape: 24 112 14 14 (526848)
I0403 14:38:47.887349 13484 net.cpp:156] Memory required for data: 1113290016
I0403 14:38:47.887367 13484 layer_factory.hpp:77] Creating layer inception_4d/relu_1x1
I0403 14:38:47.887385 13484 net.cpp:91] Creating Layer inception_4d/relu_1x1
I0403 14:38:47.887401 13484 net.cpp:425] inception_4d/relu_1x1 <- inception_4d/1x1
I0403 14:38:47.887420 13484 net.cpp:386] inception_4d/relu_1x1 -> inception_4d/1x1 (in-place)
I0403 14:38:47.887617 13484 net.cpp:141] Setting up inception_4d/relu_1x1
I0403 14:38:47.887642 13484 net.cpp:148] Top shape: 24 112 14 14 (526848)
I0403 14:38:47.887657 13484 net.cpp:156] Memory required for data: 1115397408
I0403 14:38:47.887671 13484 layer_factory.hpp:77] Creating layer inception_4d/3x3_reduce
I0403 14:38:47.887708 13484 net.cpp:91] Creating Layer inception_4d/3x3_reduce
I0403 14:38:47.887727 13484 net.cpp:425] inception_4d/3x3_reduce <- inception_4c/output_inception_4c/output_0_split_1
I0403 14:38:47.887748 13484 net.cpp:399] inception_4d/3x3_reduce -> inception_4d/3x3_reduce
I0403 14:38:47.889259 13484 net.cpp:141] Setting up inception_4d/3x3_reduce
I0403 14:38:47.889286 13484 net.cpp:148] Top shape: 24 144 14 14 (677376)
I0403 14:38:47.889302 13484 net.cpp:156] Memory required for data: 1118106912
I0403 14:38:47.889318 13484 layer_factory.hpp:77] Creating layer inception_4d/relu_3x3_reduce
I0403 14:38:47.889339 13484 net.cpp:91] Creating Layer inception_4d/relu_3x3_reduce
I0403 14:38:47.889355 13484 net.cpp:425] inception_4d/relu_3x3_reduce <- inception_4d/3x3_reduce
I0403 14:38:47.889371 13484 net.cpp:386] inception_4d/relu_3x3_reduce -> inception_4d/3x3_reduce (in-place)
I0403 14:38:47.889660 13484 net.cpp:141] Setting up inception_4d/relu_3x3_reduce
I0403 14:38:47.889685 13484 net.cpp:148] Top shape: 24 144 14 14 (677376)
I0403 14:38:47.889700 13484 net.cpp:156] Memory required for data: 1120816416
I0403 14:38:47.889715 13484 layer_factory.hpp:77] Creating layer inception_4d/3x3
I0403 14:38:47.889739 13484 net.cpp:91] Creating Layer inception_4d/3x3
I0403 14:38:47.889755 13484 net.cpp:425] inception_4d/3x3 <- inception_4d/3x3_reduce
I0403 14:38:47.889772 13484 net.cpp:399] inception_4d/3x3 -> inception_4d/3x3
I0403 14:38:47.894060 13484 net.cpp:141] Setting up inception_4d/3x3
I0403 14:38:47.894090 13484 net.cpp:148] Top shape: 24 288 14 14 (1354752)
I0403 14:38:47.894106 13484 net.cpp:156] Memory required for data: 1126235424
I0403 14:38:47.894124 13484 layer_factory.hpp:77] Creating layer inception_4d/relu_3x3
I0403 14:38:47.894140 13484 net.cpp:91] Creating Layer inception_4d/relu_3x3
I0403 14:38:47.894155 13484 net.cpp:425] inception_4d/relu_3x3 <- inception_4d/3x3
I0403 14:38:47.894175 13484 net.cpp:386] inception_4d/relu_3x3 -> inception_4d/3x3 (in-place)
I0403 14:38:47.894352 13484 net.cpp:141] Setting up inception_4d/relu_3x3
I0403 14:38:47.894376 13484 net.cpp:148] Top shape: 24 288 14 14 (1354752)
I0403 14:38:47.894390 13484 net.cpp:156] Memory required for data: 1131654432
I0403 14:38:47.894404 13484 layer_factory.hpp:77] Creating layer inception_4d/5x5_reduce
I0403 14:38:47.894425 13484 net.cpp:91] Creating Layer inception_4d/5x5_reduce
I0403 14:38:47.894443 13484 net.cpp:425] inception_4d/5x5_reduce <- inception_4c/output_inception_4c/output_0_split_2
I0403 14:38:47.894462 13484 net.cpp:399] inception_4d/5x5_reduce -> inception_4d/5x5_reduce
I0403 14:38:47.895612 13484 net.cpp:141] Setting up inception_4d/5x5_reduce
I0403 14:38:47.895639 13484 net.cpp:148] Top shape: 24 32 14 14 (150528)
I0403 14:38:47.895654 13484 net.cpp:156] Memory required for data: 1132256544
I0403 14:38:47.895673 13484 layer_factory.hpp:77] Creating layer inception_4d/relu_5x5_reduce
I0403 14:38:47.895689 13484 net.cpp:91] Creating Layer inception_4d/relu_5x5_reduce
I0403 14:38:47.895705 13484 net.cpp:425] inception_4d/relu_5x5_reduce <- inception_4d/5x5_reduce
I0403 14:38:47.895725 13484 net.cpp:386] inception_4d/relu_5x5_reduce -> inception_4d/5x5_reduce (in-place)
I0403 14:38:47.895913 13484 net.cpp:141] Setting up inception_4d/relu_5x5_reduce
I0403 14:38:47.895937 13484 net.cpp:148] Top shape: 24 32 14 14 (150528)
I0403 14:38:47.895952 13484 net.cpp:156] Memory required for data: 1132858656
I0403 14:38:47.895967 13484 layer_factory.hpp:77] Creating layer inception_4d/5x5
I0403 14:38:47.895987 13484 net.cpp:91] Creating Layer inception_4d/5x5
I0403 14:38:47.896004 13484 net.cpp:425] inception_4d/5x5 <- inception_4d/5x5_reduce
I0403 14:38:47.896024 13484 net.cpp:399] inception_4d/5x5 -> inception_4d/5x5
I0403 14:38:47.897474 13484 net.cpp:141] Setting up inception_4d/5x5
I0403 14:38:47.897500 13484 net.cpp:148] Top shape: 24 64 14 14 (301056)
I0403 14:38:47.897516 13484 net.cpp:156] Memory required for data: 1134062880
I0403 14:38:47.897533 13484 layer_factory.hpp:77] Creating layer inception_4d/relu_5x5
I0403 14:38:47.897572 13484 net.cpp:91] Creating Layer inception_4d/relu_5x5
I0403 14:38:47.897590 13484 net.cpp:425] inception_4d/relu_5x5 <- inception_4d/5x5
I0403 14:38:47.897606 13484 net.cpp:386] inception_4d/relu_5x5 -> inception_4d/5x5 (in-place)
I0403 14:38:47.897914 13484 net.cpp:141] Setting up inception_4d/relu_5x5
I0403 14:38:47.897940 13484 net.cpp:148] Top shape: 24 64 14 14 (301056)
I0403 14:38:47.897956 13484 net.cpp:156] Memory required for data: 1135267104
I0403 14:38:47.897971 13484 layer_factory.hpp:77] Creating layer inception_4d/pool
I0403 14:38:47.897991 13484 net.cpp:91] Creating Layer inception_4d/pool
I0403 14:38:47.898010 13484 net.cpp:425] inception_4d/pool <- inception_4c/output_inception_4c/output_0_split_3
I0403 14:38:47.898027 13484 net.cpp:399] inception_4d/pool -> inception_4d/pool
I0403 14:38:47.898094 13484 net.cpp:141] Setting up inception_4d/pool
I0403 14:38:47.898118 13484 net.cpp:148] Top shape: 24 512 14 14 (2408448)
I0403 14:38:47.898133 13484 net.cpp:156] Memory required for data: 1144900896
I0403 14:38:47.898147 13484 layer_factory.hpp:77] Creating layer inception_4d/pool_proj
I0403 14:38:47.898169 13484 net.cpp:91] Creating Layer inception_4d/pool_proj
I0403 14:38:47.898186 13484 net.cpp:425] inception_4d/pool_proj <- inception_4d/pool
I0403 14:38:47.898206 13484 net.cpp:399] inception_4d/pool_proj -> inception_4d/pool_proj
I0403 14:38:47.900056 13484 net.cpp:141] Setting up inception_4d/pool_proj
I0403 14:38:47.900086 13484 net.cpp:148] Top shape: 24 64 14 14 (301056)
I0403 14:38:47.900102 13484 net.cpp:156] Memory required for data: 1146105120
I0403 14:38:47.900120 13484 layer_factory.hpp:77] Creating layer inception_4d/relu_pool_proj
I0403 14:38:47.900138 13484 net.cpp:91] Creating Layer inception_4d/relu_pool_proj
I0403 14:38:47.900154 13484 net.cpp:425] inception_4d/relu_pool_proj <- inception_4d/pool_proj
I0403 14:38:47.900172 13484 net.cpp:386] inception_4d/relu_pool_proj -> inception_4d/pool_proj (in-place)
I0403 14:38:47.900352 13484 net.cpp:141] Setting up inception_4d/relu_pool_proj
I0403 14:38:47.900377 13484 net.cpp:148] Top shape: 24 64 14 14 (301056)
I0403 14:38:47.900390 13484 net.cpp:156] Memory required for data: 1147309344
I0403 14:38:47.900404 13484 layer_factory.hpp:77] Creating layer inception_4d/output
I0403 14:38:47.900420 13484 net.cpp:91] Creating Layer inception_4d/output
I0403 14:38:47.900435 13484 net.cpp:425] inception_4d/output <- inception_4d/1x1
I0403 14:38:47.900451 13484 net.cpp:425] inception_4d/output <- inception_4d/3x3
I0403 14:38:47.900466 13484 net.cpp:425] inception_4d/output <- inception_4d/5x5
I0403 14:38:47.900482 13484 net.cpp:425] inception_4d/output <- inception_4d/pool_proj
I0403 14:38:47.900501 13484 net.cpp:399] inception_4d/output -> inception_4d/output
I0403 14:38:47.900548 13484 net.cpp:141] Setting up inception_4d/output
I0403 14:38:47.900574 13484 net.cpp:148] Top shape: 24 528 14 14 (2483712)
I0403 14:38:47.900590 13484 net.cpp:156] Memory required for data: 1157244192
I0403 14:38:47.900604 13484 layer_factory.hpp:77] Creating layer inception_4d/output_inception_4d/output_0_split
I0403 14:38:47.900621 13484 net.cpp:91] Creating Layer inception_4d/output_inception_4d/output_0_split
I0403 14:38:47.900636 13484 net.cpp:425] inception_4d/output_inception_4d/output_0_split <- inception_4d/output
I0403 14:38:47.900656 13484 net.cpp:399] inception_4d/output_inception_4d/output_0_split -> inception_4d/output_inception_4d/output_0_split_0
I0403 14:38:47.900677 13484 net.cpp:399] inception_4d/output_inception_4d/output_0_split -> inception_4d/output_inception_4d/output_0_split_1
I0403 14:38:47.900696 13484 net.cpp:399] inception_4d/output_inception_4d/output_0_split -> inception_4d/output_inception_4d/output_0_split_2
I0403 14:38:47.900717 13484 net.cpp:399] inception_4d/output_inception_4d/output_0_split -> inception_4d/output_inception_4d/output_0_split_3
I0403 14:38:47.900735 13484 net.cpp:399] inception_4d/output_inception_4d/output_0_split -> inception_4d/output_inception_4d/output_0_split_4
I0403 14:38:47.900835 13484 net.cpp:141] Setting up inception_4d/output_inception_4d/output_0_split
I0403 14:38:47.900871 13484 net.cpp:148] Top shape: 24 528 14 14 (2483712)
I0403 14:38:47.900889 13484 net.cpp:148] Top shape: 24 528 14 14 (2483712)
I0403 14:38:47.900904 13484 net.cpp:148] Top shape: 24 528 14 14 (2483712)
I0403 14:38:47.900919 13484 net.cpp:148] Top shape: 24 528 14 14 (2483712)
I0403 14:38:47.900933 13484 net.cpp:148] Top shape: 24 528 14 14 (2483712)
I0403 14:38:47.900946 13484 net.cpp:156] Memory required for data: 1206918432
I0403 14:38:47.900960 13484 layer_factory.hpp:77] Creating layer loss2/ave_pool
I0403 14:38:47.900977 13484 net.cpp:91] Creating Layer loss2/ave_pool
I0403 14:38:47.900992 13484 net.cpp:425] loss2/ave_pool <- inception_4d/output_inception_4d/output_0_split_0
I0403 14:38:47.901011 13484 net.cpp:399] loss2/ave_pool -> loss2/ave_pool
I0403 14:38:47.901316 13484 net.cpp:141] Setting up loss2/ave_pool
I0403 14:38:47.901345 13484 net.cpp:148] Top shape: 24 528 4 4 (202752)
I0403 14:38:47.901360 13484 net.cpp:156] Memory required for data: 1207729440
I0403 14:38:47.901374 13484 layer_factory.hpp:77] Creating layer loss2/conv
I0403 14:38:47.901396 13484 net.cpp:91] Creating Layer loss2/conv
I0403 14:38:47.901412 13484 net.cpp:425] loss2/conv <- loss2/ave_pool
I0403 14:38:47.901430 13484 net.cpp:399] loss2/conv -> loss2/conv
I0403 14:38:47.903317 13484 net.cpp:141] Setting up loss2/conv
I0403 14:38:47.903345 13484 net.cpp:148] Top shape: 24 128 4 4 (49152)
I0403 14:38:47.903360 13484 net.cpp:156] Memory required for data: 1207926048
I0403 14:38:47.903378 13484 layer_factory.hpp:77] Creating layer loss2/relu_conv
I0403 14:38:47.903398 13484 net.cpp:91] Creating Layer loss2/relu_conv
I0403 14:38:47.903414 13484 net.cpp:425] loss2/relu_conv <- loss2/conv
I0403 14:38:47.903431 13484 net.cpp:386] loss2/relu_conv -> loss2/conv (in-place)
I0403 14:38:47.903713 13484 net.cpp:141] Setting up loss2/relu_conv
I0403 14:38:47.903738 13484 net.cpp:148] Top shape: 24 128 4 4 (49152)
I0403 14:38:47.903753 13484 net.cpp:156] Memory required for data: 1208122656
I0403 14:38:47.903767 13484 layer_factory.hpp:77] Creating layer loss2/fc
I0403 14:38:47.903787 13484 net.cpp:91] Creating Layer loss2/fc
I0403 14:38:47.903805 13484 net.cpp:425] loss2/fc <- loss2/conv
I0403 14:38:47.903825 13484 net.cpp:399] loss2/fc -> loss2/fc
I0403 14:38:47.921821 13484 net.cpp:141] Setting up loss2/fc
I0403 14:38:47.921852 13484 net.cpp:148] Top shape: 24 1024 (24576)
I0403 14:38:47.921867 13484 net.cpp:156] Memory required for data: 1208220960
I0403 14:38:47.921885 13484 layer_factory.hpp:77] Creating layer loss2/relu_fc
I0403 14:38:47.921902 13484 net.cpp:91] Creating Layer loss2/relu_fc
I0403 14:38:47.921917 13484 net.cpp:425] loss2/relu_fc <- loss2/fc
I0403 14:38:47.921937 13484 net.cpp:386] loss2/relu_fc -> loss2/fc (in-place)
I0403 14:38:47.922230 13484 net.cpp:141] Setting up loss2/relu_fc
I0403 14:38:47.922256 13484 net.cpp:148] Top shape: 24 1024 (24576)
I0403 14:38:47.922271 13484 net.cpp:156] Memory required for data: 1208319264
I0403 14:38:47.922284 13484 layer_factory.hpp:77] Creating layer loss2/drop_fc
I0403 14:38:47.922303 13484 net.cpp:91] Creating Layer loss2/drop_fc
I0403 14:38:47.922319 13484 net.cpp:425] loss2/drop_fc <- loss2/fc
I0403 14:38:47.922338 13484 net.cpp:386] loss2/drop_fc -> loss2/fc (in-place)
I0403 14:38:47.922386 13484 net.cpp:141] Setting up loss2/drop_fc
I0403 14:38:47.922410 13484 net.cpp:148] Top shape: 24 1024 (24576)
I0403 14:38:47.922425 13484 net.cpp:156] Memory required for data: 1208417568
I0403 14:38:47.922440 13484 layer_factory.hpp:77] Creating layer loss2/classifier_plantvillage
I0403 14:38:47.922456 13484 net.cpp:91] Creating Layer loss2/classifier_plantvillage
I0403 14:38:47.922472 13484 net.cpp:425] loss2/classifier_plantvillage <- loss2/fc
I0403 14:38:47.922492 13484 net.cpp:399] loss2/classifier_plantvillage -> loss2/classifier_plantvillage
I0403 14:38:47.922890 13484 net.cpp:141] Setting up loss2/classifier_plantvillage
I0403 14:38:47.922914 13484 net.cpp:148] Top shape: 24 38 (912)
I0403 14:38:47.922930 13484 net.cpp:156] Memory required for data: 1208421216
I0403 14:38:47.922963 13484 layer_factory.hpp:77] Creating layer loss2/classifier_plantvillage_loss2/classifier_plantvillage_0_split
I0403 14:38:47.922984 13484 net.cpp:91] Creating Layer loss2/classifier_plantvillage_loss2/classifier_plantvillage_0_split
I0403 14:38:47.923002 13484 net.cpp:425] loss2/classifier_plantvillage_loss2/classifier_plantvillage_0_split <- loss2/classifier_plantvillage
I0403 14:38:47.923017 13484 net.cpp:399] loss2/classifier_plantvillage_loss2/classifier_plantvillage_0_split -> loss2/classifier_plantvillage_loss2/classifier_plantvillage_0_split_0
I0403 14:38:47.923037 13484 net.cpp:399] loss2/classifier_plantvillage_loss2/classifier_plantvillage_0_split -> loss2/classifier_plantvillage_loss2/classifier_plantvillage_0_split_1
I0403 14:38:47.923058 13484 net.cpp:399] loss2/classifier_plantvillage_loss2/classifier_plantvillage_0_split -> loss2/classifier_plantvillage_loss2/classifier_plantvillage_0_split_2
I0403 14:38:47.923133 13484 net.cpp:141] Setting up loss2/classifier_plantvillage_loss2/classifier_plantvillage_0_split
I0403 14:38:47.923156 13484 net.cpp:148] Top shape: 24 38 (912)
I0403 14:38:47.923171 13484 net.cpp:148] Top shape: 24 38 (912)
I0403 14:38:47.923187 13484 net.cpp:148] Top shape: 24 38 (912)
I0403 14:38:47.923199 13484 net.cpp:156] Memory required for data: 1208432160
I0403 14:38:47.923213 13484 layer_factory.hpp:77] Creating layer inception_4e/1x1
I0403 14:38:47.923233 13484 net.cpp:91] Creating Layer inception_4e/1x1
I0403 14:38:47.923249 13484 net.cpp:425] inception_4e/1x1 <- inception_4d/output_inception_4d/output_0_split_1
I0403 14:38:47.923269 13484 net.cpp:399] inception_4e/1x1 -> inception_4e/1x1
I0403 14:38:47.925106 13484 net.cpp:141] Setting up inception_4e/1x1
I0403 14:38:47.925133 13484 net.cpp:148] Top shape: 24 256 14 14 (1204224)
I0403 14:38:47.925148 13484 net.cpp:156] Memory required for data: 1213249056
I0403 14:38:47.925168 13484 layer_factory.hpp:77] Creating layer inception_4e/relu_1x1
I0403 14:38:47.925189 13484 net.cpp:91] Creating Layer inception_4e/relu_1x1
I0403 14:38:47.925204 13484 net.cpp:425] inception_4e/relu_1x1 <- inception_4e/1x1
I0403 14:38:47.925221 13484 net.cpp:386] inception_4e/relu_1x1 -> inception_4e/1x1 (in-place)
I0403 14:38:47.925516 13484 net.cpp:141] Setting up inception_4e/relu_1x1
I0403 14:38:47.925544 13484 net.cpp:148] Top shape: 24 256 14 14 (1204224)
I0403 14:38:47.925557 13484 net.cpp:156] Memory required for data: 1218065952
I0403 14:38:47.925577 13484 layer_factory.hpp:77] Creating layer inception_4e/3x3_reduce
I0403 14:38:47.925601 13484 net.cpp:91] Creating Layer inception_4e/3x3_reduce
I0403 14:38:47.925618 13484 net.cpp:425] inception_4e/3x3_reduce <- inception_4d/output_inception_4d/output_0_split_2
I0403 14:38:47.925639 13484 net.cpp:399] inception_4e/3x3_reduce -> inception_4e/3x3_reduce
I0403 14:38:47.927832 13484 net.cpp:141] Setting up inception_4e/3x3_reduce
I0403 14:38:47.927861 13484 net.cpp:148] Top shape: 24 160 14 14 (752640)
I0403 14:38:47.927876 13484 net.cpp:156] Memory required for data: 1221076512
I0403 14:38:47.927894 13484 layer_factory.hpp:77] Creating layer inception_4e/relu_3x3_reduce
I0403 14:38:47.927916 13484 net.cpp:91] Creating Layer inception_4e/relu_3x3_reduce
I0403 14:38:47.927932 13484 net.cpp:425] inception_4e/relu_3x3_reduce <- inception_4e/3x3_reduce
I0403 14:38:47.927949 13484 net.cpp:386] inception_4e/relu_3x3_reduce -> inception_4e/3x3_reduce (in-place)
I0403 14:38:47.928133 13484 net.cpp:141] Setting up inception_4e/relu_3x3_reduce
I0403 14:38:47.928159 13484 net.cpp:148] Top shape: 24 160 14 14 (752640)
I0403 14:38:47.928175 13484 net.cpp:156] Memory required for data: 1224087072
I0403 14:38:47.928190 13484 layer_factory.hpp:77] Creating layer inception_4e/3x3
I0403 14:38:47.928210 13484 net.cpp:91] Creating Layer inception_4e/3x3
I0403 14:38:47.928225 13484 net.cpp:425] inception_4e/3x3 <- inception_4e/3x3_reduce
I0403 14:38:47.928246 13484 net.cpp:399] inception_4e/3x3 -> inception_4e/3x3
I0403 14:38:47.933302 13484 net.cpp:141] Setting up inception_4e/3x3
I0403 14:38:47.933346 13484 net.cpp:148] Top shape: 24 320 14 14 (1505280)
I0403 14:38:47.933363 13484 net.cpp:156] Memory required for data: 1230108192
I0403 14:38:47.933382 13484 layer_factory.hpp:77] Creating layer inception_4e/relu_3x3
I0403 14:38:47.933400 13484 net.cpp:91] Creating Layer inception_4e/relu_3x3
I0403 14:38:47.933416 13484 net.cpp:425] inception_4e/relu_3x3 <- inception_4e/3x3
I0403 14:38:47.933432 13484 net.cpp:386] inception_4e/relu_3x3 -> inception_4e/3x3 (in-place)
I0403 14:38:47.933734 13484 net.cpp:141] Setting up inception_4e/relu_3x3
I0403 14:38:47.933763 13484 net.cpp:148] Top shape: 24 320 14 14 (1505280)
I0403 14:38:47.933779 13484 net.cpp:156] Memory required for data: 1236129312
I0403 14:38:47.933794 13484 layer_factory.hpp:77] Creating layer inception_4e/5x5_reduce
I0403 14:38:47.933815 13484 net.cpp:91] Creating Layer inception_4e/5x5_reduce
I0403 14:38:47.933833 13484 net.cpp:425] inception_4e/5x5_reduce <- inception_4d/output_inception_4d/output_0_split_3
I0403 14:38:47.933856 13484 net.cpp:399] inception_4e/5x5_reduce -> inception_4e/5x5_reduce
I0403 14:38:47.934938 13484 net.cpp:141] Setting up inception_4e/5x5_reduce
I0403 14:38:47.934967 13484 net.cpp:148] Top shape: 24 32 14 14 (150528)
I0403 14:38:47.934983 13484 net.cpp:156] Memory required for data: 1236731424
I0403 14:38:47.935001 13484 layer_factory.hpp:77] Creating layer inception_4e/relu_5x5_reduce
I0403 14:38:47.935024 13484 net.cpp:91] Creating Layer inception_4e/relu_5x5_reduce
I0403 14:38:47.935040 13484 net.cpp:425] inception_4e/relu_5x5_reduce <- inception_4e/5x5_reduce
I0403 14:38:47.935058 13484 net.cpp:386] inception_4e/relu_5x5_reduce -> inception_4e/5x5_reduce (in-place)
I0403 14:38:47.935370 13484 net.cpp:141] Setting up inception_4e/relu_5x5_reduce
I0403 14:38:47.935397 13484 net.cpp:148] Top shape: 24 32 14 14 (150528)
I0403 14:38:47.935412 13484 net.cpp:156] Memory required for data: 1237333536
I0403 14:38:47.935427 13484 layer_factory.hpp:77] Creating layer inception_4e/5x5
I0403 14:38:47.935472 13484 net.cpp:91] Creating Layer inception_4e/5x5
I0403 14:38:47.935490 13484 net.cpp:425] inception_4e/5x5 <- inception_4e/5x5_reduce
I0403 14:38:47.935510 13484 net.cpp:399] inception_4e/5x5 -> inception_4e/5x5
I0403 14:38:47.937441 13484 net.cpp:141] Setting up inception_4e/5x5
I0403 14:38:47.937469 13484 net.cpp:148] Top shape: 24 128 14 14 (602112)
I0403 14:38:47.937485 13484 net.cpp:156] Memory required for data: 1239741984
I0403 14:38:47.937505 13484 layer_factory.hpp:77] Creating layer inception_4e/relu_5x5
I0403 14:38:47.937523 13484 net.cpp:91] Creating Layer inception_4e/relu_5x5
I0403 14:38:47.937542 13484 net.cpp:425] inception_4e/relu_5x5 <- inception_4e/5x5
I0403 14:38:47.937572 13484 net.cpp:386] inception_4e/relu_5x5 -> inception_4e/5x5 (in-place)
I0403 14:38:47.937774 13484 net.cpp:141] Setting up inception_4e/relu_5x5
I0403 14:38:47.937800 13484 net.cpp:148] Top shape: 24 128 14 14 (602112)
I0403 14:38:47.937815 13484 net.cpp:156] Memory required for data: 1242150432
I0403 14:38:47.937829 13484 layer_factory.hpp:77] Creating layer inception_4e/pool
I0403 14:38:47.937850 13484 net.cpp:91] Creating Layer inception_4e/pool
I0403 14:38:47.937867 13484 net.cpp:425] inception_4e/pool <- inception_4d/output_inception_4d/output_0_split_4
I0403 14:38:47.937885 13484 net.cpp:399] inception_4e/pool -> inception_4e/pool
I0403 14:38:47.937958 13484 net.cpp:141] Setting up inception_4e/pool
I0403 14:38:47.937983 13484 net.cpp:148] Top shape: 24 528 14 14 (2483712)
I0403 14:38:47.937997 13484 net.cpp:156] Memory required for data: 1252085280
I0403 14:38:47.938011 13484 layer_factory.hpp:77] Creating layer inception_4e/pool_proj
I0403 14:38:47.938033 13484 net.cpp:91] Creating Layer inception_4e/pool_proj
I0403 14:38:47.938050 13484 net.cpp:425] inception_4e/pool_proj <- inception_4e/pool
I0403 14:38:47.938071 13484 net.cpp:399] inception_4e/pool_proj -> inception_4e/pool_proj
I0403 14:38:47.939623 13484 net.cpp:141] Setting up inception_4e/pool_proj
I0403 14:38:47.939653 13484 net.cpp:148] Top shape: 24 128 14 14 (602112)
I0403 14:38:47.939684 13484 net.cpp:156] Memory required for data: 1254493728
I0403 14:38:47.939707 13484 layer_factory.hpp:77] Creating layer inception_4e/relu_pool_proj
I0403 14:38:47.939725 13484 net.cpp:91] Creating Layer inception_4e/relu_pool_proj
I0403 14:38:47.939741 13484 net.cpp:425] inception_4e/relu_pool_proj <- inception_4e/pool_proj
I0403 14:38:47.939761 13484 net.cpp:386] inception_4e/relu_pool_proj -> inception_4e/pool_proj (in-place)
I0403 14:38:47.940062 13484 net.cpp:141] Setting up inception_4e/relu_pool_proj
I0403 14:38:47.940093 13484 net.cpp:148] Top shape: 24 128 14 14 (602112)
I0403 14:38:47.940109 13484 net.cpp:156] Memory required for data: 1256902176
I0403 14:38:47.940124 13484 layer_factory.hpp:77] Creating layer inception_4e/output
I0403 14:38:47.940141 13484 net.cpp:91] Creating Layer inception_4e/output
I0403 14:38:47.940157 13484 net.cpp:425] inception_4e/output <- inception_4e/1x1
I0403 14:38:47.940173 13484 net.cpp:425] inception_4e/output <- inception_4e/3x3
I0403 14:38:47.940191 13484 net.cpp:425] inception_4e/output <- inception_4e/5x5
I0403 14:38:47.940207 13484 net.cpp:425] inception_4e/output <- inception_4e/pool_proj
I0403 14:38:47.940225 13484 net.cpp:399] inception_4e/output -> inception_4e/output
I0403 14:38:47.940276 13484 net.cpp:141] Setting up inception_4e/output
I0403 14:38:47.940300 13484 net.cpp:148] Top shape: 24 832 14 14 (3913728)
I0403 14:38:47.940315 13484 net.cpp:156] Memory required for data: 1272557088
I0403 14:38:47.940330 13484 layer_factory.hpp:77] Creating layer pool4/3x3_s2
I0403 14:38:47.940348 13484 net.cpp:91] Creating Layer pool4/3x3_s2
I0403 14:38:47.940366 13484 net.cpp:425] pool4/3x3_s2 <- inception_4e/output
I0403 14:38:47.940383 13484 net.cpp:399] pool4/3x3_s2 -> pool4/3x3_s2
I0403 14:38:47.940454 13484 net.cpp:141] Setting up pool4/3x3_s2
I0403 14:38:47.940479 13484 net.cpp:148] Top shape: 24 832 7 7 (978432)
I0403 14:38:47.940493 13484 net.cpp:156] Memory required for data: 1276470816
I0403 14:38:47.940508 13484 layer_factory.hpp:77] Creating layer pool4/3x3_s2_pool4/3x3_s2_0_split
I0403 14:38:47.940527 13484 net.cpp:91] Creating Layer pool4/3x3_s2_pool4/3x3_s2_0_split
I0403 14:38:47.940544 13484 net.cpp:425] pool4/3x3_s2_pool4/3x3_s2_0_split <- pool4/3x3_s2
I0403 14:38:47.940562 13484 net.cpp:399] pool4/3x3_s2_pool4/3x3_s2_0_split -> pool4/3x3_s2_pool4/3x3_s2_0_split_0
I0403 14:38:47.940587 13484 net.cpp:399] pool4/3x3_s2_pool4/3x3_s2_0_split -> pool4/3x3_s2_pool4/3x3_s2_0_split_1
I0403 14:38:47.940609 13484 net.cpp:399] pool4/3x3_s2_pool4/3x3_s2_0_split -> pool4/3x3_s2_pool4/3x3_s2_0_split_2
I0403 14:38:47.940629 13484 net.cpp:399] pool4/3x3_s2_pool4/3x3_s2_0_split -> pool4/3x3_s2_pool4/3x3_s2_0_split_3
I0403 14:38:47.940723 13484 net.cpp:141] Setting up pool4/3x3_s2_pool4/3x3_s2_0_split
I0403 14:38:47.940747 13484 net.cpp:148] Top shape: 24 832 7 7 (978432)
I0403 14:38:47.940764 13484 net.cpp:148] Top shape: 24 832 7 7 (978432)
I0403 14:38:47.940780 13484 net.cpp:148] Top shape: 24 832 7 7 (978432)
I0403 14:38:47.940795 13484 net.cpp:148] Top shape: 24 832 7 7 (978432)
I0403 14:38:47.940809 13484 net.cpp:156] Memory required for data: 1292125728
I0403 14:38:47.940824 13484 layer_factory.hpp:77] Creating layer inception_5a/1x1
I0403 14:38:47.940845 13484 net.cpp:91] Creating Layer inception_5a/1x1
I0403 14:38:47.940863 13484 net.cpp:425] inception_5a/1x1 <- pool4/3x3_s2_pool4/3x3_s2_0_split_0
I0403 14:38:47.940884 13484 net.cpp:399] inception_5a/1x1 -> inception_5a/1x1
I0403 14:38:47.943796 13484 net.cpp:141] Setting up inception_5a/1x1
I0403 14:38:47.943826 13484 net.cpp:148] Top shape: 24 256 7 7 (301056)
I0403 14:38:47.943842 13484 net.cpp:156] Memory required for data: 1293329952
I0403 14:38:47.943859 13484 layer_factory.hpp:77] Creating layer inception_5a/relu_1x1
I0403 14:38:47.943879 13484 net.cpp:91] Creating Layer inception_5a/relu_1x1
I0403 14:38:47.943897 13484 net.cpp:425] inception_5a/relu_1x1 <- inception_5a/1x1
I0403 14:38:47.943914 13484 net.cpp:386] inception_5a/relu_1x1 -> inception_5a/1x1 (in-place)
I0403 14:38:47.944233 13484 net.cpp:141] Setting up inception_5a/relu_1x1
I0403 14:38:47.944259 13484 net.cpp:148] Top shape: 24 256 7 7 (301056)
I0403 14:38:47.944274 13484 net.cpp:156] Memory required for data: 1294534176
I0403 14:38:47.944288 13484 layer_factory.hpp:77] Creating layer inception_5a/3x3_reduce
I0403 14:38:47.944310 13484 net.cpp:91] Creating Layer inception_5a/3x3_reduce
I0403 14:38:47.944329 13484 net.cpp:425] inception_5a/3x3_reduce <- pool4/3x3_s2_pool4/3x3_s2_0_split_1
I0403 14:38:47.944350 13484 net.cpp:399] inception_5a/3x3_reduce -> inception_5a/3x3_reduce
I0403 14:38:47.946830 13484 net.cpp:141] Setting up inception_5a/3x3_reduce
I0403 14:38:47.946861 13484 net.cpp:148] Top shape: 24 160 7 7 (188160)
I0403 14:38:47.946878 13484 net.cpp:156] Memory required for data: 1295286816
I0403 14:38:47.946897 13484 layer_factory.hpp:77] Creating layer inception_5a/relu_3x3_reduce
I0403 14:38:47.946914 13484 net.cpp:91] Creating Layer inception_5a/relu_3x3_reduce
I0403 14:38:47.946930 13484 net.cpp:425] inception_5a/relu_3x3_reduce <- inception_5a/3x3_reduce
I0403 14:38:47.946949 13484 net.cpp:386] inception_5a/relu_3x3_reduce -> inception_5a/3x3_reduce (in-place)
I0403 14:38:47.947136 13484 net.cpp:141] Setting up inception_5a/relu_3x3_reduce
I0403 14:38:47.947161 13484 net.cpp:148] Top shape: 24 160 7 7 (188160)
I0403 14:38:47.947177 13484 net.cpp:156] Memory required for data: 1296039456
I0403 14:38:47.947191 13484 layer_factory.hpp:77] Creating layer inception_5a/3x3
I0403 14:38:47.947213 13484 net.cpp:91] Creating Layer inception_5a/3x3
I0403 14:38:47.947230 13484 net.cpp:425] inception_5a/3x3 <- inception_5a/3x3_reduce
I0403 14:38:47.947252 13484 net.cpp:399] inception_5a/3x3 -> inception_5a/3x3
I0403 14:38:47.952306 13484 net.cpp:141] Setting up inception_5a/3x3
I0403 14:38:47.952337 13484 net.cpp:148] Top shape: 24 320 7 7 (376320)
I0403 14:38:47.952353 13484 net.cpp:156] Memory required for data: 1297544736
I0403 14:38:47.952370 13484 layer_factory.hpp:77] Creating layer inception_5a/relu_3x3
I0403 14:38:47.952391 13484 net.cpp:91] Creating Layer inception_5a/relu_3x3
I0403 14:38:47.952409 13484 net.cpp:425] inception_5a/relu_3x3 <- inception_5a/3x3
I0403 14:38:47.952425 13484 net.cpp:386] inception_5a/relu_3x3 -> inception_5a/3x3 (in-place)
I0403 14:38:47.952728 13484 net.cpp:141] Setting up inception_5a/relu_3x3
I0403 14:38:47.952754 13484 net.cpp:148] Top shape: 24 320 7 7 (376320)
I0403 14:38:47.952769 13484 net.cpp:156] Memory required for data: 1299050016
I0403 14:38:47.952783 13484 layer_factory.hpp:77] Creating layer inception_5a/5x5_reduce
I0403 14:38:47.952813 13484 net.cpp:91] Creating Layer inception_5a/5x5_reduce
I0403 14:38:47.952831 13484 net.cpp:425] inception_5a/5x5_reduce <- pool4/3x3_s2_pool4/3x3_s2_0_split_2
I0403 14:38:47.952852 13484 net.cpp:399] inception_5a/5x5_reduce -> inception_5a/5x5_reduce
I0403 14:38:47.954030 13484 net.cpp:141] Setting up inception_5a/5x5_reduce
I0403 14:38:47.954057 13484 net.cpp:148] Top shape: 24 32 7 7 (37632)
I0403 14:38:47.954073 13484 net.cpp:156] Memory required for data: 1299200544
I0403 14:38:47.954092 13484 layer_factory.hpp:77] Creating layer inception_5a/relu_5x5_reduce
I0403 14:38:47.954110 13484 net.cpp:91] Creating Layer inception_5a/relu_5x5_reduce
I0403 14:38:47.954128 13484 net.cpp:425] inception_5a/relu_5x5_reduce <- inception_5a/5x5_reduce
I0403 14:38:47.954144 13484 net.cpp:386] inception_5a/relu_5x5_reduce -> inception_5a/5x5_reduce (in-place)
I0403 14:38:47.954443 13484 net.cpp:141] Setting up inception_5a/relu_5x5_reduce
I0403 14:38:47.954469 13484 net.cpp:148] Top shape: 24 32 7 7 (37632)
I0403 14:38:47.954484 13484 net.cpp:156] Memory required for data: 1299351072
I0403 14:38:47.954499 13484 layer_factory.hpp:77] Creating layer inception_5a/5x5
I0403 14:38:47.954521 13484 net.cpp:91] Creating Layer inception_5a/5x5
I0403 14:38:47.954540 13484 net.cpp:425] inception_5a/5x5 <- inception_5a/5x5_reduce
I0403 14:38:47.954560 13484 net.cpp:399] inception_5a/5x5 -> inception_5a/5x5
I0403 14:38:47.956298 13484 net.cpp:141] Setting up inception_5a/5x5
I0403 14:38:47.956338 13484 net.cpp:148] Top shape: 24 128 7 7 (150528)
I0403 14:38:47.956354 13484 net.cpp:156] Memory required for data: 1299953184
I0403 14:38:47.956372 13484 layer_factory.hpp:77] Creating layer inception_5a/relu_5x5
I0403 14:38:47.956393 13484 net.cpp:91] Creating Layer inception_5a/relu_5x5
I0403 14:38:47.956409 13484 net.cpp:425] inception_5a/relu_5x5 <- inception_5a/5x5
I0403 14:38:47.956426 13484 net.cpp:386] inception_5a/relu_5x5 -> inception_5a/5x5 (in-place)
I0403 14:38:47.956620 13484 net.cpp:141] Setting up inception_5a/relu_5x5
I0403 14:38:47.956645 13484 net.cpp:148] Top shape: 24 128 7 7 (150528)
I0403 14:38:47.956661 13484 net.cpp:156] Memory required for data: 1300555296
I0403 14:38:47.956676 13484 layer_factory.hpp:77] Creating layer inception_5a/pool
I0403 14:38:47.956694 13484 net.cpp:91] Creating Layer inception_5a/pool
I0403 14:38:47.956712 13484 net.cpp:425] inception_5a/pool <- pool4/3x3_s2_pool4/3x3_s2_0_split_3
I0403 14:38:47.956729 13484 net.cpp:399] inception_5a/pool -> inception_5a/pool
I0403 14:38:47.956801 13484 net.cpp:141] Setting up inception_5a/pool
I0403 14:38:47.956825 13484 net.cpp:148] Top shape: 24 832 7 7 (978432)
I0403 14:38:47.956840 13484 net.cpp:156] Memory required for data: 1304469024
I0403 14:38:47.956853 13484 layer_factory.hpp:77] Creating layer inception_5a/pool_proj
I0403 14:38:47.956874 13484 net.cpp:91] Creating Layer inception_5a/pool_proj
I0403 14:38:47.956892 13484 net.cpp:425] inception_5a/pool_proj <- inception_5a/pool
I0403 14:38:47.956912 13484 net.cpp:399] inception_5a/pool_proj -> inception_5a/pool_proj
I0403 14:38:47.959208 13484 net.cpp:141] Setting up inception_5a/pool_proj
I0403 14:38:47.959238 13484 net.cpp:148] Top shape: 24 128 7 7 (150528)
I0403 14:38:47.959254 13484 net.cpp:156] Memory required for data: 1305071136
I0403 14:38:47.959272 13484 layer_factory.hpp:77] Creating layer inception_5a/relu_pool_proj
I0403 14:38:47.959290 13484 net.cpp:91] Creating Layer inception_5a/relu_pool_proj
I0403 14:38:47.959306 13484 net.cpp:425] inception_5a/relu_pool_proj <- inception_5a/pool_proj
I0403 14:38:47.959324 13484 net.cpp:386] inception_5a/relu_pool_proj -> inception_5a/pool_proj (in-place)
I0403 14:38:47.959630 13484 net.cpp:141] Setting up inception_5a/relu_pool_proj
I0403 14:38:47.959656 13484 net.cpp:148] Top shape: 24 128 7 7 (150528)
I0403 14:38:47.959671 13484 net.cpp:156] Memory required for data: 1305673248
I0403 14:38:47.959686 13484 layer_factory.hpp:77] Creating layer inception_5a/output
I0403 14:38:47.959702 13484 net.cpp:91] Creating Layer inception_5a/output
I0403 14:38:47.959718 13484 net.cpp:425] inception_5a/output <- inception_5a/1x1
I0403 14:38:47.959734 13484 net.cpp:425] inception_5a/output <- inception_5a/3x3
I0403 14:38:47.959749 13484 net.cpp:425] inception_5a/output <- inception_5a/5x5
I0403 14:38:47.959765 13484 net.cpp:425] inception_5a/output <- inception_5a/pool_proj
I0403 14:38:47.959784 13484 net.cpp:399] inception_5a/output -> inception_5a/output
I0403 14:38:47.959833 13484 net.cpp:141] Setting up inception_5a/output
I0403 14:38:47.959859 13484 net.cpp:148] Top shape: 24 832 7 7 (978432)
I0403 14:38:47.959874 13484 net.cpp:156] Memory required for data: 1309586976
I0403 14:38:47.959888 13484 layer_factory.hpp:77] Creating layer inception_5a/output_inception_5a/output_0_split
I0403 14:38:47.959905 13484 net.cpp:91] Creating Layer inception_5a/output_inception_5a/output_0_split
I0403 14:38:47.959920 13484 net.cpp:425] inception_5a/output_inception_5a/output_0_split <- inception_5a/output
I0403 14:38:47.959936 13484 net.cpp:399] inception_5a/output_inception_5a/output_0_split -> inception_5a/output_inception_5a/output_0_split_0
I0403 14:38:47.959955 13484 net.cpp:399] inception_5a/output_inception_5a/output_0_split -> inception_5a/output_inception_5a/output_0_split_1
I0403 14:38:47.959977 13484 net.cpp:399] inception_5a/output_inception_5a/output_0_split -> inception_5a/output_inception_5a/output_0_split_2
I0403 14:38:47.960000 13484 net.cpp:399] inception_5a/output_inception_5a/output_0_split -> inception_5a/output_inception_5a/output_0_split_3
I0403 14:38:47.960114 13484 net.cpp:141] Setting up inception_5a/output_inception_5a/output_0_split
I0403 14:38:47.960137 13484 net.cpp:148] Top shape: 24 832 7 7 (978432)
I0403 14:38:47.960153 13484 net.cpp:148] Top shape: 24 832 7 7 (978432)
I0403 14:38:47.960168 13484 net.cpp:148] Top shape: 24 832 7 7 (978432)
I0403 14:38:47.960183 13484 net.cpp:148] Top shape: 24 832 7 7 (978432)
I0403 14:38:47.960196 13484 net.cpp:156] Memory required for data: 1325241888
I0403 14:38:47.960211 13484 layer_factory.hpp:77] Creating layer inception_5b/1x1
I0403 14:38:47.960232 13484 net.cpp:91] Creating Layer inception_5b/1x1
I0403 14:38:47.960248 13484 net.cpp:425] inception_5b/1x1 <- inception_5a/output_inception_5a/output_0_split_0
I0403 14:38:47.960271 13484 net.cpp:399] inception_5b/1x1 -> inception_5b/1x1
I0403 14:38:47.964082 13484 net.cpp:141] Setting up inception_5b/1x1
I0403 14:38:47.964113 13484 net.cpp:148] Top shape: 24 384 7 7 (451584)
I0403 14:38:47.964130 13484 net.cpp:156] Memory required for data: 1327048224
I0403 14:38:47.964148 13484 layer_factory.hpp:77] Creating layer inception_5b/relu_1x1
I0403 14:38:47.964167 13484 net.cpp:91] Creating Layer inception_5b/relu_1x1
I0403 14:38:47.964184 13484 net.cpp:425] inception_5b/relu_1x1 <- inception_5b/1x1
I0403 14:38:47.964203 13484 net.cpp:386] inception_5b/relu_1x1 -> inception_5b/1x1 (in-place)
I0403 14:38:47.964509 13484 net.cpp:141] Setting up inception_5b/relu_1x1
I0403 14:38:47.964537 13484 net.cpp:148] Top shape: 24 384 7 7 (451584)
I0403 14:38:47.964555 13484 net.cpp:156] Memory required for data: 1328854560
I0403 14:38:47.964578 13484 layer_factory.hpp:77] Creating layer inception_5b/3x3_reduce
I0403 14:38:47.964604 13484 net.cpp:91] Creating Layer inception_5b/3x3_reduce
I0403 14:38:47.964623 13484 net.cpp:425] inception_5b/3x3_reduce <- inception_5a/output_inception_5a/output_0_split_1
I0403 14:38:47.964642 13484 net.cpp:399] inception_5b/3x3_reduce -> inception_5b/3x3_reduce
I0403 14:38:47.967308 13484 net.cpp:141] Setting up inception_5b/3x3_reduce
I0403 14:38:47.967337 13484 net.cpp:148] Top shape: 24 192 7 7 (225792)
I0403 14:38:47.967353 13484 net.cpp:156] Memory required for data: 1329757728
I0403 14:38:47.967371 13484 layer_factory.hpp:77] Creating layer inception_5b/relu_3x3_reduce
I0403 14:38:47.967389 13484 net.cpp:91] Creating Layer inception_5b/relu_3x3_reduce
I0403 14:38:47.967406 13484 net.cpp:425] inception_5b/relu_3x3_reduce <- inception_5b/3x3_reduce
I0403 14:38:47.967425 13484 net.cpp:386] inception_5b/relu_3x3_reduce -> inception_5b/3x3_reduce (in-place)
I0403 14:38:47.967622 13484 net.cpp:141] Setting up inception_5b/relu_3x3_reduce
I0403 14:38:47.967646 13484 net.cpp:148] Top shape: 24 192 7 7 (225792)
I0403 14:38:47.967661 13484 net.cpp:156] Memory required for data: 1330660896
I0403 14:38:47.967676 13484 layer_factory.hpp:77] Creating layer inception_5b/3x3
I0403 14:38:47.967700 13484 net.cpp:91] Creating Layer inception_5b/3x3
I0403 14:38:47.967717 13484 net.cpp:425] inception_5b/3x3 <- inception_5b/3x3_reduce
I0403 14:38:47.967738 13484 net.cpp:399] inception_5b/3x3 -> inception_5b/3x3
I0403 14:38:47.974653 13484 net.cpp:141] Setting up inception_5b/3x3
I0403 14:38:47.974683 13484 net.cpp:148] Top shape: 24 384 7 7 (451584)
I0403 14:38:47.974699 13484 net.cpp:156] Memory required for data: 1332467232
I0403 14:38:47.974716 13484 layer_factory.hpp:77] Creating layer inception_5b/relu_3x3
I0403 14:38:47.974735 13484 net.cpp:91] Creating Layer inception_5b/relu_3x3
I0403 14:38:47.974750 13484 net.cpp:425] inception_5b/relu_3x3 <- inception_5b/3x3
I0403 14:38:47.974771 13484 net.cpp:386] inception_5b/relu_3x3 -> inception_5b/3x3 (in-place)
I0403 14:38:47.975075 13484 net.cpp:141] Setting up inception_5b/relu_3x3
I0403 14:38:47.975101 13484 net.cpp:148] Top shape: 24 384 7 7 (451584)
I0403 14:38:47.975117 13484 net.cpp:156] Memory required for data: 1334273568
I0403 14:38:47.975131 13484 layer_factory.hpp:77] Creating layer inception_5b/5x5_reduce
I0403 14:38:47.975172 13484 net.cpp:91] Creating Layer inception_5b/5x5_reduce
I0403 14:38:47.975190 13484 net.cpp:425] inception_5b/5x5_reduce <- inception_5a/output_inception_5a/output_0_split_2
I0403 14:38:47.975214 13484 net.cpp:399] inception_5b/5x5_reduce -> inception_5b/5x5_reduce
I0403 14:38:47.976488 13484 net.cpp:141] Setting up inception_5b/5x5_reduce
I0403 14:38:47.976518 13484 net.cpp:148] Top shape: 24 48 7 7 (56448)
I0403 14:38:47.976534 13484 net.cpp:156] Memory required for data: 1334499360
I0403 14:38:47.976552 13484 layer_factory.hpp:77] Creating layer inception_5b/relu_5x5_reduce
I0403 14:38:47.976574 13484 net.cpp:91] Creating Layer inception_5b/relu_5x5_reduce
I0403 14:38:47.976591 13484 net.cpp:425] inception_5b/relu_5x5_reduce <- inception_5b/5x5_reduce
I0403 14:38:47.976611 13484 net.cpp:386] inception_5b/relu_5x5_reduce -> inception_5b/5x5_reduce (in-place)
I0403 14:38:47.976982 13484 net.cpp:141] Setting up inception_5b/relu_5x5_reduce
I0403 14:38:47.977008 13484 net.cpp:148] Top shape: 24 48 7 7 (56448)
I0403 14:38:47.977023 13484 net.cpp:156] Memory required for data: 1334725152
I0403 14:38:47.977038 13484 layer_factory.hpp:77] Creating layer inception_5b/5x5
I0403 14:38:47.977058 13484 net.cpp:91] Creating Layer inception_5b/5x5
I0403 14:38:47.977075 13484 net.cpp:425] inception_5b/5x5 <- inception_5b/5x5_reduce
I0403 14:38:47.977094 13484 net.cpp:399] inception_5b/5x5 -> inception_5b/5x5
I0403 14:38:47.979176 13484 net.cpp:141] Setting up inception_5b/5x5
I0403 14:38:47.979203 13484 net.cpp:148] Top shape: 24 128 7 7 (150528)
I0403 14:38:47.979219 13484 net.cpp:156] Memory required for data: 1335327264
I0403 14:38:47.979238 13484 layer_factory.hpp:77] Creating layer inception_5b/relu_5x5
I0403 14:38:47.979255 13484 net.cpp:91] Creating Layer inception_5b/relu_5x5
I0403 14:38:47.979272 13484 net.cpp:425] inception_5b/relu_5x5 <- inception_5b/5x5
I0403 14:38:47.979291 13484 net.cpp:386] inception_5b/relu_5x5 -> inception_5b/5x5 (in-place)
I0403 14:38:47.979485 13484 net.cpp:141] Setting up inception_5b/relu_5x5
I0403 14:38:47.979511 13484 net.cpp:148] Top shape: 24 128 7 7 (150528)
I0403 14:38:47.979526 13484 net.cpp:156] Memory required for data: 1335929376
I0403 14:38:47.979539 13484 layer_factory.hpp:77] Creating layer inception_5b/pool
I0403 14:38:47.979559 13484 net.cpp:91] Creating Layer inception_5b/pool
I0403 14:38:47.979580 13484 net.cpp:425] inception_5b/pool <- inception_5a/output_inception_5a/output_0_split_3
I0403 14:38:47.979599 13484 net.cpp:399] inception_5b/pool -> inception_5b/pool
I0403 14:38:47.979673 13484 net.cpp:141] Setting up inception_5b/pool
I0403 14:38:47.979697 13484 net.cpp:148] Top shape: 24 832 7 7 (978432)
I0403 14:38:47.979712 13484 net.cpp:156] Memory required for data: 1339843104
I0403 14:38:47.979727 13484 layer_factory.hpp:77] Creating layer inception_5b/pool_proj
I0403 14:38:47.979748 13484 net.cpp:91] Creating Layer inception_5b/pool_proj
I0403 14:38:47.979764 13484 net.cpp:425] inception_5b/pool_proj <- inception_5b/pool
I0403 14:38:47.979785 13484 net.cpp:399] inception_5b/pool_proj -> inception_5b/pool_proj
I0403 14:38:47.982107 13484 net.cpp:141] Setting up inception_5b/pool_proj
I0403 14:38:47.982137 13484 net.cpp:148] Top shape: 24 128 7 7 (150528)
I0403 14:38:47.982152 13484 net.cpp:156] Memory required for data: 1340445216
I0403 14:38:47.982170 13484 layer_factory.hpp:77] Creating layer inception_5b/relu_pool_proj
I0403 14:38:47.982188 13484 net.cpp:91] Creating Layer inception_5b/relu_pool_proj
I0403 14:38:47.982204 13484 net.cpp:425] inception_5b/relu_pool_proj <- inception_5b/pool_proj
I0403 14:38:47.982224 13484 net.cpp:386] inception_5b/relu_pool_proj -> inception_5b/pool_proj (in-place)
I0403 14:38:47.982524 13484 net.cpp:141] Setting up inception_5b/relu_pool_proj
I0403 14:38:47.982550 13484 net.cpp:148] Top shape: 24 128 7 7 (150528)
I0403 14:38:47.982565 13484 net.cpp:156] Memory required for data: 1341047328
I0403 14:38:47.982585 13484 layer_factory.hpp:77] Creating layer inception_5b/output
I0403 14:38:47.982604 13484 net.cpp:91] Creating Layer inception_5b/output
I0403 14:38:47.982633 13484 net.cpp:425] inception_5b/output <- inception_5b/1x1
I0403 14:38:47.982651 13484 net.cpp:425] inception_5b/output <- inception_5b/3x3
I0403 14:38:47.982667 13484 net.cpp:425] inception_5b/output <- inception_5b/5x5
I0403 14:38:47.982683 13484 net.cpp:425] inception_5b/output <- inception_5b/pool_proj
I0403 14:38:47.982703 13484 net.cpp:399] inception_5b/output -> inception_5b/output
I0403 14:38:47.982755 13484 net.cpp:141] Setting up inception_5b/output
I0403 14:38:47.982781 13484 net.cpp:148] Top shape: 24 1024 7 7 (1204224)
I0403 14:38:47.982797 13484 net.cpp:156] Memory required for data: 1345864224
I0403 14:38:47.982812 13484 layer_factory.hpp:77] Creating layer pool5/7x7_s1
I0403 14:38:47.982830 13484 net.cpp:91] Creating Layer pool5/7x7_s1
I0403 14:38:47.982846 13484 net.cpp:425] pool5/7x7_s1 <- inception_5b/output
I0403 14:38:47.982866 13484 net.cpp:399] pool5/7x7_s1 -> pool5/7x7_s1
I0403 14:38:47.983085 13484 net.cpp:141] Setting up pool5/7x7_s1
I0403 14:38:47.983111 13484 net.cpp:148] Top shape: 24 1024 1 1 (24576)
I0403 14:38:47.983125 13484 net.cpp:156] Memory required for data: 1345962528
I0403 14:38:47.983140 13484 layer_factory.hpp:77] Creating layer pool5/drop_7x7_s1
I0403 14:38:47.983157 13484 net.cpp:91] Creating Layer pool5/drop_7x7_s1
I0403 14:38:47.983173 13484 net.cpp:425] pool5/drop_7x7_s1 <- pool5/7x7_s1
I0403 14:38:47.983192 13484 net.cpp:386] pool5/drop_7x7_s1 -> pool5/7x7_s1 (in-place)
I0403 14:38:47.983243 13484 net.cpp:141] Setting up pool5/drop_7x7_s1
I0403 14:38:47.983270 13484 net.cpp:148] Top shape: 24 1024 1 1 (24576)
I0403 14:38:47.983286 13484 net.cpp:156] Memory required for data: 1346060832
I0403 14:38:47.983300 13484 layer_factory.hpp:77] Creating layer loss3/classifier_plantvillage
I0403 14:38:47.983319 13484 net.cpp:91] Creating Layer loss3/classifier_plantvillage
I0403 14:38:47.983335 13484 net.cpp:425] loss3/classifier_plantvillage <- pool5/7x7_s1
I0403 14:38:47.983355 13484 net.cpp:399] loss3/classifier_plantvillage -> loss3/classifier_plantvillage
I0403 14:38:47.983786 13484 net.cpp:141] Setting up loss3/classifier_plantvillage
I0403 14:38:47.983814 13484 net.cpp:148] Top shape: 24 38 (912)
I0403 14:38:47.983829 13484 net.cpp:156] Memory required for data: 1346064480
I0403 14:38:47.983847 13484 layer_factory.hpp:77] Creating layer loss3/classifier_plantvillage_loss3/classifier_plantvillage_0_split
I0403 14:38:47.983865 13484 net.cpp:91] Creating Layer loss3/classifier_plantvillage_loss3/classifier_plantvillage_0_split
I0403 14:38:47.983880 13484 net.cpp:425] loss3/classifier_plantvillage_loss3/classifier_plantvillage_0_split <- loss3/classifier_plantvillage
I0403 14:38:47.983898 13484 net.cpp:399] loss3/classifier_plantvillage_loss3/classifier_plantvillage_0_split -> loss3/classifier_plantvillage_loss3/classifier_plantvillage_0_split_0
I0403 14:38:47.983917 13484 net.cpp:399] loss3/classifier_plantvillage_loss3/classifier_plantvillage_0_split -> loss3/classifier_plantvillage_loss3/classifier_plantvillage_0_split_1
I0403 14:38:47.983939 13484 net.cpp:399] loss3/classifier_plantvillage_loss3/classifier_plantvillage_0_split -> loss3/classifier_plantvillage_loss3/classifier_plantvillage_0_split_2
I0403 14:38:47.983960 13484 net.cpp:399] loss3/classifier_plantvillage_loss3/classifier_plantvillage_0_split -> loss3/classifier_plantvillage_loss3/classifier_plantvillage_0_split_3
I0403 14:38:47.984064 13484 net.cpp:141] Setting up loss3/classifier_plantvillage_loss3/classifier_plantvillage_0_split
I0403 14:38:47.984087 13484 net.cpp:148] Top shape: 24 38 (912)
I0403 14:38:47.984103 13484 net.cpp:148] Top shape: 24 38 (912)
I0403 14:38:47.984118 13484 net.cpp:148] Top shape: 24 38 (912)
I0403 14:38:47.984133 13484 net.cpp:148] Top shape: 24 38 (912)
I0403 14:38:47.984148 13484 net.cpp:156] Memory required for data: 1346079072
I0403 14:38:47.984161 13484 layer_factory.hpp:77] Creating layer loss1/loss
I0403 14:38:47.984184 13484 net.cpp:91] Creating Layer loss1/loss
I0403 14:38:47.984201 13484 net.cpp:425] loss1/loss <- loss1/classifier_plantvillage_loss1/classifier_plantvillage_0_split_0
I0403 14:38:47.984231 13484 net.cpp:425] loss1/loss <- label_data_1_split_0
…
