…
I0403 14:45:00.021581 13601 net.cpp:313] The NetState phase (1) differed from the phase (0) specified by a rule in layer data
I0403 14:45:00.022760 13601 net.cpp:49] Initializing net from parameters: 
state {
  phase: TEST
}
layer {
  name: "data"
  type: "Data"
  top: "data"
  top: "label"
  include {
    phase: TEST
  }
  transform_param {
    mirror: false
    crop_size: 224
    mean_file: "/home/mohanty/data/final_dataset/lmdb/color-40-60/mean.binaryproto"
  }
  data_param {
    source: "/home/mohanty/data/final_dataset/lmdb/color-40-60/test_db"
    batch_size: 24
    backend: LMDB
  }
}
layer {
  name: "conv1/7x7_s2"
  type: "Convolution"
  bottom: "data"
  top: "conv1/7x7_s2"
  param {
    lr_mult: 1
    decay_mult: 1
  }
  param {
    lr_mult: 2
    decay_mult: 0
  }
  convolution_param {
    num_output: 64
    pad: 3
    kernel_size: 7
    stride: 2
    weight_filler {
      type: "xavier"
      std: 0.1
    }
    bias_filler {
      type: "constant"
      value: 0.2
    }
  }
}
layer {
  name: "conv1/relu_7x7"
  type: "ReLU"
  bottom: "conv1/7x7_s2"
  top: "conv1/7x7_s2"
}
layer {
  name: "pool1/3x3_s2"
  type: "Pooling"
  bottom: "conv1/7x7_s2"
  top: "pool1/3x3_s2"
  pooling_param {
    pool: MAX
    kernel_size: 3
    stride: 2
  }
}
layer {
  name: "pool1/norm1"
  type: "LRN"
  bottom: "pool1/3x3_s2"
  top: "pool1/norm1"
  lrn_param {
    local_size: 5
    alpha: 0.0001
    beta: 0.75
  }
}
layer {
  name: "conv2/3x3_reduce"
  type: "Convolution"
  bottom: "pool1/norm1"
  top: "conv2/3x3_reduce"
  param {
    lr_mult: 1
    decay_mult: 1
  }
  param {
    lr_mult: 2
    decay_mult: 0
  }
  convolution_param {
    num_output: 64
    kernel_size: 1
    weight_filler {
      type: "xavier"
      std: 0.1
    }
    bias_filler {
      type: "constant"
      value: 0.2
    }
  }
}
layer {
  name: "conv2/relu_3x3_reduce"
  type: "ReLU"
  bottom: "conv2/3x3_reduce"
  top: "conv2/3x3_reduce"
}
layer {
  name: "conv2/3x3"
  type: "Convolution"
  bottom: "conv2/3x3_reduce"
  top: "conv2/3x3"
  param {
    lr_mult: 1
    decay_mult: 1
  }
  param {
    lr_mult: 2
    decay_mult: 0
  }
  convolution_param {
    num_output: 192
    pad: 1
    kernel_size: 3
    weight_filler {
      type: "xavier"
      std: 0.03
    }
    bias_filler {
      type: "constant"
      value: 0.2
    }
  }
}
layer {
  name: "conv2/relu_3x3"
  type: "ReLU"
  bottom: "conv2/3x3"
  top: "conv2/3x3"
}
layer {
  name: "conv2/norm2"
  type: "LRN"
  bottom: "conv2/3x3"
  top: "conv2/norm2"
  lrn_param {
    local_size: 5
    alpha: 0.0001
    beta: 0.75
  }
}
layer {
  name: "pool2/3x3_s2"
  type: "Pooling"
  bottom: "conv2/norm2"
  top: "pool2/3x3_s2"
  pooling_param {
    pool: MAX
    kernel_size: 3
    stride: 2
  }
}
layer {
  name: "inception_3a/1x1"
  type: "Convolution"
  bottom: "pool2/3x3_s2"
  top: "inception_3a/1x1"
  param {
    lr_mult: 1
    decay_mult: 1
  }
  param {
    lr_mult: 2
    decay_mult: 0
  }
  convolution_param {
    num_output: 64
    kernel_size: 1
    weight_filler {
      type: "xavier"
      std: 0.03
    }
    bias_filler {
      type: "constant"
      value: 0.2
    }
  }
}
layer {
  name: "inception_3a/relu_1x1"
  type: "ReLU"
  bottom: "inception_3a/1x1"
  top: "inception_3a/1x1"
}
layer {
  name: "inception_3a/3x3_reduce"
  type: "Convolution"
  bottom: "pool2/3x3_s2"
  top: "inception_3a/3x3_reduce"
  param {
    lr_mult: 1
    decay_mult: 1
  }
  param {
    lr_mult: 2
    decay_mult: 0
  }
  convolution_param {
    num_output: 96
    kernel_size: 1
    weight_filler {
      type: "xavier"
      std: 0.09
    }
    bias_filler {
      type: "constant"
      value: 0.2
    }
  }
}
layer {
  name: "inception_3a/relu_3x3_reduce"
  type: "ReLU"
  bottom: "inception_3a/3x3_reduce"
  top: "inception_3a/3x3_reduce"
}
layer {
  name: "inception_3a/3x3"
  type: "Convolution"
  bottom: "inception_3a/3x3_reduce"
  top: "inception_3a/3x3"
  param {
    lr_mult: 1
    decay_mult: 1
  }
  param {
    lr_mult: 2
    decay_mult: 0
  }
  convolution_param {
    num_output: 128
    pad: 1
    kernel_size: 3
    weight_filler {
      type: "xavier"
      std: 0.03
    }
    bias_filler {
      type: "constant"
      value: 0.2
    }
  }
}
layer {
  name: "inception_3a/relu_3x3"
  type: "ReLU"
  bottom: "inception_3a/3x3"
  top: "inception_3a/3x3"
}
layer {
  name: "inception_3a/5x5_reduce"
  type: "Convolution"
  bottom: "pool2/3x3_s2"
  top: "inception_3a/5x5_reduce"
  param {
    lr_mult: 1
    decay_mult: 1
  }
  param {
    lr_mult: 2
    decay_mult: 0
  }
  convolution_param {
    num_output: 16
    kernel_size: 1
    weight_filler {
      type: "xavier"
      std: 0.2
    }
    bias_filler {
      type: "constant"
      value: 0.2
    }
  }
}
layer {
  name: "inception_3a/relu_5x5_reduce"
  type: "ReLU"
  bottom: "inception_3a/5x5_reduce"
  top: "inception_3a/5x5_reduce"
}
layer {
  name: "inception_3a/5x5"
  type: "Convolution"
  bottom: "inception_3a/5x5_reduce"
  top: "inception_3a/5x5"
  param {
    lr_mult: 1
    decay_mult: 1
  }
  param {
    lr_mult: 2
    decay_mult: 0
  }
  convolution_param {
    num_output: 32
    pad: 2
    kernel_size: 5
    weight_filler {
      type: "xavier"
      std: 0.03
    }
    bias_filler {
      type: "constant"
      value: 0.2
    }
  }
}
layer {
  name: "inception_3a/relu_5x5"
  type: "ReLU"
  bottom: "inception_3a/5x5"
  top: "inception_3a/5x5"
}
layer {
  name: "inception_3a/pool"
  type: "Pooling"
  bottom: "pool2/3x3_s2"
  top: "inception_3a/pool"
  pooling_param {
    pool: MAX
    kernel_size: 3
    stride: 1
    pad: 1
  }
}
layer {
  name: "inception_3a/pool_proj"
  type: "Convolution"
  bottom: "inception_3a/pool"
  top: "inception_3a/pool_proj"
  param {
    lr_mult: 1
    decay_mult: 1
  }
  param {
    lr_mult: 2
    decay_mult: 0
  }
  convolution_param {
    num_output: 32
    kernel_size: 1
    weight_filler {
      type: "xavier"
      std: 0.1
    }
    bias_filler {
      type: "constant"
      value: 0.2
    }
  }
}
layer {
  name: "inception_3a/relu_pool_proj"
  type: "ReLU"
  bottom: "inception_3a/pool_proj"
  top: "inception_3a/pool_proj"
}
layer {
  name: "inception_3a/output"
  type: "Concat"
  bottom: "inception_3a/1x1"
  bottom: "inception_3a/3x3"
  bottom: "inception_3a/5x5"
  bottom: "inception_3a/pool_proj"
  top: "inception_3a/output"
}
layer {
  name: "inception_3b/1x1"
  type: "Convolution"
  bottom: "inception_3a/output"
  top: "inception_3b/1x1"
  param {
    lr_mult: 1
    decay_mult: 1
  }
  param {
    lr_mult: 2
    decay_mult: 0
  }
  convolution_param {
    num_output: 128
    kernel_size: 1
    weight_filler {
      type: "xavier"
      std: 0.03
    }
    bias_filler {
      type: "constant"
      value: 0.2
    }
  }
}
layer {
  name: "inception_3b/relu_1x1"
  type: "ReLU"
  bottom: "inception_3b/1x1"
  top: "inception_3b/1x1"
}
layer {
  name: "inception_3b/3x3_reduce"
  type: "Convolution"
  bottom: "inception_3a/output"
  top: "inception_3b/3x3_reduce"
  param {
    lr_mult: 1
    decay_mult: 1
  }
  param {
    lr_mult: 2
    decay_mult: 0
  }
  convolution_param {
    num_output: 128
    kernel_size: 1
    weight_filler {
      type: "xavier"
      std: 0.09
    }
    bias_filler {
      type: "constant"
      value: 0.2
    }
  }
}
layer {
  name: "inception_3b/relu_3x3_reduce"
  type: "ReLU"
  bottom: "inception_3b/3x3_reduce"
  top: "inception_3b/3x3_reduce"
}
layer {
  name: "inception_3b/3x3"
  type: "Convolution"
  bottom: "inception_3b/3x3_reduce"
  top: "inception_3b/3x3"
  param {
    lr_mult: 1
    decay_mult: 1
  }
  param {
    lr_mult: 2
    decay_mult: 0
  }
  convolution_param {
    num_output: 192
    pad: 1
    kernel_size: 3
    weight_filler {
      type: "xavier"
      std: 0.03
    }
    bias_filler {
      type: "constant"
      value: 0.2
    }
  }
}
layer {
  name: "inception_3b/relu_3x3"
  type: "ReLU"
  bottom: "inception_3b/3x3"
  top: "inception_3b/3x3"
}
layer {
  name: "inception_3b/5x5_reduce"
  type: "Convolution"
  bottom: "inception_3a/output"
  top: "inception_3b/5x5_reduce"
  param {
    lr_mult: 1
    decay_mult: 1
  }
  param {
    lr_mult: 2
    decay_mult: 0
  }
  convolution_param {
    num_output: 32
    kernel_size: 1
    weight_filler {
      type: "xavier"
      std: 0.2
    }
    bias_filler {
      type: "constant"
      value: 0.2
    }
  }
}
layer {
  name: "inception_3b/relu_5x5_reduce"
  type: "ReLU"
  bottom: "inception_3b/5x5_reduce"
  top: "inception_3b/5x5_reduce"
}
layer {
  name: "inception_3b/5x5"
  type: "Convolution"
  bottom: "inception_3b/5x5_reduce"
  top: "inception_3b/5x5"
  param {
    lr_mult: 1
    decay_mult: 1
  }
  param {
    lr_mult: 2
    decay_mult: 0
  }
  convolution_param {
    num_output: 96
    pad: 2
    kernel_size: 5
    weight_filler {
      type: "xavier"
      std: 0.03
    }
    bias_filler {
      type: "constant"
      value: 0.2
    }
  }
}
layer {
  name: "inception_3b/relu_5x5"
  type: "ReLU"
  bottom: "inception_3b/5x5"
  top: "inception_3b/5x5"
}
layer {
  name: "inception_3b/pool"
  type: "Pooling"
  bottom: "inception_3a/output"
  top: "inception_3b/pool"
  pooling_param {
    pool: MAX
    kernel_size: 3
    stride: 1
    pad: 1
  }
}
layer {
  name: "inception_3b/pool_proj"
  type: "Convolution"
  bottom: "inception_3b/pool"
  top: "inception_3b/pool_proj"
  param {
    lr_mult: 1
    decay_mult: 1
  }
  param {
    lr_mult: 2
    decay_mult: 0
  }
  convolution_param {
    num_output: 64
    kernel_size: 1
    weight_filler {
      type: "xavier"
      std: 0.1
    }
    bias_filler {
      type: "constant"
      value: 0.2
    }
  }
}
layer {
  name: "inception_3b/relu_pool_proj"
  type: "ReLU"
  bottom: "inception_3b/pool_proj"
  top: "inception_3b/pool_proj"
}
layer {
  name: "inception_3b/output"
  type: "Concat"
  bottom: "inception_3b/1x1"
  bottom: "inception_3b/3x3"
  bottom: "inception_3b/5x5"
  bottom: "inception_3b/pool_proj"
  top: "inception_3b/output"
}
layer {
  name: "pool3/3x3_s2"
  type: "Pooling"
  bottom: "inception_3b/output"
  top: "pool3/3x3_s2"
  pooling_param {
    pool: MAX
    kernel_size: 3
    stride: 2
  }
}
layer {
  name: "inception_4a/1x1"
  type: "Convolution"
  bottom: "pool3/3x3_s2"
  top: "inception_4a/1x1"
  param {
    lr_mult: 1
    decay_mult: 1
  }
  param {
    lr_mult: 2
    decay_mult: 0
  }
  convolution_param {
    num_output: 192
    kernel_size: 1
    weight_filler {
      type: "xavier"
      std: 0.03
    }
    bias_filler {
      type: "constant"
      value: 0.2
    }
  }
}
layer {
  name: "inception_4a/relu_1x1"
  type: "ReLU"
  bottom: "inception_4a/1x1"
  top: "inception_4a/1x1"
}
layer {
  name: "inception_4a/3x3_reduce"
  type: "Convolution"
  bottom: "pool3/3x3_s2"
  top: "inception_4a/3x3_reduce"
  param {
    lr_mult: 1
    decay_mult: 1
  }
  param {
    lr_mult: 2
    decay_mult: 0
  }
  convolution_param {
    num_output: 96
    kernel_size: 1
    weight_filler {
      type: "xavier"
      std: 0.09
    }
    bias_filler {
      type: "constant"
      value: 0.2
    }
  }
}
layer {
  name: "inception_4a/relu_3x3_reduce"
  type: "ReLU"
  bottom: "inception_4a/3x3_reduce"
  top: "inception_4a/3x3_reduce"
}
layer {
  name: "inception_4a/3x3"
  type: "Convolution"
  bottom: "inception_4a/3x3_reduce"
  top: "inception_4a/3x3"
  param {
    lr_mult: 1
    decay_mult: 1
  }
  param {
    lr_mult: 2
    decay_mult: 0
  }
  convolution_param {
    num_output: 208
    pad: 1
    kernel_size: 3
    weight_filler {
      type: "xavier"
      std: 0.03
    }
    bias_filler {
      type: "constant"
      value: 0.2
    }
  }
}
layer {
  name: "inception_4a/relu_3x3"
  type: "ReLU"
  bottom: "inception_4a/3x3"
  top: "inception_4a/3x3"
}
layer {
  name: "inception_4a/5x5_reduce"
  type: "Convolution"
  bottom: "pool3/3x3_s2"
  top: "inception_4a/5x5_reduce"
  param {
    lr_mult: 1
    decay_mult: 1
  }
  param {
    lr_mult: 2
    decay_mult: 0
  }
  convolution_param {
    num_output: 16
    kernel_size: 1
    weight_filler {
      type: "xavier"
      std: 0.2
    }
    bias_filler {
      type: "constant"
      value: 0.2
    }
  }
}
layer {
  name: "inception_4a/relu_5x5_reduce"
  type: "ReLU"
  bottom: "inception_4a/5x5_reduce"
  top: "inception_4a/5x5_reduce"
}
layer {
  name: "inception_4a/5x5"
  type: "Convolution"
  bottom: "inception_4a/5x5_reduce"
  top: "inception_4a/5x5"
  param {
    lr_mult: 1
    decay_mult: 1
  }
  param {
    lr_mult: 2
    decay_mult: 0
  }
  convolution_param {
    num_output: 48
    pad: 2
    kernel_size: 5
    weight_filler {
      type: "xavier"
      std: 0.03
    }
    bias_filler {
      type: "constant"
      value: 0.2
    }
  }
}
layer {
  name: "inception_4a/relu_5x5"
  type: "ReLU"
  bottom: "inception_4a/5x5"
  top: "inception_4a/5x5"
}
layer {
  name: "inception_4a/pool"
  type: "Pooling"
  bottom: "pool3/3x3_s2"
  top: "inception_4a/pool"
  pooling_param {
    pool: MAX
    kernel_size: 3
    stride: 1
    pad: 1
  }
}
layer {
  name: "inception_4a/pool_proj"
  type: "Convolution"
  bottom: "inception_4a/pool"
  top: "inception_4a/pool_proj"
  param {
    lr_mult: 1
    decay_mult: 1
  }
  param {
    lr_mult: 2
    decay_mult: 0
  }
  convolution_param {
    num_output: 64
    kernel_size: 1
    weight_filler {
      type: "xavier"
      std: 0.1
    }
    bias_filler {
      type: "constant"
      value: 0.2
    }
  }
}
layer {
  name: "inception_4a/relu_pool_proj"
  type: "ReLU"
  bottom: "inception_4a/pool_proj"
  top: "inception_4a/pool_proj"
}
layer {
  name: "inception_4a/output"
  type: "Concat"
  bottom: "inception_4a/1x1"
  bottom: "inception_4a/3x3"
  bottom: "inception_4a/5x5"
  bottom: "inception_4a/pool_proj"
  top: "inception_4a/output"
}
layer {
  name: "loss1/ave_pool"
  type: "Pooling"
  bottom: "inception_4a/output"
  top: "loss1/ave_pool"
  pooling_param {
    pool: AVE
    kernel_size: 5
    stride: 3
  }
}
layer {
  name: "loss1/conv"
  type: "Convolution"
  bottom: "loss1/ave_pool"
  top: "loss1/conv"
  param {
    lr_mult: 1
    decay_mult: 1
  }
  param {
    lr_mult: 2
    decay_mult: 0
  }
  convolution_param {
    num_output: 128
    kernel_size: 1
    weight_filler {
      type: "xavier"
      std: 0.08
    }
    bias_filler {
      type: "constant"
      value: 0.2
    }
  }
}
layer {
  name: "loss1/relu_conv"
  type: "ReLU"
  bottom: "loss1/conv"
  top: "loss1/conv"
}
layer {
  name: "loss1/fc"
  type: "InnerProduct"
  bottom: "loss1/conv"
  top: "loss1/fc"
  param {
    lr_mult: 1
    decay_mult: 1
  }
  param {
    lr_mult: 2
    decay_mult: 0
  }
  inner_product_param {
    num_output: 1024
    weight_filler {
      type: "xavier"
      std: 0.02
    }
    bias_filler {
      type: "constant"
      value: 0.2
    }
  }
}
layer {
  name: "loss1/relu_fc"
  type: "ReLU"
  bottom: "loss1/fc"
  top: "loss1/fc"
}
layer {
  name: "loss1/drop_fc"
  type: "Dropout"
  bottom: "loss1/fc"
  top: "loss1/fc"
  dropout_param {
    dropout_ratio: 0.7
  }
}
layer {
  name: "loss1/classifier_plantvillage"
  type: "InnerProduct"
  bottom: "loss1/fc"
  top: "loss1/classifier_plantvillage"
  param {
    lr_mult: 1
    decay_mult: 1
  }
  param {
    lr_mult: 2
    decay_mult: 0
  }
  inner_product_param {
    num_output: 38
    weight_filler {
      type: "xavier"
      std: 0.0009765625
    }
    bias_filler {
      type: "constant"
      value: 0
    }
  }
}
layer {
  name: "inception_4b/1x1"
  type: "Convolution"
  bottom: "inception_4a/output"
  top: "inception_4b/1x1"
  param {
    lr_mult: 1
    decay_mult: 1
  }
  param {
    lr_mult: 2
    decay_mult: 0
  }
  convolution_param {
    num_output: 160
    kernel_size: 1
    weight_filler {
      type: "xavier"
      std: 0.03
    }
    bias_filler {
      type: "constant"
      value: 0.2
    }
  }
}
layer {
  name: "inception_4b/relu_1x1"
  type: "ReLU"
  bottom: "inception_4b/1x1"
  top: "inception_4b/1x1"
}
layer {
  name: "inception_4b/3x3_reduce"
  type: "Convolution"
  bottom: "inception_4a/output"
  top: "inception_4b/3x3_reduce"
  param {
    lr_mult: 1
    decay_mult: 1
  }
  param {
    lr_mult: 2
    decay_mult: 0
  }
  convolution_param {
    num_output: 112
    kernel_size: 1
    weight_filler {
      type: "xavier"
      std: 0.09
    }
    bias_filler {
      type: "constant"
      value: 0.2
    }
  }
}
layer {
  name: "inception_4b/relu_3x3_reduce"
  type: "ReLU"
  bottom: "inception_4b/3x3_reduce"
  top: "inception_4b/3x3_reduce"
}
layer {
  name: "inception_4b/3x3"
  type: "Convolution"
  bottom: "inception_4b/3x3_reduce"
  top: "inception_4b/3x3"
  param {
    lr_mult: 1
    decay_mult: 1
  }
  param {
    lr_mult: 2
    decay_mult: 0
  }
  convolution_param {
    num_output: 224
    pad: 1
    kernel_size: 3
    weight_filler {
      type: "xavier"
      std: 0.03
    }
    bias_filler {
      type: "constant"
      value: 0.2
    }
  }
}
layer {
  name: "inception_4b/relu_3x3"
  type: "ReLU"
  bottom: "inception_4b/3x3"
  top: "inception_4b/3x3"
}
layer {
  name: "inception_4b/5x5_reduce"
  type: "Convolution"
  bottom: "inception_4a/output"
  top: "inception_4b/5x5_reduce"
  param {
    lr_mult: 1
    decay_mult: 1
  }
  param {
    lr_mult: 2
    decay_mult: 0
  }
  convolution_param {
    num_output: 24
    kernel_size: 1
    weight_filler {
      type: "xavier"
      std: 0.2
    }
    bias_filler {
      type: "constant"
      value: 0.2
    }
  }
}
layer {
  name: "inception_4b/relu_5x5_reduce"
  type: "ReLU"
  bottom: "inception_4b/5x5_reduce"
  top: "inception_4b/5x5_reduce"
}
layer {
  name: "inception_4b/5x5"
  type: "Convolution"
  bottom: "inception_4b/5x5_reduce"
  top: "inception_4b/5x5"
  param {
    lr_mult: 1
    decay_mult: 1
  }
  param {
    lr_mult: 2
    decay_mult: 0
  }
  convolution_param {
    num_output: 64
    pad: 2
    kernel_size: 5
    weight_filler {
      type: "xavier"
      std: 0.03
    }
    bias_filler {
      type: "constant"
      value: 0.2
    }
  }
}
layer {
  name: "inception_4b/relu_5x5"
  type: "ReLU"
  bottom: "inception_4b/5x5"
  top: "inception_4b/5x5"
}
layer {
  name: "inception_4b/pool"
  type: "Pooling"
  bottom: "inception_4a/output"
  top: "inception_4b/pool"
  pooling_param {
    pool: MAX
    kernel_size: 3
    stride: 1
    pad: 1
  }
}
layer {
  name: "inception_4b/pool_proj"
  type: "Convolution"
  bottom: "inception_4b/pool"
  top: "inception_4b/pool_proj"
  param {
    lr_mult: 1
    decay_mult: 1
  }
  param {
    lr_mult: 2
    decay_mult: 0
  }
  convolution_param {
    num_output: 64
    kernel_size: 1
    weight_filler {
      type: "xavier"
      std: 0.1
    }
    bias_filler {
      type: "constant"
      value: 0.2
    }
  }
}
layer {
  name: "inception_4b/relu_pool_proj"
  type: "ReLU"
  bottom: "inception_4b/pool_proj"
  top: "inception_4b/pool_proj"
}
layer {
  name: "inception_4b/output"
  type: "Concat"
  bottom: "inception_4b/1x1"
  bottom: "inception_4b/3x3"
  bottom: "inception_4b/5x5"
  bottom: "inception_4b/pool_proj"
  top: "inception_4b/output"
}
layer {
  name: "inception_4c/1x1"
  type: "Convolution"
  bottom: "inception_4b/output"
  top: "inception_4c/1x1"
  param {
    lr_mult: 1
    decay_mult: 1
  }
  param {
    lr_mult: 2
    decay_mult: 0
  }
  convolution_param {
    num_output: 128
    kernel_size: 1
    weight_filler {
      type: "xavier"
      std: 0.03
    }
    bias_filler {
      type: "constant"
      value: 0.2
    }
  }
}
layer {
  name: "inception_4c/relu_1x1"
  type: "ReLU"
  bottom: "inception_4c/1x1"
  top: "inception_4c/1x1"
}
layer {
  name: "inception_4c/3x3_reduce"
  type: "Convolution"
  bottom: "inception_4b/output"
  top: "inception_4c/3x3_reduce"
  param {
    lr_mult: 1
    decay_mult: 1
  }
  param {
    lr_mult: 2
    decay_mult: 0
  }
  convolution_param {
    num_output: 128
    kernel_size: 1
    weight_filler {
      type: "xavier"
      std: 0.09
    }
    bias_filler {
      type: "constant"
      value: 0.2
    }
  }
}
layer {
  name: "inception_4c/relu_3x3_reduce"
  type: "ReLU"
  bottom: "inception_4c/3x3_reduce"
  top: "inception_4c/3x3_reduce"
}
layer {
  name: "inception_4c/3x3"
  type: "Convolution"
  bottom: "inception_4c/3x3_reduce"
  top: "inception_4c/3x3"
  param {
    lr_mult: 1
    decay_mult: 1
  }
  param {
    lr_mult: 2
    decay_mult: 0
  }
  convolution_param {
    num_output: 256
    pad: 1
    kernel_size: 3
    weight_filler {
      type: "xavier"
      std: 0.03
    }
    bias_filler {
      type: "constant"
      value: 0.2
    }
  }
}
layer {
  name: "inception_4c/relu_3x3"
  type: "ReLU"
  bottom: "inception_4c/3x3"
  top: "inception_4c/3x3"
}
layer {
  name: "inception_4c/5x5_reduce"
  type: "Convolution"
  bottom: "inception_4b/output"
  top: "inception_4c/5x5_reduce"
  param {
    lr_mult: 1
    decay_mult: 1
  }
  param {
    lr_mult: 2
    decay_mult: 0
  }
  convolution_param {
    num_output: 24
    kernel_size: 1
    weight_filler {
      type: "xavier"
      std: 0.2
    }
    bias_filler {
      type: "constant"
      value: 0.2
    }
  }
}
layer {
  name: "inception_4c/relu_5x5_reduce"
  type: "ReLU"
  bottom: "inception_4c/5x5_reduce"
  top: "inception_4c/5x5_reduce"
}
layer {
  name: "inception_4c/5x5"
  type: "Convolution"
  bottom: "inception_4c/5x5_reduce"
  top: "inception_4c/5x5"
  param {
    lr_mult: 1
    decay_mult: 1
  }
  param {
    lr_mult: 2
    decay_mult: 0
  }
  convolution_param {
    num_output: 64
    pad: 2
    kernel_size: 5
    weight_filler {
      type: "xavier"
      std: 0.03
    }
    bias_filler {
      type: "constant"
      value: 0.2
    }
  }
}
layer {
  name: "inception_4c/relu_5x5"
  type: "ReLU"
  bottom: "inception_4c/5x5"
  top: "inception_4c/5x5"
}
layer {
  name: "inception_4c/pool"
  type: "Pooling"
  bottom: "inception_4b/output"
  top: "inception_4c/pool"
  pooling_param {
    pool: MAX
    kernel_size: 3
    stride: 1
    pad: 1
  }
}
layer {
  name: "inception_4c/pool_proj"
  type: "Convolution"
  bottom: "inception_4c/pool"
  top: "inception_4c/pool_proj"
  param {
    lr_mult: 1
    decay_mult: 1
  }
  param {
    lr_mult: 2
    decay_mult: 0
  }
  convolution_param {
    num_output: 64
    kernel_size: 1
    weight_filler {
      type: "xavier"
      std: 0.1
    }
    bias_filler {
      type: "constant"
      value: 0.2
    }
  }
}
layer {
  name: "inception_4c/relu_pool_proj"
  type: "ReLU"
  bottom: "inception_4c/pool_proj"
  top: "inception_4c/pool_proj"
}
layer {
  name: "inception_4c/output"
  type: "Concat"
  bottom: "inception_4c/1x1"
  bottom: "inception_4c/3x3"
  bottom: "inception_4c/5x5"
  bottom: "inception_4c/pool_proj"
  top: "inception_4c/output"
}
layer {
  name: "inception_4d/1x1"
  type: "Convolution"
  bottom: "inception_4c/output"
  top: "inception_4d/1x1"
  param {
    lr_mult: 1
    decay_mult: 1
  }
  param {
    lr_mult: 2
    decay_mult: 0
  }
  convolution_param {
    num_output: 112
    kernel_size: 1
    weight_filler {
      type: "xavier"
      std: 0.03
    }
    bias_filler {
      type: "constant"
      value: 0.2
    }
  }
}
layer {
  name: "inception_4d/relu_1x1"
  type: "ReLU"
  bottom: "inception_4d/1x1"
  top: "inception_4d/1x1"
}
layer {
  name: "inception_4d/3x3_reduce"
  type: "Convolution"
  bottom: "inception_4c/output"
  top: "inception_4d/3x3_reduce"
  param {
    lr_mult: 1
    decay_mult: 1
  }
  param {
    lr_mult: 2
    decay_mult: 0
  }
  convolution_param {
    num_output: 144
    kernel_size: 1
    weight_filler {
      type: "xavier"
      std: 0.09
    }
    bias_filler {
      type: "constant"
      value: 0.2
    }
  }
}
layer {
  name: "inception_4d/relu_3x3_reduce"
  type: "ReLU"
  bottom: "inception_4d/3x3_reduce"
  top: "inception_4d/3x3_reduce"
}
layer {
  name: "inception_4d/3x3"
  type: "Convolution"
  bottom: "inception_4d/3x3_reduce"
  top: "inception_4d/3x3"
  param {
    lr_mult: 1
    decay_mult: 1
  }
  param {
    lr_mult: 2
    decay_mult: 0
  }
  convolution_param {
    num_output: 288
    pad: 1
    kernel_size: 3
    weight_filler {
      type: "xavier"
      std: 0.03
    }
    bias_filler {
      type: "constant"
      value: 0.2
    }
  }
}
layer {
  name: "inception_4d/relu_3x3"
  type: "ReLU"
  bottom: "inception_4d/3x3"
  top: "inception_4d/3x3"
}
layer {
  name: "inception_4d/5x5_reduce"
  type: "Convolution"
  bottom: "inception_4c/output"
  top: "inception_4d/5x5_reduce"
  param {
    lr_mult: 1
    decay_mult: 1
  }
  param {
    lr_mult: 2
    decay_mult: 0
  }
  convolution_param {
    num_output: 32
    kernel_size: 1
    weight_filler {
      type: "xavier"
      std: 0.2
    }
    bias_filler {
      type: "constant"
      value: 0.2
    }
  }
}
layer {
  name: "inception_4d/relu_5x5_reduce"
  type: "ReLU"
  bottom: "inception_4d/5x5_reduce"
  top: "inception_4d/5x5_reduce"
}
layer {
  name: "inception_4d/5x5"
  type: "Convolution"
  bottom: "inception_4d/5x5_reduce"
  top: "inception_4d/5x5"
  param {
    lr_mult: 1
    decay_mult: 1
  }
  param {
    lr_mult: 2
    decay_mult: 0
  }
  convolution_param {
    num_output: 64
    pad: 2
    kernel_size: 5
    weight_filler {
      type: "xavier"
      std: 0.03
    }
    bias_filler {
      type: "constant"
      value: 0.2
    }
  }
}
layer {
  name: "inception_4d/relu_5x5"
  type: "ReLU"
  bottom: "inception_4d/5x5"
  top: "inception_4d/5x5"
}
layer {
  name: "inception_4d/pool"
  type: "Pooling"
  bottom: "inception_4c/output"
  top: "inception_4d/pool"
  pooling_param {
    pool: MAX
    kernel_size: 3
    stride: 1
    pad: 1
  }
}
layer {
  name: "inception_4d/pool_proj"
  type: "Convolution"
  bottom: "inception_4d/pool"
  top: "inception_4d/pool_proj"
  param {
    lr_mult: 1
    decay_mult: 1
  }
  param {
    lr_mult: 2
    decay_mult: 0
  }
  convolution_param {
    num_output: 64
    kernel_size: 1
    weight_filler {
      type: "xavier"
      std: 0.1
    }
    bias_filler {
      type: "constant"
      value: 0.2
    }
  }
}
layer {
  name: "inception_4d/relu_pool_proj"
  type: "ReLU"
  bottom: "inception_4d/pool_proj"
  top: "inception_4d/pool_proj"
}
layer {
  name: "inception_4d/output"
  type: "Concat"
  bottom: "inception_4d/1x1"
  bottom: "inception_4d/3x3"
  bottom: "inception_4d/5x5"
  bottom: "inception_4d/pool_proj"
  top: "inception_4d/output"
}
layer {
  name: "loss2/ave_pool"
  type: "Pooling"
  bottom: "inception_4d/output"
  top: "loss2/ave_pool"
  pooling_param {
    pool: AVE
    kernel_size: 5
    stride: 3
  }
}
layer {
  name: "loss2/conv"
  type: "Convolution"
  bottom: "loss2/ave_pool"
  top: "loss2/conv"
  param {
    lr_mult: 1
    decay_mult: 1
  }
  param {
    lr_mult: 2
    decay_mult: 0
  }
  convolution_param {
    num_output: 128
    kernel_size: 1
    weight_filler {
      type: "xavier"
      std: 0.08
    }
    bias_filler {
      type: "constant"
      value: 0.2
    }
  }
}
layer {
  name: "loss2/relu_conv"
  type: "ReLU"
  bottom: "loss2/conv"
  top: "loss2/conv"
}
layer {
  name: "loss2/fc"
  type: "InnerProduct"
  bottom: "loss2/conv"
  top: "loss2/fc"
  param {
    lr_mult: 1
    decay_mult: 1
  }
  param {
    lr_mult: 2
    decay_mult: 0
  }
  inner_product_param {
    num_output: 1024
    weight_filler {
      type: "xavier"
      std: 0.02
    }
    bias_filler {
      type: "constant"
      value: 0.2
    }
  }
}
layer {
  name: "loss2/relu_fc"
  type: "ReLU"
  bottom: "loss2/fc"
  top: "loss2/fc"
}
layer {
  name: "loss2/drop_fc"
  type: "Dropout"
  bottom: "loss2/fc"
  top: "loss2/fc"
  dropout_param {
    dropout_ratio: 0.7
  }
}
layer {
  name: "loss2/classifier_plantvillage"
  type: "InnerProduct"
  bottom: "loss2/fc"
  top: "loss2/classifier_plantvillage"
  param {
    lr_mult: 1
    decay_mult: 1
  }
  param {
    lr_mult: 2
    decay_mult: 0
  }
  inner_product_param {
    num_output: 38
    weight_filler {
      type: "xavier"
      std: 0.0009765625
    }
    bias_filler {
      type: "constant"
      value: 0
    }
  }
}
layer {
  name: "inception_4e/1x1"
  type: "Convolution"
  bottom: "inception_4d/output"
  top: "inception_4e/1x1"
  param {
    lr_mult: 1
    decay_mult: 1
  }
  param {
    lr_mult: 2
    decay_mult: 0
  }
  convolution_param {
    num_output: 256
    kernel_size: 1
    weight_filler {
      type: "xavier"
      std: 0.03
    }
    bias_filler {
      type: "constant"
      value: 0.2
    }
  }
}
layer {
  name: "inception_4e/relu_1x1"
  type: "ReLU"
  bottom: "inception_4e/1x1"
  top: "inception_4e/1x1"
}
layer {
  name: "inception_4e/3x3_reduce"
  type: "Convolution"
  bottom: "inception_4d/output"
  top: "inception_4e/3x3_reduce"
  param {
    lr_mult: 1
    decay_mult: 1
  }
  param {
    lr_mult: 2
    decay_mult: 0
  }
  convolution_param {
    num_output: 160
    kernel_size: 1
    weight_filler {
      type: "xavier"
      std: 0.09
    }
    bias_filler {
      type: "constant"
      value: 0.2
    }
  }
}
layer {
  name: "inception_4e/relu_3x3_reduce"
  type: "ReLU"
  bottom: "inception_4e/3x3_reduce"
  top: "inception_4e/3x3_reduce"
}
layer {
  name: "inception_4e/3x3"
  type: "Convolution"
  bottom: "inception_4e/3x3_reduce"
  top: "inception_4e/3x3"
  param {
    lr_mult: 1
    decay_mult: 1
  }
  param {
    lr_mult: 2
    decay_mult: 0
  }
  convolution_param {
    num_output: 320
    pad: 1
    kernel_size: 3
    weight_filler {
      type: "xavier"
      std: 0.03
    }
    bias_filler {
      type: "constant"
      value: 0.2
    }
  }
}
layer {
  name: "inception_4e/relu_3x3"
  type: "ReLU"
  bottom: "inception_4e/3x3"
  top: "inception_4e/3x3"
}
layer {
  name: "inception_4e/5x5_reduce"
  type: "Convolution"
  bottom: "inception_4d/output"
  top: "inception_4e/5x5_reduce"
  param {
    lr_mult: 1
    decay_mult: 1
  }
  param {
    lr_mult: 2
    decay_mult: 0
  }
  convolution_param {
    num_output: 32
    kernel_size: 1
    weight_filler {
      type: "xavier"
      std: 0.2
    }
    bias_filler {
      type: "constant"
      value: 0.2
    }
  }
}
layer {
  name: "inception_4e/relu_5x5_reduce"
  type: "ReLU"
  bottom: "inception_4e/5x5_reduce"
  top: "inception_4e/5x5_reduce"
}
layer {
  name: "inception_4e/5x5"
  type: "Convolution"
  bottom: "inception_4e/5x5_reduce"
  top: "inception_4e/5x5"
  p
I0403 14:45:00.024055 13601 layer_factory.hpp:77] Creating layer data
I0403 14:45:00.024675 13601 net.cpp:91] Creating Layer data
I0403 14:45:00.024706 13601 net.cpp:399] data -> data
I0403 14:45:00.024758 13601 net.cpp:399] data -> label
I0403 14:45:00.024794 13601 data_transformer.cpp:25] Loading mean file from: /home/mohanty/data/final_dataset/lmdb/color-40-60/mean.binaryproto
I0403 14:45:00.027597 13604 db_lmdb.cpp:38] Opened lmdb /home/mohanty/data/final_dataset/lmdb/color-40-60/test_db
I0403 14:45:00.038018 13601 data_layer.cpp:41] output data size: 24,3,224,224
I0403 14:45:00.064702 13601 net.cpp:141] Setting up data
I0403 14:45:00.064777 13601 net.cpp:148] Top shape: 24 3 224 224 (3612672)
I0403 14:45:00.064800 13601 net.cpp:148] Top shape: 24 (24)
I0403 14:45:00.064815 13601 net.cpp:156] Memory required for data: 14450784
I0403 14:45:00.064841 13601 layer_factory.hpp:77] Creating layer label_data_1_split
I0403 14:45:00.064867 13601 net.cpp:91] Creating Layer label_data_1_split
I0403 14:45:00.064885 13601 net.cpp:425] label_data_1_split <- label
I0403 14:45:00.064915 13601 net.cpp:399] label_data_1_split -> label_data_1_split_0
I0403 14:45:00.064944 13601 net.cpp:399] label_data_1_split -> label_data_1_split_1
I0403 14:45:00.064963 13601 net.cpp:399] label_data_1_split -> label_data_1_split_2
I0403 14:45:00.064983 13601 net.cpp:399] label_data_1_split -> label_data_1_split_3
I0403 14:45:00.065002 13601 net.cpp:399] label_data_1_split -> label_data_1_split_4
I0403 14:45:00.065021 13601 net.cpp:399] label_data_1_split -> label_data_1_split_5
I0403 14:45:00.065039 13601 net.cpp:399] label_data_1_split -> label_data_1_split_6
I0403 14:45:00.065058 13601 net.cpp:399] label_data_1_split -> label_data_1_split_7
I0403 14:45:00.065076 13601 net.cpp:399] label_data_1_split -> label_data_1_split_8
I0403 14:45:00.065095 13601 net.cpp:399] label_data_1_split -> label_data_1_split_9
I0403 14:45:00.065209 13601 net.cpp:141] Setting up label_data_1_split
I0403 14:45:00.065232 13601 net.cpp:148] Top shape: 24 (24)
I0403 14:45:00.065248 13601 net.cpp:148] Top shape: 24 (24)
I0403 14:45:00.065264 13601 net.cpp:148] Top shape: 24 (24)
I0403 14:45:00.065279 13601 net.cpp:148] Top shape: 24 (24)
I0403 14:45:00.065294 13601 net.cpp:148] Top shape: 24 (24)
I0403 14:45:00.065307 13601 net.cpp:148] Top shape: 24 (24)
I0403 14:45:00.065322 13601 net.cpp:148] Top shape: 24 (24)
I0403 14:45:00.065337 13601 net.cpp:148] Top shape: 24 (24)
I0403 14:45:00.065351 13601 net.cpp:148] Top shape: 24 (24)
I0403 14:45:00.065366 13601 net.cpp:148] Top shape: 24 (24)
I0403 14:45:00.065407 13601 net.cpp:156] Memory required for data: 14451744
I0403 14:45:00.065421 13601 layer_factory.hpp:77] Creating layer conv1/7x7_s2
I0403 14:45:00.065453 13601 net.cpp:91] Creating Layer conv1/7x7_s2
I0403 14:45:00.065470 13601 net.cpp:425] conv1/7x7_s2 <- data
I0403 14:45:00.065490 13601 net.cpp:399] conv1/7x7_s2 -> conv1/7x7_s2
I0403 14:45:00.205183 13601 net.cpp:141] Setting up conv1/7x7_s2
I0403 14:45:00.205225 13601 net.cpp:148] Top shape: 24 64 112 112 (19267584)
I0403 14:45:00.205245 13601 net.cpp:156] Memory required for data: 91522080
I0403 14:45:00.205277 13601 layer_factory.hpp:77] Creating layer conv1/relu_7x7
I0403 14:45:00.205307 13601 net.cpp:91] Creating Layer conv1/relu_7x7
I0403 14:45:00.205327 13601 net.cpp:425] conv1/relu_7x7 <- conv1/7x7_s2
I0403 14:45:00.205348 13601 net.cpp:386] conv1/relu_7x7 -> conv1/7x7_s2 (in-place)
I0403 14:45:00.205636 13601 net.cpp:141] Setting up conv1/relu_7x7
I0403 14:45:00.205667 13601 net.cpp:148] Top shape: 24 64 112 112 (19267584)
I0403 14:45:00.205682 13601 net.cpp:156] Memory required for data: 168592416
I0403 14:45:00.205698 13601 layer_factory.hpp:77] Creating layer pool1/3x3_s2
I0403 14:45:00.205727 13601 net.cpp:91] Creating Layer pool1/3x3_s2
I0403 14:45:00.205746 13601 net.cpp:425] pool1/3x3_s2 <- conv1/7x7_s2
I0403 14:45:00.205765 13601 net.cpp:399] pool1/3x3_s2 -> pool1/3x3_s2
I0403 14:45:00.205847 13601 net.cpp:141] Setting up pool1/3x3_s2
I0403 14:45:00.205873 13601 net.cpp:148] Top shape: 24 64 56 56 (4816896)
I0403 14:45:00.205888 13601 net.cpp:156] Memory required for data: 187860000
I0403 14:45:00.205902 13601 layer_factory.hpp:77] Creating layer pool1/norm1
I0403 14:45:00.205931 13601 net.cpp:91] Creating Layer pool1/norm1
I0403 14:45:00.205951 13601 net.cpp:425] pool1/norm1 <- pool1/3x3_s2
I0403 14:45:00.205970 13601 net.cpp:399] pool1/norm1 -> pool1/norm1
I0403 14:45:00.206279 13601 net.cpp:141] Setting up pool1/norm1
I0403 14:45:00.206310 13601 net.cpp:148] Top shape: 24 64 56 56 (4816896)
I0403 14:45:00.206328 13601 net.cpp:156] Memory required for data: 207127584
I0403 14:45:00.206343 13601 layer_factory.hpp:77] Creating layer conv2/3x3_reduce
I0403 14:45:00.206368 13601 net.cpp:91] Creating Layer conv2/3x3_reduce
I0403 14:45:00.206385 13601 net.cpp:425] conv2/3x3_reduce <- pool1/norm1
I0403 14:45:00.206408 13601 net.cpp:399] conv2/3x3_reduce -> conv2/3x3_reduce
I0403 14:45:00.207811 13601 net.cpp:141] Setting up conv2/3x3_reduce
I0403 14:45:00.207840 13601 net.cpp:148] Top shape: 24 64 56 56 (4816896)
I0403 14:45:00.207856 13601 net.cpp:156] Memory required for data: 226395168
I0403 14:45:00.207875 13601 layer_factory.hpp:77] Creating layer conv2/relu_3x3_reduce
I0403 14:45:00.207892 13601 net.cpp:91] Creating Layer conv2/relu_3x3_reduce
I0403 14:45:00.207906 13601 net.cpp:425] conv2/relu_3x3_reduce <- conv2/3x3_reduce
I0403 14:45:00.207924 13601 net.cpp:386] conv2/relu_3x3_reduce -> conv2/3x3_reduce (in-place)
I0403 14:45:00.208184 13601 net.cpp:141] Setting up conv2/relu_3x3_reduce
I0403 14:45:00.208209 13601 net.cpp:148] Top shape: 24 64 56 56 (4816896)
I0403 14:45:00.208223 13601 net.cpp:156] Memory required for data: 245662752
I0403 14:45:00.208236 13601 layer_factory.hpp:77] Creating layer conv2/3x3
I0403 14:45:00.208259 13601 net.cpp:91] Creating Layer conv2/3x3
I0403 14:45:00.208276 13601 net.cpp:425] conv2/3x3 <- conv2/3x3_reduce
I0403 14:45:00.208297 13601 net.cpp:399] conv2/3x3 -> conv2/3x3
I0403 14:45:00.210503 13601 net.cpp:141] Setting up conv2/3x3
I0403 14:45:00.210532 13601 net.cpp:148] Top shape: 24 192 56 56 (14450688)
I0403 14:45:00.210547 13601 net.cpp:156] Memory required for data: 303465504
I0403 14:45:00.210567 13601 layer_factory.hpp:77] Creating layer conv2/relu_3x3
I0403 14:45:00.210587 13601 net.cpp:91] Creating Layer conv2/relu_3x3
I0403 14:45:00.210608 13601 net.cpp:425] conv2/relu_3x3 <- conv2/3x3
I0403 14:45:00.210626 13601 net.cpp:386] conv2/relu_3x3 -> conv2/3x3 (in-place)
I0403 14:45:00.210794 13601 net.cpp:141] Setting up conv2/relu_3x3
I0403 14:45:00.210820 13601 net.cpp:148] Top shape: 24 192 56 56 (14450688)
I0403 14:45:00.210863 13601 net.cpp:156] Memory required for data: 361268256
I0403 14:45:00.210878 13601 layer_factory.hpp:77] Creating layer conv2/norm2
I0403 14:45:00.210896 13601 net.cpp:91] Creating Layer conv2/norm2
I0403 14:45:00.210911 13601 net.cpp:425] conv2/norm2 <- conv2/3x3
I0403 14:45:00.210929 13601 net.cpp:399] conv2/norm2 -> conv2/norm2
I0403 14:45:00.211225 13601 net.cpp:141] Setting up conv2/norm2
I0403 14:45:00.211251 13601 net.cpp:148] Top shape: 24 192 56 56 (14450688)
I0403 14:45:00.211267 13601 net.cpp:156] Memory required for data: 419071008
I0403 14:45:00.211282 13601 layer_factory.hpp:77] Creating layer pool2/3x3_s2
I0403 14:45:00.211298 13601 net.cpp:91] Creating Layer pool2/3x3_s2
I0403 14:45:00.211313 13601 net.cpp:425] pool2/3x3_s2 <- conv2/norm2
I0403 14:45:00.211331 13601 net.cpp:399] pool2/3x3_s2 -> pool2/3x3_s2
I0403 14:45:00.211382 13601 net.cpp:141] Setting up pool2/3x3_s2
I0403 14:45:00.211405 13601 net.cpp:148] Top shape: 24 192 28 28 (3612672)
I0403 14:45:00.211418 13601 net.cpp:156] Memory required for data: 433521696
I0403 14:45:00.211431 13601 layer_factory.hpp:77] Creating layer pool2/3x3_s2_pool2/3x3_s2_0_split
I0403 14:45:00.211449 13601 net.cpp:91] Creating Layer pool2/3x3_s2_pool2/3x3_s2_0_split
I0403 14:45:00.211465 13601 net.cpp:425] pool2/3x3_s2_pool2/3x3_s2_0_split <- pool2/3x3_s2
I0403 14:45:00.211483 13601 net.cpp:399] pool2/3x3_s2_pool2/3x3_s2_0_split -> pool2/3x3_s2_pool2/3x3_s2_0_split_0
I0403 14:45:00.211503 13601 net.cpp:399] pool2/3x3_s2_pool2/3x3_s2_0_split -> pool2/3x3_s2_pool2/3x3_s2_0_split_1
I0403 14:45:00.211522 13601 net.cpp:399] pool2/3x3_s2_pool2/3x3_s2_0_split -> pool2/3x3_s2_pool2/3x3_s2_0_split_2
I0403 14:45:00.211541 13601 net.cpp:399] pool2/3x3_s2_pool2/3x3_s2_0_split -> pool2/3x3_s2_pool2/3x3_s2_0_split_3
I0403 14:45:00.211611 13601 net.cpp:141] Setting up pool2/3x3_s2_pool2/3x3_s2_0_split
I0403 14:45:00.211634 13601 net.cpp:148] Top shape: 24 192 28 28 (3612672)
I0403 14:45:00.211649 13601 net.cpp:148] Top shape: 24 192 28 28 (3612672)
I0403 14:45:00.211663 13601 net.cpp:148] Top shape: 24 192 28 28 (3612672)
I0403 14:45:00.211678 13601 net.cpp:148] Top shape: 24 192 28 28 (3612672)
I0403 14:45:00.211691 13601 net.cpp:156] Memory required for data: 491324448
I0403 14:45:00.211704 13601 layer_factory.hpp:77] Creating layer inception_3a/1x1
I0403 14:45:00.211725 13601 net.cpp:91] Creating Layer inception_3a/1x1
I0403 14:45:00.211742 13601 net.cpp:425] inception_3a/1x1 <- pool2/3x3_s2_pool2/3x3_s2_0_split_0
I0403 14:45:00.211761 13601 net.cpp:399] inception_3a/1x1 -> inception_3a/1x1
I0403 14:45:00.213227 13601 net.cpp:141] Setting up inception_3a/1x1
I0403 14:45:00.213254 13601 net.cpp:148] Top shape: 24 64 28 28 (1204224)
I0403 14:45:00.213270 13601 net.cpp:156] Memory required for data: 496141344
I0403 14:45:00.213287 13601 layer_factory.hpp:77] Creating layer inception_3a/relu_1x1
I0403 14:45:00.213307 13601 net.cpp:91] Creating Layer inception_3a/relu_1x1
I0403 14:45:00.213322 13601 net.cpp:425] inception_3a/relu_1x1 <- inception_3a/1x1
I0403 14:45:00.213340 13601 net.cpp:386] inception_3a/relu_1x1 -> inception_3a/1x1 (in-place)
I0403 14:45:00.213505 13601 net.cpp:141] Setting up inception_3a/relu_1x1
I0403 14:45:00.213528 13601 net.cpp:148] Top shape: 24 64 28 28 (1204224)
I0403 14:45:00.213543 13601 net.cpp:156] Memory required for data: 500958240
I0403 14:45:00.213557 13601 layer_factory.hpp:77] Creating layer inception_3a/3x3_reduce
I0403 14:45:00.213577 13601 net.cpp:91] Creating Layer inception_3a/3x3_reduce
I0403 14:45:00.213593 13601 net.cpp:425] inception_3a/3x3_reduce <- pool2/3x3_s2_pool2/3x3_s2_0_split_1
I0403 14:45:00.213619 13601 net.cpp:399] inception_3a/3x3_reduce -> inception_3a/3x3_reduce
I0403 14:45:00.215250 13601 net.cpp:141] Setting up inception_3a/3x3_reduce
I0403 14:45:00.215279 13601 net.cpp:148] Top shape: 24 96 28 28 (1806336)
I0403 14:45:00.215294 13601 net.cpp:156] Memory required for data: 508183584
I0403 14:45:00.215314 13601 layer_factory.hpp:77] Creating layer inception_3a/relu_3x3_reduce
I0403 14:45:00.215350 13601 net.cpp:91] Creating Layer inception_3a/relu_3x3_reduce
I0403 14:45:00.215368 13601 net.cpp:425] inception_3a/relu_3x3_reduce <- inception_3a/3x3_reduce
I0403 14:45:00.215384 13601 net.cpp:386] inception_3a/relu_3x3_reduce -> inception_3a/3x3_reduce (in-place)
I0403 14:45:00.215558 13601 net.cpp:141] Setting up inception_3a/relu_3x3_reduce
I0403 14:45:00.215581 13601 net.cpp:148] Top shape: 24 96 28 28 (1806336)
I0403 14:45:00.215595 13601 net.cpp:156] Memory required for data: 515408928
I0403 14:45:00.215613 13601 layer_factory.hpp:77] Creating layer inception_3a/3x3
I0403 14:45:00.215636 13601 net.cpp:91] Creating Layer inception_3a/3x3
I0403 14:45:00.215652 13601 net.cpp:425] inception_3a/3x3 <- inception_3a/3x3_reduce
I0403 14:45:00.215673 13601 net.cpp:399] inception_3a/3x3 -> inception_3a/3x3
I0403 14:45:00.217257 13601 net.cpp:141] Setting up inception_3a/3x3
I0403 14:45:00.217285 13601 net.cpp:148] Top shape: 24 128 28 28 (2408448)
I0403 14:45:00.217300 13601 net.cpp:156] Memory required for data: 525042720
I0403 14:45:00.217319 13601 layer_factory.hpp:77] Creating layer inception_3a/relu_3x3
I0403 14:45:00.217339 13601 net.cpp:91] Creating Layer inception_3a/relu_3x3
I0403 14:45:00.217356 13601 net.cpp:425] inception_3a/relu_3x3 <- inception_3a/3x3
I0403 14:45:00.217373 13601 net.cpp:386] inception_3a/relu_3x3 -> inception_3a/3x3 (in-place)
I0403 14:45:00.217645 13601 net.cpp:141] Setting up inception_3a/relu_3x3
I0403 14:45:00.217671 13601 net.cpp:148] Top shape: 24 128 28 28 (2408448)
I0403 14:45:00.217687 13601 net.cpp:156] Memory required for data: 534676512
I0403 14:45:00.217702 13601 layer_factory.hpp:77] Creating layer inception_3a/5x5_reduce
I0403 14:45:00.217723 13601 net.cpp:91] Creating Layer inception_3a/5x5_reduce
I0403 14:45:00.217741 13601 net.cpp:425] inception_3a/5x5_reduce <- pool2/3x3_s2_pool2/3x3_s2_0_split_2
I0403 14:45:00.217761 13601 net.cpp:399] inception_3a/5x5_reduce -> inception_3a/5x5_reduce
I0403 14:45:00.218693 13601 net.cpp:141] Setting up inception_3a/5x5_reduce
I0403 14:45:00.218720 13601 net.cpp:148] Top shape: 24 16 28 28 (301056)
I0403 14:45:00.218736 13601 net.cpp:156] Memory required for data: 535880736
I0403 14:45:00.218755 13601 layer_factory.hpp:77] Creating layer inception_3a/relu_5x5_reduce
I0403 14:45:00.218775 13601 net.cpp:91] Creating Layer inception_3a/relu_5x5_reduce
I0403 14:45:00.218791 13601 net.cpp:425] inception_3a/relu_5x5_reduce <- inception_3a/5x5_reduce
I0403 14:45:00.218807 13601 net.cpp:386] inception_3a/relu_5x5_reduce -> inception_3a/5x5_reduce (in-place)
I0403 14:45:00.219102 13601 net.cpp:141] Setting up inception_3a/relu_5x5_reduce
I0403 14:45:00.219130 13601 net.cpp:148] Top shape: 24 16 28 28 (301056)
I0403 14:45:00.219144 13601 net.cpp:156] Memory required for data: 537084960
I0403 14:45:00.219159 13601 layer_factory.hpp:77] Creating layer inception_3a/5x5
I0403 14:45:00.219180 13601 net.cpp:91] Creating Layer inception_3a/5x5
I0403 14:45:00.219197 13601 net.cpp:425] inception_3a/5x5 <- inception_3a/5x5_reduce
I0403 14:45:00.219214 13601 net.cpp:399] inception_3a/5x5 -> inception_3a/5x5
I0403 14:45:00.220198 13601 net.cpp:141] Setting up inception_3a/5x5
I0403 14:45:00.220227 13601 net.cpp:148] Top shape: 24 32 28 28 (602112)
I0403 14:45:00.220242 13601 net.cpp:156] Memory required for data: 539493408
I0403 14:45:00.220260 13601 layer_factory.hpp:77] Creating layer inception_3a/relu_5x5
I0403 14:45:00.220279 13601 net.cpp:91] Creating Layer inception_3a/relu_5x5
I0403 14:45:00.220296 13601 net.cpp:425] inception_3a/relu_5x5 <- inception_3a/5x5
I0403 14:45:00.220312 13601 net.cpp:386] inception_3a/relu_5x5 -> inception_3a/5x5 (in-place)
I0403 14:45:00.220477 13601 net.cpp:141] Setting up inception_3a/relu_5x5
I0403 14:45:00.220501 13601 net.cpp:148] Top shape: 24 32 28 28 (602112)
I0403 14:45:00.220515 13601 net.cpp:156] Memory required for data: 541901856
I0403 14:45:00.220530 13601 layer_factory.hpp:77] Creating layer inception_3a/pool
I0403 14:45:00.220548 13601 net.cpp:91] Creating Layer inception_3a/pool
I0403 14:45:00.220564 13601 net.cpp:425] inception_3a/pool <- pool2/3x3_s2_pool2/3x3_s2_0_split_3
I0403 14:45:00.220595 13601 net.cpp:399] inception_3a/pool -> inception_3a/pool
I0403 14:45:00.220659 13601 net.cpp:141] Setting up inception_3a/pool
I0403 14:45:00.220681 13601 net.cpp:148] Top shape: 24 192 28 28 (3612672)
I0403 14:45:00.220695 13601 net.cpp:156] Memory required for data: 556352544
I0403 14:45:00.220708 13601 layer_factory.hpp:77] Creating layer inception_3a/pool_proj
I0403 14:45:00.220729 13601 net.cpp:91] Creating Layer inception_3a/pool_proj
I0403 14:45:00.220746 13601 net.cpp:425] inception_3a/pool_proj <- inception_3a/pool
I0403 14:45:00.220767 13601 net.cpp:399] inception_3a/pool_proj -> inception_3a/pool_proj
I0403 14:45:00.221693 13601 net.cpp:141] Setting up inception_3a/pool_proj
I0403 14:45:00.221724 13601 net.cpp:148] Top shape: 24 32 28 28 (602112)
I0403 14:45:00.221741 13601 net.cpp:156] Memory required for data: 558760992
I0403 14:45:00.221772 13601 layer_factory.hpp:77] Creating layer inception_3a/relu_pool_proj
I0403 14:45:00.221793 13601 net.cpp:91] Creating Layer inception_3a/relu_pool_proj
I0403 14:45:00.221812 13601 net.cpp:425] inception_3a/relu_pool_proj <- inception_3a/pool_proj
I0403 14:45:00.221828 13601 net.cpp:386] inception_3a/relu_pool_proj -> inception_3a/pool_proj (in-place)
I0403 14:45:00.222092 13601 net.cpp:141] Setting up inception_3a/relu_pool_proj
I0403 14:45:00.222120 13601 net.cpp:148] Top shape: 24 32 28 28 (602112)
I0403 14:45:00.222133 13601 net.cpp:156] Memory required for data: 561169440
I0403 14:45:00.222147 13601 layer_factory.hpp:77] Creating layer inception_3a/output
I0403 14:45:00.222167 13601 net.cpp:91] Creating Layer inception_3a/output
I0403 14:45:00.222182 13601 net.cpp:425] inception_3a/output <- inception_3a/1x1
I0403 14:45:00.222198 13601 net.cpp:425] inception_3a/output <- inception_3a/3x3
I0403 14:45:00.222213 13601 net.cpp:425] inception_3a/output <- inception_3a/5x5
I0403 14:45:00.222228 13601 net.cpp:425] inception_3a/output <- inception_3a/pool_proj
I0403 14:45:00.222244 13601 net.cpp:399] inception_3a/output -> inception_3a/output
I0403 14:45:00.222286 13601 net.cpp:141] Setting up inception_3a/output
I0403 14:45:00.222311 13601 net.cpp:148] Top shape: 24 256 28 28 (4816896)
I0403 14:45:00.222326 13601 net.cpp:156] Memory required for data: 580437024
I0403 14:45:00.222339 13601 layer_factory.hpp:77] Creating layer inception_3a/output_inception_3a/output_0_split
I0403 14:45:00.222355 13601 net.cpp:91] Creating Layer inception_3a/output_inception_3a/output_0_split
I0403 14:45:00.222369 13601 net.cpp:425] inception_3a/output_inception_3a/output_0_split <- inception_3a/output
I0403 14:45:00.222386 13601 net.cpp:399] inception_3a/output_inception_3a/output_0_split -> inception_3a/output_inception_3a/output_0_split_0
I0403 14:45:00.222405 13601 net.cpp:399] inception_3a/output_inception_3a/output_0_split -> inception_3a/output_inception_3a/output_0_split_1
I0403 14:45:00.222427 13601 net.cpp:399] inception_3a/output_inception_3a/output_0_split -> inception_3a/output_inception_3a/output_0_split_2
I0403 14:45:00.222447 13601 net.cpp:399] inception_3a/output_inception_3a/output_0_split -> inception_3a/output_inception_3a/output_0_split_3
I0403 14:45:00.222520 13601 net.cpp:141] Setting up inception_3a/output_inception_3a/output_0_split
I0403 14:45:00.222542 13601 net.cpp:148] Top shape: 24 256 28 28 (4816896)
I0403 14:45:00.222558 13601 net.cpp:148] Top shape: 24 256 28 28 (4816896)
I0403 14:45:00.222571 13601 net.cpp:148] Top shape: 24 256 28 28 (4816896)
I0403 14:45:00.222585 13601 net.cpp:148] Top shape: 24 256 28 28 (4816896)
I0403 14:45:00.222602 13601 net.cpp:156] Memory required for data: 657507360
I0403 14:45:00.222617 13601 layer_factory.hpp:77] Creating layer inception_3b/1x1
I0403 14:45:00.222640 13601 net.cpp:91] Creating Layer inception_3b/1x1
I0403 14:45:00.222656 13601 net.cpp:425] inception_3b/1x1 <- inception_3a/output_inception_3a/output_0_split_0
I0403 14:45:00.222674 13601 net.cpp:399] inception_3b/1x1 -> inception_3b/1x1
I0403 14:45:00.223773 13601 net.cpp:141] Setting up inception_3b/1x1
I0403 14:45:00.223814 13601 net.cpp:148] Top shape: 24 128 28 28 (2408448)
I0403 14:45:00.223830 13601 net.cpp:156] Memory required for data: 667141152
I0403 14:45:00.223847 13601 layer_factory.hpp:77] Creating layer inception_3b/relu_1x1
I0403 14:45:00.223865 13601 net.cpp:91] Creating Layer inception_3b/relu_1x1
I0403 14:45:00.223880 13601 net.cpp:425] inception_3b/relu_1x1 <- inception_3b/1x1
I0403 14:45:00.223898 13601 net.cpp:386] inception_3b/relu_1x1 -> inception_3b/1x1 (in-place)
I0403 14:45:00.224071 13601 net.cpp:141] Setting up inception_3b/relu_1x1
I0403 14:45:00.224097 13601 net.cpp:148] Top shape: 24 128 28 28 (2408448)
I0403 14:45:00.224109 13601 net.cpp:156] Memory required for data: 676774944
I0403 14:45:00.224123 13601 layer_factory.hpp:77] Creating layer inception_3b/3x3_reduce
I0403 14:45:00.224144 13601 net.cpp:91] Creating Layer inception_3b/3x3_reduce
I0403 14:45:00.224161 13601 net.cpp:425] inception_3b/3x3_reduce <- inception_3a/output_inception_3a/output_0_split_1
I0403 14:45:00.224181 13601 net.cpp:399] inception_3b/3x3_reduce -> inception_3b/3x3_reduce
I0403 14:45:00.225286 13601 net.cpp:141] Setting up inception_3b/3x3_reduce
I0403 14:45:00.225316 13601 net.cpp:148] Top shape: 24 128 28 28 (2408448)
I0403 14:45:00.225333 13601 net.cpp:156] Memory required for data: 686408736
I0403 14:45:00.225352 13601 layer_factory.hpp:77] Creating layer inception_3b/relu_3x3_reduce
I0403 14:45:00.225370 13601 net.cpp:91] Creating Layer inception_3b/relu_3x3_reduce
I0403 14:45:00.225386 13601 net.cpp:425] inception_3b/relu_3x3_reduce <- inception_3b/3x3_reduce
I0403 14:45:00.225404 13601 net.cpp:386] inception_3b/relu_3x3_reduce -> inception_3b/3x3_reduce (in-place)
I0403 14:45:00.225570 13601 net.cpp:141] Setting up inception_3b/relu_3x3_reduce
I0403 14:45:00.225594 13601 net.cpp:148] Top shape: 24 128 28 28 (2408448)
I0403 14:45:00.225613 13601 net.cpp:156] Memory required for data: 696042528
I0403 14:45:00.225627 13601 layer_factory.hpp:77] Creating layer inception_3b/3x3
I0403 14:45:00.225652 13601 net.cpp:91] Creating Layer inception_3b/3x3
I0403 14:45:00.225669 13601 net.cpp:425] inception_3b/3x3 <- inception_3b/3x3_reduce
I0403 14:45:00.225688 13601 net.cpp:399] inception_3b/3x3 -> inception_3b/3x3
I0403 14:45:00.228492 13601 net.cpp:141] Setting up inception_3b/3x3
I0403 14:45:00.228523 13601 net.cpp:148] Top shape: 24 192 28 28 (3612672)
I0403 14:45:00.228539 13601 net.cpp:156] Memory required for data: 710493216
I0403 14:45:00.228557 13601 layer_factory.hpp:77] Creating layer inception_3b/relu_3x3
I0403 14:45:00.228579 13601 net.cpp:91] Creating Layer inception_3b/relu_3x3
I0403 14:45:00.228596 13601 net.cpp:425] inception_3b/relu_3x3 <- inception_3b/3x3
I0403 14:45:00.228620 13601 net.cpp:386] inception_3b/relu_3x3 -> inception_3b/3x3 (in-place)
I0403 14:45:00.228888 13601 net.cpp:141] Setting up inception_3b/relu_3x3
I0403 14:45:00.228914 13601 net.cpp:148] Top shape: 24 192 28 28 (3612672)
I0403 14:45:00.228929 13601 net.cpp:156] Memory required for data: 724943904
I0403 14:45:00.228945 13601 layer_factory.hpp:77] Creating layer inception_3b/5x5_reduce
I0403 14:45:00.228966 13601 net.cpp:91] Creating Layer inception_3b/5x5_reduce
I0403 14:45:00.228983 13601 net.cpp:425] inception_3b/5x5_reduce <- inception_3a/output_inception_3a/output_0_split_2
I0403 14:45:00.229004 13601 net.cpp:399] inception_3b/5x5_reduce -> inception_3b/5x5_reduce
I0403 14:45:00.229961 13601 net.cpp:141] Setting up inception_3b/5x5_reduce
I0403 14:45:00.229990 13601 net.cpp:148] Top shape: 24 32 28 28 (602112)
I0403 14:45:00.230005 13601 net.cpp:156] Memory required for data: 727352352
I0403 14:45:00.230023 13601 layer_factory.hpp:77] Creating layer inception_3b/relu_5x5_reduce
I0403 14:45:00.230043 13601 net.cpp:91] Creating Layer inception_3b/relu_5x5_reduce
I0403 14:45:00.230059 13601 net.cpp:425] inception_3b/relu_5x5_reduce <- inception_3b/5x5_reduce
I0403 14:45:00.230077 13601 net.cpp:386] inception_3b/relu_5x5_reduce -> inception_3b/5x5_reduce (in-place)
I0403 14:45:00.230245 13601 net.cpp:141] Setting up inception_3b/relu_5x5_reduce
I0403 14:45:00.230283 13601 net.cpp:148] Top shape: 24 32 28 28 (602112)
I0403 14:45:00.230298 13601 net.cpp:156] Memory required for data: 729760800
I0403 14:45:00.230314 13601 layer_factory.hpp:77] Creating layer inception_3b/5x5
I0403 14:45:00.230337 13601 net.cpp:91] Creating Layer inception_3b/5x5
I0403 14:45:00.230355 13601 net.cpp:425] inception_3b/5x5 <- inception_3b/5x5_reduce
I0403 14:45:00.230373 13601 net.cpp:399] inception_3b/5x5 -> inception_3b/5x5
I0403 14:45:00.232282 13601 net.cpp:141] Setting up inception_3b/5x5
I0403 14:45:00.232313 13601 net.cpp:148] Top shape: 24 96 28 28 (1806336)
I0403 14:45:00.232331 13601 net.cpp:156] Memory required for data: 736986144
I0403 14:45:00.232349 13601 layer_factory.hpp:77] Creating layer inception_3b/relu_5x5
I0403 14:45:00.232367 13601 net.cpp:91] Creating Layer inception_3b/relu_5x5
I0403 14:45:00.232383 13601 net.cpp:425] inception_3b/relu_5x5 <- inception_3b/5x5
I0403 14:45:00.232403 13601 net.cpp:386] inception_3b/relu_5x5 -> inception_3b/5x5 (in-place)
I0403 14:45:00.232589 13601 net.cpp:141] Setting up inception_3b/relu_5x5
I0403 14:45:00.232620 13601 net.cpp:148] Top shape: 24 96 28 28 (1806336)
I0403 14:45:00.232636 13601 net.cpp:156] Memory required for data: 744211488
I0403 14:45:00.232650 13601 layer_factory.hpp:77] Creating layer inception_3b/pool
I0403 14:45:00.232667 13601 net.cpp:91] Creating Layer inception_3b/pool
I0403 14:45:00.232683 13601 net.cpp:425] inception_3b/pool <- inception_3a/output_inception_3a/output_0_split_3
I0403 14:45:00.232700 13601 net.cpp:399] inception_3b/pool -> inception_3b/pool
I0403 14:45:00.232758 13601 net.cpp:141] Setting up inception_3b/pool
I0403 14:45:00.232781 13601 net.cpp:148] Top shape: 24 256 28 28 (4816896)
I0403 14:45:00.232795 13601 net.cpp:156] Memory required for data: 763479072
I0403 14:45:00.232810 13601 layer_factory.hpp:77] Creating layer inception_3b/pool_proj
I0403 14:45:00.232831 13601 net.cpp:91] Creating Layer inception_3b/pool_proj
I0403 14:45:00.232847 13601 net.cpp:425] inception_3b/pool_proj <- inception_3b/pool
I0403 14:45:00.232868 13601 net.cpp:399] inception_3b/pool_proj -> inception_3b/pool_proj
I0403 14:45:00.233924 13601 net.cpp:141] Setting up inception_3b/pool_proj
I0403 14:45:00.233963 13601 net.cpp:148] Top shape: 24 64 28 28 (1204224)
I0403 14:45:00.233980 13601 net.cpp:156] Memory required for data: 768295968
I0403 14:45:00.233997 13601 layer_factory.hpp:77] Creating layer inception_3b/relu_pool_proj
I0403 14:45:00.234017 13601 net.cpp:91] Creating Layer inception_3b/relu_pool_proj
I0403 14:45:00.234035 13601 net.cpp:425] inception_3b/relu_pool_proj <- inception_3b/pool_proj
I0403 14:45:00.234052 13601 net.cpp:386] inception_3b/relu_pool_proj -> inception_3b/pool_proj (in-place)
I0403 14:45:00.234447 13601 net.cpp:141] Setting up inception_3b/relu_pool_proj
I0403 14:45:00.234473 13601 net.cpp:148] Top shape: 24 64 28 28 (1204224)
I0403 14:45:00.234488 13601 net.cpp:156] Memory required for data: 773112864
I0403 14:45:00.234500 13601 layer_factory.hpp:77] Creating layer inception_3b/output
I0403 14:45:00.234519 13601 net.cpp:91] Creating Layer inception_3b/output
I0403 14:45:00.234534 13601 net.cpp:425] inception_3b/output <- inception_3b/1x1
I0403 14:45:00.234550 13601 net.cpp:425] inception_3b/output <- inception_3b/3x3
I0403 14:45:00.234565 13601 net.cpp:425] inception_3b/output <- inception_3b/5x5
I0403 14:45:00.234580 13601 net.cpp:425] inception_3b/output <- inception_3b/pool_proj
I0403 14:45:00.234594 13601 net.cpp:399] inception_3b/output -> inception_3b/output
I0403 14:45:00.234652 13601 net.cpp:141] Setting up inception_3b/output
I0403 14:45:00.234673 13601 net.cpp:148] Top shape: 24 480 28 28 (9031680)
I0403 14:45:00.234688 13601 net.cpp:156] Memory required for data: 809239584
I0403 14:45:00.234701 13601 layer_factory.hpp:77] Creating layer pool3/3x3_s2
I0403 14:45:00.234717 13601 net.cpp:91] Creating Layer pool3/3x3_s2
I0403 14:45:00.234731 13601 net.cpp:425] pool3/3x3_s2 <- inception_3b/output
I0403 14:45:00.234750 13601 net.cpp:399] pool3/3x3_s2 -> pool3/3x3_s2
I0403 14:45:00.234819 13601 net.cpp:141] Setting up pool3/3x3_s2
I0403 14:45:00.234843 13601 net.cpp:148] Top shape: 24 480 14 14 (2257920)
I0403 14:45:00.234855 13601 net.cpp:156] Memory required for data: 818271264
I0403 14:45:00.234869 13601 layer_factory.hpp:77] Creating layer pool3/3x3_s2_pool3/3x3_s2_0_split
I0403 14:45:00.234885 13601 net.cpp:91] Creating Layer pool3/3x3_s2_pool3/3x3_s2_0_split
I0403 14:45:00.234900 13601 net.cpp:425] pool3/3x3_s2_pool3/3x3_s2_0_split <- pool3/3x3_s2
I0403 14:45:00.234915 13601 net.cpp:399] pool3/3x3_s2_pool3/3x3_s2_0_split -> pool3/3x3_s2_pool3/3x3_s2_0_split_0
I0403 14:45:00.234935 13601 net.cpp:399] pool3/3x3_s2_pool3/3x3_s2_0_split -> pool3/3x3_s2_pool3/3x3_s2_0_split_1
I0403 14:45:00.234956 13601 net.cpp:399] pool3/3x3_s2_pool3/3x3_s2_0_split -> pool3/3x3_s2_pool3/3x3_s2_0_split_2
I0403 14:45:00.234973 13601 net.cpp:399] pool3/3x3_s2_pool3/3x3_s2_0_split -> pool3/3x3_s2_pool3/3x3_s2_0_split_3
I0403 14:45:00.235047 13601 net.cpp:141] Setting up pool3/3x3_s2_pool3/3x3_s2_0_split
I0403 14:45:00.235069 13601 net.cpp:148] Top shape: 24 480 14 14 (2257920)
I0403 14:45:00.235083 13601 net.cpp:148] Top shape: 24 480 14 14 (2257920)
I0403 14:45:00.235098 13601 net.cpp:148] Top shape: 24 480 14 14 (2257920)
I0403 14:45:00.235112 13601 net.cpp:148] Top shape: 24 480 14 14 (2257920)
I0403 14:45:00.235126 13601 net.cpp:156] Memory required for data: 854397984
I0403 14:45:00.235139 13601 layer_factory.hpp:77] Creating layer inception_4a/1x1
I0403 14:45:00.235162 13601 net.cpp:91] Creating Layer inception_4a/1x1
I0403 14:45:00.235177 13601 net.cpp:425] inception_4a/1x1 <- pool3/3x3_s2_pool3/3x3_s2_0_split_0
I0403 14:45:00.235195 13601 net.cpp:399] inception_4a/1x1 -> inception_4a/1x1
I0403 14:45:00.236721 13601 net.cpp:141] Setting up inception_4a/1x1
I0403 14:45:00.236752 13601 net.cpp:148] Top shape: 24 192 14 14 (903168)
I0403 14:45:00.236766 13601 net.cpp:156] Memory required for data: 858010656
I0403 14:45:00.236784 13601 layer_factory.hpp:77] Creating layer inception_4a/relu_1x1
I0403 14:45:00.236802 13601 net.cpp:91] Creating Layer inception_4a/relu_1x1
I0403 14:45:00.236817 13601 net.cpp:425] inception_4a/relu_1x1 <- inception_4a/1x1
I0403 14:45:00.236835 13601 net.cpp:386] inception_4a/relu_1x1 -> inception_4a/1x1 (in-place)
I0403 14:45:00.237005 13601 net.cpp:141] Setting up inception_4a/relu_1x1
I0403 14:45:00.237030 13601 net.cpp:148] Top shape: 24 192 14 14 (903168)
I0403 14:45:00.237042 13601 net.cpp:156] Memory required for data: 861623328
I0403 14:45:00.237056 13601 layer_factory.hpp:77] Creating layer inception_4a/3x3_reduce
I0403 14:45:00.237076 13601 net.cpp:91] Creating Layer inception_4a/3x3_reduce
I0403 14:45:00.237093 13601 net.cpp:425] inception_4a/3x3_reduce <- pool3/3x3_s2_pool3/3x3_s2_0_split_1
I0403 14:45:00.237113 13601 net.cpp:399] inception_4a/3x3_reduce -> inception_4a/3x3_reduce
I0403 14:45:00.238339 13601 net.cpp:141] Setting up inception_4a/3x3_reduce
I0403 14:45:00.238370 13601 net.cpp:148] Top shape: 24 96 14 14 (451584)
I0403 14:45:00.238387 13601 net.cpp:156] Memory required for data: 863429664
I0403 14:45:00.238409 13601 layer_factory.hpp:77] Creating layer inception_4a/relu_3x3_reduce
I0403 14:45:00.238431 13601 net.cpp:91] Creating Layer inception_4a/relu_3x3_reduce
I0403 14:45:00.238448 13601 net.cpp:425] inception_4a/relu_3x3_reduce <- inception_4a/3x3_reduce
I0403 14:45:00.238466 13601 net.cpp:386] inception_4a/relu_3x3_reduce -> inception_4a/3x3_reduce (in-place)
I0403 14:45:00.238639 13601 net.cpp:141] Setting up inception_4a/relu_3x3_reduce
I0403 14:45:00.238663 13601 net.cpp:148] Top shape: 24 96 14 14 (451584)
I0403 14:45:00.238677 13601 net.cpp:156] Memory required for data: 865236000
I0403 14:45:00.238692 13601 layer_factory.hpp:77] Creating layer inception_4a/3x3
I0403 14:45:00.238713 13601 net.cpp:91] Creating Layer inception_4a/3x3
I0403 14:45:00.238729 13601 net.cpp:425] inception_4a/3x3 <- inception_4a/3x3_reduce
I0403 14:45:00.238749 13601 net.cpp:399] inception_4a/3x3 -> inception_4a/3x3
I0403 14:45:00.241360 13601 net.cpp:141] Setting up inception_4a/3x3
I0403 14:45:00.241389 13601 net.cpp:148] Top shape: 24 208 14 14 (978432)
I0403 14:45:00.241405 13601 net.cpp:156] Memory required for data: 869149728
I0403 14:45:00.241422 13601 layer_factory.hpp:77] Creating layer inception_4a/relu_3x3
I0403 14:45:00.241441 13601 net.cpp:91] Creating Layer inception_4a/relu_3x3
I0403 14:45:00.241457 13601 net.cpp:425] inception_4a/relu_3x3 <- inception_4a/3x3
I0403 14:45:00.241477 13601 net.cpp:386] inception_4a/relu_3x3 -> inception_4a/3x3 (in-place)
I0403 14:45:00.241755 13601 net.cpp:141] Setting up inception_4a/relu_3x3
I0403 14:45:00.241781 13601 net.cpp:148] Top shape: 24 208 14 14 (978432)
I0403 14:45:00.241796 13601 net.cpp:156] Memory required for data: 873063456
I0403 14:45:00.241811 13601 layer_factory.hpp:77] Creating layer inception_4a/5x5_reduce
I0403 14:45:00.241833 13601 net.cpp:91] Creating Layer inception_4a/5x5_reduce
I0403 14:45:00.241850 13601 net.cpp:425] inception_4a/5x5_reduce <- pool3/3x3_s2_pool3/3x3_s2_0_split_2
I0403 14:45:00.241873 13601 net.cpp:399] inception_4a/5x5_reduce -> inception_4a/5x5_reduce
I0403 14:45:00.242851 13601 net.cpp:141] Setting up inception_4a/5x5_reduce
I0403 14:45:00.242879 13601 net.cpp:148] Top shape: 24 16 14 14 (75264)
I0403 14:45:00.242894 13601 net.cpp:156] Memory required for data: 873364512
I0403 14:45:00.242913 13601 layer_factory.hpp:77] Creating layer inception_4a/relu_5x5_reduce
I0403 14:45:00.242933 13601 net.cpp:91] Creating Layer inception_4a/relu_5x5_reduce
I0403 14:45:00.242949 13601 net.cpp:425] inception_4a/relu_5x5_reduce <- inception_4a/5x5_reduce
I0403 14:45:00.242966 13601 net.cpp:386] inception_4a/relu_5x5_reduce -> inception_4a/5x5_reduce (in-place)
I0403 14:45:00.243135 13601 net.cpp:141] Setting up inception_4a/relu_5x5_reduce
I0403 14:45:00.243160 13601 net.cpp:148] Top shape: 24 16 14 14 (75264)
I0403 14:45:00.243175 13601 net.cpp:156] Memory required for data: 873665568
I0403 14:45:00.243188 13601 layer_factory.hpp:77] Creating layer inception_4a/5x5
I0403 14:45:00.243209 13601 net.cpp:91] Creating Layer inception_4a/5x5
I0403 14:45:00.243228 13601 net.cpp:425] inception_4a/5x5 <- inception_4a/5x5_reduce
I0403 14:45:00.243247 13601 net.cpp:399] inception_4a/5x5 -> inception_4a/5x5
I0403 14:45:00.244294 13601 net.cpp:141] Setting up inception_4a/5x5
I0403 14:45:00.244320 13601 net.cpp:148] Top shape: 24 48 14 14 (225792)
I0403 14:45:00.244335 13601 net.cpp:156] Memory required for data: 874568736
I0403 14:45:00.244352 13601 layer_factory.hpp:77] Creating layer inception_4a/relu_5x5
I0403 14:45:00.244372 13601 net.cpp:91] Creating Layer inception_4a/relu_5x5
I0403 14:45:00.244387 13601 net.cpp:425] inception_4a/relu_5x5 <- inception_4a/5x5
I0403 14:45:00.244402 13601 net.cpp:386] inception_4a/relu_5x5 -> inception_4a/5x5 (in-place)
I0403 14:45:00.244575 13601 net.cpp:141] Setting up inception_4a/relu_5x5
I0403 14:45:00.244611 13601 net.cpp:148] Top shape: 24 48 14 14 (225792)
I0403 14:45:00.244628 13601 net.cpp:156] Memory required for data: 875471904
I0403 14:45:00.244642 13601 layer_factory.hpp:77] Creating layer inception_4a/pool
I0403 14:45:00.244659 13601 net.cpp:91] Creating Layer inception_4a/pool
I0403 14:45:00.244674 13601 net.cpp:425] inception_4a/pool <- pool3/3x3_s2_pool3/3x3_s2_0_split_3
I0403 14:45:00.244693 13601 net.cpp:399] inception_4a/pool -> inception_4a/pool
I0403 14:45:00.244751 13601 net.cpp:141] Setting up inception_4a/pool
I0403 14:45:00.244774 13601 net.cpp:148] Top shape: 24 480 14 14 (2257920)
I0403 14:45:00.244788 13601 net.cpp:156] Memory required for data: 884503584
I0403 14:45:00.244802 13601 layer_factory.hpp:77] Creating layer inception_4a/pool_proj
I0403 14:45:00.244822 13601 net.cpp:91] Creating Layer inception_4a/pool_proj
I0403 14:45:00.244839 13601 net.cpp:425] inception_4a/pool_proj <- inception_4a/pool
I0403 14:45:00.244858 13601 net.cpp:399] inception_4a/pool_proj -> inception_4a/pool_proj
I0403 14:45:00.245975 13601 net.cpp:141] Setting up inception_4a/pool_proj
I0403 14:45:00.246006 13601 net.cpp:148] Top shape: 24 64 14 14 (301056)
I0403 14:45:00.246037 13601 net.cpp:156] Memory required for data: 885707808
I0403 14:45:00.246057 13601 layer_factory.hpp:77] Creating layer inception_4a/relu_pool_proj
I0403 14:45:00.246074 13601 net.cpp:91] Creating Layer inception_4a/relu_pool_proj
I0403 14:45:00.246090 13601 net.cpp:425] inception_4a/relu_pool_proj <- inception_4a/pool_proj
I0403 14:45:00.246106 13601 net.cpp:386] inception_4a/relu_pool_proj -> inception_4a/pool_proj (in-place)
I0403 14:45:00.246378 13601 net.cpp:141] Setting up inception_4a/relu_pool_proj
I0403 14:45:00.246405 13601 net.cpp:148] Top shape: 24 64 14 14 (301056)
I0403 14:45:00.246422 13601 net.cpp:156] Memory required for data: 886912032
I0403 14:45:00.246435 13601 layer_factory.hpp:77] Creating layer inception_4a/output
I0403 14:45:00.246451 13601 net.cpp:91] Creating Layer inception_4a/output
I0403 14:45:00.246466 13601 net.cpp:425] inception_4a/output <- inception_4a/1x1
I0403 14:45:00.246482 13601 net.cpp:425] inception_4a/output <- inception_4a/3x3
I0403 14:45:00.246497 13601 net.cpp:425] inception_4a/output <- inception_4a/5x5
I0403 14:45:00.246512 13601 net.cpp:425] inception_4a/output <- inception_4a/pool_proj
I0403 14:45:00.246528 13601 net.cpp:399] inception_4a/output -> inception_4a/output
I0403 14:45:00.246572 13601 net.cpp:141] Setting up inception_4a/output
I0403 14:45:00.246595 13601 net.cpp:148] Top shape: 24 512 14 14 (2408448)
I0403 14:45:00.246614 13601 net.cpp:156] Memory required for data: 896545824
I0403 14:45:00.246628 13601 layer_factory.hpp:77] Creating layer inception_4a/output_inception_4a/output_0_split
I0403 14:45:00.246649 13601 net.cpp:91] Creating Layer inception_4a/output_inception_4a/output_0_split
I0403 14:45:00.246664 13601 net.cpp:425] inception_4a/output_inception_4a/output_0_split <- inception_4a/output
I0403 14:45:00.246680 13601 net.cpp:399] inception_4a/output_inception_4a/output_0_split -> inception_4a/output_inception_4a/output_0_split_0
I0403 14:45:00.246700 13601 net.cpp:399] inception_4a/output_inception_4a/output_0_split -> inception_4a/output_inception_4a/output_0_split_1
I0403 14:45:00.246719 13601 net.cpp:399] inception_4a/output_inception_4a/output_0_split -> inception_4a/output_inception_4a/output_0_split_2
I0403 14:45:00.246740 13601 net.cpp:399] inception_4a/output_inception_4a/output_0_split -> inception_4a/output_inception_4a/output_0_split_3
I0403 14:45:00.246760 13601 net.cpp:399] inception_4a/output_inception_4a/output_0_split -> inception_4a/output_inception_4a/output_0_split_4
I0403 14:45:00.246850 13601 net.cpp:141] Setting up inception_4a/output_inception_4a/output_0_split
I0403 14:45:00.246873 13601 net.cpp:148] Top shape: 24 512 14 14 (2408448)
I0403 14:45:00.246888 13601 net.cpp:148] Top shape: 24 512 14 14 (2408448)
I0403 14:45:00.246903 13601 net.cpp:148] Top shape: 24 512 14 14 (2408448)
I0403 14:45:00.246917 13601 net.cpp:148] Top shape: 24 512 14 14 (2408448)
I0403 14:45:00.246932 13601 net.cpp:148] Top shape: 24 512 14 14 (2408448)
I0403 14:45:00.246944 13601 net.cpp:156] Memory required for data: 944714784
I0403 14:45:00.246958 13601 layer_factory.hpp:77] Creating layer loss1/ave_pool
I0403 14:45:00.246976 13601 net.cpp:91] Creating Layer loss1/ave_pool
I0403 14:45:00.246992 13601 net.cpp:425] loss1/ave_pool <- inception_4a/output_inception_4a/output_0_split_0
I0403 14:45:00.247009 13601 net.cpp:399] loss1/ave_pool -> loss1/ave_pool
I0403 14:45:00.247202 13601 net.cpp:141] Setting up loss1/ave_pool
I0403 14:45:00.247230 13601 net.cpp:148] Top shape: 24 512 4 4 (196608)
I0403 14:45:00.247244 13601 net.cpp:156] Memory required for data: 945501216
I0403 14:45:00.247257 13601 layer_factory.hpp:77] Creating layer loss1/conv
I0403 14:45:00.247280 13601 net.cpp:91] Creating Layer loss1/conv
I0403 14:45:00.247298 13601 net.cpp:425] loss1/conv <- loss1/ave_pool
I0403 14:45:00.247315 13601 net.cpp:399] loss1/conv -> loss1/conv
I0403 14:45:00.248677 13601 net.cpp:141] Setting up loss1/conv
I0403 14:45:00.248705 13601 net.cpp:148] Top shape: 24 128 4 4 (49152)
I0403 14:45:00.248720 13601 net.cpp:156] Memory required for data: 945697824
I0403 14:45:00.248754 13601 layer_factory.hpp:77] Creating layer loss1/relu_conv
I0403 14:45:00.248774 13601 net.cpp:91] Creating Layer loss1/relu_conv
I0403 14:45:00.248792 13601 net.cpp:425] loss1/relu_conv <- loss1/conv
I0403 14:45:00.248808 13601 net.cpp:386] loss1/relu_conv -> loss1/conv (in-place)
I0403 14:45:00.249078 13601 net.cpp:141] Setting up loss1/relu_conv
I0403 14:45:00.249104 13601 net.cpp:148] Top shape: 24 128 4 4 (49152)
I0403 14:45:00.249119 13601 net.cpp:156] Memory required for data: 945894432
I0403 14:45:00.249132 13601 layer_factory.hpp:77] Creating layer loss1/fc
I0403 14:45:00.249155 13601 net.cpp:91] Creating Layer loss1/fc
I0403 14:45:00.249174 13601 net.cpp:425] loss1/fc <- loss1/conv
I0403 14:45:00.249191 13601 net.cpp:399] loss1/fc -> loss1/fc
I0403 14:45:00.266815 13601 net.cpp:141] Setting up loss1/fc
I0403 14:45:00.266858 13601 net.cpp:148] Top shape: 24 1024 (24576)
I0403 14:45:00.266875 13601 net.cpp:156] Memory required for data: 945992736
I0403 14:45:00.266894 13601 layer_factory.hpp:77] Creating layer loss1/relu_fc
I0403 14:45:00.266916 13601 net.cpp:91] Creating Layer loss1/relu_fc
I0403 14:45:00.266933 13601 net.cpp:425] loss1/relu_fc <- loss1/fc
I0403 14:45:00.266952 13601 net.cpp:386] loss1/relu_fc -> loss1/fc (in-place)
I0403 14:45:00.267148 13601 net.cpp:141] Setting up loss1/relu_fc
I0403 14:45:00.267174 13601 net.cpp:148] Top shape: 24 1024 (24576)
I0403 14:45:00.267189 13601 net.cpp:156] Memory required for data: 946091040
I0403 14:45:00.267204 13601 layer_factory.hpp:77] Creating layer loss1/drop_fc
I0403 14:45:00.267230 13601 net.cpp:91] Creating Layer loss1/drop_fc
I0403 14:45:00.267246 13601 net.cpp:425] loss1/drop_fc <- loss1/fc
I0403 14:45:00.267271 13601 net.cpp:386] loss1/drop_fc -> loss1/fc (in-place)
I0403 14:45:00.267323 13601 net.cpp:141] Setting up loss1/drop_fc
I0403 14:45:00.267345 13601 net.cpp:148] Top shape: 24 1024 (24576)
I0403 14:45:00.267359 13601 net.cpp:156] Memory required for data: 946189344
I0403 14:45:00.267374 13601 layer_factory.hpp:77] Creating layer loss1/classifier_plantvillage
I0403 14:45:00.267397 13601 net.cpp:91] Creating Layer loss1/classifier_plantvillage
I0403 14:45:00.267416 13601 net.cpp:425] loss1/classifier_plantvillage <- loss1/fc
I0403 14:45:00.267436 13601 net.cpp:399] loss1/classifier_plantvillage -> loss1/classifier_plantvillage
I0403 14:45:00.268349 13601 net.cpp:141] Setting up loss1/classifier_plantvillage
I0403 14:45:00.268380 13601 net.cpp:148] Top shape: 24 38 (912)
I0403 14:45:00.268398 13601 net.cpp:156] Memory required for data: 946192992
I0403 14:45:00.268416 13601 layer_factory.hpp:77] Creating layer loss1/classifier_plantvillage_loss1/classifier_plantvillage_0_split
I0403 14:45:00.268435 13601 net.cpp:91] Creating Layer loss1/classifier_plantvillage_loss1/classifier_plantvillage_0_split
I0403 14:45:00.268450 13601 net.cpp:425] loss1/classifier_plantvillage_loss1/classifier_plantvillage_0_split <- loss1/classifier_plantvillage
I0403 14:45:00.268471 13601 net.cpp:399] loss1/classifier_plantvillage_loss1/classifier_plantvillage_0_split -> loss1/classifier_plantvillage_loss1/classifier_plantvillage_0_split_0
I0403 14:45:00.268492 13601 net.cpp:399] loss1/classifier_plantvillage_loss1/classifier_plantvillage_0_split -> loss1/classifier_plantvillage_loss1/classifier_plantvillage_0_split_1
I0403 14:45:00.268513 13601 net.cpp:399] loss1/classifier_plantvillage_loss1/classifier_plantvillage_0_split -> loss1/classifier_plantvillage_loss1/classifier_plantvillage_0_split_2
I0403 14:45:00.268579 13601 net.cpp:141] Setting up loss1/classifier_plantvillage_loss1/classifier_plantvillage_0_split
I0403 14:45:00.268605 13601 net.cpp:148] Top shape: 24 38 (912)
I0403 14:45:00.268622 13601 net.cpp:148] Top shape: 24 38 (912)
I0403 14:45:00.268638 13601 net.cpp:148] Top shape: 24 38 (912)
I0403 14:45:00.268652 13601 net.cpp:156] Memory required for data: 946203936
I0403 14:45:00.268666 13601 layer_factory.hpp:77] Creating layer inception_4b/1x1
I0403 14:45:00.268688 13601 net.cpp:91] Creating Layer inception_4b/1x1
I0403 14:45:00.268724 13601 net.cpp:425] inception_4b/1x1 <- inception_4a/output_inception_4a/output_0_split_1
I0403 14:45:00.268744 13601 net.cpp:399] inception_4b/1x1 -> inception_4b/1x1
I0403 14:45:00.270393 13601 net.cpp:141] Setting up inception_4b/1x1
I0403 14:45:00.270422 13601 net.cpp:148] Top shape: 24 160 14 14 (752640)
I0403 14:45:00.270439 13601 net.cpp:156] Memory required for data: 949214496
I0403 14:45:00.270457 13601 layer_factory.hpp:77] Creating layer inception_4b/relu_1x1
I0403 14:45:00.270478 13601 net.cpp:91] Creating Layer inception_4b/relu_1x1
I0403 14:45:00.270493 13601 net.cpp:425] inception_4b/relu_1x1 <- inception_4b/1x1
I0403 14:45:00.270509 13601 net.cpp:386] inception_4b/relu_1x1 -> inception_4b/1x1 (in-place)
I0403 14:45:00.270691 13601 net.cpp:141] Setting up inception_4b/relu_1x1
I0403 14:45:00.270716 13601 net.cpp:148] Top shape: 24 160 14 14 (752640)
I0403 14:45:00.270731 13601 net.cpp:156] Memory required for data: 952225056
I0403 14:45:00.270745 13601 layer_factory.hpp:77] Creating layer inception_4b/3x3_reduce
I0403 14:45:00.270767 13601 net.cpp:91] Creating Layer inception_4b/3x3_reduce
I0403 14:45:00.270786 13601 net.cpp:425] inception_4b/3x3_reduce <- inception_4a/output_inception_4a/output_0_split_2
I0403 14:45:00.270804 13601 net.cpp:399] inception_4b/3x3_reduce -> inception_4b/3x3_reduce
I0403 14:45:00.272151 13601 net.cpp:141] Setting up inception_4b/3x3_reduce
I0403 14:45:00.272181 13601 net.cpp:148] Top shape: 24 112 14 14 (526848)
I0403 14:45:00.272197 13601 net.cpp:156] Memory required for data: 954332448
I0403 14:45:00.272215 13601 layer_factory.hpp:77] Creating layer inception_4b/relu_3x3_reduce
I0403 14:45:00.272235 13601 net.cpp:91] Creating Layer inception_4b/relu_3x3_reduce
I0403 14:45:00.272253 13601 net.cpp:425] inception_4b/relu_3x3_reduce <- inception_4b/3x3_reduce
I0403 14:45:00.272271 13601 net.cpp:386] inception_4b/relu_3x3_reduce -> inception_4b/3x3_reduce (in-place)
I0403 14:45:00.272552 13601 net.cpp:141] Setting up inception_4b/relu_3x3_reduce
I0403 14:45:00.272580 13601 net.cpp:148] Top shape: 24 112 14 14 (526848)
I0403 14:45:00.272595 13601 net.cpp:156] Memory required for data: 956439840
I0403 14:45:00.272616 13601 layer_factory.hpp:77] Creating layer inception_4b/3x3
I0403 14:45:00.272639 13601 net.cpp:91] Creating Layer inception_4b/3x3
I0403 14:45:00.272657 13601 net.cpp:425] inception_4b/3x3 <- inception_4b/3x3_reduce
I0403 14:45:00.272678 13601 net.cpp:399] inception_4b/3x3 -> inception_4b/3x3
I0403 14:45:00.275653 13601 net.cpp:141] Setting up inception_4b/3x3
I0403 14:45:00.275686 13601 net.cpp:148] Top shape: 24 224 14 14 (1053696)
I0403 14:45:00.275702 13601 net.cpp:156] Memory required for data: 960654624
I0403 14:45:00.275722 13601 layer_factory.hpp:77] Creating layer inception_4b/relu_3x3
I0403 14:45:00.275740 13601 net.cpp:91] Creating Layer inception_4b/relu_3x3
I0403 14:45:00.275756 13601 net.cpp:425] inception_4b/relu_3x3 <- inception_4b/3x3
I0403 14:45:00.275776 13601 net.cpp:386] inception_4b/relu_3x3 -> inception_4b/3x3 (in-place)
I0403 14:45:00.275957 13601 net.cpp:141] Setting up inception_4b/relu_3x3
I0403 14:45:00.275982 13601 net.cpp:148] Top shape: 24 224 14 14 (1053696)
I0403 14:45:00.275996 13601 net.cpp:156] Memory required for data: 964869408
I0403 14:45:00.276010 13601 layer_factory.hpp:77] Creating layer inception_4b/5x5_reduce
I0403 14:45:00.276031 13601 net.cpp:91] Creating Layer inception_4b/5x5_reduce
I0403 14:45:00.276048 13601 net.cpp:425] inception_4b/5x5_reduce <- inception_4a/output_inception_4a/output_0_split_3
I0403 14:45:00.276070 13601 net.cpp:399] inception_4b/5x5_reduce -> inception_4b/5x5_reduce
I0403 14:45:00.277149 13601 net.cpp:141] Setting up inception_4b/5x5_reduce
I0403 14:45:00.277189 13601 net.cpp:148] Top shape: 24 24 14 14 (112896)
I0403 14:45:00.277206 13601 net.cpp:156] Memory required for data: 965320992
I0403 14:45:00.277225 13601 layer_factory.hpp:77] Creating layer inception_4b/relu_5x5_reduce
I0403 14:45:00.277246 13601 net.cpp:91] Creating Layer inception_4b/relu_5x5_reduce
I0403 14:45:00.277278 13601 net.cpp:425] inception_4b/relu_5x5_reduce <- inception_4b/5x5_reduce
I0403 14:45:00.277298 13601 net.cpp:386] inception_4b/relu_5x5_reduce -> inception_4b/5x5_reduce (in-place)
I0403 14:45:00.277484 13601 net.cpp:141] Setting up inception_4b/relu_5x5_reduce
I0403 14:45:00.277513 13601 net.cpp:148] Top shape: 24 24 14 14 (112896)
I0403 14:45:00.277528 13601 net.cpp:156] Memory required for data: 965772576
I0403 14:45:00.277541 13601 layer_factory.hpp:77] Creating layer inception_4b/5x5
I0403 14:45:00.277564 13601 net.cpp:91] Creating Layer inception_4b/5x5
I0403 14:45:00.277580 13601 net.cpp:425] inception_4b/5x5 <- inception_4b/5x5_reduce
I0403 14:45:00.277602 13601 net.cpp:399] inception_4b/5x5 -> inception_4b/5x5
I0403 14:45:00.278838 13601 net.cpp:141] Setting up inception_4b/5x5
I0403 14:45:00.278867 13601 net.cpp:148] Top shape: 24 64 14 14 (301056)
I0403 14:45:00.278883 13601 net.cpp:156] Memory required for data: 966976800
I0403 14:45:00.278901 13601 layer_factory.hpp:77] Creating layer inception_4b/relu_5x5
I0403 14:45:00.278921 13601 net.cpp:91] Creating Layer inception_4b/relu_5x5
I0403 14:45:00.278939 13601 net.cpp:425] inception_4b/relu_5x5 <- inception_4b/5x5
I0403 14:45:00.278954 13601 net.cpp:386] inception_4b/relu_5x5 -> inception_4b/5x5 (in-place)
I0403 14:45:00.279243 13601 net.cpp:141] Setting up inception_4b/relu_5x5
I0403 14:45:00.279278 13601 net.cpp:148] Top shape: 24 64 14 14 (301056)
I0403 14:45:00.279292 13601 net.cpp:156] Memory required for data: 968181024
I0403 14:45:00.279309 13601 layer_factory.hpp:77] Creating layer inception_4b/pool
I0403 14:45:00.279327 13601 net.cpp:91] Creating Layer inception_4b/pool
I0403 14:45:00.279345 13601 net.cpp:425] inception_4b/pool <- inception_4a/output_inception_4a/output_0_split_4
I0403 14:45:00.279366 13601 net.cpp:399] inception_4b/pool -> inception_4b/pool
I0403 14:45:00.279431 13601 net.cpp:141] Setting up inception_4b/pool
I0403 14:45:00.279456 13601 net.cpp:148] Top shape: 24 512 14 14 (2408448)
I0403 14:45:00.279471 13601 net.cpp:156] Memory required for data: 977814816
I0403 14:45:00.279486 13601 layer_factory.hpp:77] Creating layer inception_4b/pool_proj
I0403 14:45:00.279510 13601 net.cpp:91] Creating Layer inception_4b/pool_proj
I0403 14:45:00.279526 13601 net.cpp:425] inception_4b/pool_proj <- inception_4b/pool
I0403 14:45:00.279546 13601 net.cpp:399] inception_4b/pool_proj -> inception_4b/pool_proj
I0403 14:45:00.280776 13601 net.cpp:141] Setting up inception_4b/pool_proj
I0403 14:45:00.280807 13601 net.cpp:148] Top shape: 24 64 14 14 (301056)
I0403 14:45:00.280823 13601 net.cpp:156] Memory required for data: 979019040
I0403 14:45:00.280843 13601 layer_factory.hpp:77] Creating layer inception_4b/relu_pool_proj
I0403 14:45:00.280864 13601 net.cpp:91] Creating Layer inception_4b/relu_pool_proj
I0403 14:45:00.280880 13601 net.cpp:425] inception_4b/relu_pool_proj <- inception_4b/pool_proj
I0403 14:45:00.280899 13601 net.cpp:386] inception_4b/relu_pool_proj -> inception_4b/pool_proj (in-place)
I0403 14:45:00.281090 13601 net.cpp:141] Setting up inception_4b/relu_pool_proj
I0403 14:45:00.281116 13601 net.cpp:148] Top shape: 24 64 14 14 (301056)
I0403 14:45:00.281139 13601 net.cpp:156] Memory required for data: 980223264
I0403 14:45:00.281153 13601 layer_factory.hpp:77] Creating layer inception_4b/output
I0403 14:45:00.281173 13601 net.cpp:91] Creating Layer inception_4b/output
I0403 14:45:00.281189 13601 net.cpp:425] inception_4b/output <- inception_4b/1x1
I0403 14:45:00.281205 13601 net.cpp:425] inception_4b/output <- inception_4b/3x3
I0403 14:45:00.281220 13601 net.cpp:425] inception_4b/output <- inception_4b/5x5
I0403 14:45:00.281235 13601 net.cpp:425] inception_4b/output <- inception_4b/pool_proj
I0403 14:45:00.281254 13601 net.cpp:399] inception_4b/output -> inception_4b/output
I0403 14:45:00.281301 13601 net.cpp:141] Setting up inception_4b/output
I0403 14:45:00.281324 13601 net.cpp:148] Top shape: 24 512 14 14 (2408448)
I0403 14:45:00.281338 13601 net.cpp:156] Memory required for data: 989857056
I0403 14:45:00.281366 13601 layer_factory.hpp:77] Creating layer inception_4b/output_inception_4b/output_0_split
I0403 14:45:00.281385 13601 net.cpp:91] Creating Layer inception_4b/output_inception_4b/output_0_split
I0403 14:45:00.281400 13601 net.cpp:425] inception_4b/output_inception_4b/output_0_split <- inception_4b/output
I0403 14:45:00.281420 13601 net.cpp:399] inception_4b/output_inception_4b/output_0_split -> inception_4b/output_inception_4b/output_0_split_0
I0403 14:45:00.281442 13601 net.cpp:399] inception_4b/output_inception_4b/output_0_split -> inception_4b/output_inception_4b/output_0_split_1
I0403 14:45:00.281462 13601 net.cpp:399] inception_4b/output_inception_4b/output_0_split -> inception_4b/output_inception_4b/output_0_split_2
I0403 14:45:00.281481 13601 net.cpp:399] inception_4b/output_inception_4b/output_0_split -> inception_4b/output_inception_4b/output_0_split_3
I0403 14:45:00.281568 13601 net.cpp:141] Setting up inception_4b/output_inception_4b/output_0_split
I0403 14:45:00.281592 13601 net.cpp:148] Top shape: 24 512 14 14 (2408448)
I0403 14:45:00.281613 13601 net.cpp:148] Top shape: 24 512 14 14 (2408448)
I0403 14:45:00.281628 13601 net.cpp:148] Top shape: 24 512 14 14 (2408448)
I0403 14:45:00.281643 13601 net.cpp:148] Top shape: 24 512 14 14 (2408448)
I0403 14:45:00.281656 13601 net.cpp:156] Memory required for data: 1028392224
I0403 14:45:00.281669 13601 layer_factory.hpp:77] Creating layer inception_4c/1x1
I0403 14:45:00.281692 13601 net.cpp:91] Creating Layer inception_4c/1x1
I0403 14:45:00.281708 13601 net.cpp:425] inception_4c/1x1 <- inception_4b/output_inception_4b/output_0_split_0
I0403 14:45:00.281728 13601 net.cpp:399] inception_4c/1x1 -> inception_4c/1x1
I0403 14:45:00.283202 13601 net.cpp:141] Setting up inception_4c/1x1
I0403 14:45:00.283232 13601 net.cpp:148] Top shape: 24 128 14 14 (602112)
I0403 14:45:00.283249 13601 net.cpp:156] Memory required for data: 1030800672
I0403 14:45:00.283267 13601 layer_factory.hpp:77] Creating layer inception_4c/relu_1x1
I0403 14:45:00.283288 13601 net.cpp:91] Creating Layer inception_4c/relu_1x1
I0403 14:45:00.283311 13601 net.cpp:425] inception_4c/relu_1x1 <- inception_4c/1x1
I0403 14:45:00.283331 13601 net.cpp:386] inception_4c/relu_1x1 -> inception_4c/1x1 (in-place)
I0403 14:45:00.283512 13601 net.cpp:141] Setting up inception_4c/relu_1x1
I0403 14:45:00.283538 13601 net.cpp:148] Top shape: 24 128 14 14 (602112)
I0403 14:45:00.283555 13601 net.cpp:156] Memory required for data: 1033209120
I0403 14:45:00.283568 13601 layer_factory.hpp:77] Creating layer inception_4c/3x3_reduce
I0403 14:45:00.283591 13601 net.cpp:91] Creating Layer inception_4c/3x3_reduce
I0403 14:45:00.283613 13601 net.cpp:425] inception_4c/3x3_reduce <- inception_4b/output_inception_4b/output_0_split_1
I0403 14:45:00.283635 13601 net.cpp:399] inception_4c/3x3_reduce -> inception_4c/3x3_reduce
I0403 14:45:00.285626 13601 net.cpp:141] Setting up inception_4c/3x3_reduce
I0403 14:45:00.285657 13601 net.cpp:148] Top shape: 24 128 14 14 (602112)
I0403 14:45:00.285675 13601 net.cpp:156] Memory required for data: 1035617568
I0403 14:45:00.285693 13601 layer_factory.hpp:77] Creating layer inception_4c/relu_3x3_reduce
I0403 14:45:00.285712 13601 net.cpp:91] Creating Layer inception_4c/relu_3x3_reduce
I0403 14:45:00.285728 13601 net.cpp:425] inception_4c/relu_3x3_reduce <- inception_4c/3x3_reduce
I0403 14:45:00.285748 13601 net.cpp:386] inception_4c/relu_3x3_reduce -> inception_4c/3x3_reduce (in-place)
I0403 14:45:00.286036 13601 net.cpp:141] Setting up inception_4c/relu_3x3_reduce
I0403 14:45:00.286064 13601 net.cpp:148] Top shape: 24 128 14 14 (602112)
I0403 14:45:00.286080 13601 net.cpp:156] Memory required for data: 1038026016
I0403 14:45:00.286095 13601 layer_factory.hpp:77] Creating layer inception_4c/3x3
I0403 14:45:00.286120 13601 net.cpp:91] Creating Layer inception_4c/3x3
I0403 14:45:00.286139 13601 net.cpp:425] inception_4c/3x3 <- inception_4c/3x3_reduce
I0403 14:45:00.286159 13601 net.cpp:399] inception_4c/3x3 -> inception_4c/3x3
I0403 14:45:00.289763 13601 net.cpp:141] Setting up inception_4c/3x3
I0403 14:45:00.289808 13601 net.cpp:148] Top shape: 24 256 14 14 (1204224)
I0403 14:45:00.289824 13601 net.cpp:156] Memory required for data: 1042842912
I0403 14:45:00.289857 13601 layer_factory.hpp:77] Creating layer inception_4c/relu_3x3
I0403 14:45:00.289880 13601 net.cpp:91] Creating Layer inception_4c/relu_3x3
I0403 14:45:00.289901 13601 net.cpp:425] inception_4c/relu_3x3 <- inception_4c/3x3
I0403 14:45:00.289918 13601 net.cpp:386] inception_4c/relu_3x3 -> inception_4c/3x3 (in-place)
I0403 14:45:00.290102 13601 net.cpp:141] Setting up inception_4c/relu_3x3
I0403 14:45:00.290127 13601 net.cpp:148] Top shape: 24 256 14 14 (1204224)
I0403 14:45:00.290140 13601 net.cpp:156] Memory required for data: 1047659808
I0403 14:45:00.290155 13601 layer_factory.hpp:77] Creating layer inception_4c/5x5_reduce
I0403 14:45:00.290177 13601 net.cpp:91] Creating Layer inception_4c/5x5_reduce
I0403 14:45:00.290194 13601 net.cpp:425] inception_4c/5x5_reduce <- inception_4b/output_inception_4b/output_0_split_2
I0403 14:45:00.290216 13601 net.cpp:399] inception_4c/5x5_reduce -> inception_4c/5x5_reduce
I0403 14:45:00.291307 13601 net.cpp:141] Setting up inception_4c/5x5_reduce
I0403 14:45:00.291337 13601 net.cpp:148] Top shape: 24 24 14 14 (112896)
I0403 14:45:00.291353 13601 net.cpp:156] Memory required for data: 1048111392
I0403 14:45:00.291373 13601 layer_factory.hpp:77] Creating layer inception_4c/relu_5x5_reduce
I0403 14:45:00.291393 13601 net.cpp:91] Creating Layer inception_4c/relu_5x5_reduce
I0403 14:45:00.291409 13601 net.cpp:425] inception_4c/relu_5x5_reduce <- inception_4c/5x5_reduce
I0403 14:45:00.291427 13601 net.cpp:386] inception_4c/relu_5x5_reduce -> inception_4c/5x5_reduce (in-place)
I0403 14:45:00.291613 13601 net.cpp:141] Setting up inception_4c/relu_5x5_reduce
I0403 14:45:00.291640 13601 net.cpp:148] Top shape: 24 24 14 14 (112896)
I0403 14:45:00.291656 13601 net.cpp:156] Memory required for data: 1048562976
I0403 14:45:00.291671 13601 layer_factory.hpp:77] Creating layer inception_4c/5x5
I0403 14:45:00.291690 13601 net.cpp:91] Creating Layer inception_4c/5x5
I0403 14:45:00.291707 13601 net.cpp:425] inception_4c/5x5 <- inception_4c/5x5_reduce
I0403 14:45:00.291728 13601 net.cpp:399] inception_4c/5x5 -> inception_4c/5x5
I0403 14:45:00.292979 13601 net.cpp:141] Setting up inception_4c/5x5
I0403 14:45:00.293009 13601 net.cpp:148] Top shape: 24 64 14 14 (301056)
I0403 14:45:00.293025 13601 net.cpp:156] Memory required for data: 1049767200
I0403 14:45:00.293042 13601 layer_factory.hpp:77] Creating layer inception_4c/relu_5x5
I0403 14:45:00.293061 13601 net.cpp:91] Creating Layer inception_4c/relu_5x5
I0403 14:45:00.293078 13601 net.cpp:425] inception_4c/relu_5x5 <- inception_4c/5x5
I0403 14:45:00.293095 13601 net.cpp:386] inception_4c/relu_5x5 -> inception_4c/5x5 (in-place)
I0403 14:45:00.293387 13601 net.cpp:141] Setting up inception_4c/relu_5x5
I0403 14:45:00.293413 13601 net.cpp:148] Top shape: 24 64 14 14 (301056)
I0403 14:45:00.293429 13601 net.cpp:156] Memory required for data: 1050971424
I0403 14:45:00.293448 13601 layer_factory.hpp:77] Creating layer inception_4c/pool
I0403 14:45:00.293478 13601 net.cpp:91] Creating Layer inception_4c/pool
I0403 14:45:00.293499 13601 net.cpp:425] inception_4c/pool <- inception_4b/output_inception_4b/output_0_split_3
I0403 14:45:00.293524 13601 net.cpp:399] inception_4c/pool -> inception_4c/pool
I0403 14:45:00.293601 13601 net.cpp:141] Setting up inception_4c/pool
I0403 14:45:00.293627 13601 net.cpp:148] Top shape: 24 512 14 14 (2408448)
I0403 14:45:00.293642 13601 net.cpp:156] Memory required for data: 1060605216
I0403 14:45:00.293656 13601 layer_factory.hpp:77] Creating layer inception_4c/pool_proj
I0403 14:45:00.293678 13601 net.cpp:91] Creating Layer inception_4c/pool_proj
I0403 14:45:00.293695 13601 net.cpp:425] inception_4c/pool_proj <- inception_4c/pool
I0403 14:45:00.293715 13601 net.cpp:399] inception_4c/pool_proj -> inception_4c/pool_proj
I0403 14:45:00.294945 13601 net.cpp:141] Setting up inception_4c/pool_proj
I0403 14:45:00.294975 13601 net.cpp:148] Top shape: 24 64 14 14 (301056)
I0403 14:45:00.295006 13601 net.cpp:156] Memory required for data: 1061809440
I0403 14:45:00.295027 13601 layer_factory.hpp:77] Creating layer inception_4c/relu_pool_proj
I0403 14:45:00.295049 13601 net.cpp:91] Creating Layer inception_4c/relu_pool_proj
I0403 14:45:00.295065 13601 net.cpp:425] inception_4c/relu_pool_proj <- inception_4c/pool_proj
I0403 14:45:00.295083 13601 net.cpp:386] inception_4c/relu_pool_proj -> inception_4c/pool_proj (in-place)
I0403 14:45:00.295265 13601 net.cpp:141] Setting up inception_4c/relu_pool_proj
I0403 14:45:00.295292 13601 net.cpp:148] Top shape: 24 64 14 14 (301056)
I0403 14:45:00.295307 13601 net.cpp:156] Memory required for data: 1063013664
I0403 14:45:00.295321 13601 layer_factory.hpp:77] Creating layer inception_4c/output
I0403 14:45:00.295341 13601 net.cpp:91] Creating Layer inception_4c/output
I0403 14:45:00.295357 13601 net.cpp:425] inception_4c/output <- inception_4c/1x1
I0403 14:45:00.295373 13601 net.cpp:425] inception_4c/output <- inception_4c/3x3
I0403 14:45:00.295390 13601 net.cpp:425] inception_4c/output <- inception_4c/5x5
I0403 14:45:00.295408 13601 net.cpp:425] inception_4c/output <- inception_4c/pool_proj
I0403 14:45:00.295424 13601 net.cpp:399] inception_4c/output -> inception_4c/output
I0403 14:45:00.295472 13601 net.cpp:141] Setting up inception_4c/output
I0403 14:45:00.295497 13601 net.cpp:148] Top shape: 24 512 14 14 (2408448)
I0403 14:45:00.295512 13601 net.cpp:156] Memory required for data: 1072647456
I0403 14:45:00.295527 13601 layer_factory.hpp:77] Creating layer inception_4c/output_inception_4c/output_0_split
I0403 14:45:00.295544 13601 net.cpp:91] Creating Layer inception_4c/output_inception_4c/output_0_split
I0403 14:45:00.295560 13601 net.cpp:425] inception_4c/output_inception_4c/output_0_split <- inception_4c/output
I0403 14:45:00.295581 13601 net.cpp:399] inception_4c/output_inception_4c/output_0_split -> inception_4c/output_inception_4c/output_0_split_0
I0403 14:45:00.295608 13601 net.cpp:399] inception_4c/output_inception_4c/output_0_split -> inception_4c/output_inception_4c/output_0_split_1
I0403 14:45:00.295631 13601 net.cpp:399] inception_4c/output_inception_4c/output_0_split -> inception_4c/output_inception_4c/output_0_split_2
I0403 14:45:00.295652 13601 net.cpp:399] inception_4c/output_inception_4c/output_0_split -> inception_4c/output_inception_4c/output_0_split_3
I0403 14:45:00.295742 13601 net.cpp:141] Setting up inception_4c/output_inception_4c/output_0_split
I0403 14:45:00.295768 13601 net.cpp:148] Top shape: 24 512 14 14 (2408448)
I0403 14:45:00.295788 13601 net.cpp:148] Top shape: 24 512 14 14 (2408448)
I0403 14:45:00.295804 13601 net.cpp:148] Top shape: 24 512 14 14 (2408448)
I0403 14:45:00.295819 13601 net.cpp:148] Top shape: 24 512 14 14 (2408448)
I0403 14:45:00.295833 13601 net.cpp:156] Memory required for data: 1111182624
I0403 14:45:00.295847 13601 layer_factory.hpp:77] Creating layer inception_4d/1x1
I0403 14:45:00.295869 13601 net.cpp:91] Creating Layer inception_4d/1x1
I0403 14:45:00.295887 13601 net.cpp:425] inception_4d/1x1 <- inception_4c/output_inception_4c/output_0_split_0
I0403 14:45:00.295908 13601 net.cpp:399] inception_4d/1x1 -> inception_4d/1x1
I0403 14:45:00.297300 13601 net.cpp:141] Setting up inception_4d/1x1
I0403 14:45:00.297332 13601 net.cpp:148] Top shape: 24 112 14 14 (526848)
I0403 14:45:00.297348 13601 net.cpp:156] Memory required for data: 1113290016
I0403 14:45:00.297368 13601 layer_factory.hpp:77] Creating layer inception_4d/relu_1x1
I0403 14:45:00.297385 13601 net.cpp:91] Creating Layer inception_4d/relu_1x1
I0403 14:45:00.297401 13601 net.cpp:425] inception_4d/relu_1x1 <- inception_4d/1x1
I0403 14:45:00.297420 13601 net.cpp:386] inception_4d/relu_1x1 -> inception_4d/1x1 (in-place)
I0403 14:45:00.297602 13601 net.cpp:141] Setting up inception_4d/relu_1x1
I0403 14:45:00.297627 13601 net.cpp:148] Top shape: 24 112 14 14 (526848)
I0403 14:45:00.297641 13601 net.cpp:156] Memory required for data: 1115397408
I0403 14:45:00.297655 13601 layer_factory.hpp:77] Creating layer inception_4d/3x3_reduce
I0403 14:45:00.297691 13601 net.cpp:91] Creating Layer inception_4d/3x3_reduce
I0403 14:45:00.297709 13601 net.cpp:425] inception_4d/3x3_reduce <- inception_4c/output_inception_4c/output_0_split_1
I0403 14:45:00.297729 13601 net.cpp:399] inception_4d/3x3_reduce -> inception_4d/3x3_reduce
I0403 14:45:00.299206 13601 net.cpp:141] Setting up inception_4d/3x3_reduce
I0403 14:45:00.299237 13601 net.cpp:148] Top shape: 24 144 14 14 (677376)
I0403 14:45:00.299253 13601 net.cpp:156] Memory required for data: 1118106912
I0403 14:45:00.299270 13601 layer_factory.hpp:77] Creating layer inception_4d/relu_3x3_reduce
I0403 14:45:00.299288 13601 net.cpp:91] Creating Layer inception_4d/relu_3x3_reduce
I0403 14:45:00.299304 13601 net.cpp:425] inception_4d/relu_3x3_reduce <- inception_4d/3x3_reduce
I0403 14:45:00.299319 13601 net.cpp:386] inception_4d/relu_3x3_reduce -> inception_4d/3x3_reduce (in-place)
I0403 14:45:00.299621 13601 net.cpp:141] Setting up inception_4d/relu_3x3_reduce
I0403 14:45:00.299650 13601 net.cpp:148] Top shape: 24 144 14 14 (677376)
I0403 14:45:00.299665 13601 net.cpp:156] Memory required for data: 1120816416
I0403 14:45:00.299680 13601 layer_factory.hpp:77] Creating layer inception_4d/3x3
I0403 14:45:00.299711 13601 net.cpp:91] Creating Layer inception_4d/3x3
I0403 14:45:00.299728 13601 net.cpp:425] inception_4d/3x3 <- inception_4d/3x3_reduce
I0403 14:45:00.299746 13601 net.cpp:399] inception_4d/3x3 -> inception_4d/3x3
I0403 14:45:00.303920 13601 net.cpp:141] Setting up inception_4d/3x3
I0403 14:45:00.303948 13601 net.cpp:148] Top shape: 24 288 14 14 (1354752)
I0403 14:45:00.303964 13601 net.cpp:156] Memory required for data: 1126235424
I0403 14:45:00.303982 13601 layer_factory.hpp:77] Creating layer inception_4d/relu_3x3
I0403 14:45:00.304002 13601 net.cpp:91] Creating Layer inception_4d/relu_3x3
I0403 14:45:00.304016 13601 net.cpp:425] inception_4d/relu_3x3 <- inception_4d/3x3
I0403 14:45:00.304035 13601 net.cpp:386] inception_4d/relu_3x3 -> inception_4d/3x3 (in-place)
I0403 14:45:00.304216 13601 net.cpp:141] Setting up inception_4d/relu_3x3
I0403 14:45:00.304242 13601 net.cpp:148] Top shape: 24 288 14 14 (1354752)
I0403 14:45:00.304257 13601 net.cpp:156] Memory required for data: 1131654432
I0403 14:45:00.304271 13601 layer_factory.hpp:77] Creating layer inception_4d/5x5_reduce
I0403 14:45:00.304292 13601 net.cpp:91] Creating Layer inception_4d/5x5_reduce
I0403 14:45:00.304308 13601 net.cpp:425] inception_4d/5x5_reduce <- inception_4c/output_inception_4c/output_0_split_2
I0403 14:45:00.304328 13601 net.cpp:399] inception_4d/5x5_reduce -> inception_4d/5x5_reduce
I0403 14:45:00.305461 13601 net.cpp:141] Setting up inception_4d/5x5_reduce
I0403 14:45:00.305490 13601 net.cpp:148] Top shape: 24 32 14 14 (150528)
I0403 14:45:00.305505 13601 net.cpp:156] Memory required for data: 1132256544
I0403 14:45:00.305521 13601 layer_factory.hpp:77] Creating layer inception_4d/relu_5x5_reduce
I0403 14:45:00.305538 13601 net.cpp:91] Creating Layer inception_4d/relu_5x5_reduce
I0403 14:45:00.305553 13601 net.cpp:425] inception_4d/relu_5x5_reduce <- inception_4d/5x5_reduce
I0403 14:45:00.305572 13601 net.cpp:386] inception_4d/relu_5x5_reduce -> inception_4d/5x5_reduce (in-place)
I0403 14:45:00.305762 13601 net.cpp:141] Setting up inception_4d/relu_5x5_reduce
I0403 14:45:00.305785 13601 net.cpp:148] Top shape: 24 32 14 14 (150528)
I0403 14:45:00.305799 13601 net.cpp:156] Memory required for data: 1132858656
I0403 14:45:00.305811 13601 layer_factory.hpp:77] Creating layer inception_4d/5x5
I0403 14:45:00.305833 13601 net.cpp:91] Creating Layer inception_4d/5x5
I0403 14:45:00.305850 13601 net.cpp:425] inception_4d/5x5 <- inception_4d/5x5_reduce
I0403 14:45:00.305869 13601 net.cpp:399] inception_4d/5x5 -> inception_4d/5x5
I0403 14:45:00.307310 13601 net.cpp:141] Setting up inception_4d/5x5
I0403 14:45:00.307339 13601 net.cpp:148] Top shape: 24 64 14 14 (301056)
I0403 14:45:00.307354 13601 net.cpp:156] Memory required for data: 1134062880
I0403 14:45:00.307373 13601 layer_factory.hpp:77] Creating layer inception_4d/relu_5x5
I0403 14:45:00.307409 13601 net.cpp:91] Creating Layer inception_4d/relu_5x5
I0403 14:45:00.307426 13601 net.cpp:425] inception_4d/relu_5x5 <- inception_4d/5x5
I0403 14:45:00.307443 13601 net.cpp:386] inception_4d/relu_5x5 -> inception_4d/5x5 (in-place)
I0403 14:45:00.307742 13601 net.cpp:141] Setting up inception_4d/relu_5x5
I0403 14:45:00.307770 13601 net.cpp:148] Top shape: 24 64 14 14 (301056)
I0403 14:45:00.307785 13601 net.cpp:156] Memory required for data: 1135267104
I0403 14:45:00.307799 13601 layer_factory.hpp:77] Creating layer inception_4d/pool
I0403 14:45:00.307821 13601 net.cpp:91] Creating Layer inception_4d/pool
I0403 14:45:00.307837 13601 net.cpp:425] inception_4d/pool <- inception_4c/output_inception_4c/output_0_split_3
I0403 14:45:00.307854 13601 net.cpp:399] inception_4d/pool -> inception_4d/pool
I0403 14:45:00.307921 13601 net.cpp:141] Setting up inception_4d/pool
I0403 14:45:00.307946 13601 net.cpp:148] Top shape: 24 512 14 14 (2408448)
I0403 14:45:00.307960 13601 net.cpp:156] Memory required for data: 1144900896
I0403 14:45:00.307974 13601 layer_factory.hpp:77] Creating layer inception_4d/pool_proj
I0403 14:45:00.307996 13601 net.cpp:91] Creating Layer inception_4d/pool_proj
I0403 14:45:00.308014 13601 net.cpp:425] inception_4d/pool_proj <- inception_4d/pool
I0403 14:45:00.308034 13601 net.cpp:399] inception_4d/pool_proj -> inception_4d/pool_proj
I0403 14:45:00.309778 13601 net.cpp:141] Setting up inception_4d/pool_proj
I0403 14:45:00.309808 13601 net.cpp:148] Top shape: 24 64 14 14 (301056)
I0403 14:45:00.309824 13601 net.cpp:156] Memory required for data: 1146105120
I0403 14:45:00.309842 13601 layer_factory.hpp:77] Creating layer inception_4d/relu_pool_proj
I0403 14:45:00.309859 13601 net.cpp:91] Creating Layer inception_4d/relu_pool_proj
I0403 14:45:00.309873 13601 net.cpp:425] inception_4d/relu_pool_proj <- inception_4d/pool_proj
I0403 14:45:00.309892 13601 net.cpp:386] inception_4d/relu_pool_proj -> inception_4d/pool_proj (in-place)
I0403 14:45:00.310075 13601 net.cpp:141] Setting up inception_4d/relu_pool_proj
I0403 14:45:00.310101 13601 net.cpp:148] Top shape: 24 64 14 14 (301056)
I0403 14:45:00.310116 13601 net.cpp:156] Memory required for data: 1147309344
I0403 14:45:00.310130 13601 layer_factory.hpp:77] Creating layer inception_4d/output
I0403 14:45:00.310149 13601 net.cpp:91] Creating Layer inception_4d/output
I0403 14:45:00.310165 13601 net.cpp:425] inception_4d/output <- inception_4d/1x1
I0403 14:45:00.310181 13601 net.cpp:425] inception_4d/output <- inception_4d/3x3
I0403 14:45:00.310199 13601 net.cpp:425] inception_4d/output <- inception_4d/5x5
I0403 14:45:00.310214 13601 net.cpp:425] inception_4d/output <- inception_4d/pool_proj
I0403 14:45:00.310230 13601 net.cpp:399] inception_4d/output -> inception_4d/output
I0403 14:45:00.310278 13601 net.cpp:141] Setting up inception_4d/output
I0403 14:45:00.310302 13601 net.cpp:148] Top shape: 24 528 14 14 (2483712)
I0403 14:45:00.310315 13601 net.cpp:156] Memory required for data: 1157244192
I0403 14:45:00.310329 13601 layer_factory.hpp:77] Creating layer inception_4d/output_inception_4d/output_0_split
I0403 14:45:00.310346 13601 net.cpp:91] Creating Layer inception_4d/output_inception_4d/output_0_split
I0403 14:45:00.310360 13601 net.cpp:425] inception_4d/output_inception_4d/output_0_split <- inception_4d/output
I0403 14:45:00.310380 13601 net.cpp:399] inception_4d/output_inception_4d/output_0_split -> inception_4d/output_inception_4d/output_0_split_0
I0403 14:45:00.310401 13601 net.cpp:399] inception_4d/output_inception_4d/output_0_split -> inception_4d/output_inception_4d/output_0_split_1
I0403 14:45:00.310421 13601 net.cpp:399] inception_4d/output_inception_4d/output_0_split -> inception_4d/output_inception_4d/output_0_split_2
I0403 14:45:00.310441 13601 net.cpp:399] inception_4d/output_inception_4d/output_0_split -> inception_4d/output_inception_4d/output_0_split_3
I0403 14:45:00.310459 13601 net.cpp:399] inception_4d/output_inception_4d/output_0_split -> inception_4d/output_inception_4d/output_0_split_4
I0403 14:45:00.310559 13601 net.cpp:141] Setting up inception_4d/output_inception_4d/output_0_split
I0403 14:45:00.310595 13601 net.cpp:148] Top shape: 24 528 14 14 (2483712)
I0403 14:45:00.310618 13601 net.cpp:148] Top shape: 24 528 14 14 (2483712)
I0403 14:45:00.310634 13601 net.cpp:148] Top shape: 24 528 14 14 (2483712)
I0403 14:45:00.310649 13601 net.cpp:148] Top shape: 24 528 14 14 (2483712)
I0403 14:45:00.310663 13601 net.cpp:148] Top shape: 24 528 14 14 (2483712)
I0403 14:45:00.310677 13601 net.cpp:156] Memory required for data: 1206918432
I0403 14:45:00.310690 13601 layer_factory.hpp:77] Creating layer loss2/ave_pool
I0403 14:45:00.310708 13601 net.cpp:91] Creating Layer loss2/ave_pool
I0403 14:45:00.310721 13601 net.cpp:425] loss2/ave_pool <- inception_4d/output_inception_4d/output_0_split_0
I0403 14:45:00.310741 13601 net.cpp:399] loss2/ave_pool -> loss2/ave_pool
I0403 14:45:00.311053 13601 net.cpp:141] Setting up loss2/ave_pool
I0403 14:45:00.311077 13601 net.cpp:148] Top shape: 24 528 4 4 (202752)
I0403 14:45:00.311092 13601 net.cpp:156] Memory required for data: 1207729440
I0403 14:45:00.311105 13601 layer_factory.hpp:77] Creating layer loss2/conv
I0403 14:45:00.311127 13601 net.cpp:91] Creating Layer loss2/conv
I0403 14:45:00.311144 13601 net.cpp:425] loss2/conv <- loss2/ave_pool
I0403 14:45:00.311164 13601 net.cpp:399] loss2/conv -> loss2/conv
I0403 14:45:00.313010 13601 net.cpp:141] Setting up loss2/conv
I0403 14:45:00.313038 13601 net.cpp:148] Top shape: 24 128 4 4 (49152)
I0403 14:45:00.313055 13601 net.cpp:156] Memory required for data: 1207926048
I0403 14:45:00.313072 13601 layer_factory.hpp:77] Creating layer loss2/relu_conv
I0403 14:45:00.313092 13601 net.cpp:91] Creating Layer loss2/relu_conv
I0403 14:45:00.313112 13601 net.cpp:425] loss2/relu_conv <- loss2/conv
I0403 14:45:00.313128 13601 net.cpp:386] loss2/relu_conv -> loss2/conv (in-place)
I0403 14:45:00.313410 13601 net.cpp:141] Setting up loss2/relu_conv
I0403 14:45:00.313436 13601 net.cpp:148] Top shape: 24 128 4 4 (49152)
I0403 14:45:00.313448 13601 net.cpp:156] Memory required for data: 1208122656
I0403 14:45:00.313462 13601 layer_factory.hpp:77] Creating layer loss2/fc
I0403 14:45:00.313483 13601 net.cpp:91] Creating Layer loss2/fc
I0403 14:45:00.313499 13601 net.cpp:425] loss2/fc <- loss2/conv
I0403 14:45:00.313518 13601 net.cpp:399] loss2/fc -> loss2/fc
I0403 14:45:00.330719 13601 net.cpp:141] Setting up loss2/fc
I0403 14:45:00.330754 13601 net.cpp:148] Top shape: 24 1024 (24576)
I0403 14:45:00.330768 13601 net.cpp:156] Memory required for data: 1208220960
I0403 14:45:00.330786 13601 layer_factory.hpp:77] Creating layer loss2/relu_fc
I0403 14:45:00.330804 13601 net.cpp:91] Creating Layer loss2/relu_fc
I0403 14:45:00.330821 13601 net.cpp:425] loss2/relu_fc <- loss2/fc
I0403 14:45:00.330840 13601 net.cpp:386] loss2/relu_fc -> loss2/fc (in-place)
I0403 14:45:00.331135 13601 net.cpp:141] Setting up loss2/relu_fc
I0403 14:45:00.331161 13601 net.cpp:148] Top shape: 24 1024 (24576)
I0403 14:45:00.331174 13601 net.cpp:156] Memory required for data: 1208319264
I0403 14:45:00.331188 13601 layer_factory.hpp:77] Creating layer loss2/drop_fc
I0403 14:45:00.331205 13601 net.cpp:91] Creating Layer loss2/drop_fc
I0403 14:45:00.331220 13601 net.cpp:425] loss2/drop_fc <- loss2/fc
I0403 14:45:00.331239 13601 net.cpp:386] loss2/drop_fc -> loss2/fc (in-place)
I0403 14:45:00.331287 13601 net.cpp:141] Setting up loss2/drop_fc
I0403 14:45:00.331312 13601 net.cpp:148] Top shape: 24 1024 (24576)
I0403 14:45:00.331326 13601 net.cpp:156] Memory required for data: 1208417568
I0403 14:45:00.331341 13601 layer_factory.hpp:77] Creating layer loss2/classifier_plantvillage
I0403 14:45:00.331358 13601 net.cpp:91] Creating Layer loss2/classifier_plantvillage
I0403 14:45:00.331372 13601 net.cpp:425] loss2/classifier_plantvillage <- loss2/fc
I0403 14:45:00.331393 13601 net.cpp:399] loss2/classifier_plantvillage -> loss2/classifier_plantvillage
I0403 14:45:00.331802 13601 net.cpp:141] Setting up loss2/classifier_plantvillage
I0403 14:45:00.331830 13601 net.cpp:148] Top shape: 24 38 (912)
I0403 14:45:00.331845 13601 net.cpp:156] Memory required for data: 1208421216
I0403 14:45:00.331878 13601 layer_factory.hpp:77] Creating layer loss2/classifier_plantvillage_loss2/classifier_plantvillage_0_split
I0403 14:45:00.331897 13601 net.cpp:91] Creating Layer loss2/classifier_plantvillage_loss2/classifier_plantvillage_0_split
I0403 14:45:00.331912 13601 net.cpp:425] loss2/classifier_plantvillage_loss2/classifier_plantvillage_0_split <- loss2/classifier_plantvillage
I0403 14:45:00.331938 13601 net.cpp:399] loss2/classifier_plantvillage_loss2/classifier_plantvillage_0_split -> loss2/classifier_plantvillage_loss2/classifier_plantvillage_0_split_0
I0403 14:45:00.331957 13601 net.cpp:399] loss2/classifier_plantvillage_loss2/classifier_plantvillage_0_split -> loss2/classifier_plantvillage_loss2/classifier_plantvillage_0_split_1
I0403 14:45:00.331980 13601 net.cpp:399] loss2/classifier_plantvillage_loss2/classifier_plantvillage_0_split -> loss2/classifier_plantvillage_loss2/classifier_plantvillage_0_split_2
I0403 14:45:00.332059 13601 net.cpp:141] Setting up loss2/classifier_plantvillage_loss2/classifier_plantvillage_0_split
I0403 14:45:00.332082 13601 net.cpp:148] Top shape: 24 38 (912)
I0403 14:45:00.332099 13601 net.cpp:148] Top shape: 24 38 (912)
I0403 14:45:00.332113 13601 net.cpp:148] Top shape: 24 38 (912)
I0403 14:45:00.332126 13601 net.cpp:156] Memory required for data: 1208432160
I0403 14:45:00.332140 13601 layer_factory.hpp:77] Creating layer inception_4e/1x1
I0403 14:45:00.332159 13601 net.cpp:91] Creating Layer inception_4e/1x1
I0403 14:45:00.332175 13601 net.cpp:425] inception_4e/1x1 <- inception_4d/output_inception_4d/output_0_split_1
I0403 14:45:00.332195 13601 net.cpp:399] inception_4e/1x1 -> inception_4e/1x1
I0403 14:45:00.333981 13601 net.cpp:141] Setting up inception_4e/1x1
I0403 14:45:00.334008 13601 net.cpp:148] Top shape: 24 256 14 14 (1204224)
I0403 14:45:00.334023 13601 net.cpp:156] Memory required for data: 1213249056
I0403 14:45:00.334041 13601 layer_factory.hpp:77] Creating layer inception_4e/relu_1x1
I0403 14:45:00.334060 13601 net.cpp:91] Creating Layer inception_4e/relu_1x1
I0403 14:45:00.334076 13601 net.cpp:425] inception_4e/relu_1x1 <- inception_4e/1x1
I0403 14:45:00.334092 13601 net.cpp:386] inception_4e/relu_1x1 -> inception_4e/1x1 (in-place)
I0403 14:45:00.334381 13601 net.cpp:141] Setting up inception_4e/relu_1x1
I0403 14:45:00.334408 13601 net.cpp:148] Top shape: 24 256 14 14 (1204224)
I0403 14:45:00.334421 13601 net.cpp:156] Memory required for data: 1218065952
I0403 14:45:00.334435 13601 layer_factory.hpp:77] Creating layer inception_4e/3x3_reduce
I0403 14:45:00.334458 13601 net.cpp:91] Creating Layer inception_4e/3x3_reduce
I0403 14:45:00.334475 13601 net.cpp:425] inception_4e/3x3_reduce <- inception_4d/output_inception_4d/output_0_split_2
I0403 14:45:00.334493 13601 net.cpp:399] inception_4e/3x3_reduce -> inception_4e/3x3_reduce
I0403 14:45:00.336563 13601 net.cpp:141] Setting up inception_4e/3x3_reduce
I0403 14:45:00.336592 13601 net.cpp:148] Top shape: 24 160 14 14 (752640)
I0403 14:45:00.336613 13601 net.cpp:156] Memory required for data: 1221076512
I0403 14:45:00.336633 13601 layer_factory.hpp:77] Creating layer inception_4e/relu_3x3_reduce
I0403 14:45:00.336653 13601 net.cpp:91] Creating Layer inception_4e/relu_3x3_reduce
I0403 14:45:00.336671 13601 net.cpp:425] inception_4e/relu_3x3_reduce <- inception_4e/3x3_reduce
I0403 14:45:00.336688 13601 net.cpp:386] inception_4e/relu_3x3_reduce -> inception_4e/3x3_reduce (in-place)
I0403 14:45:00.336870 13601 net.cpp:141] Setting up inception_4e/relu_3x3_reduce
I0403 14:45:00.336897 13601 net.cpp:148] Top shape: 24 160 14 14 (752640)
I0403 14:45:00.336912 13601 net.cpp:156] Memory required for data: 1224087072
I0403 14:45:00.336927 13601 layer_factory.hpp:77] Creating layer inception_4e/3x3
I0403 14:45:00.336947 13601 net.cpp:91] Creating Layer inception_4e/3x3
I0403 14:45:00.336964 13601 net.cpp:425] inception_4e/3x3 <- inception_4e/3x3_reduce
I0403 14:45:00.336982 13601 net.cpp:399] inception_4e/3x3 -> inception_4e/3x3
I0403 14:45:00.341933 13601 net.cpp:141] Setting up inception_4e/3x3
I0403 14:45:00.341977 13601 net.cpp:148] Top shape: 24 320 14 14 (1505280)
I0403 14:45:00.341995 13601 net.cpp:156] Memory required for data: 1230108192
I0403 14:45:00.342013 13601 layer_factory.hpp:77] Creating layer inception_4e/relu_3x3
I0403 14:45:00.342031 13601 net.cpp:91] Creating Layer inception_4e/relu_3x3
I0403 14:45:00.342046 13601 net.cpp:425] inception_4e/relu_3x3 <- inception_4e/3x3
I0403 14:45:00.342066 13601 net.cpp:386] inception_4e/relu_3x3 -> inception_4e/3x3 (in-place)
I0403 14:45:00.342357 13601 net.cpp:141] Setting up inception_4e/relu_3x3
I0403 14:45:00.342384 13601 net.cpp:148] Top shape: 24 320 14 14 (1505280)
I0403 14:45:00.342399 13601 net.cpp:156] Memory required for data: 1236129312
I0403 14:45:00.342413 13601 layer_factory.hpp:77] Creating layer inception_4e/5x5_reduce
I0403 14:45:00.342435 13601 net.cpp:91] Creating Layer inception_4e/5x5_reduce
I0403 14:45:00.342453 13601 net.cpp:425] inception_4e/5x5_reduce <- inception_4d/output_inception_4d/output_0_split_3
I0403 14:45:00.342470 13601 net.cpp:399] inception_4e/5x5_reduce -> inception_4e/5x5_reduce
I0403 14:45:00.343523 13601 net.cpp:141] Setting up inception_4e/5x5_reduce
I0403 14:45:00.343552 13601 net.cpp:148] Top shape: 24 32 14 14 (150528)
I0403 14:45:00.343567 13601 net.cpp:156] Memory required for data: 1236731424
I0403 14:45:00.343585 13601 layer_factory.hpp:77] Creating layer inception_4e/relu_5x5_reduce
I0403 14:45:00.343610 13601 net.cpp:91] Creating Layer inception_4e/relu_5x5_reduce
I0403 14:45:00.343627 13601 net.cpp:425] inception_4e/relu_5x5_reduce <- inception_4e/5x5_reduce
I0403 14:45:00.343646 13601 net.cpp:386] inception_4e/relu_5x5_reduce -> inception_4e/5x5_reduce (in-place)
I0403 14:45:00.343936 13601 net.cpp:141] Setting up inception_4e/relu_5x5_reduce
I0403 14:45:00.343961 13601 net.cpp:148] Top shape: 24 32 14 14 (150528)
I0403 14:45:00.343976 13601 net.cpp:156] Memory required for data: 1237333536
I0403 14:45:00.343989 13601 layer_factory.hpp:77] Creating layer inception_4e/5x5
I0403 14:45:00.344025 13601 net.cpp:91] Creating Layer inception_4e/5x5
I0403 14:45:00.344044 13601 net.cpp:425] inception_4e/5x5 <- inception_4e/5x5_reduce
I0403 14:45:00.344064 13601 net.cpp:399] inception_4e/5x5 -> inception_4e/5x5
I0403 14:45:00.345896 13601 net.cpp:141] Setting up inception_4e/5x5
I0403 14:45:00.345923 13601 net.cpp:148] Top shape: 24 128 14 14 (602112)
I0403 14:45:00.345938 13601 net.cpp:156] Memory required for data: 1239741984
I0403 14:45:00.345957 13601 layer_factory.hpp:77] Creating layer inception_4e/relu_5x5
I0403 14:45:00.345974 13601 net.cpp:91] Creating Layer inception_4e/relu_5x5
I0403 14:45:00.345990 13601 net.cpp:425] inception_4e/relu_5x5 <- inception_4e/5x5
I0403 14:45:00.346009 13601 net.cpp:386] inception_4e/relu_5x5 -> inception_4e/5x5 (in-place)
I0403 14:45:00.346209 13601 net.cpp:141] Setting up inception_4e/relu_5x5
I0403 14:45:00.346233 13601 net.cpp:148] Top shape: 24 128 14 14 (602112)
I0403 14:45:00.346247 13601 net.cpp:156] Memory required for data: 1242150432
I0403 14:45:00.346261 13601 layer_factory.hpp:77] Creating layer inception_4e/pool
I0403 14:45:00.346282 13601 net.cpp:91] Creating Layer inception_4e/pool
I0403 14:45:00.346297 13601 net.cpp:425] inception_4e/pool <- inception_4d/output_inception_4d/output_0_split_4
I0403 14:45:00.346315 13601 net.cpp:399] inception_4e/pool -> inception_4e/pool
I0403 14:45:00.346386 13601 net.cpp:141] Setting up inception_4e/pool
I0403 14:45:00.346410 13601 net.cpp:148] Top shape: 24 528 14 14 (2483712)
I0403 14:45:00.346423 13601 net.cpp:156] Memory required for data: 1252085280
I0403 14:45:00.346437 13601 layer_factory.hpp:77] Creating layer inception_4e/pool_proj
I0403 14:45:00.346459 13601 net.cpp:91] Creating Layer inception_4e/pool_proj
I0403 14:45:00.346477 13601 net.cpp:425] inception_4e/pool_proj <- inception_4e/pool
I0403 14:45:00.346496 13601 net.cpp:399] inception_4e/pool_proj -> inception_4e/pool_proj
I0403 14:45:00.348019 13601 net.cpp:141] Setting up inception_4e/pool_proj
I0403 14:45:00.348048 13601 net.cpp:148] Top shape: 24 128 14 14 (602112)
I0403 14:45:00.348080 13601 net.cpp:156] Memory required for data: 1254493728
I0403 14:45:00.348100 13601 layer_factory.hpp:77] Creating layer inception_4e/relu_pool_proj
I0403 14:45:00.348120 13601 net.cpp:91] Creating Layer inception_4e/relu_pool_proj
I0403 14:45:00.348137 13601 net.cpp:425] inception_4e/relu_pool_proj <- inception_4e/pool_proj
I0403 14:45:00.348156 13601 net.cpp:386] inception_4e/relu_pool_proj -> inception_4e/pool_proj (in-place)
I0403 14:45:00.348455 13601 net.cpp:141] Setting up inception_4e/relu_pool_proj
I0403 14:45:00.348482 13601 net.cpp:148] Top shape: 24 128 14 14 (602112)
I0403 14:45:00.348498 13601 net.cpp:156] Memory required for data: 1256902176
I0403 14:45:00.348515 13601 layer_factory.hpp:77] Creating layer inception_4e/output
I0403 14:45:00.348532 13601 net.cpp:91] Creating Layer inception_4e/output
I0403 14:45:00.348547 13601 net.cpp:425] inception_4e/output <- inception_4e/1x1
I0403 14:45:00.348563 13601 net.cpp:425] inception_4e/output <- inception_4e/3x3
I0403 14:45:00.348579 13601 net.cpp:425] inception_4e/output <- inception_4e/5x5
I0403 14:45:00.348595 13601 net.cpp:425] inception_4e/output <- inception_4e/pool_proj
I0403 14:45:00.348621 13601 net.cpp:399] inception_4e/output -> inception_4e/output
I0403 14:45:00.348675 13601 net.cpp:141] Setting up inception_4e/output
I0403 14:45:00.348701 13601 net.cpp:148] Top shape: 24 832 14 14 (3913728)
I0403 14:45:00.348717 13601 net.cpp:156] Memory required for data: 1272557088
I0403 14:45:00.348733 13601 layer_factory.hpp:77] Creating layer pool4/3x3_s2
I0403 14:45:00.348750 13601 net.cpp:91] Creating Layer pool4/3x3_s2
I0403 14:45:00.348767 13601 net.cpp:425] pool4/3x3_s2 <- inception_4e/output
I0403 14:45:00.348785 13601 net.cpp:399] pool4/3x3_s2 -> pool4/3x3_s2
I0403 14:45:00.348857 13601 net.cpp:141] Setting up pool4/3x3_s2
I0403 14:45:00.348883 13601 net.cpp:148] Top shape: 24 832 7 7 (978432)
I0403 14:45:00.348897 13601 net.cpp:156] Memory required for data: 1276470816
I0403 14:45:00.348913 13601 layer_factory.hpp:77] Creating layer pool4/3x3_s2_pool4/3x3_s2_0_split
I0403 14:45:00.348930 13601 net.cpp:91] Creating Layer pool4/3x3_s2_pool4/3x3_s2_0_split
I0403 14:45:00.348947 13601 net.cpp:425] pool4/3x3_s2_pool4/3x3_s2_0_split <- pool4/3x3_s2
I0403 14:45:00.348966 13601 net.cpp:399] pool4/3x3_s2_pool4/3x3_s2_0_split -> pool4/3x3_s2_pool4/3x3_s2_0_split_0
I0403 14:45:00.348986 13601 net.cpp:399] pool4/3x3_s2_pool4/3x3_s2_0_split -> pool4/3x3_s2_pool4/3x3_s2_0_split_1
I0403 14:45:00.349006 13601 net.cpp:399] pool4/3x3_s2_pool4/3x3_s2_0_split -> pool4/3x3_s2_pool4/3x3_s2_0_split_2
I0403 14:45:00.349027 13601 net.cpp:399] pool4/3x3_s2_pool4/3x3_s2_0_split -> pool4/3x3_s2_pool4/3x3_s2_0_split_3
I0403 14:45:00.349122 13601 net.cpp:141] Setting up pool4/3x3_s2_pool4/3x3_s2_0_split
I0403 14:45:00.349144 13601 net.cpp:148] Top shape: 24 832 7 7 (978432)
I0403 14:45:00.349160 13601 net.cpp:148] Top shape: 24 832 7 7 (978432)
I0403 14:45:00.349174 13601 net.cpp:148] Top shape: 24 832 7 7 (978432)
I0403 14:45:00.349189 13601 net.cpp:148] Top shape: 24 832 7 7 (978432)
I0403 14:45:00.349202 13601 net.cpp:156] Memory required for data: 1292125728
I0403 14:45:00.349215 13601 layer_factory.hpp:77] Creating layer inception_5a/1x1
I0403 14:45:00.349237 13601 net.cpp:91] Creating Layer inception_5a/1x1
I0403 14:45:00.349256 13601 net.cpp:425] inception_5a/1x1 <- pool4/3x3_s2_pool4/3x3_s2_0_split_0
I0403 14:45:00.349275 13601 net.cpp:399] inception_5a/1x1 -> inception_5a/1x1
I0403 14:45:00.352152 13601 net.cpp:141] Setting up inception_5a/1x1
I0403 14:45:00.352182 13601 net.cpp:148] Top shape: 24 256 7 7 (301056)
I0403 14:45:00.352198 13601 net.cpp:156] Memory required for data: 1293329952
I0403 14:45:00.352216 13601 layer_factory.hpp:77] Creating layer inception_5a/relu_1x1
I0403 14:45:00.352237 13601 net.cpp:91] Creating Layer inception_5a/relu_1x1
I0403 14:45:00.352255 13601 net.cpp:425] inception_5a/relu_1x1 <- inception_5a/1x1
I0403 14:45:00.352273 13601 net.cpp:386] inception_5a/relu_1x1 -> inception_5a/1x1 (in-place)
I0403 14:45:00.352589 13601 net.cpp:141] Setting up inception_5a/relu_1x1
I0403 14:45:00.352622 13601 net.cpp:148] Top shape: 24 256 7 7 (301056)
I0403 14:45:00.352638 13601 net.cpp:156] Memory required for data: 1294534176
I0403 14:45:00.352653 13601 layer_factory.hpp:77] Creating layer inception_5a/3x3_reduce
I0403 14:45:00.352677 13601 net.cpp:91] Creating Layer inception_5a/3x3_reduce
I0403 14:45:00.352695 13601 net.cpp:425] inception_5a/3x3_reduce <- pool4/3x3_s2_pool4/3x3_s2_0_split_1
I0403 14:45:00.352717 13601 net.cpp:399] inception_5a/3x3_reduce -> inception_5a/3x3_reduce
I0403 14:45:00.355204 13601 net.cpp:141] Setting up inception_5a/3x3_reduce
I0403 14:45:00.355235 13601 net.cpp:148] Top shape: 24 160 7 7 (188160)
I0403 14:45:00.355252 13601 net.cpp:156] Memory required for data: 1295286816
I0403 14:45:00.355270 13601 layer_factory.hpp:77] Creating layer inception_5a/relu_3x3_reduce
I0403 14:45:00.355288 13601 net.cpp:91] Creating Layer inception_5a/relu_3x3_reduce
I0403 14:45:00.355305 13601 net.cpp:425] inception_5a/relu_3x3_reduce <- inception_5a/3x3_reduce
I0403 14:45:00.355325 13601 net.cpp:386] inception_5a/relu_3x3_reduce -> inception_5a/3x3_reduce (in-place)
I0403 14:45:00.355516 13601 net.cpp:141] Setting up inception_5a/relu_3x3_reduce
I0403 14:45:00.355541 13601 net.cpp:148] Top shape: 24 160 7 7 (188160)
I0403 14:45:00.355556 13601 net.cpp:156] Memory required for data: 1296039456
I0403 14:45:00.355569 13601 layer_factory.hpp:77] Creating layer inception_5a/3x3
I0403 14:45:00.355592 13601 net.cpp:91] Creating Layer inception_5a/3x3
I0403 14:45:00.355615 13601 net.cpp:425] inception_5a/3x3 <- inception_5a/3x3_reduce
I0403 14:45:00.355636 13601 net.cpp:399] inception_5a/3x3 -> inception_5a/3x3
I0403 14:45:00.360680 13601 net.cpp:141] Setting up inception_5a/3x3
I0403 14:45:00.360712 13601 net.cpp:148] Top shape: 24 320 7 7 (376320)
I0403 14:45:00.360728 13601 net.cpp:156] Memory required for data: 1297544736
I0403 14:45:00.360745 13601 layer_factory.hpp:77] Creating layer inception_5a/relu_3x3
I0403 14:45:00.360766 13601 net.cpp:91] Creating Layer inception_5a/relu_3x3
I0403 14:45:00.360782 13601 net.cpp:425] inception_5a/relu_3x3 <- inception_5a/3x3
I0403 14:45:00.360800 13601 net.cpp:386] inception_5a/relu_3x3 -> inception_5a/3x3 (in-place)
I0403 14:45:00.361098 13601 net.cpp:141] Setting up inception_5a/relu_3x3
I0403 14:45:00.361124 13601 net.cpp:148] Top shape: 24 320 7 7 (376320)
I0403 14:45:00.361138 13601 net.cpp:156] Memory required for data: 1299050016
I0403 14:45:00.361151 13601 layer_factory.hpp:77] Creating layer inception_5a/5x5_reduce
I0403 14:45:00.361173 13601 net.cpp:91] Creating Layer inception_5a/5x5_reduce
I0403 14:45:00.361191 13601 net.cpp:425] inception_5a/5x5_reduce <- pool4/3x3_s2_pool4/3x3_s2_0_split_2
I0403 14:45:00.361212 13601 net.cpp:399] inception_5a/5x5_reduce -> inception_5a/5x5_reduce
I0403 14:45:00.362462 13601 net.cpp:141] Setting up inception_5a/5x5_reduce
I0403 14:45:00.362493 13601 net.cpp:148] Top shape: 24 32 7 7 (37632)
I0403 14:45:00.362511 13601 net.cpp:156] Memory required for data: 1299200544
I0403 14:45:00.362541 13601 layer_factory.hpp:77] Creating layer inception_5a/relu_5x5_reduce
I0403 14:45:00.362560 13601 net.cpp:91] Creating Layer inception_5a/relu_5x5_reduce
I0403 14:45:00.362576 13601 net.cpp:425] inception_5a/relu_5x5_reduce <- inception_5a/5x5_reduce
I0403 14:45:00.362594 13601 net.cpp:386] inception_5a/relu_5x5_reduce -> inception_5a/5x5_reduce (in-place)
I0403 14:45:00.362923 13601 net.cpp:141] Setting up inception_5a/relu_5x5_reduce
I0403 14:45:00.362951 13601 net.cpp:148] Top shape: 24 32 7 7 (37632)
I0403 14:45:00.362965 13601 net.cpp:156] Memory required for data: 1299351072
I0403 14:45:00.362980 13601 layer_factory.hpp:77] Creating layer inception_5a/5x5
I0403 14:45:00.363003 13601 net.cpp:91] Creating Layer inception_5a/5x5
I0403 14:45:00.363019 13601 net.cpp:425] inception_5a/5x5 <- inception_5a/5x5_reduce
I0403 14:45:00.363042 13601 net.cpp:399] inception_5a/5x5 -> inception_5a/5x5
I0403 14:45:00.364800 13601 net.cpp:141] Setting up inception_5a/5x5
I0403 14:45:00.364845 13601 net.cpp:148] Top shape: 24 128 7 7 (150528)
I0403 14:45:00.364861 13601 net.cpp:156] Memory required for data: 1299953184
I0403 14:45:00.364879 13601 layer_factory.hpp:77] Creating layer inception_5a/relu_5x5
I0403 14:45:00.364900 13601 net.cpp:91] Creating Layer inception_5a/relu_5x5
I0403 14:45:00.364917 13601 net.cpp:425] inception_5a/relu_5x5 <- inception_5a/5x5
I0403 14:45:00.364935 13601 net.cpp:386] inception_5a/relu_5x5 -> inception_5a/5x5 (in-place)
I0403 14:45:00.365133 13601 net.cpp:141] Setting up inception_5a/relu_5x5
I0403 14:45:00.365159 13601 net.cpp:148] Top shape: 24 128 7 7 (150528)
I0403 14:45:00.365173 13601 net.cpp:156] Memory required for data: 1300555296
I0403 14:45:00.365187 13601 layer_factory.hpp:77] Creating layer inception_5a/pool
I0403 14:45:00.365207 13601 net.cpp:91] Creating Layer inception_5a/pool
I0403 14:45:00.365224 13601 net.cpp:425] inception_5a/pool <- pool4/3x3_s2_pool4/3x3_s2_0_split_3
I0403 14:45:00.365242 13601 net.cpp:399] inception_5a/pool -> inception_5a/pool
I0403 14:45:00.365314 13601 net.cpp:141] Setting up inception_5a/pool
I0403 14:45:00.365339 13601 net.cpp:148] Top shape: 24 832 7 7 (978432)
I0403 14:45:00.365352 13601 net.cpp:156] Memory required for data: 1304469024
I0403 14:45:00.365366 13601 layer_factory.hpp:77] Creating layer inception_5a/pool_proj
I0403 14:45:00.365388 13601 net.cpp:91] Creating Layer inception_5a/pool_proj
I0403 14:45:00.365406 13601 net.cpp:425] inception_5a/pool_proj <- inception_5a/pool
I0403 14:45:00.365427 13601 net.cpp:399] inception_5a/pool_proj -> inception_5a/pool_proj
I0403 14:45:00.367739 13601 net.cpp:141] Setting up inception_5a/pool_proj
I0403 14:45:00.367771 13601 net.cpp:148] Top shape: 24 128 7 7 (150528)
I0403 14:45:00.367787 13601 net.cpp:156] Memory required for data: 1305071136
I0403 14:45:00.367805 13601 layer_factory.hpp:77] Creating layer inception_5a/relu_pool_proj
I0403 14:45:00.367823 13601 net.cpp:91] Creating Layer inception_5a/relu_pool_proj
I0403 14:45:00.367841 13601 net.cpp:425] inception_5a/relu_pool_proj <- inception_5a/pool_proj
I0403 14:45:00.367862 13601 net.cpp:386] inception_5a/relu_pool_proj -> inception_5a/pool_proj (in-place)
I0403 14:45:00.368163 13601 net.cpp:141] Setting up inception_5a/relu_pool_proj
I0403 14:45:00.368191 13601 net.cpp:148] Top shape: 24 128 7 7 (150528)
I0403 14:45:00.368206 13601 net.cpp:156] Memory required for data: 1305673248
I0403 14:45:00.368221 13601 layer_factory.hpp:77] Creating layer inception_5a/output
I0403 14:45:00.368239 13601 net.cpp:91] Creating Layer inception_5a/output
I0403 14:45:00.368257 13601 net.cpp:425] inception_5a/output <- inception_5a/1x1
I0403 14:45:00.368273 13601 net.cpp:425] inception_5a/output <- inception_5a/3x3
I0403 14:45:00.368289 13601 net.cpp:425] inception_5a/output <- inception_5a/5x5
I0403 14:45:00.368304 13601 net.cpp:425] inception_5a/output <- inception_5a/pool_proj
I0403 14:45:00.368324 13601 net.cpp:399] inception_5a/output -> inception_5a/output
I0403 14:45:00.368376 13601 net.cpp:141] Setting up inception_5a/output
I0403 14:45:00.368402 13601 net.cpp:148] Top shape: 24 832 7 7 (978432)
I0403 14:45:00.368419 13601 net.cpp:156] Memory required for data: 1309586976
I0403 14:45:00.368434 13601 layer_factory.hpp:77] Creating layer inception_5a/output_inception_5a/output_0_split
I0403 14:45:00.368450 13601 net.cpp:91] Creating Layer inception_5a/output_inception_5a/output_0_split
I0403 14:45:00.368465 13601 net.cpp:425] inception_5a/output_inception_5a/output_0_split <- inception_5a/output
I0403 14:45:00.368484 13601 net.cpp:399] inception_5a/output_inception_5a/output_0_split -> inception_5a/output_inception_5a/output_0_split_0
I0403 14:45:00.368507 13601 net.cpp:399] inception_5a/output_inception_5a/output_0_split -> inception_5a/output_inception_5a/output_0_split_1
I0403 14:45:00.368528 13601 net.cpp:399] inception_5a/output_inception_5a/output_0_split -> inception_5a/output_inception_5a/output_0_split_2
I0403 14:45:00.368551 13601 net.cpp:399] inception_5a/output_inception_5a/output_0_split -> inception_5a/output_inception_5a/output_0_split_3
I0403 14:45:00.368669 13601 net.cpp:141] Setting up inception_5a/output_inception_5a/output_0_split
I0403 14:45:00.368693 13601 net.cpp:148] Top shape: 24 832 7 7 (978432)
I0403 14:45:00.368710 13601 net.cpp:148] Top shape: 24 832 7 7 (978432)
I0403 14:45:00.368724 13601 net.cpp:148] Top shape: 24 832 7 7 (978432)
I0403 14:45:00.368738 13601 net.cpp:148] Top shape: 24 832 7 7 (978432)
I0403 14:45:00.368752 13601 net.cpp:156] Memory required for data: 1325241888
I0403 14:45:00.368767 13601 layer_factory.hpp:77] Creating layer inception_5b/1x1
I0403 14:45:00.368788 13601 net.cpp:91] Creating Layer inception_5b/1x1
I0403 14:45:00.368804 13601 net.cpp:425] inception_5b/1x1 <- inception_5a/output_inception_5a/output_0_split_0
I0403 14:45:00.368825 13601 net.cpp:399] inception_5b/1x1 -> inception_5b/1x1
I0403 14:45:00.372669 13601 net.cpp:141] Setting up inception_5b/1x1
I0403 14:45:00.372701 13601 net.cpp:148] Top shape: 24 384 7 7 (451584)
I0403 14:45:00.372719 13601 net.cpp:156] Memory required for data: 1327048224
I0403 14:45:00.372737 13601 layer_factory.hpp:77] Creating layer inception_5b/relu_1x1
I0403 14:45:00.372756 13601 net.cpp:91] Creating Layer inception_5b/relu_1x1
I0403 14:45:00.372772 13601 net.cpp:425] inception_5b/relu_1x1 <- inception_5b/1x1
I0403 14:45:00.372793 13601 net.cpp:386] inception_5b/relu_1x1 -> inception_5b/1x1 (in-place)
I0403 14:45:00.373105 13601 net.cpp:141] Setting up inception_5b/relu_1x1
I0403 14:45:00.373131 13601 net.cpp:148] Top shape: 24 384 7 7 (451584)
I0403 14:45:00.373147 13601 net.cpp:156] Memory required for data: 1328854560
I0403 14:45:00.373162 13601 layer_factory.hpp:77] Creating layer inception_5b/3x3_reduce
I0403 14:45:00.373183 13601 net.cpp:91] Creating Layer inception_5b/3x3_reduce
I0403 14:45:00.373201 13601 net.cpp:425] inception_5b/3x3_reduce <- inception_5a/output_inception_5a/output_0_split_1
I0403 14:45:00.373224 13601 net.cpp:399] inception_5b/3x3_reduce -> inception_5b/3x3_reduce
I0403 14:45:00.375917 13601 net.cpp:141] Setting up inception_5b/3x3_reduce
I0403 14:45:00.375952 13601 net.cpp:148] Top shape: 24 192 7 7 (225792)
I0403 14:45:00.375968 13601 net.cpp:156] Memory required for data: 1329757728
I0403 14:45:00.375988 13601 layer_factory.hpp:77] Creating layer inception_5b/relu_3x3_reduce
I0403 14:45:00.376008 13601 net.cpp:91] Creating Layer inception_5b/relu_3x3_reduce
I0403 14:45:00.376025 13601 net.cpp:425] inception_5b/relu_3x3_reduce <- inception_5b/3x3_reduce
I0403 14:45:00.376044 13601 net.cpp:386] inception_5b/relu_3x3_reduce -> inception_5b/3x3_reduce (in-place)
I0403 14:45:00.376235 13601 net.cpp:141] Setting up inception_5b/relu_3x3_reduce
I0403 14:45:00.376261 13601 net.cpp:148] Top shape: 24 192 7 7 (225792)
I0403 14:45:00.376276 13601 net.cpp:156] Memory required for data: 1330660896
I0403 14:45:00.376293 13601 layer_factory.hpp:77] Creating layer inception_5b/3x3
I0403 14:45:00.376317 13601 net.cpp:91] Creating Layer inception_5b/3x3
I0403 14:45:00.376334 13601 net.cpp:425] inception_5b/3x3 <- inception_5b/3x3_reduce
I0403 14:45:00.376356 13601 net.cpp:399] inception_5b/3x3 -> inception_5b/3x3
I0403 14:45:00.383124 13601 net.cpp:141] Setting up inception_5b/3x3
I0403 14:45:00.383155 13601 net.cpp:148] Top shape: 24 384 7 7 (451584)
I0403 14:45:00.383172 13601 net.cpp:156] Memory required for data: 1332467232
I0403 14:45:00.383189 13601 layer_factory.hpp:77] Creating layer inception_5b/relu_3x3
I0403 14:45:00.383208 13601 net.cpp:91] Creating Layer inception_5b/relu_3x3
I0403 14:45:00.383255 13601 net.cpp:425] inception_5b/relu_3x3 <- inception_5b/3x3
I0403 14:45:00.383275 13601 net.cpp:386] inception_5b/relu_3x3 -> inception_5b/3x3 (in-place)
I0403 14:45:00.383595 13601 net.cpp:141] Setting up inception_5b/relu_3x3
I0403 14:45:00.383627 13601 net.cpp:148] Top shape: 24 384 7 7 (451584)
I0403 14:45:00.383644 13601 net.cpp:156] Memory required for data: 1334273568
I0403 14:45:00.383658 13601 layer_factory.hpp:77] Creating layer inception_5b/5x5_reduce
I0403 14:45:00.383702 13601 net.cpp:91] Creating Layer inception_5b/5x5_reduce
I0403 14:45:00.383723 13601 net.cpp:425] inception_5b/5x5_reduce <- inception_5a/output_inception_5a/output_0_split_2
I0403 14:45:00.383745 13601 net.cpp:399] inception_5b/5x5_reduce -> inception_5b/5x5_reduce
I0403 14:45:00.385049 13601 net.cpp:141] Setting up inception_5b/5x5_reduce
I0403 14:45:00.385078 13601 net.cpp:148] Top shape: 24 48 7 7 (56448)
I0403 14:45:00.385093 13601 net.cpp:156] Memory required for data: 1334499360
I0403 14:45:00.385112 13601 layer_factory.hpp:77] Creating layer inception_5b/relu_5x5_reduce
I0403 14:45:00.385129 13601 net.cpp:91] Creating Layer inception_5b/relu_5x5_reduce
I0403 14:45:00.385159 13601 net.cpp:425] inception_5b/relu_5x5_reduce <- inception_5b/5x5_reduce
I0403 14:45:00.385179 13601 net.cpp:386] inception_5b/relu_5x5_reduce -> inception_5b/5x5_reduce (in-place)
I0403 14:45:00.385547 13601 net.cpp:141] Setting up inception_5b/relu_5x5_reduce
I0403 14:45:00.385574 13601 net.cpp:148] Top shape: 24 48 7 7 (56448)
I0403 14:45:00.385589 13601 net.cpp:156] Memory required for data: 1334725152
I0403 14:45:00.385608 13601 layer_factory.hpp:77] Creating layer inception_5b/5x5
I0403 14:45:00.385630 13601 net.cpp:91] Creating Layer inception_5b/5x5
I0403 14:45:00.385648 13601 net.cpp:425] inception_5b/5x5 <- inception_5b/5x5_reduce
I0403 14:45:00.385668 13601 net.cpp:399] inception_5b/5x5 -> inception_5b/5x5
I0403 14:45:00.387722 13601 net.cpp:141] Setting up inception_5b/5x5
I0403 14:45:00.387749 13601 net.cpp:148] Top shape: 24 128 7 7 (150528)
I0403 14:45:00.387765 13601 net.cpp:156] Memory required for data: 1335327264
I0403 14:45:00.387784 13601 layer_factory.hpp:77] Creating layer inception_5b/relu_5x5
I0403 14:45:00.387804 13601 net.cpp:91] Creating Layer inception_5b/relu_5x5
I0403 14:45:00.387820 13601 net.cpp:425] inception_5b/relu_5x5 <- inception_5b/5x5
I0403 14:45:00.387837 13601 net.cpp:386] inception_5b/relu_5x5 -> inception_5b/5x5 (in-place)
I0403 14:45:00.388027 13601 net.cpp:141] Setting up inception_5b/relu_5x5
I0403 14:45:00.388051 13601 net.cpp:148] Top shape: 24 128 7 7 (150528)
I0403 14:45:00.388065 13601 net.cpp:156] Memory required for data: 1335929376
I0403 14:45:00.388078 13601 layer_factory.hpp:77] Creating layer inception_5b/pool
I0403 14:45:00.388098 13601 net.cpp:91] Creating Layer inception_5b/pool
I0403 14:45:00.388114 13601 net.cpp:425] inception_5b/pool <- inception_5a/output_inception_5a/output_0_split_3
I0403 14:45:00.388133 13601 net.cpp:399] inception_5b/pool -> inception_5b/pool
I0403 14:45:00.388203 13601 net.cpp:141] Setting up inception_5b/pool
I0403 14:45:00.388227 13601 net.cpp:148] Top shape: 24 832 7 7 (978432)
I0403 14:45:00.388241 13601 net.cpp:156] Memory required for data: 1339843104
I0403 14:45:00.388254 13601 layer_factory.hpp:77] Creating layer inception_5b/pool_proj
I0403 14:45:00.388275 13601 net.cpp:91] Creating Layer inception_5b/pool_proj
I0403 14:45:00.388294 13601 net.cpp:425] inception_5b/pool_proj <- inception_5b/pool
I0403 14:45:00.388314 13601 net.cpp:399] inception_5b/pool_proj -> inception_5b/pool_proj
I0403 14:45:00.390578 13601 net.cpp:141] Setting up inception_5b/pool_proj
I0403 14:45:00.390612 13601 net.cpp:148] Top shape: 24 128 7 7 (150528)
I0403 14:45:00.390630 13601 net.cpp:156] Memory required for data: 1340445216
I0403 14:45:00.390648 13601 layer_factory.hpp:77] Creating layer inception_5b/relu_pool_proj
I0403 14:45:00.390666 13601 net.cpp:91] Creating Layer inception_5b/relu_pool_proj
I0403 14:45:00.390682 13601 net.cpp:425] inception_5b/relu_pool_proj <- inception_5b/pool_proj
I0403 14:45:00.390702 13601 net.cpp:386] inception_5b/relu_pool_proj -> inception_5b/pool_proj (in-place)
I0403 14:45:00.391005 13601 net.cpp:141] Setting up inception_5b/relu_pool_proj
I0403 14:45:00.391029 13601 net.cpp:148] Top shape: 24 128 7 7 (150528)
I0403 14:45:00.391044 13601 net.cpp:156] Memory required for data: 1341047328
I0403 14:45:00.391058 13601 layer_factory.hpp:77] Creating layer inception_5b/output
I0403 14:45:00.391074 13601 net.cpp:91] Creating Layer inception_5b/output
I0403 14:45:00.391104 13601 net.cpp:425] inception_5b/output <- inception_5b/1x1
I0403 14:45:00.391121 13601 net.cpp:425] inception_5b/output <- inception_5b/3x3
I0403 14:45:00.391136 13601 net.cpp:425] inception_5b/output <- inception_5b/5x5
I0403 14:45:00.391152 13601 net.cpp:425] inception_5b/output <- inception_5b/pool_proj
I0403 14:45:00.391171 13601 net.cpp:399] inception_5b/output -> inception_5b/output
I0403 14:45:00.391222 13601 net.cpp:141] Setting up inception_5b/output
I0403 14:45:00.391247 13601 net.cpp:148] Top shape: 24 1024 7 7 (1204224)
I0403 14:45:00.391263 13601 net.cpp:156] Memory required for data: 1345864224
I0403 14:45:00.391276 13601 layer_factory.hpp:77] Creating layer pool5/7x7_s1
I0403 14:45:00.391294 13601 net.cpp:91] Creating Layer pool5/7x7_s1
I0403 14:45:00.391310 13601 net.cpp:425] pool5/7x7_s1 <- inception_5b/output
I0403 14:45:00.391330 13601 net.cpp:399] pool5/7x7_s1 -> pool5/7x7_s1
I0403 14:45:00.391541 13601 net.cpp:141] Setting up pool5/7x7_s1
I0403 14:45:00.391566 13601 net.cpp:148] Top shape: 24 1024 1 1 (24576)
I0403 14:45:00.391579 13601 net.cpp:156] Memory required for data: 1345962528
I0403 14:45:00.391593 13601 layer_factory.hpp:77] Creating layer pool5/drop_7x7_s1
I0403 14:45:00.391614 13601 net.cpp:91] Creating Layer pool5/drop_7x7_s1
I0403 14:45:00.391630 13601 net.cpp:425] pool5/drop_7x7_s1 <- pool5/7x7_s1
I0403 14:45:00.391649 13601 net.cpp:386] pool5/drop_7x7_s1 -> pool5/7x7_s1 (in-place)
I0403 14:45:00.391700 13601 net.cpp:141] Setting up pool5/drop_7x7_s1
I0403 14:45:00.391723 13601 net.cpp:148] Top shape: 24 1024 1 1 (24576)
I0403 14:45:00.391736 13601 net.cpp:156] Memory required for data: 1346060832
I0403 14:45:00.391751 13601 layer_factory.hpp:77] Creating layer loss3/classifier_plantvillage
I0403 14:45:00.391768 13601 net.cpp:91] Creating Layer loss3/classifier_plantvillage
I0403 14:45:00.391783 13601 net.cpp:425] loss3/classifier_plantvillage <- pool5/7x7_s1
I0403 14:45:00.391803 13601 net.cpp:399] loss3/classifier_plantvillage -> loss3/classifier_plantvillage
I0403 14:45:00.392222 13601 net.cpp:141] Setting up loss3/classifier_plantvillage
I0403 14:45:00.392248 13601 net.cpp:148] Top shape: 24 38 (912)
I0403 14:45:00.392262 13601 net.cpp:156] Memory required for data: 1346064480
I0403 14:45:00.392279 13601 layer_factory.hpp:77] Creating layer loss3/classifier_plantvillage_loss3/classifier_plantvillage_0_split
I0403 14:45:00.392302 13601 net.cpp:91] Creating Layer loss3/classifier_plantvillage_loss3/classifier_plantvillage_0_split
I0403 14:45:00.392318 13601 net.cpp:425] loss3/classifier_plantvillage_loss3/classifier_plantvillage_0_split <- loss3/classifier_plantvillage
I0403 14:45:00.392335 13601 net.cpp:399] loss3/classifier_plantvillage_loss3/classifier_plantvillage_0_split -> loss3/classifier_plantvillage_loss3/classifier_plantvillage_0_split_0
I0403 14:45:00.392357 13601 net.cpp:399] loss3/classifier_plantvillage_loss3/classifier_plantvillage_0_split -> loss3/classifier_plantvillage_loss3/classifier_plantvillage_0_split_1
I0403 14:45:00.392377 13601 net.cpp:399] loss3/classifier_plantvillage_loss3/classifier_plantvillage_0_split -> loss3/classifier_plantvillage_loss3/classifier_plantvillage_0_split_2
I0403 14:45:00.392396 13601 net.cpp:399] loss3/classifier_plantvillage_loss3/classifier_plantvillage_0_split -> loss3/classifier_plantvillage_loss3/classifier_plantvillage_0_split_3
I0403 14:45:00.392496 13601 net.cpp:141] Setting up loss3/classifier_plantvillage_loss3/classifier_plantvillage_0_split
I0403 14:45:00.392519 13601 net.cpp:148] Top shape: 24 38 (912)
I0403 14:45:00.392534 13601 net.cpp:148] Top shape: 24 38 (912)
I0403 14:45:00.392549 13601 net.cpp:148] Top shape: 24 38 (912)
I0403 14:45:00.392563 13601 net.cpp:148] Top shape: 24 38 (912)
I0403 14:45:00.392575 13601 net.cpp:156] Memory required for data: 1346079072
I0403 14:45:00.392590 13601 layer_factory.hpp:77] Creating layer loss1/loss
I0403 14:45:00.392613 13601 net.cpp:91] Creating Layer loss1/loss
I0403 14:45:00.392630 13601 net.cpp:425] loss1/loss <- loss1/classifier_plantvillage_loss1/classifier_plantvillage_0_split_0
I0403 14:45:00.392660 13601 net.cpp:425] loss1/loss <- label_data_1_split_0
…
