…
I0403 15:07:37.548230 14136 net.cpp:313] The NetState phase (1) differed from the phase (0) specified by a rule in layer data
I0403 15:07:37.549384 14136 net.cpp:49] Initializing net from parameters: 
state {
  phase: TEST
}
layer {
  name: "data"
  type: "Data"
  top: "data"
  top: "label"
  include {
    phase: TEST
  }
  transform_param {
    mirror: false
    crop_size: 224
    mean_file: "/home/mohanty/data/final_dataset/lmdb/color-40-60/mean.binaryproto"
  }
  data_param {
    source: "/home/mohanty/data/final_dataset/lmdb/color-40-60/test_db"
    batch_size: 24
    backend: LMDB
  }
}
layer {
  name: "conv1/7x7_s2"
  type: "Convolution"
  bottom: "data"
  top: "conv1/7x7_s2"
  param {
    lr_mult: 1
    decay_mult: 1
  }
  param {
    lr_mult: 2
    decay_mult: 0
  }
  convolution_param {
    num_output: 64
    pad: 3
    kernel_size: 7
    stride: 2
    weight_filler {
      type: "xavier"
      std: 0.1
    }
    bias_filler {
      type: "constant"
      value: 0.2
    }
  }
}
layer {
  name: "conv1/relu_7x7"
  type: "ReLU"
  bottom: "conv1/7x7_s2"
  top: "conv1/7x7_s2"
}
layer {
  name: "pool1/3x3_s2"
  type: "Pooling"
  bottom: "conv1/7x7_s2"
  top: "pool1/3x3_s2"
  pooling_param {
    pool: MAX
    kernel_size: 3
    stride: 2
  }
}
layer {
  name: "pool1/norm1"
  type: "LRN"
  bottom: "pool1/3x3_s2"
  top: "pool1/norm1"
  lrn_param {
    local_size: 5
    alpha: 0.0001
    beta: 0.75
  }
}
layer {
  name: "conv2/3x3_reduce"
  type: "Convolution"
  bottom: "pool1/norm1"
  top: "conv2/3x3_reduce"
  param {
    lr_mult: 1
    decay_mult: 1
  }
  param {
    lr_mult: 2
    decay_mult: 0
  }
  convolution_param {
    num_output: 64
    kernel_size: 1
    weight_filler {
      type: "xavier"
      std: 0.1
    }
    bias_filler {
      type: "constant"
      value: 0.2
    }
  }
}
layer {
  name: "conv2/relu_3x3_reduce"
  type: "ReLU"
  bottom: "conv2/3x3_reduce"
  top: "conv2/3x3_reduce"
}
layer {
  name: "conv2/3x3"
  type: "Convolution"
  bottom: "conv2/3x3_reduce"
  top: "conv2/3x3"
  param {
    lr_mult: 1
    decay_mult: 1
  }
  param {
    lr_mult: 2
    decay_mult: 0
  }
  convolution_param {
    num_output: 192
    pad: 1
    kernel_size: 3
    weight_filler {
      type: "xavier"
      std: 0.03
    }
    bias_filler {
      type: "constant"
      value: 0.2
    }
  }
}
layer {
  name: "conv2/relu_3x3"
  type: "ReLU"
  bottom: "conv2/3x3"
  top: "conv2/3x3"
}
layer {
  name: "conv2/norm2"
  type: "LRN"
  bottom: "conv2/3x3"
  top: "conv2/norm2"
  lrn_param {
    local_size: 5
    alpha: 0.0001
    beta: 0.75
  }
}
layer {
  name: "pool2/3x3_s2"
  type: "Pooling"
  bottom: "conv2/norm2"
  top: "pool2/3x3_s2"
  pooling_param {
    pool: MAX
    kernel_size: 3
    stride: 2
  }
}
layer {
  name: "inception_3a/1x1"
  type: "Convolution"
  bottom: "pool2/3x3_s2"
  top: "inception_3a/1x1"
  param {
    lr_mult: 1
    decay_mult: 1
  }
  param {
    lr_mult: 2
    decay_mult: 0
  }
  convolution_param {
    num_output: 64
    kernel_size: 1
    weight_filler {
      type: "xavier"
      std: 0.03
    }
    bias_filler {
      type: "constant"
      value: 0.2
    }
  }
}
layer {
  name: "inception_3a/relu_1x1"
  type: "ReLU"
  bottom: "inception_3a/1x1"
  top: "inception_3a/1x1"
}
layer {
  name: "inception_3a/3x3_reduce"
  type: "Convolution"
  bottom: "pool2/3x3_s2"
  top: "inception_3a/3x3_reduce"
  param {
    lr_mult: 1
    decay_mult: 1
  }
  param {
    lr_mult: 2
    decay_mult: 0
  }
  convolution_param {
    num_output: 96
    kernel_size: 1
    weight_filler {
      type: "xavier"
      std: 0.09
    }
    bias_filler {
      type: "constant"
      value: 0.2
    }
  }
}
layer {
  name: "inception_3a/relu_3x3_reduce"
  type: "ReLU"
  bottom: "inception_3a/3x3_reduce"
  top: "inception_3a/3x3_reduce"
}
layer {
  name: "inception_3a/3x3"
  type: "Convolution"
  bottom: "inception_3a/3x3_reduce"
  top: "inception_3a/3x3"
  param {
    lr_mult: 1
    decay_mult: 1
  }
  param {
    lr_mult: 2
    decay_mult: 0
  }
  convolution_param {
    num_output: 128
    pad: 1
    kernel_size: 3
    weight_filler {
      type: "xavier"
      std: 0.03
    }
    bias_filler {
      type: "constant"
      value: 0.2
    }
  }
}
layer {
  name: "inception_3a/relu_3x3"
  type: "ReLU"
  bottom: "inception_3a/3x3"
  top: "inception_3a/3x3"
}
layer {
  name: "inception_3a/5x5_reduce"
  type: "Convolution"
  bottom: "pool2/3x3_s2"
  top: "inception_3a/5x5_reduce"
  param {
    lr_mult: 1
    decay_mult: 1
  }
  param {
    lr_mult: 2
    decay_mult: 0
  }
  convolution_param {
    num_output: 16
    kernel_size: 1
    weight_filler {
      type: "xavier"
      std: 0.2
    }
    bias_filler {
      type: "constant"
      value: 0.2
    }
  }
}
layer {
  name: "inception_3a/relu_5x5_reduce"
  type: "ReLU"
  bottom: "inception_3a/5x5_reduce"
  top: "inception_3a/5x5_reduce"
}
layer {
  name: "inception_3a/5x5"
  type: "Convolution"
  bottom: "inception_3a/5x5_reduce"
  top: "inception_3a/5x5"
  param {
    lr_mult: 1
    decay_mult: 1
  }
  param {
    lr_mult: 2
    decay_mult: 0
  }
  convolution_param {
    num_output: 32
    pad: 2
    kernel_size: 5
    weight_filler {
      type: "xavier"
      std: 0.03
    }
    bias_filler {
      type: "constant"
      value: 0.2
    }
  }
}
layer {
  name: "inception_3a/relu_5x5"
  type: "ReLU"
  bottom: "inception_3a/5x5"
  top: "inception_3a/5x5"
}
layer {
  name: "inception_3a/pool"
  type: "Pooling"
  bottom: "pool2/3x3_s2"
  top: "inception_3a/pool"
  pooling_param {
    pool: MAX
    kernel_size: 3
    stride: 1
    pad: 1
  }
}
layer {
  name: "inception_3a/pool_proj"
  type: "Convolution"
  bottom: "inception_3a/pool"
  top: "inception_3a/pool_proj"
  param {
    lr_mult: 1
    decay_mult: 1
  }
  param {
    lr_mult: 2
    decay_mult: 0
  }
  convolution_param {
    num_output: 32
    kernel_size: 1
    weight_filler {
      type: "xavier"
      std: 0.1
    }
    bias_filler {
      type: "constant"
      value: 0.2
    }
  }
}
layer {
  name: "inception_3a/relu_pool_proj"
  type: "ReLU"
  bottom: "inception_3a/pool_proj"
  top: "inception_3a/pool_proj"
}
layer {
  name: "inception_3a/output"
  type: "Concat"
  bottom: "inception_3a/1x1"
  bottom: "inception_3a/3x3"
  bottom: "inception_3a/5x5"
  bottom: "inception_3a/pool_proj"
  top: "inception_3a/output"
}
layer {
  name: "inception_3b/1x1"
  type: "Convolution"
  bottom: "inception_3a/output"
  top: "inception_3b/1x1"
  param {
    lr_mult: 1
    decay_mult: 1
  }
  param {
    lr_mult: 2
    decay_mult: 0
  }
  convolution_param {
    num_output: 128
    kernel_size: 1
    weight_filler {
      type: "xavier"
      std: 0.03
    }
    bias_filler {
      type: "constant"
      value: 0.2
    }
  }
}
layer {
  name: "inception_3b/relu_1x1"
  type: "ReLU"
  bottom: "inception_3b/1x1"
  top: "inception_3b/1x1"
}
layer {
  name: "inception_3b/3x3_reduce"
  type: "Convolution"
  bottom: "inception_3a/output"
  top: "inception_3b/3x3_reduce"
  param {
    lr_mult: 1
    decay_mult: 1
  }
  param {
    lr_mult: 2
    decay_mult: 0
  }
  convolution_param {
    num_output: 128
    kernel_size: 1
    weight_filler {
      type: "xavier"
      std: 0.09
    }
    bias_filler {
      type: "constant"
      value: 0.2
    }
  }
}
layer {
  name: "inception_3b/relu_3x3_reduce"
  type: "ReLU"
  bottom: "inception_3b/3x3_reduce"
  top: "inception_3b/3x3_reduce"
}
layer {
  name: "inception_3b/3x3"
  type: "Convolution"
  bottom: "inception_3b/3x3_reduce"
  top: "inception_3b/3x3"
  param {
    lr_mult: 1
    decay_mult: 1
  }
  param {
    lr_mult: 2
    decay_mult: 0
  }
  convolution_param {
    num_output: 192
    pad: 1
    kernel_size: 3
    weight_filler {
      type: "xavier"
      std: 0.03
    }
    bias_filler {
      type: "constant"
      value: 0.2
    }
  }
}
layer {
  name: "inception_3b/relu_3x3"
  type: "ReLU"
  bottom: "inception_3b/3x3"
  top: "inception_3b/3x3"
}
layer {
  name: "inception_3b/5x5_reduce"
  type: "Convolution"
  bottom: "inception_3a/output"
  top: "inception_3b/5x5_reduce"
  param {
    lr_mult: 1
    decay_mult: 1
  }
  param {
    lr_mult: 2
    decay_mult: 0
  }
  convolution_param {
    num_output: 32
    kernel_size: 1
    weight_filler {
      type: "xavier"
      std: 0.2
    }
    bias_filler {
      type: "constant"
      value: 0.2
    }
  }
}
layer {
  name: "inception_3b/relu_5x5_reduce"
  type: "ReLU"
  bottom: "inception_3b/5x5_reduce"
  top: "inception_3b/5x5_reduce"
}
layer {
  name: "inception_3b/5x5"
  type: "Convolution"
  bottom: "inception_3b/5x5_reduce"
  top: "inception_3b/5x5"
  param {
    lr_mult: 1
    decay_mult: 1
  }
  param {
    lr_mult: 2
    decay_mult: 0
  }
  convolution_param {
    num_output: 96
    pad: 2
    kernel_size: 5
    weight_filler {
      type: "xavier"
      std: 0.03
    }
    bias_filler {
      type: "constant"
      value: 0.2
    }
  }
}
layer {
  name: "inception_3b/relu_5x5"
  type: "ReLU"
  bottom: "inception_3b/5x5"
  top: "inception_3b/5x5"
}
layer {
  name: "inception_3b/pool"
  type: "Pooling"
  bottom: "inception_3a/output"
  top: "inception_3b/pool"
  pooling_param {
    pool: MAX
    kernel_size: 3
    stride: 1
    pad: 1
  }
}
layer {
  name: "inception_3b/pool_proj"
  type: "Convolution"
  bottom: "inception_3b/pool"
  top: "inception_3b/pool_proj"
  param {
    lr_mult: 1
    decay_mult: 1
  }
  param {
    lr_mult: 2
    decay_mult: 0
  }
  convolution_param {
    num_output: 64
    kernel_size: 1
    weight_filler {
      type: "xavier"
      std: 0.1
    }
    bias_filler {
      type: "constant"
      value: 0.2
    }
  }
}
layer {
  name: "inception_3b/relu_pool_proj"
  type: "ReLU"
  bottom: "inception_3b/pool_proj"
  top: "inception_3b/pool_proj"
}
layer {
  name: "inception_3b/output"
  type: "Concat"
  bottom: "inception_3b/1x1"
  bottom: "inception_3b/3x3"
  bottom: "inception_3b/5x5"
  bottom: "inception_3b/pool_proj"
  top: "inception_3b/output"
}
layer {
  name: "pool3/3x3_s2"
  type: "Pooling"
  bottom: "inception_3b/output"
  top: "pool3/3x3_s2"
  pooling_param {
    pool: MAX
    kernel_size: 3
    stride: 2
  }
}
layer {
  name: "inception_4a/1x1"
  type: "Convolution"
  bottom: "pool3/3x3_s2"
  top: "inception_4a/1x1"
  param {
    lr_mult: 1
    decay_mult: 1
  }
  param {
    lr_mult: 2
    decay_mult: 0
  }
  convolution_param {
    num_output: 192
    kernel_size: 1
    weight_filler {
      type: "xavier"
      std: 0.03
    }
    bias_filler {
      type: "constant"
      value: 0.2
    }
  }
}
layer {
  name: "inception_4a/relu_1x1"
  type: "ReLU"
  bottom: "inception_4a/1x1"
  top: "inception_4a/1x1"
}
layer {
  name: "inception_4a/3x3_reduce"
  type: "Convolution"
  bottom: "pool3/3x3_s2"
  top: "inception_4a/3x3_reduce"
  param {
    lr_mult: 1
    decay_mult: 1
  }
  param {
    lr_mult: 2
    decay_mult: 0
  }
  convolution_param {
    num_output: 96
    kernel_size: 1
    weight_filler {
      type: "xavier"
      std: 0.09
    }
    bias_filler {
      type: "constant"
      value: 0.2
    }
  }
}
layer {
  name: "inception_4a/relu_3x3_reduce"
  type: "ReLU"
  bottom: "inception_4a/3x3_reduce"
  top: "inception_4a/3x3_reduce"
}
layer {
  name: "inception_4a/3x3"
  type: "Convolution"
  bottom: "inception_4a/3x3_reduce"
  top: "inception_4a/3x3"
  param {
    lr_mult: 1
    decay_mult: 1
  }
  param {
    lr_mult: 2
    decay_mult: 0
  }
  convolution_param {
    num_output: 208
    pad: 1
    kernel_size: 3
    weight_filler {
      type: "xavier"
      std: 0.03
    }
    bias_filler {
      type: "constant"
      value: 0.2
    }
  }
}
layer {
  name: "inception_4a/relu_3x3"
  type: "ReLU"
  bottom: "inception_4a/3x3"
  top: "inception_4a/3x3"
}
layer {
  name: "inception_4a/5x5_reduce"
  type: "Convolution"
  bottom: "pool3/3x3_s2"
  top: "inception_4a/5x5_reduce"
  param {
    lr_mult: 1
    decay_mult: 1
  }
  param {
    lr_mult: 2
    decay_mult: 0
  }
  convolution_param {
    num_output: 16
    kernel_size: 1
    weight_filler {
      type: "xavier"
      std: 0.2
    }
    bias_filler {
      type: "constant"
      value: 0.2
    }
  }
}
layer {
  name: "inception_4a/relu_5x5_reduce"
  type: "ReLU"
  bottom: "inception_4a/5x5_reduce"
  top: "inception_4a/5x5_reduce"
}
layer {
  name: "inception_4a/5x5"
  type: "Convolution"
  bottom: "inception_4a/5x5_reduce"
  top: "inception_4a/5x5"
  param {
    lr_mult: 1
    decay_mult: 1
  }
  param {
    lr_mult: 2
    decay_mult: 0
  }
  convolution_param {
    num_output: 48
    pad: 2
    kernel_size: 5
    weight_filler {
      type: "xavier"
      std: 0.03
    }
    bias_filler {
      type: "constant"
      value: 0.2
    }
  }
}
layer {
  name: "inception_4a/relu_5x5"
  type: "ReLU"
  bottom: "inception_4a/5x5"
  top: "inception_4a/5x5"
}
layer {
  name: "inception_4a/pool"
  type: "Pooling"
  bottom: "pool3/3x3_s2"
  top: "inception_4a/pool"
  pooling_param {
    pool: MAX
    kernel_size: 3
    stride: 1
    pad: 1
  }
}
layer {
  name: "inception_4a/pool_proj"
  type: "Convolution"
  bottom: "inception_4a/pool"
  top: "inception_4a/pool_proj"
  param {
    lr_mult: 1
    decay_mult: 1
  }
  param {
    lr_mult: 2
    decay_mult: 0
  }
  convolution_param {
    num_output: 64
    kernel_size: 1
    weight_filler {
      type: "xavier"
      std: 0.1
    }
    bias_filler {
      type: "constant"
      value: 0.2
    }
  }
}
layer {
  name: "inception_4a/relu_pool_proj"
  type: "ReLU"
  bottom: "inception_4a/pool_proj"
  top: "inception_4a/pool_proj"
}
layer {
  name: "inception_4a/output"
  type: "Concat"
  bottom: "inception_4a/1x1"
  bottom: "inception_4a/3x3"
  bottom: "inception_4a/5x5"
  bottom: "inception_4a/pool_proj"
  top: "inception_4a/output"
}
layer {
  name: "loss1/ave_pool"
  type: "Pooling"
  bottom: "inception_4a/output"
  top: "loss1/ave_pool"
  pooling_param {
    pool: AVE
    kernel_size: 5
    stride: 3
  }
}
layer {
  name: "loss1/conv"
  type: "Convolution"
  bottom: "loss1/ave_pool"
  top: "loss1/conv"
  param {
    lr_mult: 1
    decay_mult: 1
  }
  param {
    lr_mult: 2
    decay_mult: 0
  }
  convolution_param {
    num_output: 128
    kernel_size: 1
    weight_filler {
      type: "xavier"
      std: 0.08
    }
    bias_filler {
      type: "constant"
      value: 0.2
    }
  }
}
layer {
  name: "loss1/relu_conv"
  type: "ReLU"
  bottom: "loss1/conv"
  top: "loss1/conv"
}
layer {
  name: "loss1/fc"
  type: "InnerProduct"
  bottom: "loss1/conv"
  top: "loss1/fc"
  param {
    lr_mult: 1
    decay_mult: 1
  }
  param {
    lr_mult: 2
    decay_mult: 0
  }
  inner_product_param {
    num_output: 1024
    weight_filler {
      type: "xavier"
      std: 0.02
    }
    bias_filler {
      type: "constant"
      value: 0.2
    }
  }
}
layer {
  name: "loss1/relu_fc"
  type: "ReLU"
  bottom: "loss1/fc"
  top: "loss1/fc"
}
layer {
  name: "loss1/drop_fc"
  type: "Dropout"
  bottom: "loss1/fc"
  top: "loss1/fc"
  dropout_param {
    dropout_ratio: 0.7
  }
}
layer {
  name: "loss1/classifier_plantvillage"
  type: "InnerProduct"
  bottom: "loss1/fc"
  top: "loss1/classifier_plantvillage"
  param {
    lr_mult: 1
    decay_mult: 1
  }
  param {
    lr_mult: 2
    decay_mult: 0
  }
  inner_product_param {
    num_output: 38
    weight_filler {
      type: "xavier"
      std: 0.0009765625
    }
    bias_filler {
      type: "constant"
      value: 0
    }
  }
}
layer {
  name: "inception_4b/1x1"
  type: "Convolution"
  bottom: "inception_4a/output"
  top: "inception_4b/1x1"
  param {
    lr_mult: 1
    decay_mult: 1
  }
  param {
    lr_mult: 2
    decay_mult: 0
  }
  convolution_param {
    num_output: 160
    kernel_size: 1
    weight_filler {
      type: "xavier"
      std: 0.03
    }
    bias_filler {
      type: "constant"
      value: 0.2
    }
  }
}
layer {
  name: "inception_4b/relu_1x1"
  type: "ReLU"
  bottom: "inception_4b/1x1"
  top: "inception_4b/1x1"
}
layer {
  name: "inception_4b/3x3_reduce"
  type: "Convolution"
  bottom: "inception_4a/output"
  top: "inception_4b/3x3_reduce"
  param {
    lr_mult: 1
    decay_mult: 1
  }
  param {
    lr_mult: 2
    decay_mult: 0
  }
  convolution_param {
    num_output: 112
    kernel_size: 1
    weight_filler {
      type: "xavier"
      std: 0.09
    }
    bias_filler {
      type: "constant"
      value: 0.2
    }
  }
}
layer {
  name: "inception_4b/relu_3x3_reduce"
  type: "ReLU"
  bottom: "inception_4b/3x3_reduce"
  top: "inception_4b/3x3_reduce"
}
layer {
  name: "inception_4b/3x3"
  type: "Convolution"
  bottom: "inception_4b/3x3_reduce"
  top: "inception_4b/3x3"
  param {
    lr_mult: 1
    decay_mult: 1
  }
  param {
    lr_mult: 2
    decay_mult: 0
  }
  convolution_param {
    num_output: 224
    pad: 1
    kernel_size: 3
    weight_filler {
      type: "xavier"
      std: 0.03
    }
    bias_filler {
      type: "constant"
      value: 0.2
    }
  }
}
layer {
  name: "inception_4b/relu_3x3"
  type: "ReLU"
  bottom: "inception_4b/3x3"
  top: "inception_4b/3x3"
}
layer {
  name: "inception_4b/5x5_reduce"
  type: "Convolution"
  bottom: "inception_4a/output"
  top: "inception_4b/5x5_reduce"
  param {
    lr_mult: 1
    decay_mult: 1
  }
  param {
    lr_mult: 2
    decay_mult: 0
  }
  convolution_param {
    num_output: 24
    kernel_size: 1
    weight_filler {
      type: "xavier"
      std: 0.2
    }
    bias_filler {
      type: "constant"
      value: 0.2
    }
  }
}
layer {
  name: "inception_4b/relu_5x5_reduce"
  type: "ReLU"
  bottom: "inception_4b/5x5_reduce"
  top: "inception_4b/5x5_reduce"
}
layer {
  name: "inception_4b/5x5"
  type: "Convolution"
  bottom: "inception_4b/5x5_reduce"
  top: "inception_4b/5x5"
  param {
    lr_mult: 1
    decay_mult: 1
  }
  param {
    lr_mult: 2
    decay_mult: 0
  }
  convolution_param {
    num_output: 64
    pad: 2
    kernel_size: 5
    weight_filler {
      type: "xavier"
      std: 0.03
    }
    bias_filler {
      type: "constant"
      value: 0.2
    }
  }
}
layer {
  name: "inception_4b/relu_5x5"
  type: "ReLU"
  bottom: "inception_4b/5x5"
  top: "inception_4b/5x5"
}
layer {
  name: "inception_4b/pool"
  type: "Pooling"
  bottom: "inception_4a/output"
  top: "inception_4b/pool"
  pooling_param {
    pool: MAX
    kernel_size: 3
    stride: 1
    pad: 1
  }
}
layer {
  name: "inception_4b/pool_proj"
  type: "Convolution"
  bottom: "inception_4b/pool"
  top: "inception_4b/pool_proj"
  param {
    lr_mult: 1
    decay_mult: 1
  }
  param {
    lr_mult: 2
    decay_mult: 0
  }
  convolution_param {
    num_output: 64
    kernel_size: 1
    weight_filler {
      type: "xavier"
      std: 0.1
    }
    bias_filler {
      type: "constant"
      value: 0.2
    }
  }
}
layer {
  name: "inception_4b/relu_pool_proj"
  type: "ReLU"
  bottom: "inception_4b/pool_proj"
  top: "inception_4b/pool_proj"
}
layer {
  name: "inception_4b/output"
  type: "Concat"
  bottom: "inception_4b/1x1"
  bottom: "inception_4b/3x3"
  bottom: "inception_4b/5x5"
  bottom: "inception_4b/pool_proj"
  top: "inception_4b/output"
}
layer {
  name: "inception_4c/1x1"
  type: "Convolution"
  bottom: "inception_4b/output"
  top: "inception_4c/1x1"
  param {
    lr_mult: 1
    decay_mult: 1
  }
  param {
    lr_mult: 2
    decay_mult: 0
  }
  convolution_param {
    num_output: 128
    kernel_size: 1
    weight_filler {
      type: "xavier"
      std: 0.03
    }
    bias_filler {
      type: "constant"
      value: 0.2
    }
  }
}
layer {
  name: "inception_4c/relu_1x1"
  type: "ReLU"
  bottom: "inception_4c/1x1"
  top: "inception_4c/1x1"
}
layer {
  name: "inception_4c/3x3_reduce"
  type: "Convolution"
  bottom: "inception_4b/output"
  top: "inception_4c/3x3_reduce"
  param {
    lr_mult: 1
    decay_mult: 1
  }
  param {
    lr_mult: 2
    decay_mult: 0
  }
  convolution_param {
    num_output: 128
    kernel_size: 1
    weight_filler {
      type: "xavier"
      std: 0.09
    }
    bias_filler {
      type: "constant"
      value: 0.2
    }
  }
}
layer {
  name: "inception_4c/relu_3x3_reduce"
  type: "ReLU"
  bottom: "inception_4c/3x3_reduce"
  top: "inception_4c/3x3_reduce"
}
layer {
  name: "inception_4c/3x3"
  type: "Convolution"
  bottom: "inception_4c/3x3_reduce"
  top: "inception_4c/3x3"
  param {
    lr_mult: 1
    decay_mult: 1
  }
  param {
    lr_mult: 2
    decay_mult: 0
  }
  convolution_param {
    num_output: 256
    pad: 1
    kernel_size: 3
    weight_filler {
      type: "xavier"
      std: 0.03
    }
    bias_filler {
      type: "constant"
      value: 0.2
    }
  }
}
layer {
  name: "inception_4c/relu_3x3"
  type: "ReLU"
  bottom: "inception_4c/3x3"
  top: "inception_4c/3x3"
}
layer {
  name: "inception_4c/5x5_reduce"
  type: "Convolution"
  bottom: "inception_4b/output"
  top: "inception_4c/5x5_reduce"
  param {
    lr_mult: 1
    decay_mult: 1
  }
  param {
    lr_mult: 2
    decay_mult: 0
  }
  convolution_param {
    num_output: 24
    kernel_size: 1
    weight_filler {
      type: "xavier"
      std: 0.2
    }
    bias_filler {
      type: "constant"
      value: 0.2
    }
  }
}
layer {
  name: "inception_4c/relu_5x5_reduce"
  type: "ReLU"
  bottom: "inception_4c/5x5_reduce"
  top: "inception_4c/5x5_reduce"
}
layer {
  name: "inception_4c/5x5"
  type: "Convolution"
  bottom: "inception_4c/5x5_reduce"
  top: "inception_4c/5x5"
  param {
    lr_mult: 1
    decay_mult: 1
  }
  param {
    lr_mult: 2
    decay_mult: 0
  }
  convolution_param {
    num_output: 64
    pad: 2
    kernel_size: 5
    weight_filler {
      type: "xavier"
      std: 0.03
    }
    bias_filler {
      type: "constant"
      value: 0.2
    }
  }
}
layer {
  name: "inception_4c/relu_5x5"
  type: "ReLU"
  bottom: "inception_4c/5x5"
  top: "inception_4c/5x5"
}
layer {
  name: "inception_4c/pool"
  type: "Pooling"
  bottom: "inception_4b/output"
  top: "inception_4c/pool"
  pooling_param {
    pool: MAX
    kernel_size: 3
    stride: 1
    pad: 1
  }
}
layer {
  name: "inception_4c/pool_proj"
  type: "Convolution"
  bottom: "inception_4c/pool"
  top: "inception_4c/pool_proj"
  param {
    lr_mult: 1
    decay_mult: 1
  }
  param {
    lr_mult: 2
    decay_mult: 0
  }
  convolution_param {
    num_output: 64
    kernel_size: 1
    weight_filler {
      type: "xavier"
      std: 0.1
    }
    bias_filler {
      type: "constant"
      value: 0.2
    }
  }
}
layer {
  name: "inception_4c/relu_pool_proj"
  type: "ReLU"
  bottom: "inception_4c/pool_proj"
  top: "inception_4c/pool_proj"
}
layer {
  name: "inception_4c/output"
  type: "Concat"
  bottom: "inception_4c/1x1"
  bottom: "inception_4c/3x3"
  bottom: "inception_4c/5x5"
  bottom: "inception_4c/pool_proj"
  top: "inception_4c/output"
}
layer {
  name: "inception_4d/1x1"
  type: "Convolution"
  bottom: "inception_4c/output"
  top: "inception_4d/1x1"
  param {
    lr_mult: 1
    decay_mult: 1
  }
  param {
    lr_mult: 2
    decay_mult: 0
  }
  convolution_param {
    num_output: 112
    kernel_size: 1
    weight_filler {
      type: "xavier"
      std: 0.03
    }
    bias_filler {
      type: "constant"
      value: 0.2
    }
  }
}
layer {
  name: "inception_4d/relu_1x1"
  type: "ReLU"
  bottom: "inception_4d/1x1"
  top: "inception_4d/1x1"
}
layer {
  name: "inception_4d/3x3_reduce"
  type: "Convolution"
  bottom: "inception_4c/output"
  top: "inception_4d/3x3_reduce"
  param {
    lr_mult: 1
    decay_mult: 1
  }
  param {
    lr_mult: 2
    decay_mult: 0
  }
  convolution_param {
    num_output: 144
    kernel_size: 1
    weight_filler {
      type: "xavier"
      std: 0.09
    }
    bias_filler {
      type: "constant"
      value: 0.2
    }
  }
}
layer {
  name: "inception_4d/relu_3x3_reduce"
  type: "ReLU"
  bottom: "inception_4d/3x3_reduce"
  top: "inception_4d/3x3_reduce"
}
layer {
  name: "inception_4d/3x3"
  type: "Convolution"
  bottom: "inception_4d/3x3_reduce"
  top: "inception_4d/3x3"
  param {
    lr_mult: 1
    decay_mult: 1
  }
  param {
    lr_mult: 2
    decay_mult: 0
  }
  convolution_param {
    num_output: 288
    pad: 1
    kernel_size: 3
    weight_filler {
      type: "xavier"
      std: 0.03
    }
    bias_filler {
      type: "constant"
      value: 0.2
    }
  }
}
layer {
  name: "inception_4d/relu_3x3"
  type: "ReLU"
  bottom: "inception_4d/3x3"
  top: "inception_4d/3x3"
}
layer {
  name: "inception_4d/5x5_reduce"
  type: "Convolution"
  bottom: "inception_4c/output"
  top: "inception_4d/5x5_reduce"
  param {
    lr_mult: 1
    decay_mult: 1
  }
  param {
    lr_mult: 2
    decay_mult: 0
  }
  convolution_param {
    num_output: 32
    kernel_size: 1
    weight_filler {
      type: "xavier"
      std: 0.2
    }
    bias_filler {
      type: "constant"
      value: 0.2
    }
  }
}
layer {
  name: "inception_4d/relu_5x5_reduce"
  type: "ReLU"
  bottom: "inception_4d/5x5_reduce"
  top: "inception_4d/5x5_reduce"
}
layer {
  name: "inception_4d/5x5"
  type: "Convolution"
  bottom: "inception_4d/5x5_reduce"
  top: "inception_4d/5x5"
  param {
    lr_mult: 1
    decay_mult: 1
  }
  param {
    lr_mult: 2
    decay_mult: 0
  }
  convolution_param {
    num_output: 64
    pad: 2
    kernel_size: 5
    weight_filler {
      type: "xavier"
      std: 0.03
    }
    bias_filler {
      type: "constant"
      value: 0.2
    }
  }
}
layer {
  name: "inception_4d/relu_5x5"
  type: "ReLU"
  bottom: "inception_4d/5x5"
  top: "inception_4d/5x5"
}
layer {
  name: "inception_4d/pool"
  type: "Pooling"
  bottom: "inception_4c/output"
  top: "inception_4d/pool"
  pooling_param {
    pool: MAX
    kernel_size: 3
    stride: 1
    pad: 1
  }
}
layer {
  name: "inception_4d/pool_proj"
  type: "Convolution"
  bottom: "inception_4d/pool"
  top: "inception_4d/pool_proj"
  param {
    lr_mult: 1
    decay_mult: 1
  }
  param {
    lr_mult: 2
    decay_mult: 0
  }
  convolution_param {
    num_output: 64
    kernel_size: 1
    weight_filler {
      type: "xavier"
      std: 0.1
    }
    bias_filler {
      type: "constant"
      value: 0.2
    }
  }
}
layer {
  name: "inception_4d/relu_pool_proj"
  type: "ReLU"
  bottom: "inception_4d/pool_proj"
  top: "inception_4d/pool_proj"
}
layer {
  name: "inception_4d/output"
  type: "Concat"
  bottom: "inception_4d/1x1"
  bottom: "inception_4d/3x3"
  bottom: "inception_4d/5x5"
  bottom: "inception_4d/pool_proj"
  top: "inception_4d/output"
}
layer {
  name: "loss2/ave_pool"
  type: "Pooling"
  bottom: "inception_4d/output"
  top: "loss2/ave_pool"
  pooling_param {
    pool: AVE
    kernel_size: 5
    stride: 3
  }
}
layer {
  name: "loss2/conv"
  type: "Convolution"
  bottom: "loss2/ave_pool"
  top: "loss2/conv"
  param {
    lr_mult: 1
    decay_mult: 1
  }
  param {
    lr_mult: 2
    decay_mult: 0
  }
  convolution_param {
    num_output: 128
    kernel_size: 1
    weight_filler {
      type: "xavier"
      std: 0.08
    }
    bias_filler {
      type: "constant"
      value: 0.2
    }
  }
}
layer {
  name: "loss2/relu_conv"
  type: "ReLU"
  bottom: "loss2/conv"
  top: "loss2/conv"
}
layer {
  name: "loss2/fc"
  type: "InnerProduct"
  bottom: "loss2/conv"
  top: "loss2/fc"
  param {
    lr_mult: 1
    decay_mult: 1
  }
  param {
    lr_mult: 2
    decay_mult: 0
  }
  inner_product_param {
    num_output: 1024
    weight_filler {
      type: "xavier"
      std: 0.02
    }
    bias_filler {
      type: "constant"
      value: 0.2
    }
  }
}
layer {
  name: "loss2/relu_fc"
  type: "ReLU"
  bottom: "loss2/fc"
  top: "loss2/fc"
}
layer {
  name: "loss2/drop_fc"
  type: "Dropout"
  bottom: "loss2/fc"
  top: "loss2/fc"
  dropout_param {
    dropout_ratio: 0.7
  }
}
layer {
  name: "loss2/classifier_plantvillage"
  type: "InnerProduct"
  bottom: "loss2/fc"
  top: "loss2/classifier_plantvillage"
  param {
    lr_mult: 1
    decay_mult: 1
  }
  param {
    lr_mult: 2
    decay_mult: 0
  }
  inner_product_param {
    num_output: 38
    weight_filler {
      type: "xavier"
      std: 0.0009765625
    }
    bias_filler {
      type: "constant"
      value: 0
    }
  }
}
layer {
  name: "inception_4e/1x1"
  type: "Convolution"
  bottom: "inception_4d/output"
  top: "inception_4e/1x1"
  param {
    lr_mult: 1
    decay_mult: 1
  }
  param {
    lr_mult: 2
    decay_mult: 0
  }
  convolution_param {
    num_output: 256
    kernel_size: 1
    weight_filler {
      type: "xavier"
      std: 0.03
    }
    bias_filler {
      type: "constant"
      value: 0.2
    }
  }
}
layer {
  name: "inception_4e/relu_1x1"
  type: "ReLU"
  bottom: "inception_4e/1x1"
  top: "inception_4e/1x1"
}
layer {
  name: "inception_4e/3x3_reduce"
  type: "Convolution"
  bottom: "inception_4d/output"
  top: "inception_4e/3x3_reduce"
  param {
    lr_mult: 1
    decay_mult: 1
  }
  param {
    lr_mult: 2
    decay_mult: 0
  }
  convolution_param {
    num_output: 160
    kernel_size: 1
    weight_filler {
      type: "xavier"
      std: 0.09
    }
    bias_filler {
      type: "constant"
      value: 0.2
    }
  }
}
layer {
  name: "inception_4e/relu_3x3_reduce"
  type: "ReLU"
  bottom: "inception_4e/3x3_reduce"
  top: "inception_4e/3x3_reduce"
}
layer {
  name: "inception_4e/3x3"
  type: "Convolution"
  bottom: "inception_4e/3x3_reduce"
  top: "inception_4e/3x3"
  param {
    lr_mult: 1
    decay_mult: 1
  }
  param {
    lr_mult: 2
    decay_mult: 0
  }
  convolution_param {
    num_output: 320
    pad: 1
    kernel_size: 3
    weight_filler {
      type: "xavier"
      std: 0.03
    }
    bias_filler {
      type: "constant"
      value: 0.2
    }
  }
}
layer {
  name: "inception_4e/relu_3x3"
  type: "ReLU"
  bottom: "inception_4e/3x3"
  top: "inception_4e/3x3"
}
layer {
  name: "inception_4e/5x5_reduce"
  type: "Convolution"
  bottom: "inception_4d/output"
  top: "inception_4e/5x5_reduce"
  param {
    lr_mult: 1
    decay_mult: 1
  }
  param {
    lr_mult: 2
    decay_mult: 0
  }
  convolution_param {
    num_output: 32
    kernel_size: 1
    weight_filler {
      type: "xavier"
      std: 0.2
    }
    bias_filler {
      type: "constant"
      value: 0.2
    }
  }
}
layer {
  name: "inception_4e/relu_5x5_reduce"
  type: "ReLU"
  bottom: "inception_4e/5x5_reduce"
  top: "inception_4e/5x5_reduce"
}
layer {
  name: "inception_4e/5x5"
  type: "Convolution"
  bottom: "inception_4e/5x5_reduce"
  top: "inception_4e/5x5"
  p
I0403 15:07:37.550761 14136 layer_factory.hpp:77] Creating layer data
I0403 15:07:37.551367 14136 net.cpp:91] Creating Layer data
I0403 15:07:37.551398 14136 net.cpp:399] data -> data
I0403 15:07:37.551447 14136 net.cpp:399] data -> label
I0403 15:07:37.551483 14136 data_transformer.cpp:25] Loading mean file from: /home/mohanty/data/final_dataset/lmdb/color-40-60/mean.binaryproto
I0403 15:07:37.554364 14139 db_lmdb.cpp:38] Opened lmdb /home/mohanty/data/final_dataset/lmdb/color-40-60/test_db
I0403 15:07:37.564710 14136 data_layer.cpp:41] output data size: 24,3,224,224
I0403 15:07:37.591557 14136 net.cpp:141] Setting up data
I0403 15:07:37.591650 14136 net.cpp:148] Top shape: 24 3 224 224 (3612672)
I0403 15:07:37.591673 14136 net.cpp:148] Top shape: 24 (24)
I0403 15:07:37.591688 14136 net.cpp:156] Memory required for data: 14450784
I0403 15:07:37.591716 14136 layer_factory.hpp:77] Creating layer label_data_1_split
I0403 15:07:37.591742 14136 net.cpp:91] Creating Layer label_data_1_split
I0403 15:07:37.591759 14136 net.cpp:425] label_data_1_split <- label
I0403 15:07:37.591792 14136 net.cpp:399] label_data_1_split -> label_data_1_split_0
I0403 15:07:37.591820 14136 net.cpp:399] label_data_1_split -> label_data_1_split_1
I0403 15:07:37.591841 14136 net.cpp:399] label_data_1_split -> label_data_1_split_2
I0403 15:07:37.591862 14136 net.cpp:399] label_data_1_split -> label_data_1_split_3
I0403 15:07:37.591881 14136 net.cpp:399] label_data_1_split -> label_data_1_split_4
I0403 15:07:37.591902 14136 net.cpp:399] label_data_1_split -> label_data_1_split_5
I0403 15:07:37.591919 14136 net.cpp:399] label_data_1_split -> label_data_1_split_6
I0403 15:07:37.591939 14136 net.cpp:399] label_data_1_split -> label_data_1_split_7
I0403 15:07:37.591959 14136 net.cpp:399] label_data_1_split -> label_data_1_split_8
I0403 15:07:37.591979 14136 net.cpp:399] label_data_1_split -> label_data_1_split_9
I0403 15:07:37.592092 14136 net.cpp:141] Setting up label_data_1_split
I0403 15:07:37.592114 14136 net.cpp:148] Top shape: 24 (24)
I0403 15:07:37.592131 14136 net.cpp:148] Top shape: 24 (24)
I0403 15:07:37.592147 14136 net.cpp:148] Top shape: 24 (24)
I0403 15:07:37.592162 14136 net.cpp:148] Top shape: 24 (24)
I0403 15:07:37.592177 14136 net.cpp:148] Top shape: 24 (24)
I0403 15:07:37.592193 14136 net.cpp:148] Top shape: 24 (24)
I0403 15:07:37.592207 14136 net.cpp:148] Top shape: 24 (24)
I0403 15:07:37.592222 14136 net.cpp:148] Top shape: 24 (24)
I0403 15:07:37.592237 14136 net.cpp:148] Top shape: 24 (24)
I0403 15:07:37.592252 14136 net.cpp:148] Top shape: 24 (24)
I0403 15:07:37.592308 14136 net.cpp:156] Memory required for data: 14451744
I0403 15:07:37.592322 14136 layer_factory.hpp:77] Creating layer conv1/7x7_s2
I0403 15:07:37.592353 14136 net.cpp:91] Creating Layer conv1/7x7_s2
I0403 15:07:37.592371 14136 net.cpp:425] conv1/7x7_s2 <- data
I0403 15:07:37.592391 14136 net.cpp:399] conv1/7x7_s2 -> conv1/7x7_s2
I0403 15:07:37.729218 14136 net.cpp:141] Setting up conv1/7x7_s2
I0403 15:07:37.729277 14136 net.cpp:148] Top shape: 24 64 112 112 (19267584)
I0403 15:07:37.729297 14136 net.cpp:156] Memory required for data: 91522080
I0403 15:07:37.729329 14136 layer_factory.hpp:77] Creating layer conv1/relu_7x7
I0403 15:07:37.729357 14136 net.cpp:91] Creating Layer conv1/relu_7x7
I0403 15:07:37.729375 14136 net.cpp:425] conv1/relu_7x7 <- conv1/7x7_s2
I0403 15:07:37.729394 14136 net.cpp:386] conv1/relu_7x7 -> conv1/7x7_s2 (in-place)
I0403 15:07:37.729656 14136 net.cpp:141] Setting up conv1/relu_7x7
I0403 15:07:37.729684 14136 net.cpp:148] Top shape: 24 64 112 112 (19267584)
I0403 15:07:37.729701 14136 net.cpp:156] Memory required for data: 168592416
I0403 15:07:37.729715 14136 layer_factory.hpp:77] Creating layer pool1/3x3_s2
I0403 15:07:37.729740 14136 net.cpp:91] Creating Layer pool1/3x3_s2
I0403 15:07:37.729758 14136 net.cpp:425] pool1/3x3_s2 <- conv1/7x7_s2
I0403 15:07:37.729778 14136 net.cpp:399] pool1/3x3_s2 -> pool1/3x3_s2
I0403 15:07:37.729852 14136 net.cpp:141] Setting up pool1/3x3_s2
I0403 15:07:37.729877 14136 net.cpp:148] Top shape: 24 64 56 56 (4816896)
I0403 15:07:37.729892 14136 net.cpp:156] Memory required for data: 187860000
I0403 15:07:37.729907 14136 layer_factory.hpp:77] Creating layer pool1/norm1
I0403 15:07:37.729931 14136 net.cpp:91] Creating Layer pool1/norm1
I0403 15:07:37.729949 14136 net.cpp:425] pool1/norm1 <- pool1/3x3_s2
I0403 15:07:37.729967 14136 net.cpp:399] pool1/norm1 -> pool1/norm1
I0403 15:07:37.730293 14136 net.cpp:141] Setting up pool1/norm1
I0403 15:07:37.730320 14136 net.cpp:148] Top shape: 24 64 56 56 (4816896)
I0403 15:07:37.730336 14136 net.cpp:156] Memory required for data: 207127584
I0403 15:07:37.730350 14136 layer_factory.hpp:77] Creating layer conv2/3x3_reduce
I0403 15:07:37.730375 14136 net.cpp:91] Creating Layer conv2/3x3_reduce
I0403 15:07:37.730391 14136 net.cpp:425] conv2/3x3_reduce <- pool1/norm1
I0403 15:07:37.730411 14136 net.cpp:399] conv2/3x3_reduce -> conv2/3x3_reduce
I0403 15:07:37.731772 14136 net.cpp:141] Setting up conv2/3x3_reduce
I0403 15:07:37.731803 14136 net.cpp:148] Top shape: 24 64 56 56 (4816896)
I0403 15:07:37.731819 14136 net.cpp:156] Memory required for data: 226395168
I0403 15:07:37.731839 14136 layer_factory.hpp:77] Creating layer conv2/relu_3x3_reduce
I0403 15:07:37.731858 14136 net.cpp:91] Creating Layer conv2/relu_3x3_reduce
I0403 15:07:37.731873 14136 net.cpp:425] conv2/relu_3x3_reduce <- conv2/3x3_reduce
I0403 15:07:37.731891 14136 net.cpp:386] conv2/relu_3x3_reduce -> conv2/3x3_reduce (in-place)
I0403 15:07:37.732151 14136 net.cpp:141] Setting up conv2/relu_3x3_reduce
I0403 15:07:37.732177 14136 net.cpp:148] Top shape: 24 64 56 56 (4816896)
I0403 15:07:37.732193 14136 net.cpp:156] Memory required for data: 245662752
I0403 15:07:37.732208 14136 layer_factory.hpp:77] Creating layer conv2/3x3
I0403 15:07:37.732229 14136 net.cpp:91] Creating Layer conv2/3x3
I0403 15:07:37.732247 14136 net.cpp:425] conv2/3x3 <- conv2/3x3_reduce
I0403 15:07:37.732265 14136 net.cpp:399] conv2/3x3 -> conv2/3x3
I0403 15:07:37.734618 14136 net.cpp:141] Setting up conv2/3x3
I0403 15:07:37.734649 14136 net.cpp:148] Top shape: 24 192 56 56 (14450688)
I0403 15:07:37.734666 14136 net.cpp:156] Memory required for data: 303465504
I0403 15:07:37.734688 14136 layer_factory.hpp:77] Creating layer conv2/relu_3x3
I0403 15:07:37.734709 14136 net.cpp:91] Creating Layer conv2/relu_3x3
I0403 15:07:37.734727 14136 net.cpp:425] conv2/relu_3x3 <- conv2/3x3
I0403 15:07:37.734745 14136 net.cpp:386] conv2/relu_3x3 -> conv2/3x3 (in-place)
I0403 15:07:37.734918 14136 net.cpp:141] Setting up conv2/relu_3x3
I0403 15:07:37.734944 14136 net.cpp:148] Top shape: 24 192 56 56 (14450688)
I0403 15:07:37.734999 14136 net.cpp:156] Memory required for data: 361268256
I0403 15:07:37.735015 14136 layer_factory.hpp:77] Creating layer conv2/norm2
I0403 15:07:37.735036 14136 net.cpp:91] Creating Layer conv2/norm2
I0403 15:07:37.735054 14136 net.cpp:425] conv2/norm2 <- conv2/3x3
I0403 15:07:37.735072 14136 net.cpp:399] conv2/norm2 -> conv2/norm2
I0403 15:07:37.735409 14136 net.cpp:141] Setting up conv2/norm2
I0403 15:07:37.735440 14136 net.cpp:148] Top shape: 24 192 56 56 (14450688)
I0403 15:07:37.735455 14136 net.cpp:156] Memory required for data: 419071008
I0403 15:07:37.735471 14136 layer_factory.hpp:77] Creating layer pool2/3x3_s2
I0403 15:07:37.735488 14136 net.cpp:91] Creating Layer pool2/3x3_s2
I0403 15:07:37.735504 14136 net.cpp:425] pool2/3x3_s2 <- conv2/norm2
I0403 15:07:37.735527 14136 net.cpp:399] pool2/3x3_s2 -> pool2/3x3_s2
I0403 15:07:37.735584 14136 net.cpp:141] Setting up pool2/3x3_s2
I0403 15:07:37.735610 14136 net.cpp:148] Top shape: 24 192 28 28 (3612672)
I0403 15:07:37.735625 14136 net.cpp:156] Memory required for data: 433521696
I0403 15:07:37.735641 14136 layer_factory.hpp:77] Creating layer pool2/3x3_s2_pool2/3x3_s2_0_split
I0403 15:07:37.735657 14136 net.cpp:91] Creating Layer pool2/3x3_s2_pool2/3x3_s2_0_split
I0403 15:07:37.735673 14136 net.cpp:425] pool2/3x3_s2_pool2/3x3_s2_0_split <- pool2/3x3_s2
I0403 15:07:37.735692 14136 net.cpp:399] pool2/3x3_s2_pool2/3x3_s2_0_split -> pool2/3x3_s2_pool2/3x3_s2_0_split_0
I0403 15:07:37.735710 14136 net.cpp:399] pool2/3x3_s2_pool2/3x3_s2_0_split -> pool2/3x3_s2_pool2/3x3_s2_0_split_1
I0403 15:07:37.735733 14136 net.cpp:399] pool2/3x3_s2_pool2/3x3_s2_0_split -> pool2/3x3_s2_pool2/3x3_s2_0_split_2
I0403 15:07:37.735754 14136 net.cpp:399] pool2/3x3_s2_pool2/3x3_s2_0_split -> pool2/3x3_s2_pool2/3x3_s2_0_split_3
I0403 15:07:37.735827 14136 net.cpp:141] Setting up pool2/3x3_s2_pool2/3x3_s2_0_split
I0403 15:07:37.735851 14136 net.cpp:148] Top shape: 24 192 28 28 (3612672)
I0403 15:07:37.735867 14136 net.cpp:148] Top shape: 24 192 28 28 (3612672)
I0403 15:07:37.735882 14136 net.cpp:148] Top shape: 24 192 28 28 (3612672)
I0403 15:07:37.735898 14136 net.cpp:148] Top shape: 24 192 28 28 (3612672)
I0403 15:07:37.735911 14136 net.cpp:156] Memory required for data: 491324448
I0403 15:07:37.735926 14136 layer_factory.hpp:77] Creating layer inception_3a/1x1
I0403 15:07:37.735949 14136 net.cpp:91] Creating Layer inception_3a/1x1
I0403 15:07:37.735966 14136 net.cpp:425] inception_3a/1x1 <- pool2/3x3_s2_pool2/3x3_s2_0_split_0
I0403 15:07:37.735987 14136 net.cpp:399] inception_3a/1x1 -> inception_3a/1x1
I0403 15:07:37.737589 14136 net.cpp:141] Setting up inception_3a/1x1
I0403 15:07:37.737620 14136 net.cpp:148] Top shape: 24 64 28 28 (1204224)
I0403 15:07:37.737637 14136 net.cpp:156] Memory required for data: 496141344
I0403 15:07:37.737654 14136 layer_factory.hpp:77] Creating layer inception_3a/relu_1x1
I0403 15:07:37.737673 14136 net.cpp:91] Creating Layer inception_3a/relu_1x1
I0403 15:07:37.737689 14136 net.cpp:425] inception_3a/relu_1x1 <- inception_3a/1x1
I0403 15:07:37.737709 14136 net.cpp:386] inception_3a/relu_1x1 -> inception_3a/1x1 (in-place)
I0403 15:07:37.737886 14136 net.cpp:141] Setting up inception_3a/relu_1x1
I0403 15:07:37.737913 14136 net.cpp:148] Top shape: 24 64 28 28 (1204224)
I0403 15:07:37.737928 14136 net.cpp:156] Memory required for data: 500958240
I0403 15:07:37.737943 14136 layer_factory.hpp:77] Creating layer inception_3a/3x3_reduce
I0403 15:07:37.737965 14136 net.cpp:91] Creating Layer inception_3a/3x3_reduce
I0403 15:07:37.737983 14136 net.cpp:425] inception_3a/3x3_reduce <- pool2/3x3_s2_pool2/3x3_s2_0_split_1
I0403 15:07:37.738004 14136 net.cpp:399] inception_3a/3x3_reduce -> inception_3a/3x3_reduce
I0403 15:07:37.739699 14136 net.cpp:141] Setting up inception_3a/3x3_reduce
I0403 15:07:37.739728 14136 net.cpp:148] Top shape: 24 96 28 28 (1806336)
I0403 15:07:37.739744 14136 net.cpp:156] Memory required for data: 508183584
I0403 15:07:37.739766 14136 layer_factory.hpp:77] Creating layer inception_3a/relu_3x3_reduce
I0403 15:07:37.739804 14136 net.cpp:91] Creating Layer inception_3a/relu_3x3_reduce
I0403 15:07:37.739822 14136 net.cpp:425] inception_3a/relu_3x3_reduce <- inception_3a/3x3_reduce
I0403 15:07:37.739840 14136 net.cpp:386] inception_3a/relu_3x3_reduce -> inception_3a/3x3_reduce (in-place)
I0403 15:07:37.740018 14136 net.cpp:141] Setting up inception_3a/relu_3x3_reduce
I0403 15:07:37.740046 14136 net.cpp:148] Top shape: 24 96 28 28 (1806336)
I0403 15:07:37.740061 14136 net.cpp:156] Memory required for data: 515408928
I0403 15:07:37.740075 14136 layer_factory.hpp:77] Creating layer inception_3a/3x3
I0403 15:07:37.740098 14136 net.cpp:91] Creating Layer inception_3a/3x3
I0403 15:07:37.740115 14136 net.cpp:425] inception_3a/3x3 <- inception_3a/3x3_reduce
I0403 15:07:37.740136 14136 net.cpp:399] inception_3a/3x3 -> inception_3a/3x3
I0403 15:07:37.741796 14136 net.cpp:141] Setting up inception_3a/3x3
I0403 15:07:37.741823 14136 net.cpp:148] Top shape: 24 128 28 28 (2408448)
I0403 15:07:37.741839 14136 net.cpp:156] Memory required for data: 525042720
I0403 15:07:37.741858 14136 layer_factory.hpp:77] Creating layer inception_3a/relu_3x3
I0403 15:07:37.741878 14136 net.cpp:91] Creating Layer inception_3a/relu_3x3
I0403 15:07:37.741894 14136 net.cpp:425] inception_3a/relu_3x3 <- inception_3a/3x3
I0403 15:07:37.741911 14136 net.cpp:386] inception_3a/relu_3x3 -> inception_3a/3x3 (in-place)
I0403 15:07:37.742185 14136 net.cpp:141] Setting up inception_3a/relu_3x3
I0403 15:07:37.742211 14136 net.cpp:148] Top shape: 24 128 28 28 (2408448)
I0403 15:07:37.742226 14136 net.cpp:156] Memory required for data: 534676512
I0403 15:07:37.742240 14136 layer_factory.hpp:77] Creating layer inception_3a/5x5_reduce
I0403 15:07:37.742262 14136 net.cpp:91] Creating Layer inception_3a/5x5_reduce
I0403 15:07:37.742280 14136 net.cpp:425] inception_3a/5x5_reduce <- pool2/3x3_s2_pool2/3x3_s2_0_split_2
I0403 15:07:37.742302 14136 net.cpp:399] inception_3a/5x5_reduce -> inception_3a/5x5_reduce
I0403 15:07:37.743250 14136 net.cpp:141] Setting up inception_3a/5x5_reduce
I0403 15:07:37.743293 14136 net.cpp:148] Top shape: 24 16 28 28 (301056)
I0403 15:07:37.743309 14136 net.cpp:156] Memory required for data: 535880736
I0403 15:07:37.743327 14136 layer_factory.hpp:77] Creating layer inception_3a/relu_5x5_reduce
I0403 15:07:37.743348 14136 net.cpp:91] Creating Layer inception_3a/relu_5x5_reduce
I0403 15:07:37.743366 14136 net.cpp:425] inception_3a/relu_5x5_reduce <- inception_3a/5x5_reduce
I0403 15:07:37.743383 14136 net.cpp:386] inception_3a/relu_5x5_reduce -> inception_3a/5x5_reduce (in-place)
I0403 15:07:37.743698 14136 net.cpp:141] Setting up inception_3a/relu_5x5_reduce
I0403 15:07:37.743726 14136 net.cpp:148] Top shape: 24 16 28 28 (301056)
I0403 15:07:37.743742 14136 net.cpp:156] Memory required for data: 537084960
I0403 15:07:37.743757 14136 layer_factory.hpp:77] Creating layer inception_3a/5x5
I0403 15:07:37.743778 14136 net.cpp:91] Creating Layer inception_3a/5x5
I0403 15:07:37.743795 14136 net.cpp:425] inception_3a/5x5 <- inception_3a/5x5_reduce
I0403 15:07:37.743813 14136 net.cpp:399] inception_3a/5x5 -> inception_3a/5x5
I0403 15:07:37.744819 14136 net.cpp:141] Setting up inception_3a/5x5
I0403 15:07:37.744848 14136 net.cpp:148] Top shape: 24 32 28 28 (602112)
I0403 15:07:37.744863 14136 net.cpp:156] Memory required for data: 539493408
I0403 15:07:37.744881 14136 layer_factory.hpp:77] Creating layer inception_3a/relu_5x5
I0403 15:07:37.744901 14136 net.cpp:91] Creating Layer inception_3a/relu_5x5
I0403 15:07:37.744918 14136 net.cpp:425] inception_3a/relu_5x5 <- inception_3a/5x5
I0403 15:07:37.744935 14136 net.cpp:386] inception_3a/relu_5x5 -> inception_3a/5x5 (in-place)
I0403 15:07:37.745110 14136 net.cpp:141] Setting up inception_3a/relu_5x5
I0403 15:07:37.745136 14136 net.cpp:148] Top shape: 24 32 28 28 (602112)
I0403 15:07:37.745153 14136 net.cpp:156] Memory required for data: 541901856
I0403 15:07:37.745168 14136 layer_factory.hpp:77] Creating layer inception_3a/pool
I0403 15:07:37.745185 14136 net.cpp:91] Creating Layer inception_3a/pool
I0403 15:07:37.745201 14136 net.cpp:425] inception_3a/pool <- pool2/3x3_s2_pool2/3x3_s2_0_split_3
I0403 15:07:37.745234 14136 net.cpp:399] inception_3a/pool -> inception_3a/pool
I0403 15:07:37.745296 14136 net.cpp:141] Setting up inception_3a/pool
I0403 15:07:37.745319 14136 net.cpp:148] Top shape: 24 192 28 28 (3612672)
I0403 15:07:37.745333 14136 net.cpp:156] Memory required for data: 556352544
I0403 15:07:37.745347 14136 layer_factory.hpp:77] Creating layer inception_3a/pool_proj
I0403 15:07:37.745368 14136 net.cpp:91] Creating Layer inception_3a/pool_proj
I0403 15:07:37.745386 14136 net.cpp:425] inception_3a/pool_proj <- inception_3a/pool
I0403 15:07:37.745407 14136 net.cpp:399] inception_3a/pool_proj -> inception_3a/pool_proj
I0403 15:07:37.746431 14136 net.cpp:141] Setting up inception_3a/pool_proj
I0403 15:07:37.746460 14136 net.cpp:148] Top shape: 24 32 28 28 (602112)
I0403 15:07:37.746476 14136 net.cpp:156] Memory required for data: 558760992
I0403 15:07:37.746498 14136 layer_factory.hpp:77] Creating layer inception_3a/relu_pool_proj
I0403 15:07:37.746520 14136 net.cpp:91] Creating Layer inception_3a/relu_pool_proj
I0403 15:07:37.746537 14136 net.cpp:425] inception_3a/relu_pool_proj <- inception_3a/pool_proj
I0403 15:07:37.746556 14136 net.cpp:386] inception_3a/relu_pool_proj -> inception_3a/pool_proj (in-place)
I0403 15:07:37.746841 14136 net.cpp:141] Setting up inception_3a/relu_pool_proj
I0403 15:07:37.746870 14136 net.cpp:148] Top shape: 24 32 28 28 (602112)
I0403 15:07:37.746886 14136 net.cpp:156] Memory required for data: 561169440
I0403 15:07:37.746901 14136 layer_factory.hpp:77] Creating layer inception_3a/output
I0403 15:07:37.746917 14136 net.cpp:91] Creating Layer inception_3a/output
I0403 15:07:37.746933 14136 net.cpp:425] inception_3a/output <- inception_3a/1x1
I0403 15:07:37.746949 14136 net.cpp:425] inception_3a/output <- inception_3a/3x3
I0403 15:07:37.746966 14136 net.cpp:425] inception_3a/output <- inception_3a/5x5
I0403 15:07:37.746981 14136 net.cpp:425] inception_3a/output <- inception_3a/pool_proj
I0403 15:07:37.747001 14136 net.cpp:399] inception_3a/output -> inception_3a/output
I0403 15:07:37.747051 14136 net.cpp:141] Setting up inception_3a/output
I0403 15:07:37.747076 14136 net.cpp:148] Top shape: 24 256 28 28 (4816896)
I0403 15:07:37.747090 14136 net.cpp:156] Memory required for data: 580437024
I0403 15:07:37.747104 14136 layer_factory.hpp:77] Creating layer inception_3a/output_inception_3a/output_0_split
I0403 15:07:37.747122 14136 net.cpp:91] Creating Layer inception_3a/output_inception_3a/output_0_split
I0403 15:07:37.747136 14136 net.cpp:425] inception_3a/output_inception_3a/output_0_split <- inception_3a/output
I0403 15:07:37.747156 14136 net.cpp:399] inception_3a/output_inception_3a/output_0_split -> inception_3a/output_inception_3a/output_0_split_0
I0403 15:07:37.747176 14136 net.cpp:399] inception_3a/output_inception_3a/output_0_split -> inception_3a/output_inception_3a/output_0_split_1
I0403 15:07:37.747200 14136 net.cpp:399] inception_3a/output_inception_3a/output_0_split -> inception_3a/output_inception_3a/output_0_split_2
I0403 15:07:37.747225 14136 net.cpp:399] inception_3a/output_inception_3a/output_0_split -> inception_3a/output_inception_3a/output_0_split_3
I0403 15:07:37.747299 14136 net.cpp:141] Setting up inception_3a/output_inception_3a/output_0_split
I0403 15:07:37.747323 14136 net.cpp:148] Top shape: 24 256 28 28 (4816896)
I0403 15:07:37.747339 14136 net.cpp:148] Top shape: 24 256 28 28 (4816896)
I0403 15:07:37.747355 14136 net.cpp:148] Top shape: 24 256 28 28 (4816896)
I0403 15:07:37.747370 14136 net.cpp:148] Top shape: 24 256 28 28 (4816896)
I0403 15:07:37.747385 14136 net.cpp:156] Memory required for data: 657507360
I0403 15:07:37.747400 14136 layer_factory.hpp:77] Creating layer inception_3b/1x1
I0403 15:07:37.747421 14136 net.cpp:91] Creating Layer inception_3b/1x1
I0403 15:07:37.747439 14136 net.cpp:425] inception_3b/1x1 <- inception_3a/output_inception_3a/output_0_split_0
I0403 15:07:37.747460 14136 net.cpp:399] inception_3b/1x1 -> inception_3b/1x1
I0403 15:07:37.748651 14136 net.cpp:141] Setting up inception_3b/1x1
I0403 15:07:37.748693 14136 net.cpp:148] Top shape: 24 128 28 28 (2408448)
I0403 15:07:37.748709 14136 net.cpp:156] Memory required for data: 667141152
I0403 15:07:37.748728 14136 layer_factory.hpp:77] Creating layer inception_3b/relu_1x1
I0403 15:07:37.748747 14136 net.cpp:91] Creating Layer inception_3b/relu_1x1
I0403 15:07:37.748764 14136 net.cpp:425] inception_3b/relu_1x1 <- inception_3b/1x1
I0403 15:07:37.748785 14136 net.cpp:386] inception_3b/relu_1x1 -> inception_3b/1x1 (in-place)
I0403 15:07:37.748970 14136 net.cpp:141] Setting up inception_3b/relu_1x1
I0403 15:07:37.748997 14136 net.cpp:148] Top shape: 24 128 28 28 (2408448)
I0403 15:07:37.749013 14136 net.cpp:156] Memory required for data: 676774944
I0403 15:07:37.749028 14136 layer_factory.hpp:77] Creating layer inception_3b/3x3_reduce
I0403 15:07:37.749052 14136 net.cpp:91] Creating Layer inception_3b/3x3_reduce
I0403 15:07:37.749069 14136 net.cpp:425] inception_3b/3x3_reduce <- inception_3a/output_inception_3a/output_0_split_1
I0403 15:07:37.749091 14136 net.cpp:399] inception_3b/3x3_reduce -> inception_3b/3x3_reduce
I0403 15:07:37.750293 14136 net.cpp:141] Setting up inception_3b/3x3_reduce
I0403 15:07:37.750322 14136 net.cpp:148] Top shape: 24 128 28 28 (2408448)
I0403 15:07:37.750339 14136 net.cpp:156] Memory required for data: 686408736
I0403 15:07:37.750356 14136 layer_factory.hpp:77] Creating layer inception_3b/relu_3x3_reduce
I0403 15:07:37.750375 14136 net.cpp:91] Creating Layer inception_3b/relu_3x3_reduce
I0403 15:07:37.750391 14136 net.cpp:425] inception_3b/relu_3x3_reduce <- inception_3b/3x3_reduce
I0403 15:07:37.750411 14136 net.cpp:386] inception_3b/relu_3x3_reduce -> inception_3b/3x3_reduce (in-place)
I0403 15:07:37.750604 14136 net.cpp:141] Setting up inception_3b/relu_3x3_reduce
I0403 15:07:37.750632 14136 net.cpp:148] Top shape: 24 128 28 28 (2408448)
I0403 15:07:37.750646 14136 net.cpp:156] Memory required for data: 696042528
I0403 15:07:37.750663 14136 layer_factory.hpp:77] Creating layer inception_3b/3x3
I0403 15:07:37.750689 14136 net.cpp:91] Creating Layer inception_3b/3x3
I0403 15:07:37.750708 14136 net.cpp:425] inception_3b/3x3 <- inception_3b/3x3_reduce
I0403 15:07:37.750728 14136 net.cpp:399] inception_3b/3x3 -> inception_3b/3x3
I0403 15:07:37.753796 14136 net.cpp:141] Setting up inception_3b/3x3
I0403 15:07:37.753826 14136 net.cpp:148] Top shape: 24 192 28 28 (3612672)
I0403 15:07:37.753844 14136 net.cpp:156] Memory required for data: 710493216
I0403 15:07:37.753864 14136 layer_factory.hpp:77] Creating layer inception_3b/relu_3x3
I0403 15:07:37.753896 14136 net.cpp:91] Creating Layer inception_3b/relu_3x3
I0403 15:07:37.753913 14136 net.cpp:425] inception_3b/relu_3x3 <- inception_3b/3x3
I0403 15:07:37.753932 14136 net.cpp:386] inception_3b/relu_3x3 -> inception_3b/3x3 (in-place)
I0403 15:07:37.754215 14136 net.cpp:141] Setting up inception_3b/relu_3x3
I0403 15:07:37.754241 14136 net.cpp:148] Top shape: 24 192 28 28 (3612672)
I0403 15:07:37.754256 14136 net.cpp:156] Memory required for data: 724943904
I0403 15:07:37.754271 14136 layer_factory.hpp:77] Creating layer inception_3b/5x5_reduce
I0403 15:07:37.754297 14136 net.cpp:91] Creating Layer inception_3b/5x5_reduce
I0403 15:07:37.754314 14136 net.cpp:425] inception_3b/5x5_reduce <- inception_3a/output_inception_3a/output_0_split_2
I0403 15:07:37.754338 14136 net.cpp:399] inception_3b/5x5_reduce -> inception_3b/5x5_reduce
I0403 15:07:37.755391 14136 net.cpp:141] Setting up inception_3b/5x5_reduce
I0403 15:07:37.755420 14136 net.cpp:148] Top shape: 24 32 28 28 (602112)
I0403 15:07:37.755436 14136 net.cpp:156] Memory required for data: 727352352
I0403 15:07:37.755455 14136 layer_factory.hpp:77] Creating layer inception_3b/relu_5x5_reduce
I0403 15:07:37.755475 14136 net.cpp:91] Creating Layer inception_3b/relu_5x5_reduce
I0403 15:07:37.755493 14136 net.cpp:425] inception_3b/relu_5x5_reduce <- inception_3b/5x5_reduce
I0403 15:07:37.755511 14136 net.cpp:386] inception_3b/relu_5x5_reduce -> inception_3b/5x5_reduce (in-place)
I0403 15:07:37.755710 14136 net.cpp:141] Setting up inception_3b/relu_5x5_reduce
I0403 15:07:37.755753 14136 net.cpp:148] Top shape: 24 32 28 28 (602112)
I0403 15:07:37.755769 14136 net.cpp:156] Memory required for data: 729760800
I0403 15:07:37.755785 14136 layer_factory.hpp:77] Creating layer inception_3b/5x5
I0403 15:07:37.755806 14136 net.cpp:91] Creating Layer inception_3b/5x5
I0403 15:07:37.755825 14136 net.cpp:425] inception_3b/5x5 <- inception_3b/5x5_reduce
I0403 15:07:37.755846 14136 net.cpp:399] inception_3b/5x5 -> inception_3b/5x5
I0403 15:07:37.757904 14136 net.cpp:141] Setting up inception_3b/5x5
I0403 15:07:37.757932 14136 net.cpp:148] Top shape: 24 96 28 28 (1806336)
I0403 15:07:37.757948 14136 net.cpp:156] Memory required for data: 736986144
I0403 15:07:37.757966 14136 layer_factory.hpp:77] Creating layer inception_3b/relu_5x5
I0403 15:07:37.757985 14136 net.cpp:91] Creating Layer inception_3b/relu_5x5
I0403 15:07:37.758002 14136 net.cpp:425] inception_3b/relu_5x5 <- inception_3b/5x5
I0403 15:07:37.758023 14136 net.cpp:386] inception_3b/relu_5x5 -> inception_3b/5x5 (in-place)
I0403 15:07:37.758215 14136 net.cpp:141] Setting up inception_3b/relu_5x5
I0403 15:07:37.758241 14136 net.cpp:148] Top shape: 24 96 28 28 (1806336)
I0403 15:07:37.758256 14136 net.cpp:156] Memory required for data: 744211488
I0403 15:07:37.758271 14136 layer_factory.hpp:77] Creating layer inception_3b/pool
I0403 15:07:37.758290 14136 net.cpp:91] Creating Layer inception_3b/pool
I0403 15:07:37.758306 14136 net.cpp:425] inception_3b/pool <- inception_3a/output_inception_3a/output_0_split_3
I0403 15:07:37.758329 14136 net.cpp:399] inception_3b/pool -> inception_3b/pool
I0403 15:07:37.758386 14136 net.cpp:141] Setting up inception_3b/pool
I0403 15:07:37.758410 14136 net.cpp:148] Top shape: 24 256 28 28 (4816896)
I0403 15:07:37.758425 14136 net.cpp:156] Memory required for data: 763479072
I0403 15:07:37.758440 14136 layer_factory.hpp:77] Creating layer inception_3b/pool_proj
I0403 15:07:37.758462 14136 net.cpp:91] Creating Layer inception_3b/pool_proj
I0403 15:07:37.758481 14136 net.cpp:425] inception_3b/pool_proj <- inception_3b/pool
I0403 15:07:37.758502 14136 net.cpp:399] inception_3b/pool_proj -> inception_3b/pool_proj
I0403 15:07:37.759582 14136 net.cpp:141] Setting up inception_3b/pool_proj
I0403 15:07:37.759614 14136 net.cpp:148] Top shape: 24 64 28 28 (1204224)
I0403 15:07:37.759634 14136 net.cpp:156] Memory required for data: 768295968
I0403 15:07:37.759652 14136 layer_factory.hpp:77] Creating layer inception_3b/relu_pool_proj
I0403 15:07:37.759670 14136 net.cpp:91] Creating Layer inception_3b/relu_pool_proj
I0403 15:07:37.759687 14136 net.cpp:425] inception_3b/relu_pool_proj <- inception_3b/pool_proj
I0403 15:07:37.759704 14136 net.cpp:386] inception_3b/relu_pool_proj -> inception_3b/pool_proj (in-place)
I0403 15:07:37.760112 14136 net.cpp:141] Setting up inception_3b/relu_pool_proj
I0403 15:07:37.760138 14136 net.cpp:148] Top shape: 24 64 28 28 (1204224)
I0403 15:07:37.760154 14136 net.cpp:156] Memory required for data: 773112864
I0403 15:07:37.760169 14136 layer_factory.hpp:77] Creating layer inception_3b/output
I0403 15:07:37.760190 14136 net.cpp:91] Creating Layer inception_3b/output
I0403 15:07:37.760206 14136 net.cpp:425] inception_3b/output <- inception_3b/1x1
I0403 15:07:37.760223 14136 net.cpp:425] inception_3b/output <- inception_3b/3x3
I0403 15:07:37.760252 14136 net.cpp:425] inception_3b/output <- inception_3b/5x5
I0403 15:07:37.760270 14136 net.cpp:425] inception_3b/output <- inception_3b/pool_proj
I0403 15:07:37.760288 14136 net.cpp:399] inception_3b/output -> inception_3b/output
I0403 15:07:37.760336 14136 net.cpp:141] Setting up inception_3b/output
I0403 15:07:37.760360 14136 net.cpp:148] Top shape: 24 480 28 28 (9031680)
I0403 15:07:37.760375 14136 net.cpp:156] Memory required for data: 809239584
I0403 15:07:37.760390 14136 layer_factory.hpp:77] Creating layer pool3/3x3_s2
I0403 15:07:37.760408 14136 net.cpp:91] Creating Layer pool3/3x3_s2
I0403 15:07:37.760426 14136 net.cpp:425] pool3/3x3_s2 <- inception_3b/output
I0403 15:07:37.760447 14136 net.cpp:399] pool3/3x3_s2 -> pool3/3x3_s2
I0403 15:07:37.760524 14136 net.cpp:141] Setting up pool3/3x3_s2
I0403 15:07:37.760561 14136 net.cpp:148] Top shape: 24 480 14 14 (2257920)
I0403 15:07:37.760581 14136 net.cpp:156] Memory required for data: 818271264
I0403 15:07:37.760596 14136 layer_factory.hpp:77] Creating layer pool3/3x3_s2_pool3/3x3_s2_0_split
I0403 15:07:37.760617 14136 net.cpp:91] Creating Layer pool3/3x3_s2_pool3/3x3_s2_0_split
I0403 15:07:37.760633 14136 net.cpp:425] pool3/3x3_s2_pool3/3x3_s2_0_split <- pool3/3x3_s2
I0403 15:07:37.760653 14136 net.cpp:399] pool3/3x3_s2_pool3/3x3_s2_0_split -> pool3/3x3_s2_pool3/3x3_s2_0_split_0
I0403 15:07:37.760673 14136 net.cpp:399] pool3/3x3_s2_pool3/3x3_s2_0_split -> pool3/3x3_s2_pool3/3x3_s2_0_split_1
I0403 15:07:37.760694 14136 net.cpp:399] pool3/3x3_s2_pool3/3x3_s2_0_split -> pool3/3x3_s2_pool3/3x3_s2_0_split_2
I0403 15:07:37.760713 14136 net.cpp:399] pool3/3x3_s2_pool3/3x3_s2_0_split -> pool3/3x3_s2_pool3/3x3_s2_0_split_3
I0403 15:07:37.760792 14136 net.cpp:141] Setting up pool3/3x3_s2_pool3/3x3_s2_0_split
I0403 15:07:37.760818 14136 net.cpp:148] Top shape: 24 480 14 14 (2257920)
I0403 15:07:37.760836 14136 net.cpp:148] Top shape: 24 480 14 14 (2257920)
I0403 15:07:37.760853 14136 net.cpp:148] Top shape: 24 480 14 14 (2257920)
I0403 15:07:37.760869 14136 net.cpp:148] Top shape: 24 480 14 14 (2257920)
I0403 15:07:37.760881 14136 net.cpp:156] Memory required for data: 854397984
I0403 15:07:37.760896 14136 layer_factory.hpp:77] Creating layer inception_4a/1x1
I0403 15:07:37.760921 14136 net.cpp:91] Creating Layer inception_4a/1x1
I0403 15:07:37.760938 14136 net.cpp:425] inception_4a/1x1 <- pool3/3x3_s2_pool3/3x3_s2_0_split_0
I0403 15:07:37.760962 14136 net.cpp:399] inception_4a/1x1 -> inception_4a/1x1
I0403 15:07:37.762578 14136 net.cpp:141] Setting up inception_4a/1x1
I0403 15:07:37.762609 14136 net.cpp:148] Top shape: 24 192 14 14 (903168)
I0403 15:07:37.762626 14136 net.cpp:156] Memory required for data: 858010656
I0403 15:07:37.762645 14136 layer_factory.hpp:77] Creating layer inception_4a/relu_1x1
I0403 15:07:37.762663 14136 net.cpp:91] Creating Layer inception_4a/relu_1x1
I0403 15:07:37.762681 14136 net.cpp:425] inception_4a/relu_1x1 <- inception_4a/1x1
I0403 15:07:37.762699 14136 net.cpp:386] inception_4a/relu_1x1 -> inception_4a/1x1 (in-place)
I0403 15:07:37.762883 14136 net.cpp:141] Setting up inception_4a/relu_1x1
I0403 15:07:37.762909 14136 net.cpp:148] Top shape: 24 192 14 14 (903168)
I0403 15:07:37.762924 14136 net.cpp:156] Memory required for data: 861623328
I0403 15:07:37.762939 14136 layer_factory.hpp:77] Creating layer inception_4a/3x3_reduce
I0403 15:07:37.762962 14136 net.cpp:91] Creating Layer inception_4a/3x3_reduce
I0403 15:07:37.762981 14136 net.cpp:425] inception_4a/3x3_reduce <- pool3/3x3_s2_pool3/3x3_s2_0_split_1
I0403 15:07:37.763005 14136 net.cpp:399] inception_4a/3x3_reduce -> inception_4a/3x3_reduce
I0403 15:07:37.764317 14136 net.cpp:141] Setting up inception_4a/3x3_reduce
I0403 15:07:37.764348 14136 net.cpp:148] Top shape: 24 96 14 14 (451584)
I0403 15:07:37.764366 14136 net.cpp:156] Memory required for data: 863429664
I0403 15:07:37.764392 14136 layer_factory.hpp:77] Creating layer inception_4a/relu_3x3_reduce
I0403 15:07:37.764416 14136 net.cpp:91] Creating Layer inception_4a/relu_3x3_reduce
I0403 15:07:37.764433 14136 net.cpp:425] inception_4a/relu_3x3_reduce <- inception_4a/3x3_reduce
I0403 15:07:37.764451 14136 net.cpp:386] inception_4a/relu_3x3_reduce -> inception_4a/3x3_reduce (in-place)
I0403 15:07:37.764645 14136 net.cpp:141] Setting up inception_4a/relu_3x3_reduce
I0403 15:07:37.764685 14136 net.cpp:148] Top shape: 24 96 14 14 (451584)
I0403 15:07:37.764701 14136 net.cpp:156] Memory required for data: 865236000
I0403 15:07:37.764715 14136 layer_factory.hpp:77] Creating layer inception_4a/3x3
I0403 15:07:37.764750 14136 net.cpp:91] Creating Layer inception_4a/3x3
I0403 15:07:37.764767 14136 net.cpp:425] inception_4a/3x3 <- inception_4a/3x3_reduce
I0403 15:07:37.764788 14136 net.cpp:399] inception_4a/3x3 -> inception_4a/3x3
I0403 15:07:37.767482 14136 net.cpp:141] Setting up inception_4a/3x3
I0403 15:07:37.767511 14136 net.cpp:148] Top shape: 24 208 14 14 (978432)
I0403 15:07:37.767527 14136 net.cpp:156] Memory required for data: 869149728
I0403 15:07:37.767545 14136 layer_factory.hpp:77] Creating layer inception_4a/relu_3x3
I0403 15:07:37.767562 14136 net.cpp:91] Creating Layer inception_4a/relu_3x3
I0403 15:07:37.767585 14136 net.cpp:425] inception_4a/relu_3x3 <- inception_4a/3x3
I0403 15:07:37.767606 14136 net.cpp:386] inception_4a/relu_3x3 -> inception_4a/3x3 (in-place)
I0403 15:07:37.767884 14136 net.cpp:141] Setting up inception_4a/relu_3x3
I0403 15:07:37.767910 14136 net.cpp:148] Top shape: 24 208 14 14 (978432)
I0403 15:07:37.767925 14136 net.cpp:156] Memory required for data: 873063456
I0403 15:07:37.767940 14136 layer_factory.hpp:77] Creating layer inception_4a/5x5_reduce
I0403 15:07:37.767961 14136 net.cpp:91] Creating Layer inception_4a/5x5_reduce
I0403 15:07:37.767978 14136 net.cpp:425] inception_4a/5x5_reduce <- pool3/3x3_s2_pool3/3x3_s2_0_split_2
I0403 15:07:37.767999 14136 net.cpp:399] inception_4a/5x5_reduce -> inception_4a/5x5_reduce
I0403 15:07:37.769017 14136 net.cpp:141] Setting up inception_4a/5x5_reduce
I0403 15:07:37.769047 14136 net.cpp:148] Top shape: 24 16 14 14 (75264)
I0403 15:07:37.769062 14136 net.cpp:156] Memory required for data: 873364512
I0403 15:07:37.769081 14136 layer_factory.hpp:77] Creating layer inception_4a/relu_5x5_reduce
I0403 15:07:37.769101 14136 net.cpp:91] Creating Layer inception_4a/relu_5x5_reduce
I0403 15:07:37.769119 14136 net.cpp:425] inception_4a/relu_5x5_reduce <- inception_4a/5x5_reduce
I0403 15:07:37.769135 14136 net.cpp:386] inception_4a/relu_5x5_reduce -> inception_4a/5x5_reduce (in-place)
I0403 15:07:37.769309 14136 net.cpp:141] Setting up inception_4a/relu_5x5_reduce
I0403 15:07:37.769335 14136 net.cpp:148] Top shape: 24 16 14 14 (75264)
I0403 15:07:37.769353 14136 net.cpp:156] Memory required for data: 873665568
I0403 15:07:37.769368 14136 layer_factory.hpp:77] Creating layer inception_4a/5x5
I0403 15:07:37.769387 14136 net.cpp:91] Creating Layer inception_4a/5x5
I0403 15:07:37.769403 14136 net.cpp:425] inception_4a/5x5 <- inception_4a/5x5_reduce
I0403 15:07:37.769423 14136 net.cpp:399] inception_4a/5x5 -> inception_4a/5x5
I0403 15:07:37.770501 14136 net.cpp:141] Setting up inception_4a/5x5
I0403 15:07:37.770529 14136 net.cpp:148] Top shape: 24 48 14 14 (225792)
I0403 15:07:37.770544 14136 net.cpp:156] Memory required for data: 874568736
I0403 15:07:37.770562 14136 layer_factory.hpp:77] Creating layer inception_4a/relu_5x5
I0403 15:07:37.770587 14136 net.cpp:91] Creating Layer inception_4a/relu_5x5
I0403 15:07:37.770604 14136 net.cpp:425] inception_4a/relu_5x5 <- inception_4a/5x5
I0403 15:07:37.770622 14136 net.cpp:386] inception_4a/relu_5x5 -> inception_4a/5x5 (in-place)
I0403 15:07:37.770799 14136 net.cpp:141] Setting up inception_4a/relu_5x5
I0403 15:07:37.770824 14136 net.cpp:148] Top shape: 24 48 14 14 (225792)
I0403 15:07:37.770839 14136 net.cpp:156] Memory required for data: 875471904
I0403 15:07:37.770853 14136 layer_factory.hpp:77] Creating layer inception_4a/pool
I0403 15:07:37.770871 14136 net.cpp:91] Creating Layer inception_4a/pool
I0403 15:07:37.770887 14136 net.cpp:425] inception_4a/pool <- pool3/3x3_s2_pool3/3x3_s2_0_split_3
I0403 15:07:37.770910 14136 net.cpp:399] inception_4a/pool -> inception_4a/pool
I0403 15:07:37.770969 14136 net.cpp:141] Setting up inception_4a/pool
I0403 15:07:37.770992 14136 net.cpp:148] Top shape: 24 480 14 14 (2257920)
I0403 15:07:37.771008 14136 net.cpp:156] Memory required for data: 884503584
I0403 15:07:37.771021 14136 layer_factory.hpp:77] Creating layer inception_4a/pool_proj
I0403 15:07:37.771044 14136 net.cpp:91] Creating Layer inception_4a/pool_proj
I0403 15:07:37.771061 14136 net.cpp:425] inception_4a/pool_proj <- inception_4a/pool
I0403 15:07:37.771080 14136 net.cpp:399] inception_4a/pool_proj -> inception_4a/pool_proj
I0403 15:07:37.772240 14136 net.cpp:141] Setting up inception_4a/pool_proj
I0403 15:07:37.772274 14136 net.cpp:148] Top shape: 24 64 14 14 (301056)
I0403 15:07:37.772303 14136 net.cpp:156] Memory required for data: 885707808
I0403 15:07:37.772323 14136 layer_factory.hpp:77] Creating layer inception_4a/relu_pool_proj
I0403 15:07:37.772341 14136 net.cpp:91] Creating Layer inception_4a/relu_pool_proj
I0403 15:07:37.772357 14136 net.cpp:425] inception_4a/relu_pool_proj <- inception_4a/pool_proj
I0403 15:07:37.772377 14136 net.cpp:386] inception_4a/relu_pool_proj -> inception_4a/pool_proj (in-place)
I0403 15:07:37.772677 14136 net.cpp:141] Setting up inception_4a/relu_pool_proj
I0403 15:07:37.772706 14136 net.cpp:148] Top shape: 24 64 14 14 (301056)
I0403 15:07:37.772723 14136 net.cpp:156] Memory required for data: 886912032
I0403 15:07:37.772738 14136 layer_factory.hpp:77] Creating layer inception_4a/output
I0403 15:07:37.772756 14136 net.cpp:91] Creating Layer inception_4a/output
I0403 15:07:37.772773 14136 net.cpp:425] inception_4a/output <- inception_4a/1x1
I0403 15:07:37.772790 14136 net.cpp:425] inception_4a/output <- inception_4a/3x3
I0403 15:07:37.772806 14136 net.cpp:425] inception_4a/output <- inception_4a/5x5
I0403 15:07:37.772824 14136 net.cpp:425] inception_4a/output <- inception_4a/pool_proj
I0403 15:07:37.772840 14136 net.cpp:399] inception_4a/output -> inception_4a/output
I0403 15:07:37.772888 14136 net.cpp:141] Setting up inception_4a/output
I0403 15:07:37.772912 14136 net.cpp:148] Top shape: 24 512 14 14 (2408448)
I0403 15:07:37.772927 14136 net.cpp:156] Memory required for data: 896545824
I0403 15:07:37.772943 14136 layer_factory.hpp:77] Creating layer inception_4a/output_inception_4a/output_0_split
I0403 15:07:37.772963 14136 net.cpp:91] Creating Layer inception_4a/output_inception_4a/output_0_split
I0403 15:07:37.772979 14136 net.cpp:425] inception_4a/output_inception_4a/output_0_split <- inception_4a/output
I0403 15:07:37.772997 14136 net.cpp:399] inception_4a/output_inception_4a/output_0_split -> inception_4a/output_inception_4a/output_0_split_0
I0403 15:07:37.773018 14136 net.cpp:399] inception_4a/output_inception_4a/output_0_split -> inception_4a/output_inception_4a/output_0_split_1
I0403 15:07:37.773042 14136 net.cpp:399] inception_4a/output_inception_4a/output_0_split -> inception_4a/output_inception_4a/output_0_split_2
I0403 15:07:37.773064 14136 net.cpp:399] inception_4a/output_inception_4a/output_0_split -> inception_4a/output_inception_4a/output_0_split_3
I0403 15:07:37.773084 14136 net.cpp:399] inception_4a/output_inception_4a/output_0_split -> inception_4a/output_inception_4a/output_0_split_4
I0403 15:07:37.773178 14136 net.cpp:141] Setting up inception_4a/output_inception_4a/output_0_split
I0403 15:07:37.773202 14136 net.cpp:148] Top shape: 24 512 14 14 (2408448)
I0403 15:07:37.773219 14136 net.cpp:148] Top shape: 24 512 14 14 (2408448)
I0403 15:07:37.773234 14136 net.cpp:148] Top shape: 24 512 14 14 (2408448)
I0403 15:07:37.773250 14136 net.cpp:148] Top shape: 24 512 14 14 (2408448)
I0403 15:07:37.773268 14136 net.cpp:148] Top shape: 24 512 14 14 (2408448)
I0403 15:07:37.773283 14136 net.cpp:156] Memory required for data: 944714784
I0403 15:07:37.773296 14136 layer_factory.hpp:77] Creating layer loss1/ave_pool
I0403 15:07:37.773314 14136 net.cpp:91] Creating Layer loss1/ave_pool
I0403 15:07:37.773330 14136 net.cpp:425] loss1/ave_pool <- inception_4a/output_inception_4a/output_0_split_0
I0403 15:07:37.773351 14136 net.cpp:399] loss1/ave_pool -> loss1/ave_pool
I0403 15:07:37.773566 14136 net.cpp:141] Setting up loss1/ave_pool
I0403 15:07:37.773597 14136 net.cpp:148] Top shape: 24 512 4 4 (196608)
I0403 15:07:37.773613 14136 net.cpp:156] Memory required for data: 945501216
I0403 15:07:37.773629 14136 layer_factory.hpp:77] Creating layer loss1/conv
I0403 15:07:37.773651 14136 net.cpp:91] Creating Layer loss1/conv
I0403 15:07:37.773669 14136 net.cpp:425] loss1/conv <- loss1/ave_pool
I0403 15:07:37.773689 14136 net.cpp:399] loss1/conv -> loss1/conv
I0403 15:07:37.775130 14136 net.cpp:141] Setting up loss1/conv
I0403 15:07:37.775158 14136 net.cpp:148] Top shape: 24 128 4 4 (49152)
I0403 15:07:37.775173 14136 net.cpp:156] Memory required for data: 945697824
I0403 15:07:37.775207 14136 layer_factory.hpp:77] Creating layer loss1/relu_conv
I0403 15:07:37.775228 14136 net.cpp:91] Creating Layer loss1/relu_conv
I0403 15:07:37.775245 14136 net.cpp:425] loss1/relu_conv <- loss1/conv
I0403 15:07:37.775269 14136 net.cpp:386] loss1/relu_conv -> loss1/conv (in-place)
I0403 15:07:37.775553 14136 net.cpp:141] Setting up loss1/relu_conv
I0403 15:07:37.775599 14136 net.cpp:148] Top shape: 24 128 4 4 (49152)
I0403 15:07:37.775617 14136 net.cpp:156] Memory required for data: 945894432
I0403 15:07:37.775632 14136 layer_factory.hpp:77] Creating layer loss1/fc
I0403 15:07:37.775656 14136 net.cpp:91] Creating Layer loss1/fc
I0403 15:07:37.775677 14136 net.cpp:425] loss1/fc <- loss1/conv
I0403 15:07:37.775701 14136 net.cpp:399] loss1/fc -> loss1/fc
I0403 15:07:37.793272 14136 net.cpp:141] Setting up loss1/fc
I0403 15:07:37.793303 14136 net.cpp:148] Top shape: 24 1024 (24576)
I0403 15:07:37.793319 14136 net.cpp:156] Memory required for data: 945992736
I0403 15:07:37.793339 14136 layer_factory.hpp:77] Creating layer loss1/relu_fc
I0403 15:07:37.793356 14136 net.cpp:91] Creating Layer loss1/relu_fc
I0403 15:07:37.793373 14136 net.cpp:425] loss1/relu_fc <- loss1/fc
I0403 15:07:37.793390 14136 net.cpp:386] loss1/relu_fc -> loss1/fc (in-place)
I0403 15:07:37.793579 14136 net.cpp:141] Setting up loss1/relu_fc
I0403 15:07:37.793606 14136 net.cpp:148] Top shape: 24 1024 (24576)
I0403 15:07:37.793622 14136 net.cpp:156] Memory required for data: 946091040
I0403 15:07:37.793637 14136 layer_factory.hpp:77] Creating layer loss1/drop_fc
I0403 15:07:37.793661 14136 net.cpp:91] Creating Layer loss1/drop_fc
I0403 15:07:37.793678 14136 net.cpp:425] loss1/drop_fc <- loss1/fc
I0403 15:07:37.793697 14136 net.cpp:386] loss1/drop_fc -> loss1/fc (in-place)
I0403 15:07:37.793747 14136 net.cpp:141] Setting up loss1/drop_fc
I0403 15:07:37.793771 14136 net.cpp:148] Top shape: 24 1024 (24576)
I0403 15:07:37.793784 14136 net.cpp:156] Memory required for data: 946189344
I0403 15:07:37.793799 14136 layer_factory.hpp:77] Creating layer loss1/classifier_plantvillage
I0403 15:07:37.793823 14136 net.cpp:91] Creating Layer loss1/classifier_plantvillage
I0403 15:07:37.793840 14136 net.cpp:425] loss1/classifier_plantvillage <- loss1/fc
I0403 15:07:37.793872 14136 net.cpp:399] loss1/classifier_plantvillage -> loss1/classifier_plantvillage
I0403 15:07:37.794816 14136 net.cpp:141] Setting up loss1/classifier_plantvillage
I0403 15:07:37.794845 14136 net.cpp:148] Top shape: 24 38 (912)
I0403 15:07:37.794862 14136 net.cpp:156] Memory required for data: 946192992
I0403 15:07:37.794880 14136 layer_factory.hpp:77] Creating layer loss1/classifier_plantvillage_loss1/classifier_plantvillage_0_split
I0403 15:07:37.794900 14136 net.cpp:91] Creating Layer loss1/classifier_plantvillage_loss1/classifier_plantvillage_0_split
I0403 15:07:37.794929 14136 net.cpp:425] loss1/classifier_plantvillage_loss1/classifier_plantvillage_0_split <- loss1/classifier_plantvillage
I0403 15:07:37.794947 14136 net.cpp:399] loss1/classifier_plantvillage_loss1/classifier_plantvillage_0_split -> loss1/classifier_plantvillage_loss1/classifier_plantvillage_0_split_0
I0403 15:07:37.794968 14136 net.cpp:399] loss1/classifier_plantvillage_loss1/classifier_plantvillage_0_split -> loss1/classifier_plantvillage_loss1/classifier_plantvillage_0_split_1
I0403 15:07:37.794991 14136 net.cpp:399] loss1/classifier_plantvillage_loss1/classifier_plantvillage_0_split -> loss1/classifier_plantvillage_loss1/classifier_plantvillage_0_split_2
I0403 15:07:37.795055 14136 net.cpp:141] Setting up loss1/classifier_plantvillage_loss1/classifier_plantvillage_0_split
I0403 15:07:37.795078 14136 net.cpp:148] Top shape: 24 38 (912)
I0403 15:07:37.795094 14136 net.cpp:148] Top shape: 24 38 (912)
I0403 15:07:37.795109 14136 net.cpp:148] Top shape: 24 38 (912)
I0403 15:07:37.795122 14136 net.cpp:156] Memory required for data: 946203936
I0403 15:07:37.795136 14136 layer_factory.hpp:77] Creating layer inception_4b/1x1
I0403 15:07:37.795157 14136 net.cpp:91] Creating Layer inception_4b/1x1
I0403 15:07:37.795189 14136 net.cpp:425] inception_4b/1x1 <- inception_4a/output_inception_4a/output_0_split_1
I0403 15:07:37.795208 14136 net.cpp:399] inception_4b/1x1 -> inception_4b/1x1
I0403 15:07:37.796802 14136 net.cpp:141] Setting up inception_4b/1x1
I0403 15:07:37.796829 14136 net.cpp:148] Top shape: 24 160 14 14 (752640)
I0403 15:07:37.796845 14136 net.cpp:156] Memory required for data: 949214496
I0403 15:07:37.796864 14136 layer_factory.hpp:77] Creating layer inception_4b/relu_1x1
I0403 15:07:37.796881 14136 net.cpp:91] Creating Layer inception_4b/relu_1x1
I0403 15:07:37.796897 14136 net.cpp:425] inception_4b/relu_1x1 <- inception_4b/1x1
I0403 15:07:37.796917 14136 net.cpp:386] inception_4b/relu_1x1 -> inception_4b/1x1 (in-place)
I0403 15:07:37.797091 14136 net.cpp:141] Setting up inception_4b/relu_1x1
I0403 15:07:37.797116 14136 net.cpp:148] Top shape: 24 160 14 14 (752640)
I0403 15:07:37.797130 14136 net.cpp:156] Memory required for data: 952225056
I0403 15:07:37.797144 14136 layer_factory.hpp:77] Creating layer inception_4b/3x3_reduce
I0403 15:07:37.797166 14136 net.cpp:91] Creating Layer inception_4b/3x3_reduce
I0403 15:07:37.797183 14136 net.cpp:425] inception_4b/3x3_reduce <- inception_4a/output_inception_4a/output_0_split_2
I0403 15:07:37.797205 14136 net.cpp:399] inception_4b/3x3_reduce -> inception_4b/3x3_reduce
I0403 15:07:37.798527 14136 net.cpp:141] Setting up inception_4b/3x3_reduce
I0403 15:07:37.798554 14136 net.cpp:148] Top shape: 24 112 14 14 (526848)
I0403 15:07:37.798575 14136 net.cpp:156] Memory required for data: 954332448
I0403 15:07:37.798596 14136 layer_factory.hpp:77] Creating layer inception_4b/relu_3x3_reduce
I0403 15:07:37.798615 14136 net.cpp:91] Creating Layer inception_4b/relu_3x3_reduce
I0403 15:07:37.798635 14136 net.cpp:425] inception_4b/relu_3x3_reduce <- inception_4b/3x3_reduce
I0403 15:07:37.798651 14136 net.cpp:386] inception_4b/relu_3x3_reduce -> inception_4b/3x3_reduce (in-place)
I0403 15:07:37.798930 14136 net.cpp:141] Setting up inception_4b/relu_3x3_reduce
I0403 15:07:37.798956 14136 net.cpp:148] Top shape: 24 112 14 14 (526848)
I0403 15:07:37.798971 14136 net.cpp:156] Memory required for data: 956439840
I0403 15:07:37.798985 14136 layer_factory.hpp:77] Creating layer inception_4b/3x3
I0403 15:07:37.799007 14136 net.cpp:91] Creating Layer inception_4b/3x3
I0403 15:07:37.799024 14136 net.cpp:425] inception_4b/3x3 <- inception_4b/3x3_reduce
I0403 15:07:37.799044 14136 net.cpp:399] inception_4b/3x3 -> inception_4b/3x3
I0403 15:07:37.801910 14136 net.cpp:141] Setting up inception_4b/3x3
I0403 15:07:37.801940 14136 net.cpp:148] Top shape: 24 224 14 14 (1053696)
I0403 15:07:37.801956 14136 net.cpp:156] Memory required for data: 960654624
I0403 15:07:37.801975 14136 layer_factory.hpp:77] Creating layer inception_4b/relu_3x3
I0403 15:07:37.801991 14136 net.cpp:91] Creating Layer inception_4b/relu_3x3
I0403 15:07:37.802007 14136 net.cpp:425] inception_4b/relu_3x3 <- inception_4b/3x3
I0403 15:07:37.802026 14136 net.cpp:386] inception_4b/relu_3x3 -> inception_4b/3x3 (in-place)
I0403 15:07:37.802202 14136 net.cpp:141] Setting up inception_4b/relu_3x3
I0403 15:07:37.802227 14136 net.cpp:148] Top shape: 24 224 14 14 (1053696)
I0403 15:07:37.802240 14136 net.cpp:156] Memory required for data: 964869408
I0403 15:07:37.802254 14136 layer_factory.hpp:77] Creating layer inception_4b/5x5_reduce
I0403 15:07:37.802278 14136 net.cpp:91] Creating Layer inception_4b/5x5_reduce
I0403 15:07:37.802295 14136 net.cpp:425] inception_4b/5x5_reduce <- inception_4a/output_inception_4a/output_0_split_3
I0403 15:07:37.802317 14136 net.cpp:399] inception_4b/5x5_reduce -> inception_4b/5x5_reduce
I0403 15:07:37.803367 14136 net.cpp:141] Setting up inception_4b/5x5_reduce
I0403 15:07:37.803395 14136 net.cpp:148] Top shape: 24 24 14 14 (112896)
I0403 15:07:37.803412 14136 net.cpp:156] Memory required for data: 965320992
I0403 15:07:37.803431 14136 layer_factory.hpp:77] Creating layer inception_4b/relu_5x5_reduce
I0403 15:07:37.803450 14136 net.cpp:91] Creating Layer inception_4b/relu_5x5_reduce
I0403 15:07:37.803480 14136 net.cpp:425] inception_4b/relu_5x5_reduce <- inception_4b/5x5_reduce
I0403 15:07:37.803499 14136 net.cpp:386] inception_4b/relu_5x5_reduce -> inception_4b/5x5_reduce (in-place)
I0403 15:07:37.803680 14136 net.cpp:141] Setting up inception_4b/relu_5x5_reduce
I0403 15:07:37.803705 14136 net.cpp:148] Top shape: 24 24 14 14 (112896)
I0403 15:07:37.803719 14136 net.cpp:156] Memory required for data: 965772576
I0403 15:07:37.803733 14136 layer_factory.hpp:77] Creating layer inception_4b/5x5
I0403 15:07:37.803755 14136 net.cpp:91] Creating Layer inception_4b/5x5
I0403 15:07:37.803771 14136 net.cpp:425] inception_4b/5x5 <- inception_4b/5x5_reduce
I0403 15:07:37.803791 14136 net.cpp:399] inception_4b/5x5 -> inception_4b/5x5
I0403 15:07:37.804980 14136 net.cpp:141] Setting up inception_4b/5x5
I0403 15:07:37.805006 14136 net.cpp:148] Top shape: 24 64 14 14 (301056)
I0403 15:07:37.805022 14136 net.cpp:156] Memory required for data: 966976800
I0403 15:07:37.805042 14136 layer_factory.hpp:77] Creating layer inception_4b/relu_5x5
I0403 15:07:37.805058 14136 net.cpp:91] Creating Layer inception_4b/relu_5x5
I0403 15:07:37.805074 14136 net.cpp:425] inception_4b/relu_5x5 <- inception_4b/5x5
I0403 15:07:37.805094 14136 net.cpp:386] inception_4b/relu_5x5 -> inception_4b/5x5 (in-place)
I0403 15:07:37.805369 14136 net.cpp:141] Setting up inception_4b/relu_5x5
I0403 15:07:37.805395 14136 net.cpp:148] Top shape: 24 64 14 14 (301056)
I0403 15:07:37.805409 14136 net.cpp:156] Memory required for data: 968181024
I0403 15:07:37.805424 14136 layer_factory.hpp:77] Creating layer inception_4b/pool
I0403 15:07:37.805441 14136 net.cpp:91] Creating Layer inception_4b/pool
I0403 15:07:37.805457 14136 net.cpp:425] inception_4b/pool <- inception_4a/output_inception_4a/output_0_split_4
I0403 15:07:37.805479 14136 net.cpp:399] inception_4b/pool -> inception_4b/pool
I0403 15:07:37.805541 14136 net.cpp:141] Setting up inception_4b/pool
I0403 15:07:37.805563 14136 net.cpp:148] Top shape: 24 512 14 14 (2408448)
I0403 15:07:37.805583 14136 net.cpp:156] Memory required for data: 977814816
I0403 15:07:37.805598 14136 layer_factory.hpp:77] Creating layer inception_4b/pool_proj
I0403 15:07:37.805620 14136 net.cpp:91] Creating Layer inception_4b/pool_proj
I0403 15:07:37.805636 14136 net.cpp:425] inception_4b/pool_proj <- inception_4b/pool
I0403 15:07:37.805655 14136 net.cpp:399] inception_4b/pool_proj -> inception_4b/pool_proj
I0403 15:07:37.806823 14136 net.cpp:141] Setting up inception_4b/pool_proj
I0403 15:07:37.806850 14136 net.cpp:148] Top shape: 24 64 14 14 (301056)
I0403 15:07:37.806866 14136 net.cpp:156] Memory required for data: 979019040
I0403 15:07:37.806885 14136 layer_factory.hpp:77] Creating layer inception_4b/relu_pool_proj
I0403 15:07:37.806905 14136 net.cpp:91] Creating Layer inception_4b/relu_pool_proj
I0403 15:07:37.806921 14136 net.cpp:425] inception_4b/relu_pool_proj <- inception_4b/pool_proj
I0403 15:07:37.806938 14136 net.cpp:386] inception_4b/relu_pool_proj -> inception_4b/pool_proj (in-place)
I0403 15:07:37.807112 14136 net.cpp:141] Setting up inception_4b/relu_pool_proj
I0403 15:07:37.807138 14136 net.cpp:148] Top shape: 24 64 14 14 (301056)
I0403 15:07:37.807153 14136 net.cpp:156] Memory required for data: 980223264
I0403 15:07:37.807168 14136 layer_factory.hpp:77] Creating layer inception_4b/output
I0403 15:07:37.807183 14136 net.cpp:91] Creating Layer inception_4b/output
I0403 15:07:37.807199 14136 net.cpp:425] inception_4b/output <- inception_4b/1x1
I0403 15:07:37.807214 14136 net.cpp:425] inception_4b/output <- inception_4b/3x3
I0403 15:07:37.807229 14136 net.cpp:425] inception_4b/output <- inception_4b/5x5
I0403 15:07:37.807245 14136 net.cpp:425] inception_4b/output <- inception_4b/pool_proj
I0403 15:07:37.807262 14136 net.cpp:399] inception_4b/output -> inception_4b/output
I0403 15:07:37.807307 14136 net.cpp:141] Setting up inception_4b/output
I0403 15:07:37.807329 14136 net.cpp:148] Top shape: 24 512 14 14 (2408448)
I0403 15:07:37.807343 14136 net.cpp:156] Memory required for data: 989857056
I0403 15:07:37.807371 14136 layer_factory.hpp:77] Creating layer inception_4b/output_inception_4b/output_0_split
I0403 15:07:37.807389 14136 net.cpp:91] Creating Layer inception_4b/output_inception_4b/output_0_split
I0403 15:07:37.807407 14136 net.cpp:425] inception_4b/output_inception_4b/output_0_split <- inception_4b/output
I0403 15:07:37.807425 14136 net.cpp:399] inception_4b/output_inception_4b/output_0_split -> inception_4b/output_inception_4b/output_0_split_0
I0403 15:07:37.807443 14136 net.cpp:399] inception_4b/output_inception_4b/output_0_split -> inception_4b/output_inception_4b/output_0_split_1
I0403 15:07:37.807463 14136 net.cpp:399] inception_4b/output_inception_4b/output_0_split -> inception_4b/output_inception_4b/output_0_split_2
I0403 15:07:37.807483 14136 net.cpp:399] inception_4b/output_inception_4b/output_0_split -> inception_4b/output_inception_4b/output_0_split_3
I0403 15:07:37.807565 14136 net.cpp:141] Setting up inception_4b/output_inception_4b/output_0_split
I0403 15:07:37.807591 14136 net.cpp:148] Top shape: 24 512 14 14 (2408448)
I0403 15:07:37.807607 14136 net.cpp:148] Top shape: 24 512 14 14 (2408448)
I0403 15:07:37.807621 14136 net.cpp:148] Top shape: 24 512 14 14 (2408448)
I0403 15:07:37.807636 14136 net.cpp:148] Top shape: 24 512 14 14 (2408448)
I0403 15:07:37.807651 14136 net.cpp:156] Memory required for data: 1028392224
I0403 15:07:37.807664 14136 layer_factory.hpp:77] Creating layer inception_4c/1x1
I0403 15:07:37.807685 14136 net.cpp:91] Creating Layer inception_4c/1x1
I0403 15:07:37.807701 14136 net.cpp:425] inception_4c/1x1 <- inception_4b/output_inception_4b/output_0_split_0
I0403 15:07:37.807723 14136 net.cpp:399] inception_4c/1x1 -> inception_4c/1x1
I0403 15:07:37.809139 14136 net.cpp:141] Setting up inception_4c/1x1
I0403 15:07:37.809170 14136 net.cpp:148] Top shape: 24 128 14 14 (602112)
I0403 15:07:37.809186 14136 net.cpp:156] Memory required for data: 1030800672
I0403 15:07:37.809204 14136 layer_factory.hpp:77] Creating layer inception_4c/relu_1x1
I0403 15:07:37.809222 14136 net.cpp:91] Creating Layer inception_4c/relu_1x1
I0403 15:07:37.809239 14136 net.cpp:425] inception_4c/relu_1x1 <- inception_4c/1x1
I0403 15:07:37.809257 14136 net.cpp:386] inception_4c/relu_1x1 -> inception_4c/1x1 (in-place)
I0403 15:07:37.809440 14136 net.cpp:141] Setting up inception_4c/relu_1x1
I0403 15:07:37.809464 14136 net.cpp:148] Top shape: 24 128 14 14 (602112)
I0403 15:07:37.809479 14136 net.cpp:156] Memory required for data: 1033209120
I0403 15:07:37.809494 14136 layer_factory.hpp:77] Creating layer inception_4c/3x3_reduce
I0403 15:07:37.809516 14136 net.cpp:91] Creating Layer inception_4c/3x3_reduce
I0403 15:07:37.809533 14136 net.cpp:425] inception_4c/3x3_reduce <- inception_4b/output_inception_4b/output_0_split_1
I0403 15:07:37.809556 14136 net.cpp:399] inception_4c/3x3_reduce -> inception_4c/3x3_reduce
I0403 15:07:37.811534 14136 net.cpp:141] Setting up inception_4c/3x3_reduce
I0403 15:07:37.811563 14136 net.cpp:148] Top shape: 24 128 14 14 (602112)
I0403 15:07:37.811583 14136 net.cpp:156] Memory required for data: 1035617568
I0403 15:07:37.811602 14136 layer_factory.hpp:77] Creating layer inception_4c/relu_3x3_reduce
I0403 15:07:37.811622 14136 net.cpp:91] Creating Layer inception_4c/relu_3x3_reduce
I0403 15:07:37.811640 14136 net.cpp:425] inception_4c/relu_3x3_reduce <- inception_4c/3x3_reduce
I0403 15:07:37.811656 14136 net.cpp:386] inception_4c/relu_3x3_reduce -> inception_4c/3x3_reduce (in-place)
I0403 15:07:37.811944 14136 net.cpp:141] Setting up inception_4c/relu_3x3_reduce
I0403 15:07:37.811969 14136 net.cpp:148] Top shape: 24 128 14 14 (602112)
I0403 15:07:37.811985 14136 net.cpp:156] Memory required for data: 1038026016
I0403 15:07:37.811998 14136 layer_factory.hpp:77] Creating layer inception_4c/3x3
I0403 15:07:37.812021 14136 net.cpp:91] Creating Layer inception_4c/3x3
I0403 15:07:37.812038 14136 net.cpp:425] inception_4c/3x3 <- inception_4c/3x3_reduce
I0403 15:07:37.812060 14136 net.cpp:399] inception_4c/3x3 -> inception_4c/3x3
I0403 15:07:37.815657 14136 net.cpp:141] Setting up inception_4c/3x3
I0403 15:07:37.815699 14136 net.cpp:148] Top shape: 24 256 14 14 (1204224)
I0403 15:07:37.815716 14136 net.cpp:156] Memory required for data: 1042842912
I0403 15:07:37.815747 14136 layer_factory.hpp:77] Creating layer inception_4c/relu_3x3
I0403 15:07:37.815770 14136 net.cpp:91] Creating Layer inception_4c/relu_3x3
I0403 15:07:37.815788 14136 net.cpp:425] inception_4c/relu_3x3 <- inception_4c/3x3
I0403 15:07:37.815804 14136 net.cpp:386] inception_4c/relu_3x3 -> inception_4c/3x3 (in-place)
I0403 15:07:37.815984 14136 net.cpp:141] Setting up inception_4c/relu_3x3
I0403 15:07:37.816009 14136 net.cpp:148] Top shape: 24 256 14 14 (1204224)
I0403 15:07:37.816023 14136 net.cpp:156] Memory required for data: 1047659808
I0403 15:07:37.816037 14136 layer_factory.hpp:77] Creating layer inception_4c/5x5_reduce
I0403 15:07:37.816059 14136 net.cpp:91] Creating Layer inception_4c/5x5_reduce
I0403 15:07:37.816077 14136 net.cpp:425] inception_4c/5x5_reduce <- inception_4b/output_inception_4b/output_0_split_2
I0403 15:07:37.816098 14136 net.cpp:399] inception_4c/5x5_reduce -> inception_4c/5x5_reduce
I0403 15:07:37.817191 14136 net.cpp:141] Setting up inception_4c/5x5_reduce
I0403 15:07:37.817220 14136 net.cpp:148] Top shape: 24 24 14 14 (112896)
I0403 15:07:37.817235 14136 net.cpp:156] Memory required for data: 1048111392
I0403 15:07:37.817253 14136 layer_factory.hpp:77] Creating layer inception_4c/relu_5x5_reduce
I0403 15:07:37.817273 14136 net.cpp:91] Creating Layer inception_4c/relu_5x5_reduce
I0403 15:07:37.817291 14136 net.cpp:425] inception_4c/relu_5x5_reduce <- inception_4c/5x5_reduce
I0403 15:07:37.817306 14136 net.cpp:386] inception_4c/relu_5x5_reduce -> inception_4c/5x5_reduce (in-place)
I0403 15:07:37.817488 14136 net.cpp:141] Setting up inception_4c/relu_5x5_reduce
I0403 15:07:37.817513 14136 net.cpp:148] Top shape: 24 24 14 14 (112896)
I0403 15:07:37.817528 14136 net.cpp:156] Memory required for data: 1048562976
I0403 15:07:37.817543 14136 layer_factory.hpp:77] Creating layer inception_4c/5x5
I0403 15:07:37.817566 14136 net.cpp:91] Creating Layer inception_4c/5x5
I0403 15:07:37.817589 14136 net.cpp:425] inception_4c/5x5 <- inception_4c/5x5_reduce
I0403 15:07:37.817607 14136 net.cpp:399] inception_4c/5x5 -> inception_4c/5x5
I0403 15:07:37.818850 14136 net.cpp:141] Setting up inception_4c/5x5
I0403 15:07:37.818879 14136 net.cpp:148] Top shape: 24 64 14 14 (301056)
I0403 15:07:37.818897 14136 net.cpp:156] Memory required for data: 1049767200
I0403 15:07:37.818914 14136 layer_factory.hpp:77] Creating layer inception_4c/relu_5x5
I0403 15:07:37.818933 14136 net.cpp:91] Creating Layer inception_4c/relu_5x5
I0403 15:07:37.818948 14136 net.cpp:425] inception_4c/relu_5x5 <- inception_4c/5x5
I0403 15:07:37.818965 14136 net.cpp:386] inception_4c/relu_5x5 -> inception_4c/5x5 (in-place)
I0403 15:07:37.819253 14136 net.cpp:141] Setting up inception_4c/relu_5x5
I0403 15:07:37.819283 14136 net.cpp:148] Top shape: 24 64 14 14 (301056)
I0403 15:07:37.819299 14136 net.cpp:156] Memory required for data: 1050971424
I0403 15:07:37.819314 14136 layer_factory.hpp:77] Creating layer inception_4c/pool
I0403 15:07:37.819331 14136 net.cpp:91] Creating Layer inception_4c/pool
I0403 15:07:37.819347 14136 net.cpp:425] inception_4c/pool <- inception_4b/output_inception_4b/output_0_split_3
I0403 15:07:37.819365 14136 net.cpp:399] inception_4c/pool -> inception_4c/pool
I0403 15:07:37.819430 14136 net.cpp:141] Setting up inception_4c/pool
I0403 15:07:37.819454 14136 net.cpp:148] Top shape: 24 512 14 14 (2408448)
I0403 15:07:37.819468 14136 net.cpp:156] Memory required for data: 1060605216
I0403 15:07:37.819483 14136 layer_factory.hpp:77] Creating layer inception_4c/pool_proj
I0403 15:07:37.819504 14136 net.cpp:91] Creating Layer inception_4c/pool_proj
I0403 15:07:37.819521 14136 net.cpp:425] inception_4c/pool_proj <- inception_4c/pool
I0403 15:07:37.819542 14136 net.cpp:399] inception_4c/pool_proj -> inception_4c/pool_proj
I0403 15:07:37.820770 14136 net.cpp:141] Setting up inception_4c/pool_proj
I0403 15:07:37.820798 14136 net.cpp:148] Top shape: 24 64 14 14 (301056)
I0403 15:07:37.820828 14136 net.cpp:156] Memory required for data: 1061809440
I0403 15:07:37.820848 14136 layer_factory.hpp:77] Creating layer inception_4c/relu_pool_proj
I0403 15:07:37.820870 14136 net.cpp:91] Creating Layer inception_4c/relu_pool_proj
I0403 15:07:37.820888 14136 net.cpp:425] inception_4c/relu_pool_proj <- inception_4c/pool_proj
I0403 15:07:37.820904 14136 net.cpp:386] inception_4c/relu_pool_proj -> inception_4c/pool_proj (in-place)
I0403 15:07:37.821087 14136 net.cpp:141] Setting up inception_4c/relu_pool_proj
I0403 15:07:37.821115 14136 net.cpp:148] Top shape: 24 64 14 14 (301056)
I0403 15:07:37.821130 14136 net.cpp:156] Memory required for data: 1063013664
I0403 15:07:37.821144 14136 layer_factory.hpp:77] Creating layer inception_4c/output
I0403 15:07:37.821161 14136 net.cpp:91] Creating Layer inception_4c/output
I0403 15:07:37.821177 14136 net.cpp:425] inception_4c/output <- inception_4c/1x1
I0403 15:07:37.821192 14136 net.cpp:425] inception_4c/output <- inception_4c/3x3
I0403 15:07:37.821208 14136 net.cpp:425] inception_4c/output <- inception_4c/5x5
I0403 15:07:37.821223 14136 net.cpp:425] inception_4c/output <- inception_4c/pool_proj
I0403 15:07:37.821240 14136 net.cpp:399] inception_4c/output -> inception_4c/output
I0403 15:07:37.821288 14136 net.cpp:141] Setting up inception_4c/output
I0403 15:07:37.821310 14136 net.cpp:148] Top shape: 24 512 14 14 (2408448)
I0403 15:07:37.821324 14136 net.cpp:156] Memory required for data: 1072647456
I0403 15:07:37.821338 14136 layer_factory.hpp:77] Creating layer inception_4c/output_inception_4c/output_0_split
I0403 15:07:37.821354 14136 net.cpp:91] Creating Layer inception_4c/output_inception_4c/output_0_split
I0403 15:07:37.821370 14136 net.cpp:425] inception_4c/output_inception_4c/output_0_split <- inception_4c/output
I0403 15:07:37.821389 14136 net.cpp:399] inception_4c/output_inception_4c/output_0_split -> inception_4c/output_inception_4c/output_0_split_0
I0403 15:07:37.821410 14136 net.cpp:399] inception_4c/output_inception_4c/output_0_split -> inception_4c/output_inception_4c/output_0_split_1
I0403 15:07:37.821430 14136 net.cpp:399] inception_4c/output_inception_4c/output_0_split -> inception_4c/output_inception_4c/output_0_split_2
I0403 15:07:37.821450 14136 net.cpp:399] inception_4c/output_inception_4c/output_0_split -> inception_4c/output_inception_4c/output_0_split_3
I0403 15:07:37.821534 14136 net.cpp:141] Setting up inception_4c/output_inception_4c/output_0_split
I0403 15:07:37.821557 14136 net.cpp:148] Top shape: 24 512 14 14 (2408448)
I0403 15:07:37.821578 14136 net.cpp:148] Top shape: 24 512 14 14 (2408448)
I0403 15:07:37.821595 14136 net.cpp:148] Top shape: 24 512 14 14 (2408448)
I0403 15:07:37.821610 14136 net.cpp:148] Top shape: 24 512 14 14 (2408448)
I0403 15:07:37.821624 14136 net.cpp:156] Memory required for data: 1111182624
I0403 15:07:37.821638 14136 layer_factory.hpp:77] Creating layer inception_4d/1x1
I0403 15:07:37.821660 14136 net.cpp:91] Creating Layer inception_4d/1x1
I0403 15:07:37.821678 14136 net.cpp:425] inception_4d/1x1 <- inception_4c/output_inception_4c/output_0_split_0
I0403 15:07:37.821699 14136 net.cpp:399] inception_4d/1x1 -> inception_4d/1x1
I0403 15:07:37.823091 14136 net.cpp:141] Setting up inception_4d/1x1
I0403 15:07:37.823118 14136 net.cpp:148] Top shape: 24 112 14 14 (526848)
I0403 15:07:37.823133 14136 net.cpp:156] Memory required for data: 1113290016
I0403 15:07:37.823151 14136 layer_factory.hpp:77] Creating layer inception_4d/relu_1x1
I0403 15:07:37.823169 14136 net.cpp:91] Creating Layer inception_4d/relu_1x1
I0403 15:07:37.823185 14136 net.cpp:425] inception_4d/relu_1x1 <- inception_4d/1x1
I0403 15:07:37.823204 14136 net.cpp:386] inception_4d/relu_1x1 -> inception_4d/1x1 (in-place)
I0403 15:07:37.823386 14136 net.cpp:141] Setting up inception_4d/relu_1x1
I0403 15:07:37.823410 14136 net.cpp:148] Top shape: 24 112 14 14 (526848)
I0403 15:07:37.823426 14136 net.cpp:156] Memory required for data: 1115397408
I0403 15:07:37.823441 14136 layer_factory.hpp:77] Creating layer inception_4d/3x3_reduce
I0403 15:07:37.823477 14136 net.cpp:91] Creating Layer inception_4d/3x3_reduce
I0403 15:07:37.823495 14136 net.cpp:425] inception_4d/3x3_reduce <- inception_4c/output_inception_4c/output_0_split_1
I0403 15:07:37.823518 14136 net.cpp:399] inception_4d/3x3_reduce -> inception_4d/3x3_reduce
I0403 15:07:37.825073 14136 net.cpp:141] Setting up inception_4d/3x3_reduce
I0403 15:07:37.825103 14136 net.cpp:148] Top shape: 24 144 14 14 (677376)
I0403 15:07:37.825119 14136 net.cpp:156] Memory required for data: 1118106912
I0403 15:07:37.825140 14136 layer_factory.hpp:77] Creating layer inception_4d/relu_3x3_reduce
I0403 15:07:37.825160 14136 net.cpp:91] Creating Layer inception_4d/relu_3x3_reduce
I0403 15:07:37.825176 14136 net.cpp:425] inception_4d/relu_3x3_reduce <- inception_4d/3x3_reduce
I0403 15:07:37.825194 14136 net.cpp:386] inception_4d/relu_3x3_reduce -> inception_4d/3x3_reduce (in-place)
I0403 15:07:37.825495 14136 net.cpp:141] Setting up inception_4d/relu_3x3_reduce
I0403 15:07:37.825525 14136 net.cpp:148] Top shape: 24 144 14 14 (677376)
I0403 15:07:37.825541 14136 net.cpp:156] Memory required for data: 1120816416
I0403 15:07:37.825556 14136 layer_factory.hpp:77] Creating layer inception_4d/3x3
I0403 15:07:37.825585 14136 net.cpp:91] Creating Layer inception_4d/3x3
I0403 15:07:37.825604 14136 net.cpp:425] inception_4d/3x3 <- inception_4d/3x3_reduce
I0403 15:07:37.825623 14136 net.cpp:399] inception_4d/3x3 -> inception_4d/3x3
I0403 15:07:37.829984 14136 net.cpp:141] Setting up inception_4d/3x3
I0403 15:07:37.830013 14136 net.cpp:148] Top shape: 24 288 14 14 (1354752)
I0403 15:07:37.830029 14136 net.cpp:156] Memory required for data: 1126235424
I0403 15:07:37.830049 14136 layer_factory.hpp:77] Creating layer inception_4d/relu_3x3
I0403 15:07:37.830066 14136 net.cpp:91] Creating Layer inception_4d/relu_3x3
I0403 15:07:37.830082 14136 net.cpp:425] inception_4d/relu_3x3 <- inception_4d/3x3
I0403 15:07:37.830102 14136 net.cpp:386] inception_4d/relu_3x3 -> inception_4d/3x3 (in-place)
I0403 15:07:37.830289 14136 net.cpp:141] Setting up inception_4d/relu_3x3
I0403 15:07:37.830315 14136 net.cpp:148] Top shape: 24 288 14 14 (1354752)
I0403 15:07:37.830330 14136 net.cpp:156] Memory required for data: 1131654432
I0403 15:07:37.830345 14136 layer_factory.hpp:77] Creating layer inception_4d/5x5_reduce
I0403 15:07:37.830368 14136 net.cpp:91] Creating Layer inception_4d/5x5_reduce
I0403 15:07:37.830385 14136 net.cpp:425] inception_4d/5x5_reduce <- inception_4c/output_inception_4c/output_0_split_2
I0403 15:07:37.830406 14136 net.cpp:399] inception_4d/5x5_reduce -> inception_4d/5x5_reduce
I0403 15:07:37.831595 14136 net.cpp:141] Setting up inception_4d/5x5_reduce
I0403 15:07:37.831624 14136 net.cpp:148] Top shape: 24 32 14 14 (150528)
I0403 15:07:37.831640 14136 net.cpp:156] Memory required for data: 1132256544
I0403 15:07:37.831658 14136 layer_factory.hpp:77] Creating layer inception_4d/relu_5x5_reduce
I0403 15:07:37.831677 14136 net.cpp:91] Creating Layer inception_4d/relu_5x5_reduce
I0403 15:07:37.831693 14136 net.cpp:425] inception_4d/relu_5x5_reduce <- inception_4d/5x5_reduce
I0403 15:07:37.831713 14136 net.cpp:386] inception_4d/relu_5x5_reduce -> inception_4d/5x5_reduce (in-place)
I0403 15:07:37.831907 14136 net.cpp:141] Setting up inception_4d/relu_5x5_reduce
I0403 15:07:37.831933 14136 net.cpp:148] Top shape: 24 32 14 14 (150528)
I0403 15:07:37.831948 14136 net.cpp:156] Memory required for data: 1132858656
I0403 15:07:37.831964 14136 layer_factory.hpp:77] Creating layer inception_4d/5x5
I0403 15:07:37.831986 14136 net.cpp:91] Creating Layer inception_4d/5x5
I0403 15:07:37.832005 14136 net.cpp:425] inception_4d/5x5 <- inception_4d/5x5_reduce
I0403 15:07:37.832026 14136 net.cpp:399] inception_4d/5x5 -> inception_4d/5x5
I0403 15:07:37.833555 14136 net.cpp:141] Setting up inception_4d/5x5
I0403 15:07:37.833587 14136 net.cpp:148] Top shape: 24 64 14 14 (301056)
I0403 15:07:37.833605 14136 net.cpp:156] Memory required for data: 1134062880
I0403 15:07:37.833623 14136 layer_factory.hpp:77] Creating layer inception_4d/relu_5x5
I0403 15:07:37.833660 14136 net.cpp:91] Creating Layer inception_4d/relu_5x5
I0403 15:07:37.833679 14136 net.cpp:425] inception_4d/relu_5x5 <- inception_4d/5x5
I0403 15:07:37.833696 14136 net.cpp:386] inception_4d/relu_5x5 -> inception_4d/5x5 (in-place)
I0403 15:07:37.834005 14136 net.cpp:141] Setting up inception_4d/relu_5x5
I0403 15:07:37.834033 14136 net.cpp:148] Top shape: 24 64 14 14 (301056)
I0403 15:07:37.834048 14136 net.cpp:156] Memory required for data: 1135267104
I0403 15:07:37.834063 14136 layer_factory.hpp:77] Creating layer inception_4d/pool
I0403 15:07:37.834084 14136 net.cpp:91] Creating Layer inception_4d/pool
I0403 15:07:37.834101 14136 net.cpp:425] inception_4d/pool <- inception_4c/output_inception_4c/output_0_split_3
I0403 15:07:37.834120 14136 net.cpp:399] inception_4d/pool -> inception_4d/pool
I0403 15:07:37.834189 14136 net.cpp:141] Setting up inception_4d/pool
I0403 15:07:37.834213 14136 net.cpp:148] Top shape: 24 512 14 14 (2408448)
I0403 15:07:37.834228 14136 net.cpp:156] Memory required for data: 1144900896
I0403 15:07:37.834244 14136 layer_factory.hpp:77] Creating layer inception_4d/pool_proj
I0403 15:07:37.834269 14136 net.cpp:91] Creating Layer inception_4d/pool_proj
I0403 15:07:37.834286 14136 net.cpp:425] inception_4d/pool_proj <- inception_4d/pool
I0403 15:07:37.834308 14136 net.cpp:399] inception_4d/pool_proj -> inception_4d/pool_proj
I0403 15:07:37.836127 14136 net.cpp:141] Setting up inception_4d/pool_proj
I0403 15:07:37.836158 14136 net.cpp:148] Top shape: 24 64 14 14 (301056)
I0403 15:07:37.836172 14136 net.cpp:156] Memory required for data: 1146105120
I0403 15:07:37.836191 14136 layer_factory.hpp:77] Creating layer inception_4d/relu_pool_proj
I0403 15:07:37.836210 14136 net.cpp:91] Creating Layer inception_4d/relu_pool_proj
I0403 15:07:37.836225 14136 net.cpp:425] inception_4d/relu_pool_proj <- inception_4d/pool_proj
I0403 15:07:37.836246 14136 net.cpp:386] inception_4d/relu_pool_proj -> inception_4d/pool_proj (in-place)
I0403 15:07:37.836439 14136 net.cpp:141] Setting up inception_4d/relu_pool_proj
I0403 15:07:37.836464 14136 net.cpp:148] Top shape: 24 64 14 14 (301056)
I0403 15:07:37.836479 14136 net.cpp:156] Memory required for data: 1147309344
I0403 15:07:37.836494 14136 layer_factory.hpp:77] Creating layer inception_4d/output
I0403 15:07:37.836511 14136 net.cpp:91] Creating Layer inception_4d/output
I0403 15:07:37.836527 14136 net.cpp:425] inception_4d/output <- inception_4d/1x1
I0403 15:07:37.836544 14136 net.cpp:425] inception_4d/output <- inception_4d/3x3
I0403 15:07:37.836560 14136 net.cpp:425] inception_4d/output <- inception_4d/5x5
I0403 15:07:37.836581 14136 net.cpp:425] inception_4d/output <- inception_4d/pool_proj
I0403 15:07:37.836602 14136 net.cpp:399] inception_4d/output -> inception_4d/output
I0403 15:07:37.836655 14136 net.cpp:141] Setting up inception_4d/output
I0403 15:07:37.836679 14136 net.cpp:148] Top shape: 24 528 14 14 (2483712)
I0403 15:07:37.836694 14136 net.cpp:156] Memory required for data: 1157244192
I0403 15:07:37.836709 14136 layer_factory.hpp:77] Creating layer inception_4d/output_inception_4d/output_0_split
I0403 15:07:37.836726 14136 net.cpp:91] Creating Layer inception_4d/output_inception_4d/output_0_split
I0403 15:07:37.836743 14136 net.cpp:425] inception_4d/output_inception_4d/output_0_split <- inception_4d/output
I0403 15:07:37.836766 14136 net.cpp:399] inception_4d/output_inception_4d/output_0_split -> inception_4d/output_inception_4d/output_0_split_0
I0403 15:07:37.836787 14136 net.cpp:399] inception_4d/output_inception_4d/output_0_split -> inception_4d/output_inception_4d/output_0_split_1
I0403 15:07:37.836809 14136 net.cpp:399] inception_4d/output_inception_4d/output_0_split -> inception_4d/output_inception_4d/output_0_split_2
I0403 15:07:37.836830 14136 net.cpp:399] inception_4d/output_inception_4d/output_0_split -> inception_4d/output_inception_4d/output_0_split_3
I0403 15:07:37.836850 14136 net.cpp:399] inception_4d/output_inception_4d/output_0_split -> inception_4d/output_inception_4d/output_0_split_4
I0403 15:07:37.836954 14136 net.cpp:141] Setting up inception_4d/output_inception_4d/output_0_split
I0403 15:07:37.836993 14136 net.cpp:148] Top shape: 24 528 14 14 (2483712)
I0403 15:07:37.837012 14136 net.cpp:148] Top shape: 24 528 14 14 (2483712)
I0403 15:07:37.837028 14136 net.cpp:148] Top shape: 24 528 14 14 (2483712)
I0403 15:07:37.837044 14136 net.cpp:148] Top shape: 24 528 14 14 (2483712)
I0403 15:07:37.837059 14136 net.cpp:148] Top shape: 24 528 14 14 (2483712)
I0403 15:07:37.837072 14136 net.cpp:156] Memory required for data: 1206918432
I0403 15:07:37.837087 14136 layer_factory.hpp:77] Creating layer loss2/ave_pool
I0403 15:07:37.837105 14136 net.cpp:91] Creating Layer loss2/ave_pool
I0403 15:07:37.837121 14136 net.cpp:425] loss2/ave_pool <- inception_4d/output_inception_4d/output_0_split_0
I0403 15:07:37.837143 14136 net.cpp:399] loss2/ave_pool -> loss2/ave_pool
I0403 15:07:37.837471 14136 net.cpp:141] Setting up loss2/ave_pool
I0403 15:07:37.837499 14136 net.cpp:148] Top shape: 24 528 4 4 (202752)
I0403 15:07:37.837514 14136 net.cpp:156] Memory required for data: 1207729440
I0403 15:07:37.837529 14136 layer_factory.hpp:77] Creating layer loss2/conv
I0403 15:07:37.837553 14136 net.cpp:91] Creating Layer loss2/conv
I0403 15:07:37.837574 14136 net.cpp:425] loss2/conv <- loss2/ave_pool
I0403 15:07:37.837599 14136 net.cpp:399] loss2/conv -> loss2/conv
I0403 15:07:37.839545 14136 net.cpp:141] Setting up loss2/conv
I0403 15:07:37.839578 14136 net.cpp:148] Top shape: 24 128 4 4 (49152)
I0403 15:07:37.839596 14136 net.cpp:156] Memory required for data: 1207926048
I0403 15:07:37.839615 14136 layer_factory.hpp:77] Creating layer loss2/relu_conv
I0403 15:07:37.839637 14136 net.cpp:91] Creating Layer loss2/relu_conv
I0403 15:07:37.839655 14136 net.cpp:425] loss2/relu_conv <- loss2/conv
I0403 15:07:37.839673 14136 net.cpp:386] loss2/relu_conv -> loss2/conv (in-place)
I0403 15:07:37.839972 14136 net.cpp:141] Setting up loss2/relu_conv
I0403 15:07:37.839999 14136 net.cpp:148] Top shape: 24 128 4 4 (49152)
I0403 15:07:37.840014 14136 net.cpp:156] Memory required for data: 1208122656
I0403 15:07:37.840030 14136 layer_factory.hpp:77] Creating layer loss2/fc
I0403 15:07:37.840051 14136 net.cpp:91] Creating Layer loss2/fc
I0403 15:07:37.840070 14136 net.cpp:425] loss2/fc <- loss2/conv
I0403 15:07:37.840090 14136 net.cpp:399] loss2/fc -> loss2/fc
I0403 15:07:37.857651 14136 net.cpp:141] Setting up loss2/fc
I0403 15:07:37.857698 14136 net.cpp:148] Top shape: 24 1024 (24576)
I0403 15:07:37.857713 14136 net.cpp:156] Memory required for data: 1208220960
I0403 15:07:37.857733 14136 layer_factory.hpp:77] Creating layer loss2/relu_fc
I0403 15:07:37.857750 14136 net.cpp:91] Creating Layer loss2/relu_fc
I0403 15:07:37.857767 14136 net.cpp:425] loss2/relu_fc <- loss2/fc
I0403 15:07:37.857787 14136 net.cpp:386] loss2/relu_fc -> loss2/fc (in-place)
I0403 15:07:37.858114 14136 net.cpp:141] Setting up loss2/relu_fc
I0403 15:07:37.858139 14136 net.cpp:148] Top shape: 24 1024 (24576)
I0403 15:07:37.858153 14136 net.cpp:156] Memory required for data: 1208319264
I0403 15:07:37.858167 14136 layer_factory.hpp:77] Creating layer loss2/drop_fc
I0403 15:07:37.858186 14136 net.cpp:91] Creating Layer loss2/drop_fc
I0403 15:07:37.858201 14136 net.cpp:425] loss2/drop_fc <- loss2/fc
I0403 15:07:37.858219 14136 net.cpp:386] loss2/drop_fc -> loss2/fc (in-place)
I0403 15:07:37.858268 14136 net.cpp:141] Setting up loss2/drop_fc
I0403 15:07:37.858294 14136 net.cpp:148] Top shape: 24 1024 (24576)
I0403 15:07:37.858309 14136 net.cpp:156] Memory required for data: 1208417568
I0403 15:07:37.858324 14136 layer_factory.hpp:77] Creating layer loss2/classifier_plantvillage
I0403 15:07:37.858341 14136 net.cpp:91] Creating Layer loss2/classifier_plantvillage
I0403 15:07:37.858356 14136 net.cpp:425] loss2/classifier_plantvillage <- loss2/fc
I0403 15:07:37.858378 14136 net.cpp:399] loss2/classifier_plantvillage -> loss2/classifier_plantvillage
I0403 15:07:37.858784 14136 net.cpp:141] Setting up loss2/classifier_plantvillage
I0403 15:07:37.858808 14136 net.cpp:148] Top shape: 24 38 (912)
I0403 15:07:37.858822 14136 net.cpp:156] Memory required for data: 1208421216
I0403 15:07:37.858860 14136 layer_factory.hpp:77] Creating layer loss2/classifier_plantvillage_loss2/classifier_plantvillage_0_split
I0403 15:07:37.858882 14136 net.cpp:91] Creating Layer loss2/classifier_plantvillage_loss2/classifier_plantvillage_0_split
I0403 15:07:37.858898 14136 net.cpp:425] loss2/classifier_plantvillage_loss2/classifier_plantvillage_0_split <- loss2/classifier_plantvillage
I0403 15:07:37.858916 14136 net.cpp:399] loss2/classifier_plantvillage_loss2/classifier_plantvillage_0_split -> loss2/classifier_plantvillage_loss2/classifier_plantvillage_0_split_0
I0403 15:07:37.858935 14136 net.cpp:399] loss2/classifier_plantvillage_loss2/classifier_plantvillage_0_split -> loss2/classifier_plantvillage_loss2/classifier_plantvillage_0_split_1
I0403 15:07:37.858958 14136 net.cpp:399] loss2/classifier_plantvillage_loss2/classifier_plantvillage_0_split -> loss2/classifier_plantvillage_loss2/classifier_plantvillage_0_split_2
I0403 15:07:37.859032 14136 net.cpp:141] Setting up loss2/classifier_plantvillage_loss2/classifier_plantvillage_0_split
I0403 15:07:37.859055 14136 net.cpp:148] Top shape: 24 38 (912)
I0403 15:07:37.859071 14136 net.cpp:148] Top shape: 24 38 (912)
I0403 15:07:37.859086 14136 net.cpp:148] Top shape: 24 38 (912)
I0403 15:07:37.859098 14136 net.cpp:156] Memory required for data: 1208432160
I0403 15:07:37.859112 14136 layer_factory.hpp:77] Creating layer inception_4e/1x1
I0403 15:07:37.859133 14136 net.cpp:91] Creating Layer inception_4e/1x1
I0403 15:07:37.859150 14136 net.cpp:425] inception_4e/1x1 <- inception_4d/output_inception_4d/output_0_split_1
I0403 15:07:37.859169 14136 net.cpp:399] inception_4e/1x1 -> inception_4e/1x1
I0403 15:07:37.860985 14136 net.cpp:141] Setting up inception_4e/1x1
I0403 15:07:37.861012 14136 net.cpp:148] Top shape: 24 256 14 14 (1204224)
I0403 15:07:37.861030 14136 net.cpp:156] Memory required for data: 1213249056
I0403 15:07:37.861048 14136 layer_factory.hpp:77] Creating layer inception_4e/relu_1x1
I0403 15:07:37.861066 14136 net.cpp:91] Creating Layer inception_4e/relu_1x1
I0403 15:07:37.861083 14136 net.cpp:425] inception_4e/relu_1x1 <- inception_4e/1x1
I0403 15:07:37.861099 14136 net.cpp:386] inception_4e/relu_1x1 -> inception_4e/1x1 (in-place)
I0403 15:07:37.861398 14136 net.cpp:141] Setting up inception_4e/relu_1x1
I0403 15:07:37.861425 14136 net.cpp:148] Top shape: 24 256 14 14 (1204224)
I0403 15:07:37.861443 14136 net.cpp:156] Memory required for data: 1218065952
I0403 15:07:37.861457 14136 layer_factory.hpp:77] Creating layer inception_4e/3x3_reduce
I0403 15:07:37.861477 14136 net.cpp:91] Creating Layer inception_4e/3x3_reduce
I0403 15:07:37.861495 14136 net.cpp:425] inception_4e/3x3_reduce <- inception_4d/output_inception_4d/output_0_split_2
I0403 15:07:37.861515 14136 net.cpp:399] inception_4e/3x3_reduce -> inception_4e/3x3_reduce
I0403 15:07:37.863643 14136 net.cpp:141] Setting up inception_4e/3x3_reduce
I0403 15:07:37.863672 14136 net.cpp:148] Top shape: 24 160 14 14 (752640)
I0403 15:07:37.863687 14136 net.cpp:156] Memory required for data: 1221076512
I0403 15:07:37.863703 14136 layer_factory.hpp:77] Creating layer inception_4e/relu_3x3_reduce
I0403 15:07:37.863723 14136 net.cpp:91] Creating Layer inception_4e/relu_3x3_reduce
I0403 15:07:37.863740 14136 net.cpp:425] inception_4e/relu_3x3_reduce <- inception_4e/3x3_reduce
I0403 15:07:37.863756 14136 net.cpp:386] inception_4e/relu_3x3_reduce -> inception_4e/3x3_reduce (in-place)
I0403 15:07:37.863937 14136 net.cpp:141] Setting up inception_4e/relu_3x3_reduce
I0403 15:07:37.863963 14136 net.cpp:148] Top shape: 24 160 14 14 (752640)
I0403 15:07:37.863978 14136 net.cpp:156] Memory required for data: 1224087072
I0403 15:07:37.863992 14136 layer_factory.hpp:77] Creating layer inception_4e/3x3
I0403 15:07:37.864013 14136 net.cpp:91] Creating Layer inception_4e/3x3
I0403 15:07:37.864029 14136 net.cpp:425] inception_4e/3x3 <- inception_4e/3x3_reduce
I0403 15:07:37.864048 14136 net.cpp:399] inception_4e/3x3 -> inception_4e/3x3
I0403 15:07:37.868906 14136 net.cpp:141] Setting up inception_4e/3x3
I0403 15:07:37.868948 14136 net.cpp:148] Top shape: 24 320 14 14 (1505280)
I0403 15:07:37.868965 14136 net.cpp:156] Memory required for data: 1230108192
I0403 15:07:37.868983 14136 layer_factory.hpp:77] Creating layer inception_4e/relu_3x3
I0403 15:07:37.869000 14136 net.cpp:91] Creating Layer inception_4e/relu_3x3
I0403 15:07:37.869016 14136 net.cpp:425] inception_4e/relu_3x3 <- inception_4e/3x3
I0403 15:07:37.869034 14136 net.cpp:386] inception_4e/relu_3x3 -> inception_4e/3x3 (in-place)
I0403 15:07:37.869331 14136 net.cpp:141] Setting up inception_4e/relu_3x3
I0403 15:07:37.869356 14136 net.cpp:148] Top shape: 24 320 14 14 (1505280)
I0403 15:07:37.869371 14136 net.cpp:156] Memory required for data: 1236129312
I0403 15:07:37.869385 14136 layer_factory.hpp:77] Creating layer inception_4e/5x5_reduce
I0403 15:07:37.869408 14136 net.cpp:91] Creating Layer inception_4e/5x5_reduce
I0403 15:07:37.869426 14136 net.cpp:425] inception_4e/5x5_reduce <- inception_4d/output_inception_4d/output_0_split_3
I0403 15:07:37.869446 14136 net.cpp:399] inception_4e/5x5_reduce -> inception_4e/5x5_reduce
I0403 15:07:37.870498 14136 net.cpp:141] Setting up inception_4e/5x5_reduce
I0403 15:07:37.870525 14136 net.cpp:148] Top shape: 24 32 14 14 (150528)
I0403 15:07:37.870540 14136 net.cpp:156] Memory required for data: 1236731424
I0403 15:07:37.870558 14136 layer_factory.hpp:77] Creating layer inception_4e/relu_5x5_reduce
I0403 15:07:37.870584 14136 net.cpp:91] Creating Layer inception_4e/relu_5x5_reduce
I0403 15:07:37.870600 14136 net.cpp:425] inception_4e/relu_5x5_reduce <- inception_4e/5x5_reduce
I0403 15:07:37.870617 14136 net.cpp:386] inception_4e/relu_5x5_reduce -> inception_4e/5x5_reduce (in-place)
I0403 15:07:37.870913 14136 net.cpp:141] Setting up inception_4e/relu_5x5_reduce
I0403 15:07:37.870937 14136 net.cpp:148] Top shape: 24 32 14 14 (150528)
I0403 15:07:37.870952 14136 net.cpp:156] Memory required for data: 1237333536
I0403 15:07:37.870966 14136 layer_factory.hpp:77] Creating layer inception_4e/5x5
I0403 15:07:37.871004 14136 net.cpp:91] Creating Layer inception_4e/5x5
I0403 15:07:37.871022 14136 net.cpp:425] inception_4e/5x5 <- inception_4e/5x5_reduce
I0403 15:07:37.871042 14136 net.cpp:399] inception_4e/5x5 -> inception_4e/5x5
I0403 15:07:37.872849 14136 net.cpp:141] Setting up inception_4e/5x5
I0403 15:07:37.872876 14136 net.cpp:148] Top shape: 24 128 14 14 (602112)
I0403 15:07:37.872891 14136 net.cpp:156] Memory required for data: 1239741984
I0403 15:07:37.872910 14136 layer_factory.hpp:77] Creating layer inception_4e/relu_5x5
I0403 15:07:37.872930 14136 net.cpp:91] Creating Layer inception_4e/relu_5x5
I0403 15:07:37.872946 14136 net.cpp:425] inception_4e/relu_5x5 <- inception_4e/5x5
I0403 15:07:37.872962 14136 net.cpp:386] inception_4e/relu_5x5 -> inception_4e/5x5 (in-place)
I0403 15:07:37.873152 14136 net.cpp:141] Setting up inception_4e/relu_5x5
I0403 15:07:37.873175 14136 net.cpp:148] Top shape: 24 128 14 14 (602112)
I0403 15:07:37.873189 14136 net.cpp:156] Memory required for data: 1242150432
I0403 15:07:37.873203 14136 layer_factory.hpp:77] Creating layer inception_4e/pool
I0403 15:07:37.873222 14136 net.cpp:91] Creating Layer inception_4e/pool
I0403 15:07:37.873239 14136 net.cpp:425] inception_4e/pool <- inception_4d/output_inception_4d/output_0_split_4
I0403 15:07:37.873256 14136 net.cpp:399] inception_4e/pool -> inception_4e/pool
I0403 15:07:37.873327 14136 net.cpp:141] Setting up inception_4e/pool
I0403 15:07:37.873348 14136 net.cpp:148] Top shape: 24 528 14 14 (2483712)
I0403 15:07:37.873363 14136 net.cpp:156] Memory required for data: 1252085280
I0403 15:07:37.873378 14136 layer_factory.hpp:77] Creating layer inception_4e/pool_proj
I0403 15:07:37.873399 14136 net.cpp:91] Creating Layer inception_4e/pool_proj
I0403 15:07:37.873415 14136 net.cpp:425] inception_4e/pool_proj <- inception_4e/pool
I0403 15:07:37.873435 14136 net.cpp:399] inception_4e/pool_proj -> inception_4e/pool_proj
I0403 15:07:37.874905 14136 net.cpp:141] Setting up inception_4e/pool_proj
I0403 15:07:37.874932 14136 net.cpp:148] Top shape: 24 128 14 14 (602112)
I0403 15:07:37.874960 14136 net.cpp:156] Memory required for data: 1254493728
I0403 15:07:37.874979 14136 layer_factory.hpp:77] Creating layer inception_4e/relu_pool_proj
I0403 15:07:37.874997 14136 net.cpp:91] Creating Layer inception_4e/relu_pool_proj
I0403 15:07:37.875015 14136 net.cpp:425] inception_4e/relu_pool_proj <- inception_4e/pool_proj
I0403 15:07:37.875032 14136 net.cpp:386] inception_4e/relu_pool_proj -> inception_4e/pool_proj (in-place)
I0403 15:07:37.875315 14136 net.cpp:141] Setting up inception_4e/relu_pool_proj
I0403 15:07:37.875341 14136 net.cpp:148] Top shape: 24 128 14 14 (602112)
I0403 15:07:37.875356 14136 net.cpp:156] Memory required for data: 1256902176
I0403 15:07:37.875371 14136 layer_factory.hpp:77] Creating layer inception_4e/output
I0403 15:07:37.875388 14136 net.cpp:91] Creating Layer inception_4e/output
I0403 15:07:37.875403 14136 net.cpp:425] inception_4e/output <- inception_4e/1x1
I0403 15:07:37.875419 14136 net.cpp:425] inception_4e/output <- inception_4e/3x3
I0403 15:07:37.875435 14136 net.cpp:425] inception_4e/output <- inception_4e/5x5
I0403 15:07:37.875450 14136 net.cpp:425] inception_4e/output <- inception_4e/pool_proj
I0403 15:07:37.875470 14136 net.cpp:399] inception_4e/output -> inception_4e/output
I0403 15:07:37.875517 14136 net.cpp:141] Setting up inception_4e/output
I0403 15:07:37.875542 14136 net.cpp:148] Top shape: 24 832 14 14 (3913728)
I0403 15:07:37.875557 14136 net.cpp:156] Memory required for data: 1272557088
I0403 15:07:37.875576 14136 layer_factory.hpp:77] Creating layer pool4/3x3_s2
I0403 15:07:37.875593 14136 net.cpp:91] Creating Layer pool4/3x3_s2
I0403 15:07:37.875608 14136 net.cpp:425] pool4/3x3_s2 <- inception_4e/output
I0403 15:07:37.875629 14136 net.cpp:399] pool4/3x3_s2 -> pool4/3x3_s2
I0403 15:07:37.875694 14136 net.cpp:141] Setting up pool4/3x3_s2
I0403 15:07:37.875716 14136 net.cpp:148] Top shape: 24 832 7 7 (978432)
I0403 15:07:37.875730 14136 net.cpp:156] Memory required for data: 1276470816
I0403 15:07:37.875744 14136 layer_factory.hpp:77] Creating layer pool4/3x3_s2_pool4/3x3_s2_0_split
I0403 15:07:37.875763 14136 net.cpp:91] Creating Layer pool4/3x3_s2_pool4/3x3_s2_0_split
I0403 15:07:37.875780 14136 net.cpp:425] pool4/3x3_s2_pool4/3x3_s2_0_split <- pool4/3x3_s2
I0403 15:07:37.875797 14136 net.cpp:399] pool4/3x3_s2_pool4/3x3_s2_0_split -> pool4/3x3_s2_pool4/3x3_s2_0_split_0
I0403 15:07:37.875815 14136 net.cpp:399] pool4/3x3_s2_pool4/3x3_s2_0_split -> pool4/3x3_s2_pool4/3x3_s2_0_split_1
I0403 15:07:37.875835 14136 net.cpp:399] pool4/3x3_s2_pool4/3x3_s2_0_split -> pool4/3x3_s2_pool4/3x3_s2_0_split_2
I0403 15:07:37.875854 14136 net.cpp:399] pool4/3x3_s2_pool4/3x3_s2_0_split -> pool4/3x3_s2_pool4/3x3_s2_0_split_3
I0403 15:07:37.875941 14136 net.cpp:141] Setting up pool4/3x3_s2_pool4/3x3_s2_0_split
I0403 15:07:37.875963 14136 net.cpp:148] Top shape: 24 832 7 7 (978432)
I0403 15:07:37.875979 14136 net.cpp:148] Top shape: 24 832 7 7 (978432)
I0403 15:07:37.875993 14136 net.cpp:148] Top shape: 24 832 7 7 (978432)
I0403 15:07:37.876008 14136 net.cpp:148] Top shape: 24 832 7 7 (978432)
I0403 15:07:37.876021 14136 net.cpp:156] Memory required for data: 1292125728
I0403 15:07:37.876035 14136 layer_factory.hpp:77] Creating layer inception_5a/1x1
I0403 15:07:37.876056 14136 net.cpp:91] Creating Layer inception_5a/1x1
I0403 15:07:37.876073 14136 net.cpp:425] inception_5a/1x1 <- pool4/3x3_s2_pool4/3x3_s2_0_split_0
I0403 15:07:37.876093 14136 net.cpp:399] inception_5a/1x1 -> inception_5a/1x1
I0403 15:07:37.878883 14136 net.cpp:141] Setting up inception_5a/1x1
I0403 15:07:37.878911 14136 net.cpp:148] Top shape: 24 256 7 7 (301056)
I0403 15:07:37.878926 14136 net.cpp:156] Memory required for data: 1293329952
I0403 15:07:37.878944 14136 layer_factory.hpp:77] Creating layer inception_5a/relu_1x1
I0403 15:07:37.878963 14136 net.cpp:91] Creating Layer inception_5a/relu_1x1
I0403 15:07:37.878980 14136 net.cpp:425] inception_5a/relu_1x1 <- inception_5a/1x1
I0403 15:07:37.879009 14136 net.cpp:386] inception_5a/relu_1x1 -> inception_5a/1x1 (in-place)
I0403 15:07:37.879333 14136 net.cpp:141] Setting up inception_5a/relu_1x1
I0403 15:07:37.879359 14136 net.cpp:148] Top shape: 24 256 7 7 (301056)
I0403 15:07:37.879385 14136 net.cpp:156] Memory required for data: 1294534176
I0403 15:07:37.879400 14136 layer_factory.hpp:77] Creating layer inception_5a/3x3_reduce
I0403 15:07:37.879422 14136 net.cpp:91] Creating Layer inception_5a/3x3_reduce
I0403 15:07:37.879439 14136 net.cpp:425] inception_5a/3x3_reduce <- pool4/3x3_s2_pool4/3x3_s2_0_split_1
I0403 15:07:37.879461 14136 net.cpp:399] inception_5a/3x3_reduce -> inception_5a/3x3_reduce
I0403 15:07:37.881849 14136 net.cpp:141] Setting up inception_5a/3x3_reduce
I0403 15:07:37.881878 14136 net.cpp:148] Top shape: 24 160 7 7 (188160)
I0403 15:07:37.881896 14136 net.cpp:156] Memory required for data: 1295286816
I0403 15:07:37.881913 14136 layer_factory.hpp:77] Creating layer inception_5a/relu_3x3_reduce
I0403 15:07:37.881930 14136 net.cpp:91] Creating Layer inception_5a/relu_3x3_reduce
I0403 15:07:37.881947 14136 net.cpp:425] inception_5a/relu_3x3_reduce <- inception_5a/3x3_reduce
I0403 15:07:37.881964 14136 net.cpp:386] inception_5a/relu_3x3_reduce -> inception_5a/3x3_reduce (in-place)
I0403 15:07:37.882146 14136 net.cpp:141] Setting up inception_5a/relu_3x3_reduce
I0403 15:07:37.882171 14136 net.cpp:148] Top shape: 24 160 7 7 (188160)
I0403 15:07:37.882185 14136 net.cpp:156] Memory required for data: 1296039456
I0403 15:07:37.882200 14136 layer_factory.hpp:77] Creating layer inception_5a/3x3
I0403 15:07:37.882220 14136 net.cpp:91] Creating Layer inception_5a/3x3
I0403 15:07:37.882237 14136 net.cpp:425] inception_5a/3x3 <- inception_5a/3x3_reduce
I0403 15:07:37.882258 14136 net.cpp:399] inception_5a/3x3 -> inception_5a/3x3
I0403 15:07:37.887328 14136 net.cpp:141] Setting up inception_5a/3x3
I0403 15:07:37.887359 14136 net.cpp:148] Top shape: 24 320 7 7 (376320)
I0403 15:07:37.887374 14136 net.cpp:156] Memory required for data: 1297544736
I0403 15:07:37.887392 14136 layer_factory.hpp:77] Creating layer inception_5a/relu_3x3
I0403 15:07:37.887413 14136 net.cpp:91] Creating Layer inception_5a/relu_3x3
I0403 15:07:37.887429 14136 net.cpp:425] inception_5a/relu_3x3 <- inception_5a/3x3
I0403 15:07:37.887447 14136 net.cpp:386] inception_5a/relu_3x3 -> inception_5a/3x3 (in-place)
I0403 15:07:37.887742 14136 net.cpp:141] Setting up inception_5a/relu_3x3
I0403 15:07:37.887768 14136 net.cpp:148] Top shape: 24 320 7 7 (376320)
I0403 15:07:37.887784 14136 net.cpp:156] Memory required for data: 1299050016
I0403 15:07:37.887797 14136 layer_factory.hpp:77] Creating layer inception_5a/5x5_reduce
I0403 15:07:37.887820 14136 net.cpp:91] Creating Layer inception_5a/5x5_reduce
I0403 15:07:37.887837 14136 net.cpp:425] inception_5a/5x5_reduce <- pool4/3x3_s2_pool4/3x3_s2_0_split_2
I0403 15:07:37.887858 14136 net.cpp:399] inception_5a/5x5_reduce -> inception_5a/5x5_reduce
I0403 15:07:37.889037 14136 net.cpp:141] Setting up inception_5a/5x5_reduce
I0403 15:07:37.889065 14136 net.cpp:148] Top shape: 24 32 7 7 (37632)
I0403 15:07:37.889081 14136 net.cpp:156] Memory required for data: 1299200544
I0403 15:07:37.889099 14136 layer_factory.hpp:77] Creating layer inception_5a/relu_5x5_reduce
I0403 15:07:37.889119 14136 net.cpp:91] Creating Layer inception_5a/relu_5x5_reduce
I0403 15:07:37.889137 14136 net.cpp:425] inception_5a/relu_5x5_reduce <- inception_5a/5x5_reduce
I0403 15:07:37.889154 14136 net.cpp:386] inception_5a/relu_5x5_reduce -> inception_5a/5x5_reduce (in-place)
I0403 15:07:37.889477 14136 net.cpp:141] Setting up inception_5a/relu_5x5_reduce
I0403 15:07:37.889504 14136 net.cpp:148] Top shape: 24 32 7 7 (37632)
I0403 15:07:37.889519 14136 net.cpp:156] Memory required for data: 1299351072
I0403 15:07:37.889534 14136 layer_factory.hpp:77] Creating layer inception_5a/5x5
I0403 15:07:37.889572 14136 net.cpp:91] Creating Layer inception_5a/5x5
I0403 15:07:37.889591 14136 net.cpp:425] inception_5a/5x5 <- inception_5a/5x5_reduce
I0403 15:07:37.889613 14136 net.cpp:399] inception_5a/5x5 -> inception_5a/5x5
I0403 15:07:37.891345 14136 net.cpp:141] Setting up inception_5a/5x5
I0403 15:07:37.891384 14136 net.cpp:148] Top shape: 24 128 7 7 (150528)
I0403 15:07:37.891401 14136 net.cpp:156] Memory required for data: 1299953184
I0403 15:07:37.891419 14136 layer_factory.hpp:77] Creating layer inception_5a/relu_5x5
I0403 15:07:37.891440 14136 net.cpp:91] Creating Layer inception_5a/relu_5x5
I0403 15:07:37.891456 14136 net.cpp:425] inception_5a/relu_5x5 <- inception_5a/5x5
I0403 15:07:37.891474 14136 net.cpp:386] inception_5a/relu_5x5 -> inception_5a/5x5 (in-place)
I0403 15:07:37.891669 14136 net.cpp:141] Setting up inception_5a/relu_5x5
I0403 15:07:37.891693 14136 net.cpp:148] Top shape: 24 128 7 7 (150528)
I0403 15:07:37.891708 14136 net.cpp:156] Memory required for data: 1300555296
I0403 15:07:37.891722 14136 layer_factory.hpp:77] Creating layer inception_5a/pool
I0403 15:07:37.891742 14136 net.cpp:91] Creating Layer inception_5a/pool
I0403 15:07:37.891759 14136 net.cpp:425] inception_5a/pool <- pool4/3x3_s2_pool4/3x3_s2_0_split_3
I0403 15:07:37.891777 14136 net.cpp:399] inception_5a/pool -> inception_5a/pool
I0403 15:07:37.891847 14136 net.cpp:141] Setting up inception_5a/pool
I0403 15:07:37.891870 14136 net.cpp:148] Top shape: 24 832 7 7 (978432)
I0403 15:07:37.891885 14136 net.cpp:156] Memory required for data: 1304469024
I0403 15:07:37.891899 14136 layer_factory.hpp:77] Creating layer inception_5a/pool_proj
I0403 15:07:37.891921 14136 net.cpp:91] Creating Layer inception_5a/pool_proj
I0403 15:07:37.891938 14136 net.cpp:425] inception_5a/pool_proj <- inception_5a/pool
I0403 15:07:37.891958 14136 net.cpp:399] inception_5a/pool_proj -> inception_5a/pool_proj
I0403 15:07:37.894242 14136 net.cpp:141] Setting up inception_5a/pool_proj
I0403 15:07:37.894274 14136 net.cpp:148] Top shape: 24 128 7 7 (150528)
I0403 15:07:37.894290 14136 net.cpp:156] Memory required for data: 1305071136
I0403 15:07:37.894309 14136 layer_factory.hpp:77] Creating layer inception_5a/relu_pool_proj
I0403 15:07:37.894326 14136 net.cpp:91] Creating Layer inception_5a/relu_pool_proj
I0403 15:07:37.894342 14136 net.cpp:425] inception_5a/relu_pool_proj <- inception_5a/pool_proj
I0403 15:07:37.894362 14136 net.cpp:386] inception_5a/relu_pool_proj -> inception_5a/pool_proj (in-place)
I0403 15:07:37.894673 14136 net.cpp:141] Setting up inception_5a/relu_pool_proj
I0403 15:07:37.894700 14136 net.cpp:148] Top shape: 24 128 7 7 (150528)
I0403 15:07:37.894714 14136 net.cpp:156] Memory required for data: 1305673248
I0403 15:07:37.894742 14136 layer_factory.hpp:77] Creating layer inception_5a/output
I0403 15:07:37.894759 14136 net.cpp:91] Creating Layer inception_5a/output
I0403 15:07:37.894775 14136 net.cpp:425] inception_5a/output <- inception_5a/1x1
I0403 15:07:37.894793 14136 net.cpp:425] inception_5a/output <- inception_5a/3x3
I0403 15:07:37.894809 14136 net.cpp:425] inception_5a/output <- inception_5a/5x5
I0403 15:07:37.894825 14136 net.cpp:425] inception_5a/output <- inception_5a/pool_proj
I0403 15:07:37.894845 14136 net.cpp:399] inception_5a/output -> inception_5a/output
I0403 15:07:37.894897 14136 net.cpp:141] Setting up inception_5a/output
I0403 15:07:37.894923 14136 net.cpp:148] Top shape: 24 832 7 7 (978432)
I0403 15:07:37.894939 14136 net.cpp:156] Memory required for data: 1309586976
I0403 15:07:37.894954 14136 layer_factory.hpp:77] Creating layer inception_5a/output_inception_5a/output_0_split
I0403 15:07:37.894971 14136 net.cpp:91] Creating Layer inception_5a/output_inception_5a/output_0_split
I0403 15:07:37.894986 14136 net.cpp:425] inception_5a/output_inception_5a/output_0_split <- inception_5a/output
I0403 15:07:37.895004 14136 net.cpp:399] inception_5a/output_inception_5a/output_0_split -> inception_5a/output_inception_5a/output_0_split_0
I0403 15:07:37.895025 14136 net.cpp:399] inception_5a/output_inception_5a/output_0_split -> inception_5a/output_inception_5a/output_0_split_1
I0403 15:07:37.895058 14136 net.cpp:399] inception_5a/output_inception_5a/output_0_split -> inception_5a/output_inception_5a/output_0_split_2
I0403 15:07:37.895079 14136 net.cpp:399] inception_5a/output_inception_5a/output_0_split -> inception_5a/output_inception_5a/output_0_split_3
I0403 15:07:37.895195 14136 net.cpp:141] Setting up inception_5a/output_inception_5a/output_0_split
I0403 15:07:37.895220 14136 net.cpp:148] Top shape: 24 832 7 7 (978432)
I0403 15:07:37.895236 14136 net.cpp:148] Top shape: 24 832 7 7 (978432)
I0403 15:07:37.895249 14136 net.cpp:148] Top shape: 24 832 7 7 (978432)
I0403 15:07:37.895267 14136 net.cpp:148] Top shape: 24 832 7 7 (978432)
I0403 15:07:37.895279 14136 net.cpp:156] Memory required for data: 1325241888
I0403 15:07:37.895293 14136 layer_factory.hpp:77] Creating layer inception_5b/1x1
I0403 15:07:37.895315 14136 net.cpp:91] Creating Layer inception_5b/1x1
I0403 15:07:37.895334 14136 net.cpp:425] inception_5b/1x1 <- inception_5a/output_inception_5a/output_0_split_0
I0403 15:07:37.895354 14136 net.cpp:399] inception_5b/1x1 -> inception_5b/1x1
I0403 15:07:37.899221 14136 net.cpp:141] Setting up inception_5b/1x1
I0403 15:07:37.899255 14136 net.cpp:148] Top shape: 24 384 7 7 (451584)
I0403 15:07:37.899272 14136 net.cpp:156] Memory required for data: 1327048224
I0403 15:07:37.899291 14136 layer_factory.hpp:77] Creating layer inception_5b/relu_1x1
I0403 15:07:37.899309 14136 net.cpp:91] Creating Layer inception_5b/relu_1x1
I0403 15:07:37.899327 14136 net.cpp:425] inception_5b/relu_1x1 <- inception_5b/1x1
I0403 15:07:37.899346 14136 net.cpp:386] inception_5b/relu_1x1 -> inception_5b/1x1 (in-place)
I0403 15:07:37.899669 14136 net.cpp:141] Setting up inception_5b/relu_1x1
I0403 15:07:37.899699 14136 net.cpp:148] Top shape: 24 384 7 7 (451584)
I0403 15:07:37.899715 14136 net.cpp:156] Memory required for data: 1328854560
I0403 15:07:37.899730 14136 layer_factory.hpp:77] Creating layer inception_5b/3x3_reduce
I0403 15:07:37.899754 14136 net.cpp:91] Creating Layer inception_5b/3x3_reduce
I0403 15:07:37.899772 14136 net.cpp:425] inception_5b/3x3_reduce <- inception_5a/output_inception_5a/output_0_split_1
I0403 15:07:37.899792 14136 net.cpp:399] inception_5b/3x3_reduce -> inception_5b/3x3_reduce
I0403 15:07:37.902540 14136 net.cpp:141] Setting up inception_5b/3x3_reduce
I0403 15:07:37.902583 14136 net.cpp:148] Top shape: 24 192 7 7 (225792)
I0403 15:07:37.902601 14136 net.cpp:156] Memory required for data: 1329757728
I0403 15:07:37.902618 14136 layer_factory.hpp:77] Creating layer inception_5b/relu_3x3_reduce
I0403 15:07:37.902637 14136 net.cpp:91] Creating Layer inception_5b/relu_3x3_reduce
I0403 15:07:37.902652 14136 net.cpp:425] inception_5b/relu_3x3_reduce <- inception_5b/3x3_reduce
I0403 15:07:37.902673 14136 net.cpp:386] inception_5b/relu_3x3_reduce -> inception_5b/3x3_reduce (in-place)
I0403 15:07:37.902869 14136 net.cpp:141] Setting up inception_5b/relu_3x3_reduce
I0403 15:07:37.902894 14136 net.cpp:148] Top shape: 24 192 7 7 (225792)
I0403 15:07:37.902909 14136 net.cpp:156] Memory required for data: 1330660896
I0403 15:07:37.902923 14136 layer_factory.hpp:77] Creating layer inception_5b/3x3
I0403 15:07:37.902946 14136 net.cpp:91] Creating Layer inception_5b/3x3
I0403 15:07:37.902964 14136 net.cpp:425] inception_5b/3x3 <- inception_5b/3x3_reduce
I0403 15:07:37.902986 14136 net.cpp:399] inception_5b/3x3 -> inception_5b/3x3
I0403 15:07:37.909713 14136 net.cpp:141] Setting up inception_5b/3x3
I0403 15:07:37.909741 14136 net.cpp:148] Top shape: 24 384 7 7 (451584)
I0403 15:07:37.909756 14136 net.cpp:156] Memory required for data: 1332467232
I0403 15:07:37.909775 14136 layer_factory.hpp:77] Creating layer inception_5b/relu_3x3
I0403 15:07:37.909793 14136 net.cpp:91] Creating Layer inception_5b/relu_3x3
I0403 15:07:37.909809 14136 net.cpp:425] inception_5b/relu_3x3 <- inception_5b/3x3
I0403 15:07:37.909828 14136 net.cpp:386] inception_5b/relu_3x3 -> inception_5b/3x3 (in-place)
I0403 15:07:37.910130 14136 net.cpp:141] Setting up inception_5b/relu_3x3
I0403 15:07:37.910156 14136 net.cpp:148] Top shape: 24 384 7 7 (451584)
I0403 15:07:37.910171 14136 net.cpp:156] Memory required for data: 1334273568
I0403 15:07:37.910187 14136 layer_factory.hpp:77] Creating layer inception_5b/5x5_reduce
I0403 15:07:37.910228 14136 net.cpp:91] Creating Layer inception_5b/5x5_reduce
I0403 15:07:37.910246 14136 net.cpp:425] inception_5b/5x5_reduce <- inception_5a/output_inception_5a/output_0_split_2
I0403 15:07:37.910271 14136 net.cpp:399] inception_5b/5x5_reduce -> inception_5b/5x5_reduce
I0403 15:07:37.911555 14136 net.cpp:141] Setting up inception_5b/5x5_reduce
I0403 15:07:37.911586 14136 net.cpp:148] Top shape: 24 48 7 7 (56448)
I0403 15:07:37.911603 14136 net.cpp:156] Memory required for data: 1334499360
I0403 15:07:37.911622 14136 layer_factory.hpp:77] Creating layer inception_5b/relu_5x5_reduce
I0403 15:07:37.911639 14136 net.cpp:91] Creating Layer inception_5b/relu_5x5_reduce
I0403 15:07:37.911655 14136 net.cpp:425] inception_5b/relu_5x5_reduce <- inception_5b/5x5_reduce
I0403 15:07:37.911675 14136 net.cpp:386] inception_5b/relu_5x5_reduce -> inception_5b/5x5_reduce (in-place)
I0403 15:07:37.912051 14136 net.cpp:141] Setting up inception_5b/relu_5x5_reduce
I0403 15:07:37.912077 14136 net.cpp:148] Top shape: 24 48 7 7 (56448)
I0403 15:07:37.912093 14136 net.cpp:156] Memory required for data: 1334725152
I0403 15:07:37.912107 14136 layer_factory.hpp:77] Creating layer inception_5b/5x5
I0403 15:07:37.912127 14136 net.cpp:91] Creating Layer inception_5b/5x5
I0403 15:07:37.912144 14136 net.cpp:425] inception_5b/5x5 <- inception_5b/5x5_reduce
I0403 15:07:37.912163 14136 net.cpp:399] inception_5b/5x5 -> inception_5b/5x5
I0403 15:07:37.914259 14136 net.cpp:141] Setting up inception_5b/5x5
I0403 15:07:37.914286 14136 net.cpp:148] Top shape: 24 128 7 7 (150528)
I0403 15:07:37.914302 14136 net.cpp:156] Memory required for data: 1335327264
I0403 15:07:37.914320 14136 layer_factory.hpp:77] Creating layer inception_5b/relu_5x5
I0403 15:07:37.914340 14136 net.cpp:91] Creating Layer inception_5b/relu_5x5
I0403 15:07:37.914356 14136 net.cpp:425] inception_5b/relu_5x5 <- inception_5b/5x5
I0403 15:07:37.914374 14136 net.cpp:386] inception_5b/relu_5x5 -> inception_5b/5x5 (in-place)
I0403 15:07:37.914578 14136 net.cpp:141] Setting up inception_5b/relu_5x5
I0403 15:07:37.914607 14136 net.cpp:148] Top shape: 24 128 7 7 (150528)
I0403 15:07:37.914623 14136 net.cpp:156] Memory required for data: 1335929376
I0403 15:07:37.914638 14136 layer_factory.hpp:77] Creating layer inception_5b/pool
I0403 15:07:37.914655 14136 net.cpp:91] Creating Layer inception_5b/pool
I0403 15:07:37.914671 14136 net.cpp:425] inception_5b/pool <- inception_5a/output_inception_5a/output_0_split_3
I0403 15:07:37.914690 14136 net.cpp:399] inception_5b/pool -> inception_5b/pool
I0403 15:07:37.914764 14136 net.cpp:141] Setting up inception_5b/pool
I0403 15:07:37.914788 14136 net.cpp:148] Top shape: 24 832 7 7 (978432)
I0403 15:07:37.914803 14136 net.cpp:156] Memory required for data: 1339843104
I0403 15:07:37.914818 14136 layer_factory.hpp:77] Creating layer inception_5b/pool_proj
I0403 15:07:37.914839 14136 net.cpp:91] Creating Layer inception_5b/pool_proj
I0403 15:07:37.914857 14136 net.cpp:425] inception_5b/pool_proj <- inception_5b/pool
I0403 15:07:37.914877 14136 net.cpp:399] inception_5b/pool_proj -> inception_5b/pool_proj
I0403 15:07:37.917212 14136 net.cpp:141] Setting up inception_5b/pool_proj
I0403 15:07:37.917242 14136 net.cpp:148] Top shape: 24 128 7 7 (150528)
I0403 15:07:37.917258 14136 net.cpp:156] Memory required for data: 1340445216
I0403 15:07:37.917275 14136 layer_factory.hpp:77] Creating layer inception_5b/relu_pool_proj
I0403 15:07:37.917295 14136 net.cpp:91] Creating Layer inception_5b/relu_pool_proj
I0403 15:07:37.917314 14136 net.cpp:425] inception_5b/relu_pool_proj <- inception_5b/pool_proj
I0403 15:07:37.917330 14136 net.cpp:386] inception_5b/relu_pool_proj -> inception_5b/pool_proj (in-place)
I0403 15:07:37.917637 14136 net.cpp:141] Setting up inception_5b/relu_pool_proj
I0403 15:07:37.917664 14136 net.cpp:148] Top shape: 24 128 7 7 (150528)
I0403 15:07:37.917678 14136 net.cpp:156] Memory required for data: 1341047328
I0403 15:07:37.917693 14136 layer_factory.hpp:77] Creating layer inception_5b/output
I0403 15:07:37.917711 14136 net.cpp:91] Creating Layer inception_5b/output
I0403 15:07:37.917742 14136 net.cpp:425] inception_5b/output <- inception_5b/1x1
I0403 15:07:37.917758 14136 net.cpp:425] inception_5b/output <- inception_5b/3x3
I0403 15:07:37.917775 14136 net.cpp:425] inception_5b/output <- inception_5b/5x5
I0403 15:07:37.917791 14136 net.cpp:425] inception_5b/output <- inception_5b/pool_proj
I0403 15:07:37.917810 14136 net.cpp:399] inception_5b/output -> inception_5b/output
I0403 15:07:37.917862 14136 net.cpp:141] Setting up inception_5b/output
I0403 15:07:37.917888 14136 net.cpp:148] Top shape: 24 1024 7 7 (1204224)
I0403 15:07:37.917903 14136 net.cpp:156] Memory required for data: 1345864224
I0403 15:07:37.917918 14136 layer_factory.hpp:77] Creating layer pool5/7x7_s1
I0403 15:07:37.917935 14136 net.cpp:91] Creating Layer pool5/7x7_s1
I0403 15:07:37.917950 14136 net.cpp:425] pool5/7x7_s1 <- inception_5b/output
I0403 15:07:37.917971 14136 net.cpp:399] pool5/7x7_s1 -> pool5/7x7_s1
I0403 15:07:37.918189 14136 net.cpp:141] Setting up pool5/7x7_s1
I0403 15:07:37.918213 14136 net.cpp:148] Top shape: 24 1024 1 1 (24576)
I0403 15:07:37.918228 14136 net.cpp:156] Memory required for data: 1345962528
I0403 15:07:37.918242 14136 layer_factory.hpp:77] Creating layer pool5/drop_7x7_s1
I0403 15:07:37.918262 14136 net.cpp:91] Creating Layer pool5/drop_7x7_s1
I0403 15:07:37.918278 14136 net.cpp:425] pool5/drop_7x7_s1 <- pool5/7x7_s1
I0403 15:07:37.918297 14136 net.cpp:386] pool5/drop_7x7_s1 -> pool5/7x7_s1 (in-place)
I0403 15:07:37.918345 14136 net.cpp:141] Setting up pool5/drop_7x7_s1
I0403 15:07:37.918371 14136 net.cpp:148] Top shape: 24 1024 1 1 (24576)
I0403 15:07:37.918387 14136 net.cpp:156] Memory required for data: 1346060832
I0403 15:07:37.918401 14136 layer_factory.hpp:77] Creating layer loss3/classifier_plantvillage
I0403 15:07:37.918419 14136 net.cpp:91] Creating Layer loss3/classifier_plantvillage
I0403 15:07:37.918436 14136 net.cpp:425] loss3/classifier_plantvillage <- pool5/7x7_s1
I0403 15:07:37.918455 14136 net.cpp:399] loss3/classifier_plantvillage -> loss3/classifier_plantvillage
I0403 15:07:37.918889 14136 net.cpp:141] Setting up loss3/classifier_plantvillage
I0403 15:07:37.918916 14136 net.cpp:148] Top shape: 24 38 (912)
I0403 15:07:37.918931 14136 net.cpp:156] Memory required for data: 1346064480
I0403 15:07:37.918948 14136 layer_factory.hpp:77] Creating layer loss3/classifier_plantvillage_loss3/classifier_plantvillage_0_split
I0403 15:07:37.918967 14136 net.cpp:91] Creating Layer loss3/classifier_plantvillage_loss3/classifier_plantvillage_0_split
I0403 15:07:37.918982 14136 net.cpp:425] loss3/classifier_plantvillage_loss3/classifier_plantvillage_0_split <- loss3/classifier_plantvillage
I0403 15:07:37.918999 14136 net.cpp:399] loss3/classifier_plantvillage_loss3/classifier_plantvillage_0_split -> loss3/classifier_plantvillage_loss3/classifier_plantvillage_0_split_0
I0403 15:07:37.919023 14136 net.cpp:399] loss3/classifier_plantvillage_loss3/classifier_plantvillage_0_split -> loss3/classifier_plantvillage_loss3/classifier_plantvillage_0_split_1
I0403 15:07:37.919044 14136 net.cpp:399] loss3/classifier_plantvillage_loss3/classifier_plantvillage_0_split -> loss3/classifier_plantvillage_loss3/classifier_plantvillage_0_split_2
I0403 15:07:37.919064 14136 net.cpp:399] loss3/classifier_plantvillage_loss3/classifier_plantvillage_0_split -> loss3/classifier_plantvillage_loss3/classifier_plantvillage_0_split_3
I0403 15:07:37.919168 14136 net.cpp:141] Setting up loss3/classifier_plantvillage_loss3/classifier_plantvillage_0_split
I0403 15:07:37.919191 14136 net.cpp:148] Top shape: 24 38 (912)
I0403 15:07:37.919208 14136 net.cpp:148] Top shape: 24 38 (912)
I0403 15:07:37.919222 14136 net.cpp:148] Top shape: 24 38 (912)
I0403 15:07:37.919237 14136 net.cpp:148] Top shape: 24 38 (912)
I0403 15:07:37.919250 14136 net.cpp:156] Memory required for data: 1346079072
I0403 15:07:37.919265 14136 layer_factory.hpp:77] Creating layer loss1/loss
I0403 15:07:37.919288 14136 net.cpp:91] Creating Layer loss1/loss
I0403 15:07:37.919306 14136 net.cpp:425] loss1/loss <- loss1/classifier_plantvillage_loss1/classifier_plantvillage_0_split_0
I0403 15:07:37.919337 14136 net.cpp:425] loss1/loss <- label_data_1_split_0
…
