…
I0403 14:49:07.865025 13657 net.cpp:313] The NetState phase (1) differed from the phase (0) specified by a rule in layer data
I0403 14:49:07.866173 13657 net.cpp:49] Initializing net from parameters: 
state {
  phase: TEST
}
layer {
  name: "data"
  type: "Data"
  top: "data"
  top: "label"
  include {
    phase: TEST
  }
  transform_param {
    mirror: false
    crop_size: 224
    mean_file: "/home/mohanty/data/final_dataset/lmdb/color-40-60/mean.binaryproto"
  }
  data_param {
    source: "/home/mohanty/data/final_dataset/lmdb/color-40-60/test_db"
    batch_size: 24
    backend: LMDB
  }
}
layer {
  name: "conv1/7x7_s2"
  type: "Convolution"
  bottom: "data"
  top: "conv1/7x7_s2"
  param {
    lr_mult: 1
    decay_mult: 1
  }
  param {
    lr_mult: 2
    decay_mult: 0
  }
  convolution_param {
    num_output: 64
    pad: 3
    kernel_size: 7
    stride: 2
    weight_filler {
      type: "xavier"
      std: 0.1
    }
    bias_filler {
      type: "constant"
      value: 0.2
    }
  }
}
layer {
  name: "conv1/relu_7x7"
  type: "ReLU"
  bottom: "conv1/7x7_s2"
  top: "conv1/7x7_s2"
}
layer {
  name: "pool1/3x3_s2"
  type: "Pooling"
  bottom: "conv1/7x7_s2"
  top: "pool1/3x3_s2"
  pooling_param {
    pool: MAX
    kernel_size: 3
    stride: 2
  }
}
layer {
  name: "pool1/norm1"
  type: "LRN"
  bottom: "pool1/3x3_s2"
  top: "pool1/norm1"
  lrn_param {
    local_size: 5
    alpha: 0.0001
    beta: 0.75
  }
}
layer {
  name: "conv2/3x3_reduce"
  type: "Convolution"
  bottom: "pool1/norm1"
  top: "conv2/3x3_reduce"
  param {
    lr_mult: 1
    decay_mult: 1
  }
  param {
    lr_mult: 2
    decay_mult: 0
  }
  convolution_param {
    num_output: 64
    kernel_size: 1
    weight_filler {
      type: "xavier"
      std: 0.1
    }
    bias_filler {
      type: "constant"
      value: 0.2
    }
  }
}
layer {
  name: "conv2/relu_3x3_reduce"
  type: "ReLU"
  bottom: "conv2/3x3_reduce"
  top: "conv2/3x3_reduce"
}
layer {
  name: "conv2/3x3"
  type: "Convolution"
  bottom: "conv2/3x3_reduce"
  top: "conv2/3x3"
  param {
    lr_mult: 1
    decay_mult: 1
  }
  param {
    lr_mult: 2
    decay_mult: 0
  }
  convolution_param {
    num_output: 192
    pad: 1
    kernel_size: 3
    weight_filler {
      type: "xavier"
      std: 0.03
    }
    bias_filler {
      type: "constant"
      value: 0.2
    }
  }
}
layer {
  name: "conv2/relu_3x3"
  type: "ReLU"
  bottom: "conv2/3x3"
  top: "conv2/3x3"
}
layer {
  name: "conv2/norm2"
  type: "LRN"
  bottom: "conv2/3x3"
  top: "conv2/norm2"
  lrn_param {
    local_size: 5
    alpha: 0.0001
    beta: 0.75
  }
}
layer {
  name: "pool2/3x3_s2"
  type: "Pooling"
  bottom: "conv2/norm2"
  top: "pool2/3x3_s2"
  pooling_param {
    pool: MAX
    kernel_size: 3
    stride: 2
  }
}
layer {
  name: "inception_3a/1x1"
  type: "Convolution"
  bottom: "pool2/3x3_s2"
  top: "inception_3a/1x1"
  param {
    lr_mult: 1
    decay_mult: 1
  }
  param {
    lr_mult: 2
    decay_mult: 0
  }
  convolution_param {
    num_output: 64
    kernel_size: 1
    weight_filler {
      type: "xavier"
      std: 0.03
    }
    bias_filler {
      type: "constant"
      value: 0.2
    }
  }
}
layer {
  name: "inception_3a/relu_1x1"
  type: "ReLU"
  bottom: "inception_3a/1x1"
  top: "inception_3a/1x1"
}
layer {
  name: "inception_3a/3x3_reduce"
  type: "Convolution"
  bottom: "pool2/3x3_s2"
  top: "inception_3a/3x3_reduce"
  param {
    lr_mult: 1
    decay_mult: 1
  }
  param {
    lr_mult: 2
    decay_mult: 0
  }
  convolution_param {
    num_output: 96
    kernel_size: 1
    weight_filler {
      type: "xavier"
      std: 0.09
    }
    bias_filler {
      type: "constant"
      value: 0.2
    }
  }
}
layer {
  name: "inception_3a/relu_3x3_reduce"
  type: "ReLU"
  bottom: "inception_3a/3x3_reduce"
  top: "inception_3a/3x3_reduce"
}
layer {
  name: "inception_3a/3x3"
  type: "Convolution"
  bottom: "inception_3a/3x3_reduce"
  top: "inception_3a/3x3"
  param {
    lr_mult: 1
    decay_mult: 1
  }
  param {
    lr_mult: 2
    decay_mult: 0
  }
  convolution_param {
    num_output: 128
    pad: 1
    kernel_size: 3
    weight_filler {
      type: "xavier"
      std: 0.03
    }
    bias_filler {
      type: "constant"
      value: 0.2
    }
  }
}
layer {
  name: "inception_3a/relu_3x3"
  type: "ReLU"
  bottom: "inception_3a/3x3"
  top: "inception_3a/3x3"
}
layer {
  name: "inception_3a/5x5_reduce"
  type: "Convolution"
  bottom: "pool2/3x3_s2"
  top: "inception_3a/5x5_reduce"
  param {
    lr_mult: 1
    decay_mult: 1
  }
  param {
    lr_mult: 2
    decay_mult: 0
  }
  convolution_param {
    num_output: 16
    kernel_size: 1
    weight_filler {
      type: "xavier"
      std: 0.2
    }
    bias_filler {
      type: "constant"
      value: 0.2
    }
  }
}
layer {
  name: "inception_3a/relu_5x5_reduce"
  type: "ReLU"
  bottom: "inception_3a/5x5_reduce"
  top: "inception_3a/5x5_reduce"
}
layer {
  name: "inception_3a/5x5"
  type: "Convolution"
  bottom: "inception_3a/5x5_reduce"
  top: "inception_3a/5x5"
  param {
    lr_mult: 1
    decay_mult: 1
  }
  param {
    lr_mult: 2
    decay_mult: 0
  }
  convolution_param {
    num_output: 32
    pad: 2
    kernel_size: 5
    weight_filler {
      type: "xavier"
      std: 0.03
    }
    bias_filler {
      type: "constant"
      value: 0.2
    }
  }
}
layer {
  name: "inception_3a/relu_5x5"
  type: "ReLU"
  bottom: "inception_3a/5x5"
  top: "inception_3a/5x5"
}
layer {
  name: "inception_3a/pool"
  type: "Pooling"
  bottom: "pool2/3x3_s2"
  top: "inception_3a/pool"
  pooling_param {
    pool: MAX
    kernel_size: 3
    stride: 1
    pad: 1
  }
}
layer {
  name: "inception_3a/pool_proj"
  type: "Convolution"
  bottom: "inception_3a/pool"
  top: "inception_3a/pool_proj"
  param {
    lr_mult: 1
    decay_mult: 1
  }
  param {
    lr_mult: 2
    decay_mult: 0
  }
  convolution_param {
    num_output: 32
    kernel_size: 1
    weight_filler {
      type: "xavier"
      std: 0.1
    }
    bias_filler {
      type: "constant"
      value: 0.2
    }
  }
}
layer {
  name: "inception_3a/relu_pool_proj"
  type: "ReLU"
  bottom: "inception_3a/pool_proj"
  top: "inception_3a/pool_proj"
}
layer {
  name: "inception_3a/output"
  type: "Concat"
  bottom: "inception_3a/1x1"
  bottom: "inception_3a/3x3"
  bottom: "inception_3a/5x5"
  bottom: "inception_3a/pool_proj"
  top: "inception_3a/output"
}
layer {
  name: "inception_3b/1x1"
  type: "Convolution"
  bottom: "inception_3a/output"
  top: "inception_3b/1x1"
  param {
    lr_mult: 1
    decay_mult: 1
  }
  param {
    lr_mult: 2
    decay_mult: 0
  }
  convolution_param {
    num_output: 128
    kernel_size: 1
    weight_filler {
      type: "xavier"
      std: 0.03
    }
    bias_filler {
      type: "constant"
      value: 0.2
    }
  }
}
layer {
  name: "inception_3b/relu_1x1"
  type: "ReLU"
  bottom: "inception_3b/1x1"
  top: "inception_3b/1x1"
}
layer {
  name: "inception_3b/3x3_reduce"
  type: "Convolution"
  bottom: "inception_3a/output"
  top: "inception_3b/3x3_reduce"
  param {
    lr_mult: 1
    decay_mult: 1
  }
  param {
    lr_mult: 2
    decay_mult: 0
  }
  convolution_param {
    num_output: 128
    kernel_size: 1
    weight_filler {
      type: "xavier"
      std: 0.09
    }
    bias_filler {
      type: "constant"
      value: 0.2
    }
  }
}
layer {
  name: "inception_3b/relu_3x3_reduce"
  type: "ReLU"
  bottom: "inception_3b/3x3_reduce"
  top: "inception_3b/3x3_reduce"
}
layer {
  name: "inception_3b/3x3"
  type: "Convolution"
  bottom: "inception_3b/3x3_reduce"
  top: "inception_3b/3x3"
  param {
    lr_mult: 1
    decay_mult: 1
  }
  param {
    lr_mult: 2
    decay_mult: 0
  }
  convolution_param {
    num_output: 192
    pad: 1
    kernel_size: 3
    weight_filler {
      type: "xavier"
      std: 0.03
    }
    bias_filler {
      type: "constant"
      value: 0.2
    }
  }
}
layer {
  name: "inception_3b/relu_3x3"
  type: "ReLU"
  bottom: "inception_3b/3x3"
  top: "inception_3b/3x3"
}
layer {
  name: "inception_3b/5x5_reduce"
  type: "Convolution"
  bottom: "inception_3a/output"
  top: "inception_3b/5x5_reduce"
  param {
    lr_mult: 1
    decay_mult: 1
  }
  param {
    lr_mult: 2
    decay_mult: 0
  }
  convolution_param {
    num_output: 32
    kernel_size: 1
    weight_filler {
      type: "xavier"
      std: 0.2
    }
    bias_filler {
      type: "constant"
      value: 0.2
    }
  }
}
layer {
  name: "inception_3b/relu_5x5_reduce"
  type: "ReLU"
  bottom: "inception_3b/5x5_reduce"
  top: "inception_3b/5x5_reduce"
}
layer {
  name: "inception_3b/5x5"
  type: "Convolution"
  bottom: "inception_3b/5x5_reduce"
  top: "inception_3b/5x5"
  param {
    lr_mult: 1
    decay_mult: 1
  }
  param {
    lr_mult: 2
    decay_mult: 0
  }
  convolution_param {
    num_output: 96
    pad: 2
    kernel_size: 5
    weight_filler {
      type: "xavier"
      std: 0.03
    }
    bias_filler {
      type: "constant"
      value: 0.2
    }
  }
}
layer {
  name: "inception_3b/relu_5x5"
  type: "ReLU"
  bottom: "inception_3b/5x5"
  top: "inception_3b/5x5"
}
layer {
  name: "inception_3b/pool"
  type: "Pooling"
  bottom: "inception_3a/output"
  top: "inception_3b/pool"
  pooling_param {
    pool: MAX
    kernel_size: 3
    stride: 1
    pad: 1
  }
}
layer {
  name: "inception_3b/pool_proj"
  type: "Convolution"
  bottom: "inception_3b/pool"
  top: "inception_3b/pool_proj"
  param {
    lr_mult: 1
    decay_mult: 1
  }
  param {
    lr_mult: 2
    decay_mult: 0
  }
  convolution_param {
    num_output: 64
    kernel_size: 1
    weight_filler {
      type: "xavier"
      std: 0.1
    }
    bias_filler {
      type: "constant"
      value: 0.2
    }
  }
}
layer {
  name: "inception_3b/relu_pool_proj"
  type: "ReLU"
  bottom: "inception_3b/pool_proj"
  top: "inception_3b/pool_proj"
}
layer {
  name: "inception_3b/output"
  type: "Concat"
  bottom: "inception_3b/1x1"
  bottom: "inception_3b/3x3"
  bottom: "inception_3b/5x5"
  bottom: "inception_3b/pool_proj"
  top: "inception_3b/output"
}
layer {
  name: "pool3/3x3_s2"
  type: "Pooling"
  bottom: "inception_3b/output"
  top: "pool3/3x3_s2"
  pooling_param {
    pool: MAX
    kernel_size: 3
    stride: 2
  }
}
layer {
  name: "inception_4a/1x1"
  type: "Convolution"
  bottom: "pool3/3x3_s2"
  top: "inception_4a/1x1"
  param {
    lr_mult: 1
    decay_mult: 1
  }
  param {
    lr_mult: 2
    decay_mult: 0
  }
  convolution_param {
    num_output: 192
    kernel_size: 1
    weight_filler {
      type: "xavier"
      std: 0.03
    }
    bias_filler {
      type: "constant"
      value: 0.2
    }
  }
}
layer {
  name: "inception_4a/relu_1x1"
  type: "ReLU"
  bottom: "inception_4a/1x1"
  top: "inception_4a/1x1"
}
layer {
  name: "inception_4a/3x3_reduce"
  type: "Convolution"
  bottom: "pool3/3x3_s2"
  top: "inception_4a/3x3_reduce"
  param {
    lr_mult: 1
    decay_mult: 1
  }
  param {
    lr_mult: 2
    decay_mult: 0
  }
  convolution_param {
    num_output: 96
    kernel_size: 1
    weight_filler {
      type: "xavier"
      std: 0.09
    }
    bias_filler {
      type: "constant"
      value: 0.2
    }
  }
}
layer {
  name: "inception_4a/relu_3x3_reduce"
  type: "ReLU"
  bottom: "inception_4a/3x3_reduce"
  top: "inception_4a/3x3_reduce"
}
layer {
  name: "inception_4a/3x3"
  type: "Convolution"
  bottom: "inception_4a/3x3_reduce"
  top: "inception_4a/3x3"
  param {
    lr_mult: 1
    decay_mult: 1
  }
  param {
    lr_mult: 2
    decay_mult: 0
  }
  convolution_param {
    num_output: 208
    pad: 1
    kernel_size: 3
    weight_filler {
      type: "xavier"
      std: 0.03
    }
    bias_filler {
      type: "constant"
      value: 0.2
    }
  }
}
layer {
  name: "inception_4a/relu_3x3"
  type: "ReLU"
  bottom: "inception_4a/3x3"
  top: "inception_4a/3x3"
}
layer {
  name: "inception_4a/5x5_reduce"
  type: "Convolution"
  bottom: "pool3/3x3_s2"
  top: "inception_4a/5x5_reduce"
  param {
    lr_mult: 1
    decay_mult: 1
  }
  param {
    lr_mult: 2
    decay_mult: 0
  }
  convolution_param {
    num_output: 16
    kernel_size: 1
    weight_filler {
      type: "xavier"
      std: 0.2
    }
    bias_filler {
      type: "constant"
      value: 0.2
    }
  }
}
layer {
  name: "inception_4a/relu_5x5_reduce"
  type: "ReLU"
  bottom: "inception_4a/5x5_reduce"
  top: "inception_4a/5x5_reduce"
}
layer {
  name: "inception_4a/5x5"
  type: "Convolution"
  bottom: "inception_4a/5x5_reduce"
  top: "inception_4a/5x5"
  param {
    lr_mult: 1
    decay_mult: 1
  }
  param {
    lr_mult: 2
    decay_mult: 0
  }
  convolution_param {
    num_output: 48
    pad: 2
    kernel_size: 5
    weight_filler {
      type: "xavier"
      std: 0.03
    }
    bias_filler {
      type: "constant"
      value: 0.2
    }
  }
}
layer {
  name: "inception_4a/relu_5x5"
  type: "ReLU"
  bottom: "inception_4a/5x5"
  top: "inception_4a/5x5"
}
layer {
  name: "inception_4a/pool"
  type: "Pooling"
  bottom: "pool3/3x3_s2"
  top: "inception_4a/pool"
  pooling_param {
    pool: MAX
    kernel_size: 3
    stride: 1
    pad: 1
  }
}
layer {
  name: "inception_4a/pool_proj"
  type: "Convolution"
  bottom: "inception_4a/pool"
  top: "inception_4a/pool_proj"
  param {
    lr_mult: 1
    decay_mult: 1
  }
  param {
    lr_mult: 2
    decay_mult: 0
  }
  convolution_param {
    num_output: 64
    kernel_size: 1
    weight_filler {
      type: "xavier"
      std: 0.1
    }
    bias_filler {
      type: "constant"
      value: 0.2
    }
  }
}
layer {
  name: "inception_4a/relu_pool_proj"
  type: "ReLU"
  bottom: "inception_4a/pool_proj"
  top: "inception_4a/pool_proj"
}
layer {
  name: "inception_4a/output"
  type: "Concat"
  bottom: "inception_4a/1x1"
  bottom: "inception_4a/3x3"
  bottom: "inception_4a/5x5"
  bottom: "inception_4a/pool_proj"
  top: "inception_4a/output"
}
layer {
  name: "loss1/ave_pool"
  type: "Pooling"
  bottom: "inception_4a/output"
  top: "loss1/ave_pool"
  pooling_param {
    pool: AVE
    kernel_size: 5
    stride: 3
  }
}
layer {
  name: "loss1/conv"
  type: "Convolution"
  bottom: "loss1/ave_pool"
  top: "loss1/conv"
  param {
    lr_mult: 1
    decay_mult: 1
  }
  param {
    lr_mult: 2
    decay_mult: 0
  }
  convolution_param {
    num_output: 128
    kernel_size: 1
    weight_filler {
      type: "xavier"
      std: 0.08
    }
    bias_filler {
      type: "constant"
      value: 0.2
    }
  }
}
layer {
  name: "loss1/relu_conv"
  type: "ReLU"
  bottom: "loss1/conv"
  top: "loss1/conv"
}
layer {
  name: "loss1/fc"
  type: "InnerProduct"
  bottom: "loss1/conv"
  top: "loss1/fc"
  param {
    lr_mult: 1
    decay_mult: 1
  }
  param {
    lr_mult: 2
    decay_mult: 0
  }
  inner_product_param {
    num_output: 1024
    weight_filler {
      type: "xavier"
      std: 0.02
    }
    bias_filler {
      type: "constant"
      value: 0.2
    }
  }
}
layer {
  name: "loss1/relu_fc"
  type: "ReLU"
  bottom: "loss1/fc"
  top: "loss1/fc"
}
layer {
  name: "loss1/drop_fc"
  type: "Dropout"
  bottom: "loss1/fc"
  top: "loss1/fc"
  dropout_param {
    dropout_ratio: 0.7
  }
}
layer {
  name: "loss1/classifier_plantvillage"
  type: "InnerProduct"
  bottom: "loss1/fc"
  top: "loss1/classifier_plantvillage"
  param {
    lr_mult: 1
    decay_mult: 1
  }
  param {
    lr_mult: 2
    decay_mult: 0
  }
  inner_product_param {
    num_output: 38
    weight_filler {
      type: "xavier"
      std: 0.0009765625
    }
    bias_filler {
      type: "constant"
      value: 0
    }
  }
}
layer {
  name: "inception_4b/1x1"
  type: "Convolution"
  bottom: "inception_4a/output"
  top: "inception_4b/1x1"
  param {
    lr_mult: 1
    decay_mult: 1
  }
  param {
    lr_mult: 2
    decay_mult: 0
  }
  convolution_param {
    num_output: 160
    kernel_size: 1
    weight_filler {
      type: "xavier"
      std: 0.03
    }
    bias_filler {
      type: "constant"
      value: 0.2
    }
  }
}
layer {
  name: "inception_4b/relu_1x1"
  type: "ReLU"
  bottom: "inception_4b/1x1"
  top: "inception_4b/1x1"
}
layer {
  name: "inception_4b/3x3_reduce"
  type: "Convolution"
  bottom: "inception_4a/output"
  top: "inception_4b/3x3_reduce"
  param {
    lr_mult: 1
    decay_mult: 1
  }
  param {
    lr_mult: 2
    decay_mult: 0
  }
  convolution_param {
    num_output: 112
    kernel_size: 1
    weight_filler {
      type: "xavier"
      std: 0.09
    }
    bias_filler {
      type: "constant"
      value: 0.2
    }
  }
}
layer {
  name: "inception_4b/relu_3x3_reduce"
  type: "ReLU"
  bottom: "inception_4b/3x3_reduce"
  top: "inception_4b/3x3_reduce"
}
layer {
  name: "inception_4b/3x3"
  type: "Convolution"
  bottom: "inception_4b/3x3_reduce"
  top: "inception_4b/3x3"
  param {
    lr_mult: 1
    decay_mult: 1
  }
  param {
    lr_mult: 2
    decay_mult: 0
  }
  convolution_param {
    num_output: 224
    pad: 1
    kernel_size: 3
    weight_filler {
      type: "xavier"
      std: 0.03
    }
    bias_filler {
      type: "constant"
      value: 0.2
    }
  }
}
layer {
  name: "inception_4b/relu_3x3"
  type: "ReLU"
  bottom: "inception_4b/3x3"
  top: "inception_4b/3x3"
}
layer {
  name: "inception_4b/5x5_reduce"
  type: "Convolution"
  bottom: "inception_4a/output"
  top: "inception_4b/5x5_reduce"
  param {
    lr_mult: 1
    decay_mult: 1
  }
  param {
    lr_mult: 2
    decay_mult: 0
  }
  convolution_param {
    num_output: 24
    kernel_size: 1
    weight_filler {
      type: "xavier"
      std: 0.2
    }
    bias_filler {
      type: "constant"
      value: 0.2
    }
  }
}
layer {
  name: "inception_4b/relu_5x5_reduce"
  type: "ReLU"
  bottom: "inception_4b/5x5_reduce"
  top: "inception_4b/5x5_reduce"
}
layer {
  name: "inception_4b/5x5"
  type: "Convolution"
  bottom: "inception_4b/5x5_reduce"
  top: "inception_4b/5x5"
  param {
    lr_mult: 1
    decay_mult: 1
  }
  param {
    lr_mult: 2
    decay_mult: 0
  }
  convolution_param {
    num_output: 64
    pad: 2
    kernel_size: 5
    weight_filler {
      type: "xavier"
      std: 0.03
    }
    bias_filler {
      type: "constant"
      value: 0.2
    }
  }
}
layer {
  name: "inception_4b/relu_5x5"
  type: "ReLU"
  bottom: "inception_4b/5x5"
  top: "inception_4b/5x5"
}
layer {
  name: "inception_4b/pool"
  type: "Pooling"
  bottom: "inception_4a/output"
  top: "inception_4b/pool"
  pooling_param {
    pool: MAX
    kernel_size: 3
    stride: 1
    pad: 1
  }
}
layer {
  name: "inception_4b/pool_proj"
  type: "Convolution"
  bottom: "inception_4b/pool"
  top: "inception_4b/pool_proj"
  param {
    lr_mult: 1
    decay_mult: 1
  }
  param {
    lr_mult: 2
    decay_mult: 0
  }
  convolution_param {
    num_output: 64
    kernel_size: 1
    weight_filler {
      type: "xavier"
      std: 0.1
    }
    bias_filler {
      type: "constant"
      value: 0.2
    }
  }
}
layer {
  name: "inception_4b/relu_pool_proj"
  type: "ReLU"
  bottom: "inception_4b/pool_proj"
  top: "inception_4b/pool_proj"
}
layer {
  name: "inception_4b/output"
  type: "Concat"
  bottom: "inception_4b/1x1"
  bottom: "inception_4b/3x3"
  bottom: "inception_4b/5x5"
  bottom: "inception_4b/pool_proj"
  top: "inception_4b/output"
}
layer {
  name: "inception_4c/1x1"
  type: "Convolution"
  bottom: "inception_4b/output"
  top: "inception_4c/1x1"
  param {
    lr_mult: 1
    decay_mult: 1
  }
  param {
    lr_mult: 2
    decay_mult: 0
  }
  convolution_param {
    num_output: 128
    kernel_size: 1
    weight_filler {
      type: "xavier"
      std: 0.03
    }
    bias_filler {
      type: "constant"
      value: 0.2
    }
  }
}
layer {
  name: "inception_4c/relu_1x1"
  type: "ReLU"
  bottom: "inception_4c/1x1"
  top: "inception_4c/1x1"
}
layer {
  name: "inception_4c/3x3_reduce"
  type: "Convolution"
  bottom: "inception_4b/output"
  top: "inception_4c/3x3_reduce"
  param {
    lr_mult: 1
    decay_mult: 1
  }
  param {
    lr_mult: 2
    decay_mult: 0
  }
  convolution_param {
    num_output: 128
    kernel_size: 1
    weight_filler {
      type: "xavier"
      std: 0.09
    }
    bias_filler {
      type: "constant"
      value: 0.2
    }
  }
}
layer {
  name: "inception_4c/relu_3x3_reduce"
  type: "ReLU"
  bottom: "inception_4c/3x3_reduce"
  top: "inception_4c/3x3_reduce"
}
layer {
  name: "inception_4c/3x3"
  type: "Convolution"
  bottom: "inception_4c/3x3_reduce"
  top: "inception_4c/3x3"
  param {
    lr_mult: 1
    decay_mult: 1
  }
  param {
    lr_mult: 2
    decay_mult: 0
  }
  convolution_param {
    num_output: 256
    pad: 1
    kernel_size: 3
    weight_filler {
      type: "xavier"
      std: 0.03
    }
    bias_filler {
      type: "constant"
      value: 0.2
    }
  }
}
layer {
  name: "inception_4c/relu_3x3"
  type: "ReLU"
  bottom: "inception_4c/3x3"
  top: "inception_4c/3x3"
}
layer {
  name: "inception_4c/5x5_reduce"
  type: "Convolution"
  bottom: "inception_4b/output"
  top: "inception_4c/5x5_reduce"
  param {
    lr_mult: 1
    decay_mult: 1
  }
  param {
    lr_mult: 2
    decay_mult: 0
  }
  convolution_param {
    num_output: 24
    kernel_size: 1
    weight_filler {
      type: "xavier"
      std: 0.2
    }
    bias_filler {
      type: "constant"
      value: 0.2
    }
  }
}
layer {
  name: "inception_4c/relu_5x5_reduce"
  type: "ReLU"
  bottom: "inception_4c/5x5_reduce"
  top: "inception_4c/5x5_reduce"
}
layer {
  name: "inception_4c/5x5"
  type: "Convolution"
  bottom: "inception_4c/5x5_reduce"
  top: "inception_4c/5x5"
  param {
    lr_mult: 1
    decay_mult: 1
  }
  param {
    lr_mult: 2
    decay_mult: 0
  }
  convolution_param {
    num_output: 64
    pad: 2
    kernel_size: 5
    weight_filler {
      type: "xavier"
      std: 0.03
    }
    bias_filler {
      type: "constant"
      value: 0.2
    }
  }
}
layer {
  name: "inception_4c/relu_5x5"
  type: "ReLU"
  bottom: "inception_4c/5x5"
  top: "inception_4c/5x5"
}
layer {
  name: "inception_4c/pool"
  type: "Pooling"
  bottom: "inception_4b/output"
  top: "inception_4c/pool"
  pooling_param {
    pool: MAX
    kernel_size: 3
    stride: 1
    pad: 1
  }
}
layer {
  name: "inception_4c/pool_proj"
  type: "Convolution"
  bottom: "inception_4c/pool"
  top: "inception_4c/pool_proj"
  param {
    lr_mult: 1
    decay_mult: 1
  }
  param {
    lr_mult: 2
    decay_mult: 0
  }
  convolution_param {
    num_output: 64
    kernel_size: 1
    weight_filler {
      type: "xavier"
      std: 0.1
    }
    bias_filler {
      type: "constant"
      value: 0.2
    }
  }
}
layer {
  name: "inception_4c/relu_pool_proj"
  type: "ReLU"
  bottom: "inception_4c/pool_proj"
  top: "inception_4c/pool_proj"
}
layer {
  name: "inception_4c/output"
  type: "Concat"
  bottom: "inception_4c/1x1"
  bottom: "inception_4c/3x3"
  bottom: "inception_4c/5x5"
  bottom: "inception_4c/pool_proj"
  top: "inception_4c/output"
}
layer {
  name: "inception_4d/1x1"
  type: "Convolution"
  bottom: "inception_4c/output"
  top: "inception_4d/1x1"
  param {
    lr_mult: 1
    decay_mult: 1
  }
  param {
    lr_mult: 2
    decay_mult: 0
  }
  convolution_param {
    num_output: 112
    kernel_size: 1
    weight_filler {
      type: "xavier"
      std: 0.03
    }
    bias_filler {
      type: "constant"
      value: 0.2
    }
  }
}
layer {
  name: "inception_4d/relu_1x1"
  type: "ReLU"
  bottom: "inception_4d/1x1"
  top: "inception_4d/1x1"
}
layer {
  name: "inception_4d/3x3_reduce"
  type: "Convolution"
  bottom: "inception_4c/output"
  top: "inception_4d/3x3_reduce"
  param {
    lr_mult: 1
    decay_mult: 1
  }
  param {
    lr_mult: 2
    decay_mult: 0
  }
  convolution_param {
    num_output: 144
    kernel_size: 1
    weight_filler {
      type: "xavier"
      std: 0.09
    }
    bias_filler {
      type: "constant"
      value: 0.2
    }
  }
}
layer {
  name: "inception_4d/relu_3x3_reduce"
  type: "ReLU"
  bottom: "inception_4d/3x3_reduce"
  top: "inception_4d/3x3_reduce"
}
layer {
  name: "inception_4d/3x3"
  type: "Convolution"
  bottom: "inception_4d/3x3_reduce"
  top: "inception_4d/3x3"
  param {
    lr_mult: 1
    decay_mult: 1
  }
  param {
    lr_mult: 2
    decay_mult: 0
  }
  convolution_param {
    num_output: 288
    pad: 1
    kernel_size: 3
    weight_filler {
      type: "xavier"
      std: 0.03
    }
    bias_filler {
      type: "constant"
      value: 0.2
    }
  }
}
layer {
  name: "inception_4d/relu_3x3"
  type: "ReLU"
  bottom: "inception_4d/3x3"
  top: "inception_4d/3x3"
}
layer {
  name: "inception_4d/5x5_reduce"
  type: "Convolution"
  bottom: "inception_4c/output"
  top: "inception_4d/5x5_reduce"
  param {
    lr_mult: 1
    decay_mult: 1
  }
  param {
    lr_mult: 2
    decay_mult: 0
  }
  convolution_param {
    num_output: 32
    kernel_size: 1
    weight_filler {
      type: "xavier"
      std: 0.2
    }
    bias_filler {
      type: "constant"
      value: 0.2
    }
  }
}
layer {
  name: "inception_4d/relu_5x5_reduce"
  type: "ReLU"
  bottom: "inception_4d/5x5_reduce"
  top: "inception_4d/5x5_reduce"
}
layer {
  name: "inception_4d/5x5"
  type: "Convolution"
  bottom: "inception_4d/5x5_reduce"
  top: "inception_4d/5x5"
  param {
    lr_mult: 1
    decay_mult: 1
  }
  param {
    lr_mult: 2
    decay_mult: 0
  }
  convolution_param {
    num_output: 64
    pad: 2
    kernel_size: 5
    weight_filler {
      type: "xavier"
      std: 0.03
    }
    bias_filler {
      type: "constant"
      value: 0.2
    }
  }
}
layer {
  name: "inception_4d/relu_5x5"
  type: "ReLU"
  bottom: "inception_4d/5x5"
  top: "inception_4d/5x5"
}
layer {
  name: "inception_4d/pool"
  type: "Pooling"
  bottom: "inception_4c/output"
  top: "inception_4d/pool"
  pooling_param {
    pool: MAX
    kernel_size: 3
    stride: 1
    pad: 1
  }
}
layer {
  name: "inception_4d/pool_proj"
  type: "Convolution"
  bottom: "inception_4d/pool"
  top: "inception_4d/pool_proj"
  param {
    lr_mult: 1
    decay_mult: 1
  }
  param {
    lr_mult: 2
    decay_mult: 0
  }
  convolution_param {
    num_output: 64
    kernel_size: 1
    weight_filler {
      type: "xavier"
      std: 0.1
    }
    bias_filler {
      type: "constant"
      value: 0.2
    }
  }
}
layer {
  name: "inception_4d/relu_pool_proj"
  type: "ReLU"
  bottom: "inception_4d/pool_proj"
  top: "inception_4d/pool_proj"
}
layer {
  name: "inception_4d/output"
  type: "Concat"
  bottom: "inception_4d/1x1"
  bottom: "inception_4d/3x3"
  bottom: "inception_4d/5x5"
  bottom: "inception_4d/pool_proj"
  top: "inception_4d/output"
}
layer {
  name: "loss2/ave_pool"
  type: "Pooling"
  bottom: "inception_4d/output"
  top: "loss2/ave_pool"
  pooling_param {
    pool: AVE
    kernel_size: 5
    stride: 3
  }
}
layer {
  name: "loss2/conv"
  type: "Convolution"
  bottom: "loss2/ave_pool"
  top: "loss2/conv"
  param {
    lr_mult: 1
    decay_mult: 1
  }
  param {
    lr_mult: 2
    decay_mult: 0
  }
  convolution_param {
    num_output: 128
    kernel_size: 1
    weight_filler {
      type: "xavier"
      std: 0.08
    }
    bias_filler {
      type: "constant"
      value: 0.2
    }
  }
}
layer {
  name: "loss2/relu_conv"
  type: "ReLU"
  bottom: "loss2/conv"
  top: "loss2/conv"
}
layer {
  name: "loss2/fc"
  type: "InnerProduct"
  bottom: "loss2/conv"
  top: "loss2/fc"
  param {
    lr_mult: 1
    decay_mult: 1
  }
  param {
    lr_mult: 2
    decay_mult: 0
  }
  inner_product_param {
    num_output: 1024
    weight_filler {
      type: "xavier"
      std: 0.02
    }
    bias_filler {
      type: "constant"
      value: 0.2
    }
  }
}
layer {
  name: "loss2/relu_fc"
  type: "ReLU"
  bottom: "loss2/fc"
  top: "loss2/fc"
}
layer {
  name: "loss2/drop_fc"
  type: "Dropout"
  bottom: "loss2/fc"
  top: "loss2/fc"
  dropout_param {
    dropout_ratio: 0.7
  }
}
layer {
  name: "loss2/classifier_plantvillage"
  type: "InnerProduct"
  bottom: "loss2/fc"
  top: "loss2/classifier_plantvillage"
  param {
    lr_mult: 1
    decay_mult: 1
  }
  param {
    lr_mult: 2
    decay_mult: 0
  }
  inner_product_param {
    num_output: 38
    weight_filler {
      type: "xavier"
      std: 0.0009765625
    }
    bias_filler {
      type: "constant"
      value: 0
    }
  }
}
layer {
  name: "inception_4e/1x1"
  type: "Convolution"
  bottom: "inception_4d/output"
  top: "inception_4e/1x1"
  param {
    lr_mult: 1
    decay_mult: 1
  }
  param {
    lr_mult: 2
    decay_mult: 0
  }
  convolution_param {
    num_output: 256
    kernel_size: 1
    weight_filler {
      type: "xavier"
      std: 0.03
    }
    bias_filler {
      type: "constant"
      value: 0.2
    }
  }
}
layer {
  name: "inception_4e/relu_1x1"
  type: "ReLU"
  bottom: "inception_4e/1x1"
  top: "inception_4e/1x1"
}
layer {
  name: "inception_4e/3x3_reduce"
  type: "Convolution"
  bottom: "inception_4d/output"
  top: "inception_4e/3x3_reduce"
  param {
    lr_mult: 1
    decay_mult: 1
  }
  param {
    lr_mult: 2
    decay_mult: 0
  }
  convolution_param {
    num_output: 160
    kernel_size: 1
    weight_filler {
      type: "xavier"
      std: 0.09
    }
    bias_filler {
      type: "constant"
      value: 0.2
    }
  }
}
layer {
  name: "inception_4e/relu_3x3_reduce"
  type: "ReLU"
  bottom: "inception_4e/3x3_reduce"
  top: "inception_4e/3x3_reduce"
}
layer {
  name: "inception_4e/3x3"
  type: "Convolution"
  bottom: "inception_4e/3x3_reduce"
  top: "inception_4e/3x3"
  param {
    lr_mult: 1
    decay_mult: 1
  }
  param {
    lr_mult: 2
    decay_mult: 0
  }
  convolution_param {
    num_output: 320
    pad: 1
    kernel_size: 3
    weight_filler {
      type: "xavier"
      std: 0.03
    }
    bias_filler {
      type: "constant"
      value: 0.2
    }
  }
}
layer {
  name: "inception_4e/relu_3x3"
  type: "ReLU"
  bottom: "inception_4e/3x3"
  top: "inception_4e/3x3"
}
layer {
  name: "inception_4e/5x5_reduce"
  type: "Convolution"
  bottom: "inception_4d/output"
  top: "inception_4e/5x5_reduce"
  param {
    lr_mult: 1
    decay_mult: 1
  }
  param {
    lr_mult: 2
    decay_mult: 0
  }
  convolution_param {
    num_output: 32
    kernel_size: 1
    weight_filler {
      type: "xavier"
      std: 0.2
    }
    bias_filler {
      type: "constant"
      value: 0.2
    }
  }
}
layer {
  name: "inception_4e/relu_5x5_reduce"
  type: "ReLU"
  bottom: "inception_4e/5x5_reduce"
  top: "inception_4e/5x5_reduce"
}
layer {
  name: "inception_4e/5x5"
  type: "Convolution"
  bottom: "inception_4e/5x5_reduce"
  top: "inception_4e/5x5"
  p
I0403 14:49:07.867571 13657 layer_factory.hpp:77] Creating layer data
I0403 14:49:07.868193 13657 net.cpp:91] Creating Layer data
I0403 14:49:07.868227 13657 net.cpp:399] data -> data
I0403 14:49:07.868276 13657 net.cpp:399] data -> label
I0403 14:49:07.868314 13657 data_transformer.cpp:25] Loading mean file from: /home/mohanty/data/final_dataset/lmdb/color-40-60/mean.binaryproto
I0403 14:49:07.870971 13661 db_lmdb.cpp:38] Opened lmdb /home/mohanty/data/final_dataset/lmdb/color-40-60/test_db
I0403 14:49:07.881947 13657 data_layer.cpp:41] output data size: 24,3,224,224
I0403 14:49:07.909796 13657 net.cpp:141] Setting up data
I0403 14:49:07.909874 13657 net.cpp:148] Top shape: 24 3 224 224 (3612672)
I0403 14:49:07.909898 13657 net.cpp:148] Top shape: 24 (24)
I0403 14:49:07.909912 13657 net.cpp:156] Memory required for data: 14450784
I0403 14:49:07.909940 13657 layer_factory.hpp:77] Creating layer label_data_1_split
I0403 14:49:07.909966 13657 net.cpp:91] Creating Layer label_data_1_split
I0403 14:49:07.909984 13657 net.cpp:425] label_data_1_split <- label
I0403 14:49:07.910017 13657 net.cpp:399] label_data_1_split -> label_data_1_split_0
I0403 14:49:07.910045 13657 net.cpp:399] label_data_1_split -> label_data_1_split_1
I0403 14:49:07.910068 13657 net.cpp:399] label_data_1_split -> label_data_1_split_2
I0403 14:49:07.910089 13657 net.cpp:399] label_data_1_split -> label_data_1_split_3
I0403 14:49:07.910109 13657 net.cpp:399] label_data_1_split -> label_data_1_split_4
I0403 14:49:07.910128 13657 net.cpp:399] label_data_1_split -> label_data_1_split_5
I0403 14:49:07.910147 13657 net.cpp:399] label_data_1_split -> label_data_1_split_6
I0403 14:49:07.910169 13657 net.cpp:399] label_data_1_split -> label_data_1_split_7
I0403 14:49:07.910189 13657 net.cpp:399] label_data_1_split -> label_data_1_split_8
I0403 14:49:07.910210 13657 net.cpp:399] label_data_1_split -> label_data_1_split_9
I0403 14:49:07.910328 13657 net.cpp:141] Setting up label_data_1_split
I0403 14:49:07.910353 13657 net.cpp:148] Top shape: 24 (24)
I0403 14:49:07.910369 13657 net.cpp:148] Top shape: 24 (24)
I0403 14:49:07.910385 13657 net.cpp:148] Top shape: 24 (24)
I0403 14:49:07.910400 13657 net.cpp:148] Top shape: 24 (24)
I0403 14:49:07.910415 13657 net.cpp:148] Top shape: 24 (24)
I0403 14:49:07.910430 13657 net.cpp:148] Top shape: 24 (24)
I0403 14:49:07.910445 13657 net.cpp:148] Top shape: 24 (24)
I0403 14:49:07.910460 13657 net.cpp:148] Top shape: 24 (24)
I0403 14:49:07.910475 13657 net.cpp:148] Top shape: 24 (24)
I0403 14:49:07.910490 13657 net.cpp:148] Top shape: 24 (24)
I0403 14:49:07.910534 13657 net.cpp:156] Memory required for data: 14451744
I0403 14:49:07.910550 13657 layer_factory.hpp:77] Creating layer conv1/7x7_s2
I0403 14:49:07.910581 13657 net.cpp:91] Creating Layer conv1/7x7_s2
I0403 14:49:07.910604 13657 net.cpp:425] conv1/7x7_s2 <- data
I0403 14:49:07.910625 13657 net.cpp:399] conv1/7x7_s2 -> conv1/7x7_s2
I0403 14:49:10.146033 13657 net.cpp:141] Setting up conv1/7x7_s2
I0403 14:49:10.146112 13657 net.cpp:148] Top shape: 24 64 112 112 (19267584)
I0403 14:49:10.146129 13657 net.cpp:156] Memory required for data: 91522080
I0403 14:49:10.146159 13657 layer_factory.hpp:77] Creating layer conv1/relu_7x7
I0403 14:49:10.146198 13657 net.cpp:91] Creating Layer conv1/relu_7x7
I0403 14:49:10.146215 13657 net.cpp:425] conv1/relu_7x7 <- conv1/7x7_s2
I0403 14:49:10.146234 13657 net.cpp:386] conv1/relu_7x7 -> conv1/7x7_s2 (in-place)
I0403 14:49:10.146477 13657 net.cpp:141] Setting up conv1/relu_7x7
I0403 14:49:10.146503 13657 net.cpp:148] Top shape: 24 64 112 112 (19267584)
I0403 14:49:10.146517 13657 net.cpp:156] Memory required for data: 168592416
I0403 14:49:10.146533 13657 layer_factory.hpp:77] Creating layer pool1/3x3_s2
I0403 14:49:10.146555 13657 net.cpp:91] Creating Layer pool1/3x3_s2
I0403 14:49:10.146571 13657 net.cpp:425] pool1/3x3_s2 <- conv1/7x7_s2
I0403 14:49:10.146589 13657 net.cpp:399] pool1/3x3_s2 -> pool1/3x3_s2
I0403 14:49:10.146662 13657 net.cpp:141] Setting up pool1/3x3_s2
I0403 14:49:10.146684 13657 net.cpp:148] Top shape: 24 64 56 56 (4816896)
I0403 14:49:10.146698 13657 net.cpp:156] Memory required for data: 187860000
I0403 14:49:10.146713 13657 layer_factory.hpp:77] Creating layer pool1/norm1
I0403 14:49:10.146734 13657 net.cpp:91] Creating Layer pool1/norm1
I0403 14:49:10.146750 13657 net.cpp:425] pool1/norm1 <- pool1/3x3_s2
I0403 14:49:10.146767 13657 net.cpp:399] pool1/norm1 -> pool1/norm1
I0403 14:49:10.147044 13657 net.cpp:141] Setting up pool1/norm1
I0403 14:49:10.147070 13657 net.cpp:148] Top shape: 24 64 56 56 (4816896)
I0403 14:49:10.147085 13657 net.cpp:156] Memory required for data: 207127584
I0403 14:49:10.147099 13657 layer_factory.hpp:77] Creating layer conv2/3x3_reduce
I0403 14:49:10.147125 13657 net.cpp:91] Creating Layer conv2/3x3_reduce
I0403 14:49:10.147142 13657 net.cpp:425] conv2/3x3_reduce <- pool1/norm1
I0403 14:49:10.147161 13657 net.cpp:399] conv2/3x3_reduce -> conv2/3x3_reduce
I0403 14:49:10.148499 13657 net.cpp:141] Setting up conv2/3x3_reduce
I0403 14:49:10.148529 13657 net.cpp:148] Top shape: 24 64 56 56 (4816896)
I0403 14:49:10.148545 13657 net.cpp:156] Memory required for data: 226395168
I0403 14:49:10.148564 13657 layer_factory.hpp:77] Creating layer conv2/relu_3x3_reduce
I0403 14:49:10.148581 13657 net.cpp:91] Creating Layer conv2/relu_3x3_reduce
I0403 14:49:10.148597 13657 net.cpp:425] conv2/relu_3x3_reduce <- conv2/3x3_reduce
I0403 14:49:10.148618 13657 net.cpp:386] conv2/relu_3x3_reduce -> conv2/3x3_reduce (in-place)
I0403 14:49:10.148874 13657 net.cpp:141] Setting up conv2/relu_3x3_reduce
I0403 14:49:10.148900 13657 net.cpp:148] Top shape: 24 64 56 56 (4816896)
I0403 14:49:10.148916 13657 net.cpp:156] Memory required for data: 245662752
I0403 14:49:10.148931 13657 layer_factory.hpp:77] Creating layer conv2/3x3
I0403 14:49:10.148954 13657 net.cpp:91] Creating Layer conv2/3x3
I0403 14:49:10.148972 13657 net.cpp:425] conv2/3x3 <- conv2/3x3_reduce
I0403 14:49:10.148990 13657 net.cpp:399] conv2/3x3 -> conv2/3x3
I0403 14:49:10.151211 13657 net.cpp:141] Setting up conv2/3x3
I0403 14:49:10.151242 13657 net.cpp:148] Top shape: 24 192 56 56 (14450688)
I0403 14:49:10.151260 13657 net.cpp:156] Memory required for data: 303465504
I0403 14:49:10.151279 13657 layer_factory.hpp:77] Creating layer conv2/relu_3x3
I0403 14:49:10.151298 13657 net.cpp:91] Creating Layer conv2/relu_3x3
I0403 14:49:10.151314 13657 net.cpp:425] conv2/relu_3x3 <- conv2/3x3
I0403 14:49:10.151329 13657 net.cpp:386] conv2/relu_3x3 -> conv2/3x3 (in-place)
I0403 14:49:10.151495 13657 net.cpp:141] Setting up conv2/relu_3x3
I0403 14:49:10.151520 13657 net.cpp:148] Top shape: 24 192 56 56 (14450688)
I0403 14:49:10.151569 13657 net.cpp:156] Memory required for data: 361268256
I0403 14:49:10.151584 13657 layer_factory.hpp:77] Creating layer conv2/norm2
I0403 14:49:10.151609 13657 net.cpp:91] Creating Layer conv2/norm2
I0403 14:49:10.151628 13657 net.cpp:425] conv2/norm2 <- conv2/3x3
I0403 14:49:10.151644 13657 net.cpp:399] conv2/norm2 -> conv2/norm2
I0403 14:49:10.151926 13657 net.cpp:141] Setting up conv2/norm2
I0403 14:49:10.151953 13657 net.cpp:148] Top shape: 24 192 56 56 (14450688)
I0403 14:49:10.151968 13657 net.cpp:156] Memory required for data: 419071008
I0403 14:49:10.151981 13657 layer_factory.hpp:77] Creating layer pool2/3x3_s2
I0403 14:49:10.152004 13657 net.cpp:91] Creating Layer pool2/3x3_s2
I0403 14:49:10.152019 13657 net.cpp:425] pool2/3x3_s2 <- conv2/norm2
I0403 14:49:10.152035 13657 net.cpp:399] pool2/3x3_s2 -> pool2/3x3_s2
I0403 14:49:10.152086 13657 net.cpp:141] Setting up pool2/3x3_s2
I0403 14:49:10.152107 13657 net.cpp:148] Top shape: 24 192 28 28 (3612672)
I0403 14:49:10.152122 13657 net.cpp:156] Memory required for data: 433521696
I0403 14:49:10.152135 13657 layer_factory.hpp:77] Creating layer pool2/3x3_s2_pool2/3x3_s2_0_split
I0403 14:49:10.152150 13657 net.cpp:91] Creating Layer pool2/3x3_s2_pool2/3x3_s2_0_split
I0403 14:49:10.152164 13657 net.cpp:425] pool2/3x3_s2_pool2/3x3_s2_0_split <- pool2/3x3_s2
I0403 14:49:10.152182 13657 net.cpp:399] pool2/3x3_s2_pool2/3x3_s2_0_split -> pool2/3x3_s2_pool2/3x3_s2_0_split_0
I0403 14:49:10.152201 13657 net.cpp:399] pool2/3x3_s2_pool2/3x3_s2_0_split -> pool2/3x3_s2_pool2/3x3_s2_0_split_1
I0403 14:49:10.152220 13657 net.cpp:399] pool2/3x3_s2_pool2/3x3_s2_0_split -> pool2/3x3_s2_pool2/3x3_s2_0_split_2
I0403 14:49:10.152237 13657 net.cpp:399] pool2/3x3_s2_pool2/3x3_s2_0_split -> pool2/3x3_s2_pool2/3x3_s2_0_split_3
I0403 14:49:10.152303 13657 net.cpp:141] Setting up pool2/3x3_s2_pool2/3x3_s2_0_split
I0403 14:49:10.152328 13657 net.cpp:148] Top shape: 24 192 28 28 (3612672)
I0403 14:49:10.152343 13657 net.cpp:148] Top shape: 24 192 28 28 (3612672)
I0403 14:49:10.152357 13657 net.cpp:148] Top shape: 24 192 28 28 (3612672)
I0403 14:49:10.152371 13657 net.cpp:148] Top shape: 24 192 28 28 (3612672)
I0403 14:49:10.152384 13657 net.cpp:156] Memory required for data: 491324448
I0403 14:49:10.152398 13657 layer_factory.hpp:77] Creating layer inception_3a/1x1
I0403 14:49:10.152418 13657 net.cpp:91] Creating Layer inception_3a/1x1
I0403 14:49:10.152434 13657 net.cpp:425] inception_3a/1x1 <- pool2/3x3_s2_pool2/3x3_s2_0_split_0
I0403 14:49:10.152454 13657 net.cpp:399] inception_3a/1x1 -> inception_3a/1x1
I0403 14:49:10.153942 13657 net.cpp:141] Setting up inception_3a/1x1
I0403 14:49:10.153970 13657 net.cpp:148] Top shape: 24 64 28 28 (1204224)
I0403 14:49:10.153985 13657 net.cpp:156] Memory required for data: 496141344
I0403 14:49:10.154002 13657 layer_factory.hpp:77] Creating layer inception_3a/relu_1x1
I0403 14:49:10.154021 13657 net.cpp:91] Creating Layer inception_3a/relu_1x1
I0403 14:49:10.154038 13657 net.cpp:425] inception_3a/relu_1x1 <- inception_3a/1x1
I0403 14:49:10.154054 13657 net.cpp:386] inception_3a/relu_1x1 -> inception_3a/1x1 (in-place)
I0403 14:49:10.154218 13657 net.cpp:141] Setting up inception_3a/relu_1x1
I0403 14:49:10.154242 13657 net.cpp:148] Top shape: 24 64 28 28 (1204224)
I0403 14:49:10.154255 13657 net.cpp:156] Memory required for data: 500958240
I0403 14:49:10.154269 13657 layer_factory.hpp:77] Creating layer inception_3a/3x3_reduce
I0403 14:49:10.154290 13657 net.cpp:91] Creating Layer inception_3a/3x3_reduce
I0403 14:49:10.154306 13657 net.cpp:425] inception_3a/3x3_reduce <- pool2/3x3_s2_pool2/3x3_s2_0_split_1
I0403 14:49:10.154326 13657 net.cpp:399] inception_3a/3x3_reduce -> inception_3a/3x3_reduce
I0403 14:49:10.155973 13657 net.cpp:141] Setting up inception_3a/3x3_reduce
I0403 14:49:10.156004 13657 net.cpp:148] Top shape: 24 96 28 28 (1806336)
I0403 14:49:10.156021 13657 net.cpp:156] Memory required for data: 508183584
I0403 14:49:10.156040 13657 layer_factory.hpp:77] Creating layer inception_3a/relu_3x3_reduce
I0403 14:49:10.156075 13657 net.cpp:91] Creating Layer inception_3a/relu_3x3_reduce
I0403 14:49:10.156091 13657 net.cpp:425] inception_3a/relu_3x3_reduce <- inception_3a/3x3_reduce
I0403 14:49:10.156111 13657 net.cpp:386] inception_3a/relu_3x3_reduce -> inception_3a/3x3_reduce (in-place)
I0403 14:49:10.156280 13657 net.cpp:141] Setting up inception_3a/relu_3x3_reduce
I0403 14:49:10.156306 13657 net.cpp:148] Top shape: 24 96 28 28 (1806336)
I0403 14:49:10.156322 13657 net.cpp:156] Memory required for data: 515408928
I0403 14:49:10.156337 13657 layer_factory.hpp:77] Creating layer inception_3a/3x3
I0403 14:49:10.156357 13657 net.cpp:91] Creating Layer inception_3a/3x3
I0403 14:49:10.156373 13657 net.cpp:425] inception_3a/3x3 <- inception_3a/3x3_reduce
I0403 14:49:10.156394 13657 net.cpp:399] inception_3a/3x3 -> inception_3a/3x3
I0403 14:49:10.157984 13657 net.cpp:141] Setting up inception_3a/3x3
I0403 14:49:10.158015 13657 net.cpp:148] Top shape: 24 128 28 28 (2408448)
I0403 14:49:10.158030 13657 net.cpp:156] Memory required for data: 525042720
I0403 14:49:10.158048 13657 layer_factory.hpp:77] Creating layer inception_3a/relu_3x3
I0403 14:49:10.158064 13657 net.cpp:91] Creating Layer inception_3a/relu_3x3
I0403 14:49:10.158079 13657 net.cpp:425] inception_3a/relu_3x3 <- inception_3a/3x3
I0403 14:49:10.158097 13657 net.cpp:386] inception_3a/relu_3x3 -> inception_3a/3x3 (in-place)
I0403 14:49:10.158356 13657 net.cpp:141] Setting up inception_3a/relu_3x3
I0403 14:49:10.158385 13657 net.cpp:148] Top shape: 24 128 28 28 (2408448)
I0403 14:49:10.158399 13657 net.cpp:156] Memory required for data: 534676512
I0403 14:49:10.158413 13657 layer_factory.hpp:77] Creating layer inception_3a/5x5_reduce
I0403 14:49:10.158434 13657 net.cpp:91] Creating Layer inception_3a/5x5_reduce
I0403 14:49:10.158452 13657 net.cpp:425] inception_3a/5x5_reduce <- pool2/3x3_s2_pool2/3x3_s2_0_split_2
I0403 14:49:10.158469 13657 net.cpp:399] inception_3a/5x5_reduce -> inception_3a/5x5_reduce
I0403 14:49:10.159371 13657 net.cpp:141] Setting up inception_3a/5x5_reduce
I0403 14:49:10.159399 13657 net.cpp:148] Top shape: 24 16 28 28 (301056)
I0403 14:49:10.159414 13657 net.cpp:156] Memory required for data: 535880736
I0403 14:49:10.159430 13657 layer_factory.hpp:77] Creating layer inception_3a/relu_5x5_reduce
I0403 14:49:10.159447 13657 net.cpp:91] Creating Layer inception_3a/relu_5x5_reduce
I0403 14:49:10.159462 13657 net.cpp:425] inception_3a/relu_5x5_reduce <- inception_3a/5x5_reduce
I0403 14:49:10.159482 13657 net.cpp:386] inception_3a/relu_5x5_reduce -> inception_3a/5x5_reduce (in-place)
I0403 14:49:10.159765 13657 net.cpp:141] Setting up inception_3a/relu_5x5_reduce
I0403 14:49:10.159790 13657 net.cpp:148] Top shape: 24 16 28 28 (301056)
I0403 14:49:10.159803 13657 net.cpp:156] Memory required for data: 537084960
I0403 14:49:10.159817 13657 layer_factory.hpp:77] Creating layer inception_3a/5x5
I0403 14:49:10.159838 13657 net.cpp:91] Creating Layer inception_3a/5x5
I0403 14:49:10.159855 13657 net.cpp:425] inception_3a/5x5 <- inception_3a/5x5_reduce
I0403 14:49:10.159874 13657 net.cpp:399] inception_3a/5x5 -> inception_3a/5x5
I0403 14:49:10.160822 13657 net.cpp:141] Setting up inception_3a/5x5
I0403 14:49:10.160851 13657 net.cpp:148] Top shape: 24 32 28 28 (602112)
I0403 14:49:10.160867 13657 net.cpp:156] Memory required for data: 539493408
I0403 14:49:10.160884 13657 layer_factory.hpp:77] Creating layer inception_3a/relu_5x5
I0403 14:49:10.160902 13657 net.cpp:91] Creating Layer inception_3a/relu_5x5
I0403 14:49:10.160915 13657 net.cpp:425] inception_3a/relu_5x5 <- inception_3a/5x5
I0403 14:49:10.160933 13657 net.cpp:386] inception_3a/relu_5x5 -> inception_3a/5x5 (in-place)
I0403 14:49:10.161098 13657 net.cpp:141] Setting up inception_3a/relu_5x5
I0403 14:49:10.161121 13657 net.cpp:148] Top shape: 24 32 28 28 (602112)
I0403 14:49:10.161134 13657 net.cpp:156] Memory required for data: 541901856
I0403 14:49:10.161147 13657 layer_factory.hpp:77] Creating layer inception_3a/pool
I0403 14:49:10.161164 13657 net.cpp:91] Creating Layer inception_3a/pool
I0403 14:49:10.161180 13657 net.cpp:425] inception_3a/pool <- pool2/3x3_s2_pool2/3x3_s2_0_split_3
I0403 14:49:10.161213 13657 net.cpp:399] inception_3a/pool -> inception_3a/pool
I0403 14:49:10.161269 13657 net.cpp:141] Setting up inception_3a/pool
I0403 14:49:10.161291 13657 net.cpp:148] Top shape: 24 192 28 28 (3612672)
I0403 14:49:10.161305 13657 net.cpp:156] Memory required for data: 556352544
I0403 14:49:10.161319 13657 layer_factory.hpp:77] Creating layer inception_3a/pool_proj
I0403 14:49:10.161341 13657 net.cpp:91] Creating Layer inception_3a/pool_proj
I0403 14:49:10.161358 13657 net.cpp:425] inception_3a/pool_proj <- inception_3a/pool
I0403 14:49:10.161375 13657 net.cpp:399] inception_3a/pool_proj -> inception_3a/pool_proj
I0403 14:49:10.162281 13657 net.cpp:141] Setting up inception_3a/pool_proj
I0403 14:49:10.162308 13657 net.cpp:148] Top shape: 24 32 28 28 (602112)
I0403 14:49:10.162322 13657 net.cpp:156] Memory required for data: 558760992
I0403 14:49:10.162344 13657 layer_factory.hpp:77] Creating layer inception_3a/relu_pool_proj
I0403 14:49:10.162364 13657 net.cpp:91] Creating Layer inception_3a/relu_pool_proj
I0403 14:49:10.162379 13657 net.cpp:425] inception_3a/relu_pool_proj <- inception_3a/pool_proj
I0403 14:49:10.162397 13657 net.cpp:386] inception_3a/relu_pool_proj -> inception_3a/pool_proj (in-place)
I0403 14:49:10.162659 13657 net.cpp:141] Setting up inception_3a/relu_pool_proj
I0403 14:49:10.162688 13657 net.cpp:148] Top shape: 24 32 28 28 (602112)
I0403 14:49:10.162703 13657 net.cpp:156] Memory required for data: 561169440
I0403 14:49:10.162716 13657 layer_factory.hpp:77] Creating layer inception_3a/output
I0403 14:49:10.162732 13657 net.cpp:91] Creating Layer inception_3a/output
I0403 14:49:10.162747 13657 net.cpp:425] inception_3a/output <- inception_3a/1x1
I0403 14:49:10.162762 13657 net.cpp:425] inception_3a/output <- inception_3a/3x3
I0403 14:49:10.162777 13657 net.cpp:425] inception_3a/output <- inception_3a/5x5
I0403 14:49:10.162792 13657 net.cpp:425] inception_3a/output <- inception_3a/pool_proj
I0403 14:49:10.162811 13657 net.cpp:399] inception_3a/output -> inception_3a/output
I0403 14:49:10.162855 13657 net.cpp:141] Setting up inception_3a/output
I0403 14:49:10.162878 13657 net.cpp:148] Top shape: 24 256 28 28 (4816896)
I0403 14:49:10.162891 13657 net.cpp:156] Memory required for data: 580437024
I0403 14:49:10.162904 13657 layer_factory.hpp:77] Creating layer inception_3a/output_inception_3a/output_0_split
I0403 14:49:10.162922 13657 net.cpp:91] Creating Layer inception_3a/output_inception_3a/output_0_split
I0403 14:49:10.162938 13657 net.cpp:425] inception_3a/output_inception_3a/output_0_split <- inception_3a/output
I0403 14:49:10.162955 13657 net.cpp:399] inception_3a/output_inception_3a/output_0_split -> inception_3a/output_inception_3a/output_0_split_0
I0403 14:49:10.162973 13657 net.cpp:399] inception_3a/output_inception_3a/output_0_split -> inception_3a/output_inception_3a/output_0_split_1
I0403 14:49:10.162997 13657 net.cpp:399] inception_3a/output_inception_3a/output_0_split -> inception_3a/output_inception_3a/output_0_split_2
I0403 14:49:10.163017 13657 net.cpp:399] inception_3a/output_inception_3a/output_0_split -> inception_3a/output_inception_3a/output_0_split_3
I0403 14:49:10.163086 13657 net.cpp:141] Setting up inception_3a/output_inception_3a/output_0_split
I0403 14:49:10.163110 13657 net.cpp:148] Top shape: 24 256 28 28 (4816896)
I0403 14:49:10.163127 13657 net.cpp:148] Top shape: 24 256 28 28 (4816896)
I0403 14:49:10.163142 13657 net.cpp:148] Top shape: 24 256 28 28 (4816896)
I0403 14:49:10.163156 13657 net.cpp:148] Top shape: 24 256 28 28 (4816896)
I0403 14:49:10.163168 13657 net.cpp:156] Memory required for data: 657507360
I0403 14:49:10.163182 13657 layer_factory.hpp:77] Creating layer inception_3b/1x1
I0403 14:49:10.163203 13657 net.cpp:91] Creating Layer inception_3b/1x1
I0403 14:49:10.163218 13657 net.cpp:425] inception_3b/1x1 <- inception_3a/output_inception_3a/output_0_split_0
I0403 14:49:10.163235 13657 net.cpp:399] inception_3b/1x1 -> inception_3b/1x1
I0403 14:49:10.164306 13657 net.cpp:141] Setting up inception_3b/1x1
I0403 14:49:10.164345 13657 net.cpp:148] Top shape: 24 128 28 28 (2408448)
I0403 14:49:10.164363 13657 net.cpp:156] Memory required for data: 667141152
I0403 14:49:10.164381 13657 layer_factory.hpp:77] Creating layer inception_3b/relu_1x1
I0403 14:49:10.164398 13657 net.cpp:91] Creating Layer inception_3b/relu_1x1
I0403 14:49:10.164412 13657 net.cpp:425] inception_3b/relu_1x1 <- inception_3b/1x1
I0403 14:49:10.164429 13657 net.cpp:386] inception_3b/relu_1x1 -> inception_3b/1x1 (in-place)
I0403 14:49:10.164595 13657 net.cpp:141] Setting up inception_3b/relu_1x1
I0403 14:49:10.164633 13657 net.cpp:148] Top shape: 24 128 28 28 (2408448)
I0403 14:49:10.164647 13657 net.cpp:156] Memory required for data: 676774944
I0403 14:49:10.164661 13657 layer_factory.hpp:77] Creating layer inception_3b/3x3_reduce
I0403 14:49:10.164683 13657 net.cpp:91] Creating Layer inception_3b/3x3_reduce
I0403 14:49:10.164700 13657 net.cpp:425] inception_3b/3x3_reduce <- inception_3a/output_inception_3a/output_0_split_1
I0403 14:49:10.164717 13657 net.cpp:399] inception_3b/3x3_reduce -> inception_3b/3x3_reduce
I0403 14:49:10.165786 13657 net.cpp:141] Setting up inception_3b/3x3_reduce
I0403 14:49:10.165813 13657 net.cpp:148] Top shape: 24 128 28 28 (2408448)
I0403 14:49:10.165827 13657 net.cpp:156] Memory required for data: 686408736
I0403 14:49:10.165843 13657 layer_factory.hpp:77] Creating layer inception_3b/relu_3x3_reduce
I0403 14:49:10.165863 13657 net.cpp:91] Creating Layer inception_3b/relu_3x3_reduce
I0403 14:49:10.165880 13657 net.cpp:425] inception_3b/relu_3x3_reduce <- inception_3b/3x3_reduce
I0403 14:49:10.165895 13657 net.cpp:386] inception_3b/relu_3x3_reduce -> inception_3b/3x3_reduce (in-place)
I0403 14:49:10.166055 13657 net.cpp:141] Setting up inception_3b/relu_3x3_reduce
I0403 14:49:10.166080 13657 net.cpp:148] Top shape: 24 128 28 28 (2408448)
I0403 14:49:10.166095 13657 net.cpp:156] Memory required for data: 696042528
I0403 14:49:10.166108 13657 layer_factory.hpp:77] Creating layer inception_3b/3x3
I0403 14:49:10.166131 13657 net.cpp:91] Creating Layer inception_3b/3x3
I0403 14:49:10.166148 13657 net.cpp:425] inception_3b/3x3 <- inception_3b/3x3_reduce
I0403 14:49:10.166168 13657 net.cpp:399] inception_3b/3x3 -> inception_3b/3x3
I0403 14:49:10.168978 13657 net.cpp:141] Setting up inception_3b/3x3
I0403 14:49:10.169008 13657 net.cpp:148] Top shape: 24 192 28 28 (3612672)
I0403 14:49:10.169024 13657 net.cpp:156] Memory required for data: 710493216
I0403 14:49:10.169042 13657 layer_factory.hpp:77] Creating layer inception_3b/relu_3x3
I0403 14:49:10.169059 13657 net.cpp:91] Creating Layer inception_3b/relu_3x3
I0403 14:49:10.169075 13657 net.cpp:425] inception_3b/relu_3x3 <- inception_3b/3x3
I0403 14:49:10.169092 13657 net.cpp:386] inception_3b/relu_3x3 -> inception_3b/3x3 (in-place)
I0403 14:49:10.169358 13657 net.cpp:141] Setting up inception_3b/relu_3x3
I0403 14:49:10.169385 13657 net.cpp:148] Top shape: 24 192 28 28 (3612672)
I0403 14:49:10.169400 13657 net.cpp:156] Memory required for data: 724943904
I0403 14:49:10.169415 13657 layer_factory.hpp:77] Creating layer inception_3b/5x5_reduce
I0403 14:49:10.169437 13657 net.cpp:91] Creating Layer inception_3b/5x5_reduce
I0403 14:49:10.169455 13657 net.cpp:425] inception_3b/5x5_reduce <- inception_3a/output_inception_3a/output_0_split_2
I0403 14:49:10.169471 13657 net.cpp:399] inception_3b/5x5_reduce -> inception_3b/5x5_reduce
I0403 14:49:10.170414 13657 net.cpp:141] Setting up inception_3b/5x5_reduce
I0403 14:49:10.170444 13657 net.cpp:148] Top shape: 24 32 28 28 (602112)
I0403 14:49:10.170460 13657 net.cpp:156] Memory required for data: 727352352
I0403 14:49:10.170477 13657 layer_factory.hpp:77] Creating layer inception_3b/relu_5x5_reduce
I0403 14:49:10.170495 13657 net.cpp:91] Creating Layer inception_3b/relu_5x5_reduce
I0403 14:49:10.170508 13657 net.cpp:425] inception_3b/relu_5x5_reduce <- inception_3b/5x5_reduce
I0403 14:49:10.170527 13657 net.cpp:386] inception_3b/relu_5x5_reduce -> inception_3b/5x5_reduce (in-place)
I0403 14:49:10.170696 13657 net.cpp:141] Setting up inception_3b/relu_5x5_reduce
I0403 14:49:10.170732 13657 net.cpp:148] Top shape: 24 32 28 28 (602112)
I0403 14:49:10.170747 13657 net.cpp:156] Memory required for data: 729760800
I0403 14:49:10.170761 13657 layer_factory.hpp:77] Creating layer inception_3b/5x5
I0403 14:49:10.170783 13657 net.cpp:91] Creating Layer inception_3b/5x5
I0403 14:49:10.170799 13657 net.cpp:425] inception_3b/5x5 <- inception_3b/5x5_reduce
I0403 14:49:10.170819 13657 net.cpp:399] inception_3b/5x5 -> inception_3b/5x5
I0403 14:49:10.172721 13657 net.cpp:141] Setting up inception_3b/5x5
I0403 14:49:10.172749 13657 net.cpp:148] Top shape: 24 96 28 28 (1806336)
I0403 14:49:10.172765 13657 net.cpp:156] Memory required for data: 736986144
I0403 14:49:10.172783 13657 layer_factory.hpp:77] Creating layer inception_3b/relu_5x5
I0403 14:49:10.172803 13657 net.cpp:91] Creating Layer inception_3b/relu_5x5
I0403 14:49:10.172821 13657 net.cpp:425] inception_3b/relu_5x5 <- inception_3b/5x5
I0403 14:49:10.172837 13657 net.cpp:386] inception_3b/relu_5x5 -> inception_3b/5x5 (in-place)
I0403 14:49:10.173017 13657 net.cpp:141] Setting up inception_3b/relu_5x5
I0403 14:49:10.173040 13657 net.cpp:148] Top shape: 24 96 28 28 (1806336)
I0403 14:49:10.173054 13657 net.cpp:156] Memory required for data: 744211488
I0403 14:49:10.173068 13657 layer_factory.hpp:77] Creating layer inception_3b/pool
I0403 14:49:10.173084 13657 net.cpp:91] Creating Layer inception_3b/pool
I0403 14:49:10.173099 13657 net.cpp:425] inception_3b/pool <- inception_3a/output_inception_3a/output_0_split_3
I0403 14:49:10.173115 13657 net.cpp:399] inception_3b/pool -> inception_3b/pool
I0403 14:49:10.173167 13657 net.cpp:141] Setting up inception_3b/pool
I0403 14:49:10.173202 13657 net.cpp:148] Top shape: 24 256 28 28 (4816896)
I0403 14:49:10.173215 13657 net.cpp:156] Memory required for data: 763479072
I0403 14:49:10.173229 13657 layer_factory.hpp:77] Creating layer inception_3b/pool_proj
I0403 14:49:10.173252 13657 net.cpp:91] Creating Layer inception_3b/pool_proj
I0403 14:49:10.173270 13657 net.cpp:425] inception_3b/pool_proj <- inception_3b/pool
I0403 14:49:10.173288 13657 net.cpp:399] inception_3b/pool_proj -> inception_3b/pool_proj
I0403 14:49:10.174309 13657 net.cpp:141] Setting up inception_3b/pool_proj
I0403 14:49:10.174336 13657 net.cpp:148] Top shape: 24 64 28 28 (1204224)
I0403 14:49:10.174350 13657 net.cpp:156] Memory required for data: 768295968
I0403 14:49:10.174368 13657 layer_factory.hpp:77] Creating layer inception_3b/relu_pool_proj
I0403 14:49:10.174386 13657 net.cpp:91] Creating Layer inception_3b/relu_pool_proj
I0403 14:49:10.174399 13657 net.cpp:425] inception_3b/relu_pool_proj <- inception_3b/pool_proj
I0403 14:49:10.174417 13657 net.cpp:386] inception_3b/relu_pool_proj -> inception_3b/pool_proj (in-place)
I0403 14:49:10.174813 13657 net.cpp:141] Setting up inception_3b/relu_pool_proj
I0403 14:49:10.174839 13657 net.cpp:148] Top shape: 24 64 28 28 (1204224)
I0403 14:49:10.174852 13657 net.cpp:156] Memory required for data: 773112864
I0403 14:49:10.174866 13657 layer_factory.hpp:77] Creating layer inception_3b/output
I0403 14:49:10.174882 13657 net.cpp:91] Creating Layer inception_3b/output
I0403 14:49:10.174897 13657 net.cpp:425] inception_3b/output <- inception_3b/1x1
I0403 14:49:10.174912 13657 net.cpp:425] inception_3b/output <- inception_3b/3x3
I0403 14:49:10.174927 13657 net.cpp:425] inception_3b/output <- inception_3b/5x5
I0403 14:49:10.174942 13657 net.cpp:425] inception_3b/output <- inception_3b/pool_proj
I0403 14:49:10.174960 13657 net.cpp:399] inception_3b/output -> inception_3b/output
I0403 14:49:10.175003 13657 net.cpp:141] Setting up inception_3b/output
I0403 14:49:10.175026 13657 net.cpp:148] Top shape: 24 480 28 28 (9031680)
I0403 14:49:10.175041 13657 net.cpp:156] Memory required for data: 809239584
I0403 14:49:10.175055 13657 layer_factory.hpp:77] Creating layer pool3/3x3_s2
I0403 14:49:10.175071 13657 net.cpp:91] Creating Layer pool3/3x3_s2
I0403 14:49:10.175084 13657 net.cpp:425] pool3/3x3_s2 <- inception_3b/output
I0403 14:49:10.175103 13657 net.cpp:399] pool3/3x3_s2 -> pool3/3x3_s2
I0403 14:49:10.175171 13657 net.cpp:141] Setting up pool3/3x3_s2
I0403 14:49:10.175194 13657 net.cpp:148] Top shape: 24 480 14 14 (2257920)
I0403 14:49:10.175209 13657 net.cpp:156] Memory required for data: 818271264
I0403 14:49:10.175221 13657 layer_factory.hpp:77] Creating layer pool3/3x3_s2_pool3/3x3_s2_0_split
I0403 14:49:10.175240 13657 net.cpp:91] Creating Layer pool3/3x3_s2_pool3/3x3_s2_0_split
I0403 14:49:10.175256 13657 net.cpp:425] pool3/3x3_s2_pool3/3x3_s2_0_split <- pool3/3x3_s2
I0403 14:49:10.175272 13657 net.cpp:399] pool3/3x3_s2_pool3/3x3_s2_0_split -> pool3/3x3_s2_pool3/3x3_s2_0_split_0
I0403 14:49:10.175292 13657 net.cpp:399] pool3/3x3_s2_pool3/3x3_s2_0_split -> pool3/3x3_s2_pool3/3x3_s2_0_split_1
I0403 14:49:10.175309 13657 net.cpp:399] pool3/3x3_s2_pool3/3x3_s2_0_split -> pool3/3x3_s2_pool3/3x3_s2_0_split_2
I0403 14:49:10.175328 13657 net.cpp:399] pool3/3x3_s2_pool3/3x3_s2_0_split -> pool3/3x3_s2_pool3/3x3_s2_0_split_3
I0403 14:49:10.175400 13657 net.cpp:141] Setting up pool3/3x3_s2_pool3/3x3_s2_0_split
I0403 14:49:10.175421 13657 net.cpp:148] Top shape: 24 480 14 14 (2257920)
I0403 14:49:10.175436 13657 net.cpp:148] Top shape: 24 480 14 14 (2257920)
I0403 14:49:10.175451 13657 net.cpp:148] Top shape: 24 480 14 14 (2257920)
I0403 14:49:10.175463 13657 net.cpp:148] Top shape: 24 480 14 14 (2257920)
I0403 14:49:10.175477 13657 net.cpp:156] Memory required for data: 854397984
I0403 14:49:10.175489 13657 layer_factory.hpp:77] Creating layer inception_4a/1x1
I0403 14:49:10.175509 13657 net.cpp:91] Creating Layer inception_4a/1x1
I0403 14:49:10.175526 13657 net.cpp:425] inception_4a/1x1 <- pool3/3x3_s2_pool3/3x3_s2_0_split_0
I0403 14:49:10.175545 13657 net.cpp:399] inception_4a/1x1 -> inception_4a/1x1
I0403 14:49:10.177048 13657 net.cpp:141] Setting up inception_4a/1x1
I0403 14:49:10.177075 13657 net.cpp:148] Top shape: 24 192 14 14 (903168)
I0403 14:49:10.177091 13657 net.cpp:156] Memory required for data: 858010656
I0403 14:49:10.177109 13657 layer_factory.hpp:77] Creating layer inception_4a/relu_1x1
I0403 14:49:10.177127 13657 net.cpp:91] Creating Layer inception_4a/relu_1x1
I0403 14:49:10.177142 13657 net.cpp:425] inception_4a/relu_1x1 <- inception_4a/1x1
I0403 14:49:10.177160 13657 net.cpp:386] inception_4a/relu_1x1 -> inception_4a/1x1 (in-place)
I0403 14:49:10.177325 13657 net.cpp:141] Setting up inception_4a/relu_1x1
I0403 14:49:10.177351 13657 net.cpp:148] Top shape: 24 192 14 14 (903168)
I0403 14:49:10.177366 13657 net.cpp:156] Memory required for data: 861623328
I0403 14:49:10.177379 13657 layer_factory.hpp:77] Creating layer inception_4a/3x3_reduce
I0403 14:49:10.177400 13657 net.cpp:91] Creating Layer inception_4a/3x3_reduce
I0403 14:49:10.177417 13657 net.cpp:425] inception_4a/3x3_reduce <- pool3/3x3_s2_pool3/3x3_s2_0_split_1
I0403 14:49:10.177433 13657 net.cpp:399] inception_4a/3x3_reduce -> inception_4a/3x3_reduce
I0403 14:49:10.178658 13657 net.cpp:141] Setting up inception_4a/3x3_reduce
I0403 14:49:10.178685 13657 net.cpp:148] Top shape: 24 96 14 14 (451584)
I0403 14:49:10.178700 13657 net.cpp:156] Memory required for data: 863429664
I0403 14:49:10.178725 13657 layer_factory.hpp:77] Creating layer inception_4a/relu_3x3_reduce
I0403 14:49:10.178745 13657 net.cpp:91] Creating Layer inception_4a/relu_3x3_reduce
I0403 14:49:10.178760 13657 net.cpp:425] inception_4a/relu_3x3_reduce <- inception_4a/3x3_reduce
I0403 14:49:10.178777 13657 net.cpp:386] inception_4a/relu_3x3_reduce -> inception_4a/3x3_reduce (in-place)
I0403 14:49:10.178943 13657 net.cpp:141] Setting up inception_4a/relu_3x3_reduce
I0403 14:49:10.178967 13657 net.cpp:148] Top shape: 24 96 14 14 (451584)
I0403 14:49:10.178982 13657 net.cpp:156] Memory required for data: 865236000
I0403 14:49:10.178994 13657 layer_factory.hpp:77] Creating layer inception_4a/3x3
I0403 14:49:10.179014 13657 net.cpp:91] Creating Layer inception_4a/3x3
I0403 14:49:10.179031 13657 net.cpp:425] inception_4a/3x3 <- inception_4a/3x3_reduce
I0403 14:49:10.179050 13657 net.cpp:399] inception_4a/3x3 -> inception_4a/3x3
I0403 14:49:10.181663 13657 net.cpp:141] Setting up inception_4a/3x3
I0403 14:49:10.181691 13657 net.cpp:148] Top shape: 24 208 14 14 (978432)
I0403 14:49:10.181706 13657 net.cpp:156] Memory required for data: 869149728
I0403 14:49:10.181723 13657 layer_factory.hpp:77] Creating layer inception_4a/relu_3x3
I0403 14:49:10.181742 13657 net.cpp:91] Creating Layer inception_4a/relu_3x3
I0403 14:49:10.181758 13657 net.cpp:425] inception_4a/relu_3x3 <- inception_4a/3x3
I0403 14:49:10.181776 13657 net.cpp:386] inception_4a/relu_3x3 -> inception_4a/3x3 (in-place)
I0403 14:49:10.182044 13657 net.cpp:141] Setting up inception_4a/relu_3x3
I0403 14:49:10.182070 13657 net.cpp:148] Top shape: 24 208 14 14 (978432)
I0403 14:49:10.182085 13657 net.cpp:156] Memory required for data: 873063456
I0403 14:49:10.182097 13657 layer_factory.hpp:77] Creating layer inception_4a/5x5_reduce
I0403 14:49:10.182121 13657 net.cpp:91] Creating Layer inception_4a/5x5_reduce
I0403 14:49:10.182137 13657 net.cpp:425] inception_4a/5x5_reduce <- pool3/3x3_s2_pool3/3x3_s2_0_split_2
I0403 14:49:10.182155 13657 net.cpp:399] inception_4a/5x5_reduce -> inception_4a/5x5_reduce
I0403 14:49:10.183126 13657 net.cpp:141] Setting up inception_4a/5x5_reduce
I0403 14:49:10.183154 13657 net.cpp:148] Top shape: 24 16 14 14 (75264)
I0403 14:49:10.183171 13657 net.cpp:156] Memory required for data: 873364512
I0403 14:49:10.183188 13657 layer_factory.hpp:77] Creating layer inception_4a/relu_5x5_reduce
I0403 14:49:10.183205 13657 net.cpp:91] Creating Layer inception_4a/relu_5x5_reduce
I0403 14:49:10.183219 13657 net.cpp:425] inception_4a/relu_5x5_reduce <- inception_4a/5x5_reduce
I0403 14:49:10.183238 13657 net.cpp:386] inception_4a/relu_5x5_reduce -> inception_4a/5x5_reduce (in-place)
I0403 14:49:10.183405 13657 net.cpp:141] Setting up inception_4a/relu_5x5_reduce
I0403 14:49:10.183430 13657 net.cpp:148] Top shape: 24 16 14 14 (75264)
I0403 14:49:10.183444 13657 net.cpp:156] Memory required for data: 873665568
I0403 14:49:10.183457 13657 layer_factory.hpp:77] Creating layer inception_4a/5x5
I0403 14:49:10.183480 13657 net.cpp:91] Creating Layer inception_4a/5x5
I0403 14:49:10.183496 13657 net.cpp:425] inception_4a/5x5 <- inception_4a/5x5_reduce
I0403 14:49:10.183516 13657 net.cpp:399] inception_4a/5x5 -> inception_4a/5x5
I0403 14:49:10.184559 13657 net.cpp:141] Setting up inception_4a/5x5
I0403 14:49:10.184586 13657 net.cpp:148] Top shape: 24 48 14 14 (225792)
I0403 14:49:10.184610 13657 net.cpp:156] Memory required for data: 874568736
I0403 14:49:10.184631 13657 layer_factory.hpp:77] Creating layer inception_4a/relu_5x5
I0403 14:49:10.184649 13657 net.cpp:91] Creating Layer inception_4a/relu_5x5
I0403 14:49:10.184667 13657 net.cpp:425] inception_4a/relu_5x5 <- inception_4a/5x5
I0403 14:49:10.184684 13657 net.cpp:386] inception_4a/relu_5x5 -> inception_4a/5x5 (in-place)
I0403 14:49:10.184854 13657 net.cpp:141] Setting up inception_4a/relu_5x5
I0403 14:49:10.184877 13657 net.cpp:148] Top shape: 24 48 14 14 (225792)
I0403 14:49:10.184890 13657 net.cpp:156] Memory required for data: 875471904
I0403 14:49:10.184905 13657 layer_factory.hpp:77] Creating layer inception_4a/pool
I0403 14:49:10.184922 13657 net.cpp:91] Creating Layer inception_4a/pool
I0403 14:49:10.184938 13657 net.cpp:425] inception_4a/pool <- pool3/3x3_s2_pool3/3x3_s2_0_split_3
I0403 14:49:10.184954 13657 net.cpp:399] inception_4a/pool -> inception_4a/pool
I0403 14:49:10.185012 13657 net.cpp:141] Setting up inception_4a/pool
I0403 14:49:10.185035 13657 net.cpp:148] Top shape: 24 480 14 14 (2257920)
I0403 14:49:10.185048 13657 net.cpp:156] Memory required for data: 884503584
I0403 14:49:10.185061 13657 layer_factory.hpp:77] Creating layer inception_4a/pool_proj
I0403 14:49:10.185081 13657 net.cpp:91] Creating Layer inception_4a/pool_proj
I0403 14:49:10.185098 13657 net.cpp:425] inception_4a/pool_proj <- inception_4a/pool
I0403 14:49:10.185117 13657 net.cpp:399] inception_4a/pool_proj -> inception_4a/pool_proj
I0403 14:49:10.186233 13657 net.cpp:141] Setting up inception_4a/pool_proj
I0403 14:49:10.186262 13657 net.cpp:148] Top shape: 24 64 14 14 (301056)
I0403 14:49:10.186293 13657 net.cpp:156] Memory required for data: 885707808
I0403 14:49:10.186312 13657 layer_factory.hpp:77] Creating layer inception_4a/relu_pool_proj
I0403 14:49:10.186333 13657 net.cpp:91] Creating Layer inception_4a/relu_pool_proj
I0403 14:49:10.186349 13657 net.cpp:425] inception_4a/relu_pool_proj <- inception_4a/pool_proj
I0403 14:49:10.186365 13657 net.cpp:386] inception_4a/relu_pool_proj -> inception_4a/pool_proj (in-place)
I0403 14:49:10.186645 13657 net.cpp:141] Setting up inception_4a/relu_pool_proj
I0403 14:49:10.186671 13657 net.cpp:148] Top shape: 24 64 14 14 (301056)
I0403 14:49:10.186684 13657 net.cpp:156] Memory required for data: 886912032
I0403 14:49:10.186698 13657 layer_factory.hpp:77] Creating layer inception_4a/output
I0403 14:49:10.186714 13657 net.cpp:91] Creating Layer inception_4a/output
I0403 14:49:10.186733 13657 net.cpp:425] inception_4a/output <- inception_4a/1x1
I0403 14:49:10.186748 13657 net.cpp:425] inception_4a/output <- inception_4a/3x3
I0403 14:49:10.186764 13657 net.cpp:425] inception_4a/output <- inception_4a/5x5
I0403 14:49:10.186777 13657 net.cpp:425] inception_4a/output <- inception_4a/pool_proj
I0403 14:49:10.186794 13657 net.cpp:399] inception_4a/output -> inception_4a/output
I0403 14:49:10.186835 13657 net.cpp:141] Setting up inception_4a/output
I0403 14:49:10.186858 13657 net.cpp:148] Top shape: 24 512 14 14 (2408448)
I0403 14:49:10.186872 13657 net.cpp:156] Memory required for data: 896545824
I0403 14:49:10.186887 13657 layer_factory.hpp:77] Creating layer inception_4a/output_inception_4a/output_0_split
I0403 14:49:10.186902 13657 net.cpp:91] Creating Layer inception_4a/output_inception_4a/output_0_split
I0403 14:49:10.186916 13657 net.cpp:425] inception_4a/output_inception_4a/output_0_split <- inception_4a/output
I0403 14:49:10.186934 13657 net.cpp:399] inception_4a/output_inception_4a/output_0_split -> inception_4a/output_inception_4a/output_0_split_0
I0403 14:49:10.186956 13657 net.cpp:399] inception_4a/output_inception_4a/output_0_split -> inception_4a/output_inception_4a/output_0_split_1
I0403 14:49:10.186975 13657 net.cpp:399] inception_4a/output_inception_4a/output_0_split -> inception_4a/output_inception_4a/output_0_split_2
I0403 14:49:10.186995 13657 net.cpp:399] inception_4a/output_inception_4a/output_0_split -> inception_4a/output_inception_4a/output_0_split_3
I0403 14:49:10.187013 13657 net.cpp:399] inception_4a/output_inception_4a/output_0_split -> inception_4a/output_inception_4a/output_0_split_4
I0403 14:49:10.187098 13657 net.cpp:141] Setting up inception_4a/output_inception_4a/output_0_split
I0403 14:49:10.187120 13657 net.cpp:148] Top shape: 24 512 14 14 (2408448)
I0403 14:49:10.187137 13657 net.cpp:148] Top shape: 24 512 14 14 (2408448)
I0403 14:49:10.187153 13657 net.cpp:148] Top shape: 24 512 14 14 (2408448)
I0403 14:49:10.187167 13657 net.cpp:148] Top shape: 24 512 14 14 (2408448)
I0403 14:49:10.187181 13657 net.cpp:148] Top shape: 24 512 14 14 (2408448)
I0403 14:49:10.187193 13657 net.cpp:156] Memory required for data: 944714784
I0403 14:49:10.187206 13657 layer_factory.hpp:77] Creating layer loss1/ave_pool
I0403 14:49:10.187222 13657 net.cpp:91] Creating Layer loss1/ave_pool
I0403 14:49:10.187237 13657 net.cpp:425] loss1/ave_pool <- inception_4a/output_inception_4a/output_0_split_0
I0403 14:49:10.187257 13657 net.cpp:399] loss1/ave_pool -> loss1/ave_pool
I0403 14:49:10.187453 13657 net.cpp:141] Setting up loss1/ave_pool
I0403 14:49:10.187479 13657 net.cpp:148] Top shape: 24 512 4 4 (196608)
I0403 14:49:10.187492 13657 net.cpp:156] Memory required for data: 945501216
I0403 14:49:10.187506 13657 layer_factory.hpp:77] Creating layer loss1/conv
I0403 14:49:10.187527 13657 net.cpp:91] Creating Layer loss1/conv
I0403 14:49:10.187544 13657 net.cpp:425] loss1/conv <- loss1/ave_pool
I0403 14:49:10.187567 13657 net.cpp:399] loss1/conv -> loss1/conv
I0403 14:49:10.188923 13657 net.cpp:141] Setting up loss1/conv
I0403 14:49:10.188951 13657 net.cpp:148] Top shape: 24 128 4 4 (49152)
I0403 14:49:10.188966 13657 net.cpp:156] Memory required for data: 945697824
I0403 14:49:10.188997 13657 layer_factory.hpp:77] Creating layer loss1/relu_conv
I0403 14:49:10.189018 13657 net.cpp:91] Creating Layer loss1/relu_conv
I0403 14:49:10.189033 13657 net.cpp:425] loss1/relu_conv <- loss1/conv
I0403 14:49:10.189049 13657 net.cpp:386] loss1/relu_conv -> loss1/conv (in-place)
I0403 14:49:10.189316 13657 net.cpp:141] Setting up loss1/relu_conv
I0403 14:49:10.189342 13657 net.cpp:148] Top shape: 24 128 4 4 (49152)
I0403 14:49:10.189355 13657 net.cpp:156] Memory required for data: 945894432
I0403 14:49:10.189369 13657 layer_factory.hpp:77] Creating layer loss1/fc
I0403 14:49:10.189394 13657 net.cpp:91] Creating Layer loss1/fc
I0403 14:49:10.189411 13657 net.cpp:425] loss1/fc <- loss1/conv
I0403 14:49:10.189431 13657 net.cpp:399] loss1/fc -> loss1/fc
I0403 14:49:10.206761 13657 net.cpp:141] Setting up loss1/fc
I0403 14:49:10.206830 13657 net.cpp:148] Top shape: 24 1024 (24576)
I0403 14:49:10.206845 13657 net.cpp:156] Memory required for data: 945992736
I0403 14:49:10.206864 13657 layer_factory.hpp:77] Creating layer loss1/relu_fc
I0403 14:49:10.206884 13657 net.cpp:91] Creating Layer loss1/relu_fc
I0403 14:49:10.206909 13657 net.cpp:425] loss1/relu_fc <- loss1/fc
I0403 14:49:10.206929 13657 net.cpp:386] loss1/relu_fc -> loss1/fc (in-place)
I0403 14:49:10.207149 13657 net.cpp:141] Setting up loss1/relu_fc
I0403 14:49:10.207175 13657 net.cpp:148] Top shape: 24 1024 (24576)
I0403 14:49:10.207190 13657 net.cpp:156] Memory required for data: 946091040
I0403 14:49:10.207202 13657 layer_factory.hpp:77] Creating layer loss1/drop_fc
I0403 14:49:10.207231 13657 net.cpp:91] Creating Layer loss1/drop_fc
I0403 14:49:10.207247 13657 net.cpp:425] loss1/drop_fc <- loss1/fc
I0403 14:49:10.207264 13657 net.cpp:386] loss1/drop_fc -> loss1/fc (in-place)
I0403 14:49:10.207320 13657 net.cpp:141] Setting up loss1/drop_fc
I0403 14:49:10.207342 13657 net.cpp:148] Top shape: 24 1024 (24576)
I0403 14:49:10.207355 13657 net.cpp:156] Memory required for data: 946189344
I0403 14:49:10.207370 13657 layer_factory.hpp:77] Creating layer loss1/classifier_plantvillage
I0403 14:49:10.207387 13657 net.cpp:91] Creating Layer loss1/classifier_plantvillage
I0403 14:49:10.207402 13657 net.cpp:425] loss1/classifier_plantvillage <- loss1/fc
I0403 14:49:10.207423 13657 net.cpp:399] loss1/classifier_plantvillage -> loss1/classifier_plantvillage
I0403 14:49:10.208312 13657 net.cpp:141] Setting up loss1/classifier_plantvillage
I0403 14:49:10.208339 13657 net.cpp:148] Top shape: 24 38 (912)
I0403 14:49:10.208353 13657 net.cpp:156] Memory required for data: 946192992
I0403 14:49:10.208370 13657 layer_factory.hpp:77] Creating layer loss1/classifier_plantvillage_loss1/classifier_plantvillage_0_split
I0403 14:49:10.208389 13657 net.cpp:91] Creating Layer loss1/classifier_plantvillage_loss1/classifier_plantvillage_0_split
I0403 14:49:10.208405 13657 net.cpp:425] loss1/classifier_plantvillage_loss1/classifier_plantvillage_0_split <- loss1/classifier_plantvillage
I0403 14:49:10.208423 13657 net.cpp:399] loss1/classifier_plantvillage_loss1/classifier_plantvillage_0_split -> loss1/classifier_plantvillage_loss1/classifier_plantvillage_0_split_0
I0403 14:49:10.208443 13657 net.cpp:399] loss1/classifier_plantvillage_loss1/classifier_plantvillage_0_split -> loss1/classifier_plantvillage_loss1/classifier_plantvillage_0_split_1
I0403 14:49:10.208462 13657 net.cpp:399] loss1/classifier_plantvillage_loss1/classifier_plantvillage_0_split -> loss1/classifier_plantvillage_loss1/classifier_plantvillage_0_split_2
I0403 14:49:10.208528 13657 net.cpp:141] Setting up loss1/classifier_plantvillage_loss1/classifier_plantvillage_0_split
I0403 14:49:10.208549 13657 net.cpp:148] Top shape: 24 38 (912)
I0403 14:49:10.208564 13657 net.cpp:148] Top shape: 24 38 (912)
I0403 14:49:10.208580 13657 net.cpp:148] Top shape: 24 38 (912)
I0403 14:49:10.208593 13657 net.cpp:156] Memory required for data: 946203936
I0403 14:49:10.208611 13657 layer_factory.hpp:77] Creating layer inception_4b/1x1
I0403 14:49:10.208636 13657 net.cpp:91] Creating Layer inception_4b/1x1
I0403 14:49:10.208681 13657 net.cpp:425] inception_4b/1x1 <- inception_4a/output_inception_4a/output_0_split_1
I0403 14:49:10.208701 13657 net.cpp:399] inception_4b/1x1 -> inception_4b/1x1
I0403 14:49:10.210325 13657 net.cpp:141] Setting up inception_4b/1x1
I0403 14:49:10.210353 13657 net.cpp:148] Top shape: 24 160 14 14 (752640)
I0403 14:49:10.210371 13657 net.cpp:156] Memory required for data: 949214496
I0403 14:49:10.210391 13657 layer_factory.hpp:77] Creating layer inception_4b/relu_1x1
I0403 14:49:10.210407 13657 net.cpp:91] Creating Layer inception_4b/relu_1x1
I0403 14:49:10.210422 13657 net.cpp:425] inception_4b/relu_1x1 <- inception_4b/1x1
I0403 14:49:10.210439 13657 net.cpp:386] inception_4b/relu_1x1 -> inception_4b/1x1 (in-place)
I0403 14:49:10.210615 13657 net.cpp:141] Setting up inception_4b/relu_1x1
I0403 14:49:10.210639 13657 net.cpp:148] Top shape: 24 160 14 14 (752640)
I0403 14:49:10.210654 13657 net.cpp:156] Memory required for data: 952225056
I0403 14:49:10.210667 13657 layer_factory.hpp:77] Creating layer inception_4b/3x3_reduce
I0403 14:49:10.210687 13657 net.cpp:91] Creating Layer inception_4b/3x3_reduce
I0403 14:49:10.210705 13657 net.cpp:425] inception_4b/3x3_reduce <- inception_4a/output_inception_4a/output_0_split_2
I0403 14:49:10.210724 13657 net.cpp:399] inception_4b/3x3_reduce -> inception_4b/3x3_reduce
I0403 14:49:10.212026 13657 net.cpp:141] Setting up inception_4b/3x3_reduce
I0403 14:49:10.212054 13657 net.cpp:148] Top shape: 24 112 14 14 (526848)
I0403 14:49:10.212069 13657 net.cpp:156] Memory required for data: 954332448
I0403 14:49:10.212085 13657 layer_factory.hpp:77] Creating layer inception_4b/relu_3x3_reduce
I0403 14:49:10.212102 13657 net.cpp:91] Creating Layer inception_4b/relu_3x3_reduce
I0403 14:49:10.212117 13657 net.cpp:425] inception_4b/relu_3x3_reduce <- inception_4b/3x3_reduce
I0403 14:49:10.212136 13657 net.cpp:386] inception_4b/relu_3x3_reduce -> inception_4b/3x3_reduce (in-place)
I0403 14:49:10.212407 13657 net.cpp:141] Setting up inception_4b/relu_3x3_reduce
I0403 14:49:10.212432 13657 net.cpp:148] Top shape: 24 112 14 14 (526848)
I0403 14:49:10.212446 13657 net.cpp:156] Memory required for data: 956439840
I0403 14:49:10.212460 13657 layer_factory.hpp:77] Creating layer inception_4b/3x3
I0403 14:49:10.212481 13657 net.cpp:91] Creating Layer inception_4b/3x3
I0403 14:49:10.212497 13657 net.cpp:425] inception_4b/3x3 <- inception_4b/3x3_reduce
I0403 14:49:10.212517 13657 net.cpp:399] inception_4b/3x3 -> inception_4b/3x3
I0403 14:49:10.215446 13657 net.cpp:141] Setting up inception_4b/3x3
I0403 14:49:10.215474 13657 net.cpp:148] Top shape: 24 224 14 14 (1053696)
I0403 14:49:10.215490 13657 net.cpp:156] Memory required for data: 960654624
I0403 14:49:10.215507 13657 layer_factory.hpp:77] Creating layer inception_4b/relu_3x3
I0403 14:49:10.215526 13657 net.cpp:91] Creating Layer inception_4b/relu_3x3
I0403 14:49:10.215543 13657 net.cpp:425] inception_4b/relu_3x3 <- inception_4b/3x3
I0403 14:49:10.215559 13657 net.cpp:386] inception_4b/relu_3x3 -> inception_4b/3x3 (in-place)
I0403 14:49:10.215736 13657 net.cpp:141] Setting up inception_4b/relu_3x3
I0403 14:49:10.215762 13657 net.cpp:148] Top shape: 24 224 14 14 (1053696)
I0403 14:49:10.215776 13657 net.cpp:156] Memory required for data: 964869408
I0403 14:49:10.215790 13657 layer_factory.hpp:77] Creating layer inception_4b/5x5_reduce
I0403 14:49:10.215811 13657 net.cpp:91] Creating Layer inception_4b/5x5_reduce
I0403 14:49:10.215828 13657 net.cpp:425] inception_4b/5x5_reduce <- inception_4a/output_inception_4a/output_0_split_3
I0403 14:49:10.215847 13657 net.cpp:399] inception_4b/5x5_reduce -> inception_4b/5x5_reduce
I0403 14:49:10.216888 13657 net.cpp:141] Setting up inception_4b/5x5_reduce
I0403 14:49:10.216918 13657 net.cpp:148] Top shape: 24 24 14 14 (112896)
I0403 14:49:10.216935 13657 net.cpp:156] Memory required for data: 965320992
I0403 14:49:10.216953 13657 layer_factory.hpp:77] Creating layer inception_4b/relu_5x5_reduce
I0403 14:49:10.216972 13657 net.cpp:91] Creating Layer inception_4b/relu_5x5_reduce
I0403 14:49:10.217003 13657 net.cpp:425] inception_4b/relu_5x5_reduce <- inception_4b/5x5_reduce
I0403 14:49:10.217025 13657 net.cpp:386] inception_4b/relu_5x5_reduce -> inception_4b/5x5_reduce (in-place)
I0403 14:49:10.217198 13657 net.cpp:141] Setting up inception_4b/relu_5x5_reduce
I0403 14:49:10.217223 13657 net.cpp:148] Top shape: 24 24 14 14 (112896)
I0403 14:49:10.217238 13657 net.cpp:156] Memory required for data: 965772576
I0403 14:49:10.217253 13657 layer_factory.hpp:77] Creating layer inception_4b/5x5
I0403 14:49:10.217274 13657 net.cpp:91] Creating Layer inception_4b/5x5
I0403 14:49:10.217293 13657 net.cpp:425] inception_4b/5x5 <- inception_4b/5x5_reduce
I0403 14:49:10.217314 13657 net.cpp:399] inception_4b/5x5 -> inception_4b/5x5
I0403 14:49:10.218490 13657 net.cpp:141] Setting up inception_4b/5x5
I0403 14:49:10.218520 13657 net.cpp:148] Top shape: 24 64 14 14 (301056)
I0403 14:49:10.218536 13657 net.cpp:156] Memory required for data: 966976800
I0403 14:49:10.218554 13657 layer_factory.hpp:77] Creating layer inception_4b/relu_5x5
I0403 14:49:10.218571 13657 net.cpp:91] Creating Layer inception_4b/relu_5x5
I0403 14:49:10.218586 13657 net.cpp:425] inception_4b/relu_5x5 <- inception_4b/5x5
I0403 14:49:10.218608 13657 net.cpp:386] inception_4b/relu_5x5 -> inception_4b/5x5 (in-place)
I0403 14:49:10.218883 13657 net.cpp:141] Setting up inception_4b/relu_5x5
I0403 14:49:10.218912 13657 net.cpp:148] Top shape: 24 64 14 14 (301056)
I0403 14:49:10.218929 13657 net.cpp:156] Memory required for data: 968181024
I0403 14:49:10.218942 13657 layer_factory.hpp:77] Creating layer inception_4b/pool
I0403 14:49:10.218960 13657 net.cpp:91] Creating Layer inception_4b/pool
I0403 14:49:10.218974 13657 net.cpp:425] inception_4b/pool <- inception_4a/output_inception_4a/output_0_split_4
I0403 14:49:10.218993 13657 net.cpp:399] inception_4b/pool -> inception_4b/pool
I0403 14:49:10.219054 13657 net.cpp:141] Setting up inception_4b/pool
I0403 14:49:10.219077 13657 net.cpp:148] Top shape: 24 512 14 14 (2408448)
I0403 14:49:10.219091 13657 net.cpp:156] Memory required for data: 977814816
I0403 14:49:10.219105 13657 layer_factory.hpp:77] Creating layer inception_4b/pool_proj
I0403 14:49:10.219125 13657 net.cpp:91] Creating Layer inception_4b/pool_proj
I0403 14:49:10.219141 13657 net.cpp:425] inception_4b/pool_proj <- inception_4b/pool
I0403 14:49:10.219161 13657 net.cpp:399] inception_4b/pool_proj -> inception_4b/pool_proj
I0403 14:49:10.220309 13657 net.cpp:141] Setting up inception_4b/pool_proj
I0403 14:49:10.220337 13657 net.cpp:148] Top shape: 24 64 14 14 (301056)
I0403 14:49:10.220353 13657 net.cpp:156] Memory required for data: 979019040
I0403 14:49:10.220371 13657 layer_factory.hpp:77] Creating layer inception_4b/relu_pool_proj
I0403 14:49:10.220388 13657 net.cpp:91] Creating Layer inception_4b/relu_pool_proj
I0403 14:49:10.220403 13657 net.cpp:425] inception_4b/relu_pool_proj <- inception_4b/pool_proj
I0403 14:49:10.220422 13657 net.cpp:386] inception_4b/relu_pool_proj -> inception_4b/pool_proj (in-place)
I0403 14:49:10.220590 13657 net.cpp:141] Setting up inception_4b/relu_pool_proj
I0403 14:49:10.220618 13657 net.cpp:148] Top shape: 24 64 14 14 (301056)
I0403 14:49:10.220633 13657 net.cpp:156] Memory required for data: 980223264
I0403 14:49:10.220646 13657 layer_factory.hpp:77] Creating layer inception_4b/output
I0403 14:49:10.220662 13657 net.cpp:91] Creating Layer inception_4b/output
I0403 14:49:10.220677 13657 net.cpp:425] inception_4b/output <- inception_4b/1x1
I0403 14:49:10.220692 13657 net.cpp:425] inception_4b/output <- inception_4b/3x3
I0403 14:49:10.220707 13657 net.cpp:425] inception_4b/output <- inception_4b/5x5
I0403 14:49:10.220722 13657 net.cpp:425] inception_4b/output <- inception_4b/pool_proj
I0403 14:49:10.220741 13657 net.cpp:399] inception_4b/output -> inception_4b/output
I0403 14:49:10.220783 13657 net.cpp:141] Setting up inception_4b/output
I0403 14:49:10.220808 13657 net.cpp:148] Top shape: 24 512 14 14 (2408448)
I0403 14:49:10.220823 13657 net.cpp:156] Memory required for data: 989857056
I0403 14:49:10.220850 13657 layer_factory.hpp:77] Creating layer inception_4b/output_inception_4b/output_0_split
I0403 14:49:10.220868 13657 net.cpp:91] Creating Layer inception_4b/output_inception_4b/output_0_split
I0403 14:49:10.220883 13657 net.cpp:425] inception_4b/output_inception_4b/output_0_split <- inception_4b/output
I0403 14:49:10.220899 13657 net.cpp:399] inception_4b/output_inception_4b/output_0_split -> inception_4b/output_inception_4b/output_0_split_0
I0403 14:49:10.220922 13657 net.cpp:399] inception_4b/output_inception_4b/output_0_split -> inception_4b/output_inception_4b/output_0_split_1
I0403 14:49:10.220943 13657 net.cpp:399] inception_4b/output_inception_4b/output_0_split -> inception_4b/output_inception_4b/output_0_split_2
I0403 14:49:10.220963 13657 net.cpp:399] inception_4b/output_inception_4b/output_0_split -> inception_4b/output_inception_4b/output_0_split_3
I0403 14:49:10.221041 13657 net.cpp:141] Setting up inception_4b/output_inception_4b/output_0_split
I0403 14:49:10.221063 13657 net.cpp:148] Top shape: 24 512 14 14 (2408448)
I0403 14:49:10.221079 13657 net.cpp:148] Top shape: 24 512 14 14 (2408448)
I0403 14:49:10.221093 13657 net.cpp:148] Top shape: 24 512 14 14 (2408448)
I0403 14:49:10.221107 13657 net.cpp:148] Top shape: 24 512 14 14 (2408448)
I0403 14:49:10.221119 13657 net.cpp:156] Memory required for data: 1028392224
I0403 14:49:10.221132 13657 layer_factory.hpp:77] Creating layer inception_4c/1x1
I0403 14:49:10.221154 13657 net.cpp:91] Creating Layer inception_4c/1x1
I0403 14:49:10.221171 13657 net.cpp:425] inception_4c/1x1 <- inception_4b/output_inception_4b/output_0_split_0
I0403 14:49:10.221189 13657 net.cpp:399] inception_4c/1x1 -> inception_4c/1x1
I0403 14:49:10.222586 13657 net.cpp:141] Setting up inception_4c/1x1
I0403 14:49:10.222617 13657 net.cpp:148] Top shape: 24 128 14 14 (602112)
I0403 14:49:10.222633 13657 net.cpp:156] Memory required for data: 1030800672
I0403 14:49:10.222651 13657 layer_factory.hpp:77] Creating layer inception_4c/relu_1x1
I0403 14:49:10.222671 13657 net.cpp:91] Creating Layer inception_4c/relu_1x1
I0403 14:49:10.222687 13657 net.cpp:425] inception_4c/relu_1x1 <- inception_4c/1x1
I0403 14:49:10.222702 13657 net.cpp:386] inception_4c/relu_1x1 -> inception_4c/1x1 (in-place)
I0403 14:49:10.222873 13657 net.cpp:141] Setting up inception_4c/relu_1x1
I0403 14:49:10.222898 13657 net.cpp:148] Top shape: 24 128 14 14 (602112)
I0403 14:49:10.222913 13657 net.cpp:156] Memory required for data: 1033209120
I0403 14:49:10.222928 13657 layer_factory.hpp:77] Creating layer inception_4c/3x3_reduce
I0403 14:49:10.222945 13657 net.cpp:91] Creating Layer inception_4c/3x3_reduce
I0403 14:49:10.222961 13657 net.cpp:425] inception_4c/3x3_reduce <- inception_4b/output_inception_4b/output_0_split_1
I0403 14:49:10.222982 13657 net.cpp:399] inception_4c/3x3_reduce -> inception_4c/3x3_reduce
I0403 14:49:10.224876 13657 net.cpp:141] Setting up inception_4c/3x3_reduce
I0403 14:49:10.224906 13657 net.cpp:148] Top shape: 24 128 14 14 (602112)
I0403 14:49:10.224922 13657 net.cpp:156] Memory required for data: 1035617568
I0403 14:49:10.224939 13657 layer_factory.hpp:77] Creating layer inception_4c/relu_3x3_reduce
I0403 14:49:10.224956 13657 net.cpp:91] Creating Layer inception_4c/relu_3x3_reduce
I0403 14:49:10.224972 13657 net.cpp:425] inception_4c/relu_3x3_reduce <- inception_4c/3x3_reduce
I0403 14:49:10.224988 13657 net.cpp:386] inception_4c/relu_3x3_reduce -> inception_4c/3x3_reduce (in-place)
I0403 14:49:10.225265 13657 net.cpp:141] Setting up inception_4c/relu_3x3_reduce
I0403 14:49:10.225293 13657 net.cpp:148] Top shape: 24 128 14 14 (602112)
I0403 14:49:10.225308 13657 net.cpp:156] Memory required for data: 1038026016
I0403 14:49:10.225322 13657 layer_factory.hpp:77] Creating layer inception_4c/3x3
I0403 14:49:10.225343 13657 net.cpp:91] Creating Layer inception_4c/3x3
I0403 14:49:10.225360 13657 net.cpp:425] inception_4c/3x3 <- inception_4c/3x3_reduce
I0403 14:49:10.225378 13657 net.cpp:399] inception_4c/3x3 -> inception_4c/3x3
I0403 14:49:10.229094 13657 net.cpp:141] Setting up inception_4c/3x3
I0403 14:49:10.229140 13657 net.cpp:148] Top shape: 24 256 14 14 (1204224)
I0403 14:49:10.229156 13657 net.cpp:156] Memory required for data: 1042842912
I0403 14:49:10.229188 13657 layer_factory.hpp:77] Creating layer inception_4c/relu_3x3
I0403 14:49:10.229210 13657 net.cpp:91] Creating Layer inception_4c/relu_3x3
I0403 14:49:10.229226 13657 net.cpp:425] inception_4c/relu_3x3 <- inception_4c/3x3
I0403 14:49:10.229245 13657 net.cpp:386] inception_4c/relu_3x3 -> inception_4c/3x3 (in-place)
I0403 14:49:10.229418 13657 net.cpp:141] Setting up inception_4c/relu_3x3
I0403 14:49:10.229444 13657 net.cpp:148] Top shape: 24 256 14 14 (1204224)
I0403 14:49:10.229460 13657 net.cpp:156] Memory required for data: 1047659808
I0403 14:49:10.229475 13657 layer_factory.hpp:77] Creating layer inception_4c/5x5_reduce
I0403 14:49:10.229496 13657 net.cpp:91] Creating Layer inception_4c/5x5_reduce
I0403 14:49:10.229514 13657 net.cpp:425] inception_4c/5x5_reduce <- inception_4b/output_inception_4b/output_0_split_2
I0403 14:49:10.229535 13657 net.cpp:399] inception_4c/5x5_reduce -> inception_4c/5x5_reduce
I0403 14:49:10.230592 13657 net.cpp:141] Setting up inception_4c/5x5_reduce
I0403 14:49:10.230624 13657 net.cpp:148] Top shape: 24 24 14 14 (112896)
I0403 14:49:10.230641 13657 net.cpp:156] Memory required for data: 1048111392
I0403 14:49:10.230659 13657 layer_factory.hpp:77] Creating layer inception_4c/relu_5x5_reduce
I0403 14:49:10.230675 13657 net.cpp:91] Creating Layer inception_4c/relu_5x5_reduce
I0403 14:49:10.230690 13657 net.cpp:425] inception_4c/relu_5x5_reduce <- inception_4c/5x5_reduce
I0403 14:49:10.230708 13657 net.cpp:386] inception_4c/relu_5x5_reduce -> inception_4c/5x5_reduce (in-place)
I0403 14:49:10.230885 13657 net.cpp:141] Setting up inception_4c/relu_5x5_reduce
I0403 14:49:10.230908 13657 net.cpp:148] Top shape: 24 24 14 14 (112896)
I0403 14:49:10.230922 13657 net.cpp:156] Memory required for data: 1048562976
I0403 14:49:10.230937 13657 layer_factory.hpp:77] Creating layer inception_4c/5x5
I0403 14:49:10.230957 13657 net.cpp:91] Creating Layer inception_4c/5x5
I0403 14:49:10.230974 13657 net.cpp:425] inception_4c/5x5 <- inception_4c/5x5_reduce
I0403 14:49:10.230993 13657 net.cpp:399] inception_4c/5x5 -> inception_4c/5x5
I0403 14:49:10.232192 13657 net.cpp:141] Setting up inception_4c/5x5
I0403 14:49:10.232219 13657 net.cpp:148] Top shape: 24 64 14 14 (301056)
I0403 14:49:10.232234 13657 net.cpp:156] Memory required for data: 1049767200
I0403 14:49:10.232250 13657 layer_factory.hpp:77] Creating layer inception_4c/relu_5x5
I0403 14:49:10.232266 13657 net.cpp:91] Creating Layer inception_4c/relu_5x5
I0403 14:49:10.232282 13657 net.cpp:425] inception_4c/relu_5x5 <- inception_4c/5x5
I0403 14:49:10.232301 13657 net.cpp:386] inception_4c/relu_5x5 -> inception_4c/5x5 (in-place)
I0403 14:49:10.232630 13657 net.cpp:141] Setting up inception_4c/relu_5x5
I0403 14:49:10.232656 13657 net.cpp:148] Top shape: 24 64 14 14 (301056)
I0403 14:49:10.232671 13657 net.cpp:156] Memory required for data: 1050971424
I0403 14:49:10.232684 13657 layer_factory.hpp:77] Creating layer inception_4c/pool
I0403 14:49:10.232702 13657 net.cpp:91] Creating Layer inception_4c/pool
I0403 14:49:10.232717 13657 net.cpp:425] inception_4c/pool <- inception_4b/output_inception_4b/output_0_split_3
I0403 14:49:10.232735 13657 net.cpp:399] inception_4c/pool -> inception_4c/pool
I0403 14:49:10.232798 13657 net.cpp:141] Setting up inception_4c/pool
I0403 14:49:10.232821 13657 net.cpp:148] Top shape: 24 512 14 14 (2408448)
I0403 14:49:10.232834 13657 net.cpp:156] Memory required for data: 1060605216
I0403 14:49:10.232847 13657 layer_factory.hpp:77] Creating layer inception_4c/pool_proj
I0403 14:49:10.232870 13657 net.cpp:91] Creating Layer inception_4c/pool_proj
I0403 14:49:10.232887 13657 net.cpp:425] inception_4c/pool_proj <- inception_4c/pool
I0403 14:49:10.232904 13657 net.cpp:399] inception_4c/pool_proj -> inception_4c/pool_proj
I0403 14:49:10.234076 13657 net.cpp:141] Setting up inception_4c/pool_proj
I0403 14:49:10.234107 13657 net.cpp:148] Top shape: 24 64 14 14 (301056)
I0403 14:49:10.234136 13657 net.cpp:156] Memory required for data: 1061809440
I0403 14:49:10.234154 13657 layer_factory.hpp:77] Creating layer inception_4c/relu_pool_proj
I0403 14:49:10.234171 13657 net.cpp:91] Creating Layer inception_4c/relu_pool_proj
I0403 14:49:10.234186 13657 net.cpp:425] inception_4c/relu_pool_proj <- inception_4c/pool_proj
I0403 14:49:10.234205 13657 net.cpp:386] inception_4c/relu_pool_proj -> inception_4c/pool_proj (in-place)
I0403 14:49:10.234379 13657 net.cpp:141] Setting up inception_4c/relu_pool_proj
I0403 14:49:10.234402 13657 net.cpp:148] Top shape: 24 64 14 14 (301056)
I0403 14:49:10.234416 13657 net.cpp:156] Memory required for data: 1063013664
I0403 14:49:10.234429 13657 layer_factory.hpp:77] Creating layer inception_4c/output
I0403 14:49:10.234446 13657 net.cpp:91] Creating Layer inception_4c/output
I0403 14:49:10.234459 13657 net.cpp:425] inception_4c/output <- inception_4c/1x1
I0403 14:49:10.234474 13657 net.cpp:425] inception_4c/output <- inception_4c/3x3
I0403 14:49:10.234490 13657 net.cpp:425] inception_4c/output <- inception_4c/5x5
I0403 14:49:10.234504 13657 net.cpp:425] inception_4c/output <- inception_4c/pool_proj
I0403 14:49:10.234522 13657 net.cpp:399] inception_4c/output -> inception_4c/output
I0403 14:49:10.234567 13657 net.cpp:141] Setting up inception_4c/output
I0403 14:49:10.234592 13657 net.cpp:148] Top shape: 24 512 14 14 (2408448)
I0403 14:49:10.234618 13657 net.cpp:156] Memory required for data: 1072647456
I0403 14:49:10.234635 13657 layer_factory.hpp:77] Creating layer inception_4c/output_inception_4c/output_0_split
I0403 14:49:10.234652 13657 net.cpp:91] Creating Layer inception_4c/output_inception_4c/output_0_split
I0403 14:49:10.234666 13657 net.cpp:425] inception_4c/output_inception_4c/output_0_split <- inception_4c/output
I0403 14:49:10.234683 13657 net.cpp:399] inception_4c/output_inception_4c/output_0_split -> inception_4c/output_inception_4c/output_0_split_0
I0403 14:49:10.234704 13657 net.cpp:399] inception_4c/output_inception_4c/output_0_split -> inception_4c/output_inception_4c/output_0_split_1
I0403 14:49:10.234725 13657 net.cpp:399] inception_4c/output_inception_4c/output_0_split -> inception_4c/output_inception_4c/output_0_split_2
I0403 14:49:10.234746 13657 net.cpp:399] inception_4c/output_inception_4c/output_0_split -> inception_4c/output_inception_4c/output_0_split_3
I0403 14:49:10.234828 13657 net.cpp:141] Setting up inception_4c/output_inception_4c/output_0_split
I0403 14:49:10.234851 13657 net.cpp:148] Top shape: 24 512 14 14 (2408448)
I0403 14:49:10.234868 13657 net.cpp:148] Top shape: 24 512 14 14 (2408448)
I0403 14:49:10.234882 13657 net.cpp:148] Top shape: 24 512 14 14 (2408448)
I0403 14:49:10.234899 13657 net.cpp:148] Top shape: 24 512 14 14 (2408448)
I0403 14:49:10.234911 13657 net.cpp:156] Memory required for data: 1111182624
I0403 14:49:10.234925 13657 layer_factory.hpp:77] Creating layer inception_4d/1x1
I0403 14:49:10.234949 13657 net.cpp:91] Creating Layer inception_4d/1x1
I0403 14:49:10.234966 13657 net.cpp:425] inception_4d/1x1 <- inception_4c/output_inception_4c/output_0_split_0
I0403 14:49:10.234984 13657 net.cpp:399] inception_4d/1x1 -> inception_4d/1x1
I0403 14:49:10.236330 13657 net.cpp:141] Setting up inception_4d/1x1
I0403 14:49:10.236357 13657 net.cpp:148] Top shape: 24 112 14 14 (526848)
I0403 14:49:10.236372 13657 net.cpp:156] Memory required for data: 1113290016
I0403 14:49:10.236389 13657 layer_factory.hpp:77] Creating layer inception_4d/relu_1x1
I0403 14:49:10.236408 13657 net.cpp:91] Creating Layer inception_4d/relu_1x1
I0403 14:49:10.236424 13657 net.cpp:425] inception_4d/relu_1x1 <- inception_4d/1x1
I0403 14:49:10.236440 13657 net.cpp:386] inception_4d/relu_1x1 -> inception_4d/1x1 (in-place)
I0403 14:49:10.236634 13657 net.cpp:141] Setting up inception_4d/relu_1x1
I0403 14:49:10.236661 13657 net.cpp:148] Top shape: 24 112 14 14 (526848)
I0403 14:49:10.236680 13657 net.cpp:156] Memory required for data: 1115397408
I0403 14:49:10.236693 13657 layer_factory.hpp:77] Creating layer inception_4d/3x3_reduce
I0403 14:49:10.236737 13657 net.cpp:91] Creating Layer inception_4d/3x3_reduce
I0403 14:49:10.236755 13657 net.cpp:425] inception_4d/3x3_reduce <- inception_4c/output_inception_4c/output_0_split_1
I0403 14:49:10.236775 13657 net.cpp:399] inception_4d/3x3_reduce -> inception_4d/3x3_reduce
I0403 14:49:10.238291 13657 net.cpp:141] Setting up inception_4d/3x3_reduce
I0403 14:49:10.238317 13657 net.cpp:148] Top shape: 24 144 14 14 (677376)
I0403 14:49:10.238332 13657 net.cpp:156] Memory required for data: 1118106912
I0403 14:49:10.238349 13657 layer_factory.hpp:77] Creating layer inception_4d/relu_3x3_reduce
I0403 14:49:10.238368 13657 net.cpp:91] Creating Layer inception_4d/relu_3x3_reduce
I0403 14:49:10.238384 13657 net.cpp:425] inception_4d/relu_3x3_reduce <- inception_4d/3x3_reduce
I0403 14:49:10.238401 13657 net.cpp:386] inception_4d/relu_3x3_reduce -> inception_4d/3x3_reduce (in-place)
I0403 14:49:10.238698 13657 net.cpp:141] Setting up inception_4d/relu_3x3_reduce
I0403 14:49:10.238723 13657 net.cpp:148] Top shape: 24 144 14 14 (677376)
I0403 14:49:10.238739 13657 net.cpp:156] Memory required for data: 1120816416
I0403 14:49:10.238752 13657 layer_factory.hpp:77] Creating layer inception_4d/3x3
I0403 14:49:10.238785 13657 net.cpp:91] Creating Layer inception_4d/3x3
I0403 14:49:10.238802 13657 net.cpp:425] inception_4d/3x3 <- inception_4d/3x3_reduce
I0403 14:49:10.238821 13657 net.cpp:399] inception_4d/3x3 -> inception_4d/3x3
I0403 14:49:10.243016 13657 net.cpp:141] Setting up inception_4d/3x3
I0403 14:49:10.243046 13657 net.cpp:148] Top shape: 24 288 14 14 (1354752)
I0403 14:49:10.243062 13657 net.cpp:156] Memory required for data: 1126235424
I0403 14:49:10.243078 13657 layer_factory.hpp:77] Creating layer inception_4d/relu_3x3
I0403 14:49:10.243100 13657 net.cpp:91] Creating Layer inception_4d/relu_3x3
I0403 14:49:10.243118 13657 net.cpp:425] inception_4d/relu_3x3 <- inception_4d/3x3
I0403 14:49:10.243134 13657 net.cpp:386] inception_4d/relu_3x3 -> inception_4d/3x3 (in-place)
I0403 14:49:10.243309 13657 net.cpp:141] Setting up inception_4d/relu_3x3
I0403 14:49:10.243335 13657 net.cpp:148] Top shape: 24 288 14 14 (1354752)
I0403 14:49:10.243350 13657 net.cpp:156] Memory required for data: 1131654432
I0403 14:49:10.243365 13657 layer_factory.hpp:77] Creating layer inception_4d/5x5_reduce
I0403 14:49:10.243386 13657 net.cpp:91] Creating Layer inception_4d/5x5_reduce
I0403 14:49:10.243402 13657 net.cpp:425] inception_4d/5x5_reduce <- inception_4c/output_inception_4c/output_0_split_2
I0403 14:49:10.243419 13657 net.cpp:399] inception_4d/5x5_reduce -> inception_4d/5x5_reduce
I0403 14:49:10.244530 13657 net.cpp:141] Setting up inception_4d/5x5_reduce
I0403 14:49:10.244557 13657 net.cpp:148] Top shape: 24 32 14 14 (150528)
I0403 14:49:10.244571 13657 net.cpp:156] Memory required for data: 1132256544
I0403 14:49:10.244588 13657 layer_factory.hpp:77] Creating layer inception_4d/relu_5x5_reduce
I0403 14:49:10.244618 13657 net.cpp:91] Creating Layer inception_4d/relu_5x5_reduce
I0403 14:49:10.244637 13657 net.cpp:425] inception_4d/relu_5x5_reduce <- inception_4d/5x5_reduce
I0403 14:49:10.244653 13657 net.cpp:386] inception_4d/relu_5x5_reduce -> inception_4d/5x5_reduce (in-place)
I0403 14:49:10.244829 13657 net.cpp:141] Setting up inception_4d/relu_5x5_reduce
I0403 14:49:10.244856 13657 net.cpp:148] Top shape: 24 32 14 14 (150528)
I0403 14:49:10.244869 13657 net.cpp:156] Memory required for data: 1132858656
I0403 14:49:10.244884 13657 layer_factory.hpp:77] Creating layer inception_4d/5x5
I0403 14:49:10.244904 13657 net.cpp:91] Creating Layer inception_4d/5x5
I0403 14:49:10.244921 13657 net.cpp:425] inception_4d/5x5 <- inception_4d/5x5_reduce
I0403 14:49:10.244941 13657 net.cpp:399] inception_4d/5x5 -> inception_4d/5x5
I0403 14:49:10.246386 13657 net.cpp:141] Setting up inception_4d/5x5
I0403 14:49:10.246412 13657 net.cpp:148] Top shape: 24 64 14 14 (301056)
I0403 14:49:10.246428 13657 net.cpp:156] Memory required for data: 1134062880
I0403 14:49:10.246444 13657 layer_factory.hpp:77] Creating layer inception_4d/relu_5x5
I0403 14:49:10.246476 13657 net.cpp:91] Creating Layer inception_4d/relu_5x5
I0403 14:49:10.246492 13657 net.cpp:425] inception_4d/relu_5x5 <- inception_4d/5x5
I0403 14:49:10.246510 13657 net.cpp:386] inception_4d/relu_5x5 -> inception_4d/5x5 (in-place)
I0403 14:49:10.246808 13657 net.cpp:141] Setting up inception_4d/relu_5x5
I0403 14:49:10.246832 13657 net.cpp:148] Top shape: 24 64 14 14 (301056)
I0403 14:49:10.246846 13657 net.cpp:156] Memory required for data: 1135267104
I0403 14:49:10.246861 13657 layer_factory.hpp:77] Creating layer inception_4d/pool
I0403 14:49:10.246877 13657 net.cpp:91] Creating Layer inception_4d/pool
I0403 14:49:10.246892 13657 net.cpp:425] inception_4d/pool <- inception_4c/output_inception_4c/output_0_split_3
I0403 14:49:10.246911 13657 net.cpp:399] inception_4d/pool -> inception_4d/pool
I0403 14:49:10.246974 13657 net.cpp:141] Setting up inception_4d/pool
I0403 14:49:10.246997 13657 net.cpp:148] Top shape: 24 512 14 14 (2408448)
I0403 14:49:10.247011 13657 net.cpp:156] Memory required for data: 1144900896
I0403 14:49:10.247025 13657 layer_factory.hpp:77] Creating layer inception_4d/pool_proj
I0403 14:49:10.247046 13657 net.cpp:91] Creating Layer inception_4d/pool_proj
I0403 14:49:10.247063 13657 net.cpp:425] inception_4d/pool_proj <- inception_4d/pool
I0403 14:49:10.247081 13657 net.cpp:399] inception_4d/pool_proj -> inception_4d/pool_proj
I0403 14:49:10.248858 13657 net.cpp:141] Setting up inception_4d/pool_proj
I0403 14:49:10.248888 13657 net.cpp:148] Top shape: 24 64 14 14 (301056)
I0403 14:49:10.248903 13657 net.cpp:156] Memory required for data: 1146105120
I0403 14:49:10.248920 13657 layer_factory.hpp:77] Creating layer inception_4d/relu_pool_proj
I0403 14:49:10.248940 13657 net.cpp:91] Creating Layer inception_4d/relu_pool_proj
I0403 14:49:10.248956 13657 net.cpp:425] inception_4d/relu_pool_proj <- inception_4d/pool_proj
I0403 14:49:10.248972 13657 net.cpp:386] inception_4d/relu_pool_proj -> inception_4d/pool_proj (in-place)
I0403 14:49:10.249152 13657 net.cpp:141] Setting up inception_4d/relu_pool_proj
I0403 14:49:10.249178 13657 net.cpp:148] Top shape: 24 64 14 14 (301056)
I0403 14:49:10.249194 13657 net.cpp:156] Memory required for data: 1147309344
I0403 14:49:10.249208 13657 layer_factory.hpp:77] Creating layer inception_4d/output
I0403 14:49:10.249224 13657 net.cpp:91] Creating Layer inception_4d/output
I0403 14:49:10.249239 13657 net.cpp:425] inception_4d/output <- inception_4d/1x1
I0403 14:49:10.249256 13657 net.cpp:425] inception_4d/output <- inception_4d/3x3
I0403 14:49:10.249271 13657 net.cpp:425] inception_4d/output <- inception_4d/5x5
I0403 14:49:10.249287 13657 net.cpp:425] inception_4d/output <- inception_4d/pool_proj
I0403 14:49:10.249306 13657 net.cpp:399] inception_4d/output -> inception_4d/output
I0403 14:49:10.249353 13657 net.cpp:141] Setting up inception_4d/output
I0403 14:49:10.249377 13657 net.cpp:148] Top shape: 24 528 14 14 (2483712)
I0403 14:49:10.249390 13657 net.cpp:156] Memory required for data: 1157244192
I0403 14:49:10.249404 13657 layer_factory.hpp:77] Creating layer inception_4d/output_inception_4d/output_0_split
I0403 14:49:10.249423 13657 net.cpp:91] Creating Layer inception_4d/output_inception_4d/output_0_split
I0403 14:49:10.249439 13657 net.cpp:425] inception_4d/output_inception_4d/output_0_split <- inception_4d/output
I0403 14:49:10.249456 13657 net.cpp:399] inception_4d/output_inception_4d/output_0_split -> inception_4d/output_inception_4d/output_0_split_0
I0403 14:49:10.249480 13657 net.cpp:399] inception_4d/output_inception_4d/output_0_split -> inception_4d/output_inception_4d/output_0_split_1
I0403 14:49:10.249501 13657 net.cpp:399] inception_4d/output_inception_4d/output_0_split -> inception_4d/output_inception_4d/output_0_split_2
I0403 14:49:10.249521 13657 net.cpp:399] inception_4d/output_inception_4d/output_0_split -> inception_4d/output_inception_4d/output_0_split_3
I0403 14:49:10.249541 13657 net.cpp:399] inception_4d/output_inception_4d/output_0_split -> inception_4d/output_inception_4d/output_0_split_4
I0403 14:49:10.249644 13657 net.cpp:141] Setting up inception_4d/output_inception_4d/output_0_split
I0403 14:49:10.249685 13657 net.cpp:148] Top shape: 24 528 14 14 (2483712)
I0403 14:49:10.249702 13657 net.cpp:148] Top shape: 24 528 14 14 (2483712)
I0403 14:49:10.249719 13657 net.cpp:148] Top shape: 24 528 14 14 (2483712)
I0403 14:49:10.249735 13657 net.cpp:148] Top shape: 24 528 14 14 (2483712)
I0403 14:49:10.249749 13657 net.cpp:148] Top shape: 24 528 14 14 (2483712)
I0403 14:49:10.249763 13657 net.cpp:156] Memory required for data: 1206918432
I0403 14:49:10.249775 13657 layer_factory.hpp:77] Creating layer loss2/ave_pool
I0403 14:49:10.249794 13657 net.cpp:91] Creating Layer loss2/ave_pool
I0403 14:49:10.249811 13657 net.cpp:425] loss2/ave_pool <- inception_4d/output_inception_4d/output_0_split_0
I0403 14:49:10.249828 13657 net.cpp:399] loss2/ave_pool -> loss2/ave_pool
I0403 14:49:10.250141 13657 net.cpp:141] Setting up loss2/ave_pool
I0403 14:49:10.250169 13657 net.cpp:148] Top shape: 24 528 4 4 (202752)
I0403 14:49:10.250185 13657 net.cpp:156] Memory required for data: 1207729440
I0403 14:49:10.250198 13657 layer_factory.hpp:77] Creating layer loss2/conv
I0403 14:49:10.250217 13657 net.cpp:91] Creating Layer loss2/conv
I0403 14:49:10.250233 13657 net.cpp:425] loss2/conv <- loss2/ave_pool
I0403 14:49:10.250253 13657 net.cpp:399] loss2/conv -> loss2/conv
I0403 14:49:10.252081 13657 net.cpp:141] Setting up loss2/conv
I0403 14:49:10.252110 13657 net.cpp:148] Top shape: 24 128 4 4 (49152)
I0403 14:49:10.252125 13657 net.cpp:156] Memory required for data: 1207926048
I0403 14:49:10.252140 13657 layer_factory.hpp:77] Creating layer loss2/relu_conv
I0403 14:49:10.252158 13657 net.cpp:91] Creating Layer loss2/relu_conv
I0403 14:49:10.252173 13657 net.cpp:425] loss2/relu_conv <- loss2/conv
I0403 14:49:10.252192 13657 net.cpp:386] loss2/relu_conv -> loss2/conv (in-place)
I0403 14:49:10.252467 13657 net.cpp:141] Setting up loss2/relu_conv
I0403 14:49:10.252493 13657 net.cpp:148] Top shape: 24 128 4 4 (49152)
I0403 14:49:10.252507 13657 net.cpp:156] Memory required for data: 1208122656
I0403 14:49:10.252521 13657 layer_factory.hpp:77] Creating layer loss2/fc
I0403 14:49:10.252539 13657 net.cpp:91] Creating Layer loss2/fc
I0403 14:49:10.252554 13657 net.cpp:425] loss2/fc <- loss2/conv
I0403 14:49:10.252574 13657 net.cpp:399] loss2/fc -> loss2/fc
I0403 14:49:10.270602 13657 net.cpp:141] Setting up loss2/fc
I0403 14:49:10.270640 13657 net.cpp:148] Top shape: 24 1024 (24576)
I0403 14:49:10.270656 13657 net.cpp:156] Memory required for data: 1208220960
I0403 14:49:10.270675 13657 layer_factory.hpp:77] Creating layer loss2/relu_fc
I0403 14:49:10.270697 13657 net.cpp:91] Creating Layer loss2/relu_fc
I0403 14:49:10.270716 13657 net.cpp:425] loss2/relu_fc <- loss2/fc
I0403 14:49:10.270743 13657 net.cpp:386] loss2/relu_fc -> loss2/fc (in-place)
I0403 14:49:10.271106 13657 net.cpp:141] Setting up loss2/relu_fc
I0403 14:49:10.271141 13657 net.cpp:148] Top shape: 24 1024 (24576)
I0403 14:49:10.271158 13657 net.cpp:156] Memory required for data: 1208319264
I0403 14:49:10.271173 13657 layer_factory.hpp:77] Creating layer loss2/drop_fc
I0403 14:49:10.271190 13657 net.cpp:91] Creating Layer loss2/drop_fc
I0403 14:49:10.271208 13657 net.cpp:425] loss2/drop_fc <- loss2/fc
I0403 14:49:10.271225 13657 net.cpp:386] loss2/drop_fc -> loss2/fc (in-place)
I0403 14:49:10.271276 13657 net.cpp:141] Setting up loss2/drop_fc
I0403 14:49:10.271301 13657 net.cpp:148] Top shape: 24 1024 (24576)
I0403 14:49:10.271316 13657 net.cpp:156] Memory required for data: 1208417568
I0403 14:49:10.271329 13657 layer_factory.hpp:77] Creating layer loss2/classifier_plantvillage
I0403 14:49:10.271350 13657 net.cpp:91] Creating Layer loss2/classifier_plantvillage
I0403 14:49:10.271368 13657 net.cpp:425] loss2/classifier_plantvillage <- loss2/fc
I0403 14:49:10.271385 13657 net.cpp:399] loss2/classifier_plantvillage -> loss2/classifier_plantvillage
I0403 14:49:10.271808 13657 net.cpp:141] Setting up loss2/classifier_plantvillage
I0403 14:49:10.271833 13657 net.cpp:148] Top shape: 24 38 (912)
I0403 14:49:10.271847 13657 net.cpp:156] Memory required for data: 1208421216
I0403 14:49:10.271884 13657 layer_factory.hpp:77] Creating layer loss2/classifier_plantvillage_loss2/classifier_plantvillage_0_split
I0403 14:49:10.271904 13657 net.cpp:91] Creating Layer loss2/classifier_plantvillage_loss2/classifier_plantvillage_0_split
I0403 14:49:10.271930 13657 net.cpp:425] loss2/classifier_plantvillage_loss2/classifier_plantvillage_0_split <- loss2/classifier_plantvillage
I0403 14:49:10.271952 13657 net.cpp:399] loss2/classifier_plantvillage_loss2/classifier_plantvillage_0_split -> loss2/classifier_plantvillage_loss2/classifier_plantvillage_0_split_0
I0403 14:49:10.271976 13657 net.cpp:399] loss2/classifier_plantvillage_loss2/classifier_plantvillage_0_split -> loss2/classifier_plantvillage_loss2/classifier_plantvillage_0_split_1
I0403 14:49:10.272002 13657 net.cpp:399] loss2/classifier_plantvillage_loss2/classifier_plantvillage_0_split -> loss2/classifier_plantvillage_loss2/classifier_plantvillage_0_split_2
I0403 14:49:10.272083 13657 net.cpp:141] Setting up loss2/classifier_plantvillage_loss2/classifier_plantvillage_0_split
I0403 14:49:10.272109 13657 net.cpp:148] Top shape: 24 38 (912)
I0403 14:49:10.272125 13657 net.cpp:148] Top shape: 24 38 (912)
I0403 14:49:10.272141 13657 net.cpp:148] Top shape: 24 38 (912)
I0403 14:49:10.272156 13657 net.cpp:156] Memory required for data: 1208432160
I0403 14:49:10.272169 13657 layer_factory.hpp:77] Creating layer inception_4e/1x1
I0403 14:49:10.272189 13657 net.cpp:91] Creating Layer inception_4e/1x1
I0403 14:49:10.272210 13657 net.cpp:425] inception_4e/1x1 <- inception_4d/output_inception_4d/output_0_split_1
I0403 14:49:10.272241 13657 net.cpp:399] inception_4e/1x1 -> inception_4e/1x1
I0403 14:49:10.274149 13657 net.cpp:141] Setting up inception_4e/1x1
I0403 14:49:10.274178 13657 net.cpp:148] Top shape: 24 256 14 14 (1204224)
I0403 14:49:10.274193 13657 net.cpp:156] Memory required for data: 1213249056
I0403 14:49:10.274210 13657 layer_factory.hpp:77] Creating layer inception_4e/relu_1x1
I0403 14:49:10.274227 13657 net.cpp:91] Creating Layer inception_4e/relu_1x1
I0403 14:49:10.274242 13657 net.cpp:425] inception_4e/relu_1x1 <- inception_4e/1x1
I0403 14:49:10.274261 13657 net.cpp:386] inception_4e/relu_1x1 -> inception_4e/1x1 (in-place)
I0403 14:49:10.274569 13657 net.cpp:141] Setting up inception_4e/relu_1x1
I0403 14:49:10.274595 13657 net.cpp:148] Top shape: 24 256 14 14 (1204224)
I0403 14:49:10.274622 13657 net.cpp:156] Memory required for data: 1218065952
I0403 14:49:10.274638 13657 layer_factory.hpp:77] Creating layer inception_4e/3x3_reduce
I0403 14:49:10.274662 13657 net.cpp:91] Creating Layer inception_4e/3x3_reduce
I0403 14:49:10.274679 13657 net.cpp:425] inception_4e/3x3_reduce <- inception_4d/output_inception_4d/output_0_split_2
I0403 14:49:10.274700 13657 net.cpp:399] inception_4e/3x3_reduce -> inception_4e/3x3_reduce
I0403 14:49:10.276890 13657 net.cpp:141] Setting up inception_4e/3x3_reduce
I0403 14:49:10.276921 13657 net.cpp:148] Top shape: 24 160 14 14 (752640)
I0403 14:49:10.276937 13657 net.cpp:156] Memory required for data: 1221076512
I0403 14:49:10.276953 13657 layer_factory.hpp:77] Creating layer inception_4e/relu_3x3_reduce
I0403 14:49:10.276971 13657 net.cpp:91] Creating Layer inception_4e/relu_3x3_reduce
I0403 14:49:10.276986 13657 net.cpp:425] inception_4e/relu_3x3_reduce <- inception_4e/3x3_reduce
I0403 14:49:10.277004 13657 net.cpp:386] inception_4e/relu_3x3_reduce -> inception_4e/3x3_reduce (in-place)
I0403 14:49:10.277181 13657 net.cpp:141] Setting up inception_4e/relu_3x3_reduce
I0403 14:49:10.277205 13657 net.cpp:148] Top shape: 24 160 14 14 (752640)
I0403 14:49:10.277220 13657 net.cpp:156] Memory required for data: 1224087072
I0403 14:49:10.277233 13657 layer_factory.hpp:77] Creating layer inception_4e/3x3
I0403 14:49:10.277254 13657 net.cpp:91] Creating Layer inception_4e/3x3
I0403 14:49:10.277271 13657 net.cpp:425] inception_4e/3x3 <- inception_4e/3x3_reduce
I0403 14:49:10.277292 13657 net.cpp:399] inception_4e/3x3 -> inception_4e/3x3
I0403 14:49:10.282181 13657 net.cpp:141] Setting up inception_4e/3x3
I0403 14:49:10.282223 13657 net.cpp:148] Top shape: 24 320 14 14 (1505280)
I0403 14:49:10.282240 13657 net.cpp:156] Memory required for data: 1230108192
I0403 14:49:10.282258 13657 layer_factory.hpp:77] Creating layer inception_4e/relu_3x3
I0403 14:49:10.282279 13657 net.cpp:91] Creating Layer inception_4e/relu_3x3
I0403 14:49:10.282297 13657 net.cpp:425] inception_4e/relu_3x3 <- inception_4e/3x3
I0403 14:49:10.282315 13657 net.cpp:386] inception_4e/relu_3x3 -> inception_4e/3x3 (in-place)
I0403 14:49:10.282610 13657 net.cpp:141] Setting up inception_4e/relu_3x3
I0403 14:49:10.282635 13657 net.cpp:148] Top shape: 24 320 14 14 (1505280)
I0403 14:49:10.282649 13657 net.cpp:156] Memory required for data: 1236129312
I0403 14:49:10.282663 13657 layer_factory.hpp:77] Creating layer inception_4e/5x5_reduce
I0403 14:49:10.282683 13657 net.cpp:91] Creating Layer inception_4e/5x5_reduce
I0403 14:49:10.282703 13657 net.cpp:425] inception_4e/5x5_reduce <- inception_4d/output_inception_4d/output_0_split_3
I0403 14:49:10.282721 13657 net.cpp:399] inception_4e/5x5_reduce -> inception_4e/5x5_reduce
I0403 14:49:10.283756 13657 net.cpp:141] Setting up inception_4e/5x5_reduce
I0403 14:49:10.283782 13657 net.cpp:148] Top shape: 24 32 14 14 (150528)
I0403 14:49:10.283797 13657 net.cpp:156] Memory required for data: 1236731424
I0403 14:49:10.283813 13657 layer_factory.hpp:77] Creating layer inception_4e/relu_5x5_reduce
I0403 14:49:10.283830 13657 net.cpp:91] Creating Layer inception_4e/relu_5x5_reduce
I0403 14:49:10.283845 13657 net.cpp:425] inception_4e/relu_5x5_reduce <- inception_4e/5x5_reduce
I0403 14:49:10.283864 13657 net.cpp:386] inception_4e/relu_5x5_reduce -> inception_4e/5x5_reduce (in-place)
I0403 14:49:10.284152 13657 net.cpp:141] Setting up inception_4e/relu_5x5_reduce
I0403 14:49:10.284178 13657 net.cpp:148] Top shape: 24 32 14 14 (150528)
I0403 14:49:10.284191 13657 net.cpp:156] Memory required for data: 1237333536
I0403 14:49:10.284204 13657 layer_factory.hpp:77] Creating layer inception_4e/5x5
I0403 14:49:10.284241 13657 net.cpp:91] Creating Layer inception_4e/5x5
I0403 14:49:10.284260 13657 net.cpp:425] inception_4e/5x5 <- inception_4e/5x5_reduce
I0403 14:49:10.284278 13657 net.cpp:399] inception_4e/5x5 -> inception_4e/5x5
I0403 14:49:10.286070 13657 net.cpp:141] Setting up inception_4e/5x5
I0403 14:49:10.286099 13657 net.cpp:148] Top shape: 24 128 14 14 (602112)
I0403 14:49:10.286115 13657 net.cpp:156] Memory required for data: 1239741984
I0403 14:49:10.286134 13657 layer_factory.hpp:77] Creating layer inception_4e/relu_5x5
I0403 14:49:10.286150 13657 net.cpp:91] Creating Layer inception_4e/relu_5x5
I0403 14:49:10.286165 13657 net.cpp:425] inception_4e/relu_5x5 <- inception_4e/5x5
I0403 14:49:10.286181 13657 net.cpp:386] inception_4e/relu_5x5 -> inception_4e/5x5 (in-place)
I0403 14:49:10.286370 13657 net.cpp:141] Setting up inception_4e/relu_5x5
I0403 14:49:10.286394 13657 net.cpp:148] Top shape: 24 128 14 14 (602112)
I0403 14:49:10.286407 13657 net.cpp:156] Memory required for data: 1242150432
I0403 14:49:10.286422 13657 layer_factory.hpp:77] Creating layer inception_4e/pool
I0403 14:49:10.286438 13657 net.cpp:91] Creating Layer inception_4e/pool
I0403 14:49:10.286453 13657 net.cpp:425] inception_4e/pool <- inception_4d/output_inception_4d/output_0_split_4
I0403 14:49:10.286471 13657 net.cpp:399] inception_4e/pool -> inception_4e/pool
I0403 14:49:10.286538 13657 net.cpp:141] Setting up inception_4e/pool
I0403 14:49:10.286563 13657 net.cpp:148] Top shape: 24 528 14 14 (2483712)
I0403 14:49:10.286577 13657 net.cpp:156] Memory required for data: 1252085280
I0403 14:49:10.286592 13657 layer_factory.hpp:77] Creating layer inception_4e/pool_proj
I0403 14:49:10.286617 13657 net.cpp:91] Creating Layer inception_4e/pool_proj
I0403 14:49:10.286634 13657 net.cpp:425] inception_4e/pool_proj <- inception_4e/pool
I0403 14:49:10.286653 13657 net.cpp:399] inception_4e/pool_proj -> inception_4e/pool_proj
I0403 14:49:10.288095 13657 net.cpp:141] Setting up inception_4e/pool_proj
I0403 14:49:10.288138 13657 net.cpp:148] Top shape: 24 128 14 14 (602112)
I0403 14:49:10.288182 13657 net.cpp:156] Memory required for data: 1254493728
I0403 14:49:10.288208 13657 layer_factory.hpp:77] Creating layer inception_4e/relu_pool_proj
I0403 14:49:10.288230 13657 net.cpp:91] Creating Layer inception_4e/relu_pool_proj
I0403 14:49:10.288246 13657 net.cpp:425] inception_4e/relu_pool_proj <- inception_4e/pool_proj
I0403 14:49:10.288266 13657 net.cpp:386] inception_4e/relu_pool_proj -> inception_4e/pool_proj (in-place)
I0403 14:49:10.288597 13657 net.cpp:141] Setting up inception_4e/relu_pool_proj
I0403 14:49:10.288640 13657 net.cpp:148] Top shape: 24 128 14 14 (602112)
I0403 14:49:10.288657 13657 net.cpp:156] Memory required for data: 1256902176
I0403 14:49:10.288672 13657 layer_factory.hpp:77] Creating layer inception_4e/output
I0403 14:49:10.288691 13657 net.cpp:91] Creating Layer inception_4e/output
I0403 14:49:10.288707 13657 net.cpp:425] inception_4e/output <- inception_4e/1x1
I0403 14:49:10.288723 13657 net.cpp:425] inception_4e/output <- inception_4e/3x3
I0403 14:49:10.288738 13657 net.cpp:425] inception_4e/output <- inception_4e/5x5
I0403 14:49:10.288768 13657 net.cpp:425] inception_4e/output <- inception_4e/pool_proj
I0403 14:49:10.288784 13657 net.cpp:399] inception_4e/output -> inception_4e/output
I0403 14:49:10.288839 13657 net.cpp:141] Setting up inception_4e/output
I0403 14:49:10.288874 13657 net.cpp:148] Top shape: 24 832 14 14 (3913728)
I0403 14:49:10.288890 13657 net.cpp:156] Memory required for data: 1272557088
I0403 14:49:10.288907 13657 layer_factory.hpp:77] Creating layer pool4/3x3_s2
I0403 14:49:10.288926 13657 net.cpp:91] Creating Layer pool4/3x3_s2
I0403 14:49:10.288944 13657 net.cpp:425] pool4/3x3_s2 <- inception_4e/output
I0403 14:49:10.288965 13657 net.cpp:399] pool4/3x3_s2 -> pool4/3x3_s2
I0403 14:49:10.289039 13657 net.cpp:141] Setting up pool4/3x3_s2
I0403 14:49:10.289065 13657 net.cpp:148] Top shape: 24 832 7 7 (978432)
I0403 14:49:10.289079 13657 net.cpp:156] Memory required for data: 1276470816
I0403 14:49:10.289094 13657 layer_factory.hpp:77] Creating layer pool4/3x3_s2_pool4/3x3_s2_0_split
I0403 14:49:10.289113 13657 net.cpp:91] Creating Layer pool4/3x3_s2_pool4/3x3_s2_0_split
I0403 14:49:10.289127 13657 net.cpp:425] pool4/3x3_s2_pool4/3x3_s2_0_split <- pool4/3x3_s2
I0403 14:49:10.289149 13657 net.cpp:399] pool4/3x3_s2_pool4/3x3_s2_0_split -> pool4/3x3_s2_pool4/3x3_s2_0_split_0
I0403 14:49:10.289170 13657 net.cpp:399] pool4/3x3_s2_pool4/3x3_s2_0_split -> pool4/3x3_s2_pool4/3x3_s2_0_split_1
I0403 14:49:10.289191 13657 net.cpp:399] pool4/3x3_s2_pool4/3x3_s2_0_split -> pool4/3x3_s2_pool4/3x3_s2_0_split_2
I0403 14:49:10.289211 13657 net.cpp:399] pool4/3x3_s2_pool4/3x3_s2_0_split -> pool4/3x3_s2_pool4/3x3_s2_0_split_3
I0403 14:49:10.289302 13657 net.cpp:141] Setting up pool4/3x3_s2_pool4/3x3_s2_0_split
I0403 14:49:10.289326 13657 net.cpp:148] Top shape: 24 832 7 7 (978432)
I0403 14:49:10.289343 13657 net.cpp:148] Top shape: 24 832 7 7 (978432)
I0403 14:49:10.289358 13657 net.cpp:148] Top shape: 24 832 7 7 (978432)
I0403 14:49:10.289373 13657 net.cpp:148] Top shape: 24 832 7 7 (978432)
I0403 14:49:10.289387 13657 net.cpp:156] Memory required for data: 1292125728
I0403 14:49:10.289404 13657 layer_factory.hpp:77] Creating layer inception_5a/1x1
I0403 14:49:10.289427 13657 net.cpp:91] Creating Layer inception_5a/1x1
I0403 14:49:10.289448 13657 net.cpp:425] inception_5a/1x1 <- pool4/3x3_s2_pool4/3x3_s2_0_split_0
I0403 14:49:10.289466 13657 net.cpp:399] inception_5a/1x1 -> inception_5a/1x1
I0403 14:49:10.292373 13657 net.cpp:141] Setting up inception_5a/1x1
I0403 14:49:10.292405 13657 net.cpp:148] Top shape: 24 256 7 7 (301056)
I0403 14:49:10.292421 13657 net.cpp:156] Memory required for data: 1293329952
I0403 14:49:10.292439 13657 layer_factory.hpp:77] Creating layer inception_5a/relu_1x1
I0403 14:49:10.292456 13657 net.cpp:91] Creating Layer inception_5a/relu_1x1
I0403 14:49:10.292472 13657 net.cpp:425] inception_5a/relu_1x1 <- inception_5a/1x1
I0403 14:49:10.292491 13657 net.cpp:386] inception_5a/relu_1x1 -> inception_5a/1x1 (in-place)
I0403 14:49:10.292810 13657 net.cpp:141] Setting up inception_5a/relu_1x1
I0403 14:49:10.292840 13657 net.cpp:148] Top shape: 24 256 7 7 (301056)
I0403 14:49:10.292855 13657 net.cpp:156] Memory required for data: 1294534176
I0403 14:49:10.292870 13657 layer_factory.hpp:77] Creating layer inception_5a/3x3_reduce
I0403 14:49:10.292891 13657 net.cpp:91] Creating Layer inception_5a/3x3_reduce
I0403 14:49:10.292909 13657 net.cpp:425] inception_5a/3x3_reduce <- pool4/3x3_s2_pool4/3x3_s2_0_split_1
I0403 14:49:10.292927 13657 net.cpp:399] inception_5a/3x3_reduce -> inception_5a/3x3_reduce
I0403 14:49:10.295414 13657 net.cpp:141] Setting up inception_5a/3x3_reduce
I0403 14:49:10.295447 13657 net.cpp:148] Top shape: 24 160 7 7 (188160)
I0403 14:49:10.295464 13657 net.cpp:156] Memory required for data: 1295286816
I0403 14:49:10.295483 13657 layer_factory.hpp:77] Creating layer inception_5a/relu_3x3_reduce
I0403 14:49:10.295505 13657 net.cpp:91] Creating Layer inception_5a/relu_3x3_reduce
I0403 14:49:10.295523 13657 net.cpp:425] inception_5a/relu_3x3_reduce <- inception_5a/3x3_reduce
I0403 14:49:10.295541 13657 net.cpp:386] inception_5a/relu_3x3_reduce -> inception_5a/3x3_reduce (in-place)
I0403 14:49:10.295739 13657 net.cpp:141] Setting up inception_5a/relu_3x3_reduce
I0403 14:49:10.295768 13657 net.cpp:148] Top shape: 24 160 7 7 (188160)
I0403 14:49:10.295783 13657 net.cpp:156] Memory required for data: 1296039456
I0403 14:49:10.295799 13657 layer_factory.hpp:77] Creating layer inception_5a/3x3
I0403 14:49:10.295821 13657 net.cpp:91] Creating Layer inception_5a/3x3
I0403 14:49:10.295840 13657 net.cpp:425] inception_5a/3x3 <- inception_5a/3x3_reduce
I0403 14:49:10.295858 13657 net.cpp:399] inception_5a/3x3 -> inception_5a/3x3
I0403 14:49:10.300967 13657 net.cpp:141] Setting up inception_5a/3x3
I0403 14:49:10.301002 13657 net.cpp:148] Top shape: 24 320 7 7 (376320)
I0403 14:49:10.301018 13657 net.cpp:156] Memory required for data: 1297544736
I0403 14:49:10.301035 13657 layer_factory.hpp:77] Creating layer inception_5a/relu_3x3
I0403 14:49:10.301054 13657 net.cpp:91] Creating Layer inception_5a/relu_3x3
I0403 14:49:10.301069 13657 net.cpp:425] inception_5a/relu_3x3 <- inception_5a/3x3
I0403 14:49:10.301085 13657 net.cpp:386] inception_5a/relu_3x3 -> inception_5a/3x3 (in-place)
I0403 14:49:10.301380 13657 net.cpp:141] Setting up inception_5a/relu_3x3
I0403 14:49:10.301409 13657 net.cpp:148] Top shape: 24 320 7 7 (376320)
I0403 14:49:10.301425 13657 net.cpp:156] Memory required for data: 1299050016
I0403 14:49:10.301440 13657 layer_factory.hpp:77] Creating layer inception_5a/5x5_reduce
I0403 14:49:10.301460 13657 net.cpp:91] Creating Layer inception_5a/5x5_reduce
I0403 14:49:10.301478 13657 net.cpp:425] inception_5a/5x5_reduce <- pool4/3x3_s2_pool4/3x3_s2_0_split_2
I0403 14:49:10.301497 13657 net.cpp:399] inception_5a/5x5_reduce -> inception_5a/5x5_reduce
I0403 14:49:10.302670 13657 net.cpp:141] Setting up inception_5a/5x5_reduce
I0403 14:49:10.302701 13657 net.cpp:148] Top shape: 24 32 7 7 (37632)
I0403 14:49:10.302718 13657 net.cpp:156] Memory required for data: 1299200544
I0403 14:49:10.302736 13657 layer_factory.hpp:77] Creating layer inception_5a/relu_5x5_reduce
I0403 14:49:10.302753 13657 net.cpp:91] Creating Layer inception_5a/relu_5x5_reduce
I0403 14:49:10.302769 13657 net.cpp:425] inception_5a/relu_5x5_reduce <- inception_5a/5x5_reduce
I0403 14:49:10.302788 13657 net.cpp:386] inception_5a/relu_5x5_reduce -> inception_5a/5x5_reduce (in-place)
I0403 14:49:10.303412 13657 net.cpp:141] Setting up inception_5a/relu_5x5_reduce
I0403 14:49:10.303441 13657 net.cpp:148] Top shape: 24 32 7 7 (37632)
I0403 14:49:10.303455 13657 net.cpp:156] Memory required for data: 1299351072
I0403 14:49:10.303469 13657 layer_factory.hpp:77] Creating layer inception_5a/5x5
I0403 14:49:10.303494 13657 net.cpp:91] Creating Layer inception_5a/5x5
I0403 14:49:10.303513 13657 net.cpp:425] inception_5a/5x5 <- inception_5a/5x5_reduce
I0403 14:49:10.303534 13657 net.cpp:399] inception_5a/5x5 -> inception_5a/5x5
I0403 14:49:10.305282 13657 net.cpp:141] Setting up inception_5a/5x5
I0403 14:49:10.305335 13657 net.cpp:148] Top shape: 24 128 7 7 (150528)
I0403 14:49:10.305351 13657 net.cpp:156] Memory required for data: 1299953184
I0403 14:49:10.305369 13657 layer_factory.hpp:77] Creating layer inception_5a/relu_5x5
I0403 14:49:10.305387 13657 net.cpp:91] Creating Layer inception_5a/relu_5x5
I0403 14:49:10.305402 13657 net.cpp:425] inception_5a/relu_5x5 <- inception_5a/5x5
I0403 14:49:10.305418 13657 net.cpp:386] inception_5a/relu_5x5 -> inception_5a/5x5 (in-place)
I0403 14:49:10.305613 13657 net.cpp:141] Setting up inception_5a/relu_5x5
I0403 14:49:10.305639 13657 net.cpp:148] Top shape: 24 128 7 7 (150528)
I0403 14:49:10.305654 13657 net.cpp:156] Memory required for data: 1300555296
I0403 14:49:10.305667 13657 layer_factory.hpp:77] Creating layer inception_5a/pool
I0403 14:49:10.305685 13657 net.cpp:91] Creating Layer inception_5a/pool
I0403 14:49:10.305701 13657 net.cpp:425] inception_5a/pool <- pool4/3x3_s2_pool4/3x3_s2_0_split_3
I0403 14:49:10.305721 13657 net.cpp:399] inception_5a/pool -> inception_5a/pool
I0403 14:49:10.305790 13657 net.cpp:141] Setting up inception_5a/pool
I0403 14:49:10.305816 13657 net.cpp:148] Top shape: 24 832 7 7 (978432)
I0403 14:49:10.305832 13657 net.cpp:156] Memory required for data: 1304469024
I0403 14:49:10.305846 13657 layer_factory.hpp:77] Creating layer inception_5a/pool_proj
I0403 14:49:10.305866 13657 net.cpp:91] Creating Layer inception_5a/pool_proj
I0403 14:49:10.305884 13657 net.cpp:425] inception_5a/pool_proj <- inception_5a/pool
I0403 14:49:10.305903 13657 net.cpp:399] inception_5a/pool_proj -> inception_5a/pool_proj
I0403 14:49:10.308187 13657 net.cpp:141] Setting up inception_5a/pool_proj
I0403 14:49:10.308217 13657 net.cpp:148] Top shape: 24 128 7 7 (150528)
I0403 14:49:10.308231 13657 net.cpp:156] Memory required for data: 1305071136
I0403 14:49:10.308249 13657 layer_factory.hpp:77] Creating layer inception_5a/relu_pool_proj
I0403 14:49:10.308269 13657 net.cpp:91] Creating Layer inception_5a/relu_pool_proj
I0403 14:49:10.308295 13657 net.cpp:425] inception_5a/relu_pool_proj <- inception_5a/pool_proj
I0403 14:49:10.308311 13657 net.cpp:386] inception_5a/relu_pool_proj -> inception_5a/pool_proj (in-place)
I0403 14:49:10.308621 13657 net.cpp:141] Setting up inception_5a/relu_pool_proj
I0403 14:49:10.308647 13657 net.cpp:148] Top shape: 24 128 7 7 (150528)
I0403 14:49:10.308662 13657 net.cpp:156] Memory required for data: 1305673248
I0403 14:49:10.308676 13657 layer_factory.hpp:77] Creating layer inception_5a/output
I0403 14:49:10.308696 13657 net.cpp:91] Creating Layer inception_5a/output
I0403 14:49:10.308712 13657 net.cpp:425] inception_5a/output <- inception_5a/1x1
I0403 14:49:10.308728 13657 net.cpp:425] inception_5a/output <- inception_5a/3x3
I0403 14:49:10.308743 13657 net.cpp:425] inception_5a/output <- inception_5a/5x5
I0403 14:49:10.308758 13657 net.cpp:425] inception_5a/output <- inception_5a/pool_proj
I0403 14:49:10.308774 13657 net.cpp:399] inception_5a/output -> inception_5a/output
I0403 14:49:10.308825 13657 net.cpp:141] Setting up inception_5a/output
I0403 14:49:10.308848 13657 net.cpp:148] Top shape: 24 832 7 7 (978432)
I0403 14:49:10.308862 13657 net.cpp:156] Memory required for data: 1309586976
I0403 14:49:10.308877 13657 layer_factory.hpp:77] Creating layer inception_5a/output_inception_5a/output_0_split
I0403 14:49:10.308893 13657 net.cpp:91] Creating Layer inception_5a/output_inception_5a/output_0_split
I0403 14:49:10.308907 13657 net.cpp:425] inception_5a/output_inception_5a/output_0_split <- inception_5a/output
I0403 14:49:10.308926 13657 net.cpp:399] inception_5a/output_inception_5a/output_0_split -> inception_5a/output_inception_5a/output_0_split_0
I0403 14:49:10.308948 13657 net.cpp:399] inception_5a/output_inception_5a/output_0_split -> inception_5a/output_inception_5a/output_0_split_1
I0403 14:49:10.308967 13657 net.cpp:399] inception_5a/output_inception_5a/output_0_split -> inception_5a/output_inception_5a/output_0_split_2
I0403 14:49:10.308987 13657 net.cpp:399] inception_5a/output_inception_5a/output_0_split -> inception_5a/output_inception_5a/output_0_split_3
I0403 14:49:10.309098 13657 net.cpp:141] Setting up inception_5a/output_inception_5a/output_0_split
I0403 14:49:10.309124 13657 net.cpp:148] Top shape: 24 832 7 7 (978432)
I0403 14:49:10.309140 13657 net.cpp:148] Top shape: 24 832 7 7 (978432)
I0403 14:49:10.309155 13657 net.cpp:148] Top shape: 24 832 7 7 (978432)
I0403 14:49:10.309170 13657 net.cpp:148] Top shape: 24 832 7 7 (978432)
I0403 14:49:10.309182 13657 net.cpp:156] Memory required for data: 1325241888
I0403 14:49:10.309196 13657 layer_factory.hpp:77] Creating layer inception_5b/1x1
I0403 14:49:10.309217 13657 net.cpp:91] Creating Layer inception_5b/1x1
I0403 14:49:10.309236 13657 net.cpp:425] inception_5b/1x1 <- inception_5a/output_inception_5a/output_0_split_0
I0403 14:49:10.309255 13657 net.cpp:399] inception_5b/1x1 -> inception_5b/1x1
I0403 14:49:10.313112 13657 net.cpp:141] Setting up inception_5b/1x1
I0403 14:49:10.313143 13657 net.cpp:148] Top shape: 24 384 7 7 (451584)
I0403 14:49:10.313161 13657 net.cpp:156] Memory required for data: 1327048224
I0403 14:49:10.313180 13657 layer_factory.hpp:77] Creating layer inception_5b/relu_1x1
I0403 14:49:10.313200 13657 net.cpp:91] Creating Layer inception_5b/relu_1x1
I0403 14:49:10.313217 13657 net.cpp:425] inception_5b/relu_1x1 <- inception_5b/1x1
I0403 14:49:10.313235 13657 net.cpp:386] inception_5b/relu_1x1 -> inception_5b/1x1 (in-place)
I0403 14:49:10.313565 13657 net.cpp:141] Setting up inception_5b/relu_1x1
I0403 14:49:10.313593 13657 net.cpp:148] Top shape: 24 384 7 7 (451584)
I0403 14:49:10.313616 13657 net.cpp:156] Memory required for data: 1328854560
I0403 14:49:10.313632 13657 layer_factory.hpp:77] Creating layer inception_5b/3x3_reduce
I0403 14:49:10.313657 13657 net.cpp:91] Creating Layer inception_5b/3x3_reduce
I0403 14:49:10.313675 13657 net.cpp:425] inception_5b/3x3_reduce <- inception_5a/output_inception_5a/output_0_split_1
I0403 14:49:10.313699 13657 net.cpp:399] inception_5b/3x3_reduce -> inception_5b/3x3_reduce
I0403 14:49:10.316460 13657 net.cpp:141] Setting up inception_5b/3x3_reduce
I0403 14:49:10.316490 13657 net.cpp:148] Top shape: 24 192 7 7 (225792)
I0403 14:49:10.316506 13657 net.cpp:156] Memory required for data: 1329757728
I0403 14:49:10.316524 13657 layer_factory.hpp:77] Creating layer inception_5b/relu_3x3_reduce
I0403 14:49:10.316545 13657 net.cpp:91] Creating Layer inception_5b/relu_3x3_reduce
I0403 14:49:10.316562 13657 net.cpp:425] inception_5b/relu_3x3_reduce <- inception_5b/3x3_reduce
I0403 14:49:10.316581 13657 net.cpp:386] inception_5b/relu_3x3_reduce -> inception_5b/3x3_reduce (in-place)
I0403 14:49:10.316772 13657 net.cpp:141] Setting up inception_5b/relu_3x3_reduce
I0403 14:49:10.316802 13657 net.cpp:148] Top shape: 24 192 7 7 (225792)
I0403 14:49:10.316817 13657 net.cpp:156] Memory required for data: 1330660896
I0403 14:49:10.316831 13657 layer_factory.hpp:77] Creating layer inception_5b/3x3
I0403 14:49:10.316854 13657 net.cpp:91] Creating Layer inception_5b/3x3
I0403 14:49:10.316871 13657 net.cpp:425] inception_5b/3x3 <- inception_5b/3x3_reduce
I0403 14:49:10.316895 13657 net.cpp:399] inception_5b/3x3 -> inception_5b/3x3
I0403 14:49:10.323760 13657 net.cpp:141] Setting up inception_5b/3x3
I0403 14:49:10.323807 13657 net.cpp:148] Top shape: 24 384 7 7 (451584)
I0403 14:49:10.323823 13657 net.cpp:156] Memory required for data: 1332467232
I0403 14:49:10.323844 13657 layer_factory.hpp:77] Creating layer inception_5b/relu_3x3
I0403 14:49:10.323864 13657 net.cpp:91] Creating Layer inception_5b/relu_3x3
I0403 14:49:10.323884 13657 net.cpp:425] inception_5b/relu_3x3 <- inception_5b/3x3
I0403 14:49:10.323901 13657 net.cpp:386] inception_5b/relu_3x3 -> inception_5b/3x3 (in-place)
I0403 14:49:10.324200 13657 net.cpp:141] Setting up inception_5b/relu_3x3
I0403 14:49:10.324228 13657 net.cpp:148] Top shape: 24 384 7 7 (451584)
I0403 14:49:10.324241 13657 net.cpp:156] Memory required for data: 1334273568
I0403 14:49:10.324255 13657 layer_factory.hpp:77] Creating layer inception_5b/5x5_reduce
I0403 14:49:10.324306 13657 net.cpp:91] Creating Layer inception_5b/5x5_reduce
I0403 14:49:10.324324 13657 net.cpp:425] inception_5b/5x5_reduce <- inception_5a/output_inception_5a/output_0_split_2
I0403 14:49:10.324343 13657 net.cpp:399] inception_5b/5x5_reduce -> inception_5b/5x5_reduce
I0403 14:49:10.325618 13657 net.cpp:141] Setting up inception_5b/5x5_reduce
I0403 14:49:10.325649 13657 net.cpp:148] Top shape: 24 48 7 7 (56448)
I0403 14:49:10.325666 13657 net.cpp:156] Memory required for data: 1334499360
I0403 14:49:10.325683 13657 layer_factory.hpp:77] Creating layer inception_5b/relu_5x5_reduce
I0403 14:49:10.325701 13657 net.cpp:91] Creating Layer inception_5b/relu_5x5_reduce
I0403 14:49:10.325716 13657 net.cpp:425] inception_5b/relu_5x5_reduce <- inception_5b/5x5_reduce
I0403 14:49:10.325732 13657 net.cpp:386] inception_5b/relu_5x5_reduce -> inception_5b/5x5_reduce (in-place)
I0403 14:49:10.326104 13657 net.cpp:141] Setting up inception_5b/relu_5x5_reduce
I0403 14:49:10.326130 13657 net.cpp:148] Top shape: 24 48 7 7 (56448)
I0403 14:49:10.326145 13657 net.cpp:156] Memory required for data: 1334725152
I0403 14:49:10.326160 13657 layer_factory.hpp:77] Creating layer inception_5b/5x5
I0403 14:49:10.326180 13657 net.cpp:91] Creating Layer inception_5b/5x5
I0403 14:49:10.326196 13657 net.cpp:425] inception_5b/5x5 <- inception_5b/5x5_reduce
I0403 14:49:10.326215 13657 net.cpp:399] inception_5b/5x5 -> inception_5b/5x5
I0403 14:49:10.328290 13657 net.cpp:141] Setting up inception_5b/5x5
I0403 14:49:10.328323 13657 net.cpp:148] Top shape: 24 128 7 7 (150528)
I0403 14:49:10.328341 13657 net.cpp:156] Memory required for data: 1335327264
I0403 14:49:10.328359 13657 layer_factory.hpp:77] Creating layer inception_5b/relu_5x5
I0403 14:49:10.328380 13657 net.cpp:91] Creating Layer inception_5b/relu_5x5
I0403 14:49:10.328397 13657 net.cpp:425] inception_5b/relu_5x5 <- inception_5b/5x5
I0403 14:49:10.328416 13657 net.cpp:386] inception_5b/relu_5x5 -> inception_5b/5x5 (in-place)
I0403 14:49:10.328611 13657 net.cpp:141] Setting up inception_5b/relu_5x5
I0403 14:49:10.328636 13657 net.cpp:148] Top shape: 24 128 7 7 (150528)
I0403 14:49:10.328650 13657 net.cpp:156] Memory required for data: 1335929376
I0403 14:49:10.328665 13657 layer_factory.hpp:77] Creating layer inception_5b/pool
I0403 14:49:10.328682 13657 net.cpp:91] Creating Layer inception_5b/pool
I0403 14:49:10.328698 13657 net.cpp:425] inception_5b/pool <- inception_5a/output_inception_5a/output_0_split_3
I0403 14:49:10.328717 13657 net.cpp:399] inception_5b/pool -> inception_5b/pool
I0403 14:49:10.328789 13657 net.cpp:141] Setting up inception_5b/pool
I0403 14:49:10.328814 13657 net.cpp:148] Top shape: 24 832 7 7 (978432)
I0403 14:49:10.328827 13657 net.cpp:156] Memory required for data: 1339843104
I0403 14:49:10.328841 13657 layer_factory.hpp:77] Creating layer inception_5b/pool_proj
I0403 14:49:10.328865 13657 net.cpp:91] Creating Layer inception_5b/pool_proj
I0403 14:49:10.328881 13657 net.cpp:425] inception_5b/pool_proj <- inception_5b/pool
I0403 14:49:10.328899 13657 net.cpp:399] inception_5b/pool_proj -> inception_5b/pool_proj
I0403 14:49:10.331218 13657 net.cpp:141] Setting up inception_5b/pool_proj
I0403 14:49:10.331254 13657 net.cpp:148] Top shape: 24 128 7 7 (150528)
I0403 14:49:10.331271 13657 net.cpp:156] Memory required for data: 1340445216
I0403 14:49:10.331290 13657 layer_factory.hpp:77] Creating layer inception_5b/relu_pool_proj
I0403 14:49:10.331308 13657 net.cpp:91] Creating Layer inception_5b/relu_pool_proj
I0403 14:49:10.331326 13657 net.cpp:425] inception_5b/relu_pool_proj <- inception_5b/pool_proj
I0403 14:49:10.331341 13657 net.cpp:386] inception_5b/relu_pool_proj -> inception_5b/pool_proj (in-place)
I0403 14:49:10.331647 13657 net.cpp:141] Setting up inception_5b/relu_pool_proj
I0403 14:49:10.331676 13657 net.cpp:148] Top shape: 24 128 7 7 (150528)
I0403 14:49:10.331692 13657 net.cpp:156] Memory required for data: 1341047328
I0403 14:49:10.331707 13657 layer_factory.hpp:77] Creating layer inception_5b/output
I0403 14:49:10.331723 13657 net.cpp:91] Creating Layer inception_5b/output
I0403 14:49:10.331758 13657 net.cpp:425] inception_5b/output <- inception_5b/1x1
I0403 14:49:10.331775 13657 net.cpp:425] inception_5b/output <- inception_5b/3x3
I0403 14:49:10.331790 13657 net.cpp:425] inception_5b/output <- inception_5b/5x5
I0403 14:49:10.331805 13657 net.cpp:425] inception_5b/output <- inception_5b/pool_proj
I0403 14:49:10.331822 13657 net.cpp:399] inception_5b/output -> inception_5b/output
I0403 14:49:10.331874 13657 net.cpp:141] Setting up inception_5b/output
I0403 14:49:10.331898 13657 net.cpp:148] Top shape: 24 1024 7 7 (1204224)
I0403 14:49:10.331912 13657 net.cpp:156] Memory required for data: 1345864224
I0403 14:49:10.331926 13657 layer_factory.hpp:77] Creating layer pool5/7x7_s1
I0403 14:49:10.331945 13657 net.cpp:91] Creating Layer pool5/7x7_s1
I0403 14:49:10.331962 13657 net.cpp:425] pool5/7x7_s1 <- inception_5b/output
I0403 14:49:10.331980 13657 net.cpp:399] pool5/7x7_s1 -> pool5/7x7_s1
I0403 14:49:10.332195 13657 net.cpp:141] Setting up pool5/7x7_s1
I0403 14:49:10.332222 13657 net.cpp:148] Top shape: 24 1024 1 1 (24576)
I0403 14:49:10.332238 13657 net.cpp:156] Memory required for data: 1345962528
I0403 14:49:10.332253 13657 layer_factory.hpp:77] Creating layer pool5/drop_7x7_s1
I0403 14:49:10.332272 13657 net.cpp:91] Creating Layer pool5/drop_7x7_s1
I0403 14:49:10.332288 13657 net.cpp:425] pool5/drop_7x7_s1 <- pool5/7x7_s1
I0403 14:49:10.332304 13657 net.cpp:386] pool5/drop_7x7_s1 -> pool5/7x7_s1 (in-place)
I0403 14:49:10.332355 13657 net.cpp:141] Setting up pool5/drop_7x7_s1
I0403 14:49:10.332378 13657 net.cpp:148] Top shape: 24 1024 1 1 (24576)
I0403 14:49:10.332391 13657 net.cpp:156] Memory required for data: 1346060832
I0403 14:49:10.332404 13657 layer_factory.hpp:77] Creating layer loss3/classifier_plantvillage
I0403 14:49:10.332427 13657 net.cpp:91] Creating Layer loss3/classifier_plantvillage
I0403 14:49:10.332443 13657 net.cpp:425] loss3/classifier_plantvillage <- pool5/7x7_s1
I0403 14:49:10.332461 13657 net.cpp:399] loss3/classifier_plantvillage -> loss3/classifier_plantvillage
I0403 14:49:10.332895 13657 net.cpp:141] Setting up loss3/classifier_plantvillage
I0403 14:49:10.332918 13657 net.cpp:148] Top shape: 24 38 (912)
I0403 14:49:10.332932 13657 net.cpp:156] Memory required for data: 1346064480
I0403 14:49:10.332950 13657 layer_factory.hpp:77] Creating layer loss3/classifier_plantvillage_loss3/classifier_plantvillage_0_split
I0403 14:49:10.332968 13657 net.cpp:91] Creating Layer loss3/classifier_plantvillage_loss3/classifier_plantvillage_0_split
I0403 14:49:10.332985 13657 net.cpp:425] loss3/classifier_plantvillage_loss3/classifier_plantvillage_0_split <- loss3/classifier_plantvillage
I0403 14:49:10.333005 13657 net.cpp:399] loss3/classifier_plantvillage_loss3/classifier_plantvillage_0_split -> loss3/classifier_plantvillage_loss3/classifier_plantvillage_0_split_0
I0403 14:49:10.333026 13657 net.cpp:399] loss3/classifier_plantvillage_loss3/classifier_plantvillage_0_split -> loss3/classifier_plantvillage_loss3/classifier_plantvillage_0_split_1
I0403 14:49:10.333046 13657 net.cpp:399] loss3/classifier_plantvillage_loss3/classifier_plantvillage_0_split -> loss3/classifier_plantvillage_loss3/classifier_plantvillage_0_split_2
I0403 14:49:10.333065 13657 net.cpp:399] loss3/classifier_plantvillage_loss3/classifier_plantvillage_0_split -> loss3/classifier_plantvillage_loss3/classifier_plantvillage_0_split_3
I0403 14:49:10.333169 13657 net.cpp:141] Setting up loss3/classifier_plantvillage_loss3/classifier_plantvillage_0_split
I0403 14:49:10.333192 13657 net.cpp:148] Top shape: 24 38 (912)
I0403 14:49:10.333207 13657 net.cpp:148] Top shape: 24 38 (912)
I0403 14:49:10.333222 13657 net.cpp:148] Top shape: 24 38 (912)
I0403 14:49:10.333237 13657 net.cpp:148] Top shape: 24 38 (912)
I0403 14:49:10.333250 13657 net.cpp:156] Memory required for data: 1346079072
I0403 14:49:10.333263 13657 layer_factory.hpp:77] Creating layer loss1/loss
I0403 14:49:10.333284 13657 net.cpp:91] Creating Layer loss1/loss
I0403 14:49:10.333300 13657 net.cpp:425] loss1/loss <- loss1/classifier_plantvillage_loss1/classifier_plantvillage_0_split_0
I0403 14:49:10.333331 13657 net.cpp:425] loss1/loss <- label_data_1_split_0
…
