…
I0403 14:36:43.827950 13452 net.cpp:313] The NetState phase (1) differed from the phase (0) specified by a rule in layer data
I0403 14:36:43.829059 13452 net.cpp:49] Initializing net from parameters: 
state {
  phase: TEST
}
layer {
  name: "data"
  type: "Data"
  top: "data"
  top: "label"
  include {
    phase: TEST
  }
  transform_param {
    mirror: false
    crop_size: 224
    mean_file: "/home/mohanty/data/final_dataset/lmdb/color-40-60/mean.binaryproto"
  }
  data_param {
    source: "/home/mohanty/data/final_dataset/lmdb/color-40-60/test_db"
    batch_size: 24
    backend: LMDB
  }
}
layer {
  name: "conv1/7x7_s2"
  type: "Convolution"
  bottom: "data"
  top: "conv1/7x7_s2"
  param {
    lr_mult: 1
    decay_mult: 1
  }
  param {
    lr_mult: 2
    decay_mult: 0
  }
  convolution_param {
    num_output: 64
    pad: 3
    kernel_size: 7
    stride: 2
    weight_filler {
      type: "xavier"
      std: 0.1
    }
    bias_filler {
      type: "constant"
      value: 0.2
    }
  }
}
layer {
  name: "conv1/relu_7x7"
  type: "ReLU"
  bottom: "conv1/7x7_s2"
  top: "conv1/7x7_s2"
}
layer {
  name: "pool1/3x3_s2"
  type: "Pooling"
  bottom: "conv1/7x7_s2"
  top: "pool1/3x3_s2"
  pooling_param {
    pool: MAX
    kernel_size: 3
    stride: 2
  }
}
layer {
  name: "pool1/norm1"
  type: "LRN"
  bottom: "pool1/3x3_s2"
  top: "pool1/norm1"
  lrn_param {
    local_size: 5
    alpha: 0.0001
    beta: 0.75
  }
}
layer {
  name: "conv2/3x3_reduce"
  type: "Convolution"
  bottom: "pool1/norm1"
  top: "conv2/3x3_reduce"
  param {
    lr_mult: 1
    decay_mult: 1
  }
  param {
    lr_mult: 2
    decay_mult: 0
  }
  convolution_param {
    num_output: 64
    kernel_size: 1
    weight_filler {
      type: "xavier"
      std: 0.1
    }
    bias_filler {
      type: "constant"
      value: 0.2
    }
  }
}
layer {
  name: "conv2/relu_3x3_reduce"
  type: "ReLU"
  bottom: "conv2/3x3_reduce"
  top: "conv2/3x3_reduce"
}
layer {
  name: "conv2/3x3"
  type: "Convolution"
  bottom: "conv2/3x3_reduce"
  top: "conv2/3x3"
  param {
    lr_mult: 1
    decay_mult: 1
  }
  param {
    lr_mult: 2
    decay_mult: 0
  }
  convolution_param {
    num_output: 192
    pad: 1
    kernel_size: 3
    weight_filler {
      type: "xavier"
      std: 0.03
    }
    bias_filler {
      type: "constant"
      value: 0.2
    }
  }
}
layer {
  name: "conv2/relu_3x3"
  type: "ReLU"
  bottom: "conv2/3x3"
  top: "conv2/3x3"
}
layer {
  name: "conv2/norm2"
  type: "LRN"
  bottom: "conv2/3x3"
  top: "conv2/norm2"
  lrn_param {
    local_size: 5
    alpha: 0.0001
    beta: 0.75
  }
}
layer {
  name: "pool2/3x3_s2"
  type: "Pooling"
  bottom: "conv2/norm2"
  top: "pool2/3x3_s2"
  pooling_param {
    pool: MAX
    kernel_size: 3
    stride: 2
  }
}
layer {
  name: "inception_3a/1x1"
  type: "Convolution"
  bottom: "pool2/3x3_s2"
  top: "inception_3a/1x1"
  param {
    lr_mult: 1
    decay_mult: 1
  }
  param {
    lr_mult: 2
    decay_mult: 0
  }
  convolution_param {
    num_output: 64
    kernel_size: 1
    weight_filler {
      type: "xavier"
      std: 0.03
    }
    bias_filler {
      type: "constant"
      value: 0.2
    }
  }
}
layer {
  name: "inception_3a/relu_1x1"
  type: "ReLU"
  bottom: "inception_3a/1x1"
  top: "inception_3a/1x1"
}
layer {
  name: "inception_3a/3x3_reduce"
  type: "Convolution"
  bottom: "pool2/3x3_s2"
  top: "inception_3a/3x3_reduce"
  param {
    lr_mult: 1
    decay_mult: 1
  }
  param {
    lr_mult: 2
    decay_mult: 0
  }
  convolution_param {
    num_output: 96
    kernel_size: 1
    weight_filler {
      type: "xavier"
      std: 0.09
    }
    bias_filler {
      type: "constant"
      value: 0.2
    }
  }
}
layer {
  name: "inception_3a/relu_3x3_reduce"
  type: "ReLU"
  bottom: "inception_3a/3x3_reduce"
  top: "inception_3a/3x3_reduce"
}
layer {
  name: "inception_3a/3x3"
  type: "Convolution"
  bottom: "inception_3a/3x3_reduce"
  top: "inception_3a/3x3"
  param {
    lr_mult: 1
    decay_mult: 1
  }
  param {
    lr_mult: 2
    decay_mult: 0
  }
  convolution_param {
    num_output: 128
    pad: 1
    kernel_size: 3
    weight_filler {
      type: "xavier"
      std: 0.03
    }
    bias_filler {
      type: "constant"
      value: 0.2
    }
  }
}
layer {
  name: "inception_3a/relu_3x3"
  type: "ReLU"
  bottom: "inception_3a/3x3"
  top: "inception_3a/3x3"
}
layer {
  name: "inception_3a/5x5_reduce"
  type: "Convolution"
  bottom: "pool2/3x3_s2"
  top: "inception_3a/5x5_reduce"
  param {
    lr_mult: 1
    decay_mult: 1
  }
  param {
    lr_mult: 2
    decay_mult: 0
  }
  convolution_param {
    num_output: 16
    kernel_size: 1
    weight_filler {
      type: "xavier"
      std: 0.2
    }
    bias_filler {
      type: "constant"
      value: 0.2
    }
  }
}
layer {
  name: "inception_3a/relu_5x5_reduce"
  type: "ReLU"
  bottom: "inception_3a/5x5_reduce"
  top: "inception_3a/5x5_reduce"
}
layer {
  name: "inception_3a/5x5"
  type: "Convolution"
  bottom: "inception_3a/5x5_reduce"
  top: "inception_3a/5x5"
  param {
    lr_mult: 1
    decay_mult: 1
  }
  param {
    lr_mult: 2
    decay_mult: 0
  }
  convolution_param {
    num_output: 32
    pad: 2
    kernel_size: 5
    weight_filler {
      type: "xavier"
      std: 0.03
    }
    bias_filler {
      type: "constant"
      value: 0.2
    }
  }
}
layer {
  name: "inception_3a/relu_5x5"
  type: "ReLU"
  bottom: "inception_3a/5x5"
  top: "inception_3a/5x5"
}
layer {
  name: "inception_3a/pool"
  type: "Pooling"
  bottom: "pool2/3x3_s2"
  top: "inception_3a/pool"
  pooling_param {
    pool: MAX
    kernel_size: 3
    stride: 1
    pad: 1
  }
}
layer {
  name: "inception_3a/pool_proj"
  type: "Convolution"
  bottom: "inception_3a/pool"
  top: "inception_3a/pool_proj"
  param {
    lr_mult: 1
    decay_mult: 1
  }
  param {
    lr_mult: 2
    decay_mult: 0
  }
  convolution_param {
    num_output: 32
    kernel_size: 1
    weight_filler {
      type: "xavier"
      std: 0.1
    }
    bias_filler {
      type: "constant"
      value: 0.2
    }
  }
}
layer {
  name: "inception_3a/relu_pool_proj"
  type: "ReLU"
  bottom: "inception_3a/pool_proj"
  top: "inception_3a/pool_proj"
}
layer {
  name: "inception_3a/output"
  type: "Concat"
  bottom: "inception_3a/1x1"
  bottom: "inception_3a/3x3"
  bottom: "inception_3a/5x5"
  bottom: "inception_3a/pool_proj"
  top: "inception_3a/output"
}
layer {
  name: "inception_3b/1x1"
  type: "Convolution"
  bottom: "inception_3a/output"
  top: "inception_3b/1x1"
  param {
    lr_mult: 1
    decay_mult: 1
  }
  param {
    lr_mult: 2
    decay_mult: 0
  }
  convolution_param {
    num_output: 128
    kernel_size: 1
    weight_filler {
      type: "xavier"
      std: 0.03
    }
    bias_filler {
      type: "constant"
      value: 0.2
    }
  }
}
layer {
  name: "inception_3b/relu_1x1"
  type: "ReLU"
  bottom: "inception_3b/1x1"
  top: "inception_3b/1x1"
}
layer {
  name: "inception_3b/3x3_reduce"
  type: "Convolution"
  bottom: "inception_3a/output"
  top: "inception_3b/3x3_reduce"
  param {
    lr_mult: 1
    decay_mult: 1
  }
  param {
    lr_mult: 2
    decay_mult: 0
  }
  convolution_param {
    num_output: 128
    kernel_size: 1
    weight_filler {
      type: "xavier"
      std: 0.09
    }
    bias_filler {
      type: "constant"
      value: 0.2
    }
  }
}
layer {
  name: "inception_3b/relu_3x3_reduce"
  type: "ReLU"
  bottom: "inception_3b/3x3_reduce"
  top: "inception_3b/3x3_reduce"
}
layer {
  name: "inception_3b/3x3"
  type: "Convolution"
  bottom: "inception_3b/3x3_reduce"
  top: "inception_3b/3x3"
  param {
    lr_mult: 1
    decay_mult: 1
  }
  param {
    lr_mult: 2
    decay_mult: 0
  }
  convolution_param {
    num_output: 192
    pad: 1
    kernel_size: 3
    weight_filler {
      type: "xavier"
      std: 0.03
    }
    bias_filler {
      type: "constant"
      value: 0.2
    }
  }
}
layer {
  name: "inception_3b/relu_3x3"
  type: "ReLU"
  bottom: "inception_3b/3x3"
  top: "inception_3b/3x3"
}
layer {
  name: "inception_3b/5x5_reduce"
  type: "Convolution"
  bottom: "inception_3a/output"
  top: "inception_3b/5x5_reduce"
  param {
    lr_mult: 1
    decay_mult: 1
  }
  param {
    lr_mult: 2
    decay_mult: 0
  }
  convolution_param {
    num_output: 32
    kernel_size: 1
    weight_filler {
      type: "xavier"
      std: 0.2
    }
    bias_filler {
      type: "constant"
      value: 0.2
    }
  }
}
layer {
  name: "inception_3b/relu_5x5_reduce"
  type: "ReLU"
  bottom: "inception_3b/5x5_reduce"
  top: "inception_3b/5x5_reduce"
}
layer {
  name: "inception_3b/5x5"
  type: "Convolution"
  bottom: "inception_3b/5x5_reduce"
  top: "inception_3b/5x5"
  param {
    lr_mult: 1
    decay_mult: 1
  }
  param {
    lr_mult: 2
    decay_mult: 0
  }
  convolution_param {
    num_output: 96
    pad: 2
    kernel_size: 5
    weight_filler {
      type: "xavier"
      std: 0.03
    }
    bias_filler {
      type: "constant"
      value: 0.2
    }
  }
}
layer {
  name: "inception_3b/relu_5x5"
  type: "ReLU"
  bottom: "inception_3b/5x5"
  top: "inception_3b/5x5"
}
layer {
  name: "inception_3b/pool"
  type: "Pooling"
  bottom: "inception_3a/output"
  top: "inception_3b/pool"
  pooling_param {
    pool: MAX
    kernel_size: 3
    stride: 1
    pad: 1
  }
}
layer {
  name: "inception_3b/pool_proj"
  type: "Convolution"
  bottom: "inception_3b/pool"
  top: "inception_3b/pool_proj"
  param {
    lr_mult: 1
    decay_mult: 1
  }
  param {
    lr_mult: 2
    decay_mult: 0
  }
  convolution_param {
    num_output: 64
    kernel_size: 1
    weight_filler {
      type: "xavier"
      std: 0.1
    }
    bias_filler {
      type: "constant"
      value: 0.2
    }
  }
}
layer {
  name: "inception_3b/relu_pool_proj"
  type: "ReLU"
  bottom: "inception_3b/pool_proj"
  top: "inception_3b/pool_proj"
}
layer {
  name: "inception_3b/output"
  type: "Concat"
  bottom: "inception_3b/1x1"
  bottom: "inception_3b/3x3"
  bottom: "inception_3b/5x5"
  bottom: "inception_3b/pool_proj"
  top: "inception_3b/output"
}
layer {
  name: "pool3/3x3_s2"
  type: "Pooling"
  bottom: "inception_3b/output"
  top: "pool3/3x3_s2"
  pooling_param {
    pool: MAX
    kernel_size: 3
    stride: 2
  }
}
layer {
  name: "inception_4a/1x1"
  type: "Convolution"
  bottom: "pool3/3x3_s2"
  top: "inception_4a/1x1"
  param {
    lr_mult: 1
    decay_mult: 1
  }
  param {
    lr_mult: 2
    decay_mult: 0
  }
  convolution_param {
    num_output: 192
    kernel_size: 1
    weight_filler {
      type: "xavier"
      std: 0.03
    }
    bias_filler {
      type: "constant"
      value: 0.2
    }
  }
}
layer {
  name: "inception_4a/relu_1x1"
  type: "ReLU"
  bottom: "inception_4a/1x1"
  top: "inception_4a/1x1"
}
layer {
  name: "inception_4a/3x3_reduce"
  type: "Convolution"
  bottom: "pool3/3x3_s2"
  top: "inception_4a/3x3_reduce"
  param {
    lr_mult: 1
    decay_mult: 1
  }
  param {
    lr_mult: 2
    decay_mult: 0
  }
  convolution_param {
    num_output: 96
    kernel_size: 1
    weight_filler {
      type: "xavier"
      std: 0.09
    }
    bias_filler {
      type: "constant"
      value: 0.2
    }
  }
}
layer {
  name: "inception_4a/relu_3x3_reduce"
  type: "ReLU"
  bottom: "inception_4a/3x3_reduce"
  top: "inception_4a/3x3_reduce"
}
layer {
  name: "inception_4a/3x3"
  type: "Convolution"
  bottom: "inception_4a/3x3_reduce"
  top: "inception_4a/3x3"
  param {
    lr_mult: 1
    decay_mult: 1
  }
  param {
    lr_mult: 2
    decay_mult: 0
  }
  convolution_param {
    num_output: 208
    pad: 1
    kernel_size: 3
    weight_filler {
      type: "xavier"
      std: 0.03
    }
    bias_filler {
      type: "constant"
      value: 0.2
    }
  }
}
layer {
  name: "inception_4a/relu_3x3"
  type: "ReLU"
  bottom: "inception_4a/3x3"
  top: "inception_4a/3x3"
}
layer {
  name: "inception_4a/5x5_reduce"
  type: "Convolution"
  bottom: "pool3/3x3_s2"
  top: "inception_4a/5x5_reduce"
  param {
    lr_mult: 1
    decay_mult: 1
  }
  param {
    lr_mult: 2
    decay_mult: 0
  }
  convolution_param {
    num_output: 16
    kernel_size: 1
    weight_filler {
      type: "xavier"
      std: 0.2
    }
    bias_filler {
      type: "constant"
      value: 0.2
    }
  }
}
layer {
  name: "inception_4a/relu_5x5_reduce"
  type: "ReLU"
  bottom: "inception_4a/5x5_reduce"
  top: "inception_4a/5x5_reduce"
}
layer {
  name: "inception_4a/5x5"
  type: "Convolution"
  bottom: "inception_4a/5x5_reduce"
  top: "inception_4a/5x5"
  param {
    lr_mult: 1
    decay_mult: 1
  }
  param {
    lr_mult: 2
    decay_mult: 0
  }
  convolution_param {
    num_output: 48
    pad: 2
    kernel_size: 5
    weight_filler {
      type: "xavier"
      std: 0.03
    }
    bias_filler {
      type: "constant"
      value: 0.2
    }
  }
}
layer {
  name: "inception_4a/relu_5x5"
  type: "ReLU"
  bottom: "inception_4a/5x5"
  top: "inception_4a/5x5"
}
layer {
  name: "inception_4a/pool"
  type: "Pooling"
  bottom: "pool3/3x3_s2"
  top: "inception_4a/pool"
  pooling_param {
    pool: MAX
    kernel_size: 3
    stride: 1
    pad: 1
  }
}
layer {
  name: "inception_4a/pool_proj"
  type: "Convolution"
  bottom: "inception_4a/pool"
  top: "inception_4a/pool_proj"
  param {
    lr_mult: 1
    decay_mult: 1
  }
  param {
    lr_mult: 2
    decay_mult: 0
  }
  convolution_param {
    num_output: 64
    kernel_size: 1
    weight_filler {
      type: "xavier"
      std: 0.1
    }
    bias_filler {
      type: "constant"
      value: 0.2
    }
  }
}
layer {
  name: "inception_4a/relu_pool_proj"
  type: "ReLU"
  bottom: "inception_4a/pool_proj"
  top: "inception_4a/pool_proj"
}
layer {
  name: "inception_4a/output"
  type: "Concat"
  bottom: "inception_4a/1x1"
  bottom: "inception_4a/3x3"
  bottom: "inception_4a/5x5"
  bottom: "inception_4a/pool_proj"
  top: "inception_4a/output"
}
layer {
  name: "loss1/ave_pool"
  type: "Pooling"
  bottom: "inception_4a/output"
  top: "loss1/ave_pool"
  pooling_param {
    pool: AVE
    kernel_size: 5
    stride: 3
  }
}
layer {
  name: "loss1/conv"
  type: "Convolution"
  bottom: "loss1/ave_pool"
  top: "loss1/conv"
  param {
    lr_mult: 1
    decay_mult: 1
  }
  param {
    lr_mult: 2
    decay_mult: 0
  }
  convolution_param {
    num_output: 128
    kernel_size: 1
    weight_filler {
      type: "xavier"
      std: 0.08
    }
    bias_filler {
      type: "constant"
      value: 0.2
    }
  }
}
layer {
  name: "loss1/relu_conv"
  type: "ReLU"
  bottom: "loss1/conv"
  top: "loss1/conv"
}
layer {
  name: "loss1/fc"
  type: "InnerProduct"
  bottom: "loss1/conv"
  top: "loss1/fc"
  param {
    lr_mult: 1
    decay_mult: 1
  }
  param {
    lr_mult: 2
    decay_mult: 0
  }
  inner_product_param {
    num_output: 1024
    weight_filler {
      type: "xavier"
      std: 0.02
    }
    bias_filler {
      type: "constant"
      value: 0.2
    }
  }
}
layer {
  name: "loss1/relu_fc"
  type: "ReLU"
  bottom: "loss1/fc"
  top: "loss1/fc"
}
layer {
  name: "loss1/drop_fc"
  type: "Dropout"
  bottom: "loss1/fc"
  top: "loss1/fc"
  dropout_param {
    dropout_ratio: 0.7
  }
}
layer {
  name: "loss1/classifier_plantvillage"
  type: "InnerProduct"
  bottom: "loss1/fc"
  top: "loss1/classifier_plantvillage"
  param {
    lr_mult: 1
    decay_mult: 1
  }
  param {
    lr_mult: 2
    decay_mult: 0
  }
  inner_product_param {
    num_output: 38
    weight_filler {
      type: "xavier"
      std: 0.0009765625
    }
    bias_filler {
      type: "constant"
      value: 0
    }
  }
}
layer {
  name: "inception_4b/1x1"
  type: "Convolution"
  bottom: "inception_4a/output"
  top: "inception_4b/1x1"
  param {
    lr_mult: 1
    decay_mult: 1
  }
  param {
    lr_mult: 2
    decay_mult: 0
  }
  convolution_param {
    num_output: 160
    kernel_size: 1
    weight_filler {
      type: "xavier"
      std: 0.03
    }
    bias_filler {
      type: "constant"
      value: 0.2
    }
  }
}
layer {
  name: "inception_4b/relu_1x1"
  type: "ReLU"
  bottom: "inception_4b/1x1"
  top: "inception_4b/1x1"
}
layer {
  name: "inception_4b/3x3_reduce"
  type: "Convolution"
  bottom: "inception_4a/output"
  top: "inception_4b/3x3_reduce"
  param {
    lr_mult: 1
    decay_mult: 1
  }
  param {
    lr_mult: 2
    decay_mult: 0
  }
  convolution_param {
    num_output: 112
    kernel_size: 1
    weight_filler {
      type: "xavier"
      std: 0.09
    }
    bias_filler {
      type: "constant"
      value: 0.2
    }
  }
}
layer {
  name: "inception_4b/relu_3x3_reduce"
  type: "ReLU"
  bottom: "inception_4b/3x3_reduce"
  top: "inception_4b/3x3_reduce"
}
layer {
  name: "inception_4b/3x3"
  type: "Convolution"
  bottom: "inception_4b/3x3_reduce"
  top: "inception_4b/3x3"
  param {
    lr_mult: 1
    decay_mult: 1
  }
  param {
    lr_mult: 2
    decay_mult: 0
  }
  convolution_param {
    num_output: 224
    pad: 1
    kernel_size: 3
    weight_filler {
      type: "xavier"
      std: 0.03
    }
    bias_filler {
      type: "constant"
      value: 0.2
    }
  }
}
layer {
  name: "inception_4b/relu_3x3"
  type: "ReLU"
  bottom: "inception_4b/3x3"
  top: "inception_4b/3x3"
}
layer {
  name: "inception_4b/5x5_reduce"
  type: "Convolution"
  bottom: "inception_4a/output"
  top: "inception_4b/5x5_reduce"
  param {
    lr_mult: 1
    decay_mult: 1
  }
  param {
    lr_mult: 2
    decay_mult: 0
  }
  convolution_param {
    num_output: 24
    kernel_size: 1
    weight_filler {
      type: "xavier"
      std: 0.2
    }
    bias_filler {
      type: "constant"
      value: 0.2
    }
  }
}
layer {
  name: "inception_4b/relu_5x5_reduce"
  type: "ReLU"
  bottom: "inception_4b/5x5_reduce"
  top: "inception_4b/5x5_reduce"
}
layer {
  name: "inception_4b/5x5"
  type: "Convolution"
  bottom: "inception_4b/5x5_reduce"
  top: "inception_4b/5x5"
  param {
    lr_mult: 1
    decay_mult: 1
  }
  param {
    lr_mult: 2
    decay_mult: 0
  }
  convolution_param {
    num_output: 64
    pad: 2
    kernel_size: 5
    weight_filler {
      type: "xavier"
      std: 0.03
    }
    bias_filler {
      type: "constant"
      value: 0.2
    }
  }
}
layer {
  name: "inception_4b/relu_5x5"
  type: "ReLU"
  bottom: "inception_4b/5x5"
  top: "inception_4b/5x5"
}
layer {
  name: "inception_4b/pool"
  type: "Pooling"
  bottom: "inception_4a/output"
  top: "inception_4b/pool"
  pooling_param {
    pool: MAX
    kernel_size: 3
    stride: 1
    pad: 1
  }
}
layer {
  name: "inception_4b/pool_proj"
  type: "Convolution"
  bottom: "inception_4b/pool"
  top: "inception_4b/pool_proj"
  param {
    lr_mult: 1
    decay_mult: 1
  }
  param {
    lr_mult: 2
    decay_mult: 0
  }
  convolution_param {
    num_output: 64
    kernel_size: 1
    weight_filler {
      type: "xavier"
      std: 0.1
    }
    bias_filler {
      type: "constant"
      value: 0.2
    }
  }
}
layer {
  name: "inception_4b/relu_pool_proj"
  type: "ReLU"
  bottom: "inception_4b/pool_proj"
  top: "inception_4b/pool_proj"
}
layer {
  name: "inception_4b/output"
  type: "Concat"
  bottom: "inception_4b/1x1"
  bottom: "inception_4b/3x3"
  bottom: "inception_4b/5x5"
  bottom: "inception_4b/pool_proj"
  top: "inception_4b/output"
}
layer {
  name: "inception_4c/1x1"
  type: "Convolution"
  bottom: "inception_4b/output"
  top: "inception_4c/1x1"
  param {
    lr_mult: 1
    decay_mult: 1
  }
  param {
    lr_mult: 2
    decay_mult: 0
  }
  convolution_param {
    num_output: 128
    kernel_size: 1
    weight_filler {
      type: "xavier"
      std: 0.03
    }
    bias_filler {
      type: "constant"
      value: 0.2
    }
  }
}
layer {
  name: "inception_4c/relu_1x1"
  type: "ReLU"
  bottom: "inception_4c/1x1"
  top: "inception_4c/1x1"
}
layer {
  name: "inception_4c/3x3_reduce"
  type: "Convolution"
  bottom: "inception_4b/output"
  top: "inception_4c/3x3_reduce"
  param {
    lr_mult: 1
    decay_mult: 1
  }
  param {
    lr_mult: 2
    decay_mult: 0
  }
  convolution_param {
    num_output: 128
    kernel_size: 1
    weight_filler {
      type: "xavier"
      std: 0.09
    }
    bias_filler {
      type: "constant"
      value: 0.2
    }
  }
}
layer {
  name: "inception_4c/relu_3x3_reduce"
  type: "ReLU"
  bottom: "inception_4c/3x3_reduce"
  top: "inception_4c/3x3_reduce"
}
layer {
  name: "inception_4c/3x3"
  type: "Convolution"
  bottom: "inception_4c/3x3_reduce"
  top: "inception_4c/3x3"
  param {
    lr_mult: 1
    decay_mult: 1
  }
  param {
    lr_mult: 2
    decay_mult: 0
  }
  convolution_param {
    num_output: 256
    pad: 1
    kernel_size: 3
    weight_filler {
      type: "xavier"
      std: 0.03
    }
    bias_filler {
      type: "constant"
      value: 0.2
    }
  }
}
layer {
  name: "inception_4c/relu_3x3"
  type: "ReLU"
  bottom: "inception_4c/3x3"
  top: "inception_4c/3x3"
}
layer {
  name: "inception_4c/5x5_reduce"
  type: "Convolution"
  bottom: "inception_4b/output"
  top: "inception_4c/5x5_reduce"
  param {
    lr_mult: 1
    decay_mult: 1
  }
  param {
    lr_mult: 2
    decay_mult: 0
  }
  convolution_param {
    num_output: 24
    kernel_size: 1
    weight_filler {
      type: "xavier"
      std: 0.2
    }
    bias_filler {
      type: "constant"
      value: 0.2
    }
  }
}
layer {
  name: "inception_4c/relu_5x5_reduce"
  type: "ReLU"
  bottom: "inception_4c/5x5_reduce"
  top: "inception_4c/5x5_reduce"
}
layer {
  name: "inception_4c/5x5"
  type: "Convolution"
  bottom: "inception_4c/5x5_reduce"
  top: "inception_4c/5x5"
  param {
    lr_mult: 1
    decay_mult: 1
  }
  param {
    lr_mult: 2
    decay_mult: 0
  }
  convolution_param {
    num_output: 64
    pad: 2
    kernel_size: 5
    weight_filler {
      type: "xavier"
      std: 0.03
    }
    bias_filler {
      type: "constant"
      value: 0.2
    }
  }
}
layer {
  name: "inception_4c/relu_5x5"
  type: "ReLU"
  bottom: "inception_4c/5x5"
  top: "inception_4c/5x5"
}
layer {
  name: "inception_4c/pool"
  type: "Pooling"
  bottom: "inception_4b/output"
  top: "inception_4c/pool"
  pooling_param {
    pool: MAX
    kernel_size: 3
    stride: 1
    pad: 1
  }
}
layer {
  name: "inception_4c/pool_proj"
  type: "Convolution"
  bottom: "inception_4c/pool"
  top: "inception_4c/pool_proj"
  param {
    lr_mult: 1
    decay_mult: 1
  }
  param {
    lr_mult: 2
    decay_mult: 0
  }
  convolution_param {
    num_output: 64
    kernel_size: 1
    weight_filler {
      type: "xavier"
      std: 0.1
    }
    bias_filler {
      type: "constant"
      value: 0.2
    }
  }
}
layer {
  name: "inception_4c/relu_pool_proj"
  type: "ReLU"
  bottom: "inception_4c/pool_proj"
  top: "inception_4c/pool_proj"
}
layer {
  name: "inception_4c/output"
  type: "Concat"
  bottom: "inception_4c/1x1"
  bottom: "inception_4c/3x3"
  bottom: "inception_4c/5x5"
  bottom: "inception_4c/pool_proj"
  top: "inception_4c/output"
}
layer {
  name: "inception_4d/1x1"
  type: "Convolution"
  bottom: "inception_4c/output"
  top: "inception_4d/1x1"
  param {
    lr_mult: 1
    decay_mult: 1
  }
  param {
    lr_mult: 2
    decay_mult: 0
  }
  convolution_param {
    num_output: 112
    kernel_size: 1
    weight_filler {
      type: "xavier"
      std: 0.03
    }
    bias_filler {
      type: "constant"
      value: 0.2
    }
  }
}
layer {
  name: "inception_4d/relu_1x1"
  type: "ReLU"
  bottom: "inception_4d/1x1"
  top: "inception_4d/1x1"
}
layer {
  name: "inception_4d/3x3_reduce"
  type: "Convolution"
  bottom: "inception_4c/output"
  top: "inception_4d/3x3_reduce"
  param {
    lr_mult: 1
    decay_mult: 1
  }
  param {
    lr_mult: 2
    decay_mult: 0
  }
  convolution_param {
    num_output: 144
    kernel_size: 1
    weight_filler {
      type: "xavier"
      std: 0.09
    }
    bias_filler {
      type: "constant"
      value: 0.2
    }
  }
}
layer {
  name: "inception_4d/relu_3x3_reduce"
  type: "ReLU"
  bottom: "inception_4d/3x3_reduce"
  top: "inception_4d/3x3_reduce"
}
layer {
  name: "inception_4d/3x3"
  type: "Convolution"
  bottom: "inception_4d/3x3_reduce"
  top: "inception_4d/3x3"
  param {
    lr_mult: 1
    decay_mult: 1
  }
  param {
    lr_mult: 2
    decay_mult: 0
  }
  convolution_param {
    num_output: 288
    pad: 1
    kernel_size: 3
    weight_filler {
      type: "xavier"
      std: 0.03
    }
    bias_filler {
      type: "constant"
      value: 0.2
    }
  }
}
layer {
  name: "inception_4d/relu_3x3"
  type: "ReLU"
  bottom: "inception_4d/3x3"
  top: "inception_4d/3x3"
}
layer {
  name: "inception_4d/5x5_reduce"
  type: "Convolution"
  bottom: "inception_4c/output"
  top: "inception_4d/5x5_reduce"
  param {
    lr_mult: 1
    decay_mult: 1
  }
  param {
    lr_mult: 2
    decay_mult: 0
  }
  convolution_param {
    num_output: 32
    kernel_size: 1
    weight_filler {
      type: "xavier"
      std: 0.2
    }
    bias_filler {
      type: "constant"
      value: 0.2
    }
  }
}
layer {
  name: "inception_4d/relu_5x5_reduce"
  type: "ReLU"
  bottom: "inception_4d/5x5_reduce"
  top: "inception_4d/5x5_reduce"
}
layer {
  name: "inception_4d/5x5"
  type: "Convolution"
  bottom: "inception_4d/5x5_reduce"
  top: "inception_4d/5x5"
  param {
    lr_mult: 1
    decay_mult: 1
  }
  param {
    lr_mult: 2
    decay_mult: 0
  }
  convolution_param {
    num_output: 64
    pad: 2
    kernel_size: 5
    weight_filler {
      type: "xavier"
      std: 0.03
    }
    bias_filler {
      type: "constant"
      value: 0.2
    }
  }
}
layer {
  name: "inception_4d/relu_5x5"
  type: "ReLU"
  bottom: "inception_4d/5x5"
  top: "inception_4d/5x5"
}
layer {
  name: "inception_4d/pool"
  type: "Pooling"
  bottom: "inception_4c/output"
  top: "inception_4d/pool"
  pooling_param {
    pool: MAX
    kernel_size: 3
    stride: 1
    pad: 1
  }
}
layer {
  name: "inception_4d/pool_proj"
  type: "Convolution"
  bottom: "inception_4d/pool"
  top: "inception_4d/pool_proj"
  param {
    lr_mult: 1
    decay_mult: 1
  }
  param {
    lr_mult: 2
    decay_mult: 0
  }
  convolution_param {
    num_output: 64
    kernel_size: 1
    weight_filler {
      type: "xavier"
      std: 0.1
    }
    bias_filler {
      type: "constant"
      value: 0.2
    }
  }
}
layer {
  name: "inception_4d/relu_pool_proj"
  type: "ReLU"
  bottom: "inception_4d/pool_proj"
  top: "inception_4d/pool_proj"
}
layer {
  name: "inception_4d/output"
  type: "Concat"
  bottom: "inception_4d/1x1"
  bottom: "inception_4d/3x3"
  bottom: "inception_4d/5x5"
  bottom: "inception_4d/pool_proj"
  top: "inception_4d/output"
}
layer {
  name: "loss2/ave_pool"
  type: "Pooling"
  bottom: "inception_4d/output"
  top: "loss2/ave_pool"
  pooling_param {
    pool: AVE
    kernel_size: 5
    stride: 3
  }
}
layer {
  name: "loss2/conv"
  type: "Convolution"
  bottom: "loss2/ave_pool"
  top: "loss2/conv"
  param {
    lr_mult: 1
    decay_mult: 1
  }
  param {
    lr_mult: 2
    decay_mult: 0
  }
  convolution_param {
    num_output: 128
    kernel_size: 1
    weight_filler {
      type: "xavier"
      std: 0.08
    }
    bias_filler {
      type: "constant"
      value: 0.2
    }
  }
}
layer {
  name: "loss2/relu_conv"
  type: "ReLU"
  bottom: "loss2/conv"
  top: "loss2/conv"
}
layer {
  name: "loss2/fc"
  type: "InnerProduct"
  bottom: "loss2/conv"
  top: "loss2/fc"
  param {
    lr_mult: 1
    decay_mult: 1
  }
  param {
    lr_mult: 2
    decay_mult: 0
  }
  inner_product_param {
    num_output: 1024
    weight_filler {
      type: "xavier"
      std: 0.02
    }
    bias_filler {
      type: "constant"
      value: 0.2
    }
  }
}
layer {
  name: "loss2/relu_fc"
  type: "ReLU"
  bottom: "loss2/fc"
  top: "loss2/fc"
}
layer {
  name: "loss2/drop_fc"
  type: "Dropout"
  bottom: "loss2/fc"
  top: "loss2/fc"
  dropout_param {
    dropout_ratio: 0.7
  }
}
layer {
  name: "loss2/classifier_plantvillage"
  type: "InnerProduct"
  bottom: "loss2/fc"
  top: "loss2/classifier_plantvillage"
  param {
    lr_mult: 1
    decay_mult: 1
  }
  param {
    lr_mult: 2
    decay_mult: 0
  }
  inner_product_param {
    num_output: 38
    weight_filler {
      type: "xavier"
      std: 0.0009765625
    }
    bias_filler {
      type: "constant"
      value: 0
    }
  }
}
layer {
  name: "inception_4e/1x1"
  type: "Convolution"
  bottom: "inception_4d/output"
  top: "inception_4e/1x1"
  param {
    lr_mult: 1
    decay_mult: 1
  }
  param {
    lr_mult: 2
    decay_mult: 0
  }
  convolution_param {
    num_output: 256
    kernel_size: 1
    weight_filler {
      type: "xavier"
      std: 0.03
    }
    bias_filler {
      type: "constant"
      value: 0.2
    }
  }
}
layer {
  name: "inception_4e/relu_1x1"
  type: "ReLU"
  bottom: "inception_4e/1x1"
  top: "inception_4e/1x1"
}
layer {
  name: "inception_4e/3x3_reduce"
  type: "Convolution"
  bottom: "inception_4d/output"
  top: "inception_4e/3x3_reduce"
  param {
    lr_mult: 1
    decay_mult: 1
  }
  param {
    lr_mult: 2
    decay_mult: 0
  }
  convolution_param {
    num_output: 160
    kernel_size: 1
    weight_filler {
      type: "xavier"
      std: 0.09
    }
    bias_filler {
      type: "constant"
      value: 0.2
    }
  }
}
layer {
  name: "inception_4e/relu_3x3_reduce"
  type: "ReLU"
  bottom: "inception_4e/3x3_reduce"
  top: "inception_4e/3x3_reduce"
}
layer {
  name: "inception_4e/3x3"
  type: "Convolution"
  bottom: "inception_4e/3x3_reduce"
  top: "inception_4e/3x3"
  param {
    lr_mult: 1
    decay_mult: 1
  }
  param {
    lr_mult: 2
    decay_mult: 0
  }
  convolution_param {
    num_output: 320
    pad: 1
    kernel_size: 3
    weight_filler {
      type: "xavier"
      std: 0.03
    }
    bias_filler {
      type: "constant"
      value: 0.2
    }
  }
}
layer {
  name: "inception_4e/relu_3x3"
  type: "ReLU"
  bottom: "inception_4e/3x3"
  top: "inception_4e/3x3"
}
layer {
  name: "inception_4e/5x5_reduce"
  type: "Convolution"
  bottom: "inception_4d/output"
  top: "inception_4e/5x5_reduce"
  param {
    lr_mult: 1
    decay_mult: 1
  }
  param {
    lr_mult: 2
    decay_mult: 0
  }
  convolution_param {
    num_output: 32
    kernel_size: 1
    weight_filler {
      type: "xavier"
      std: 0.2
    }
    bias_filler {
      type: "constant"
      value: 0.2
    }
  }
}
layer {
  name: "inception_4e/relu_5x5_reduce"
  type: "ReLU"
  bottom: "inception_4e/5x5_reduce"
  top: "inception_4e/5x5_reduce"
}
layer {
  name: "inception_4e/5x5"
  type: "Convolution"
  bottom: "inception_4e/5x5_reduce"
  top: "inception_4e/5x5"
  p
I0403 14:36:43.830297 13452 layer_factory.hpp:77] Creating layer data
I0403 14:36:43.830873 13452 net.cpp:91] Creating Layer data
I0403 14:36:43.830904 13452 net.cpp:399] data -> data
I0403 14:36:43.830953 13452 net.cpp:399] data -> label
I0403 14:36:43.830987 13452 data_transformer.cpp:25] Loading mean file from: /home/mohanty/data/final_dataset/lmdb/color-40-60/mean.binaryproto
I0403 14:36:43.833861 13455 db_lmdb.cpp:38] Opened lmdb /home/mohanty/data/final_dataset/lmdb/color-40-60/test_db
I0403 14:36:43.844110 13452 data_layer.cpp:41] output data size: 24,3,224,224
I0403 14:36:43.871721 13452 net.cpp:141] Setting up data
I0403 14:36:43.871811 13452 net.cpp:148] Top shape: 24 3 224 224 (3612672)
I0403 14:36:43.871834 13452 net.cpp:148] Top shape: 24 (24)
I0403 14:36:43.871850 13452 net.cpp:156] Memory required for data: 14450784
I0403 14:36:43.871876 13452 layer_factory.hpp:77] Creating layer label_data_1_split
I0403 14:36:43.871902 13452 net.cpp:91] Creating Layer label_data_1_split
I0403 14:36:43.871920 13452 net.cpp:425] label_data_1_split <- label
I0403 14:36:43.871953 13452 net.cpp:399] label_data_1_split -> label_data_1_split_0
I0403 14:36:43.871979 13452 net.cpp:399] label_data_1_split -> label_data_1_split_1
I0403 14:36:43.872000 13452 net.cpp:399] label_data_1_split -> label_data_1_split_2
I0403 14:36:43.872021 13452 net.cpp:399] label_data_1_split -> label_data_1_split_3
I0403 14:36:43.872040 13452 net.cpp:399] label_data_1_split -> label_data_1_split_4
I0403 14:36:43.872061 13452 net.cpp:399] label_data_1_split -> label_data_1_split_5
I0403 14:36:43.872078 13452 net.cpp:399] label_data_1_split -> label_data_1_split_6
I0403 14:36:43.872098 13452 net.cpp:399] label_data_1_split -> label_data_1_split_7
I0403 14:36:43.872117 13452 net.cpp:399] label_data_1_split -> label_data_1_split_8
I0403 14:36:43.872138 13452 net.cpp:399] label_data_1_split -> label_data_1_split_9
I0403 14:36:43.872257 13452 net.cpp:141] Setting up label_data_1_split
I0403 14:36:43.872280 13452 net.cpp:148] Top shape: 24 (24)
I0403 14:36:43.872297 13452 net.cpp:148] Top shape: 24 (24)
I0403 14:36:43.872313 13452 net.cpp:148] Top shape: 24 (24)
I0403 14:36:43.872328 13452 net.cpp:148] Top shape: 24 (24)
I0403 14:36:43.872344 13452 net.cpp:148] Top shape: 24 (24)
I0403 14:36:43.872359 13452 net.cpp:148] Top shape: 24 (24)
I0403 14:36:43.872375 13452 net.cpp:148] Top shape: 24 (24)
I0403 14:36:43.872390 13452 net.cpp:148] Top shape: 24 (24)
I0403 14:36:43.872406 13452 net.cpp:148] Top shape: 24 (24)
I0403 14:36:43.872421 13452 net.cpp:148] Top shape: 24 (24)
I0403 14:36:43.872468 13452 net.cpp:156] Memory required for data: 14451744
I0403 14:36:43.872484 13452 layer_factory.hpp:77] Creating layer conv1/7x7_s2
I0403 14:36:43.872515 13452 net.cpp:91] Creating Layer conv1/7x7_s2
I0403 14:36:43.872534 13452 net.cpp:425] conv1/7x7_s2 <- data
I0403 14:36:43.872552 13452 net.cpp:399] conv1/7x7_s2 -> conv1/7x7_s2
I0403 14:36:44.010747 13452 net.cpp:141] Setting up conv1/7x7_s2
I0403 14:36:44.010825 13452 net.cpp:148] Top shape: 24 64 112 112 (19267584)
I0403 14:36:44.010843 13452 net.cpp:156] Memory required for data: 91522080
I0403 14:36:44.010874 13452 layer_factory.hpp:77] Creating layer conv1/relu_7x7
I0403 14:36:44.010902 13452 net.cpp:91] Creating Layer conv1/relu_7x7
I0403 14:36:44.010921 13452 net.cpp:425] conv1/relu_7x7 <- conv1/7x7_s2
I0403 14:36:44.010939 13452 net.cpp:386] conv1/relu_7x7 -> conv1/7x7_s2 (in-place)
I0403 14:36:44.011198 13452 net.cpp:141] Setting up conv1/relu_7x7
I0403 14:36:44.011225 13452 net.cpp:148] Top shape: 24 64 112 112 (19267584)
I0403 14:36:44.011242 13452 net.cpp:156] Memory required for data: 168592416
I0403 14:36:44.011257 13452 layer_factory.hpp:77] Creating layer pool1/3x3_s2
I0403 14:36:44.011283 13452 net.cpp:91] Creating Layer pool1/3x3_s2
I0403 14:36:44.011301 13452 net.cpp:425] pool1/3x3_s2 <- conv1/7x7_s2
I0403 14:36:44.011319 13452 net.cpp:399] pool1/3x3_s2 -> pool1/3x3_s2
I0403 14:36:44.011431 13452 net.cpp:141] Setting up pool1/3x3_s2
I0403 14:36:44.011456 13452 net.cpp:148] Top shape: 24 64 56 56 (4816896)
I0403 14:36:44.011471 13452 net.cpp:156] Memory required for data: 187860000
I0403 14:36:44.011487 13452 layer_factory.hpp:77] Creating layer pool1/norm1
I0403 14:36:44.011510 13452 net.cpp:91] Creating Layer pool1/norm1
I0403 14:36:44.011528 13452 net.cpp:425] pool1/norm1 <- pool1/3x3_s2
I0403 14:36:44.011545 13452 net.cpp:399] pool1/norm1 -> pool1/norm1
I0403 14:36:44.011847 13452 net.cpp:141] Setting up pool1/norm1
I0403 14:36:44.011874 13452 net.cpp:148] Top shape: 24 64 56 56 (4816896)
I0403 14:36:44.011891 13452 net.cpp:156] Memory required for data: 207127584
I0403 14:36:44.011906 13452 layer_factory.hpp:77] Creating layer conv2/3x3_reduce
I0403 14:36:44.011930 13452 net.cpp:91] Creating Layer conv2/3x3_reduce
I0403 14:36:44.011946 13452 net.cpp:425] conv2/3x3_reduce <- pool1/norm1
I0403 14:36:44.011965 13452 net.cpp:399] conv2/3x3_reduce -> conv2/3x3_reduce
I0403 14:36:44.013324 13452 net.cpp:141] Setting up conv2/3x3_reduce
I0403 14:36:44.013353 13452 net.cpp:148] Top shape: 24 64 56 56 (4816896)
I0403 14:36:44.013370 13452 net.cpp:156] Memory required for data: 226395168
I0403 14:36:44.013391 13452 layer_factory.hpp:77] Creating layer conv2/relu_3x3_reduce
I0403 14:36:44.013408 13452 net.cpp:91] Creating Layer conv2/relu_3x3_reduce
I0403 14:36:44.013424 13452 net.cpp:425] conv2/relu_3x3_reduce <- conv2/3x3_reduce
I0403 14:36:44.013440 13452 net.cpp:386] conv2/relu_3x3_reduce -> conv2/3x3_reduce (in-place)
I0403 14:36:44.013690 13452 net.cpp:141] Setting up conv2/relu_3x3_reduce
I0403 14:36:44.013715 13452 net.cpp:148] Top shape: 24 64 56 56 (4816896)
I0403 14:36:44.013731 13452 net.cpp:156] Memory required for data: 245662752
I0403 14:36:44.013746 13452 layer_factory.hpp:77] Creating layer conv2/3x3
I0403 14:36:44.013767 13452 net.cpp:91] Creating Layer conv2/3x3
I0403 14:36:44.013783 13452 net.cpp:425] conv2/3x3 <- conv2/3x3_reduce
I0403 14:36:44.013800 13452 net.cpp:399] conv2/3x3 -> conv2/3x3
I0403 14:36:44.016033 13452 net.cpp:141] Setting up conv2/3x3
I0403 14:36:44.016063 13452 net.cpp:148] Top shape: 24 192 56 56 (14450688)
I0403 14:36:44.016079 13452 net.cpp:156] Memory required for data: 303465504
I0403 14:36:44.016099 13452 layer_factory.hpp:77] Creating layer conv2/relu_3x3
I0403 14:36:44.016119 13452 net.cpp:91] Creating Layer conv2/relu_3x3
I0403 14:36:44.016134 13452 net.cpp:425] conv2/relu_3x3 <- conv2/3x3
I0403 14:36:44.016150 13452 net.cpp:386] conv2/relu_3x3 -> conv2/3x3 (in-place)
I0403 14:36:44.016305 13452 net.cpp:141] Setting up conv2/relu_3x3
I0403 14:36:44.016330 13452 net.cpp:148] Top shape: 24 192 56 56 (14450688)
I0403 14:36:44.016379 13452 net.cpp:156] Memory required for data: 361268256
I0403 14:36:44.016396 13452 layer_factory.hpp:77] Creating layer conv2/norm2
I0403 14:36:44.016412 13452 net.cpp:91] Creating Layer conv2/norm2
I0403 14:36:44.016428 13452 net.cpp:425] conv2/norm2 <- conv2/3x3
I0403 14:36:44.016445 13452 net.cpp:399] conv2/norm2 -> conv2/norm2
I0403 14:36:44.016752 13452 net.cpp:141] Setting up conv2/norm2
I0403 14:36:44.016778 13452 net.cpp:148] Top shape: 24 192 56 56 (14450688)
I0403 14:36:44.016794 13452 net.cpp:156] Memory required for data: 419071008
I0403 14:36:44.016808 13452 layer_factory.hpp:77] Creating layer pool2/3x3_s2
I0403 14:36:44.016825 13452 net.cpp:91] Creating Layer pool2/3x3_s2
I0403 14:36:44.016841 13452 net.cpp:425] pool2/3x3_s2 <- conv2/norm2
I0403 14:36:44.016858 13452 net.cpp:399] pool2/3x3_s2 -> pool2/3x3_s2
I0403 14:36:44.016906 13452 net.cpp:141] Setting up pool2/3x3_s2
I0403 14:36:44.016928 13452 net.cpp:148] Top shape: 24 192 28 28 (3612672)
I0403 14:36:44.016942 13452 net.cpp:156] Memory required for data: 433521696
I0403 14:36:44.016957 13452 layer_factory.hpp:77] Creating layer pool2/3x3_s2_pool2/3x3_s2_0_split
I0403 14:36:44.016973 13452 net.cpp:91] Creating Layer pool2/3x3_s2_pool2/3x3_s2_0_split
I0403 14:36:44.016988 13452 net.cpp:425] pool2/3x3_s2_pool2/3x3_s2_0_split <- pool2/3x3_s2
I0403 14:36:44.017005 13452 net.cpp:399] pool2/3x3_s2_pool2/3x3_s2_0_split -> pool2/3x3_s2_pool2/3x3_s2_0_split_0
I0403 14:36:44.017024 13452 net.cpp:399] pool2/3x3_s2_pool2/3x3_s2_0_split -> pool2/3x3_s2_pool2/3x3_s2_0_split_1
I0403 14:36:44.017042 13452 net.cpp:399] pool2/3x3_s2_pool2/3x3_s2_0_split -> pool2/3x3_s2_pool2/3x3_s2_0_split_2
I0403 14:36:44.017061 13452 net.cpp:399] pool2/3x3_s2_pool2/3x3_s2_0_split -> pool2/3x3_s2_pool2/3x3_s2_0_split_3
I0403 14:36:44.017124 13452 net.cpp:141] Setting up pool2/3x3_s2_pool2/3x3_s2_0_split
I0403 14:36:44.017145 13452 net.cpp:148] Top shape: 24 192 28 28 (3612672)
I0403 14:36:44.017161 13452 net.cpp:148] Top shape: 24 192 28 28 (3612672)
I0403 14:36:44.017177 13452 net.cpp:148] Top shape: 24 192 28 28 (3612672)
I0403 14:36:44.017192 13452 net.cpp:148] Top shape: 24 192 28 28 (3612672)
I0403 14:36:44.017206 13452 net.cpp:156] Memory required for data: 491324448
I0403 14:36:44.017220 13452 layer_factory.hpp:77] Creating layer inception_3a/1x1
I0403 14:36:44.017240 13452 net.cpp:91] Creating Layer inception_3a/1x1
I0403 14:36:44.017256 13452 net.cpp:425] inception_3a/1x1 <- pool2/3x3_s2_pool2/3x3_s2_0_split_0
I0403 14:36:44.017273 13452 net.cpp:399] inception_3a/1x1 -> inception_3a/1x1
I0403 14:36:44.018729 13452 net.cpp:141] Setting up inception_3a/1x1
I0403 14:36:44.018759 13452 net.cpp:148] Top shape: 24 64 28 28 (1204224)
I0403 14:36:44.018775 13452 net.cpp:156] Memory required for data: 496141344
I0403 14:36:44.018793 13452 layer_factory.hpp:77] Creating layer inception_3a/relu_1x1
I0403 14:36:44.018810 13452 net.cpp:91] Creating Layer inception_3a/relu_1x1
I0403 14:36:44.018826 13452 net.cpp:425] inception_3a/relu_1x1 <- inception_3a/1x1
I0403 14:36:44.018841 13452 net.cpp:386] inception_3a/relu_1x1 -> inception_3a/1x1 (in-place)
I0403 14:36:44.019011 13452 net.cpp:141] Setting up inception_3a/relu_1x1
I0403 14:36:44.019037 13452 net.cpp:148] Top shape: 24 64 28 28 (1204224)
I0403 14:36:44.019050 13452 net.cpp:156] Memory required for data: 500958240
I0403 14:36:44.019065 13452 layer_factory.hpp:77] Creating layer inception_3a/3x3_reduce
I0403 14:36:44.019086 13452 net.cpp:91] Creating Layer inception_3a/3x3_reduce
I0403 14:36:44.019104 13452 net.cpp:425] inception_3a/3x3_reduce <- pool2/3x3_s2_pool2/3x3_s2_0_split_1
I0403 14:36:44.019124 13452 net.cpp:399] inception_3a/3x3_reduce -> inception_3a/3x3_reduce
I0403 14:36:44.020846 13452 net.cpp:141] Setting up inception_3a/3x3_reduce
I0403 14:36:44.020877 13452 net.cpp:148] Top shape: 24 96 28 28 (1806336)
I0403 14:36:44.020895 13452 net.cpp:156] Memory required for data: 508183584
I0403 14:36:44.020915 13452 layer_factory.hpp:77] Creating layer inception_3a/relu_3x3_reduce
I0403 14:36:44.020953 13452 net.cpp:91] Creating Layer inception_3a/relu_3x3_reduce
I0403 14:36:44.020970 13452 net.cpp:425] inception_3a/relu_3x3_reduce <- inception_3a/3x3_reduce
I0403 14:36:44.020987 13452 net.cpp:386] inception_3a/relu_3x3_reduce -> inception_3a/3x3_reduce (in-place)
I0403 14:36:44.021167 13452 net.cpp:141] Setting up inception_3a/relu_3x3_reduce
I0403 14:36:44.021191 13452 net.cpp:148] Top shape: 24 96 28 28 (1806336)
I0403 14:36:44.021206 13452 net.cpp:156] Memory required for data: 515408928
I0403 14:36:44.021220 13452 layer_factory.hpp:77] Creating layer inception_3a/3x3
I0403 14:36:44.021244 13452 net.cpp:91] Creating Layer inception_3a/3x3
I0403 14:36:44.021262 13452 net.cpp:425] inception_3a/3x3 <- inception_3a/3x3_reduce
I0403 14:36:44.021280 13452 net.cpp:399] inception_3a/3x3 -> inception_3a/3x3
I0403 14:36:44.022919 13452 net.cpp:141] Setting up inception_3a/3x3
I0403 14:36:44.022948 13452 net.cpp:148] Top shape: 24 128 28 28 (2408448)
I0403 14:36:44.022964 13452 net.cpp:156] Memory required for data: 525042720
I0403 14:36:44.022981 13452 layer_factory.hpp:77] Creating layer inception_3a/relu_3x3
I0403 14:36:44.022999 13452 net.cpp:91] Creating Layer inception_3a/relu_3x3
I0403 14:36:44.023015 13452 net.cpp:425] inception_3a/relu_3x3 <- inception_3a/3x3
I0403 14:36:44.023033 13452 net.cpp:386] inception_3a/relu_3x3 -> inception_3a/3x3 (in-place)
I0403 14:36:44.023310 13452 net.cpp:141] Setting up inception_3a/relu_3x3
I0403 14:36:44.023337 13452 net.cpp:148] Top shape: 24 128 28 28 (2408448)
I0403 14:36:44.023351 13452 net.cpp:156] Memory required for data: 534676512
I0403 14:36:44.023365 13452 layer_factory.hpp:77] Creating layer inception_3a/5x5_reduce
I0403 14:36:44.023387 13452 net.cpp:91] Creating Layer inception_3a/5x5_reduce
I0403 14:36:44.023404 13452 net.cpp:425] inception_3a/5x5_reduce <- pool2/3x3_s2_pool2/3x3_s2_0_split_2
I0403 14:36:44.023425 13452 net.cpp:399] inception_3a/5x5_reduce -> inception_3a/5x5_reduce
I0403 14:36:44.024384 13452 net.cpp:141] Setting up inception_3a/5x5_reduce
I0403 14:36:44.024410 13452 net.cpp:148] Top shape: 24 16 28 28 (301056)
I0403 14:36:44.024425 13452 net.cpp:156] Memory required for data: 535880736
I0403 14:36:44.024443 13452 layer_factory.hpp:77] Creating layer inception_3a/relu_5x5_reduce
I0403 14:36:44.024461 13452 net.cpp:91] Creating Layer inception_3a/relu_5x5_reduce
I0403 14:36:44.024477 13452 net.cpp:425] inception_3a/relu_5x5_reduce <- inception_3a/5x5_reduce
I0403 14:36:44.024497 13452 net.cpp:386] inception_3a/relu_5x5_reduce -> inception_3a/5x5_reduce (in-place)
I0403 14:36:44.024803 13452 net.cpp:141] Setting up inception_3a/relu_5x5_reduce
I0403 14:36:44.024829 13452 net.cpp:148] Top shape: 24 16 28 28 (301056)
I0403 14:36:44.024844 13452 net.cpp:156] Memory required for data: 537084960
I0403 14:36:44.024860 13452 layer_factory.hpp:77] Creating layer inception_3a/5x5
I0403 14:36:44.024881 13452 net.cpp:91] Creating Layer inception_3a/5x5
I0403 14:36:44.024899 13452 net.cpp:425] inception_3a/5x5 <- inception_3a/5x5_reduce
I0403 14:36:44.024919 13452 net.cpp:399] inception_3a/5x5 -> inception_3a/5x5
I0403 14:36:44.025919 13452 net.cpp:141] Setting up inception_3a/5x5
I0403 14:36:44.025949 13452 net.cpp:148] Top shape: 24 32 28 28 (602112)
I0403 14:36:44.025966 13452 net.cpp:156] Memory required for data: 539493408
I0403 14:36:44.025985 13452 layer_factory.hpp:77] Creating layer inception_3a/relu_5x5
I0403 14:36:44.026002 13452 net.cpp:91] Creating Layer inception_3a/relu_5x5
I0403 14:36:44.026018 13452 net.cpp:425] inception_3a/relu_5x5 <- inception_3a/5x5
I0403 14:36:44.026037 13452 net.cpp:386] inception_3a/relu_5x5 -> inception_3a/5x5 (in-place)
I0403 14:36:44.026208 13452 net.cpp:141] Setting up inception_3a/relu_5x5
I0403 14:36:44.026232 13452 net.cpp:148] Top shape: 24 32 28 28 (602112)
I0403 14:36:44.026247 13452 net.cpp:156] Memory required for data: 541901856
I0403 14:36:44.026263 13452 layer_factory.hpp:77] Creating layer inception_3a/pool
I0403 14:36:44.026280 13452 net.cpp:91] Creating Layer inception_3a/pool
I0403 14:36:44.026301 13452 net.cpp:425] inception_3a/pool <- pool2/3x3_s2_pool2/3x3_s2_0_split_3
I0403 14:36:44.026335 13452 net.cpp:399] inception_3a/pool -> inception_3a/pool
I0403 14:36:44.026391 13452 net.cpp:141] Setting up inception_3a/pool
I0403 14:36:44.026414 13452 net.cpp:148] Top shape: 24 192 28 28 (3612672)
I0403 14:36:44.026428 13452 net.cpp:156] Memory required for data: 556352544
I0403 14:36:44.026443 13452 layer_factory.hpp:77] Creating layer inception_3a/pool_proj
I0403 14:36:44.026464 13452 net.cpp:91] Creating Layer inception_3a/pool_proj
I0403 14:36:44.026481 13452 net.cpp:425] inception_3a/pool_proj <- inception_3a/pool
I0403 14:36:44.026502 13452 net.cpp:399] inception_3a/pool_proj -> inception_3a/pool_proj
I0403 14:36:44.027456 13452 net.cpp:141] Setting up inception_3a/pool_proj
I0403 14:36:44.027483 13452 net.cpp:148] Top shape: 24 32 28 28 (602112)
I0403 14:36:44.027499 13452 net.cpp:156] Memory required for data: 558760992
I0403 14:36:44.027523 13452 layer_factory.hpp:77] Creating layer inception_3a/relu_pool_proj
I0403 14:36:44.027541 13452 net.cpp:91] Creating Layer inception_3a/relu_pool_proj
I0403 14:36:44.027557 13452 net.cpp:425] inception_3a/relu_pool_proj <- inception_3a/pool_proj
I0403 14:36:44.027581 13452 net.cpp:386] inception_3a/relu_pool_proj -> inception_3a/pool_proj (in-place)
I0403 14:36:44.027858 13452 net.cpp:141] Setting up inception_3a/relu_pool_proj
I0403 14:36:44.027884 13452 net.cpp:148] Top shape: 24 32 28 28 (602112)
I0403 14:36:44.027899 13452 net.cpp:156] Memory required for data: 561169440
I0403 14:36:44.027912 13452 layer_factory.hpp:77] Creating layer inception_3a/output
I0403 14:36:44.027930 13452 net.cpp:91] Creating Layer inception_3a/output
I0403 14:36:44.027945 13452 net.cpp:425] inception_3a/output <- inception_3a/1x1
I0403 14:36:44.027961 13452 net.cpp:425] inception_3a/output <- inception_3a/3x3
I0403 14:36:44.027976 13452 net.cpp:425] inception_3a/output <- inception_3a/5x5
I0403 14:36:44.027992 13452 net.cpp:425] inception_3a/output <- inception_3a/pool_proj
I0403 14:36:44.028009 13452 net.cpp:399] inception_3a/output -> inception_3a/output
I0403 14:36:44.028054 13452 net.cpp:141] Setting up inception_3a/output
I0403 14:36:44.028080 13452 net.cpp:148] Top shape: 24 256 28 28 (4816896)
I0403 14:36:44.028095 13452 net.cpp:156] Memory required for data: 580437024
I0403 14:36:44.028110 13452 layer_factory.hpp:77] Creating layer inception_3a/output_inception_3a/output_0_split
I0403 14:36:44.028126 13452 net.cpp:91] Creating Layer inception_3a/output_inception_3a/output_0_split
I0403 14:36:44.028141 13452 net.cpp:425] inception_3a/output_inception_3a/output_0_split <- inception_3a/output
I0403 14:36:44.028158 13452 net.cpp:399] inception_3a/output_inception_3a/output_0_split -> inception_3a/output_inception_3a/output_0_split_0
I0403 14:36:44.028177 13452 net.cpp:399] inception_3a/output_inception_3a/output_0_split -> inception_3a/output_inception_3a/output_0_split_1
I0403 14:36:44.028200 13452 net.cpp:399] inception_3a/output_inception_3a/output_0_split -> inception_3a/output_inception_3a/output_0_split_2
I0403 14:36:44.028221 13452 net.cpp:399] inception_3a/output_inception_3a/output_0_split -> inception_3a/output_inception_3a/output_0_split_3
I0403 14:36:44.028296 13452 net.cpp:141] Setting up inception_3a/output_inception_3a/output_0_split
I0403 14:36:44.028321 13452 net.cpp:148] Top shape: 24 256 28 28 (4816896)
I0403 14:36:44.028338 13452 net.cpp:148] Top shape: 24 256 28 28 (4816896)
I0403 14:36:44.028354 13452 net.cpp:148] Top shape: 24 256 28 28 (4816896)
I0403 14:36:44.028369 13452 net.cpp:148] Top shape: 24 256 28 28 (4816896)
I0403 14:36:44.028383 13452 net.cpp:156] Memory required for data: 657507360
I0403 14:36:44.028396 13452 layer_factory.hpp:77] Creating layer inception_3b/1x1
I0403 14:36:44.028419 13452 net.cpp:91] Creating Layer inception_3b/1x1
I0403 14:36:44.028434 13452 net.cpp:425] inception_3b/1x1 <- inception_3a/output_inception_3a/output_0_split_0
I0403 14:36:44.028453 13452 net.cpp:399] inception_3b/1x1 -> inception_3b/1x1
I0403 14:36:44.029582 13452 net.cpp:141] Setting up inception_3b/1x1
I0403 14:36:44.029619 13452 net.cpp:148] Top shape: 24 128 28 28 (2408448)
I0403 14:36:44.029636 13452 net.cpp:156] Memory required for data: 667141152
I0403 14:36:44.029654 13452 layer_factory.hpp:77] Creating layer inception_3b/relu_1x1
I0403 14:36:44.029673 13452 net.cpp:91] Creating Layer inception_3b/relu_1x1
I0403 14:36:44.029690 13452 net.cpp:425] inception_3b/relu_1x1 <- inception_3b/1x1
I0403 14:36:44.029706 13452 net.cpp:386] inception_3b/relu_1x1 -> inception_3b/1x1 (in-place)
I0403 14:36:44.029882 13452 net.cpp:141] Setting up inception_3b/relu_1x1
I0403 14:36:44.029907 13452 net.cpp:148] Top shape: 24 128 28 28 (2408448)
I0403 14:36:44.029922 13452 net.cpp:156] Memory required for data: 676774944
I0403 14:36:44.029935 13452 layer_factory.hpp:77] Creating layer inception_3b/3x3_reduce
I0403 14:36:44.029958 13452 net.cpp:91] Creating Layer inception_3b/3x3_reduce
I0403 14:36:44.029976 13452 net.cpp:425] inception_3b/3x3_reduce <- inception_3a/output_inception_3a/output_0_split_1
I0403 14:36:44.029997 13452 net.cpp:399] inception_3b/3x3_reduce -> inception_3b/3x3_reduce
I0403 14:36:44.031149 13452 net.cpp:141] Setting up inception_3b/3x3_reduce
I0403 14:36:44.031182 13452 net.cpp:148] Top shape: 24 128 28 28 (2408448)
I0403 14:36:44.031198 13452 net.cpp:156] Memory required for data: 686408736
I0403 14:36:44.031216 13452 layer_factory.hpp:77] Creating layer inception_3b/relu_3x3_reduce
I0403 14:36:44.031235 13452 net.cpp:91] Creating Layer inception_3b/relu_3x3_reduce
I0403 14:36:44.031251 13452 net.cpp:425] inception_3b/relu_3x3_reduce <- inception_3b/3x3_reduce
I0403 14:36:44.031270 13452 net.cpp:386] inception_3b/relu_3x3_reduce -> inception_3b/3x3_reduce (in-place)
I0403 14:36:44.031445 13452 net.cpp:141] Setting up inception_3b/relu_3x3_reduce
I0403 14:36:44.031471 13452 net.cpp:148] Top shape: 24 128 28 28 (2408448)
I0403 14:36:44.031486 13452 net.cpp:156] Memory required for data: 696042528
I0403 14:36:44.031500 13452 layer_factory.hpp:77] Creating layer inception_3b/3x3
I0403 14:36:44.031533 13452 net.cpp:91] Creating Layer inception_3b/3x3
I0403 14:36:44.031549 13452 net.cpp:425] inception_3b/3x3 <- inception_3b/3x3_reduce
I0403 14:36:44.031575 13452 net.cpp:399] inception_3b/3x3 -> inception_3b/3x3
I0403 14:36:44.034554 13452 net.cpp:141] Setting up inception_3b/3x3
I0403 14:36:44.034595 13452 net.cpp:148] Top shape: 24 192 28 28 (3612672)
I0403 14:36:44.034613 13452 net.cpp:156] Memory required for data: 710493216
I0403 14:36:44.034631 13452 layer_factory.hpp:77] Creating layer inception_3b/relu_3x3
I0403 14:36:44.034651 13452 net.cpp:91] Creating Layer inception_3b/relu_3x3
I0403 14:36:44.034667 13452 net.cpp:425] inception_3b/relu_3x3 <- inception_3b/3x3
I0403 14:36:44.034685 13452 net.cpp:386] inception_3b/relu_3x3 -> inception_3b/3x3 (in-place)
I0403 14:36:44.034970 13452 net.cpp:141] Setting up inception_3b/relu_3x3
I0403 14:36:44.034996 13452 net.cpp:148] Top shape: 24 192 28 28 (3612672)
I0403 14:36:44.035012 13452 net.cpp:156] Memory required for data: 724943904
I0403 14:36:44.035025 13452 layer_factory.hpp:77] Creating layer inception_3b/5x5_reduce
I0403 14:36:44.035048 13452 net.cpp:91] Creating Layer inception_3b/5x5_reduce
I0403 14:36:44.035066 13452 net.cpp:425] inception_3b/5x5_reduce <- inception_3a/output_inception_3a/output_0_split_2
I0403 14:36:44.035089 13452 net.cpp:399] inception_3b/5x5_reduce -> inception_3b/5x5_reduce
I0403 14:36:44.036118 13452 net.cpp:141] Setting up inception_3b/5x5_reduce
I0403 14:36:44.036145 13452 net.cpp:148] Top shape: 24 32 28 28 (602112)
I0403 14:36:44.036162 13452 net.cpp:156] Memory required for data: 727352352
I0403 14:36:44.036180 13452 layer_factory.hpp:77] Creating layer inception_3b/relu_5x5_reduce
I0403 14:36:44.036198 13452 net.cpp:91] Creating Layer inception_3b/relu_5x5_reduce
I0403 14:36:44.036214 13452 net.cpp:425] inception_3b/relu_5x5_reduce <- inception_3b/5x5_reduce
I0403 14:36:44.036234 13452 net.cpp:386] inception_3b/relu_5x5_reduce -> inception_3b/5x5_reduce (in-place)
I0403 14:36:44.036412 13452 net.cpp:141] Setting up inception_3b/relu_5x5_reduce
I0403 14:36:44.036450 13452 net.cpp:148] Top shape: 24 32 28 28 (602112)
I0403 14:36:44.036465 13452 net.cpp:156] Memory required for data: 729760800
I0403 14:36:44.036480 13452 layer_factory.hpp:77] Creating layer inception_3b/5x5
I0403 14:36:44.036504 13452 net.cpp:91] Creating Layer inception_3b/5x5
I0403 14:36:44.036521 13452 net.cpp:425] inception_3b/5x5 <- inception_3b/5x5_reduce
I0403 14:36:44.036542 13452 net.cpp:399] inception_3b/5x5 -> inception_3b/5x5
I0403 14:36:44.038558 13452 net.cpp:141] Setting up inception_3b/5x5
I0403 14:36:44.038594 13452 net.cpp:148] Top shape: 24 96 28 28 (1806336)
I0403 14:36:44.038611 13452 net.cpp:156] Memory required for data: 736986144
I0403 14:36:44.038630 13452 layer_factory.hpp:77] Creating layer inception_3b/relu_5x5
I0403 14:36:44.038648 13452 net.cpp:91] Creating Layer inception_3b/relu_5x5
I0403 14:36:44.038666 13452 net.cpp:425] inception_3b/relu_5x5 <- inception_3b/5x5
I0403 14:36:44.038682 13452 net.cpp:386] inception_3b/relu_5x5 -> inception_3b/5x5 (in-place)
I0403 14:36:44.038875 13452 net.cpp:141] Setting up inception_3b/relu_5x5
I0403 14:36:44.038902 13452 net.cpp:148] Top shape: 24 96 28 28 (1806336)
I0403 14:36:44.038916 13452 net.cpp:156] Memory required for data: 744211488
I0403 14:36:44.038931 13452 layer_factory.hpp:77] Creating layer inception_3b/pool
I0403 14:36:44.038949 13452 net.cpp:91] Creating Layer inception_3b/pool
I0403 14:36:44.038964 13452 net.cpp:425] inception_3b/pool <- inception_3a/output_inception_3a/output_0_split_3
I0403 14:36:44.038982 13452 net.cpp:399] inception_3b/pool -> inception_3b/pool
I0403 14:36:44.039038 13452 net.cpp:141] Setting up inception_3b/pool
I0403 14:36:44.039065 13452 net.cpp:148] Top shape: 24 256 28 28 (4816896)
I0403 14:36:44.039082 13452 net.cpp:156] Memory required for data: 763479072
I0403 14:36:44.039096 13452 layer_factory.hpp:77] Creating layer inception_3b/pool_proj
I0403 14:36:44.039119 13452 net.cpp:91] Creating Layer inception_3b/pool_proj
I0403 14:36:44.039136 13452 net.cpp:425] inception_3b/pool_proj <- inception_3b/pool
I0403 14:36:44.039155 13452 net.cpp:399] inception_3b/pool_proj -> inception_3b/pool_proj
I0403 14:36:44.040249 13452 net.cpp:141] Setting up inception_3b/pool_proj
I0403 14:36:44.040278 13452 net.cpp:148] Top shape: 24 64 28 28 (1204224)
I0403 14:36:44.040293 13452 net.cpp:156] Memory required for data: 768295968
I0403 14:36:44.040312 13452 layer_factory.hpp:77] Creating layer inception_3b/relu_pool_proj
I0403 14:36:44.040333 13452 net.cpp:91] Creating Layer inception_3b/relu_pool_proj
I0403 14:36:44.040350 13452 net.cpp:425] inception_3b/relu_pool_proj <- inception_3b/pool_proj
I0403 14:36:44.040367 13452 net.cpp:386] inception_3b/relu_pool_proj -> inception_3b/pool_proj (in-place)
I0403 14:36:44.040781 13452 net.cpp:141] Setting up inception_3b/relu_pool_proj
I0403 14:36:44.040808 13452 net.cpp:148] Top shape: 24 64 28 28 (1204224)
I0403 14:36:44.040823 13452 net.cpp:156] Memory required for data: 773112864
I0403 14:36:44.040839 13452 layer_factory.hpp:77] Creating layer inception_3b/output
I0403 14:36:44.040856 13452 net.cpp:91] Creating Layer inception_3b/output
I0403 14:36:44.040871 13452 net.cpp:425] inception_3b/output <- inception_3b/1x1
I0403 14:36:44.040889 13452 net.cpp:425] inception_3b/output <- inception_3b/3x3
I0403 14:36:44.040904 13452 net.cpp:425] inception_3b/output <- inception_3b/5x5
I0403 14:36:44.040920 13452 net.cpp:425] inception_3b/output <- inception_3b/pool_proj
I0403 14:36:44.040938 13452 net.cpp:399] inception_3b/output -> inception_3b/output
I0403 14:36:44.040982 13452 net.cpp:141] Setting up inception_3b/output
I0403 14:36:44.041009 13452 net.cpp:148] Top shape: 24 480 28 28 (9031680)
I0403 14:36:44.041024 13452 net.cpp:156] Memory required for data: 809239584
I0403 14:36:44.041040 13452 layer_factory.hpp:77] Creating layer pool3/3x3_s2
I0403 14:36:44.041057 13452 net.cpp:91] Creating Layer pool3/3x3_s2
I0403 14:36:44.041074 13452 net.cpp:425] pool3/3x3_s2 <- inception_3b/output
I0403 14:36:44.041093 13452 net.cpp:399] pool3/3x3_s2 -> pool3/3x3_s2
I0403 14:36:44.041167 13452 net.cpp:141] Setting up pool3/3x3_s2
I0403 14:36:44.041190 13452 net.cpp:148] Top shape: 24 480 14 14 (2257920)
I0403 14:36:44.041205 13452 net.cpp:156] Memory required for data: 818271264
I0403 14:36:44.041220 13452 layer_factory.hpp:77] Creating layer pool3/3x3_s2_pool3/3x3_s2_0_split
I0403 14:36:44.041240 13452 net.cpp:91] Creating Layer pool3/3x3_s2_pool3/3x3_s2_0_split
I0403 14:36:44.041256 13452 net.cpp:425] pool3/3x3_s2_pool3/3x3_s2_0_split <- pool3/3x3_s2
I0403 14:36:44.041273 13452 net.cpp:399] pool3/3x3_s2_pool3/3x3_s2_0_split -> pool3/3x3_s2_pool3/3x3_s2_0_split_0
I0403 14:36:44.041292 13452 net.cpp:399] pool3/3x3_s2_pool3/3x3_s2_0_split -> pool3/3x3_s2_pool3/3x3_s2_0_split_1
I0403 14:36:44.041314 13452 net.cpp:399] pool3/3x3_s2_pool3/3x3_s2_0_split -> pool3/3x3_s2_pool3/3x3_s2_0_split_2
I0403 14:36:44.041335 13452 net.cpp:399] pool3/3x3_s2_pool3/3x3_s2_0_split -> pool3/3x3_s2_pool3/3x3_s2_0_split_3
I0403 14:36:44.041411 13452 net.cpp:141] Setting up pool3/3x3_s2_pool3/3x3_s2_0_split
I0403 14:36:44.041435 13452 net.cpp:148] Top shape: 24 480 14 14 (2257920)
I0403 14:36:44.041451 13452 net.cpp:148] Top shape: 24 480 14 14 (2257920)
I0403 14:36:44.041467 13452 net.cpp:148] Top shape: 24 480 14 14 (2257920)
I0403 14:36:44.041483 13452 net.cpp:148] Top shape: 24 480 14 14 (2257920)
I0403 14:36:44.041497 13452 net.cpp:156] Memory required for data: 854397984
I0403 14:36:44.041512 13452 layer_factory.hpp:77] Creating layer inception_4a/1x1
I0403 14:36:44.041534 13452 net.cpp:91] Creating Layer inception_4a/1x1
I0403 14:36:44.041551 13452 net.cpp:425] inception_4a/1x1 <- pool3/3x3_s2_pool3/3x3_s2_0_split_0
I0403 14:36:44.041576 13452 net.cpp:399] inception_4a/1x1 -> inception_4a/1x1
I0403 14:36:44.043212 13452 net.cpp:141] Setting up inception_4a/1x1
I0403 14:36:44.043241 13452 net.cpp:148] Top shape: 24 192 14 14 (903168)
I0403 14:36:44.043257 13452 net.cpp:156] Memory required for data: 858010656
I0403 14:36:44.043277 13452 layer_factory.hpp:77] Creating layer inception_4a/relu_1x1
I0403 14:36:44.043298 13452 net.cpp:91] Creating Layer inception_4a/relu_1x1
I0403 14:36:44.043314 13452 net.cpp:425] inception_4a/relu_1x1 <- inception_4a/1x1
I0403 14:36:44.043331 13452 net.cpp:386] inception_4a/relu_1x1 -> inception_4a/1x1 (in-place)
I0403 14:36:44.043510 13452 net.cpp:141] Setting up inception_4a/relu_1x1
I0403 14:36:44.043539 13452 net.cpp:148] Top shape: 24 192 14 14 (903168)
I0403 14:36:44.043555 13452 net.cpp:156] Memory required for data: 861623328
I0403 14:36:44.043573 13452 layer_factory.hpp:77] Creating layer inception_4a/3x3_reduce
I0403 14:36:44.043597 13452 net.cpp:91] Creating Layer inception_4a/3x3_reduce
I0403 14:36:44.043615 13452 net.cpp:425] inception_4a/3x3_reduce <- pool3/3x3_s2_pool3/3x3_s2_0_split_1
I0403 14:36:44.043634 13452 net.cpp:399] inception_4a/3x3_reduce -> inception_4a/3x3_reduce
I0403 14:36:44.044950 13452 net.cpp:141] Setting up inception_4a/3x3_reduce
I0403 14:36:44.044978 13452 net.cpp:148] Top shape: 24 96 14 14 (451584)
I0403 14:36:44.044993 13452 net.cpp:156] Memory required for data: 863429664
I0403 14:36:44.045019 13452 layer_factory.hpp:77] Creating layer inception_4a/relu_3x3_reduce
I0403 14:36:44.045042 13452 net.cpp:91] Creating Layer inception_4a/relu_3x3_reduce
I0403 14:36:44.045059 13452 net.cpp:425] inception_4a/relu_3x3_reduce <- inception_4a/3x3_reduce
I0403 14:36:44.045076 13452 net.cpp:386] inception_4a/relu_3x3_reduce -> inception_4a/3x3_reduce (in-place)
I0403 14:36:44.045253 13452 net.cpp:141] Setting up inception_4a/relu_3x3_reduce
I0403 14:36:44.045279 13452 net.cpp:148] Top shape: 24 96 14 14 (451584)
I0403 14:36:44.045294 13452 net.cpp:156] Memory required for data: 865236000
I0403 14:36:44.045308 13452 layer_factory.hpp:77] Creating layer inception_4a/3x3
I0403 14:36:44.045332 13452 net.cpp:91] Creating Layer inception_4a/3x3
I0403 14:36:44.045349 13452 net.cpp:425] inception_4a/3x3 <- inception_4a/3x3_reduce
I0403 14:36:44.045367 13452 net.cpp:399] inception_4a/3x3 -> inception_4a/3x3
I0403 14:36:44.048107 13452 net.cpp:141] Setting up inception_4a/3x3
I0403 14:36:44.048141 13452 net.cpp:148] Top shape: 24 208 14 14 (978432)
I0403 14:36:44.048157 13452 net.cpp:156] Memory required for data: 869149728
I0403 14:36:44.048176 13452 layer_factory.hpp:77] Creating layer inception_4a/relu_3x3
I0403 14:36:44.048194 13452 net.cpp:91] Creating Layer inception_4a/relu_3x3
I0403 14:36:44.048210 13452 net.cpp:425] inception_4a/relu_3x3 <- inception_4a/3x3
I0403 14:36:44.048226 13452 net.cpp:386] inception_4a/relu_3x3 -> inception_4a/3x3 (in-place)
I0403 14:36:44.048511 13452 net.cpp:141] Setting up inception_4a/relu_3x3
I0403 14:36:44.048540 13452 net.cpp:148] Top shape: 24 208 14 14 (978432)
I0403 14:36:44.048557 13452 net.cpp:156] Memory required for data: 873063456
I0403 14:36:44.048578 13452 layer_factory.hpp:77] Creating layer inception_4a/5x5_reduce
I0403 14:36:44.048601 13452 net.cpp:91] Creating Layer inception_4a/5x5_reduce
I0403 14:36:44.048619 13452 net.cpp:425] inception_4a/5x5_reduce <- pool3/3x3_s2_pool3/3x3_s2_0_split_2
I0403 14:36:44.048638 13452 net.cpp:399] inception_4a/5x5_reduce -> inception_4a/5x5_reduce
I0403 14:36:44.049679 13452 net.cpp:141] Setting up inception_4a/5x5_reduce
I0403 14:36:44.049710 13452 net.cpp:148] Top shape: 24 16 14 14 (75264)
I0403 14:36:44.049727 13452 net.cpp:156] Memory required for data: 873364512
I0403 14:36:44.049746 13452 layer_factory.hpp:77] Creating layer inception_4a/relu_5x5_reduce
I0403 14:36:44.049765 13452 net.cpp:91] Creating Layer inception_4a/relu_5x5_reduce
I0403 14:36:44.049782 13452 net.cpp:425] inception_4a/relu_5x5_reduce <- inception_4a/5x5_reduce
I0403 14:36:44.049801 13452 net.cpp:386] inception_4a/relu_5x5_reduce -> inception_4a/5x5_reduce (in-place)
I0403 14:36:44.049983 13452 net.cpp:141] Setting up inception_4a/relu_5x5_reduce
I0403 14:36:44.050009 13452 net.cpp:148] Top shape: 24 16 14 14 (75264)
I0403 14:36:44.050022 13452 net.cpp:156] Memory required for data: 873665568
I0403 14:36:44.050037 13452 layer_factory.hpp:77] Creating layer inception_4a/5x5
I0403 14:36:44.050071 13452 net.cpp:91] Creating Layer inception_4a/5x5
I0403 14:36:44.050088 13452 net.cpp:425] inception_4a/5x5 <- inception_4a/5x5_reduce
I0403 14:36:44.050108 13452 net.cpp:399] inception_4a/5x5 -> inception_4a/5x5
I0403 14:36:44.051185 13452 net.cpp:141] Setting up inception_4a/5x5
I0403 14:36:44.051213 13452 net.cpp:148] Top shape: 24 48 14 14 (225792)
I0403 14:36:44.051229 13452 net.cpp:156] Memory required for data: 874568736
I0403 14:36:44.051246 13452 layer_factory.hpp:77] Creating layer inception_4a/relu_5x5
I0403 14:36:44.051268 13452 net.cpp:91] Creating Layer inception_4a/relu_5x5
I0403 14:36:44.051285 13452 net.cpp:425] inception_4a/relu_5x5 <- inception_4a/5x5
I0403 14:36:44.051301 13452 net.cpp:386] inception_4a/relu_5x5 -> inception_4a/5x5 (in-place)
I0403 14:36:44.051476 13452 net.cpp:141] Setting up inception_4a/relu_5x5
I0403 14:36:44.051501 13452 net.cpp:148] Top shape: 24 48 14 14 (225792)
I0403 14:36:44.051515 13452 net.cpp:156] Memory required for data: 875471904
I0403 14:36:44.051529 13452 layer_factory.hpp:77] Creating layer inception_4a/pool
I0403 14:36:44.051549 13452 net.cpp:91] Creating Layer inception_4a/pool
I0403 14:36:44.051565 13452 net.cpp:425] inception_4a/pool <- pool3/3x3_s2_pool3/3x3_s2_0_split_3
I0403 14:36:44.051587 13452 net.cpp:399] inception_4a/pool -> inception_4a/pool
I0403 14:36:44.051652 13452 net.cpp:141] Setting up inception_4a/pool
I0403 14:36:44.051676 13452 net.cpp:148] Top shape: 24 480 14 14 (2257920)
I0403 14:36:44.051690 13452 net.cpp:156] Memory required for data: 884503584
I0403 14:36:44.051704 13452 layer_factory.hpp:77] Creating layer inception_4a/pool_proj
I0403 14:36:44.051726 13452 net.cpp:91] Creating Layer inception_4a/pool_proj
I0403 14:36:44.051743 13452 net.cpp:425] inception_4a/pool_proj <- inception_4a/pool
I0403 14:36:44.051762 13452 net.cpp:399] inception_4a/pool_proj -> inception_4a/pool_proj
I0403 14:36:44.052932 13452 net.cpp:141] Setting up inception_4a/pool_proj
I0403 14:36:44.052960 13452 net.cpp:148] Top shape: 24 64 14 14 (301056)
I0403 14:36:44.052990 13452 net.cpp:156] Memory required for data: 885707808
I0403 14:36:44.053010 13452 layer_factory.hpp:77] Creating layer inception_4a/relu_pool_proj
I0403 14:36:44.053031 13452 net.cpp:91] Creating Layer inception_4a/relu_pool_proj
I0403 14:36:44.053047 13452 net.cpp:425] inception_4a/relu_pool_proj <- inception_4a/pool_proj
I0403 14:36:44.053064 13452 net.cpp:386] inception_4a/relu_pool_proj -> inception_4a/pool_proj (in-place)
I0403 14:36:44.053346 13452 net.cpp:141] Setting up inception_4a/relu_pool_proj
I0403 14:36:44.053372 13452 net.cpp:148] Top shape: 24 64 14 14 (301056)
I0403 14:36:44.053387 13452 net.cpp:156] Memory required for data: 886912032
I0403 14:36:44.053401 13452 layer_factory.hpp:77] Creating layer inception_4a/output
I0403 14:36:44.053418 13452 net.cpp:91] Creating Layer inception_4a/output
I0403 14:36:44.053432 13452 net.cpp:425] inception_4a/output <- inception_4a/1x1
I0403 14:36:44.053450 13452 net.cpp:425] inception_4a/output <- inception_4a/3x3
I0403 14:36:44.053467 13452 net.cpp:425] inception_4a/output <- inception_4a/5x5
I0403 14:36:44.053481 13452 net.cpp:425] inception_4a/output <- inception_4a/pool_proj
I0403 14:36:44.053498 13452 net.cpp:399] inception_4a/output -> inception_4a/output
I0403 14:36:44.053544 13452 net.cpp:141] Setting up inception_4a/output
I0403 14:36:44.053566 13452 net.cpp:148] Top shape: 24 512 14 14 (2408448)
I0403 14:36:44.053586 13452 net.cpp:156] Memory required for data: 896545824
I0403 14:36:44.053601 13452 layer_factory.hpp:77] Creating layer inception_4a/output_inception_4a/output_0_split
I0403 14:36:44.053618 13452 net.cpp:91] Creating Layer inception_4a/output_inception_4a/output_0_split
I0403 14:36:44.053633 13452 net.cpp:425] inception_4a/output_inception_4a/output_0_split <- inception_4a/output
I0403 14:36:44.053653 13452 net.cpp:399] inception_4a/output_inception_4a/output_0_split -> inception_4a/output_inception_4a/output_0_split_0
I0403 14:36:44.053673 13452 net.cpp:399] inception_4a/output_inception_4a/output_0_split -> inception_4a/output_inception_4a/output_0_split_1
I0403 14:36:44.053694 13452 net.cpp:399] inception_4a/output_inception_4a/output_0_split -> inception_4a/output_inception_4a/output_0_split_2
I0403 14:36:44.053712 13452 net.cpp:399] inception_4a/output_inception_4a/output_0_split -> inception_4a/output_inception_4a/output_0_split_3
I0403 14:36:44.053732 13452 net.cpp:399] inception_4a/output_inception_4a/output_0_split -> inception_4a/output_inception_4a/output_0_split_4
I0403 14:36:44.053825 13452 net.cpp:141] Setting up inception_4a/output_inception_4a/output_0_split
I0403 14:36:44.053848 13452 net.cpp:148] Top shape: 24 512 14 14 (2408448)
I0403 14:36:44.053864 13452 net.cpp:148] Top shape: 24 512 14 14 (2408448)
I0403 14:36:44.053879 13452 net.cpp:148] Top shape: 24 512 14 14 (2408448)
I0403 14:36:44.053894 13452 net.cpp:148] Top shape: 24 512 14 14 (2408448)
I0403 14:36:44.053910 13452 net.cpp:148] Top shape: 24 512 14 14 (2408448)
I0403 14:36:44.053922 13452 net.cpp:156] Memory required for data: 944714784
I0403 14:36:44.053936 13452 layer_factory.hpp:77] Creating layer loss1/ave_pool
I0403 14:36:44.053953 13452 net.cpp:91] Creating Layer loss1/ave_pool
I0403 14:36:44.053969 13452 net.cpp:425] loss1/ave_pool <- inception_4a/output_inception_4a/output_0_split_0
I0403 14:36:44.053988 13452 net.cpp:399] loss1/ave_pool -> loss1/ave_pool
I0403 14:36:44.054193 13452 net.cpp:141] Setting up loss1/ave_pool
I0403 14:36:44.054219 13452 net.cpp:148] Top shape: 24 512 4 4 (196608)
I0403 14:36:44.054234 13452 net.cpp:156] Memory required for data: 945501216
I0403 14:36:44.054247 13452 layer_factory.hpp:77] Creating layer loss1/conv
I0403 14:36:44.054270 13452 net.cpp:91] Creating Layer loss1/conv
I0403 14:36:44.054287 13452 net.cpp:425] loss1/conv <- loss1/ave_pool
I0403 14:36:44.054307 13452 net.cpp:399] loss1/conv -> loss1/conv
I0403 14:36:44.055742 13452 net.cpp:141] Setting up loss1/conv
I0403 14:36:44.055771 13452 net.cpp:148] Top shape: 24 128 4 4 (49152)
I0403 14:36:44.055788 13452 net.cpp:156] Memory required for data: 945697824
I0403 14:36:44.055821 13452 layer_factory.hpp:77] Creating layer loss1/relu_conv
I0403 14:36:44.055840 13452 net.cpp:91] Creating Layer loss1/relu_conv
I0403 14:36:44.055856 13452 net.cpp:425] loss1/relu_conv <- loss1/conv
I0403 14:36:44.055873 13452 net.cpp:386] loss1/relu_conv -> loss1/conv (in-place)
I0403 14:36:44.056155 13452 net.cpp:141] Setting up loss1/relu_conv
I0403 14:36:44.056185 13452 net.cpp:148] Top shape: 24 128 4 4 (49152)
I0403 14:36:44.056200 13452 net.cpp:156] Memory required for data: 945894432
I0403 14:36:44.056215 13452 layer_factory.hpp:77] Creating layer loss1/fc
I0403 14:36:44.056237 13452 net.cpp:91] Creating Layer loss1/fc
I0403 14:36:44.056254 13452 net.cpp:425] loss1/fc <- loss1/conv
I0403 14:36:44.056275 13452 net.cpp:399] loss1/fc -> loss1/fc
I0403 14:36:44.073523 13452 net.cpp:141] Setting up loss1/fc
I0403 14:36:44.073554 13452 net.cpp:148] Top shape: 24 1024 (24576)
I0403 14:36:44.073572 13452 net.cpp:156] Memory required for data: 945992736
I0403 14:36:44.073591 13452 layer_factory.hpp:77] Creating layer loss1/relu_fc
I0403 14:36:44.073611 13452 net.cpp:91] Creating Layer loss1/relu_fc
I0403 14:36:44.073628 13452 net.cpp:425] loss1/relu_fc <- loss1/fc
I0403 14:36:44.073644 13452 net.cpp:386] loss1/relu_fc -> loss1/fc (in-place)
I0403 14:36:44.073837 13452 net.cpp:141] Setting up loss1/relu_fc
I0403 14:36:44.073863 13452 net.cpp:148] Top shape: 24 1024 (24576)
I0403 14:36:44.073879 13452 net.cpp:156] Memory required for data: 946091040
I0403 14:36:44.073892 13452 layer_factory.hpp:77] Creating layer loss1/drop_fc
I0403 14:36:44.073920 13452 net.cpp:91] Creating Layer loss1/drop_fc
I0403 14:36:44.073936 13452 net.cpp:425] loss1/drop_fc <- loss1/fc
I0403 14:36:44.073952 13452 net.cpp:386] loss1/drop_fc -> loss1/fc (in-place)
I0403 14:36:44.074003 13452 net.cpp:141] Setting up loss1/drop_fc
I0403 14:36:44.074026 13452 net.cpp:148] Top shape: 24 1024 (24576)
I0403 14:36:44.074041 13452 net.cpp:156] Memory required for data: 946189344
I0403 14:36:44.074055 13452 layer_factory.hpp:77] Creating layer loss1/classifier_plantvillage
I0403 14:36:44.074080 13452 net.cpp:91] Creating Layer loss1/classifier_plantvillage
I0403 14:36:44.074097 13452 net.cpp:425] loss1/classifier_plantvillage <- loss1/fc
I0403 14:36:44.074115 13452 net.cpp:399] loss1/classifier_plantvillage -> loss1/classifier_plantvillage
I0403 14:36:44.075026 13452 net.cpp:141] Setting up loss1/classifier_plantvillage
I0403 14:36:44.075055 13452 net.cpp:148] Top shape: 24 38 (912)
I0403 14:36:44.075072 13452 net.cpp:156] Memory required for data: 946192992
I0403 14:36:44.075090 13452 layer_factory.hpp:77] Creating layer loss1/classifier_plantvillage_loss1/classifier_plantvillage_0_split
I0403 14:36:44.075109 13452 net.cpp:91] Creating Layer loss1/classifier_plantvillage_loss1/classifier_plantvillage_0_split
I0403 14:36:44.075124 13452 net.cpp:425] loss1/classifier_plantvillage_loss1/classifier_plantvillage_0_split <- loss1/classifier_plantvillage
I0403 14:36:44.075140 13452 net.cpp:399] loss1/classifier_plantvillage_loss1/classifier_plantvillage_0_split -> loss1/classifier_plantvillage_loss1/classifier_plantvillage_0_split_0
I0403 14:36:44.075160 13452 net.cpp:399] loss1/classifier_plantvillage_loss1/classifier_plantvillage_0_split -> loss1/classifier_plantvillage_loss1/classifier_plantvillage_0_split_1
I0403 14:36:44.075179 13452 net.cpp:399] loss1/classifier_plantvillage_loss1/classifier_plantvillage_0_split -> loss1/classifier_plantvillage_loss1/classifier_plantvillage_0_split_2
I0403 14:36:44.075244 13452 net.cpp:141] Setting up loss1/classifier_plantvillage_loss1/classifier_plantvillage_0_split
I0403 14:36:44.075268 13452 net.cpp:148] Top shape: 24 38 (912)
I0403 14:36:44.075284 13452 net.cpp:148] Top shape: 24 38 (912)
I0403 14:36:44.075299 13452 net.cpp:148] Top shape: 24 38 (912)
I0403 14:36:44.075314 13452 net.cpp:156] Memory required for data: 946203936
I0403 14:36:44.075327 13452 layer_factory.hpp:77] Creating layer inception_4b/1x1
I0403 14:36:44.075346 13452 net.cpp:91] Creating Layer inception_4b/1x1
I0403 14:36:44.075379 13452 net.cpp:425] inception_4b/1x1 <- inception_4a/output_inception_4a/output_0_split_1
I0403 14:36:44.075402 13452 net.cpp:399] inception_4b/1x1 -> inception_4b/1x1
I0403 14:36:44.077050 13452 net.cpp:141] Setting up inception_4b/1x1
I0403 14:36:44.077081 13452 net.cpp:148] Top shape: 24 160 14 14 (752640)
I0403 14:36:44.077097 13452 net.cpp:156] Memory required for data: 949214496
I0403 14:36:44.077116 13452 layer_factory.hpp:77] Creating layer inception_4b/relu_1x1
I0403 14:36:44.077145 13452 net.cpp:91] Creating Layer inception_4b/relu_1x1
I0403 14:36:44.077160 13452 net.cpp:425] inception_4b/relu_1x1 <- inception_4b/1x1
I0403 14:36:44.077178 13452 net.cpp:386] inception_4b/relu_1x1 -> inception_4b/1x1 (in-place)
I0403 14:36:44.077352 13452 net.cpp:141] Setting up inception_4b/relu_1x1
I0403 14:36:44.077375 13452 net.cpp:148] Top shape: 24 160 14 14 (752640)
I0403 14:36:44.077390 13452 net.cpp:156] Memory required for data: 952225056
I0403 14:36:44.077404 13452 layer_factory.hpp:77] Creating layer inception_4b/3x3_reduce
I0403 14:36:44.077425 13452 net.cpp:91] Creating Layer inception_4b/3x3_reduce
I0403 14:36:44.077442 13452 net.cpp:425] inception_4b/3x3_reduce <- inception_4a/output_inception_4a/output_0_split_2
I0403 14:36:44.077463 13452 net.cpp:399] inception_4b/3x3_reduce -> inception_4b/3x3_reduce
I0403 14:36:44.078783 13452 net.cpp:141] Setting up inception_4b/3x3_reduce
I0403 14:36:44.078811 13452 net.cpp:148] Top shape: 24 112 14 14 (526848)
I0403 14:36:44.078827 13452 net.cpp:156] Memory required for data: 954332448
I0403 14:36:44.078845 13452 layer_factory.hpp:77] Creating layer inception_4b/relu_3x3_reduce
I0403 14:36:44.078866 13452 net.cpp:91] Creating Layer inception_4b/relu_3x3_reduce
I0403 14:36:44.078881 13452 net.cpp:425] inception_4b/relu_3x3_reduce <- inception_4b/3x3_reduce
I0403 14:36:44.078896 13452 net.cpp:386] inception_4b/relu_3x3_reduce -> inception_4b/3x3_reduce (in-place)
I0403 14:36:44.079170 13452 net.cpp:141] Setting up inception_4b/relu_3x3_reduce
I0403 14:36:44.079196 13452 net.cpp:148] Top shape: 24 112 14 14 (526848)
I0403 14:36:44.079211 13452 net.cpp:156] Memory required for data: 956439840
I0403 14:36:44.079226 13452 layer_factory.hpp:77] Creating layer inception_4b/3x3
I0403 14:36:44.079247 13452 net.cpp:91] Creating Layer inception_4b/3x3
I0403 14:36:44.079267 13452 net.cpp:425] inception_4b/3x3 <- inception_4b/3x3_reduce
I0403 14:36:44.079287 13452 net.cpp:399] inception_4b/3x3 -> inception_4b/3x3
I0403 14:36:44.082284 13452 net.cpp:141] Setting up inception_4b/3x3
I0403 14:36:44.082315 13452 net.cpp:148] Top shape: 24 224 14 14 (1053696)
I0403 14:36:44.082330 13452 net.cpp:156] Memory required for data: 960654624
I0403 14:36:44.082350 13452 layer_factory.hpp:77] Creating layer inception_4b/relu_3x3
I0403 14:36:44.082370 13452 net.cpp:91] Creating Layer inception_4b/relu_3x3
I0403 14:36:44.082387 13452 net.cpp:425] inception_4b/relu_3x3 <- inception_4b/3x3
I0403 14:36:44.082404 13452 net.cpp:386] inception_4b/relu_3x3 -> inception_4b/3x3 (in-place)
I0403 14:36:44.082592 13452 net.cpp:141] Setting up inception_4b/relu_3x3
I0403 14:36:44.082619 13452 net.cpp:148] Top shape: 24 224 14 14 (1053696)
I0403 14:36:44.082635 13452 net.cpp:156] Memory required for data: 964869408
I0403 14:36:44.082649 13452 layer_factory.hpp:77] Creating layer inception_4b/5x5_reduce
I0403 14:36:44.082671 13452 net.cpp:91] Creating Layer inception_4b/5x5_reduce
I0403 14:36:44.082689 13452 net.cpp:425] inception_4b/5x5_reduce <- inception_4a/output_inception_4a/output_0_split_3
I0403 14:36:44.082707 13452 net.cpp:399] inception_4b/5x5_reduce -> inception_4b/5x5_reduce
I0403 14:36:44.083797 13452 net.cpp:141] Setting up inception_4b/5x5_reduce
I0403 14:36:44.083827 13452 net.cpp:148] Top shape: 24 24 14 14 (112896)
I0403 14:36:44.083844 13452 net.cpp:156] Memory required for data: 965320992
I0403 14:36:44.083863 13452 layer_factory.hpp:77] Creating layer inception_4b/relu_5x5_reduce
I0403 14:36:44.083879 13452 net.cpp:91] Creating Layer inception_4b/relu_5x5_reduce
I0403 14:36:44.083910 13452 net.cpp:425] inception_4b/relu_5x5_reduce <- inception_4b/5x5_reduce
I0403 14:36:44.083930 13452 net.cpp:386] inception_4b/relu_5x5_reduce -> inception_4b/5x5_reduce (in-place)
I0403 14:36:44.084115 13452 net.cpp:141] Setting up inception_4b/relu_5x5_reduce
I0403 14:36:44.084139 13452 net.cpp:148] Top shape: 24 24 14 14 (112896)
I0403 14:36:44.084153 13452 net.cpp:156] Memory required for data: 965772576
I0403 14:36:44.084168 13452 layer_factory.hpp:77] Creating layer inception_4b/5x5
I0403 14:36:44.084190 13452 net.cpp:91] Creating Layer inception_4b/5x5
I0403 14:36:44.084208 13452 net.cpp:425] inception_4b/5x5 <- inception_4b/5x5_reduce
I0403 14:36:44.084228 13452 net.cpp:399] inception_4b/5x5 -> inception_4b/5x5
I0403 14:36:44.085461 13452 net.cpp:141] Setting up inception_4b/5x5
I0403 14:36:44.085492 13452 net.cpp:148] Top shape: 24 64 14 14 (301056)
I0403 14:36:44.085510 13452 net.cpp:156] Memory required for data: 966976800
I0403 14:36:44.085528 13452 layer_factory.hpp:77] Creating layer inception_4b/relu_5x5
I0403 14:36:44.085546 13452 net.cpp:91] Creating Layer inception_4b/relu_5x5
I0403 14:36:44.085562 13452 net.cpp:425] inception_4b/relu_5x5 <- inception_4b/5x5
I0403 14:36:44.085588 13452 net.cpp:386] inception_4b/relu_5x5 -> inception_4b/5x5 (in-place)
I0403 14:36:44.085875 13452 net.cpp:141] Setting up inception_4b/relu_5x5
I0403 14:36:44.085906 13452 net.cpp:148] Top shape: 24 64 14 14 (301056)
I0403 14:36:44.085922 13452 net.cpp:156] Memory required for data: 968181024
I0403 14:36:44.085938 13452 layer_factory.hpp:77] Creating layer inception_4b/pool
I0403 14:36:44.085957 13452 net.cpp:91] Creating Layer inception_4b/pool
I0403 14:36:44.085973 13452 net.cpp:425] inception_4b/pool <- inception_4a/output_inception_4a/output_0_split_4
I0403 14:36:44.085995 13452 net.cpp:399] inception_4b/pool -> inception_4b/pool
I0403 14:36:44.086060 13452 net.cpp:141] Setting up inception_4b/pool
I0403 14:36:44.086082 13452 net.cpp:148] Top shape: 24 512 14 14 (2408448)
I0403 14:36:44.086097 13452 net.cpp:156] Memory required for data: 977814816
I0403 14:36:44.086112 13452 layer_factory.hpp:77] Creating layer inception_4b/pool_proj
I0403 14:36:44.086133 13452 net.cpp:91] Creating Layer inception_4b/pool_proj
I0403 14:36:44.086151 13452 net.cpp:425] inception_4b/pool_proj <- inception_4b/pool
I0403 14:36:44.086169 13452 net.cpp:399] inception_4b/pool_proj -> inception_4b/pool_proj
I0403 14:36:44.087373 13452 net.cpp:141] Setting up inception_4b/pool_proj
I0403 14:36:44.087400 13452 net.cpp:148] Top shape: 24 64 14 14 (301056)
I0403 14:36:44.087415 13452 net.cpp:156] Memory required for data: 979019040
I0403 14:36:44.087433 13452 layer_factory.hpp:77] Creating layer inception_4b/relu_pool_proj
I0403 14:36:44.087451 13452 net.cpp:91] Creating Layer inception_4b/relu_pool_proj
I0403 14:36:44.087467 13452 net.cpp:425] inception_4b/relu_pool_proj <- inception_4b/pool_proj
I0403 14:36:44.087486 13452 net.cpp:386] inception_4b/relu_pool_proj -> inception_4b/pool_proj (in-place)
I0403 14:36:44.087678 13452 net.cpp:141] Setting up inception_4b/relu_pool_proj
I0403 14:36:44.087702 13452 net.cpp:148] Top shape: 24 64 14 14 (301056)
I0403 14:36:44.087718 13452 net.cpp:156] Memory required for data: 980223264
I0403 14:36:44.087731 13452 layer_factory.hpp:77] Creating layer inception_4b/output
I0403 14:36:44.087748 13452 net.cpp:91] Creating Layer inception_4b/output
I0403 14:36:44.087765 13452 net.cpp:425] inception_4b/output <- inception_4b/1x1
I0403 14:36:44.087781 13452 net.cpp:425] inception_4b/output <- inception_4b/3x3
I0403 14:36:44.087797 13452 net.cpp:425] inception_4b/output <- inception_4b/5x5
I0403 14:36:44.087812 13452 net.cpp:425] inception_4b/output <- inception_4b/pool_proj
I0403 14:36:44.087828 13452 net.cpp:399] inception_4b/output -> inception_4b/output
I0403 14:36:44.087877 13452 net.cpp:141] Setting up inception_4b/output
I0403 14:36:44.087900 13452 net.cpp:148] Top shape: 24 512 14 14 (2408448)
I0403 14:36:44.087915 13452 net.cpp:156] Memory required for data: 989857056
I0403 14:36:44.087944 13452 layer_factory.hpp:77] Creating layer inception_4b/output_inception_4b/output_0_split
I0403 14:36:44.087962 13452 net.cpp:91] Creating Layer inception_4b/output_inception_4b/output_0_split
I0403 14:36:44.087977 13452 net.cpp:425] inception_4b/output_inception_4b/output_0_split <- inception_4b/output
I0403 14:36:44.087996 13452 net.cpp:399] inception_4b/output_inception_4b/output_0_split -> inception_4b/output_inception_4b/output_0_split_0
I0403 14:36:44.088016 13452 net.cpp:399] inception_4b/output_inception_4b/output_0_split -> inception_4b/output_inception_4b/output_0_split_1
I0403 14:36:44.088037 13452 net.cpp:399] inception_4b/output_inception_4b/output_0_split -> inception_4b/output_inception_4b/output_0_split_2
I0403 14:36:44.088055 13452 net.cpp:399] inception_4b/output_inception_4b/output_0_split -> inception_4b/output_inception_4b/output_0_split_3
I0403 14:36:44.088138 13452 net.cpp:141] Setting up inception_4b/output_inception_4b/output_0_split
I0403 14:36:44.088163 13452 net.cpp:148] Top shape: 24 512 14 14 (2408448)
I0403 14:36:44.088181 13452 net.cpp:148] Top shape: 24 512 14 14 (2408448)
I0403 14:36:44.088196 13452 net.cpp:148] Top shape: 24 512 14 14 (2408448)
I0403 14:36:44.088212 13452 net.cpp:148] Top shape: 24 512 14 14 (2408448)
I0403 14:36:44.088225 13452 net.cpp:156] Memory required for data: 1028392224
I0403 14:36:44.088238 13452 layer_factory.hpp:77] Creating layer inception_4c/1x1
I0403 14:36:44.088261 13452 net.cpp:91] Creating Layer inception_4c/1x1
I0403 14:36:44.088279 13452 net.cpp:425] inception_4c/1x1 <- inception_4b/output_inception_4b/output_0_split_0
I0403 14:36:44.088296 13452 net.cpp:399] inception_4c/1x1 -> inception_4c/1x1
I0403 14:36:44.089731 13452 net.cpp:141] Setting up inception_4c/1x1
I0403 14:36:44.089759 13452 net.cpp:148] Top shape: 24 128 14 14 (602112)
I0403 14:36:44.089774 13452 net.cpp:156] Memory required for data: 1030800672
I0403 14:36:44.089792 13452 layer_factory.hpp:77] Creating layer inception_4c/relu_1x1
I0403 14:36:44.089812 13452 net.cpp:91] Creating Layer inception_4c/relu_1x1
I0403 14:36:44.089829 13452 net.cpp:425] inception_4c/relu_1x1 <- inception_4c/1x1
I0403 14:36:44.089845 13452 net.cpp:386] inception_4c/relu_1x1 -> inception_4c/1x1 (in-place)
I0403 14:36:44.090029 13452 net.cpp:141] Setting up inception_4c/relu_1x1
I0403 14:36:44.090052 13452 net.cpp:148] Top shape: 24 128 14 14 (602112)
I0403 14:36:44.090067 13452 net.cpp:156] Memory required for data: 1033209120
I0403 14:36:44.090081 13452 layer_factory.hpp:77] Creating layer inception_4c/3x3_reduce
I0403 14:36:44.090106 13452 net.cpp:91] Creating Layer inception_4c/3x3_reduce
I0403 14:36:44.090122 13452 net.cpp:425] inception_4c/3x3_reduce <- inception_4b/output_inception_4b/output_0_split_1
I0403 14:36:44.090142 13452 net.cpp:399] inception_4c/3x3_reduce -> inception_4c/3x3_reduce
I0403 14:36:44.092087 13452 net.cpp:141] Setting up inception_4c/3x3_reduce
I0403 14:36:44.092118 13452 net.cpp:148] Top shape: 24 128 14 14 (602112)
I0403 14:36:44.092134 13452 net.cpp:156] Memory required for data: 1035617568
I0403 14:36:44.092152 13452 layer_factory.hpp:77] Creating layer inception_4c/relu_3x3_reduce
I0403 14:36:44.092170 13452 net.cpp:91] Creating Layer inception_4c/relu_3x3_reduce
I0403 14:36:44.092185 13452 net.cpp:425] inception_4c/relu_3x3_reduce <- inception_4c/3x3_reduce
I0403 14:36:44.092203 13452 net.cpp:386] inception_4c/relu_3x3_reduce -> inception_4c/3x3_reduce (in-place)
I0403 14:36:44.092488 13452 net.cpp:141] Setting up inception_4c/relu_3x3_reduce
I0403 14:36:44.092516 13452 net.cpp:148] Top shape: 24 128 14 14 (602112)
I0403 14:36:44.092532 13452 net.cpp:156] Memory required for data: 1038026016
I0403 14:36:44.092547 13452 layer_factory.hpp:77] Creating layer inception_4c/3x3
I0403 14:36:44.092573 13452 net.cpp:91] Creating Layer inception_4c/3x3
I0403 14:36:44.092592 13452 net.cpp:425] inception_4c/3x3 <- inception_4c/3x3_reduce
I0403 14:36:44.092610 13452 net.cpp:399] inception_4c/3x3 -> inception_4c/3x3
I0403 14:36:44.096209 13452 net.cpp:141] Setting up inception_4c/3x3
I0403 14:36:44.096248 13452 net.cpp:148] Top shape: 24 256 14 14 (1204224)
I0403 14:36:44.096266 13452 net.cpp:156] Memory required for data: 1042842912
I0403 14:36:44.096297 13452 layer_factory.hpp:77] Creating layer inception_4c/relu_3x3
I0403 14:36:44.096318 13452 net.cpp:91] Creating Layer inception_4c/relu_3x3
I0403 14:36:44.096333 13452 net.cpp:425] inception_4c/relu_3x3 <- inception_4c/3x3
I0403 14:36:44.096352 13452 net.cpp:386] inception_4c/relu_3x3 -> inception_4c/3x3 (in-place)
I0403 14:36:44.096531 13452 net.cpp:141] Setting up inception_4c/relu_3x3
I0403 14:36:44.096559 13452 net.cpp:148] Top shape: 24 256 14 14 (1204224)
I0403 14:36:44.096578 13452 net.cpp:156] Memory required for data: 1047659808
I0403 14:36:44.096593 13452 layer_factory.hpp:77] Creating layer inception_4c/5x5_reduce
I0403 14:36:44.096616 13452 net.cpp:91] Creating Layer inception_4c/5x5_reduce
I0403 14:36:44.096634 13452 net.cpp:425] inception_4c/5x5_reduce <- inception_4b/output_inception_4b/output_0_split_2
I0403 14:36:44.096655 13452 net.cpp:399] inception_4c/5x5_reduce -> inception_4c/5x5_reduce
I0403 14:36:44.097750 13452 net.cpp:141] Setting up inception_4c/5x5_reduce
I0403 14:36:44.097780 13452 net.cpp:148] Top shape: 24 24 14 14 (112896)
I0403 14:36:44.097796 13452 net.cpp:156] Memory required for data: 1048111392
I0403 14:36:44.097815 13452 layer_factory.hpp:77] Creating layer inception_4c/relu_5x5_reduce
I0403 14:36:44.097832 13452 net.cpp:91] Creating Layer inception_4c/relu_5x5_reduce
I0403 14:36:44.097848 13452 net.cpp:425] inception_4c/relu_5x5_reduce <- inception_4c/5x5_reduce
I0403 14:36:44.097867 13452 net.cpp:386] inception_4c/relu_5x5_reduce -> inception_4c/5x5_reduce (in-place)
I0403 14:36:44.098050 13452 net.cpp:141] Setting up inception_4c/relu_5x5_reduce
I0403 14:36:44.098074 13452 net.cpp:148] Top shape: 24 24 14 14 (112896)
I0403 14:36:44.098089 13452 net.cpp:156] Memory required for data: 1048562976
I0403 14:36:44.098104 13452 layer_factory.hpp:77] Creating layer inception_4c/5x5
I0403 14:36:44.098125 13452 net.cpp:91] Creating Layer inception_4c/5x5
I0403 14:36:44.098142 13452 net.cpp:425] inception_4c/5x5 <- inception_4c/5x5_reduce
I0403 14:36:44.098163 13452 net.cpp:399] inception_4c/5x5 -> inception_4c/5x5
I0403 14:36:44.099392 13452 net.cpp:141] Setting up inception_4c/5x5
I0403 14:36:44.099418 13452 net.cpp:148] Top shape: 24 64 14 14 (301056)
I0403 14:36:44.099433 13452 net.cpp:156] Memory required for data: 1049767200
I0403 14:36:44.099452 13452 layer_factory.hpp:77] Creating layer inception_4c/relu_5x5
I0403 14:36:44.099470 13452 net.cpp:91] Creating Layer inception_4c/relu_5x5
I0403 14:36:44.099486 13452 net.cpp:425] inception_4c/relu_5x5 <- inception_4c/5x5
I0403 14:36:44.099503 13452 net.cpp:386] inception_4c/relu_5x5 -> inception_4c/5x5 (in-place)
I0403 14:36:44.099794 13452 net.cpp:141] Setting up inception_4c/relu_5x5
I0403 14:36:44.099819 13452 net.cpp:148] Top shape: 24 64 14 14 (301056)
I0403 14:36:44.099834 13452 net.cpp:156] Memory required for data: 1050971424
I0403 14:36:44.099848 13452 layer_factory.hpp:77] Creating layer inception_4c/pool
I0403 14:36:44.099866 13452 net.cpp:91] Creating Layer inception_4c/pool
I0403 14:36:44.099882 13452 net.cpp:425] inception_4c/pool <- inception_4b/output_inception_4b/output_0_split_3
I0403 14:36:44.099900 13452 net.cpp:399] inception_4c/pool -> inception_4c/pool
I0403 14:36:44.099963 13452 net.cpp:141] Setting up inception_4c/pool
I0403 14:36:44.099985 13452 net.cpp:148] Top shape: 24 512 14 14 (2408448)
I0403 14:36:44.099999 13452 net.cpp:156] Memory required for data: 1060605216
I0403 14:36:44.100014 13452 layer_factory.hpp:77] Creating layer inception_4c/pool_proj
I0403 14:36:44.100034 13452 net.cpp:91] Creating Layer inception_4c/pool_proj
I0403 14:36:44.100051 13452 net.cpp:425] inception_4c/pool_proj <- inception_4c/pool
I0403 14:36:44.100070 13452 net.cpp:399] inception_4c/pool_proj -> inception_4c/pool_proj
I0403 14:36:44.101263 13452 net.cpp:141] Setting up inception_4c/pool_proj
I0403 14:36:44.101289 13452 net.cpp:148] Top shape: 24 64 14 14 (301056)
I0403 14:36:44.101320 13452 net.cpp:156] Memory required for data: 1061809440
I0403 14:36:44.101338 13452 layer_factory.hpp:77] Creating layer inception_4c/relu_pool_proj
I0403 14:36:44.101356 13452 net.cpp:91] Creating Layer inception_4c/relu_pool_proj
I0403 14:36:44.101371 13452 net.cpp:425] inception_4c/relu_pool_proj <- inception_4c/pool_proj
I0403 14:36:44.101388 13452 net.cpp:386] inception_4c/relu_pool_proj -> inception_4c/pool_proj (in-place)
I0403 14:36:44.101567 13452 net.cpp:141] Setting up inception_4c/relu_pool_proj
I0403 14:36:44.101593 13452 net.cpp:148] Top shape: 24 64 14 14 (301056)
I0403 14:36:44.101608 13452 net.cpp:156] Memory required for data: 1063013664
I0403 14:36:44.101622 13452 layer_factory.hpp:77] Creating layer inception_4c/output
I0403 14:36:44.101639 13452 net.cpp:91] Creating Layer inception_4c/output
I0403 14:36:44.101654 13452 net.cpp:425] inception_4c/output <- inception_4c/1x1
I0403 14:36:44.101670 13452 net.cpp:425] inception_4c/output <- inception_4c/3x3
I0403 14:36:44.101687 13452 net.cpp:425] inception_4c/output <- inception_4c/5x5
I0403 14:36:44.101702 13452 net.cpp:425] inception_4c/output <- inception_4c/pool_proj
I0403 14:36:44.101717 13452 net.cpp:399] inception_4c/output -> inception_4c/output
I0403 14:36:44.101761 13452 net.cpp:141] Setting up inception_4c/output
I0403 14:36:44.101786 13452 net.cpp:148] Top shape: 24 512 14 14 (2408448)
I0403 14:36:44.101800 13452 net.cpp:156] Memory required for data: 1072647456
I0403 14:36:44.101815 13452 layer_factory.hpp:77] Creating layer inception_4c/output_inception_4c/output_0_split
I0403 14:36:44.101832 13452 net.cpp:91] Creating Layer inception_4c/output_inception_4c/output_0_split
I0403 14:36:44.101846 13452 net.cpp:425] inception_4c/output_inception_4c/output_0_split <- inception_4c/output
I0403 14:36:44.101866 13452 net.cpp:399] inception_4c/output_inception_4c/output_0_split -> inception_4c/output_inception_4c/output_0_split_0
I0403 14:36:44.101886 13452 net.cpp:399] inception_4c/output_inception_4c/output_0_split -> inception_4c/output_inception_4c/output_0_split_1
I0403 14:36:44.101904 13452 net.cpp:399] inception_4c/output_inception_4c/output_0_split -> inception_4c/output_inception_4c/output_0_split_2
I0403 14:36:44.101923 13452 net.cpp:399] inception_4c/output_inception_4c/output_0_split -> inception_4c/output_inception_4c/output_0_split_3
I0403 14:36:44.102006 13452 net.cpp:141] Setting up inception_4c/output_inception_4c/output_0_split
I0403 14:36:44.102030 13452 net.cpp:148] Top shape: 24 512 14 14 (2408448)
I0403 14:36:44.102047 13452 net.cpp:148] Top shape: 24 512 14 14 (2408448)
I0403 14:36:44.102062 13452 net.cpp:148] Top shape: 24 512 14 14 (2408448)
I0403 14:36:44.102077 13452 net.cpp:148] Top shape: 24 512 14 14 (2408448)
I0403 14:36:44.102090 13452 net.cpp:156] Memory required for data: 1111182624
I0403 14:36:44.102105 13452 layer_factory.hpp:77] Creating layer inception_4d/1x1
I0403 14:36:44.102123 13452 net.cpp:91] Creating Layer inception_4d/1x1
I0403 14:36:44.102138 13452 net.cpp:425] inception_4d/1x1 <- inception_4c/output_inception_4c/output_0_split_0
I0403 14:36:44.102159 13452 net.cpp:399] inception_4d/1x1 -> inception_4d/1x1
I0403 14:36:44.103500 13452 net.cpp:141] Setting up inception_4d/1x1
I0403 14:36:44.103526 13452 net.cpp:148] Top shape: 24 112 14 14 (526848)
I0403 14:36:44.103544 13452 net.cpp:156] Memory required for data: 1113290016
I0403 14:36:44.103562 13452 layer_factory.hpp:77] Creating layer inception_4d/relu_1x1
I0403 14:36:44.103585 13452 net.cpp:91] Creating Layer inception_4d/relu_1x1
I0403 14:36:44.103600 13452 net.cpp:425] inception_4d/relu_1x1 <- inception_4d/1x1
I0403 14:36:44.103616 13452 net.cpp:386] inception_4d/relu_1x1 -> inception_4d/1x1 (in-place)
I0403 14:36:44.103795 13452 net.cpp:141] Setting up inception_4d/relu_1x1
I0403 14:36:44.103821 13452 net.cpp:148] Top shape: 24 112 14 14 (526848)
I0403 14:36:44.103834 13452 net.cpp:156] Memory required for data: 1115397408
I0403 14:36:44.103849 13452 layer_factory.hpp:77] Creating layer inception_4d/3x3_reduce
I0403 14:36:44.103883 13452 net.cpp:91] Creating Layer inception_4d/3x3_reduce
I0403 14:36:44.103901 13452 net.cpp:425] inception_4d/3x3_reduce <- inception_4c/output_inception_4c/output_0_split_1
I0403 14:36:44.103919 13452 net.cpp:399] inception_4d/3x3_reduce -> inception_4d/3x3_reduce
I0403 14:36:44.105403 13452 net.cpp:141] Setting up inception_4d/3x3_reduce
I0403 14:36:44.105429 13452 net.cpp:148] Top shape: 24 144 14 14 (677376)
I0403 14:36:44.105444 13452 net.cpp:156] Memory required for data: 1118106912
I0403 14:36:44.105461 13452 layer_factory.hpp:77] Creating layer inception_4d/relu_3x3_reduce
I0403 14:36:44.105480 13452 net.cpp:91] Creating Layer inception_4d/relu_3x3_reduce
I0403 14:36:44.105497 13452 net.cpp:425] inception_4d/relu_3x3_reduce <- inception_4d/3x3_reduce
I0403 14:36:44.105514 13452 net.cpp:386] inception_4d/relu_3x3_reduce -> inception_4d/3x3_reduce (in-place)
I0403 14:36:44.105798 13452 net.cpp:141] Setting up inception_4d/relu_3x3_reduce
I0403 14:36:44.105824 13452 net.cpp:148] Top shape: 24 144 14 14 (677376)
I0403 14:36:44.105839 13452 net.cpp:156] Memory required for data: 1120816416
I0403 14:36:44.105852 13452 layer_factory.hpp:77] Creating layer inception_4d/3x3
I0403 14:36:44.105873 13452 net.cpp:91] Creating Layer inception_4d/3x3
I0403 14:36:44.105890 13452 net.cpp:425] inception_4d/3x3 <- inception_4d/3x3_reduce
I0403 14:36:44.105911 13452 net.cpp:399] inception_4d/3x3 -> inception_4d/3x3
I0403 14:36:44.110040 13452 net.cpp:141] Setting up inception_4d/3x3
I0403 14:36:44.110075 13452 net.cpp:148] Top shape: 24 288 14 14 (1354752)
I0403 14:36:44.110095 13452 net.cpp:156] Memory required for data: 1126235424
I0403 14:36:44.110121 13452 layer_factory.hpp:77] Creating layer inception_4d/relu_3x3
I0403 14:36:44.110147 13452 net.cpp:91] Creating Layer inception_4d/relu_3x3
I0403 14:36:44.110164 13452 net.cpp:425] inception_4d/relu_3x3 <- inception_4d/3x3
I0403 14:36:44.110183 13452 net.cpp:386] inception_4d/relu_3x3 -> inception_4d/3x3 (in-place)
I0403 14:36:44.110359 13452 net.cpp:141] Setting up inception_4d/relu_3x3
I0403 14:36:44.110395 13452 net.cpp:148] Top shape: 24 288 14 14 (1354752)
I0403 14:36:44.110409 13452 net.cpp:156] Memory required for data: 1131654432
I0403 14:36:44.110424 13452 layer_factory.hpp:77] Creating layer inception_4d/5x5_reduce
I0403 14:36:44.110445 13452 net.cpp:91] Creating Layer inception_4d/5x5_reduce
I0403 14:36:44.110463 13452 net.cpp:425] inception_4d/5x5_reduce <- inception_4c/output_inception_4c/output_0_split_2
I0403 14:36:44.110483 13452 net.cpp:399] inception_4d/5x5_reduce -> inception_4d/5x5_reduce
I0403 14:36:44.111640 13452 net.cpp:141] Setting up inception_4d/5x5_reduce
I0403 14:36:44.111670 13452 net.cpp:148] Top shape: 24 32 14 14 (150528)
I0403 14:36:44.111686 13452 net.cpp:156] Memory required for data: 1132256544
I0403 14:36:44.111704 13452 layer_factory.hpp:77] Creating layer inception_4d/relu_5x5_reduce
I0403 14:36:44.111722 13452 net.cpp:91] Creating Layer inception_4d/relu_5x5_reduce
I0403 14:36:44.111738 13452 net.cpp:425] inception_4d/relu_5x5_reduce <- inception_4d/5x5_reduce
I0403 14:36:44.111754 13452 net.cpp:386] inception_4d/relu_5x5_reduce -> inception_4d/5x5_reduce (in-place)
I0403 14:36:44.111949 13452 net.cpp:141] Setting up inception_4d/relu_5x5_reduce
I0403 14:36:44.111976 13452 net.cpp:148] Top shape: 24 32 14 14 (150528)
I0403 14:36:44.111991 13452 net.cpp:156] Memory required for data: 1132858656
I0403 14:36:44.112006 13452 layer_factory.hpp:77] Creating layer inception_4d/5x5
I0403 14:36:44.112028 13452 net.cpp:91] Creating Layer inception_4d/5x5
I0403 14:36:44.112045 13452 net.cpp:425] inception_4d/5x5 <- inception_4d/5x5_reduce
I0403 14:36:44.112064 13452 net.cpp:399] inception_4d/5x5 -> inception_4d/5x5
I0403 14:36:44.113550 13452 net.cpp:141] Setting up inception_4d/5x5
I0403 14:36:44.113581 13452 net.cpp:148] Top shape: 24 64 14 14 (301056)
I0403 14:36:44.113598 13452 net.cpp:156] Memory required for data: 1134062880
I0403 14:36:44.113618 13452 layer_factory.hpp:77] Creating layer inception_4d/relu_5x5
I0403 14:36:44.113651 13452 net.cpp:91] Creating Layer inception_4d/relu_5x5
I0403 14:36:44.113672 13452 net.cpp:425] inception_4d/relu_5x5 <- inception_4d/5x5
I0403 14:36:44.113688 13452 net.cpp:386] inception_4d/relu_5x5 -> inception_4d/5x5 (in-place)
I0403 14:36:44.113993 13452 net.cpp:141] Setting up inception_4d/relu_5x5
I0403 14:36:44.114019 13452 net.cpp:148] Top shape: 24 64 14 14 (301056)
I0403 14:36:44.114034 13452 net.cpp:156] Memory required for data: 1135267104
I0403 14:36:44.114049 13452 layer_factory.hpp:77] Creating layer inception_4d/pool
I0403 14:36:44.114066 13452 net.cpp:91] Creating Layer inception_4d/pool
I0403 14:36:44.114083 13452 net.cpp:425] inception_4d/pool <- inception_4c/output_inception_4c/output_0_split_3
I0403 14:36:44.114102 13452 net.cpp:399] inception_4d/pool -> inception_4d/pool
I0403 14:36:44.114167 13452 net.cpp:141] Setting up inception_4d/pool
I0403 14:36:44.114193 13452 net.cpp:148] Top shape: 24 512 14 14 (2408448)
I0403 14:36:44.114208 13452 net.cpp:156] Memory required for data: 1144900896
I0403 14:36:44.114223 13452 layer_factory.hpp:77] Creating layer inception_4d/pool_proj
I0403 14:36:44.114243 13452 net.cpp:91] Creating Layer inception_4d/pool_proj
I0403 14:36:44.114262 13452 net.cpp:425] inception_4d/pool_proj <- inception_4d/pool
I0403 14:36:44.114280 13452 net.cpp:399] inception_4d/pool_proj -> inception_4d/pool_proj
I0403 14:36:44.116056 13452 net.cpp:141] Setting up inception_4d/pool_proj
I0403 14:36:44.116088 13452 net.cpp:148] Top shape: 24 64 14 14 (301056)
I0403 14:36:44.116104 13452 net.cpp:156] Memory required for data: 1146105120
I0403 14:36:44.116122 13452 layer_factory.hpp:77] Creating layer inception_4d/relu_pool_proj
I0403 14:36:44.116145 13452 net.cpp:91] Creating Layer inception_4d/relu_pool_proj
I0403 14:36:44.116163 13452 net.cpp:425] inception_4d/relu_pool_proj <- inception_4d/pool_proj
I0403 14:36:44.116179 13452 net.cpp:386] inception_4d/relu_pool_proj -> inception_4d/pool_proj (in-place)
I0403 14:36:44.116364 13452 net.cpp:141] Setting up inception_4d/relu_pool_proj
I0403 14:36:44.116387 13452 net.cpp:148] Top shape: 24 64 14 14 (301056)
I0403 14:36:44.116402 13452 net.cpp:156] Memory required for data: 1147309344
I0403 14:36:44.116416 13452 layer_factory.hpp:77] Creating layer inception_4d/output
I0403 14:36:44.116433 13452 net.cpp:91] Creating Layer inception_4d/output
I0403 14:36:44.116448 13452 net.cpp:425] inception_4d/output <- inception_4d/1x1
I0403 14:36:44.116463 13452 net.cpp:425] inception_4d/output <- inception_4d/3x3
I0403 14:36:44.116479 13452 net.cpp:425] inception_4d/output <- inception_4d/5x5
I0403 14:36:44.116494 13452 net.cpp:425] inception_4d/output <- inception_4d/pool_proj
I0403 14:36:44.116513 13452 net.cpp:399] inception_4d/output -> inception_4d/output
I0403 14:36:44.116560 13452 net.cpp:141] Setting up inception_4d/output
I0403 14:36:44.116605 13452 net.cpp:148] Top shape: 24 528 14 14 (2483712)
I0403 14:36:44.116621 13452 net.cpp:156] Memory required for data: 1157244192
I0403 14:36:44.116636 13452 layer_factory.hpp:77] Creating layer inception_4d/output_inception_4d/output_0_split
I0403 14:36:44.116654 13452 net.cpp:91] Creating Layer inception_4d/output_inception_4d/output_0_split
I0403 14:36:44.116670 13452 net.cpp:425] inception_4d/output_inception_4d/output_0_split <- inception_4d/output
I0403 14:36:44.116688 13452 net.cpp:399] inception_4d/output_inception_4d/output_0_split -> inception_4d/output_inception_4d/output_0_split_0
I0403 14:36:44.116710 13452 net.cpp:399] inception_4d/output_inception_4d/output_0_split -> inception_4d/output_inception_4d/output_0_split_1
I0403 14:36:44.116732 13452 net.cpp:399] inception_4d/output_inception_4d/output_0_split -> inception_4d/output_inception_4d/output_0_split_2
I0403 14:36:44.116753 13452 net.cpp:399] inception_4d/output_inception_4d/output_0_split -> inception_4d/output_inception_4d/output_0_split_3
I0403 14:36:44.116773 13452 net.cpp:399] inception_4d/output_inception_4d/output_0_split -> inception_4d/output_inception_4d/output_0_split_4
I0403 14:36:44.116881 13452 net.cpp:141] Setting up inception_4d/output_inception_4d/output_0_split
I0403 14:36:44.116919 13452 net.cpp:148] Top shape: 24 528 14 14 (2483712)
I0403 14:36:44.116935 13452 net.cpp:148] Top shape: 24 528 14 14 (2483712)
I0403 14:36:44.116952 13452 net.cpp:148] Top shape: 24 528 14 14 (2483712)
I0403 14:36:44.116967 13452 net.cpp:148] Top shape: 24 528 14 14 (2483712)
I0403 14:36:44.116983 13452 net.cpp:148] Top shape: 24 528 14 14 (2483712)
I0403 14:36:44.116998 13452 net.cpp:156] Memory required for data: 1206918432
I0403 14:36:44.117012 13452 layer_factory.hpp:77] Creating layer loss2/ave_pool
I0403 14:36:44.117033 13452 net.cpp:91] Creating Layer loss2/ave_pool
I0403 14:36:44.117050 13452 net.cpp:425] loss2/ave_pool <- inception_4d/output_inception_4d/output_0_split_0
I0403 14:36:44.117069 13452 net.cpp:399] loss2/ave_pool -> loss2/ave_pool
I0403 14:36:44.117390 13452 net.cpp:141] Setting up loss2/ave_pool
I0403 14:36:44.117418 13452 net.cpp:148] Top shape: 24 528 4 4 (202752)
I0403 14:36:44.117434 13452 net.cpp:156] Memory required for data: 1207729440
I0403 14:36:44.117449 13452 layer_factory.hpp:77] Creating layer loss2/conv
I0403 14:36:44.117472 13452 net.cpp:91] Creating Layer loss2/conv
I0403 14:36:44.117491 13452 net.cpp:425] loss2/conv <- loss2/ave_pool
I0403 14:36:44.117509 13452 net.cpp:399] loss2/conv -> loss2/conv
I0403 14:36:44.119457 13452 net.cpp:141] Setting up loss2/conv
I0403 14:36:44.119485 13452 net.cpp:148] Top shape: 24 128 4 4 (49152)
I0403 14:36:44.119501 13452 net.cpp:156] Memory required for data: 1207926048
I0403 14:36:44.119520 13452 layer_factory.hpp:77] Creating layer loss2/relu_conv
I0403 14:36:44.119539 13452 net.cpp:91] Creating Layer loss2/relu_conv
I0403 14:36:44.119555 13452 net.cpp:425] loss2/relu_conv <- loss2/conv
I0403 14:36:44.119580 13452 net.cpp:386] loss2/relu_conv -> loss2/conv (in-place)
I0403 14:36:44.119876 13452 net.cpp:141] Setting up loss2/relu_conv
I0403 14:36:44.119904 13452 net.cpp:148] Top shape: 24 128 4 4 (49152)
I0403 14:36:44.119918 13452 net.cpp:156] Memory required for data: 1208122656
I0403 14:36:44.119935 13452 layer_factory.hpp:77] Creating layer loss2/fc
I0403 14:36:44.119953 13452 net.cpp:91] Creating Layer loss2/fc
I0403 14:36:44.119969 13452 net.cpp:425] loss2/fc <- loss2/conv
I0403 14:36:44.119990 13452 net.cpp:399] loss2/fc -> loss2/fc
I0403 14:36:44.138111 13452 net.cpp:141] Setting up loss2/fc
I0403 14:36:44.138164 13452 net.cpp:148] Top shape: 24 1024 (24576)
I0403 14:36:44.138180 13452 net.cpp:156] Memory required for data: 1208220960
I0403 14:36:44.138200 13452 layer_factory.hpp:77] Creating layer loss2/relu_fc
I0403 14:36:44.138221 13452 net.cpp:91] Creating Layer loss2/relu_fc
I0403 14:36:44.138237 13452 net.cpp:425] loss2/relu_fc <- loss2/fc
I0403 14:36:44.138255 13452 net.cpp:386] loss2/relu_fc -> loss2/fc (in-place)
I0403 14:36:44.138607 13452 net.cpp:141] Setting up loss2/relu_fc
I0403 14:36:44.138634 13452 net.cpp:148] Top shape: 24 1024 (24576)
I0403 14:36:44.138650 13452 net.cpp:156] Memory required for data: 1208319264
I0403 14:36:44.138666 13452 layer_factory.hpp:77] Creating layer loss2/drop_fc
I0403 14:36:44.138684 13452 net.cpp:91] Creating Layer loss2/drop_fc
I0403 14:36:44.138700 13452 net.cpp:425] loss2/drop_fc <- loss2/fc
I0403 14:36:44.138716 13452 net.cpp:386] loss2/drop_fc -> loss2/fc (in-place)
I0403 14:36:44.138768 13452 net.cpp:141] Setting up loss2/drop_fc
I0403 14:36:44.138792 13452 net.cpp:148] Top shape: 24 1024 (24576)
I0403 14:36:44.138805 13452 net.cpp:156] Memory required for data: 1208417568
I0403 14:36:44.138819 13452 layer_factory.hpp:77] Creating layer loss2/classifier_plantvillage
I0403 14:36:44.138842 13452 net.cpp:91] Creating Layer loss2/classifier_plantvillage
I0403 14:36:44.138860 13452 net.cpp:425] loss2/classifier_plantvillage <- loss2/fc
I0403 14:36:44.138877 13452 net.cpp:399] loss2/classifier_plantvillage -> loss2/classifier_plantvillage
I0403 14:36:44.139292 13452 net.cpp:141] Setting up loss2/classifier_plantvillage
I0403 14:36:44.139317 13452 net.cpp:148] Top shape: 24 38 (912)
I0403 14:36:44.139331 13452 net.cpp:156] Memory required for data: 1208421216
I0403 14:36:44.139379 13452 layer_factory.hpp:77] Creating layer loss2/classifier_plantvillage_loss2/classifier_plantvillage_0_split
I0403 14:36:44.139400 13452 net.cpp:91] Creating Layer loss2/classifier_plantvillage_loss2/classifier_plantvillage_0_split
I0403 14:36:44.139415 13452 net.cpp:425] loss2/classifier_plantvillage_loss2/classifier_plantvillage_0_split <- loss2/classifier_plantvillage
I0403 14:36:44.139433 13452 net.cpp:399] loss2/classifier_plantvillage_loss2/classifier_plantvillage_0_split -> loss2/classifier_plantvillage_loss2/classifier_plantvillage_0_split_0
I0403 14:36:44.139456 13452 net.cpp:399] loss2/classifier_plantvillage_loss2/classifier_plantvillage_0_split -> loss2/classifier_plantvillage_loss2/classifier_plantvillage_0_split_1
I0403 14:36:44.139477 13452 net.cpp:399] loss2/classifier_plantvillage_loss2/classifier_plantvillage_0_split -> loss2/classifier_plantvillage_loss2/classifier_plantvillage_0_split_2
I0403 14:36:44.139557 13452 net.cpp:141] Setting up loss2/classifier_plantvillage_loss2/classifier_plantvillage_0_split
I0403 14:36:44.139585 13452 net.cpp:148] Top shape: 24 38 (912)
I0403 14:36:44.139600 13452 net.cpp:148] Top shape: 24 38 (912)
I0403 14:36:44.139616 13452 net.cpp:148] Top shape: 24 38 (912)
I0403 14:36:44.139631 13452 net.cpp:156] Memory required for data: 1208432160
I0403 14:36:44.139644 13452 layer_factory.hpp:77] Creating layer inception_4e/1x1
I0403 14:36:44.139667 13452 net.cpp:91] Creating Layer inception_4e/1x1
I0403 14:36:44.139684 13452 net.cpp:425] inception_4e/1x1 <- inception_4d/output_inception_4d/output_0_split_1
I0403 14:36:44.139703 13452 net.cpp:399] inception_4e/1x1 -> inception_4e/1x1
I0403 14:36:44.141571 13452 net.cpp:141] Setting up inception_4e/1x1
I0403 14:36:44.141599 13452 net.cpp:148] Top shape: 24 256 14 14 (1204224)
I0403 14:36:44.141614 13452 net.cpp:156] Memory required for data: 1213249056
I0403 14:36:44.141633 13452 layer_factory.hpp:77] Creating layer inception_4e/relu_1x1
I0403 14:36:44.141652 13452 net.cpp:91] Creating Layer inception_4e/relu_1x1
I0403 14:36:44.141669 13452 net.cpp:425] inception_4e/relu_1x1 <- inception_4e/1x1
I0403 14:36:44.141685 13452 net.cpp:386] inception_4e/relu_1x1 -> inception_4e/1x1 (in-place)
I0403 14:36:44.141980 13452 net.cpp:141] Setting up inception_4e/relu_1x1
I0403 14:36:44.142006 13452 net.cpp:148] Top shape: 24 256 14 14 (1204224)
I0403 14:36:44.142021 13452 net.cpp:156] Memory required for data: 1218065952
I0403 14:36:44.142036 13452 layer_factory.hpp:77] Creating layer inception_4e/3x3_reduce
I0403 14:36:44.142057 13452 net.cpp:91] Creating Layer inception_4e/3x3_reduce
I0403 14:36:44.142074 13452 net.cpp:425] inception_4e/3x3_reduce <- inception_4d/output_inception_4d/output_0_split_2
I0403 14:36:44.142096 13452 net.cpp:399] inception_4e/3x3_reduce -> inception_4e/3x3_reduce
I0403 14:36:44.144256 13452 net.cpp:141] Setting up inception_4e/3x3_reduce
I0403 14:36:44.144285 13452 net.cpp:148] Top shape: 24 160 14 14 (752640)
I0403 14:36:44.144300 13452 net.cpp:156] Memory required for data: 1221076512
I0403 14:36:44.144318 13452 layer_factory.hpp:77] Creating layer inception_4e/relu_3x3_reduce
I0403 14:36:44.144336 13452 net.cpp:91] Creating Layer inception_4e/relu_3x3_reduce
I0403 14:36:44.144352 13452 net.cpp:425] inception_4e/relu_3x3_reduce <- inception_4e/3x3_reduce
I0403 14:36:44.144371 13452 net.cpp:386] inception_4e/relu_3x3_reduce -> inception_4e/3x3_reduce (in-place)
I0403 14:36:44.144554 13452 net.cpp:141] Setting up inception_4e/relu_3x3_reduce
I0403 14:36:44.144589 13452 net.cpp:148] Top shape: 24 160 14 14 (752640)
I0403 14:36:44.144605 13452 net.cpp:156] Memory required for data: 1224087072
I0403 14:36:44.144620 13452 layer_factory.hpp:77] Creating layer inception_4e/3x3
I0403 14:36:44.144641 13452 net.cpp:91] Creating Layer inception_4e/3x3
I0403 14:36:44.144659 13452 net.cpp:425] inception_4e/3x3 <- inception_4e/3x3_reduce
I0403 14:36:44.144678 13452 net.cpp:399] inception_4e/3x3 -> inception_4e/3x3
I0403 14:36:44.149672 13452 net.cpp:141] Setting up inception_4e/3x3
I0403 14:36:44.149711 13452 net.cpp:148] Top shape: 24 320 14 14 (1505280)
I0403 14:36:44.149727 13452 net.cpp:156] Memory required for data: 1230108192
I0403 14:36:44.149744 13452 layer_factory.hpp:77] Creating layer inception_4e/relu_3x3
I0403 14:36:44.149765 13452 net.cpp:91] Creating Layer inception_4e/relu_3x3
I0403 14:36:44.149781 13452 net.cpp:425] inception_4e/relu_3x3 <- inception_4e/3x3
I0403 14:36:44.149798 13452 net.cpp:386] inception_4e/relu_3x3 -> inception_4e/3x3 (in-place)
I0403 14:36:44.150091 13452 net.cpp:141] Setting up inception_4e/relu_3x3
I0403 14:36:44.150118 13452 net.cpp:148] Top shape: 24 320 14 14 (1505280)
I0403 14:36:44.150135 13452 net.cpp:156] Memory required for data: 1236129312
I0403 14:36:44.150148 13452 layer_factory.hpp:77] Creating layer inception_4e/5x5_reduce
I0403 14:36:44.150168 13452 net.cpp:91] Creating Layer inception_4e/5x5_reduce
I0403 14:36:44.150184 13452 net.cpp:425] inception_4e/5x5_reduce <- inception_4d/output_inception_4d/output_0_split_3
I0403 14:36:44.150205 13452 net.cpp:399] inception_4e/5x5_reduce -> inception_4e/5x5_reduce
I0403 14:36:44.151258 13452 net.cpp:141] Setting up inception_4e/5x5_reduce
I0403 14:36:44.151285 13452 net.cpp:148] Top shape: 24 32 14 14 (150528)
I0403 14:36:44.151300 13452 net.cpp:156] Memory required for data: 1236731424
I0403 14:36:44.151317 13452 layer_factory.hpp:77] Creating layer inception_4e/relu_5x5_reduce
I0403 14:36:44.151335 13452 net.cpp:91] Creating Layer inception_4e/relu_5x5_reduce
I0403 14:36:44.151353 13452 net.cpp:425] inception_4e/relu_5x5_reduce <- inception_4e/5x5_reduce
I0403 14:36:44.151370 13452 net.cpp:386] inception_4e/relu_5x5_reduce -> inception_4e/5x5_reduce (in-place)
I0403 14:36:44.151664 13452 net.cpp:141] Setting up inception_4e/relu_5x5_reduce
I0403 14:36:44.151689 13452 net.cpp:148] Top shape: 24 32 14 14 (150528)
I0403 14:36:44.151703 13452 net.cpp:156] Memory required for data: 1237333536
I0403 14:36:44.151717 13452 layer_factory.hpp:77] Creating layer inception_4e/5x5
I0403 14:36:44.151757 13452 net.cpp:91] Creating Layer inception_4e/5x5
I0403 14:36:44.151775 13452 net.cpp:425] inception_4e/5x5 <- inception_4e/5x5_reduce
I0403 14:36:44.151793 13452 net.cpp:399] inception_4e/5x5 -> inception_4e/5x5
I0403 14:36:44.153596 13452 net.cpp:141] Setting up inception_4e/5x5
I0403 14:36:44.153625 13452 net.cpp:148] Top shape: 24 128 14 14 (602112)
I0403 14:36:44.153642 13452 net.cpp:156] Memory required for data: 1239741984
I0403 14:36:44.153661 13452 layer_factory.hpp:77] Creating layer inception_4e/relu_5x5
I0403 14:36:44.153678 13452 net.cpp:91] Creating Layer inception_4e/relu_5x5
I0403 14:36:44.153693 13452 net.cpp:425] inception_4e/relu_5x5 <- inception_4e/5x5
I0403 14:36:44.153712 13452 net.cpp:386] inception_4e/relu_5x5 -> inception_4e/5x5 (in-place)
I0403 14:36:44.153900 13452 net.cpp:141] Setting up inception_4e/relu_5x5
I0403 14:36:44.153924 13452 net.cpp:148] Top shape: 24 128 14 14 (602112)
I0403 14:36:44.153939 13452 net.cpp:156] Memory required for data: 1242150432
I0403 14:36:44.153952 13452 layer_factory.hpp:77] Creating layer inception_4e/pool
I0403 14:36:44.153970 13452 net.cpp:91] Creating Layer inception_4e/pool
I0403 14:36:44.153985 13452 net.cpp:425] inception_4e/pool <- inception_4d/output_inception_4d/output_0_split_4
I0403 14:36:44.154003 13452 net.cpp:399] inception_4e/pool -> inception_4e/pool
I0403 14:36:44.154073 13452 net.cpp:141] Setting up inception_4e/pool
I0403 14:36:44.154095 13452 net.cpp:148] Top shape: 24 528 14 14 (2483712)
I0403 14:36:44.154109 13452 net.cpp:156] Memory required for data: 1252085280
I0403 14:36:44.154124 13452 layer_factory.hpp:77] Creating layer inception_4e/pool_proj
I0403 14:36:44.154145 13452 net.cpp:91] Creating Layer inception_4e/pool_proj
I0403 14:36:44.154162 13452 net.cpp:425] inception_4e/pool_proj <- inception_4e/pool
I0403 14:36:44.154180 13452 net.cpp:399] inception_4e/pool_proj -> inception_4e/pool_proj
I0403 14:36:44.155653 13452 net.cpp:141] Setting up inception_4e/pool_proj
I0403 14:36:44.155683 13452 net.cpp:148] Top shape: 24 128 14 14 (602112)
I0403 14:36:44.155711 13452 net.cpp:156] Memory required for data: 1254493728
I0403 14:36:44.155730 13452 layer_factory.hpp:77] Creating layer inception_4e/relu_pool_proj
I0403 14:36:44.155747 13452 net.cpp:91] Creating Layer inception_4e/relu_pool_proj
I0403 14:36:44.155763 13452 net.cpp:425] inception_4e/relu_pool_proj <- inception_4e/pool_proj
I0403 14:36:44.155781 13452 net.cpp:386] inception_4e/relu_pool_proj -> inception_4e/pool_proj (in-place)
I0403 14:36:44.156066 13452 net.cpp:141] Setting up inception_4e/relu_pool_proj
I0403 14:36:44.156093 13452 net.cpp:148] Top shape: 24 128 14 14 (602112)
I0403 14:36:44.156108 13452 net.cpp:156] Memory required for data: 1256902176
I0403 14:36:44.156122 13452 layer_factory.hpp:77] Creating layer inception_4e/output
I0403 14:36:44.156139 13452 net.cpp:91] Creating Layer inception_4e/output
I0403 14:36:44.156154 13452 net.cpp:425] inception_4e/output <- inception_4e/1x1
I0403 14:36:44.156170 13452 net.cpp:425] inception_4e/output <- inception_4e/3x3
I0403 14:36:44.156184 13452 net.cpp:425] inception_4e/output <- inception_4e/5x5
I0403 14:36:44.156199 13452 net.cpp:425] inception_4e/output <- inception_4e/pool_proj
I0403 14:36:44.156214 13452 net.cpp:399] inception_4e/output -> inception_4e/output
I0403 14:36:44.156263 13452 net.cpp:141] Setting up inception_4e/output
I0403 14:36:44.156286 13452 net.cpp:148] Top shape: 24 832 14 14 (3913728)
I0403 14:36:44.156301 13452 net.cpp:156] Memory required for data: 1272557088
I0403 14:36:44.156314 13452 layer_factory.hpp:77] Creating layer pool4/3x3_s2
I0403 14:36:44.156333 13452 net.cpp:91] Creating Layer pool4/3x3_s2
I0403 14:36:44.156349 13452 net.cpp:425] pool4/3x3_s2 <- inception_4e/output
I0403 14:36:44.156366 13452 net.cpp:399] pool4/3x3_s2 -> pool4/3x3_s2
I0403 14:36:44.156433 13452 net.cpp:141] Setting up pool4/3x3_s2
I0403 14:36:44.156455 13452 net.cpp:148] Top shape: 24 832 7 7 (978432)
I0403 14:36:44.156471 13452 net.cpp:156] Memory required for data: 1276470816
I0403 14:36:44.156484 13452 layer_factory.hpp:77] Creating layer pool4/3x3_s2_pool4/3x3_s2_0_split
I0403 14:36:44.156500 13452 net.cpp:91] Creating Layer pool4/3x3_s2_pool4/3x3_s2_0_split
I0403 14:36:44.156515 13452 net.cpp:425] pool4/3x3_s2_pool4/3x3_s2_0_split <- pool4/3x3_s2
I0403 14:36:44.156535 13452 net.cpp:399] pool4/3x3_s2_pool4/3x3_s2_0_split -> pool4/3x3_s2_pool4/3x3_s2_0_split_0
I0403 14:36:44.156556 13452 net.cpp:399] pool4/3x3_s2_pool4/3x3_s2_0_split -> pool4/3x3_s2_pool4/3x3_s2_0_split_1
I0403 14:36:44.156580 13452 net.cpp:399] pool4/3x3_s2_pool4/3x3_s2_0_split -> pool4/3x3_s2_pool4/3x3_s2_0_split_2
I0403 14:36:44.156600 13452 net.cpp:399] pool4/3x3_s2_pool4/3x3_s2_0_split -> pool4/3x3_s2_pool4/3x3_s2_0_split_3
I0403 14:36:44.156687 13452 net.cpp:141] Setting up pool4/3x3_s2_pool4/3x3_s2_0_split
I0403 14:36:44.156710 13452 net.cpp:148] Top shape: 24 832 7 7 (978432)
I0403 14:36:44.156728 13452 net.cpp:148] Top shape: 24 832 7 7 (978432)
I0403 14:36:44.156743 13452 net.cpp:148] Top shape: 24 832 7 7 (978432)
I0403 14:36:44.156757 13452 net.cpp:148] Top shape: 24 832 7 7 (978432)
I0403 14:36:44.156770 13452 net.cpp:156] Memory required for data: 1292125728
I0403 14:36:44.156785 13452 layer_factory.hpp:77] Creating layer inception_5a/1x1
I0403 14:36:44.156805 13452 net.cpp:91] Creating Layer inception_5a/1x1
I0403 14:36:44.156821 13452 net.cpp:425] inception_5a/1x1 <- pool4/3x3_s2_pool4/3x3_s2_0_split_0
I0403 14:36:44.156839 13452 net.cpp:399] inception_5a/1x1 -> inception_5a/1x1
I0403 14:36:44.159620 13452 net.cpp:141] Setting up inception_5a/1x1
I0403 14:36:44.159646 13452 net.cpp:148] Top shape: 24 256 7 7 (301056)
I0403 14:36:44.159662 13452 net.cpp:156] Memory required for data: 1293329952
I0403 14:36:44.159679 13452 layer_factory.hpp:77] Creating layer inception_5a/relu_1x1
I0403 14:36:44.159698 13452 net.cpp:91] Creating Layer inception_5a/relu_1x1
I0403 14:36:44.159713 13452 net.cpp:425] inception_5a/relu_1x1 <- inception_5a/1x1
I0403 14:36:44.159731 13452 net.cpp:386] inception_5a/relu_1x1 -> inception_5a/1x1 (in-place)
I0403 14:36:44.160038 13452 net.cpp:141] Setting up inception_5a/relu_1x1
I0403 14:36:44.160064 13452 net.cpp:148] Top shape: 24 256 7 7 (301056)
I0403 14:36:44.160079 13452 net.cpp:156] Memory required for data: 1294534176
I0403 14:36:44.160094 13452 layer_factory.hpp:77] Creating layer inception_5a/3x3_reduce
I0403 14:36:44.160114 13452 net.cpp:91] Creating Layer inception_5a/3x3_reduce
I0403 14:36:44.160131 13452 net.cpp:425] inception_5a/3x3_reduce <- pool4/3x3_s2_pool4/3x3_s2_0_split_1
I0403 14:36:44.160151 13452 net.cpp:399] inception_5a/3x3_reduce -> inception_5a/3x3_reduce
I0403 14:36:44.162591 13452 net.cpp:141] Setting up inception_5a/3x3_reduce
I0403 14:36:44.162619 13452 net.cpp:148] Top shape: 24 160 7 7 (188160)
I0403 14:36:44.162636 13452 net.cpp:156] Memory required for data: 1295286816
I0403 14:36:44.162653 13452 layer_factory.hpp:77] Creating layer inception_5a/relu_3x3_reduce
I0403 14:36:44.162673 13452 net.cpp:91] Creating Layer inception_5a/relu_3x3_reduce
I0403 14:36:44.162690 13452 net.cpp:425] inception_5a/relu_3x3_reduce <- inception_5a/3x3_reduce
I0403 14:36:44.162708 13452 net.cpp:386] inception_5a/relu_3x3_reduce -> inception_5a/3x3_reduce (in-place)
I0403 14:36:44.162894 13452 net.cpp:141] Setting up inception_5a/relu_3x3_reduce
I0403 14:36:44.162919 13452 net.cpp:148] Top shape: 24 160 7 7 (188160)
I0403 14:36:44.162933 13452 net.cpp:156] Memory required for data: 1296039456
I0403 14:36:44.162948 13452 layer_factory.hpp:77] Creating layer inception_5a/3x3
I0403 14:36:44.162971 13452 net.cpp:91] Creating Layer inception_5a/3x3
I0403 14:36:44.162988 13452 net.cpp:425] inception_5a/3x3 <- inception_5a/3x3_reduce
I0403 14:36:44.163008 13452 net.cpp:399] inception_5a/3x3 -> inception_5a/3x3
I0403 14:36:44.167945 13452 net.cpp:141] Setting up inception_5a/3x3
I0403 14:36:44.167975 13452 net.cpp:148] Top shape: 24 320 7 7 (376320)
I0403 14:36:44.167991 13452 net.cpp:156] Memory required for data: 1297544736
I0403 14:36:44.168010 13452 layer_factory.hpp:77] Creating layer inception_5a/relu_3x3
I0403 14:36:44.168028 13452 net.cpp:91] Creating Layer inception_5a/relu_3x3
I0403 14:36:44.168043 13452 net.cpp:425] inception_5a/relu_3x3 <- inception_5a/3x3
I0403 14:36:44.168061 13452 net.cpp:386] inception_5a/relu_3x3 -> inception_5a/3x3 (in-place)
I0403 14:36:44.168344 13452 net.cpp:141] Setting up inception_5a/relu_3x3
I0403 14:36:44.168371 13452 net.cpp:148] Top shape: 24 320 7 7 (376320)
I0403 14:36:44.168386 13452 net.cpp:156] Memory required for data: 1299050016
I0403 14:36:44.168401 13452 layer_factory.hpp:77] Creating layer inception_5a/5x5_reduce
I0403 14:36:44.168422 13452 net.cpp:91] Creating Layer inception_5a/5x5_reduce
I0403 14:36:44.168439 13452 net.cpp:425] inception_5a/5x5_reduce <- pool4/3x3_s2_pool4/3x3_s2_0_split_2
I0403 14:36:44.168457 13452 net.cpp:399] inception_5a/5x5_reduce -> inception_5a/5x5_reduce
I0403 14:36:44.169605 13452 net.cpp:141] Setting up inception_5a/5x5_reduce
I0403 14:36:44.169633 13452 net.cpp:148] Top shape: 24 32 7 7 (37632)
I0403 14:36:44.169648 13452 net.cpp:156] Memory required for data: 1299200544
I0403 14:36:44.169666 13452 layer_factory.hpp:77] Creating layer inception_5a/relu_5x5_reduce
I0403 14:36:44.169683 13452 net.cpp:91] Creating Layer inception_5a/relu_5x5_reduce
I0403 14:36:44.169698 13452 net.cpp:425] inception_5a/relu_5x5_reduce <- inception_5a/5x5_reduce
I0403 14:36:44.169716 13452 net.cpp:386] inception_5a/relu_5x5_reduce -> inception_5a/5x5_reduce (in-place)
I0403 14:36:44.170008 13452 net.cpp:141] Setting up inception_5a/relu_5x5_reduce
I0403 14:36:44.170033 13452 net.cpp:148] Top shape: 24 32 7 7 (37632)
I0403 14:36:44.170048 13452 net.cpp:156] Memory required for data: 1299351072
I0403 14:36:44.170063 13452 layer_factory.hpp:77] Creating layer inception_5a/5x5
I0403 14:36:44.170083 13452 net.cpp:91] Creating Layer inception_5a/5x5
I0403 14:36:44.170100 13452 net.cpp:425] inception_5a/5x5 <- inception_5a/5x5_reduce
I0403 14:36:44.170120 13452 net.cpp:399] inception_5a/5x5 -> inception_5a/5x5
I0403 14:36:44.171798 13452 net.cpp:141] Setting up inception_5a/5x5
I0403 14:36:44.171841 13452 net.cpp:148] Top shape: 24 128 7 7 (150528)
I0403 14:36:44.171859 13452 net.cpp:156] Memory required for data: 1299953184
I0403 14:36:44.171875 13452 layer_factory.hpp:77] Creating layer inception_5a/relu_5x5
I0403 14:36:44.171892 13452 net.cpp:91] Creating Layer inception_5a/relu_5x5
I0403 14:36:44.171908 13452 net.cpp:425] inception_5a/relu_5x5 <- inception_5a/5x5
I0403 14:36:44.171926 13452 net.cpp:386] inception_5a/relu_5x5 -> inception_5a/5x5 (in-place)
I0403 14:36:44.172111 13452 net.cpp:141] Setting up inception_5a/relu_5x5
I0403 14:36:44.172134 13452 net.cpp:148] Top shape: 24 128 7 7 (150528)
I0403 14:36:44.172147 13452 net.cpp:156] Memory required for data: 1300555296
I0403 14:36:44.172161 13452 layer_factory.hpp:77] Creating layer inception_5a/pool
I0403 14:36:44.172178 13452 net.cpp:91] Creating Layer inception_5a/pool
I0403 14:36:44.172194 13452 net.cpp:425] inception_5a/pool <- pool4/3x3_s2_pool4/3x3_s2_0_split_3
I0403 14:36:44.172212 13452 net.cpp:399] inception_5a/pool -> inception_5a/pool
I0403 14:36:44.172281 13452 net.cpp:141] Setting up inception_5a/pool
I0403 14:36:44.172303 13452 net.cpp:148] Top shape: 24 832 7 7 (978432)
I0403 14:36:44.172317 13452 net.cpp:156] Memory required for data: 1304469024
I0403 14:36:44.172330 13452 layer_factory.hpp:77] Creating layer inception_5a/pool_proj
I0403 14:36:44.172353 13452 net.cpp:91] Creating Layer inception_5a/pool_proj
I0403 14:36:44.172369 13452 net.cpp:425] inception_5a/pool_proj <- inception_5a/pool
I0403 14:36:44.172387 13452 net.cpp:399] inception_5a/pool_proj -> inception_5a/pool_proj
I0403 14:36:44.174633 13452 net.cpp:141] Setting up inception_5a/pool_proj
I0403 14:36:44.174662 13452 net.cpp:148] Top shape: 24 128 7 7 (150528)
I0403 14:36:44.174679 13452 net.cpp:156] Memory required for data: 1305071136
I0403 14:36:44.174696 13452 layer_factory.hpp:77] Creating layer inception_5a/relu_pool_proj
I0403 14:36:44.174715 13452 net.cpp:91] Creating Layer inception_5a/relu_pool_proj
I0403 14:36:44.174731 13452 net.cpp:425] inception_5a/relu_pool_proj <- inception_5a/pool_proj
I0403 14:36:44.174746 13452 net.cpp:386] inception_5a/relu_pool_proj -> inception_5a/pool_proj (in-place)
I0403 14:36:44.175040 13452 net.cpp:141] Setting up inception_5a/relu_pool_proj
I0403 14:36:44.175066 13452 net.cpp:148] Top shape: 24 128 7 7 (150528)
I0403 14:36:44.175082 13452 net.cpp:156] Memory required for data: 1305673248
I0403 14:36:44.175096 13452 layer_factory.hpp:77] Creating layer inception_5a/output
I0403 14:36:44.175113 13452 net.cpp:91] Creating Layer inception_5a/output
I0403 14:36:44.175128 13452 net.cpp:425] inception_5a/output <- inception_5a/1x1
I0403 14:36:44.175143 13452 net.cpp:425] inception_5a/output <- inception_5a/3x3
I0403 14:36:44.175158 13452 net.cpp:425] inception_5a/output <- inception_5a/5x5
I0403 14:36:44.175173 13452 net.cpp:425] inception_5a/output <- inception_5a/pool_proj
I0403 14:36:44.175189 13452 net.cpp:399] inception_5a/output -> inception_5a/output
I0403 14:36:44.175238 13452 net.cpp:141] Setting up inception_5a/output
I0403 14:36:44.175263 13452 net.cpp:148] Top shape: 24 832 7 7 (978432)
I0403 14:36:44.175277 13452 net.cpp:156] Memory required for data: 1309586976
I0403 14:36:44.175292 13452 layer_factory.hpp:77] Creating layer inception_5a/output_inception_5a/output_0_split
I0403 14:36:44.175310 13452 net.cpp:91] Creating Layer inception_5a/output_inception_5a/output_0_split
I0403 14:36:44.175325 13452 net.cpp:425] inception_5a/output_inception_5a/output_0_split <- inception_5a/output
I0403 14:36:44.175343 13452 net.cpp:399] inception_5a/output_inception_5a/output_0_split -> inception_5a/output_inception_5a/output_0_split_0
I0403 14:36:44.175361 13452 net.cpp:399] inception_5a/output_inception_5a/output_0_split -> inception_5a/output_inception_5a/output_0_split_1
I0403 14:36:44.175380 13452 net.cpp:399] inception_5a/output_inception_5a/output_0_split -> inception_5a/output_inception_5a/output_0_split_2
I0403 14:36:44.175400 13452 net.cpp:399] inception_5a/output_inception_5a/output_0_split -> inception_5a/output_inception_5a/output_0_split_3
I0403 14:36:44.175509 13452 net.cpp:141] Setting up inception_5a/output_inception_5a/output_0_split
I0403 14:36:44.175532 13452 net.cpp:148] Top shape: 24 832 7 7 (978432)
I0403 14:36:44.175549 13452 net.cpp:148] Top shape: 24 832 7 7 (978432)
I0403 14:36:44.175565 13452 net.cpp:148] Top shape: 24 832 7 7 (978432)
I0403 14:36:44.175598 13452 net.cpp:148] Top shape: 24 832 7 7 (978432)
I0403 14:36:44.175613 13452 net.cpp:156] Memory required for data: 1325241888
I0403 14:36:44.175627 13452 layer_factory.hpp:77] Creating layer inception_5b/1x1
I0403 14:36:44.175649 13452 net.cpp:91] Creating Layer inception_5b/1x1
I0403 14:36:44.175668 13452 net.cpp:425] inception_5b/1x1 <- inception_5a/output_inception_5a/output_0_split_0
I0403 14:36:44.175688 13452 net.cpp:399] inception_5b/1x1 -> inception_5b/1x1
I0403 14:36:44.179502 13452 net.cpp:141] Setting up inception_5b/1x1
I0403 14:36:44.179530 13452 net.cpp:148] Top shape: 24 384 7 7 (451584)
I0403 14:36:44.179546 13452 net.cpp:156] Memory required for data: 1327048224
I0403 14:36:44.179564 13452 layer_factory.hpp:77] Creating layer inception_5b/relu_1x1
I0403 14:36:44.179589 13452 net.cpp:91] Creating Layer inception_5b/relu_1x1
I0403 14:36:44.179607 13452 net.cpp:425] inception_5b/relu_1x1 <- inception_5b/1x1
I0403 14:36:44.179623 13452 net.cpp:386] inception_5b/relu_1x1 -> inception_5b/1x1 (in-place)
I0403 14:36:44.179929 13452 net.cpp:141] Setting up inception_5b/relu_1x1
I0403 14:36:44.179955 13452 net.cpp:148] Top shape: 24 384 7 7 (451584)
I0403 14:36:44.179970 13452 net.cpp:156] Memory required for data: 1328854560
I0403 14:36:44.179985 13452 layer_factory.hpp:77] Creating layer inception_5b/3x3_reduce
I0403 14:36:44.180008 13452 net.cpp:91] Creating Layer inception_5b/3x3_reduce
I0403 14:36:44.180027 13452 net.cpp:425] inception_5b/3x3_reduce <- inception_5a/output_inception_5a/output_0_split_1
I0403 14:36:44.180045 13452 net.cpp:399] inception_5b/3x3_reduce -> inception_5b/3x3_reduce
I0403 14:36:44.182721 13452 net.cpp:141] Setting up inception_5b/3x3_reduce
I0403 14:36:44.182754 13452 net.cpp:148] Top shape: 24 192 7 7 (225792)
I0403 14:36:44.182770 13452 net.cpp:156] Memory required for data: 1329757728
I0403 14:36:44.182788 13452 layer_factory.hpp:77] Creating layer inception_5b/relu_3x3_reduce
I0403 14:36:44.182806 13452 net.cpp:91] Creating Layer inception_5b/relu_3x3_reduce
I0403 14:36:44.182822 13452 net.cpp:425] inception_5b/relu_3x3_reduce <- inception_5b/3x3_reduce
I0403 14:36:44.182838 13452 net.cpp:386] inception_5b/relu_3x3_reduce -> inception_5b/3x3_reduce (in-place)
I0403 14:36:44.183028 13452 net.cpp:141] Setting up inception_5b/relu_3x3_reduce
I0403 14:36:44.183055 13452 net.cpp:148] Top shape: 24 192 7 7 (225792)
I0403 14:36:44.183071 13452 net.cpp:156] Memory required for data: 1330660896
I0403 14:36:44.183086 13452 layer_factory.hpp:77] Creating layer inception_5b/3x3
I0403 14:36:44.183109 13452 net.cpp:91] Creating Layer inception_5b/3x3
I0403 14:36:44.183125 13452 net.cpp:425] inception_5b/3x3 <- inception_5b/3x3_reduce
I0403 14:36:44.183146 13452 net.cpp:399] inception_5b/3x3 -> inception_5b/3x3
I0403 14:36:44.189882 13452 net.cpp:141] Setting up inception_5b/3x3
I0403 14:36:44.189914 13452 net.cpp:148] Top shape: 24 384 7 7 (451584)
I0403 14:36:44.189930 13452 net.cpp:156] Memory required for data: 1332467232
I0403 14:36:44.189949 13452 layer_factory.hpp:77] Creating layer inception_5b/relu_3x3
I0403 14:36:44.189966 13452 net.cpp:91] Creating Layer inception_5b/relu_3x3
I0403 14:36:44.189981 13452 net.cpp:425] inception_5b/relu_3x3 <- inception_5b/3x3
I0403 14:36:44.189998 13452 net.cpp:386] inception_5b/relu_3x3 -> inception_5b/3x3 (in-place)
I0403 14:36:44.190301 13452 net.cpp:141] Setting up inception_5b/relu_3x3
I0403 14:36:44.190330 13452 net.cpp:148] Top shape: 24 384 7 7 (451584)
I0403 14:36:44.190346 13452 net.cpp:156] Memory required for data: 1334273568
I0403 14:36:44.190359 13452 layer_factory.hpp:77] Creating layer inception_5b/5x5_reduce
I0403 14:36:44.190399 13452 net.cpp:91] Creating Layer inception_5b/5x5_reduce
I0403 14:36:44.190419 13452 net.cpp:425] inception_5b/5x5_reduce <- inception_5a/output_inception_5a/output_0_split_2
I0403 14:36:44.190438 13452 net.cpp:399] inception_5b/5x5_reduce -> inception_5b/5x5_reduce
I0403 14:36:44.191725 13452 net.cpp:141] Setting up inception_5b/5x5_reduce
I0403 14:36:44.191753 13452 net.cpp:148] Top shape: 24 48 7 7 (56448)
I0403 14:36:44.191769 13452 net.cpp:156] Memory required for data: 1334499360
I0403 14:36:44.191788 13452 layer_factory.hpp:77] Creating layer inception_5b/relu_5x5_reduce
I0403 14:36:44.191807 13452 net.cpp:91] Creating Layer inception_5b/relu_5x5_reduce
I0403 14:36:44.191823 13452 net.cpp:425] inception_5b/relu_5x5_reduce <- inception_5b/5x5_reduce
I0403 14:36:44.191839 13452 net.cpp:386] inception_5b/relu_5x5_reduce -> inception_5b/5x5_reduce (in-place)
I0403 14:36:44.192221 13452 net.cpp:141] Setting up inception_5b/relu_5x5_reduce
I0403 14:36:44.192247 13452 net.cpp:148] Top shape: 24 48 7 7 (56448)
I0403 14:36:44.192262 13452 net.cpp:156] Memory required for data: 1334725152
I0403 14:36:44.192277 13452 layer_factory.hpp:77] Creating layer inception_5b/5x5
I0403 14:36:44.192298 13452 net.cpp:91] Creating Layer inception_5b/5x5
I0403 14:36:44.192315 13452 net.cpp:425] inception_5b/5x5 <- inception_5b/5x5_reduce
I0403 14:36:44.192334 13452 net.cpp:399] inception_5b/5x5 -> inception_5b/5x5
I0403 14:36:44.194375 13452 net.cpp:141] Setting up inception_5b/5x5
I0403 14:36:44.194402 13452 net.cpp:148] Top shape: 24 128 7 7 (150528)
I0403 14:36:44.194417 13452 net.cpp:156] Memory required for data: 1335327264
I0403 14:36:44.194434 13452 layer_factory.hpp:77] Creating layer inception_5b/relu_5x5
I0403 14:36:44.194453 13452 net.cpp:91] Creating Layer inception_5b/relu_5x5
I0403 14:36:44.194468 13452 net.cpp:425] inception_5b/relu_5x5 <- inception_5b/5x5
I0403 14:36:44.194486 13452 net.cpp:386] inception_5b/relu_5x5 -> inception_5b/5x5 (in-place)
I0403 14:36:44.194695 13452 net.cpp:141] Setting up inception_5b/relu_5x5
I0403 14:36:44.194720 13452 net.cpp:148] Top shape: 24 128 7 7 (150528)
I0403 14:36:44.194733 13452 net.cpp:156] Memory required for data: 1335929376
I0403 14:36:44.194747 13452 layer_factory.hpp:77] Creating layer inception_5b/pool
I0403 14:36:44.194767 13452 net.cpp:91] Creating Layer inception_5b/pool
I0403 14:36:44.194784 13452 net.cpp:425] inception_5b/pool <- inception_5a/output_inception_5a/output_0_split_3
I0403 14:36:44.194802 13452 net.cpp:399] inception_5b/pool -> inception_5b/pool
I0403 14:36:44.194872 13452 net.cpp:141] Setting up inception_5b/pool
I0403 14:36:44.194895 13452 net.cpp:148] Top shape: 24 832 7 7 (978432)
I0403 14:36:44.194910 13452 net.cpp:156] Memory required for data: 1339843104
I0403 14:36:44.194922 13452 layer_factory.hpp:77] Creating layer inception_5b/pool_proj
I0403 14:36:44.194944 13452 net.cpp:91] Creating Layer inception_5b/pool_proj
I0403 14:36:44.194962 13452 net.cpp:425] inception_5b/pool_proj <- inception_5b/pool
I0403 14:36:44.194982 13452 net.cpp:399] inception_5b/pool_proj -> inception_5b/pool_proj
I0403 14:36:44.197268 13452 net.cpp:141] Setting up inception_5b/pool_proj
I0403 14:36:44.197298 13452 net.cpp:148] Top shape: 24 128 7 7 (150528)
I0403 14:36:44.197314 13452 net.cpp:156] Memory required for data: 1340445216
I0403 14:36:44.197331 13452 layer_factory.hpp:77] Creating layer inception_5b/relu_pool_proj
I0403 14:36:44.197348 13452 net.cpp:91] Creating Layer inception_5b/relu_pool_proj
I0403 14:36:44.197370 13452 net.cpp:425] inception_5b/relu_pool_proj <- inception_5b/pool_proj
I0403 14:36:44.197391 13452 net.cpp:386] inception_5b/relu_pool_proj -> inception_5b/pool_proj (in-place)
I0403 14:36:44.197687 13452 net.cpp:141] Setting up inception_5b/relu_pool_proj
I0403 14:36:44.197715 13452 net.cpp:148] Top shape: 24 128 7 7 (150528)
I0403 14:36:44.197731 13452 net.cpp:156] Memory required for data: 1341047328
I0403 14:36:44.197746 13452 layer_factory.hpp:77] Creating layer inception_5b/output
I0403 14:36:44.197762 13452 net.cpp:91] Creating Layer inception_5b/output
I0403 14:36:44.197793 13452 net.cpp:425] inception_5b/output <- inception_5b/1x1
I0403 14:36:44.197811 13452 net.cpp:425] inception_5b/output <- inception_5b/3x3
I0403 14:36:44.197829 13452 net.cpp:425] inception_5b/output <- inception_5b/5x5
I0403 14:36:44.197849 13452 net.cpp:425] inception_5b/output <- inception_5b/pool_proj
I0403 14:36:44.197873 13452 net.cpp:399] inception_5b/output -> inception_5b/output
I0403 14:36:44.197931 13452 net.cpp:141] Setting up inception_5b/output
I0403 14:36:44.197955 13452 net.cpp:148] Top shape: 24 1024 7 7 (1204224)
I0403 14:36:44.197970 13452 net.cpp:156] Memory required for data: 1345864224
I0403 14:36:44.197983 13452 layer_factory.hpp:77] Creating layer pool5/7x7_s1
I0403 14:36:44.198004 13452 net.cpp:91] Creating Layer pool5/7x7_s1
I0403 14:36:44.198019 13452 net.cpp:425] pool5/7x7_s1 <- inception_5b/output
I0403 14:36:44.198036 13452 net.cpp:399] pool5/7x7_s1 -> pool5/7x7_s1
I0403 14:36:44.198256 13452 net.cpp:141] Setting up pool5/7x7_s1
I0403 14:36:44.198284 13452 net.cpp:148] Top shape: 24 1024 1 1 (24576)
I0403 14:36:44.198299 13452 net.cpp:156] Memory required for data: 1345962528
I0403 14:36:44.198314 13452 layer_factory.hpp:77] Creating layer pool5/drop_7x7_s1
I0403 14:36:44.198333 13452 net.cpp:91] Creating Layer pool5/drop_7x7_s1
I0403 14:36:44.198348 13452 net.cpp:425] pool5/drop_7x7_s1 <- pool5/7x7_s1
I0403 14:36:44.198367 13452 net.cpp:386] pool5/drop_7x7_s1 -> pool5/7x7_s1 (in-place)
I0403 14:36:44.198416 13452 net.cpp:141] Setting up pool5/drop_7x7_s1
I0403 14:36:44.198439 13452 net.cpp:148] Top shape: 24 1024 1 1 (24576)
I0403 14:36:44.198454 13452 net.cpp:156] Memory required for data: 1346060832
I0403 14:36:44.198469 13452 layer_factory.hpp:77] Creating layer loss3/classifier_plantvillage
I0403 14:36:44.198490 13452 net.cpp:91] Creating Layer loss3/classifier_plantvillage
I0403 14:36:44.198506 13452 net.cpp:425] loss3/classifier_plantvillage <- pool5/7x7_s1
I0403 14:36:44.198528 13452 net.cpp:399] loss3/classifier_plantvillage -> loss3/classifier_plantvillage
I0403 14:36:44.198971 13452 net.cpp:141] Setting up loss3/classifier_plantvillage
I0403 14:36:44.198995 13452 net.cpp:148] Top shape: 24 38 (912)
I0403 14:36:44.199010 13452 net.cpp:156] Memory required for data: 1346064480
I0403 14:36:44.199028 13452 layer_factory.hpp:77] Creating layer loss3/classifier_plantvillage_loss3/classifier_plantvillage_0_split
I0403 14:36:44.199048 13452 net.cpp:91] Creating Layer loss3/classifier_plantvillage_loss3/classifier_plantvillage_0_split
I0403 14:36:44.199064 13452 net.cpp:425] loss3/classifier_plantvillage_loss3/classifier_plantvillage_0_split <- loss3/classifier_plantvillage
I0403 14:36:44.199081 13452 net.cpp:399] loss3/classifier_plantvillage_loss3/classifier_plantvillage_0_split -> loss3/classifier_plantvillage_loss3/classifier_plantvillage_0_split_0
I0403 14:36:44.199100 13452 net.cpp:399] loss3/classifier_plantvillage_loss3/classifier_plantvillage_0_split -> loss3/classifier_plantvillage_loss3/classifier_plantvillage_0_split_1
I0403 14:36:44.199120 13452 net.cpp:399] loss3/classifier_plantvillage_loss3/classifier_plantvillage_0_split -> loss3/classifier_plantvillage_loss3/classifier_plantvillage_0_split_2
I0403 14:36:44.199139 13452 net.cpp:399] loss3/classifier_plantvillage_loss3/classifier_plantvillage_0_split -> loss3/classifier_plantvillage_loss3/classifier_plantvillage_0_split_3
I0403 14:36:44.199240 13452 net.cpp:141] Setting up loss3/classifier_plantvillage_loss3/classifier_plantvillage_0_split
I0403 14:36:44.199264 13452 net.cpp:148] Top shape: 24 38 (912)
I0403 14:36:44.199280 13452 net.cpp:148] Top shape: 24 38 (912)
I0403 14:36:44.199295 13452 net.cpp:148] Top shape: 24 38 (912)
I0403 14:36:44.199309 13452 net.cpp:148] Top shape: 24 38 (912)
I0403 14:36:44.199324 13452 net.cpp:156] Memory required for data: 1346079072
I0403 14:36:44.199338 13452 layer_factory.hpp:77] Creating layer loss1/loss
I0403 14:36:44.199359 13452 net.cpp:91] Creating Layer loss1/loss
I0403 14:36:44.199376 13452 net.cpp:425] loss1/loss <- loss1/classifier_plantvillage_loss1/classifier_plantvillage_0_split_0
I0403 14:36:44.199406 13452 net.cpp:425] loss1/loss <- label_data_1_split_0
…
