…
I0403 14:59:28.530828 13979 net.cpp:313] The NetState phase (1) differed from the phase (0) specified by a rule in layer data
I0403 14:59:28.532021 13979 net.cpp:49] Initializing net from parameters: 
state {
  phase: TEST
}
layer {
  name: "data"
  type: "Data"
  top: "data"
  top: "label"
  include {
    phase: TEST
  }
  transform_param {
    mirror: false
    crop_size: 224
    mean_file: "/home/mohanty/data/final_dataset/lmdb/color-40-60/mean.binaryproto"
  }
  data_param {
    source: "/home/mohanty/data/final_dataset/lmdb/color-40-60/test_db"
    batch_size: 24
    backend: LMDB
  }
}
layer {
  name: "conv1/7x7_s2"
  type: "Convolution"
  bottom: "data"
  top: "conv1/7x7_s2"
  param {
    lr_mult: 1
    decay_mult: 1
  }
  param {
    lr_mult: 2
    decay_mult: 0
  }
  convolution_param {
    num_output: 64
    pad: 3
    kernel_size: 7
    stride: 2
    weight_filler {
      type: "xavier"
      std: 0.1
    }
    bias_filler {
      type: "constant"
      value: 0.2
    }
  }
}
layer {
  name: "conv1/relu_7x7"
  type: "ReLU"
  bottom: "conv1/7x7_s2"
  top: "conv1/7x7_s2"
}
layer {
  name: "pool1/3x3_s2"
  type: "Pooling"
  bottom: "conv1/7x7_s2"
  top: "pool1/3x3_s2"
  pooling_param {
    pool: MAX
    kernel_size: 3
    stride: 2
  }
}
layer {
  name: "pool1/norm1"
  type: "LRN"
  bottom: "pool1/3x3_s2"
  top: "pool1/norm1"
  lrn_param {
    local_size: 5
    alpha: 0.0001
    beta: 0.75
  }
}
layer {
  name: "conv2/3x3_reduce"
  type: "Convolution"
  bottom: "pool1/norm1"
  top: "conv2/3x3_reduce"
  param {
    lr_mult: 1
    decay_mult: 1
  }
  param {
    lr_mult: 2
    decay_mult: 0
  }
  convolution_param {
    num_output: 64
    kernel_size: 1
    weight_filler {
      type: "xavier"
      std: 0.1
    }
    bias_filler {
      type: "constant"
      value: 0.2
    }
  }
}
layer {
  name: "conv2/relu_3x3_reduce"
  type: "ReLU"
  bottom: "conv2/3x3_reduce"
  top: "conv2/3x3_reduce"
}
layer {
  name: "conv2/3x3"
  type: "Convolution"
  bottom: "conv2/3x3_reduce"
  top: "conv2/3x3"
  param {
    lr_mult: 1
    decay_mult: 1
  }
  param {
    lr_mult: 2
    decay_mult: 0
  }
  convolution_param {
    num_output: 192
    pad: 1
    kernel_size: 3
    weight_filler {
      type: "xavier"
      std: 0.03
    }
    bias_filler {
      type: "constant"
      value: 0.2
    }
  }
}
layer {
  name: "conv2/relu_3x3"
  type: "ReLU"
  bottom: "conv2/3x3"
  top: "conv2/3x3"
}
layer {
  name: "conv2/norm2"
  type: "LRN"
  bottom: "conv2/3x3"
  top: "conv2/norm2"
  lrn_param {
    local_size: 5
    alpha: 0.0001
    beta: 0.75
  }
}
layer {
  name: "pool2/3x3_s2"
  type: "Pooling"
  bottom: "conv2/norm2"
  top: "pool2/3x3_s2"
  pooling_param {
    pool: MAX
    kernel_size: 3
    stride: 2
  }
}
layer {
  name: "inception_3a/1x1"
  type: "Convolution"
  bottom: "pool2/3x3_s2"
  top: "inception_3a/1x1"
  param {
    lr_mult: 1
    decay_mult: 1
  }
  param {
    lr_mult: 2
    decay_mult: 0
  }
  convolution_param {
    num_output: 64
    kernel_size: 1
    weight_filler {
      type: "xavier"
      std: 0.03
    }
    bias_filler {
      type: "constant"
      value: 0.2
    }
  }
}
layer {
  name: "inception_3a/relu_1x1"
  type: "ReLU"
  bottom: "inception_3a/1x1"
  top: "inception_3a/1x1"
}
layer {
  name: "inception_3a/3x3_reduce"
  type: "Convolution"
  bottom: "pool2/3x3_s2"
  top: "inception_3a/3x3_reduce"
  param {
    lr_mult: 1
    decay_mult: 1
  }
  param {
    lr_mult: 2
    decay_mult: 0
  }
  convolution_param {
    num_output: 96
    kernel_size: 1
    weight_filler {
      type: "xavier"
      std: 0.09
    }
    bias_filler {
      type: "constant"
      value: 0.2
    }
  }
}
layer {
  name: "inception_3a/relu_3x3_reduce"
  type: "ReLU"
  bottom: "inception_3a/3x3_reduce"
  top: "inception_3a/3x3_reduce"
}
layer {
  name: "inception_3a/3x3"
  type: "Convolution"
  bottom: "inception_3a/3x3_reduce"
  top: "inception_3a/3x3"
  param {
    lr_mult: 1
    decay_mult: 1
  }
  param {
    lr_mult: 2
    decay_mult: 0
  }
  convolution_param {
    num_output: 128
    pad: 1
    kernel_size: 3
    weight_filler {
      type: "xavier"
      std: 0.03
    }
    bias_filler {
      type: "constant"
      value: 0.2
    }
  }
}
layer {
  name: "inception_3a/relu_3x3"
  type: "ReLU"
  bottom: "inception_3a/3x3"
  top: "inception_3a/3x3"
}
layer {
  name: "inception_3a/5x5_reduce"
  type: "Convolution"
  bottom: "pool2/3x3_s2"
  top: "inception_3a/5x5_reduce"
  param {
    lr_mult: 1
    decay_mult: 1
  }
  param {
    lr_mult: 2
    decay_mult: 0
  }
  convolution_param {
    num_output: 16
    kernel_size: 1
    weight_filler {
      type: "xavier"
      std: 0.2
    }
    bias_filler {
      type: "constant"
      value: 0.2
    }
  }
}
layer {
  name: "inception_3a/relu_5x5_reduce"
  type: "ReLU"
  bottom: "inception_3a/5x5_reduce"
  top: "inception_3a/5x5_reduce"
}
layer {
  name: "inception_3a/5x5"
  type: "Convolution"
  bottom: "inception_3a/5x5_reduce"
  top: "inception_3a/5x5"
  param {
    lr_mult: 1
    decay_mult: 1
  }
  param {
    lr_mult: 2
    decay_mult: 0
  }
  convolution_param {
    num_output: 32
    pad: 2
    kernel_size: 5
    weight_filler {
      type: "xavier"
      std: 0.03
    }
    bias_filler {
      type: "constant"
      value: 0.2
    }
  }
}
layer {
  name: "inception_3a/relu_5x5"
  type: "ReLU"
  bottom: "inception_3a/5x5"
  top: "inception_3a/5x5"
}
layer {
  name: "inception_3a/pool"
  type: "Pooling"
  bottom: "pool2/3x3_s2"
  top: "inception_3a/pool"
  pooling_param {
    pool: MAX
    kernel_size: 3
    stride: 1
    pad: 1
  }
}
layer {
  name: "inception_3a/pool_proj"
  type: "Convolution"
  bottom: "inception_3a/pool"
  top: "inception_3a/pool_proj"
  param {
    lr_mult: 1
    decay_mult: 1
  }
  param {
    lr_mult: 2
    decay_mult: 0
  }
  convolution_param {
    num_output: 32
    kernel_size: 1
    weight_filler {
      type: "xavier"
      std: 0.1
    }
    bias_filler {
      type: "constant"
      value: 0.2
    }
  }
}
layer {
  name: "inception_3a/relu_pool_proj"
  type: "ReLU"
  bottom: "inception_3a/pool_proj"
  top: "inception_3a/pool_proj"
}
layer {
  name: "inception_3a/output"
  type: "Concat"
  bottom: "inception_3a/1x1"
  bottom: "inception_3a/3x3"
  bottom: "inception_3a/5x5"
  bottom: "inception_3a/pool_proj"
  top: "inception_3a/output"
}
layer {
  name: "inception_3b/1x1"
  type: "Convolution"
  bottom: "inception_3a/output"
  top: "inception_3b/1x1"
  param {
    lr_mult: 1
    decay_mult: 1
  }
  param {
    lr_mult: 2
    decay_mult: 0
  }
  convolution_param {
    num_output: 128
    kernel_size: 1
    weight_filler {
      type: "xavier"
      std: 0.03
    }
    bias_filler {
      type: "constant"
      value: 0.2
    }
  }
}
layer {
  name: "inception_3b/relu_1x1"
  type: "ReLU"
  bottom: "inception_3b/1x1"
  top: "inception_3b/1x1"
}
layer {
  name: "inception_3b/3x3_reduce"
  type: "Convolution"
  bottom: "inception_3a/output"
  top: "inception_3b/3x3_reduce"
  param {
    lr_mult: 1
    decay_mult: 1
  }
  param {
    lr_mult: 2
    decay_mult: 0
  }
  convolution_param {
    num_output: 128
    kernel_size: 1
    weight_filler {
      type: "xavier"
      std: 0.09
    }
    bias_filler {
      type: "constant"
      value: 0.2
    }
  }
}
layer {
  name: "inception_3b/relu_3x3_reduce"
  type: "ReLU"
  bottom: "inception_3b/3x3_reduce"
  top: "inception_3b/3x3_reduce"
}
layer {
  name: "inception_3b/3x3"
  type: "Convolution"
  bottom: "inception_3b/3x3_reduce"
  top: "inception_3b/3x3"
  param {
    lr_mult: 1
    decay_mult: 1
  }
  param {
    lr_mult: 2
    decay_mult: 0
  }
  convolution_param {
    num_output: 192
    pad: 1
    kernel_size: 3
    weight_filler {
      type: "xavier"
      std: 0.03
    }
    bias_filler {
      type: "constant"
      value: 0.2
    }
  }
}
layer {
  name: "inception_3b/relu_3x3"
  type: "ReLU"
  bottom: "inception_3b/3x3"
  top: "inception_3b/3x3"
}
layer {
  name: "inception_3b/5x5_reduce"
  type: "Convolution"
  bottom: "inception_3a/output"
  top: "inception_3b/5x5_reduce"
  param {
    lr_mult: 1
    decay_mult: 1
  }
  param {
    lr_mult: 2
    decay_mult: 0
  }
  convolution_param {
    num_output: 32
    kernel_size: 1
    weight_filler {
      type: "xavier"
      std: 0.2
    }
    bias_filler {
      type: "constant"
      value: 0.2
    }
  }
}
layer {
  name: "inception_3b/relu_5x5_reduce"
  type: "ReLU"
  bottom: "inception_3b/5x5_reduce"
  top: "inception_3b/5x5_reduce"
}
layer {
  name: "inception_3b/5x5"
  type: "Convolution"
  bottom: "inception_3b/5x5_reduce"
  top: "inception_3b/5x5"
  param {
    lr_mult: 1
    decay_mult: 1
  }
  param {
    lr_mult: 2
    decay_mult: 0
  }
  convolution_param {
    num_output: 96
    pad: 2
    kernel_size: 5
    weight_filler {
      type: "xavier"
      std: 0.03
    }
    bias_filler {
      type: "constant"
      value: 0.2
    }
  }
}
layer {
  name: "inception_3b/relu_5x5"
  type: "ReLU"
  bottom: "inception_3b/5x5"
  top: "inception_3b/5x5"
}
layer {
  name: "inception_3b/pool"
  type: "Pooling"
  bottom: "inception_3a/output"
  top: "inception_3b/pool"
  pooling_param {
    pool: MAX
    kernel_size: 3
    stride: 1
    pad: 1
  }
}
layer {
  name: "inception_3b/pool_proj"
  type: "Convolution"
  bottom: "inception_3b/pool"
  top: "inception_3b/pool_proj"
  param {
    lr_mult: 1
    decay_mult: 1
  }
  param {
    lr_mult: 2
    decay_mult: 0
  }
  convolution_param {
    num_output: 64
    kernel_size: 1
    weight_filler {
      type: "xavier"
      std: 0.1
    }
    bias_filler {
      type: "constant"
      value: 0.2
    }
  }
}
layer {
  name: "inception_3b/relu_pool_proj"
  type: "ReLU"
  bottom: "inception_3b/pool_proj"
  top: "inception_3b/pool_proj"
}
layer {
  name: "inception_3b/output"
  type: "Concat"
  bottom: "inception_3b/1x1"
  bottom: "inception_3b/3x3"
  bottom: "inception_3b/5x5"
  bottom: "inception_3b/pool_proj"
  top: "inception_3b/output"
}
layer {
  name: "pool3/3x3_s2"
  type: "Pooling"
  bottom: "inception_3b/output"
  top: "pool3/3x3_s2"
  pooling_param {
    pool: MAX
    kernel_size: 3
    stride: 2
  }
}
layer {
  name: "inception_4a/1x1"
  type: "Convolution"
  bottom: "pool3/3x3_s2"
  top: "inception_4a/1x1"
  param {
    lr_mult: 1
    decay_mult: 1
  }
  param {
    lr_mult: 2
    decay_mult: 0
  }
  convolution_param {
    num_output: 192
    kernel_size: 1
    weight_filler {
      type: "xavier"
      std: 0.03
    }
    bias_filler {
      type: "constant"
      value: 0.2
    }
  }
}
layer {
  name: "inception_4a/relu_1x1"
  type: "ReLU"
  bottom: "inception_4a/1x1"
  top: "inception_4a/1x1"
}
layer {
  name: "inception_4a/3x3_reduce"
  type: "Convolution"
  bottom: "pool3/3x3_s2"
  top: "inception_4a/3x3_reduce"
  param {
    lr_mult: 1
    decay_mult: 1
  }
  param {
    lr_mult: 2
    decay_mult: 0
  }
  convolution_param {
    num_output: 96
    kernel_size: 1
    weight_filler {
      type: "xavier"
      std: 0.09
    }
    bias_filler {
      type: "constant"
      value: 0.2
    }
  }
}
layer {
  name: "inception_4a/relu_3x3_reduce"
  type: "ReLU"
  bottom: "inception_4a/3x3_reduce"
  top: "inception_4a/3x3_reduce"
}
layer {
  name: "inception_4a/3x3"
  type: "Convolution"
  bottom: "inception_4a/3x3_reduce"
  top: "inception_4a/3x3"
  param {
    lr_mult: 1
    decay_mult: 1
  }
  param {
    lr_mult: 2
    decay_mult: 0
  }
  convolution_param {
    num_output: 208
    pad: 1
    kernel_size: 3
    weight_filler {
      type: "xavier"
      std: 0.03
    }
    bias_filler {
      type: "constant"
      value: 0.2
    }
  }
}
layer {
  name: "inception_4a/relu_3x3"
  type: "ReLU"
  bottom: "inception_4a/3x3"
  top: "inception_4a/3x3"
}
layer {
  name: "inception_4a/5x5_reduce"
  type: "Convolution"
  bottom: "pool3/3x3_s2"
  top: "inception_4a/5x5_reduce"
  param {
    lr_mult: 1
    decay_mult: 1
  }
  param {
    lr_mult: 2
    decay_mult: 0
  }
  convolution_param {
    num_output: 16
    kernel_size: 1
    weight_filler {
      type: "xavier"
      std: 0.2
    }
    bias_filler {
      type: "constant"
      value: 0.2
    }
  }
}
layer {
  name: "inception_4a/relu_5x5_reduce"
  type: "ReLU"
  bottom: "inception_4a/5x5_reduce"
  top: "inception_4a/5x5_reduce"
}
layer {
  name: "inception_4a/5x5"
  type: "Convolution"
  bottom: "inception_4a/5x5_reduce"
  top: "inception_4a/5x5"
  param {
    lr_mult: 1
    decay_mult: 1
  }
  param {
    lr_mult: 2
    decay_mult: 0
  }
  convolution_param {
    num_output: 48
    pad: 2
    kernel_size: 5
    weight_filler {
      type: "xavier"
      std: 0.03
    }
    bias_filler {
      type: "constant"
      value: 0.2
    }
  }
}
layer {
  name: "inception_4a/relu_5x5"
  type: "ReLU"
  bottom: "inception_4a/5x5"
  top: "inception_4a/5x5"
}
layer {
  name: "inception_4a/pool"
  type: "Pooling"
  bottom: "pool3/3x3_s2"
  top: "inception_4a/pool"
  pooling_param {
    pool: MAX
    kernel_size: 3
    stride: 1
    pad: 1
  }
}
layer {
  name: "inception_4a/pool_proj"
  type: "Convolution"
  bottom: "inception_4a/pool"
  top: "inception_4a/pool_proj"
  param {
    lr_mult: 1
    decay_mult: 1
  }
  param {
    lr_mult: 2
    decay_mult: 0
  }
  convolution_param {
    num_output: 64
    kernel_size: 1
    weight_filler {
      type: "xavier"
      std: 0.1
    }
    bias_filler {
      type: "constant"
      value: 0.2
    }
  }
}
layer {
  name: "inception_4a/relu_pool_proj"
  type: "ReLU"
  bottom: "inception_4a/pool_proj"
  top: "inception_4a/pool_proj"
}
layer {
  name: "inception_4a/output"
  type: "Concat"
  bottom: "inception_4a/1x1"
  bottom: "inception_4a/3x3"
  bottom: "inception_4a/5x5"
  bottom: "inception_4a/pool_proj"
  top: "inception_4a/output"
}
layer {
  name: "loss1/ave_pool"
  type: "Pooling"
  bottom: "inception_4a/output"
  top: "loss1/ave_pool"
  pooling_param {
    pool: AVE
    kernel_size: 5
    stride: 3
  }
}
layer {
  name: "loss1/conv"
  type: "Convolution"
  bottom: "loss1/ave_pool"
  top: "loss1/conv"
  param {
    lr_mult: 1
    decay_mult: 1
  }
  param {
    lr_mult: 2
    decay_mult: 0
  }
  convolution_param {
    num_output: 128
    kernel_size: 1
    weight_filler {
      type: "xavier"
      std: 0.08
    }
    bias_filler {
      type: "constant"
      value: 0.2
    }
  }
}
layer {
  name: "loss1/relu_conv"
  type: "ReLU"
  bottom: "loss1/conv"
  top: "loss1/conv"
}
layer {
  name: "loss1/fc"
  type: "InnerProduct"
  bottom: "loss1/conv"
  top: "loss1/fc"
  param {
    lr_mult: 1
    decay_mult: 1
  }
  param {
    lr_mult: 2
    decay_mult: 0
  }
  inner_product_param {
    num_output: 1024
    weight_filler {
      type: "xavier"
      std: 0.02
    }
    bias_filler {
      type: "constant"
      value: 0.2
    }
  }
}
layer {
  name: "loss1/relu_fc"
  type: "ReLU"
  bottom: "loss1/fc"
  top: "loss1/fc"
}
layer {
  name: "loss1/drop_fc"
  type: "Dropout"
  bottom: "loss1/fc"
  top: "loss1/fc"
  dropout_param {
    dropout_ratio: 0.7
  }
}
layer {
  name: "loss1/classifier_plantvillage"
  type: "InnerProduct"
  bottom: "loss1/fc"
  top: "loss1/classifier_plantvillage"
  param {
    lr_mult: 1
    decay_mult: 1
  }
  param {
    lr_mult: 2
    decay_mult: 0
  }
  inner_product_param {
    num_output: 38
    weight_filler {
      type: "xavier"
      std: 0.0009765625
    }
    bias_filler {
      type: "constant"
      value: 0
    }
  }
}
layer {
  name: "inception_4b/1x1"
  type: "Convolution"
  bottom: "inception_4a/output"
  top: "inception_4b/1x1"
  param {
    lr_mult: 1
    decay_mult: 1
  }
  param {
    lr_mult: 2
    decay_mult: 0
  }
  convolution_param {
    num_output: 160
    kernel_size: 1
    weight_filler {
      type: "xavier"
      std: 0.03
    }
    bias_filler {
      type: "constant"
      value: 0.2
    }
  }
}
layer {
  name: "inception_4b/relu_1x1"
  type: "ReLU"
  bottom: "inception_4b/1x1"
  top: "inception_4b/1x1"
}
layer {
  name: "inception_4b/3x3_reduce"
  type: "Convolution"
  bottom: "inception_4a/output"
  top: "inception_4b/3x3_reduce"
  param {
    lr_mult: 1
    decay_mult: 1
  }
  param {
    lr_mult: 2
    decay_mult: 0
  }
  convolution_param {
    num_output: 112
    kernel_size: 1
    weight_filler {
      type: "xavier"
      std: 0.09
    }
    bias_filler {
      type: "constant"
      value: 0.2
    }
  }
}
layer {
  name: "inception_4b/relu_3x3_reduce"
  type: "ReLU"
  bottom: "inception_4b/3x3_reduce"
  top: "inception_4b/3x3_reduce"
}
layer {
  name: "inception_4b/3x3"
  type: "Convolution"
  bottom: "inception_4b/3x3_reduce"
  top: "inception_4b/3x3"
  param {
    lr_mult: 1
    decay_mult: 1
  }
  param {
    lr_mult: 2
    decay_mult: 0
  }
  convolution_param {
    num_output: 224
    pad: 1
    kernel_size: 3
    weight_filler {
      type: "xavier"
      std: 0.03
    }
    bias_filler {
      type: "constant"
      value: 0.2
    }
  }
}
layer {
  name: "inception_4b/relu_3x3"
  type: "ReLU"
  bottom: "inception_4b/3x3"
  top: "inception_4b/3x3"
}
layer {
  name: "inception_4b/5x5_reduce"
  type: "Convolution"
  bottom: "inception_4a/output"
  top: "inception_4b/5x5_reduce"
  param {
    lr_mult: 1
    decay_mult: 1
  }
  param {
    lr_mult: 2
    decay_mult: 0
  }
  convolution_param {
    num_output: 24
    kernel_size: 1
    weight_filler {
      type: "xavier"
      std: 0.2
    }
    bias_filler {
      type: "constant"
      value: 0.2
    }
  }
}
layer {
  name: "inception_4b/relu_5x5_reduce"
  type: "ReLU"
  bottom: "inception_4b/5x5_reduce"
  top: "inception_4b/5x5_reduce"
}
layer {
  name: "inception_4b/5x5"
  type: "Convolution"
  bottom: "inception_4b/5x5_reduce"
  top: "inception_4b/5x5"
  param {
    lr_mult: 1
    decay_mult: 1
  }
  param {
    lr_mult: 2
    decay_mult: 0
  }
  convolution_param {
    num_output: 64
    pad: 2
    kernel_size: 5
    weight_filler {
      type: "xavier"
      std: 0.03
    }
    bias_filler {
      type: "constant"
      value: 0.2
    }
  }
}
layer {
  name: "inception_4b/relu_5x5"
  type: "ReLU"
  bottom: "inception_4b/5x5"
  top: "inception_4b/5x5"
}
layer {
  name: "inception_4b/pool"
  type: "Pooling"
  bottom: "inception_4a/output"
  top: "inception_4b/pool"
  pooling_param {
    pool: MAX
    kernel_size: 3
    stride: 1
    pad: 1
  }
}
layer {
  name: "inception_4b/pool_proj"
  type: "Convolution"
  bottom: "inception_4b/pool"
  top: "inception_4b/pool_proj"
  param {
    lr_mult: 1
    decay_mult: 1
  }
  param {
    lr_mult: 2
    decay_mult: 0
  }
  convolution_param {
    num_output: 64
    kernel_size: 1
    weight_filler {
      type: "xavier"
      std: 0.1
    }
    bias_filler {
      type: "constant"
      value: 0.2
    }
  }
}
layer {
  name: "inception_4b/relu_pool_proj"
  type: "ReLU"
  bottom: "inception_4b/pool_proj"
  top: "inception_4b/pool_proj"
}
layer {
  name: "inception_4b/output"
  type: "Concat"
  bottom: "inception_4b/1x1"
  bottom: "inception_4b/3x3"
  bottom: "inception_4b/5x5"
  bottom: "inception_4b/pool_proj"
  top: "inception_4b/output"
}
layer {
  name: "inception_4c/1x1"
  type: "Convolution"
  bottom: "inception_4b/output"
  top: "inception_4c/1x1"
  param {
    lr_mult: 1
    decay_mult: 1
  }
  param {
    lr_mult: 2
    decay_mult: 0
  }
  convolution_param {
    num_output: 128
    kernel_size: 1
    weight_filler {
      type: "xavier"
      std: 0.03
    }
    bias_filler {
      type: "constant"
      value: 0.2
    }
  }
}
layer {
  name: "inception_4c/relu_1x1"
  type: "ReLU"
  bottom: "inception_4c/1x1"
  top: "inception_4c/1x1"
}
layer {
  name: "inception_4c/3x3_reduce"
  type: "Convolution"
  bottom: "inception_4b/output"
  top: "inception_4c/3x3_reduce"
  param {
    lr_mult: 1
    decay_mult: 1
  }
  param {
    lr_mult: 2
    decay_mult: 0
  }
  convolution_param {
    num_output: 128
    kernel_size: 1
    weight_filler {
      type: "xavier"
      std: 0.09
    }
    bias_filler {
      type: "constant"
      value: 0.2
    }
  }
}
layer {
  name: "inception_4c/relu_3x3_reduce"
  type: "ReLU"
  bottom: "inception_4c/3x3_reduce"
  top: "inception_4c/3x3_reduce"
}
layer {
  name: "inception_4c/3x3"
  type: "Convolution"
  bottom: "inception_4c/3x3_reduce"
  top: "inception_4c/3x3"
  param {
    lr_mult: 1
    decay_mult: 1
  }
  param {
    lr_mult: 2
    decay_mult: 0
  }
  convolution_param {
    num_output: 256
    pad: 1
    kernel_size: 3
    weight_filler {
      type: "xavier"
      std: 0.03
    }
    bias_filler {
      type: "constant"
      value: 0.2
    }
  }
}
layer {
  name: "inception_4c/relu_3x3"
  type: "ReLU"
  bottom: "inception_4c/3x3"
  top: "inception_4c/3x3"
}
layer {
  name: "inception_4c/5x5_reduce"
  type: "Convolution"
  bottom: "inception_4b/output"
  top: "inception_4c/5x5_reduce"
  param {
    lr_mult: 1
    decay_mult: 1
  }
  param {
    lr_mult: 2
    decay_mult: 0
  }
  convolution_param {
    num_output: 24
    kernel_size: 1
    weight_filler {
      type: "xavier"
      std: 0.2
    }
    bias_filler {
      type: "constant"
      value: 0.2
    }
  }
}
layer {
  name: "inception_4c/relu_5x5_reduce"
  type: "ReLU"
  bottom: "inception_4c/5x5_reduce"
  top: "inception_4c/5x5_reduce"
}
layer {
  name: "inception_4c/5x5"
  type: "Convolution"
  bottom: "inception_4c/5x5_reduce"
  top: "inception_4c/5x5"
  param {
    lr_mult: 1
    decay_mult: 1
  }
  param {
    lr_mult: 2
    decay_mult: 0
  }
  convolution_param {
    num_output: 64
    pad: 2
    kernel_size: 5
    weight_filler {
      type: "xavier"
      std: 0.03
    }
    bias_filler {
      type: "constant"
      value: 0.2
    }
  }
}
layer {
  name: "inception_4c/relu_5x5"
  type: "ReLU"
  bottom: "inception_4c/5x5"
  top: "inception_4c/5x5"
}
layer {
  name: "inception_4c/pool"
  type: "Pooling"
  bottom: "inception_4b/output"
  top: "inception_4c/pool"
  pooling_param {
    pool: MAX
    kernel_size: 3
    stride: 1
    pad: 1
  }
}
layer {
  name: "inception_4c/pool_proj"
  type: "Convolution"
  bottom: "inception_4c/pool"
  top: "inception_4c/pool_proj"
  param {
    lr_mult: 1
    decay_mult: 1
  }
  param {
    lr_mult: 2
    decay_mult: 0
  }
  convolution_param {
    num_output: 64
    kernel_size: 1
    weight_filler {
      type: "xavier"
      std: 0.1
    }
    bias_filler {
      type: "constant"
      value: 0.2
    }
  }
}
layer {
  name: "inception_4c/relu_pool_proj"
  type: "ReLU"
  bottom: "inception_4c/pool_proj"
  top: "inception_4c/pool_proj"
}
layer {
  name: "inception_4c/output"
  type: "Concat"
  bottom: "inception_4c/1x1"
  bottom: "inception_4c/3x3"
  bottom: "inception_4c/5x5"
  bottom: "inception_4c/pool_proj"
  top: "inception_4c/output"
}
layer {
  name: "inception_4d/1x1"
  type: "Convolution"
  bottom: "inception_4c/output"
  top: "inception_4d/1x1"
  param {
    lr_mult: 1
    decay_mult: 1
  }
  param {
    lr_mult: 2
    decay_mult: 0
  }
  convolution_param {
    num_output: 112
    kernel_size: 1
    weight_filler {
      type: "xavier"
      std: 0.03
    }
    bias_filler {
      type: "constant"
      value: 0.2
    }
  }
}
layer {
  name: "inception_4d/relu_1x1"
  type: "ReLU"
  bottom: "inception_4d/1x1"
  top: "inception_4d/1x1"
}
layer {
  name: "inception_4d/3x3_reduce"
  type: "Convolution"
  bottom: "inception_4c/output"
  top: "inception_4d/3x3_reduce"
  param {
    lr_mult: 1
    decay_mult: 1
  }
  param {
    lr_mult: 2
    decay_mult: 0
  }
  convolution_param {
    num_output: 144
    kernel_size: 1
    weight_filler {
      type: "xavier"
      std: 0.09
    }
    bias_filler {
      type: "constant"
      value: 0.2
    }
  }
}
layer {
  name: "inception_4d/relu_3x3_reduce"
  type: "ReLU"
  bottom: "inception_4d/3x3_reduce"
  top: "inception_4d/3x3_reduce"
}
layer {
  name: "inception_4d/3x3"
  type: "Convolution"
  bottom: "inception_4d/3x3_reduce"
  top: "inception_4d/3x3"
  param {
    lr_mult: 1
    decay_mult: 1
  }
  param {
    lr_mult: 2
    decay_mult: 0
  }
  convolution_param {
    num_output: 288
    pad: 1
    kernel_size: 3
    weight_filler {
      type: "xavier"
      std: 0.03
    }
    bias_filler {
      type: "constant"
      value: 0.2
    }
  }
}
layer {
  name: "inception_4d/relu_3x3"
  type: "ReLU"
  bottom: "inception_4d/3x3"
  top: "inception_4d/3x3"
}
layer {
  name: "inception_4d/5x5_reduce"
  type: "Convolution"
  bottom: "inception_4c/output"
  top: "inception_4d/5x5_reduce"
  param {
    lr_mult: 1
    decay_mult: 1
  }
  param {
    lr_mult: 2
    decay_mult: 0
  }
  convolution_param {
    num_output: 32
    kernel_size: 1
    weight_filler {
      type: "xavier"
      std: 0.2
    }
    bias_filler {
      type: "constant"
      value: 0.2
    }
  }
}
layer {
  name: "inception_4d/relu_5x5_reduce"
  type: "ReLU"
  bottom: "inception_4d/5x5_reduce"
  top: "inception_4d/5x5_reduce"
}
layer {
  name: "inception_4d/5x5"
  type: "Convolution"
  bottom: "inception_4d/5x5_reduce"
  top: "inception_4d/5x5"
  param {
    lr_mult: 1
    decay_mult: 1
  }
  param {
    lr_mult: 2
    decay_mult: 0
  }
  convolution_param {
    num_output: 64
    pad: 2
    kernel_size: 5
    weight_filler {
      type: "xavier"
      std: 0.03
    }
    bias_filler {
      type: "constant"
      value: 0.2
    }
  }
}
layer {
  name: "inception_4d/relu_5x5"
  type: "ReLU"
  bottom: "inception_4d/5x5"
  top: "inception_4d/5x5"
}
layer {
  name: "inception_4d/pool"
  type: "Pooling"
  bottom: "inception_4c/output"
  top: "inception_4d/pool"
  pooling_param {
    pool: MAX
    kernel_size: 3
    stride: 1
    pad: 1
  }
}
layer {
  name: "inception_4d/pool_proj"
  type: "Convolution"
  bottom: "inception_4d/pool"
  top: "inception_4d/pool_proj"
  param {
    lr_mult: 1
    decay_mult: 1
  }
  param {
    lr_mult: 2
    decay_mult: 0
  }
  convolution_param {
    num_output: 64
    kernel_size: 1
    weight_filler {
      type: "xavier"
      std: 0.1
    }
    bias_filler {
      type: "constant"
      value: 0.2
    }
  }
}
layer {
  name: "inception_4d/relu_pool_proj"
  type: "ReLU"
  bottom: "inception_4d/pool_proj"
  top: "inception_4d/pool_proj"
}
layer {
  name: "inception_4d/output"
  type: "Concat"
  bottom: "inception_4d/1x1"
  bottom: "inception_4d/3x3"
  bottom: "inception_4d/5x5"
  bottom: "inception_4d/pool_proj"
  top: "inception_4d/output"
}
layer {
  name: "loss2/ave_pool"
  type: "Pooling"
  bottom: "inception_4d/output"
  top: "loss2/ave_pool"
  pooling_param {
    pool: AVE
    kernel_size: 5
    stride: 3
  }
}
layer {
  name: "loss2/conv"
  type: "Convolution"
  bottom: "loss2/ave_pool"
  top: "loss2/conv"
  param {
    lr_mult: 1
    decay_mult: 1
  }
  param {
    lr_mult: 2
    decay_mult: 0
  }
  convolution_param {
    num_output: 128
    kernel_size: 1
    weight_filler {
      type: "xavier"
      std: 0.08
    }
    bias_filler {
      type: "constant"
      value: 0.2
    }
  }
}
layer {
  name: "loss2/relu_conv"
  type: "ReLU"
  bottom: "loss2/conv"
  top: "loss2/conv"
}
layer {
  name: "loss2/fc"
  type: "InnerProduct"
  bottom: "loss2/conv"
  top: "loss2/fc"
  param {
    lr_mult: 1
    decay_mult: 1
  }
  param {
    lr_mult: 2
    decay_mult: 0
  }
  inner_product_param {
    num_output: 1024
    weight_filler {
      type: "xavier"
      std: 0.02
    }
    bias_filler {
      type: "constant"
      value: 0.2
    }
  }
}
layer {
  name: "loss2/relu_fc"
  type: "ReLU"
  bottom: "loss2/fc"
  top: "loss2/fc"
}
layer {
  name: "loss2/drop_fc"
  type: "Dropout"
  bottom: "loss2/fc"
  top: "loss2/fc"
  dropout_param {
    dropout_ratio: 0.7
  }
}
layer {
  name: "loss2/classifier_plantvillage"
  type: "InnerProduct"
  bottom: "loss2/fc"
  top: "loss2/classifier_plantvillage"
  param {
    lr_mult: 1
    decay_mult: 1
  }
  param {
    lr_mult: 2
    decay_mult: 0
  }
  inner_product_param {
    num_output: 38
    weight_filler {
      type: "xavier"
      std: 0.0009765625
    }
    bias_filler {
      type: "constant"
      value: 0
    }
  }
}
layer {
  name: "inception_4e/1x1"
  type: "Convolution"
  bottom: "inception_4d/output"
  top: "inception_4e/1x1"
  param {
    lr_mult: 1
    decay_mult: 1
  }
  param {
    lr_mult: 2
    decay_mult: 0
  }
  convolution_param {
    num_output: 256
    kernel_size: 1
    weight_filler {
      type: "xavier"
      std: 0.03
    }
    bias_filler {
      type: "constant"
      value: 0.2
    }
  }
}
layer {
  name: "inception_4e/relu_1x1"
  type: "ReLU"
  bottom: "inception_4e/1x1"
  top: "inception_4e/1x1"
}
layer {
  name: "inception_4e/3x3_reduce"
  type: "Convolution"
  bottom: "inception_4d/output"
  top: "inception_4e/3x3_reduce"
  param {
    lr_mult: 1
    decay_mult: 1
  }
  param {
    lr_mult: 2
    decay_mult: 0
  }
  convolution_param {
    num_output: 160
    kernel_size: 1
    weight_filler {
      type: "xavier"
      std: 0.09
    }
    bias_filler {
      type: "constant"
      value: 0.2
    }
  }
}
layer {
  name: "inception_4e/relu_3x3_reduce"
  type: "ReLU"
  bottom: "inception_4e/3x3_reduce"
  top: "inception_4e/3x3_reduce"
}
layer {
  name: "inception_4e/3x3"
  type: "Convolution"
  bottom: "inception_4e/3x3_reduce"
  top: "inception_4e/3x3"
  param {
    lr_mult: 1
    decay_mult: 1
  }
  param {
    lr_mult: 2
    decay_mult: 0
  }
  convolution_param {
    num_output: 320
    pad: 1
    kernel_size: 3
    weight_filler {
      type: "xavier"
      std: 0.03
    }
    bias_filler {
      type: "constant"
      value: 0.2
    }
  }
}
layer {
  name: "inception_4e/relu_3x3"
  type: "ReLU"
  bottom: "inception_4e/3x3"
  top: "inception_4e/3x3"
}
layer {
  name: "inception_4e/5x5_reduce"
  type: "Convolution"
  bottom: "inception_4d/output"
  top: "inception_4e/5x5_reduce"
  param {
    lr_mult: 1
    decay_mult: 1
  }
  param {
    lr_mult: 2
    decay_mult: 0
  }
  convolution_param {
    num_output: 32
    kernel_size: 1
    weight_filler {
      type: "xavier"
      std: 0.2
    }
    bias_filler {
      type: "constant"
      value: 0.2
    }
  }
}
layer {
  name: "inception_4e/relu_5x5_reduce"
  type: "ReLU"
  bottom: "inception_4e/5x5_reduce"
  top: "inception_4e/5x5_reduce"
}
layer {
  name: "inception_4e/5x5"
  type: "Convolution"
  bottom: "inception_4e/5x5_reduce"
  top: "inception_4e/5x5"
  p
I0403 14:59:28.533278 13979 layer_factory.hpp:77] Creating layer data
I0403 14:59:28.533913 13979 net.cpp:91] Creating Layer data
I0403 14:59:28.533946 13979 net.cpp:399] data -> data
I0403 14:59:28.534011 13979 net.cpp:399] data -> label
I0403 14:59:28.534049 13979 data_transformer.cpp:25] Loading mean file from: /home/mohanty/data/final_dataset/lmdb/color-40-60/mean.binaryproto
I0403 14:59:28.537511 13981 db_lmdb.cpp:38] Opened lmdb /home/mohanty/data/final_dataset/lmdb/color-40-60/test_db
I0403 14:59:28.547530 13979 data_layer.cpp:41] output data size: 24,3,224,224
I0403 14:59:28.574034 13979 net.cpp:141] Setting up data
I0403 14:59:28.574090 13979 net.cpp:148] Top shape: 24 3 224 224 (3612672)
I0403 14:59:28.574112 13979 net.cpp:148] Top shape: 24 (24)
I0403 14:59:28.574128 13979 net.cpp:156] Memory required for data: 14450784
I0403 14:59:28.574156 13979 layer_factory.hpp:77] Creating layer label_data_1_split
I0403 14:59:28.574182 13979 net.cpp:91] Creating Layer label_data_1_split
I0403 14:59:28.574200 13979 net.cpp:425] label_data_1_split <- label
I0403 14:59:28.574234 13979 net.cpp:399] label_data_1_split -> label_data_1_split_0
I0403 14:59:28.574261 13979 net.cpp:399] label_data_1_split -> label_data_1_split_1
I0403 14:59:28.574282 13979 net.cpp:399] label_data_1_split -> label_data_1_split_2
I0403 14:59:28.574306 13979 net.cpp:399] label_data_1_split -> label_data_1_split_3
I0403 14:59:28.574326 13979 net.cpp:399] label_data_1_split -> label_data_1_split_4
I0403 14:59:28.574349 13979 net.cpp:399] label_data_1_split -> label_data_1_split_5
I0403 14:59:28.574374 13979 net.cpp:399] label_data_1_split -> label_data_1_split_6
I0403 14:59:28.574404 13979 net.cpp:399] label_data_1_split -> label_data_1_split_7
I0403 14:59:28.574431 13979 net.cpp:399] label_data_1_split -> label_data_1_split_8
I0403 14:59:28.574452 13979 net.cpp:399] label_data_1_split -> label_data_1_split_9
I0403 14:59:28.574573 13979 net.cpp:141] Setting up label_data_1_split
I0403 14:59:28.574596 13979 net.cpp:148] Top shape: 24 (24)
I0403 14:59:28.574627 13979 net.cpp:148] Top shape: 24 (24)
I0403 14:59:28.574645 13979 net.cpp:148] Top shape: 24 (24)
I0403 14:59:28.574661 13979 net.cpp:148] Top shape: 24 (24)
I0403 14:59:28.574676 13979 net.cpp:148] Top shape: 24 (24)
I0403 14:59:28.574692 13979 net.cpp:148] Top shape: 24 (24)
I0403 14:59:28.574708 13979 net.cpp:148] Top shape: 24 (24)
I0403 14:59:28.574723 13979 net.cpp:148] Top shape: 24 (24)
I0403 14:59:28.574739 13979 net.cpp:148] Top shape: 24 (24)
I0403 14:59:28.574755 13979 net.cpp:148] Top shape: 24 (24)
I0403 14:59:28.574805 13979 net.cpp:156] Memory required for data: 14451744
I0403 14:59:28.574821 13979 layer_factory.hpp:77] Creating layer conv1/7x7_s2
I0403 14:59:28.574853 13979 net.cpp:91] Creating Layer conv1/7x7_s2
I0403 14:59:28.574872 13979 net.cpp:425] conv1/7x7_s2 <- data
I0403 14:59:28.574892 13979 net.cpp:399] conv1/7x7_s2 -> conv1/7x7_s2
I0403 14:59:28.716557 13979 net.cpp:141] Setting up conv1/7x7_s2
I0403 14:59:28.716634 13979 net.cpp:148] Top shape: 24 64 112 112 (19267584)
I0403 14:59:28.716655 13979 net.cpp:156] Memory required for data: 91522080
I0403 14:59:28.716686 13979 layer_factory.hpp:77] Creating layer conv1/relu_7x7
I0403 14:59:28.716714 13979 net.cpp:91] Creating Layer conv1/relu_7x7
I0403 14:59:28.716733 13979 net.cpp:425] conv1/relu_7x7 <- conv1/7x7_s2
I0403 14:59:28.716753 13979 net.cpp:386] conv1/relu_7x7 -> conv1/7x7_s2 (in-place)
I0403 14:59:28.717046 13979 net.cpp:141] Setting up conv1/relu_7x7
I0403 14:59:28.717075 13979 net.cpp:148] Top shape: 24 64 112 112 (19267584)
I0403 14:59:28.717092 13979 net.cpp:156] Memory required for data: 168592416
I0403 14:59:28.717108 13979 layer_factory.hpp:77] Creating layer pool1/3x3_s2
I0403 14:59:28.717133 13979 net.cpp:91] Creating Layer pool1/3x3_s2
I0403 14:59:28.717149 13979 net.cpp:425] pool1/3x3_s2 <- conv1/7x7_s2
I0403 14:59:28.717171 13979 net.cpp:399] pool1/3x3_s2 -> pool1/3x3_s2
I0403 14:59:28.717248 13979 net.cpp:141] Setting up pool1/3x3_s2
I0403 14:59:28.717272 13979 net.cpp:148] Top shape: 24 64 56 56 (4816896)
I0403 14:59:28.717286 13979 net.cpp:156] Memory required for data: 187860000
I0403 14:59:28.717303 13979 layer_factory.hpp:77] Creating layer pool1/norm1
I0403 14:59:28.717329 13979 net.cpp:91] Creating Layer pool1/norm1
I0403 14:59:28.717346 13979 net.cpp:425] pool1/norm1 <- pool1/3x3_s2
I0403 14:59:28.717367 13979 net.cpp:399] pool1/norm1 -> pool1/norm1
I0403 14:59:28.717676 13979 net.cpp:141] Setting up pool1/norm1
I0403 14:59:28.717710 13979 net.cpp:148] Top shape: 24 64 56 56 (4816896)
I0403 14:59:28.717725 13979 net.cpp:156] Memory required for data: 207127584
I0403 14:59:28.717741 13979 layer_factory.hpp:77] Creating layer conv2/3x3_reduce
I0403 14:59:28.717768 13979 net.cpp:91] Creating Layer conv2/3x3_reduce
I0403 14:59:28.717787 13979 net.cpp:425] conv2/3x3_reduce <- pool1/norm1
I0403 14:59:28.717830 13979 net.cpp:399] conv2/3x3_reduce -> conv2/3x3_reduce
I0403 14:59:28.719300 13979 net.cpp:141] Setting up conv2/3x3_reduce
I0403 14:59:28.719328 13979 net.cpp:148] Top shape: 24 64 56 56 (4816896)
I0403 14:59:28.719346 13979 net.cpp:156] Memory required for data: 226395168
I0403 14:59:28.719368 13979 layer_factory.hpp:77] Creating layer conv2/relu_3x3_reduce
I0403 14:59:28.719388 13979 net.cpp:91] Creating Layer conv2/relu_3x3_reduce
I0403 14:59:28.719403 13979 net.cpp:425] conv2/relu_3x3_reduce <- conv2/3x3_reduce
I0403 14:59:28.719419 13979 net.cpp:386] conv2/relu_3x3_reduce -> conv2/3x3_reduce (in-place)
I0403 14:59:28.719701 13979 net.cpp:141] Setting up conv2/relu_3x3_reduce
I0403 14:59:28.719727 13979 net.cpp:148] Top shape: 24 64 56 56 (4816896)
I0403 14:59:28.719741 13979 net.cpp:156] Memory required for data: 245662752
I0403 14:59:28.719755 13979 layer_factory.hpp:77] Creating layer conv2/3x3
I0403 14:59:28.719779 13979 net.cpp:91] Creating Layer conv2/3x3
I0403 14:59:28.719796 13979 net.cpp:425] conv2/3x3 <- conv2/3x3_reduce
I0403 14:59:28.719816 13979 net.cpp:399] conv2/3x3 -> conv2/3x3
I0403 14:59:28.722095 13979 net.cpp:141] Setting up conv2/3x3
I0403 14:59:28.722124 13979 net.cpp:148] Top shape: 24 192 56 56 (14450688)
I0403 14:59:28.722141 13979 net.cpp:156] Memory required for data: 303465504
I0403 14:59:28.722163 13979 layer_factory.hpp:77] Creating layer conv2/relu_3x3
I0403 14:59:28.722182 13979 net.cpp:91] Creating Layer conv2/relu_3x3
I0403 14:59:28.722198 13979 net.cpp:425] conv2/relu_3x3 <- conv2/3x3
I0403 14:59:28.722214 13979 net.cpp:386] conv2/relu_3x3 -> conv2/3x3 (in-place)
I0403 14:59:28.722390 13979 net.cpp:141] Setting up conv2/relu_3x3
I0403 14:59:28.722417 13979 net.cpp:148] Top shape: 24 192 56 56 (14450688)
I0403 14:59:28.722456 13979 net.cpp:156] Memory required for data: 361268256
I0403 14:59:28.722471 13979 layer_factory.hpp:77] Creating layer conv2/norm2
I0403 14:59:28.722489 13979 net.cpp:91] Creating Layer conv2/norm2
I0403 14:59:28.722504 13979 net.cpp:425] conv2/norm2 <- conv2/3x3
I0403 14:59:28.722524 13979 net.cpp:399] conv2/norm2 -> conv2/norm2
I0403 14:59:28.722827 13979 net.cpp:141] Setting up conv2/norm2
I0403 14:59:28.722854 13979 net.cpp:148] Top shape: 24 192 56 56 (14450688)
I0403 14:59:28.722869 13979 net.cpp:156] Memory required for data: 419071008
I0403 14:59:28.722883 13979 layer_factory.hpp:77] Creating layer pool2/3x3_s2
I0403 14:59:28.722901 13979 net.cpp:91] Creating Layer pool2/3x3_s2
I0403 14:59:28.722916 13979 net.cpp:425] pool2/3x3_s2 <- conv2/norm2
I0403 14:59:28.722935 13979 net.cpp:399] pool2/3x3_s2 -> pool2/3x3_s2
I0403 14:59:28.722990 13979 net.cpp:141] Setting up pool2/3x3_s2
I0403 14:59:28.723013 13979 net.cpp:148] Top shape: 24 192 28 28 (3612672)
I0403 14:59:28.723028 13979 net.cpp:156] Memory required for data: 433521696
I0403 14:59:28.723042 13979 layer_factory.hpp:77] Creating layer pool2/3x3_s2_pool2/3x3_s2_0_split
I0403 14:59:28.723058 13979 net.cpp:91] Creating Layer pool2/3x3_s2_pool2/3x3_s2_0_split
I0403 14:59:28.723073 13979 net.cpp:425] pool2/3x3_s2_pool2/3x3_s2_0_split <- pool2/3x3_s2
I0403 14:59:28.723093 13979 net.cpp:399] pool2/3x3_s2_pool2/3x3_s2_0_split -> pool2/3x3_s2_pool2/3x3_s2_0_split_0
I0403 14:59:28.723112 13979 net.cpp:399] pool2/3x3_s2_pool2/3x3_s2_0_split -> pool2/3x3_s2_pool2/3x3_s2_0_split_1
I0403 14:59:28.723130 13979 net.cpp:399] pool2/3x3_s2_pool2/3x3_s2_0_split -> pool2/3x3_s2_pool2/3x3_s2_0_split_2
I0403 14:59:28.723150 13979 net.cpp:399] pool2/3x3_s2_pool2/3x3_s2_0_split -> pool2/3x3_s2_pool2/3x3_s2_0_split_3
I0403 14:59:28.723219 13979 net.cpp:141] Setting up pool2/3x3_s2_pool2/3x3_s2_0_split
I0403 14:59:28.723242 13979 net.cpp:148] Top shape: 24 192 28 28 (3612672)
I0403 14:59:28.723258 13979 net.cpp:148] Top shape: 24 192 28 28 (3612672)
I0403 14:59:28.723273 13979 net.cpp:148] Top shape: 24 192 28 28 (3612672)
I0403 14:59:28.723287 13979 net.cpp:148] Top shape: 24 192 28 28 (3612672)
I0403 14:59:28.723300 13979 net.cpp:156] Memory required for data: 491324448
I0403 14:59:28.723315 13979 layer_factory.hpp:77] Creating layer inception_3a/1x1
I0403 14:59:28.723338 13979 net.cpp:91] Creating Layer inception_3a/1x1
I0403 14:59:28.723356 13979 net.cpp:425] inception_3a/1x1 <- pool2/3x3_s2_pool2/3x3_s2_0_split_0
I0403 14:59:28.723373 13979 net.cpp:399] inception_3a/1x1 -> inception_3a/1x1
I0403 14:59:28.724895 13979 net.cpp:141] Setting up inception_3a/1x1
I0403 14:59:28.724925 13979 net.cpp:148] Top shape: 24 64 28 28 (1204224)
I0403 14:59:28.724941 13979 net.cpp:156] Memory required for data: 496141344
I0403 14:59:28.724957 13979 layer_factory.hpp:77] Creating layer inception_3a/relu_1x1
I0403 14:59:28.724977 13979 net.cpp:91] Creating Layer inception_3a/relu_1x1
I0403 14:59:28.724994 13979 net.cpp:425] inception_3a/relu_1x1 <- inception_3a/1x1
I0403 14:59:28.725011 13979 net.cpp:386] inception_3a/relu_1x1 -> inception_3a/1x1 (in-place)
I0403 14:59:28.725183 13979 net.cpp:141] Setting up inception_3a/relu_1x1
I0403 14:59:28.725210 13979 net.cpp:148] Top shape: 24 64 28 28 (1204224)
I0403 14:59:28.725226 13979 net.cpp:156] Memory required for data: 500958240
I0403 14:59:28.725240 13979 layer_factory.hpp:77] Creating layer inception_3a/3x3_reduce
I0403 14:59:28.725262 13979 net.cpp:91] Creating Layer inception_3a/3x3_reduce
I0403 14:59:28.725278 13979 net.cpp:425] inception_3a/3x3_reduce <- pool2/3x3_s2_pool2/3x3_s2_0_split_1
I0403 14:59:28.725299 13979 net.cpp:399] inception_3a/3x3_reduce -> inception_3a/3x3_reduce
I0403 14:59:28.726964 13979 net.cpp:141] Setting up inception_3a/3x3_reduce
I0403 14:59:28.726994 13979 net.cpp:148] Top shape: 24 96 28 28 (1806336)
I0403 14:59:28.727008 13979 net.cpp:156] Memory required for data: 508183584
I0403 14:59:28.727031 13979 layer_factory.hpp:77] Creating layer inception_3a/relu_3x3_reduce
I0403 14:59:28.727066 13979 net.cpp:91] Creating Layer inception_3a/relu_3x3_reduce
I0403 14:59:28.727083 13979 net.cpp:425] inception_3a/relu_3x3_reduce <- inception_3a/3x3_reduce
I0403 14:59:28.727102 13979 net.cpp:386] inception_3a/relu_3x3_reduce -> inception_3a/3x3_reduce (in-place)
I0403 14:59:28.727285 13979 net.cpp:141] Setting up inception_3a/relu_3x3_reduce
I0403 14:59:28.727311 13979 net.cpp:148] Top shape: 24 96 28 28 (1806336)
I0403 14:59:28.727325 13979 net.cpp:156] Memory required for data: 515408928
I0403 14:59:28.727340 13979 layer_factory.hpp:77] Creating layer inception_3a/3x3
I0403 14:59:28.727362 13979 net.cpp:91] Creating Layer inception_3a/3x3
I0403 14:59:28.727380 13979 net.cpp:425] inception_3a/3x3 <- inception_3a/3x3_reduce
I0403 14:59:28.727401 13979 net.cpp:399] inception_3a/3x3 -> inception_3a/3x3
I0403 14:59:28.729064 13979 net.cpp:141] Setting up inception_3a/3x3
I0403 14:59:28.729094 13979 net.cpp:148] Top shape: 24 128 28 28 (2408448)
I0403 14:59:28.729110 13979 net.cpp:156] Memory required for data: 525042720
I0403 14:59:28.729127 13979 layer_factory.hpp:77] Creating layer inception_3a/relu_3x3
I0403 14:59:28.729161 13979 net.cpp:91] Creating Layer inception_3a/relu_3x3
I0403 14:59:28.729178 13979 net.cpp:425] inception_3a/relu_3x3 <- inception_3a/3x3
I0403 14:59:28.729197 13979 net.cpp:386] inception_3a/relu_3x3 -> inception_3a/3x3 (in-place)
I0403 14:59:28.729483 13979 net.cpp:141] Setting up inception_3a/relu_3x3
I0403 14:59:28.729509 13979 net.cpp:148] Top shape: 24 128 28 28 (2408448)
I0403 14:59:28.729524 13979 net.cpp:156] Memory required for data: 534676512
I0403 14:59:28.729539 13979 layer_factory.hpp:77] Creating layer inception_3a/5x5_reduce
I0403 14:59:28.729562 13979 net.cpp:91] Creating Layer inception_3a/5x5_reduce
I0403 14:59:28.729585 13979 net.cpp:425] inception_3a/5x5_reduce <- pool2/3x3_s2_pool2/3x3_s2_0_split_2
I0403 14:59:28.729604 13979 net.cpp:399] inception_3a/5x5_reduce -> inception_3a/5x5_reduce
I0403 14:59:28.730576 13979 net.cpp:141] Setting up inception_3a/5x5_reduce
I0403 14:59:28.730604 13979 net.cpp:148] Top shape: 24 16 28 28 (301056)
I0403 14:59:28.730622 13979 net.cpp:156] Memory required for data: 535880736
I0403 14:59:28.730641 13979 layer_factory.hpp:77] Creating layer inception_3a/relu_5x5_reduce
I0403 14:59:28.730661 13979 net.cpp:91] Creating Layer inception_3a/relu_5x5_reduce
I0403 14:59:28.730677 13979 net.cpp:425] inception_3a/relu_5x5_reduce <- inception_3a/5x5_reduce
I0403 14:59:28.730695 13979 net.cpp:386] inception_3a/relu_5x5_reduce -> inception_3a/5x5_reduce (in-place)
I0403 14:59:28.730999 13979 net.cpp:141] Setting up inception_3a/relu_5x5_reduce
I0403 14:59:28.731029 13979 net.cpp:148] Top shape: 24 16 28 28 (301056)
I0403 14:59:28.731045 13979 net.cpp:156] Memory required for data: 537084960
I0403 14:59:28.731060 13979 layer_factory.hpp:77] Creating layer inception_3a/5x5
I0403 14:59:28.731082 13979 net.cpp:91] Creating Layer inception_3a/5x5
I0403 14:59:28.731099 13979 net.cpp:425] inception_3a/5x5 <- inception_3a/5x5_reduce
I0403 14:59:28.731118 13979 net.cpp:399] inception_3a/5x5 -> inception_3a/5x5
I0403 14:59:28.732144 13979 net.cpp:141] Setting up inception_3a/5x5
I0403 14:59:28.732172 13979 net.cpp:148] Top shape: 24 32 28 28 (602112)
I0403 14:59:28.732188 13979 net.cpp:156] Memory required for data: 539493408
I0403 14:59:28.732208 13979 layer_factory.hpp:77] Creating layer inception_3a/relu_5x5
I0403 14:59:28.732228 13979 net.cpp:91] Creating Layer inception_3a/relu_5x5
I0403 14:59:28.732244 13979 net.cpp:425] inception_3a/relu_5x5 <- inception_3a/5x5
I0403 14:59:28.732262 13979 net.cpp:386] inception_3a/relu_5x5 -> inception_3a/5x5 (in-place)
I0403 14:59:28.732435 13979 net.cpp:141] Setting up inception_3a/relu_5x5
I0403 14:59:28.732462 13979 net.cpp:148] Top shape: 24 32 28 28 (602112)
I0403 14:59:28.732478 13979 net.cpp:156] Memory required for data: 541901856
I0403 14:59:28.732494 13979 layer_factory.hpp:77] Creating layer inception_3a/pool
I0403 14:59:28.732512 13979 net.cpp:91] Creating Layer inception_3a/pool
I0403 14:59:28.732528 13979 net.cpp:425] inception_3a/pool <- pool2/3x3_s2_pool2/3x3_s2_0_split_3
I0403 14:59:28.732581 13979 net.cpp:399] inception_3a/pool -> inception_3a/pool
I0403 14:59:28.732643 13979 net.cpp:141] Setting up inception_3a/pool
I0403 14:59:28.732667 13979 net.cpp:148] Top shape: 24 192 28 28 (3612672)
I0403 14:59:28.732681 13979 net.cpp:156] Memory required for data: 556352544
I0403 14:59:28.732697 13979 layer_factory.hpp:77] Creating layer inception_3a/pool_proj
I0403 14:59:28.732718 13979 net.cpp:91] Creating Layer inception_3a/pool_proj
I0403 14:59:28.732735 13979 net.cpp:425] inception_3a/pool_proj <- inception_3a/pool
I0403 14:59:28.732758 13979 net.cpp:399] inception_3a/pool_proj -> inception_3a/pool_proj
I0403 14:59:28.733747 13979 net.cpp:141] Setting up inception_3a/pool_proj
I0403 14:59:28.733777 13979 net.cpp:148] Top shape: 24 32 28 28 (602112)
I0403 14:59:28.733793 13979 net.cpp:156] Memory required for data: 558760992
I0403 14:59:28.733819 13979 layer_factory.hpp:77] Creating layer inception_3a/relu_pool_proj
I0403 14:59:28.733839 13979 net.cpp:91] Creating Layer inception_3a/relu_pool_proj
I0403 14:59:28.733855 13979 net.cpp:425] inception_3a/relu_pool_proj <- inception_3a/pool_proj
I0403 14:59:28.733875 13979 net.cpp:386] inception_3a/relu_pool_proj -> inception_3a/pool_proj (in-place)
I0403 14:59:28.734153 13979 net.cpp:141] Setting up inception_3a/relu_pool_proj
I0403 14:59:28.734180 13979 net.cpp:148] Top shape: 24 32 28 28 (602112)
I0403 14:59:28.734195 13979 net.cpp:156] Memory required for data: 561169440
I0403 14:59:28.734210 13979 layer_factory.hpp:77] Creating layer inception_3a/output
I0403 14:59:28.734231 13979 net.cpp:91] Creating Layer inception_3a/output
I0403 14:59:28.734248 13979 net.cpp:425] inception_3a/output <- inception_3a/1x1
I0403 14:59:28.734266 13979 net.cpp:425] inception_3a/output <- inception_3a/3x3
I0403 14:59:28.734282 13979 net.cpp:425] inception_3a/output <- inception_3a/5x5
I0403 14:59:28.734298 13979 net.cpp:425] inception_3a/output <- inception_3a/pool_proj
I0403 14:59:28.734316 13979 net.cpp:399] inception_3a/output -> inception_3a/output
I0403 14:59:28.734365 13979 net.cpp:141] Setting up inception_3a/output
I0403 14:59:28.734390 13979 net.cpp:148] Top shape: 24 256 28 28 (4816896)
I0403 14:59:28.734405 13979 net.cpp:156] Memory required for data: 580437024
I0403 14:59:28.734418 13979 layer_factory.hpp:77] Creating layer inception_3a/output_inception_3a/output_0_split
I0403 14:59:28.734436 13979 net.cpp:91] Creating Layer inception_3a/output_inception_3a/output_0_split
I0403 14:59:28.734450 13979 net.cpp:425] inception_3a/output_inception_3a/output_0_split <- inception_3a/output
I0403 14:59:28.734469 13979 net.cpp:399] inception_3a/output_inception_3a/output_0_split -> inception_3a/output_inception_3a/output_0_split_0
I0403 14:59:28.734491 13979 net.cpp:399] inception_3a/output_inception_3a/output_0_split -> inception_3a/output_inception_3a/output_0_split_1
I0403 14:59:28.734516 13979 net.cpp:399] inception_3a/output_inception_3a/output_0_split -> inception_3a/output_inception_3a/output_0_split_2
I0403 14:59:28.734539 13979 net.cpp:399] inception_3a/output_inception_3a/output_0_split -> inception_3a/output_inception_3a/output_0_split_3
I0403 14:59:28.734627 13979 net.cpp:141] Setting up inception_3a/output_inception_3a/output_0_split
I0403 14:59:28.734652 13979 net.cpp:148] Top shape: 24 256 28 28 (4816896)
I0403 14:59:28.734669 13979 net.cpp:148] Top shape: 24 256 28 28 (4816896)
I0403 14:59:28.734685 13979 net.cpp:148] Top shape: 24 256 28 28 (4816896)
I0403 14:59:28.734701 13979 net.cpp:148] Top shape: 24 256 28 28 (4816896)
I0403 14:59:28.734715 13979 net.cpp:156] Memory required for data: 657507360
I0403 14:59:28.734730 13979 layer_factory.hpp:77] Creating layer inception_3b/1x1
I0403 14:59:28.734751 13979 net.cpp:91] Creating Layer inception_3b/1x1
I0403 14:59:28.734769 13979 net.cpp:425] inception_3b/1x1 <- inception_3a/output_inception_3a/output_0_split_0
I0403 14:59:28.734791 13979 net.cpp:399] inception_3b/1x1 -> inception_3b/1x1
I0403 14:59:28.735951 13979 net.cpp:141] Setting up inception_3b/1x1
I0403 14:59:28.735991 13979 net.cpp:148] Top shape: 24 128 28 28 (2408448)
I0403 14:59:28.736007 13979 net.cpp:156] Memory required for data: 667141152
I0403 14:59:28.736026 13979 layer_factory.hpp:77] Creating layer inception_3b/relu_1x1
I0403 14:59:28.736047 13979 net.cpp:91] Creating Layer inception_3b/relu_1x1
I0403 14:59:28.736063 13979 net.cpp:425] inception_3b/relu_1x1 <- inception_3b/1x1
I0403 14:59:28.736079 13979 net.cpp:386] inception_3b/relu_1x1 -> inception_3b/1x1 (in-place)
I0403 14:59:28.736246 13979 net.cpp:141] Setting up inception_3b/relu_1x1
I0403 14:59:28.736271 13979 net.cpp:148] Top shape: 24 128 28 28 (2408448)
I0403 14:59:28.736285 13979 net.cpp:156] Memory required for data: 676774944
I0403 14:59:28.736299 13979 layer_factory.hpp:77] Creating layer inception_3b/3x3_reduce
I0403 14:59:28.736322 13979 net.cpp:91] Creating Layer inception_3b/3x3_reduce
I0403 14:59:28.736340 13979 net.cpp:425] inception_3b/3x3_reduce <- inception_3a/output_inception_3a/output_0_split_1
I0403 14:59:28.736358 13979 net.cpp:399] inception_3b/3x3_reduce -> inception_3b/3x3_reduce
I0403 14:59:28.737488 13979 net.cpp:141] Setting up inception_3b/3x3_reduce
I0403 14:59:28.737515 13979 net.cpp:148] Top shape: 24 128 28 28 (2408448)
I0403 14:59:28.737531 13979 net.cpp:156] Memory required for data: 686408736
I0403 14:59:28.737548 13979 layer_factory.hpp:77] Creating layer inception_3b/relu_3x3_reduce
I0403 14:59:28.737572 13979 net.cpp:91] Creating Layer inception_3b/relu_3x3_reduce
I0403 14:59:28.737591 13979 net.cpp:425] inception_3b/relu_3x3_reduce <- inception_3b/3x3_reduce
I0403 14:59:28.737607 13979 net.cpp:386] inception_3b/relu_3x3_reduce -> inception_3b/3x3_reduce (in-place)
I0403 14:59:28.737774 13979 net.cpp:141] Setting up inception_3b/relu_3x3_reduce
I0403 14:59:28.737799 13979 net.cpp:148] Top shape: 24 128 28 28 (2408448)
I0403 14:59:28.737817 13979 net.cpp:156] Memory required for data: 696042528
I0403 14:59:28.737830 13979 layer_factory.hpp:77] Creating layer inception_3b/3x3
I0403 14:59:28.737855 13979 net.cpp:91] Creating Layer inception_3b/3x3
I0403 14:59:28.737872 13979 net.cpp:425] inception_3b/3x3 <- inception_3b/3x3_reduce
I0403 14:59:28.737892 13979 net.cpp:399] inception_3b/3x3 -> inception_3b/3x3
I0403 14:59:28.740643 13979 net.cpp:141] Setting up inception_3b/3x3
I0403 14:59:28.740670 13979 net.cpp:148] Top shape: 24 192 28 28 (3612672)
I0403 14:59:28.740685 13979 net.cpp:156] Memory required for data: 710493216
I0403 14:59:28.740703 13979 layer_factory.hpp:77] Creating layer inception_3b/relu_3x3
I0403 14:59:28.740722 13979 net.cpp:91] Creating Layer inception_3b/relu_3x3
I0403 14:59:28.740739 13979 net.cpp:425] inception_3b/relu_3x3 <- inception_3b/3x3
I0403 14:59:28.740756 13979 net.cpp:386] inception_3b/relu_3x3 -> inception_3b/3x3 (in-place)
I0403 14:59:28.741024 13979 net.cpp:141] Setting up inception_3b/relu_3x3
I0403 14:59:28.741050 13979 net.cpp:148] Top shape: 24 192 28 28 (3612672)
I0403 14:59:28.741065 13979 net.cpp:156] Memory required for data: 724943904
I0403 14:59:28.741080 13979 layer_factory.hpp:77] Creating layer inception_3b/5x5_reduce
I0403 14:59:28.741104 13979 net.cpp:91] Creating Layer inception_3b/5x5_reduce
I0403 14:59:28.741122 13979 net.cpp:425] inception_3b/5x5_reduce <- inception_3a/output_inception_3a/output_0_split_2
I0403 14:59:28.741140 13979 net.cpp:399] inception_3b/5x5_reduce -> inception_3b/5x5_reduce
I0403 14:59:28.742110 13979 net.cpp:141] Setting up inception_3b/5x5_reduce
I0403 14:59:28.742138 13979 net.cpp:148] Top shape: 24 32 28 28 (602112)
I0403 14:59:28.742153 13979 net.cpp:156] Memory required for data: 727352352
I0403 14:59:28.742172 13979 layer_factory.hpp:77] Creating layer inception_3b/relu_5x5_reduce
I0403 14:59:28.742192 13979 net.cpp:91] Creating Layer inception_3b/relu_5x5_reduce
I0403 14:59:28.742208 13979 net.cpp:425] inception_3b/relu_5x5_reduce <- inception_3b/5x5_reduce
I0403 14:59:28.742225 13979 net.cpp:386] inception_3b/relu_5x5_reduce -> inception_3b/5x5_reduce (in-place)
I0403 14:59:28.742393 13979 net.cpp:141] Setting up inception_3b/relu_5x5_reduce
I0403 14:59:28.742432 13979 net.cpp:148] Top shape: 24 32 28 28 (602112)
I0403 14:59:28.742449 13979 net.cpp:156] Memory required for data: 729760800
I0403 14:59:28.742463 13979 layer_factory.hpp:77] Creating layer inception_3b/5x5
I0403 14:59:28.742483 13979 net.cpp:91] Creating Layer inception_3b/5x5
I0403 14:59:28.742501 13979 net.cpp:425] inception_3b/5x5 <- inception_3b/5x5_reduce
I0403 14:59:28.742519 13979 net.cpp:399] inception_3b/5x5 -> inception_3b/5x5
I0403 14:59:28.744354 13979 net.cpp:141] Setting up inception_3b/5x5
I0403 14:59:28.744381 13979 net.cpp:148] Top shape: 24 96 28 28 (1806336)
I0403 14:59:28.744397 13979 net.cpp:156] Memory required for data: 736986144
I0403 14:59:28.744415 13979 layer_factory.hpp:77] Creating layer inception_3b/relu_5x5
I0403 14:59:28.744432 13979 net.cpp:91] Creating Layer inception_3b/relu_5x5
I0403 14:59:28.744447 13979 net.cpp:425] inception_3b/relu_5x5 <- inception_3b/5x5
I0403 14:59:28.744465 13979 net.cpp:386] inception_3b/relu_5x5 -> inception_3b/5x5 (in-place)
I0403 14:59:28.744664 13979 net.cpp:141] Setting up inception_3b/relu_5x5
I0403 14:59:28.744689 13979 net.cpp:148] Top shape: 24 96 28 28 (1806336)
I0403 14:59:28.744704 13979 net.cpp:156] Memory required for data: 744211488
I0403 14:59:28.744719 13979 layer_factory.hpp:77] Creating layer inception_3b/pool
I0403 14:59:28.744737 13979 net.cpp:91] Creating Layer inception_3b/pool
I0403 14:59:28.744752 13979 net.cpp:425] inception_3b/pool <- inception_3a/output_inception_3a/output_0_split_3
I0403 14:59:28.744771 13979 net.cpp:399] inception_3b/pool -> inception_3b/pool
I0403 14:59:28.744827 13979 net.cpp:141] Setting up inception_3b/pool
I0403 14:59:28.744848 13979 net.cpp:148] Top shape: 24 256 28 28 (4816896)
I0403 14:59:28.744863 13979 net.cpp:156] Memory required for data: 763479072
I0403 14:59:28.744876 13979 layer_factory.hpp:77] Creating layer inception_3b/pool_proj
I0403 14:59:28.744897 13979 net.cpp:91] Creating Layer inception_3b/pool_proj
I0403 14:59:28.744915 13979 net.cpp:425] inception_3b/pool_proj <- inception_3b/pool
I0403 14:59:28.744935 13979 net.cpp:399] inception_3b/pool_proj -> inception_3b/pool_proj
I0403 14:59:28.746022 13979 net.cpp:141] Setting up inception_3b/pool_proj
I0403 14:59:28.746052 13979 net.cpp:148] Top shape: 24 64 28 28 (1204224)
I0403 14:59:28.746068 13979 net.cpp:156] Memory required for data: 768295968
I0403 14:59:28.746086 13979 layer_factory.hpp:77] Creating layer inception_3b/relu_pool_proj
I0403 14:59:28.746104 13979 net.cpp:91] Creating Layer inception_3b/relu_pool_proj
I0403 14:59:28.746120 13979 net.cpp:425] inception_3b/relu_pool_proj <- inception_3b/pool_proj
I0403 14:59:28.746140 13979 net.cpp:386] inception_3b/relu_pool_proj -> inception_3b/pool_proj (in-place)
I0403 14:59:28.746541 13979 net.cpp:141] Setting up inception_3b/relu_pool_proj
I0403 14:59:28.746573 13979 net.cpp:148] Top shape: 24 64 28 28 (1204224)
I0403 14:59:28.746592 13979 net.cpp:156] Memory required for data: 773112864
I0403 14:59:28.746606 13979 layer_factory.hpp:77] Creating layer inception_3b/output
I0403 14:59:28.746624 13979 net.cpp:91] Creating Layer inception_3b/output
I0403 14:59:28.746639 13979 net.cpp:425] inception_3b/output <- inception_3b/1x1
I0403 14:59:28.746656 13979 net.cpp:425] inception_3b/output <- inception_3b/3x3
I0403 14:59:28.746671 13979 net.cpp:425] inception_3b/output <- inception_3b/5x5
I0403 14:59:28.746688 13979 net.cpp:425] inception_3b/output <- inception_3b/pool_proj
I0403 14:59:28.746704 13979 net.cpp:399] inception_3b/output -> inception_3b/output
I0403 14:59:28.746750 13979 net.cpp:141] Setting up inception_3b/output
I0403 14:59:28.746773 13979 net.cpp:148] Top shape: 24 480 28 28 (9031680)
I0403 14:59:28.746788 13979 net.cpp:156] Memory required for data: 809239584
I0403 14:59:28.746803 13979 layer_factory.hpp:77] Creating layer pool3/3x3_s2
I0403 14:59:28.746822 13979 net.cpp:91] Creating Layer pool3/3x3_s2
I0403 14:59:28.746839 13979 net.cpp:425] pool3/3x3_s2 <- inception_3b/output
I0403 14:59:28.746856 13979 net.cpp:399] pool3/3x3_s2 -> pool3/3x3_s2
I0403 14:59:28.746932 13979 net.cpp:141] Setting up pool3/3x3_s2
I0403 14:59:28.746954 13979 net.cpp:148] Top shape: 24 480 14 14 (2257920)
I0403 14:59:28.746969 13979 net.cpp:156] Memory required for data: 818271264
I0403 14:59:28.746984 13979 layer_factory.hpp:77] Creating layer pool3/3x3_s2_pool3/3x3_s2_0_split
I0403 14:59:28.747000 13979 net.cpp:91] Creating Layer pool3/3x3_s2_pool3/3x3_s2_0_split
I0403 14:59:28.747015 13979 net.cpp:425] pool3/3x3_s2_pool3/3x3_s2_0_split <- pool3/3x3_s2
I0403 14:59:28.747035 13979 net.cpp:399] pool3/3x3_s2_pool3/3x3_s2_0_split -> pool3/3x3_s2_pool3/3x3_s2_0_split_0
I0403 14:59:28.747056 13979 net.cpp:399] pool3/3x3_s2_pool3/3x3_s2_0_split -> pool3/3x3_s2_pool3/3x3_s2_0_split_1
I0403 14:59:28.747074 13979 net.cpp:399] pool3/3x3_s2_pool3/3x3_s2_0_split -> pool3/3x3_s2_pool3/3x3_s2_0_split_2
I0403 14:59:28.747093 13979 net.cpp:399] pool3/3x3_s2_pool3/3x3_s2_0_split -> pool3/3x3_s2_pool3/3x3_s2_0_split_3
I0403 14:59:28.747169 13979 net.cpp:141] Setting up pool3/3x3_s2_pool3/3x3_s2_0_split
I0403 14:59:28.747195 13979 net.cpp:148] Top shape: 24 480 14 14 (2257920)
I0403 14:59:28.747213 13979 net.cpp:148] Top shape: 24 480 14 14 (2257920)
I0403 14:59:28.747230 13979 net.cpp:148] Top shape: 24 480 14 14 (2257920)
I0403 14:59:28.747244 13979 net.cpp:148] Top shape: 24 480 14 14 (2257920)
I0403 14:59:28.747257 13979 net.cpp:156] Memory required for data: 854397984
I0403 14:59:28.747272 13979 layer_factory.hpp:77] Creating layer inception_4a/1x1
I0403 14:59:28.747293 13979 net.cpp:91] Creating Layer inception_4a/1x1
I0403 14:59:28.747310 13979 net.cpp:425] inception_4a/1x1 <- pool3/3x3_s2_pool3/3x3_s2_0_split_0
I0403 14:59:28.747330 13979 net.cpp:399] inception_4a/1x1 -> inception_4a/1x1
I0403 14:59:28.748944 13979 net.cpp:141] Setting up inception_4a/1x1
I0403 14:59:28.748972 13979 net.cpp:148] Top shape: 24 192 14 14 (903168)
I0403 14:59:28.748989 13979 net.cpp:156] Memory required for data: 858010656
I0403 14:59:28.749007 13979 layer_factory.hpp:77] Creating layer inception_4a/relu_1x1
I0403 14:59:28.749027 13979 net.cpp:91] Creating Layer inception_4a/relu_1x1
I0403 14:59:28.749043 13979 net.cpp:425] inception_4a/relu_1x1 <- inception_4a/1x1
I0403 14:59:28.749063 13979 net.cpp:386] inception_4a/relu_1x1 -> inception_4a/1x1 (in-place)
I0403 14:59:28.749243 13979 net.cpp:141] Setting up inception_4a/relu_1x1
I0403 14:59:28.749270 13979 net.cpp:148] Top shape: 24 192 14 14 (903168)
I0403 14:59:28.749285 13979 net.cpp:156] Memory required for data: 861623328
I0403 14:59:28.749302 13979 layer_factory.hpp:77] Creating layer inception_4a/3x3_reduce
I0403 14:59:28.749326 13979 net.cpp:91] Creating Layer inception_4a/3x3_reduce
I0403 14:59:28.749344 13979 net.cpp:425] inception_4a/3x3_reduce <- pool3/3x3_s2_pool3/3x3_s2_0_split_1
I0403 14:59:28.749366 13979 net.cpp:399] inception_4a/3x3_reduce -> inception_4a/3x3_reduce
I0403 14:59:28.750705 13979 net.cpp:141] Setting up inception_4a/3x3_reduce
I0403 14:59:28.750736 13979 net.cpp:148] Top shape: 24 96 14 14 (451584)
I0403 14:59:28.750753 13979 net.cpp:156] Memory required for data: 863429664
I0403 14:59:28.750779 13979 layer_factory.hpp:77] Creating layer inception_4a/relu_3x3_reduce
I0403 14:59:28.750802 13979 net.cpp:91] Creating Layer inception_4a/relu_3x3_reduce
I0403 14:59:28.750818 13979 net.cpp:425] inception_4a/relu_3x3_reduce <- inception_4a/3x3_reduce
I0403 14:59:28.750835 13979 net.cpp:386] inception_4a/relu_3x3_reduce -> inception_4a/3x3_reduce (in-place)
I0403 14:59:28.751016 13979 net.cpp:141] Setting up inception_4a/relu_3x3_reduce
I0403 14:59:28.751044 13979 net.cpp:148] Top shape: 24 96 14 14 (451584)
I0403 14:59:28.751058 13979 net.cpp:156] Memory required for data: 865236000
I0403 14:59:28.751073 13979 layer_factory.hpp:77] Creating layer inception_4a/3x3
I0403 14:59:28.751096 13979 net.cpp:91] Creating Layer inception_4a/3x3
I0403 14:59:28.751114 13979 net.cpp:425] inception_4a/3x3 <- inception_4a/3x3_reduce
I0403 14:59:28.751137 13979 net.cpp:399] inception_4a/3x3 -> inception_4a/3x3
I0403 14:59:28.753895 13979 net.cpp:141] Setting up inception_4a/3x3
I0403 14:59:28.753924 13979 net.cpp:148] Top shape: 24 208 14 14 (978432)
I0403 14:59:28.753940 13979 net.cpp:156] Memory required for data: 869149728
I0403 14:59:28.753964 13979 layer_factory.hpp:77] Creating layer inception_4a/relu_3x3
I0403 14:59:28.753994 13979 net.cpp:91] Creating Layer inception_4a/relu_3x3
I0403 14:59:28.754012 13979 net.cpp:425] inception_4a/relu_3x3 <- inception_4a/3x3
I0403 14:59:28.754031 13979 net.cpp:386] inception_4a/relu_3x3 -> inception_4a/3x3 (in-place)
I0403 14:59:28.754329 13979 net.cpp:141] Setting up inception_4a/relu_3x3
I0403 14:59:28.754356 13979 net.cpp:148] Top shape: 24 208 14 14 (978432)
I0403 14:59:28.754371 13979 net.cpp:156] Memory required for data: 873063456
I0403 14:59:28.754386 13979 layer_factory.hpp:77] Creating layer inception_4a/5x5_reduce
I0403 14:59:28.754410 13979 net.cpp:91] Creating Layer inception_4a/5x5_reduce
I0403 14:59:28.754427 13979 net.cpp:425] inception_4a/5x5_reduce <- pool3/3x3_s2_pool3/3x3_s2_0_split_2
I0403 14:59:28.754451 13979 net.cpp:399] inception_4a/5x5_reduce -> inception_4a/5x5_reduce
I0403 14:59:28.755542 13979 net.cpp:141] Setting up inception_4a/5x5_reduce
I0403 14:59:28.755575 13979 net.cpp:148] Top shape: 24 16 14 14 (75264)
I0403 14:59:28.755594 13979 net.cpp:156] Memory required for data: 873364512
I0403 14:59:28.755614 13979 layer_factory.hpp:77] Creating layer inception_4a/relu_5x5_reduce
I0403 14:59:28.755635 13979 net.cpp:91] Creating Layer inception_4a/relu_5x5_reduce
I0403 14:59:28.755652 13979 net.cpp:425] inception_4a/relu_5x5_reduce <- inception_4a/5x5_reduce
I0403 14:59:28.755671 13979 net.cpp:386] inception_4a/relu_5x5_reduce -> inception_4a/5x5_reduce (in-place)
I0403 14:59:28.755856 13979 net.cpp:141] Setting up inception_4a/relu_5x5_reduce
I0403 14:59:28.755888 13979 net.cpp:148] Top shape: 24 16 14 14 (75264)
I0403 14:59:28.755905 13979 net.cpp:156] Memory required for data: 873665568
I0403 14:59:28.755920 13979 layer_factory.hpp:77] Creating layer inception_4a/5x5
I0403 14:59:28.755944 13979 net.cpp:91] Creating Layer inception_4a/5x5
I0403 14:59:28.755965 13979 net.cpp:425] inception_4a/5x5 <- inception_4a/5x5_reduce
I0403 14:59:28.755993 13979 net.cpp:399] inception_4a/5x5 -> inception_4a/5x5
I0403 14:59:28.757148 13979 net.cpp:141] Setting up inception_4a/5x5
I0403 14:59:28.757179 13979 net.cpp:148] Top shape: 24 48 14 14 (225792)
I0403 14:59:28.757196 13979 net.cpp:156] Memory required for data: 874568736
I0403 14:59:28.757215 13979 layer_factory.hpp:77] Creating layer inception_4a/relu_5x5
I0403 14:59:28.757235 13979 net.cpp:91] Creating Layer inception_4a/relu_5x5
I0403 14:59:28.757251 13979 net.cpp:425] inception_4a/relu_5x5 <- inception_4a/5x5
I0403 14:59:28.757272 13979 net.cpp:386] inception_4a/relu_5x5 -> inception_4a/5x5 (in-place)
I0403 14:59:28.757459 13979 net.cpp:141] Setting up inception_4a/relu_5x5
I0403 14:59:28.757485 13979 net.cpp:148] Top shape: 24 48 14 14 (225792)
I0403 14:59:28.757500 13979 net.cpp:156] Memory required for data: 875471904
I0403 14:59:28.757515 13979 layer_factory.hpp:77] Creating layer inception_4a/pool
I0403 14:59:28.757534 13979 net.cpp:91] Creating Layer inception_4a/pool
I0403 14:59:28.757550 13979 net.cpp:425] inception_4a/pool <- pool3/3x3_s2_pool3/3x3_s2_0_split_3
I0403 14:59:28.757573 13979 net.cpp:399] inception_4a/pool -> inception_4a/pool
I0403 14:59:28.757640 13979 net.cpp:141] Setting up inception_4a/pool
I0403 14:59:28.757665 13979 net.cpp:148] Top shape: 24 480 14 14 (2257920)
I0403 14:59:28.757680 13979 net.cpp:156] Memory required for data: 884503584
I0403 14:59:28.757695 13979 layer_factory.hpp:77] Creating layer inception_4a/pool_proj
I0403 14:59:28.757720 13979 net.cpp:91] Creating Layer inception_4a/pool_proj
I0403 14:59:28.757738 13979 net.cpp:425] inception_4a/pool_proj <- inception_4a/pool
I0403 14:59:28.757758 13979 net.cpp:399] inception_4a/pool_proj -> inception_4a/pool_proj
I0403 14:59:28.758985 13979 net.cpp:141] Setting up inception_4a/pool_proj
I0403 14:59:28.759016 13979 net.cpp:148] Top shape: 24 64 14 14 (301056)
I0403 14:59:28.759048 13979 net.cpp:156] Memory required for data: 885707808
I0403 14:59:28.759068 13979 layer_factory.hpp:77] Creating layer inception_4a/relu_pool_proj
I0403 14:59:28.759088 13979 net.cpp:91] Creating Layer inception_4a/relu_pool_proj
I0403 14:59:28.759104 13979 net.cpp:425] inception_4a/relu_pool_proj <- inception_4a/pool_proj
I0403 14:59:28.759124 13979 net.cpp:386] inception_4a/relu_pool_proj -> inception_4a/pool_proj (in-place)
I0403 14:59:28.759418 13979 net.cpp:141] Setting up inception_4a/relu_pool_proj
I0403 14:59:28.759451 13979 net.cpp:148] Top shape: 24 64 14 14 (301056)
I0403 14:59:28.759469 13979 net.cpp:156] Memory required for data: 886912032
I0403 14:59:28.759485 13979 layer_factory.hpp:77] Creating layer inception_4a/output
I0403 14:59:28.759502 13979 net.cpp:91] Creating Layer inception_4a/output
I0403 14:59:28.759518 13979 net.cpp:425] inception_4a/output <- inception_4a/1x1
I0403 14:59:28.759536 13979 net.cpp:425] inception_4a/output <- inception_4a/3x3
I0403 14:59:28.759552 13979 net.cpp:425] inception_4a/output <- inception_4a/5x5
I0403 14:59:28.759574 13979 net.cpp:425] inception_4a/output <- inception_4a/pool_proj
I0403 14:59:28.759596 13979 net.cpp:399] inception_4a/output -> inception_4a/output
I0403 14:59:28.759644 13979 net.cpp:141] Setting up inception_4a/output
I0403 14:59:28.759668 13979 net.cpp:148] Top shape: 24 512 14 14 (2408448)
I0403 14:59:28.759690 13979 net.cpp:156] Memory required for data: 896545824
I0403 14:59:28.759712 13979 layer_factory.hpp:77] Creating layer inception_4a/output_inception_4a/output_0_split
I0403 14:59:28.759739 13979 net.cpp:91] Creating Layer inception_4a/output_inception_4a/output_0_split
I0403 14:59:28.759758 13979 net.cpp:425] inception_4a/output_inception_4a/output_0_split <- inception_4a/output
I0403 14:59:28.759778 13979 net.cpp:399] inception_4a/output_inception_4a/output_0_split -> inception_4a/output_inception_4a/output_0_split_0
I0403 14:59:28.759801 13979 net.cpp:399] inception_4a/output_inception_4a/output_0_split -> inception_4a/output_inception_4a/output_0_split_1
I0403 14:59:28.759824 13979 net.cpp:399] inception_4a/output_inception_4a/output_0_split -> inception_4a/output_inception_4a/output_0_split_2
I0403 14:59:28.759843 13979 net.cpp:399] inception_4a/output_inception_4a/output_0_split -> inception_4a/output_inception_4a/output_0_split_3
I0403 14:59:28.759865 13979 net.cpp:399] inception_4a/output_inception_4a/output_0_split -> inception_4a/output_inception_4a/output_0_split_4
I0403 14:59:28.759961 13979 net.cpp:141] Setting up inception_4a/output_inception_4a/output_0_split
I0403 14:59:28.759985 13979 net.cpp:148] Top shape: 24 512 14 14 (2408448)
I0403 14:59:28.760001 13979 net.cpp:148] Top shape: 24 512 14 14 (2408448)
I0403 14:59:28.760018 13979 net.cpp:148] Top shape: 24 512 14 14 (2408448)
I0403 14:59:28.760033 13979 net.cpp:148] Top shape: 24 512 14 14 (2408448)
I0403 14:59:28.760049 13979 net.cpp:148] Top shape: 24 512 14 14 (2408448)
I0403 14:59:28.760062 13979 net.cpp:156] Memory required for data: 944714784
I0403 14:59:28.760077 13979 layer_factory.hpp:77] Creating layer loss1/ave_pool
I0403 14:59:28.760097 13979 net.cpp:91] Creating Layer loss1/ave_pool
I0403 14:59:28.760114 13979 net.cpp:425] loss1/ave_pool <- inception_4a/output_inception_4a/output_0_split_0
I0403 14:59:28.760133 13979 net.cpp:399] loss1/ave_pool -> loss1/ave_pool
I0403 14:59:28.760349 13979 net.cpp:141] Setting up loss1/ave_pool
I0403 14:59:28.760380 13979 net.cpp:148] Top shape: 24 512 4 4 (196608)
I0403 14:59:28.760396 13979 net.cpp:156] Memory required for data: 945501216
I0403 14:59:28.760411 13979 layer_factory.hpp:77] Creating layer loss1/conv
I0403 14:59:28.760434 13979 net.cpp:91] Creating Layer loss1/conv
I0403 14:59:28.760452 13979 net.cpp:425] loss1/conv <- loss1/ave_pool
I0403 14:59:28.760474 13979 net.cpp:399] loss1/conv -> loss1/conv
I0403 14:59:28.761971 13979 net.cpp:141] Setting up loss1/conv
I0403 14:59:28.762001 13979 net.cpp:148] Top shape: 24 128 4 4 (49152)
I0403 14:59:28.762017 13979 net.cpp:156] Memory required for data: 945697824
I0403 14:59:28.762053 13979 layer_factory.hpp:77] Creating layer loss1/relu_conv
I0403 14:59:28.762075 13979 net.cpp:91] Creating Layer loss1/relu_conv
I0403 14:59:28.762094 13979 net.cpp:425] loss1/relu_conv <- loss1/conv
I0403 14:59:28.762110 13979 net.cpp:386] loss1/relu_conv -> loss1/conv (in-place)
I0403 14:59:28.762406 13979 net.cpp:141] Setting up loss1/relu_conv
I0403 14:59:28.762434 13979 net.cpp:148] Top shape: 24 128 4 4 (49152)
I0403 14:59:28.762449 13979 net.cpp:156] Memory required for data: 945894432
I0403 14:59:28.762465 13979 layer_factory.hpp:77] Creating layer loss1/fc
I0403 14:59:28.762491 13979 net.cpp:91] Creating Layer loss1/fc
I0403 14:59:28.762509 13979 net.cpp:425] loss1/fc <- loss1/conv
I0403 14:59:28.762529 13979 net.cpp:399] loss1/fc -> loss1/fc
I0403 14:59:28.780604 13979 net.cpp:141] Setting up loss1/fc
I0403 14:59:28.780649 13979 net.cpp:148] Top shape: 24 1024 (24576)
I0403 14:59:28.780664 13979 net.cpp:156] Memory required for data: 945992736
I0403 14:59:28.780684 13979 layer_factory.hpp:77] Creating layer loss1/relu_fc
I0403 14:59:28.780704 13979 net.cpp:91] Creating Layer loss1/relu_fc
I0403 14:59:28.780720 13979 net.cpp:425] loss1/relu_fc <- loss1/fc
I0403 14:59:28.780740 13979 net.cpp:386] loss1/relu_fc -> loss1/fc (in-place)
I0403 14:59:28.780948 13979 net.cpp:141] Setting up loss1/relu_fc
I0403 14:59:28.780974 13979 net.cpp:148] Top shape: 24 1024 (24576)
I0403 14:59:28.780989 13979 net.cpp:156] Memory required for data: 946091040
I0403 14:59:28.781004 13979 layer_factory.hpp:77] Creating layer loss1/drop_fc
I0403 14:59:28.781033 13979 net.cpp:91] Creating Layer loss1/drop_fc
I0403 14:59:28.781049 13979 net.cpp:425] loss1/drop_fc <- loss1/fc
I0403 14:59:28.781069 13979 net.cpp:386] loss1/drop_fc -> loss1/fc (in-place)
I0403 14:59:28.781122 13979 net.cpp:141] Setting up loss1/drop_fc
I0403 14:59:28.781147 13979 net.cpp:148] Top shape: 24 1024 (24576)
I0403 14:59:28.781162 13979 net.cpp:156] Memory required for data: 946189344
I0403 14:59:28.781177 13979 layer_factory.hpp:77] Creating layer loss1/classifier_plantvillage
I0403 14:59:28.781196 13979 net.cpp:91] Creating Layer loss1/classifier_plantvillage
I0403 14:59:28.781221 13979 net.cpp:425] loss1/classifier_plantvillage <- loss1/fc
I0403 14:59:28.781251 13979 net.cpp:399] loss1/classifier_plantvillage -> loss1/classifier_plantvillage
I0403 14:59:28.782241 13979 net.cpp:141] Setting up loss1/classifier_plantvillage
I0403 14:59:28.782270 13979 net.cpp:148] Top shape: 24 38 (912)
I0403 14:59:28.782285 13979 net.cpp:156] Memory required for data: 946192992
I0403 14:59:28.782305 13979 layer_factory.hpp:77] Creating layer loss1/classifier_plantvillage_loss1/classifier_plantvillage_0_split
I0403 14:59:28.782322 13979 net.cpp:91] Creating Layer loss1/classifier_plantvillage_loss1/classifier_plantvillage_0_split
I0403 14:59:28.782338 13979 net.cpp:425] loss1/classifier_plantvillage_loss1/classifier_plantvillage_0_split <- loss1/classifier_plantvillage
I0403 14:59:28.782358 13979 net.cpp:399] loss1/classifier_plantvillage_loss1/classifier_plantvillage_0_split -> loss1/classifier_plantvillage_loss1/classifier_plantvillage_0_split_0
I0403 14:59:28.782379 13979 net.cpp:399] loss1/classifier_plantvillage_loss1/classifier_plantvillage_0_split -> loss1/classifier_plantvillage_loss1/classifier_plantvillage_0_split_1
I0403 14:59:28.782399 13979 net.cpp:399] loss1/classifier_plantvillage_loss1/classifier_plantvillage_0_split -> loss1/classifier_plantvillage_loss1/classifier_plantvillage_0_split_2
I0403 14:59:28.782471 13979 net.cpp:141] Setting up loss1/classifier_plantvillage_loss1/classifier_plantvillage_0_split
I0403 14:59:28.782495 13979 net.cpp:148] Top shape: 24 38 (912)
I0403 14:59:28.782511 13979 net.cpp:148] Top shape: 24 38 (912)
I0403 14:59:28.782526 13979 net.cpp:148] Top shape: 24 38 (912)
I0403 14:59:28.782541 13979 net.cpp:156] Memory required for data: 946203936
I0403 14:59:28.782554 13979 layer_factory.hpp:77] Creating layer inception_4b/1x1
I0403 14:59:28.782582 13979 net.cpp:91] Creating Layer inception_4b/1x1
I0403 14:59:28.782626 13979 net.cpp:425] inception_4b/1x1 <- inception_4a/output_inception_4a/output_0_split_1
I0403 14:59:28.782647 13979 net.cpp:399] inception_4b/1x1 -> inception_4b/1x1
I0403 14:59:28.784390 13979 net.cpp:141] Setting up inception_4b/1x1
I0403 14:59:28.784420 13979 net.cpp:148] Top shape: 24 160 14 14 (752640)
I0403 14:59:28.784435 13979 net.cpp:156] Memory required for data: 949214496
I0403 14:59:28.784453 13979 layer_factory.hpp:77] Creating layer inception_4b/relu_1x1
I0403 14:59:28.784473 13979 net.cpp:91] Creating Layer inception_4b/relu_1x1
I0403 14:59:28.784490 13979 net.cpp:425] inception_4b/relu_1x1 <- inception_4b/1x1
I0403 14:59:28.784508 13979 net.cpp:386] inception_4b/relu_1x1 -> inception_4b/1x1 (in-place)
I0403 14:59:28.784703 13979 net.cpp:141] Setting up inception_4b/relu_1x1
I0403 14:59:28.784732 13979 net.cpp:148] Top shape: 24 160 14 14 (752640)
I0403 14:59:28.784749 13979 net.cpp:156] Memory required for data: 952225056
I0403 14:59:28.784764 13979 layer_factory.hpp:77] Creating layer inception_4b/3x3_reduce
I0403 14:59:28.784787 13979 net.cpp:91] Creating Layer inception_4b/3x3_reduce
I0403 14:59:28.784806 13979 net.cpp:425] inception_4b/3x3_reduce <- inception_4a/output_inception_4a/output_0_split_2
I0403 14:59:28.784824 13979 net.cpp:399] inception_4b/3x3_reduce -> inception_4b/3x3_reduce
I0403 14:59:28.789456 13979 net.cpp:141] Setting up inception_4b/3x3_reduce
I0403 14:59:28.789494 13979 net.cpp:148] Top shape: 24 112 14 14 (526848)
I0403 14:59:28.789512 13979 net.cpp:156] Memory required for data: 954332448
I0403 14:59:28.789532 13979 layer_factory.hpp:77] Creating layer inception_4b/relu_3x3_reduce
I0403 14:59:28.789551 13979 net.cpp:91] Creating Layer inception_4b/relu_3x3_reduce
I0403 14:59:28.789572 13979 net.cpp:425] inception_4b/relu_3x3_reduce <- inception_4b/3x3_reduce
I0403 14:59:28.789593 13979 net.cpp:386] inception_4b/relu_3x3_reduce -> inception_4b/3x3_reduce (in-place)
I0403 14:59:28.789885 13979 net.cpp:141] Setting up inception_4b/relu_3x3_reduce
I0403 14:59:28.789916 13979 net.cpp:148] Top shape: 24 112 14 14 (526848)
I0403 14:59:28.789932 13979 net.cpp:156] Memory required for data: 956439840
I0403 14:59:28.789947 13979 layer_factory.hpp:77] Creating layer inception_4b/3x3
I0403 14:59:28.789970 13979 net.cpp:91] Creating Layer inception_4b/3x3
I0403 14:59:28.789989 13979 net.cpp:425] inception_4b/3x3 <- inception_4b/3x3_reduce
I0403 14:59:28.790009 13979 net.cpp:399] inception_4b/3x3 -> inception_4b/3x3
I0403 14:59:28.793148 13979 net.cpp:141] Setting up inception_4b/3x3
I0403 14:59:28.793179 13979 net.cpp:148] Top shape: 24 224 14 14 (1053696)
I0403 14:59:28.793195 13979 net.cpp:156] Memory required for data: 960654624
I0403 14:59:28.793213 13979 layer_factory.hpp:77] Creating layer inception_4b/relu_3x3
I0403 14:59:28.793231 13979 net.cpp:91] Creating Layer inception_4b/relu_3x3
I0403 14:59:28.793247 13979 net.cpp:425] inception_4b/relu_3x3 <- inception_4b/3x3
I0403 14:59:28.793267 13979 net.cpp:386] inception_4b/relu_3x3 -> inception_4b/3x3 (in-place)
I0403 14:59:28.793454 13979 net.cpp:141] Setting up inception_4b/relu_3x3
I0403 14:59:28.793479 13979 net.cpp:148] Top shape: 24 224 14 14 (1053696)
I0403 14:59:28.793494 13979 net.cpp:156] Memory required for data: 964869408
I0403 14:59:28.793509 13979 layer_factory.hpp:77] Creating layer inception_4b/5x5_reduce
I0403 14:59:28.793531 13979 net.cpp:91] Creating Layer inception_4b/5x5_reduce
I0403 14:59:28.793548 13979 net.cpp:425] inception_4b/5x5_reduce <- inception_4a/output_inception_4a/output_0_split_3
I0403 14:59:28.793576 13979 net.cpp:399] inception_4b/5x5_reduce -> inception_4b/5x5_reduce
I0403 14:59:28.794700 13979 net.cpp:141] Setting up inception_4b/5x5_reduce
I0403 14:59:28.794728 13979 net.cpp:148] Top shape: 24 24 14 14 (112896)
I0403 14:59:28.794744 13979 net.cpp:156] Memory required for data: 965320992
I0403 14:59:28.794762 13979 layer_factory.hpp:77] Creating layer inception_4b/relu_5x5_reduce
I0403 14:59:28.794782 13979 net.cpp:91] Creating Layer inception_4b/relu_5x5_reduce
I0403 14:59:28.794814 13979 net.cpp:425] inception_4b/relu_5x5_reduce <- inception_4b/5x5_reduce
I0403 14:59:28.794832 13979 net.cpp:386] inception_4b/relu_5x5_reduce -> inception_4b/5x5_reduce (in-place)
I0403 14:59:28.795019 13979 net.cpp:141] Setting up inception_4b/relu_5x5_reduce
I0403 14:59:28.795047 13979 net.cpp:148] Top shape: 24 24 14 14 (112896)
I0403 14:59:28.795061 13979 net.cpp:156] Memory required for data: 965772576
I0403 14:59:28.795075 13979 layer_factory.hpp:77] Creating layer inception_4b/5x5
I0403 14:59:28.795097 13979 net.cpp:91] Creating Layer inception_4b/5x5
I0403 14:59:28.795114 13979 net.cpp:425] inception_4b/5x5 <- inception_4b/5x5_reduce
I0403 14:59:28.795133 13979 net.cpp:399] inception_4b/5x5 -> inception_4b/5x5
I0403 14:59:28.796363 13979 net.cpp:141] Setting up inception_4b/5x5
I0403 14:59:28.796391 13979 net.cpp:148] Top shape: 24 64 14 14 (301056)
I0403 14:59:28.796406 13979 net.cpp:156] Memory required for data: 966976800
I0403 14:59:28.796424 13979 layer_factory.hpp:77] Creating layer inception_4b/relu_5x5
I0403 14:59:28.796444 13979 net.cpp:91] Creating Layer inception_4b/relu_5x5
I0403 14:59:28.796460 13979 net.cpp:425] inception_4b/relu_5x5 <- inception_4b/5x5
I0403 14:59:28.796478 13979 net.cpp:386] inception_4b/relu_5x5 -> inception_4b/5x5 (in-place)
I0403 14:59:28.796772 13979 net.cpp:141] Setting up inception_4b/relu_5x5
I0403 14:59:28.796797 13979 net.cpp:148] Top shape: 24 64 14 14 (301056)
I0403 14:59:28.796813 13979 net.cpp:156] Memory required for data: 968181024
I0403 14:59:28.796826 13979 layer_factory.hpp:77] Creating layer inception_4b/pool
I0403 14:59:28.796846 13979 net.cpp:91] Creating Layer inception_4b/pool
I0403 14:59:28.796864 13979 net.cpp:425] inception_4b/pool <- inception_4a/output_inception_4a/output_0_split_4
I0403 14:59:28.796880 13979 net.cpp:399] inception_4b/pool -> inception_4b/pool
I0403 14:59:28.796946 13979 net.cpp:141] Setting up inception_4b/pool
I0403 14:59:28.796969 13979 net.cpp:148] Top shape: 24 512 14 14 (2408448)
I0403 14:59:28.796983 13979 net.cpp:156] Memory required for data: 977814816
I0403 14:59:28.796998 13979 layer_factory.hpp:77] Creating layer inception_4b/pool_proj
I0403 14:59:28.797019 13979 net.cpp:91] Creating Layer inception_4b/pool_proj
I0403 14:59:28.797036 13979 net.cpp:425] inception_4b/pool_proj <- inception_4b/pool
I0403 14:59:28.797056 13979 net.cpp:399] inception_4b/pool_proj -> inception_4b/pool_proj
I0403 14:59:28.798271 13979 net.cpp:141] Setting up inception_4b/pool_proj
I0403 14:59:28.798302 13979 net.cpp:148] Top shape: 24 64 14 14 (301056)
I0403 14:59:28.798318 13979 net.cpp:156] Memory required for data: 979019040
I0403 14:59:28.798336 13979 layer_factory.hpp:77] Creating layer inception_4b/relu_pool_proj
I0403 14:59:28.798355 13979 net.cpp:91] Creating Layer inception_4b/relu_pool_proj
I0403 14:59:28.798372 13979 net.cpp:425] inception_4b/relu_pool_proj <- inception_4b/pool_proj
I0403 14:59:28.798389 13979 net.cpp:386] inception_4b/relu_pool_proj -> inception_4b/pool_proj (in-place)
I0403 14:59:28.798571 13979 net.cpp:141] Setting up inception_4b/relu_pool_proj
I0403 14:59:28.798599 13979 net.cpp:148] Top shape: 24 64 14 14 (301056)
I0403 14:59:28.798614 13979 net.cpp:156] Memory required for data: 980223264
I0403 14:59:28.798629 13979 layer_factory.hpp:77] Creating layer inception_4b/output
I0403 14:59:28.798645 13979 net.cpp:91] Creating Layer inception_4b/output
I0403 14:59:28.798660 13979 net.cpp:425] inception_4b/output <- inception_4b/1x1
I0403 14:59:28.798676 13979 net.cpp:425] inception_4b/output <- inception_4b/3x3
I0403 14:59:28.798692 13979 net.cpp:425] inception_4b/output <- inception_4b/5x5
I0403 14:59:28.798708 13979 net.cpp:425] inception_4b/output <- inception_4b/pool_proj
I0403 14:59:28.798725 13979 net.cpp:399] inception_4b/output -> inception_4b/output
I0403 14:59:28.798774 13979 net.cpp:141] Setting up inception_4b/output
I0403 14:59:28.798797 13979 net.cpp:148] Top shape: 24 512 14 14 (2408448)
I0403 14:59:28.798811 13979 net.cpp:156] Memory required for data: 989857056
I0403 14:59:28.798840 13979 layer_factory.hpp:77] Creating layer inception_4b/output_inception_4b/output_0_split
I0403 14:59:28.798859 13979 net.cpp:91] Creating Layer inception_4b/output_inception_4b/output_0_split
I0403 14:59:28.798876 13979 net.cpp:425] inception_4b/output_inception_4b/output_0_split <- inception_4b/output
I0403 14:59:28.798892 13979 net.cpp:399] inception_4b/output_inception_4b/output_0_split -> inception_4b/output_inception_4b/output_0_split_0
I0403 14:59:28.798912 13979 net.cpp:399] inception_4b/output_inception_4b/output_0_split -> inception_4b/output_inception_4b/output_0_split_1
I0403 14:59:28.798930 13979 net.cpp:399] inception_4b/output_inception_4b/output_0_split -> inception_4b/output_inception_4b/output_0_split_2
I0403 14:59:28.798951 13979 net.cpp:399] inception_4b/output_inception_4b/output_0_split -> inception_4b/output_inception_4b/output_0_split_3
I0403 14:59:28.799038 13979 net.cpp:141] Setting up inception_4b/output_inception_4b/output_0_split
I0403 14:59:28.799062 13979 net.cpp:148] Top shape: 24 512 14 14 (2408448)
I0403 14:59:28.799077 13979 net.cpp:148] Top shape: 24 512 14 14 (2408448)
I0403 14:59:28.799091 13979 net.cpp:148] Top shape: 24 512 14 14 (2408448)
I0403 14:59:28.799105 13979 net.cpp:148] Top shape: 24 512 14 14 (2408448)
I0403 14:59:28.799118 13979 net.cpp:156] Memory required for data: 1028392224
I0403 14:59:28.799132 13979 layer_factory.hpp:77] Creating layer inception_4c/1x1
I0403 14:59:28.799154 13979 net.cpp:91] Creating Layer inception_4c/1x1
I0403 14:59:28.799170 13979 net.cpp:425] inception_4c/1x1 <- inception_4b/output_inception_4b/output_0_split_0
I0403 14:59:28.799190 13979 net.cpp:399] inception_4c/1x1 -> inception_4c/1x1
I0403 14:59:28.800642 13979 net.cpp:141] Setting up inception_4c/1x1
I0403 14:59:28.800670 13979 net.cpp:148] Top shape: 24 128 14 14 (602112)
I0403 14:59:28.800685 13979 net.cpp:156] Memory required for data: 1030800672
I0403 14:59:28.800703 13979 layer_factory.hpp:77] Creating layer inception_4c/relu_1x1
I0403 14:59:28.800720 13979 net.cpp:91] Creating Layer inception_4c/relu_1x1
I0403 14:59:28.800735 13979 net.cpp:425] inception_4c/relu_1x1 <- inception_4c/1x1
I0403 14:59:28.800755 13979 net.cpp:386] inception_4c/relu_1x1 -> inception_4c/1x1 (in-place)
I0403 14:59:28.800936 13979 net.cpp:141] Setting up inception_4c/relu_1x1
I0403 14:59:28.800972 13979 net.cpp:148] Top shape: 24 128 14 14 (602112)
I0403 14:59:28.800987 13979 net.cpp:156] Memory required for data: 1033209120
I0403 14:59:28.801002 13979 layer_factory.hpp:77] Creating layer inception_4c/3x3_reduce
I0403 14:59:28.801025 13979 net.cpp:91] Creating Layer inception_4c/3x3_reduce
I0403 14:59:28.801043 13979 net.cpp:425] inception_4c/3x3_reduce <- inception_4b/output_inception_4b/output_0_split_1
I0403 14:59:28.801064 13979 net.cpp:399] inception_4c/3x3_reduce -> inception_4c/3x3_reduce
I0403 14:59:28.803066 13979 net.cpp:141] Setting up inception_4c/3x3_reduce
I0403 14:59:28.803093 13979 net.cpp:148] Top shape: 24 128 14 14 (602112)
I0403 14:59:28.803108 13979 net.cpp:156] Memory required for data: 1035617568
I0403 14:59:28.803127 13979 layer_factory.hpp:77] Creating layer inception_4c/relu_3x3_reduce
I0403 14:59:28.803146 13979 net.cpp:91] Creating Layer inception_4c/relu_3x3_reduce
I0403 14:59:28.803163 13979 net.cpp:425] inception_4c/relu_3x3_reduce <- inception_4c/3x3_reduce
I0403 14:59:28.803179 13979 net.cpp:386] inception_4c/relu_3x3_reduce -> inception_4c/3x3_reduce (in-place)
I0403 14:59:28.803457 13979 net.cpp:141] Setting up inception_4c/relu_3x3_reduce
I0403 14:59:28.803483 13979 net.cpp:148] Top shape: 24 128 14 14 (602112)
I0403 14:59:28.803498 13979 net.cpp:156] Memory required for data: 1038026016
I0403 14:59:28.803510 13979 layer_factory.hpp:77] Creating layer inception_4c/3x3
I0403 14:59:28.803532 13979 net.cpp:91] Creating Layer inception_4c/3x3
I0403 14:59:28.803550 13979 net.cpp:425] inception_4c/3x3 <- inception_4c/3x3_reduce
I0403 14:59:28.803573 13979 net.cpp:399] inception_4c/3x3 -> inception_4c/3x3
I0403 14:59:28.807103 13979 net.cpp:141] Setting up inception_4c/3x3
I0403 14:59:28.807143 13979 net.cpp:148] Top shape: 24 256 14 14 (1204224)
I0403 14:59:28.807159 13979 net.cpp:156] Memory required for data: 1042842912
I0403 14:59:28.807191 13979 layer_factory.hpp:77] Creating layer inception_4c/relu_3x3
I0403 14:59:28.807214 13979 net.cpp:91] Creating Layer inception_4c/relu_3x3
I0403 14:59:28.807229 13979 net.cpp:425] inception_4c/relu_3x3 <- inception_4c/3x3
I0403 14:59:28.807246 13979 net.cpp:386] inception_4c/relu_3x3 -> inception_4c/3x3 (in-place)
I0403 14:59:28.807420 13979 net.cpp:141] Setting up inception_4c/relu_3x3
I0403 14:59:28.807445 13979 net.cpp:148] Top shape: 24 256 14 14 (1204224)
I0403 14:59:28.807459 13979 net.cpp:156] Memory required for data: 1047659808
I0403 14:59:28.807472 13979 layer_factory.hpp:77] Creating layer inception_4c/5x5_reduce
I0403 14:59:28.807494 13979 net.cpp:91] Creating Layer inception_4c/5x5_reduce
I0403 14:59:28.807512 13979 net.cpp:425] inception_4c/5x5_reduce <- inception_4b/output_inception_4b/output_0_split_2
I0403 14:59:28.807533 13979 net.cpp:399] inception_4c/5x5_reduce -> inception_4c/5x5_reduce
I0403 14:59:28.808604 13979 net.cpp:141] Setting up inception_4c/5x5_reduce
I0403 14:59:28.808631 13979 net.cpp:148] Top shape: 24 24 14 14 (112896)
I0403 14:59:28.808646 13979 net.cpp:156] Memory required for data: 1048111392
I0403 14:59:28.808663 13979 layer_factory.hpp:77] Creating layer inception_4c/relu_5x5_reduce
I0403 14:59:28.808683 13979 net.cpp:91] Creating Layer inception_4c/relu_5x5_reduce
I0403 14:59:28.808699 13979 net.cpp:425] inception_4c/relu_5x5_reduce <- inception_4c/5x5_reduce
I0403 14:59:28.808717 13979 net.cpp:386] inception_4c/relu_5x5_reduce -> inception_4c/5x5_reduce (in-place)
I0403 14:59:28.808894 13979 net.cpp:141] Setting up inception_4c/relu_5x5_reduce
I0403 14:59:28.808920 13979 net.cpp:148] Top shape: 24 24 14 14 (112896)
I0403 14:59:28.808934 13979 net.cpp:156] Memory required for data: 1048562976
I0403 14:59:28.808948 13979 layer_factory.hpp:77] Creating layer inception_4c/5x5
I0403 14:59:28.808969 13979 net.cpp:91] Creating Layer inception_4c/5x5
I0403 14:59:28.808985 13979 net.cpp:425] inception_4c/5x5 <- inception_4c/5x5_reduce
I0403 14:59:28.809003 13979 net.cpp:399] inception_4c/5x5 -> inception_4c/5x5
I0403 14:59:28.810241 13979 net.cpp:141] Setting up inception_4c/5x5
I0403 14:59:28.810271 13979 net.cpp:148] Top shape: 24 64 14 14 (301056)
I0403 14:59:28.810287 13979 net.cpp:156] Memory required for data: 1049767200
I0403 14:59:28.810304 13979 layer_factory.hpp:77] Creating layer inception_4c/relu_5x5
I0403 14:59:28.810322 13979 net.cpp:91] Creating Layer inception_4c/relu_5x5
I0403 14:59:28.810336 13979 net.cpp:425] inception_4c/relu_5x5 <- inception_4c/5x5
I0403 14:59:28.810356 13979 net.cpp:386] inception_4c/relu_5x5 -> inception_4c/5x5 (in-place)
I0403 14:59:28.810642 13979 net.cpp:141] Setting up inception_4c/relu_5x5
I0403 14:59:28.810670 13979 net.cpp:148] Top shape: 24 64 14 14 (301056)
I0403 14:59:28.810685 13979 net.cpp:156] Memory required for data: 1050971424
I0403 14:59:28.810699 13979 layer_factory.hpp:77] Creating layer inception_4c/pool
I0403 14:59:28.810716 13979 net.cpp:91] Creating Layer inception_4c/pool
I0403 14:59:28.810731 13979 net.cpp:425] inception_4c/pool <- inception_4b/output_inception_4b/output_0_split_3
I0403 14:59:28.810751 13979 net.cpp:399] inception_4c/pool -> inception_4c/pool
I0403 14:59:28.810814 13979 net.cpp:141] Setting up inception_4c/pool
I0403 14:59:28.810837 13979 net.cpp:148] Top shape: 24 512 14 14 (2408448)
I0403 14:59:28.810850 13979 net.cpp:156] Memory required for data: 1060605216
I0403 14:59:28.810864 13979 layer_factory.hpp:77] Creating layer inception_4c/pool_proj
I0403 14:59:28.810885 13979 net.cpp:91] Creating Layer inception_4c/pool_proj
I0403 14:59:28.810904 13979 net.cpp:425] inception_4c/pool_proj <- inception_4c/pool
I0403 14:59:28.810921 13979 net.cpp:399] inception_4c/pool_proj -> inception_4c/pool_proj
I0403 14:59:28.812108 13979 net.cpp:141] Setting up inception_4c/pool_proj
I0403 14:59:28.812135 13979 net.cpp:148] Top shape: 24 64 14 14 (301056)
I0403 14:59:28.812165 13979 net.cpp:156] Memory required for data: 1061809440
I0403 14:59:28.812182 13979 layer_factory.hpp:77] Creating layer inception_4c/relu_pool_proj
I0403 14:59:28.812202 13979 net.cpp:91] Creating Layer inception_4c/relu_pool_proj
I0403 14:59:28.812218 13979 net.cpp:425] inception_4c/relu_pool_proj <- inception_4c/pool_proj
I0403 14:59:28.812234 13979 net.cpp:386] inception_4c/relu_pool_proj -> inception_4c/pool_proj (in-place)
I0403 14:59:28.812412 13979 net.cpp:141] Setting up inception_4c/relu_pool_proj
I0403 14:59:28.812438 13979 net.cpp:148] Top shape: 24 64 14 14 (301056)
I0403 14:59:28.812453 13979 net.cpp:156] Memory required for data: 1063013664
I0403 14:59:28.812466 13979 layer_factory.hpp:77] Creating layer inception_4c/output
I0403 14:59:28.812482 13979 net.cpp:91] Creating Layer inception_4c/output
I0403 14:59:28.812496 13979 net.cpp:425] inception_4c/output <- inception_4c/1x1
I0403 14:59:28.812512 13979 net.cpp:425] inception_4c/output <- inception_4c/3x3
I0403 14:59:28.812527 13979 net.cpp:425] inception_4c/output <- inception_4c/5x5
I0403 14:59:28.812542 13979 net.cpp:425] inception_4c/output <- inception_4c/pool_proj
I0403 14:59:28.812558 13979 net.cpp:399] inception_4c/output -> inception_4c/output
I0403 14:59:28.812609 13979 net.cpp:141] Setting up inception_4c/output
I0403 14:59:28.812631 13979 net.cpp:148] Top shape: 24 512 14 14 (2408448)
I0403 14:59:28.812645 13979 net.cpp:156] Memory required for data: 1072647456
I0403 14:59:28.812659 13979 layer_factory.hpp:77] Creating layer inception_4c/output_inception_4c/output_0_split
I0403 14:59:28.812677 13979 net.cpp:91] Creating Layer inception_4c/output_inception_4c/output_0_split
I0403 14:59:28.812692 13979 net.cpp:425] inception_4c/output_inception_4c/output_0_split <- inception_4c/output
I0403 14:59:28.812710 13979 net.cpp:399] inception_4c/output_inception_4c/output_0_split -> inception_4c/output_inception_4c/output_0_split_0
I0403 14:59:28.812727 13979 net.cpp:399] inception_4c/output_inception_4c/output_0_split -> inception_4c/output_inception_4c/output_0_split_1
I0403 14:59:28.812747 13979 net.cpp:399] inception_4c/output_inception_4c/output_0_split -> inception_4c/output_inception_4c/output_0_split_2
I0403 14:59:28.812765 13979 net.cpp:399] inception_4c/output_inception_4c/output_0_split -> inception_4c/output_inception_4c/output_0_split_3
I0403 14:59:28.812849 13979 net.cpp:141] Setting up inception_4c/output_inception_4c/output_0_split
I0403 14:59:28.812870 13979 net.cpp:148] Top shape: 24 512 14 14 (2408448)
I0403 14:59:28.812886 13979 net.cpp:148] Top shape: 24 512 14 14 (2408448)
I0403 14:59:28.812901 13979 net.cpp:148] Top shape: 24 512 14 14 (2408448)
I0403 14:59:28.812916 13979 net.cpp:148] Top shape: 24 512 14 14 (2408448)
I0403 14:59:28.812928 13979 net.cpp:156] Memory required for data: 1111182624
I0403 14:59:28.812942 13979 layer_factory.hpp:77] Creating layer inception_4d/1x1
I0403 14:59:28.812963 13979 net.cpp:91] Creating Layer inception_4d/1x1
I0403 14:59:28.812979 13979 net.cpp:425] inception_4d/1x1 <- inception_4c/output_inception_4c/output_0_split_0
I0403 14:59:28.813000 13979 net.cpp:399] inception_4d/1x1 -> inception_4d/1x1
I0403 14:59:28.814359 13979 net.cpp:141] Setting up inception_4d/1x1
I0403 14:59:28.814385 13979 net.cpp:148] Top shape: 24 112 14 14 (526848)
I0403 14:59:28.814400 13979 net.cpp:156] Memory required for data: 1113290016
I0403 14:59:28.814417 13979 layer_factory.hpp:77] Creating layer inception_4d/relu_1x1
I0403 14:59:28.814435 13979 net.cpp:91] Creating Layer inception_4d/relu_1x1
I0403 14:59:28.814450 13979 net.cpp:425] inception_4d/relu_1x1 <- inception_4d/1x1
I0403 14:59:28.814467 13979 net.cpp:386] inception_4d/relu_1x1 -> inception_4d/1x1 (in-place)
I0403 14:59:28.814658 13979 net.cpp:141] Setting up inception_4d/relu_1x1
I0403 14:59:28.814683 13979 net.cpp:148] Top shape: 24 112 14 14 (526848)
I0403 14:59:28.814697 13979 net.cpp:156] Memory required for data: 1115397408
I0403 14:59:28.814712 13979 layer_factory.hpp:77] Creating layer inception_4d/3x3_reduce
I0403 14:59:28.814745 13979 net.cpp:91] Creating Layer inception_4d/3x3_reduce
I0403 14:59:28.814764 13979 net.cpp:425] inception_4d/3x3_reduce <- inception_4c/output_inception_4c/output_0_split_1
I0403 14:59:28.814784 13979 net.cpp:399] inception_4d/3x3_reduce -> inception_4d/3x3_reduce
I0403 14:59:28.816329 13979 net.cpp:141] Setting up inception_4d/3x3_reduce
I0403 14:59:28.816371 13979 net.cpp:148] Top shape: 24 144 14 14 (677376)
I0403 14:59:28.816387 13979 net.cpp:156] Memory required for data: 1118106912
I0403 14:59:28.816406 13979 layer_factory.hpp:77] Creating layer inception_4d/relu_3x3_reduce
I0403 14:59:28.816424 13979 net.cpp:91] Creating Layer inception_4d/relu_3x3_reduce
I0403 14:59:28.816440 13979 net.cpp:425] inception_4d/relu_3x3_reduce <- inception_4d/3x3_reduce
I0403 14:59:28.816459 13979 net.cpp:386] inception_4d/relu_3x3_reduce -> inception_4d/3x3_reduce (in-place)
I0403 14:59:28.816753 13979 net.cpp:141] Setting up inception_4d/relu_3x3_reduce
I0403 14:59:28.816782 13979 net.cpp:148] Top shape: 24 144 14 14 (677376)
I0403 14:59:28.816797 13979 net.cpp:156] Memory required for data: 1120816416
I0403 14:59:28.816812 13979 layer_factory.hpp:77] Creating layer inception_4d/3x3
I0403 14:59:28.816834 13979 net.cpp:91] Creating Layer inception_4d/3x3
I0403 14:59:28.816851 13979 net.cpp:425] inception_4d/3x3 <- inception_4d/3x3_reduce
I0403 14:59:28.816870 13979 net.cpp:399] inception_4d/3x3 -> inception_4d/3x3
I0403 14:59:28.821153 13979 net.cpp:141] Setting up inception_4d/3x3
I0403 14:59:28.821182 13979 net.cpp:148] Top shape: 24 288 14 14 (1354752)
I0403 14:59:28.821198 13979 net.cpp:156] Memory required for data: 1126235424
I0403 14:59:28.821216 13979 layer_factory.hpp:77] Creating layer inception_4d/relu_3x3
I0403 14:59:28.821236 13979 net.cpp:91] Creating Layer inception_4d/relu_3x3
I0403 14:59:28.821252 13979 net.cpp:425] inception_4d/relu_3x3 <- inception_4d/3x3
I0403 14:59:28.821270 13979 net.cpp:386] inception_4d/relu_3x3 -> inception_4d/3x3 (in-place)
I0403 14:59:28.821455 13979 net.cpp:141] Setting up inception_4d/relu_3x3
I0403 14:59:28.821480 13979 net.cpp:148] Top shape: 24 288 14 14 (1354752)
I0403 14:59:28.821493 13979 net.cpp:156] Memory required for data: 1131654432
I0403 14:59:28.821507 13979 layer_factory.hpp:77] Creating layer inception_4d/5x5_reduce
I0403 14:59:28.821529 13979 net.cpp:91] Creating Layer inception_4d/5x5_reduce
I0403 14:59:28.821547 13979 net.cpp:425] inception_4d/5x5_reduce <- inception_4c/output_inception_4c/output_0_split_2
I0403 14:59:28.821565 13979 net.cpp:399] inception_4d/5x5_reduce -> inception_4d/5x5_reduce
I0403 14:59:28.822721 13979 net.cpp:141] Setting up inception_4d/5x5_reduce
I0403 14:59:28.822749 13979 net.cpp:148] Top shape: 24 32 14 14 (150528)
I0403 14:59:28.822764 13979 net.cpp:156] Memory required for data: 1132256544
I0403 14:59:28.822782 13979 layer_factory.hpp:77] Creating layer inception_4d/relu_5x5_reduce
I0403 14:59:28.822799 13979 net.cpp:91] Creating Layer inception_4d/relu_5x5_reduce
I0403 14:59:28.822816 13979 net.cpp:425] inception_4d/relu_5x5_reduce <- inception_4d/5x5_reduce
I0403 14:59:28.822845 13979 net.cpp:386] inception_4d/relu_5x5_reduce -> inception_4d/5x5_reduce (in-place)
I0403 14:59:28.823035 13979 net.cpp:141] Setting up inception_4d/relu_5x5_reduce
I0403 14:59:28.823060 13979 net.cpp:148] Top shape: 24 32 14 14 (150528)
I0403 14:59:28.823073 13979 net.cpp:156] Memory required for data: 1132858656
I0403 14:59:28.823088 13979 layer_factory.hpp:77] Creating layer inception_4d/5x5
I0403 14:59:28.823109 13979 net.cpp:91] Creating Layer inception_4d/5x5
I0403 14:59:28.823127 13979 net.cpp:425] inception_4d/5x5 <- inception_4d/5x5_reduce
I0403 14:59:28.823148 13979 net.cpp:399] inception_4d/5x5 -> inception_4d/5x5
I0403 14:59:28.824641 13979 net.cpp:141] Setting up inception_4d/5x5
I0403 14:59:28.824672 13979 net.cpp:148] Top shape: 24 64 14 14 (301056)
I0403 14:59:28.824689 13979 net.cpp:156] Memory required for data: 1134062880
I0403 14:59:28.824707 13979 layer_factory.hpp:77] Creating layer inception_4d/relu_5x5
I0403 14:59:28.824740 13979 net.cpp:91] Creating Layer inception_4d/relu_5x5
I0403 14:59:28.824758 13979 net.cpp:425] inception_4d/relu_5x5 <- inception_4d/5x5
I0403 14:59:28.824774 13979 net.cpp:386] inception_4d/relu_5x5 -> inception_4d/5x5 (in-place)
I0403 14:59:28.825078 13979 net.cpp:141] Setting up inception_4d/relu_5x5
I0403 14:59:28.825108 13979 net.cpp:148] Top shape: 24 64 14 14 (301056)
I0403 14:59:28.825124 13979 net.cpp:156] Memory required for data: 1135267104
I0403 14:59:28.825139 13979 layer_factory.hpp:77] Creating layer inception_4d/pool
I0403 14:59:28.825155 13979 net.cpp:91] Creating Layer inception_4d/pool
I0403 14:59:28.825171 13979 net.cpp:425] inception_4d/pool <- inception_4c/output_inception_4c/output_0_split_3
I0403 14:59:28.825189 13979 net.cpp:399] inception_4d/pool -> inception_4d/pool
I0403 14:59:28.825258 13979 net.cpp:141] Setting up inception_4d/pool
I0403 14:59:28.825280 13979 net.cpp:148] Top shape: 24 512 14 14 (2408448)
I0403 14:59:28.825296 13979 net.cpp:156] Memory required for data: 1144900896
I0403 14:59:28.825310 13979 layer_factory.hpp:77] Creating layer inception_4d/pool_proj
I0403 14:59:28.825332 13979 net.cpp:91] Creating Layer inception_4d/pool_proj
I0403 14:59:28.825350 13979 net.cpp:425] inception_4d/pool_proj <- inception_4d/pool
I0403 14:59:28.825369 13979 net.cpp:399] inception_4d/pool_proj -> inception_4d/pool_proj
I0403 14:59:28.827137 13979 net.cpp:141] Setting up inception_4d/pool_proj
I0403 14:59:28.827165 13979 net.cpp:148] Top shape: 24 64 14 14 (301056)
I0403 14:59:28.827180 13979 net.cpp:156] Memory required for data: 1146105120
I0403 14:59:28.827198 13979 layer_factory.hpp:77] Creating layer inception_4d/relu_pool_proj
I0403 14:59:28.827219 13979 net.cpp:91] Creating Layer inception_4d/relu_pool_proj
I0403 14:59:28.827235 13979 net.cpp:425] inception_4d/relu_pool_proj <- inception_4d/pool_proj
I0403 14:59:28.827252 13979 net.cpp:386] inception_4d/relu_pool_proj -> inception_4d/pool_proj (in-place)
I0403 14:59:28.827436 13979 net.cpp:141] Setting up inception_4d/relu_pool_proj
I0403 14:59:28.827461 13979 net.cpp:148] Top shape: 24 64 14 14 (301056)
I0403 14:59:28.827476 13979 net.cpp:156] Memory required for data: 1147309344
I0403 14:59:28.827489 13979 layer_factory.hpp:77] Creating layer inception_4d/output
I0403 14:59:28.827508 13979 net.cpp:91] Creating Layer inception_4d/output
I0403 14:59:28.827525 13979 net.cpp:425] inception_4d/output <- inception_4d/1x1
I0403 14:59:28.827541 13979 net.cpp:425] inception_4d/output <- inception_4d/3x3
I0403 14:59:28.827556 13979 net.cpp:425] inception_4d/output <- inception_4d/5x5
I0403 14:59:28.827576 13979 net.cpp:425] inception_4d/output <- inception_4d/pool_proj
I0403 14:59:28.827595 13979 net.cpp:399] inception_4d/output -> inception_4d/output
I0403 14:59:28.827644 13979 net.cpp:141] Setting up inception_4d/output
I0403 14:59:28.827667 13979 net.cpp:148] Top shape: 24 528 14 14 (2483712)
I0403 14:59:28.827682 13979 net.cpp:156] Memory required for data: 1157244192
I0403 14:59:28.827697 13979 layer_factory.hpp:77] Creating layer inception_4d/output_inception_4d/output_0_split
I0403 14:59:28.827713 13979 net.cpp:91] Creating Layer inception_4d/output_inception_4d/output_0_split
I0403 14:59:28.827728 13979 net.cpp:425] inception_4d/output_inception_4d/output_0_split <- inception_4d/output
I0403 14:59:28.827749 13979 net.cpp:399] inception_4d/output_inception_4d/output_0_split -> inception_4d/output_inception_4d/output_0_split_0
I0403 14:59:28.827769 13979 net.cpp:399] inception_4d/output_inception_4d/output_0_split -> inception_4d/output_inception_4d/output_0_split_1
I0403 14:59:28.827790 13979 net.cpp:399] inception_4d/output_inception_4d/output_0_split -> inception_4d/output_inception_4d/output_0_split_2
I0403 14:59:28.827810 13979 net.cpp:399] inception_4d/output_inception_4d/output_0_split -> inception_4d/output_inception_4d/output_0_split_3
I0403 14:59:28.827833 13979 net.cpp:399] inception_4d/output_inception_4d/output_0_split -> inception_4d/output_inception_4d/output_0_split_4
I0403 14:59:28.827935 13979 net.cpp:141] Setting up inception_4d/output_inception_4d/output_0_split
I0403 14:59:28.827972 13979 net.cpp:148] Top shape: 24 528 14 14 (2483712)
I0403 14:59:28.827989 13979 net.cpp:148] Top shape: 24 528 14 14 (2483712)
I0403 14:59:28.828004 13979 net.cpp:148] Top shape: 24 528 14 14 (2483712)
I0403 14:59:28.828019 13979 net.cpp:148] Top shape: 24 528 14 14 (2483712)
I0403 14:59:28.828033 13979 net.cpp:148] Top shape: 24 528 14 14 (2483712)
I0403 14:59:28.828047 13979 net.cpp:156] Memory required for data: 1206918432
I0403 14:59:28.828060 13979 layer_factory.hpp:77] Creating layer loss2/ave_pool
I0403 14:59:28.828078 13979 net.cpp:91] Creating Layer loss2/ave_pool
I0403 14:59:28.828094 13979 net.cpp:425] loss2/ave_pool <- inception_4d/output_inception_4d/output_0_split_0
I0403 14:59:28.828114 13979 net.cpp:399] loss2/ave_pool -> loss2/ave_pool
I0403 14:59:28.828431 13979 net.cpp:141] Setting up loss2/ave_pool
I0403 14:59:28.828457 13979 net.cpp:148] Top shape: 24 528 4 4 (202752)
I0403 14:59:28.828472 13979 net.cpp:156] Memory required for data: 1207729440
I0403 14:59:28.828486 13979 layer_factory.hpp:77] Creating layer loss2/conv
I0403 14:59:28.828508 13979 net.cpp:91] Creating Layer loss2/conv
I0403 14:59:28.828526 13979 net.cpp:425] loss2/conv <- loss2/ave_pool
I0403 14:59:28.828547 13979 net.cpp:399] loss2/conv -> loss2/conv
I0403 14:59:28.830440 13979 net.cpp:141] Setting up loss2/conv
I0403 14:59:28.830468 13979 net.cpp:148] Top shape: 24 128 4 4 (49152)
I0403 14:59:28.830483 13979 net.cpp:156] Memory required for data: 1207926048
I0403 14:59:28.830502 13979 layer_factory.hpp:77] Creating layer loss2/relu_conv
I0403 14:59:28.830523 13979 net.cpp:91] Creating Layer loss2/relu_conv
I0403 14:59:28.830539 13979 net.cpp:425] loss2/relu_conv <- loss2/conv
I0403 14:59:28.830556 13979 net.cpp:386] loss2/relu_conv -> loss2/conv (in-place)
I0403 14:59:28.830852 13979 net.cpp:141] Setting up loss2/relu_conv
I0403 14:59:28.830879 13979 net.cpp:148] Top shape: 24 128 4 4 (49152)
I0403 14:59:28.830893 13979 net.cpp:156] Memory required for data: 1208122656
I0403 14:59:28.830909 13979 layer_factory.hpp:77] Creating layer loss2/fc
I0403 14:59:28.830930 13979 net.cpp:91] Creating Layer loss2/fc
I0403 14:59:28.830946 13979 net.cpp:425] loss2/fc <- loss2/conv
I0403 14:59:28.830970 13979 net.cpp:399] loss2/fc -> loss2/fc
I0403 14:59:28.848542 13979 net.cpp:141] Setting up loss2/fc
I0403 14:59:28.848579 13979 net.cpp:148] Top shape: 24 1024 (24576)
I0403 14:59:28.848597 13979 net.cpp:156] Memory required for data: 1208220960
I0403 14:59:28.848616 13979 layer_factory.hpp:77] Creating layer loss2/relu_fc
I0403 14:59:28.848634 13979 net.cpp:91] Creating Layer loss2/relu_fc
I0403 14:59:28.848651 13979 net.cpp:425] loss2/relu_fc <- loss2/fc
I0403 14:59:28.848671 13979 net.cpp:386] loss2/relu_fc -> loss2/fc (in-place)
I0403 14:59:28.848995 13979 net.cpp:141] Setting up loss2/relu_fc
I0403 14:59:28.849021 13979 net.cpp:148] Top shape: 24 1024 (24576)
I0403 14:59:28.849036 13979 net.cpp:156] Memory required for data: 1208319264
I0403 14:59:28.849050 13979 layer_factory.hpp:77] Creating layer loss2/drop_fc
I0403 14:59:28.849068 13979 net.cpp:91] Creating Layer loss2/drop_fc
I0403 14:59:28.849083 13979 net.cpp:425] loss2/drop_fc <- loss2/fc
I0403 14:59:28.849102 13979 net.cpp:386] loss2/drop_fc -> loss2/fc (in-place)
I0403 14:59:28.849154 13979 net.cpp:141] Setting up loss2/drop_fc
I0403 14:59:28.849177 13979 net.cpp:148] Top shape: 24 1024 (24576)
I0403 14:59:28.849191 13979 net.cpp:156] Memory required for data: 1208417568
I0403 14:59:28.849205 13979 layer_factory.hpp:77] Creating layer loss2/classifier_plantvillage
I0403 14:59:28.849223 13979 net.cpp:91] Creating Layer loss2/classifier_plantvillage
I0403 14:59:28.849239 13979 net.cpp:425] loss2/classifier_plantvillage <- loss2/fc
I0403 14:59:28.849261 13979 net.cpp:399] loss2/classifier_plantvillage -> loss2/classifier_plantvillage
I0403 14:59:28.849674 13979 net.cpp:141] Setting up loss2/classifier_plantvillage
I0403 14:59:28.849699 13979 net.cpp:148] Top shape: 24 38 (912)
I0403 14:59:28.849714 13979 net.cpp:156] Memory required for data: 1208421216
I0403 14:59:28.849751 13979 layer_factory.hpp:77] Creating layer loss2/classifier_plantvillage_loss2/classifier_plantvillage_0_split
I0403 14:59:28.849773 13979 net.cpp:91] Creating Layer loss2/classifier_plantvillage_loss2/classifier_plantvillage_0_split
I0403 14:59:28.849791 13979 net.cpp:425] loss2/classifier_plantvillage_loss2/classifier_plantvillage_0_split <- loss2/classifier_plantvillage
I0403 14:59:28.849809 13979 net.cpp:399] loss2/classifier_plantvillage_loss2/classifier_plantvillage_0_split -> loss2/classifier_plantvillage_loss2/classifier_plantvillage_0_split_0
I0403 14:59:28.849830 13979 net.cpp:399] loss2/classifier_plantvillage_loss2/classifier_plantvillage_0_split -> loss2/classifier_plantvillage_loss2/classifier_plantvillage_0_split_1
I0403 14:59:28.849850 13979 net.cpp:399] loss2/classifier_plantvillage_loss2/classifier_plantvillage_0_split -> loss2/classifier_plantvillage_loss2/classifier_plantvillage_0_split_2
I0403 14:59:28.849927 13979 net.cpp:141] Setting up loss2/classifier_plantvillage_loss2/classifier_plantvillage_0_split
I0403 14:59:28.849951 13979 net.cpp:148] Top shape: 24 38 (912)
I0403 14:59:28.849966 13979 net.cpp:148] Top shape: 24 38 (912)
I0403 14:59:28.849980 13979 net.cpp:148] Top shape: 24 38 (912)
I0403 14:59:28.849993 13979 net.cpp:156] Memory required for data: 1208432160
I0403 14:59:28.850008 13979 layer_factory.hpp:77] Creating layer inception_4e/1x1
I0403 14:59:28.850029 13979 net.cpp:91] Creating Layer inception_4e/1x1
I0403 14:59:28.850046 13979 net.cpp:425] inception_4e/1x1 <- inception_4d/output_inception_4d/output_0_split_1
I0403 14:59:28.850065 13979 net.cpp:399] inception_4e/1x1 -> inception_4e/1x1
I0403 14:59:28.851927 13979 net.cpp:141] Setting up inception_4e/1x1
I0403 14:59:28.851956 13979 net.cpp:148] Top shape: 24 256 14 14 (1204224)
I0403 14:59:28.851974 13979 net.cpp:156] Memory required for data: 1213249056
I0403 14:59:28.851991 13979 layer_factory.hpp:77] Creating layer inception_4e/relu_1x1
I0403 14:59:28.852010 13979 net.cpp:91] Creating Layer inception_4e/relu_1x1
I0403 14:59:28.852025 13979 net.cpp:425] inception_4e/relu_1x1 <- inception_4e/1x1
I0403 14:59:28.852041 13979 net.cpp:386] inception_4e/relu_1x1 -> inception_4e/1x1 (in-place)
I0403 14:59:28.852339 13979 net.cpp:141] Setting up inception_4e/relu_1x1
I0403 14:59:28.852366 13979 net.cpp:148] Top shape: 24 256 14 14 (1204224)
I0403 14:59:28.852382 13979 net.cpp:156] Memory required for data: 1218065952
I0403 14:59:28.852404 13979 layer_factory.hpp:77] Creating layer inception_4e/3x3_reduce
I0403 14:59:28.852433 13979 net.cpp:91] Creating Layer inception_4e/3x3_reduce
I0403 14:59:28.852458 13979 net.cpp:425] inception_4e/3x3_reduce <- inception_4d/output_inception_4d/output_0_split_2
I0403 14:59:28.852476 13979 net.cpp:399] inception_4e/3x3_reduce -> inception_4e/3x3_reduce
I0403 14:59:28.854621 13979 net.cpp:141] Setting up inception_4e/3x3_reduce
I0403 14:59:28.854650 13979 net.cpp:148] Top shape: 24 160 14 14 (752640)
I0403 14:59:28.854665 13979 net.cpp:156] Memory required for data: 1221076512
I0403 14:59:28.854683 13979 layer_factory.hpp:77] Creating layer inception_4e/relu_3x3_reduce
I0403 14:59:28.854703 13979 net.cpp:91] Creating Layer inception_4e/relu_3x3_reduce
I0403 14:59:28.854720 13979 net.cpp:425] inception_4e/relu_3x3_reduce <- inception_4e/3x3_reduce
I0403 14:59:28.854737 13979 net.cpp:386] inception_4e/relu_3x3_reduce -> inception_4e/3x3_reduce (in-place)
I0403 14:59:28.854923 13979 net.cpp:141] Setting up inception_4e/relu_3x3_reduce
I0403 14:59:28.854948 13979 net.cpp:148] Top shape: 24 160 14 14 (752640)
I0403 14:59:28.854962 13979 net.cpp:156] Memory required for data: 1224087072
I0403 14:59:28.854976 13979 layer_factory.hpp:77] Creating layer inception_4e/3x3
I0403 14:59:28.854998 13979 net.cpp:91] Creating Layer inception_4e/3x3
I0403 14:59:28.855015 13979 net.cpp:425] inception_4e/3x3 <- inception_4e/3x3_reduce
I0403 14:59:28.855037 13979 net.cpp:399] inception_4e/3x3 -> inception_4e/3x3
I0403 14:59:28.860057 13979 net.cpp:141] Setting up inception_4e/3x3
I0403 14:59:28.860101 13979 net.cpp:148] Top shape: 24 320 14 14 (1505280)
I0403 14:59:28.860117 13979 net.cpp:156] Memory required for data: 1230108192
I0403 14:59:28.860136 13979 layer_factory.hpp:77] Creating layer inception_4e/relu_3x3
I0403 14:59:28.860153 13979 net.cpp:91] Creating Layer inception_4e/relu_3x3
I0403 14:59:28.860168 13979 net.cpp:425] inception_4e/relu_3x3 <- inception_4e/3x3
I0403 14:59:28.860188 13979 net.cpp:386] inception_4e/relu_3x3 -> inception_4e/3x3 (in-place)
I0403 14:59:28.860496 13979 net.cpp:141] Setting up inception_4e/relu_3x3
I0403 14:59:28.860522 13979 net.cpp:148] Top shape: 24 320 14 14 (1505280)
I0403 14:59:28.860537 13979 net.cpp:156] Memory required for data: 1236129312
I0403 14:59:28.860550 13979 layer_factory.hpp:77] Creating layer inception_4e/5x5_reduce
I0403 14:59:28.860579 13979 net.cpp:91] Creating Layer inception_4e/5x5_reduce
I0403 14:59:28.860597 13979 net.cpp:425] inception_4e/5x5_reduce <- inception_4d/output_inception_4d/output_0_split_3
I0403 14:59:28.860618 13979 net.cpp:399] inception_4e/5x5_reduce -> inception_4e/5x5_reduce
I0403 14:59:28.861733 13979 net.cpp:141] Setting up inception_4e/5x5_reduce
I0403 14:59:28.861764 13979 net.cpp:148] Top shape: 24 32 14 14 (150528)
I0403 14:59:28.861781 13979 net.cpp:156] Memory required for data: 1236731424
I0403 14:59:28.861799 13979 layer_factory.hpp:77] Creating layer inception_4e/relu_5x5_reduce
I0403 14:59:28.861817 13979 net.cpp:91] Creating Layer inception_4e/relu_5x5_reduce
I0403 14:59:28.861832 13979 net.cpp:425] inception_4e/relu_5x5_reduce <- inception_4e/5x5_reduce
I0403 14:59:28.861850 13979 net.cpp:386] inception_4e/relu_5x5_reduce -> inception_4e/5x5_reduce (in-place)
I0403 14:59:28.862149 13979 net.cpp:141] Setting up inception_4e/relu_5x5_reduce
I0403 14:59:28.862176 13979 net.cpp:148] Top shape: 24 32 14 14 (150528)
I0403 14:59:28.862192 13979 net.cpp:156] Memory required for data: 1237333536
I0403 14:59:28.862206 13979 layer_factory.hpp:77] Creating layer inception_4e/5x5
I0403 14:59:28.862244 13979 net.cpp:91] Creating Layer inception_4e/5x5
I0403 14:59:28.862265 13979 net.cpp:425] inception_4e/5x5 <- inception_4e/5x5_reduce
I0403 14:59:28.862287 13979 net.cpp:399] inception_4e/5x5 -> inception_4e/5x5
I0403 14:59:28.864140 13979 net.cpp:141] Setting up inception_4e/5x5
I0403 14:59:28.864167 13979 net.cpp:148] Top shape: 24 128 14 14 (602112)
I0403 14:59:28.864184 13979 net.cpp:156] Memory required for data: 1239741984
I0403 14:59:28.864203 13979 layer_factory.hpp:77] Creating layer inception_4e/relu_5x5
I0403 14:59:28.864223 13979 net.cpp:91] Creating Layer inception_4e/relu_5x5
I0403 14:59:28.864240 13979 net.cpp:425] inception_4e/relu_5x5 <- inception_4e/5x5
I0403 14:59:28.864258 13979 net.cpp:386] inception_4e/relu_5x5 -> inception_4e/5x5 (in-place)
I0403 14:59:28.864454 13979 net.cpp:141] Setting up inception_4e/relu_5x5
I0403 14:59:28.864481 13979 net.cpp:148] Top shape: 24 128 14 14 (602112)
I0403 14:59:28.864496 13979 net.cpp:156] Memory required for data: 1242150432
I0403 14:59:28.864511 13979 layer_factory.hpp:77] Creating layer inception_4e/pool
I0403 14:59:28.864528 13979 net.cpp:91] Creating Layer inception_4e/pool
I0403 14:59:28.864545 13979 net.cpp:425] inception_4e/pool <- inception_4d/output_inception_4d/output_0_split_4
I0403 14:59:28.864565 13979 net.cpp:399] inception_4e/pool -> inception_4e/pool
I0403 14:59:28.864678 13979 net.cpp:141] Setting up inception_4e/pool
I0403 14:59:28.864704 13979 net.cpp:148] Top shape: 24 528 14 14 (2483712)
I0403 14:59:28.864719 13979 net.cpp:156] Memory required for data: 1252085280
I0403 14:59:28.864733 13979 layer_factory.hpp:77] Creating layer inception_4e/pool_proj
I0403 14:59:28.864756 13979 net.cpp:91] Creating Layer inception_4e/pool_proj
I0403 14:59:28.864774 13979 net.cpp:425] inception_4e/pool_proj <- inception_4e/pool
I0403 14:59:28.864795 13979 net.cpp:399] inception_4e/pool_proj -> inception_4e/pool_proj
I0403 14:59:28.866366 13979 net.cpp:141] Setting up inception_4e/pool_proj
I0403 14:59:28.866401 13979 net.cpp:148] Top shape: 24 128 14 14 (602112)
I0403 14:59:28.866435 13979 net.cpp:156] Memory required for data: 1254493728
I0403 14:59:28.866454 13979 layer_factory.hpp:77] Creating layer inception_4e/relu_pool_proj
I0403 14:59:28.866477 13979 net.cpp:91] Creating Layer inception_4e/relu_pool_proj
I0403 14:59:28.866493 13979 net.cpp:425] inception_4e/relu_pool_proj <- inception_4e/pool_proj
I0403 14:59:28.866510 13979 net.cpp:386] inception_4e/relu_pool_proj -> inception_4e/pool_proj (in-place)
I0403 14:59:28.866816 13979 net.cpp:141] Setting up inception_4e/relu_pool_proj
I0403 14:59:28.866842 13979 net.cpp:148] Top shape: 24 128 14 14 (602112)
I0403 14:59:28.866858 13979 net.cpp:156] Memory required for data: 1256902176
I0403 14:59:28.866873 13979 layer_factory.hpp:77] Creating layer inception_4e/output
I0403 14:59:28.866890 13979 net.cpp:91] Creating Layer inception_4e/output
I0403 14:59:28.866906 13979 net.cpp:425] inception_4e/output <- inception_4e/1x1
I0403 14:59:28.866930 13979 net.cpp:425] inception_4e/output <- inception_4e/3x3
I0403 14:59:28.866968 13979 net.cpp:425] inception_4e/output <- inception_4e/5x5
I0403 14:59:28.866986 13979 net.cpp:425] inception_4e/output <- inception_4e/pool_proj
I0403 14:59:28.867005 13979 net.cpp:399] inception_4e/output -> inception_4e/output
I0403 14:59:28.867059 13979 net.cpp:141] Setting up inception_4e/output
I0403 14:59:28.867090 13979 net.cpp:148] Top shape: 24 832 14 14 (3913728)
I0403 14:59:28.867106 13979 net.cpp:156] Memory required for data: 1272557088
I0403 14:59:28.867121 13979 layer_factory.hpp:77] Creating layer pool4/3x3_s2
I0403 14:59:28.867139 13979 net.cpp:91] Creating Layer pool4/3x3_s2
I0403 14:59:28.867156 13979 net.cpp:425] pool4/3x3_s2 <- inception_4e/output
I0403 14:59:28.867177 13979 net.cpp:399] pool4/3x3_s2 -> pool4/3x3_s2
I0403 14:59:28.867249 13979 net.cpp:141] Setting up pool4/3x3_s2
I0403 14:59:28.867280 13979 net.cpp:148] Top shape: 24 832 7 7 (978432)
I0403 14:59:28.867295 13979 net.cpp:156] Memory required for data: 1276470816
I0403 14:59:28.867310 13979 layer_factory.hpp:77] Creating layer pool4/3x3_s2_pool4/3x3_s2_0_split
I0403 14:59:28.867327 13979 net.cpp:91] Creating Layer pool4/3x3_s2_pool4/3x3_s2_0_split
I0403 14:59:28.867342 13979 net.cpp:425] pool4/3x3_s2_pool4/3x3_s2_0_split <- pool4/3x3_s2
I0403 14:59:28.867365 13979 net.cpp:399] pool4/3x3_s2_pool4/3x3_s2_0_split -> pool4/3x3_s2_pool4/3x3_s2_0_split_0
I0403 14:59:28.867389 13979 net.cpp:399] pool4/3x3_s2_pool4/3x3_s2_0_split -> pool4/3x3_s2_pool4/3x3_s2_0_split_1
I0403 14:59:28.867414 13979 net.cpp:399] pool4/3x3_s2_pool4/3x3_s2_0_split -> pool4/3x3_s2_pool4/3x3_s2_0_split_2
I0403 14:59:28.867441 13979 net.cpp:399] pool4/3x3_s2_pool4/3x3_s2_0_split -> pool4/3x3_s2_pool4/3x3_s2_0_split_3
I0403 14:59:28.867553 13979 net.cpp:141] Setting up pool4/3x3_s2_pool4/3x3_s2_0_split
I0403 14:59:28.867583 13979 net.cpp:148] Top shape: 24 832 7 7 (978432)
I0403 14:59:28.867599 13979 net.cpp:148] Top shape: 24 832 7 7 (978432)
I0403 14:59:28.867615 13979 net.cpp:148] Top shape: 24 832 7 7 (978432)
I0403 14:59:28.867630 13979 net.cpp:148] Top shape: 24 832 7 7 (978432)
I0403 14:59:28.867645 13979 net.cpp:156] Memory required for data: 1292125728
I0403 14:59:28.867658 13979 layer_factory.hpp:77] Creating layer inception_5a/1x1
I0403 14:59:28.867681 13979 net.cpp:91] Creating Layer inception_5a/1x1
I0403 14:59:28.867699 13979 net.cpp:425] inception_5a/1x1 <- pool4/3x3_s2_pool4/3x3_s2_0_split_0
I0403 14:59:28.867722 13979 net.cpp:399] inception_5a/1x1 -> inception_5a/1x1
I0403 14:59:28.870746 13979 net.cpp:141] Setting up inception_5a/1x1
I0403 14:59:28.870776 13979 net.cpp:148] Top shape: 24 256 7 7 (301056)
I0403 14:59:28.870792 13979 net.cpp:156] Memory required for data: 1293329952
I0403 14:59:28.870810 13979 layer_factory.hpp:77] Creating layer inception_5a/relu_1x1
I0403 14:59:28.870831 13979 net.cpp:91] Creating Layer inception_5a/relu_1x1
I0403 14:59:28.870848 13979 net.cpp:425] inception_5a/relu_1x1 <- inception_5a/1x1
I0403 14:59:28.870865 13979 net.cpp:386] inception_5a/relu_1x1 -> inception_5a/1x1 (in-place)
I0403 14:59:28.871191 13979 net.cpp:141] Setting up inception_5a/relu_1x1
I0403 14:59:28.871217 13979 net.cpp:148] Top shape: 24 256 7 7 (301056)
I0403 14:59:28.871233 13979 net.cpp:156] Memory required for data: 1294534176
I0403 14:59:28.871248 13979 layer_factory.hpp:77] Creating layer inception_5a/3x3_reduce
I0403 14:59:28.871273 13979 net.cpp:91] Creating Layer inception_5a/3x3_reduce
I0403 14:59:28.871294 13979 net.cpp:425] inception_5a/3x3_reduce <- pool4/3x3_s2_pool4/3x3_s2_0_split_1
I0403 14:59:28.871312 13979 net.cpp:399] inception_5a/3x3_reduce -> inception_5a/3x3_reduce
I0403 14:59:28.873860 13979 net.cpp:141] Setting up inception_5a/3x3_reduce
I0403 14:59:28.873889 13979 net.cpp:148] Top shape: 24 160 7 7 (188160)
I0403 14:59:28.873905 13979 net.cpp:156] Memory required for data: 1295286816
I0403 14:59:28.873924 13979 layer_factory.hpp:77] Creating layer inception_5a/relu_3x3_reduce
I0403 14:59:28.873942 13979 net.cpp:91] Creating Layer inception_5a/relu_3x3_reduce
I0403 14:59:28.873961 13979 net.cpp:425] inception_5a/relu_3x3_reduce <- inception_5a/3x3_reduce
I0403 14:59:28.873980 13979 net.cpp:386] inception_5a/relu_3x3_reduce -> inception_5a/3x3_reduce (in-place)
I0403 14:59:28.874171 13979 net.cpp:141] Setting up inception_5a/relu_3x3_reduce
I0403 14:59:28.874197 13979 net.cpp:148] Top shape: 24 160 7 7 (188160)
I0403 14:59:28.874210 13979 net.cpp:156] Memory required for data: 1296039456
I0403 14:59:28.874225 13979 layer_factory.hpp:77] Creating layer inception_5a/3x3
I0403 14:59:28.874248 13979 net.cpp:91] Creating Layer inception_5a/3x3
I0403 14:59:28.874269 13979 net.cpp:425] inception_5a/3x3 <- inception_5a/3x3_reduce
I0403 14:59:28.874292 13979 net.cpp:399] inception_5a/3x3 -> inception_5a/3x3
I0403 14:59:28.879478 13979 net.cpp:141] Setting up inception_5a/3x3
I0403 14:59:28.879518 13979 net.cpp:148] Top shape: 24 320 7 7 (376320)
I0403 14:59:28.879540 13979 net.cpp:156] Memory required for data: 1297544736
I0403 14:59:28.879565 13979 layer_factory.hpp:77] Creating layer inception_5a/relu_3x3
I0403 14:59:28.879604 13979 net.cpp:91] Creating Layer inception_5a/relu_3x3
I0403 14:59:28.879624 13979 net.cpp:425] inception_5a/relu_3x3 <- inception_5a/3x3
I0403 14:59:28.879642 13979 net.cpp:386] inception_5a/relu_3x3 -> inception_5a/3x3 (in-place)
I0403 14:59:28.879963 13979 net.cpp:141] Setting up inception_5a/relu_3x3
I0403 14:59:28.879990 13979 net.cpp:148] Top shape: 24 320 7 7 (376320)
I0403 14:59:28.880004 13979 net.cpp:156] Memory required for data: 1299050016
I0403 14:59:28.880019 13979 layer_factory.hpp:77] Creating layer inception_5a/5x5_reduce
I0403 14:59:28.880043 13979 net.cpp:91] Creating Layer inception_5a/5x5_reduce
I0403 14:59:28.880060 13979 net.cpp:425] inception_5a/5x5_reduce <- pool4/3x3_s2_pool4/3x3_s2_0_split_2
I0403 14:59:28.880081 13979 net.cpp:399] inception_5a/5x5_reduce -> inception_5a/5x5_reduce
I0403 14:59:28.881294 13979 net.cpp:141] Setting up inception_5a/5x5_reduce
I0403 14:59:28.881330 13979 net.cpp:148] Top shape: 24 32 7 7 (37632)
I0403 14:59:28.881347 13979 net.cpp:156] Memory required for data: 1299200544
I0403 14:59:28.881366 13979 layer_factory.hpp:77] Creating layer inception_5a/relu_5x5_reduce
I0403 14:59:28.881386 13979 net.cpp:91] Creating Layer inception_5a/relu_5x5_reduce
I0403 14:59:28.881404 13979 net.cpp:425] inception_5a/relu_5x5_reduce <- inception_5a/5x5_reduce
I0403 14:59:28.881422 13979 net.cpp:386] inception_5a/relu_5x5_reduce -> inception_5a/5x5_reduce (in-place)
I0403 14:59:28.881733 13979 net.cpp:141] Setting up inception_5a/relu_5x5_reduce
I0403 14:59:28.881760 13979 net.cpp:148] Top shape: 24 32 7 7 (37632)
I0403 14:59:28.881775 13979 net.cpp:156] Memory required for data: 1299351072
I0403 14:59:28.881789 13979 layer_factory.hpp:77] Creating layer inception_5a/5x5
I0403 14:59:28.881814 13979 net.cpp:91] Creating Layer inception_5a/5x5
I0403 14:59:28.881831 13979 net.cpp:425] inception_5a/5x5 <- inception_5a/5x5_reduce
I0403 14:59:28.881851 13979 net.cpp:399] inception_5a/5x5 -> inception_5a/5x5
I0403 14:59:28.883641 13979 net.cpp:141] Setting up inception_5a/5x5
I0403 14:59:28.883680 13979 net.cpp:148] Top shape: 24 128 7 7 (150528)
I0403 14:59:28.883697 13979 net.cpp:156] Memory required for data: 1299953184
I0403 14:59:28.883714 13979 layer_factory.hpp:77] Creating layer inception_5a/relu_5x5
I0403 14:59:28.883746 13979 net.cpp:91] Creating Layer inception_5a/relu_5x5
I0403 14:59:28.883764 13979 net.cpp:425] inception_5a/relu_5x5 <- inception_5a/5x5
I0403 14:59:28.883782 13979 net.cpp:386] inception_5a/relu_5x5 -> inception_5a/5x5 (in-place)
I0403 14:59:28.883980 13979 net.cpp:141] Setting up inception_5a/relu_5x5
I0403 14:59:28.884021 13979 net.cpp:148] Top shape: 24 128 7 7 (150528)
I0403 14:59:28.884037 13979 net.cpp:156] Memory required for data: 1300555296
I0403 14:59:28.884050 13979 layer_factory.hpp:77] Creating layer inception_5a/pool
I0403 14:59:28.884068 13979 net.cpp:91] Creating Layer inception_5a/pool
I0403 14:59:28.884083 13979 net.cpp:425] inception_5a/pool <- pool4/3x3_s2_pool4/3x3_s2_0_split_3
I0403 14:59:28.884104 13979 net.cpp:399] inception_5a/pool -> inception_5a/pool
I0403 14:59:28.884174 13979 net.cpp:141] Setting up inception_5a/pool
I0403 14:59:28.884197 13979 net.cpp:148] Top shape: 24 832 7 7 (978432)
I0403 14:59:28.884212 13979 net.cpp:156] Memory required for data: 1304469024
I0403 14:59:28.884225 13979 layer_factory.hpp:77] Creating layer inception_5a/pool_proj
I0403 14:59:28.884249 13979 net.cpp:91] Creating Layer inception_5a/pool_proj
I0403 14:59:28.884269 13979 net.cpp:425] inception_5a/pool_proj <- inception_5a/pool
I0403 14:59:28.884290 13979 net.cpp:399] inception_5a/pool_proj -> inception_5a/pool_proj
I0403 14:59:28.886543 13979 net.cpp:141] Setting up inception_5a/pool_proj
I0403 14:59:28.886579 13979 net.cpp:148] Top shape: 24 128 7 7 (150528)
I0403 14:59:28.886596 13979 net.cpp:156] Memory required for data: 1305071136
I0403 14:59:28.886613 13979 layer_factory.hpp:77] Creating layer inception_5a/relu_pool_proj
I0403 14:59:28.886633 13979 net.cpp:91] Creating Layer inception_5a/relu_pool_proj
I0403 14:59:28.886649 13979 net.cpp:425] inception_5a/relu_pool_proj <- inception_5a/pool_proj
I0403 14:59:28.886667 13979 net.cpp:386] inception_5a/relu_pool_proj -> inception_5a/pool_proj (in-place)
I0403 14:59:28.886953 13979 net.cpp:141] Setting up inception_5a/relu_pool_proj
I0403 14:59:28.886979 13979 net.cpp:148] Top shape: 24 128 7 7 (150528)
I0403 14:59:28.886993 13979 net.cpp:156] Memory required for data: 1305673248
I0403 14:59:28.887007 13979 layer_factory.hpp:77] Creating layer inception_5a/output
I0403 14:59:28.887024 13979 net.cpp:91] Creating Layer inception_5a/output
I0403 14:59:28.887039 13979 net.cpp:425] inception_5a/output <- inception_5a/1x1
I0403 14:59:28.887055 13979 net.cpp:425] inception_5a/output <- inception_5a/3x3
I0403 14:59:28.887070 13979 net.cpp:425] inception_5a/output <- inception_5a/5x5
I0403 14:59:28.887086 13979 net.cpp:425] inception_5a/output <- inception_5a/pool_proj
I0403 14:59:28.887104 13979 net.cpp:399] inception_5a/output -> inception_5a/output
I0403 14:59:28.887156 13979 net.cpp:141] Setting up inception_5a/output
I0403 14:59:28.887178 13979 net.cpp:148] Top shape: 24 832 7 7 (978432)
I0403 14:59:28.887193 13979 net.cpp:156] Memory required for data: 1309586976
I0403 14:59:28.887207 13979 layer_factory.hpp:77] Creating layer inception_5a/output_inception_5a/output_0_split
I0403 14:59:28.887224 13979 net.cpp:91] Creating Layer inception_5a/output_inception_5a/output_0_split
I0403 14:59:28.887238 13979 net.cpp:425] inception_5a/output_inception_5a/output_0_split <- inception_5a/output
I0403 14:59:28.887258 13979 net.cpp:399] inception_5a/output_inception_5a/output_0_split -> inception_5a/output_inception_5a/output_0_split_0
I0403 14:59:28.887284 13979 net.cpp:399] inception_5a/output_inception_5a/output_0_split -> inception_5a/output_inception_5a/output_0_split_1
I0403 14:59:28.887305 13979 net.cpp:399] inception_5a/output_inception_5a/output_0_split -> inception_5a/output_inception_5a/output_0_split_2
I0403 14:59:28.887323 13979 net.cpp:399] inception_5a/output_inception_5a/output_0_split -> inception_5a/output_inception_5a/output_0_split_3
I0403 14:59:28.887434 13979 net.cpp:141] Setting up inception_5a/output_inception_5a/output_0_split
I0403 14:59:28.887457 13979 net.cpp:148] Top shape: 24 832 7 7 (978432)
I0403 14:59:28.887472 13979 net.cpp:148] Top shape: 24 832 7 7 (978432)
I0403 14:59:28.887487 13979 net.cpp:148] Top shape: 24 832 7 7 (978432)
I0403 14:59:28.887502 13979 net.cpp:148] Top shape: 24 832 7 7 (978432)
I0403 14:59:28.887514 13979 net.cpp:156] Memory required for data: 1325241888
I0403 14:59:28.887527 13979 layer_factory.hpp:77] Creating layer inception_5b/1x1
I0403 14:59:28.887550 13979 net.cpp:91] Creating Layer inception_5b/1x1
I0403 14:59:28.887570 13979 net.cpp:425] inception_5b/1x1 <- inception_5a/output_inception_5a/output_0_split_0
I0403 14:59:28.887591 13979 net.cpp:399] inception_5b/1x1 -> inception_5b/1x1
I0403 14:59:28.891320 13979 net.cpp:141] Setting up inception_5b/1x1
I0403 14:59:28.891350 13979 net.cpp:148] Top shape: 24 384 7 7 (451584)
I0403 14:59:28.891366 13979 net.cpp:156] Memory required for data: 1327048224
I0403 14:59:28.891383 13979 layer_factory.hpp:77] Creating layer inception_5b/relu_1x1
I0403 14:59:28.891403 13979 net.cpp:91] Creating Layer inception_5b/relu_1x1
I0403 14:59:28.891422 13979 net.cpp:425] inception_5b/relu_1x1 <- inception_5b/1x1
I0403 14:59:28.891438 13979 net.cpp:386] inception_5b/relu_1x1 -> inception_5b/1x1 (in-place)
I0403 14:59:28.891751 13979 net.cpp:141] Setting up inception_5b/relu_1x1
I0403 14:59:28.891777 13979 net.cpp:148] Top shape: 24 384 7 7 (451584)
I0403 14:59:28.891791 13979 net.cpp:156] Memory required for data: 1328854560
I0403 14:59:28.891806 13979 layer_factory.hpp:77] Creating layer inception_5b/3x3_reduce
I0403 14:59:28.891829 13979 net.cpp:91] Creating Layer inception_5b/3x3_reduce
I0403 14:59:28.891847 13979 net.cpp:425] inception_5b/3x3_reduce <- inception_5a/output_inception_5a/output_0_split_1
I0403 14:59:28.891870 13979 net.cpp:399] inception_5b/3x3_reduce -> inception_5b/3x3_reduce
I0403 14:59:28.894474 13979 net.cpp:141] Setting up inception_5b/3x3_reduce
I0403 14:59:28.894502 13979 net.cpp:148] Top shape: 24 192 7 7 (225792)
I0403 14:59:28.894516 13979 net.cpp:156] Memory required for data: 1329757728
I0403 14:59:28.894534 13979 layer_factory.hpp:77] Creating layer inception_5b/relu_3x3_reduce
I0403 14:59:28.894551 13979 net.cpp:91] Creating Layer inception_5b/relu_3x3_reduce
I0403 14:59:28.894567 13979 net.cpp:425] inception_5b/relu_3x3_reduce <- inception_5b/3x3_reduce
I0403 14:59:28.894598 13979 net.cpp:386] inception_5b/relu_3x3_reduce -> inception_5b/3x3_reduce (in-place)
I0403 14:59:28.894785 13979 net.cpp:141] Setting up inception_5b/relu_3x3_reduce
I0403 14:59:28.894809 13979 net.cpp:148] Top shape: 24 192 7 7 (225792)
I0403 14:59:28.894824 13979 net.cpp:156] Memory required for data: 1330660896
I0403 14:59:28.894837 13979 layer_factory.hpp:77] Creating layer inception_5b/3x3
I0403 14:59:28.894858 13979 net.cpp:91] Creating Layer inception_5b/3x3
I0403 14:59:28.894876 13979 net.cpp:425] inception_5b/3x3 <- inception_5b/3x3_reduce
I0403 14:59:28.894896 13979 net.cpp:399] inception_5b/3x3 -> inception_5b/3x3
I0403 14:59:28.901435 13979 net.cpp:141] Setting up inception_5b/3x3
I0403 14:59:28.901463 13979 net.cpp:148] Top shape: 24 384 7 7 (451584)
I0403 14:59:28.901478 13979 net.cpp:156] Memory required for data: 1332467232
I0403 14:59:28.901495 13979 layer_factory.hpp:77] Creating layer inception_5b/relu_3x3
I0403 14:59:28.901515 13979 net.cpp:91] Creating Layer inception_5b/relu_3x3
I0403 14:59:28.901531 13979 net.cpp:425] inception_5b/relu_3x3 <- inception_5b/3x3
I0403 14:59:28.901548 13979 net.cpp:386] inception_5b/relu_3x3 -> inception_5b/3x3 (in-place)
I0403 14:59:28.901841 13979 net.cpp:141] Setting up inception_5b/relu_3x3
I0403 14:59:28.901867 13979 net.cpp:148] Top shape: 24 384 7 7 (451584)
I0403 14:59:28.901881 13979 net.cpp:156] Memory required for data: 1334273568
I0403 14:59:28.901895 13979 layer_factory.hpp:77] Creating layer inception_5b/5x5_reduce
I0403 14:59:28.901932 13979 net.cpp:91] Creating Layer inception_5b/5x5_reduce
I0403 14:59:28.901950 13979 net.cpp:425] inception_5b/5x5_reduce <- inception_5a/output_inception_5a/output_0_split_2
I0403 14:59:28.901971 13979 net.cpp:399] inception_5b/5x5_reduce -> inception_5b/5x5_reduce
I0403 14:59:28.903213 13979 net.cpp:141] Setting up inception_5b/5x5_reduce
I0403 14:59:28.903239 13979 net.cpp:148] Top shape: 24 48 7 7 (56448)
I0403 14:59:28.903255 13979 net.cpp:156] Memory required for data: 1334499360
I0403 14:59:28.903283 13979 layer_factory.hpp:77] Creating layer inception_5b/relu_5x5_reduce
I0403 14:59:28.903302 13979 net.cpp:91] Creating Layer inception_5b/relu_5x5_reduce
I0403 14:59:28.903319 13979 net.cpp:425] inception_5b/relu_5x5_reduce <- inception_5b/5x5_reduce
I0403 14:59:28.903337 13979 net.cpp:386] inception_5b/relu_5x5_reduce -> inception_5b/5x5_reduce (in-place)
I0403 14:59:28.903717 13979 net.cpp:141] Setting up inception_5b/relu_5x5_reduce
I0403 14:59:28.903743 13979 net.cpp:148] Top shape: 24 48 7 7 (56448)
I0403 14:59:28.903758 13979 net.cpp:156] Memory required for data: 1334725152
I0403 14:59:28.903771 13979 layer_factory.hpp:77] Creating layer inception_5b/5x5
I0403 14:59:28.903791 13979 net.cpp:91] Creating Layer inception_5b/5x5
I0403 14:59:28.903807 13979 net.cpp:425] inception_5b/5x5 <- inception_5b/5x5_reduce
I0403 14:59:28.903825 13979 net.cpp:399] inception_5b/5x5 -> inception_5b/5x5
I0403 14:59:28.905840 13979 net.cpp:141] Setting up inception_5b/5x5
I0403 14:59:28.905867 13979 net.cpp:148] Top shape: 24 128 7 7 (150528)
I0403 14:59:28.905882 13979 net.cpp:156] Memory required for data: 1335327264
I0403 14:59:28.905900 13979 layer_factory.hpp:77] Creating layer inception_5b/relu_5x5
I0403 14:59:28.905920 13979 net.cpp:91] Creating Layer inception_5b/relu_5x5
I0403 14:59:28.905936 13979 net.cpp:425] inception_5b/relu_5x5 <- inception_5b/5x5
I0403 14:59:28.905952 13979 net.cpp:386] inception_5b/relu_5x5 -> inception_5b/5x5 (in-place)
I0403 14:59:28.906139 13979 net.cpp:141] Setting up inception_5b/relu_5x5
I0403 14:59:28.906165 13979 net.cpp:148] Top shape: 24 128 7 7 (150528)
I0403 14:59:28.906180 13979 net.cpp:156] Memory required for data: 1335929376
I0403 14:59:28.906194 13979 layer_factory.hpp:77] Creating layer inception_5b/pool
I0403 14:59:28.906211 13979 net.cpp:91] Creating Layer inception_5b/pool
I0403 14:59:28.906227 13979 net.cpp:425] inception_5b/pool <- inception_5a/output_inception_5a/output_0_split_3
I0403 14:59:28.906247 13979 net.cpp:399] inception_5b/pool -> inception_5b/pool
I0403 14:59:28.906321 13979 net.cpp:141] Setting up inception_5b/pool
I0403 14:59:28.906343 13979 net.cpp:148] Top shape: 24 832 7 7 (978432)
I0403 14:59:28.906358 13979 net.cpp:156] Memory required for data: 1339843104
I0403 14:59:28.906371 13979 layer_factory.hpp:77] Creating layer inception_5b/pool_proj
I0403 14:59:28.906391 13979 net.cpp:91] Creating Layer inception_5b/pool_proj
I0403 14:59:28.906411 13979 net.cpp:425] inception_5b/pool_proj <- inception_5b/pool
I0403 14:59:28.906430 13979 net.cpp:399] inception_5b/pool_proj -> inception_5b/pool_proj
I0403 14:59:28.908738 13979 net.cpp:141] Setting up inception_5b/pool_proj
I0403 14:59:28.908768 13979 net.cpp:148] Top shape: 24 128 7 7 (150528)
I0403 14:59:28.908783 13979 net.cpp:156] Memory required for data: 1340445216
I0403 14:59:28.908802 13979 layer_factory.hpp:77] Creating layer inception_5b/relu_pool_proj
I0403 14:59:28.908823 13979 net.cpp:91] Creating Layer inception_5b/relu_pool_proj
I0403 14:59:28.908839 13979 net.cpp:425] inception_5b/relu_pool_proj <- inception_5b/pool_proj
I0403 14:59:28.908856 13979 net.cpp:386] inception_5b/relu_pool_proj -> inception_5b/pool_proj (in-place)
I0403 14:59:28.909155 13979 net.cpp:141] Setting up inception_5b/relu_pool_proj
I0403 14:59:28.909181 13979 net.cpp:148] Top shape: 24 128 7 7 (150528)
I0403 14:59:28.909196 13979 net.cpp:156] Memory required for data: 1341047328
I0403 14:59:28.909210 13979 layer_factory.hpp:77] Creating layer inception_5b/output
I0403 14:59:28.909230 13979 net.cpp:91] Creating Layer inception_5b/output
I0403 14:59:28.909261 13979 net.cpp:425] inception_5b/output <- inception_5b/1x1
I0403 14:59:28.909279 13979 net.cpp:425] inception_5b/output <- inception_5b/3x3
I0403 14:59:28.909296 13979 net.cpp:425] inception_5b/output <- inception_5b/5x5
I0403 14:59:28.909312 13979 net.cpp:425] inception_5b/output <- inception_5b/pool_proj
I0403 14:59:28.909329 13979 net.cpp:399] inception_5b/output -> inception_5b/output
I0403 14:59:28.909379 13979 net.cpp:141] Setting up inception_5b/output
I0403 14:59:28.909404 13979 net.cpp:148] Top shape: 24 1024 7 7 (1204224)
I0403 14:59:28.909420 13979 net.cpp:156] Memory required for data: 1345864224
I0403 14:59:28.909435 13979 layer_factory.hpp:77] Creating layer pool5/7x7_s1
I0403 14:59:28.909451 13979 net.cpp:91] Creating Layer pool5/7x7_s1
I0403 14:59:28.909466 13979 net.cpp:425] pool5/7x7_s1 <- inception_5b/output
I0403 14:59:28.909487 13979 net.cpp:399] pool5/7x7_s1 -> pool5/7x7_s1
I0403 14:59:28.909709 13979 net.cpp:141] Setting up pool5/7x7_s1
I0403 14:59:28.909734 13979 net.cpp:148] Top shape: 24 1024 1 1 (24576)
I0403 14:59:28.909749 13979 net.cpp:156] Memory required for data: 1345962528
I0403 14:59:28.909765 13979 layer_factory.hpp:77] Creating layer pool5/drop_7x7_s1
I0403 14:59:28.909786 13979 net.cpp:91] Creating Layer pool5/drop_7x7_s1
I0403 14:59:28.909802 13979 net.cpp:425] pool5/drop_7x7_s1 <- pool5/7x7_s1
I0403 14:59:28.909819 13979 net.cpp:386] pool5/drop_7x7_s1 -> pool5/7x7_s1 (in-place)
I0403 14:59:28.909870 13979 net.cpp:141] Setting up pool5/drop_7x7_s1
I0403 14:59:28.909893 13979 net.cpp:148] Top shape: 24 1024 1 1 (24576)
I0403 14:59:28.909907 13979 net.cpp:156] Memory required for data: 1346060832
I0403 14:59:28.909921 13979 layer_factory.hpp:77] Creating layer loss3/classifier_plantvillage
I0403 14:59:28.909941 13979 net.cpp:91] Creating Layer loss3/classifier_plantvillage
I0403 14:59:28.909960 13979 net.cpp:425] loss3/classifier_plantvillage <- pool5/7x7_s1
I0403 14:59:28.909978 13979 net.cpp:399] loss3/classifier_plantvillage -> loss3/classifier_plantvillage
I0403 14:59:28.910406 13979 net.cpp:141] Setting up loss3/classifier_plantvillage
I0403 14:59:28.910430 13979 net.cpp:148] Top shape: 24 38 (912)
I0403 14:59:28.910444 13979 net.cpp:156] Memory required for data: 1346064480
I0403 14:59:28.910462 13979 layer_factory.hpp:77] Creating layer loss3/classifier_plantvillage_loss3/classifier_plantvillage_0_split
I0403 14:59:28.910480 13979 net.cpp:91] Creating Layer loss3/classifier_plantvillage_loss3/classifier_plantvillage_0_split
I0403 14:59:28.910495 13979 net.cpp:425] loss3/classifier_plantvillage_loss3/classifier_plantvillage_0_split <- loss3/classifier_plantvillage
I0403 14:59:28.910516 13979 net.cpp:399] loss3/classifier_plantvillage_loss3/classifier_plantvillage_0_split -> loss3/classifier_plantvillage_loss3/classifier_plantvillage_0_split_0
I0403 14:59:28.910537 13979 net.cpp:399] loss3/classifier_plantvillage_loss3/classifier_plantvillage_0_split -> loss3/classifier_plantvillage_loss3/classifier_plantvillage_0_split_1
I0403 14:59:28.910557 13979 net.cpp:399] loss3/classifier_plantvillage_loss3/classifier_plantvillage_0_split -> loss3/classifier_plantvillage_loss3/classifier_plantvillage_0_split_2
I0403 14:59:28.910579 13979 net.cpp:399] loss3/classifier_plantvillage_loss3/classifier_plantvillage_0_split -> loss3/classifier_plantvillage_loss3/classifier_plantvillage_0_split_3
I0403 14:59:28.910684 13979 net.cpp:141] Setting up loss3/classifier_plantvillage_loss3/classifier_plantvillage_0_split
I0403 14:59:28.910707 13979 net.cpp:148] Top shape: 24 38 (912)
I0403 14:59:28.910722 13979 net.cpp:148] Top shape: 24 38 (912)
I0403 14:59:28.910737 13979 net.cpp:148] Top shape: 24 38 (912)
I0403 14:59:28.910753 13979 net.cpp:148] Top shape: 24 38 (912)
I0403 14:59:28.910765 13979 net.cpp:156] Memory required for data: 1346079072
I0403 14:59:28.910779 13979 layer_factory.hpp:77] Creating layer loss1/loss
I0403 14:59:28.910802 13979 net.cpp:91] Creating Layer loss1/loss
I0403 14:59:28.910826 13979 net.cpp:425] loss1/loss <- loss1/classifier_plantvillage_loss1/classifier_plantvillage_0_split_0
I0403 14:59:28.910862 13979 net.cpp:425] loss1/loss <- label_data_1_split_0
…
