…
I0403 15:01:30.269683 14023 net.cpp:313] The NetState phase (1) differed from the phase (0) specified by a rule in layer data
I0403 15:01:30.270869 14023 net.cpp:49] Initializing net from parameters: 
state {
  phase: TEST
}
layer {
  name: "data"
  type: "Data"
  top: "data"
  top: "label"
  include {
    phase: TEST
  }
  transform_param {
    mirror: false
    crop_size: 224
    mean_file: "/home/mohanty/data/final_dataset/lmdb/color-40-60/mean.binaryproto"
  }
  data_param {
    source: "/home/mohanty/data/final_dataset/lmdb/color-40-60/test_db"
    batch_size: 24
    backend: LMDB
  }
}
layer {
  name: "conv1/7x7_s2"
  type: "Convolution"
  bottom: "data"
  top: "conv1/7x7_s2"
  param {
    lr_mult: 1
    decay_mult: 1
  }
  param {
    lr_mult: 2
    decay_mult: 0
  }
  convolution_param {
    num_output: 64
    pad: 3
    kernel_size: 7
    stride: 2
    weight_filler {
      type: "xavier"
      std: 0.1
    }
    bias_filler {
      type: "constant"
      value: 0.2
    }
  }
}
layer {
  name: "conv1/relu_7x7"
  type: "ReLU"
  bottom: "conv1/7x7_s2"
  top: "conv1/7x7_s2"
}
layer {
  name: "pool1/3x3_s2"
  type: "Pooling"
  bottom: "conv1/7x7_s2"
  top: "pool1/3x3_s2"
  pooling_param {
    pool: MAX
    kernel_size: 3
    stride: 2
  }
}
layer {
  name: "pool1/norm1"
  type: "LRN"
  bottom: "pool1/3x3_s2"
  top: "pool1/norm1"
  lrn_param {
    local_size: 5
    alpha: 0.0001
    beta: 0.75
  }
}
layer {
  name: "conv2/3x3_reduce"
  type: "Convolution"
  bottom: "pool1/norm1"
  top: "conv2/3x3_reduce"
  param {
    lr_mult: 1
    decay_mult: 1
  }
  param {
    lr_mult: 2
    decay_mult: 0
  }
  convolution_param {
    num_output: 64
    kernel_size: 1
    weight_filler {
      type: "xavier"
      std: 0.1
    }
    bias_filler {
      type: "constant"
      value: 0.2
    }
  }
}
layer {
  name: "conv2/relu_3x3_reduce"
  type: "ReLU"
  bottom: "conv2/3x3_reduce"
  top: "conv2/3x3_reduce"
}
layer {
  name: "conv2/3x3"
  type: "Convolution"
  bottom: "conv2/3x3_reduce"
  top: "conv2/3x3"
  param {
    lr_mult: 1
    decay_mult: 1
  }
  param {
    lr_mult: 2
    decay_mult: 0
  }
  convolution_param {
    num_output: 192
    pad: 1
    kernel_size: 3
    weight_filler {
      type: "xavier"
      std: 0.03
    }
    bias_filler {
      type: "constant"
      value: 0.2
    }
  }
}
layer {
  name: "conv2/relu_3x3"
  type: "ReLU"
  bottom: "conv2/3x3"
  top: "conv2/3x3"
}
layer {
  name: "conv2/norm2"
  type: "LRN"
  bottom: "conv2/3x3"
  top: "conv2/norm2"
  lrn_param {
    local_size: 5
    alpha: 0.0001
    beta: 0.75
  }
}
layer {
  name: "pool2/3x3_s2"
  type: "Pooling"
  bottom: "conv2/norm2"
  top: "pool2/3x3_s2"
  pooling_param {
    pool: MAX
    kernel_size: 3
    stride: 2
  }
}
layer {
  name: "inception_3a/1x1"
  type: "Convolution"
  bottom: "pool2/3x3_s2"
  top: "inception_3a/1x1"
  param {
    lr_mult: 1
    decay_mult: 1
  }
  param {
    lr_mult: 2
    decay_mult: 0
  }
  convolution_param {
    num_output: 64
    kernel_size: 1
    weight_filler {
      type: "xavier"
      std: 0.03
    }
    bias_filler {
      type: "constant"
      value: 0.2
    }
  }
}
layer {
  name: "inception_3a/relu_1x1"
  type: "ReLU"
  bottom: "inception_3a/1x1"
  top: "inception_3a/1x1"
}
layer {
  name: "inception_3a/3x3_reduce"
  type: "Convolution"
  bottom: "pool2/3x3_s2"
  top: "inception_3a/3x3_reduce"
  param {
    lr_mult: 1
    decay_mult: 1
  }
  param {
    lr_mult: 2
    decay_mult: 0
  }
  convolution_param {
    num_output: 96
    kernel_size: 1
    weight_filler {
      type: "xavier"
      std: 0.09
    }
    bias_filler {
      type: "constant"
      value: 0.2
    }
  }
}
layer {
  name: "inception_3a/relu_3x3_reduce"
  type: "ReLU"
  bottom: "inception_3a/3x3_reduce"
  top: "inception_3a/3x3_reduce"
}
layer {
  name: "inception_3a/3x3"
  type: "Convolution"
  bottom: "inception_3a/3x3_reduce"
  top: "inception_3a/3x3"
  param {
    lr_mult: 1
    decay_mult: 1
  }
  param {
    lr_mult: 2
    decay_mult: 0
  }
  convolution_param {
    num_output: 128
    pad: 1
    kernel_size: 3
    weight_filler {
      type: "xavier"
      std: 0.03
    }
    bias_filler {
      type: "constant"
      value: 0.2
    }
  }
}
layer {
  name: "inception_3a/relu_3x3"
  type: "ReLU"
  bottom: "inception_3a/3x3"
  top: "inception_3a/3x3"
}
layer {
  name: "inception_3a/5x5_reduce"
  type: "Convolution"
  bottom: "pool2/3x3_s2"
  top: "inception_3a/5x5_reduce"
  param {
    lr_mult: 1
    decay_mult: 1
  }
  param {
    lr_mult: 2
    decay_mult: 0
  }
  convolution_param {
    num_output: 16
    kernel_size: 1
    weight_filler {
      type: "xavier"
      std: 0.2
    }
    bias_filler {
      type: "constant"
      value: 0.2
    }
  }
}
layer {
  name: "inception_3a/relu_5x5_reduce"
  type: "ReLU"
  bottom: "inception_3a/5x5_reduce"
  top: "inception_3a/5x5_reduce"
}
layer {
  name: "inception_3a/5x5"
  type: "Convolution"
  bottom: "inception_3a/5x5_reduce"
  top: "inception_3a/5x5"
  param {
    lr_mult: 1
    decay_mult: 1
  }
  param {
    lr_mult: 2
    decay_mult: 0
  }
  convolution_param {
    num_output: 32
    pad: 2
    kernel_size: 5
    weight_filler {
      type: "xavier"
      std: 0.03
    }
    bias_filler {
      type: "constant"
      value: 0.2
    }
  }
}
layer {
  name: "inception_3a/relu_5x5"
  type: "ReLU"
  bottom: "inception_3a/5x5"
  top: "inception_3a/5x5"
}
layer {
  name: "inception_3a/pool"
  type: "Pooling"
  bottom: "pool2/3x3_s2"
  top: "inception_3a/pool"
  pooling_param {
    pool: MAX
    kernel_size: 3
    stride: 1
    pad: 1
  }
}
layer {
  name: "inception_3a/pool_proj"
  type: "Convolution"
  bottom: "inception_3a/pool"
  top: "inception_3a/pool_proj"
  param {
    lr_mult: 1
    decay_mult: 1
  }
  param {
    lr_mult: 2
    decay_mult: 0
  }
  convolution_param {
    num_output: 32
    kernel_size: 1
    weight_filler {
      type: "xavier"
      std: 0.1
    }
    bias_filler {
      type: "constant"
      value: 0.2
    }
  }
}
layer {
  name: "inception_3a/relu_pool_proj"
  type: "ReLU"
  bottom: "inception_3a/pool_proj"
  top: "inception_3a/pool_proj"
}
layer {
  name: "inception_3a/output"
  type: "Concat"
  bottom: "inception_3a/1x1"
  bottom: "inception_3a/3x3"
  bottom: "inception_3a/5x5"
  bottom: "inception_3a/pool_proj"
  top: "inception_3a/output"
}
layer {
  name: "inception_3b/1x1"
  type: "Convolution"
  bottom: "inception_3a/output"
  top: "inception_3b/1x1"
  param {
    lr_mult: 1
    decay_mult: 1
  }
  param {
    lr_mult: 2
    decay_mult: 0
  }
  convolution_param {
    num_output: 128
    kernel_size: 1
    weight_filler {
      type: "xavier"
      std: 0.03
    }
    bias_filler {
      type: "constant"
      value: 0.2
    }
  }
}
layer {
  name: "inception_3b/relu_1x1"
  type: "ReLU"
  bottom: "inception_3b/1x1"
  top: "inception_3b/1x1"
}
layer {
  name: "inception_3b/3x3_reduce"
  type: "Convolution"
  bottom: "inception_3a/output"
  top: "inception_3b/3x3_reduce"
  param {
    lr_mult: 1
    decay_mult: 1
  }
  param {
    lr_mult: 2
    decay_mult: 0
  }
  convolution_param {
    num_output: 128
    kernel_size: 1
    weight_filler {
      type: "xavier"
      std: 0.09
    }
    bias_filler {
      type: "constant"
      value: 0.2
    }
  }
}
layer {
  name: "inception_3b/relu_3x3_reduce"
  type: "ReLU"
  bottom: "inception_3b/3x3_reduce"
  top: "inception_3b/3x3_reduce"
}
layer {
  name: "inception_3b/3x3"
  type: "Convolution"
  bottom: "inception_3b/3x3_reduce"
  top: "inception_3b/3x3"
  param {
    lr_mult: 1
    decay_mult: 1
  }
  param {
    lr_mult: 2
    decay_mult: 0
  }
  convolution_param {
    num_output: 192
    pad: 1
    kernel_size: 3
    weight_filler {
      type: "xavier"
      std: 0.03
    }
    bias_filler {
      type: "constant"
      value: 0.2
    }
  }
}
layer {
  name: "inception_3b/relu_3x3"
  type: "ReLU"
  bottom: "inception_3b/3x3"
  top: "inception_3b/3x3"
}
layer {
  name: "inception_3b/5x5_reduce"
  type: "Convolution"
  bottom: "inception_3a/output"
  top: "inception_3b/5x5_reduce"
  param {
    lr_mult: 1
    decay_mult: 1
  }
  param {
    lr_mult: 2
    decay_mult: 0
  }
  convolution_param {
    num_output: 32
    kernel_size: 1
    weight_filler {
      type: "xavier"
      std: 0.2
    }
    bias_filler {
      type: "constant"
      value: 0.2
    }
  }
}
layer {
  name: "inception_3b/relu_5x5_reduce"
  type: "ReLU"
  bottom: "inception_3b/5x5_reduce"
  top: "inception_3b/5x5_reduce"
}
layer {
  name: "inception_3b/5x5"
  type: "Convolution"
  bottom: "inception_3b/5x5_reduce"
  top: "inception_3b/5x5"
  param {
    lr_mult: 1
    decay_mult: 1
  }
  param {
    lr_mult: 2
    decay_mult: 0
  }
  convolution_param {
    num_output: 96
    pad: 2
    kernel_size: 5
    weight_filler {
      type: "xavier"
      std: 0.03
    }
    bias_filler {
      type: "constant"
      value: 0.2
    }
  }
}
layer {
  name: "inception_3b/relu_5x5"
  type: "ReLU"
  bottom: "inception_3b/5x5"
  top: "inception_3b/5x5"
}
layer {
  name: "inception_3b/pool"
  type: "Pooling"
  bottom: "inception_3a/output"
  top: "inception_3b/pool"
  pooling_param {
    pool: MAX
    kernel_size: 3
    stride: 1
    pad: 1
  }
}
layer {
  name: "inception_3b/pool_proj"
  type: "Convolution"
  bottom: "inception_3b/pool"
  top: "inception_3b/pool_proj"
  param {
    lr_mult: 1
    decay_mult: 1
  }
  param {
    lr_mult: 2
    decay_mult: 0
  }
  convolution_param {
    num_output: 64
    kernel_size: 1
    weight_filler {
      type: "xavier"
      std: 0.1
    }
    bias_filler {
      type: "constant"
      value: 0.2
    }
  }
}
layer {
  name: "inception_3b/relu_pool_proj"
  type: "ReLU"
  bottom: "inception_3b/pool_proj"
  top: "inception_3b/pool_proj"
}
layer {
  name: "inception_3b/output"
  type: "Concat"
  bottom: "inception_3b/1x1"
  bottom: "inception_3b/3x3"
  bottom: "inception_3b/5x5"
  bottom: "inception_3b/pool_proj"
  top: "inception_3b/output"
}
layer {
  name: "pool3/3x3_s2"
  type: "Pooling"
  bottom: "inception_3b/output"
  top: "pool3/3x3_s2"
  pooling_param {
    pool: MAX
    kernel_size: 3
    stride: 2
  }
}
layer {
  name: "inception_4a/1x1"
  type: "Convolution"
  bottom: "pool3/3x3_s2"
  top: "inception_4a/1x1"
  param {
    lr_mult: 1
    decay_mult: 1
  }
  param {
    lr_mult: 2
    decay_mult: 0
  }
  convolution_param {
    num_output: 192
    kernel_size: 1
    weight_filler {
      type: "xavier"
      std: 0.03
    }
    bias_filler {
      type: "constant"
      value: 0.2
    }
  }
}
layer {
  name: "inception_4a/relu_1x1"
  type: "ReLU"
  bottom: "inception_4a/1x1"
  top: "inception_4a/1x1"
}
layer {
  name: "inception_4a/3x3_reduce"
  type: "Convolution"
  bottom: "pool3/3x3_s2"
  top: "inception_4a/3x3_reduce"
  param {
    lr_mult: 1
    decay_mult: 1
  }
  param {
    lr_mult: 2
    decay_mult: 0
  }
  convolution_param {
    num_output: 96
    kernel_size: 1
    weight_filler {
      type: "xavier"
      std: 0.09
    }
    bias_filler {
      type: "constant"
      value: 0.2
    }
  }
}
layer {
  name: "inception_4a/relu_3x3_reduce"
  type: "ReLU"
  bottom: "inception_4a/3x3_reduce"
  top: "inception_4a/3x3_reduce"
}
layer {
  name: "inception_4a/3x3"
  type: "Convolution"
  bottom: "inception_4a/3x3_reduce"
  top: "inception_4a/3x3"
  param {
    lr_mult: 1
    decay_mult: 1
  }
  param {
    lr_mult: 2
    decay_mult: 0
  }
  convolution_param {
    num_output: 208
    pad: 1
    kernel_size: 3
    weight_filler {
      type: "xavier"
      std: 0.03
    }
    bias_filler {
      type: "constant"
      value: 0.2
    }
  }
}
layer {
  name: "inception_4a/relu_3x3"
  type: "ReLU"
  bottom: "inception_4a/3x3"
  top: "inception_4a/3x3"
}
layer {
  name: "inception_4a/5x5_reduce"
  type: "Convolution"
  bottom: "pool3/3x3_s2"
  top: "inception_4a/5x5_reduce"
  param {
    lr_mult: 1
    decay_mult: 1
  }
  param {
    lr_mult: 2
    decay_mult: 0
  }
  convolution_param {
    num_output: 16
    kernel_size: 1
    weight_filler {
      type: "xavier"
      std: 0.2
    }
    bias_filler {
      type: "constant"
      value: 0.2
    }
  }
}
layer {
  name: "inception_4a/relu_5x5_reduce"
  type: "ReLU"
  bottom: "inception_4a/5x5_reduce"
  top: "inception_4a/5x5_reduce"
}
layer {
  name: "inception_4a/5x5"
  type: "Convolution"
  bottom: "inception_4a/5x5_reduce"
  top: "inception_4a/5x5"
  param {
    lr_mult: 1
    decay_mult: 1
  }
  param {
    lr_mult: 2
    decay_mult: 0
  }
  convolution_param {
    num_output: 48
    pad: 2
    kernel_size: 5
    weight_filler {
      type: "xavier"
      std: 0.03
    }
    bias_filler {
      type: "constant"
      value: 0.2
    }
  }
}
layer {
  name: "inception_4a/relu_5x5"
  type: "ReLU"
  bottom: "inception_4a/5x5"
  top: "inception_4a/5x5"
}
layer {
  name: "inception_4a/pool"
  type: "Pooling"
  bottom: "pool3/3x3_s2"
  top: "inception_4a/pool"
  pooling_param {
    pool: MAX
    kernel_size: 3
    stride: 1
    pad: 1
  }
}
layer {
  name: "inception_4a/pool_proj"
  type: "Convolution"
  bottom: "inception_4a/pool"
  top: "inception_4a/pool_proj"
  param {
    lr_mult: 1
    decay_mult: 1
  }
  param {
    lr_mult: 2
    decay_mult: 0
  }
  convolution_param {
    num_output: 64
    kernel_size: 1
    weight_filler {
      type: "xavier"
      std: 0.1
    }
    bias_filler {
      type: "constant"
      value: 0.2
    }
  }
}
layer {
  name: "inception_4a/relu_pool_proj"
  type: "ReLU"
  bottom: "inception_4a/pool_proj"
  top: "inception_4a/pool_proj"
}
layer {
  name: "inception_4a/output"
  type: "Concat"
  bottom: "inception_4a/1x1"
  bottom: "inception_4a/3x3"
  bottom: "inception_4a/5x5"
  bottom: "inception_4a/pool_proj"
  top: "inception_4a/output"
}
layer {
  name: "loss1/ave_pool"
  type: "Pooling"
  bottom: "inception_4a/output"
  top: "loss1/ave_pool"
  pooling_param {
    pool: AVE
    kernel_size: 5
    stride: 3
  }
}
layer {
  name: "loss1/conv"
  type: "Convolution"
  bottom: "loss1/ave_pool"
  top: "loss1/conv"
  param {
    lr_mult: 1
    decay_mult: 1
  }
  param {
    lr_mult: 2
    decay_mult: 0
  }
  convolution_param {
    num_output: 128
    kernel_size: 1
    weight_filler {
      type: "xavier"
      std: 0.08
    }
    bias_filler {
      type: "constant"
      value: 0.2
    }
  }
}
layer {
  name: "loss1/relu_conv"
  type: "ReLU"
  bottom: "loss1/conv"
  top: "loss1/conv"
}
layer {
  name: "loss1/fc"
  type: "InnerProduct"
  bottom: "loss1/conv"
  top: "loss1/fc"
  param {
    lr_mult: 1
    decay_mult: 1
  }
  param {
    lr_mult: 2
    decay_mult: 0
  }
  inner_product_param {
    num_output: 1024
    weight_filler {
      type: "xavier"
      std: 0.02
    }
    bias_filler {
      type: "constant"
      value: 0.2
    }
  }
}
layer {
  name: "loss1/relu_fc"
  type: "ReLU"
  bottom: "loss1/fc"
  top: "loss1/fc"
}
layer {
  name: "loss1/drop_fc"
  type: "Dropout"
  bottom: "loss1/fc"
  top: "loss1/fc"
  dropout_param {
    dropout_ratio: 0.7
  }
}
layer {
  name: "loss1/classifier_plantvillage"
  type: "InnerProduct"
  bottom: "loss1/fc"
  top: "loss1/classifier_plantvillage"
  param {
    lr_mult: 1
    decay_mult: 1
  }
  param {
    lr_mult: 2
    decay_mult: 0
  }
  inner_product_param {
    num_output: 38
    weight_filler {
      type: "xavier"
      std: 0.0009765625
    }
    bias_filler {
      type: "constant"
      value: 0
    }
  }
}
layer {
  name: "inception_4b/1x1"
  type: "Convolution"
  bottom: "inception_4a/output"
  top: "inception_4b/1x1"
  param {
    lr_mult: 1
    decay_mult: 1
  }
  param {
    lr_mult: 2
    decay_mult: 0
  }
  convolution_param {
    num_output: 160
    kernel_size: 1
    weight_filler {
      type: "xavier"
      std: 0.03
    }
    bias_filler {
      type: "constant"
      value: 0.2
    }
  }
}
layer {
  name: "inception_4b/relu_1x1"
  type: "ReLU"
  bottom: "inception_4b/1x1"
  top: "inception_4b/1x1"
}
layer {
  name: "inception_4b/3x3_reduce"
  type: "Convolution"
  bottom: "inception_4a/output"
  top: "inception_4b/3x3_reduce"
  param {
    lr_mult: 1
    decay_mult: 1
  }
  param {
    lr_mult: 2
    decay_mult: 0
  }
  convolution_param {
    num_output: 112
    kernel_size: 1
    weight_filler {
      type: "xavier"
      std: 0.09
    }
    bias_filler {
      type: "constant"
      value: 0.2
    }
  }
}
layer {
  name: "inception_4b/relu_3x3_reduce"
  type: "ReLU"
  bottom: "inception_4b/3x3_reduce"
  top: "inception_4b/3x3_reduce"
}
layer {
  name: "inception_4b/3x3"
  type: "Convolution"
  bottom: "inception_4b/3x3_reduce"
  top: "inception_4b/3x3"
  param {
    lr_mult: 1
    decay_mult: 1
  }
  param {
    lr_mult: 2
    decay_mult: 0
  }
  convolution_param {
    num_output: 224
    pad: 1
    kernel_size: 3
    weight_filler {
      type: "xavier"
      std: 0.03
    }
    bias_filler {
      type: "constant"
      value: 0.2
    }
  }
}
layer {
  name: "inception_4b/relu_3x3"
  type: "ReLU"
  bottom: "inception_4b/3x3"
  top: "inception_4b/3x3"
}
layer {
  name: "inception_4b/5x5_reduce"
  type: "Convolution"
  bottom: "inception_4a/output"
  top: "inception_4b/5x5_reduce"
  param {
    lr_mult: 1
    decay_mult: 1
  }
  param {
    lr_mult: 2
    decay_mult: 0
  }
  convolution_param {
    num_output: 24
    kernel_size: 1
    weight_filler {
      type: "xavier"
      std: 0.2
    }
    bias_filler {
      type: "constant"
      value: 0.2
    }
  }
}
layer {
  name: "inception_4b/relu_5x5_reduce"
  type: "ReLU"
  bottom: "inception_4b/5x5_reduce"
  top: "inception_4b/5x5_reduce"
}
layer {
  name: "inception_4b/5x5"
  type: "Convolution"
  bottom: "inception_4b/5x5_reduce"
  top: "inception_4b/5x5"
  param {
    lr_mult: 1
    decay_mult: 1
  }
  param {
    lr_mult: 2
    decay_mult: 0
  }
  convolution_param {
    num_output: 64
    pad: 2
    kernel_size: 5
    weight_filler {
      type: "xavier"
      std: 0.03
    }
    bias_filler {
      type: "constant"
      value: 0.2
    }
  }
}
layer {
  name: "inception_4b/relu_5x5"
  type: "ReLU"
  bottom: "inception_4b/5x5"
  top: "inception_4b/5x5"
}
layer {
  name: "inception_4b/pool"
  type: "Pooling"
  bottom: "inception_4a/output"
  top: "inception_4b/pool"
  pooling_param {
    pool: MAX
    kernel_size: 3
    stride: 1
    pad: 1
  }
}
layer {
  name: "inception_4b/pool_proj"
  type: "Convolution"
  bottom: "inception_4b/pool"
  top: "inception_4b/pool_proj"
  param {
    lr_mult: 1
    decay_mult: 1
  }
  param {
    lr_mult: 2
    decay_mult: 0
  }
  convolution_param {
    num_output: 64
    kernel_size: 1
    weight_filler {
      type: "xavier"
      std: 0.1
    }
    bias_filler {
      type: "constant"
      value: 0.2
    }
  }
}
layer {
  name: "inception_4b/relu_pool_proj"
  type: "ReLU"
  bottom: "inception_4b/pool_proj"
  top: "inception_4b/pool_proj"
}
layer {
  name: "inception_4b/output"
  type: "Concat"
  bottom: "inception_4b/1x1"
  bottom: "inception_4b/3x3"
  bottom: "inception_4b/5x5"
  bottom: "inception_4b/pool_proj"
  top: "inception_4b/output"
}
layer {
  name: "inception_4c/1x1"
  type: "Convolution"
  bottom: "inception_4b/output"
  top: "inception_4c/1x1"
  param {
    lr_mult: 1
    decay_mult: 1
  }
  param {
    lr_mult: 2
    decay_mult: 0
  }
  convolution_param {
    num_output: 128
    kernel_size: 1
    weight_filler {
      type: "xavier"
      std: 0.03
    }
    bias_filler {
      type: "constant"
      value: 0.2
    }
  }
}
layer {
  name: "inception_4c/relu_1x1"
  type: "ReLU"
  bottom: "inception_4c/1x1"
  top: "inception_4c/1x1"
}
layer {
  name: "inception_4c/3x3_reduce"
  type: "Convolution"
  bottom: "inception_4b/output"
  top: "inception_4c/3x3_reduce"
  param {
    lr_mult: 1
    decay_mult: 1
  }
  param {
    lr_mult: 2
    decay_mult: 0
  }
  convolution_param {
    num_output: 128
    kernel_size: 1
    weight_filler {
      type: "xavier"
      std: 0.09
    }
    bias_filler {
      type: "constant"
      value: 0.2
    }
  }
}
layer {
  name: "inception_4c/relu_3x3_reduce"
  type: "ReLU"
  bottom: "inception_4c/3x3_reduce"
  top: "inception_4c/3x3_reduce"
}
layer {
  name: "inception_4c/3x3"
  type: "Convolution"
  bottom: "inception_4c/3x3_reduce"
  top: "inception_4c/3x3"
  param {
    lr_mult: 1
    decay_mult: 1
  }
  param {
    lr_mult: 2
    decay_mult: 0
  }
  convolution_param {
    num_output: 256
    pad: 1
    kernel_size: 3
    weight_filler {
      type: "xavier"
      std: 0.03
    }
    bias_filler {
      type: "constant"
      value: 0.2
    }
  }
}
layer {
  name: "inception_4c/relu_3x3"
  type: "ReLU"
  bottom: "inception_4c/3x3"
  top: "inception_4c/3x3"
}
layer {
  name: "inception_4c/5x5_reduce"
  type: "Convolution"
  bottom: "inception_4b/output"
  top: "inception_4c/5x5_reduce"
  param {
    lr_mult: 1
    decay_mult: 1
  }
  param {
    lr_mult: 2
    decay_mult: 0
  }
  convolution_param {
    num_output: 24
    kernel_size: 1
    weight_filler {
      type: "xavier"
      std: 0.2
    }
    bias_filler {
      type: "constant"
      value: 0.2
    }
  }
}
layer {
  name: "inception_4c/relu_5x5_reduce"
  type: "ReLU"
  bottom: "inception_4c/5x5_reduce"
  top: "inception_4c/5x5_reduce"
}
layer {
  name: "inception_4c/5x5"
  type: "Convolution"
  bottom: "inception_4c/5x5_reduce"
  top: "inception_4c/5x5"
  param {
    lr_mult: 1
    decay_mult: 1
  }
  param {
    lr_mult: 2
    decay_mult: 0
  }
  convolution_param {
    num_output: 64
    pad: 2
    kernel_size: 5
    weight_filler {
      type: "xavier"
      std: 0.03
    }
    bias_filler {
      type: "constant"
      value: 0.2
    }
  }
}
layer {
  name: "inception_4c/relu_5x5"
  type: "ReLU"
  bottom: "inception_4c/5x5"
  top: "inception_4c/5x5"
}
layer {
  name: "inception_4c/pool"
  type: "Pooling"
  bottom: "inception_4b/output"
  top: "inception_4c/pool"
  pooling_param {
    pool: MAX
    kernel_size: 3
    stride: 1
    pad: 1
  }
}
layer {
  name: "inception_4c/pool_proj"
  type: "Convolution"
  bottom: "inception_4c/pool"
  top: "inception_4c/pool_proj"
  param {
    lr_mult: 1
    decay_mult: 1
  }
  param {
    lr_mult: 2
    decay_mult: 0
  }
  convolution_param {
    num_output: 64
    kernel_size: 1
    weight_filler {
      type: "xavier"
      std: 0.1
    }
    bias_filler {
      type: "constant"
      value: 0.2
    }
  }
}
layer {
  name: "inception_4c/relu_pool_proj"
  type: "ReLU"
  bottom: "inception_4c/pool_proj"
  top: "inception_4c/pool_proj"
}
layer {
  name: "inception_4c/output"
  type: "Concat"
  bottom: "inception_4c/1x1"
  bottom: "inception_4c/3x3"
  bottom: "inception_4c/5x5"
  bottom: "inception_4c/pool_proj"
  top: "inception_4c/output"
}
layer {
  name: "inception_4d/1x1"
  type: "Convolution"
  bottom: "inception_4c/output"
  top: "inception_4d/1x1"
  param {
    lr_mult: 1
    decay_mult: 1
  }
  param {
    lr_mult: 2
    decay_mult: 0
  }
  convolution_param {
    num_output: 112
    kernel_size: 1
    weight_filler {
      type: "xavier"
      std: 0.03
    }
    bias_filler {
      type: "constant"
      value: 0.2
    }
  }
}
layer {
  name: "inception_4d/relu_1x1"
  type: "ReLU"
  bottom: "inception_4d/1x1"
  top: "inception_4d/1x1"
}
layer {
  name: "inception_4d/3x3_reduce"
  type: "Convolution"
  bottom: "inception_4c/output"
  top: "inception_4d/3x3_reduce"
  param {
    lr_mult: 1
    decay_mult: 1
  }
  param {
    lr_mult: 2
    decay_mult: 0
  }
  convolution_param {
    num_output: 144
    kernel_size: 1
    weight_filler {
      type: "xavier"
      std: 0.09
    }
    bias_filler {
      type: "constant"
      value: 0.2
    }
  }
}
layer {
  name: "inception_4d/relu_3x3_reduce"
  type: "ReLU"
  bottom: "inception_4d/3x3_reduce"
  top: "inception_4d/3x3_reduce"
}
layer {
  name: "inception_4d/3x3"
  type: "Convolution"
  bottom: "inception_4d/3x3_reduce"
  top: "inception_4d/3x3"
  param {
    lr_mult: 1
    decay_mult: 1
  }
  param {
    lr_mult: 2
    decay_mult: 0
  }
  convolution_param {
    num_output: 288
    pad: 1
    kernel_size: 3
    weight_filler {
      type: "xavier"
      std: 0.03
    }
    bias_filler {
      type: "constant"
      value: 0.2
    }
  }
}
layer {
  name: "inception_4d/relu_3x3"
  type: "ReLU"
  bottom: "inception_4d/3x3"
  top: "inception_4d/3x3"
}
layer {
  name: "inception_4d/5x5_reduce"
  type: "Convolution"
  bottom: "inception_4c/output"
  top: "inception_4d/5x5_reduce"
  param {
    lr_mult: 1
    decay_mult: 1
  }
  param {
    lr_mult: 2
    decay_mult: 0
  }
  convolution_param {
    num_output: 32
    kernel_size: 1
    weight_filler {
      type: "xavier"
      std: 0.2
    }
    bias_filler {
      type: "constant"
      value: 0.2
    }
  }
}
layer {
  name: "inception_4d/relu_5x5_reduce"
  type: "ReLU"
  bottom: "inception_4d/5x5_reduce"
  top: "inception_4d/5x5_reduce"
}
layer {
  name: "inception_4d/5x5"
  type: "Convolution"
  bottom: "inception_4d/5x5_reduce"
  top: "inception_4d/5x5"
  param {
    lr_mult: 1
    decay_mult: 1
  }
  param {
    lr_mult: 2
    decay_mult: 0
  }
  convolution_param {
    num_output: 64
    pad: 2
    kernel_size: 5
    weight_filler {
      type: "xavier"
      std: 0.03
    }
    bias_filler {
      type: "constant"
      value: 0.2
    }
  }
}
layer {
  name: "inception_4d/relu_5x5"
  type: "ReLU"
  bottom: "inception_4d/5x5"
  top: "inception_4d/5x5"
}
layer {
  name: "inception_4d/pool"
  type: "Pooling"
  bottom: "inception_4c/output"
  top: "inception_4d/pool"
  pooling_param {
    pool: MAX
    kernel_size: 3
    stride: 1
    pad: 1
  }
}
layer {
  name: "inception_4d/pool_proj"
  type: "Convolution"
  bottom: "inception_4d/pool"
  top: "inception_4d/pool_proj"
  param {
    lr_mult: 1
    decay_mult: 1
  }
  param {
    lr_mult: 2
    decay_mult: 0
  }
  convolution_param {
    num_output: 64
    kernel_size: 1
    weight_filler {
      type: "xavier"
      std: 0.1
    }
    bias_filler {
      type: "constant"
      value: 0.2
    }
  }
}
layer {
  name: "inception_4d/relu_pool_proj"
  type: "ReLU"
  bottom: "inception_4d/pool_proj"
  top: "inception_4d/pool_proj"
}
layer {
  name: "inception_4d/output"
  type: "Concat"
  bottom: "inception_4d/1x1"
  bottom: "inception_4d/3x3"
  bottom: "inception_4d/5x5"
  bottom: "inception_4d/pool_proj"
  top: "inception_4d/output"
}
layer {
  name: "loss2/ave_pool"
  type: "Pooling"
  bottom: "inception_4d/output"
  top: "loss2/ave_pool"
  pooling_param {
    pool: AVE
    kernel_size: 5
    stride: 3
  }
}
layer {
  name: "loss2/conv"
  type: "Convolution"
  bottom: "loss2/ave_pool"
  top: "loss2/conv"
  param {
    lr_mult: 1
    decay_mult: 1
  }
  param {
    lr_mult: 2
    decay_mult: 0
  }
  convolution_param {
    num_output: 128
    kernel_size: 1
    weight_filler {
      type: "xavier"
      std: 0.08
    }
    bias_filler {
      type: "constant"
      value: 0.2
    }
  }
}
layer {
  name: "loss2/relu_conv"
  type: "ReLU"
  bottom: "loss2/conv"
  top: "loss2/conv"
}
layer {
  name: "loss2/fc"
  type: "InnerProduct"
  bottom: "loss2/conv"
  top: "loss2/fc"
  param {
    lr_mult: 1
    decay_mult: 1
  }
  param {
    lr_mult: 2
    decay_mult: 0
  }
  inner_product_param {
    num_output: 1024
    weight_filler {
      type: "xavier"
      std: 0.02
    }
    bias_filler {
      type: "constant"
      value: 0.2
    }
  }
}
layer {
  name: "loss2/relu_fc"
  type: "ReLU"
  bottom: "loss2/fc"
  top: "loss2/fc"
}
layer {
  name: "loss2/drop_fc"
  type: "Dropout"
  bottom: "loss2/fc"
  top: "loss2/fc"
  dropout_param {
    dropout_ratio: 0.7
  }
}
layer {
  name: "loss2/classifier_plantvillage"
  type: "InnerProduct"
  bottom: "loss2/fc"
  top: "loss2/classifier_plantvillage"
  param {
    lr_mult: 1
    decay_mult: 1
  }
  param {
    lr_mult: 2
    decay_mult: 0
  }
  inner_product_param {
    num_output: 38
    weight_filler {
      type: "xavier"
      std: 0.0009765625
    }
    bias_filler {
      type: "constant"
      value: 0
    }
  }
}
layer {
  name: "inception_4e/1x1"
  type: "Convolution"
  bottom: "inception_4d/output"
  top: "inception_4e/1x1"
  param {
    lr_mult: 1
    decay_mult: 1
  }
  param {
    lr_mult: 2
    decay_mult: 0
  }
  convolution_param {
    num_output: 256
    kernel_size: 1
    weight_filler {
      type: "xavier"
      std: 0.03
    }
    bias_filler {
      type: "constant"
      value: 0.2
    }
  }
}
layer {
  name: "inception_4e/relu_1x1"
  type: "ReLU"
  bottom: "inception_4e/1x1"
  top: "inception_4e/1x1"
}
layer {
  name: "inception_4e/3x3_reduce"
  type: "Convolution"
  bottom: "inception_4d/output"
  top: "inception_4e/3x3_reduce"
  param {
    lr_mult: 1
    decay_mult: 1
  }
  param {
    lr_mult: 2
    decay_mult: 0
  }
  convolution_param {
    num_output: 160
    kernel_size: 1
    weight_filler {
      type: "xavier"
      std: 0.09
    }
    bias_filler {
      type: "constant"
      value: 0.2
    }
  }
}
layer {
  name: "inception_4e/relu_3x3_reduce"
  type: "ReLU"
  bottom: "inception_4e/3x3_reduce"
  top: "inception_4e/3x3_reduce"
}
layer {
  name: "inception_4e/3x3"
  type: "Convolution"
  bottom: "inception_4e/3x3_reduce"
  top: "inception_4e/3x3"
  param {
    lr_mult: 1
    decay_mult: 1
  }
  param {
    lr_mult: 2
    decay_mult: 0
  }
  convolution_param {
    num_output: 320
    pad: 1
    kernel_size: 3
    weight_filler {
      type: "xavier"
      std: 0.03
    }
    bias_filler {
      type: "constant"
      value: 0.2
    }
  }
}
layer {
  name: "inception_4e/relu_3x3"
  type: "ReLU"
  bottom: "inception_4e/3x3"
  top: "inception_4e/3x3"
}
layer {
  name: "inception_4e/5x5_reduce"
  type: "Convolution"
  bottom: "inception_4d/output"
  top: "inception_4e/5x5_reduce"
  param {
    lr_mult: 1
    decay_mult: 1
  }
  param {
    lr_mult: 2
    decay_mult: 0
  }
  convolution_param {
    num_output: 32
    kernel_size: 1
    weight_filler {
      type: "xavier"
      std: 0.2
    }
    bias_filler {
      type: "constant"
      value: 0.2
    }
  }
}
layer {
  name: "inception_4e/relu_5x5_reduce"
  type: "ReLU"
  bottom: "inception_4e/5x5_reduce"
  top: "inception_4e/5x5_reduce"
}
layer {
  name: "inception_4e/5x5"
  type: "Convolution"
  bottom: "inception_4e/5x5_reduce"
  top: "inception_4e/5x5"
  p
I0403 15:01:30.272198 14023 layer_factory.hpp:77] Creating layer data
I0403 15:01:30.272810 14023 net.cpp:91] Creating Layer data
I0403 15:01:30.272841 14023 net.cpp:399] data -> data
I0403 15:01:30.272891 14023 net.cpp:399] data -> label
I0403 15:01:30.272927 14023 data_transformer.cpp:25] Loading mean file from: /home/mohanty/data/final_dataset/lmdb/color-40-60/mean.binaryproto
I0403 15:01:30.279412 14026 db_lmdb.cpp:38] Opened lmdb /home/mohanty/data/final_dataset/lmdb/color-40-60/test_db
I0403 15:01:30.286720 14023 data_layer.cpp:41] output data size: 24,3,224,224
I0403 15:01:30.313894 14023 net.cpp:141] Setting up data
I0403 15:01:30.313973 14023 net.cpp:148] Top shape: 24 3 224 224 (3612672)
I0403 15:01:30.313997 14023 net.cpp:148] Top shape: 24 (24)
I0403 15:01:30.314013 14023 net.cpp:156] Memory required for data: 14450784
I0403 15:01:30.314041 14023 layer_factory.hpp:77] Creating layer label_data_1_split
I0403 15:01:30.314069 14023 net.cpp:91] Creating Layer label_data_1_split
I0403 15:01:30.314090 14023 net.cpp:425] label_data_1_split <- label
I0403 15:01:30.314122 14023 net.cpp:399] label_data_1_split -> label_data_1_split_0
I0403 15:01:30.314152 14023 net.cpp:399] label_data_1_split -> label_data_1_split_1
I0403 15:01:30.314173 14023 net.cpp:399] label_data_1_split -> label_data_1_split_2
I0403 15:01:30.314195 14023 net.cpp:399] label_data_1_split -> label_data_1_split_3
I0403 15:01:30.314216 14023 net.cpp:399] label_data_1_split -> label_data_1_split_4
I0403 15:01:30.314236 14023 net.cpp:399] label_data_1_split -> label_data_1_split_5
I0403 15:01:30.314256 14023 net.cpp:399] label_data_1_split -> label_data_1_split_6
I0403 15:01:30.314277 14023 net.cpp:399] label_data_1_split -> label_data_1_split_7
I0403 15:01:30.314301 14023 net.cpp:399] label_data_1_split -> label_data_1_split_8
I0403 15:01:30.314321 14023 net.cpp:399] label_data_1_split -> label_data_1_split_9
I0403 15:01:30.314442 14023 net.cpp:141] Setting up label_data_1_split
I0403 15:01:30.314466 14023 net.cpp:148] Top shape: 24 (24)
I0403 15:01:30.314483 14023 net.cpp:148] Top shape: 24 (24)
I0403 15:01:30.314501 14023 net.cpp:148] Top shape: 24 (24)
I0403 15:01:30.314517 14023 net.cpp:148] Top shape: 24 (24)
I0403 15:01:30.314532 14023 net.cpp:148] Top shape: 24 (24)
I0403 15:01:30.314548 14023 net.cpp:148] Top shape: 24 (24)
I0403 15:01:30.314564 14023 net.cpp:148] Top shape: 24 (24)
I0403 15:01:30.314579 14023 net.cpp:148] Top shape: 24 (24)
I0403 15:01:30.314595 14023 net.cpp:148] Top shape: 24 (24)
I0403 15:01:30.314625 14023 net.cpp:148] Top shape: 24 (24)
I0403 15:01:30.314680 14023 net.cpp:156] Memory required for data: 14451744
I0403 15:01:30.314697 14023 layer_factory.hpp:77] Creating layer conv1/7x7_s2
I0403 15:01:30.314729 14023 net.cpp:91] Creating Layer conv1/7x7_s2
I0403 15:01:30.314749 14023 net.cpp:425] conv1/7x7_s2 <- data
I0403 15:01:30.314769 14023 net.cpp:399] conv1/7x7_s2 -> conv1/7x7_s2
I0403 15:01:30.450506 14023 net.cpp:141] Setting up conv1/7x7_s2
I0403 15:01:30.450579 14023 net.cpp:148] Top shape: 24 64 112 112 (19267584)
I0403 15:01:30.450597 14023 net.cpp:156] Memory required for data: 91522080
I0403 15:01:30.450634 14023 layer_factory.hpp:77] Creating layer conv1/relu_7x7
I0403 15:01:30.450664 14023 net.cpp:91] Creating Layer conv1/relu_7x7
I0403 15:01:30.450682 14023 net.cpp:425] conv1/relu_7x7 <- conv1/7x7_s2
I0403 15:01:30.450702 14023 net.cpp:386] conv1/relu_7x7 -> conv1/7x7_s2 (in-place)
I0403 15:01:30.450994 14023 net.cpp:141] Setting up conv1/relu_7x7
I0403 15:01:30.451021 14023 net.cpp:148] Top shape: 24 64 112 112 (19267584)
I0403 15:01:30.451037 14023 net.cpp:156] Memory required for data: 168592416
I0403 15:01:30.451053 14023 layer_factory.hpp:77] Creating layer pool1/3x3_s2
I0403 15:01:30.451078 14023 net.cpp:91] Creating Layer pool1/3x3_s2
I0403 15:01:30.451097 14023 net.cpp:425] pool1/3x3_s2 <- conv1/7x7_s2
I0403 15:01:30.451115 14023 net.cpp:399] pool1/3x3_s2 -> pool1/3x3_s2
I0403 15:01:30.451192 14023 net.cpp:141] Setting up pool1/3x3_s2
I0403 15:01:30.451217 14023 net.cpp:148] Top shape: 24 64 56 56 (4816896)
I0403 15:01:30.451232 14023 net.cpp:156] Memory required for data: 187860000
I0403 15:01:30.451247 14023 layer_factory.hpp:77] Creating layer pool1/norm1
I0403 15:01:30.451272 14023 net.cpp:91] Creating Layer pool1/norm1
I0403 15:01:30.451289 14023 net.cpp:425] pool1/norm1 <- pool1/3x3_s2
I0403 15:01:30.451308 14023 net.cpp:399] pool1/norm1 -> pool1/norm1
I0403 15:01:30.451597 14023 net.cpp:141] Setting up pool1/norm1
I0403 15:01:30.451632 14023 net.cpp:148] Top shape: 24 64 56 56 (4816896)
I0403 15:01:30.451648 14023 net.cpp:156] Memory required for data: 207127584
I0403 15:01:30.451663 14023 layer_factory.hpp:77] Creating layer conv2/3x3_reduce
I0403 15:01:30.451689 14023 net.cpp:91] Creating Layer conv2/3x3_reduce
I0403 15:01:30.451705 14023 net.cpp:425] conv2/3x3_reduce <- pool1/norm1
I0403 15:01:30.451725 14023 net.cpp:399] conv2/3x3_reduce -> conv2/3x3_reduce
I0403 15:01:30.453088 14023 net.cpp:141] Setting up conv2/3x3_reduce
I0403 15:01:30.453117 14023 net.cpp:148] Top shape: 24 64 56 56 (4816896)
I0403 15:01:30.453133 14023 net.cpp:156] Memory required for data: 226395168
I0403 15:01:30.453155 14023 layer_factory.hpp:77] Creating layer conv2/relu_3x3_reduce
I0403 15:01:30.453174 14023 net.cpp:91] Creating Layer conv2/relu_3x3_reduce
I0403 15:01:30.453191 14023 net.cpp:425] conv2/relu_3x3_reduce <- conv2/3x3_reduce
I0403 15:01:30.453208 14023 net.cpp:386] conv2/relu_3x3_reduce -> conv2/3x3_reduce (in-place)
I0403 15:01:30.453462 14023 net.cpp:141] Setting up conv2/relu_3x3_reduce
I0403 15:01:30.453490 14023 net.cpp:148] Top shape: 24 64 56 56 (4816896)
I0403 15:01:30.453505 14023 net.cpp:156] Memory required for data: 245662752
I0403 15:01:30.453519 14023 layer_factory.hpp:77] Creating layer conv2/3x3
I0403 15:01:30.453541 14023 net.cpp:91] Creating Layer conv2/3x3
I0403 15:01:30.453559 14023 net.cpp:425] conv2/3x3 <- conv2/3x3_reduce
I0403 15:01:30.453577 14023 net.cpp:399] conv2/3x3 -> conv2/3x3
I0403 15:01:30.455920 14023 net.cpp:141] Setting up conv2/3x3
I0403 15:01:30.455952 14023 net.cpp:148] Top shape: 24 192 56 56 (14450688)
I0403 15:01:30.455970 14023 net.cpp:156] Memory required for data: 303465504
I0403 15:01:30.455993 14023 layer_factory.hpp:77] Creating layer conv2/relu_3x3
I0403 15:01:30.456012 14023 net.cpp:91] Creating Layer conv2/relu_3x3
I0403 15:01:30.456029 14023 net.cpp:425] conv2/relu_3x3 <- conv2/3x3
I0403 15:01:30.456048 14023 net.cpp:386] conv2/relu_3x3 -> conv2/3x3 (in-place)
I0403 15:01:30.456210 14023 net.cpp:141] Setting up conv2/relu_3x3
I0403 15:01:30.456236 14023 net.cpp:148] Top shape: 24 192 56 56 (14450688)
I0403 15:01:30.456291 14023 net.cpp:156] Memory required for data: 361268256
I0403 15:01:30.456308 14023 layer_factory.hpp:77] Creating layer conv2/norm2
I0403 15:01:30.456326 14023 net.cpp:91] Creating Layer conv2/norm2
I0403 15:01:30.456343 14023 net.cpp:425] conv2/norm2 <- conv2/3x3
I0403 15:01:30.456362 14023 net.cpp:399] conv2/norm2 -> conv2/norm2
I0403 15:01:30.456657 14023 net.cpp:141] Setting up conv2/norm2
I0403 15:01:30.456686 14023 net.cpp:148] Top shape: 24 192 56 56 (14450688)
I0403 15:01:30.456701 14023 net.cpp:156] Memory required for data: 419071008
I0403 15:01:30.456717 14023 layer_factory.hpp:77] Creating layer pool2/3x3_s2
I0403 15:01:30.456734 14023 net.cpp:91] Creating Layer pool2/3x3_s2
I0403 15:01:30.456750 14023 net.cpp:425] pool2/3x3_s2 <- conv2/norm2
I0403 15:01:30.456769 14023 net.cpp:399] pool2/3x3_s2 -> pool2/3x3_s2
I0403 15:01:30.456820 14023 net.cpp:141] Setting up pool2/3x3_s2
I0403 15:01:30.456845 14023 net.cpp:148] Top shape: 24 192 28 28 (3612672)
I0403 15:01:30.456858 14023 net.cpp:156] Memory required for data: 433521696
I0403 15:01:30.456873 14023 layer_factory.hpp:77] Creating layer pool2/3x3_s2_pool2/3x3_s2_0_split
I0403 15:01:30.456890 14023 net.cpp:91] Creating Layer pool2/3x3_s2_pool2/3x3_s2_0_split
I0403 15:01:30.456905 14023 net.cpp:425] pool2/3x3_s2_pool2/3x3_s2_0_split <- pool2/3x3_s2
I0403 15:01:30.456923 14023 net.cpp:399] pool2/3x3_s2_pool2/3x3_s2_0_split -> pool2/3x3_s2_pool2/3x3_s2_0_split_0
I0403 15:01:30.456943 14023 net.cpp:399] pool2/3x3_s2_pool2/3x3_s2_0_split -> pool2/3x3_s2_pool2/3x3_s2_0_split_1
I0403 15:01:30.456962 14023 net.cpp:399] pool2/3x3_s2_pool2/3x3_s2_0_split -> pool2/3x3_s2_pool2/3x3_s2_0_split_2
I0403 15:01:30.456982 14023 net.cpp:399] pool2/3x3_s2_pool2/3x3_s2_0_split -> pool2/3x3_s2_pool2/3x3_s2_0_split_3
I0403 15:01:30.457048 14023 net.cpp:141] Setting up pool2/3x3_s2_pool2/3x3_s2_0_split
I0403 15:01:30.457072 14023 net.cpp:148] Top shape: 24 192 28 28 (3612672)
I0403 15:01:30.457087 14023 net.cpp:148] Top shape: 24 192 28 28 (3612672)
I0403 15:01:30.457104 14023 net.cpp:148] Top shape: 24 192 28 28 (3612672)
I0403 15:01:30.457119 14023 net.cpp:148] Top shape: 24 192 28 28 (3612672)
I0403 15:01:30.457134 14023 net.cpp:156] Memory required for data: 491324448
I0403 15:01:30.457147 14023 layer_factory.hpp:77] Creating layer inception_3a/1x1
I0403 15:01:30.457167 14023 net.cpp:91] Creating Layer inception_3a/1x1
I0403 15:01:30.457185 14023 net.cpp:425] inception_3a/1x1 <- pool2/3x3_s2_pool2/3x3_s2_0_split_0
I0403 15:01:30.457203 14023 net.cpp:399] inception_3a/1x1 -> inception_3a/1x1
I0403 15:01:30.458791 14023 net.cpp:141] Setting up inception_3a/1x1
I0403 15:01:30.458822 14023 net.cpp:148] Top shape: 24 64 28 28 (1204224)
I0403 15:01:30.458837 14023 net.cpp:156] Memory required for data: 496141344
I0403 15:01:30.458856 14023 layer_factory.hpp:77] Creating layer inception_3a/relu_1x1
I0403 15:01:30.458878 14023 net.cpp:91] Creating Layer inception_3a/relu_1x1
I0403 15:01:30.458896 14023 net.cpp:425] inception_3a/relu_1x1 <- inception_3a/1x1
I0403 15:01:30.458914 14023 net.cpp:386] inception_3a/relu_1x1 -> inception_3a/1x1 (in-place)
I0403 15:01:30.459094 14023 net.cpp:141] Setting up inception_3a/relu_1x1
I0403 15:01:30.459120 14023 net.cpp:148] Top shape: 24 64 28 28 (1204224)
I0403 15:01:30.459136 14023 net.cpp:156] Memory required for data: 500958240
I0403 15:01:30.459151 14023 layer_factory.hpp:77] Creating layer inception_3a/3x3_reduce
I0403 15:01:30.459219 14023 net.cpp:91] Creating Layer inception_3a/3x3_reduce
I0403 15:01:30.459241 14023 net.cpp:425] inception_3a/3x3_reduce <- pool2/3x3_s2_pool2/3x3_s2_0_split_1
I0403 15:01:30.459264 14023 net.cpp:399] inception_3a/3x3_reduce -> inception_3a/3x3_reduce
I0403 15:01:30.461012 14023 net.cpp:141] Setting up inception_3a/3x3_reduce
I0403 15:01:30.461042 14023 net.cpp:148] Top shape: 24 96 28 28 (1806336)
I0403 15:01:30.461062 14023 net.cpp:156] Memory required for data: 508183584
I0403 15:01:30.461086 14023 layer_factory.hpp:77] Creating layer inception_3a/relu_3x3_reduce
I0403 15:01:30.461123 14023 net.cpp:91] Creating Layer inception_3a/relu_3x3_reduce
I0403 15:01:30.461143 14023 net.cpp:425] inception_3a/relu_3x3_reduce <- inception_3a/3x3_reduce
I0403 15:01:30.461163 14023 net.cpp:386] inception_3a/relu_3x3_reduce -> inception_3a/3x3_reduce (in-place)
I0403 15:01:30.461350 14023 net.cpp:141] Setting up inception_3a/relu_3x3_reduce
I0403 15:01:30.461376 14023 net.cpp:148] Top shape: 24 96 28 28 (1806336)
I0403 15:01:30.461391 14023 net.cpp:156] Memory required for data: 515408928
I0403 15:01:30.461406 14023 layer_factory.hpp:77] Creating layer inception_3a/3x3
I0403 15:01:30.461428 14023 net.cpp:91] Creating Layer inception_3a/3x3
I0403 15:01:30.461447 14023 net.cpp:425] inception_3a/3x3 <- inception_3a/3x3_reduce
I0403 15:01:30.461468 14023 net.cpp:399] inception_3a/3x3 -> inception_3a/3x3
I0403 15:01:30.463212 14023 net.cpp:141] Setting up inception_3a/3x3
I0403 15:01:30.463244 14023 net.cpp:148] Top shape: 24 128 28 28 (2408448)
I0403 15:01:30.463261 14023 net.cpp:156] Memory required for data: 525042720
I0403 15:01:30.463281 14023 layer_factory.hpp:77] Creating layer inception_3a/relu_3x3
I0403 15:01:30.463299 14023 net.cpp:91] Creating Layer inception_3a/relu_3x3
I0403 15:01:30.463315 14023 net.cpp:425] inception_3a/relu_3x3 <- inception_3a/3x3
I0403 15:01:30.463337 14023 net.cpp:386] inception_3a/relu_3x3 -> inception_3a/3x3 (in-place)
I0403 15:01:30.463627 14023 net.cpp:141] Setting up inception_3a/relu_3x3
I0403 15:01:30.463657 14023 net.cpp:148] Top shape: 24 128 28 28 (2408448)
I0403 15:01:30.463675 14023 net.cpp:156] Memory required for data: 534676512
I0403 15:01:30.463690 14023 layer_factory.hpp:77] Creating layer inception_3a/5x5_reduce
I0403 15:01:30.463712 14023 net.cpp:91] Creating Layer inception_3a/5x5_reduce
I0403 15:01:30.463731 14023 net.cpp:425] inception_3a/5x5_reduce <- pool2/3x3_s2_pool2/3x3_s2_0_split_2
I0403 15:01:30.463749 14023 net.cpp:399] inception_3a/5x5_reduce -> inception_3a/5x5_reduce
I0403 15:01:30.464787 14023 net.cpp:141] Setting up inception_3a/5x5_reduce
I0403 15:01:30.464818 14023 net.cpp:148] Top shape: 24 16 28 28 (301056)
I0403 15:01:30.464836 14023 net.cpp:156] Memory required for data: 535880736
I0403 15:01:30.464856 14023 layer_factory.hpp:77] Creating layer inception_3a/relu_5x5_reduce
I0403 15:01:30.464875 14023 net.cpp:91] Creating Layer inception_3a/relu_5x5_reduce
I0403 15:01:30.464891 14023 net.cpp:425] inception_3a/relu_5x5_reduce <- inception_3a/5x5_reduce
I0403 15:01:30.464913 14023 net.cpp:386] inception_3a/relu_5x5_reduce -> inception_3a/5x5_reduce (in-place)
I0403 15:01:30.465219 14023 net.cpp:141] Setting up inception_3a/relu_5x5_reduce
I0403 15:01:30.465245 14023 net.cpp:148] Top shape: 24 16 28 28 (301056)
I0403 15:01:30.465260 14023 net.cpp:156] Memory required for data: 537084960
I0403 15:01:30.465276 14023 layer_factory.hpp:77] Creating layer inception_3a/5x5
I0403 15:01:30.465301 14023 net.cpp:91] Creating Layer inception_3a/5x5
I0403 15:01:30.465318 14023 net.cpp:425] inception_3a/5x5 <- inception_3a/5x5_reduce
I0403 15:01:30.465339 14023 net.cpp:399] inception_3a/5x5 -> inception_3a/5x5
I0403 15:01:30.466413 14023 net.cpp:141] Setting up inception_3a/5x5
I0403 15:01:30.466441 14023 net.cpp:148] Top shape: 24 32 28 28 (602112)
I0403 15:01:30.466457 14023 net.cpp:156] Memory required for data: 539493408
I0403 15:01:30.466476 14023 layer_factory.hpp:77] Creating layer inception_3a/relu_5x5
I0403 15:01:30.466497 14023 net.cpp:91] Creating Layer inception_3a/relu_5x5
I0403 15:01:30.466516 14023 net.cpp:425] inception_3a/relu_5x5 <- inception_3a/5x5
I0403 15:01:30.466534 14023 net.cpp:386] inception_3a/relu_5x5 -> inception_3a/5x5 (in-place)
I0403 15:01:30.466717 14023 net.cpp:141] Setting up inception_3a/relu_5x5
I0403 15:01:30.466742 14023 net.cpp:148] Top shape: 24 32 28 28 (602112)
I0403 15:01:30.466758 14023 net.cpp:156] Memory required for data: 541901856
I0403 15:01:30.466771 14023 layer_factory.hpp:77] Creating layer inception_3a/pool
I0403 15:01:30.466789 14023 net.cpp:91] Creating Layer inception_3a/pool
I0403 15:01:30.466806 14023 net.cpp:425] inception_3a/pool <- pool2/3x3_s2_pool2/3x3_s2_0_split_3
I0403 15:01:30.466842 14023 net.cpp:399] inception_3a/pool -> inception_3a/pool
I0403 15:01:30.466905 14023 net.cpp:141] Setting up inception_3a/pool
I0403 15:01:30.466929 14023 net.cpp:148] Top shape: 24 192 28 28 (3612672)
I0403 15:01:30.466943 14023 net.cpp:156] Memory required for data: 556352544
I0403 15:01:30.466958 14023 layer_factory.hpp:77] Creating layer inception_3a/pool_proj
I0403 15:01:30.466984 14023 net.cpp:91] Creating Layer inception_3a/pool_proj
I0403 15:01:30.467001 14023 net.cpp:425] inception_3a/pool_proj <- inception_3a/pool
I0403 15:01:30.467020 14023 net.cpp:399] inception_3a/pool_proj -> inception_3a/pool_proj
I0403 15:01:30.468036 14023 net.cpp:141] Setting up inception_3a/pool_proj
I0403 15:01:30.468065 14023 net.cpp:148] Top shape: 24 32 28 28 (602112)
I0403 15:01:30.468080 14023 net.cpp:156] Memory required for data: 558760992
I0403 15:01:30.468106 14023 layer_factory.hpp:77] Creating layer inception_3a/relu_pool_proj
I0403 15:01:30.468125 14023 net.cpp:91] Creating Layer inception_3a/relu_pool_proj
I0403 15:01:30.468143 14023 net.cpp:425] inception_3a/relu_pool_proj <- inception_3a/pool_proj
I0403 15:01:30.468163 14023 net.cpp:386] inception_3a/relu_pool_proj -> inception_3a/pool_proj (in-place)
I0403 15:01:30.468443 14023 net.cpp:141] Setting up inception_3a/relu_pool_proj
I0403 15:01:30.468474 14023 net.cpp:148] Top shape: 24 32 28 28 (602112)
I0403 15:01:30.468492 14023 net.cpp:156] Memory required for data: 561169440
I0403 15:01:30.468507 14023 layer_factory.hpp:77] Creating layer inception_3a/output
I0403 15:01:30.468524 14023 net.cpp:91] Creating Layer inception_3a/output
I0403 15:01:30.468540 14023 net.cpp:425] inception_3a/output <- inception_3a/1x1
I0403 15:01:30.468556 14023 net.cpp:425] inception_3a/output <- inception_3a/3x3
I0403 15:01:30.468572 14023 net.cpp:425] inception_3a/output <- inception_3a/5x5
I0403 15:01:30.468590 14023 net.cpp:425] inception_3a/output <- inception_3a/pool_proj
I0403 15:01:30.468611 14023 net.cpp:399] inception_3a/output -> inception_3a/output
I0403 15:01:30.468662 14023 net.cpp:141] Setting up inception_3a/output
I0403 15:01:30.468685 14023 net.cpp:148] Top shape: 24 256 28 28 (4816896)
I0403 15:01:30.468700 14023 net.cpp:156] Memory required for data: 580437024
I0403 15:01:30.468714 14023 layer_factory.hpp:77] Creating layer inception_3a/output_inception_3a/output_0_split
I0403 15:01:30.468731 14023 net.cpp:91] Creating Layer inception_3a/output_inception_3a/output_0_split
I0403 15:01:30.468747 14023 net.cpp:425] inception_3a/output_inception_3a/output_0_split <- inception_3a/output
I0403 15:01:30.468767 14023 net.cpp:399] inception_3a/output_inception_3a/output_0_split -> inception_3a/output_inception_3a/output_0_split_0
I0403 15:01:30.468788 14023 net.cpp:399] inception_3a/output_inception_3a/output_0_split -> inception_3a/output_inception_3a/output_0_split_1
I0403 15:01:30.468814 14023 net.cpp:399] inception_3a/output_inception_3a/output_0_split -> inception_3a/output_inception_3a/output_0_split_2
I0403 15:01:30.468837 14023 net.cpp:399] inception_3a/output_inception_3a/output_0_split -> inception_3a/output_inception_3a/output_0_split_3
I0403 15:01:30.468911 14023 net.cpp:141] Setting up inception_3a/output_inception_3a/output_0_split
I0403 15:01:30.468935 14023 net.cpp:148] Top shape: 24 256 28 28 (4816896)
I0403 15:01:30.468953 14023 net.cpp:148] Top shape: 24 256 28 28 (4816896)
I0403 15:01:30.468971 14023 net.cpp:148] Top shape: 24 256 28 28 (4816896)
I0403 15:01:30.468986 14023 net.cpp:148] Top shape: 24 256 28 28 (4816896)
I0403 15:01:30.468999 14023 net.cpp:156] Memory required for data: 657507360
I0403 15:01:30.469014 14023 layer_factory.hpp:77] Creating layer inception_3b/1x1
I0403 15:01:30.469034 14023 net.cpp:91] Creating Layer inception_3b/1x1
I0403 15:01:30.469051 14023 net.cpp:425] inception_3b/1x1 <- inception_3a/output_inception_3a/output_0_split_0
I0403 15:01:30.469072 14023 net.cpp:399] inception_3b/1x1 -> inception_3b/1x1
I0403 15:01:30.470263 14023 net.cpp:141] Setting up inception_3b/1x1
I0403 15:01:30.470309 14023 net.cpp:148] Top shape: 24 128 28 28 (2408448)
I0403 15:01:30.470325 14023 net.cpp:156] Memory required for data: 667141152
I0403 15:01:30.470345 14023 layer_factory.hpp:77] Creating layer inception_3b/relu_1x1
I0403 15:01:30.470366 14023 net.cpp:91] Creating Layer inception_3b/relu_1x1
I0403 15:01:30.470383 14023 net.cpp:425] inception_3b/relu_1x1 <- inception_3b/1x1
I0403 15:01:30.470402 14023 net.cpp:386] inception_3b/relu_1x1 -> inception_3b/1x1 (in-place)
I0403 15:01:30.470580 14023 net.cpp:141] Setting up inception_3b/relu_1x1
I0403 15:01:30.470613 14023 net.cpp:148] Top shape: 24 128 28 28 (2408448)
I0403 15:01:30.470629 14023 net.cpp:156] Memory required for data: 676774944
I0403 15:01:30.470645 14023 layer_factory.hpp:77] Creating layer inception_3b/3x3_reduce
I0403 15:01:30.470667 14023 net.cpp:91] Creating Layer inception_3b/3x3_reduce
I0403 15:01:30.470685 14023 net.cpp:425] inception_3b/3x3_reduce <- inception_3a/output_inception_3a/output_0_split_1
I0403 15:01:30.470705 14023 net.cpp:399] inception_3b/3x3_reduce -> inception_3b/3x3_reduce
I0403 15:01:30.471935 14023 net.cpp:141] Setting up inception_3b/3x3_reduce
I0403 15:01:30.471964 14023 net.cpp:148] Top shape: 24 128 28 28 (2408448)
I0403 15:01:30.471982 14023 net.cpp:156] Memory required for data: 686408736
I0403 15:01:30.472000 14023 layer_factory.hpp:77] Creating layer inception_3b/relu_3x3_reduce
I0403 15:01:30.472021 14023 net.cpp:91] Creating Layer inception_3b/relu_3x3_reduce
I0403 15:01:30.472038 14023 net.cpp:425] inception_3b/relu_3x3_reduce <- inception_3b/3x3_reduce
I0403 15:01:30.472056 14023 net.cpp:386] inception_3b/relu_3x3_reduce -> inception_3b/3x3_reduce (in-place)
I0403 15:01:30.472234 14023 net.cpp:141] Setting up inception_3b/relu_3x3_reduce
I0403 15:01:30.472264 14023 net.cpp:148] Top shape: 24 128 28 28 (2408448)
I0403 15:01:30.472280 14023 net.cpp:156] Memory required for data: 696042528
I0403 15:01:30.472295 14023 layer_factory.hpp:77] Creating layer inception_3b/3x3
I0403 15:01:30.472321 14023 net.cpp:91] Creating Layer inception_3b/3x3
I0403 15:01:30.472338 14023 net.cpp:425] inception_3b/3x3 <- inception_3b/3x3_reduce
I0403 15:01:30.472362 14023 net.cpp:399] inception_3b/3x3 -> inception_3b/3x3
I0403 15:01:30.475307 14023 net.cpp:141] Setting up inception_3b/3x3
I0403 15:01:30.475338 14023 net.cpp:148] Top shape: 24 192 28 28 (3612672)
I0403 15:01:30.475355 14023 net.cpp:156] Memory required for data: 710493216
I0403 15:01:30.475373 14023 layer_factory.hpp:77] Creating layer inception_3b/relu_3x3
I0403 15:01:30.475391 14023 net.cpp:91] Creating Layer inception_3b/relu_3x3
I0403 15:01:30.475407 14023 net.cpp:425] inception_3b/relu_3x3 <- inception_3b/3x3
I0403 15:01:30.475426 14023 net.cpp:386] inception_3b/relu_3x3 -> inception_3b/3x3 (in-place)
I0403 15:01:30.475703 14023 net.cpp:141] Setting up inception_3b/relu_3x3
I0403 15:01:30.475733 14023 net.cpp:148] Top shape: 24 192 28 28 (3612672)
I0403 15:01:30.475749 14023 net.cpp:156] Memory required for data: 724943904
I0403 15:01:30.475764 14023 layer_factory.hpp:77] Creating layer inception_3b/5x5_reduce
I0403 15:01:30.475787 14023 net.cpp:91] Creating Layer inception_3b/5x5_reduce
I0403 15:01:30.475805 14023 net.cpp:425] inception_3b/5x5_reduce <- inception_3a/output_inception_3a/output_0_split_2
I0403 15:01:30.475824 14023 net.cpp:399] inception_3b/5x5_reduce -> inception_3b/5x5_reduce
I0403 15:01:30.476811 14023 net.cpp:141] Setting up inception_3b/5x5_reduce
I0403 15:01:30.476840 14023 net.cpp:148] Top shape: 24 32 28 28 (602112)
I0403 15:01:30.476855 14023 net.cpp:156] Memory required for data: 727352352
I0403 15:01:30.476872 14023 layer_factory.hpp:77] Creating layer inception_3b/relu_5x5_reduce
I0403 15:01:30.476893 14023 net.cpp:91] Creating Layer inception_3b/relu_5x5_reduce
I0403 15:01:30.476912 14023 net.cpp:425] inception_3b/relu_5x5_reduce <- inception_3b/5x5_reduce
I0403 15:01:30.476929 14023 net.cpp:386] inception_3b/relu_5x5_reduce -> inception_3b/5x5_reduce (in-place)
I0403 15:01:30.477104 14023 net.cpp:141] Setting up inception_3b/relu_5x5_reduce
I0403 15:01:30.477141 14023 net.cpp:148] Top shape: 24 32 28 28 (602112)
I0403 15:01:30.477156 14023 net.cpp:156] Memory required for data: 729760800
I0403 15:01:30.477170 14023 layer_factory.hpp:77] Creating layer inception_3b/5x5
I0403 15:01:30.477193 14023 net.cpp:91] Creating Layer inception_3b/5x5
I0403 15:01:30.477210 14023 net.cpp:425] inception_3b/5x5 <- inception_3b/5x5_reduce
I0403 15:01:30.477231 14023 net.cpp:399] inception_3b/5x5 -> inception_3b/5x5
I0403 15:01:30.479197 14023 net.cpp:141] Setting up inception_3b/5x5
I0403 15:01:30.479225 14023 net.cpp:148] Top shape: 24 96 28 28 (1806336)
I0403 15:01:30.479241 14023 net.cpp:156] Memory required for data: 736986144
I0403 15:01:30.479260 14023 layer_factory.hpp:77] Creating layer inception_3b/relu_5x5
I0403 15:01:30.479280 14023 net.cpp:91] Creating Layer inception_3b/relu_5x5
I0403 15:01:30.479297 14023 net.cpp:425] inception_3b/relu_5x5 <- inception_3b/5x5
I0403 15:01:30.479315 14023 net.cpp:386] inception_3b/relu_5x5 -> inception_3b/5x5 (in-place)
I0403 15:01:30.479506 14023 net.cpp:141] Setting up inception_3b/relu_5x5
I0403 15:01:30.479531 14023 net.cpp:148] Top shape: 24 96 28 28 (1806336)
I0403 15:01:30.479544 14023 net.cpp:156] Memory required for data: 744211488
I0403 15:01:30.479559 14023 layer_factory.hpp:77] Creating layer inception_3b/pool
I0403 15:01:30.479576 14023 net.cpp:91] Creating Layer inception_3b/pool
I0403 15:01:30.479591 14023 net.cpp:425] inception_3b/pool <- inception_3a/output_inception_3a/output_0_split_3
I0403 15:01:30.479615 14023 net.cpp:399] inception_3b/pool -> inception_3b/pool
I0403 15:01:30.479672 14023 net.cpp:141] Setting up inception_3b/pool
I0403 15:01:30.479696 14023 net.cpp:148] Top shape: 24 256 28 28 (4816896)
I0403 15:01:30.479710 14023 net.cpp:156] Memory required for data: 763479072
I0403 15:01:30.479724 14023 layer_factory.hpp:77] Creating layer inception_3b/pool_proj
I0403 15:01:30.479745 14023 net.cpp:91] Creating Layer inception_3b/pool_proj
I0403 15:01:30.479763 14023 net.cpp:425] inception_3b/pool_proj <- inception_3b/pool
I0403 15:01:30.479784 14023 net.cpp:399] inception_3b/pool_proj -> inception_3b/pool_proj
I0403 15:01:30.480844 14023 net.cpp:141] Setting up inception_3b/pool_proj
I0403 15:01:30.480870 14023 net.cpp:148] Top shape: 24 64 28 28 (1204224)
I0403 15:01:30.480885 14023 net.cpp:156] Memory required for data: 768295968
I0403 15:01:30.480902 14023 layer_factory.hpp:77] Creating layer inception_3b/relu_pool_proj
I0403 15:01:30.480921 14023 net.cpp:91] Creating Layer inception_3b/relu_pool_proj
I0403 15:01:30.480936 14023 net.cpp:425] inception_3b/relu_pool_proj <- inception_3b/pool_proj
I0403 15:01:30.480954 14023 net.cpp:386] inception_3b/relu_pool_proj -> inception_3b/pool_proj (in-place)
I0403 15:01:30.481335 14023 net.cpp:141] Setting up inception_3b/relu_pool_proj
I0403 15:01:30.481364 14023 net.cpp:148] Top shape: 24 64 28 28 (1204224)
I0403 15:01:30.481379 14023 net.cpp:156] Memory required for data: 773112864
I0403 15:01:30.481394 14023 layer_factory.hpp:77] Creating layer inception_3b/output
I0403 15:01:30.481410 14023 net.cpp:91] Creating Layer inception_3b/output
I0403 15:01:30.481425 14023 net.cpp:425] inception_3b/output <- inception_3b/1x1
I0403 15:01:30.481441 14023 net.cpp:425] inception_3b/output <- inception_3b/3x3
I0403 15:01:30.481456 14023 net.cpp:425] inception_3b/output <- inception_3b/5x5
I0403 15:01:30.481472 14023 net.cpp:425] inception_3b/output <- inception_3b/pool_proj
I0403 15:01:30.481489 14023 net.cpp:399] inception_3b/output -> inception_3b/output
I0403 15:01:30.481531 14023 net.cpp:141] Setting up inception_3b/output
I0403 15:01:30.481554 14023 net.cpp:148] Top shape: 24 480 28 28 (9031680)
I0403 15:01:30.481569 14023 net.cpp:156] Memory required for data: 809239584
I0403 15:01:30.481582 14023 layer_factory.hpp:77] Creating layer pool3/3x3_s2
I0403 15:01:30.481606 14023 net.cpp:91] Creating Layer pool3/3x3_s2
I0403 15:01:30.481623 14023 net.cpp:425] pool3/3x3_s2 <- inception_3b/output
I0403 15:01:30.481640 14023 net.cpp:399] pool3/3x3_s2 -> pool3/3x3_s2
I0403 15:01:30.481714 14023 net.cpp:141] Setting up pool3/3x3_s2
I0403 15:01:30.481736 14023 net.cpp:148] Top shape: 24 480 14 14 (2257920)
I0403 15:01:30.481750 14023 net.cpp:156] Memory required for data: 818271264
I0403 15:01:30.481765 14023 layer_factory.hpp:77] Creating layer pool3/3x3_s2_pool3/3x3_s2_0_split
I0403 15:01:30.481782 14023 net.cpp:91] Creating Layer pool3/3x3_s2_pool3/3x3_s2_0_split
I0403 15:01:30.481801 14023 net.cpp:425] pool3/3x3_s2_pool3/3x3_s2_0_split <- pool3/3x3_s2
I0403 15:01:30.481817 14023 net.cpp:399] pool3/3x3_s2_pool3/3x3_s2_0_split -> pool3/3x3_s2_pool3/3x3_s2_0_split_0
I0403 15:01:30.481835 14023 net.cpp:399] pool3/3x3_s2_pool3/3x3_s2_0_split -> pool3/3x3_s2_pool3/3x3_s2_0_split_1
I0403 15:01:30.481854 14023 net.cpp:399] pool3/3x3_s2_pool3/3x3_s2_0_split -> pool3/3x3_s2_pool3/3x3_s2_0_split_2
I0403 15:01:30.481873 14023 net.cpp:399] pool3/3x3_s2_pool3/3x3_s2_0_split -> pool3/3x3_s2_pool3/3x3_s2_0_split_3
I0403 15:01:30.481945 14023 net.cpp:141] Setting up pool3/3x3_s2_pool3/3x3_s2_0_split
I0403 15:01:30.481967 14023 net.cpp:148] Top shape: 24 480 14 14 (2257920)
I0403 15:01:30.481983 14023 net.cpp:148] Top shape: 24 480 14 14 (2257920)
I0403 15:01:30.481998 14023 net.cpp:148] Top shape: 24 480 14 14 (2257920)
I0403 15:01:30.482013 14023 net.cpp:148] Top shape: 24 480 14 14 (2257920)
I0403 15:01:30.482025 14023 net.cpp:156] Memory required for data: 854397984
I0403 15:01:30.482039 14023 layer_factory.hpp:77] Creating layer inception_4a/1x1
I0403 15:01:30.482060 14023 net.cpp:91] Creating Layer inception_4a/1x1
I0403 15:01:30.482077 14023 net.cpp:425] inception_4a/1x1 <- pool3/3x3_s2_pool3/3x3_s2_0_split_0
I0403 15:01:30.482097 14023 net.cpp:399] inception_4a/1x1 -> inception_4a/1x1
I0403 15:01:30.483595 14023 net.cpp:141] Setting up inception_4a/1x1
I0403 15:01:30.483625 14023 net.cpp:148] Top shape: 24 192 14 14 (903168)
I0403 15:01:30.483640 14023 net.cpp:156] Memory required for data: 858010656
I0403 15:01:30.483659 14023 layer_factory.hpp:77] Creating layer inception_4a/relu_1x1
I0403 15:01:30.483676 14023 net.cpp:91] Creating Layer inception_4a/relu_1x1
I0403 15:01:30.483692 14023 net.cpp:425] inception_4a/relu_1x1 <- inception_4a/1x1
I0403 15:01:30.483711 14023 net.cpp:386] inception_4a/relu_1x1 -> inception_4a/1x1 (in-place)
I0403 15:01:30.483878 14023 net.cpp:141] Setting up inception_4a/relu_1x1
I0403 15:01:30.483903 14023 net.cpp:148] Top shape: 24 192 14 14 (903168)
I0403 15:01:30.483917 14023 net.cpp:156] Memory required for data: 861623328
I0403 15:01:30.483930 14023 layer_factory.hpp:77] Creating layer inception_4a/3x3_reduce
I0403 15:01:30.483952 14023 net.cpp:91] Creating Layer inception_4a/3x3_reduce
I0403 15:01:30.483968 14023 net.cpp:425] inception_4a/3x3_reduce <- pool3/3x3_s2_pool3/3x3_s2_0_split_1
I0403 15:01:30.483989 14023 net.cpp:399] inception_4a/3x3_reduce -> inception_4a/3x3_reduce
I0403 15:01:30.485224 14023 net.cpp:141] Setting up inception_4a/3x3_reduce
I0403 15:01:30.485250 14023 net.cpp:148] Top shape: 24 96 14 14 (451584)
I0403 15:01:30.485265 14023 net.cpp:156] Memory required for data: 863429664
I0403 15:01:30.485290 14023 layer_factory.hpp:77] Creating layer inception_4a/relu_3x3_reduce
I0403 15:01:30.485309 14023 net.cpp:91] Creating Layer inception_4a/relu_3x3_reduce
I0403 15:01:30.485326 14023 net.cpp:425] inception_4a/relu_3x3_reduce <- inception_4a/3x3_reduce
I0403 15:01:30.485344 14023 net.cpp:386] inception_4a/relu_3x3_reduce -> inception_4a/3x3_reduce (in-place)
I0403 15:01:30.485510 14023 net.cpp:141] Setting up inception_4a/relu_3x3_reduce
I0403 15:01:30.485535 14023 net.cpp:148] Top shape: 24 96 14 14 (451584)
I0403 15:01:30.485549 14023 net.cpp:156] Memory required for data: 865236000
I0403 15:01:30.485563 14023 layer_factory.hpp:77] Creating layer inception_4a/3x3
I0403 15:01:30.485584 14023 net.cpp:91] Creating Layer inception_4a/3x3
I0403 15:01:30.485605 14023 net.cpp:425] inception_4a/3x3 <- inception_4a/3x3_reduce
I0403 15:01:30.485628 14023 net.cpp:399] inception_4a/3x3 -> inception_4a/3x3
I0403 15:01:30.488194 14023 net.cpp:141] Setting up inception_4a/3x3
I0403 15:01:30.488224 14023 net.cpp:148] Top shape: 24 208 14 14 (978432)
I0403 15:01:30.488239 14023 net.cpp:156] Memory required for data: 869149728
I0403 15:01:30.488256 14023 layer_factory.hpp:77] Creating layer inception_4a/relu_3x3
I0403 15:01:30.488276 14023 net.cpp:91] Creating Layer inception_4a/relu_3x3
I0403 15:01:30.488292 14023 net.cpp:425] inception_4a/relu_3x3 <- inception_4a/3x3
I0403 15:01:30.488309 14023 net.cpp:386] inception_4a/relu_3x3 -> inception_4a/3x3 (in-place)
I0403 15:01:30.488575 14023 net.cpp:141] Setting up inception_4a/relu_3x3
I0403 15:01:30.488605 14023 net.cpp:148] Top shape: 24 208 14 14 (978432)
I0403 15:01:30.488620 14023 net.cpp:156] Memory required for data: 873063456
I0403 15:01:30.488636 14023 layer_factory.hpp:77] Creating layer inception_4a/5x5_reduce
I0403 15:01:30.488656 14023 net.cpp:91] Creating Layer inception_4a/5x5_reduce
I0403 15:01:30.488673 14023 net.cpp:425] inception_4a/5x5_reduce <- pool3/3x3_s2_pool3/3x3_s2_0_split_2
I0403 15:01:30.488695 14023 net.cpp:399] inception_4a/5x5_reduce -> inception_4a/5x5_reduce
I0403 15:01:30.489676 14023 net.cpp:141] Setting up inception_4a/5x5_reduce
I0403 15:01:30.489702 14023 net.cpp:148] Top shape: 24 16 14 14 (75264)
I0403 15:01:30.489717 14023 net.cpp:156] Memory required for data: 873364512
I0403 15:01:30.489735 14023 layer_factory.hpp:77] Creating layer inception_4a/relu_5x5_reduce
I0403 15:01:30.489754 14023 net.cpp:91] Creating Layer inception_4a/relu_5x5_reduce
I0403 15:01:30.489771 14023 net.cpp:425] inception_4a/relu_5x5_reduce <- inception_4a/5x5_reduce
I0403 15:01:30.489787 14023 net.cpp:386] inception_4a/relu_5x5_reduce -> inception_4a/5x5_reduce (in-place)
I0403 15:01:30.489961 14023 net.cpp:141] Setting up inception_4a/relu_5x5_reduce
I0403 15:01:30.489985 14023 net.cpp:148] Top shape: 24 16 14 14 (75264)
I0403 15:01:30.490000 14023 net.cpp:156] Memory required for data: 873665568
I0403 15:01:30.490013 14023 layer_factory.hpp:77] Creating layer inception_4a/5x5
I0403 15:01:30.490036 14023 net.cpp:91] Creating Layer inception_4a/5x5
I0403 15:01:30.490052 14023 net.cpp:425] inception_4a/5x5 <- inception_4a/5x5_reduce
I0403 15:01:30.490072 14023 net.cpp:399] inception_4a/5x5 -> inception_4a/5x5
I0403 15:01:30.491127 14023 net.cpp:141] Setting up inception_4a/5x5
I0403 15:01:30.491156 14023 net.cpp:148] Top shape: 24 48 14 14 (225792)
I0403 15:01:30.491173 14023 net.cpp:156] Memory required for data: 874568736
I0403 15:01:30.491190 14023 layer_factory.hpp:77] Creating layer inception_4a/relu_5x5
I0403 15:01:30.491209 14023 net.cpp:91] Creating Layer inception_4a/relu_5x5
I0403 15:01:30.491224 14023 net.cpp:425] inception_4a/relu_5x5 <- inception_4a/5x5
I0403 15:01:30.491242 14023 net.cpp:386] inception_4a/relu_5x5 -> inception_4a/5x5 (in-place)
I0403 15:01:30.491415 14023 net.cpp:141] Setting up inception_4a/relu_5x5
I0403 15:01:30.491438 14023 net.cpp:148] Top shape: 24 48 14 14 (225792)
I0403 15:01:30.491452 14023 net.cpp:156] Memory required for data: 875471904
I0403 15:01:30.491466 14023 layer_factory.hpp:77] Creating layer inception_4a/pool
I0403 15:01:30.491483 14023 net.cpp:91] Creating Layer inception_4a/pool
I0403 15:01:30.491499 14023 net.cpp:425] inception_4a/pool <- pool3/3x3_s2_pool3/3x3_s2_0_split_3
I0403 15:01:30.491519 14023 net.cpp:399] inception_4a/pool -> inception_4a/pool
I0403 15:01:30.491583 14023 net.cpp:141] Setting up inception_4a/pool
I0403 15:01:30.491611 14023 net.cpp:148] Top shape: 24 480 14 14 (2257920)
I0403 15:01:30.491626 14023 net.cpp:156] Memory required for data: 884503584
I0403 15:01:30.491639 14023 layer_factory.hpp:77] Creating layer inception_4a/pool_proj
I0403 15:01:30.491660 14023 net.cpp:91] Creating Layer inception_4a/pool_proj
I0403 15:01:30.491678 14023 net.cpp:425] inception_4a/pool_proj <- inception_4a/pool
I0403 15:01:30.491698 14023 net.cpp:399] inception_4a/pool_proj -> inception_4a/pool_proj
I0403 15:01:30.492832 14023 net.cpp:141] Setting up inception_4a/pool_proj
I0403 15:01:30.492861 14023 net.cpp:148] Top shape: 24 64 14 14 (301056)
I0403 15:01:30.492892 14023 net.cpp:156] Memory required for data: 885707808
I0403 15:01:30.492910 14023 layer_factory.hpp:77] Creating layer inception_4a/relu_pool_proj
I0403 15:01:30.492930 14023 net.cpp:91] Creating Layer inception_4a/relu_pool_proj
I0403 15:01:30.492947 14023 net.cpp:425] inception_4a/relu_pool_proj <- inception_4a/pool_proj
I0403 15:01:30.492964 14023 net.cpp:386] inception_4a/relu_pool_proj -> inception_4a/pool_proj (in-place)
I0403 15:01:30.493243 14023 net.cpp:141] Setting up inception_4a/relu_pool_proj
I0403 15:01:30.493269 14023 net.cpp:148] Top shape: 24 64 14 14 (301056)
I0403 15:01:30.493283 14023 net.cpp:156] Memory required for data: 886912032
I0403 15:01:30.493297 14023 layer_factory.hpp:77] Creating layer inception_4a/output
I0403 15:01:30.493314 14023 net.cpp:91] Creating Layer inception_4a/output
I0403 15:01:30.493330 14023 net.cpp:425] inception_4a/output <- inception_4a/1x1
I0403 15:01:30.493345 14023 net.cpp:425] inception_4a/output <- inception_4a/3x3
I0403 15:01:30.493360 14023 net.cpp:425] inception_4a/output <- inception_4a/5x5
I0403 15:01:30.493376 14023 net.cpp:425] inception_4a/output <- inception_4a/pool_proj
I0403 15:01:30.493394 14023 net.cpp:399] inception_4a/output -> inception_4a/output
I0403 15:01:30.493438 14023 net.cpp:141] Setting up inception_4a/output
I0403 15:01:30.493463 14023 net.cpp:148] Top shape: 24 512 14 14 (2408448)
I0403 15:01:30.493477 14023 net.cpp:156] Memory required for data: 896545824
I0403 15:01:30.493491 14023 layer_factory.hpp:77] Creating layer inception_4a/output_inception_4a/output_0_split
I0403 15:01:30.493507 14023 net.cpp:91] Creating Layer inception_4a/output_inception_4a/output_0_split
I0403 15:01:30.493523 14023 net.cpp:425] inception_4a/output_inception_4a/output_0_split <- inception_4a/output
I0403 15:01:30.493542 14023 net.cpp:399] inception_4a/output_inception_4a/output_0_split -> inception_4a/output_inception_4a/output_0_split_0
I0403 15:01:30.493561 14023 net.cpp:399] inception_4a/output_inception_4a/output_0_split -> inception_4a/output_inception_4a/output_0_split_1
I0403 15:01:30.493582 14023 net.cpp:399] inception_4a/output_inception_4a/output_0_split -> inception_4a/output_inception_4a/output_0_split_2
I0403 15:01:30.493607 14023 net.cpp:399] inception_4a/output_inception_4a/output_0_split -> inception_4a/output_inception_4a/output_0_split_3
I0403 15:01:30.493628 14023 net.cpp:399] inception_4a/output_inception_4a/output_0_split -> inception_4a/output_inception_4a/output_0_split_4
I0403 15:01:30.493717 14023 net.cpp:141] Setting up inception_4a/output_inception_4a/output_0_split
I0403 15:01:30.493739 14023 net.cpp:148] Top shape: 24 512 14 14 (2408448)
I0403 15:01:30.493755 14023 net.cpp:148] Top shape: 24 512 14 14 (2408448)
I0403 15:01:30.493770 14023 net.cpp:148] Top shape: 24 512 14 14 (2408448)
I0403 15:01:30.493784 14023 net.cpp:148] Top shape: 24 512 14 14 (2408448)
I0403 15:01:30.493798 14023 net.cpp:148] Top shape: 24 512 14 14 (2408448)
I0403 15:01:30.493811 14023 net.cpp:156] Memory required for data: 944714784
I0403 15:01:30.493824 14023 layer_factory.hpp:77] Creating layer loss1/ave_pool
I0403 15:01:30.493844 14023 net.cpp:91] Creating Layer loss1/ave_pool
I0403 15:01:30.493860 14023 net.cpp:425] loss1/ave_pool <- inception_4a/output_inception_4a/output_0_split_0
I0403 15:01:30.493878 14023 net.cpp:399] loss1/ave_pool -> loss1/ave_pool
I0403 15:01:30.494081 14023 net.cpp:141] Setting up loss1/ave_pool
I0403 15:01:30.494107 14023 net.cpp:148] Top shape: 24 512 4 4 (196608)
I0403 15:01:30.494120 14023 net.cpp:156] Memory required for data: 945501216
I0403 15:01:30.494134 14023 layer_factory.hpp:77] Creating layer loss1/conv
I0403 15:01:30.494155 14023 net.cpp:91] Creating Layer loss1/conv
I0403 15:01:30.494173 14023 net.cpp:425] loss1/conv <- loss1/ave_pool
I0403 15:01:30.494192 14023 net.cpp:399] loss1/conv -> loss1/conv
I0403 15:01:30.495565 14023 net.cpp:141] Setting up loss1/conv
I0403 15:01:30.495592 14023 net.cpp:148] Top shape: 24 128 4 4 (49152)
I0403 15:01:30.495612 14023 net.cpp:156] Memory required for data: 945697824
I0403 15:01:30.495645 14023 layer_factory.hpp:77] Creating layer loss1/relu_conv
I0403 15:01:30.495666 14023 net.cpp:91] Creating Layer loss1/relu_conv
I0403 15:01:30.495682 14023 net.cpp:425] loss1/relu_conv <- loss1/conv
I0403 15:01:30.495699 14023 net.cpp:386] loss1/relu_conv -> loss1/conv (in-place)
I0403 15:01:30.495986 14023 net.cpp:141] Setting up loss1/relu_conv
I0403 15:01:30.496013 14023 net.cpp:148] Top shape: 24 128 4 4 (49152)
I0403 15:01:30.496027 14023 net.cpp:156] Memory required for data: 945894432
I0403 15:01:30.496042 14023 layer_factory.hpp:77] Creating layer loss1/fc
I0403 15:01:30.496068 14023 net.cpp:91] Creating Layer loss1/fc
I0403 15:01:30.496096 14023 net.cpp:425] loss1/fc <- loss1/conv
I0403 15:01:30.496116 14023 net.cpp:399] loss1/fc -> loss1/fc
I0403 15:01:30.513255 14023 net.cpp:141] Setting up loss1/fc
I0403 15:01:30.513286 14023 net.cpp:148] Top shape: 24 1024 (24576)
I0403 15:01:30.513301 14023 net.cpp:156] Memory required for data: 945992736
I0403 15:01:30.513319 14023 layer_factory.hpp:77] Creating layer loss1/relu_fc
I0403 15:01:30.513336 14023 net.cpp:91] Creating Layer loss1/relu_fc
I0403 15:01:30.513352 14023 net.cpp:425] loss1/relu_fc <- loss1/fc
I0403 15:01:30.513371 14023 net.cpp:386] loss1/relu_fc -> loss1/fc (in-place)
I0403 15:01:30.513550 14023 net.cpp:141] Setting up loss1/relu_fc
I0403 15:01:30.513574 14023 net.cpp:148] Top shape: 24 1024 (24576)
I0403 15:01:30.513592 14023 net.cpp:156] Memory required for data: 946091040
I0403 15:01:30.513610 14023 layer_factory.hpp:77] Creating layer loss1/drop_fc
I0403 15:01:30.513636 14023 net.cpp:91] Creating Layer loss1/drop_fc
I0403 15:01:30.513653 14023 net.cpp:425] loss1/drop_fc <- loss1/fc
I0403 15:01:30.513669 14023 net.cpp:386] loss1/drop_fc -> loss1/fc (in-place)
I0403 15:01:30.513721 14023 net.cpp:141] Setting up loss1/drop_fc
I0403 15:01:30.513743 14023 net.cpp:148] Top shape: 24 1024 (24576)
I0403 15:01:30.513756 14023 net.cpp:156] Memory required for data: 946189344
I0403 15:01:30.513772 14023 layer_factory.hpp:77] Creating layer loss1/classifier_plantvillage
I0403 15:01:30.513788 14023 net.cpp:91] Creating Layer loss1/classifier_plantvillage
I0403 15:01:30.513803 14023 net.cpp:425] loss1/classifier_plantvillage <- loss1/fc
I0403 15:01:30.513823 14023 net.cpp:399] loss1/classifier_plantvillage -> loss1/classifier_plantvillage
I0403 15:01:30.514710 14023 net.cpp:141] Setting up loss1/classifier_plantvillage
I0403 15:01:30.514737 14023 net.cpp:148] Top shape: 24 38 (912)
I0403 15:01:30.514752 14023 net.cpp:156] Memory required for data: 946192992
I0403 15:01:30.514770 14023 layer_factory.hpp:77] Creating layer loss1/classifier_plantvillage_loss1/classifier_plantvillage_0_split
I0403 15:01:30.514789 14023 net.cpp:91] Creating Layer loss1/classifier_plantvillage_loss1/classifier_plantvillage_0_split
I0403 15:01:30.514806 14023 net.cpp:425] loss1/classifier_plantvillage_loss1/classifier_plantvillage_0_split <- loss1/classifier_plantvillage
I0403 15:01:30.514823 14023 net.cpp:399] loss1/classifier_plantvillage_loss1/classifier_plantvillage_0_split -> loss1/classifier_plantvillage_loss1/classifier_plantvillage_0_split_0
I0403 15:01:30.514843 14023 net.cpp:399] loss1/classifier_plantvillage_loss1/classifier_plantvillage_0_split -> loss1/classifier_plantvillage_loss1/classifier_plantvillage_0_split_1
I0403 15:01:30.514863 14023 net.cpp:399] loss1/classifier_plantvillage_loss1/classifier_plantvillage_0_split -> loss1/classifier_plantvillage_loss1/classifier_plantvillage_0_split_2
I0403 15:01:30.514930 14023 net.cpp:141] Setting up loss1/classifier_plantvillage_loss1/classifier_plantvillage_0_split
I0403 15:01:30.514951 14023 net.cpp:148] Top shape: 24 38 (912)
I0403 15:01:30.514966 14023 net.cpp:148] Top shape: 24 38 (912)
I0403 15:01:30.514981 14023 net.cpp:148] Top shape: 24 38 (912)
I0403 15:01:30.514994 14023 net.cpp:156] Memory required for data: 946203936
I0403 15:01:30.515008 14023 layer_factory.hpp:77] Creating layer inception_4b/1x1
I0403 15:01:30.515029 14023 net.cpp:91] Creating Layer inception_4b/1x1
I0403 15:01:30.515060 14023 net.cpp:425] inception_4b/1x1 <- inception_4a/output_inception_4a/output_0_split_1
I0403 15:01:30.515080 14023 net.cpp:399] inception_4b/1x1 -> inception_4b/1x1
I0403 15:01:30.516674 14023 net.cpp:141] Setting up inception_4b/1x1
I0403 15:01:30.516700 14023 net.cpp:148] Top shape: 24 160 14 14 (752640)
I0403 15:01:30.516716 14023 net.cpp:156] Memory required for data: 949214496
I0403 15:01:30.516734 14023 layer_factory.hpp:77] Creating layer inception_4b/relu_1x1
I0403 15:01:30.516754 14023 net.cpp:91] Creating Layer inception_4b/relu_1x1
I0403 15:01:30.516772 14023 net.cpp:425] inception_4b/relu_1x1 <- inception_4b/1x1
I0403 15:01:30.516788 14023 net.cpp:386] inception_4b/relu_1x1 -> inception_4b/1x1 (in-place)
I0403 15:01:30.516968 14023 net.cpp:141] Setting up inception_4b/relu_1x1
I0403 15:01:30.516993 14023 net.cpp:148] Top shape: 24 160 14 14 (752640)
I0403 15:01:30.517006 14023 net.cpp:156] Memory required for data: 952225056
I0403 15:01:30.517020 14023 layer_factory.hpp:77] Creating layer inception_4b/3x3_reduce
I0403 15:01:30.517041 14023 net.cpp:91] Creating Layer inception_4b/3x3_reduce
I0403 15:01:30.517060 14023 net.cpp:425] inception_4b/3x3_reduce <- inception_4a/output_inception_4a/output_0_split_2
I0403 15:01:30.517079 14023 net.cpp:399] inception_4b/3x3_reduce -> inception_4b/3x3_reduce
I0403 15:01:30.518379 14023 net.cpp:141] Setting up inception_4b/3x3_reduce
I0403 15:01:30.518409 14023 net.cpp:148] Top shape: 24 112 14 14 (526848)
I0403 15:01:30.518424 14023 net.cpp:156] Memory required for data: 954332448
I0403 15:01:30.518443 14023 layer_factory.hpp:77] Creating layer inception_4b/relu_3x3_reduce
I0403 15:01:30.518460 14023 net.cpp:91] Creating Layer inception_4b/relu_3x3_reduce
I0403 15:01:30.518476 14023 net.cpp:425] inception_4b/relu_3x3_reduce <- inception_4b/3x3_reduce
I0403 15:01:30.518496 14023 net.cpp:386] inception_4b/relu_3x3_reduce -> inception_4b/3x3_reduce (in-place)
I0403 15:01:30.518774 14023 net.cpp:141] Setting up inception_4b/relu_3x3_reduce
I0403 15:01:30.518801 14023 net.cpp:148] Top shape: 24 112 14 14 (526848)
I0403 15:01:30.518816 14023 net.cpp:156] Memory required for data: 956439840
I0403 15:01:30.518831 14023 layer_factory.hpp:77] Creating layer inception_4b/3x3
I0403 15:01:30.518852 14023 net.cpp:91] Creating Layer inception_4b/3x3
I0403 15:01:30.518869 14023 net.cpp:425] inception_4b/3x3 <- inception_4b/3x3_reduce
I0403 15:01:30.518893 14023 net.cpp:399] inception_4b/3x3 -> inception_4b/3x3
I0403 15:01:30.521816 14023 net.cpp:141] Setting up inception_4b/3x3
I0403 15:01:30.521844 14023 net.cpp:148] Top shape: 24 224 14 14 (1053696)
I0403 15:01:30.521859 14023 net.cpp:156] Memory required for data: 960654624
I0403 15:01:30.521877 14023 layer_factory.hpp:77] Creating layer inception_4b/relu_3x3
I0403 15:01:30.521896 14023 net.cpp:91] Creating Layer inception_4b/relu_3x3
I0403 15:01:30.521914 14023 net.cpp:425] inception_4b/relu_3x3 <- inception_4b/3x3
I0403 15:01:30.521930 14023 net.cpp:386] inception_4b/relu_3x3 -> inception_4b/3x3 (in-place)
I0403 15:01:30.522104 14023 net.cpp:141] Setting up inception_4b/relu_3x3
I0403 15:01:30.522127 14023 net.cpp:148] Top shape: 24 224 14 14 (1053696)
I0403 15:01:30.522145 14023 net.cpp:156] Memory required for data: 964869408
I0403 15:01:30.522159 14023 layer_factory.hpp:77] Creating layer inception_4b/5x5_reduce
I0403 15:01:30.522177 14023 net.cpp:91] Creating Layer inception_4b/5x5_reduce
I0403 15:01:30.522194 14023 net.cpp:425] inception_4b/5x5_reduce <- inception_4a/output_inception_4a/output_0_split_3
I0403 15:01:30.522215 14023 net.cpp:399] inception_4b/5x5_reduce -> inception_4b/5x5_reduce
I0403 15:01:30.523274 14023 net.cpp:141] Setting up inception_4b/5x5_reduce
I0403 15:01:30.523303 14023 net.cpp:148] Top shape: 24 24 14 14 (112896)
I0403 15:01:30.523320 14023 net.cpp:156] Memory required for data: 965320992
I0403 15:01:30.523339 14023 layer_factory.hpp:77] Creating layer inception_4b/relu_5x5_reduce
I0403 15:01:30.523356 14023 net.cpp:91] Creating Layer inception_4b/relu_5x5_reduce
I0403 15:01:30.523386 14023 net.cpp:425] inception_4b/relu_5x5_reduce <- inception_4b/5x5_reduce
I0403 15:01:30.523404 14023 net.cpp:386] inception_4b/relu_5x5_reduce -> inception_4b/5x5_reduce (in-place)
I0403 15:01:30.523582 14023 net.cpp:141] Setting up inception_4b/relu_5x5_reduce
I0403 15:01:30.523610 14023 net.cpp:148] Top shape: 24 24 14 14 (112896)
I0403 15:01:30.523625 14023 net.cpp:156] Memory required for data: 965772576
I0403 15:01:30.523639 14023 layer_factory.hpp:77] Creating layer inception_4b/5x5
I0403 15:01:30.523663 14023 net.cpp:91] Creating Layer inception_4b/5x5
I0403 15:01:30.523682 14023 net.cpp:425] inception_4b/5x5 <- inception_4b/5x5_reduce
I0403 15:01:30.523713 14023 net.cpp:399] inception_4b/5x5 -> inception_4b/5x5
I0403 15:01:30.525001 14023 net.cpp:141] Setting up inception_4b/5x5
I0403 15:01:30.525040 14023 net.cpp:148] Top shape: 24 64 14 14 (301056)
I0403 15:01:30.525055 14023 net.cpp:156] Memory required for data: 966976800
I0403 15:01:30.525074 14023 layer_factory.hpp:77] Creating layer inception_4b/relu_5x5
I0403 15:01:30.525092 14023 net.cpp:91] Creating Layer inception_4b/relu_5x5
I0403 15:01:30.525110 14023 net.cpp:425] inception_4b/relu_5x5 <- inception_4b/5x5
I0403 15:01:30.525126 14023 net.cpp:386] inception_4b/relu_5x5 -> inception_4b/5x5 (in-place)
I0403 15:01:30.525418 14023 net.cpp:141] Setting up inception_4b/relu_5x5
I0403 15:01:30.525445 14023 net.cpp:148] Top shape: 24 64 14 14 (301056)
I0403 15:01:30.525460 14023 net.cpp:156] Memory required for data: 968181024
I0403 15:01:30.525475 14023 layer_factory.hpp:77] Creating layer inception_4b/pool
I0403 15:01:30.525496 14023 net.cpp:91] Creating Layer inception_4b/pool
I0403 15:01:30.525516 14023 net.cpp:425] inception_4b/pool <- inception_4a/output_inception_4a/output_0_split_4
I0403 15:01:30.525534 14023 net.cpp:399] inception_4b/pool -> inception_4b/pool
I0403 15:01:30.525602 14023 net.cpp:141] Setting up inception_4b/pool
I0403 15:01:30.525627 14023 net.cpp:148] Top shape: 24 512 14 14 (2408448)
I0403 15:01:30.525641 14023 net.cpp:156] Memory required for data: 977814816
I0403 15:01:30.525656 14023 layer_factory.hpp:77] Creating layer inception_4b/pool_proj
I0403 15:01:30.525678 14023 net.cpp:91] Creating Layer inception_4b/pool_proj
I0403 15:01:30.525696 14023 net.cpp:425] inception_4b/pool_proj <- inception_4b/pool
I0403 15:01:30.525715 14023 net.cpp:399] inception_4b/pool_proj -> inception_4b/pool_proj
I0403 15:01:30.526906 14023 net.cpp:141] Setting up inception_4b/pool_proj
I0403 15:01:30.526934 14023 net.cpp:148] Top shape: 24 64 14 14 (301056)
I0403 15:01:30.526950 14023 net.cpp:156] Memory required for data: 979019040
I0403 15:01:30.526968 14023 layer_factory.hpp:77] Creating layer inception_4b/relu_pool_proj
I0403 15:01:30.526986 14023 net.cpp:91] Creating Layer inception_4b/relu_pool_proj
I0403 15:01:30.527003 14023 net.cpp:425] inception_4b/relu_pool_proj <- inception_4b/pool_proj
I0403 15:01:30.527022 14023 net.cpp:386] inception_4b/relu_pool_proj -> inception_4b/pool_proj (in-place)
I0403 15:01:30.527200 14023 net.cpp:141] Setting up inception_4b/relu_pool_proj
I0403 15:01:30.527225 14023 net.cpp:148] Top shape: 24 64 14 14 (301056)
I0403 15:01:30.527240 14023 net.cpp:156] Memory required for data: 980223264
I0403 15:01:30.527254 14023 layer_factory.hpp:77] Creating layer inception_4b/output
I0403 15:01:30.527272 14023 net.cpp:91] Creating Layer inception_4b/output
I0403 15:01:30.527288 14023 net.cpp:425] inception_4b/output <- inception_4b/1x1
I0403 15:01:30.527304 14023 net.cpp:425] inception_4b/output <- inception_4b/3x3
I0403 15:01:30.527320 14023 net.cpp:425] inception_4b/output <- inception_4b/5x5
I0403 15:01:30.527335 14023 net.cpp:425] inception_4b/output <- inception_4b/pool_proj
I0403 15:01:30.527354 14023 net.cpp:399] inception_4b/output -> inception_4b/output
I0403 15:01:30.527400 14023 net.cpp:141] Setting up inception_4b/output
I0403 15:01:30.527426 14023 net.cpp:148] Top shape: 24 512 14 14 (2408448)
I0403 15:01:30.527441 14023 net.cpp:156] Memory required for data: 989857056
I0403 15:01:30.527469 14023 layer_factory.hpp:77] Creating layer inception_4b/output_inception_4b/output_0_split
I0403 15:01:30.527487 14023 net.cpp:91] Creating Layer inception_4b/output_inception_4b/output_0_split
I0403 15:01:30.527503 14023 net.cpp:425] inception_4b/output_inception_4b/output_0_split <- inception_4b/output
I0403 15:01:30.527520 14023 net.cpp:399] inception_4b/output_inception_4b/output_0_split -> inception_4b/output_inception_4b/output_0_split_0
I0403 15:01:30.527540 14023 net.cpp:399] inception_4b/output_inception_4b/output_0_split -> inception_4b/output_inception_4b/output_0_split_1
I0403 15:01:30.527565 14023 net.cpp:399] inception_4b/output_inception_4b/output_0_split -> inception_4b/output_inception_4b/output_0_split_2
I0403 15:01:30.527585 14023 net.cpp:399] inception_4b/output_inception_4b/output_0_split -> inception_4b/output_inception_4b/output_0_split_3
I0403 15:01:30.527676 14023 net.cpp:141] Setting up inception_4b/output_inception_4b/output_0_split
I0403 15:01:30.527700 14023 net.cpp:148] Top shape: 24 512 14 14 (2408448)
I0403 15:01:30.527716 14023 net.cpp:148] Top shape: 24 512 14 14 (2408448)
I0403 15:01:30.527731 14023 net.cpp:148] Top shape: 24 512 14 14 (2408448)
I0403 15:01:30.527746 14023 net.cpp:148] Top shape: 24 512 14 14 (2408448)
I0403 15:01:30.527760 14023 net.cpp:156] Memory required for data: 1028392224
I0403 15:01:30.527775 14023 layer_factory.hpp:77] Creating layer inception_4c/1x1
I0403 15:01:30.527796 14023 net.cpp:91] Creating Layer inception_4c/1x1
I0403 15:01:30.527813 14023 net.cpp:425] inception_4c/1x1 <- inception_4b/output_inception_4b/output_0_split_0
I0403 15:01:30.527833 14023 net.cpp:399] inception_4c/1x1 -> inception_4c/1x1
I0403 15:01:30.529268 14023 net.cpp:141] Setting up inception_4c/1x1
I0403 15:01:30.529296 14023 net.cpp:148] Top shape: 24 128 14 14 (602112)
I0403 15:01:30.529312 14023 net.cpp:156] Memory required for data: 1030800672
I0403 15:01:30.529330 14023 layer_factory.hpp:77] Creating layer inception_4c/relu_1x1
I0403 15:01:30.529348 14023 net.cpp:91] Creating Layer inception_4c/relu_1x1
I0403 15:01:30.529364 14023 net.cpp:425] inception_4c/relu_1x1 <- inception_4c/1x1
I0403 15:01:30.529383 14023 net.cpp:386] inception_4c/relu_1x1 -> inception_4c/1x1 (in-place)
I0403 15:01:30.529563 14023 net.cpp:141] Setting up inception_4c/relu_1x1
I0403 15:01:30.529588 14023 net.cpp:148] Top shape: 24 128 14 14 (602112)
I0403 15:01:30.529608 14023 net.cpp:156] Memory required for data: 1033209120
I0403 15:01:30.529623 14023 layer_factory.hpp:77] Creating layer inception_4c/3x3_reduce
I0403 15:01:30.529645 14023 net.cpp:91] Creating Layer inception_4c/3x3_reduce
I0403 15:01:30.529664 14023 net.cpp:425] inception_4c/3x3_reduce <- inception_4b/output_inception_4b/output_0_split_1
I0403 15:01:30.529685 14023 net.cpp:399] inception_4c/3x3_reduce -> inception_4c/3x3_reduce
I0403 15:01:30.531618 14023 net.cpp:141] Setting up inception_4c/3x3_reduce
I0403 15:01:30.531647 14023 net.cpp:148] Top shape: 24 128 14 14 (602112)
I0403 15:01:30.531662 14023 net.cpp:156] Memory required for data: 1035617568
I0403 15:01:30.531682 14023 layer_factory.hpp:77] Creating layer inception_4c/relu_3x3_reduce
I0403 15:01:30.531702 14023 net.cpp:91] Creating Layer inception_4c/relu_3x3_reduce
I0403 15:01:30.531718 14023 net.cpp:425] inception_4c/relu_3x3_reduce <- inception_4c/3x3_reduce
I0403 15:01:30.531735 14023 net.cpp:386] inception_4c/relu_3x3_reduce -> inception_4c/3x3_reduce (in-place)
I0403 15:01:30.532021 14023 net.cpp:141] Setting up inception_4c/relu_3x3_reduce
I0403 15:01:30.532047 14023 net.cpp:148] Top shape: 24 128 14 14 (602112)
I0403 15:01:30.532063 14023 net.cpp:156] Memory required for data: 1038026016
I0403 15:01:30.532078 14023 layer_factory.hpp:77] Creating layer inception_4c/3x3
I0403 15:01:30.532099 14023 net.cpp:91] Creating Layer inception_4c/3x3
I0403 15:01:30.532117 14023 net.cpp:425] inception_4c/3x3 <- inception_4c/3x3_reduce
I0403 15:01:30.532138 14023 net.cpp:399] inception_4c/3x3 -> inception_4c/3x3
I0403 15:01:30.535737 14023 net.cpp:141] Setting up inception_4c/3x3
I0403 15:01:30.535779 14023 net.cpp:148] Top shape: 24 256 14 14 (1204224)
I0403 15:01:30.535796 14023 net.cpp:156] Memory required for data: 1042842912
I0403 15:01:30.535827 14023 layer_factory.hpp:77] Creating layer inception_4c/relu_3x3
I0403 15:01:30.535851 14023 net.cpp:91] Creating Layer inception_4c/relu_3x3
I0403 15:01:30.535869 14023 net.cpp:425] inception_4c/relu_3x3 <- inception_4c/3x3
I0403 15:01:30.535887 14023 net.cpp:386] inception_4c/relu_3x3 -> inception_4c/3x3 (in-place)
I0403 15:01:30.536069 14023 net.cpp:141] Setting up inception_4c/relu_3x3
I0403 15:01:30.536098 14023 net.cpp:148] Top shape: 24 256 14 14 (1204224)
I0403 15:01:30.536113 14023 net.cpp:156] Memory required for data: 1047659808
I0403 15:01:30.536128 14023 layer_factory.hpp:77] Creating layer inception_4c/5x5_reduce
I0403 15:01:30.536150 14023 net.cpp:91] Creating Layer inception_4c/5x5_reduce
I0403 15:01:30.536169 14023 net.cpp:425] inception_4c/5x5_reduce <- inception_4b/output_inception_4b/output_0_split_2
I0403 15:01:30.536187 14023 net.cpp:399] inception_4c/5x5_reduce -> inception_4c/5x5_reduce
I0403 15:01:30.537281 14023 net.cpp:141] Setting up inception_4c/5x5_reduce
I0403 15:01:30.537312 14023 net.cpp:148] Top shape: 24 24 14 14 (112896)
I0403 15:01:30.537328 14023 net.cpp:156] Memory required for data: 1048111392
I0403 15:01:30.537346 14023 layer_factory.hpp:77] Creating layer inception_4c/relu_5x5_reduce
I0403 15:01:30.537364 14023 net.cpp:91] Creating Layer inception_4c/relu_5x5_reduce
I0403 15:01:30.537382 14023 net.cpp:425] inception_4c/relu_5x5_reduce <- inception_4c/5x5_reduce
I0403 15:01:30.537400 14023 net.cpp:386] inception_4c/relu_5x5_reduce -> inception_4c/5x5_reduce (in-place)
I0403 15:01:30.537582 14023 net.cpp:141] Setting up inception_4c/relu_5x5_reduce
I0403 15:01:30.537611 14023 net.cpp:148] Top shape: 24 24 14 14 (112896)
I0403 15:01:30.537626 14023 net.cpp:156] Memory required for data: 1048562976
I0403 15:01:30.537642 14023 layer_factory.hpp:77] Creating layer inception_4c/5x5
I0403 15:01:30.537663 14023 net.cpp:91] Creating Layer inception_4c/5x5
I0403 15:01:30.537681 14023 net.cpp:425] inception_4c/5x5 <- inception_4c/5x5_reduce
I0403 15:01:30.537703 14023 net.cpp:399] inception_4c/5x5 -> inception_4c/5x5
I0403 15:01:30.538940 14023 net.cpp:141] Setting up inception_4c/5x5
I0403 15:01:30.538969 14023 net.cpp:148] Top shape: 24 64 14 14 (301056)
I0403 15:01:30.538983 14023 net.cpp:156] Memory required for data: 1049767200
I0403 15:01:30.539001 14023 layer_factory.hpp:77] Creating layer inception_4c/relu_5x5
I0403 15:01:30.539019 14023 net.cpp:91] Creating Layer inception_4c/relu_5x5
I0403 15:01:30.539036 14023 net.cpp:425] inception_4c/relu_5x5 <- inception_4c/5x5
I0403 15:01:30.539055 14023 net.cpp:386] inception_4c/relu_5x5 -> inception_4c/5x5 (in-place)
I0403 15:01:30.539350 14023 net.cpp:141] Setting up inception_4c/relu_5x5
I0403 15:01:30.539376 14023 net.cpp:148] Top shape: 24 64 14 14 (301056)
I0403 15:01:30.539391 14023 net.cpp:156] Memory required for data: 1050971424
I0403 15:01:30.539405 14023 layer_factory.hpp:77] Creating layer inception_4c/pool
I0403 15:01:30.539423 14023 net.cpp:91] Creating Layer inception_4c/pool
I0403 15:01:30.539440 14023 net.cpp:425] inception_4c/pool <- inception_4b/output_inception_4b/output_0_split_3
I0403 15:01:30.539460 14023 net.cpp:399] inception_4c/pool -> inception_4c/pool
I0403 15:01:30.539527 14023 net.cpp:141] Setting up inception_4c/pool
I0403 15:01:30.539552 14023 net.cpp:148] Top shape: 24 512 14 14 (2408448)
I0403 15:01:30.539571 14023 net.cpp:156] Memory required for data: 1060605216
I0403 15:01:30.539584 14023 layer_factory.hpp:77] Creating layer inception_4c/pool_proj
I0403 15:01:30.539611 14023 net.cpp:91] Creating Layer inception_4c/pool_proj
I0403 15:01:30.539631 14023 net.cpp:425] inception_4c/pool_proj <- inception_4c/pool
I0403 15:01:30.539649 14023 net.cpp:399] inception_4c/pool_proj -> inception_4c/pool_proj
I0403 15:01:30.540876 14023 net.cpp:141] Setting up inception_4c/pool_proj
I0403 15:01:30.540904 14023 net.cpp:148] Top shape: 24 64 14 14 (301056)
I0403 15:01:30.540932 14023 net.cpp:156] Memory required for data: 1061809440
I0403 15:01:30.540952 14023 layer_factory.hpp:77] Creating layer inception_4c/relu_pool_proj
I0403 15:01:30.540973 14023 net.cpp:91] Creating Layer inception_4c/relu_pool_proj
I0403 15:01:30.540992 14023 net.cpp:425] inception_4c/relu_pool_proj <- inception_4c/pool_proj
I0403 15:01:30.541008 14023 net.cpp:386] inception_4c/relu_pool_proj -> inception_4c/pool_proj (in-place)
I0403 15:01:30.541193 14023 net.cpp:141] Setting up inception_4c/relu_pool_proj
I0403 15:01:30.541219 14023 net.cpp:148] Top shape: 24 64 14 14 (301056)
I0403 15:01:30.541234 14023 net.cpp:156] Memory required for data: 1063013664
I0403 15:01:30.541247 14023 layer_factory.hpp:77] Creating layer inception_4c/output
I0403 15:01:30.541267 14023 net.cpp:91] Creating Layer inception_4c/output
I0403 15:01:30.541282 14023 net.cpp:425] inception_4c/output <- inception_4c/1x1
I0403 15:01:30.541298 14023 net.cpp:425] inception_4c/output <- inception_4c/3x3
I0403 15:01:30.541314 14023 net.cpp:425] inception_4c/output <- inception_4c/5x5
I0403 15:01:30.541331 14023 net.cpp:425] inception_4c/output <- inception_4c/pool_proj
I0403 15:01:30.541349 14023 net.cpp:399] inception_4c/output -> inception_4c/output
I0403 15:01:30.541395 14023 net.cpp:141] Setting up inception_4c/output
I0403 15:01:30.541421 14023 net.cpp:148] Top shape: 24 512 14 14 (2408448)
I0403 15:01:30.541436 14023 net.cpp:156] Memory required for data: 1072647456
I0403 15:01:30.541450 14023 layer_factory.hpp:77] Creating layer inception_4c/output_inception_4c/output_0_split
I0403 15:01:30.541467 14023 net.cpp:91] Creating Layer inception_4c/output_inception_4c/output_0_split
I0403 15:01:30.541483 14023 net.cpp:425] inception_4c/output_inception_4c/output_0_split <- inception_4c/output
I0403 15:01:30.541501 14023 net.cpp:399] inception_4c/output_inception_4c/output_0_split -> inception_4c/output_inception_4c/output_0_split_0
I0403 15:01:30.541520 14023 net.cpp:399] inception_4c/output_inception_4c/output_0_split -> inception_4c/output_inception_4c/output_0_split_1
I0403 15:01:30.541544 14023 net.cpp:399] inception_4c/output_inception_4c/output_0_split -> inception_4c/output_inception_4c/output_0_split_2
I0403 15:01:30.541565 14023 net.cpp:399] inception_4c/output_inception_4c/output_0_split -> inception_4c/output_inception_4c/output_0_split_3
I0403 15:01:30.541659 14023 net.cpp:141] Setting up inception_4c/output_inception_4c/output_0_split
I0403 15:01:30.541685 14023 net.cpp:148] Top shape: 24 512 14 14 (2408448)
I0403 15:01:30.541702 14023 net.cpp:148] Top shape: 24 512 14 14 (2408448)
I0403 15:01:30.541717 14023 net.cpp:148] Top shape: 24 512 14 14 (2408448)
I0403 15:01:30.541731 14023 net.cpp:148] Top shape: 24 512 14 14 (2408448)
I0403 15:01:30.541744 14023 net.cpp:156] Memory required for data: 1111182624
I0403 15:01:30.541759 14023 layer_factory.hpp:77] Creating layer inception_4d/1x1
I0403 15:01:30.541781 14023 net.cpp:91] Creating Layer inception_4d/1x1
I0403 15:01:30.541800 14023 net.cpp:425] inception_4d/1x1 <- inception_4c/output_inception_4c/output_0_split_0
I0403 15:01:30.541820 14023 net.cpp:399] inception_4d/1x1 -> inception_4d/1x1
I0403 15:01:30.543246 14023 net.cpp:141] Setting up inception_4d/1x1
I0403 15:01:30.543277 14023 net.cpp:148] Top shape: 24 112 14 14 (526848)
I0403 15:01:30.543292 14023 net.cpp:156] Memory required for data: 1113290016
I0403 15:01:30.543310 14023 layer_factory.hpp:77] Creating layer inception_4d/relu_1x1
I0403 15:01:30.543330 14023 net.cpp:91] Creating Layer inception_4d/relu_1x1
I0403 15:01:30.543347 14023 net.cpp:425] inception_4d/relu_1x1 <- inception_4d/1x1
I0403 15:01:30.543365 14023 net.cpp:386] inception_4d/relu_1x1 -> inception_4d/1x1 (in-place)
I0403 15:01:30.543550 14023 net.cpp:141] Setting up inception_4d/relu_1x1
I0403 15:01:30.543576 14023 net.cpp:148] Top shape: 24 112 14 14 (526848)
I0403 15:01:30.543591 14023 net.cpp:156] Memory required for data: 1115397408
I0403 15:01:30.543612 14023 layer_factory.hpp:77] Creating layer inception_4d/3x3_reduce
I0403 15:01:30.543648 14023 net.cpp:91] Creating Layer inception_4d/3x3_reduce
I0403 15:01:30.543668 14023 net.cpp:425] inception_4d/3x3_reduce <- inception_4c/output_inception_4c/output_0_split_1
I0403 15:01:30.543686 14023 net.cpp:399] inception_4d/3x3_reduce -> inception_4d/3x3_reduce
I0403 15:01:30.545209 14023 net.cpp:141] Setting up inception_4d/3x3_reduce
I0403 15:01:30.545238 14023 net.cpp:148] Top shape: 24 144 14 14 (677376)
I0403 15:01:30.545253 14023 net.cpp:156] Memory required for data: 1118106912
I0403 15:01:30.545271 14023 layer_factory.hpp:77] Creating layer inception_4d/relu_3x3_reduce
I0403 15:01:30.545294 14023 net.cpp:91] Creating Layer inception_4d/relu_3x3_reduce
I0403 15:01:30.545310 14023 net.cpp:425] inception_4d/relu_3x3_reduce <- inception_4d/3x3_reduce
I0403 15:01:30.545327 14023 net.cpp:386] inception_4d/relu_3x3_reduce -> inception_4d/3x3_reduce (in-place)
I0403 15:01:30.545621 14023 net.cpp:141] Setting up inception_4d/relu_3x3_reduce
I0403 15:01:30.545647 14023 net.cpp:148] Top shape: 24 144 14 14 (677376)
I0403 15:01:30.545662 14023 net.cpp:156] Memory required for data: 1120816416
I0403 15:01:30.545677 14023 layer_factory.hpp:77] Creating layer inception_4d/3x3
I0403 15:01:30.545701 14023 net.cpp:91] Creating Layer inception_4d/3x3
I0403 15:01:30.545719 14023 net.cpp:425] inception_4d/3x3 <- inception_4d/3x3_reduce
I0403 15:01:30.545740 14023 net.cpp:399] inception_4d/3x3 -> inception_4d/3x3
I0403 15:01:30.549986 14023 net.cpp:141] Setting up inception_4d/3x3
I0403 15:01:30.550015 14023 net.cpp:148] Top shape: 24 288 14 14 (1354752)
I0403 15:01:30.550031 14023 net.cpp:156] Memory required for data: 1126235424
I0403 15:01:30.550050 14023 layer_factory.hpp:77] Creating layer inception_4d/relu_3x3
I0403 15:01:30.550071 14023 net.cpp:91] Creating Layer inception_4d/relu_3x3
I0403 15:01:30.550089 14023 net.cpp:425] inception_4d/relu_3x3 <- inception_4d/3x3
I0403 15:01:30.550107 14023 net.cpp:386] inception_4d/relu_3x3 -> inception_4d/3x3 (in-place)
I0403 15:01:30.550293 14023 net.cpp:141] Setting up inception_4d/relu_3x3
I0403 15:01:30.550320 14023 net.cpp:148] Top shape: 24 288 14 14 (1354752)
I0403 15:01:30.550335 14023 net.cpp:156] Memory required for data: 1131654432
I0403 15:01:30.550349 14023 layer_factory.hpp:77] Creating layer inception_4d/5x5_reduce
I0403 15:01:30.550371 14023 net.cpp:91] Creating Layer inception_4d/5x5_reduce
I0403 15:01:30.550390 14023 net.cpp:425] inception_4d/5x5_reduce <- inception_4c/output_inception_4c/output_0_split_2
I0403 15:01:30.550408 14023 net.cpp:399] inception_4d/5x5_reduce -> inception_4d/5x5_reduce
I0403 15:01:30.551563 14023 net.cpp:141] Setting up inception_4d/5x5_reduce
I0403 15:01:30.551591 14023 net.cpp:148] Top shape: 24 32 14 14 (150528)
I0403 15:01:30.551611 14023 net.cpp:156] Memory required for data: 1132256544
I0403 15:01:30.551630 14023 layer_factory.hpp:77] Creating layer inception_4d/relu_5x5_reduce
I0403 15:01:30.551651 14023 net.cpp:91] Creating Layer inception_4d/relu_5x5_reduce
I0403 15:01:30.551669 14023 net.cpp:425] inception_4d/relu_5x5_reduce <- inception_4d/5x5_reduce
I0403 15:01:30.551687 14023 net.cpp:386] inception_4d/relu_5x5_reduce -> inception_4d/5x5_reduce (in-place)
I0403 15:01:30.551872 14023 net.cpp:141] Setting up inception_4d/relu_5x5_reduce
I0403 15:01:30.551900 14023 net.cpp:148] Top shape: 24 32 14 14 (150528)
I0403 15:01:30.551915 14023 net.cpp:156] Memory required for data: 1132858656
I0403 15:01:30.551930 14023 layer_factory.hpp:77] Creating layer inception_4d/5x5
I0403 15:01:30.551952 14023 net.cpp:91] Creating Layer inception_4d/5x5
I0403 15:01:30.551970 14023 net.cpp:425] inception_4d/5x5 <- inception_4d/5x5_reduce
I0403 15:01:30.551990 14023 net.cpp:399] inception_4d/5x5 -> inception_4d/5x5
I0403 15:01:30.553488 14023 net.cpp:141] Setting up inception_4d/5x5
I0403 15:01:30.553519 14023 net.cpp:148] Top shape: 24 64 14 14 (301056)
I0403 15:01:30.553535 14023 net.cpp:156] Memory required for data: 1134062880
I0403 15:01:30.553555 14023 layer_factory.hpp:77] Creating layer inception_4d/relu_5x5
I0403 15:01:30.553588 14023 net.cpp:91] Creating Layer inception_4d/relu_5x5
I0403 15:01:30.553611 14023 net.cpp:425] inception_4d/relu_5x5 <- inception_4d/5x5
I0403 15:01:30.553632 14023 net.cpp:386] inception_4d/relu_5x5 -> inception_4d/5x5 (in-place)
I0403 15:01:30.553938 14023 net.cpp:141] Setting up inception_4d/relu_5x5
I0403 15:01:30.553967 14023 net.cpp:148] Top shape: 24 64 14 14 (301056)
I0403 15:01:30.553983 14023 net.cpp:156] Memory required for data: 1135267104
I0403 15:01:30.553998 14023 layer_factory.hpp:77] Creating layer inception_4d/pool
I0403 15:01:30.554015 14023 net.cpp:91] Creating Layer inception_4d/pool
I0403 15:01:30.554031 14023 net.cpp:425] inception_4d/pool <- inception_4c/output_inception_4c/output_0_split_3
I0403 15:01:30.554052 14023 net.cpp:399] inception_4d/pool -> inception_4d/pool
I0403 15:01:30.554121 14023 net.cpp:141] Setting up inception_4d/pool
I0403 15:01:30.554146 14023 net.cpp:148] Top shape: 24 512 14 14 (2408448)
I0403 15:01:30.554160 14023 net.cpp:156] Memory required for data: 1144900896
I0403 15:01:30.554174 14023 layer_factory.hpp:77] Creating layer inception_4d/pool_proj
I0403 15:01:30.554198 14023 net.cpp:91] Creating Layer inception_4d/pool_proj
I0403 15:01:30.554214 14023 net.cpp:425] inception_4d/pool_proj <- inception_4d/pool
I0403 15:01:30.554234 14023 net.cpp:399] inception_4d/pool_proj -> inception_4d/pool_proj
I0403 15:01:30.556011 14023 net.cpp:141] Setting up inception_4d/pool_proj
I0403 15:01:30.556041 14023 net.cpp:148] Top shape: 24 64 14 14 (301056)
I0403 15:01:30.556056 14023 net.cpp:156] Memory required for data: 1146105120
I0403 15:01:30.556074 14023 layer_factory.hpp:77] Creating layer inception_4d/relu_pool_proj
I0403 15:01:30.556094 14023 net.cpp:91] Creating Layer inception_4d/relu_pool_proj
I0403 15:01:30.556113 14023 net.cpp:425] inception_4d/relu_pool_proj <- inception_4d/pool_proj
I0403 15:01:30.556129 14023 net.cpp:386] inception_4d/relu_pool_proj -> inception_4d/pool_proj (in-place)
I0403 15:01:30.556318 14023 net.cpp:141] Setting up inception_4d/relu_pool_proj
I0403 15:01:30.556344 14023 net.cpp:148] Top shape: 24 64 14 14 (301056)
I0403 15:01:30.556360 14023 net.cpp:156] Memory required for data: 1147309344
I0403 15:01:30.556373 14023 layer_factory.hpp:77] Creating layer inception_4d/output
I0403 15:01:30.556391 14023 net.cpp:91] Creating Layer inception_4d/output
I0403 15:01:30.556407 14023 net.cpp:425] inception_4d/output <- inception_4d/1x1
I0403 15:01:30.556423 14023 net.cpp:425] inception_4d/output <- inception_4d/3x3
I0403 15:01:30.556439 14023 net.cpp:425] inception_4d/output <- inception_4d/5x5
I0403 15:01:30.556454 14023 net.cpp:425] inception_4d/output <- inception_4d/pool_proj
I0403 15:01:30.556471 14023 net.cpp:399] inception_4d/output -> inception_4d/output
I0403 15:01:30.556521 14023 net.cpp:141] Setting up inception_4d/output
I0403 15:01:30.556545 14023 net.cpp:148] Top shape: 24 528 14 14 (2483712)
I0403 15:01:30.556558 14023 net.cpp:156] Memory required for data: 1157244192
I0403 15:01:30.556573 14023 layer_factory.hpp:77] Creating layer inception_4d/output_inception_4d/output_0_split
I0403 15:01:30.556593 14023 net.cpp:91] Creating Layer inception_4d/output_inception_4d/output_0_split
I0403 15:01:30.556614 14023 net.cpp:425] inception_4d/output_inception_4d/output_0_split <- inception_4d/output
I0403 15:01:30.556633 14023 net.cpp:399] inception_4d/output_inception_4d/output_0_split -> inception_4d/output_inception_4d/output_0_split_0
I0403 15:01:30.556654 14023 net.cpp:399] inception_4d/output_inception_4d/output_0_split -> inception_4d/output_inception_4d/output_0_split_1
I0403 15:01:30.556680 14023 net.cpp:399] inception_4d/output_inception_4d/output_0_split -> inception_4d/output_inception_4d/output_0_split_2
I0403 15:01:30.556704 14023 net.cpp:399] inception_4d/output_inception_4d/output_0_split -> inception_4d/output_inception_4d/output_0_split_3
I0403 15:01:30.556723 14023 net.cpp:399] inception_4d/output_inception_4d/output_0_split -> inception_4d/output_inception_4d/output_0_split_4
I0403 15:01:30.556826 14023 net.cpp:141] Setting up inception_4d/output_inception_4d/output_0_split
I0403 15:01:30.556862 14023 net.cpp:148] Top shape: 24 528 14 14 (2483712)
I0403 15:01:30.556879 14023 net.cpp:148] Top shape: 24 528 14 14 (2483712)
I0403 15:01:30.556895 14023 net.cpp:148] Top shape: 24 528 14 14 (2483712)
I0403 15:01:30.556910 14023 net.cpp:148] Top shape: 24 528 14 14 (2483712)
I0403 15:01:30.556924 14023 net.cpp:148] Top shape: 24 528 14 14 (2483712)
I0403 15:01:30.556937 14023 net.cpp:156] Memory required for data: 1206918432
I0403 15:01:30.556951 14023 layer_factory.hpp:77] Creating layer loss2/ave_pool
I0403 15:01:30.556968 14023 net.cpp:91] Creating Layer loss2/ave_pool
I0403 15:01:30.556985 14023 net.cpp:425] loss2/ave_pool <- inception_4d/output_inception_4d/output_0_split_0
I0403 15:01:30.557006 14023 net.cpp:399] loss2/ave_pool -> loss2/ave_pool
I0403 15:01:30.557322 14023 net.cpp:141] Setting up loss2/ave_pool
I0403 15:01:30.557348 14023 net.cpp:148] Top shape: 24 528 4 4 (202752)
I0403 15:01:30.557363 14023 net.cpp:156] Memory required for data: 1207729440
I0403 15:01:30.557377 14023 layer_factory.hpp:77] Creating layer loss2/conv
I0403 15:01:30.557399 14023 net.cpp:91] Creating Layer loss2/conv
I0403 15:01:30.557417 14023 net.cpp:425] loss2/conv <- loss2/ave_pool
I0403 15:01:30.557437 14023 net.cpp:399] loss2/conv -> loss2/conv
I0403 15:01:30.559331 14023 net.cpp:141] Setting up loss2/conv
I0403 15:01:30.559363 14023 net.cpp:148] Top shape: 24 128 4 4 (49152)
I0403 15:01:30.559381 14023 net.cpp:156] Memory required for data: 1207926048
I0403 15:01:30.559398 14023 layer_factory.hpp:77] Creating layer loss2/relu_conv
I0403 15:01:30.559417 14023 net.cpp:91] Creating Layer loss2/relu_conv
I0403 15:01:30.559433 14023 net.cpp:425] loss2/relu_conv <- loss2/conv
I0403 15:01:30.559453 14023 net.cpp:386] loss2/relu_conv -> loss2/conv (in-place)
I0403 15:01:30.559742 14023 net.cpp:141] Setting up loss2/relu_conv
I0403 15:01:30.559770 14023 net.cpp:148] Top shape: 24 128 4 4 (49152)
I0403 15:01:30.559787 14023 net.cpp:156] Memory required for data: 1208122656
I0403 15:01:30.559801 14023 layer_factory.hpp:77] Creating layer loss2/fc
I0403 15:01:30.559821 14023 net.cpp:91] Creating Layer loss2/fc
I0403 15:01:30.559839 14023 net.cpp:425] loss2/fc <- loss2/conv
I0403 15:01:30.559860 14023 net.cpp:399] loss2/fc -> loss2/fc
I0403 15:01:30.577307 14023 net.cpp:141] Setting up loss2/fc
I0403 15:01:30.577342 14023 net.cpp:148] Top shape: 24 1024 (24576)
I0403 15:01:30.577356 14023 net.cpp:156] Memory required for data: 1208220960
I0403 15:01:30.577375 14023 layer_factory.hpp:77] Creating layer loss2/relu_fc
I0403 15:01:30.577396 14023 net.cpp:91] Creating Layer loss2/relu_fc
I0403 15:01:30.577414 14023 net.cpp:425] loss2/relu_fc <- loss2/fc
I0403 15:01:30.577430 14023 net.cpp:386] loss2/relu_fc -> loss2/fc (in-place)
I0403 15:01:30.577744 14023 net.cpp:141] Setting up loss2/relu_fc
I0403 15:01:30.577770 14023 net.cpp:148] Top shape: 24 1024 (24576)
I0403 15:01:30.577785 14023 net.cpp:156] Memory required for data: 1208319264
I0403 15:01:30.577798 14023 layer_factory.hpp:77] Creating layer loss2/drop_fc
I0403 15:01:30.577817 14023 net.cpp:91] Creating Layer loss2/drop_fc
I0403 15:01:30.577834 14023 net.cpp:425] loss2/drop_fc <- loss2/fc
I0403 15:01:30.577852 14023 net.cpp:386] loss2/drop_fc -> loss2/fc (in-place)
I0403 15:01:30.577903 14023 net.cpp:141] Setting up loss2/drop_fc
I0403 15:01:30.577924 14023 net.cpp:148] Top shape: 24 1024 (24576)
I0403 15:01:30.577939 14023 net.cpp:156] Memory required for data: 1208417568
I0403 15:01:30.577953 14023 layer_factory.hpp:77] Creating layer loss2/classifier_plantvillage
I0403 15:01:30.577971 14023 net.cpp:91] Creating Layer loss2/classifier_plantvillage
I0403 15:01:30.577986 14023 net.cpp:425] loss2/classifier_plantvillage <- loss2/fc
I0403 15:01:30.578007 14023 net.cpp:399] loss2/classifier_plantvillage -> loss2/classifier_plantvillage
I0403 15:01:30.578424 14023 net.cpp:141] Setting up loss2/classifier_plantvillage
I0403 15:01:30.578449 14023 net.cpp:148] Top shape: 24 38 (912)
I0403 15:01:30.578464 14023 net.cpp:156] Memory required for data: 1208421216
I0403 15:01:30.578498 14023 layer_factory.hpp:77] Creating layer loss2/classifier_plantvillage_loss2/classifier_plantvillage_0_split
I0403 15:01:30.578517 14023 net.cpp:91] Creating Layer loss2/classifier_plantvillage_loss2/classifier_plantvillage_0_split
I0403 15:01:30.578533 14023 net.cpp:425] loss2/classifier_plantvillage_loss2/classifier_plantvillage_0_split <- loss2/classifier_plantvillage
I0403 15:01:30.578553 14023 net.cpp:399] loss2/classifier_plantvillage_loss2/classifier_plantvillage_0_split -> loss2/classifier_plantvillage_loss2/classifier_plantvillage_0_split_0
I0403 15:01:30.578575 14023 net.cpp:399] loss2/classifier_plantvillage_loss2/classifier_plantvillage_0_split -> loss2/classifier_plantvillage_loss2/classifier_plantvillage_0_split_1
I0403 15:01:30.578596 14023 net.cpp:399] loss2/classifier_plantvillage_loss2/classifier_plantvillage_0_split -> loss2/classifier_plantvillage_loss2/classifier_plantvillage_0_split_2
I0403 15:01:30.578678 14023 net.cpp:141] Setting up loss2/classifier_plantvillage_loss2/classifier_plantvillage_0_split
I0403 15:01:30.578704 14023 net.cpp:148] Top shape: 24 38 (912)
I0403 15:01:30.578721 14023 net.cpp:148] Top shape: 24 38 (912)
I0403 15:01:30.578737 14023 net.cpp:148] Top shape: 24 38 (912)
I0403 15:01:30.578749 14023 net.cpp:156] Memory required for data: 1208432160
I0403 15:01:30.578763 14023 layer_factory.hpp:77] Creating layer inception_4e/1x1
I0403 15:01:30.578784 14023 net.cpp:91] Creating Layer inception_4e/1x1
I0403 15:01:30.578800 14023 net.cpp:425] inception_4e/1x1 <- inception_4d/output_inception_4d/output_0_split_1
I0403 15:01:30.578830 14023 net.cpp:399] inception_4e/1x1 -> inception_4e/1x1
I0403 15:01:30.580616 14023 net.cpp:141] Setting up inception_4e/1x1
I0403 15:01:30.580643 14023 net.cpp:148] Top shape: 24 256 14 14 (1204224)
I0403 15:01:30.580658 14023 net.cpp:156] Memory required for data: 1213249056
I0403 15:01:30.580675 14023 layer_factory.hpp:77] Creating layer inception_4e/relu_1x1
I0403 15:01:30.580693 14023 net.cpp:91] Creating Layer inception_4e/relu_1x1
I0403 15:01:30.580708 14023 net.cpp:425] inception_4e/relu_1x1 <- inception_4e/1x1
I0403 15:01:30.580727 14023 net.cpp:386] inception_4e/relu_1x1 -> inception_4e/1x1 (in-place)
I0403 15:01:30.581020 14023 net.cpp:141] Setting up inception_4e/relu_1x1
I0403 15:01:30.581046 14023 net.cpp:148] Top shape: 24 256 14 14 (1204224)
I0403 15:01:30.581060 14023 net.cpp:156] Memory required for data: 1218065952
I0403 15:01:30.581074 14023 layer_factory.hpp:77] Creating layer inception_4e/3x3_reduce
I0403 15:01:30.581095 14023 net.cpp:91] Creating Layer inception_4e/3x3_reduce
I0403 15:01:30.581112 14023 net.cpp:425] inception_4e/3x3_reduce <- inception_4d/output_inception_4d/output_0_split_2
I0403 15:01:30.581133 14023 net.cpp:399] inception_4e/3x3_reduce -> inception_4e/3x3_reduce
I0403 15:01:30.583204 14023 net.cpp:141] Setting up inception_4e/3x3_reduce
I0403 15:01:30.583235 14023 net.cpp:148] Top shape: 24 160 14 14 (752640)
I0403 15:01:30.583252 14023 net.cpp:156] Memory required for data: 1221076512
I0403 15:01:30.583271 14023 layer_factory.hpp:77] Creating layer inception_4e/relu_3x3_reduce
I0403 15:01:30.583288 14023 net.cpp:91] Creating Layer inception_4e/relu_3x3_reduce
I0403 15:01:30.583304 14023 net.cpp:425] inception_4e/relu_3x3_reduce <- inception_4e/3x3_reduce
I0403 15:01:30.583324 14023 net.cpp:386] inception_4e/relu_3x3_reduce -> inception_4e/3x3_reduce (in-place)
I0403 15:01:30.583505 14023 net.cpp:141] Setting up inception_4e/relu_3x3_reduce
I0403 15:01:30.583529 14023 net.cpp:148] Top shape: 24 160 14 14 (752640)
I0403 15:01:30.583544 14023 net.cpp:156] Memory required for data: 1224087072
I0403 15:01:30.583557 14023 layer_factory.hpp:77] Creating layer inception_4e/3x3
I0403 15:01:30.583578 14023 net.cpp:91] Creating Layer inception_4e/3x3
I0403 15:01:30.583595 14023 net.cpp:425] inception_4e/3x3 <- inception_4e/3x3_reduce
I0403 15:01:30.583623 14023 net.cpp:399] inception_4e/3x3 -> inception_4e/3x3
I0403 15:01:30.588479 14023 net.cpp:141] Setting up inception_4e/3x3
I0403 15:01:30.588522 14023 net.cpp:148] Top shape: 24 320 14 14 (1505280)
I0403 15:01:30.588538 14023 net.cpp:156] Memory required for data: 1230108192
I0403 15:01:30.588556 14023 layer_factory.hpp:77] Creating layer inception_4e/relu_3x3
I0403 15:01:30.588573 14023 net.cpp:91] Creating Layer inception_4e/relu_3x3
I0403 15:01:30.588589 14023 net.cpp:425] inception_4e/relu_3x3 <- inception_4e/3x3
I0403 15:01:30.588613 14023 net.cpp:386] inception_4e/relu_3x3 -> inception_4e/3x3 (in-place)
I0403 15:01:30.588908 14023 net.cpp:141] Setting up inception_4e/relu_3x3
I0403 15:01:30.588934 14023 net.cpp:148] Top shape: 24 320 14 14 (1505280)
I0403 15:01:30.588948 14023 net.cpp:156] Memory required for data: 1236129312
I0403 15:01:30.588963 14023 layer_factory.hpp:77] Creating layer inception_4e/5x5_reduce
I0403 15:01:30.588989 14023 net.cpp:91] Creating Layer inception_4e/5x5_reduce
I0403 15:01:30.589005 14023 net.cpp:425] inception_4e/5x5_reduce <- inception_4d/output_inception_4d/output_0_split_3
I0403 15:01:30.589027 14023 net.cpp:399] inception_4e/5x5_reduce -> inception_4e/5x5_reduce
I0403 15:01:30.590080 14023 net.cpp:141] Setting up inception_4e/5x5_reduce
I0403 15:01:30.590109 14023 net.cpp:148] Top shape: 24 32 14 14 (150528)
I0403 15:01:30.590126 14023 net.cpp:156] Memory required for data: 1236731424
I0403 15:01:30.590143 14023 layer_factory.hpp:77] Creating layer inception_4e/relu_5x5_reduce
I0403 15:01:30.590162 14023 net.cpp:91] Creating Layer inception_4e/relu_5x5_reduce
I0403 15:01:30.590178 14023 net.cpp:425] inception_4e/relu_5x5_reduce <- inception_4e/5x5_reduce
I0403 15:01:30.590196 14023 net.cpp:386] inception_4e/relu_5x5_reduce -> inception_4e/5x5_reduce (in-place)
I0403 15:01:30.590487 14023 net.cpp:141] Setting up inception_4e/relu_5x5_reduce
I0403 15:01:30.590514 14023 net.cpp:148] Top shape: 24 32 14 14 (150528)
I0403 15:01:30.590530 14023 net.cpp:156] Memory required for data: 1237333536
I0403 15:01:30.590545 14023 layer_factory.hpp:77] Creating layer inception_4e/5x5
I0403 15:01:30.590584 14023 net.cpp:91] Creating Layer inception_4e/5x5
I0403 15:01:30.590605 14023 net.cpp:425] inception_4e/5x5 <- inception_4e/5x5_reduce
I0403 15:01:30.590626 14023 net.cpp:399] inception_4e/5x5 -> inception_4e/5x5
I0403 15:01:30.592427 14023 net.cpp:141] Setting up inception_4e/5x5
I0403 15:01:30.592455 14023 net.cpp:148] Top shape: 24 128 14 14 (602112)
I0403 15:01:30.592475 14023 net.cpp:156] Memory required for data: 1239741984
I0403 15:01:30.592494 14023 layer_factory.hpp:77] Creating layer inception_4e/relu_5x5
I0403 15:01:30.592514 14023 net.cpp:91] Creating Layer inception_4e/relu_5x5
I0403 15:01:30.592530 14023 net.cpp:425] inception_4e/relu_5x5 <- inception_4e/5x5
I0403 15:01:30.592547 14023 net.cpp:386] inception_4e/relu_5x5 -> inception_4e/5x5 (in-place)
I0403 15:01:30.592746 14023 net.cpp:141] Setting up inception_4e/relu_5x5
I0403 15:01:30.592774 14023 net.cpp:148] Top shape: 24 128 14 14 (602112)
I0403 15:01:30.592790 14023 net.cpp:156] Memory required for data: 1242150432
I0403 15:01:30.592805 14023 layer_factory.hpp:77] Creating layer inception_4e/pool
I0403 15:01:30.592824 14023 net.cpp:91] Creating Layer inception_4e/pool
I0403 15:01:30.592840 14023 net.cpp:425] inception_4e/pool <- inception_4d/output_inception_4d/output_0_split_4
I0403 15:01:30.592860 14023 net.cpp:399] inception_4e/pool -> inception_4e/pool
I0403 15:01:30.592932 14023 net.cpp:141] Setting up inception_4e/pool
I0403 15:01:30.592958 14023 net.cpp:148] Top shape: 24 528 14 14 (2483712)
I0403 15:01:30.592973 14023 net.cpp:156] Memory required for data: 1252085280
I0403 15:01:30.592988 14023 layer_factory.hpp:77] Creating layer inception_4e/pool_proj
I0403 15:01:30.593005 14023 net.cpp:91] Creating Layer inception_4e/pool_proj
I0403 15:01:30.593022 14023 net.cpp:425] inception_4e/pool_proj <- inception_4e/pool
I0403 15:01:30.593042 14023 net.cpp:399] inception_4e/pool_proj -> inception_4e/pool_proj
I0403 15:01:30.594511 14023 net.cpp:141] Setting up inception_4e/pool_proj
I0403 15:01:30.594538 14023 net.cpp:148] Top shape: 24 128 14 14 (602112)
I0403 15:01:30.594568 14023 net.cpp:156] Memory required for data: 1254493728
I0403 15:01:30.594588 14023 layer_factory.hpp:77] Creating layer inception_4e/relu_pool_proj
I0403 15:01:30.594624 14023 net.cpp:91] Creating Layer inception_4e/relu_pool_proj
I0403 15:01:30.594643 14023 net.cpp:425] inception_4e/relu_pool_proj <- inception_4e/pool_proj
I0403 15:01:30.594661 14023 net.cpp:386] inception_4e/relu_pool_proj -> inception_4e/pool_proj (in-place)
I0403 15:01:30.594951 14023 net.cpp:141] Setting up inception_4e/relu_pool_proj
I0403 15:01:30.594979 14023 net.cpp:148] Top shape: 24 128 14 14 (602112)
I0403 15:01:30.594995 14023 net.cpp:156] Memory required for data: 1256902176
I0403 15:01:30.595010 14023 layer_factory.hpp:77] Creating layer inception_4e/output
I0403 15:01:30.595029 14023 net.cpp:91] Creating Layer inception_4e/output
I0403 15:01:30.595046 14023 net.cpp:425] inception_4e/output <- inception_4e/1x1
I0403 15:01:30.595062 14023 net.cpp:425] inception_4e/output <- inception_4e/3x3
I0403 15:01:30.595077 14023 net.cpp:425] inception_4e/output <- inception_4e/5x5
I0403 15:01:30.595093 14023 net.cpp:425] inception_4e/output <- inception_4e/pool_proj
I0403 15:01:30.595109 14023 net.cpp:399] inception_4e/output -> inception_4e/output
I0403 15:01:30.595158 14023 net.cpp:141] Setting up inception_4e/output
I0403 15:01:30.595181 14023 net.cpp:148] Top shape: 24 832 14 14 (3913728)
I0403 15:01:30.595196 14023 net.cpp:156] Memory required for data: 1272557088
I0403 15:01:30.595209 14023 layer_factory.hpp:77] Creating layer pool4/3x3_s2
I0403 15:01:30.595227 14023 net.cpp:91] Creating Layer pool4/3x3_s2
I0403 15:01:30.595242 14023 net.cpp:425] pool4/3x3_s2 <- inception_4e/output
I0403 15:01:30.595262 14023 net.cpp:399] pool4/3x3_s2 -> pool4/3x3_s2
I0403 15:01:30.595326 14023 net.cpp:141] Setting up pool4/3x3_s2
I0403 15:01:30.595352 14023 net.cpp:148] Top shape: 24 832 7 7 (978432)
I0403 15:01:30.595367 14023 net.cpp:156] Memory required for data: 1276470816
I0403 15:01:30.595381 14023 layer_factory.hpp:77] Creating layer pool4/3x3_s2_pool4/3x3_s2_0_split
I0403 15:01:30.595397 14023 net.cpp:91] Creating Layer pool4/3x3_s2_pool4/3x3_s2_0_split
I0403 15:01:30.595413 14023 net.cpp:425] pool4/3x3_s2_pool4/3x3_s2_0_split <- pool4/3x3_s2
I0403 15:01:30.595430 14023 net.cpp:399] pool4/3x3_s2_pool4/3x3_s2_0_split -> pool4/3x3_s2_pool4/3x3_s2_0_split_0
I0403 15:01:30.595451 14023 net.cpp:399] pool4/3x3_s2_pool4/3x3_s2_0_split -> pool4/3x3_s2_pool4/3x3_s2_0_split_1
I0403 15:01:30.595473 14023 net.cpp:399] pool4/3x3_s2_pool4/3x3_s2_0_split -> pool4/3x3_s2_pool4/3x3_s2_0_split_2
I0403 15:01:30.595491 14023 net.cpp:399] pool4/3x3_s2_pool4/3x3_s2_0_split -> pool4/3x3_s2_pool4/3x3_s2_0_split_3
I0403 15:01:30.595582 14023 net.cpp:141] Setting up pool4/3x3_s2_pool4/3x3_s2_0_split
I0403 15:01:30.595608 14023 net.cpp:148] Top shape: 24 832 7 7 (978432)
I0403 15:01:30.595626 14023 net.cpp:148] Top shape: 24 832 7 7 (978432)
I0403 15:01:30.595641 14023 net.cpp:148] Top shape: 24 832 7 7 (978432)
I0403 15:01:30.595655 14023 net.cpp:148] Top shape: 24 832 7 7 (978432)
I0403 15:01:30.595669 14023 net.cpp:156] Memory required for data: 1292125728
I0403 15:01:30.595681 14023 layer_factory.hpp:77] Creating layer inception_5a/1x1
I0403 15:01:30.595705 14023 net.cpp:91] Creating Layer inception_5a/1x1
I0403 15:01:30.595722 14023 net.cpp:425] inception_5a/1x1 <- pool4/3x3_s2_pool4/3x3_s2_0_split_0
I0403 15:01:30.595741 14023 net.cpp:399] inception_5a/1x1 -> inception_5a/1x1
I0403 15:01:30.598516 14023 net.cpp:141] Setting up inception_5a/1x1
I0403 15:01:30.598549 14023 net.cpp:148] Top shape: 24 256 7 7 (301056)
I0403 15:01:30.598567 14023 net.cpp:156] Memory required for data: 1293329952
I0403 15:01:30.598585 14023 layer_factory.hpp:77] Creating layer inception_5a/relu_1x1
I0403 15:01:30.598609 14023 net.cpp:91] Creating Layer inception_5a/relu_1x1
I0403 15:01:30.598628 14023 net.cpp:425] inception_5a/relu_1x1 <- inception_5a/1x1
I0403 15:01:30.598649 14023 net.cpp:386] inception_5a/relu_1x1 -> inception_5a/1x1 (in-place)
I0403 15:01:30.598954 14023 net.cpp:141] Setting up inception_5a/relu_1x1
I0403 15:01:30.598984 14023 net.cpp:148] Top shape: 24 256 7 7 (301056)
I0403 15:01:30.599001 14023 net.cpp:156] Memory required for data: 1294534176
I0403 15:01:30.599016 14023 layer_factory.hpp:77] Creating layer inception_5a/3x3_reduce
I0403 15:01:30.599040 14023 net.cpp:91] Creating Layer inception_5a/3x3_reduce
I0403 15:01:30.599057 14023 net.cpp:425] inception_5a/3x3_reduce <- pool4/3x3_s2_pool4/3x3_s2_0_split_1
I0403 15:01:30.599076 14023 net.cpp:399] inception_5a/3x3_reduce -> inception_5a/3x3_reduce
I0403 15:01:30.601464 14023 net.cpp:141] Setting up inception_5a/3x3_reduce
I0403 15:01:30.601495 14023 net.cpp:148] Top shape: 24 160 7 7 (188160)
I0403 15:01:30.601512 14023 net.cpp:156] Memory required for data: 1295286816
I0403 15:01:30.601531 14023 layer_factory.hpp:77] Creating layer inception_5a/relu_3x3_reduce
I0403 15:01:30.601552 14023 net.cpp:91] Creating Layer inception_5a/relu_3x3_reduce
I0403 15:01:30.601570 14023 net.cpp:425] inception_5a/relu_3x3_reduce <- inception_5a/3x3_reduce
I0403 15:01:30.601588 14023 net.cpp:386] inception_5a/relu_3x3_reduce -> inception_5a/3x3_reduce (in-place)
I0403 15:01:30.601781 14023 net.cpp:141] Setting up inception_5a/relu_3x3_reduce
I0403 15:01:30.601806 14023 net.cpp:148] Top shape: 24 160 7 7 (188160)
I0403 15:01:30.601820 14023 net.cpp:156] Memory required for data: 1296039456
I0403 15:01:30.601835 14023 layer_factory.hpp:77] Creating layer inception_5a/3x3
I0403 15:01:30.601858 14023 net.cpp:91] Creating Layer inception_5a/3x3
I0403 15:01:30.601876 14023 net.cpp:425] inception_5a/3x3 <- inception_5a/3x3_reduce
I0403 15:01:30.601894 14023 net.cpp:399] inception_5a/3x3 -> inception_5a/3x3
I0403 15:01:30.606796 14023 net.cpp:141] Setting up inception_5a/3x3
I0403 15:01:30.606828 14023 net.cpp:148] Top shape: 24 320 7 7 (376320)
I0403 15:01:30.606848 14023 net.cpp:156] Memory required for data: 1297544736
I0403 15:01:30.606866 14023 layer_factory.hpp:77] Creating layer inception_5a/relu_3x3
I0403 15:01:30.606884 14023 net.cpp:91] Creating Layer inception_5a/relu_3x3
I0403 15:01:30.606900 14023 net.cpp:425] inception_5a/relu_3x3 <- inception_5a/3x3
I0403 15:01:30.606917 14023 net.cpp:386] inception_5a/relu_3x3 -> inception_5a/3x3 (in-place)
I0403 15:01:30.607209 14023 net.cpp:141] Setting up inception_5a/relu_3x3
I0403 15:01:30.607239 14023 net.cpp:148] Top shape: 24 320 7 7 (376320)
I0403 15:01:30.607254 14023 net.cpp:156] Memory required for data: 1299050016
I0403 15:01:30.607270 14023 layer_factory.hpp:77] Creating layer inception_5a/5x5_reduce
I0403 15:01:30.607290 14023 net.cpp:91] Creating Layer inception_5a/5x5_reduce
I0403 15:01:30.607309 14023 net.cpp:425] inception_5a/5x5_reduce <- pool4/3x3_s2_pool4/3x3_s2_0_split_2
I0403 15:01:30.607327 14023 net.cpp:399] inception_5a/5x5_reduce -> inception_5a/5x5_reduce
I0403 15:01:30.608471 14023 net.cpp:141] Setting up inception_5a/5x5_reduce
I0403 15:01:30.608502 14023 net.cpp:148] Top shape: 24 32 7 7 (37632)
I0403 15:01:30.608520 14023 net.cpp:156] Memory required for data: 1299200544
I0403 15:01:30.608538 14023 layer_factory.hpp:77] Creating layer inception_5a/relu_5x5_reduce
I0403 15:01:30.608557 14023 net.cpp:91] Creating Layer inception_5a/relu_5x5_reduce
I0403 15:01:30.608574 14023 net.cpp:425] inception_5a/relu_5x5_reduce <- inception_5a/5x5_reduce
I0403 15:01:30.608594 14023 net.cpp:386] inception_5a/relu_5x5_reduce -> inception_5a/5x5_reduce (in-place)
I0403 15:01:30.608911 14023 net.cpp:141] Setting up inception_5a/relu_5x5_reduce
I0403 15:01:30.608940 14023 net.cpp:148] Top shape: 24 32 7 7 (37632)
I0403 15:01:30.608955 14023 net.cpp:156] Memory required for data: 1299351072
I0403 15:01:30.608970 14023 layer_factory.hpp:77] Creating layer inception_5a/5x5
I0403 15:01:30.608992 14023 net.cpp:91] Creating Layer inception_5a/5x5
I0403 15:01:30.609009 14023 net.cpp:425] inception_5a/5x5 <- inception_5a/5x5_reduce
I0403 15:01:30.609028 14023 net.cpp:399] inception_5a/5x5 -> inception_5a/5x5
I0403 15:01:30.610709 14023 net.cpp:141] Setting up inception_5a/5x5
I0403 15:01:30.610751 14023 net.cpp:148] Top shape: 24 128 7 7 (150528)
I0403 15:01:30.610769 14023 net.cpp:156] Memory required for data: 1299953184
I0403 15:01:30.610788 14023 layer_factory.hpp:77] Creating layer inception_5a/relu_5x5
I0403 15:01:30.610805 14023 net.cpp:91] Creating Layer inception_5a/relu_5x5
I0403 15:01:30.610821 14023 net.cpp:425] inception_5a/relu_5x5 <- inception_5a/5x5
I0403 15:01:30.610839 14023 net.cpp:386] inception_5a/relu_5x5 -> inception_5a/5x5 (in-place)
I0403 15:01:30.611030 14023 net.cpp:141] Setting up inception_5a/relu_5x5
I0403 15:01:30.611057 14023 net.cpp:148] Top shape: 24 128 7 7 (150528)
I0403 15:01:30.611073 14023 net.cpp:156] Memory required for data: 1300555296
I0403 15:01:30.611086 14023 layer_factory.hpp:77] Creating layer inception_5a/pool
I0403 15:01:30.611104 14023 net.cpp:91] Creating Layer inception_5a/pool
I0403 15:01:30.611119 14023 net.cpp:425] inception_5a/pool <- pool4/3x3_s2_pool4/3x3_s2_0_split_3
I0403 15:01:30.611140 14023 net.cpp:399] inception_5a/pool -> inception_5a/pool
I0403 15:01:30.611208 14023 net.cpp:141] Setting up inception_5a/pool
I0403 15:01:30.611234 14023 net.cpp:148] Top shape: 24 832 7 7 (978432)
I0403 15:01:30.611248 14023 net.cpp:156] Memory required for data: 1304469024
I0403 15:01:30.611265 14023 layer_factory.hpp:77] Creating layer inception_5a/pool_proj
I0403 15:01:30.611287 14023 net.cpp:91] Creating Layer inception_5a/pool_proj
I0403 15:01:30.611304 14023 net.cpp:425] inception_5a/pool_proj <- inception_5a/pool
I0403 15:01:30.611322 14023 net.cpp:399] inception_5a/pool_proj -> inception_5a/pool_proj
I0403 15:01:30.613564 14023 net.cpp:141] Setting up inception_5a/pool_proj
I0403 15:01:30.613593 14023 net.cpp:148] Top shape: 24 128 7 7 (150528)
I0403 15:01:30.613615 14023 net.cpp:156] Memory required for data: 1305071136
I0403 15:01:30.613634 14023 layer_factory.hpp:77] Creating layer inception_5a/relu_pool_proj
I0403 15:01:30.613654 14023 net.cpp:91] Creating Layer inception_5a/relu_pool_proj
I0403 15:01:30.613673 14023 net.cpp:425] inception_5a/relu_pool_proj <- inception_5a/pool_proj
I0403 15:01:30.613692 14023 net.cpp:386] inception_5a/relu_pool_proj -> inception_5a/pool_proj (in-place)
I0403 15:01:30.613987 14023 net.cpp:141] Setting up inception_5a/relu_pool_proj
I0403 15:01:30.614015 14023 net.cpp:148] Top shape: 24 128 7 7 (150528)
I0403 15:01:30.614030 14023 net.cpp:156] Memory required for data: 1305673248
I0403 15:01:30.614045 14023 layer_factory.hpp:77] Creating layer inception_5a/output
I0403 15:01:30.614064 14023 net.cpp:91] Creating Layer inception_5a/output
I0403 15:01:30.614081 14023 net.cpp:425] inception_5a/output <- inception_5a/1x1
I0403 15:01:30.614097 14023 net.cpp:425] inception_5a/output <- inception_5a/3x3
I0403 15:01:30.614112 14023 net.cpp:425] inception_5a/output <- inception_5a/5x5
I0403 15:01:30.614127 14023 net.cpp:425] inception_5a/output <- inception_5a/pool_proj
I0403 15:01:30.614145 14023 net.cpp:399] inception_5a/output -> inception_5a/output
I0403 15:01:30.614194 14023 net.cpp:141] Setting up inception_5a/output
I0403 15:01:30.614217 14023 net.cpp:148] Top shape: 24 832 7 7 (978432)
I0403 15:01:30.614231 14023 net.cpp:156] Memory required for data: 1309586976
I0403 15:01:30.614246 14023 layer_factory.hpp:77] Creating layer inception_5a/output_inception_5a/output_0_split
I0403 15:01:30.614264 14023 net.cpp:91] Creating Layer inception_5a/output_inception_5a/output_0_split
I0403 15:01:30.614279 14023 net.cpp:425] inception_5a/output_inception_5a/output_0_split <- inception_5a/output
I0403 15:01:30.614298 14023 net.cpp:399] inception_5a/output_inception_5a/output_0_split -> inception_5a/output_inception_5a/output_0_split_0
I0403 15:01:30.614320 14023 net.cpp:399] inception_5a/output_inception_5a/output_0_split -> inception_5a/output_inception_5a/output_0_split_1
I0403 15:01:30.614339 14023 net.cpp:399] inception_5a/output_inception_5a/output_0_split -> inception_5a/output_inception_5a/output_0_split_2
I0403 15:01:30.614359 14023 net.cpp:399] inception_5a/output_inception_5a/output_0_split -> inception_5a/output_inception_5a/output_0_split_3
I0403 15:01:30.614487 14023 net.cpp:141] Setting up inception_5a/output_inception_5a/output_0_split
I0403 15:01:30.614513 14023 net.cpp:148] Top shape: 24 832 7 7 (978432)
I0403 15:01:30.614531 14023 net.cpp:148] Top shape: 24 832 7 7 (978432)
I0403 15:01:30.614547 14023 net.cpp:148] Top shape: 24 832 7 7 (978432)
I0403 15:01:30.614562 14023 net.cpp:148] Top shape: 24 832 7 7 (978432)
I0403 15:01:30.614575 14023 net.cpp:156] Memory required for data: 1325241888
I0403 15:01:30.614589 14023 layer_factory.hpp:77] Creating layer inception_5b/1x1
I0403 15:01:30.614624 14023 net.cpp:91] Creating Layer inception_5b/1x1
I0403 15:01:30.614645 14023 net.cpp:425] inception_5b/1x1 <- inception_5a/output_inception_5a/output_0_split_0
I0403 15:01:30.614663 14023 net.cpp:399] inception_5b/1x1 -> inception_5b/1x1
I0403 15:01:30.618448 14023 net.cpp:141] Setting up inception_5b/1x1
I0403 15:01:30.618481 14023 net.cpp:148] Top shape: 24 384 7 7 (451584)
I0403 15:01:30.618500 14023 net.cpp:156] Memory required for data: 1327048224
I0403 15:01:30.618520 14023 layer_factory.hpp:77] Creating layer inception_5b/relu_1x1
I0403 15:01:30.618542 14023 net.cpp:91] Creating Layer inception_5b/relu_1x1
I0403 15:01:30.618561 14023 net.cpp:425] inception_5b/relu_1x1 <- inception_5b/1x1
I0403 15:01:30.618577 14023 net.cpp:386] inception_5b/relu_1x1 -> inception_5b/1x1 (in-place)
I0403 15:01:30.618888 14023 net.cpp:141] Setting up inception_5b/relu_1x1
I0403 15:01:30.618917 14023 net.cpp:148] Top shape: 24 384 7 7 (451584)
I0403 15:01:30.618933 14023 net.cpp:156] Memory required for data: 1328854560
I0403 15:01:30.618949 14023 layer_factory.hpp:77] Creating layer inception_5b/3x3_reduce
I0403 15:01:30.618973 14023 net.cpp:91] Creating Layer inception_5b/3x3_reduce
I0403 15:01:30.618993 14023 net.cpp:425] inception_5b/3x3_reduce <- inception_5a/output_inception_5a/output_0_split_1
I0403 15:01:30.619014 14023 net.cpp:399] inception_5b/3x3_reduce -> inception_5b/3x3_reduce
I0403 15:01:30.621762 14023 net.cpp:141] Setting up inception_5b/3x3_reduce
I0403 15:01:30.621793 14023 net.cpp:148] Top shape: 24 192 7 7 (225792)
I0403 15:01:30.621811 14023 net.cpp:156] Memory required for data: 1329757728
I0403 15:01:30.621829 14023 layer_factory.hpp:77] Creating layer inception_5b/relu_3x3_reduce
I0403 15:01:30.621850 14023 net.cpp:91] Creating Layer inception_5b/relu_3x3_reduce
I0403 15:01:30.621870 14023 net.cpp:425] inception_5b/relu_3x3_reduce <- inception_5b/3x3_reduce
I0403 15:01:30.621888 14023 net.cpp:386] inception_5b/relu_3x3_reduce -> inception_5b/3x3_reduce (in-place)
I0403 15:01:30.622082 14023 net.cpp:141] Setting up inception_5b/relu_3x3_reduce
I0403 15:01:30.622112 14023 net.cpp:148] Top shape: 24 192 7 7 (225792)
I0403 15:01:30.622128 14023 net.cpp:156] Memory required for data: 1330660896
I0403 15:01:30.622143 14023 layer_factory.hpp:77] Creating layer inception_5b/3x3
I0403 15:01:30.622164 14023 net.cpp:91] Creating Layer inception_5b/3x3
I0403 15:01:30.622184 14023 net.cpp:425] inception_5b/3x3 <- inception_5b/3x3_reduce
I0403 15:01:30.622203 14023 net.cpp:399] inception_5b/3x3 -> inception_5b/3x3
I0403 15:01:30.628947 14023 net.cpp:141] Setting up inception_5b/3x3
I0403 15:01:30.628979 14023 net.cpp:148] Top shape: 24 384 7 7 (451584)
I0403 15:01:30.628998 14023 net.cpp:156] Memory required for data: 1332467232
I0403 15:01:30.629017 14023 layer_factory.hpp:77] Creating layer inception_5b/relu_3x3
I0403 15:01:30.629040 14023 net.cpp:91] Creating Layer inception_5b/relu_3x3
I0403 15:01:30.629060 14023 net.cpp:425] inception_5b/relu_3x3 <- inception_5b/3x3
I0403 15:01:30.629078 14023 net.cpp:386] inception_5b/relu_3x3 -> inception_5b/3x3 (in-place)
I0403 15:01:30.629384 14023 net.cpp:141] Setting up inception_5b/relu_3x3
I0403 15:01:30.629411 14023 net.cpp:148] Top shape: 24 384 7 7 (451584)
I0403 15:01:30.629426 14023 net.cpp:156] Memory required for data: 1334273568
I0403 15:01:30.629442 14023 layer_factory.hpp:77] Creating layer inception_5b/5x5_reduce
I0403 15:01:30.629483 14023 net.cpp:91] Creating Layer inception_5b/5x5_reduce
I0403 15:01:30.629508 14023 net.cpp:425] inception_5b/5x5_reduce <- inception_5a/output_inception_5a/output_0_split_2
I0403 15:01:30.629528 14023 net.cpp:399] inception_5b/5x5_reduce -> inception_5b/5x5_reduce
I0403 15:01:30.630825 14023 net.cpp:141] Setting up inception_5b/5x5_reduce
I0403 15:01:30.630854 14023 net.cpp:148] Top shape: 24 48 7 7 (56448)
I0403 15:01:30.630870 14023 net.cpp:156] Memory required for data: 1334499360
I0403 15:01:30.630892 14023 layer_factory.hpp:77] Creating layer inception_5b/relu_5x5_reduce
I0403 15:01:30.630913 14023 net.cpp:91] Creating Layer inception_5b/relu_5x5_reduce
I0403 15:01:30.630934 14023 net.cpp:425] inception_5b/relu_5x5_reduce <- inception_5b/5x5_reduce
I0403 15:01:30.630952 14023 net.cpp:386] inception_5b/relu_5x5_reduce -> inception_5b/5x5_reduce (in-place)
I0403 15:01:30.631331 14023 net.cpp:141] Setting up inception_5b/relu_5x5_reduce
I0403 15:01:30.631359 14023 net.cpp:148] Top shape: 24 48 7 7 (56448)
I0403 15:01:30.631376 14023 net.cpp:156] Memory required for data: 1334725152
I0403 15:01:30.631391 14023 layer_factory.hpp:77] Creating layer inception_5b/5x5
I0403 15:01:30.631412 14023 net.cpp:91] Creating Layer inception_5b/5x5
I0403 15:01:30.631431 14023 net.cpp:425] inception_5b/5x5 <- inception_5b/5x5_reduce
I0403 15:01:30.631450 14023 net.cpp:399] inception_5b/5x5 -> inception_5b/5x5
I0403 15:01:30.633528 14023 net.cpp:141] Setting up inception_5b/5x5
I0403 15:01:30.633560 14023 net.cpp:148] Top shape: 24 128 7 7 (150528)
I0403 15:01:30.633579 14023 net.cpp:156] Memory required for data: 1335327264
I0403 15:01:30.633602 14023 layer_factory.hpp:77] Creating layer inception_5b/relu_5x5
I0403 15:01:30.633623 14023 net.cpp:91] Creating Layer inception_5b/relu_5x5
I0403 15:01:30.633641 14023 net.cpp:425] inception_5b/relu_5x5 <- inception_5b/5x5
I0403 15:01:30.633662 14023 net.cpp:386] inception_5b/relu_5x5 -> inception_5b/5x5 (in-place)
I0403 15:01:30.633859 14023 net.cpp:141] Setting up inception_5b/relu_5x5
I0403 15:01:30.633884 14023 net.cpp:148] Top shape: 24 128 7 7 (150528)
I0403 15:01:30.633898 14023 net.cpp:156] Memory required for data: 1335929376
I0403 15:01:30.633913 14023 layer_factory.hpp:77] Creating layer inception_5b/pool
I0403 15:01:30.633931 14023 net.cpp:91] Creating Layer inception_5b/pool
I0403 15:01:30.633947 14023 net.cpp:425] inception_5b/pool <- inception_5a/output_inception_5a/output_0_split_3
I0403 15:01:30.633968 14023 net.cpp:399] inception_5b/pool -> inception_5b/pool
I0403 15:01:30.634045 14023 net.cpp:141] Setting up inception_5b/pool
I0403 15:01:30.634069 14023 net.cpp:148] Top shape: 24 832 7 7 (978432)
I0403 15:01:30.634084 14023 net.cpp:156] Memory required for data: 1339843104
I0403 15:01:30.634099 14023 layer_factory.hpp:77] Creating layer inception_5b/pool_proj
I0403 15:01:30.634122 14023 net.cpp:91] Creating Layer inception_5b/pool_proj
I0403 15:01:30.634140 14023 net.cpp:425] inception_5b/pool_proj <- inception_5b/pool
I0403 15:01:30.634158 14023 net.cpp:399] inception_5b/pool_proj -> inception_5b/pool_proj
I0403 15:01:30.636483 14023 net.cpp:141] Setting up inception_5b/pool_proj
I0403 15:01:30.636514 14023 net.cpp:148] Top shape: 24 128 7 7 (150528)
I0403 15:01:30.636531 14023 net.cpp:156] Memory required for data: 1340445216
I0403 15:01:30.636550 14023 layer_factory.hpp:77] Creating layer inception_5b/relu_pool_proj
I0403 15:01:30.636574 14023 net.cpp:91] Creating Layer inception_5b/relu_pool_proj
I0403 15:01:30.636592 14023 net.cpp:425] inception_5b/relu_pool_proj <- inception_5b/pool_proj
I0403 15:01:30.636617 14023 net.cpp:386] inception_5b/relu_pool_proj -> inception_5b/pool_proj (in-place)
I0403 15:01:30.636919 14023 net.cpp:141] Setting up inception_5b/relu_pool_proj
I0403 15:01:30.636946 14023 net.cpp:148] Top shape: 24 128 7 7 (150528)
I0403 15:01:30.636965 14023 net.cpp:156] Memory required for data: 1341047328
I0403 15:01:30.636979 14023 layer_factory.hpp:77] Creating layer inception_5b/output
I0403 15:01:30.636997 14023 net.cpp:91] Creating Layer inception_5b/output
I0403 15:01:30.637029 14023 net.cpp:425] inception_5b/output <- inception_5b/1x1
I0403 15:01:30.637048 14023 net.cpp:425] inception_5b/output <- inception_5b/3x3
I0403 15:01:30.637064 14023 net.cpp:425] inception_5b/output <- inception_5b/5x5
I0403 15:01:30.637079 14023 net.cpp:425] inception_5b/output <- inception_5b/pool_proj
I0403 15:01:30.637096 14023 net.cpp:399] inception_5b/output -> inception_5b/output
I0403 15:01:30.637163 14023 net.cpp:141] Setting up inception_5b/output
I0403 15:01:30.637188 14023 net.cpp:148] Top shape: 24 1024 7 7 (1204224)
I0403 15:01:30.637203 14023 net.cpp:156] Memory required for data: 1345864224
I0403 15:01:30.637218 14023 layer_factory.hpp:77] Creating layer pool5/7x7_s1
I0403 15:01:30.637239 14023 net.cpp:91] Creating Layer pool5/7x7_s1
I0403 15:01:30.637258 14023 net.cpp:425] pool5/7x7_s1 <- inception_5b/output
I0403 15:01:30.637276 14023 net.cpp:399] pool5/7x7_s1 -> pool5/7x7_s1
I0403 15:01:30.637511 14023 net.cpp:141] Setting up pool5/7x7_s1
I0403 15:01:30.637539 14023 net.cpp:148] Top shape: 24 1024 1 1 (24576)
I0403 15:01:30.637555 14023 net.cpp:156] Memory required for data: 1345962528
I0403 15:01:30.637572 14023 layer_factory.hpp:77] Creating layer pool5/drop_7x7_s1
I0403 15:01:30.637589 14023 net.cpp:91] Creating Layer pool5/drop_7x7_s1
I0403 15:01:30.637611 14023 net.cpp:425] pool5/drop_7x7_s1 <- pool5/7x7_s1
I0403 15:01:30.637631 14023 net.cpp:386] pool5/drop_7x7_s1 -> pool5/7x7_s1 (in-place)
I0403 15:01:30.637686 14023 net.cpp:141] Setting up pool5/drop_7x7_s1
I0403 15:01:30.637722 14023 net.cpp:148] Top shape: 24 1024 1 1 (24576)
I0403 15:01:30.637737 14023 net.cpp:156] Memory required for data: 1346060832
I0403 15:01:30.637751 14023 layer_factory.hpp:77] Creating layer loss3/classifier_plantvillage
I0403 15:01:30.637773 14023 net.cpp:91] Creating Layer loss3/classifier_plantvillage
I0403 15:01:30.637792 14023 net.cpp:425] loss3/classifier_plantvillage <- pool5/7x7_s1
I0403 15:01:30.637811 14023 net.cpp:399] loss3/classifier_plantvillage -> loss3/classifier_plantvillage
I0403 15:01:30.638241 14023 net.cpp:141] Setting up loss3/classifier_plantvillage
I0403 15:01:30.638267 14023 net.cpp:148] Top shape: 24 38 (912)
I0403 15:01:30.638283 14023 net.cpp:156] Memory required for data: 1346064480
I0403 15:01:30.638303 14023 layer_factory.hpp:77] Creating layer loss3/classifier_plantvillage_loss3/classifier_plantvillage_0_split
I0403 15:01:30.638321 14023 net.cpp:91] Creating Layer loss3/classifier_plantvillage_loss3/classifier_plantvillage_0_split
I0403 15:01:30.638337 14023 net.cpp:425] loss3/classifier_plantvillage_loss3/classifier_plantvillage_0_split <- loss3/classifier_plantvillage
I0403 15:01:30.638360 14023 net.cpp:399] loss3/classifier_plantvillage_loss3/classifier_plantvillage_0_split -> loss3/classifier_plantvillage_loss3/classifier_plantvillage_0_split_0
I0403 15:01:30.638381 14023 net.cpp:399] loss3/classifier_plantvillage_loss3/classifier_plantvillage_0_split -> loss3/classifier_plantvillage_loss3/classifier_plantvillage_0_split_1
I0403 15:01:30.638402 14023 net.cpp:399] loss3/classifier_plantvillage_loss3/classifier_plantvillage_0_split -> loss3/classifier_plantvillage_loss3/classifier_plantvillage_0_split_2
I0403 15:01:30.638422 14023 net.cpp:399] loss3/classifier_plantvillage_loss3/classifier_plantvillage_0_split -> loss3/classifier_plantvillage_loss3/classifier_plantvillage_0_split_3
I0403 15:01:30.638526 14023 net.cpp:141] Setting up loss3/classifier_plantvillage_loss3/classifier_plantvillage_0_split
I0403 15:01:30.638552 14023 net.cpp:148] Top shape: 24 38 (912)
I0403 15:01:30.638569 14023 net.cpp:148] Top shape: 24 38 (912)
I0403 15:01:30.638586 14023 net.cpp:148] Top shape: 24 38 (912)
I0403 15:01:30.638604 14023 net.cpp:148] Top shape: 24 38 (912)
I0403 15:01:30.638619 14023 net.cpp:156] Memory required for data: 1346079072
I0403 15:01:30.638634 14023 layer_factory.hpp:77] Creating layer loss1/loss
I0403 15:01:30.638655 14023 net.cpp:91] Creating Layer loss1/loss
I0403 15:01:30.638674 14023 net.cpp:425] loss1/loss <- loss1/classifier_plantvillage_loss1/classifier_plantvillage_0_split_0
I0403 15:01:30.638705 14023 net.cpp:425] loss1/loss <- label_data_1_split_0
…
