…
I0403 14:57:24.795300 13799 net.cpp:313] The NetState phase (1) differed from the phase (0) specified by a rule in layer data
I0403 14:57:24.797392 13799 net.cpp:49] Initializing net from parameters: 
state {
  phase: TEST
}
layer {
  name: "data"
  type: "Data"
  top: "data"
  top: "label"
  include {
    phase: TEST
  }
  transform_param {
    mirror: false
    crop_size: 224
    mean_file: "/home/mohanty/data/final_dataset/lmdb/color-40-60/mean.binaryproto"
  }
  data_param {
    source: "/home/mohanty/data/final_dataset/lmdb/color-40-60/test_db"
    batch_size: 24
    backend: LMDB
  }
}
layer {
  name: "conv1/7x7_s2"
  type: "Convolution"
  bottom: "data"
  top: "conv1/7x7_s2"
  param {
    lr_mult: 1
    decay_mult: 1
  }
  param {
    lr_mult: 2
    decay_mult: 0
  }
  convolution_param {
    num_output: 64
    pad: 3
    kernel_size: 7
    stride: 2
    weight_filler {
      type: "xavier"
      std: 0.1
    }
    bias_filler {
      type: "constant"
      value: 0.2
    }
  }
}
layer {
  name: "conv1/relu_7x7"
  type: "ReLU"
  bottom: "conv1/7x7_s2"
  top: "conv1/7x7_s2"
}
layer {
  name: "pool1/3x3_s2"
  type: "Pooling"
  bottom: "conv1/7x7_s2"
  top: "pool1/3x3_s2"
  pooling_param {
    pool: MAX
    kernel_size: 3
    stride: 2
  }
}
layer {
  name: "pool1/norm1"
  type: "LRN"
  bottom: "pool1/3x3_s2"
  top: "pool1/norm1"
  lrn_param {
    local_size: 5
    alpha: 0.0001
    beta: 0.75
  }
}
layer {
  name: "conv2/3x3_reduce"
  type: "Convolution"
  bottom: "pool1/norm1"
  top: "conv2/3x3_reduce"
  param {
    lr_mult: 1
    decay_mult: 1
  }
  param {
    lr_mult: 2
    decay_mult: 0
  }
  convolution_param {
    num_output: 64
    kernel_size: 1
    weight_filler {
      type: "xavier"
      std: 0.1
    }
    bias_filler {
      type: "constant"
      value: 0.2
    }
  }
}
layer {
  name: "conv2/relu_3x3_reduce"
  type: "ReLU"
  bottom: "conv2/3x3_reduce"
  top: "conv2/3x3_reduce"
}
layer {
  name: "conv2/3x3"
  type: "Convolution"
  bottom: "conv2/3x3_reduce"
  top: "conv2/3x3"
  param {
    lr_mult: 1
    decay_mult: 1
  }
  param {
    lr_mult: 2
    decay_mult: 0
  }
  convolution_param {
    num_output: 192
    pad: 1
    kernel_size: 3
    weight_filler {
      type: "xavier"
      std: 0.03
    }
    bias_filler {
      type: "constant"
      value: 0.2
    }
  }
}
layer {
  name: "conv2/relu_3x3"
  type: "ReLU"
  bottom: "conv2/3x3"
  top: "conv2/3x3"
}
layer {
  name: "conv2/norm2"
  type: "LRN"
  bottom: "conv2/3x3"
  top: "conv2/norm2"
  lrn_param {
    local_size: 5
    alpha: 0.0001
    beta: 0.75
  }
}
layer {
  name: "pool2/3x3_s2"
  type: "Pooling"
  bottom: "conv2/norm2"
  top: "pool2/3x3_s2"
  pooling_param {
    pool: MAX
    kernel_size: 3
    stride: 2
  }
}
layer {
  name: "inception_3a/1x1"
  type: "Convolution"
  bottom: "pool2/3x3_s2"
  top: "inception_3a/1x1"
  param {
    lr_mult: 1
    decay_mult: 1
  }
  param {
    lr_mult: 2
    decay_mult: 0
  }
  convolution_param {
    num_output: 64
    kernel_size: 1
    weight_filler {
      type: "xavier"
      std: 0.03
    }
    bias_filler {
      type: "constant"
      value: 0.2
    }
  }
}
layer {
  name: "inception_3a/relu_1x1"
  type: "ReLU"
  bottom: "inception_3a/1x1"
  top: "inception_3a/1x1"
}
layer {
  name: "inception_3a/3x3_reduce"
  type: "Convolution"
  bottom: "pool2/3x3_s2"
  top: "inception_3a/3x3_reduce"
  param {
    lr_mult: 1
    decay_mult: 1
  }
  param {
    lr_mult: 2
    decay_mult: 0
  }
  convolution_param {
    num_output: 96
    kernel_size: 1
    weight_filler {
      type: "xavier"
      std: 0.09
    }
    bias_filler {
      type: "constant"
      value: 0.2
    }
  }
}
layer {
  name: "inception_3a/relu_3x3_reduce"
  type: "ReLU"
  bottom: "inception_3a/3x3_reduce"
  top: "inception_3a/3x3_reduce"
}
layer {
  name: "inception_3a/3x3"
  type: "Convolution"
  bottom: "inception_3a/3x3_reduce"
  top: "inception_3a/3x3"
  param {
    lr_mult: 1
    decay_mult: 1
  }
  param {
    lr_mult: 2
    decay_mult: 0
  }
  convolution_param {
    num_output: 128
    pad: 1
    kernel_size: 3
    weight_filler {
      type: "xavier"
      std: 0.03
    }
    bias_filler {
      type: "constant"
      value: 0.2
    }
  }
}
layer {
  name: "inception_3a/relu_3x3"
  type: "ReLU"
  bottom: "inception_3a/3x3"
  top: "inception_3a/3x3"
}
layer {
  name: "inception_3a/5x5_reduce"
  type: "Convolution"
  bottom: "pool2/3x3_s2"
  top: "inception_3a/5x5_reduce"
  param {
    lr_mult: 1
    decay_mult: 1
  }
  param {
    lr_mult: 2
    decay_mult: 0
  }
  convolution_param {
    num_output: 16
    kernel_size: 1
    weight_filler {
      type: "xavier"
      std: 0.2
    }
    bias_filler {
      type: "constant"
      value: 0.2
    }
  }
}
layer {
  name: "inception_3a/relu_5x5_reduce"
  type: "ReLU"
  bottom: "inception_3a/5x5_reduce"
  top: "inception_3a/5x5_reduce"
}
layer {
  name: "inception_3a/5x5"
  type: "Convolution"
  bottom: "inception_3a/5x5_reduce"
  top: "inception_3a/5x5"
  param {
    lr_mult: 1
    decay_mult: 1
  }
  param {
    lr_mult: 2
    decay_mult: 0
  }
  convolution_param {
    num_output: 32
    pad: 2
    kernel_size: 5
    weight_filler {
      type: "xavier"
      std: 0.03
    }
    bias_filler {
      type: "constant"
      value: 0.2
    }
  }
}
layer {
  name: "inception_3a/relu_5x5"
  type: "ReLU"
  bottom: "inception_3a/5x5"
  top: "inception_3a/5x5"
}
layer {
  name: "inception_3a/pool"
  type: "Pooling"
  bottom: "pool2/3x3_s2"
  top: "inception_3a/pool"
  pooling_param {
    pool: MAX
    kernel_size: 3
    stride: 1
    pad: 1
  }
}
layer {
  name: "inception_3a/pool_proj"
  type: "Convolution"
  bottom: "inception_3a/pool"
  top: "inception_3a/pool_proj"
  param {
    lr_mult: 1
    decay_mult: 1
  }
  param {
    lr_mult: 2
    decay_mult: 0
  }
  convolution_param {
    num_output: 32
    kernel_size: 1
    weight_filler {
      type: "xavier"
      std: 0.1
    }
    bias_filler {
      type: "constant"
      value: 0.2
    }
  }
}
layer {
  name: "inception_3a/relu_pool_proj"
  type: "ReLU"
  bottom: "inception_3a/pool_proj"
  top: "inception_3a/pool_proj"
}
layer {
  name: "inception_3a/output"
  type: "Concat"
  bottom: "inception_3a/1x1"
  bottom: "inception_3a/3x3"
  bottom: "inception_3a/5x5"
  bottom: "inception_3a/pool_proj"
  top: "inception_3a/output"
}
layer {
  name: "inception_3b/1x1"
  type: "Convolution"
  bottom: "inception_3a/output"
  top: "inception_3b/1x1"
  param {
    lr_mult: 1
    decay_mult: 1
  }
  param {
    lr_mult: 2
    decay_mult: 0
  }
  convolution_param {
    num_output: 128
    kernel_size: 1
    weight_filler {
      type: "xavier"
      std: 0.03
    }
    bias_filler {
      type: "constant"
      value: 0.2
    }
  }
}
layer {
  name: "inception_3b/relu_1x1"
  type: "ReLU"
  bottom: "inception_3b/1x1"
  top: "inception_3b/1x1"
}
layer {
  name: "inception_3b/3x3_reduce"
  type: "Convolution"
  bottom: "inception_3a/output"
  top: "inception_3b/3x3_reduce"
  param {
    lr_mult: 1
    decay_mult: 1
  }
  param {
    lr_mult: 2
    decay_mult: 0
  }
  convolution_param {
    num_output: 128
    kernel_size: 1
    weight_filler {
      type: "xavier"
      std: 0.09
    }
    bias_filler {
      type: "constant"
      value: 0.2
    }
  }
}
layer {
  name: "inception_3b/relu_3x3_reduce"
  type: "ReLU"
  bottom: "inception_3b/3x3_reduce"
  top: "inception_3b/3x3_reduce"
}
layer {
  name: "inception_3b/3x3"
  type: "Convolution"
  bottom: "inception_3b/3x3_reduce"
  top: "inception_3b/3x3"
  param {
    lr_mult: 1
    decay_mult: 1
  }
  param {
    lr_mult: 2
    decay_mult: 0
  }
  convolution_param {
    num_output: 192
    pad: 1
    kernel_size: 3
    weight_filler {
      type: "xavier"
      std: 0.03
    }
    bias_filler {
      type: "constant"
      value: 0.2
    }
  }
}
layer {
  name: "inception_3b/relu_3x3"
  type: "ReLU"
  bottom: "inception_3b/3x3"
  top: "inception_3b/3x3"
}
layer {
  name: "inception_3b/5x5_reduce"
  type: "Convolution"
  bottom: "inception_3a/output"
  top: "inception_3b/5x5_reduce"
  param {
    lr_mult: 1
    decay_mult: 1
  }
  param {
    lr_mult: 2
    decay_mult: 0
  }
  convolution_param {
    num_output: 32
    kernel_size: 1
    weight_filler {
      type: "xavier"
      std: 0.2
    }
    bias_filler {
      type: "constant"
      value: 0.2
    }
  }
}
layer {
  name: "inception_3b/relu_5x5_reduce"
  type: "ReLU"
  bottom: "inception_3b/5x5_reduce"
  top: "inception_3b/5x5_reduce"
}
layer {
  name: "inception_3b/5x5"
  type: "Convolution"
  bottom: "inception_3b/5x5_reduce"
  top: "inception_3b/5x5"
  param {
    lr_mult: 1
    decay_mult: 1
  }
  param {
    lr_mult: 2
    decay_mult: 0
  }
  convolution_param {
    num_output: 96
    pad: 2
    kernel_size: 5
    weight_filler {
      type: "xavier"
      std: 0.03
    }
    bias_filler {
      type: "constant"
      value: 0.2
    }
  }
}
layer {
  name: "inception_3b/relu_5x5"
  type: "ReLU"
  bottom: "inception_3b/5x5"
  top: "inception_3b/5x5"
}
layer {
  name: "inception_3b/pool"
  type: "Pooling"
  bottom: "inception_3a/output"
  top: "inception_3b/pool"
  pooling_param {
    pool: MAX
    kernel_size: 3
    stride: 1
    pad: 1
  }
}
layer {
  name: "inception_3b/pool_proj"
  type: "Convolution"
  bottom: "inception_3b/pool"
  top: "inception_3b/pool_proj"
  param {
    lr_mult: 1
    decay_mult: 1
  }
  param {
    lr_mult: 2
    decay_mult: 0
  }
  convolution_param {
    num_output: 64
    kernel_size: 1
    weight_filler {
      type: "xavier"
      std: 0.1
    }
    bias_filler {
      type: "constant"
      value: 0.2
    }
  }
}
layer {
  name: "inception_3b/relu_pool_proj"
  type: "ReLU"
  bottom: "inception_3b/pool_proj"
  top: "inception_3b/pool_proj"
}
layer {
  name: "inception_3b/output"
  type: "Concat"
  bottom: "inception_3b/1x1"
  bottom: "inception_3b/3x3"
  bottom: "inception_3b/5x5"
  bottom: "inception_3b/pool_proj"
  top: "inception_3b/output"
}
layer {
  name: "pool3/3x3_s2"
  type: "Pooling"
  bottom: "inception_3b/output"
  top: "pool3/3x3_s2"
  pooling_param {
    pool: MAX
    kernel_size: 3
    stride: 2
  }
}
layer {
  name: "inception_4a/1x1"
  type: "Convolution"
  bottom: "pool3/3x3_s2"
  top: "inception_4a/1x1"
  param {
    lr_mult: 1
    decay_mult: 1
  }
  param {
    lr_mult: 2
    decay_mult: 0
  }
  convolution_param {
    num_output: 192
    kernel_size: 1
    weight_filler {
      type: "xavier"
      std: 0.03
    }
    bias_filler {
      type: "constant"
      value: 0.2
    }
  }
}
layer {
  name: "inception_4a/relu_1x1"
  type: "ReLU"
  bottom: "inception_4a/1x1"
  top: "inception_4a/1x1"
}
layer {
  name: "inception_4a/3x3_reduce"
  type: "Convolution"
  bottom: "pool3/3x3_s2"
  top: "inception_4a/3x3_reduce"
  param {
    lr_mult: 1
    decay_mult: 1
  }
  param {
    lr_mult: 2
    decay_mult: 0
  }
  convolution_param {
    num_output: 96
    kernel_size: 1
    weight_filler {
      type: "xavier"
      std: 0.09
    }
    bias_filler {
      type: "constant"
      value: 0.2
    }
  }
}
layer {
  name: "inception_4a/relu_3x3_reduce"
  type: "ReLU"
  bottom: "inception_4a/3x3_reduce"
  top: "inception_4a/3x3_reduce"
}
layer {
  name: "inception_4a/3x3"
  type: "Convolution"
  bottom: "inception_4a/3x3_reduce"
  top: "inception_4a/3x3"
  param {
    lr_mult: 1
    decay_mult: 1
  }
  param {
    lr_mult: 2
    decay_mult: 0
  }
  convolution_param {
    num_output: 208
    pad: 1
    kernel_size: 3
    weight_filler {
      type: "xavier"
      std: 0.03
    }
    bias_filler {
      type: "constant"
      value: 0.2
    }
  }
}
layer {
  name: "inception_4a/relu_3x3"
  type: "ReLU"
  bottom: "inception_4a/3x3"
  top: "inception_4a/3x3"
}
layer {
  name: "inception_4a/5x5_reduce"
  type: "Convolution"
  bottom: "pool3/3x3_s2"
  top: "inception_4a/5x5_reduce"
  param {
    lr_mult: 1
    decay_mult: 1
  }
  param {
    lr_mult: 2
    decay_mult: 0
  }
  convolution_param {
    num_output: 16
    kernel_size: 1
    weight_filler {
      type: "xavier"
      std: 0.2
    }
    bias_filler {
      type: "constant"
      value: 0.2
    }
  }
}
layer {
  name: "inception_4a/relu_5x5_reduce"
  type: "ReLU"
  bottom: "inception_4a/5x5_reduce"
  top: "inception_4a/5x5_reduce"
}
layer {
  name: "inception_4a/5x5"
  type: "Convolution"
  bottom: "inception_4a/5x5_reduce"
  top: "inception_4a/5x5"
  param {
    lr_mult: 1
    decay_mult: 1
  }
  param {
    lr_mult: 2
    decay_mult: 0
  }
  convolution_param {
    num_output: 48
    pad: 2
    kernel_size: 5
    weight_filler {
      type: "xavier"
      std: 0.03
    }
    bias_filler {
      type: "constant"
      value: 0.2
    }
  }
}
layer {
  name: "inception_4a/relu_5x5"
  type: "ReLU"
  bottom: "inception_4a/5x5"
  top: "inception_4a/5x5"
}
layer {
  name: "inception_4a/pool"
  type: "Pooling"
  bottom: "pool3/3x3_s2"
  top: "inception_4a/pool"
  pooling_param {
    pool: MAX
    kernel_size: 3
    stride: 1
    pad: 1
  }
}
layer {
  name: "inception_4a/pool_proj"
  type: "Convolution"
  bottom: "inception_4a/pool"
  top: "inception_4a/pool_proj"
  param {
    lr_mult: 1
    decay_mult: 1
  }
  param {
    lr_mult: 2
    decay_mult: 0
  }
  convolution_param {
    num_output: 64
    kernel_size: 1
    weight_filler {
      type: "xavier"
      std: 0.1
    }
    bias_filler {
      type: "constant"
      value: 0.2
    }
  }
}
layer {
  name: "inception_4a/relu_pool_proj"
  type: "ReLU"
  bottom: "inception_4a/pool_proj"
  top: "inception_4a/pool_proj"
}
layer {
  name: "inception_4a/output"
  type: "Concat"
  bottom: "inception_4a/1x1"
  bottom: "inception_4a/3x3"
  bottom: "inception_4a/5x5"
  bottom: "inception_4a/pool_proj"
  top: "inception_4a/output"
}
layer {
  name: "loss1/ave_pool"
  type: "Pooling"
  bottom: "inception_4a/output"
  top: "loss1/ave_pool"
  pooling_param {
    pool: AVE
    kernel_size: 5
    stride: 3
  }
}
layer {
  name: "loss1/conv"
  type: "Convolution"
  bottom: "loss1/ave_pool"
  top: "loss1/conv"
  param {
    lr_mult: 1
    decay_mult: 1
  }
  param {
    lr_mult: 2
    decay_mult: 0
  }
  convolution_param {
    num_output: 128
    kernel_size: 1
    weight_filler {
      type: "xavier"
      std: 0.08
    }
    bias_filler {
      type: "constant"
      value: 0.2
    }
  }
}
layer {
  name: "loss1/relu_conv"
  type: "ReLU"
  bottom: "loss1/conv"
  top: "loss1/conv"
}
layer {
  name: "loss1/fc"
  type: "InnerProduct"
  bottom: "loss1/conv"
  top: "loss1/fc"
  param {
    lr_mult: 1
    decay_mult: 1
  }
  param {
    lr_mult: 2
    decay_mult: 0
  }
  inner_product_param {
    num_output: 1024
    weight_filler {
      type: "xavier"
      std: 0.02
    }
    bias_filler {
      type: "constant"
      value: 0.2
    }
  }
}
layer {
  name: "loss1/relu_fc"
  type: "ReLU"
  bottom: "loss1/fc"
  top: "loss1/fc"
}
layer {
  name: "loss1/drop_fc"
  type: "Dropout"
  bottom: "loss1/fc"
  top: "loss1/fc"
  dropout_param {
    dropout_ratio: 0.7
  }
}
layer {
  name: "loss1/classifier_plantvillage"
  type: "InnerProduct"
  bottom: "loss1/fc"
  top: "loss1/classifier_plantvillage"
  param {
    lr_mult: 1
    decay_mult: 1
  }
  param {
    lr_mult: 2
    decay_mult: 0
  }
  inner_product_param {
    num_output: 38
    weight_filler {
      type: "xavier"
      std: 0.0009765625
    }
    bias_filler {
      type: "constant"
      value: 0
    }
  }
}
layer {
  name: "inception_4b/1x1"
  type: "Convolution"
  bottom: "inception_4a/output"
  top: "inception_4b/1x1"
  param {
    lr_mult: 1
    decay_mult: 1
  }
  param {
    lr_mult: 2
    decay_mult: 0
  }
  convolution_param {
    num_output: 160
    kernel_size: 1
    weight_filler {
      type: "xavier"
      std: 0.03
    }
    bias_filler {
      type: "constant"
      value: 0.2
    }
  }
}
layer {
  name: "inception_4b/relu_1x1"
  type: "ReLU"
  bottom: "inception_4b/1x1"
  top: "inception_4b/1x1"
}
layer {
  name: "inception_4b/3x3_reduce"
  type: "Convolution"
  bottom: "inception_4a/output"
  top: "inception_4b/3x3_reduce"
  param {
    lr_mult: 1
    decay_mult: 1
  }
  param {
    lr_mult: 2
    decay_mult: 0
  }
  convolution_param {
    num_output: 112
    kernel_size: 1
    weight_filler {
      type: "xavier"
      std: 0.09
    }
    bias_filler {
      type: "constant"
      value: 0.2
    }
  }
}
layer {
  name: "inception_4b/relu_3x3_reduce"
  type: "ReLU"
  bottom: "inception_4b/3x3_reduce"
  top: "inception_4b/3x3_reduce"
}
layer {
  name: "inception_4b/3x3"
  type: "Convolution"
  bottom: "inception_4b/3x3_reduce"
  top: "inception_4b/3x3"
  param {
    lr_mult: 1
    decay_mult: 1
  }
  param {
    lr_mult: 2
    decay_mult: 0
  }
  convolution_param {
    num_output: 224
    pad: 1
    kernel_size: 3
    weight_filler {
      type: "xavier"
      std: 0.03
    }
    bias_filler {
      type: "constant"
      value: 0.2
    }
  }
}
layer {
  name: "inception_4b/relu_3x3"
  type: "ReLU"
  bottom: "inception_4b/3x3"
  top: "inception_4b/3x3"
}
layer {
  name: "inception_4b/5x5_reduce"
  type: "Convolution"
  bottom: "inception_4a/output"
  top: "inception_4b/5x5_reduce"
  param {
    lr_mult: 1
    decay_mult: 1
  }
  param {
    lr_mult: 2
    decay_mult: 0
  }
  convolution_param {
    num_output: 24
    kernel_size: 1
    weight_filler {
      type: "xavier"
      std: 0.2
    }
    bias_filler {
      type: "constant"
      value: 0.2
    }
  }
}
layer {
  name: "inception_4b/relu_5x5_reduce"
  type: "ReLU"
  bottom: "inception_4b/5x5_reduce"
  top: "inception_4b/5x5_reduce"
}
layer {
  name: "inception_4b/5x5"
  type: "Convolution"
  bottom: "inception_4b/5x5_reduce"
  top: "inception_4b/5x5"
  param {
    lr_mult: 1
    decay_mult: 1
  }
  param {
    lr_mult: 2
    decay_mult: 0
  }
  convolution_param {
    num_output: 64
    pad: 2
    kernel_size: 5
    weight_filler {
      type: "xavier"
      std: 0.03
    }
    bias_filler {
      type: "constant"
      value: 0.2
    }
  }
}
layer {
  name: "inception_4b/relu_5x5"
  type: "ReLU"
  bottom: "inception_4b/5x5"
  top: "inception_4b/5x5"
}
layer {
  name: "inception_4b/pool"
  type: "Pooling"
  bottom: "inception_4a/output"
  top: "inception_4b/pool"
  pooling_param {
    pool: MAX
    kernel_size: 3
    stride: 1
    pad: 1
  }
}
layer {
  name: "inception_4b/pool_proj"
  type: "Convolution"
  bottom: "inception_4b/pool"
  top: "inception_4b/pool_proj"
  param {
    lr_mult: 1
    decay_mult: 1
  }
  param {
    lr_mult: 2
    decay_mult: 0
  }
  convolution_param {
    num_output: 64
    kernel_size: 1
    weight_filler {
      type: "xavier"
      std: 0.1
    }
    bias_filler {
      type: "constant"
      value: 0.2
    }
  }
}
layer {
  name: "inception_4b/relu_pool_proj"
  type: "ReLU"
  bottom: "inception_4b/pool_proj"
  top: "inception_4b/pool_proj"
}
layer {
  name: "inception_4b/output"
  type: "Concat"
  bottom: "inception_4b/1x1"
  bottom: "inception_4b/3x3"
  bottom: "inception_4b/5x5"
  bottom: "inception_4b/pool_proj"
  top: "inception_4b/output"
}
layer {
  name: "inception_4c/1x1"
  type: "Convolution"
  bottom: "inception_4b/output"
  top: "inception_4c/1x1"
  param {
    lr_mult: 1
    decay_mult: 1
  }
  param {
    lr_mult: 2
    decay_mult: 0
  }
  convolution_param {
    num_output: 128
    kernel_size: 1
    weight_filler {
      type: "xavier"
      std: 0.03
    }
    bias_filler {
      type: "constant"
      value: 0.2
    }
  }
}
layer {
  name: "inception_4c/relu_1x1"
  type: "ReLU"
  bottom: "inception_4c/1x1"
  top: "inception_4c/1x1"
}
layer {
  name: "inception_4c/3x3_reduce"
  type: "Convolution"
  bottom: "inception_4b/output"
  top: "inception_4c/3x3_reduce"
  param {
    lr_mult: 1
    decay_mult: 1
  }
  param {
    lr_mult: 2
    decay_mult: 0
  }
  convolution_param {
    num_output: 128
    kernel_size: 1
    weight_filler {
      type: "xavier"
      std: 0.09
    }
    bias_filler {
      type: "constant"
      value: 0.2
    }
  }
}
layer {
  name: "inception_4c/relu_3x3_reduce"
  type: "ReLU"
  bottom: "inception_4c/3x3_reduce"
  top: "inception_4c/3x3_reduce"
}
layer {
  name: "inception_4c/3x3"
  type: "Convolution"
  bottom: "inception_4c/3x3_reduce"
  top: "inception_4c/3x3"
  param {
    lr_mult: 1
    decay_mult: 1
  }
  param {
    lr_mult: 2
    decay_mult: 0
  }
  convolution_param {
    num_output: 256
    pad: 1
    kernel_size: 3
    weight_filler {
      type: "xavier"
      std: 0.03
    }
    bias_filler {
      type: "constant"
      value: 0.2
    }
  }
}
layer {
  name: "inception_4c/relu_3x3"
  type: "ReLU"
  bottom: "inception_4c/3x3"
  top: "inception_4c/3x3"
}
layer {
  name: "inception_4c/5x5_reduce"
  type: "Convolution"
  bottom: "inception_4b/output"
  top: "inception_4c/5x5_reduce"
  param {
    lr_mult: 1
    decay_mult: 1
  }
  param {
    lr_mult: 2
    decay_mult: 0
  }
  convolution_param {
    num_output: 24
    kernel_size: 1
    weight_filler {
      type: "xavier"
      std: 0.2
    }
    bias_filler {
      type: "constant"
      value: 0.2
    }
  }
}
layer {
  name: "inception_4c/relu_5x5_reduce"
  type: "ReLU"
  bottom: "inception_4c/5x5_reduce"
  top: "inception_4c/5x5_reduce"
}
layer {
  name: "inception_4c/5x5"
  type: "Convolution"
  bottom: "inception_4c/5x5_reduce"
  top: "inception_4c/5x5"
  param {
    lr_mult: 1
    decay_mult: 1
  }
  param {
    lr_mult: 2
    decay_mult: 0
  }
  convolution_param {
    num_output: 64
    pad: 2
    kernel_size: 5
    weight_filler {
      type: "xavier"
      std: 0.03
    }
    bias_filler {
      type: "constant"
      value: 0.2
    }
  }
}
layer {
  name: "inception_4c/relu_5x5"
  type: "ReLU"
  bottom: "inception_4c/5x5"
  top: "inception_4c/5x5"
}
layer {
  name: "inception_4c/pool"
  type: "Pooling"
  bottom: "inception_4b/output"
  top: "inception_4c/pool"
  pooling_param {
    pool: MAX
    kernel_size: 3
    stride: 1
    pad: 1
  }
}
layer {
  name: "inception_4c/pool_proj"
  type: "Convolution"
  bottom: "inception_4c/pool"
  top: "inception_4c/pool_proj"
  param {
    lr_mult: 1
    decay_mult: 1
  }
  param {
    lr_mult: 2
    decay_mult: 0
  }
  convolution_param {
    num_output: 64
    kernel_size: 1
    weight_filler {
      type: "xavier"
      std: 0.1
    }
    bias_filler {
      type: "constant"
      value: 0.2
    }
  }
}
layer {
  name: "inception_4c/relu_pool_proj"
  type: "ReLU"
  bottom: "inception_4c/pool_proj"
  top: "inception_4c/pool_proj"
}
layer {
  name: "inception_4c/output"
  type: "Concat"
  bottom: "inception_4c/1x1"
  bottom: "inception_4c/3x3"
  bottom: "inception_4c/5x5"
  bottom: "inception_4c/pool_proj"
  top: "inception_4c/output"
}
layer {
  name: "inception_4d/1x1"
  type: "Convolution"
  bottom: "inception_4c/output"
  top: "inception_4d/1x1"
  param {
    lr_mult: 1
    decay_mult: 1
  }
  param {
    lr_mult: 2
    decay_mult: 0
  }
  convolution_param {
    num_output: 112
    kernel_size: 1
    weight_filler {
      type: "xavier"
      std: 0.03
    }
    bias_filler {
      type: "constant"
      value: 0.2
    }
  }
}
layer {
  name: "inception_4d/relu_1x1"
  type: "ReLU"
  bottom: "inception_4d/1x1"
  top: "inception_4d/1x1"
}
layer {
  name: "inception_4d/3x3_reduce"
  type: "Convolution"
  bottom: "inception_4c/output"
  top: "inception_4d/3x3_reduce"
  param {
    lr_mult: 1
    decay_mult: 1
  }
  param {
    lr_mult: 2
    decay_mult: 0
  }
  convolution_param {
    num_output: 144
    kernel_size: 1
    weight_filler {
      type: "xavier"
      std: 0.09
    }
    bias_filler {
      type: "constant"
      value: 0.2
    }
  }
}
layer {
  name: "inception_4d/relu_3x3_reduce"
  type: "ReLU"
  bottom: "inception_4d/3x3_reduce"
  top: "inception_4d/3x3_reduce"
}
layer {
  name: "inception_4d/3x3"
  type: "Convolution"
  bottom: "inception_4d/3x3_reduce"
  top: "inception_4d/3x3"
  param {
    lr_mult: 1
    decay_mult: 1
  }
  param {
    lr_mult: 2
    decay_mult: 0
  }
  convolution_param {
    num_output: 288
    pad: 1
    kernel_size: 3
    weight_filler {
      type: "xavier"
      std: 0.03
    }
    bias_filler {
      type: "constant"
      value: 0.2
    }
  }
}
layer {
  name: "inception_4d/relu_3x3"
  type: "ReLU"
  bottom: "inception_4d/3x3"
  top: "inception_4d/3x3"
}
layer {
  name: "inception_4d/5x5_reduce"
  type: "Convolution"
  bottom: "inception_4c/output"
  top: "inception_4d/5x5_reduce"
  param {
    lr_mult: 1
    decay_mult: 1
  }
  param {
    lr_mult: 2
    decay_mult: 0
  }
  convolution_param {
    num_output: 32
    kernel_size: 1
    weight_filler {
      type: "xavier"
      std: 0.2
    }
    bias_filler {
      type: "constant"
      value: 0.2
    }
  }
}
layer {
  name: "inception_4d/relu_5x5_reduce"
  type: "ReLU"
  bottom: "inception_4d/5x5_reduce"
  top: "inception_4d/5x5_reduce"
}
layer {
  name: "inception_4d/5x5"
  type: "Convolution"
  bottom: "inception_4d/5x5_reduce"
  top: "inception_4d/5x5"
  param {
    lr_mult: 1
    decay_mult: 1
  }
  param {
    lr_mult: 2
    decay_mult: 0
  }
  convolution_param {
    num_output: 64
    pad: 2
    kernel_size: 5
    weight_filler {
      type: "xavier"
      std: 0.03
    }
    bias_filler {
      type: "constant"
      value: 0.2
    }
  }
}
layer {
  name: "inception_4d/relu_5x5"
  type: "ReLU"
  bottom: "inception_4d/5x5"
  top: "inception_4d/5x5"
}
layer {
  name: "inception_4d/pool"
  type: "Pooling"
  bottom: "inception_4c/output"
  top: "inception_4d/pool"
  pooling_param {
    pool: MAX
    kernel_size: 3
    stride: 1
    pad: 1
  }
}
layer {
  name: "inception_4d/pool_proj"
  type: "Convolution"
  bottom: "inception_4d/pool"
  top: "inception_4d/pool_proj"
  param {
    lr_mult: 1
    decay_mult: 1
  }
  param {
    lr_mult: 2
    decay_mult: 0
  }
  convolution_param {
    num_output: 64
    kernel_size: 1
    weight_filler {
      type: "xavier"
      std: 0.1
    }
    bias_filler {
      type: "constant"
      value: 0.2
    }
  }
}
layer {
  name: "inception_4d/relu_pool_proj"
  type: "ReLU"
  bottom: "inception_4d/pool_proj"
  top: "inception_4d/pool_proj"
}
layer {
  name: "inception_4d/output"
  type: "Concat"
  bottom: "inception_4d/1x1"
  bottom: "inception_4d/3x3"
  bottom: "inception_4d/5x5"
  bottom: "inception_4d/pool_proj"
  top: "inception_4d/output"
}
layer {
  name: "loss2/ave_pool"
  type: "Pooling"
  bottom: "inception_4d/output"
  top: "loss2/ave_pool"
  pooling_param {
    pool: AVE
    kernel_size: 5
    stride: 3
  }
}
layer {
  name: "loss2/conv"
  type: "Convolution"
  bottom: "loss2/ave_pool"
  top: "loss2/conv"
  param {
    lr_mult: 1
    decay_mult: 1
  }
  param {
    lr_mult: 2
    decay_mult: 0
  }
  convolution_param {
    num_output: 128
    kernel_size: 1
    weight_filler {
      type: "xavier"
      std: 0.08
    }
    bias_filler {
      type: "constant"
      value: 0.2
    }
  }
}
layer {
  name: "loss2/relu_conv"
  type: "ReLU"
  bottom: "loss2/conv"
  top: "loss2/conv"
}
layer {
  name: "loss2/fc"
  type: "InnerProduct"
  bottom: "loss2/conv"
  top: "loss2/fc"
  param {
    lr_mult: 1
    decay_mult: 1
  }
  param {
    lr_mult: 2
    decay_mult: 0
  }
  inner_product_param {
    num_output: 1024
    weight_filler {
      type: "xavier"
      std: 0.02
    }
    bias_filler {
      type: "constant"
      value: 0.2
    }
  }
}
layer {
  name: "loss2/relu_fc"
  type: "ReLU"
  bottom: "loss2/fc"
  top: "loss2/fc"
}
layer {
  name: "loss2/drop_fc"
  type: "Dropout"
  bottom: "loss2/fc"
  top: "loss2/fc"
  dropout_param {
    dropout_ratio: 0.7
  }
}
layer {
  name: "loss2/classifier_plantvillage"
  type: "InnerProduct"
  bottom: "loss2/fc"
  top: "loss2/classifier_plantvillage"
  param {
    lr_mult: 1
    decay_mult: 1
  }
  param {
    lr_mult: 2
    decay_mult: 0
  }
  inner_product_param {
    num_output: 38
    weight_filler {
      type: "xavier"
      std: 0.0009765625
    }
    bias_filler {
      type: "constant"
      value: 0
    }
  }
}
layer {
  name: "inception_4e/1x1"
  type: "Convolution"
  bottom: "inception_4d/output"
  top: "inception_4e/1x1"
  param {
    lr_mult: 1
    decay_mult: 1
  }
  param {
    lr_mult: 2
    decay_mult: 0
  }
  convolution_param {
    num_output: 256
    kernel_size: 1
    weight_filler {
      type: "xavier"
      std: 0.03
    }
    bias_filler {
      type: "constant"
      value: 0.2
    }
  }
}
layer {
  name: "inception_4e/relu_1x1"
  type: "ReLU"
  bottom: "inception_4e/1x1"
  top: "inception_4e/1x1"
}
layer {
  name: "inception_4e/3x3_reduce"
  type: "Convolution"
  bottom: "inception_4d/output"
  top: "inception_4e/3x3_reduce"
  param {
    lr_mult: 1
    decay_mult: 1
  }
  param {
    lr_mult: 2
    decay_mult: 0
  }
  convolution_param {
    num_output: 160
    kernel_size: 1
    weight_filler {
      type: "xavier"
      std: 0.09
    }
    bias_filler {
      type: "constant"
      value: 0.2
    }
  }
}
layer {
  name: "inception_4e/relu_3x3_reduce"
  type: "ReLU"
  bottom: "inception_4e/3x3_reduce"
  top: "inception_4e/3x3_reduce"
}
layer {
  name: "inception_4e/3x3"
  type: "Convolution"
  bottom: "inception_4e/3x3_reduce"
  top: "inception_4e/3x3"
  param {
    lr_mult: 1
    decay_mult: 1
  }
  param {
    lr_mult: 2
    decay_mult: 0
  }
  convolution_param {
    num_output: 320
    pad: 1
    kernel_size: 3
    weight_filler {
      type: "xavier"
      std: 0.03
    }
    bias_filler {
      type: "constant"
      value: 0.2
    }
  }
}
layer {
  name: "inception_4e/relu_3x3"
  type: "ReLU"
  bottom: "inception_4e/3x3"
  top: "inception_4e/3x3"
}
layer {
  name: "inception_4e/5x5_reduce"
  type: "Convolution"
  bottom: "inception_4d/output"
  top: "inception_4e/5x5_reduce"
  param {
    lr_mult: 1
    decay_mult: 1
  }
  param {
    lr_mult: 2
    decay_mult: 0
  }
  convolution_param {
    num_output: 32
    kernel_size: 1
    weight_filler {
      type: "xavier"
      std: 0.2
    }
    bias_filler {
      type: "constant"
      value: 0.2
    }
  }
}
layer {
  name: "inception_4e/relu_5x5_reduce"
  type: "ReLU"
  bottom: "inception_4e/5x5_reduce"
  top: "inception_4e/5x5_reduce"
}
layer {
  name: "inception_4e/5x5"
  type: "Convolution"
  bottom: "inception_4e/5x5_reduce"
  top: "inception_4e/5x5"
  p
I0403 14:57:24.800671 13799 layer_factory.hpp:77] Creating layer data
I0403 14:57:24.801463 13799 net.cpp:91] Creating Layer data
I0403 14:57:24.801494 13799 net.cpp:399] data -> data
I0403 14:57:24.801550 13799 net.cpp:399] data -> label
I0403 14:57:24.802163 13799 data_transformer.cpp:25] Loading mean file from: /home/mohanty/data/final_dataset/lmdb/color-40-60/mean.binaryproto
I0403 14:57:24.901613 13802 db_lmdb.cpp:38] Opened lmdb /home/mohanty/data/final_dataset/lmdb/color-40-60/test_db
I0403 14:57:24.907260 13799 data_layer.cpp:41] output data size: 24,3,224,224
I0403 14:57:24.937862 13799 net.cpp:141] Setting up data
I0403 14:57:24.937938 13799 net.cpp:148] Top shape: 24 3 224 224 (3612672)
I0403 14:57:24.937960 13799 net.cpp:148] Top shape: 24 (24)
I0403 14:57:24.937975 13799 net.cpp:156] Memory required for data: 14450784
I0403 14:57:24.938001 13799 layer_factory.hpp:77] Creating layer label_data_1_split
I0403 14:57:24.938027 13799 net.cpp:91] Creating Layer label_data_1_split
I0403 14:57:24.938045 13799 net.cpp:425] label_data_1_split <- label
I0403 14:57:24.938076 13799 net.cpp:399] label_data_1_split -> label_data_1_split_0
I0403 14:57:24.938103 13799 net.cpp:399] label_data_1_split -> label_data_1_split_1
I0403 14:57:24.938125 13799 net.cpp:399] label_data_1_split -> label_data_1_split_2
I0403 14:57:24.938146 13799 net.cpp:399] label_data_1_split -> label_data_1_split_3
I0403 14:57:24.938166 13799 net.cpp:399] label_data_1_split -> label_data_1_split_4
I0403 14:57:24.938185 13799 net.cpp:399] label_data_1_split -> label_data_1_split_5
I0403 14:57:24.938205 13799 net.cpp:399] label_data_1_split -> label_data_1_split_6
I0403 14:57:24.938225 13799 net.cpp:399] label_data_1_split -> label_data_1_split_7
I0403 14:57:24.938244 13799 net.cpp:399] label_data_1_split -> label_data_1_split_8
I0403 14:57:24.938263 13799 net.cpp:399] label_data_1_split -> label_data_1_split_9
I0403 14:57:24.938376 13799 net.cpp:141] Setting up label_data_1_split
I0403 14:57:24.938400 13799 net.cpp:148] Top shape: 24 (24)
I0403 14:57:24.938416 13799 net.cpp:148] Top shape: 24 (24)
I0403 14:57:24.938432 13799 net.cpp:148] Top shape: 24 (24)
I0403 14:57:24.938448 13799 net.cpp:148] Top shape: 24 (24)
I0403 14:57:24.938463 13799 net.cpp:148] Top shape: 24 (24)
I0403 14:57:24.938477 13799 net.cpp:148] Top shape: 24 (24)
I0403 14:57:24.938493 13799 net.cpp:148] Top shape: 24 (24)
I0403 14:57:24.938508 13799 net.cpp:148] Top shape: 24 (24)
I0403 14:57:24.938521 13799 net.cpp:148] Top shape: 24 (24)
I0403 14:57:24.938537 13799 net.cpp:148] Top shape: 24 (24)
I0403 14:57:24.938596 13799 net.cpp:156] Memory required for data: 14451744
I0403 14:57:24.938611 13799 layer_factory.hpp:77] Creating layer conv1/7x7_s2
I0403 14:57:24.938642 13799 net.cpp:91] Creating Layer conv1/7x7_s2
I0403 14:57:24.938663 13799 net.cpp:425] conv1/7x7_s2 <- data
I0403 14:57:24.938683 13799 net.cpp:399] conv1/7x7_s2 -> conv1/7x7_s2
I0403 14:57:25.073231 13799 net.cpp:141] Setting up conv1/7x7_s2
I0403 14:57:25.073307 13799 net.cpp:148] Top shape: 24 64 112 112 (19267584)
I0403 14:57:25.073324 13799 net.cpp:156] Memory required for data: 91522080
I0403 14:57:25.073354 13799 layer_factory.hpp:77] Creating layer conv1/relu_7x7
I0403 14:57:25.073381 13799 net.cpp:91] Creating Layer conv1/relu_7x7
I0403 14:57:25.073400 13799 net.cpp:425] conv1/relu_7x7 <- conv1/7x7_s2
I0403 14:57:25.073417 13799 net.cpp:386] conv1/relu_7x7 -> conv1/7x7_s2 (in-place)
I0403 14:57:25.073705 13799 net.cpp:141] Setting up conv1/relu_7x7
I0403 14:57:25.073730 13799 net.cpp:148] Top shape: 24 64 112 112 (19267584)
I0403 14:57:25.073746 13799 net.cpp:156] Memory required for data: 168592416
I0403 14:57:25.073760 13799 layer_factory.hpp:77] Creating layer pool1/3x3_s2
I0403 14:57:25.073784 13799 net.cpp:91] Creating Layer pool1/3x3_s2
I0403 14:57:25.073801 13799 net.cpp:425] pool1/3x3_s2 <- conv1/7x7_s2
I0403 14:57:25.073818 13799 net.cpp:399] pool1/3x3_s2 -> pool1/3x3_s2
I0403 14:57:25.073889 13799 net.cpp:141] Setting up pool1/3x3_s2
I0403 14:57:25.073911 13799 net.cpp:148] Top shape: 24 64 56 56 (4816896)
I0403 14:57:25.073926 13799 net.cpp:156] Memory required for data: 187860000
I0403 14:57:25.073940 13799 layer_factory.hpp:77] Creating layer pool1/norm1
I0403 14:57:25.073963 13799 net.cpp:91] Creating Layer pool1/norm1
I0403 14:57:25.073981 13799 net.cpp:425] pool1/norm1 <- pool1/3x3_s2
I0403 14:57:25.073997 13799 net.cpp:399] pool1/norm1 -> pool1/norm1
I0403 14:57:25.074267 13799 net.cpp:141] Setting up pool1/norm1
I0403 14:57:25.074293 13799 net.cpp:148] Top shape: 24 64 56 56 (4816896)
I0403 14:57:25.074308 13799 net.cpp:156] Memory required for data: 207127584
I0403 14:57:25.074322 13799 layer_factory.hpp:77] Creating layer conv2/3x3_reduce
I0403 14:57:25.074345 13799 net.cpp:91] Creating Layer conv2/3x3_reduce
I0403 14:57:25.074362 13799 net.cpp:425] conv2/3x3_reduce <- pool1/norm1
I0403 14:57:25.074378 13799 net.cpp:399] conv2/3x3_reduce -> conv2/3x3_reduce
I0403 14:57:25.075712 13799 net.cpp:141] Setting up conv2/3x3_reduce
I0403 14:57:25.075741 13799 net.cpp:148] Top shape: 24 64 56 56 (4816896)
I0403 14:57:25.075755 13799 net.cpp:156] Memory required for data: 226395168
I0403 14:57:25.075775 13799 layer_factory.hpp:77] Creating layer conv2/relu_3x3_reduce
I0403 14:57:25.075793 13799 net.cpp:91] Creating Layer conv2/relu_3x3_reduce
I0403 14:57:25.075809 13799 net.cpp:425] conv2/relu_3x3_reduce <- conv2/3x3_reduce
I0403 14:57:25.075824 13799 net.cpp:386] conv2/relu_3x3_reduce -> conv2/3x3_reduce (in-place)
I0403 14:57:25.076063 13799 net.cpp:141] Setting up conv2/relu_3x3_reduce
I0403 14:57:25.076088 13799 net.cpp:148] Top shape: 24 64 56 56 (4816896)
I0403 14:57:25.076103 13799 net.cpp:156] Memory required for data: 245662752
I0403 14:57:25.076117 13799 layer_factory.hpp:77] Creating layer conv2/3x3
I0403 14:57:25.076138 13799 net.cpp:91] Creating Layer conv2/3x3
I0403 14:57:25.076154 13799 net.cpp:425] conv2/3x3 <- conv2/3x3_reduce
I0403 14:57:25.076172 13799 net.cpp:399] conv2/3x3 -> conv2/3x3
I0403 14:57:25.078399 13799 net.cpp:141] Setting up conv2/3x3
I0403 14:57:25.078428 13799 net.cpp:148] Top shape: 24 192 56 56 (14450688)
I0403 14:57:25.078443 13799 net.cpp:156] Memory required for data: 303465504
I0403 14:57:25.078466 13799 layer_factory.hpp:77] Creating layer conv2/relu_3x3
I0403 14:57:25.078485 13799 net.cpp:91] Creating Layer conv2/relu_3x3
I0403 14:57:25.078500 13799 net.cpp:425] conv2/relu_3x3 <- conv2/3x3
I0403 14:57:25.078517 13799 net.cpp:386] conv2/relu_3x3 -> conv2/3x3 (in-place)
I0403 14:57:25.078711 13799 net.cpp:141] Setting up conv2/relu_3x3
I0403 14:57:25.078737 13799 net.cpp:148] Top shape: 24 192 56 56 (14450688)
I0403 14:57:25.078783 13799 net.cpp:156] Memory required for data: 361268256
I0403 14:57:25.078799 13799 layer_factory.hpp:77] Creating layer conv2/norm2
I0403 14:57:25.078815 13799 net.cpp:91] Creating Layer conv2/norm2
I0403 14:57:25.078835 13799 net.cpp:425] conv2/norm2 <- conv2/3x3
I0403 14:57:25.078852 13799 net.cpp:399] conv2/norm2 -> conv2/norm2
I0403 14:57:25.079143 13799 net.cpp:141] Setting up conv2/norm2
I0403 14:57:25.079169 13799 net.cpp:148] Top shape: 24 192 56 56 (14450688)
I0403 14:57:25.079183 13799 net.cpp:156] Memory required for data: 419071008
I0403 14:57:25.079197 13799 layer_factory.hpp:77] Creating layer pool2/3x3_s2
I0403 14:57:25.079215 13799 net.cpp:91] Creating Layer pool2/3x3_s2
I0403 14:57:25.079236 13799 net.cpp:425] pool2/3x3_s2 <- conv2/norm2
I0403 14:57:25.079253 13799 net.cpp:399] pool2/3x3_s2 -> pool2/3x3_s2
I0403 14:57:25.079304 13799 net.cpp:141] Setting up pool2/3x3_s2
I0403 14:57:25.079326 13799 net.cpp:148] Top shape: 24 192 28 28 (3612672)
I0403 14:57:25.079340 13799 net.cpp:156] Memory required for data: 433521696
I0403 14:57:25.079355 13799 layer_factory.hpp:77] Creating layer pool2/3x3_s2_pool2/3x3_s2_0_split
I0403 14:57:25.079371 13799 net.cpp:91] Creating Layer pool2/3x3_s2_pool2/3x3_s2_0_split
I0403 14:57:25.079385 13799 net.cpp:425] pool2/3x3_s2_pool2/3x3_s2_0_split <- pool2/3x3_s2
I0403 14:57:25.079403 13799 net.cpp:399] pool2/3x3_s2_pool2/3x3_s2_0_split -> pool2/3x3_s2_pool2/3x3_s2_0_split_0
I0403 14:57:25.079423 13799 net.cpp:399] pool2/3x3_s2_pool2/3x3_s2_0_split -> pool2/3x3_s2_pool2/3x3_s2_0_split_1
I0403 14:57:25.079442 13799 net.cpp:399] pool2/3x3_s2_pool2/3x3_s2_0_split -> pool2/3x3_s2_pool2/3x3_s2_0_split_2
I0403 14:57:25.079460 13799 net.cpp:399] pool2/3x3_s2_pool2/3x3_s2_0_split -> pool2/3x3_s2_pool2/3x3_s2_0_split_3
I0403 14:57:25.079526 13799 net.cpp:141] Setting up pool2/3x3_s2_pool2/3x3_s2_0_split
I0403 14:57:25.079548 13799 net.cpp:148] Top shape: 24 192 28 28 (3612672)
I0403 14:57:25.079563 13799 net.cpp:148] Top shape: 24 192 28 28 (3612672)
I0403 14:57:25.079583 13799 net.cpp:148] Top shape: 24 192 28 28 (3612672)
I0403 14:57:25.079598 13799 net.cpp:148] Top shape: 24 192 28 28 (3612672)
I0403 14:57:25.079612 13799 net.cpp:156] Memory required for data: 491324448
I0403 14:57:25.079624 13799 layer_factory.hpp:77] Creating layer inception_3a/1x1
I0403 14:57:25.079648 13799 net.cpp:91] Creating Layer inception_3a/1x1
I0403 14:57:25.079663 13799 net.cpp:425] inception_3a/1x1 <- pool2/3x3_s2_pool2/3x3_s2_0_split_0
I0403 14:57:25.079681 13799 net.cpp:399] inception_3a/1x1 -> inception_3a/1x1
I0403 14:57:25.081177 13799 net.cpp:141] Setting up inception_3a/1x1
I0403 14:57:25.081207 13799 net.cpp:148] Top shape: 24 64 28 28 (1204224)
I0403 14:57:25.081221 13799 net.cpp:156] Memory required for data: 496141344
I0403 14:57:25.081239 13799 layer_factory.hpp:77] Creating layer inception_3a/relu_1x1
I0403 14:57:25.081259 13799 net.cpp:91] Creating Layer inception_3a/relu_1x1
I0403 14:57:25.081275 13799 net.cpp:425] inception_3a/relu_1x1 <- inception_3a/1x1
I0403 14:57:25.081291 13799 net.cpp:386] inception_3a/relu_1x1 -> inception_3a/1x1 (in-place)
I0403 14:57:25.081454 13799 net.cpp:141] Setting up inception_3a/relu_1x1
I0403 14:57:25.081480 13799 net.cpp:148] Top shape: 24 64 28 28 (1204224)
I0403 14:57:25.081496 13799 net.cpp:156] Memory required for data: 500958240
I0403 14:57:25.081509 13799 layer_factory.hpp:77] Creating layer inception_3a/3x3_reduce
I0403 14:57:25.081531 13799 net.cpp:91] Creating Layer inception_3a/3x3_reduce
I0403 14:57:25.081547 13799 net.cpp:425] inception_3a/3x3_reduce <- pool2/3x3_s2_pool2/3x3_s2_0_split_1
I0403 14:57:25.081564 13799 net.cpp:399] inception_3a/3x3_reduce -> inception_3a/3x3_reduce
I0403 14:57:25.083246 13799 net.cpp:141] Setting up inception_3a/3x3_reduce
I0403 14:57:25.083276 13799 net.cpp:148] Top shape: 24 96 28 28 (1806336)
I0403 14:57:25.083293 13799 net.cpp:156] Memory required for data: 508183584
I0403 14:57:25.083317 13799 layer_factory.hpp:77] Creating layer inception_3a/relu_3x3_reduce
I0403 14:57:25.083350 13799 net.cpp:91] Creating Layer inception_3a/relu_3x3_reduce
I0403 14:57:25.083367 13799 net.cpp:425] inception_3a/relu_3x3_reduce <- inception_3a/3x3_reduce
I0403 14:57:25.083384 13799 net.cpp:386] inception_3a/relu_3x3_reduce -> inception_3a/3x3_reduce (in-place)
I0403 14:57:25.083556 13799 net.cpp:141] Setting up inception_3a/relu_3x3_reduce
I0403 14:57:25.083595 13799 net.cpp:148] Top shape: 24 96 28 28 (1806336)
I0403 14:57:25.083609 13799 net.cpp:156] Memory required for data: 515408928
I0403 14:57:25.083622 13799 layer_factory.hpp:77] Creating layer inception_3a/3x3
I0403 14:57:25.083645 13799 net.cpp:91] Creating Layer inception_3a/3x3
I0403 14:57:25.083662 13799 net.cpp:425] inception_3a/3x3 <- inception_3a/3x3_reduce
I0403 14:57:25.083683 13799 net.cpp:399] inception_3a/3x3 -> inception_3a/3x3
I0403 14:57:25.085283 13799 net.cpp:141] Setting up inception_3a/3x3
I0403 14:57:25.085310 13799 net.cpp:148] Top shape: 24 128 28 28 (2408448)
I0403 14:57:25.085325 13799 net.cpp:156] Memory required for data: 525042720
I0403 14:57:25.085343 13799 layer_factory.hpp:77] Creating layer inception_3a/relu_3x3
I0403 14:57:25.085362 13799 net.cpp:91] Creating Layer inception_3a/relu_3x3
I0403 14:57:25.085378 13799 net.cpp:425] inception_3a/relu_3x3 <- inception_3a/3x3
I0403 14:57:25.085394 13799 net.cpp:386] inception_3a/relu_3x3 -> inception_3a/3x3 (in-place)
I0403 14:57:25.085667 13799 net.cpp:141] Setting up inception_3a/relu_3x3
I0403 14:57:25.085693 13799 net.cpp:148] Top shape: 24 128 28 28 (2408448)
I0403 14:57:25.085708 13799 net.cpp:156] Memory required for data: 534676512
I0403 14:57:25.085722 13799 layer_factory.hpp:77] Creating layer inception_3a/5x5_reduce
I0403 14:57:25.085744 13799 net.cpp:91] Creating Layer inception_3a/5x5_reduce
I0403 14:57:25.085762 13799 net.cpp:425] inception_3a/5x5_reduce <- pool2/3x3_s2_pool2/3x3_s2_0_split_2
I0403 14:57:25.085779 13799 net.cpp:399] inception_3a/5x5_reduce -> inception_3a/5x5_reduce
I0403 14:57:25.086701 13799 net.cpp:141] Setting up inception_3a/5x5_reduce
I0403 14:57:25.086730 13799 net.cpp:148] Top shape: 24 16 28 28 (301056)
I0403 14:57:25.086746 13799 net.cpp:156] Memory required for data: 535880736
I0403 14:57:25.086765 13799 layer_factory.hpp:77] Creating layer inception_3a/relu_5x5_reduce
I0403 14:57:25.086782 13799 net.cpp:91] Creating Layer inception_3a/relu_5x5_reduce
I0403 14:57:25.086797 13799 net.cpp:425] inception_3a/relu_5x5_reduce <- inception_3a/5x5_reduce
I0403 14:57:25.086817 13799 net.cpp:386] inception_3a/relu_5x5_reduce -> inception_3a/5x5_reduce (in-place)
I0403 14:57:25.087100 13799 net.cpp:141] Setting up inception_3a/relu_5x5_reduce
I0403 14:57:25.087126 13799 net.cpp:148] Top shape: 24 16 28 28 (301056)
I0403 14:57:25.087141 13799 net.cpp:156] Memory required for data: 537084960
I0403 14:57:25.087155 13799 layer_factory.hpp:77] Creating layer inception_3a/5x5
I0403 14:57:25.087175 13799 net.cpp:91] Creating Layer inception_3a/5x5
I0403 14:57:25.087193 13799 net.cpp:425] inception_3a/5x5 <- inception_3a/5x5_reduce
I0403 14:57:25.087210 13799 net.cpp:399] inception_3a/5x5 -> inception_3a/5x5
I0403 14:57:25.088181 13799 net.cpp:141] Setting up inception_3a/5x5
I0403 14:57:25.088207 13799 net.cpp:148] Top shape: 24 32 28 28 (602112)
I0403 14:57:25.088222 13799 net.cpp:156] Memory required for data: 539493408
I0403 14:57:25.088238 13799 layer_factory.hpp:77] Creating layer inception_3a/relu_5x5
I0403 14:57:25.088258 13799 net.cpp:91] Creating Layer inception_3a/relu_5x5
I0403 14:57:25.088274 13799 net.cpp:425] inception_3a/relu_5x5 <- inception_3a/5x5
I0403 14:57:25.088290 13799 net.cpp:386] inception_3a/relu_5x5 -> inception_3a/5x5 (in-place)
I0403 14:57:25.088457 13799 net.cpp:141] Setting up inception_3a/relu_5x5
I0403 14:57:25.088484 13799 net.cpp:148] Top shape: 24 32 28 28 (602112)
I0403 14:57:25.088498 13799 net.cpp:156] Memory required for data: 541901856
I0403 14:57:25.088511 13799 layer_factory.hpp:77] Creating layer inception_3a/pool
I0403 14:57:25.088528 13799 net.cpp:91] Creating Layer inception_3a/pool
I0403 14:57:25.088543 13799 net.cpp:425] inception_3a/pool <- pool2/3x3_s2_pool2/3x3_s2_0_split_3
I0403 14:57:25.088582 13799 net.cpp:399] inception_3a/pool -> inception_3a/pool
I0403 14:57:25.088639 13799 net.cpp:141] Setting up inception_3a/pool
I0403 14:57:25.088661 13799 net.cpp:148] Top shape: 24 192 28 28 (3612672)
I0403 14:57:25.088675 13799 net.cpp:156] Memory required for data: 556352544
I0403 14:57:25.088688 13799 layer_factory.hpp:77] Creating layer inception_3a/pool_proj
I0403 14:57:25.088709 13799 net.cpp:91] Creating Layer inception_3a/pool_proj
I0403 14:57:25.088726 13799 net.cpp:425] inception_3a/pool_proj <- inception_3a/pool
I0403 14:57:25.088747 13799 net.cpp:399] inception_3a/pool_proj -> inception_3a/pool_proj
I0403 14:57:25.089668 13799 net.cpp:141] Setting up inception_3a/pool_proj
I0403 14:57:25.089694 13799 net.cpp:148] Top shape: 24 32 28 28 (602112)
I0403 14:57:25.089709 13799 net.cpp:156] Memory required for data: 558760992
I0403 14:57:25.089731 13799 layer_factory.hpp:77] Creating layer inception_3a/relu_pool_proj
I0403 14:57:25.089751 13799 net.cpp:91] Creating Layer inception_3a/relu_pool_proj
I0403 14:57:25.089766 13799 net.cpp:425] inception_3a/relu_pool_proj <- inception_3a/pool_proj
I0403 14:57:25.089784 13799 net.cpp:386] inception_3a/relu_pool_proj -> inception_3a/pool_proj (in-place)
I0403 14:57:25.090045 13799 net.cpp:141] Setting up inception_3a/relu_pool_proj
I0403 14:57:25.090071 13799 net.cpp:148] Top shape: 24 32 28 28 (602112)
I0403 14:57:25.090085 13799 net.cpp:156] Memory required for data: 561169440
I0403 14:57:25.090101 13799 layer_factory.hpp:77] Creating layer inception_3a/output
I0403 14:57:25.090119 13799 net.cpp:91] Creating Layer inception_3a/output
I0403 14:57:25.090136 13799 net.cpp:425] inception_3a/output <- inception_3a/1x1
I0403 14:57:25.090152 13799 net.cpp:425] inception_3a/output <- inception_3a/3x3
I0403 14:57:25.090167 13799 net.cpp:425] inception_3a/output <- inception_3a/5x5
I0403 14:57:25.090181 13799 net.cpp:425] inception_3a/output <- inception_3a/pool_proj
I0403 14:57:25.090198 13799 net.cpp:399] inception_3a/output -> inception_3a/output
I0403 14:57:25.090243 13799 net.cpp:141] Setting up inception_3a/output
I0403 14:57:25.090267 13799 net.cpp:148] Top shape: 24 256 28 28 (4816896)
I0403 14:57:25.090281 13799 net.cpp:156] Memory required for data: 580437024
I0403 14:57:25.090296 13799 layer_factory.hpp:77] Creating layer inception_3a/output_inception_3a/output_0_split
I0403 14:57:25.090311 13799 net.cpp:91] Creating Layer inception_3a/output_inception_3a/output_0_split
I0403 14:57:25.090324 13799 net.cpp:425] inception_3a/output_inception_3a/output_0_split <- inception_3a/output
I0403 14:57:25.090343 13799 net.cpp:399] inception_3a/output_inception_3a/output_0_split -> inception_3a/output_inception_3a/output_0_split_0
I0403 14:57:25.090363 13799 net.cpp:399] inception_3a/output_inception_3a/output_0_split -> inception_3a/output_inception_3a/output_0_split_1
I0403 14:57:25.090386 13799 net.cpp:399] inception_3a/output_inception_3a/output_0_split -> inception_3a/output_inception_3a/output_0_split_2
I0403 14:57:25.090406 13799 net.cpp:399] inception_3a/output_inception_3a/output_0_split -> inception_3a/output_inception_3a/output_0_split_3
I0403 14:57:25.090476 13799 net.cpp:141] Setting up inception_3a/output_inception_3a/output_0_split
I0403 14:57:25.090497 13799 net.cpp:148] Top shape: 24 256 28 28 (4816896)
I0403 14:57:25.090515 13799 net.cpp:148] Top shape: 24 256 28 28 (4816896)
I0403 14:57:25.090530 13799 net.cpp:148] Top shape: 24 256 28 28 (4816896)
I0403 14:57:25.090544 13799 net.cpp:148] Top shape: 24 256 28 28 (4816896)
I0403 14:57:25.090556 13799 net.cpp:156] Memory required for data: 657507360
I0403 14:57:25.090574 13799 layer_factory.hpp:77] Creating layer inception_3b/1x1
I0403 14:57:25.090595 13799 net.cpp:91] Creating Layer inception_3b/1x1
I0403 14:57:25.090610 13799 net.cpp:425] inception_3b/1x1 <- inception_3a/output_inception_3a/output_0_split_0
I0403 14:57:25.090631 13799 net.cpp:399] inception_3b/1x1 -> inception_3b/1x1
I0403 14:57:25.091712 13799 net.cpp:141] Setting up inception_3b/1x1
I0403 14:57:25.091750 13799 net.cpp:148] Top shape: 24 128 28 28 (2408448)
I0403 14:57:25.091766 13799 net.cpp:156] Memory required for data: 667141152
I0403 14:57:25.091784 13799 layer_factory.hpp:77] Creating layer inception_3b/relu_1x1
I0403 14:57:25.091804 13799 net.cpp:91] Creating Layer inception_3b/relu_1x1
I0403 14:57:25.091820 13799 net.cpp:425] inception_3b/relu_1x1 <- inception_3b/1x1
I0403 14:57:25.091835 13799 net.cpp:386] inception_3b/relu_1x1 -> inception_3b/1x1 (in-place)
I0403 14:57:25.092003 13799 net.cpp:141] Setting up inception_3b/relu_1x1
I0403 14:57:25.092027 13799 net.cpp:148] Top shape: 24 128 28 28 (2408448)
I0403 14:57:25.092041 13799 net.cpp:156] Memory required for data: 676774944
I0403 14:57:25.092054 13799 layer_factory.hpp:77] Creating layer inception_3b/3x3_reduce
I0403 14:57:25.092078 13799 net.cpp:91] Creating Layer inception_3b/3x3_reduce
I0403 14:57:25.092095 13799 net.cpp:425] inception_3b/3x3_reduce <- inception_3a/output_inception_3a/output_0_split_1
I0403 14:57:25.092113 13799 net.cpp:399] inception_3b/3x3_reduce -> inception_3b/3x3_reduce
I0403 14:57:25.093199 13799 net.cpp:141] Setting up inception_3b/3x3_reduce
I0403 14:57:25.093226 13799 net.cpp:148] Top shape: 24 128 28 28 (2408448)
I0403 14:57:25.093240 13799 net.cpp:156] Memory required for data: 686408736
I0403 14:57:25.093258 13799 layer_factory.hpp:77] Creating layer inception_3b/relu_3x3_reduce
I0403 14:57:25.093277 13799 net.cpp:91] Creating Layer inception_3b/relu_3x3_reduce
I0403 14:57:25.093294 13799 net.cpp:425] inception_3b/relu_3x3_reduce <- inception_3b/3x3_reduce
I0403 14:57:25.093309 13799 net.cpp:386] inception_3b/relu_3x3_reduce -> inception_3b/3x3_reduce (in-place)
I0403 14:57:25.093472 13799 net.cpp:141] Setting up inception_3b/relu_3x3_reduce
I0403 14:57:25.093498 13799 net.cpp:148] Top shape: 24 128 28 28 (2408448)
I0403 14:57:25.093513 13799 net.cpp:156] Memory required for data: 696042528
I0403 14:57:25.093528 13799 layer_factory.hpp:77] Creating layer inception_3b/3x3
I0403 14:57:25.093550 13799 net.cpp:91] Creating Layer inception_3b/3x3
I0403 14:57:25.093571 13799 net.cpp:425] inception_3b/3x3 <- inception_3b/3x3_reduce
I0403 14:57:25.093595 13799 net.cpp:399] inception_3b/3x3 -> inception_3b/3x3
I0403 14:57:25.096395 13799 net.cpp:141] Setting up inception_3b/3x3
I0403 14:57:25.096423 13799 net.cpp:148] Top shape: 24 192 28 28 (3612672)
I0403 14:57:25.096438 13799 net.cpp:156] Memory required for data: 710493216
I0403 14:57:25.096456 13799 layer_factory.hpp:77] Creating layer inception_3b/relu_3x3
I0403 14:57:25.096475 13799 net.cpp:91] Creating Layer inception_3b/relu_3x3
I0403 14:57:25.096490 13799 net.cpp:425] inception_3b/relu_3x3 <- inception_3b/3x3
I0403 14:57:25.096508 13799 net.cpp:386] inception_3b/relu_3x3 -> inception_3b/3x3 (in-place)
I0403 14:57:25.096772 13799 net.cpp:141] Setting up inception_3b/relu_3x3
I0403 14:57:25.096798 13799 net.cpp:148] Top shape: 24 192 28 28 (3612672)
I0403 14:57:25.096813 13799 net.cpp:156] Memory required for data: 724943904
I0403 14:57:25.096827 13799 layer_factory.hpp:77] Creating layer inception_3b/5x5_reduce
I0403 14:57:25.096851 13799 net.cpp:91] Creating Layer inception_3b/5x5_reduce
I0403 14:57:25.096868 13799 net.cpp:425] inception_3b/5x5_reduce <- inception_3a/output_inception_3a/output_0_split_2
I0403 14:57:25.096886 13799 net.cpp:399] inception_3b/5x5_reduce -> inception_3b/5x5_reduce
I0403 14:57:25.097837 13799 net.cpp:141] Setting up inception_3b/5x5_reduce
I0403 14:57:25.097864 13799 net.cpp:148] Top shape: 24 32 28 28 (602112)
I0403 14:57:25.097879 13799 net.cpp:156] Memory required for data: 727352352
I0403 14:57:25.097897 13799 layer_factory.hpp:77] Creating layer inception_3b/relu_5x5_reduce
I0403 14:57:25.097916 13799 net.cpp:91] Creating Layer inception_3b/relu_5x5_reduce
I0403 14:57:25.097934 13799 net.cpp:425] inception_3b/relu_5x5_reduce <- inception_3b/5x5_reduce
I0403 14:57:25.097950 13799 net.cpp:386] inception_3b/relu_5x5_reduce -> inception_3b/5x5_reduce (in-place)
I0403 14:57:25.098115 13799 net.cpp:141] Setting up inception_3b/relu_5x5_reduce
I0403 14:57:25.098153 13799 net.cpp:148] Top shape: 24 32 28 28 (602112)
I0403 14:57:25.098168 13799 net.cpp:156] Memory required for data: 729760800
I0403 14:57:25.098182 13799 layer_factory.hpp:77] Creating layer inception_3b/5x5
I0403 14:57:25.098203 13799 net.cpp:91] Creating Layer inception_3b/5x5
I0403 14:57:25.098220 13799 net.cpp:425] inception_3b/5x5 <- inception_3b/5x5_reduce
I0403 14:57:25.098238 13799 net.cpp:399] inception_3b/5x5 -> inception_3b/5x5
I0403 14:57:25.100152 13799 net.cpp:141] Setting up inception_3b/5x5
I0403 14:57:25.100179 13799 net.cpp:148] Top shape: 24 96 28 28 (1806336)
I0403 14:57:25.100194 13799 net.cpp:156] Memory required for data: 736986144
I0403 14:57:25.100211 13799 layer_factory.hpp:77] Creating layer inception_3b/relu_5x5
I0403 14:57:25.100231 13799 net.cpp:91] Creating Layer inception_3b/relu_5x5
I0403 14:57:25.100249 13799 net.cpp:425] inception_3b/relu_5x5 <- inception_3b/5x5
I0403 14:57:25.100265 13799 net.cpp:386] inception_3b/relu_5x5 -> inception_3b/5x5 (in-place)
I0403 14:57:25.100447 13799 net.cpp:141] Setting up inception_3b/relu_5x5
I0403 14:57:25.100471 13799 net.cpp:148] Top shape: 24 96 28 28 (1806336)
I0403 14:57:25.100486 13799 net.cpp:156] Memory required for data: 744211488
I0403 14:57:25.100499 13799 layer_factory.hpp:77] Creating layer inception_3b/pool
I0403 14:57:25.100515 13799 net.cpp:91] Creating Layer inception_3b/pool
I0403 14:57:25.100529 13799 net.cpp:425] inception_3b/pool <- inception_3a/output_inception_3a/output_0_split_3
I0403 14:57:25.100546 13799 net.cpp:399] inception_3b/pool -> inception_3b/pool
I0403 14:57:25.100605 13799 net.cpp:141] Setting up inception_3b/pool
I0403 14:57:25.100627 13799 net.cpp:148] Top shape: 24 256 28 28 (4816896)
I0403 14:57:25.100641 13799 net.cpp:156] Memory required for data: 763479072
I0403 14:57:25.100656 13799 layer_factory.hpp:77] Creating layer inception_3b/pool_proj
I0403 14:57:25.100677 13799 net.cpp:91] Creating Layer inception_3b/pool_proj
I0403 14:57:25.100694 13799 net.cpp:425] inception_3b/pool_proj <- inception_3b/pool
I0403 14:57:25.100714 13799 net.cpp:399] inception_3b/pool_proj -> inception_3b/pool_proj
I0403 14:57:25.101735 13799 net.cpp:141] Setting up inception_3b/pool_proj
I0403 14:57:25.101761 13799 net.cpp:148] Top shape: 24 64 28 28 (1204224)
I0403 14:57:25.101776 13799 net.cpp:156] Memory required for data: 768295968
I0403 14:57:25.101794 13799 layer_factory.hpp:77] Creating layer inception_3b/relu_pool_proj
I0403 14:57:25.101811 13799 net.cpp:91] Creating Layer inception_3b/relu_pool_proj
I0403 14:57:25.101826 13799 net.cpp:425] inception_3b/relu_pool_proj <- inception_3b/pool_proj
I0403 14:57:25.101845 13799 net.cpp:386] inception_3b/relu_pool_proj -> inception_3b/pool_proj (in-place)
I0403 14:57:25.102228 13799 net.cpp:141] Setting up inception_3b/relu_pool_proj
I0403 14:57:25.102257 13799 net.cpp:148] Top shape: 24 64 28 28 (1204224)
I0403 14:57:25.102272 13799 net.cpp:156] Memory required for data: 773112864
I0403 14:57:25.102285 13799 layer_factory.hpp:77] Creating layer inception_3b/output
I0403 14:57:25.102303 13799 net.cpp:91] Creating Layer inception_3b/output
I0403 14:57:25.102318 13799 net.cpp:425] inception_3b/output <- inception_3b/1x1
I0403 14:57:25.102334 13799 net.cpp:425] inception_3b/output <- inception_3b/3x3
I0403 14:57:25.102349 13799 net.cpp:425] inception_3b/output <- inception_3b/5x5
I0403 14:57:25.102363 13799 net.cpp:425] inception_3b/output <- inception_3b/pool_proj
I0403 14:57:25.102380 13799 net.cpp:399] inception_3b/output -> inception_3b/output
I0403 14:57:25.102423 13799 net.cpp:141] Setting up inception_3b/output
I0403 14:57:25.102445 13799 net.cpp:148] Top shape: 24 480 28 28 (9031680)
I0403 14:57:25.102459 13799 net.cpp:156] Memory required for data: 809239584
I0403 14:57:25.102473 13799 layer_factory.hpp:77] Creating layer pool3/3x3_s2
I0403 14:57:25.102493 13799 net.cpp:91] Creating Layer pool3/3x3_s2
I0403 14:57:25.102509 13799 net.cpp:425] pool3/3x3_s2 <- inception_3b/output
I0403 14:57:25.102524 13799 net.cpp:399] pool3/3x3_s2 -> pool3/3x3_s2
I0403 14:57:25.102599 13799 net.cpp:141] Setting up pool3/3x3_s2
I0403 14:57:25.102622 13799 net.cpp:148] Top shape: 24 480 14 14 (2257920)
I0403 14:57:25.102637 13799 net.cpp:156] Memory required for data: 818271264
I0403 14:57:25.102649 13799 layer_factory.hpp:77] Creating layer pool3/3x3_s2_pool3/3x3_s2_0_split
I0403 14:57:25.102665 13799 net.cpp:91] Creating Layer pool3/3x3_s2_pool3/3x3_s2_0_split
I0403 14:57:25.102679 13799 net.cpp:425] pool3/3x3_s2_pool3/3x3_s2_0_split <- pool3/3x3_s2
I0403 14:57:25.102699 13799 net.cpp:399] pool3/3x3_s2_pool3/3x3_s2_0_split -> pool3/3x3_s2_pool3/3x3_s2_0_split_0
I0403 14:57:25.102718 13799 net.cpp:399] pool3/3x3_s2_pool3/3x3_s2_0_split -> pool3/3x3_s2_pool3/3x3_s2_0_split_1
I0403 14:57:25.102737 13799 net.cpp:399] pool3/3x3_s2_pool3/3x3_s2_0_split -> pool3/3x3_s2_pool3/3x3_s2_0_split_2
I0403 14:57:25.102757 13799 net.cpp:399] pool3/3x3_s2_pool3/3x3_s2_0_split -> pool3/3x3_s2_pool3/3x3_s2_0_split_3
I0403 14:57:25.102829 13799 net.cpp:141] Setting up pool3/3x3_s2_pool3/3x3_s2_0_split
I0403 14:57:25.102854 13799 net.cpp:148] Top shape: 24 480 14 14 (2257920)
I0403 14:57:25.102869 13799 net.cpp:148] Top shape: 24 480 14 14 (2257920)
I0403 14:57:25.102882 13799 net.cpp:148] Top shape: 24 480 14 14 (2257920)
I0403 14:57:25.102896 13799 net.cpp:148] Top shape: 24 480 14 14 (2257920)
I0403 14:57:25.102910 13799 net.cpp:156] Memory required for data: 854397984
I0403 14:57:25.102922 13799 layer_factory.hpp:77] Creating layer inception_4a/1x1
I0403 14:57:25.102944 13799 net.cpp:91] Creating Layer inception_4a/1x1
I0403 14:57:25.102960 13799 net.cpp:425] inception_4a/1x1 <- pool3/3x3_s2_pool3/3x3_s2_0_split_0
I0403 14:57:25.102980 13799 net.cpp:399] inception_4a/1x1 -> inception_4a/1x1
I0403 14:57:25.104452 13799 net.cpp:141] Setting up inception_4a/1x1
I0403 14:57:25.104478 13799 net.cpp:148] Top shape: 24 192 14 14 (903168)
I0403 14:57:25.104493 13799 net.cpp:156] Memory required for data: 858010656
I0403 14:57:25.104511 13799 layer_factory.hpp:77] Creating layer inception_4a/relu_1x1
I0403 14:57:25.104527 13799 net.cpp:91] Creating Layer inception_4a/relu_1x1
I0403 14:57:25.104542 13799 net.cpp:425] inception_4a/relu_1x1 <- inception_4a/1x1
I0403 14:57:25.104559 13799 net.cpp:386] inception_4a/relu_1x1 -> inception_4a/1x1 (in-place)
I0403 14:57:25.104732 13799 net.cpp:141] Setting up inception_4a/relu_1x1
I0403 14:57:25.104755 13799 net.cpp:148] Top shape: 24 192 14 14 (903168)
I0403 14:57:25.104768 13799 net.cpp:156] Memory required for data: 861623328
I0403 14:57:25.104782 13799 layer_factory.hpp:77] Creating layer inception_4a/3x3_reduce
I0403 14:57:25.104802 13799 net.cpp:91] Creating Layer inception_4a/3x3_reduce
I0403 14:57:25.104820 13799 net.cpp:425] inception_4a/3x3_reduce <- pool3/3x3_s2_pool3/3x3_s2_0_split_1
I0403 14:57:25.104838 13799 net.cpp:399] inception_4a/3x3_reduce -> inception_4a/3x3_reduce
I0403 14:57:25.106027 13799 net.cpp:141] Setting up inception_4a/3x3_reduce
I0403 14:57:25.106055 13799 net.cpp:148] Top shape: 24 96 14 14 (451584)
I0403 14:57:25.106071 13799 net.cpp:156] Memory required for data: 863429664
I0403 14:57:25.106094 13799 layer_factory.hpp:77] Creating layer inception_4a/relu_3x3_reduce
I0403 14:57:25.106113 13799 net.cpp:91] Creating Layer inception_4a/relu_3x3_reduce
I0403 14:57:25.106128 13799 net.cpp:425] inception_4a/relu_3x3_reduce <- inception_4a/3x3_reduce
I0403 14:57:25.106143 13799 net.cpp:386] inception_4a/relu_3x3_reduce -> inception_4a/3x3_reduce (in-place)
I0403 14:57:25.106307 13799 net.cpp:141] Setting up inception_4a/relu_3x3_reduce
I0403 14:57:25.106331 13799 net.cpp:148] Top shape: 24 96 14 14 (451584)
I0403 14:57:25.106344 13799 net.cpp:156] Memory required for data: 865236000
I0403 14:57:25.106359 13799 layer_factory.hpp:77] Creating layer inception_4a/3x3
I0403 14:57:25.106379 13799 net.cpp:91] Creating Layer inception_4a/3x3
I0403 14:57:25.106395 13799 net.cpp:425] inception_4a/3x3 <- inception_4a/3x3_reduce
I0403 14:57:25.106415 13799 net.cpp:399] inception_4a/3x3 -> inception_4a/3x3
I0403 14:57:25.109006 13799 net.cpp:141] Setting up inception_4a/3x3
I0403 14:57:25.109033 13799 net.cpp:148] Top shape: 24 208 14 14 (978432)
I0403 14:57:25.109048 13799 net.cpp:156] Memory required for data: 869149728
I0403 14:57:25.109066 13799 layer_factory.hpp:77] Creating layer inception_4a/relu_3x3
I0403 14:57:25.109084 13799 net.cpp:91] Creating Layer inception_4a/relu_3x3
I0403 14:57:25.109100 13799 net.cpp:425] inception_4a/relu_3x3 <- inception_4a/3x3
I0403 14:57:25.109117 13799 net.cpp:386] inception_4a/relu_3x3 -> inception_4a/3x3 (in-place)
I0403 14:57:25.109380 13799 net.cpp:141] Setting up inception_4a/relu_3x3
I0403 14:57:25.109405 13799 net.cpp:148] Top shape: 24 208 14 14 (978432)
I0403 14:57:25.109419 13799 net.cpp:156] Memory required for data: 873063456
I0403 14:57:25.109432 13799 layer_factory.hpp:77] Creating layer inception_4a/5x5_reduce
I0403 14:57:25.109453 13799 net.cpp:91] Creating Layer inception_4a/5x5_reduce
I0403 14:57:25.109470 13799 net.cpp:425] inception_4a/5x5_reduce <- pool3/3x3_s2_pool3/3x3_s2_0_split_2
I0403 14:57:25.109490 13799 net.cpp:399] inception_4a/5x5_reduce -> inception_4a/5x5_reduce
I0403 14:57:25.110445 13799 net.cpp:141] Setting up inception_4a/5x5_reduce
I0403 14:57:25.110471 13799 net.cpp:148] Top shape: 24 16 14 14 (75264)
I0403 14:57:25.110486 13799 net.cpp:156] Memory required for data: 873364512
I0403 14:57:25.110502 13799 layer_factory.hpp:77] Creating layer inception_4a/relu_5x5_reduce
I0403 14:57:25.110520 13799 net.cpp:91] Creating Layer inception_4a/relu_5x5_reduce
I0403 14:57:25.110537 13799 net.cpp:425] inception_4a/relu_5x5_reduce <- inception_4a/5x5_reduce
I0403 14:57:25.110553 13799 net.cpp:386] inception_4a/relu_5x5_reduce -> inception_4a/5x5_reduce (in-place)
I0403 14:57:25.110718 13799 net.cpp:141] Setting up inception_4a/relu_5x5_reduce
I0403 14:57:25.110745 13799 net.cpp:148] Top shape: 24 16 14 14 (75264)
I0403 14:57:25.110760 13799 net.cpp:156] Memory required for data: 873665568
I0403 14:57:25.110774 13799 layer_factory.hpp:77] Creating layer inception_4a/5x5
I0403 14:57:25.110793 13799 net.cpp:91] Creating Layer inception_4a/5x5
I0403 14:57:25.110810 13799 net.cpp:425] inception_4a/5x5 <- inception_4a/5x5_reduce
I0403 14:57:25.110827 13799 net.cpp:399] inception_4a/5x5 -> inception_4a/5x5
I0403 14:57:25.111855 13799 net.cpp:141] Setting up inception_4a/5x5
I0403 14:57:25.111884 13799 net.cpp:148] Top shape: 24 48 14 14 (225792)
I0403 14:57:25.111901 13799 net.cpp:156] Memory required for data: 874568736
I0403 14:57:25.111917 13799 layer_factory.hpp:77] Creating layer inception_4a/relu_5x5
I0403 14:57:25.111935 13799 net.cpp:91] Creating Layer inception_4a/relu_5x5
I0403 14:57:25.111951 13799 net.cpp:425] inception_4a/relu_5x5 <- inception_4a/5x5
I0403 14:57:25.111981 13799 net.cpp:386] inception_4a/relu_5x5 -> inception_4a/5x5 (in-place)
I0403 14:57:25.112145 13799 net.cpp:141] Setting up inception_4a/relu_5x5
I0403 14:57:25.112169 13799 net.cpp:148] Top shape: 24 48 14 14 (225792)
I0403 14:57:25.112184 13799 net.cpp:156] Memory required for data: 875471904
I0403 14:57:25.112196 13799 layer_factory.hpp:77] Creating layer inception_4a/pool
I0403 14:57:25.112212 13799 net.cpp:91] Creating Layer inception_4a/pool
I0403 14:57:25.112226 13799 net.cpp:425] inception_4a/pool <- pool3/3x3_s2_pool3/3x3_s2_0_split_3
I0403 14:57:25.112248 13799 net.cpp:399] inception_4a/pool -> inception_4a/pool
I0403 14:57:25.112305 13799 net.cpp:141] Setting up inception_4a/pool
I0403 14:57:25.112326 13799 net.cpp:148] Top shape: 24 480 14 14 (2257920)
I0403 14:57:25.112340 13799 net.cpp:156] Memory required for data: 884503584
I0403 14:57:25.112354 13799 layer_factory.hpp:77] Creating layer inception_4a/pool_proj
I0403 14:57:25.112375 13799 net.cpp:91] Creating Layer inception_4a/pool_proj
I0403 14:57:25.112391 13799 net.cpp:425] inception_4a/pool_proj <- inception_4a/pool
I0403 14:57:25.112408 13799 net.cpp:399] inception_4a/pool_proj -> inception_4a/pool_proj
I0403 14:57:25.113489 13799 net.cpp:141] Setting up inception_4a/pool_proj
I0403 14:57:25.113519 13799 net.cpp:148] Top shape: 24 64 14 14 (301056)
I0403 14:57:25.113549 13799 net.cpp:156] Memory required for data: 885707808
I0403 14:57:25.113572 13799 layer_factory.hpp:77] Creating layer inception_4a/relu_pool_proj
I0403 14:57:25.113590 13799 net.cpp:91] Creating Layer inception_4a/relu_pool_proj
I0403 14:57:25.113606 13799 net.cpp:425] inception_4a/relu_pool_proj <- inception_4a/pool_proj
I0403 14:57:25.113626 13799 net.cpp:386] inception_4a/relu_pool_proj -> inception_4a/pool_proj (in-place)
I0403 14:57:25.113889 13799 net.cpp:141] Setting up inception_4a/relu_pool_proj
I0403 14:57:25.113917 13799 net.cpp:148] Top shape: 24 64 14 14 (301056)
I0403 14:57:25.113932 13799 net.cpp:156] Memory required for data: 886912032
I0403 14:57:25.113946 13799 layer_factory.hpp:77] Creating layer inception_4a/output
I0403 14:57:25.113962 13799 net.cpp:91] Creating Layer inception_4a/output
I0403 14:57:25.113977 13799 net.cpp:425] inception_4a/output <- inception_4a/1x1
I0403 14:57:25.113993 13799 net.cpp:425] inception_4a/output <- inception_4a/3x3
I0403 14:57:25.114008 13799 net.cpp:425] inception_4a/output <- inception_4a/5x5
I0403 14:57:25.114023 13799 net.cpp:425] inception_4a/output <- inception_4a/pool_proj
I0403 14:57:25.114042 13799 net.cpp:399] inception_4a/output -> inception_4a/output
I0403 14:57:25.114084 13799 net.cpp:141] Setting up inception_4a/output
I0403 14:57:25.114105 13799 net.cpp:148] Top shape: 24 512 14 14 (2408448)
I0403 14:57:25.114120 13799 net.cpp:156] Memory required for data: 896545824
I0403 14:57:25.114133 13799 layer_factory.hpp:77] Creating layer inception_4a/output_inception_4a/output_0_split
I0403 14:57:25.114151 13799 net.cpp:91] Creating Layer inception_4a/output_inception_4a/output_0_split
I0403 14:57:25.114167 13799 net.cpp:425] inception_4a/output_inception_4a/output_0_split <- inception_4a/output
I0403 14:57:25.114183 13799 net.cpp:399] inception_4a/output_inception_4a/output_0_split -> inception_4a/output_inception_4a/output_0_split_0
I0403 14:57:25.114205 13799 net.cpp:399] inception_4a/output_inception_4a/output_0_split -> inception_4a/output_inception_4a/output_0_split_1
I0403 14:57:25.114225 13799 net.cpp:399] inception_4a/output_inception_4a/output_0_split -> inception_4a/output_inception_4a/output_0_split_2
I0403 14:57:25.114244 13799 net.cpp:399] inception_4a/output_inception_4a/output_0_split -> inception_4a/output_inception_4a/output_0_split_3
I0403 14:57:25.114264 13799 net.cpp:399] inception_4a/output_inception_4a/output_0_split -> inception_4a/output_inception_4a/output_0_split_4
I0403 14:57:25.114359 13799 net.cpp:141] Setting up inception_4a/output_inception_4a/output_0_split
I0403 14:57:25.114382 13799 net.cpp:148] Top shape: 24 512 14 14 (2408448)
I0403 14:57:25.114395 13799 net.cpp:148] Top shape: 24 512 14 14 (2408448)
I0403 14:57:25.114409 13799 net.cpp:148] Top shape: 24 512 14 14 (2408448)
I0403 14:57:25.114423 13799 net.cpp:148] Top shape: 24 512 14 14 (2408448)
I0403 14:57:25.114437 13799 net.cpp:148] Top shape: 24 512 14 14 (2408448)
I0403 14:57:25.114449 13799 net.cpp:156] Memory required for data: 944714784
I0403 14:57:25.114462 13799 layer_factory.hpp:77] Creating layer loss1/ave_pool
I0403 14:57:25.114481 13799 net.cpp:91] Creating Layer loss1/ave_pool
I0403 14:57:25.114496 13799 net.cpp:425] loss1/ave_pool <- inception_4a/output_inception_4a/output_0_split_0
I0403 14:57:25.114512 13799 net.cpp:399] loss1/ave_pool -> loss1/ave_pool
I0403 14:57:25.114739 13799 net.cpp:141] Setting up loss1/ave_pool
I0403 14:57:25.114764 13799 net.cpp:148] Top shape: 24 512 4 4 (196608)
I0403 14:57:25.114779 13799 net.cpp:156] Memory required for data: 945501216
I0403 14:57:25.114794 13799 layer_factory.hpp:77] Creating layer loss1/conv
I0403 14:57:25.114814 13799 net.cpp:91] Creating Layer loss1/conv
I0403 14:57:25.114830 13799 net.cpp:425] loss1/conv <- loss1/ave_pool
I0403 14:57:25.114853 13799 net.cpp:399] loss1/conv -> loss1/conv
I0403 14:57:25.116233 13799 net.cpp:141] Setting up loss1/conv
I0403 14:57:25.116261 13799 net.cpp:148] Top shape: 24 128 4 4 (49152)
I0403 14:57:25.116276 13799 net.cpp:156] Memory required for data: 945697824
I0403 14:57:25.116308 13799 layer_factory.hpp:77] Creating layer loss1/relu_conv
I0403 14:57:25.116329 13799 net.cpp:91] Creating Layer loss1/relu_conv
I0403 14:57:25.116345 13799 net.cpp:425] loss1/relu_conv <- loss1/conv
I0403 14:57:25.116361 13799 net.cpp:386] loss1/relu_conv -> loss1/conv (in-place)
I0403 14:57:25.116642 13799 net.cpp:141] Setting up loss1/relu_conv
I0403 14:57:25.116667 13799 net.cpp:148] Top shape: 24 128 4 4 (49152)
I0403 14:57:25.116682 13799 net.cpp:156] Memory required for data: 945894432
I0403 14:57:25.116695 13799 layer_factory.hpp:77] Creating layer loss1/fc
I0403 14:57:25.116719 13799 net.cpp:91] Creating Layer loss1/fc
I0403 14:57:25.116737 13799 net.cpp:425] loss1/fc <- loss1/conv
I0403 14:57:25.116755 13799 net.cpp:399] loss1/fc -> loss1/fc
I0403 14:57:25.133981 13799 net.cpp:141] Setting up loss1/fc
I0403 14:57:25.134013 13799 net.cpp:148] Top shape: 24 1024 (24576)
I0403 14:57:25.134027 13799 net.cpp:156] Memory required for data: 945992736
I0403 14:57:25.134045 13799 layer_factory.hpp:77] Creating layer loss1/relu_fc
I0403 14:57:25.134063 13799 net.cpp:91] Creating Layer loss1/relu_fc
I0403 14:57:25.134078 13799 net.cpp:425] loss1/relu_fc <- loss1/fc
I0403 14:57:25.134095 13799 net.cpp:386] loss1/relu_fc -> loss1/fc (in-place)
I0403 14:57:25.134265 13799 net.cpp:141] Setting up loss1/relu_fc
I0403 14:57:25.134289 13799 net.cpp:148] Top shape: 24 1024 (24576)
I0403 14:57:25.134304 13799 net.cpp:156] Memory required for data: 946091040
I0403 14:57:25.134316 13799 layer_factory.hpp:77] Creating layer loss1/drop_fc
I0403 14:57:25.134342 13799 net.cpp:91] Creating Layer loss1/drop_fc
I0403 14:57:25.134359 13799 net.cpp:425] loss1/drop_fc <- loss1/fc
I0403 14:57:25.134376 13799 net.cpp:386] loss1/drop_fc -> loss1/fc (in-place)
I0403 14:57:25.134423 13799 net.cpp:141] Setting up loss1/drop_fc
I0403 14:57:25.134446 13799 net.cpp:148] Top shape: 24 1024 (24576)
I0403 14:57:25.134461 13799 net.cpp:156] Memory required for data: 946189344
I0403 14:57:25.134475 13799 layer_factory.hpp:77] Creating layer loss1/classifier_plantvillage
I0403 14:57:25.134492 13799 net.cpp:91] Creating Layer loss1/classifier_plantvillage
I0403 14:57:25.134506 13799 net.cpp:425] loss1/classifier_plantvillage <- loss1/fc
I0403 14:57:25.134528 13799 net.cpp:399] loss1/classifier_plantvillage -> loss1/classifier_plantvillage
I0403 14:57:25.135390 13799 net.cpp:141] Setting up loss1/classifier_plantvillage
I0403 14:57:25.135416 13799 net.cpp:148] Top shape: 24 38 (912)
I0403 14:57:25.135432 13799 net.cpp:156] Memory required for data: 946192992
I0403 14:57:25.135447 13799 layer_factory.hpp:77] Creating layer loss1/classifier_plantvillage_loss1/classifier_plantvillage_0_split
I0403 14:57:25.135464 13799 net.cpp:91] Creating Layer loss1/classifier_plantvillage_loss1/classifier_plantvillage_0_split
I0403 14:57:25.135479 13799 net.cpp:425] loss1/classifier_plantvillage_loss1/classifier_plantvillage_0_split <- loss1/classifier_plantvillage
I0403 14:57:25.135498 13799 net.cpp:399] loss1/classifier_plantvillage_loss1/classifier_plantvillage_0_split -> loss1/classifier_plantvillage_loss1/classifier_plantvillage_0_split_0
I0403 14:57:25.135519 13799 net.cpp:399] loss1/classifier_plantvillage_loss1/classifier_plantvillage_0_split -> loss1/classifier_plantvillage_loss1/classifier_plantvillage_0_split_1
I0403 14:57:25.135537 13799 net.cpp:399] loss1/classifier_plantvillage_loss1/classifier_plantvillage_0_split -> loss1/classifier_plantvillage_loss1/classifier_plantvillage_0_split_2
I0403 14:57:25.135606 13799 net.cpp:141] Setting up loss1/classifier_plantvillage_loss1/classifier_plantvillage_0_split
I0403 14:57:25.135627 13799 net.cpp:148] Top shape: 24 38 (912)
I0403 14:57:25.135643 13799 net.cpp:148] Top shape: 24 38 (912)
I0403 14:57:25.135656 13799 net.cpp:148] Top shape: 24 38 (912)
I0403 14:57:25.135668 13799 net.cpp:156] Memory required for data: 946203936
I0403 14:57:25.135682 13799 layer_factory.hpp:77] Creating layer inception_4b/1x1
I0403 14:57:25.135704 13799 net.cpp:91] Creating Layer inception_4b/1x1
I0403 14:57:25.135735 13799 net.cpp:425] inception_4b/1x1 <- inception_4a/output_inception_4a/output_0_split_1
I0403 14:57:25.135754 13799 net.cpp:399] inception_4b/1x1 -> inception_4b/1x1
I0403 14:57:25.137282 13799 net.cpp:141] Setting up inception_4b/1x1
I0403 14:57:25.137308 13799 net.cpp:148] Top shape: 24 160 14 14 (752640)
I0403 14:57:25.137323 13799 net.cpp:156] Memory required for data: 949214496
I0403 14:57:25.137341 13799 layer_factory.hpp:77] Creating layer inception_4b/relu_1x1
I0403 14:57:25.137359 13799 net.cpp:91] Creating Layer inception_4b/relu_1x1
I0403 14:57:25.137377 13799 net.cpp:425] inception_4b/relu_1x1 <- inception_4b/1x1
I0403 14:57:25.137392 13799 net.cpp:386] inception_4b/relu_1x1 -> inception_4b/1x1 (in-place)
I0403 14:57:25.137557 13799 net.cpp:141] Setting up inception_4b/relu_1x1
I0403 14:57:25.137585 13799 net.cpp:148] Top shape: 24 160 14 14 (752640)
I0403 14:57:25.137600 13799 net.cpp:156] Memory required for data: 952225056
I0403 14:57:25.137614 13799 layer_factory.hpp:77] Creating layer inception_4b/3x3_reduce
I0403 14:57:25.137636 13799 net.cpp:91] Creating Layer inception_4b/3x3_reduce
I0403 14:57:25.137653 13799 net.cpp:425] inception_4b/3x3_reduce <- inception_4a/output_inception_4a/output_0_split_2
I0403 14:57:25.137670 13799 net.cpp:399] inception_4b/3x3_reduce -> inception_4b/3x3_reduce
I0403 14:57:25.138941 13799 net.cpp:141] Setting up inception_4b/3x3_reduce
I0403 14:57:25.138969 13799 net.cpp:148] Top shape: 24 112 14 14 (526848)
I0403 14:57:25.138985 13799 net.cpp:156] Memory required for data: 954332448
I0403 14:57:25.139003 13799 layer_factory.hpp:77] Creating layer inception_4b/relu_3x3_reduce
I0403 14:57:25.139019 13799 net.cpp:91] Creating Layer inception_4b/relu_3x3_reduce
I0403 14:57:25.139034 13799 net.cpp:425] inception_4b/relu_3x3_reduce <- inception_4b/3x3_reduce
I0403 14:57:25.139050 13799 net.cpp:386] inception_4b/relu_3x3_reduce -> inception_4b/3x3_reduce (in-place)
I0403 14:57:25.139320 13799 net.cpp:141] Setting up inception_4b/relu_3x3_reduce
I0403 14:57:25.139348 13799 net.cpp:148] Top shape: 24 112 14 14 (526848)
I0403 14:57:25.139363 13799 net.cpp:156] Memory required for data: 956439840
I0403 14:57:25.139376 13799 layer_factory.hpp:77] Creating layer inception_4b/3x3
I0403 14:57:25.139397 13799 net.cpp:91] Creating Layer inception_4b/3x3
I0403 14:57:25.139415 13799 net.cpp:425] inception_4b/3x3 <- inception_4b/3x3_reduce
I0403 14:57:25.139431 13799 net.cpp:399] inception_4b/3x3 -> inception_4b/3x3
I0403 14:57:25.142227 13799 net.cpp:141] Setting up inception_4b/3x3
I0403 14:57:25.142254 13799 net.cpp:148] Top shape: 24 224 14 14 (1053696)
I0403 14:57:25.142268 13799 net.cpp:156] Memory required for data: 960654624
I0403 14:57:25.142287 13799 layer_factory.hpp:77] Creating layer inception_4b/relu_3x3
I0403 14:57:25.142303 13799 net.cpp:91] Creating Layer inception_4b/relu_3x3
I0403 14:57:25.142318 13799 net.cpp:425] inception_4b/relu_3x3 <- inception_4b/3x3
I0403 14:57:25.142336 13799 net.cpp:386] inception_4b/relu_3x3 -> inception_4b/3x3 (in-place)
I0403 14:57:25.142506 13799 net.cpp:141] Setting up inception_4b/relu_3x3
I0403 14:57:25.142529 13799 net.cpp:148] Top shape: 24 224 14 14 (1053696)
I0403 14:57:25.142544 13799 net.cpp:156] Memory required for data: 964869408
I0403 14:57:25.142557 13799 layer_factory.hpp:77] Creating layer inception_4b/5x5_reduce
I0403 14:57:25.142581 13799 net.cpp:91] Creating Layer inception_4b/5x5_reduce
I0403 14:57:25.142598 13799 net.cpp:425] inception_4b/5x5_reduce <- inception_4a/output_inception_4a/output_0_split_3
I0403 14:57:25.142618 13799 net.cpp:399] inception_4b/5x5_reduce -> inception_4b/5x5_reduce
I0403 14:57:25.143632 13799 net.cpp:141] Setting up inception_4b/5x5_reduce
I0403 14:57:25.143658 13799 net.cpp:148] Top shape: 24 24 14 14 (112896)
I0403 14:57:25.143672 13799 net.cpp:156] Memory required for data: 965320992
I0403 14:57:25.143689 13799 layer_factory.hpp:77] Creating layer inception_4b/relu_5x5_reduce
I0403 14:57:25.143710 13799 net.cpp:91] Creating Layer inception_4b/relu_5x5_reduce
I0403 14:57:25.143739 13799 net.cpp:425] inception_4b/relu_5x5_reduce <- inception_4b/5x5_reduce
I0403 14:57:25.143757 13799 net.cpp:386] inception_4b/relu_5x5_reduce -> inception_4b/5x5_reduce (in-place)
I0403 14:57:25.143928 13799 net.cpp:141] Setting up inception_4b/relu_5x5_reduce
I0403 14:57:25.143954 13799 net.cpp:148] Top shape: 24 24 14 14 (112896)
I0403 14:57:25.143967 13799 net.cpp:156] Memory required for data: 965772576
I0403 14:57:25.143980 13799 layer_factory.hpp:77] Creating layer inception_4b/5x5
I0403 14:57:25.144001 13799 net.cpp:91] Creating Layer inception_4b/5x5
I0403 14:57:25.144017 13799 net.cpp:425] inception_4b/5x5 <- inception_4b/5x5_reduce
I0403 14:57:25.144035 13799 net.cpp:399] inception_4b/5x5 -> inception_4b/5x5
I0403 14:57:25.145185 13799 net.cpp:141] Setting up inception_4b/5x5
I0403 14:57:25.145211 13799 net.cpp:148] Top shape: 24 64 14 14 (301056)
I0403 14:57:25.145226 13799 net.cpp:156] Memory required for data: 966976800
I0403 14:57:25.145242 13799 layer_factory.hpp:77] Creating layer inception_4b/relu_5x5
I0403 14:57:25.145262 13799 net.cpp:91] Creating Layer inception_4b/relu_5x5
I0403 14:57:25.145278 13799 net.cpp:425] inception_4b/relu_5x5 <- inception_4b/5x5
I0403 14:57:25.145297 13799 net.cpp:386] inception_4b/relu_5x5 -> inception_4b/5x5 (in-place)
I0403 14:57:25.145561 13799 net.cpp:141] Setting up inception_4b/relu_5x5
I0403 14:57:25.145589 13799 net.cpp:148] Top shape: 24 64 14 14 (301056)
I0403 14:57:25.145603 13799 net.cpp:156] Memory required for data: 968181024
I0403 14:57:25.145617 13799 layer_factory.hpp:77] Creating layer inception_4b/pool
I0403 14:57:25.145638 13799 net.cpp:91] Creating Layer inception_4b/pool
I0403 14:57:25.145654 13799 net.cpp:425] inception_4b/pool <- inception_4a/output_inception_4a/output_0_split_4
I0403 14:57:25.145670 13799 net.cpp:399] inception_4b/pool -> inception_4b/pool
I0403 14:57:25.145731 13799 net.cpp:141] Setting up inception_4b/pool
I0403 14:57:25.145753 13799 net.cpp:148] Top shape: 24 512 14 14 (2408448)
I0403 14:57:25.145767 13799 net.cpp:156] Memory required for data: 977814816
I0403 14:57:25.145781 13799 layer_factory.hpp:77] Creating layer inception_4b/pool_proj
I0403 14:57:25.145800 13799 net.cpp:91] Creating Layer inception_4b/pool_proj
I0403 14:57:25.145817 13799 net.cpp:425] inception_4b/pool_proj <- inception_4b/pool
I0403 14:57:25.145834 13799 net.cpp:399] inception_4b/pool_proj -> inception_4b/pool_proj
I0403 14:57:25.146971 13799 net.cpp:141] Setting up inception_4b/pool_proj
I0403 14:57:25.146997 13799 net.cpp:148] Top shape: 24 64 14 14 (301056)
I0403 14:57:25.147011 13799 net.cpp:156] Memory required for data: 979019040
I0403 14:57:25.147028 13799 layer_factory.hpp:77] Creating layer inception_4b/relu_pool_proj
I0403 14:57:25.147047 13799 net.cpp:91] Creating Layer inception_4b/relu_pool_proj
I0403 14:57:25.147063 13799 net.cpp:425] inception_4b/relu_pool_proj <- inception_4b/pool_proj
I0403 14:57:25.147079 13799 net.cpp:386] inception_4b/relu_pool_proj -> inception_4b/pool_proj (in-place)
I0403 14:57:25.147246 13799 net.cpp:141] Setting up inception_4b/relu_pool_proj
I0403 14:57:25.147271 13799 net.cpp:148] Top shape: 24 64 14 14 (301056)
I0403 14:57:25.147285 13799 net.cpp:156] Memory required for data: 980223264
I0403 14:57:25.147306 13799 layer_factory.hpp:77] Creating layer inception_4b/output
I0403 14:57:25.147322 13799 net.cpp:91] Creating Layer inception_4b/output
I0403 14:57:25.147337 13799 net.cpp:425] inception_4b/output <- inception_4b/1x1
I0403 14:57:25.147352 13799 net.cpp:425] inception_4b/output <- inception_4b/3x3
I0403 14:57:25.147367 13799 net.cpp:425] inception_4b/output <- inception_4b/5x5
I0403 14:57:25.147382 13799 net.cpp:425] inception_4b/output <- inception_4b/pool_proj
I0403 14:57:25.147397 13799 net.cpp:399] inception_4b/output -> inception_4b/output
I0403 14:57:25.147440 13799 net.cpp:141] Setting up inception_4b/output
I0403 14:57:25.147462 13799 net.cpp:148] Top shape: 24 512 14 14 (2408448)
I0403 14:57:25.147475 13799 net.cpp:156] Memory required for data: 989857056
I0403 14:57:25.147503 13799 layer_factory.hpp:77] Creating layer inception_4b/output_inception_4b/output_0_split
I0403 14:57:25.147522 13799 net.cpp:91] Creating Layer inception_4b/output_inception_4b/output_0_split
I0403 14:57:25.147537 13799 net.cpp:425] inception_4b/output_inception_4b/output_0_split <- inception_4b/output
I0403 14:57:25.147553 13799 net.cpp:399] inception_4b/output_inception_4b/output_0_split -> inception_4b/output_inception_4b/output_0_split_0
I0403 14:57:25.147575 13799 net.cpp:399] inception_4b/output_inception_4b/output_0_split -> inception_4b/output_inception_4b/output_0_split_1
I0403 14:57:25.147604 13799 net.cpp:399] inception_4b/output_inception_4b/output_0_split -> inception_4b/output_inception_4b/output_0_split_2
I0403 14:57:25.147625 13799 net.cpp:399] inception_4b/output_inception_4b/output_0_split -> inception_4b/output_inception_4b/output_0_split_3
I0403 14:57:25.147706 13799 net.cpp:141] Setting up inception_4b/output_inception_4b/output_0_split
I0403 14:57:25.147728 13799 net.cpp:148] Top shape: 24 512 14 14 (2408448)
I0403 14:57:25.147743 13799 net.cpp:148] Top shape: 24 512 14 14 (2408448)
I0403 14:57:25.147758 13799 net.cpp:148] Top shape: 24 512 14 14 (2408448)
I0403 14:57:25.147771 13799 net.cpp:148] Top shape: 24 512 14 14 (2408448)
I0403 14:57:25.147784 13799 net.cpp:156] Memory required for data: 1028392224
I0403 14:57:25.147797 13799 layer_factory.hpp:77] Creating layer inception_4c/1x1
I0403 14:57:25.147819 13799 net.cpp:91] Creating Layer inception_4c/1x1
I0403 14:57:25.147835 13799 net.cpp:425] inception_4c/1x1 <- inception_4b/output_inception_4b/output_0_split_0
I0403 14:57:25.147853 13799 net.cpp:399] inception_4c/1x1 -> inception_4c/1x1
I0403 14:57:25.149211 13799 net.cpp:141] Setting up inception_4c/1x1
I0403 14:57:25.149237 13799 net.cpp:148] Top shape: 24 128 14 14 (602112)
I0403 14:57:25.149251 13799 net.cpp:156] Memory required for data: 1030800672
I0403 14:57:25.149268 13799 layer_factory.hpp:77] Creating layer inception_4c/relu_1x1
I0403 14:57:25.149286 13799 net.cpp:91] Creating Layer inception_4c/relu_1x1
I0403 14:57:25.149301 13799 net.cpp:425] inception_4c/relu_1x1 <- inception_4c/1x1
I0403 14:57:25.149318 13799 net.cpp:386] inception_4c/relu_1x1 -> inception_4c/1x1 (in-place)
I0403 14:57:25.149487 13799 net.cpp:141] Setting up inception_4c/relu_1x1
I0403 14:57:25.149510 13799 net.cpp:148] Top shape: 24 128 14 14 (602112)
I0403 14:57:25.149524 13799 net.cpp:156] Memory required for data: 1033209120
I0403 14:57:25.149538 13799 layer_factory.hpp:77] Creating layer inception_4c/3x3_reduce
I0403 14:57:25.149559 13799 net.cpp:91] Creating Layer inception_4c/3x3_reduce
I0403 14:57:25.149580 13799 net.cpp:425] inception_4c/3x3_reduce <- inception_4b/output_inception_4b/output_0_split_1
I0403 14:57:25.149600 13799 net.cpp:399] inception_4c/3x3_reduce -> inception_4c/3x3_reduce
I0403 14:57:25.151437 13799 net.cpp:141] Setting up inception_4c/3x3_reduce
I0403 14:57:25.151464 13799 net.cpp:148] Top shape: 24 128 14 14 (602112)
I0403 14:57:25.151479 13799 net.cpp:156] Memory required for data: 1035617568
I0403 14:57:25.151497 13799 layer_factory.hpp:77] Creating layer inception_4c/relu_3x3_reduce
I0403 14:57:25.151517 13799 net.cpp:91] Creating Layer inception_4c/relu_3x3_reduce
I0403 14:57:25.151533 13799 net.cpp:425] inception_4c/relu_3x3_reduce <- inception_4c/3x3_reduce
I0403 14:57:25.151561 13799 net.cpp:386] inception_4c/relu_3x3_reduce -> inception_4c/3x3_reduce (in-place)
I0403 14:57:25.151836 13799 net.cpp:141] Setting up inception_4c/relu_3x3_reduce
I0403 14:57:25.151861 13799 net.cpp:148] Top shape: 24 128 14 14 (602112)
I0403 14:57:25.151875 13799 net.cpp:156] Memory required for data: 1038026016
I0403 14:57:25.151890 13799 layer_factory.hpp:77] Creating layer inception_4c/3x3
I0403 14:57:25.151911 13799 net.cpp:91] Creating Layer inception_4c/3x3
I0403 14:57:25.151926 13799 net.cpp:425] inception_4c/3x3 <- inception_4c/3x3_reduce
I0403 14:57:25.151947 13799 net.cpp:399] inception_4c/3x3 -> inception_4c/3x3
I0403 14:57:25.155378 13799 net.cpp:141] Setting up inception_4c/3x3
I0403 14:57:25.155417 13799 net.cpp:148] Top shape: 24 256 14 14 (1204224)
I0403 14:57:25.155432 13799 net.cpp:156] Memory required for data: 1042842912
I0403 14:57:25.155462 13799 layer_factory.hpp:77] Creating layer inception_4c/relu_3x3
I0403 14:57:25.155483 13799 net.cpp:91] Creating Layer inception_4c/relu_3x3
I0403 14:57:25.155499 13799 net.cpp:425] inception_4c/relu_3x3 <- inception_4c/3x3
I0403 14:57:25.155515 13799 net.cpp:386] inception_4c/relu_3x3 -> inception_4c/3x3 (in-place)
I0403 14:57:25.155694 13799 net.cpp:141] Setting up inception_4c/relu_3x3
I0403 14:57:25.155719 13799 net.cpp:148] Top shape: 24 256 14 14 (1204224)
I0403 14:57:25.155735 13799 net.cpp:156] Memory required for data: 1047659808
I0403 14:57:25.155750 13799 layer_factory.hpp:77] Creating layer inception_4c/5x5_reduce
I0403 14:57:25.155767 13799 net.cpp:91] Creating Layer inception_4c/5x5_reduce
I0403 14:57:25.155783 13799 net.cpp:425] inception_4c/5x5_reduce <- inception_4b/output_inception_4b/output_0_split_2
I0403 14:57:25.155803 13799 net.cpp:399] inception_4c/5x5_reduce -> inception_4c/5x5_reduce
I0403 14:57:25.156836 13799 net.cpp:141] Setting up inception_4c/5x5_reduce
I0403 14:57:25.156862 13799 net.cpp:148] Top shape: 24 24 14 14 (112896)
I0403 14:57:25.156877 13799 net.cpp:156] Memory required for data: 1048111392
I0403 14:57:25.156893 13799 layer_factory.hpp:77] Creating layer inception_4c/relu_5x5_reduce
I0403 14:57:25.156913 13799 net.cpp:91] Creating Layer inception_4c/relu_5x5_reduce
I0403 14:57:25.156929 13799 net.cpp:425] inception_4c/relu_5x5_reduce <- inception_4c/5x5_reduce
I0403 14:57:25.156945 13799 net.cpp:386] inception_4c/relu_5x5_reduce -> inception_4c/5x5_reduce (in-place)
I0403 14:57:25.157119 13799 net.cpp:141] Setting up inception_4c/relu_5x5_reduce
I0403 14:57:25.157145 13799 net.cpp:148] Top shape: 24 24 14 14 (112896)
I0403 14:57:25.157158 13799 net.cpp:156] Memory required for data: 1048562976
I0403 14:57:25.157171 13799 layer_factory.hpp:77] Creating layer inception_4c/5x5
I0403 14:57:25.157192 13799 net.cpp:91] Creating Layer inception_4c/5x5
I0403 14:57:25.157209 13799 net.cpp:425] inception_4c/5x5 <- inception_4c/5x5_reduce
I0403 14:57:25.157227 13799 net.cpp:399] inception_4c/5x5 -> inception_4c/5x5
I0403 14:57:25.158396 13799 net.cpp:141] Setting up inception_4c/5x5
I0403 14:57:25.158424 13799 net.cpp:148] Top shape: 24 64 14 14 (301056)
I0403 14:57:25.158439 13799 net.cpp:156] Memory required for data: 1049767200
I0403 14:57:25.158457 13799 layer_factory.hpp:77] Creating layer inception_4c/relu_5x5
I0403 14:57:25.158473 13799 net.cpp:91] Creating Layer inception_4c/relu_5x5
I0403 14:57:25.158488 13799 net.cpp:425] inception_4c/relu_5x5 <- inception_4c/5x5
I0403 14:57:25.158505 13799 net.cpp:386] inception_4c/relu_5x5 -> inception_4c/5x5 (in-place)
I0403 14:57:25.158782 13799 net.cpp:141] Setting up inception_4c/relu_5x5
I0403 14:57:25.158808 13799 net.cpp:148] Top shape: 24 64 14 14 (301056)
I0403 14:57:25.158823 13799 net.cpp:156] Memory required for data: 1050971424
I0403 14:57:25.158836 13799 layer_factory.hpp:77] Creating layer inception_4c/pool
I0403 14:57:25.158854 13799 net.cpp:91] Creating Layer inception_4c/pool
I0403 14:57:25.158869 13799 net.cpp:425] inception_4c/pool <- inception_4b/output_inception_4b/output_0_split_3
I0403 14:57:25.158886 13799 net.cpp:399] inception_4c/pool -> inception_4c/pool
I0403 14:57:25.158947 13799 net.cpp:141] Setting up inception_4c/pool
I0403 14:57:25.158969 13799 net.cpp:148] Top shape: 24 512 14 14 (2408448)
I0403 14:57:25.158983 13799 net.cpp:156] Memory required for data: 1060605216
I0403 14:57:25.158996 13799 layer_factory.hpp:77] Creating layer inception_4c/pool_proj
I0403 14:57:25.159018 13799 net.cpp:91] Creating Layer inception_4c/pool_proj
I0403 14:57:25.159035 13799 net.cpp:425] inception_4c/pool_proj <- inception_4c/pool
I0403 14:57:25.159052 13799 net.cpp:399] inception_4c/pool_proj -> inception_4c/pool_proj
I0403 14:57:25.160197 13799 net.cpp:141] Setting up inception_4c/pool_proj
I0403 14:57:25.160223 13799 net.cpp:148] Top shape: 24 64 14 14 (301056)
I0403 14:57:25.160253 13799 net.cpp:156] Memory required for data: 1061809440
I0403 14:57:25.160271 13799 layer_factory.hpp:77] Creating layer inception_4c/relu_pool_proj
I0403 14:57:25.160290 13799 net.cpp:91] Creating Layer inception_4c/relu_pool_proj
I0403 14:57:25.160306 13799 net.cpp:425] inception_4c/relu_pool_proj <- inception_4c/pool_proj
I0403 14:57:25.160323 13799 net.cpp:386] inception_4c/relu_pool_proj -> inception_4c/pool_proj (in-place)
I0403 14:57:25.160492 13799 net.cpp:141] Setting up inception_4c/relu_pool_proj
I0403 14:57:25.160517 13799 net.cpp:148] Top shape: 24 64 14 14 (301056)
I0403 14:57:25.160532 13799 net.cpp:156] Memory required for data: 1063013664
I0403 14:57:25.160547 13799 layer_factory.hpp:77] Creating layer inception_4c/output
I0403 14:57:25.160562 13799 net.cpp:91] Creating Layer inception_4c/output
I0403 14:57:25.160581 13799 net.cpp:425] inception_4c/output <- inception_4c/1x1
I0403 14:57:25.160596 13799 net.cpp:425] inception_4c/output <- inception_4c/3x3
I0403 14:57:25.160611 13799 net.cpp:425] inception_4c/output <- inception_4c/5x5
I0403 14:57:25.160627 13799 net.cpp:425] inception_4c/output <- inception_4c/pool_proj
I0403 14:57:25.160642 13799 net.cpp:399] inception_4c/output -> inception_4c/output
I0403 14:57:25.160686 13799 net.cpp:141] Setting up inception_4c/output
I0403 14:57:25.160708 13799 net.cpp:148] Top shape: 24 512 14 14 (2408448)
I0403 14:57:25.160722 13799 net.cpp:156] Memory required for data: 1072647456
I0403 14:57:25.160735 13799 layer_factory.hpp:77] Creating layer inception_4c/output_inception_4c/output_0_split
I0403 14:57:25.160753 13799 net.cpp:91] Creating Layer inception_4c/output_inception_4c/output_0_split
I0403 14:57:25.160769 13799 net.cpp:425] inception_4c/output_inception_4c/output_0_split <- inception_4c/output
I0403 14:57:25.160785 13799 net.cpp:399] inception_4c/output_inception_4c/output_0_split -> inception_4c/output_inception_4c/output_0_split_0
I0403 14:57:25.160804 13799 net.cpp:399] inception_4c/output_inception_4c/output_0_split -> inception_4c/output_inception_4c/output_0_split_1
I0403 14:57:25.160822 13799 net.cpp:399] inception_4c/output_inception_4c/output_0_split -> inception_4c/output_inception_4c/output_0_split_2
I0403 14:57:25.160843 13799 net.cpp:399] inception_4c/output_inception_4c/output_0_split -> inception_4c/output_inception_4c/output_0_split_3
I0403 14:57:25.160925 13799 net.cpp:141] Setting up inception_4c/output_inception_4c/output_0_split
I0403 14:57:25.160948 13799 net.cpp:148] Top shape: 24 512 14 14 (2408448)
I0403 14:57:25.160962 13799 net.cpp:148] Top shape: 24 512 14 14 (2408448)
I0403 14:57:25.160976 13799 net.cpp:148] Top shape: 24 512 14 14 (2408448)
I0403 14:57:25.160990 13799 net.cpp:148] Top shape: 24 512 14 14 (2408448)
I0403 14:57:25.161002 13799 net.cpp:156] Memory required for data: 1111182624
I0403 14:57:25.161015 13799 layer_factory.hpp:77] Creating layer inception_4d/1x1
I0403 14:57:25.161036 13799 net.cpp:91] Creating Layer inception_4d/1x1
I0403 14:57:25.161052 13799 net.cpp:425] inception_4d/1x1 <- inception_4c/output_inception_4c/output_0_split_0
I0403 14:57:25.161072 13799 net.cpp:399] inception_4d/1x1 -> inception_4d/1x1
I0403 14:57:25.162425 13799 net.cpp:141] Setting up inception_4d/1x1
I0403 14:57:25.162452 13799 net.cpp:148] Top shape: 24 112 14 14 (526848)
I0403 14:57:25.162467 13799 net.cpp:156] Memory required for data: 1113290016
I0403 14:57:25.162485 13799 layer_factory.hpp:77] Creating layer inception_4d/relu_1x1
I0403 14:57:25.162503 13799 net.cpp:91] Creating Layer inception_4d/relu_1x1
I0403 14:57:25.162518 13799 net.cpp:425] inception_4d/relu_1x1 <- inception_4d/1x1
I0403 14:57:25.162536 13799 net.cpp:386] inception_4d/relu_1x1 -> inception_4d/1x1 (in-place)
I0403 14:57:25.162725 13799 net.cpp:141] Setting up inception_4d/relu_1x1
I0403 14:57:25.162750 13799 net.cpp:148] Top shape: 24 112 14 14 (526848)
I0403 14:57:25.162763 13799 net.cpp:156] Memory required for data: 1115397408
I0403 14:57:25.162777 13799 layer_factory.hpp:77] Creating layer inception_4d/3x3_reduce
I0403 14:57:25.162812 13799 net.cpp:91] Creating Layer inception_4d/3x3_reduce
I0403 14:57:25.162830 13799 net.cpp:425] inception_4d/3x3_reduce <- inception_4c/output_inception_4c/output_0_split_1
I0403 14:57:25.162850 13799 net.cpp:399] inception_4d/3x3_reduce -> inception_4d/3x3_reduce
I0403 14:57:25.164338 13799 net.cpp:141] Setting up inception_4d/3x3_reduce
I0403 14:57:25.164367 13799 net.cpp:148] Top shape: 24 144 14 14 (677376)
I0403 14:57:25.164383 13799 net.cpp:156] Memory required for data: 1118106912
I0403 14:57:25.164402 13799 layer_factory.hpp:77] Creating layer inception_4d/relu_3x3_reduce
I0403 14:57:25.164419 13799 net.cpp:91] Creating Layer inception_4d/relu_3x3_reduce
I0403 14:57:25.164434 13799 net.cpp:425] inception_4d/relu_3x3_reduce <- inception_4d/3x3_reduce
I0403 14:57:25.164453 13799 net.cpp:386] inception_4d/relu_3x3_reduce -> inception_4d/3x3_reduce (in-place)
I0403 14:57:25.164749 13799 net.cpp:141] Setting up inception_4d/relu_3x3_reduce
I0403 14:57:25.164778 13799 net.cpp:148] Top shape: 24 144 14 14 (677376)
I0403 14:57:25.164794 13799 net.cpp:156] Memory required for data: 1120816416
I0403 14:57:25.164808 13799 layer_factory.hpp:77] Creating layer inception_4d/3x3
I0403 14:57:25.164830 13799 net.cpp:91] Creating Layer inception_4d/3x3
I0403 14:57:25.164847 13799 net.cpp:425] inception_4d/3x3 <- inception_4d/3x3_reduce
I0403 14:57:25.164865 13799 net.cpp:399] inception_4d/3x3 -> inception_4d/3x3
I0403 14:57:25.169018 13799 net.cpp:141] Setting up inception_4d/3x3
I0403 14:57:25.169045 13799 net.cpp:148] Top shape: 24 288 14 14 (1354752)
I0403 14:57:25.169060 13799 net.cpp:156] Memory required for data: 1126235424
I0403 14:57:25.169078 13799 layer_factory.hpp:77] Creating layer inception_4d/relu_3x3
I0403 14:57:25.169097 13799 net.cpp:91] Creating Layer inception_4d/relu_3x3
I0403 14:57:25.169113 13799 net.cpp:425] inception_4d/relu_3x3 <- inception_4d/3x3
I0403 14:57:25.169129 13799 net.cpp:386] inception_4d/relu_3x3 -> inception_4d/3x3 (in-place)
I0403 14:57:25.169304 13799 net.cpp:141] Setting up inception_4d/relu_3x3
I0403 14:57:25.169328 13799 net.cpp:148] Top shape: 24 288 14 14 (1354752)
I0403 14:57:25.169342 13799 net.cpp:156] Memory required for data: 1131654432
I0403 14:57:25.169356 13799 layer_factory.hpp:77] Creating layer inception_4d/5x5_reduce
I0403 14:57:25.169378 13799 net.cpp:91] Creating Layer inception_4d/5x5_reduce
I0403 14:57:25.169395 13799 net.cpp:425] inception_4d/5x5_reduce <- inception_4c/output_inception_4c/output_0_split_2
I0403 14:57:25.169414 13799 net.cpp:399] inception_4d/5x5_reduce -> inception_4d/5x5_reduce
I0403 14:57:25.170526 13799 net.cpp:141] Setting up inception_4d/5x5_reduce
I0403 14:57:25.170552 13799 net.cpp:148] Top shape: 24 32 14 14 (150528)
I0403 14:57:25.170572 13799 net.cpp:156] Memory required for data: 1132256544
I0403 14:57:25.170590 13799 layer_factory.hpp:77] Creating layer inception_4d/relu_5x5_reduce
I0403 14:57:25.170613 13799 net.cpp:91] Creating Layer inception_4d/relu_5x5_reduce
I0403 14:57:25.170629 13799 net.cpp:425] inception_4d/relu_5x5_reduce <- inception_4d/5x5_reduce
I0403 14:57:25.170646 13799 net.cpp:386] inception_4d/relu_5x5_reduce -> inception_4d/5x5_reduce (in-place)
I0403 14:57:25.170830 13799 net.cpp:141] Setting up inception_4d/relu_5x5_reduce
I0403 14:57:25.170853 13799 net.cpp:148] Top shape: 24 32 14 14 (150528)
I0403 14:57:25.170867 13799 net.cpp:156] Memory required for data: 1132858656
I0403 14:57:25.170881 13799 layer_factory.hpp:77] Creating layer inception_4d/5x5
I0403 14:57:25.170903 13799 net.cpp:91] Creating Layer inception_4d/5x5
I0403 14:57:25.170919 13799 net.cpp:425] inception_4d/5x5 <- inception_4d/5x5_reduce
I0403 14:57:25.170939 13799 net.cpp:399] inception_4d/5x5 -> inception_4d/5x5
I0403 14:57:25.172371 13799 net.cpp:141] Setting up inception_4d/5x5
I0403 14:57:25.172400 13799 net.cpp:148] Top shape: 24 64 14 14 (301056)
I0403 14:57:25.172416 13799 net.cpp:156] Memory required for data: 1134062880
I0403 14:57:25.172435 13799 layer_factory.hpp:77] Creating layer inception_4d/relu_5x5
I0403 14:57:25.172468 13799 net.cpp:91] Creating Layer inception_4d/relu_5x5
I0403 14:57:25.172485 13799 net.cpp:425] inception_4d/relu_5x5 <- inception_4d/5x5
I0403 14:57:25.172502 13799 net.cpp:386] inception_4d/relu_5x5 -> inception_4d/5x5 (in-place)
I0403 14:57:25.172796 13799 net.cpp:141] Setting up inception_4d/relu_5x5
I0403 14:57:25.172823 13799 net.cpp:148] Top shape: 24 64 14 14 (301056)
I0403 14:57:25.172838 13799 net.cpp:156] Memory required for data: 1135267104
I0403 14:57:25.172853 13799 layer_factory.hpp:77] Creating layer inception_4d/pool
I0403 14:57:25.172869 13799 net.cpp:91] Creating Layer inception_4d/pool
I0403 14:57:25.172885 13799 net.cpp:425] inception_4d/pool <- inception_4c/output_inception_4c/output_0_split_3
I0403 14:57:25.172902 13799 net.cpp:399] inception_4d/pool -> inception_4d/pool
I0403 14:57:25.172967 13799 net.cpp:141] Setting up inception_4d/pool
I0403 14:57:25.172991 13799 net.cpp:148] Top shape: 24 512 14 14 (2408448)
I0403 14:57:25.173004 13799 net.cpp:156] Memory required for data: 1144900896
I0403 14:57:25.173018 13799 layer_factory.hpp:77] Creating layer inception_4d/pool_proj
I0403 14:57:25.173039 13799 net.cpp:91] Creating Layer inception_4d/pool_proj
I0403 14:57:25.173056 13799 net.cpp:425] inception_4d/pool_proj <- inception_4d/pool
I0403 14:57:25.173075 13799 net.cpp:399] inception_4d/pool_proj -> inception_4d/pool_proj
I0403 14:57:25.174830 13799 net.cpp:141] Setting up inception_4d/pool_proj
I0403 14:57:25.174859 13799 net.cpp:148] Top shape: 24 64 14 14 (301056)
I0403 14:57:25.174875 13799 net.cpp:156] Memory required for data: 1146105120
I0403 14:57:25.174891 13799 layer_factory.hpp:77] Creating layer inception_4d/relu_pool_proj
I0403 14:57:25.174911 13799 net.cpp:91] Creating Layer inception_4d/relu_pool_proj
I0403 14:57:25.174928 13799 net.cpp:425] inception_4d/relu_pool_proj <- inception_4d/pool_proj
I0403 14:57:25.174944 13799 net.cpp:386] inception_4d/relu_pool_proj -> inception_4d/pool_proj (in-place)
I0403 14:57:25.175122 13799 net.cpp:141] Setting up inception_4d/relu_pool_proj
I0403 14:57:25.175148 13799 net.cpp:148] Top shape: 24 64 14 14 (301056)
I0403 14:57:25.175160 13799 net.cpp:156] Memory required for data: 1147309344
I0403 14:57:25.175173 13799 layer_factory.hpp:77] Creating layer inception_4d/output
I0403 14:57:25.175192 13799 net.cpp:91] Creating Layer inception_4d/output
I0403 14:57:25.175207 13799 net.cpp:425] inception_4d/output <- inception_4d/1x1
I0403 14:57:25.175225 13799 net.cpp:425] inception_4d/output <- inception_4d/3x3
I0403 14:57:25.175240 13799 net.cpp:425] inception_4d/output <- inception_4d/5x5
I0403 14:57:25.175256 13799 net.cpp:425] inception_4d/output <- inception_4d/pool_proj
I0403 14:57:25.175271 13799 net.cpp:399] inception_4d/output -> inception_4d/output
I0403 14:57:25.175318 13799 net.cpp:141] Setting up inception_4d/output
I0403 14:57:25.175340 13799 net.cpp:148] Top shape: 24 528 14 14 (2483712)
I0403 14:57:25.175354 13799 net.cpp:156] Memory required for data: 1157244192
I0403 14:57:25.175369 13799 layer_factory.hpp:77] Creating layer inception_4d/output_inception_4d/output_0_split
I0403 14:57:25.175385 13799 net.cpp:91] Creating Layer inception_4d/output_inception_4d/output_0_split
I0403 14:57:25.175400 13799 net.cpp:425] inception_4d/output_inception_4d/output_0_split <- inception_4d/output
I0403 14:57:25.175418 13799 net.cpp:399] inception_4d/output_inception_4d/output_0_split -> inception_4d/output_inception_4d/output_0_split_0
I0403 14:57:25.175438 13799 net.cpp:399] inception_4d/output_inception_4d/output_0_split -> inception_4d/output_inception_4d/output_0_split_1
I0403 14:57:25.175458 13799 net.cpp:399] inception_4d/output_inception_4d/output_0_split -> inception_4d/output_inception_4d/output_0_split_2
I0403 14:57:25.175478 13799 net.cpp:399] inception_4d/output_inception_4d/output_0_split -> inception_4d/output_inception_4d/output_0_split_3
I0403 14:57:25.175503 13799 net.cpp:399] inception_4d/output_inception_4d/output_0_split -> inception_4d/output_inception_4d/output_0_split_4
I0403 14:57:25.175606 13799 net.cpp:141] Setting up inception_4d/output_inception_4d/output_0_split
I0403 14:57:25.175642 13799 net.cpp:148] Top shape: 24 528 14 14 (2483712)
I0403 14:57:25.175658 13799 net.cpp:148] Top shape: 24 528 14 14 (2483712)
I0403 14:57:25.175673 13799 net.cpp:148] Top shape: 24 528 14 14 (2483712)
I0403 14:57:25.175688 13799 net.cpp:148] Top shape: 24 528 14 14 (2483712)
I0403 14:57:25.175703 13799 net.cpp:148] Top shape: 24 528 14 14 (2483712)
I0403 14:57:25.175715 13799 net.cpp:156] Memory required for data: 1206918432
I0403 14:57:25.175729 13799 layer_factory.hpp:77] Creating layer loss2/ave_pool
I0403 14:57:25.175745 13799 net.cpp:91] Creating Layer loss2/ave_pool
I0403 14:57:25.175760 13799 net.cpp:425] loss2/ave_pool <- inception_4d/output_inception_4d/output_0_split_0
I0403 14:57:25.175778 13799 net.cpp:399] loss2/ave_pool -> loss2/ave_pool
I0403 14:57:25.176084 13799 net.cpp:141] Setting up loss2/ave_pool
I0403 14:57:25.176110 13799 net.cpp:148] Top shape: 24 528 4 4 (202752)
I0403 14:57:25.176125 13799 net.cpp:156] Memory required for data: 1207729440
I0403 14:57:25.176138 13799 layer_factory.hpp:77] Creating layer loss2/conv
I0403 14:57:25.176159 13799 net.cpp:91] Creating Layer loss2/conv
I0403 14:57:25.176177 13799 net.cpp:425] loss2/conv <- loss2/ave_pool
I0403 14:57:25.176198 13799 net.cpp:399] loss2/conv -> loss2/conv
I0403 14:57:25.178045 13799 net.cpp:141] Setting up loss2/conv
I0403 14:57:25.178071 13799 net.cpp:148] Top shape: 24 128 4 4 (49152)
I0403 14:57:25.178086 13799 net.cpp:156] Memory required for data: 1207926048
I0403 14:57:25.178107 13799 layer_factory.hpp:77] Creating layer loss2/relu_conv
I0403 14:57:25.178124 13799 net.cpp:91] Creating Layer loss2/relu_conv
I0403 14:57:25.178140 13799 net.cpp:425] loss2/relu_conv <- loss2/conv
I0403 14:57:25.178156 13799 net.cpp:386] loss2/relu_conv -> loss2/conv (in-place)
I0403 14:57:25.178436 13799 net.cpp:141] Setting up loss2/relu_conv
I0403 14:57:25.178463 13799 net.cpp:148] Top shape: 24 128 4 4 (49152)
I0403 14:57:25.178479 13799 net.cpp:156] Memory required for data: 1208122656
I0403 14:57:25.178493 13799 layer_factory.hpp:77] Creating layer loss2/fc
I0403 14:57:25.178510 13799 net.cpp:91] Creating Layer loss2/fc
I0403 14:57:25.178526 13799 net.cpp:425] loss2/fc <- loss2/conv
I0403 14:57:25.178546 13799 net.cpp:399] loss2/fc -> loss2/fc
I0403 14:57:25.195261 13799 net.cpp:141] Setting up loss2/fc
I0403 14:57:25.195304 13799 net.cpp:148] Top shape: 24 1024 (24576)
I0403 14:57:25.195319 13799 net.cpp:156] Memory required for data: 1208220960
I0403 14:57:25.195338 13799 layer_factory.hpp:77] Creating layer loss2/relu_fc
I0403 14:57:25.195355 13799 net.cpp:91] Creating Layer loss2/relu_fc
I0403 14:57:25.195371 13799 net.cpp:425] loss2/relu_fc <- loss2/fc
I0403 14:57:25.195387 13799 net.cpp:386] loss2/relu_fc -> loss2/fc (in-place)
I0403 14:57:25.195682 13799 net.cpp:141] Setting up loss2/relu_fc
I0403 14:57:25.195705 13799 net.cpp:148] Top shape: 24 1024 (24576)
I0403 14:57:25.195720 13799 net.cpp:156] Memory required for data: 1208319264
I0403 14:57:25.195734 13799 layer_factory.hpp:77] Creating layer loss2/drop_fc
I0403 14:57:25.195752 13799 net.cpp:91] Creating Layer loss2/drop_fc
I0403 14:57:25.195768 13799 net.cpp:425] loss2/drop_fc <- loss2/fc
I0403 14:57:25.195785 13799 net.cpp:386] loss2/drop_fc -> loss2/fc (in-place)
I0403 14:57:25.195834 13799 net.cpp:141] Setting up loss2/drop_fc
I0403 14:57:25.195857 13799 net.cpp:148] Top shape: 24 1024 (24576)
I0403 14:57:25.195869 13799 net.cpp:156] Memory required for data: 1208417568
I0403 14:57:25.195883 13799 layer_factory.hpp:77] Creating layer loss2/classifier_plantvillage
I0403 14:57:25.195899 13799 net.cpp:91] Creating Layer loss2/classifier_plantvillage
I0403 14:57:25.195914 13799 net.cpp:425] loss2/classifier_plantvillage <- loss2/fc
I0403 14:57:25.195933 13799 net.cpp:399] loss2/classifier_plantvillage -> loss2/classifier_plantvillage
I0403 14:57:25.196315 13799 net.cpp:141] Setting up loss2/classifier_plantvillage
I0403 14:57:25.196337 13799 net.cpp:148] Top shape: 24 38 (912)
I0403 14:57:25.196352 13799 net.cpp:156] Memory required for data: 1208421216
I0403 14:57:25.196385 13799 layer_factory.hpp:77] Creating layer loss2/classifier_plantvillage_loss2/classifier_plantvillage_0_split
I0403 14:57:25.196405 13799 net.cpp:91] Creating Layer loss2/classifier_plantvillage_loss2/classifier_plantvillage_0_split
I0403 14:57:25.196421 13799 net.cpp:425] loss2/classifier_plantvillage_loss2/classifier_plantvillage_0_split <- loss2/classifier_plantvillage
I0403 14:57:25.196439 13799 net.cpp:399] loss2/classifier_plantvillage_loss2/classifier_plantvillage_0_split -> loss2/classifier_plantvillage_loss2/classifier_plantvillage_0_split_0
I0403 14:57:25.196460 13799 net.cpp:399] loss2/classifier_plantvillage_loss2/classifier_plantvillage_0_split -> loss2/classifier_plantvillage_loss2/classifier_plantvillage_0_split_1
I0403 14:57:25.196478 13799 net.cpp:399] loss2/classifier_plantvillage_loss2/classifier_plantvillage_0_split -> loss2/classifier_plantvillage_loss2/classifier_plantvillage_0_split_2
I0403 14:57:25.196550 13799 net.cpp:141] Setting up loss2/classifier_plantvillage_loss2/classifier_plantvillage_0_split
I0403 14:57:25.196575 13799 net.cpp:148] Top shape: 24 38 (912)
I0403 14:57:25.196593 13799 net.cpp:148] Top shape: 24 38 (912)
I0403 14:57:25.196606 13799 net.cpp:148] Top shape: 24 38 (912)
I0403 14:57:25.196619 13799 net.cpp:156] Memory required for data: 1208432160
I0403 14:57:25.196632 13799 layer_factory.hpp:77] Creating layer inception_4e/1x1
I0403 14:57:25.196652 13799 net.cpp:91] Creating Layer inception_4e/1x1
I0403 14:57:25.196669 13799 net.cpp:425] inception_4e/1x1 <- inception_4d/output_inception_4d/output_0_split_1
I0403 14:57:25.196686 13799 net.cpp:399] inception_4e/1x1 -> inception_4e/1x1
I0403 14:57:25.198396 13799 net.cpp:141] Setting up inception_4e/1x1
I0403 14:57:25.198426 13799 net.cpp:148] Top shape: 24 256 14 14 (1204224)
I0403 14:57:25.198442 13799 net.cpp:156] Memory required for data: 1213249056
I0403 14:57:25.198459 13799 layer_factory.hpp:77] Creating layer inception_4e/relu_1x1
I0403 14:57:25.198477 13799 net.cpp:91] Creating Layer inception_4e/relu_1x1
I0403 14:57:25.198492 13799 net.cpp:425] inception_4e/relu_1x1 <- inception_4e/1x1
I0403 14:57:25.198506 13799 net.cpp:386] inception_4e/relu_1x1 -> inception_4e/1x1 (in-place)
I0403 14:57:25.198789 13799 net.cpp:141] Setting up inception_4e/relu_1x1
I0403 14:57:25.198817 13799 net.cpp:148] Top shape: 24 256 14 14 (1204224)
I0403 14:57:25.198832 13799 net.cpp:156] Memory required for data: 1218065952
I0403 14:57:25.198846 13799 layer_factory.hpp:77] Creating layer inception_4e/3x3_reduce
I0403 14:57:25.198866 13799 net.cpp:91] Creating Layer inception_4e/3x3_reduce
I0403 14:57:25.198884 13799 net.cpp:425] inception_4e/3x3_reduce <- inception_4d/output_inception_4d/output_0_split_2
I0403 14:57:25.198900 13799 net.cpp:399] inception_4e/3x3_reduce -> inception_4e/3x3_reduce
I0403 14:57:25.200907 13799 net.cpp:141] Setting up inception_4e/3x3_reduce
I0403 14:57:25.200934 13799 net.cpp:148] Top shape: 24 160 14 14 (752640)
I0403 14:57:25.200948 13799 net.cpp:156] Memory required for data: 1221076512
I0403 14:57:25.200965 13799 layer_factory.hpp:77] Creating layer inception_4e/relu_3x3_reduce
I0403 14:57:25.200984 13799 net.cpp:91] Creating Layer inception_4e/relu_3x3_reduce
I0403 14:57:25.201000 13799 net.cpp:425] inception_4e/relu_3x3_reduce <- inception_4e/3x3_reduce
I0403 14:57:25.201017 13799 net.cpp:386] inception_4e/relu_3x3_reduce -> inception_4e/3x3_reduce (in-place)
I0403 14:57:25.201194 13799 net.cpp:141] Setting up inception_4e/relu_3x3_reduce
I0403 14:57:25.201217 13799 net.cpp:148] Top shape: 24 160 14 14 (752640)
I0403 14:57:25.201231 13799 net.cpp:156] Memory required for data: 1224087072
I0403 14:57:25.201243 13799 layer_factory.hpp:77] Creating layer inception_4e/3x3
I0403 14:57:25.201264 13799 net.cpp:91] Creating Layer inception_4e/3x3
I0403 14:57:25.201282 13799 net.cpp:425] inception_4e/3x3 <- inception_4e/3x3_reduce
I0403 14:57:25.201303 13799 net.cpp:399] inception_4e/3x3 -> inception_4e/3x3
I0403 14:57:25.206053 13799 net.cpp:141] Setting up inception_4e/3x3
I0403 14:57:25.206092 13799 net.cpp:148] Top shape: 24 320 14 14 (1505280)
I0403 14:57:25.206109 13799 net.cpp:156] Memory required for data: 1230108192
I0403 14:57:25.206125 13799 layer_factory.hpp:77] Creating layer inception_4e/relu_3x3
I0403 14:57:25.206142 13799 net.cpp:91] Creating Layer inception_4e/relu_3x3
I0403 14:57:25.206157 13799 net.cpp:425] inception_4e/relu_3x3 <- inception_4e/3x3
I0403 14:57:25.206176 13799 net.cpp:386] inception_4e/relu_3x3 -> inception_4e/3x3 (in-place)
I0403 14:57:25.206466 13799 net.cpp:141] Setting up inception_4e/relu_3x3
I0403 14:57:25.206490 13799 net.cpp:148] Top shape: 24 320 14 14 (1505280)
I0403 14:57:25.206504 13799 net.cpp:156] Memory required for data: 1236129312
I0403 14:57:25.206517 13799 layer_factory.hpp:77] Creating layer inception_4e/5x5_reduce
I0403 14:57:25.206539 13799 net.cpp:91] Creating Layer inception_4e/5x5_reduce
I0403 14:57:25.206557 13799 net.cpp:425] inception_4e/5x5_reduce <- inception_4d/output_inception_4d/output_0_split_3
I0403 14:57:25.206581 13799 net.cpp:399] inception_4e/5x5_reduce -> inception_4e/5x5_reduce
I0403 14:57:25.207607 13799 net.cpp:141] Setting up inception_4e/5x5_reduce
I0403 14:57:25.207635 13799 net.cpp:148] Top shape: 24 32 14 14 (150528)
I0403 14:57:25.207651 13799 net.cpp:156] Memory required for data: 1236731424
I0403 14:57:25.207669 13799 layer_factory.hpp:77] Creating layer inception_4e/relu_5x5_reduce
I0403 14:57:25.207685 13799 net.cpp:91] Creating Layer inception_4e/relu_5x5_reduce
I0403 14:57:25.207700 13799 net.cpp:425] inception_4e/relu_5x5_reduce <- inception_4e/5x5_reduce
I0403 14:57:25.207716 13799 net.cpp:386] inception_4e/relu_5x5_reduce -> inception_4e/5x5_reduce (in-place)
I0403 14:57:25.208006 13799 net.cpp:141] Setting up inception_4e/relu_5x5_reduce
I0403 14:57:25.208034 13799 net.cpp:148] Top shape: 24 32 14 14 (150528)
I0403 14:57:25.208048 13799 net.cpp:156] Memory required for data: 1237333536
I0403 14:57:25.208062 13799 layer_factory.hpp:77] Creating layer inception_4e/5x5
I0403 14:57:25.208097 13799 net.cpp:91] Creating Layer inception_4e/5x5
I0403 14:57:25.208115 13799 net.cpp:425] inception_4e/5x5 <- inception_4e/5x5_reduce
I0403 14:57:25.208133 13799 net.cpp:399] inception_4e/5x5 -> inception_4e/5x5
I0403 14:57:25.209890 13799 net.cpp:141] Setting up inception_4e/5x5
I0403 14:57:25.209916 13799 net.cpp:148] Top shape: 24 128 14 14 (602112)
I0403 14:57:25.209931 13799 net.cpp:156] Memory required for data: 1239741984
I0403 14:57:25.209949 13799 layer_factory.hpp:77] Creating layer inception_4e/relu_5x5
I0403 14:57:25.209969 13799 net.cpp:91] Creating Layer inception_4e/relu_5x5
I0403 14:57:25.209983 13799 net.cpp:425] inception_4e/relu_5x5 <- inception_4e/5x5
I0403 14:57:25.210000 13799 net.cpp:386] inception_4e/relu_5x5 -> inception_4e/5x5 (in-place)
I0403 14:57:25.210186 13799 net.cpp:141] Setting up inception_4e/relu_5x5
I0403 14:57:25.210211 13799 net.cpp:148] Top shape: 24 128 14 14 (602112)
I0403 14:57:25.210225 13799 net.cpp:156] Memory required for data: 1242150432
I0403 14:57:25.210239 13799 layer_factory.hpp:77] Creating layer inception_4e/pool
I0403 14:57:25.210255 13799 net.cpp:91] Creating Layer inception_4e/pool
I0403 14:57:25.210270 13799 net.cpp:425] inception_4e/pool <- inception_4d/output_inception_4d/output_0_split_4
I0403 14:57:25.210289 13799 net.cpp:399] inception_4e/pool -> inception_4e/pool
I0403 14:57:25.210355 13799 net.cpp:141] Setting up inception_4e/pool
I0403 14:57:25.210378 13799 net.cpp:148] Top shape: 24 528 14 14 (2483712)
I0403 14:57:25.210393 13799 net.cpp:156] Memory required for data: 1252085280
I0403 14:57:25.210407 13799 layer_factory.hpp:77] Creating layer inception_4e/pool_proj
I0403 14:57:25.210427 13799 net.cpp:91] Creating Layer inception_4e/pool_proj
I0403 14:57:25.210443 13799 net.cpp:425] inception_4e/pool_proj <- inception_4e/pool
I0403 14:57:25.210463 13799 net.cpp:399] inception_4e/pool_proj -> inception_4e/pool_proj
I0403 14:57:25.211887 13799 net.cpp:141] Setting up inception_4e/pool_proj
I0403 14:57:25.211915 13799 net.cpp:148] Top shape: 24 128 14 14 (602112)
I0403 14:57:25.211942 13799 net.cpp:156] Memory required for data: 1254493728
I0403 14:57:25.211961 13799 layer_factory.hpp:77] Creating layer inception_4e/relu_pool_proj
I0403 14:57:25.211980 13799 net.cpp:91] Creating Layer inception_4e/relu_pool_proj
I0403 14:57:25.211997 13799 net.cpp:425] inception_4e/relu_pool_proj <- inception_4e/pool_proj
I0403 14:57:25.212013 13799 net.cpp:386] inception_4e/relu_pool_proj -> inception_4e/pool_proj (in-place)
I0403 14:57:25.212290 13799 net.cpp:141] Setting up inception_4e/relu_pool_proj
I0403 14:57:25.212313 13799 net.cpp:148] Top shape: 24 128 14 14 (602112)
I0403 14:57:25.212328 13799 net.cpp:156] Memory required for data: 1256902176
I0403 14:57:25.212342 13799 layer_factory.hpp:77] Creating layer inception_4e/output
I0403 14:57:25.212357 13799 net.cpp:91] Creating Layer inception_4e/output
I0403 14:57:25.212375 13799 net.cpp:425] inception_4e/output <- inception_4e/1x1
I0403 14:57:25.212390 13799 net.cpp:425] inception_4e/output <- inception_4e/3x3
I0403 14:57:25.212405 13799 net.cpp:425] inception_4e/output <- inception_4e/5x5
I0403 14:57:25.212420 13799 net.cpp:425] inception_4e/output <- inception_4e/pool_proj
I0403 14:57:25.212435 13799 net.cpp:399] inception_4e/output -> inception_4e/output
I0403 14:57:25.212481 13799 net.cpp:141] Setting up inception_4e/output
I0403 14:57:25.212505 13799 net.cpp:148] Top shape: 24 832 14 14 (3913728)
I0403 14:57:25.212519 13799 net.cpp:156] Memory required for data: 1272557088
I0403 14:57:25.212533 13799 layer_factory.hpp:77] Creating layer pool4/3x3_s2
I0403 14:57:25.212549 13799 net.cpp:91] Creating Layer pool4/3x3_s2
I0403 14:57:25.212564 13799 net.cpp:425] pool4/3x3_s2 <- inception_4e/output
I0403 14:57:25.212589 13799 net.cpp:399] pool4/3x3_s2 -> pool4/3x3_s2
I0403 14:57:25.212653 13799 net.cpp:141] Setting up pool4/3x3_s2
I0403 14:57:25.212677 13799 net.cpp:148] Top shape: 24 832 7 7 (978432)
I0403 14:57:25.212692 13799 net.cpp:156] Memory required for data: 1276470816
I0403 14:57:25.212705 13799 layer_factory.hpp:77] Creating layer pool4/3x3_s2_pool4/3x3_s2_0_split
I0403 14:57:25.212720 13799 net.cpp:91] Creating Layer pool4/3x3_s2_pool4/3x3_s2_0_split
I0403 14:57:25.212734 13799 net.cpp:425] pool4/3x3_s2_pool4/3x3_s2_0_split <- pool4/3x3_s2
I0403 14:57:25.212750 13799 net.cpp:399] pool4/3x3_s2_pool4/3x3_s2_0_split -> pool4/3x3_s2_pool4/3x3_s2_0_split_0
I0403 14:57:25.212769 13799 net.cpp:399] pool4/3x3_s2_pool4/3x3_s2_0_split -> pool4/3x3_s2_pool4/3x3_s2_0_split_1
I0403 14:57:25.212792 13799 net.cpp:399] pool4/3x3_s2_pool4/3x3_s2_0_split -> pool4/3x3_s2_pool4/3x3_s2_0_split_2
I0403 14:57:25.212812 13799 net.cpp:399] pool4/3x3_s2_pool4/3x3_s2_0_split -> pool4/3x3_s2_pool4/3x3_s2_0_split_3
I0403 14:57:25.212898 13799 net.cpp:141] Setting up pool4/3x3_s2_pool4/3x3_s2_0_split
I0403 14:57:25.212920 13799 net.cpp:148] Top shape: 24 832 7 7 (978432)
I0403 14:57:25.212936 13799 net.cpp:148] Top shape: 24 832 7 7 (978432)
I0403 14:57:25.212951 13799 net.cpp:148] Top shape: 24 832 7 7 (978432)
I0403 14:57:25.212965 13799 net.cpp:148] Top shape: 24 832 7 7 (978432)
I0403 14:57:25.212977 13799 net.cpp:156] Memory required for data: 1292125728
I0403 14:57:25.212990 13799 layer_factory.hpp:77] Creating layer inception_5a/1x1
I0403 14:57:25.213011 13799 net.cpp:91] Creating Layer inception_5a/1x1
I0403 14:57:25.213027 13799 net.cpp:425] inception_5a/1x1 <- pool4/3x3_s2_pool4/3x3_s2_0_split_0
I0403 14:57:25.213047 13799 net.cpp:399] inception_5a/1x1 -> inception_5a/1x1
I0403 14:57:25.215842 13799 net.cpp:141] Setting up inception_5a/1x1
I0403 14:57:25.215870 13799 net.cpp:148] Top shape: 24 256 7 7 (301056)
I0403 14:57:25.215885 13799 net.cpp:156] Memory required for data: 1293329952
I0403 14:57:25.215903 13799 layer_factory.hpp:77] Creating layer inception_5a/relu_1x1
I0403 14:57:25.215924 13799 net.cpp:91] Creating Layer inception_5a/relu_1x1
I0403 14:57:25.215939 13799 net.cpp:425] inception_5a/relu_1x1 <- inception_5a/1x1
I0403 14:57:25.215956 13799 net.cpp:386] inception_5a/relu_1x1 -> inception_5a/1x1 (in-place)
I0403 14:57:25.216259 13799 net.cpp:141] Setting up inception_5a/relu_1x1
I0403 14:57:25.216284 13799 net.cpp:148] Top shape: 24 256 7 7 (301056)
I0403 14:57:25.216298 13799 net.cpp:156] Memory required for data: 1294534176
I0403 14:57:25.216312 13799 layer_factory.hpp:77] Creating layer inception_5a/3x3_reduce
I0403 14:57:25.216334 13799 net.cpp:91] Creating Layer inception_5a/3x3_reduce
I0403 14:57:25.216353 13799 net.cpp:425] inception_5a/3x3_reduce <- pool4/3x3_s2_pool4/3x3_s2_0_split_1
I0403 14:57:25.216372 13799 net.cpp:399] inception_5a/3x3_reduce -> inception_5a/3x3_reduce
I0403 14:57:25.218771 13799 net.cpp:141] Setting up inception_5a/3x3_reduce
I0403 14:57:25.218799 13799 net.cpp:148] Top shape: 24 160 7 7 (188160)
I0403 14:57:25.218814 13799 net.cpp:156] Memory required for data: 1295286816
I0403 14:57:25.218832 13799 layer_factory.hpp:77] Creating layer inception_5a/relu_3x3_reduce
I0403 14:57:25.218852 13799 net.cpp:91] Creating Layer inception_5a/relu_3x3_reduce
I0403 14:57:25.218868 13799 net.cpp:425] inception_5a/relu_3x3_reduce <- inception_5a/3x3_reduce
I0403 14:57:25.218885 13799 net.cpp:386] inception_5a/relu_3x3_reduce -> inception_5a/3x3_reduce (in-place)
I0403 14:57:25.219064 13799 net.cpp:141] Setting up inception_5a/relu_3x3_reduce
I0403 14:57:25.219089 13799 net.cpp:148] Top shape: 24 160 7 7 (188160)
I0403 14:57:25.219102 13799 net.cpp:156] Memory required for data: 1296039456
I0403 14:57:25.219116 13799 layer_factory.hpp:77] Creating layer inception_5a/3x3
I0403 14:57:25.219137 13799 net.cpp:91] Creating Layer inception_5a/3x3
I0403 14:57:25.219156 13799 net.cpp:425] inception_5a/3x3 <- inception_5a/3x3_reduce
I0403 14:57:25.219177 13799 net.cpp:399] inception_5a/3x3 -> inception_5a/3x3
I0403 14:57:25.224108 13799 net.cpp:141] Setting up inception_5a/3x3
I0403 14:57:25.224136 13799 net.cpp:148] Top shape: 24 320 7 7 (376320)
I0403 14:57:25.224153 13799 net.cpp:156] Memory required for data: 1297544736
I0403 14:57:25.224169 13799 layer_factory.hpp:77] Creating layer inception_5a/relu_3x3
I0403 14:57:25.224189 13799 net.cpp:91] Creating Layer inception_5a/relu_3x3
I0403 14:57:25.224206 13799 net.cpp:425] inception_5a/relu_3x3 <- inception_5a/3x3
I0403 14:57:25.224223 13799 net.cpp:386] inception_5a/relu_3x3 -> inception_5a/3x3 (in-place)
I0403 14:57:25.224512 13799 net.cpp:141] Setting up inception_5a/relu_3x3
I0403 14:57:25.224537 13799 net.cpp:148] Top shape: 24 320 7 7 (376320)
I0403 14:57:25.224552 13799 net.cpp:156] Memory required for data: 1299050016
I0403 14:57:25.224566 13799 layer_factory.hpp:77] Creating layer inception_5a/5x5_reduce
I0403 14:57:25.224601 13799 net.cpp:91] Creating Layer inception_5a/5x5_reduce
I0403 14:57:25.224618 13799 net.cpp:425] inception_5a/5x5_reduce <- pool4/3x3_s2_pool4/3x3_s2_0_split_2
I0403 14:57:25.224638 13799 net.cpp:399] inception_5a/5x5_reduce -> inception_5a/5x5_reduce
I0403 14:57:25.225787 13799 net.cpp:141] Setting up inception_5a/5x5_reduce
I0403 14:57:25.225816 13799 net.cpp:148] Top shape: 24 32 7 7 (37632)
I0403 14:57:25.225831 13799 net.cpp:156] Memory required for data: 1299200544
I0403 14:57:25.225848 13799 layer_factory.hpp:77] Creating layer inception_5a/relu_5x5_reduce
I0403 14:57:25.225867 13799 net.cpp:91] Creating Layer inception_5a/relu_5x5_reduce
I0403 14:57:25.225883 13799 net.cpp:425] inception_5a/relu_5x5_reduce <- inception_5a/5x5_reduce
I0403 14:57:25.225900 13799 net.cpp:386] inception_5a/relu_5x5_reduce -> inception_5a/5x5_reduce (in-place)
I0403 14:57:25.226196 13799 net.cpp:141] Setting up inception_5a/relu_5x5_reduce
I0403 14:57:25.226222 13799 net.cpp:148] Top shape: 24 32 7 7 (37632)
I0403 14:57:25.226238 13799 net.cpp:156] Memory required for data: 1299351072
I0403 14:57:25.226253 13799 layer_factory.hpp:77] Creating layer inception_5a/5x5
I0403 14:57:25.226274 13799 net.cpp:91] Creating Layer inception_5a/5x5
I0403 14:57:25.226292 13799 net.cpp:425] inception_5a/5x5 <- inception_5a/5x5_reduce
I0403 14:57:25.226311 13799 net.cpp:399] inception_5a/5x5 -> inception_5a/5x5
I0403 14:57:25.228003 13799 net.cpp:141] Setting up inception_5a/5x5
I0403 14:57:25.228040 13799 net.cpp:148] Top shape: 24 128 7 7 (150528)
I0403 14:57:25.228056 13799 net.cpp:156] Memory required for data: 1299953184
I0403 14:57:25.228075 13799 layer_factory.hpp:77] Creating layer inception_5a/relu_5x5
I0403 14:57:25.228094 13799 net.cpp:91] Creating Layer inception_5a/relu_5x5
I0403 14:57:25.228111 13799 net.cpp:425] inception_5a/relu_5x5 <- inception_5a/5x5
I0403 14:57:25.228128 13799 net.cpp:386] inception_5a/relu_5x5 -> inception_5a/5x5 (in-place)
I0403 14:57:25.228314 13799 net.cpp:141] Setting up inception_5a/relu_5x5
I0403 14:57:25.228340 13799 net.cpp:148] Top shape: 24 128 7 7 (150528)
I0403 14:57:25.228355 13799 net.cpp:156] Memory required for data: 1300555296
I0403 14:57:25.228369 13799 layer_factory.hpp:77] Creating layer inception_5a/pool
I0403 14:57:25.228386 13799 net.cpp:91] Creating Layer inception_5a/pool
I0403 14:57:25.228401 13799 net.cpp:425] inception_5a/pool <- pool4/3x3_s2_pool4/3x3_s2_0_split_3
I0403 14:57:25.228420 13799 net.cpp:399] inception_5a/pool -> inception_5a/pool
I0403 14:57:25.228488 13799 net.cpp:141] Setting up inception_5a/pool
I0403 14:57:25.228512 13799 net.cpp:148] Top shape: 24 832 7 7 (978432)
I0403 14:57:25.228524 13799 net.cpp:156] Memory required for data: 1304469024
I0403 14:57:25.228538 13799 layer_factory.hpp:77] Creating layer inception_5a/pool_proj
I0403 14:57:25.228559 13799 net.cpp:91] Creating Layer inception_5a/pool_proj
I0403 14:57:25.228580 13799 net.cpp:425] inception_5a/pool_proj <- inception_5a/pool
I0403 14:57:25.228601 13799 net.cpp:399] inception_5a/pool_proj -> inception_5a/pool_proj
I0403 14:57:25.230839 13799 net.cpp:141] Setting up inception_5a/pool_proj
I0403 14:57:25.230866 13799 net.cpp:148] Top shape: 24 128 7 7 (150528)
I0403 14:57:25.230880 13799 net.cpp:156] Memory required for data: 1305071136
I0403 14:57:25.230898 13799 layer_factory.hpp:77] Creating layer inception_5a/relu_pool_proj
I0403 14:57:25.230917 13799 net.cpp:91] Creating Layer inception_5a/relu_pool_proj
I0403 14:57:25.230939 13799 net.cpp:425] inception_5a/relu_pool_proj <- inception_5a/pool_proj
I0403 14:57:25.230957 13799 net.cpp:386] inception_5a/relu_pool_proj -> inception_5a/pool_proj (in-place)
I0403 14:57:25.231237 13799 net.cpp:141] Setting up inception_5a/relu_pool_proj
I0403 14:57:25.231261 13799 net.cpp:148] Top shape: 24 128 7 7 (150528)
I0403 14:57:25.231276 13799 net.cpp:156] Memory required for data: 1305673248
I0403 14:57:25.231292 13799 layer_factory.hpp:77] Creating layer inception_5a/output
I0403 14:57:25.231307 13799 net.cpp:91] Creating Layer inception_5a/output
I0403 14:57:25.231322 13799 net.cpp:425] inception_5a/output <- inception_5a/1x1
I0403 14:57:25.231336 13799 net.cpp:425] inception_5a/output <- inception_5a/3x3
I0403 14:57:25.231351 13799 net.cpp:425] inception_5a/output <- inception_5a/5x5
I0403 14:57:25.231366 13799 net.cpp:425] inception_5a/output <- inception_5a/pool_proj
I0403 14:57:25.231384 13799 net.cpp:399] inception_5a/output -> inception_5a/output
I0403 14:57:25.231434 13799 net.cpp:141] Setting up inception_5a/output
I0403 14:57:25.231456 13799 net.cpp:148] Top shape: 24 832 7 7 (978432)
I0403 14:57:25.231470 13799 net.cpp:156] Memory required for data: 1309586976
I0403 14:57:25.231483 13799 layer_factory.hpp:77] Creating layer inception_5a/output_inception_5a/output_0_split
I0403 14:57:25.231499 13799 net.cpp:91] Creating Layer inception_5a/output_inception_5a/output_0_split
I0403 14:57:25.231513 13799 net.cpp:425] inception_5a/output_inception_5a/output_0_split <- inception_5a/output
I0403 14:57:25.231531 13799 net.cpp:399] inception_5a/output_inception_5a/output_0_split -> inception_5a/output_inception_5a/output_0_split_0
I0403 14:57:25.231551 13799 net.cpp:399] inception_5a/output_inception_5a/output_0_split -> inception_5a/output_inception_5a/output_0_split_1
I0403 14:57:25.231575 13799 net.cpp:399] inception_5a/output_inception_5a/output_0_split -> inception_5a/output_inception_5a/output_0_split_2
I0403 14:57:25.231596 13799 net.cpp:399] inception_5a/output_inception_5a/output_0_split -> inception_5a/output_inception_5a/output_0_split_3
I0403 14:57:25.231703 13799 net.cpp:141] Setting up inception_5a/output_inception_5a/output_0_split
I0403 14:57:25.231725 13799 net.cpp:148] Top shape: 24 832 7 7 (978432)
I0403 14:57:25.231740 13799 net.cpp:148] Top shape: 24 832 7 7 (978432)
I0403 14:57:25.231755 13799 net.cpp:148] Top shape: 24 832 7 7 (978432)
I0403 14:57:25.231770 13799 net.cpp:148] Top shape: 24 832 7 7 (978432)
I0403 14:57:25.231781 13799 net.cpp:156] Memory required for data: 1325241888
I0403 14:57:25.231794 13799 layer_factory.hpp:77] Creating layer inception_5b/1x1
I0403 14:57:25.231817 13799 net.cpp:91] Creating Layer inception_5b/1x1
I0403 14:57:25.231834 13799 net.cpp:425] inception_5b/1x1 <- inception_5a/output_inception_5a/output_0_split_0
I0403 14:57:25.231851 13799 net.cpp:399] inception_5b/1x1 -> inception_5b/1x1
I0403 14:57:25.235455 13799 net.cpp:141] Setting up inception_5b/1x1
I0403 14:57:25.235481 13799 net.cpp:148] Top shape: 24 384 7 7 (451584)
I0403 14:57:25.235496 13799 net.cpp:156] Memory required for data: 1327048224
I0403 14:57:25.235514 13799 layer_factory.hpp:77] Creating layer inception_5b/relu_1x1
I0403 14:57:25.235533 13799 net.cpp:91] Creating Layer inception_5b/relu_1x1
I0403 14:57:25.235550 13799 net.cpp:425] inception_5b/relu_1x1 <- inception_5b/1x1
I0403 14:57:25.235570 13799 net.cpp:386] inception_5b/relu_1x1 -> inception_5b/1x1 (in-place)
I0403 14:57:25.235868 13799 net.cpp:141] Setting up inception_5b/relu_1x1
I0403 14:57:25.235893 13799 net.cpp:148] Top shape: 24 384 7 7 (451584)
I0403 14:57:25.235906 13799 net.cpp:156] Memory required for data: 1328854560
I0403 14:57:25.235920 13799 layer_factory.hpp:77] Creating layer inception_5b/3x3_reduce
I0403 14:57:25.235941 13799 net.cpp:91] Creating Layer inception_5b/3x3_reduce
I0403 14:57:25.235957 13799 net.cpp:425] inception_5b/3x3_reduce <- inception_5a/output_inception_5a/output_0_split_1
I0403 14:57:25.235978 13799 net.cpp:399] inception_5b/3x3_reduce -> inception_5b/3x3_reduce
I0403 14:57:25.238519 13799 net.cpp:141] Setting up inception_5b/3x3_reduce
I0403 14:57:25.238546 13799 net.cpp:148] Top shape: 24 192 7 7 (225792)
I0403 14:57:25.238561 13799 net.cpp:156] Memory required for data: 1329757728
I0403 14:57:25.238582 13799 layer_factory.hpp:77] Creating layer inception_5b/relu_3x3_reduce
I0403 14:57:25.238603 13799 net.cpp:91] Creating Layer inception_5b/relu_3x3_reduce
I0403 14:57:25.238620 13799 net.cpp:425] inception_5b/relu_3x3_reduce <- inception_5b/3x3_reduce
I0403 14:57:25.238636 13799 net.cpp:386] inception_5b/relu_3x3_reduce -> inception_5b/3x3_reduce (in-place)
I0403 14:57:25.238814 13799 net.cpp:141] Setting up inception_5b/relu_3x3_reduce
I0403 14:57:25.238837 13799 net.cpp:148] Top shape: 24 192 7 7 (225792)
I0403 14:57:25.238853 13799 net.cpp:156] Memory required for data: 1330660896
I0403 14:57:25.238867 13799 layer_factory.hpp:77] Creating layer inception_5b/3x3
I0403 14:57:25.238886 13799 net.cpp:91] Creating Layer inception_5b/3x3
I0403 14:57:25.238903 13799 net.cpp:425] inception_5b/3x3 <- inception_5b/3x3_reduce
I0403 14:57:25.238921 13799 net.cpp:399] inception_5b/3x3 -> inception_5b/3x3
I0403 14:57:25.245298 13799 net.cpp:141] Setting up inception_5b/3x3
I0403 14:57:25.245326 13799 net.cpp:148] Top shape: 24 384 7 7 (451584)
I0403 14:57:25.245340 13799 net.cpp:156] Memory required for data: 1332467232
I0403 14:57:25.245358 13799 layer_factory.hpp:77] Creating layer inception_5b/relu_3x3
I0403 14:57:25.245378 13799 net.cpp:91] Creating Layer inception_5b/relu_3x3
I0403 14:57:25.245395 13799 net.cpp:425] inception_5b/relu_3x3 <- inception_5b/3x3
I0403 14:57:25.245411 13799 net.cpp:386] inception_5b/relu_3x3 -> inception_5b/3x3 (in-place)
I0403 14:57:25.245698 13799 net.cpp:141] Setting up inception_5b/relu_3x3
I0403 14:57:25.245723 13799 net.cpp:148] Top shape: 24 384 7 7 (451584)
I0403 14:57:25.245738 13799 net.cpp:156] Memory required for data: 1334273568
I0403 14:57:25.245751 13799 layer_factory.hpp:77] Creating layer inception_5b/5x5_reduce
I0403 14:57:25.245790 13799 net.cpp:91] Creating Layer inception_5b/5x5_reduce
I0403 14:57:25.245807 13799 net.cpp:425] inception_5b/5x5_reduce <- inception_5a/output_inception_5a/output_0_split_2
I0403 14:57:25.245828 13799 net.cpp:399] inception_5b/5x5_reduce -> inception_5b/5x5_reduce
I0403 14:57:25.247042 13799 net.cpp:141] Setting up inception_5b/5x5_reduce
I0403 14:57:25.247068 13799 net.cpp:148] Top shape: 24 48 7 7 (56448)
I0403 14:57:25.247083 13799 net.cpp:156] Memory required for data: 1334499360
I0403 14:57:25.247100 13799 layer_factory.hpp:77] Creating layer inception_5b/relu_5x5_reduce
I0403 14:57:25.247119 13799 net.cpp:91] Creating Layer inception_5b/relu_5x5_reduce
I0403 14:57:25.247136 13799 net.cpp:425] inception_5b/relu_5x5_reduce <- inception_5b/5x5_reduce
I0403 14:57:25.247153 13799 net.cpp:386] inception_5b/relu_5x5_reduce -> inception_5b/5x5_reduce (in-place)
I0403 14:57:25.247511 13799 net.cpp:141] Setting up inception_5b/relu_5x5_reduce
I0403 14:57:25.247536 13799 net.cpp:148] Top shape: 24 48 7 7 (56448)
I0403 14:57:25.247550 13799 net.cpp:156] Memory required for data: 1334725152
I0403 14:57:25.247563 13799 layer_factory.hpp:77] Creating layer inception_5b/5x5
I0403 14:57:25.247586 13799 net.cpp:91] Creating Layer inception_5b/5x5
I0403 14:57:25.247603 13799 net.cpp:425] inception_5b/5x5 <- inception_5b/5x5_reduce
I0403 14:57:25.247622 13799 net.cpp:399] inception_5b/5x5 -> inception_5b/5x5
I0403 14:57:25.249567 13799 net.cpp:141] Setting up inception_5b/5x5
I0403 14:57:25.249595 13799 net.cpp:148] Top shape: 24 128 7 7 (150528)
I0403 14:57:25.249610 13799 net.cpp:156] Memory required for data: 1335327264
I0403 14:57:25.249627 13799 layer_factory.hpp:77] Creating layer inception_5b/relu_5x5
I0403 14:57:25.249646 13799 net.cpp:91] Creating Layer inception_5b/relu_5x5
I0403 14:57:25.249663 13799 net.cpp:425] inception_5b/relu_5x5 <- inception_5b/5x5
I0403 14:57:25.249680 13799 net.cpp:386] inception_5b/relu_5x5 -> inception_5b/5x5 (in-place)
I0403 14:57:25.249861 13799 net.cpp:141] Setting up inception_5b/relu_5x5
I0403 14:57:25.249886 13799 net.cpp:148] Top shape: 24 128 7 7 (150528)
I0403 14:57:25.249902 13799 net.cpp:156] Memory required for data: 1335929376
I0403 14:57:25.249915 13799 layer_factory.hpp:77] Creating layer inception_5b/pool
I0403 14:57:25.249932 13799 net.cpp:91] Creating Layer inception_5b/pool
I0403 14:57:25.249946 13799 net.cpp:425] inception_5b/pool <- inception_5a/output_inception_5a/output_0_split_3
I0403 14:57:25.249965 13799 net.cpp:399] inception_5b/pool -> inception_5b/pool
I0403 14:57:25.250036 13799 net.cpp:141] Setting up inception_5b/pool
I0403 14:57:25.250057 13799 net.cpp:148] Top shape: 24 832 7 7 (978432)
I0403 14:57:25.250072 13799 net.cpp:156] Memory required for data: 1339843104
I0403 14:57:25.250084 13799 layer_factory.hpp:77] Creating layer inception_5b/pool_proj
I0403 14:57:25.250107 13799 net.cpp:91] Creating Layer inception_5b/pool_proj
I0403 14:57:25.250123 13799 net.cpp:425] inception_5b/pool_proj <- inception_5b/pool
I0403 14:57:25.250140 13799 net.cpp:399] inception_5b/pool_proj -> inception_5b/pool_proj
I0403 14:57:25.252342 13799 net.cpp:141] Setting up inception_5b/pool_proj
I0403 14:57:25.252369 13799 net.cpp:148] Top shape: 24 128 7 7 (150528)
I0403 14:57:25.252383 13799 net.cpp:156] Memory required for data: 1340445216
I0403 14:57:25.252400 13799 layer_factory.hpp:77] Creating layer inception_5b/relu_pool_proj
I0403 14:57:25.252419 13799 net.cpp:91] Creating Layer inception_5b/relu_pool_proj
I0403 14:57:25.252435 13799 net.cpp:425] inception_5b/relu_pool_proj <- inception_5b/pool_proj
I0403 14:57:25.252451 13799 net.cpp:386] inception_5b/relu_pool_proj -> inception_5b/pool_proj (in-place)
I0403 14:57:25.252746 13799 net.cpp:141] Setting up inception_5b/relu_pool_proj
I0403 14:57:25.252771 13799 net.cpp:148] Top shape: 24 128 7 7 (150528)
I0403 14:57:25.252785 13799 net.cpp:156] Memory required for data: 1341047328
I0403 14:57:25.252799 13799 layer_factory.hpp:77] Creating layer inception_5b/output
I0403 14:57:25.252818 13799 net.cpp:91] Creating Layer inception_5b/output
I0403 14:57:25.252847 13799 net.cpp:425] inception_5b/output <- inception_5b/1x1
I0403 14:57:25.252864 13799 net.cpp:425] inception_5b/output <- inception_5b/3x3
I0403 14:57:25.252879 13799 net.cpp:425] inception_5b/output <- inception_5b/5x5
I0403 14:57:25.252894 13799 net.cpp:425] inception_5b/output <- inception_5b/pool_proj
I0403 14:57:25.252912 13799 net.cpp:399] inception_5b/output -> inception_5b/output
I0403 14:57:25.252961 13799 net.cpp:141] Setting up inception_5b/output
I0403 14:57:25.252984 13799 net.cpp:148] Top shape: 24 1024 7 7 (1204224)
I0403 14:57:25.252997 13799 net.cpp:156] Memory required for data: 1345864224
I0403 14:57:25.253010 13799 layer_factory.hpp:77] Creating layer pool5/7x7_s1
I0403 14:57:25.253027 13799 net.cpp:91] Creating Layer pool5/7x7_s1
I0403 14:57:25.253041 13799 net.cpp:425] pool5/7x7_s1 <- inception_5b/output
I0403 14:57:25.253062 13799 net.cpp:399] pool5/7x7_s1 -> pool5/7x7_s1
I0403 14:57:25.253267 13799 net.cpp:141] Setting up pool5/7x7_s1
I0403 14:57:25.253290 13799 net.cpp:148] Top shape: 24 1024 1 1 (24576)
I0403 14:57:25.253304 13799 net.cpp:156] Memory required for data: 1345962528
I0403 14:57:25.253317 13799 layer_factory.hpp:77] Creating layer pool5/drop_7x7_s1
I0403 14:57:25.253336 13799 net.cpp:91] Creating Layer pool5/drop_7x7_s1
I0403 14:57:25.253352 13799 net.cpp:425] pool5/drop_7x7_s1 <- pool5/7x7_s1
I0403 14:57:25.253370 13799 net.cpp:386] pool5/drop_7x7_s1 -> pool5/7x7_s1 (in-place)
I0403 14:57:25.253417 13799 net.cpp:141] Setting up pool5/drop_7x7_s1
I0403 14:57:25.253439 13799 net.cpp:148] Top shape: 24 1024 1 1 (24576)
I0403 14:57:25.253453 13799 net.cpp:156] Memory required for data: 1346060832
I0403 14:57:25.253466 13799 layer_factory.hpp:77] Creating layer loss3/classifier_plantvillage
I0403 14:57:25.253485 13799 net.cpp:91] Creating Layer loss3/classifier_plantvillage
I0403 14:57:25.253501 13799 net.cpp:425] loss3/classifier_plantvillage <- pool5/7x7_s1
I0403 14:57:25.253518 13799 net.cpp:399] loss3/classifier_plantvillage -> loss3/classifier_plantvillage
I0403 14:57:25.253926 13799 net.cpp:141] Setting up loss3/classifier_plantvillage
I0403 14:57:25.253948 13799 net.cpp:148] Top shape: 24 38 (912)
I0403 14:57:25.253962 13799 net.cpp:156] Memory required for data: 1346064480
I0403 14:57:25.253978 13799 layer_factory.hpp:77] Creating layer loss3/classifier_plantvillage_loss3/classifier_plantvillage_0_split
I0403 14:57:25.253994 13799 net.cpp:91] Creating Layer loss3/classifier_plantvillage_loss3/classifier_plantvillage_0_split
I0403 14:57:25.254009 13799 net.cpp:425] loss3/classifier_plantvillage_loss3/classifier_plantvillage_0_split <- loss3/classifier_plantvillage
I0403 14:57:25.254027 13799 net.cpp:399] loss3/classifier_plantvillage_loss3/classifier_plantvillage_0_split -> loss3/classifier_plantvillage_loss3/classifier_plantvillage_0_split_0
I0403 14:57:25.254047 13799 net.cpp:399] loss3/classifier_plantvillage_loss3/classifier_plantvillage_0_split -> loss3/classifier_plantvillage_loss3/classifier_plantvillage_0_split_1
I0403 14:57:25.254065 13799 net.cpp:399] loss3/classifier_plantvillage_loss3/classifier_plantvillage_0_split -> loss3/classifier_plantvillage_loss3/classifier_plantvillage_0_split_2
I0403 14:57:25.254083 13799 net.cpp:399] loss3/classifier_plantvillage_loss3/classifier_plantvillage_0_split -> loss3/classifier_plantvillage_loss3/classifier_plantvillage_0_split_3
I0403 14:57:25.254179 13799 net.cpp:141] Setting up loss3/classifier_plantvillage_loss3/classifier_plantvillage_0_split
I0403 14:57:25.254204 13799 net.cpp:148] Top shape: 24 38 (912)
I0403 14:57:25.254220 13799 net.cpp:148] Top shape: 24 38 (912)
I0403 14:57:25.254235 13799 net.cpp:148] Top shape: 24 38 (912)
I0403 14:57:25.254247 13799 net.cpp:148] Top shape: 24 38 (912)
I0403 14:57:25.254261 13799 net.cpp:156] Memory required for data: 1346079072
I0403 14:57:25.254272 13799 layer_factory.hpp:77] Creating layer loss1/loss
I0403 14:57:25.254293 13799 net.cpp:91] Creating Layer loss1/loss
I0403 14:57:25.254309 13799 net.cpp:425] loss1/loss <- loss1/classifier_plantvillage_loss1/classifier_plantvillage_0_split_0
I0403 14:57:25.254338 13799 net.cpp:425] loss1/loss <- label_data_1_split_0
…
