…
I0403 14:20:14.093619 13169 net.cpp:313] The NetState phase (1) differed from the phase (0) specified by a rule in layer data
I0403 14:20:14.094738 13169 net.cpp:49] Initializing net from parameters: 
state {
  phase: TEST
}
layer {
  name: "data"
  type: "Data"
  top: "data"
  top: "label"
  include {
    phase: TEST
  }
  transform_param {
    mirror: false
    crop_size: 224
    mean_file: "/home/mohanty/data/final_dataset/lmdb/color-40-60/mean.binaryproto"
  }
  data_param {
    source: "/home/mohanty/data/final_dataset/lmdb/color-40-60/test_db"
    batch_size: 24
    backend: LMDB
  }
}
layer {
  name: "conv1/7x7_s2"
  type: "Convolution"
  bottom: "data"
  top: "conv1/7x7_s2"
  param {
    lr_mult: 1
    decay_mult: 1
  }
  param {
    lr_mult: 2
    decay_mult: 0
  }
  convolution_param {
    num_output: 64
    pad: 3
    kernel_size: 7
    stride: 2
    weight_filler {
      type: "xavier"
      std: 0.1
    }
    bias_filler {
      type: "constant"
      value: 0.2
    }
  }
}
layer {
  name: "conv1/relu_7x7"
  type: "ReLU"
  bottom: "conv1/7x7_s2"
  top: "conv1/7x7_s2"
}
layer {
  name: "pool1/3x3_s2"
  type: "Pooling"
  bottom: "conv1/7x7_s2"
  top: "pool1/3x3_s2"
  pooling_param {
    pool: MAX
    kernel_size: 3
    stride: 2
  }
}
layer {
  name: "pool1/norm1"
  type: "LRN"
  bottom: "pool1/3x3_s2"
  top: "pool1/norm1"
  lrn_param {
    local_size: 5
    alpha: 0.0001
    beta: 0.75
  }
}
layer {
  name: "conv2/3x3_reduce"
  type: "Convolution"
  bottom: "pool1/norm1"
  top: "conv2/3x3_reduce"
  param {
    lr_mult: 1
    decay_mult: 1
  }
  param {
    lr_mult: 2
    decay_mult: 0
  }
  convolution_param {
    num_output: 64
    kernel_size: 1
    weight_filler {
      type: "xavier"
      std: 0.1
    }
    bias_filler {
      type: "constant"
      value: 0.2
    }
  }
}
layer {
  name: "conv2/relu_3x3_reduce"
  type: "ReLU"
  bottom: "conv2/3x3_reduce"
  top: "conv2/3x3_reduce"
}
layer {
  name: "conv2/3x3"
  type: "Convolution"
  bottom: "conv2/3x3_reduce"
  top: "conv2/3x3"
  param {
    lr_mult: 1
    decay_mult: 1
  }
  param {
    lr_mult: 2
    decay_mult: 0
  }
  convolution_param {
    num_output: 192
    pad: 1
    kernel_size: 3
    weight_filler {
      type: "xavier"
      std: 0.03
    }
    bias_filler {
      type: "constant"
      value: 0.2
    }
  }
}
layer {
  name: "conv2/relu_3x3"
  type: "ReLU"
  bottom: "conv2/3x3"
  top: "conv2/3x3"
}
layer {
  name: "conv2/norm2"
  type: "LRN"
  bottom: "conv2/3x3"
  top: "conv2/norm2"
  lrn_param {
    local_size: 5
    alpha: 0.0001
    beta: 0.75
  }
}
layer {
  name: "pool2/3x3_s2"
  type: "Pooling"
  bottom: "conv2/norm2"
  top: "pool2/3x3_s2"
  pooling_param {
    pool: MAX
    kernel_size: 3
    stride: 2
  }
}
layer {
  name: "inception_3a/1x1"
  type: "Convolution"
  bottom: "pool2/3x3_s2"
  top: "inception_3a/1x1"
  param {
    lr_mult: 1
    decay_mult: 1
  }
  param {
    lr_mult: 2
    decay_mult: 0
  }
  convolution_param {
    num_output: 64
    kernel_size: 1
    weight_filler {
      type: "xavier"
      std: 0.03
    }
    bias_filler {
      type: "constant"
      value: 0.2
    }
  }
}
layer {
  name: "inception_3a/relu_1x1"
  type: "ReLU"
  bottom: "inception_3a/1x1"
  top: "inception_3a/1x1"
}
layer {
  name: "inception_3a/3x3_reduce"
  type: "Convolution"
  bottom: "pool2/3x3_s2"
  top: "inception_3a/3x3_reduce"
  param {
    lr_mult: 1
    decay_mult: 1
  }
  param {
    lr_mult: 2
    decay_mult: 0
  }
  convolution_param {
    num_output: 96
    kernel_size: 1
    weight_filler {
      type: "xavier"
      std: 0.09
    }
    bias_filler {
      type: "constant"
      value: 0.2
    }
  }
}
layer {
  name: "inception_3a/relu_3x3_reduce"
  type: "ReLU"
  bottom: "inception_3a/3x3_reduce"
  top: "inception_3a/3x3_reduce"
}
layer {
  name: "inception_3a/3x3"
  type: "Convolution"
  bottom: "inception_3a/3x3_reduce"
  top: "inception_3a/3x3"
  param {
    lr_mult: 1
    decay_mult: 1
  }
  param {
    lr_mult: 2
    decay_mult: 0
  }
  convolution_param {
    num_output: 128
    pad: 1
    kernel_size: 3
    weight_filler {
      type: "xavier"
      std: 0.03
    }
    bias_filler {
      type: "constant"
      value: 0.2
    }
  }
}
layer {
  name: "inception_3a/relu_3x3"
  type: "ReLU"
  bottom: "inception_3a/3x3"
  top: "inception_3a/3x3"
}
layer {
  name: "inception_3a/5x5_reduce"
  type: "Convolution"
  bottom: "pool2/3x3_s2"
  top: "inception_3a/5x5_reduce"
  param {
    lr_mult: 1
    decay_mult: 1
  }
  param {
    lr_mult: 2
    decay_mult: 0
  }
  convolution_param {
    num_output: 16
    kernel_size: 1
    weight_filler {
      type: "xavier"
      std: 0.2
    }
    bias_filler {
      type: "constant"
      value: 0.2
    }
  }
}
layer {
  name: "inception_3a/relu_5x5_reduce"
  type: "ReLU"
  bottom: "inception_3a/5x5_reduce"
  top: "inception_3a/5x5_reduce"
}
layer {
  name: "inception_3a/5x5"
  type: "Convolution"
  bottom: "inception_3a/5x5_reduce"
  top: "inception_3a/5x5"
  param {
    lr_mult: 1
    decay_mult: 1
  }
  param {
    lr_mult: 2
    decay_mult: 0
  }
  convolution_param {
    num_output: 32
    pad: 2
    kernel_size: 5
    weight_filler {
      type: "xavier"
      std: 0.03
    }
    bias_filler {
      type: "constant"
      value: 0.2
    }
  }
}
layer {
  name: "inception_3a/relu_5x5"
  type: "ReLU"
  bottom: "inception_3a/5x5"
  top: "inception_3a/5x5"
}
layer {
  name: "inception_3a/pool"
  type: "Pooling"
  bottom: "pool2/3x3_s2"
  top: "inception_3a/pool"
  pooling_param {
    pool: MAX
    kernel_size: 3
    stride: 1
    pad: 1
  }
}
layer {
  name: "inception_3a/pool_proj"
  type: "Convolution"
  bottom: "inception_3a/pool"
  top: "inception_3a/pool_proj"
  param {
    lr_mult: 1
    decay_mult: 1
  }
  param {
    lr_mult: 2
    decay_mult: 0
  }
  convolution_param {
    num_output: 32
    kernel_size: 1
    weight_filler {
      type: "xavier"
      std: 0.1
    }
    bias_filler {
      type: "constant"
      value: 0.2
    }
  }
}
layer {
  name: "inception_3a/relu_pool_proj"
  type: "ReLU"
  bottom: "inception_3a/pool_proj"
  top: "inception_3a/pool_proj"
}
layer {
  name: "inception_3a/output"
  type: "Concat"
  bottom: "inception_3a/1x1"
  bottom: "inception_3a/3x3"
  bottom: "inception_3a/5x5"
  bottom: "inception_3a/pool_proj"
  top: "inception_3a/output"
}
layer {
  name: "inception_3b/1x1"
  type: "Convolution"
  bottom: "inception_3a/output"
  top: "inception_3b/1x1"
  param {
    lr_mult: 1
    decay_mult: 1
  }
  param {
    lr_mult: 2
    decay_mult: 0
  }
  convolution_param {
    num_output: 128
    kernel_size: 1
    weight_filler {
      type: "xavier"
      std: 0.03
    }
    bias_filler {
      type: "constant"
      value: 0.2
    }
  }
}
layer {
  name: "inception_3b/relu_1x1"
  type: "ReLU"
  bottom: "inception_3b/1x1"
  top: "inception_3b/1x1"
}
layer {
  name: "inception_3b/3x3_reduce"
  type: "Convolution"
  bottom: "inception_3a/output"
  top: "inception_3b/3x3_reduce"
  param {
    lr_mult: 1
    decay_mult: 1
  }
  param {
    lr_mult: 2
    decay_mult: 0
  }
  convolution_param {
    num_output: 128
    kernel_size: 1
    weight_filler {
      type: "xavier"
      std: 0.09
    }
    bias_filler {
      type: "constant"
      value: 0.2
    }
  }
}
layer {
  name: "inception_3b/relu_3x3_reduce"
  type: "ReLU"
  bottom: "inception_3b/3x3_reduce"
  top: "inception_3b/3x3_reduce"
}
layer {
  name: "inception_3b/3x3"
  type: "Convolution"
  bottom: "inception_3b/3x3_reduce"
  top: "inception_3b/3x3"
  param {
    lr_mult: 1
    decay_mult: 1
  }
  param {
    lr_mult: 2
    decay_mult: 0
  }
  convolution_param {
    num_output: 192
    pad: 1
    kernel_size: 3
    weight_filler {
      type: "xavier"
      std: 0.03
    }
    bias_filler {
      type: "constant"
      value: 0.2
    }
  }
}
layer {
  name: "inception_3b/relu_3x3"
  type: "ReLU"
  bottom: "inception_3b/3x3"
  top: "inception_3b/3x3"
}
layer {
  name: "inception_3b/5x5_reduce"
  type: "Convolution"
  bottom: "inception_3a/output"
  top: "inception_3b/5x5_reduce"
  param {
    lr_mult: 1
    decay_mult: 1
  }
  param {
    lr_mult: 2
    decay_mult: 0
  }
  convolution_param {
    num_output: 32
    kernel_size: 1
    weight_filler {
      type: "xavier"
      std: 0.2
    }
    bias_filler {
      type: "constant"
      value: 0.2
    }
  }
}
layer {
  name: "inception_3b/relu_5x5_reduce"
  type: "ReLU"
  bottom: "inception_3b/5x5_reduce"
  top: "inception_3b/5x5_reduce"
}
layer {
  name: "inception_3b/5x5"
  type: "Convolution"
  bottom: "inception_3b/5x5_reduce"
  top: "inception_3b/5x5"
  param {
    lr_mult: 1
    decay_mult: 1
  }
  param {
    lr_mult: 2
    decay_mult: 0
  }
  convolution_param {
    num_output: 96
    pad: 2
    kernel_size: 5
    weight_filler {
      type: "xavier"
      std: 0.03
    }
    bias_filler {
      type: "constant"
      value: 0.2
    }
  }
}
layer {
  name: "inception_3b/relu_5x5"
  type: "ReLU"
  bottom: "inception_3b/5x5"
  top: "inception_3b/5x5"
}
layer {
  name: "inception_3b/pool"
  type: "Pooling"
  bottom: "inception_3a/output"
  top: "inception_3b/pool"
  pooling_param {
    pool: MAX
    kernel_size: 3
    stride: 1
    pad: 1
  }
}
layer {
  name: "inception_3b/pool_proj"
  type: "Convolution"
  bottom: "inception_3b/pool"
  top: "inception_3b/pool_proj"
  param {
    lr_mult: 1
    decay_mult: 1
  }
  param {
    lr_mult: 2
    decay_mult: 0
  }
  convolution_param {
    num_output: 64
    kernel_size: 1
    weight_filler {
      type: "xavier"
      std: 0.1
    }
    bias_filler {
      type: "constant"
      value: 0.2
    }
  }
}
layer {
  name: "inception_3b/relu_pool_proj"
  type: "ReLU"
  bottom: "inception_3b/pool_proj"
  top: "inception_3b/pool_proj"
}
layer {
  name: "inception_3b/output"
  type: "Concat"
  bottom: "inception_3b/1x1"
  bottom: "inception_3b/3x3"
  bottom: "inception_3b/5x5"
  bottom: "inception_3b/pool_proj"
  top: "inception_3b/output"
}
layer {
  name: "pool3/3x3_s2"
  type: "Pooling"
  bottom: "inception_3b/output"
  top: "pool3/3x3_s2"
  pooling_param {
    pool: MAX
    kernel_size: 3
    stride: 2
  }
}
layer {
  name: "inception_4a/1x1"
  type: "Convolution"
  bottom: "pool3/3x3_s2"
  top: "inception_4a/1x1"
  param {
    lr_mult: 1
    decay_mult: 1
  }
  param {
    lr_mult: 2
    decay_mult: 0
  }
  convolution_param {
    num_output: 192
    kernel_size: 1
    weight_filler {
      type: "xavier"
      std: 0.03
    }
    bias_filler {
      type: "constant"
      value: 0.2
    }
  }
}
layer {
  name: "inception_4a/relu_1x1"
  type: "ReLU"
  bottom: "inception_4a/1x1"
  top: "inception_4a/1x1"
}
layer {
  name: "inception_4a/3x3_reduce"
  type: "Convolution"
  bottom: "pool3/3x3_s2"
  top: "inception_4a/3x3_reduce"
  param {
    lr_mult: 1
    decay_mult: 1
  }
  param {
    lr_mult: 2
    decay_mult: 0
  }
  convolution_param {
    num_output: 96
    kernel_size: 1
    weight_filler {
      type: "xavier"
      std: 0.09
    }
    bias_filler {
      type: "constant"
      value: 0.2
    }
  }
}
layer {
  name: "inception_4a/relu_3x3_reduce"
  type: "ReLU"
  bottom: "inception_4a/3x3_reduce"
  top: "inception_4a/3x3_reduce"
}
layer {
  name: "inception_4a/3x3"
  type: "Convolution"
  bottom: "inception_4a/3x3_reduce"
  top: "inception_4a/3x3"
  param {
    lr_mult: 1
    decay_mult: 1
  }
  param {
    lr_mult: 2
    decay_mult: 0
  }
  convolution_param {
    num_output: 208
    pad: 1
    kernel_size: 3
    weight_filler {
      type: "xavier"
      std: 0.03
    }
    bias_filler {
      type: "constant"
      value: 0.2
    }
  }
}
layer {
  name: "inception_4a/relu_3x3"
  type: "ReLU"
  bottom: "inception_4a/3x3"
  top: "inception_4a/3x3"
}
layer {
  name: "inception_4a/5x5_reduce"
  type: "Convolution"
  bottom: "pool3/3x3_s2"
  top: "inception_4a/5x5_reduce"
  param {
    lr_mult: 1
    decay_mult: 1
  }
  param {
    lr_mult: 2
    decay_mult: 0
  }
  convolution_param {
    num_output: 16
    kernel_size: 1
    weight_filler {
      type: "xavier"
      std: 0.2
    }
    bias_filler {
      type: "constant"
      value: 0.2
    }
  }
}
layer {
  name: "inception_4a/relu_5x5_reduce"
  type: "ReLU"
  bottom: "inception_4a/5x5_reduce"
  top: "inception_4a/5x5_reduce"
}
layer {
  name: "inception_4a/5x5"
  type: "Convolution"
  bottom: "inception_4a/5x5_reduce"
  top: "inception_4a/5x5"
  param {
    lr_mult: 1
    decay_mult: 1
  }
  param {
    lr_mult: 2
    decay_mult: 0
  }
  convolution_param {
    num_output: 48
    pad: 2
    kernel_size: 5
    weight_filler {
      type: "xavier"
      std: 0.03
    }
    bias_filler {
      type: "constant"
      value: 0.2
    }
  }
}
layer {
  name: "inception_4a/relu_5x5"
  type: "ReLU"
  bottom: "inception_4a/5x5"
  top: "inception_4a/5x5"
}
layer {
  name: "inception_4a/pool"
  type: "Pooling"
  bottom: "pool3/3x3_s2"
  top: "inception_4a/pool"
  pooling_param {
    pool: MAX
    kernel_size: 3
    stride: 1
    pad: 1
  }
}
layer {
  name: "inception_4a/pool_proj"
  type: "Convolution"
  bottom: "inception_4a/pool"
  top: "inception_4a/pool_proj"
  param {
    lr_mult: 1
    decay_mult: 1
  }
  param {
    lr_mult: 2
    decay_mult: 0
  }
  convolution_param {
    num_output: 64
    kernel_size: 1
    weight_filler {
      type: "xavier"
      std: 0.1
    }
    bias_filler {
      type: "constant"
      value: 0.2
    }
  }
}
layer {
  name: "inception_4a/relu_pool_proj"
  type: "ReLU"
  bottom: "inception_4a/pool_proj"
  top: "inception_4a/pool_proj"
}
layer {
  name: "inception_4a/output"
  type: "Concat"
  bottom: "inception_4a/1x1"
  bottom: "inception_4a/3x3"
  bottom: "inception_4a/5x5"
  bottom: "inception_4a/pool_proj"
  top: "inception_4a/output"
}
layer {
  name: "loss1/ave_pool"
  type: "Pooling"
  bottom: "inception_4a/output"
  top: "loss1/ave_pool"
  pooling_param {
    pool: AVE
    kernel_size: 5
    stride: 3
  }
}
layer {
  name: "loss1/conv"
  type: "Convolution"
  bottom: "loss1/ave_pool"
  top: "loss1/conv"
  param {
    lr_mult: 1
    decay_mult: 1
  }
  param {
    lr_mult: 2
    decay_mult: 0
  }
  convolution_param {
    num_output: 128
    kernel_size: 1
    weight_filler {
      type: "xavier"
      std: 0.08
    }
    bias_filler {
      type: "constant"
      value: 0.2
    }
  }
}
layer {
  name: "loss1/relu_conv"
  type: "ReLU"
  bottom: "loss1/conv"
  top: "loss1/conv"
}
layer {
  name: "loss1/fc"
  type: "InnerProduct"
  bottom: "loss1/conv"
  top: "loss1/fc"
  param {
    lr_mult: 1
    decay_mult: 1
  }
  param {
    lr_mult: 2
    decay_mult: 0
  }
  inner_product_param {
    num_output: 1024
    weight_filler {
      type: "xavier"
      std: 0.02
    }
    bias_filler {
      type: "constant"
      value: 0.2
    }
  }
}
layer {
  name: "loss1/relu_fc"
  type: "ReLU"
  bottom: "loss1/fc"
  top: "loss1/fc"
}
layer {
  name: "loss1/drop_fc"
  type: "Dropout"
  bottom: "loss1/fc"
  top: "loss1/fc"
  dropout_param {
    dropout_ratio: 0.7
  }
}
layer {
  name: "loss1/classifier_plantvillage"
  type: "InnerProduct"
  bottom: "loss1/fc"
  top: "loss1/classifier_plantvillage"
  param {
    lr_mult: 1
    decay_mult: 1
  }
  param {
    lr_mult: 2
    decay_mult: 0
  }
  inner_product_param {
    num_output: 38
    weight_filler {
      type: "xavier"
      std: 0.0009765625
    }
    bias_filler {
      type: "constant"
      value: 0
    }
  }
}
layer {
  name: "inception_4b/1x1"
  type: "Convolution"
  bottom: "inception_4a/output"
  top: "inception_4b/1x1"
  param {
    lr_mult: 1
    decay_mult: 1
  }
  param {
    lr_mult: 2
    decay_mult: 0
  }
  convolution_param {
    num_output: 160
    kernel_size: 1
    weight_filler {
      type: "xavier"
      std: 0.03
    }
    bias_filler {
      type: "constant"
      value: 0.2
    }
  }
}
layer {
  name: "inception_4b/relu_1x1"
  type: "ReLU"
  bottom: "inception_4b/1x1"
  top: "inception_4b/1x1"
}
layer {
  name: "inception_4b/3x3_reduce"
  type: "Convolution"
  bottom: "inception_4a/output"
  top: "inception_4b/3x3_reduce"
  param {
    lr_mult: 1
    decay_mult: 1
  }
  param {
    lr_mult: 2
    decay_mult: 0
  }
  convolution_param {
    num_output: 112
    kernel_size: 1
    weight_filler {
      type: "xavier"
      std: 0.09
    }
    bias_filler {
      type: "constant"
      value: 0.2
    }
  }
}
layer {
  name: "inception_4b/relu_3x3_reduce"
  type: "ReLU"
  bottom: "inception_4b/3x3_reduce"
  top: "inception_4b/3x3_reduce"
}
layer {
  name: "inception_4b/3x3"
  type: "Convolution"
  bottom: "inception_4b/3x3_reduce"
  top: "inception_4b/3x3"
  param {
    lr_mult: 1
    decay_mult: 1
  }
  param {
    lr_mult: 2
    decay_mult: 0
  }
  convolution_param {
    num_output: 224
    pad: 1
    kernel_size: 3
    weight_filler {
      type: "xavier"
      std: 0.03
    }
    bias_filler {
      type: "constant"
      value: 0.2
    }
  }
}
layer {
  name: "inception_4b/relu_3x3"
  type: "ReLU"
  bottom: "inception_4b/3x3"
  top: "inception_4b/3x3"
}
layer {
  name: "inception_4b/5x5_reduce"
  type: "Convolution"
  bottom: "inception_4a/output"
  top: "inception_4b/5x5_reduce"
  param {
    lr_mult: 1
    decay_mult: 1
  }
  param {
    lr_mult: 2
    decay_mult: 0
  }
  convolution_param {
    num_output: 24
    kernel_size: 1
    weight_filler {
      type: "xavier"
      std: 0.2
    }
    bias_filler {
      type: "constant"
      value: 0.2
    }
  }
}
layer {
  name: "inception_4b/relu_5x5_reduce"
  type: "ReLU"
  bottom: "inception_4b/5x5_reduce"
  top: "inception_4b/5x5_reduce"
}
layer {
  name: "inception_4b/5x5"
  type: "Convolution"
  bottom: "inception_4b/5x5_reduce"
  top: "inception_4b/5x5"
  param {
    lr_mult: 1
    decay_mult: 1
  }
  param {
    lr_mult: 2
    decay_mult: 0
  }
  convolution_param {
    num_output: 64
    pad: 2
    kernel_size: 5
    weight_filler {
      type: "xavier"
      std: 0.03
    }
    bias_filler {
      type: "constant"
      value: 0.2
    }
  }
}
layer {
  name: "inception_4b/relu_5x5"
  type: "ReLU"
  bottom: "inception_4b/5x5"
  top: "inception_4b/5x5"
}
layer {
  name: "inception_4b/pool"
  type: "Pooling"
  bottom: "inception_4a/output"
  top: "inception_4b/pool"
  pooling_param {
    pool: MAX
    kernel_size: 3
    stride: 1
    pad: 1
  }
}
layer {
  name: "inception_4b/pool_proj"
  type: "Convolution"
  bottom: "inception_4b/pool"
  top: "inception_4b/pool_proj"
  param {
    lr_mult: 1
    decay_mult: 1
  }
  param {
    lr_mult: 2
    decay_mult: 0
  }
  convolution_param {
    num_output: 64
    kernel_size: 1
    weight_filler {
      type: "xavier"
      std: 0.1
    }
    bias_filler {
      type: "constant"
      value: 0.2
    }
  }
}
layer {
  name: "inception_4b/relu_pool_proj"
  type: "ReLU"
  bottom: "inception_4b/pool_proj"
  top: "inception_4b/pool_proj"
}
layer {
  name: "inception_4b/output"
  type: "Concat"
  bottom: "inception_4b/1x1"
  bottom: "inception_4b/3x3"
  bottom: "inception_4b/5x5"
  bottom: "inception_4b/pool_proj"
  top: "inception_4b/output"
}
layer {
  name: "inception_4c/1x1"
  type: "Convolution"
  bottom: "inception_4b/output"
  top: "inception_4c/1x1"
  param {
    lr_mult: 1
    decay_mult: 1
  }
  param {
    lr_mult: 2
    decay_mult: 0
  }
  convolution_param {
    num_output: 128
    kernel_size: 1
    weight_filler {
      type: "xavier"
      std: 0.03
    }
    bias_filler {
      type: "constant"
      value: 0.2
    }
  }
}
layer {
  name: "inception_4c/relu_1x1"
  type: "ReLU"
  bottom: "inception_4c/1x1"
  top: "inception_4c/1x1"
}
layer {
  name: "inception_4c/3x3_reduce"
  type: "Convolution"
  bottom: "inception_4b/output"
  top: "inception_4c/3x3_reduce"
  param {
    lr_mult: 1
    decay_mult: 1
  }
  param {
    lr_mult: 2
    decay_mult: 0
  }
  convolution_param {
    num_output: 128
    kernel_size: 1
    weight_filler {
      type: "xavier"
      std: 0.09
    }
    bias_filler {
      type: "constant"
      value: 0.2
    }
  }
}
layer {
  name: "inception_4c/relu_3x3_reduce"
  type: "ReLU"
  bottom: "inception_4c/3x3_reduce"
  top: "inception_4c/3x3_reduce"
}
layer {
  name: "inception_4c/3x3"
  type: "Convolution"
  bottom: "inception_4c/3x3_reduce"
  top: "inception_4c/3x3"
  param {
    lr_mult: 1
    decay_mult: 1
  }
  param {
    lr_mult: 2
    decay_mult: 0
  }
  convolution_param {
    num_output: 256
    pad: 1
    kernel_size: 3
    weight_filler {
      type: "xavier"
      std: 0.03
    }
    bias_filler {
      type: "constant"
      value: 0.2
    }
  }
}
layer {
  name: "inception_4c/relu_3x3"
  type: "ReLU"
  bottom: "inception_4c/3x3"
  top: "inception_4c/3x3"
}
layer {
  name: "inception_4c/5x5_reduce"
  type: "Convolution"
  bottom: "inception_4b/output"
  top: "inception_4c/5x5_reduce"
  param {
    lr_mult: 1
    decay_mult: 1
  }
  param {
    lr_mult: 2
    decay_mult: 0
  }
  convolution_param {
    num_output: 24
    kernel_size: 1
    weight_filler {
      type: "xavier"
      std: 0.2
    }
    bias_filler {
      type: "constant"
      value: 0.2
    }
  }
}
layer {
  name: "inception_4c/relu_5x5_reduce"
  type: "ReLU"
  bottom: "inception_4c/5x5_reduce"
  top: "inception_4c/5x5_reduce"
}
layer {
  name: "inception_4c/5x5"
  type: "Convolution"
  bottom: "inception_4c/5x5_reduce"
  top: "inception_4c/5x5"
  param {
    lr_mult: 1
    decay_mult: 1
  }
  param {
    lr_mult: 2
    decay_mult: 0
  }
  convolution_param {
    num_output: 64
    pad: 2
    kernel_size: 5
    weight_filler {
      type: "xavier"
      std: 0.03
    }
    bias_filler {
      type: "constant"
      value: 0.2
    }
  }
}
layer {
  name: "inception_4c/relu_5x5"
  type: "ReLU"
  bottom: "inception_4c/5x5"
  top: "inception_4c/5x5"
}
layer {
  name: "inception_4c/pool"
  type: "Pooling"
  bottom: "inception_4b/output"
  top: "inception_4c/pool"
  pooling_param {
    pool: MAX
    kernel_size: 3
    stride: 1
    pad: 1
  }
}
layer {
  name: "inception_4c/pool_proj"
  type: "Convolution"
  bottom: "inception_4c/pool"
  top: "inception_4c/pool_proj"
  param {
    lr_mult: 1
    decay_mult: 1
  }
  param {
    lr_mult: 2
    decay_mult: 0
  }
  convolution_param {
    num_output: 64
    kernel_size: 1
    weight_filler {
      type: "xavier"
      std: 0.1
    }
    bias_filler {
      type: "constant"
      value: 0.2
    }
  }
}
layer {
  name: "inception_4c/relu_pool_proj"
  type: "ReLU"
  bottom: "inception_4c/pool_proj"
  top: "inception_4c/pool_proj"
}
layer {
  name: "inception_4c/output"
  type: "Concat"
  bottom: "inception_4c/1x1"
  bottom: "inception_4c/3x3"
  bottom: "inception_4c/5x5"
  bottom: "inception_4c/pool_proj"
  top: "inception_4c/output"
}
layer {
  name: "inception_4d/1x1"
  type: "Convolution"
  bottom: "inception_4c/output"
  top: "inception_4d/1x1"
  param {
    lr_mult: 1
    decay_mult: 1
  }
  param {
    lr_mult: 2
    decay_mult: 0
  }
  convolution_param {
    num_output: 112
    kernel_size: 1
    weight_filler {
      type: "xavier"
      std: 0.03
    }
    bias_filler {
      type: "constant"
      value: 0.2
    }
  }
}
layer {
  name: "inception_4d/relu_1x1"
  type: "ReLU"
  bottom: "inception_4d/1x1"
  top: "inception_4d/1x1"
}
layer {
  name: "inception_4d/3x3_reduce"
  type: "Convolution"
  bottom: "inception_4c/output"
  top: "inception_4d/3x3_reduce"
  param {
    lr_mult: 1
    decay_mult: 1
  }
  param {
    lr_mult: 2
    decay_mult: 0
  }
  convolution_param {
    num_output: 144
    kernel_size: 1
    weight_filler {
      type: "xavier"
      std: 0.09
    }
    bias_filler {
      type: "constant"
      value: 0.2
    }
  }
}
layer {
  name: "inception_4d/relu_3x3_reduce"
  type: "ReLU"
  bottom: "inception_4d/3x3_reduce"
  top: "inception_4d/3x3_reduce"
}
layer {
  name: "inception_4d/3x3"
  type: "Convolution"
  bottom: "inception_4d/3x3_reduce"
  top: "inception_4d/3x3"
  param {
    lr_mult: 1
    decay_mult: 1
  }
  param {
    lr_mult: 2
    decay_mult: 0
  }
  convolution_param {
    num_output: 288
    pad: 1
    kernel_size: 3
    weight_filler {
      type: "xavier"
      std: 0.03
    }
    bias_filler {
      type: "constant"
      value: 0.2
    }
  }
}
layer {
  name: "inception_4d/relu_3x3"
  type: "ReLU"
  bottom: "inception_4d/3x3"
  top: "inception_4d/3x3"
}
layer {
  name: "inception_4d/5x5_reduce"
  type: "Convolution"
  bottom: "inception_4c/output"
  top: "inception_4d/5x5_reduce"
  param {
    lr_mult: 1
    decay_mult: 1
  }
  param {
    lr_mult: 2
    decay_mult: 0
  }
  convolution_param {
    num_output: 32
    kernel_size: 1
    weight_filler {
      type: "xavier"
      std: 0.2
    }
    bias_filler {
      type: "constant"
      value: 0.2
    }
  }
}
layer {
  name: "inception_4d/relu_5x5_reduce"
  type: "ReLU"
  bottom: "inception_4d/5x5_reduce"
  top: "inception_4d/5x5_reduce"
}
layer {
  name: "inception_4d/5x5"
  type: "Convolution"
  bottom: "inception_4d/5x5_reduce"
  top: "inception_4d/5x5"
  param {
    lr_mult: 1
    decay_mult: 1
  }
  param {
    lr_mult: 2
    decay_mult: 0
  }
  convolution_param {
    num_output: 64
    pad: 2
    kernel_size: 5
    weight_filler {
      type: "xavier"
      std: 0.03
    }
    bias_filler {
      type: "constant"
      value: 0.2
    }
  }
}
layer {
  name: "inception_4d/relu_5x5"
  type: "ReLU"
  bottom: "inception_4d/5x5"
  top: "inception_4d/5x5"
}
layer {
  name: "inception_4d/pool"
  type: "Pooling"
  bottom: "inception_4c/output"
  top: "inception_4d/pool"
  pooling_param {
    pool: MAX
    kernel_size: 3
    stride: 1
    pad: 1
  }
}
layer {
  name: "inception_4d/pool_proj"
  type: "Convolution"
  bottom: "inception_4d/pool"
  top: "inception_4d/pool_proj"
  param {
    lr_mult: 1
    decay_mult: 1
  }
  param {
    lr_mult: 2
    decay_mult: 0
  }
  convolution_param {
    num_output: 64
    kernel_size: 1
    weight_filler {
      type: "xavier"
      std: 0.1
    }
    bias_filler {
      type: "constant"
      value: 0.2
    }
  }
}
layer {
  name: "inception_4d/relu_pool_proj"
  type: "ReLU"
  bottom: "inception_4d/pool_proj"
  top: "inception_4d/pool_proj"
}
layer {
  name: "inception_4d/output"
  type: "Concat"
  bottom: "inception_4d/1x1"
  bottom: "inception_4d/3x3"
  bottom: "inception_4d/5x5"
  bottom: "inception_4d/pool_proj"
  top: "inception_4d/output"
}
layer {
  name: "loss2/ave_pool"
  type: "Pooling"
  bottom: "inception_4d/output"
  top: "loss2/ave_pool"
  pooling_param {
    pool: AVE
    kernel_size: 5
    stride: 3
  }
}
layer {
  name: "loss2/conv"
  type: "Convolution"
  bottom: "loss2/ave_pool"
  top: "loss2/conv"
  param {
    lr_mult: 1
    decay_mult: 1
  }
  param {
    lr_mult: 2
    decay_mult: 0
  }
  convolution_param {
    num_output: 128
    kernel_size: 1
    weight_filler {
      type: "xavier"
      std: 0.08
    }
    bias_filler {
      type: "constant"
      value: 0.2
    }
  }
}
layer {
  name: "loss2/relu_conv"
  type: "ReLU"
  bottom: "loss2/conv"
  top: "loss2/conv"
}
layer {
  name: "loss2/fc"
  type: "InnerProduct"
  bottom: "loss2/conv"
  top: "loss2/fc"
  param {
    lr_mult: 1
    decay_mult: 1
  }
  param {
    lr_mult: 2
    decay_mult: 0
  }
  inner_product_param {
    num_output: 1024
    weight_filler {
      type: "xavier"
      std: 0.02
    }
    bias_filler {
      type: "constant"
      value: 0.2
    }
  }
}
layer {
  name: "loss2/relu_fc"
  type: "ReLU"
  bottom: "loss2/fc"
  top: "loss2/fc"
}
layer {
  name: "loss2/drop_fc"
  type: "Dropout"
  bottom: "loss2/fc"
  top: "loss2/fc"
  dropout_param {
    dropout_ratio: 0.7
  }
}
layer {
  name: "loss2/classifier_plantvillage"
  type: "InnerProduct"
  bottom: "loss2/fc"
  top: "loss2/classifier_plantvillage"
  param {
    lr_mult: 1
    decay_mult: 1
  }
  param {
    lr_mult: 2
    decay_mult: 0
  }
  inner_product_param {
    num_output: 38
    weight_filler {
      type: "xavier"
      std: 0.0009765625
    }
    bias_filler {
      type: "constant"
      value: 0
    }
  }
}
layer {
  name: "inception_4e/1x1"
  type: "Convolution"
  bottom: "inception_4d/output"
  top: "inception_4e/1x1"
  param {
    lr_mult: 1
    decay_mult: 1
  }
  param {
    lr_mult: 2
    decay_mult: 0
  }
  convolution_param {
    num_output: 256
    kernel_size: 1
    weight_filler {
      type: "xavier"
      std: 0.03
    }
    bias_filler {
      type: "constant"
      value: 0.2
    }
  }
}
layer {
  name: "inception_4e/relu_1x1"
  type: "ReLU"
  bottom: "inception_4e/1x1"
  top: "inception_4e/1x1"
}
layer {
  name: "inception_4e/3x3_reduce"
  type: "Convolution"
  bottom: "inception_4d/output"
  top: "inception_4e/3x3_reduce"
  param {
    lr_mult: 1
    decay_mult: 1
  }
  param {
    lr_mult: 2
    decay_mult: 0
  }
  convolution_param {
    num_output: 160
    kernel_size: 1
    weight_filler {
      type: "xavier"
      std: 0.09
    }
    bias_filler {
      type: "constant"
      value: 0.2
    }
  }
}
layer {
  name: "inception_4e/relu_3x3_reduce"
  type: "ReLU"
  bottom: "inception_4e/3x3_reduce"
  top: "inception_4e/3x3_reduce"
}
layer {
  name: "inception_4e/3x3"
  type: "Convolution"
  bottom: "inception_4e/3x3_reduce"
  top: "inception_4e/3x3"
  param {
    lr_mult: 1
    decay_mult: 1
  }
  param {
    lr_mult: 2
    decay_mult: 0
  }
  convolution_param {
    num_output: 320
    pad: 1
    kernel_size: 3
    weight_filler {
      type: "xavier"
      std: 0.03
    }
    bias_filler {
      type: "constant"
      value: 0.2
    }
  }
}
layer {
  name: "inception_4e/relu_3x3"
  type: "ReLU"
  bottom: "inception_4e/3x3"
  top: "inception_4e/3x3"
}
layer {
  name: "inception_4e/5x5_reduce"
  type: "Convolution"
  bottom: "inception_4d/output"
  top: "inception_4e/5x5_reduce"
  param {
    lr_mult: 1
    decay_mult: 1
  }
  param {
    lr_mult: 2
    decay_mult: 0
  }
  convolution_param {
    num_output: 32
    kernel_size: 1
    weight_filler {
      type: "xavier"
      std: 0.2
    }
    bias_filler {
      type: "constant"
      value: 0.2
    }
  }
}
layer {
  name: "inception_4e/relu_5x5_reduce"
  type: "ReLU"
  bottom: "inception_4e/5x5_reduce"
  top: "inception_4e/5x5_reduce"
}
layer {
  name: "inception_4e/5x5"
  type: "Convolution"
  bottom: "inception_4e/5x5_reduce"
  top: "inception_4e/5x5"
  p
I0403 14:20:14.095985 13169 layer_factory.hpp:77] Creating layer data
I0403 14:20:14.096570 13169 net.cpp:91] Creating Layer data
I0403 14:20:14.096606 13169 net.cpp:399] data -> data
I0403 14:20:14.096657 13169 net.cpp:399] data -> label
I0403 14:20:14.096691 13169 data_transformer.cpp:25] Loading mean file from: /home/mohanty/data/final_dataset/lmdb/color-40-60/mean.binaryproto
I0403 14:20:14.099786 13172 db_lmdb.cpp:38] Opened lmdb /home/mohanty/data/final_dataset/lmdb/color-40-60/test_db
I0403 14:20:14.109958 13169 data_layer.cpp:41] output data size: 24,3,224,224
I0403 14:20:14.137128 13169 net.cpp:141] Setting up data
I0403 14:20:14.137181 13169 net.cpp:148] Top shape: 24 3 224 224 (3612672)
I0403 14:20:14.137204 13169 net.cpp:148] Top shape: 24 (24)
I0403 14:20:14.137219 13169 net.cpp:156] Memory required for data: 14450784
I0403 14:20:14.137246 13169 layer_factory.hpp:77] Creating layer label_data_1_split
I0403 14:20:14.137274 13169 net.cpp:91] Creating Layer label_data_1_split
I0403 14:20:14.137293 13169 net.cpp:425] label_data_1_split <- label
I0403 14:20:14.137326 13169 net.cpp:399] label_data_1_split -> label_data_1_split_0
I0403 14:20:14.137352 13169 net.cpp:399] label_data_1_split -> label_data_1_split_1
I0403 14:20:14.137374 13169 net.cpp:399] label_data_1_split -> label_data_1_split_2
I0403 14:20:14.137395 13169 net.cpp:399] label_data_1_split -> label_data_1_split_3
I0403 14:20:14.137416 13169 net.cpp:399] label_data_1_split -> label_data_1_split_4
I0403 14:20:14.137437 13169 net.cpp:399] label_data_1_split -> label_data_1_split_5
I0403 14:20:14.137457 13169 net.cpp:399] label_data_1_split -> label_data_1_split_6
I0403 14:20:14.137478 13169 net.cpp:399] label_data_1_split -> label_data_1_split_7
I0403 14:20:14.137498 13169 net.cpp:399] label_data_1_split -> label_data_1_split_8
I0403 14:20:14.137519 13169 net.cpp:399] label_data_1_split -> label_data_1_split_9
I0403 14:20:14.137646 13169 net.cpp:141] Setting up label_data_1_split
I0403 14:20:14.137670 13169 net.cpp:148] Top shape: 24 (24)
I0403 14:20:14.137688 13169 net.cpp:148] Top shape: 24 (24)
I0403 14:20:14.137704 13169 net.cpp:148] Top shape: 24 (24)
I0403 14:20:14.137720 13169 net.cpp:148] Top shape: 24 (24)
I0403 14:20:14.137737 13169 net.cpp:148] Top shape: 24 (24)
I0403 14:20:14.137753 13169 net.cpp:148] Top shape: 24 (24)
I0403 14:20:14.137768 13169 net.cpp:148] Top shape: 24 (24)
I0403 14:20:14.137785 13169 net.cpp:148] Top shape: 24 (24)
I0403 14:20:14.137800 13169 net.cpp:148] Top shape: 24 (24)
I0403 14:20:14.137817 13169 net.cpp:148] Top shape: 24 (24)
I0403 14:20:14.137871 13169 net.cpp:156] Memory required for data: 14451744
I0403 14:20:14.137888 13169 layer_factory.hpp:77] Creating layer conv1/7x7_s2
I0403 14:20:14.137919 13169 net.cpp:91] Creating Layer conv1/7x7_s2
I0403 14:20:14.137938 13169 net.cpp:425] conv1/7x7_s2 <- data
I0403 14:20:14.137959 13169 net.cpp:399] conv1/7x7_s2 -> conv1/7x7_s2
I0403 14:20:14.277588 13169 net.cpp:141] Setting up conv1/7x7_s2
I0403 14:20:14.277652 13169 net.cpp:148] Top shape: 24 64 112 112 (19267584)
I0403 14:20:14.277717 13169 net.cpp:156] Memory required for data: 91522080
I0403 14:20:14.277748 13169 layer_factory.hpp:77] Creating layer conv1/relu_7x7
I0403 14:20:14.277776 13169 net.cpp:91] Creating Layer conv1/relu_7x7
I0403 14:20:14.277793 13169 net.cpp:425] conv1/relu_7x7 <- conv1/7x7_s2
I0403 14:20:14.277812 13169 net.cpp:386] conv1/relu_7x7 -> conv1/7x7_s2 (in-place)
I0403 14:20:14.278064 13169 net.cpp:141] Setting up conv1/relu_7x7
I0403 14:20:14.278091 13169 net.cpp:148] Top shape: 24 64 112 112 (19267584)
I0403 14:20:14.278107 13169 net.cpp:156] Memory required for data: 168592416
I0403 14:20:14.278123 13169 layer_factory.hpp:77] Creating layer pool1/3x3_s2
I0403 14:20:14.278147 13169 net.cpp:91] Creating Layer pool1/3x3_s2
I0403 14:20:14.278164 13169 net.cpp:425] pool1/3x3_s2 <- conv1/7x7_s2
I0403 14:20:14.278182 13169 net.cpp:399] pool1/3x3_s2 -> pool1/3x3_s2
I0403 14:20:14.278254 13169 net.cpp:141] Setting up pool1/3x3_s2
I0403 14:20:14.278277 13169 net.cpp:148] Top shape: 24 64 56 56 (4816896)
I0403 14:20:14.278295 13169 net.cpp:156] Memory required for data: 187860000
I0403 14:20:14.278309 13169 layer_factory.hpp:77] Creating layer pool1/norm1
I0403 14:20:14.278332 13169 net.cpp:91] Creating Layer pool1/norm1
I0403 14:20:14.278349 13169 net.cpp:425] pool1/norm1 <- pool1/3x3_s2
I0403 14:20:14.278367 13169 net.cpp:399] pool1/norm1 -> pool1/norm1
I0403 14:20:14.278648 13169 net.cpp:141] Setting up pool1/norm1
I0403 14:20:14.278676 13169 net.cpp:148] Top shape: 24 64 56 56 (4816896)
I0403 14:20:14.278690 13169 net.cpp:156] Memory required for data: 207127584
I0403 14:20:14.278705 13169 layer_factory.hpp:77] Creating layer conv2/3x3_reduce
I0403 14:20:14.278729 13169 net.cpp:91] Creating Layer conv2/3x3_reduce
I0403 14:20:14.278745 13169 net.cpp:425] conv2/3x3_reduce <- pool1/norm1
I0403 14:20:14.278764 13169 net.cpp:399] conv2/3x3_reduce -> conv2/3x3_reduce
I0403 14:20:14.280100 13169 net.cpp:141] Setting up conv2/3x3_reduce
I0403 14:20:14.280130 13169 net.cpp:148] Top shape: 24 64 56 56 (4816896)
I0403 14:20:14.280145 13169 net.cpp:156] Memory required for data: 226395168
I0403 14:20:14.280166 13169 layer_factory.hpp:77] Creating layer conv2/relu_3x3_reduce
I0403 14:20:14.280184 13169 net.cpp:91] Creating Layer conv2/relu_3x3_reduce
I0403 14:20:14.280200 13169 net.cpp:425] conv2/relu_3x3_reduce <- conv2/3x3_reduce
I0403 14:20:14.280218 13169 net.cpp:386] conv2/relu_3x3_reduce -> conv2/3x3_reduce (in-place)
I0403 14:20:14.280463 13169 net.cpp:141] Setting up conv2/relu_3x3_reduce
I0403 14:20:14.280489 13169 net.cpp:148] Top shape: 24 64 56 56 (4816896)
I0403 14:20:14.280504 13169 net.cpp:156] Memory required for data: 245662752
I0403 14:20:14.280519 13169 layer_factory.hpp:77] Creating layer conv2/3x3
I0403 14:20:14.280540 13169 net.cpp:91] Creating Layer conv2/3x3
I0403 14:20:14.280557 13169 net.cpp:425] conv2/3x3 <- conv2/3x3_reduce
I0403 14:20:14.280575 13169 net.cpp:399] conv2/3x3 -> conv2/3x3
I0403 14:20:14.282819 13169 net.cpp:141] Setting up conv2/3x3
I0403 14:20:14.282850 13169 net.cpp:148] Top shape: 24 192 56 56 (14450688)
I0403 14:20:14.282866 13169 net.cpp:156] Memory required for data: 303465504
I0403 14:20:14.282886 13169 layer_factory.hpp:77] Creating layer conv2/relu_3x3
I0403 14:20:14.282905 13169 net.cpp:91] Creating Layer conv2/relu_3x3
I0403 14:20:14.282920 13169 net.cpp:425] conv2/relu_3x3 <- conv2/3x3
I0403 14:20:14.282971 13169 net.cpp:386] conv2/relu_3x3 -> conv2/3x3 (in-place)
I0403 14:20:14.283133 13169 net.cpp:141] Setting up conv2/relu_3x3
I0403 14:20:14.283157 13169 net.cpp:148] Top shape: 24 192 56 56 (14450688)
I0403 14:20:14.283205 13169 net.cpp:156] Memory required for data: 361268256
I0403 14:20:14.283221 13169 layer_factory.hpp:77] Creating layer conv2/norm2
I0403 14:20:14.283238 13169 net.cpp:91] Creating Layer conv2/norm2
I0403 14:20:14.283254 13169 net.cpp:425] conv2/norm2 <- conv2/3x3
I0403 14:20:14.283272 13169 net.cpp:399] conv2/norm2 -> conv2/norm2
I0403 14:20:14.283558 13169 net.cpp:141] Setting up conv2/norm2
I0403 14:20:14.283584 13169 net.cpp:148] Top shape: 24 192 56 56 (14450688)
I0403 14:20:14.283604 13169 net.cpp:156] Memory required for data: 419071008
I0403 14:20:14.283620 13169 layer_factory.hpp:77] Creating layer pool2/3x3_s2
I0403 14:20:14.283643 13169 net.cpp:91] Creating Layer pool2/3x3_s2
I0403 14:20:14.283660 13169 net.cpp:425] pool2/3x3_s2 <- conv2/norm2
I0403 14:20:14.283677 13169 net.cpp:399] pool2/3x3_s2 -> pool2/3x3_s2
I0403 14:20:14.283731 13169 net.cpp:141] Setting up pool2/3x3_s2
I0403 14:20:14.283756 13169 net.cpp:148] Top shape: 24 192 28 28 (3612672)
I0403 14:20:14.283768 13169 net.cpp:156] Memory required for data: 433521696
I0403 14:20:14.283783 13169 layer_factory.hpp:77] Creating layer pool2/3x3_s2_pool2/3x3_s2_0_split
I0403 14:20:14.283800 13169 net.cpp:91] Creating Layer pool2/3x3_s2_pool2/3x3_s2_0_split
I0403 14:20:14.283817 13169 net.cpp:425] pool2/3x3_s2_pool2/3x3_s2_0_split <- pool2/3x3_s2
I0403 14:20:14.283834 13169 net.cpp:399] pool2/3x3_s2_pool2/3x3_s2_0_split -> pool2/3x3_s2_pool2/3x3_s2_0_split_0
I0403 14:20:14.283855 13169 net.cpp:399] pool2/3x3_s2_pool2/3x3_s2_0_split -> pool2/3x3_s2_pool2/3x3_s2_0_split_1
I0403 14:20:14.283875 13169 net.cpp:399] pool2/3x3_s2_pool2/3x3_s2_0_split -> pool2/3x3_s2_pool2/3x3_s2_0_split_2
I0403 14:20:14.283895 13169 net.cpp:399] pool2/3x3_s2_pool2/3x3_s2_0_split -> pool2/3x3_s2_pool2/3x3_s2_0_split_3
I0403 14:20:14.283963 13169 net.cpp:141] Setting up pool2/3x3_s2_pool2/3x3_s2_0_split
I0403 14:20:14.283988 13169 net.cpp:148] Top shape: 24 192 28 28 (3612672)
I0403 14:20:14.284004 13169 net.cpp:148] Top shape: 24 192 28 28 (3612672)
I0403 14:20:14.284020 13169 net.cpp:148] Top shape: 24 192 28 28 (3612672)
I0403 14:20:14.284036 13169 net.cpp:148] Top shape: 24 192 28 28 (3612672)
I0403 14:20:14.284050 13169 net.cpp:156] Memory required for data: 491324448
I0403 14:20:14.284065 13169 layer_factory.hpp:77] Creating layer inception_3a/1x1
I0403 14:20:14.284087 13169 net.cpp:91] Creating Layer inception_3a/1x1
I0403 14:20:14.284104 13169 net.cpp:425] inception_3a/1x1 <- pool2/3x3_s2_pool2/3x3_s2_0_split_0
I0403 14:20:14.284122 13169 net.cpp:399] inception_3a/1x1 -> inception_3a/1x1
I0403 14:20:14.285734 13169 net.cpp:141] Setting up inception_3a/1x1
I0403 14:20:14.285763 13169 net.cpp:148] Top shape: 24 64 28 28 (1204224)
I0403 14:20:14.285779 13169 net.cpp:156] Memory required for data: 496141344
I0403 14:20:14.285797 13169 layer_factory.hpp:77] Creating layer inception_3a/relu_1x1
I0403 14:20:14.285817 13169 net.cpp:91] Creating Layer inception_3a/relu_1x1
I0403 14:20:14.285835 13169 net.cpp:425] inception_3a/relu_1x1 <- inception_3a/1x1
I0403 14:20:14.285851 13169 net.cpp:386] inception_3a/relu_1x1 -> inception_3a/1x1 (in-place)
I0403 14:20:14.286022 13169 net.cpp:141] Setting up inception_3a/relu_1x1
I0403 14:20:14.286047 13169 net.cpp:148] Top shape: 24 64 28 28 (1204224)
I0403 14:20:14.286062 13169 net.cpp:156] Memory required for data: 500958240
I0403 14:20:14.286077 13169 layer_factory.hpp:77] Creating layer inception_3a/3x3_reduce
I0403 14:20:14.286098 13169 net.cpp:91] Creating Layer inception_3a/3x3_reduce
I0403 14:20:14.286116 13169 net.cpp:425] inception_3a/3x3_reduce <- pool2/3x3_s2_pool2/3x3_s2_0_split_1
I0403 14:20:14.286136 13169 net.cpp:399] inception_3a/3x3_reduce -> inception_3a/3x3_reduce
I0403 14:20:14.287860 13169 net.cpp:141] Setting up inception_3a/3x3_reduce
I0403 14:20:14.287891 13169 net.cpp:148] Top shape: 24 96 28 28 (1806336)
I0403 14:20:14.287909 13169 net.cpp:156] Memory required for data: 508183584
I0403 14:20:14.287930 13169 layer_factory.hpp:77] Creating layer inception_3a/relu_3x3_reduce
I0403 14:20:14.287987 13169 net.cpp:91] Creating Layer inception_3a/relu_3x3_reduce
I0403 14:20:14.288005 13169 net.cpp:425] inception_3a/relu_3x3_reduce <- inception_3a/3x3_reduce
I0403 14:20:14.288025 13169 net.cpp:386] inception_3a/relu_3x3_reduce -> inception_3a/3x3_reduce (in-place)
I0403 14:20:14.288203 13169 net.cpp:141] Setting up inception_3a/relu_3x3_reduce
I0403 14:20:14.288228 13169 net.cpp:148] Top shape: 24 96 28 28 (1806336)
I0403 14:20:14.288241 13169 net.cpp:156] Memory required for data: 515408928
I0403 14:20:14.288255 13169 layer_factory.hpp:77] Creating layer inception_3a/3x3
I0403 14:20:14.288277 13169 net.cpp:91] Creating Layer inception_3a/3x3
I0403 14:20:14.288296 13169 net.cpp:425] inception_3a/3x3 <- inception_3a/3x3_reduce
I0403 14:20:14.288317 13169 net.cpp:399] inception_3a/3x3 -> inception_3a/3x3
I0403 14:20:14.290020 13169 net.cpp:141] Setting up inception_3a/3x3
I0403 14:20:14.290051 13169 net.cpp:148] Top shape: 24 128 28 28 (2408448)
I0403 14:20:14.290068 13169 net.cpp:156] Memory required for data: 525042720
I0403 14:20:14.290086 13169 layer_factory.hpp:77] Creating layer inception_3a/relu_3x3
I0403 14:20:14.290105 13169 net.cpp:91] Creating Layer inception_3a/relu_3x3
I0403 14:20:14.290122 13169 net.cpp:425] inception_3a/relu_3x3 <- inception_3a/3x3
I0403 14:20:14.290143 13169 net.cpp:386] inception_3a/relu_3x3 -> inception_3a/3x3 (in-place)
I0403 14:20:14.290418 13169 net.cpp:141] Setting up inception_3a/relu_3x3
I0403 14:20:14.290446 13169 net.cpp:148] Top shape: 24 128 28 28 (2408448)
I0403 14:20:14.290462 13169 net.cpp:156] Memory required for data: 534676512
I0403 14:20:14.290477 13169 layer_factory.hpp:77] Creating layer inception_3a/5x5_reduce
I0403 14:20:14.290499 13169 net.cpp:91] Creating Layer inception_3a/5x5_reduce
I0403 14:20:14.290529 13169 net.cpp:425] inception_3a/5x5_reduce <- pool2/3x3_s2_pool2/3x3_s2_0_split_2
I0403 14:20:14.290549 13169 net.cpp:399] inception_3a/5x5_reduce -> inception_3a/5x5_reduce
I0403 14:20:14.291520 13169 net.cpp:141] Setting up inception_3a/5x5_reduce
I0403 14:20:14.291550 13169 net.cpp:148] Top shape: 24 16 28 28 (301056)
I0403 14:20:14.291566 13169 net.cpp:156] Memory required for data: 535880736
I0403 14:20:14.291584 13169 layer_factory.hpp:77] Creating layer inception_3a/relu_5x5_reduce
I0403 14:20:14.291606 13169 net.cpp:91] Creating Layer inception_3a/relu_5x5_reduce
I0403 14:20:14.291625 13169 net.cpp:425] inception_3a/relu_5x5_reduce <- inception_3a/5x5_reduce
I0403 14:20:14.291645 13169 net.cpp:386] inception_3a/relu_5x5_reduce -> inception_3a/5x5_reduce (in-place)
I0403 14:20:14.291939 13169 net.cpp:141] Setting up inception_3a/relu_5x5_reduce
I0403 14:20:14.291965 13169 net.cpp:148] Top shape: 24 16 28 28 (301056)
I0403 14:20:14.291980 13169 net.cpp:156] Memory required for data: 537084960
I0403 14:20:14.291996 13169 layer_factory.hpp:77] Creating layer inception_3a/5x5
I0403 14:20:14.292017 13169 net.cpp:91] Creating Layer inception_3a/5x5
I0403 14:20:14.292034 13169 net.cpp:425] inception_3a/5x5 <- inception_3a/5x5_reduce
I0403 14:20:14.292054 13169 net.cpp:399] inception_3a/5x5 -> inception_3a/5x5
I0403 14:20:14.293057 13169 net.cpp:141] Setting up inception_3a/5x5
I0403 14:20:14.293087 13169 net.cpp:148] Top shape: 24 32 28 28 (602112)
I0403 14:20:14.293103 13169 net.cpp:156] Memory required for data: 539493408
I0403 14:20:14.293122 13169 layer_factory.hpp:77] Creating layer inception_3a/relu_5x5
I0403 14:20:14.293140 13169 net.cpp:91] Creating Layer inception_3a/relu_5x5
I0403 14:20:14.293155 13169 net.cpp:425] inception_3a/relu_5x5 <- inception_3a/5x5
I0403 14:20:14.293175 13169 net.cpp:386] inception_3a/relu_5x5 -> inception_3a/5x5 (in-place)
I0403 14:20:14.293347 13169 net.cpp:141] Setting up inception_3a/relu_5x5
I0403 14:20:14.293372 13169 net.cpp:148] Top shape: 24 32 28 28 (602112)
I0403 14:20:14.293387 13169 net.cpp:156] Memory required for data: 541901856
I0403 14:20:14.293401 13169 layer_factory.hpp:77] Creating layer inception_3a/pool
I0403 14:20:14.293419 13169 net.cpp:91] Creating Layer inception_3a/pool
I0403 14:20:14.293436 13169 net.cpp:425] inception_3a/pool <- pool2/3x3_s2_pool2/3x3_s2_0_split_3
I0403 14:20:14.293469 13169 net.cpp:399] inception_3a/pool -> inception_3a/pool
I0403 14:20:14.293527 13169 net.cpp:141] Setting up inception_3a/pool
I0403 14:20:14.293550 13169 net.cpp:148] Top shape: 24 192 28 28 (3612672)
I0403 14:20:14.293565 13169 net.cpp:156] Memory required for data: 556352544
I0403 14:20:14.293579 13169 layer_factory.hpp:77] Creating layer inception_3a/pool_proj
I0403 14:20:14.293608 13169 net.cpp:91] Creating Layer inception_3a/pool_proj
I0403 14:20:14.293627 13169 net.cpp:425] inception_3a/pool_proj <- inception_3a/pool
I0403 14:20:14.293645 13169 net.cpp:399] inception_3a/pool_proj -> inception_3a/pool_proj
I0403 14:20:14.294595 13169 net.cpp:141] Setting up inception_3a/pool_proj
I0403 14:20:14.294631 13169 net.cpp:148] Top shape: 24 32 28 28 (602112)
I0403 14:20:14.294649 13169 net.cpp:156] Memory required for data: 558760992
I0403 14:20:14.294674 13169 layer_factory.hpp:77] Creating layer inception_3a/relu_pool_proj
I0403 14:20:14.294694 13169 net.cpp:91] Creating Layer inception_3a/relu_pool_proj
I0403 14:20:14.294710 13169 net.cpp:425] inception_3a/relu_pool_proj <- inception_3a/pool_proj
I0403 14:20:14.294729 13169 net.cpp:386] inception_3a/relu_pool_proj -> inception_3a/pool_proj (in-place)
I0403 14:20:14.295001 13169 net.cpp:141] Setting up inception_3a/relu_pool_proj
I0403 14:20:14.295030 13169 net.cpp:148] Top shape: 24 32 28 28 (602112)
I0403 14:20:14.295045 13169 net.cpp:156] Memory required for data: 561169440
I0403 14:20:14.295060 13169 layer_factory.hpp:77] Creating layer inception_3a/output
I0403 14:20:14.295078 13169 net.cpp:91] Creating Layer inception_3a/output
I0403 14:20:14.295094 13169 net.cpp:425] inception_3a/output <- inception_3a/1x1
I0403 14:20:14.295110 13169 net.cpp:425] inception_3a/output <- inception_3a/3x3
I0403 14:20:14.295126 13169 net.cpp:425] inception_3a/output <- inception_3a/5x5
I0403 14:20:14.295141 13169 net.cpp:425] inception_3a/output <- inception_3a/pool_proj
I0403 14:20:14.295161 13169 net.cpp:399] inception_3a/output -> inception_3a/output
I0403 14:20:14.295207 13169 net.cpp:141] Setting up inception_3a/output
I0403 14:20:14.295229 13169 net.cpp:148] Top shape: 24 256 28 28 (4816896)
I0403 14:20:14.295244 13169 net.cpp:156] Memory required for data: 580437024
I0403 14:20:14.295259 13169 layer_factory.hpp:77] Creating layer inception_3a/output_inception_3a/output_0_split
I0403 14:20:14.295279 13169 net.cpp:91] Creating Layer inception_3a/output_inception_3a/output_0_split
I0403 14:20:14.295297 13169 net.cpp:425] inception_3a/output_inception_3a/output_0_split <- inception_3a/output
I0403 14:20:14.295315 13169 net.cpp:399] inception_3a/output_inception_3a/output_0_split -> inception_3a/output_inception_3a/output_0_split_0
I0403 14:20:14.295333 13169 net.cpp:399] inception_3a/output_inception_3a/output_0_split -> inception_3a/output_inception_3a/output_0_split_1
I0403 14:20:14.295358 13169 net.cpp:399] inception_3a/output_inception_3a/output_0_split -> inception_3a/output_inception_3a/output_0_split_2
I0403 14:20:14.295379 13169 net.cpp:399] inception_3a/output_inception_3a/output_0_split -> inception_3a/output_inception_3a/output_0_split_3
I0403 14:20:14.295450 13169 net.cpp:141] Setting up inception_3a/output_inception_3a/output_0_split
I0403 14:20:14.295475 13169 net.cpp:148] Top shape: 24 256 28 28 (4816896)
I0403 14:20:14.295492 13169 net.cpp:148] Top shape: 24 256 28 28 (4816896)
I0403 14:20:14.295507 13169 net.cpp:148] Top shape: 24 256 28 28 (4816896)
I0403 14:20:14.295523 13169 net.cpp:148] Top shape: 24 256 28 28 (4816896)
I0403 14:20:14.295536 13169 net.cpp:156] Memory required for data: 657507360
I0403 14:20:14.295552 13169 layer_factory.hpp:77] Creating layer inception_3b/1x1
I0403 14:20:14.295572 13169 net.cpp:91] Creating Layer inception_3b/1x1
I0403 14:20:14.295590 13169 net.cpp:425] inception_3b/1x1 <- inception_3a/output_inception_3a/output_0_split_0
I0403 14:20:14.295627 13169 net.cpp:399] inception_3b/1x1 -> inception_3b/1x1
I0403 14:20:14.296784 13169 net.cpp:141] Setting up inception_3b/1x1
I0403 14:20:14.296825 13169 net.cpp:148] Top shape: 24 128 28 28 (2408448)
I0403 14:20:14.296843 13169 net.cpp:156] Memory required for data: 667141152
I0403 14:20:14.296860 13169 layer_factory.hpp:77] Creating layer inception_3b/relu_1x1
I0403 14:20:14.296881 13169 net.cpp:91] Creating Layer inception_3b/relu_1x1
I0403 14:20:14.296898 13169 net.cpp:425] inception_3b/relu_1x1 <- inception_3b/1x1
I0403 14:20:14.296916 13169 net.cpp:386] inception_3b/relu_1x1 -> inception_3b/1x1 (in-place)
I0403 14:20:14.297098 13169 net.cpp:141] Setting up inception_3b/relu_1x1
I0403 14:20:14.297127 13169 net.cpp:148] Top shape: 24 128 28 28 (2408448)
I0403 14:20:14.297142 13169 net.cpp:156] Memory required for data: 676774944
I0403 14:20:14.297158 13169 layer_factory.hpp:77] Creating layer inception_3b/3x3_reduce
I0403 14:20:14.297181 13169 net.cpp:91] Creating Layer inception_3b/3x3_reduce
I0403 14:20:14.297199 13169 net.cpp:425] inception_3b/3x3_reduce <- inception_3a/output_inception_3a/output_0_split_1
I0403 14:20:14.297219 13169 net.cpp:399] inception_3b/3x3_reduce -> inception_3b/3x3_reduce
I0403 14:20:14.298377 13169 net.cpp:141] Setting up inception_3b/3x3_reduce
I0403 14:20:14.298405 13169 net.cpp:148] Top shape: 24 128 28 28 (2408448)
I0403 14:20:14.298421 13169 net.cpp:156] Memory required for data: 686408736
I0403 14:20:14.298439 13169 layer_factory.hpp:77] Creating layer inception_3b/relu_3x3_reduce
I0403 14:20:14.298460 13169 net.cpp:91] Creating Layer inception_3b/relu_3x3_reduce
I0403 14:20:14.298477 13169 net.cpp:425] inception_3b/relu_3x3_reduce <- inception_3b/3x3_reduce
I0403 14:20:14.298496 13169 net.cpp:386] inception_3b/relu_3x3_reduce -> inception_3b/3x3_reduce (in-place)
I0403 14:20:14.298676 13169 net.cpp:141] Setting up inception_3b/relu_3x3_reduce
I0403 14:20:14.298703 13169 net.cpp:148] Top shape: 24 128 28 28 (2408448)
I0403 14:20:14.298718 13169 net.cpp:156] Memory required for data: 696042528
I0403 14:20:14.298733 13169 layer_factory.hpp:77] Creating layer inception_3b/3x3
I0403 14:20:14.298758 13169 net.cpp:91] Creating Layer inception_3b/3x3
I0403 14:20:14.298776 13169 net.cpp:425] inception_3b/3x3 <- inception_3b/3x3_reduce
I0403 14:20:14.298799 13169 net.cpp:399] inception_3b/3x3 -> inception_3b/3x3
I0403 14:20:14.301801 13169 net.cpp:141] Setting up inception_3b/3x3
I0403 14:20:14.301832 13169 net.cpp:148] Top shape: 24 192 28 28 (3612672)
I0403 14:20:14.301849 13169 net.cpp:156] Memory required for data: 710493216
I0403 14:20:14.301868 13169 layer_factory.hpp:77] Creating layer inception_3b/relu_3x3
I0403 14:20:14.301887 13169 net.cpp:91] Creating Layer inception_3b/relu_3x3
I0403 14:20:14.301903 13169 net.cpp:425] inception_3b/relu_3x3 <- inception_3b/3x3
I0403 14:20:14.301923 13169 net.cpp:386] inception_3b/relu_3x3 -> inception_3b/3x3 (in-place)
I0403 14:20:14.302203 13169 net.cpp:141] Setting up inception_3b/relu_3x3
I0403 14:20:14.302233 13169 net.cpp:148] Top shape: 24 192 28 28 (3612672)
I0403 14:20:14.302249 13169 net.cpp:156] Memory required for data: 724943904
I0403 14:20:14.302264 13169 layer_factory.hpp:77] Creating layer inception_3b/5x5_reduce
I0403 14:20:14.302287 13169 net.cpp:91] Creating Layer inception_3b/5x5_reduce
I0403 14:20:14.302305 13169 net.cpp:425] inception_3b/5x5_reduce <- inception_3a/output_inception_3a/output_0_split_2
I0403 14:20:14.302325 13169 net.cpp:399] inception_3b/5x5_reduce -> inception_3b/5x5_reduce
I0403 14:20:14.303338 13169 net.cpp:141] Setting up inception_3b/5x5_reduce
I0403 14:20:14.303369 13169 net.cpp:148] Top shape: 24 32 28 28 (602112)
I0403 14:20:14.303385 13169 net.cpp:156] Memory required for data: 727352352
I0403 14:20:14.303403 13169 layer_factory.hpp:77] Creating layer inception_3b/relu_5x5_reduce
I0403 14:20:14.303422 13169 net.cpp:91] Creating Layer inception_3b/relu_5x5_reduce
I0403 14:20:14.303439 13169 net.cpp:425] inception_3b/relu_5x5_reduce <- inception_3b/5x5_reduce
I0403 14:20:14.303458 13169 net.cpp:386] inception_3b/relu_5x5_reduce -> inception_3b/5x5_reduce (in-place)
I0403 14:20:14.303647 13169 net.cpp:141] Setting up inception_3b/relu_5x5_reduce
I0403 14:20:14.303683 13169 net.cpp:148] Top shape: 24 32 28 28 (602112)
I0403 14:20:14.303700 13169 net.cpp:156] Memory required for data: 729760800
I0403 14:20:14.303715 13169 layer_factory.hpp:77] Creating layer inception_3b/5x5
I0403 14:20:14.303738 13169 net.cpp:91] Creating Layer inception_3b/5x5
I0403 14:20:14.303755 13169 net.cpp:425] inception_3b/5x5 <- inception_3b/5x5_reduce
I0403 14:20:14.303776 13169 net.cpp:399] inception_3b/5x5 -> inception_3b/5x5
I0403 14:20:14.305841 13169 net.cpp:141] Setting up inception_3b/5x5
I0403 14:20:14.305871 13169 net.cpp:148] Top shape: 24 96 28 28 (1806336)
I0403 14:20:14.305887 13169 net.cpp:156] Memory required for data: 736986144
I0403 14:20:14.305907 13169 layer_factory.hpp:77] Creating layer inception_3b/relu_5x5
I0403 14:20:14.305927 13169 net.cpp:91] Creating Layer inception_3b/relu_5x5
I0403 14:20:14.305944 13169 net.cpp:425] inception_3b/relu_5x5 <- inception_3b/5x5
I0403 14:20:14.305963 13169 net.cpp:386] inception_3b/relu_5x5 -> inception_3b/5x5 (in-place)
I0403 14:20:14.306155 13169 net.cpp:141] Setting up inception_3b/relu_5x5
I0403 14:20:14.306181 13169 net.cpp:148] Top shape: 24 96 28 28 (1806336)
I0403 14:20:14.306197 13169 net.cpp:156] Memory required for data: 744211488
I0403 14:20:14.306211 13169 layer_factory.hpp:77] Creating layer inception_3b/pool
I0403 14:20:14.306229 13169 net.cpp:91] Creating Layer inception_3b/pool
I0403 14:20:14.306246 13169 net.cpp:425] inception_3b/pool <- inception_3a/output_inception_3a/output_0_split_3
I0403 14:20:14.306264 13169 net.cpp:399] inception_3b/pool -> inception_3b/pool
I0403 14:20:14.306321 13169 net.cpp:141] Setting up inception_3b/pool
I0403 14:20:14.306344 13169 net.cpp:148] Top shape: 24 256 28 28 (4816896)
I0403 14:20:14.306360 13169 net.cpp:156] Memory required for data: 763479072
I0403 14:20:14.306373 13169 layer_factory.hpp:77] Creating layer inception_3b/pool_proj
I0403 14:20:14.306396 13169 net.cpp:91] Creating Layer inception_3b/pool_proj
I0403 14:20:14.306416 13169 net.cpp:425] inception_3b/pool_proj <- inception_3b/pool
I0403 14:20:14.306435 13169 net.cpp:399] inception_3b/pool_proj -> inception_3b/pool_proj
I0403 14:20:14.307514 13169 net.cpp:141] Setting up inception_3b/pool_proj
I0403 14:20:14.307543 13169 net.cpp:148] Top shape: 24 64 28 28 (1204224)
I0403 14:20:14.307559 13169 net.cpp:156] Memory required for data: 768295968
I0403 14:20:14.307576 13169 layer_factory.hpp:77] Creating layer inception_3b/relu_pool_proj
I0403 14:20:14.307595 13169 net.cpp:91] Creating Layer inception_3b/relu_pool_proj
I0403 14:20:14.307616 13169 net.cpp:425] inception_3b/relu_pool_proj <- inception_3b/pool_proj
I0403 14:20:14.307637 13169 net.cpp:386] inception_3b/relu_pool_proj -> inception_3b/pool_proj (in-place)
I0403 14:20:14.308043 13169 net.cpp:141] Setting up inception_3b/relu_pool_proj
I0403 14:20:14.308069 13169 net.cpp:148] Top shape: 24 64 28 28 (1204224)
I0403 14:20:14.308085 13169 net.cpp:156] Memory required for data: 773112864
I0403 14:20:14.308100 13169 layer_factory.hpp:77] Creating layer inception_3b/output
I0403 14:20:14.308118 13169 net.cpp:91] Creating Layer inception_3b/output
I0403 14:20:14.308135 13169 net.cpp:425] inception_3b/output <- inception_3b/1x1
I0403 14:20:14.308151 13169 net.cpp:425] inception_3b/output <- inception_3b/3x3
I0403 14:20:14.308166 13169 net.cpp:425] inception_3b/output <- inception_3b/5x5
I0403 14:20:14.308182 13169 net.cpp:425] inception_3b/output <- inception_3b/pool_proj
I0403 14:20:14.308200 13169 net.cpp:399] inception_3b/output -> inception_3b/output
I0403 14:20:14.308244 13169 net.cpp:141] Setting up inception_3b/output
I0403 14:20:14.308271 13169 net.cpp:148] Top shape: 24 480 28 28 (9031680)
I0403 14:20:14.308289 13169 net.cpp:156] Memory required for data: 809239584
I0403 14:20:14.308303 13169 layer_factory.hpp:77] Creating layer pool3/3x3_s2
I0403 14:20:14.308320 13169 net.cpp:91] Creating Layer pool3/3x3_s2
I0403 14:20:14.308336 13169 net.cpp:425] pool3/3x3_s2 <- inception_3b/output
I0403 14:20:14.308357 13169 net.cpp:399] pool3/3x3_s2 -> pool3/3x3_s2
I0403 14:20:14.308429 13169 net.cpp:141] Setting up pool3/3x3_s2
I0403 14:20:14.308454 13169 net.cpp:148] Top shape: 24 480 14 14 (2257920)
I0403 14:20:14.308468 13169 net.cpp:156] Memory required for data: 818271264
I0403 14:20:14.308482 13169 layer_factory.hpp:77] Creating layer pool3/3x3_s2_pool3/3x3_s2_0_split
I0403 14:20:14.308501 13169 net.cpp:91] Creating Layer pool3/3x3_s2_pool3/3x3_s2_0_split
I0403 14:20:14.308517 13169 net.cpp:425] pool3/3x3_s2_pool3/3x3_s2_0_split <- pool3/3x3_s2
I0403 14:20:14.308534 13169 net.cpp:399] pool3/3x3_s2_pool3/3x3_s2_0_split -> pool3/3x3_s2_pool3/3x3_s2_0_split_0
I0403 14:20:14.308557 13169 net.cpp:399] pool3/3x3_s2_pool3/3x3_s2_0_split -> pool3/3x3_s2_pool3/3x3_s2_0_split_1
I0403 14:20:14.308575 13169 net.cpp:399] pool3/3x3_s2_pool3/3x3_s2_0_split -> pool3/3x3_s2_pool3/3x3_s2_0_split_2
I0403 14:20:14.308594 13169 net.cpp:399] pool3/3x3_s2_pool3/3x3_s2_0_split -> pool3/3x3_s2_pool3/3x3_s2_0_split_3
I0403 14:20:14.308679 13169 net.cpp:141] Setting up pool3/3x3_s2_pool3/3x3_s2_0_split
I0403 14:20:14.308703 13169 net.cpp:148] Top shape: 24 480 14 14 (2257920)
I0403 14:20:14.308719 13169 net.cpp:148] Top shape: 24 480 14 14 (2257920)
I0403 14:20:14.308735 13169 net.cpp:148] Top shape: 24 480 14 14 (2257920)
I0403 14:20:14.308750 13169 net.cpp:148] Top shape: 24 480 14 14 (2257920)
I0403 14:20:14.308764 13169 net.cpp:156] Memory required for data: 854397984
I0403 14:20:14.308779 13169 layer_factory.hpp:77] Creating layer inception_4a/1x1
I0403 14:20:14.308802 13169 net.cpp:91] Creating Layer inception_4a/1x1
I0403 14:20:14.308820 13169 net.cpp:425] inception_4a/1x1 <- pool3/3x3_s2_pool3/3x3_s2_0_split_0
I0403 14:20:14.308841 13169 net.cpp:399] inception_4a/1x1 -> inception_4a/1x1
I0403 14:20:14.310441 13169 net.cpp:141] Setting up inception_4a/1x1
I0403 14:20:14.310468 13169 net.cpp:148] Top shape: 24 192 14 14 (903168)
I0403 14:20:14.310484 13169 net.cpp:156] Memory required for data: 858010656
I0403 14:20:14.310503 13169 layer_factory.hpp:77] Creating layer inception_4a/relu_1x1
I0403 14:20:14.310524 13169 net.cpp:91] Creating Layer inception_4a/relu_1x1
I0403 14:20:14.310541 13169 net.cpp:425] inception_4a/relu_1x1 <- inception_4a/1x1
I0403 14:20:14.310559 13169 net.cpp:386] inception_4a/relu_1x1 -> inception_4a/1x1 (in-place)
I0403 14:20:14.310745 13169 net.cpp:141] Setting up inception_4a/relu_1x1
I0403 14:20:14.310773 13169 net.cpp:148] Top shape: 24 192 14 14 (903168)
I0403 14:20:14.310789 13169 net.cpp:156] Memory required for data: 861623328
I0403 14:20:14.310804 13169 layer_factory.hpp:77] Creating layer inception_4a/3x3_reduce
I0403 14:20:14.310825 13169 net.cpp:91] Creating Layer inception_4a/3x3_reduce
I0403 14:20:14.310843 13169 net.cpp:425] inception_4a/3x3_reduce <- pool3/3x3_s2_pool3/3x3_s2_0_split_1
I0403 14:20:14.310865 13169 net.cpp:399] inception_4a/3x3_reduce -> inception_4a/3x3_reduce
I0403 14:20:14.312168 13169 net.cpp:141] Setting up inception_4a/3x3_reduce
I0403 14:20:14.312202 13169 net.cpp:148] Top shape: 24 96 14 14 (451584)
I0403 14:20:14.312219 13169 net.cpp:156] Memory required for data: 863429664
I0403 14:20:14.312248 13169 layer_factory.hpp:77] Creating layer inception_4a/relu_3x3_reduce
I0403 14:20:14.312269 13169 net.cpp:91] Creating Layer inception_4a/relu_3x3_reduce
I0403 14:20:14.312286 13169 net.cpp:425] inception_4a/relu_3x3_reduce <- inception_4a/3x3_reduce
I0403 14:20:14.312307 13169 net.cpp:386] inception_4a/relu_3x3_reduce -> inception_4a/3x3_reduce (in-place)
I0403 14:20:14.312489 13169 net.cpp:141] Setting up inception_4a/relu_3x3_reduce
I0403 14:20:14.312515 13169 net.cpp:148] Top shape: 24 96 14 14 (451584)
I0403 14:20:14.312531 13169 net.cpp:156] Memory required for data: 865236000
I0403 14:20:14.312548 13169 layer_factory.hpp:77] Creating layer inception_4a/3x3
I0403 14:20:14.312577 13169 net.cpp:91] Creating Layer inception_4a/3x3
I0403 14:20:14.312602 13169 net.cpp:425] inception_4a/3x3 <- inception_4a/3x3_reduce
I0403 14:20:14.312625 13169 net.cpp:399] inception_4a/3x3 -> inception_4a/3x3
I0403 14:20:14.315479 13169 net.cpp:141] Setting up inception_4a/3x3
I0403 14:20:14.315510 13169 net.cpp:148] Top shape: 24 208 14 14 (978432)
I0403 14:20:14.315526 13169 net.cpp:156] Memory required for data: 869149728
I0403 14:20:14.315544 13169 layer_factory.hpp:77] Creating layer inception_4a/relu_3x3
I0403 14:20:14.315567 13169 net.cpp:91] Creating Layer inception_4a/relu_3x3
I0403 14:20:14.315584 13169 net.cpp:425] inception_4a/relu_3x3 <- inception_4a/3x3
I0403 14:20:14.315606 13169 net.cpp:386] inception_4a/relu_3x3 -> inception_4a/3x3 (in-place)
I0403 14:20:14.315902 13169 net.cpp:141] Setting up inception_4a/relu_3x3
I0403 14:20:14.315929 13169 net.cpp:148] Top shape: 24 208 14 14 (978432)
I0403 14:20:14.315945 13169 net.cpp:156] Memory required for data: 873063456
I0403 14:20:14.315961 13169 layer_factory.hpp:77] Creating layer inception_4a/5x5_reduce
I0403 14:20:14.315987 13169 net.cpp:91] Creating Layer inception_4a/5x5_reduce
I0403 14:20:14.316006 13169 net.cpp:425] inception_4a/5x5_reduce <- pool3/3x3_s2_pool3/3x3_s2_0_split_2
I0403 14:20:14.316026 13169 net.cpp:399] inception_4a/5x5_reduce -> inception_4a/5x5_reduce
I0403 14:20:14.317111 13169 net.cpp:141] Setting up inception_4a/5x5_reduce
I0403 14:20:14.317143 13169 net.cpp:148] Top shape: 24 16 14 14 (75264)
I0403 14:20:14.317162 13169 net.cpp:156] Memory required for data: 873364512
I0403 14:20:14.317180 13169 layer_factory.hpp:77] Creating layer inception_4a/relu_5x5_reduce
I0403 14:20:14.317200 13169 net.cpp:91] Creating Layer inception_4a/relu_5x5_reduce
I0403 14:20:14.317216 13169 net.cpp:425] inception_4a/relu_5x5_reduce <- inception_4a/5x5_reduce
I0403 14:20:14.317235 13169 net.cpp:386] inception_4a/relu_5x5_reduce -> inception_4a/5x5_reduce (in-place)
I0403 14:20:14.317421 13169 net.cpp:141] Setting up inception_4a/relu_5x5_reduce
I0403 14:20:14.317446 13169 net.cpp:148] Top shape: 24 16 14 14 (75264)
I0403 14:20:14.317462 13169 net.cpp:156] Memory required for data: 873665568
I0403 14:20:14.317477 13169 layer_factory.hpp:77] Creating layer inception_4a/5x5
I0403 14:20:14.317500 13169 net.cpp:91] Creating Layer inception_4a/5x5
I0403 14:20:14.317519 13169 net.cpp:425] inception_4a/5x5 <- inception_4a/5x5_reduce
I0403 14:20:14.317541 13169 net.cpp:399] inception_4a/5x5 -> inception_4a/5x5
I0403 14:20:14.318657 13169 net.cpp:141] Setting up inception_4a/5x5
I0403 14:20:14.318686 13169 net.cpp:148] Top shape: 24 48 14 14 (225792)
I0403 14:20:14.318703 13169 net.cpp:156] Memory required for data: 874568736
I0403 14:20:14.318722 13169 layer_factory.hpp:77] Creating layer inception_4a/relu_5x5
I0403 14:20:14.318742 13169 net.cpp:91] Creating Layer inception_4a/relu_5x5
I0403 14:20:14.318764 13169 net.cpp:425] inception_4a/relu_5x5 <- inception_4a/5x5
I0403 14:20:14.318783 13169 net.cpp:386] inception_4a/relu_5x5 -> inception_4a/5x5 (in-place)
I0403 14:20:14.318965 13169 net.cpp:141] Setting up inception_4a/relu_5x5
I0403 14:20:14.318991 13169 net.cpp:148] Top shape: 24 48 14 14 (225792)
I0403 14:20:14.319007 13169 net.cpp:156] Memory required for data: 875471904
I0403 14:20:14.319034 13169 layer_factory.hpp:77] Creating layer inception_4a/pool
I0403 14:20:14.319053 13169 net.cpp:91] Creating Layer inception_4a/pool
I0403 14:20:14.319070 13169 net.cpp:425] inception_4a/pool <- pool3/3x3_s2_pool3/3x3_s2_0_split_3
I0403 14:20:14.319088 13169 net.cpp:399] inception_4a/pool -> inception_4a/pool
I0403 14:20:14.319150 13169 net.cpp:141] Setting up inception_4a/pool
I0403 14:20:14.319175 13169 net.cpp:148] Top shape: 24 480 14 14 (2257920)
I0403 14:20:14.319190 13169 net.cpp:156] Memory required for data: 884503584
I0403 14:20:14.319205 13169 layer_factory.hpp:77] Creating layer inception_4a/pool_proj
I0403 14:20:14.319227 13169 net.cpp:91] Creating Layer inception_4a/pool_proj
I0403 14:20:14.319244 13169 net.cpp:425] inception_4a/pool_proj <- inception_4a/pool
I0403 14:20:14.319265 13169 net.cpp:399] inception_4a/pool_proj -> inception_4a/pool_proj
I0403 14:20:14.320426 13169 net.cpp:141] Setting up inception_4a/pool_proj
I0403 14:20:14.320456 13169 net.cpp:148] Top shape: 24 64 14 14 (301056)
I0403 14:20:14.320487 13169 net.cpp:156] Memory required for data: 885707808
I0403 14:20:14.320508 13169 layer_factory.hpp:77] Creating layer inception_4a/relu_pool_proj
I0403 14:20:14.320528 13169 net.cpp:91] Creating Layer inception_4a/relu_pool_proj
I0403 14:20:14.320545 13169 net.cpp:425] inception_4a/relu_pool_proj <- inception_4a/pool_proj
I0403 14:20:14.320561 13169 net.cpp:386] inception_4a/relu_pool_proj -> inception_4a/pool_proj (in-place)
I0403 14:20:14.320847 13169 net.cpp:141] Setting up inception_4a/relu_pool_proj
I0403 14:20:14.320873 13169 net.cpp:148] Top shape: 24 64 14 14 (301056)
I0403 14:20:14.320888 13169 net.cpp:156] Memory required for data: 886912032
I0403 14:20:14.320904 13169 layer_factory.hpp:77] Creating layer inception_4a/output
I0403 14:20:14.320920 13169 net.cpp:91] Creating Layer inception_4a/output
I0403 14:20:14.320935 13169 net.cpp:425] inception_4a/output <- inception_4a/1x1
I0403 14:20:14.320951 13169 net.cpp:425] inception_4a/output <- inception_4a/3x3
I0403 14:20:14.320971 13169 net.cpp:425] inception_4a/output <- inception_4a/5x5
I0403 14:20:14.320988 13169 net.cpp:425] inception_4a/output <- inception_4a/pool_proj
I0403 14:20:14.321005 13169 net.cpp:399] inception_4a/output -> inception_4a/output
I0403 14:20:14.321048 13169 net.cpp:141] Setting up inception_4a/output
I0403 14:20:14.321074 13169 net.cpp:148] Top shape: 24 512 14 14 (2408448)
I0403 14:20:14.321089 13169 net.cpp:156] Memory required for data: 896545824
I0403 14:20:14.321104 13169 layer_factory.hpp:77] Creating layer inception_4a/output_inception_4a/output_0_split
I0403 14:20:14.321121 13169 net.cpp:91] Creating Layer inception_4a/output_inception_4a/output_0_split
I0403 14:20:14.321136 13169 net.cpp:425] inception_4a/output_inception_4a/output_0_split <- inception_4a/output
I0403 14:20:14.321156 13169 net.cpp:399] inception_4a/output_inception_4a/output_0_split -> inception_4a/output_inception_4a/output_0_split_0
I0403 14:20:14.321176 13169 net.cpp:399] inception_4a/output_inception_4a/output_0_split -> inception_4a/output_inception_4a/output_0_split_1
I0403 14:20:14.321195 13169 net.cpp:399] inception_4a/output_inception_4a/output_0_split -> inception_4a/output_inception_4a/output_0_split_2
I0403 14:20:14.321216 13169 net.cpp:399] inception_4a/output_inception_4a/output_0_split -> inception_4a/output_inception_4a/output_0_split_3
I0403 14:20:14.321235 13169 net.cpp:399] inception_4a/output_inception_4a/output_0_split -> inception_4a/output_inception_4a/output_0_split_4
I0403 14:20:14.321326 13169 net.cpp:141] Setting up inception_4a/output_inception_4a/output_0_split
I0403 14:20:14.321351 13169 net.cpp:148] Top shape: 24 512 14 14 (2408448)
I0403 14:20:14.321368 13169 net.cpp:148] Top shape: 24 512 14 14 (2408448)
I0403 14:20:14.321385 13169 net.cpp:148] Top shape: 24 512 14 14 (2408448)
I0403 14:20:14.321400 13169 net.cpp:148] Top shape: 24 512 14 14 (2408448)
I0403 14:20:14.321416 13169 net.cpp:148] Top shape: 24 512 14 14 (2408448)
I0403 14:20:14.321429 13169 net.cpp:156] Memory required for data: 944714784
I0403 14:20:14.321444 13169 layer_factory.hpp:77] Creating layer loss1/ave_pool
I0403 14:20:14.321460 13169 net.cpp:91] Creating Layer loss1/ave_pool
I0403 14:20:14.321476 13169 net.cpp:425] loss1/ave_pool <- inception_4a/output_inception_4a/output_0_split_0
I0403 14:20:14.321496 13169 net.cpp:399] loss1/ave_pool -> loss1/ave_pool
I0403 14:20:14.321705 13169 net.cpp:141] Setting up loss1/ave_pool
I0403 14:20:14.321732 13169 net.cpp:148] Top shape: 24 512 4 4 (196608)
I0403 14:20:14.321746 13169 net.cpp:156] Memory required for data: 945501216
I0403 14:20:14.321761 13169 layer_factory.hpp:77] Creating layer loss1/conv
I0403 14:20:14.321784 13169 net.cpp:91] Creating Layer loss1/conv
I0403 14:20:14.321800 13169 net.cpp:425] loss1/conv <- loss1/ave_pool
I0403 14:20:14.321823 13169 net.cpp:399] loss1/conv -> loss1/conv
I0403 14:20:14.323230 13169 net.cpp:141] Setting up loss1/conv
I0403 14:20:14.323257 13169 net.cpp:148] Top shape: 24 128 4 4 (49152)
I0403 14:20:14.323272 13169 net.cpp:156] Memory required for data: 945697824
I0403 14:20:14.323307 13169 layer_factory.hpp:77] Creating layer loss1/relu_conv
I0403 14:20:14.323328 13169 net.cpp:91] Creating Layer loss1/relu_conv
I0403 14:20:14.323345 13169 net.cpp:425] loss1/relu_conv <- loss1/conv
I0403 14:20:14.323361 13169 net.cpp:386] loss1/relu_conv -> loss1/conv (in-place)
I0403 14:20:14.323647 13169 net.cpp:141] Setting up loss1/relu_conv
I0403 14:20:14.323673 13169 net.cpp:148] Top shape: 24 128 4 4 (49152)
I0403 14:20:14.323688 13169 net.cpp:156] Memory required for data: 945894432
I0403 14:20:14.323703 13169 layer_factory.hpp:77] Creating layer loss1/fc
I0403 14:20:14.323729 13169 net.cpp:91] Creating Layer loss1/fc
I0403 14:20:14.323748 13169 net.cpp:425] loss1/fc <- loss1/conv
I0403 14:20:14.323768 13169 net.cpp:399] loss1/fc -> loss1/fc
I0403 14:20:14.342102 13169 net.cpp:141] Setting up loss1/fc
I0403 14:20:14.342159 13169 net.cpp:148] Top shape: 24 1024 (24576)
I0403 14:20:14.342175 13169 net.cpp:156] Memory required for data: 945992736
I0403 14:20:14.342195 13169 layer_factory.hpp:77] Creating layer loss1/relu_fc
I0403 14:20:14.342216 13169 net.cpp:91] Creating Layer loss1/relu_fc
I0403 14:20:14.342233 13169 net.cpp:425] loss1/relu_fc <- loss1/fc
I0403 14:20:14.342254 13169 net.cpp:386] loss1/relu_fc -> loss1/fc (in-place)
I0403 14:20:14.342471 13169 net.cpp:141] Setting up loss1/relu_fc
I0403 14:20:14.342499 13169 net.cpp:148] Top shape: 24 1024 (24576)
I0403 14:20:14.342515 13169 net.cpp:156] Memory required for data: 946091040
I0403 14:20:14.342530 13169 layer_factory.hpp:77] Creating layer loss1/drop_fc
I0403 14:20:14.342561 13169 net.cpp:91] Creating Layer loss1/drop_fc
I0403 14:20:14.342578 13169 net.cpp:425] loss1/drop_fc <- loss1/fc
I0403 14:20:14.342597 13169 net.cpp:386] loss1/drop_fc -> loss1/fc (in-place)
I0403 14:20:14.342660 13169 net.cpp:141] Setting up loss1/drop_fc
I0403 14:20:14.342684 13169 net.cpp:148] Top shape: 24 1024 (24576)
I0403 14:20:14.342700 13169 net.cpp:156] Memory required for data: 946189344
I0403 14:20:14.342715 13169 layer_factory.hpp:77] Creating layer loss1/classifier_plantvillage
I0403 14:20:14.342735 13169 net.cpp:91] Creating Layer loss1/classifier_plantvillage
I0403 14:20:14.342751 13169 net.cpp:425] loss1/classifier_plantvillage <- loss1/fc
I0403 14:20:14.342772 13169 net.cpp:399] loss1/classifier_plantvillage -> loss1/classifier_plantvillage
I0403 14:20:14.343750 13169 net.cpp:141] Setting up loss1/classifier_plantvillage
I0403 14:20:14.343780 13169 net.cpp:148] Top shape: 24 38 (912)
I0403 14:20:14.343796 13169 net.cpp:156] Memory required for data: 946192992
I0403 14:20:14.343816 13169 layer_factory.hpp:77] Creating layer loss1/classifier_plantvillage_loss1/classifier_plantvillage_0_split
I0403 14:20:14.343839 13169 net.cpp:91] Creating Layer loss1/classifier_plantvillage_loss1/classifier_plantvillage_0_split
I0403 14:20:14.343857 13169 net.cpp:425] loss1/classifier_plantvillage_loss1/classifier_plantvillage_0_split <- loss1/classifier_plantvillage
I0403 14:20:14.343874 13169 net.cpp:399] loss1/classifier_plantvillage_loss1/classifier_plantvillage_0_split -> loss1/classifier_plantvillage_loss1/classifier_plantvillage_0_split_0
I0403 14:20:14.343894 13169 net.cpp:399] loss1/classifier_plantvillage_loss1/classifier_plantvillage_0_split -> loss1/classifier_plantvillage_loss1/classifier_plantvillage_0_split_1
I0403 14:20:14.343914 13169 net.cpp:399] loss1/classifier_plantvillage_loss1/classifier_plantvillage_0_split -> loss1/classifier_plantvillage_loss1/classifier_plantvillage_0_split_2
I0403 14:20:14.343984 13169 net.cpp:141] Setting up loss1/classifier_plantvillage_loss1/classifier_plantvillage_0_split
I0403 14:20:14.344019 13169 net.cpp:148] Top shape: 24 38 (912)
I0403 14:20:14.344034 13169 net.cpp:148] Top shape: 24 38 (912)
I0403 14:20:14.344049 13169 net.cpp:148] Top shape: 24 38 (912)
I0403 14:20:14.344063 13169 net.cpp:156] Memory required for data: 946203936
I0403 14:20:14.344079 13169 layer_factory.hpp:77] Creating layer inception_4b/1x1
I0403 14:20:14.344101 13169 net.cpp:91] Creating Layer inception_4b/1x1
I0403 14:20:14.344146 13169 net.cpp:425] inception_4b/1x1 <- inception_4a/output_inception_4a/output_0_split_1
I0403 14:20:14.344166 13169 net.cpp:399] inception_4b/1x1 -> inception_4b/1x1
I0403 14:20:14.345867 13169 net.cpp:141] Setting up inception_4b/1x1
I0403 14:20:14.345897 13169 net.cpp:148] Top shape: 24 160 14 14 (752640)
I0403 14:20:14.345916 13169 net.cpp:156] Memory required for data: 949214496
I0403 14:20:14.345934 13169 layer_factory.hpp:77] Creating layer inception_4b/relu_1x1
I0403 14:20:14.345955 13169 net.cpp:91] Creating Layer inception_4b/relu_1x1
I0403 14:20:14.345973 13169 net.cpp:425] inception_4b/relu_1x1 <- inception_4b/1x1
I0403 14:20:14.345990 13169 net.cpp:386] inception_4b/relu_1x1 -> inception_4b/1x1 (in-place)
I0403 14:20:14.346174 13169 net.cpp:141] Setting up inception_4b/relu_1x1
I0403 14:20:14.346199 13169 net.cpp:148] Top shape: 24 160 14 14 (752640)
I0403 14:20:14.346213 13169 net.cpp:156] Memory required for data: 952225056
I0403 14:20:14.346228 13169 layer_factory.hpp:77] Creating layer inception_4b/3x3_reduce
I0403 14:20:14.346249 13169 net.cpp:91] Creating Layer inception_4b/3x3_reduce
I0403 14:20:14.346267 13169 net.cpp:425] inception_4b/3x3_reduce <- inception_4a/output_inception_4a/output_0_split_2
I0403 14:20:14.346288 13169 net.cpp:399] inception_4b/3x3_reduce -> inception_4b/3x3_reduce
I0403 14:20:14.347659 13169 net.cpp:141] Setting up inception_4b/3x3_reduce
I0403 14:20:14.347688 13169 net.cpp:148] Top shape: 24 112 14 14 (526848)
I0403 14:20:14.347707 13169 net.cpp:156] Memory required for data: 954332448
I0403 14:20:14.347725 13169 layer_factory.hpp:77] Creating layer inception_4b/relu_3x3_reduce
I0403 14:20:14.347743 13169 net.cpp:91] Creating Layer inception_4b/relu_3x3_reduce
I0403 14:20:14.347759 13169 net.cpp:425] inception_4b/relu_3x3_reduce <- inception_4b/3x3_reduce
I0403 14:20:14.347779 13169 net.cpp:386] inception_4b/relu_3x3_reduce -> inception_4b/3x3_reduce (in-place)
I0403 14:20:14.348062 13169 net.cpp:141] Setting up inception_4b/relu_3x3_reduce
I0403 14:20:14.348090 13169 net.cpp:148] Top shape: 24 112 14 14 (526848)
I0403 14:20:14.348106 13169 net.cpp:156] Memory required for data: 956439840
I0403 14:20:14.348120 13169 layer_factory.hpp:77] Creating layer inception_4b/3x3
I0403 14:20:14.348142 13169 net.cpp:91] Creating Layer inception_4b/3x3
I0403 14:20:14.348160 13169 net.cpp:425] inception_4b/3x3 <- inception_4b/3x3_reduce
I0403 14:20:14.348181 13169 net.cpp:399] inception_4b/3x3 -> inception_4b/3x3
I0403 14:20:14.351161 13169 net.cpp:141] Setting up inception_4b/3x3
I0403 14:20:14.351189 13169 net.cpp:148] Top shape: 24 224 14 14 (1053696)
I0403 14:20:14.351205 13169 net.cpp:156] Memory required for data: 960654624
I0403 14:20:14.351223 13169 layer_factory.hpp:77] Creating layer inception_4b/relu_3x3
I0403 14:20:14.351243 13169 net.cpp:91] Creating Layer inception_4b/relu_3x3
I0403 14:20:14.351261 13169 net.cpp:425] inception_4b/relu_3x3 <- inception_4b/3x3
I0403 14:20:14.351277 13169 net.cpp:386] inception_4b/relu_3x3 -> inception_4b/3x3 (in-place)
I0403 14:20:14.351461 13169 net.cpp:141] Setting up inception_4b/relu_3x3
I0403 14:20:14.351488 13169 net.cpp:148] Top shape: 24 224 14 14 (1053696)
I0403 14:20:14.351505 13169 net.cpp:156] Memory required for data: 964869408
I0403 14:20:14.351518 13169 layer_factory.hpp:77] Creating layer inception_4b/5x5_reduce
I0403 14:20:14.351541 13169 net.cpp:91] Creating Layer inception_4b/5x5_reduce
I0403 14:20:14.351559 13169 net.cpp:425] inception_4b/5x5_reduce <- inception_4a/output_inception_4a/output_0_split_3
I0403 14:20:14.351578 13169 net.cpp:399] inception_4b/5x5_reduce -> inception_4b/5x5_reduce
I0403 14:20:14.352663 13169 net.cpp:141] Setting up inception_4b/5x5_reduce
I0403 14:20:14.352691 13169 net.cpp:148] Top shape: 24 24 14 14 (112896)
I0403 14:20:14.352707 13169 net.cpp:156] Memory required for data: 965320992
I0403 14:20:14.352725 13169 layer_factory.hpp:77] Creating layer inception_4b/relu_5x5_reduce
I0403 14:20:14.352742 13169 net.cpp:91] Creating Layer inception_4b/relu_5x5_reduce
I0403 14:20:14.352771 13169 net.cpp:425] inception_4b/relu_5x5_reduce <- inception_4b/5x5_reduce
I0403 14:20:14.352789 13169 net.cpp:386] inception_4b/relu_5x5_reduce -> inception_4b/5x5_reduce (in-place)
I0403 14:20:14.352967 13169 net.cpp:141] Setting up inception_4b/relu_5x5_reduce
I0403 14:20:14.352993 13169 net.cpp:148] Top shape: 24 24 14 14 (112896)
I0403 14:20:14.353006 13169 net.cpp:156] Memory required for data: 965772576
I0403 14:20:14.353020 13169 layer_factory.hpp:77] Creating layer inception_4b/5x5
I0403 14:20:14.353041 13169 net.cpp:91] Creating Layer inception_4b/5x5
I0403 14:20:14.353058 13169 net.cpp:425] inception_4b/5x5 <- inception_4b/5x5_reduce
I0403 14:20:14.353078 13169 net.cpp:399] inception_4b/5x5 -> inception_4b/5x5
I0403 14:20:14.354269 13169 net.cpp:141] Setting up inception_4b/5x5
I0403 14:20:14.354298 13169 net.cpp:148] Top shape: 24 64 14 14 (301056)
I0403 14:20:14.354312 13169 net.cpp:156] Memory required for data: 966976800
I0403 14:20:14.354331 13169 layer_factory.hpp:77] Creating layer inception_4b/relu_5x5
I0403 14:20:14.354351 13169 net.cpp:91] Creating Layer inception_4b/relu_5x5
I0403 14:20:14.354367 13169 net.cpp:425] inception_4b/relu_5x5 <- inception_4b/5x5
I0403 14:20:14.354383 13169 net.cpp:386] inception_4b/relu_5x5 -> inception_4b/5x5 (in-place)
I0403 14:20:14.354672 13169 net.cpp:141] Setting up inception_4b/relu_5x5
I0403 14:20:14.354697 13169 net.cpp:148] Top shape: 24 64 14 14 (301056)
I0403 14:20:14.354712 13169 net.cpp:156] Memory required for data: 968181024
I0403 14:20:14.354727 13169 layer_factory.hpp:77] Creating layer inception_4b/pool
I0403 14:20:14.354748 13169 net.cpp:91] Creating Layer inception_4b/pool
I0403 14:20:14.354765 13169 net.cpp:425] inception_4b/pool <- inception_4a/output_inception_4a/output_0_split_4
I0403 14:20:14.354785 13169 net.cpp:399] inception_4b/pool -> inception_4b/pool
I0403 14:20:14.354848 13169 net.cpp:141] Setting up inception_4b/pool
I0403 14:20:14.354871 13169 net.cpp:148] Top shape: 24 512 14 14 (2408448)
I0403 14:20:14.354885 13169 net.cpp:156] Memory required for data: 977814816
I0403 14:20:14.354899 13169 layer_factory.hpp:77] Creating layer inception_4b/pool_proj
I0403 14:20:14.354921 13169 net.cpp:91] Creating Layer inception_4b/pool_proj
I0403 14:20:14.354938 13169 net.cpp:425] inception_4b/pool_proj <- inception_4b/pool
I0403 14:20:14.354957 13169 net.cpp:399] inception_4b/pool_proj -> inception_4b/pool_proj
I0403 14:20:14.356123 13169 net.cpp:141] Setting up inception_4b/pool_proj
I0403 14:20:14.356151 13169 net.cpp:148] Top shape: 24 64 14 14 (301056)
I0403 14:20:14.356168 13169 net.cpp:156] Memory required for data: 979019040
I0403 14:20:14.356185 13169 layer_factory.hpp:77] Creating layer inception_4b/relu_pool_proj
I0403 14:20:14.356204 13169 net.cpp:91] Creating Layer inception_4b/relu_pool_proj
I0403 14:20:14.356218 13169 net.cpp:425] inception_4b/relu_pool_proj <- inception_4b/pool_proj
I0403 14:20:14.356236 13169 net.cpp:386] inception_4b/relu_pool_proj -> inception_4b/pool_proj (in-place)
I0403 14:20:14.356411 13169 net.cpp:141] Setting up inception_4b/relu_pool_proj
I0403 14:20:14.356436 13169 net.cpp:148] Top shape: 24 64 14 14 (301056)
I0403 14:20:14.356449 13169 net.cpp:156] Memory required for data: 980223264
I0403 14:20:14.356463 13169 layer_factory.hpp:77] Creating layer inception_4b/output
I0403 14:20:14.356480 13169 net.cpp:91] Creating Layer inception_4b/output
I0403 14:20:14.356495 13169 net.cpp:425] inception_4b/output <- inception_4b/1x1
I0403 14:20:14.356510 13169 net.cpp:425] inception_4b/output <- inception_4b/3x3
I0403 14:20:14.356525 13169 net.cpp:425] inception_4b/output <- inception_4b/5x5
I0403 14:20:14.356539 13169 net.cpp:425] inception_4b/output <- inception_4b/pool_proj
I0403 14:20:14.356559 13169 net.cpp:399] inception_4b/output -> inception_4b/output
I0403 14:20:14.356606 13169 net.cpp:141] Setting up inception_4b/output
I0403 14:20:14.356631 13169 net.cpp:148] Top shape: 24 512 14 14 (2408448)
I0403 14:20:14.356647 13169 net.cpp:156] Memory required for data: 989857056
I0403 14:20:14.356673 13169 layer_factory.hpp:77] Creating layer inception_4b/output_inception_4b/output_0_split
I0403 14:20:14.356690 13169 net.cpp:91] Creating Layer inception_4b/output_inception_4b/output_0_split
I0403 14:20:14.356705 13169 net.cpp:425] inception_4b/output_inception_4b/output_0_split <- inception_4b/output
I0403 14:20:14.356722 13169 net.cpp:399] inception_4b/output_inception_4b/output_0_split -> inception_4b/output_inception_4b/output_0_split_0
I0403 14:20:14.356744 13169 net.cpp:399] inception_4b/output_inception_4b/output_0_split -> inception_4b/output_inception_4b/output_0_split_1
I0403 14:20:14.356763 13169 net.cpp:399] inception_4b/output_inception_4b/output_0_split -> inception_4b/output_inception_4b/output_0_split_2
I0403 14:20:14.356782 13169 net.cpp:399] inception_4b/output_inception_4b/output_0_split -> inception_4b/output_inception_4b/output_0_split_3
I0403 14:20:14.356864 13169 net.cpp:141] Setting up inception_4b/output_inception_4b/output_0_split
I0403 14:20:14.356886 13169 net.cpp:148] Top shape: 24 512 14 14 (2408448)
I0403 14:20:14.356901 13169 net.cpp:148] Top shape: 24 512 14 14 (2408448)
I0403 14:20:14.356916 13169 net.cpp:148] Top shape: 24 512 14 14 (2408448)
I0403 14:20:14.356931 13169 net.cpp:148] Top shape: 24 512 14 14 (2408448)
I0403 14:20:14.356945 13169 net.cpp:156] Memory required for data: 1028392224
I0403 14:20:14.356958 13169 layer_factory.hpp:77] Creating layer inception_4c/1x1
I0403 14:20:14.356981 13169 net.cpp:91] Creating Layer inception_4c/1x1
I0403 14:20:14.356997 13169 net.cpp:425] inception_4c/1x1 <- inception_4b/output_inception_4b/output_0_split_0
I0403 14:20:14.357015 13169 net.cpp:399] inception_4c/1x1 -> inception_4c/1x1
I0403 14:20:14.358413 13169 net.cpp:141] Setting up inception_4c/1x1
I0403 14:20:14.358440 13169 net.cpp:148] Top shape: 24 128 14 14 (602112)
I0403 14:20:14.358454 13169 net.cpp:156] Memory required for data: 1030800672
I0403 14:20:14.358472 13169 layer_factory.hpp:77] Creating layer inception_4c/relu_1x1
I0403 14:20:14.358489 13169 net.cpp:91] Creating Layer inception_4c/relu_1x1
I0403 14:20:14.358505 13169 net.cpp:425] inception_4c/relu_1x1 <- inception_4c/1x1
I0403 14:20:14.358525 13169 net.cpp:386] inception_4c/relu_1x1 -> inception_4c/1x1 (in-place)
I0403 14:20:14.358705 13169 net.cpp:141] Setting up inception_4c/relu_1x1
I0403 14:20:14.358728 13169 net.cpp:148] Top shape: 24 128 14 14 (602112)
I0403 14:20:14.358742 13169 net.cpp:156] Memory required for data: 1033209120
I0403 14:20:14.358757 13169 layer_factory.hpp:77] Creating layer inception_4c/3x3_reduce
I0403 14:20:14.358777 13169 net.cpp:91] Creating Layer inception_4c/3x3_reduce
I0403 14:20:14.358794 13169 net.cpp:425] inception_4c/3x3_reduce <- inception_4b/output_inception_4b/output_0_split_1
I0403 14:20:14.358816 13169 net.cpp:399] inception_4c/3x3_reduce -> inception_4c/3x3_reduce
I0403 14:20:14.360723 13169 net.cpp:141] Setting up inception_4c/3x3_reduce
I0403 14:20:14.360752 13169 net.cpp:148] Top shape: 24 128 14 14 (602112)
I0403 14:20:14.360769 13169 net.cpp:156] Memory required for data: 1035617568
I0403 14:20:14.360786 13169 layer_factory.hpp:77] Creating layer inception_4c/relu_3x3_reduce
I0403 14:20:14.360805 13169 net.cpp:91] Creating Layer inception_4c/relu_3x3_reduce
I0403 14:20:14.360821 13169 net.cpp:425] inception_4c/relu_3x3_reduce <- inception_4c/3x3_reduce
I0403 14:20:14.360836 13169 net.cpp:386] inception_4c/relu_3x3_reduce -> inception_4c/3x3_reduce (in-place)
I0403 14:20:14.361124 13169 net.cpp:141] Setting up inception_4c/relu_3x3_reduce
I0403 14:20:14.361151 13169 net.cpp:148] Top shape: 24 128 14 14 (602112)
I0403 14:20:14.361167 13169 net.cpp:156] Memory required for data: 1038026016
I0403 14:20:14.361181 13169 layer_factory.hpp:77] Creating layer inception_4c/3x3
I0403 14:20:14.361202 13169 net.cpp:91] Creating Layer inception_4c/3x3
I0403 14:20:14.361217 13169 net.cpp:425] inception_4c/3x3 <- inception_4c/3x3_reduce
I0403 14:20:14.361249 13169 net.cpp:399] inception_4c/3x3 -> inception_4c/3x3
I0403 14:20:14.364786 13169 net.cpp:141] Setting up inception_4c/3x3
I0403 14:20:14.364840 13169 net.cpp:148] Top shape: 24 256 14 14 (1204224)
I0403 14:20:14.364857 13169 net.cpp:156] Memory required for data: 1042842912
I0403 14:20:14.364889 13169 layer_factory.hpp:77] Creating layer inception_4c/relu_3x3
I0403 14:20:14.364910 13169 net.cpp:91] Creating Layer inception_4c/relu_3x3
I0403 14:20:14.364926 13169 net.cpp:425] inception_4c/relu_3x3 <- inception_4c/3x3
I0403 14:20:14.364945 13169 net.cpp:386] inception_4c/relu_3x3 -> inception_4c/3x3 (in-place)
I0403 14:20:14.365126 13169 net.cpp:141] Setting up inception_4c/relu_3x3
I0403 14:20:14.365154 13169 net.cpp:148] Top shape: 24 256 14 14 (1204224)
I0403 14:20:14.365170 13169 net.cpp:156] Memory required for data: 1047659808
I0403 14:20:14.365183 13169 layer_factory.hpp:77] Creating layer inception_4c/5x5_reduce
I0403 14:20:14.365207 13169 net.cpp:91] Creating Layer inception_4c/5x5_reduce
I0403 14:20:14.365226 13169 net.cpp:425] inception_4c/5x5_reduce <- inception_4b/output_inception_4b/output_0_split_2
I0403 14:20:14.365245 13169 net.cpp:399] inception_4c/5x5_reduce -> inception_4c/5x5_reduce
I0403 14:20:14.366343 13169 net.cpp:141] Setting up inception_4c/5x5_reduce
I0403 14:20:14.366374 13169 net.cpp:148] Top shape: 24 24 14 14 (112896)
I0403 14:20:14.366390 13169 net.cpp:156] Memory required for data: 1048111392
I0403 14:20:14.366408 13169 layer_factory.hpp:77] Creating layer inception_4c/relu_5x5_reduce
I0403 14:20:14.366426 13169 net.cpp:91] Creating Layer inception_4c/relu_5x5_reduce
I0403 14:20:14.366442 13169 net.cpp:425] inception_4c/relu_5x5_reduce <- inception_4c/5x5_reduce
I0403 14:20:14.366459 13169 net.cpp:386] inception_4c/relu_5x5_reduce -> inception_4c/5x5_reduce (in-place)
I0403 14:20:14.366657 13169 net.cpp:141] Setting up inception_4c/relu_5x5_reduce
I0403 14:20:14.366680 13169 net.cpp:148] Top shape: 24 24 14 14 (112896)
I0403 14:20:14.366694 13169 net.cpp:156] Memory required for data: 1048562976
I0403 14:20:14.366708 13169 layer_factory.hpp:77] Creating layer inception_4c/5x5
I0403 14:20:14.366730 13169 net.cpp:91] Creating Layer inception_4c/5x5
I0403 14:20:14.366747 13169 net.cpp:425] inception_4c/5x5 <- inception_4c/5x5_reduce
I0403 14:20:14.366767 13169 net.cpp:399] inception_4c/5x5 -> inception_4c/5x5
I0403 14:20:14.367975 13169 net.cpp:141] Setting up inception_4c/5x5
I0403 14:20:14.368001 13169 net.cpp:148] Top shape: 24 64 14 14 (301056)
I0403 14:20:14.368017 13169 net.cpp:156] Memory required for data: 1049767200
I0403 14:20:14.368034 13169 layer_factory.hpp:77] Creating layer inception_4c/relu_5x5
I0403 14:20:14.368052 13169 net.cpp:91] Creating Layer inception_4c/relu_5x5
I0403 14:20:14.368068 13169 net.cpp:425] inception_4c/relu_5x5 <- inception_4c/5x5
I0403 14:20:14.368086 13169 net.cpp:386] inception_4c/relu_5x5 -> inception_4c/5x5 (in-place)
I0403 14:20:14.368368 13169 net.cpp:141] Setting up inception_4c/relu_5x5
I0403 14:20:14.368393 13169 net.cpp:148] Top shape: 24 64 14 14 (301056)
I0403 14:20:14.368407 13169 net.cpp:156] Memory required for data: 1050971424
I0403 14:20:14.368422 13169 layer_factory.hpp:77] Creating layer inception_4c/pool
I0403 14:20:14.368439 13169 net.cpp:91] Creating Layer inception_4c/pool
I0403 14:20:14.368454 13169 net.cpp:425] inception_4c/pool <- inception_4b/output_inception_4b/output_0_split_3
I0403 14:20:14.368474 13169 net.cpp:399] inception_4c/pool -> inception_4c/pool
I0403 14:20:14.368549 13169 net.cpp:141] Setting up inception_4c/pool
I0403 14:20:14.368572 13169 net.cpp:148] Top shape: 24 512 14 14 (2408448)
I0403 14:20:14.368587 13169 net.cpp:156] Memory required for data: 1060605216
I0403 14:20:14.368604 13169 layer_factory.hpp:77] Creating layer inception_4c/pool_proj
I0403 14:20:14.368630 13169 net.cpp:91] Creating Layer inception_4c/pool_proj
I0403 14:20:14.368649 13169 net.cpp:425] inception_4c/pool_proj <- inception_4c/pool
I0403 14:20:14.368667 13169 net.cpp:399] inception_4c/pool_proj -> inception_4c/pool_proj
I0403 14:20:14.369873 13169 net.cpp:141] Setting up inception_4c/pool_proj
I0403 14:20:14.369900 13169 net.cpp:148] Top shape: 24 64 14 14 (301056)
I0403 14:20:14.369930 13169 net.cpp:156] Memory required for data: 1061809440
I0403 14:20:14.369948 13169 layer_factory.hpp:77] Creating layer inception_4c/relu_pool_proj
I0403 14:20:14.369966 13169 net.cpp:91] Creating Layer inception_4c/relu_pool_proj
I0403 14:20:14.369982 13169 net.cpp:425] inception_4c/relu_pool_proj <- inception_4c/pool_proj
I0403 14:20:14.369999 13169 net.cpp:386] inception_4c/relu_pool_proj -> inception_4c/pool_proj (in-place)
I0403 14:20:14.370175 13169 net.cpp:141] Setting up inception_4c/relu_pool_proj
I0403 14:20:14.370200 13169 net.cpp:148] Top shape: 24 64 14 14 (301056)
I0403 14:20:14.370215 13169 net.cpp:156] Memory required for data: 1063013664
I0403 14:20:14.370229 13169 layer_factory.hpp:77] Creating layer inception_4c/output
I0403 14:20:14.370245 13169 net.cpp:91] Creating Layer inception_4c/output
I0403 14:20:14.370260 13169 net.cpp:425] inception_4c/output <- inception_4c/1x1
I0403 14:20:14.370275 13169 net.cpp:425] inception_4c/output <- inception_4c/3x3
I0403 14:20:14.370292 13169 net.cpp:425] inception_4c/output <- inception_4c/5x5
I0403 14:20:14.370307 13169 net.cpp:425] inception_4c/output <- inception_4c/pool_proj
I0403 14:20:14.370326 13169 net.cpp:399] inception_4c/output -> inception_4c/output
I0403 14:20:14.370370 13169 net.cpp:141] Setting up inception_4c/output
I0403 14:20:14.370394 13169 net.cpp:148] Top shape: 24 512 14 14 (2408448)
I0403 14:20:14.370409 13169 net.cpp:156] Memory required for data: 1072647456
I0403 14:20:14.370424 13169 layer_factory.hpp:77] Creating layer inception_4c/output_inception_4c/output_0_split
I0403 14:20:14.370440 13169 net.cpp:91] Creating Layer inception_4c/output_inception_4c/output_0_split
I0403 14:20:14.370453 13169 net.cpp:425] inception_4c/output_inception_4c/output_0_split <- inception_4c/output
I0403 14:20:14.370470 13169 net.cpp:399] inception_4c/output_inception_4c/output_0_split -> inception_4c/output_inception_4c/output_0_split_0
I0403 14:20:14.370491 13169 net.cpp:399] inception_4c/output_inception_4c/output_0_split -> inception_4c/output_inception_4c/output_0_split_1
I0403 14:20:14.370512 13169 net.cpp:399] inception_4c/output_inception_4c/output_0_split -> inception_4c/output_inception_4c/output_0_split_2
I0403 14:20:14.370530 13169 net.cpp:399] inception_4c/output_inception_4c/output_0_split -> inception_4c/output_inception_4c/output_0_split_3
I0403 14:20:14.370620 13169 net.cpp:141] Setting up inception_4c/output_inception_4c/output_0_split
I0403 14:20:14.370641 13169 net.cpp:148] Top shape: 24 512 14 14 (2408448)
I0403 14:20:14.370657 13169 net.cpp:148] Top shape: 24 512 14 14 (2408448)
I0403 14:20:14.370672 13169 net.cpp:148] Top shape: 24 512 14 14 (2408448)
I0403 14:20:14.370687 13169 net.cpp:148] Top shape: 24 512 14 14 (2408448)
I0403 14:20:14.370699 13169 net.cpp:156] Memory required for data: 1111182624
I0403 14:20:14.370713 13169 layer_factory.hpp:77] Creating layer inception_4d/1x1
I0403 14:20:14.370734 13169 net.cpp:91] Creating Layer inception_4d/1x1
I0403 14:20:14.370750 13169 net.cpp:425] inception_4d/1x1 <- inception_4c/output_inception_4c/output_0_split_0
I0403 14:20:14.370770 13169 net.cpp:399] inception_4d/1x1 -> inception_4d/1x1
I0403 14:20:14.372155 13169 net.cpp:141] Setting up inception_4d/1x1
I0403 14:20:14.372182 13169 net.cpp:148] Top shape: 24 112 14 14 (526848)
I0403 14:20:14.372197 13169 net.cpp:156] Memory required for data: 1113290016
I0403 14:20:14.372215 13169 layer_factory.hpp:77] Creating layer inception_4d/relu_1x1
I0403 14:20:14.372234 13169 net.cpp:91] Creating Layer inception_4d/relu_1x1
I0403 14:20:14.372251 13169 net.cpp:425] inception_4d/relu_1x1 <- inception_4d/1x1
I0403 14:20:14.372267 13169 net.cpp:386] inception_4d/relu_1x1 -> inception_4d/1x1 (in-place)
I0403 14:20:14.372445 13169 net.cpp:141] Setting up inception_4d/relu_1x1
I0403 14:20:14.372472 13169 net.cpp:148] Top shape: 24 112 14 14 (526848)
I0403 14:20:14.372486 13169 net.cpp:156] Memory required for data: 1115397408
I0403 14:20:14.372501 13169 layer_factory.hpp:77] Creating layer inception_4d/3x3_reduce
I0403 14:20:14.372536 13169 net.cpp:91] Creating Layer inception_4d/3x3_reduce
I0403 14:20:14.372555 13169 net.cpp:425] inception_4d/3x3_reduce <- inception_4c/output_inception_4c/output_0_split_1
I0403 14:20:14.372572 13169 net.cpp:399] inception_4d/3x3_reduce -> inception_4d/3x3_reduce
I0403 14:20:14.374055 13169 net.cpp:141] Setting up inception_4d/3x3_reduce
I0403 14:20:14.374083 13169 net.cpp:148] Top shape: 24 144 14 14 (677376)
I0403 14:20:14.374097 13169 net.cpp:156] Memory required for data: 1118106912
I0403 14:20:14.374115 13169 layer_factory.hpp:77] Creating layer inception_4d/relu_3x3_reduce
I0403 14:20:14.374135 13169 net.cpp:91] Creating Layer inception_4d/relu_3x3_reduce
I0403 14:20:14.374151 13169 net.cpp:425] inception_4d/relu_3x3_reduce <- inception_4d/3x3_reduce
I0403 14:20:14.374168 13169 net.cpp:386] inception_4d/relu_3x3_reduce -> inception_4d/3x3_reduce (in-place)
I0403 14:20:14.374454 13169 net.cpp:141] Setting up inception_4d/relu_3x3_reduce
I0403 14:20:14.374480 13169 net.cpp:148] Top shape: 24 144 14 14 (677376)
I0403 14:20:14.374493 13169 net.cpp:156] Memory required for data: 1120816416
I0403 14:20:14.374507 13169 layer_factory.hpp:77] Creating layer inception_4d/3x3
I0403 14:20:14.374529 13169 net.cpp:91] Creating Layer inception_4d/3x3
I0403 14:20:14.374547 13169 net.cpp:425] inception_4d/3x3 <- inception_4d/3x3_reduce
I0403 14:20:14.374567 13169 net.cpp:399] inception_4d/3x3 -> inception_4d/3x3
I0403 14:20:14.378712 13169 net.cpp:141] Setting up inception_4d/3x3
I0403 14:20:14.378741 13169 net.cpp:148] Top shape: 24 288 14 14 (1354752)
I0403 14:20:14.378756 13169 net.cpp:156] Memory required for data: 1126235424
I0403 14:20:14.378774 13169 layer_factory.hpp:77] Creating layer inception_4d/relu_3x3
I0403 14:20:14.378794 13169 net.cpp:91] Creating Layer inception_4d/relu_3x3
I0403 14:20:14.378811 13169 net.cpp:425] inception_4d/relu_3x3 <- inception_4d/3x3
I0403 14:20:14.378828 13169 net.cpp:386] inception_4d/relu_3x3 -> inception_4d/3x3 (in-place)
I0403 14:20:14.379007 13169 net.cpp:141] Setting up inception_4d/relu_3x3
I0403 14:20:14.379034 13169 net.cpp:148] Top shape: 24 288 14 14 (1354752)
I0403 14:20:14.379048 13169 net.cpp:156] Memory required for data: 1131654432
I0403 14:20:14.379063 13169 layer_factory.hpp:77] Creating layer inception_4d/5x5_reduce
I0403 14:20:14.379084 13169 net.cpp:91] Creating Layer inception_4d/5x5_reduce
I0403 14:20:14.379101 13169 net.cpp:425] inception_4d/5x5_reduce <- inception_4c/output_inception_4c/output_0_split_2
I0403 14:20:14.379119 13169 net.cpp:399] inception_4d/5x5_reduce -> inception_4d/5x5_reduce
I0403 14:20:14.380280 13169 net.cpp:141] Setting up inception_4d/5x5_reduce
I0403 14:20:14.380308 13169 net.cpp:148] Top shape: 24 32 14 14 (150528)
I0403 14:20:14.380323 13169 net.cpp:156] Memory required for data: 1132256544
I0403 14:20:14.380342 13169 layer_factory.hpp:77] Creating layer inception_4d/relu_5x5_reduce
I0403 14:20:14.380362 13169 net.cpp:91] Creating Layer inception_4d/relu_5x5_reduce
I0403 14:20:14.380378 13169 net.cpp:425] inception_4d/relu_5x5_reduce <- inception_4d/5x5_reduce
I0403 14:20:14.380395 13169 net.cpp:386] inception_4d/relu_5x5_reduce -> inception_4d/5x5_reduce (in-place)
I0403 14:20:14.380584 13169 net.cpp:141] Setting up inception_4d/relu_5x5_reduce
I0403 14:20:14.380616 13169 net.cpp:148] Top shape: 24 32 14 14 (150528)
I0403 14:20:14.380633 13169 net.cpp:156] Memory required for data: 1132858656
I0403 14:20:14.380648 13169 layer_factory.hpp:77] Creating layer inception_4d/5x5
I0403 14:20:14.380669 13169 net.cpp:91] Creating Layer inception_4d/5x5
I0403 14:20:14.380687 13169 net.cpp:425] inception_4d/5x5 <- inception_4d/5x5_reduce
I0403 14:20:14.380707 13169 net.cpp:399] inception_4d/5x5 -> inception_4d/5x5
I0403 14:20:14.382182 13169 net.cpp:141] Setting up inception_4d/5x5
I0403 14:20:14.382210 13169 net.cpp:148] Top shape: 24 64 14 14 (301056)
I0403 14:20:14.382225 13169 net.cpp:156] Memory required for data: 1134062880
I0403 14:20:14.382246 13169 layer_factory.hpp:77] Creating layer inception_4d/relu_5x5
I0403 14:20:14.382277 13169 net.cpp:91] Creating Layer inception_4d/relu_5x5
I0403 14:20:14.382297 13169 net.cpp:425] inception_4d/relu_5x5 <- inception_4d/5x5
I0403 14:20:14.382316 13169 net.cpp:386] inception_4d/relu_5x5 -> inception_4d/5x5 (in-place)
I0403 14:20:14.382622 13169 net.cpp:141] Setting up inception_4d/relu_5x5
I0403 14:20:14.382649 13169 net.cpp:148] Top shape: 24 64 14 14 (301056)
I0403 14:20:14.382664 13169 net.cpp:156] Memory required for data: 1135267104
I0403 14:20:14.382679 13169 layer_factory.hpp:77] Creating layer inception_4d/pool
I0403 14:20:14.382697 13169 net.cpp:91] Creating Layer inception_4d/pool
I0403 14:20:14.382714 13169 net.cpp:425] inception_4d/pool <- inception_4c/output_inception_4c/output_0_split_3
I0403 14:20:14.382733 13169 net.cpp:399] inception_4d/pool -> inception_4d/pool
I0403 14:20:14.382799 13169 net.cpp:141] Setting up inception_4d/pool
I0403 14:20:14.382823 13169 net.cpp:148] Top shape: 24 512 14 14 (2408448)
I0403 14:20:14.382838 13169 net.cpp:156] Memory required for data: 1144900896
I0403 14:20:14.382853 13169 layer_factory.hpp:77] Creating layer inception_4d/pool_proj
I0403 14:20:14.382876 13169 net.cpp:91] Creating Layer inception_4d/pool_proj
I0403 14:20:14.382894 13169 net.cpp:425] inception_4d/pool_proj <- inception_4d/pool
I0403 14:20:14.382912 13169 net.cpp:399] inception_4d/pool_proj -> inception_4d/pool_proj
I0403 14:20:14.384692 13169 net.cpp:141] Setting up inception_4d/pool_proj
I0403 14:20:14.384721 13169 net.cpp:148] Top shape: 24 64 14 14 (301056)
I0403 14:20:14.384737 13169 net.cpp:156] Memory required for data: 1146105120
I0403 14:20:14.384755 13169 layer_factory.hpp:77] Creating layer inception_4d/relu_pool_proj
I0403 14:20:14.384775 13169 net.cpp:91] Creating Layer inception_4d/relu_pool_proj
I0403 14:20:14.384793 13169 net.cpp:425] inception_4d/relu_pool_proj <- inception_4d/pool_proj
I0403 14:20:14.384810 13169 net.cpp:386] inception_4d/relu_pool_proj -> inception_4d/pool_proj (in-place)
I0403 14:20:14.384999 13169 net.cpp:141] Setting up inception_4d/relu_pool_proj
I0403 14:20:14.385025 13169 net.cpp:148] Top shape: 24 64 14 14 (301056)
I0403 14:20:14.385040 13169 net.cpp:156] Memory required for data: 1147309344
I0403 14:20:14.385054 13169 layer_factory.hpp:77] Creating layer inception_4d/output
I0403 14:20:14.385071 13169 net.cpp:91] Creating Layer inception_4d/output
I0403 14:20:14.385087 13169 net.cpp:425] inception_4d/output <- inception_4d/1x1
I0403 14:20:14.385103 13169 net.cpp:425] inception_4d/output <- inception_4d/3x3
I0403 14:20:14.385119 13169 net.cpp:425] inception_4d/output <- inception_4d/5x5
I0403 14:20:14.385135 13169 net.cpp:425] inception_4d/output <- inception_4d/pool_proj
I0403 14:20:14.385154 13169 net.cpp:399] inception_4d/output -> inception_4d/output
I0403 14:20:14.385200 13169 net.cpp:141] Setting up inception_4d/output
I0403 14:20:14.385223 13169 net.cpp:148] Top shape: 24 528 14 14 (2483712)
I0403 14:20:14.385237 13169 net.cpp:156] Memory required for data: 1157244192
I0403 14:20:14.385252 13169 layer_factory.hpp:77] Creating layer inception_4d/output_inception_4d/output_0_split
I0403 14:20:14.385272 13169 net.cpp:91] Creating Layer inception_4d/output_inception_4d/output_0_split
I0403 14:20:14.385288 13169 net.cpp:425] inception_4d/output_inception_4d/output_0_split <- inception_4d/output
I0403 14:20:14.385306 13169 net.cpp:399] inception_4d/output_inception_4d/output_0_split -> inception_4d/output_inception_4d/output_0_split_0
I0403 14:20:14.385327 13169 net.cpp:399] inception_4d/output_inception_4d/output_0_split -> inception_4d/output_inception_4d/output_0_split_1
I0403 14:20:14.385352 13169 net.cpp:399] inception_4d/output_inception_4d/output_0_split -> inception_4d/output_inception_4d/output_0_split_2
I0403 14:20:14.385373 13169 net.cpp:399] inception_4d/output_inception_4d/output_0_split -> inception_4d/output_inception_4d/output_0_split_3
I0403 14:20:14.385393 13169 net.cpp:399] inception_4d/output_inception_4d/output_0_split -> inception_4d/output_inception_4d/output_0_split_4
I0403 14:20:14.385493 13169 net.cpp:141] Setting up inception_4d/output_inception_4d/output_0_split
I0403 14:20:14.385529 13169 net.cpp:148] Top shape: 24 528 14 14 (2483712)
I0403 14:20:14.385545 13169 net.cpp:148] Top shape: 24 528 14 14 (2483712)
I0403 14:20:14.385561 13169 net.cpp:148] Top shape: 24 528 14 14 (2483712)
I0403 14:20:14.385576 13169 net.cpp:148] Top shape: 24 528 14 14 (2483712)
I0403 14:20:14.385591 13169 net.cpp:148] Top shape: 24 528 14 14 (2483712)
I0403 14:20:14.385610 13169 net.cpp:156] Memory required for data: 1206918432
I0403 14:20:14.385625 13169 layer_factory.hpp:77] Creating layer loss2/ave_pool
I0403 14:20:14.385644 13169 net.cpp:91] Creating Layer loss2/ave_pool
I0403 14:20:14.385663 13169 net.cpp:425] loss2/ave_pool <- inception_4d/output_inception_4d/output_0_split_0
I0403 14:20:14.385679 13169 net.cpp:399] loss2/ave_pool -> loss2/ave_pool
I0403 14:20:14.385993 13169 net.cpp:141] Setting up loss2/ave_pool
I0403 14:20:14.386020 13169 net.cpp:148] Top shape: 24 528 4 4 (202752)
I0403 14:20:14.386035 13169 net.cpp:156] Memory required for data: 1207729440
I0403 14:20:14.386049 13169 layer_factory.hpp:77] Creating layer loss2/conv
I0403 14:20:14.386071 13169 net.cpp:91] Creating Layer loss2/conv
I0403 14:20:14.386090 13169 net.cpp:425] loss2/conv <- loss2/ave_pool
I0403 14:20:14.386111 13169 net.cpp:399] loss2/conv -> loss2/conv
I0403 14:20:14.388011 13169 net.cpp:141] Setting up loss2/conv
I0403 14:20:14.388041 13169 net.cpp:148] Top shape: 24 128 4 4 (49152)
I0403 14:20:14.388057 13169 net.cpp:156] Memory required for data: 1207926048
I0403 14:20:14.388075 13169 layer_factory.hpp:77] Creating layer loss2/relu_conv
I0403 14:20:14.388093 13169 net.cpp:91] Creating Layer loss2/relu_conv
I0403 14:20:14.388110 13169 net.cpp:425] loss2/relu_conv <- loss2/conv
I0403 14:20:14.388130 13169 net.cpp:386] loss2/relu_conv -> loss2/conv (in-place)
I0403 14:20:14.388419 13169 net.cpp:141] Setting up loss2/relu_conv
I0403 14:20:14.388447 13169 net.cpp:148] Top shape: 24 128 4 4 (49152)
I0403 14:20:14.388463 13169 net.cpp:156] Memory required for data: 1208122656
I0403 14:20:14.388478 13169 layer_factory.hpp:77] Creating layer loss2/fc
I0403 14:20:14.388497 13169 net.cpp:91] Creating Layer loss2/fc
I0403 14:20:14.388514 13169 net.cpp:425] loss2/fc <- loss2/conv
I0403 14:20:14.388536 13169 net.cpp:399] loss2/fc -> loss2/fc
I0403 14:20:14.406159 13169 net.cpp:141] Setting up loss2/fc
I0403 14:20:14.406190 13169 net.cpp:148] Top shape: 24 1024 (24576)
I0403 14:20:14.406205 13169 net.cpp:156] Memory required for data: 1208220960
I0403 14:20:14.406224 13169 layer_factory.hpp:77] Creating layer loss2/relu_fc
I0403 14:20:14.406245 13169 net.cpp:91] Creating Layer loss2/relu_fc
I0403 14:20:14.406263 13169 net.cpp:425] loss2/relu_fc <- loss2/fc
I0403 14:20:14.406280 13169 net.cpp:386] loss2/relu_fc -> loss2/fc (in-place)
I0403 14:20:14.406596 13169 net.cpp:141] Setting up loss2/relu_fc
I0403 14:20:14.406626 13169 net.cpp:148] Top shape: 24 1024 (24576)
I0403 14:20:14.406641 13169 net.cpp:156] Memory required for data: 1208319264
I0403 14:20:14.406656 13169 layer_factory.hpp:77] Creating layer loss2/drop_fc
I0403 14:20:14.406677 13169 net.cpp:91] Creating Layer loss2/drop_fc
I0403 14:20:14.406695 13169 net.cpp:425] loss2/drop_fc <- loss2/fc
I0403 14:20:14.406713 13169 net.cpp:386] loss2/drop_fc -> loss2/fc (in-place)
I0403 14:20:14.406762 13169 net.cpp:141] Setting up loss2/drop_fc
I0403 14:20:14.406785 13169 net.cpp:148] Top shape: 24 1024 (24576)
I0403 14:20:14.406800 13169 net.cpp:156] Memory required for data: 1208417568
I0403 14:20:14.406813 13169 layer_factory.hpp:77] Creating layer loss2/classifier_plantvillage
I0403 14:20:14.406834 13169 net.cpp:91] Creating Layer loss2/classifier_plantvillage
I0403 14:20:14.406852 13169 net.cpp:425] loss2/classifier_plantvillage <- loss2/fc
I0403 14:20:14.406870 13169 net.cpp:399] loss2/classifier_plantvillage -> loss2/classifier_plantvillage
I0403 14:20:14.407277 13169 net.cpp:141] Setting up loss2/classifier_plantvillage
I0403 14:20:14.407305 13169 net.cpp:148] Top shape: 24 38 (912)
I0403 14:20:14.407318 13169 net.cpp:156] Memory required for data: 1208421216
I0403 14:20:14.407354 13169 layer_factory.hpp:77] Creating layer loss2/classifier_plantvillage_loss2/classifier_plantvillage_0_split
I0403 14:20:14.407373 13169 net.cpp:91] Creating Layer loss2/classifier_plantvillage_loss2/classifier_plantvillage_0_split
I0403 14:20:14.407389 13169 net.cpp:425] loss2/classifier_plantvillage_loss2/classifier_plantvillage_0_split <- loss2/classifier_plantvillage
I0403 14:20:14.407409 13169 net.cpp:399] loss2/classifier_plantvillage_loss2/classifier_plantvillage_0_split -> loss2/classifier_plantvillage_loss2/classifier_plantvillage_0_split_0
I0403 14:20:14.407430 13169 net.cpp:399] loss2/classifier_plantvillage_loss2/classifier_plantvillage_0_split -> loss2/classifier_plantvillage_loss2/classifier_plantvillage_0_split_1
I0403 14:20:14.407450 13169 net.cpp:399] loss2/classifier_plantvillage_loss2/classifier_plantvillage_0_split -> loss2/classifier_plantvillage_loss2/classifier_plantvillage_0_split_2
I0403 14:20:14.407527 13169 net.cpp:141] Setting up loss2/classifier_plantvillage_loss2/classifier_plantvillage_0_split
I0403 14:20:14.407552 13169 net.cpp:148] Top shape: 24 38 (912)
I0403 14:20:14.407568 13169 net.cpp:148] Top shape: 24 38 (912)
I0403 14:20:14.407583 13169 net.cpp:148] Top shape: 24 38 (912)
I0403 14:20:14.407596 13169 net.cpp:156] Memory required for data: 1208432160
I0403 14:20:14.407614 13169 layer_factory.hpp:77] Creating layer inception_4e/1x1
I0403 14:20:14.407635 13169 net.cpp:91] Creating Layer inception_4e/1x1
I0403 14:20:14.407652 13169 net.cpp:425] inception_4e/1x1 <- inception_4d/output_inception_4d/output_0_split_1
I0403 14:20:14.407671 13169 net.cpp:399] inception_4e/1x1 -> inception_4e/1x1
I0403 14:20:14.409503 13169 net.cpp:141] Setting up inception_4e/1x1
I0403 14:20:14.409531 13169 net.cpp:148] Top shape: 24 256 14 14 (1204224)
I0403 14:20:14.409546 13169 net.cpp:156] Memory required for data: 1213249056
I0403 14:20:14.409564 13169 layer_factory.hpp:77] Creating layer inception_4e/relu_1x1
I0403 14:20:14.409582 13169 net.cpp:91] Creating Layer inception_4e/relu_1x1
I0403 14:20:14.409602 13169 net.cpp:425] inception_4e/relu_1x1 <- inception_4e/1x1
I0403 14:20:14.409623 13169 net.cpp:386] inception_4e/relu_1x1 -> inception_4e/1x1 (in-place)
I0403 14:20:14.409921 13169 net.cpp:141] Setting up inception_4e/relu_1x1
I0403 14:20:14.409948 13169 net.cpp:148] Top shape: 24 256 14 14 (1204224)
I0403 14:20:14.409963 13169 net.cpp:156] Memory required for data: 1218065952
I0403 14:20:14.409978 13169 layer_factory.hpp:77] Creating layer inception_4e/3x3_reduce
I0403 14:20:14.410001 13169 net.cpp:91] Creating Layer inception_4e/3x3_reduce
I0403 14:20:14.410020 13169 net.cpp:425] inception_4e/3x3_reduce <- inception_4d/output_inception_4d/output_0_split_2
I0403 14:20:14.410042 13169 net.cpp:399] inception_4e/3x3_reduce -> inception_4e/3x3_reduce
I0403 14:20:14.412175 13169 net.cpp:141] Setting up inception_4e/3x3_reduce
I0403 14:20:14.412205 13169 net.cpp:148] Top shape: 24 160 14 14 (752640)
I0403 14:20:14.412222 13169 net.cpp:156] Memory required for data: 1221076512
I0403 14:20:14.412240 13169 layer_factory.hpp:77] Creating layer inception_4e/relu_3x3_reduce
I0403 14:20:14.412259 13169 net.cpp:91] Creating Layer inception_4e/relu_3x3_reduce
I0403 14:20:14.412274 13169 net.cpp:425] inception_4e/relu_3x3_reduce <- inception_4e/3x3_reduce
I0403 14:20:14.412295 13169 net.cpp:386] inception_4e/relu_3x3_reduce -> inception_4e/3x3_reduce (in-place)
I0403 14:20:14.412482 13169 net.cpp:141] Setting up inception_4e/relu_3x3_reduce
I0403 14:20:14.412508 13169 net.cpp:148] Top shape: 24 160 14 14 (752640)
I0403 14:20:14.412523 13169 net.cpp:156] Memory required for data: 1224087072
I0403 14:20:14.412536 13169 layer_factory.hpp:77] Creating layer inception_4e/3x3
I0403 14:20:14.412557 13169 net.cpp:91] Creating Layer inception_4e/3x3
I0403 14:20:14.412575 13169 net.cpp:425] inception_4e/3x3 <- inception_4e/3x3_reduce
I0403 14:20:14.412597 13169 net.cpp:399] inception_4e/3x3 -> inception_4e/3x3
I0403 14:20:14.417629 13169 net.cpp:141] Setting up inception_4e/3x3
I0403 14:20:14.417670 13169 net.cpp:148] Top shape: 24 320 14 14 (1505280)
I0403 14:20:14.417686 13169 net.cpp:156] Memory required for data: 1230108192
I0403 14:20:14.417704 13169 layer_factory.hpp:77] Creating layer inception_4e/relu_3x3
I0403 14:20:14.417726 13169 net.cpp:91] Creating Layer inception_4e/relu_3x3
I0403 14:20:14.417742 13169 net.cpp:425] inception_4e/relu_3x3 <- inception_4e/3x3
I0403 14:20:14.417760 13169 net.cpp:386] inception_4e/relu_3x3 -> inception_4e/3x3 (in-place)
I0403 14:20:14.418061 13169 net.cpp:141] Setting up inception_4e/relu_3x3
I0403 14:20:14.418087 13169 net.cpp:148] Top shape: 24 320 14 14 (1505280)
I0403 14:20:14.418102 13169 net.cpp:156] Memory required for data: 1236129312
I0403 14:20:14.418117 13169 layer_factory.hpp:77] Creating layer inception_4e/5x5_reduce
I0403 14:20:14.418140 13169 net.cpp:91] Creating Layer inception_4e/5x5_reduce
I0403 14:20:14.418159 13169 net.cpp:425] inception_4e/5x5_reduce <- inception_4d/output_inception_4d/output_0_split_3
I0403 14:20:14.418181 13169 net.cpp:399] inception_4e/5x5_reduce -> inception_4e/5x5_reduce
I0403 14:20:14.419263 13169 net.cpp:141] Setting up inception_4e/5x5_reduce
I0403 14:20:14.419291 13169 net.cpp:148] Top shape: 24 32 14 14 (150528)
I0403 14:20:14.419306 13169 net.cpp:156] Memory required for data: 1236731424
I0403 14:20:14.419324 13169 layer_factory.hpp:77] Creating layer inception_4e/relu_5x5_reduce
I0403 14:20:14.419342 13169 net.cpp:91] Creating Layer inception_4e/relu_5x5_reduce
I0403 14:20:14.419358 13169 net.cpp:425] inception_4e/relu_5x5_reduce <- inception_4e/5x5_reduce
I0403 14:20:14.419378 13169 net.cpp:386] inception_4e/relu_5x5_reduce -> inception_4e/5x5_reduce (in-place)
I0403 14:20:14.419684 13169 net.cpp:141] Setting up inception_4e/relu_5x5_reduce
I0403 14:20:14.419711 13169 net.cpp:148] Top shape: 24 32 14 14 (150528)
I0403 14:20:14.419726 13169 net.cpp:156] Memory required for data: 1237333536
I0403 14:20:14.419741 13169 layer_factory.hpp:77] Creating layer inception_4e/5x5
I0403 14:20:14.419777 13169 net.cpp:91] Creating Layer inception_4e/5x5
I0403 14:20:14.419797 13169 net.cpp:425] inception_4e/5x5 <- inception_4e/5x5_reduce
I0403 14:20:14.419816 13169 net.cpp:399] inception_4e/5x5 -> inception_4e/5x5
I0403 14:20:14.421689 13169 net.cpp:141] Setting up inception_4e/5x5
I0403 14:20:14.421720 13169 net.cpp:148] Top shape: 24 128 14 14 (602112)
I0403 14:20:14.421736 13169 net.cpp:156] Memory required for data: 1239741984
I0403 14:20:14.421756 13169 layer_factory.hpp:77] Creating layer inception_4e/relu_5x5
I0403 14:20:14.421773 13169 net.cpp:91] Creating Layer inception_4e/relu_5x5
I0403 14:20:14.421790 13169 net.cpp:425] inception_4e/relu_5x5 <- inception_4e/5x5
I0403 14:20:14.421807 13169 net.cpp:386] inception_4e/relu_5x5 -> inception_4e/5x5 (in-place)
I0403 14:20:14.422008 13169 net.cpp:141] Setting up inception_4e/relu_5x5
I0403 14:20:14.422032 13169 net.cpp:148] Top shape: 24 128 14 14 (602112)
I0403 14:20:14.422046 13169 net.cpp:156] Memory required for data: 1242150432
I0403 14:20:14.422060 13169 layer_factory.hpp:77] Creating layer inception_4e/pool
I0403 14:20:14.422078 13169 net.cpp:91] Creating Layer inception_4e/pool
I0403 14:20:14.422094 13169 net.cpp:425] inception_4e/pool <- inception_4d/output_inception_4d/output_0_split_4
I0403 14:20:14.422114 13169 net.cpp:399] inception_4e/pool -> inception_4e/pool
I0403 14:20:14.422183 13169 net.cpp:141] Setting up inception_4e/pool
I0403 14:20:14.422209 13169 net.cpp:148] Top shape: 24 528 14 14 (2483712)
I0403 14:20:14.422224 13169 net.cpp:156] Memory required for data: 1252085280
I0403 14:20:14.422238 13169 layer_factory.hpp:77] Creating layer inception_4e/pool_proj
I0403 14:20:14.422260 13169 net.cpp:91] Creating Layer inception_4e/pool_proj
I0403 14:20:14.422277 13169 net.cpp:425] inception_4e/pool_proj <- inception_4e/pool
I0403 14:20:14.422298 13169 net.cpp:399] inception_4e/pool_proj -> inception_4e/pool_proj
I0403 14:20:14.423818 13169 net.cpp:141] Setting up inception_4e/pool_proj
I0403 14:20:14.423846 13169 net.cpp:148] Top shape: 24 128 14 14 (602112)
I0403 14:20:14.423884 13169 net.cpp:156] Memory required for data: 1254493728
I0403 14:20:14.423904 13169 layer_factory.hpp:77] Creating layer inception_4e/relu_pool_proj
I0403 14:20:14.423923 13169 net.cpp:91] Creating Layer inception_4e/relu_pool_proj
I0403 14:20:14.423938 13169 net.cpp:425] inception_4e/relu_pool_proj <- inception_4e/pool_proj
I0403 14:20:14.423954 13169 net.cpp:386] inception_4e/relu_pool_proj -> inception_4e/pool_proj (in-place)
I0403 14:20:14.424250 13169 net.cpp:141] Setting up inception_4e/relu_pool_proj
I0403 14:20:14.424276 13169 net.cpp:148] Top shape: 24 128 14 14 (602112)
I0403 14:20:14.424296 13169 net.cpp:156] Memory required for data: 1256902176
I0403 14:20:14.424312 13169 layer_factory.hpp:77] Creating layer inception_4e/output
I0403 14:20:14.424329 13169 net.cpp:91] Creating Layer inception_4e/output
I0403 14:20:14.424345 13169 net.cpp:425] inception_4e/output <- inception_4e/1x1
I0403 14:20:14.424361 13169 net.cpp:425] inception_4e/output <- inception_4e/3x3
I0403 14:20:14.424378 13169 net.cpp:425] inception_4e/output <- inception_4e/5x5
I0403 14:20:14.424394 13169 net.cpp:425] inception_4e/output <- inception_4e/pool_proj
I0403 14:20:14.424410 13169 net.cpp:399] inception_4e/output -> inception_4e/output
I0403 14:20:14.424461 13169 net.cpp:141] Setting up inception_4e/output
I0403 14:20:14.424484 13169 net.cpp:148] Top shape: 24 832 14 14 (3913728)
I0403 14:20:14.424499 13169 net.cpp:156] Memory required for data: 1272557088
I0403 14:20:14.424513 13169 layer_factory.hpp:77] Creating layer pool4/3x3_s2
I0403 14:20:14.424530 13169 net.cpp:91] Creating Layer pool4/3x3_s2
I0403 14:20:14.424549 13169 net.cpp:425] pool4/3x3_s2 <- inception_4e/output
I0403 14:20:14.424566 13169 net.cpp:399] pool4/3x3_s2 -> pool4/3x3_s2
I0403 14:20:14.424649 13169 net.cpp:141] Setting up pool4/3x3_s2
I0403 14:20:14.424674 13169 net.cpp:148] Top shape: 24 832 7 7 (978432)
I0403 14:20:14.424687 13169 net.cpp:156] Memory required for data: 1276470816
I0403 14:20:14.424702 13169 layer_factory.hpp:77] Creating layer pool4/3x3_s2_pool4/3x3_s2_0_split
I0403 14:20:14.424721 13169 net.cpp:91] Creating Layer pool4/3x3_s2_pool4/3x3_s2_0_split
I0403 14:20:14.424736 13169 net.cpp:425] pool4/3x3_s2_pool4/3x3_s2_0_split <- pool4/3x3_s2
I0403 14:20:14.424754 13169 net.cpp:399] pool4/3x3_s2_pool4/3x3_s2_0_split -> pool4/3x3_s2_pool4/3x3_s2_0_split_0
I0403 14:20:14.424775 13169 net.cpp:399] pool4/3x3_s2_pool4/3x3_s2_0_split -> pool4/3x3_s2_pool4/3x3_s2_0_split_1
I0403 14:20:14.424795 13169 net.cpp:399] pool4/3x3_s2_pool4/3x3_s2_0_split -> pool4/3x3_s2_pool4/3x3_s2_0_split_2
I0403 14:20:14.424815 13169 net.cpp:399] pool4/3x3_s2_pool4/3x3_s2_0_split -> pool4/3x3_s2_pool4/3x3_s2_0_split_3
I0403 14:20:14.424906 13169 net.cpp:141] Setting up pool4/3x3_s2_pool4/3x3_s2_0_split
I0403 14:20:14.424928 13169 net.cpp:148] Top shape: 24 832 7 7 (978432)
I0403 14:20:14.424944 13169 net.cpp:148] Top shape: 24 832 7 7 (978432)
I0403 14:20:14.424959 13169 net.cpp:148] Top shape: 24 832 7 7 (978432)
I0403 14:20:14.424975 13169 net.cpp:148] Top shape: 24 832 7 7 (978432)
I0403 14:20:14.424988 13169 net.cpp:156] Memory required for data: 1292125728
I0403 14:20:14.425003 13169 layer_factory.hpp:77] Creating layer inception_5a/1x1
I0403 14:20:14.425026 13169 net.cpp:91] Creating Layer inception_5a/1x1
I0403 14:20:14.425045 13169 net.cpp:425] inception_5a/1x1 <- pool4/3x3_s2_pool4/3x3_s2_0_split_0
I0403 14:20:14.425063 13169 net.cpp:399] inception_5a/1x1 -> inception_5a/1x1
I0403 14:20:14.427927 13169 net.cpp:141] Setting up inception_5a/1x1
I0403 14:20:14.427958 13169 net.cpp:148] Top shape: 24 256 7 7 (301056)
I0403 14:20:14.427974 13169 net.cpp:156] Memory required for data: 1293329952
I0403 14:20:14.427992 13169 layer_factory.hpp:77] Creating layer inception_5a/relu_1x1
I0403 14:20:14.428010 13169 net.cpp:91] Creating Layer inception_5a/relu_1x1
I0403 14:20:14.428026 13169 net.cpp:425] inception_5a/relu_1x1 <- inception_5a/1x1
I0403 14:20:14.428045 13169 net.cpp:386] inception_5a/relu_1x1 -> inception_5a/1x1 (in-place)
I0403 14:20:14.428355 13169 net.cpp:141] Setting up inception_5a/relu_1x1
I0403 14:20:14.428383 13169 net.cpp:148] Top shape: 24 256 7 7 (301056)
I0403 14:20:14.428400 13169 net.cpp:156] Memory required for data: 1294534176
I0403 14:20:14.428414 13169 layer_factory.hpp:77] Creating layer inception_5a/3x3_reduce
I0403 14:20:14.428436 13169 net.cpp:91] Creating Layer inception_5a/3x3_reduce
I0403 14:20:14.428454 13169 net.cpp:425] inception_5a/3x3_reduce <- pool4/3x3_s2_pool4/3x3_s2_0_split_1
I0403 14:20:14.428473 13169 net.cpp:399] inception_5a/3x3_reduce -> inception_5a/3x3_reduce
I0403 14:20:14.430944 13169 net.cpp:141] Setting up inception_5a/3x3_reduce
I0403 14:20:14.430973 13169 net.cpp:148] Top shape: 24 160 7 7 (188160)
I0403 14:20:14.430989 13169 net.cpp:156] Memory required for data: 1295286816
I0403 14:20:14.431006 13169 layer_factory.hpp:77] Creating layer inception_5a/relu_3x3_reduce
I0403 14:20:14.431028 13169 net.cpp:91] Creating Layer inception_5a/relu_3x3_reduce
I0403 14:20:14.431046 13169 net.cpp:425] inception_5a/relu_3x3_reduce <- inception_5a/3x3_reduce
I0403 14:20:14.431063 13169 net.cpp:386] inception_5a/relu_3x3_reduce -> inception_5a/3x3_reduce (in-place)
I0403 14:20:14.431251 13169 net.cpp:141] Setting up inception_5a/relu_3x3_reduce
I0403 14:20:14.431277 13169 net.cpp:148] Top shape: 24 160 7 7 (188160)
I0403 14:20:14.431298 13169 net.cpp:156] Memory required for data: 1296039456
I0403 14:20:14.431313 13169 layer_factory.hpp:77] Creating layer inception_5a/3x3
I0403 14:20:14.431335 13169 net.cpp:91] Creating Layer inception_5a/3x3
I0403 14:20:14.431354 13169 net.cpp:425] inception_5a/3x3 <- inception_5a/3x3_reduce
I0403 14:20:14.431371 13169 net.cpp:399] inception_5a/3x3 -> inception_5a/3x3
I0403 14:20:14.436652 13169 net.cpp:141] Setting up inception_5a/3x3
I0403 14:20:14.436686 13169 net.cpp:148] Top shape: 24 320 7 7 (376320)
I0403 14:20:14.436702 13169 net.cpp:156] Memory required for data: 1297544736
I0403 14:20:14.436722 13169 layer_factory.hpp:77] Creating layer inception_5a/relu_3x3
I0403 14:20:14.436739 13169 net.cpp:91] Creating Layer inception_5a/relu_3x3
I0403 14:20:14.436756 13169 net.cpp:425] inception_5a/relu_3x3 <- inception_5a/3x3
I0403 14:20:14.436774 13169 net.cpp:386] inception_5a/relu_3x3 -> inception_5a/3x3 (in-place)
I0403 14:20:14.437082 13169 net.cpp:141] Setting up inception_5a/relu_3x3
I0403 14:20:14.437110 13169 net.cpp:148] Top shape: 24 320 7 7 (376320)
I0403 14:20:14.437127 13169 net.cpp:156] Memory required for data: 1299050016
I0403 14:20:14.437142 13169 layer_factory.hpp:77] Creating layer inception_5a/5x5_reduce
I0403 14:20:14.437165 13169 net.cpp:91] Creating Layer inception_5a/5x5_reduce
I0403 14:20:14.437183 13169 net.cpp:425] inception_5a/5x5_reduce <- pool4/3x3_s2_pool4/3x3_s2_0_split_2
I0403 14:20:14.437203 13169 net.cpp:399] inception_5a/5x5_reduce -> inception_5a/5x5_reduce
I0403 14:20:14.438418 13169 net.cpp:141] Setting up inception_5a/5x5_reduce
I0403 14:20:14.438449 13169 net.cpp:148] Top shape: 24 32 7 7 (37632)
I0403 14:20:14.438467 13169 net.cpp:156] Memory required for data: 1299200544
I0403 14:20:14.438485 13169 layer_factory.hpp:77] Creating layer inception_5a/relu_5x5_reduce
I0403 14:20:14.438504 13169 net.cpp:91] Creating Layer inception_5a/relu_5x5_reduce
I0403 14:20:14.438521 13169 net.cpp:425] inception_5a/relu_5x5_reduce <- inception_5a/5x5_reduce
I0403 14:20:14.438540 13169 net.cpp:386] inception_5a/relu_5x5_reduce -> inception_5a/5x5_reduce (in-place)
I0403 14:20:14.438851 13169 net.cpp:141] Setting up inception_5a/relu_5x5_reduce
I0403 14:20:14.438881 13169 net.cpp:148] Top shape: 24 32 7 7 (37632)
I0403 14:20:14.438897 13169 net.cpp:156] Memory required for data: 1299351072
I0403 14:20:14.438912 13169 layer_factory.hpp:77] Creating layer inception_5a/5x5
I0403 14:20:14.438937 13169 net.cpp:91] Creating Layer inception_5a/5x5
I0403 14:20:14.438956 13169 net.cpp:425] inception_5a/5x5 <- inception_5a/5x5_reduce
I0403 14:20:14.438977 13169 net.cpp:399] inception_5a/5x5 -> inception_5a/5x5
I0403 14:20:14.440779 13169 net.cpp:141] Setting up inception_5a/5x5
I0403 14:20:14.440822 13169 net.cpp:148] Top shape: 24 128 7 7 (150528)
I0403 14:20:14.440840 13169 net.cpp:156] Memory required for data: 1299953184
I0403 14:20:14.440857 13169 layer_factory.hpp:77] Creating layer inception_5a/relu_5x5
I0403 14:20:14.440876 13169 net.cpp:91] Creating Layer inception_5a/relu_5x5
I0403 14:20:14.440891 13169 net.cpp:425] inception_5a/relu_5x5 <- inception_5a/5x5
I0403 14:20:14.440908 13169 net.cpp:386] inception_5a/relu_5x5 -> inception_5a/5x5 (in-place)
I0403 14:20:14.441104 13169 net.cpp:141] Setting up inception_5a/relu_5x5
I0403 14:20:14.441129 13169 net.cpp:148] Top shape: 24 128 7 7 (150528)
I0403 14:20:14.441144 13169 net.cpp:156] Memory required for data: 1300555296
I0403 14:20:14.441159 13169 layer_factory.hpp:77] Creating layer inception_5a/pool
I0403 14:20:14.441175 13169 net.cpp:91] Creating Layer inception_5a/pool
I0403 14:20:14.441191 13169 net.cpp:425] inception_5a/pool <- pool4/3x3_s2_pool4/3x3_s2_0_split_3
I0403 14:20:14.441211 13169 net.cpp:399] inception_5a/pool -> inception_5a/pool
I0403 14:20:14.441282 13169 net.cpp:141] Setting up inception_5a/pool
I0403 14:20:14.441309 13169 net.cpp:148] Top shape: 24 832 7 7 (978432)
I0403 14:20:14.441324 13169 net.cpp:156] Memory required for data: 1304469024
I0403 14:20:14.441339 13169 layer_factory.hpp:77] Creating layer inception_5a/pool_proj
I0403 14:20:14.441359 13169 net.cpp:91] Creating Layer inception_5a/pool_proj
I0403 14:20:14.441377 13169 net.cpp:425] inception_5a/pool_proj <- inception_5a/pool
I0403 14:20:14.441395 13169 net.cpp:399] inception_5a/pool_proj -> inception_5a/pool_proj
I0403 14:20:14.443689 13169 net.cpp:141] Setting up inception_5a/pool_proj
I0403 14:20:14.443718 13169 net.cpp:148] Top shape: 24 128 7 7 (150528)
I0403 14:20:14.443733 13169 net.cpp:156] Memory required for data: 1305071136
I0403 14:20:14.443753 13169 layer_factory.hpp:77] Creating layer inception_5a/relu_pool_proj
I0403 14:20:14.443773 13169 net.cpp:91] Creating Layer inception_5a/relu_pool_proj
I0403 14:20:14.443789 13169 net.cpp:425] inception_5a/relu_pool_proj <- inception_5a/pool_proj
I0403 14:20:14.443806 13169 net.cpp:386] inception_5a/relu_pool_proj -> inception_5a/pool_proj (in-place)
I0403 14:20:14.444108 13169 net.cpp:141] Setting up inception_5a/relu_pool_proj
I0403 14:20:14.444133 13169 net.cpp:148] Top shape: 24 128 7 7 (150528)
I0403 14:20:14.444149 13169 net.cpp:156] Memory required for data: 1305673248
I0403 14:20:14.444164 13169 layer_factory.hpp:77] Creating layer inception_5a/output
I0403 14:20:14.444182 13169 net.cpp:91] Creating Layer inception_5a/output
I0403 14:20:14.444198 13169 net.cpp:425] inception_5a/output <- inception_5a/1x1
I0403 14:20:14.444214 13169 net.cpp:425] inception_5a/output <- inception_5a/3x3
I0403 14:20:14.444231 13169 net.cpp:425] inception_5a/output <- inception_5a/5x5
I0403 14:20:14.444247 13169 net.cpp:425] inception_5a/output <- inception_5a/pool_proj
I0403 14:20:14.444262 13169 net.cpp:399] inception_5a/output -> inception_5a/output
I0403 14:20:14.444315 13169 net.cpp:141] Setting up inception_5a/output
I0403 14:20:14.444339 13169 net.cpp:148] Top shape: 24 832 7 7 (978432)
I0403 14:20:14.444353 13169 net.cpp:156] Memory required for data: 1309586976
I0403 14:20:14.444367 13169 layer_factory.hpp:77] Creating layer inception_5a/output_inception_5a/output_0_split
I0403 14:20:14.444385 13169 net.cpp:91] Creating Layer inception_5a/output_inception_5a/output_0_split
I0403 14:20:14.444401 13169 net.cpp:425] inception_5a/output_inception_5a/output_0_split <- inception_5a/output
I0403 14:20:14.444419 13169 net.cpp:399] inception_5a/output_inception_5a/output_0_split -> inception_5a/output_inception_5a/output_0_split_0
I0403 14:20:14.444440 13169 net.cpp:399] inception_5a/output_inception_5a/output_0_split -> inception_5a/output_inception_5a/output_0_split_1
I0403 14:20:14.444461 13169 net.cpp:399] inception_5a/output_inception_5a/output_0_split -> inception_5a/output_inception_5a/output_0_split_2
I0403 14:20:14.444481 13169 net.cpp:399] inception_5a/output_inception_5a/output_0_split -> inception_5a/output_inception_5a/output_0_split_3
I0403 14:20:14.444594 13169 net.cpp:141] Setting up inception_5a/output_inception_5a/output_0_split
I0403 14:20:14.444629 13169 net.cpp:148] Top shape: 24 832 7 7 (978432)
I0403 14:20:14.444648 13169 net.cpp:148] Top shape: 24 832 7 7 (978432)
I0403 14:20:14.444663 13169 net.cpp:148] Top shape: 24 832 7 7 (978432)
I0403 14:20:14.444679 13169 net.cpp:148] Top shape: 24 832 7 7 (978432)
I0403 14:20:14.444691 13169 net.cpp:156] Memory required for data: 1325241888
I0403 14:20:14.444705 13169 layer_factory.hpp:77] Creating layer inception_5b/1x1
I0403 14:20:14.444727 13169 net.cpp:91] Creating Layer inception_5b/1x1
I0403 14:20:14.444746 13169 net.cpp:425] inception_5b/1x1 <- inception_5a/output_inception_5a/output_0_split_0
I0403 14:20:14.444766 13169 net.cpp:399] inception_5b/1x1 -> inception_5b/1x1
I0403 14:20:14.448540 13169 net.cpp:141] Setting up inception_5b/1x1
I0403 14:20:14.448572 13169 net.cpp:148] Top shape: 24 384 7 7 (451584)
I0403 14:20:14.448587 13169 net.cpp:156] Memory required for data: 1327048224
I0403 14:20:14.448611 13169 layer_factory.hpp:77] Creating layer inception_5b/relu_1x1
I0403 14:20:14.448632 13169 net.cpp:91] Creating Layer inception_5b/relu_1x1
I0403 14:20:14.448650 13169 net.cpp:425] inception_5b/relu_1x1 <- inception_5b/1x1
I0403 14:20:14.448668 13169 net.cpp:386] inception_5b/relu_1x1 -> inception_5b/1x1 (in-place)
I0403 14:20:14.448973 13169 net.cpp:141] Setting up inception_5b/relu_1x1
I0403 14:20:14.448999 13169 net.cpp:148] Top shape: 24 384 7 7 (451584)
I0403 14:20:14.449014 13169 net.cpp:156] Memory required for data: 1328854560
I0403 14:20:14.449028 13169 layer_factory.hpp:77] Creating layer inception_5b/3x3_reduce
I0403 14:20:14.449051 13169 net.cpp:91] Creating Layer inception_5b/3x3_reduce
I0403 14:20:14.449069 13169 net.cpp:425] inception_5b/3x3_reduce <- inception_5a/output_inception_5a/output_0_split_1
I0403 14:20:14.449090 13169 net.cpp:399] inception_5b/3x3_reduce -> inception_5b/3x3_reduce
I0403 14:20:14.451764 13169 net.cpp:141] Setting up inception_5b/3x3_reduce
I0403 14:20:14.451792 13169 net.cpp:148] Top shape: 24 192 7 7 (225792)
I0403 14:20:14.451808 13169 net.cpp:156] Memory required for data: 1329757728
I0403 14:20:14.451827 13169 layer_factory.hpp:77] Creating layer inception_5b/relu_3x3_reduce
I0403 14:20:14.451846 13169 net.cpp:91] Creating Layer inception_5b/relu_3x3_reduce
I0403 14:20:14.451863 13169 net.cpp:425] inception_5b/relu_3x3_reduce <- inception_5b/3x3_reduce
I0403 14:20:14.451879 13169 net.cpp:386] inception_5b/relu_3x3_reduce -> inception_5b/3x3_reduce (in-place)
I0403 14:20:14.452065 13169 net.cpp:141] Setting up inception_5b/relu_3x3_reduce
I0403 14:20:14.452091 13169 net.cpp:148] Top shape: 24 192 7 7 (225792)
I0403 14:20:14.452106 13169 net.cpp:156] Memory required for data: 1330660896
I0403 14:20:14.452121 13169 layer_factory.hpp:77] Creating layer inception_5b/3x3
I0403 14:20:14.452142 13169 net.cpp:91] Creating Layer inception_5b/3x3
I0403 14:20:14.452159 13169 net.cpp:425] inception_5b/3x3 <- inception_5b/3x3_reduce
I0403 14:20:14.452178 13169 net.cpp:399] inception_5b/3x3 -> inception_5b/3x3
I0403 14:20:14.458804 13169 net.cpp:141] Setting up inception_5b/3x3
I0403 14:20:14.458832 13169 net.cpp:148] Top shape: 24 384 7 7 (451584)
I0403 14:20:14.458848 13169 net.cpp:156] Memory required for data: 1332467232
I0403 14:20:14.458865 13169 layer_factory.hpp:77] Creating layer inception_5b/relu_3x3
I0403 14:20:14.458885 13169 net.cpp:91] Creating Layer inception_5b/relu_3x3
I0403 14:20:14.458902 13169 net.cpp:425] inception_5b/relu_3x3 <- inception_5b/3x3
I0403 14:20:14.458920 13169 net.cpp:386] inception_5b/relu_3x3 -> inception_5b/3x3 (in-place)
I0403 14:20:14.459210 13169 net.cpp:141] Setting up inception_5b/relu_3x3
I0403 14:20:14.459235 13169 net.cpp:148] Top shape: 24 384 7 7 (451584)
I0403 14:20:14.459250 13169 net.cpp:156] Memory required for data: 1334273568
I0403 14:20:14.459265 13169 layer_factory.hpp:77] Creating layer inception_5b/5x5_reduce
I0403 14:20:14.459309 13169 net.cpp:91] Creating Layer inception_5b/5x5_reduce
I0403 14:20:14.459328 13169 net.cpp:425] inception_5b/5x5_reduce <- inception_5a/output_inception_5a/output_0_split_2
I0403 14:20:14.459347 13169 net.cpp:399] inception_5b/5x5_reduce -> inception_5b/5x5_reduce
I0403 14:20:14.460593 13169 net.cpp:141] Setting up inception_5b/5x5_reduce
I0403 14:20:14.460623 13169 net.cpp:148] Top shape: 24 48 7 7 (56448)
I0403 14:20:14.460639 13169 net.cpp:156] Memory required for data: 1334499360
I0403 14:20:14.460656 13169 layer_factory.hpp:77] Creating layer inception_5b/relu_5x5_reduce
I0403 14:20:14.460677 13169 net.cpp:91] Creating Layer inception_5b/relu_5x5_reduce
I0403 14:20:14.460695 13169 net.cpp:425] inception_5b/relu_5x5_reduce <- inception_5b/5x5_reduce
I0403 14:20:14.460711 13169 net.cpp:386] inception_5b/relu_5x5_reduce -> inception_5b/5x5_reduce (in-place)
I0403 14:20:14.461079 13169 net.cpp:141] Setting up inception_5b/relu_5x5_reduce
I0403 14:20:14.461104 13169 net.cpp:148] Top shape: 24 48 7 7 (56448)
I0403 14:20:14.461119 13169 net.cpp:156] Memory required for data: 1334725152
I0403 14:20:14.461133 13169 layer_factory.hpp:77] Creating layer inception_5b/5x5
I0403 14:20:14.461153 13169 net.cpp:91] Creating Layer inception_5b/5x5
I0403 14:20:14.461171 13169 net.cpp:425] inception_5b/5x5 <- inception_5b/5x5_reduce
I0403 14:20:14.461189 13169 net.cpp:399] inception_5b/5x5 -> inception_5b/5x5
I0403 14:20:14.463191 13169 net.cpp:141] Setting up inception_5b/5x5
I0403 14:20:14.463220 13169 net.cpp:148] Top shape: 24 128 7 7 (150528)
I0403 14:20:14.463237 13169 net.cpp:156] Memory required for data: 1335327264
I0403 14:20:14.463254 13169 layer_factory.hpp:77] Creating layer inception_5b/relu_5x5
I0403 14:20:14.463273 13169 net.cpp:91] Creating Layer inception_5b/relu_5x5
I0403 14:20:14.463289 13169 net.cpp:425] inception_5b/relu_5x5 <- inception_5b/5x5
I0403 14:20:14.463307 13169 net.cpp:386] inception_5b/relu_5x5 -> inception_5b/5x5 (in-place)
I0403 14:20:14.463495 13169 net.cpp:141] Setting up inception_5b/relu_5x5
I0403 14:20:14.463520 13169 net.cpp:148] Top shape: 24 128 7 7 (150528)
I0403 14:20:14.463533 13169 net.cpp:156] Memory required for data: 1335929376
I0403 14:20:14.463547 13169 layer_factory.hpp:77] Creating layer inception_5b/pool
I0403 14:20:14.463565 13169 net.cpp:91] Creating Layer inception_5b/pool
I0403 14:20:14.463580 13169 net.cpp:425] inception_5b/pool <- inception_5a/output_inception_5a/output_0_split_3
I0403 14:20:14.463603 13169 net.cpp:399] inception_5b/pool -> inception_5b/pool
I0403 14:20:14.463676 13169 net.cpp:141] Setting up inception_5b/pool
I0403 14:20:14.463699 13169 net.cpp:148] Top shape: 24 832 7 7 (978432)
I0403 14:20:14.463713 13169 net.cpp:156] Memory required for data: 1339843104
I0403 14:20:14.463728 13169 layer_factory.hpp:77] Creating layer inception_5b/pool_proj
I0403 14:20:14.463750 13169 net.cpp:91] Creating Layer inception_5b/pool_proj
I0403 14:20:14.463768 13169 net.cpp:425] inception_5b/pool_proj <- inception_5b/pool
I0403 14:20:14.463786 13169 net.cpp:399] inception_5b/pool_proj -> inception_5b/pool_proj
I0403 14:20:14.466101 13169 net.cpp:141] Setting up inception_5b/pool_proj
I0403 14:20:14.466131 13169 net.cpp:148] Top shape: 24 128 7 7 (150528)
I0403 14:20:14.466148 13169 net.cpp:156] Memory required for data: 1340445216
I0403 14:20:14.466166 13169 layer_factory.hpp:77] Creating layer inception_5b/relu_pool_proj
I0403 14:20:14.466184 13169 net.cpp:91] Creating Layer inception_5b/relu_pool_proj
I0403 14:20:14.466199 13169 net.cpp:425] inception_5b/relu_pool_proj <- inception_5b/pool_proj
I0403 14:20:14.466217 13169 net.cpp:386] inception_5b/relu_pool_proj -> inception_5b/pool_proj (in-place)
I0403 14:20:14.466513 13169 net.cpp:141] Setting up inception_5b/relu_pool_proj
I0403 14:20:14.466542 13169 net.cpp:148] Top shape: 24 128 7 7 (150528)
I0403 14:20:14.466557 13169 net.cpp:156] Memory required for data: 1341047328
I0403 14:20:14.466572 13169 layer_factory.hpp:77] Creating layer inception_5b/output
I0403 14:20:14.466588 13169 net.cpp:91] Creating Layer inception_5b/output
I0403 14:20:14.466622 13169 net.cpp:425] inception_5b/output <- inception_5b/1x1
I0403 14:20:14.466640 13169 net.cpp:425] inception_5b/output <- inception_5b/3x3
I0403 14:20:14.466655 13169 net.cpp:425] inception_5b/output <- inception_5b/5x5
I0403 14:20:14.466671 13169 net.cpp:425] inception_5b/output <- inception_5b/pool_proj
I0403 14:20:14.466687 13169 net.cpp:399] inception_5b/output -> inception_5b/output
I0403 14:20:14.466738 13169 net.cpp:141] Setting up inception_5b/output
I0403 14:20:14.466761 13169 net.cpp:148] Top shape: 24 1024 7 7 (1204224)
I0403 14:20:14.466775 13169 net.cpp:156] Memory required for data: 1345864224
I0403 14:20:14.466789 13169 layer_factory.hpp:77] Creating layer pool5/7x7_s1
I0403 14:20:14.466809 13169 net.cpp:91] Creating Layer pool5/7x7_s1
I0403 14:20:14.466825 13169 net.cpp:425] pool5/7x7_s1 <- inception_5b/output
I0403 14:20:14.466842 13169 net.cpp:399] pool5/7x7_s1 -> pool5/7x7_s1
I0403 14:20:14.467052 13169 net.cpp:141] Setting up pool5/7x7_s1
I0403 14:20:14.467079 13169 net.cpp:148] Top shape: 24 1024 1 1 (24576)
I0403 14:20:14.467094 13169 net.cpp:156] Memory required for data: 1345962528
I0403 14:20:14.467108 13169 layer_factory.hpp:77] Creating layer pool5/drop_7x7_s1
I0403 14:20:14.467125 13169 net.cpp:91] Creating Layer pool5/drop_7x7_s1
I0403 14:20:14.467141 13169 net.cpp:425] pool5/drop_7x7_s1 <- pool5/7x7_s1
I0403 14:20:14.467157 13169 net.cpp:386] pool5/drop_7x7_s1 -> pool5/7x7_s1 (in-place)
I0403 14:20:14.467206 13169 net.cpp:141] Setting up pool5/drop_7x7_s1
I0403 14:20:14.467228 13169 net.cpp:148] Top shape: 24 1024 1 1 (24576)
I0403 14:20:14.467243 13169 net.cpp:156] Memory required for data: 1346060832
I0403 14:20:14.467257 13169 layer_factory.hpp:77] Creating layer loss3/classifier_plantvillage
I0403 14:20:14.467278 13169 net.cpp:91] Creating Layer loss3/classifier_plantvillage
I0403 14:20:14.467296 13169 net.cpp:425] loss3/classifier_plantvillage <- pool5/7x7_s1
I0403 14:20:14.467314 13169 net.cpp:399] loss3/classifier_plantvillage -> loss3/classifier_plantvillage
I0403 14:20:14.467741 13169 net.cpp:141] Setting up loss3/classifier_plantvillage
I0403 14:20:14.467766 13169 net.cpp:148] Top shape: 24 38 (912)
I0403 14:20:14.467780 13169 net.cpp:156] Memory required for data: 1346064480
I0403 14:20:14.467797 13169 layer_factory.hpp:77] Creating layer loss3/classifier_plantvillage_loss3/classifier_plantvillage_0_split
I0403 14:20:14.467815 13169 net.cpp:91] Creating Layer loss3/classifier_plantvillage_loss3/classifier_plantvillage_0_split
I0403 14:20:14.467830 13169 net.cpp:425] loss3/classifier_plantvillage_loss3/classifier_plantvillage_0_split <- loss3/classifier_plantvillage
I0403 14:20:14.467849 13169 net.cpp:399] loss3/classifier_plantvillage_loss3/classifier_plantvillage_0_split -> loss3/classifier_plantvillage_loss3/classifier_plantvillage_0_split_0
I0403 14:20:14.467870 13169 net.cpp:399] loss3/classifier_plantvillage_loss3/classifier_plantvillage_0_split -> loss3/classifier_plantvillage_loss3/classifier_plantvillage_0_split_1
I0403 14:20:14.467890 13169 net.cpp:399] loss3/classifier_plantvillage_loss3/classifier_plantvillage_0_split -> loss3/classifier_plantvillage_loss3/classifier_plantvillage_0_split_2
I0403 14:20:14.467908 13169 net.cpp:399] loss3/classifier_plantvillage_loss3/classifier_plantvillage_0_split -> loss3/classifier_plantvillage_loss3/classifier_plantvillage_0_split_3
I0403 14:20:14.468010 13169 net.cpp:141] Setting up loss3/classifier_plantvillage_loss3/classifier_plantvillage_0_split
I0403 14:20:14.468032 13169 net.cpp:148] Top shape: 24 38 (912)
I0403 14:20:14.468049 13169 net.cpp:148] Top shape: 24 38 (912)
I0403 14:20:14.468063 13169 net.cpp:148] Top shape: 24 38 (912)
I0403 14:20:14.468077 13169 net.cpp:148] Top shape: 24 38 (912)
I0403 14:20:14.468091 13169 net.cpp:156] Memory required for data: 1346079072
I0403 14:20:14.468104 13169 layer_factory.hpp:77] Creating layer loss1/loss
I0403 14:20:14.468124 13169 net.cpp:91] Creating Layer loss1/loss
I0403 14:20:14.468142 13169 net.cpp:425] loss1/loss <- loss1/classifier_plantvillage_loss1/classifier_plantvillage_0_split_0
I0403 14:20:14.468170 13169 net.cpp:425] loss1/loss <- label_data_1_split_0
…
