…
I0403 15:09:41.210947 14178 net.cpp:313] The NetState phase (1) differed from the phase (0) specified by a rule in layer data
I0403 15:09:41.212077 14178 net.cpp:49] Initializing net from parameters: 
state {
  phase: TEST
}
layer {
  name: "data"
  type: "Data"
  top: "data"
  top: "label"
  include {
    phase: TEST
  }
  transform_param {
    mirror: false
    crop_size: 224
    mean_file: "/home/mohanty/data/final_dataset/lmdb/color-40-60/mean.binaryproto"
  }
  data_param {
    source: "/home/mohanty/data/final_dataset/lmdb/color-40-60/test_db"
    batch_size: 24
    backend: LMDB
  }
}
layer {
  name: "conv1/7x7_s2"
  type: "Convolution"
  bottom: "data"
  top: "conv1/7x7_s2"
  param {
    lr_mult: 1
    decay_mult: 1
  }
  param {
    lr_mult: 2
    decay_mult: 0
  }
  convolution_param {
    num_output: 64
    pad: 3
    kernel_size: 7
    stride: 2
    weight_filler {
      type: "xavier"
      std: 0.1
    }
    bias_filler {
      type: "constant"
      value: 0.2
    }
  }
}
layer {
  name: "conv1/relu_7x7"
  type: "ReLU"
  bottom: "conv1/7x7_s2"
  top: "conv1/7x7_s2"
}
layer {
  name: "pool1/3x3_s2"
  type: "Pooling"
  bottom: "conv1/7x7_s2"
  top: "pool1/3x3_s2"
  pooling_param {
    pool: MAX
    kernel_size: 3
    stride: 2
  }
}
layer {
  name: "pool1/norm1"
  type: "LRN"
  bottom: "pool1/3x3_s2"
  top: "pool1/norm1"
  lrn_param {
    local_size: 5
    alpha: 0.0001
    beta: 0.75
  }
}
layer {
  name: "conv2/3x3_reduce"
  type: "Convolution"
  bottom: "pool1/norm1"
  top: "conv2/3x3_reduce"
  param {
    lr_mult: 1
    decay_mult: 1
  }
  param {
    lr_mult: 2
    decay_mult: 0
  }
  convolution_param {
    num_output: 64
    kernel_size: 1
    weight_filler {
      type: "xavier"
      std: 0.1
    }
    bias_filler {
      type: "constant"
      value: 0.2
    }
  }
}
layer {
  name: "conv2/relu_3x3_reduce"
  type: "ReLU"
  bottom: "conv2/3x3_reduce"
  top: "conv2/3x3_reduce"
}
layer {
  name: "conv2/3x3"
  type: "Convolution"
  bottom: "conv2/3x3_reduce"
  top: "conv2/3x3"
  param {
    lr_mult: 1
    decay_mult: 1
  }
  param {
    lr_mult: 2
    decay_mult: 0
  }
  convolution_param {
    num_output: 192
    pad: 1
    kernel_size: 3
    weight_filler {
      type: "xavier"
      std: 0.03
    }
    bias_filler {
      type: "constant"
      value: 0.2
    }
  }
}
layer {
  name: "conv2/relu_3x3"
  type: "ReLU"
  bottom: "conv2/3x3"
  top: "conv2/3x3"
}
layer {
  name: "conv2/norm2"
  type: "LRN"
  bottom: "conv2/3x3"
  top: "conv2/norm2"
  lrn_param {
    local_size: 5
    alpha: 0.0001
    beta: 0.75
  }
}
layer {
  name: "pool2/3x3_s2"
  type: "Pooling"
  bottom: "conv2/norm2"
  top: "pool2/3x3_s2"
  pooling_param {
    pool: MAX
    kernel_size: 3
    stride: 2
  }
}
layer {
  name: "inception_3a/1x1"
  type: "Convolution"
  bottom: "pool2/3x3_s2"
  top: "inception_3a/1x1"
  param {
    lr_mult: 1
    decay_mult: 1
  }
  param {
    lr_mult: 2
    decay_mult: 0
  }
  convolution_param {
    num_output: 64
    kernel_size: 1
    weight_filler {
      type: "xavier"
      std: 0.03
    }
    bias_filler {
      type: "constant"
      value: 0.2
    }
  }
}
layer {
  name: "inception_3a/relu_1x1"
  type: "ReLU"
  bottom: "inception_3a/1x1"
  top: "inception_3a/1x1"
}
layer {
  name: "inception_3a/3x3_reduce"
  type: "Convolution"
  bottom: "pool2/3x3_s2"
  top: "inception_3a/3x3_reduce"
  param {
    lr_mult: 1
    decay_mult: 1
  }
  param {
    lr_mult: 2
    decay_mult: 0
  }
  convolution_param {
    num_output: 96
    kernel_size: 1
    weight_filler {
      type: "xavier"
      std: 0.09
    }
    bias_filler {
      type: "constant"
      value: 0.2
    }
  }
}
layer {
  name: "inception_3a/relu_3x3_reduce"
  type: "ReLU"
  bottom: "inception_3a/3x3_reduce"
  top: "inception_3a/3x3_reduce"
}
layer {
  name: "inception_3a/3x3"
  type: "Convolution"
  bottom: "inception_3a/3x3_reduce"
  top: "inception_3a/3x3"
  param {
    lr_mult: 1
    decay_mult: 1
  }
  param {
    lr_mult: 2
    decay_mult: 0
  }
  convolution_param {
    num_output: 128
    pad: 1
    kernel_size: 3
    weight_filler {
      type: "xavier"
      std: 0.03
    }
    bias_filler {
      type: "constant"
      value: 0.2
    }
  }
}
layer {
  name: "inception_3a/relu_3x3"
  type: "ReLU"
  bottom: "inception_3a/3x3"
  top: "inception_3a/3x3"
}
layer {
  name: "inception_3a/5x5_reduce"
  type: "Convolution"
  bottom: "pool2/3x3_s2"
  top: "inception_3a/5x5_reduce"
  param {
    lr_mult: 1
    decay_mult: 1
  }
  param {
    lr_mult: 2
    decay_mult: 0
  }
  convolution_param {
    num_output: 16
    kernel_size: 1
    weight_filler {
      type: "xavier"
      std: 0.2
    }
    bias_filler {
      type: "constant"
      value: 0.2
    }
  }
}
layer {
  name: "inception_3a/relu_5x5_reduce"
  type: "ReLU"
  bottom: "inception_3a/5x5_reduce"
  top: "inception_3a/5x5_reduce"
}
layer {
  name: "inception_3a/5x5"
  type: "Convolution"
  bottom: "inception_3a/5x5_reduce"
  top: "inception_3a/5x5"
  param {
    lr_mult: 1
    decay_mult: 1
  }
  param {
    lr_mult: 2
    decay_mult: 0
  }
  convolution_param {
    num_output: 32
    pad: 2
    kernel_size: 5
    weight_filler {
      type: "xavier"
      std: 0.03
    }
    bias_filler {
      type: "constant"
      value: 0.2
    }
  }
}
layer {
  name: "inception_3a/relu_5x5"
  type: "ReLU"
  bottom: "inception_3a/5x5"
  top: "inception_3a/5x5"
}
layer {
  name: "inception_3a/pool"
  type: "Pooling"
  bottom: "pool2/3x3_s2"
  top: "inception_3a/pool"
  pooling_param {
    pool: MAX
    kernel_size: 3
    stride: 1
    pad: 1
  }
}
layer {
  name: "inception_3a/pool_proj"
  type: "Convolution"
  bottom: "inception_3a/pool"
  top: "inception_3a/pool_proj"
  param {
    lr_mult: 1
    decay_mult: 1
  }
  param {
    lr_mult: 2
    decay_mult: 0
  }
  convolution_param {
    num_output: 32
    kernel_size: 1
    weight_filler {
      type: "xavier"
      std: 0.1
    }
    bias_filler {
      type: "constant"
      value: 0.2
    }
  }
}
layer {
  name: "inception_3a/relu_pool_proj"
  type: "ReLU"
  bottom: "inception_3a/pool_proj"
  top: "inception_3a/pool_proj"
}
layer {
  name: "inception_3a/output"
  type: "Concat"
  bottom: "inception_3a/1x1"
  bottom: "inception_3a/3x3"
  bottom: "inception_3a/5x5"
  bottom: "inception_3a/pool_proj"
  top: "inception_3a/output"
}
layer {
  name: "inception_3b/1x1"
  type: "Convolution"
  bottom: "inception_3a/output"
  top: "inception_3b/1x1"
  param {
    lr_mult: 1
    decay_mult: 1
  }
  param {
    lr_mult: 2
    decay_mult: 0
  }
  convolution_param {
    num_output: 128
    kernel_size: 1
    weight_filler {
      type: "xavier"
      std: 0.03
    }
    bias_filler {
      type: "constant"
      value: 0.2
    }
  }
}
layer {
  name: "inception_3b/relu_1x1"
  type: "ReLU"
  bottom: "inception_3b/1x1"
  top: "inception_3b/1x1"
}
layer {
  name: "inception_3b/3x3_reduce"
  type: "Convolution"
  bottom: "inception_3a/output"
  top: "inception_3b/3x3_reduce"
  param {
    lr_mult: 1
    decay_mult: 1
  }
  param {
    lr_mult: 2
    decay_mult: 0
  }
  convolution_param {
    num_output: 128
    kernel_size: 1
    weight_filler {
      type: "xavier"
      std: 0.09
    }
    bias_filler {
      type: "constant"
      value: 0.2
    }
  }
}
layer {
  name: "inception_3b/relu_3x3_reduce"
  type: "ReLU"
  bottom: "inception_3b/3x3_reduce"
  top: "inception_3b/3x3_reduce"
}
layer {
  name: "inception_3b/3x3"
  type: "Convolution"
  bottom: "inception_3b/3x3_reduce"
  top: "inception_3b/3x3"
  param {
    lr_mult: 1
    decay_mult: 1
  }
  param {
    lr_mult: 2
    decay_mult: 0
  }
  convolution_param {
    num_output: 192
    pad: 1
    kernel_size: 3
    weight_filler {
      type: "xavier"
      std: 0.03
    }
    bias_filler {
      type: "constant"
      value: 0.2
    }
  }
}
layer {
  name: "inception_3b/relu_3x3"
  type: "ReLU"
  bottom: "inception_3b/3x3"
  top: "inception_3b/3x3"
}
layer {
  name: "inception_3b/5x5_reduce"
  type: "Convolution"
  bottom: "inception_3a/output"
  top: "inception_3b/5x5_reduce"
  param {
    lr_mult: 1
    decay_mult: 1
  }
  param {
    lr_mult: 2
    decay_mult: 0
  }
  convolution_param {
    num_output: 32
    kernel_size: 1
    weight_filler {
      type: "xavier"
      std: 0.2
    }
    bias_filler {
      type: "constant"
      value: 0.2
    }
  }
}
layer {
  name: "inception_3b/relu_5x5_reduce"
  type: "ReLU"
  bottom: "inception_3b/5x5_reduce"
  top: "inception_3b/5x5_reduce"
}
layer {
  name: "inception_3b/5x5"
  type: "Convolution"
  bottom: "inception_3b/5x5_reduce"
  top: "inception_3b/5x5"
  param {
    lr_mult: 1
    decay_mult: 1
  }
  param {
    lr_mult: 2
    decay_mult: 0
  }
  convolution_param {
    num_output: 96
    pad: 2
    kernel_size: 5
    weight_filler {
      type: "xavier"
      std: 0.03
    }
    bias_filler {
      type: "constant"
      value: 0.2
    }
  }
}
layer {
  name: "inception_3b/relu_5x5"
  type: "ReLU"
  bottom: "inception_3b/5x5"
  top: "inception_3b/5x5"
}
layer {
  name: "inception_3b/pool"
  type: "Pooling"
  bottom: "inception_3a/output"
  top: "inception_3b/pool"
  pooling_param {
    pool: MAX
    kernel_size: 3
    stride: 1
    pad: 1
  }
}
layer {
  name: "inception_3b/pool_proj"
  type: "Convolution"
  bottom: "inception_3b/pool"
  top: "inception_3b/pool_proj"
  param {
    lr_mult: 1
    decay_mult: 1
  }
  param {
    lr_mult: 2
    decay_mult: 0
  }
  convolution_param {
    num_output: 64
    kernel_size: 1
    weight_filler {
      type: "xavier"
      std: 0.1
    }
    bias_filler {
      type: "constant"
      value: 0.2
    }
  }
}
layer {
  name: "inception_3b/relu_pool_proj"
  type: "ReLU"
  bottom: "inception_3b/pool_proj"
  top: "inception_3b/pool_proj"
}
layer {
  name: "inception_3b/output"
  type: "Concat"
  bottom: "inception_3b/1x1"
  bottom: "inception_3b/3x3"
  bottom: "inception_3b/5x5"
  bottom: "inception_3b/pool_proj"
  top: "inception_3b/output"
}
layer {
  name: "pool3/3x3_s2"
  type: "Pooling"
  bottom: "inception_3b/output"
  top: "pool3/3x3_s2"
  pooling_param {
    pool: MAX
    kernel_size: 3
    stride: 2
  }
}
layer {
  name: "inception_4a/1x1"
  type: "Convolution"
  bottom: "pool3/3x3_s2"
  top: "inception_4a/1x1"
  param {
    lr_mult: 1
    decay_mult: 1
  }
  param {
    lr_mult: 2
    decay_mult: 0
  }
  convolution_param {
    num_output: 192
    kernel_size: 1
    weight_filler {
      type: "xavier"
      std: 0.03
    }
    bias_filler {
      type: "constant"
      value: 0.2
    }
  }
}
layer {
  name: "inception_4a/relu_1x1"
  type: "ReLU"
  bottom: "inception_4a/1x1"
  top: "inception_4a/1x1"
}
layer {
  name: "inception_4a/3x3_reduce"
  type: "Convolution"
  bottom: "pool3/3x3_s2"
  top: "inception_4a/3x3_reduce"
  param {
    lr_mult: 1
    decay_mult: 1
  }
  param {
    lr_mult: 2
    decay_mult: 0
  }
  convolution_param {
    num_output: 96
    kernel_size: 1
    weight_filler {
      type: "xavier"
      std: 0.09
    }
    bias_filler {
      type: "constant"
      value: 0.2
    }
  }
}
layer {
  name: "inception_4a/relu_3x3_reduce"
  type: "ReLU"
  bottom: "inception_4a/3x3_reduce"
  top: "inception_4a/3x3_reduce"
}
layer {
  name: "inception_4a/3x3"
  type: "Convolution"
  bottom: "inception_4a/3x3_reduce"
  top: "inception_4a/3x3"
  param {
    lr_mult: 1
    decay_mult: 1
  }
  param {
    lr_mult: 2
    decay_mult: 0
  }
  convolution_param {
    num_output: 208
    pad: 1
    kernel_size: 3
    weight_filler {
      type: "xavier"
      std: 0.03
    }
    bias_filler {
      type: "constant"
      value: 0.2
    }
  }
}
layer {
  name: "inception_4a/relu_3x3"
  type: "ReLU"
  bottom: "inception_4a/3x3"
  top: "inception_4a/3x3"
}
layer {
  name: "inception_4a/5x5_reduce"
  type: "Convolution"
  bottom: "pool3/3x3_s2"
  top: "inception_4a/5x5_reduce"
  param {
    lr_mult: 1
    decay_mult: 1
  }
  param {
    lr_mult: 2
    decay_mult: 0
  }
  convolution_param {
    num_output: 16
    kernel_size: 1
    weight_filler {
      type: "xavier"
      std: 0.2
    }
    bias_filler {
      type: "constant"
      value: 0.2
    }
  }
}
layer {
  name: "inception_4a/relu_5x5_reduce"
  type: "ReLU"
  bottom: "inception_4a/5x5_reduce"
  top: "inception_4a/5x5_reduce"
}
layer {
  name: "inception_4a/5x5"
  type: "Convolution"
  bottom: "inception_4a/5x5_reduce"
  top: "inception_4a/5x5"
  param {
    lr_mult: 1
    decay_mult: 1
  }
  param {
    lr_mult: 2
    decay_mult: 0
  }
  convolution_param {
    num_output: 48
    pad: 2
    kernel_size: 5
    weight_filler {
      type: "xavier"
      std: 0.03
    }
    bias_filler {
      type: "constant"
      value: 0.2
    }
  }
}
layer {
  name: "inception_4a/relu_5x5"
  type: "ReLU"
  bottom: "inception_4a/5x5"
  top: "inception_4a/5x5"
}
layer {
  name: "inception_4a/pool"
  type: "Pooling"
  bottom: "pool3/3x3_s2"
  top: "inception_4a/pool"
  pooling_param {
    pool: MAX
    kernel_size: 3
    stride: 1
    pad: 1
  }
}
layer {
  name: "inception_4a/pool_proj"
  type: "Convolution"
  bottom: "inception_4a/pool"
  top: "inception_4a/pool_proj"
  param {
    lr_mult: 1
    decay_mult: 1
  }
  param {
    lr_mult: 2
    decay_mult: 0
  }
  convolution_param {
    num_output: 64
    kernel_size: 1
    weight_filler {
      type: "xavier"
      std: 0.1
    }
    bias_filler {
      type: "constant"
      value: 0.2
    }
  }
}
layer {
  name: "inception_4a/relu_pool_proj"
  type: "ReLU"
  bottom: "inception_4a/pool_proj"
  top: "inception_4a/pool_proj"
}
layer {
  name: "inception_4a/output"
  type: "Concat"
  bottom: "inception_4a/1x1"
  bottom: "inception_4a/3x3"
  bottom: "inception_4a/5x5"
  bottom: "inception_4a/pool_proj"
  top: "inception_4a/output"
}
layer {
  name: "loss1/ave_pool"
  type: "Pooling"
  bottom: "inception_4a/output"
  top: "loss1/ave_pool"
  pooling_param {
    pool: AVE
    kernel_size: 5
    stride: 3
  }
}
layer {
  name: "loss1/conv"
  type: "Convolution"
  bottom: "loss1/ave_pool"
  top: "loss1/conv"
  param {
    lr_mult: 1
    decay_mult: 1
  }
  param {
    lr_mult: 2
    decay_mult: 0
  }
  convolution_param {
    num_output: 128
    kernel_size: 1
    weight_filler {
      type: "xavier"
      std: 0.08
    }
    bias_filler {
      type: "constant"
      value: 0.2
    }
  }
}
layer {
  name: "loss1/relu_conv"
  type: "ReLU"
  bottom: "loss1/conv"
  top: "loss1/conv"
}
layer {
  name: "loss1/fc"
  type: "InnerProduct"
  bottom: "loss1/conv"
  top: "loss1/fc"
  param {
    lr_mult: 1
    decay_mult: 1
  }
  param {
    lr_mult: 2
    decay_mult: 0
  }
  inner_product_param {
    num_output: 1024
    weight_filler {
      type: "xavier"
      std: 0.02
    }
    bias_filler {
      type: "constant"
      value: 0.2
    }
  }
}
layer {
  name: "loss1/relu_fc"
  type: "ReLU"
  bottom: "loss1/fc"
  top: "loss1/fc"
}
layer {
  name: "loss1/drop_fc"
  type: "Dropout"
  bottom: "loss1/fc"
  top: "loss1/fc"
  dropout_param {
    dropout_ratio: 0.7
  }
}
layer {
  name: "loss1/classifier_plantvillage"
  type: "InnerProduct"
  bottom: "loss1/fc"
  top: "loss1/classifier_plantvillage"
  param {
    lr_mult: 1
    decay_mult: 1
  }
  param {
    lr_mult: 2
    decay_mult: 0
  }
  inner_product_param {
    num_output: 38
    weight_filler {
      type: "xavier"
      std: 0.0009765625
    }
    bias_filler {
      type: "constant"
      value: 0
    }
  }
}
layer {
  name: "inception_4b/1x1"
  type: "Convolution"
  bottom: "inception_4a/output"
  top: "inception_4b/1x1"
  param {
    lr_mult: 1
    decay_mult: 1
  }
  param {
    lr_mult: 2
    decay_mult: 0
  }
  convolution_param {
    num_output: 160
    kernel_size: 1
    weight_filler {
      type: "xavier"
      std: 0.03
    }
    bias_filler {
      type: "constant"
      value: 0.2
    }
  }
}
layer {
  name: "inception_4b/relu_1x1"
  type: "ReLU"
  bottom: "inception_4b/1x1"
  top: "inception_4b/1x1"
}
layer {
  name: "inception_4b/3x3_reduce"
  type: "Convolution"
  bottom: "inception_4a/output"
  top: "inception_4b/3x3_reduce"
  param {
    lr_mult: 1
    decay_mult: 1
  }
  param {
    lr_mult: 2
    decay_mult: 0
  }
  convolution_param {
    num_output: 112
    kernel_size: 1
    weight_filler {
      type: "xavier"
      std: 0.09
    }
    bias_filler {
      type: "constant"
      value: 0.2
    }
  }
}
layer {
  name: "inception_4b/relu_3x3_reduce"
  type: "ReLU"
  bottom: "inception_4b/3x3_reduce"
  top: "inception_4b/3x3_reduce"
}
layer {
  name: "inception_4b/3x3"
  type: "Convolution"
  bottom: "inception_4b/3x3_reduce"
  top: "inception_4b/3x3"
  param {
    lr_mult: 1
    decay_mult: 1
  }
  param {
    lr_mult: 2
    decay_mult: 0
  }
  convolution_param {
    num_output: 224
    pad: 1
    kernel_size: 3
    weight_filler {
      type: "xavier"
      std: 0.03
    }
    bias_filler {
      type: "constant"
      value: 0.2
    }
  }
}
layer {
  name: "inception_4b/relu_3x3"
  type: "ReLU"
  bottom: "inception_4b/3x3"
  top: "inception_4b/3x3"
}
layer {
  name: "inception_4b/5x5_reduce"
  type: "Convolution"
  bottom: "inception_4a/output"
  top: "inception_4b/5x5_reduce"
  param {
    lr_mult: 1
    decay_mult: 1
  }
  param {
    lr_mult: 2
    decay_mult: 0
  }
  convolution_param {
    num_output: 24
    kernel_size: 1
    weight_filler {
      type: "xavier"
      std: 0.2
    }
    bias_filler {
      type: "constant"
      value: 0.2
    }
  }
}
layer {
  name: "inception_4b/relu_5x5_reduce"
  type: "ReLU"
  bottom: "inception_4b/5x5_reduce"
  top: "inception_4b/5x5_reduce"
}
layer {
  name: "inception_4b/5x5"
  type: "Convolution"
  bottom: "inception_4b/5x5_reduce"
  top: "inception_4b/5x5"
  param {
    lr_mult: 1
    decay_mult: 1
  }
  param {
    lr_mult: 2
    decay_mult: 0
  }
  convolution_param {
    num_output: 64
    pad: 2
    kernel_size: 5
    weight_filler {
      type: "xavier"
      std: 0.03
    }
    bias_filler {
      type: "constant"
      value: 0.2
    }
  }
}
layer {
  name: "inception_4b/relu_5x5"
  type: "ReLU"
  bottom: "inception_4b/5x5"
  top: "inception_4b/5x5"
}
layer {
  name: "inception_4b/pool"
  type: "Pooling"
  bottom: "inception_4a/output"
  top: "inception_4b/pool"
  pooling_param {
    pool: MAX
    kernel_size: 3
    stride: 1
    pad: 1
  }
}
layer {
  name: "inception_4b/pool_proj"
  type: "Convolution"
  bottom: "inception_4b/pool"
  top: "inception_4b/pool_proj"
  param {
    lr_mult: 1
    decay_mult: 1
  }
  param {
    lr_mult: 2
    decay_mult: 0
  }
  convolution_param {
    num_output: 64
    kernel_size: 1
    weight_filler {
      type: "xavier"
      std: 0.1
    }
    bias_filler {
      type: "constant"
      value: 0.2
    }
  }
}
layer {
  name: "inception_4b/relu_pool_proj"
  type: "ReLU"
  bottom: "inception_4b/pool_proj"
  top: "inception_4b/pool_proj"
}
layer {
  name: "inception_4b/output"
  type: "Concat"
  bottom: "inception_4b/1x1"
  bottom: "inception_4b/3x3"
  bottom: "inception_4b/5x5"
  bottom: "inception_4b/pool_proj"
  top: "inception_4b/output"
}
layer {
  name: "inception_4c/1x1"
  type: "Convolution"
  bottom: "inception_4b/output"
  top: "inception_4c/1x1"
  param {
    lr_mult: 1
    decay_mult: 1
  }
  param {
    lr_mult: 2
    decay_mult: 0
  }
  convolution_param {
    num_output: 128
    kernel_size: 1
    weight_filler {
      type: "xavier"
      std: 0.03
    }
    bias_filler {
      type: "constant"
      value: 0.2
    }
  }
}
layer {
  name: "inception_4c/relu_1x1"
  type: "ReLU"
  bottom: "inception_4c/1x1"
  top: "inception_4c/1x1"
}
layer {
  name: "inception_4c/3x3_reduce"
  type: "Convolution"
  bottom: "inception_4b/output"
  top: "inception_4c/3x3_reduce"
  param {
    lr_mult: 1
    decay_mult: 1
  }
  param {
    lr_mult: 2
    decay_mult: 0
  }
  convolution_param {
    num_output: 128
    kernel_size: 1
    weight_filler {
      type: "xavier"
      std: 0.09
    }
    bias_filler {
      type: "constant"
      value: 0.2
    }
  }
}
layer {
  name: "inception_4c/relu_3x3_reduce"
  type: "ReLU"
  bottom: "inception_4c/3x3_reduce"
  top: "inception_4c/3x3_reduce"
}
layer {
  name: "inception_4c/3x3"
  type: "Convolution"
  bottom: "inception_4c/3x3_reduce"
  top: "inception_4c/3x3"
  param {
    lr_mult: 1
    decay_mult: 1
  }
  param {
    lr_mult: 2
    decay_mult: 0
  }
  convolution_param {
    num_output: 256
    pad: 1
    kernel_size: 3
    weight_filler {
      type: "xavier"
      std: 0.03
    }
    bias_filler {
      type: "constant"
      value: 0.2
    }
  }
}
layer {
  name: "inception_4c/relu_3x3"
  type: "ReLU"
  bottom: "inception_4c/3x3"
  top: "inception_4c/3x3"
}
layer {
  name: "inception_4c/5x5_reduce"
  type: "Convolution"
  bottom: "inception_4b/output"
  top: "inception_4c/5x5_reduce"
  param {
    lr_mult: 1
    decay_mult: 1
  }
  param {
    lr_mult: 2
    decay_mult: 0
  }
  convolution_param {
    num_output: 24
    kernel_size: 1
    weight_filler {
      type: "xavier"
      std: 0.2
    }
    bias_filler {
      type: "constant"
      value: 0.2
    }
  }
}
layer {
  name: "inception_4c/relu_5x5_reduce"
  type: "ReLU"
  bottom: "inception_4c/5x5_reduce"
  top: "inception_4c/5x5_reduce"
}
layer {
  name: "inception_4c/5x5"
  type: "Convolution"
  bottom: "inception_4c/5x5_reduce"
  top: "inception_4c/5x5"
  param {
    lr_mult: 1
    decay_mult: 1
  }
  param {
    lr_mult: 2
    decay_mult: 0
  }
  convolution_param {
    num_output: 64
    pad: 2
    kernel_size: 5
    weight_filler {
      type: "xavier"
      std: 0.03
    }
    bias_filler {
      type: "constant"
      value: 0.2
    }
  }
}
layer {
  name: "inception_4c/relu_5x5"
  type: "ReLU"
  bottom: "inception_4c/5x5"
  top: "inception_4c/5x5"
}
layer {
  name: "inception_4c/pool"
  type: "Pooling"
  bottom: "inception_4b/output"
  top: "inception_4c/pool"
  pooling_param {
    pool: MAX
    kernel_size: 3
    stride: 1
    pad: 1
  }
}
layer {
  name: "inception_4c/pool_proj"
  type: "Convolution"
  bottom: "inception_4c/pool"
  top: "inception_4c/pool_proj"
  param {
    lr_mult: 1
    decay_mult: 1
  }
  param {
    lr_mult: 2
    decay_mult: 0
  }
  convolution_param {
    num_output: 64
    kernel_size: 1
    weight_filler {
      type: "xavier"
      std: 0.1
    }
    bias_filler {
      type: "constant"
      value: 0.2
    }
  }
}
layer {
  name: "inception_4c/relu_pool_proj"
  type: "ReLU"
  bottom: "inception_4c/pool_proj"
  top: "inception_4c/pool_proj"
}
layer {
  name: "inception_4c/output"
  type: "Concat"
  bottom: "inception_4c/1x1"
  bottom: "inception_4c/3x3"
  bottom: "inception_4c/5x5"
  bottom: "inception_4c/pool_proj"
  top: "inception_4c/output"
}
layer {
  name: "inception_4d/1x1"
  type: "Convolution"
  bottom: "inception_4c/output"
  top: "inception_4d/1x1"
  param {
    lr_mult: 1
    decay_mult: 1
  }
  param {
    lr_mult: 2
    decay_mult: 0
  }
  convolution_param {
    num_output: 112
    kernel_size: 1
    weight_filler {
      type: "xavier"
      std: 0.03
    }
    bias_filler {
      type: "constant"
      value: 0.2
    }
  }
}
layer {
  name: "inception_4d/relu_1x1"
  type: "ReLU"
  bottom: "inception_4d/1x1"
  top: "inception_4d/1x1"
}
layer {
  name: "inception_4d/3x3_reduce"
  type: "Convolution"
  bottom: "inception_4c/output"
  top: "inception_4d/3x3_reduce"
  param {
    lr_mult: 1
    decay_mult: 1
  }
  param {
    lr_mult: 2
    decay_mult: 0
  }
  convolution_param {
    num_output: 144
    kernel_size: 1
    weight_filler {
      type: "xavier"
      std: 0.09
    }
    bias_filler {
      type: "constant"
      value: 0.2
    }
  }
}
layer {
  name: "inception_4d/relu_3x3_reduce"
  type: "ReLU"
  bottom: "inception_4d/3x3_reduce"
  top: "inception_4d/3x3_reduce"
}
layer {
  name: "inception_4d/3x3"
  type: "Convolution"
  bottom: "inception_4d/3x3_reduce"
  top: "inception_4d/3x3"
  param {
    lr_mult: 1
    decay_mult: 1
  }
  param {
    lr_mult: 2
    decay_mult: 0
  }
  convolution_param {
    num_output: 288
    pad: 1
    kernel_size: 3
    weight_filler {
      type: "xavier"
      std: 0.03
    }
    bias_filler {
      type: "constant"
      value: 0.2
    }
  }
}
layer {
  name: "inception_4d/relu_3x3"
  type: "ReLU"
  bottom: "inception_4d/3x3"
  top: "inception_4d/3x3"
}
layer {
  name: "inception_4d/5x5_reduce"
  type: "Convolution"
  bottom: "inception_4c/output"
  top: "inception_4d/5x5_reduce"
  param {
    lr_mult: 1
    decay_mult: 1
  }
  param {
    lr_mult: 2
    decay_mult: 0
  }
  convolution_param {
    num_output: 32
    kernel_size: 1
    weight_filler {
      type: "xavier"
      std: 0.2
    }
    bias_filler {
      type: "constant"
      value: 0.2
    }
  }
}
layer {
  name: "inception_4d/relu_5x5_reduce"
  type: "ReLU"
  bottom: "inception_4d/5x5_reduce"
  top: "inception_4d/5x5_reduce"
}
layer {
  name: "inception_4d/5x5"
  type: "Convolution"
  bottom: "inception_4d/5x5_reduce"
  top: "inception_4d/5x5"
  param {
    lr_mult: 1
    decay_mult: 1
  }
  param {
    lr_mult: 2
    decay_mult: 0
  }
  convolution_param {
    num_output: 64
    pad: 2
    kernel_size: 5
    weight_filler {
      type: "xavier"
      std: 0.03
    }
    bias_filler {
      type: "constant"
      value: 0.2
    }
  }
}
layer {
  name: "inception_4d/relu_5x5"
  type: "ReLU"
  bottom: "inception_4d/5x5"
  top: "inception_4d/5x5"
}
layer {
  name: "inception_4d/pool"
  type: "Pooling"
  bottom: "inception_4c/output"
  top: "inception_4d/pool"
  pooling_param {
    pool: MAX
    kernel_size: 3
    stride: 1
    pad: 1
  }
}
layer {
  name: "inception_4d/pool_proj"
  type: "Convolution"
  bottom: "inception_4d/pool"
  top: "inception_4d/pool_proj"
  param {
    lr_mult: 1
    decay_mult: 1
  }
  param {
    lr_mult: 2
    decay_mult: 0
  }
  convolution_param {
    num_output: 64
    kernel_size: 1
    weight_filler {
      type: "xavier"
      std: 0.1
    }
    bias_filler {
      type: "constant"
      value: 0.2
    }
  }
}
layer {
  name: "inception_4d/relu_pool_proj"
  type: "ReLU"
  bottom: "inception_4d/pool_proj"
  top: "inception_4d/pool_proj"
}
layer {
  name: "inception_4d/output"
  type: "Concat"
  bottom: "inception_4d/1x1"
  bottom: "inception_4d/3x3"
  bottom: "inception_4d/5x5"
  bottom: "inception_4d/pool_proj"
  top: "inception_4d/output"
}
layer {
  name: "loss2/ave_pool"
  type: "Pooling"
  bottom: "inception_4d/output"
  top: "loss2/ave_pool"
  pooling_param {
    pool: AVE
    kernel_size: 5
    stride: 3
  }
}
layer {
  name: "loss2/conv"
  type: "Convolution"
  bottom: "loss2/ave_pool"
  top: "loss2/conv"
  param {
    lr_mult: 1
    decay_mult: 1
  }
  param {
    lr_mult: 2
    decay_mult: 0
  }
  convolution_param {
    num_output: 128
    kernel_size: 1
    weight_filler {
      type: "xavier"
      std: 0.08
    }
    bias_filler {
      type: "constant"
      value: 0.2
    }
  }
}
layer {
  name: "loss2/relu_conv"
  type: "ReLU"
  bottom: "loss2/conv"
  top: "loss2/conv"
}
layer {
  name: "loss2/fc"
  type: "InnerProduct"
  bottom: "loss2/conv"
  top: "loss2/fc"
  param {
    lr_mult: 1
    decay_mult: 1
  }
  param {
    lr_mult: 2
    decay_mult: 0
  }
  inner_product_param {
    num_output: 1024
    weight_filler {
      type: "xavier"
      std: 0.02
    }
    bias_filler {
      type: "constant"
      value: 0.2
    }
  }
}
layer {
  name: "loss2/relu_fc"
  type: "ReLU"
  bottom: "loss2/fc"
  top: "loss2/fc"
}
layer {
  name: "loss2/drop_fc"
  type: "Dropout"
  bottom: "loss2/fc"
  top: "loss2/fc"
  dropout_param {
    dropout_ratio: 0.7
  }
}
layer {
  name: "loss2/classifier_plantvillage"
  type: "InnerProduct"
  bottom: "loss2/fc"
  top: "loss2/classifier_plantvillage"
  param {
    lr_mult: 1
    decay_mult: 1
  }
  param {
    lr_mult: 2
    decay_mult: 0
  }
  inner_product_param {
    num_output: 38
    weight_filler {
      type: "xavier"
      std: 0.0009765625
    }
    bias_filler {
      type: "constant"
      value: 0
    }
  }
}
layer {
  name: "inception_4e/1x1"
  type: "Convolution"
  bottom: "inception_4d/output"
  top: "inception_4e/1x1"
  param {
    lr_mult: 1
    decay_mult: 1
  }
  param {
    lr_mult: 2
    decay_mult: 0
  }
  convolution_param {
    num_output: 256
    kernel_size: 1
    weight_filler {
      type: "xavier"
      std: 0.03
    }
    bias_filler {
      type: "constant"
      value: 0.2
    }
  }
}
layer {
  name: "inception_4e/relu_1x1"
  type: "ReLU"
  bottom: "inception_4e/1x1"
  top: "inception_4e/1x1"
}
layer {
  name: "inception_4e/3x3_reduce"
  type: "Convolution"
  bottom: "inception_4d/output"
  top: "inception_4e/3x3_reduce"
  param {
    lr_mult: 1
    decay_mult: 1
  }
  param {
    lr_mult: 2
    decay_mult: 0
  }
  convolution_param {
    num_output: 160
    kernel_size: 1
    weight_filler {
      type: "xavier"
      std: 0.09
    }
    bias_filler {
      type: "constant"
      value: 0.2
    }
  }
}
layer {
  name: "inception_4e/relu_3x3_reduce"
  type: "ReLU"
  bottom: "inception_4e/3x3_reduce"
  top: "inception_4e/3x3_reduce"
}
layer {
  name: "inception_4e/3x3"
  type: "Convolution"
  bottom: "inception_4e/3x3_reduce"
  top: "inception_4e/3x3"
  param {
    lr_mult: 1
    decay_mult: 1
  }
  param {
    lr_mult: 2
    decay_mult: 0
  }
  convolution_param {
    num_output: 320
    pad: 1
    kernel_size: 3
    weight_filler {
      type: "xavier"
      std: 0.03
    }
    bias_filler {
      type: "constant"
      value: 0.2
    }
  }
}
layer {
  name: "inception_4e/relu_3x3"
  type: "ReLU"
  bottom: "inception_4e/3x3"
  top: "inception_4e/3x3"
}
layer {
  name: "inception_4e/5x5_reduce"
  type: "Convolution"
  bottom: "inception_4d/output"
  top: "inception_4e/5x5_reduce"
  param {
    lr_mult: 1
    decay_mult: 1
  }
  param {
    lr_mult: 2
    decay_mult: 0
  }
  convolution_param {
    num_output: 32
    kernel_size: 1
    weight_filler {
      type: "xavier"
      std: 0.2
    }
    bias_filler {
      type: "constant"
      value: 0.2
    }
  }
}
layer {
  name: "inception_4e/relu_5x5_reduce"
  type: "ReLU"
  bottom: "inception_4e/5x5_reduce"
  top: "inception_4e/5x5_reduce"
}
layer {
  name: "inception_4e/5x5"
  type: "Convolution"
  bottom: "inception_4e/5x5_reduce"
  top: "inception_4e/5x5"
  p
I0403 15:09:41.213306 14178 layer_factory.hpp:77] Creating layer data
I0403 15:09:41.213879 14178 net.cpp:91] Creating Layer data
I0403 15:09:41.213909 14178 net.cpp:399] data -> data
I0403 15:09:41.213958 14178 net.cpp:399] data -> label
I0403 15:09:41.213994 14178 data_transformer.cpp:25] Loading mean file from: /home/mohanty/data/final_dataset/lmdb/color-40-60/mean.binaryproto
I0403 15:09:41.216784 14181 db_lmdb.cpp:38] Opened lmdb /home/mohanty/data/final_dataset/lmdb/color-40-60/test_db
I0403 15:09:41.227358 14178 data_layer.cpp:41] output data size: 24,3,224,224
I0403 15:09:41.254395 14178 net.cpp:141] Setting up data
I0403 15:09:41.254482 14178 net.cpp:148] Top shape: 24 3 224 224 (3612672)
I0403 15:09:41.254503 14178 net.cpp:148] Top shape: 24 (24)
I0403 15:09:41.254518 14178 net.cpp:156] Memory required for data: 14450784
I0403 15:09:41.254546 14178 layer_factory.hpp:77] Creating layer label_data_1_split
I0403 15:09:41.254575 14178 net.cpp:91] Creating Layer label_data_1_split
I0403 15:09:41.254592 14178 net.cpp:425] label_data_1_split <- label
I0403 15:09:41.254639 14178 net.cpp:399] label_data_1_split -> label_data_1_split_0
I0403 15:09:41.254668 14178 net.cpp:399] label_data_1_split -> label_data_1_split_1
I0403 15:09:41.254690 14178 net.cpp:399] label_data_1_split -> label_data_1_split_2
I0403 15:09:41.254710 14178 net.cpp:399] label_data_1_split -> label_data_1_split_3
I0403 15:09:41.254730 14178 net.cpp:399] label_data_1_split -> label_data_1_split_4
I0403 15:09:41.254750 14178 net.cpp:399] label_data_1_split -> label_data_1_split_5
I0403 15:09:41.254770 14178 net.cpp:399] label_data_1_split -> label_data_1_split_6
I0403 15:09:41.254789 14178 net.cpp:399] label_data_1_split -> label_data_1_split_7
I0403 15:09:41.254807 14178 net.cpp:399] label_data_1_split -> label_data_1_split_8
I0403 15:09:41.254827 14178 net.cpp:399] label_data_1_split -> label_data_1_split_9
I0403 15:09:41.254945 14178 net.cpp:141] Setting up label_data_1_split
I0403 15:09:41.254968 14178 net.cpp:148] Top shape: 24 (24)
I0403 15:09:41.254984 14178 net.cpp:148] Top shape: 24 (24)
I0403 15:09:41.255000 14178 net.cpp:148] Top shape: 24 (24)
I0403 15:09:41.255015 14178 net.cpp:148] Top shape: 24 (24)
I0403 15:09:41.255030 14178 net.cpp:148] Top shape: 24 (24)
I0403 15:09:41.255045 14178 net.cpp:148] Top shape: 24 (24)
I0403 15:09:41.255059 14178 net.cpp:148] Top shape: 24 (24)
I0403 15:09:41.255074 14178 net.cpp:148] Top shape: 24 (24)
I0403 15:09:41.255089 14178 net.cpp:148] Top shape: 24 (24)
I0403 15:09:41.255105 14178 net.cpp:148] Top shape: 24 (24)
I0403 15:09:41.255153 14178 net.cpp:156] Memory required for data: 14451744
I0403 15:09:41.255169 14178 layer_factory.hpp:77] Creating layer conv1/7x7_s2
I0403 15:09:41.255200 14178 net.cpp:91] Creating Layer conv1/7x7_s2
I0403 15:09:41.255218 14178 net.cpp:425] conv1/7x7_s2 <- data
I0403 15:09:41.255237 14178 net.cpp:399] conv1/7x7_s2 -> conv1/7x7_s2
I0403 15:09:41.393257 14178 net.cpp:141] Setting up conv1/7x7_s2
I0403 15:09:41.393360 14178 net.cpp:148] Top shape: 24 64 112 112 (19267584)
I0403 15:09:41.393379 14178 net.cpp:156] Memory required for data: 91522080
I0403 15:09:41.393409 14178 layer_factory.hpp:77] Creating layer conv1/relu_7x7
I0403 15:09:41.393435 14178 net.cpp:91] Creating Layer conv1/relu_7x7
I0403 15:09:41.393452 14178 net.cpp:425] conv1/relu_7x7 <- conv1/7x7_s2
I0403 15:09:41.393471 14178 net.cpp:386] conv1/relu_7x7 -> conv1/7x7_s2 (in-place)
I0403 15:09:41.393739 14178 net.cpp:141] Setting up conv1/relu_7x7
I0403 15:09:41.393766 14178 net.cpp:148] Top shape: 24 64 112 112 (19267584)
I0403 15:09:41.393782 14178 net.cpp:156] Memory required for data: 168592416
I0403 15:09:41.393796 14178 layer_factory.hpp:77] Creating layer pool1/3x3_s2
I0403 15:09:41.393828 14178 net.cpp:91] Creating Layer pool1/3x3_s2
I0403 15:09:41.393846 14178 net.cpp:425] pool1/3x3_s2 <- conv1/7x7_s2
I0403 15:09:41.393863 14178 net.cpp:399] pool1/3x3_s2 -> pool1/3x3_s2
I0403 15:09:41.393935 14178 net.cpp:141] Setting up pool1/3x3_s2
I0403 15:09:41.393959 14178 net.cpp:148] Top shape: 24 64 56 56 (4816896)
I0403 15:09:41.393973 14178 net.cpp:156] Memory required for data: 187860000
I0403 15:09:41.393987 14178 layer_factory.hpp:77] Creating layer pool1/norm1
I0403 15:09:41.394011 14178 net.cpp:91] Creating Layer pool1/norm1
I0403 15:09:41.394027 14178 net.cpp:425] pool1/norm1 <- pool1/3x3_s2
I0403 15:09:41.394044 14178 net.cpp:399] pool1/norm1 -> pool1/norm1
I0403 15:09:41.394331 14178 net.cpp:141] Setting up pool1/norm1
I0403 15:09:41.394358 14178 net.cpp:148] Top shape: 24 64 56 56 (4816896)
I0403 15:09:41.394372 14178 net.cpp:156] Memory required for data: 207127584
I0403 15:09:41.394387 14178 layer_factory.hpp:77] Creating layer conv2/3x3_reduce
I0403 15:09:41.394412 14178 net.cpp:91] Creating Layer conv2/3x3_reduce
I0403 15:09:41.394431 14178 net.cpp:425] conv2/3x3_reduce <- pool1/norm1
I0403 15:09:41.394449 14178 net.cpp:399] conv2/3x3_reduce -> conv2/3x3_reduce
I0403 15:09:41.395787 14178 net.cpp:141] Setting up conv2/3x3_reduce
I0403 15:09:41.395817 14178 net.cpp:148] Top shape: 24 64 56 56 (4816896)
I0403 15:09:41.395833 14178 net.cpp:156] Memory required for data: 226395168
I0403 15:09:41.395853 14178 layer_factory.hpp:77] Creating layer conv2/relu_3x3_reduce
I0403 15:09:41.395871 14178 net.cpp:91] Creating Layer conv2/relu_3x3_reduce
I0403 15:09:41.395889 14178 net.cpp:425] conv2/relu_3x3_reduce <- conv2/3x3_reduce
I0403 15:09:41.395905 14178 net.cpp:386] conv2/relu_3x3_reduce -> conv2/3x3_reduce (in-place)
I0403 15:09:41.396154 14178 net.cpp:141] Setting up conv2/relu_3x3_reduce
I0403 15:09:41.396181 14178 net.cpp:148] Top shape: 24 64 56 56 (4816896)
I0403 15:09:41.396196 14178 net.cpp:156] Memory required for data: 245662752
I0403 15:09:41.396210 14178 layer_factory.hpp:77] Creating layer conv2/3x3
I0403 15:09:41.396231 14178 net.cpp:91] Creating Layer conv2/3x3
I0403 15:09:41.396248 14178 net.cpp:425] conv2/3x3 <- conv2/3x3_reduce
I0403 15:09:41.396266 14178 net.cpp:399] conv2/3x3 -> conv2/3x3
I0403 15:09:41.398552 14178 net.cpp:141] Setting up conv2/3x3
I0403 15:09:41.398582 14178 net.cpp:148] Top shape: 24 192 56 56 (14450688)
I0403 15:09:41.398602 14178 net.cpp:156] Memory required for data: 303465504
I0403 15:09:41.398625 14178 layer_factory.hpp:77] Creating layer conv2/relu_3x3
I0403 15:09:41.398644 14178 net.cpp:91] Creating Layer conv2/relu_3x3
I0403 15:09:41.398659 14178 net.cpp:425] conv2/relu_3x3 <- conv2/3x3
I0403 15:09:41.398676 14178 net.cpp:386] conv2/relu_3x3 -> conv2/3x3 (in-place)
I0403 15:09:41.398843 14178 net.cpp:141] Setting up conv2/relu_3x3
I0403 15:09:41.398869 14178 net.cpp:148] Top shape: 24 192 56 56 (14450688)
I0403 15:09:41.398913 14178 net.cpp:156] Memory required for data: 361268256
I0403 15:09:41.398929 14178 layer_factory.hpp:77] Creating layer conv2/norm2
I0403 15:09:41.398947 14178 net.cpp:91] Creating Layer conv2/norm2
I0403 15:09:41.398963 14178 net.cpp:425] conv2/norm2 <- conv2/3x3
I0403 15:09:41.398982 14178 net.cpp:399] conv2/norm2 -> conv2/norm2
I0403 15:09:41.399276 14178 net.cpp:141] Setting up conv2/norm2
I0403 15:09:41.399304 14178 net.cpp:148] Top shape: 24 192 56 56 (14450688)
I0403 15:09:41.399319 14178 net.cpp:156] Memory required for data: 419071008
I0403 15:09:41.399334 14178 layer_factory.hpp:77] Creating layer pool2/3x3_s2
I0403 15:09:41.399353 14178 net.cpp:91] Creating Layer pool2/3x3_s2
I0403 15:09:41.399369 14178 net.cpp:425] pool2/3x3_s2 <- conv2/norm2
I0403 15:09:41.399385 14178 net.cpp:399] pool2/3x3_s2 -> pool2/3x3_s2
I0403 15:09:41.399436 14178 net.cpp:141] Setting up pool2/3x3_s2
I0403 15:09:41.399459 14178 net.cpp:148] Top shape: 24 192 28 28 (3612672)
I0403 15:09:41.399474 14178 net.cpp:156] Memory required for data: 433521696
I0403 15:09:41.399488 14178 layer_factory.hpp:77] Creating layer pool2/3x3_s2_pool2/3x3_s2_0_split
I0403 15:09:41.399505 14178 net.cpp:91] Creating Layer pool2/3x3_s2_pool2/3x3_s2_0_split
I0403 15:09:41.399520 14178 net.cpp:425] pool2/3x3_s2_pool2/3x3_s2_0_split <- pool2/3x3_s2
I0403 15:09:41.399538 14178 net.cpp:399] pool2/3x3_s2_pool2/3x3_s2_0_split -> pool2/3x3_s2_pool2/3x3_s2_0_split_0
I0403 15:09:41.399557 14178 net.cpp:399] pool2/3x3_s2_pool2/3x3_s2_0_split -> pool2/3x3_s2_pool2/3x3_s2_0_split_1
I0403 15:09:41.399577 14178 net.cpp:399] pool2/3x3_s2_pool2/3x3_s2_0_split -> pool2/3x3_s2_pool2/3x3_s2_0_split_2
I0403 15:09:41.399597 14178 net.cpp:399] pool2/3x3_s2_pool2/3x3_s2_0_split -> pool2/3x3_s2_pool2/3x3_s2_0_split_3
I0403 15:09:41.399668 14178 net.cpp:141] Setting up pool2/3x3_s2_pool2/3x3_s2_0_split
I0403 15:09:41.399690 14178 net.cpp:148] Top shape: 24 192 28 28 (3612672)
I0403 15:09:41.399708 14178 net.cpp:148] Top shape: 24 192 28 28 (3612672)
I0403 15:09:41.399723 14178 net.cpp:148] Top shape: 24 192 28 28 (3612672)
I0403 15:09:41.399739 14178 net.cpp:148] Top shape: 24 192 28 28 (3612672)
I0403 15:09:41.399752 14178 net.cpp:156] Memory required for data: 491324448
I0403 15:09:41.399766 14178 layer_factory.hpp:77] Creating layer inception_3a/1x1
I0403 15:09:41.399786 14178 net.cpp:91] Creating Layer inception_3a/1x1
I0403 15:09:41.399803 14178 net.cpp:425] inception_3a/1x1 <- pool2/3x3_s2_pool2/3x3_s2_0_split_0
I0403 15:09:41.399821 14178 net.cpp:399] inception_3a/1x1 -> inception_3a/1x1
I0403 15:09:41.401314 14178 net.cpp:141] Setting up inception_3a/1x1
I0403 15:09:41.401345 14178 net.cpp:148] Top shape: 24 64 28 28 (1204224)
I0403 15:09:41.401360 14178 net.cpp:156] Memory required for data: 496141344
I0403 15:09:41.401379 14178 layer_factory.hpp:77] Creating layer inception_3a/relu_1x1
I0403 15:09:41.401397 14178 net.cpp:91] Creating Layer inception_3a/relu_1x1
I0403 15:09:41.401412 14178 net.cpp:425] inception_3a/relu_1x1 <- inception_3a/1x1
I0403 15:09:41.401432 14178 net.cpp:386] inception_3a/relu_1x1 -> inception_3a/1x1 (in-place)
I0403 15:09:41.401618 14178 net.cpp:141] Setting up inception_3a/relu_1x1
I0403 15:09:41.401644 14178 net.cpp:148] Top shape: 24 64 28 28 (1204224)
I0403 15:09:41.401659 14178 net.cpp:156] Memory required for data: 500958240
I0403 15:09:41.401674 14178 layer_factory.hpp:77] Creating layer inception_3a/3x3_reduce
I0403 15:09:41.401696 14178 net.cpp:91] Creating Layer inception_3a/3x3_reduce
I0403 15:09:41.401713 14178 net.cpp:425] inception_3a/3x3_reduce <- pool2/3x3_s2_pool2/3x3_s2_0_split_1
I0403 15:09:41.401734 14178 net.cpp:399] inception_3a/3x3_reduce -> inception_3a/3x3_reduce
I0403 15:09:41.403486 14178 net.cpp:141] Setting up inception_3a/3x3_reduce
I0403 15:09:41.403515 14178 net.cpp:148] Top shape: 24 96 28 28 (1806336)
I0403 15:09:41.403532 14178 net.cpp:156] Memory required for data: 508183584
I0403 15:09:41.403553 14178 layer_factory.hpp:77] Creating layer inception_3a/relu_3x3_reduce
I0403 15:09:41.403592 14178 net.cpp:91] Creating Layer inception_3a/relu_3x3_reduce
I0403 15:09:41.403616 14178 net.cpp:425] inception_3a/relu_3x3_reduce <- inception_3a/3x3_reduce
I0403 15:09:41.403635 14178 net.cpp:386] inception_3a/relu_3x3_reduce -> inception_3a/3x3_reduce (in-place)
I0403 15:09:41.403825 14178 net.cpp:141] Setting up inception_3a/relu_3x3_reduce
I0403 15:09:41.403853 14178 net.cpp:148] Top shape: 24 96 28 28 (1806336)
I0403 15:09:41.403867 14178 net.cpp:156] Memory required for data: 515408928
I0403 15:09:41.403882 14178 layer_factory.hpp:77] Creating layer inception_3a/3x3
I0403 15:09:41.403904 14178 net.cpp:91] Creating Layer inception_3a/3x3
I0403 15:09:41.403921 14178 net.cpp:425] inception_3a/3x3 <- inception_3a/3x3_reduce
I0403 15:09:41.403944 14178 net.cpp:399] inception_3a/3x3 -> inception_3a/3x3
I0403 15:09:41.405664 14178 net.cpp:141] Setting up inception_3a/3x3
I0403 15:09:41.405692 14178 net.cpp:148] Top shape: 24 128 28 28 (2408448)
I0403 15:09:41.405709 14178 net.cpp:156] Memory required for data: 525042720
I0403 15:09:41.405726 14178 layer_factory.hpp:77] Creating layer inception_3a/relu_3x3
I0403 15:09:41.405746 14178 net.cpp:91] Creating Layer inception_3a/relu_3x3
I0403 15:09:41.405762 14178 net.cpp:425] inception_3a/relu_3x3 <- inception_3a/3x3
I0403 15:09:41.405779 14178 net.cpp:386] inception_3a/relu_3x3 -> inception_3a/3x3 (in-place)
I0403 15:09:41.406069 14178 net.cpp:141] Setting up inception_3a/relu_3x3
I0403 15:09:41.406095 14178 net.cpp:148] Top shape: 24 128 28 28 (2408448)
I0403 15:09:41.406111 14178 net.cpp:156] Memory required for data: 534676512
I0403 15:09:41.406124 14178 layer_factory.hpp:77] Creating layer inception_3a/5x5_reduce
I0403 15:09:41.406147 14178 net.cpp:91] Creating Layer inception_3a/5x5_reduce
I0403 15:09:41.406164 14178 net.cpp:425] inception_3a/5x5_reduce <- pool2/3x3_s2_pool2/3x3_s2_0_split_2
I0403 15:09:41.406185 14178 net.cpp:399] inception_3a/5x5_reduce -> inception_3a/5x5_reduce
I0403 15:09:41.407186 14178 net.cpp:141] Setting up inception_3a/5x5_reduce
I0403 15:09:41.407215 14178 net.cpp:148] Top shape: 24 16 28 28 (301056)
I0403 15:09:41.407230 14178 net.cpp:156] Memory required for data: 535880736
I0403 15:09:41.407249 14178 layer_factory.hpp:77] Creating layer inception_3a/relu_5x5_reduce
I0403 15:09:41.407269 14178 net.cpp:91] Creating Layer inception_3a/relu_5x5_reduce
I0403 15:09:41.407285 14178 net.cpp:425] inception_3a/relu_5x5_reduce <- inception_3a/5x5_reduce
I0403 15:09:41.407305 14178 net.cpp:386] inception_3a/relu_5x5_reduce -> inception_3a/5x5_reduce (in-place)
I0403 15:09:41.407621 14178 net.cpp:141] Setting up inception_3a/relu_5x5_reduce
I0403 15:09:41.407649 14178 net.cpp:148] Top shape: 24 16 28 28 (301056)
I0403 15:09:41.407667 14178 net.cpp:156] Memory required for data: 537084960
I0403 15:09:41.407682 14178 layer_factory.hpp:77] Creating layer inception_3a/5x5
I0403 15:09:41.407701 14178 net.cpp:91] Creating Layer inception_3a/5x5
I0403 15:09:41.407718 14178 net.cpp:425] inception_3a/5x5 <- inception_3a/5x5_reduce
I0403 15:09:41.407738 14178 net.cpp:399] inception_3a/5x5 -> inception_3a/5x5
I0403 15:09:41.408784 14178 net.cpp:141] Setting up inception_3a/5x5
I0403 15:09:41.408817 14178 net.cpp:148] Top shape: 24 32 28 28 (602112)
I0403 15:09:41.408833 14178 net.cpp:156] Memory required for data: 539493408
I0403 15:09:41.408850 14178 layer_factory.hpp:77] Creating layer inception_3a/relu_5x5
I0403 15:09:41.408869 14178 net.cpp:91] Creating Layer inception_3a/relu_5x5
I0403 15:09:41.408888 14178 net.cpp:425] inception_3a/relu_5x5 <- inception_3a/5x5
I0403 15:09:41.408906 14178 net.cpp:386] inception_3a/relu_5x5 -> inception_3a/5x5 (in-place)
I0403 15:09:41.409085 14178 net.cpp:141] Setting up inception_3a/relu_5x5
I0403 15:09:41.409111 14178 net.cpp:148] Top shape: 24 32 28 28 (602112)
I0403 15:09:41.409126 14178 net.cpp:156] Memory required for data: 541901856
I0403 15:09:41.409140 14178 layer_factory.hpp:77] Creating layer inception_3a/pool
I0403 15:09:41.409159 14178 net.cpp:91] Creating Layer inception_3a/pool
I0403 15:09:41.409176 14178 net.cpp:425] inception_3a/pool <- pool2/3x3_s2_pool2/3x3_s2_0_split_3
I0403 15:09:41.409209 14178 net.cpp:399] inception_3a/pool -> inception_3a/pool
I0403 15:09:41.409271 14178 net.cpp:141] Setting up inception_3a/pool
I0403 15:09:41.409296 14178 net.cpp:148] Top shape: 24 192 28 28 (3612672)
I0403 15:09:41.409310 14178 net.cpp:156] Memory required for data: 556352544
I0403 15:09:41.409324 14178 layer_factory.hpp:77] Creating layer inception_3a/pool_proj
I0403 15:09:41.409346 14178 net.cpp:91] Creating Layer inception_3a/pool_proj
I0403 15:09:41.409363 14178 net.cpp:425] inception_3a/pool_proj <- inception_3a/pool
I0403 15:09:41.409385 14178 net.cpp:399] inception_3a/pool_proj -> inception_3a/pool_proj
I0403 15:09:41.410383 14178 net.cpp:141] Setting up inception_3a/pool_proj
I0403 15:09:41.410413 14178 net.cpp:148] Top shape: 24 32 28 28 (602112)
I0403 15:09:41.410430 14178 net.cpp:156] Memory required for data: 558760992
I0403 15:09:41.410452 14178 layer_factory.hpp:77] Creating layer inception_3a/relu_pool_proj
I0403 15:09:41.410475 14178 net.cpp:91] Creating Layer inception_3a/relu_pool_proj
I0403 15:09:41.410491 14178 net.cpp:425] inception_3a/relu_pool_proj <- inception_3a/pool_proj
I0403 15:09:41.410509 14178 net.cpp:386] inception_3a/relu_pool_proj -> inception_3a/pool_proj (in-place)
I0403 15:09:41.410796 14178 net.cpp:141] Setting up inception_3a/relu_pool_proj
I0403 15:09:41.410823 14178 net.cpp:148] Top shape: 24 32 28 28 (602112)
I0403 15:09:41.410838 14178 net.cpp:156] Memory required for data: 561169440
I0403 15:09:41.410853 14178 layer_factory.hpp:77] Creating layer inception_3a/output
I0403 15:09:41.410871 14178 net.cpp:91] Creating Layer inception_3a/output
I0403 15:09:41.410887 14178 net.cpp:425] inception_3a/output <- inception_3a/1x1
I0403 15:09:41.410903 14178 net.cpp:425] inception_3a/output <- inception_3a/3x3
I0403 15:09:41.410923 14178 net.cpp:425] inception_3a/output <- inception_3a/5x5
I0403 15:09:41.410938 14178 net.cpp:425] inception_3a/output <- inception_3a/pool_proj
I0403 15:09:41.410955 14178 net.cpp:399] inception_3a/output -> inception_3a/output
I0403 15:09:41.411000 14178 net.cpp:141] Setting up inception_3a/output
I0403 15:09:41.411026 14178 net.cpp:148] Top shape: 24 256 28 28 (4816896)
I0403 15:09:41.411042 14178 net.cpp:156] Memory required for data: 580437024
I0403 15:09:41.411057 14178 layer_factory.hpp:77] Creating layer inception_3a/output_inception_3a/output_0_split
I0403 15:09:41.411073 14178 net.cpp:91] Creating Layer inception_3a/output_inception_3a/output_0_split
I0403 15:09:41.411088 14178 net.cpp:425] inception_3a/output_inception_3a/output_0_split <- inception_3a/output
I0403 15:09:41.411108 14178 net.cpp:399] inception_3a/output_inception_3a/output_0_split -> inception_3a/output_inception_3a/output_0_split_0
I0403 15:09:41.411128 14178 net.cpp:399] inception_3a/output_inception_3a/output_0_split -> inception_3a/output_inception_3a/output_0_split_1
I0403 15:09:41.411151 14178 net.cpp:399] inception_3a/output_inception_3a/output_0_split -> inception_3a/output_inception_3a/output_0_split_2
I0403 15:09:41.411172 14178 net.cpp:399] inception_3a/output_inception_3a/output_0_split -> inception_3a/output_inception_3a/output_0_split_3
I0403 15:09:41.411248 14178 net.cpp:141] Setting up inception_3a/output_inception_3a/output_0_split
I0403 15:09:41.411272 14178 net.cpp:148] Top shape: 24 256 28 28 (4816896)
I0403 15:09:41.411288 14178 net.cpp:148] Top shape: 24 256 28 28 (4816896)
I0403 15:09:41.411303 14178 net.cpp:148] Top shape: 24 256 28 28 (4816896)
I0403 15:09:41.411319 14178 net.cpp:148] Top shape: 24 256 28 28 (4816896)
I0403 15:09:41.411332 14178 net.cpp:156] Memory required for data: 657507360
I0403 15:09:41.411345 14178 layer_factory.hpp:77] Creating layer inception_3b/1x1
I0403 15:09:41.411367 14178 net.cpp:91] Creating Layer inception_3b/1x1
I0403 15:09:41.411384 14178 net.cpp:425] inception_3b/1x1 <- inception_3a/output_inception_3a/output_0_split_0
I0403 15:09:41.411406 14178 net.cpp:399] inception_3b/1x1 -> inception_3b/1x1
I0403 15:09:41.412596 14178 net.cpp:141] Setting up inception_3b/1x1
I0403 15:09:41.412641 14178 net.cpp:148] Top shape: 24 128 28 28 (2408448)
I0403 15:09:41.412657 14178 net.cpp:156] Memory required for data: 667141152
I0403 15:09:41.412677 14178 layer_factory.hpp:77] Creating layer inception_3b/relu_1x1
I0403 15:09:41.412694 14178 net.cpp:91] Creating Layer inception_3b/relu_1x1
I0403 15:09:41.412710 14178 net.cpp:425] inception_3b/relu_1x1 <- inception_3b/1x1
I0403 15:09:41.412729 14178 net.cpp:386] inception_3b/relu_1x1 -> inception_3b/1x1 (in-place)
I0403 15:09:41.412917 14178 net.cpp:141] Setting up inception_3b/relu_1x1
I0403 15:09:41.412942 14178 net.cpp:148] Top shape: 24 128 28 28 (2408448)
I0403 15:09:41.412957 14178 net.cpp:156] Memory required for data: 676774944
I0403 15:09:41.412971 14178 layer_factory.hpp:77] Creating layer inception_3b/3x3_reduce
I0403 15:09:41.412992 14178 net.cpp:91] Creating Layer inception_3b/3x3_reduce
I0403 15:09:41.413010 14178 net.cpp:425] inception_3b/3x3_reduce <- inception_3a/output_inception_3a/output_0_split_1
I0403 15:09:41.413031 14178 net.cpp:399] inception_3b/3x3_reduce -> inception_3b/3x3_reduce
I0403 15:09:41.414203 14178 net.cpp:141] Setting up inception_3b/3x3_reduce
I0403 15:09:41.414234 14178 net.cpp:148] Top shape: 24 128 28 28 (2408448)
I0403 15:09:41.414250 14178 net.cpp:156] Memory required for data: 686408736
I0403 15:09:41.414269 14178 layer_factory.hpp:77] Creating layer inception_3b/relu_3x3_reduce
I0403 15:09:41.414288 14178 net.cpp:91] Creating Layer inception_3b/relu_3x3_reduce
I0403 15:09:41.414304 14178 net.cpp:425] inception_3b/relu_3x3_reduce <- inception_3b/3x3_reduce
I0403 15:09:41.414322 14178 net.cpp:386] inception_3b/relu_3x3_reduce -> inception_3b/3x3_reduce (in-place)
I0403 15:09:41.414504 14178 net.cpp:141] Setting up inception_3b/relu_3x3_reduce
I0403 15:09:41.414528 14178 net.cpp:148] Top shape: 24 128 28 28 (2408448)
I0403 15:09:41.414543 14178 net.cpp:156] Memory required for data: 696042528
I0403 15:09:41.414557 14178 layer_factory.hpp:77] Creating layer inception_3b/3x3
I0403 15:09:41.414583 14178 net.cpp:91] Creating Layer inception_3b/3x3
I0403 15:09:41.414611 14178 net.cpp:425] inception_3b/3x3 <- inception_3b/3x3_reduce
I0403 15:09:41.414634 14178 net.cpp:399] inception_3b/3x3 -> inception_3b/3x3
I0403 15:09:41.417563 14178 net.cpp:141] Setting up inception_3b/3x3
I0403 15:09:41.417593 14178 net.cpp:148] Top shape: 24 192 28 28 (3612672)
I0403 15:09:41.417613 14178 net.cpp:156] Memory required for data: 710493216
I0403 15:09:41.417631 14178 layer_factory.hpp:77] Creating layer inception_3b/relu_3x3
I0403 15:09:41.417652 14178 net.cpp:91] Creating Layer inception_3b/relu_3x3
I0403 15:09:41.417668 14178 net.cpp:425] inception_3b/relu_3x3 <- inception_3b/3x3
I0403 15:09:41.417685 14178 net.cpp:386] inception_3b/relu_3x3 -> inception_3b/3x3 (in-place)
I0403 15:09:41.417964 14178 net.cpp:141] Setting up inception_3b/relu_3x3
I0403 15:09:41.417989 14178 net.cpp:148] Top shape: 24 192 28 28 (3612672)
I0403 15:09:41.418004 14178 net.cpp:156] Memory required for data: 724943904
I0403 15:09:41.418018 14178 layer_factory.hpp:77] Creating layer inception_3b/5x5_reduce
I0403 15:09:41.418041 14178 net.cpp:91] Creating Layer inception_3b/5x5_reduce
I0403 15:09:41.418058 14178 net.cpp:425] inception_3b/5x5_reduce <- inception_3a/output_inception_3a/output_0_split_2
I0403 15:09:41.418078 14178 net.cpp:399] inception_3b/5x5_reduce -> inception_3b/5x5_reduce
I0403 15:09:41.419083 14178 net.cpp:141] Setting up inception_3b/5x5_reduce
I0403 15:09:41.419111 14178 net.cpp:148] Top shape: 24 32 28 28 (602112)
I0403 15:09:41.419126 14178 net.cpp:156] Memory required for data: 727352352
I0403 15:09:41.419144 14178 layer_factory.hpp:77] Creating layer inception_3b/relu_5x5_reduce
I0403 15:09:41.419164 14178 net.cpp:91] Creating Layer inception_3b/relu_5x5_reduce
I0403 15:09:41.419180 14178 net.cpp:425] inception_3b/relu_5x5_reduce <- inception_3b/5x5_reduce
I0403 15:09:41.419198 14178 net.cpp:386] inception_3b/relu_5x5_reduce -> inception_3b/5x5_reduce (in-place)
I0403 15:09:41.419374 14178 net.cpp:141] Setting up inception_3b/relu_5x5_reduce
I0403 15:09:41.419411 14178 net.cpp:148] Top shape: 24 32 28 28 (602112)
I0403 15:09:41.419426 14178 net.cpp:156] Memory required for data: 729760800
I0403 15:09:41.419441 14178 layer_factory.hpp:77] Creating layer inception_3b/5x5
I0403 15:09:41.419463 14178 net.cpp:91] Creating Layer inception_3b/5x5
I0403 15:09:41.419481 14178 net.cpp:425] inception_3b/5x5 <- inception_3b/5x5_reduce
I0403 15:09:41.419500 14178 net.cpp:399] inception_3b/5x5 -> inception_3b/5x5
I0403 15:09:41.421475 14178 net.cpp:141] Setting up inception_3b/5x5
I0403 15:09:41.421505 14178 net.cpp:148] Top shape: 24 96 28 28 (1806336)
I0403 15:09:41.421522 14178 net.cpp:156] Memory required for data: 736986144
I0403 15:09:41.421540 14178 layer_factory.hpp:77] Creating layer inception_3b/relu_5x5
I0403 15:09:41.421557 14178 net.cpp:91] Creating Layer inception_3b/relu_5x5
I0403 15:09:41.421573 14178 net.cpp:425] inception_3b/relu_5x5 <- inception_3b/5x5
I0403 15:09:41.421591 14178 net.cpp:386] inception_3b/relu_5x5 -> inception_3b/5x5 (in-place)
I0403 15:09:41.421788 14178 net.cpp:141] Setting up inception_3b/relu_5x5
I0403 15:09:41.421813 14178 net.cpp:148] Top shape: 24 96 28 28 (1806336)
I0403 15:09:41.421828 14178 net.cpp:156] Memory required for data: 744211488
I0403 15:09:41.421841 14178 layer_factory.hpp:77] Creating layer inception_3b/pool
I0403 15:09:41.421859 14178 net.cpp:91] Creating Layer inception_3b/pool
I0403 15:09:41.421874 14178 net.cpp:425] inception_3b/pool <- inception_3a/output_inception_3a/output_0_split_3
I0403 15:09:41.421891 14178 net.cpp:399] inception_3b/pool -> inception_3b/pool
I0403 15:09:41.421947 14178 net.cpp:141] Setting up inception_3b/pool
I0403 15:09:41.421969 14178 net.cpp:148] Top shape: 24 256 28 28 (4816896)
I0403 15:09:41.421983 14178 net.cpp:156] Memory required for data: 763479072
I0403 15:09:41.421998 14178 layer_factory.hpp:77] Creating layer inception_3b/pool_proj
I0403 15:09:41.422019 14178 net.cpp:91] Creating Layer inception_3b/pool_proj
I0403 15:09:41.422036 14178 net.cpp:425] inception_3b/pool_proj <- inception_3b/pool
I0403 15:09:41.422055 14178 net.cpp:399] inception_3b/pool_proj -> inception_3b/pool_proj
I0403 15:09:41.423115 14178 net.cpp:141] Setting up inception_3b/pool_proj
I0403 15:09:41.423142 14178 net.cpp:148] Top shape: 24 64 28 28 (1204224)
I0403 15:09:41.423157 14178 net.cpp:156] Memory required for data: 768295968
I0403 15:09:41.423176 14178 layer_factory.hpp:77] Creating layer inception_3b/relu_pool_proj
I0403 15:09:41.423194 14178 net.cpp:91] Creating Layer inception_3b/relu_pool_proj
I0403 15:09:41.423212 14178 net.cpp:425] inception_3b/relu_pool_proj <- inception_3b/pool_proj
I0403 15:09:41.423228 14178 net.cpp:386] inception_3b/relu_pool_proj -> inception_3b/pool_proj (in-place)
I0403 15:09:41.423640 14178 net.cpp:141] Setting up inception_3b/relu_pool_proj
I0403 15:09:41.423667 14178 net.cpp:148] Top shape: 24 64 28 28 (1204224)
I0403 15:09:41.423681 14178 net.cpp:156] Memory required for data: 773112864
I0403 15:09:41.423696 14178 layer_factory.hpp:77] Creating layer inception_3b/output
I0403 15:09:41.423715 14178 net.cpp:91] Creating Layer inception_3b/output
I0403 15:09:41.423730 14178 net.cpp:425] inception_3b/output <- inception_3b/1x1
I0403 15:09:41.423746 14178 net.cpp:425] inception_3b/output <- inception_3b/3x3
I0403 15:09:41.423761 14178 net.cpp:425] inception_3b/output <- inception_3b/5x5
I0403 15:09:41.423777 14178 net.cpp:425] inception_3b/output <- inception_3b/pool_proj
I0403 15:09:41.423794 14178 net.cpp:399] inception_3b/output -> inception_3b/output
I0403 15:09:41.423846 14178 net.cpp:141] Setting up inception_3b/output
I0403 15:09:41.423868 14178 net.cpp:148] Top shape: 24 480 28 28 (9031680)
I0403 15:09:41.423882 14178 net.cpp:156] Memory required for data: 809239584
I0403 15:09:41.423895 14178 layer_factory.hpp:77] Creating layer pool3/3x3_s2
I0403 15:09:41.423913 14178 net.cpp:91] Creating Layer pool3/3x3_s2
I0403 15:09:41.423926 14178 net.cpp:425] pool3/3x3_s2 <- inception_3b/output
I0403 15:09:41.423945 14178 net.cpp:399] pool3/3x3_s2 -> pool3/3x3_s2
I0403 15:09:41.424016 14178 net.cpp:141] Setting up pool3/3x3_s2
I0403 15:09:41.424041 14178 net.cpp:148] Top shape: 24 480 14 14 (2257920)
I0403 15:09:41.424057 14178 net.cpp:156] Memory required for data: 818271264
I0403 15:09:41.424070 14178 layer_factory.hpp:77] Creating layer pool3/3x3_s2_pool3/3x3_s2_0_split
I0403 15:09:41.424087 14178 net.cpp:91] Creating Layer pool3/3x3_s2_pool3/3x3_s2_0_split
I0403 15:09:41.424100 14178 net.cpp:425] pool3/3x3_s2_pool3/3x3_s2_0_split <- pool3/3x3_s2
I0403 15:09:41.424116 14178 net.cpp:399] pool3/3x3_s2_pool3/3x3_s2_0_split -> pool3/3x3_s2_pool3/3x3_s2_0_split_0
I0403 15:09:41.424137 14178 net.cpp:399] pool3/3x3_s2_pool3/3x3_s2_0_split -> pool3/3x3_s2_pool3/3x3_s2_0_split_1
I0403 15:09:41.424157 14178 net.cpp:399] pool3/3x3_s2_pool3/3x3_s2_0_split -> pool3/3x3_s2_pool3/3x3_s2_0_split_2
I0403 15:09:41.424175 14178 net.cpp:399] pool3/3x3_s2_pool3/3x3_s2_0_split -> pool3/3x3_s2_pool3/3x3_s2_0_split_3
I0403 15:09:41.424252 14178 net.cpp:141] Setting up pool3/3x3_s2_pool3/3x3_s2_0_split
I0403 15:09:41.424274 14178 net.cpp:148] Top shape: 24 480 14 14 (2257920)
I0403 15:09:41.424290 14178 net.cpp:148] Top shape: 24 480 14 14 (2257920)
I0403 15:09:41.424304 14178 net.cpp:148] Top shape: 24 480 14 14 (2257920)
I0403 15:09:41.424319 14178 net.cpp:148] Top shape: 24 480 14 14 (2257920)
I0403 15:09:41.424332 14178 net.cpp:156] Memory required for data: 854397984
I0403 15:09:41.424346 14178 layer_factory.hpp:77] Creating layer inception_4a/1x1
I0403 15:09:41.424367 14178 net.cpp:91] Creating Layer inception_4a/1x1
I0403 15:09:41.424386 14178 net.cpp:425] inception_4a/1x1 <- pool3/3x3_s2_pool3/3x3_s2_0_split_0
I0403 15:09:41.424403 14178 net.cpp:399] inception_4a/1x1 -> inception_4a/1x1
I0403 15:09:41.425982 14178 net.cpp:141] Setting up inception_4a/1x1
I0403 15:09:41.426009 14178 net.cpp:148] Top shape: 24 192 14 14 (903168)
I0403 15:09:41.426025 14178 net.cpp:156] Memory required for data: 858010656
I0403 15:09:41.426043 14178 layer_factory.hpp:77] Creating layer inception_4a/relu_1x1
I0403 15:09:41.426061 14178 net.cpp:91] Creating Layer inception_4a/relu_1x1
I0403 15:09:41.426079 14178 net.cpp:425] inception_4a/relu_1x1 <- inception_4a/1x1
I0403 15:09:41.426095 14178 net.cpp:386] inception_4a/relu_1x1 -> inception_4a/1x1 (in-place)
I0403 15:09:41.426275 14178 net.cpp:141] Setting up inception_4a/relu_1x1
I0403 15:09:41.426301 14178 net.cpp:148] Top shape: 24 192 14 14 (903168)
I0403 15:09:41.426316 14178 net.cpp:156] Memory required for data: 861623328
I0403 15:09:41.426331 14178 layer_factory.hpp:77] Creating layer inception_4a/3x3_reduce
I0403 15:09:41.426352 14178 net.cpp:91] Creating Layer inception_4a/3x3_reduce
I0403 15:09:41.426367 14178 net.cpp:425] inception_4a/3x3_reduce <- pool3/3x3_s2_pool3/3x3_s2_0_split_1
I0403 15:09:41.426390 14178 net.cpp:399] inception_4a/3x3_reduce -> inception_4a/3x3_reduce
I0403 15:09:41.427692 14178 net.cpp:141] Setting up inception_4a/3x3_reduce
I0403 15:09:41.427723 14178 net.cpp:148] Top shape: 24 96 14 14 (451584)
I0403 15:09:41.427741 14178 net.cpp:156] Memory required for data: 863429664
I0403 15:09:41.427762 14178 layer_factory.hpp:77] Creating layer inception_4a/relu_3x3_reduce
I0403 15:09:41.427785 14178 net.cpp:91] Creating Layer inception_4a/relu_3x3_reduce
I0403 15:09:41.427803 14178 net.cpp:425] inception_4a/relu_3x3_reduce <- inception_4a/3x3_reduce
I0403 15:09:41.427820 14178 net.cpp:386] inception_4a/relu_3x3_reduce -> inception_4a/3x3_reduce (in-place)
I0403 15:09:41.428004 14178 net.cpp:141] Setting up inception_4a/relu_3x3_reduce
I0403 15:09:41.428032 14178 net.cpp:148] Top shape: 24 96 14 14 (451584)
I0403 15:09:41.428047 14178 net.cpp:156] Memory required for data: 865236000
I0403 15:09:41.428062 14178 layer_factory.hpp:77] Creating layer inception_4a/3x3
I0403 15:09:41.428086 14178 net.cpp:91] Creating Layer inception_4a/3x3
I0403 15:09:41.428104 14178 net.cpp:425] inception_4a/3x3 <- inception_4a/3x3_reduce
I0403 15:09:41.428128 14178 net.cpp:399] inception_4a/3x3 -> inception_4a/3x3
I0403 15:09:41.430867 14178 net.cpp:141] Setting up inception_4a/3x3
I0403 15:09:41.430901 14178 net.cpp:148] Top shape: 24 208 14 14 (978432)
I0403 15:09:41.430919 14178 net.cpp:156] Memory required for data: 869149728
I0403 15:09:41.430938 14178 layer_factory.hpp:77] Creating layer inception_4a/relu_3x3
I0403 15:09:41.430958 14178 net.cpp:91] Creating Layer inception_4a/relu_3x3
I0403 15:09:41.430974 14178 net.cpp:425] inception_4a/relu_3x3 <- inception_4a/3x3
I0403 15:09:41.430994 14178 net.cpp:386] inception_4a/relu_3x3 -> inception_4a/3x3 (in-place)
I0403 15:09:41.431283 14178 net.cpp:141] Setting up inception_4a/relu_3x3
I0403 15:09:41.431313 14178 net.cpp:148] Top shape: 24 208 14 14 (978432)
I0403 15:09:41.431330 14178 net.cpp:156] Memory required for data: 873063456
I0403 15:09:41.431347 14178 layer_factory.hpp:77] Creating layer inception_4a/5x5_reduce
I0403 15:09:41.431371 14178 net.cpp:91] Creating Layer inception_4a/5x5_reduce
I0403 15:09:41.431390 14178 net.cpp:425] inception_4a/5x5_reduce <- pool3/3x3_s2_pool3/3x3_s2_0_split_2
I0403 15:09:41.431409 14178 net.cpp:399] inception_4a/5x5_reduce -> inception_4a/5x5_reduce
I0403 15:09:41.432464 14178 net.cpp:141] Setting up inception_4a/5x5_reduce
I0403 15:09:41.432493 14178 net.cpp:148] Top shape: 24 16 14 14 (75264)
I0403 15:09:41.432509 14178 net.cpp:156] Memory required for data: 873364512
I0403 15:09:41.432529 14178 layer_factory.hpp:77] Creating layer inception_4a/relu_5x5_reduce
I0403 15:09:41.432548 14178 net.cpp:91] Creating Layer inception_4a/relu_5x5_reduce
I0403 15:09:41.432569 14178 net.cpp:425] inception_4a/relu_5x5_reduce <- inception_4a/5x5_reduce
I0403 15:09:41.432586 14178 net.cpp:386] inception_4a/relu_5x5_reduce -> inception_4a/5x5_reduce (in-place)
I0403 15:09:41.432775 14178 net.cpp:141] Setting up inception_4a/relu_5x5_reduce
I0403 15:09:41.432803 14178 net.cpp:148] Top shape: 24 16 14 14 (75264)
I0403 15:09:41.432819 14178 net.cpp:156] Memory required for data: 873665568
I0403 15:09:41.432835 14178 layer_factory.hpp:77] Creating layer inception_4a/5x5
I0403 15:09:41.432857 14178 net.cpp:91] Creating Layer inception_4a/5x5
I0403 15:09:41.432875 14178 net.cpp:425] inception_4a/5x5 <- inception_4a/5x5_reduce
I0403 15:09:41.432896 14178 net.cpp:399] inception_4a/5x5 -> inception_4a/5x5
I0403 15:09:41.434028 14178 net.cpp:141] Setting up inception_4a/5x5
I0403 15:09:41.434057 14178 net.cpp:148] Top shape: 24 48 14 14 (225792)
I0403 15:09:41.434073 14178 net.cpp:156] Memory required for data: 874568736
I0403 15:09:41.434093 14178 layer_factory.hpp:77] Creating layer inception_4a/relu_5x5
I0403 15:09:41.434115 14178 net.cpp:91] Creating Layer inception_4a/relu_5x5
I0403 15:09:41.434131 14178 net.cpp:425] inception_4a/relu_5x5 <- inception_4a/5x5
I0403 15:09:41.434149 14178 net.cpp:386] inception_4a/relu_5x5 -> inception_4a/5x5 (in-place)
I0403 15:09:41.434335 14178 net.cpp:141] Setting up inception_4a/relu_5x5
I0403 15:09:41.434363 14178 net.cpp:148] Top shape: 24 48 14 14 (225792)
I0403 15:09:41.434379 14178 net.cpp:156] Memory required for data: 875471904
I0403 15:09:41.434394 14178 layer_factory.hpp:77] Creating layer inception_4a/pool
I0403 15:09:41.434412 14178 net.cpp:91] Creating Layer inception_4a/pool
I0403 15:09:41.434428 14178 net.cpp:425] inception_4a/pool <- pool3/3x3_s2_pool3/3x3_s2_0_split_3
I0403 15:09:41.434449 14178 net.cpp:399] inception_4a/pool -> inception_4a/pool
I0403 15:09:41.434511 14178 net.cpp:141] Setting up inception_4a/pool
I0403 15:09:41.434541 14178 net.cpp:148] Top shape: 24 480 14 14 (2257920)
I0403 15:09:41.434556 14178 net.cpp:156] Memory required for data: 884503584
I0403 15:09:41.434571 14178 layer_factory.hpp:77] Creating layer inception_4a/pool_proj
I0403 15:09:41.434593 14178 net.cpp:91] Creating Layer inception_4a/pool_proj
I0403 15:09:41.434623 14178 net.cpp:425] inception_4a/pool_proj <- inception_4a/pool
I0403 15:09:41.434646 14178 net.cpp:399] inception_4a/pool_proj -> inception_4a/pool_proj
I0403 15:09:41.435881 14178 net.cpp:141] Setting up inception_4a/pool_proj
I0403 15:09:41.435915 14178 net.cpp:148] Top shape: 24 64 14 14 (301056)
I0403 15:09:41.435948 14178 net.cpp:156] Memory required for data: 885707808
I0403 15:09:41.435968 14178 layer_factory.hpp:77] Creating layer inception_4a/relu_pool_proj
I0403 15:09:41.435986 14178 net.cpp:91] Creating Layer inception_4a/relu_pool_proj
I0403 15:09:41.436002 14178 net.cpp:425] inception_4a/relu_pool_proj <- inception_4a/pool_proj
I0403 15:09:41.436019 14178 net.cpp:386] inception_4a/relu_pool_proj -> inception_4a/pool_proj (in-place)
I0403 15:09:41.436318 14178 net.cpp:141] Setting up inception_4a/relu_pool_proj
I0403 15:09:41.436347 14178 net.cpp:148] Top shape: 24 64 14 14 (301056)
I0403 15:09:41.436363 14178 net.cpp:156] Memory required for data: 886912032
I0403 15:09:41.436379 14178 layer_factory.hpp:77] Creating layer inception_4a/output
I0403 15:09:41.436396 14178 net.cpp:91] Creating Layer inception_4a/output
I0403 15:09:41.436413 14178 net.cpp:425] inception_4a/output <- inception_4a/1x1
I0403 15:09:41.436429 14178 net.cpp:425] inception_4a/output <- inception_4a/3x3
I0403 15:09:41.436444 14178 net.cpp:425] inception_4a/output <- inception_4a/5x5
I0403 15:09:41.436460 14178 net.cpp:425] inception_4a/output <- inception_4a/pool_proj
I0403 15:09:41.436476 14178 net.cpp:399] inception_4a/output -> inception_4a/output
I0403 15:09:41.436523 14178 net.cpp:141] Setting up inception_4a/output
I0403 15:09:41.436548 14178 net.cpp:148] Top shape: 24 512 14 14 (2408448)
I0403 15:09:41.436564 14178 net.cpp:156] Memory required for data: 896545824
I0403 15:09:41.436579 14178 layer_factory.hpp:77] Creating layer inception_4a/output_inception_4a/output_0_split
I0403 15:09:41.436604 14178 net.cpp:91] Creating Layer inception_4a/output_inception_4a/output_0_split
I0403 15:09:41.436622 14178 net.cpp:425] inception_4a/output_inception_4a/output_0_split <- inception_4a/output
I0403 15:09:41.436641 14178 net.cpp:399] inception_4a/output_inception_4a/output_0_split -> inception_4a/output_inception_4a/output_0_split_0
I0403 15:09:41.436661 14178 net.cpp:399] inception_4a/output_inception_4a/output_0_split -> inception_4a/output_inception_4a/output_0_split_1
I0403 15:09:41.436682 14178 net.cpp:399] inception_4a/output_inception_4a/output_0_split -> inception_4a/output_inception_4a/output_0_split_2
I0403 15:09:41.436704 14178 net.cpp:399] inception_4a/output_inception_4a/output_0_split -> inception_4a/output_inception_4a/output_0_split_3
I0403 15:09:41.436728 14178 net.cpp:399] inception_4a/output_inception_4a/output_0_split -> inception_4a/output_inception_4a/output_0_split_4
I0403 15:09:41.436826 14178 net.cpp:141] Setting up inception_4a/output_inception_4a/output_0_split
I0403 15:09:41.436852 14178 net.cpp:148] Top shape: 24 512 14 14 (2408448)
I0403 15:09:41.436868 14178 net.cpp:148] Top shape: 24 512 14 14 (2408448)
I0403 15:09:41.436884 14178 net.cpp:148] Top shape: 24 512 14 14 (2408448)
I0403 15:09:41.436900 14178 net.cpp:148] Top shape: 24 512 14 14 (2408448)
I0403 15:09:41.436916 14178 net.cpp:148] Top shape: 24 512 14 14 (2408448)
I0403 15:09:41.436930 14178 net.cpp:156] Memory required for data: 944714784
I0403 15:09:41.436944 14178 layer_factory.hpp:77] Creating layer loss1/ave_pool
I0403 15:09:41.436962 14178 net.cpp:91] Creating Layer loss1/ave_pool
I0403 15:09:41.436978 14178 net.cpp:425] loss1/ave_pool <- inception_4a/output_inception_4a/output_0_split_0
I0403 15:09:41.436998 14178 net.cpp:399] loss1/ave_pool -> loss1/ave_pool
I0403 15:09:41.437218 14178 net.cpp:141] Setting up loss1/ave_pool
I0403 15:09:41.437247 14178 net.cpp:148] Top shape: 24 512 4 4 (196608)
I0403 15:09:41.437264 14178 net.cpp:156] Memory required for data: 945501216
I0403 15:09:41.437278 14178 layer_factory.hpp:77] Creating layer loss1/conv
I0403 15:09:41.437304 14178 net.cpp:91] Creating Layer loss1/conv
I0403 15:09:41.437322 14178 net.cpp:425] loss1/conv <- loss1/ave_pool
I0403 15:09:41.437341 14178 net.cpp:399] loss1/conv -> loss1/conv
I0403 15:09:41.438807 14178 net.cpp:141] Setting up loss1/conv
I0403 15:09:41.438839 14178 net.cpp:148] Top shape: 24 128 4 4 (49152)
I0403 15:09:41.438858 14178 net.cpp:156] Memory required for data: 945697824
I0403 15:09:41.438894 14178 layer_factory.hpp:77] Creating layer loss1/relu_conv
I0403 15:09:41.438915 14178 net.cpp:91] Creating Layer loss1/relu_conv
I0403 15:09:41.438930 14178 net.cpp:425] loss1/relu_conv <- loss1/conv
I0403 15:09:41.438951 14178 net.cpp:386] loss1/relu_conv -> loss1/conv (in-place)
I0403 15:09:41.439242 14178 net.cpp:141] Setting up loss1/relu_conv
I0403 15:09:41.439271 14178 net.cpp:148] Top shape: 24 128 4 4 (49152)
I0403 15:09:41.439287 14178 net.cpp:156] Memory required for data: 945894432
I0403 15:09:41.439304 14178 layer_factory.hpp:77] Creating layer loss1/fc
I0403 15:09:41.439328 14178 net.cpp:91] Creating Layer loss1/fc
I0403 15:09:41.439347 14178 net.cpp:425] loss1/fc <- loss1/conv
I0403 15:09:41.439369 14178 net.cpp:399] loss1/fc -> loss1/fc
I0403 15:09:41.456792 14178 net.cpp:141] Setting up loss1/fc
I0403 15:09:41.456835 14178 net.cpp:148] Top shape: 24 1024 (24576)
I0403 15:09:41.456850 14178 net.cpp:156] Memory required for data: 945992736
I0403 15:09:41.456867 14178 layer_factory.hpp:77] Creating layer loss1/relu_fc
I0403 15:09:41.456887 14178 net.cpp:91] Creating Layer loss1/relu_fc
I0403 15:09:41.456902 14178 net.cpp:425] loss1/relu_fc <- loss1/fc
I0403 15:09:41.456919 14178 net.cpp:386] loss1/relu_fc -> loss1/fc (in-place)
I0403 15:09:41.457105 14178 net.cpp:141] Setting up loss1/relu_fc
I0403 15:09:41.457129 14178 net.cpp:148] Top shape: 24 1024 (24576)
I0403 15:09:41.457144 14178 net.cpp:156] Memory required for data: 946091040
I0403 15:09:41.457157 14178 layer_factory.hpp:77] Creating layer loss1/drop_fc
I0403 15:09:41.457182 14178 net.cpp:91] Creating Layer loss1/drop_fc
I0403 15:09:41.457200 14178 net.cpp:425] loss1/drop_fc <- loss1/fc
I0403 15:09:41.457221 14178 net.cpp:386] loss1/drop_fc -> loss1/fc (in-place)
I0403 15:09:41.457269 14178 net.cpp:141] Setting up loss1/drop_fc
I0403 15:09:41.457294 14178 net.cpp:148] Top shape: 24 1024 (24576)
I0403 15:09:41.457309 14178 net.cpp:156] Memory required for data: 946189344
I0403 15:09:41.457322 14178 layer_factory.hpp:77] Creating layer loss1/classifier_plantvillage
I0403 15:09:41.457343 14178 net.cpp:91] Creating Layer loss1/classifier_plantvillage
I0403 15:09:41.457360 14178 net.cpp:425] loss1/classifier_plantvillage <- loss1/fc
I0403 15:09:41.457378 14178 net.cpp:399] loss1/classifier_plantvillage -> loss1/classifier_plantvillage
I0403 15:09:41.458271 14178 net.cpp:141] Setting up loss1/classifier_plantvillage
I0403 15:09:41.458302 14178 net.cpp:148] Top shape: 24 38 (912)
I0403 15:09:41.458317 14178 net.cpp:156] Memory required for data: 946192992
I0403 15:09:41.458334 14178 layer_factory.hpp:77] Creating layer loss1/classifier_plantvillage_loss1/classifier_plantvillage_0_split
I0403 15:09:41.458351 14178 net.cpp:91] Creating Layer loss1/classifier_plantvillage_loss1/classifier_plantvillage_0_split
I0403 15:09:41.458366 14178 net.cpp:425] loss1/classifier_plantvillage_loss1/classifier_plantvillage_0_split <- loss1/classifier_plantvillage
I0403 15:09:41.458384 14178 net.cpp:399] loss1/classifier_plantvillage_loss1/classifier_plantvillage_0_split -> loss1/classifier_plantvillage_loss1/classifier_plantvillage_0_split_0
I0403 15:09:41.458405 14178 net.cpp:399] loss1/classifier_plantvillage_loss1/classifier_plantvillage_0_split -> loss1/classifier_plantvillage_loss1/classifier_plantvillage_0_split_1
I0403 15:09:41.458425 14178 net.cpp:399] loss1/classifier_plantvillage_loss1/classifier_plantvillage_0_split -> loss1/classifier_plantvillage_loss1/classifier_plantvillage_0_split_2
I0403 15:09:41.458487 14178 net.cpp:141] Setting up loss1/classifier_plantvillage_loss1/classifier_plantvillage_0_split
I0403 15:09:41.458509 14178 net.cpp:148] Top shape: 24 38 (912)
I0403 15:09:41.458524 14178 net.cpp:148] Top shape: 24 38 (912)
I0403 15:09:41.458539 14178 net.cpp:148] Top shape: 24 38 (912)
I0403 15:09:41.458551 14178 net.cpp:156] Memory required for data: 946203936
I0403 15:09:41.458564 14178 layer_factory.hpp:77] Creating layer inception_4b/1x1
I0403 15:09:41.458585 14178 net.cpp:91] Creating Layer inception_4b/1x1
I0403 15:09:41.458621 14178 net.cpp:425] inception_4b/1x1 <- inception_4a/output_inception_4a/output_0_split_1
I0403 15:09:41.458642 14178 net.cpp:399] inception_4b/1x1 -> inception_4b/1x1
I0403 15:09:41.460258 14178 net.cpp:141] Setting up inception_4b/1x1
I0403 15:09:41.460286 14178 net.cpp:148] Top shape: 24 160 14 14 (752640)
I0403 15:09:41.460302 14178 net.cpp:156] Memory required for data: 949214496
I0403 15:09:41.460320 14178 layer_factory.hpp:77] Creating layer inception_4b/relu_1x1
I0403 15:09:41.460338 14178 net.cpp:91] Creating Layer inception_4b/relu_1x1
I0403 15:09:41.460383 14178 net.cpp:425] inception_4b/relu_1x1 <- inception_4b/1x1
I0403 15:09:41.460400 14178 net.cpp:386] inception_4b/relu_1x1 -> inception_4b/1x1 (in-place)
I0403 15:09:41.460579 14178 net.cpp:141] Setting up inception_4b/relu_1x1
I0403 15:09:41.460608 14178 net.cpp:148] Top shape: 24 160 14 14 (752640)
I0403 15:09:41.460624 14178 net.cpp:156] Memory required for data: 952225056
I0403 15:09:41.460649 14178 layer_factory.hpp:77] Creating layer inception_4b/3x3_reduce
I0403 15:09:41.460670 14178 net.cpp:91] Creating Layer inception_4b/3x3_reduce
I0403 15:09:41.460686 14178 net.cpp:425] inception_4b/3x3_reduce <- inception_4a/output_inception_4a/output_0_split_2
I0403 15:09:41.460706 14178 net.cpp:399] inception_4b/3x3_reduce -> inception_4b/3x3_reduce
I0403 15:09:41.462029 14178 net.cpp:141] Setting up inception_4b/3x3_reduce
I0403 15:09:41.462056 14178 net.cpp:148] Top shape: 24 112 14 14 (526848)
I0403 15:09:41.462071 14178 net.cpp:156] Memory required for data: 954332448
I0403 15:09:41.462088 14178 layer_factory.hpp:77] Creating layer inception_4b/relu_3x3_reduce
I0403 15:09:41.462107 14178 net.cpp:91] Creating Layer inception_4b/relu_3x3_reduce
I0403 15:09:41.462123 14178 net.cpp:425] inception_4b/relu_3x3_reduce <- inception_4b/3x3_reduce
I0403 15:09:41.462141 14178 net.cpp:386] inception_4b/relu_3x3_reduce -> inception_4b/3x3_reduce (in-place)
I0403 15:09:41.462416 14178 net.cpp:141] Setting up inception_4b/relu_3x3_reduce
I0403 15:09:41.462441 14178 net.cpp:148] Top shape: 24 112 14 14 (526848)
I0403 15:09:41.462455 14178 net.cpp:156] Memory required for data: 956439840
I0403 15:09:41.462469 14178 layer_factory.hpp:77] Creating layer inception_4b/3x3
I0403 15:09:41.462491 14178 net.cpp:91] Creating Layer inception_4b/3x3
I0403 15:09:41.462507 14178 net.cpp:425] inception_4b/3x3 <- inception_4b/3x3_reduce
I0403 15:09:41.462527 14178 net.cpp:399] inception_4b/3x3 -> inception_4b/3x3
I0403 15:09:41.465442 14178 net.cpp:141] Setting up inception_4b/3x3
I0403 15:09:41.465471 14178 net.cpp:148] Top shape: 24 224 14 14 (1053696)
I0403 15:09:41.465487 14178 net.cpp:156] Memory required for data: 960654624
I0403 15:09:41.465504 14178 layer_factory.hpp:77] Creating layer inception_4b/relu_3x3
I0403 15:09:41.465523 14178 net.cpp:91] Creating Layer inception_4b/relu_3x3
I0403 15:09:41.465538 14178 net.cpp:425] inception_4b/relu_3x3 <- inception_4b/3x3
I0403 15:09:41.465556 14178 net.cpp:386] inception_4b/relu_3x3 -> inception_4b/3x3 (in-place)
I0403 15:09:41.465740 14178 net.cpp:141] Setting up inception_4b/relu_3x3
I0403 15:09:41.465764 14178 net.cpp:148] Top shape: 24 224 14 14 (1053696)
I0403 15:09:41.465778 14178 net.cpp:156] Memory required for data: 964869408
I0403 15:09:41.465791 14178 layer_factory.hpp:77] Creating layer inception_4b/5x5_reduce
I0403 15:09:41.465812 14178 net.cpp:91] Creating Layer inception_4b/5x5_reduce
I0403 15:09:41.465829 14178 net.cpp:425] inception_4b/5x5_reduce <- inception_4a/output_inception_4a/output_0_split_3
I0403 15:09:41.465850 14178 net.cpp:399] inception_4b/5x5_reduce -> inception_4b/5x5_reduce
I0403 15:09:41.466918 14178 net.cpp:141] Setting up inception_4b/5x5_reduce
I0403 15:09:41.466945 14178 net.cpp:148] Top shape: 24 24 14 14 (112896)
I0403 15:09:41.466959 14178 net.cpp:156] Memory required for data: 965320992
I0403 15:09:41.466976 14178 layer_factory.hpp:77] Creating layer inception_4b/relu_5x5_reduce
I0403 15:09:41.466996 14178 net.cpp:91] Creating Layer inception_4b/relu_5x5_reduce
I0403 15:09:41.467025 14178 net.cpp:425] inception_4b/relu_5x5_reduce <- inception_4b/5x5_reduce
I0403 15:09:41.467042 14178 net.cpp:386] inception_4b/relu_5x5_reduce -> inception_4b/5x5_reduce (in-place)
I0403 15:09:41.467221 14178 net.cpp:141] Setting up inception_4b/relu_5x5_reduce
I0403 15:09:41.467245 14178 net.cpp:148] Top shape: 24 24 14 14 (112896)
I0403 15:09:41.467259 14178 net.cpp:156] Memory required for data: 965772576
I0403 15:09:41.467272 14178 layer_factory.hpp:77] Creating layer inception_4b/5x5
I0403 15:09:41.467293 14178 net.cpp:91] Creating Layer inception_4b/5x5
I0403 15:09:41.467310 14178 net.cpp:425] inception_4b/5x5 <- inception_4b/5x5_reduce
I0403 15:09:41.467329 14178 net.cpp:399] inception_4b/5x5 -> inception_4b/5x5
I0403 15:09:41.468528 14178 net.cpp:141] Setting up inception_4b/5x5
I0403 15:09:41.468554 14178 net.cpp:148] Top shape: 24 64 14 14 (301056)
I0403 15:09:41.468569 14178 net.cpp:156] Memory required for data: 966976800
I0403 15:09:41.468586 14178 layer_factory.hpp:77] Creating layer inception_4b/relu_5x5
I0403 15:09:41.468606 14178 net.cpp:91] Creating Layer inception_4b/relu_5x5
I0403 15:09:41.468626 14178 net.cpp:425] inception_4b/relu_5x5 <- inception_4b/5x5
I0403 15:09:41.468642 14178 net.cpp:386] inception_4b/relu_5x5 -> inception_4b/5x5 (in-place)
I0403 15:09:41.468925 14178 net.cpp:141] Setting up inception_4b/relu_5x5
I0403 15:09:41.468950 14178 net.cpp:148] Top shape: 24 64 14 14 (301056)
I0403 15:09:41.468964 14178 net.cpp:156] Memory required for data: 968181024
I0403 15:09:41.468978 14178 layer_factory.hpp:77] Creating layer inception_4b/pool
I0403 15:09:41.468996 14178 net.cpp:91] Creating Layer inception_4b/pool
I0403 15:09:41.469010 14178 net.cpp:425] inception_4b/pool <- inception_4a/output_inception_4a/output_0_split_4
I0403 15:09:41.469029 14178 net.cpp:399] inception_4b/pool -> inception_4b/pool
I0403 15:09:41.469089 14178 net.cpp:141] Setting up inception_4b/pool
I0403 15:09:41.469115 14178 net.cpp:148] Top shape: 24 512 14 14 (2408448)
I0403 15:09:41.469130 14178 net.cpp:156] Memory required for data: 977814816
I0403 15:09:41.469143 14178 layer_factory.hpp:77] Creating layer inception_4b/pool_proj
I0403 15:09:41.469164 14178 net.cpp:91] Creating Layer inception_4b/pool_proj
I0403 15:09:41.469180 14178 net.cpp:425] inception_4b/pool_proj <- inception_4b/pool
I0403 15:09:41.469197 14178 net.cpp:399] inception_4b/pool_proj -> inception_4b/pool_proj
I0403 15:09:41.470374 14178 net.cpp:141] Setting up inception_4b/pool_proj
I0403 15:09:41.470402 14178 net.cpp:148] Top shape: 24 64 14 14 (301056)
I0403 15:09:41.470417 14178 net.cpp:156] Memory required for data: 979019040
I0403 15:09:41.470432 14178 layer_factory.hpp:77] Creating layer inception_4b/relu_pool_proj
I0403 15:09:41.470453 14178 net.cpp:91] Creating Layer inception_4b/relu_pool_proj
I0403 15:09:41.470468 14178 net.cpp:425] inception_4b/relu_pool_proj <- inception_4b/pool_proj
I0403 15:09:41.470485 14178 net.cpp:386] inception_4b/relu_pool_proj -> inception_4b/pool_proj (in-place)
I0403 15:09:41.470665 14178 net.cpp:141] Setting up inception_4b/relu_pool_proj
I0403 15:09:41.470690 14178 net.cpp:148] Top shape: 24 64 14 14 (301056)
I0403 15:09:41.470703 14178 net.cpp:156] Memory required for data: 980223264
I0403 15:09:41.470717 14178 layer_factory.hpp:77] Creating layer inception_4b/output
I0403 15:09:41.470736 14178 net.cpp:91] Creating Layer inception_4b/output
I0403 15:09:41.470751 14178 net.cpp:425] inception_4b/output <- inception_4b/1x1
I0403 15:09:41.470767 14178 net.cpp:425] inception_4b/output <- inception_4b/3x3
I0403 15:09:41.470782 14178 net.cpp:425] inception_4b/output <- inception_4b/5x5
I0403 15:09:41.470795 14178 net.cpp:425] inception_4b/output <- inception_4b/pool_proj
I0403 15:09:41.470811 14178 net.cpp:399] inception_4b/output -> inception_4b/output
I0403 15:09:41.470856 14178 net.cpp:141] Setting up inception_4b/output
I0403 15:09:41.470878 14178 net.cpp:148] Top shape: 24 512 14 14 (2408448)
I0403 15:09:41.470892 14178 net.cpp:156] Memory required for data: 989857056
I0403 15:09:41.470919 14178 layer_factory.hpp:77] Creating layer inception_4b/output_inception_4b/output_0_split
I0403 15:09:41.470937 14178 net.cpp:91] Creating Layer inception_4b/output_inception_4b/output_0_split
I0403 15:09:41.470950 14178 net.cpp:425] inception_4b/output_inception_4b/output_0_split <- inception_4b/output
I0403 15:09:41.470968 14178 net.cpp:399] inception_4b/output_inception_4b/output_0_split -> inception_4b/output_inception_4b/output_0_split_0
I0403 15:09:41.470988 14178 net.cpp:399] inception_4b/output_inception_4b/output_0_split -> inception_4b/output_inception_4b/output_0_split_1
I0403 15:09:41.471007 14178 net.cpp:399] inception_4b/output_inception_4b/output_0_split -> inception_4b/output_inception_4b/output_0_split_2
I0403 15:09:41.471026 14178 net.cpp:399] inception_4b/output_inception_4b/output_0_split -> inception_4b/output_inception_4b/output_0_split_3
I0403 15:09:41.471108 14178 net.cpp:141] Setting up inception_4b/output_inception_4b/output_0_split
I0403 15:09:41.471132 14178 net.cpp:148] Top shape: 24 512 14 14 (2408448)
I0403 15:09:41.471148 14178 net.cpp:148] Top shape: 24 512 14 14 (2408448)
I0403 15:09:41.471163 14178 net.cpp:148] Top shape: 24 512 14 14 (2408448)
I0403 15:09:41.471177 14178 net.cpp:148] Top shape: 24 512 14 14 (2408448)
I0403 15:09:41.471189 14178 net.cpp:156] Memory required for data: 1028392224
I0403 15:09:41.471204 14178 layer_factory.hpp:77] Creating layer inception_4c/1x1
I0403 15:09:41.471225 14178 net.cpp:91] Creating Layer inception_4c/1x1
I0403 15:09:41.471241 14178 net.cpp:425] inception_4c/1x1 <- inception_4b/output_inception_4b/output_0_split_0
I0403 15:09:41.471258 14178 net.cpp:399] inception_4c/1x1 -> inception_4c/1x1
I0403 15:09:41.472661 14178 net.cpp:141] Setting up inception_4c/1x1
I0403 15:09:41.472687 14178 net.cpp:148] Top shape: 24 128 14 14 (602112)
I0403 15:09:41.472703 14178 net.cpp:156] Memory required for data: 1030800672
I0403 15:09:41.472720 14178 layer_factory.hpp:77] Creating layer inception_4c/relu_1x1
I0403 15:09:41.472740 14178 net.cpp:91] Creating Layer inception_4c/relu_1x1
I0403 15:09:41.472755 14178 net.cpp:425] inception_4c/relu_1x1 <- inception_4c/1x1
I0403 15:09:41.472771 14178 net.cpp:386] inception_4c/relu_1x1 -> inception_4c/1x1 (in-place)
I0403 15:09:41.472947 14178 net.cpp:141] Setting up inception_4c/relu_1x1
I0403 15:09:41.472983 14178 net.cpp:148] Top shape: 24 128 14 14 (602112)
I0403 15:09:41.472997 14178 net.cpp:156] Memory required for data: 1033209120
I0403 15:09:41.473011 14178 layer_factory.hpp:77] Creating layer inception_4c/3x3_reduce
I0403 15:09:41.473032 14178 net.cpp:91] Creating Layer inception_4c/3x3_reduce
I0403 15:09:41.473049 14178 net.cpp:425] inception_4c/3x3_reduce <- inception_4b/output_inception_4b/output_0_split_1
I0403 15:09:41.473069 14178 net.cpp:399] inception_4c/3x3_reduce -> inception_4c/3x3_reduce
I0403 15:09:41.474983 14178 net.cpp:141] Setting up inception_4c/3x3_reduce
I0403 15:09:41.475010 14178 net.cpp:148] Top shape: 24 128 14 14 (602112)
I0403 15:09:41.475026 14178 net.cpp:156] Memory required for data: 1035617568
I0403 15:09:41.475044 14178 layer_factory.hpp:77] Creating layer inception_4c/relu_3x3_reduce
I0403 15:09:41.475060 14178 net.cpp:91] Creating Layer inception_4c/relu_3x3_reduce
I0403 15:09:41.475075 14178 net.cpp:425] inception_4c/relu_3x3_reduce <- inception_4c/3x3_reduce
I0403 15:09:41.475093 14178 net.cpp:386] inception_4c/relu_3x3_reduce -> inception_4c/3x3_reduce (in-place)
I0403 15:09:41.475375 14178 net.cpp:141] Setting up inception_4c/relu_3x3_reduce
I0403 15:09:41.475400 14178 net.cpp:148] Top shape: 24 128 14 14 (602112)
I0403 15:09:41.475415 14178 net.cpp:156] Memory required for data: 1038026016
I0403 15:09:41.475430 14178 layer_factory.hpp:77] Creating layer inception_4c/3x3
I0403 15:09:41.475452 14178 net.cpp:91] Creating Layer inception_4c/3x3
I0403 15:09:41.475469 14178 net.cpp:425] inception_4c/3x3 <- inception_4c/3x3_reduce
I0403 15:09:41.475489 14178 net.cpp:399] inception_4c/3x3 -> inception_4c/3x3
I0403 15:09:41.479091 14178 net.cpp:141] Setting up inception_4c/3x3
I0403 15:09:41.479132 14178 net.cpp:148] Top shape: 24 256 14 14 (1204224)
I0403 15:09:41.479148 14178 net.cpp:156] Memory required for data: 1042842912
I0403 15:09:41.479179 14178 layer_factory.hpp:77] Creating layer inception_4c/relu_3x3
I0403 15:09:41.479202 14178 net.cpp:91] Creating Layer inception_4c/relu_3x3
I0403 15:09:41.479219 14178 net.cpp:425] inception_4c/relu_3x3 <- inception_4c/3x3
I0403 15:09:41.479236 14178 net.cpp:386] inception_4c/relu_3x3 -> inception_4c/3x3 (in-place)
I0403 15:09:41.479419 14178 net.cpp:141] Setting up inception_4c/relu_3x3
I0403 15:09:41.479444 14178 net.cpp:148] Top shape: 24 256 14 14 (1204224)
I0403 15:09:41.479459 14178 net.cpp:156] Memory required for data: 1047659808
I0403 15:09:41.479472 14178 layer_factory.hpp:77] Creating layer inception_4c/5x5_reduce
I0403 15:09:41.479496 14178 net.cpp:91] Creating Layer inception_4c/5x5_reduce
I0403 15:09:41.479512 14178 net.cpp:425] inception_4c/5x5_reduce <- inception_4b/output_inception_4b/output_0_split_2
I0403 15:09:41.479532 14178 net.cpp:399] inception_4c/5x5_reduce -> inception_4c/5x5_reduce
I0403 15:09:41.480654 14178 net.cpp:141] Setting up inception_4c/5x5_reduce
I0403 15:09:41.480681 14178 net.cpp:148] Top shape: 24 24 14 14 (112896)
I0403 15:09:41.480696 14178 net.cpp:156] Memory required for data: 1048111392
I0403 15:09:41.480715 14178 layer_factory.hpp:77] Creating layer inception_4c/relu_5x5_reduce
I0403 15:09:41.480732 14178 net.cpp:91] Creating Layer inception_4c/relu_5x5_reduce
I0403 15:09:41.480747 14178 net.cpp:425] inception_4c/relu_5x5_reduce <- inception_4c/5x5_reduce
I0403 15:09:41.480767 14178 net.cpp:386] inception_4c/relu_5x5_reduce -> inception_4c/5x5_reduce (in-place)
I0403 15:09:41.480954 14178 net.cpp:141] Setting up inception_4c/relu_5x5_reduce
I0403 15:09:41.480978 14178 net.cpp:148] Top shape: 24 24 14 14 (112896)
I0403 15:09:41.480993 14178 net.cpp:156] Memory required for data: 1048562976
I0403 15:09:41.481008 14178 layer_factory.hpp:77] Creating layer inception_4c/5x5
I0403 15:09:41.481029 14178 net.cpp:91] Creating Layer inception_4c/5x5
I0403 15:09:41.481045 14178 net.cpp:425] inception_4c/5x5 <- inception_4c/5x5_reduce
I0403 15:09:41.481066 14178 net.cpp:399] inception_4c/5x5 -> inception_4c/5x5
I0403 15:09:41.482336 14178 net.cpp:141] Setting up inception_4c/5x5
I0403 15:09:41.482363 14178 net.cpp:148] Top shape: 24 64 14 14 (301056)
I0403 15:09:41.482378 14178 net.cpp:156] Memory required for data: 1049767200
I0403 15:09:41.482396 14178 layer_factory.hpp:77] Creating layer inception_4c/relu_5x5
I0403 15:09:41.482415 14178 net.cpp:91] Creating Layer inception_4c/relu_5x5
I0403 15:09:41.482431 14178 net.cpp:425] inception_4c/relu_5x5 <- inception_4c/5x5
I0403 15:09:41.482447 14178 net.cpp:386] inception_4c/relu_5x5 -> inception_4c/5x5 (in-place)
I0403 15:09:41.482743 14178 net.cpp:141] Setting up inception_4c/relu_5x5
I0403 15:09:41.482769 14178 net.cpp:148] Top shape: 24 64 14 14 (301056)
I0403 15:09:41.482784 14178 net.cpp:156] Memory required for data: 1050971424
I0403 15:09:41.482798 14178 layer_factory.hpp:77] Creating layer inception_4c/pool
I0403 15:09:41.482817 14178 net.cpp:91] Creating Layer inception_4c/pool
I0403 15:09:41.482834 14178 net.cpp:425] inception_4c/pool <- inception_4b/output_inception_4b/output_0_split_3
I0403 15:09:41.482851 14178 net.cpp:399] inception_4c/pool -> inception_4c/pool
I0403 15:09:41.482918 14178 net.cpp:141] Setting up inception_4c/pool
I0403 15:09:41.482942 14178 net.cpp:148] Top shape: 24 512 14 14 (2408448)
I0403 15:09:41.482956 14178 net.cpp:156] Memory required for data: 1060605216
I0403 15:09:41.482969 14178 layer_factory.hpp:77] Creating layer inception_4c/pool_proj
I0403 15:09:41.482990 14178 net.cpp:91] Creating Layer inception_4c/pool_proj
I0403 15:09:41.483007 14178 net.cpp:425] inception_4c/pool_proj <- inception_4c/pool
I0403 15:09:41.483028 14178 net.cpp:399] inception_4c/pool_proj -> inception_4c/pool_proj
I0403 15:09:41.484292 14178 net.cpp:141] Setting up inception_4c/pool_proj
I0403 15:09:41.484320 14178 net.cpp:148] Top shape: 24 64 14 14 (301056)
I0403 15:09:41.484350 14178 net.cpp:156] Memory required for data: 1061809440
I0403 15:09:41.484370 14178 layer_factory.hpp:77] Creating layer inception_4c/relu_pool_proj
I0403 15:09:41.484391 14178 net.cpp:91] Creating Layer inception_4c/relu_pool_proj
I0403 15:09:41.484410 14178 net.cpp:425] inception_4c/relu_pool_proj <- inception_4c/pool_proj
I0403 15:09:41.484427 14178 net.cpp:386] inception_4c/relu_pool_proj -> inception_4c/pool_proj (in-place)
I0403 15:09:41.484640 14178 net.cpp:141] Setting up inception_4c/relu_pool_proj
I0403 15:09:41.484665 14178 net.cpp:148] Top shape: 24 64 14 14 (301056)
I0403 15:09:41.484680 14178 net.cpp:156] Memory required for data: 1063013664
I0403 15:09:41.484694 14178 layer_factory.hpp:77] Creating layer inception_4c/output
I0403 15:09:41.484714 14178 net.cpp:91] Creating Layer inception_4c/output
I0403 15:09:41.484730 14178 net.cpp:425] inception_4c/output <- inception_4c/1x1
I0403 15:09:41.484746 14178 net.cpp:425] inception_4c/output <- inception_4c/3x3
I0403 15:09:41.484762 14178 net.cpp:425] inception_4c/output <- inception_4c/5x5
I0403 15:09:41.484778 14178 net.cpp:425] inception_4c/output <- inception_4c/pool_proj
I0403 15:09:41.484794 14178 net.cpp:399] inception_4c/output -> inception_4c/output
I0403 15:09:41.484843 14178 net.cpp:141] Setting up inception_4c/output
I0403 15:09:41.484868 14178 net.cpp:148] Top shape: 24 512 14 14 (2408448)
I0403 15:09:41.484881 14178 net.cpp:156] Memory required for data: 1072647456
I0403 15:09:41.484895 14178 layer_factory.hpp:77] Creating layer inception_4c/output_inception_4c/output_0_split
I0403 15:09:41.484911 14178 net.cpp:91] Creating Layer inception_4c/output_inception_4c/output_0_split
I0403 15:09:41.484926 14178 net.cpp:425] inception_4c/output_inception_4c/output_0_split <- inception_4c/output
I0403 15:09:41.484946 14178 net.cpp:399] inception_4c/output_inception_4c/output_0_split -> inception_4c/output_inception_4c/output_0_split_0
I0403 15:09:41.484966 14178 net.cpp:399] inception_4c/output_inception_4c/output_0_split -> inception_4c/output_inception_4c/output_0_split_1
I0403 15:09:41.484987 14178 net.cpp:399] inception_4c/output_inception_4c/output_0_split -> inception_4c/output_inception_4c/output_0_split_2
I0403 15:09:41.485007 14178 net.cpp:399] inception_4c/output_inception_4c/output_0_split -> inception_4c/output_inception_4c/output_0_split_3
I0403 15:09:41.485097 14178 net.cpp:141] Setting up inception_4c/output_inception_4c/output_0_split
I0403 15:09:41.485122 14178 net.cpp:148] Top shape: 24 512 14 14 (2408448)
I0403 15:09:41.485139 14178 net.cpp:148] Top shape: 24 512 14 14 (2408448)
I0403 15:09:41.485155 14178 net.cpp:148] Top shape: 24 512 14 14 (2408448)
I0403 15:09:41.485170 14178 net.cpp:148] Top shape: 24 512 14 14 (2408448)
I0403 15:09:41.485183 14178 net.cpp:156] Memory required for data: 1111182624
I0403 15:09:41.485198 14178 layer_factory.hpp:77] Creating layer inception_4d/1x1
I0403 15:09:41.485219 14178 net.cpp:91] Creating Layer inception_4d/1x1
I0403 15:09:41.485236 14178 net.cpp:425] inception_4d/1x1 <- inception_4c/output_inception_4c/output_0_split_0
I0403 15:09:41.485255 14178 net.cpp:399] inception_4d/1x1 -> inception_4d/1x1
I0403 15:09:41.486701 14178 net.cpp:141] Setting up inception_4d/1x1
I0403 15:09:41.486732 14178 net.cpp:148] Top shape: 24 112 14 14 (526848)
I0403 15:09:41.486748 14178 net.cpp:156] Memory required for data: 1113290016
I0403 15:09:41.486766 14178 layer_factory.hpp:77] Creating layer inception_4d/relu_1x1
I0403 15:09:41.486785 14178 net.cpp:91] Creating Layer inception_4d/relu_1x1
I0403 15:09:41.486801 14178 net.cpp:425] inception_4d/relu_1x1 <- inception_4d/1x1
I0403 15:09:41.486820 14178 net.cpp:386] inception_4d/relu_1x1 -> inception_4d/1x1 (in-place)
I0403 15:09:41.487015 14178 net.cpp:141] Setting up inception_4d/relu_1x1
I0403 15:09:41.487040 14178 net.cpp:148] Top shape: 24 112 14 14 (526848)
I0403 15:09:41.487056 14178 net.cpp:156] Memory required for data: 1115397408
I0403 15:09:41.487071 14178 layer_factory.hpp:77] Creating layer inception_4d/3x3_reduce
I0403 15:09:41.487107 14178 net.cpp:91] Creating Layer inception_4d/3x3_reduce
I0403 15:09:41.487126 14178 net.cpp:425] inception_4d/3x3_reduce <- inception_4c/output_inception_4c/output_0_split_1
I0403 15:09:41.487148 14178 net.cpp:399] inception_4d/3x3_reduce -> inception_4d/3x3_reduce
I0403 15:09:41.488730 14178 net.cpp:141] Setting up inception_4d/3x3_reduce
I0403 15:09:41.488760 14178 net.cpp:148] Top shape: 24 144 14 14 (677376)
I0403 15:09:41.488777 14178 net.cpp:156] Memory required for data: 1118106912
I0403 15:09:41.488795 14178 layer_factory.hpp:77] Creating layer inception_4d/relu_3x3_reduce
I0403 15:09:41.488813 14178 net.cpp:91] Creating Layer inception_4d/relu_3x3_reduce
I0403 15:09:41.488829 14178 net.cpp:425] inception_4d/relu_3x3_reduce <- inception_4d/3x3_reduce
I0403 15:09:41.488847 14178 net.cpp:386] inception_4d/relu_3x3_reduce -> inception_4d/3x3_reduce (in-place)
I0403 15:09:41.489150 14178 net.cpp:141] Setting up inception_4d/relu_3x3_reduce
I0403 15:09:41.489178 14178 net.cpp:148] Top shape: 24 144 14 14 (677376)
I0403 15:09:41.489193 14178 net.cpp:156] Memory required for data: 1120816416
I0403 15:09:41.489208 14178 layer_factory.hpp:77] Creating layer inception_4d/3x3
I0403 15:09:41.489228 14178 net.cpp:91] Creating Layer inception_4d/3x3
I0403 15:09:41.489245 14178 net.cpp:425] inception_4d/3x3 <- inception_4d/3x3_reduce
I0403 15:09:41.489267 14178 net.cpp:399] inception_4d/3x3 -> inception_4d/3x3
I0403 15:09:41.493679 14178 net.cpp:141] Setting up inception_4d/3x3
I0403 15:09:41.493708 14178 net.cpp:148] Top shape: 24 288 14 14 (1354752)
I0403 15:09:41.493724 14178 net.cpp:156] Memory required for data: 1126235424
I0403 15:09:41.493742 14178 layer_factory.hpp:77] Creating layer inception_4d/relu_3x3
I0403 15:09:41.493760 14178 net.cpp:91] Creating Layer inception_4d/relu_3x3
I0403 15:09:41.493777 14178 net.cpp:425] inception_4d/relu_3x3 <- inception_4d/3x3
I0403 15:09:41.493795 14178 net.cpp:386] inception_4d/relu_3x3 -> inception_4d/3x3 (in-place)
I0403 15:09:41.493989 14178 net.cpp:141] Setting up inception_4d/relu_3x3
I0403 15:09:41.494015 14178 net.cpp:148] Top shape: 24 288 14 14 (1354752)
I0403 15:09:41.494029 14178 net.cpp:156] Memory required for data: 1131654432
I0403 15:09:41.494045 14178 layer_factory.hpp:77] Creating layer inception_4d/5x5_reduce
I0403 15:09:41.494066 14178 net.cpp:91] Creating Layer inception_4d/5x5_reduce
I0403 15:09:41.494084 14178 net.cpp:425] inception_4d/5x5_reduce <- inception_4c/output_inception_4c/output_0_split_2
I0403 15:09:41.494107 14178 net.cpp:399] inception_4d/5x5_reduce -> inception_4d/5x5_reduce
I0403 15:09:41.495316 14178 net.cpp:141] Setting up inception_4d/5x5_reduce
I0403 15:09:41.495347 14178 net.cpp:148] Top shape: 24 32 14 14 (150528)
I0403 15:09:41.495362 14178 net.cpp:156] Memory required for data: 1132256544
I0403 15:09:41.495380 14178 layer_factory.hpp:77] Creating layer inception_4d/relu_5x5_reduce
I0403 15:09:41.495398 14178 net.cpp:91] Creating Layer inception_4d/relu_5x5_reduce
I0403 15:09:41.495412 14178 net.cpp:425] inception_4d/relu_5x5_reduce <- inception_4d/5x5_reduce
I0403 15:09:41.495431 14178 net.cpp:386] inception_4d/relu_5x5_reduce -> inception_4d/5x5_reduce (in-place)
I0403 15:09:41.495627 14178 net.cpp:141] Setting up inception_4d/relu_5x5_reduce
I0403 15:09:41.495653 14178 net.cpp:148] Top shape: 24 32 14 14 (150528)
I0403 15:09:41.495667 14178 net.cpp:156] Memory required for data: 1132858656
I0403 15:09:41.495682 14178 layer_factory.hpp:77] Creating layer inception_4d/5x5
I0403 15:09:41.495704 14178 net.cpp:91] Creating Layer inception_4d/5x5
I0403 15:09:41.495721 14178 net.cpp:425] inception_4d/5x5 <- inception_4d/5x5_reduce
I0403 15:09:41.495743 14178 net.cpp:399] inception_4d/5x5 -> inception_4d/5x5
I0403 15:09:41.497251 14178 net.cpp:141] Setting up inception_4d/5x5
I0403 15:09:41.497279 14178 net.cpp:148] Top shape: 24 64 14 14 (301056)
I0403 15:09:41.497298 14178 net.cpp:156] Memory required for data: 1134062880
I0403 15:09:41.497316 14178 layer_factory.hpp:77] Creating layer inception_4d/relu_5x5
I0403 15:09:41.497352 14178 net.cpp:91] Creating Layer inception_4d/relu_5x5
I0403 15:09:41.497370 14178 net.cpp:425] inception_4d/relu_5x5 <- inception_4d/5x5
I0403 15:09:41.497387 14178 net.cpp:386] inception_4d/relu_5x5 -> inception_4d/5x5 (in-place)
I0403 15:09:41.497695 14178 net.cpp:141] Setting up inception_4d/relu_5x5
I0403 15:09:41.497721 14178 net.cpp:148] Top shape: 24 64 14 14 (301056)
I0403 15:09:41.497736 14178 net.cpp:156] Memory required for data: 1135267104
I0403 15:09:41.497750 14178 layer_factory.hpp:77] Creating layer inception_4d/pool
I0403 15:09:41.497769 14178 net.cpp:91] Creating Layer inception_4d/pool
I0403 15:09:41.497786 14178 net.cpp:425] inception_4d/pool <- inception_4c/output_inception_4c/output_0_split_3
I0403 15:09:41.497803 14178 net.cpp:399] inception_4d/pool -> inception_4d/pool
I0403 15:09:41.497874 14178 net.cpp:141] Setting up inception_4d/pool
I0403 15:09:41.497896 14178 net.cpp:148] Top shape: 24 512 14 14 (2408448)
I0403 15:09:41.497911 14178 net.cpp:156] Memory required for data: 1144900896
I0403 15:09:41.497925 14178 layer_factory.hpp:77] Creating layer inception_4d/pool_proj
I0403 15:09:41.497947 14178 net.cpp:91] Creating Layer inception_4d/pool_proj
I0403 15:09:41.497963 14178 net.cpp:425] inception_4d/pool_proj <- inception_4d/pool
I0403 15:09:41.497983 14178 net.cpp:399] inception_4d/pool_proj -> inception_4d/pool_proj
I0403 15:09:41.499788 14178 net.cpp:141] Setting up inception_4d/pool_proj
I0403 15:09:41.499815 14178 net.cpp:148] Top shape: 24 64 14 14 (301056)
I0403 15:09:41.499830 14178 net.cpp:156] Memory required for data: 1146105120
I0403 15:09:41.499848 14178 layer_factory.hpp:77] Creating layer inception_4d/relu_pool_proj
I0403 15:09:41.499866 14178 net.cpp:91] Creating Layer inception_4d/relu_pool_proj
I0403 15:09:41.499881 14178 net.cpp:425] inception_4d/relu_pool_proj <- inception_4d/pool_proj
I0403 15:09:41.499900 14178 net.cpp:386] inception_4d/relu_pool_proj -> inception_4d/pool_proj (in-place)
I0403 15:09:41.500090 14178 net.cpp:141] Setting up inception_4d/relu_pool_proj
I0403 15:09:41.500115 14178 net.cpp:148] Top shape: 24 64 14 14 (301056)
I0403 15:09:41.500129 14178 net.cpp:156] Memory required for data: 1147309344
I0403 15:09:41.500144 14178 layer_factory.hpp:77] Creating layer inception_4d/output
I0403 15:09:41.500161 14178 net.cpp:91] Creating Layer inception_4d/output
I0403 15:09:41.500175 14178 net.cpp:425] inception_4d/output <- inception_4d/1x1
I0403 15:09:41.500195 14178 net.cpp:425] inception_4d/output <- inception_4d/3x3
I0403 15:09:41.500211 14178 net.cpp:425] inception_4d/output <- inception_4d/5x5
I0403 15:09:41.500226 14178 net.cpp:425] inception_4d/output <- inception_4d/pool_proj
I0403 15:09:41.500242 14178 net.cpp:399] inception_4d/output -> inception_4d/output
I0403 15:09:41.500289 14178 net.cpp:141] Setting up inception_4d/output
I0403 15:09:41.500315 14178 net.cpp:148] Top shape: 24 528 14 14 (2483712)
I0403 15:09:41.500330 14178 net.cpp:156] Memory required for data: 1157244192
I0403 15:09:41.500344 14178 layer_factory.hpp:77] Creating layer inception_4d/output_inception_4d/output_0_split
I0403 15:09:41.500362 14178 net.cpp:91] Creating Layer inception_4d/output_inception_4d/output_0_split
I0403 15:09:41.500377 14178 net.cpp:425] inception_4d/output_inception_4d/output_0_split <- inception_4d/output
I0403 15:09:41.500396 14178 net.cpp:399] inception_4d/output_inception_4d/output_0_split -> inception_4d/output_inception_4d/output_0_split_0
I0403 15:09:41.500417 14178 net.cpp:399] inception_4d/output_inception_4d/output_0_split -> inception_4d/output_inception_4d/output_0_split_1
I0403 15:09:41.500437 14178 net.cpp:399] inception_4d/output_inception_4d/output_0_split -> inception_4d/output_inception_4d/output_0_split_2
I0403 15:09:41.500458 14178 net.cpp:399] inception_4d/output_inception_4d/output_0_split -> inception_4d/output_inception_4d/output_0_split_3
I0403 15:09:41.500476 14178 net.cpp:399] inception_4d/output_inception_4d/output_0_split -> inception_4d/output_inception_4d/output_0_split_4
I0403 15:09:41.500579 14178 net.cpp:141] Setting up inception_4d/output_inception_4d/output_0_split
I0403 15:09:41.500618 14178 net.cpp:148] Top shape: 24 528 14 14 (2483712)
I0403 15:09:41.500638 14178 net.cpp:148] Top shape: 24 528 14 14 (2483712)
I0403 15:09:41.500654 14178 net.cpp:148] Top shape: 24 528 14 14 (2483712)
I0403 15:09:41.500669 14178 net.cpp:148] Top shape: 24 528 14 14 (2483712)
I0403 15:09:41.500684 14178 net.cpp:148] Top shape: 24 528 14 14 (2483712)
I0403 15:09:41.500697 14178 net.cpp:156] Memory required for data: 1206918432
I0403 15:09:41.500710 14178 layer_factory.hpp:77] Creating layer loss2/ave_pool
I0403 15:09:41.500727 14178 net.cpp:91] Creating Layer loss2/ave_pool
I0403 15:09:41.500742 14178 net.cpp:425] loss2/ave_pool <- inception_4d/output_inception_4d/output_0_split_0
I0403 15:09:41.500762 14178 net.cpp:399] loss2/ave_pool -> loss2/ave_pool
I0403 15:09:41.501081 14178 net.cpp:141] Setting up loss2/ave_pool
I0403 15:09:41.501107 14178 net.cpp:148] Top shape: 24 528 4 4 (202752)
I0403 15:09:41.501122 14178 net.cpp:156] Memory required for data: 1207729440
I0403 15:09:41.501137 14178 layer_factory.hpp:77] Creating layer loss2/conv
I0403 15:09:41.501158 14178 net.cpp:91] Creating Layer loss2/conv
I0403 15:09:41.501176 14178 net.cpp:425] loss2/conv <- loss2/ave_pool
I0403 15:09:41.501196 14178 net.cpp:399] loss2/conv -> loss2/conv
I0403 15:09:41.503099 14178 net.cpp:141] Setting up loss2/conv
I0403 15:09:41.503128 14178 net.cpp:148] Top shape: 24 128 4 4 (49152)
I0403 15:09:41.503142 14178 net.cpp:156] Memory required for data: 1207926048
I0403 15:09:41.503160 14178 layer_factory.hpp:77] Creating layer loss2/relu_conv
I0403 15:09:41.503180 14178 net.cpp:91] Creating Layer loss2/relu_conv
I0403 15:09:41.503197 14178 net.cpp:425] loss2/relu_conv <- loss2/conv
I0403 15:09:41.503214 14178 net.cpp:386] loss2/relu_conv -> loss2/conv (in-place)
I0403 15:09:41.503504 14178 net.cpp:141] Setting up loss2/relu_conv
I0403 15:09:41.503530 14178 net.cpp:148] Top shape: 24 128 4 4 (49152)
I0403 15:09:41.503545 14178 net.cpp:156] Memory required for data: 1208122656
I0403 15:09:41.503559 14178 layer_factory.hpp:77] Creating layer loss2/fc
I0403 15:09:41.503581 14178 net.cpp:91] Creating Layer loss2/fc
I0403 15:09:41.503597 14178 net.cpp:425] loss2/fc <- loss2/conv
I0403 15:09:41.503621 14178 net.cpp:399] loss2/fc -> loss2/fc
I0403 15:09:41.521247 14178 net.cpp:141] Setting up loss2/fc
I0403 15:09:41.521294 14178 net.cpp:148] Top shape: 24 1024 (24576)
I0403 15:09:41.521309 14178 net.cpp:156] Memory required for data: 1208220960
I0403 15:09:41.521329 14178 layer_factory.hpp:77] Creating layer loss2/relu_fc
I0403 15:09:41.521348 14178 net.cpp:91] Creating Layer loss2/relu_fc
I0403 15:09:41.521365 14178 net.cpp:425] loss2/relu_fc <- loss2/fc
I0403 15:09:41.521386 14178 net.cpp:386] loss2/relu_fc -> loss2/fc (in-place)
I0403 15:09:41.521728 14178 net.cpp:141] Setting up loss2/relu_fc
I0403 15:09:41.521754 14178 net.cpp:148] Top shape: 24 1024 (24576)
I0403 15:09:41.521769 14178 net.cpp:156] Memory required for data: 1208319264
I0403 15:09:41.521783 14178 layer_factory.hpp:77] Creating layer loss2/drop_fc
I0403 15:09:41.521801 14178 net.cpp:91] Creating Layer loss2/drop_fc
I0403 15:09:41.521816 14178 net.cpp:425] loss2/drop_fc <- loss2/fc
I0403 15:09:41.521836 14178 net.cpp:386] loss2/drop_fc -> loss2/fc (in-place)
I0403 15:09:41.521886 14178 net.cpp:141] Setting up loss2/drop_fc
I0403 15:09:41.521909 14178 net.cpp:148] Top shape: 24 1024 (24576)
I0403 15:09:41.521924 14178 net.cpp:156] Memory required for data: 1208417568
I0403 15:09:41.521937 14178 layer_factory.hpp:77] Creating layer loss2/classifier_plantvillage
I0403 15:09:41.521960 14178 net.cpp:91] Creating Layer loss2/classifier_plantvillage
I0403 15:09:41.521975 14178 net.cpp:425] loss2/classifier_plantvillage <- loss2/fc
I0403 15:09:41.521996 14178 net.cpp:399] loss2/classifier_plantvillage -> loss2/classifier_plantvillage
I0403 15:09:41.522404 14178 net.cpp:141] Setting up loss2/classifier_plantvillage
I0403 15:09:41.522431 14178 net.cpp:148] Top shape: 24 38 (912)
I0403 15:09:41.522446 14178 net.cpp:156] Memory required for data: 1208421216
I0403 15:09:41.522487 14178 layer_factory.hpp:77] Creating layer loss2/classifier_plantvillage_loss2/classifier_plantvillage_0_split
I0403 15:09:41.522506 14178 net.cpp:91] Creating Layer loss2/classifier_plantvillage_loss2/classifier_plantvillage_0_split
I0403 15:09:41.522527 14178 net.cpp:425] loss2/classifier_plantvillage_loss2/classifier_plantvillage_0_split <- loss2/classifier_plantvillage
I0403 15:09:41.522544 14178 net.cpp:399] loss2/classifier_plantvillage_loss2/classifier_plantvillage_0_split -> loss2/classifier_plantvillage_loss2/classifier_plantvillage_0_split_0
I0403 15:09:41.522563 14178 net.cpp:399] loss2/classifier_plantvillage_loss2/classifier_plantvillage_0_split -> loss2/classifier_plantvillage_loss2/classifier_plantvillage_0_split_1
I0403 15:09:41.522583 14178 net.cpp:399] loss2/classifier_plantvillage_loss2/classifier_plantvillage_0_split -> loss2/classifier_plantvillage_loss2/classifier_plantvillage_0_split_2
I0403 15:09:41.522665 14178 net.cpp:141] Setting up loss2/classifier_plantvillage_loss2/classifier_plantvillage_0_split
I0403 15:09:41.522689 14178 net.cpp:148] Top shape: 24 38 (912)
I0403 15:09:41.522706 14178 net.cpp:148] Top shape: 24 38 (912)
I0403 15:09:41.522721 14178 net.cpp:148] Top shape: 24 38 (912)
I0403 15:09:41.522733 14178 net.cpp:156] Memory required for data: 1208432160
I0403 15:09:41.522747 14178 layer_factory.hpp:77] Creating layer inception_4e/1x1
I0403 15:09:41.522768 14178 net.cpp:91] Creating Layer inception_4e/1x1
I0403 15:09:41.522784 14178 net.cpp:425] inception_4e/1x1 <- inception_4d/output_inception_4d/output_0_split_1
I0403 15:09:41.522811 14178 net.cpp:399] inception_4e/1x1 -> inception_4e/1x1
I0403 15:09:41.524700 14178 net.cpp:141] Setting up inception_4e/1x1
I0403 15:09:41.524727 14178 net.cpp:148] Top shape: 24 256 14 14 (1204224)
I0403 15:09:41.524744 14178 net.cpp:156] Memory required for data: 1213249056
I0403 15:09:41.524760 14178 layer_factory.hpp:77] Creating layer inception_4e/relu_1x1
I0403 15:09:41.524780 14178 net.cpp:91] Creating Layer inception_4e/relu_1x1
I0403 15:09:41.524797 14178 net.cpp:425] inception_4e/relu_1x1 <- inception_4e/1x1
I0403 15:09:41.524814 14178 net.cpp:386] inception_4e/relu_1x1 -> inception_4e/1x1 (in-place)
I0403 15:09:41.525120 14178 net.cpp:141] Setting up inception_4e/relu_1x1
I0403 15:09:41.525146 14178 net.cpp:148] Top shape: 24 256 14 14 (1204224)
I0403 15:09:41.525161 14178 net.cpp:156] Memory required for data: 1218065952
I0403 15:09:41.525176 14178 layer_factory.hpp:77] Creating layer inception_4e/3x3_reduce
I0403 15:09:41.525197 14178 net.cpp:91] Creating Layer inception_4e/3x3_reduce
I0403 15:09:41.525215 14178 net.cpp:425] inception_4e/3x3_reduce <- inception_4d/output_inception_4d/output_0_split_2
I0403 15:09:41.525235 14178 net.cpp:399] inception_4e/3x3_reduce -> inception_4e/3x3_reduce
I0403 15:09:41.527391 14178 net.cpp:141] Setting up inception_4e/3x3_reduce
I0403 15:09:41.527418 14178 net.cpp:148] Top shape: 24 160 14 14 (752640)
I0403 15:09:41.527433 14178 net.cpp:156] Memory required for data: 1221076512
I0403 15:09:41.527451 14178 layer_factory.hpp:77] Creating layer inception_4e/relu_3x3_reduce
I0403 15:09:41.527470 14178 net.cpp:91] Creating Layer inception_4e/relu_3x3_reduce
I0403 15:09:41.527487 14178 net.cpp:425] inception_4e/relu_3x3_reduce <- inception_4e/3x3_reduce
I0403 15:09:41.527504 14178 net.cpp:386] inception_4e/relu_3x3_reduce -> inception_4e/3x3_reduce (in-place)
I0403 15:09:41.527695 14178 net.cpp:141] Setting up inception_4e/relu_3x3_reduce
I0403 15:09:41.527719 14178 net.cpp:148] Top shape: 24 160 14 14 (752640)
I0403 15:09:41.527734 14178 net.cpp:156] Memory required for data: 1224087072
I0403 15:09:41.527747 14178 layer_factory.hpp:77] Creating layer inception_4e/3x3
I0403 15:09:41.527770 14178 net.cpp:91] Creating Layer inception_4e/3x3
I0403 15:09:41.527787 14178 net.cpp:425] inception_4e/3x3 <- inception_4e/3x3_reduce
I0403 15:09:41.527804 14178 net.cpp:399] inception_4e/3x3 -> inception_4e/3x3
I0403 15:09:41.533121 14178 net.cpp:141] Setting up inception_4e/3x3
I0403 15:09:41.533162 14178 net.cpp:148] Top shape: 24 320 14 14 (1505280)
I0403 15:09:41.533179 14178 net.cpp:156] Memory required for data: 1230108192
I0403 15:09:41.533197 14178 layer_factory.hpp:77] Creating layer inception_4e/relu_3x3
I0403 15:09:41.533216 14178 net.cpp:91] Creating Layer inception_4e/relu_3x3
I0403 15:09:41.533233 14178 net.cpp:425] inception_4e/relu_3x3 <- inception_4e/3x3
I0403 15:09:41.533251 14178 net.cpp:386] inception_4e/relu_3x3 -> inception_4e/3x3 (in-place)
I0403 15:09:41.533555 14178 net.cpp:141] Setting up inception_4e/relu_3x3
I0403 15:09:41.533582 14178 net.cpp:148] Top shape: 24 320 14 14 (1505280)
I0403 15:09:41.533602 14178 net.cpp:156] Memory required for data: 1236129312
I0403 15:09:41.533618 14178 layer_factory.hpp:77] Creating layer inception_4e/5x5_reduce
I0403 15:09:41.533643 14178 net.cpp:91] Creating Layer inception_4e/5x5_reduce
I0403 15:09:41.533660 14178 net.cpp:425] inception_4e/5x5_reduce <- inception_4d/output_inception_4d/output_0_split_3
I0403 15:09:41.533679 14178 net.cpp:399] inception_4e/5x5_reduce -> inception_4e/5x5_reduce
I0403 15:09:41.534781 14178 net.cpp:141] Setting up inception_4e/5x5_reduce
I0403 15:09:41.534809 14178 net.cpp:148] Top shape: 24 32 14 14 (150528)
I0403 15:09:41.534824 14178 net.cpp:156] Memory required for data: 1236731424
I0403 15:09:41.534842 14178 layer_factory.hpp:77] Creating layer inception_4e/relu_5x5_reduce
I0403 15:09:41.534862 14178 net.cpp:91] Creating Layer inception_4e/relu_5x5_reduce
I0403 15:09:41.534879 14178 net.cpp:425] inception_4e/relu_5x5_reduce <- inception_4e/5x5_reduce
I0403 15:09:41.534895 14178 net.cpp:386] inception_4e/relu_5x5_reduce -> inception_4e/5x5_reduce (in-place)
I0403 15:09:41.535197 14178 net.cpp:141] Setting up inception_4e/relu_5x5_reduce
I0403 15:09:41.535223 14178 net.cpp:148] Top shape: 24 32 14 14 (150528)
I0403 15:09:41.535238 14178 net.cpp:156] Memory required for data: 1237333536
I0403 15:09:41.535251 14178 layer_factory.hpp:77] Creating layer inception_4e/5x5
I0403 15:09:41.535290 14178 net.cpp:91] Creating Layer inception_4e/5x5
I0403 15:09:41.535310 14178 net.cpp:425] inception_4e/5x5 <- inception_4e/5x5_reduce
I0403 15:09:41.535329 14178 net.cpp:399] inception_4e/5x5 -> inception_4e/5x5
I0403 15:09:41.537256 14178 net.cpp:141] Setting up inception_4e/5x5
I0403 15:09:41.537284 14178 net.cpp:148] Top shape: 24 128 14 14 (602112)
I0403 15:09:41.537300 14178 net.cpp:156] Memory required for data: 1239741984
I0403 15:09:41.537320 14178 layer_factory.hpp:77] Creating layer inception_4e/relu_5x5
I0403 15:09:41.537338 14178 net.cpp:91] Creating Layer inception_4e/relu_5x5
I0403 15:09:41.537355 14178 net.cpp:425] inception_4e/relu_5x5 <- inception_4e/5x5
I0403 15:09:41.537375 14178 net.cpp:386] inception_4e/relu_5x5 -> inception_4e/5x5 (in-place)
I0403 15:09:41.537583 14178 net.cpp:141] Setting up inception_4e/relu_5x5
I0403 15:09:41.537613 14178 net.cpp:148] Top shape: 24 128 14 14 (602112)
I0403 15:09:41.537631 14178 net.cpp:156] Memory required for data: 1242150432
I0403 15:09:41.537645 14178 layer_factory.hpp:77] Creating layer inception_4e/pool
I0403 15:09:41.537667 14178 net.cpp:91] Creating Layer inception_4e/pool
I0403 15:09:41.537683 14178 net.cpp:425] inception_4e/pool <- inception_4d/output_inception_4d/output_0_split_4
I0403 15:09:41.537713 14178 net.cpp:399] inception_4e/pool -> inception_4e/pool
I0403 15:09:41.537786 14178 net.cpp:141] Setting up inception_4e/pool
I0403 15:09:41.537808 14178 net.cpp:148] Top shape: 24 528 14 14 (2483712)
I0403 15:09:41.537823 14178 net.cpp:156] Memory required for data: 1252085280
I0403 15:09:41.537837 14178 layer_factory.hpp:77] Creating layer inception_4e/pool_proj
I0403 15:09:41.537858 14178 net.cpp:91] Creating Layer inception_4e/pool_proj
I0403 15:09:41.537875 14178 net.cpp:425] inception_4e/pool_proj <- inception_4e/pool
I0403 15:09:41.537895 14178 net.cpp:399] inception_4e/pool_proj -> inception_4e/pool_proj
I0403 15:09:41.539430 14178 net.cpp:141] Setting up inception_4e/pool_proj
I0403 15:09:41.539458 14178 net.cpp:148] Top shape: 24 128 14 14 (602112)
I0403 15:09:41.539486 14178 net.cpp:156] Memory required for data: 1254493728
I0403 15:09:41.539505 14178 layer_factory.hpp:77] Creating layer inception_4e/relu_pool_proj
I0403 15:09:41.539522 14178 net.cpp:91] Creating Layer inception_4e/relu_pool_proj
I0403 15:09:41.539537 14178 net.cpp:425] inception_4e/relu_pool_proj <- inception_4e/pool_proj
I0403 15:09:41.539556 14178 net.cpp:386] inception_4e/relu_pool_proj -> inception_4e/pool_proj (in-place)
I0403 15:09:41.539860 14178 net.cpp:141] Setting up inception_4e/relu_pool_proj
I0403 15:09:41.539886 14178 net.cpp:148] Top shape: 24 128 14 14 (602112)
I0403 15:09:41.539901 14178 net.cpp:156] Memory required for data: 1256902176
I0403 15:09:41.539916 14178 layer_factory.hpp:77] Creating layer inception_4e/output
I0403 15:09:41.539932 14178 net.cpp:91] Creating Layer inception_4e/output
I0403 15:09:41.539948 14178 net.cpp:425] inception_4e/output <- inception_4e/1x1
I0403 15:09:41.539964 14178 net.cpp:425] inception_4e/output <- inception_4e/3x3
I0403 15:09:41.539979 14178 net.cpp:425] inception_4e/output <- inception_4e/5x5
I0403 15:09:41.539995 14178 net.cpp:425] inception_4e/output <- inception_4e/pool_proj
I0403 15:09:41.540014 14178 net.cpp:399] inception_4e/output -> inception_4e/output
I0403 15:09:41.540063 14178 net.cpp:141] Setting up inception_4e/output
I0403 15:09:41.540088 14178 net.cpp:148] Top shape: 24 832 14 14 (3913728)
I0403 15:09:41.540104 14178 net.cpp:156] Memory required for data: 1272557088
I0403 15:09:41.540118 14178 layer_factory.hpp:77] Creating layer pool4/3x3_s2
I0403 15:09:41.540134 14178 net.cpp:91] Creating Layer pool4/3x3_s2
I0403 15:09:41.540149 14178 net.cpp:425] pool4/3x3_s2 <- inception_4e/output
I0403 15:09:41.540168 14178 net.cpp:399] pool4/3x3_s2 -> pool4/3x3_s2
I0403 15:09:41.540238 14178 net.cpp:141] Setting up pool4/3x3_s2
I0403 15:09:41.540261 14178 net.cpp:148] Top shape: 24 832 7 7 (978432)
I0403 15:09:41.540276 14178 net.cpp:156] Memory required for data: 1276470816
I0403 15:09:41.540292 14178 layer_factory.hpp:77] Creating layer pool4/3x3_s2_pool4/3x3_s2_0_split
I0403 15:09:41.540308 14178 net.cpp:91] Creating Layer pool4/3x3_s2_pool4/3x3_s2_0_split
I0403 15:09:41.540323 14178 net.cpp:425] pool4/3x3_s2_pool4/3x3_s2_0_split <- pool4/3x3_s2
I0403 15:09:41.540341 14178 net.cpp:399] pool4/3x3_s2_pool4/3x3_s2_0_split -> pool4/3x3_s2_pool4/3x3_s2_0_split_0
I0403 15:09:41.540362 14178 net.cpp:399] pool4/3x3_s2_pool4/3x3_s2_0_split -> pool4/3x3_s2_pool4/3x3_s2_0_split_1
I0403 15:09:41.540381 14178 net.cpp:399] pool4/3x3_s2_pool4/3x3_s2_0_split -> pool4/3x3_s2_pool4/3x3_s2_0_split_2
I0403 15:09:41.540400 14178 net.cpp:399] pool4/3x3_s2_pool4/3x3_s2_0_split -> pool4/3x3_s2_pool4/3x3_s2_0_split_3
I0403 15:09:41.540498 14178 net.cpp:141] Setting up pool4/3x3_s2_pool4/3x3_s2_0_split
I0403 15:09:41.540520 14178 net.cpp:148] Top shape: 24 832 7 7 (978432)
I0403 15:09:41.540535 14178 net.cpp:148] Top shape: 24 832 7 7 (978432)
I0403 15:09:41.540550 14178 net.cpp:148] Top shape: 24 832 7 7 (978432)
I0403 15:09:41.540565 14178 net.cpp:148] Top shape: 24 832 7 7 (978432)
I0403 15:09:41.540580 14178 net.cpp:156] Memory required for data: 1292125728
I0403 15:09:41.540593 14178 layer_factory.hpp:77] Creating layer inception_5a/1x1
I0403 15:09:41.540619 14178 net.cpp:91] Creating Layer inception_5a/1x1
I0403 15:09:41.540637 14178 net.cpp:425] inception_5a/1x1 <- pool4/3x3_s2_pool4/3x3_s2_0_split_0
I0403 15:09:41.540658 14178 net.cpp:399] inception_5a/1x1 -> inception_5a/1x1
I0403 15:09:41.543545 14178 net.cpp:141] Setting up inception_5a/1x1
I0403 15:09:41.543572 14178 net.cpp:148] Top shape: 24 256 7 7 (301056)
I0403 15:09:41.543587 14178 net.cpp:156] Memory required for data: 1293329952
I0403 15:09:41.543611 14178 layer_factory.hpp:77] Creating layer inception_5a/relu_1x1
I0403 15:09:41.543632 14178 net.cpp:91] Creating Layer inception_5a/relu_1x1
I0403 15:09:41.543648 14178 net.cpp:425] inception_5a/relu_1x1 <- inception_5a/1x1
I0403 15:09:41.543665 14178 net.cpp:386] inception_5a/relu_1x1 -> inception_5a/1x1 (in-place)
I0403 15:09:41.543987 14178 net.cpp:141] Setting up inception_5a/relu_1x1
I0403 15:09:41.544013 14178 net.cpp:148] Top shape: 24 256 7 7 (301056)
I0403 15:09:41.544028 14178 net.cpp:156] Memory required for data: 1294534176
I0403 15:09:41.544041 14178 layer_factory.hpp:77] Creating layer inception_5a/3x3_reduce
I0403 15:09:41.544064 14178 net.cpp:91] Creating Layer inception_5a/3x3_reduce
I0403 15:09:41.544081 14178 net.cpp:425] inception_5a/3x3_reduce <- pool4/3x3_s2_pool4/3x3_s2_0_split_1
I0403 15:09:41.544102 14178 net.cpp:399] inception_5a/3x3_reduce -> inception_5a/3x3_reduce
I0403 15:09:41.546594 14178 net.cpp:141] Setting up inception_5a/3x3_reduce
I0403 15:09:41.546628 14178 net.cpp:148] Top shape: 24 160 7 7 (188160)
I0403 15:09:41.546644 14178 net.cpp:156] Memory required for data: 1295286816
I0403 15:09:41.546663 14178 layer_factory.hpp:77] Creating layer inception_5a/relu_3x3_reduce
I0403 15:09:41.546680 14178 net.cpp:91] Creating Layer inception_5a/relu_3x3_reduce
I0403 15:09:41.546699 14178 net.cpp:425] inception_5a/relu_3x3_reduce <- inception_5a/3x3_reduce
I0403 15:09:41.546715 14178 net.cpp:386] inception_5a/relu_3x3_reduce -> inception_5a/3x3_reduce (in-place)
I0403 15:09:41.546905 14178 net.cpp:141] Setting up inception_5a/relu_3x3_reduce
I0403 15:09:41.546928 14178 net.cpp:148] Top shape: 24 160 7 7 (188160)
I0403 15:09:41.546942 14178 net.cpp:156] Memory required for data: 1296039456
I0403 15:09:41.546957 14178 layer_factory.hpp:77] Creating layer inception_5a/3x3
I0403 15:09:41.546977 14178 net.cpp:91] Creating Layer inception_5a/3x3
I0403 15:09:41.546994 14178 net.cpp:425] inception_5a/3x3 <- inception_5a/3x3_reduce
I0403 15:09:41.547015 14178 net.cpp:399] inception_5a/3x3 -> inception_5a/3x3
I0403 15:09:41.551911 14178 net.cpp:141] Setting up inception_5a/3x3
I0403 15:09:41.551939 14178 net.cpp:148] Top shape: 24 320 7 7 (376320)
I0403 15:09:41.551954 14178 net.cpp:156] Memory required for data: 1297544736
I0403 15:09:41.551971 14178 layer_factory.hpp:77] Creating layer inception_5a/relu_3x3
I0403 15:09:41.551990 14178 net.cpp:91] Creating Layer inception_5a/relu_3x3
I0403 15:09:41.552005 14178 net.cpp:425] inception_5a/relu_3x3 <- inception_5a/3x3
I0403 15:09:41.552023 14178 net.cpp:386] inception_5a/relu_3x3 -> inception_5a/3x3 (in-place)
I0403 15:09:41.552315 14178 net.cpp:141] Setting up inception_5a/relu_3x3
I0403 15:09:41.552341 14178 net.cpp:148] Top shape: 24 320 7 7 (376320)
I0403 15:09:41.552356 14178 net.cpp:156] Memory required for data: 1299050016
I0403 15:09:41.552369 14178 layer_factory.hpp:77] Creating layer inception_5a/5x5_reduce
I0403 15:09:41.552391 14178 net.cpp:91] Creating Layer inception_5a/5x5_reduce
I0403 15:09:41.552407 14178 net.cpp:425] inception_5a/5x5_reduce <- pool4/3x3_s2_pool4/3x3_s2_0_split_2
I0403 15:09:41.552428 14178 net.cpp:399] inception_5a/5x5_reduce -> inception_5a/5x5_reduce
I0403 15:09:41.553603 14178 net.cpp:141] Setting up inception_5a/5x5_reduce
I0403 15:09:41.553633 14178 net.cpp:148] Top shape: 24 32 7 7 (37632)
I0403 15:09:41.553649 14178 net.cpp:156] Memory required for data: 1299200544
I0403 15:09:41.553666 14178 layer_factory.hpp:77] Creating layer inception_5a/relu_5x5_reduce
I0403 15:09:41.553683 14178 net.cpp:91] Creating Layer inception_5a/relu_5x5_reduce
I0403 15:09:41.553699 14178 net.cpp:425] inception_5a/relu_5x5_reduce <- inception_5a/5x5_reduce
I0403 15:09:41.553715 14178 net.cpp:386] inception_5a/relu_5x5_reduce -> inception_5a/5x5_reduce (in-place)
I0403 15:09:41.554018 14178 net.cpp:141] Setting up inception_5a/relu_5x5_reduce
I0403 15:09:41.554044 14178 net.cpp:148] Top shape: 24 32 7 7 (37632)
I0403 15:09:41.554057 14178 net.cpp:156] Memory required for data: 1299351072
I0403 15:09:41.554071 14178 layer_factory.hpp:77] Creating layer inception_5a/5x5
I0403 15:09:41.554092 14178 net.cpp:91] Creating Layer inception_5a/5x5
I0403 15:09:41.554108 14178 net.cpp:425] inception_5a/5x5 <- inception_5a/5x5_reduce
I0403 15:09:41.554129 14178 net.cpp:399] inception_5a/5x5 -> inception_5a/5x5
I0403 15:09:41.555845 14178 net.cpp:141] Setting up inception_5a/5x5
I0403 15:09:41.555884 14178 net.cpp:148] Top shape: 24 128 7 7 (150528)
I0403 15:09:41.555899 14178 net.cpp:156] Memory required for data: 1299953184
I0403 15:09:41.555917 14178 layer_factory.hpp:77] Creating layer inception_5a/relu_5x5
I0403 15:09:41.555934 14178 net.cpp:91] Creating Layer inception_5a/relu_5x5
I0403 15:09:41.555949 14178 net.cpp:425] inception_5a/relu_5x5 <- inception_5a/5x5
I0403 15:09:41.555968 14178 net.cpp:386] inception_5a/relu_5x5 -> inception_5a/5x5 (in-place)
I0403 15:09:41.556159 14178 net.cpp:141] Setting up inception_5a/relu_5x5
I0403 15:09:41.556182 14178 net.cpp:148] Top shape: 24 128 7 7 (150528)
I0403 15:09:41.556196 14178 net.cpp:156] Memory required for data: 1300555296
I0403 15:09:41.556210 14178 layer_factory.hpp:77] Creating layer inception_5a/pool
I0403 15:09:41.556229 14178 net.cpp:91] Creating Layer inception_5a/pool
I0403 15:09:41.556246 14178 net.cpp:425] inception_5a/pool <- pool4/3x3_s2_pool4/3x3_s2_0_split_3
I0403 15:09:41.556262 14178 net.cpp:399] inception_5a/pool -> inception_5a/pool
I0403 15:09:41.556332 14178 net.cpp:141] Setting up inception_5a/pool
I0403 15:09:41.556355 14178 net.cpp:148] Top shape: 24 832 7 7 (978432)
I0403 15:09:41.556370 14178 net.cpp:156] Memory required for data: 1304469024
I0403 15:09:41.556382 14178 layer_factory.hpp:77] Creating layer inception_5a/pool_proj
I0403 15:09:41.556403 14178 net.cpp:91] Creating Layer inception_5a/pool_proj
I0403 15:09:41.556419 14178 net.cpp:425] inception_5a/pool_proj <- inception_5a/pool
I0403 15:09:41.556439 14178 net.cpp:399] inception_5a/pool_proj -> inception_5a/pool_proj
I0403 15:09:41.558693 14178 net.cpp:141] Setting up inception_5a/pool_proj
I0403 15:09:41.558724 14178 net.cpp:148] Top shape: 24 128 7 7 (150528)
I0403 15:09:41.558740 14178 net.cpp:156] Memory required for data: 1305071136
I0403 15:09:41.558758 14178 layer_factory.hpp:77] Creating layer inception_5a/relu_pool_proj
I0403 15:09:41.558775 14178 net.cpp:91] Creating Layer inception_5a/relu_pool_proj
I0403 15:09:41.558790 14178 net.cpp:425] inception_5a/relu_pool_proj <- inception_5a/pool_proj
I0403 15:09:41.558809 14178 net.cpp:386] inception_5a/relu_pool_proj -> inception_5a/pool_proj (in-place)
I0403 15:09:41.559101 14178 net.cpp:141] Setting up inception_5a/relu_pool_proj
I0403 15:09:41.559128 14178 net.cpp:148] Top shape: 24 128 7 7 (150528)
I0403 15:09:41.559144 14178 net.cpp:156] Memory required for data: 1305673248
I0403 15:09:41.559157 14178 layer_factory.hpp:77] Creating layer inception_5a/output
I0403 15:09:41.559173 14178 net.cpp:91] Creating Layer inception_5a/output
I0403 15:09:41.559188 14178 net.cpp:425] inception_5a/output <- inception_5a/1x1
I0403 15:09:41.559204 14178 net.cpp:425] inception_5a/output <- inception_5a/3x3
I0403 15:09:41.559219 14178 net.cpp:425] inception_5a/output <- inception_5a/5x5
I0403 15:09:41.559234 14178 net.cpp:425] inception_5a/output <- inception_5a/pool_proj
I0403 15:09:41.559252 14178 net.cpp:399] inception_5a/output -> inception_5a/output
I0403 15:09:41.559300 14178 net.cpp:141] Setting up inception_5a/output
I0403 15:09:41.559324 14178 net.cpp:148] Top shape: 24 832 7 7 (978432)
I0403 15:09:41.559336 14178 net.cpp:156] Memory required for data: 1309586976
I0403 15:09:41.559350 14178 layer_factory.hpp:77] Creating layer inception_5a/output_inception_5a/output_0_split
I0403 15:09:41.559368 14178 net.cpp:91] Creating Layer inception_5a/output_inception_5a/output_0_split
I0403 15:09:41.559384 14178 net.cpp:425] inception_5a/output_inception_5a/output_0_split <- inception_5a/output
I0403 15:09:41.559401 14178 net.cpp:399] inception_5a/output_inception_5a/output_0_split -> inception_5a/output_inception_5a/output_0_split_0
I0403 15:09:41.559418 14178 net.cpp:399] inception_5a/output_inception_5a/output_0_split -> inception_5a/output_inception_5a/output_0_split_1
I0403 15:09:41.559442 14178 net.cpp:399] inception_5a/output_inception_5a/output_0_split -> inception_5a/output_inception_5a/output_0_split_2
I0403 15:09:41.559463 14178 net.cpp:399] inception_5a/output_inception_5a/output_0_split -> inception_5a/output_inception_5a/output_0_split_3
I0403 15:09:41.559572 14178 net.cpp:141] Setting up inception_5a/output_inception_5a/output_0_split
I0403 15:09:41.559594 14178 net.cpp:148] Top shape: 24 832 7 7 (978432)
I0403 15:09:41.559615 14178 net.cpp:148] Top shape: 24 832 7 7 (978432)
I0403 15:09:41.559630 14178 net.cpp:148] Top shape: 24 832 7 7 (978432)
I0403 15:09:41.559645 14178 net.cpp:148] Top shape: 24 832 7 7 (978432)
I0403 15:09:41.559659 14178 net.cpp:156] Memory required for data: 1325241888
I0403 15:09:41.559672 14178 layer_factory.hpp:77] Creating layer inception_5b/1x1
I0403 15:09:41.559692 14178 net.cpp:91] Creating Layer inception_5b/1x1
I0403 15:09:41.559710 14178 net.cpp:425] inception_5b/1x1 <- inception_5a/output_inception_5a/output_0_split_0
I0403 15:09:41.559730 14178 net.cpp:399] inception_5b/1x1 -> inception_5b/1x1
I0403 15:09:41.563410 14178 net.cpp:141] Setting up inception_5b/1x1
I0403 15:09:41.563439 14178 net.cpp:148] Top shape: 24 384 7 7 (451584)
I0403 15:09:41.563455 14178 net.cpp:156] Memory required for data: 1327048224
I0403 15:09:41.563473 14178 layer_factory.hpp:77] Creating layer inception_5b/relu_1x1
I0403 15:09:41.563490 14178 net.cpp:91] Creating Layer inception_5b/relu_1x1
I0403 15:09:41.563505 14178 net.cpp:425] inception_5b/relu_1x1 <- inception_5b/1x1
I0403 15:09:41.563524 14178 net.cpp:386] inception_5b/relu_1x1 -> inception_5b/1x1 (in-place)
I0403 15:09:41.563827 14178 net.cpp:141] Setting up inception_5b/relu_1x1
I0403 15:09:41.563855 14178 net.cpp:148] Top shape: 24 384 7 7 (451584)
I0403 15:09:41.563870 14178 net.cpp:156] Memory required for data: 1328854560
I0403 15:09:41.563884 14178 layer_factory.hpp:77] Creating layer inception_5b/3x3_reduce
I0403 15:09:41.563905 14178 net.cpp:91] Creating Layer inception_5b/3x3_reduce
I0403 15:09:41.563922 14178 net.cpp:425] inception_5b/3x3_reduce <- inception_5a/output_inception_5a/output_0_split_1
I0403 15:09:41.563941 14178 net.cpp:399] inception_5b/3x3_reduce -> inception_5b/3x3_reduce
I0403 15:09:41.566558 14178 net.cpp:141] Setting up inception_5b/3x3_reduce
I0403 15:09:41.566589 14178 net.cpp:148] Top shape: 24 192 7 7 (225792)
I0403 15:09:41.566609 14178 net.cpp:156] Memory required for data: 1329757728
I0403 15:09:41.566628 14178 layer_factory.hpp:77] Creating layer inception_5b/relu_3x3_reduce
I0403 15:09:41.566645 14178 net.cpp:91] Creating Layer inception_5b/relu_3x3_reduce
I0403 15:09:41.566660 14178 net.cpp:425] inception_5b/relu_3x3_reduce <- inception_5b/3x3_reduce
I0403 15:09:41.566680 14178 net.cpp:386] inception_5b/relu_3x3_reduce -> inception_5b/3x3_reduce (in-place)
I0403 15:09:41.566870 14178 net.cpp:141] Setting up inception_5b/relu_3x3_reduce
I0403 15:09:41.566895 14178 net.cpp:148] Top shape: 24 192 7 7 (225792)
I0403 15:09:41.566908 14178 net.cpp:156] Memory required for data: 1330660896
I0403 15:09:41.566921 14178 layer_factory.hpp:77] Creating layer inception_5b/3x3
I0403 15:09:41.566942 14178 net.cpp:91] Creating Layer inception_5b/3x3
I0403 15:09:41.566959 14178 net.cpp:425] inception_5b/3x3 <- inception_5b/3x3_reduce
I0403 15:09:41.566980 14178 net.cpp:399] inception_5b/3x3 -> inception_5b/3x3
I0403 15:09:41.573603 14178 net.cpp:141] Setting up inception_5b/3x3
I0403 15:09:41.573634 14178 net.cpp:148] Top shape: 24 384 7 7 (451584)
I0403 15:09:41.573652 14178 net.cpp:156] Memory required for data: 1332467232
I0403 15:09:41.573669 14178 layer_factory.hpp:77] Creating layer inception_5b/relu_3x3
I0403 15:09:41.573688 14178 net.cpp:91] Creating Layer inception_5b/relu_3x3
I0403 15:09:41.573704 14178 net.cpp:425] inception_5b/relu_3x3 <- inception_5b/3x3
I0403 15:09:41.573722 14178 net.cpp:386] inception_5b/relu_3x3 -> inception_5b/3x3 (in-place)
I0403 15:09:41.574024 14178 net.cpp:141] Setting up inception_5b/relu_3x3
I0403 15:09:41.574054 14178 net.cpp:148] Top shape: 24 384 7 7 (451584)
I0403 15:09:41.574070 14178 net.cpp:156] Memory required for data: 1334273568
I0403 15:09:41.574085 14178 layer_factory.hpp:77] Creating layer inception_5b/5x5_reduce
I0403 15:09:41.574123 14178 net.cpp:91] Creating Layer inception_5b/5x5_reduce
I0403 15:09:41.574142 14178 net.cpp:425] inception_5b/5x5_reduce <- inception_5a/output_inception_5a/output_0_split_2
I0403 15:09:41.574163 14178 net.cpp:399] inception_5b/5x5_reduce -> inception_5b/5x5_reduce
I0403 15:09:41.575479 14178 net.cpp:141] Setting up inception_5b/5x5_reduce
I0403 15:09:41.575506 14178 net.cpp:148] Top shape: 24 48 7 7 (56448)
I0403 15:09:41.575521 14178 net.cpp:156] Memory required for data: 1334499360
I0403 15:09:41.575539 14178 layer_factory.hpp:77] Creating layer inception_5b/relu_5x5_reduce
I0403 15:09:41.575557 14178 net.cpp:91] Creating Layer inception_5b/relu_5x5_reduce
I0403 15:09:41.575572 14178 net.cpp:425] inception_5b/relu_5x5_reduce <- inception_5b/5x5_reduce
I0403 15:09:41.575592 14178 net.cpp:386] inception_5b/relu_5x5_reduce -> inception_5b/5x5_reduce (in-place)
I0403 15:09:41.575978 14178 net.cpp:141] Setting up inception_5b/relu_5x5_reduce
I0403 15:09:41.576004 14178 net.cpp:148] Top shape: 24 48 7 7 (56448)
I0403 15:09:41.576020 14178 net.cpp:156] Memory required for data: 1334725152
I0403 15:09:41.576035 14178 layer_factory.hpp:77] Creating layer inception_5b/5x5
I0403 15:09:41.576053 14178 net.cpp:91] Creating Layer inception_5b/5x5
I0403 15:09:41.576071 14178 net.cpp:425] inception_5b/5x5 <- inception_5b/5x5_reduce
I0403 15:09:41.576089 14178 net.cpp:399] inception_5b/5x5 -> inception_5b/5x5
I0403 15:09:41.578181 14178 net.cpp:141] Setting up inception_5b/5x5
I0403 15:09:41.578207 14178 net.cpp:148] Top shape: 24 128 7 7 (150528)
I0403 15:09:41.578222 14178 net.cpp:156] Memory required for data: 1335327264
I0403 15:09:41.578240 14178 layer_factory.hpp:77] Creating layer inception_5b/relu_5x5
I0403 15:09:41.578260 14178 net.cpp:91] Creating Layer inception_5b/relu_5x5
I0403 15:09:41.578276 14178 net.cpp:425] inception_5b/relu_5x5 <- inception_5b/5x5
I0403 15:09:41.578295 14178 net.cpp:386] inception_5b/relu_5x5 -> inception_5b/5x5 (in-place)
I0403 15:09:41.578495 14178 net.cpp:141] Setting up inception_5b/relu_5x5
I0403 15:09:41.578519 14178 net.cpp:148] Top shape: 24 128 7 7 (150528)
I0403 15:09:41.578533 14178 net.cpp:156] Memory required for data: 1335929376
I0403 15:09:41.578548 14178 layer_factory.hpp:77] Creating layer inception_5b/pool
I0403 15:09:41.578567 14178 net.cpp:91] Creating Layer inception_5b/pool
I0403 15:09:41.578584 14178 net.cpp:425] inception_5b/pool <- inception_5a/output_inception_5a/output_0_split_3
I0403 15:09:41.578606 14178 net.cpp:399] inception_5b/pool -> inception_5b/pool
I0403 15:09:41.578683 14178 net.cpp:141] Setting up inception_5b/pool
I0403 15:09:41.578707 14178 net.cpp:148] Top shape: 24 832 7 7 (978432)
I0403 15:09:41.578722 14178 net.cpp:156] Memory required for data: 1339843104
I0403 15:09:41.578737 14178 layer_factory.hpp:77] Creating layer inception_5b/pool_proj
I0403 15:09:41.578758 14178 net.cpp:91] Creating Layer inception_5b/pool_proj
I0403 15:09:41.578774 14178 net.cpp:425] inception_5b/pool_proj <- inception_5b/pool
I0403 15:09:41.578796 14178 net.cpp:399] inception_5b/pool_proj -> inception_5b/pool_proj
I0403 15:09:41.581207 14178 net.cpp:141] Setting up inception_5b/pool_proj
I0403 15:09:41.581236 14178 net.cpp:148] Top shape: 24 128 7 7 (150528)
I0403 15:09:41.581251 14178 net.cpp:156] Memory required for data: 1340445216
I0403 15:09:41.581274 14178 layer_factory.hpp:77] Creating layer inception_5b/relu_pool_proj
I0403 15:09:41.581292 14178 net.cpp:91] Creating Layer inception_5b/relu_pool_proj
I0403 15:09:41.581310 14178 net.cpp:425] inception_5b/relu_pool_proj <- inception_5b/pool_proj
I0403 15:09:41.581329 14178 net.cpp:386] inception_5b/relu_pool_proj -> inception_5b/pool_proj (in-place)
I0403 15:09:41.581653 14178 net.cpp:141] Setting up inception_5b/relu_pool_proj
I0403 15:09:41.581681 14178 net.cpp:148] Top shape: 24 128 7 7 (150528)
I0403 15:09:41.581696 14178 net.cpp:156] Memory required for data: 1341047328
I0403 15:09:41.581712 14178 layer_factory.hpp:77] Creating layer inception_5b/output
I0403 15:09:41.581728 14178 net.cpp:91] Creating Layer inception_5b/output
I0403 15:09:41.581759 14178 net.cpp:425] inception_5b/output <- inception_5b/1x1
I0403 15:09:41.581778 14178 net.cpp:425] inception_5b/output <- inception_5b/3x3
I0403 15:09:41.581794 14178 net.cpp:425] inception_5b/output <- inception_5b/5x5
I0403 15:09:41.581810 14178 net.cpp:425] inception_5b/output <- inception_5b/pool_proj
I0403 15:09:41.581830 14178 net.cpp:399] inception_5b/output -> inception_5b/output
I0403 15:09:41.581883 14178 net.cpp:141] Setting up inception_5b/output
I0403 15:09:41.581910 14178 net.cpp:148] Top shape: 24 1024 7 7 (1204224)
I0403 15:09:41.581926 14178 net.cpp:156] Memory required for data: 1345864224
I0403 15:09:41.581940 14178 layer_factory.hpp:77] Creating layer pool5/7x7_s1
I0403 15:09:41.581957 14178 net.cpp:91] Creating Layer pool5/7x7_s1
I0403 15:09:41.581974 14178 net.cpp:425] pool5/7x7_s1 <- inception_5b/output
I0403 15:09:41.581991 14178 net.cpp:399] pool5/7x7_s1 -> pool5/7x7_s1
I0403 15:09:41.582221 14178 net.cpp:141] Setting up pool5/7x7_s1
I0403 15:09:41.582247 14178 net.cpp:148] Top shape: 24 1024 1 1 (24576)
I0403 15:09:41.582263 14178 net.cpp:156] Memory required for data: 1345962528
I0403 15:09:41.582278 14178 layer_factory.hpp:77] Creating layer pool5/drop_7x7_s1
I0403 15:09:41.582295 14178 net.cpp:91] Creating Layer pool5/drop_7x7_s1
I0403 15:09:41.582312 14178 net.cpp:425] pool5/drop_7x7_s1 <- pool5/7x7_s1
I0403 15:09:41.582331 14178 net.cpp:386] pool5/drop_7x7_s1 -> pool5/7x7_s1 (in-place)
I0403 15:09:41.582383 14178 net.cpp:141] Setting up pool5/drop_7x7_s1
I0403 15:09:41.582411 14178 net.cpp:148] Top shape: 24 1024 1 1 (24576)
I0403 15:09:41.582425 14178 net.cpp:156] Memory required for data: 1346060832
I0403 15:09:41.582439 14178 layer_factory.hpp:77] Creating layer loss3/classifier_plantvillage
I0403 15:09:41.582458 14178 net.cpp:91] Creating Layer loss3/classifier_plantvillage
I0403 15:09:41.582474 14178 net.cpp:425] loss3/classifier_plantvillage <- pool5/7x7_s1
I0403 15:09:41.582494 14178 net.cpp:399] loss3/classifier_plantvillage -> loss3/classifier_plantvillage
I0403 15:09:41.582947 14178 net.cpp:141] Setting up loss3/classifier_plantvillage
I0403 15:09:41.582973 14178 net.cpp:148] Top shape: 24 38 (912)
I0403 15:09:41.582986 14178 net.cpp:156] Memory required for data: 1346064480
I0403 15:09:41.583004 14178 layer_factory.hpp:77] Creating layer loss3/classifier_plantvillage_loss3/classifier_plantvillage_0_split
I0403 15:09:41.583026 14178 net.cpp:91] Creating Layer loss3/classifier_plantvillage_loss3/classifier_plantvillage_0_split
I0403 15:09:41.583044 14178 net.cpp:425] loss3/classifier_plantvillage_loss3/classifier_plantvillage_0_split <- loss3/classifier_plantvillage
I0403 15:09:41.583060 14178 net.cpp:399] loss3/classifier_plantvillage_loss3/classifier_plantvillage_0_split -> loss3/classifier_plantvillage_loss3/classifier_plantvillage_0_split_0
I0403 15:09:41.583083 14178 net.cpp:399] loss3/classifier_plantvillage_loss3/classifier_plantvillage_0_split -> loss3/classifier_plantvillage_loss3/classifier_plantvillage_0_split_1
I0403 15:09:41.583106 14178 net.cpp:399] loss3/classifier_plantvillage_loss3/classifier_plantvillage_0_split -> loss3/classifier_plantvillage_loss3/classifier_plantvillage_0_split_2
I0403 15:09:41.583125 14178 net.cpp:399] loss3/classifier_plantvillage_loss3/classifier_plantvillage_0_split -> loss3/classifier_plantvillage_loss3/classifier_plantvillage_0_split_3
I0403 15:09:41.583232 14178 net.cpp:141] Setting up loss3/classifier_plantvillage_loss3/classifier_plantvillage_0_split
I0403 15:09:41.583257 14178 net.cpp:148] Top shape: 24 38 (912)
I0403 15:09:41.583273 14178 net.cpp:148] Top shape: 24 38 (912)
I0403 15:09:41.583288 14178 net.cpp:148] Top shape: 24 38 (912)
I0403 15:09:41.583303 14178 net.cpp:148] Top shape: 24 38 (912)
I0403 15:09:41.583317 14178 net.cpp:156] Memory required for data: 1346079072
I0403 15:09:41.583331 14178 layer_factory.hpp:77] Creating layer loss1/loss
I0403 15:09:41.583353 14178 net.cpp:91] Creating Layer loss1/loss
I0403 15:09:41.583369 14178 net.cpp:425] loss1/loss <- loss1/classifier_plantvillage_loss1/classifier_plantvillage_0_split_0
I0403 15:09:41.583400 14178 net.cpp:425] loss1/loss <- label_data_1_split_0
…
