…
I0403 14:51:13.534128 13702 net.cpp:313] The NetState phase (1) differed from the phase (0) specified by a rule in layer data
I0403 14:51:13.535259 13702 net.cpp:49] Initializing net from parameters: 
state {
  phase: TEST
}
layer {
  name: "data"
  type: "Data"
  top: "data"
  top: "label"
  include {
    phase: TEST
  }
  transform_param {
    mirror: false
    crop_size: 224
    mean_file: "/home/mohanty/data/final_dataset/lmdb/color-40-60/mean.binaryproto"
  }
  data_param {
    source: "/home/mohanty/data/final_dataset/lmdb/color-40-60/test_db"
    batch_size: 24
    backend: LMDB
  }
}
layer {
  name: "conv1/7x7_s2"
  type: "Convolution"
  bottom: "data"
  top: "conv1/7x7_s2"
  param {
    lr_mult: 1
    decay_mult: 1
  }
  param {
    lr_mult: 2
    decay_mult: 0
  }
  convolution_param {
    num_output: 64
    pad: 3
    kernel_size: 7
    stride: 2
    weight_filler {
      type: "xavier"
      std: 0.1
    }
    bias_filler {
      type: "constant"
      value: 0.2
    }
  }
}
layer {
  name: "conv1/relu_7x7"
  type: "ReLU"
  bottom: "conv1/7x7_s2"
  top: "conv1/7x7_s2"
}
layer {
  name: "pool1/3x3_s2"
  type: "Pooling"
  bottom: "conv1/7x7_s2"
  top: "pool1/3x3_s2"
  pooling_param {
    pool: MAX
    kernel_size: 3
    stride: 2
  }
}
layer {
  name: "pool1/norm1"
  type: "LRN"
  bottom: "pool1/3x3_s2"
  top: "pool1/norm1"
  lrn_param {
    local_size: 5
    alpha: 0.0001
    beta: 0.75
  }
}
layer {
  name: "conv2/3x3_reduce"
  type: "Convolution"
  bottom: "pool1/norm1"
  top: "conv2/3x3_reduce"
  param {
    lr_mult: 1
    decay_mult: 1
  }
  param {
    lr_mult: 2
    decay_mult: 0
  }
  convolution_param {
    num_output: 64
    kernel_size: 1
    weight_filler {
      type: "xavier"
      std: 0.1
    }
    bias_filler {
      type: "constant"
      value: 0.2
    }
  }
}
layer {
  name: "conv2/relu_3x3_reduce"
  type: "ReLU"
  bottom: "conv2/3x3_reduce"
  top: "conv2/3x3_reduce"
}
layer {
  name: "conv2/3x3"
  type: "Convolution"
  bottom: "conv2/3x3_reduce"
  top: "conv2/3x3"
  param {
    lr_mult: 1
    decay_mult: 1
  }
  param {
    lr_mult: 2
    decay_mult: 0
  }
  convolution_param {
    num_output: 192
    pad: 1
    kernel_size: 3
    weight_filler {
      type: "xavier"
      std: 0.03
    }
    bias_filler {
      type: "constant"
      value: 0.2
    }
  }
}
layer {
  name: "conv2/relu_3x3"
  type: "ReLU"
  bottom: "conv2/3x3"
  top: "conv2/3x3"
}
layer {
  name: "conv2/norm2"
  type: "LRN"
  bottom: "conv2/3x3"
  top: "conv2/norm2"
  lrn_param {
    local_size: 5
    alpha: 0.0001
    beta: 0.75
  }
}
layer {
  name: "pool2/3x3_s2"
  type: "Pooling"
  bottom: "conv2/norm2"
  top: "pool2/3x3_s2"
  pooling_param {
    pool: MAX
    kernel_size: 3
    stride: 2
  }
}
layer {
  name: "inception_3a/1x1"
  type: "Convolution"
  bottom: "pool2/3x3_s2"
  top: "inception_3a/1x1"
  param {
    lr_mult: 1
    decay_mult: 1
  }
  param {
    lr_mult: 2
    decay_mult: 0
  }
  convolution_param {
    num_output: 64
    kernel_size: 1
    weight_filler {
      type: "xavier"
      std: 0.03
    }
    bias_filler {
      type: "constant"
      value: 0.2
    }
  }
}
layer {
  name: "inception_3a/relu_1x1"
  type: "ReLU"
  bottom: "inception_3a/1x1"
  top: "inception_3a/1x1"
}
layer {
  name: "inception_3a/3x3_reduce"
  type: "Convolution"
  bottom: "pool2/3x3_s2"
  top: "inception_3a/3x3_reduce"
  param {
    lr_mult: 1
    decay_mult: 1
  }
  param {
    lr_mult: 2
    decay_mult: 0
  }
  convolution_param {
    num_output: 96
    kernel_size: 1
    weight_filler {
      type: "xavier"
      std: 0.09
    }
    bias_filler {
      type: "constant"
      value: 0.2
    }
  }
}
layer {
  name: "inception_3a/relu_3x3_reduce"
  type: "ReLU"
  bottom: "inception_3a/3x3_reduce"
  top: "inception_3a/3x3_reduce"
}
layer {
  name: "inception_3a/3x3"
  type: "Convolution"
  bottom: "inception_3a/3x3_reduce"
  top: "inception_3a/3x3"
  param {
    lr_mult: 1
    decay_mult: 1
  }
  param {
    lr_mult: 2
    decay_mult: 0
  }
  convolution_param {
    num_output: 128
    pad: 1
    kernel_size: 3
    weight_filler {
      type: "xavier"
      std: 0.03
    }
    bias_filler {
      type: "constant"
      value: 0.2
    }
  }
}
layer {
  name: "inception_3a/relu_3x3"
  type: "ReLU"
  bottom: "inception_3a/3x3"
  top: "inception_3a/3x3"
}
layer {
  name: "inception_3a/5x5_reduce"
  type: "Convolution"
  bottom: "pool2/3x3_s2"
  top: "inception_3a/5x5_reduce"
  param {
    lr_mult: 1
    decay_mult: 1
  }
  param {
    lr_mult: 2
    decay_mult: 0
  }
  convolution_param {
    num_output: 16
    kernel_size: 1
    weight_filler {
      type: "xavier"
      std: 0.2
    }
    bias_filler {
      type: "constant"
      value: 0.2
    }
  }
}
layer {
  name: "inception_3a/relu_5x5_reduce"
  type: "ReLU"
  bottom: "inception_3a/5x5_reduce"
  top: "inception_3a/5x5_reduce"
}
layer {
  name: "inception_3a/5x5"
  type: "Convolution"
  bottom: "inception_3a/5x5_reduce"
  top: "inception_3a/5x5"
  param {
    lr_mult: 1
    decay_mult: 1
  }
  param {
    lr_mult: 2
    decay_mult: 0
  }
  convolution_param {
    num_output: 32
    pad: 2
    kernel_size: 5
    weight_filler {
      type: "xavier"
      std: 0.03
    }
    bias_filler {
      type: "constant"
      value: 0.2
    }
  }
}
layer {
  name: "inception_3a/relu_5x5"
  type: "ReLU"
  bottom: "inception_3a/5x5"
  top: "inception_3a/5x5"
}
layer {
  name: "inception_3a/pool"
  type: "Pooling"
  bottom: "pool2/3x3_s2"
  top: "inception_3a/pool"
  pooling_param {
    pool: MAX
    kernel_size: 3
    stride: 1
    pad: 1
  }
}
layer {
  name: "inception_3a/pool_proj"
  type: "Convolution"
  bottom: "inception_3a/pool"
  top: "inception_3a/pool_proj"
  param {
    lr_mult: 1
    decay_mult: 1
  }
  param {
    lr_mult: 2
    decay_mult: 0
  }
  convolution_param {
    num_output: 32
    kernel_size: 1
    weight_filler {
      type: "xavier"
      std: 0.1
    }
    bias_filler {
      type: "constant"
      value: 0.2
    }
  }
}
layer {
  name: "inception_3a/relu_pool_proj"
  type: "ReLU"
  bottom: "inception_3a/pool_proj"
  top: "inception_3a/pool_proj"
}
layer {
  name: "inception_3a/output"
  type: "Concat"
  bottom: "inception_3a/1x1"
  bottom: "inception_3a/3x3"
  bottom: "inception_3a/5x5"
  bottom: "inception_3a/pool_proj"
  top: "inception_3a/output"
}
layer {
  name: "inception_3b/1x1"
  type: "Convolution"
  bottom: "inception_3a/output"
  top: "inception_3b/1x1"
  param {
    lr_mult: 1
    decay_mult: 1
  }
  param {
    lr_mult: 2
    decay_mult: 0
  }
  convolution_param {
    num_output: 128
    kernel_size: 1
    weight_filler {
      type: "xavier"
      std: 0.03
    }
    bias_filler {
      type: "constant"
      value: 0.2
    }
  }
}
layer {
  name: "inception_3b/relu_1x1"
  type: "ReLU"
  bottom: "inception_3b/1x1"
  top: "inception_3b/1x1"
}
layer {
  name: "inception_3b/3x3_reduce"
  type: "Convolution"
  bottom: "inception_3a/output"
  top: "inception_3b/3x3_reduce"
  param {
    lr_mult: 1
    decay_mult: 1
  }
  param {
    lr_mult: 2
    decay_mult: 0
  }
  convolution_param {
    num_output: 128
    kernel_size: 1
    weight_filler {
      type: "xavier"
      std: 0.09
    }
    bias_filler {
      type: "constant"
      value: 0.2
    }
  }
}
layer {
  name: "inception_3b/relu_3x3_reduce"
  type: "ReLU"
  bottom: "inception_3b/3x3_reduce"
  top: "inception_3b/3x3_reduce"
}
layer {
  name: "inception_3b/3x3"
  type: "Convolution"
  bottom: "inception_3b/3x3_reduce"
  top: "inception_3b/3x3"
  param {
    lr_mult: 1
    decay_mult: 1
  }
  param {
    lr_mult: 2
    decay_mult: 0
  }
  convolution_param {
    num_output: 192
    pad: 1
    kernel_size: 3
    weight_filler {
      type: "xavier"
      std: 0.03
    }
    bias_filler {
      type: "constant"
      value: 0.2
    }
  }
}
layer {
  name: "inception_3b/relu_3x3"
  type: "ReLU"
  bottom: "inception_3b/3x3"
  top: "inception_3b/3x3"
}
layer {
  name: "inception_3b/5x5_reduce"
  type: "Convolution"
  bottom: "inception_3a/output"
  top: "inception_3b/5x5_reduce"
  param {
    lr_mult: 1
    decay_mult: 1
  }
  param {
    lr_mult: 2
    decay_mult: 0
  }
  convolution_param {
    num_output: 32
    kernel_size: 1
    weight_filler {
      type: "xavier"
      std: 0.2
    }
    bias_filler {
      type: "constant"
      value: 0.2
    }
  }
}
layer {
  name: "inception_3b/relu_5x5_reduce"
  type: "ReLU"
  bottom: "inception_3b/5x5_reduce"
  top: "inception_3b/5x5_reduce"
}
layer {
  name: "inception_3b/5x5"
  type: "Convolution"
  bottom: "inception_3b/5x5_reduce"
  top: "inception_3b/5x5"
  param {
    lr_mult: 1
    decay_mult: 1
  }
  param {
    lr_mult: 2
    decay_mult: 0
  }
  convolution_param {
    num_output: 96
    pad: 2
    kernel_size: 5
    weight_filler {
      type: "xavier"
      std: 0.03
    }
    bias_filler {
      type: "constant"
      value: 0.2
    }
  }
}
layer {
  name: "inception_3b/relu_5x5"
  type: "ReLU"
  bottom: "inception_3b/5x5"
  top: "inception_3b/5x5"
}
layer {
  name: "inception_3b/pool"
  type: "Pooling"
  bottom: "inception_3a/output"
  top: "inception_3b/pool"
  pooling_param {
    pool: MAX
    kernel_size: 3
    stride: 1
    pad: 1
  }
}
layer {
  name: "inception_3b/pool_proj"
  type: "Convolution"
  bottom: "inception_3b/pool"
  top: "inception_3b/pool_proj"
  param {
    lr_mult: 1
    decay_mult: 1
  }
  param {
    lr_mult: 2
    decay_mult: 0
  }
  convolution_param {
    num_output: 64
    kernel_size: 1
    weight_filler {
      type: "xavier"
      std: 0.1
    }
    bias_filler {
      type: "constant"
      value: 0.2
    }
  }
}
layer {
  name: "inception_3b/relu_pool_proj"
  type: "ReLU"
  bottom: "inception_3b/pool_proj"
  top: "inception_3b/pool_proj"
}
layer {
  name: "inception_3b/output"
  type: "Concat"
  bottom: "inception_3b/1x1"
  bottom: "inception_3b/3x3"
  bottom: "inception_3b/5x5"
  bottom: "inception_3b/pool_proj"
  top: "inception_3b/output"
}
layer {
  name: "pool3/3x3_s2"
  type: "Pooling"
  bottom: "inception_3b/output"
  top: "pool3/3x3_s2"
  pooling_param {
    pool: MAX
    kernel_size: 3
    stride: 2
  }
}
layer {
  name: "inception_4a/1x1"
  type: "Convolution"
  bottom: "pool3/3x3_s2"
  top: "inception_4a/1x1"
  param {
    lr_mult: 1
    decay_mult: 1
  }
  param {
    lr_mult: 2
    decay_mult: 0
  }
  convolution_param {
    num_output: 192
    kernel_size: 1
    weight_filler {
      type: "xavier"
      std: 0.03
    }
    bias_filler {
      type: "constant"
      value: 0.2
    }
  }
}
layer {
  name: "inception_4a/relu_1x1"
  type: "ReLU"
  bottom: "inception_4a/1x1"
  top: "inception_4a/1x1"
}
layer {
  name: "inception_4a/3x3_reduce"
  type: "Convolution"
  bottom: "pool3/3x3_s2"
  top: "inception_4a/3x3_reduce"
  param {
    lr_mult: 1
    decay_mult: 1
  }
  param {
    lr_mult: 2
    decay_mult: 0
  }
  convolution_param {
    num_output: 96
    kernel_size: 1
    weight_filler {
      type: "xavier"
      std: 0.09
    }
    bias_filler {
      type: "constant"
      value: 0.2
    }
  }
}
layer {
  name: "inception_4a/relu_3x3_reduce"
  type: "ReLU"
  bottom: "inception_4a/3x3_reduce"
  top: "inception_4a/3x3_reduce"
}
layer {
  name: "inception_4a/3x3"
  type: "Convolution"
  bottom: "inception_4a/3x3_reduce"
  top: "inception_4a/3x3"
  param {
    lr_mult: 1
    decay_mult: 1
  }
  param {
    lr_mult: 2
    decay_mult: 0
  }
  convolution_param {
    num_output: 208
    pad: 1
    kernel_size: 3
    weight_filler {
      type: "xavier"
      std: 0.03
    }
    bias_filler {
      type: "constant"
      value: 0.2
    }
  }
}
layer {
  name: "inception_4a/relu_3x3"
  type: "ReLU"
  bottom: "inception_4a/3x3"
  top: "inception_4a/3x3"
}
layer {
  name: "inception_4a/5x5_reduce"
  type: "Convolution"
  bottom: "pool3/3x3_s2"
  top: "inception_4a/5x5_reduce"
  param {
    lr_mult: 1
    decay_mult: 1
  }
  param {
    lr_mult: 2
    decay_mult: 0
  }
  convolution_param {
    num_output: 16
    kernel_size: 1
    weight_filler {
      type: "xavier"
      std: 0.2
    }
    bias_filler {
      type: "constant"
      value: 0.2
    }
  }
}
layer {
  name: "inception_4a/relu_5x5_reduce"
  type: "ReLU"
  bottom: "inception_4a/5x5_reduce"
  top: "inception_4a/5x5_reduce"
}
layer {
  name: "inception_4a/5x5"
  type: "Convolution"
  bottom: "inception_4a/5x5_reduce"
  top: "inception_4a/5x5"
  param {
    lr_mult: 1
    decay_mult: 1
  }
  param {
    lr_mult: 2
    decay_mult: 0
  }
  convolution_param {
    num_output: 48
    pad: 2
    kernel_size: 5
    weight_filler {
      type: "xavier"
      std: 0.03
    }
    bias_filler {
      type: "constant"
      value: 0.2
    }
  }
}
layer {
  name: "inception_4a/relu_5x5"
  type: "ReLU"
  bottom: "inception_4a/5x5"
  top: "inception_4a/5x5"
}
layer {
  name: "inception_4a/pool"
  type: "Pooling"
  bottom: "pool3/3x3_s2"
  top: "inception_4a/pool"
  pooling_param {
    pool: MAX
    kernel_size: 3
    stride: 1
    pad: 1
  }
}
layer {
  name: "inception_4a/pool_proj"
  type: "Convolution"
  bottom: "inception_4a/pool"
  top: "inception_4a/pool_proj"
  param {
    lr_mult: 1
    decay_mult: 1
  }
  param {
    lr_mult: 2
    decay_mult: 0
  }
  convolution_param {
    num_output: 64
    kernel_size: 1
    weight_filler {
      type: "xavier"
      std: 0.1
    }
    bias_filler {
      type: "constant"
      value: 0.2
    }
  }
}
layer {
  name: "inception_4a/relu_pool_proj"
  type: "ReLU"
  bottom: "inception_4a/pool_proj"
  top: "inception_4a/pool_proj"
}
layer {
  name: "inception_4a/output"
  type: "Concat"
  bottom: "inception_4a/1x1"
  bottom: "inception_4a/3x3"
  bottom: "inception_4a/5x5"
  bottom: "inception_4a/pool_proj"
  top: "inception_4a/output"
}
layer {
  name: "loss1/ave_pool"
  type: "Pooling"
  bottom: "inception_4a/output"
  top: "loss1/ave_pool"
  pooling_param {
    pool: AVE
    kernel_size: 5
    stride: 3
  }
}
layer {
  name: "loss1/conv"
  type: "Convolution"
  bottom: "loss1/ave_pool"
  top: "loss1/conv"
  param {
    lr_mult: 1
    decay_mult: 1
  }
  param {
    lr_mult: 2
    decay_mult: 0
  }
  convolution_param {
    num_output: 128
    kernel_size: 1
    weight_filler {
      type: "xavier"
      std: 0.08
    }
    bias_filler {
      type: "constant"
      value: 0.2
    }
  }
}
layer {
  name: "loss1/relu_conv"
  type: "ReLU"
  bottom: "loss1/conv"
  top: "loss1/conv"
}
layer {
  name: "loss1/fc"
  type: "InnerProduct"
  bottom: "loss1/conv"
  top: "loss1/fc"
  param {
    lr_mult: 1
    decay_mult: 1
  }
  param {
    lr_mult: 2
    decay_mult: 0
  }
  inner_product_param {
    num_output: 1024
    weight_filler {
      type: "xavier"
      std: 0.02
    }
    bias_filler {
      type: "constant"
      value: 0.2
    }
  }
}
layer {
  name: "loss1/relu_fc"
  type: "ReLU"
  bottom: "loss1/fc"
  top: "loss1/fc"
}
layer {
  name: "loss1/drop_fc"
  type: "Dropout"
  bottom: "loss1/fc"
  top: "loss1/fc"
  dropout_param {
    dropout_ratio: 0.7
  }
}
layer {
  name: "loss1/classifier_plantvillage"
  type: "InnerProduct"
  bottom: "loss1/fc"
  top: "loss1/classifier_plantvillage"
  param {
    lr_mult: 1
    decay_mult: 1
  }
  param {
    lr_mult: 2
    decay_mult: 0
  }
  inner_product_param {
    num_output: 38
    weight_filler {
      type: "xavier"
      std: 0.0009765625
    }
    bias_filler {
      type: "constant"
      value: 0
    }
  }
}
layer {
  name: "inception_4b/1x1"
  type: "Convolution"
  bottom: "inception_4a/output"
  top: "inception_4b/1x1"
  param {
    lr_mult: 1
    decay_mult: 1
  }
  param {
    lr_mult: 2
    decay_mult: 0
  }
  convolution_param {
    num_output: 160
    kernel_size: 1
    weight_filler {
      type: "xavier"
      std: 0.03
    }
    bias_filler {
      type: "constant"
      value: 0.2
    }
  }
}
layer {
  name: "inception_4b/relu_1x1"
  type: "ReLU"
  bottom: "inception_4b/1x1"
  top: "inception_4b/1x1"
}
layer {
  name: "inception_4b/3x3_reduce"
  type: "Convolution"
  bottom: "inception_4a/output"
  top: "inception_4b/3x3_reduce"
  param {
    lr_mult: 1
    decay_mult: 1
  }
  param {
    lr_mult: 2
    decay_mult: 0
  }
  convolution_param {
    num_output: 112
    kernel_size: 1
    weight_filler {
      type: "xavier"
      std: 0.09
    }
    bias_filler {
      type: "constant"
      value: 0.2
    }
  }
}
layer {
  name: "inception_4b/relu_3x3_reduce"
  type: "ReLU"
  bottom: "inception_4b/3x3_reduce"
  top: "inception_4b/3x3_reduce"
}
layer {
  name: "inception_4b/3x3"
  type: "Convolution"
  bottom: "inception_4b/3x3_reduce"
  top: "inception_4b/3x3"
  param {
    lr_mult: 1
    decay_mult: 1
  }
  param {
    lr_mult: 2
    decay_mult: 0
  }
  convolution_param {
    num_output: 224
    pad: 1
    kernel_size: 3
    weight_filler {
      type: "xavier"
      std: 0.03
    }
    bias_filler {
      type: "constant"
      value: 0.2
    }
  }
}
layer {
  name: "inception_4b/relu_3x3"
  type: "ReLU"
  bottom: "inception_4b/3x3"
  top: "inception_4b/3x3"
}
layer {
  name: "inception_4b/5x5_reduce"
  type: "Convolution"
  bottom: "inception_4a/output"
  top: "inception_4b/5x5_reduce"
  param {
    lr_mult: 1
    decay_mult: 1
  }
  param {
    lr_mult: 2
    decay_mult: 0
  }
  convolution_param {
    num_output: 24
    kernel_size: 1
    weight_filler {
      type: "xavier"
      std: 0.2
    }
    bias_filler {
      type: "constant"
      value: 0.2
    }
  }
}
layer {
  name: "inception_4b/relu_5x5_reduce"
  type: "ReLU"
  bottom: "inception_4b/5x5_reduce"
  top: "inception_4b/5x5_reduce"
}
layer {
  name: "inception_4b/5x5"
  type: "Convolution"
  bottom: "inception_4b/5x5_reduce"
  top: "inception_4b/5x5"
  param {
    lr_mult: 1
    decay_mult: 1
  }
  param {
    lr_mult: 2
    decay_mult: 0
  }
  convolution_param {
    num_output: 64
    pad: 2
    kernel_size: 5
    weight_filler {
      type: "xavier"
      std: 0.03
    }
    bias_filler {
      type: "constant"
      value: 0.2
    }
  }
}
layer {
  name: "inception_4b/relu_5x5"
  type: "ReLU"
  bottom: "inception_4b/5x5"
  top: "inception_4b/5x5"
}
layer {
  name: "inception_4b/pool"
  type: "Pooling"
  bottom: "inception_4a/output"
  top: "inception_4b/pool"
  pooling_param {
    pool: MAX
    kernel_size: 3
    stride: 1
    pad: 1
  }
}
layer {
  name: "inception_4b/pool_proj"
  type: "Convolution"
  bottom: "inception_4b/pool"
  top: "inception_4b/pool_proj"
  param {
    lr_mult: 1
    decay_mult: 1
  }
  param {
    lr_mult: 2
    decay_mult: 0
  }
  convolution_param {
    num_output: 64
    kernel_size: 1
    weight_filler {
      type: "xavier"
      std: 0.1
    }
    bias_filler {
      type: "constant"
      value: 0.2
    }
  }
}
layer {
  name: "inception_4b/relu_pool_proj"
  type: "ReLU"
  bottom: "inception_4b/pool_proj"
  top: "inception_4b/pool_proj"
}
layer {
  name: "inception_4b/output"
  type: "Concat"
  bottom: "inception_4b/1x1"
  bottom: "inception_4b/3x3"
  bottom: "inception_4b/5x5"
  bottom: "inception_4b/pool_proj"
  top: "inception_4b/output"
}
layer {
  name: "inception_4c/1x1"
  type: "Convolution"
  bottom: "inception_4b/output"
  top: "inception_4c/1x1"
  param {
    lr_mult: 1
    decay_mult: 1
  }
  param {
    lr_mult: 2
    decay_mult: 0
  }
  convolution_param {
    num_output: 128
    kernel_size: 1
    weight_filler {
      type: "xavier"
      std: 0.03
    }
    bias_filler {
      type: "constant"
      value: 0.2
    }
  }
}
layer {
  name: "inception_4c/relu_1x1"
  type: "ReLU"
  bottom: "inception_4c/1x1"
  top: "inception_4c/1x1"
}
layer {
  name: "inception_4c/3x3_reduce"
  type: "Convolution"
  bottom: "inception_4b/output"
  top: "inception_4c/3x3_reduce"
  param {
    lr_mult: 1
    decay_mult: 1
  }
  param {
    lr_mult: 2
    decay_mult: 0
  }
  convolution_param {
    num_output: 128
    kernel_size: 1
    weight_filler {
      type: "xavier"
      std: 0.09
    }
    bias_filler {
      type: "constant"
      value: 0.2
    }
  }
}
layer {
  name: "inception_4c/relu_3x3_reduce"
  type: "ReLU"
  bottom: "inception_4c/3x3_reduce"
  top: "inception_4c/3x3_reduce"
}
layer {
  name: "inception_4c/3x3"
  type: "Convolution"
  bottom: "inception_4c/3x3_reduce"
  top: "inception_4c/3x3"
  param {
    lr_mult: 1
    decay_mult: 1
  }
  param {
    lr_mult: 2
    decay_mult: 0
  }
  convolution_param {
    num_output: 256
    pad: 1
    kernel_size: 3
    weight_filler {
      type: "xavier"
      std: 0.03
    }
    bias_filler {
      type: "constant"
      value: 0.2
    }
  }
}
layer {
  name: "inception_4c/relu_3x3"
  type: "ReLU"
  bottom: "inception_4c/3x3"
  top: "inception_4c/3x3"
}
layer {
  name: "inception_4c/5x5_reduce"
  type: "Convolution"
  bottom: "inception_4b/output"
  top: "inception_4c/5x5_reduce"
  param {
    lr_mult: 1
    decay_mult: 1
  }
  param {
    lr_mult: 2
    decay_mult: 0
  }
  convolution_param {
    num_output: 24
    kernel_size: 1
    weight_filler {
      type: "xavier"
      std: 0.2
    }
    bias_filler {
      type: "constant"
      value: 0.2
    }
  }
}
layer {
  name: "inception_4c/relu_5x5_reduce"
  type: "ReLU"
  bottom: "inception_4c/5x5_reduce"
  top: "inception_4c/5x5_reduce"
}
layer {
  name: "inception_4c/5x5"
  type: "Convolution"
  bottom: "inception_4c/5x5_reduce"
  top: "inception_4c/5x5"
  param {
    lr_mult: 1
    decay_mult: 1
  }
  param {
    lr_mult: 2
    decay_mult: 0
  }
  convolution_param {
    num_output: 64
    pad: 2
    kernel_size: 5
    weight_filler {
      type: "xavier"
      std: 0.03
    }
    bias_filler {
      type: "constant"
      value: 0.2
    }
  }
}
layer {
  name: "inception_4c/relu_5x5"
  type: "ReLU"
  bottom: "inception_4c/5x5"
  top: "inception_4c/5x5"
}
layer {
  name: "inception_4c/pool"
  type: "Pooling"
  bottom: "inception_4b/output"
  top: "inception_4c/pool"
  pooling_param {
    pool: MAX
    kernel_size: 3
    stride: 1
    pad: 1
  }
}
layer {
  name: "inception_4c/pool_proj"
  type: "Convolution"
  bottom: "inception_4c/pool"
  top: "inception_4c/pool_proj"
  param {
    lr_mult: 1
    decay_mult: 1
  }
  param {
    lr_mult: 2
    decay_mult: 0
  }
  convolution_param {
    num_output: 64
    kernel_size: 1
    weight_filler {
      type: "xavier"
      std: 0.1
    }
    bias_filler {
      type: "constant"
      value: 0.2
    }
  }
}
layer {
  name: "inception_4c/relu_pool_proj"
  type: "ReLU"
  bottom: "inception_4c/pool_proj"
  top: "inception_4c/pool_proj"
}
layer {
  name: "inception_4c/output"
  type: "Concat"
  bottom: "inception_4c/1x1"
  bottom: "inception_4c/3x3"
  bottom: "inception_4c/5x5"
  bottom: "inception_4c/pool_proj"
  top: "inception_4c/output"
}
layer {
  name: "inception_4d/1x1"
  type: "Convolution"
  bottom: "inception_4c/output"
  top: "inception_4d/1x1"
  param {
    lr_mult: 1
    decay_mult: 1
  }
  param {
    lr_mult: 2
    decay_mult: 0
  }
  convolution_param {
    num_output: 112
    kernel_size: 1
    weight_filler {
      type: "xavier"
      std: 0.03
    }
    bias_filler {
      type: "constant"
      value: 0.2
    }
  }
}
layer {
  name: "inception_4d/relu_1x1"
  type: "ReLU"
  bottom: "inception_4d/1x1"
  top: "inception_4d/1x1"
}
layer {
  name: "inception_4d/3x3_reduce"
  type: "Convolution"
  bottom: "inception_4c/output"
  top: "inception_4d/3x3_reduce"
  param {
    lr_mult: 1
    decay_mult: 1
  }
  param {
    lr_mult: 2
    decay_mult: 0
  }
  convolution_param {
    num_output: 144
    kernel_size: 1
    weight_filler {
      type: "xavier"
      std: 0.09
    }
    bias_filler {
      type: "constant"
      value: 0.2
    }
  }
}
layer {
  name: "inception_4d/relu_3x3_reduce"
  type: "ReLU"
  bottom: "inception_4d/3x3_reduce"
  top: "inception_4d/3x3_reduce"
}
layer {
  name: "inception_4d/3x3"
  type: "Convolution"
  bottom: "inception_4d/3x3_reduce"
  top: "inception_4d/3x3"
  param {
    lr_mult: 1
    decay_mult: 1
  }
  param {
    lr_mult: 2
    decay_mult: 0
  }
  convolution_param {
    num_output: 288
    pad: 1
    kernel_size: 3
    weight_filler {
      type: "xavier"
      std: 0.03
    }
    bias_filler {
      type: "constant"
      value: 0.2
    }
  }
}
layer {
  name: "inception_4d/relu_3x3"
  type: "ReLU"
  bottom: "inception_4d/3x3"
  top: "inception_4d/3x3"
}
layer {
  name: "inception_4d/5x5_reduce"
  type: "Convolution"
  bottom: "inception_4c/output"
  top: "inception_4d/5x5_reduce"
  param {
    lr_mult: 1
    decay_mult: 1
  }
  param {
    lr_mult: 2
    decay_mult: 0
  }
  convolution_param {
    num_output: 32
    kernel_size: 1
    weight_filler {
      type: "xavier"
      std: 0.2
    }
    bias_filler {
      type: "constant"
      value: 0.2
    }
  }
}
layer {
  name: "inception_4d/relu_5x5_reduce"
  type: "ReLU"
  bottom: "inception_4d/5x5_reduce"
  top: "inception_4d/5x5_reduce"
}
layer {
  name: "inception_4d/5x5"
  type: "Convolution"
  bottom: "inception_4d/5x5_reduce"
  top: "inception_4d/5x5"
  param {
    lr_mult: 1
    decay_mult: 1
  }
  param {
    lr_mult: 2
    decay_mult: 0
  }
  convolution_param {
    num_output: 64
    pad: 2
    kernel_size: 5
    weight_filler {
      type: "xavier"
      std: 0.03
    }
    bias_filler {
      type: "constant"
      value: 0.2
    }
  }
}
layer {
  name: "inception_4d/relu_5x5"
  type: "ReLU"
  bottom: "inception_4d/5x5"
  top: "inception_4d/5x5"
}
layer {
  name: "inception_4d/pool"
  type: "Pooling"
  bottom: "inception_4c/output"
  top: "inception_4d/pool"
  pooling_param {
    pool: MAX
    kernel_size: 3
    stride: 1
    pad: 1
  }
}
layer {
  name: "inception_4d/pool_proj"
  type: "Convolution"
  bottom: "inception_4d/pool"
  top: "inception_4d/pool_proj"
  param {
    lr_mult: 1
    decay_mult: 1
  }
  param {
    lr_mult: 2
    decay_mult: 0
  }
  convolution_param {
    num_output: 64
    kernel_size: 1
    weight_filler {
      type: "xavier"
      std: 0.1
    }
    bias_filler {
      type: "constant"
      value: 0.2
    }
  }
}
layer {
  name: "inception_4d/relu_pool_proj"
  type: "ReLU"
  bottom: "inception_4d/pool_proj"
  top: "inception_4d/pool_proj"
}
layer {
  name: "inception_4d/output"
  type: "Concat"
  bottom: "inception_4d/1x1"
  bottom: "inception_4d/3x3"
  bottom: "inception_4d/5x5"
  bottom: "inception_4d/pool_proj"
  top: "inception_4d/output"
}
layer {
  name: "loss2/ave_pool"
  type: "Pooling"
  bottom: "inception_4d/output"
  top: "loss2/ave_pool"
  pooling_param {
    pool: AVE
    kernel_size: 5
    stride: 3
  }
}
layer {
  name: "loss2/conv"
  type: "Convolution"
  bottom: "loss2/ave_pool"
  top: "loss2/conv"
  param {
    lr_mult: 1
    decay_mult: 1
  }
  param {
    lr_mult: 2
    decay_mult: 0
  }
  convolution_param {
    num_output: 128
    kernel_size: 1
    weight_filler {
      type: "xavier"
      std: 0.08
    }
    bias_filler {
      type: "constant"
      value: 0.2
    }
  }
}
layer {
  name: "loss2/relu_conv"
  type: "ReLU"
  bottom: "loss2/conv"
  top: "loss2/conv"
}
layer {
  name: "loss2/fc"
  type: "InnerProduct"
  bottom: "loss2/conv"
  top: "loss2/fc"
  param {
    lr_mult: 1
    decay_mult: 1
  }
  param {
    lr_mult: 2
    decay_mult: 0
  }
  inner_product_param {
    num_output: 1024
    weight_filler {
      type: "xavier"
      std: 0.02
    }
    bias_filler {
      type: "constant"
      value: 0.2
    }
  }
}
layer {
  name: "loss2/relu_fc"
  type: "ReLU"
  bottom: "loss2/fc"
  top: "loss2/fc"
}
layer {
  name: "loss2/drop_fc"
  type: "Dropout"
  bottom: "loss2/fc"
  top: "loss2/fc"
  dropout_param {
    dropout_ratio: 0.7
  }
}
layer {
  name: "loss2/classifier_plantvillage"
  type: "InnerProduct"
  bottom: "loss2/fc"
  top: "loss2/classifier_plantvillage"
  param {
    lr_mult: 1
    decay_mult: 1
  }
  param {
    lr_mult: 2
    decay_mult: 0
  }
  inner_product_param {
    num_output: 38
    weight_filler {
      type: "xavier"
      std: 0.0009765625
    }
    bias_filler {
      type: "constant"
      value: 0
    }
  }
}
layer {
  name: "inception_4e/1x1"
  type: "Convolution"
  bottom: "inception_4d/output"
  top: "inception_4e/1x1"
  param {
    lr_mult: 1
    decay_mult: 1
  }
  param {
    lr_mult: 2
    decay_mult: 0
  }
  convolution_param {
    num_output: 256
    kernel_size: 1
    weight_filler {
      type: "xavier"
      std: 0.03
    }
    bias_filler {
      type: "constant"
      value: 0.2
    }
  }
}
layer {
  name: "inception_4e/relu_1x1"
  type: "ReLU"
  bottom: "inception_4e/1x1"
  top: "inception_4e/1x1"
}
layer {
  name: "inception_4e/3x3_reduce"
  type: "Convolution"
  bottom: "inception_4d/output"
  top: "inception_4e/3x3_reduce"
  param {
    lr_mult: 1
    decay_mult: 1
  }
  param {
    lr_mult: 2
    decay_mult: 0
  }
  convolution_param {
    num_output: 160
    kernel_size: 1
    weight_filler {
      type: "xavier"
      std: 0.09
    }
    bias_filler {
      type: "constant"
      value: 0.2
    }
  }
}
layer {
  name: "inception_4e/relu_3x3_reduce"
  type: "ReLU"
  bottom: "inception_4e/3x3_reduce"
  top: "inception_4e/3x3_reduce"
}
layer {
  name: "inception_4e/3x3"
  type: "Convolution"
  bottom: "inception_4e/3x3_reduce"
  top: "inception_4e/3x3"
  param {
    lr_mult: 1
    decay_mult: 1
  }
  param {
    lr_mult: 2
    decay_mult: 0
  }
  convolution_param {
    num_output: 320
    pad: 1
    kernel_size: 3
    weight_filler {
      type: "xavier"
      std: 0.03
    }
    bias_filler {
      type: "constant"
      value: 0.2
    }
  }
}
layer {
  name: "inception_4e/relu_3x3"
  type: "ReLU"
  bottom: "inception_4e/3x3"
  top: "inception_4e/3x3"
}
layer {
  name: "inception_4e/5x5_reduce"
  type: "Convolution"
  bottom: "inception_4d/output"
  top: "inception_4e/5x5_reduce"
  param {
    lr_mult: 1
    decay_mult: 1
  }
  param {
    lr_mult: 2
    decay_mult: 0
  }
  convolution_param {
    num_output: 32
    kernel_size: 1
    weight_filler {
      type: "xavier"
      std: 0.2
    }
    bias_filler {
      type: "constant"
      value: 0.2
    }
  }
}
layer {
  name: "inception_4e/relu_5x5_reduce"
  type: "ReLU"
  bottom: "inception_4e/5x5_reduce"
  top: "inception_4e/5x5_reduce"
}
layer {
  name: "inception_4e/5x5"
  type: "Convolution"
  bottom: "inception_4e/5x5_reduce"
  top: "inception_4e/5x5"
  p
I0403 14:51:13.536573 13702 layer_factory.hpp:77] Creating layer data
I0403 14:51:13.537168 13702 net.cpp:91] Creating Layer data
I0403 14:51:13.537200 13702 net.cpp:399] data -> data
I0403 14:51:13.537250 13702 net.cpp:399] data -> label
I0403 14:51:13.537287 13702 data_transformer.cpp:25] Loading mean file from: /home/mohanty/data/final_dataset/lmdb/color-40-60/mean.binaryproto
I0403 14:51:13.539824 13706 db_lmdb.cpp:38] Opened lmdb /home/mohanty/data/final_dataset/lmdb/color-40-60/test_db
I0403 14:51:13.550631 13702 data_layer.cpp:41] output data size: 24,3,224,224
I0403 14:51:13.577819 13702 net.cpp:141] Setting up data
I0403 14:51:13.577879 13702 net.cpp:148] Top shape: 24 3 224 224 (3612672)
I0403 14:51:13.577901 13702 net.cpp:148] Top shape: 24 (24)
I0403 14:51:13.577918 13702 net.cpp:156] Memory required for data: 14450784
I0403 14:51:13.577944 13702 layer_factory.hpp:77] Creating layer label_data_1_split
I0403 14:51:13.577970 13702 net.cpp:91] Creating Layer label_data_1_split
I0403 14:51:13.577988 13702 net.cpp:425] label_data_1_split <- label
I0403 14:51:13.578022 13702 net.cpp:399] label_data_1_split -> label_data_1_split_0
I0403 14:51:13.578050 13702 net.cpp:399] label_data_1_split -> label_data_1_split_1
I0403 14:51:13.578071 13702 net.cpp:399] label_data_1_split -> label_data_1_split_2
I0403 14:51:13.578093 13702 net.cpp:399] label_data_1_split -> label_data_1_split_3
I0403 14:51:13.578112 13702 net.cpp:399] label_data_1_split -> label_data_1_split_4
I0403 14:51:13.578133 13702 net.cpp:399] label_data_1_split -> label_data_1_split_5
I0403 14:51:13.578152 13702 net.cpp:399] label_data_1_split -> label_data_1_split_6
I0403 14:51:13.578172 13702 net.cpp:399] label_data_1_split -> label_data_1_split_7
I0403 14:51:13.578192 13702 net.cpp:399] label_data_1_split -> label_data_1_split_8
I0403 14:51:13.578212 13702 net.cpp:399] label_data_1_split -> label_data_1_split_9
I0403 14:51:13.578330 13702 net.cpp:141] Setting up label_data_1_split
I0403 14:51:13.578354 13702 net.cpp:148] Top shape: 24 (24)
I0403 14:51:13.578372 13702 net.cpp:148] Top shape: 24 (24)
I0403 14:51:13.578388 13702 net.cpp:148] Top shape: 24 (24)
I0403 14:51:13.578403 13702 net.cpp:148] Top shape: 24 (24)
I0403 14:51:13.578419 13702 net.cpp:148] Top shape: 24 (24)
I0403 14:51:13.578434 13702 net.cpp:148] Top shape: 24 (24)
I0403 14:51:13.578450 13702 net.cpp:148] Top shape: 24 (24)
I0403 14:51:13.578466 13702 net.cpp:148] Top shape: 24 (24)
I0403 14:51:13.578482 13702 net.cpp:148] Top shape: 24 (24)
I0403 14:51:13.578498 13702 net.cpp:148] Top shape: 24 (24)
I0403 14:51:13.578546 13702 net.cpp:156] Memory required for data: 14451744
I0403 14:51:13.578562 13702 layer_factory.hpp:77] Creating layer conv1/7x7_s2
I0403 14:51:13.578599 13702 net.cpp:91] Creating Layer conv1/7x7_s2
I0403 14:51:13.578619 13702 net.cpp:425] conv1/7x7_s2 <- data
I0403 14:51:13.578639 13702 net.cpp:399] conv1/7x7_s2 -> conv1/7x7_s2
I0403 14:51:13.718629 13702 net.cpp:141] Setting up conv1/7x7_s2
I0403 14:51:13.718708 13702 net.cpp:148] Top shape: 24 64 112 112 (19267584)
I0403 14:51:13.718725 13702 net.cpp:156] Memory required for data: 91522080
I0403 14:51:13.718755 13702 layer_factory.hpp:77] Creating layer conv1/relu_7x7
I0403 14:51:13.718785 13702 net.cpp:91] Creating Layer conv1/relu_7x7
I0403 14:51:13.718803 13702 net.cpp:425] conv1/relu_7x7 <- conv1/7x7_s2
I0403 14:51:13.718822 13702 net.cpp:386] conv1/relu_7x7 -> conv1/7x7_s2 (in-place)
I0403 14:51:13.719131 13702 net.cpp:141] Setting up conv1/relu_7x7
I0403 14:51:13.719159 13702 net.cpp:148] Top shape: 24 64 112 112 (19267584)
I0403 14:51:13.719174 13702 net.cpp:156] Memory required for data: 168592416
I0403 14:51:13.719189 13702 layer_factory.hpp:77] Creating layer pool1/3x3_s2
I0403 14:51:13.719216 13702 net.cpp:91] Creating Layer pool1/3x3_s2
I0403 14:51:13.719234 13702 net.cpp:425] pool1/3x3_s2 <- conv1/7x7_s2
I0403 14:51:13.719254 13702 net.cpp:399] pool1/3x3_s2 -> pool1/3x3_s2
I0403 14:51:13.719331 13702 net.cpp:141] Setting up pool1/3x3_s2
I0403 14:51:13.719357 13702 net.cpp:148] Top shape: 24 64 56 56 (4816896)
I0403 14:51:13.719372 13702 net.cpp:156] Memory required for data: 187860000
I0403 14:51:13.719386 13702 layer_factory.hpp:77] Creating layer pool1/norm1
I0403 14:51:13.719413 13702 net.cpp:91] Creating Layer pool1/norm1
I0403 14:51:13.719430 13702 net.cpp:425] pool1/norm1 <- pool1/3x3_s2
I0403 14:51:13.719449 13702 net.cpp:399] pool1/norm1 -> pool1/norm1
I0403 14:51:13.719753 13702 net.cpp:141] Setting up pool1/norm1
I0403 14:51:13.719779 13702 net.cpp:148] Top shape: 24 64 56 56 (4816896)
I0403 14:51:13.719794 13702 net.cpp:156] Memory required for data: 207127584
I0403 14:51:13.719808 13702 layer_factory.hpp:77] Creating layer conv2/3x3_reduce
I0403 14:51:13.719840 13702 net.cpp:91] Creating Layer conv2/3x3_reduce
I0403 14:51:13.719856 13702 net.cpp:425] conv2/3x3_reduce <- pool1/norm1
I0403 14:51:13.719877 13702 net.cpp:399] conv2/3x3_reduce -> conv2/3x3_reduce
I0403 14:51:13.721297 13702 net.cpp:141] Setting up conv2/3x3_reduce
I0403 14:51:13.721326 13702 net.cpp:148] Top shape: 24 64 56 56 (4816896)
I0403 14:51:13.721343 13702 net.cpp:156] Memory required for data: 226395168
I0403 14:51:13.721364 13702 layer_factory.hpp:77] Creating layer conv2/relu_3x3_reduce
I0403 14:51:13.721382 13702 net.cpp:91] Creating Layer conv2/relu_3x3_reduce
I0403 14:51:13.721397 13702 net.cpp:425] conv2/relu_3x3_reduce <- conv2/3x3_reduce
I0403 14:51:13.721416 13702 net.cpp:386] conv2/relu_3x3_reduce -> conv2/3x3_reduce (in-place)
I0403 14:51:13.721690 13702 net.cpp:141] Setting up conv2/relu_3x3_reduce
I0403 14:51:13.721716 13702 net.cpp:148] Top shape: 24 64 56 56 (4816896)
I0403 14:51:13.721732 13702 net.cpp:156] Memory required for data: 245662752
I0403 14:51:13.721746 13702 layer_factory.hpp:77] Creating layer conv2/3x3
I0403 14:51:13.721771 13702 net.cpp:91] Creating Layer conv2/3x3
I0403 14:51:13.721788 13702 net.cpp:425] conv2/3x3 <- conv2/3x3_reduce
I0403 14:51:13.721810 13702 net.cpp:399] conv2/3x3 -> conv2/3x3
I0403 14:51:13.724182 13702 net.cpp:141] Setting up conv2/3x3
I0403 14:51:13.724213 13702 net.cpp:148] Top shape: 24 192 56 56 (14450688)
I0403 14:51:13.724241 13702 net.cpp:156] Memory required for data: 303465504
I0403 14:51:13.724261 13702 layer_factory.hpp:77] Creating layer conv2/relu_3x3
I0403 14:51:13.724279 13702 net.cpp:91] Creating Layer conv2/relu_3x3
I0403 14:51:13.724294 13702 net.cpp:425] conv2/relu_3x3 <- conv2/3x3
I0403 14:51:13.724313 13702 net.cpp:386] conv2/relu_3x3 -> conv2/3x3 (in-place)
I0403 14:51:13.724483 13702 net.cpp:141] Setting up conv2/relu_3x3
I0403 14:51:13.724508 13702 net.cpp:148] Top shape: 24 192 56 56 (14450688)
I0403 14:51:13.724551 13702 net.cpp:156] Memory required for data: 361268256
I0403 14:51:13.724575 13702 layer_factory.hpp:77] Creating layer conv2/norm2
I0403 14:51:13.724599 13702 net.cpp:91] Creating Layer conv2/norm2
I0403 14:51:13.724617 13702 net.cpp:425] conv2/norm2 <- conv2/3x3
I0403 14:51:13.724635 13702 net.cpp:399] conv2/norm2 -> conv2/norm2
I0403 14:51:13.724927 13702 net.cpp:141] Setting up conv2/norm2
I0403 14:51:13.724956 13702 net.cpp:148] Top shape: 24 192 56 56 (14450688)
I0403 14:51:13.724972 13702 net.cpp:156] Memory required for data: 419071008
I0403 14:51:13.724987 13702 layer_factory.hpp:77] Creating layer pool2/3x3_s2
I0403 14:51:13.725003 13702 net.cpp:91] Creating Layer pool2/3x3_s2
I0403 14:51:13.725018 13702 net.cpp:425] pool2/3x3_s2 <- conv2/norm2
I0403 14:51:13.725038 13702 net.cpp:399] pool2/3x3_s2 -> pool2/3x3_s2
I0403 14:51:13.725088 13702 net.cpp:141] Setting up pool2/3x3_s2
I0403 14:51:13.725111 13702 net.cpp:148] Top shape: 24 192 28 28 (3612672)
I0403 14:51:13.725124 13702 net.cpp:156] Memory required for data: 433521696
I0403 14:51:13.725138 13702 layer_factory.hpp:77] Creating layer pool2/3x3_s2_pool2/3x3_s2_0_split
I0403 14:51:13.725157 13702 net.cpp:91] Creating Layer pool2/3x3_s2_pool2/3x3_s2_0_split
I0403 14:51:13.725173 13702 net.cpp:425] pool2/3x3_s2_pool2/3x3_s2_0_split <- pool2/3x3_s2
I0403 14:51:13.725190 13702 net.cpp:399] pool2/3x3_s2_pool2/3x3_s2_0_split -> pool2/3x3_s2_pool2/3x3_s2_0_split_0
I0403 14:51:13.725209 13702 net.cpp:399] pool2/3x3_s2_pool2/3x3_s2_0_split -> pool2/3x3_s2_pool2/3x3_s2_0_split_1
I0403 14:51:13.725230 13702 net.cpp:399] pool2/3x3_s2_pool2/3x3_s2_0_split -> pool2/3x3_s2_pool2/3x3_s2_0_split_2
I0403 14:51:13.725250 13702 net.cpp:399] pool2/3x3_s2_pool2/3x3_s2_0_split -> pool2/3x3_s2_pool2/3x3_s2_0_split_3
I0403 14:51:13.725322 13702 net.cpp:141] Setting up pool2/3x3_s2_pool2/3x3_s2_0_split
I0403 14:51:13.725343 13702 net.cpp:148] Top shape: 24 192 28 28 (3612672)
I0403 14:51:13.725358 13702 net.cpp:148] Top shape: 24 192 28 28 (3612672)
I0403 14:51:13.725374 13702 net.cpp:148] Top shape: 24 192 28 28 (3612672)
I0403 14:51:13.725389 13702 net.cpp:148] Top shape: 24 192 28 28 (3612672)
I0403 14:51:13.725402 13702 net.cpp:156] Memory required for data: 491324448
I0403 14:51:13.725416 13702 layer_factory.hpp:77] Creating layer inception_3a/1x1
I0403 14:51:13.725438 13702 net.cpp:91] Creating Layer inception_3a/1x1
I0403 14:51:13.725455 13702 net.cpp:425] inception_3a/1x1 <- pool2/3x3_s2_pool2/3x3_s2_0_split_0
I0403 14:51:13.725476 13702 net.cpp:399] inception_3a/1x1 -> inception_3a/1x1
I0403 14:51:13.727002 13702 net.cpp:141] Setting up inception_3a/1x1
I0403 14:51:13.727033 13702 net.cpp:148] Top shape: 24 64 28 28 (1204224)
I0403 14:51:13.727051 13702 net.cpp:156] Memory required for data: 496141344
I0403 14:51:13.727068 13702 layer_factory.hpp:77] Creating layer inception_3a/relu_1x1
I0403 14:51:13.727087 13702 net.cpp:91] Creating Layer inception_3a/relu_1x1
I0403 14:51:13.727102 13702 net.cpp:425] inception_3a/relu_1x1 <- inception_3a/1x1
I0403 14:51:13.727121 13702 net.cpp:386] inception_3a/relu_1x1 -> inception_3a/1x1 (in-place)
I0403 14:51:13.727293 13702 net.cpp:141] Setting up inception_3a/relu_1x1
I0403 14:51:13.727316 13702 net.cpp:148] Top shape: 24 64 28 28 (1204224)
I0403 14:51:13.727330 13702 net.cpp:156] Memory required for data: 500958240
I0403 14:51:13.727344 13702 layer_factory.hpp:77] Creating layer inception_3a/3x3_reduce
I0403 14:51:13.727367 13702 net.cpp:91] Creating Layer inception_3a/3x3_reduce
I0403 14:51:13.727383 13702 net.cpp:425] inception_3a/3x3_reduce <- pool2/3x3_s2_pool2/3x3_s2_0_split_1
I0403 14:51:13.727404 13702 net.cpp:399] inception_3a/3x3_reduce -> inception_3a/3x3_reduce
I0403 14:51:13.729068 13702 net.cpp:141] Setting up inception_3a/3x3_reduce
I0403 14:51:13.729095 13702 net.cpp:148] Top shape: 24 96 28 28 (1806336)
I0403 14:51:13.729111 13702 net.cpp:156] Memory required for data: 508183584
I0403 14:51:13.729131 13702 layer_factory.hpp:77] Creating layer inception_3a/relu_3x3_reduce
I0403 14:51:13.729167 13702 net.cpp:91] Creating Layer inception_3a/relu_3x3_reduce
I0403 14:51:13.729185 13702 net.cpp:425] inception_3a/relu_3x3_reduce <- inception_3a/3x3_reduce
I0403 14:51:13.729203 13702 net.cpp:386] inception_3a/relu_3x3_reduce -> inception_3a/3x3_reduce (in-place)
I0403 14:51:13.729380 13702 net.cpp:141] Setting up inception_3a/relu_3x3_reduce
I0403 14:51:13.729408 13702 net.cpp:148] Top shape: 24 96 28 28 (1806336)
I0403 14:51:13.729423 13702 net.cpp:156] Memory required for data: 515408928
I0403 14:51:13.729437 13702 layer_factory.hpp:77] Creating layer inception_3a/3x3
I0403 14:51:13.729460 13702 net.cpp:91] Creating Layer inception_3a/3x3
I0403 14:51:13.729476 13702 net.cpp:425] inception_3a/3x3 <- inception_3a/3x3_reduce
I0403 14:51:13.729495 13702 net.cpp:399] inception_3a/3x3 -> inception_3a/3x3
I0403 14:51:13.731101 13702 net.cpp:141] Setting up inception_3a/3x3
I0403 14:51:13.731128 13702 net.cpp:148] Top shape: 24 128 28 28 (2408448)
I0403 14:51:13.731143 13702 net.cpp:156] Memory required for data: 525042720
I0403 14:51:13.731160 13702 layer_factory.hpp:77] Creating layer inception_3a/relu_3x3
I0403 14:51:13.731180 13702 net.cpp:91] Creating Layer inception_3a/relu_3x3
I0403 14:51:13.731196 13702 net.cpp:425] inception_3a/relu_3x3 <- inception_3a/3x3
I0403 14:51:13.731215 13702 net.cpp:386] inception_3a/relu_3x3 -> inception_3a/3x3 (in-place)
I0403 14:51:13.731483 13702 net.cpp:141] Setting up inception_3a/relu_3x3
I0403 14:51:13.731509 13702 net.cpp:148] Top shape: 24 128 28 28 (2408448)
I0403 14:51:13.731523 13702 net.cpp:156] Memory required for data: 534676512
I0403 14:51:13.731539 13702 layer_factory.hpp:77] Creating layer inception_3a/5x5_reduce
I0403 14:51:13.731562 13702 net.cpp:91] Creating Layer inception_3a/5x5_reduce
I0403 14:51:13.731585 13702 net.cpp:425] inception_3a/5x5_reduce <- pool2/3x3_s2_pool2/3x3_s2_0_split_2
I0403 14:51:13.731609 13702 net.cpp:399] inception_3a/5x5_reduce -> inception_3a/5x5_reduce
I0403 14:51:13.732545 13702 net.cpp:141] Setting up inception_3a/5x5_reduce
I0403 14:51:13.732576 13702 net.cpp:148] Top shape: 24 16 28 28 (301056)
I0403 14:51:13.732594 13702 net.cpp:156] Memory required for data: 535880736
I0403 14:51:13.732610 13702 layer_factory.hpp:77] Creating layer inception_3a/relu_5x5_reduce
I0403 14:51:13.732630 13702 net.cpp:91] Creating Layer inception_3a/relu_5x5_reduce
I0403 14:51:13.732646 13702 net.cpp:425] inception_3a/relu_5x5_reduce <- inception_3a/5x5_reduce
I0403 14:51:13.732663 13702 net.cpp:386] inception_3a/relu_5x5_reduce -> inception_3a/5x5_reduce (in-place)
I0403 14:51:13.732959 13702 net.cpp:141] Setting up inception_3a/relu_5x5_reduce
I0403 14:51:13.732985 13702 net.cpp:148] Top shape: 24 16 28 28 (301056)
I0403 14:51:13.733000 13702 net.cpp:156] Memory required for data: 537084960
I0403 14:51:13.733013 13702 layer_factory.hpp:77] Creating layer inception_3a/5x5
I0403 14:51:13.733036 13702 net.cpp:91] Creating Layer inception_3a/5x5
I0403 14:51:13.733052 13702 net.cpp:425] inception_3a/5x5 <- inception_3a/5x5_reduce
I0403 14:51:13.733072 13702 net.cpp:399] inception_3a/5x5 -> inception_3a/5x5
I0403 14:51:13.734066 13702 net.cpp:141] Setting up inception_3a/5x5
I0403 14:51:13.734091 13702 net.cpp:148] Top shape: 24 32 28 28 (602112)
I0403 14:51:13.734107 13702 net.cpp:156] Memory required for data: 539493408
I0403 14:51:13.734124 13702 layer_factory.hpp:77] Creating layer inception_3a/relu_5x5
I0403 14:51:13.734141 13702 net.cpp:91] Creating Layer inception_3a/relu_5x5
I0403 14:51:13.734160 13702 net.cpp:425] inception_3a/relu_5x5 <- inception_3a/5x5
I0403 14:51:13.734176 13702 net.cpp:386] inception_3a/relu_5x5 -> inception_3a/5x5 (in-place)
I0403 14:51:13.734347 13702 net.cpp:141] Setting up inception_3a/relu_5x5
I0403 14:51:13.734371 13702 net.cpp:148] Top shape: 24 32 28 28 (602112)
I0403 14:51:13.734385 13702 net.cpp:156] Memory required for data: 541901856
I0403 14:51:13.734400 13702 layer_factory.hpp:77] Creating layer inception_3a/pool
I0403 14:51:13.734419 13702 net.cpp:91] Creating Layer inception_3a/pool
I0403 14:51:13.734436 13702 net.cpp:425] inception_3a/pool <- pool2/3x3_s2_pool2/3x3_s2_0_split_3
I0403 14:51:13.734467 13702 net.cpp:399] inception_3a/pool -> inception_3a/pool
I0403 14:51:13.734527 13702 net.cpp:141] Setting up inception_3a/pool
I0403 14:51:13.734550 13702 net.cpp:148] Top shape: 24 192 28 28 (3612672)
I0403 14:51:13.734565 13702 net.cpp:156] Memory required for data: 556352544
I0403 14:51:13.734591 13702 layer_factory.hpp:77] Creating layer inception_3a/pool_proj
I0403 14:51:13.734614 13702 net.cpp:91] Creating Layer inception_3a/pool_proj
I0403 14:51:13.734632 13702 net.cpp:425] inception_3a/pool_proj <- inception_3a/pool
I0403 14:51:13.734652 13702 net.cpp:399] inception_3a/pool_proj -> inception_3a/pool_proj
I0403 14:51:13.735602 13702 net.cpp:141] Setting up inception_3a/pool_proj
I0403 14:51:13.735631 13702 net.cpp:148] Top shape: 24 32 28 28 (602112)
I0403 14:51:13.735647 13702 net.cpp:156] Memory required for data: 558760992
I0403 14:51:13.735668 13702 layer_factory.hpp:77] Creating layer inception_3a/relu_pool_proj
I0403 14:51:13.735689 13702 net.cpp:91] Creating Layer inception_3a/relu_pool_proj
I0403 14:51:13.735707 13702 net.cpp:425] inception_3a/relu_pool_proj <- inception_3a/pool_proj
I0403 14:51:13.735723 13702 net.cpp:386] inception_3a/relu_pool_proj -> inception_3a/pool_proj (in-place)
I0403 14:51:13.735991 13702 net.cpp:141] Setting up inception_3a/relu_pool_proj
I0403 14:51:13.736016 13702 net.cpp:148] Top shape: 24 32 28 28 (602112)
I0403 14:51:13.736030 13702 net.cpp:156] Memory required for data: 561169440
I0403 14:51:13.736045 13702 layer_factory.hpp:77] Creating layer inception_3a/output
I0403 14:51:13.736063 13702 net.cpp:91] Creating Layer inception_3a/output
I0403 14:51:13.736078 13702 net.cpp:425] inception_3a/output <- inception_3a/1x1
I0403 14:51:13.736094 13702 net.cpp:425] inception_3a/output <- inception_3a/3x3
I0403 14:51:13.736109 13702 net.cpp:425] inception_3a/output <- inception_3a/5x5
I0403 14:51:13.736125 13702 net.cpp:425] inception_3a/output <- inception_3a/pool_proj
I0403 14:51:13.736143 13702 net.cpp:399] inception_3a/output -> inception_3a/output
I0403 14:51:13.736187 13702 net.cpp:141] Setting up inception_3a/output
I0403 14:51:13.736212 13702 net.cpp:148] Top shape: 24 256 28 28 (4816896)
I0403 14:51:13.736227 13702 net.cpp:156] Memory required for data: 580437024
I0403 14:51:13.736241 13702 layer_factory.hpp:77] Creating layer inception_3a/output_inception_3a/output_0_split
I0403 14:51:13.736258 13702 net.cpp:91] Creating Layer inception_3a/output_inception_3a/output_0_split
I0403 14:51:13.736273 13702 net.cpp:425] inception_3a/output_inception_3a/output_0_split <- inception_3a/output
I0403 14:51:13.736291 13702 net.cpp:399] inception_3a/output_inception_3a/output_0_split -> inception_3a/output_inception_3a/output_0_split_0
I0403 14:51:13.736311 13702 net.cpp:399] inception_3a/output_inception_3a/output_0_split -> inception_3a/output_inception_3a/output_0_split_1
I0403 14:51:13.736332 13702 net.cpp:399] inception_3a/output_inception_3a/output_0_split -> inception_3a/output_inception_3a/output_0_split_2
I0403 14:51:13.736352 13702 net.cpp:399] inception_3a/output_inception_3a/output_0_split -> inception_3a/output_inception_3a/output_0_split_3
I0403 14:51:13.736424 13702 net.cpp:141] Setting up inception_3a/output_inception_3a/output_0_split
I0403 14:51:13.736448 13702 net.cpp:148] Top shape: 24 256 28 28 (4816896)
I0403 14:51:13.736464 13702 net.cpp:148] Top shape: 24 256 28 28 (4816896)
I0403 14:51:13.736479 13702 net.cpp:148] Top shape: 24 256 28 28 (4816896)
I0403 14:51:13.736493 13702 net.cpp:148] Top shape: 24 256 28 28 (4816896)
I0403 14:51:13.736506 13702 net.cpp:156] Memory required for data: 657507360
I0403 14:51:13.736521 13702 layer_factory.hpp:77] Creating layer inception_3b/1x1
I0403 14:51:13.736543 13702 net.cpp:91] Creating Layer inception_3b/1x1
I0403 14:51:13.736559 13702 net.cpp:425] inception_3b/1x1 <- inception_3a/output_inception_3a/output_0_split_0
I0403 14:51:13.736585 13702 net.cpp:399] inception_3b/1x1 -> inception_3b/1x1
I0403 14:51:13.737694 13702 net.cpp:141] Setting up inception_3b/1x1
I0403 14:51:13.737732 13702 net.cpp:148] Top shape: 24 128 28 28 (2408448)
I0403 14:51:13.737747 13702 net.cpp:156] Memory required for data: 667141152
I0403 14:51:13.737764 13702 layer_factory.hpp:77] Creating layer inception_3b/relu_1x1
I0403 14:51:13.737782 13702 net.cpp:91] Creating Layer inception_3b/relu_1x1
I0403 14:51:13.737797 13702 net.cpp:425] inception_3b/relu_1x1 <- inception_3b/1x1
I0403 14:51:13.737817 13702 net.cpp:386] inception_3b/relu_1x1 -> inception_3b/1x1 (in-place)
I0403 14:51:13.737993 13702 net.cpp:141] Setting up inception_3b/relu_1x1
I0403 14:51:13.738018 13702 net.cpp:148] Top shape: 24 128 28 28 (2408448)
I0403 14:51:13.738031 13702 net.cpp:156] Memory required for data: 676774944
I0403 14:51:13.738046 13702 layer_factory.hpp:77] Creating layer inception_3b/3x3_reduce
I0403 14:51:13.738067 13702 net.cpp:91] Creating Layer inception_3b/3x3_reduce
I0403 14:51:13.738085 13702 net.cpp:425] inception_3b/3x3_reduce <- inception_3a/output_inception_3a/output_0_split_1
I0403 14:51:13.738106 13702 net.cpp:399] inception_3b/3x3_reduce -> inception_3b/3x3_reduce
I0403 14:51:13.739207 13702 net.cpp:141] Setting up inception_3b/3x3_reduce
I0403 14:51:13.739236 13702 net.cpp:148] Top shape: 24 128 28 28 (2408448)
I0403 14:51:13.739253 13702 net.cpp:156] Memory required for data: 686408736
I0403 14:51:13.739271 13702 layer_factory.hpp:77] Creating layer inception_3b/relu_3x3_reduce
I0403 14:51:13.739289 13702 net.cpp:91] Creating Layer inception_3b/relu_3x3_reduce
I0403 14:51:13.739305 13702 net.cpp:425] inception_3b/relu_3x3_reduce <- inception_3b/3x3_reduce
I0403 14:51:13.739323 13702 net.cpp:386] inception_3b/relu_3x3_reduce -> inception_3b/3x3_reduce (in-place)
I0403 14:51:13.739495 13702 net.cpp:141] Setting up inception_3b/relu_3x3_reduce
I0403 14:51:13.739521 13702 net.cpp:148] Top shape: 24 128 28 28 (2408448)
I0403 14:51:13.739534 13702 net.cpp:156] Memory required for data: 696042528
I0403 14:51:13.739548 13702 layer_factory.hpp:77] Creating layer inception_3b/3x3
I0403 14:51:13.739578 13702 net.cpp:91] Creating Layer inception_3b/3x3
I0403 14:51:13.739598 13702 net.cpp:425] inception_3b/3x3 <- inception_3b/3x3_reduce
I0403 14:51:13.739617 13702 net.cpp:399] inception_3b/3x3 -> inception_3b/3x3
I0403 14:51:13.742507 13702 net.cpp:141] Setting up inception_3b/3x3
I0403 14:51:13.742537 13702 net.cpp:148] Top shape: 24 192 28 28 (3612672)
I0403 14:51:13.742558 13702 net.cpp:156] Memory required for data: 710493216
I0403 14:51:13.742580 13702 layer_factory.hpp:77] Creating layer inception_3b/relu_3x3
I0403 14:51:13.742602 13702 net.cpp:91] Creating Layer inception_3b/relu_3x3
I0403 14:51:13.742619 13702 net.cpp:425] inception_3b/relu_3x3 <- inception_3b/3x3
I0403 14:51:13.742637 13702 net.cpp:386] inception_3b/relu_3x3 -> inception_3b/3x3 (in-place)
I0403 14:51:13.742930 13702 net.cpp:141] Setting up inception_3b/relu_3x3
I0403 14:51:13.742956 13702 net.cpp:148] Top shape: 24 192 28 28 (3612672)
I0403 14:51:13.742971 13702 net.cpp:156] Memory required for data: 724943904
I0403 14:51:13.742986 13702 layer_factory.hpp:77] Creating layer inception_3b/5x5_reduce
I0403 14:51:13.743010 13702 net.cpp:91] Creating Layer inception_3b/5x5_reduce
I0403 14:51:13.743028 13702 net.cpp:425] inception_3b/5x5_reduce <- inception_3a/output_inception_3a/output_0_split_2
I0403 14:51:13.743049 13702 net.cpp:399] inception_3b/5x5_reduce -> inception_3b/5x5_reduce
I0403 14:51:13.744050 13702 net.cpp:141] Setting up inception_3b/5x5_reduce
I0403 14:51:13.744077 13702 net.cpp:148] Top shape: 24 32 28 28 (602112)
I0403 14:51:13.744092 13702 net.cpp:156] Memory required for data: 727352352
I0403 14:51:13.744110 13702 layer_factory.hpp:77] Creating layer inception_3b/relu_5x5_reduce
I0403 14:51:13.744132 13702 net.cpp:91] Creating Layer inception_3b/relu_5x5_reduce
I0403 14:51:13.744148 13702 net.cpp:425] inception_3b/relu_5x5_reduce <- inception_3b/5x5_reduce
I0403 14:51:13.744165 13702 net.cpp:386] inception_3b/relu_5x5_reduce -> inception_3b/5x5_reduce (in-place)
I0403 14:51:13.744345 13702 net.cpp:141] Setting up inception_3b/relu_5x5_reduce
I0403 14:51:13.744382 13702 net.cpp:148] Top shape: 24 32 28 28 (602112)
I0403 14:51:13.744397 13702 net.cpp:156] Memory required for data: 729760800
I0403 14:51:13.744412 13702 layer_factory.hpp:77] Creating layer inception_3b/5x5
I0403 14:51:13.744434 13702 net.cpp:91] Creating Layer inception_3b/5x5
I0403 14:51:13.744452 13702 net.cpp:425] inception_3b/5x5 <- inception_3b/5x5_reduce
I0403 14:51:13.744473 13702 net.cpp:399] inception_3b/5x5 -> inception_3b/5x5
I0403 14:51:13.746491 13702 net.cpp:141] Setting up inception_3b/5x5
I0403 14:51:13.746522 13702 net.cpp:148] Top shape: 24 96 28 28 (1806336)
I0403 14:51:13.746539 13702 net.cpp:156] Memory required for data: 736986144
I0403 14:51:13.746559 13702 layer_factory.hpp:77] Creating layer inception_3b/relu_5x5
I0403 14:51:13.746582 13702 net.cpp:91] Creating Layer inception_3b/relu_5x5
I0403 14:51:13.746600 13702 net.cpp:425] inception_3b/relu_5x5 <- inception_3b/5x5
I0403 14:51:13.746620 13702 net.cpp:386] inception_3b/relu_5x5 -> inception_3b/5x5 (in-place)
I0403 14:51:13.746817 13702 net.cpp:141] Setting up inception_3b/relu_5x5
I0403 14:51:13.746843 13702 net.cpp:148] Top shape: 24 96 28 28 (1806336)
I0403 14:51:13.746860 13702 net.cpp:156] Memory required for data: 744211488
I0403 14:51:13.746875 13702 layer_factory.hpp:77] Creating layer inception_3b/pool
I0403 14:51:13.746892 13702 net.cpp:91] Creating Layer inception_3b/pool
I0403 14:51:13.746909 13702 net.cpp:425] inception_3b/pool <- inception_3a/output_inception_3a/output_0_split_3
I0403 14:51:13.746927 13702 net.cpp:399] inception_3b/pool -> inception_3b/pool
I0403 14:51:13.746986 13702 net.cpp:141] Setting up inception_3b/pool
I0403 14:51:13.747009 13702 net.cpp:148] Top shape: 24 256 28 28 (4816896)
I0403 14:51:13.747025 13702 net.cpp:156] Memory required for data: 763479072
I0403 14:51:13.747040 13702 layer_factory.hpp:77] Creating layer inception_3b/pool_proj
I0403 14:51:13.747064 13702 net.cpp:91] Creating Layer inception_3b/pool_proj
I0403 14:51:13.747082 13702 net.cpp:425] inception_3b/pool_proj <- inception_3b/pool
I0403 14:51:13.747102 13702 net.cpp:399] inception_3b/pool_proj -> inception_3b/pool_proj
I0403 14:51:13.748200 13702 net.cpp:141] Setting up inception_3b/pool_proj
I0403 14:51:13.748229 13702 net.cpp:148] Top shape: 24 64 28 28 (1204224)
I0403 14:51:13.748245 13702 net.cpp:156] Memory required for data: 768295968
I0403 14:51:13.748266 13702 layer_factory.hpp:77] Creating layer inception_3b/relu_pool_proj
I0403 14:51:13.748287 13702 net.cpp:91] Creating Layer inception_3b/relu_pool_proj
I0403 14:51:13.748306 13702 net.cpp:425] inception_3b/relu_pool_proj <- inception_3b/pool_proj
I0403 14:51:13.748322 13702 net.cpp:386] inception_3b/relu_pool_proj -> inception_3b/pool_proj (in-place)
I0403 14:51:13.748739 13702 net.cpp:141] Setting up inception_3b/relu_pool_proj
I0403 14:51:13.748766 13702 net.cpp:148] Top shape: 24 64 28 28 (1204224)
I0403 14:51:13.748782 13702 net.cpp:156] Memory required for data: 773112864
I0403 14:51:13.748797 13702 layer_factory.hpp:77] Creating layer inception_3b/output
I0403 14:51:13.748817 13702 net.cpp:91] Creating Layer inception_3b/output
I0403 14:51:13.748834 13702 net.cpp:425] inception_3b/output <- inception_3b/1x1
I0403 14:51:13.748852 13702 net.cpp:425] inception_3b/output <- inception_3b/3x3
I0403 14:51:13.748867 13702 net.cpp:425] inception_3b/output <- inception_3b/5x5
I0403 14:51:13.748884 13702 net.cpp:425] inception_3b/output <- inception_3b/pool_proj
I0403 14:51:13.748901 13702 net.cpp:399] inception_3b/output -> inception_3b/output
I0403 14:51:13.748949 13702 net.cpp:141] Setting up inception_3b/output
I0403 14:51:13.748971 13702 net.cpp:148] Top shape: 24 480 28 28 (9031680)
I0403 14:51:13.748986 13702 net.cpp:156] Memory required for data: 809239584
I0403 14:51:13.749001 13702 layer_factory.hpp:77] Creating layer pool3/3x3_s2
I0403 14:51:13.749019 13702 net.cpp:91] Creating Layer pool3/3x3_s2
I0403 14:51:13.749035 13702 net.cpp:425] pool3/3x3_s2 <- inception_3b/output
I0403 14:51:13.749056 13702 net.cpp:399] pool3/3x3_s2 -> pool3/3x3_s2
I0403 14:51:13.749130 13702 net.cpp:141] Setting up pool3/3x3_s2
I0403 14:51:13.749156 13702 net.cpp:148] Top shape: 24 480 14 14 (2257920)
I0403 14:51:13.749172 13702 net.cpp:156] Memory required for data: 818271264
I0403 14:51:13.749187 13702 layer_factory.hpp:77] Creating layer pool3/3x3_s2_pool3/3x3_s2_0_split
I0403 14:51:13.749205 13702 net.cpp:91] Creating Layer pool3/3x3_s2_pool3/3x3_s2_0_split
I0403 14:51:13.749220 13702 net.cpp:425] pool3/3x3_s2_pool3/3x3_s2_0_split <- pool3/3x3_s2
I0403 14:51:13.749238 13702 net.cpp:399] pool3/3x3_s2_pool3/3x3_s2_0_split -> pool3/3x3_s2_pool3/3x3_s2_0_split_0
I0403 14:51:13.749260 13702 net.cpp:399] pool3/3x3_s2_pool3/3x3_s2_0_split -> pool3/3x3_s2_pool3/3x3_s2_0_split_1
I0403 14:51:13.749281 13702 net.cpp:399] pool3/3x3_s2_pool3/3x3_s2_0_split -> pool3/3x3_s2_pool3/3x3_s2_0_split_2
I0403 14:51:13.749301 13702 net.cpp:399] pool3/3x3_s2_pool3/3x3_s2_0_split -> pool3/3x3_s2_pool3/3x3_s2_0_split_3
I0403 14:51:13.749379 13702 net.cpp:141] Setting up pool3/3x3_s2_pool3/3x3_s2_0_split
I0403 14:51:13.749403 13702 net.cpp:148] Top shape: 24 480 14 14 (2257920)
I0403 14:51:13.749420 13702 net.cpp:148] Top shape: 24 480 14 14 (2257920)
I0403 14:51:13.749436 13702 net.cpp:148] Top shape: 24 480 14 14 (2257920)
I0403 14:51:13.749452 13702 net.cpp:148] Top shape: 24 480 14 14 (2257920)
I0403 14:51:13.749466 13702 net.cpp:156] Memory required for data: 854397984
I0403 14:51:13.749480 13702 layer_factory.hpp:77] Creating layer inception_4a/1x1
I0403 14:51:13.749503 13702 net.cpp:91] Creating Layer inception_4a/1x1
I0403 14:51:13.749521 13702 net.cpp:425] inception_4a/1x1 <- pool3/3x3_s2_pool3/3x3_s2_0_split_0
I0403 14:51:13.749543 13702 net.cpp:399] inception_4a/1x1 -> inception_4a/1x1
I0403 14:51:13.751173 13702 net.cpp:141] Setting up inception_4a/1x1
I0403 14:51:13.751200 13702 net.cpp:148] Top shape: 24 192 14 14 (903168)
I0403 14:51:13.751216 13702 net.cpp:156] Memory required for data: 858010656
I0403 14:51:13.751235 13702 layer_factory.hpp:77] Creating layer inception_4a/relu_1x1
I0403 14:51:13.751256 13702 net.cpp:91] Creating Layer inception_4a/relu_1x1
I0403 14:51:13.751273 13702 net.cpp:425] inception_4a/relu_1x1 <- inception_4a/1x1
I0403 14:51:13.751291 13702 net.cpp:386] inception_4a/relu_1x1 -> inception_4a/1x1 (in-place)
I0403 14:51:13.751476 13702 net.cpp:141] Setting up inception_4a/relu_1x1
I0403 14:51:13.751502 13702 net.cpp:148] Top shape: 24 192 14 14 (903168)
I0403 14:51:13.751516 13702 net.cpp:156] Memory required for data: 861623328
I0403 14:51:13.751531 13702 layer_factory.hpp:77] Creating layer inception_4a/3x3_reduce
I0403 14:51:13.751554 13702 net.cpp:91] Creating Layer inception_4a/3x3_reduce
I0403 14:51:13.751575 13702 net.cpp:425] inception_4a/3x3_reduce <- pool3/3x3_s2_pool3/3x3_s2_0_split_1
I0403 14:51:13.751600 13702 net.cpp:399] inception_4a/3x3_reduce -> inception_4a/3x3_reduce
I0403 14:51:13.752918 13702 net.cpp:141] Setting up inception_4a/3x3_reduce
I0403 14:51:13.752949 13702 net.cpp:148] Top shape: 24 96 14 14 (451584)
I0403 14:51:13.752966 13702 net.cpp:156] Memory required for data: 863429664
I0403 14:51:13.752990 13702 layer_factory.hpp:77] Creating layer inception_4a/relu_3x3_reduce
I0403 14:51:13.753013 13702 net.cpp:91] Creating Layer inception_4a/relu_3x3_reduce
I0403 14:51:13.753031 13702 net.cpp:425] inception_4a/relu_3x3_reduce <- inception_4a/3x3_reduce
I0403 14:51:13.753051 13702 net.cpp:386] inception_4a/relu_3x3_reduce -> inception_4a/3x3_reduce (in-place)
I0403 14:51:13.753234 13702 net.cpp:141] Setting up inception_4a/relu_3x3_reduce
I0403 14:51:13.753262 13702 net.cpp:148] Top shape: 24 96 14 14 (451584)
I0403 14:51:13.753278 13702 net.cpp:156] Memory required for data: 865236000
I0403 14:51:13.753293 13702 layer_factory.hpp:77] Creating layer inception_4a/3x3
I0403 14:51:13.753317 13702 net.cpp:91] Creating Layer inception_4a/3x3
I0403 14:51:13.753335 13702 net.cpp:425] inception_4a/3x3 <- inception_4a/3x3_reduce
I0403 14:51:13.753355 13702 net.cpp:399] inception_4a/3x3 -> inception_4a/3x3
I0403 14:51:13.756129 13702 net.cpp:141] Setting up inception_4a/3x3
I0403 14:51:13.756160 13702 net.cpp:148] Top shape: 24 208 14 14 (978432)
I0403 14:51:13.756178 13702 net.cpp:156] Memory required for data: 869149728
I0403 14:51:13.756197 13702 layer_factory.hpp:77] Creating layer inception_4a/relu_3x3
I0403 14:51:13.756217 13702 net.cpp:91] Creating Layer inception_4a/relu_3x3
I0403 14:51:13.756232 13702 net.cpp:425] inception_4a/relu_3x3 <- inception_4a/3x3
I0403 14:51:13.756253 13702 net.cpp:386] inception_4a/relu_3x3 -> inception_4a/3x3 (in-place)
I0403 14:51:13.756541 13702 net.cpp:141] Setting up inception_4a/relu_3x3
I0403 14:51:13.756574 13702 net.cpp:148] Top shape: 24 208 14 14 (978432)
I0403 14:51:13.756592 13702 net.cpp:156] Memory required for data: 873063456
I0403 14:51:13.756608 13702 layer_factory.hpp:77] Creating layer inception_4a/5x5_reduce
I0403 14:51:13.756633 13702 net.cpp:91] Creating Layer inception_4a/5x5_reduce
I0403 14:51:13.756650 13702 net.cpp:425] inception_4a/5x5_reduce <- pool3/3x3_s2_pool3/3x3_s2_0_split_2
I0403 14:51:13.756670 13702 net.cpp:399] inception_4a/5x5_reduce -> inception_4a/5x5_reduce
I0403 14:51:13.757735 13702 net.cpp:141] Setting up inception_4a/5x5_reduce
I0403 14:51:13.757763 13702 net.cpp:148] Top shape: 24 16 14 14 (75264)
I0403 14:51:13.757779 13702 net.cpp:156] Memory required for data: 873364512
I0403 14:51:13.757798 13702 layer_factory.hpp:77] Creating layer inception_4a/relu_5x5_reduce
I0403 14:51:13.757817 13702 net.cpp:91] Creating Layer inception_4a/relu_5x5_reduce
I0403 14:51:13.757838 13702 net.cpp:425] inception_4a/relu_5x5_reduce <- inception_4a/5x5_reduce
I0403 14:51:13.757856 13702 net.cpp:386] inception_4a/relu_5x5_reduce -> inception_4a/5x5_reduce (in-place)
I0403 14:51:13.758040 13702 net.cpp:141] Setting up inception_4a/relu_5x5_reduce
I0403 14:51:13.758065 13702 net.cpp:148] Top shape: 24 16 14 14 (75264)
I0403 14:51:13.758080 13702 net.cpp:156] Memory required for data: 873665568
I0403 14:51:13.758095 13702 layer_factory.hpp:77] Creating layer inception_4a/5x5
I0403 14:51:13.758118 13702 net.cpp:91] Creating Layer inception_4a/5x5
I0403 14:51:13.758136 13702 net.cpp:425] inception_4a/5x5 <- inception_4a/5x5_reduce
I0403 14:51:13.758157 13702 net.cpp:399] inception_4a/5x5 -> inception_4a/5x5
I0403 14:51:13.759281 13702 net.cpp:141] Setting up inception_4a/5x5
I0403 14:51:13.759310 13702 net.cpp:148] Top shape: 24 48 14 14 (225792)
I0403 14:51:13.759325 13702 net.cpp:156] Memory required for data: 874568736
I0403 14:51:13.759344 13702 layer_factory.hpp:77] Creating layer inception_4a/relu_5x5
I0403 14:51:13.759366 13702 net.cpp:91] Creating Layer inception_4a/relu_5x5
I0403 14:51:13.759383 13702 net.cpp:425] inception_4a/relu_5x5 <- inception_4a/5x5
I0403 14:51:13.759402 13702 net.cpp:386] inception_4a/relu_5x5 -> inception_4a/5x5 (in-place)
I0403 14:51:13.759588 13702 net.cpp:141] Setting up inception_4a/relu_5x5
I0403 14:51:13.759629 13702 net.cpp:148] Top shape: 24 48 14 14 (225792)
I0403 14:51:13.759645 13702 net.cpp:156] Memory required for data: 875471904
I0403 14:51:13.759661 13702 layer_factory.hpp:77] Creating layer inception_4a/pool
I0403 14:51:13.759680 13702 net.cpp:91] Creating Layer inception_4a/pool
I0403 14:51:13.759696 13702 net.cpp:425] inception_4a/pool <- pool3/3x3_s2_pool3/3x3_s2_0_split_3
I0403 14:51:13.759716 13702 net.cpp:399] inception_4a/pool -> inception_4a/pool
I0403 14:51:13.759776 13702 net.cpp:141] Setting up inception_4a/pool
I0403 14:51:13.759799 13702 net.cpp:148] Top shape: 24 480 14 14 (2257920)
I0403 14:51:13.759814 13702 net.cpp:156] Memory required for data: 884503584
I0403 14:51:13.759829 13702 layer_factory.hpp:77] Creating layer inception_4a/pool_proj
I0403 14:51:13.759850 13702 net.cpp:91] Creating Layer inception_4a/pool_proj
I0403 14:51:13.759867 13702 net.cpp:425] inception_4a/pool_proj <- inception_4a/pool
I0403 14:51:13.759888 13702 net.cpp:399] inception_4a/pool_proj -> inception_4a/pool_proj
I0403 14:51:13.761073 13702 net.cpp:141] Setting up inception_4a/pool_proj
I0403 14:51:13.761106 13702 net.cpp:148] Top shape: 24 64 14 14 (301056)
I0403 14:51:13.761135 13702 net.cpp:156] Memory required for data: 885707808
I0403 14:51:13.761155 13702 layer_factory.hpp:77] Creating layer inception_4a/relu_pool_proj
I0403 14:51:13.761173 13702 net.cpp:91] Creating Layer inception_4a/relu_pool_proj
I0403 14:51:13.761189 13702 net.cpp:425] inception_4a/relu_pool_proj <- inception_4a/pool_proj
I0403 14:51:13.761206 13702 net.cpp:386] inception_4a/relu_pool_proj -> inception_4a/pool_proj (in-place)
I0403 14:51:13.761489 13702 net.cpp:141] Setting up inception_4a/relu_pool_proj
I0403 14:51:13.761518 13702 net.cpp:148] Top shape: 24 64 14 14 (301056)
I0403 14:51:13.761533 13702 net.cpp:156] Memory required for data: 886912032
I0403 14:51:13.761548 13702 layer_factory.hpp:77] Creating layer inception_4a/output
I0403 14:51:13.761566 13702 net.cpp:91] Creating Layer inception_4a/output
I0403 14:51:13.761587 13702 net.cpp:425] inception_4a/output <- inception_4a/1x1
I0403 14:51:13.761605 13702 net.cpp:425] inception_4a/output <- inception_4a/3x3
I0403 14:51:13.761620 13702 net.cpp:425] inception_4a/output <- inception_4a/5x5
I0403 14:51:13.761637 13702 net.cpp:425] inception_4a/output <- inception_4a/pool_proj
I0403 14:51:13.761654 13702 net.cpp:399] inception_4a/output -> inception_4a/output
I0403 14:51:13.761700 13702 net.cpp:141] Setting up inception_4a/output
I0403 14:51:13.761723 13702 net.cpp:148] Top shape: 24 512 14 14 (2408448)
I0403 14:51:13.761739 13702 net.cpp:156] Memory required for data: 896545824
I0403 14:51:13.761754 13702 layer_factory.hpp:77] Creating layer inception_4a/output_inception_4a/output_0_split
I0403 14:51:13.761771 13702 net.cpp:91] Creating Layer inception_4a/output_inception_4a/output_0_split
I0403 14:51:13.761790 13702 net.cpp:425] inception_4a/output_inception_4a/output_0_split <- inception_4a/output
I0403 14:51:13.761808 13702 net.cpp:399] inception_4a/output_inception_4a/output_0_split -> inception_4a/output_inception_4a/output_0_split_0
I0403 14:51:13.761828 13702 net.cpp:399] inception_4a/output_inception_4a/output_0_split -> inception_4a/output_inception_4a/output_0_split_1
I0403 14:51:13.761849 13702 net.cpp:399] inception_4a/output_inception_4a/output_0_split -> inception_4a/output_inception_4a/output_0_split_2
I0403 14:51:13.761869 13702 net.cpp:399] inception_4a/output_inception_4a/output_0_split -> inception_4a/output_inception_4a/output_0_split_3
I0403 14:51:13.761889 13702 net.cpp:399] inception_4a/output_inception_4a/output_0_split -> inception_4a/output_inception_4a/output_0_split_4
I0403 14:51:13.761982 13702 net.cpp:141] Setting up inception_4a/output_inception_4a/output_0_split
I0403 14:51:13.762006 13702 net.cpp:148] Top shape: 24 512 14 14 (2408448)
I0403 14:51:13.762022 13702 net.cpp:148] Top shape: 24 512 14 14 (2408448)
I0403 14:51:13.762037 13702 net.cpp:148] Top shape: 24 512 14 14 (2408448)
I0403 14:51:13.762053 13702 net.cpp:148] Top shape: 24 512 14 14 (2408448)
I0403 14:51:13.762068 13702 net.cpp:148] Top shape: 24 512 14 14 (2408448)
I0403 14:51:13.762081 13702 net.cpp:156] Memory required for data: 944714784
I0403 14:51:13.762096 13702 layer_factory.hpp:77] Creating layer loss1/ave_pool
I0403 14:51:13.762115 13702 net.cpp:91] Creating Layer loss1/ave_pool
I0403 14:51:13.762130 13702 net.cpp:425] loss1/ave_pool <- inception_4a/output_inception_4a/output_0_split_0
I0403 14:51:13.762151 13702 net.cpp:399] loss1/ave_pool -> loss1/ave_pool
I0403 14:51:13.762358 13702 net.cpp:141] Setting up loss1/ave_pool
I0403 14:51:13.762387 13702 net.cpp:148] Top shape: 24 512 4 4 (196608)
I0403 14:51:13.762401 13702 net.cpp:156] Memory required for data: 945501216
I0403 14:51:13.762416 13702 layer_factory.hpp:77] Creating layer loss1/conv
I0403 14:51:13.762437 13702 net.cpp:91] Creating Layer loss1/conv
I0403 14:51:13.762454 13702 net.cpp:425] loss1/conv <- loss1/ave_pool
I0403 14:51:13.762473 13702 net.cpp:399] loss1/conv -> loss1/conv
I0403 14:51:13.763893 13702 net.cpp:141] Setting up loss1/conv
I0403 14:51:13.763922 13702 net.cpp:148] Top shape: 24 128 4 4 (49152)
I0403 14:51:13.763939 13702 net.cpp:156] Memory required for data: 945697824
I0403 14:51:13.763974 13702 layer_factory.hpp:77] Creating layer loss1/relu_conv
I0403 14:51:13.763994 13702 net.cpp:91] Creating Layer loss1/relu_conv
I0403 14:51:13.764010 13702 net.cpp:425] loss1/relu_conv <- loss1/conv
I0403 14:51:13.764030 13702 net.cpp:386] loss1/relu_conv -> loss1/conv (in-place)
I0403 14:51:13.764312 13702 net.cpp:141] Setting up loss1/relu_conv
I0403 14:51:13.764339 13702 net.cpp:148] Top shape: 24 128 4 4 (49152)
I0403 14:51:13.764355 13702 net.cpp:156] Memory required for data: 945894432
I0403 14:51:13.764371 13702 layer_factory.hpp:77] Creating layer loss1/fc
I0403 14:51:13.764394 13702 net.cpp:91] Creating Layer loss1/fc
I0403 14:51:13.764413 13702 net.cpp:425] loss1/fc <- loss1/conv
I0403 14:51:13.764435 13702 net.cpp:399] loss1/fc -> loss1/fc
I0403 14:51:13.782141 13702 net.cpp:141] Setting up loss1/fc
I0403 14:51:13.782197 13702 net.cpp:148] Top shape: 24 1024 (24576)
I0403 14:51:13.782212 13702 net.cpp:156] Memory required for data: 945992736
I0403 14:51:13.782233 13702 layer_factory.hpp:77] Creating layer loss1/relu_fc
I0403 14:51:13.782256 13702 net.cpp:91] Creating Layer loss1/relu_fc
I0403 14:51:13.782274 13702 net.cpp:425] loss1/relu_fc <- loss1/fc
I0403 14:51:13.782292 13702 net.cpp:386] loss1/relu_fc -> loss1/fc (in-place)
I0403 14:51:13.782505 13702 net.cpp:141] Setting up loss1/relu_fc
I0403 14:51:13.782534 13702 net.cpp:148] Top shape: 24 1024 (24576)
I0403 14:51:13.782548 13702 net.cpp:156] Memory required for data: 946091040
I0403 14:51:13.782563 13702 layer_factory.hpp:77] Creating layer loss1/drop_fc
I0403 14:51:13.782596 13702 net.cpp:91] Creating Layer loss1/drop_fc
I0403 14:51:13.782615 13702 net.cpp:425] loss1/drop_fc <- loss1/fc
I0403 14:51:13.782635 13702 net.cpp:386] loss1/drop_fc -> loss1/fc (in-place)
I0403 14:51:13.782688 13702 net.cpp:141] Setting up loss1/drop_fc
I0403 14:51:13.782711 13702 net.cpp:148] Top shape: 24 1024 (24576)
I0403 14:51:13.782726 13702 net.cpp:156] Memory required for data: 946189344
I0403 14:51:13.782740 13702 layer_factory.hpp:77] Creating layer loss1/classifier_plantvillage
I0403 14:51:13.782763 13702 net.cpp:91] Creating Layer loss1/classifier_plantvillage
I0403 14:51:13.782780 13702 net.cpp:425] loss1/classifier_plantvillage <- loss1/fc
I0403 14:51:13.782799 13702 net.cpp:399] loss1/classifier_plantvillage -> loss1/classifier_plantvillage
I0403 14:51:13.783725 13702 net.cpp:141] Setting up loss1/classifier_plantvillage
I0403 14:51:13.783753 13702 net.cpp:148] Top shape: 24 38 (912)
I0403 14:51:13.783769 13702 net.cpp:156] Memory required for data: 946192992
I0403 14:51:13.783787 13702 layer_factory.hpp:77] Creating layer loss1/classifier_plantvillage_loss1/classifier_plantvillage_0_split
I0403 14:51:13.783804 13702 net.cpp:91] Creating Layer loss1/classifier_plantvillage_loss1/classifier_plantvillage_0_split
I0403 14:51:13.783819 13702 net.cpp:425] loss1/classifier_plantvillage_loss1/classifier_plantvillage_0_split <- loss1/classifier_plantvillage
I0403 14:51:13.783839 13702 net.cpp:399] loss1/classifier_plantvillage_loss1/classifier_plantvillage_0_split -> loss1/classifier_plantvillage_loss1/classifier_plantvillage_0_split_0
I0403 14:51:13.783860 13702 net.cpp:399] loss1/classifier_plantvillage_loss1/classifier_plantvillage_0_split -> loss1/classifier_plantvillage_loss1/classifier_plantvillage_0_split_1
I0403 14:51:13.783880 13702 net.cpp:399] loss1/classifier_plantvillage_loss1/classifier_plantvillage_0_split -> loss1/classifier_plantvillage_loss1/classifier_plantvillage_0_split_2
I0403 14:51:13.783944 13702 net.cpp:141] Setting up loss1/classifier_plantvillage_loss1/classifier_plantvillage_0_split
I0403 14:51:13.783967 13702 net.cpp:148] Top shape: 24 38 (912)
I0403 14:51:13.783983 13702 net.cpp:148] Top shape: 24 38 (912)
I0403 14:51:13.783998 13702 net.cpp:148] Top shape: 24 38 (912)
I0403 14:51:13.784013 13702 net.cpp:156] Memory required for data: 946203936
I0403 14:51:13.784026 13702 layer_factory.hpp:77] Creating layer inception_4b/1x1
I0403 14:51:13.784049 13702 net.cpp:91] Creating Layer inception_4b/1x1
I0403 14:51:13.784108 13702 net.cpp:425] inception_4b/1x1 <- inception_4a/output_inception_4a/output_0_split_1
I0403 14:51:13.784129 13702 net.cpp:399] inception_4b/1x1 -> inception_4b/1x1
I0403 14:51:13.785801 13702 net.cpp:141] Setting up inception_4b/1x1
I0403 14:51:13.785830 13702 net.cpp:148] Top shape: 24 160 14 14 (752640)
I0403 14:51:13.785845 13702 net.cpp:156] Memory required for data: 949214496
I0403 14:51:13.785863 13702 layer_factory.hpp:77] Creating layer inception_4b/relu_1x1
I0403 14:51:13.785881 13702 net.cpp:91] Creating Layer inception_4b/relu_1x1
I0403 14:51:13.785897 13702 net.cpp:425] inception_4b/relu_1x1 <- inception_4b/1x1
I0403 14:51:13.785915 13702 net.cpp:386] inception_4b/relu_1x1 -> inception_4b/1x1 (in-place)
I0403 14:51:13.786092 13702 net.cpp:141] Setting up inception_4b/relu_1x1
I0403 14:51:13.786118 13702 net.cpp:148] Top shape: 24 160 14 14 (752640)
I0403 14:51:13.786131 13702 net.cpp:156] Memory required for data: 952225056
I0403 14:51:13.786145 13702 layer_factory.hpp:77] Creating layer inception_4b/3x3_reduce
I0403 14:51:13.786169 13702 net.cpp:91] Creating Layer inception_4b/3x3_reduce
I0403 14:51:13.786185 13702 net.cpp:425] inception_4b/3x3_reduce <- inception_4a/output_inception_4a/output_0_split_2
I0403 14:51:13.786206 13702 net.cpp:399] inception_4b/3x3_reduce -> inception_4b/3x3_reduce
I0403 14:51:13.787575 13702 net.cpp:141] Setting up inception_4b/3x3_reduce
I0403 14:51:13.787603 13702 net.cpp:148] Top shape: 24 112 14 14 (526848)
I0403 14:51:13.787619 13702 net.cpp:156] Memory required for data: 954332448
I0403 14:51:13.787637 13702 layer_factory.hpp:77] Creating layer inception_4b/relu_3x3_reduce
I0403 14:51:13.787658 13702 net.cpp:91] Creating Layer inception_4b/relu_3x3_reduce
I0403 14:51:13.787675 13702 net.cpp:425] inception_4b/relu_3x3_reduce <- inception_4b/3x3_reduce
I0403 14:51:13.787693 13702 net.cpp:386] inception_4b/relu_3x3_reduce -> inception_4b/3x3_reduce (in-place)
I0403 14:51:13.787992 13702 net.cpp:141] Setting up inception_4b/relu_3x3_reduce
I0403 14:51:13.788018 13702 net.cpp:148] Top shape: 24 112 14 14 (526848)
I0403 14:51:13.788033 13702 net.cpp:156] Memory required for data: 956439840
I0403 14:51:13.788048 13702 layer_factory.hpp:77] Creating layer inception_4b/3x3
I0403 14:51:13.788071 13702 net.cpp:91] Creating Layer inception_4b/3x3
I0403 14:51:13.788089 13702 net.cpp:425] inception_4b/3x3 <- inception_4b/3x3_reduce
I0403 14:51:13.788110 13702 net.cpp:399] inception_4b/3x3 -> inception_4b/3x3
I0403 14:51:13.791106 13702 net.cpp:141] Setting up inception_4b/3x3
I0403 14:51:13.791137 13702 net.cpp:148] Top shape: 24 224 14 14 (1053696)
I0403 14:51:13.791154 13702 net.cpp:156] Memory required for data: 960654624
I0403 14:51:13.791173 13702 layer_factory.hpp:77] Creating layer inception_4b/relu_3x3
I0403 14:51:13.791193 13702 net.cpp:91] Creating Layer inception_4b/relu_3x3
I0403 14:51:13.791208 13702 net.cpp:425] inception_4b/relu_3x3 <- inception_4b/3x3
I0403 14:51:13.791229 13702 net.cpp:386] inception_4b/relu_3x3 -> inception_4b/3x3 (in-place)
I0403 14:51:13.791411 13702 net.cpp:141] Setting up inception_4b/relu_3x3
I0403 14:51:13.791437 13702 net.cpp:148] Top shape: 24 224 14 14 (1053696)
I0403 14:51:13.791452 13702 net.cpp:156] Memory required for data: 964869408
I0403 14:51:13.791466 13702 layer_factory.hpp:77] Creating layer inception_4b/5x5_reduce
I0403 14:51:13.791489 13702 net.cpp:91] Creating Layer inception_4b/5x5_reduce
I0403 14:51:13.791508 13702 net.cpp:425] inception_4b/5x5_reduce <- inception_4a/output_inception_4a/output_0_split_3
I0403 14:51:13.791530 13702 net.cpp:399] inception_4b/5x5_reduce -> inception_4b/5x5_reduce
I0403 14:51:13.792628 13702 net.cpp:141] Setting up inception_4b/5x5_reduce
I0403 14:51:13.792655 13702 net.cpp:148] Top shape: 24 24 14 14 (112896)
I0403 14:51:13.792671 13702 net.cpp:156] Memory required for data: 965320992
I0403 14:51:13.792690 13702 layer_factory.hpp:77] Creating layer inception_4b/relu_5x5_reduce
I0403 14:51:13.792708 13702 net.cpp:91] Creating Layer inception_4b/relu_5x5_reduce
I0403 14:51:13.792739 13702 net.cpp:425] inception_4b/relu_5x5_reduce <- inception_4b/5x5_reduce
I0403 14:51:13.792760 13702 net.cpp:386] inception_4b/relu_5x5_reduce -> inception_4b/5x5_reduce (in-place)
I0403 14:51:13.792948 13702 net.cpp:141] Setting up inception_4b/relu_5x5_reduce
I0403 14:51:13.792973 13702 net.cpp:148] Top shape: 24 24 14 14 (112896)
I0403 14:51:13.792987 13702 net.cpp:156] Memory required for data: 965772576
I0403 14:51:13.793001 13702 layer_factory.hpp:77] Creating layer inception_4b/5x5
I0403 14:51:13.793025 13702 net.cpp:91] Creating Layer inception_4b/5x5
I0403 14:51:13.793042 13702 net.cpp:425] inception_4b/5x5 <- inception_4b/5x5_reduce
I0403 14:51:13.793063 13702 net.cpp:399] inception_4b/5x5 -> inception_4b/5x5
I0403 14:51:13.794312 13702 net.cpp:141] Setting up inception_4b/5x5
I0403 14:51:13.794339 13702 net.cpp:148] Top shape: 24 64 14 14 (301056)
I0403 14:51:13.794355 13702 net.cpp:156] Memory required for data: 966976800
I0403 14:51:13.794373 13702 layer_factory.hpp:77] Creating layer inception_4b/relu_5x5
I0403 14:51:13.794391 13702 net.cpp:91] Creating Layer inception_4b/relu_5x5
I0403 14:51:13.794409 13702 net.cpp:425] inception_4b/relu_5x5 <- inception_4b/5x5
I0403 14:51:13.794428 13702 net.cpp:386] inception_4b/relu_5x5 -> inception_4b/5x5 (in-place)
I0403 14:51:13.794730 13702 net.cpp:141] Setting up inception_4b/relu_5x5
I0403 14:51:13.794757 13702 net.cpp:148] Top shape: 24 64 14 14 (301056)
I0403 14:51:13.794772 13702 net.cpp:156] Memory required for data: 968181024
I0403 14:51:13.794787 13702 layer_factory.hpp:77] Creating layer inception_4b/pool
I0403 14:51:13.794806 13702 net.cpp:91] Creating Layer inception_4b/pool
I0403 14:51:13.794822 13702 net.cpp:425] inception_4b/pool <- inception_4a/output_inception_4a/output_0_split_4
I0403 14:51:13.794844 13702 net.cpp:399] inception_4b/pool -> inception_4b/pool
I0403 14:51:13.794909 13702 net.cpp:141] Setting up inception_4b/pool
I0403 14:51:13.794936 13702 net.cpp:148] Top shape: 24 512 14 14 (2408448)
I0403 14:51:13.794951 13702 net.cpp:156] Memory required for data: 977814816
I0403 14:51:13.794966 13702 layer_factory.hpp:77] Creating layer inception_4b/pool_proj
I0403 14:51:13.794988 13702 net.cpp:91] Creating Layer inception_4b/pool_proj
I0403 14:51:13.795006 13702 net.cpp:425] inception_4b/pool_proj <- inception_4b/pool
I0403 14:51:13.795027 13702 net.cpp:399] inception_4b/pool_proj -> inception_4b/pool_proj
I0403 14:51:13.796236 13702 net.cpp:141] Setting up inception_4b/pool_proj
I0403 14:51:13.796267 13702 net.cpp:148] Top shape: 24 64 14 14 (301056)
I0403 14:51:13.796283 13702 net.cpp:156] Memory required for data: 979019040
I0403 14:51:13.796301 13702 layer_factory.hpp:77] Creating layer inception_4b/relu_pool_proj
I0403 14:51:13.796321 13702 net.cpp:91] Creating Layer inception_4b/relu_pool_proj
I0403 14:51:13.796339 13702 net.cpp:425] inception_4b/relu_pool_proj <- inception_4b/pool_proj
I0403 14:51:13.796357 13702 net.cpp:386] inception_4b/relu_pool_proj -> inception_4b/pool_proj (in-place)
I0403 14:51:13.796540 13702 net.cpp:141] Setting up inception_4b/relu_pool_proj
I0403 14:51:13.796566 13702 net.cpp:148] Top shape: 24 64 14 14 (301056)
I0403 14:51:13.796586 13702 net.cpp:156] Memory required for data: 980223264
I0403 14:51:13.796602 13702 layer_factory.hpp:77] Creating layer inception_4b/output
I0403 14:51:13.796622 13702 net.cpp:91] Creating Layer inception_4b/output
I0403 14:51:13.796640 13702 net.cpp:425] inception_4b/output <- inception_4b/1x1
I0403 14:51:13.796658 13702 net.cpp:425] inception_4b/output <- inception_4b/3x3
I0403 14:51:13.796675 13702 net.cpp:425] inception_4b/output <- inception_4b/5x5
I0403 14:51:13.796690 13702 net.cpp:425] inception_4b/output <- inception_4b/pool_proj
I0403 14:51:13.796707 13702 net.cpp:399] inception_4b/output -> inception_4b/output
I0403 14:51:13.796756 13702 net.cpp:141] Setting up inception_4b/output
I0403 14:51:13.796779 13702 net.cpp:148] Top shape: 24 512 14 14 (2408448)
I0403 14:51:13.796794 13702 net.cpp:156] Memory required for data: 989857056
I0403 14:51:13.796823 13702 layer_factory.hpp:77] Creating layer inception_4b/output_inception_4b/output_0_split
I0403 14:51:13.796841 13702 net.cpp:91] Creating Layer inception_4b/output_inception_4b/output_0_split
I0403 14:51:13.796856 13702 net.cpp:425] inception_4b/output_inception_4b/output_0_split <- inception_4b/output
I0403 14:51:13.796875 13702 net.cpp:399] inception_4b/output_inception_4b/output_0_split -> inception_4b/output_inception_4b/output_0_split_0
I0403 14:51:13.796897 13702 net.cpp:399] inception_4b/output_inception_4b/output_0_split -> inception_4b/output_inception_4b/output_0_split_1
I0403 14:51:13.796917 13702 net.cpp:399] inception_4b/output_inception_4b/output_0_split -> inception_4b/output_inception_4b/output_0_split_2
I0403 14:51:13.796937 13702 net.cpp:399] inception_4b/output_inception_4b/output_0_split -> inception_4b/output_inception_4b/output_0_split_3
I0403 14:51:13.797021 13702 net.cpp:141] Setting up inception_4b/output_inception_4b/output_0_split
I0403 14:51:13.797046 13702 net.cpp:148] Top shape: 24 512 14 14 (2408448)
I0403 14:51:13.797065 13702 net.cpp:148] Top shape: 24 512 14 14 (2408448)
I0403 14:51:13.797080 13702 net.cpp:148] Top shape: 24 512 14 14 (2408448)
I0403 14:51:13.797094 13702 net.cpp:148] Top shape: 24 512 14 14 (2408448)
I0403 14:51:13.797108 13702 net.cpp:156] Memory required for data: 1028392224
I0403 14:51:13.797122 13702 layer_factory.hpp:77] Creating layer inception_4c/1x1
I0403 14:51:13.797144 13702 net.cpp:91] Creating Layer inception_4c/1x1
I0403 14:51:13.797163 13702 net.cpp:425] inception_4c/1x1 <- inception_4b/output_inception_4b/output_0_split_0
I0403 14:51:13.797181 13702 net.cpp:399] inception_4c/1x1 -> inception_4c/1x1
I0403 14:51:13.798669 13702 net.cpp:141] Setting up inception_4c/1x1
I0403 14:51:13.798698 13702 net.cpp:148] Top shape: 24 128 14 14 (602112)
I0403 14:51:13.798714 13702 net.cpp:156] Memory required for data: 1030800672
I0403 14:51:13.798732 13702 layer_factory.hpp:77] Creating layer inception_4c/relu_1x1
I0403 14:51:13.798755 13702 net.cpp:91] Creating Layer inception_4c/relu_1x1
I0403 14:51:13.798773 13702 net.cpp:425] inception_4c/relu_1x1 <- inception_4c/1x1
I0403 14:51:13.798791 13702 net.cpp:386] inception_4c/relu_1x1 -> inception_4c/1x1 (in-place)
I0403 14:51:13.798981 13702 net.cpp:141] Setting up inception_4c/relu_1x1
I0403 14:51:13.799007 13702 net.cpp:148] Top shape: 24 128 14 14 (602112)
I0403 14:51:13.799022 13702 net.cpp:156] Memory required for data: 1033209120
I0403 14:51:13.799037 13702 layer_factory.hpp:77] Creating layer inception_4c/3x3_reduce
I0403 14:51:13.799059 13702 net.cpp:91] Creating Layer inception_4c/3x3_reduce
I0403 14:51:13.799078 13702 net.cpp:425] inception_4c/3x3_reduce <- inception_4b/output_inception_4b/output_0_split_1
I0403 14:51:13.799100 13702 net.cpp:399] inception_4c/3x3_reduce -> inception_4c/3x3_reduce
I0403 14:51:13.801061 13702 net.cpp:141] Setting up inception_4c/3x3_reduce
I0403 14:51:13.801090 13702 net.cpp:148] Top shape: 24 128 14 14 (602112)
I0403 14:51:13.801106 13702 net.cpp:156] Memory required for data: 1035617568
I0403 14:51:13.801125 13702 layer_factory.hpp:77] Creating layer inception_4c/relu_3x3_reduce
I0403 14:51:13.801142 13702 net.cpp:91] Creating Layer inception_4c/relu_3x3_reduce
I0403 14:51:13.801158 13702 net.cpp:425] inception_4c/relu_3x3_reduce <- inception_4c/3x3_reduce
I0403 14:51:13.801178 13702 net.cpp:386] inception_4c/relu_3x3_reduce -> inception_4c/3x3_reduce (in-place)
I0403 14:51:13.801467 13702 net.cpp:141] Setting up inception_4c/relu_3x3_reduce
I0403 14:51:13.801493 13702 net.cpp:148] Top shape: 24 128 14 14 (602112)
I0403 14:51:13.801508 13702 net.cpp:156] Memory required for data: 1038026016
I0403 14:51:13.801523 13702 layer_factory.hpp:77] Creating layer inception_4c/3x3
I0403 14:51:13.801548 13702 net.cpp:91] Creating Layer inception_4c/3x3
I0403 14:51:13.801564 13702 net.cpp:425] inception_4c/3x3 <- inception_4c/3x3_reduce
I0403 14:51:13.801592 13702 net.cpp:399] inception_4c/3x3 -> inception_4c/3x3
I0403 14:51:13.805232 13702 net.cpp:141] Setting up inception_4c/3x3
I0403 14:51:13.805272 13702 net.cpp:148] Top shape: 24 256 14 14 (1204224)
I0403 14:51:13.805289 13702 net.cpp:156] Memory required for data: 1042842912
I0403 14:51:13.805320 13702 layer_factory.hpp:77] Creating layer inception_4c/relu_3x3
I0403 14:51:13.805341 13702 net.cpp:91] Creating Layer inception_4c/relu_3x3
I0403 14:51:13.805357 13702 net.cpp:425] inception_4c/relu_3x3 <- inception_4c/3x3
I0403 14:51:13.805374 13702 net.cpp:386] inception_4c/relu_3x3 -> inception_4c/3x3 (in-place)
I0403 14:51:13.805562 13702 net.cpp:141] Setting up inception_4c/relu_3x3
I0403 14:51:13.805589 13702 net.cpp:148] Top shape: 24 256 14 14 (1204224)
I0403 14:51:13.805604 13702 net.cpp:156] Memory required for data: 1047659808
I0403 14:51:13.805619 13702 layer_factory.hpp:77] Creating layer inception_4c/5x5_reduce
I0403 14:51:13.805641 13702 net.cpp:91] Creating Layer inception_4c/5x5_reduce
I0403 14:51:13.805658 13702 net.cpp:425] inception_4c/5x5_reduce <- inception_4b/output_inception_4b/output_0_split_2
I0403 14:51:13.805680 13702 net.cpp:399] inception_4c/5x5_reduce -> inception_4c/5x5_reduce
I0403 14:51:13.806771 13702 net.cpp:141] Setting up inception_4c/5x5_reduce
I0403 14:51:13.806797 13702 net.cpp:148] Top shape: 24 24 14 14 (112896)
I0403 14:51:13.806813 13702 net.cpp:156] Memory required for data: 1048111392
I0403 14:51:13.806830 13702 layer_factory.hpp:77] Creating layer inception_4c/relu_5x5_reduce
I0403 14:51:13.806848 13702 net.cpp:91] Creating Layer inception_4c/relu_5x5_reduce
I0403 14:51:13.806864 13702 net.cpp:425] inception_4c/relu_5x5_reduce <- inception_4c/5x5_reduce
I0403 14:51:13.806882 13702 net.cpp:386] inception_4c/relu_5x5_reduce -> inception_4c/5x5_reduce (in-place)
I0403 14:51:13.807065 13702 net.cpp:141] Setting up inception_4c/relu_5x5_reduce
I0403 14:51:13.807090 13702 net.cpp:148] Top shape: 24 24 14 14 (112896)
I0403 14:51:13.807104 13702 net.cpp:156] Memory required for data: 1048562976
I0403 14:51:13.807118 13702 layer_factory.hpp:77] Creating layer inception_4c/5x5
I0403 14:51:13.807140 13702 net.cpp:91] Creating Layer inception_4c/5x5
I0403 14:51:13.807158 13702 net.cpp:425] inception_4c/5x5 <- inception_4c/5x5_reduce
I0403 14:51:13.807178 13702 net.cpp:399] inception_4c/5x5 -> inception_4c/5x5
I0403 14:51:13.808403 13702 net.cpp:141] Setting up inception_4c/5x5
I0403 14:51:13.808429 13702 net.cpp:148] Top shape: 24 64 14 14 (301056)
I0403 14:51:13.808444 13702 net.cpp:156] Memory required for data: 1049767200
I0403 14:51:13.808461 13702 layer_factory.hpp:77] Creating layer inception_4c/relu_5x5
I0403 14:51:13.808481 13702 net.cpp:91] Creating Layer inception_4c/relu_5x5
I0403 14:51:13.808497 13702 net.cpp:425] inception_4c/relu_5x5 <- inception_4c/5x5
I0403 14:51:13.808514 13702 net.cpp:386] inception_4c/relu_5x5 -> inception_4c/5x5 (in-place)
I0403 14:51:13.808801 13702 net.cpp:141] Setting up inception_4c/relu_5x5
I0403 14:51:13.808826 13702 net.cpp:148] Top shape: 24 64 14 14 (301056)
I0403 14:51:13.808841 13702 net.cpp:156] Memory required for data: 1050971424
I0403 14:51:13.808856 13702 layer_factory.hpp:77] Creating layer inception_4c/pool
I0403 14:51:13.808876 13702 net.cpp:91] Creating Layer inception_4c/pool
I0403 14:51:13.808892 13702 net.cpp:425] inception_4c/pool <- inception_4b/output_inception_4b/output_0_split_3
I0403 14:51:13.808910 13702 net.cpp:399] inception_4c/pool -> inception_4c/pool
I0403 14:51:13.808975 13702 net.cpp:141] Setting up inception_4c/pool
I0403 14:51:13.808998 13702 net.cpp:148] Top shape: 24 512 14 14 (2408448)
I0403 14:51:13.809012 13702 net.cpp:156] Memory required for data: 1060605216
I0403 14:51:13.809026 13702 layer_factory.hpp:77] Creating layer inception_4c/pool_proj
I0403 14:51:13.809048 13702 net.cpp:91] Creating Layer inception_4c/pool_proj
I0403 14:51:13.809065 13702 net.cpp:425] inception_4c/pool_proj <- inception_4c/pool
I0403 14:51:13.809087 13702 net.cpp:399] inception_4c/pool_proj -> inception_4c/pool_proj
I0403 14:51:13.810286 13702 net.cpp:141] Setting up inception_4c/pool_proj
I0403 14:51:13.810312 13702 net.cpp:148] Top shape: 24 64 14 14 (301056)
I0403 14:51:13.810341 13702 net.cpp:156] Memory required for data: 1061809440
I0403 14:51:13.810359 13702 layer_factory.hpp:77] Creating layer inception_4c/relu_pool_proj
I0403 14:51:13.810379 13702 net.cpp:91] Creating Layer inception_4c/relu_pool_proj
I0403 14:51:13.810396 13702 net.cpp:425] inception_4c/relu_pool_proj <- inception_4c/pool_proj
I0403 14:51:13.810413 13702 net.cpp:386] inception_4c/relu_pool_proj -> inception_4c/pool_proj (in-place)
I0403 14:51:13.810596 13702 net.cpp:141] Setting up inception_4c/relu_pool_proj
I0403 14:51:13.810621 13702 net.cpp:148] Top shape: 24 64 14 14 (301056)
I0403 14:51:13.810634 13702 net.cpp:156] Memory required for data: 1063013664
I0403 14:51:13.810648 13702 layer_factory.hpp:77] Creating layer inception_4c/output
I0403 14:51:13.810667 13702 net.cpp:91] Creating Layer inception_4c/output
I0403 14:51:13.810683 13702 net.cpp:425] inception_4c/output <- inception_4c/1x1
I0403 14:51:13.810700 13702 net.cpp:425] inception_4c/output <- inception_4c/3x3
I0403 14:51:13.810715 13702 net.cpp:425] inception_4c/output <- inception_4c/5x5
I0403 14:51:13.810730 13702 net.cpp:425] inception_4c/output <- inception_4c/pool_proj
I0403 14:51:13.810747 13702 net.cpp:399] inception_4c/output -> inception_4c/output
I0403 14:51:13.810794 13702 net.cpp:141] Setting up inception_4c/output
I0403 14:51:13.810817 13702 net.cpp:148] Top shape: 24 512 14 14 (2408448)
I0403 14:51:13.810832 13702 net.cpp:156] Memory required for data: 1072647456
I0403 14:51:13.810845 13702 layer_factory.hpp:77] Creating layer inception_4c/output_inception_4c/output_0_split
I0403 14:51:13.810863 13702 net.cpp:91] Creating Layer inception_4c/output_inception_4c/output_0_split
I0403 14:51:13.810878 13702 net.cpp:425] inception_4c/output_inception_4c/output_0_split <- inception_4c/output
I0403 14:51:13.810896 13702 net.cpp:399] inception_4c/output_inception_4c/output_0_split -> inception_4c/output_inception_4c/output_0_split_0
I0403 14:51:13.810917 13702 net.cpp:399] inception_4c/output_inception_4c/output_0_split -> inception_4c/output_inception_4c/output_0_split_1
I0403 14:51:13.810937 13702 net.cpp:399] inception_4c/output_inception_4c/output_0_split -> inception_4c/output_inception_4c/output_0_split_2
I0403 14:51:13.810957 13702 net.cpp:399] inception_4c/output_inception_4c/output_0_split -> inception_4c/output_inception_4c/output_0_split_3
I0403 14:51:13.811043 13702 net.cpp:141] Setting up inception_4c/output_inception_4c/output_0_split
I0403 14:51:13.811067 13702 net.cpp:148] Top shape: 24 512 14 14 (2408448)
I0403 14:51:13.811084 13702 net.cpp:148] Top shape: 24 512 14 14 (2408448)
I0403 14:51:13.811100 13702 net.cpp:148] Top shape: 24 512 14 14 (2408448)
I0403 14:51:13.811115 13702 net.cpp:148] Top shape: 24 512 14 14 (2408448)
I0403 14:51:13.811127 13702 net.cpp:156] Memory required for data: 1111182624
I0403 14:51:13.811141 13702 layer_factory.hpp:77] Creating layer inception_4d/1x1
I0403 14:51:13.811162 13702 net.cpp:91] Creating Layer inception_4d/1x1
I0403 14:51:13.811179 13702 net.cpp:425] inception_4d/1x1 <- inception_4c/output_inception_4c/output_0_split_0
I0403 14:51:13.811197 13702 net.cpp:399] inception_4d/1x1 -> inception_4d/1x1
I0403 14:51:13.812548 13702 net.cpp:141] Setting up inception_4d/1x1
I0403 14:51:13.812582 13702 net.cpp:148] Top shape: 24 112 14 14 (526848)
I0403 14:51:13.812598 13702 net.cpp:156] Memory required for data: 1113290016
I0403 14:51:13.812615 13702 layer_factory.hpp:77] Creating layer inception_4d/relu_1x1
I0403 14:51:13.812633 13702 net.cpp:91] Creating Layer inception_4d/relu_1x1
I0403 14:51:13.812649 13702 net.cpp:425] inception_4d/relu_1x1 <- inception_4d/1x1
I0403 14:51:13.812667 13702 net.cpp:386] inception_4d/relu_1x1 -> inception_4d/1x1 (in-place)
I0403 14:51:13.812847 13702 net.cpp:141] Setting up inception_4d/relu_1x1
I0403 14:51:13.812871 13702 net.cpp:148] Top shape: 24 112 14 14 (526848)
I0403 14:51:13.812885 13702 net.cpp:156] Memory required for data: 1115397408
I0403 14:51:13.812901 13702 layer_factory.hpp:77] Creating layer inception_4d/3x3_reduce
I0403 14:51:13.812935 13702 net.cpp:91] Creating Layer inception_4d/3x3_reduce
I0403 14:51:13.812953 13702 net.cpp:425] inception_4d/3x3_reduce <- inception_4c/output_inception_4c/output_0_split_1
I0403 14:51:13.812974 13702 net.cpp:399] inception_4d/3x3_reduce -> inception_4d/3x3_reduce
I0403 14:51:13.814460 13702 net.cpp:141] Setting up inception_4d/3x3_reduce
I0403 14:51:13.814486 13702 net.cpp:148] Top shape: 24 144 14 14 (677376)
I0403 14:51:13.814504 13702 net.cpp:156] Memory required for data: 1118106912
I0403 14:51:13.814522 13702 layer_factory.hpp:77] Creating layer inception_4d/relu_3x3_reduce
I0403 14:51:13.814539 13702 net.cpp:91] Creating Layer inception_4d/relu_3x3_reduce
I0403 14:51:13.814559 13702 net.cpp:425] inception_4d/relu_3x3_reduce <- inception_4d/3x3_reduce
I0403 14:51:13.814587 13702 net.cpp:386] inception_4d/relu_3x3_reduce -> inception_4d/3x3_reduce (in-place)
I0403 14:51:13.814879 13702 net.cpp:141] Setting up inception_4d/relu_3x3_reduce
I0403 14:51:13.814905 13702 net.cpp:148] Top shape: 24 144 14 14 (677376)
I0403 14:51:13.814923 13702 net.cpp:156] Memory required for data: 1120816416
I0403 14:51:13.814937 13702 layer_factory.hpp:77] Creating layer inception_4d/3x3
I0403 14:51:13.814956 13702 net.cpp:91] Creating Layer inception_4d/3x3
I0403 14:51:13.814973 13702 net.cpp:425] inception_4d/3x3 <- inception_4d/3x3_reduce
I0403 14:51:13.814993 13702 net.cpp:399] inception_4d/3x3 -> inception_4d/3x3
I0403 14:51:13.819138 13702 net.cpp:141] Setting up inception_4d/3x3
I0403 14:51:13.819167 13702 net.cpp:148] Top shape: 24 288 14 14 (1354752)
I0403 14:51:13.819183 13702 net.cpp:156] Memory required for data: 1126235424
I0403 14:51:13.819201 13702 layer_factory.hpp:77] Creating layer inception_4d/relu_3x3
I0403 14:51:13.819218 13702 net.cpp:91] Creating Layer inception_4d/relu_3x3
I0403 14:51:13.819234 13702 net.cpp:425] inception_4d/relu_3x3 <- inception_4d/3x3
I0403 14:51:13.819253 13702 net.cpp:386] inception_4d/relu_3x3 -> inception_4d/3x3 (in-place)
I0403 14:51:13.819437 13702 net.cpp:141] Setting up inception_4d/relu_3x3
I0403 14:51:13.819461 13702 net.cpp:148] Top shape: 24 288 14 14 (1354752)
I0403 14:51:13.819475 13702 net.cpp:156] Memory required for data: 1131654432
I0403 14:51:13.819489 13702 layer_factory.hpp:77] Creating layer inception_4d/5x5_reduce
I0403 14:51:13.819511 13702 net.cpp:91] Creating Layer inception_4d/5x5_reduce
I0403 14:51:13.819528 13702 net.cpp:425] inception_4d/5x5_reduce <- inception_4c/output_inception_4c/output_0_split_2
I0403 14:51:13.819550 13702 net.cpp:399] inception_4d/5x5_reduce -> inception_4d/5x5_reduce
I0403 14:51:13.820685 13702 net.cpp:141] Setting up inception_4d/5x5_reduce
I0403 14:51:13.820714 13702 net.cpp:148] Top shape: 24 32 14 14 (150528)
I0403 14:51:13.820730 13702 net.cpp:156] Memory required for data: 1132256544
I0403 14:51:13.820749 13702 layer_factory.hpp:77] Creating layer inception_4d/relu_5x5_reduce
I0403 14:51:13.820765 13702 net.cpp:91] Creating Layer inception_4d/relu_5x5_reduce
I0403 14:51:13.820781 13702 net.cpp:425] inception_4d/relu_5x5_reduce <- inception_4d/5x5_reduce
I0403 14:51:13.820801 13702 net.cpp:386] inception_4d/relu_5x5_reduce -> inception_4d/5x5_reduce (in-place)
I0403 14:51:13.820986 13702 net.cpp:141] Setting up inception_4d/relu_5x5_reduce
I0403 14:51:13.821010 13702 net.cpp:148] Top shape: 24 32 14 14 (150528)
I0403 14:51:13.821024 13702 net.cpp:156] Memory required for data: 1132858656
I0403 14:51:13.821039 13702 layer_factory.hpp:77] Creating layer inception_4d/5x5
I0403 14:51:13.821060 13702 net.cpp:91] Creating Layer inception_4d/5x5
I0403 14:51:13.821077 13702 net.cpp:425] inception_4d/5x5 <- inception_4d/5x5_reduce
I0403 14:51:13.821099 13702 net.cpp:399] inception_4d/5x5 -> inception_4d/5x5
I0403 14:51:13.822556 13702 net.cpp:141] Setting up inception_4d/5x5
I0403 14:51:13.822587 13702 net.cpp:148] Top shape: 24 64 14 14 (301056)
I0403 14:51:13.822603 13702 net.cpp:156] Memory required for data: 1134062880
I0403 14:51:13.822621 13702 layer_factory.hpp:77] Creating layer inception_4d/relu_5x5
I0403 14:51:13.822655 13702 net.cpp:91] Creating Layer inception_4d/relu_5x5
I0403 14:51:13.822674 13702 net.cpp:425] inception_4d/relu_5x5 <- inception_4d/5x5
I0403 14:51:13.822690 13702 net.cpp:386] inception_4d/relu_5x5 -> inception_4d/5x5 (in-place)
I0403 14:51:13.822983 13702 net.cpp:141] Setting up inception_4d/relu_5x5
I0403 14:51:13.823009 13702 net.cpp:148] Top shape: 24 64 14 14 (301056)
I0403 14:51:13.823022 13702 net.cpp:156] Memory required for data: 1135267104
I0403 14:51:13.823037 13702 layer_factory.hpp:77] Creating layer inception_4d/pool
I0403 14:51:13.823057 13702 net.cpp:91] Creating Layer inception_4d/pool
I0403 14:51:13.823074 13702 net.cpp:425] inception_4d/pool <- inception_4c/output_inception_4c/output_0_split_3
I0403 14:51:13.823092 13702 net.cpp:399] inception_4d/pool -> inception_4d/pool
I0403 14:51:13.823158 13702 net.cpp:141] Setting up inception_4d/pool
I0403 14:51:13.823182 13702 net.cpp:148] Top shape: 24 512 14 14 (2408448)
I0403 14:51:13.823196 13702 net.cpp:156] Memory required for data: 1144900896
I0403 14:51:13.823210 13702 layer_factory.hpp:77] Creating layer inception_4d/pool_proj
I0403 14:51:13.823231 13702 net.cpp:91] Creating Layer inception_4d/pool_proj
I0403 14:51:13.823248 13702 net.cpp:425] inception_4d/pool_proj <- inception_4d/pool
I0403 14:51:13.823271 13702 net.cpp:399] inception_4d/pool_proj -> inception_4d/pool_proj
I0403 14:51:13.825001 13702 net.cpp:141] Setting up inception_4d/pool_proj
I0403 14:51:13.825028 13702 net.cpp:148] Top shape: 24 64 14 14 (301056)
I0403 14:51:13.825043 13702 net.cpp:156] Memory required for data: 1146105120
I0403 14:51:13.825062 13702 layer_factory.hpp:77] Creating layer inception_4d/relu_pool_proj
I0403 14:51:13.825079 13702 net.cpp:91] Creating Layer inception_4d/relu_pool_proj
I0403 14:51:13.825095 13702 net.cpp:425] inception_4d/relu_pool_proj <- inception_4d/pool_proj
I0403 14:51:13.825114 13702 net.cpp:386] inception_4d/relu_pool_proj -> inception_4d/pool_proj (in-place)
I0403 14:51:13.825299 13702 net.cpp:141] Setting up inception_4d/relu_pool_proj
I0403 14:51:13.825323 13702 net.cpp:148] Top shape: 24 64 14 14 (301056)
I0403 14:51:13.825337 13702 net.cpp:156] Memory required for data: 1147309344
I0403 14:51:13.825352 13702 layer_factory.hpp:77] Creating layer inception_4d/output
I0403 14:51:13.825369 13702 net.cpp:91] Creating Layer inception_4d/output
I0403 14:51:13.825384 13702 net.cpp:425] inception_4d/output <- inception_4d/1x1
I0403 14:51:13.825400 13702 net.cpp:425] inception_4d/output <- inception_4d/3x3
I0403 14:51:13.825419 13702 net.cpp:425] inception_4d/output <- inception_4d/5x5
I0403 14:51:13.825435 13702 net.cpp:425] inception_4d/output <- inception_4d/pool_proj
I0403 14:51:13.825451 13702 net.cpp:399] inception_4d/output -> inception_4d/output
I0403 14:51:13.825497 13702 net.cpp:141] Setting up inception_4d/output
I0403 14:51:13.825522 13702 net.cpp:148] Top shape: 24 528 14 14 (2483712)
I0403 14:51:13.825538 13702 net.cpp:156] Memory required for data: 1157244192
I0403 14:51:13.825552 13702 layer_factory.hpp:77] Creating layer inception_4d/output_inception_4d/output_0_split
I0403 14:51:13.825572 13702 net.cpp:91] Creating Layer inception_4d/output_inception_4d/output_0_split
I0403 14:51:13.825589 13702 net.cpp:425] inception_4d/output_inception_4d/output_0_split <- inception_4d/output
I0403 14:51:13.825609 13702 net.cpp:399] inception_4d/output_inception_4d/output_0_split -> inception_4d/output_inception_4d/output_0_split_0
I0403 14:51:13.825630 13702 net.cpp:399] inception_4d/output_inception_4d/output_0_split -> inception_4d/output_inception_4d/output_0_split_1
I0403 14:51:13.825650 13702 net.cpp:399] inception_4d/output_inception_4d/output_0_split -> inception_4d/output_inception_4d/output_0_split_2
I0403 14:51:13.825670 13702 net.cpp:399] inception_4d/output_inception_4d/output_0_split -> inception_4d/output_inception_4d/output_0_split_3
I0403 14:51:13.825690 13702 net.cpp:399] inception_4d/output_inception_4d/output_0_split -> inception_4d/output_inception_4d/output_0_split_4
I0403 14:51:13.825789 13702 net.cpp:141] Setting up inception_4d/output_inception_4d/output_0_split
I0403 14:51:13.825824 13702 net.cpp:148] Top shape: 24 528 14 14 (2483712)
I0403 14:51:13.825842 13702 net.cpp:148] Top shape: 24 528 14 14 (2483712)
I0403 14:51:13.825858 13702 net.cpp:148] Top shape: 24 528 14 14 (2483712)
I0403 14:51:13.825873 13702 net.cpp:148] Top shape: 24 528 14 14 (2483712)
I0403 14:51:13.825888 13702 net.cpp:148] Top shape: 24 528 14 14 (2483712)
I0403 14:51:13.825901 13702 net.cpp:156] Memory required for data: 1206918432
I0403 14:51:13.825916 13702 layer_factory.hpp:77] Creating layer loss2/ave_pool
I0403 14:51:13.825932 13702 net.cpp:91] Creating Layer loss2/ave_pool
I0403 14:51:13.825948 13702 net.cpp:425] loss2/ave_pool <- inception_4d/output_inception_4d/output_0_split_0
I0403 14:51:13.825968 13702 net.cpp:399] loss2/ave_pool -> loss2/ave_pool
I0403 14:51:13.826272 13702 net.cpp:141] Setting up loss2/ave_pool
I0403 14:51:13.826297 13702 net.cpp:148] Top shape: 24 528 4 4 (202752)
I0403 14:51:13.826311 13702 net.cpp:156] Memory required for data: 1207729440
I0403 14:51:13.826328 13702 layer_factory.hpp:77] Creating layer loss2/conv
I0403 14:51:13.826349 13702 net.cpp:91] Creating Layer loss2/conv
I0403 14:51:13.826365 13702 net.cpp:425] loss2/conv <- loss2/ave_pool
I0403 14:51:13.826385 13702 net.cpp:399] loss2/conv -> loss2/conv
I0403 14:51:13.828325 13702 net.cpp:141] Setting up loss2/conv
I0403 14:51:13.828353 13702 net.cpp:148] Top shape: 24 128 4 4 (49152)
I0403 14:51:13.828369 13702 net.cpp:156] Memory required for data: 1207926048
I0403 14:51:13.828388 13702 layer_factory.hpp:77] Creating layer loss2/relu_conv
I0403 14:51:13.828409 13702 net.cpp:91] Creating Layer loss2/relu_conv
I0403 14:51:13.828426 13702 net.cpp:425] loss2/relu_conv <- loss2/conv
I0403 14:51:13.828444 13702 net.cpp:386] loss2/relu_conv -> loss2/conv (in-place)
I0403 14:51:13.828737 13702 net.cpp:141] Setting up loss2/relu_conv
I0403 14:51:13.828763 13702 net.cpp:148] Top shape: 24 128 4 4 (49152)
I0403 14:51:13.828780 13702 net.cpp:156] Memory required for data: 1208122656
I0403 14:51:13.828794 13702 layer_factory.hpp:77] Creating layer loss2/fc
I0403 14:51:13.828815 13702 net.cpp:91] Creating Layer loss2/fc
I0403 14:51:13.828833 13702 net.cpp:425] loss2/fc <- loss2/conv
I0403 14:51:13.828852 13702 net.cpp:399] loss2/fc -> loss2/fc
I0403 14:51:13.846907 13702 net.cpp:141] Setting up loss2/fc
I0403 14:51:13.846946 13702 net.cpp:148] Top shape: 24 1024 (24576)
I0403 14:51:13.846962 13702 net.cpp:156] Memory required for data: 1208220960
I0403 14:51:13.846982 13702 layer_factory.hpp:77] Creating layer loss2/relu_fc
I0403 14:51:13.847002 13702 net.cpp:91] Creating Layer loss2/relu_fc
I0403 14:51:13.847018 13702 net.cpp:425] loss2/relu_fc <- loss2/fc
I0403 14:51:13.847039 13702 net.cpp:386] loss2/relu_fc -> loss2/fc (in-place)
I0403 14:51:13.847380 13702 net.cpp:141] Setting up loss2/relu_fc
I0403 14:51:13.847407 13702 net.cpp:148] Top shape: 24 1024 (24576)
I0403 14:51:13.847422 13702 net.cpp:156] Memory required for data: 1208319264
I0403 14:51:13.847437 13702 layer_factory.hpp:77] Creating layer loss2/drop_fc
I0403 14:51:13.847455 13702 net.cpp:91] Creating Layer loss2/drop_fc
I0403 14:51:13.847472 13702 net.cpp:425] loss2/drop_fc <- loss2/fc
I0403 14:51:13.847492 13702 net.cpp:386] loss2/drop_fc -> loss2/fc (in-place)
I0403 14:51:13.847543 13702 net.cpp:141] Setting up loss2/drop_fc
I0403 14:51:13.847570 13702 net.cpp:148] Top shape: 24 1024 (24576)
I0403 14:51:13.847586 13702 net.cpp:156] Memory required for data: 1208417568
I0403 14:51:13.847601 13702 layer_factory.hpp:77] Creating layer loss2/classifier_plantvillage
I0403 14:51:13.847623 13702 net.cpp:91] Creating Layer loss2/classifier_plantvillage
I0403 14:51:13.847641 13702 net.cpp:425] loss2/classifier_plantvillage <- loss2/fc
I0403 14:51:13.847662 13702 net.cpp:399] loss2/classifier_plantvillage -> loss2/classifier_plantvillage
I0403 14:51:13.848078 13702 net.cpp:141] Setting up loss2/classifier_plantvillage
I0403 14:51:13.848105 13702 net.cpp:148] Top shape: 24 38 (912)
I0403 14:51:13.848121 13702 net.cpp:156] Memory required for data: 1208421216
I0403 14:51:13.848165 13702 layer_factory.hpp:77] Creating layer loss2/classifier_plantvillage_loss2/classifier_plantvillage_0_split
I0403 14:51:13.848184 13702 net.cpp:91] Creating Layer loss2/classifier_plantvillage_loss2/classifier_plantvillage_0_split
I0403 14:51:13.848201 13702 net.cpp:425] loss2/classifier_plantvillage_loss2/classifier_plantvillage_0_split <- loss2/classifier_plantvillage
I0403 14:51:13.848218 13702 net.cpp:399] loss2/classifier_plantvillage_loss2/classifier_plantvillage_0_split -> loss2/classifier_plantvillage_loss2/classifier_plantvillage_0_split_0
I0403 14:51:13.848239 13702 net.cpp:399] loss2/classifier_plantvillage_loss2/classifier_plantvillage_0_split -> loss2/classifier_plantvillage_loss2/classifier_plantvillage_0_split_1
I0403 14:51:13.848260 13702 net.cpp:399] loss2/classifier_plantvillage_loss2/classifier_plantvillage_0_split -> loss2/classifier_plantvillage_loss2/classifier_plantvillage_0_split_2
I0403 14:51:13.848338 13702 net.cpp:141] Setting up loss2/classifier_plantvillage_loss2/classifier_plantvillage_0_split
I0403 14:51:13.848362 13702 net.cpp:148] Top shape: 24 38 (912)
I0403 14:51:13.848377 13702 net.cpp:148] Top shape: 24 38 (912)
I0403 14:51:13.848393 13702 net.cpp:148] Top shape: 24 38 (912)
I0403 14:51:13.848407 13702 net.cpp:156] Memory required for data: 1208432160
I0403 14:51:13.848422 13702 layer_factory.hpp:77] Creating layer inception_4e/1x1
I0403 14:51:13.848441 13702 net.cpp:91] Creating Layer inception_4e/1x1
I0403 14:51:13.848459 13702 net.cpp:425] inception_4e/1x1 <- inception_4d/output_inception_4d/output_0_split_1
I0403 14:51:13.848479 13702 net.cpp:399] inception_4e/1x1 -> inception_4e/1x1
I0403 14:51:13.850363 13702 net.cpp:141] Setting up inception_4e/1x1
I0403 14:51:13.850392 13702 net.cpp:148] Top shape: 24 256 14 14 (1204224)
I0403 14:51:13.850407 13702 net.cpp:156] Memory required for data: 1213249056
I0403 14:51:13.850425 13702 layer_factory.hpp:77] Creating layer inception_4e/relu_1x1
I0403 14:51:13.850446 13702 net.cpp:91] Creating Layer inception_4e/relu_1x1
I0403 14:51:13.850463 13702 net.cpp:425] inception_4e/relu_1x1 <- inception_4e/1x1
I0403 14:51:13.850481 13702 net.cpp:386] inception_4e/relu_1x1 -> inception_4e/1x1 (in-place)
I0403 14:51:13.850792 13702 net.cpp:141] Setting up inception_4e/relu_1x1
I0403 14:51:13.850818 13702 net.cpp:148] Top shape: 24 256 14 14 (1204224)
I0403 14:51:13.850834 13702 net.cpp:156] Memory required for data: 1218065952
I0403 14:51:13.850849 13702 layer_factory.hpp:77] Creating layer inception_4e/3x3_reduce
I0403 14:51:13.850872 13702 net.cpp:91] Creating Layer inception_4e/3x3_reduce
I0403 14:51:13.850889 13702 net.cpp:425] inception_4e/3x3_reduce <- inception_4d/output_inception_4d/output_0_split_2
I0403 14:51:13.850911 13702 net.cpp:399] inception_4e/3x3_reduce -> inception_4e/3x3_reduce
I0403 14:51:13.853067 13702 net.cpp:141] Setting up inception_4e/3x3_reduce
I0403 14:51:13.853096 13702 net.cpp:148] Top shape: 24 160 14 14 (752640)
I0403 14:51:13.853111 13702 net.cpp:156] Memory required for data: 1221076512
I0403 14:51:13.853130 13702 layer_factory.hpp:77] Creating layer inception_4e/relu_3x3_reduce
I0403 14:51:13.853150 13702 net.cpp:91] Creating Layer inception_4e/relu_3x3_reduce
I0403 14:51:13.853168 13702 net.cpp:425] inception_4e/relu_3x3_reduce <- inception_4e/3x3_reduce
I0403 14:51:13.853185 13702 net.cpp:386] inception_4e/relu_3x3_reduce -> inception_4e/3x3_reduce (in-place)
I0403 14:51:13.853379 13702 net.cpp:141] Setting up inception_4e/relu_3x3_reduce
I0403 14:51:13.853404 13702 net.cpp:148] Top shape: 24 160 14 14 (752640)
I0403 14:51:13.853420 13702 net.cpp:156] Memory required for data: 1224087072
I0403 14:51:13.853435 13702 layer_factory.hpp:77] Creating layer inception_4e/3x3
I0403 14:51:13.853458 13702 net.cpp:91] Creating Layer inception_4e/3x3
I0403 14:51:13.853477 13702 net.cpp:425] inception_4e/3x3 <- inception_4e/3x3_reduce
I0403 14:51:13.853495 13702 net.cpp:399] inception_4e/3x3 -> inception_4e/3x3
I0403 14:51:13.858539 13702 net.cpp:141] Setting up inception_4e/3x3
I0403 14:51:13.858587 13702 net.cpp:148] Top shape: 24 320 14 14 (1505280)
I0403 14:51:13.858603 13702 net.cpp:156] Memory required for data: 1230108192
I0403 14:51:13.858621 13702 layer_factory.hpp:77] Creating layer inception_4e/relu_3x3
I0403 14:51:13.858642 13702 net.cpp:91] Creating Layer inception_4e/relu_3x3
I0403 14:51:13.858659 13702 net.cpp:425] inception_4e/relu_3x3 <- inception_4e/3x3
I0403 14:51:13.858677 13702 net.cpp:386] inception_4e/relu_3x3 -> inception_4e/3x3 (in-place)
I0403 14:51:13.858985 13702 net.cpp:141] Setting up inception_4e/relu_3x3
I0403 14:51:13.859014 13702 net.cpp:148] Top shape: 24 320 14 14 (1505280)
I0403 14:51:13.859030 13702 net.cpp:156] Memory required for data: 1236129312
I0403 14:51:13.859045 13702 layer_factory.hpp:77] Creating layer inception_4e/5x5_reduce
I0403 14:51:13.859068 13702 net.cpp:91] Creating Layer inception_4e/5x5_reduce
I0403 14:51:13.859086 13702 net.cpp:425] inception_4e/5x5_reduce <- inception_4d/output_inception_4d/output_0_split_3
I0403 14:51:13.859105 13702 net.cpp:399] inception_4e/5x5_reduce -> inception_4e/5x5_reduce
I0403 14:51:13.860204 13702 net.cpp:141] Setting up inception_4e/5x5_reduce
I0403 14:51:13.860231 13702 net.cpp:148] Top shape: 24 32 14 14 (150528)
I0403 14:51:13.860247 13702 net.cpp:156] Memory required for data: 1236731424
I0403 14:51:13.860267 13702 layer_factory.hpp:77] Creating layer inception_4e/relu_5x5_reduce
I0403 14:51:13.860287 13702 net.cpp:91] Creating Layer inception_4e/relu_5x5_reduce
I0403 14:51:13.860304 13702 net.cpp:425] inception_4e/relu_5x5_reduce <- inception_4e/5x5_reduce
I0403 14:51:13.860322 13702 net.cpp:386] inception_4e/relu_5x5_reduce -> inception_4e/5x5_reduce (in-place)
I0403 14:51:13.860630 13702 net.cpp:141] Setting up inception_4e/relu_5x5_reduce
I0403 14:51:13.860656 13702 net.cpp:148] Top shape: 24 32 14 14 (150528)
I0403 14:51:13.860671 13702 net.cpp:156] Memory required for data: 1237333536
I0403 14:51:13.860687 13702 layer_factory.hpp:77] Creating layer inception_4e/5x5
I0403 14:51:13.860724 13702 net.cpp:91] Creating Layer inception_4e/5x5
I0403 14:51:13.860743 13702 net.cpp:425] inception_4e/5x5 <- inception_4e/5x5_reduce
I0403 14:51:13.860762 13702 net.cpp:399] inception_4e/5x5 -> inception_4e/5x5
I0403 14:51:13.862639 13702 net.cpp:141] Setting up inception_4e/5x5
I0403 14:51:13.862668 13702 net.cpp:148] Top shape: 24 128 14 14 (602112)
I0403 14:51:13.862682 13702 net.cpp:156] Memory required for data: 1239741984
I0403 14:51:13.862702 13702 layer_factory.hpp:77] Creating layer inception_4e/relu_5x5
I0403 14:51:13.862720 13702 net.cpp:91] Creating Layer inception_4e/relu_5x5
I0403 14:51:13.862736 13702 net.cpp:425] inception_4e/relu_5x5 <- inception_4e/5x5
I0403 14:51:13.862756 13702 net.cpp:386] inception_4e/relu_5x5 -> inception_4e/5x5 (in-place)
I0403 14:51:13.862959 13702 net.cpp:141] Setting up inception_4e/relu_5x5
I0403 14:51:13.862984 13702 net.cpp:148] Top shape: 24 128 14 14 (602112)
I0403 14:51:13.862998 13702 net.cpp:156] Memory required for data: 1242150432
I0403 14:51:13.863013 13702 layer_factory.hpp:77] Creating layer inception_4e/pool
I0403 14:51:13.863034 13702 net.cpp:91] Creating Layer inception_4e/pool
I0403 14:51:13.863051 13702 net.cpp:425] inception_4e/pool <- inception_4d/output_inception_4d/output_0_split_4
I0403 14:51:13.863070 13702 net.cpp:399] inception_4e/pool -> inception_4e/pool
I0403 14:51:13.863140 13702 net.cpp:141] Setting up inception_4e/pool
I0403 14:51:13.863164 13702 net.cpp:148] Top shape: 24 528 14 14 (2483712)
I0403 14:51:13.863179 13702 net.cpp:156] Memory required for data: 1252085280
I0403 14:51:13.863194 13702 layer_factory.hpp:77] Creating layer inception_4e/pool_proj
I0403 14:51:13.863216 13702 net.cpp:91] Creating Layer inception_4e/pool_proj
I0403 14:51:13.863234 13702 net.cpp:425] inception_4e/pool_proj <- inception_4e/pool
I0403 14:51:13.863255 13702 net.cpp:399] inception_4e/pool_proj -> inception_4e/pool_proj
I0403 14:51:13.864799 13702 net.cpp:141] Setting up inception_4e/pool_proj
I0403 14:51:13.864827 13702 net.cpp:148] Top shape: 24 128 14 14 (602112)
I0403 14:51:13.864857 13702 net.cpp:156] Memory required for data: 1254493728
I0403 14:51:13.864877 13702 layer_factory.hpp:77] Creating layer inception_4e/relu_pool_proj
I0403 14:51:13.864895 13702 net.cpp:91] Creating Layer inception_4e/relu_pool_proj
I0403 14:51:13.864912 13702 net.cpp:425] inception_4e/relu_pool_proj <- inception_4e/pool_proj
I0403 14:51:13.864933 13702 net.cpp:386] inception_4e/relu_pool_proj -> inception_4e/pool_proj (in-place)
I0403 14:51:13.865236 13702 net.cpp:141] Setting up inception_4e/relu_pool_proj
I0403 14:51:13.865265 13702 net.cpp:148] Top shape: 24 128 14 14 (602112)
I0403 14:51:13.865280 13702 net.cpp:156] Memory required for data: 1256902176
I0403 14:51:13.865295 13702 layer_factory.hpp:77] Creating layer inception_4e/output
I0403 14:51:13.865314 13702 net.cpp:91] Creating Layer inception_4e/output
I0403 14:51:13.865329 13702 net.cpp:425] inception_4e/output <- inception_4e/1x1
I0403 14:51:13.865345 13702 net.cpp:425] inception_4e/output <- inception_4e/3x3
I0403 14:51:13.865361 13702 net.cpp:425] inception_4e/output <- inception_4e/5x5
I0403 14:51:13.865377 13702 net.cpp:425] inception_4e/output <- inception_4e/pool_proj
I0403 14:51:13.865397 13702 net.cpp:399] inception_4e/output -> inception_4e/output
I0403 14:51:13.865447 13702 net.cpp:141] Setting up inception_4e/output
I0403 14:51:13.865473 13702 net.cpp:148] Top shape: 24 832 14 14 (3913728)
I0403 14:51:13.865489 13702 net.cpp:156] Memory required for data: 1272557088
I0403 14:51:13.865504 13702 layer_factory.hpp:77] Creating layer pool4/3x3_s2
I0403 14:51:13.865522 13702 net.cpp:91] Creating Layer pool4/3x3_s2
I0403 14:51:13.865537 13702 net.cpp:425] pool4/3x3_s2 <- inception_4e/output
I0403 14:51:13.865556 13702 net.cpp:399] pool4/3x3_s2 -> pool4/3x3_s2
I0403 14:51:13.865630 13702 net.cpp:141] Setting up pool4/3x3_s2
I0403 14:51:13.865654 13702 net.cpp:148] Top shape: 24 832 7 7 (978432)
I0403 14:51:13.865669 13702 net.cpp:156] Memory required for data: 1276470816
I0403 14:51:13.865684 13702 layer_factory.hpp:77] Creating layer pool4/3x3_s2_pool4/3x3_s2_0_split
I0403 14:51:13.865700 13702 net.cpp:91] Creating Layer pool4/3x3_s2_pool4/3x3_s2_0_split
I0403 14:51:13.865716 13702 net.cpp:425] pool4/3x3_s2_pool4/3x3_s2_0_split <- pool4/3x3_s2
I0403 14:51:13.865736 13702 net.cpp:399] pool4/3x3_s2_pool4/3x3_s2_0_split -> pool4/3x3_s2_pool4/3x3_s2_0_split_0
I0403 14:51:13.865756 13702 net.cpp:399] pool4/3x3_s2_pool4/3x3_s2_0_split -> pool4/3x3_s2_pool4/3x3_s2_0_split_1
I0403 14:51:13.865777 13702 net.cpp:399] pool4/3x3_s2_pool4/3x3_s2_0_split -> pool4/3x3_s2_pool4/3x3_s2_0_split_2
I0403 14:51:13.865797 13702 net.cpp:399] pool4/3x3_s2_pool4/3x3_s2_0_split -> pool4/3x3_s2_pool4/3x3_s2_0_split_3
I0403 14:51:13.865891 13702 net.cpp:141] Setting up pool4/3x3_s2_pool4/3x3_s2_0_split
I0403 14:51:13.865916 13702 net.cpp:148] Top shape: 24 832 7 7 (978432)
I0403 14:51:13.865931 13702 net.cpp:148] Top shape: 24 832 7 7 (978432)
I0403 14:51:13.865947 13702 net.cpp:148] Top shape: 24 832 7 7 (978432)
I0403 14:51:13.865962 13702 net.cpp:148] Top shape: 24 832 7 7 (978432)
I0403 14:51:13.865975 13702 net.cpp:156] Memory required for data: 1292125728
I0403 14:51:13.865989 13702 layer_factory.hpp:77] Creating layer inception_5a/1x1
I0403 14:51:13.866014 13702 net.cpp:91] Creating Layer inception_5a/1x1
I0403 14:51:13.866032 13702 net.cpp:425] inception_5a/1x1 <- pool4/3x3_s2_pool4/3x3_s2_0_split_0
I0403 14:51:13.866053 13702 net.cpp:399] inception_5a/1x1 -> inception_5a/1x1
I0403 14:51:13.868939 13702 net.cpp:141] Setting up inception_5a/1x1
I0403 14:51:13.868968 13702 net.cpp:148] Top shape: 24 256 7 7 (301056)
I0403 14:51:13.868984 13702 net.cpp:156] Memory required for data: 1293329952
I0403 14:51:13.869002 13702 layer_factory.hpp:77] Creating layer inception_5a/relu_1x1
I0403 14:51:13.869024 13702 net.cpp:91] Creating Layer inception_5a/relu_1x1
I0403 14:51:13.869040 13702 net.cpp:425] inception_5a/relu_1x1 <- inception_5a/1x1
I0403 14:51:13.869058 13702 net.cpp:386] inception_5a/relu_1x1 -> inception_5a/1x1 (in-place)
I0403 14:51:13.869377 13702 net.cpp:141] Setting up inception_5a/relu_1x1
I0403 14:51:13.869405 13702 net.cpp:148] Top shape: 24 256 7 7 (301056)
I0403 14:51:13.869420 13702 net.cpp:156] Memory required for data: 1294534176
I0403 14:51:13.869434 13702 layer_factory.hpp:77] Creating layer inception_5a/3x3_reduce
I0403 14:51:13.869457 13702 net.cpp:91] Creating Layer inception_5a/3x3_reduce
I0403 14:51:13.869474 13702 net.cpp:425] inception_5a/3x3_reduce <- pool4/3x3_s2_pool4/3x3_s2_0_split_1
I0403 14:51:13.869496 13702 net.cpp:399] inception_5a/3x3_reduce -> inception_5a/3x3_reduce
I0403 14:51:13.871992 13702 net.cpp:141] Setting up inception_5a/3x3_reduce
I0403 14:51:13.872023 13702 net.cpp:148] Top shape: 24 160 7 7 (188160)
I0403 14:51:13.872040 13702 net.cpp:156] Memory required for data: 1295286816
I0403 14:51:13.872058 13702 layer_factory.hpp:77] Creating layer inception_5a/relu_3x3_reduce
I0403 14:51:13.872088 13702 net.cpp:91] Creating Layer inception_5a/relu_3x3_reduce
I0403 14:51:13.872104 13702 net.cpp:425] inception_5a/relu_3x3_reduce <- inception_5a/3x3_reduce
I0403 14:51:13.872122 13702 net.cpp:386] inception_5a/relu_3x3_reduce -> inception_5a/3x3_reduce (in-place)
I0403 14:51:13.872309 13702 net.cpp:141] Setting up inception_5a/relu_3x3_reduce
I0403 14:51:13.872334 13702 net.cpp:148] Top shape: 24 160 7 7 (188160)
I0403 14:51:13.872347 13702 net.cpp:156] Memory required for data: 1296039456
I0403 14:51:13.872362 13702 layer_factory.hpp:77] Creating layer inception_5a/3x3
I0403 14:51:13.872383 13702 net.cpp:91] Creating Layer inception_5a/3x3
I0403 14:51:13.872400 13702 net.cpp:425] inception_5a/3x3 <- inception_5a/3x3_reduce
I0403 14:51:13.872421 13702 net.cpp:399] inception_5a/3x3 -> inception_5a/3x3
I0403 14:51:13.877336 13702 net.cpp:141] Setting up inception_5a/3x3
I0403 14:51:13.877364 13702 net.cpp:148] Top shape: 24 320 7 7 (376320)
I0403 14:51:13.877379 13702 net.cpp:156] Memory required for data: 1297544736
I0403 14:51:13.877398 13702 layer_factory.hpp:77] Creating layer inception_5a/relu_3x3
I0403 14:51:13.877415 13702 net.cpp:91] Creating Layer inception_5a/relu_3x3
I0403 14:51:13.877432 13702 net.cpp:425] inception_5a/relu_3x3 <- inception_5a/3x3
I0403 14:51:13.877451 13702 net.cpp:386] inception_5a/relu_3x3 -> inception_5a/3x3 (in-place)
I0403 14:51:13.877748 13702 net.cpp:141] Setting up inception_5a/relu_3x3
I0403 14:51:13.877774 13702 net.cpp:148] Top shape: 24 320 7 7 (376320)
I0403 14:51:13.877789 13702 net.cpp:156] Memory required for data: 1299050016
I0403 14:51:13.877802 13702 layer_factory.hpp:77] Creating layer inception_5a/5x5_reduce
I0403 14:51:13.877823 13702 net.cpp:91] Creating Layer inception_5a/5x5_reduce
I0403 14:51:13.877841 13702 net.cpp:425] inception_5a/5x5_reduce <- pool4/3x3_s2_pool4/3x3_s2_0_split_2
I0403 14:51:13.877862 13702 net.cpp:399] inception_5a/5x5_reduce -> inception_5a/5x5_reduce
I0403 14:51:13.879025 13702 net.cpp:141] Setting up inception_5a/5x5_reduce
I0403 14:51:13.879055 13702 net.cpp:148] Top shape: 24 32 7 7 (37632)
I0403 14:51:13.879070 13702 net.cpp:156] Memory required for data: 1299200544
I0403 14:51:13.879088 13702 layer_factory.hpp:77] Creating layer inception_5a/relu_5x5_reduce
I0403 14:51:13.879106 13702 net.cpp:91] Creating Layer inception_5a/relu_5x5_reduce
I0403 14:51:13.879123 13702 net.cpp:425] inception_5a/relu_5x5_reduce <- inception_5a/5x5_reduce
I0403 14:51:13.879139 13702 net.cpp:386] inception_5a/relu_5x5_reduce -> inception_5a/5x5_reduce (in-place)
I0403 14:51:13.879439 13702 net.cpp:141] Setting up inception_5a/relu_5x5_reduce
I0403 14:51:13.879464 13702 net.cpp:148] Top shape: 24 32 7 7 (37632)
I0403 14:51:13.879479 13702 net.cpp:156] Memory required for data: 1299351072
I0403 14:51:13.879494 13702 layer_factory.hpp:77] Creating layer inception_5a/5x5
I0403 14:51:13.879515 13702 net.cpp:91] Creating Layer inception_5a/5x5
I0403 14:51:13.879534 13702 net.cpp:425] inception_5a/5x5 <- inception_5a/5x5_reduce
I0403 14:51:13.879554 13702 net.cpp:399] inception_5a/5x5 -> inception_5a/5x5
I0403 14:51:13.881253 13702 net.cpp:141] Setting up inception_5a/5x5
I0403 14:51:13.881291 13702 net.cpp:148] Top shape: 24 128 7 7 (150528)
I0403 14:51:13.881307 13702 net.cpp:156] Memory required for data: 1299953184
I0403 14:51:13.881325 13702 layer_factory.hpp:77] Creating layer inception_5a/relu_5x5
I0403 14:51:13.881342 13702 net.cpp:91] Creating Layer inception_5a/relu_5x5
I0403 14:51:13.881357 13702 net.cpp:425] inception_5a/relu_5x5 <- inception_5a/5x5
I0403 14:51:13.881379 13702 net.cpp:386] inception_5a/relu_5x5 -> inception_5a/5x5 (in-place)
I0403 14:51:13.881570 13702 net.cpp:141] Setting up inception_5a/relu_5x5
I0403 14:51:13.881595 13702 net.cpp:148] Top shape: 24 128 7 7 (150528)
I0403 14:51:13.881609 13702 net.cpp:156] Memory required for data: 1300555296
I0403 14:51:13.881623 13702 layer_factory.hpp:77] Creating layer inception_5a/pool
I0403 14:51:13.881644 13702 net.cpp:91] Creating Layer inception_5a/pool
I0403 14:51:13.881659 13702 net.cpp:425] inception_5a/pool <- pool4/3x3_s2_pool4/3x3_s2_0_split_3
I0403 14:51:13.881677 13702 net.cpp:399] inception_5a/pool -> inception_5a/pool
I0403 14:51:13.881748 13702 net.cpp:141] Setting up inception_5a/pool
I0403 14:51:13.881772 13702 net.cpp:148] Top shape: 24 832 7 7 (978432)
I0403 14:51:13.881785 13702 net.cpp:156] Memory required for data: 1304469024
I0403 14:51:13.881799 13702 layer_factory.hpp:77] Creating layer inception_5a/pool_proj
I0403 14:51:13.881821 13702 net.cpp:91] Creating Layer inception_5a/pool_proj
I0403 14:51:13.881844 13702 net.cpp:425] inception_5a/pool_proj <- inception_5a/pool
I0403 14:51:13.881866 13702 net.cpp:399] inception_5a/pool_proj -> inception_5a/pool_proj
I0403 14:51:13.884160 13702 net.cpp:141] Setting up inception_5a/pool_proj
I0403 14:51:13.884192 13702 net.cpp:148] Top shape: 24 128 7 7 (150528)
I0403 14:51:13.884222 13702 net.cpp:156] Memory required for data: 1305071136
I0403 14:51:13.884240 13702 layer_factory.hpp:77] Creating layer inception_5a/relu_pool_proj
I0403 14:51:13.884258 13702 net.cpp:91] Creating Layer inception_5a/relu_pool_proj
I0403 14:51:13.884275 13702 net.cpp:425] inception_5a/relu_pool_proj <- inception_5a/pool_proj
I0403 14:51:13.884295 13702 net.cpp:386] inception_5a/relu_pool_proj -> inception_5a/pool_proj (in-place)
I0403 14:51:13.884629 13702 net.cpp:141] Setting up inception_5a/relu_pool_proj
I0403 14:51:13.884657 13702 net.cpp:148] Top shape: 24 128 7 7 (150528)
I0403 14:51:13.884673 13702 net.cpp:156] Memory required for data: 1305673248
I0403 14:51:13.884688 13702 layer_factory.hpp:77] Creating layer inception_5a/output
I0403 14:51:13.884706 13702 net.cpp:91] Creating Layer inception_5a/output
I0403 14:51:13.884722 13702 net.cpp:425] inception_5a/output <- inception_5a/1x1
I0403 14:51:13.884739 13702 net.cpp:425] inception_5a/output <- inception_5a/3x3
I0403 14:51:13.884755 13702 net.cpp:425] inception_5a/output <- inception_5a/5x5
I0403 14:51:13.884771 13702 net.cpp:425] inception_5a/output <- inception_5a/pool_proj
I0403 14:51:13.884791 13702 net.cpp:399] inception_5a/output -> inception_5a/output
I0403 14:51:13.884841 13702 net.cpp:141] Setting up inception_5a/output
I0403 14:51:13.884865 13702 net.cpp:148] Top shape: 24 832 7 7 (978432)
I0403 14:51:13.884879 13702 net.cpp:156] Memory required for data: 1309586976
I0403 14:51:13.884893 13702 layer_factory.hpp:77] Creating layer inception_5a/output_inception_5a/output_0_split
I0403 14:51:13.884914 13702 net.cpp:91] Creating Layer inception_5a/output_inception_5a/output_0_split
I0403 14:51:13.884932 13702 net.cpp:425] inception_5a/output_inception_5a/output_0_split <- inception_5a/output
I0403 14:51:13.884948 13702 net.cpp:399] inception_5a/output_inception_5a/output_0_split -> inception_5a/output_inception_5a/output_0_split_0
I0403 14:51:13.884969 13702 net.cpp:399] inception_5a/output_inception_5a/output_0_split -> inception_5a/output_inception_5a/output_0_split_1
I0403 14:51:13.884994 13702 net.cpp:399] inception_5a/output_inception_5a/output_0_split -> inception_5a/output_inception_5a/output_0_split_2
I0403 14:51:13.885015 13702 net.cpp:399] inception_5a/output_inception_5a/output_0_split -> inception_5a/output_inception_5a/output_0_split_3
I0403 14:51:13.885124 13702 net.cpp:141] Setting up inception_5a/output_inception_5a/output_0_split
I0403 14:51:13.885149 13702 net.cpp:148] Top shape: 24 832 7 7 (978432)
I0403 14:51:13.885164 13702 net.cpp:148] Top shape: 24 832 7 7 (978432)
I0403 14:51:13.885180 13702 net.cpp:148] Top shape: 24 832 7 7 (978432)
I0403 14:51:13.885195 13702 net.cpp:148] Top shape: 24 832 7 7 (978432)
I0403 14:51:13.885210 13702 net.cpp:156] Memory required for data: 1325241888
I0403 14:51:13.885223 13702 layer_factory.hpp:77] Creating layer inception_5b/1x1
I0403 14:51:13.885246 13702 net.cpp:91] Creating Layer inception_5b/1x1
I0403 14:51:13.885264 13702 net.cpp:425] inception_5b/1x1 <- inception_5a/output_inception_5a/output_0_split_0
I0403 14:51:13.885287 13702 net.cpp:399] inception_5b/1x1 -> inception_5b/1x1
I0403 14:51:13.889158 13702 net.cpp:141] Setting up inception_5b/1x1
I0403 14:51:13.889190 13702 net.cpp:148] Top shape: 24 384 7 7 (451584)
I0403 14:51:13.889206 13702 net.cpp:156] Memory required for data: 1327048224
I0403 14:51:13.889225 13702 layer_factory.hpp:77] Creating layer inception_5b/relu_1x1
I0403 14:51:13.889243 13702 net.cpp:91] Creating Layer inception_5b/relu_1x1
I0403 14:51:13.889261 13702 net.cpp:425] inception_5b/relu_1x1 <- inception_5b/1x1
I0403 14:51:13.889279 13702 net.cpp:386] inception_5b/relu_1x1 -> inception_5b/1x1 (in-place)
I0403 14:51:13.889593 13702 net.cpp:141] Setting up inception_5b/relu_1x1
I0403 14:51:13.889622 13702 net.cpp:148] Top shape: 24 384 7 7 (451584)
I0403 14:51:13.889637 13702 net.cpp:156] Memory required for data: 1328854560
I0403 14:51:13.889653 13702 layer_factory.hpp:77] Creating layer inception_5b/3x3_reduce
I0403 14:51:13.889675 13702 net.cpp:91] Creating Layer inception_5b/3x3_reduce
I0403 14:51:13.889694 13702 net.cpp:425] inception_5b/3x3_reduce <- inception_5a/output_inception_5a/output_0_split_1
I0403 14:51:13.889714 13702 net.cpp:399] inception_5b/3x3_reduce -> inception_5b/3x3_reduce
I0403 14:51:13.892400 13702 net.cpp:141] Setting up inception_5b/3x3_reduce
I0403 14:51:13.892431 13702 net.cpp:148] Top shape: 24 192 7 7 (225792)
I0403 14:51:13.892448 13702 net.cpp:156] Memory required for data: 1329757728
I0403 14:51:13.892467 13702 layer_factory.hpp:77] Creating layer inception_5b/relu_3x3_reduce
I0403 14:51:13.892487 13702 net.cpp:91] Creating Layer inception_5b/relu_3x3_reduce
I0403 14:51:13.892503 13702 net.cpp:425] inception_5b/relu_3x3_reduce <- inception_5b/3x3_reduce
I0403 14:51:13.892523 13702 net.cpp:386] inception_5b/relu_3x3_reduce -> inception_5b/3x3_reduce (in-place)
I0403 14:51:13.892721 13702 net.cpp:141] Setting up inception_5b/relu_3x3_reduce
I0403 14:51:13.892747 13702 net.cpp:148] Top shape: 24 192 7 7 (225792)
I0403 14:51:13.892762 13702 net.cpp:156] Memory required for data: 1330660896
I0403 14:51:13.892781 13702 layer_factory.hpp:77] Creating layer inception_5b/3x3
I0403 14:51:13.892803 13702 net.cpp:91] Creating Layer inception_5b/3x3
I0403 14:51:13.892822 13702 net.cpp:425] inception_5b/3x3 <- inception_5b/3x3_reduce
I0403 14:51:13.892853 13702 net.cpp:399] inception_5b/3x3 -> inception_5b/3x3
I0403 14:51:13.899591 13702 net.cpp:141] Setting up inception_5b/3x3
I0403 14:51:13.899622 13702 net.cpp:148] Top shape: 24 384 7 7 (451584)
I0403 14:51:13.899639 13702 net.cpp:156] Memory required for data: 1332467232
I0403 14:51:13.899658 13702 layer_factory.hpp:77] Creating layer inception_5b/relu_3x3
I0403 14:51:13.899677 13702 net.cpp:91] Creating Layer inception_5b/relu_3x3
I0403 14:51:13.899693 13702 net.cpp:425] inception_5b/relu_3x3 <- inception_5b/3x3
I0403 14:51:13.899713 13702 net.cpp:386] inception_5b/relu_3x3 -> inception_5b/3x3 (in-place)
I0403 14:51:13.900015 13702 net.cpp:141] Setting up inception_5b/relu_3x3
I0403 14:51:13.900044 13702 net.cpp:148] Top shape: 24 384 7 7 (451584)
I0403 14:51:13.900060 13702 net.cpp:156] Memory required for data: 1334273568
I0403 14:51:13.900075 13702 layer_factory.hpp:77] Creating layer inception_5b/5x5_reduce
I0403 14:51:13.900113 13702 net.cpp:91] Creating Layer inception_5b/5x5_reduce
I0403 14:51:13.900133 13702 net.cpp:425] inception_5b/5x5_reduce <- inception_5a/output_inception_5a/output_0_split_2
I0403 14:51:13.900163 13702 net.cpp:399] inception_5b/5x5_reduce -> inception_5b/5x5_reduce
I0403 14:51:13.901443 13702 net.cpp:141] Setting up inception_5b/5x5_reduce
I0403 14:51:13.901470 13702 net.cpp:148] Top shape: 24 48 7 7 (56448)
I0403 14:51:13.901485 13702 net.cpp:156] Memory required for data: 1334499360
I0403 14:51:13.901504 13702 layer_factory.hpp:77] Creating layer inception_5b/relu_5x5_reduce
I0403 14:51:13.901520 13702 net.cpp:91] Creating Layer inception_5b/relu_5x5_reduce
I0403 14:51:13.901536 13702 net.cpp:425] inception_5b/relu_5x5_reduce <- inception_5b/5x5_reduce
I0403 14:51:13.901556 13702 net.cpp:386] inception_5b/relu_5x5_reduce -> inception_5b/5x5_reduce (in-place)
I0403 14:51:13.901932 13702 net.cpp:141] Setting up inception_5b/relu_5x5_reduce
I0403 14:51:13.901958 13702 net.cpp:148] Top shape: 24 48 7 7 (56448)
I0403 14:51:13.901973 13702 net.cpp:156] Memory required for data: 1334725152
I0403 14:51:13.901988 13702 layer_factory.hpp:77] Creating layer inception_5b/5x5
I0403 14:51:13.902009 13702 net.cpp:91] Creating Layer inception_5b/5x5
I0403 14:51:13.902024 13702 net.cpp:425] inception_5b/5x5 <- inception_5b/5x5_reduce
I0403 14:51:13.902043 13702 net.cpp:399] inception_5b/5x5 -> inception_5b/5x5
I0403 14:51:13.904068 13702 net.cpp:141] Setting up inception_5b/5x5
I0403 14:51:13.904095 13702 net.cpp:148] Top shape: 24 128 7 7 (150528)
I0403 14:51:13.904110 13702 net.cpp:156] Memory required for data: 1335327264
I0403 14:51:13.904127 13702 layer_factory.hpp:77] Creating layer inception_5b/relu_5x5
I0403 14:51:13.904150 13702 net.cpp:91] Creating Layer inception_5b/relu_5x5
I0403 14:51:13.904167 13702 net.cpp:425] inception_5b/relu_5x5 <- inception_5b/5x5
I0403 14:51:13.904184 13702 net.cpp:386] inception_5b/relu_5x5 -> inception_5b/5x5 (in-place)
I0403 14:51:13.904377 13702 net.cpp:141] Setting up inception_5b/relu_5x5
I0403 14:51:13.904402 13702 net.cpp:148] Top shape: 24 128 7 7 (150528)
I0403 14:51:13.904417 13702 net.cpp:156] Memory required for data: 1335929376
I0403 14:51:13.904430 13702 layer_factory.hpp:77] Creating layer inception_5b/pool
I0403 14:51:13.904449 13702 net.cpp:91] Creating Layer inception_5b/pool
I0403 14:51:13.904466 13702 net.cpp:425] inception_5b/pool <- inception_5a/output_inception_5a/output_0_split_3
I0403 14:51:13.904484 13702 net.cpp:399] inception_5b/pool -> inception_5b/pool
I0403 14:51:13.904556 13702 net.cpp:141] Setting up inception_5b/pool
I0403 14:51:13.904589 13702 net.cpp:148] Top shape: 24 832 7 7 (978432)
I0403 14:51:13.904605 13702 net.cpp:156] Memory required for data: 1339843104
I0403 14:51:13.904619 13702 layer_factory.hpp:77] Creating layer inception_5b/pool_proj
I0403 14:51:13.904641 13702 net.cpp:91] Creating Layer inception_5b/pool_proj
I0403 14:51:13.904659 13702 net.cpp:425] inception_5b/pool_proj <- inception_5b/pool
I0403 14:51:13.904678 13702 net.cpp:399] inception_5b/pool_proj -> inception_5b/pool_proj
I0403 14:51:13.906939 13702 net.cpp:141] Setting up inception_5b/pool_proj
I0403 14:51:13.906968 13702 net.cpp:148] Top shape: 24 128 7 7 (150528)
I0403 14:51:13.906983 13702 net.cpp:156] Memory required for data: 1340445216
I0403 14:51:13.907001 13702 layer_factory.hpp:77] Creating layer inception_5b/relu_pool_proj
I0403 14:51:13.907019 13702 net.cpp:91] Creating Layer inception_5b/relu_pool_proj
I0403 14:51:13.907035 13702 net.cpp:425] inception_5b/relu_pool_proj <- inception_5b/pool_proj
I0403 14:51:13.907054 13702 net.cpp:386] inception_5b/relu_pool_proj -> inception_5b/pool_proj (in-place)
I0403 14:51:13.907356 13702 net.cpp:141] Setting up inception_5b/relu_pool_proj
I0403 14:51:13.907382 13702 net.cpp:148] Top shape: 24 128 7 7 (150528)
I0403 14:51:13.907395 13702 net.cpp:156] Memory required for data: 1341047328
I0403 14:51:13.907410 13702 layer_factory.hpp:77] Creating layer inception_5b/output
I0403 14:51:13.907428 13702 net.cpp:91] Creating Layer inception_5b/output
I0403 14:51:13.907456 13702 net.cpp:425] inception_5b/output <- inception_5b/1x1
I0403 14:51:13.907474 13702 net.cpp:425] inception_5b/output <- inception_5b/3x3
I0403 14:51:13.907490 13702 net.cpp:425] inception_5b/output <- inception_5b/5x5
I0403 14:51:13.907505 13702 net.cpp:425] inception_5b/output <- inception_5b/pool_proj
I0403 14:51:13.907524 13702 net.cpp:399] inception_5b/output -> inception_5b/output
I0403 14:51:13.907578 13702 net.cpp:141] Setting up inception_5b/output
I0403 14:51:13.907604 13702 net.cpp:148] Top shape: 24 1024 7 7 (1204224)
I0403 14:51:13.907619 13702 net.cpp:156] Memory required for data: 1345864224
I0403 14:51:13.907634 13702 layer_factory.hpp:77] Creating layer pool5/7x7_s1
I0403 14:51:13.907650 13702 net.cpp:91] Creating Layer pool5/7x7_s1
I0403 14:51:13.907665 13702 net.cpp:425] pool5/7x7_s1 <- inception_5b/output
I0403 14:51:13.907683 13702 net.cpp:399] pool5/7x7_s1 -> pool5/7x7_s1
I0403 14:51:13.907899 13702 net.cpp:141] Setting up pool5/7x7_s1
I0403 14:51:13.907924 13702 net.cpp:148] Top shape: 24 1024 1 1 (24576)
I0403 14:51:13.907938 13702 net.cpp:156] Memory required for data: 1345962528
I0403 14:51:13.907953 13702 layer_factory.hpp:77] Creating layer pool5/drop_7x7_s1
I0403 14:51:13.907970 13702 net.cpp:91] Creating Layer pool5/drop_7x7_s1
I0403 14:51:13.907985 13702 net.cpp:425] pool5/drop_7x7_s1 <- pool5/7x7_s1
I0403 14:51:13.908004 13702 net.cpp:386] pool5/drop_7x7_s1 -> pool5/7x7_s1 (in-place)
I0403 14:51:13.908053 13702 net.cpp:141] Setting up pool5/drop_7x7_s1
I0403 14:51:13.908078 13702 net.cpp:148] Top shape: 24 1024 1 1 (24576)
I0403 14:51:13.908093 13702 net.cpp:156] Memory required for data: 1346060832
I0403 14:51:13.908107 13702 layer_factory.hpp:77] Creating layer loss3/classifier_plantvillage
I0403 14:51:13.908125 13702 net.cpp:91] Creating Layer loss3/classifier_plantvillage
I0403 14:51:13.908141 13702 net.cpp:425] loss3/classifier_plantvillage <- pool5/7x7_s1
I0403 14:51:13.908160 13702 net.cpp:399] loss3/classifier_plantvillage -> loss3/classifier_plantvillage
I0403 14:51:13.908581 13702 net.cpp:141] Setting up loss3/classifier_plantvillage
I0403 14:51:13.908604 13702 net.cpp:148] Top shape: 24 38 (912)
I0403 14:51:13.908619 13702 net.cpp:156] Memory required for data: 1346064480
I0403 14:51:13.908637 13702 layer_factory.hpp:77] Creating layer loss3/classifier_plantvillage_loss3/classifier_plantvillage_0_split
I0403 14:51:13.908658 13702 net.cpp:91] Creating Layer loss3/classifier_plantvillage_loss3/classifier_plantvillage_0_split
I0403 14:51:13.908673 13702 net.cpp:425] loss3/classifier_plantvillage_loss3/classifier_plantvillage_0_split <- loss3/classifier_plantvillage
I0403 14:51:13.908689 13702 net.cpp:399] loss3/classifier_plantvillage_loss3/classifier_plantvillage_0_split -> loss3/classifier_plantvillage_loss3/classifier_plantvillage_0_split_0
I0403 14:51:13.908711 13702 net.cpp:399] loss3/classifier_plantvillage_loss3/classifier_plantvillage_0_split -> loss3/classifier_plantvillage_loss3/classifier_plantvillage_0_split_1
I0403 14:51:13.908731 13702 net.cpp:399] loss3/classifier_plantvillage_loss3/classifier_plantvillage_0_split -> loss3/classifier_plantvillage_loss3/classifier_plantvillage_0_split_2
I0403 14:51:13.908752 13702 net.cpp:399] loss3/classifier_plantvillage_loss3/classifier_plantvillage_0_split -> loss3/classifier_plantvillage_loss3/classifier_plantvillage_0_split_3
I0403 14:51:13.908850 13702 net.cpp:141] Setting up loss3/classifier_plantvillage_loss3/classifier_plantvillage_0_split
I0403 14:51:13.908874 13702 net.cpp:148] Top shape: 24 38 (912)
I0403 14:51:13.908890 13702 net.cpp:148] Top shape: 24 38 (912)
I0403 14:51:13.908903 13702 net.cpp:148] Top shape: 24 38 (912)
I0403 14:51:13.908918 13702 net.cpp:148] Top shape: 24 38 (912)
I0403 14:51:13.908931 13702 net.cpp:156] Memory required for data: 1346079072
I0403 14:51:13.908946 13702 layer_factory.hpp:77] Creating layer loss1/loss
I0403 14:51:13.908967 13702 net.cpp:91] Creating Layer loss1/loss
I0403 14:51:13.908983 13702 net.cpp:425] loss1/loss <- loss1/classifier_plantvillage_loss1/classifier_plantvillage_0_split_0
I0403 14:51:13.909013 13702 net.cpp:425] loss1/loss <- label_data_1_split_0
…
