…
I0403 14:26:26.817507 13276 net.cpp:313] The NetState phase (1) differed from the phase (0) specified by a rule in layer data
I0403 14:26:26.818683 13276 net.cpp:49] Initializing net from parameters: 
state {
  phase: TEST
}
layer {
  name: "data"
  type: "Data"
  top: "data"
  top: "label"
  include {
    phase: TEST
  }
  transform_param {
    mirror: false
    crop_size: 224
    mean_file: "/home/mohanty/data/final_dataset/lmdb/color-40-60/mean.binaryproto"
  }
  data_param {
    source: "/home/mohanty/data/final_dataset/lmdb/color-40-60/test_db"
    batch_size: 24
    backend: LMDB
  }
}
layer {
  name: "conv1/7x7_s2"
  type: "Convolution"
  bottom: "data"
  top: "conv1/7x7_s2"
  param {
    lr_mult: 1
    decay_mult: 1
  }
  param {
    lr_mult: 2
    decay_mult: 0
  }
  convolution_param {
    num_output: 64
    pad: 3
    kernel_size: 7
    stride: 2
    weight_filler {
      type: "xavier"
      std: 0.1
    }
    bias_filler {
      type: "constant"
      value: 0.2
    }
  }
}
layer {
  name: "conv1/relu_7x7"
  type: "ReLU"
  bottom: "conv1/7x7_s2"
  top: "conv1/7x7_s2"
}
layer {
  name: "pool1/3x3_s2"
  type: "Pooling"
  bottom: "conv1/7x7_s2"
  top: "pool1/3x3_s2"
  pooling_param {
    pool: MAX
    kernel_size: 3
    stride: 2
  }
}
layer {
  name: "pool1/norm1"
  type: "LRN"
  bottom: "pool1/3x3_s2"
  top: "pool1/norm1"
  lrn_param {
    local_size: 5
    alpha: 0.0001
    beta: 0.75
  }
}
layer {
  name: "conv2/3x3_reduce"
  type: "Convolution"
  bottom: "pool1/norm1"
  top: "conv2/3x3_reduce"
  param {
    lr_mult: 1
    decay_mult: 1
  }
  param {
    lr_mult: 2
    decay_mult: 0
  }
  convolution_param {
    num_output: 64
    kernel_size: 1
    weight_filler {
      type: "xavier"
      std: 0.1
    }
    bias_filler {
      type: "constant"
      value: 0.2
    }
  }
}
layer {
  name: "conv2/relu_3x3_reduce"
  type: "ReLU"
  bottom: "conv2/3x3_reduce"
  top: "conv2/3x3_reduce"
}
layer {
  name: "conv2/3x3"
  type: "Convolution"
  bottom: "conv2/3x3_reduce"
  top: "conv2/3x3"
  param {
    lr_mult: 1
    decay_mult: 1
  }
  param {
    lr_mult: 2
    decay_mult: 0
  }
  convolution_param {
    num_output: 192
    pad: 1
    kernel_size: 3
    weight_filler {
      type: "xavier"
      std: 0.03
    }
    bias_filler {
      type: "constant"
      value: 0.2
    }
  }
}
layer {
  name: "conv2/relu_3x3"
  type: "ReLU"
  bottom: "conv2/3x3"
  top: "conv2/3x3"
}
layer {
  name: "conv2/norm2"
  type: "LRN"
  bottom: "conv2/3x3"
  top: "conv2/norm2"
  lrn_param {
    local_size: 5
    alpha: 0.0001
    beta: 0.75
  }
}
layer {
  name: "pool2/3x3_s2"
  type: "Pooling"
  bottom: "conv2/norm2"
  top: "pool2/3x3_s2"
  pooling_param {
    pool: MAX
    kernel_size: 3
    stride: 2
  }
}
layer {
  name: "inception_3a/1x1"
  type: "Convolution"
  bottom: "pool2/3x3_s2"
  top: "inception_3a/1x1"
  param {
    lr_mult: 1
    decay_mult: 1
  }
  param {
    lr_mult: 2
    decay_mult: 0
  }
  convolution_param {
    num_output: 64
    kernel_size: 1
    weight_filler {
      type: "xavier"
      std: 0.03
    }
    bias_filler {
      type: "constant"
      value: 0.2
    }
  }
}
layer {
  name: "inception_3a/relu_1x1"
  type: "ReLU"
  bottom: "inception_3a/1x1"
  top: "inception_3a/1x1"
}
layer {
  name: "inception_3a/3x3_reduce"
  type: "Convolution"
  bottom: "pool2/3x3_s2"
  top: "inception_3a/3x3_reduce"
  param {
    lr_mult: 1
    decay_mult: 1
  }
  param {
    lr_mult: 2
    decay_mult: 0
  }
  convolution_param {
    num_output: 96
    kernel_size: 1
    weight_filler {
      type: "xavier"
      std: 0.09
    }
    bias_filler {
      type: "constant"
      value: 0.2
    }
  }
}
layer {
  name: "inception_3a/relu_3x3_reduce"
  type: "ReLU"
  bottom: "inception_3a/3x3_reduce"
  top: "inception_3a/3x3_reduce"
}
layer {
  name: "inception_3a/3x3"
  type: "Convolution"
  bottom: "inception_3a/3x3_reduce"
  top: "inception_3a/3x3"
  param {
    lr_mult: 1
    decay_mult: 1
  }
  param {
    lr_mult: 2
    decay_mult: 0
  }
  convolution_param {
    num_output: 128
    pad: 1
    kernel_size: 3
    weight_filler {
      type: "xavier"
      std: 0.03
    }
    bias_filler {
      type: "constant"
      value: 0.2
    }
  }
}
layer {
  name: "inception_3a/relu_3x3"
  type: "ReLU"
  bottom: "inception_3a/3x3"
  top: "inception_3a/3x3"
}
layer {
  name: "inception_3a/5x5_reduce"
  type: "Convolution"
  bottom: "pool2/3x3_s2"
  top: "inception_3a/5x5_reduce"
  param {
    lr_mult: 1
    decay_mult: 1
  }
  param {
    lr_mult: 2
    decay_mult: 0
  }
  convolution_param {
    num_output: 16
    kernel_size: 1
    weight_filler {
      type: "xavier"
      std: 0.2
    }
    bias_filler {
      type: "constant"
      value: 0.2
    }
  }
}
layer {
  name: "inception_3a/relu_5x5_reduce"
  type: "ReLU"
  bottom: "inception_3a/5x5_reduce"
  top: "inception_3a/5x5_reduce"
}
layer {
  name: "inception_3a/5x5"
  type: "Convolution"
  bottom: "inception_3a/5x5_reduce"
  top: "inception_3a/5x5"
  param {
    lr_mult: 1
    decay_mult: 1
  }
  param {
    lr_mult: 2
    decay_mult: 0
  }
  convolution_param {
    num_output: 32
    pad: 2
    kernel_size: 5
    weight_filler {
      type: "xavier"
      std: 0.03
    }
    bias_filler {
      type: "constant"
      value: 0.2
    }
  }
}
layer {
  name: "inception_3a/relu_5x5"
  type: "ReLU"
  bottom: "inception_3a/5x5"
  top: "inception_3a/5x5"
}
layer {
  name: "inception_3a/pool"
  type: "Pooling"
  bottom: "pool2/3x3_s2"
  top: "inception_3a/pool"
  pooling_param {
    pool: MAX
    kernel_size: 3
    stride: 1
    pad: 1
  }
}
layer {
  name: "inception_3a/pool_proj"
  type: "Convolution"
  bottom: "inception_3a/pool"
  top: "inception_3a/pool_proj"
  param {
    lr_mult: 1
    decay_mult: 1
  }
  param {
    lr_mult: 2
    decay_mult: 0
  }
  convolution_param {
    num_output: 32
    kernel_size: 1
    weight_filler {
      type: "xavier"
      std: 0.1
    }
    bias_filler {
      type: "constant"
      value: 0.2
    }
  }
}
layer {
  name: "inception_3a/relu_pool_proj"
  type: "ReLU"
  bottom: "inception_3a/pool_proj"
  top: "inception_3a/pool_proj"
}
layer {
  name: "inception_3a/output"
  type: "Concat"
  bottom: "inception_3a/1x1"
  bottom: "inception_3a/3x3"
  bottom: "inception_3a/5x5"
  bottom: "inception_3a/pool_proj"
  top: "inception_3a/output"
}
layer {
  name: "inception_3b/1x1"
  type: "Convolution"
  bottom: "inception_3a/output"
  top: "inception_3b/1x1"
  param {
    lr_mult: 1
    decay_mult: 1
  }
  param {
    lr_mult: 2
    decay_mult: 0
  }
  convolution_param {
    num_output: 128
    kernel_size: 1
    weight_filler {
      type: "xavier"
      std: 0.03
    }
    bias_filler {
      type: "constant"
      value: 0.2
    }
  }
}
layer {
  name: "inception_3b/relu_1x1"
  type: "ReLU"
  bottom: "inception_3b/1x1"
  top: "inception_3b/1x1"
}
layer {
  name: "inception_3b/3x3_reduce"
  type: "Convolution"
  bottom: "inception_3a/output"
  top: "inception_3b/3x3_reduce"
  param {
    lr_mult: 1
    decay_mult: 1
  }
  param {
    lr_mult: 2
    decay_mult: 0
  }
  convolution_param {
    num_output: 128
    kernel_size: 1
    weight_filler {
      type: "xavier"
      std: 0.09
    }
    bias_filler {
      type: "constant"
      value: 0.2
    }
  }
}
layer {
  name: "inception_3b/relu_3x3_reduce"
  type: "ReLU"
  bottom: "inception_3b/3x3_reduce"
  top: "inception_3b/3x3_reduce"
}
layer {
  name: "inception_3b/3x3"
  type: "Convolution"
  bottom: "inception_3b/3x3_reduce"
  top: "inception_3b/3x3"
  param {
    lr_mult: 1
    decay_mult: 1
  }
  param {
    lr_mult: 2
    decay_mult: 0
  }
  convolution_param {
    num_output: 192
    pad: 1
    kernel_size: 3
    weight_filler {
      type: "xavier"
      std: 0.03
    }
    bias_filler {
      type: "constant"
      value: 0.2
    }
  }
}
layer {
  name: "inception_3b/relu_3x3"
  type: "ReLU"
  bottom: "inception_3b/3x3"
  top: "inception_3b/3x3"
}
layer {
  name: "inception_3b/5x5_reduce"
  type: "Convolution"
  bottom: "inception_3a/output"
  top: "inception_3b/5x5_reduce"
  param {
    lr_mult: 1
    decay_mult: 1
  }
  param {
    lr_mult: 2
    decay_mult: 0
  }
  convolution_param {
    num_output: 32
    kernel_size: 1
    weight_filler {
      type: "xavier"
      std: 0.2
    }
    bias_filler {
      type: "constant"
      value: 0.2
    }
  }
}
layer {
  name: "inception_3b/relu_5x5_reduce"
  type: "ReLU"
  bottom: "inception_3b/5x5_reduce"
  top: "inception_3b/5x5_reduce"
}
layer {
  name: "inception_3b/5x5"
  type: "Convolution"
  bottom: "inception_3b/5x5_reduce"
  top: "inception_3b/5x5"
  param {
    lr_mult: 1
    decay_mult: 1
  }
  param {
    lr_mult: 2
    decay_mult: 0
  }
  convolution_param {
    num_output: 96
    pad: 2
    kernel_size: 5
    weight_filler {
      type: "xavier"
      std: 0.03
    }
    bias_filler {
      type: "constant"
      value: 0.2
    }
  }
}
layer {
  name: "inception_3b/relu_5x5"
  type: "ReLU"
  bottom: "inception_3b/5x5"
  top: "inception_3b/5x5"
}
layer {
  name: "inception_3b/pool"
  type: "Pooling"
  bottom: "inception_3a/output"
  top: "inception_3b/pool"
  pooling_param {
    pool: MAX
    kernel_size: 3
    stride: 1
    pad: 1
  }
}
layer {
  name: "inception_3b/pool_proj"
  type: "Convolution"
  bottom: "inception_3b/pool"
  top: "inception_3b/pool_proj"
  param {
    lr_mult: 1
    decay_mult: 1
  }
  param {
    lr_mult: 2
    decay_mult: 0
  }
  convolution_param {
    num_output: 64
    kernel_size: 1
    weight_filler {
      type: "xavier"
      std: 0.1
    }
    bias_filler {
      type: "constant"
      value: 0.2
    }
  }
}
layer {
  name: "inception_3b/relu_pool_proj"
  type: "ReLU"
  bottom: "inception_3b/pool_proj"
  top: "inception_3b/pool_proj"
}
layer {
  name: "inception_3b/output"
  type: "Concat"
  bottom: "inception_3b/1x1"
  bottom: "inception_3b/3x3"
  bottom: "inception_3b/5x5"
  bottom: "inception_3b/pool_proj"
  top: "inception_3b/output"
}
layer {
  name: "pool3/3x3_s2"
  type: "Pooling"
  bottom: "inception_3b/output"
  top: "pool3/3x3_s2"
  pooling_param {
    pool: MAX
    kernel_size: 3
    stride: 2
  }
}
layer {
  name: "inception_4a/1x1"
  type: "Convolution"
  bottom: "pool3/3x3_s2"
  top: "inception_4a/1x1"
  param {
    lr_mult: 1
    decay_mult: 1
  }
  param {
    lr_mult: 2
    decay_mult: 0
  }
  convolution_param {
    num_output: 192
    kernel_size: 1
    weight_filler {
      type: "xavier"
      std: 0.03
    }
    bias_filler {
      type: "constant"
      value: 0.2
    }
  }
}
layer {
  name: "inception_4a/relu_1x1"
  type: "ReLU"
  bottom: "inception_4a/1x1"
  top: "inception_4a/1x1"
}
layer {
  name: "inception_4a/3x3_reduce"
  type: "Convolution"
  bottom: "pool3/3x3_s2"
  top: "inception_4a/3x3_reduce"
  param {
    lr_mult: 1
    decay_mult: 1
  }
  param {
    lr_mult: 2
    decay_mult: 0
  }
  convolution_param {
    num_output: 96
    kernel_size: 1
    weight_filler {
      type: "xavier"
      std: 0.09
    }
    bias_filler {
      type: "constant"
      value: 0.2
    }
  }
}
layer {
  name: "inception_4a/relu_3x3_reduce"
  type: "ReLU"
  bottom: "inception_4a/3x3_reduce"
  top: "inception_4a/3x3_reduce"
}
layer {
  name: "inception_4a/3x3"
  type: "Convolution"
  bottom: "inception_4a/3x3_reduce"
  top: "inception_4a/3x3"
  param {
    lr_mult: 1
    decay_mult: 1
  }
  param {
    lr_mult: 2
    decay_mult: 0
  }
  convolution_param {
    num_output: 208
    pad: 1
    kernel_size: 3
    weight_filler {
      type: "xavier"
      std: 0.03
    }
    bias_filler {
      type: "constant"
      value: 0.2
    }
  }
}
layer {
  name: "inception_4a/relu_3x3"
  type: "ReLU"
  bottom: "inception_4a/3x3"
  top: "inception_4a/3x3"
}
layer {
  name: "inception_4a/5x5_reduce"
  type: "Convolution"
  bottom: "pool3/3x3_s2"
  top: "inception_4a/5x5_reduce"
  param {
    lr_mult: 1
    decay_mult: 1
  }
  param {
    lr_mult: 2
    decay_mult: 0
  }
  convolution_param {
    num_output: 16
    kernel_size: 1
    weight_filler {
      type: "xavier"
      std: 0.2
    }
    bias_filler {
      type: "constant"
      value: 0.2
    }
  }
}
layer {
  name: "inception_4a/relu_5x5_reduce"
  type: "ReLU"
  bottom: "inception_4a/5x5_reduce"
  top: "inception_4a/5x5_reduce"
}
layer {
  name: "inception_4a/5x5"
  type: "Convolution"
  bottom: "inception_4a/5x5_reduce"
  top: "inception_4a/5x5"
  param {
    lr_mult: 1
    decay_mult: 1
  }
  param {
    lr_mult: 2
    decay_mult: 0
  }
  convolution_param {
    num_output: 48
    pad: 2
    kernel_size: 5
    weight_filler {
      type: "xavier"
      std: 0.03
    }
    bias_filler {
      type: "constant"
      value: 0.2
    }
  }
}
layer {
  name: "inception_4a/relu_5x5"
  type: "ReLU"
  bottom: "inception_4a/5x5"
  top: "inception_4a/5x5"
}
layer {
  name: "inception_4a/pool"
  type: "Pooling"
  bottom: "pool3/3x3_s2"
  top: "inception_4a/pool"
  pooling_param {
    pool: MAX
    kernel_size: 3
    stride: 1
    pad: 1
  }
}
layer {
  name: "inception_4a/pool_proj"
  type: "Convolution"
  bottom: "inception_4a/pool"
  top: "inception_4a/pool_proj"
  param {
    lr_mult: 1
    decay_mult: 1
  }
  param {
    lr_mult: 2
    decay_mult: 0
  }
  convolution_param {
    num_output: 64
    kernel_size: 1
    weight_filler {
      type: "xavier"
      std: 0.1
    }
    bias_filler {
      type: "constant"
      value: 0.2
    }
  }
}
layer {
  name: "inception_4a/relu_pool_proj"
  type: "ReLU"
  bottom: "inception_4a/pool_proj"
  top: "inception_4a/pool_proj"
}
layer {
  name: "inception_4a/output"
  type: "Concat"
  bottom: "inception_4a/1x1"
  bottom: "inception_4a/3x3"
  bottom: "inception_4a/5x5"
  bottom: "inception_4a/pool_proj"
  top: "inception_4a/output"
}
layer {
  name: "loss1/ave_pool"
  type: "Pooling"
  bottom: "inception_4a/output"
  top: "loss1/ave_pool"
  pooling_param {
    pool: AVE
    kernel_size: 5
    stride: 3
  }
}
layer {
  name: "loss1/conv"
  type: "Convolution"
  bottom: "loss1/ave_pool"
  top: "loss1/conv"
  param {
    lr_mult: 1
    decay_mult: 1
  }
  param {
    lr_mult: 2
    decay_mult: 0
  }
  convolution_param {
    num_output: 128
    kernel_size: 1
    weight_filler {
      type: "xavier"
      std: 0.08
    }
    bias_filler {
      type: "constant"
      value: 0.2
    }
  }
}
layer {
  name: "loss1/relu_conv"
  type: "ReLU"
  bottom: "loss1/conv"
  top: "loss1/conv"
}
layer {
  name: "loss1/fc"
  type: "InnerProduct"
  bottom: "loss1/conv"
  top: "loss1/fc"
  param {
    lr_mult: 1
    decay_mult: 1
  }
  param {
    lr_mult: 2
    decay_mult: 0
  }
  inner_product_param {
    num_output: 1024
    weight_filler {
      type: "xavier"
      std: 0.02
    }
    bias_filler {
      type: "constant"
      value: 0.2
    }
  }
}
layer {
  name: "loss1/relu_fc"
  type: "ReLU"
  bottom: "loss1/fc"
  top: "loss1/fc"
}
layer {
  name: "loss1/drop_fc"
  type: "Dropout"
  bottom: "loss1/fc"
  top: "loss1/fc"
  dropout_param {
    dropout_ratio: 0.7
  }
}
layer {
  name: "loss1/classifier_plantvillage"
  type: "InnerProduct"
  bottom: "loss1/fc"
  top: "loss1/classifier_plantvillage"
  param {
    lr_mult: 1
    decay_mult: 1
  }
  param {
    lr_mult: 2
    decay_mult: 0
  }
  inner_product_param {
    num_output: 38
    weight_filler {
      type: "xavier"
      std: 0.0009765625
    }
    bias_filler {
      type: "constant"
      value: 0
    }
  }
}
layer {
  name: "inception_4b/1x1"
  type: "Convolution"
  bottom: "inception_4a/output"
  top: "inception_4b/1x1"
  param {
    lr_mult: 1
    decay_mult: 1
  }
  param {
    lr_mult: 2
    decay_mult: 0
  }
  convolution_param {
    num_output: 160
    kernel_size: 1
    weight_filler {
      type: "xavier"
      std: 0.03
    }
    bias_filler {
      type: "constant"
      value: 0.2
    }
  }
}
layer {
  name: "inception_4b/relu_1x1"
  type: "ReLU"
  bottom: "inception_4b/1x1"
  top: "inception_4b/1x1"
}
layer {
  name: "inception_4b/3x3_reduce"
  type: "Convolution"
  bottom: "inception_4a/output"
  top: "inception_4b/3x3_reduce"
  param {
    lr_mult: 1
    decay_mult: 1
  }
  param {
    lr_mult: 2
    decay_mult: 0
  }
  convolution_param {
    num_output: 112
    kernel_size: 1
    weight_filler {
      type: "xavier"
      std: 0.09
    }
    bias_filler {
      type: "constant"
      value: 0.2
    }
  }
}
layer {
  name: "inception_4b/relu_3x3_reduce"
  type: "ReLU"
  bottom: "inception_4b/3x3_reduce"
  top: "inception_4b/3x3_reduce"
}
layer {
  name: "inception_4b/3x3"
  type: "Convolution"
  bottom: "inception_4b/3x3_reduce"
  top: "inception_4b/3x3"
  param {
    lr_mult: 1
    decay_mult: 1
  }
  param {
    lr_mult: 2
    decay_mult: 0
  }
  convolution_param {
    num_output: 224
    pad: 1
    kernel_size: 3
    weight_filler {
      type: "xavier"
      std: 0.03
    }
    bias_filler {
      type: "constant"
      value: 0.2
    }
  }
}
layer {
  name: "inception_4b/relu_3x3"
  type: "ReLU"
  bottom: "inception_4b/3x3"
  top: "inception_4b/3x3"
}
layer {
  name: "inception_4b/5x5_reduce"
  type: "Convolution"
  bottom: "inception_4a/output"
  top: "inception_4b/5x5_reduce"
  param {
    lr_mult: 1
    decay_mult: 1
  }
  param {
    lr_mult: 2
    decay_mult: 0
  }
  convolution_param {
    num_output: 24
    kernel_size: 1
    weight_filler {
      type: "xavier"
      std: 0.2
    }
    bias_filler {
      type: "constant"
      value: 0.2
    }
  }
}
layer {
  name: "inception_4b/relu_5x5_reduce"
  type: "ReLU"
  bottom: "inception_4b/5x5_reduce"
  top: "inception_4b/5x5_reduce"
}
layer {
  name: "inception_4b/5x5"
  type: "Convolution"
  bottom: "inception_4b/5x5_reduce"
  top: "inception_4b/5x5"
  param {
    lr_mult: 1
    decay_mult: 1
  }
  param {
    lr_mult: 2
    decay_mult: 0
  }
  convolution_param {
    num_output: 64
    pad: 2
    kernel_size: 5
    weight_filler {
      type: "xavier"
      std: 0.03
    }
    bias_filler {
      type: "constant"
      value: 0.2
    }
  }
}
layer {
  name: "inception_4b/relu_5x5"
  type: "ReLU"
  bottom: "inception_4b/5x5"
  top: "inception_4b/5x5"
}
layer {
  name: "inception_4b/pool"
  type: "Pooling"
  bottom: "inception_4a/output"
  top: "inception_4b/pool"
  pooling_param {
    pool: MAX
    kernel_size: 3
    stride: 1
    pad: 1
  }
}
layer {
  name: "inception_4b/pool_proj"
  type: "Convolution"
  bottom: "inception_4b/pool"
  top: "inception_4b/pool_proj"
  param {
    lr_mult: 1
    decay_mult: 1
  }
  param {
    lr_mult: 2
    decay_mult: 0
  }
  convolution_param {
    num_output: 64
    kernel_size: 1
    weight_filler {
      type: "xavier"
      std: 0.1
    }
    bias_filler {
      type: "constant"
      value: 0.2
    }
  }
}
layer {
  name: "inception_4b/relu_pool_proj"
  type: "ReLU"
  bottom: "inception_4b/pool_proj"
  top: "inception_4b/pool_proj"
}
layer {
  name: "inception_4b/output"
  type: "Concat"
  bottom: "inception_4b/1x1"
  bottom: "inception_4b/3x3"
  bottom: "inception_4b/5x5"
  bottom: "inception_4b/pool_proj"
  top: "inception_4b/output"
}
layer {
  name: "inception_4c/1x1"
  type: "Convolution"
  bottom: "inception_4b/output"
  top: "inception_4c/1x1"
  param {
    lr_mult: 1
    decay_mult: 1
  }
  param {
    lr_mult: 2
    decay_mult: 0
  }
  convolution_param {
    num_output: 128
    kernel_size: 1
    weight_filler {
      type: "xavier"
      std: 0.03
    }
    bias_filler {
      type: "constant"
      value: 0.2
    }
  }
}
layer {
  name: "inception_4c/relu_1x1"
  type: "ReLU"
  bottom: "inception_4c/1x1"
  top: "inception_4c/1x1"
}
layer {
  name: "inception_4c/3x3_reduce"
  type: "Convolution"
  bottom: "inception_4b/output"
  top: "inception_4c/3x3_reduce"
  param {
    lr_mult: 1
    decay_mult: 1
  }
  param {
    lr_mult: 2
    decay_mult: 0
  }
  convolution_param {
    num_output: 128
    kernel_size: 1
    weight_filler {
      type: "xavier"
      std: 0.09
    }
    bias_filler {
      type: "constant"
      value: 0.2
    }
  }
}
layer {
  name: "inception_4c/relu_3x3_reduce"
  type: "ReLU"
  bottom: "inception_4c/3x3_reduce"
  top: "inception_4c/3x3_reduce"
}
layer {
  name: "inception_4c/3x3"
  type: "Convolution"
  bottom: "inception_4c/3x3_reduce"
  top: "inception_4c/3x3"
  param {
    lr_mult: 1
    decay_mult: 1
  }
  param {
    lr_mult: 2
    decay_mult: 0
  }
  convolution_param {
    num_output: 256
    pad: 1
    kernel_size: 3
    weight_filler {
      type: "xavier"
      std: 0.03
    }
    bias_filler {
      type: "constant"
      value: 0.2
    }
  }
}
layer {
  name: "inception_4c/relu_3x3"
  type: "ReLU"
  bottom: "inception_4c/3x3"
  top: "inception_4c/3x3"
}
layer {
  name: "inception_4c/5x5_reduce"
  type: "Convolution"
  bottom: "inception_4b/output"
  top: "inception_4c/5x5_reduce"
  param {
    lr_mult: 1
    decay_mult: 1
  }
  param {
    lr_mult: 2
    decay_mult: 0
  }
  convolution_param {
    num_output: 24
    kernel_size: 1
    weight_filler {
      type: "xavier"
      std: 0.2
    }
    bias_filler {
      type: "constant"
      value: 0.2
    }
  }
}
layer {
  name: "inception_4c/relu_5x5_reduce"
  type: "ReLU"
  bottom: "inception_4c/5x5_reduce"
  top: "inception_4c/5x5_reduce"
}
layer {
  name: "inception_4c/5x5"
  type: "Convolution"
  bottom: "inception_4c/5x5_reduce"
  top: "inception_4c/5x5"
  param {
    lr_mult: 1
    decay_mult: 1
  }
  param {
    lr_mult: 2
    decay_mult: 0
  }
  convolution_param {
    num_output: 64
    pad: 2
    kernel_size: 5
    weight_filler {
      type: "xavier"
      std: 0.03
    }
    bias_filler {
      type: "constant"
      value: 0.2
    }
  }
}
layer {
  name: "inception_4c/relu_5x5"
  type: "ReLU"
  bottom: "inception_4c/5x5"
  top: "inception_4c/5x5"
}
layer {
  name: "inception_4c/pool"
  type: "Pooling"
  bottom: "inception_4b/output"
  top: "inception_4c/pool"
  pooling_param {
    pool: MAX
    kernel_size: 3
    stride: 1
    pad: 1
  }
}
layer {
  name: "inception_4c/pool_proj"
  type: "Convolution"
  bottom: "inception_4c/pool"
  top: "inception_4c/pool_proj"
  param {
    lr_mult: 1
    decay_mult: 1
  }
  param {
    lr_mult: 2
    decay_mult: 0
  }
  convolution_param {
    num_output: 64
    kernel_size: 1
    weight_filler {
      type: "xavier"
      std: 0.1
    }
    bias_filler {
      type: "constant"
      value: 0.2
    }
  }
}
layer {
  name: "inception_4c/relu_pool_proj"
  type: "ReLU"
  bottom: "inception_4c/pool_proj"
  top: "inception_4c/pool_proj"
}
layer {
  name: "inception_4c/output"
  type: "Concat"
  bottom: "inception_4c/1x1"
  bottom: "inception_4c/3x3"
  bottom: "inception_4c/5x5"
  bottom: "inception_4c/pool_proj"
  top: "inception_4c/output"
}
layer {
  name: "inception_4d/1x1"
  type: "Convolution"
  bottom: "inception_4c/output"
  top: "inception_4d/1x1"
  param {
    lr_mult: 1
    decay_mult: 1
  }
  param {
    lr_mult: 2
    decay_mult: 0
  }
  convolution_param {
    num_output: 112
    kernel_size: 1
    weight_filler {
      type: "xavier"
      std: 0.03
    }
    bias_filler {
      type: "constant"
      value: 0.2
    }
  }
}
layer {
  name: "inception_4d/relu_1x1"
  type: "ReLU"
  bottom: "inception_4d/1x1"
  top: "inception_4d/1x1"
}
layer {
  name: "inception_4d/3x3_reduce"
  type: "Convolution"
  bottom: "inception_4c/output"
  top: "inception_4d/3x3_reduce"
  param {
    lr_mult: 1
    decay_mult: 1
  }
  param {
    lr_mult: 2
    decay_mult: 0
  }
  convolution_param {
    num_output: 144
    kernel_size: 1
    weight_filler {
      type: "xavier"
      std: 0.09
    }
    bias_filler {
      type: "constant"
      value: 0.2
    }
  }
}
layer {
  name: "inception_4d/relu_3x3_reduce"
  type: "ReLU"
  bottom: "inception_4d/3x3_reduce"
  top: "inception_4d/3x3_reduce"
}
layer {
  name: "inception_4d/3x3"
  type: "Convolution"
  bottom: "inception_4d/3x3_reduce"
  top: "inception_4d/3x3"
  param {
    lr_mult: 1
    decay_mult: 1
  }
  param {
    lr_mult: 2
    decay_mult: 0
  }
  convolution_param {
    num_output: 288
    pad: 1
    kernel_size: 3
    weight_filler {
      type: "xavier"
      std: 0.03
    }
    bias_filler {
      type: "constant"
      value: 0.2
    }
  }
}
layer {
  name: "inception_4d/relu_3x3"
  type: "ReLU"
  bottom: "inception_4d/3x3"
  top: "inception_4d/3x3"
}
layer {
  name: "inception_4d/5x5_reduce"
  type: "Convolution"
  bottom: "inception_4c/output"
  top: "inception_4d/5x5_reduce"
  param {
    lr_mult: 1
    decay_mult: 1
  }
  param {
    lr_mult: 2
    decay_mult: 0
  }
  convolution_param {
    num_output: 32
    kernel_size: 1
    weight_filler {
      type: "xavier"
      std: 0.2
    }
    bias_filler {
      type: "constant"
      value: 0.2
    }
  }
}
layer {
  name: "inception_4d/relu_5x5_reduce"
  type: "ReLU"
  bottom: "inception_4d/5x5_reduce"
  top: "inception_4d/5x5_reduce"
}
layer {
  name: "inception_4d/5x5"
  type: "Convolution"
  bottom: "inception_4d/5x5_reduce"
  top: "inception_4d/5x5"
  param {
    lr_mult: 1
    decay_mult: 1
  }
  param {
    lr_mult: 2
    decay_mult: 0
  }
  convolution_param {
    num_output: 64
    pad: 2
    kernel_size: 5
    weight_filler {
      type: "xavier"
      std: 0.03
    }
    bias_filler {
      type: "constant"
      value: 0.2
    }
  }
}
layer {
  name: "inception_4d/relu_5x5"
  type: "ReLU"
  bottom: "inception_4d/5x5"
  top: "inception_4d/5x5"
}
layer {
  name: "inception_4d/pool"
  type: "Pooling"
  bottom: "inception_4c/output"
  top: "inception_4d/pool"
  pooling_param {
    pool: MAX
    kernel_size: 3
    stride: 1
    pad: 1
  }
}
layer {
  name: "inception_4d/pool_proj"
  type: "Convolution"
  bottom: "inception_4d/pool"
  top: "inception_4d/pool_proj"
  param {
    lr_mult: 1
    decay_mult: 1
  }
  param {
    lr_mult: 2
    decay_mult: 0
  }
  convolution_param {
    num_output: 64
    kernel_size: 1
    weight_filler {
      type: "xavier"
      std: 0.1
    }
    bias_filler {
      type: "constant"
      value: 0.2
    }
  }
}
layer {
  name: "inception_4d/relu_pool_proj"
  type: "ReLU"
  bottom: "inception_4d/pool_proj"
  top: "inception_4d/pool_proj"
}
layer {
  name: "inception_4d/output"
  type: "Concat"
  bottom: "inception_4d/1x1"
  bottom: "inception_4d/3x3"
  bottom: "inception_4d/5x5"
  bottom: "inception_4d/pool_proj"
  top: "inception_4d/output"
}
layer {
  name: "loss2/ave_pool"
  type: "Pooling"
  bottom: "inception_4d/output"
  top: "loss2/ave_pool"
  pooling_param {
    pool: AVE
    kernel_size: 5
    stride: 3
  }
}
layer {
  name: "loss2/conv"
  type: "Convolution"
  bottom: "loss2/ave_pool"
  top: "loss2/conv"
  param {
    lr_mult: 1
    decay_mult: 1
  }
  param {
    lr_mult: 2
    decay_mult: 0
  }
  convolution_param {
    num_output: 128
    kernel_size: 1
    weight_filler {
      type: "xavier"
      std: 0.08
    }
    bias_filler {
      type: "constant"
      value: 0.2
    }
  }
}
layer {
  name: "loss2/relu_conv"
  type: "ReLU"
  bottom: "loss2/conv"
  top: "loss2/conv"
}
layer {
  name: "loss2/fc"
  type: "InnerProduct"
  bottom: "loss2/conv"
  top: "loss2/fc"
  param {
    lr_mult: 1
    decay_mult: 1
  }
  param {
    lr_mult: 2
    decay_mult: 0
  }
  inner_product_param {
    num_output: 1024
    weight_filler {
      type: "xavier"
      std: 0.02
    }
    bias_filler {
      type: "constant"
      value: 0.2
    }
  }
}
layer {
  name: "loss2/relu_fc"
  type: "ReLU"
  bottom: "loss2/fc"
  top: "loss2/fc"
}
layer {
  name: "loss2/drop_fc"
  type: "Dropout"
  bottom: "loss2/fc"
  top: "loss2/fc"
  dropout_param {
    dropout_ratio: 0.7
  }
}
layer {
  name: "loss2/classifier_plantvillage"
  type: "InnerProduct"
  bottom: "loss2/fc"
  top: "loss2/classifier_plantvillage"
  param {
    lr_mult: 1
    decay_mult: 1
  }
  param {
    lr_mult: 2
    decay_mult: 0
  }
  inner_product_param {
    num_output: 38
    weight_filler {
      type: "xavier"
      std: 0.0009765625
    }
    bias_filler {
      type: "constant"
      value: 0
    }
  }
}
layer {
  name: "inception_4e/1x1"
  type: "Convolution"
  bottom: "inception_4d/output"
  top: "inception_4e/1x1"
  param {
    lr_mult: 1
    decay_mult: 1
  }
  param {
    lr_mult: 2
    decay_mult: 0
  }
  convolution_param {
    num_output: 256
    kernel_size: 1
    weight_filler {
      type: "xavier"
      std: 0.03
    }
    bias_filler {
      type: "constant"
      value: 0.2
    }
  }
}
layer {
  name: "inception_4e/relu_1x1"
  type: "ReLU"
  bottom: "inception_4e/1x1"
  top: "inception_4e/1x1"
}
layer {
  name: "inception_4e/3x3_reduce"
  type: "Convolution"
  bottom: "inception_4d/output"
  top: "inception_4e/3x3_reduce"
  param {
    lr_mult: 1
    decay_mult: 1
  }
  param {
    lr_mult: 2
    decay_mult: 0
  }
  convolution_param {
    num_output: 160
    kernel_size: 1
    weight_filler {
      type: "xavier"
      std: 0.09
    }
    bias_filler {
      type: "constant"
      value: 0.2
    }
  }
}
layer {
  name: "inception_4e/relu_3x3_reduce"
  type: "ReLU"
  bottom: "inception_4e/3x3_reduce"
  top: "inception_4e/3x3_reduce"
}
layer {
  name: "inception_4e/3x3"
  type: "Convolution"
  bottom: "inception_4e/3x3_reduce"
  top: "inception_4e/3x3"
  param {
    lr_mult: 1
    decay_mult: 1
  }
  param {
    lr_mult: 2
    decay_mult: 0
  }
  convolution_param {
    num_output: 320
    pad: 1
    kernel_size: 3
    weight_filler {
      type: "xavier"
      std: 0.03
    }
    bias_filler {
      type: "constant"
      value: 0.2
    }
  }
}
layer {
  name: "inception_4e/relu_3x3"
  type: "ReLU"
  bottom: "inception_4e/3x3"
  top: "inception_4e/3x3"
}
layer {
  name: "inception_4e/5x5_reduce"
  type: "Convolution"
  bottom: "inception_4d/output"
  top: "inception_4e/5x5_reduce"
  param {
    lr_mult: 1
    decay_mult: 1
  }
  param {
    lr_mult: 2
    decay_mult: 0
  }
  convolution_param {
    num_output: 32
    kernel_size: 1
    weight_filler {
      type: "xavier"
      std: 0.2
    }
    bias_filler {
      type: "constant"
      value: 0.2
    }
  }
}
layer {
  name: "inception_4e/relu_5x5_reduce"
  type: "ReLU"
  bottom: "inception_4e/5x5_reduce"
  top: "inception_4e/5x5_reduce"
}
layer {
  name: "inception_4e/5x5"
  type: "Convolution"
  bottom: "inception_4e/5x5_reduce"
  top: "inception_4e/5x5"
  p
I0403 14:26:26.819937 13276 layer_factory.hpp:77] Creating layer data
I0403 14:26:26.820554 13276 net.cpp:91] Creating Layer data
I0403 14:26:26.820588 13276 net.cpp:399] data -> data
I0403 14:26:26.820641 13276 net.cpp:399] data -> label
I0403 14:26:26.820677 13276 data_transformer.cpp:25] Loading mean file from: /home/mohanty/data/final_dataset/lmdb/color-40-60/mean.binaryproto
I0403 14:26:26.823247 13279 db_lmdb.cpp:38] Opened lmdb /home/mohanty/data/final_dataset/lmdb/color-40-60/test_db
I0403 14:26:26.834012 13276 data_layer.cpp:41] output data size: 24,3,224,224
I0403 14:26:26.860834 13276 net.cpp:141] Setting up data
I0403 14:26:26.860908 13276 net.cpp:148] Top shape: 24 3 224 224 (3612672)
I0403 14:26:26.860929 13276 net.cpp:148] Top shape: 24 (24)
I0403 14:26:26.860944 13276 net.cpp:156] Memory required for data: 14450784
I0403 14:26:26.860970 13276 layer_factory.hpp:77] Creating layer label_data_1_split
I0403 14:26:26.860994 13276 net.cpp:91] Creating Layer label_data_1_split
I0403 14:26:26.861011 13276 net.cpp:425] label_data_1_split <- label
I0403 14:26:26.861042 13276 net.cpp:399] label_data_1_split -> label_data_1_split_0
I0403 14:26:26.861068 13276 net.cpp:399] label_data_1_split -> label_data_1_split_1
I0403 14:26:26.861088 13276 net.cpp:399] label_data_1_split -> label_data_1_split_2
I0403 14:26:26.861109 13276 net.cpp:399] label_data_1_split -> label_data_1_split_3
I0403 14:26:26.861127 13276 net.cpp:399] label_data_1_split -> label_data_1_split_4
I0403 14:26:26.861146 13276 net.cpp:399] label_data_1_split -> label_data_1_split_5
I0403 14:26:26.861165 13276 net.cpp:399] label_data_1_split -> label_data_1_split_6
I0403 14:26:26.861183 13276 net.cpp:399] label_data_1_split -> label_data_1_split_7
I0403 14:26:26.861202 13276 net.cpp:399] label_data_1_split -> label_data_1_split_8
I0403 14:26:26.861222 13276 net.cpp:399] label_data_1_split -> label_data_1_split_9
I0403 14:26:26.861335 13276 net.cpp:141] Setting up label_data_1_split
I0403 14:26:26.861358 13276 net.cpp:148] Top shape: 24 (24)
I0403 14:26:26.861374 13276 net.cpp:148] Top shape: 24 (24)
I0403 14:26:26.861389 13276 net.cpp:148] Top shape: 24 (24)
I0403 14:26:26.861403 13276 net.cpp:148] Top shape: 24 (24)
I0403 14:26:26.861418 13276 net.cpp:148] Top shape: 24 (24)
I0403 14:26:26.861433 13276 net.cpp:148] Top shape: 24 (24)
I0403 14:26:26.861449 13276 net.cpp:148] Top shape: 24 (24)
I0403 14:26:26.861464 13276 net.cpp:148] Top shape: 24 (24)
I0403 14:26:26.861477 13276 net.cpp:148] Top shape: 24 (24)
I0403 14:26:26.861492 13276 net.cpp:148] Top shape: 24 (24)
I0403 14:26:26.861544 13276 net.cpp:156] Memory required for data: 14451744
I0403 14:26:26.861565 13276 layer_factory.hpp:77] Creating layer conv1/7x7_s2
I0403 14:26:26.861627 13276 net.cpp:91] Creating Layer conv1/7x7_s2
I0403 14:26:26.861646 13276 net.cpp:425] conv1/7x7_s2 <- data
I0403 14:26:26.861665 13276 net.cpp:399] conv1/7x7_s2 -> conv1/7x7_s2
I0403 14:26:27.002912 13276 net.cpp:141] Setting up conv1/7x7_s2
I0403 14:26:27.002964 13276 net.cpp:148] Top shape: 24 64 112 112 (19267584)
I0403 14:26:27.002979 13276 net.cpp:156] Memory required for data: 91522080
I0403 14:26:27.003008 13276 layer_factory.hpp:77] Creating layer conv1/relu_7x7
I0403 14:26:27.003034 13276 net.cpp:91] Creating Layer conv1/relu_7x7
I0403 14:26:27.003053 13276 net.cpp:425] conv1/relu_7x7 <- conv1/7x7_s2
I0403 14:26:27.003073 13276 net.cpp:386] conv1/relu_7x7 -> conv1/7x7_s2 (in-place)
I0403 14:26:27.003348 13276 net.cpp:141] Setting up conv1/relu_7x7
I0403 14:26:27.003378 13276 net.cpp:148] Top shape: 24 64 112 112 (19267584)
I0403 14:26:27.003393 13276 net.cpp:156] Memory required for data: 168592416
I0403 14:26:27.003408 13276 layer_factory.hpp:77] Creating layer pool1/3x3_s2
I0403 14:26:27.003432 13276 net.cpp:91] Creating Layer pool1/3x3_s2
I0403 14:26:27.003450 13276 net.cpp:425] pool1/3x3_s2 <- conv1/7x7_s2
I0403 14:26:27.003470 13276 net.cpp:399] pool1/3x3_s2 -> pool1/3x3_s2
I0403 14:26:27.003547 13276 net.cpp:141] Setting up pool1/3x3_s2
I0403 14:26:27.003576 13276 net.cpp:148] Top shape: 24 64 56 56 (4816896)
I0403 14:26:27.003593 13276 net.cpp:156] Memory required for data: 187860000
I0403 14:26:27.003608 13276 layer_factory.hpp:77] Creating layer pool1/norm1
I0403 14:26:27.003633 13276 net.cpp:91] Creating Layer pool1/norm1
I0403 14:26:27.003651 13276 net.cpp:425] pool1/norm1 <- pool1/3x3_s2
I0403 14:26:27.003670 13276 net.cpp:399] pool1/norm1 -> pool1/norm1
I0403 14:26:27.003973 13276 net.cpp:141] Setting up pool1/norm1
I0403 14:26:27.004000 13276 net.cpp:148] Top shape: 24 64 56 56 (4816896)
I0403 14:26:27.004014 13276 net.cpp:156] Memory required for data: 207127584
I0403 14:26:27.004029 13276 layer_factory.hpp:77] Creating layer conv2/3x3_reduce
I0403 14:26:27.004055 13276 net.cpp:91] Creating Layer conv2/3x3_reduce
I0403 14:26:27.004072 13276 net.cpp:425] conv2/3x3_reduce <- pool1/norm1
I0403 14:26:27.004092 13276 net.cpp:399] conv2/3x3_reduce -> conv2/3x3_reduce
I0403 14:26:27.005504 13276 net.cpp:141] Setting up conv2/3x3_reduce
I0403 14:26:27.005537 13276 net.cpp:148] Top shape: 24 64 56 56 (4816896)
I0403 14:26:27.005553 13276 net.cpp:156] Memory required for data: 226395168
I0403 14:26:27.005578 13276 layer_factory.hpp:77] Creating layer conv2/relu_3x3_reduce
I0403 14:26:27.005599 13276 net.cpp:91] Creating Layer conv2/relu_3x3_reduce
I0403 14:26:27.005614 13276 net.cpp:425] conv2/relu_3x3_reduce <- conv2/3x3_reduce
I0403 14:26:27.005630 13276 net.cpp:386] conv2/relu_3x3_reduce -> conv2/3x3_reduce (in-place)
I0403 14:26:27.005911 13276 net.cpp:141] Setting up conv2/relu_3x3_reduce
I0403 14:26:27.005940 13276 net.cpp:148] Top shape: 24 64 56 56 (4816896)
I0403 14:26:27.005955 13276 net.cpp:156] Memory required for data: 245662752
I0403 14:26:27.005970 13276 layer_factory.hpp:77] Creating layer conv2/3x3
I0403 14:26:27.005993 13276 net.cpp:91] Creating Layer conv2/3x3
I0403 14:26:27.006011 13276 net.cpp:425] conv2/3x3 <- conv2/3x3_reduce
I0403 14:26:27.006028 13276 net.cpp:399] conv2/3x3 -> conv2/3x3
I0403 14:26:27.008359 13276 net.cpp:141] Setting up conv2/3x3
I0403 14:26:27.008391 13276 net.cpp:148] Top shape: 24 192 56 56 (14450688)
I0403 14:26:27.008407 13276 net.cpp:156] Memory required for data: 303465504
I0403 14:26:27.008429 13276 layer_factory.hpp:77] Creating layer conv2/relu_3x3
I0403 14:26:27.008446 13276 net.cpp:91] Creating Layer conv2/relu_3x3
I0403 14:26:27.008461 13276 net.cpp:425] conv2/relu_3x3 <- conv2/3x3
I0403 14:26:27.008477 13276 net.cpp:386] conv2/relu_3x3 -> conv2/3x3 (in-place)
I0403 14:26:27.008659 13276 net.cpp:141] Setting up conv2/relu_3x3
I0403 14:26:27.008683 13276 net.cpp:148] Top shape: 24 192 56 56 (14450688)
I0403 14:26:27.008730 13276 net.cpp:156] Memory required for data: 361268256
I0403 14:26:27.008745 13276 layer_factory.hpp:77] Creating layer conv2/norm2
I0403 14:26:27.008766 13276 net.cpp:91] Creating Layer conv2/norm2
I0403 14:26:27.008782 13276 net.cpp:425] conv2/norm2 <- conv2/3x3
I0403 14:26:27.008798 13276 net.cpp:399] conv2/norm2 -> conv2/norm2
I0403 14:26:27.009100 13276 net.cpp:141] Setting up conv2/norm2
I0403 14:26:27.009127 13276 net.cpp:148] Top shape: 24 192 56 56 (14450688)
I0403 14:26:27.009142 13276 net.cpp:156] Memory required for data: 419071008
I0403 14:26:27.009155 13276 layer_factory.hpp:77] Creating layer pool2/3x3_s2
I0403 14:26:27.009174 13276 net.cpp:91] Creating Layer pool2/3x3_s2
I0403 14:26:27.009191 13276 net.cpp:425] pool2/3x3_s2 <- conv2/norm2
I0403 14:26:27.009207 13276 net.cpp:399] pool2/3x3_s2 -> pool2/3x3_s2
I0403 14:26:27.009259 13276 net.cpp:141] Setting up pool2/3x3_s2
I0403 14:26:27.009281 13276 net.cpp:148] Top shape: 24 192 28 28 (3612672)
I0403 14:26:27.009296 13276 net.cpp:156] Memory required for data: 433521696
I0403 14:26:27.009310 13276 layer_factory.hpp:77] Creating layer pool2/3x3_s2_pool2/3x3_s2_0_split
I0403 14:26:27.009327 13276 net.cpp:91] Creating Layer pool2/3x3_s2_pool2/3x3_s2_0_split
I0403 14:26:27.009341 13276 net.cpp:425] pool2/3x3_s2_pool2/3x3_s2_0_split <- pool2/3x3_s2
I0403 14:26:27.009361 13276 net.cpp:399] pool2/3x3_s2_pool2/3x3_s2_0_split -> pool2/3x3_s2_pool2/3x3_s2_0_split_0
I0403 14:26:27.009380 13276 net.cpp:399] pool2/3x3_s2_pool2/3x3_s2_0_split -> pool2/3x3_s2_pool2/3x3_s2_0_split_1
I0403 14:26:27.009399 13276 net.cpp:399] pool2/3x3_s2_pool2/3x3_s2_0_split -> pool2/3x3_s2_pool2/3x3_s2_0_split_2
I0403 14:26:27.009418 13276 net.cpp:399] pool2/3x3_s2_pool2/3x3_s2_0_split -> pool2/3x3_s2_pool2/3x3_s2_0_split_3
I0403 14:26:27.009493 13276 net.cpp:141] Setting up pool2/3x3_s2_pool2/3x3_s2_0_split
I0403 14:26:27.009517 13276 net.cpp:148] Top shape: 24 192 28 28 (3612672)
I0403 14:26:27.009534 13276 net.cpp:148] Top shape: 24 192 28 28 (3612672)
I0403 14:26:27.009551 13276 net.cpp:148] Top shape: 24 192 28 28 (3612672)
I0403 14:26:27.009565 13276 net.cpp:148] Top shape: 24 192 28 28 (3612672)
I0403 14:26:27.009584 13276 net.cpp:156] Memory required for data: 491324448
I0403 14:26:27.009598 13276 layer_factory.hpp:77] Creating layer inception_3a/1x1
I0403 14:26:27.009619 13276 net.cpp:91] Creating Layer inception_3a/1x1
I0403 14:26:27.009636 13276 net.cpp:425] inception_3a/1x1 <- pool2/3x3_s2_pool2/3x3_s2_0_split_0
I0403 14:26:27.009654 13276 net.cpp:399] inception_3a/1x1 -> inception_3a/1x1
I0403 14:26:27.011188 13276 net.cpp:141] Setting up inception_3a/1x1
I0403 14:26:27.011217 13276 net.cpp:148] Top shape: 24 64 28 28 (1204224)
I0403 14:26:27.011234 13276 net.cpp:156] Memory required for data: 496141344
I0403 14:26:27.011250 13276 layer_factory.hpp:77] Creating layer inception_3a/relu_1x1
I0403 14:26:27.011271 13276 net.cpp:91] Creating Layer inception_3a/relu_1x1
I0403 14:26:27.011288 13276 net.cpp:425] inception_3a/relu_1x1 <- inception_3a/1x1
I0403 14:26:27.011304 13276 net.cpp:386] inception_3a/relu_1x1 -> inception_3a/1x1 (in-place)
I0403 14:26:27.011473 13276 net.cpp:141] Setting up inception_3a/relu_1x1
I0403 14:26:27.011498 13276 net.cpp:148] Top shape: 24 64 28 28 (1204224)
I0403 14:26:27.011512 13276 net.cpp:156] Memory required for data: 500958240
I0403 14:26:27.011526 13276 layer_factory.hpp:77] Creating layer inception_3a/3x3_reduce
I0403 14:26:27.011548 13276 net.cpp:91] Creating Layer inception_3a/3x3_reduce
I0403 14:26:27.011570 13276 net.cpp:425] inception_3a/3x3_reduce <- pool2/3x3_s2_pool2/3x3_s2_0_split_1
I0403 14:26:27.011592 13276 net.cpp:399] inception_3a/3x3_reduce -> inception_3a/3x3_reduce
I0403 14:26:27.013301 13276 net.cpp:141] Setting up inception_3a/3x3_reduce
I0403 14:26:27.013334 13276 net.cpp:148] Top shape: 24 96 28 28 (1806336)
I0403 14:26:27.013350 13276 net.cpp:156] Memory required for data: 508183584
I0403 14:26:27.013370 13276 layer_factory.hpp:77] Creating layer inception_3a/relu_3x3_reduce
I0403 14:26:27.013406 13276 net.cpp:91] Creating Layer inception_3a/relu_3x3_reduce
I0403 14:26:27.013422 13276 net.cpp:425] inception_3a/relu_3x3_reduce <- inception_3a/3x3_reduce
I0403 14:26:27.013442 13276 net.cpp:386] inception_3a/relu_3x3_reduce -> inception_3a/3x3_reduce (in-place)
I0403 14:26:27.013633 13276 net.cpp:141] Setting up inception_3a/relu_3x3_reduce
I0403 14:26:27.013658 13276 net.cpp:148] Top shape: 24 96 28 28 (1806336)
I0403 14:26:27.013674 13276 net.cpp:156] Memory required for data: 515408928
I0403 14:26:27.013687 13276 layer_factory.hpp:77] Creating layer inception_3a/3x3
I0403 14:26:27.013710 13276 net.cpp:91] Creating Layer inception_3a/3x3
I0403 14:26:27.013727 13276 net.cpp:425] inception_3a/3x3 <- inception_3a/3x3_reduce
I0403 14:26:27.013749 13276 net.cpp:399] inception_3a/3x3 -> inception_3a/3x3
I0403 14:26:27.015421 13276 net.cpp:141] Setting up inception_3a/3x3
I0403 14:26:27.015452 13276 net.cpp:148] Top shape: 24 128 28 28 (2408448)
I0403 14:26:27.015470 13276 net.cpp:156] Memory required for data: 525042720
I0403 14:26:27.015487 13276 layer_factory.hpp:77] Creating layer inception_3a/relu_3x3
I0403 14:26:27.015506 13276 net.cpp:91] Creating Layer inception_3a/relu_3x3
I0403 14:26:27.015522 13276 net.cpp:425] inception_3a/relu_3x3 <- inception_3a/3x3
I0403 14:26:27.015540 13276 net.cpp:386] inception_3a/relu_3x3 -> inception_3a/3x3 (in-place)
I0403 14:26:27.015818 13276 net.cpp:141] Setting up inception_3a/relu_3x3
I0403 14:26:27.015851 13276 net.cpp:148] Top shape: 24 128 28 28 (2408448)
I0403 14:26:27.015866 13276 net.cpp:156] Memory required for data: 534676512
I0403 14:26:27.015882 13276 layer_factory.hpp:77] Creating layer inception_3a/5x5_reduce
I0403 14:26:27.015903 13276 net.cpp:91] Creating Layer inception_3a/5x5_reduce
I0403 14:26:27.015921 13276 net.cpp:425] inception_3a/5x5_reduce <- pool2/3x3_s2_pool2/3x3_s2_0_split_2
I0403 14:26:27.015944 13276 net.cpp:399] inception_3a/5x5_reduce -> inception_3a/5x5_reduce
I0403 14:26:27.016926 13276 net.cpp:141] Setting up inception_3a/5x5_reduce
I0403 14:26:27.016953 13276 net.cpp:148] Top shape: 24 16 28 28 (301056)
I0403 14:26:27.016969 13276 net.cpp:156] Memory required for data: 535880736
I0403 14:26:27.016988 13276 layer_factory.hpp:77] Creating layer inception_3a/relu_5x5_reduce
I0403 14:26:27.017005 13276 net.cpp:91] Creating Layer inception_3a/relu_5x5_reduce
I0403 14:26:27.017020 13276 net.cpp:425] inception_3a/relu_5x5_reduce <- inception_3a/5x5_reduce
I0403 14:26:27.017040 13276 net.cpp:386] inception_3a/relu_5x5_reduce -> inception_3a/5x5_reduce (in-place)
I0403 14:26:27.017346 13276 net.cpp:141] Setting up inception_3a/relu_5x5_reduce
I0403 14:26:27.017374 13276 net.cpp:148] Top shape: 24 16 28 28 (301056)
I0403 14:26:27.017391 13276 net.cpp:156] Memory required for data: 537084960
I0403 14:26:27.017406 13276 layer_factory.hpp:77] Creating layer inception_3a/5x5
I0403 14:26:27.017428 13276 net.cpp:91] Creating Layer inception_3a/5x5
I0403 14:26:27.017446 13276 net.cpp:425] inception_3a/5x5 <- inception_3a/5x5_reduce
I0403 14:26:27.017467 13276 net.cpp:399] inception_3a/5x5 -> inception_3a/5x5
I0403 14:26:27.018477 13276 net.cpp:141] Setting up inception_3a/5x5
I0403 14:26:27.018507 13276 net.cpp:148] Top shape: 24 32 28 28 (602112)
I0403 14:26:27.018522 13276 net.cpp:156] Memory required for data: 539493408
I0403 14:26:27.018540 13276 layer_factory.hpp:77] Creating layer inception_3a/relu_5x5
I0403 14:26:27.018558 13276 net.cpp:91] Creating Layer inception_3a/relu_5x5
I0403 14:26:27.018578 13276 net.cpp:425] inception_3a/relu_5x5 <- inception_3a/5x5
I0403 14:26:27.018597 13276 net.cpp:386] inception_3a/relu_5x5 -> inception_3a/5x5 (in-place)
I0403 14:26:27.018767 13276 net.cpp:141] Setting up inception_3a/relu_5x5
I0403 14:26:27.018791 13276 net.cpp:148] Top shape: 24 32 28 28 (602112)
I0403 14:26:27.018806 13276 net.cpp:156] Memory required for data: 541901856
I0403 14:26:27.018821 13276 layer_factory.hpp:77] Creating layer inception_3a/pool
I0403 14:26:27.018837 13276 net.cpp:91] Creating Layer inception_3a/pool
I0403 14:26:27.018852 13276 net.cpp:425] inception_3a/pool <- pool2/3x3_s2_pool2/3x3_s2_0_split_3
I0403 14:26:27.018889 13276 net.cpp:399] inception_3a/pool -> inception_3a/pool
I0403 14:26:27.018946 13276 net.cpp:141] Setting up inception_3a/pool
I0403 14:26:27.018970 13276 net.cpp:148] Top shape: 24 192 28 28 (3612672)
I0403 14:26:27.018983 13276 net.cpp:156] Memory required for data: 556352544
I0403 14:26:27.018997 13276 layer_factory.hpp:77] Creating layer inception_3a/pool_proj
I0403 14:26:27.019021 13276 net.cpp:91] Creating Layer inception_3a/pool_proj
I0403 14:26:27.019038 13276 net.cpp:425] inception_3a/pool_proj <- inception_3a/pool
I0403 14:26:27.019057 13276 net.cpp:399] inception_3a/pool_proj -> inception_3a/pool_proj
I0403 14:26:27.020001 13276 net.cpp:141] Setting up inception_3a/pool_proj
I0403 14:26:27.020028 13276 net.cpp:148] Top shape: 24 32 28 28 (602112)
I0403 14:26:27.020043 13276 net.cpp:156] Memory required for data: 558760992
I0403 14:26:27.020066 13276 layer_factory.hpp:77] Creating layer inception_3a/relu_pool_proj
I0403 14:26:27.020086 13276 net.cpp:91] Creating Layer inception_3a/relu_pool_proj
I0403 14:26:27.020102 13276 net.cpp:425] inception_3a/relu_pool_proj <- inception_3a/pool_proj
I0403 14:26:27.020120 13276 net.cpp:386] inception_3a/relu_pool_proj -> inception_3a/pool_proj (in-place)
I0403 14:26:27.020386 13276 net.cpp:141] Setting up inception_3a/relu_pool_proj
I0403 14:26:27.020414 13276 net.cpp:148] Top shape: 24 32 28 28 (602112)
I0403 14:26:27.020429 13276 net.cpp:156] Memory required for data: 561169440
I0403 14:26:27.020444 13276 layer_factory.hpp:77] Creating layer inception_3a/output
I0403 14:26:27.020462 13276 net.cpp:91] Creating Layer inception_3a/output
I0403 14:26:27.020475 13276 net.cpp:425] inception_3a/output <- inception_3a/1x1
I0403 14:26:27.020491 13276 net.cpp:425] inception_3a/output <- inception_3a/3x3
I0403 14:26:27.020506 13276 net.cpp:425] inception_3a/output <- inception_3a/5x5
I0403 14:26:27.020520 13276 net.cpp:425] inception_3a/output <- inception_3a/pool_proj
I0403 14:26:27.020539 13276 net.cpp:399] inception_3a/output -> inception_3a/output
I0403 14:26:27.020588 13276 net.cpp:141] Setting up inception_3a/output
I0403 14:26:27.020612 13276 net.cpp:148] Top shape: 24 256 28 28 (4816896)
I0403 14:26:27.020625 13276 net.cpp:156] Memory required for data: 580437024
I0403 14:26:27.020639 13276 layer_factory.hpp:77] Creating layer inception_3a/output_inception_3a/output_0_split
I0403 14:26:27.020658 13276 net.cpp:91] Creating Layer inception_3a/output_inception_3a/output_0_split
I0403 14:26:27.020674 13276 net.cpp:425] inception_3a/output_inception_3a/output_0_split <- inception_3a/output
I0403 14:26:27.020691 13276 net.cpp:399] inception_3a/output_inception_3a/output_0_split -> inception_3a/output_inception_3a/output_0_split_0
I0403 14:26:27.020709 13276 net.cpp:399] inception_3a/output_inception_3a/output_0_split -> inception_3a/output_inception_3a/output_0_split_1
I0403 14:26:27.020735 13276 net.cpp:399] inception_3a/output_inception_3a/output_0_split -> inception_3a/output_inception_3a/output_0_split_2
I0403 14:26:27.020755 13276 net.cpp:399] inception_3a/output_inception_3a/output_0_split -> inception_3a/output_inception_3a/output_0_split_3
I0403 14:26:27.020825 13276 net.cpp:141] Setting up inception_3a/output_inception_3a/output_0_split
I0403 14:26:27.020850 13276 net.cpp:148] Top shape: 24 256 28 28 (4816896)
I0403 14:26:27.020869 13276 net.cpp:148] Top shape: 24 256 28 28 (4816896)
I0403 14:26:27.020884 13276 net.cpp:148] Top shape: 24 256 28 28 (4816896)
I0403 14:26:27.020898 13276 net.cpp:148] Top shape: 24 256 28 28 (4816896)
I0403 14:26:27.020911 13276 net.cpp:156] Memory required for data: 657507360
I0403 14:26:27.020925 13276 layer_factory.hpp:77] Creating layer inception_3b/1x1
I0403 14:26:27.020946 13276 net.cpp:91] Creating Layer inception_3b/1x1
I0403 14:26:27.020963 13276 net.cpp:425] inception_3b/1x1 <- inception_3a/output_inception_3a/output_0_split_0
I0403 14:26:27.020982 13276 net.cpp:399] inception_3b/1x1 -> inception_3b/1x1
I0403 14:26:27.022116 13276 net.cpp:141] Setting up inception_3b/1x1
I0403 14:26:27.022155 13276 net.cpp:148] Top shape: 24 128 28 28 (2408448)
I0403 14:26:27.022173 13276 net.cpp:156] Memory required for data: 667141152
I0403 14:26:27.022191 13276 layer_factory.hpp:77] Creating layer inception_3b/relu_1x1
I0403 14:26:27.022208 13276 net.cpp:91] Creating Layer inception_3b/relu_1x1
I0403 14:26:27.022223 13276 net.cpp:425] inception_3b/relu_1x1 <- inception_3b/1x1
I0403 14:26:27.022239 13276 net.cpp:386] inception_3b/relu_1x1 -> inception_3b/1x1 (in-place)
I0403 14:26:27.022418 13276 net.cpp:141] Setting up inception_3b/relu_1x1
I0403 14:26:27.022444 13276 net.cpp:148] Top shape: 24 128 28 28 (2408448)
I0403 14:26:27.022459 13276 net.cpp:156] Memory required for data: 676774944
I0403 14:26:27.022475 13276 layer_factory.hpp:77] Creating layer inception_3b/3x3_reduce
I0403 14:26:27.022495 13276 net.cpp:91] Creating Layer inception_3b/3x3_reduce
I0403 14:26:27.022512 13276 net.cpp:425] inception_3b/3x3_reduce <- inception_3a/output_inception_3a/output_0_split_1
I0403 14:26:27.022531 13276 net.cpp:399] inception_3b/3x3_reduce -> inception_3b/3x3_reduce
I0403 14:26:27.023669 13276 net.cpp:141] Setting up inception_3b/3x3_reduce
I0403 14:26:27.023696 13276 net.cpp:148] Top shape: 24 128 28 28 (2408448)
I0403 14:26:27.023711 13276 net.cpp:156] Memory required for data: 686408736
I0403 14:26:27.023728 13276 layer_factory.hpp:77] Creating layer inception_3b/relu_3x3_reduce
I0403 14:26:27.023757 13276 net.cpp:91] Creating Layer inception_3b/relu_3x3_reduce
I0403 14:26:27.023773 13276 net.cpp:425] inception_3b/relu_3x3_reduce <- inception_3b/3x3_reduce
I0403 14:26:27.023790 13276 net.cpp:386] inception_3b/relu_3x3_reduce -> inception_3b/3x3_reduce (in-place)
I0403 14:26:27.023967 13276 net.cpp:141] Setting up inception_3b/relu_3x3_reduce
I0403 14:26:27.023993 13276 net.cpp:148] Top shape: 24 128 28 28 (2408448)
I0403 14:26:27.024006 13276 net.cpp:156] Memory required for data: 696042528
I0403 14:26:27.024020 13276 layer_factory.hpp:77] Creating layer inception_3b/3x3
I0403 14:26:27.024047 13276 net.cpp:91] Creating Layer inception_3b/3x3
I0403 14:26:27.024065 13276 net.cpp:425] inception_3b/3x3 <- inception_3b/3x3_reduce
I0403 14:26:27.024085 13276 net.cpp:399] inception_3b/3x3 -> inception_3b/3x3
I0403 14:26:27.026991 13276 net.cpp:141] Setting up inception_3b/3x3
I0403 14:26:27.027024 13276 net.cpp:148] Top shape: 24 192 28 28 (3612672)
I0403 14:26:27.027040 13276 net.cpp:156] Memory required for data: 710493216
I0403 14:26:27.027058 13276 layer_factory.hpp:77] Creating layer inception_3b/relu_3x3
I0403 14:26:27.027076 13276 net.cpp:91] Creating Layer inception_3b/relu_3x3
I0403 14:26:27.027091 13276 net.cpp:425] inception_3b/relu_3x3 <- inception_3b/3x3
I0403 14:26:27.027110 13276 net.cpp:386] inception_3b/relu_3x3 -> inception_3b/3x3 (in-place)
I0403 14:26:27.027381 13276 net.cpp:141] Setting up inception_3b/relu_3x3
I0403 14:26:27.027410 13276 net.cpp:148] Top shape: 24 192 28 28 (3612672)
I0403 14:26:27.027425 13276 net.cpp:156] Memory required for data: 724943904
I0403 14:26:27.027439 13276 layer_factory.hpp:77] Creating layer inception_3b/5x5_reduce
I0403 14:26:27.027462 13276 net.cpp:91] Creating Layer inception_3b/5x5_reduce
I0403 14:26:27.027479 13276 net.cpp:425] inception_3b/5x5_reduce <- inception_3a/output_inception_3a/output_0_split_2
I0403 14:26:27.027498 13276 net.cpp:399] inception_3b/5x5_reduce -> inception_3b/5x5_reduce
I0403 14:26:27.028471 13276 net.cpp:141] Setting up inception_3b/5x5_reduce
I0403 14:26:27.028501 13276 net.cpp:148] Top shape: 24 32 28 28 (602112)
I0403 14:26:27.028517 13276 net.cpp:156] Memory required for data: 727352352
I0403 14:26:27.028534 13276 layer_factory.hpp:77] Creating layer inception_3b/relu_5x5_reduce
I0403 14:26:27.028551 13276 net.cpp:91] Creating Layer inception_3b/relu_5x5_reduce
I0403 14:26:27.028570 13276 net.cpp:425] inception_3b/relu_5x5_reduce <- inception_3b/5x5_reduce
I0403 14:26:27.028591 13276 net.cpp:386] inception_3b/relu_5x5_reduce -> inception_3b/5x5_reduce (in-place)
I0403 14:26:27.028764 13276 net.cpp:141] Setting up inception_3b/relu_5x5_reduce
I0403 14:26:27.028800 13276 net.cpp:148] Top shape: 24 32 28 28 (602112)
I0403 14:26:27.028815 13276 net.cpp:156] Memory required for data: 729760800
I0403 14:26:27.028828 13276 layer_factory.hpp:77] Creating layer inception_3b/5x5
I0403 14:26:27.028851 13276 net.cpp:91] Creating Layer inception_3b/5x5
I0403 14:26:27.028867 13276 net.cpp:425] inception_3b/5x5 <- inception_3b/5x5_reduce
I0403 14:26:27.028887 13276 net.cpp:399] inception_3b/5x5 -> inception_3b/5x5
I0403 14:26:27.030853 13276 net.cpp:141] Setting up inception_3b/5x5
I0403 14:26:27.030881 13276 net.cpp:148] Top shape: 24 96 28 28 (1806336)
I0403 14:26:27.030896 13276 net.cpp:156] Memory required for data: 736986144
I0403 14:26:27.030913 13276 layer_factory.hpp:77] Creating layer inception_3b/relu_5x5
I0403 14:26:27.030933 13276 net.cpp:91] Creating Layer inception_3b/relu_5x5
I0403 14:26:27.030962 13276 net.cpp:425] inception_3b/relu_5x5 <- inception_3b/5x5
I0403 14:26:27.030978 13276 net.cpp:386] inception_3b/relu_5x5 -> inception_3b/5x5 (in-place)
I0403 14:26:27.031163 13276 net.cpp:141] Setting up inception_3b/relu_5x5
I0403 14:26:27.031188 13276 net.cpp:148] Top shape: 24 96 28 28 (1806336)
I0403 14:26:27.031201 13276 net.cpp:156] Memory required for data: 744211488
I0403 14:26:27.031214 13276 layer_factory.hpp:77] Creating layer inception_3b/pool
I0403 14:26:27.031231 13276 net.cpp:91] Creating Layer inception_3b/pool
I0403 14:26:27.031250 13276 net.cpp:425] inception_3b/pool <- inception_3a/output_inception_3a/output_0_split_3
I0403 14:26:27.031267 13276 net.cpp:399] inception_3b/pool -> inception_3b/pool
I0403 14:26:27.031322 13276 net.cpp:141] Setting up inception_3b/pool
I0403 14:26:27.031343 13276 net.cpp:148] Top shape: 24 256 28 28 (4816896)
I0403 14:26:27.031358 13276 net.cpp:156] Memory required for data: 763479072
I0403 14:26:27.031370 13276 layer_factory.hpp:77] Creating layer inception_3b/pool_proj
I0403 14:26:27.031393 13276 net.cpp:91] Creating Layer inception_3b/pool_proj
I0403 14:26:27.031409 13276 net.cpp:425] inception_3b/pool_proj <- inception_3b/pool
I0403 14:26:27.031427 13276 net.cpp:399] inception_3b/pool_proj -> inception_3b/pool_proj
I0403 14:26:27.032436 13276 net.cpp:141] Setting up inception_3b/pool_proj
I0403 14:26:27.032462 13276 net.cpp:148] Top shape: 24 64 28 28 (1204224)
I0403 14:26:27.032476 13276 net.cpp:156] Memory required for data: 768295968
I0403 14:26:27.032495 13276 layer_factory.hpp:77] Creating layer inception_3b/relu_pool_proj
I0403 14:26:27.032511 13276 net.cpp:91] Creating Layer inception_3b/relu_pool_proj
I0403 14:26:27.032526 13276 net.cpp:425] inception_3b/relu_pool_proj <- inception_3b/pool_proj
I0403 14:26:27.032543 13276 net.cpp:386] inception_3b/relu_pool_proj -> inception_3b/pool_proj (in-place)
I0403 14:26:27.032932 13276 net.cpp:141] Setting up inception_3b/relu_pool_proj
I0403 14:26:27.032958 13276 net.cpp:148] Top shape: 24 64 28 28 (1204224)
I0403 14:26:27.032971 13276 net.cpp:156] Memory required for data: 773112864
I0403 14:26:27.032985 13276 layer_factory.hpp:77] Creating layer inception_3b/output
I0403 14:26:27.033001 13276 net.cpp:91] Creating Layer inception_3b/output
I0403 14:26:27.033016 13276 net.cpp:425] inception_3b/output <- inception_3b/1x1
I0403 14:26:27.033031 13276 net.cpp:425] inception_3b/output <- inception_3b/3x3
I0403 14:26:27.033046 13276 net.cpp:425] inception_3b/output <- inception_3b/5x5
I0403 14:26:27.033061 13276 net.cpp:425] inception_3b/output <- inception_3b/pool_proj
I0403 14:26:27.033078 13276 net.cpp:399] inception_3b/output -> inception_3b/output
I0403 14:26:27.033120 13276 net.cpp:141] Setting up inception_3b/output
I0403 14:26:27.033154 13276 net.cpp:148] Top shape: 24 480 28 28 (9031680)
I0403 14:26:27.033169 13276 net.cpp:156] Memory required for data: 809239584
I0403 14:26:27.033182 13276 layer_factory.hpp:77] Creating layer pool3/3x3_s2
I0403 14:26:27.033198 13276 net.cpp:91] Creating Layer pool3/3x3_s2
I0403 14:26:27.033212 13276 net.cpp:425] pool3/3x3_s2 <- inception_3b/output
I0403 14:26:27.033231 13276 net.cpp:399] pool3/3x3_s2 -> pool3/3x3_s2
I0403 14:26:27.033303 13276 net.cpp:141] Setting up pool3/3x3_s2
I0403 14:26:27.033324 13276 net.cpp:148] Top shape: 24 480 14 14 (2257920)
I0403 14:26:27.033339 13276 net.cpp:156] Memory required for data: 818271264
I0403 14:26:27.033352 13276 layer_factory.hpp:77] Creating layer pool3/3x3_s2_pool3/3x3_s2_0_split
I0403 14:26:27.033370 13276 net.cpp:91] Creating Layer pool3/3x3_s2_pool3/3x3_s2_0_split
I0403 14:26:27.033386 13276 net.cpp:425] pool3/3x3_s2_pool3/3x3_s2_0_split <- pool3/3x3_s2
I0403 14:26:27.033403 13276 net.cpp:399] pool3/3x3_s2_pool3/3x3_s2_0_split -> pool3/3x3_s2_pool3/3x3_s2_0_split_0
I0403 14:26:27.033421 13276 net.cpp:399] pool3/3x3_s2_pool3/3x3_s2_0_split -> pool3/3x3_s2_pool3/3x3_s2_0_split_1
I0403 14:26:27.033440 13276 net.cpp:399] pool3/3x3_s2_pool3/3x3_s2_0_split -> pool3/3x3_s2_pool3/3x3_s2_0_split_2
I0403 14:26:27.033458 13276 net.cpp:399] pool3/3x3_s2_pool3/3x3_s2_0_split -> pool3/3x3_s2_pool3/3x3_s2_0_split_3
I0403 14:26:27.033531 13276 net.cpp:141] Setting up pool3/3x3_s2_pool3/3x3_s2_0_split
I0403 14:26:27.033555 13276 net.cpp:148] Top shape: 24 480 14 14 (2257920)
I0403 14:26:27.033572 13276 net.cpp:148] Top shape: 24 480 14 14 (2257920)
I0403 14:26:27.033589 13276 net.cpp:148] Top shape: 24 480 14 14 (2257920)
I0403 14:26:27.033603 13276 net.cpp:148] Top shape: 24 480 14 14 (2257920)
I0403 14:26:27.033617 13276 net.cpp:156] Memory required for data: 854397984
I0403 14:26:27.033629 13276 layer_factory.hpp:77] Creating layer inception_4a/1x1
I0403 14:26:27.033650 13276 net.cpp:91] Creating Layer inception_4a/1x1
I0403 14:26:27.033666 13276 net.cpp:425] inception_4a/1x1 <- pool3/3x3_s2_pool3/3x3_s2_0_split_0
I0403 14:26:27.033686 13276 net.cpp:399] inception_4a/1x1 -> inception_4a/1x1
I0403 14:26:27.035202 13276 net.cpp:141] Setting up inception_4a/1x1
I0403 14:26:27.035228 13276 net.cpp:148] Top shape: 24 192 14 14 (903168)
I0403 14:26:27.035243 13276 net.cpp:156] Memory required for data: 858010656
I0403 14:26:27.035260 13276 layer_factory.hpp:77] Creating layer inception_4a/relu_1x1
I0403 14:26:27.035279 13276 net.cpp:91] Creating Layer inception_4a/relu_1x1
I0403 14:26:27.035295 13276 net.cpp:425] inception_4a/relu_1x1 <- inception_4a/1x1
I0403 14:26:27.035311 13276 net.cpp:386] inception_4a/relu_1x1 -> inception_4a/1x1 (in-place)
I0403 14:26:27.035476 13276 net.cpp:141] Setting up inception_4a/relu_1x1
I0403 14:26:27.035503 13276 net.cpp:148] Top shape: 24 192 14 14 (903168)
I0403 14:26:27.035519 13276 net.cpp:156] Memory required for data: 861623328
I0403 14:26:27.035532 13276 layer_factory.hpp:77] Creating layer inception_4a/3x3_reduce
I0403 14:26:27.035553 13276 net.cpp:91] Creating Layer inception_4a/3x3_reduce
I0403 14:26:27.035573 13276 net.cpp:425] inception_4a/3x3_reduce <- pool3/3x3_s2_pool3/3x3_s2_0_split_1
I0403 14:26:27.035593 13276 net.cpp:399] inception_4a/3x3_reduce -> inception_4a/3x3_reduce
I0403 14:26:27.036814 13276 net.cpp:141] Setting up inception_4a/3x3_reduce
I0403 14:26:27.036842 13276 net.cpp:148] Top shape: 24 96 14 14 (451584)
I0403 14:26:27.036859 13276 net.cpp:156] Memory required for data: 863429664
I0403 14:26:27.036881 13276 layer_factory.hpp:77] Creating layer inception_4a/relu_3x3_reduce
I0403 14:26:27.036900 13276 net.cpp:91] Creating Layer inception_4a/relu_3x3_reduce
I0403 14:26:27.036916 13276 net.cpp:425] inception_4a/relu_3x3_reduce <- inception_4a/3x3_reduce
I0403 14:26:27.036932 13276 net.cpp:386] inception_4a/relu_3x3_reduce -> inception_4a/3x3_reduce (in-place)
I0403 14:26:27.037101 13276 net.cpp:141] Setting up inception_4a/relu_3x3_reduce
I0403 14:26:27.037125 13276 net.cpp:148] Top shape: 24 96 14 14 (451584)
I0403 14:26:27.037138 13276 net.cpp:156] Memory required for data: 865236000
I0403 14:26:27.037152 13276 layer_factory.hpp:77] Creating layer inception_4a/3x3
I0403 14:26:27.037173 13276 net.cpp:91] Creating Layer inception_4a/3x3
I0403 14:26:27.037189 13276 net.cpp:425] inception_4a/3x3 <- inception_4a/3x3_reduce
I0403 14:26:27.037207 13276 net.cpp:399] inception_4a/3x3 -> inception_4a/3x3
I0403 14:26:27.039808 13276 net.cpp:141] Setting up inception_4a/3x3
I0403 14:26:27.039836 13276 net.cpp:148] Top shape: 24 208 14 14 (978432)
I0403 14:26:27.039851 13276 net.cpp:156] Memory required for data: 869149728
I0403 14:26:27.039870 13276 layer_factory.hpp:77] Creating layer inception_4a/relu_3x3
I0403 14:26:27.039899 13276 net.cpp:91] Creating Layer inception_4a/relu_3x3
I0403 14:26:27.039916 13276 net.cpp:425] inception_4a/relu_3x3 <- inception_4a/3x3
I0403 14:26:27.039932 13276 net.cpp:386] inception_4a/relu_3x3 -> inception_4a/3x3 (in-place)
I0403 14:26:27.040199 13276 net.cpp:141] Setting up inception_4a/relu_3x3
I0403 14:26:27.040223 13276 net.cpp:148] Top shape: 24 208 14 14 (978432)
I0403 14:26:27.040238 13276 net.cpp:156] Memory required for data: 873063456
I0403 14:26:27.040251 13276 layer_factory.hpp:77] Creating layer inception_4a/5x5_reduce
I0403 14:26:27.040280 13276 net.cpp:91] Creating Layer inception_4a/5x5_reduce
I0403 14:26:27.040297 13276 net.cpp:425] inception_4a/5x5_reduce <- pool3/3x3_s2_pool3/3x3_s2_0_split_2
I0403 14:26:27.040315 13276 net.cpp:399] inception_4a/5x5_reduce -> inception_4a/5x5_reduce
I0403 14:26:27.041281 13276 net.cpp:141] Setting up inception_4a/5x5_reduce
I0403 14:26:27.041311 13276 net.cpp:148] Top shape: 24 16 14 14 (75264)
I0403 14:26:27.041326 13276 net.cpp:156] Memory required for data: 873364512
I0403 14:26:27.041342 13276 layer_factory.hpp:77] Creating layer inception_4a/relu_5x5_reduce
I0403 14:26:27.041358 13276 net.cpp:91] Creating Layer inception_4a/relu_5x5_reduce
I0403 14:26:27.041373 13276 net.cpp:425] inception_4a/relu_5x5_reduce <- inception_4a/5x5_reduce
I0403 14:26:27.041393 13276 net.cpp:386] inception_4a/relu_5x5_reduce -> inception_4a/5x5_reduce (in-place)
I0403 14:26:27.041559 13276 net.cpp:141] Setting up inception_4a/relu_5x5_reduce
I0403 14:26:27.041589 13276 net.cpp:148] Top shape: 24 16 14 14 (75264)
I0403 14:26:27.041604 13276 net.cpp:156] Memory required for data: 873665568
I0403 14:26:27.041617 13276 layer_factory.hpp:77] Creating layer inception_4a/5x5
I0403 14:26:27.041638 13276 net.cpp:91] Creating Layer inception_4a/5x5
I0403 14:26:27.041654 13276 net.cpp:425] inception_4a/5x5 <- inception_4a/5x5_reduce
I0403 14:26:27.041674 13276 net.cpp:399] inception_4a/5x5 -> inception_4a/5x5
I0403 14:26:27.042711 13276 net.cpp:141] Setting up inception_4a/5x5
I0403 14:26:27.042738 13276 net.cpp:148] Top shape: 24 48 14 14 (225792)
I0403 14:26:27.042752 13276 net.cpp:156] Memory required for data: 874568736
I0403 14:26:27.042770 13276 layer_factory.hpp:77] Creating layer inception_4a/relu_5x5
I0403 14:26:27.042789 13276 net.cpp:91] Creating Layer inception_4a/relu_5x5
I0403 14:26:27.042805 13276 net.cpp:425] inception_4a/relu_5x5 <- inception_4a/5x5
I0403 14:26:27.042822 13276 net.cpp:386] inception_4a/relu_5x5 -> inception_4a/5x5 (in-place)
I0403 14:26:27.042989 13276 net.cpp:141] Setting up inception_4a/relu_5x5
I0403 14:26:27.043014 13276 net.cpp:148] Top shape: 24 48 14 14 (225792)
I0403 14:26:27.043027 13276 net.cpp:156] Memory required for data: 875471904
I0403 14:26:27.043051 13276 layer_factory.hpp:77] Creating layer inception_4a/pool
I0403 14:26:27.043069 13276 net.cpp:91] Creating Layer inception_4a/pool
I0403 14:26:27.043086 13276 net.cpp:425] inception_4a/pool <- pool3/3x3_s2_pool3/3x3_s2_0_split_3
I0403 14:26:27.043102 13276 net.cpp:399] inception_4a/pool -> inception_4a/pool
I0403 14:26:27.043161 13276 net.cpp:141] Setting up inception_4a/pool
I0403 14:26:27.043184 13276 net.cpp:148] Top shape: 24 480 14 14 (2257920)
I0403 14:26:27.043197 13276 net.cpp:156] Memory required for data: 884503584
I0403 14:26:27.043210 13276 layer_factory.hpp:77] Creating layer inception_4a/pool_proj
I0403 14:26:27.043232 13276 net.cpp:91] Creating Layer inception_4a/pool_proj
I0403 14:26:27.043249 13276 net.cpp:425] inception_4a/pool_proj <- inception_4a/pool
I0403 14:26:27.043270 13276 net.cpp:399] inception_4a/pool_proj -> inception_4a/pool_proj
I0403 14:26:27.044383 13276 net.cpp:141] Setting up inception_4a/pool_proj
I0403 14:26:27.044409 13276 net.cpp:148] Top shape: 24 64 14 14 (301056)
I0403 14:26:27.044438 13276 net.cpp:156] Memory required for data: 885707808
I0403 14:26:27.044457 13276 layer_factory.hpp:77] Creating layer inception_4a/relu_pool_proj
I0403 14:26:27.044478 13276 net.cpp:91] Creating Layer inception_4a/relu_pool_proj
I0403 14:26:27.044505 13276 net.cpp:425] inception_4a/relu_pool_proj <- inception_4a/pool_proj
I0403 14:26:27.044523 13276 net.cpp:386] inception_4a/relu_pool_proj -> inception_4a/pool_proj (in-place)
I0403 14:26:27.044802 13276 net.cpp:141] Setting up inception_4a/relu_pool_proj
I0403 14:26:27.044827 13276 net.cpp:148] Top shape: 24 64 14 14 (301056)
I0403 14:26:27.044843 13276 net.cpp:156] Memory required for data: 886912032
I0403 14:26:27.044857 13276 layer_factory.hpp:77] Creating layer inception_4a/output
I0403 14:26:27.044874 13276 net.cpp:91] Creating Layer inception_4a/output
I0403 14:26:27.044891 13276 net.cpp:425] inception_4a/output <- inception_4a/1x1
I0403 14:26:27.044908 13276 net.cpp:425] inception_4a/output <- inception_4a/3x3
I0403 14:26:27.044922 13276 net.cpp:425] inception_4a/output <- inception_4a/5x5
I0403 14:26:27.044939 13276 net.cpp:425] inception_4a/output <- inception_4a/pool_proj
I0403 14:26:27.044953 13276 net.cpp:399] inception_4a/output -> inception_4a/output
I0403 14:26:27.044996 13276 net.cpp:141] Setting up inception_4a/output
I0403 14:26:27.045019 13276 net.cpp:148] Top shape: 24 512 14 14 (2408448)
I0403 14:26:27.045034 13276 net.cpp:156] Memory required for data: 896545824
I0403 14:26:27.045047 13276 layer_factory.hpp:77] Creating layer inception_4a/output_inception_4a/output_0_split
I0403 14:26:27.045068 13276 net.cpp:91] Creating Layer inception_4a/output_inception_4a/output_0_split
I0403 14:26:27.045081 13276 net.cpp:425] inception_4a/output_inception_4a/output_0_split <- inception_4a/output
I0403 14:26:27.045100 13276 net.cpp:399] inception_4a/output_inception_4a/output_0_split -> inception_4a/output_inception_4a/output_0_split_0
I0403 14:26:27.045120 13276 net.cpp:399] inception_4a/output_inception_4a/output_0_split -> inception_4a/output_inception_4a/output_0_split_1
I0403 14:26:27.045140 13276 net.cpp:399] inception_4a/output_inception_4a/output_0_split -> inception_4a/output_inception_4a/output_0_split_2
I0403 14:26:27.045159 13276 net.cpp:399] inception_4a/output_inception_4a/output_0_split -> inception_4a/output_inception_4a/output_0_split_3
I0403 14:26:27.045178 13276 net.cpp:399] inception_4a/output_inception_4a/output_0_split -> inception_4a/output_inception_4a/output_0_split_4
I0403 14:26:27.045265 13276 net.cpp:141] Setting up inception_4a/output_inception_4a/output_0_split
I0403 14:26:27.045287 13276 net.cpp:148] Top shape: 24 512 14 14 (2408448)
I0403 14:26:27.045305 13276 net.cpp:148] Top shape: 24 512 14 14 (2408448)
I0403 14:26:27.045321 13276 net.cpp:148] Top shape: 24 512 14 14 (2408448)
I0403 14:26:27.045336 13276 net.cpp:148] Top shape: 24 512 14 14 (2408448)
I0403 14:26:27.045361 13276 net.cpp:148] Top shape: 24 512 14 14 (2408448)
I0403 14:26:27.045373 13276 net.cpp:156] Memory required for data: 944714784
I0403 14:26:27.045387 13276 layer_factory.hpp:77] Creating layer loss1/ave_pool
I0403 14:26:27.045403 13276 net.cpp:91] Creating Layer loss1/ave_pool
I0403 14:26:27.045418 13276 net.cpp:425] loss1/ave_pool <- inception_4a/output_inception_4a/output_0_split_0
I0403 14:26:27.045436 13276 net.cpp:399] loss1/ave_pool -> loss1/ave_pool
I0403 14:26:27.045658 13276 net.cpp:141] Setting up loss1/ave_pool
I0403 14:26:27.045694 13276 net.cpp:148] Top shape: 24 512 4 4 (196608)
I0403 14:26:27.045709 13276 net.cpp:156] Memory required for data: 945501216
I0403 14:26:27.045723 13276 layer_factory.hpp:77] Creating layer loss1/conv
I0403 14:26:27.045745 13276 net.cpp:91] Creating Layer loss1/conv
I0403 14:26:27.045763 13276 net.cpp:425] loss1/conv <- loss1/ave_pool
I0403 14:26:27.045781 13276 net.cpp:399] loss1/conv -> loss1/conv
I0403 14:26:27.047219 13276 net.cpp:141] Setting up loss1/conv
I0403 14:26:27.047245 13276 net.cpp:148] Top shape: 24 128 4 4 (49152)
I0403 14:26:27.047262 13276 net.cpp:156] Memory required for data: 945697824
I0403 14:26:27.047298 13276 layer_factory.hpp:77] Creating layer loss1/relu_conv
I0403 14:26:27.047319 13276 net.cpp:91] Creating Layer loss1/relu_conv
I0403 14:26:27.047335 13276 net.cpp:425] loss1/relu_conv <- loss1/conv
I0403 14:26:27.047353 13276 net.cpp:386] loss1/relu_conv -> loss1/conv (in-place)
I0403 14:26:27.047633 13276 net.cpp:141] Setting up loss1/relu_conv
I0403 14:26:27.047658 13276 net.cpp:148] Top shape: 24 128 4 4 (49152)
I0403 14:26:27.047673 13276 net.cpp:156] Memory required for data: 945894432
I0403 14:26:27.047688 13276 layer_factory.hpp:77] Creating layer loss1/fc
I0403 14:26:27.047713 13276 net.cpp:91] Creating Layer loss1/fc
I0403 14:26:27.047730 13276 net.cpp:425] loss1/fc <- loss1/conv
I0403 14:26:27.047750 13276 net.cpp:399] loss1/fc -> loss1/fc
I0403 14:26:27.065986 13276 net.cpp:141] Setting up loss1/fc
I0403 14:26:27.066037 13276 net.cpp:148] Top shape: 24 1024 (24576)
I0403 14:26:27.066052 13276 net.cpp:156] Memory required for data: 945992736
I0403 14:26:27.066071 13276 layer_factory.hpp:77] Creating layer loss1/relu_fc
I0403 14:26:27.066090 13276 net.cpp:91] Creating Layer loss1/relu_fc
I0403 14:26:27.066107 13276 net.cpp:425] loss1/relu_fc <- loss1/fc
I0403 14:26:27.066128 13276 net.cpp:386] loss1/relu_fc -> loss1/fc (in-place)
I0403 14:26:27.066331 13276 net.cpp:141] Setting up loss1/relu_fc
I0403 14:26:27.066359 13276 net.cpp:148] Top shape: 24 1024 (24576)
I0403 14:26:27.066373 13276 net.cpp:156] Memory required for data: 946091040
I0403 14:26:27.066387 13276 layer_factory.hpp:77] Creating layer loss1/drop_fc
I0403 14:26:27.066414 13276 net.cpp:91] Creating Layer loss1/drop_fc
I0403 14:26:27.066431 13276 net.cpp:425] loss1/drop_fc <- loss1/fc
I0403 14:26:27.066447 13276 net.cpp:386] loss1/drop_fc -> loss1/fc (in-place)
I0403 14:26:27.066500 13276 net.cpp:141] Setting up loss1/drop_fc
I0403 14:26:27.066522 13276 net.cpp:148] Top shape: 24 1024 (24576)
I0403 14:26:27.066536 13276 net.cpp:156] Memory required for data: 946189344
I0403 14:26:27.066550 13276 layer_factory.hpp:77] Creating layer loss1/classifier_plantvillage
I0403 14:26:27.066572 13276 net.cpp:91] Creating Layer loss1/classifier_plantvillage
I0403 14:26:27.066588 13276 net.cpp:425] loss1/classifier_plantvillage <- loss1/fc
I0403 14:26:27.066612 13276 net.cpp:399] loss1/classifier_plantvillage -> loss1/classifier_plantvillage
I0403 14:26:27.067972 13276 net.cpp:141] Setting up loss1/classifier_plantvillage
I0403 14:26:27.068001 13276 net.cpp:148] Top shape: 24 38 (912)
I0403 14:26:27.068016 13276 net.cpp:156] Memory required for data: 946192992
I0403 14:26:27.068032 13276 layer_factory.hpp:77] Creating layer loss1/classifier_plantvillage_loss1/classifier_plantvillage_0_split
I0403 14:26:27.068053 13276 net.cpp:91] Creating Layer loss1/classifier_plantvillage_loss1/classifier_plantvillage_0_split
I0403 14:26:27.068069 13276 net.cpp:425] loss1/classifier_plantvillage_loss1/classifier_plantvillage_0_split <- loss1/classifier_plantvillage
I0403 14:26:27.068086 13276 net.cpp:399] loss1/classifier_plantvillage_loss1/classifier_plantvillage_0_split -> loss1/classifier_plantvillage_loss1/classifier_plantvillage_0_split_0
I0403 14:26:27.068105 13276 net.cpp:399] loss1/classifier_plantvillage_loss1/classifier_plantvillage_0_split -> loss1/classifier_plantvillage_loss1/classifier_plantvillage_0_split_1
I0403 14:26:27.068125 13276 net.cpp:399] loss1/classifier_plantvillage_loss1/classifier_plantvillage_0_split -> loss1/classifier_plantvillage_loss1/classifier_plantvillage_0_split_2
I0403 14:26:27.068192 13276 net.cpp:141] Setting up loss1/classifier_plantvillage_loss1/classifier_plantvillage_0_split
I0403 14:26:27.068215 13276 net.cpp:148] Top shape: 24 38 (912)
I0403 14:26:27.068231 13276 net.cpp:148] Top shape: 24 38 (912)
I0403 14:26:27.068246 13276 net.cpp:148] Top shape: 24 38 (912)
I0403 14:26:27.068259 13276 net.cpp:156] Memory required for data: 946203936
I0403 14:26:27.068272 13276 layer_factory.hpp:77] Creating layer inception_4b/1x1
I0403 14:26:27.068295 13276 net.cpp:91] Creating Layer inception_4b/1x1
I0403 14:26:27.068338 13276 net.cpp:425] inception_4b/1x1 <- inception_4a/output_inception_4a/output_0_split_1
I0403 14:26:27.068358 13276 net.cpp:399] inception_4b/1x1 -> inception_4b/1x1
I0403 14:26:27.070036 13276 net.cpp:141] Setting up inception_4b/1x1
I0403 14:26:27.070066 13276 net.cpp:148] Top shape: 24 160 14 14 (752640)
I0403 14:26:27.070083 13276 net.cpp:156] Memory required for data: 949214496
I0403 14:26:27.070101 13276 layer_factory.hpp:77] Creating layer inception_4b/relu_1x1
I0403 14:26:27.070118 13276 net.cpp:91] Creating Layer inception_4b/relu_1x1
I0403 14:26:27.070133 13276 net.cpp:425] inception_4b/relu_1x1 <- inception_4b/1x1
I0403 14:26:27.070153 13276 net.cpp:386] inception_4b/relu_1x1 -> inception_4b/1x1 (in-place)
I0403 14:26:27.070333 13276 net.cpp:141] Setting up inception_4b/relu_1x1
I0403 14:26:27.070356 13276 net.cpp:148] Top shape: 24 160 14 14 (752640)
I0403 14:26:27.070370 13276 net.cpp:156] Memory required for data: 952225056
I0403 14:26:27.070384 13276 layer_factory.hpp:77] Creating layer inception_4b/3x3_reduce
I0403 14:26:27.070408 13276 net.cpp:91] Creating Layer inception_4b/3x3_reduce
I0403 14:26:27.070426 13276 net.cpp:425] inception_4b/3x3_reduce <- inception_4a/output_inception_4a/output_0_split_2
I0403 14:26:27.070447 13276 net.cpp:399] inception_4b/3x3_reduce -> inception_4b/3x3_reduce
I0403 14:26:27.071796 13276 net.cpp:141] Setting up inception_4b/3x3_reduce
I0403 14:26:27.071823 13276 net.cpp:148] Top shape: 24 112 14 14 (526848)
I0403 14:26:27.071838 13276 net.cpp:156] Memory required for data: 954332448
I0403 14:26:27.071856 13276 layer_factory.hpp:77] Creating layer inception_4b/relu_3x3_reduce
I0403 14:26:27.071873 13276 net.cpp:91] Creating Layer inception_4b/relu_3x3_reduce
I0403 14:26:27.071888 13276 net.cpp:425] inception_4b/relu_3x3_reduce <- inception_4b/3x3_reduce
I0403 14:26:27.071907 13276 net.cpp:386] inception_4b/relu_3x3_reduce -> inception_4b/3x3_reduce (in-place)
I0403 14:26:27.072188 13276 net.cpp:141] Setting up inception_4b/relu_3x3_reduce
I0403 14:26:27.072214 13276 net.cpp:148] Top shape: 24 112 14 14 (526848)
I0403 14:26:27.072229 13276 net.cpp:156] Memory required for data: 956439840
I0403 14:26:27.072243 13276 layer_factory.hpp:77] Creating layer inception_4b/3x3
I0403 14:26:27.072264 13276 net.cpp:91] Creating Layer inception_4b/3x3
I0403 14:26:27.072281 13276 net.cpp:425] inception_4b/3x3 <- inception_4b/3x3_reduce
I0403 14:26:27.072304 13276 net.cpp:399] inception_4b/3x3 -> inception_4b/3x3
I0403 14:26:27.075289 13276 net.cpp:141] Setting up inception_4b/3x3
I0403 14:26:27.075320 13276 net.cpp:148] Top shape: 24 224 14 14 (1053696)
I0403 14:26:27.075335 13276 net.cpp:156] Memory required for data: 960654624
I0403 14:26:27.075352 13276 layer_factory.hpp:77] Creating layer inception_4b/relu_3x3
I0403 14:26:27.075371 13276 net.cpp:91] Creating Layer inception_4b/relu_3x3
I0403 14:26:27.075388 13276 net.cpp:425] inception_4b/relu_3x3 <- inception_4b/3x3
I0403 14:26:27.075405 13276 net.cpp:386] inception_4b/relu_3x3 -> inception_4b/3x3 (in-place)
I0403 14:26:27.075587 13276 net.cpp:141] Setting up inception_4b/relu_3x3
I0403 14:26:27.075613 13276 net.cpp:148] Top shape: 24 224 14 14 (1053696)
I0403 14:26:27.075629 13276 net.cpp:156] Memory required for data: 964869408
I0403 14:26:27.075644 13276 layer_factory.hpp:77] Creating layer inception_4b/5x5_reduce
I0403 14:26:27.075670 13276 net.cpp:91] Creating Layer inception_4b/5x5_reduce
I0403 14:26:27.075687 13276 net.cpp:425] inception_4b/5x5_reduce <- inception_4a/output_inception_4a/output_0_split_3
I0403 14:26:27.075706 13276 net.cpp:399] inception_4b/5x5_reduce -> inception_4b/5x5_reduce
I0403 14:26:27.076817 13276 net.cpp:141] Setting up inception_4b/5x5_reduce
I0403 14:26:27.076848 13276 net.cpp:148] Top shape: 24 24 14 14 (112896)
I0403 14:26:27.076864 13276 net.cpp:156] Memory required for data: 965320992
I0403 14:26:27.076881 13276 layer_factory.hpp:77] Creating layer inception_4b/relu_5x5_reduce
I0403 14:26:27.076899 13276 net.cpp:91] Creating Layer inception_4b/relu_5x5_reduce
I0403 14:26:27.076930 13276 net.cpp:425] inception_4b/relu_5x5_reduce <- inception_4b/5x5_reduce
I0403 14:26:27.076958 13276 net.cpp:386] inception_4b/relu_5x5_reduce -> inception_4b/5x5_reduce (in-place)
I0403 14:26:27.077147 13276 net.cpp:141] Setting up inception_4b/relu_5x5_reduce
I0403 14:26:27.077172 13276 net.cpp:148] Top shape: 24 24 14 14 (112896)
I0403 14:26:27.077186 13276 net.cpp:156] Memory required for data: 965772576
I0403 14:26:27.077200 13276 layer_factory.hpp:77] Creating layer inception_4b/5x5
I0403 14:26:27.077222 13276 net.cpp:91] Creating Layer inception_4b/5x5
I0403 14:26:27.077240 13276 net.cpp:425] inception_4b/5x5 <- inception_4b/5x5_reduce
I0403 14:26:27.077260 13276 net.cpp:399] inception_4b/5x5 -> inception_4b/5x5
I0403 14:26:27.078482 13276 net.cpp:141] Setting up inception_4b/5x5
I0403 14:26:27.078511 13276 net.cpp:148] Top shape: 24 64 14 14 (301056)
I0403 14:26:27.078527 13276 net.cpp:156] Memory required for data: 966976800
I0403 14:26:27.078546 13276 layer_factory.hpp:77] Creating layer inception_4b/relu_5x5
I0403 14:26:27.078562 13276 net.cpp:91] Creating Layer inception_4b/relu_5x5
I0403 14:26:27.078583 13276 net.cpp:425] inception_4b/relu_5x5 <- inception_4b/5x5
I0403 14:26:27.078603 13276 net.cpp:386] inception_4b/relu_5x5 -> inception_4b/5x5 (in-place)
I0403 14:26:27.078881 13276 net.cpp:141] Setting up inception_4b/relu_5x5
I0403 14:26:27.078910 13276 net.cpp:148] Top shape: 24 64 14 14 (301056)
I0403 14:26:27.078927 13276 net.cpp:156] Memory required for data: 968181024
I0403 14:26:27.078940 13276 layer_factory.hpp:77] Creating layer inception_4b/pool
I0403 14:26:27.078958 13276 net.cpp:91] Creating Layer inception_4b/pool
I0403 14:26:27.078974 13276 net.cpp:425] inception_4b/pool <- inception_4a/output_inception_4a/output_0_split_4
I0403 14:26:27.078994 13276 net.cpp:399] inception_4b/pool -> inception_4b/pool
I0403 14:26:27.079056 13276 net.cpp:141] Setting up inception_4b/pool
I0403 14:26:27.079079 13276 net.cpp:148] Top shape: 24 512 14 14 (2408448)
I0403 14:26:27.079094 13276 net.cpp:156] Memory required for data: 977814816
I0403 14:26:27.079108 13276 layer_factory.hpp:77] Creating layer inception_4b/pool_proj
I0403 14:26:27.079133 13276 net.cpp:91] Creating Layer inception_4b/pool_proj
I0403 14:26:27.079149 13276 net.cpp:425] inception_4b/pool_proj <- inception_4b/pool
I0403 14:26:27.079170 13276 net.cpp:399] inception_4b/pool_proj -> inception_4b/pool_proj
I0403 14:26:27.080370 13276 net.cpp:141] Setting up inception_4b/pool_proj
I0403 14:26:27.080400 13276 net.cpp:148] Top shape: 24 64 14 14 (301056)
I0403 14:26:27.080415 13276 net.cpp:156] Memory required for data: 979019040
I0403 14:26:27.080433 13276 layer_factory.hpp:77] Creating layer inception_4b/relu_pool_proj
I0403 14:26:27.080451 13276 net.cpp:91] Creating Layer inception_4b/relu_pool_proj
I0403 14:26:27.080466 13276 net.cpp:425] inception_4b/relu_pool_proj <- inception_4b/pool_proj
I0403 14:26:27.080485 13276 net.cpp:386] inception_4b/relu_pool_proj -> inception_4b/pool_proj (in-place)
I0403 14:26:27.080667 13276 net.cpp:141] Setting up inception_4b/relu_pool_proj
I0403 14:26:27.080692 13276 net.cpp:148] Top shape: 24 64 14 14 (301056)
I0403 14:26:27.080706 13276 net.cpp:156] Memory required for data: 980223264
I0403 14:26:27.080720 13276 layer_factory.hpp:77] Creating layer inception_4b/output
I0403 14:26:27.080737 13276 net.cpp:91] Creating Layer inception_4b/output
I0403 14:26:27.080752 13276 net.cpp:425] inception_4b/output <- inception_4b/1x1
I0403 14:26:27.080768 13276 net.cpp:425] inception_4b/output <- inception_4b/3x3
I0403 14:26:27.080785 13276 net.cpp:425] inception_4b/output <- inception_4b/5x5
I0403 14:26:27.080807 13276 net.cpp:425] inception_4b/output <- inception_4b/pool_proj
I0403 14:26:27.080826 13276 net.cpp:399] inception_4b/output -> inception_4b/output
I0403 14:26:27.080870 13276 net.cpp:141] Setting up inception_4b/output
I0403 14:26:27.080895 13276 net.cpp:148] Top shape: 24 512 14 14 (2408448)
I0403 14:26:27.080910 13276 net.cpp:156] Memory required for data: 989857056
I0403 14:26:27.080938 13276 layer_factory.hpp:77] Creating layer inception_4b/output_inception_4b/output_0_split
I0403 14:26:27.080957 13276 net.cpp:91] Creating Layer inception_4b/output_inception_4b/output_0_split
I0403 14:26:27.080971 13276 net.cpp:425] inception_4b/output_inception_4b/output_0_split <- inception_4b/output
I0403 14:26:27.080987 13276 net.cpp:399] inception_4b/output_inception_4b/output_0_split -> inception_4b/output_inception_4b/output_0_split_0
I0403 14:26:27.081009 13276 net.cpp:399] inception_4b/output_inception_4b/output_0_split -> inception_4b/output_inception_4b/output_0_split_1
I0403 14:26:27.081032 13276 net.cpp:399] inception_4b/output_inception_4b/output_0_split -> inception_4b/output_inception_4b/output_0_split_2
I0403 14:26:27.081050 13276 net.cpp:399] inception_4b/output_inception_4b/output_0_split -> inception_4b/output_inception_4b/output_0_split_3
I0403 14:26:27.081133 13276 net.cpp:141] Setting up inception_4b/output_inception_4b/output_0_split
I0403 14:26:27.081156 13276 net.cpp:148] Top shape: 24 512 14 14 (2408448)
I0403 14:26:27.081173 13276 net.cpp:148] Top shape: 24 512 14 14 (2408448)
I0403 14:26:27.081188 13276 net.cpp:148] Top shape: 24 512 14 14 (2408448)
I0403 14:26:27.081202 13276 net.cpp:148] Top shape: 24 512 14 14 (2408448)
I0403 14:26:27.081215 13276 net.cpp:156] Memory required for data: 1028392224
I0403 14:26:27.081229 13276 layer_factory.hpp:77] Creating layer inception_4c/1x1
I0403 14:26:27.081253 13276 net.cpp:91] Creating Layer inception_4c/1x1
I0403 14:26:27.081269 13276 net.cpp:425] inception_4c/1x1 <- inception_4b/output_inception_4b/output_0_split_0
I0403 14:26:27.081289 13276 net.cpp:399] inception_4c/1x1 -> inception_4c/1x1
I0403 14:26:27.082718 13276 net.cpp:141] Setting up inception_4c/1x1
I0403 14:26:27.082746 13276 net.cpp:148] Top shape: 24 128 14 14 (602112)
I0403 14:26:27.082762 13276 net.cpp:156] Memory required for data: 1030800672
I0403 14:26:27.082778 13276 layer_factory.hpp:77] Creating layer inception_4c/relu_1x1
I0403 14:26:27.082798 13276 net.cpp:91] Creating Layer inception_4c/relu_1x1
I0403 14:26:27.082814 13276 net.cpp:425] inception_4c/relu_1x1 <- inception_4c/1x1
I0403 14:26:27.082831 13276 net.cpp:386] inception_4c/relu_1x1 -> inception_4c/1x1 (in-place)
I0403 14:26:27.083014 13276 net.cpp:141] Setting up inception_4c/relu_1x1
I0403 14:26:27.083037 13276 net.cpp:148] Top shape: 24 128 14 14 (602112)
I0403 14:26:27.083055 13276 net.cpp:156] Memory required for data: 1033209120
I0403 14:26:27.083068 13276 layer_factory.hpp:77] Creating layer inception_4c/3x3_reduce
I0403 14:26:27.083087 13276 net.cpp:91] Creating Layer inception_4c/3x3_reduce
I0403 14:26:27.083103 13276 net.cpp:425] inception_4c/3x3_reduce <- inception_4b/output_inception_4b/output_0_split_1
I0403 14:26:27.083123 13276 net.cpp:399] inception_4c/3x3_reduce -> inception_4c/3x3_reduce
I0403 14:26:27.085111 13276 net.cpp:141] Setting up inception_4c/3x3_reduce
I0403 14:26:27.085142 13276 net.cpp:148] Top shape: 24 128 14 14 (602112)
I0403 14:26:27.085160 13276 net.cpp:156] Memory required for data: 1035617568
I0403 14:26:27.085178 13276 layer_factory.hpp:77] Creating layer inception_4c/relu_3x3_reduce
I0403 14:26:27.085196 13276 net.cpp:91] Creating Layer inception_4c/relu_3x3_reduce
I0403 14:26:27.085212 13276 net.cpp:425] inception_4c/relu_3x3_reduce <- inception_4c/3x3_reduce
I0403 14:26:27.085228 13276 net.cpp:386] inception_4c/relu_3x3_reduce -> inception_4c/3x3_reduce (in-place)
I0403 14:26:27.085510 13276 net.cpp:141] Setting up inception_4c/relu_3x3_reduce
I0403 14:26:27.085539 13276 net.cpp:148] Top shape: 24 128 14 14 (602112)
I0403 14:26:27.085556 13276 net.cpp:156] Memory required for data: 1038026016
I0403 14:26:27.085577 13276 layer_factory.hpp:77] Creating layer inception_4c/3x3
I0403 14:26:27.085608 13276 net.cpp:91] Creating Layer inception_4c/3x3
I0403 14:26:27.085625 13276 net.cpp:425] inception_4c/3x3 <- inception_4c/3x3_reduce
I0403 14:26:27.085647 13276 net.cpp:399] inception_4c/3x3 -> inception_4c/3x3
I0403 14:26:27.089258 13276 net.cpp:141] Setting up inception_4c/3x3
I0403 14:26:27.089303 13276 net.cpp:148] Top shape: 24 256 14 14 (1204224)
I0403 14:26:27.089319 13276 net.cpp:156] Memory required for data: 1042842912
I0403 14:26:27.089349 13276 layer_factory.hpp:77] Creating layer inception_4c/relu_3x3
I0403 14:26:27.089370 13276 net.cpp:91] Creating Layer inception_4c/relu_3x3
I0403 14:26:27.089385 13276 net.cpp:425] inception_4c/relu_3x3 <- inception_4c/3x3
I0403 14:26:27.089402 13276 net.cpp:386] inception_4c/relu_3x3 -> inception_4c/3x3 (in-place)
I0403 14:26:27.089577 13276 net.cpp:141] Setting up inception_4c/relu_3x3
I0403 14:26:27.089603 13276 net.cpp:148] Top shape: 24 256 14 14 (1204224)
I0403 14:26:27.089617 13276 net.cpp:156] Memory required for data: 1047659808
I0403 14:26:27.089630 13276 layer_factory.hpp:77] Creating layer inception_4c/5x5_reduce
I0403 14:26:27.089653 13276 net.cpp:91] Creating Layer inception_4c/5x5_reduce
I0403 14:26:27.089669 13276 net.cpp:425] inception_4c/5x5_reduce <- inception_4b/output_inception_4b/output_0_split_2
I0403 14:26:27.089690 13276 net.cpp:399] inception_4c/5x5_reduce -> inception_4c/5x5_reduce
I0403 14:26:27.090740 13276 net.cpp:141] Setting up inception_4c/5x5_reduce
I0403 14:26:27.090770 13276 net.cpp:148] Top shape: 24 24 14 14 (112896)
I0403 14:26:27.090785 13276 net.cpp:156] Memory required for data: 1048111392
I0403 14:26:27.090802 13276 layer_factory.hpp:77] Creating layer inception_4c/relu_5x5_reduce
I0403 14:26:27.090818 13276 net.cpp:91] Creating Layer inception_4c/relu_5x5_reduce
I0403 14:26:27.090833 13276 net.cpp:425] inception_4c/relu_5x5_reduce <- inception_4c/5x5_reduce
I0403 14:26:27.090849 13276 net.cpp:386] inception_4c/relu_5x5_reduce -> inception_4c/5x5_reduce (in-place)
I0403 14:26:27.091027 13276 net.cpp:141] Setting up inception_4c/relu_5x5_reduce
I0403 14:26:27.091051 13276 net.cpp:148] Top shape: 24 24 14 14 (112896)
I0403 14:26:27.091065 13276 net.cpp:156] Memory required for data: 1048562976
I0403 14:26:27.091078 13276 layer_factory.hpp:77] Creating layer inception_4c/5x5
I0403 14:26:27.091099 13276 net.cpp:91] Creating Layer inception_4c/5x5
I0403 14:26:27.091115 13276 net.cpp:425] inception_4c/5x5 <- inception_4c/5x5_reduce
I0403 14:26:27.091135 13276 net.cpp:399] inception_4c/5x5 -> inception_4c/5x5
I0403 14:26:27.092324 13276 net.cpp:141] Setting up inception_4c/5x5
I0403 14:26:27.092350 13276 net.cpp:148] Top shape: 24 64 14 14 (301056)
I0403 14:26:27.092365 13276 net.cpp:156] Memory required for data: 1049767200
I0403 14:26:27.092382 13276 layer_factory.hpp:77] Creating layer inception_4c/relu_5x5
I0403 14:26:27.092399 13276 net.cpp:91] Creating Layer inception_4c/relu_5x5
I0403 14:26:27.092413 13276 net.cpp:425] inception_4c/relu_5x5 <- inception_4c/5x5
I0403 14:26:27.092432 13276 net.cpp:386] inception_4c/relu_5x5 -> inception_4c/5x5 (in-place)
I0403 14:26:27.092715 13276 net.cpp:141] Setting up inception_4c/relu_5x5
I0403 14:26:27.092741 13276 net.cpp:148] Top shape: 24 64 14 14 (301056)
I0403 14:26:27.092754 13276 net.cpp:156] Memory required for data: 1050971424
I0403 14:26:27.092769 13276 layer_factory.hpp:77] Creating layer inception_4c/pool
I0403 14:26:27.092785 13276 net.cpp:91] Creating Layer inception_4c/pool
I0403 14:26:27.092800 13276 net.cpp:425] inception_4c/pool <- inception_4b/output_inception_4b/output_0_split_3
I0403 14:26:27.092819 13276 net.cpp:399] inception_4c/pool -> inception_4c/pool
I0403 14:26:27.092883 13276 net.cpp:141] Setting up inception_4c/pool
I0403 14:26:27.092906 13276 net.cpp:148] Top shape: 24 512 14 14 (2408448)
I0403 14:26:27.092919 13276 net.cpp:156] Memory required for data: 1060605216
I0403 14:26:27.092932 13276 layer_factory.hpp:77] Creating layer inception_4c/pool_proj
I0403 14:26:27.092954 13276 net.cpp:91] Creating Layer inception_4c/pool_proj
I0403 14:26:27.092970 13276 net.cpp:425] inception_4c/pool_proj <- inception_4c/pool
I0403 14:26:27.092989 13276 net.cpp:399] inception_4c/pool_proj -> inception_4c/pool_proj
I0403 14:26:27.094198 13276 net.cpp:141] Setting up inception_4c/pool_proj
I0403 14:26:27.094228 13276 net.cpp:148] Top shape: 24 64 14 14 (301056)
I0403 14:26:27.094257 13276 net.cpp:156] Memory required for data: 1061809440
I0403 14:26:27.094276 13276 layer_factory.hpp:77] Creating layer inception_4c/relu_pool_proj
I0403 14:26:27.094296 13276 net.cpp:91] Creating Layer inception_4c/relu_pool_proj
I0403 14:26:27.094312 13276 net.cpp:425] inception_4c/relu_pool_proj <- inception_4c/pool_proj
I0403 14:26:27.094331 13276 net.cpp:386] inception_4c/relu_pool_proj -> inception_4c/pool_proj (in-place)
I0403 14:26:27.094527 13276 net.cpp:141] Setting up inception_4c/relu_pool_proj
I0403 14:26:27.094552 13276 net.cpp:148] Top shape: 24 64 14 14 (301056)
I0403 14:26:27.094565 13276 net.cpp:156] Memory required for data: 1063013664
I0403 14:26:27.094593 13276 layer_factory.hpp:77] Creating layer inception_4c/output
I0403 14:26:27.094610 13276 net.cpp:91] Creating Layer inception_4c/output
I0403 14:26:27.094624 13276 net.cpp:425] inception_4c/output <- inception_4c/1x1
I0403 14:26:27.094640 13276 net.cpp:425] inception_4c/output <- inception_4c/3x3
I0403 14:26:27.094655 13276 net.cpp:425] inception_4c/output <- inception_4c/5x5
I0403 14:26:27.094671 13276 net.cpp:425] inception_4c/output <- inception_4c/pool_proj
I0403 14:26:27.094698 13276 net.cpp:399] inception_4c/output -> inception_4c/output
I0403 14:26:27.094744 13276 net.cpp:141] Setting up inception_4c/output
I0403 14:26:27.094771 13276 net.cpp:148] Top shape: 24 512 14 14 (2408448)
I0403 14:26:27.094786 13276 net.cpp:156] Memory required for data: 1072647456
I0403 14:26:27.094800 13276 layer_factory.hpp:77] Creating layer inception_4c/output_inception_4c/output_0_split
I0403 14:26:27.094816 13276 net.cpp:91] Creating Layer inception_4c/output_inception_4c/output_0_split
I0403 14:26:27.094830 13276 net.cpp:425] inception_4c/output_inception_4c/output_0_split <- inception_4c/output
I0403 14:26:27.094847 13276 net.cpp:399] inception_4c/output_inception_4c/output_0_split -> inception_4c/output_inception_4c/output_0_split_0
I0403 14:26:27.094868 13276 net.cpp:399] inception_4c/output_inception_4c/output_0_split -> inception_4c/output_inception_4c/output_0_split_1
I0403 14:26:27.094889 13276 net.cpp:399] inception_4c/output_inception_4c/output_0_split -> inception_4c/output_inception_4c/output_0_split_2
I0403 14:26:27.094908 13276 net.cpp:399] inception_4c/output_inception_4c/output_0_split -> inception_4c/output_inception_4c/output_0_split_3
I0403 14:26:27.094993 13276 net.cpp:141] Setting up inception_4c/output_inception_4c/output_0_split
I0403 14:26:27.095016 13276 net.cpp:148] Top shape: 24 512 14 14 (2408448)
I0403 14:26:27.095032 13276 net.cpp:148] Top shape: 24 512 14 14 (2408448)
I0403 14:26:27.095047 13276 net.cpp:148] Top shape: 24 512 14 14 (2408448)
I0403 14:26:27.095062 13276 net.cpp:148] Top shape: 24 512 14 14 (2408448)
I0403 14:26:27.095075 13276 net.cpp:156] Memory required for data: 1111182624
I0403 14:26:27.095088 13276 layer_factory.hpp:77] Creating layer inception_4d/1x1
I0403 14:26:27.095109 13276 net.cpp:91] Creating Layer inception_4d/1x1
I0403 14:26:27.095129 13276 net.cpp:425] inception_4d/1x1 <- inception_4c/output_inception_4c/output_0_split_0
I0403 14:26:27.095146 13276 net.cpp:399] inception_4d/1x1 -> inception_4d/1x1
I0403 14:26:27.096534 13276 net.cpp:141] Setting up inception_4d/1x1
I0403 14:26:27.096561 13276 net.cpp:148] Top shape: 24 112 14 14 (526848)
I0403 14:26:27.096581 13276 net.cpp:156] Memory required for data: 1113290016
I0403 14:26:27.096599 13276 layer_factory.hpp:77] Creating layer inception_4d/relu_1x1
I0403 14:26:27.096619 13276 net.cpp:91] Creating Layer inception_4d/relu_1x1
I0403 14:26:27.096637 13276 net.cpp:425] inception_4d/relu_1x1 <- inception_4d/1x1
I0403 14:26:27.096653 13276 net.cpp:386] inception_4d/relu_1x1 -> inception_4d/1x1 (in-place)
I0403 14:26:27.096833 13276 net.cpp:141] Setting up inception_4d/relu_1x1
I0403 14:26:27.096859 13276 net.cpp:148] Top shape: 24 112 14 14 (526848)
I0403 14:26:27.096874 13276 net.cpp:156] Memory required for data: 1115397408
I0403 14:26:27.096889 13276 layer_factory.hpp:77] Creating layer inception_4d/3x3_reduce
I0403 14:26:27.096925 13276 net.cpp:91] Creating Layer inception_4d/3x3_reduce
I0403 14:26:27.096943 13276 net.cpp:425] inception_4d/3x3_reduce <- inception_4c/output_inception_4c/output_0_split_1
I0403 14:26:27.096961 13276 net.cpp:399] inception_4d/3x3_reduce -> inception_4d/3x3_reduce
I0403 14:26:27.098475 13276 net.cpp:141] Setting up inception_4d/3x3_reduce
I0403 14:26:27.098503 13276 net.cpp:148] Top shape: 24 144 14 14 (677376)
I0403 14:26:27.098517 13276 net.cpp:156] Memory required for data: 1118106912
I0403 14:26:27.098536 13276 layer_factory.hpp:77] Creating layer inception_4d/relu_3x3_reduce
I0403 14:26:27.098557 13276 net.cpp:91] Creating Layer inception_4d/relu_3x3_reduce
I0403 14:26:27.098578 13276 net.cpp:425] inception_4d/relu_3x3_reduce <- inception_4d/3x3_reduce
I0403 14:26:27.098595 13276 net.cpp:386] inception_4d/relu_3x3_reduce -> inception_4d/3x3_reduce (in-place)
I0403 14:26:27.098886 13276 net.cpp:141] Setting up inception_4d/relu_3x3_reduce
I0403 14:26:27.098912 13276 net.cpp:148] Top shape: 24 144 14 14 (677376)
I0403 14:26:27.098927 13276 net.cpp:156] Memory required for data: 1120816416
I0403 14:26:27.098942 13276 layer_factory.hpp:77] Creating layer inception_4d/3x3
I0403 14:26:27.098963 13276 net.cpp:91] Creating Layer inception_4d/3x3
I0403 14:26:27.098980 13276 net.cpp:425] inception_4d/3x3 <- inception_4d/3x3_reduce
I0403 14:26:27.099000 13276 net.cpp:399] inception_4d/3x3 -> inception_4d/3x3
I0403 14:26:27.103278 13276 net.cpp:141] Setting up inception_4d/3x3
I0403 14:26:27.103309 13276 net.cpp:148] Top shape: 24 288 14 14 (1354752)
I0403 14:26:27.103325 13276 net.cpp:156] Memory required for data: 1126235424
I0403 14:26:27.103343 13276 layer_factory.hpp:77] Creating layer inception_4d/relu_3x3
I0403 14:26:27.103368 13276 net.cpp:91] Creating Layer inception_4d/relu_3x3
I0403 14:26:27.103384 13276 net.cpp:425] inception_4d/relu_3x3 <- inception_4d/3x3
I0403 14:26:27.103400 13276 net.cpp:386] inception_4d/relu_3x3 -> inception_4d/3x3 (in-place)
I0403 14:26:27.103590 13276 net.cpp:141] Setting up inception_4d/relu_3x3
I0403 14:26:27.103617 13276 net.cpp:148] Top shape: 24 288 14 14 (1354752)
I0403 14:26:27.103633 13276 net.cpp:156] Memory required for data: 1131654432
I0403 14:26:27.103648 13276 layer_factory.hpp:77] Creating layer inception_4d/5x5_reduce
I0403 14:26:27.103669 13276 net.cpp:91] Creating Layer inception_4d/5x5_reduce
I0403 14:26:27.103687 13276 net.cpp:425] inception_4d/5x5_reduce <- inception_4c/output_inception_4c/output_0_split_2
I0403 14:26:27.103704 13276 net.cpp:399] inception_4d/5x5_reduce -> inception_4d/5x5_reduce
I0403 14:26:27.104853 13276 net.cpp:141] Setting up inception_4d/5x5_reduce
I0403 14:26:27.104882 13276 net.cpp:148] Top shape: 24 32 14 14 (150528)
I0403 14:26:27.104897 13276 net.cpp:156] Memory required for data: 1132256544
I0403 14:26:27.104913 13276 layer_factory.hpp:77] Creating layer inception_4d/relu_5x5_reduce
I0403 14:26:27.104933 13276 net.cpp:91] Creating Layer inception_4d/relu_5x5_reduce
I0403 14:26:27.104949 13276 net.cpp:425] inception_4d/relu_5x5_reduce <- inception_4d/5x5_reduce
I0403 14:26:27.104966 13276 net.cpp:386] inception_4d/relu_5x5_reduce -> inception_4d/5x5_reduce (in-place)
I0403 14:26:27.105149 13276 net.cpp:141] Setting up inception_4d/relu_5x5_reduce
I0403 14:26:27.105175 13276 net.cpp:148] Top shape: 24 32 14 14 (150528)
I0403 14:26:27.105191 13276 net.cpp:156] Memory required for data: 1132858656
I0403 14:26:27.105206 13276 layer_factory.hpp:77] Creating layer inception_4d/5x5
I0403 14:26:27.105234 13276 net.cpp:91] Creating Layer inception_4d/5x5
I0403 14:26:27.105250 13276 net.cpp:425] inception_4d/5x5 <- inception_4d/5x5_reduce
I0403 14:26:27.105273 13276 net.cpp:399] inception_4d/5x5 -> inception_4d/5x5
I0403 14:26:27.106768 13276 net.cpp:141] Setting up inception_4d/5x5
I0403 14:26:27.106796 13276 net.cpp:148] Top shape: 24 64 14 14 (301056)
I0403 14:26:27.106811 13276 net.cpp:156] Memory required for data: 1134062880
I0403 14:26:27.106828 13276 layer_factory.hpp:77] Creating layer inception_4d/relu_5x5
I0403 14:26:27.106861 13276 net.cpp:91] Creating Layer inception_4d/relu_5x5
I0403 14:26:27.106878 13276 net.cpp:425] inception_4d/relu_5x5 <- inception_4d/5x5
I0403 14:26:27.106897 13276 net.cpp:386] inception_4d/relu_5x5 -> inception_4d/5x5 (in-place)
I0403 14:26:27.107197 13276 net.cpp:141] Setting up inception_4d/relu_5x5
I0403 14:26:27.107221 13276 net.cpp:148] Top shape: 24 64 14 14 (301056)
I0403 14:26:27.107242 13276 net.cpp:156] Memory required for data: 1135267104
I0403 14:26:27.107256 13276 layer_factory.hpp:77] Creating layer inception_4d/pool
I0403 14:26:27.107275 13276 net.cpp:91] Creating Layer inception_4d/pool
I0403 14:26:27.107290 13276 net.cpp:425] inception_4d/pool <- inception_4c/output_inception_4c/output_0_split_3
I0403 14:26:27.107309 13276 net.cpp:399] inception_4d/pool -> inception_4d/pool
I0403 14:26:27.107374 13276 net.cpp:141] Setting up inception_4d/pool
I0403 14:26:27.107398 13276 net.cpp:148] Top shape: 24 512 14 14 (2408448)
I0403 14:26:27.107412 13276 net.cpp:156] Memory required for data: 1144900896
I0403 14:26:27.107426 13276 layer_factory.hpp:77] Creating layer inception_4d/pool_proj
I0403 14:26:27.107450 13276 net.cpp:91] Creating Layer inception_4d/pool_proj
I0403 14:26:27.107466 13276 net.cpp:425] inception_4d/pool_proj <- inception_4d/pool
I0403 14:26:27.107484 13276 net.cpp:399] inception_4d/pool_proj -> inception_4d/pool_proj
I0403 14:26:27.109252 13276 net.cpp:141] Setting up inception_4d/pool_proj
I0403 14:26:27.109282 13276 net.cpp:148] Top shape: 24 64 14 14 (301056)
I0403 14:26:27.109297 13276 net.cpp:156] Memory required for data: 1146105120
I0403 14:26:27.109315 13276 layer_factory.hpp:77] Creating layer inception_4d/relu_pool_proj
I0403 14:26:27.109336 13276 net.cpp:91] Creating Layer inception_4d/relu_pool_proj
I0403 14:26:27.109352 13276 net.cpp:425] inception_4d/relu_pool_proj <- inception_4d/pool_proj
I0403 14:26:27.109369 13276 net.cpp:386] inception_4d/relu_pool_proj -> inception_4d/pool_proj (in-place)
I0403 14:26:27.109560 13276 net.cpp:141] Setting up inception_4d/relu_pool_proj
I0403 14:26:27.109589 13276 net.cpp:148] Top shape: 24 64 14 14 (301056)
I0403 14:26:27.109606 13276 net.cpp:156] Memory required for data: 1147309344
I0403 14:26:27.109619 13276 layer_factory.hpp:77] Creating layer inception_4d/output
I0403 14:26:27.109637 13276 net.cpp:91] Creating Layer inception_4d/output
I0403 14:26:27.109652 13276 net.cpp:425] inception_4d/output <- inception_4d/1x1
I0403 14:26:27.109668 13276 net.cpp:425] inception_4d/output <- inception_4d/3x3
I0403 14:26:27.109683 13276 net.cpp:425] inception_4d/output <- inception_4d/5x5
I0403 14:26:27.109699 13276 net.cpp:425] inception_4d/output <- inception_4d/pool_proj
I0403 14:26:27.109717 13276 net.cpp:399] inception_4d/output -> inception_4d/output
I0403 14:26:27.109763 13276 net.cpp:141] Setting up inception_4d/output
I0403 14:26:27.109786 13276 net.cpp:148] Top shape: 24 528 14 14 (2483712)
I0403 14:26:27.109800 13276 net.cpp:156] Memory required for data: 1157244192
I0403 14:26:27.109814 13276 layer_factory.hpp:77] Creating layer inception_4d/output_inception_4d/output_0_split
I0403 14:26:27.109834 13276 net.cpp:91] Creating Layer inception_4d/output_inception_4d/output_0_split
I0403 14:26:27.109850 13276 net.cpp:425] inception_4d/output_inception_4d/output_0_split <- inception_4d/output
I0403 14:26:27.109868 13276 net.cpp:399] inception_4d/output_inception_4d/output_0_split -> inception_4d/output_inception_4d/output_0_split_0
I0403 14:26:27.109890 13276 net.cpp:399] inception_4d/output_inception_4d/output_0_split -> inception_4d/output_inception_4d/output_0_split_1
I0403 14:26:27.109911 13276 net.cpp:399] inception_4d/output_inception_4d/output_0_split -> inception_4d/output_inception_4d/output_0_split_2
I0403 14:26:27.109931 13276 net.cpp:399] inception_4d/output_inception_4d/output_0_split -> inception_4d/output_inception_4d/output_0_split_3
I0403 14:26:27.109951 13276 net.cpp:399] inception_4d/output_inception_4d/output_0_split -> inception_4d/output_inception_4d/output_0_split_4
I0403 14:26:27.110055 13276 net.cpp:141] Setting up inception_4d/output_inception_4d/output_0_split
I0403 14:26:27.110090 13276 net.cpp:148] Top shape: 24 528 14 14 (2483712)
I0403 14:26:27.110107 13276 net.cpp:148] Top shape: 24 528 14 14 (2483712)
I0403 14:26:27.110122 13276 net.cpp:148] Top shape: 24 528 14 14 (2483712)
I0403 14:26:27.110137 13276 net.cpp:148] Top shape: 24 528 14 14 (2483712)
I0403 14:26:27.110152 13276 net.cpp:148] Top shape: 24 528 14 14 (2483712)
I0403 14:26:27.110165 13276 net.cpp:156] Memory required for data: 1206918432
I0403 14:26:27.110179 13276 layer_factory.hpp:77] Creating layer loss2/ave_pool
I0403 14:26:27.110198 13276 net.cpp:91] Creating Layer loss2/ave_pool
I0403 14:26:27.110214 13276 net.cpp:425] loss2/ave_pool <- inception_4d/output_inception_4d/output_0_split_0
I0403 14:26:27.110232 13276 net.cpp:399] loss2/ave_pool -> loss2/ave_pool
I0403 14:26:27.110539 13276 net.cpp:141] Setting up loss2/ave_pool
I0403 14:26:27.110565 13276 net.cpp:148] Top shape: 24 528 4 4 (202752)
I0403 14:26:27.110589 13276 net.cpp:156] Memory required for data: 1207729440
I0403 14:26:27.110604 13276 layer_factory.hpp:77] Creating layer loss2/conv
I0403 14:26:27.110622 13276 net.cpp:91] Creating Layer loss2/conv
I0403 14:26:27.110640 13276 net.cpp:425] loss2/conv <- loss2/ave_pool
I0403 14:26:27.110659 13276 net.cpp:399] loss2/conv -> loss2/conv
I0403 14:26:27.112591 13276 net.cpp:141] Setting up loss2/conv
I0403 14:26:27.112620 13276 net.cpp:148] Top shape: 24 128 4 4 (49152)
I0403 14:26:27.112637 13276 net.cpp:156] Memory required for data: 1207926048
I0403 14:26:27.112654 13276 layer_factory.hpp:77] Creating layer loss2/relu_conv
I0403 14:26:27.112671 13276 net.cpp:91] Creating Layer loss2/relu_conv
I0403 14:26:27.112686 13276 net.cpp:425] loss2/relu_conv <- loss2/conv
I0403 14:26:27.112705 13276 net.cpp:386] loss2/relu_conv -> loss2/conv (in-place)
I0403 14:26:27.112987 13276 net.cpp:141] Setting up loss2/relu_conv
I0403 14:26:27.113014 13276 net.cpp:148] Top shape: 24 128 4 4 (49152)
I0403 14:26:27.113029 13276 net.cpp:156] Memory required for data: 1208122656
I0403 14:26:27.113044 13276 layer_factory.hpp:77] Creating layer loss2/fc
I0403 14:26:27.113061 13276 net.cpp:91] Creating Layer loss2/fc
I0403 14:26:27.113077 13276 net.cpp:425] loss2/fc <- loss2/conv
I0403 14:26:27.113098 13276 net.cpp:399] loss2/fc -> loss2/fc
I0403 14:26:27.130278 13276 net.cpp:141] Setting up loss2/fc
I0403 14:26:27.130319 13276 net.cpp:148] Top shape: 24 1024 (24576)
I0403 14:26:27.130334 13276 net.cpp:156] Memory required for data: 1208220960
I0403 14:26:27.130352 13276 layer_factory.hpp:77] Creating layer loss2/relu_fc
I0403 14:26:27.130372 13276 net.cpp:91] Creating Layer loss2/relu_fc
I0403 14:26:27.130388 13276 net.cpp:425] loss2/relu_fc <- loss2/fc
I0403 14:26:27.130404 13276 net.cpp:386] loss2/relu_fc -> loss2/fc (in-place)
I0403 14:26:27.130702 13276 net.cpp:141] Setting up loss2/relu_fc
I0403 14:26:27.130728 13276 net.cpp:148] Top shape: 24 1024 (24576)
I0403 14:26:27.130743 13276 net.cpp:156] Memory required for data: 1208319264
I0403 14:26:27.130756 13276 layer_factory.hpp:77] Creating layer loss2/drop_fc
I0403 14:26:27.130775 13276 net.cpp:91] Creating Layer loss2/drop_fc
I0403 14:26:27.130791 13276 net.cpp:425] loss2/drop_fc <- loss2/fc
I0403 14:26:27.130808 13276 net.cpp:386] loss2/drop_fc -> loss2/fc (in-place)
I0403 14:26:27.130856 13276 net.cpp:141] Setting up loss2/drop_fc
I0403 14:26:27.130878 13276 net.cpp:148] Top shape: 24 1024 (24576)
I0403 14:26:27.130892 13276 net.cpp:156] Memory required for data: 1208417568
I0403 14:26:27.130906 13276 layer_factory.hpp:77] Creating layer loss2/classifier_plantvillage
I0403 14:26:27.130926 13276 net.cpp:91] Creating Layer loss2/classifier_plantvillage
I0403 14:26:27.130942 13276 net.cpp:425] loss2/classifier_plantvillage <- loss2/fc
I0403 14:26:27.130960 13276 net.cpp:399] loss2/classifier_plantvillage -> loss2/classifier_plantvillage
I0403 14:26:27.131348 13276 net.cpp:141] Setting up loss2/classifier_plantvillage
I0403 14:26:27.131372 13276 net.cpp:148] Top shape: 24 38 (912)
I0403 14:26:27.131386 13276 net.cpp:156] Memory required for data: 1208421216
I0403 14:26:27.131419 13276 layer_factory.hpp:77] Creating layer loss2/classifier_plantvillage_loss2/classifier_plantvillage_0_split
I0403 14:26:27.131438 13276 net.cpp:91] Creating Layer loss2/classifier_plantvillage_loss2/classifier_plantvillage_0_split
I0403 14:26:27.131454 13276 net.cpp:425] loss2/classifier_plantvillage_loss2/classifier_plantvillage_0_split <- loss2/classifier_plantvillage
I0403 14:26:27.131472 13276 net.cpp:399] loss2/classifier_plantvillage_loss2/classifier_plantvillage_0_split -> loss2/classifier_plantvillage_loss2/classifier_plantvillage_0_split_0
I0403 14:26:27.131492 13276 net.cpp:399] loss2/classifier_plantvillage_loss2/classifier_plantvillage_0_split -> loss2/classifier_plantvillage_loss2/classifier_plantvillage_0_split_1
I0403 14:26:27.131512 13276 net.cpp:399] loss2/classifier_plantvillage_loss2/classifier_plantvillage_0_split -> loss2/classifier_plantvillage_loss2/classifier_plantvillage_0_split_2
I0403 14:26:27.131592 13276 net.cpp:141] Setting up loss2/classifier_plantvillage_loss2/classifier_plantvillage_0_split
I0403 14:26:27.131616 13276 net.cpp:148] Top shape: 24 38 (912)
I0403 14:26:27.131633 13276 net.cpp:148] Top shape: 24 38 (912)
I0403 14:26:27.131646 13276 net.cpp:148] Top shape: 24 38 (912)
I0403 14:26:27.131659 13276 net.cpp:156] Memory required for data: 1208432160
I0403 14:26:27.131672 13276 layer_factory.hpp:77] Creating layer inception_4e/1x1
I0403 14:26:27.131691 13276 net.cpp:91] Creating Layer inception_4e/1x1
I0403 14:26:27.131707 13276 net.cpp:425] inception_4e/1x1 <- inception_4d/output_inception_4d/output_0_split_1
I0403 14:26:27.131726 13276 net.cpp:399] inception_4e/1x1 -> inception_4e/1x1
I0403 14:26:27.133476 13276 net.cpp:141] Setting up inception_4e/1x1
I0403 14:26:27.133503 13276 net.cpp:148] Top shape: 24 256 14 14 (1204224)
I0403 14:26:27.133517 13276 net.cpp:156] Memory required for data: 1213249056
I0403 14:26:27.133534 13276 layer_factory.hpp:77] Creating layer inception_4e/relu_1x1
I0403 14:26:27.133553 13276 net.cpp:91] Creating Layer inception_4e/relu_1x1
I0403 14:26:27.133571 13276 net.cpp:425] inception_4e/relu_1x1 <- inception_4e/1x1
I0403 14:26:27.133591 13276 net.cpp:386] inception_4e/relu_1x1 -> inception_4e/1x1 (in-place)
I0403 14:26:27.133879 13276 net.cpp:141] Setting up inception_4e/relu_1x1
I0403 14:26:27.133904 13276 net.cpp:148] Top shape: 24 256 14 14 (1204224)
I0403 14:26:27.133919 13276 net.cpp:156] Memory required for data: 1218065952
I0403 14:26:27.133932 13276 layer_factory.hpp:77] Creating layer inception_4e/3x3_reduce
I0403 14:26:27.133954 13276 net.cpp:91] Creating Layer inception_4e/3x3_reduce
I0403 14:26:27.133970 13276 net.cpp:425] inception_4e/3x3_reduce <- inception_4d/output_inception_4d/output_0_split_2
I0403 14:26:27.133991 13276 net.cpp:399] inception_4e/3x3_reduce -> inception_4e/3x3_reduce
I0403 14:26:27.136059 13276 net.cpp:141] Setting up inception_4e/3x3_reduce
I0403 14:26:27.136090 13276 net.cpp:148] Top shape: 24 160 14 14 (752640)
I0403 14:26:27.136104 13276 net.cpp:156] Memory required for data: 1221076512
I0403 14:26:27.136122 13276 layer_factory.hpp:77] Creating layer inception_4e/relu_3x3_reduce
I0403 14:26:27.136139 13276 net.cpp:91] Creating Layer inception_4e/relu_3x3_reduce
I0403 14:26:27.136153 13276 net.cpp:425] inception_4e/relu_3x3_reduce <- inception_4e/3x3_reduce
I0403 14:26:27.136173 13276 net.cpp:386] inception_4e/relu_3x3_reduce -> inception_4e/3x3_reduce (in-place)
I0403 14:26:27.136351 13276 net.cpp:141] Setting up inception_4e/relu_3x3_reduce
I0403 14:26:27.136375 13276 net.cpp:148] Top shape: 24 160 14 14 (752640)
I0403 14:26:27.136389 13276 net.cpp:156] Memory required for data: 1224087072
I0403 14:26:27.136404 13276 layer_factory.hpp:77] Creating layer inception_4e/3x3
I0403 14:26:27.136423 13276 net.cpp:91] Creating Layer inception_4e/3x3
I0403 14:26:27.136440 13276 net.cpp:425] inception_4e/3x3 <- inception_4e/3x3_reduce
I0403 14:26:27.136461 13276 net.cpp:399] inception_4e/3x3 -> inception_4e/3x3
I0403 14:26:27.141445 13276 net.cpp:141] Setting up inception_4e/3x3
I0403 14:26:27.141486 13276 net.cpp:148] Top shape: 24 320 14 14 (1505280)
I0403 14:26:27.141502 13276 net.cpp:156] Memory required for data: 1230108192
I0403 14:26:27.141520 13276 layer_factory.hpp:77] Creating layer inception_4e/relu_3x3
I0403 14:26:27.141542 13276 net.cpp:91] Creating Layer inception_4e/relu_3x3
I0403 14:26:27.141559 13276 net.cpp:425] inception_4e/relu_3x3 <- inception_4e/3x3
I0403 14:26:27.141582 13276 net.cpp:386] inception_4e/relu_3x3 -> inception_4e/3x3 (in-place)
I0403 14:26:27.141881 13276 net.cpp:141] Setting up inception_4e/relu_3x3
I0403 14:26:27.141907 13276 net.cpp:148] Top shape: 24 320 14 14 (1505280)
I0403 14:26:27.141922 13276 net.cpp:156] Memory required for data: 1236129312
I0403 14:26:27.141937 13276 layer_factory.hpp:77] Creating layer inception_4e/5x5_reduce
I0403 14:26:27.141960 13276 net.cpp:91] Creating Layer inception_4e/5x5_reduce
I0403 14:26:27.141978 13276 net.cpp:425] inception_4e/5x5_reduce <- inception_4d/output_inception_4d/output_0_split_3
I0403 14:26:27.142001 13276 net.cpp:399] inception_4e/5x5_reduce -> inception_4e/5x5_reduce
I0403 14:26:27.143066 13276 net.cpp:141] Setting up inception_4e/5x5_reduce
I0403 14:26:27.143093 13276 net.cpp:148] Top shape: 24 32 14 14 (150528)
I0403 14:26:27.143108 13276 net.cpp:156] Memory required for data: 1236731424
I0403 14:26:27.143126 13276 layer_factory.hpp:77] Creating layer inception_4e/relu_5x5_reduce
I0403 14:26:27.143143 13276 net.cpp:91] Creating Layer inception_4e/relu_5x5_reduce
I0403 14:26:27.143159 13276 net.cpp:425] inception_4e/relu_5x5_reduce <- inception_4e/5x5_reduce
I0403 14:26:27.143178 13276 net.cpp:386] inception_4e/relu_5x5_reduce -> inception_4e/5x5_reduce (in-place)
I0403 14:26:27.143476 13276 net.cpp:141] Setting up inception_4e/relu_5x5_reduce
I0403 14:26:27.143501 13276 net.cpp:148] Top shape: 24 32 14 14 (150528)
I0403 14:26:27.143515 13276 net.cpp:156] Memory required for data: 1237333536
I0403 14:26:27.143530 13276 layer_factory.hpp:77] Creating layer inception_4e/5x5
I0403 14:26:27.143566 13276 net.cpp:91] Creating Layer inception_4e/5x5
I0403 14:26:27.143589 13276 net.cpp:425] inception_4e/5x5 <- inception_4e/5x5_reduce
I0403 14:26:27.143609 13276 net.cpp:399] inception_4e/5x5 -> inception_4e/5x5
I0403 14:26:27.145468 13276 net.cpp:141] Setting up inception_4e/5x5
I0403 14:26:27.145499 13276 net.cpp:148] Top shape: 24 128 14 14 (602112)
I0403 14:26:27.145515 13276 net.cpp:156] Memory required for data: 1239741984
I0403 14:26:27.145534 13276 layer_factory.hpp:77] Creating layer inception_4e/relu_5x5
I0403 14:26:27.145550 13276 net.cpp:91] Creating Layer inception_4e/relu_5x5
I0403 14:26:27.145566 13276 net.cpp:425] inception_4e/relu_5x5 <- inception_4e/5x5
I0403 14:26:27.145587 13276 net.cpp:386] inception_4e/relu_5x5 -> inception_4e/5x5 (in-place)
I0403 14:26:27.145787 13276 net.cpp:141] Setting up inception_4e/relu_5x5
I0403 14:26:27.145810 13276 net.cpp:148] Top shape: 24 128 14 14 (602112)
I0403 14:26:27.145825 13276 net.cpp:156] Memory required for data: 1242150432
I0403 14:26:27.145838 13276 layer_factory.hpp:77] Creating layer inception_4e/pool
I0403 14:26:27.145855 13276 net.cpp:91] Creating Layer inception_4e/pool
I0403 14:26:27.145871 13276 net.cpp:425] inception_4e/pool <- inception_4d/output_inception_4d/output_0_split_4
I0403 14:26:27.145891 13276 net.cpp:399] inception_4e/pool -> inception_4e/pool
I0403 14:26:27.145959 13276 net.cpp:141] Setting up inception_4e/pool
I0403 14:26:27.145985 13276 net.cpp:148] Top shape: 24 528 14 14 (2483712)
I0403 14:26:27.146001 13276 net.cpp:156] Memory required for data: 1252085280
I0403 14:26:27.146014 13276 layer_factory.hpp:77] Creating layer inception_4e/pool_proj
I0403 14:26:27.146035 13276 net.cpp:91] Creating Layer inception_4e/pool_proj
I0403 14:26:27.146054 13276 net.cpp:425] inception_4e/pool_proj <- inception_4e/pool
I0403 14:26:27.146071 13276 net.cpp:399] inception_4e/pool_proj -> inception_4e/pool_proj
I0403 14:26:27.147606 13276 net.cpp:141] Setting up inception_4e/pool_proj
I0403 14:26:27.147636 13276 net.cpp:148] Top shape: 24 128 14 14 (602112)
I0403 14:26:27.147665 13276 net.cpp:156] Memory required for data: 1254493728
I0403 14:26:27.147685 13276 layer_factory.hpp:77] Creating layer inception_4e/relu_pool_proj
I0403 14:26:27.147701 13276 net.cpp:91] Creating Layer inception_4e/relu_pool_proj
I0403 14:26:27.147717 13276 net.cpp:425] inception_4e/relu_pool_proj <- inception_4e/pool_proj
I0403 14:26:27.147733 13276 net.cpp:386] inception_4e/relu_pool_proj -> inception_4e/pool_proj (in-place)
I0403 14:26:27.148026 13276 net.cpp:141] Setting up inception_4e/relu_pool_proj
I0403 14:26:27.148054 13276 net.cpp:148] Top shape: 24 128 14 14 (602112)
I0403 14:26:27.148069 13276 net.cpp:156] Memory required for data: 1256902176
I0403 14:26:27.148084 13276 layer_factory.hpp:77] Creating layer inception_4e/output
I0403 14:26:27.148102 13276 net.cpp:91] Creating Layer inception_4e/output
I0403 14:26:27.148116 13276 net.cpp:425] inception_4e/output <- inception_4e/1x1
I0403 14:26:27.148134 13276 net.cpp:425] inception_4e/output <- inception_4e/3x3
I0403 14:26:27.148150 13276 net.cpp:425] inception_4e/output <- inception_4e/5x5
I0403 14:26:27.148165 13276 net.cpp:425] inception_4e/output <- inception_4e/pool_proj
I0403 14:26:27.148181 13276 net.cpp:399] inception_4e/output -> inception_4e/output
I0403 14:26:27.148231 13276 net.cpp:141] Setting up inception_4e/output
I0403 14:26:27.148254 13276 net.cpp:148] Top shape: 24 832 14 14 (3913728)
I0403 14:26:27.148268 13276 net.cpp:156] Memory required for data: 1272557088
I0403 14:26:27.148283 13276 layer_factory.hpp:77] Creating layer pool4/3x3_s2
I0403 14:26:27.148304 13276 net.cpp:91] Creating Layer pool4/3x3_s2
I0403 14:26:27.148321 13276 net.cpp:425] pool4/3x3_s2 <- inception_4e/output
I0403 14:26:27.148339 13276 net.cpp:399] pool4/3x3_s2 -> pool4/3x3_s2
I0403 14:26:27.148406 13276 net.cpp:141] Setting up pool4/3x3_s2
I0403 14:26:27.148428 13276 net.cpp:148] Top shape: 24 832 7 7 (978432)
I0403 14:26:27.148442 13276 net.cpp:156] Memory required for data: 1276470816
I0403 14:26:27.148457 13276 layer_factory.hpp:77] Creating layer pool4/3x3_s2_pool4/3x3_s2_0_split
I0403 14:26:27.148473 13276 net.cpp:91] Creating Layer pool4/3x3_s2_pool4/3x3_s2_0_split
I0403 14:26:27.148488 13276 net.cpp:425] pool4/3x3_s2_pool4/3x3_s2_0_split <- pool4/3x3_s2
I0403 14:26:27.148505 13276 net.cpp:399] pool4/3x3_s2_pool4/3x3_s2_0_split -> pool4/3x3_s2_pool4/3x3_s2_0_split_0
I0403 14:26:27.148525 13276 net.cpp:399] pool4/3x3_s2_pool4/3x3_s2_0_split -> pool4/3x3_s2_pool4/3x3_s2_0_split_1
I0403 14:26:27.148545 13276 net.cpp:399] pool4/3x3_s2_pool4/3x3_s2_0_split -> pool4/3x3_s2_pool4/3x3_s2_0_split_2
I0403 14:26:27.148564 13276 net.cpp:399] pool4/3x3_s2_pool4/3x3_s2_0_split -> pool4/3x3_s2_pool4/3x3_s2_0_split_3
I0403 14:26:27.148680 13276 net.cpp:141] Setting up pool4/3x3_s2_pool4/3x3_s2_0_split
I0403 14:26:27.148705 13276 net.cpp:148] Top shape: 24 832 7 7 (978432)
I0403 14:26:27.148721 13276 net.cpp:148] Top shape: 24 832 7 7 (978432)
I0403 14:26:27.148736 13276 net.cpp:148] Top shape: 24 832 7 7 (978432)
I0403 14:26:27.148752 13276 net.cpp:148] Top shape: 24 832 7 7 (978432)
I0403 14:26:27.148766 13276 net.cpp:156] Memory required for data: 1292125728
I0403 14:26:27.148780 13276 layer_factory.hpp:77] Creating layer inception_5a/1x1
I0403 14:26:27.148804 13276 net.cpp:91] Creating Layer inception_5a/1x1
I0403 14:26:27.148823 13276 net.cpp:425] inception_5a/1x1 <- pool4/3x3_s2_pool4/3x3_s2_0_split_0
I0403 14:26:27.148841 13276 net.cpp:399] inception_5a/1x1 -> inception_5a/1x1
I0403 14:26:27.151782 13276 net.cpp:141] Setting up inception_5a/1x1
I0403 14:26:27.151814 13276 net.cpp:148] Top shape: 24 256 7 7 (301056)
I0403 14:26:27.151831 13276 net.cpp:156] Memory required for data: 1293329952
I0403 14:26:27.151849 13276 layer_factory.hpp:77] Creating layer inception_5a/relu_1x1
I0403 14:26:27.151867 13276 net.cpp:91] Creating Layer inception_5a/relu_1x1
I0403 14:26:27.151883 13276 net.cpp:425] inception_5a/relu_1x1 <- inception_5a/1x1
I0403 14:26:27.151902 13276 net.cpp:386] inception_5a/relu_1x1 -> inception_5a/1x1 (in-place)
I0403 14:26:27.152221 13276 net.cpp:141] Setting up inception_5a/relu_1x1
I0403 14:26:27.152251 13276 net.cpp:148] Top shape: 24 256 7 7 (301056)
I0403 14:26:27.152266 13276 net.cpp:156] Memory required for data: 1294534176
I0403 14:26:27.152281 13276 layer_factory.hpp:77] Creating layer inception_5a/3x3_reduce
I0403 14:26:27.152305 13276 net.cpp:91] Creating Layer inception_5a/3x3_reduce
I0403 14:26:27.152323 13276 net.cpp:425] inception_5a/3x3_reduce <- pool4/3x3_s2_pool4/3x3_s2_0_split_1
I0403 14:26:27.152343 13276 net.cpp:399] inception_5a/3x3_reduce -> inception_5a/3x3_reduce
I0403 14:26:27.154886 13276 net.cpp:141] Setting up inception_5a/3x3_reduce
I0403 14:26:27.154916 13276 net.cpp:148] Top shape: 24 160 7 7 (188160)
I0403 14:26:27.154932 13276 net.cpp:156] Memory required for data: 1295286816
I0403 14:26:27.154949 13276 layer_factory.hpp:77] Creating layer inception_5a/relu_3x3_reduce
I0403 14:26:27.154970 13276 net.cpp:91] Creating Layer inception_5a/relu_3x3_reduce
I0403 14:26:27.154988 13276 net.cpp:425] inception_5a/relu_3x3_reduce <- inception_5a/3x3_reduce
I0403 14:26:27.155004 13276 net.cpp:386] inception_5a/relu_3x3_reduce -> inception_5a/3x3_reduce (in-place)
I0403 14:26:27.155196 13276 net.cpp:141] Setting up inception_5a/relu_3x3_reduce
I0403 14:26:27.155223 13276 net.cpp:148] Top shape: 24 160 7 7 (188160)
I0403 14:26:27.155239 13276 net.cpp:156] Memory required for data: 1296039456
I0403 14:26:27.155254 13276 layer_factory.hpp:77] Creating layer inception_5a/3x3
I0403 14:26:27.155277 13276 net.cpp:91] Creating Layer inception_5a/3x3
I0403 14:26:27.155297 13276 net.cpp:425] inception_5a/3x3 <- inception_5a/3x3_reduce
I0403 14:26:27.155314 13276 net.cpp:399] inception_5a/3x3 -> inception_5a/3x3
I0403 14:26:27.160502 13276 net.cpp:141] Setting up inception_5a/3x3
I0403 14:26:27.160536 13276 net.cpp:148] Top shape: 24 320 7 7 (376320)
I0403 14:26:27.160552 13276 net.cpp:156] Memory required for data: 1297544736
I0403 14:26:27.160573 13276 layer_factory.hpp:77] Creating layer inception_5a/relu_3x3
I0403 14:26:27.160593 13276 net.cpp:91] Creating Layer inception_5a/relu_3x3
I0403 14:26:27.160609 13276 net.cpp:425] inception_5a/relu_3x3 <- inception_5a/3x3
I0403 14:26:27.160627 13276 net.cpp:386] inception_5a/relu_3x3 -> inception_5a/3x3 (in-place)
I0403 14:26:27.160933 13276 net.cpp:141] Setting up inception_5a/relu_3x3
I0403 14:26:27.160964 13276 net.cpp:148] Top shape: 24 320 7 7 (376320)
I0403 14:26:27.160979 13276 net.cpp:156] Memory required for data: 1299050016
I0403 14:26:27.160994 13276 layer_factory.hpp:77] Creating layer inception_5a/5x5_reduce
I0403 14:26:27.161016 13276 net.cpp:91] Creating Layer inception_5a/5x5_reduce
I0403 14:26:27.161033 13276 net.cpp:425] inception_5a/5x5_reduce <- pool4/3x3_s2_pool4/3x3_s2_0_split_2
I0403 14:26:27.161053 13276 net.cpp:399] inception_5a/5x5_reduce -> inception_5a/5x5_reduce
I0403 14:26:27.162258 13276 net.cpp:141] Setting up inception_5a/5x5_reduce
I0403 14:26:27.162289 13276 net.cpp:148] Top shape: 24 32 7 7 (37632)
I0403 14:26:27.162307 13276 net.cpp:156] Memory required for data: 1299200544
I0403 14:26:27.162324 13276 layer_factory.hpp:77] Creating layer inception_5a/relu_5x5_reduce
I0403 14:26:27.162343 13276 net.cpp:91] Creating Layer inception_5a/relu_5x5_reduce
I0403 14:26:27.162358 13276 net.cpp:425] inception_5a/relu_5x5_reduce <- inception_5a/5x5_reduce
I0403 14:26:27.162379 13276 net.cpp:386] inception_5a/relu_5x5_reduce -> inception_5a/5x5_reduce (in-place)
I0403 14:26:27.162688 13276 net.cpp:141] Setting up inception_5a/relu_5x5_reduce
I0403 14:26:27.162714 13276 net.cpp:148] Top shape: 24 32 7 7 (37632)
I0403 14:26:27.162729 13276 net.cpp:156] Memory required for data: 1299351072
I0403 14:26:27.162744 13276 layer_factory.hpp:77] Creating layer inception_5a/5x5
I0403 14:26:27.162767 13276 net.cpp:91] Creating Layer inception_5a/5x5
I0403 14:26:27.162786 13276 net.cpp:425] inception_5a/5x5 <- inception_5a/5x5_reduce
I0403 14:26:27.162806 13276 net.cpp:399] inception_5a/5x5 -> inception_5a/5x5
I0403 14:26:27.164584 13276 net.cpp:141] Setting up inception_5a/5x5
I0403 14:26:27.164633 13276 net.cpp:148] Top shape: 24 128 7 7 (150528)
I0403 14:26:27.164649 13276 net.cpp:156] Memory required for data: 1299953184
I0403 14:26:27.164667 13276 layer_factory.hpp:77] Creating layer inception_5a/relu_5x5
I0403 14:26:27.164685 13276 net.cpp:91] Creating Layer inception_5a/relu_5x5
I0403 14:26:27.164702 13276 net.cpp:425] inception_5a/relu_5x5 <- inception_5a/5x5
I0403 14:26:27.164718 13276 net.cpp:386] inception_5a/relu_5x5 -> inception_5a/5x5 (in-place)
I0403 14:26:27.164917 13276 net.cpp:141] Setting up inception_5a/relu_5x5
I0403 14:26:27.164943 13276 net.cpp:148] Top shape: 24 128 7 7 (150528)
I0403 14:26:27.164958 13276 net.cpp:156] Memory required for data: 1300555296
I0403 14:26:27.164973 13276 layer_factory.hpp:77] Creating layer inception_5a/pool
I0403 14:26:27.164990 13276 net.cpp:91] Creating Layer inception_5a/pool
I0403 14:26:27.165006 13276 net.cpp:425] inception_5a/pool <- pool4/3x3_s2_pool4/3x3_s2_0_split_3
I0403 14:26:27.165026 13276 net.cpp:399] inception_5a/pool -> inception_5a/pool
I0403 14:26:27.165097 13276 net.cpp:141] Setting up inception_5a/pool
I0403 14:26:27.165124 13276 net.cpp:148] Top shape: 24 832 7 7 (978432)
I0403 14:26:27.165139 13276 net.cpp:156] Memory required for data: 1304469024
I0403 14:26:27.165154 13276 layer_factory.hpp:77] Creating layer inception_5a/pool_proj
I0403 14:26:27.165176 13276 net.cpp:91] Creating Layer inception_5a/pool_proj
I0403 14:26:27.165194 13276 net.cpp:425] inception_5a/pool_proj <- inception_5a/pool
I0403 14:26:27.165212 13276 net.cpp:399] inception_5a/pool_proj -> inception_5a/pool_proj
I0403 14:26:27.167609 13276 net.cpp:141] Setting up inception_5a/pool_proj
I0403 14:26:27.167639 13276 net.cpp:148] Top shape: 24 128 7 7 (150528)
I0403 14:26:27.167654 13276 net.cpp:156] Memory required for data: 1305071136
I0403 14:26:27.167671 13276 layer_factory.hpp:77] Creating layer inception_5a/relu_pool_proj
I0403 14:26:27.167692 13276 net.cpp:91] Creating Layer inception_5a/relu_pool_proj
I0403 14:26:27.167709 13276 net.cpp:425] inception_5a/relu_pool_proj <- inception_5a/pool_proj
I0403 14:26:27.167726 13276 net.cpp:386] inception_5a/relu_pool_proj -> inception_5a/pool_proj (in-place)
I0403 14:26:27.168023 13276 net.cpp:141] Setting up inception_5a/relu_pool_proj
I0403 14:26:27.168050 13276 net.cpp:148] Top shape: 24 128 7 7 (150528)
I0403 14:26:27.168063 13276 net.cpp:156] Memory required for data: 1305673248
I0403 14:26:27.168078 13276 layer_factory.hpp:77] Creating layer inception_5a/output
I0403 14:26:27.168097 13276 net.cpp:91] Creating Layer inception_5a/output
I0403 14:26:27.168113 13276 net.cpp:425] inception_5a/output <- inception_5a/1x1
I0403 14:26:27.168129 13276 net.cpp:425] inception_5a/output <- inception_5a/3x3
I0403 14:26:27.168145 13276 net.cpp:425] inception_5a/output <- inception_5a/5x5
I0403 14:26:27.168160 13276 net.cpp:425] inception_5a/output <- inception_5a/pool_proj
I0403 14:26:27.168176 13276 net.cpp:399] inception_5a/output -> inception_5a/output
I0403 14:26:27.168227 13276 net.cpp:141] Setting up inception_5a/output
I0403 14:26:27.168251 13276 net.cpp:148] Top shape: 24 832 7 7 (978432)
I0403 14:26:27.168264 13276 net.cpp:156] Memory required for data: 1309586976
I0403 14:26:27.168278 13276 layer_factory.hpp:77] Creating layer inception_5a/output_inception_5a/output_0_split
I0403 14:26:27.168297 13276 net.cpp:91] Creating Layer inception_5a/output_inception_5a/output_0_split
I0403 14:26:27.168311 13276 net.cpp:425] inception_5a/output_inception_5a/output_0_split <- inception_5a/output
I0403 14:26:27.168330 13276 net.cpp:399] inception_5a/output_inception_5a/output_0_split -> inception_5a/output_inception_5a/output_0_split_0
I0403 14:26:27.168351 13276 net.cpp:399] inception_5a/output_inception_5a/output_0_split -> inception_5a/output_inception_5a/output_0_split_1
I0403 14:26:27.168371 13276 net.cpp:399] inception_5a/output_inception_5a/output_0_split -> inception_5a/output_inception_5a/output_0_split_2
I0403 14:26:27.168390 13276 net.cpp:399] inception_5a/output_inception_5a/output_0_split -> inception_5a/output_inception_5a/output_0_split_3
I0403 14:26:27.168503 13276 net.cpp:141] Setting up inception_5a/output_inception_5a/output_0_split
I0403 14:26:27.168529 13276 net.cpp:148] Top shape: 24 832 7 7 (978432)
I0403 14:26:27.168545 13276 net.cpp:148] Top shape: 24 832 7 7 (978432)
I0403 14:26:27.168560 13276 net.cpp:148] Top shape: 24 832 7 7 (978432)
I0403 14:26:27.168581 13276 net.cpp:148] Top shape: 24 832 7 7 (978432)
I0403 14:26:27.168596 13276 net.cpp:156] Memory required for data: 1325241888
I0403 14:26:27.168608 13276 layer_factory.hpp:77] Creating layer inception_5b/1x1
I0403 14:26:27.168630 13276 net.cpp:91] Creating Layer inception_5b/1x1
I0403 14:26:27.168648 13276 net.cpp:425] inception_5b/1x1 <- inception_5a/output_inception_5a/output_0_split_0
I0403 14:26:27.168668 13276 net.cpp:399] inception_5b/1x1 -> inception_5b/1x1
I0403 14:26:27.172466 13276 net.cpp:141] Setting up inception_5b/1x1
I0403 14:26:27.172497 13276 net.cpp:148] Top shape: 24 384 7 7 (451584)
I0403 14:26:27.172513 13276 net.cpp:156] Memory required for data: 1327048224
I0403 14:26:27.172530 13276 layer_factory.hpp:77] Creating layer inception_5b/relu_1x1
I0403 14:26:27.172550 13276 net.cpp:91] Creating Layer inception_5b/relu_1x1
I0403 14:26:27.172570 13276 net.cpp:425] inception_5b/relu_1x1 <- inception_5b/1x1
I0403 14:26:27.172590 13276 net.cpp:386] inception_5b/relu_1x1 -> inception_5b/1x1 (in-place)
I0403 14:26:27.172900 13276 net.cpp:141] Setting up inception_5b/relu_1x1
I0403 14:26:27.172926 13276 net.cpp:148] Top shape: 24 384 7 7 (451584)
I0403 14:26:27.172940 13276 net.cpp:156] Memory required for data: 1328854560
I0403 14:26:27.172955 13276 layer_factory.hpp:77] Creating layer inception_5b/3x3_reduce
I0403 14:26:27.172977 13276 net.cpp:91] Creating Layer inception_5b/3x3_reduce
I0403 14:26:27.172994 13276 net.cpp:425] inception_5b/3x3_reduce <- inception_5a/output_inception_5a/output_0_split_1
I0403 14:26:27.173015 13276 net.cpp:399] inception_5b/3x3_reduce -> inception_5b/3x3_reduce
I0403 14:26:27.175725 13276 net.cpp:141] Setting up inception_5b/3x3_reduce
I0403 14:26:27.175755 13276 net.cpp:148] Top shape: 24 192 7 7 (225792)
I0403 14:26:27.175771 13276 net.cpp:156] Memory required for data: 1329757728
I0403 14:26:27.175789 13276 layer_factory.hpp:77] Creating layer inception_5b/relu_3x3_reduce
I0403 14:26:27.175808 13276 net.cpp:91] Creating Layer inception_5b/relu_3x3_reduce
I0403 14:26:27.175825 13276 net.cpp:425] inception_5b/relu_3x3_reduce <- inception_5b/3x3_reduce
I0403 14:26:27.175843 13276 net.cpp:386] inception_5b/relu_3x3_reduce -> inception_5b/3x3_reduce (in-place)
I0403 14:26:27.176035 13276 net.cpp:141] Setting up inception_5b/relu_3x3_reduce
I0403 14:26:27.176061 13276 net.cpp:148] Top shape: 24 192 7 7 (225792)
I0403 14:26:27.176076 13276 net.cpp:156] Memory required for data: 1330660896
I0403 14:26:27.176090 13276 layer_factory.hpp:77] Creating layer inception_5b/3x3
I0403 14:26:27.176112 13276 net.cpp:91] Creating Layer inception_5b/3x3
I0403 14:26:27.176129 13276 net.cpp:425] inception_5b/3x3 <- inception_5b/3x3_reduce
I0403 14:26:27.176151 13276 net.cpp:399] inception_5b/3x3 -> inception_5b/3x3
I0403 14:26:27.182809 13276 net.cpp:141] Setting up inception_5b/3x3
I0403 14:26:27.182837 13276 net.cpp:148] Top shape: 24 384 7 7 (451584)
I0403 14:26:27.182852 13276 net.cpp:156] Memory required for data: 1332467232
I0403 14:26:27.182869 13276 layer_factory.hpp:77] Creating layer inception_5b/relu_3x3
I0403 14:26:27.182889 13276 net.cpp:91] Creating Layer inception_5b/relu_3x3
I0403 14:26:27.182906 13276 net.cpp:425] inception_5b/relu_3x3 <- inception_5b/3x3
I0403 14:26:27.182922 13276 net.cpp:386] inception_5b/relu_3x3 -> inception_5b/3x3 (in-place)
I0403 14:26:27.183221 13276 net.cpp:141] Setting up inception_5b/relu_3x3
I0403 14:26:27.183248 13276 net.cpp:148] Top shape: 24 384 7 7 (451584)
I0403 14:26:27.183261 13276 net.cpp:156] Memory required for data: 1334273568
I0403 14:26:27.183274 13276 layer_factory.hpp:77] Creating layer inception_5b/5x5_reduce
I0403 14:26:27.183313 13276 net.cpp:91] Creating Layer inception_5b/5x5_reduce
I0403 14:26:27.183331 13276 net.cpp:425] inception_5b/5x5_reduce <- inception_5a/output_inception_5a/output_0_split_2
I0403 14:26:27.183351 13276 net.cpp:399] inception_5b/5x5_reduce -> inception_5b/5x5_reduce
I0403 14:26:27.184612 13276 net.cpp:141] Setting up inception_5b/5x5_reduce
I0403 14:26:27.184638 13276 net.cpp:148] Top shape: 24 48 7 7 (56448)
I0403 14:26:27.184656 13276 net.cpp:156] Memory required for data: 1334499360
I0403 14:26:27.184674 13276 layer_factory.hpp:77] Creating layer inception_5b/relu_5x5_reduce
I0403 14:26:27.184690 13276 net.cpp:91] Creating Layer inception_5b/relu_5x5_reduce
I0403 14:26:27.184706 13276 net.cpp:425] inception_5b/relu_5x5_reduce <- inception_5b/5x5_reduce
I0403 14:26:27.184722 13276 net.cpp:386] inception_5b/relu_5x5_reduce -> inception_5b/5x5_reduce (in-place)
I0403 14:26:27.185093 13276 net.cpp:141] Setting up inception_5b/relu_5x5_reduce
I0403 14:26:27.185119 13276 net.cpp:148] Top shape: 24 48 7 7 (56448)
I0403 14:26:27.185132 13276 net.cpp:156] Memory required for data: 1334725152
I0403 14:26:27.185147 13276 layer_factory.hpp:77] Creating layer inception_5b/5x5
I0403 14:26:27.185165 13276 net.cpp:91] Creating Layer inception_5b/5x5
I0403 14:26:27.185183 13276 net.cpp:425] inception_5b/5x5 <- inception_5b/5x5_reduce
I0403 14:26:27.185200 13276 net.cpp:399] inception_5b/5x5 -> inception_5b/5x5
I0403 14:26:27.187242 13276 net.cpp:141] Setting up inception_5b/5x5
I0403 14:26:27.187278 13276 net.cpp:148] Top shape: 24 128 7 7 (150528)
I0403 14:26:27.187295 13276 net.cpp:156] Memory required for data: 1335327264
I0403 14:26:27.187314 13276 layer_factory.hpp:77] Creating layer inception_5b/relu_5x5
I0403 14:26:27.187330 13276 net.cpp:91] Creating Layer inception_5b/relu_5x5
I0403 14:26:27.187345 13276 net.cpp:425] inception_5b/relu_5x5 <- inception_5b/5x5
I0403 14:26:27.187363 13276 net.cpp:386] inception_5b/relu_5x5 -> inception_5b/5x5 (in-place)
I0403 14:26:27.187551 13276 net.cpp:141] Setting up inception_5b/relu_5x5
I0403 14:26:27.187578 13276 net.cpp:148] Top shape: 24 128 7 7 (150528)
I0403 14:26:27.187593 13276 net.cpp:156] Memory required for data: 1335929376
I0403 14:26:27.187608 13276 layer_factory.hpp:77] Creating layer inception_5b/pool
I0403 14:26:27.187625 13276 net.cpp:91] Creating Layer inception_5b/pool
I0403 14:26:27.187639 13276 net.cpp:425] inception_5b/pool <- inception_5a/output_inception_5a/output_0_split_3
I0403 14:26:27.187659 13276 net.cpp:399] inception_5b/pool -> inception_5b/pool
I0403 14:26:27.187729 13276 net.cpp:141] Setting up inception_5b/pool
I0403 14:26:27.187752 13276 net.cpp:148] Top shape: 24 832 7 7 (978432)
I0403 14:26:27.187767 13276 net.cpp:156] Memory required for data: 1339843104
I0403 14:26:27.187780 13276 layer_factory.hpp:77] Creating layer inception_5b/pool_proj
I0403 14:26:27.187803 13276 net.cpp:91] Creating Layer inception_5b/pool_proj
I0403 14:26:27.187819 13276 net.cpp:425] inception_5b/pool_proj <- inception_5b/pool
I0403 14:26:27.187837 13276 net.cpp:399] inception_5b/pool_proj -> inception_5b/pool_proj
I0403 14:26:27.190170 13276 net.cpp:141] Setting up inception_5b/pool_proj
I0403 14:26:27.190201 13276 net.cpp:148] Top shape: 24 128 7 7 (150528)
I0403 14:26:27.190215 13276 net.cpp:156] Memory required for data: 1340445216
I0403 14:26:27.190232 13276 layer_factory.hpp:77] Creating layer inception_5b/relu_pool_proj
I0403 14:26:27.190249 13276 net.cpp:91] Creating Layer inception_5b/relu_pool_proj
I0403 14:26:27.190265 13276 net.cpp:425] inception_5b/relu_pool_proj <- inception_5b/pool_proj
I0403 14:26:27.190281 13276 net.cpp:386] inception_5b/relu_pool_proj -> inception_5b/pool_proj (in-place)
I0403 14:26:27.190583 13276 net.cpp:141] Setting up inception_5b/relu_pool_proj
I0403 14:26:27.190611 13276 net.cpp:148] Top shape: 24 128 7 7 (150528)
I0403 14:26:27.190628 13276 net.cpp:156] Memory required for data: 1341047328
I0403 14:26:27.190641 13276 layer_factory.hpp:77] Creating layer inception_5b/output
I0403 14:26:27.190657 13276 net.cpp:91] Creating Layer inception_5b/output
I0403 14:26:27.190687 13276 net.cpp:425] inception_5b/output <- inception_5b/1x1
I0403 14:26:27.190704 13276 net.cpp:425] inception_5b/output <- inception_5b/3x3
I0403 14:26:27.190719 13276 net.cpp:425] inception_5b/output <- inception_5b/5x5
I0403 14:26:27.190734 13276 net.cpp:425] inception_5b/output <- inception_5b/pool_proj
I0403 14:26:27.190752 13276 net.cpp:399] inception_5b/output -> inception_5b/output
I0403 14:26:27.190805 13276 net.cpp:141] Setting up inception_5b/output
I0403 14:26:27.190827 13276 net.cpp:148] Top shape: 24 1024 7 7 (1204224)
I0403 14:26:27.190841 13276 net.cpp:156] Memory required for data: 1345864224
I0403 14:26:27.190855 13276 layer_factory.hpp:77] Creating layer pool5/7x7_s1
I0403 14:26:27.190873 13276 net.cpp:91] Creating Layer pool5/7x7_s1
I0403 14:26:27.190889 13276 net.cpp:425] pool5/7x7_s1 <- inception_5b/output
I0403 14:26:27.190906 13276 net.cpp:399] pool5/7x7_s1 -> pool5/7x7_s1
I0403 14:26:27.191117 13276 net.cpp:141] Setting up pool5/7x7_s1
I0403 14:26:27.191143 13276 net.cpp:148] Top shape: 24 1024 1 1 (24576)
I0403 14:26:27.191157 13276 net.cpp:156] Memory required for data: 1345962528
I0403 14:26:27.191171 13276 layer_factory.hpp:77] Creating layer pool5/drop_7x7_s1
I0403 14:26:27.191189 13276 net.cpp:91] Creating Layer pool5/drop_7x7_s1
I0403 14:26:27.191202 13276 net.cpp:425] pool5/drop_7x7_s1 <- pool5/7x7_s1
I0403 14:26:27.191218 13276 net.cpp:386] pool5/drop_7x7_s1 -> pool5/7x7_s1 (in-place)
I0403 14:26:27.191268 13276 net.cpp:141] Setting up pool5/drop_7x7_s1
I0403 14:26:27.191290 13276 net.cpp:148] Top shape: 24 1024 1 1 (24576)
I0403 14:26:27.191303 13276 net.cpp:156] Memory required for data: 1346060832
I0403 14:26:27.191316 13276 layer_factory.hpp:77] Creating layer loss3/classifier_plantvillage
I0403 14:26:27.191337 13276 net.cpp:91] Creating Layer loss3/classifier_plantvillage
I0403 14:26:27.191354 13276 net.cpp:425] loss3/classifier_plantvillage <- pool5/7x7_s1
I0403 14:26:27.191370 13276 net.cpp:399] loss3/classifier_plantvillage -> loss3/classifier_plantvillage
I0403 14:26:27.191790 13276 net.cpp:141] Setting up loss3/classifier_plantvillage
I0403 14:26:27.191814 13276 net.cpp:148] Top shape: 24 38 (912)
I0403 14:26:27.191828 13276 net.cpp:156] Memory required for data: 1346064480
I0403 14:26:27.191844 13276 layer_factory.hpp:77] Creating layer loss3/classifier_plantvillage_loss3/classifier_plantvillage_0_split
I0403 14:26:27.191861 13276 net.cpp:91] Creating Layer loss3/classifier_plantvillage_loss3/classifier_plantvillage_0_split
I0403 14:26:27.191875 13276 net.cpp:425] loss3/classifier_plantvillage_loss3/classifier_plantvillage_0_split <- loss3/classifier_plantvillage
I0403 14:26:27.191895 13276 net.cpp:399] loss3/classifier_plantvillage_loss3/classifier_plantvillage_0_split -> loss3/classifier_plantvillage_loss3/classifier_plantvillage_0_split_0
I0403 14:26:27.191915 13276 net.cpp:399] loss3/classifier_plantvillage_loss3/classifier_plantvillage_0_split -> loss3/classifier_plantvillage_loss3/classifier_plantvillage_0_split_1
I0403 14:26:27.191934 13276 net.cpp:399] loss3/classifier_plantvillage_loss3/classifier_plantvillage_0_split -> loss3/classifier_plantvillage_loss3/classifier_plantvillage_0_split_2
I0403 14:26:27.191953 13276 net.cpp:399] loss3/classifier_plantvillage_loss3/classifier_plantvillage_0_split -> loss3/classifier_plantvillage_loss3/classifier_plantvillage_0_split_3
I0403 14:26:27.192056 13276 net.cpp:141] Setting up loss3/classifier_plantvillage_loss3/classifier_plantvillage_0_split
I0403 14:26:27.192078 13276 net.cpp:148] Top shape: 24 38 (912)
I0403 14:26:27.192093 13276 net.cpp:148] Top shape: 24 38 (912)
I0403 14:26:27.192107 13276 net.cpp:148] Top shape: 24 38 (912)
I0403 14:26:27.192121 13276 net.cpp:148] Top shape: 24 38 (912)
I0403 14:26:27.192134 13276 net.cpp:156] Memory required for data: 1346079072
I0403 14:26:27.192147 13276 layer_factory.hpp:77] Creating layer loss1/loss
I0403 14:26:27.192168 13276 net.cpp:91] Creating Layer loss1/loss
I0403 14:26:27.192184 13276 net.cpp:425] loss1/loss <- loss1/classifier_plantvillage_loss1/classifier_plantvillage_0_split_0
I0403 14:26:27.192214 13276 net.cpp:425] loss1/loss <- label_data_1_split_0
…
