…
I0403 14:53:17.138846 13731 net.cpp:313] The NetState phase (1) differed from the phase (0) specified by a rule in layer data
I0403 14:53:17.139947 13731 net.cpp:49] Initializing net from parameters: 
state {
  phase: TEST
}
layer {
  name: "data"
  type: "Data"
  top: "data"
  top: "label"
  include {
    phase: TEST
  }
  transform_param {
    mirror: false
    crop_size: 224
    mean_file: "/home/mohanty/data/final_dataset/lmdb/color-40-60/mean.binaryproto"
  }
  data_param {
    source: "/home/mohanty/data/final_dataset/lmdb/color-40-60/test_db"
    batch_size: 24
    backend: LMDB
  }
}
layer {
  name: "conv1/7x7_s2"
  type: "Convolution"
  bottom: "data"
  top: "conv1/7x7_s2"
  param {
    lr_mult: 1
    decay_mult: 1
  }
  param {
    lr_mult: 2
    decay_mult: 0
  }
  convolution_param {
    num_output: 64
    pad: 3
    kernel_size: 7
    stride: 2
    weight_filler {
      type: "xavier"
      std: 0.1
    }
    bias_filler {
      type: "constant"
      value: 0.2
    }
  }
}
layer {
  name: "conv1/relu_7x7"
  type: "ReLU"
  bottom: "conv1/7x7_s2"
  top: "conv1/7x7_s2"
}
layer {
  name: "pool1/3x3_s2"
  type: "Pooling"
  bottom: "conv1/7x7_s2"
  top: "pool1/3x3_s2"
  pooling_param {
    pool: MAX
    kernel_size: 3
    stride: 2
  }
}
layer {
  name: "pool1/norm1"
  type: "LRN"
  bottom: "pool1/3x3_s2"
  top: "pool1/norm1"
  lrn_param {
    local_size: 5
    alpha: 0.0001
    beta: 0.75
  }
}
layer {
  name: "conv2/3x3_reduce"
  type: "Convolution"
  bottom: "pool1/norm1"
  top: "conv2/3x3_reduce"
  param {
    lr_mult: 1
    decay_mult: 1
  }
  param {
    lr_mult: 2
    decay_mult: 0
  }
  convolution_param {
    num_output: 64
    kernel_size: 1
    weight_filler {
      type: "xavier"
      std: 0.1
    }
    bias_filler {
      type: "constant"
      value: 0.2
    }
  }
}
layer {
  name: "conv2/relu_3x3_reduce"
  type: "ReLU"
  bottom: "conv2/3x3_reduce"
  top: "conv2/3x3_reduce"
}
layer {
  name: "conv2/3x3"
  type: "Convolution"
  bottom: "conv2/3x3_reduce"
  top: "conv2/3x3"
  param {
    lr_mult: 1
    decay_mult: 1
  }
  param {
    lr_mult: 2
    decay_mult: 0
  }
  convolution_param {
    num_output: 192
    pad: 1
    kernel_size: 3
    weight_filler {
      type: "xavier"
      std: 0.03
    }
    bias_filler {
      type: "constant"
      value: 0.2
    }
  }
}
layer {
  name: "conv2/relu_3x3"
  type: "ReLU"
  bottom: "conv2/3x3"
  top: "conv2/3x3"
}
layer {
  name: "conv2/norm2"
  type: "LRN"
  bottom: "conv2/3x3"
  top: "conv2/norm2"
  lrn_param {
    local_size: 5
    alpha: 0.0001
    beta: 0.75
  }
}
layer {
  name: "pool2/3x3_s2"
  type: "Pooling"
  bottom: "conv2/norm2"
  top: "pool2/3x3_s2"
  pooling_param {
    pool: MAX
    kernel_size: 3
    stride: 2
  }
}
layer {
  name: "inception_3a/1x1"
  type: "Convolution"
  bottom: "pool2/3x3_s2"
  top: "inception_3a/1x1"
  param {
    lr_mult: 1
    decay_mult: 1
  }
  param {
    lr_mult: 2
    decay_mult: 0
  }
  convolution_param {
    num_output: 64
    kernel_size: 1
    weight_filler {
      type: "xavier"
      std: 0.03
    }
    bias_filler {
      type: "constant"
      value: 0.2
    }
  }
}
layer {
  name: "inception_3a/relu_1x1"
  type: "ReLU"
  bottom: "inception_3a/1x1"
  top: "inception_3a/1x1"
}
layer {
  name: "inception_3a/3x3_reduce"
  type: "Convolution"
  bottom: "pool2/3x3_s2"
  top: "inception_3a/3x3_reduce"
  param {
    lr_mult: 1
    decay_mult: 1
  }
  param {
    lr_mult: 2
    decay_mult: 0
  }
  convolution_param {
    num_output: 96
    kernel_size: 1
    weight_filler {
      type: "xavier"
      std: 0.09
    }
    bias_filler {
      type: "constant"
      value: 0.2
    }
  }
}
layer {
  name: "inception_3a/relu_3x3_reduce"
  type: "ReLU"
  bottom: "inception_3a/3x3_reduce"
  top: "inception_3a/3x3_reduce"
}
layer {
  name: "inception_3a/3x3"
  type: "Convolution"
  bottom: "inception_3a/3x3_reduce"
  top: "inception_3a/3x3"
  param {
    lr_mult: 1
    decay_mult: 1
  }
  param {
    lr_mult: 2
    decay_mult: 0
  }
  convolution_param {
    num_output: 128
    pad: 1
    kernel_size: 3
    weight_filler {
      type: "xavier"
      std: 0.03
    }
    bias_filler {
      type: "constant"
      value: 0.2
    }
  }
}
layer {
  name: "inception_3a/relu_3x3"
  type: "ReLU"
  bottom: "inception_3a/3x3"
  top: "inception_3a/3x3"
}
layer {
  name: "inception_3a/5x5_reduce"
  type: "Convolution"
  bottom: "pool2/3x3_s2"
  top: "inception_3a/5x5_reduce"
  param {
    lr_mult: 1
    decay_mult: 1
  }
  param {
    lr_mult: 2
    decay_mult: 0
  }
  convolution_param {
    num_output: 16
    kernel_size: 1
    weight_filler {
      type: "xavier"
      std: 0.2
    }
    bias_filler {
      type: "constant"
      value: 0.2
    }
  }
}
layer {
  name: "inception_3a/relu_5x5_reduce"
  type: "ReLU"
  bottom: "inception_3a/5x5_reduce"
  top: "inception_3a/5x5_reduce"
}
layer {
  name: "inception_3a/5x5"
  type: "Convolution"
  bottom: "inception_3a/5x5_reduce"
  top: "inception_3a/5x5"
  param {
    lr_mult: 1
    decay_mult: 1
  }
  param {
    lr_mult: 2
    decay_mult: 0
  }
  convolution_param {
    num_output: 32
    pad: 2
    kernel_size: 5
    weight_filler {
      type: "xavier"
      std: 0.03
    }
    bias_filler {
      type: "constant"
      value: 0.2
    }
  }
}
layer {
  name: "inception_3a/relu_5x5"
  type: "ReLU"
  bottom: "inception_3a/5x5"
  top: "inception_3a/5x5"
}
layer {
  name: "inception_3a/pool"
  type: "Pooling"
  bottom: "pool2/3x3_s2"
  top: "inception_3a/pool"
  pooling_param {
    pool: MAX
    kernel_size: 3
    stride: 1
    pad: 1
  }
}
layer {
  name: "inception_3a/pool_proj"
  type: "Convolution"
  bottom: "inception_3a/pool"
  top: "inception_3a/pool_proj"
  param {
    lr_mult: 1
    decay_mult: 1
  }
  param {
    lr_mult: 2
    decay_mult: 0
  }
  convolution_param {
    num_output: 32
    kernel_size: 1
    weight_filler {
      type: "xavier"
      std: 0.1
    }
    bias_filler {
      type: "constant"
      value: 0.2
    }
  }
}
layer {
  name: "inception_3a/relu_pool_proj"
  type: "ReLU"
  bottom: "inception_3a/pool_proj"
  top: "inception_3a/pool_proj"
}
layer {
  name: "inception_3a/output"
  type: "Concat"
  bottom: "inception_3a/1x1"
  bottom: "inception_3a/3x3"
  bottom: "inception_3a/5x5"
  bottom: "inception_3a/pool_proj"
  top: "inception_3a/output"
}
layer {
  name: "inception_3b/1x1"
  type: "Convolution"
  bottom: "inception_3a/output"
  top: "inception_3b/1x1"
  param {
    lr_mult: 1
    decay_mult: 1
  }
  param {
    lr_mult: 2
    decay_mult: 0
  }
  convolution_param {
    num_output: 128
    kernel_size: 1
    weight_filler {
      type: "xavier"
      std: 0.03
    }
    bias_filler {
      type: "constant"
      value: 0.2
    }
  }
}
layer {
  name: "inception_3b/relu_1x1"
  type: "ReLU"
  bottom: "inception_3b/1x1"
  top: "inception_3b/1x1"
}
layer {
  name: "inception_3b/3x3_reduce"
  type: "Convolution"
  bottom: "inception_3a/output"
  top: "inception_3b/3x3_reduce"
  param {
    lr_mult: 1
    decay_mult: 1
  }
  param {
    lr_mult: 2
    decay_mult: 0
  }
  convolution_param {
    num_output: 128
    kernel_size: 1
    weight_filler {
      type: "xavier"
      std: 0.09
    }
    bias_filler {
      type: "constant"
      value: 0.2
    }
  }
}
layer {
  name: "inception_3b/relu_3x3_reduce"
  type: "ReLU"
  bottom: "inception_3b/3x3_reduce"
  top: "inception_3b/3x3_reduce"
}
layer {
  name: "inception_3b/3x3"
  type: "Convolution"
  bottom: "inception_3b/3x3_reduce"
  top: "inception_3b/3x3"
  param {
    lr_mult: 1
    decay_mult: 1
  }
  param {
    lr_mult: 2
    decay_mult: 0
  }
  convolution_param {
    num_output: 192
    pad: 1
    kernel_size: 3
    weight_filler {
      type: "xavier"
      std: 0.03
    }
    bias_filler {
      type: "constant"
      value: 0.2
    }
  }
}
layer {
  name: "inception_3b/relu_3x3"
  type: "ReLU"
  bottom: "inception_3b/3x3"
  top: "inception_3b/3x3"
}
layer {
  name: "inception_3b/5x5_reduce"
  type: "Convolution"
  bottom: "inception_3a/output"
  top: "inception_3b/5x5_reduce"
  param {
    lr_mult: 1
    decay_mult: 1
  }
  param {
    lr_mult: 2
    decay_mult: 0
  }
  convolution_param {
    num_output: 32
    kernel_size: 1
    weight_filler {
      type: "xavier"
      std: 0.2
    }
    bias_filler {
      type: "constant"
      value: 0.2
    }
  }
}
layer {
  name: "inception_3b/relu_5x5_reduce"
  type: "ReLU"
  bottom: "inception_3b/5x5_reduce"
  top: "inception_3b/5x5_reduce"
}
layer {
  name: "inception_3b/5x5"
  type: "Convolution"
  bottom: "inception_3b/5x5_reduce"
  top: "inception_3b/5x5"
  param {
    lr_mult: 1
    decay_mult: 1
  }
  param {
    lr_mult: 2
    decay_mult: 0
  }
  convolution_param {
    num_output: 96
    pad: 2
    kernel_size: 5
    weight_filler {
      type: "xavier"
      std: 0.03
    }
    bias_filler {
      type: "constant"
      value: 0.2
    }
  }
}
layer {
  name: "inception_3b/relu_5x5"
  type: "ReLU"
  bottom: "inception_3b/5x5"
  top: "inception_3b/5x5"
}
layer {
  name: "inception_3b/pool"
  type: "Pooling"
  bottom: "inception_3a/output"
  top: "inception_3b/pool"
  pooling_param {
    pool: MAX
    kernel_size: 3
    stride: 1
    pad: 1
  }
}
layer {
  name: "inception_3b/pool_proj"
  type: "Convolution"
  bottom: "inception_3b/pool"
  top: "inception_3b/pool_proj"
  param {
    lr_mult: 1
    decay_mult: 1
  }
  param {
    lr_mult: 2
    decay_mult: 0
  }
  convolution_param {
    num_output: 64
    kernel_size: 1
    weight_filler {
      type: "xavier"
      std: 0.1
    }
    bias_filler {
      type: "constant"
      value: 0.2
    }
  }
}
layer {
  name: "inception_3b/relu_pool_proj"
  type: "ReLU"
  bottom: "inception_3b/pool_proj"
  top: "inception_3b/pool_proj"
}
layer {
  name: "inception_3b/output"
  type: "Concat"
  bottom: "inception_3b/1x1"
  bottom: "inception_3b/3x3"
  bottom: "inception_3b/5x5"
  bottom: "inception_3b/pool_proj"
  top: "inception_3b/output"
}
layer {
  name: "pool3/3x3_s2"
  type: "Pooling"
  bottom: "inception_3b/output"
  top: "pool3/3x3_s2"
  pooling_param {
    pool: MAX
    kernel_size: 3
    stride: 2
  }
}
layer {
  name: "inception_4a/1x1"
  type: "Convolution"
  bottom: "pool3/3x3_s2"
  top: "inception_4a/1x1"
  param {
    lr_mult: 1
    decay_mult: 1
  }
  param {
    lr_mult: 2
    decay_mult: 0
  }
  convolution_param {
    num_output: 192
    kernel_size: 1
    weight_filler {
      type: "xavier"
      std: 0.03
    }
    bias_filler {
      type: "constant"
      value: 0.2
    }
  }
}
layer {
  name: "inception_4a/relu_1x1"
  type: "ReLU"
  bottom: "inception_4a/1x1"
  top: "inception_4a/1x1"
}
layer {
  name: "inception_4a/3x3_reduce"
  type: "Convolution"
  bottom: "pool3/3x3_s2"
  top: "inception_4a/3x3_reduce"
  param {
    lr_mult: 1
    decay_mult: 1
  }
  param {
    lr_mult: 2
    decay_mult: 0
  }
  convolution_param {
    num_output: 96
    kernel_size: 1
    weight_filler {
      type: "xavier"
      std: 0.09
    }
    bias_filler {
      type: "constant"
      value: 0.2
    }
  }
}
layer {
  name: "inception_4a/relu_3x3_reduce"
  type: "ReLU"
  bottom: "inception_4a/3x3_reduce"
  top: "inception_4a/3x3_reduce"
}
layer {
  name: "inception_4a/3x3"
  type: "Convolution"
  bottom: "inception_4a/3x3_reduce"
  top: "inception_4a/3x3"
  param {
    lr_mult: 1
    decay_mult: 1
  }
  param {
    lr_mult: 2
    decay_mult: 0
  }
  convolution_param {
    num_output: 208
    pad: 1
    kernel_size: 3
    weight_filler {
      type: "xavier"
      std: 0.03
    }
    bias_filler {
      type: "constant"
      value: 0.2
    }
  }
}
layer {
  name: "inception_4a/relu_3x3"
  type: "ReLU"
  bottom: "inception_4a/3x3"
  top: "inception_4a/3x3"
}
layer {
  name: "inception_4a/5x5_reduce"
  type: "Convolution"
  bottom: "pool3/3x3_s2"
  top: "inception_4a/5x5_reduce"
  param {
    lr_mult: 1
    decay_mult: 1
  }
  param {
    lr_mult: 2
    decay_mult: 0
  }
  convolution_param {
    num_output: 16
    kernel_size: 1
    weight_filler {
      type: "xavier"
      std: 0.2
    }
    bias_filler {
      type: "constant"
      value: 0.2
    }
  }
}
layer {
  name: "inception_4a/relu_5x5_reduce"
  type: "ReLU"
  bottom: "inception_4a/5x5_reduce"
  top: "inception_4a/5x5_reduce"
}
layer {
  name: "inception_4a/5x5"
  type: "Convolution"
  bottom: "inception_4a/5x5_reduce"
  top: "inception_4a/5x5"
  param {
    lr_mult: 1
    decay_mult: 1
  }
  param {
    lr_mult: 2
    decay_mult: 0
  }
  convolution_param {
    num_output: 48
    pad: 2
    kernel_size: 5
    weight_filler {
      type: "xavier"
      std: 0.03
    }
    bias_filler {
      type: "constant"
      value: 0.2
    }
  }
}
layer {
  name: "inception_4a/relu_5x5"
  type: "ReLU"
  bottom: "inception_4a/5x5"
  top: "inception_4a/5x5"
}
layer {
  name: "inception_4a/pool"
  type: "Pooling"
  bottom: "pool3/3x3_s2"
  top: "inception_4a/pool"
  pooling_param {
    pool: MAX
    kernel_size: 3
    stride: 1
    pad: 1
  }
}
layer {
  name: "inception_4a/pool_proj"
  type: "Convolution"
  bottom: "inception_4a/pool"
  top: "inception_4a/pool_proj"
  param {
    lr_mult: 1
    decay_mult: 1
  }
  param {
    lr_mult: 2
    decay_mult: 0
  }
  convolution_param {
    num_output: 64
    kernel_size: 1
    weight_filler {
      type: "xavier"
      std: 0.1
    }
    bias_filler {
      type: "constant"
      value: 0.2
    }
  }
}
layer {
  name: "inception_4a/relu_pool_proj"
  type: "ReLU"
  bottom: "inception_4a/pool_proj"
  top: "inception_4a/pool_proj"
}
layer {
  name: "inception_4a/output"
  type: "Concat"
  bottom: "inception_4a/1x1"
  bottom: "inception_4a/3x3"
  bottom: "inception_4a/5x5"
  bottom: "inception_4a/pool_proj"
  top: "inception_4a/output"
}
layer {
  name: "loss1/ave_pool"
  type: "Pooling"
  bottom: "inception_4a/output"
  top: "loss1/ave_pool"
  pooling_param {
    pool: AVE
    kernel_size: 5
    stride: 3
  }
}
layer {
  name: "loss1/conv"
  type: "Convolution"
  bottom: "loss1/ave_pool"
  top: "loss1/conv"
  param {
    lr_mult: 1
    decay_mult: 1
  }
  param {
    lr_mult: 2
    decay_mult: 0
  }
  convolution_param {
    num_output: 128
    kernel_size: 1
    weight_filler {
      type: "xavier"
      std: 0.08
    }
    bias_filler {
      type: "constant"
      value: 0.2
    }
  }
}
layer {
  name: "loss1/relu_conv"
  type: "ReLU"
  bottom: "loss1/conv"
  top: "loss1/conv"
}
layer {
  name: "loss1/fc"
  type: "InnerProduct"
  bottom: "loss1/conv"
  top: "loss1/fc"
  param {
    lr_mult: 1
    decay_mult: 1
  }
  param {
    lr_mult: 2
    decay_mult: 0
  }
  inner_product_param {
    num_output: 1024
    weight_filler {
      type: "xavier"
      std: 0.02
    }
    bias_filler {
      type: "constant"
      value: 0.2
    }
  }
}
layer {
  name: "loss1/relu_fc"
  type: "ReLU"
  bottom: "loss1/fc"
  top: "loss1/fc"
}
layer {
  name: "loss1/drop_fc"
  type: "Dropout"
  bottom: "loss1/fc"
  top: "loss1/fc"
  dropout_param {
    dropout_ratio: 0.7
  }
}
layer {
  name: "loss1/classifier_plantvillage"
  type: "InnerProduct"
  bottom: "loss1/fc"
  top: "loss1/classifier_plantvillage"
  param {
    lr_mult: 1
    decay_mult: 1
  }
  param {
    lr_mult: 2
    decay_mult: 0
  }
  inner_product_param {
    num_output: 38
    weight_filler {
      type: "xavier"
      std: 0.0009765625
    }
    bias_filler {
      type: "constant"
      value: 0
    }
  }
}
layer {
  name: "inception_4b/1x1"
  type: "Convolution"
  bottom: "inception_4a/output"
  top: "inception_4b/1x1"
  param {
    lr_mult: 1
    decay_mult: 1
  }
  param {
    lr_mult: 2
    decay_mult: 0
  }
  convolution_param {
    num_output: 160
    kernel_size: 1
    weight_filler {
      type: "xavier"
      std: 0.03
    }
    bias_filler {
      type: "constant"
      value: 0.2
    }
  }
}
layer {
  name: "inception_4b/relu_1x1"
  type: "ReLU"
  bottom: "inception_4b/1x1"
  top: "inception_4b/1x1"
}
layer {
  name: "inception_4b/3x3_reduce"
  type: "Convolution"
  bottom: "inception_4a/output"
  top: "inception_4b/3x3_reduce"
  param {
    lr_mult: 1
    decay_mult: 1
  }
  param {
    lr_mult: 2
    decay_mult: 0
  }
  convolution_param {
    num_output: 112
    kernel_size: 1
    weight_filler {
      type: "xavier"
      std: 0.09
    }
    bias_filler {
      type: "constant"
      value: 0.2
    }
  }
}
layer {
  name: "inception_4b/relu_3x3_reduce"
  type: "ReLU"
  bottom: "inception_4b/3x3_reduce"
  top: "inception_4b/3x3_reduce"
}
layer {
  name: "inception_4b/3x3"
  type: "Convolution"
  bottom: "inception_4b/3x3_reduce"
  top: "inception_4b/3x3"
  param {
    lr_mult: 1
    decay_mult: 1
  }
  param {
    lr_mult: 2
    decay_mult: 0
  }
  convolution_param {
    num_output: 224
    pad: 1
    kernel_size: 3
    weight_filler {
      type: "xavier"
      std: 0.03
    }
    bias_filler {
      type: "constant"
      value: 0.2
    }
  }
}
layer {
  name: "inception_4b/relu_3x3"
  type: "ReLU"
  bottom: "inception_4b/3x3"
  top: "inception_4b/3x3"
}
layer {
  name: "inception_4b/5x5_reduce"
  type: "Convolution"
  bottom: "inception_4a/output"
  top: "inception_4b/5x5_reduce"
  param {
    lr_mult: 1
    decay_mult: 1
  }
  param {
    lr_mult: 2
    decay_mult: 0
  }
  convolution_param {
    num_output: 24
    kernel_size: 1
    weight_filler {
      type: "xavier"
      std: 0.2
    }
    bias_filler {
      type: "constant"
      value: 0.2
    }
  }
}
layer {
  name: "inception_4b/relu_5x5_reduce"
  type: "ReLU"
  bottom: "inception_4b/5x5_reduce"
  top: "inception_4b/5x5_reduce"
}
layer {
  name: "inception_4b/5x5"
  type: "Convolution"
  bottom: "inception_4b/5x5_reduce"
  top: "inception_4b/5x5"
  param {
    lr_mult: 1
    decay_mult: 1
  }
  param {
    lr_mult: 2
    decay_mult: 0
  }
  convolution_param {
    num_output: 64
    pad: 2
    kernel_size: 5
    weight_filler {
      type: "xavier"
      std: 0.03
    }
    bias_filler {
      type: "constant"
      value: 0.2
    }
  }
}
layer {
  name: "inception_4b/relu_5x5"
  type: "ReLU"
  bottom: "inception_4b/5x5"
  top: "inception_4b/5x5"
}
layer {
  name: "inception_4b/pool"
  type: "Pooling"
  bottom: "inception_4a/output"
  top: "inception_4b/pool"
  pooling_param {
    pool: MAX
    kernel_size: 3
    stride: 1
    pad: 1
  }
}
layer {
  name: "inception_4b/pool_proj"
  type: "Convolution"
  bottom: "inception_4b/pool"
  top: "inception_4b/pool_proj"
  param {
    lr_mult: 1
    decay_mult: 1
  }
  param {
    lr_mult: 2
    decay_mult: 0
  }
  convolution_param {
    num_output: 64
    kernel_size: 1
    weight_filler {
      type: "xavier"
      std: 0.1
    }
    bias_filler {
      type: "constant"
      value: 0.2
    }
  }
}
layer {
  name: "inception_4b/relu_pool_proj"
  type: "ReLU"
  bottom: "inception_4b/pool_proj"
  top: "inception_4b/pool_proj"
}
layer {
  name: "inception_4b/output"
  type: "Concat"
  bottom: "inception_4b/1x1"
  bottom: "inception_4b/3x3"
  bottom: "inception_4b/5x5"
  bottom: "inception_4b/pool_proj"
  top: "inception_4b/output"
}
layer {
  name: "inception_4c/1x1"
  type: "Convolution"
  bottom: "inception_4b/output"
  top: "inception_4c/1x1"
  param {
    lr_mult: 1
    decay_mult: 1
  }
  param {
    lr_mult: 2
    decay_mult: 0
  }
  convolution_param {
    num_output: 128
    kernel_size: 1
    weight_filler {
      type: "xavier"
      std: 0.03
    }
    bias_filler {
      type: "constant"
      value: 0.2
    }
  }
}
layer {
  name: "inception_4c/relu_1x1"
  type: "ReLU"
  bottom: "inception_4c/1x1"
  top: "inception_4c/1x1"
}
layer {
  name: "inception_4c/3x3_reduce"
  type: "Convolution"
  bottom: "inception_4b/output"
  top: "inception_4c/3x3_reduce"
  param {
    lr_mult: 1
    decay_mult: 1
  }
  param {
    lr_mult: 2
    decay_mult: 0
  }
  convolution_param {
    num_output: 128
    kernel_size: 1
    weight_filler {
      type: "xavier"
      std: 0.09
    }
    bias_filler {
      type: "constant"
      value: 0.2
    }
  }
}
layer {
  name: "inception_4c/relu_3x3_reduce"
  type: "ReLU"
  bottom: "inception_4c/3x3_reduce"
  top: "inception_4c/3x3_reduce"
}
layer {
  name: "inception_4c/3x3"
  type: "Convolution"
  bottom: "inception_4c/3x3_reduce"
  top: "inception_4c/3x3"
  param {
    lr_mult: 1
    decay_mult: 1
  }
  param {
    lr_mult: 2
    decay_mult: 0
  }
  convolution_param {
    num_output: 256
    pad: 1
    kernel_size: 3
    weight_filler {
      type: "xavier"
      std: 0.03
    }
    bias_filler {
      type: "constant"
      value: 0.2
    }
  }
}
layer {
  name: "inception_4c/relu_3x3"
  type: "ReLU"
  bottom: "inception_4c/3x3"
  top: "inception_4c/3x3"
}
layer {
  name: "inception_4c/5x5_reduce"
  type: "Convolution"
  bottom: "inception_4b/output"
  top: "inception_4c/5x5_reduce"
  param {
    lr_mult: 1
    decay_mult: 1
  }
  param {
    lr_mult: 2
    decay_mult: 0
  }
  convolution_param {
    num_output: 24
    kernel_size: 1
    weight_filler {
      type: "xavier"
      std: 0.2
    }
    bias_filler {
      type: "constant"
      value: 0.2
    }
  }
}
layer {
  name: "inception_4c/relu_5x5_reduce"
  type: "ReLU"
  bottom: "inception_4c/5x5_reduce"
  top: "inception_4c/5x5_reduce"
}
layer {
  name: "inception_4c/5x5"
  type: "Convolution"
  bottom: "inception_4c/5x5_reduce"
  top: "inception_4c/5x5"
  param {
    lr_mult: 1
    decay_mult: 1
  }
  param {
    lr_mult: 2
    decay_mult: 0
  }
  convolution_param {
    num_output: 64
    pad: 2
    kernel_size: 5
    weight_filler {
      type: "xavier"
      std: 0.03
    }
    bias_filler {
      type: "constant"
      value: 0.2
    }
  }
}
layer {
  name: "inception_4c/relu_5x5"
  type: "ReLU"
  bottom: "inception_4c/5x5"
  top: "inception_4c/5x5"
}
layer {
  name: "inception_4c/pool"
  type: "Pooling"
  bottom: "inception_4b/output"
  top: "inception_4c/pool"
  pooling_param {
    pool: MAX
    kernel_size: 3
    stride: 1
    pad: 1
  }
}
layer {
  name: "inception_4c/pool_proj"
  type: "Convolution"
  bottom: "inception_4c/pool"
  top: "inception_4c/pool_proj"
  param {
    lr_mult: 1
    decay_mult: 1
  }
  param {
    lr_mult: 2
    decay_mult: 0
  }
  convolution_param {
    num_output: 64
    kernel_size: 1
    weight_filler {
      type: "xavier"
      std: 0.1
    }
    bias_filler {
      type: "constant"
      value: 0.2
    }
  }
}
layer {
  name: "inception_4c/relu_pool_proj"
  type: "ReLU"
  bottom: "inception_4c/pool_proj"
  top: "inception_4c/pool_proj"
}
layer {
  name: "inception_4c/output"
  type: "Concat"
  bottom: "inception_4c/1x1"
  bottom: "inception_4c/3x3"
  bottom: "inception_4c/5x5"
  bottom: "inception_4c/pool_proj"
  top: "inception_4c/output"
}
layer {
  name: "inception_4d/1x1"
  type: "Convolution"
  bottom: "inception_4c/output"
  top: "inception_4d/1x1"
  param {
    lr_mult: 1
    decay_mult: 1
  }
  param {
    lr_mult: 2
    decay_mult: 0
  }
  convolution_param {
    num_output: 112
    kernel_size: 1
    weight_filler {
      type: "xavier"
      std: 0.03
    }
    bias_filler {
      type: "constant"
      value: 0.2
    }
  }
}
layer {
  name: "inception_4d/relu_1x1"
  type: "ReLU"
  bottom: "inception_4d/1x1"
  top: "inception_4d/1x1"
}
layer {
  name: "inception_4d/3x3_reduce"
  type: "Convolution"
  bottom: "inception_4c/output"
  top: "inception_4d/3x3_reduce"
  param {
    lr_mult: 1
    decay_mult: 1
  }
  param {
    lr_mult: 2
    decay_mult: 0
  }
  convolution_param {
    num_output: 144
    kernel_size: 1
    weight_filler {
      type: "xavier"
      std: 0.09
    }
    bias_filler {
      type: "constant"
      value: 0.2
    }
  }
}
layer {
  name: "inception_4d/relu_3x3_reduce"
  type: "ReLU"
  bottom: "inception_4d/3x3_reduce"
  top: "inception_4d/3x3_reduce"
}
layer {
  name: "inception_4d/3x3"
  type: "Convolution"
  bottom: "inception_4d/3x3_reduce"
  top: "inception_4d/3x3"
  param {
    lr_mult: 1
    decay_mult: 1
  }
  param {
    lr_mult: 2
    decay_mult: 0
  }
  convolution_param {
    num_output: 288
    pad: 1
    kernel_size: 3
    weight_filler {
      type: "xavier"
      std: 0.03
    }
    bias_filler {
      type: "constant"
      value: 0.2
    }
  }
}
layer {
  name: "inception_4d/relu_3x3"
  type: "ReLU"
  bottom: "inception_4d/3x3"
  top: "inception_4d/3x3"
}
layer {
  name: "inception_4d/5x5_reduce"
  type: "Convolution"
  bottom: "inception_4c/output"
  top: "inception_4d/5x5_reduce"
  param {
    lr_mult: 1
    decay_mult: 1
  }
  param {
    lr_mult: 2
    decay_mult: 0
  }
  convolution_param {
    num_output: 32
    kernel_size: 1
    weight_filler {
      type: "xavier"
      std: 0.2
    }
    bias_filler {
      type: "constant"
      value: 0.2
    }
  }
}
layer {
  name: "inception_4d/relu_5x5_reduce"
  type: "ReLU"
  bottom: "inception_4d/5x5_reduce"
  top: "inception_4d/5x5_reduce"
}
layer {
  name: "inception_4d/5x5"
  type: "Convolution"
  bottom: "inception_4d/5x5_reduce"
  top: "inception_4d/5x5"
  param {
    lr_mult: 1
    decay_mult: 1
  }
  param {
    lr_mult: 2
    decay_mult: 0
  }
  convolution_param {
    num_output: 64
    pad: 2
    kernel_size: 5
    weight_filler {
      type: "xavier"
      std: 0.03
    }
    bias_filler {
      type: "constant"
      value: 0.2
    }
  }
}
layer {
  name: "inception_4d/relu_5x5"
  type: "ReLU"
  bottom: "inception_4d/5x5"
  top: "inception_4d/5x5"
}
layer {
  name: "inception_4d/pool"
  type: "Pooling"
  bottom: "inception_4c/output"
  top: "inception_4d/pool"
  pooling_param {
    pool: MAX
    kernel_size: 3
    stride: 1
    pad: 1
  }
}
layer {
  name: "inception_4d/pool_proj"
  type: "Convolution"
  bottom: "inception_4d/pool"
  top: "inception_4d/pool_proj"
  param {
    lr_mult: 1
    decay_mult: 1
  }
  param {
    lr_mult: 2
    decay_mult: 0
  }
  convolution_param {
    num_output: 64
    kernel_size: 1
    weight_filler {
      type: "xavier"
      std: 0.1
    }
    bias_filler {
      type: "constant"
      value: 0.2
    }
  }
}
layer {
  name: "inception_4d/relu_pool_proj"
  type: "ReLU"
  bottom: "inception_4d/pool_proj"
  top: "inception_4d/pool_proj"
}
layer {
  name: "inception_4d/output"
  type: "Concat"
  bottom: "inception_4d/1x1"
  bottom: "inception_4d/3x3"
  bottom: "inception_4d/5x5"
  bottom: "inception_4d/pool_proj"
  top: "inception_4d/output"
}
layer {
  name: "loss2/ave_pool"
  type: "Pooling"
  bottom: "inception_4d/output"
  top: "loss2/ave_pool"
  pooling_param {
    pool: AVE
    kernel_size: 5
    stride: 3
  }
}
layer {
  name: "loss2/conv"
  type: "Convolution"
  bottom: "loss2/ave_pool"
  top: "loss2/conv"
  param {
    lr_mult: 1
    decay_mult: 1
  }
  param {
    lr_mult: 2
    decay_mult: 0
  }
  convolution_param {
    num_output: 128
    kernel_size: 1
    weight_filler {
      type: "xavier"
      std: 0.08
    }
    bias_filler {
      type: "constant"
      value: 0.2
    }
  }
}
layer {
  name: "loss2/relu_conv"
  type: "ReLU"
  bottom: "loss2/conv"
  top: "loss2/conv"
}
layer {
  name: "loss2/fc"
  type: "InnerProduct"
  bottom: "loss2/conv"
  top: "loss2/fc"
  param {
    lr_mult: 1
    decay_mult: 1
  }
  param {
    lr_mult: 2
    decay_mult: 0
  }
  inner_product_param {
    num_output: 1024
    weight_filler {
      type: "xavier"
      std: 0.02
    }
    bias_filler {
      type: "constant"
      value: 0.2
    }
  }
}
layer {
  name: "loss2/relu_fc"
  type: "ReLU"
  bottom: "loss2/fc"
  top: "loss2/fc"
}
layer {
  name: "loss2/drop_fc"
  type: "Dropout"
  bottom: "loss2/fc"
  top: "loss2/fc"
  dropout_param {
    dropout_ratio: 0.7
  }
}
layer {
  name: "loss2/classifier_plantvillage"
  type: "InnerProduct"
  bottom: "loss2/fc"
  top: "loss2/classifier_plantvillage"
  param {
    lr_mult: 1
    decay_mult: 1
  }
  param {
    lr_mult: 2
    decay_mult: 0
  }
  inner_product_param {
    num_output: 38
    weight_filler {
      type: "xavier"
      std: 0.0009765625
    }
    bias_filler {
      type: "constant"
      value: 0
    }
  }
}
layer {
  name: "inception_4e/1x1"
  type: "Convolution"
  bottom: "inception_4d/output"
  top: "inception_4e/1x1"
  param {
    lr_mult: 1
    decay_mult: 1
  }
  param {
    lr_mult: 2
    decay_mult: 0
  }
  convolution_param {
    num_output: 256
    kernel_size: 1
    weight_filler {
      type: "xavier"
      std: 0.03
    }
    bias_filler {
      type: "constant"
      value: 0.2
    }
  }
}
layer {
  name: "inception_4e/relu_1x1"
  type: "ReLU"
  bottom: "inception_4e/1x1"
  top: "inception_4e/1x1"
}
layer {
  name: "inception_4e/3x3_reduce"
  type: "Convolution"
  bottom: "inception_4d/output"
  top: "inception_4e/3x3_reduce"
  param {
    lr_mult: 1
    decay_mult: 1
  }
  param {
    lr_mult: 2
    decay_mult: 0
  }
  convolution_param {
    num_output: 160
    kernel_size: 1
    weight_filler {
      type: "xavier"
      std: 0.09
    }
    bias_filler {
      type: "constant"
      value: 0.2
    }
  }
}
layer {
  name: "inception_4e/relu_3x3_reduce"
  type: "ReLU"
  bottom: "inception_4e/3x3_reduce"
  top: "inception_4e/3x3_reduce"
}
layer {
  name: "inception_4e/3x3"
  type: "Convolution"
  bottom: "inception_4e/3x3_reduce"
  top: "inception_4e/3x3"
  param {
    lr_mult: 1
    decay_mult: 1
  }
  param {
    lr_mult: 2
    decay_mult: 0
  }
  convolution_param {
    num_output: 320
    pad: 1
    kernel_size: 3
    weight_filler {
      type: "xavier"
      std: 0.03
    }
    bias_filler {
      type: "constant"
      value: 0.2
    }
  }
}
layer {
  name: "inception_4e/relu_3x3"
  type: "ReLU"
  bottom: "inception_4e/3x3"
  top: "inception_4e/3x3"
}
layer {
  name: "inception_4e/5x5_reduce"
  type: "Convolution"
  bottom: "inception_4d/output"
  top: "inception_4e/5x5_reduce"
  param {
    lr_mult: 1
    decay_mult: 1
  }
  param {
    lr_mult: 2
    decay_mult: 0
  }
  convolution_param {
    num_output: 32
    kernel_size: 1
    weight_filler {
      type: "xavier"
      std: 0.2
    }
    bias_filler {
      type: "constant"
      value: 0.2
    }
  }
}
layer {
  name: "inception_4e/relu_5x5_reduce"
  type: "ReLU"
  bottom: "inception_4e/5x5_reduce"
  top: "inception_4e/5x5_reduce"
}
layer {
  name: "inception_4e/5x5"
  type: "Convolution"
  bottom: "inception_4e/5x5_reduce"
  top: "inception_4e/5x5"
  p
I0403 14:53:17.141198 13731 layer_factory.hpp:77] Creating layer data
I0403 14:53:17.141798 13731 net.cpp:91] Creating Layer data
I0403 14:53:17.141829 13731 net.cpp:399] data -> data
I0403 14:53:17.141877 13731 net.cpp:399] data -> label
I0403 14:53:17.141912 13731 data_transformer.cpp:25] Loading mean file from: /home/mohanty/data/final_dataset/lmdb/color-40-60/mean.binaryproto
I0403 14:53:17.144632 13734 db_lmdb.cpp:38] Opened lmdb /home/mohanty/data/final_dataset/lmdb/color-40-60/test_db
I0403 14:53:17.154942 13731 data_layer.cpp:41] output data size: 24,3,224,224
I0403 14:53:17.182328 13731 net.cpp:141] Setting up data
I0403 14:53:17.182392 13731 net.cpp:148] Top shape: 24 3 224 224 (3612672)
I0403 14:53:17.182413 13731 net.cpp:148] Top shape: 24 (24)
I0403 14:53:17.182430 13731 net.cpp:156] Memory required for data: 14450784
I0403 14:53:17.182456 13731 layer_factory.hpp:77] Creating layer label_data_1_split
I0403 14:53:17.182482 13731 net.cpp:91] Creating Layer label_data_1_split
I0403 14:53:17.182500 13731 net.cpp:425] label_data_1_split <- label
I0403 14:53:17.182531 13731 net.cpp:399] label_data_1_split -> label_data_1_split_0
I0403 14:53:17.182565 13731 net.cpp:399] label_data_1_split -> label_data_1_split_1
I0403 14:53:17.182587 13731 net.cpp:399] label_data_1_split -> label_data_1_split_2
I0403 14:53:17.182612 13731 net.cpp:399] label_data_1_split -> label_data_1_split_3
I0403 14:53:17.182633 13731 net.cpp:399] label_data_1_split -> label_data_1_split_4
I0403 14:53:17.182652 13731 net.cpp:399] label_data_1_split -> label_data_1_split_5
I0403 14:53:17.182672 13731 net.cpp:399] label_data_1_split -> label_data_1_split_6
I0403 14:53:17.182692 13731 net.cpp:399] label_data_1_split -> label_data_1_split_7
I0403 14:53:17.182710 13731 net.cpp:399] label_data_1_split -> label_data_1_split_8
I0403 14:53:17.182730 13731 net.cpp:399] label_data_1_split -> label_data_1_split_9
I0403 14:53:17.182847 13731 net.cpp:141] Setting up label_data_1_split
I0403 14:53:17.182869 13731 net.cpp:148] Top shape: 24 (24)
I0403 14:53:17.182885 13731 net.cpp:148] Top shape: 24 (24)
I0403 14:53:17.182901 13731 net.cpp:148] Top shape: 24 (24)
I0403 14:53:17.182916 13731 net.cpp:148] Top shape: 24 (24)
I0403 14:53:17.182931 13731 net.cpp:148] Top shape: 24 (24)
I0403 14:53:17.182946 13731 net.cpp:148] Top shape: 24 (24)
I0403 14:53:17.182960 13731 net.cpp:148] Top shape: 24 (24)
I0403 14:53:17.182976 13731 net.cpp:148] Top shape: 24 (24)
I0403 14:53:17.182991 13731 net.cpp:148] Top shape: 24 (24)
I0403 14:53:17.183007 13731 net.cpp:148] Top shape: 24 (24)
I0403 14:53:17.183054 13731 net.cpp:156] Memory required for data: 14451744
I0403 14:53:17.183070 13731 layer_factory.hpp:77] Creating layer conv1/7x7_s2
I0403 14:53:17.183101 13731 net.cpp:91] Creating Layer conv1/7x7_s2
I0403 14:53:17.183121 13731 net.cpp:425] conv1/7x7_s2 <- data
I0403 14:53:17.183140 13731 net.cpp:399] conv1/7x7_s2 -> conv1/7x7_s2
I0403 14:53:17.322669 13731 net.cpp:141] Setting up conv1/7x7_s2
I0403 14:53:17.322743 13731 net.cpp:148] Top shape: 24 64 112 112 (19267584)
I0403 14:53:17.322759 13731 net.cpp:156] Memory required for data: 91522080
I0403 14:53:17.322789 13731 layer_factory.hpp:77] Creating layer conv1/relu_7x7
I0403 14:53:17.322815 13731 net.cpp:91] Creating Layer conv1/relu_7x7
I0403 14:53:17.322834 13731 net.cpp:425] conv1/relu_7x7 <- conv1/7x7_s2
I0403 14:53:17.322852 13731 net.cpp:386] conv1/relu_7x7 -> conv1/7x7_s2 (in-place)
I0403 14:53:17.323110 13731 net.cpp:141] Setting up conv1/relu_7x7
I0403 14:53:17.323137 13731 net.cpp:148] Top shape: 24 64 112 112 (19267584)
I0403 14:53:17.323153 13731 net.cpp:156] Memory required for data: 168592416
I0403 14:53:17.323191 13731 layer_factory.hpp:77] Creating layer pool1/3x3_s2
I0403 14:53:17.323220 13731 net.cpp:91] Creating Layer pool1/3x3_s2
I0403 14:53:17.323235 13731 net.cpp:425] pool1/3x3_s2 <- conv1/7x7_s2
I0403 14:53:17.323253 13731 net.cpp:399] pool1/3x3_s2 -> pool1/3x3_s2
I0403 14:53:17.323324 13731 net.cpp:141] Setting up pool1/3x3_s2
I0403 14:53:17.323348 13731 net.cpp:148] Top shape: 24 64 56 56 (4816896)
I0403 14:53:17.323362 13731 net.cpp:156] Memory required for data: 187860000
I0403 14:53:17.323376 13731 layer_factory.hpp:77] Creating layer pool1/norm1
I0403 14:53:17.323401 13731 net.cpp:91] Creating Layer pool1/norm1
I0403 14:53:17.323417 13731 net.cpp:425] pool1/norm1 <- pool1/3x3_s2
I0403 14:53:17.323436 13731 net.cpp:399] pool1/norm1 -> pool1/norm1
I0403 14:53:17.323725 13731 net.cpp:141] Setting up pool1/norm1
I0403 14:53:17.323752 13731 net.cpp:148] Top shape: 24 64 56 56 (4816896)
I0403 14:53:17.323767 13731 net.cpp:156] Memory required for data: 207127584
I0403 14:53:17.323781 13731 layer_factory.hpp:77] Creating layer conv2/3x3_reduce
I0403 14:53:17.323804 13731 net.cpp:91] Creating Layer conv2/3x3_reduce
I0403 14:53:17.323820 13731 net.cpp:425] conv2/3x3_reduce <- pool1/norm1
I0403 14:53:17.323838 13731 net.cpp:399] conv2/3x3_reduce -> conv2/3x3_reduce
I0403 14:53:17.325230 13731 net.cpp:141] Setting up conv2/3x3_reduce
I0403 14:53:17.325259 13731 net.cpp:148] Top shape: 24 64 56 56 (4816896)
I0403 14:53:17.325275 13731 net.cpp:156] Memory required for data: 226395168
I0403 14:53:17.325295 13731 layer_factory.hpp:77] Creating layer conv2/relu_3x3_reduce
I0403 14:53:17.325315 13731 net.cpp:91] Creating Layer conv2/relu_3x3_reduce
I0403 14:53:17.325330 13731 net.cpp:425] conv2/relu_3x3_reduce <- conv2/3x3_reduce
I0403 14:53:17.325347 13731 net.cpp:386] conv2/relu_3x3_reduce -> conv2/3x3_reduce (in-place)
I0403 14:53:17.325603 13731 net.cpp:141] Setting up conv2/relu_3x3_reduce
I0403 14:53:17.325630 13731 net.cpp:148] Top shape: 24 64 56 56 (4816896)
I0403 14:53:17.325645 13731 net.cpp:156] Memory required for data: 245662752
I0403 14:53:17.325659 13731 layer_factory.hpp:77] Creating layer conv2/3x3
I0403 14:53:17.325680 13731 net.cpp:91] Creating Layer conv2/3x3
I0403 14:53:17.325697 13731 net.cpp:425] conv2/3x3 <- conv2/3x3_reduce
I0403 14:53:17.325716 13731 net.cpp:399] conv2/3x3 -> conv2/3x3
I0403 14:53:17.327950 13731 net.cpp:141] Setting up conv2/3x3
I0403 14:53:17.327978 13731 net.cpp:148] Top shape: 24 192 56 56 (14450688)
I0403 14:53:17.327993 13731 net.cpp:156] Memory required for data: 303465504
I0403 14:53:17.328013 13731 layer_factory.hpp:77] Creating layer conv2/relu_3x3
I0403 14:53:17.328034 13731 net.cpp:91] Creating Layer conv2/relu_3x3
I0403 14:53:17.328049 13731 net.cpp:425] conv2/relu_3x3 <- conv2/3x3
I0403 14:53:17.328066 13731 net.cpp:386] conv2/relu_3x3 -> conv2/3x3 (in-place)
I0403 14:53:17.328236 13731 net.cpp:141] Setting up conv2/relu_3x3
I0403 14:53:17.328260 13731 net.cpp:148] Top shape: 24 192 56 56 (14450688)
I0403 14:53:17.328307 13731 net.cpp:156] Memory required for data: 361268256
I0403 14:53:17.328322 13731 layer_factory.hpp:77] Creating layer conv2/norm2
I0403 14:53:17.328341 13731 net.cpp:91] Creating Layer conv2/norm2
I0403 14:53:17.328357 13731 net.cpp:425] conv2/norm2 <- conv2/3x3
I0403 14:53:17.328377 13731 net.cpp:399] conv2/norm2 -> conv2/norm2
I0403 14:53:17.328672 13731 net.cpp:141] Setting up conv2/norm2
I0403 14:53:17.328701 13731 net.cpp:148] Top shape: 24 192 56 56 (14450688)
I0403 14:53:17.328716 13731 net.cpp:156] Memory required for data: 419071008
I0403 14:53:17.328729 13731 layer_factory.hpp:77] Creating layer pool2/3x3_s2
I0403 14:53:17.328747 13731 net.cpp:91] Creating Layer pool2/3x3_s2
I0403 14:53:17.328760 13731 net.cpp:425] pool2/3x3_s2 <- conv2/norm2
I0403 14:53:17.328780 13731 net.cpp:399] pool2/3x3_s2 -> pool2/3x3_s2
I0403 14:53:17.328830 13731 net.cpp:141] Setting up pool2/3x3_s2
I0403 14:53:17.328855 13731 net.cpp:148] Top shape: 24 192 28 28 (3612672)
I0403 14:53:17.328871 13731 net.cpp:156] Memory required for data: 433521696
I0403 14:53:17.328883 13731 layer_factory.hpp:77] Creating layer pool2/3x3_s2_pool2/3x3_s2_0_split
I0403 14:53:17.328901 13731 net.cpp:91] Creating Layer pool2/3x3_s2_pool2/3x3_s2_0_split
I0403 14:53:17.328915 13731 net.cpp:425] pool2/3x3_s2_pool2/3x3_s2_0_split <- pool2/3x3_s2
I0403 14:53:17.328932 13731 net.cpp:399] pool2/3x3_s2_pool2/3x3_s2_0_split -> pool2/3x3_s2_pool2/3x3_s2_0_split_0
I0403 14:53:17.328948 13731 net.cpp:399] pool2/3x3_s2_pool2/3x3_s2_0_split -> pool2/3x3_s2_pool2/3x3_s2_0_split_1
I0403 14:53:17.328969 13731 net.cpp:399] pool2/3x3_s2_pool2/3x3_s2_0_split -> pool2/3x3_s2_pool2/3x3_s2_0_split_2
I0403 14:53:17.328987 13731 net.cpp:399] pool2/3x3_s2_pool2/3x3_s2_0_split -> pool2/3x3_s2_pool2/3x3_s2_0_split_3
I0403 14:53:17.329056 13731 net.cpp:141] Setting up pool2/3x3_s2_pool2/3x3_s2_0_split
I0403 14:53:17.329078 13731 net.cpp:148] Top shape: 24 192 28 28 (3612672)
I0403 14:53:17.329093 13731 net.cpp:148] Top shape: 24 192 28 28 (3612672)
I0403 14:53:17.329108 13731 net.cpp:148] Top shape: 24 192 28 28 (3612672)
I0403 14:53:17.329123 13731 net.cpp:148] Top shape: 24 192 28 28 (3612672)
I0403 14:53:17.329135 13731 net.cpp:156] Memory required for data: 491324448
I0403 14:53:17.329149 13731 layer_factory.hpp:77] Creating layer inception_3a/1x1
I0403 14:53:17.329169 13731 net.cpp:91] Creating Layer inception_3a/1x1
I0403 14:53:17.329185 13731 net.cpp:425] inception_3a/1x1 <- pool2/3x3_s2_pool2/3x3_s2_0_split_0
I0403 14:53:17.329206 13731 net.cpp:399] inception_3a/1x1 -> inception_3a/1x1
I0403 14:53:17.330698 13731 net.cpp:141] Setting up inception_3a/1x1
I0403 14:53:17.330727 13731 net.cpp:148] Top shape: 24 64 28 28 (1204224)
I0403 14:53:17.330741 13731 net.cpp:156] Memory required for data: 496141344
I0403 14:53:17.330760 13731 layer_factory.hpp:77] Creating layer inception_3a/relu_1x1
I0403 14:53:17.330776 13731 net.cpp:91] Creating Layer inception_3a/relu_1x1
I0403 14:53:17.330791 13731 net.cpp:425] inception_3a/relu_1x1 <- inception_3a/1x1
I0403 14:53:17.330809 13731 net.cpp:386] inception_3a/relu_1x1 -> inception_3a/1x1 (in-place)
I0403 14:53:17.330981 13731 net.cpp:141] Setting up inception_3a/relu_1x1
I0403 14:53:17.331007 13731 net.cpp:148] Top shape: 24 64 28 28 (1204224)
I0403 14:53:17.331020 13731 net.cpp:156] Memory required for data: 500958240
I0403 14:53:17.331034 13731 layer_factory.hpp:77] Creating layer inception_3a/3x3_reduce
I0403 14:53:17.331055 13731 net.cpp:91] Creating Layer inception_3a/3x3_reduce
I0403 14:53:17.331071 13731 net.cpp:425] inception_3a/3x3_reduce <- pool2/3x3_s2_pool2/3x3_s2_0_split_1
I0403 14:53:17.331091 13731 net.cpp:399] inception_3a/3x3_reduce -> inception_3a/3x3_reduce
I0403 14:53:17.332726 13731 net.cpp:141] Setting up inception_3a/3x3_reduce
I0403 14:53:17.332754 13731 net.cpp:148] Top shape: 24 96 28 28 (1806336)
I0403 14:53:17.332769 13731 net.cpp:156] Memory required for data: 508183584
I0403 14:53:17.332789 13731 layer_factory.hpp:77] Creating layer inception_3a/relu_3x3_reduce
I0403 14:53:17.332824 13731 net.cpp:91] Creating Layer inception_3a/relu_3x3_reduce
I0403 14:53:17.332842 13731 net.cpp:425] inception_3a/relu_3x3_reduce <- inception_3a/3x3_reduce
I0403 14:53:17.332859 13731 net.cpp:386] inception_3a/relu_3x3_reduce -> inception_3a/3x3_reduce (in-place)
I0403 14:53:17.333034 13731 net.cpp:141] Setting up inception_3a/relu_3x3_reduce
I0403 14:53:17.333060 13731 net.cpp:148] Top shape: 24 96 28 28 (1806336)
I0403 14:53:17.333076 13731 net.cpp:156] Memory required for data: 515408928
I0403 14:53:17.333089 13731 layer_factory.hpp:77] Creating layer inception_3a/3x3
I0403 14:53:17.333112 13731 net.cpp:91] Creating Layer inception_3a/3x3
I0403 14:53:17.333128 13731 net.cpp:425] inception_3a/3x3 <- inception_3a/3x3_reduce
I0403 14:53:17.333148 13731 net.cpp:399] inception_3a/3x3 -> inception_3a/3x3
I0403 14:53:17.334736 13731 net.cpp:141] Setting up inception_3a/3x3
I0403 14:53:17.334764 13731 net.cpp:148] Top shape: 24 128 28 28 (2408448)
I0403 14:53:17.334779 13731 net.cpp:156] Memory required for data: 525042720
I0403 14:53:17.334795 13731 layer_factory.hpp:77] Creating layer inception_3a/relu_3x3
I0403 14:53:17.334815 13731 net.cpp:91] Creating Layer inception_3a/relu_3x3
I0403 14:53:17.334831 13731 net.cpp:425] inception_3a/relu_3x3 <- inception_3a/3x3
I0403 14:53:17.334846 13731 net.cpp:386] inception_3a/relu_3x3 -> inception_3a/3x3 (in-place)
I0403 14:53:17.335108 13731 net.cpp:141] Setting up inception_3a/relu_3x3
I0403 14:53:17.335134 13731 net.cpp:148] Top shape: 24 128 28 28 (2408448)
I0403 14:53:17.335147 13731 net.cpp:156] Memory required for data: 534676512
I0403 14:53:17.335161 13731 layer_factory.hpp:77] Creating layer inception_3a/5x5_reduce
I0403 14:53:17.335183 13731 net.cpp:91] Creating Layer inception_3a/5x5_reduce
I0403 14:53:17.335201 13731 net.cpp:425] inception_3a/5x5_reduce <- pool2/3x3_s2_pool2/3x3_s2_0_split_2
I0403 14:53:17.335222 13731 net.cpp:399] inception_3a/5x5_reduce -> inception_3a/5x5_reduce
I0403 14:53:17.336171 13731 net.cpp:141] Setting up inception_3a/5x5_reduce
I0403 14:53:17.336199 13731 net.cpp:148] Top shape: 24 16 28 28 (301056)
I0403 14:53:17.336213 13731 net.cpp:156] Memory required for data: 535880736
I0403 14:53:17.336231 13731 layer_factory.hpp:77] Creating layer inception_3a/relu_5x5_reduce
I0403 14:53:17.336251 13731 net.cpp:91] Creating Layer inception_3a/relu_5x5_reduce
I0403 14:53:17.336268 13731 net.cpp:425] inception_3a/relu_5x5_reduce <- inception_3a/5x5_reduce
I0403 14:53:17.336285 13731 net.cpp:386] inception_3a/relu_5x5_reduce -> inception_3a/5x5_reduce (in-place)
I0403 14:53:17.336577 13731 net.cpp:141] Setting up inception_3a/relu_5x5_reduce
I0403 14:53:17.336607 13731 net.cpp:148] Top shape: 24 16 28 28 (301056)
I0403 14:53:17.336623 13731 net.cpp:156] Memory required for data: 537084960
I0403 14:53:17.336638 13731 layer_factory.hpp:77] Creating layer inception_3a/5x5
I0403 14:53:17.336661 13731 net.cpp:91] Creating Layer inception_3a/5x5
I0403 14:53:17.336678 13731 net.cpp:425] inception_3a/5x5 <- inception_3a/5x5_reduce
I0403 14:53:17.336696 13731 net.cpp:399] inception_3a/5x5 -> inception_3a/5x5
I0403 14:53:17.337698 13731 net.cpp:141] Setting up inception_3a/5x5
I0403 14:53:17.337725 13731 net.cpp:148] Top shape: 24 32 28 28 (602112)
I0403 14:53:17.337740 13731 net.cpp:156] Memory required for data: 539493408
I0403 14:53:17.337759 13731 layer_factory.hpp:77] Creating layer inception_3a/relu_5x5
I0403 14:53:17.337775 13731 net.cpp:91] Creating Layer inception_3a/relu_5x5
I0403 14:53:17.337791 13731 net.cpp:425] inception_3a/relu_5x5 <- inception_3a/5x5
I0403 14:53:17.337810 13731 net.cpp:386] inception_3a/relu_5x5 -> inception_3a/5x5 (in-place)
I0403 14:53:17.337980 13731 net.cpp:141] Setting up inception_3a/relu_5x5
I0403 14:53:17.338006 13731 net.cpp:148] Top shape: 24 32 28 28 (602112)
I0403 14:53:17.338019 13731 net.cpp:156] Memory required for data: 541901856
I0403 14:53:17.338033 13731 layer_factory.hpp:77] Creating layer inception_3a/pool
I0403 14:53:17.338053 13731 net.cpp:91] Creating Layer inception_3a/pool
I0403 14:53:17.338069 13731 net.cpp:425] inception_3a/pool <- pool2/3x3_s2_pool2/3x3_s2_0_split_3
I0403 14:53:17.338101 13731 net.cpp:399] inception_3a/pool -> inception_3a/pool
I0403 14:53:17.338162 13731 net.cpp:141] Setting up inception_3a/pool
I0403 14:53:17.338186 13731 net.cpp:148] Top shape: 24 192 28 28 (3612672)
I0403 14:53:17.338199 13731 net.cpp:156] Memory required for data: 556352544
I0403 14:53:17.338213 13731 layer_factory.hpp:77] Creating layer inception_3a/pool_proj
I0403 14:53:17.338235 13731 net.cpp:91] Creating Layer inception_3a/pool_proj
I0403 14:53:17.338251 13731 net.cpp:425] inception_3a/pool_proj <- inception_3a/pool
I0403 14:53:17.338274 13731 net.cpp:399] inception_3a/pool_proj -> inception_3a/pool_proj
I0403 14:53:17.339241 13731 net.cpp:141] Setting up inception_3a/pool_proj
I0403 14:53:17.339269 13731 net.cpp:148] Top shape: 24 32 28 28 (602112)
I0403 14:53:17.339283 13731 net.cpp:156] Memory required for data: 558760992
I0403 14:53:17.339305 13731 layer_factory.hpp:77] Creating layer inception_3a/relu_pool_proj
I0403 14:53:17.339326 13731 net.cpp:91] Creating Layer inception_3a/relu_pool_proj
I0403 14:53:17.339342 13731 net.cpp:425] inception_3a/relu_pool_proj <- inception_3a/pool_proj
I0403 14:53:17.339359 13731 net.cpp:386] inception_3a/relu_pool_proj -> inception_3a/pool_proj (in-place)
I0403 14:53:17.339637 13731 net.cpp:141] Setting up inception_3a/relu_pool_proj
I0403 14:53:17.339663 13731 net.cpp:148] Top shape: 24 32 28 28 (602112)
I0403 14:53:17.339676 13731 net.cpp:156] Memory required for data: 561169440
I0403 14:53:17.339690 13731 layer_factory.hpp:77] Creating layer inception_3a/output
I0403 14:53:17.339709 13731 net.cpp:91] Creating Layer inception_3a/output
I0403 14:53:17.339723 13731 net.cpp:425] inception_3a/output <- inception_3a/1x1
I0403 14:53:17.339740 13731 net.cpp:425] inception_3a/output <- inception_3a/3x3
I0403 14:53:17.339754 13731 net.cpp:425] inception_3a/output <- inception_3a/5x5
I0403 14:53:17.339769 13731 net.cpp:425] inception_3a/output <- inception_3a/pool_proj
I0403 14:53:17.339788 13731 net.cpp:399] inception_3a/output -> inception_3a/output
I0403 14:53:17.339835 13731 net.cpp:141] Setting up inception_3a/output
I0403 14:53:17.339859 13731 net.cpp:148] Top shape: 24 256 28 28 (4816896)
I0403 14:53:17.339874 13731 net.cpp:156] Memory required for data: 580437024
I0403 14:53:17.339887 13731 layer_factory.hpp:77] Creating layer inception_3a/output_inception_3a/output_0_split
I0403 14:53:17.339903 13731 net.cpp:91] Creating Layer inception_3a/output_inception_3a/output_0_split
I0403 14:53:17.339918 13731 net.cpp:425] inception_3a/output_inception_3a/output_0_split <- inception_3a/output
I0403 14:53:17.339936 13731 net.cpp:399] inception_3a/output_inception_3a/output_0_split -> inception_3a/output_inception_3a/output_0_split_0
I0403 14:53:17.339957 13731 net.cpp:399] inception_3a/output_inception_3a/output_0_split -> inception_3a/output_inception_3a/output_0_split_1
I0403 14:53:17.339978 13731 net.cpp:399] inception_3a/output_inception_3a/output_0_split -> inception_3a/output_inception_3a/output_0_split_2
I0403 14:53:17.339998 13731 net.cpp:399] inception_3a/output_inception_3a/output_0_split -> inception_3a/output_inception_3a/output_0_split_3
I0403 14:53:17.340076 13731 net.cpp:141] Setting up inception_3a/output_inception_3a/output_0_split
I0403 14:53:17.340100 13731 net.cpp:148] Top shape: 24 256 28 28 (4816896)
I0403 14:53:17.340116 13731 net.cpp:148] Top shape: 24 256 28 28 (4816896)
I0403 14:53:17.340131 13731 net.cpp:148] Top shape: 24 256 28 28 (4816896)
I0403 14:53:17.340145 13731 net.cpp:148] Top shape: 24 256 28 28 (4816896)
I0403 14:53:17.340158 13731 net.cpp:156] Memory required for data: 657507360
I0403 14:53:17.340173 13731 layer_factory.hpp:77] Creating layer inception_3b/1x1
I0403 14:53:17.340194 13731 net.cpp:91] Creating Layer inception_3b/1x1
I0403 14:53:17.340211 13731 net.cpp:425] inception_3b/1x1 <- inception_3a/output_inception_3a/output_0_split_0
I0403 14:53:17.340232 13731 net.cpp:399] inception_3b/1x1 -> inception_3b/1x1
I0403 14:53:17.341369 13731 net.cpp:141] Setting up inception_3b/1x1
I0403 14:53:17.341408 13731 net.cpp:148] Top shape: 24 128 28 28 (2408448)
I0403 14:53:17.341423 13731 net.cpp:156] Memory required for data: 667141152
I0403 14:53:17.341440 13731 layer_factory.hpp:77] Creating layer inception_3b/relu_1x1
I0403 14:53:17.341459 13731 net.cpp:91] Creating Layer inception_3b/relu_1x1
I0403 14:53:17.341473 13731 net.cpp:425] inception_3b/relu_1x1 <- inception_3b/1x1
I0403 14:53:17.341493 13731 net.cpp:386] inception_3b/relu_1x1 -> inception_3b/1x1 (in-place)
I0403 14:53:17.341684 13731 net.cpp:141] Setting up inception_3b/relu_1x1
I0403 14:53:17.341709 13731 net.cpp:148] Top shape: 24 128 28 28 (2408448)
I0403 14:53:17.341724 13731 net.cpp:156] Memory required for data: 676774944
I0403 14:53:17.341737 13731 layer_factory.hpp:77] Creating layer inception_3b/3x3_reduce
I0403 14:53:17.341759 13731 net.cpp:91] Creating Layer inception_3b/3x3_reduce
I0403 14:53:17.341776 13731 net.cpp:425] inception_3b/3x3_reduce <- inception_3a/output_inception_3a/output_0_split_1
I0403 14:53:17.341797 13731 net.cpp:399] inception_3b/3x3_reduce -> inception_3b/3x3_reduce
I0403 14:53:17.342929 13731 net.cpp:141] Setting up inception_3b/3x3_reduce
I0403 14:53:17.342957 13731 net.cpp:148] Top shape: 24 128 28 28 (2408448)
I0403 14:53:17.342972 13731 net.cpp:156] Memory required for data: 686408736
I0403 14:53:17.342988 13731 layer_factory.hpp:77] Creating layer inception_3b/relu_3x3_reduce
I0403 14:53:17.343006 13731 net.cpp:91] Creating Layer inception_3b/relu_3x3_reduce
I0403 14:53:17.343022 13731 net.cpp:425] inception_3b/relu_3x3_reduce <- inception_3b/3x3_reduce
I0403 14:53:17.343040 13731 net.cpp:386] inception_3b/relu_3x3_reduce -> inception_3b/3x3_reduce (in-place)
I0403 14:53:17.343212 13731 net.cpp:141] Setting up inception_3b/relu_3x3_reduce
I0403 14:53:17.343236 13731 net.cpp:148] Top shape: 24 128 28 28 (2408448)
I0403 14:53:17.343250 13731 net.cpp:156] Memory required for data: 696042528
I0403 14:53:17.343264 13731 layer_factory.hpp:77] Creating layer inception_3b/3x3
I0403 14:53:17.343291 13731 net.cpp:91] Creating Layer inception_3b/3x3
I0403 14:53:17.343307 13731 net.cpp:425] inception_3b/3x3 <- inception_3b/3x3_reduce
I0403 14:53:17.343327 13731 net.cpp:399] inception_3b/3x3 -> inception_3b/3x3
I0403 14:53:17.346264 13731 net.cpp:141] Setting up inception_3b/3x3
I0403 14:53:17.346293 13731 net.cpp:148] Top shape: 24 192 28 28 (3612672)
I0403 14:53:17.346309 13731 net.cpp:156] Memory required for data: 710493216
I0403 14:53:17.346328 13731 layer_factory.hpp:77] Creating layer inception_3b/relu_3x3
I0403 14:53:17.346348 13731 net.cpp:91] Creating Layer inception_3b/relu_3x3
I0403 14:53:17.346364 13731 net.cpp:425] inception_3b/relu_3x3 <- inception_3b/3x3
I0403 14:53:17.346380 13731 net.cpp:386] inception_3b/relu_3x3 -> inception_3b/3x3 (in-place)
I0403 14:53:17.346662 13731 net.cpp:141] Setting up inception_3b/relu_3x3
I0403 14:53:17.346688 13731 net.cpp:148] Top shape: 24 192 28 28 (3612672)
I0403 14:53:17.346704 13731 net.cpp:156] Memory required for data: 724943904
I0403 14:53:17.346717 13731 layer_factory.hpp:77] Creating layer inception_3b/5x5_reduce
I0403 14:53:17.346740 13731 net.cpp:91] Creating Layer inception_3b/5x5_reduce
I0403 14:53:17.346758 13731 net.cpp:425] inception_3b/5x5_reduce <- inception_3a/output_inception_3a/output_0_split_2
I0403 14:53:17.346779 13731 net.cpp:399] inception_3b/5x5_reduce -> inception_3b/5x5_reduce
I0403 14:53:17.347766 13731 net.cpp:141] Setting up inception_3b/5x5_reduce
I0403 14:53:17.347793 13731 net.cpp:148] Top shape: 24 32 28 28 (602112)
I0403 14:53:17.347808 13731 net.cpp:156] Memory required for data: 727352352
I0403 14:53:17.347826 13731 layer_factory.hpp:77] Creating layer inception_3b/relu_5x5_reduce
I0403 14:53:17.347846 13731 net.cpp:91] Creating Layer inception_3b/relu_5x5_reduce
I0403 14:53:17.347862 13731 net.cpp:425] inception_3b/relu_5x5_reduce <- inception_3b/5x5_reduce
I0403 14:53:17.347878 13731 net.cpp:386] inception_3b/relu_5x5_reduce -> inception_3b/5x5_reduce (in-place)
I0403 14:53:17.348053 13731 net.cpp:141] Setting up inception_3b/relu_5x5_reduce
I0403 14:53:17.348090 13731 net.cpp:148] Top shape: 24 32 28 28 (602112)
I0403 14:53:17.348109 13731 net.cpp:156] Memory required for data: 729760800
I0403 14:53:17.348124 13731 layer_factory.hpp:77] Creating layer inception_3b/5x5
I0403 14:53:17.348142 13731 net.cpp:91] Creating Layer inception_3b/5x5
I0403 14:53:17.348158 13731 net.cpp:425] inception_3b/5x5 <- inception_3b/5x5_reduce
I0403 14:53:17.348178 13731 net.cpp:399] inception_3b/5x5 -> inception_3b/5x5
I0403 14:53:17.350232 13731 net.cpp:141] Setting up inception_3b/5x5
I0403 14:53:17.350261 13731 net.cpp:148] Top shape: 24 96 28 28 (1806336)
I0403 14:53:17.350277 13731 net.cpp:156] Memory required for data: 736986144
I0403 14:53:17.350296 13731 layer_factory.hpp:77] Creating layer inception_3b/relu_5x5
I0403 14:53:17.350314 13731 net.cpp:91] Creating Layer inception_3b/relu_5x5
I0403 14:53:17.350330 13731 net.cpp:425] inception_3b/relu_5x5 <- inception_3b/5x5
I0403 14:53:17.350349 13731 net.cpp:386] inception_3b/relu_5x5 -> inception_3b/5x5 (in-place)
I0403 14:53:17.350545 13731 net.cpp:141] Setting up inception_3b/relu_5x5
I0403 14:53:17.350571 13731 net.cpp:148] Top shape: 24 96 28 28 (1806336)
I0403 14:53:17.350586 13731 net.cpp:156] Memory required for data: 744211488
I0403 14:53:17.350605 13731 layer_factory.hpp:77] Creating layer inception_3b/pool
I0403 14:53:17.350623 13731 net.cpp:91] Creating Layer inception_3b/pool
I0403 14:53:17.350639 13731 net.cpp:425] inception_3b/pool <- inception_3a/output_inception_3a/output_0_split_3
I0403 14:53:17.350657 13731 net.cpp:399] inception_3b/pool -> inception_3b/pool
I0403 14:53:17.350715 13731 net.cpp:141] Setting up inception_3b/pool
I0403 14:53:17.350739 13731 net.cpp:148] Top shape: 24 256 28 28 (4816896)
I0403 14:53:17.350754 13731 net.cpp:156] Memory required for data: 763479072
I0403 14:53:17.350769 13731 layer_factory.hpp:77] Creating layer inception_3b/pool_proj
I0403 14:53:17.350790 13731 net.cpp:91] Creating Layer inception_3b/pool_proj
I0403 14:53:17.350808 13731 net.cpp:425] inception_3b/pool_proj <- inception_3b/pool
I0403 14:53:17.350829 13731 net.cpp:399] inception_3b/pool_proj -> inception_3b/pool_proj
I0403 14:53:17.351908 13731 net.cpp:141] Setting up inception_3b/pool_proj
I0403 14:53:17.351939 13731 net.cpp:148] Top shape: 24 64 28 28 (1204224)
I0403 14:53:17.351955 13731 net.cpp:156] Memory required for data: 768295968
I0403 14:53:17.351974 13731 layer_factory.hpp:77] Creating layer inception_3b/relu_pool_proj
I0403 14:53:17.351992 13731 net.cpp:91] Creating Layer inception_3b/relu_pool_proj
I0403 14:53:17.352008 13731 net.cpp:425] inception_3b/relu_pool_proj <- inception_3b/pool_proj
I0403 14:53:17.352025 13731 net.cpp:386] inception_3b/relu_pool_proj -> inception_3b/pool_proj (in-place)
I0403 14:53:17.352434 13731 net.cpp:141] Setting up inception_3b/relu_pool_proj
I0403 14:53:17.352461 13731 net.cpp:148] Top shape: 24 64 28 28 (1204224)
I0403 14:53:17.352476 13731 net.cpp:156] Memory required for data: 773112864
I0403 14:53:17.352490 13731 layer_factory.hpp:77] Creating layer inception_3b/output
I0403 14:53:17.352509 13731 net.cpp:91] Creating Layer inception_3b/output
I0403 14:53:17.352526 13731 net.cpp:425] inception_3b/output <- inception_3b/1x1
I0403 14:53:17.352545 13731 net.cpp:425] inception_3b/output <- inception_3b/3x3
I0403 14:53:17.352560 13731 net.cpp:425] inception_3b/output <- inception_3b/5x5
I0403 14:53:17.352574 13731 net.cpp:425] inception_3b/output <- inception_3b/pool_proj
I0403 14:53:17.352591 13731 net.cpp:399] inception_3b/output -> inception_3b/output
I0403 14:53:17.352643 13731 net.cpp:141] Setting up inception_3b/output
I0403 14:53:17.352666 13731 net.cpp:148] Top shape: 24 480 28 28 (9031680)
I0403 14:53:17.352681 13731 net.cpp:156] Memory required for data: 809239584
I0403 14:53:17.352695 13731 layer_factory.hpp:77] Creating layer pool3/3x3_s2
I0403 14:53:17.352712 13731 net.cpp:91] Creating Layer pool3/3x3_s2
I0403 14:53:17.352728 13731 net.cpp:425] pool3/3x3_s2 <- inception_3b/output
I0403 14:53:17.352747 13731 net.cpp:399] pool3/3x3_s2 -> pool3/3x3_s2
I0403 14:53:17.352820 13731 net.cpp:141] Setting up pool3/3x3_s2
I0403 14:53:17.352844 13731 net.cpp:148] Top shape: 24 480 14 14 (2257920)
I0403 14:53:17.352859 13731 net.cpp:156] Memory required for data: 818271264
I0403 14:53:17.352874 13731 layer_factory.hpp:77] Creating layer pool3/3x3_s2_pool3/3x3_s2_0_split
I0403 14:53:17.352892 13731 net.cpp:91] Creating Layer pool3/3x3_s2_pool3/3x3_s2_0_split
I0403 14:53:17.352912 13731 net.cpp:425] pool3/3x3_s2_pool3/3x3_s2_0_split <- pool3/3x3_s2
I0403 14:53:17.352931 13731 net.cpp:399] pool3/3x3_s2_pool3/3x3_s2_0_split -> pool3/3x3_s2_pool3/3x3_s2_0_split_0
I0403 14:53:17.352952 13731 net.cpp:399] pool3/3x3_s2_pool3/3x3_s2_0_split -> pool3/3x3_s2_pool3/3x3_s2_0_split_1
I0403 14:53:17.352972 13731 net.cpp:399] pool3/3x3_s2_pool3/3x3_s2_0_split -> pool3/3x3_s2_pool3/3x3_s2_0_split_2
I0403 14:53:17.352989 13731 net.cpp:399] pool3/3x3_s2_pool3/3x3_s2_0_split -> pool3/3x3_s2_pool3/3x3_s2_0_split_3
I0403 14:53:17.353065 13731 net.cpp:141] Setting up pool3/3x3_s2_pool3/3x3_s2_0_split
I0403 14:53:17.353091 13731 net.cpp:148] Top shape: 24 480 14 14 (2257920)
I0403 14:53:17.353107 13731 net.cpp:148] Top shape: 24 480 14 14 (2257920)
I0403 14:53:17.353122 13731 net.cpp:148] Top shape: 24 480 14 14 (2257920)
I0403 14:53:17.353138 13731 net.cpp:148] Top shape: 24 480 14 14 (2257920)
I0403 14:53:17.353152 13731 net.cpp:156] Memory required for data: 854397984
I0403 14:53:17.353166 13731 layer_factory.hpp:77] Creating layer inception_4a/1x1
I0403 14:53:17.353188 13731 net.cpp:91] Creating Layer inception_4a/1x1
I0403 14:53:17.353204 13731 net.cpp:425] inception_4a/1x1 <- pool3/3x3_s2_pool3/3x3_s2_0_split_0
I0403 14:53:17.353226 13731 net.cpp:399] inception_4a/1x1 -> inception_4a/1x1
I0403 14:53:17.354836 13731 net.cpp:141] Setting up inception_4a/1x1
I0403 14:53:17.354867 13731 net.cpp:148] Top shape: 24 192 14 14 (903168)
I0403 14:53:17.354883 13731 net.cpp:156] Memory required for data: 858010656
I0403 14:53:17.354902 13731 layer_factory.hpp:77] Creating layer inception_4a/relu_1x1
I0403 14:53:17.354918 13731 net.cpp:91] Creating Layer inception_4a/relu_1x1
I0403 14:53:17.354934 13731 net.cpp:425] inception_4a/relu_1x1 <- inception_4a/1x1
I0403 14:53:17.354950 13731 net.cpp:386] inception_4a/relu_1x1 -> inception_4a/1x1 (in-place)
I0403 14:53:17.355126 13731 net.cpp:141] Setting up inception_4a/relu_1x1
I0403 14:53:17.355152 13731 net.cpp:148] Top shape: 24 192 14 14 (903168)
I0403 14:53:17.355166 13731 net.cpp:156] Memory required for data: 861623328
I0403 14:53:17.355180 13731 layer_factory.hpp:77] Creating layer inception_4a/3x3_reduce
I0403 14:53:17.355202 13731 net.cpp:91] Creating Layer inception_4a/3x3_reduce
I0403 14:53:17.355219 13731 net.cpp:425] inception_4a/3x3_reduce <- pool3/3x3_s2_pool3/3x3_s2_0_split_1
I0403 14:53:17.355240 13731 net.cpp:399] inception_4a/3x3_reduce -> inception_4a/3x3_reduce
I0403 14:53:17.356506 13731 net.cpp:141] Setting up inception_4a/3x3_reduce
I0403 14:53:17.356536 13731 net.cpp:148] Top shape: 24 96 14 14 (451584)
I0403 14:53:17.356554 13731 net.cpp:156] Memory required for data: 863429664
I0403 14:53:17.356577 13731 layer_factory.hpp:77] Creating layer inception_4a/relu_3x3_reduce
I0403 14:53:17.356597 13731 net.cpp:91] Creating Layer inception_4a/relu_3x3_reduce
I0403 14:53:17.356618 13731 net.cpp:425] inception_4a/relu_3x3_reduce <- inception_4a/3x3_reduce
I0403 14:53:17.356636 13731 net.cpp:386] inception_4a/relu_3x3_reduce -> inception_4a/3x3_reduce (in-place)
I0403 14:53:17.356811 13731 net.cpp:141] Setting up inception_4a/relu_3x3_reduce
I0403 14:53:17.356837 13731 net.cpp:148] Top shape: 24 96 14 14 (451584)
I0403 14:53:17.356853 13731 net.cpp:156] Memory required for data: 865236000
I0403 14:53:17.356866 13731 layer_factory.hpp:77] Creating layer inception_4a/3x3
I0403 14:53:17.356887 13731 net.cpp:91] Creating Layer inception_4a/3x3
I0403 14:53:17.356904 13731 net.cpp:425] inception_4a/3x3 <- inception_4a/3x3_reduce
I0403 14:53:17.356925 13731 net.cpp:399] inception_4a/3x3 -> inception_4a/3x3
I0403 14:53:17.359566 13731 net.cpp:141] Setting up inception_4a/3x3
I0403 14:53:17.359594 13731 net.cpp:148] Top shape: 24 208 14 14 (978432)
I0403 14:53:17.359616 13731 net.cpp:156] Memory required for data: 869149728
I0403 14:53:17.359633 13731 layer_factory.hpp:77] Creating layer inception_4a/relu_3x3
I0403 14:53:17.359650 13731 net.cpp:91] Creating Layer inception_4a/relu_3x3
I0403 14:53:17.359666 13731 net.cpp:425] inception_4a/relu_3x3 <- inception_4a/3x3
I0403 14:53:17.359685 13731 net.cpp:386] inception_4a/relu_3x3 -> inception_4a/3x3 (in-place)
I0403 14:53:17.359963 13731 net.cpp:141] Setting up inception_4a/relu_3x3
I0403 14:53:17.359989 13731 net.cpp:148] Top shape: 24 208 14 14 (978432)
I0403 14:53:17.360003 13731 net.cpp:156] Memory required for data: 873063456
I0403 14:53:17.360018 13731 layer_factory.hpp:77] Creating layer inception_4a/5x5_reduce
I0403 14:53:17.360040 13731 net.cpp:91] Creating Layer inception_4a/5x5_reduce
I0403 14:53:17.360057 13731 net.cpp:425] inception_4a/5x5_reduce <- pool3/3x3_s2_pool3/3x3_s2_0_split_2
I0403 14:53:17.360080 13731 net.cpp:399] inception_4a/5x5_reduce -> inception_4a/5x5_reduce
I0403 14:53:17.361089 13731 net.cpp:141] Setting up inception_4a/5x5_reduce
I0403 14:53:17.361117 13731 net.cpp:148] Top shape: 24 16 14 14 (75264)
I0403 14:53:17.361132 13731 net.cpp:156] Memory required for data: 873364512
I0403 14:53:17.361150 13731 layer_factory.hpp:77] Creating layer inception_4a/relu_5x5_reduce
I0403 14:53:17.361167 13731 net.cpp:91] Creating Layer inception_4a/relu_5x5_reduce
I0403 14:53:17.361182 13731 net.cpp:425] inception_4a/relu_5x5_reduce <- inception_4a/5x5_reduce
I0403 14:53:17.361202 13731 net.cpp:386] inception_4a/relu_5x5_reduce -> inception_4a/5x5_reduce (in-place)
I0403 14:53:17.361376 13731 net.cpp:141] Setting up inception_4a/relu_5x5_reduce
I0403 14:53:17.361402 13731 net.cpp:148] Top shape: 24 16 14 14 (75264)
I0403 14:53:17.361415 13731 net.cpp:156] Memory required for data: 873665568
I0403 14:53:17.361431 13731 layer_factory.hpp:77] Creating layer inception_4a/5x5
I0403 14:53:17.361454 13731 net.cpp:91] Creating Layer inception_4a/5x5
I0403 14:53:17.361471 13731 net.cpp:425] inception_4a/5x5 <- inception_4a/5x5_reduce
I0403 14:53:17.361491 13731 net.cpp:399] inception_4a/5x5 -> inception_4a/5x5
I0403 14:53:17.362568 13731 net.cpp:141] Setting up inception_4a/5x5
I0403 14:53:17.362596 13731 net.cpp:148] Top shape: 24 48 14 14 (225792)
I0403 14:53:17.362622 13731 net.cpp:156] Memory required for data: 874568736
I0403 14:53:17.362640 13731 layer_factory.hpp:77] Creating layer inception_4a/relu_5x5
I0403 14:53:17.362659 13731 net.cpp:91] Creating Layer inception_4a/relu_5x5
I0403 14:53:17.362676 13731 net.cpp:425] inception_4a/relu_5x5 <- inception_4a/5x5
I0403 14:53:17.362694 13731 net.cpp:386] inception_4a/relu_5x5 -> inception_4a/5x5 (in-place)
I0403 14:53:17.362865 13731 net.cpp:141] Setting up inception_4a/relu_5x5
I0403 14:53:17.362891 13731 net.cpp:148] Top shape: 24 48 14 14 (225792)
I0403 14:53:17.362906 13731 net.cpp:156] Memory required for data: 875471904
I0403 14:53:17.362920 13731 layer_factory.hpp:77] Creating layer inception_4a/pool
I0403 14:53:17.362937 13731 net.cpp:91] Creating Layer inception_4a/pool
I0403 14:53:17.362952 13731 net.cpp:425] inception_4a/pool <- pool3/3x3_s2_pool3/3x3_s2_0_split_3
I0403 14:53:17.362972 13731 net.cpp:399] inception_4a/pool -> inception_4a/pool
I0403 14:53:17.363032 13731 net.cpp:141] Setting up inception_4a/pool
I0403 14:53:17.363055 13731 net.cpp:148] Top shape: 24 480 14 14 (2257920)
I0403 14:53:17.363070 13731 net.cpp:156] Memory required for data: 884503584
I0403 14:53:17.363083 13731 layer_factory.hpp:77] Creating layer inception_4a/pool_proj
I0403 14:53:17.363106 13731 net.cpp:91] Creating Layer inception_4a/pool_proj
I0403 14:53:17.363123 13731 net.cpp:425] inception_4a/pool_proj <- inception_4a/pool
I0403 14:53:17.363142 13731 net.cpp:399] inception_4a/pool_proj -> inception_4a/pool_proj
I0403 14:53:17.364305 13731 net.cpp:141] Setting up inception_4a/pool_proj
I0403 14:53:17.364336 13731 net.cpp:148] Top shape: 24 64 14 14 (301056)
I0403 14:53:17.364364 13731 net.cpp:156] Memory required for data: 885707808
I0403 14:53:17.364384 13731 layer_factory.hpp:77] Creating layer inception_4a/relu_pool_proj
I0403 14:53:17.364401 13731 net.cpp:91] Creating Layer inception_4a/relu_pool_proj
I0403 14:53:17.364418 13731 net.cpp:425] inception_4a/relu_pool_proj <- inception_4a/pool_proj
I0403 14:53:17.364437 13731 net.cpp:386] inception_4a/relu_pool_proj -> inception_4a/pool_proj (in-place)
I0403 14:53:17.364734 13731 net.cpp:141] Setting up inception_4a/relu_pool_proj
I0403 14:53:17.364763 13731 net.cpp:148] Top shape: 24 64 14 14 (301056)
I0403 14:53:17.364778 13731 net.cpp:156] Memory required for data: 886912032
I0403 14:53:17.364792 13731 layer_factory.hpp:77] Creating layer inception_4a/output
I0403 14:53:17.364809 13731 net.cpp:91] Creating Layer inception_4a/output
I0403 14:53:17.364825 13731 net.cpp:425] inception_4a/output <- inception_4a/1x1
I0403 14:53:17.364840 13731 net.cpp:425] inception_4a/output <- inception_4a/3x3
I0403 14:53:17.364856 13731 net.cpp:425] inception_4a/output <- inception_4a/5x5
I0403 14:53:17.364871 13731 net.cpp:425] inception_4a/output <- inception_4a/pool_proj
I0403 14:53:17.364887 13731 net.cpp:399] inception_4a/output -> inception_4a/output
I0403 14:53:17.364938 13731 net.cpp:141] Setting up inception_4a/output
I0403 14:53:17.364961 13731 net.cpp:148] Top shape: 24 512 14 14 (2408448)
I0403 14:53:17.364975 13731 net.cpp:156] Memory required for data: 896545824
I0403 14:53:17.364989 13731 layer_factory.hpp:77] Creating layer inception_4a/output_inception_4a/output_0_split
I0403 14:53:17.365008 13731 net.cpp:91] Creating Layer inception_4a/output_inception_4a/output_0_split
I0403 14:53:17.365025 13731 net.cpp:425] inception_4a/output_inception_4a/output_0_split <- inception_4a/output
I0403 14:53:17.365041 13731 net.cpp:399] inception_4a/output_inception_4a/output_0_split -> inception_4a/output_inception_4a/output_0_split_0
I0403 14:53:17.365061 13731 net.cpp:399] inception_4a/output_inception_4a/output_0_split -> inception_4a/output_inception_4a/output_0_split_1
I0403 14:53:17.365080 13731 net.cpp:399] inception_4a/output_inception_4a/output_0_split -> inception_4a/output_inception_4a/output_0_split_2
I0403 14:53:17.365103 13731 net.cpp:399] inception_4a/output_inception_4a/output_0_split -> inception_4a/output_inception_4a/output_0_split_3
I0403 14:53:17.365123 13731 net.cpp:399] inception_4a/output_inception_4a/output_0_split -> inception_4a/output_inception_4a/output_0_split_4
I0403 14:53:17.365214 13731 net.cpp:141] Setting up inception_4a/output_inception_4a/output_0_split
I0403 14:53:17.365237 13731 net.cpp:148] Top shape: 24 512 14 14 (2408448)
I0403 14:53:17.365252 13731 net.cpp:148] Top shape: 24 512 14 14 (2408448)
I0403 14:53:17.365267 13731 net.cpp:148] Top shape: 24 512 14 14 (2408448)
I0403 14:53:17.365283 13731 net.cpp:148] Top shape: 24 512 14 14 (2408448)
I0403 14:53:17.365298 13731 net.cpp:148] Top shape: 24 512 14 14 (2408448)
I0403 14:53:17.365309 13731 net.cpp:156] Memory required for data: 944714784
I0403 14:53:17.365324 13731 layer_factory.hpp:77] Creating layer loss1/ave_pool
I0403 14:53:17.365340 13731 net.cpp:91] Creating Layer loss1/ave_pool
I0403 14:53:17.365355 13731 net.cpp:425] loss1/ave_pool <- inception_4a/output_inception_4a/output_0_split_0
I0403 14:53:17.365375 13731 net.cpp:399] loss1/ave_pool -> loss1/ave_pool
I0403 14:53:17.365577 13731 net.cpp:141] Setting up loss1/ave_pool
I0403 14:53:17.365624 13731 net.cpp:148] Top shape: 24 512 4 4 (196608)
I0403 14:53:17.365643 13731 net.cpp:156] Memory required for data: 945501216
I0403 14:53:17.365658 13731 layer_factory.hpp:77] Creating layer loss1/conv
I0403 14:53:17.365685 13731 net.cpp:91] Creating Layer loss1/conv
I0403 14:53:17.365703 13731 net.cpp:425] loss1/conv <- loss1/ave_pool
I0403 14:53:17.365722 13731 net.cpp:399] loss1/conv -> loss1/conv
I0403 14:53:17.367169 13731 net.cpp:141] Setting up loss1/conv
I0403 14:53:17.367197 13731 net.cpp:148] Top shape: 24 128 4 4 (49152)
I0403 14:53:17.367213 13731 net.cpp:156] Memory required for data: 945697824
I0403 14:53:17.367249 13731 layer_factory.hpp:77] Creating layer loss1/relu_conv
I0403 14:53:17.367269 13731 net.cpp:91] Creating Layer loss1/relu_conv
I0403 14:53:17.367285 13731 net.cpp:425] loss1/relu_conv <- loss1/conv
I0403 14:53:17.367305 13731 net.cpp:386] loss1/relu_conv -> loss1/conv (in-place)
I0403 14:53:17.367590 13731 net.cpp:141] Setting up loss1/relu_conv
I0403 14:53:17.367622 13731 net.cpp:148] Top shape: 24 128 4 4 (49152)
I0403 14:53:17.367637 13731 net.cpp:156] Memory required for data: 945894432
I0403 14:53:17.367652 13731 layer_factory.hpp:77] Creating layer loss1/fc
I0403 14:53:17.367676 13731 net.cpp:91] Creating Layer loss1/fc
I0403 14:53:17.367694 13731 net.cpp:425] loss1/fc <- loss1/conv
I0403 14:53:17.367715 13731 net.cpp:399] loss1/fc -> loss1/fc
I0403 14:53:17.386004 13731 net.cpp:141] Setting up loss1/fc
I0403 14:53:17.386057 13731 net.cpp:148] Top shape: 24 1024 (24576)
I0403 14:53:17.386073 13731 net.cpp:156] Memory required for data: 945992736
I0403 14:53:17.386093 13731 layer_factory.hpp:77] Creating layer loss1/relu_fc
I0403 14:53:17.386112 13731 net.cpp:91] Creating Layer loss1/relu_fc
I0403 14:53:17.386129 13731 net.cpp:425] loss1/relu_fc <- loss1/fc
I0403 14:53:17.386147 13731 net.cpp:386] loss1/relu_fc -> loss1/fc (in-place)
I0403 14:53:17.386361 13731 net.cpp:141] Setting up loss1/relu_fc
I0403 14:53:17.386386 13731 net.cpp:148] Top shape: 24 1024 (24576)
I0403 14:53:17.386400 13731 net.cpp:156] Memory required for data: 946091040
I0403 14:53:17.386415 13731 layer_factory.hpp:77] Creating layer loss1/drop_fc
I0403 14:53:17.386442 13731 net.cpp:91] Creating Layer loss1/drop_fc
I0403 14:53:17.386461 13731 net.cpp:425] loss1/drop_fc <- loss1/fc
I0403 14:53:17.386479 13731 net.cpp:386] loss1/drop_fc -> loss1/fc (in-place)
I0403 14:53:17.386533 13731 net.cpp:141] Setting up loss1/drop_fc
I0403 14:53:17.386555 13731 net.cpp:148] Top shape: 24 1024 (24576)
I0403 14:53:17.386570 13731 net.cpp:156] Memory required for data: 946189344
I0403 14:53:17.386584 13731 layer_factory.hpp:77] Creating layer loss1/classifier_plantvillage
I0403 14:53:17.386610 13731 net.cpp:91] Creating Layer loss1/classifier_plantvillage
I0403 14:53:17.386629 13731 net.cpp:425] loss1/classifier_plantvillage <- loss1/fc
I0403 14:53:17.386648 13731 net.cpp:399] loss1/classifier_plantvillage -> loss1/classifier_plantvillage
I0403 14:53:17.387579 13731 net.cpp:141] Setting up loss1/classifier_plantvillage
I0403 14:53:17.387611 13731 net.cpp:148] Top shape: 24 38 (912)
I0403 14:53:17.387629 13731 net.cpp:156] Memory required for data: 946192992
I0403 14:53:17.387646 13731 layer_factory.hpp:77] Creating layer loss1/classifier_plantvillage_loss1/classifier_plantvillage_0_split
I0403 14:53:17.387663 13731 net.cpp:91] Creating Layer loss1/classifier_plantvillage_loss1/classifier_plantvillage_0_split
I0403 14:53:17.387679 13731 net.cpp:425] loss1/classifier_plantvillage_loss1/classifier_plantvillage_0_split <- loss1/classifier_plantvillage
I0403 14:53:17.387699 13731 net.cpp:399] loss1/classifier_plantvillage_loss1/classifier_plantvillage_0_split -> loss1/classifier_plantvillage_loss1/classifier_plantvillage_0_split_0
I0403 14:53:17.387720 13731 net.cpp:399] loss1/classifier_plantvillage_loss1/classifier_plantvillage_0_split -> loss1/classifier_plantvillage_loss1/classifier_plantvillage_0_split_1
I0403 14:53:17.387740 13731 net.cpp:399] loss1/classifier_plantvillage_loss1/classifier_plantvillage_0_split -> loss1/classifier_plantvillage_loss1/classifier_plantvillage_0_split_2
I0403 14:53:17.387805 13731 net.cpp:141] Setting up loss1/classifier_plantvillage_loss1/classifier_plantvillage_0_split
I0403 14:53:17.387828 13731 net.cpp:148] Top shape: 24 38 (912)
I0403 14:53:17.387845 13731 net.cpp:148] Top shape: 24 38 (912)
I0403 14:53:17.387858 13731 net.cpp:148] Top shape: 24 38 (912)
I0403 14:53:17.387872 13731 net.cpp:156] Memory required for data: 946203936
I0403 14:53:17.387886 13731 layer_factory.hpp:77] Creating layer inception_4b/1x1
I0403 14:53:17.387907 13731 net.cpp:91] Creating Layer inception_4b/1x1
I0403 14:53:17.387951 13731 net.cpp:425] inception_4b/1x1 <- inception_4a/output_inception_4a/output_0_split_1
I0403 14:53:17.387971 13731 net.cpp:399] inception_4b/1x1 -> inception_4b/1x1
I0403 14:53:17.389619 13731 net.cpp:141] Setting up inception_4b/1x1
I0403 14:53:17.389647 13731 net.cpp:148] Top shape: 24 160 14 14 (752640)
I0403 14:53:17.389662 13731 net.cpp:156] Memory required for data: 949214496
I0403 14:53:17.389679 13731 layer_factory.hpp:77] Creating layer inception_4b/relu_1x1
I0403 14:53:17.389696 13731 net.cpp:91] Creating Layer inception_4b/relu_1x1
I0403 14:53:17.389711 13731 net.cpp:425] inception_4b/relu_1x1 <- inception_4b/1x1
I0403 14:53:17.389729 13731 net.cpp:386] inception_4b/relu_1x1 -> inception_4b/1x1 (in-place)
I0403 14:53:17.389905 13731 net.cpp:141] Setting up inception_4b/relu_1x1
I0403 14:53:17.389930 13731 net.cpp:148] Top shape: 24 160 14 14 (752640)
I0403 14:53:17.389945 13731 net.cpp:156] Memory required for data: 952225056
I0403 14:53:17.389958 13731 layer_factory.hpp:77] Creating layer inception_4b/3x3_reduce
I0403 14:53:17.389979 13731 net.cpp:91] Creating Layer inception_4b/3x3_reduce
I0403 14:53:17.389997 13731 net.cpp:425] inception_4b/3x3_reduce <- inception_4a/output_inception_4a/output_0_split_2
I0403 14:53:17.390017 13731 net.cpp:399] inception_4b/3x3_reduce -> inception_4b/3x3_reduce
I0403 14:53:17.391320 13731 net.cpp:141] Setting up inception_4b/3x3_reduce
I0403 14:53:17.391346 13731 net.cpp:148] Top shape: 24 112 14 14 (526848)
I0403 14:53:17.391361 13731 net.cpp:156] Memory required for data: 954332448
I0403 14:53:17.391378 13731 layer_factory.hpp:77] Creating layer inception_4b/relu_3x3_reduce
I0403 14:53:17.391397 13731 net.cpp:91] Creating Layer inception_4b/relu_3x3_reduce
I0403 14:53:17.391413 13731 net.cpp:425] inception_4b/relu_3x3_reduce <- inception_4b/3x3_reduce
I0403 14:53:17.391429 13731 net.cpp:386] inception_4b/relu_3x3_reduce -> inception_4b/3x3_reduce (in-place)
I0403 14:53:17.391710 13731 net.cpp:141] Setting up inception_4b/relu_3x3_reduce
I0403 14:53:17.391736 13731 net.cpp:148] Top shape: 24 112 14 14 (526848)
I0403 14:53:17.391751 13731 net.cpp:156] Memory required for data: 956439840
I0403 14:53:17.391763 13731 layer_factory.hpp:77] Creating layer inception_4b/3x3
I0403 14:53:17.391784 13731 net.cpp:91] Creating Layer inception_4b/3x3
I0403 14:53:17.391801 13731 net.cpp:425] inception_4b/3x3 <- inception_4b/3x3_reduce
I0403 14:53:17.391821 13731 net.cpp:399] inception_4b/3x3 -> inception_4b/3x3
I0403 14:53:17.394709 13731 net.cpp:141] Setting up inception_4b/3x3
I0403 14:53:17.394739 13731 net.cpp:148] Top shape: 24 224 14 14 (1053696)
I0403 14:53:17.394755 13731 net.cpp:156] Memory required for data: 960654624
I0403 14:53:17.394773 13731 layer_factory.hpp:77] Creating layer inception_4b/relu_3x3
I0403 14:53:17.394789 13731 net.cpp:91] Creating Layer inception_4b/relu_3x3
I0403 14:53:17.394804 13731 net.cpp:425] inception_4b/relu_3x3 <- inception_4b/3x3
I0403 14:53:17.394822 13731 net.cpp:386] inception_4b/relu_3x3 -> inception_4b/3x3 (in-place)
I0403 14:53:17.395004 13731 net.cpp:141] Setting up inception_4b/relu_3x3
I0403 14:53:17.395027 13731 net.cpp:148] Top shape: 24 224 14 14 (1053696)
I0403 14:53:17.395041 13731 net.cpp:156] Memory required for data: 964869408
I0403 14:53:17.395054 13731 layer_factory.hpp:77] Creating layer inception_4b/5x5_reduce
I0403 14:53:17.395076 13731 net.cpp:91] Creating Layer inception_4b/5x5_reduce
I0403 14:53:17.395093 13731 net.cpp:425] inception_4b/5x5_reduce <- inception_4a/output_inception_4a/output_0_split_3
I0403 14:53:17.395115 13731 net.cpp:399] inception_4b/5x5_reduce -> inception_4b/5x5_reduce
I0403 14:53:17.396167 13731 net.cpp:141] Setting up inception_4b/5x5_reduce
I0403 14:53:17.396194 13731 net.cpp:148] Top shape: 24 24 14 14 (112896)
I0403 14:53:17.396209 13731 net.cpp:156] Memory required for data: 965320992
I0403 14:53:17.396225 13731 layer_factory.hpp:77] Creating layer inception_4b/relu_5x5_reduce
I0403 14:53:17.396245 13731 net.cpp:91] Creating Layer inception_4b/relu_5x5_reduce
I0403 14:53:17.396275 13731 net.cpp:425] inception_4b/relu_5x5_reduce <- inception_4b/5x5_reduce
I0403 14:53:17.396292 13731 net.cpp:386] inception_4b/relu_5x5_reduce -> inception_4b/5x5_reduce (in-place)
I0403 14:53:17.396468 13731 net.cpp:141] Setting up inception_4b/relu_5x5_reduce
I0403 14:53:17.396492 13731 net.cpp:148] Top shape: 24 24 14 14 (112896)
I0403 14:53:17.396507 13731 net.cpp:156] Memory required for data: 965772576
I0403 14:53:17.396520 13731 layer_factory.hpp:77] Creating layer inception_4b/5x5
I0403 14:53:17.396543 13731 net.cpp:91] Creating Layer inception_4b/5x5
I0403 14:53:17.396559 13731 net.cpp:425] inception_4b/5x5 <- inception_4b/5x5_reduce
I0403 14:53:17.396577 13731 net.cpp:399] inception_4b/5x5 -> inception_4b/5x5
I0403 14:53:17.397773 13731 net.cpp:141] Setting up inception_4b/5x5
I0403 14:53:17.397799 13731 net.cpp:148] Top shape: 24 64 14 14 (301056)
I0403 14:53:17.397814 13731 net.cpp:156] Memory required for data: 966976800
I0403 14:53:17.397831 13731 layer_factory.hpp:77] Creating layer inception_4b/relu_5x5
I0403 14:53:17.397847 13731 net.cpp:91] Creating Layer inception_4b/relu_5x5
I0403 14:53:17.397863 13731 net.cpp:425] inception_4b/relu_5x5 <- inception_4b/5x5
I0403 14:53:17.397881 13731 net.cpp:386] inception_4b/relu_5x5 -> inception_4b/5x5 (in-place)
I0403 14:53:17.398157 13731 net.cpp:141] Setting up inception_4b/relu_5x5
I0403 14:53:17.398182 13731 net.cpp:148] Top shape: 24 64 14 14 (301056)
I0403 14:53:17.398196 13731 net.cpp:156] Memory required for data: 968181024
I0403 14:53:17.398211 13731 layer_factory.hpp:77] Creating layer inception_4b/pool
I0403 14:53:17.398227 13731 net.cpp:91] Creating Layer inception_4b/pool
I0403 14:53:17.398241 13731 net.cpp:425] inception_4b/pool <- inception_4a/output_inception_4a/output_0_split_4
I0403 14:53:17.398263 13731 net.cpp:399] inception_4b/pool -> inception_4b/pool
I0403 14:53:17.398327 13731 net.cpp:141] Setting up inception_4b/pool
I0403 14:53:17.398350 13731 net.cpp:148] Top shape: 24 512 14 14 (2408448)
I0403 14:53:17.398365 13731 net.cpp:156] Memory required for data: 977814816
I0403 14:53:17.398378 13731 layer_factory.hpp:77] Creating layer inception_4b/pool_proj
I0403 14:53:17.398401 13731 net.cpp:91] Creating Layer inception_4b/pool_proj
I0403 14:53:17.398417 13731 net.cpp:425] inception_4b/pool_proj <- inception_4b/pool
I0403 14:53:17.398434 13731 net.cpp:399] inception_4b/pool_proj -> inception_4b/pool_proj
I0403 14:53:17.399623 13731 net.cpp:141] Setting up inception_4b/pool_proj
I0403 14:53:17.399649 13731 net.cpp:148] Top shape: 24 64 14 14 (301056)
I0403 14:53:17.399664 13731 net.cpp:156] Memory required for data: 979019040
I0403 14:53:17.399682 13731 layer_factory.hpp:77] Creating layer inception_4b/relu_pool_proj
I0403 14:53:17.399701 13731 net.cpp:91] Creating Layer inception_4b/relu_pool_proj
I0403 14:53:17.399718 13731 net.cpp:425] inception_4b/relu_pool_proj <- inception_4b/pool_proj
I0403 14:53:17.399734 13731 net.cpp:386] inception_4b/relu_pool_proj -> inception_4b/pool_proj (in-place)
I0403 14:53:17.399906 13731 net.cpp:141] Setting up inception_4b/relu_pool_proj
I0403 14:53:17.399933 13731 net.cpp:148] Top shape: 24 64 14 14 (301056)
I0403 14:53:17.399948 13731 net.cpp:156] Memory required for data: 980223264
I0403 14:53:17.399961 13731 layer_factory.hpp:77] Creating layer inception_4b/output
I0403 14:53:17.399978 13731 net.cpp:91] Creating Layer inception_4b/output
I0403 14:53:17.399992 13731 net.cpp:425] inception_4b/output <- inception_4b/1x1
I0403 14:53:17.400008 13731 net.cpp:425] inception_4b/output <- inception_4b/3x3
I0403 14:53:17.400022 13731 net.cpp:425] inception_4b/output <- inception_4b/5x5
I0403 14:53:17.400038 13731 net.cpp:425] inception_4b/output <- inception_4b/pool_proj
I0403 14:53:17.400053 13731 net.cpp:399] inception_4b/output -> inception_4b/output
I0403 14:53:17.400099 13731 net.cpp:141] Setting up inception_4b/output
I0403 14:53:17.400120 13731 net.cpp:148] Top shape: 24 512 14 14 (2408448)
I0403 14:53:17.400133 13731 net.cpp:156] Memory required for data: 989857056
I0403 14:53:17.400161 13731 layer_factory.hpp:77] Creating layer inception_4b/output_inception_4b/output_0_split
I0403 14:53:17.400179 13731 net.cpp:91] Creating Layer inception_4b/output_inception_4b/output_0_split
I0403 14:53:17.400197 13731 net.cpp:425] inception_4b/output_inception_4b/output_0_split <- inception_4b/output
I0403 14:53:17.400214 13731 net.cpp:399] inception_4b/output_inception_4b/output_0_split -> inception_4b/output_inception_4b/output_0_split_0
I0403 14:53:17.400233 13731 net.cpp:399] inception_4b/output_inception_4b/output_0_split -> inception_4b/output_inception_4b/output_0_split_1
I0403 14:53:17.400252 13731 net.cpp:399] inception_4b/output_inception_4b/output_0_split -> inception_4b/output_inception_4b/output_0_split_2
I0403 14:53:17.400270 13731 net.cpp:399] inception_4b/output_inception_4b/output_0_split -> inception_4b/output_inception_4b/output_0_split_3
I0403 14:53:17.400354 13731 net.cpp:141] Setting up inception_4b/output_inception_4b/output_0_split
I0403 14:53:17.400377 13731 net.cpp:148] Top shape: 24 512 14 14 (2408448)
I0403 14:53:17.400393 13731 net.cpp:148] Top shape: 24 512 14 14 (2408448)
I0403 14:53:17.400408 13731 net.cpp:148] Top shape: 24 512 14 14 (2408448)
I0403 14:53:17.400421 13731 net.cpp:148] Top shape: 24 512 14 14 (2408448)
I0403 14:53:17.400434 13731 net.cpp:156] Memory required for data: 1028392224
I0403 14:53:17.400449 13731 layer_factory.hpp:77] Creating layer inception_4c/1x1
I0403 14:53:17.400470 13731 net.cpp:91] Creating Layer inception_4c/1x1
I0403 14:53:17.400485 13731 net.cpp:425] inception_4c/1x1 <- inception_4b/output_inception_4b/output_0_split_0
I0403 14:53:17.400506 13731 net.cpp:399] inception_4c/1x1 -> inception_4c/1x1
I0403 14:53:17.401959 13731 net.cpp:141] Setting up inception_4c/1x1
I0403 14:53:17.401991 13731 net.cpp:148] Top shape: 24 128 14 14 (602112)
I0403 14:53:17.402009 13731 net.cpp:156] Memory required for data: 1030800672
I0403 14:53:17.402027 13731 layer_factory.hpp:77] Creating layer inception_4c/relu_1x1
I0403 14:53:17.402045 13731 net.cpp:91] Creating Layer inception_4c/relu_1x1
I0403 14:53:17.402061 13731 net.cpp:425] inception_4c/relu_1x1 <- inception_4c/1x1
I0403 14:53:17.402077 13731 net.cpp:386] inception_4c/relu_1x1 -> inception_4c/1x1 (in-place)
I0403 14:53:17.402267 13731 net.cpp:141] Setting up inception_4c/relu_1x1
I0403 14:53:17.402293 13731 net.cpp:148] Top shape: 24 128 14 14 (602112)
I0403 14:53:17.402308 13731 net.cpp:156] Memory required for data: 1033209120
I0403 14:53:17.402323 13731 layer_factory.hpp:77] Creating layer inception_4c/3x3_reduce
I0403 14:53:17.402345 13731 net.cpp:91] Creating Layer inception_4c/3x3_reduce
I0403 14:53:17.402364 13731 net.cpp:425] inception_4c/3x3_reduce <- inception_4b/output_inception_4b/output_0_split_1
I0403 14:53:17.402386 13731 net.cpp:399] inception_4c/3x3_reduce -> inception_4c/3x3_reduce
I0403 14:53:17.404381 13731 net.cpp:141] Setting up inception_4c/3x3_reduce
I0403 14:53:17.404409 13731 net.cpp:148] Top shape: 24 128 14 14 (602112)
I0403 14:53:17.404424 13731 net.cpp:156] Memory required for data: 1035617568
I0403 14:53:17.404443 13731 layer_factory.hpp:77] Creating layer inception_4c/relu_3x3_reduce
I0403 14:53:17.404469 13731 net.cpp:91] Creating Layer inception_4c/relu_3x3_reduce
I0403 14:53:17.404486 13731 net.cpp:425] inception_4c/relu_3x3_reduce <- inception_4c/3x3_reduce
I0403 14:53:17.404502 13731 net.cpp:386] inception_4c/relu_3x3_reduce -> inception_4c/3x3_reduce (in-place)
I0403 14:53:17.404798 13731 net.cpp:141] Setting up inception_4c/relu_3x3_reduce
I0403 14:53:17.404824 13731 net.cpp:148] Top shape: 24 128 14 14 (602112)
I0403 14:53:17.404839 13731 net.cpp:156] Memory required for data: 1038026016
I0403 14:53:17.404853 13731 layer_factory.hpp:77] Creating layer inception_4c/3x3
I0403 14:53:17.404875 13731 net.cpp:91] Creating Layer inception_4c/3x3
I0403 14:53:17.404892 13731 net.cpp:425] inception_4c/3x3 <- inception_4c/3x3_reduce
I0403 14:53:17.404916 13731 net.cpp:399] inception_4c/3x3 -> inception_4c/3x3
I0403 14:53:17.408509 13731 net.cpp:141] Setting up inception_4c/3x3
I0403 14:53:17.408548 13731 net.cpp:148] Top shape: 24 256 14 14 (1204224)
I0403 14:53:17.408565 13731 net.cpp:156] Memory required for data: 1042842912
I0403 14:53:17.408596 13731 layer_factory.hpp:77] Creating layer inception_4c/relu_3x3
I0403 14:53:17.408622 13731 net.cpp:91] Creating Layer inception_4c/relu_3x3
I0403 14:53:17.408640 13731 net.cpp:425] inception_4c/relu_3x3 <- inception_4c/3x3
I0403 14:53:17.408658 13731 net.cpp:386] inception_4c/relu_3x3 -> inception_4c/3x3 (in-place)
I0403 14:53:17.408836 13731 net.cpp:141] Setting up inception_4c/relu_3x3
I0403 14:53:17.408861 13731 net.cpp:148] Top shape: 24 256 14 14 (1204224)
I0403 14:53:17.408875 13731 net.cpp:156] Memory required for data: 1047659808
I0403 14:53:17.408890 13731 layer_factory.hpp:77] Creating layer inception_4c/5x5_reduce
I0403 14:53:17.408911 13731 net.cpp:91] Creating Layer inception_4c/5x5_reduce
I0403 14:53:17.408928 13731 net.cpp:425] inception_4c/5x5_reduce <- inception_4b/output_inception_4b/output_0_split_2
I0403 14:53:17.408949 13731 net.cpp:399] inception_4c/5x5_reduce -> inception_4c/5x5_reduce
I0403 14:53:17.410050 13731 net.cpp:141] Setting up inception_4c/5x5_reduce
I0403 14:53:17.410078 13731 net.cpp:148] Top shape: 24 24 14 14 (112896)
I0403 14:53:17.410092 13731 net.cpp:156] Memory required for data: 1048111392
I0403 14:53:17.410110 13731 layer_factory.hpp:77] Creating layer inception_4c/relu_5x5_reduce
I0403 14:53:17.410130 13731 net.cpp:91] Creating Layer inception_4c/relu_5x5_reduce
I0403 14:53:17.410146 13731 net.cpp:425] inception_4c/relu_5x5_reduce <- inception_4c/5x5_reduce
I0403 14:53:17.410163 13731 net.cpp:386] inception_4c/relu_5x5_reduce -> inception_4c/5x5_reduce (in-place)
I0403 14:53:17.410348 13731 net.cpp:141] Setting up inception_4c/relu_5x5_reduce
I0403 14:53:17.410373 13731 net.cpp:148] Top shape: 24 24 14 14 (112896)
I0403 14:53:17.410387 13731 net.cpp:156] Memory required for data: 1048562976
I0403 14:53:17.410403 13731 layer_factory.hpp:77] Creating layer inception_4c/5x5
I0403 14:53:17.410425 13731 net.cpp:91] Creating Layer inception_4c/5x5
I0403 14:53:17.410442 13731 net.cpp:425] inception_4c/5x5 <- inception_4c/5x5_reduce
I0403 14:53:17.410461 13731 net.cpp:399] inception_4c/5x5 -> inception_4c/5x5
I0403 14:53:17.411702 13731 net.cpp:141] Setting up inception_4c/5x5
I0403 14:53:17.411731 13731 net.cpp:148] Top shape: 24 64 14 14 (301056)
I0403 14:53:17.411747 13731 net.cpp:156] Memory required for data: 1049767200
I0403 14:53:17.411766 13731 layer_factory.hpp:77] Creating layer inception_4c/relu_5x5
I0403 14:53:17.411783 13731 net.cpp:91] Creating Layer inception_4c/relu_5x5
I0403 14:53:17.411798 13731 net.cpp:425] inception_4c/relu_5x5 <- inception_4c/5x5
I0403 14:53:17.411814 13731 net.cpp:386] inception_4c/relu_5x5 -> inception_4c/5x5 (in-place)
I0403 14:53:17.412101 13731 net.cpp:141] Setting up inception_4c/relu_5x5
I0403 14:53:17.412128 13731 net.cpp:148] Top shape: 24 64 14 14 (301056)
I0403 14:53:17.412144 13731 net.cpp:156] Memory required for data: 1050971424
I0403 14:53:17.412159 13731 layer_factory.hpp:77] Creating layer inception_4c/pool
I0403 14:53:17.412176 13731 net.cpp:91] Creating Layer inception_4c/pool
I0403 14:53:17.412191 13731 net.cpp:425] inception_4c/pool <- inception_4b/output_inception_4b/output_0_split_3
I0403 14:53:17.412209 13731 net.cpp:399] inception_4c/pool -> inception_4c/pool
I0403 14:53:17.412283 13731 net.cpp:141] Setting up inception_4c/pool
I0403 14:53:17.412307 13731 net.cpp:148] Top shape: 24 512 14 14 (2408448)
I0403 14:53:17.412319 13731 net.cpp:156] Memory required for data: 1060605216
I0403 14:53:17.412333 13731 layer_factory.hpp:77] Creating layer inception_4c/pool_proj
I0403 14:53:17.412354 13731 net.cpp:91] Creating Layer inception_4c/pool_proj
I0403 14:53:17.412371 13731 net.cpp:425] inception_4c/pool_proj <- inception_4c/pool
I0403 14:53:17.412391 13731 net.cpp:399] inception_4c/pool_proj -> inception_4c/pool_proj
I0403 14:53:17.413586 13731 net.cpp:141] Setting up inception_4c/pool_proj
I0403 14:53:17.413617 13731 net.cpp:148] Top shape: 24 64 14 14 (301056)
I0403 14:53:17.413647 13731 net.cpp:156] Memory required for data: 1061809440
I0403 14:53:17.413666 13731 layer_factory.hpp:77] Creating layer inception_4c/relu_pool_proj
I0403 14:53:17.413686 13731 net.cpp:91] Creating Layer inception_4c/relu_pool_proj
I0403 14:53:17.413702 13731 net.cpp:425] inception_4c/relu_pool_proj <- inception_4c/pool_proj
I0403 14:53:17.413719 13731 net.cpp:386] inception_4c/relu_pool_proj -> inception_4c/pool_proj (in-place)
I0403 14:53:17.413897 13731 net.cpp:141] Setting up inception_4c/relu_pool_proj
I0403 14:53:17.413923 13731 net.cpp:148] Top shape: 24 64 14 14 (301056)
I0403 14:53:17.413938 13731 net.cpp:156] Memory required for data: 1063013664
I0403 14:53:17.413951 13731 layer_factory.hpp:77] Creating layer inception_4c/output
I0403 14:53:17.413967 13731 net.cpp:91] Creating Layer inception_4c/output
I0403 14:53:17.413981 13731 net.cpp:425] inception_4c/output <- inception_4c/1x1
I0403 14:53:17.413997 13731 net.cpp:425] inception_4c/output <- inception_4c/3x3
I0403 14:53:17.414012 13731 net.cpp:425] inception_4c/output <- inception_4c/5x5
I0403 14:53:17.414026 13731 net.cpp:425] inception_4c/output <- inception_4c/pool_proj
I0403 14:53:17.414041 13731 net.cpp:399] inception_4c/output -> inception_4c/output
I0403 14:53:17.414088 13731 net.cpp:141] Setting up inception_4c/output
I0403 14:53:17.414110 13731 net.cpp:148] Top shape: 24 512 14 14 (2408448)
I0403 14:53:17.414124 13731 net.cpp:156] Memory required for data: 1072647456
I0403 14:53:17.414137 13731 layer_factory.hpp:77] Creating layer inception_4c/output_inception_4c/output_0_split
I0403 14:53:17.414154 13731 net.cpp:91] Creating Layer inception_4c/output_inception_4c/output_0_split
I0403 14:53:17.414167 13731 net.cpp:425] inception_4c/output_inception_4c/output_0_split <- inception_4c/output
I0403 14:53:17.414186 13731 net.cpp:399] inception_4c/output_inception_4c/output_0_split -> inception_4c/output_inception_4c/output_0_split_0
I0403 14:53:17.414206 13731 net.cpp:399] inception_4c/output_inception_4c/output_0_split -> inception_4c/output_inception_4c/output_0_split_1
I0403 14:53:17.414225 13731 net.cpp:399] inception_4c/output_inception_4c/output_0_split -> inception_4c/output_inception_4c/output_0_split_2
I0403 14:53:17.414243 13731 net.cpp:399] inception_4c/output_inception_4c/output_0_split -> inception_4c/output_inception_4c/output_0_split_3
I0403 14:53:17.414325 13731 net.cpp:141] Setting up inception_4c/output_inception_4c/output_0_split
I0403 14:53:17.414348 13731 net.cpp:148] Top shape: 24 512 14 14 (2408448)
I0403 14:53:17.414364 13731 net.cpp:148] Top shape: 24 512 14 14 (2408448)
I0403 14:53:17.414378 13731 net.cpp:148] Top shape: 24 512 14 14 (2408448)
I0403 14:53:17.414392 13731 net.cpp:148] Top shape: 24 512 14 14 (2408448)
I0403 14:53:17.414405 13731 net.cpp:156] Memory required for data: 1111182624
I0403 14:53:17.414419 13731 layer_factory.hpp:77] Creating layer inception_4d/1x1
I0403 14:53:17.414441 13731 net.cpp:91] Creating Layer inception_4d/1x1
I0403 14:53:17.414458 13731 net.cpp:425] inception_4d/1x1 <- inception_4c/output_inception_4c/output_0_split_0
I0403 14:53:17.414479 13731 net.cpp:399] inception_4d/1x1 -> inception_4d/1x1
I0403 14:53:17.415892 13731 net.cpp:141] Setting up inception_4d/1x1
I0403 14:53:17.415920 13731 net.cpp:148] Top shape: 24 112 14 14 (526848)
I0403 14:53:17.415935 13731 net.cpp:156] Memory required for data: 1113290016
I0403 14:53:17.415952 13731 layer_factory.hpp:77] Creating layer inception_4d/relu_1x1
I0403 14:53:17.415971 13731 net.cpp:91] Creating Layer inception_4d/relu_1x1
I0403 14:53:17.415985 13731 net.cpp:425] inception_4d/relu_1x1 <- inception_4d/1x1
I0403 14:53:17.416004 13731 net.cpp:386] inception_4d/relu_1x1 -> inception_4d/1x1 (in-place)
I0403 14:53:17.416190 13731 net.cpp:141] Setting up inception_4d/relu_1x1
I0403 14:53:17.416214 13731 net.cpp:148] Top shape: 24 112 14 14 (526848)
I0403 14:53:17.416229 13731 net.cpp:156] Memory required for data: 1115397408
I0403 14:53:17.416242 13731 layer_factory.hpp:77] Creating layer inception_4d/3x3_reduce
I0403 14:53:17.416280 13731 net.cpp:91] Creating Layer inception_4d/3x3_reduce
I0403 14:53:17.416298 13731 net.cpp:425] inception_4d/3x3_reduce <- inception_4c/output_inception_4c/output_0_split_1
I0403 14:53:17.416318 13731 net.cpp:399] inception_4d/3x3_reduce -> inception_4d/3x3_reduce
I0403 14:53:17.417846 13731 net.cpp:141] Setting up inception_4d/3x3_reduce
I0403 14:53:17.417873 13731 net.cpp:148] Top shape: 24 144 14 14 (677376)
I0403 14:53:17.417888 13731 net.cpp:156] Memory required for data: 1118106912
I0403 14:53:17.417912 13731 layer_factory.hpp:77] Creating layer inception_4d/relu_3x3_reduce
I0403 14:53:17.417930 13731 net.cpp:91] Creating Layer inception_4d/relu_3x3_reduce
I0403 14:53:17.417948 13731 net.cpp:425] inception_4d/relu_3x3_reduce <- inception_4d/3x3_reduce
I0403 14:53:17.417965 13731 net.cpp:386] inception_4d/relu_3x3_reduce -> inception_4d/3x3_reduce (in-place)
I0403 14:53:17.418259 13731 net.cpp:141] Setting up inception_4d/relu_3x3_reduce
I0403 14:53:17.418285 13731 net.cpp:148] Top shape: 24 144 14 14 (677376)
I0403 14:53:17.418300 13731 net.cpp:156] Memory required for data: 1120816416
I0403 14:53:17.418314 13731 layer_factory.hpp:77] Creating layer inception_4d/3x3
I0403 14:53:17.418339 13731 net.cpp:91] Creating Layer inception_4d/3x3
I0403 14:53:17.418356 13731 net.cpp:425] inception_4d/3x3 <- inception_4d/3x3_reduce
I0403 14:53:17.418375 13731 net.cpp:399] inception_4d/3x3 -> inception_4d/3x3
I0403 14:53:17.422631 13731 net.cpp:141] Setting up inception_4d/3x3
I0403 14:53:17.422662 13731 net.cpp:148] Top shape: 24 288 14 14 (1354752)
I0403 14:53:17.422678 13731 net.cpp:156] Memory required for data: 1126235424
I0403 14:53:17.422698 13731 layer_factory.hpp:77] Creating layer inception_4d/relu_3x3
I0403 14:53:17.422715 13731 net.cpp:91] Creating Layer inception_4d/relu_3x3
I0403 14:53:17.422731 13731 net.cpp:425] inception_4d/relu_3x3 <- inception_4d/3x3
I0403 14:53:17.422750 13731 net.cpp:386] inception_4d/relu_3x3 -> inception_4d/3x3 (in-place)
I0403 14:53:17.422942 13731 net.cpp:141] Setting up inception_4d/relu_3x3
I0403 14:53:17.422967 13731 net.cpp:148] Top shape: 24 288 14 14 (1354752)
I0403 14:53:17.422981 13731 net.cpp:156] Memory required for data: 1131654432
I0403 14:53:17.422996 13731 layer_factory.hpp:77] Creating layer inception_4d/5x5_reduce
I0403 14:53:17.423017 13731 net.cpp:91] Creating Layer inception_4d/5x5_reduce
I0403 14:53:17.423035 13731 net.cpp:425] inception_4d/5x5_reduce <- inception_4c/output_inception_4c/output_0_split_2
I0403 14:53:17.423056 13731 net.cpp:399] inception_4d/5x5_reduce -> inception_4d/5x5_reduce
I0403 14:53:17.424206 13731 net.cpp:141] Setting up inception_4d/5x5_reduce
I0403 14:53:17.424234 13731 net.cpp:148] Top shape: 24 32 14 14 (150528)
I0403 14:53:17.424249 13731 net.cpp:156] Memory required for data: 1132256544
I0403 14:53:17.424268 13731 layer_factory.hpp:77] Creating layer inception_4d/relu_5x5_reduce
I0403 14:53:17.424284 13731 net.cpp:91] Creating Layer inception_4d/relu_5x5_reduce
I0403 14:53:17.424300 13731 net.cpp:425] inception_4d/relu_5x5_reduce <- inception_4d/5x5_reduce
I0403 14:53:17.424319 13731 net.cpp:386] inception_4d/relu_5x5_reduce -> inception_4d/5x5_reduce (in-place)
I0403 14:53:17.424506 13731 net.cpp:141] Setting up inception_4d/relu_5x5_reduce
I0403 14:53:17.424531 13731 net.cpp:148] Top shape: 24 32 14 14 (150528)
I0403 14:53:17.424546 13731 net.cpp:156] Memory required for data: 1132858656
I0403 14:53:17.424561 13731 layer_factory.hpp:77] Creating layer inception_4d/5x5
I0403 14:53:17.424582 13731 net.cpp:91] Creating Layer inception_4d/5x5
I0403 14:53:17.424609 13731 net.cpp:425] inception_4d/5x5 <- inception_4d/5x5_reduce
I0403 14:53:17.424634 13731 net.cpp:399] inception_4d/5x5 -> inception_4d/5x5
I0403 14:53:17.426125 13731 net.cpp:141] Setting up inception_4d/5x5
I0403 14:53:17.426152 13731 net.cpp:148] Top shape: 24 64 14 14 (301056)
I0403 14:53:17.426167 13731 net.cpp:156] Memory required for data: 1134062880
I0403 14:53:17.426185 13731 layer_factory.hpp:77] Creating layer inception_4d/relu_5x5
I0403 14:53:17.426220 13731 net.cpp:91] Creating Layer inception_4d/relu_5x5
I0403 14:53:17.426237 13731 net.cpp:425] inception_4d/relu_5x5 <- inception_4d/5x5
I0403 14:53:17.426254 13731 net.cpp:386] inception_4d/relu_5x5 -> inception_4d/5x5 (in-place)
I0403 14:53:17.426553 13731 net.cpp:141] Setting up inception_4d/relu_5x5
I0403 14:53:17.426579 13731 net.cpp:148] Top shape: 24 64 14 14 (301056)
I0403 14:53:17.426594 13731 net.cpp:156] Memory required for data: 1135267104
I0403 14:53:17.426614 13731 layer_factory.hpp:77] Creating layer inception_4d/pool
I0403 14:53:17.426635 13731 net.cpp:91] Creating Layer inception_4d/pool
I0403 14:53:17.426651 13731 net.cpp:425] inception_4d/pool <- inception_4c/output_inception_4c/output_0_split_3
I0403 14:53:17.426668 13731 net.cpp:399] inception_4d/pool -> inception_4d/pool
I0403 14:53:17.426735 13731 net.cpp:141] Setting up inception_4d/pool
I0403 14:53:17.426759 13731 net.cpp:148] Top shape: 24 512 14 14 (2408448)
I0403 14:53:17.426774 13731 net.cpp:156] Memory required for data: 1144900896
I0403 14:53:17.426787 13731 layer_factory.hpp:77] Creating layer inception_4d/pool_proj
I0403 14:53:17.426810 13731 net.cpp:91] Creating Layer inception_4d/pool_proj
I0403 14:53:17.426827 13731 net.cpp:425] inception_4d/pool_proj <- inception_4d/pool
I0403 14:53:17.426848 13731 net.cpp:399] inception_4d/pool_proj -> inception_4d/pool_proj
I0403 14:53:17.428622 13731 net.cpp:141] Setting up inception_4d/pool_proj
I0403 14:53:17.428652 13731 net.cpp:148] Top shape: 24 64 14 14 (301056)
I0403 14:53:17.428665 13731 net.cpp:156] Memory required for data: 1146105120
I0403 14:53:17.428683 13731 layer_factory.hpp:77] Creating layer inception_4d/relu_pool_proj
I0403 14:53:17.428700 13731 net.cpp:91] Creating Layer inception_4d/relu_pool_proj
I0403 14:53:17.428716 13731 net.cpp:425] inception_4d/relu_pool_proj <- inception_4d/pool_proj
I0403 14:53:17.428735 13731 net.cpp:386] inception_4d/relu_pool_proj -> inception_4d/pool_proj (in-place)
I0403 14:53:17.428925 13731 net.cpp:141] Setting up inception_4d/relu_pool_proj
I0403 14:53:17.428949 13731 net.cpp:148] Top shape: 24 64 14 14 (301056)
I0403 14:53:17.428963 13731 net.cpp:156] Memory required for data: 1147309344
I0403 14:53:17.428978 13731 layer_factory.hpp:77] Creating layer inception_4d/output
I0403 14:53:17.428995 13731 net.cpp:91] Creating Layer inception_4d/output
I0403 14:53:17.429010 13731 net.cpp:425] inception_4d/output <- inception_4d/1x1
I0403 14:53:17.429026 13731 net.cpp:425] inception_4d/output <- inception_4d/3x3
I0403 14:53:17.429041 13731 net.cpp:425] inception_4d/output <- inception_4d/5x5
I0403 14:53:17.429057 13731 net.cpp:425] inception_4d/output <- inception_4d/pool_proj
I0403 14:53:17.429075 13731 net.cpp:399] inception_4d/output -> inception_4d/output
I0403 14:53:17.429126 13731 net.cpp:141] Setting up inception_4d/output
I0403 14:53:17.429149 13731 net.cpp:148] Top shape: 24 528 14 14 (2483712)
I0403 14:53:17.429163 13731 net.cpp:156] Memory required for data: 1157244192
I0403 14:53:17.429177 13731 layer_factory.hpp:77] Creating layer inception_4d/output_inception_4d/output_0_split
I0403 14:53:17.429194 13731 net.cpp:91] Creating Layer inception_4d/output_inception_4d/output_0_split
I0403 14:53:17.429209 13731 net.cpp:425] inception_4d/output_inception_4d/output_0_split <- inception_4d/output
I0403 14:53:17.429230 13731 net.cpp:399] inception_4d/output_inception_4d/output_0_split -> inception_4d/output_inception_4d/output_0_split_0
I0403 14:53:17.429251 13731 net.cpp:399] inception_4d/output_inception_4d/output_0_split -> inception_4d/output_inception_4d/output_0_split_1
I0403 14:53:17.429272 13731 net.cpp:399] inception_4d/output_inception_4d/output_0_split -> inception_4d/output_inception_4d/output_0_split_2
I0403 14:53:17.429292 13731 net.cpp:399] inception_4d/output_inception_4d/output_0_split -> inception_4d/output_inception_4d/output_0_split_3
I0403 14:53:17.429311 13731 net.cpp:399] inception_4d/output_inception_4d/output_0_split -> inception_4d/output_inception_4d/output_0_split_4
I0403 14:53:17.429412 13731 net.cpp:141] Setting up inception_4d/output_inception_4d/output_0_split
I0403 14:53:17.429450 13731 net.cpp:148] Top shape: 24 528 14 14 (2483712)
I0403 14:53:17.429466 13731 net.cpp:148] Top shape: 24 528 14 14 (2483712)
I0403 14:53:17.429481 13731 net.cpp:148] Top shape: 24 528 14 14 (2483712)
I0403 14:53:17.429496 13731 net.cpp:148] Top shape: 24 528 14 14 (2483712)
I0403 14:53:17.429512 13731 net.cpp:148] Top shape: 24 528 14 14 (2483712)
I0403 14:53:17.429524 13731 net.cpp:156] Memory required for data: 1206918432
I0403 14:53:17.429538 13731 layer_factory.hpp:77] Creating layer loss2/ave_pool
I0403 14:53:17.429555 13731 net.cpp:91] Creating Layer loss2/ave_pool
I0403 14:53:17.429571 13731 net.cpp:425] loss2/ave_pool <- inception_4d/output_inception_4d/output_0_split_0
I0403 14:53:17.429591 13731 net.cpp:399] loss2/ave_pool -> loss2/ave_pool
I0403 14:53:17.429920 13731 net.cpp:141] Setting up loss2/ave_pool
I0403 14:53:17.429946 13731 net.cpp:148] Top shape: 24 528 4 4 (202752)
I0403 14:53:17.429961 13731 net.cpp:156] Memory required for data: 1207729440
I0403 14:53:17.429975 13731 layer_factory.hpp:77] Creating layer loss2/conv
I0403 14:53:17.429998 13731 net.cpp:91] Creating Layer loss2/conv
I0403 14:53:17.430016 13731 net.cpp:425] loss2/conv <- loss2/ave_pool
I0403 14:53:17.430037 13731 net.cpp:399] loss2/conv -> loss2/conv
I0403 14:53:17.431949 13731 net.cpp:141] Setting up loss2/conv
I0403 14:53:17.431977 13731 net.cpp:148] Top shape: 24 128 4 4 (49152)
I0403 14:53:17.432004 13731 net.cpp:156] Memory required for data: 1207926048
I0403 14:53:17.432021 13731 layer_factory.hpp:77] Creating layer loss2/relu_conv
I0403 14:53:17.432041 13731 net.cpp:91] Creating Layer loss2/relu_conv
I0403 14:53:17.432057 13731 net.cpp:425] loss2/relu_conv <- loss2/conv
I0403 14:53:17.432073 13731 net.cpp:386] loss2/relu_conv -> loss2/conv (in-place)
I0403 14:53:17.432355 13731 net.cpp:141] Setting up loss2/relu_conv
I0403 14:53:17.432380 13731 net.cpp:148] Top shape: 24 128 4 4 (49152)
I0403 14:53:17.432395 13731 net.cpp:156] Memory required for data: 1208122656
I0403 14:53:17.432409 13731 layer_factory.hpp:77] Creating layer loss2/fc
I0403 14:53:17.432428 13731 net.cpp:91] Creating Layer loss2/fc
I0403 14:53:17.432445 13731 net.cpp:425] loss2/fc <- loss2/conv
I0403 14:53:17.432463 13731 net.cpp:399] loss2/fc -> loss2/fc
I0403 14:53:17.450006 13731 net.cpp:141] Setting up loss2/fc
I0403 14:53:17.450039 13731 net.cpp:148] Top shape: 24 1024 (24576)
I0403 14:53:17.450054 13731 net.cpp:156] Memory required for data: 1208220960
I0403 14:53:17.450073 13731 layer_factory.hpp:77] Creating layer loss2/relu_fc
I0403 14:53:17.450093 13731 net.cpp:91] Creating Layer loss2/relu_fc
I0403 14:53:17.450109 13731 net.cpp:425] loss2/relu_fc <- loss2/fc
I0403 14:53:17.450129 13731 net.cpp:386] loss2/relu_fc -> loss2/fc (in-place)
I0403 14:53:17.450453 13731 net.cpp:141] Setting up loss2/relu_fc
I0403 14:53:17.450479 13731 net.cpp:148] Top shape: 24 1024 (24576)
I0403 14:53:17.450494 13731 net.cpp:156] Memory required for data: 1208319264
I0403 14:53:17.450508 13731 layer_factory.hpp:77] Creating layer loss2/drop_fc
I0403 14:53:17.450525 13731 net.cpp:91] Creating Layer loss2/drop_fc
I0403 14:53:17.450541 13731 net.cpp:425] loss2/drop_fc <- loss2/fc
I0403 14:53:17.450561 13731 net.cpp:386] loss2/drop_fc -> loss2/fc (in-place)
I0403 14:53:17.450614 13731 net.cpp:141] Setting up loss2/drop_fc
I0403 14:53:17.450640 13731 net.cpp:148] Top shape: 24 1024 (24576)
I0403 14:53:17.450656 13731 net.cpp:156] Memory required for data: 1208417568
I0403 14:53:17.450670 13731 layer_factory.hpp:77] Creating layer loss2/classifier_plantvillage
I0403 14:53:17.450690 13731 net.cpp:91] Creating Layer loss2/classifier_plantvillage
I0403 14:53:17.450706 13731 net.cpp:425] loss2/classifier_plantvillage <- loss2/fc
I0403 14:53:17.450726 13731 net.cpp:399] loss2/classifier_plantvillage -> loss2/classifier_plantvillage
I0403 14:53:17.451139 13731 net.cpp:141] Setting up loss2/classifier_plantvillage
I0403 14:53:17.451164 13731 net.cpp:148] Top shape: 24 38 (912)
I0403 14:53:17.451179 13731 net.cpp:156] Memory required for data: 1208421216
I0403 14:53:17.451220 13731 layer_factory.hpp:77] Creating layer loss2/classifier_plantvillage_loss2/classifier_plantvillage_0_split
I0403 14:53:17.451241 13731 net.cpp:91] Creating Layer loss2/classifier_plantvillage_loss2/classifier_plantvillage_0_split
I0403 14:53:17.451257 13731 net.cpp:425] loss2/classifier_plantvillage_loss2/classifier_plantvillage_0_split <- loss2/classifier_plantvillage
I0403 14:53:17.451275 13731 net.cpp:399] loss2/classifier_plantvillage_loss2/classifier_plantvillage_0_split -> loss2/classifier_plantvillage_loss2/classifier_plantvillage_0_split_0
I0403 14:53:17.451294 13731 net.cpp:399] loss2/classifier_plantvillage_loss2/classifier_plantvillage_0_split -> loss2/classifier_plantvillage_loss2/classifier_plantvillage_0_split_1
I0403 14:53:17.451318 13731 net.cpp:399] loss2/classifier_plantvillage_loss2/classifier_plantvillage_0_split -> loss2/classifier_plantvillage_loss2/classifier_plantvillage_0_split_2
I0403 14:53:17.451395 13731 net.cpp:141] Setting up loss2/classifier_plantvillage_loss2/classifier_plantvillage_0_split
I0403 14:53:17.451418 13731 net.cpp:148] Top shape: 24 38 (912)
I0403 14:53:17.451433 13731 net.cpp:148] Top shape: 24 38 (912)
I0403 14:53:17.451449 13731 net.cpp:148] Top shape: 24 38 (912)
I0403 14:53:17.451462 13731 net.cpp:156] Memory required for data: 1208432160
I0403 14:53:17.451475 13731 layer_factory.hpp:77] Creating layer inception_4e/1x1
I0403 14:53:17.451498 13731 net.cpp:91] Creating Layer inception_4e/1x1
I0403 14:53:17.451516 13731 net.cpp:425] inception_4e/1x1 <- inception_4d/output_inception_4d/output_0_split_1
I0403 14:53:17.451535 13731 net.cpp:399] inception_4e/1x1 -> inception_4e/1x1
I0403 14:53:17.453397 13731 net.cpp:141] Setting up inception_4e/1x1
I0403 14:53:17.453424 13731 net.cpp:148] Top shape: 24 256 14 14 (1204224)
I0403 14:53:17.453441 13731 net.cpp:156] Memory required for data: 1213249056
I0403 14:53:17.453459 13731 layer_factory.hpp:77] Creating layer inception_4e/relu_1x1
I0403 14:53:17.453480 13731 net.cpp:91] Creating Layer inception_4e/relu_1x1
I0403 14:53:17.453495 13731 net.cpp:425] inception_4e/relu_1x1 <- inception_4e/1x1
I0403 14:53:17.453511 13731 net.cpp:386] inception_4e/relu_1x1 -> inception_4e/1x1 (in-place)
I0403 14:53:17.453814 13731 net.cpp:141] Setting up inception_4e/relu_1x1
I0403 14:53:17.453840 13731 net.cpp:148] Top shape: 24 256 14 14 (1204224)
I0403 14:53:17.453855 13731 net.cpp:156] Memory required for data: 1218065952
I0403 14:53:17.453869 13731 layer_factory.hpp:77] Creating layer inception_4e/3x3_reduce
I0403 14:53:17.453892 13731 net.cpp:91] Creating Layer inception_4e/3x3_reduce
I0403 14:53:17.453909 13731 net.cpp:425] inception_4e/3x3_reduce <- inception_4d/output_inception_4d/output_0_split_2
I0403 14:53:17.453930 13731 net.cpp:399] inception_4e/3x3_reduce -> inception_4e/3x3_reduce
I0403 14:53:17.456086 13731 net.cpp:141] Setting up inception_4e/3x3_reduce
I0403 14:53:17.456115 13731 net.cpp:148] Top shape: 24 160 14 14 (752640)
I0403 14:53:17.456130 13731 net.cpp:156] Memory required for data: 1221076512
I0403 14:53:17.456147 13731 layer_factory.hpp:77] Creating layer inception_4e/relu_3x3_reduce
I0403 14:53:17.456168 13731 net.cpp:91] Creating Layer inception_4e/relu_3x3_reduce
I0403 14:53:17.456185 13731 net.cpp:425] inception_4e/relu_3x3_reduce <- inception_4e/3x3_reduce
I0403 14:53:17.456202 13731 net.cpp:386] inception_4e/relu_3x3_reduce -> inception_4e/3x3_reduce (in-place)
I0403 14:53:17.456392 13731 net.cpp:141] Setting up inception_4e/relu_3x3_reduce
I0403 14:53:17.456419 13731 net.cpp:148] Top shape: 24 160 14 14 (752640)
I0403 14:53:17.456434 13731 net.cpp:156] Memory required for data: 1224087072
I0403 14:53:17.456449 13731 layer_factory.hpp:77] Creating layer inception_4e/3x3
I0403 14:53:17.456472 13731 net.cpp:91] Creating Layer inception_4e/3x3
I0403 14:53:17.456490 13731 net.cpp:425] inception_4e/3x3 <- inception_4e/3x3_reduce
I0403 14:53:17.456508 13731 net.cpp:399] inception_4e/3x3 -> inception_4e/3x3
I0403 14:53:17.461565 13731 net.cpp:141] Setting up inception_4e/3x3
I0403 14:53:17.461613 13731 net.cpp:148] Top shape: 24 320 14 14 (1505280)
I0403 14:53:17.461632 13731 net.cpp:156] Memory required for data: 1230108192
I0403 14:53:17.461649 13731 layer_factory.hpp:77] Creating layer inception_4e/relu_3x3
I0403 14:53:17.461666 13731 net.cpp:91] Creating Layer inception_4e/relu_3x3
I0403 14:53:17.461683 13731 net.cpp:425] inception_4e/relu_3x3 <- inception_4e/3x3
I0403 14:53:17.461700 13731 net.cpp:386] inception_4e/relu_3x3 -> inception_4e/3x3 (in-place)
I0403 14:53:17.462009 13731 net.cpp:141] Setting up inception_4e/relu_3x3
I0403 14:53:17.462036 13731 net.cpp:148] Top shape: 24 320 14 14 (1505280)
I0403 14:53:17.462051 13731 net.cpp:156] Memory required for data: 1236129312
I0403 14:53:17.462065 13731 layer_factory.hpp:77] Creating layer inception_4e/5x5_reduce
I0403 14:53:17.462090 13731 net.cpp:91] Creating Layer inception_4e/5x5_reduce
I0403 14:53:17.462107 13731 net.cpp:425] inception_4e/5x5_reduce <- inception_4d/output_inception_4d/output_0_split_3
I0403 14:53:17.462128 13731 net.cpp:399] inception_4e/5x5_reduce -> inception_4e/5x5_reduce
I0403 14:53:17.463212 13731 net.cpp:141] Setting up inception_4e/5x5_reduce
I0403 14:53:17.463238 13731 net.cpp:148] Top shape: 24 32 14 14 (150528)
I0403 14:53:17.463253 13731 net.cpp:156] Memory required for data: 1236731424
I0403 14:53:17.463273 13731 layer_factory.hpp:77] Creating layer inception_4e/relu_5x5_reduce
I0403 14:53:17.463292 13731 net.cpp:91] Creating Layer inception_4e/relu_5x5_reduce
I0403 14:53:17.463310 13731 net.cpp:425] inception_4e/relu_5x5_reduce <- inception_4e/5x5_reduce
I0403 14:53:17.463326 13731 net.cpp:386] inception_4e/relu_5x5_reduce -> inception_4e/5x5_reduce (in-place)
I0403 14:53:17.463630 13731 net.cpp:141] Setting up inception_4e/relu_5x5_reduce
I0403 14:53:17.463656 13731 net.cpp:148] Top shape: 24 32 14 14 (150528)
I0403 14:53:17.463670 13731 net.cpp:156] Memory required for data: 1237333536
I0403 14:53:17.463685 13731 layer_factory.hpp:77] Creating layer inception_4e/5x5
I0403 14:53:17.463724 13731 net.cpp:91] Creating Layer inception_4e/5x5
I0403 14:53:17.463743 13731 net.cpp:425] inception_4e/5x5 <- inception_4e/5x5_reduce
I0403 14:53:17.463762 13731 net.cpp:399] inception_4e/5x5 -> inception_4e/5x5
I0403 14:53:17.465677 13731 net.cpp:141] Setting up inception_4e/5x5
I0403 14:53:17.465704 13731 net.cpp:148] Top shape: 24 128 14 14 (602112)
I0403 14:53:17.465718 13731 net.cpp:156] Memory required for data: 1239741984
I0403 14:53:17.465737 13731 layer_factory.hpp:77] Creating layer inception_4e/relu_5x5
I0403 14:53:17.465757 13731 net.cpp:91] Creating Layer inception_4e/relu_5x5
I0403 14:53:17.465775 13731 net.cpp:425] inception_4e/relu_5x5 <- inception_4e/5x5
I0403 14:53:17.465790 13731 net.cpp:386] inception_4e/relu_5x5 -> inception_4e/5x5 (in-place)
I0403 14:53:17.465991 13731 net.cpp:141] Setting up inception_4e/relu_5x5
I0403 14:53:17.466017 13731 net.cpp:148] Top shape: 24 128 14 14 (602112)
I0403 14:53:17.466030 13731 net.cpp:156] Memory required for data: 1242150432
I0403 14:53:17.466044 13731 layer_factory.hpp:77] Creating layer inception_4e/pool
I0403 14:53:17.466064 13731 net.cpp:91] Creating Layer inception_4e/pool
I0403 14:53:17.466081 13731 net.cpp:425] inception_4e/pool <- inception_4d/output_inception_4d/output_0_split_4
I0403 14:53:17.466099 13731 net.cpp:399] inception_4e/pool -> inception_4e/pool
I0403 14:53:17.466171 13731 net.cpp:141] Setting up inception_4e/pool
I0403 14:53:17.466194 13731 net.cpp:148] Top shape: 24 528 14 14 (2483712)
I0403 14:53:17.466208 13731 net.cpp:156] Memory required for data: 1252085280
I0403 14:53:17.466223 13731 layer_factory.hpp:77] Creating layer inception_4e/pool_proj
I0403 14:53:17.466258 13731 net.cpp:91] Creating Layer inception_4e/pool_proj
I0403 14:53:17.466275 13731 net.cpp:425] inception_4e/pool_proj <- inception_4e/pool
I0403 14:53:17.466295 13731 net.cpp:399] inception_4e/pool_proj -> inception_4e/pool_proj
I0403 14:53:17.467830 13731 net.cpp:141] Setting up inception_4e/pool_proj
I0403 14:53:17.467859 13731 net.cpp:148] Top shape: 24 128 14 14 (602112)
I0403 14:53:17.467887 13731 net.cpp:156] Memory required for data: 1254493728
I0403 14:53:17.467906 13731 layer_factory.hpp:77] Creating layer inception_4e/relu_pool_proj
I0403 14:53:17.467924 13731 net.cpp:91] Creating Layer inception_4e/relu_pool_proj
I0403 14:53:17.467941 13731 net.cpp:425] inception_4e/relu_pool_proj <- inception_4e/pool_proj
I0403 14:53:17.467960 13731 net.cpp:386] inception_4e/relu_pool_proj -> inception_4e/pool_proj (in-place)
I0403 14:53:17.468253 13731 net.cpp:141] Setting up inception_4e/relu_pool_proj
I0403 14:53:17.468281 13731 net.cpp:148] Top shape: 24 128 14 14 (602112)
I0403 14:53:17.468296 13731 net.cpp:156] Memory required for data: 1256902176
I0403 14:53:17.468309 13731 layer_factory.hpp:77] Creating layer inception_4e/output
I0403 14:53:17.468327 13731 net.cpp:91] Creating Layer inception_4e/output
I0403 14:53:17.468341 13731 net.cpp:425] inception_4e/output <- inception_4e/1x1
I0403 14:53:17.468358 13731 net.cpp:425] inception_4e/output <- inception_4e/3x3
I0403 14:53:17.468374 13731 net.cpp:425] inception_4e/output <- inception_4e/5x5
I0403 14:53:17.468389 13731 net.cpp:425] inception_4e/output <- inception_4e/pool_proj
I0403 14:53:17.468407 13731 net.cpp:399] inception_4e/output -> inception_4e/output
I0403 14:53:17.468458 13731 net.cpp:141] Setting up inception_4e/output
I0403 14:53:17.468484 13731 net.cpp:148] Top shape: 24 832 14 14 (3913728)
I0403 14:53:17.468499 13731 net.cpp:156] Memory required for data: 1272557088
I0403 14:53:17.468514 13731 layer_factory.hpp:77] Creating layer pool4/3x3_s2
I0403 14:53:17.468531 13731 net.cpp:91] Creating Layer pool4/3x3_s2
I0403 14:53:17.468547 13731 net.cpp:425] pool4/3x3_s2 <- inception_4e/output
I0403 14:53:17.468567 13731 net.cpp:399] pool4/3x3_s2 -> pool4/3x3_s2
I0403 14:53:17.468641 13731 net.cpp:141] Setting up pool4/3x3_s2
I0403 14:53:17.468664 13731 net.cpp:148] Top shape: 24 832 7 7 (978432)
I0403 14:53:17.468680 13731 net.cpp:156] Memory required for data: 1276470816
I0403 14:53:17.468694 13731 layer_factory.hpp:77] Creating layer pool4/3x3_s2_pool4/3x3_s2_0_split
I0403 14:53:17.468713 13731 net.cpp:91] Creating Layer pool4/3x3_s2_pool4/3x3_s2_0_split
I0403 14:53:17.468729 13731 net.cpp:425] pool4/3x3_s2_pool4/3x3_s2_0_split <- pool4/3x3_s2
I0403 14:53:17.468747 13731 net.cpp:399] pool4/3x3_s2_pool4/3x3_s2_0_split -> pool4/3x3_s2_pool4/3x3_s2_0_split_0
I0403 14:53:17.468767 13731 net.cpp:399] pool4/3x3_s2_pool4/3x3_s2_0_split -> pool4/3x3_s2_pool4/3x3_s2_0_split_1
I0403 14:53:17.468786 13731 net.cpp:399] pool4/3x3_s2_pool4/3x3_s2_0_split -> pool4/3x3_s2_pool4/3x3_s2_0_split_2
I0403 14:53:17.468806 13731 net.cpp:399] pool4/3x3_s2_pool4/3x3_s2_0_split -> pool4/3x3_s2_pool4/3x3_s2_0_split_3
I0403 14:53:17.468900 13731 net.cpp:141] Setting up pool4/3x3_s2_pool4/3x3_s2_0_split
I0403 14:53:17.468924 13731 net.cpp:148] Top shape: 24 832 7 7 (978432)
I0403 14:53:17.468938 13731 net.cpp:148] Top shape: 24 832 7 7 (978432)
I0403 14:53:17.468953 13731 net.cpp:148] Top shape: 24 832 7 7 (978432)
I0403 14:53:17.468968 13731 net.cpp:148] Top shape: 24 832 7 7 (978432)
I0403 14:53:17.468981 13731 net.cpp:156] Memory required for data: 1292125728
I0403 14:53:17.468994 13731 layer_factory.hpp:77] Creating layer inception_5a/1x1
I0403 14:53:17.469018 13731 net.cpp:91] Creating Layer inception_5a/1x1
I0403 14:53:17.469036 13731 net.cpp:425] inception_5a/1x1 <- pool4/3x3_s2_pool4/3x3_s2_0_split_0
I0403 14:53:17.469058 13731 net.cpp:399] inception_5a/1x1 -> inception_5a/1x1
I0403 14:53:17.472018 13731 net.cpp:141] Setting up inception_5a/1x1
I0403 14:53:17.472048 13731 net.cpp:148] Top shape: 24 256 7 7 (301056)
I0403 14:53:17.472064 13731 net.cpp:156] Memory required for data: 1293329952
I0403 14:53:17.472081 13731 layer_factory.hpp:77] Creating layer inception_5a/relu_1x1
I0403 14:53:17.472101 13731 net.cpp:91] Creating Layer inception_5a/relu_1x1
I0403 14:53:17.472118 13731 net.cpp:425] inception_5a/relu_1x1 <- inception_5a/1x1
I0403 14:53:17.472136 13731 net.cpp:386] inception_5a/relu_1x1 -> inception_5a/1x1 (in-place)
I0403 14:53:17.472461 13731 net.cpp:141] Setting up inception_5a/relu_1x1
I0403 14:53:17.472488 13731 net.cpp:148] Top shape: 24 256 7 7 (301056)
I0403 14:53:17.472503 13731 net.cpp:156] Memory required for data: 1294534176
I0403 14:53:17.472517 13731 layer_factory.hpp:77] Creating layer inception_5a/3x3_reduce
I0403 14:53:17.472542 13731 net.cpp:91] Creating Layer inception_5a/3x3_reduce
I0403 14:53:17.472559 13731 net.cpp:425] inception_5a/3x3_reduce <- pool4/3x3_s2_pool4/3x3_s2_0_split_1
I0403 14:53:17.472581 13731 net.cpp:399] inception_5a/3x3_reduce -> inception_5a/3x3_reduce
I0403 14:53:17.475148 13731 net.cpp:141] Setting up inception_5a/3x3_reduce
I0403 14:53:17.475179 13731 net.cpp:148] Top shape: 24 160 7 7 (188160)
I0403 14:53:17.475196 13731 net.cpp:156] Memory required for data: 1295286816
I0403 14:53:17.475215 13731 layer_factory.hpp:77] Creating layer inception_5a/relu_3x3_reduce
I0403 14:53:17.475234 13731 net.cpp:91] Creating Layer inception_5a/relu_3x3_reduce
I0403 14:53:17.475250 13731 net.cpp:425] inception_5a/relu_3x3_reduce <- inception_5a/3x3_reduce
I0403 14:53:17.475271 13731 net.cpp:386] inception_5a/relu_3x3_reduce -> inception_5a/3x3_reduce (in-place)
I0403 14:53:17.475467 13731 net.cpp:141] Setting up inception_5a/relu_3x3_reduce
I0403 14:53:17.475492 13731 net.cpp:148] Top shape: 24 160 7 7 (188160)
I0403 14:53:17.475507 13731 net.cpp:156] Memory required for data: 1296039456
I0403 14:53:17.475522 13731 layer_factory.hpp:77] Creating layer inception_5a/3x3
I0403 14:53:17.475544 13731 net.cpp:91] Creating Layer inception_5a/3x3
I0403 14:53:17.475563 13731 net.cpp:425] inception_5a/3x3 <- inception_5a/3x3_reduce
I0403 14:53:17.475584 13731 net.cpp:399] inception_5a/3x3 -> inception_5a/3x3
I0403 14:53:17.480664 13731 net.cpp:141] Setting up inception_5a/3x3
I0403 14:53:17.480693 13731 net.cpp:148] Top shape: 24 320 7 7 (376320)
I0403 14:53:17.480708 13731 net.cpp:156] Memory required for data: 1297544736
I0403 14:53:17.480726 13731 layer_factory.hpp:77] Creating layer inception_5a/relu_3x3
I0403 14:53:17.480746 13731 net.cpp:91] Creating Layer inception_5a/relu_3x3
I0403 14:53:17.480763 13731 net.cpp:425] inception_5a/relu_3x3 <- inception_5a/3x3
I0403 14:53:17.480780 13731 net.cpp:386] inception_5a/relu_3x3 -> inception_5a/3x3 (in-place)
I0403 14:53:17.481076 13731 net.cpp:141] Setting up inception_5a/relu_3x3
I0403 14:53:17.481102 13731 net.cpp:148] Top shape: 24 320 7 7 (376320)
I0403 14:53:17.481117 13731 net.cpp:156] Memory required for data: 1299050016
I0403 14:53:17.481132 13731 layer_factory.hpp:77] Creating layer inception_5a/5x5_reduce
I0403 14:53:17.481153 13731 net.cpp:91] Creating Layer inception_5a/5x5_reduce
I0403 14:53:17.481171 13731 net.cpp:425] inception_5a/5x5_reduce <- pool4/3x3_s2_pool4/3x3_s2_0_split_2
I0403 14:53:17.481194 13731 net.cpp:399] inception_5a/5x5_reduce -> inception_5a/5x5_reduce
I0403 14:53:17.482379 13731 net.cpp:141] Setting up inception_5a/5x5_reduce
I0403 14:53:17.482408 13731 net.cpp:148] Top shape: 24 32 7 7 (37632)
I0403 14:53:17.482422 13731 net.cpp:156] Memory required for data: 1299200544
I0403 14:53:17.482440 13731 layer_factory.hpp:77] Creating layer inception_5a/relu_5x5_reduce
I0403 14:53:17.482460 13731 net.cpp:91] Creating Layer inception_5a/relu_5x5_reduce
I0403 14:53:17.482477 13731 net.cpp:425] inception_5a/relu_5x5_reduce <- inception_5a/5x5_reduce
I0403 14:53:17.482494 13731 net.cpp:386] inception_5a/relu_5x5_reduce -> inception_5a/5x5_reduce (in-place)
I0403 14:53:17.482800 13731 net.cpp:141] Setting up inception_5a/relu_5x5_reduce
I0403 14:53:17.482826 13731 net.cpp:148] Top shape: 24 32 7 7 (37632)
I0403 14:53:17.482841 13731 net.cpp:156] Memory required for data: 1299351072
I0403 14:53:17.482854 13731 layer_factory.hpp:77] Creating layer inception_5a/5x5
I0403 14:53:17.482877 13731 net.cpp:91] Creating Layer inception_5a/5x5
I0403 14:53:17.482894 13731 net.cpp:425] inception_5a/5x5 <- inception_5a/5x5_reduce
I0403 14:53:17.482914 13731 net.cpp:399] inception_5a/5x5 -> inception_5a/5x5
I0403 14:53:17.484702 13731 net.cpp:141] Setting up inception_5a/5x5
I0403 14:53:17.484743 13731 net.cpp:148] Top shape: 24 128 7 7 (150528)
I0403 14:53:17.484760 13731 net.cpp:156] Memory required for data: 1299953184
I0403 14:53:17.484777 13731 layer_factory.hpp:77] Creating layer inception_5a/relu_5x5
I0403 14:53:17.484797 13731 net.cpp:91] Creating Layer inception_5a/relu_5x5
I0403 14:53:17.484814 13731 net.cpp:425] inception_5a/relu_5x5 <- inception_5a/5x5
I0403 14:53:17.484832 13731 net.cpp:386] inception_5a/relu_5x5 -> inception_5a/5x5 (in-place)
I0403 14:53:17.485023 13731 net.cpp:141] Setting up inception_5a/relu_5x5
I0403 14:53:17.485047 13731 net.cpp:148] Top shape: 24 128 7 7 (150528)
I0403 14:53:17.485061 13731 net.cpp:156] Memory required for data: 1300555296
I0403 14:53:17.485076 13731 layer_factory.hpp:77] Creating layer inception_5a/pool
I0403 14:53:17.485096 13731 net.cpp:91] Creating Layer inception_5a/pool
I0403 14:53:17.485113 13731 net.cpp:425] inception_5a/pool <- pool4/3x3_s2_pool4/3x3_s2_0_split_3
I0403 14:53:17.485131 13731 net.cpp:399] inception_5a/pool -> inception_5a/pool
I0403 14:53:17.485203 13731 net.cpp:141] Setting up inception_5a/pool
I0403 14:53:17.485227 13731 net.cpp:148] Top shape: 24 832 7 7 (978432)
I0403 14:53:17.485241 13731 net.cpp:156] Memory required for data: 1304469024
I0403 14:53:17.485255 13731 layer_factory.hpp:77] Creating layer inception_5a/pool_proj
I0403 14:53:17.485277 13731 net.cpp:91] Creating Layer inception_5a/pool_proj
I0403 14:53:17.485296 13731 net.cpp:425] inception_5a/pool_proj <- inception_5a/pool
I0403 14:53:17.485316 13731 net.cpp:399] inception_5a/pool_proj -> inception_5a/pool_proj
I0403 14:53:17.487622 13731 net.cpp:141] Setting up inception_5a/pool_proj
I0403 14:53:17.487651 13731 net.cpp:148] Top shape: 24 128 7 7 (150528)
I0403 14:53:17.487668 13731 net.cpp:156] Memory required for data: 1305071136
I0403 14:53:17.487684 13731 layer_factory.hpp:77] Creating layer inception_5a/relu_pool_proj
I0403 14:53:17.487702 13731 net.cpp:91] Creating Layer inception_5a/relu_pool_proj
I0403 14:53:17.487717 13731 net.cpp:425] inception_5a/relu_pool_proj <- inception_5a/pool_proj
I0403 14:53:17.487736 13731 net.cpp:386] inception_5a/relu_pool_proj -> inception_5a/pool_proj (in-place)
I0403 14:53:17.488029 13731 net.cpp:141] Setting up inception_5a/relu_pool_proj
I0403 14:53:17.488054 13731 net.cpp:148] Top shape: 24 128 7 7 (150528)
I0403 14:53:17.488068 13731 net.cpp:156] Memory required for data: 1305673248
I0403 14:53:17.488082 13731 layer_factory.hpp:77] Creating layer inception_5a/output
I0403 14:53:17.488098 13731 net.cpp:91] Creating Layer inception_5a/output
I0403 14:53:17.488113 13731 net.cpp:425] inception_5a/output <- inception_5a/1x1
I0403 14:53:17.488129 13731 net.cpp:425] inception_5a/output <- inception_5a/3x3
I0403 14:53:17.488144 13731 net.cpp:425] inception_5a/output <- inception_5a/5x5
I0403 14:53:17.488158 13731 net.cpp:425] inception_5a/output <- inception_5a/pool_proj
I0403 14:53:17.488176 13731 net.cpp:399] inception_5a/output -> inception_5a/output
I0403 14:53:17.488225 13731 net.cpp:141] Setting up inception_5a/output
I0403 14:53:17.488250 13731 net.cpp:148] Top shape: 24 832 7 7 (978432)
I0403 14:53:17.488266 13731 net.cpp:156] Memory required for data: 1309586976
I0403 14:53:17.488281 13731 layer_factory.hpp:77] Creating layer inception_5a/output_inception_5a/output_0_split
I0403 14:53:17.488297 13731 net.cpp:91] Creating Layer inception_5a/output_inception_5a/output_0_split
I0403 14:53:17.488312 13731 net.cpp:425] inception_5a/output_inception_5a/output_0_split <- inception_5a/output
I0403 14:53:17.488329 13731 net.cpp:399] inception_5a/output_inception_5a/output_0_split -> inception_5a/output_inception_5a/output_0_split_0
I0403 14:53:17.488349 13731 net.cpp:399] inception_5a/output_inception_5a/output_0_split -> inception_5a/output_inception_5a/output_0_split_1
I0403 14:53:17.488371 13731 net.cpp:399] inception_5a/output_inception_5a/output_0_split -> inception_5a/output_inception_5a/output_0_split_2
I0403 14:53:17.488391 13731 net.cpp:399] inception_5a/output_inception_5a/output_0_split -> inception_5a/output_inception_5a/output_0_split_3
I0403 14:53:17.488502 13731 net.cpp:141] Setting up inception_5a/output_inception_5a/output_0_split
I0403 14:53:17.488525 13731 net.cpp:148] Top shape: 24 832 7 7 (978432)
I0403 14:53:17.488540 13731 net.cpp:148] Top shape: 24 832 7 7 (978432)
I0403 14:53:17.488555 13731 net.cpp:148] Top shape: 24 832 7 7 (978432)
I0403 14:53:17.488569 13731 net.cpp:148] Top shape: 24 832 7 7 (978432)
I0403 14:53:17.488581 13731 net.cpp:156] Memory required for data: 1325241888
I0403 14:53:17.488595 13731 layer_factory.hpp:77] Creating layer inception_5b/1x1
I0403 14:53:17.488620 13731 net.cpp:91] Creating Layer inception_5b/1x1
I0403 14:53:17.488637 13731 net.cpp:425] inception_5b/1x1 <- inception_5a/output_inception_5a/output_0_split_0
I0403 14:53:17.488669 13731 net.cpp:399] inception_5b/1x1 -> inception_5b/1x1
I0403 14:53:17.492527 13731 net.cpp:141] Setting up inception_5b/1x1
I0403 14:53:17.492557 13731 net.cpp:148] Top shape: 24 384 7 7 (451584)
I0403 14:53:17.492571 13731 net.cpp:156] Memory required for data: 1327048224
I0403 14:53:17.492589 13731 layer_factory.hpp:77] Creating layer inception_5b/relu_1x1
I0403 14:53:17.492611 13731 net.cpp:91] Creating Layer inception_5b/relu_1x1
I0403 14:53:17.492635 13731 net.cpp:425] inception_5b/relu_1x1 <- inception_5b/1x1
I0403 14:53:17.492652 13731 net.cpp:386] inception_5b/relu_1x1 -> inception_5b/1x1 (in-place)
I0403 14:53:17.492952 13731 net.cpp:141] Setting up inception_5b/relu_1x1
I0403 14:53:17.492980 13731 net.cpp:148] Top shape: 24 384 7 7 (451584)
I0403 14:53:17.492995 13731 net.cpp:156] Memory required for data: 1328854560
I0403 14:53:17.493008 13731 layer_factory.hpp:77] Creating layer inception_5b/3x3_reduce
I0403 14:53:17.493029 13731 net.cpp:91] Creating Layer inception_5b/3x3_reduce
I0403 14:53:17.493047 13731 net.cpp:425] inception_5b/3x3_reduce <- inception_5a/output_inception_5a/output_0_split_1
I0403 14:53:17.493065 13731 net.cpp:399] inception_5b/3x3_reduce -> inception_5b/3x3_reduce
I0403 14:53:17.495714 13731 net.cpp:141] Setting up inception_5b/3x3_reduce
I0403 14:53:17.495743 13731 net.cpp:148] Top shape: 24 192 7 7 (225792)
I0403 14:53:17.495759 13731 net.cpp:156] Memory required for data: 1329757728
I0403 14:53:17.495775 13731 layer_factory.hpp:77] Creating layer inception_5b/relu_3x3_reduce
I0403 14:53:17.495793 13731 net.cpp:91] Creating Layer inception_5b/relu_3x3_reduce
I0403 14:53:17.495808 13731 net.cpp:425] inception_5b/relu_3x3_reduce <- inception_5b/3x3_reduce
I0403 14:53:17.495828 13731 net.cpp:386] inception_5b/relu_3x3_reduce -> inception_5b/3x3_reduce (in-place)
I0403 14:53:17.496014 13731 net.cpp:141] Setting up inception_5b/relu_3x3_reduce
I0403 14:53:17.496038 13731 net.cpp:148] Top shape: 24 192 7 7 (225792)
I0403 14:53:17.496053 13731 net.cpp:156] Memory required for data: 1330660896
I0403 14:53:17.496067 13731 layer_factory.hpp:77] Creating layer inception_5b/3x3
I0403 14:53:17.496088 13731 net.cpp:91] Creating Layer inception_5b/3x3
I0403 14:53:17.496105 13731 net.cpp:425] inception_5b/3x3 <- inception_5b/3x3_reduce
I0403 14:53:17.496125 13731 net.cpp:399] inception_5b/3x3 -> inception_5b/3x3
I0403 14:53:17.502698 13731 net.cpp:141] Setting up inception_5b/3x3
I0403 14:53:17.502727 13731 net.cpp:148] Top shape: 24 384 7 7 (451584)
I0403 14:53:17.502742 13731 net.cpp:156] Memory required for data: 1332467232
I0403 14:53:17.502759 13731 layer_factory.hpp:77] Creating layer inception_5b/relu_3x3
I0403 14:53:17.502776 13731 net.cpp:91] Creating Layer inception_5b/relu_3x3
I0403 14:53:17.502792 13731 net.cpp:425] inception_5b/relu_3x3 <- inception_5b/3x3
I0403 14:53:17.502811 13731 net.cpp:386] inception_5b/relu_3x3 -> inception_5b/3x3 (in-place)
I0403 14:53:17.503104 13731 net.cpp:141] Setting up inception_5b/relu_3x3
I0403 14:53:17.503130 13731 net.cpp:148] Top shape: 24 384 7 7 (451584)
I0403 14:53:17.503144 13731 net.cpp:156] Memory required for data: 1334273568
I0403 14:53:17.503159 13731 layer_factory.hpp:77] Creating layer inception_5b/5x5_reduce
I0403 14:53:17.503196 13731 net.cpp:91] Creating Layer inception_5b/5x5_reduce
I0403 14:53:17.503214 13731 net.cpp:425] inception_5b/5x5_reduce <- inception_5a/output_inception_5a/output_0_split_2
I0403 14:53:17.503235 13731 net.cpp:399] inception_5b/5x5_reduce -> inception_5b/5x5_reduce
I0403 14:53:17.504498 13731 net.cpp:141] Setting up inception_5b/5x5_reduce
I0403 14:53:17.504524 13731 net.cpp:148] Top shape: 24 48 7 7 (56448)
I0403 14:53:17.504539 13731 net.cpp:156] Memory required for data: 1334499360
I0403 14:53:17.504556 13731 layer_factory.hpp:77] Creating layer inception_5b/relu_5x5_reduce
I0403 14:53:17.504573 13731 net.cpp:91] Creating Layer inception_5b/relu_5x5_reduce
I0403 14:53:17.504590 13731 net.cpp:425] inception_5b/relu_5x5_reduce <- inception_5b/5x5_reduce
I0403 14:53:17.504621 13731 net.cpp:386] inception_5b/relu_5x5_reduce -> inception_5b/5x5_reduce (in-place)
I0403 14:53:17.504990 13731 net.cpp:141] Setting up inception_5b/relu_5x5_reduce
I0403 14:53:17.505015 13731 net.cpp:148] Top shape: 24 48 7 7 (56448)
I0403 14:53:17.505030 13731 net.cpp:156] Memory required for data: 1334725152
I0403 14:53:17.505044 13731 layer_factory.hpp:77] Creating layer inception_5b/5x5
I0403 14:53:17.505064 13731 net.cpp:91] Creating Layer inception_5b/5x5
I0403 14:53:17.505081 13731 net.cpp:425] inception_5b/5x5 <- inception_5b/5x5_reduce
I0403 14:53:17.505100 13731 net.cpp:399] inception_5b/5x5 -> inception_5b/5x5
I0403 14:53:17.507117 13731 net.cpp:141] Setting up inception_5b/5x5
I0403 14:53:17.507144 13731 net.cpp:148] Top shape: 24 128 7 7 (150528)
I0403 14:53:17.507159 13731 net.cpp:156] Memory required for data: 1335327264
I0403 14:53:17.507177 13731 layer_factory.hpp:77] Creating layer inception_5b/relu_5x5
I0403 14:53:17.507199 13731 net.cpp:91] Creating Layer inception_5b/relu_5x5
I0403 14:53:17.507215 13731 net.cpp:425] inception_5b/relu_5x5 <- inception_5b/5x5
I0403 14:53:17.507231 13731 net.cpp:386] inception_5b/relu_5x5 -> inception_5b/5x5 (in-place)
I0403 14:53:17.507421 13731 net.cpp:141] Setting up inception_5b/relu_5x5
I0403 14:53:17.507447 13731 net.cpp:148] Top shape: 24 128 7 7 (150528)
I0403 14:53:17.507462 13731 net.cpp:156] Memory required for data: 1335929376
I0403 14:53:17.507477 13731 layer_factory.hpp:77] Creating layer inception_5b/pool
I0403 14:53:17.507494 13731 net.cpp:91] Creating Layer inception_5b/pool
I0403 14:53:17.507509 13731 net.cpp:425] inception_5b/pool <- inception_5a/output_inception_5a/output_0_split_3
I0403 14:53:17.507527 13731 net.cpp:399] inception_5b/pool -> inception_5b/pool
I0403 14:53:17.507602 13731 net.cpp:141] Setting up inception_5b/pool
I0403 14:53:17.507627 13731 net.cpp:148] Top shape: 24 832 7 7 (978432)
I0403 14:53:17.507642 13731 net.cpp:156] Memory required for data: 1339843104
I0403 14:53:17.507654 13731 layer_factory.hpp:77] Creating layer inception_5b/pool_proj
I0403 14:53:17.507676 13731 net.cpp:91] Creating Layer inception_5b/pool_proj
I0403 14:53:17.507694 13731 net.cpp:425] inception_5b/pool_proj <- inception_5b/pool
I0403 14:53:17.507714 13731 net.cpp:399] inception_5b/pool_proj -> inception_5b/pool_proj
I0403 14:53:17.509964 13731 net.cpp:141] Setting up inception_5b/pool_proj
I0403 14:53:17.509992 13731 net.cpp:148] Top shape: 24 128 7 7 (150528)
I0403 14:53:17.510006 13731 net.cpp:156] Memory required for data: 1340445216
I0403 14:53:17.510023 13731 layer_factory.hpp:77] Creating layer inception_5b/relu_pool_proj
I0403 14:53:17.510043 13731 net.cpp:91] Creating Layer inception_5b/relu_pool_proj
I0403 14:53:17.510061 13731 net.cpp:425] inception_5b/relu_pool_proj <- inception_5b/pool_proj
I0403 14:53:17.510076 13731 net.cpp:386] inception_5b/relu_pool_proj -> inception_5b/pool_proj (in-place)
I0403 14:53:17.510368 13731 net.cpp:141] Setting up inception_5b/relu_pool_proj
I0403 14:53:17.510395 13731 net.cpp:148] Top shape: 24 128 7 7 (150528)
I0403 14:53:17.510408 13731 net.cpp:156] Memory required for data: 1341047328
I0403 14:53:17.510421 13731 layer_factory.hpp:77] Creating layer inception_5b/output
I0403 14:53:17.510439 13731 net.cpp:91] Creating Layer inception_5b/output
I0403 14:53:17.510468 13731 net.cpp:425] inception_5b/output <- inception_5b/1x1
I0403 14:53:17.510484 13731 net.cpp:425] inception_5b/output <- inception_5b/3x3
I0403 14:53:17.510499 13731 net.cpp:425] inception_5b/output <- inception_5b/5x5
I0403 14:53:17.510514 13731 net.cpp:425] inception_5b/output <- inception_5b/pool_proj
I0403 14:53:17.510532 13731 net.cpp:399] inception_5b/output -> inception_5b/output
I0403 14:53:17.510582 13731 net.cpp:141] Setting up inception_5b/output
I0403 14:53:17.510613 13731 net.cpp:148] Top shape: 24 1024 7 7 (1204224)
I0403 14:53:17.510629 13731 net.cpp:156] Memory required for data: 1345864224
I0403 14:53:17.510644 13731 layer_factory.hpp:77] Creating layer pool5/7x7_s1
I0403 14:53:17.510661 13731 net.cpp:91] Creating Layer pool5/7x7_s1
I0403 14:53:17.510675 13731 net.cpp:425] pool5/7x7_s1 <- inception_5b/output
I0403 14:53:17.510695 13731 net.cpp:399] pool5/7x7_s1 -> pool5/7x7_s1
I0403 14:53:17.510905 13731 net.cpp:141] Setting up pool5/7x7_s1
I0403 14:53:17.510931 13731 net.cpp:148] Top shape: 24 1024 1 1 (24576)
I0403 14:53:17.510944 13731 net.cpp:156] Memory required for data: 1345962528
I0403 14:53:17.510958 13731 layer_factory.hpp:77] Creating layer pool5/drop_7x7_s1
I0403 14:53:17.510975 13731 net.cpp:91] Creating Layer pool5/drop_7x7_s1
I0403 14:53:17.510994 13731 net.cpp:425] pool5/drop_7x7_s1 <- pool5/7x7_s1
I0403 14:53:17.511011 13731 net.cpp:386] pool5/drop_7x7_s1 -> pool5/7x7_s1 (in-place)
I0403 14:53:17.511059 13731 net.cpp:141] Setting up pool5/drop_7x7_s1
I0403 14:53:17.511083 13731 net.cpp:148] Top shape: 24 1024 1 1 (24576)
I0403 14:53:17.511098 13731 net.cpp:156] Memory required for data: 1346060832
I0403 14:53:17.511112 13731 layer_factory.hpp:77] Creating layer loss3/classifier_plantvillage
I0403 14:53:17.511131 13731 net.cpp:91] Creating Layer loss3/classifier_plantvillage
I0403 14:53:17.511145 13731 net.cpp:425] loss3/classifier_plantvillage <- pool5/7x7_s1
I0403 14:53:17.511165 13731 net.cpp:399] loss3/classifier_plantvillage -> loss3/classifier_plantvillage
I0403 14:53:17.511616 13731 net.cpp:141] Setting up loss3/classifier_plantvillage
I0403 14:53:17.511641 13731 net.cpp:148] Top shape: 24 38 (912)
I0403 14:53:17.511656 13731 net.cpp:156] Memory required for data: 1346064480
I0403 14:53:17.511672 13731 layer_factory.hpp:77] Creating layer loss3/classifier_plantvillage_loss3/classifier_plantvillage_0_split
I0403 14:53:17.511688 13731 net.cpp:91] Creating Layer loss3/classifier_plantvillage_loss3/classifier_plantvillage_0_split
I0403 14:53:17.511704 13731 net.cpp:425] loss3/classifier_plantvillage_loss3/classifier_plantvillage_0_split <- loss3/classifier_plantvillage
I0403 14:53:17.511721 13731 net.cpp:399] loss3/classifier_plantvillage_loss3/classifier_plantvillage_0_split -> loss3/classifier_plantvillage_loss3/classifier_plantvillage_0_split_0
I0403 14:53:17.511744 13731 net.cpp:399] loss3/classifier_plantvillage_loss3/classifier_plantvillage_0_split -> loss3/classifier_plantvillage_loss3/classifier_plantvillage_0_split_1
I0403 14:53:17.511764 13731 net.cpp:399] loss3/classifier_plantvillage_loss3/classifier_plantvillage_0_split -> loss3/classifier_plantvillage_loss3/classifier_plantvillage_0_split_2
I0403 14:53:17.511782 13731 net.cpp:399] loss3/classifier_plantvillage_loss3/classifier_plantvillage_0_split -> loss3/classifier_plantvillage_loss3/classifier_plantvillage_0_split_3
I0403 14:53:17.511883 13731 net.cpp:141] Setting up loss3/classifier_plantvillage_loss3/classifier_plantvillage_0_split
I0403 14:53:17.511904 13731 net.cpp:148] Top shape: 24 38 (912)
I0403 14:53:17.511919 13731 net.cpp:148] Top shape: 24 38 (912)
I0403 14:53:17.511934 13731 net.cpp:148] Top shape: 24 38 (912)
I0403 14:53:17.511948 13731 net.cpp:148] Top shape: 24 38 (912)
I0403 14:53:17.511960 13731 net.cpp:156] Memory required for data: 1346079072
I0403 14:53:17.511975 13731 layer_factory.hpp:77] Creating layer loss1/loss
I0403 14:53:17.511996 13731 net.cpp:91] Creating Layer loss1/loss
I0403 14:53:17.512014 13731 net.cpp:425] loss1/loss <- loss1/classifier_plantvillage_loss1/classifier_plantvillage_0_split_0
I0403 14:53:17.512044 13731 net.cpp:425] loss1/loss <- label_data_1_split_0
…
