…
I0403 14:40:52.683133 13531 net.cpp:313] The NetState phase (1) differed from the phase (0) specified by a rule in layer data
I0403 14:40:52.684286 13531 net.cpp:49] Initializing net from parameters: 
state {
  phase: TEST
}
layer {
  name: "data"
  type: "Data"
  top: "data"
  top: "label"
  include {
    phase: TEST
  }
  transform_param {
    mirror: false
    crop_size: 224
    mean_file: "/home/mohanty/data/final_dataset/lmdb/color-40-60/mean.binaryproto"
  }
  data_param {
    source: "/home/mohanty/data/final_dataset/lmdb/color-40-60/test_db"
    batch_size: 24
    backend: LMDB
  }
}
layer {
  name: "conv1/7x7_s2"
  type: "Convolution"
  bottom: "data"
  top: "conv1/7x7_s2"
  param {
    lr_mult: 1
    decay_mult: 1
  }
  param {
    lr_mult: 2
    decay_mult: 0
  }
  convolution_param {
    num_output: 64
    pad: 3
    kernel_size: 7
    stride: 2
    weight_filler {
      type: "xavier"
      std: 0.1
    }
    bias_filler {
      type: "constant"
      value: 0.2
    }
  }
}
layer {
  name: "conv1/relu_7x7"
  type: "ReLU"
  bottom: "conv1/7x7_s2"
  top: "conv1/7x7_s2"
}
layer {
  name: "pool1/3x3_s2"
  type: "Pooling"
  bottom: "conv1/7x7_s2"
  top: "pool1/3x3_s2"
  pooling_param {
    pool: MAX
    kernel_size: 3
    stride: 2
  }
}
layer {
  name: "pool1/norm1"
  type: "LRN"
  bottom: "pool1/3x3_s2"
  top: "pool1/norm1"
  lrn_param {
    local_size: 5
    alpha: 0.0001
    beta: 0.75
  }
}
layer {
  name: "conv2/3x3_reduce"
  type: "Convolution"
  bottom: "pool1/norm1"
  top: "conv2/3x3_reduce"
  param {
    lr_mult: 1
    decay_mult: 1
  }
  param {
    lr_mult: 2
    decay_mult: 0
  }
  convolution_param {
    num_output: 64
    kernel_size: 1
    weight_filler {
      type: "xavier"
      std: 0.1
    }
    bias_filler {
      type: "constant"
      value: 0.2
    }
  }
}
layer {
  name: "conv2/relu_3x3_reduce"
  type: "ReLU"
  bottom: "conv2/3x3_reduce"
  top: "conv2/3x3_reduce"
}
layer {
  name: "conv2/3x3"
  type: "Convolution"
  bottom: "conv2/3x3_reduce"
  top: "conv2/3x3"
  param {
    lr_mult: 1
    decay_mult: 1
  }
  param {
    lr_mult: 2
    decay_mult: 0
  }
  convolution_param {
    num_output: 192
    pad: 1
    kernel_size: 3
    weight_filler {
      type: "xavier"
      std: 0.03
    }
    bias_filler {
      type: "constant"
      value: 0.2
    }
  }
}
layer {
  name: "conv2/relu_3x3"
  type: "ReLU"
  bottom: "conv2/3x3"
  top: "conv2/3x3"
}
layer {
  name: "conv2/norm2"
  type: "LRN"
  bottom: "conv2/3x3"
  top: "conv2/norm2"
  lrn_param {
    local_size: 5
    alpha: 0.0001
    beta: 0.75
  }
}
layer {
  name: "pool2/3x3_s2"
  type: "Pooling"
  bottom: "conv2/norm2"
  top: "pool2/3x3_s2"
  pooling_param {
    pool: MAX
    kernel_size: 3
    stride: 2
  }
}
layer {
  name: "inception_3a/1x1"
  type: "Convolution"
  bottom: "pool2/3x3_s2"
  top: "inception_3a/1x1"
  param {
    lr_mult: 1
    decay_mult: 1
  }
  param {
    lr_mult: 2
    decay_mult: 0
  }
  convolution_param {
    num_output: 64
    kernel_size: 1
    weight_filler {
      type: "xavier"
      std: 0.03
    }
    bias_filler {
      type: "constant"
      value: 0.2
    }
  }
}
layer {
  name: "inception_3a/relu_1x1"
  type: "ReLU"
  bottom: "inception_3a/1x1"
  top: "inception_3a/1x1"
}
layer {
  name: "inception_3a/3x3_reduce"
  type: "Convolution"
  bottom: "pool2/3x3_s2"
  top: "inception_3a/3x3_reduce"
  param {
    lr_mult: 1
    decay_mult: 1
  }
  param {
    lr_mult: 2
    decay_mult: 0
  }
  convolution_param {
    num_output: 96
    kernel_size: 1
    weight_filler {
      type: "xavier"
      std: 0.09
    }
    bias_filler {
      type: "constant"
      value: 0.2
    }
  }
}
layer {
  name: "inception_3a/relu_3x3_reduce"
  type: "ReLU"
  bottom: "inception_3a/3x3_reduce"
  top: "inception_3a/3x3_reduce"
}
layer {
  name: "inception_3a/3x3"
  type: "Convolution"
  bottom: "inception_3a/3x3_reduce"
  top: "inception_3a/3x3"
  param {
    lr_mult: 1
    decay_mult: 1
  }
  param {
    lr_mult: 2
    decay_mult: 0
  }
  convolution_param {
    num_output: 128
    pad: 1
    kernel_size: 3
    weight_filler {
      type: "xavier"
      std: 0.03
    }
    bias_filler {
      type: "constant"
      value: 0.2
    }
  }
}
layer {
  name: "inception_3a/relu_3x3"
  type: "ReLU"
  bottom: "inception_3a/3x3"
  top: "inception_3a/3x3"
}
layer {
  name: "inception_3a/5x5_reduce"
  type: "Convolution"
  bottom: "pool2/3x3_s2"
  top: "inception_3a/5x5_reduce"
  param {
    lr_mult: 1
    decay_mult: 1
  }
  param {
    lr_mult: 2
    decay_mult: 0
  }
  convolution_param {
    num_output: 16
    kernel_size: 1
    weight_filler {
      type: "xavier"
      std: 0.2
    }
    bias_filler {
      type: "constant"
      value: 0.2
    }
  }
}
layer {
  name: "inception_3a/relu_5x5_reduce"
  type: "ReLU"
  bottom: "inception_3a/5x5_reduce"
  top: "inception_3a/5x5_reduce"
}
layer {
  name: "inception_3a/5x5"
  type: "Convolution"
  bottom: "inception_3a/5x5_reduce"
  top: "inception_3a/5x5"
  param {
    lr_mult: 1
    decay_mult: 1
  }
  param {
    lr_mult: 2
    decay_mult: 0
  }
  convolution_param {
    num_output: 32
    pad: 2
    kernel_size: 5
    weight_filler {
      type: "xavier"
      std: 0.03
    }
    bias_filler {
      type: "constant"
      value: 0.2
    }
  }
}
layer {
  name: "inception_3a/relu_5x5"
  type: "ReLU"
  bottom: "inception_3a/5x5"
  top: "inception_3a/5x5"
}
layer {
  name: "inception_3a/pool"
  type: "Pooling"
  bottom: "pool2/3x3_s2"
  top: "inception_3a/pool"
  pooling_param {
    pool: MAX
    kernel_size: 3
    stride: 1
    pad: 1
  }
}
layer {
  name: "inception_3a/pool_proj"
  type: "Convolution"
  bottom: "inception_3a/pool"
  top: "inception_3a/pool_proj"
  param {
    lr_mult: 1
    decay_mult: 1
  }
  param {
    lr_mult: 2
    decay_mult: 0
  }
  convolution_param {
    num_output: 32
    kernel_size: 1
    weight_filler {
      type: "xavier"
      std: 0.1
    }
    bias_filler {
      type: "constant"
      value: 0.2
    }
  }
}
layer {
  name: "inception_3a/relu_pool_proj"
  type: "ReLU"
  bottom: "inception_3a/pool_proj"
  top: "inception_3a/pool_proj"
}
layer {
  name: "inception_3a/output"
  type: "Concat"
  bottom: "inception_3a/1x1"
  bottom: "inception_3a/3x3"
  bottom: "inception_3a/5x5"
  bottom: "inception_3a/pool_proj"
  top: "inception_3a/output"
}
layer {
  name: "inception_3b/1x1"
  type: "Convolution"
  bottom: "inception_3a/output"
  top: "inception_3b/1x1"
  param {
    lr_mult: 1
    decay_mult: 1
  }
  param {
    lr_mult: 2
    decay_mult: 0
  }
  convolution_param {
    num_output: 128
    kernel_size: 1
    weight_filler {
      type: "xavier"
      std: 0.03
    }
    bias_filler {
      type: "constant"
      value: 0.2
    }
  }
}
layer {
  name: "inception_3b/relu_1x1"
  type: "ReLU"
  bottom: "inception_3b/1x1"
  top: "inception_3b/1x1"
}
layer {
  name: "inception_3b/3x3_reduce"
  type: "Convolution"
  bottom: "inception_3a/output"
  top: "inception_3b/3x3_reduce"
  param {
    lr_mult: 1
    decay_mult: 1
  }
  param {
    lr_mult: 2
    decay_mult: 0
  }
  convolution_param {
    num_output: 128
    kernel_size: 1
    weight_filler {
      type: "xavier"
      std: 0.09
    }
    bias_filler {
      type: "constant"
      value: 0.2
    }
  }
}
layer {
  name: "inception_3b/relu_3x3_reduce"
  type: "ReLU"
  bottom: "inception_3b/3x3_reduce"
  top: "inception_3b/3x3_reduce"
}
layer {
  name: "inception_3b/3x3"
  type: "Convolution"
  bottom: "inception_3b/3x3_reduce"
  top: "inception_3b/3x3"
  param {
    lr_mult: 1
    decay_mult: 1
  }
  param {
    lr_mult: 2
    decay_mult: 0
  }
  convolution_param {
    num_output: 192
    pad: 1
    kernel_size: 3
    weight_filler {
      type: "xavier"
      std: 0.03
    }
    bias_filler {
      type: "constant"
      value: 0.2
    }
  }
}
layer {
  name: "inception_3b/relu_3x3"
  type: "ReLU"
  bottom: "inception_3b/3x3"
  top: "inception_3b/3x3"
}
layer {
  name: "inception_3b/5x5_reduce"
  type: "Convolution"
  bottom: "inception_3a/output"
  top: "inception_3b/5x5_reduce"
  param {
    lr_mult: 1
    decay_mult: 1
  }
  param {
    lr_mult: 2
    decay_mult: 0
  }
  convolution_param {
    num_output: 32
    kernel_size: 1
    weight_filler {
      type: "xavier"
      std: 0.2
    }
    bias_filler {
      type: "constant"
      value: 0.2
    }
  }
}
layer {
  name: "inception_3b/relu_5x5_reduce"
  type: "ReLU"
  bottom: "inception_3b/5x5_reduce"
  top: "inception_3b/5x5_reduce"
}
layer {
  name: "inception_3b/5x5"
  type: "Convolution"
  bottom: "inception_3b/5x5_reduce"
  top: "inception_3b/5x5"
  param {
    lr_mult: 1
    decay_mult: 1
  }
  param {
    lr_mult: 2
    decay_mult: 0
  }
  convolution_param {
    num_output: 96
    pad: 2
    kernel_size: 5
    weight_filler {
      type: "xavier"
      std: 0.03
    }
    bias_filler {
      type: "constant"
      value: 0.2
    }
  }
}
layer {
  name: "inception_3b/relu_5x5"
  type: "ReLU"
  bottom: "inception_3b/5x5"
  top: "inception_3b/5x5"
}
layer {
  name: "inception_3b/pool"
  type: "Pooling"
  bottom: "inception_3a/output"
  top: "inception_3b/pool"
  pooling_param {
    pool: MAX
    kernel_size: 3
    stride: 1
    pad: 1
  }
}
layer {
  name: "inception_3b/pool_proj"
  type: "Convolution"
  bottom: "inception_3b/pool"
  top: "inception_3b/pool_proj"
  param {
    lr_mult: 1
    decay_mult: 1
  }
  param {
    lr_mult: 2
    decay_mult: 0
  }
  convolution_param {
    num_output: 64
    kernel_size: 1
    weight_filler {
      type: "xavier"
      std: 0.1
    }
    bias_filler {
      type: "constant"
      value: 0.2
    }
  }
}
layer {
  name: "inception_3b/relu_pool_proj"
  type: "ReLU"
  bottom: "inception_3b/pool_proj"
  top: "inception_3b/pool_proj"
}
layer {
  name: "inception_3b/output"
  type: "Concat"
  bottom: "inception_3b/1x1"
  bottom: "inception_3b/3x3"
  bottom: "inception_3b/5x5"
  bottom: "inception_3b/pool_proj"
  top: "inception_3b/output"
}
layer {
  name: "pool3/3x3_s2"
  type: "Pooling"
  bottom: "inception_3b/output"
  top: "pool3/3x3_s2"
  pooling_param {
    pool: MAX
    kernel_size: 3
    stride: 2
  }
}
layer {
  name: "inception_4a/1x1"
  type: "Convolution"
  bottom: "pool3/3x3_s2"
  top: "inception_4a/1x1"
  param {
    lr_mult: 1
    decay_mult: 1
  }
  param {
    lr_mult: 2
    decay_mult: 0
  }
  convolution_param {
    num_output: 192
    kernel_size: 1
    weight_filler {
      type: "xavier"
      std: 0.03
    }
    bias_filler {
      type: "constant"
      value: 0.2
    }
  }
}
layer {
  name: "inception_4a/relu_1x1"
  type: "ReLU"
  bottom: "inception_4a/1x1"
  top: "inception_4a/1x1"
}
layer {
  name: "inception_4a/3x3_reduce"
  type: "Convolution"
  bottom: "pool3/3x3_s2"
  top: "inception_4a/3x3_reduce"
  param {
    lr_mult: 1
    decay_mult: 1
  }
  param {
    lr_mult: 2
    decay_mult: 0
  }
  convolution_param {
    num_output: 96
    kernel_size: 1
    weight_filler {
      type: "xavier"
      std: 0.09
    }
    bias_filler {
      type: "constant"
      value: 0.2
    }
  }
}
layer {
  name: "inception_4a/relu_3x3_reduce"
  type: "ReLU"
  bottom: "inception_4a/3x3_reduce"
  top: "inception_4a/3x3_reduce"
}
layer {
  name: "inception_4a/3x3"
  type: "Convolution"
  bottom: "inception_4a/3x3_reduce"
  top: "inception_4a/3x3"
  param {
    lr_mult: 1
    decay_mult: 1
  }
  param {
    lr_mult: 2
    decay_mult: 0
  }
  convolution_param {
    num_output: 208
    pad: 1
    kernel_size: 3
    weight_filler {
      type: "xavier"
      std: 0.03
    }
    bias_filler {
      type: "constant"
      value: 0.2
    }
  }
}
layer {
  name: "inception_4a/relu_3x3"
  type: "ReLU"
  bottom: "inception_4a/3x3"
  top: "inception_4a/3x3"
}
layer {
  name: "inception_4a/5x5_reduce"
  type: "Convolution"
  bottom: "pool3/3x3_s2"
  top: "inception_4a/5x5_reduce"
  param {
    lr_mult: 1
    decay_mult: 1
  }
  param {
    lr_mult: 2
    decay_mult: 0
  }
  convolution_param {
    num_output: 16
    kernel_size: 1
    weight_filler {
      type: "xavier"
      std: 0.2
    }
    bias_filler {
      type: "constant"
      value: 0.2
    }
  }
}
layer {
  name: "inception_4a/relu_5x5_reduce"
  type: "ReLU"
  bottom: "inception_4a/5x5_reduce"
  top: "inception_4a/5x5_reduce"
}
layer {
  name: "inception_4a/5x5"
  type: "Convolution"
  bottom: "inception_4a/5x5_reduce"
  top: "inception_4a/5x5"
  param {
    lr_mult: 1
    decay_mult: 1
  }
  param {
    lr_mult: 2
    decay_mult: 0
  }
  convolution_param {
    num_output: 48
    pad: 2
    kernel_size: 5
    weight_filler {
      type: "xavier"
      std: 0.03
    }
    bias_filler {
      type: "constant"
      value: 0.2
    }
  }
}
layer {
  name: "inception_4a/relu_5x5"
  type: "ReLU"
  bottom: "inception_4a/5x5"
  top: "inception_4a/5x5"
}
layer {
  name: "inception_4a/pool"
  type: "Pooling"
  bottom: "pool3/3x3_s2"
  top: "inception_4a/pool"
  pooling_param {
    pool: MAX
    kernel_size: 3
    stride: 1
    pad: 1
  }
}
layer {
  name: "inception_4a/pool_proj"
  type: "Convolution"
  bottom: "inception_4a/pool"
  top: "inception_4a/pool_proj"
  param {
    lr_mult: 1
    decay_mult: 1
  }
  param {
    lr_mult: 2
    decay_mult: 0
  }
  convolution_param {
    num_output: 64
    kernel_size: 1
    weight_filler {
      type: "xavier"
      std: 0.1
    }
    bias_filler {
      type: "constant"
      value: 0.2
    }
  }
}
layer {
  name: "inception_4a/relu_pool_proj"
  type: "ReLU"
  bottom: "inception_4a/pool_proj"
  top: "inception_4a/pool_proj"
}
layer {
  name: "inception_4a/output"
  type: "Concat"
  bottom: "inception_4a/1x1"
  bottom: "inception_4a/3x3"
  bottom: "inception_4a/5x5"
  bottom: "inception_4a/pool_proj"
  top: "inception_4a/output"
}
layer {
  name: "loss1/ave_pool"
  type: "Pooling"
  bottom: "inception_4a/output"
  top: "loss1/ave_pool"
  pooling_param {
    pool: AVE
    kernel_size: 5
    stride: 3
  }
}
layer {
  name: "loss1/conv"
  type: "Convolution"
  bottom: "loss1/ave_pool"
  top: "loss1/conv"
  param {
    lr_mult: 1
    decay_mult: 1
  }
  param {
    lr_mult: 2
    decay_mult: 0
  }
  convolution_param {
    num_output: 128
    kernel_size: 1
    weight_filler {
      type: "xavier"
      std: 0.08
    }
    bias_filler {
      type: "constant"
      value: 0.2
    }
  }
}
layer {
  name: "loss1/relu_conv"
  type: "ReLU"
  bottom: "loss1/conv"
  top: "loss1/conv"
}
layer {
  name: "loss1/fc"
  type: "InnerProduct"
  bottom: "loss1/conv"
  top: "loss1/fc"
  param {
    lr_mult: 1
    decay_mult: 1
  }
  param {
    lr_mult: 2
    decay_mult: 0
  }
  inner_product_param {
    num_output: 1024
    weight_filler {
      type: "xavier"
      std: 0.02
    }
    bias_filler {
      type: "constant"
      value: 0.2
    }
  }
}
layer {
  name: "loss1/relu_fc"
  type: "ReLU"
  bottom: "loss1/fc"
  top: "loss1/fc"
}
layer {
  name: "loss1/drop_fc"
  type: "Dropout"
  bottom: "loss1/fc"
  top: "loss1/fc"
  dropout_param {
    dropout_ratio: 0.7
  }
}
layer {
  name: "loss1/classifier_plantvillage"
  type: "InnerProduct"
  bottom: "loss1/fc"
  top: "loss1/classifier_plantvillage"
  param {
    lr_mult: 1
    decay_mult: 1
  }
  param {
    lr_mult: 2
    decay_mult: 0
  }
  inner_product_param {
    num_output: 38
    weight_filler {
      type: "xavier"
      std: 0.0009765625
    }
    bias_filler {
      type: "constant"
      value: 0
    }
  }
}
layer {
  name: "inception_4b/1x1"
  type: "Convolution"
  bottom: "inception_4a/output"
  top: "inception_4b/1x1"
  param {
    lr_mult: 1
    decay_mult: 1
  }
  param {
    lr_mult: 2
    decay_mult: 0
  }
  convolution_param {
    num_output: 160
    kernel_size: 1
    weight_filler {
      type: "xavier"
      std: 0.03
    }
    bias_filler {
      type: "constant"
      value: 0.2
    }
  }
}
layer {
  name: "inception_4b/relu_1x1"
  type: "ReLU"
  bottom: "inception_4b/1x1"
  top: "inception_4b/1x1"
}
layer {
  name: "inception_4b/3x3_reduce"
  type: "Convolution"
  bottom: "inception_4a/output"
  top: "inception_4b/3x3_reduce"
  param {
    lr_mult: 1
    decay_mult: 1
  }
  param {
    lr_mult: 2
    decay_mult: 0
  }
  convolution_param {
    num_output: 112
    kernel_size: 1
    weight_filler {
      type: "xavier"
      std: 0.09
    }
    bias_filler {
      type: "constant"
      value: 0.2
    }
  }
}
layer {
  name: "inception_4b/relu_3x3_reduce"
  type: "ReLU"
  bottom: "inception_4b/3x3_reduce"
  top: "inception_4b/3x3_reduce"
}
layer {
  name: "inception_4b/3x3"
  type: "Convolution"
  bottom: "inception_4b/3x3_reduce"
  top: "inception_4b/3x3"
  param {
    lr_mult: 1
    decay_mult: 1
  }
  param {
    lr_mult: 2
    decay_mult: 0
  }
  convolution_param {
    num_output: 224
    pad: 1
    kernel_size: 3
    weight_filler {
      type: "xavier"
      std: 0.03
    }
    bias_filler {
      type: "constant"
      value: 0.2
    }
  }
}
layer {
  name: "inception_4b/relu_3x3"
  type: "ReLU"
  bottom: "inception_4b/3x3"
  top: "inception_4b/3x3"
}
layer {
  name: "inception_4b/5x5_reduce"
  type: "Convolution"
  bottom: "inception_4a/output"
  top: "inception_4b/5x5_reduce"
  param {
    lr_mult: 1
    decay_mult: 1
  }
  param {
    lr_mult: 2
    decay_mult: 0
  }
  convolution_param {
    num_output: 24
    kernel_size: 1
    weight_filler {
      type: "xavier"
      std: 0.2
    }
    bias_filler {
      type: "constant"
      value: 0.2
    }
  }
}
layer {
  name: "inception_4b/relu_5x5_reduce"
  type: "ReLU"
  bottom: "inception_4b/5x5_reduce"
  top: "inception_4b/5x5_reduce"
}
layer {
  name: "inception_4b/5x5"
  type: "Convolution"
  bottom: "inception_4b/5x5_reduce"
  top: "inception_4b/5x5"
  param {
    lr_mult: 1
    decay_mult: 1
  }
  param {
    lr_mult: 2
    decay_mult: 0
  }
  convolution_param {
    num_output: 64
    pad: 2
    kernel_size: 5
    weight_filler {
      type: "xavier"
      std: 0.03
    }
    bias_filler {
      type: "constant"
      value: 0.2
    }
  }
}
layer {
  name: "inception_4b/relu_5x5"
  type: "ReLU"
  bottom: "inception_4b/5x5"
  top: "inception_4b/5x5"
}
layer {
  name: "inception_4b/pool"
  type: "Pooling"
  bottom: "inception_4a/output"
  top: "inception_4b/pool"
  pooling_param {
    pool: MAX
    kernel_size: 3
    stride: 1
    pad: 1
  }
}
layer {
  name: "inception_4b/pool_proj"
  type: "Convolution"
  bottom: "inception_4b/pool"
  top: "inception_4b/pool_proj"
  param {
    lr_mult: 1
    decay_mult: 1
  }
  param {
    lr_mult: 2
    decay_mult: 0
  }
  convolution_param {
    num_output: 64
    kernel_size: 1
    weight_filler {
      type: "xavier"
      std: 0.1
    }
    bias_filler {
      type: "constant"
      value: 0.2
    }
  }
}
layer {
  name: "inception_4b/relu_pool_proj"
  type: "ReLU"
  bottom: "inception_4b/pool_proj"
  top: "inception_4b/pool_proj"
}
layer {
  name: "inception_4b/output"
  type: "Concat"
  bottom: "inception_4b/1x1"
  bottom: "inception_4b/3x3"
  bottom: "inception_4b/5x5"
  bottom: "inception_4b/pool_proj"
  top: "inception_4b/output"
}
layer {
  name: "inception_4c/1x1"
  type: "Convolution"
  bottom: "inception_4b/output"
  top: "inception_4c/1x1"
  param {
    lr_mult: 1
    decay_mult: 1
  }
  param {
    lr_mult: 2
    decay_mult: 0
  }
  convolution_param {
    num_output: 128
    kernel_size: 1
    weight_filler {
      type: "xavier"
      std: 0.03
    }
    bias_filler {
      type: "constant"
      value: 0.2
    }
  }
}
layer {
  name: "inception_4c/relu_1x1"
  type: "ReLU"
  bottom: "inception_4c/1x1"
  top: "inception_4c/1x1"
}
layer {
  name: "inception_4c/3x3_reduce"
  type: "Convolution"
  bottom: "inception_4b/output"
  top: "inception_4c/3x3_reduce"
  param {
    lr_mult: 1
    decay_mult: 1
  }
  param {
    lr_mult: 2
    decay_mult: 0
  }
  convolution_param {
    num_output: 128
    kernel_size: 1
    weight_filler {
      type: "xavier"
      std: 0.09
    }
    bias_filler {
      type: "constant"
      value: 0.2
    }
  }
}
layer {
  name: "inception_4c/relu_3x3_reduce"
  type: "ReLU"
  bottom: "inception_4c/3x3_reduce"
  top: "inception_4c/3x3_reduce"
}
layer {
  name: "inception_4c/3x3"
  type: "Convolution"
  bottom: "inception_4c/3x3_reduce"
  top: "inception_4c/3x3"
  param {
    lr_mult: 1
    decay_mult: 1
  }
  param {
    lr_mult: 2
    decay_mult: 0
  }
  convolution_param {
    num_output: 256
    pad: 1
    kernel_size: 3
    weight_filler {
      type: "xavier"
      std: 0.03
    }
    bias_filler {
      type: "constant"
      value: 0.2
    }
  }
}
layer {
  name: "inception_4c/relu_3x3"
  type: "ReLU"
  bottom: "inception_4c/3x3"
  top: "inception_4c/3x3"
}
layer {
  name: "inception_4c/5x5_reduce"
  type: "Convolution"
  bottom: "inception_4b/output"
  top: "inception_4c/5x5_reduce"
  param {
    lr_mult: 1
    decay_mult: 1
  }
  param {
    lr_mult: 2
    decay_mult: 0
  }
  convolution_param {
    num_output: 24
    kernel_size: 1
    weight_filler {
      type: "xavier"
      std: 0.2
    }
    bias_filler {
      type: "constant"
      value: 0.2
    }
  }
}
layer {
  name: "inception_4c/relu_5x5_reduce"
  type: "ReLU"
  bottom: "inception_4c/5x5_reduce"
  top: "inception_4c/5x5_reduce"
}
layer {
  name: "inception_4c/5x5"
  type: "Convolution"
  bottom: "inception_4c/5x5_reduce"
  top: "inception_4c/5x5"
  param {
    lr_mult: 1
    decay_mult: 1
  }
  param {
    lr_mult: 2
    decay_mult: 0
  }
  convolution_param {
    num_output: 64
    pad: 2
    kernel_size: 5
    weight_filler {
      type: "xavier"
      std: 0.03
    }
    bias_filler {
      type: "constant"
      value: 0.2
    }
  }
}
layer {
  name: "inception_4c/relu_5x5"
  type: "ReLU"
  bottom: "inception_4c/5x5"
  top: "inception_4c/5x5"
}
layer {
  name: "inception_4c/pool"
  type: "Pooling"
  bottom: "inception_4b/output"
  top: "inception_4c/pool"
  pooling_param {
    pool: MAX
    kernel_size: 3
    stride: 1
    pad: 1
  }
}
layer {
  name: "inception_4c/pool_proj"
  type: "Convolution"
  bottom: "inception_4c/pool"
  top: "inception_4c/pool_proj"
  param {
    lr_mult: 1
    decay_mult: 1
  }
  param {
    lr_mult: 2
    decay_mult: 0
  }
  convolution_param {
    num_output: 64
    kernel_size: 1
    weight_filler {
      type: "xavier"
      std: 0.1
    }
    bias_filler {
      type: "constant"
      value: 0.2
    }
  }
}
layer {
  name: "inception_4c/relu_pool_proj"
  type: "ReLU"
  bottom: "inception_4c/pool_proj"
  top: "inception_4c/pool_proj"
}
layer {
  name: "inception_4c/output"
  type: "Concat"
  bottom: "inception_4c/1x1"
  bottom: "inception_4c/3x3"
  bottom: "inception_4c/5x5"
  bottom: "inception_4c/pool_proj"
  top: "inception_4c/output"
}
layer {
  name: "inception_4d/1x1"
  type: "Convolution"
  bottom: "inception_4c/output"
  top: "inception_4d/1x1"
  param {
    lr_mult: 1
    decay_mult: 1
  }
  param {
    lr_mult: 2
    decay_mult: 0
  }
  convolution_param {
    num_output: 112
    kernel_size: 1
    weight_filler {
      type: "xavier"
      std: 0.03
    }
    bias_filler {
      type: "constant"
      value: 0.2
    }
  }
}
layer {
  name: "inception_4d/relu_1x1"
  type: "ReLU"
  bottom: "inception_4d/1x1"
  top: "inception_4d/1x1"
}
layer {
  name: "inception_4d/3x3_reduce"
  type: "Convolution"
  bottom: "inception_4c/output"
  top: "inception_4d/3x3_reduce"
  param {
    lr_mult: 1
    decay_mult: 1
  }
  param {
    lr_mult: 2
    decay_mult: 0
  }
  convolution_param {
    num_output: 144
    kernel_size: 1
    weight_filler {
      type: "xavier"
      std: 0.09
    }
    bias_filler {
      type: "constant"
      value: 0.2
    }
  }
}
layer {
  name: "inception_4d/relu_3x3_reduce"
  type: "ReLU"
  bottom: "inception_4d/3x3_reduce"
  top: "inception_4d/3x3_reduce"
}
layer {
  name: "inception_4d/3x3"
  type: "Convolution"
  bottom: "inception_4d/3x3_reduce"
  top: "inception_4d/3x3"
  param {
    lr_mult: 1
    decay_mult: 1
  }
  param {
    lr_mult: 2
    decay_mult: 0
  }
  convolution_param {
    num_output: 288
    pad: 1
    kernel_size: 3
    weight_filler {
      type: "xavier"
      std: 0.03
    }
    bias_filler {
      type: "constant"
      value: 0.2
    }
  }
}
layer {
  name: "inception_4d/relu_3x3"
  type: "ReLU"
  bottom: "inception_4d/3x3"
  top: "inception_4d/3x3"
}
layer {
  name: "inception_4d/5x5_reduce"
  type: "Convolution"
  bottom: "inception_4c/output"
  top: "inception_4d/5x5_reduce"
  param {
    lr_mult: 1
    decay_mult: 1
  }
  param {
    lr_mult: 2
    decay_mult: 0
  }
  convolution_param {
    num_output: 32
    kernel_size: 1
    weight_filler {
      type: "xavier"
      std: 0.2
    }
    bias_filler {
      type: "constant"
      value: 0.2
    }
  }
}
layer {
  name: "inception_4d/relu_5x5_reduce"
  type: "ReLU"
  bottom: "inception_4d/5x5_reduce"
  top: "inception_4d/5x5_reduce"
}
layer {
  name: "inception_4d/5x5"
  type: "Convolution"
  bottom: "inception_4d/5x5_reduce"
  top: "inception_4d/5x5"
  param {
    lr_mult: 1
    decay_mult: 1
  }
  param {
    lr_mult: 2
    decay_mult: 0
  }
  convolution_param {
    num_output: 64
    pad: 2
    kernel_size: 5
    weight_filler {
      type: "xavier"
      std: 0.03
    }
    bias_filler {
      type: "constant"
      value: 0.2
    }
  }
}
layer {
  name: "inception_4d/relu_5x5"
  type: "ReLU"
  bottom: "inception_4d/5x5"
  top: "inception_4d/5x5"
}
layer {
  name: "inception_4d/pool"
  type: "Pooling"
  bottom: "inception_4c/output"
  top: "inception_4d/pool"
  pooling_param {
    pool: MAX
    kernel_size: 3
    stride: 1
    pad: 1
  }
}
layer {
  name: "inception_4d/pool_proj"
  type: "Convolution"
  bottom: "inception_4d/pool"
  top: "inception_4d/pool_proj"
  param {
    lr_mult: 1
    decay_mult: 1
  }
  param {
    lr_mult: 2
    decay_mult: 0
  }
  convolution_param {
    num_output: 64
    kernel_size: 1
    weight_filler {
      type: "xavier"
      std: 0.1
    }
    bias_filler {
      type: "constant"
      value: 0.2
    }
  }
}
layer {
  name: "inception_4d/relu_pool_proj"
  type: "ReLU"
  bottom: "inception_4d/pool_proj"
  top: "inception_4d/pool_proj"
}
layer {
  name: "inception_4d/output"
  type: "Concat"
  bottom: "inception_4d/1x1"
  bottom: "inception_4d/3x3"
  bottom: "inception_4d/5x5"
  bottom: "inception_4d/pool_proj"
  top: "inception_4d/output"
}
layer {
  name: "loss2/ave_pool"
  type: "Pooling"
  bottom: "inception_4d/output"
  top: "loss2/ave_pool"
  pooling_param {
    pool: AVE
    kernel_size: 5
    stride: 3
  }
}
layer {
  name: "loss2/conv"
  type: "Convolution"
  bottom: "loss2/ave_pool"
  top: "loss2/conv"
  param {
    lr_mult: 1
    decay_mult: 1
  }
  param {
    lr_mult: 2
    decay_mult: 0
  }
  convolution_param {
    num_output: 128
    kernel_size: 1
    weight_filler {
      type: "xavier"
      std: 0.08
    }
    bias_filler {
      type: "constant"
      value: 0.2
    }
  }
}
layer {
  name: "loss2/relu_conv"
  type: "ReLU"
  bottom: "loss2/conv"
  top: "loss2/conv"
}
layer {
  name: "loss2/fc"
  type: "InnerProduct"
  bottom: "loss2/conv"
  top: "loss2/fc"
  param {
    lr_mult: 1
    decay_mult: 1
  }
  param {
    lr_mult: 2
    decay_mult: 0
  }
  inner_product_param {
    num_output: 1024
    weight_filler {
      type: "xavier"
      std: 0.02
    }
    bias_filler {
      type: "constant"
      value: 0.2
    }
  }
}
layer {
  name: "loss2/relu_fc"
  type: "ReLU"
  bottom: "loss2/fc"
  top: "loss2/fc"
}
layer {
  name: "loss2/drop_fc"
  type: "Dropout"
  bottom: "loss2/fc"
  top: "loss2/fc"
  dropout_param {
    dropout_ratio: 0.7
  }
}
layer {
  name: "loss2/classifier_plantvillage"
  type: "InnerProduct"
  bottom: "loss2/fc"
  top: "loss2/classifier_plantvillage"
  param {
    lr_mult: 1
    decay_mult: 1
  }
  param {
    lr_mult: 2
    decay_mult: 0
  }
  inner_product_param {
    num_output: 38
    weight_filler {
      type: "xavier"
      std: 0.0009765625
    }
    bias_filler {
      type: "constant"
      value: 0
    }
  }
}
layer {
  name: "inception_4e/1x1"
  type: "Convolution"
  bottom: "inception_4d/output"
  top: "inception_4e/1x1"
  param {
    lr_mult: 1
    decay_mult: 1
  }
  param {
    lr_mult: 2
    decay_mult: 0
  }
  convolution_param {
    num_output: 256
    kernel_size: 1
    weight_filler {
      type: "xavier"
      std: 0.03
    }
    bias_filler {
      type: "constant"
      value: 0.2
    }
  }
}
layer {
  name: "inception_4e/relu_1x1"
  type: "ReLU"
  bottom: "inception_4e/1x1"
  top: "inception_4e/1x1"
}
layer {
  name: "inception_4e/3x3_reduce"
  type: "Convolution"
  bottom: "inception_4d/output"
  top: "inception_4e/3x3_reduce"
  param {
    lr_mult: 1
    decay_mult: 1
  }
  param {
    lr_mult: 2
    decay_mult: 0
  }
  convolution_param {
    num_output: 160
    kernel_size: 1
    weight_filler {
      type: "xavier"
      std: 0.09
    }
    bias_filler {
      type: "constant"
      value: 0.2
    }
  }
}
layer {
  name: "inception_4e/relu_3x3_reduce"
  type: "ReLU"
  bottom: "inception_4e/3x3_reduce"
  top: "inception_4e/3x3_reduce"
}
layer {
  name: "inception_4e/3x3"
  type: "Convolution"
  bottom: "inception_4e/3x3_reduce"
  top: "inception_4e/3x3"
  param {
    lr_mult: 1
    decay_mult: 1
  }
  param {
    lr_mult: 2
    decay_mult: 0
  }
  convolution_param {
    num_output: 320
    pad: 1
    kernel_size: 3
    weight_filler {
      type: "xavier"
      std: 0.03
    }
    bias_filler {
      type: "constant"
      value: 0.2
    }
  }
}
layer {
  name: "inception_4e/relu_3x3"
  type: "ReLU"
  bottom: "inception_4e/3x3"
  top: "inception_4e/3x3"
}
layer {
  name: "inception_4e/5x5_reduce"
  type: "Convolution"
  bottom: "inception_4d/output"
  top: "inception_4e/5x5_reduce"
  param {
    lr_mult: 1
    decay_mult: 1
  }
  param {
    lr_mult: 2
    decay_mult: 0
  }
  convolution_param {
    num_output: 32
    kernel_size: 1
    weight_filler {
      type: "xavier"
      std: 0.2
    }
    bias_filler {
      type: "constant"
      value: 0.2
    }
  }
}
layer {
  name: "inception_4e/relu_5x5_reduce"
  type: "ReLU"
  bottom: "inception_4e/5x5_reduce"
  top: "inception_4e/5x5_reduce"
}
layer {
  name: "inception_4e/5x5"
  type: "Convolution"
  bottom: "inception_4e/5x5_reduce"
  top: "inception_4e/5x5"
  p
I0403 14:40:52.685588 13531 layer_factory.hpp:77] Creating layer data
I0403 14:40:52.686189 13531 net.cpp:91] Creating Layer data
I0403 14:40:52.686219 13531 net.cpp:399] data -> data
I0403 14:40:52.686269 13531 net.cpp:399] data -> label
I0403 14:40:52.686305 13531 data_transformer.cpp:25] Loading mean file from: /home/mohanty/data/final_dataset/lmdb/color-40-60/mean.binaryproto
I0403 14:40:52.689081 13534 db_lmdb.cpp:38] Opened lmdb /home/mohanty/data/final_dataset/lmdb/color-40-60/test_db
I0403 14:40:52.699707 13531 data_layer.cpp:41] output data size: 24,3,224,224
I0403 14:40:52.726704 13531 net.cpp:141] Setting up data
I0403 14:40:52.726775 13531 net.cpp:148] Top shape: 24 3 224 224 (3612672)
I0403 14:40:52.726797 13531 net.cpp:148] Top shape: 24 (24)
I0403 14:40:52.726811 13531 net.cpp:156] Memory required for data: 14450784
I0403 14:40:52.726837 13531 layer_factory.hpp:77] Creating layer label_data_1_split
I0403 14:40:52.726863 13531 net.cpp:91] Creating Layer label_data_1_split
I0403 14:40:52.726881 13531 net.cpp:425] label_data_1_split <- label
I0403 14:40:52.726912 13531 net.cpp:399] label_data_1_split -> label_data_1_split_0
I0403 14:40:52.726938 13531 net.cpp:399] label_data_1_split -> label_data_1_split_1
I0403 14:40:52.726958 13531 net.cpp:399] label_data_1_split -> label_data_1_split_2
I0403 14:40:52.726979 13531 net.cpp:399] label_data_1_split -> label_data_1_split_3
I0403 14:40:52.726997 13531 net.cpp:399] label_data_1_split -> label_data_1_split_4
I0403 14:40:52.727016 13531 net.cpp:399] label_data_1_split -> label_data_1_split_5
I0403 14:40:52.727035 13531 net.cpp:399] label_data_1_split -> label_data_1_split_6
I0403 14:40:52.727053 13531 net.cpp:399] label_data_1_split -> label_data_1_split_7
I0403 14:40:52.727072 13531 net.cpp:399] label_data_1_split -> label_data_1_split_8
I0403 14:40:52.727092 13531 net.cpp:399] label_data_1_split -> label_data_1_split_9
I0403 14:40:52.727203 13531 net.cpp:141] Setting up label_data_1_split
I0403 14:40:52.727226 13531 net.cpp:148] Top shape: 24 (24)
I0403 14:40:52.727241 13531 net.cpp:148] Top shape: 24 (24)
I0403 14:40:52.727257 13531 net.cpp:148] Top shape: 24 (24)
I0403 14:40:52.727272 13531 net.cpp:148] Top shape: 24 (24)
I0403 14:40:52.727286 13531 net.cpp:148] Top shape: 24 (24)
I0403 14:40:52.727300 13531 net.cpp:148] Top shape: 24 (24)
I0403 14:40:52.727316 13531 net.cpp:148] Top shape: 24 (24)
I0403 14:40:52.727330 13531 net.cpp:148] Top shape: 24 (24)
I0403 14:40:52.727345 13531 net.cpp:148] Top shape: 24 (24)
I0403 14:40:52.727360 13531 net.cpp:148] Top shape: 24 (24)
I0403 14:40:52.727397 13531 net.cpp:156] Memory required for data: 14451744
I0403 14:40:52.727412 13531 layer_factory.hpp:77] Creating layer conv1/7x7_s2
I0403 14:40:52.727443 13531 net.cpp:91] Creating Layer conv1/7x7_s2
I0403 14:40:52.727460 13531 net.cpp:425] conv1/7x7_s2 <- data
I0403 14:40:52.727478 13531 net.cpp:399] conv1/7x7_s2 -> conv1/7x7_s2
I0403 14:40:52.863277 13531 net.cpp:141] Setting up conv1/7x7_s2
I0403 14:40:52.863356 13531 net.cpp:148] Top shape: 24 64 112 112 (19267584)
I0403 14:40:52.863373 13531 net.cpp:156] Memory required for data: 91522080
I0403 14:40:52.863404 13531 layer_factory.hpp:77] Creating layer conv1/relu_7x7
I0403 14:40:52.863428 13531 net.cpp:91] Creating Layer conv1/relu_7x7
I0403 14:40:52.863447 13531 net.cpp:425] conv1/relu_7x7 <- conv1/7x7_s2
I0403 14:40:52.863469 13531 net.cpp:386] conv1/relu_7x7 -> conv1/7x7_s2 (in-place)
I0403 14:40:52.863739 13531 net.cpp:141] Setting up conv1/relu_7x7
I0403 14:40:52.863770 13531 net.cpp:148] Top shape: 24 64 112 112 (19267584)
I0403 14:40:52.863785 13531 net.cpp:156] Memory required for data: 168592416
I0403 14:40:52.863801 13531 layer_factory.hpp:77] Creating layer pool1/3x3_s2
I0403 14:40:52.863826 13531 net.cpp:91] Creating Layer pool1/3x3_s2
I0403 14:40:52.863843 13531 net.cpp:425] pool1/3x3_s2 <- conv1/7x7_s2
I0403 14:40:52.863863 13531 net.cpp:399] pool1/3x3_s2 -> pool1/3x3_s2
I0403 14:40:52.863942 13531 net.cpp:141] Setting up pool1/3x3_s2
I0403 14:40:52.863970 13531 net.cpp:148] Top shape: 24 64 56 56 (4816896)
I0403 14:40:52.863986 13531 net.cpp:156] Memory required for data: 187860000
I0403 14:40:52.864001 13531 layer_factory.hpp:77] Creating layer pool1/norm1
I0403 14:40:52.864025 13531 net.cpp:91] Creating Layer pool1/norm1
I0403 14:40:52.864042 13531 net.cpp:425] pool1/norm1 <- pool1/3x3_s2
I0403 14:40:52.864063 13531 net.cpp:399] pool1/norm1 -> pool1/norm1
I0403 14:40:52.864364 13531 net.cpp:141] Setting up pool1/norm1
I0403 14:40:52.864392 13531 net.cpp:148] Top shape: 24 64 56 56 (4816896)
I0403 14:40:52.864408 13531 net.cpp:156] Memory required for data: 207127584
I0403 14:40:52.864423 13531 layer_factory.hpp:77] Creating layer conv2/3x3_reduce
I0403 14:40:52.864449 13531 net.cpp:91] Creating Layer conv2/3x3_reduce
I0403 14:40:52.864466 13531 net.cpp:425] conv2/3x3_reduce <- pool1/norm1
I0403 14:40:52.864487 13531 net.cpp:399] conv2/3x3_reduce -> conv2/3x3_reduce
I0403 14:40:52.865917 13531 net.cpp:141] Setting up conv2/3x3_reduce
I0403 14:40:52.865947 13531 net.cpp:148] Top shape: 24 64 56 56 (4816896)
I0403 14:40:52.865962 13531 net.cpp:156] Memory required for data: 226395168
I0403 14:40:52.865983 13531 layer_factory.hpp:77] Creating layer conv2/relu_3x3_reduce
I0403 14:40:52.866004 13531 net.cpp:91] Creating Layer conv2/relu_3x3_reduce
I0403 14:40:52.866020 13531 net.cpp:425] conv2/relu_3x3_reduce <- conv2/3x3_reduce
I0403 14:40:52.866039 13531 net.cpp:386] conv2/relu_3x3_reduce -> conv2/3x3_reduce (in-place)
I0403 14:40:52.866314 13531 net.cpp:141] Setting up conv2/relu_3x3_reduce
I0403 14:40:52.866341 13531 net.cpp:148] Top shape: 24 64 56 56 (4816896)
I0403 14:40:52.866356 13531 net.cpp:156] Memory required for data: 245662752
I0403 14:40:52.866371 13531 layer_factory.hpp:77] Creating layer conv2/3x3
I0403 14:40:52.866397 13531 net.cpp:91] Creating Layer conv2/3x3
I0403 14:40:52.866415 13531 net.cpp:425] conv2/3x3 <- conv2/3x3_reduce
I0403 14:40:52.866433 13531 net.cpp:399] conv2/3x3 -> conv2/3x3
I0403 14:40:52.868769 13531 net.cpp:141] Setting up conv2/3x3
I0403 14:40:52.868799 13531 net.cpp:148] Top shape: 24 192 56 56 (14450688)
I0403 14:40:52.868815 13531 net.cpp:156] Memory required for data: 303465504
I0403 14:40:52.868836 13531 layer_factory.hpp:77] Creating layer conv2/relu_3x3
I0403 14:40:52.868859 13531 net.cpp:91] Creating Layer conv2/relu_3x3
I0403 14:40:52.868875 13531 net.cpp:425] conv2/relu_3x3 <- conv2/3x3
I0403 14:40:52.868892 13531 net.cpp:386] conv2/relu_3x3 -> conv2/3x3 (in-place)
I0403 14:40:52.869071 13531 net.cpp:141] Setting up conv2/relu_3x3
I0403 14:40:52.869096 13531 net.cpp:148] Top shape: 24 192 56 56 (14450688)
I0403 14:40:52.869145 13531 net.cpp:156] Memory required for data: 361268256
I0403 14:40:52.869161 13531 layer_factory.hpp:77] Creating layer conv2/norm2
I0403 14:40:52.869179 13531 net.cpp:91] Creating Layer conv2/norm2
I0403 14:40:52.869195 13531 net.cpp:425] conv2/norm2 <- conv2/3x3
I0403 14:40:52.869218 13531 net.cpp:399] conv2/norm2 -> conv2/norm2
I0403 14:40:52.869529 13531 net.cpp:141] Setting up conv2/norm2
I0403 14:40:52.869556 13531 net.cpp:148] Top shape: 24 192 56 56 (14450688)
I0403 14:40:52.869572 13531 net.cpp:156] Memory required for data: 419071008
I0403 14:40:52.869587 13531 layer_factory.hpp:77] Creating layer pool2/3x3_s2
I0403 14:40:52.869609 13531 net.cpp:91] Creating Layer pool2/3x3_s2
I0403 14:40:52.869626 13531 net.cpp:425] pool2/3x3_s2 <- conv2/norm2
I0403 14:40:52.869647 13531 net.cpp:399] pool2/3x3_s2 -> pool2/3x3_s2
I0403 14:40:52.869702 13531 net.cpp:141] Setting up pool2/3x3_s2
I0403 14:40:52.869726 13531 net.cpp:148] Top shape: 24 192 28 28 (3612672)
I0403 14:40:52.869740 13531 net.cpp:156] Memory required for data: 433521696
I0403 14:40:52.869755 13531 layer_factory.hpp:77] Creating layer pool2/3x3_s2_pool2/3x3_s2_0_split
I0403 14:40:52.869771 13531 net.cpp:91] Creating Layer pool2/3x3_s2_pool2/3x3_s2_0_split
I0403 14:40:52.869786 13531 net.cpp:425] pool2/3x3_s2_pool2/3x3_s2_0_split <- pool2/3x3_s2
I0403 14:40:52.869807 13531 net.cpp:399] pool2/3x3_s2_pool2/3x3_s2_0_split -> pool2/3x3_s2_pool2/3x3_s2_0_split_0
I0403 14:40:52.869827 13531 net.cpp:399] pool2/3x3_s2_pool2/3x3_s2_0_split -> pool2/3x3_s2_pool2/3x3_s2_0_split_1
I0403 14:40:52.869846 13531 net.cpp:399] pool2/3x3_s2_pool2/3x3_s2_0_split -> pool2/3x3_s2_pool2/3x3_s2_0_split_2
I0403 14:40:52.869865 13531 net.cpp:399] pool2/3x3_s2_pool2/3x3_s2_0_split -> pool2/3x3_s2_pool2/3x3_s2_0_split_3
I0403 14:40:52.869938 13531 net.cpp:141] Setting up pool2/3x3_s2_pool2/3x3_s2_0_split
I0403 14:40:52.869963 13531 net.cpp:148] Top shape: 24 192 28 28 (3612672)
I0403 14:40:52.869981 13531 net.cpp:148] Top shape: 24 192 28 28 (3612672)
I0403 14:40:52.869997 13531 net.cpp:148] Top shape: 24 192 28 28 (3612672)
I0403 14:40:52.870012 13531 net.cpp:148] Top shape: 24 192 28 28 (3612672)
I0403 14:40:52.870026 13531 net.cpp:156] Memory required for data: 491324448
I0403 14:40:52.870040 13531 layer_factory.hpp:77] Creating layer inception_3a/1x1
I0403 14:40:52.870062 13531 net.cpp:91] Creating Layer inception_3a/1x1
I0403 14:40:52.870079 13531 net.cpp:425] inception_3a/1x1 <- pool2/3x3_s2_pool2/3x3_s2_0_split_0
I0403 14:40:52.870100 13531 net.cpp:399] inception_3a/1x1 -> inception_3a/1x1
I0403 14:40:52.871698 13531 net.cpp:141] Setting up inception_3a/1x1
I0403 14:40:52.871727 13531 net.cpp:148] Top shape: 24 64 28 28 (1204224)
I0403 14:40:52.871743 13531 net.cpp:156] Memory required for data: 496141344
I0403 14:40:52.871762 13531 layer_factory.hpp:77] Creating layer inception_3a/relu_1x1
I0403 14:40:52.871783 13531 net.cpp:91] Creating Layer inception_3a/relu_1x1
I0403 14:40:52.871800 13531 net.cpp:425] inception_3a/relu_1x1 <- inception_3a/1x1
I0403 14:40:52.871817 13531 net.cpp:386] inception_3a/relu_1x1 -> inception_3a/1x1 (in-place)
I0403 14:40:52.871999 13531 net.cpp:141] Setting up inception_3a/relu_1x1
I0403 14:40:52.872026 13531 net.cpp:148] Top shape: 24 64 28 28 (1204224)
I0403 14:40:52.872042 13531 net.cpp:156] Memory required for data: 500958240
I0403 14:40:52.872057 13531 layer_factory.hpp:77] Creating layer inception_3a/3x3_reduce
I0403 14:40:52.872078 13531 net.cpp:91] Creating Layer inception_3a/3x3_reduce
I0403 14:40:52.872097 13531 net.cpp:425] inception_3a/3x3_reduce <- pool2/3x3_s2_pool2/3x3_s2_0_split_1
I0403 14:40:52.872114 13531 net.cpp:399] inception_3a/3x3_reduce -> inception_3a/3x3_reduce
I0403 14:40:52.873842 13531 net.cpp:141] Setting up inception_3a/3x3_reduce
I0403 14:40:52.873870 13531 net.cpp:148] Top shape: 24 96 28 28 (1806336)
I0403 14:40:52.873885 13531 net.cpp:156] Memory required for data: 508183584
I0403 14:40:52.873905 13531 layer_factory.hpp:77] Creating layer inception_3a/relu_3x3_reduce
I0403 14:40:52.873942 13531 net.cpp:91] Creating Layer inception_3a/relu_3x3_reduce
I0403 14:40:52.873960 13531 net.cpp:425] inception_3a/relu_3x3_reduce <- inception_3a/3x3_reduce
I0403 14:40:52.873980 13531 net.cpp:386] inception_3a/relu_3x3_reduce -> inception_3a/3x3_reduce (in-place)
I0403 14:40:52.874157 13531 net.cpp:141] Setting up inception_3a/relu_3x3_reduce
I0403 14:40:52.874182 13531 net.cpp:148] Top shape: 24 96 28 28 (1806336)
I0403 14:40:52.874197 13531 net.cpp:156] Memory required for data: 515408928
I0403 14:40:52.874210 13531 layer_factory.hpp:77] Creating layer inception_3a/3x3
I0403 14:40:52.874233 13531 net.cpp:91] Creating Layer inception_3a/3x3
I0403 14:40:52.874249 13531 net.cpp:425] inception_3a/3x3 <- inception_3a/3x3_reduce
I0403 14:40:52.874275 13531 net.cpp:399] inception_3a/3x3 -> inception_3a/3x3
I0403 14:40:52.875916 13531 net.cpp:141] Setting up inception_3a/3x3
I0403 14:40:52.875946 13531 net.cpp:148] Top shape: 24 128 28 28 (2408448)
I0403 14:40:52.875962 13531 net.cpp:156] Memory required for data: 525042720
I0403 14:40:52.875980 13531 layer_factory.hpp:77] Creating layer inception_3a/relu_3x3
I0403 14:40:52.875998 13531 net.cpp:91] Creating Layer inception_3a/relu_3x3
I0403 14:40:52.876013 13531 net.cpp:425] inception_3a/relu_3x3 <- inception_3a/3x3
I0403 14:40:52.876030 13531 net.cpp:386] inception_3a/relu_3x3 -> inception_3a/3x3 (in-place)
I0403 14:40:52.876308 13531 net.cpp:141] Setting up inception_3a/relu_3x3
I0403 14:40:52.876335 13531 net.cpp:148] Top shape: 24 128 28 28 (2408448)
I0403 14:40:52.876351 13531 net.cpp:156] Memory required for data: 534676512
I0403 14:40:52.876365 13531 layer_factory.hpp:77] Creating layer inception_3a/5x5_reduce
I0403 14:40:52.876386 13531 net.cpp:91] Creating Layer inception_3a/5x5_reduce
I0403 14:40:52.876404 13531 net.cpp:425] inception_3a/5x5_reduce <- pool2/3x3_s2_pool2/3x3_s2_0_split_2
I0403 14:40:52.876421 13531 net.cpp:399] inception_3a/5x5_reduce -> inception_3a/5x5_reduce
I0403 14:40:52.877378 13531 net.cpp:141] Setting up inception_3a/5x5_reduce
I0403 14:40:52.877408 13531 net.cpp:148] Top shape: 24 16 28 28 (301056)
I0403 14:40:52.877424 13531 net.cpp:156] Memory required for data: 535880736
I0403 14:40:52.877442 13531 layer_factory.hpp:77] Creating layer inception_3a/relu_5x5_reduce
I0403 14:40:52.877460 13531 net.cpp:91] Creating Layer inception_3a/relu_5x5_reduce
I0403 14:40:52.877475 13531 net.cpp:425] inception_3a/relu_5x5_reduce <- inception_3a/5x5_reduce
I0403 14:40:52.877491 13531 net.cpp:386] inception_3a/relu_5x5_reduce -> inception_3a/5x5_reduce (in-place)
I0403 14:40:52.877791 13531 net.cpp:141] Setting up inception_3a/relu_5x5_reduce
I0403 14:40:52.877816 13531 net.cpp:148] Top shape: 24 16 28 28 (301056)
I0403 14:40:52.877831 13531 net.cpp:156] Memory required for data: 537084960
I0403 14:40:52.877846 13531 layer_factory.hpp:77] Creating layer inception_3a/5x5
I0403 14:40:52.877867 13531 net.cpp:91] Creating Layer inception_3a/5x5
I0403 14:40:52.877884 13531 net.cpp:425] inception_3a/5x5 <- inception_3a/5x5_reduce
I0403 14:40:52.877907 13531 net.cpp:399] inception_3a/5x5 -> inception_3a/5x5
I0403 14:40:52.878909 13531 net.cpp:141] Setting up inception_3a/5x5
I0403 14:40:52.878937 13531 net.cpp:148] Top shape: 24 32 28 28 (602112)
I0403 14:40:52.878952 13531 net.cpp:156] Memory required for data: 539493408
I0403 14:40:52.878969 13531 layer_factory.hpp:77] Creating layer inception_3a/relu_5x5
I0403 14:40:52.878988 13531 net.cpp:91] Creating Layer inception_3a/relu_5x5
I0403 14:40:52.879004 13531 net.cpp:425] inception_3a/relu_5x5 <- inception_3a/5x5
I0403 14:40:52.879020 13531 net.cpp:386] inception_3a/relu_5x5 -> inception_3a/5x5 (in-place)
I0403 14:40:52.879190 13531 net.cpp:141] Setting up inception_3a/relu_5x5
I0403 14:40:52.879217 13531 net.cpp:148] Top shape: 24 32 28 28 (602112)
I0403 14:40:52.879232 13531 net.cpp:156] Memory required for data: 541901856
I0403 14:40:52.879246 13531 layer_factory.hpp:77] Creating layer inception_3a/pool
I0403 14:40:52.879266 13531 net.cpp:91] Creating Layer inception_3a/pool
I0403 14:40:52.879281 13531 net.cpp:425] inception_3a/pool <- pool2/3x3_s2_pool2/3x3_s2_0_split_3
I0403 14:40:52.879314 13531 net.cpp:399] inception_3a/pool -> inception_3a/pool
I0403 14:40:52.879371 13531 net.cpp:141] Setting up inception_3a/pool
I0403 14:40:52.879395 13531 net.cpp:148] Top shape: 24 192 28 28 (3612672)
I0403 14:40:52.879410 13531 net.cpp:156] Memory required for data: 556352544
I0403 14:40:52.879423 13531 layer_factory.hpp:77] Creating layer inception_3a/pool_proj
I0403 14:40:52.879444 13531 net.cpp:91] Creating Layer inception_3a/pool_proj
I0403 14:40:52.879462 13531 net.cpp:425] inception_3a/pool_proj <- inception_3a/pool
I0403 14:40:52.879482 13531 net.cpp:399] inception_3a/pool_proj -> inception_3a/pool_proj
I0403 14:40:52.880432 13531 net.cpp:141] Setting up inception_3a/pool_proj
I0403 14:40:52.880460 13531 net.cpp:148] Top shape: 24 32 28 28 (602112)
I0403 14:40:52.880475 13531 net.cpp:156] Memory required for data: 558760992
I0403 14:40:52.880499 13531 layer_factory.hpp:77] Creating layer inception_3a/relu_pool_proj
I0403 14:40:52.880518 13531 net.cpp:91] Creating Layer inception_3a/relu_pool_proj
I0403 14:40:52.880534 13531 net.cpp:425] inception_3a/relu_pool_proj <- inception_3a/pool_proj
I0403 14:40:52.880553 13531 net.cpp:386] inception_3a/relu_pool_proj -> inception_3a/pool_proj (in-place)
I0403 14:40:52.880827 13531 net.cpp:141] Setting up inception_3a/relu_pool_proj
I0403 14:40:52.880856 13531 net.cpp:148] Top shape: 24 32 28 28 (602112)
I0403 14:40:52.880872 13531 net.cpp:156] Memory required for data: 561169440
I0403 14:40:52.880885 13531 layer_factory.hpp:77] Creating layer inception_3a/output
I0403 14:40:52.880903 13531 net.cpp:91] Creating Layer inception_3a/output
I0403 14:40:52.880918 13531 net.cpp:425] inception_3a/output <- inception_3a/1x1
I0403 14:40:52.880934 13531 net.cpp:425] inception_3a/output <- inception_3a/3x3
I0403 14:40:52.880949 13531 net.cpp:425] inception_3a/output <- inception_3a/5x5
I0403 14:40:52.880964 13531 net.cpp:425] inception_3a/output <- inception_3a/pool_proj
I0403 14:40:52.880981 13531 net.cpp:399] inception_3a/output -> inception_3a/output
I0403 14:40:52.881027 13531 net.cpp:141] Setting up inception_3a/output
I0403 14:40:52.881050 13531 net.cpp:148] Top shape: 24 256 28 28 (4816896)
I0403 14:40:52.881064 13531 net.cpp:156] Memory required for data: 580437024
I0403 14:40:52.881079 13531 layer_factory.hpp:77] Creating layer inception_3a/output_inception_3a/output_0_split
I0403 14:40:52.881095 13531 net.cpp:91] Creating Layer inception_3a/output_inception_3a/output_0_split
I0403 14:40:52.881116 13531 net.cpp:425] inception_3a/output_inception_3a/output_0_split <- inception_3a/output
I0403 14:40:52.881132 13531 net.cpp:399] inception_3a/output_inception_3a/output_0_split -> inception_3a/output_inception_3a/output_0_split_0
I0403 14:40:52.881152 13531 net.cpp:399] inception_3a/output_inception_3a/output_0_split -> inception_3a/output_inception_3a/output_0_split_1
I0403 14:40:52.881175 13531 net.cpp:399] inception_3a/output_inception_3a/output_0_split -> inception_3a/output_inception_3a/output_0_split_2
I0403 14:40:52.881197 13531 net.cpp:399] inception_3a/output_inception_3a/output_0_split -> inception_3a/output_inception_3a/output_0_split_3
I0403 14:40:52.881271 13531 net.cpp:141] Setting up inception_3a/output_inception_3a/output_0_split
I0403 14:40:52.881294 13531 net.cpp:148] Top shape: 24 256 28 28 (4816896)
I0403 14:40:52.881309 13531 net.cpp:148] Top shape: 24 256 28 28 (4816896)
I0403 14:40:52.881325 13531 net.cpp:148] Top shape: 24 256 28 28 (4816896)
I0403 14:40:52.881340 13531 net.cpp:148] Top shape: 24 256 28 28 (4816896)
I0403 14:40:52.881352 13531 net.cpp:156] Memory required for data: 657507360
I0403 14:40:52.881366 13531 layer_factory.hpp:77] Creating layer inception_3b/1x1
I0403 14:40:52.881388 13531 net.cpp:91] Creating Layer inception_3b/1x1
I0403 14:40:52.881405 13531 net.cpp:425] inception_3b/1x1 <- inception_3a/output_inception_3a/output_0_split_0
I0403 14:40:52.881427 13531 net.cpp:399] inception_3b/1x1 -> inception_3b/1x1
I0403 14:40:52.882552 13531 net.cpp:141] Setting up inception_3b/1x1
I0403 14:40:52.882591 13531 net.cpp:148] Top shape: 24 128 28 28 (2408448)
I0403 14:40:52.882611 13531 net.cpp:156] Memory required for data: 667141152
I0403 14:40:52.882629 13531 layer_factory.hpp:77] Creating layer inception_3b/relu_1x1
I0403 14:40:52.882650 13531 net.cpp:91] Creating Layer inception_3b/relu_1x1
I0403 14:40:52.882666 13531 net.cpp:425] inception_3b/relu_1x1 <- inception_3b/1x1
I0403 14:40:52.882683 13531 net.cpp:386] inception_3b/relu_1x1 -> inception_3b/1x1 (in-place)
I0403 14:40:52.882855 13531 net.cpp:141] Setting up inception_3b/relu_1x1
I0403 14:40:52.882881 13531 net.cpp:148] Top shape: 24 128 28 28 (2408448)
I0403 14:40:52.882896 13531 net.cpp:156] Memory required for data: 676774944
I0403 14:40:52.882915 13531 layer_factory.hpp:77] Creating layer inception_3b/3x3_reduce
I0403 14:40:52.882939 13531 net.cpp:91] Creating Layer inception_3b/3x3_reduce
I0403 14:40:52.882956 13531 net.cpp:425] inception_3b/3x3_reduce <- inception_3a/output_inception_3a/output_0_split_1
I0403 14:40:52.882974 13531 net.cpp:399] inception_3b/3x3_reduce -> inception_3b/3x3_reduce
I0403 14:40:52.884098 13531 net.cpp:141] Setting up inception_3b/3x3_reduce
I0403 14:40:52.884125 13531 net.cpp:148] Top shape: 24 128 28 28 (2408448)
I0403 14:40:52.884141 13531 net.cpp:156] Memory required for data: 686408736
I0403 14:40:52.884158 13531 layer_factory.hpp:77] Creating layer inception_3b/relu_3x3_reduce
I0403 14:40:52.884178 13531 net.cpp:91] Creating Layer inception_3b/relu_3x3_reduce
I0403 14:40:52.884194 13531 net.cpp:425] inception_3b/relu_3x3_reduce <- inception_3b/3x3_reduce
I0403 14:40:52.884212 13531 net.cpp:386] inception_3b/relu_3x3_reduce -> inception_3b/3x3_reduce (in-place)
I0403 14:40:52.884382 13531 net.cpp:141] Setting up inception_3b/relu_3x3_reduce
I0403 14:40:52.884405 13531 net.cpp:148] Top shape: 24 128 28 28 (2408448)
I0403 14:40:52.884419 13531 net.cpp:156] Memory required for data: 696042528
I0403 14:40:52.884433 13531 layer_factory.hpp:77] Creating layer inception_3b/3x3
I0403 14:40:52.884461 13531 net.cpp:91] Creating Layer inception_3b/3x3
I0403 14:40:52.884479 13531 net.cpp:425] inception_3b/3x3 <- inception_3b/3x3_reduce
I0403 14:40:52.884500 13531 net.cpp:399] inception_3b/3x3 -> inception_3b/3x3
I0403 14:40:52.887399 13531 net.cpp:141] Setting up inception_3b/3x3
I0403 14:40:52.887429 13531 net.cpp:148] Top shape: 24 192 28 28 (3612672)
I0403 14:40:52.887445 13531 net.cpp:156] Memory required for data: 710493216
I0403 14:40:52.887462 13531 layer_factory.hpp:77] Creating layer inception_3b/relu_3x3
I0403 14:40:52.887480 13531 net.cpp:91] Creating Layer inception_3b/relu_3x3
I0403 14:40:52.887495 13531 net.cpp:425] inception_3b/relu_3x3 <- inception_3b/3x3
I0403 14:40:52.887511 13531 net.cpp:386] inception_3b/relu_3x3 -> inception_3b/3x3 (in-place)
I0403 14:40:52.887790 13531 net.cpp:141] Setting up inception_3b/relu_3x3
I0403 14:40:52.887817 13531 net.cpp:148] Top shape: 24 192 28 28 (3612672)
I0403 14:40:52.887832 13531 net.cpp:156] Memory required for data: 724943904
I0403 14:40:52.887846 13531 layer_factory.hpp:77] Creating layer inception_3b/5x5_reduce
I0403 14:40:52.887868 13531 net.cpp:91] Creating Layer inception_3b/5x5_reduce
I0403 14:40:52.887884 13531 net.cpp:425] inception_3b/5x5_reduce <- inception_3a/output_inception_3a/output_0_split_2
I0403 14:40:52.887902 13531 net.cpp:399] inception_3b/5x5_reduce -> inception_3b/5x5_reduce
I0403 14:40:52.888885 13531 net.cpp:141] Setting up inception_3b/5x5_reduce
I0403 14:40:52.888912 13531 net.cpp:148] Top shape: 24 32 28 28 (602112)
I0403 14:40:52.888931 13531 net.cpp:156] Memory required for data: 727352352
I0403 14:40:52.888949 13531 layer_factory.hpp:77] Creating layer inception_3b/relu_5x5_reduce
I0403 14:40:52.888967 13531 net.cpp:91] Creating Layer inception_3b/relu_5x5_reduce
I0403 14:40:52.888983 13531 net.cpp:425] inception_3b/relu_5x5_reduce <- inception_3b/5x5_reduce
I0403 14:40:52.888998 13531 net.cpp:386] inception_3b/relu_5x5_reduce -> inception_3b/5x5_reduce (in-place)
I0403 14:40:52.889173 13531 net.cpp:141] Setting up inception_3b/relu_5x5_reduce
I0403 14:40:52.889211 13531 net.cpp:148] Top shape: 24 32 28 28 (602112)
I0403 14:40:52.889227 13531 net.cpp:156] Memory required for data: 729760800
I0403 14:40:52.889242 13531 layer_factory.hpp:77] Creating layer inception_3b/5x5
I0403 14:40:52.889266 13531 net.cpp:91] Creating Layer inception_3b/5x5
I0403 14:40:52.889282 13531 net.cpp:425] inception_3b/5x5 <- inception_3b/5x5_reduce
I0403 14:40:52.889300 13531 net.cpp:399] inception_3b/5x5 -> inception_3b/5x5
I0403 14:40:52.891258 13531 net.cpp:141] Setting up inception_3b/5x5
I0403 14:40:52.891286 13531 net.cpp:148] Top shape: 24 96 28 28 (1806336)
I0403 14:40:52.891301 13531 net.cpp:156] Memory required for data: 736986144
I0403 14:40:52.891319 13531 layer_factory.hpp:77] Creating layer inception_3b/relu_5x5
I0403 14:40:52.891340 13531 net.cpp:91] Creating Layer inception_3b/relu_5x5
I0403 14:40:52.891356 13531 net.cpp:425] inception_3b/relu_5x5 <- inception_3b/5x5
I0403 14:40:52.891372 13531 net.cpp:386] inception_3b/relu_5x5 -> inception_3b/5x5 (in-place)
I0403 14:40:52.891563 13531 net.cpp:141] Setting up inception_3b/relu_5x5
I0403 14:40:52.891588 13531 net.cpp:148] Top shape: 24 96 28 28 (1806336)
I0403 14:40:52.891607 13531 net.cpp:156] Memory required for data: 744211488
I0403 14:40:52.891621 13531 layer_factory.hpp:77] Creating layer inception_3b/pool
I0403 14:40:52.891639 13531 net.cpp:91] Creating Layer inception_3b/pool
I0403 14:40:52.891654 13531 net.cpp:425] inception_3b/pool <- inception_3a/output_inception_3a/output_0_split_3
I0403 14:40:52.891672 13531 net.cpp:399] inception_3b/pool -> inception_3b/pool
I0403 14:40:52.891727 13531 net.cpp:141] Setting up inception_3b/pool
I0403 14:40:52.891749 13531 net.cpp:148] Top shape: 24 256 28 28 (4816896)
I0403 14:40:52.891764 13531 net.cpp:156] Memory required for data: 763479072
I0403 14:40:52.891777 13531 layer_factory.hpp:77] Creating layer inception_3b/pool_proj
I0403 14:40:52.891799 13531 net.cpp:91] Creating Layer inception_3b/pool_proj
I0403 14:40:52.891816 13531 net.cpp:425] inception_3b/pool_proj <- inception_3b/pool
I0403 14:40:52.891836 13531 net.cpp:399] inception_3b/pool_proj -> inception_3b/pool_proj
I0403 14:40:52.892881 13531 net.cpp:141] Setting up inception_3b/pool_proj
I0403 14:40:52.892911 13531 net.cpp:148] Top shape: 24 64 28 28 (1204224)
I0403 14:40:52.892927 13531 net.cpp:156] Memory required for data: 768295968
I0403 14:40:52.892945 13531 layer_factory.hpp:77] Creating layer inception_3b/relu_pool_proj
I0403 14:40:52.892962 13531 net.cpp:91] Creating Layer inception_3b/relu_pool_proj
I0403 14:40:52.892977 13531 net.cpp:425] inception_3b/relu_pool_proj <- inception_3b/pool_proj
I0403 14:40:52.892997 13531 net.cpp:386] inception_3b/relu_pool_proj -> inception_3b/pool_proj (in-place)
I0403 14:40:52.893386 13531 net.cpp:141] Setting up inception_3b/relu_pool_proj
I0403 14:40:52.893414 13531 net.cpp:148] Top shape: 24 64 28 28 (1204224)
I0403 14:40:52.893429 13531 net.cpp:156] Memory required for data: 773112864
I0403 14:40:52.893442 13531 layer_factory.hpp:77] Creating layer inception_3b/output
I0403 14:40:52.893460 13531 net.cpp:91] Creating Layer inception_3b/output
I0403 14:40:52.893474 13531 net.cpp:425] inception_3b/output <- inception_3b/1x1
I0403 14:40:52.893491 13531 net.cpp:425] inception_3b/output <- inception_3b/3x3
I0403 14:40:52.893507 13531 net.cpp:425] inception_3b/output <- inception_3b/5x5
I0403 14:40:52.893522 13531 net.cpp:425] inception_3b/output <- inception_3b/pool_proj
I0403 14:40:52.893537 13531 net.cpp:399] inception_3b/output -> inception_3b/output
I0403 14:40:52.893581 13531 net.cpp:141] Setting up inception_3b/output
I0403 14:40:52.893609 13531 net.cpp:148] Top shape: 24 480 28 28 (9031680)
I0403 14:40:52.893625 13531 net.cpp:156] Memory required for data: 809239584
I0403 14:40:52.893638 13531 layer_factory.hpp:77] Creating layer pool3/3x3_s2
I0403 14:40:52.893657 13531 net.cpp:91] Creating Layer pool3/3x3_s2
I0403 14:40:52.893672 13531 net.cpp:425] pool3/3x3_s2 <- inception_3b/output
I0403 14:40:52.893689 13531 net.cpp:399] pool3/3x3_s2 -> pool3/3x3_s2
I0403 14:40:52.893762 13531 net.cpp:141] Setting up pool3/3x3_s2
I0403 14:40:52.893785 13531 net.cpp:148] Top shape: 24 480 14 14 (2257920)
I0403 14:40:52.893800 13531 net.cpp:156] Memory required for data: 818271264
I0403 14:40:52.893813 13531 layer_factory.hpp:77] Creating layer pool3/3x3_s2_pool3/3x3_s2_0_split
I0403 14:40:52.893831 13531 net.cpp:91] Creating Layer pool3/3x3_s2_pool3/3x3_s2_0_split
I0403 14:40:52.893844 13531 net.cpp:425] pool3/3x3_s2_pool3/3x3_s2_0_split <- pool3/3x3_s2
I0403 14:40:52.893862 13531 net.cpp:399] pool3/3x3_s2_pool3/3x3_s2_0_split -> pool3/3x3_s2_pool3/3x3_s2_0_split_0
I0403 14:40:52.893882 13531 net.cpp:399] pool3/3x3_s2_pool3/3x3_s2_0_split -> pool3/3x3_s2_pool3/3x3_s2_0_split_1
I0403 14:40:52.893901 13531 net.cpp:399] pool3/3x3_s2_pool3/3x3_s2_0_split -> pool3/3x3_s2_pool3/3x3_s2_0_split_2
I0403 14:40:52.893920 13531 net.cpp:399] pool3/3x3_s2_pool3/3x3_s2_0_split -> pool3/3x3_s2_pool3/3x3_s2_0_split_3
I0403 14:40:52.893996 13531 net.cpp:141] Setting up pool3/3x3_s2_pool3/3x3_s2_0_split
I0403 14:40:52.894021 13531 net.cpp:148] Top shape: 24 480 14 14 (2257920)
I0403 14:40:52.894037 13531 net.cpp:148] Top shape: 24 480 14 14 (2257920)
I0403 14:40:52.894052 13531 net.cpp:148] Top shape: 24 480 14 14 (2257920)
I0403 14:40:52.894068 13531 net.cpp:148] Top shape: 24 480 14 14 (2257920)
I0403 14:40:52.894080 13531 net.cpp:156] Memory required for data: 854397984
I0403 14:40:52.894094 13531 layer_factory.hpp:77] Creating layer inception_4a/1x1
I0403 14:40:52.894115 13531 net.cpp:91] Creating Layer inception_4a/1x1
I0403 14:40:52.894132 13531 net.cpp:425] inception_4a/1x1 <- pool3/3x3_s2_pool3/3x3_s2_0_split_0
I0403 14:40:52.894150 13531 net.cpp:399] inception_4a/1x1 -> inception_4a/1x1
I0403 14:40:52.895730 13531 net.cpp:141] Setting up inception_4a/1x1
I0403 14:40:52.895757 13531 net.cpp:148] Top shape: 24 192 14 14 (903168)
I0403 14:40:52.895772 13531 net.cpp:156] Memory required for data: 858010656
I0403 14:40:52.895790 13531 layer_factory.hpp:77] Creating layer inception_4a/relu_1x1
I0403 14:40:52.895807 13531 net.cpp:91] Creating Layer inception_4a/relu_1x1
I0403 14:40:52.895825 13531 net.cpp:425] inception_4a/relu_1x1 <- inception_4a/1x1
I0403 14:40:52.895843 13531 net.cpp:386] inception_4a/relu_1x1 -> inception_4a/1x1 (in-place)
I0403 14:40:52.896018 13531 net.cpp:141] Setting up inception_4a/relu_1x1
I0403 14:40:52.896042 13531 net.cpp:148] Top shape: 24 192 14 14 (903168)
I0403 14:40:52.896056 13531 net.cpp:156] Memory required for data: 861623328
I0403 14:40:52.896070 13531 layer_factory.hpp:77] Creating layer inception_4a/3x3_reduce
I0403 14:40:52.896091 13531 net.cpp:91] Creating Layer inception_4a/3x3_reduce
I0403 14:40:52.896108 13531 net.cpp:425] inception_4a/3x3_reduce <- pool3/3x3_s2_pool3/3x3_s2_0_split_1
I0403 14:40:52.896128 13531 net.cpp:399] inception_4a/3x3_reduce -> inception_4a/3x3_reduce
I0403 14:40:52.897397 13531 net.cpp:141] Setting up inception_4a/3x3_reduce
I0403 14:40:52.897424 13531 net.cpp:148] Top shape: 24 96 14 14 (451584)
I0403 14:40:52.897439 13531 net.cpp:156] Memory required for data: 863429664
I0403 14:40:52.897464 13531 layer_factory.hpp:77] Creating layer inception_4a/relu_3x3_reduce
I0403 14:40:52.897482 13531 net.cpp:91] Creating Layer inception_4a/relu_3x3_reduce
I0403 14:40:52.897497 13531 net.cpp:425] inception_4a/relu_3x3_reduce <- inception_4a/3x3_reduce
I0403 14:40:52.897516 13531 net.cpp:386] inception_4a/relu_3x3_reduce -> inception_4a/3x3_reduce (in-place)
I0403 14:40:52.897694 13531 net.cpp:141] Setting up inception_4a/relu_3x3_reduce
I0403 14:40:52.897718 13531 net.cpp:148] Top shape: 24 96 14 14 (451584)
I0403 14:40:52.897732 13531 net.cpp:156] Memory required for data: 865236000
I0403 14:40:52.897747 13531 layer_factory.hpp:77] Creating layer inception_4a/3x3
I0403 14:40:52.897768 13531 net.cpp:91] Creating Layer inception_4a/3x3
I0403 14:40:52.897784 13531 net.cpp:425] inception_4a/3x3 <- inception_4a/3x3_reduce
I0403 14:40:52.897804 13531 net.cpp:399] inception_4a/3x3 -> inception_4a/3x3
I0403 14:40:52.900475 13531 net.cpp:141] Setting up inception_4a/3x3
I0403 14:40:52.900502 13531 net.cpp:148] Top shape: 24 208 14 14 (978432)
I0403 14:40:52.900518 13531 net.cpp:156] Memory required for data: 869149728
I0403 14:40:52.900535 13531 layer_factory.hpp:77] Creating layer inception_4a/relu_3x3
I0403 14:40:52.900555 13531 net.cpp:91] Creating Layer inception_4a/relu_3x3
I0403 14:40:52.900571 13531 net.cpp:425] inception_4a/relu_3x3 <- inception_4a/3x3
I0403 14:40:52.900588 13531 net.cpp:386] inception_4a/relu_3x3 -> inception_4a/3x3 (in-place)
I0403 14:40:52.900871 13531 net.cpp:141] Setting up inception_4a/relu_3x3
I0403 14:40:52.900898 13531 net.cpp:148] Top shape: 24 208 14 14 (978432)
I0403 14:40:52.900913 13531 net.cpp:156] Memory required for data: 873063456
I0403 14:40:52.900926 13531 layer_factory.hpp:77] Creating layer inception_4a/5x5_reduce
I0403 14:40:52.900949 13531 net.cpp:91] Creating Layer inception_4a/5x5_reduce
I0403 14:40:52.900965 13531 net.cpp:425] inception_4a/5x5_reduce <- pool3/3x3_s2_pool3/3x3_s2_0_split_2
I0403 14:40:52.900985 13531 net.cpp:399] inception_4a/5x5_reduce -> inception_4a/5x5_reduce
I0403 14:40:52.902017 13531 net.cpp:141] Setting up inception_4a/5x5_reduce
I0403 14:40:52.902045 13531 net.cpp:148] Top shape: 24 16 14 14 (75264)
I0403 14:40:52.902060 13531 net.cpp:156] Memory required for data: 873364512
I0403 14:40:52.902076 13531 layer_factory.hpp:77] Creating layer inception_4a/relu_5x5_reduce
I0403 14:40:52.902096 13531 net.cpp:91] Creating Layer inception_4a/relu_5x5_reduce
I0403 14:40:52.902112 13531 net.cpp:425] inception_4a/relu_5x5_reduce <- inception_4a/5x5_reduce
I0403 14:40:52.902129 13531 net.cpp:386] inception_4a/relu_5x5_reduce -> inception_4a/5x5_reduce (in-place)
I0403 14:40:52.902309 13531 net.cpp:141] Setting up inception_4a/relu_5x5_reduce
I0403 14:40:52.902336 13531 net.cpp:148] Top shape: 24 16 14 14 (75264)
I0403 14:40:52.902351 13531 net.cpp:156] Memory required for data: 873665568
I0403 14:40:52.902365 13531 layer_factory.hpp:77] Creating layer inception_4a/5x5
I0403 14:40:52.902387 13531 net.cpp:91] Creating Layer inception_4a/5x5
I0403 14:40:52.902405 13531 net.cpp:425] inception_4a/5x5 <- inception_4a/5x5_reduce
I0403 14:40:52.902422 13531 net.cpp:399] inception_4a/5x5 -> inception_4a/5x5
I0403 14:40:52.903532 13531 net.cpp:141] Setting up inception_4a/5x5
I0403 14:40:52.903560 13531 net.cpp:148] Top shape: 24 48 14 14 (225792)
I0403 14:40:52.903575 13531 net.cpp:156] Memory required for data: 874568736
I0403 14:40:52.903594 13531 layer_factory.hpp:77] Creating layer inception_4a/relu_5x5
I0403 14:40:52.903615 13531 net.cpp:91] Creating Layer inception_4a/relu_5x5
I0403 14:40:52.903631 13531 net.cpp:425] inception_4a/relu_5x5 <- inception_4a/5x5
I0403 14:40:52.903650 13531 net.cpp:386] inception_4a/relu_5x5 -> inception_4a/5x5 (in-place)
I0403 14:40:52.903831 13531 net.cpp:141] Setting up inception_4a/relu_5x5
I0403 14:40:52.903856 13531 net.cpp:148] Top shape: 24 48 14 14 (225792)
I0403 14:40:52.903869 13531 net.cpp:156] Memory required for data: 875471904
I0403 14:40:52.903883 13531 layer_factory.hpp:77] Creating layer inception_4a/pool
I0403 14:40:52.903903 13531 net.cpp:91] Creating Layer inception_4a/pool
I0403 14:40:52.903919 13531 net.cpp:425] inception_4a/pool <- pool3/3x3_s2_pool3/3x3_s2_0_split_3
I0403 14:40:52.903936 13531 net.cpp:399] inception_4a/pool -> inception_4a/pool
I0403 14:40:52.903998 13531 net.cpp:141] Setting up inception_4a/pool
I0403 14:40:52.904021 13531 net.cpp:148] Top shape: 24 480 14 14 (2257920)
I0403 14:40:52.904036 13531 net.cpp:156] Memory required for data: 884503584
I0403 14:40:52.904050 13531 layer_factory.hpp:77] Creating layer inception_4a/pool_proj
I0403 14:40:52.904072 13531 net.cpp:91] Creating Layer inception_4a/pool_proj
I0403 14:40:52.904088 13531 net.cpp:425] inception_4a/pool_proj <- inception_4a/pool
I0403 14:40:52.904109 13531 net.cpp:399] inception_4a/pool_proj -> inception_4a/pool_proj
I0403 14:40:52.905283 13531 net.cpp:141] Setting up inception_4a/pool_proj
I0403 14:40:52.905311 13531 net.cpp:148] Top shape: 24 64 14 14 (301056)
I0403 14:40:52.905340 13531 net.cpp:156] Memory required for data: 885707808
I0403 14:40:52.905359 13531 layer_factory.hpp:77] Creating layer inception_4a/relu_pool_proj
I0403 14:40:52.905377 13531 net.cpp:91] Creating Layer inception_4a/relu_pool_proj
I0403 14:40:52.905392 13531 net.cpp:425] inception_4a/relu_pool_proj <- inception_4a/pool_proj
I0403 14:40:52.905412 13531 net.cpp:386] inception_4a/relu_pool_proj -> inception_4a/pool_proj (in-place)
I0403 14:40:52.905699 13531 net.cpp:141] Setting up inception_4a/relu_pool_proj
I0403 14:40:52.905726 13531 net.cpp:148] Top shape: 24 64 14 14 (301056)
I0403 14:40:52.905741 13531 net.cpp:156] Memory required for data: 886912032
I0403 14:40:52.905755 13531 layer_factory.hpp:77] Creating layer inception_4a/output
I0403 14:40:52.905772 13531 net.cpp:91] Creating Layer inception_4a/output
I0403 14:40:52.905787 13531 net.cpp:425] inception_4a/output <- inception_4a/1x1
I0403 14:40:52.905803 13531 net.cpp:425] inception_4a/output <- inception_4a/3x3
I0403 14:40:52.905818 13531 net.cpp:425] inception_4a/output <- inception_4a/5x5
I0403 14:40:52.905834 13531 net.cpp:425] inception_4a/output <- inception_4a/pool_proj
I0403 14:40:52.905853 13531 net.cpp:399] inception_4a/output -> inception_4a/output
I0403 14:40:52.905897 13531 net.cpp:141] Setting up inception_4a/output
I0403 14:40:52.905922 13531 net.cpp:148] Top shape: 24 512 14 14 (2408448)
I0403 14:40:52.905937 13531 net.cpp:156] Memory required for data: 896545824
I0403 14:40:52.905951 13531 layer_factory.hpp:77] Creating layer inception_4a/output_inception_4a/output_0_split
I0403 14:40:52.905967 13531 net.cpp:91] Creating Layer inception_4a/output_inception_4a/output_0_split
I0403 14:40:52.905982 13531 net.cpp:425] inception_4a/output_inception_4a/output_0_split <- inception_4a/output
I0403 14:40:52.905999 13531 net.cpp:399] inception_4a/output_inception_4a/output_0_split -> inception_4a/output_inception_4a/output_0_split_0
I0403 14:40:52.906020 13531 net.cpp:399] inception_4a/output_inception_4a/output_0_split -> inception_4a/output_inception_4a/output_0_split_1
I0403 14:40:52.906041 13531 net.cpp:399] inception_4a/output_inception_4a/output_0_split -> inception_4a/output_inception_4a/output_0_split_2
I0403 14:40:52.906062 13531 net.cpp:399] inception_4a/output_inception_4a/output_0_split -> inception_4a/output_inception_4a/output_0_split_3
I0403 14:40:52.906081 13531 net.cpp:399] inception_4a/output_inception_4a/output_0_split -> inception_4a/output_inception_4a/output_0_split_4
I0403 14:40:52.906177 13531 net.cpp:141] Setting up inception_4a/output_inception_4a/output_0_split
I0403 14:40:52.906199 13531 net.cpp:148] Top shape: 24 512 14 14 (2408448)
I0403 14:40:52.906214 13531 net.cpp:148] Top shape: 24 512 14 14 (2408448)
I0403 14:40:52.906232 13531 net.cpp:148] Top shape: 24 512 14 14 (2408448)
I0403 14:40:52.906247 13531 net.cpp:148] Top shape: 24 512 14 14 (2408448)
I0403 14:40:52.906265 13531 net.cpp:148] Top shape: 24 512 14 14 (2408448)
I0403 14:40:52.906278 13531 net.cpp:156] Memory required for data: 944714784
I0403 14:40:52.906292 13531 layer_factory.hpp:77] Creating layer loss1/ave_pool
I0403 14:40:52.906308 13531 net.cpp:91] Creating Layer loss1/ave_pool
I0403 14:40:52.906324 13531 net.cpp:425] loss1/ave_pool <- inception_4a/output_inception_4a/output_0_split_0
I0403 14:40:52.906342 13531 net.cpp:399] loss1/ave_pool -> loss1/ave_pool
I0403 14:40:52.906548 13531 net.cpp:141] Setting up loss1/ave_pool
I0403 14:40:52.906572 13531 net.cpp:148] Top shape: 24 512 4 4 (196608)
I0403 14:40:52.906587 13531 net.cpp:156] Memory required for data: 945501216
I0403 14:40:52.906605 13531 layer_factory.hpp:77] Creating layer loss1/conv
I0403 14:40:52.906627 13531 net.cpp:91] Creating Layer loss1/conv
I0403 14:40:52.906644 13531 net.cpp:425] loss1/conv <- loss1/ave_pool
I0403 14:40:52.906666 13531 net.cpp:399] loss1/conv -> loss1/conv
I0403 14:40:52.908059 13531 net.cpp:141] Setting up loss1/conv
I0403 14:40:52.908087 13531 net.cpp:148] Top shape: 24 128 4 4 (49152)
I0403 14:40:52.908102 13531 net.cpp:156] Memory required for data: 945697824
I0403 14:40:52.908133 13531 layer_factory.hpp:77] Creating layer loss1/relu_conv
I0403 14:40:52.908154 13531 net.cpp:91] Creating Layer loss1/relu_conv
I0403 14:40:52.908169 13531 net.cpp:425] loss1/relu_conv <- loss1/conv
I0403 14:40:52.908185 13531 net.cpp:386] loss1/relu_conv -> loss1/conv (in-place)
I0403 14:40:52.908457 13531 net.cpp:141] Setting up loss1/relu_conv
I0403 14:40:52.908483 13531 net.cpp:148] Top shape: 24 128 4 4 (49152)
I0403 14:40:52.908495 13531 net.cpp:156] Memory required for data: 945894432
I0403 14:40:52.908509 13531 layer_factory.hpp:77] Creating layer loss1/fc
I0403 14:40:52.908534 13531 net.cpp:91] Creating Layer loss1/fc
I0403 14:40:52.908550 13531 net.cpp:425] loss1/fc <- loss1/conv
I0403 14:40:52.908567 13531 net.cpp:399] loss1/fc -> loss1/fc
I0403 14:40:52.925727 13531 net.cpp:141] Setting up loss1/fc
I0403 14:40:52.925757 13531 net.cpp:148] Top shape: 24 1024 (24576)
I0403 14:40:52.925773 13531 net.cpp:156] Memory required for data: 945992736
I0403 14:40:52.925791 13531 layer_factory.hpp:77] Creating layer loss1/relu_fc
I0403 14:40:52.925807 13531 net.cpp:91] Creating Layer loss1/relu_fc
I0403 14:40:52.925822 13531 net.cpp:425] loss1/relu_fc <- loss1/fc
I0403 14:40:52.925843 13531 net.cpp:386] loss1/relu_fc -> loss1/fc (in-place)
I0403 14:40:52.926024 13531 net.cpp:141] Setting up loss1/relu_fc
I0403 14:40:52.926048 13531 net.cpp:148] Top shape: 24 1024 (24576)
I0403 14:40:52.926062 13531 net.cpp:156] Memory required for data: 946091040
I0403 14:40:52.926075 13531 layer_factory.hpp:77] Creating layer loss1/drop_fc
I0403 14:40:52.926101 13531 net.cpp:91] Creating Layer loss1/drop_fc
I0403 14:40:52.926117 13531 net.cpp:425] loss1/drop_fc <- loss1/fc
I0403 14:40:52.926133 13531 net.cpp:386] loss1/drop_fc -> loss1/fc (in-place)
I0403 14:40:52.926182 13531 net.cpp:141] Setting up loss1/drop_fc
I0403 14:40:52.926208 13531 net.cpp:148] Top shape: 24 1024 (24576)
I0403 14:40:52.926223 13531 net.cpp:156] Memory required for data: 946189344
I0403 14:40:52.926236 13531 layer_factory.hpp:77] Creating layer loss1/classifier_plantvillage
I0403 14:40:52.926252 13531 net.cpp:91] Creating Layer loss1/classifier_plantvillage
I0403 14:40:52.926267 13531 net.cpp:425] loss1/classifier_plantvillage <- loss1/fc
I0403 14:40:52.926285 13531 net.cpp:399] loss1/classifier_plantvillage -> loss1/classifier_plantvillage
I0403 14:40:52.927165 13531 net.cpp:141] Setting up loss1/classifier_plantvillage
I0403 14:40:52.927191 13531 net.cpp:148] Top shape: 24 38 (912)
I0403 14:40:52.927206 13531 net.cpp:156] Memory required for data: 946192992
I0403 14:40:52.927222 13531 layer_factory.hpp:77] Creating layer loss1/classifier_plantvillage_loss1/classifier_plantvillage_0_split
I0403 14:40:52.927242 13531 net.cpp:91] Creating Layer loss1/classifier_plantvillage_loss1/classifier_plantvillage_0_split
I0403 14:40:52.927258 13531 net.cpp:425] loss1/classifier_plantvillage_loss1/classifier_plantvillage_0_split <- loss1/classifier_plantvillage
I0403 14:40:52.927273 13531 net.cpp:399] loss1/classifier_plantvillage_loss1/classifier_plantvillage_0_split -> loss1/classifier_plantvillage_loss1/classifier_plantvillage_0_split_0
I0403 14:40:52.927294 13531 net.cpp:399] loss1/classifier_plantvillage_loss1/classifier_plantvillage_0_split -> loss1/classifier_plantvillage_loss1/classifier_plantvillage_0_split_1
I0403 14:40:52.927312 13531 net.cpp:399] loss1/classifier_plantvillage_loss1/classifier_plantvillage_0_split -> loss1/classifier_plantvillage_loss1/classifier_plantvillage_0_split_2
I0403 14:40:52.927376 13531 net.cpp:141] Setting up loss1/classifier_plantvillage_loss1/classifier_plantvillage_0_split
I0403 14:40:52.927400 13531 net.cpp:148] Top shape: 24 38 (912)
I0403 14:40:52.927417 13531 net.cpp:148] Top shape: 24 38 (912)
I0403 14:40:52.927430 13531 net.cpp:148] Top shape: 24 38 (912)
I0403 14:40:52.927443 13531 net.cpp:156] Memory required for data: 946203936
I0403 14:40:52.927458 13531 layer_factory.hpp:77] Creating layer inception_4b/1x1
I0403 14:40:52.927476 13531 net.cpp:91] Creating Layer inception_4b/1x1
I0403 14:40:52.927506 13531 net.cpp:425] inception_4b/1x1 <- inception_4a/output_inception_4a/output_0_split_1
I0403 14:40:52.927527 13531 net.cpp:399] inception_4b/1x1 -> inception_4b/1x1
I0403 14:40:52.929122 13531 net.cpp:141] Setting up inception_4b/1x1
I0403 14:40:52.929150 13531 net.cpp:148] Top shape: 24 160 14 14 (752640)
I0403 14:40:52.929165 13531 net.cpp:156] Memory required for data: 949214496
I0403 14:40:52.929183 13531 layer_factory.hpp:77] Creating layer inception_4b/relu_1x1
I0403 14:40:52.929201 13531 net.cpp:91] Creating Layer inception_4b/relu_1x1
I0403 14:40:52.929216 13531 net.cpp:425] inception_4b/relu_1x1 <- inception_4b/1x1
I0403 14:40:52.929245 13531 net.cpp:386] inception_4b/relu_1x1 -> inception_4b/1x1 (in-place)
I0403 14:40:52.929427 13531 net.cpp:141] Setting up inception_4b/relu_1x1
I0403 14:40:52.929453 13531 net.cpp:148] Top shape: 24 160 14 14 (752640)
I0403 14:40:52.929469 13531 net.cpp:156] Memory required for data: 952225056
I0403 14:40:52.929483 13531 layer_factory.hpp:77] Creating layer inception_4b/3x3_reduce
I0403 14:40:52.929505 13531 net.cpp:91] Creating Layer inception_4b/3x3_reduce
I0403 14:40:52.929522 13531 net.cpp:425] inception_4b/3x3_reduce <- inception_4a/output_inception_4a/output_0_split_2
I0403 14:40:52.929540 13531 net.cpp:399] inception_4b/3x3_reduce -> inception_4b/3x3_reduce
I0403 14:40:52.930869 13531 net.cpp:141] Setting up inception_4b/3x3_reduce
I0403 14:40:52.930899 13531 net.cpp:148] Top shape: 24 112 14 14 (526848)
I0403 14:40:52.930917 13531 net.cpp:156] Memory required for data: 954332448
I0403 14:40:52.930933 13531 layer_factory.hpp:77] Creating layer inception_4b/relu_3x3_reduce
I0403 14:40:52.930950 13531 net.cpp:91] Creating Layer inception_4b/relu_3x3_reduce
I0403 14:40:52.930965 13531 net.cpp:425] inception_4b/relu_3x3_reduce <- inception_4b/3x3_reduce
I0403 14:40:52.930984 13531 net.cpp:386] inception_4b/relu_3x3_reduce -> inception_4b/3x3_reduce (in-place)
I0403 14:40:52.931257 13531 net.cpp:141] Setting up inception_4b/relu_3x3_reduce
I0403 14:40:52.931283 13531 net.cpp:148] Top shape: 24 112 14 14 (526848)
I0403 14:40:52.931299 13531 net.cpp:156] Memory required for data: 956439840
I0403 14:40:52.931313 13531 layer_factory.hpp:77] Creating layer inception_4b/3x3
I0403 14:40:52.931334 13531 net.cpp:91] Creating Layer inception_4b/3x3
I0403 14:40:52.931350 13531 net.cpp:425] inception_4b/3x3 <- inception_4b/3x3_reduce
I0403 14:40:52.931368 13531 net.cpp:399] inception_4b/3x3 -> inception_4b/3x3
I0403 14:40:52.934305 13531 net.cpp:141] Setting up inception_4b/3x3
I0403 14:40:52.934334 13531 net.cpp:148] Top shape: 24 224 14 14 (1053696)
I0403 14:40:52.934348 13531 net.cpp:156] Memory required for data: 960654624
I0403 14:40:52.934365 13531 layer_factory.hpp:77] Creating layer inception_4b/relu_3x3
I0403 14:40:52.934386 13531 net.cpp:91] Creating Layer inception_4b/relu_3x3
I0403 14:40:52.934401 13531 net.cpp:425] inception_4b/relu_3x3 <- inception_4b/3x3
I0403 14:40:52.934417 13531 net.cpp:386] inception_4b/relu_3x3 -> inception_4b/3x3 (in-place)
I0403 14:40:52.934589 13531 net.cpp:141] Setting up inception_4b/relu_3x3
I0403 14:40:52.934623 13531 net.cpp:148] Top shape: 24 224 14 14 (1053696)
I0403 14:40:52.934639 13531 net.cpp:156] Memory required for data: 964869408
I0403 14:40:52.934653 13531 layer_factory.hpp:77] Creating layer inception_4b/5x5_reduce
I0403 14:40:52.934674 13531 net.cpp:91] Creating Layer inception_4b/5x5_reduce
I0403 14:40:52.934695 13531 net.cpp:425] inception_4b/5x5_reduce <- inception_4a/output_inception_4a/output_0_split_3
I0403 14:40:52.934712 13531 net.cpp:399] inception_4b/5x5_reduce -> inception_4b/5x5_reduce
I0403 14:40:52.935786 13531 net.cpp:141] Setting up inception_4b/5x5_reduce
I0403 14:40:52.935812 13531 net.cpp:148] Top shape: 24 24 14 14 (112896)
I0403 14:40:52.935827 13531 net.cpp:156] Memory required for data: 965320992
I0403 14:40:52.935844 13531 layer_factory.hpp:77] Creating layer inception_4b/relu_5x5_reduce
I0403 14:40:52.935866 13531 net.cpp:91] Creating Layer inception_4b/relu_5x5_reduce
I0403 14:40:52.935896 13531 net.cpp:425] inception_4b/relu_5x5_reduce <- inception_4b/5x5_reduce
I0403 14:40:52.935914 13531 net.cpp:386] inception_4b/relu_5x5_reduce -> inception_4b/5x5_reduce (in-place)
I0403 14:40:52.936099 13531 net.cpp:141] Setting up inception_4b/relu_5x5_reduce
I0403 14:40:52.936123 13531 net.cpp:148] Top shape: 24 24 14 14 (112896)
I0403 14:40:52.936137 13531 net.cpp:156] Memory required for data: 965772576
I0403 14:40:52.936152 13531 layer_factory.hpp:77] Creating layer inception_4b/5x5
I0403 14:40:52.936173 13531 net.cpp:91] Creating Layer inception_4b/5x5
I0403 14:40:52.936190 13531 net.cpp:425] inception_4b/5x5 <- inception_4b/5x5_reduce
I0403 14:40:52.936211 13531 net.cpp:399] inception_4b/5x5 -> inception_4b/5x5
I0403 14:40:52.937485 13531 net.cpp:141] Setting up inception_4b/5x5
I0403 14:40:52.937513 13531 net.cpp:148] Top shape: 24 64 14 14 (301056)
I0403 14:40:52.937530 13531 net.cpp:156] Memory required for data: 966976800
I0403 14:40:52.937547 13531 layer_factory.hpp:77] Creating layer inception_4b/relu_5x5
I0403 14:40:52.937568 13531 net.cpp:91] Creating Layer inception_4b/relu_5x5
I0403 14:40:52.937585 13531 net.cpp:425] inception_4b/relu_5x5 <- inception_4b/5x5
I0403 14:40:52.937607 13531 net.cpp:386] inception_4b/relu_5x5 -> inception_4b/5x5 (in-place)
I0403 14:40:52.937902 13531 net.cpp:141] Setting up inception_4b/relu_5x5
I0403 14:40:52.937929 13531 net.cpp:148] Top shape: 24 64 14 14 (301056)
I0403 14:40:52.937944 13531 net.cpp:156] Memory required for data: 968181024
I0403 14:40:52.937959 13531 layer_factory.hpp:77] Creating layer inception_4b/pool
I0403 14:40:52.937979 13531 net.cpp:91] Creating Layer inception_4b/pool
I0403 14:40:52.937995 13531 net.cpp:425] inception_4b/pool <- inception_4a/output_inception_4a/output_0_split_4
I0403 14:40:52.938014 13531 net.cpp:399] inception_4b/pool -> inception_4b/pool
I0403 14:40:52.938078 13531 net.cpp:141] Setting up inception_4b/pool
I0403 14:40:52.938103 13531 net.cpp:148] Top shape: 24 512 14 14 (2408448)
I0403 14:40:52.938117 13531 net.cpp:156] Memory required for data: 977814816
I0403 14:40:52.938133 13531 layer_factory.hpp:77] Creating layer inception_4b/pool_proj
I0403 14:40:52.938154 13531 net.cpp:91] Creating Layer inception_4b/pool_proj
I0403 14:40:52.938171 13531 net.cpp:425] inception_4b/pool_proj <- inception_4b/pool
I0403 14:40:52.938191 13531 net.cpp:399] inception_4b/pool_proj -> inception_4b/pool_proj
I0403 14:40:52.939435 13531 net.cpp:141] Setting up inception_4b/pool_proj
I0403 14:40:52.939465 13531 net.cpp:148] Top shape: 24 64 14 14 (301056)
I0403 14:40:52.939483 13531 net.cpp:156] Memory required for data: 979019040
I0403 14:40:52.939502 13531 layer_factory.hpp:77] Creating layer inception_4b/relu_pool_proj
I0403 14:40:52.939520 13531 net.cpp:91] Creating Layer inception_4b/relu_pool_proj
I0403 14:40:52.939535 13531 net.cpp:425] inception_4b/relu_pool_proj <- inception_4b/pool_proj
I0403 14:40:52.939553 13531 net.cpp:386] inception_4b/relu_pool_proj -> inception_4b/pool_proj (in-place)
I0403 14:40:52.939754 13531 net.cpp:141] Setting up inception_4b/relu_pool_proj
I0403 14:40:52.939781 13531 net.cpp:148] Top shape: 24 64 14 14 (301056)
I0403 14:40:52.939796 13531 net.cpp:156] Memory required for data: 980223264
I0403 14:40:52.939811 13531 layer_factory.hpp:77] Creating layer inception_4b/output
I0403 14:40:52.939828 13531 net.cpp:91] Creating Layer inception_4b/output
I0403 14:40:52.939843 13531 net.cpp:425] inception_4b/output <- inception_4b/1x1
I0403 14:40:52.939859 13531 net.cpp:425] inception_4b/output <- inception_4b/3x3
I0403 14:40:52.939875 13531 net.cpp:425] inception_4b/output <- inception_4b/5x5
I0403 14:40:52.939891 13531 net.cpp:425] inception_4b/output <- inception_4b/pool_proj
I0403 14:40:52.939910 13531 net.cpp:399] inception_4b/output -> inception_4b/output
I0403 14:40:52.939956 13531 net.cpp:141] Setting up inception_4b/output
I0403 14:40:52.939978 13531 net.cpp:148] Top shape: 24 512 14 14 (2408448)
I0403 14:40:52.939993 13531 net.cpp:156] Memory required for data: 989857056
I0403 14:40:52.940022 13531 layer_factory.hpp:77] Creating layer inception_4b/output_inception_4b/output_0_split
I0403 14:40:52.940042 13531 net.cpp:91] Creating Layer inception_4b/output_inception_4b/output_0_split
I0403 14:40:52.940058 13531 net.cpp:425] inception_4b/output_inception_4b/output_0_split <- inception_4b/output
I0403 14:40:52.940076 13531 net.cpp:399] inception_4b/output_inception_4b/output_0_split -> inception_4b/output_inception_4b/output_0_split_0
I0403 14:40:52.940095 13531 net.cpp:399] inception_4b/output_inception_4b/output_0_split -> inception_4b/output_inception_4b/output_0_split_1
I0403 14:40:52.940119 13531 net.cpp:399] inception_4b/output_inception_4b/output_0_split -> inception_4b/output_inception_4b/output_0_split_2
I0403 14:40:52.940140 13531 net.cpp:399] inception_4b/output_inception_4b/output_0_split -> inception_4b/output_inception_4b/output_0_split_3
I0403 14:40:52.940227 13531 net.cpp:141] Setting up inception_4b/output_inception_4b/output_0_split
I0403 14:40:52.940251 13531 net.cpp:148] Top shape: 24 512 14 14 (2408448)
I0403 14:40:52.940268 13531 net.cpp:148] Top shape: 24 512 14 14 (2408448)
I0403 14:40:52.940284 13531 net.cpp:148] Top shape: 24 512 14 14 (2408448)
I0403 14:40:52.940299 13531 net.cpp:148] Top shape: 24 512 14 14 (2408448)
I0403 14:40:52.940312 13531 net.cpp:156] Memory required for data: 1028392224
I0403 14:40:52.940327 13531 layer_factory.hpp:77] Creating layer inception_4c/1x1
I0403 14:40:52.940349 13531 net.cpp:91] Creating Layer inception_4c/1x1
I0403 14:40:52.940366 13531 net.cpp:425] inception_4c/1x1 <- inception_4b/output_inception_4b/output_0_split_0
I0403 14:40:52.940387 13531 net.cpp:399] inception_4c/1x1 -> inception_4c/1x1
I0403 14:40:52.941879 13531 net.cpp:141] Setting up inception_4c/1x1
I0403 14:40:52.941907 13531 net.cpp:148] Top shape: 24 128 14 14 (602112)
I0403 14:40:52.941922 13531 net.cpp:156] Memory required for data: 1030800672
I0403 14:40:52.941941 13531 layer_factory.hpp:77] Creating layer inception_4c/relu_1x1
I0403 14:40:52.941959 13531 net.cpp:91] Creating Layer inception_4c/relu_1x1
I0403 14:40:52.941974 13531 net.cpp:425] inception_4c/relu_1x1 <- inception_4c/1x1
I0403 14:40:52.941994 13531 net.cpp:386] inception_4c/relu_1x1 -> inception_4c/1x1 (in-place)
I0403 14:40:52.942183 13531 net.cpp:141] Setting up inception_4c/relu_1x1
I0403 14:40:52.942208 13531 net.cpp:148] Top shape: 24 128 14 14 (602112)
I0403 14:40:52.942221 13531 net.cpp:156] Memory required for data: 1033209120
I0403 14:40:52.942236 13531 layer_factory.hpp:77] Creating layer inception_4c/3x3_reduce
I0403 14:40:52.942258 13531 net.cpp:91] Creating Layer inception_4c/3x3_reduce
I0403 14:40:52.942276 13531 net.cpp:425] inception_4c/3x3_reduce <- inception_4b/output_inception_4b/output_0_split_1
I0403 14:40:52.942296 13531 net.cpp:399] inception_4c/3x3_reduce -> inception_4c/3x3_reduce
I0403 14:40:52.944308 13531 net.cpp:141] Setting up inception_4c/3x3_reduce
I0403 14:40:52.944337 13531 net.cpp:148] Top shape: 24 128 14 14 (602112)
I0403 14:40:52.944352 13531 net.cpp:156] Memory required for data: 1035617568
I0403 14:40:52.944371 13531 layer_factory.hpp:77] Creating layer inception_4c/relu_3x3_reduce
I0403 14:40:52.944391 13531 net.cpp:91] Creating Layer inception_4c/relu_3x3_reduce
I0403 14:40:52.944408 13531 net.cpp:425] inception_4c/relu_3x3_reduce <- inception_4c/3x3_reduce
I0403 14:40:52.944427 13531 net.cpp:386] inception_4c/relu_3x3_reduce -> inception_4c/3x3_reduce (in-place)
I0403 14:40:52.944731 13531 net.cpp:141] Setting up inception_4c/relu_3x3_reduce
I0403 14:40:52.944758 13531 net.cpp:148] Top shape: 24 128 14 14 (602112)
I0403 14:40:52.944773 13531 net.cpp:156] Memory required for data: 1038026016
I0403 14:40:52.944788 13531 layer_factory.hpp:77] Creating layer inception_4c/3x3
I0403 14:40:52.944810 13531 net.cpp:91] Creating Layer inception_4c/3x3
I0403 14:40:52.944828 13531 net.cpp:425] inception_4c/3x3 <- inception_4c/3x3_reduce
I0403 14:40:52.944850 13531 net.cpp:399] inception_4c/3x3 -> inception_4c/3x3
I0403 14:40:52.948580 13531 net.cpp:141] Setting up inception_4c/3x3
I0403 14:40:52.948626 13531 net.cpp:148] Top shape: 24 256 14 14 (1204224)
I0403 14:40:52.948647 13531 net.cpp:156] Memory required for data: 1042842912
I0403 14:40:52.948678 13531 layer_factory.hpp:77] Creating layer inception_4c/relu_3x3
I0403 14:40:52.948699 13531 net.cpp:91] Creating Layer inception_4c/relu_3x3
I0403 14:40:52.948717 13531 net.cpp:425] inception_4c/relu_3x3 <- inception_4c/3x3
I0403 14:40:52.948734 13531 net.cpp:386] inception_4c/relu_3x3 -> inception_4c/3x3 (in-place)
I0403 14:40:52.948926 13531 net.cpp:141] Setting up inception_4c/relu_3x3
I0403 14:40:52.948952 13531 net.cpp:148] Top shape: 24 256 14 14 (1204224)
I0403 14:40:52.948966 13531 net.cpp:156] Memory required for data: 1047659808
I0403 14:40:52.948982 13531 layer_factory.hpp:77] Creating layer inception_4c/5x5_reduce
I0403 14:40:52.949007 13531 net.cpp:91] Creating Layer inception_4c/5x5_reduce
I0403 14:40:52.949023 13531 net.cpp:425] inception_4c/5x5_reduce <- inception_4b/output_inception_4b/output_0_split_2
I0403 14:40:52.949043 13531 net.cpp:399] inception_4c/5x5_reduce -> inception_4c/5x5_reduce
I0403 14:40:52.950188 13531 net.cpp:141] Setting up inception_4c/5x5_reduce
I0403 14:40:52.950217 13531 net.cpp:148] Top shape: 24 24 14 14 (112896)
I0403 14:40:52.950232 13531 net.cpp:156] Memory required for data: 1048111392
I0403 14:40:52.950250 13531 layer_factory.hpp:77] Creating layer inception_4c/relu_5x5_reduce
I0403 14:40:52.950273 13531 net.cpp:91] Creating Layer inception_4c/relu_5x5_reduce
I0403 14:40:52.950289 13531 net.cpp:425] inception_4c/relu_5x5_reduce <- inception_4c/5x5_reduce
I0403 14:40:52.950306 13531 net.cpp:386] inception_4c/relu_5x5_reduce -> inception_4c/5x5_reduce (in-place)
I0403 14:40:52.950500 13531 net.cpp:141] Setting up inception_4c/relu_5x5_reduce
I0403 14:40:52.950525 13531 net.cpp:148] Top shape: 24 24 14 14 (112896)
I0403 14:40:52.950538 13531 net.cpp:156] Memory required for data: 1048562976
I0403 14:40:52.950553 13531 layer_factory.hpp:77] Creating layer inception_4c/5x5
I0403 14:40:52.950575 13531 net.cpp:91] Creating Layer inception_4c/5x5
I0403 14:40:52.950593 13531 net.cpp:425] inception_4c/5x5 <- inception_4c/5x5_reduce
I0403 14:40:52.950620 13531 net.cpp:399] inception_4c/5x5 -> inception_4c/5x5
I0403 14:40:52.951915 13531 net.cpp:141] Setting up inception_4c/5x5
I0403 14:40:52.951946 13531 net.cpp:148] Top shape: 24 64 14 14 (301056)
I0403 14:40:52.951961 13531 net.cpp:156] Memory required for data: 1049767200
I0403 14:40:52.951979 13531 layer_factory.hpp:77] Creating layer inception_4c/relu_5x5
I0403 14:40:52.951997 13531 net.cpp:91] Creating Layer inception_4c/relu_5x5
I0403 14:40:52.952013 13531 net.cpp:425] inception_4c/relu_5x5 <- inception_4c/5x5
I0403 14:40:52.952033 13531 net.cpp:386] inception_4c/relu_5x5 -> inception_4c/5x5 (in-place)
I0403 14:40:52.952330 13531 net.cpp:141] Setting up inception_4c/relu_5x5
I0403 14:40:52.952359 13531 net.cpp:148] Top shape: 24 64 14 14 (301056)
I0403 14:40:52.952375 13531 net.cpp:156] Memory required for data: 1050971424
I0403 14:40:52.952390 13531 layer_factory.hpp:77] Creating layer inception_4c/pool
I0403 14:40:52.952409 13531 net.cpp:91] Creating Layer inception_4c/pool
I0403 14:40:52.952424 13531 net.cpp:425] inception_4c/pool <- inception_4b/output_inception_4b/output_0_split_3
I0403 14:40:52.952445 13531 net.cpp:399] inception_4c/pool -> inception_4c/pool
I0403 14:40:52.952512 13531 net.cpp:141] Setting up inception_4c/pool
I0403 14:40:52.952538 13531 net.cpp:148] Top shape: 24 512 14 14 (2408448)
I0403 14:40:52.952553 13531 net.cpp:156] Memory required for data: 1060605216
I0403 14:40:52.952569 13531 layer_factory.hpp:77] Creating layer inception_4c/pool_proj
I0403 14:40:52.952589 13531 net.cpp:91] Creating Layer inception_4c/pool_proj
I0403 14:40:52.952608 13531 net.cpp:425] inception_4c/pool_proj <- inception_4c/pool
I0403 14:40:52.952630 13531 net.cpp:399] inception_4c/pool_proj -> inception_4c/pool_proj
I0403 14:40:52.953898 13531 net.cpp:141] Setting up inception_4c/pool_proj
I0403 14:40:52.953927 13531 net.cpp:148] Top shape: 24 64 14 14 (301056)
I0403 14:40:52.953959 13531 net.cpp:156] Memory required for data: 1061809440
I0403 14:40:52.953979 13531 layer_factory.hpp:77] Creating layer inception_4c/relu_pool_proj
I0403 14:40:52.953997 13531 net.cpp:91] Creating Layer inception_4c/relu_pool_proj
I0403 14:40:52.954012 13531 net.cpp:425] inception_4c/relu_pool_proj <- inception_4c/pool_proj
I0403 14:40:52.954030 13531 net.cpp:386] inception_4c/relu_pool_proj -> inception_4c/pool_proj (in-place)
I0403 14:40:52.954217 13531 net.cpp:141] Setting up inception_4c/relu_pool_proj
I0403 14:40:52.954244 13531 net.cpp:148] Top shape: 24 64 14 14 (301056)
I0403 14:40:52.954262 13531 net.cpp:156] Memory required for data: 1063013664
I0403 14:40:52.954277 13531 layer_factory.hpp:77] Creating layer inception_4c/output
I0403 14:40:52.954293 13531 net.cpp:91] Creating Layer inception_4c/output
I0403 14:40:52.954308 13531 net.cpp:425] inception_4c/output <- inception_4c/1x1
I0403 14:40:52.954324 13531 net.cpp:425] inception_4c/output <- inception_4c/3x3
I0403 14:40:52.954341 13531 net.cpp:425] inception_4c/output <- inception_4c/5x5
I0403 14:40:52.954357 13531 net.cpp:425] inception_4c/output <- inception_4c/pool_proj
I0403 14:40:52.954377 13531 net.cpp:399] inception_4c/output -> inception_4c/output
I0403 14:40:52.954426 13531 net.cpp:141] Setting up inception_4c/output
I0403 14:40:52.954448 13531 net.cpp:148] Top shape: 24 512 14 14 (2408448)
I0403 14:40:52.954463 13531 net.cpp:156] Memory required for data: 1072647456
I0403 14:40:52.954478 13531 layer_factory.hpp:77] Creating layer inception_4c/output_inception_4c/output_0_split
I0403 14:40:52.954496 13531 net.cpp:91] Creating Layer inception_4c/output_inception_4c/output_0_split
I0403 14:40:52.954514 13531 net.cpp:425] inception_4c/output_inception_4c/output_0_split <- inception_4c/output
I0403 14:40:52.954530 13531 net.cpp:399] inception_4c/output_inception_4c/output_0_split -> inception_4c/output_inception_4c/output_0_split_0
I0403 14:40:52.954550 13531 net.cpp:399] inception_4c/output_inception_4c/output_0_split -> inception_4c/output_inception_4c/output_0_split_1
I0403 14:40:52.954573 13531 net.cpp:399] inception_4c/output_inception_4c/output_0_split -> inception_4c/output_inception_4c/output_0_split_2
I0403 14:40:52.954594 13531 net.cpp:399] inception_4c/output_inception_4c/output_0_split -> inception_4c/output_inception_4c/output_0_split_3
I0403 14:40:52.954697 13531 net.cpp:141] Setting up inception_4c/output_inception_4c/output_0_split
I0403 14:40:52.954721 13531 net.cpp:148] Top shape: 24 512 14 14 (2408448)
I0403 14:40:52.954737 13531 net.cpp:148] Top shape: 24 512 14 14 (2408448)
I0403 14:40:52.954752 13531 net.cpp:148] Top shape: 24 512 14 14 (2408448)
I0403 14:40:52.954767 13531 net.cpp:148] Top shape: 24 512 14 14 (2408448)
I0403 14:40:52.954782 13531 net.cpp:156] Memory required for data: 1111182624
I0403 14:40:52.954797 13531 layer_factory.hpp:77] Creating layer inception_4d/1x1
I0403 14:40:52.954818 13531 net.cpp:91] Creating Layer inception_4d/1x1
I0403 14:40:52.954835 13531 net.cpp:425] inception_4d/1x1 <- inception_4c/output_inception_4c/output_0_split_0
I0403 14:40:52.954857 13531 net.cpp:399] inception_4d/1x1 -> inception_4d/1x1
I0403 14:40:52.956270 13531 net.cpp:141] Setting up inception_4d/1x1
I0403 14:40:52.956297 13531 net.cpp:148] Top shape: 24 112 14 14 (526848)
I0403 14:40:52.956312 13531 net.cpp:156] Memory required for data: 1113290016
I0403 14:40:52.956329 13531 layer_factory.hpp:77] Creating layer inception_4d/relu_1x1
I0403 14:40:52.956349 13531 net.cpp:91] Creating Layer inception_4d/relu_1x1
I0403 14:40:52.956365 13531 net.cpp:425] inception_4d/relu_1x1 <- inception_4d/1x1
I0403 14:40:52.956382 13531 net.cpp:386] inception_4d/relu_1x1 -> inception_4d/1x1 (in-place)
I0403 14:40:52.956568 13531 net.cpp:141] Setting up inception_4d/relu_1x1
I0403 14:40:52.956591 13531 net.cpp:148] Top shape: 24 112 14 14 (526848)
I0403 14:40:52.956611 13531 net.cpp:156] Memory required for data: 1115397408
I0403 14:40:52.956626 13531 layer_factory.hpp:77] Creating layer inception_4d/3x3_reduce
I0403 14:40:52.956665 13531 net.cpp:91] Creating Layer inception_4d/3x3_reduce
I0403 14:40:52.956683 13531 net.cpp:425] inception_4d/3x3_reduce <- inception_4c/output_inception_4c/output_0_split_1
I0403 14:40:52.956701 13531 net.cpp:399] inception_4d/3x3_reduce -> inception_4d/3x3_reduce
I0403 14:40:52.958220 13531 net.cpp:141] Setting up inception_4d/3x3_reduce
I0403 14:40:52.958246 13531 net.cpp:148] Top shape: 24 144 14 14 (677376)
I0403 14:40:52.958263 13531 net.cpp:156] Memory required for data: 1118106912
I0403 14:40:52.958281 13531 layer_factory.hpp:77] Creating layer inception_4d/relu_3x3_reduce
I0403 14:40:52.958298 13531 net.cpp:91] Creating Layer inception_4d/relu_3x3_reduce
I0403 14:40:52.958314 13531 net.cpp:425] inception_4d/relu_3x3_reduce <- inception_4d/3x3_reduce
I0403 14:40:52.958333 13531 net.cpp:386] inception_4d/relu_3x3_reduce -> inception_4d/3x3_reduce (in-place)
I0403 14:40:52.958627 13531 net.cpp:141] Setting up inception_4d/relu_3x3_reduce
I0403 14:40:52.958652 13531 net.cpp:148] Top shape: 24 144 14 14 (677376)
I0403 14:40:52.958667 13531 net.cpp:156] Memory required for data: 1120816416
I0403 14:40:52.958681 13531 layer_factory.hpp:77] Creating layer inception_4d/3x3
I0403 14:40:52.958703 13531 net.cpp:91] Creating Layer inception_4d/3x3
I0403 14:40:52.958720 13531 net.cpp:425] inception_4d/3x3 <- inception_4d/3x3_reduce
I0403 14:40:52.958741 13531 net.cpp:399] inception_4d/3x3 -> inception_4d/3x3
I0403 14:40:52.963023 13531 net.cpp:141] Setting up inception_4d/3x3
I0403 14:40:52.963052 13531 net.cpp:148] Top shape: 24 288 14 14 (1354752)
I0403 14:40:52.963066 13531 net.cpp:156] Memory required for data: 1126235424
I0403 14:40:52.963083 13531 layer_factory.hpp:77] Creating layer inception_4d/relu_3x3
I0403 14:40:52.963104 13531 net.cpp:91] Creating Layer inception_4d/relu_3x3
I0403 14:40:52.963119 13531 net.cpp:425] inception_4d/relu_3x3 <- inception_4d/3x3
I0403 14:40:52.963136 13531 net.cpp:386] inception_4d/relu_3x3 -> inception_4d/3x3 (in-place)
I0403 14:40:52.963318 13531 net.cpp:141] Setting up inception_4d/relu_3x3
I0403 14:40:52.963346 13531 net.cpp:148] Top shape: 24 288 14 14 (1354752)
I0403 14:40:52.963361 13531 net.cpp:156] Memory required for data: 1131654432
I0403 14:40:52.963373 13531 layer_factory.hpp:77] Creating layer inception_4d/5x5_reduce
I0403 14:40:52.963395 13531 net.cpp:91] Creating Layer inception_4d/5x5_reduce
I0403 14:40:52.963413 13531 net.cpp:425] inception_4d/5x5_reduce <- inception_4c/output_inception_4c/output_0_split_2
I0403 14:40:52.963430 13531 net.cpp:399] inception_4d/5x5_reduce -> inception_4d/5x5_reduce
I0403 14:40:52.964622 13531 net.cpp:141] Setting up inception_4d/5x5_reduce
I0403 14:40:52.964648 13531 net.cpp:148] Top shape: 24 32 14 14 (150528)
I0403 14:40:52.964663 13531 net.cpp:156] Memory required for data: 1132256544
I0403 14:40:52.964681 13531 layer_factory.hpp:77] Creating layer inception_4d/relu_5x5_reduce
I0403 14:40:52.964700 13531 net.cpp:91] Creating Layer inception_4d/relu_5x5_reduce
I0403 14:40:52.964717 13531 net.cpp:425] inception_4d/relu_5x5_reduce <- inception_4d/5x5_reduce
I0403 14:40:52.964735 13531 net.cpp:386] inception_4d/relu_5x5_reduce -> inception_4d/5x5_reduce (in-place)
I0403 14:40:52.964922 13531 net.cpp:141] Setting up inception_4d/relu_5x5_reduce
I0403 14:40:52.964946 13531 net.cpp:148] Top shape: 24 32 14 14 (150528)
I0403 14:40:52.964959 13531 net.cpp:156] Memory required for data: 1132858656
I0403 14:40:52.964973 13531 layer_factory.hpp:77] Creating layer inception_4d/5x5
I0403 14:40:52.964997 13531 net.cpp:91] Creating Layer inception_4d/5x5
I0403 14:40:52.965014 13531 net.cpp:425] inception_4d/5x5 <- inception_4d/5x5_reduce
I0403 14:40:52.965034 13531 net.cpp:399] inception_4d/5x5 -> inception_4d/5x5
I0403 14:40:52.966523 13531 net.cpp:141] Setting up inception_4d/5x5
I0403 14:40:52.966552 13531 net.cpp:148] Top shape: 24 64 14 14 (301056)
I0403 14:40:52.966568 13531 net.cpp:156] Memory required for data: 1134062880
I0403 14:40:52.966588 13531 layer_factory.hpp:77] Creating layer inception_4d/relu_5x5
I0403 14:40:52.966624 13531 net.cpp:91] Creating Layer inception_4d/relu_5x5
I0403 14:40:52.966641 13531 net.cpp:425] inception_4d/relu_5x5 <- inception_4d/5x5
I0403 14:40:52.966661 13531 net.cpp:386] inception_4d/relu_5x5 -> inception_4d/5x5 (in-place)
I0403 14:40:52.966963 13531 net.cpp:141] Setting up inception_4d/relu_5x5
I0403 14:40:52.966990 13531 net.cpp:148] Top shape: 24 64 14 14 (301056)
I0403 14:40:52.967005 13531 net.cpp:156] Memory required for data: 1135267104
I0403 14:40:52.967020 13531 layer_factory.hpp:77] Creating layer inception_4d/pool
I0403 14:40:52.967037 13531 net.cpp:91] Creating Layer inception_4d/pool
I0403 14:40:52.967053 13531 net.cpp:425] inception_4d/pool <- inception_4c/output_inception_4c/output_0_split_3
I0403 14:40:52.967073 13531 net.cpp:399] inception_4d/pool -> inception_4d/pool
I0403 14:40:52.967140 13531 net.cpp:141] Setting up inception_4d/pool
I0403 14:40:52.967164 13531 net.cpp:148] Top shape: 24 512 14 14 (2408448)
I0403 14:40:52.967178 13531 net.cpp:156] Memory required for data: 1144900896
I0403 14:40:52.967192 13531 layer_factory.hpp:77] Creating layer inception_4d/pool_proj
I0403 14:40:52.967214 13531 net.cpp:91] Creating Layer inception_4d/pool_proj
I0403 14:40:52.967231 13531 net.cpp:425] inception_4d/pool_proj <- inception_4d/pool
I0403 14:40:52.967253 13531 net.cpp:399] inception_4d/pool_proj -> inception_4d/pool_proj
I0403 14:40:52.969030 13531 net.cpp:141] Setting up inception_4d/pool_proj
I0403 14:40:52.969060 13531 net.cpp:148] Top shape: 24 64 14 14 (301056)
I0403 14:40:52.969075 13531 net.cpp:156] Memory required for data: 1146105120
I0403 14:40:52.969092 13531 layer_factory.hpp:77] Creating layer inception_4d/relu_pool_proj
I0403 14:40:52.969112 13531 net.cpp:91] Creating Layer inception_4d/relu_pool_proj
I0403 14:40:52.969128 13531 net.cpp:425] inception_4d/relu_pool_proj <- inception_4d/pool_proj
I0403 14:40:52.969144 13531 net.cpp:386] inception_4d/relu_pool_proj -> inception_4d/pool_proj (in-place)
I0403 14:40:52.969329 13531 net.cpp:141] Setting up inception_4d/relu_pool_proj
I0403 14:40:52.969355 13531 net.cpp:148] Top shape: 24 64 14 14 (301056)
I0403 14:40:52.969370 13531 net.cpp:156] Memory required for data: 1147309344
I0403 14:40:52.969384 13531 layer_factory.hpp:77] Creating layer inception_4d/output
I0403 14:40:52.969400 13531 net.cpp:91] Creating Layer inception_4d/output
I0403 14:40:52.969415 13531 net.cpp:425] inception_4d/output <- inception_4d/1x1
I0403 14:40:52.969431 13531 net.cpp:425] inception_4d/output <- inception_4d/3x3
I0403 14:40:52.969447 13531 net.cpp:425] inception_4d/output <- inception_4d/5x5
I0403 14:40:52.969462 13531 net.cpp:425] inception_4d/output <- inception_4d/pool_proj
I0403 14:40:52.969478 13531 net.cpp:399] inception_4d/output -> inception_4d/output
I0403 14:40:52.969527 13531 net.cpp:141] Setting up inception_4d/output
I0403 14:40:52.969550 13531 net.cpp:148] Top shape: 24 528 14 14 (2483712)
I0403 14:40:52.969564 13531 net.cpp:156] Memory required for data: 1157244192
I0403 14:40:52.969578 13531 layer_factory.hpp:77] Creating layer inception_4d/output_inception_4d/output_0_split
I0403 14:40:52.969597 13531 net.cpp:91] Creating Layer inception_4d/output_inception_4d/output_0_split
I0403 14:40:52.969619 13531 net.cpp:425] inception_4d/output_inception_4d/output_0_split <- inception_4d/output
I0403 14:40:52.969636 13531 net.cpp:399] inception_4d/output_inception_4d/output_0_split -> inception_4d/output_inception_4d/output_0_split_0
I0403 14:40:52.969656 13531 net.cpp:399] inception_4d/output_inception_4d/output_0_split -> inception_4d/output_inception_4d/output_0_split_1
I0403 14:40:52.969676 13531 net.cpp:399] inception_4d/output_inception_4d/output_0_split -> inception_4d/output_inception_4d/output_0_split_2
I0403 14:40:52.969696 13531 net.cpp:399] inception_4d/output_inception_4d/output_0_split -> inception_4d/output_inception_4d/output_0_split_3
I0403 14:40:52.969718 13531 net.cpp:399] inception_4d/output_inception_4d/output_0_split -> inception_4d/output_inception_4d/output_0_split_4
I0403 14:40:52.969825 13531 net.cpp:141] Setting up inception_4d/output_inception_4d/output_0_split
I0403 14:40:52.969861 13531 net.cpp:148] Top shape: 24 528 14 14 (2483712)
I0403 14:40:52.969877 13531 net.cpp:148] Top shape: 24 528 14 14 (2483712)
I0403 14:40:52.969892 13531 net.cpp:148] Top shape: 24 528 14 14 (2483712)
I0403 14:40:52.969907 13531 net.cpp:148] Top shape: 24 528 14 14 (2483712)
I0403 14:40:52.969921 13531 net.cpp:148] Top shape: 24 528 14 14 (2483712)
I0403 14:40:52.969934 13531 net.cpp:156] Memory required for data: 1206918432
I0403 14:40:52.969949 13531 layer_factory.hpp:77] Creating layer loss2/ave_pool
I0403 14:40:52.969964 13531 net.cpp:91] Creating Layer loss2/ave_pool
I0403 14:40:52.969980 13531 net.cpp:425] loss2/ave_pool <- inception_4d/output_inception_4d/output_0_split_0
I0403 14:40:52.970002 13531 net.cpp:399] loss2/ave_pool -> loss2/ave_pool
I0403 14:40:52.970326 13531 net.cpp:141] Setting up loss2/ave_pool
I0403 14:40:52.970352 13531 net.cpp:148] Top shape: 24 528 4 4 (202752)
I0403 14:40:52.970367 13531 net.cpp:156] Memory required for data: 1207729440
I0403 14:40:52.970382 13531 layer_factory.hpp:77] Creating layer loss2/conv
I0403 14:40:52.970404 13531 net.cpp:91] Creating Layer loss2/conv
I0403 14:40:52.970422 13531 net.cpp:425] loss2/conv <- loss2/ave_pool
I0403 14:40:52.970443 13531 net.cpp:399] loss2/conv -> loss2/conv
I0403 14:40:52.972396 13531 net.cpp:141] Setting up loss2/conv
I0403 14:40:52.972431 13531 net.cpp:148] Top shape: 24 128 4 4 (49152)
I0403 14:40:52.972455 13531 net.cpp:156] Memory required for data: 1207926048
I0403 14:40:52.972479 13531 layer_factory.hpp:77] Creating layer loss2/relu_conv
I0403 14:40:52.972502 13531 net.cpp:91] Creating Layer loss2/relu_conv
I0403 14:40:52.972520 13531 net.cpp:425] loss2/relu_conv <- loss2/conv
I0403 14:40:52.972538 13531 net.cpp:386] loss2/relu_conv -> loss2/conv (in-place)
I0403 14:40:52.972857 13531 net.cpp:141] Setting up loss2/relu_conv
I0403 14:40:52.972887 13531 net.cpp:148] Top shape: 24 128 4 4 (49152)
I0403 14:40:52.972903 13531 net.cpp:156] Memory required for data: 1208122656
I0403 14:40:52.972918 13531 layer_factory.hpp:77] Creating layer loss2/fc
I0403 14:40:52.972936 13531 net.cpp:91] Creating Layer loss2/fc
I0403 14:40:52.972952 13531 net.cpp:425] loss2/fc <- loss2/conv
I0403 14:40:52.972972 13531 net.cpp:399] loss2/fc -> loss2/fc
I0403 14:40:52.990694 13531 net.cpp:141] Setting up loss2/fc
I0403 14:40:52.990731 13531 net.cpp:148] Top shape: 24 1024 (24576)
I0403 14:40:52.990747 13531 net.cpp:156] Memory required for data: 1208220960
I0403 14:40:52.990764 13531 layer_factory.hpp:77] Creating layer loss2/relu_fc
I0403 14:40:52.990782 13531 net.cpp:91] Creating Layer loss2/relu_fc
I0403 14:40:52.990797 13531 net.cpp:425] loss2/relu_fc <- loss2/fc
I0403 14:40:52.990813 13531 net.cpp:386] loss2/relu_fc -> loss2/fc (in-place)
I0403 14:40:52.991111 13531 net.cpp:141] Setting up loss2/relu_fc
I0403 14:40:52.991135 13531 net.cpp:148] Top shape: 24 1024 (24576)
I0403 14:40:52.991149 13531 net.cpp:156] Memory required for data: 1208319264
I0403 14:40:52.991163 13531 layer_factory.hpp:77] Creating layer loss2/drop_fc
I0403 14:40:52.991183 13531 net.cpp:91] Creating Layer loss2/drop_fc
I0403 14:40:52.991199 13531 net.cpp:425] loss2/drop_fc <- loss2/fc
I0403 14:40:52.991214 13531 net.cpp:386] loss2/drop_fc -> loss2/fc (in-place)
I0403 14:40:52.991266 13531 net.cpp:141] Setting up loss2/drop_fc
I0403 14:40:52.991287 13531 net.cpp:148] Top shape: 24 1024 (24576)
I0403 14:40:52.991302 13531 net.cpp:156] Memory required for data: 1208417568
I0403 14:40:52.991315 13531 layer_factory.hpp:77] Creating layer loss2/classifier_plantvillage
I0403 14:40:52.991333 13531 net.cpp:91] Creating Layer loss2/classifier_plantvillage
I0403 14:40:52.991350 13531 net.cpp:425] loss2/classifier_plantvillage <- loss2/fc
I0403 14:40:52.991369 13531 net.cpp:399] loss2/classifier_plantvillage -> loss2/classifier_plantvillage
I0403 14:40:52.991768 13531 net.cpp:141] Setting up loss2/classifier_plantvillage
I0403 14:40:52.991792 13531 net.cpp:148] Top shape: 24 38 (912)
I0403 14:40:52.991806 13531 net.cpp:156] Memory required for data: 1208421216
I0403 14:40:52.991845 13531 layer_factory.hpp:77] Creating layer loss2/classifier_plantvillage_loss2/classifier_plantvillage_0_split
I0403 14:40:52.991863 13531 net.cpp:91] Creating Layer loss2/classifier_plantvillage_loss2/classifier_plantvillage_0_split
I0403 14:40:52.991878 13531 net.cpp:425] loss2/classifier_plantvillage_loss2/classifier_plantvillage_0_split <- loss2/classifier_plantvillage
I0403 14:40:52.991895 13531 net.cpp:399] loss2/classifier_plantvillage_loss2/classifier_plantvillage_0_split -> loss2/classifier_plantvillage_loss2/classifier_plantvillage_0_split_0
I0403 14:40:52.991915 13531 net.cpp:399] loss2/classifier_plantvillage_loss2/classifier_plantvillage_0_split -> loss2/classifier_plantvillage_loss2/classifier_plantvillage_0_split_1
I0403 14:40:52.991935 13531 net.cpp:399] loss2/classifier_plantvillage_loss2/classifier_plantvillage_0_split -> loss2/classifier_plantvillage_loss2/classifier_plantvillage_0_split_2
I0403 14:40:52.992012 13531 net.cpp:141] Setting up loss2/classifier_plantvillage_loss2/classifier_plantvillage_0_split
I0403 14:40:52.992035 13531 net.cpp:148] Top shape: 24 38 (912)
I0403 14:40:52.992050 13531 net.cpp:148] Top shape: 24 38 (912)
I0403 14:40:52.992064 13531 net.cpp:148] Top shape: 24 38 (912)
I0403 14:40:52.992077 13531 net.cpp:156] Memory required for data: 1208432160
I0403 14:40:52.992091 13531 layer_factory.hpp:77] Creating layer inception_4e/1x1
I0403 14:40:52.992112 13531 net.cpp:91] Creating Layer inception_4e/1x1
I0403 14:40:52.992130 13531 net.cpp:425] inception_4e/1x1 <- inception_4d/output_inception_4d/output_0_split_1
I0403 14:40:52.992147 13531 net.cpp:399] inception_4e/1x1 -> inception_4e/1x1
I0403 14:40:52.993939 13531 net.cpp:141] Setting up inception_4e/1x1
I0403 14:40:52.993968 13531 net.cpp:148] Top shape: 24 256 14 14 (1204224)
I0403 14:40:52.993983 13531 net.cpp:156] Memory required for data: 1213249056
I0403 14:40:52.994001 13531 layer_factory.hpp:77] Creating layer inception_4e/relu_1x1
I0403 14:40:52.994017 13531 net.cpp:91] Creating Layer inception_4e/relu_1x1
I0403 14:40:52.994032 13531 net.cpp:425] inception_4e/relu_1x1 <- inception_4e/1x1
I0403 14:40:52.994050 13531 net.cpp:386] inception_4e/relu_1x1 -> inception_4e/1x1 (in-place)
I0403 14:40:52.994335 13531 net.cpp:141] Setting up inception_4e/relu_1x1
I0403 14:40:52.994364 13531 net.cpp:148] Top shape: 24 256 14 14 (1204224)
I0403 14:40:52.994379 13531 net.cpp:156] Memory required for data: 1218065952
I0403 14:40:52.994392 13531 layer_factory.hpp:77] Creating layer inception_4e/3x3_reduce
I0403 14:40:52.994415 13531 net.cpp:91] Creating Layer inception_4e/3x3_reduce
I0403 14:40:52.994432 13531 net.cpp:425] inception_4e/3x3_reduce <- inception_4d/output_inception_4d/output_0_split_2
I0403 14:40:52.994451 13531 net.cpp:399] inception_4e/3x3_reduce -> inception_4e/3x3_reduce
I0403 14:40:52.996547 13531 net.cpp:141] Setting up inception_4e/3x3_reduce
I0403 14:40:52.996577 13531 net.cpp:148] Top shape: 24 160 14 14 (752640)
I0403 14:40:52.996593 13531 net.cpp:156] Memory required for data: 1221076512
I0403 14:40:52.996615 13531 layer_factory.hpp:77] Creating layer inception_4e/relu_3x3_reduce
I0403 14:40:52.996634 13531 net.cpp:91] Creating Layer inception_4e/relu_3x3_reduce
I0403 14:40:52.996649 13531 net.cpp:425] inception_4e/relu_3x3_reduce <- inception_4e/3x3_reduce
I0403 14:40:52.996665 13531 net.cpp:386] inception_4e/relu_3x3_reduce -> inception_4e/3x3_reduce (in-place)
I0403 14:40:52.996847 13531 net.cpp:141] Setting up inception_4e/relu_3x3_reduce
I0403 14:40:52.996871 13531 net.cpp:148] Top shape: 24 160 14 14 (752640)
I0403 14:40:52.996886 13531 net.cpp:156] Memory required for data: 1224087072
I0403 14:40:52.996898 13531 layer_factory.hpp:77] Creating layer inception_4e/3x3
I0403 14:40:52.996919 13531 net.cpp:91] Creating Layer inception_4e/3x3
I0403 14:40:52.996937 13531 net.cpp:425] inception_4e/3x3 <- inception_4e/3x3_reduce
I0403 14:40:52.996958 13531 net.cpp:399] inception_4e/3x3 -> inception_4e/3x3
I0403 14:40:53.001817 13531 net.cpp:141] Setting up inception_4e/3x3
I0403 14:40:53.001859 13531 net.cpp:148] Top shape: 24 320 14 14 (1505280)
I0403 14:40:53.001875 13531 net.cpp:156] Memory required for data: 1230108192
I0403 14:40:53.001893 13531 layer_factory.hpp:77] Creating layer inception_4e/relu_3x3
I0403 14:40:53.001909 13531 net.cpp:91] Creating Layer inception_4e/relu_3x3
I0403 14:40:53.001925 13531 net.cpp:425] inception_4e/relu_3x3 <- inception_4e/3x3
I0403 14:40:53.001943 13531 net.cpp:386] inception_4e/relu_3x3 -> inception_4e/3x3 (in-place)
I0403 14:40:53.002234 13531 net.cpp:141] Setting up inception_4e/relu_3x3
I0403 14:40:53.002260 13531 net.cpp:148] Top shape: 24 320 14 14 (1505280)
I0403 14:40:53.002274 13531 net.cpp:156] Memory required for data: 1236129312
I0403 14:40:53.002287 13531 layer_factory.hpp:77] Creating layer inception_4e/5x5_reduce
I0403 14:40:53.002310 13531 net.cpp:91] Creating Layer inception_4e/5x5_reduce
I0403 14:40:53.002326 13531 net.cpp:425] inception_4e/5x5_reduce <- inception_4d/output_inception_4d/output_0_split_3
I0403 14:40:53.002346 13531 net.cpp:399] inception_4e/5x5_reduce -> inception_4e/5x5_reduce
I0403 14:40:53.003399 13531 net.cpp:141] Setting up inception_4e/5x5_reduce
I0403 14:40:53.003427 13531 net.cpp:148] Top shape: 24 32 14 14 (150528)
I0403 14:40:53.003443 13531 net.cpp:156] Memory required for data: 1236731424
I0403 14:40:53.003460 13531 layer_factory.hpp:77] Creating layer inception_4e/relu_5x5_reduce
I0403 14:40:53.003478 13531 net.cpp:91] Creating Layer inception_4e/relu_5x5_reduce
I0403 14:40:53.003494 13531 net.cpp:425] inception_4e/relu_5x5_reduce <- inception_4e/5x5_reduce
I0403 14:40:53.003510 13531 net.cpp:386] inception_4e/relu_5x5_reduce -> inception_4e/5x5_reduce (in-place)
I0403 14:40:53.003806 13531 net.cpp:141] Setting up inception_4e/relu_5x5_reduce
I0403 14:40:53.003834 13531 net.cpp:148] Top shape: 24 32 14 14 (150528)
I0403 14:40:53.003849 13531 net.cpp:156] Memory required for data: 1237333536
I0403 14:40:53.003862 13531 layer_factory.hpp:77] Creating layer inception_4e/5x5
I0403 14:40:53.003901 13531 net.cpp:91] Creating Layer inception_4e/5x5
I0403 14:40:53.003917 13531 net.cpp:425] inception_4e/5x5 <- inception_4e/5x5_reduce
I0403 14:40:53.003937 13531 net.cpp:399] inception_4e/5x5 -> inception_4e/5x5
I0403 14:40:53.005745 13531 net.cpp:141] Setting up inception_4e/5x5
I0403 14:40:53.005774 13531 net.cpp:148] Top shape: 24 128 14 14 (602112)
I0403 14:40:53.005789 13531 net.cpp:156] Memory required for data: 1239741984
I0403 14:40:53.005805 13531 layer_factory.hpp:77] Creating layer inception_4e/relu_5x5
I0403 14:40:53.005825 13531 net.cpp:91] Creating Layer inception_4e/relu_5x5
I0403 14:40:53.005841 13531 net.cpp:425] inception_4e/relu_5x5 <- inception_4e/5x5
I0403 14:40:53.005856 13531 net.cpp:386] inception_4e/relu_5x5 -> inception_4e/5x5 (in-place)
I0403 14:40:53.006047 13531 net.cpp:141] Setting up inception_4e/relu_5x5
I0403 14:40:53.006072 13531 net.cpp:148] Top shape: 24 128 14 14 (602112)
I0403 14:40:53.006088 13531 net.cpp:156] Memory required for data: 1242150432
I0403 14:40:53.006101 13531 layer_factory.hpp:77] Creating layer inception_4e/pool
I0403 14:40:53.006119 13531 net.cpp:91] Creating Layer inception_4e/pool
I0403 14:40:53.006134 13531 net.cpp:425] inception_4e/pool <- inception_4d/output_inception_4d/output_0_split_4
I0403 14:40:53.006152 13531 net.cpp:399] inception_4e/pool -> inception_4e/pool
I0403 14:40:53.006220 13531 net.cpp:141] Setting up inception_4e/pool
I0403 14:40:53.006243 13531 net.cpp:148] Top shape: 24 528 14 14 (2483712)
I0403 14:40:53.006258 13531 net.cpp:156] Memory required for data: 1252085280
I0403 14:40:53.006273 13531 layer_factory.hpp:77] Creating layer inception_4e/pool_proj
I0403 14:40:53.006294 13531 net.cpp:91] Creating Layer inception_4e/pool_proj
I0403 14:40:53.006311 13531 net.cpp:425] inception_4e/pool_proj <- inception_4e/pool
I0403 14:40:53.006330 13531 net.cpp:399] inception_4e/pool_proj -> inception_4e/pool_proj
I0403 14:40:53.007810 13531 net.cpp:141] Setting up inception_4e/pool_proj
I0403 14:40:53.007838 13531 net.cpp:148] Top shape: 24 128 14 14 (602112)
I0403 14:40:53.007865 13531 net.cpp:156] Memory required for data: 1254493728
I0403 14:40:53.007884 13531 layer_factory.hpp:77] Creating layer inception_4e/relu_pool_proj
I0403 14:40:53.007905 13531 net.cpp:91] Creating Layer inception_4e/relu_pool_proj
I0403 14:40:53.007920 13531 net.cpp:425] inception_4e/relu_pool_proj <- inception_4e/pool_proj
I0403 14:40:53.007936 13531 net.cpp:386] inception_4e/relu_pool_proj -> inception_4e/pool_proj (in-place)
I0403 14:40:53.008227 13531 net.cpp:141] Setting up inception_4e/relu_pool_proj
I0403 14:40:53.008252 13531 net.cpp:148] Top shape: 24 128 14 14 (602112)
I0403 14:40:53.008268 13531 net.cpp:156] Memory required for data: 1256902176
I0403 14:40:53.008281 13531 layer_factory.hpp:77] Creating layer inception_4e/output
I0403 14:40:53.008298 13531 net.cpp:91] Creating Layer inception_4e/output
I0403 14:40:53.008313 13531 net.cpp:425] inception_4e/output <- inception_4e/1x1
I0403 14:40:53.008330 13531 net.cpp:425] inception_4e/output <- inception_4e/3x3
I0403 14:40:53.008347 13531 net.cpp:425] inception_4e/output <- inception_4e/5x5
I0403 14:40:53.008363 13531 net.cpp:425] inception_4e/output <- inception_4e/pool_proj
I0403 14:40:53.008378 13531 net.cpp:399] inception_4e/output -> inception_4e/output
I0403 14:40:53.008427 13531 net.cpp:141] Setting up inception_4e/output
I0403 14:40:53.008451 13531 net.cpp:148] Top shape: 24 832 14 14 (3913728)
I0403 14:40:53.008466 13531 net.cpp:156] Memory required for data: 1272557088
I0403 14:40:53.008479 13531 layer_factory.hpp:77] Creating layer pool4/3x3_s2
I0403 14:40:53.008494 13531 net.cpp:91] Creating Layer pool4/3x3_s2
I0403 14:40:53.008509 13531 net.cpp:425] pool4/3x3_s2 <- inception_4e/output
I0403 14:40:53.008528 13531 net.cpp:399] pool4/3x3_s2 -> pool4/3x3_s2
I0403 14:40:53.008594 13531 net.cpp:141] Setting up pool4/3x3_s2
I0403 14:40:53.008620 13531 net.cpp:148] Top shape: 24 832 7 7 (978432)
I0403 14:40:53.008635 13531 net.cpp:156] Memory required for data: 1276470816
I0403 14:40:53.008648 13531 layer_factory.hpp:77] Creating layer pool4/3x3_s2_pool4/3x3_s2_0_split
I0403 14:40:53.008667 13531 net.cpp:91] Creating Layer pool4/3x3_s2_pool4/3x3_s2_0_split
I0403 14:40:53.008683 13531 net.cpp:425] pool4/3x3_s2_pool4/3x3_s2_0_split <- pool4/3x3_s2
I0403 14:40:53.008699 13531 net.cpp:399] pool4/3x3_s2_pool4/3x3_s2_0_split -> pool4/3x3_s2_pool4/3x3_s2_0_split_0
I0403 14:40:53.008721 13531 net.cpp:399] pool4/3x3_s2_pool4/3x3_s2_0_split -> pool4/3x3_s2_pool4/3x3_s2_0_split_1
I0403 14:40:53.008740 13531 net.cpp:399] pool4/3x3_s2_pool4/3x3_s2_0_split -> pool4/3x3_s2_pool4/3x3_s2_0_split_2
I0403 14:40:53.008759 13531 net.cpp:399] pool4/3x3_s2_pool4/3x3_s2_0_split -> pool4/3x3_s2_pool4/3x3_s2_0_split_3
I0403 14:40:53.008847 13531 net.cpp:141] Setting up pool4/3x3_s2_pool4/3x3_s2_0_split
I0403 14:40:53.008869 13531 net.cpp:148] Top shape: 24 832 7 7 (978432)
I0403 14:40:53.008884 13531 net.cpp:148] Top shape: 24 832 7 7 (978432)
I0403 14:40:53.008899 13531 net.cpp:148] Top shape: 24 832 7 7 (978432)
I0403 14:40:53.008913 13531 net.cpp:148] Top shape: 24 832 7 7 (978432)
I0403 14:40:53.008926 13531 net.cpp:156] Memory required for data: 1292125728
I0403 14:40:53.008939 13531 layer_factory.hpp:77] Creating layer inception_5a/1x1
I0403 14:40:53.008960 13531 net.cpp:91] Creating Layer inception_5a/1x1
I0403 14:40:53.008977 13531 net.cpp:425] inception_5a/1x1 <- pool4/3x3_s2_pool4/3x3_s2_0_split_0
I0403 14:40:53.008996 13531 net.cpp:399] inception_5a/1x1 -> inception_5a/1x1
I0403 14:40:53.011801 13531 net.cpp:141] Setting up inception_5a/1x1
I0403 14:40:53.011831 13531 net.cpp:148] Top shape: 24 256 7 7 (301056)
I0403 14:40:53.011847 13531 net.cpp:156] Memory required for data: 1293329952
I0403 14:40:53.011864 13531 layer_factory.hpp:77] Creating layer inception_5a/relu_1x1
I0403 14:40:53.011881 13531 net.cpp:91] Creating Layer inception_5a/relu_1x1
I0403 14:40:53.011896 13531 net.cpp:425] inception_5a/relu_1x1 <- inception_5a/1x1
I0403 14:40:53.011912 13531 net.cpp:386] inception_5a/relu_1x1 -> inception_5a/1x1 (in-place)
I0403 14:40:53.012222 13531 net.cpp:141] Setting up inception_5a/relu_1x1
I0403 14:40:53.012248 13531 net.cpp:148] Top shape: 24 256 7 7 (301056)
I0403 14:40:53.012266 13531 net.cpp:156] Memory required for data: 1294534176
I0403 14:40:53.012280 13531 layer_factory.hpp:77] Creating layer inception_5a/3x3_reduce
I0403 14:40:53.012300 13531 net.cpp:91] Creating Layer inception_5a/3x3_reduce
I0403 14:40:53.012315 13531 net.cpp:425] inception_5a/3x3_reduce <- pool4/3x3_s2_pool4/3x3_s2_0_split_1
I0403 14:40:53.012336 13531 net.cpp:399] inception_5a/3x3_reduce -> inception_5a/3x3_reduce
I0403 14:40:53.014744 13531 net.cpp:141] Setting up inception_5a/3x3_reduce
I0403 14:40:53.014772 13531 net.cpp:148] Top shape: 24 160 7 7 (188160)
I0403 14:40:53.014786 13531 net.cpp:156] Memory required for data: 1295286816
I0403 14:40:53.014804 13531 layer_factory.hpp:77] Creating layer inception_5a/relu_3x3_reduce
I0403 14:40:53.014822 13531 net.cpp:91] Creating Layer inception_5a/relu_3x3_reduce
I0403 14:40:53.014837 13531 net.cpp:425] inception_5a/relu_3x3_reduce <- inception_5a/3x3_reduce
I0403 14:40:53.014854 13531 net.cpp:386] inception_5a/relu_3x3_reduce -> inception_5a/3x3_reduce (in-place)
I0403 14:40:53.015036 13531 net.cpp:141] Setting up inception_5a/relu_3x3_reduce
I0403 14:40:53.015060 13531 net.cpp:148] Top shape: 24 160 7 7 (188160)
I0403 14:40:53.015074 13531 net.cpp:156] Memory required for data: 1296039456
I0403 14:40:53.015087 13531 layer_factory.hpp:77] Creating layer inception_5a/3x3
I0403 14:40:53.015110 13531 net.cpp:91] Creating Layer inception_5a/3x3
I0403 14:40:53.015125 13531 net.cpp:425] inception_5a/3x3 <- inception_5a/3x3_reduce
I0403 14:40:53.015146 13531 net.cpp:399] inception_5a/3x3 -> inception_5a/3x3
I0403 14:40:53.020036 13531 net.cpp:141] Setting up inception_5a/3x3
I0403 14:40:53.020064 13531 net.cpp:148] Top shape: 24 320 7 7 (376320)
I0403 14:40:53.020079 13531 net.cpp:156] Memory required for data: 1297544736
I0403 14:40:53.020097 13531 layer_factory.hpp:77] Creating layer inception_5a/relu_3x3
I0403 14:40:53.020115 13531 net.cpp:91] Creating Layer inception_5a/relu_3x3
I0403 14:40:53.020131 13531 net.cpp:425] inception_5a/relu_3x3 <- inception_5a/3x3
I0403 14:40:53.020148 13531 net.cpp:386] inception_5a/relu_3x3 -> inception_5a/3x3 (in-place)
I0403 14:40:53.020434 13531 net.cpp:141] Setting up inception_5a/relu_3x3
I0403 14:40:53.020459 13531 net.cpp:148] Top shape: 24 320 7 7 (376320)
I0403 14:40:53.020473 13531 net.cpp:156] Memory required for data: 1299050016
I0403 14:40:53.020486 13531 layer_factory.hpp:77] Creating layer inception_5a/5x5_reduce
I0403 14:40:53.020510 13531 net.cpp:91] Creating Layer inception_5a/5x5_reduce
I0403 14:40:53.020527 13531 net.cpp:425] inception_5a/5x5_reduce <- pool4/3x3_s2_pool4/3x3_s2_0_split_2
I0403 14:40:53.020545 13531 net.cpp:399] inception_5a/5x5_reduce -> inception_5a/5x5_reduce
I0403 14:40:53.021705 13531 net.cpp:141] Setting up inception_5a/5x5_reduce
I0403 14:40:53.021734 13531 net.cpp:148] Top shape: 24 32 7 7 (37632)
I0403 14:40:53.021750 13531 net.cpp:156] Memory required for data: 1299200544
I0403 14:40:53.021767 13531 layer_factory.hpp:77] Creating layer inception_5a/relu_5x5_reduce
I0403 14:40:53.021785 13531 net.cpp:91] Creating Layer inception_5a/relu_5x5_reduce
I0403 14:40:53.021798 13531 net.cpp:425] inception_5a/relu_5x5_reduce <- inception_5a/5x5_reduce
I0403 14:40:53.021816 13531 net.cpp:386] inception_5a/relu_5x5_reduce -> inception_5a/5x5_reduce (in-place)
I0403 14:40:53.022112 13531 net.cpp:141] Setting up inception_5a/relu_5x5_reduce
I0403 14:40:53.022140 13531 net.cpp:148] Top shape: 24 32 7 7 (37632)
I0403 14:40:53.022155 13531 net.cpp:156] Memory required for data: 1299351072
I0403 14:40:53.022168 13531 layer_factory.hpp:77] Creating layer inception_5a/5x5
I0403 14:40:53.022189 13531 net.cpp:91] Creating Layer inception_5a/5x5
I0403 14:40:53.022207 13531 net.cpp:425] inception_5a/5x5 <- inception_5a/5x5_reduce
I0403 14:40:53.022223 13531 net.cpp:399] inception_5a/5x5 -> inception_5a/5x5
I0403 14:40:53.023917 13531 net.cpp:141] Setting up inception_5a/5x5
I0403 14:40:53.023955 13531 net.cpp:148] Top shape: 24 128 7 7 (150528)
I0403 14:40:53.023970 13531 net.cpp:156] Memory required for data: 1299953184
I0403 14:40:53.023988 13531 layer_factory.hpp:77] Creating layer inception_5a/relu_5x5
I0403 14:40:53.024006 13531 net.cpp:91] Creating Layer inception_5a/relu_5x5
I0403 14:40:53.024022 13531 net.cpp:425] inception_5a/relu_5x5 <- inception_5a/5x5
I0403 14:40:53.024039 13531 net.cpp:386] inception_5a/relu_5x5 -> inception_5a/5x5 (in-place)
I0403 14:40:53.024224 13531 net.cpp:141] Setting up inception_5a/relu_5x5
I0403 14:40:53.024250 13531 net.cpp:148] Top shape: 24 128 7 7 (150528)
I0403 14:40:53.024266 13531 net.cpp:156] Memory required for data: 1300555296
I0403 14:40:53.024279 13531 layer_factory.hpp:77] Creating layer inception_5a/pool
I0403 14:40:53.024296 13531 net.cpp:91] Creating Layer inception_5a/pool
I0403 14:40:53.024310 13531 net.cpp:425] inception_5a/pool <- pool4/3x3_s2_pool4/3x3_s2_0_split_3
I0403 14:40:53.024329 13531 net.cpp:399] inception_5a/pool -> inception_5a/pool
I0403 14:40:53.024399 13531 net.cpp:141] Setting up inception_5a/pool
I0403 14:40:53.024422 13531 net.cpp:148] Top shape: 24 832 7 7 (978432)
I0403 14:40:53.024435 13531 net.cpp:156] Memory required for data: 1304469024
I0403 14:40:53.024449 13531 layer_factory.hpp:77] Creating layer inception_5a/pool_proj
I0403 14:40:53.024471 13531 net.cpp:91] Creating Layer inception_5a/pool_proj
I0403 14:40:53.024488 13531 net.cpp:425] inception_5a/pool_proj <- inception_5a/pool
I0403 14:40:53.024507 13531 net.cpp:399] inception_5a/pool_proj -> inception_5a/pool_proj
I0403 14:40:53.026830 13531 net.cpp:141] Setting up inception_5a/pool_proj
I0403 14:40:53.026859 13531 net.cpp:148] Top shape: 24 128 7 7 (150528)
I0403 14:40:53.026875 13531 net.cpp:156] Memory required for data: 1305071136
I0403 14:40:53.026891 13531 layer_factory.hpp:77] Creating layer inception_5a/relu_pool_proj
I0403 14:40:53.026911 13531 net.cpp:91] Creating Layer inception_5a/relu_pool_proj
I0403 14:40:53.026928 13531 net.cpp:425] inception_5a/relu_pool_proj <- inception_5a/pool_proj
I0403 14:40:53.026945 13531 net.cpp:386] inception_5a/relu_pool_proj -> inception_5a/pool_proj (in-place)
I0403 14:40:53.027243 13531 net.cpp:141] Setting up inception_5a/relu_pool_proj
I0403 14:40:53.027271 13531 net.cpp:148] Top shape: 24 128 7 7 (150528)
I0403 14:40:53.027286 13531 net.cpp:156] Memory required for data: 1305673248
I0403 14:40:53.027299 13531 layer_factory.hpp:77] Creating layer inception_5a/output
I0403 14:40:53.027318 13531 net.cpp:91] Creating Layer inception_5a/output
I0403 14:40:53.027334 13531 net.cpp:425] inception_5a/output <- inception_5a/1x1
I0403 14:40:53.027350 13531 net.cpp:425] inception_5a/output <- inception_5a/3x3
I0403 14:40:53.027365 13531 net.cpp:425] inception_5a/output <- inception_5a/5x5
I0403 14:40:53.027381 13531 net.cpp:425] inception_5a/output <- inception_5a/pool_proj
I0403 14:40:53.027397 13531 net.cpp:399] inception_5a/output -> inception_5a/output
I0403 14:40:53.027448 13531 net.cpp:141] Setting up inception_5a/output
I0403 14:40:53.027472 13531 net.cpp:148] Top shape: 24 832 7 7 (978432)
I0403 14:40:53.027485 13531 net.cpp:156] Memory required for data: 1309586976
I0403 14:40:53.027499 13531 layer_factory.hpp:77] Creating layer inception_5a/output_inception_5a/output_0_split
I0403 14:40:53.027516 13531 net.cpp:91] Creating Layer inception_5a/output_inception_5a/output_0_split
I0403 14:40:53.027530 13531 net.cpp:425] inception_5a/output_inception_5a/output_0_split <- inception_5a/output
I0403 14:40:53.027550 13531 net.cpp:399] inception_5a/output_inception_5a/output_0_split -> inception_5a/output_inception_5a/output_0_split_0
I0403 14:40:53.027570 13531 net.cpp:399] inception_5a/output_inception_5a/output_0_split -> inception_5a/output_inception_5a/output_0_split_1
I0403 14:40:53.027590 13531 net.cpp:399] inception_5a/output_inception_5a/output_0_split -> inception_5a/output_inception_5a/output_0_split_2
I0403 14:40:53.027616 13531 net.cpp:399] inception_5a/output_inception_5a/output_0_split -> inception_5a/output_inception_5a/output_0_split_3
I0403 14:40:53.027729 13531 net.cpp:141] Setting up inception_5a/output_inception_5a/output_0_split
I0403 14:40:53.027755 13531 net.cpp:148] Top shape: 24 832 7 7 (978432)
I0403 14:40:53.027771 13531 net.cpp:148] Top shape: 24 832 7 7 (978432)
I0403 14:40:53.027786 13531 net.cpp:148] Top shape: 24 832 7 7 (978432)
I0403 14:40:53.027801 13531 net.cpp:148] Top shape: 24 832 7 7 (978432)
I0403 14:40:53.027814 13531 net.cpp:156] Memory required for data: 1325241888
I0403 14:40:53.027827 13531 layer_factory.hpp:77] Creating layer inception_5b/1x1
I0403 14:40:53.027849 13531 net.cpp:91] Creating Layer inception_5b/1x1
I0403 14:40:53.027866 13531 net.cpp:425] inception_5b/1x1 <- inception_5a/output_inception_5a/output_0_split_0
I0403 14:40:53.027885 13531 net.cpp:399] inception_5b/1x1 -> inception_5b/1x1
I0403 14:40:53.031901 13531 net.cpp:141] Setting up inception_5b/1x1
I0403 14:40:53.031932 13531 net.cpp:148] Top shape: 24 384 7 7 (451584)
I0403 14:40:53.031949 13531 net.cpp:156] Memory required for data: 1327048224
I0403 14:40:53.031966 13531 layer_factory.hpp:77] Creating layer inception_5b/relu_1x1
I0403 14:40:53.031987 13531 net.cpp:91] Creating Layer inception_5b/relu_1x1
I0403 14:40:53.032004 13531 net.cpp:425] inception_5b/relu_1x1 <- inception_5b/1x1
I0403 14:40:53.032021 13531 net.cpp:386] inception_5b/relu_1x1 -> inception_5b/1x1 (in-place)
I0403 14:40:53.032338 13531 net.cpp:141] Setting up inception_5b/relu_1x1
I0403 14:40:53.032366 13531 net.cpp:148] Top shape: 24 384 7 7 (451584)
I0403 14:40:53.032380 13531 net.cpp:156] Memory required for data: 1328854560
I0403 14:40:53.032395 13531 layer_factory.hpp:77] Creating layer inception_5b/3x3_reduce
I0403 14:40:53.032418 13531 net.cpp:91] Creating Layer inception_5b/3x3_reduce
I0403 14:40:53.032435 13531 net.cpp:425] inception_5b/3x3_reduce <- inception_5a/output_inception_5a/output_0_split_1
I0403 14:40:53.032459 13531 net.cpp:399] inception_5b/3x3_reduce -> inception_5b/3x3_reduce
I0403 14:40:53.035260 13531 net.cpp:141] Setting up inception_5b/3x3_reduce
I0403 14:40:53.035290 13531 net.cpp:148] Top shape: 24 192 7 7 (225792)
I0403 14:40:53.035307 13531 net.cpp:156] Memory required for data: 1329757728
I0403 14:40:53.035326 13531 layer_factory.hpp:77] Creating layer inception_5b/relu_3x3_reduce
I0403 14:40:53.035346 13531 net.cpp:91] Creating Layer inception_5b/relu_3x3_reduce
I0403 14:40:53.035363 13531 net.cpp:425] inception_5b/relu_3x3_reduce <- inception_5b/3x3_reduce
I0403 14:40:53.035380 13531 net.cpp:386] inception_5b/relu_3x3_reduce -> inception_5b/3x3_reduce (in-place)
I0403 14:40:53.035579 13531 net.cpp:141] Setting up inception_5b/relu_3x3_reduce
I0403 14:40:53.035609 13531 net.cpp:148] Top shape: 24 192 7 7 (225792)
I0403 14:40:53.035624 13531 net.cpp:156] Memory required for data: 1330660896
I0403 14:40:53.035640 13531 layer_factory.hpp:77] Creating layer inception_5b/3x3
I0403 14:40:53.035662 13531 net.cpp:91] Creating Layer inception_5b/3x3
I0403 14:40:53.035681 13531 net.cpp:425] inception_5b/3x3 <- inception_5b/3x3_reduce
I0403 14:40:53.035698 13531 net.cpp:399] inception_5b/3x3 -> inception_5b/3x3
I0403 14:40:53.042659 13531 net.cpp:141] Setting up inception_5b/3x3
I0403 14:40:53.042690 13531 net.cpp:148] Top shape: 24 384 7 7 (451584)
I0403 14:40:53.042706 13531 net.cpp:156] Memory required for data: 1332467232
I0403 14:40:53.042723 13531 layer_factory.hpp:77] Creating layer inception_5b/relu_3x3
I0403 14:40:53.042747 13531 net.cpp:91] Creating Layer inception_5b/relu_3x3
I0403 14:40:53.042763 13531 net.cpp:425] inception_5b/relu_3x3 <- inception_5b/3x3
I0403 14:40:53.042780 13531 net.cpp:386] inception_5b/relu_3x3 -> inception_5b/3x3 (in-place)
I0403 14:40:53.043095 13531 net.cpp:141] Setting up inception_5b/relu_3x3
I0403 14:40:53.043123 13531 net.cpp:148] Top shape: 24 384 7 7 (451584)
I0403 14:40:53.043138 13531 net.cpp:156] Memory required for data: 1334273568
I0403 14:40:53.043153 13531 layer_factory.hpp:77] Creating layer inception_5b/5x5_reduce
I0403 14:40:53.043195 13531 net.cpp:91] Creating Layer inception_5b/5x5_reduce
I0403 14:40:53.043213 13531 net.cpp:425] inception_5b/5x5_reduce <- inception_5a/output_inception_5a/output_0_split_2
I0403 14:40:53.043234 13531 net.cpp:399] inception_5b/5x5_reduce -> inception_5b/5x5_reduce
I0403 14:40:53.044566 13531 net.cpp:141] Setting up inception_5b/5x5_reduce
I0403 14:40:53.044595 13531 net.cpp:148] Top shape: 24 48 7 7 (56448)
I0403 14:40:53.044622 13531 net.cpp:156] Memory required for data: 1334499360
I0403 14:40:53.044642 13531 layer_factory.hpp:77] Creating layer inception_5b/relu_5x5_reduce
I0403 14:40:53.044663 13531 net.cpp:91] Creating Layer inception_5b/relu_5x5_reduce
I0403 14:40:53.044682 13531 net.cpp:425] inception_5b/relu_5x5_reduce <- inception_5b/5x5_reduce
I0403 14:40:53.044698 13531 net.cpp:386] inception_5b/relu_5x5_reduce -> inception_5b/5x5_reduce (in-place)
I0403 14:40:53.045084 13531 net.cpp:141] Setting up inception_5b/relu_5x5_reduce
I0403 14:40:53.045111 13531 net.cpp:148] Top shape: 24 48 7 7 (56448)
I0403 14:40:53.045126 13531 net.cpp:156] Memory required for data: 1334725152
I0403 14:40:53.045141 13531 layer_factory.hpp:77] Creating layer inception_5b/5x5
I0403 14:40:53.045161 13531 net.cpp:91] Creating Layer inception_5b/5x5
I0403 14:40:53.045179 13531 net.cpp:425] inception_5b/5x5 <- inception_5b/5x5_reduce
I0403 14:40:53.045198 13531 net.cpp:399] inception_5b/5x5 -> inception_5b/5x5
I0403 14:40:53.047374 13531 net.cpp:141] Setting up inception_5b/5x5
I0403 14:40:53.047405 13531 net.cpp:148] Top shape: 24 128 7 7 (150528)
I0403 14:40:53.047420 13531 net.cpp:156] Memory required for data: 1335327264
I0403 14:40:53.047437 13531 layer_factory.hpp:77] Creating layer inception_5b/relu_5x5
I0403 14:40:53.047456 13531 net.cpp:91] Creating Layer inception_5b/relu_5x5
I0403 14:40:53.047472 13531 net.cpp:425] inception_5b/relu_5x5 <- inception_5b/5x5
I0403 14:40:53.047489 13531 net.cpp:386] inception_5b/relu_5x5 -> inception_5b/5x5 (in-place)
I0403 14:40:53.047689 13531 net.cpp:141] Setting up inception_5b/relu_5x5
I0403 14:40:53.047715 13531 net.cpp:148] Top shape: 24 128 7 7 (150528)
I0403 14:40:53.047730 13531 net.cpp:156] Memory required for data: 1335929376
I0403 14:40:53.047745 13531 layer_factory.hpp:77] Creating layer inception_5b/pool
I0403 14:40:53.047763 13531 net.cpp:91] Creating Layer inception_5b/pool
I0403 14:40:53.047778 13531 net.cpp:425] inception_5b/pool <- inception_5a/output_inception_5a/output_0_split_3
I0403 14:40:53.047798 13531 net.cpp:399] inception_5b/pool -> inception_5b/pool
I0403 14:40:53.047871 13531 net.cpp:141] Setting up inception_5b/pool
I0403 14:40:53.047897 13531 net.cpp:148] Top shape: 24 832 7 7 (978432)
I0403 14:40:53.047912 13531 net.cpp:156] Memory required for data: 1339843104
I0403 14:40:53.047927 13531 layer_factory.hpp:77] Creating layer inception_5b/pool_proj
I0403 14:40:53.047946 13531 net.cpp:91] Creating Layer inception_5b/pool_proj
I0403 14:40:53.047963 13531 net.cpp:425] inception_5b/pool_proj <- inception_5b/pool
I0403 14:40:53.047984 13531 net.cpp:399] inception_5b/pool_proj -> inception_5b/pool_proj
I0403 14:40:53.050323 13531 net.cpp:141] Setting up inception_5b/pool_proj
I0403 14:40:53.050353 13531 net.cpp:148] Top shape: 24 128 7 7 (150528)
I0403 14:40:53.050367 13531 net.cpp:156] Memory required for data: 1340445216
I0403 14:40:53.050385 13531 layer_factory.hpp:77] Creating layer inception_5b/relu_pool_proj
I0403 14:40:53.050405 13531 net.cpp:91] Creating Layer inception_5b/relu_pool_proj
I0403 14:40:53.050422 13531 net.cpp:425] inception_5b/relu_pool_proj <- inception_5b/pool_proj
I0403 14:40:53.050439 13531 net.cpp:386] inception_5b/relu_pool_proj -> inception_5b/pool_proj (in-place)
I0403 14:40:53.050743 13531 net.cpp:141] Setting up inception_5b/relu_pool_proj
I0403 14:40:53.050771 13531 net.cpp:148] Top shape: 24 128 7 7 (150528)
I0403 14:40:53.050786 13531 net.cpp:156] Memory required for data: 1341047328
I0403 14:40:53.050801 13531 layer_factory.hpp:77] Creating layer inception_5b/output
I0403 14:40:53.050819 13531 net.cpp:91] Creating Layer inception_5b/output
I0403 14:40:53.050850 13531 net.cpp:425] inception_5b/output <- inception_5b/1x1
I0403 14:40:53.050868 13531 net.cpp:425] inception_5b/output <- inception_5b/3x3
I0403 14:40:53.050885 13531 net.cpp:425] inception_5b/output <- inception_5b/5x5
I0403 14:40:53.050900 13531 net.cpp:425] inception_5b/output <- inception_5b/pool_proj
I0403 14:40:53.050917 13531 net.cpp:399] inception_5b/output -> inception_5b/output
I0403 14:40:53.050971 13531 net.cpp:141] Setting up inception_5b/output
I0403 14:40:53.050994 13531 net.cpp:148] Top shape: 24 1024 7 7 (1204224)
I0403 14:40:53.051009 13531 net.cpp:156] Memory required for data: 1345864224
I0403 14:40:53.051023 13531 layer_factory.hpp:77] Creating layer pool5/7x7_s1
I0403 14:40:53.051040 13531 net.cpp:91] Creating Layer pool5/7x7_s1
I0403 14:40:53.051056 13531 net.cpp:425] pool5/7x7_s1 <- inception_5b/output
I0403 14:40:53.051075 13531 net.cpp:399] pool5/7x7_s1 -> pool5/7x7_s1
I0403 14:40:53.051293 13531 net.cpp:141] Setting up pool5/7x7_s1
I0403 14:40:53.051319 13531 net.cpp:148] Top shape: 24 1024 1 1 (24576)
I0403 14:40:53.051333 13531 net.cpp:156] Memory required for data: 1345962528
I0403 14:40:53.051347 13531 layer_factory.hpp:77] Creating layer pool5/drop_7x7_s1
I0403 14:40:53.051367 13531 net.cpp:91] Creating Layer pool5/drop_7x7_s1
I0403 14:40:53.051383 13531 net.cpp:425] pool5/drop_7x7_s1 <- pool5/7x7_s1
I0403 14:40:53.051399 13531 net.cpp:386] pool5/drop_7x7_s1 -> pool5/7x7_s1 (in-place)
I0403 14:40:53.051451 13531 net.cpp:141] Setting up pool5/drop_7x7_s1
I0403 14:40:53.051475 13531 net.cpp:148] Top shape: 24 1024 1 1 (24576)
I0403 14:40:53.051488 13531 net.cpp:156] Memory required for data: 1346060832
I0403 14:40:53.051501 13531 layer_factory.hpp:77] Creating layer loss3/classifier_plantvillage
I0403 14:40:53.051520 13531 net.cpp:91] Creating Layer loss3/classifier_plantvillage
I0403 14:40:53.051535 13531 net.cpp:425] loss3/classifier_plantvillage <- pool5/7x7_s1
I0403 14:40:53.051555 13531 net.cpp:399] loss3/classifier_plantvillage -> loss3/classifier_plantvillage
I0403 14:40:53.051998 13531 net.cpp:141] Setting up loss3/classifier_plantvillage
I0403 14:40:53.052022 13531 net.cpp:148] Top shape: 24 38 (912)
I0403 14:40:53.052037 13531 net.cpp:156] Memory required for data: 1346064480
I0403 14:40:53.052053 13531 layer_factory.hpp:77] Creating layer loss3/classifier_plantvillage_loss3/classifier_plantvillage_0_split
I0403 14:40:53.052072 13531 net.cpp:91] Creating Layer loss3/classifier_plantvillage_loss3/classifier_plantvillage_0_split
I0403 14:40:53.052088 13531 net.cpp:425] loss3/classifier_plantvillage_loss3/classifier_plantvillage_0_split <- loss3/classifier_plantvillage
I0403 14:40:53.052106 13531 net.cpp:399] loss3/classifier_plantvillage_loss3/classifier_plantvillage_0_split -> loss3/classifier_plantvillage_loss3/classifier_plantvillage_0_split_0
I0403 14:40:53.052127 13531 net.cpp:399] loss3/classifier_plantvillage_loss3/classifier_plantvillage_0_split -> loss3/classifier_plantvillage_loss3/classifier_plantvillage_0_split_1
I0403 14:40:53.052148 13531 net.cpp:399] loss3/classifier_plantvillage_loss3/classifier_plantvillage_0_split -> loss3/classifier_plantvillage_loss3/classifier_plantvillage_0_split_2
I0403 14:40:53.052167 13531 net.cpp:399] loss3/classifier_plantvillage_loss3/classifier_plantvillage_0_split -> loss3/classifier_plantvillage_loss3/classifier_plantvillage_0_split_3
I0403 14:40:53.052273 13531 net.cpp:141] Setting up loss3/classifier_plantvillage_loss3/classifier_plantvillage_0_split
I0403 14:40:53.052296 13531 net.cpp:148] Top shape: 24 38 (912)
I0403 14:40:53.052311 13531 net.cpp:148] Top shape: 24 38 (912)
I0403 14:40:53.052326 13531 net.cpp:148] Top shape: 24 38 (912)
I0403 14:40:53.052341 13531 net.cpp:148] Top shape: 24 38 (912)
I0403 14:40:53.052355 13531 net.cpp:156] Memory required for data: 1346079072
I0403 14:40:53.052368 13531 layer_factory.hpp:77] Creating layer loss1/loss
I0403 14:40:53.052388 13531 net.cpp:91] Creating Layer loss1/loss
I0403 14:40:53.052405 13531 net.cpp:425] loss1/loss <- loss1/classifier_plantvillage_loss1/classifier_plantvillage_0_split_0
I0403 14:40:53.052436 13531 net.cpp:425] loss1/loss <- label_data_1_split_0
…
