…
I0403 14:32:38.478531 13384 net.cpp:313] The NetState phase (1) differed from the phase (0) specified by a rule in layer data
I0403 14:32:38.479714 13384 net.cpp:49] Initializing net from parameters: 
state {
  phase: TEST
}
layer {
  name: "data"
  type: "Data"
  top: "data"
  top: "label"
  include {
    phase: TEST
  }
  transform_param {
    mirror: false
    crop_size: 224
    mean_file: "/home/mohanty/data/final_dataset/lmdb/color-40-60/mean.binaryproto"
  }
  data_param {
    source: "/home/mohanty/data/final_dataset/lmdb/color-40-60/test_db"
    batch_size: 24
    backend: LMDB
  }
}
layer {
  name: "conv1/7x7_s2"
  type: "Convolution"
  bottom: "data"
  top: "conv1/7x7_s2"
  param {
    lr_mult: 1
    decay_mult: 1
  }
  param {
    lr_mult: 2
    decay_mult: 0
  }
  convolution_param {
    num_output: 64
    pad: 3
    kernel_size: 7
    stride: 2
    weight_filler {
      type: "xavier"
      std: 0.1
    }
    bias_filler {
      type: "constant"
      value: 0.2
    }
  }
}
layer {
  name: "conv1/relu_7x7"
  type: "ReLU"
  bottom: "conv1/7x7_s2"
  top: "conv1/7x7_s2"
}
layer {
  name: "pool1/3x3_s2"
  type: "Pooling"
  bottom: "conv1/7x7_s2"
  top: "pool1/3x3_s2"
  pooling_param {
    pool: MAX
    kernel_size: 3
    stride: 2
  }
}
layer {
  name: "pool1/norm1"
  type: "LRN"
  bottom: "pool1/3x3_s2"
  top: "pool1/norm1"
  lrn_param {
    local_size: 5
    alpha: 0.0001
    beta: 0.75
  }
}
layer {
  name: "conv2/3x3_reduce"
  type: "Convolution"
  bottom: "pool1/norm1"
  top: "conv2/3x3_reduce"
  param {
    lr_mult: 1
    decay_mult: 1
  }
  param {
    lr_mult: 2
    decay_mult: 0
  }
  convolution_param {
    num_output: 64
    kernel_size: 1
    weight_filler {
      type: "xavier"
      std: 0.1
    }
    bias_filler {
      type: "constant"
      value: 0.2
    }
  }
}
layer {
  name: "conv2/relu_3x3_reduce"
  type: "ReLU"
  bottom: "conv2/3x3_reduce"
  top: "conv2/3x3_reduce"
}
layer {
  name: "conv2/3x3"
  type: "Convolution"
  bottom: "conv2/3x3_reduce"
  top: "conv2/3x3"
  param {
    lr_mult: 1
    decay_mult: 1
  }
  param {
    lr_mult: 2
    decay_mult: 0
  }
  convolution_param {
    num_output: 192
    pad: 1
    kernel_size: 3
    weight_filler {
      type: "xavier"
      std: 0.03
    }
    bias_filler {
      type: "constant"
      value: 0.2
    }
  }
}
layer {
  name: "conv2/relu_3x3"
  type: "ReLU"
  bottom: "conv2/3x3"
  top: "conv2/3x3"
}
layer {
  name: "conv2/norm2"
  type: "LRN"
  bottom: "conv2/3x3"
  top: "conv2/norm2"
  lrn_param {
    local_size: 5
    alpha: 0.0001
    beta: 0.75
  }
}
layer {
  name: "pool2/3x3_s2"
  type: "Pooling"
  bottom: "conv2/norm2"
  top: "pool2/3x3_s2"
  pooling_param {
    pool: MAX
    kernel_size: 3
    stride: 2
  }
}
layer {
  name: "inception_3a/1x1"
  type: "Convolution"
  bottom: "pool2/3x3_s2"
  top: "inception_3a/1x1"
  param {
    lr_mult: 1
    decay_mult: 1
  }
  param {
    lr_mult: 2
    decay_mult: 0
  }
  convolution_param {
    num_output: 64
    kernel_size: 1
    weight_filler {
      type: "xavier"
      std: 0.03
    }
    bias_filler {
      type: "constant"
      value: 0.2
    }
  }
}
layer {
  name: "inception_3a/relu_1x1"
  type: "ReLU"
  bottom: "inception_3a/1x1"
  top: "inception_3a/1x1"
}
layer {
  name: "inception_3a/3x3_reduce"
  type: "Convolution"
  bottom: "pool2/3x3_s2"
  top: "inception_3a/3x3_reduce"
  param {
    lr_mult: 1
    decay_mult: 1
  }
  param {
    lr_mult: 2
    decay_mult: 0
  }
  convolution_param {
    num_output: 96
    kernel_size: 1
    weight_filler {
      type: "xavier"
      std: 0.09
    }
    bias_filler {
      type: "constant"
      value: 0.2
    }
  }
}
layer {
  name: "inception_3a/relu_3x3_reduce"
  type: "ReLU"
  bottom: "inception_3a/3x3_reduce"
  top: "inception_3a/3x3_reduce"
}
layer {
  name: "inception_3a/3x3"
  type: "Convolution"
  bottom: "inception_3a/3x3_reduce"
  top: "inception_3a/3x3"
  param {
    lr_mult: 1
    decay_mult: 1
  }
  param {
    lr_mult: 2
    decay_mult: 0
  }
  convolution_param {
    num_output: 128
    pad: 1
    kernel_size: 3
    weight_filler {
      type: "xavier"
      std: 0.03
    }
    bias_filler {
      type: "constant"
      value: 0.2
    }
  }
}
layer {
  name: "inception_3a/relu_3x3"
  type: "ReLU"
  bottom: "inception_3a/3x3"
  top: "inception_3a/3x3"
}
layer {
  name: "inception_3a/5x5_reduce"
  type: "Convolution"
  bottom: "pool2/3x3_s2"
  top: "inception_3a/5x5_reduce"
  param {
    lr_mult: 1
    decay_mult: 1
  }
  param {
    lr_mult: 2
    decay_mult: 0
  }
  convolution_param {
    num_output: 16
    kernel_size: 1
    weight_filler {
      type: "xavier"
      std: 0.2
    }
    bias_filler {
      type: "constant"
      value: 0.2
    }
  }
}
layer {
  name: "inception_3a/relu_5x5_reduce"
  type: "ReLU"
  bottom: "inception_3a/5x5_reduce"
  top: "inception_3a/5x5_reduce"
}
layer {
  name: "inception_3a/5x5"
  type: "Convolution"
  bottom: "inception_3a/5x5_reduce"
  top: "inception_3a/5x5"
  param {
    lr_mult: 1
    decay_mult: 1
  }
  param {
    lr_mult: 2
    decay_mult: 0
  }
  convolution_param {
    num_output: 32
    pad: 2
    kernel_size: 5
    weight_filler {
      type: "xavier"
      std: 0.03
    }
    bias_filler {
      type: "constant"
      value: 0.2
    }
  }
}
layer {
  name: "inception_3a/relu_5x5"
  type: "ReLU"
  bottom: "inception_3a/5x5"
  top: "inception_3a/5x5"
}
layer {
  name: "inception_3a/pool"
  type: "Pooling"
  bottom: "pool2/3x3_s2"
  top: "inception_3a/pool"
  pooling_param {
    pool: MAX
    kernel_size: 3
    stride: 1
    pad: 1
  }
}
layer {
  name: "inception_3a/pool_proj"
  type: "Convolution"
  bottom: "inception_3a/pool"
  top: "inception_3a/pool_proj"
  param {
    lr_mult: 1
    decay_mult: 1
  }
  param {
    lr_mult: 2
    decay_mult: 0
  }
  convolution_param {
    num_output: 32
    kernel_size: 1
    weight_filler {
      type: "xavier"
      std: 0.1
    }
    bias_filler {
      type: "constant"
      value: 0.2
    }
  }
}
layer {
  name: "inception_3a/relu_pool_proj"
  type: "ReLU"
  bottom: "inception_3a/pool_proj"
  top: "inception_3a/pool_proj"
}
layer {
  name: "inception_3a/output"
  type: "Concat"
  bottom: "inception_3a/1x1"
  bottom: "inception_3a/3x3"
  bottom: "inception_3a/5x5"
  bottom: "inception_3a/pool_proj"
  top: "inception_3a/output"
}
layer {
  name: "inception_3b/1x1"
  type: "Convolution"
  bottom: "inception_3a/output"
  top: "inception_3b/1x1"
  param {
    lr_mult: 1
    decay_mult: 1
  }
  param {
    lr_mult: 2
    decay_mult: 0
  }
  convolution_param {
    num_output: 128
    kernel_size: 1
    weight_filler {
      type: "xavier"
      std: 0.03
    }
    bias_filler {
      type: "constant"
      value: 0.2
    }
  }
}
layer {
  name: "inception_3b/relu_1x1"
  type: "ReLU"
  bottom: "inception_3b/1x1"
  top: "inception_3b/1x1"
}
layer {
  name: "inception_3b/3x3_reduce"
  type: "Convolution"
  bottom: "inception_3a/output"
  top: "inception_3b/3x3_reduce"
  param {
    lr_mult: 1
    decay_mult: 1
  }
  param {
    lr_mult: 2
    decay_mult: 0
  }
  convolution_param {
    num_output: 128
    kernel_size: 1
    weight_filler {
      type: "xavier"
      std: 0.09
    }
    bias_filler {
      type: "constant"
      value: 0.2
    }
  }
}
layer {
  name: "inception_3b/relu_3x3_reduce"
  type: "ReLU"
  bottom: "inception_3b/3x3_reduce"
  top: "inception_3b/3x3_reduce"
}
layer {
  name: "inception_3b/3x3"
  type: "Convolution"
  bottom: "inception_3b/3x3_reduce"
  top: "inception_3b/3x3"
  param {
    lr_mult: 1
    decay_mult: 1
  }
  param {
    lr_mult: 2
    decay_mult: 0
  }
  convolution_param {
    num_output: 192
    pad: 1
    kernel_size: 3
    weight_filler {
      type: "xavier"
      std: 0.03
    }
    bias_filler {
      type: "constant"
      value: 0.2
    }
  }
}
layer {
  name: "inception_3b/relu_3x3"
  type: "ReLU"
  bottom: "inception_3b/3x3"
  top: "inception_3b/3x3"
}
layer {
  name: "inception_3b/5x5_reduce"
  type: "Convolution"
  bottom: "inception_3a/output"
  top: "inception_3b/5x5_reduce"
  param {
    lr_mult: 1
    decay_mult: 1
  }
  param {
    lr_mult: 2
    decay_mult: 0
  }
  convolution_param {
    num_output: 32
    kernel_size: 1
    weight_filler {
      type: "xavier"
      std: 0.2
    }
    bias_filler {
      type: "constant"
      value: 0.2
    }
  }
}
layer {
  name: "inception_3b/relu_5x5_reduce"
  type: "ReLU"
  bottom: "inception_3b/5x5_reduce"
  top: "inception_3b/5x5_reduce"
}
layer {
  name: "inception_3b/5x5"
  type: "Convolution"
  bottom: "inception_3b/5x5_reduce"
  top: "inception_3b/5x5"
  param {
    lr_mult: 1
    decay_mult: 1
  }
  param {
    lr_mult: 2
    decay_mult: 0
  }
  convolution_param {
    num_output: 96
    pad: 2
    kernel_size: 5
    weight_filler {
      type: "xavier"
      std: 0.03
    }
    bias_filler {
      type: "constant"
      value: 0.2
    }
  }
}
layer {
  name: "inception_3b/relu_5x5"
  type: "ReLU"
  bottom: "inception_3b/5x5"
  top: "inception_3b/5x5"
}
layer {
  name: "inception_3b/pool"
  type: "Pooling"
  bottom: "inception_3a/output"
  top: "inception_3b/pool"
  pooling_param {
    pool: MAX
    kernel_size: 3
    stride: 1
    pad: 1
  }
}
layer {
  name: "inception_3b/pool_proj"
  type: "Convolution"
  bottom: "inception_3b/pool"
  top: "inception_3b/pool_proj"
  param {
    lr_mult: 1
    decay_mult: 1
  }
  param {
    lr_mult: 2
    decay_mult: 0
  }
  convolution_param {
    num_output: 64
    kernel_size: 1
    weight_filler {
      type: "xavier"
      std: 0.1
    }
    bias_filler {
      type: "constant"
      value: 0.2
    }
  }
}
layer {
  name: "inception_3b/relu_pool_proj"
  type: "ReLU"
  bottom: "inception_3b/pool_proj"
  top: "inception_3b/pool_proj"
}
layer {
  name: "inception_3b/output"
  type: "Concat"
  bottom: "inception_3b/1x1"
  bottom: "inception_3b/3x3"
  bottom: "inception_3b/5x5"
  bottom: "inception_3b/pool_proj"
  top: "inception_3b/output"
}
layer {
  name: "pool3/3x3_s2"
  type: "Pooling"
  bottom: "inception_3b/output"
  top: "pool3/3x3_s2"
  pooling_param {
    pool: MAX
    kernel_size: 3
    stride: 2
  }
}
layer {
  name: "inception_4a/1x1"
  type: "Convolution"
  bottom: "pool3/3x3_s2"
  top: "inception_4a/1x1"
  param {
    lr_mult: 1
    decay_mult: 1
  }
  param {
    lr_mult: 2
    decay_mult: 0
  }
  convolution_param {
    num_output: 192
    kernel_size: 1
    weight_filler {
      type: "xavier"
      std: 0.03
    }
    bias_filler {
      type: "constant"
      value: 0.2
    }
  }
}
layer {
  name: "inception_4a/relu_1x1"
  type: "ReLU"
  bottom: "inception_4a/1x1"
  top: "inception_4a/1x1"
}
layer {
  name: "inception_4a/3x3_reduce"
  type: "Convolution"
  bottom: "pool3/3x3_s2"
  top: "inception_4a/3x3_reduce"
  param {
    lr_mult: 1
    decay_mult: 1
  }
  param {
    lr_mult: 2
    decay_mult: 0
  }
  convolution_param {
    num_output: 96
    kernel_size: 1
    weight_filler {
      type: "xavier"
      std: 0.09
    }
    bias_filler {
      type: "constant"
      value: 0.2
    }
  }
}
layer {
  name: "inception_4a/relu_3x3_reduce"
  type: "ReLU"
  bottom: "inception_4a/3x3_reduce"
  top: "inception_4a/3x3_reduce"
}
layer {
  name: "inception_4a/3x3"
  type: "Convolution"
  bottom: "inception_4a/3x3_reduce"
  top: "inception_4a/3x3"
  param {
    lr_mult: 1
    decay_mult: 1
  }
  param {
    lr_mult: 2
    decay_mult: 0
  }
  convolution_param {
    num_output: 208
    pad: 1
    kernel_size: 3
    weight_filler {
      type: "xavier"
      std: 0.03
    }
    bias_filler {
      type: "constant"
      value: 0.2
    }
  }
}
layer {
  name: "inception_4a/relu_3x3"
  type: "ReLU"
  bottom: "inception_4a/3x3"
  top: "inception_4a/3x3"
}
layer {
  name: "inception_4a/5x5_reduce"
  type: "Convolution"
  bottom: "pool3/3x3_s2"
  top: "inception_4a/5x5_reduce"
  param {
    lr_mult: 1
    decay_mult: 1
  }
  param {
    lr_mult: 2
    decay_mult: 0
  }
  convolution_param {
    num_output: 16
    kernel_size: 1
    weight_filler {
      type: "xavier"
      std: 0.2
    }
    bias_filler {
      type: "constant"
      value: 0.2
    }
  }
}
layer {
  name: "inception_4a/relu_5x5_reduce"
  type: "ReLU"
  bottom: "inception_4a/5x5_reduce"
  top: "inception_4a/5x5_reduce"
}
layer {
  name: "inception_4a/5x5"
  type: "Convolution"
  bottom: "inception_4a/5x5_reduce"
  top: "inception_4a/5x5"
  param {
    lr_mult: 1
    decay_mult: 1
  }
  param {
    lr_mult: 2
    decay_mult: 0
  }
  convolution_param {
    num_output: 48
    pad: 2
    kernel_size: 5
    weight_filler {
      type: "xavier"
      std: 0.03
    }
    bias_filler {
      type: "constant"
      value: 0.2
    }
  }
}
layer {
  name: "inception_4a/relu_5x5"
  type: "ReLU"
  bottom: "inception_4a/5x5"
  top: "inception_4a/5x5"
}
layer {
  name: "inception_4a/pool"
  type: "Pooling"
  bottom: "pool3/3x3_s2"
  top: "inception_4a/pool"
  pooling_param {
    pool: MAX
    kernel_size: 3
    stride: 1
    pad: 1
  }
}
layer {
  name: "inception_4a/pool_proj"
  type: "Convolution"
  bottom: "inception_4a/pool"
  top: "inception_4a/pool_proj"
  param {
    lr_mult: 1
    decay_mult: 1
  }
  param {
    lr_mult: 2
    decay_mult: 0
  }
  convolution_param {
    num_output: 64
    kernel_size: 1
    weight_filler {
      type: "xavier"
      std: 0.1
    }
    bias_filler {
      type: "constant"
      value: 0.2
    }
  }
}
layer {
  name: "inception_4a/relu_pool_proj"
  type: "ReLU"
  bottom: "inception_4a/pool_proj"
  top: "inception_4a/pool_proj"
}
layer {
  name: "inception_4a/output"
  type: "Concat"
  bottom: "inception_4a/1x1"
  bottom: "inception_4a/3x3"
  bottom: "inception_4a/5x5"
  bottom: "inception_4a/pool_proj"
  top: "inception_4a/output"
}
layer {
  name: "loss1/ave_pool"
  type: "Pooling"
  bottom: "inception_4a/output"
  top: "loss1/ave_pool"
  pooling_param {
    pool: AVE
    kernel_size: 5
    stride: 3
  }
}
layer {
  name: "loss1/conv"
  type: "Convolution"
  bottom: "loss1/ave_pool"
  top: "loss1/conv"
  param {
    lr_mult: 1
    decay_mult: 1
  }
  param {
    lr_mult: 2
    decay_mult: 0
  }
  convolution_param {
    num_output: 128
    kernel_size: 1
    weight_filler {
      type: "xavier"
      std: 0.08
    }
    bias_filler {
      type: "constant"
      value: 0.2
    }
  }
}
layer {
  name: "loss1/relu_conv"
  type: "ReLU"
  bottom: "loss1/conv"
  top: "loss1/conv"
}
layer {
  name: "loss1/fc"
  type: "InnerProduct"
  bottom: "loss1/conv"
  top: "loss1/fc"
  param {
    lr_mult: 1
    decay_mult: 1
  }
  param {
    lr_mult: 2
    decay_mult: 0
  }
  inner_product_param {
    num_output: 1024
    weight_filler {
      type: "xavier"
      std: 0.02
    }
    bias_filler {
      type: "constant"
      value: 0.2
    }
  }
}
layer {
  name: "loss1/relu_fc"
  type: "ReLU"
  bottom: "loss1/fc"
  top: "loss1/fc"
}
layer {
  name: "loss1/drop_fc"
  type: "Dropout"
  bottom: "loss1/fc"
  top: "loss1/fc"
  dropout_param {
    dropout_ratio: 0.7
  }
}
layer {
  name: "loss1/classifier_plantvillage"
  type: "InnerProduct"
  bottom: "loss1/fc"
  top: "loss1/classifier_plantvillage"
  param {
    lr_mult: 1
    decay_mult: 1
  }
  param {
    lr_mult: 2
    decay_mult: 0
  }
  inner_product_param {
    num_output: 38
    weight_filler {
      type: "xavier"
      std: 0.0009765625
    }
    bias_filler {
      type: "constant"
      value: 0
    }
  }
}
layer {
  name: "inception_4b/1x1"
  type: "Convolution"
  bottom: "inception_4a/output"
  top: "inception_4b/1x1"
  param {
    lr_mult: 1
    decay_mult: 1
  }
  param {
    lr_mult: 2
    decay_mult: 0
  }
  convolution_param {
    num_output: 160
    kernel_size: 1
    weight_filler {
      type: "xavier"
      std: 0.03
    }
    bias_filler {
      type: "constant"
      value: 0.2
    }
  }
}
layer {
  name: "inception_4b/relu_1x1"
  type: "ReLU"
  bottom: "inception_4b/1x1"
  top: "inception_4b/1x1"
}
layer {
  name: "inception_4b/3x3_reduce"
  type: "Convolution"
  bottom: "inception_4a/output"
  top: "inception_4b/3x3_reduce"
  param {
    lr_mult: 1
    decay_mult: 1
  }
  param {
    lr_mult: 2
    decay_mult: 0
  }
  convolution_param {
    num_output: 112
    kernel_size: 1
    weight_filler {
      type: "xavier"
      std: 0.09
    }
    bias_filler {
      type: "constant"
      value: 0.2
    }
  }
}
layer {
  name: "inception_4b/relu_3x3_reduce"
  type: "ReLU"
  bottom: "inception_4b/3x3_reduce"
  top: "inception_4b/3x3_reduce"
}
layer {
  name: "inception_4b/3x3"
  type: "Convolution"
  bottom: "inception_4b/3x3_reduce"
  top: "inception_4b/3x3"
  param {
    lr_mult: 1
    decay_mult: 1
  }
  param {
    lr_mult: 2
    decay_mult: 0
  }
  convolution_param {
    num_output: 224
    pad: 1
    kernel_size: 3
    weight_filler {
      type: "xavier"
      std: 0.03
    }
    bias_filler {
      type: "constant"
      value: 0.2
    }
  }
}
layer {
  name: "inception_4b/relu_3x3"
  type: "ReLU"
  bottom: "inception_4b/3x3"
  top: "inception_4b/3x3"
}
layer {
  name: "inception_4b/5x5_reduce"
  type: "Convolution"
  bottom: "inception_4a/output"
  top: "inception_4b/5x5_reduce"
  param {
    lr_mult: 1
    decay_mult: 1
  }
  param {
    lr_mult: 2
    decay_mult: 0
  }
  convolution_param {
    num_output: 24
    kernel_size: 1
    weight_filler {
      type: "xavier"
      std: 0.2
    }
    bias_filler {
      type: "constant"
      value: 0.2
    }
  }
}
layer {
  name: "inception_4b/relu_5x5_reduce"
  type: "ReLU"
  bottom: "inception_4b/5x5_reduce"
  top: "inception_4b/5x5_reduce"
}
layer {
  name: "inception_4b/5x5"
  type: "Convolution"
  bottom: "inception_4b/5x5_reduce"
  top: "inception_4b/5x5"
  param {
    lr_mult: 1
    decay_mult: 1
  }
  param {
    lr_mult: 2
    decay_mult: 0
  }
  convolution_param {
    num_output: 64
    pad: 2
    kernel_size: 5
    weight_filler {
      type: "xavier"
      std: 0.03
    }
    bias_filler {
      type: "constant"
      value: 0.2
    }
  }
}
layer {
  name: "inception_4b/relu_5x5"
  type: "ReLU"
  bottom: "inception_4b/5x5"
  top: "inception_4b/5x5"
}
layer {
  name: "inception_4b/pool"
  type: "Pooling"
  bottom: "inception_4a/output"
  top: "inception_4b/pool"
  pooling_param {
    pool: MAX
    kernel_size: 3
    stride: 1
    pad: 1
  }
}
layer {
  name: "inception_4b/pool_proj"
  type: "Convolution"
  bottom: "inception_4b/pool"
  top: "inception_4b/pool_proj"
  param {
    lr_mult: 1
    decay_mult: 1
  }
  param {
    lr_mult: 2
    decay_mult: 0
  }
  convolution_param {
    num_output: 64
    kernel_size: 1
    weight_filler {
      type: "xavier"
      std: 0.1
    }
    bias_filler {
      type: "constant"
      value: 0.2
    }
  }
}
layer {
  name: "inception_4b/relu_pool_proj"
  type: "ReLU"
  bottom: "inception_4b/pool_proj"
  top: "inception_4b/pool_proj"
}
layer {
  name: "inception_4b/output"
  type: "Concat"
  bottom: "inception_4b/1x1"
  bottom: "inception_4b/3x3"
  bottom: "inception_4b/5x5"
  bottom: "inception_4b/pool_proj"
  top: "inception_4b/output"
}
layer {
  name: "inception_4c/1x1"
  type: "Convolution"
  bottom: "inception_4b/output"
  top: "inception_4c/1x1"
  param {
    lr_mult: 1
    decay_mult: 1
  }
  param {
    lr_mult: 2
    decay_mult: 0
  }
  convolution_param {
    num_output: 128
    kernel_size: 1
    weight_filler {
      type: "xavier"
      std: 0.03
    }
    bias_filler {
      type: "constant"
      value: 0.2
    }
  }
}
layer {
  name: "inception_4c/relu_1x1"
  type: "ReLU"
  bottom: "inception_4c/1x1"
  top: "inception_4c/1x1"
}
layer {
  name: "inception_4c/3x3_reduce"
  type: "Convolution"
  bottom: "inception_4b/output"
  top: "inception_4c/3x3_reduce"
  param {
    lr_mult: 1
    decay_mult: 1
  }
  param {
    lr_mult: 2
    decay_mult: 0
  }
  convolution_param {
    num_output: 128
    kernel_size: 1
    weight_filler {
      type: "xavier"
      std: 0.09
    }
    bias_filler {
      type: "constant"
      value: 0.2
    }
  }
}
layer {
  name: "inception_4c/relu_3x3_reduce"
  type: "ReLU"
  bottom: "inception_4c/3x3_reduce"
  top: "inception_4c/3x3_reduce"
}
layer {
  name: "inception_4c/3x3"
  type: "Convolution"
  bottom: "inception_4c/3x3_reduce"
  top: "inception_4c/3x3"
  param {
    lr_mult: 1
    decay_mult: 1
  }
  param {
    lr_mult: 2
    decay_mult: 0
  }
  convolution_param {
    num_output: 256
    pad: 1
    kernel_size: 3
    weight_filler {
      type: "xavier"
      std: 0.03
    }
    bias_filler {
      type: "constant"
      value: 0.2
    }
  }
}
layer {
  name: "inception_4c/relu_3x3"
  type: "ReLU"
  bottom: "inception_4c/3x3"
  top: "inception_4c/3x3"
}
layer {
  name: "inception_4c/5x5_reduce"
  type: "Convolution"
  bottom: "inception_4b/output"
  top: "inception_4c/5x5_reduce"
  param {
    lr_mult: 1
    decay_mult: 1
  }
  param {
    lr_mult: 2
    decay_mult: 0
  }
  convolution_param {
    num_output: 24
    kernel_size: 1
    weight_filler {
      type: "xavier"
      std: 0.2
    }
    bias_filler {
      type: "constant"
      value: 0.2
    }
  }
}
layer {
  name: "inception_4c/relu_5x5_reduce"
  type: "ReLU"
  bottom: "inception_4c/5x5_reduce"
  top: "inception_4c/5x5_reduce"
}
layer {
  name: "inception_4c/5x5"
  type: "Convolution"
  bottom: "inception_4c/5x5_reduce"
  top: "inception_4c/5x5"
  param {
    lr_mult: 1
    decay_mult: 1
  }
  param {
    lr_mult: 2
    decay_mult: 0
  }
  convolution_param {
    num_output: 64
    pad: 2
    kernel_size: 5
    weight_filler {
      type: "xavier"
      std: 0.03
    }
    bias_filler {
      type: "constant"
      value: 0.2
    }
  }
}
layer {
  name: "inception_4c/relu_5x5"
  type: "ReLU"
  bottom: "inception_4c/5x5"
  top: "inception_4c/5x5"
}
layer {
  name: "inception_4c/pool"
  type: "Pooling"
  bottom: "inception_4b/output"
  top: "inception_4c/pool"
  pooling_param {
    pool: MAX
    kernel_size: 3
    stride: 1
    pad: 1
  }
}
layer {
  name: "inception_4c/pool_proj"
  type: "Convolution"
  bottom: "inception_4c/pool"
  top: "inception_4c/pool_proj"
  param {
    lr_mult: 1
    decay_mult: 1
  }
  param {
    lr_mult: 2
    decay_mult: 0
  }
  convolution_param {
    num_output: 64
    kernel_size: 1
    weight_filler {
      type: "xavier"
      std: 0.1
    }
    bias_filler {
      type: "constant"
      value: 0.2
    }
  }
}
layer {
  name: "inception_4c/relu_pool_proj"
  type: "ReLU"
  bottom: "inception_4c/pool_proj"
  top: "inception_4c/pool_proj"
}
layer {
  name: "inception_4c/output"
  type: "Concat"
  bottom: "inception_4c/1x1"
  bottom: "inception_4c/3x3"
  bottom: "inception_4c/5x5"
  bottom: "inception_4c/pool_proj"
  top: "inception_4c/output"
}
layer {
  name: "inception_4d/1x1"
  type: "Convolution"
  bottom: "inception_4c/output"
  top: "inception_4d/1x1"
  param {
    lr_mult: 1
    decay_mult: 1
  }
  param {
    lr_mult: 2
    decay_mult: 0
  }
  convolution_param {
    num_output: 112
    kernel_size: 1
    weight_filler {
      type: "xavier"
      std: 0.03
    }
    bias_filler {
      type: "constant"
      value: 0.2
    }
  }
}
layer {
  name: "inception_4d/relu_1x1"
  type: "ReLU"
  bottom: "inception_4d/1x1"
  top: "inception_4d/1x1"
}
layer {
  name: "inception_4d/3x3_reduce"
  type: "Convolution"
  bottom: "inception_4c/output"
  top: "inception_4d/3x3_reduce"
  param {
    lr_mult: 1
    decay_mult: 1
  }
  param {
    lr_mult: 2
    decay_mult: 0
  }
  convolution_param {
    num_output: 144
    kernel_size: 1
    weight_filler {
      type: "xavier"
      std: 0.09
    }
    bias_filler {
      type: "constant"
      value: 0.2
    }
  }
}
layer {
  name: "inception_4d/relu_3x3_reduce"
  type: "ReLU"
  bottom: "inception_4d/3x3_reduce"
  top: "inception_4d/3x3_reduce"
}
layer {
  name: "inception_4d/3x3"
  type: "Convolution"
  bottom: "inception_4d/3x3_reduce"
  top: "inception_4d/3x3"
  param {
    lr_mult: 1
    decay_mult: 1
  }
  param {
    lr_mult: 2
    decay_mult: 0
  }
  convolution_param {
    num_output: 288
    pad: 1
    kernel_size: 3
    weight_filler {
      type: "xavier"
      std: 0.03
    }
    bias_filler {
      type: "constant"
      value: 0.2
    }
  }
}
layer {
  name: "inception_4d/relu_3x3"
  type: "ReLU"
  bottom: "inception_4d/3x3"
  top: "inception_4d/3x3"
}
layer {
  name: "inception_4d/5x5_reduce"
  type: "Convolution"
  bottom: "inception_4c/output"
  top: "inception_4d/5x5_reduce"
  param {
    lr_mult: 1
    decay_mult: 1
  }
  param {
    lr_mult: 2
    decay_mult: 0
  }
  convolution_param {
    num_output: 32
    kernel_size: 1
    weight_filler {
      type: "xavier"
      std: 0.2
    }
    bias_filler {
      type: "constant"
      value: 0.2
    }
  }
}
layer {
  name: "inception_4d/relu_5x5_reduce"
  type: "ReLU"
  bottom: "inception_4d/5x5_reduce"
  top: "inception_4d/5x5_reduce"
}
layer {
  name: "inception_4d/5x5"
  type: "Convolution"
  bottom: "inception_4d/5x5_reduce"
  top: "inception_4d/5x5"
  param {
    lr_mult: 1
    decay_mult: 1
  }
  param {
    lr_mult: 2
    decay_mult: 0
  }
  convolution_param {
    num_output: 64
    pad: 2
    kernel_size: 5
    weight_filler {
      type: "xavier"
      std: 0.03
    }
    bias_filler {
      type: "constant"
      value: 0.2
    }
  }
}
layer {
  name: "inception_4d/relu_5x5"
  type: "ReLU"
  bottom: "inception_4d/5x5"
  top: "inception_4d/5x5"
}
layer {
  name: "inception_4d/pool"
  type: "Pooling"
  bottom: "inception_4c/output"
  top: "inception_4d/pool"
  pooling_param {
    pool: MAX
    kernel_size: 3
    stride: 1
    pad: 1
  }
}
layer {
  name: "inception_4d/pool_proj"
  type: "Convolution"
  bottom: "inception_4d/pool"
  top: "inception_4d/pool_proj"
  param {
    lr_mult: 1
    decay_mult: 1
  }
  param {
    lr_mult: 2
    decay_mult: 0
  }
  convolution_param {
    num_output: 64
    kernel_size: 1
    weight_filler {
      type: "xavier"
      std: 0.1
    }
    bias_filler {
      type: "constant"
      value: 0.2
    }
  }
}
layer {
  name: "inception_4d/relu_pool_proj"
  type: "ReLU"
  bottom: "inception_4d/pool_proj"
  top: "inception_4d/pool_proj"
}
layer {
  name: "inception_4d/output"
  type: "Concat"
  bottom: "inception_4d/1x1"
  bottom: "inception_4d/3x3"
  bottom: "inception_4d/5x5"
  bottom: "inception_4d/pool_proj"
  top: "inception_4d/output"
}
layer {
  name: "loss2/ave_pool"
  type: "Pooling"
  bottom: "inception_4d/output"
  top: "loss2/ave_pool"
  pooling_param {
    pool: AVE
    kernel_size: 5
    stride: 3
  }
}
layer {
  name: "loss2/conv"
  type: "Convolution"
  bottom: "loss2/ave_pool"
  top: "loss2/conv"
  param {
    lr_mult: 1
    decay_mult: 1
  }
  param {
    lr_mult: 2
    decay_mult: 0
  }
  convolution_param {
    num_output: 128
    kernel_size: 1
    weight_filler {
      type: "xavier"
      std: 0.08
    }
    bias_filler {
      type: "constant"
      value: 0.2
    }
  }
}
layer {
  name: "loss2/relu_conv"
  type: "ReLU"
  bottom: "loss2/conv"
  top: "loss2/conv"
}
layer {
  name: "loss2/fc"
  type: "InnerProduct"
  bottom: "loss2/conv"
  top: "loss2/fc"
  param {
    lr_mult: 1
    decay_mult: 1
  }
  param {
    lr_mult: 2
    decay_mult: 0
  }
  inner_product_param {
    num_output: 1024
    weight_filler {
      type: "xavier"
      std: 0.02
    }
    bias_filler {
      type: "constant"
      value: 0.2
    }
  }
}
layer {
  name: "loss2/relu_fc"
  type: "ReLU"
  bottom: "loss2/fc"
  top: "loss2/fc"
}
layer {
  name: "loss2/drop_fc"
  type: "Dropout"
  bottom: "loss2/fc"
  top: "loss2/fc"
  dropout_param {
    dropout_ratio: 0.7
  }
}
layer {
  name: "loss2/classifier_plantvillage"
  type: "InnerProduct"
  bottom: "loss2/fc"
  top: "loss2/classifier_plantvillage"
  param {
    lr_mult: 1
    decay_mult: 1
  }
  param {
    lr_mult: 2
    decay_mult: 0
  }
  inner_product_param {
    num_output: 38
    weight_filler {
      type: "xavier"
      std: 0.0009765625
    }
    bias_filler {
      type: "constant"
      value: 0
    }
  }
}
layer {
  name: "inception_4e/1x1"
  type: "Convolution"
  bottom: "inception_4d/output"
  top: "inception_4e/1x1"
  param {
    lr_mult: 1
    decay_mult: 1
  }
  param {
    lr_mult: 2
    decay_mult: 0
  }
  convolution_param {
    num_output: 256
    kernel_size: 1
    weight_filler {
      type: "xavier"
      std: 0.03
    }
    bias_filler {
      type: "constant"
      value: 0.2
    }
  }
}
layer {
  name: "inception_4e/relu_1x1"
  type: "ReLU"
  bottom: "inception_4e/1x1"
  top: "inception_4e/1x1"
}
layer {
  name: "inception_4e/3x3_reduce"
  type: "Convolution"
  bottom: "inception_4d/output"
  top: "inception_4e/3x3_reduce"
  param {
    lr_mult: 1
    decay_mult: 1
  }
  param {
    lr_mult: 2
    decay_mult: 0
  }
  convolution_param {
    num_output: 160
    kernel_size: 1
    weight_filler {
      type: "xavier"
      std: 0.09
    }
    bias_filler {
      type: "constant"
      value: 0.2
    }
  }
}
layer {
  name: "inception_4e/relu_3x3_reduce"
  type: "ReLU"
  bottom: "inception_4e/3x3_reduce"
  top: "inception_4e/3x3_reduce"
}
layer {
  name: "inception_4e/3x3"
  type: "Convolution"
  bottom: "inception_4e/3x3_reduce"
  top: "inception_4e/3x3"
  param {
    lr_mult: 1
    decay_mult: 1
  }
  param {
    lr_mult: 2
    decay_mult: 0
  }
  convolution_param {
    num_output: 320
    pad: 1
    kernel_size: 3
    weight_filler {
      type: "xavier"
      std: 0.03
    }
    bias_filler {
      type: "constant"
      value: 0.2
    }
  }
}
layer {
  name: "inception_4e/relu_3x3"
  type: "ReLU"
  bottom: "inception_4e/3x3"
  top: "inception_4e/3x3"
}
layer {
  name: "inception_4e/5x5_reduce"
  type: "Convolution"
  bottom: "inception_4d/output"
  top: "inception_4e/5x5_reduce"
  param {
    lr_mult: 1
    decay_mult: 1
  }
  param {
    lr_mult: 2
    decay_mult: 0
  }
  convolution_param {
    num_output: 32
    kernel_size: 1
    weight_filler {
      type: "xavier"
      std: 0.2
    }
    bias_filler {
      type: "constant"
      value: 0.2
    }
  }
}
layer {
  name: "inception_4e/relu_5x5_reduce"
  type: "ReLU"
  bottom: "inception_4e/5x5_reduce"
  top: "inception_4e/5x5_reduce"
}
layer {
  name: "inception_4e/5x5"
  type: "Convolution"
  bottom: "inception_4e/5x5_reduce"
  top: "inception_4e/5x5"
  p
I0403 14:32:38.480981 13384 layer_factory.hpp:77] Creating layer data
I0403 14:32:38.481618 13384 net.cpp:91] Creating Layer data
I0403 14:32:38.481652 13384 net.cpp:399] data -> data
I0403 14:32:38.481705 13384 net.cpp:399] data -> label
I0403 14:32:38.481742 13384 data_transformer.cpp:25] Loading mean file from: /home/mohanty/data/final_dataset/lmdb/color-40-60/mean.binaryproto
I0403 14:32:38.484161 13387 db_lmdb.cpp:38] Opened lmdb /home/mohanty/data/final_dataset/lmdb/color-40-60/test_db
I0403 14:32:38.495409 13384 data_layer.cpp:41] output data size: 24,3,224,224
I0403 14:32:38.522689 13384 net.cpp:141] Setting up data
I0403 14:32:38.522768 13384 net.cpp:148] Top shape: 24 3 224 224 (3612672)
I0403 14:32:38.522790 13384 net.cpp:148] Top shape: 24 (24)
I0403 14:32:38.522807 13384 net.cpp:156] Memory required for data: 14450784
I0403 14:32:38.522835 13384 layer_factory.hpp:77] Creating layer label_data_1_split
I0403 14:32:38.522861 13384 net.cpp:91] Creating Layer label_data_1_split
I0403 14:32:38.522881 13384 net.cpp:425] label_data_1_split <- label
I0403 14:32:38.522913 13384 net.cpp:399] label_data_1_split -> label_data_1_split_0
I0403 14:32:38.522943 13384 net.cpp:399] label_data_1_split -> label_data_1_split_1
I0403 14:32:38.522965 13384 net.cpp:399] label_data_1_split -> label_data_1_split_2
I0403 14:32:38.522989 13384 net.cpp:399] label_data_1_split -> label_data_1_split_3
I0403 14:32:38.523010 13384 net.cpp:399] label_data_1_split -> label_data_1_split_4
I0403 14:32:38.523030 13384 net.cpp:399] label_data_1_split -> label_data_1_split_5
I0403 14:32:38.523049 13384 net.cpp:399] label_data_1_split -> label_data_1_split_6
I0403 14:32:38.523071 13384 net.cpp:399] label_data_1_split -> label_data_1_split_7
I0403 14:32:38.523090 13384 net.cpp:399] label_data_1_split -> label_data_1_split_8
I0403 14:32:38.523111 13384 net.cpp:399] label_data_1_split -> label_data_1_split_9
I0403 14:32:38.523226 13384 net.cpp:141] Setting up label_data_1_split
I0403 14:32:38.523249 13384 net.cpp:148] Top shape: 24 (24)
I0403 14:32:38.523269 13384 net.cpp:148] Top shape: 24 (24)
I0403 14:32:38.523286 13384 net.cpp:148] Top shape: 24 (24)
I0403 14:32:38.523303 13384 net.cpp:148] Top shape: 24 (24)
I0403 14:32:38.523319 13384 net.cpp:148] Top shape: 24 (24)
I0403 14:32:38.523334 13384 net.cpp:148] Top shape: 24 (24)
I0403 14:32:38.523350 13384 net.cpp:148] Top shape: 24 (24)
I0403 14:32:38.523366 13384 net.cpp:148] Top shape: 24 (24)
I0403 14:32:38.523382 13384 net.cpp:148] Top shape: 24 (24)
I0403 14:32:38.523398 13384 net.cpp:148] Top shape: 24 (24)
I0403 14:32:38.523452 13384 net.cpp:156] Memory required for data: 14451744
I0403 14:32:38.523468 13384 layer_factory.hpp:77] Creating layer conv1/7x7_s2
I0403 14:32:38.523501 13384 net.cpp:91] Creating Layer conv1/7x7_s2
I0403 14:32:38.523520 13384 net.cpp:425] conv1/7x7_s2 <- data
I0403 14:32:38.523540 13384 net.cpp:399] conv1/7x7_s2 -> conv1/7x7_s2
I0403 14:32:38.664245 13384 net.cpp:141] Setting up conv1/7x7_s2
I0403 14:32:38.664322 13384 net.cpp:148] Top shape: 24 64 112 112 (19267584)
I0403 14:32:38.664340 13384 net.cpp:156] Memory required for data: 91522080
I0403 14:32:38.664371 13384 layer_factory.hpp:77] Creating layer conv1/relu_7x7
I0403 14:32:38.664399 13384 net.cpp:91] Creating Layer conv1/relu_7x7
I0403 14:32:38.664418 13384 net.cpp:425] conv1/relu_7x7 <- conv1/7x7_s2
I0403 14:32:38.664438 13384 net.cpp:386] conv1/relu_7x7 -> conv1/7x7_s2 (in-place)
I0403 14:32:38.664715 13384 net.cpp:141] Setting up conv1/relu_7x7
I0403 14:32:38.664742 13384 net.cpp:148] Top shape: 24 64 112 112 (19267584)
I0403 14:32:38.664758 13384 net.cpp:156] Memory required for data: 168592416
I0403 14:32:38.664774 13384 layer_factory.hpp:77] Creating layer pool1/3x3_s2
I0403 14:32:38.664803 13384 net.cpp:91] Creating Layer pool1/3x3_s2
I0403 14:32:38.664821 13384 net.cpp:425] pool1/3x3_s2 <- conv1/7x7_s2
I0403 14:32:38.664840 13384 net.cpp:399] pool1/3x3_s2 -> pool1/3x3_s2
I0403 14:32:38.664916 13384 net.cpp:141] Setting up pool1/3x3_s2
I0403 14:32:38.664942 13384 net.cpp:148] Top shape: 24 64 56 56 (4816896)
I0403 14:32:38.664957 13384 net.cpp:156] Memory required for data: 187860000
I0403 14:32:38.664971 13384 layer_factory.hpp:77] Creating layer pool1/norm1
I0403 14:32:38.664996 13384 net.cpp:91] Creating Layer pool1/norm1
I0403 14:32:38.665014 13384 net.cpp:425] pool1/norm1 <- pool1/3x3_s2
I0403 14:32:38.665031 13384 net.cpp:399] pool1/norm1 -> pool1/norm1
I0403 14:32:38.665318 13384 net.cpp:141] Setting up pool1/norm1
I0403 14:32:38.665346 13384 net.cpp:148] Top shape: 24 64 56 56 (4816896)
I0403 14:32:38.665362 13384 net.cpp:156] Memory required for data: 207127584
I0403 14:32:38.665377 13384 layer_factory.hpp:77] Creating layer conv2/3x3_reduce
I0403 14:32:38.665415 13384 net.cpp:91] Creating Layer conv2/3x3_reduce
I0403 14:32:38.665432 13384 net.cpp:425] conv2/3x3_reduce <- pool1/norm1
I0403 14:32:38.665452 13384 net.cpp:399] conv2/3x3_reduce -> conv2/3x3_reduce
I0403 14:32:38.666813 13384 net.cpp:141] Setting up conv2/3x3_reduce
I0403 14:32:38.666846 13384 net.cpp:148] Top shape: 24 64 56 56 (4816896)
I0403 14:32:38.666863 13384 net.cpp:156] Memory required for data: 226395168
I0403 14:32:38.666887 13384 layer_factory.hpp:77] Creating layer conv2/relu_3x3_reduce
I0403 14:32:38.666905 13384 net.cpp:91] Creating Layer conv2/relu_3x3_reduce
I0403 14:32:38.666923 13384 net.cpp:425] conv2/relu_3x3_reduce <- conv2/3x3_reduce
I0403 14:32:38.666942 13384 net.cpp:386] conv2/relu_3x3_reduce -> conv2/3x3_reduce (in-place)
I0403 14:32:38.667212 13384 net.cpp:141] Setting up conv2/relu_3x3_reduce
I0403 14:32:38.667242 13384 net.cpp:148] Top shape: 24 64 56 56 (4816896)
I0403 14:32:38.667258 13384 net.cpp:156] Memory required for data: 245662752
I0403 14:32:38.667273 13384 layer_factory.hpp:77] Creating layer conv2/3x3
I0403 14:32:38.667299 13384 net.cpp:91] Creating Layer conv2/3x3
I0403 14:32:38.667316 13384 net.cpp:425] conv2/3x3 <- conv2/3x3_reduce
I0403 14:32:38.667337 13384 net.cpp:399] conv2/3x3 -> conv2/3x3
I0403 14:32:38.669739 13384 net.cpp:141] Setting up conv2/3x3
I0403 14:32:38.669772 13384 net.cpp:148] Top shape: 24 192 56 56 (14450688)
I0403 14:32:38.669790 13384 net.cpp:156] Memory required for data: 303465504
I0403 14:32:38.669811 13384 layer_factory.hpp:77] Creating layer conv2/relu_3x3
I0403 14:32:38.669831 13384 net.cpp:91] Creating Layer conv2/relu_3x3
I0403 14:32:38.669847 13384 net.cpp:425] conv2/relu_3x3 <- conv2/3x3
I0403 14:32:38.669868 13384 net.cpp:386] conv2/relu_3x3 -> conv2/3x3 (in-place)
I0403 14:32:38.670047 13384 net.cpp:141] Setting up conv2/relu_3x3
I0403 14:32:38.670073 13384 net.cpp:148] Top shape: 24 192 56 56 (14450688)
I0403 14:32:38.670120 13384 net.cpp:156] Memory required for data: 361268256
I0403 14:32:38.670136 13384 layer_factory.hpp:77] Creating layer conv2/norm2
I0403 14:32:38.670157 13384 net.cpp:91] Creating Layer conv2/norm2
I0403 14:32:38.670174 13384 net.cpp:425] conv2/norm2 <- conv2/3x3
I0403 14:32:38.670192 13384 net.cpp:399] conv2/norm2 -> conv2/norm2
I0403 14:32:38.670501 13384 net.cpp:141] Setting up conv2/norm2
I0403 14:32:38.670529 13384 net.cpp:148] Top shape: 24 192 56 56 (14450688)
I0403 14:32:38.670544 13384 net.cpp:156] Memory required for data: 419071008
I0403 14:32:38.670559 13384 layer_factory.hpp:77] Creating layer pool2/3x3_s2
I0403 14:32:38.670585 13384 net.cpp:91] Creating Layer pool2/3x3_s2
I0403 14:32:38.670604 13384 net.cpp:425] pool2/3x3_s2 <- conv2/norm2
I0403 14:32:38.670625 13384 net.cpp:399] pool2/3x3_s2 -> pool2/3x3_s2
I0403 14:32:38.670680 13384 net.cpp:141] Setting up pool2/3x3_s2
I0403 14:32:38.670703 13384 net.cpp:148] Top shape: 24 192 28 28 (3612672)
I0403 14:32:38.670718 13384 net.cpp:156] Memory required for data: 433521696
I0403 14:32:38.670733 13384 layer_factory.hpp:77] Creating layer pool2/3x3_s2_pool2/3x3_s2_0_split
I0403 14:32:38.670753 13384 net.cpp:91] Creating Layer pool2/3x3_s2_pool2/3x3_s2_0_split
I0403 14:32:38.670770 13384 net.cpp:425] pool2/3x3_s2_pool2/3x3_s2_0_split <- pool2/3x3_s2
I0403 14:32:38.670789 13384 net.cpp:399] pool2/3x3_s2_pool2/3x3_s2_0_split -> pool2/3x3_s2_pool2/3x3_s2_0_split_0
I0403 14:32:38.670809 13384 net.cpp:399] pool2/3x3_s2_pool2/3x3_s2_0_split -> pool2/3x3_s2_pool2/3x3_s2_0_split_1
I0403 14:32:38.670828 13384 net.cpp:399] pool2/3x3_s2_pool2/3x3_s2_0_split -> pool2/3x3_s2_pool2/3x3_s2_0_split_2
I0403 14:32:38.670850 13384 net.cpp:399] pool2/3x3_s2_pool2/3x3_s2_0_split -> pool2/3x3_s2_pool2/3x3_s2_0_split_3
I0403 14:32:38.670922 13384 net.cpp:141] Setting up pool2/3x3_s2_pool2/3x3_s2_0_split
I0403 14:32:38.670944 13384 net.cpp:148] Top shape: 24 192 28 28 (3612672)
I0403 14:32:38.670961 13384 net.cpp:148] Top shape: 24 192 28 28 (3612672)
I0403 14:32:38.670977 13384 net.cpp:148] Top shape: 24 192 28 28 (3612672)
I0403 14:32:38.670994 13384 net.cpp:148] Top shape: 24 192 28 28 (3612672)
I0403 14:32:38.671008 13384 net.cpp:156] Memory required for data: 491324448
I0403 14:32:38.671022 13384 layer_factory.hpp:77] Creating layer inception_3a/1x1
I0403 14:32:38.671046 13384 net.cpp:91] Creating Layer inception_3a/1x1
I0403 14:32:38.671062 13384 net.cpp:425] inception_3a/1x1 <- pool2/3x3_s2_pool2/3x3_s2_0_split_0
I0403 14:32:38.671083 13384 net.cpp:399] inception_3a/1x1 -> inception_3a/1x1
I0403 14:32:38.672647 13384 net.cpp:141] Setting up inception_3a/1x1
I0403 14:32:38.672683 13384 net.cpp:148] Top shape: 24 64 28 28 (1204224)
I0403 14:32:38.672699 13384 net.cpp:156] Memory required for data: 496141344
I0403 14:32:38.672719 13384 layer_factory.hpp:77] Creating layer inception_3a/relu_1x1
I0403 14:32:38.672737 13384 net.cpp:91] Creating Layer inception_3a/relu_1x1
I0403 14:32:38.672754 13384 net.cpp:425] inception_3a/relu_1x1 <- inception_3a/1x1
I0403 14:32:38.672773 13384 net.cpp:386] inception_3a/relu_1x1 -> inception_3a/1x1 (in-place)
I0403 14:32:38.672943 13384 net.cpp:141] Setting up inception_3a/relu_1x1
I0403 14:32:38.672968 13384 net.cpp:148] Top shape: 24 64 28 28 (1204224)
I0403 14:32:38.672983 13384 net.cpp:156] Memory required for data: 500958240
I0403 14:32:38.672999 13384 layer_factory.hpp:77] Creating layer inception_3a/3x3_reduce
I0403 14:32:38.673022 13384 net.cpp:91] Creating Layer inception_3a/3x3_reduce
I0403 14:32:38.673040 13384 net.cpp:425] inception_3a/3x3_reduce <- pool2/3x3_s2_pool2/3x3_s2_0_split_1
I0403 14:32:38.673061 13384 net.cpp:399] inception_3a/3x3_reduce -> inception_3a/3x3_reduce
I0403 14:32:38.674762 13384 net.cpp:141] Setting up inception_3a/3x3_reduce
I0403 14:32:38.674793 13384 net.cpp:148] Top shape: 24 96 28 28 (1806336)
I0403 14:32:38.674810 13384 net.cpp:156] Memory required for data: 508183584
I0403 14:32:38.674831 13384 layer_factory.hpp:77] Creating layer inception_3a/relu_3x3_reduce
I0403 14:32:38.674870 13384 net.cpp:91] Creating Layer inception_3a/relu_3x3_reduce
I0403 14:32:38.674888 13384 net.cpp:425] inception_3a/relu_3x3_reduce <- inception_3a/3x3_reduce
I0403 14:32:38.674906 13384 net.cpp:386] inception_3a/relu_3x3_reduce -> inception_3a/3x3_reduce (in-place)
I0403 14:32:38.675084 13384 net.cpp:141] Setting up inception_3a/relu_3x3_reduce
I0403 14:32:38.675109 13384 net.cpp:148] Top shape: 24 96 28 28 (1806336)
I0403 14:32:38.675124 13384 net.cpp:156] Memory required for data: 515408928
I0403 14:32:38.675139 13384 layer_factory.hpp:77] Creating layer inception_3a/3x3
I0403 14:32:38.675165 13384 net.cpp:91] Creating Layer inception_3a/3x3
I0403 14:32:38.675182 13384 net.cpp:425] inception_3a/3x3 <- inception_3a/3x3_reduce
I0403 14:32:38.675201 13384 net.cpp:399] inception_3a/3x3 -> inception_3a/3x3
I0403 14:32:38.676831 13384 net.cpp:141] Setting up inception_3a/3x3
I0403 14:32:38.676870 13384 net.cpp:148] Top shape: 24 128 28 28 (2408448)
I0403 14:32:38.676885 13384 net.cpp:156] Memory required for data: 525042720
I0403 14:32:38.676903 13384 layer_factory.hpp:77] Creating layer inception_3a/relu_3x3
I0403 14:32:38.676921 13384 net.cpp:91] Creating Layer inception_3a/relu_3x3
I0403 14:32:38.676937 13384 net.cpp:425] inception_3a/relu_3x3 <- inception_3a/3x3
I0403 14:32:38.676956 13384 net.cpp:386] inception_3a/relu_3x3 -> inception_3a/3x3 (in-place)
I0403 14:32:38.677217 13384 net.cpp:141] Setting up inception_3a/relu_3x3
I0403 14:32:38.677243 13384 net.cpp:148] Top shape: 24 128 28 28 (2408448)
I0403 14:32:38.677258 13384 net.cpp:156] Memory required for data: 534676512
I0403 14:32:38.677273 13384 layer_factory.hpp:77] Creating layer inception_3a/5x5_reduce
I0403 14:32:38.677294 13384 net.cpp:91] Creating Layer inception_3a/5x5_reduce
I0403 14:32:38.677311 13384 net.cpp:425] inception_3a/5x5_reduce <- pool2/3x3_s2_pool2/3x3_s2_0_split_2
I0403 14:32:38.677331 13384 net.cpp:399] inception_3a/5x5_reduce -> inception_3a/5x5_reduce
I0403 14:32:38.678246 13384 net.cpp:141] Setting up inception_3a/5x5_reduce
I0403 14:32:38.678272 13384 net.cpp:148] Top shape: 24 16 28 28 (301056)
I0403 14:32:38.678287 13384 net.cpp:156] Memory required for data: 535880736
I0403 14:32:38.678305 13384 layer_factory.hpp:77] Creating layer inception_3a/relu_5x5_reduce
I0403 14:32:38.678323 13384 net.cpp:91] Creating Layer inception_3a/relu_5x5_reduce
I0403 14:32:38.678339 13384 net.cpp:425] inception_3a/relu_5x5_reduce <- inception_3a/5x5_reduce
I0403 14:32:38.678359 13384 net.cpp:386] inception_3a/relu_5x5_reduce -> inception_3a/5x5_reduce (in-place)
I0403 14:32:38.678649 13384 net.cpp:141] Setting up inception_3a/relu_5x5_reduce
I0403 14:32:38.678675 13384 net.cpp:148] Top shape: 24 16 28 28 (301056)
I0403 14:32:38.678690 13384 net.cpp:156] Memory required for data: 537084960
I0403 14:32:38.678704 13384 layer_factory.hpp:77] Creating layer inception_3a/5x5
I0403 14:32:38.678726 13384 net.cpp:91] Creating Layer inception_3a/5x5
I0403 14:32:38.678743 13384 net.cpp:425] inception_3a/5x5 <- inception_3a/5x5_reduce
I0403 14:32:38.678764 13384 net.cpp:399] inception_3a/5x5 -> inception_3a/5x5
I0403 14:32:38.679730 13384 net.cpp:141] Setting up inception_3a/5x5
I0403 14:32:38.679757 13384 net.cpp:148] Top shape: 24 32 28 28 (602112)
I0403 14:32:38.679774 13384 net.cpp:156] Memory required for data: 539493408
I0403 14:32:38.679791 13384 layer_factory.hpp:77] Creating layer inception_3a/relu_5x5
I0403 14:32:38.679808 13384 net.cpp:91] Creating Layer inception_3a/relu_5x5
I0403 14:32:38.679824 13384 net.cpp:425] inception_3a/relu_5x5 <- inception_3a/5x5
I0403 14:32:38.679843 13384 net.cpp:386] inception_3a/relu_5x5 -> inception_3a/5x5 (in-place)
I0403 14:32:38.680009 13384 net.cpp:141] Setting up inception_3a/relu_5x5
I0403 14:32:38.680033 13384 net.cpp:148] Top shape: 24 32 28 28 (602112)
I0403 14:32:38.680048 13384 net.cpp:156] Memory required for data: 541901856
I0403 14:32:38.680063 13384 layer_factory.hpp:77] Creating layer inception_3a/pool
I0403 14:32:38.680083 13384 net.cpp:91] Creating Layer inception_3a/pool
I0403 14:32:38.680099 13384 net.cpp:425] inception_3a/pool <- pool2/3x3_s2_pool2/3x3_s2_0_split_3
I0403 14:32:38.680130 13384 net.cpp:399] inception_3a/pool -> inception_3a/pool
I0403 14:32:38.680187 13384 net.cpp:141] Setting up inception_3a/pool
I0403 14:32:38.680210 13384 net.cpp:148] Top shape: 24 192 28 28 (3612672)
I0403 14:32:38.680224 13384 net.cpp:156] Memory required for data: 556352544
I0403 14:32:38.680238 13384 layer_factory.hpp:77] Creating layer inception_3a/pool_proj
I0403 14:32:38.680260 13384 net.cpp:91] Creating Layer inception_3a/pool_proj
I0403 14:32:38.680279 13384 net.cpp:425] inception_3a/pool_proj <- inception_3a/pool
I0403 14:32:38.680297 13384 net.cpp:399] inception_3a/pool_proj -> inception_3a/pool_proj
I0403 14:32:38.681218 13384 net.cpp:141] Setting up inception_3a/pool_proj
I0403 14:32:38.681247 13384 net.cpp:148] Top shape: 24 32 28 28 (602112)
I0403 14:32:38.681263 13384 net.cpp:156] Memory required for data: 558760992
I0403 14:32:38.681284 13384 layer_factory.hpp:77] Creating layer inception_3a/relu_pool_proj
I0403 14:32:38.681303 13384 net.cpp:91] Creating Layer inception_3a/relu_pool_proj
I0403 14:32:38.681318 13384 net.cpp:425] inception_3a/relu_pool_proj <- inception_3a/pool_proj
I0403 14:32:38.681337 13384 net.cpp:386] inception_3a/relu_pool_proj -> inception_3a/pool_proj (in-place)
I0403 14:32:38.681608 13384 net.cpp:141] Setting up inception_3a/relu_pool_proj
I0403 14:32:38.681634 13384 net.cpp:148] Top shape: 24 32 28 28 (602112)
I0403 14:32:38.681649 13384 net.cpp:156] Memory required for data: 561169440
I0403 14:32:38.681664 13384 layer_factory.hpp:77] Creating layer inception_3a/output
I0403 14:32:38.681681 13384 net.cpp:91] Creating Layer inception_3a/output
I0403 14:32:38.681697 13384 net.cpp:425] inception_3a/output <- inception_3a/1x1
I0403 14:32:38.681713 13384 net.cpp:425] inception_3a/output <- inception_3a/3x3
I0403 14:32:38.681730 13384 net.cpp:425] inception_3a/output <- inception_3a/5x5
I0403 14:32:38.681745 13384 net.cpp:425] inception_3a/output <- inception_3a/pool_proj
I0403 14:32:38.681763 13384 net.cpp:399] inception_3a/output -> inception_3a/output
I0403 14:32:38.681807 13384 net.cpp:141] Setting up inception_3a/output
I0403 14:32:38.681833 13384 net.cpp:148] Top shape: 24 256 28 28 (4816896)
I0403 14:32:38.681849 13384 net.cpp:156] Memory required for data: 580437024
I0403 14:32:38.681864 13384 layer_factory.hpp:77] Creating layer inception_3a/output_inception_3a/output_0_split
I0403 14:32:38.681879 13384 net.cpp:91] Creating Layer inception_3a/output_inception_3a/output_0_split
I0403 14:32:38.681895 13384 net.cpp:425] inception_3a/output_inception_3a/output_0_split <- inception_3a/output
I0403 14:32:38.681910 13384 net.cpp:399] inception_3a/output_inception_3a/output_0_split -> inception_3a/output_inception_3a/output_0_split_0
I0403 14:32:38.681929 13384 net.cpp:399] inception_3a/output_inception_3a/output_0_split -> inception_3a/output_inception_3a/output_0_split_1
I0403 14:32:38.681954 13384 net.cpp:399] inception_3a/output_inception_3a/output_0_split -> inception_3a/output_inception_3a/output_0_split_2
I0403 14:32:38.681977 13384 net.cpp:399] inception_3a/output_inception_3a/output_0_split -> inception_3a/output_inception_3a/output_0_split_3
I0403 14:32:38.682049 13384 net.cpp:141] Setting up inception_3a/output_inception_3a/output_0_split
I0403 14:32:38.682073 13384 net.cpp:148] Top shape: 24 256 28 28 (4816896)
I0403 14:32:38.682090 13384 net.cpp:148] Top shape: 24 256 28 28 (4816896)
I0403 14:32:38.682106 13384 net.cpp:148] Top shape: 24 256 28 28 (4816896)
I0403 14:32:38.682121 13384 net.cpp:148] Top shape: 24 256 28 28 (4816896)
I0403 14:32:38.682135 13384 net.cpp:156] Memory required for data: 657507360
I0403 14:32:38.682149 13384 layer_factory.hpp:77] Creating layer inception_3b/1x1
I0403 14:32:38.682171 13384 net.cpp:91] Creating Layer inception_3b/1x1
I0403 14:32:38.682188 13384 net.cpp:425] inception_3b/1x1 <- inception_3a/output_inception_3a/output_0_split_0
I0403 14:32:38.682205 13384 net.cpp:399] inception_3b/1x1 -> inception_3b/1x1
I0403 14:32:38.683296 13384 net.cpp:141] Setting up inception_3b/1x1
I0403 14:32:38.683337 13384 net.cpp:148] Top shape: 24 128 28 28 (2408448)
I0403 14:32:38.683354 13384 net.cpp:156] Memory required for data: 667141152
I0403 14:32:38.683372 13384 layer_factory.hpp:77] Creating layer inception_3b/relu_1x1
I0403 14:32:38.683389 13384 net.cpp:91] Creating Layer inception_3b/relu_1x1
I0403 14:32:38.683404 13384 net.cpp:425] inception_3b/relu_1x1 <- inception_3b/1x1
I0403 14:32:38.683424 13384 net.cpp:386] inception_3b/relu_1x1 -> inception_3b/1x1 (in-place)
I0403 14:32:38.683594 13384 net.cpp:141] Setting up inception_3b/relu_1x1
I0403 14:32:38.683619 13384 net.cpp:148] Top shape: 24 128 28 28 (2408448)
I0403 14:32:38.683634 13384 net.cpp:156] Memory required for data: 676774944
I0403 14:32:38.683648 13384 layer_factory.hpp:77] Creating layer inception_3b/3x3_reduce
I0403 14:32:38.683670 13384 net.cpp:91] Creating Layer inception_3b/3x3_reduce
I0403 14:32:38.683686 13384 net.cpp:425] inception_3b/3x3_reduce <- inception_3a/output_inception_3a/output_0_split_1
I0403 14:32:38.683707 13384 net.cpp:399] inception_3b/3x3_reduce -> inception_3b/3x3_reduce
I0403 14:32:38.684840 13384 net.cpp:141] Setting up inception_3b/3x3_reduce
I0403 14:32:38.684872 13384 net.cpp:148] Top shape: 24 128 28 28 (2408448)
I0403 14:32:38.684890 13384 net.cpp:156] Memory required for data: 686408736
I0403 14:32:38.684907 13384 layer_factory.hpp:77] Creating layer inception_3b/relu_3x3_reduce
I0403 14:32:38.684924 13384 net.cpp:91] Creating Layer inception_3b/relu_3x3_reduce
I0403 14:32:38.684940 13384 net.cpp:425] inception_3b/relu_3x3_reduce <- inception_3b/3x3_reduce
I0403 14:32:38.684957 13384 net.cpp:386] inception_3b/relu_3x3_reduce -> inception_3b/3x3_reduce (in-place)
I0403 14:32:38.685132 13384 net.cpp:141] Setting up inception_3b/relu_3x3_reduce
I0403 14:32:38.685156 13384 net.cpp:148] Top shape: 24 128 28 28 (2408448)
I0403 14:32:38.685171 13384 net.cpp:156] Memory required for data: 696042528
I0403 14:32:38.685185 13384 layer_factory.hpp:77] Creating layer inception_3b/3x3
I0403 14:32:38.685210 13384 net.cpp:91] Creating Layer inception_3b/3x3
I0403 14:32:38.685228 13384 net.cpp:425] inception_3b/3x3 <- inception_3b/3x3_reduce
I0403 14:32:38.685250 13384 net.cpp:399] inception_3b/3x3 -> inception_3b/3x3
I0403 14:32:38.688765 13384 net.cpp:141] Setting up inception_3b/3x3
I0403 14:32:38.688792 13384 net.cpp:148] Top shape: 24 192 28 28 (3612672)
I0403 14:32:38.688808 13384 net.cpp:156] Memory required for data: 710493216
I0403 14:32:38.688825 13384 layer_factory.hpp:77] Creating layer inception_3b/relu_3x3
I0403 14:32:38.688843 13384 net.cpp:91] Creating Layer inception_3b/relu_3x3
I0403 14:32:38.688859 13384 net.cpp:425] inception_3b/relu_3x3 <- inception_3b/3x3
I0403 14:32:38.688879 13384 net.cpp:386] inception_3b/relu_3x3 -> inception_3b/3x3 (in-place)
I0403 14:32:38.689144 13384 net.cpp:141] Setting up inception_3b/relu_3x3
I0403 14:32:38.689169 13384 net.cpp:148] Top shape: 24 192 28 28 (3612672)
I0403 14:32:38.689184 13384 net.cpp:156] Memory required for data: 724943904
I0403 14:32:38.689199 13384 layer_factory.hpp:77] Creating layer inception_3b/5x5_reduce
I0403 14:32:38.689221 13384 net.cpp:91] Creating Layer inception_3b/5x5_reduce
I0403 14:32:38.689239 13384 net.cpp:425] inception_3b/5x5_reduce <- inception_3a/output_inception_3a/output_0_split_2
I0403 14:32:38.689260 13384 net.cpp:399] inception_3b/5x5_reduce -> inception_3b/5x5_reduce
I0403 14:32:38.690217 13384 net.cpp:141] Setting up inception_3b/5x5_reduce
I0403 14:32:38.690256 13384 net.cpp:148] Top shape: 24 32 28 28 (602112)
I0403 14:32:38.690273 13384 net.cpp:156] Memory required for data: 727352352
I0403 14:32:38.690289 13384 layer_factory.hpp:77] Creating layer inception_3b/relu_5x5_reduce
I0403 14:32:38.690309 13384 net.cpp:91] Creating Layer inception_3b/relu_5x5_reduce
I0403 14:32:38.690325 13384 net.cpp:425] inception_3b/relu_5x5_reduce <- inception_3b/5x5_reduce
I0403 14:32:38.690347 13384 net.cpp:386] inception_3b/relu_5x5_reduce -> inception_3b/5x5_reduce (in-place)
I0403 14:32:38.690521 13384 net.cpp:141] Setting up inception_3b/relu_5x5_reduce
I0403 14:32:38.690572 13384 net.cpp:148] Top shape: 24 32 28 28 (602112)
I0403 14:32:38.690589 13384 net.cpp:156] Memory required for data: 729760800
I0403 14:32:38.690604 13384 layer_factory.hpp:77] Creating layer inception_3b/5x5
I0403 14:32:38.690626 13384 net.cpp:91] Creating Layer inception_3b/5x5
I0403 14:32:38.690642 13384 net.cpp:425] inception_3b/5x5 <- inception_3b/5x5_reduce
I0403 14:32:38.690664 13384 net.cpp:399] inception_3b/5x5 -> inception_3b/5x5
I0403 14:32:38.692587 13384 net.cpp:141] Setting up inception_3b/5x5
I0403 14:32:38.692618 13384 net.cpp:148] Top shape: 24 96 28 28 (1806336)
I0403 14:32:38.692636 13384 net.cpp:156] Memory required for data: 736986144
I0403 14:32:38.692653 13384 layer_factory.hpp:77] Creating layer inception_3b/relu_5x5
I0403 14:32:38.692672 13384 net.cpp:91] Creating Layer inception_3b/relu_5x5
I0403 14:32:38.692688 13384 net.cpp:425] inception_3b/relu_5x5 <- inception_3b/5x5
I0403 14:32:38.692705 13384 net.cpp:386] inception_3b/relu_5x5 -> inception_3b/5x5 (in-place)
I0403 14:32:38.692908 13384 net.cpp:141] Setting up inception_3b/relu_5x5
I0403 14:32:38.692932 13384 net.cpp:148] Top shape: 24 96 28 28 (1806336)
I0403 14:32:38.692947 13384 net.cpp:156] Memory required for data: 744211488
I0403 14:32:38.692961 13384 layer_factory.hpp:77] Creating layer inception_3b/pool
I0403 14:32:38.692980 13384 net.cpp:91] Creating Layer inception_3b/pool
I0403 14:32:38.692996 13384 net.cpp:425] inception_3b/pool <- inception_3a/output_inception_3a/output_0_split_3
I0403 14:32:38.693013 13384 net.cpp:399] inception_3b/pool -> inception_3b/pool
I0403 14:32:38.693068 13384 net.cpp:141] Setting up inception_3b/pool
I0403 14:32:38.693094 13384 net.cpp:148] Top shape: 24 256 28 28 (4816896)
I0403 14:32:38.693110 13384 net.cpp:156] Memory required for data: 763479072
I0403 14:32:38.693125 13384 layer_factory.hpp:77] Creating layer inception_3b/pool_proj
I0403 14:32:38.693146 13384 net.cpp:91] Creating Layer inception_3b/pool_proj
I0403 14:32:38.693163 13384 net.cpp:425] inception_3b/pool_proj <- inception_3b/pool
I0403 14:32:38.693182 13384 net.cpp:399] inception_3b/pool_proj -> inception_3b/pool_proj
I0403 14:32:38.694221 13384 net.cpp:141] Setting up inception_3b/pool_proj
I0403 14:32:38.694248 13384 net.cpp:148] Top shape: 24 64 28 28 (1204224)
I0403 14:32:38.694265 13384 net.cpp:156] Memory required for data: 768295968
I0403 14:32:38.694283 13384 layer_factory.hpp:77] Creating layer inception_3b/relu_pool_proj
I0403 14:32:38.694303 13384 net.cpp:91] Creating Layer inception_3b/relu_pool_proj
I0403 14:32:38.694320 13384 net.cpp:425] inception_3b/relu_pool_proj <- inception_3b/pool_proj
I0403 14:32:38.694339 13384 net.cpp:386] inception_3b/relu_pool_proj -> inception_3b/pool_proj (in-place)
I0403 14:32:38.694751 13384 net.cpp:141] Setting up inception_3b/relu_pool_proj
I0403 14:32:38.694778 13384 net.cpp:148] Top shape: 24 64 28 28 (1204224)
I0403 14:32:38.694797 13384 net.cpp:156] Memory required for data: 773112864
I0403 14:32:38.694813 13384 layer_factory.hpp:77] Creating layer inception_3b/output
I0403 14:32:38.694830 13384 net.cpp:91] Creating Layer inception_3b/output
I0403 14:32:38.694846 13384 net.cpp:425] inception_3b/output <- inception_3b/1x1
I0403 14:32:38.694864 13384 net.cpp:425] inception_3b/output <- inception_3b/3x3
I0403 14:32:38.694880 13384 net.cpp:425] inception_3b/output <- inception_3b/5x5
I0403 14:32:38.694896 13384 net.cpp:425] inception_3b/output <- inception_3b/pool_proj
I0403 14:32:38.694916 13384 net.cpp:399] inception_3b/output -> inception_3b/output
I0403 14:32:38.694962 13384 net.cpp:141] Setting up inception_3b/output
I0403 14:32:38.694986 13384 net.cpp:148] Top shape: 24 480 28 28 (9031680)
I0403 14:32:38.695001 13384 net.cpp:156] Memory required for data: 809239584
I0403 14:32:38.695015 13384 layer_factory.hpp:77] Creating layer pool3/3x3_s2
I0403 14:32:38.695032 13384 net.cpp:91] Creating Layer pool3/3x3_s2
I0403 14:32:38.695049 13384 net.cpp:425] pool3/3x3_s2 <- inception_3b/output
I0403 14:32:38.695068 13384 net.cpp:399] pool3/3x3_s2 -> pool3/3x3_s2
I0403 14:32:38.695140 13384 net.cpp:141] Setting up pool3/3x3_s2
I0403 14:32:38.695164 13384 net.cpp:148] Top shape: 24 480 14 14 (2257920)
I0403 14:32:38.695178 13384 net.cpp:156] Memory required for data: 818271264
I0403 14:32:38.695194 13384 layer_factory.hpp:77] Creating layer pool3/3x3_s2_pool3/3x3_s2_0_split
I0403 14:32:38.695212 13384 net.cpp:91] Creating Layer pool3/3x3_s2_pool3/3x3_s2_0_split
I0403 14:32:38.695228 13384 net.cpp:425] pool3/3x3_s2_pool3/3x3_s2_0_split <- pool3/3x3_s2
I0403 14:32:38.695245 13384 net.cpp:399] pool3/3x3_s2_pool3/3x3_s2_0_split -> pool3/3x3_s2_pool3/3x3_s2_0_split_0
I0403 14:32:38.695266 13384 net.cpp:399] pool3/3x3_s2_pool3/3x3_s2_0_split -> pool3/3x3_s2_pool3/3x3_s2_0_split_1
I0403 14:32:38.695289 13384 net.cpp:399] pool3/3x3_s2_pool3/3x3_s2_0_split -> pool3/3x3_s2_pool3/3x3_s2_0_split_2
I0403 14:32:38.695309 13384 net.cpp:399] pool3/3x3_s2_pool3/3x3_s2_0_split -> pool3/3x3_s2_pool3/3x3_s2_0_split_3
I0403 14:32:38.695384 13384 net.cpp:141] Setting up pool3/3x3_s2_pool3/3x3_s2_0_split
I0403 14:32:38.695406 13384 net.cpp:148] Top shape: 24 480 14 14 (2257920)
I0403 14:32:38.695423 13384 net.cpp:148] Top shape: 24 480 14 14 (2257920)
I0403 14:32:38.695439 13384 net.cpp:148] Top shape: 24 480 14 14 (2257920)
I0403 14:32:38.695454 13384 net.cpp:148] Top shape: 24 480 14 14 (2257920)
I0403 14:32:38.695468 13384 net.cpp:156] Memory required for data: 854397984
I0403 14:32:38.695483 13384 layer_factory.hpp:77] Creating layer inception_4a/1x1
I0403 14:32:38.695505 13384 net.cpp:91] Creating Layer inception_4a/1x1
I0403 14:32:38.695523 13384 net.cpp:425] inception_4a/1x1 <- pool3/3x3_s2_pool3/3x3_s2_0_split_0
I0403 14:32:38.695547 13384 net.cpp:399] inception_4a/1x1 -> inception_4a/1x1
I0403 14:32:38.697115 13384 net.cpp:141] Setting up inception_4a/1x1
I0403 14:32:38.697142 13384 net.cpp:148] Top shape: 24 192 14 14 (903168)
I0403 14:32:38.697157 13384 net.cpp:156] Memory required for data: 858010656
I0403 14:32:38.697175 13384 layer_factory.hpp:77] Creating layer inception_4a/relu_1x1
I0403 14:32:38.697197 13384 net.cpp:91] Creating Layer inception_4a/relu_1x1
I0403 14:32:38.697213 13384 net.cpp:425] inception_4a/relu_1x1 <- inception_4a/1x1
I0403 14:32:38.697230 13384 net.cpp:386] inception_4a/relu_1x1 -> inception_4a/1x1 (in-place)
I0403 14:32:38.697407 13384 net.cpp:141] Setting up inception_4a/relu_1x1
I0403 14:32:38.697434 13384 net.cpp:148] Top shape: 24 192 14 14 (903168)
I0403 14:32:38.697449 13384 net.cpp:156] Memory required for data: 861623328
I0403 14:32:38.697463 13384 layer_factory.hpp:77] Creating layer inception_4a/3x3_reduce
I0403 14:32:38.697485 13384 net.cpp:91] Creating Layer inception_4a/3x3_reduce
I0403 14:32:38.697501 13384 net.cpp:425] inception_4a/3x3_reduce <- pool3/3x3_s2_pool3/3x3_s2_0_split_1
I0403 14:32:38.697520 13384 net.cpp:399] inception_4a/3x3_reduce -> inception_4a/3x3_reduce
I0403 14:32:38.698753 13384 net.cpp:141] Setting up inception_4a/3x3_reduce
I0403 14:32:38.698779 13384 net.cpp:148] Top shape: 24 96 14 14 (451584)
I0403 14:32:38.698794 13384 net.cpp:156] Memory required for data: 863429664
I0403 14:32:38.698818 13384 layer_factory.hpp:77] Creating layer inception_4a/relu_3x3_reduce
I0403 14:32:38.698840 13384 net.cpp:91] Creating Layer inception_4a/relu_3x3_reduce
I0403 14:32:38.698856 13384 net.cpp:425] inception_4a/relu_3x3_reduce <- inception_4a/3x3_reduce
I0403 14:32:38.698874 13384 net.cpp:386] inception_4a/relu_3x3_reduce -> inception_4a/3x3_reduce (in-place)
I0403 14:32:38.699043 13384 net.cpp:141] Setting up inception_4a/relu_3x3_reduce
I0403 14:32:38.699066 13384 net.cpp:148] Top shape: 24 96 14 14 (451584)
I0403 14:32:38.699080 13384 net.cpp:156] Memory required for data: 865236000
I0403 14:32:38.699095 13384 layer_factory.hpp:77] Creating layer inception_4a/3x3
I0403 14:32:38.699117 13384 net.cpp:91] Creating Layer inception_4a/3x3
I0403 14:32:38.699134 13384 net.cpp:425] inception_4a/3x3 <- inception_4a/3x3_reduce
I0403 14:32:38.699152 13384 net.cpp:399] inception_4a/3x3 -> inception_4a/3x3
I0403 14:32:38.701736 13384 net.cpp:141] Setting up inception_4a/3x3
I0403 14:32:38.701766 13384 net.cpp:148] Top shape: 24 208 14 14 (978432)
I0403 14:32:38.701783 13384 net.cpp:156] Memory required for data: 869149728
I0403 14:32:38.701800 13384 layer_factory.hpp:77] Creating layer inception_4a/relu_3x3
I0403 14:32:38.701819 13384 net.cpp:91] Creating Layer inception_4a/relu_3x3
I0403 14:32:38.701835 13384 net.cpp:425] inception_4a/relu_3x3 <- inception_4a/3x3
I0403 14:32:38.701851 13384 net.cpp:386] inception_4a/relu_3x3 -> inception_4a/3x3 (in-place)
I0403 14:32:38.702118 13384 net.cpp:141] Setting up inception_4a/relu_3x3
I0403 14:32:38.702147 13384 net.cpp:148] Top shape: 24 208 14 14 (978432)
I0403 14:32:38.702162 13384 net.cpp:156] Memory required for data: 873063456
I0403 14:32:38.702177 13384 layer_factory.hpp:77] Creating layer inception_4a/5x5_reduce
I0403 14:32:38.702198 13384 net.cpp:91] Creating Layer inception_4a/5x5_reduce
I0403 14:32:38.702215 13384 net.cpp:425] inception_4a/5x5_reduce <- pool3/3x3_s2_pool3/3x3_s2_0_split_2
I0403 14:32:38.702234 13384 net.cpp:399] inception_4a/5x5_reduce -> inception_4a/5x5_reduce
I0403 14:32:38.703209 13384 net.cpp:141] Setting up inception_4a/5x5_reduce
I0403 14:32:38.703236 13384 net.cpp:148] Top shape: 24 16 14 14 (75264)
I0403 14:32:38.703251 13384 net.cpp:156] Memory required for data: 873364512
I0403 14:32:38.703269 13384 layer_factory.hpp:77] Creating layer inception_4a/relu_5x5_reduce
I0403 14:32:38.703286 13384 net.cpp:91] Creating Layer inception_4a/relu_5x5_reduce
I0403 14:32:38.703301 13384 net.cpp:425] inception_4a/relu_5x5_reduce <- inception_4a/5x5_reduce
I0403 14:32:38.703320 13384 net.cpp:386] inception_4a/relu_5x5_reduce -> inception_4a/5x5_reduce (in-place)
I0403 14:32:38.703490 13384 net.cpp:141] Setting up inception_4a/relu_5x5_reduce
I0403 14:32:38.703516 13384 net.cpp:148] Top shape: 24 16 14 14 (75264)
I0403 14:32:38.703529 13384 net.cpp:156] Memory required for data: 873665568
I0403 14:32:38.703544 13384 layer_factory.hpp:77] Creating layer inception_4a/5x5
I0403 14:32:38.703567 13384 net.cpp:91] Creating Layer inception_4a/5x5
I0403 14:32:38.703588 13384 net.cpp:425] inception_4a/5x5 <- inception_4a/5x5_reduce
I0403 14:32:38.703611 13384 net.cpp:399] inception_4a/5x5 -> inception_4a/5x5
I0403 14:32:38.704660 13384 net.cpp:141] Setting up inception_4a/5x5
I0403 14:32:38.704687 13384 net.cpp:148] Top shape: 24 48 14 14 (225792)
I0403 14:32:38.704702 13384 net.cpp:156] Memory required for data: 874568736
I0403 14:32:38.704720 13384 layer_factory.hpp:77] Creating layer inception_4a/relu_5x5
I0403 14:32:38.704740 13384 net.cpp:91] Creating Layer inception_4a/relu_5x5
I0403 14:32:38.704756 13384 net.cpp:425] inception_4a/relu_5x5 <- inception_4a/5x5
I0403 14:32:38.704773 13384 net.cpp:386] inception_4a/relu_5x5 -> inception_4a/5x5 (in-place)
I0403 14:32:38.704944 13384 net.cpp:141] Setting up inception_4a/relu_5x5
I0403 14:32:38.704970 13384 net.cpp:148] Top shape: 24 48 14 14 (225792)
I0403 14:32:38.704987 13384 net.cpp:156] Memory required for data: 875471904
I0403 14:32:38.705000 13384 layer_factory.hpp:77] Creating layer inception_4a/pool
I0403 14:32:38.705018 13384 net.cpp:91] Creating Layer inception_4a/pool
I0403 14:32:38.705032 13384 net.cpp:425] inception_4a/pool <- pool3/3x3_s2_pool3/3x3_s2_0_split_3
I0403 14:32:38.705050 13384 net.cpp:399] inception_4a/pool -> inception_4a/pool
I0403 14:32:38.705111 13384 net.cpp:141] Setting up inception_4a/pool
I0403 14:32:38.705134 13384 net.cpp:148] Top shape: 24 480 14 14 (2257920)
I0403 14:32:38.705148 13384 net.cpp:156] Memory required for data: 884503584
I0403 14:32:38.705163 13384 layer_factory.hpp:77] Creating layer inception_4a/pool_proj
I0403 14:32:38.705183 13384 net.cpp:91] Creating Layer inception_4a/pool_proj
I0403 14:32:38.705201 13384 net.cpp:425] inception_4a/pool_proj <- inception_4a/pool
I0403 14:32:38.705221 13384 net.cpp:399] inception_4a/pool_proj -> inception_4a/pool_proj
I0403 14:32:38.706342 13384 net.cpp:141] Setting up inception_4a/pool_proj
I0403 14:32:38.706370 13384 net.cpp:148] Top shape: 24 64 14 14 (301056)
I0403 14:32:38.706400 13384 net.cpp:156] Memory required for data: 885707808
I0403 14:32:38.706420 13384 layer_factory.hpp:77] Creating layer inception_4a/relu_pool_proj
I0403 14:32:38.706441 13384 net.cpp:91] Creating Layer inception_4a/relu_pool_proj
I0403 14:32:38.706459 13384 net.cpp:425] inception_4a/relu_pool_proj <- inception_4a/pool_proj
I0403 14:32:38.706477 13384 net.cpp:386] inception_4a/relu_pool_proj -> inception_4a/pool_proj (in-place)
I0403 14:32:38.706776 13384 net.cpp:141] Setting up inception_4a/relu_pool_proj
I0403 14:32:38.706804 13384 net.cpp:148] Top shape: 24 64 14 14 (301056)
I0403 14:32:38.706818 13384 net.cpp:156] Memory required for data: 886912032
I0403 14:32:38.706833 13384 layer_factory.hpp:77] Creating layer inception_4a/output
I0403 14:32:38.706853 13384 net.cpp:91] Creating Layer inception_4a/output
I0403 14:32:38.706871 13384 net.cpp:425] inception_4a/output <- inception_4a/1x1
I0403 14:32:38.706887 13384 net.cpp:425] inception_4a/output <- inception_4a/3x3
I0403 14:32:38.706912 13384 net.cpp:425] inception_4a/output <- inception_4a/5x5
I0403 14:32:38.706928 13384 net.cpp:425] inception_4a/output <- inception_4a/pool_proj
I0403 14:32:38.706945 13384 net.cpp:399] inception_4a/output -> inception_4a/output
I0403 14:32:38.706993 13384 net.cpp:141] Setting up inception_4a/output
I0403 14:32:38.707017 13384 net.cpp:148] Top shape: 24 512 14 14 (2408448)
I0403 14:32:38.707031 13384 net.cpp:156] Memory required for data: 896545824
I0403 14:32:38.707046 13384 layer_factory.hpp:77] Creating layer inception_4a/output_inception_4a/output_0_split
I0403 14:32:38.707063 13384 net.cpp:91] Creating Layer inception_4a/output_inception_4a/output_0_split
I0403 14:32:38.707079 13384 net.cpp:425] inception_4a/output_inception_4a/output_0_split <- inception_4a/output
I0403 14:32:38.707099 13384 net.cpp:399] inception_4a/output_inception_4a/output_0_split -> inception_4a/output_inception_4a/output_0_split_0
I0403 14:32:38.707121 13384 net.cpp:399] inception_4a/output_inception_4a/output_0_split -> inception_4a/output_inception_4a/output_0_split_1
I0403 14:32:38.707144 13384 net.cpp:399] inception_4a/output_inception_4a/output_0_split -> inception_4a/output_inception_4a/output_0_split_2
I0403 14:32:38.707164 13384 net.cpp:399] inception_4a/output_inception_4a/output_0_split -> inception_4a/output_inception_4a/output_0_split_3
I0403 14:32:38.707183 13384 net.cpp:399] inception_4a/output_inception_4a/output_0_split -> inception_4a/output_inception_4a/output_0_split_4
I0403 14:32:38.707278 13384 net.cpp:141] Setting up inception_4a/output_inception_4a/output_0_split
I0403 14:32:38.707301 13384 net.cpp:148] Top shape: 24 512 14 14 (2408448)
I0403 14:32:38.707317 13384 net.cpp:148] Top shape: 24 512 14 14 (2408448)
I0403 14:32:38.707334 13384 net.cpp:148] Top shape: 24 512 14 14 (2408448)
I0403 14:32:38.707348 13384 net.cpp:148] Top shape: 24 512 14 14 (2408448)
I0403 14:32:38.707363 13384 net.cpp:148] Top shape: 24 512 14 14 (2408448)
I0403 14:32:38.707377 13384 net.cpp:156] Memory required for data: 944714784
I0403 14:32:38.707391 13384 layer_factory.hpp:77] Creating layer loss1/ave_pool
I0403 14:32:38.707409 13384 net.cpp:91] Creating Layer loss1/ave_pool
I0403 14:32:38.707425 13384 net.cpp:425] loss1/ave_pool <- inception_4a/output_inception_4a/output_0_split_0
I0403 14:32:38.707445 13384 net.cpp:399] loss1/ave_pool -> loss1/ave_pool
I0403 14:32:38.707653 13384 net.cpp:141] Setting up loss1/ave_pool
I0403 14:32:38.707679 13384 net.cpp:148] Top shape: 24 512 4 4 (196608)
I0403 14:32:38.707695 13384 net.cpp:156] Memory required for data: 945501216
I0403 14:32:38.707710 13384 layer_factory.hpp:77] Creating layer loss1/conv
I0403 14:32:38.707731 13384 net.cpp:91] Creating Layer loss1/conv
I0403 14:32:38.707749 13384 net.cpp:425] loss1/conv <- loss1/ave_pool
I0403 14:32:38.707770 13384 net.cpp:399] loss1/conv -> loss1/conv
I0403 14:32:38.709163 13384 net.cpp:141] Setting up loss1/conv
I0403 14:32:38.709194 13384 net.cpp:148] Top shape: 24 128 4 4 (49152)
I0403 14:32:38.709211 13384 net.cpp:156] Memory required for data: 945697824
I0403 14:32:38.709244 13384 layer_factory.hpp:77] Creating layer loss1/relu_conv
I0403 14:32:38.709266 13384 net.cpp:91] Creating Layer loss1/relu_conv
I0403 14:32:38.709281 13384 net.cpp:425] loss1/relu_conv <- loss1/conv
I0403 14:32:38.709301 13384 net.cpp:386] loss1/relu_conv -> loss1/conv (in-place)
I0403 14:32:38.709584 13384 net.cpp:141] Setting up loss1/relu_conv
I0403 14:32:38.709614 13384 net.cpp:148] Top shape: 24 128 4 4 (49152)
I0403 14:32:38.709630 13384 net.cpp:156] Memory required for data: 945894432
I0403 14:32:38.709645 13384 layer_factory.hpp:77] Creating layer loss1/fc
I0403 14:32:38.709668 13384 net.cpp:91] Creating Layer loss1/fc
I0403 14:32:38.709686 13384 net.cpp:425] loss1/fc <- loss1/conv
I0403 14:32:38.709707 13384 net.cpp:399] loss1/fc -> loss1/fc
I0403 14:32:38.727489 13384 net.cpp:141] Setting up loss1/fc
I0403 14:32:38.727529 13384 net.cpp:148] Top shape: 24 1024 (24576)
I0403 14:32:38.727547 13384 net.cpp:156] Memory required for data: 945992736
I0403 14:32:38.727571 13384 layer_factory.hpp:77] Creating layer loss1/relu_fc
I0403 14:32:38.727602 13384 net.cpp:91] Creating Layer loss1/relu_fc
I0403 14:32:38.727620 13384 net.cpp:425] loss1/relu_fc <- loss1/fc
I0403 14:32:38.727638 13384 net.cpp:386] loss1/relu_fc -> loss1/fc (in-place)
I0403 14:32:38.727843 13384 net.cpp:141] Setting up loss1/relu_fc
I0403 14:32:38.727874 13384 net.cpp:148] Top shape: 24 1024 (24576)
I0403 14:32:38.727890 13384 net.cpp:156] Memory required for data: 946091040
I0403 14:32:38.727905 13384 layer_factory.hpp:77] Creating layer loss1/drop_fc
I0403 14:32:38.727932 13384 net.cpp:91] Creating Layer loss1/drop_fc
I0403 14:32:38.727952 13384 net.cpp:425] loss1/drop_fc <- loss1/fc
I0403 14:32:38.727969 13384 net.cpp:386] loss1/drop_fc -> loss1/fc (in-place)
I0403 14:32:38.728024 13384 net.cpp:141] Setting up loss1/drop_fc
I0403 14:32:38.728049 13384 net.cpp:148] Top shape: 24 1024 (24576)
I0403 14:32:38.728063 13384 net.cpp:156] Memory required for data: 946189344
I0403 14:32:38.728080 13384 layer_factory.hpp:77] Creating layer loss1/classifier_plantvillage
I0403 14:32:38.728102 13384 net.cpp:91] Creating Layer loss1/classifier_plantvillage
I0403 14:32:38.728119 13384 net.cpp:425] loss1/classifier_plantvillage <- loss1/fc
I0403 14:32:38.728137 13384 net.cpp:399] loss1/classifier_plantvillage -> loss1/classifier_plantvillage
I0403 14:32:38.729082 13384 net.cpp:141] Setting up loss1/classifier_plantvillage
I0403 14:32:38.729113 13384 net.cpp:148] Top shape: 24 38 (912)
I0403 14:32:38.729130 13384 net.cpp:156] Memory required for data: 946192992
I0403 14:32:38.729149 13384 layer_factory.hpp:77] Creating layer loss1/classifier_plantvillage_loss1/classifier_plantvillage_0_split
I0403 14:32:38.729168 13384 net.cpp:91] Creating Layer loss1/classifier_plantvillage_loss1/classifier_plantvillage_0_split
I0403 14:32:38.729184 13384 net.cpp:425] loss1/classifier_plantvillage_loss1/classifier_plantvillage_0_split <- loss1/classifier_plantvillage
I0403 14:32:38.729202 13384 net.cpp:399] loss1/classifier_plantvillage_loss1/classifier_plantvillage_0_split -> loss1/classifier_plantvillage_loss1/classifier_plantvillage_0_split_0
I0403 14:32:38.729223 13384 net.cpp:399] loss1/classifier_plantvillage_loss1/classifier_plantvillage_0_split -> loss1/classifier_plantvillage_loss1/classifier_plantvillage_0_split_1
I0403 14:32:38.729245 13384 net.cpp:399] loss1/classifier_plantvillage_loss1/classifier_plantvillage_0_split -> loss1/classifier_plantvillage_loss1/classifier_plantvillage_0_split_2
I0403 14:32:38.729315 13384 net.cpp:141] Setting up loss1/classifier_plantvillage_loss1/classifier_plantvillage_0_split
I0403 14:32:38.729338 13384 net.cpp:148] Top shape: 24 38 (912)
I0403 14:32:38.729356 13384 net.cpp:148] Top shape: 24 38 (912)
I0403 14:32:38.729372 13384 net.cpp:148] Top shape: 24 38 (912)
I0403 14:32:38.729385 13384 net.cpp:156] Memory required for data: 946203936
I0403 14:32:38.729400 13384 layer_factory.hpp:77] Creating layer inception_4b/1x1
I0403 14:32:38.729423 13384 net.cpp:91] Creating Layer inception_4b/1x1
I0403 14:32:38.729476 13384 net.cpp:425] inception_4b/1x1 <- inception_4a/output_inception_4a/output_0_split_1
I0403 14:32:38.729501 13384 net.cpp:399] inception_4b/1x1 -> inception_4b/1x1
I0403 14:32:38.731163 13384 net.cpp:141] Setting up inception_4b/1x1
I0403 14:32:38.731194 13384 net.cpp:148] Top shape: 24 160 14 14 (752640)
I0403 14:32:38.731209 13384 net.cpp:156] Memory required for data: 949214496
I0403 14:32:38.731227 13384 layer_factory.hpp:77] Creating layer inception_4b/relu_1x1
I0403 14:32:38.731245 13384 net.cpp:91] Creating Layer inception_4b/relu_1x1
I0403 14:32:38.731261 13384 net.cpp:425] inception_4b/relu_1x1 <- inception_4b/1x1
I0403 14:32:38.731281 13384 net.cpp:386] inception_4b/relu_1x1 -> inception_4b/1x1 (in-place)
I0403 14:32:38.731461 13384 net.cpp:141] Setting up inception_4b/relu_1x1
I0403 14:32:38.731485 13384 net.cpp:148] Top shape: 24 160 14 14 (752640)
I0403 14:32:38.731500 13384 net.cpp:156] Memory required for data: 952225056
I0403 14:32:38.731515 13384 layer_factory.hpp:77] Creating layer inception_4b/3x3_reduce
I0403 14:32:38.731537 13384 net.cpp:91] Creating Layer inception_4b/3x3_reduce
I0403 14:32:38.731554 13384 net.cpp:425] inception_4b/3x3_reduce <- inception_4a/output_inception_4a/output_0_split_2
I0403 14:32:38.731582 13384 net.cpp:399] inception_4b/3x3_reduce -> inception_4b/3x3_reduce
I0403 14:32:38.732928 13384 net.cpp:141] Setting up inception_4b/3x3_reduce
I0403 14:32:38.732955 13384 net.cpp:148] Top shape: 24 112 14 14 (526848)
I0403 14:32:38.732971 13384 net.cpp:156] Memory required for data: 954332448
I0403 14:32:38.732990 13384 layer_factory.hpp:77] Creating layer inception_4b/relu_3x3_reduce
I0403 14:32:38.733011 13384 net.cpp:91] Creating Layer inception_4b/relu_3x3_reduce
I0403 14:32:38.733027 13384 net.cpp:425] inception_4b/relu_3x3_reduce <- inception_4b/3x3_reduce
I0403 14:32:38.733045 13384 net.cpp:386] inception_4b/relu_3x3_reduce -> inception_4b/3x3_reduce (in-place)
I0403 14:32:38.733324 13384 net.cpp:141] Setting up inception_4b/relu_3x3_reduce
I0403 14:32:38.733350 13384 net.cpp:148] Top shape: 24 112 14 14 (526848)
I0403 14:32:38.733366 13384 net.cpp:156] Memory required for data: 956439840
I0403 14:32:38.733379 13384 layer_factory.hpp:77] Creating layer inception_4b/3x3
I0403 14:32:38.733402 13384 net.cpp:91] Creating Layer inception_4b/3x3
I0403 14:32:38.733419 13384 net.cpp:425] inception_4b/3x3 <- inception_4b/3x3_reduce
I0403 14:32:38.733440 13384 net.cpp:399] inception_4b/3x3 -> inception_4b/3x3
I0403 14:32:38.736416 13384 net.cpp:141] Setting up inception_4b/3x3
I0403 14:32:38.736445 13384 net.cpp:148] Top shape: 24 224 14 14 (1053696)
I0403 14:32:38.736461 13384 net.cpp:156] Memory required for data: 960654624
I0403 14:32:38.736479 13384 layer_factory.hpp:77] Creating layer inception_4b/relu_3x3
I0403 14:32:38.736500 13384 net.cpp:91] Creating Layer inception_4b/relu_3x3
I0403 14:32:38.736518 13384 net.cpp:425] inception_4b/relu_3x3 <- inception_4b/3x3
I0403 14:32:38.736536 13384 net.cpp:386] inception_4b/relu_3x3 -> inception_4b/3x3 (in-place)
I0403 14:32:38.736721 13384 net.cpp:141] Setting up inception_4b/relu_3x3
I0403 14:32:38.736749 13384 net.cpp:148] Top shape: 24 224 14 14 (1053696)
I0403 14:32:38.736765 13384 net.cpp:156] Memory required for data: 964869408
I0403 14:32:38.736780 13384 layer_factory.hpp:77] Creating layer inception_4b/5x5_reduce
I0403 14:32:38.736804 13384 net.cpp:91] Creating Layer inception_4b/5x5_reduce
I0403 14:32:38.736821 13384 net.cpp:425] inception_4b/5x5_reduce <- inception_4a/output_inception_4a/output_0_split_3
I0403 14:32:38.736840 13384 net.cpp:399] inception_4b/5x5_reduce -> inception_4b/5x5_reduce
I0403 14:32:38.737936 13384 net.cpp:141] Setting up inception_4b/5x5_reduce
I0403 14:32:38.737963 13384 net.cpp:148] Top shape: 24 24 14 14 (112896)
I0403 14:32:38.737979 13384 net.cpp:156] Memory required for data: 965320992
I0403 14:32:38.737998 13384 layer_factory.hpp:77] Creating layer inception_4b/relu_5x5_reduce
I0403 14:32:38.738015 13384 net.cpp:91] Creating Layer inception_4b/relu_5x5_reduce
I0403 14:32:38.738047 13384 net.cpp:425] inception_4b/relu_5x5_reduce <- inception_4b/5x5_reduce
I0403 14:32:38.738068 13384 net.cpp:386] inception_4b/relu_5x5_reduce -> inception_4b/5x5_reduce (in-place)
I0403 14:32:38.738251 13384 net.cpp:141] Setting up inception_4b/relu_5x5_reduce
I0403 14:32:38.738276 13384 net.cpp:148] Top shape: 24 24 14 14 (112896)
I0403 14:32:38.738291 13384 net.cpp:156] Memory required for data: 965772576
I0403 14:32:38.738306 13384 layer_factory.hpp:77] Creating layer inception_4b/5x5
I0403 14:32:38.738332 13384 net.cpp:91] Creating Layer inception_4b/5x5
I0403 14:32:38.738349 13384 net.cpp:425] inception_4b/5x5 <- inception_4b/5x5_reduce
I0403 14:32:38.738370 13384 net.cpp:399] inception_4b/5x5 -> inception_4b/5x5
I0403 14:32:38.739593 13384 net.cpp:141] Setting up inception_4b/5x5
I0403 14:32:38.739624 13384 net.cpp:148] Top shape: 24 64 14 14 (301056)
I0403 14:32:38.739639 13384 net.cpp:156] Memory required for data: 966976800
I0403 14:32:38.739657 13384 layer_factory.hpp:77] Creating layer inception_4b/relu_5x5
I0403 14:32:38.739676 13384 net.cpp:91] Creating Layer inception_4b/relu_5x5
I0403 14:32:38.739692 13384 net.cpp:425] inception_4b/relu_5x5 <- inception_4b/5x5
I0403 14:32:38.739712 13384 net.cpp:386] inception_4b/relu_5x5 -> inception_4b/5x5 (in-place)
I0403 14:32:38.739995 13384 net.cpp:141] Setting up inception_4b/relu_5x5
I0403 14:32:38.740023 13384 net.cpp:148] Top shape: 24 64 14 14 (301056)
I0403 14:32:38.740039 13384 net.cpp:156] Memory required for data: 968181024
I0403 14:32:38.740054 13384 layer_factory.hpp:77] Creating layer inception_4b/pool
I0403 14:32:38.740073 13384 net.cpp:91] Creating Layer inception_4b/pool
I0403 14:32:38.740089 13384 net.cpp:425] inception_4b/pool <- inception_4a/output_inception_4a/output_0_split_4
I0403 14:32:38.740110 13384 net.cpp:399] inception_4b/pool -> inception_4b/pool
I0403 14:32:38.740175 13384 net.cpp:141] Setting up inception_4b/pool
I0403 14:32:38.740200 13384 net.cpp:148] Top shape: 24 512 14 14 (2408448)
I0403 14:32:38.740214 13384 net.cpp:156] Memory required for data: 977814816
I0403 14:32:38.740229 13384 layer_factory.hpp:77] Creating layer inception_4b/pool_proj
I0403 14:32:38.740260 13384 net.cpp:91] Creating Layer inception_4b/pool_proj
I0403 14:32:38.740278 13384 net.cpp:425] inception_4b/pool_proj <- inception_4b/pool
I0403 14:32:38.740296 13384 net.cpp:399] inception_4b/pool_proj -> inception_4b/pool_proj
I0403 14:32:38.741513 13384 net.cpp:141] Setting up inception_4b/pool_proj
I0403 14:32:38.741539 13384 net.cpp:148] Top shape: 24 64 14 14 (301056)
I0403 14:32:38.741555 13384 net.cpp:156] Memory required for data: 979019040
I0403 14:32:38.741577 13384 layer_factory.hpp:77] Creating layer inception_4b/relu_pool_proj
I0403 14:32:38.741597 13384 net.cpp:91] Creating Layer inception_4b/relu_pool_proj
I0403 14:32:38.741613 13384 net.cpp:425] inception_4b/relu_pool_proj <- inception_4b/pool_proj
I0403 14:32:38.741636 13384 net.cpp:386] inception_4b/relu_pool_proj -> inception_4b/pool_proj (in-place)
I0403 14:32:38.741816 13384 net.cpp:141] Setting up inception_4b/relu_pool_proj
I0403 14:32:38.741840 13384 net.cpp:148] Top shape: 24 64 14 14 (301056)
I0403 14:32:38.741855 13384 net.cpp:156] Memory required for data: 980223264
I0403 14:32:38.741869 13384 layer_factory.hpp:77] Creating layer inception_4b/output
I0403 14:32:38.741890 13384 net.cpp:91] Creating Layer inception_4b/output
I0403 14:32:38.741906 13384 net.cpp:425] inception_4b/output <- inception_4b/1x1
I0403 14:32:38.741924 13384 net.cpp:425] inception_4b/output <- inception_4b/3x3
I0403 14:32:38.741940 13384 net.cpp:425] inception_4b/output <- inception_4b/5x5
I0403 14:32:38.741956 13384 net.cpp:425] inception_4b/output <- inception_4b/pool_proj
I0403 14:32:38.741974 13384 net.cpp:399] inception_4b/output -> inception_4b/output
I0403 14:32:38.742019 13384 net.cpp:141] Setting up inception_4b/output
I0403 14:32:38.742044 13384 net.cpp:148] Top shape: 24 512 14 14 (2408448)
I0403 14:32:38.742060 13384 net.cpp:156] Memory required for data: 989857056
I0403 14:32:38.742091 13384 layer_factory.hpp:77] Creating layer inception_4b/output_inception_4b/output_0_split
I0403 14:32:38.742110 13384 net.cpp:91] Creating Layer inception_4b/output_inception_4b/output_0_split
I0403 14:32:38.742125 13384 net.cpp:425] inception_4b/output_inception_4b/output_0_split <- inception_4b/output
I0403 14:32:38.742146 13384 net.cpp:399] inception_4b/output_inception_4b/output_0_split -> inception_4b/output_inception_4b/output_0_split_0
I0403 14:32:38.742167 13384 net.cpp:399] inception_4b/output_inception_4b/output_0_split -> inception_4b/output_inception_4b/output_0_split_1
I0403 14:32:38.742188 13384 net.cpp:399] inception_4b/output_inception_4b/output_0_split -> inception_4b/output_inception_4b/output_0_split_2
I0403 14:32:38.742209 13384 net.cpp:399] inception_4b/output_inception_4b/output_0_split -> inception_4b/output_inception_4b/output_0_split_3
I0403 14:32:38.742290 13384 net.cpp:141] Setting up inception_4b/output_inception_4b/output_0_split
I0403 14:32:38.742316 13384 net.cpp:148] Top shape: 24 512 14 14 (2408448)
I0403 14:32:38.742332 13384 net.cpp:148] Top shape: 24 512 14 14 (2408448)
I0403 14:32:38.742348 13384 net.cpp:148] Top shape: 24 512 14 14 (2408448)
I0403 14:32:38.742363 13384 net.cpp:148] Top shape: 24 512 14 14 (2408448)
I0403 14:32:38.742377 13384 net.cpp:156] Memory required for data: 1028392224
I0403 14:32:38.742390 13384 layer_factory.hpp:77] Creating layer inception_4c/1x1
I0403 14:32:38.742413 13384 net.cpp:91] Creating Layer inception_4c/1x1
I0403 14:32:38.742430 13384 net.cpp:425] inception_4c/1x1 <- inception_4b/output_inception_4b/output_0_split_0
I0403 14:32:38.742449 13384 net.cpp:399] inception_4c/1x1 -> inception_4c/1x1
I0403 14:32:38.743876 13384 net.cpp:141] Setting up inception_4c/1x1
I0403 14:32:38.743904 13384 net.cpp:148] Top shape: 24 128 14 14 (602112)
I0403 14:32:38.743919 13384 net.cpp:156] Memory required for data: 1030800672
I0403 14:32:38.743938 13384 layer_factory.hpp:77] Creating layer inception_4c/relu_1x1
I0403 14:32:38.743959 13384 net.cpp:91] Creating Layer inception_4c/relu_1x1
I0403 14:32:38.743978 13384 net.cpp:425] inception_4c/relu_1x1 <- inception_4c/1x1
I0403 14:32:38.743995 13384 net.cpp:386] inception_4c/relu_1x1 -> inception_4c/1x1 (in-place)
I0403 14:32:38.744176 13384 net.cpp:141] Setting up inception_4c/relu_1x1
I0403 14:32:38.744204 13384 net.cpp:148] Top shape: 24 128 14 14 (602112)
I0403 14:32:38.744220 13384 net.cpp:156] Memory required for data: 1033209120
I0403 14:32:38.744235 13384 layer_factory.hpp:77] Creating layer inception_4c/3x3_reduce
I0403 14:32:38.744257 13384 net.cpp:91] Creating Layer inception_4c/3x3_reduce
I0403 14:32:38.744276 13384 net.cpp:425] inception_4c/3x3_reduce <- inception_4b/output_inception_4b/output_0_split_1
I0403 14:32:38.744294 13384 net.cpp:399] inception_4c/3x3_reduce -> inception_4c/3x3_reduce
I0403 14:32:38.746234 13384 net.cpp:141] Setting up inception_4c/3x3_reduce
I0403 14:32:38.746265 13384 net.cpp:148] Top shape: 24 128 14 14 (602112)
I0403 14:32:38.746282 13384 net.cpp:156] Memory required for data: 1035617568
I0403 14:32:38.746301 13384 layer_factory.hpp:77] Creating layer inception_4c/relu_3x3_reduce
I0403 14:32:38.746320 13384 net.cpp:91] Creating Layer inception_4c/relu_3x3_reduce
I0403 14:32:38.746335 13384 net.cpp:425] inception_4c/relu_3x3_reduce <- inception_4c/3x3_reduce
I0403 14:32:38.746354 13384 net.cpp:386] inception_4c/relu_3x3_reduce -> inception_4c/3x3_reduce (in-place)
I0403 14:32:38.746642 13384 net.cpp:141] Setting up inception_4c/relu_3x3_reduce
I0403 14:32:38.746671 13384 net.cpp:148] Top shape: 24 128 14 14 (602112)
I0403 14:32:38.746687 13384 net.cpp:156] Memory required for data: 1038026016
I0403 14:32:38.746702 13384 layer_factory.hpp:77] Creating layer inception_4c/3x3
I0403 14:32:38.746726 13384 net.cpp:91] Creating Layer inception_4c/3x3
I0403 14:32:38.746743 13384 net.cpp:425] inception_4c/3x3 <- inception_4c/3x3_reduce
I0403 14:32:38.746762 13384 net.cpp:399] inception_4c/3x3 -> inception_4c/3x3
I0403 14:32:38.750355 13384 net.cpp:141] Setting up inception_4c/3x3
I0403 14:32:38.750399 13384 net.cpp:148] Top shape: 24 256 14 14 (1204224)
I0403 14:32:38.750416 13384 net.cpp:156] Memory required for data: 1042842912
I0403 14:32:38.750447 13384 layer_factory.hpp:77] Creating layer inception_4c/relu_3x3
I0403 14:32:38.750468 13384 net.cpp:91] Creating Layer inception_4c/relu_3x3
I0403 14:32:38.750484 13384 net.cpp:425] inception_4c/relu_3x3 <- inception_4c/3x3
I0403 14:32:38.750504 13384 net.cpp:386] inception_4c/relu_3x3 -> inception_4c/3x3 (in-place)
I0403 14:32:38.750692 13384 net.cpp:141] Setting up inception_4c/relu_3x3
I0403 14:32:38.750717 13384 net.cpp:148] Top shape: 24 256 14 14 (1204224)
I0403 14:32:38.750732 13384 net.cpp:156] Memory required for data: 1047659808
I0403 14:32:38.750747 13384 layer_factory.hpp:77] Creating layer inception_4c/5x5_reduce
I0403 14:32:38.750772 13384 net.cpp:91] Creating Layer inception_4c/5x5_reduce
I0403 14:32:38.750790 13384 net.cpp:425] inception_4c/5x5_reduce <- inception_4b/output_inception_4b/output_0_split_2
I0403 14:32:38.750813 13384 net.cpp:399] inception_4c/5x5_reduce -> inception_4c/5x5_reduce
I0403 14:32:38.751893 13384 net.cpp:141] Setting up inception_4c/5x5_reduce
I0403 14:32:38.751922 13384 net.cpp:148] Top shape: 24 24 14 14 (112896)
I0403 14:32:38.751938 13384 net.cpp:156] Memory required for data: 1048111392
I0403 14:32:38.751957 13384 layer_factory.hpp:77] Creating layer inception_4c/relu_5x5_reduce
I0403 14:32:38.751976 13384 net.cpp:91] Creating Layer inception_4c/relu_5x5_reduce
I0403 14:32:38.751992 13384 net.cpp:425] inception_4c/relu_5x5_reduce <- inception_4c/5x5_reduce
I0403 14:32:38.752012 13384 net.cpp:386] inception_4c/relu_5x5_reduce -> inception_4c/5x5_reduce (in-place)
I0403 14:32:38.752198 13384 net.cpp:141] Setting up inception_4c/relu_5x5_reduce
I0403 14:32:38.752223 13384 net.cpp:148] Top shape: 24 24 14 14 (112896)
I0403 14:32:38.752238 13384 net.cpp:156] Memory required for data: 1048562976
I0403 14:32:38.752254 13384 layer_factory.hpp:77] Creating layer inception_4c/5x5
I0403 14:32:38.752275 13384 net.cpp:91] Creating Layer inception_4c/5x5
I0403 14:32:38.752293 13384 net.cpp:425] inception_4c/5x5 <- inception_4c/5x5_reduce
I0403 14:32:38.752315 13384 net.cpp:399] inception_4c/5x5 -> inception_4c/5x5
I0403 14:32:38.753573 13384 net.cpp:141] Setting up inception_4c/5x5
I0403 14:32:38.753602 13384 net.cpp:148] Top shape: 24 64 14 14 (301056)
I0403 14:32:38.753618 13384 net.cpp:156] Memory required for data: 1049767200
I0403 14:32:38.753638 13384 layer_factory.hpp:77] Creating layer inception_4c/relu_5x5
I0403 14:32:38.753659 13384 net.cpp:91] Creating Layer inception_4c/relu_5x5
I0403 14:32:38.753676 13384 net.cpp:425] inception_4c/relu_5x5 <- inception_4c/5x5
I0403 14:32:38.753695 13384 net.cpp:386] inception_4c/relu_5x5 -> inception_4c/5x5 (in-place)
I0403 14:32:38.753999 13384 net.cpp:141] Setting up inception_4c/relu_5x5
I0403 14:32:38.754025 13384 net.cpp:148] Top shape: 24 64 14 14 (301056)
I0403 14:32:38.754040 13384 net.cpp:156] Memory required for data: 1050971424
I0403 14:32:38.754056 13384 layer_factory.hpp:77] Creating layer inception_4c/pool
I0403 14:32:38.754076 13384 net.cpp:91] Creating Layer inception_4c/pool
I0403 14:32:38.754093 13384 net.cpp:425] inception_4c/pool <- inception_4b/output_inception_4b/output_0_split_3
I0403 14:32:38.754112 13384 net.cpp:399] inception_4c/pool -> inception_4c/pool
I0403 14:32:38.754179 13384 net.cpp:141] Setting up inception_4c/pool
I0403 14:32:38.754201 13384 net.cpp:148] Top shape: 24 512 14 14 (2408448)
I0403 14:32:38.754218 13384 net.cpp:156] Memory required for data: 1060605216
I0403 14:32:38.754233 13384 layer_factory.hpp:77] Creating layer inception_4c/pool_proj
I0403 14:32:38.754256 13384 net.cpp:91] Creating Layer inception_4c/pool_proj
I0403 14:32:38.754272 13384 net.cpp:425] inception_4c/pool_proj <- inception_4c/pool
I0403 14:32:38.754295 13384 net.cpp:399] inception_4c/pool_proj -> inception_4c/pool_proj
I0403 14:32:38.755580 13384 net.cpp:141] Setting up inception_4c/pool_proj
I0403 14:32:38.755609 13384 net.cpp:148] Top shape: 24 64 14 14 (301056)
I0403 14:32:38.755640 13384 net.cpp:156] Memory required for data: 1061809440
I0403 14:32:38.755661 13384 layer_factory.hpp:77] Creating layer inception_4c/relu_pool_proj
I0403 14:32:38.755679 13384 net.cpp:91] Creating Layer inception_4c/relu_pool_proj
I0403 14:32:38.755697 13384 net.cpp:425] inception_4c/relu_pool_proj <- inception_4c/pool_proj
I0403 14:32:38.755717 13384 net.cpp:386] inception_4c/relu_pool_proj -> inception_4c/pool_proj (in-place)
I0403 14:32:38.755906 13384 net.cpp:141] Setting up inception_4c/relu_pool_proj
I0403 14:32:38.755933 13384 net.cpp:148] Top shape: 24 64 14 14 (301056)
I0403 14:32:38.755947 13384 net.cpp:156] Memory required for data: 1063013664
I0403 14:32:38.755964 13384 layer_factory.hpp:77] Creating layer inception_4c/output
I0403 14:32:38.755981 13384 net.cpp:91] Creating Layer inception_4c/output
I0403 14:32:38.756000 13384 net.cpp:425] inception_4c/output <- inception_4c/1x1
I0403 14:32:38.756017 13384 net.cpp:425] inception_4c/output <- inception_4c/3x3
I0403 14:32:38.756034 13384 net.cpp:425] inception_4c/output <- inception_4c/5x5
I0403 14:32:38.756050 13384 net.cpp:425] inception_4c/output <- inception_4c/pool_proj
I0403 14:32:38.756068 13384 net.cpp:399] inception_4c/output -> inception_4c/output
I0403 14:32:38.756115 13384 net.cpp:141] Setting up inception_4c/output
I0403 14:32:38.756141 13384 net.cpp:148] Top shape: 24 512 14 14 (2408448)
I0403 14:32:38.756157 13384 net.cpp:156] Memory required for data: 1072647456
I0403 14:32:38.756172 13384 layer_factory.hpp:77] Creating layer inception_4c/output_inception_4c/output_0_split
I0403 14:32:38.756189 13384 net.cpp:91] Creating Layer inception_4c/output_inception_4c/output_0_split
I0403 14:32:38.756206 13384 net.cpp:425] inception_4c/output_inception_4c/output_0_split <- inception_4c/output
I0403 14:32:38.756227 13384 net.cpp:399] inception_4c/output_inception_4c/output_0_split -> inception_4c/output_inception_4c/output_0_split_0
I0403 14:32:38.756248 13384 net.cpp:399] inception_4c/output_inception_4c/output_0_split -> inception_4c/output_inception_4c/output_0_split_1
I0403 14:32:38.756270 13384 net.cpp:399] inception_4c/output_inception_4c/output_0_split -> inception_4c/output_inception_4c/output_0_split_2
I0403 14:32:38.756291 13384 net.cpp:399] inception_4c/output_inception_4c/output_0_split -> inception_4c/output_inception_4c/output_0_split_3
I0403 14:32:38.756377 13384 net.cpp:141] Setting up inception_4c/output_inception_4c/output_0_split
I0403 14:32:38.756404 13384 net.cpp:148] Top shape: 24 512 14 14 (2408448)
I0403 14:32:38.756423 13384 net.cpp:148] Top shape: 24 512 14 14 (2408448)
I0403 14:32:38.756439 13384 net.cpp:148] Top shape: 24 512 14 14 (2408448)
I0403 14:32:38.756455 13384 net.cpp:148] Top shape: 24 512 14 14 (2408448)
I0403 14:32:38.756469 13384 net.cpp:156] Memory required for data: 1111182624
I0403 14:32:38.756484 13384 layer_factory.hpp:77] Creating layer inception_4d/1x1
I0403 14:32:38.756506 13384 net.cpp:91] Creating Layer inception_4d/1x1
I0403 14:32:38.756525 13384 net.cpp:425] inception_4d/1x1 <- inception_4c/output_inception_4c/output_0_split_0
I0403 14:32:38.756544 13384 net.cpp:399] inception_4d/1x1 -> inception_4d/1x1
I0403 14:32:38.757982 13384 net.cpp:141] Setting up inception_4d/1x1
I0403 14:32:38.758014 13384 net.cpp:148] Top shape: 24 112 14 14 (526848)
I0403 14:32:38.758033 13384 net.cpp:156] Memory required for data: 1113290016
I0403 14:32:38.758051 13384 layer_factory.hpp:77] Creating layer inception_4d/relu_1x1
I0403 14:32:38.758070 13384 net.cpp:91] Creating Layer inception_4d/relu_1x1
I0403 14:32:38.758087 13384 net.cpp:425] inception_4d/relu_1x1 <- inception_4d/1x1
I0403 14:32:38.758105 13384 net.cpp:386] inception_4d/relu_1x1 -> inception_4d/1x1 (in-place)
I0403 14:32:38.758294 13384 net.cpp:141] Setting up inception_4d/relu_1x1
I0403 14:32:38.758322 13384 net.cpp:148] Top shape: 24 112 14 14 (526848)
I0403 14:32:38.758339 13384 net.cpp:156] Memory required for data: 1115397408
I0403 14:32:38.758355 13384 layer_factory.hpp:77] Creating layer inception_4d/3x3_reduce
I0403 14:32:38.758394 13384 net.cpp:91] Creating Layer inception_4d/3x3_reduce
I0403 14:32:38.758414 13384 net.cpp:425] inception_4d/3x3_reduce <- inception_4c/output_inception_4c/output_0_split_1
I0403 14:32:38.758432 13384 net.cpp:399] inception_4d/3x3_reduce -> inception_4d/3x3_reduce
I0403 14:32:38.759987 13384 net.cpp:141] Setting up inception_4d/3x3_reduce
I0403 14:32:38.760015 13384 net.cpp:148] Top shape: 24 144 14 14 (677376)
I0403 14:32:38.760030 13384 net.cpp:156] Memory required for data: 1118106912
I0403 14:32:38.760048 13384 layer_factory.hpp:77] Creating layer inception_4d/relu_3x3_reduce
I0403 14:32:38.760068 13384 net.cpp:91] Creating Layer inception_4d/relu_3x3_reduce
I0403 14:32:38.760087 13384 net.cpp:425] inception_4d/relu_3x3_reduce <- inception_4d/3x3_reduce
I0403 14:32:38.760104 13384 net.cpp:386] inception_4d/relu_3x3_reduce -> inception_4d/3x3_reduce (in-place)
I0403 14:32:38.760390 13384 net.cpp:141] Setting up inception_4d/relu_3x3_reduce
I0403 14:32:38.760416 13384 net.cpp:148] Top shape: 24 144 14 14 (677376)
I0403 14:32:38.760432 13384 net.cpp:156] Memory required for data: 1120816416
I0403 14:32:38.760447 13384 layer_factory.hpp:77] Creating layer inception_4d/3x3
I0403 14:32:38.760469 13384 net.cpp:91] Creating Layer inception_4d/3x3
I0403 14:32:38.760488 13384 net.cpp:425] inception_4d/3x3 <- inception_4d/3x3_reduce
I0403 14:32:38.760509 13384 net.cpp:399] inception_4d/3x3 -> inception_4d/3x3
I0403 14:32:38.764770 13384 net.cpp:141] Setting up inception_4d/3x3
I0403 14:32:38.764799 13384 net.cpp:148] Top shape: 24 288 14 14 (1354752)
I0403 14:32:38.764816 13384 net.cpp:156] Memory required for data: 1126235424
I0403 14:32:38.764837 13384 layer_factory.hpp:77] Creating layer inception_4d/relu_3x3
I0403 14:32:38.764856 13384 net.cpp:91] Creating Layer inception_4d/relu_3x3
I0403 14:32:38.764873 13384 net.cpp:425] inception_4d/relu_3x3 <- inception_4d/3x3
I0403 14:32:38.764889 13384 net.cpp:386] inception_4d/relu_3x3 -> inception_4d/3x3 (in-place)
I0403 14:32:38.765079 13384 net.cpp:141] Setting up inception_4d/relu_3x3
I0403 14:32:38.765103 13384 net.cpp:148] Top shape: 24 288 14 14 (1354752)
I0403 14:32:38.765120 13384 net.cpp:156] Memory required for data: 1131654432
I0403 14:32:38.765135 13384 layer_factory.hpp:77] Creating layer inception_4d/5x5_reduce
I0403 14:32:38.765156 13384 net.cpp:91] Creating Layer inception_4d/5x5_reduce
I0403 14:32:38.765174 13384 net.cpp:425] inception_4d/5x5_reduce <- inception_4c/output_inception_4c/output_0_split_2
I0403 14:32:38.765195 13384 net.cpp:399] inception_4d/5x5_reduce -> inception_4d/5x5_reduce
I0403 14:32:38.766340 13384 net.cpp:141] Setting up inception_4d/5x5_reduce
I0403 14:32:38.766369 13384 net.cpp:148] Top shape: 24 32 14 14 (150528)
I0403 14:32:38.766386 13384 net.cpp:156] Memory required for data: 1132256544
I0403 14:32:38.766404 13384 layer_factory.hpp:77] Creating layer inception_4d/relu_5x5_reduce
I0403 14:32:38.766422 13384 net.cpp:91] Creating Layer inception_4d/relu_5x5_reduce
I0403 14:32:38.766439 13384 net.cpp:425] inception_4d/relu_5x5_reduce <- inception_4d/5x5_reduce
I0403 14:32:38.766456 13384 net.cpp:386] inception_4d/relu_5x5_reduce -> inception_4d/5x5_reduce (in-place)
I0403 14:32:38.766650 13384 net.cpp:141] Setting up inception_4d/relu_5x5_reduce
I0403 14:32:38.766676 13384 net.cpp:148] Top shape: 24 32 14 14 (150528)
I0403 14:32:38.766690 13384 net.cpp:156] Memory required for data: 1132858656
I0403 14:32:38.766705 13384 layer_factory.hpp:77] Creating layer inception_4d/5x5
I0403 14:32:38.766727 13384 net.cpp:91] Creating Layer inception_4d/5x5
I0403 14:32:38.766746 13384 net.cpp:425] inception_4d/5x5 <- inception_4d/5x5_reduce
I0403 14:32:38.766767 13384 net.cpp:399] inception_4d/5x5 -> inception_4d/5x5
I0403 14:32:38.768244 13384 net.cpp:141] Setting up inception_4d/5x5
I0403 14:32:38.768272 13384 net.cpp:148] Top shape: 24 64 14 14 (301056)
I0403 14:32:38.768288 13384 net.cpp:156] Memory required for data: 1134062880
I0403 14:32:38.768307 13384 layer_factory.hpp:77] Creating layer inception_4d/relu_5x5
I0403 14:32:38.768342 13384 net.cpp:91] Creating Layer inception_4d/relu_5x5
I0403 14:32:38.768360 13384 net.cpp:425] inception_4d/relu_5x5 <- inception_4d/5x5
I0403 14:32:38.768378 13384 net.cpp:386] inception_4d/relu_5x5 -> inception_4d/5x5 (in-place)
I0403 14:32:38.768682 13384 net.cpp:141] Setting up inception_4d/relu_5x5
I0403 14:32:38.768708 13384 net.cpp:148] Top shape: 24 64 14 14 (301056)
I0403 14:32:38.768723 13384 net.cpp:156] Memory required for data: 1135267104
I0403 14:32:38.768738 13384 layer_factory.hpp:77] Creating layer inception_4d/pool
I0403 14:32:38.768755 13384 net.cpp:91] Creating Layer inception_4d/pool
I0403 14:32:38.768771 13384 net.cpp:425] inception_4d/pool <- inception_4c/output_inception_4c/output_0_split_3
I0403 14:32:38.768795 13384 net.cpp:399] inception_4d/pool -> inception_4d/pool
I0403 14:32:38.768860 13384 net.cpp:141] Setting up inception_4d/pool
I0403 14:32:38.768887 13384 net.cpp:148] Top shape: 24 512 14 14 (2408448)
I0403 14:32:38.768901 13384 net.cpp:156] Memory required for data: 1144900896
I0403 14:32:38.768915 13384 layer_factory.hpp:77] Creating layer inception_4d/pool_proj
I0403 14:32:38.768937 13384 net.cpp:91] Creating Layer inception_4d/pool_proj
I0403 14:32:38.768954 13384 net.cpp:425] inception_4d/pool_proj <- inception_4d/pool
I0403 14:32:38.768975 13384 net.cpp:399] inception_4d/pool_proj -> inception_4d/pool_proj
I0403 14:32:38.770748 13384 net.cpp:141] Setting up inception_4d/pool_proj
I0403 14:32:38.770777 13384 net.cpp:148] Top shape: 24 64 14 14 (301056)
I0403 14:32:38.770793 13384 net.cpp:156] Memory required for data: 1146105120
I0403 14:32:38.770813 13384 layer_factory.hpp:77] Creating layer inception_4d/relu_pool_proj
I0403 14:32:38.770833 13384 net.cpp:91] Creating Layer inception_4d/relu_pool_proj
I0403 14:32:38.770850 13384 net.cpp:425] inception_4d/relu_pool_proj <- inception_4d/pool_proj
I0403 14:32:38.770869 13384 net.cpp:386] inception_4d/relu_pool_proj -> inception_4d/pool_proj (in-place)
I0403 14:32:38.771054 13384 net.cpp:141] Setting up inception_4d/relu_pool_proj
I0403 14:32:38.771078 13384 net.cpp:148] Top shape: 24 64 14 14 (301056)
I0403 14:32:38.771093 13384 net.cpp:156] Memory required for data: 1147309344
I0403 14:32:38.771108 13384 layer_factory.hpp:77] Creating layer inception_4d/output
I0403 14:32:38.771126 13384 net.cpp:91] Creating Layer inception_4d/output
I0403 14:32:38.771141 13384 net.cpp:425] inception_4d/output <- inception_4d/1x1
I0403 14:32:38.771157 13384 net.cpp:425] inception_4d/output <- inception_4d/3x3
I0403 14:32:38.771173 13384 net.cpp:425] inception_4d/output <- inception_4d/5x5
I0403 14:32:38.771190 13384 net.cpp:425] inception_4d/output <- inception_4d/pool_proj
I0403 14:32:38.771210 13384 net.cpp:399] inception_4d/output -> inception_4d/output
I0403 14:32:38.771258 13384 net.cpp:141] Setting up inception_4d/output
I0403 14:32:38.771283 13384 net.cpp:148] Top shape: 24 528 14 14 (2483712)
I0403 14:32:38.771299 13384 net.cpp:156] Memory required for data: 1157244192
I0403 14:32:38.771314 13384 layer_factory.hpp:77] Creating layer inception_4d/output_inception_4d/output_0_split
I0403 14:32:38.771332 13384 net.cpp:91] Creating Layer inception_4d/output_inception_4d/output_0_split
I0403 14:32:38.771347 13384 net.cpp:425] inception_4d/output_inception_4d/output_0_split <- inception_4d/output
I0403 14:32:38.771364 13384 net.cpp:399] inception_4d/output_inception_4d/output_0_split -> inception_4d/output_inception_4d/output_0_split_0
I0403 14:32:38.771387 13384 net.cpp:399] inception_4d/output_inception_4d/output_0_split -> inception_4d/output_inception_4d/output_0_split_1
I0403 14:32:38.771410 13384 net.cpp:399] inception_4d/output_inception_4d/output_0_split -> inception_4d/output_inception_4d/output_0_split_2
I0403 14:32:38.771431 13384 net.cpp:399] inception_4d/output_inception_4d/output_0_split -> inception_4d/output_inception_4d/output_0_split_3
I0403 14:32:38.771451 13384 net.cpp:399] inception_4d/output_inception_4d/output_0_split -> inception_4d/output_inception_4d/output_0_split_4
I0403 14:32:38.771555 13384 net.cpp:141] Setting up inception_4d/output_inception_4d/output_0_split
I0403 14:32:38.771595 13384 net.cpp:148] Top shape: 24 528 14 14 (2483712)
I0403 14:32:38.771612 13384 net.cpp:148] Top shape: 24 528 14 14 (2483712)
I0403 14:32:38.771632 13384 net.cpp:148] Top shape: 24 528 14 14 (2483712)
I0403 14:32:38.771647 13384 net.cpp:148] Top shape: 24 528 14 14 (2483712)
I0403 14:32:38.771663 13384 net.cpp:148] Top shape: 24 528 14 14 (2483712)
I0403 14:32:38.771677 13384 net.cpp:156] Memory required for data: 1206918432
I0403 14:32:38.771703 13384 layer_factory.hpp:77] Creating layer loss2/ave_pool
I0403 14:32:38.771721 13384 net.cpp:91] Creating Layer loss2/ave_pool
I0403 14:32:38.771739 13384 net.cpp:425] loss2/ave_pool <- inception_4d/output_inception_4d/output_0_split_0
I0403 14:32:38.771756 13384 net.cpp:399] loss2/ave_pool -> loss2/ave_pool
I0403 14:32:38.772086 13384 net.cpp:141] Setting up loss2/ave_pool
I0403 14:32:38.772116 13384 net.cpp:148] Top shape: 24 528 4 4 (202752)
I0403 14:32:38.772133 13384 net.cpp:156] Memory required for data: 1207729440
I0403 14:32:38.772148 13384 layer_factory.hpp:77] Creating layer loss2/conv
I0403 14:32:38.772172 13384 net.cpp:91] Creating Layer loss2/conv
I0403 14:32:38.772191 13384 net.cpp:425] loss2/conv <- loss2/ave_pool
I0403 14:32:38.772210 13384 net.cpp:399] loss2/conv -> loss2/conv
I0403 14:32:38.774143 13384 net.cpp:141] Setting up loss2/conv
I0403 14:32:38.774171 13384 net.cpp:148] Top shape: 24 128 4 4 (49152)
I0403 14:32:38.774188 13384 net.cpp:156] Memory required for data: 1207926048
I0403 14:32:38.774205 13384 layer_factory.hpp:77] Creating layer loss2/relu_conv
I0403 14:32:38.774224 13384 net.cpp:91] Creating Layer loss2/relu_conv
I0403 14:32:38.774240 13384 net.cpp:425] loss2/relu_conv <- loss2/conv
I0403 14:32:38.774258 13384 net.cpp:386] loss2/relu_conv -> loss2/conv (in-place)
I0403 14:32:38.774538 13384 net.cpp:141] Setting up loss2/relu_conv
I0403 14:32:38.774564 13384 net.cpp:148] Top shape: 24 128 4 4 (49152)
I0403 14:32:38.774590 13384 net.cpp:156] Memory required for data: 1208122656
I0403 14:32:38.774606 13384 layer_factory.hpp:77] Creating layer loss2/fc
I0403 14:32:38.774624 13384 net.cpp:91] Creating Layer loss2/fc
I0403 14:32:38.774641 13384 net.cpp:425] loss2/fc <- loss2/conv
I0403 14:32:38.774662 13384 net.cpp:399] loss2/fc -> loss2/fc
I0403 14:32:38.791792 13384 net.cpp:141] Setting up loss2/fc
I0403 14:32:38.791822 13384 net.cpp:148] Top shape: 24 1024 (24576)
I0403 14:32:38.791837 13384 net.cpp:156] Memory required for data: 1208220960
I0403 14:32:38.791856 13384 layer_factory.hpp:77] Creating layer loss2/relu_fc
I0403 14:32:38.791879 13384 net.cpp:91] Creating Layer loss2/relu_fc
I0403 14:32:38.791894 13384 net.cpp:425] loss2/relu_fc <- loss2/fc
I0403 14:32:38.791911 13384 net.cpp:386] loss2/relu_fc -> loss2/fc (in-place)
I0403 14:32:38.792199 13384 net.cpp:141] Setting up loss2/relu_fc
I0403 14:32:38.792227 13384 net.cpp:148] Top shape: 24 1024 (24576)
I0403 14:32:38.792243 13384 net.cpp:156] Memory required for data: 1208319264
I0403 14:32:38.792258 13384 layer_factory.hpp:77] Creating layer loss2/drop_fc
I0403 14:32:38.792274 13384 net.cpp:91] Creating Layer loss2/drop_fc
I0403 14:32:38.792290 13384 net.cpp:425] loss2/drop_fc <- loss2/fc
I0403 14:32:38.792307 13384 net.cpp:386] loss2/drop_fc -> loss2/fc (in-place)
I0403 14:32:38.792356 13384 net.cpp:141] Setting up loss2/drop_fc
I0403 14:32:38.792379 13384 net.cpp:148] Top shape: 24 1024 (24576)
I0403 14:32:38.792393 13384 net.cpp:156] Memory required for data: 1208417568
I0403 14:32:38.792407 13384 layer_factory.hpp:77] Creating layer loss2/classifier_plantvillage
I0403 14:32:38.792428 13384 net.cpp:91] Creating Layer loss2/classifier_plantvillage
I0403 14:32:38.792443 13384 net.cpp:425] loss2/classifier_plantvillage <- loss2/fc
I0403 14:32:38.792462 13384 net.cpp:399] loss2/classifier_plantvillage -> loss2/classifier_plantvillage
I0403 14:32:38.792860 13384 net.cpp:141] Setting up loss2/classifier_plantvillage
I0403 14:32:38.792884 13384 net.cpp:148] Top shape: 24 38 (912)
I0403 14:32:38.792898 13384 net.cpp:156] Memory required for data: 1208421216
I0403 14:32:38.792934 13384 layer_factory.hpp:77] Creating layer loss2/classifier_plantvillage_loss2/classifier_plantvillage_0_split
I0403 14:32:38.792953 13384 net.cpp:91] Creating Layer loss2/classifier_plantvillage_loss2/classifier_plantvillage_0_split
I0403 14:32:38.792969 13384 net.cpp:425] loss2/classifier_plantvillage_loss2/classifier_plantvillage_0_split <- loss2/classifier_plantvillage
I0403 14:32:38.792989 13384 net.cpp:399] loss2/classifier_plantvillage_loss2/classifier_plantvillage_0_split -> loss2/classifier_plantvillage_loss2/classifier_plantvillage_0_split_0
I0403 14:32:38.793009 13384 net.cpp:399] loss2/classifier_plantvillage_loss2/classifier_plantvillage_0_split -> loss2/classifier_plantvillage_loss2/classifier_plantvillage_0_split_1
I0403 14:32:38.793030 13384 net.cpp:399] loss2/classifier_plantvillage_loss2/classifier_plantvillage_0_split -> loss2/classifier_plantvillage_loss2/classifier_plantvillage_0_split_2
I0403 14:32:38.793107 13384 net.cpp:141] Setting up loss2/classifier_plantvillage_loss2/classifier_plantvillage_0_split
I0403 14:32:38.793129 13384 net.cpp:148] Top shape: 24 38 (912)
I0403 14:32:38.793145 13384 net.cpp:148] Top shape: 24 38 (912)
I0403 14:32:38.793160 13384 net.cpp:148] Top shape: 24 38 (912)
I0403 14:32:38.793174 13384 net.cpp:156] Memory required for data: 1208432160
I0403 14:32:38.793187 13384 layer_factory.hpp:77] Creating layer inception_4e/1x1
I0403 14:32:38.793210 13384 net.cpp:91] Creating Layer inception_4e/1x1
I0403 14:32:38.793226 13384 net.cpp:425] inception_4e/1x1 <- inception_4d/output_inception_4d/output_0_split_1
I0403 14:32:38.793244 13384 net.cpp:399] inception_4e/1x1 -> inception_4e/1x1
I0403 14:32:38.795023 13384 net.cpp:141] Setting up inception_4e/1x1
I0403 14:32:38.795050 13384 net.cpp:148] Top shape: 24 256 14 14 (1204224)
I0403 14:32:38.795066 13384 net.cpp:156] Memory required for data: 1213249056
I0403 14:32:38.795084 13384 layer_factory.hpp:77] Creating layer inception_4e/relu_1x1
I0403 14:32:38.795104 13384 net.cpp:91] Creating Layer inception_4e/relu_1x1
I0403 14:32:38.795121 13384 net.cpp:425] inception_4e/relu_1x1 <- inception_4e/1x1
I0403 14:32:38.795138 13384 net.cpp:386] inception_4e/relu_1x1 -> inception_4e/1x1 (in-place)
I0403 14:32:38.795428 13384 net.cpp:141] Setting up inception_4e/relu_1x1
I0403 14:32:38.795454 13384 net.cpp:148] Top shape: 24 256 14 14 (1204224)
I0403 14:32:38.795469 13384 net.cpp:156] Memory required for data: 1218065952
I0403 14:32:38.795483 13384 layer_factory.hpp:77] Creating layer inception_4e/3x3_reduce
I0403 14:32:38.795505 13384 net.cpp:91] Creating Layer inception_4e/3x3_reduce
I0403 14:32:38.795522 13384 net.cpp:425] inception_4e/3x3_reduce <- inception_4d/output_inception_4d/output_0_split_2
I0403 14:32:38.795543 13384 net.cpp:399] inception_4e/3x3_reduce -> inception_4e/3x3_reduce
I0403 14:32:38.797603 13384 net.cpp:141] Setting up inception_4e/3x3_reduce
I0403 14:32:38.797631 13384 net.cpp:148] Top shape: 24 160 14 14 (752640)
I0403 14:32:38.797646 13384 net.cpp:156] Memory required for data: 1221076512
I0403 14:32:38.797664 13384 layer_factory.hpp:77] Creating layer inception_4e/relu_3x3_reduce
I0403 14:32:38.797683 13384 net.cpp:91] Creating Layer inception_4e/relu_3x3_reduce
I0403 14:32:38.797698 13384 net.cpp:425] inception_4e/relu_3x3_reduce <- inception_4e/3x3_reduce
I0403 14:32:38.797719 13384 net.cpp:386] inception_4e/relu_3x3_reduce -> inception_4e/3x3_reduce (in-place)
I0403 14:32:38.797897 13384 net.cpp:141] Setting up inception_4e/relu_3x3_reduce
I0403 14:32:38.797921 13384 net.cpp:148] Top shape: 24 160 14 14 (752640)
I0403 14:32:38.797935 13384 net.cpp:156] Memory required for data: 1224087072
I0403 14:32:38.797950 13384 layer_factory.hpp:77] Creating layer inception_4e/3x3
I0403 14:32:38.797972 13384 net.cpp:91] Creating Layer inception_4e/3x3
I0403 14:32:38.797988 13384 net.cpp:425] inception_4e/3x3 <- inception_4e/3x3_reduce
I0403 14:32:38.798009 13384 net.cpp:399] inception_4e/3x3 -> inception_4e/3x3
I0403 14:32:38.802952 13384 net.cpp:141] Setting up inception_4e/3x3
I0403 14:32:38.802991 13384 net.cpp:148] Top shape: 24 320 14 14 (1505280)
I0403 14:32:38.803007 13384 net.cpp:156] Memory required for data: 1230108192
I0403 14:32:38.803025 13384 layer_factory.hpp:77] Creating layer inception_4e/relu_3x3
I0403 14:32:38.803046 13384 net.cpp:91] Creating Layer inception_4e/relu_3x3
I0403 14:32:38.803063 13384 net.cpp:425] inception_4e/relu_3x3 <- inception_4e/3x3
I0403 14:32:38.803081 13384 net.cpp:386] inception_4e/relu_3x3 -> inception_4e/3x3 (in-place)
I0403 14:32:38.803377 13384 net.cpp:141] Setting up inception_4e/relu_3x3
I0403 14:32:38.803406 13384 net.cpp:148] Top shape: 24 320 14 14 (1505280)
I0403 14:32:38.803421 13384 net.cpp:156] Memory required for data: 1236129312
I0403 14:32:38.803436 13384 layer_factory.hpp:77] Creating layer inception_4e/5x5_reduce
I0403 14:32:38.803455 13384 net.cpp:91] Creating Layer inception_4e/5x5_reduce
I0403 14:32:38.803472 13384 net.cpp:425] inception_4e/5x5_reduce <- inception_4d/output_inception_4d/output_0_split_3
I0403 14:32:38.803493 13384 net.cpp:399] inception_4e/5x5_reduce -> inception_4e/5x5_reduce
I0403 14:32:38.804544 13384 net.cpp:141] Setting up inception_4e/5x5_reduce
I0403 14:32:38.804579 13384 net.cpp:148] Top shape: 24 32 14 14 (150528)
I0403 14:32:38.804599 13384 net.cpp:156] Memory required for data: 1236731424
I0403 14:32:38.804616 13384 layer_factory.hpp:77] Creating layer inception_4e/relu_5x5_reduce
I0403 14:32:38.804639 13384 net.cpp:91] Creating Layer inception_4e/relu_5x5_reduce
I0403 14:32:38.804656 13384 net.cpp:425] inception_4e/relu_5x5_reduce <- inception_4e/5x5_reduce
I0403 14:32:38.804673 13384 net.cpp:386] inception_4e/relu_5x5_reduce -> inception_4e/5x5_reduce (in-place)
I0403 14:32:38.804960 13384 net.cpp:141] Setting up inception_4e/relu_5x5_reduce
I0403 14:32:38.804986 13384 net.cpp:148] Top shape: 24 32 14 14 (150528)
I0403 14:32:38.805001 13384 net.cpp:156] Memory required for data: 1237333536
I0403 14:32:38.805016 13384 layer_factory.hpp:77] Creating layer inception_4e/5x5
I0403 14:32:38.805053 13384 net.cpp:91] Creating Layer inception_4e/5x5
I0403 14:32:38.805073 13384 net.cpp:425] inception_4e/5x5 <- inception_4e/5x5_reduce
I0403 14:32:38.805091 13384 net.cpp:399] inception_4e/5x5 -> inception_4e/5x5
I0403 14:32:38.806891 13384 net.cpp:141] Setting up inception_4e/5x5
I0403 14:32:38.806921 13384 net.cpp:148] Top shape: 24 128 14 14 (602112)
I0403 14:32:38.806938 13384 net.cpp:156] Memory required for data: 1239741984
I0403 14:32:38.806957 13384 layer_factory.hpp:77] Creating layer inception_4e/relu_5x5
I0403 14:32:38.806974 13384 net.cpp:91] Creating Layer inception_4e/relu_5x5
I0403 14:32:38.806990 13384 net.cpp:425] inception_4e/relu_5x5 <- inception_4e/5x5
I0403 14:32:38.807010 13384 net.cpp:386] inception_4e/relu_5x5 -> inception_4e/5x5 (in-place)
I0403 14:32:38.807200 13384 net.cpp:141] Setting up inception_4e/relu_5x5
I0403 14:32:38.807225 13384 net.cpp:148] Top shape: 24 128 14 14 (602112)
I0403 14:32:38.807240 13384 net.cpp:156] Memory required for data: 1242150432
I0403 14:32:38.807255 13384 layer_factory.hpp:77] Creating layer inception_4e/pool
I0403 14:32:38.807272 13384 net.cpp:91] Creating Layer inception_4e/pool
I0403 14:32:38.807287 13384 net.cpp:425] inception_4e/pool <- inception_4d/output_inception_4d/output_0_split_4
I0403 14:32:38.807307 13384 net.cpp:399] inception_4e/pool -> inception_4e/pool
I0403 14:32:38.807376 13384 net.cpp:141] Setting up inception_4e/pool
I0403 14:32:38.807400 13384 net.cpp:148] Top shape: 24 528 14 14 (2483712)
I0403 14:32:38.807415 13384 net.cpp:156] Memory required for data: 1252085280
I0403 14:32:38.807428 13384 layer_factory.hpp:77] Creating layer inception_4e/pool_proj
I0403 14:32:38.807456 13384 net.cpp:91] Creating Layer inception_4e/pool_proj
I0403 14:32:38.807473 13384 net.cpp:425] inception_4e/pool_proj <- inception_4e/pool
I0403 14:32:38.807492 13384 net.cpp:399] inception_4e/pool_proj -> inception_4e/pool_proj
I0403 14:32:38.808991 13384 net.cpp:141] Setting up inception_4e/pool_proj
I0403 14:32:38.809022 13384 net.cpp:148] Top shape: 24 128 14 14 (602112)
I0403 14:32:38.809056 13384 net.cpp:156] Memory required for data: 1254493728
I0403 14:32:38.809077 13384 layer_factory.hpp:77] Creating layer inception_4e/relu_pool_proj
I0403 14:32:38.809095 13384 net.cpp:91] Creating Layer inception_4e/relu_pool_proj
I0403 14:32:38.809111 13384 net.cpp:425] inception_4e/relu_pool_proj <- inception_4e/pool_proj
I0403 14:32:38.809131 13384 net.cpp:386] inception_4e/relu_pool_proj -> inception_4e/pool_proj (in-place)
I0403 14:32:38.809422 13384 net.cpp:141] Setting up inception_4e/relu_pool_proj
I0403 14:32:38.809451 13384 net.cpp:148] Top shape: 24 128 14 14 (602112)
I0403 14:32:38.809468 13384 net.cpp:156] Memory required for data: 1256902176
I0403 14:32:38.809484 13384 layer_factory.hpp:77] Creating layer inception_4e/output
I0403 14:32:38.809502 13384 net.cpp:91] Creating Layer inception_4e/output
I0403 14:32:38.809520 13384 net.cpp:425] inception_4e/output <- inception_4e/1x1
I0403 14:32:38.809536 13384 net.cpp:425] inception_4e/output <- inception_4e/3x3
I0403 14:32:38.809553 13384 net.cpp:425] inception_4e/output <- inception_4e/5x5
I0403 14:32:38.809576 13384 net.cpp:425] inception_4e/output <- inception_4e/pool_proj
I0403 14:32:38.809608 13384 net.cpp:399] inception_4e/output -> inception_4e/output
I0403 14:32:38.809671 13384 net.cpp:141] Setting up inception_4e/output
I0403 14:32:38.809696 13384 net.cpp:148] Top shape: 24 832 14 14 (3913728)
I0403 14:32:38.809712 13384 net.cpp:156] Memory required for data: 1272557088
I0403 14:32:38.809728 13384 layer_factory.hpp:77] Creating layer pool4/3x3_s2
I0403 14:32:38.809748 13384 net.cpp:91] Creating Layer pool4/3x3_s2
I0403 14:32:38.809767 13384 net.cpp:425] pool4/3x3_s2 <- inception_4e/output
I0403 14:32:38.809785 13384 net.cpp:399] pool4/3x3_s2 -> pool4/3x3_s2
I0403 14:32:38.809856 13384 net.cpp:141] Setting up pool4/3x3_s2
I0403 14:32:38.809881 13384 net.cpp:148] Top shape: 24 832 7 7 (978432)
I0403 14:32:38.809897 13384 net.cpp:156] Memory required for data: 1276470816
I0403 14:32:38.809922 13384 layer_factory.hpp:77] Creating layer pool4/3x3_s2_pool4/3x3_s2_0_split
I0403 14:32:38.809939 13384 net.cpp:91] Creating Layer pool4/3x3_s2_pool4/3x3_s2_0_split
I0403 14:32:38.809955 13384 net.cpp:425] pool4/3x3_s2_pool4/3x3_s2_0_split <- pool4/3x3_s2
I0403 14:32:38.809975 13384 net.cpp:399] pool4/3x3_s2_pool4/3x3_s2_0_split -> pool4/3x3_s2_pool4/3x3_s2_0_split_0
I0403 14:32:38.809998 13384 net.cpp:399] pool4/3x3_s2_pool4/3x3_s2_0_split -> pool4/3x3_s2_pool4/3x3_s2_0_split_1
I0403 14:32:38.810019 13384 net.cpp:399] pool4/3x3_s2_pool4/3x3_s2_0_split -> pool4/3x3_s2_pool4/3x3_s2_0_split_2
I0403 14:32:38.810040 13384 net.cpp:399] pool4/3x3_s2_pool4/3x3_s2_0_split -> pool4/3x3_s2_pool4/3x3_s2_0_split_3
I0403 14:32:38.810134 13384 net.cpp:141] Setting up pool4/3x3_s2_pool4/3x3_s2_0_split
I0403 14:32:38.810161 13384 net.cpp:148] Top shape: 24 832 7 7 (978432)
I0403 14:32:38.810179 13384 net.cpp:148] Top shape: 24 832 7 7 (978432)
I0403 14:32:38.810196 13384 net.cpp:148] Top shape: 24 832 7 7 (978432)
I0403 14:32:38.810212 13384 net.cpp:148] Top shape: 24 832 7 7 (978432)
I0403 14:32:38.810226 13384 net.cpp:156] Memory required for data: 1292125728
I0403 14:32:38.810242 13384 layer_factory.hpp:77] Creating layer inception_5a/1x1
I0403 14:32:38.810266 13384 net.cpp:91] Creating Layer inception_5a/1x1
I0403 14:32:38.810286 13384 net.cpp:425] inception_5a/1x1 <- pool4/3x3_s2_pool4/3x3_s2_0_split_0
I0403 14:32:38.810305 13384 net.cpp:399] inception_5a/1x1 -> inception_5a/1x1
I0403 14:32:38.813279 13384 net.cpp:141] Setting up inception_5a/1x1
I0403 14:32:38.813311 13384 net.cpp:148] Top shape: 24 256 7 7 (301056)
I0403 14:32:38.813329 13384 net.cpp:156] Memory required for data: 1293329952
I0403 14:32:38.813349 13384 layer_factory.hpp:77] Creating layer inception_5a/relu_1x1
I0403 14:32:38.813367 13384 net.cpp:91] Creating Layer inception_5a/relu_1x1
I0403 14:32:38.813385 13384 net.cpp:425] inception_5a/relu_1x1 <- inception_5a/1x1
I0403 14:32:38.813405 13384 net.cpp:386] inception_5a/relu_1x1 -> inception_5a/1x1 (in-place)
I0403 14:32:38.813731 13384 net.cpp:141] Setting up inception_5a/relu_1x1
I0403 14:32:38.813760 13384 net.cpp:148] Top shape: 24 256 7 7 (301056)
I0403 14:32:38.813776 13384 net.cpp:156] Memory required for data: 1294534176
I0403 14:32:38.813791 13384 layer_factory.hpp:77] Creating layer inception_5a/3x3_reduce
I0403 14:32:38.813814 13384 net.cpp:91] Creating Layer inception_5a/3x3_reduce
I0403 14:32:38.813833 13384 net.cpp:425] inception_5a/3x3_reduce <- pool4/3x3_s2_pool4/3x3_s2_0_split_1
I0403 14:32:38.813855 13384 net.cpp:399] inception_5a/3x3_reduce -> inception_5a/3x3_reduce
I0403 14:32:38.816402 13384 net.cpp:141] Setting up inception_5a/3x3_reduce
I0403 14:32:38.816433 13384 net.cpp:148] Top shape: 24 160 7 7 (188160)
I0403 14:32:38.816450 13384 net.cpp:156] Memory required for data: 1295286816
I0403 14:32:38.816470 13384 layer_factory.hpp:77] Creating layer inception_5a/relu_3x3_reduce
I0403 14:32:38.816493 13384 net.cpp:91] Creating Layer inception_5a/relu_3x3_reduce
I0403 14:32:38.816511 13384 net.cpp:425] inception_5a/relu_3x3_reduce <- inception_5a/3x3_reduce
I0403 14:32:38.816529 13384 net.cpp:386] inception_5a/relu_3x3_reduce -> inception_5a/3x3_reduce (in-place)
I0403 14:32:38.816728 13384 net.cpp:141] Setting up inception_5a/relu_3x3_reduce
I0403 14:32:38.816754 13384 net.cpp:148] Top shape: 24 160 7 7 (188160)
I0403 14:32:38.816771 13384 net.cpp:156] Memory required for data: 1296039456
I0403 14:32:38.816786 13384 layer_factory.hpp:77] Creating layer inception_5a/3x3
I0403 14:32:38.816812 13384 net.cpp:91] Creating Layer inception_5a/3x3
I0403 14:32:38.816830 13384 net.cpp:425] inception_5a/3x3 <- inception_5a/3x3_reduce
I0403 14:32:38.816854 13384 net.cpp:399] inception_5a/3x3 -> inception_5a/3x3
I0403 14:32:38.822039 13384 net.cpp:141] Setting up inception_5a/3x3
I0403 14:32:38.822074 13384 net.cpp:148] Top shape: 24 320 7 7 (376320)
I0403 14:32:38.822094 13384 net.cpp:156] Memory required for data: 1297544736
I0403 14:32:38.822114 13384 layer_factory.hpp:77] Creating layer inception_5a/relu_3x3
I0403 14:32:38.822134 13384 net.cpp:91] Creating Layer inception_5a/relu_3x3
I0403 14:32:38.822151 13384 net.cpp:425] inception_5a/relu_3x3 <- inception_5a/3x3
I0403 14:32:38.822173 13384 net.cpp:386] inception_5a/relu_3x3 -> inception_5a/3x3 (in-place)
I0403 14:32:38.822479 13384 net.cpp:141] Setting up inception_5a/relu_3x3
I0403 14:32:38.822509 13384 net.cpp:148] Top shape: 24 320 7 7 (376320)
I0403 14:32:38.822526 13384 net.cpp:156] Memory required for data: 1299050016
I0403 14:32:38.822543 13384 layer_factory.hpp:77] Creating layer inception_5a/5x5_reduce
I0403 14:32:38.822571 13384 net.cpp:91] Creating Layer inception_5a/5x5_reduce
I0403 14:32:38.822593 13384 net.cpp:425] inception_5a/5x5_reduce <- pool4/3x3_s2_pool4/3x3_s2_0_split_2
I0403 14:32:38.822615 13384 net.cpp:399] inception_5a/5x5_reduce -> inception_5a/5x5_reduce
I0403 14:32:38.823837 13384 net.cpp:141] Setting up inception_5a/5x5_reduce
I0403 14:32:38.823868 13384 net.cpp:148] Top shape: 24 32 7 7 (37632)
I0403 14:32:38.823886 13384 net.cpp:156] Memory required for data: 1299200544
I0403 14:32:38.823906 13384 layer_factory.hpp:77] Creating layer inception_5a/relu_5x5_reduce
I0403 14:32:38.823926 13384 net.cpp:91] Creating Layer inception_5a/relu_5x5_reduce
I0403 14:32:38.823945 13384 net.cpp:425] inception_5a/relu_5x5_reduce <- inception_5a/5x5_reduce
I0403 14:32:38.823966 13384 net.cpp:386] inception_5a/relu_5x5_reduce -> inception_5a/5x5_reduce (in-place)
I0403 14:32:38.824276 13384 net.cpp:141] Setting up inception_5a/relu_5x5_reduce
I0403 14:32:38.824303 13384 net.cpp:148] Top shape: 24 32 7 7 (37632)
I0403 14:32:38.824319 13384 net.cpp:156] Memory required for data: 1299351072
I0403 14:32:38.824336 13384 layer_factory.hpp:77] Creating layer inception_5a/5x5
I0403 14:32:38.824358 13384 net.cpp:91] Creating Layer inception_5a/5x5
I0403 14:32:38.824376 13384 net.cpp:425] inception_5a/5x5 <- inception_5a/5x5_reduce
I0403 14:32:38.824399 13384 net.cpp:399] inception_5a/5x5 -> inception_5a/5x5
I0403 14:32:38.826192 13384 net.cpp:141] Setting up inception_5a/5x5
I0403 14:32:38.826238 13384 net.cpp:148] Top shape: 24 128 7 7 (150528)
I0403 14:32:38.826258 13384 net.cpp:156] Memory required for data: 1299953184
I0403 14:32:38.826279 13384 layer_factory.hpp:77] Creating layer inception_5a/relu_5x5
I0403 14:32:38.826299 13384 net.cpp:91] Creating Layer inception_5a/relu_5x5
I0403 14:32:38.826318 13384 net.cpp:425] inception_5a/relu_5x5 <- inception_5a/5x5
I0403 14:32:38.826339 13384 net.cpp:386] inception_5a/relu_5x5 -> inception_5a/5x5 (in-place)
I0403 14:32:38.826539 13384 net.cpp:141] Setting up inception_5a/relu_5x5
I0403 14:32:38.826571 13384 net.cpp:148] Top shape: 24 128 7 7 (150528)
I0403 14:32:38.826591 13384 net.cpp:156] Memory required for data: 1300555296
I0403 14:32:38.826606 13384 layer_factory.hpp:77] Creating layer inception_5a/pool
I0403 14:32:38.826625 13384 net.cpp:91] Creating Layer inception_5a/pool
I0403 14:32:38.826642 13384 net.cpp:425] inception_5a/pool <- pool4/3x3_s2_pool4/3x3_s2_0_split_3
I0403 14:32:38.826665 13384 net.cpp:399] inception_5a/pool -> inception_5a/pool
I0403 14:32:38.826740 13384 net.cpp:141] Setting up inception_5a/pool
I0403 14:32:38.826767 13384 net.cpp:148] Top shape: 24 832 7 7 (978432)
I0403 14:32:38.826783 13384 net.cpp:156] Memory required for data: 1304469024
I0403 14:32:38.826798 13384 layer_factory.hpp:77] Creating layer inception_5a/pool_proj
I0403 14:32:38.826824 13384 net.cpp:91] Creating Layer inception_5a/pool_proj
I0403 14:32:38.826844 13384 net.cpp:425] inception_5a/pool_proj <- inception_5a/pool
I0403 14:32:38.826864 13384 net.cpp:399] inception_5a/pool_proj -> inception_5a/pool_proj
I0403 14:32:38.829211 13384 net.cpp:141] Setting up inception_5a/pool_proj
I0403 14:32:38.829244 13384 net.cpp:148] Top shape: 24 128 7 7 (150528)
I0403 14:32:38.829263 13384 net.cpp:156] Memory required for data: 1305071136
I0403 14:32:38.829283 13384 layer_factory.hpp:77] Creating layer inception_5a/relu_pool_proj
I0403 14:32:38.829303 13384 net.cpp:91] Creating Layer inception_5a/relu_pool_proj
I0403 14:32:38.829320 13384 net.cpp:425] inception_5a/relu_pool_proj <- inception_5a/pool_proj
I0403 14:32:38.829340 13384 net.cpp:386] inception_5a/relu_pool_proj -> inception_5a/pool_proj (in-place)
I0403 14:32:38.829640 13384 net.cpp:141] Setting up inception_5a/relu_pool_proj
I0403 14:32:38.829668 13384 net.cpp:148] Top shape: 24 128 7 7 (150528)
I0403 14:32:38.829685 13384 net.cpp:156] Memory required for data: 1305673248
I0403 14:32:38.829700 13384 layer_factory.hpp:77] Creating layer inception_5a/output
I0403 14:32:38.829718 13384 net.cpp:91] Creating Layer inception_5a/output
I0403 14:32:38.829735 13384 net.cpp:425] inception_5a/output <- inception_5a/1x1
I0403 14:32:38.829751 13384 net.cpp:425] inception_5a/output <- inception_5a/3x3
I0403 14:32:38.829768 13384 net.cpp:425] inception_5a/output <- inception_5a/5x5
I0403 14:32:38.829784 13384 net.cpp:425] inception_5a/output <- inception_5a/pool_proj
I0403 14:32:38.829802 13384 net.cpp:399] inception_5a/output -> inception_5a/output
I0403 14:32:38.829855 13384 net.cpp:141] Setting up inception_5a/output
I0403 14:32:38.829879 13384 net.cpp:148] Top shape: 24 832 7 7 (978432)
I0403 14:32:38.829895 13384 net.cpp:156] Memory required for data: 1309586976
I0403 14:32:38.829910 13384 layer_factory.hpp:77] Creating layer inception_5a/output_inception_5a/output_0_split
I0403 14:32:38.829929 13384 net.cpp:91] Creating Layer inception_5a/output_inception_5a/output_0_split
I0403 14:32:38.829946 13384 net.cpp:425] inception_5a/output_inception_5a/output_0_split <- inception_5a/output
I0403 14:32:38.829963 13384 net.cpp:399] inception_5a/output_inception_5a/output_0_split -> inception_5a/output_inception_5a/output_0_split_0
I0403 14:32:38.829984 13384 net.cpp:399] inception_5a/output_inception_5a/output_0_split -> inception_5a/output_inception_5a/output_0_split_1
I0403 14:32:38.830006 13384 net.cpp:399] inception_5a/output_inception_5a/output_0_split -> inception_5a/output_inception_5a/output_0_split_2
I0403 14:32:38.830027 13384 net.cpp:399] inception_5a/output_inception_5a/output_0_split -> inception_5a/output_inception_5a/output_0_split_3
I0403 14:32:38.830140 13384 net.cpp:141] Setting up inception_5a/output_inception_5a/output_0_split
I0403 14:32:38.830164 13384 net.cpp:148] Top shape: 24 832 7 7 (978432)
I0403 14:32:38.830181 13384 net.cpp:148] Top shape: 24 832 7 7 (978432)
I0403 14:32:38.830198 13384 net.cpp:148] Top shape: 24 832 7 7 (978432)
I0403 14:32:38.830214 13384 net.cpp:148] Top shape: 24 832 7 7 (978432)
I0403 14:32:38.830227 13384 net.cpp:156] Memory required for data: 1325241888
I0403 14:32:38.830242 13384 layer_factory.hpp:77] Creating layer inception_5b/1x1
I0403 14:32:38.830263 13384 net.cpp:91] Creating Layer inception_5b/1x1
I0403 14:32:38.830281 13384 net.cpp:425] inception_5b/1x1 <- inception_5a/output_inception_5a/output_0_split_0
I0403 14:32:38.830303 13384 net.cpp:399] inception_5b/1x1 -> inception_5b/1x1
I0403 14:32:38.834096 13384 net.cpp:141] Setting up inception_5b/1x1
I0403 14:32:38.834127 13384 net.cpp:148] Top shape: 24 384 7 7 (451584)
I0403 14:32:38.834143 13384 net.cpp:156] Memory required for data: 1327048224
I0403 14:32:38.834162 13384 layer_factory.hpp:77] Creating layer inception_5b/relu_1x1
I0403 14:32:38.834183 13384 net.cpp:91] Creating Layer inception_5b/relu_1x1
I0403 14:32:38.834202 13384 net.cpp:425] inception_5b/relu_1x1 <- inception_5b/1x1
I0403 14:32:38.834219 13384 net.cpp:386] inception_5b/relu_1x1 -> inception_5b/1x1 (in-place)
I0403 14:32:38.834525 13384 net.cpp:141] Setting up inception_5b/relu_1x1
I0403 14:32:38.834553 13384 net.cpp:148] Top shape: 24 384 7 7 (451584)
I0403 14:32:38.834580 13384 net.cpp:156] Memory required for data: 1328854560
I0403 14:32:38.834600 13384 layer_factory.hpp:77] Creating layer inception_5b/3x3_reduce
I0403 14:32:38.834626 13384 net.cpp:91] Creating Layer inception_5b/3x3_reduce
I0403 14:32:38.834645 13384 net.cpp:425] inception_5b/3x3_reduce <- inception_5a/output_inception_5a/output_0_split_1
I0403 14:32:38.834666 13384 net.cpp:399] inception_5b/3x3_reduce -> inception_5b/3x3_reduce
I0403 14:32:38.837329 13384 net.cpp:141] Setting up inception_5b/3x3_reduce
I0403 14:32:38.837363 13384 net.cpp:148] Top shape: 24 192 7 7 (225792)
I0403 14:32:38.837380 13384 net.cpp:156] Memory required for data: 1329757728
I0403 14:32:38.837401 13384 layer_factory.hpp:77] Creating layer inception_5b/relu_3x3_reduce
I0403 14:32:38.837420 13384 net.cpp:91] Creating Layer inception_5b/relu_3x3_reduce
I0403 14:32:38.837438 13384 net.cpp:425] inception_5b/relu_3x3_reduce <- inception_5b/3x3_reduce
I0403 14:32:38.837456 13384 net.cpp:386] inception_5b/relu_3x3_reduce -> inception_5b/3x3_reduce (in-place)
I0403 14:32:38.837656 13384 net.cpp:141] Setting up inception_5b/relu_3x3_reduce
I0403 14:32:38.837682 13384 net.cpp:148] Top shape: 24 192 7 7 (225792)
I0403 14:32:38.837697 13384 net.cpp:156] Memory required for data: 1330660896
I0403 14:32:38.837712 13384 layer_factory.hpp:77] Creating layer inception_5b/3x3
I0403 14:32:38.837734 13384 net.cpp:91] Creating Layer inception_5b/3x3
I0403 14:32:38.837752 13384 net.cpp:425] inception_5b/3x3 <- inception_5b/3x3_reduce
I0403 14:32:38.837775 13384 net.cpp:399] inception_5b/3x3 -> inception_5b/3x3
I0403 14:32:38.844496 13384 net.cpp:141] Setting up inception_5b/3x3
I0403 14:32:38.844529 13384 net.cpp:148] Top shape: 24 384 7 7 (451584)
I0403 14:32:38.844549 13384 net.cpp:156] Memory required for data: 1332467232
I0403 14:32:38.844578 13384 layer_factory.hpp:77] Creating layer inception_5b/relu_3x3
I0403 14:32:38.844606 13384 net.cpp:91] Creating Layer inception_5b/relu_3x3
I0403 14:32:38.844624 13384 net.cpp:425] inception_5b/relu_3x3 <- inception_5b/3x3
I0403 14:32:38.844642 13384 net.cpp:386] inception_5b/relu_3x3 -> inception_5b/3x3 (in-place)
I0403 14:32:38.844951 13384 net.cpp:141] Setting up inception_5b/relu_3x3
I0403 14:32:38.844981 13384 net.cpp:148] Top shape: 24 384 7 7 (451584)
I0403 14:32:38.845000 13384 net.cpp:156] Memory required for data: 1334273568
I0403 14:32:38.845016 13384 layer_factory.hpp:77] Creating layer inception_5b/5x5_reduce
I0403 14:32:38.845057 13384 net.cpp:91] Creating Layer inception_5b/5x5_reduce
I0403 14:32:38.845078 13384 net.cpp:425] inception_5b/5x5_reduce <- inception_5a/output_inception_5a/output_0_split_2
I0403 14:32:38.845099 13384 net.cpp:399] inception_5b/5x5_reduce -> inception_5b/5x5_reduce
I0403 14:32:38.846386 13384 net.cpp:141] Setting up inception_5b/5x5_reduce
I0403 14:32:38.846418 13384 net.cpp:148] Top shape: 24 48 7 7 (56448)
I0403 14:32:38.846436 13384 net.cpp:156] Memory required for data: 1334499360
I0403 14:32:38.846456 13384 layer_factory.hpp:77] Creating layer inception_5b/relu_5x5_reduce
I0403 14:32:38.846474 13384 net.cpp:91] Creating Layer inception_5b/relu_5x5_reduce
I0403 14:32:38.846493 13384 net.cpp:425] inception_5b/relu_5x5_reduce <- inception_5b/5x5_reduce
I0403 14:32:38.846514 13384 net.cpp:386] inception_5b/relu_5x5_reduce -> inception_5b/5x5_reduce (in-place)
I0403 14:32:38.846901 13384 net.cpp:141] Setting up inception_5b/relu_5x5_reduce
I0403 14:32:38.846926 13384 net.cpp:148] Top shape: 24 48 7 7 (56448)
I0403 14:32:38.846941 13384 net.cpp:156] Memory required for data: 1334725152
I0403 14:32:38.846956 13384 layer_factory.hpp:77] Creating layer inception_5b/5x5
I0403 14:32:38.846976 13384 net.cpp:91] Creating Layer inception_5b/5x5
I0403 14:32:38.846992 13384 net.cpp:425] inception_5b/5x5 <- inception_5b/5x5_reduce
I0403 14:32:38.847012 13384 net.cpp:399] inception_5b/5x5 -> inception_5b/5x5
I0403 14:32:38.849050 13384 net.cpp:141] Setting up inception_5b/5x5
I0403 14:32:38.849077 13384 net.cpp:148] Top shape: 24 128 7 7 (150528)
I0403 14:32:38.849094 13384 net.cpp:156] Memory required for data: 1335327264
I0403 14:32:38.849112 13384 layer_factory.hpp:77] Creating layer inception_5b/relu_5x5
I0403 14:32:38.849130 13384 net.cpp:91] Creating Layer inception_5b/relu_5x5
I0403 14:32:38.849146 13384 net.cpp:425] inception_5b/relu_5x5 <- inception_5b/5x5
I0403 14:32:38.849166 13384 net.cpp:386] inception_5b/relu_5x5 -> inception_5b/5x5 (in-place)
I0403 14:32:38.849354 13384 net.cpp:141] Setting up inception_5b/relu_5x5
I0403 14:32:38.849380 13384 net.cpp:148] Top shape: 24 128 7 7 (150528)
I0403 14:32:38.849395 13384 net.cpp:156] Memory required for data: 1335929376
I0403 14:32:38.849409 13384 layer_factory.hpp:77] Creating layer inception_5b/pool
I0403 14:32:38.849429 13384 net.cpp:91] Creating Layer inception_5b/pool
I0403 14:32:38.849447 13384 net.cpp:425] inception_5b/pool <- inception_5a/output_inception_5a/output_0_split_3
I0403 14:32:38.849464 13384 net.cpp:399] inception_5b/pool -> inception_5b/pool
I0403 14:32:38.849536 13384 net.cpp:141] Setting up inception_5b/pool
I0403 14:32:38.849560 13384 net.cpp:148] Top shape: 24 832 7 7 (978432)
I0403 14:32:38.849581 13384 net.cpp:156] Memory required for data: 1339843104
I0403 14:32:38.849596 13384 layer_factory.hpp:77] Creating layer inception_5b/pool_proj
I0403 14:32:38.849617 13384 net.cpp:91] Creating Layer inception_5b/pool_proj
I0403 14:32:38.849634 13384 net.cpp:425] inception_5b/pool_proj <- inception_5b/pool
I0403 14:32:38.849655 13384 net.cpp:399] inception_5b/pool_proj -> inception_5b/pool_proj
I0403 14:32:38.851915 13384 net.cpp:141] Setting up inception_5b/pool_proj
I0403 14:32:38.851946 13384 net.cpp:148] Top shape: 24 128 7 7 (150528)
I0403 14:32:38.851964 13384 net.cpp:156] Memory required for data: 1340445216
I0403 14:32:38.851984 13384 layer_factory.hpp:77] Creating layer inception_5b/relu_pool_proj
I0403 14:32:38.852000 13384 net.cpp:91] Creating Layer inception_5b/relu_pool_proj
I0403 14:32:38.852018 13384 net.cpp:425] inception_5b/relu_pool_proj <- inception_5b/pool_proj
I0403 14:32:38.852038 13384 net.cpp:386] inception_5b/relu_pool_proj -> inception_5b/pool_proj (in-place)
I0403 14:32:38.852327 13384 net.cpp:141] Setting up inception_5b/relu_pool_proj
I0403 14:32:38.852357 13384 net.cpp:148] Top shape: 24 128 7 7 (150528)
I0403 14:32:38.852373 13384 net.cpp:156] Memory required for data: 1341047328
I0403 14:32:38.852387 13384 layer_factory.hpp:77] Creating layer inception_5b/output
I0403 14:32:38.852404 13384 net.cpp:91] Creating Layer inception_5b/output
I0403 14:32:38.852434 13384 net.cpp:425] inception_5b/output <- inception_5b/1x1
I0403 14:32:38.852452 13384 net.cpp:425] inception_5b/output <- inception_5b/3x3
I0403 14:32:38.852469 13384 net.cpp:425] inception_5b/output <- inception_5b/5x5
I0403 14:32:38.852486 13384 net.cpp:425] inception_5b/output <- inception_5b/pool_proj
I0403 14:32:38.852505 13384 net.cpp:399] inception_5b/output -> inception_5b/output
I0403 14:32:38.852556 13384 net.cpp:141] Setting up inception_5b/output
I0403 14:32:38.852593 13384 net.cpp:148] Top shape: 24 1024 7 7 (1204224)
I0403 14:32:38.852609 13384 net.cpp:156] Memory required for data: 1345864224
I0403 14:32:38.852623 13384 layer_factory.hpp:77] Creating layer pool5/7x7_s1
I0403 14:32:38.852644 13384 net.cpp:91] Creating Layer pool5/7x7_s1
I0403 14:32:38.852661 13384 net.cpp:425] pool5/7x7_s1 <- inception_5b/output
I0403 14:32:38.852679 13384 net.cpp:399] pool5/7x7_s1 -> pool5/7x7_s1
I0403 14:32:38.852895 13384 net.cpp:141] Setting up pool5/7x7_s1
I0403 14:32:38.852923 13384 net.cpp:148] Top shape: 24 1024 1 1 (24576)
I0403 14:32:38.852939 13384 net.cpp:156] Memory required for data: 1345962528
I0403 14:32:38.852954 13384 layer_factory.hpp:77] Creating layer pool5/drop_7x7_s1
I0403 14:32:38.852972 13384 net.cpp:91] Creating Layer pool5/drop_7x7_s1
I0403 14:32:38.852987 13384 net.cpp:425] pool5/drop_7x7_s1 <- pool5/7x7_s1
I0403 14:32:38.853008 13384 net.cpp:386] pool5/drop_7x7_s1 -> pool5/7x7_s1 (in-place)
I0403 14:32:38.853058 13384 net.cpp:141] Setting up pool5/drop_7x7_s1
I0403 14:32:38.853081 13384 net.cpp:148] Top shape: 24 1024 1 1 (24576)
I0403 14:32:38.853096 13384 net.cpp:156] Memory required for data: 1346060832
I0403 14:32:38.853109 13384 layer_factory.hpp:77] Creating layer loss3/classifier_plantvillage
I0403 14:32:38.853130 13384 net.cpp:91] Creating Layer loss3/classifier_plantvillage
I0403 14:32:38.853147 13384 net.cpp:425] loss3/classifier_plantvillage <- pool5/7x7_s1
I0403 14:32:38.853168 13384 net.cpp:399] loss3/classifier_plantvillage -> loss3/classifier_plantvillage
I0403 14:32:38.853588 13384 net.cpp:141] Setting up loss3/classifier_plantvillage
I0403 14:32:38.853613 13384 net.cpp:148] Top shape: 24 38 (912)
I0403 14:32:38.853641 13384 net.cpp:156] Memory required for data: 1346064480
I0403 14:32:38.853658 13384 layer_factory.hpp:77] Creating layer loss3/classifier_plantvillage_loss3/classifier_plantvillage_0_split
I0403 14:32:38.853679 13384 net.cpp:91] Creating Layer loss3/classifier_plantvillage_loss3/classifier_plantvillage_0_split
I0403 14:32:38.853696 13384 net.cpp:425] loss3/classifier_plantvillage_loss3/classifier_plantvillage_0_split <- loss3/classifier_plantvillage
I0403 14:32:38.853714 13384 net.cpp:399] loss3/classifier_plantvillage_loss3/classifier_plantvillage_0_split -> loss3/classifier_plantvillage_loss3/classifier_plantvillage_0_split_0
I0403 14:32:38.853735 13384 net.cpp:399] loss3/classifier_plantvillage_loss3/classifier_plantvillage_0_split -> loss3/classifier_plantvillage_loss3/classifier_plantvillage_0_split_1
I0403 14:32:38.853757 13384 net.cpp:399] loss3/classifier_plantvillage_loss3/classifier_plantvillage_0_split -> loss3/classifier_plantvillage_loss3/classifier_plantvillage_0_split_2
I0403 14:32:38.853778 13384 net.cpp:399] loss3/classifier_plantvillage_loss3/classifier_plantvillage_0_split -> loss3/classifier_plantvillage_loss3/classifier_plantvillage_0_split_3
I0403 14:32:38.853881 13384 net.cpp:141] Setting up loss3/classifier_plantvillage_loss3/classifier_plantvillage_0_split
I0403 14:32:38.853904 13384 net.cpp:148] Top shape: 24 38 (912)
I0403 14:32:38.853920 13384 net.cpp:148] Top shape: 24 38 (912)
I0403 14:32:38.853948 13384 net.cpp:148] Top shape: 24 38 (912)
I0403 14:32:38.853963 13384 net.cpp:148] Top shape: 24 38 (912)
I0403 14:32:38.853976 13384 net.cpp:156] Memory required for data: 1346079072
I0403 14:32:38.853991 13384 layer_factory.hpp:77] Creating layer loss1/loss
I0403 14:32:38.854010 13384 net.cpp:91] Creating Layer loss1/loss
I0403 14:32:38.854027 13384 net.cpp:425] loss1/loss <- loss1/classifier_plantvillage_loss1/classifier_plantvillage_0_split_0
I0403 14:32:38.854058 13384 net.cpp:425] loss1/loss <- label_data_1_split_0
…
