…
I0403 14:16:06.572518 13094 net.cpp:313] The NetState phase (1) differed from the phase (0) specified by a rule in layer data
I0403 14:16:06.573669 13094 net.cpp:49] Initializing net from parameters: 
state {
  phase: TEST
}
layer {
  name: "data"
  type: "Data"
  top: "data"
  top: "label"
  include {
    phase: TEST
  }
  transform_param {
    mirror: false
    crop_size: 224
    mean_file: "/home/mohanty/data/final_dataset/lmdb/color-40-60/mean.binaryproto"
  }
  data_param {
    source: "/home/mohanty/data/final_dataset/lmdb/color-40-60/test_db"
    batch_size: 24
    backend: LMDB
  }
}
layer {
  name: "conv1/7x7_s2"
  type: "Convolution"
  bottom: "data"
  top: "conv1/7x7_s2"
  param {
    lr_mult: 1
    decay_mult: 1
  }
  param {
    lr_mult: 2
    decay_mult: 0
  }
  convolution_param {
    num_output: 64
    pad: 3
    kernel_size: 7
    stride: 2
    weight_filler {
      type: "xavier"
      std: 0.1
    }
    bias_filler {
      type: "constant"
      value: 0.2
    }
  }
}
layer {
  name: "conv1/relu_7x7"
  type: "ReLU"
  bottom: "conv1/7x7_s2"
  top: "conv1/7x7_s2"
}
layer {
  name: "pool1/3x3_s2"
  type: "Pooling"
  bottom: "conv1/7x7_s2"
  top: "pool1/3x3_s2"
  pooling_param {
    pool: MAX
    kernel_size: 3
    stride: 2
  }
}
layer {
  name: "pool1/norm1"
  type: "LRN"
  bottom: "pool1/3x3_s2"
  top: "pool1/norm1"
  lrn_param {
    local_size: 5
    alpha: 0.0001
    beta: 0.75
  }
}
layer {
  name: "conv2/3x3_reduce"
  type: "Convolution"
  bottom: "pool1/norm1"
  top: "conv2/3x3_reduce"
  param {
    lr_mult: 1
    decay_mult: 1
  }
  param {
    lr_mult: 2
    decay_mult: 0
  }
  convolution_param {
    num_output: 64
    kernel_size: 1
    weight_filler {
      type: "xavier"
      std: 0.1
    }
    bias_filler {
      type: "constant"
      value: 0.2
    }
  }
}
layer {
  name: "conv2/relu_3x3_reduce"
  type: "ReLU"
  bottom: "conv2/3x3_reduce"
  top: "conv2/3x3_reduce"
}
layer {
  name: "conv2/3x3"
  type: "Convolution"
  bottom: "conv2/3x3_reduce"
  top: "conv2/3x3"
  param {
    lr_mult: 1
    decay_mult: 1
  }
  param {
    lr_mult: 2
    decay_mult: 0
  }
  convolution_param {
    num_output: 192
    pad: 1
    kernel_size: 3
    weight_filler {
      type: "xavier"
      std: 0.03
    }
    bias_filler {
      type: "constant"
      value: 0.2
    }
  }
}
layer {
  name: "conv2/relu_3x3"
  type: "ReLU"
  bottom: "conv2/3x3"
  top: "conv2/3x3"
}
layer {
  name: "conv2/norm2"
  type: "LRN"
  bottom: "conv2/3x3"
  top: "conv2/norm2"
  lrn_param {
    local_size: 5
    alpha: 0.0001
    beta: 0.75
  }
}
layer {
  name: "pool2/3x3_s2"
  type: "Pooling"
  bottom: "conv2/norm2"
  top: "pool2/3x3_s2"
  pooling_param {
    pool: MAX
    kernel_size: 3
    stride: 2
  }
}
layer {
  name: "inception_3a/1x1"
  type: "Convolution"
  bottom: "pool2/3x3_s2"
  top: "inception_3a/1x1"
  param {
    lr_mult: 1
    decay_mult: 1
  }
  param {
    lr_mult: 2
    decay_mult: 0
  }
  convolution_param {
    num_output: 64
    kernel_size: 1
    weight_filler {
      type: "xavier"
      std: 0.03
    }
    bias_filler {
      type: "constant"
      value: 0.2
    }
  }
}
layer {
  name: "inception_3a/relu_1x1"
  type: "ReLU"
  bottom: "inception_3a/1x1"
  top: "inception_3a/1x1"
}
layer {
  name: "inception_3a/3x3_reduce"
  type: "Convolution"
  bottom: "pool2/3x3_s2"
  top: "inception_3a/3x3_reduce"
  param {
    lr_mult: 1
    decay_mult: 1
  }
  param {
    lr_mult: 2
    decay_mult: 0
  }
  convolution_param {
    num_output: 96
    kernel_size: 1
    weight_filler {
      type: "xavier"
      std: 0.09
    }
    bias_filler {
      type: "constant"
      value: 0.2
    }
  }
}
layer {
  name: "inception_3a/relu_3x3_reduce"
  type: "ReLU"
  bottom: "inception_3a/3x3_reduce"
  top: "inception_3a/3x3_reduce"
}
layer {
  name: "inception_3a/3x3"
  type: "Convolution"
  bottom: "inception_3a/3x3_reduce"
  top: "inception_3a/3x3"
  param {
    lr_mult: 1
    decay_mult: 1
  }
  param {
    lr_mult: 2
    decay_mult: 0
  }
  convolution_param {
    num_output: 128
    pad: 1
    kernel_size: 3
    weight_filler {
      type: "xavier"
      std: 0.03
    }
    bias_filler {
      type: "constant"
      value: 0.2
    }
  }
}
layer {
  name: "inception_3a/relu_3x3"
  type: "ReLU"
  bottom: "inception_3a/3x3"
  top: "inception_3a/3x3"
}
layer {
  name: "inception_3a/5x5_reduce"
  type: "Convolution"
  bottom: "pool2/3x3_s2"
  top: "inception_3a/5x5_reduce"
  param {
    lr_mult: 1
    decay_mult: 1
  }
  param {
    lr_mult: 2
    decay_mult: 0
  }
  convolution_param {
    num_output: 16
    kernel_size: 1
    weight_filler {
      type: "xavier"
      std: 0.2
    }
    bias_filler {
      type: "constant"
      value: 0.2
    }
  }
}
layer {
  name: "inception_3a/relu_5x5_reduce"
  type: "ReLU"
  bottom: "inception_3a/5x5_reduce"
  top: "inception_3a/5x5_reduce"
}
layer {
  name: "inception_3a/5x5"
  type: "Convolution"
  bottom: "inception_3a/5x5_reduce"
  top: "inception_3a/5x5"
  param {
    lr_mult: 1
    decay_mult: 1
  }
  param {
    lr_mult: 2
    decay_mult: 0
  }
  convolution_param {
    num_output: 32
    pad: 2
    kernel_size: 5
    weight_filler {
      type: "xavier"
      std: 0.03
    }
    bias_filler {
      type: "constant"
      value: 0.2
    }
  }
}
layer {
  name: "inception_3a/relu_5x5"
  type: "ReLU"
  bottom: "inception_3a/5x5"
  top: "inception_3a/5x5"
}
layer {
  name: "inception_3a/pool"
  type: "Pooling"
  bottom: "pool2/3x3_s2"
  top: "inception_3a/pool"
  pooling_param {
    pool: MAX
    kernel_size: 3
    stride: 1
    pad: 1
  }
}
layer {
  name: "inception_3a/pool_proj"
  type: "Convolution"
  bottom: "inception_3a/pool"
  top: "inception_3a/pool_proj"
  param {
    lr_mult: 1
    decay_mult: 1
  }
  param {
    lr_mult: 2
    decay_mult: 0
  }
  convolution_param {
    num_output: 32
    kernel_size: 1
    weight_filler {
      type: "xavier"
      std: 0.1
    }
    bias_filler {
      type: "constant"
      value: 0.2
    }
  }
}
layer {
  name: "inception_3a/relu_pool_proj"
  type: "ReLU"
  bottom: "inception_3a/pool_proj"
  top: "inception_3a/pool_proj"
}
layer {
  name: "inception_3a/output"
  type: "Concat"
  bottom: "inception_3a/1x1"
  bottom: "inception_3a/3x3"
  bottom: "inception_3a/5x5"
  bottom: "inception_3a/pool_proj"
  top: "inception_3a/output"
}
layer {
  name: "inception_3b/1x1"
  type: "Convolution"
  bottom: "inception_3a/output"
  top: "inception_3b/1x1"
  param {
    lr_mult: 1
    decay_mult: 1
  }
  param {
    lr_mult: 2
    decay_mult: 0
  }
  convolution_param {
    num_output: 128
    kernel_size: 1
    weight_filler {
      type: "xavier"
      std: 0.03
    }
    bias_filler {
      type: "constant"
      value: 0.2
    }
  }
}
layer {
  name: "inception_3b/relu_1x1"
  type: "ReLU"
  bottom: "inception_3b/1x1"
  top: "inception_3b/1x1"
}
layer {
  name: "inception_3b/3x3_reduce"
  type: "Convolution"
  bottom: "inception_3a/output"
  top: "inception_3b/3x3_reduce"
  param {
    lr_mult: 1
    decay_mult: 1
  }
  param {
    lr_mult: 2
    decay_mult: 0
  }
  convolution_param {
    num_output: 128
    kernel_size: 1
    weight_filler {
      type: "xavier"
      std: 0.09
    }
    bias_filler {
      type: "constant"
      value: 0.2
    }
  }
}
layer {
  name: "inception_3b/relu_3x3_reduce"
  type: "ReLU"
  bottom: "inception_3b/3x3_reduce"
  top: "inception_3b/3x3_reduce"
}
layer {
  name: "inception_3b/3x3"
  type: "Convolution"
  bottom: "inception_3b/3x3_reduce"
  top: "inception_3b/3x3"
  param {
    lr_mult: 1
    decay_mult: 1
  }
  param {
    lr_mult: 2
    decay_mult: 0
  }
  convolution_param {
    num_output: 192
    pad: 1
    kernel_size: 3
    weight_filler {
      type: "xavier"
      std: 0.03
    }
    bias_filler {
      type: "constant"
      value: 0.2
    }
  }
}
layer {
  name: "inception_3b/relu_3x3"
  type: "ReLU"
  bottom: "inception_3b/3x3"
  top: "inception_3b/3x3"
}
layer {
  name: "inception_3b/5x5_reduce"
  type: "Convolution"
  bottom: "inception_3a/output"
  top: "inception_3b/5x5_reduce"
  param {
    lr_mult: 1
    decay_mult: 1
  }
  param {
    lr_mult: 2
    decay_mult: 0
  }
  convolution_param {
    num_output: 32
    kernel_size: 1
    weight_filler {
      type: "xavier"
      std: 0.2
    }
    bias_filler {
      type: "constant"
      value: 0.2
    }
  }
}
layer {
  name: "inception_3b/relu_5x5_reduce"
  type: "ReLU"
  bottom: "inception_3b/5x5_reduce"
  top: "inception_3b/5x5_reduce"
}
layer {
  name: "inception_3b/5x5"
  type: "Convolution"
  bottom: "inception_3b/5x5_reduce"
  top: "inception_3b/5x5"
  param {
    lr_mult: 1
    decay_mult: 1
  }
  param {
    lr_mult: 2
    decay_mult: 0
  }
  convolution_param {
    num_output: 96
    pad: 2
    kernel_size: 5
    weight_filler {
      type: "xavier"
      std: 0.03
    }
    bias_filler {
      type: "constant"
      value: 0.2
    }
  }
}
layer {
  name: "inception_3b/relu_5x5"
  type: "ReLU"
  bottom: "inception_3b/5x5"
  top: "inception_3b/5x5"
}
layer {
  name: "inception_3b/pool"
  type: "Pooling"
  bottom: "inception_3a/output"
  top: "inception_3b/pool"
  pooling_param {
    pool: MAX
    kernel_size: 3
    stride: 1
    pad: 1
  }
}
layer {
  name: "inception_3b/pool_proj"
  type: "Convolution"
  bottom: "inception_3b/pool"
  top: "inception_3b/pool_proj"
  param {
    lr_mult: 1
    decay_mult: 1
  }
  param {
    lr_mult: 2
    decay_mult: 0
  }
  convolution_param {
    num_output: 64
    kernel_size: 1
    weight_filler {
      type: "xavier"
      std: 0.1
    }
    bias_filler {
      type: "constant"
      value: 0.2
    }
  }
}
layer {
  name: "inception_3b/relu_pool_proj"
  type: "ReLU"
  bottom: "inception_3b/pool_proj"
  top: "inception_3b/pool_proj"
}
layer {
  name: "inception_3b/output"
  type: "Concat"
  bottom: "inception_3b/1x1"
  bottom: "inception_3b/3x3"
  bottom: "inception_3b/5x5"
  bottom: "inception_3b/pool_proj"
  top: "inception_3b/output"
}
layer {
  name: "pool3/3x3_s2"
  type: "Pooling"
  bottom: "inception_3b/output"
  top: "pool3/3x3_s2"
  pooling_param {
    pool: MAX
    kernel_size: 3
    stride: 2
  }
}
layer {
  name: "inception_4a/1x1"
  type: "Convolution"
  bottom: "pool3/3x3_s2"
  top: "inception_4a/1x1"
  param {
    lr_mult: 1
    decay_mult: 1
  }
  param {
    lr_mult: 2
    decay_mult: 0
  }
  convolution_param {
    num_output: 192
    kernel_size: 1
    weight_filler {
      type: "xavier"
      std: 0.03
    }
    bias_filler {
      type: "constant"
      value: 0.2
    }
  }
}
layer {
  name: "inception_4a/relu_1x1"
  type: "ReLU"
  bottom: "inception_4a/1x1"
  top: "inception_4a/1x1"
}
layer {
  name: "inception_4a/3x3_reduce"
  type: "Convolution"
  bottom: "pool3/3x3_s2"
  top: "inception_4a/3x3_reduce"
  param {
    lr_mult: 1
    decay_mult: 1
  }
  param {
    lr_mult: 2
    decay_mult: 0
  }
  convolution_param {
    num_output: 96
    kernel_size: 1
    weight_filler {
      type: "xavier"
      std: 0.09
    }
    bias_filler {
      type: "constant"
      value: 0.2
    }
  }
}
layer {
  name: "inception_4a/relu_3x3_reduce"
  type: "ReLU"
  bottom: "inception_4a/3x3_reduce"
  top: "inception_4a/3x3_reduce"
}
layer {
  name: "inception_4a/3x3"
  type: "Convolution"
  bottom: "inception_4a/3x3_reduce"
  top: "inception_4a/3x3"
  param {
    lr_mult: 1
    decay_mult: 1
  }
  param {
    lr_mult: 2
    decay_mult: 0
  }
  convolution_param {
    num_output: 208
    pad: 1
    kernel_size: 3
    weight_filler {
      type: "xavier"
      std: 0.03
    }
    bias_filler {
      type: "constant"
      value: 0.2
    }
  }
}
layer {
  name: "inception_4a/relu_3x3"
  type: "ReLU"
  bottom: "inception_4a/3x3"
  top: "inception_4a/3x3"
}
layer {
  name: "inception_4a/5x5_reduce"
  type: "Convolution"
  bottom: "pool3/3x3_s2"
  top: "inception_4a/5x5_reduce"
  param {
    lr_mult: 1
    decay_mult: 1
  }
  param {
    lr_mult: 2
    decay_mult: 0
  }
  convolution_param {
    num_output: 16
    kernel_size: 1
    weight_filler {
      type: "xavier"
      std: 0.2
    }
    bias_filler {
      type: "constant"
      value: 0.2
    }
  }
}
layer {
  name: "inception_4a/relu_5x5_reduce"
  type: "ReLU"
  bottom: "inception_4a/5x5_reduce"
  top: "inception_4a/5x5_reduce"
}
layer {
  name: "inception_4a/5x5"
  type: "Convolution"
  bottom: "inception_4a/5x5_reduce"
  top: "inception_4a/5x5"
  param {
    lr_mult: 1
    decay_mult: 1
  }
  param {
    lr_mult: 2
    decay_mult: 0
  }
  convolution_param {
    num_output: 48
    pad: 2
    kernel_size: 5
    weight_filler {
      type: "xavier"
      std: 0.03
    }
    bias_filler {
      type: "constant"
      value: 0.2
    }
  }
}
layer {
  name: "inception_4a/relu_5x5"
  type: "ReLU"
  bottom: "inception_4a/5x5"
  top: "inception_4a/5x5"
}
layer {
  name: "inception_4a/pool"
  type: "Pooling"
  bottom: "pool3/3x3_s2"
  top: "inception_4a/pool"
  pooling_param {
    pool: MAX
    kernel_size: 3
    stride: 1
    pad: 1
  }
}
layer {
  name: "inception_4a/pool_proj"
  type: "Convolution"
  bottom: "inception_4a/pool"
  top: "inception_4a/pool_proj"
  param {
    lr_mult: 1
    decay_mult: 1
  }
  param {
    lr_mult: 2
    decay_mult: 0
  }
  convolution_param {
    num_output: 64
    kernel_size: 1
    weight_filler {
      type: "xavier"
      std: 0.1
    }
    bias_filler {
      type: "constant"
      value: 0.2
    }
  }
}
layer {
  name: "inception_4a/relu_pool_proj"
  type: "ReLU"
  bottom: "inception_4a/pool_proj"
  top: "inception_4a/pool_proj"
}
layer {
  name: "inception_4a/output"
  type: "Concat"
  bottom: "inception_4a/1x1"
  bottom: "inception_4a/3x3"
  bottom: "inception_4a/5x5"
  bottom: "inception_4a/pool_proj"
  top: "inception_4a/output"
}
layer {
  name: "loss1/ave_pool"
  type: "Pooling"
  bottom: "inception_4a/output"
  top: "loss1/ave_pool"
  pooling_param {
    pool: AVE
    kernel_size: 5
    stride: 3
  }
}
layer {
  name: "loss1/conv"
  type: "Convolution"
  bottom: "loss1/ave_pool"
  top: "loss1/conv"
  param {
    lr_mult: 1
    decay_mult: 1
  }
  param {
    lr_mult: 2
    decay_mult: 0
  }
  convolution_param {
    num_output: 128
    kernel_size: 1
    weight_filler {
      type: "xavier"
      std: 0.08
    }
    bias_filler {
      type: "constant"
      value: 0.2
    }
  }
}
layer {
  name: "loss1/relu_conv"
  type: "ReLU"
  bottom: "loss1/conv"
  top: "loss1/conv"
}
layer {
  name: "loss1/fc"
  type: "InnerProduct"
  bottom: "loss1/conv"
  top: "loss1/fc"
  param {
    lr_mult: 1
    decay_mult: 1
  }
  param {
    lr_mult: 2
    decay_mult: 0
  }
  inner_product_param {
    num_output: 1024
    weight_filler {
      type: "xavier"
      std: 0.02
    }
    bias_filler {
      type: "constant"
      value: 0.2
    }
  }
}
layer {
  name: "loss1/relu_fc"
  type: "ReLU"
  bottom: "loss1/fc"
  top: "loss1/fc"
}
layer {
  name: "loss1/drop_fc"
  type: "Dropout"
  bottom: "loss1/fc"
  top: "loss1/fc"
  dropout_param {
    dropout_ratio: 0.7
  }
}
layer {
  name: "loss1/classifier_plantvillage"
  type: "InnerProduct"
  bottom: "loss1/fc"
  top: "loss1/classifier_plantvillage"
  param {
    lr_mult: 1
    decay_mult: 1
  }
  param {
    lr_mult: 2
    decay_mult: 0
  }
  inner_product_param {
    num_output: 38
    weight_filler {
      type: "xavier"
      std: 0.0009765625
    }
    bias_filler {
      type: "constant"
      value: 0
    }
  }
}
layer {
  name: "inception_4b/1x1"
  type: "Convolution"
  bottom: "inception_4a/output"
  top: "inception_4b/1x1"
  param {
    lr_mult: 1
    decay_mult: 1
  }
  param {
    lr_mult: 2
    decay_mult: 0
  }
  convolution_param {
    num_output: 160
    kernel_size: 1
    weight_filler {
      type: "xavier"
      std: 0.03
    }
    bias_filler {
      type: "constant"
      value: 0.2
    }
  }
}
layer {
  name: "inception_4b/relu_1x1"
  type: "ReLU"
  bottom: "inception_4b/1x1"
  top: "inception_4b/1x1"
}
layer {
  name: "inception_4b/3x3_reduce"
  type: "Convolution"
  bottom: "inception_4a/output"
  top: "inception_4b/3x3_reduce"
  param {
    lr_mult: 1
    decay_mult: 1
  }
  param {
    lr_mult: 2
    decay_mult: 0
  }
  convolution_param {
    num_output: 112
    kernel_size: 1
    weight_filler {
      type: "xavier"
      std: 0.09
    }
    bias_filler {
      type: "constant"
      value: 0.2
    }
  }
}
layer {
  name: "inception_4b/relu_3x3_reduce"
  type: "ReLU"
  bottom: "inception_4b/3x3_reduce"
  top: "inception_4b/3x3_reduce"
}
layer {
  name: "inception_4b/3x3"
  type: "Convolution"
  bottom: "inception_4b/3x3_reduce"
  top: "inception_4b/3x3"
  param {
    lr_mult: 1
    decay_mult: 1
  }
  param {
    lr_mult: 2
    decay_mult: 0
  }
  convolution_param {
    num_output: 224
    pad: 1
    kernel_size: 3
    weight_filler {
      type: "xavier"
      std: 0.03
    }
    bias_filler {
      type: "constant"
      value: 0.2
    }
  }
}
layer {
  name: "inception_4b/relu_3x3"
  type: "ReLU"
  bottom: "inception_4b/3x3"
  top: "inception_4b/3x3"
}
layer {
  name: "inception_4b/5x5_reduce"
  type: "Convolution"
  bottom: "inception_4a/output"
  top: "inception_4b/5x5_reduce"
  param {
    lr_mult: 1
    decay_mult: 1
  }
  param {
    lr_mult: 2
    decay_mult: 0
  }
  convolution_param {
    num_output: 24
    kernel_size: 1
    weight_filler {
      type: "xavier"
      std: 0.2
    }
    bias_filler {
      type: "constant"
      value: 0.2
    }
  }
}
layer {
  name: "inception_4b/relu_5x5_reduce"
  type: "ReLU"
  bottom: "inception_4b/5x5_reduce"
  top: "inception_4b/5x5_reduce"
}
layer {
  name: "inception_4b/5x5"
  type: "Convolution"
  bottom: "inception_4b/5x5_reduce"
  top: "inception_4b/5x5"
  param {
    lr_mult: 1
    decay_mult: 1
  }
  param {
    lr_mult: 2
    decay_mult: 0
  }
  convolution_param {
    num_output: 64
    pad: 2
    kernel_size: 5
    weight_filler {
      type: "xavier"
      std: 0.03
    }
    bias_filler {
      type: "constant"
      value: 0.2
    }
  }
}
layer {
  name: "inception_4b/relu_5x5"
  type: "ReLU"
  bottom: "inception_4b/5x5"
  top: "inception_4b/5x5"
}
layer {
  name: "inception_4b/pool"
  type: "Pooling"
  bottom: "inception_4a/output"
  top: "inception_4b/pool"
  pooling_param {
    pool: MAX
    kernel_size: 3
    stride: 1
    pad: 1
  }
}
layer {
  name: "inception_4b/pool_proj"
  type: "Convolution"
  bottom: "inception_4b/pool"
  top: "inception_4b/pool_proj"
  param {
    lr_mult: 1
    decay_mult: 1
  }
  param {
    lr_mult: 2
    decay_mult: 0
  }
  convolution_param {
    num_output: 64
    kernel_size: 1
    weight_filler {
      type: "xavier"
      std: 0.1
    }
    bias_filler {
      type: "constant"
      value: 0.2
    }
  }
}
layer {
  name: "inception_4b/relu_pool_proj"
  type: "ReLU"
  bottom: "inception_4b/pool_proj"
  top: "inception_4b/pool_proj"
}
layer {
  name: "inception_4b/output"
  type: "Concat"
  bottom: "inception_4b/1x1"
  bottom: "inception_4b/3x3"
  bottom: "inception_4b/5x5"
  bottom: "inception_4b/pool_proj"
  top: "inception_4b/output"
}
layer {
  name: "inception_4c/1x1"
  type: "Convolution"
  bottom: "inception_4b/output"
  top: "inception_4c/1x1"
  param {
    lr_mult: 1
    decay_mult: 1
  }
  param {
    lr_mult: 2
    decay_mult: 0
  }
  convolution_param {
    num_output: 128
    kernel_size: 1
    weight_filler {
      type: "xavier"
      std: 0.03
    }
    bias_filler {
      type: "constant"
      value: 0.2
    }
  }
}
layer {
  name: "inception_4c/relu_1x1"
  type: "ReLU"
  bottom: "inception_4c/1x1"
  top: "inception_4c/1x1"
}
layer {
  name: "inception_4c/3x3_reduce"
  type: "Convolution"
  bottom: "inception_4b/output"
  top: "inception_4c/3x3_reduce"
  param {
    lr_mult: 1
    decay_mult: 1
  }
  param {
    lr_mult: 2
    decay_mult: 0
  }
  convolution_param {
    num_output: 128
    kernel_size: 1
    weight_filler {
      type: "xavier"
      std: 0.09
    }
    bias_filler {
      type: "constant"
      value: 0.2
    }
  }
}
layer {
  name: "inception_4c/relu_3x3_reduce"
  type: "ReLU"
  bottom: "inception_4c/3x3_reduce"
  top: "inception_4c/3x3_reduce"
}
layer {
  name: "inception_4c/3x3"
  type: "Convolution"
  bottom: "inception_4c/3x3_reduce"
  top: "inception_4c/3x3"
  param {
    lr_mult: 1
    decay_mult: 1
  }
  param {
    lr_mult: 2
    decay_mult: 0
  }
  convolution_param {
    num_output: 256
    pad: 1
    kernel_size: 3
    weight_filler {
      type: "xavier"
      std: 0.03
    }
    bias_filler {
      type: "constant"
      value: 0.2
    }
  }
}
layer {
  name: "inception_4c/relu_3x3"
  type: "ReLU"
  bottom: "inception_4c/3x3"
  top: "inception_4c/3x3"
}
layer {
  name: "inception_4c/5x5_reduce"
  type: "Convolution"
  bottom: "inception_4b/output"
  top: "inception_4c/5x5_reduce"
  param {
    lr_mult: 1
    decay_mult: 1
  }
  param {
    lr_mult: 2
    decay_mult: 0
  }
  convolution_param {
    num_output: 24
    kernel_size: 1
    weight_filler {
      type: "xavier"
      std: 0.2
    }
    bias_filler {
      type: "constant"
      value: 0.2
    }
  }
}
layer {
  name: "inception_4c/relu_5x5_reduce"
  type: "ReLU"
  bottom: "inception_4c/5x5_reduce"
  top: "inception_4c/5x5_reduce"
}
layer {
  name: "inception_4c/5x5"
  type: "Convolution"
  bottom: "inception_4c/5x5_reduce"
  top: "inception_4c/5x5"
  param {
    lr_mult: 1
    decay_mult: 1
  }
  param {
    lr_mult: 2
    decay_mult: 0
  }
  convolution_param {
    num_output: 64
    pad: 2
    kernel_size: 5
    weight_filler {
      type: "xavier"
      std: 0.03
    }
    bias_filler {
      type: "constant"
      value: 0.2
    }
  }
}
layer {
  name: "inception_4c/relu_5x5"
  type: "ReLU"
  bottom: "inception_4c/5x5"
  top: "inception_4c/5x5"
}
layer {
  name: "inception_4c/pool"
  type: "Pooling"
  bottom: "inception_4b/output"
  top: "inception_4c/pool"
  pooling_param {
    pool: MAX
    kernel_size: 3
    stride: 1
    pad: 1
  }
}
layer {
  name: "inception_4c/pool_proj"
  type: "Convolution"
  bottom: "inception_4c/pool"
  top: "inception_4c/pool_proj"
  param {
    lr_mult: 1
    decay_mult: 1
  }
  param {
    lr_mult: 2
    decay_mult: 0
  }
  convolution_param {
    num_output: 64
    kernel_size: 1
    weight_filler {
      type: "xavier"
      std: 0.1
    }
    bias_filler {
      type: "constant"
      value: 0.2
    }
  }
}
layer {
  name: "inception_4c/relu_pool_proj"
  type: "ReLU"
  bottom: "inception_4c/pool_proj"
  top: "inception_4c/pool_proj"
}
layer {
  name: "inception_4c/output"
  type: "Concat"
  bottom: "inception_4c/1x1"
  bottom: "inception_4c/3x3"
  bottom: "inception_4c/5x5"
  bottom: "inception_4c/pool_proj"
  top: "inception_4c/output"
}
layer {
  name: "inception_4d/1x1"
  type: "Convolution"
  bottom: "inception_4c/output"
  top: "inception_4d/1x1"
  param {
    lr_mult: 1
    decay_mult: 1
  }
  param {
    lr_mult: 2
    decay_mult: 0
  }
  convolution_param {
    num_output: 112
    kernel_size: 1
    weight_filler {
      type: "xavier"
      std: 0.03
    }
    bias_filler {
      type: "constant"
      value: 0.2
    }
  }
}
layer {
  name: "inception_4d/relu_1x1"
  type: "ReLU"
  bottom: "inception_4d/1x1"
  top: "inception_4d/1x1"
}
layer {
  name: "inception_4d/3x3_reduce"
  type: "Convolution"
  bottom: "inception_4c/output"
  top: "inception_4d/3x3_reduce"
  param {
    lr_mult: 1
    decay_mult: 1
  }
  param {
    lr_mult: 2
    decay_mult: 0
  }
  convolution_param {
    num_output: 144
    kernel_size: 1
    weight_filler {
      type: "xavier"
      std: 0.09
    }
    bias_filler {
      type: "constant"
      value: 0.2
    }
  }
}
layer {
  name: "inception_4d/relu_3x3_reduce"
  type: "ReLU"
  bottom: "inception_4d/3x3_reduce"
  top: "inception_4d/3x3_reduce"
}
layer {
  name: "inception_4d/3x3"
  type: "Convolution"
  bottom: "inception_4d/3x3_reduce"
  top: "inception_4d/3x3"
  param {
    lr_mult: 1
    decay_mult: 1
  }
  param {
    lr_mult: 2
    decay_mult: 0
  }
  convolution_param {
    num_output: 288
    pad: 1
    kernel_size: 3
    weight_filler {
      type: "xavier"
      std: 0.03
    }
    bias_filler {
      type: "constant"
      value: 0.2
    }
  }
}
layer {
  name: "inception_4d/relu_3x3"
  type: "ReLU"
  bottom: "inception_4d/3x3"
  top: "inception_4d/3x3"
}
layer {
  name: "inception_4d/5x5_reduce"
  type: "Convolution"
  bottom: "inception_4c/output"
  top: "inception_4d/5x5_reduce"
  param {
    lr_mult: 1
    decay_mult: 1
  }
  param {
    lr_mult: 2
    decay_mult: 0
  }
  convolution_param {
    num_output: 32
    kernel_size: 1
    weight_filler {
      type: "xavier"
      std: 0.2
    }
    bias_filler {
      type: "constant"
      value: 0.2
    }
  }
}
layer {
  name: "inception_4d/relu_5x5_reduce"
  type: "ReLU"
  bottom: "inception_4d/5x5_reduce"
  top: "inception_4d/5x5_reduce"
}
layer {
  name: "inception_4d/5x5"
  type: "Convolution"
  bottom: "inception_4d/5x5_reduce"
  top: "inception_4d/5x5"
  param {
    lr_mult: 1
    decay_mult: 1
  }
  param {
    lr_mult: 2
    decay_mult: 0
  }
  convolution_param {
    num_output: 64
    pad: 2
    kernel_size: 5
    weight_filler {
      type: "xavier"
      std: 0.03
    }
    bias_filler {
      type: "constant"
      value: 0.2
    }
  }
}
layer {
  name: "inception_4d/relu_5x5"
  type: "ReLU"
  bottom: "inception_4d/5x5"
  top: "inception_4d/5x5"
}
layer {
  name: "inception_4d/pool"
  type: "Pooling"
  bottom: "inception_4c/output"
  top: "inception_4d/pool"
  pooling_param {
    pool: MAX
    kernel_size: 3
    stride: 1
    pad: 1
  }
}
layer {
  name: "inception_4d/pool_proj"
  type: "Convolution"
  bottom: "inception_4d/pool"
  top: "inception_4d/pool_proj"
  param {
    lr_mult: 1
    decay_mult: 1
  }
  param {
    lr_mult: 2
    decay_mult: 0
  }
  convolution_param {
    num_output: 64
    kernel_size: 1
    weight_filler {
      type: "xavier"
      std: 0.1
    }
    bias_filler {
      type: "constant"
      value: 0.2
    }
  }
}
layer {
  name: "inception_4d/relu_pool_proj"
  type: "ReLU"
  bottom: "inception_4d/pool_proj"
  top: "inception_4d/pool_proj"
}
layer {
  name: "inception_4d/output"
  type: "Concat"
  bottom: "inception_4d/1x1"
  bottom: "inception_4d/3x3"
  bottom: "inception_4d/5x5"
  bottom: "inception_4d/pool_proj"
  top: "inception_4d/output"
}
layer {
  name: "loss2/ave_pool"
  type: "Pooling"
  bottom: "inception_4d/output"
  top: "loss2/ave_pool"
  pooling_param {
    pool: AVE
    kernel_size: 5
    stride: 3
  }
}
layer {
  name: "loss2/conv"
  type: "Convolution"
  bottom: "loss2/ave_pool"
  top: "loss2/conv"
  param {
    lr_mult: 1
    decay_mult: 1
  }
  param {
    lr_mult: 2
    decay_mult: 0
  }
  convolution_param {
    num_output: 128
    kernel_size: 1
    weight_filler {
      type: "xavier"
      std: 0.08
    }
    bias_filler {
      type: "constant"
      value: 0.2
    }
  }
}
layer {
  name: "loss2/relu_conv"
  type: "ReLU"
  bottom: "loss2/conv"
  top: "loss2/conv"
}
layer {
  name: "loss2/fc"
  type: "InnerProduct"
  bottom: "loss2/conv"
  top: "loss2/fc"
  param {
    lr_mult: 1
    decay_mult: 1
  }
  param {
    lr_mult: 2
    decay_mult: 0
  }
  inner_product_param {
    num_output: 1024
    weight_filler {
      type: "xavier"
      std: 0.02
    }
    bias_filler {
      type: "constant"
      value: 0.2
    }
  }
}
layer {
  name: "loss2/relu_fc"
  type: "ReLU"
  bottom: "loss2/fc"
  top: "loss2/fc"
}
layer {
  name: "loss2/drop_fc"
  type: "Dropout"
  bottom: "loss2/fc"
  top: "loss2/fc"
  dropout_param {
    dropout_ratio: 0.7
  }
}
layer {
  name: "loss2/classifier_plantvillage"
  type: "InnerProduct"
  bottom: "loss2/fc"
  top: "loss2/classifier_plantvillage"
  param {
    lr_mult: 1
    decay_mult: 1
  }
  param {
    lr_mult: 2
    decay_mult: 0
  }
  inner_product_param {
    num_output: 38
    weight_filler {
      type: "xavier"
      std: 0.0009765625
    }
    bias_filler {
      type: "constant"
      value: 0
    }
  }
}
layer {
  name: "inception_4e/1x1"
  type: "Convolution"
  bottom: "inception_4d/output"
  top: "inception_4e/1x1"
  param {
    lr_mult: 1
    decay_mult: 1
  }
  param {
    lr_mult: 2
    decay_mult: 0
  }
  convolution_param {
    num_output: 256
    kernel_size: 1
    weight_filler {
      type: "xavier"
      std: 0.03
    }
    bias_filler {
      type: "constant"
      value: 0.2
    }
  }
}
layer {
  name: "inception_4e/relu_1x1"
  type: "ReLU"
  bottom: "inception_4e/1x1"
  top: "inception_4e/1x1"
}
layer {
  name: "inception_4e/3x3_reduce"
  type: "Convolution"
  bottom: "inception_4d/output"
  top: "inception_4e/3x3_reduce"
  param {
    lr_mult: 1
    decay_mult: 1
  }
  param {
    lr_mult: 2
    decay_mult: 0
  }
  convolution_param {
    num_output: 160
    kernel_size: 1
    weight_filler {
      type: "xavier"
      std: 0.09
    }
    bias_filler {
      type: "constant"
      value: 0.2
    }
  }
}
layer {
  name: "inception_4e/relu_3x3_reduce"
  type: "ReLU"
  bottom: "inception_4e/3x3_reduce"
  top: "inception_4e/3x3_reduce"
}
layer {
  name: "inception_4e/3x3"
  type: "Convolution"
  bottom: "inception_4e/3x3_reduce"
  top: "inception_4e/3x3"
  param {
    lr_mult: 1
    decay_mult: 1
  }
  param {
    lr_mult: 2
    decay_mult: 0
  }
  convolution_param {
    num_output: 320
    pad: 1
    kernel_size: 3
    weight_filler {
      type: "xavier"
      std: 0.03
    }
    bias_filler {
      type: "constant"
      value: 0.2
    }
  }
}
layer {
  name: "inception_4e/relu_3x3"
  type: "ReLU"
  bottom: "inception_4e/3x3"
  top: "inception_4e/3x3"
}
layer {
  name: "inception_4e/5x5_reduce"
  type: "Convolution"
  bottom: "inception_4d/output"
  top: "inception_4e/5x5_reduce"
  param {
    lr_mult: 1
    decay_mult: 1
  }
  param {
    lr_mult: 2
    decay_mult: 0
  }
  convolution_param {
    num_output: 32
    kernel_size: 1
    weight_filler {
      type: "xavier"
      std: 0.2
    }
    bias_filler {
      type: "constant"
      value: 0.2
    }
  }
}
layer {
  name: "inception_4e/relu_5x5_reduce"
  type: "ReLU"
  bottom: "inception_4e/5x5_reduce"
  top: "inception_4e/5x5_reduce"
}
layer {
  name: "inception_4e/5x5"
  type: "Convolution"
  bottom: "inception_4e/5x5_reduce"
  top: "inception_4e/5x5"
  p
I0403 14:16:06.574976 13094 layer_factory.hpp:77] Creating layer data
I0403 14:16:06.575593 13094 net.cpp:91] Creating Layer data
I0403 14:16:06.575623 13094 net.cpp:399] data -> data
I0403 14:16:06.575673 13094 net.cpp:399] data -> label
I0403 14:16:06.575711 13094 data_transformer.cpp:25] Loading mean file from: /home/mohanty/data/final_dataset/lmdb/color-40-60/mean.binaryproto
I0403 14:16:06.581570 13097 db_lmdb.cpp:38] Opened lmdb /home/mohanty/data/final_dataset/lmdb/color-40-60/test_db
I0403 14:16:06.592442 13094 data_layer.cpp:41] output data size: 24,3,224,224
I0403 14:16:06.619439 13094 net.cpp:141] Setting up data
I0403 14:16:06.619515 13094 net.cpp:148] Top shape: 24 3 224 224 (3612672)
I0403 14:16:06.619539 13094 net.cpp:148] Top shape: 24 (24)
I0403 14:16:06.619552 13094 net.cpp:156] Memory required for data: 14450784
I0403 14:16:06.619585 13094 layer_factory.hpp:77] Creating layer label_data_1_split
I0403 14:16:06.619612 13094 net.cpp:91] Creating Layer label_data_1_split
I0403 14:16:06.619631 13094 net.cpp:425] label_data_1_split <- label
I0403 14:16:06.619663 13094 net.cpp:399] label_data_1_split -> label_data_1_split_0
I0403 14:16:06.619689 13094 net.cpp:399] label_data_1_split -> label_data_1_split_1
I0403 14:16:06.619711 13094 net.cpp:399] label_data_1_split -> label_data_1_split_2
I0403 14:16:06.619731 13094 net.cpp:399] label_data_1_split -> label_data_1_split_3
I0403 14:16:06.619751 13094 net.cpp:399] label_data_1_split -> label_data_1_split_4
I0403 14:16:06.619771 13094 net.cpp:399] label_data_1_split -> label_data_1_split_5
I0403 14:16:06.619791 13094 net.cpp:399] label_data_1_split -> label_data_1_split_6
I0403 14:16:06.619809 13094 net.cpp:399] label_data_1_split -> label_data_1_split_7
I0403 14:16:06.619828 13094 net.cpp:399] label_data_1_split -> label_data_1_split_8
I0403 14:16:06.619848 13094 net.cpp:399] label_data_1_split -> label_data_1_split_9
I0403 14:16:06.619959 13094 net.cpp:141] Setting up label_data_1_split
I0403 14:16:06.619982 13094 net.cpp:148] Top shape: 24 (24)
I0403 14:16:06.619998 13094 net.cpp:148] Top shape: 24 (24)
I0403 14:16:06.620014 13094 net.cpp:148] Top shape: 24 (24)
I0403 14:16:06.620029 13094 net.cpp:148] Top shape: 24 (24)
I0403 14:16:06.620044 13094 net.cpp:148] Top shape: 24 (24)
I0403 14:16:06.620060 13094 net.cpp:148] Top shape: 24 (24)
I0403 14:16:06.620075 13094 net.cpp:148] Top shape: 24 (24)
I0403 14:16:06.620091 13094 net.cpp:148] Top shape: 24 (24)
I0403 14:16:06.620106 13094 net.cpp:148] Top shape: 24 (24)
I0403 14:16:06.620122 13094 net.cpp:148] Top shape: 24 (24)
I0403 14:16:06.620168 13094 net.cpp:156] Memory required for data: 14451744
I0403 14:16:06.620184 13094 layer_factory.hpp:77] Creating layer conv1/7x7_s2
I0403 14:16:06.620216 13094 net.cpp:91] Creating Layer conv1/7x7_s2
I0403 14:16:06.620234 13094 net.cpp:425] conv1/7x7_s2 <- data
I0403 14:16:06.620254 13094 net.cpp:399] conv1/7x7_s2 -> conv1/7x7_s2
I0403 14:16:06.761451 13094 net.cpp:141] Setting up conv1/7x7_s2
I0403 14:16:06.761512 13094 net.cpp:148] Top shape: 24 64 112 112 (19267584)
I0403 14:16:06.761531 13094 net.cpp:156] Memory required for data: 91522080
I0403 14:16:06.761572 13094 layer_factory.hpp:77] Creating layer conv1/relu_7x7
I0403 14:16:06.761616 13094 net.cpp:91] Creating Layer conv1/relu_7x7
I0403 14:16:06.761641 13094 net.cpp:425] conv1/relu_7x7 <- conv1/7x7_s2
I0403 14:16:06.761662 13094 net.cpp:386] conv1/relu_7x7 -> conv1/7x7_s2 (in-place)
I0403 14:16:06.762006 13094 net.cpp:141] Setting up conv1/relu_7x7
I0403 14:16:06.762034 13094 net.cpp:148] Top shape: 24 64 112 112 (19267584)
I0403 14:16:06.762058 13094 net.cpp:156] Memory required for data: 168592416
I0403 14:16:06.762074 13094 layer_factory.hpp:77] Creating layer pool1/3x3_s2
I0403 14:16:06.762109 13094 net.cpp:91] Creating Layer pool1/3x3_s2
I0403 14:16:06.762131 13094 net.cpp:425] pool1/3x3_s2 <- conv1/7x7_s2
I0403 14:16:06.762151 13094 net.cpp:399] pool1/3x3_s2 -> pool1/3x3_s2
I0403 14:16:06.762230 13094 net.cpp:141] Setting up pool1/3x3_s2
I0403 14:16:06.762262 13094 net.cpp:148] Top shape: 24 64 56 56 (4816896)
I0403 14:16:06.762277 13094 net.cpp:156] Memory required for data: 187860000
I0403 14:16:06.762293 13094 layer_factory.hpp:77] Creating layer pool1/norm1
I0403 14:16:06.762332 13094 net.cpp:91] Creating Layer pool1/norm1
I0403 14:16:06.762357 13094 net.cpp:425] pool1/norm1 <- pool1/3x3_s2
I0403 14:16:06.762406 13094 net.cpp:399] pool1/norm1 -> pool1/norm1
I0403 14:16:06.762732 13094 net.cpp:141] Setting up pool1/norm1
I0403 14:16:06.762760 13094 net.cpp:148] Top shape: 24 64 56 56 (4816896)
I0403 14:16:06.762778 13094 net.cpp:156] Memory required for data: 207127584
I0403 14:16:06.762800 13094 layer_factory.hpp:77] Creating layer conv2/3x3_reduce
I0403 14:16:06.762837 13094 net.cpp:91] Creating Layer conv2/3x3_reduce
I0403 14:16:06.762856 13094 net.cpp:425] conv2/3x3_reduce <- pool1/norm1
I0403 14:16:06.762876 13094 net.cpp:399] conv2/3x3_reduce -> conv2/3x3_reduce
I0403 14:16:06.764372 13094 net.cpp:141] Setting up conv2/3x3_reduce
I0403 14:16:06.764405 13094 net.cpp:148] Top shape: 24 64 56 56 (4816896)
I0403 14:16:06.764421 13094 net.cpp:156] Memory required for data: 226395168
I0403 14:16:06.764442 13094 layer_factory.hpp:77] Creating layer conv2/relu_3x3_reduce
I0403 14:16:06.764466 13094 net.cpp:91] Creating Layer conv2/relu_3x3_reduce
I0403 14:16:06.764485 13094 net.cpp:425] conv2/relu_3x3_reduce <- conv2/3x3_reduce
I0403 14:16:06.764530 13094 net.cpp:386] conv2/relu_3x3_reduce -> conv2/3x3_reduce (in-place)
I0403 14:16:06.764832 13094 net.cpp:141] Setting up conv2/relu_3x3_reduce
I0403 14:16:06.764916 13094 net.cpp:148] Top shape: 24 64 56 56 (4816896)
I0403 14:16:06.764936 13094 net.cpp:156] Memory required for data: 245662752
I0403 14:16:06.764976 13094 layer_factory.hpp:77] Creating layer conv2/3x3
I0403 14:16:06.765028 13094 net.cpp:91] Creating Layer conv2/3x3
I0403 14:16:06.765048 13094 net.cpp:425] conv2/3x3 <- conv2/3x3_reduce
I0403 14:16:06.765074 13094 net.cpp:399] conv2/3x3 -> conv2/3x3
I0403 14:16:06.767525 13094 net.cpp:141] Setting up conv2/3x3
I0403 14:16:06.767582 13094 net.cpp:148] Top shape: 24 192 56 56 (14450688)
I0403 14:16:06.767604 13094 net.cpp:156] Memory required for data: 303465504
I0403 14:16:06.767657 13094 layer_factory.hpp:77] Creating layer conv2/relu_3x3
I0403 14:16:06.767680 13094 net.cpp:91] Creating Layer conv2/relu_3x3
I0403 14:16:06.767711 13094 net.cpp:425] conv2/relu_3x3 <- conv2/3x3
I0403 14:16:06.767740 13094 net.cpp:386] conv2/relu_3x3 -> conv2/3x3 (in-place)
I0403 14:16:06.767940 13094 net.cpp:141] Setting up conv2/relu_3x3
I0403 14:16:06.767969 13094 net.cpp:148] Top shape: 24 192 56 56 (14450688)
I0403 14:16:06.768034 13094 net.cpp:156] Memory required for data: 361268256
I0403 14:16:06.768055 13094 layer_factory.hpp:77] Creating layer conv2/norm2
I0403 14:16:06.768076 13094 net.cpp:91] Creating Layer conv2/norm2
I0403 14:16:06.768095 13094 net.cpp:425] conv2/norm2 <- conv2/3x3
I0403 14:16:06.768116 13094 net.cpp:399] conv2/norm2 -> conv2/norm2
I0403 14:16:06.768452 13094 net.cpp:141] Setting up conv2/norm2
I0403 14:16:06.768486 13094 net.cpp:148] Top shape: 24 192 56 56 (14450688)
I0403 14:16:06.768553 13094 net.cpp:156] Memory required for data: 419071008
I0403 14:16:06.768582 13094 layer_factory.hpp:77] Creating layer pool2/3x3_s2
I0403 14:16:06.768606 13094 net.cpp:91] Creating Layer pool2/3x3_s2
I0403 14:16:06.768623 13094 net.cpp:425] pool2/3x3_s2 <- conv2/norm2
I0403 14:16:06.768646 13094 net.cpp:399] pool2/3x3_s2 -> pool2/3x3_s2
I0403 14:16:06.768709 13094 net.cpp:141] Setting up pool2/3x3_s2
I0403 14:16:06.768738 13094 net.cpp:148] Top shape: 24 192 28 28 (3612672)
I0403 14:16:06.768754 13094 net.cpp:156] Memory required for data: 433521696
I0403 14:16:06.768769 13094 layer_factory.hpp:77] Creating layer pool2/3x3_s2_pool2/3x3_s2_0_split
I0403 14:16:06.768801 13094 net.cpp:91] Creating Layer pool2/3x3_s2_pool2/3x3_s2_0_split
I0403 14:16:06.768820 13094 net.cpp:425] pool2/3x3_s2_pool2/3x3_s2_0_split <- pool2/3x3_s2
I0403 14:16:06.768838 13094 net.cpp:399] pool2/3x3_s2_pool2/3x3_s2_0_split -> pool2/3x3_s2_pool2/3x3_s2_0_split_0
I0403 14:16:06.768859 13094 net.cpp:399] pool2/3x3_s2_pool2/3x3_s2_0_split -> pool2/3x3_s2_pool2/3x3_s2_0_split_1
I0403 14:16:06.768890 13094 net.cpp:399] pool2/3x3_s2_pool2/3x3_s2_0_split -> pool2/3x3_s2_pool2/3x3_s2_0_split_2
I0403 14:16:06.768913 13094 net.cpp:399] pool2/3x3_s2_pool2/3x3_s2_0_split -> pool2/3x3_s2_pool2/3x3_s2_0_split_3
I0403 14:16:06.768996 13094 net.cpp:141] Setting up pool2/3x3_s2_pool2/3x3_s2_0_split
I0403 14:16:06.769023 13094 net.cpp:148] Top shape: 24 192 28 28 (3612672)
I0403 14:16:06.769091 13094 net.cpp:148] Top shape: 24 192 28 28 (3612672)
I0403 14:16:06.769121 13094 net.cpp:148] Top shape: 24 192 28 28 (3612672)
I0403 14:16:06.769150 13094 net.cpp:148] Top shape: 24 192 28 28 (3612672)
I0403 14:16:06.769171 13094 net.cpp:156] Memory required for data: 491324448
I0403 14:16:06.769191 13094 layer_factory.hpp:77] Creating layer inception_3a/1x1
I0403 14:16:06.769232 13094 net.cpp:91] Creating Layer inception_3a/1x1
I0403 14:16:06.769253 13094 net.cpp:425] inception_3a/1x1 <- pool2/3x3_s2_pool2/3x3_s2_0_split_0
I0403 14:16:06.769274 13094 net.cpp:399] inception_3a/1x1 -> inception_3a/1x1
I0403 14:16:06.770926 13094 net.cpp:141] Setting up inception_3a/1x1
I0403 14:16:06.770961 13094 net.cpp:148] Top shape: 24 64 28 28 (1204224)
I0403 14:16:06.770998 13094 net.cpp:156] Memory required for data: 496141344
I0403 14:16:06.771039 13094 layer_factory.hpp:77] Creating layer inception_3a/relu_1x1
I0403 14:16:06.771064 13094 net.cpp:91] Creating Layer inception_3a/relu_1x1
I0403 14:16:06.771080 13094 net.cpp:425] inception_3a/relu_1x1 <- inception_3a/1x1
I0403 14:16:06.771106 13094 net.cpp:386] inception_3a/relu_1x1 -> inception_3a/1x1 (in-place)
I0403 14:16:06.771296 13094 net.cpp:141] Setting up inception_3a/relu_1x1
I0403 14:16:06.771322 13094 net.cpp:148] Top shape: 24 64 28 28 (1204224)
I0403 14:16:06.771338 13094 net.cpp:156] Memory required for data: 500958240
I0403 14:16:06.771363 13094 layer_factory.hpp:77] Creating layer inception_3a/3x3_reduce
I0403 14:16:06.771404 13094 net.cpp:91] Creating Layer inception_3a/3x3_reduce
I0403 14:16:06.771442 13094 net.cpp:425] inception_3a/3x3_reduce <- pool2/3x3_s2_pool2/3x3_s2_0_split_1
I0403 14:16:06.771478 13094 net.cpp:399] inception_3a/3x3_reduce -> inception_3a/3x3_reduce
I0403 14:16:06.773278 13094 net.cpp:141] Setting up inception_3a/3x3_reduce
I0403 14:16:06.773339 13094 net.cpp:148] Top shape: 24 96 28 28 (1806336)
I0403 14:16:06.773360 13094 net.cpp:156] Memory required for data: 508183584
I0403 14:16:06.773398 13094 layer_factory.hpp:77] Creating layer inception_3a/relu_3x3_reduce
I0403 14:16:06.773450 13094 net.cpp:91] Creating Layer inception_3a/relu_3x3_reduce
I0403 14:16:06.773480 13094 net.cpp:425] inception_3a/relu_3x3_reduce <- inception_3a/3x3_reduce
I0403 14:16:06.773542 13094 net.cpp:386] inception_3a/relu_3x3_reduce -> inception_3a/3x3_reduce (in-place)
I0403 14:16:06.773756 13094 net.cpp:141] Setting up inception_3a/relu_3x3_reduce
I0403 14:16:06.773785 13094 net.cpp:148] Top shape: 24 96 28 28 (1806336)
I0403 14:16:06.773810 13094 net.cpp:156] Memory required for data: 515408928
I0403 14:16:06.773825 13094 layer_factory.hpp:77] Creating layer inception_3a/3x3
I0403 14:16:06.773849 13094 net.cpp:91] Creating Layer inception_3a/3x3
I0403 14:16:06.773870 13094 net.cpp:425] inception_3a/3x3 <- inception_3a/3x3_reduce
I0403 14:16:06.773895 13094 net.cpp:399] inception_3a/3x3 -> inception_3a/3x3
I0403 14:16:06.775686 13094 net.cpp:141] Setting up inception_3a/3x3
I0403 14:16:06.775732 13094 net.cpp:148] Top shape: 24 128 28 28 (2408448)
I0403 14:16:06.775748 13094 net.cpp:156] Memory required for data: 525042720
I0403 14:16:06.775768 13094 layer_factory.hpp:77] Creating layer inception_3a/relu_3x3
I0403 14:16:06.775799 13094 net.cpp:91] Creating Layer inception_3a/relu_3x3
I0403 14:16:06.775874 13094 net.cpp:425] inception_3a/relu_3x3 <- inception_3a/3x3
I0403 14:16:06.775902 13094 net.cpp:386] inception_3a/relu_3x3 -> inception_3a/3x3 (in-place)
I0403 14:16:06.776202 13094 net.cpp:141] Setting up inception_3a/relu_3x3
I0403 14:16:06.776259 13094 net.cpp:148] Top shape: 24 128 28 28 (2408448)
I0403 14:16:06.776284 13094 net.cpp:156] Memory required for data: 534676512
I0403 14:16:06.776301 13094 layer_factory.hpp:77] Creating layer inception_3a/5x5_reduce
I0403 14:16:06.776329 13094 net.cpp:91] Creating Layer inception_3a/5x5_reduce
I0403 14:16:06.776361 13094 net.cpp:425] inception_3a/5x5_reduce <- pool2/3x3_s2_pool2/3x3_s2_0_split_2
I0403 14:16:06.776396 13094 net.cpp:399] inception_3a/5x5_reduce -> inception_3a/5x5_reduce
I0403 14:16:06.777421 13094 net.cpp:141] Setting up inception_3a/5x5_reduce
I0403 14:16:06.777451 13094 net.cpp:148] Top shape: 24 16 28 28 (301056)
I0403 14:16:06.777479 13094 net.cpp:156] Memory required for data: 535880736
I0403 14:16:06.777503 13094 layer_factory.hpp:77] Creating layer inception_3a/relu_5x5_reduce
I0403 14:16:06.777531 13094 net.cpp:91] Creating Layer inception_3a/relu_5x5_reduce
I0403 14:16:06.777550 13094 net.cpp:425] inception_3a/relu_5x5_reduce <- inception_3a/5x5_reduce
I0403 14:16:06.777575 13094 net.cpp:386] inception_3a/relu_5x5_reduce -> inception_3a/5x5_reduce (in-place)
I0403 14:16:06.777950 13094 net.cpp:141] Setting up inception_3a/relu_5x5_reduce
I0403 14:16:06.778056 13094 net.cpp:148] Top shape: 24 16 28 28 (301056)
I0403 14:16:06.778072 13094 net.cpp:156] Memory required for data: 537084960
I0403 14:16:06.778095 13094 layer_factory.hpp:77] Creating layer inception_3a/5x5
I0403 14:16:06.778122 13094 net.cpp:91] Creating Layer inception_3a/5x5
I0403 14:16:06.778157 13094 net.cpp:425] inception_3a/5x5 <- inception_3a/5x5_reduce
I0403 14:16:06.778187 13094 net.cpp:399] inception_3a/5x5 -> inception_3a/5x5
I0403 14:16:06.819365 13094 net.cpp:141] Setting up inception_3a/5x5
I0403 14:16:06.819403 13094 net.cpp:148] Top shape: 24 32 28 28 (602112)
I0403 14:16:06.819421 13094 net.cpp:156] Memory required for data: 539493408
I0403 14:16:06.819442 13094 layer_factory.hpp:77] Creating layer inception_3a/relu_5x5
I0403 14:16:06.819460 13094 net.cpp:91] Creating Layer inception_3a/relu_5x5
I0403 14:16:06.819478 13094 net.cpp:425] inception_3a/relu_5x5 <- inception_3a/5x5
I0403 14:16:06.819514 13094 net.cpp:386] inception_3a/relu_5x5 -> inception_3a/5x5 (in-place)
I0403 14:16:06.819733 13094 net.cpp:141] Setting up inception_3a/relu_5x5
I0403 14:16:06.819761 13094 net.cpp:148] Top shape: 24 32 28 28 (602112)
I0403 14:16:06.819777 13094 net.cpp:156] Memory required for data: 541901856
I0403 14:16:06.819793 13094 layer_factory.hpp:77] Creating layer inception_3a/pool
I0403 14:16:06.819814 13094 net.cpp:91] Creating Layer inception_3a/pool
I0403 14:16:06.819831 13094 net.cpp:425] inception_3a/pool <- pool2/3x3_s2_pool2/3x3_s2_0_split_3
I0403 14:16:06.819869 13094 net.cpp:399] inception_3a/pool -> inception_3a/pool
I0403 14:16:06.819934 13094 net.cpp:141] Setting up inception_3a/pool
I0403 14:16:06.819963 13094 net.cpp:148] Top shape: 24 192 28 28 (3612672)
I0403 14:16:06.819979 13094 net.cpp:156] Memory required for data: 556352544
I0403 14:16:06.819995 13094 layer_factory.hpp:77] Creating layer inception_3a/pool_proj
I0403 14:16:06.820019 13094 net.cpp:91] Creating Layer inception_3a/pool_proj
I0403 14:16:06.820036 13094 net.cpp:425] inception_3a/pool_proj <- inception_3a/pool
I0403 14:16:06.820058 13094 net.cpp:399] inception_3a/pool_proj -> inception_3a/pool_proj
I0403 14:16:06.821096 13094 net.cpp:141] Setting up inception_3a/pool_proj
I0403 14:16:06.821130 13094 net.cpp:148] Top shape: 24 32 28 28 (602112)
I0403 14:16:06.821146 13094 net.cpp:156] Memory required for data: 558760992
I0403 14:16:06.821171 13094 layer_factory.hpp:77] Creating layer inception_3a/relu_pool_proj
I0403 14:16:06.821219 13094 net.cpp:91] Creating Layer inception_3a/relu_pool_proj
I0403 14:16:06.821238 13094 net.cpp:425] inception_3a/relu_pool_proj <- inception_3a/pool_proj
I0403 14:16:06.821259 13094 net.cpp:386] inception_3a/relu_pool_proj -> inception_3a/pool_proj (in-place)
I0403 14:16:06.821548 13094 net.cpp:141] Setting up inception_3a/relu_pool_proj
I0403 14:16:06.821601 13094 net.cpp:148] Top shape: 24 32 28 28 (602112)
I0403 14:16:06.821621 13094 net.cpp:156] Memory required for data: 561169440
I0403 14:16:06.821645 13094 layer_factory.hpp:77] Creating layer inception_3a/output
I0403 14:16:06.821666 13094 net.cpp:91] Creating Layer inception_3a/output
I0403 14:16:06.821682 13094 net.cpp:425] inception_3a/output <- inception_3a/1x1
I0403 14:16:06.821738 13094 net.cpp:425] inception_3a/output <- inception_3a/3x3
I0403 14:16:06.821770 13094 net.cpp:425] inception_3a/output <- inception_3a/5x5
I0403 14:16:06.821787 13094 net.cpp:425] inception_3a/output <- inception_3a/pool_proj
I0403 14:16:06.821818 13094 net.cpp:399] inception_3a/output -> inception_3a/output
I0403 14:16:06.821868 13094 net.cpp:141] Setting up inception_3a/output
I0403 14:16:06.821897 13094 net.cpp:148] Top shape: 24 256 28 28 (4816896)
I0403 14:16:06.821913 13094 net.cpp:156] Memory required for data: 580437024
I0403 14:16:06.821929 13094 layer_factory.hpp:77] Creating layer inception_3a/output_inception_3a/output_0_split
I0403 14:16:06.821948 13094 net.cpp:91] Creating Layer inception_3a/output_inception_3a/output_0_split
I0403 14:16:06.821975 13094 net.cpp:425] inception_3a/output_inception_3a/output_0_split <- inception_3a/output
I0403 14:16:06.821995 13094 net.cpp:399] inception_3a/output_inception_3a/output_0_split -> inception_3a/output_inception_3a/output_0_split_0
I0403 14:16:06.822016 13094 net.cpp:399] inception_3a/output_inception_3a/output_0_split -> inception_3a/output_inception_3a/output_0_split_1
I0403 14:16:06.822048 13094 net.cpp:399] inception_3a/output_inception_3a/output_0_split -> inception_3a/output_inception_3a/output_0_split_2
I0403 14:16:06.822072 13094 net.cpp:399] inception_3a/output_inception_3a/output_0_split -> inception_3a/output_inception_3a/output_0_split_3
I0403 14:16:06.822162 13094 net.cpp:141] Setting up inception_3a/output_inception_3a/output_0_split
I0403 14:16:06.822203 13094 net.cpp:148] Top shape: 24 256 28 28 (4816896)
I0403 14:16:06.822222 13094 net.cpp:148] Top shape: 24 256 28 28 (4816896)
I0403 14:16:06.822247 13094 net.cpp:148] Top shape: 24 256 28 28 (4816896)
I0403 14:16:06.822278 13094 net.cpp:148] Top shape: 24 256 28 28 (4816896)
I0403 14:16:06.822301 13094 net.cpp:156] Memory required for data: 657507360
I0403 14:16:06.822345 13094 layer_factory.hpp:77] Creating layer inception_3b/1x1
I0403 14:16:06.822378 13094 net.cpp:91] Creating Layer inception_3b/1x1
I0403 14:16:06.822397 13094 net.cpp:425] inception_3b/1x1 <- inception_3a/output_inception_3a/output_0_split_0
I0403 14:16:06.822418 13094 net.cpp:399] inception_3b/1x1 -> inception_3b/1x1
I0403 14:16:06.823632 13094 net.cpp:141] Setting up inception_3b/1x1
I0403 14:16:06.823683 13094 net.cpp:148] Top shape: 24 128 28 28 (2408448)
I0403 14:16:06.823701 13094 net.cpp:156] Memory required for data: 667141152
I0403 14:16:06.823741 13094 layer_factory.hpp:77] Creating layer inception_3b/relu_1x1
I0403 14:16:06.823807 13094 net.cpp:91] Creating Layer inception_3b/relu_1x1
I0403 14:16:06.823823 13094 net.cpp:425] inception_3b/relu_1x1 <- inception_3b/1x1
I0403 14:16:06.823844 13094 net.cpp:386] inception_3b/relu_1x1 -> inception_3b/1x1 (in-place)
I0403 14:16:06.824033 13094 net.cpp:141] Setting up inception_3b/relu_1x1
I0403 14:16:06.824067 13094 net.cpp:148] Top shape: 24 128 28 28 (2408448)
I0403 14:16:06.824093 13094 net.cpp:156] Memory required for data: 676774944
I0403 14:16:06.824123 13094 layer_factory.hpp:77] Creating layer inception_3b/3x3_reduce
I0403 14:16:06.824152 13094 net.cpp:91] Creating Layer inception_3b/3x3_reduce
I0403 14:16:06.824208 13094 net.cpp:425] inception_3b/3x3_reduce <- inception_3a/output_inception_3a/output_0_split_1
I0403 14:16:06.824231 13094 net.cpp:399] inception_3b/3x3_reduce -> inception_3b/3x3_reduce
I0403 14:16:06.825448 13094 net.cpp:141] Setting up inception_3b/3x3_reduce
I0403 14:16:06.825510 13094 net.cpp:148] Top shape: 24 128 28 28 (2408448)
I0403 14:16:06.825528 13094 net.cpp:156] Memory required for data: 686408736
I0403 14:16:06.825547 13094 layer_factory.hpp:77] Creating layer inception_3b/relu_3x3_reduce
I0403 14:16:06.825597 13094 net.cpp:91] Creating Layer inception_3b/relu_3x3_reduce
I0403 14:16:06.825626 13094 net.cpp:425] inception_3b/relu_3x3_reduce <- inception_3b/3x3_reduce
I0403 14:16:06.825677 13094 net.cpp:386] inception_3b/relu_3x3_reduce -> inception_3b/3x3_reduce (in-place)
I0403 14:16:06.825865 13094 net.cpp:141] Setting up inception_3b/relu_3x3_reduce
I0403 14:16:06.825892 13094 net.cpp:148] Top shape: 24 128 28 28 (2408448)
I0403 14:16:06.825907 13094 net.cpp:156] Memory required for data: 696042528
I0403 14:16:06.825938 13094 layer_factory.hpp:77] Creating layer inception_3b/3x3
I0403 14:16:06.826004 13094 net.cpp:91] Creating Layer inception_3b/3x3
I0403 14:16:06.826041 13094 net.cpp:425] inception_3b/3x3 <- inception_3b/3x3_reduce
I0403 14:16:06.826064 13094 net.cpp:399] inception_3b/3x3 -> inception_3b/3x3
I0403 14:16:06.829176 13094 net.cpp:141] Setting up inception_3b/3x3
I0403 14:16:06.829208 13094 net.cpp:148] Top shape: 24 192 28 28 (3612672)
I0403 14:16:06.829249 13094 net.cpp:156] Memory required for data: 710493216
I0403 14:16:06.829273 13094 layer_factory.hpp:77] Creating layer inception_3b/relu_3x3
I0403 14:16:06.829293 13094 net.cpp:91] Creating Layer inception_3b/relu_3x3
I0403 14:16:06.829309 13094 net.cpp:425] inception_3b/relu_3x3 <- inception_3b/3x3
I0403 14:16:06.829329 13094 net.cpp:386] inception_3b/relu_3x3 -> inception_3b/3x3 (in-place)
I0403 14:16:06.829640 13094 net.cpp:141] Setting up inception_3b/relu_3x3
I0403 14:16:06.829668 13094 net.cpp:148] Top shape: 24 192 28 28 (3612672)
I0403 14:16:06.829691 13094 net.cpp:156] Memory required for data: 724943904
I0403 14:16:06.829757 13094 layer_factory.hpp:77] Creating layer inception_3b/5x5_reduce
I0403 14:16:06.829802 13094 net.cpp:91] Creating Layer inception_3b/5x5_reduce
I0403 14:16:06.829820 13094 net.cpp:425] inception_3b/5x5_reduce <- inception_3a/output_inception_3a/output_0_split_2
I0403 14:16:06.829851 13094 net.cpp:399] inception_3b/5x5_reduce -> inception_3b/5x5_reduce
I0403 14:16:06.830914 13094 net.cpp:141] Setting up inception_3b/5x5_reduce
I0403 14:16:06.830963 13094 net.cpp:148] Top shape: 24 32 28 28 (602112)
I0403 14:16:06.830989 13094 net.cpp:156] Memory required for data: 727352352
I0403 14:16:06.831066 13094 layer_factory.hpp:77] Creating layer inception_3b/relu_5x5_reduce
I0403 14:16:06.831115 13094 net.cpp:91] Creating Layer inception_3b/relu_5x5_reduce
I0403 14:16:06.831136 13094 net.cpp:425] inception_3b/relu_5x5_reduce <- inception_3b/5x5_reduce
I0403 14:16:06.831157 13094 net.cpp:386] inception_3b/relu_5x5_reduce -> inception_3b/5x5_reduce (in-place)
I0403 14:16:06.831344 13094 net.cpp:141] Setting up inception_3b/relu_5x5_reduce
I0403 14:16:06.831394 13094 net.cpp:148] Top shape: 24 32 28 28 (602112)
I0403 14:16:06.831421 13094 net.cpp:156] Memory required for data: 729760800
I0403 14:16:06.831444 13094 layer_factory.hpp:77] Creating layer inception_3b/5x5
I0403 14:16:06.831496 13094 net.cpp:91] Creating Layer inception_3b/5x5
I0403 14:16:06.831532 13094 net.cpp:425] inception_3b/5x5 <- inception_3b/5x5_reduce
I0403 14:16:06.831557 13094 net.cpp:399] inception_3b/5x5 -> inception_3b/5x5
I0403 14:16:06.833653 13094 net.cpp:141] Setting up inception_3b/5x5
I0403 14:16:06.833688 13094 net.cpp:148] Top shape: 24 96 28 28 (1806336)
I0403 14:16:06.833705 13094 net.cpp:156] Memory required for data: 736986144
I0403 14:16:06.833752 13094 layer_factory.hpp:77] Creating layer inception_3b/relu_5x5
I0403 14:16:06.833798 13094 net.cpp:91] Creating Layer inception_3b/relu_5x5
I0403 14:16:06.833818 13094 net.cpp:425] inception_3b/relu_5x5 <- inception_3b/5x5
I0403 14:16:06.833837 13094 net.cpp:386] inception_3b/relu_5x5 -> inception_3b/5x5 (in-place)
I0403 14:16:06.834040 13094 net.cpp:141] Setting up inception_3b/relu_5x5
I0403 14:16:06.834066 13094 net.cpp:148] Top shape: 24 96 28 28 (1806336)
I0403 14:16:06.834092 13094 net.cpp:156] Memory required for data: 744211488
I0403 14:16:06.834108 13094 layer_factory.hpp:77] Creating layer inception_3b/pool
I0403 14:16:06.834126 13094 net.cpp:91] Creating Layer inception_3b/pool
I0403 14:16:06.834146 13094 net.cpp:425] inception_3b/pool <- inception_3a/output_inception_3a/output_0_split_3
I0403 14:16:06.834208 13094 net.cpp:399] inception_3b/pool -> inception_3b/pool
I0403 14:16:06.834267 13094 net.cpp:141] Setting up inception_3b/pool
I0403 14:16:06.834308 13094 net.cpp:148] Top shape: 24 256 28 28 (4816896)
I0403 14:16:06.834337 13094 net.cpp:156] Memory required for data: 763479072
I0403 14:16:06.834383 13094 layer_factory.hpp:77] Creating layer inception_3b/pool_proj
I0403 14:16:06.834409 13094 net.cpp:91] Creating Layer inception_3b/pool_proj
I0403 14:16:06.834429 13094 net.cpp:425] inception_3b/pool_proj <- inception_3b/pool
I0403 14:16:06.834460 13094 net.cpp:399] inception_3b/pool_proj -> inception_3b/pool_proj
I0403 14:16:06.835610 13094 net.cpp:141] Setting up inception_3b/pool_proj
I0403 14:16:06.835649 13094 net.cpp:148] Top shape: 24 64 28 28 (1204224)
I0403 14:16:06.835664 13094 net.cpp:156] Memory required for data: 768295968
I0403 14:16:06.835698 13094 layer_factory.hpp:77] Creating layer inception_3b/relu_pool_proj
I0403 14:16:06.835753 13094 net.cpp:91] Creating Layer inception_3b/relu_pool_proj
I0403 14:16:06.835798 13094 net.cpp:425] inception_3b/relu_pool_proj <- inception_3b/pool_proj
I0403 14:16:06.835845 13094 net.cpp:386] inception_3b/relu_pool_proj -> inception_3b/pool_proj (in-place)
I0403 14:16:06.836266 13094 net.cpp:141] Setting up inception_3b/relu_pool_proj
I0403 14:16:06.836299 13094 net.cpp:148] Top shape: 24 64 28 28 (1204224)
I0403 14:16:06.836320 13094 net.cpp:156] Memory required for data: 773112864
I0403 14:16:06.836352 13094 layer_factory.hpp:77] Creating layer inception_3b/output
I0403 14:16:06.836397 13094 net.cpp:91] Creating Layer inception_3b/output
I0403 14:16:06.836421 13094 net.cpp:425] inception_3b/output <- inception_3b/1x1
I0403 14:16:06.836441 13094 net.cpp:425] inception_3b/output <- inception_3b/3x3
I0403 14:16:06.836460 13094 net.cpp:425] inception_3b/output <- inception_3b/5x5
I0403 14:16:06.836490 13094 net.cpp:425] inception_3b/output <- inception_3b/pool_proj
I0403 14:16:06.836532 13094 net.cpp:399] inception_3b/output -> inception_3b/output
I0403 14:16:06.836592 13094 net.cpp:141] Setting up inception_3b/output
I0403 14:16:06.836616 13094 net.cpp:148] Top shape: 24 480 28 28 (9031680)
I0403 14:16:06.836632 13094 net.cpp:156] Memory required for data: 809239584
I0403 14:16:06.836658 13094 layer_factory.hpp:77] Creating layer pool3/3x3_s2
I0403 14:16:06.836680 13094 net.cpp:91] Creating Layer pool3/3x3_s2
I0403 14:16:06.836696 13094 net.cpp:425] pool3/3x3_s2 <- inception_3b/output
I0403 14:16:06.836719 13094 net.cpp:399] pool3/3x3_s2 -> pool3/3x3_s2
I0403 14:16:06.836794 13094 net.cpp:141] Setting up pool3/3x3_s2
I0403 14:16:06.836835 13094 net.cpp:148] Top shape: 24 480 14 14 (2257920)
I0403 14:16:06.836853 13094 net.cpp:156] Memory required for data: 818271264
I0403 14:16:06.836884 13094 layer_factory.hpp:77] Creating layer pool3/3x3_s2_pool3/3x3_s2_0_split
I0403 14:16:06.836917 13094 net.cpp:91] Creating Layer pool3/3x3_s2_pool3/3x3_s2_0_split
I0403 14:16:06.836937 13094 net.cpp:425] pool3/3x3_s2_pool3/3x3_s2_0_split <- pool3/3x3_s2
I0403 14:16:06.836956 13094 net.cpp:399] pool3/3x3_s2_pool3/3x3_s2_0_split -> pool3/3x3_s2_pool3/3x3_s2_0_split_0
I0403 14:16:06.836979 13094 net.cpp:399] pool3/3x3_s2_pool3/3x3_s2_0_split -> pool3/3x3_s2_pool3/3x3_s2_0_split_1
I0403 14:16:06.837004 13094 net.cpp:399] pool3/3x3_s2_pool3/3x3_s2_0_split -> pool3/3x3_s2_pool3/3x3_s2_0_split_2
I0403 14:16:06.837028 13094 net.cpp:399] pool3/3x3_s2_pool3/3x3_s2_0_split -> pool3/3x3_s2_pool3/3x3_s2_0_split_3
I0403 14:16:06.837121 13094 net.cpp:141] Setting up pool3/3x3_s2_pool3/3x3_s2_0_split
I0403 14:16:06.837146 13094 net.cpp:148] Top shape: 24 480 14 14 (2257920)
I0403 14:16:06.837180 13094 net.cpp:148] Top shape: 24 480 14 14 (2257920)
I0403 14:16:06.837203 13094 net.cpp:148] Top shape: 24 480 14 14 (2257920)
I0403 14:16:06.837244 13094 net.cpp:148] Top shape: 24 480 14 14 (2257920)
I0403 14:16:06.837258 13094 net.cpp:156] Memory required for data: 854397984
I0403 14:16:06.837273 13094 layer_factory.hpp:77] Creating layer inception_4a/1x1
I0403 14:16:06.837316 13094 net.cpp:91] Creating Layer inception_4a/1x1
I0403 14:16:06.837335 13094 net.cpp:425] inception_4a/1x1 <- pool3/3x3_s2_pool3/3x3_s2_0_split_0
I0403 14:16:06.837358 13094 net.cpp:399] inception_4a/1x1 -> inception_4a/1x1
I0403 14:16:06.839023 13094 net.cpp:141] Setting up inception_4a/1x1
I0403 14:16:06.839057 13094 net.cpp:148] Top shape: 24 192 14 14 (903168)
I0403 14:16:06.839078 13094 net.cpp:156] Memory required for data: 858010656
I0403 14:16:06.839107 13094 layer_factory.hpp:77] Creating layer inception_4a/relu_1x1
I0403 14:16:06.839129 13094 net.cpp:91] Creating Layer inception_4a/relu_1x1
I0403 14:16:06.839148 13094 net.cpp:425] inception_4a/relu_1x1 <- inception_4a/1x1
I0403 14:16:06.839166 13094 net.cpp:386] inception_4a/relu_1x1 -> inception_4a/1x1 (in-place)
I0403 14:16:06.839362 13094 net.cpp:141] Setting up inception_4a/relu_1x1
I0403 14:16:06.839392 13094 net.cpp:148] Top shape: 24 192 14 14 (903168)
I0403 14:16:06.839418 13094 net.cpp:156] Memory required for data: 861623328
I0403 14:16:06.839437 13094 layer_factory.hpp:77] Creating layer inception_4a/3x3_reduce
I0403 14:16:06.839460 13094 net.cpp:91] Creating Layer inception_4a/3x3_reduce
I0403 14:16:06.839480 13094 net.cpp:425] inception_4a/3x3_reduce <- pool3/3x3_s2_pool3/3x3_s2_0_split_1
I0403 14:16:06.839501 13094 net.cpp:399] inception_4a/3x3_reduce -> inception_4a/3x3_reduce
I0403 14:16:06.840857 13094 net.cpp:141] Setting up inception_4a/3x3_reduce
I0403 14:16:06.840891 13094 net.cpp:148] Top shape: 24 96 14 14 (451584)
I0403 14:16:06.840917 13094 net.cpp:156] Memory required for data: 863429664
I0403 14:16:06.840960 13094 layer_factory.hpp:77] Creating layer inception_4a/relu_3x3_reduce
I0403 14:16:06.840984 13094 net.cpp:91] Creating Layer inception_4a/relu_3x3_reduce
I0403 14:16:06.841002 13094 net.cpp:425] inception_4a/relu_3x3_reduce <- inception_4a/3x3_reduce
I0403 14:16:06.841022 13094 net.cpp:386] inception_4a/relu_3x3_reduce -> inception_4a/3x3_reduce (in-place)
I0403 14:16:06.841209 13094 net.cpp:141] Setting up inception_4a/relu_3x3_reduce
I0403 14:16:06.841238 13094 net.cpp:148] Top shape: 24 96 14 14 (451584)
I0403 14:16:06.841253 13094 net.cpp:156] Memory required for data: 865236000
I0403 14:16:06.841269 13094 layer_factory.hpp:77] Creating layer inception_4a/3x3
I0403 14:16:06.841294 13094 net.cpp:91] Creating Layer inception_4a/3x3
I0403 14:16:06.841310 13094 net.cpp:425] inception_4a/3x3 <- inception_4a/3x3_reduce
I0403 14:16:06.841331 13094 net.cpp:399] inception_4a/3x3 -> inception_4a/3x3
I0403 14:16:06.844171 13094 net.cpp:141] Setting up inception_4a/3x3
I0403 14:16:06.844259 13094 net.cpp:148] Top shape: 24 208 14 14 (978432)
I0403 14:16:06.844283 13094 net.cpp:156] Memory required for data: 869149728
I0403 14:16:06.844333 13094 layer_factory.hpp:77] Creating layer inception_4a/relu_3x3
I0403 14:16:06.844357 13094 net.cpp:91] Creating Layer inception_4a/relu_3x3
I0403 14:16:06.844374 13094 net.cpp:425] inception_4a/relu_3x3 <- inception_4a/3x3
I0403 14:16:06.844393 13094 net.cpp:386] inception_4a/relu_3x3 -> inception_4a/3x3 (in-place)
I0403 14:16:06.844702 13094 net.cpp:141] Setting up inception_4a/relu_3x3
I0403 14:16:06.844733 13094 net.cpp:148] Top shape: 24 208 14 14 (978432)
I0403 14:16:06.844758 13094 net.cpp:156] Memory required for data: 873063456
I0403 14:16:06.844790 13094 layer_factory.hpp:77] Creating layer inception_4a/5x5_reduce
I0403 14:16:06.844822 13094 net.cpp:91] Creating Layer inception_4a/5x5_reduce
I0403 14:16:06.844841 13094 net.cpp:425] inception_4a/5x5_reduce <- pool3/3x3_s2_pool3/3x3_s2_0_split_2
I0403 14:16:06.844861 13094 net.cpp:399] inception_4a/5x5_reduce -> inception_4a/5x5_reduce
I0403 14:16:06.845952 13094 net.cpp:141] Setting up inception_4a/5x5_reduce
I0403 14:16:06.845988 13094 net.cpp:148] Top shape: 24 16 14 14 (75264)
I0403 14:16:06.846009 13094 net.cpp:156] Memory required for data: 873364512
I0403 14:16:06.846038 13094 layer_factory.hpp:77] Creating layer inception_4a/relu_5x5_reduce
I0403 14:16:06.846057 13094 net.cpp:91] Creating Layer inception_4a/relu_5x5_reduce
I0403 14:16:06.846074 13094 net.cpp:425] inception_4a/relu_5x5_reduce <- inception_4a/5x5_reduce
I0403 14:16:06.846098 13094 net.cpp:386] inception_4a/relu_5x5_reduce -> inception_4a/5x5_reduce (in-place)
I0403 14:16:06.846315 13094 net.cpp:141] Setting up inception_4a/relu_5x5_reduce
I0403 14:16:06.846343 13094 net.cpp:148] Top shape: 24 16 14 14 (75264)
I0403 14:16:06.846357 13094 net.cpp:156] Memory required for data: 873665568
I0403 14:16:06.846374 13094 layer_factory.hpp:77] Creating layer inception_4a/5x5
I0403 14:16:06.846396 13094 net.cpp:91] Creating Layer inception_4a/5x5
I0403 14:16:06.846415 13094 net.cpp:425] inception_4a/5x5 <- inception_4a/5x5_reduce
I0403 14:16:06.846437 13094 net.cpp:399] inception_4a/5x5 -> inception_4a/5x5
I0403 14:16:06.847591 13094 net.cpp:141] Setting up inception_4a/5x5
I0403 14:16:06.847620 13094 net.cpp:148] Top shape: 24 48 14 14 (225792)
I0403 14:16:06.847637 13094 net.cpp:156] Memory required for data: 874568736
I0403 14:16:06.847657 13094 layer_factory.hpp:77] Creating layer inception_4a/relu_5x5
I0403 14:16:06.847678 13094 net.cpp:91] Creating Layer inception_4a/relu_5x5
I0403 14:16:06.847697 13094 net.cpp:425] inception_4a/relu_5x5 <- inception_4a/5x5
I0403 14:16:06.883435 13094 net.cpp:386] inception_4a/relu_5x5 -> inception_4a/5x5 (in-place)
I0403 14:16:06.883682 13094 net.cpp:141] Setting up inception_4a/relu_5x5
I0403 14:16:06.883714 13094 net.cpp:148] Top shape: 24 48 14 14 (225792)
I0403 14:16:06.883733 13094 net.cpp:156] Memory required for data: 875471904
I0403 14:16:06.883749 13094 layer_factory.hpp:77] Creating layer inception_4a/pool
I0403 14:16:06.883767 13094 net.cpp:91] Creating Layer inception_4a/pool
I0403 14:16:06.883785 13094 net.cpp:425] inception_4a/pool <- pool3/3x3_s2_pool3/3x3_s2_0_split_3
I0403 14:16:06.883803 13094 net.cpp:399] inception_4a/pool -> inception_4a/pool
I0403 14:16:06.883873 13094 net.cpp:141] Setting up inception_4a/pool
I0403 14:16:06.883901 13094 net.cpp:148] Top shape: 24 480 14 14 (2257920)
I0403 14:16:06.883925 13094 net.cpp:156] Memory required for data: 884503584
I0403 14:16:06.883941 13094 layer_factory.hpp:77] Creating layer inception_4a/pool_proj
I0403 14:16:06.883965 13094 net.cpp:91] Creating Layer inception_4a/pool_proj
I0403 14:16:06.884017 13094 net.cpp:425] inception_4a/pool_proj <- inception_4a/pool
I0403 14:16:06.884078 13094 net.cpp:399] inception_4a/pool_proj -> inception_4a/pool_proj
I0403 14:16:06.885352 13094 net.cpp:141] Setting up inception_4a/pool_proj
I0403 14:16:06.885385 13094 net.cpp:148] Top shape: 24 64 14 14 (301056)
I0403 14:16:06.885431 13094 net.cpp:156] Memory required for data: 885707808
I0403 14:16:06.885469 13094 layer_factory.hpp:77] Creating layer inception_4a/relu_pool_proj
I0403 14:16:06.885506 13094 net.cpp:91] Creating Layer inception_4a/relu_pool_proj
I0403 14:16:06.885530 13094 net.cpp:425] inception_4a/relu_pool_proj <- inception_4a/pool_proj
I0403 14:16:06.885550 13094 net.cpp:386] inception_4a/relu_pool_proj -> inception_4a/pool_proj (in-place)
I0403 14:16:06.885856 13094 net.cpp:141] Setting up inception_4a/relu_pool_proj
I0403 14:16:06.885885 13094 net.cpp:148] Top shape: 24 64 14 14 (301056)
I0403 14:16:06.885900 13094 net.cpp:156] Memory required for data: 886912032
I0403 14:16:06.885921 13094 layer_factory.hpp:77] Creating layer inception_4a/output
I0403 14:16:06.885967 13094 net.cpp:91] Creating Layer inception_4a/output
I0403 14:16:06.886001 13094 net.cpp:425] inception_4a/output <- inception_4a/1x1
I0403 14:16:06.886019 13094 net.cpp:425] inception_4a/output <- inception_4a/3x3
I0403 14:16:06.886042 13094 net.cpp:425] inception_4a/output <- inception_4a/5x5
I0403 14:16:06.886060 13094 net.cpp:425] inception_4a/output <- inception_4a/pool_proj
I0403 14:16:06.886083 13094 net.cpp:399] inception_4a/output -> inception_4a/output
I0403 14:16:06.886134 13094 net.cpp:141] Setting up inception_4a/output
I0403 14:16:06.886168 13094 net.cpp:148] Top shape: 24 512 14 14 (2408448)
I0403 14:16:06.886184 13094 net.cpp:156] Memory required for data: 896545824
I0403 14:16:06.886199 13094 layer_factory.hpp:77] Creating layer inception_4a/output_inception_4a/output_0_split
I0403 14:16:06.886219 13094 net.cpp:91] Creating Layer inception_4a/output_inception_4a/output_0_split
I0403 14:16:06.886234 13094 net.cpp:425] inception_4a/output_inception_4a/output_0_split <- inception_4a/output
I0403 14:16:06.886256 13094 net.cpp:399] inception_4a/output_inception_4a/output_0_split -> inception_4a/output_inception_4a/output_0_split_0
I0403 14:16:06.886283 13094 net.cpp:399] inception_4a/output_inception_4a/output_0_split -> inception_4a/output_inception_4a/output_0_split_1
I0403 14:16:06.886312 13094 net.cpp:399] inception_4a/output_inception_4a/output_0_split -> inception_4a/output_inception_4a/output_0_split_2
I0403 14:16:06.886348 13094 net.cpp:399] inception_4a/output_inception_4a/output_0_split -> inception_4a/output_inception_4a/output_0_split_3
I0403 14:16:06.886379 13094 net.cpp:399] inception_4a/output_inception_4a/output_0_split -> inception_4a/output_inception_4a/output_0_split_4
I0403 14:16:06.886502 13094 net.cpp:141] Setting up inception_4a/output_inception_4a/output_0_split
I0403 14:16:06.886526 13094 net.cpp:148] Top shape: 24 512 14 14 (2408448)
I0403 14:16:06.886543 13094 net.cpp:148] Top shape: 24 512 14 14 (2408448)
I0403 14:16:06.886560 13094 net.cpp:148] Top shape: 24 512 14 14 (2408448)
I0403 14:16:06.886587 13094 net.cpp:148] Top shape: 24 512 14 14 (2408448)
I0403 14:16:06.886606 13094 net.cpp:148] Top shape: 24 512 14 14 (2408448)
I0403 14:16:06.886622 13094 net.cpp:156] Memory required for data: 944714784
I0403 14:16:06.886646 13094 layer_factory.hpp:77] Creating layer loss1/ave_pool
I0403 14:16:06.886679 13094 net.cpp:91] Creating Layer loss1/ave_pool
I0403 14:16:06.886696 13094 net.cpp:425] loss1/ave_pool <- inception_4a/output_inception_4a/output_0_split_0
I0403 14:16:06.886718 13094 net.cpp:399] loss1/ave_pool -> loss1/ave_pool
I0403 14:16:06.886981 13094 net.cpp:141] Setting up loss1/ave_pool
I0403 14:16:06.887008 13094 net.cpp:148] Top shape: 24 512 4 4 (196608)
I0403 14:16:06.887028 13094 net.cpp:156] Memory required for data: 945501216
I0403 14:16:06.887049 13094 layer_factory.hpp:77] Creating layer loss1/conv
I0403 14:16:06.887079 13094 net.cpp:91] Creating Layer loss1/conv
I0403 14:16:06.887106 13094 net.cpp:425] loss1/conv <- loss1/ave_pool
I0403 14:16:06.887138 13094 net.cpp:399] loss1/conv -> loss1/conv
I0403 14:16:06.888664 13094 net.cpp:141] Setting up loss1/conv
I0403 14:16:06.888700 13094 net.cpp:148] Top shape: 24 128 4 4 (49152)
I0403 14:16:06.888726 13094 net.cpp:156] Memory required for data: 945697824
I0403 14:16:06.888763 13094 layer_factory.hpp:77] Creating layer loss1/relu_conv
I0403 14:16:06.888783 13094 net.cpp:91] Creating Layer loss1/relu_conv
I0403 14:16:06.888809 13094 net.cpp:425] loss1/relu_conv <- loss1/conv
I0403 14:16:06.888875 13094 net.cpp:386] loss1/relu_conv -> loss1/conv (in-place)
I0403 14:16:06.889201 13094 net.cpp:141] Setting up loss1/relu_conv
I0403 14:16:06.889231 13094 net.cpp:148] Top shape: 24 128 4 4 (49152)
I0403 14:16:06.889253 13094 net.cpp:156] Memory required for data: 945894432
I0403 14:16:06.889272 13094 layer_factory.hpp:77] Creating layer loss1/fc
I0403 14:16:06.889297 13094 net.cpp:91] Creating Layer loss1/fc
I0403 14:16:06.889317 13094 net.cpp:425] loss1/fc <- loss1/conv
I0403 14:16:06.889339 13094 net.cpp:399] loss1/fc -> loss1/fc
I0403 14:16:06.908284 13094 net.cpp:141] Setting up loss1/fc
I0403 14:16:06.908345 13094 net.cpp:148] Top shape: 24 1024 (24576)
I0403 14:16:06.908380 13094 net.cpp:156] Memory required for data: 945992736
I0403 14:16:06.908402 13094 layer_factory.hpp:77] Creating layer loss1/relu_fc
I0403 14:16:06.908424 13094 net.cpp:91] Creating Layer loss1/relu_fc
I0403 14:16:06.908448 13094 net.cpp:425] loss1/relu_fc <- loss1/fc
I0403 14:16:06.908468 13094 net.cpp:386] loss1/relu_fc -> loss1/fc (in-place)
I0403 14:16:06.908700 13094 net.cpp:141] Setting up loss1/relu_fc
I0403 14:16:06.908756 13094 net.cpp:148] Top shape: 24 1024 (24576)
I0403 14:16:06.908776 13094 net.cpp:156] Memory required for data: 946091040
I0403 14:16:06.908792 13094 layer_factory.hpp:77] Creating layer loss1/drop_fc
I0403 14:16:06.908823 13094 net.cpp:91] Creating Layer loss1/drop_fc
I0403 14:16:06.908877 13094 net.cpp:425] loss1/drop_fc <- loss1/fc
I0403 14:16:06.908917 13094 net.cpp:386] loss1/drop_fc -> loss1/fc (in-place)
I0403 14:16:06.908977 13094 net.cpp:141] Setting up loss1/drop_fc
I0403 14:16:06.909041 13094 net.cpp:148] Top shape: 24 1024 (24576)
I0403 14:16:06.909106 13094 net.cpp:156] Memory required for data: 946189344
I0403 14:16:06.909158 13094 layer_factory.hpp:77] Creating layer loss1/classifier_plantvillage
I0403 14:16:06.909198 13094 net.cpp:91] Creating Layer loss1/classifier_plantvillage
I0403 14:16:06.909216 13094 net.cpp:425] loss1/classifier_plantvillage <- loss1/fc
I0403 14:16:06.909235 13094 net.cpp:399] loss1/classifier_plantvillage -> loss1/classifier_plantvillage
I0403 14:16:06.910220 13094 net.cpp:141] Setting up loss1/classifier_plantvillage
I0403 14:16:06.910322 13094 net.cpp:148] Top shape: 24 38 (912)
I0403 14:16:06.910349 13094 net.cpp:156] Memory required for data: 946192992
I0403 14:16:06.910372 13094 layer_factory.hpp:77] Creating layer loss1/classifier_plantvillage_loss1/classifier_plantvillage_0_split
I0403 14:16:06.910394 13094 net.cpp:91] Creating Layer loss1/classifier_plantvillage_loss1/classifier_plantvillage_0_split
I0403 14:16:06.910411 13094 net.cpp:425] loss1/classifier_plantvillage_loss1/classifier_plantvillage_0_split <- loss1/classifier_plantvillage
I0403 14:16:06.910431 13094 net.cpp:399] loss1/classifier_plantvillage_loss1/classifier_plantvillage_0_split -> loss1/classifier_plantvillage_loss1/classifier_plantvillage_0_split_0
I0403 14:16:06.910454 13094 net.cpp:399] loss1/classifier_plantvillage_loss1/classifier_plantvillage_0_split -> loss1/classifier_plantvillage_loss1/classifier_plantvillage_0_split_1
I0403 14:16:06.910477 13094 net.cpp:399] loss1/classifier_plantvillage_loss1/classifier_plantvillage_0_split -> loss1/classifier_plantvillage_loss1/classifier_plantvillage_0_split_2
I0403 14:16:06.910549 13094 net.cpp:141] Setting up loss1/classifier_plantvillage_loss1/classifier_plantvillage_0_split
I0403 14:16:06.910619 13094 net.cpp:148] Top shape: 24 38 (912)
I0403 14:16:06.910636 13094 net.cpp:148] Top shape: 24 38 (912)
I0403 14:16:06.910652 13094 net.cpp:148] Top shape: 24 38 (912)
I0403 14:16:06.910691 13094 net.cpp:156] Memory required for data: 946203936
I0403 14:16:06.910737 13094 layer_factory.hpp:77] Creating layer inception_4b/1x1
I0403 14:16:06.910784 13094 net.cpp:91] Creating Layer inception_4b/1x1
I0403 14:16:06.910835 13094 net.cpp:425] inception_4b/1x1 <- inception_4a/output_inception_4a/output_0_split_1
I0403 14:16:06.910887 13094 net.cpp:399] inception_4b/1x1 -> inception_4b/1x1
I0403 14:16:06.912686 13094 net.cpp:141] Setting up inception_4b/1x1
I0403 14:16:06.912720 13094 net.cpp:148] Top shape: 24 160 14 14 (752640)
I0403 14:16:06.912739 13094 net.cpp:156] Memory required for data: 949214496
I0403 14:16:06.912758 13094 layer_factory.hpp:77] Creating layer inception_4b/relu_1x1
I0403 14:16:06.912777 13094 net.cpp:91] Creating Layer inception_4b/relu_1x1
I0403 14:16:06.912801 13094 net.cpp:425] inception_4b/relu_1x1 <- inception_4b/1x1
I0403 14:16:06.912823 13094 net.cpp:386] inception_4b/relu_1x1 -> inception_4b/1x1 (in-place)
I0403 14:16:06.913014 13094 net.cpp:141] Setting up inception_4b/relu_1x1
I0403 14:16:06.913048 13094 net.cpp:148] Top shape: 24 160 14 14 (752640)
I0403 14:16:06.913064 13094 net.cpp:156] Memory required for data: 952225056
I0403 14:16:06.913079 13094 layer_factory.hpp:77] Creating layer inception_4b/3x3_reduce
I0403 14:16:06.913106 13094 net.cpp:91] Creating Layer inception_4b/3x3_reduce
I0403 14:16:06.945363 13094 net.cpp:425] inception_4b/3x3_reduce <- inception_4a/output_inception_4a/output_0_split_2
I0403 14:16:06.945399 13094 net.cpp:399] inception_4b/3x3_reduce -> inception_4b/3x3_reduce
I0403 14:16:06.946900 13094 net.cpp:141] Setting up inception_4b/3x3_reduce
I0403 14:16:06.946941 13094 net.cpp:148] Top shape: 24 112 14 14 (526848)
I0403 14:16:06.946972 13094 net.cpp:156] Memory required for data: 954332448
I0403 14:16:06.946995 13094 layer_factory.hpp:77] Creating layer inception_4b/relu_3x3_reduce
I0403 14:16:06.947018 13094 net.cpp:91] Creating Layer inception_4b/relu_3x3_reduce
I0403 14:16:06.947036 13094 net.cpp:425] inception_4b/relu_3x3_reduce <- inception_4b/3x3_reduce
I0403 14:16:06.947055 13094 net.cpp:386] inception_4b/relu_3x3_reduce -> inception_4b/3x3_reduce (in-place)
I0403 14:16:06.947360 13094 net.cpp:141] Setting up inception_4b/relu_3x3_reduce
I0403 14:16:06.947399 13094 net.cpp:148] Top shape: 24 112 14 14 (526848)
I0403 14:16:06.947419 13094 net.cpp:156] Memory required for data: 956439840
I0403 14:16:06.947435 13094 layer_factory.hpp:77] Creating layer inception_4b/3x3
I0403 14:16:06.947459 13094 net.cpp:91] Creating Layer inception_4b/3x3
I0403 14:16:06.947479 13094 net.cpp:425] inception_4b/3x3 <- inception_4b/3x3_reduce
I0403 14:16:06.947504 13094 net.cpp:399] inception_4b/3x3 -> inception_4b/3x3
I0403 14:16:06.950697 13094 net.cpp:141] Setting up inception_4b/3x3
I0403 14:16:06.950728 13094 net.cpp:148] Top shape: 24 224 14 14 (1053696)
I0403 14:16:06.950748 13094 net.cpp:156] Memory required for data: 960654624
I0403 14:16:06.950770 13094 layer_factory.hpp:77] Creating layer inception_4b/relu_3x3
I0403 14:16:06.950793 13094 net.cpp:91] Creating Layer inception_4b/relu_3x3
I0403 14:16:06.950814 13094 net.cpp:425] inception_4b/relu_3x3 <- inception_4b/3x3
I0403 14:16:06.950832 13094 net.cpp:386] inception_4b/relu_3x3 -> inception_4b/3x3 (in-place)
I0403 14:16:06.951028 13094 net.cpp:141] Setting up inception_4b/relu_3x3
I0403 14:16:06.951058 13094 net.cpp:148] Top shape: 24 224 14 14 (1053696)
I0403 14:16:06.951081 13094 net.cpp:156] Memory required for data: 964869408
I0403 14:16:06.951097 13094 layer_factory.hpp:77] Creating layer inception_4b/5x5_reduce
I0403 14:16:06.951120 13094 net.cpp:91] Creating Layer inception_4b/5x5_reduce
I0403 14:16:06.951153 13094 net.cpp:425] inception_4b/5x5_reduce <- inception_4a/output_inception_4a/output_0_split_3
I0403 14:16:06.951174 13094 net.cpp:399] inception_4b/5x5_reduce -> inception_4b/5x5_reduce
I0403 14:16:06.952337 13094 net.cpp:141] Setting up inception_4b/5x5_reduce
I0403 14:16:06.952368 13094 net.cpp:148] Top shape: 24 24 14 14 (112896)
I0403 14:16:06.952383 13094 net.cpp:156] Memory required for data: 965320992
I0403 14:16:06.952404 13094 layer_factory.hpp:77] Creating layer inception_4b/relu_5x5_reduce
I0403 14:16:06.952424 13094 net.cpp:91] Creating Layer inception_4b/relu_5x5_reduce
I0403 14:16:06.952461 13094 net.cpp:425] inception_4b/relu_5x5_reduce <- inception_4b/5x5_reduce
I0403 14:16:06.952484 13094 net.cpp:386] inception_4b/relu_5x5_reduce -> inception_4b/5x5_reduce (in-place)
I0403 14:16:06.952683 13094 net.cpp:141] Setting up inception_4b/relu_5x5_reduce
I0403 14:16:06.952710 13094 net.cpp:148] Top shape: 24 24 14 14 (112896)
I0403 14:16:06.952725 13094 net.cpp:156] Memory required for data: 965772576
I0403 14:16:06.952741 13094 layer_factory.hpp:77] Creating layer inception_4b/5x5
I0403 14:16:06.952765 13094 net.cpp:91] Creating Layer inception_4b/5x5
I0403 14:16:06.952785 13094 net.cpp:425] inception_4b/5x5 <- inception_4b/5x5_reduce
I0403 14:16:06.952806 13094 net.cpp:399] inception_4b/5x5 -> inception_4b/5x5
I0403 14:16:06.954113 13094 net.cpp:141] Setting up inception_4b/5x5
I0403 14:16:06.954144 13094 net.cpp:148] Top shape: 24 64 14 14 (301056)
I0403 14:16:06.954159 13094 net.cpp:156] Memory required for data: 966976800
I0403 14:16:06.954180 13094 layer_factory.hpp:77] Creating layer inception_4b/relu_5x5
I0403 14:16:06.954198 13094 net.cpp:91] Creating Layer inception_4b/relu_5x5
I0403 14:16:06.954216 13094 net.cpp:425] inception_4b/relu_5x5 <- inception_4b/5x5
I0403 14:16:06.954237 13094 net.cpp:386] inception_4b/relu_5x5 -> inception_4b/5x5 (in-place)
I0403 14:16:06.954538 13094 net.cpp:141] Setting up inception_4b/relu_5x5
I0403 14:16:06.954566 13094 net.cpp:148] Top shape: 24 64 14 14 (301056)
I0403 14:16:06.954599 13094 net.cpp:156] Memory required for data: 968181024
I0403 14:16:06.954615 13094 layer_factory.hpp:77] Creating layer inception_4b/pool
I0403 14:16:06.954635 13094 net.cpp:91] Creating Layer inception_4b/pool
I0403 14:16:06.954651 13094 net.cpp:425] inception_4b/pool <- inception_4a/output_inception_4a/output_0_split_4
I0403 14:16:06.954675 13094 net.cpp:399] inception_4b/pool -> inception_4b/pool
I0403 14:16:06.954746 13094 net.cpp:141] Setting up inception_4b/pool
I0403 14:16:06.954771 13094 net.cpp:148] Top shape: 24 512 14 14 (2408448)
I0403 14:16:06.954787 13094 net.cpp:156] Memory required for data: 977814816
I0403 14:16:06.954802 13094 layer_factory.hpp:77] Creating layer inception_4b/pool_proj
I0403 14:16:06.954826 13094 net.cpp:91] Creating Layer inception_4b/pool_proj
I0403 14:16:06.954844 13094 net.cpp:425] inception_4b/pool_proj <- inception_4b/pool
I0403 14:16:06.954865 13094 net.cpp:399] inception_4b/pool_proj -> inception_4b/pool_proj
I0403 14:16:06.956147 13094 net.cpp:141] Setting up inception_4b/pool_proj
I0403 14:16:06.956176 13094 net.cpp:148] Top shape: 24 64 14 14 (301056)
I0403 14:16:06.956192 13094 net.cpp:156] Memory required for data: 979019040
I0403 14:16:06.956212 13094 layer_factory.hpp:77] Creating layer inception_4b/relu_pool_proj
I0403 14:16:06.956231 13094 net.cpp:91] Creating Layer inception_4b/relu_pool_proj
I0403 14:16:06.956248 13094 net.cpp:425] inception_4b/relu_pool_proj <- inception_4b/pool_proj
I0403 14:16:06.956272 13094 net.cpp:386] inception_4b/relu_pool_proj -> inception_4b/pool_proj (in-place)
I0403 14:16:06.956467 13094 net.cpp:141] Setting up inception_4b/relu_pool_proj
I0403 14:16:06.956493 13094 net.cpp:148] Top shape: 24 64 14 14 (301056)
I0403 14:16:06.956509 13094 net.cpp:156] Memory required for data: 980223264
I0403 14:16:06.956524 13094 layer_factory.hpp:77] Creating layer inception_4b/output
I0403 14:16:06.956545 13094 net.cpp:91] Creating Layer inception_4b/output
I0403 14:16:06.956563 13094 net.cpp:425] inception_4b/output <- inception_4b/1x1
I0403 14:16:06.956585 13094 net.cpp:425] inception_4b/output <- inception_4b/3x3
I0403 14:16:06.956604 13094 net.cpp:425] inception_4b/output <- inception_4b/5x5
I0403 14:16:06.956620 13094 net.cpp:425] inception_4b/output <- inception_4b/pool_proj
I0403 14:16:06.956639 13094 net.cpp:399] inception_4b/output -> inception_4b/output
I0403 14:16:06.956687 13094 net.cpp:141] Setting up inception_4b/output
I0403 14:16:06.956712 13094 net.cpp:148] Top shape: 24 512 14 14 (2408448)
I0403 14:16:06.956727 13094 net.cpp:156] Memory required for data: 989857056
I0403 14:16:06.956758 13094 layer_factory.hpp:77] Creating layer inception_4b/output_inception_4b/output_0_split
I0403 14:16:06.956778 13094 net.cpp:91] Creating Layer inception_4b/output_inception_4b/output_0_split
I0403 14:16:06.956794 13094 net.cpp:425] inception_4b/output_inception_4b/output_0_split <- inception_4b/output
I0403 14:16:06.956815 13094 net.cpp:399] inception_4b/output_inception_4b/output_0_split -> inception_4b/output_inception_4b/output_0_split_0
I0403 14:16:06.956836 13094 net.cpp:399] inception_4b/output_inception_4b/output_0_split -> inception_4b/output_inception_4b/output_0_split_1
I0403 14:16:06.956858 13094 net.cpp:399] inception_4b/output_inception_4b/output_0_split -> inception_4b/output_inception_4b/output_0_split_2
I0403 14:16:06.956881 13094 net.cpp:399] inception_4b/output_inception_4b/output_0_split -> inception_4b/output_inception_4b/output_0_split_3
I0403 14:16:06.956966 13094 net.cpp:141] Setting up inception_4b/output_inception_4b/output_0_split
I0403 14:16:06.956993 13094 net.cpp:148] Top shape: 24 512 14 14 (2408448)
I0403 14:16:06.957011 13094 net.cpp:148] Top shape: 24 512 14 14 (2408448)
I0403 14:16:06.957028 13094 net.cpp:148] Top shape: 24 512 14 14 (2408448)
I0403 14:16:06.957044 13094 net.cpp:148] Top shape: 24 512 14 14 (2408448)
I0403 14:16:06.957058 13094 net.cpp:156] Memory required for data: 1028392224
I0403 14:16:06.957074 13094 layer_factory.hpp:77] Creating layer inception_4c/1x1
I0403 14:16:06.957098 13094 net.cpp:91] Creating Layer inception_4c/1x1
I0403 14:16:06.957116 13094 net.cpp:425] inception_4c/1x1 <- inception_4b/output_inception_4b/output_0_split_0
I0403 14:16:06.957136 13094 net.cpp:399] inception_4c/1x1 -> inception_4c/1x1
I0403 14:16:06.958676 13094 net.cpp:141] Setting up inception_4c/1x1
I0403 14:16:06.958706 13094 net.cpp:148] Top shape: 24 128 14 14 (602112)
I0403 14:16:06.958724 13094 net.cpp:156] Memory required for data: 1030800672
I0403 14:16:06.958742 13094 layer_factory.hpp:77] Creating layer inception_4c/relu_1x1
I0403 14:16:06.958765 13094 net.cpp:91] Creating Layer inception_4c/relu_1x1
I0403 14:16:06.958782 13094 net.cpp:425] inception_4c/relu_1x1 <- inception_4c/1x1
I0403 14:16:06.958801 13094 net.cpp:386] inception_4c/relu_1x1 -> inception_4c/1x1 (in-place)
I0403 14:16:06.958997 13094 net.cpp:141] Setting up inception_4c/relu_1x1
I0403 14:16:06.959025 13094 net.cpp:148] Top shape: 24 128 14 14 (602112)
I0403 14:16:06.959041 13094 net.cpp:156] Memory required for data: 1033209120
I0403 14:16:06.959058 13094 layer_factory.hpp:77] Creating layer inception_4c/3x3_reduce
I0403 14:16:06.959080 13094 net.cpp:91] Creating Layer inception_4c/3x3_reduce
I0403 14:16:06.959098 13094 net.cpp:425] inception_4c/3x3_reduce <- inception_4b/output_inception_4b/output_0_split_1
I0403 14:16:06.959120 13094 net.cpp:399] inception_4c/3x3_reduce -> inception_4c/3x3_reduce
I0403 14:16:06.961192 13094 net.cpp:141] Setting up inception_4c/3x3_reduce
I0403 14:16:06.961225 13094 net.cpp:148] Top shape: 24 128 14 14 (602112)
I0403 14:16:06.961243 13094 net.cpp:156] Memory required for data: 1035617568
I0403 14:16:06.961266 13094 layer_factory.hpp:77] Creating layer inception_4c/relu_3x3_reduce
I0403 14:16:06.961284 13094 net.cpp:91] Creating Layer inception_4c/relu_3x3_reduce
I0403 14:16:06.961302 13094 net.cpp:425] inception_4c/relu_3x3_reduce <- inception_4c/3x3_reduce
I0403 14:16:06.961323 13094 net.cpp:386] inception_4c/relu_3x3_reduce -> inception_4c/3x3_reduce (in-place)
I0403 14:16:06.961629 13094 net.cpp:141] Setting up inception_4c/relu_3x3_reduce
I0403 14:16:06.961660 13094 net.cpp:148] Top shape: 24 128 14 14 (602112)
I0403 14:16:06.961678 13094 net.cpp:156] Memory required for data: 1038026016
I0403 14:16:06.961694 13094 layer_factory.hpp:77] Creating layer inception_4c/3x3
I0403 14:16:06.961719 13094 net.cpp:91] Creating Layer inception_4c/3x3
I0403 14:16:06.961737 13094 net.cpp:425] inception_4c/3x3 <- inception_4c/3x3_reduce
I0403 14:16:06.961756 13094 net.cpp:399] inception_4c/3x3 -> inception_4c/3x3
I0403 14:16:06.965617 13094 net.cpp:141] Setting up inception_4c/3x3
I0403 14:16:06.965662 13094 net.cpp:148] Top shape: 24 256 14 14 (1204224)
I0403 14:16:06.965680 13094 net.cpp:156] Memory required for data: 1042842912
I0403 14:16:06.965716 13094 layer_factory.hpp:77] Creating layer inception_4c/relu_3x3
I0403 14:16:06.965739 13094 net.cpp:91] Creating Layer inception_4c/relu_3x3
I0403 14:16:06.965756 13094 net.cpp:425] inception_4c/relu_3x3 <- inception_4c/3x3
I0403 14:16:06.965776 13094 net.cpp:386] inception_4c/relu_3x3 -> inception_4c/3x3 (in-place)
I0403 14:16:06.965976 13094 net.cpp:141] Setting up inception_4c/relu_3x3
I0403 14:16:06.966002 13094 net.cpp:148] Top shape: 24 256 14 14 (1204224)
I0403 14:16:06.966018 13094 net.cpp:156] Memory required for data: 1047659808
I0403 14:16:06.966034 13094 layer_factory.hpp:77] Creating layer inception_4c/5x5_reduce
I0403 14:16:06.966058 13094 net.cpp:91] Creating Layer inception_4c/5x5_reduce
I0403 14:16:06.966078 13094 net.cpp:425] inception_4c/5x5_reduce <- inception_4b/output_inception_4b/output_0_split_2
I0403 14:16:06.966099 13094 net.cpp:399] inception_4c/5x5_reduce -> inception_4c/5x5_reduce
I0403 14:16:06.967277 13094 net.cpp:141] Setting up inception_4c/5x5_reduce
I0403 14:16:06.967306 13094 net.cpp:148] Top shape: 24 24 14 14 (112896)
I0403 14:16:06.967322 13094 net.cpp:156] Memory required for data: 1048111392
I0403 14:16:06.967341 13094 layer_factory.hpp:77] Creating layer inception_4c/relu_5x5_reduce
I0403 14:16:06.967361 13094 net.cpp:91] Creating Layer inception_4c/relu_5x5_reduce
I0403 14:16:06.967378 13094 net.cpp:425] inception_4c/relu_5x5_reduce <- inception_4c/5x5_reduce
I0403 14:16:06.967399 13094 net.cpp:386] inception_4c/relu_5x5_reduce -> inception_4c/5x5_reduce (in-place)
I0403 14:16:06.967605 13094 net.cpp:141] Setting up inception_4c/relu_5x5_reduce
I0403 14:16:06.967633 13094 net.cpp:148] Top shape: 24 24 14 14 (112896)
I0403 14:16:06.967648 13094 net.cpp:156] Memory required for data: 1048562976
I0403 14:16:06.967665 13094 layer_factory.hpp:77] Creating layer inception_4c/5x5
I0403 14:16:06.967689 13094 net.cpp:91] Creating Layer inception_4c/5x5
I0403 14:16:06.967707 13094 net.cpp:425] inception_4c/5x5 <- inception_4c/5x5_reduce
I0403 14:16:06.967730 13094 net.cpp:399] inception_4c/5x5 -> inception_4c/5x5
I0403 14:16:06.969058 13094 net.cpp:141] Setting up inception_4c/5x5
I0403 14:16:06.969086 13094 net.cpp:148] Top shape: 24 64 14 14 (301056)
I0403 14:16:06.969102 13094 net.cpp:156] Memory required for data: 1049767200
I0403 14:16:06.969122 13094 layer_factory.hpp:77] Creating layer inception_4c/relu_5x5
I0403 14:16:06.969143 13094 net.cpp:91] Creating Layer inception_4c/relu_5x5
I0403 14:16:06.969161 13094 net.cpp:425] inception_4c/relu_5x5 <- inception_4c/5x5
I0403 14:16:06.969179 13094 net.cpp:386] inception_4c/relu_5x5 -> inception_4c/5x5 (in-place)
I0403 14:16:06.969488 13094 net.cpp:141] Setting up inception_4c/relu_5x5
I0403 14:16:06.969516 13094 net.cpp:148] Top shape: 24 64 14 14 (301056)
I0403 14:16:06.969532 13094 net.cpp:156] Memory required for data: 1050971424
I0403 14:16:06.969547 13094 layer_factory.hpp:77] Creating layer inception_4c/pool
I0403 14:16:06.969573 13094 net.cpp:91] Creating Layer inception_4c/pool
I0403 14:16:06.969593 13094 net.cpp:425] inception_4c/pool <- inception_4b/output_inception_4b/output_0_split_3
I0403 14:16:06.969611 13094 net.cpp:399] inception_4c/pool -> inception_4c/pool
I0403 14:16:06.969682 13094 net.cpp:141] Setting up inception_4c/pool
I0403 14:16:06.969707 13094 net.cpp:148] Top shape: 24 512 14 14 (2408448)
I0403 14:16:06.969723 13094 net.cpp:156] Memory required for data: 1060605216
I0403 14:16:06.969738 13094 layer_factory.hpp:77] Creating layer inception_4c/pool_proj
I0403 14:16:06.969761 13094 net.cpp:91] Creating Layer inception_4c/pool_proj
I0403 14:16:06.969780 13094 net.cpp:425] inception_4c/pool_proj <- inception_4c/pool
I0403 14:16:06.969804 13094 net.cpp:399] inception_4c/pool_proj -> inception_4c/pool_proj
I0403 14:16:06.971112 13094 net.cpp:141] Setting up inception_4c/pool_proj
I0403 14:16:06.971141 13094 net.cpp:148] Top shape: 24 64 14 14 (301056)
I0403 14:16:06.971173 13094 net.cpp:156] Memory required for data: 1061809440
I0403 14:16:06.971192 13094 layer_factory.hpp:77] Creating layer inception_4c/relu_pool_proj
I0403 14:16:06.971212 13094 net.cpp:91] Creating Layer inception_4c/relu_pool_proj
I0403 14:16:06.971230 13094 net.cpp:425] inception_4c/relu_pool_proj <- inception_4c/pool_proj
I0403 14:16:06.971251 13094 net.cpp:386] inception_4c/relu_pool_proj -> inception_4c/pool_proj (in-place)
I0403 14:16:06.971451 13094 net.cpp:141] Setting up inception_4c/relu_pool_proj
I0403 14:16:06.971478 13094 net.cpp:148] Top shape: 24 64 14 14 (301056)
I0403 14:16:06.971493 13094 net.cpp:156] Memory required for data: 1063013664
I0403 14:16:06.971509 13094 layer_factory.hpp:77] Creating layer inception_4c/output
I0403 14:16:06.971530 13094 net.cpp:91] Creating Layer inception_4c/output
I0403 14:16:06.971549 13094 net.cpp:425] inception_4c/output <- inception_4c/1x1
I0403 14:16:06.971565 13094 net.cpp:425] inception_4c/output <- inception_4c/3x3
I0403 14:16:06.971587 13094 net.cpp:425] inception_4c/output <- inception_4c/5x5
I0403 14:16:06.971606 13094 net.cpp:425] inception_4c/output <- inception_4c/pool_proj
I0403 14:16:06.971623 13094 net.cpp:399] inception_4c/output -> inception_4c/output
I0403 14:16:06.971673 13094 net.cpp:141] Setting up inception_4c/output
I0403 14:16:06.971700 13094 net.cpp:148] Top shape: 24 512 14 14 (2408448)
I0403 14:16:06.971716 13094 net.cpp:156] Memory required for data: 1072647456
I0403 14:16:06.971734 13094 layer_factory.hpp:77] Creating layer inception_4c/output_inception_4c/output_0_split
I0403 14:16:06.971751 13094 net.cpp:91] Creating Layer inception_4c/output_inception_4c/output_0_split
I0403 14:16:06.971767 13094 net.cpp:425] inception_4c/output_inception_4c/output_0_split <- inception_4c/output
I0403 14:16:06.971787 13094 net.cpp:399] inception_4c/output_inception_4c/output_0_split -> inception_4c/output_inception_4c/output_0_split_0
I0403 14:16:06.971809 13094 net.cpp:399] inception_4c/output_inception_4c/output_0_split -> inception_4c/output_inception_4c/output_0_split_1
I0403 14:16:06.971832 13094 net.cpp:399] inception_4c/output_inception_4c/output_0_split -> inception_4c/output_inception_4c/output_0_split_2
I0403 14:16:06.971853 13094 net.cpp:399] inception_4c/output_inception_4c/output_0_split -> inception_4c/output_inception_4c/output_0_split_3
I0403 14:16:06.971942 13094 net.cpp:141] Setting up inception_4c/output_inception_4c/output_0_split
I0403 14:16:06.971971 13094 net.cpp:148] Top shape: 24 512 14 14 (2408448)
I0403 14:16:06.971990 13094 net.cpp:148] Top shape: 24 512 14 14 (2408448)
I0403 14:16:06.972007 13094 net.cpp:148] Top shape: 24 512 14 14 (2408448)
I0403 14:16:06.972023 13094 net.cpp:148] Top shape: 24 512 14 14 (2408448)
I0403 14:16:06.972038 13094 net.cpp:156] Memory required for data: 1111182624
I0403 14:16:06.972054 13094 layer_factory.hpp:77] Creating layer inception_4d/1x1
I0403 14:16:06.972077 13094 net.cpp:91] Creating Layer inception_4d/1x1
I0403 14:16:06.972095 13094 net.cpp:425] inception_4d/1x1 <- inception_4c/output_inception_4c/output_0_split_0
I0403 14:16:06.972115 13094 net.cpp:399] inception_4d/1x1 -> inception_4d/1x1
I0403 14:16:06.973597 13094 net.cpp:141] Setting up inception_4d/1x1
I0403 14:16:06.973628 13094 net.cpp:148] Top shape: 24 112 14 14 (526848)
I0403 14:16:06.973645 13094 net.cpp:156] Memory required for data: 1113290016
I0403 14:16:06.973665 13094 layer_factory.hpp:77] Creating layer inception_4d/relu_1x1
I0403 14:16:06.973685 13094 net.cpp:91] Creating Layer inception_4d/relu_1x1
I0403 14:16:06.973701 13094 net.cpp:425] inception_4d/relu_1x1 <- inception_4d/1x1
I0403 14:16:06.973721 13094 net.cpp:386] inception_4d/relu_1x1 -> inception_4d/1x1 (in-place)
I0403 14:16:06.973922 13094 net.cpp:141] Setting up inception_4d/relu_1x1
I0403 14:16:06.973950 13094 net.cpp:148] Top shape: 24 112 14 14 (526848)
I0403 14:16:06.973966 13094 net.cpp:156] Memory required for data: 1115397408
I0403 14:16:06.973981 13094 layer_factory.hpp:77] Creating layer inception_4d/3x3_reduce
I0403 14:16:06.974020 13094 net.cpp:91] Creating Layer inception_4d/3x3_reduce
I0403 14:16:06.974040 13094 net.cpp:425] inception_4d/3x3_reduce <- inception_4c/output_inception_4c/output_0_split_1
I0403 14:16:06.974061 13094 net.cpp:399] inception_4d/3x3_reduce -> inception_4d/3x3_reduce
I0403 14:16:06.975685 13094 net.cpp:141] Setting up inception_4d/3x3_reduce
I0403 14:16:06.975714 13094 net.cpp:148] Top shape: 24 144 14 14 (677376)
I0403 14:16:06.975730 13094 net.cpp:156] Memory required for data: 1118106912
I0403 14:16:06.975750 13094 layer_factory.hpp:77] Creating layer inception_4d/relu_3x3_reduce
I0403 14:16:06.975772 13094 net.cpp:91] Creating Layer inception_4d/relu_3x3_reduce
I0403 14:16:06.975790 13094 net.cpp:425] inception_4d/relu_3x3_reduce <- inception_4d/3x3_reduce
I0403 14:16:06.975808 13094 net.cpp:386] inception_4d/relu_3x3_reduce -> inception_4d/3x3_reduce (in-place)
I0403 14:16:06.976119 13094 net.cpp:141] Setting up inception_4d/relu_3x3_reduce
I0403 14:16:06.976147 13094 net.cpp:148] Top shape: 24 144 14 14 (677376)
I0403 14:16:06.976163 13094 net.cpp:156] Memory required for data: 1120816416
I0403 14:16:06.976179 13094 layer_factory.hpp:77] Creating layer inception_4d/3x3
I0403 14:16:06.976203 13094 net.cpp:91] Creating Layer inception_4d/3x3
I0403 14:16:06.976222 13094 net.cpp:425] inception_4d/3x3 <- inception_4d/3x3_reduce
I0403 14:16:06.976243 13094 net.cpp:399] inception_4d/3x3 -> inception_4d/3x3
I0403 14:16:06.980722 13094 net.cpp:141] Setting up inception_4d/3x3
I0403 14:16:06.980754 13094 net.cpp:148] Top shape: 24 288 14 14 (1354752)
I0403 14:16:06.980772 13094 net.cpp:156] Memory required for data: 1126235424
I0403 14:16:06.980792 13094 layer_factory.hpp:77] Creating layer inception_4d/relu_3x3
I0403 14:16:06.980811 13094 net.cpp:91] Creating Layer inception_4d/relu_3x3
I0403 14:16:06.980828 13094 net.cpp:425] inception_4d/relu_3x3 <- inception_4d/3x3
I0403 14:16:06.980847 13094 net.cpp:386] inception_4d/relu_3x3 -> inception_4d/3x3 (in-place)
I0403 14:16:06.981055 13094 net.cpp:141] Setting up inception_4d/relu_3x3
I0403 14:16:06.981081 13094 net.cpp:148] Top shape: 24 288 14 14 (1354752)
I0403 14:16:06.981096 13094 net.cpp:156] Memory required for data: 1131654432
I0403 14:16:06.981112 13094 layer_factory.hpp:77] Creating layer inception_4d/5x5_reduce
I0403 14:16:06.981135 13094 net.cpp:91] Creating Layer inception_4d/5x5_reduce
I0403 14:16:06.981154 13094 net.cpp:425] inception_4d/5x5_reduce <- inception_4c/output_inception_4c/output_0_split_2
I0403 14:16:06.981178 13094 net.cpp:399] inception_4d/5x5_reduce -> inception_4d/5x5_reduce
I0403 14:16:06.982388 13094 net.cpp:141] Setting up inception_4d/5x5_reduce
I0403 14:16:06.982420 13094 net.cpp:148] Top shape: 24 32 14 14 (150528)
I0403 14:16:06.982437 13094 net.cpp:156] Memory required for data: 1132256544
I0403 14:16:06.982456 13094 layer_factory.hpp:77] Creating layer inception_4d/relu_5x5_reduce
I0403 14:16:06.982475 13094 net.cpp:91] Creating Layer inception_4d/relu_5x5_reduce
I0403 14:16:06.982492 13094 net.cpp:425] inception_4d/relu_5x5_reduce <- inception_4d/5x5_reduce
I0403 14:16:06.982509 13094 net.cpp:386] inception_4d/relu_5x5_reduce -> inception_4d/5x5_reduce (in-place)
I0403 14:16:06.982712 13094 net.cpp:141] Setting up inception_4d/relu_5x5_reduce
I0403 14:16:06.982738 13094 net.cpp:148] Top shape: 24 32 14 14 (150528)
I0403 14:16:06.982753 13094 net.cpp:156] Memory required for data: 1132858656
I0403 14:16:06.982769 13094 layer_factory.hpp:77] Creating layer inception_4d/5x5
I0403 14:16:06.982791 13094 net.cpp:91] Creating Layer inception_4d/5x5
I0403 14:16:06.982810 13094 net.cpp:425] inception_4d/5x5 <- inception_4d/5x5_reduce
I0403 14:16:06.982832 13094 net.cpp:399] inception_4d/5x5 -> inception_4d/5x5
I0403 14:16:06.984359 13094 net.cpp:141] Setting up inception_4d/5x5
I0403 14:16:06.984387 13094 net.cpp:148] Top shape: 24 64 14 14 (301056)
I0403 14:16:06.984403 13094 net.cpp:156] Memory required for data: 1134062880
I0403 14:16:06.984423 13094 layer_factory.hpp:77] Creating layer inception_4d/relu_5x5
I0403 14:16:06.984462 13094 net.cpp:91] Creating Layer inception_4d/relu_5x5
I0403 14:16:06.984480 13094 net.cpp:425] inception_4d/relu_5x5 <- inception_4d/5x5
I0403 14:16:06.984498 13094 net.cpp:386] inception_4d/relu_5x5 -> inception_4d/5x5 (in-place)
I0403 14:16:06.984820 13094 net.cpp:141] Setting up inception_4d/relu_5x5
I0403 14:16:06.984848 13094 net.cpp:148] Top shape: 24 64 14 14 (301056)
I0403 14:16:06.984863 13094 net.cpp:156] Memory required for data: 1135267104
I0403 14:16:06.984879 13094 layer_factory.hpp:77] Creating layer inception_4d/pool
I0403 14:16:06.984896 13094 net.cpp:91] Creating Layer inception_4d/pool
I0403 14:16:06.984915 13094 net.cpp:425] inception_4d/pool <- inception_4c/output_inception_4c/output_0_split_3
I0403 14:16:06.984935 13094 net.cpp:399] inception_4d/pool -> inception_4d/pool
I0403 14:16:06.985003 13094 net.cpp:141] Setting up inception_4d/pool
I0403 14:16:06.985028 13094 net.cpp:148] Top shape: 24 512 14 14 (2408448)
I0403 14:16:06.985044 13094 net.cpp:156] Memory required for data: 1144900896
I0403 14:16:06.985059 13094 layer_factory.hpp:77] Creating layer inception_4d/pool_proj
I0403 14:16:06.985080 13094 net.cpp:91] Creating Layer inception_4d/pool_proj
I0403 14:16:06.985100 13094 net.cpp:425] inception_4d/pool_proj <- inception_4d/pool
I0403 14:16:06.985121 13094 net.cpp:399] inception_4d/pool_proj -> inception_4d/pool_proj
I0403 14:16:06.986943 13094 net.cpp:141] Setting up inception_4d/pool_proj
I0403 14:16:06.986975 13094 net.cpp:148] Top shape: 24 64 14 14 (301056)
I0403 14:16:06.986992 13094 net.cpp:156] Memory required for data: 1146105120
I0403 14:16:06.987013 13094 layer_factory.hpp:77] Creating layer inception_4d/relu_pool_proj
I0403 14:16:06.987031 13094 net.cpp:91] Creating Layer inception_4d/relu_pool_proj
I0403 14:16:06.987048 13094 net.cpp:425] inception_4d/relu_pool_proj <- inception_4d/pool_proj
I0403 14:16:06.987068 13094 net.cpp:386] inception_4d/relu_pool_proj -> inception_4d/pool_proj (in-place)
I0403 14:16:06.987263 13094 net.cpp:141] Setting up inception_4d/relu_pool_proj
I0403 14:16:06.987288 13094 net.cpp:148] Top shape: 24 64 14 14 (301056)
I0403 14:16:06.987304 13094 net.cpp:156] Memory required for data: 1147309344
I0403 14:16:06.987319 13094 layer_factory.hpp:77] Creating layer inception_4d/output
I0403 14:16:06.987336 13094 net.cpp:91] Creating Layer inception_4d/output
I0403 14:16:06.987352 13094 net.cpp:425] inception_4d/output <- inception_4d/1x1
I0403 14:16:06.987370 13094 net.cpp:425] inception_4d/output <- inception_4d/3x3
I0403 14:16:06.987386 13094 net.cpp:425] inception_4d/output <- inception_4d/5x5
I0403 14:16:06.987402 13094 net.cpp:425] inception_4d/output <- inception_4d/pool_proj
I0403 14:16:06.987422 13094 net.cpp:399] inception_4d/output -> inception_4d/output
I0403 14:16:06.987471 13094 net.cpp:141] Setting up inception_4d/output
I0403 14:16:06.987498 13094 net.cpp:148] Top shape: 24 528 14 14 (2483712)
I0403 14:16:06.987514 13094 net.cpp:156] Memory required for data: 1157244192
I0403 14:16:06.987529 13094 layer_factory.hpp:77] Creating layer inception_4d/output_inception_4d/output_0_split
I0403 14:16:06.987546 13094 net.cpp:91] Creating Layer inception_4d/output_inception_4d/output_0_split
I0403 14:16:06.987562 13094 net.cpp:425] inception_4d/output_inception_4d/output_0_split <- inception_4d/output
I0403 14:16:06.987584 13094 net.cpp:399] inception_4d/output_inception_4d/output_0_split -> inception_4d/output_inception_4d/output_0_split_0
I0403 14:16:06.987609 13094 net.cpp:399] inception_4d/output_inception_4d/output_0_split -> inception_4d/output_inception_4d/output_0_split_1
I0403 14:16:06.987632 13094 net.cpp:399] inception_4d/output_inception_4d/output_0_split -> inception_4d/output_inception_4d/output_0_split_2
I0403 14:16:06.987653 13094 net.cpp:399] inception_4d/output_inception_4d/output_0_split -> inception_4d/output_inception_4d/output_0_split_3
I0403 14:16:06.987673 13094 net.cpp:399] inception_4d/output_inception_4d/output_0_split -> inception_4d/output_inception_4d/output_0_split_4
I0403 14:16:06.987781 13094 net.cpp:141] Setting up inception_4d/output_inception_4d/output_0_split
I0403 14:16:06.987818 13094 net.cpp:148] Top shape: 24 528 14 14 (2483712)
I0403 14:16:06.987838 13094 net.cpp:148] Top shape: 24 528 14 14 (2483712)
I0403 14:16:06.987854 13094 net.cpp:148] Top shape: 24 528 14 14 (2483712)
I0403 14:16:06.987870 13094 net.cpp:148] Top shape: 24 528 14 14 (2483712)
I0403 14:16:06.987886 13094 net.cpp:148] Top shape: 24 528 14 14 (2483712)
I0403 14:16:06.987901 13094 net.cpp:156] Memory required for data: 1206918432
I0403 14:16:06.987916 13094 layer_factory.hpp:77] Creating layer loss2/ave_pool
I0403 14:16:06.987936 13094 net.cpp:91] Creating Layer loss2/ave_pool
I0403 14:16:06.987951 13094 net.cpp:425] loss2/ave_pool <- inception_4d/output_inception_4d/output_0_split_0
I0403 14:16:06.987972 13094 net.cpp:399] loss2/ave_pool -> loss2/ave_pool
I0403 14:16:06.988293 13094 net.cpp:141] Setting up loss2/ave_pool
I0403 14:16:06.988323 13094 net.cpp:148] Top shape: 24 528 4 4 (202752)
I0403 14:16:06.988340 13094 net.cpp:156] Memory required for data: 1207729440
I0403 14:16:06.988356 13094 layer_factory.hpp:77] Creating layer loss2/conv
I0403 14:16:06.988379 13094 net.cpp:91] Creating Layer loss2/conv
I0403 14:16:06.988397 13094 net.cpp:425] loss2/conv <- loss2/ave_pool
I0403 14:16:06.988416 13094 net.cpp:399] loss2/conv -> loss2/conv
I0403 14:16:06.990376 13094 net.cpp:141] Setting up loss2/conv
I0403 14:16:06.990406 13094 net.cpp:148] Top shape: 24 128 4 4 (49152)
I0403 14:16:06.990422 13094 net.cpp:156] Memory required for data: 1207926048
I0403 14:16:06.990442 13094 layer_factory.hpp:77] Creating layer loss2/relu_conv
I0403 14:16:06.990463 13094 net.cpp:91] Creating Layer loss2/relu_conv
I0403 14:16:06.990480 13094 net.cpp:425] loss2/relu_conv <- loss2/conv
I0403 14:16:06.990499 13094 net.cpp:386] loss2/relu_conv -> loss2/conv (in-place)
I0403 14:16:06.990798 13094 net.cpp:141] Setting up loss2/relu_conv
I0403 14:16:06.990825 13094 net.cpp:148] Top shape: 24 128 4 4 (49152)
I0403 14:16:06.990841 13094 net.cpp:156] Memory required for data: 1208122656
I0403 14:16:06.990857 13094 layer_factory.hpp:77] Creating layer loss2/fc
I0403 14:16:06.990880 13094 net.cpp:91] Creating Layer loss2/fc
I0403 14:16:06.990897 13094 net.cpp:425] loss2/fc <- loss2/conv
I0403 14:16:06.990917 13094 net.cpp:399] loss2/fc -> loss2/fc
I0403 14:16:07.009683 13094 net.cpp:141] Setting up loss2/fc
I0403 14:16:07.009737 13094 net.cpp:148] Top shape: 24 1024 (24576)
I0403 14:16:07.009752 13094 net.cpp:156] Memory required for data: 1208220960
I0403 14:16:07.009773 13094 layer_factory.hpp:77] Creating layer loss2/relu_fc
I0403 14:16:07.009794 13094 net.cpp:91] Creating Layer loss2/relu_fc
I0403 14:16:07.009814 13094 net.cpp:425] loss2/relu_fc <- loss2/fc
I0403 14:16:07.009835 13094 net.cpp:386] loss2/relu_fc -> loss2/fc (in-place)
I0403 14:16:07.010193 13094 net.cpp:141] Setting up loss2/relu_fc
I0403 14:16:07.010221 13094 net.cpp:148] Top shape: 24 1024 (24576)
I0403 14:16:07.010236 13094 net.cpp:156] Memory required for data: 1208319264
I0403 14:16:07.010253 13094 layer_factory.hpp:77] Creating layer loss2/drop_fc
I0403 14:16:07.010273 13094 net.cpp:91] Creating Layer loss2/drop_fc
I0403 14:16:07.010291 13094 net.cpp:425] loss2/drop_fc <- loss2/fc
I0403 14:16:07.010313 13094 net.cpp:386] loss2/drop_fc -> loss2/fc (in-place)
I0403 14:16:07.010366 13094 net.cpp:141] Setting up loss2/drop_fc
I0403 14:16:07.010390 13094 net.cpp:148] Top shape: 24 1024 (24576)
I0403 14:16:07.010406 13094 net.cpp:156] Memory required for data: 1208417568
I0403 14:16:07.010422 13094 layer_factory.hpp:77] Creating layer loss2/classifier_plantvillage
I0403 14:16:07.010445 13094 net.cpp:91] Creating Layer loss2/classifier_plantvillage
I0403 14:16:07.010464 13094 net.cpp:425] loss2/classifier_plantvillage <- loss2/fc
I0403 14:16:07.010488 13094 net.cpp:399] loss2/classifier_plantvillage -> loss2/classifier_plantvillage
I0403 14:16:07.010931 13094 net.cpp:141] Setting up loss2/classifier_plantvillage
I0403 14:16:07.010958 13094 net.cpp:148] Top shape: 24 38 (912)
I0403 14:16:07.010974 13094 net.cpp:156] Memory required for data: 1208421216
I0403 14:16:07.011016 13094 layer_factory.hpp:77] Creating layer loss2/classifier_plantvillage_loss2/classifier_plantvillage_0_split
I0403 14:16:07.011036 13094 net.cpp:91] Creating Layer loss2/classifier_plantvillage_loss2/classifier_plantvillage_0_split
I0403 14:16:07.011054 13094 net.cpp:425] loss2/classifier_plantvillage_loss2/classifier_plantvillage_0_split <- loss2/classifier_plantvillage
I0403 14:16:07.011075 13094 net.cpp:399] loss2/classifier_plantvillage_loss2/classifier_plantvillage_0_split -> loss2/classifier_plantvillage_loss2/classifier_plantvillage_0_split_0
I0403 14:16:07.011097 13094 net.cpp:399] loss2/classifier_plantvillage_loss2/classifier_plantvillage_0_split -> loss2/classifier_plantvillage_loss2/classifier_plantvillage_0_split_1
I0403 14:16:07.011119 13094 net.cpp:399] loss2/classifier_plantvillage_loss2/classifier_plantvillage_0_split -> loss2/classifier_plantvillage_loss2/classifier_plantvillage_0_split_2
I0403 14:16:07.011205 13094 net.cpp:141] Setting up loss2/classifier_plantvillage_loss2/classifier_plantvillage_0_split
I0403 14:16:07.011231 13094 net.cpp:148] Top shape: 24 38 (912)
I0403 14:16:07.011248 13094 net.cpp:148] Top shape: 24 38 (912)
I0403 14:16:07.011266 13094 net.cpp:148] Top shape: 24 38 (912)
I0403 14:16:07.011281 13094 net.cpp:156] Memory required for data: 1208432160
I0403 14:16:07.011297 13094 layer_factory.hpp:77] Creating layer inception_4e/1x1
I0403 14:16:07.011322 13094 net.cpp:91] Creating Layer inception_4e/1x1
I0403 14:16:07.011343 13094 net.cpp:425] inception_4e/1x1 <- inception_4d/output_inception_4d/output_0_split_1
I0403 14:16:07.011363 13094 net.cpp:399] inception_4e/1x1 -> inception_4e/1x1
I0403 14:16:07.013347 13094 net.cpp:141] Setting up inception_4e/1x1
I0403 14:16:07.013377 13094 net.cpp:148] Top shape: 24 256 14 14 (1204224)
I0403 14:16:07.013393 13094 net.cpp:156] Memory required for data: 1213249056
I0403 14:16:07.013414 13094 layer_factory.hpp:77] Creating layer inception_4e/relu_1x1
I0403 14:16:07.013437 13094 net.cpp:91] Creating Layer inception_4e/relu_1x1
I0403 14:16:07.013454 13094 net.cpp:425] inception_4e/relu_1x1 <- inception_4e/1x1
I0403 14:16:07.013473 13094 net.cpp:386] inception_4e/relu_1x1 -> inception_4e/1x1 (in-place)
I0403 14:16:07.013794 13094 net.cpp:141] Setting up inception_4e/relu_1x1
I0403 14:16:07.013823 13094 net.cpp:148] Top shape: 24 256 14 14 (1204224)
I0403 14:16:07.013838 13094 net.cpp:156] Memory required for data: 1218065952
I0403 14:16:07.013856 13094 layer_factory.hpp:77] Creating layer inception_4e/3x3_reduce
I0403 14:16:07.013880 13094 net.cpp:91] Creating Layer inception_4e/3x3_reduce
I0403 14:16:07.013898 13094 net.cpp:425] inception_4e/3x3_reduce <- inception_4d/output_inception_4d/output_0_split_2
I0403 14:16:07.013921 13094 net.cpp:399] inception_4e/3x3_reduce -> inception_4e/3x3_reduce
I0403 14:16:07.016211 13094 net.cpp:141] Setting up inception_4e/3x3_reduce
I0403 14:16:07.016242 13094 net.cpp:148] Top shape: 24 160 14 14 (752640)
I0403 14:16:07.016261 13094 net.cpp:156] Memory required for data: 1221076512
I0403 14:16:07.016281 13094 layer_factory.hpp:77] Creating layer inception_4e/relu_3x3_reduce
I0403 14:16:07.016300 13094 net.cpp:91] Creating Layer inception_4e/relu_3x3_reduce
I0403 14:16:07.016319 13094 net.cpp:425] inception_4e/relu_3x3_reduce <- inception_4e/3x3_reduce
I0403 14:16:07.016340 13094 net.cpp:386] inception_4e/relu_3x3_reduce -> inception_4e/3x3_reduce (in-place)
I0403 14:16:07.016542 13094 net.cpp:141] Setting up inception_4e/relu_3x3_reduce
I0403 14:16:07.016572 13094 net.cpp:148] Top shape: 24 160 14 14 (752640)
I0403 14:16:07.016590 13094 net.cpp:156] Memory required for data: 1224087072
I0403 14:16:07.016605 13094 layer_factory.hpp:77] Creating layer inception_4e/3x3
I0403 14:16:07.016629 13094 net.cpp:91] Creating Layer inception_4e/3x3
I0403 14:16:07.016647 13094 net.cpp:425] inception_4e/3x3 <- inception_4e/3x3_reduce
I0403 14:16:07.016669 13094 net.cpp:399] inception_4e/3x3 -> inception_4e/3x3
I0403 14:16:07.022012 13094 net.cpp:141] Setting up inception_4e/3x3
I0403 14:16:07.022058 13094 net.cpp:148] Top shape: 24 320 14 14 (1505280)
I0403 14:16:07.022074 13094 net.cpp:156] Memory required for data: 1230108192
I0403 14:16:07.022094 13094 layer_factory.hpp:77] Creating layer inception_4e/relu_3x3
I0403 14:16:07.022116 13094 net.cpp:91] Creating Layer inception_4e/relu_3x3
I0403 14:16:07.022135 13094 net.cpp:425] inception_4e/relu_3x3 <- inception_4e/3x3
I0403 14:16:07.022152 13094 net.cpp:386] inception_4e/relu_3x3 -> inception_4e/3x3 (in-place)
I0403 14:16:07.022475 13094 net.cpp:141] Setting up inception_4e/relu_3x3
I0403 14:16:07.022505 13094 net.cpp:148] Top shape: 24 320 14 14 (1505280)
I0403 14:16:07.022521 13094 net.cpp:156] Memory required for data: 1236129312
I0403 14:16:07.022537 13094 layer_factory.hpp:77] Creating layer inception_4e/5x5_reduce
I0403 14:16:07.022562 13094 net.cpp:91] Creating Layer inception_4e/5x5_reduce
I0403 14:16:07.022585 13094 net.cpp:425] inception_4e/5x5_reduce <- inception_4d/output_inception_4d/output_0_split_3
I0403 14:16:07.022606 13094 net.cpp:399] inception_4e/5x5_reduce -> inception_4e/5x5_reduce
I0403 14:16:07.023764 13094 net.cpp:141] Setting up inception_4e/5x5_reduce
I0403 14:16:07.023793 13094 net.cpp:148] Top shape: 24 32 14 14 (150528)
I0403 14:16:07.023809 13094 net.cpp:156] Memory required for data: 1236731424
I0403 14:16:07.023829 13094 layer_factory.hpp:77] Creating layer inception_4e/relu_5x5_reduce
I0403 14:16:07.023851 13094 net.cpp:91] Creating Layer inception_4e/relu_5x5_reduce
I0403 14:16:07.023869 13094 net.cpp:425] inception_4e/relu_5x5_reduce <- inception_4e/5x5_reduce
I0403 14:16:07.023887 13094 net.cpp:386] inception_4e/relu_5x5_reduce -> inception_4e/5x5_reduce (in-place)
I0403 14:16:07.024210 13094 net.cpp:141] Setting up inception_4e/relu_5x5_reduce
I0403 14:16:07.024237 13094 net.cpp:148] Top shape: 24 32 14 14 (150528)
I0403 14:16:07.024253 13094 net.cpp:156] Memory required for data: 1237333536
I0403 14:16:07.024269 13094 layer_factory.hpp:77] Creating layer inception_4e/5x5
I0403 14:16:07.024312 13094 net.cpp:91] Creating Layer inception_4e/5x5
I0403 14:16:07.024332 13094 net.cpp:425] inception_4e/5x5 <- inception_4e/5x5_reduce
I0403 14:16:07.024353 13094 net.cpp:399] inception_4e/5x5 -> inception_4e/5x5
I0403 14:16:07.026355 13094 net.cpp:141] Setting up inception_4e/5x5
I0403 14:16:07.026387 13094 net.cpp:148] Top shape: 24 128 14 14 (602112)
I0403 14:16:07.026404 13094 net.cpp:156] Memory required for data: 1239741984
I0403 14:16:07.026424 13094 layer_factory.hpp:77] Creating layer inception_4e/relu_5x5
I0403 14:16:07.026443 13094 net.cpp:91] Creating Layer inception_4e/relu_5x5
I0403 14:16:07.026461 13094 net.cpp:425] inception_4e/relu_5x5 <- inception_4e/5x5
I0403 14:16:07.026482 13094 net.cpp:386] inception_4e/relu_5x5 -> inception_4e/5x5 (in-place)
I0403 14:16:07.026705 13094 net.cpp:141] Setting up inception_4e/relu_5x5
I0403 14:16:07.026731 13094 net.cpp:148] Top shape: 24 128 14 14 (602112)
I0403 14:16:07.026746 13094 net.cpp:156] Memory required for data: 1242150432
I0403 14:16:07.026762 13094 layer_factory.hpp:77] Creating layer inception_4e/pool
I0403 14:16:07.026782 13094 net.cpp:91] Creating Layer inception_4e/pool
I0403 14:16:07.026798 13094 net.cpp:425] inception_4e/pool <- inception_4d/output_inception_4d/output_0_split_4
I0403 14:16:07.026819 13094 net.cpp:399] inception_4e/pool -> inception_4e/pool
I0403 14:16:07.026895 13094 net.cpp:141] Setting up inception_4e/pool
I0403 14:16:07.026921 13094 net.cpp:148] Top shape: 24 528 14 14 (2483712)
I0403 14:16:07.026935 13094 net.cpp:156] Memory required for data: 1252085280
I0403 14:16:07.026952 13094 layer_factory.hpp:77] Creating layer inception_4e/pool_proj
I0403 14:16:07.026976 13094 net.cpp:91] Creating Layer inception_4e/pool_proj
I0403 14:16:07.026994 13094 net.cpp:425] inception_4e/pool_proj <- inception_4e/pool
I0403 14:16:07.027014 13094 net.cpp:399] inception_4e/pool_proj -> inception_4e/pool_proj
I0403 14:16:07.028640 13094 net.cpp:141] Setting up inception_4e/pool_proj
I0403 14:16:07.028671 13094 net.cpp:148] Top shape: 24 128 14 14 (602112)
I0403 14:16:07.028702 13094 net.cpp:156] Memory required for data: 1254493728
I0403 14:16:07.028723 13094 layer_factory.hpp:77] Creating layer inception_4e/relu_pool_proj
I0403 14:16:07.028743 13094 net.cpp:91] Creating Layer inception_4e/relu_pool_proj
I0403 14:16:07.028759 13094 net.cpp:425] inception_4e/relu_pool_proj <- inception_4e/pool_proj
I0403 14:16:07.028780 13094 net.cpp:386] inception_4e/relu_pool_proj -> inception_4e/pool_proj (in-place)
I0403 14:16:07.029091 13094 net.cpp:141] Setting up inception_4e/relu_pool_proj
I0403 14:16:07.029121 13094 net.cpp:148] Top shape: 24 128 14 14 (602112)
I0403 14:16:07.029137 13094 net.cpp:156] Memory required for data: 1256902176
I0403 14:16:07.029153 13094 layer_factory.hpp:77] Creating layer inception_4e/output
I0403 14:16:07.029172 13094 net.cpp:91] Creating Layer inception_4e/output
I0403 14:16:07.029188 13094 net.cpp:425] inception_4e/output <- inception_4e/1x1
I0403 14:16:07.029206 13094 net.cpp:425] inception_4e/output <- inception_4e/3x3
I0403 14:16:07.029222 13094 net.cpp:425] inception_4e/output <- inception_4e/5x5
I0403 14:16:07.029239 13094 net.cpp:425] inception_4e/output <- inception_4e/pool_proj
I0403 14:16:07.029260 13094 net.cpp:399] inception_4e/output -> inception_4e/output
I0403 14:16:07.029314 13094 net.cpp:141] Setting up inception_4e/output
I0403 14:16:07.029340 13094 net.cpp:148] Top shape: 24 832 14 14 (3913728)
I0403 14:16:07.029355 13094 net.cpp:156] Memory required for data: 1272557088
I0403 14:16:07.029369 13094 layer_factory.hpp:77] Creating layer pool4/3x3_s2
I0403 14:16:07.029391 13094 net.cpp:91] Creating Layer pool4/3x3_s2
I0403 14:16:07.029408 13094 net.cpp:425] pool4/3x3_s2 <- inception_4e/output
I0403 14:16:07.029428 13094 net.cpp:399] pool4/3x3_s2 -> pool4/3x3_s2
I0403 14:16:07.029502 13094 net.cpp:141] Setting up pool4/3x3_s2
I0403 14:16:07.029528 13094 net.cpp:148] Top shape: 24 832 7 7 (978432)
I0403 14:16:07.029544 13094 net.cpp:156] Memory required for data: 1276470816
I0403 14:16:07.029561 13094 layer_factory.hpp:77] Creating layer pool4/3x3_s2_pool4/3x3_s2_0_split
I0403 14:16:07.029583 13094 net.cpp:91] Creating Layer pool4/3x3_s2_pool4/3x3_s2_0_split
I0403 14:16:07.029600 13094 net.cpp:425] pool4/3x3_s2_pool4/3x3_s2_0_split <- pool4/3x3_s2
I0403 14:16:07.029623 13094 net.cpp:399] pool4/3x3_s2_pool4/3x3_s2_0_split -> pool4/3x3_s2_pool4/3x3_s2_0_split_0
I0403 14:16:07.029644 13094 net.cpp:399] pool4/3x3_s2_pool4/3x3_s2_0_split -> pool4/3x3_s2_pool4/3x3_s2_0_split_1
I0403 14:16:07.029664 13094 net.cpp:399] pool4/3x3_s2_pool4/3x3_s2_0_split -> pool4/3x3_s2_pool4/3x3_s2_0_split_2
I0403 14:16:07.029685 13094 net.cpp:399] pool4/3x3_s2_pool4/3x3_s2_0_split -> pool4/3x3_s2_pool4/3x3_s2_0_split_3
I0403 14:16:07.029784 13094 net.cpp:141] Setting up pool4/3x3_s2_pool4/3x3_s2_0_split
I0403 14:16:07.029809 13094 net.cpp:148] Top shape: 24 832 7 7 (978432)
I0403 14:16:07.029826 13094 net.cpp:148] Top shape: 24 832 7 7 (978432)
I0403 14:16:07.029844 13094 net.cpp:148] Top shape: 24 832 7 7 (978432)
I0403 14:16:07.029860 13094 net.cpp:148] Top shape: 24 832 7 7 (978432)
I0403 14:16:07.029873 13094 net.cpp:156] Memory required for data: 1292125728
I0403 14:16:07.029889 13094 layer_factory.hpp:77] Creating layer inception_5a/1x1
I0403 14:16:07.029912 13094 net.cpp:91] Creating Layer inception_5a/1x1
I0403 14:16:07.029930 13094 net.cpp:425] inception_5a/1x1 <- pool4/3x3_s2_pool4/3x3_s2_0_split_0
I0403 14:16:07.029953 13094 net.cpp:399] inception_5a/1x1 -> inception_5a/1x1
I0403 14:16:07.033020 13094 net.cpp:141] Setting up inception_5a/1x1
I0403 14:16:07.033051 13094 net.cpp:148] Top shape: 24 256 7 7 (301056)
I0403 14:16:07.033067 13094 net.cpp:156] Memory required for data: 1293329952
I0403 14:16:07.033087 13094 layer_factory.hpp:77] Creating layer inception_5a/relu_1x1
I0403 14:16:07.033107 13094 net.cpp:91] Creating Layer inception_5a/relu_1x1
I0403 14:16:07.033123 13094 net.cpp:425] inception_5a/relu_1x1 <- inception_5a/1x1
I0403 14:16:07.033143 13094 net.cpp:386] inception_5a/relu_1x1 -> inception_5a/1x1 (in-place)
I0403 14:16:07.033478 13094 net.cpp:141] Setting up inception_5a/relu_1x1
I0403 14:16:07.033506 13094 net.cpp:148] Top shape: 24 256 7 7 (301056)
I0403 14:16:07.033522 13094 net.cpp:156] Memory required for data: 1294534176
I0403 14:16:07.033538 13094 layer_factory.hpp:77] Creating layer inception_5a/3x3_reduce
I0403 14:16:07.033562 13094 net.cpp:91] Creating Layer inception_5a/3x3_reduce
I0403 14:16:07.033586 13094 net.cpp:425] inception_5a/3x3_reduce <- pool4/3x3_s2_pool4/3x3_s2_0_split_1
I0403 14:16:07.033609 13094 net.cpp:399] inception_5a/3x3_reduce -> inception_5a/3x3_reduce
I0403 14:16:07.036250 13094 net.cpp:141] Setting up inception_5a/3x3_reduce
I0403 14:16:07.036281 13094 net.cpp:148] Top shape: 24 160 7 7 (188160)
I0403 14:16:07.036298 13094 net.cpp:156] Memory required for data: 1295286816
I0403 14:16:07.036319 13094 layer_factory.hpp:77] Creating layer inception_5a/relu_3x3_reduce
I0403 14:16:07.036340 13094 net.cpp:91] Creating Layer inception_5a/relu_3x3_reduce
I0403 14:16:07.036358 13094 net.cpp:425] inception_5a/relu_3x3_reduce <- inception_5a/3x3_reduce
I0403 14:16:07.036377 13094 net.cpp:386] inception_5a/relu_3x3_reduce -> inception_5a/3x3_reduce (in-place)
I0403 14:16:07.036588 13094 net.cpp:141] Setting up inception_5a/relu_3x3_reduce
I0403 14:16:07.036614 13094 net.cpp:148] Top shape: 24 160 7 7 (188160)
I0403 14:16:07.036630 13094 net.cpp:156] Memory required for data: 1296039456
I0403 14:16:07.036645 13094 layer_factory.hpp:77] Creating layer inception_5a/3x3
I0403 14:16:07.036670 13094 net.cpp:91] Creating Layer inception_5a/3x3
I0403 14:16:07.036689 13094 net.cpp:425] inception_5a/3x3 <- inception_5a/3x3_reduce
I0403 14:16:07.036711 13094 net.cpp:399] inception_5a/3x3 -> inception_5a/3x3
I0403 14:16:07.042075 13094 net.cpp:141] Setting up inception_5a/3x3
I0403 14:16:07.042109 13094 net.cpp:148] Top shape: 24 320 7 7 (376320)
I0403 14:16:07.042125 13094 net.cpp:156] Memory required for data: 1297544736
I0403 14:16:07.042145 13094 layer_factory.hpp:77] Creating layer inception_5a/relu_3x3
I0403 14:16:07.042163 13094 net.cpp:91] Creating Layer inception_5a/relu_3x3
I0403 14:16:07.042186 13094 net.cpp:425] inception_5a/relu_3x3 <- inception_5a/3x3
I0403 14:16:07.042207 13094 net.cpp:386] inception_5a/relu_3x3 -> inception_5a/3x3 (in-place)
I0403 14:16:07.042525 13094 net.cpp:141] Setting up inception_5a/relu_3x3
I0403 14:16:07.042554 13094 net.cpp:148] Top shape: 24 320 7 7 (376320)
I0403 14:16:07.042575 13094 net.cpp:156] Memory required for data: 1299050016
I0403 14:16:07.042603 13094 layer_factory.hpp:77] Creating layer inception_5a/5x5_reduce
I0403 14:16:07.042630 13094 net.cpp:91] Creating Layer inception_5a/5x5_reduce
I0403 14:16:07.042649 13094 net.cpp:425] inception_5a/5x5_reduce <- pool4/3x3_s2_pool4/3x3_s2_0_split_2
I0403 14:16:07.042672 13094 net.cpp:399] inception_5a/5x5_reduce -> inception_5a/5x5_reduce
I0403 14:16:07.043896 13094 net.cpp:141] Setting up inception_5a/5x5_reduce
I0403 14:16:07.043928 13094 net.cpp:148] Top shape: 24 32 7 7 (37632)
I0403 14:16:07.043947 13094 net.cpp:156] Memory required for data: 1299200544
I0403 14:16:07.043967 13094 layer_factory.hpp:77] Creating layer inception_5a/relu_5x5_reduce
I0403 14:16:07.043985 13094 net.cpp:91] Creating Layer inception_5a/relu_5x5_reduce
I0403 14:16:07.044003 13094 net.cpp:425] inception_5a/relu_5x5_reduce <- inception_5a/5x5_reduce
I0403 14:16:07.044023 13094 net.cpp:386] inception_5a/relu_5x5_reduce -> inception_5a/5x5_reduce (in-place)
I0403 14:16:07.044334 13094 net.cpp:141] Setting up inception_5a/relu_5x5_reduce
I0403 14:16:07.044361 13094 net.cpp:148] Top shape: 24 32 7 7 (37632)
I0403 14:16:07.044376 13094 net.cpp:156] Memory required for data: 1299351072
I0403 14:16:07.044392 13094 layer_factory.hpp:77] Creating layer inception_5a/5x5
I0403 14:16:07.044415 13094 net.cpp:91] Creating Layer inception_5a/5x5
I0403 14:16:07.044433 13094 net.cpp:425] inception_5a/5x5 <- inception_5a/5x5_reduce
I0403 14:16:07.044456 13094 net.cpp:399] inception_5a/5x5 -> inception_5a/5x5
I0403 14:16:07.046314 13094 net.cpp:141] Setting up inception_5a/5x5
I0403 14:16:07.046358 13094 net.cpp:148] Top shape: 24 128 7 7 (150528)
I0403 14:16:07.046383 13094 net.cpp:156] Memory required for data: 1299953184
I0403 14:16:07.046408 13094 layer_factory.hpp:77] Creating layer inception_5a/relu_5x5
I0403 14:16:07.046458 13094 net.cpp:91] Creating Layer inception_5a/relu_5x5
I0403 14:16:07.046479 13094 net.cpp:425] inception_5a/relu_5x5 <- inception_5a/5x5
I0403 14:16:07.046499 13094 net.cpp:386] inception_5a/relu_5x5 -> inception_5a/5x5 (in-place)
I0403 14:16:07.046722 13094 net.cpp:141] Setting up inception_5a/relu_5x5
I0403 14:16:07.046761 13094 net.cpp:148] Top shape: 24 128 7 7 (150528)
I0403 14:16:07.046794 13094 net.cpp:156] Memory required for data: 1300555296
I0403 14:16:07.046841 13094 layer_factory.hpp:77] Creating layer inception_5a/pool
I0403 14:16:07.046891 13094 net.cpp:91] Creating Layer inception_5a/pool
I0403 14:16:07.046912 13094 net.cpp:425] inception_5a/pool <- pool4/3x3_s2_pool4/3x3_s2_0_split_3
I0403 14:16:07.046933 13094 net.cpp:399] inception_5a/pool -> inception_5a/pool
I0403 14:16:07.047013 13094 net.cpp:141] Setting up inception_5a/pool
I0403 14:16:07.047047 13094 net.cpp:148] Top shape: 24 832 7 7 (978432)
I0403 14:16:07.047066 13094 net.cpp:156] Memory required for data: 1304469024
I0403 14:16:07.047132 13094 layer_factory.hpp:77] Creating layer inception_5a/pool_proj
I0403 14:16:07.047157 13094 net.cpp:91] Creating Layer inception_5a/pool_proj
I0403 14:16:07.047174 13094 net.cpp:425] inception_5a/pool_proj <- inception_5a/pool
I0403 14:16:07.047196 13094 net.cpp:399] inception_5a/pool_proj -> inception_5a/pool_proj
I0403 14:16:07.049715 13094 net.cpp:141] Setting up inception_5a/pool_proj
I0403 14:16:07.049748 13094 net.cpp:148] Top shape: 24 128 7 7 (150528)
I0403 14:16:07.049765 13094 net.cpp:156] Memory required for data: 1305071136
I0403 14:16:07.049784 13094 layer_factory.hpp:77] Creating layer inception_5a/relu_pool_proj
I0403 14:16:07.049803 13094 net.cpp:91] Creating Layer inception_5a/relu_pool_proj
I0403 14:16:07.049820 13094 net.cpp:425] inception_5a/relu_pool_proj <- inception_5a/pool_proj
I0403 14:16:07.049839 13094 net.cpp:386] inception_5a/relu_pool_proj -> inception_5a/pool_proj (in-place)
I0403 14:16:07.050150 13094 net.cpp:141] Setting up inception_5a/relu_pool_proj
I0403 14:16:07.050180 13094 net.cpp:148] Top shape: 24 128 7 7 (150528)
I0403 14:16:07.050196 13094 net.cpp:156] Memory required for data: 1305673248
I0403 14:16:07.050212 13094 layer_factory.hpp:77] Creating layer inception_5a/output
I0403 14:16:07.050230 13094 net.cpp:91] Creating Layer inception_5a/output
I0403 14:16:07.050247 13094 net.cpp:425] inception_5a/output <- inception_5a/1x1
I0403 14:16:07.050267 13094 net.cpp:425] inception_5a/output <- inception_5a/3x3
I0403 14:16:07.050283 13094 net.cpp:425] inception_5a/output <- inception_5a/5x5
I0403 14:16:07.050300 13094 net.cpp:425] inception_5a/output <- inception_5a/pool_proj
I0403 14:16:07.050318 13094 net.cpp:399] inception_5a/output -> inception_5a/output
I0403 14:16:07.050372 13094 net.cpp:141] Setting up inception_5a/output
I0403 14:16:07.050396 13094 net.cpp:148] Top shape: 24 832 7 7 (978432)
I0403 14:16:07.050411 13094 net.cpp:156] Memory required for data: 1309586976
I0403 14:16:07.050426 13094 layer_factory.hpp:77] Creating layer inception_5a/output_inception_5a/output_0_split
I0403 14:16:07.050447 13094 net.cpp:91] Creating Layer inception_5a/output_inception_5a/output_0_split
I0403 14:16:07.050464 13094 net.cpp:425] inception_5a/output_inception_5a/output_0_split <- inception_5a/output
I0403 14:16:07.050482 13094 net.cpp:399] inception_5a/output_inception_5a/output_0_split -> inception_5a/output_inception_5a/output_0_split_0
I0403 14:16:07.050503 13094 net.cpp:399] inception_5a/output_inception_5a/output_0_split -> inception_5a/output_inception_5a/output_0_split_1
I0403 14:16:07.050524 13094 net.cpp:399] inception_5a/output_inception_5a/output_0_split -> inception_5a/output_inception_5a/output_0_split_2
I0403 14:16:07.050546 13094 net.cpp:399] inception_5a/output_inception_5a/output_0_split -> inception_5a/output_inception_5a/output_0_split_3
I0403 14:16:07.050673 13094 net.cpp:141] Setting up inception_5a/output_inception_5a/output_0_split
I0403 14:16:07.050698 13094 net.cpp:148] Top shape: 24 832 7 7 (978432)
I0403 14:16:07.050715 13094 net.cpp:148] Top shape: 24 832 7 7 (978432)
I0403 14:16:07.050731 13094 net.cpp:148] Top shape: 24 832 7 7 (978432)
I0403 14:16:07.050747 13094 net.cpp:148] Top shape: 24 832 7 7 (978432)
I0403 14:16:07.050762 13094 net.cpp:156] Memory required for data: 1325241888
I0403 14:16:07.050777 13094 layer_factory.hpp:77] Creating layer inception_5b/1x1
I0403 14:16:07.050799 13094 net.cpp:91] Creating Layer inception_5b/1x1
I0403 14:16:07.050818 13094 net.cpp:425] inception_5b/1x1 <- inception_5a/output_inception_5a/output_0_split_0
I0403 14:16:07.050839 13094 net.cpp:399] inception_5b/1x1 -> inception_5b/1x1
I0403 14:16:07.054733 13094 net.cpp:141] Setting up inception_5b/1x1
I0403 14:16:07.054762 13094 net.cpp:148] Top shape: 24 384 7 7 (451584)
I0403 14:16:07.054779 13094 net.cpp:156] Memory required for data: 1327048224
I0403 14:16:07.054797 13094 layer_factory.hpp:77] Creating layer inception_5b/relu_1x1
I0403 14:16:07.054818 13094 net.cpp:91] Creating Layer inception_5b/relu_1x1
I0403 14:16:07.054834 13094 net.cpp:425] inception_5b/relu_1x1 <- inception_5b/1x1
I0403 14:16:07.054852 13094 net.cpp:386] inception_5b/relu_1x1 -> inception_5b/1x1 (in-place)
I0403 14:16:07.055166 13094 net.cpp:141] Setting up inception_5b/relu_1x1
I0403 14:16:07.055191 13094 net.cpp:148] Top shape: 24 384 7 7 (451584)
I0403 14:16:07.055207 13094 net.cpp:156] Memory required for data: 1328854560
I0403 14:16:07.055220 13094 layer_factory.hpp:77] Creating layer inception_5b/3x3_reduce
I0403 14:16:07.055245 13094 net.cpp:91] Creating Layer inception_5b/3x3_reduce
I0403 14:16:07.055265 13094 net.cpp:425] inception_5b/3x3_reduce <- inception_5a/output_inception_5a/output_0_split_1
I0403 14:16:07.055285 13094 net.cpp:399] inception_5b/3x3_reduce -> inception_5b/3x3_reduce
I0403 14:16:07.057994 13094 net.cpp:141] Setting up inception_5b/3x3_reduce
I0403 14:16:07.058025 13094 net.cpp:148] Top shape: 24 192 7 7 (225792)
I0403 14:16:07.058043 13094 net.cpp:156] Memory required for data: 1329757728
I0403 14:16:07.058061 13094 layer_factory.hpp:77] Creating layer inception_5b/relu_3x3_reduce
I0403 14:16:07.058080 13094 net.cpp:91] Creating Layer inception_5b/relu_3x3_reduce
I0403 14:16:07.058096 13094 net.cpp:425] inception_5b/relu_3x3_reduce <- inception_5b/3x3_reduce
I0403 14:16:07.058115 13094 net.cpp:386] inception_5b/relu_3x3_reduce -> inception_5b/3x3_reduce (in-place)
I0403 14:16:07.058308 13094 net.cpp:141] Setting up inception_5b/relu_3x3_reduce
I0403 14:16:07.058334 13094 net.cpp:148] Top shape: 24 192 7 7 (225792)
I0403 14:16:07.058348 13094 net.cpp:156] Memory required for data: 1330660896
I0403 14:16:07.058364 13094 layer_factory.hpp:77] Creating layer inception_5b/3x3
I0403 14:16:07.058387 13094 net.cpp:91] Creating Layer inception_5b/3x3
I0403 14:16:07.058405 13094 net.cpp:425] inception_5b/3x3 <- inception_5b/3x3_reduce
I0403 14:16:07.058428 13094 net.cpp:399] inception_5b/3x3 -> inception_5b/3x3
I0403 14:16:07.065189 13094 net.cpp:141] Setting up inception_5b/3x3
I0403 14:16:07.065222 13094 net.cpp:148] Top shape: 24 384 7 7 (451584)
I0403 14:16:07.065238 13094 net.cpp:156] Memory required for data: 1332467232
I0403 14:16:07.065258 13094 layer_factory.hpp:77] Creating layer inception_5b/relu_3x3
I0403 14:16:07.065275 13094 net.cpp:91] Creating Layer inception_5b/relu_3x3
I0403 14:16:07.065292 13094 net.cpp:425] inception_5b/relu_3x3 <- inception_5b/3x3
I0403 14:16:07.065311 13094 net.cpp:386] inception_5b/relu_3x3 -> inception_5b/3x3 (in-place)
I0403 14:16:07.065618 13094 net.cpp:141] Setting up inception_5b/relu_3x3
I0403 14:16:07.065646 13094 net.cpp:148] Top shape: 24 384 7 7 (451584)
I0403 14:16:07.065662 13094 net.cpp:156] Memory required for data: 1334273568
I0403 14:16:07.065677 13094 layer_factory.hpp:77] Creating layer inception_5b/5x5_reduce
I0403 14:16:07.065716 13094 net.cpp:91] Creating Layer inception_5b/5x5_reduce
I0403 14:16:07.065734 13094 net.cpp:425] inception_5b/5x5_reduce <- inception_5a/output_inception_5a/output_0_split_2
I0403 14:16:07.065753 13094 net.cpp:399] inception_5b/5x5_reduce -> inception_5b/5x5_reduce
I0403 14:16:07.067041 13094 net.cpp:141] Setting up inception_5b/5x5_reduce
I0403 14:16:07.067071 13094 net.cpp:148] Top shape: 24 48 7 7 (56448)
I0403 14:16:07.067088 13094 net.cpp:156] Memory required for data: 1334499360
I0403 14:16:07.067106 13094 layer_factory.hpp:77] Creating layer inception_5b/relu_5x5_reduce
I0403 14:16:07.067126 13094 net.cpp:91] Creating Layer inception_5b/relu_5x5_reduce
I0403 14:16:07.067142 13094 net.cpp:425] inception_5b/relu_5x5_reduce <- inception_5b/5x5_reduce
I0403 14:16:07.067162 13094 net.cpp:386] inception_5b/relu_5x5_reduce -> inception_5b/5x5_reduce (in-place)
I0403 14:16:07.067539 13094 net.cpp:141] Setting up inception_5b/relu_5x5_reduce
I0403 14:16:07.067570 13094 net.cpp:148] Top shape: 24 48 7 7 (56448)
I0403 14:16:07.067587 13094 net.cpp:156] Memory required for data: 1334725152
I0403 14:16:07.067602 13094 layer_factory.hpp:77] Creating layer inception_5b/5x5
I0403 14:16:07.067622 13094 net.cpp:91] Creating Layer inception_5b/5x5
I0403 14:16:07.067639 13094 net.cpp:425] inception_5b/5x5 <- inception_5b/5x5_reduce
I0403 14:16:07.067658 13094 net.cpp:399] inception_5b/5x5 -> inception_5b/5x5
I0403 14:16:07.069731 13094 net.cpp:141] Setting up inception_5b/5x5
I0403 14:16:07.069759 13094 net.cpp:148] Top shape: 24 128 7 7 (150528)
I0403 14:16:07.069775 13094 net.cpp:156] Memory required for data: 1335327264
I0403 14:16:07.069794 13094 layer_factory.hpp:77] Creating layer inception_5b/relu_5x5
I0403 14:16:07.069813 13094 net.cpp:91] Creating Layer inception_5b/relu_5x5
I0403 14:16:07.069830 13094 net.cpp:425] inception_5b/relu_5x5 <- inception_5b/5x5
I0403 14:16:07.069851 13094 net.cpp:386] inception_5b/relu_5x5 -> inception_5b/5x5 (in-place)
I0403 14:16:07.070050 13094 net.cpp:141] Setting up inception_5b/relu_5x5
I0403 14:16:07.070076 13094 net.cpp:148] Top shape: 24 128 7 7 (150528)
I0403 14:16:07.070091 13094 net.cpp:156] Memory required for data: 1335929376
I0403 14:16:07.070106 13094 layer_factory.hpp:77] Creating layer inception_5b/pool
I0403 14:16:07.070125 13094 net.cpp:91] Creating Layer inception_5b/pool
I0403 14:16:07.070142 13094 net.cpp:425] inception_5b/pool <- inception_5a/output_inception_5a/output_0_split_3
I0403 14:16:07.070160 13094 net.cpp:399] inception_5b/pool -> inception_5b/pool
I0403 14:16:07.070233 13094 net.cpp:141] Setting up inception_5b/pool
I0403 14:16:07.070258 13094 net.cpp:148] Top shape: 24 832 7 7 (978432)
I0403 14:16:07.070273 13094 net.cpp:156] Memory required for data: 1339843104
I0403 14:16:07.070288 13094 layer_factory.hpp:77] Creating layer inception_5b/pool_proj
I0403 14:16:07.070312 13094 net.cpp:91] Creating Layer inception_5b/pool_proj
I0403 14:16:07.070328 13094 net.cpp:425] inception_5b/pool_proj <- inception_5b/pool
I0403 14:16:07.070349 13094 net.cpp:399] inception_5b/pool_proj -> inception_5b/pool_proj
I0403 14:16:07.072695 13094 net.cpp:141] Setting up inception_5b/pool_proj
I0403 14:16:07.072726 13094 net.cpp:148] Top shape: 24 128 7 7 (150528)
I0403 14:16:07.072742 13094 net.cpp:156] Memory required for data: 1340445216
I0403 14:16:07.072762 13094 layer_factory.hpp:77] Creating layer inception_5b/relu_pool_proj
I0403 14:16:07.072780 13094 net.cpp:91] Creating Layer inception_5b/relu_pool_proj
I0403 14:16:07.072798 13094 net.cpp:425] inception_5b/relu_pool_proj <- inception_5b/pool_proj
I0403 14:16:07.072818 13094 net.cpp:386] inception_5b/relu_pool_proj -> inception_5b/pool_proj (in-place)
I0403 14:16:07.073124 13094 net.cpp:141] Setting up inception_5b/relu_pool_proj
I0403 14:16:07.073153 13094 net.cpp:148] Top shape: 24 128 7 7 (150528)
I0403 14:16:07.073169 13094 net.cpp:156] Memory required for data: 1341047328
I0403 14:16:07.073184 13094 layer_factory.hpp:77] Creating layer inception_5b/output
I0403 14:16:07.073201 13094 net.cpp:91] Creating Layer inception_5b/output
I0403 14:16:07.073231 13094 net.cpp:425] inception_5b/output <- inception_5b/1x1
I0403 14:16:07.073249 13094 net.cpp:425] inception_5b/output <- inception_5b/3x3
I0403 14:16:07.073269 13094 net.cpp:425] inception_5b/output <- inception_5b/5x5
I0403 14:16:07.073287 13094 net.cpp:425] inception_5b/output <- inception_5b/pool_proj
I0403 14:16:07.073307 13094 net.cpp:399] inception_5b/output -> inception_5b/output
I0403 14:16:07.073359 13094 net.cpp:141] Setting up inception_5b/output
I0403 14:16:07.073382 13094 net.cpp:148] Top shape: 24 1024 7 7 (1204224)
I0403 14:16:07.073397 13094 net.cpp:156] Memory required for data: 1345864224
I0403 14:16:07.073411 13094 layer_factory.hpp:77] Creating layer pool5/7x7_s1
I0403 14:16:07.073436 13094 net.cpp:91] Creating Layer pool5/7x7_s1
I0403 14:16:07.073452 13094 net.cpp:425] pool5/7x7_s1 <- inception_5b/output
I0403 14:16:07.073472 13094 net.cpp:399] pool5/7x7_s1 -> pool5/7x7_s1
I0403 14:16:07.073694 13094 net.cpp:141] Setting up pool5/7x7_s1
I0403 14:16:07.073719 13094 net.cpp:148] Top shape: 24 1024 1 1 (24576)
I0403 14:16:07.073734 13094 net.cpp:156] Memory required for data: 1345962528
I0403 14:16:07.073750 13094 layer_factory.hpp:77] Creating layer pool5/drop_7x7_s1
I0403 14:16:07.073767 13094 net.cpp:91] Creating Layer pool5/drop_7x7_s1
I0403 14:16:07.073783 13094 net.cpp:425] pool5/drop_7x7_s1 <- pool5/7x7_s1
I0403 14:16:07.073803 13094 net.cpp:386] pool5/drop_7x7_s1 -> pool5/7x7_s1 (in-place)
I0403 14:16:07.073854 13094 net.cpp:141] Setting up pool5/drop_7x7_s1
I0403 14:16:07.073878 13094 net.cpp:148] Top shape: 24 1024 1 1 (24576)
I0403 14:16:07.073891 13094 net.cpp:156] Memory required for data: 1346060832
I0403 14:16:07.073906 13094 layer_factory.hpp:77] Creating layer loss3/classifier_plantvillage
I0403 14:16:07.073928 13094 net.cpp:91] Creating Layer loss3/classifier_plantvillage
I0403 14:16:07.073945 13094 net.cpp:425] loss3/classifier_plantvillage <- pool5/7x7_s1
I0403 14:16:07.073966 13094 net.cpp:399] loss3/classifier_plantvillage -> loss3/classifier_plantvillage
I0403 14:16:07.074395 13094 net.cpp:141] Setting up loss3/classifier_plantvillage
I0403 14:16:07.074420 13094 net.cpp:148] Top shape: 24 38 (912)
I0403 14:16:07.074435 13094 net.cpp:156] Memory required for data: 1346064480
I0403 14:16:07.074453 13094 layer_factory.hpp:77] Creating layer loss3/classifier_plantvillage_loss3/classifier_plantvillage_0_split
I0403 14:16:07.074473 13094 net.cpp:91] Creating Layer loss3/classifier_plantvillage_loss3/classifier_plantvillage_0_split
I0403 14:16:07.074491 13094 net.cpp:425] loss3/classifier_plantvillage_loss3/classifier_plantvillage_0_split <- loss3/classifier_plantvillage
I0403 14:16:07.074508 13094 net.cpp:399] loss3/classifier_plantvillage_loss3/classifier_plantvillage_0_split -> loss3/classifier_plantvillage_loss3/classifier_plantvillage_0_split_0
I0403 14:16:07.074528 13094 net.cpp:399] loss3/classifier_plantvillage_loss3/classifier_plantvillage_0_split -> loss3/classifier_plantvillage_loss3/classifier_plantvillage_0_split_1
I0403 14:16:07.074548 13094 net.cpp:399] loss3/classifier_plantvillage_loss3/classifier_plantvillage_0_split -> loss3/classifier_plantvillage_loss3/classifier_plantvillage_0_split_2
I0403 14:16:07.074592 13094 net.cpp:399] loss3/classifier_plantvillage_loss3/classifier_plantvillage_0_split -> loss3/classifier_plantvillage_loss3/classifier_plantvillage_0_split_3
I0403 14:16:07.074719 13094 net.cpp:141] Setting up loss3/classifier_plantvillage_loss3/classifier_plantvillage_0_split
I0403 14:16:07.074744 13094 net.cpp:148] Top shape: 24 38 (912)
I0403 14:16:07.074762 13094 net.cpp:148] Top shape: 24 38 (912)
I0403 14:16:07.074779 13094 net.cpp:148] Top shape: 24 38 (912)
I0403 14:16:07.074795 13094 net.cpp:148] Top shape: 24 38 (912)
I0403 14:16:07.074810 13094 net.cpp:156] Memory required for data: 1346079072
I0403 14:16:07.074826 13094 layer_factory.hpp:77] Creating layer loss1/loss
I0403 14:16:07.074848 13094 net.cpp:91] Creating Layer loss1/loss
I0403 14:16:07.074867 13094 net.cpp:425] loss1/loss <- loss1/classifier_plantvillage_loss1/classifier_plantvillage_0_split_0
I0403 14:16:07.074899 13094 net.cpp:425] loss1/loss <- label_data_1_split_0
…
