…
I0403 14:42:56.523427 13556 net.cpp:313] The NetState phase (1) differed from the phase (0) specified by a rule in layer data
I0403 14:42:56.524699 13556 net.cpp:49] Initializing net from parameters: 
state {
  phase: TEST
}
layer {
  name: "data"
  type: "Data"
  top: "data"
  top: "label"
  include {
    phase: TEST
  }
  transform_param {
    mirror: false
    crop_size: 224
    mean_file: "/home/mohanty/data/final_dataset/lmdb/color-40-60/mean.binaryproto"
  }
  data_param {
    source: "/home/mohanty/data/final_dataset/lmdb/color-40-60/test_db"
    batch_size: 24
    backend: LMDB
  }
}
layer {
  name: "conv1/7x7_s2"
  type: "Convolution"
  bottom: "data"
  top: "conv1/7x7_s2"
  param {
    lr_mult: 1
    decay_mult: 1
  }
  param {
    lr_mult: 2
    decay_mult: 0
  }
  convolution_param {
    num_output: 64
    pad: 3
    kernel_size: 7
    stride: 2
    weight_filler {
      type: "xavier"
      std: 0.1
    }
    bias_filler {
      type: "constant"
      value: 0.2
    }
  }
}
layer {
  name: "conv1/relu_7x7"
  type: "ReLU"
  bottom: "conv1/7x7_s2"
  top: "conv1/7x7_s2"
}
layer {
  name: "pool1/3x3_s2"
  type: "Pooling"
  bottom: "conv1/7x7_s2"
  top: "pool1/3x3_s2"
  pooling_param {
    pool: MAX
    kernel_size: 3
    stride: 2
  }
}
layer {
  name: "pool1/norm1"
  type: "LRN"
  bottom: "pool1/3x3_s2"
  top: "pool1/norm1"
  lrn_param {
    local_size: 5
    alpha: 0.0001
    beta: 0.75
  }
}
layer {
  name: "conv2/3x3_reduce"
  type: "Convolution"
  bottom: "pool1/norm1"
  top: "conv2/3x3_reduce"
  param {
    lr_mult: 1
    decay_mult: 1
  }
  param {
    lr_mult: 2
    decay_mult: 0
  }
  convolution_param {
    num_output: 64
    kernel_size: 1
    weight_filler {
      type: "xavier"
      std: 0.1
    }
    bias_filler {
      type: "constant"
      value: 0.2
    }
  }
}
layer {
  name: "conv2/relu_3x3_reduce"
  type: "ReLU"
  bottom: "conv2/3x3_reduce"
  top: "conv2/3x3_reduce"
}
layer {
  name: "conv2/3x3"
  type: "Convolution"
  bottom: "conv2/3x3_reduce"
  top: "conv2/3x3"
  param {
    lr_mult: 1
    decay_mult: 1
  }
  param {
    lr_mult: 2
    decay_mult: 0
  }
  convolution_param {
    num_output: 192
    pad: 1
    kernel_size: 3
    weight_filler {
      type: "xavier"
      std: 0.03
    }
    bias_filler {
      type: "constant"
      value: 0.2
    }
  }
}
layer {
  name: "conv2/relu_3x3"
  type: "ReLU"
  bottom: "conv2/3x3"
  top: "conv2/3x3"
}
layer {
  name: "conv2/norm2"
  type: "LRN"
  bottom: "conv2/3x3"
  top: "conv2/norm2"
  lrn_param {
    local_size: 5
    alpha: 0.0001
    beta: 0.75
  }
}
layer {
  name: "pool2/3x3_s2"
  type: "Pooling"
  bottom: "conv2/norm2"
  top: "pool2/3x3_s2"
  pooling_param {
    pool: MAX
    kernel_size: 3
    stride: 2
  }
}
layer {
  name: "inception_3a/1x1"
  type: "Convolution"
  bottom: "pool2/3x3_s2"
  top: "inception_3a/1x1"
  param {
    lr_mult: 1
    decay_mult: 1
  }
  param {
    lr_mult: 2
    decay_mult: 0
  }
  convolution_param {
    num_output: 64
    kernel_size: 1
    weight_filler {
      type: "xavier"
      std: 0.03
    }
    bias_filler {
      type: "constant"
      value: 0.2
    }
  }
}
layer {
  name: "inception_3a/relu_1x1"
  type: "ReLU"
  bottom: "inception_3a/1x1"
  top: "inception_3a/1x1"
}
layer {
  name: "inception_3a/3x3_reduce"
  type: "Convolution"
  bottom: "pool2/3x3_s2"
  top: "inception_3a/3x3_reduce"
  param {
    lr_mult: 1
    decay_mult: 1
  }
  param {
    lr_mult: 2
    decay_mult: 0
  }
  convolution_param {
    num_output: 96
    kernel_size: 1
    weight_filler {
      type: "xavier"
      std: 0.09
    }
    bias_filler {
      type: "constant"
      value: 0.2
    }
  }
}
layer {
  name: "inception_3a/relu_3x3_reduce"
  type: "ReLU"
  bottom: "inception_3a/3x3_reduce"
  top: "inception_3a/3x3_reduce"
}
layer {
  name: "inception_3a/3x3"
  type: "Convolution"
  bottom: "inception_3a/3x3_reduce"
  top: "inception_3a/3x3"
  param {
    lr_mult: 1
    decay_mult: 1
  }
  param {
    lr_mult: 2
    decay_mult: 0
  }
  convolution_param {
    num_output: 128
    pad: 1
    kernel_size: 3
    weight_filler {
      type: "xavier"
      std: 0.03
    }
    bias_filler {
      type: "constant"
      value: 0.2
    }
  }
}
layer {
  name: "inception_3a/relu_3x3"
  type: "ReLU"
  bottom: "inception_3a/3x3"
  top: "inception_3a/3x3"
}
layer {
  name: "inception_3a/5x5_reduce"
  type: "Convolution"
  bottom: "pool2/3x3_s2"
  top: "inception_3a/5x5_reduce"
  param {
    lr_mult: 1
    decay_mult: 1
  }
  param {
    lr_mult: 2
    decay_mult: 0
  }
  convolution_param {
    num_output: 16
    kernel_size: 1
    weight_filler {
      type: "xavier"
      std: 0.2
    }
    bias_filler {
      type: "constant"
      value: 0.2
    }
  }
}
layer {
  name: "inception_3a/relu_5x5_reduce"
  type: "ReLU"
  bottom: "inception_3a/5x5_reduce"
  top: "inception_3a/5x5_reduce"
}
layer {
  name: "inception_3a/5x5"
  type: "Convolution"
  bottom: "inception_3a/5x5_reduce"
  top: "inception_3a/5x5"
  param {
    lr_mult: 1
    decay_mult: 1
  }
  param {
    lr_mult: 2
    decay_mult: 0
  }
  convolution_param {
    num_output: 32
    pad: 2
    kernel_size: 5
    weight_filler {
      type: "xavier"
      std: 0.03
    }
    bias_filler {
      type: "constant"
      value: 0.2
    }
  }
}
layer {
  name: "inception_3a/relu_5x5"
  type: "ReLU"
  bottom: "inception_3a/5x5"
  top: "inception_3a/5x5"
}
layer {
  name: "inception_3a/pool"
  type: "Pooling"
  bottom: "pool2/3x3_s2"
  top: "inception_3a/pool"
  pooling_param {
    pool: MAX
    kernel_size: 3
    stride: 1
    pad: 1
  }
}
layer {
  name: "inception_3a/pool_proj"
  type: "Convolution"
  bottom: "inception_3a/pool"
  top: "inception_3a/pool_proj"
  param {
    lr_mult: 1
    decay_mult: 1
  }
  param {
    lr_mult: 2
    decay_mult: 0
  }
  convolution_param {
    num_output: 32
    kernel_size: 1
    weight_filler {
      type: "xavier"
      std: 0.1
    }
    bias_filler {
      type: "constant"
      value: 0.2
    }
  }
}
layer {
  name: "inception_3a/relu_pool_proj"
  type: "ReLU"
  bottom: "inception_3a/pool_proj"
  top: "inception_3a/pool_proj"
}
layer {
  name: "inception_3a/output"
  type: "Concat"
  bottom: "inception_3a/1x1"
  bottom: "inception_3a/3x3"
  bottom: "inception_3a/5x5"
  bottom: "inception_3a/pool_proj"
  top: "inception_3a/output"
}
layer {
  name: "inception_3b/1x1"
  type: "Convolution"
  bottom: "inception_3a/output"
  top: "inception_3b/1x1"
  param {
    lr_mult: 1
    decay_mult: 1
  }
  param {
    lr_mult: 2
    decay_mult: 0
  }
  convolution_param {
    num_output: 128
    kernel_size: 1
    weight_filler {
      type: "xavier"
      std: 0.03
    }
    bias_filler {
      type: "constant"
      value: 0.2
    }
  }
}
layer {
  name: "inception_3b/relu_1x1"
  type: "ReLU"
  bottom: "inception_3b/1x1"
  top: "inception_3b/1x1"
}
layer {
  name: "inception_3b/3x3_reduce"
  type: "Convolution"
  bottom: "inception_3a/output"
  top: "inception_3b/3x3_reduce"
  param {
    lr_mult: 1
    decay_mult: 1
  }
  param {
    lr_mult: 2
    decay_mult: 0
  }
  convolution_param {
    num_output: 128
    kernel_size: 1
    weight_filler {
      type: "xavier"
      std: 0.09
    }
    bias_filler {
      type: "constant"
      value: 0.2
    }
  }
}
layer {
  name: "inception_3b/relu_3x3_reduce"
  type: "ReLU"
  bottom: "inception_3b/3x3_reduce"
  top: "inception_3b/3x3_reduce"
}
layer {
  name: "inception_3b/3x3"
  type: "Convolution"
  bottom: "inception_3b/3x3_reduce"
  top: "inception_3b/3x3"
  param {
    lr_mult: 1
    decay_mult: 1
  }
  param {
    lr_mult: 2
    decay_mult: 0
  }
  convolution_param {
    num_output: 192
    pad: 1
    kernel_size: 3
    weight_filler {
      type: "xavier"
      std: 0.03
    }
    bias_filler {
      type: "constant"
      value: 0.2
    }
  }
}
layer {
  name: "inception_3b/relu_3x3"
  type: "ReLU"
  bottom: "inception_3b/3x3"
  top: "inception_3b/3x3"
}
layer {
  name: "inception_3b/5x5_reduce"
  type: "Convolution"
  bottom: "inception_3a/output"
  top: "inception_3b/5x5_reduce"
  param {
    lr_mult: 1
    decay_mult: 1
  }
  param {
    lr_mult: 2
    decay_mult: 0
  }
  convolution_param {
    num_output: 32
    kernel_size: 1
    weight_filler {
      type: "xavier"
      std: 0.2
    }
    bias_filler {
      type: "constant"
      value: 0.2
    }
  }
}
layer {
  name: "inception_3b/relu_5x5_reduce"
  type: "ReLU"
  bottom: "inception_3b/5x5_reduce"
  top: "inception_3b/5x5_reduce"
}
layer {
  name: "inception_3b/5x5"
  type: "Convolution"
  bottom: "inception_3b/5x5_reduce"
  top: "inception_3b/5x5"
  param {
    lr_mult: 1
    decay_mult: 1
  }
  param {
    lr_mult: 2
    decay_mult: 0
  }
  convolution_param {
    num_output: 96
    pad: 2
    kernel_size: 5
    weight_filler {
      type: "xavier"
      std: 0.03
    }
    bias_filler {
      type: "constant"
      value: 0.2
    }
  }
}
layer {
  name: "inception_3b/relu_5x5"
  type: "ReLU"
  bottom: "inception_3b/5x5"
  top: "inception_3b/5x5"
}
layer {
  name: "inception_3b/pool"
  type: "Pooling"
  bottom: "inception_3a/output"
  top: "inception_3b/pool"
  pooling_param {
    pool: MAX
    kernel_size: 3
    stride: 1
    pad: 1
  }
}
layer {
  name: "inception_3b/pool_proj"
  type: "Convolution"
  bottom: "inception_3b/pool"
  top: "inception_3b/pool_proj"
  param {
    lr_mult: 1
    decay_mult: 1
  }
  param {
    lr_mult: 2
    decay_mult: 0
  }
  convolution_param {
    num_output: 64
    kernel_size: 1
    weight_filler {
      type: "xavier"
      std: 0.1
    }
    bias_filler {
      type: "constant"
      value: 0.2
    }
  }
}
layer {
  name: "inception_3b/relu_pool_proj"
  type: "ReLU"
  bottom: "inception_3b/pool_proj"
  top: "inception_3b/pool_proj"
}
layer {
  name: "inception_3b/output"
  type: "Concat"
  bottom: "inception_3b/1x1"
  bottom: "inception_3b/3x3"
  bottom: "inception_3b/5x5"
  bottom: "inception_3b/pool_proj"
  top: "inception_3b/output"
}
layer {
  name: "pool3/3x3_s2"
  type: "Pooling"
  bottom: "inception_3b/output"
  top: "pool3/3x3_s2"
  pooling_param {
    pool: MAX
    kernel_size: 3
    stride: 2
  }
}
layer {
  name: "inception_4a/1x1"
  type: "Convolution"
  bottom: "pool3/3x3_s2"
  top: "inception_4a/1x1"
  param {
    lr_mult: 1
    decay_mult: 1
  }
  param {
    lr_mult: 2
    decay_mult: 0
  }
  convolution_param {
    num_output: 192
    kernel_size: 1
    weight_filler {
      type: "xavier"
      std: 0.03
    }
    bias_filler {
      type: "constant"
      value: 0.2
    }
  }
}
layer {
  name: "inception_4a/relu_1x1"
  type: "ReLU"
  bottom: "inception_4a/1x1"
  top: "inception_4a/1x1"
}
layer {
  name: "inception_4a/3x3_reduce"
  type: "Convolution"
  bottom: "pool3/3x3_s2"
  top: "inception_4a/3x3_reduce"
  param {
    lr_mult: 1
    decay_mult: 1
  }
  param {
    lr_mult: 2
    decay_mult: 0
  }
  convolution_param {
    num_output: 96
    kernel_size: 1
    weight_filler {
      type: "xavier"
      std: 0.09
    }
    bias_filler {
      type: "constant"
      value: 0.2
    }
  }
}
layer {
  name: "inception_4a/relu_3x3_reduce"
  type: "ReLU"
  bottom: "inception_4a/3x3_reduce"
  top: "inception_4a/3x3_reduce"
}
layer {
  name: "inception_4a/3x3"
  type: "Convolution"
  bottom: "inception_4a/3x3_reduce"
  top: "inception_4a/3x3"
  param {
    lr_mult: 1
    decay_mult: 1
  }
  param {
    lr_mult: 2
    decay_mult: 0
  }
  convolution_param {
    num_output: 208
    pad: 1
    kernel_size: 3
    weight_filler {
      type: "xavier"
      std: 0.03
    }
    bias_filler {
      type: "constant"
      value: 0.2
    }
  }
}
layer {
  name: "inception_4a/relu_3x3"
  type: "ReLU"
  bottom: "inception_4a/3x3"
  top: "inception_4a/3x3"
}
layer {
  name: "inception_4a/5x5_reduce"
  type: "Convolution"
  bottom: "pool3/3x3_s2"
  top: "inception_4a/5x5_reduce"
  param {
    lr_mult: 1
    decay_mult: 1
  }
  param {
    lr_mult: 2
    decay_mult: 0
  }
  convolution_param {
    num_output: 16
    kernel_size: 1
    weight_filler {
      type: "xavier"
      std: 0.2
    }
    bias_filler {
      type: "constant"
      value: 0.2
    }
  }
}
layer {
  name: "inception_4a/relu_5x5_reduce"
  type: "ReLU"
  bottom: "inception_4a/5x5_reduce"
  top: "inception_4a/5x5_reduce"
}
layer {
  name: "inception_4a/5x5"
  type: "Convolution"
  bottom: "inception_4a/5x5_reduce"
  top: "inception_4a/5x5"
  param {
    lr_mult: 1
    decay_mult: 1
  }
  param {
    lr_mult: 2
    decay_mult: 0
  }
  convolution_param {
    num_output: 48
    pad: 2
    kernel_size: 5
    weight_filler {
      type: "xavier"
      std: 0.03
    }
    bias_filler {
      type: "constant"
      value: 0.2
    }
  }
}
layer {
  name: "inception_4a/relu_5x5"
  type: "ReLU"
  bottom: "inception_4a/5x5"
  top: "inception_4a/5x5"
}
layer {
  name: "inception_4a/pool"
  type: "Pooling"
  bottom: "pool3/3x3_s2"
  top: "inception_4a/pool"
  pooling_param {
    pool: MAX
    kernel_size: 3
    stride: 1
    pad: 1
  }
}
layer {
  name: "inception_4a/pool_proj"
  type: "Convolution"
  bottom: "inception_4a/pool"
  top: "inception_4a/pool_proj"
  param {
    lr_mult: 1
    decay_mult: 1
  }
  param {
    lr_mult: 2
    decay_mult: 0
  }
  convolution_param {
    num_output: 64
    kernel_size: 1
    weight_filler {
      type: "xavier"
      std: 0.1
    }
    bias_filler {
      type: "constant"
      value: 0.2
    }
  }
}
layer {
  name: "inception_4a/relu_pool_proj"
  type: "ReLU"
  bottom: "inception_4a/pool_proj"
  top: "inception_4a/pool_proj"
}
layer {
  name: "inception_4a/output"
  type: "Concat"
  bottom: "inception_4a/1x1"
  bottom: "inception_4a/3x3"
  bottom: "inception_4a/5x5"
  bottom: "inception_4a/pool_proj"
  top: "inception_4a/output"
}
layer {
  name: "loss1/ave_pool"
  type: "Pooling"
  bottom: "inception_4a/output"
  top: "loss1/ave_pool"
  pooling_param {
    pool: AVE
    kernel_size: 5
    stride: 3
  }
}
layer {
  name: "loss1/conv"
  type: "Convolution"
  bottom: "loss1/ave_pool"
  top: "loss1/conv"
  param {
    lr_mult: 1
    decay_mult: 1
  }
  param {
    lr_mult: 2
    decay_mult: 0
  }
  convolution_param {
    num_output: 128
    kernel_size: 1
    weight_filler {
      type: "xavier"
      std: 0.08
    }
    bias_filler {
      type: "constant"
      value: 0.2
    }
  }
}
layer {
  name: "loss1/relu_conv"
  type: "ReLU"
  bottom: "loss1/conv"
  top: "loss1/conv"
}
layer {
  name: "loss1/fc"
  type: "InnerProduct"
  bottom: "loss1/conv"
  top: "loss1/fc"
  param {
    lr_mult: 1
    decay_mult: 1
  }
  param {
    lr_mult: 2
    decay_mult: 0
  }
  inner_product_param {
    num_output: 1024
    weight_filler {
      type: "xavier"
      std: 0.02
    }
    bias_filler {
      type: "constant"
      value: 0.2
    }
  }
}
layer {
  name: "loss1/relu_fc"
  type: "ReLU"
  bottom: "loss1/fc"
  top: "loss1/fc"
}
layer {
  name: "loss1/drop_fc"
  type: "Dropout"
  bottom: "loss1/fc"
  top: "loss1/fc"
  dropout_param {
    dropout_ratio: 0.7
  }
}
layer {
  name: "loss1/classifier_plantvillage"
  type: "InnerProduct"
  bottom: "loss1/fc"
  top: "loss1/classifier_plantvillage"
  param {
    lr_mult: 1
    decay_mult: 1
  }
  param {
    lr_mult: 2
    decay_mult: 0
  }
  inner_product_param {
    num_output: 38
    weight_filler {
      type: "xavier"
      std: 0.0009765625
    }
    bias_filler {
      type: "constant"
      value: 0
    }
  }
}
layer {
  name: "inception_4b/1x1"
  type: "Convolution"
  bottom: "inception_4a/output"
  top: "inception_4b/1x1"
  param {
    lr_mult: 1
    decay_mult: 1
  }
  param {
    lr_mult: 2
    decay_mult: 0
  }
  convolution_param {
    num_output: 160
    kernel_size: 1
    weight_filler {
      type: "xavier"
      std: 0.03
    }
    bias_filler {
      type: "constant"
      value: 0.2
    }
  }
}
layer {
  name: "inception_4b/relu_1x1"
  type: "ReLU"
  bottom: "inception_4b/1x1"
  top: "inception_4b/1x1"
}
layer {
  name: "inception_4b/3x3_reduce"
  type: "Convolution"
  bottom: "inception_4a/output"
  top: "inception_4b/3x3_reduce"
  param {
    lr_mult: 1
    decay_mult: 1
  }
  param {
    lr_mult: 2
    decay_mult: 0
  }
  convolution_param {
    num_output: 112
    kernel_size: 1
    weight_filler {
      type: "xavier"
      std: 0.09
    }
    bias_filler {
      type: "constant"
      value: 0.2
    }
  }
}
layer {
  name: "inception_4b/relu_3x3_reduce"
  type: "ReLU"
  bottom: "inception_4b/3x3_reduce"
  top: "inception_4b/3x3_reduce"
}
layer {
  name: "inception_4b/3x3"
  type: "Convolution"
  bottom: "inception_4b/3x3_reduce"
  top: "inception_4b/3x3"
  param {
    lr_mult: 1
    decay_mult: 1
  }
  param {
    lr_mult: 2
    decay_mult: 0
  }
  convolution_param {
    num_output: 224
    pad: 1
    kernel_size: 3
    weight_filler {
      type: "xavier"
      std: 0.03
    }
    bias_filler {
      type: "constant"
      value: 0.2
    }
  }
}
layer {
  name: "inception_4b/relu_3x3"
  type: "ReLU"
  bottom: "inception_4b/3x3"
  top: "inception_4b/3x3"
}
layer {
  name: "inception_4b/5x5_reduce"
  type: "Convolution"
  bottom: "inception_4a/output"
  top: "inception_4b/5x5_reduce"
  param {
    lr_mult: 1
    decay_mult: 1
  }
  param {
    lr_mult: 2
    decay_mult: 0
  }
  convolution_param {
    num_output: 24
    kernel_size: 1
    weight_filler {
      type: "xavier"
      std: 0.2
    }
    bias_filler {
      type: "constant"
      value: 0.2
    }
  }
}
layer {
  name: "inception_4b/relu_5x5_reduce"
  type: "ReLU"
  bottom: "inception_4b/5x5_reduce"
  top: "inception_4b/5x5_reduce"
}
layer {
  name: "inception_4b/5x5"
  type: "Convolution"
  bottom: "inception_4b/5x5_reduce"
  top: "inception_4b/5x5"
  param {
    lr_mult: 1
    decay_mult: 1
  }
  param {
    lr_mult: 2
    decay_mult: 0
  }
  convolution_param {
    num_output: 64
    pad: 2
    kernel_size: 5
    weight_filler {
      type: "xavier"
      std: 0.03
    }
    bias_filler {
      type: "constant"
      value: 0.2
    }
  }
}
layer {
  name: "inception_4b/relu_5x5"
  type: "ReLU"
  bottom: "inception_4b/5x5"
  top: "inception_4b/5x5"
}
layer {
  name: "inception_4b/pool"
  type: "Pooling"
  bottom: "inception_4a/output"
  top: "inception_4b/pool"
  pooling_param {
    pool: MAX
    kernel_size: 3
    stride: 1
    pad: 1
  }
}
layer {
  name: "inception_4b/pool_proj"
  type: "Convolution"
  bottom: "inception_4b/pool"
  top: "inception_4b/pool_proj"
  param {
    lr_mult: 1
    decay_mult: 1
  }
  param {
    lr_mult: 2
    decay_mult: 0
  }
  convolution_param {
    num_output: 64
    kernel_size: 1
    weight_filler {
      type: "xavier"
      std: 0.1
    }
    bias_filler {
      type: "constant"
      value: 0.2
    }
  }
}
layer {
  name: "inception_4b/relu_pool_proj"
  type: "ReLU"
  bottom: "inception_4b/pool_proj"
  top: "inception_4b/pool_proj"
}
layer {
  name: "inception_4b/output"
  type: "Concat"
  bottom: "inception_4b/1x1"
  bottom: "inception_4b/3x3"
  bottom: "inception_4b/5x5"
  bottom: "inception_4b/pool_proj"
  top: "inception_4b/output"
}
layer {
  name: "inception_4c/1x1"
  type: "Convolution"
  bottom: "inception_4b/output"
  top: "inception_4c/1x1"
  param {
    lr_mult: 1
    decay_mult: 1
  }
  param {
    lr_mult: 2
    decay_mult: 0
  }
  convolution_param {
    num_output: 128
    kernel_size: 1
    weight_filler {
      type: "xavier"
      std: 0.03
    }
    bias_filler {
      type: "constant"
      value: 0.2
    }
  }
}
layer {
  name: "inception_4c/relu_1x1"
  type: "ReLU"
  bottom: "inception_4c/1x1"
  top: "inception_4c/1x1"
}
layer {
  name: "inception_4c/3x3_reduce"
  type: "Convolution"
  bottom: "inception_4b/output"
  top: "inception_4c/3x3_reduce"
  param {
    lr_mult: 1
    decay_mult: 1
  }
  param {
    lr_mult: 2
    decay_mult: 0
  }
  convolution_param {
    num_output: 128
    kernel_size: 1
    weight_filler {
      type: "xavier"
      std: 0.09
    }
    bias_filler {
      type: "constant"
      value: 0.2
    }
  }
}
layer {
  name: "inception_4c/relu_3x3_reduce"
  type: "ReLU"
  bottom: "inception_4c/3x3_reduce"
  top: "inception_4c/3x3_reduce"
}
layer {
  name: "inception_4c/3x3"
  type: "Convolution"
  bottom: "inception_4c/3x3_reduce"
  top: "inception_4c/3x3"
  param {
    lr_mult: 1
    decay_mult: 1
  }
  param {
    lr_mult: 2
    decay_mult: 0
  }
  convolution_param {
    num_output: 256
    pad: 1
    kernel_size: 3
    weight_filler {
      type: "xavier"
      std: 0.03
    }
    bias_filler {
      type: "constant"
      value: 0.2
    }
  }
}
layer {
  name: "inception_4c/relu_3x3"
  type: "ReLU"
  bottom: "inception_4c/3x3"
  top: "inception_4c/3x3"
}
layer {
  name: "inception_4c/5x5_reduce"
  type: "Convolution"
  bottom: "inception_4b/output"
  top: "inception_4c/5x5_reduce"
  param {
    lr_mult: 1
    decay_mult: 1
  }
  param {
    lr_mult: 2
    decay_mult: 0
  }
  convolution_param {
    num_output: 24
    kernel_size: 1
    weight_filler {
      type: "xavier"
      std: 0.2
    }
    bias_filler {
      type: "constant"
      value: 0.2
    }
  }
}
layer {
  name: "inception_4c/relu_5x5_reduce"
  type: "ReLU"
  bottom: "inception_4c/5x5_reduce"
  top: "inception_4c/5x5_reduce"
}
layer {
  name: "inception_4c/5x5"
  type: "Convolution"
  bottom: "inception_4c/5x5_reduce"
  top: "inception_4c/5x5"
  param {
    lr_mult: 1
    decay_mult: 1
  }
  param {
    lr_mult: 2
    decay_mult: 0
  }
  convolution_param {
    num_output: 64
    pad: 2
    kernel_size: 5
    weight_filler {
      type: "xavier"
      std: 0.03
    }
    bias_filler {
      type: "constant"
      value: 0.2
    }
  }
}
layer {
  name: "inception_4c/relu_5x5"
  type: "ReLU"
  bottom: "inception_4c/5x5"
  top: "inception_4c/5x5"
}
layer {
  name: "inception_4c/pool"
  type: "Pooling"
  bottom: "inception_4b/output"
  top: "inception_4c/pool"
  pooling_param {
    pool: MAX
    kernel_size: 3
    stride: 1
    pad: 1
  }
}
layer {
  name: "inception_4c/pool_proj"
  type: "Convolution"
  bottom: "inception_4c/pool"
  top: "inception_4c/pool_proj"
  param {
    lr_mult: 1
    decay_mult: 1
  }
  param {
    lr_mult: 2
    decay_mult: 0
  }
  convolution_param {
    num_output: 64
    kernel_size: 1
    weight_filler {
      type: "xavier"
      std: 0.1
    }
    bias_filler {
      type: "constant"
      value: 0.2
    }
  }
}
layer {
  name: "inception_4c/relu_pool_proj"
  type: "ReLU"
  bottom: "inception_4c/pool_proj"
  top: "inception_4c/pool_proj"
}
layer {
  name: "inception_4c/output"
  type: "Concat"
  bottom: "inception_4c/1x1"
  bottom: "inception_4c/3x3"
  bottom: "inception_4c/5x5"
  bottom: "inception_4c/pool_proj"
  top: "inception_4c/output"
}
layer {
  name: "inception_4d/1x1"
  type: "Convolution"
  bottom: "inception_4c/output"
  top: "inception_4d/1x1"
  param {
    lr_mult: 1
    decay_mult: 1
  }
  param {
    lr_mult: 2
    decay_mult: 0
  }
  convolution_param {
    num_output: 112
    kernel_size: 1
    weight_filler {
      type: "xavier"
      std: 0.03
    }
    bias_filler {
      type: "constant"
      value: 0.2
    }
  }
}
layer {
  name: "inception_4d/relu_1x1"
  type: "ReLU"
  bottom: "inception_4d/1x1"
  top: "inception_4d/1x1"
}
layer {
  name: "inception_4d/3x3_reduce"
  type: "Convolution"
  bottom: "inception_4c/output"
  top: "inception_4d/3x3_reduce"
  param {
    lr_mult: 1
    decay_mult: 1
  }
  param {
    lr_mult: 2
    decay_mult: 0
  }
  convolution_param {
    num_output: 144
    kernel_size: 1
    weight_filler {
      type: "xavier"
      std: 0.09
    }
    bias_filler {
      type: "constant"
      value: 0.2
    }
  }
}
layer {
  name: "inception_4d/relu_3x3_reduce"
  type: "ReLU"
  bottom: "inception_4d/3x3_reduce"
  top: "inception_4d/3x3_reduce"
}
layer {
  name: "inception_4d/3x3"
  type: "Convolution"
  bottom: "inception_4d/3x3_reduce"
  top: "inception_4d/3x3"
  param {
    lr_mult: 1
    decay_mult: 1
  }
  param {
    lr_mult: 2
    decay_mult: 0
  }
  convolution_param {
    num_output: 288
    pad: 1
    kernel_size: 3
    weight_filler {
      type: "xavier"
      std: 0.03
    }
    bias_filler {
      type: "constant"
      value: 0.2
    }
  }
}
layer {
  name: "inception_4d/relu_3x3"
  type: "ReLU"
  bottom: "inception_4d/3x3"
  top: "inception_4d/3x3"
}
layer {
  name: "inception_4d/5x5_reduce"
  type: "Convolution"
  bottom: "inception_4c/output"
  top: "inception_4d/5x5_reduce"
  param {
    lr_mult: 1
    decay_mult: 1
  }
  param {
    lr_mult: 2
    decay_mult: 0
  }
  convolution_param {
    num_output: 32
    kernel_size: 1
    weight_filler {
      type: "xavier"
      std: 0.2
    }
    bias_filler {
      type: "constant"
      value: 0.2
    }
  }
}
layer {
  name: "inception_4d/relu_5x5_reduce"
  type: "ReLU"
  bottom: "inception_4d/5x5_reduce"
  top: "inception_4d/5x5_reduce"
}
layer {
  name: "inception_4d/5x5"
  type: "Convolution"
  bottom: "inception_4d/5x5_reduce"
  top: "inception_4d/5x5"
  param {
    lr_mult: 1
    decay_mult: 1
  }
  param {
    lr_mult: 2
    decay_mult: 0
  }
  convolution_param {
    num_output: 64
    pad: 2
    kernel_size: 5
    weight_filler {
      type: "xavier"
      std: 0.03
    }
    bias_filler {
      type: "constant"
      value: 0.2
    }
  }
}
layer {
  name: "inception_4d/relu_5x5"
  type: "ReLU"
  bottom: "inception_4d/5x5"
  top: "inception_4d/5x5"
}
layer {
  name: "inception_4d/pool"
  type: "Pooling"
  bottom: "inception_4c/output"
  top: "inception_4d/pool"
  pooling_param {
    pool: MAX
    kernel_size: 3
    stride: 1
    pad: 1
  }
}
layer {
  name: "inception_4d/pool_proj"
  type: "Convolution"
  bottom: "inception_4d/pool"
  top: "inception_4d/pool_proj"
  param {
    lr_mult: 1
    decay_mult: 1
  }
  param {
    lr_mult: 2
    decay_mult: 0
  }
  convolution_param {
    num_output: 64
    kernel_size: 1
    weight_filler {
      type: "xavier"
      std: 0.1
    }
    bias_filler {
      type: "constant"
      value: 0.2
    }
  }
}
layer {
  name: "inception_4d/relu_pool_proj"
  type: "ReLU"
  bottom: "inception_4d/pool_proj"
  top: "inception_4d/pool_proj"
}
layer {
  name: "inception_4d/output"
  type: "Concat"
  bottom: "inception_4d/1x1"
  bottom: "inception_4d/3x3"
  bottom: "inception_4d/5x5"
  bottom: "inception_4d/pool_proj"
  top: "inception_4d/output"
}
layer {
  name: "loss2/ave_pool"
  type: "Pooling"
  bottom: "inception_4d/output"
  top: "loss2/ave_pool"
  pooling_param {
    pool: AVE
    kernel_size: 5
    stride: 3
  }
}
layer {
  name: "loss2/conv"
  type: "Convolution"
  bottom: "loss2/ave_pool"
  top: "loss2/conv"
  param {
    lr_mult: 1
    decay_mult: 1
  }
  param {
    lr_mult: 2
    decay_mult: 0
  }
  convolution_param {
    num_output: 128
    kernel_size: 1
    weight_filler {
      type: "xavier"
      std: 0.08
    }
    bias_filler {
      type: "constant"
      value: 0.2
    }
  }
}
layer {
  name: "loss2/relu_conv"
  type: "ReLU"
  bottom: "loss2/conv"
  top: "loss2/conv"
}
layer {
  name: "loss2/fc"
  type: "InnerProduct"
  bottom: "loss2/conv"
  top: "loss2/fc"
  param {
    lr_mult: 1
    decay_mult: 1
  }
  param {
    lr_mult: 2
    decay_mult: 0
  }
  inner_product_param {
    num_output: 1024
    weight_filler {
      type: "xavier"
      std: 0.02
    }
    bias_filler {
      type: "constant"
      value: 0.2
    }
  }
}
layer {
  name: "loss2/relu_fc"
  type: "ReLU"
  bottom: "loss2/fc"
  top: "loss2/fc"
}
layer {
  name: "loss2/drop_fc"
  type: "Dropout"
  bottom: "loss2/fc"
  top: "loss2/fc"
  dropout_param {
    dropout_ratio: 0.7
  }
}
layer {
  name: "loss2/classifier_plantvillage"
  type: "InnerProduct"
  bottom: "loss2/fc"
  top: "loss2/classifier_plantvillage"
  param {
    lr_mult: 1
    decay_mult: 1
  }
  param {
    lr_mult: 2
    decay_mult: 0
  }
  inner_product_param {
    num_output: 38
    weight_filler {
      type: "xavier"
      std: 0.0009765625
    }
    bias_filler {
      type: "constant"
      value: 0
    }
  }
}
layer {
  name: "inception_4e/1x1"
  type: "Convolution"
  bottom: "inception_4d/output"
  top: "inception_4e/1x1"
  param {
    lr_mult: 1
    decay_mult: 1
  }
  param {
    lr_mult: 2
    decay_mult: 0
  }
  convolution_param {
    num_output: 256
    kernel_size: 1
    weight_filler {
      type: "xavier"
      std: 0.03
    }
    bias_filler {
      type: "constant"
      value: 0.2
    }
  }
}
layer {
  name: "inception_4e/relu_1x1"
  type: "ReLU"
  bottom: "inception_4e/1x1"
  top: "inception_4e/1x1"
}
layer {
  name: "inception_4e/3x3_reduce"
  type: "Convolution"
  bottom: "inception_4d/output"
  top: "inception_4e/3x3_reduce"
  param {
    lr_mult: 1
    decay_mult: 1
  }
  param {
    lr_mult: 2
    decay_mult: 0
  }
  convolution_param {
    num_output: 160
    kernel_size: 1
    weight_filler {
      type: "xavier"
      std: 0.09
    }
    bias_filler {
      type: "constant"
      value: 0.2
    }
  }
}
layer {
  name: "inception_4e/relu_3x3_reduce"
  type: "ReLU"
  bottom: "inception_4e/3x3_reduce"
  top: "inception_4e/3x3_reduce"
}
layer {
  name: "inception_4e/3x3"
  type: "Convolution"
  bottom: "inception_4e/3x3_reduce"
  top: "inception_4e/3x3"
  param {
    lr_mult: 1
    decay_mult: 1
  }
  param {
    lr_mult: 2
    decay_mult: 0
  }
  convolution_param {
    num_output: 320
    pad: 1
    kernel_size: 3
    weight_filler {
      type: "xavier"
      std: 0.03
    }
    bias_filler {
      type: "constant"
      value: 0.2
    }
  }
}
layer {
  name: "inception_4e/relu_3x3"
  type: "ReLU"
  bottom: "inception_4e/3x3"
  top: "inception_4e/3x3"
}
layer {
  name: "inception_4e/5x5_reduce"
  type: "Convolution"
  bottom: "inception_4d/output"
  top: "inception_4e/5x5_reduce"
  param {
    lr_mult: 1
    decay_mult: 1
  }
  param {
    lr_mult: 2
    decay_mult: 0
  }
  convolution_param {
    num_output: 32
    kernel_size: 1
    weight_filler {
      type: "xavier"
      std: 0.2
    }
    bias_filler {
      type: "constant"
      value: 0.2
    }
  }
}
layer {
  name: "inception_4e/relu_5x5_reduce"
  type: "ReLU"
  bottom: "inception_4e/5x5_reduce"
  top: "inception_4e/5x5_reduce"
}
layer {
  name: "inception_4e/5x5"
  type: "Convolution"
  bottom: "inception_4e/5x5_reduce"
  top: "inception_4e/5x5"
  p
I0403 14:42:56.526073 13556 layer_factory.hpp:77] Creating layer data
I0403 14:42:56.526760 13556 net.cpp:91] Creating Layer data
I0403 14:42:56.526790 13556 net.cpp:399] data -> data
I0403 14:42:56.526875 13556 net.cpp:399] data -> label
I0403 14:42:56.526926 13556 data_transformer.cpp:25] Loading mean file from: /home/mohanty/data/final_dataset/lmdb/color-40-60/mean.binaryproto
I0403 14:42:56.530949 13561 db_lmdb.cpp:38] Opened lmdb /home/mohanty/data/final_dataset/lmdb/color-40-60/test_db
I0403 14:42:56.544144 13556 data_layer.cpp:41] output data size: 24,3,224,224
I0403 14:42:56.571966 13556 net.cpp:141] Setting up data
I0403 14:42:56.572043 13556 net.cpp:148] Top shape: 24 3 224 224 (3612672)
I0403 14:42:56.572067 13556 net.cpp:148] Top shape: 24 (24)
I0403 14:42:56.572082 13556 net.cpp:156] Memory required for data: 14450784
I0403 14:42:56.572108 13556 layer_factory.hpp:77] Creating layer label_data_1_split
I0403 14:42:56.572136 13556 net.cpp:91] Creating Layer label_data_1_split
I0403 14:42:56.572154 13556 net.cpp:425] label_data_1_split <- label
I0403 14:42:56.572186 13556 net.cpp:399] label_data_1_split -> label_data_1_split_0
I0403 14:42:56.572214 13556 net.cpp:399] label_data_1_split -> label_data_1_split_1
I0403 14:42:56.572235 13556 net.cpp:399] label_data_1_split -> label_data_1_split_2
I0403 14:42:56.572257 13556 net.cpp:399] label_data_1_split -> label_data_1_split_3
I0403 14:42:56.572275 13556 net.cpp:399] label_data_1_split -> label_data_1_split_4
I0403 14:42:56.572295 13556 net.cpp:399] label_data_1_split -> label_data_1_split_5
I0403 14:42:56.572314 13556 net.cpp:399] label_data_1_split -> label_data_1_split_6
I0403 14:42:56.572334 13556 net.cpp:399] label_data_1_split -> label_data_1_split_7
I0403 14:42:56.572352 13556 net.cpp:399] label_data_1_split -> label_data_1_split_8
I0403 14:42:56.572372 13556 net.cpp:399] label_data_1_split -> label_data_1_split_9
I0403 14:42:56.572487 13556 net.cpp:141] Setting up label_data_1_split
I0403 14:42:56.572511 13556 net.cpp:148] Top shape: 24 (24)
I0403 14:42:56.572528 13556 net.cpp:148] Top shape: 24 (24)
I0403 14:42:56.572545 13556 net.cpp:148] Top shape: 24 (24)
I0403 14:42:56.572559 13556 net.cpp:148] Top shape: 24 (24)
I0403 14:42:56.572581 13556 net.cpp:148] Top shape: 24 (24)
I0403 14:42:56.572597 13556 net.cpp:148] Top shape: 24 (24)
I0403 14:42:56.572613 13556 net.cpp:148] Top shape: 24 (24)
I0403 14:42:56.572628 13556 net.cpp:148] Top shape: 24 (24)
I0403 14:42:56.572643 13556 net.cpp:148] Top shape: 24 (24)
I0403 14:42:56.572657 13556 net.cpp:148] Top shape: 24 (24)
I0403 14:42:56.572698 13556 net.cpp:156] Memory required for data: 14451744
I0403 14:42:56.572715 13556 layer_factory.hpp:77] Creating layer conv1/7x7_s2
I0403 14:42:56.572772 13556 net.cpp:91] Creating Layer conv1/7x7_s2
I0403 14:42:56.572793 13556 net.cpp:425] conv1/7x7_s2 <- data
I0403 14:42:56.572813 13556 net.cpp:399] conv1/7x7_s2 -> conv1/7x7_s2
I0403 14:42:56.714679 13556 net.cpp:141] Setting up conv1/7x7_s2
I0403 14:42:56.714743 13556 net.cpp:148] Top shape: 24 64 112 112 (19267584)
I0403 14:42:56.714761 13556 net.cpp:156] Memory required for data: 91522080
I0403 14:42:56.714792 13556 layer_factory.hpp:77] Creating layer conv1/relu_7x7
I0403 14:42:56.714821 13556 net.cpp:91] Creating Layer conv1/relu_7x7
I0403 14:42:56.714839 13556 net.cpp:425] conv1/relu_7x7 <- conv1/7x7_s2
I0403 14:42:56.714859 13556 net.cpp:386] conv1/relu_7x7 -> conv1/7x7_s2 (in-place)
I0403 14:42:56.715116 13556 net.cpp:141] Setting up conv1/relu_7x7
I0403 14:42:56.715144 13556 net.cpp:148] Top shape: 24 64 112 112 (19267584)
I0403 14:42:56.715160 13556 net.cpp:156] Memory required for data: 168592416
I0403 14:42:56.715174 13556 layer_factory.hpp:77] Creating layer pool1/3x3_s2
I0403 14:42:56.715214 13556 net.cpp:91] Creating Layer pool1/3x3_s2
I0403 14:42:56.715234 13556 net.cpp:425] pool1/3x3_s2 <- conv1/7x7_s2
I0403 14:42:56.715253 13556 net.cpp:399] pool1/3x3_s2 -> pool1/3x3_s2
I0403 14:42:56.715329 13556 net.cpp:141] Setting up pool1/3x3_s2
I0403 14:42:56.715353 13556 net.cpp:148] Top shape: 24 64 56 56 (4816896)
I0403 14:42:56.715369 13556 net.cpp:156] Memory required for data: 187860000
I0403 14:42:56.715384 13556 layer_factory.hpp:77] Creating layer pool1/norm1
I0403 14:42:56.715421 13556 net.cpp:91] Creating Layer pool1/norm1
I0403 14:42:56.715441 13556 net.cpp:425] pool1/norm1 <- pool1/3x3_s2
I0403 14:42:56.715459 13556 net.cpp:399] pool1/norm1 -> pool1/norm1
I0403 14:42:56.715766 13556 net.cpp:141] Setting up pool1/norm1
I0403 14:42:56.715796 13556 net.cpp:148] Top shape: 24 64 56 56 (4816896)
I0403 14:42:56.715812 13556 net.cpp:156] Memory required for data: 207127584
I0403 14:42:56.715827 13556 layer_factory.hpp:77] Creating layer conv2/3x3_reduce
I0403 14:42:56.715852 13556 net.cpp:91] Creating Layer conv2/3x3_reduce
I0403 14:42:56.715868 13556 net.cpp:425] conv2/3x3_reduce <- pool1/norm1
I0403 14:42:56.715888 13556 net.cpp:399] conv2/3x3_reduce -> conv2/3x3_reduce
I0403 14:42:56.717248 13556 net.cpp:141] Setting up conv2/3x3_reduce
I0403 14:42:56.717280 13556 net.cpp:148] Top shape: 24 64 56 56 (4816896)
I0403 14:42:56.717296 13556 net.cpp:156] Memory required for data: 226395168
I0403 14:42:56.717317 13556 layer_factory.hpp:77] Creating layer conv2/relu_3x3_reduce
I0403 14:42:56.717335 13556 net.cpp:91] Creating Layer conv2/relu_3x3_reduce
I0403 14:42:56.717351 13556 net.cpp:425] conv2/relu_3x3_reduce <- conv2/3x3_reduce
I0403 14:42:56.717368 13556 net.cpp:386] conv2/relu_3x3_reduce -> conv2/3x3_reduce (in-place)
I0403 14:42:56.717627 13556 net.cpp:141] Setting up conv2/relu_3x3_reduce
I0403 14:42:56.717653 13556 net.cpp:148] Top shape: 24 64 56 56 (4816896)
I0403 14:42:56.717669 13556 net.cpp:156] Memory required for data: 245662752
I0403 14:42:56.717684 13556 layer_factory.hpp:77] Creating layer conv2/3x3
I0403 14:42:56.717705 13556 net.cpp:91] Creating Layer conv2/3x3
I0403 14:42:56.717722 13556 net.cpp:425] conv2/3x3 <- conv2/3x3_reduce
I0403 14:42:56.717741 13556 net.cpp:399] conv2/3x3 -> conv2/3x3
I0403 14:42:56.720010 13556 net.cpp:141] Setting up conv2/3x3
I0403 14:42:56.720042 13556 net.cpp:148] Top shape: 24 192 56 56 (14450688)
I0403 14:42:56.720062 13556 net.cpp:156] Memory required for data: 303465504
I0403 14:42:56.720083 13556 layer_factory.hpp:77] Creating layer conv2/relu_3x3
I0403 14:42:56.720103 13556 net.cpp:91] Creating Layer conv2/relu_3x3
I0403 14:42:56.720119 13556 net.cpp:425] conv2/relu_3x3 <- conv2/3x3
I0403 14:42:56.720139 13556 net.cpp:386] conv2/relu_3x3 -> conv2/3x3 (in-place)
I0403 14:42:56.720306 13556 net.cpp:141] Setting up conv2/relu_3x3
I0403 14:42:56.720332 13556 net.cpp:148] Top shape: 24 192 56 56 (14450688)
I0403 14:42:56.720366 13556 net.cpp:156] Memory required for data: 361268256
I0403 14:42:56.720382 13556 layer_factory.hpp:77] Creating layer conv2/norm2
I0403 14:42:56.720403 13556 net.cpp:91] Creating Layer conv2/norm2
I0403 14:42:56.720422 13556 net.cpp:425] conv2/norm2 <- conv2/3x3
I0403 14:42:56.720443 13556 net.cpp:399] conv2/norm2 -> conv2/norm2
I0403 14:42:56.720752 13556 net.cpp:141] Setting up conv2/norm2
I0403 14:42:56.720783 13556 net.cpp:148] Top shape: 24 192 56 56 (14450688)
I0403 14:42:56.720800 13556 net.cpp:156] Memory required for data: 419071008
I0403 14:42:56.720814 13556 layer_factory.hpp:77] Creating layer pool2/3x3_s2
I0403 14:42:56.720832 13556 net.cpp:91] Creating Layer pool2/3x3_s2
I0403 14:42:56.720847 13556 net.cpp:425] pool2/3x3_s2 <- conv2/norm2
I0403 14:42:56.720870 13556 net.cpp:399] pool2/3x3_s2 -> pool2/3x3_s2
I0403 14:42:56.720922 13556 net.cpp:141] Setting up pool2/3x3_s2
I0403 14:42:56.720945 13556 net.cpp:148] Top shape: 24 192 28 28 (3612672)
I0403 14:42:56.720960 13556 net.cpp:156] Memory required for data: 433521696
I0403 14:42:56.720974 13556 layer_factory.hpp:77] Creating layer pool2/3x3_s2_pool2/3x3_s2_0_split
I0403 14:42:56.720993 13556 net.cpp:91] Creating Layer pool2/3x3_s2_pool2/3x3_s2_0_split
I0403 14:42:56.721009 13556 net.cpp:425] pool2/3x3_s2_pool2/3x3_s2_0_split <- pool2/3x3_s2
I0403 14:42:56.721026 13556 net.cpp:399] pool2/3x3_s2_pool2/3x3_s2_0_split -> pool2/3x3_s2_pool2/3x3_s2_0_split_0
I0403 14:42:56.721045 13556 net.cpp:399] pool2/3x3_s2_pool2/3x3_s2_0_split -> pool2/3x3_s2_pool2/3x3_s2_0_split_1
I0403 14:42:56.721067 13556 net.cpp:399] pool2/3x3_s2_pool2/3x3_s2_0_split -> pool2/3x3_s2_pool2/3x3_s2_0_split_2
I0403 14:42:56.721088 13556 net.cpp:399] pool2/3x3_s2_pool2/3x3_s2_0_split -> pool2/3x3_s2_pool2/3x3_s2_0_split_3
I0403 14:42:56.721158 13556 net.cpp:141] Setting up pool2/3x3_s2_pool2/3x3_s2_0_split
I0403 14:42:56.721179 13556 net.cpp:148] Top shape: 24 192 28 28 (3612672)
I0403 14:42:56.721195 13556 net.cpp:148] Top shape: 24 192 28 28 (3612672)
I0403 14:42:56.721210 13556 net.cpp:148] Top shape: 24 192 28 28 (3612672)
I0403 14:42:56.721225 13556 net.cpp:148] Top shape: 24 192 28 28 (3612672)
I0403 14:42:56.721238 13556 net.cpp:156] Memory required for data: 491324448
I0403 14:42:56.721252 13556 layer_factory.hpp:77] Creating layer inception_3a/1x1
I0403 14:42:56.721276 13556 net.cpp:91] Creating Layer inception_3a/1x1
I0403 14:42:56.721293 13556 net.cpp:425] inception_3a/1x1 <- pool2/3x3_s2_pool2/3x3_s2_0_split_0
I0403 14:42:56.721313 13556 net.cpp:399] inception_3a/1x1 -> inception_3a/1x1
I0403 14:42:56.722844 13556 net.cpp:141] Setting up inception_3a/1x1
I0403 14:42:56.722875 13556 net.cpp:148] Top shape: 24 64 28 28 (1204224)
I0403 14:42:56.722892 13556 net.cpp:156] Memory required for data: 496141344
I0403 14:42:56.722909 13556 layer_factory.hpp:77] Creating layer inception_3a/relu_1x1
I0403 14:42:56.722928 13556 net.cpp:91] Creating Layer inception_3a/relu_1x1
I0403 14:42:56.722944 13556 net.cpp:425] inception_3a/relu_1x1 <- inception_3a/1x1
I0403 14:42:56.722961 13556 net.cpp:386] inception_3a/relu_1x1 -> inception_3a/1x1 (in-place)
I0403 14:42:56.723131 13556 net.cpp:141] Setting up inception_3a/relu_1x1
I0403 14:42:56.723158 13556 net.cpp:148] Top shape: 24 64 28 28 (1204224)
I0403 14:42:56.723173 13556 net.cpp:156] Memory required for data: 500958240
I0403 14:42:56.723187 13556 layer_factory.hpp:77] Creating layer inception_3a/3x3_reduce
I0403 14:42:56.723209 13556 net.cpp:91] Creating Layer inception_3a/3x3_reduce
I0403 14:42:56.723227 13556 net.cpp:425] inception_3a/3x3_reduce <- pool2/3x3_s2_pool2/3x3_s2_0_split_1
I0403 14:42:56.723253 13556 net.cpp:399] inception_3a/3x3_reduce -> inception_3a/3x3_reduce
I0403 14:42:56.724988 13556 net.cpp:141] Setting up inception_3a/3x3_reduce
I0403 14:42:56.725018 13556 net.cpp:148] Top shape: 24 96 28 28 (1806336)
I0403 14:42:56.725033 13556 net.cpp:156] Memory required for data: 508183584
I0403 14:42:56.725054 13556 layer_factory.hpp:77] Creating layer inception_3a/relu_3x3_reduce
I0403 14:42:56.725092 13556 net.cpp:91] Creating Layer inception_3a/relu_3x3_reduce
I0403 14:42:56.725111 13556 net.cpp:425] inception_3a/relu_3x3_reduce <- inception_3a/3x3_reduce
I0403 14:42:56.725128 13556 net.cpp:386] inception_3a/relu_3x3_reduce -> inception_3a/3x3_reduce (in-place)
I0403 14:42:56.725306 13556 net.cpp:141] Setting up inception_3a/relu_3x3_reduce
I0403 14:42:56.725333 13556 net.cpp:148] Top shape: 24 96 28 28 (1806336)
I0403 14:42:56.725348 13556 net.cpp:156] Memory required for data: 515408928
I0403 14:42:56.725363 13556 layer_factory.hpp:77] Creating layer inception_3a/3x3
I0403 14:42:56.725384 13556 net.cpp:91] Creating Layer inception_3a/3x3
I0403 14:42:56.725401 13556 net.cpp:425] inception_3a/3x3 <- inception_3a/3x3_reduce
I0403 14:42:56.725419 13556 net.cpp:399] inception_3a/3x3 -> inception_3a/3x3
I0403 14:42:56.727027 13556 net.cpp:141] Setting up inception_3a/3x3
I0403 14:42:56.727053 13556 net.cpp:148] Top shape: 24 128 28 28 (2408448)
I0403 14:42:56.727068 13556 net.cpp:156] Memory required for data: 525042720
I0403 14:42:56.727085 13556 layer_factory.hpp:77] Creating layer inception_3a/relu_3x3
I0403 14:42:56.727105 13556 net.cpp:91] Creating Layer inception_3a/relu_3x3
I0403 14:42:56.727121 13556 net.cpp:425] inception_3a/relu_3x3 <- inception_3a/3x3
I0403 14:42:56.727138 13556 net.cpp:386] inception_3a/relu_3x3 -> inception_3a/3x3 (in-place)
I0403 14:42:56.727401 13556 net.cpp:141] Setting up inception_3a/relu_3x3
I0403 14:42:56.727426 13556 net.cpp:148] Top shape: 24 128 28 28 (2408448)
I0403 14:42:56.727440 13556 net.cpp:156] Memory required for data: 534676512
I0403 14:42:56.727454 13556 layer_factory.hpp:77] Creating layer inception_3a/5x5_reduce
I0403 14:42:56.727475 13556 net.cpp:91] Creating Layer inception_3a/5x5_reduce
I0403 14:42:56.727493 13556 net.cpp:425] inception_3a/5x5_reduce <- pool2/3x3_s2_pool2/3x3_s2_0_split_2
I0403 14:42:56.727512 13556 net.cpp:399] inception_3a/5x5_reduce -> inception_3a/5x5_reduce
I0403 14:42:56.728432 13556 net.cpp:141] Setting up inception_3a/5x5_reduce
I0403 14:42:56.728459 13556 net.cpp:148] Top shape: 24 16 28 28 (301056)
I0403 14:42:56.728474 13556 net.cpp:156] Memory required for data: 535880736
I0403 14:42:56.728492 13556 layer_factory.hpp:77] Creating layer inception_3a/relu_5x5_reduce
I0403 14:42:56.728512 13556 net.cpp:91] Creating Layer inception_3a/relu_5x5_reduce
I0403 14:42:56.728528 13556 net.cpp:425] inception_3a/relu_5x5_reduce <- inception_3a/5x5_reduce
I0403 14:42:56.728543 13556 net.cpp:386] inception_3a/relu_5x5_reduce -> inception_3a/5x5_reduce (in-place)
I0403 14:42:56.728831 13556 net.cpp:141] Setting up inception_3a/relu_5x5_reduce
I0403 14:42:56.728857 13556 net.cpp:148] Top shape: 24 16 28 28 (301056)
I0403 14:42:56.728873 13556 net.cpp:156] Memory required for data: 537084960
I0403 14:42:56.728888 13556 layer_factory.hpp:77] Creating layer inception_3a/5x5
I0403 14:42:56.728906 13556 net.cpp:91] Creating Layer inception_3a/5x5
I0403 14:42:56.728922 13556 net.cpp:425] inception_3a/5x5 <- inception_3a/5x5_reduce
I0403 14:42:56.728943 13556 net.cpp:399] inception_3a/5x5 -> inception_3a/5x5
I0403 14:42:56.729918 13556 net.cpp:141] Setting up inception_3a/5x5
I0403 14:42:56.729943 13556 net.cpp:148] Top shape: 24 32 28 28 (602112)
I0403 14:42:56.729959 13556 net.cpp:156] Memory required for data: 539493408
I0403 14:42:56.729976 13556 layer_factory.hpp:77] Creating layer inception_3a/relu_5x5
I0403 14:42:56.729993 13556 net.cpp:91] Creating Layer inception_3a/relu_5x5
I0403 14:42:56.730011 13556 net.cpp:425] inception_3a/relu_5x5 <- inception_3a/5x5
I0403 14:42:56.730027 13556 net.cpp:386] inception_3a/relu_5x5 -> inception_3a/5x5 (in-place)
I0403 14:42:56.730195 13556 net.cpp:141] Setting up inception_3a/relu_5x5
I0403 14:42:56.730218 13556 net.cpp:148] Top shape: 24 32 28 28 (602112)
I0403 14:42:56.730232 13556 net.cpp:156] Memory required for data: 541901856
I0403 14:42:56.730247 13556 layer_factory.hpp:77] Creating layer inception_3a/pool
I0403 14:42:56.730268 13556 net.cpp:91] Creating Layer inception_3a/pool
I0403 14:42:56.730283 13556 net.cpp:425] inception_3a/pool <- pool2/3x3_s2_pool2/3x3_s2_0_split_3
I0403 14:42:56.730314 13556 net.cpp:399] inception_3a/pool -> inception_3a/pool
I0403 14:42:56.730371 13556 net.cpp:141] Setting up inception_3a/pool
I0403 14:42:56.730393 13556 net.cpp:148] Top shape: 24 192 28 28 (3612672)
I0403 14:42:56.730407 13556 net.cpp:156] Memory required for data: 556352544
I0403 14:42:56.730422 13556 layer_factory.hpp:77] Creating layer inception_3a/pool_proj
I0403 14:42:56.730443 13556 net.cpp:91] Creating Layer inception_3a/pool_proj
I0403 14:42:56.730459 13556 net.cpp:425] inception_3a/pool_proj <- inception_3a/pool
I0403 14:42:56.730479 13556 net.cpp:399] inception_3a/pool_proj -> inception_3a/pool_proj
I0403 14:42:56.731406 13556 net.cpp:141] Setting up inception_3a/pool_proj
I0403 14:42:56.731436 13556 net.cpp:148] Top shape: 24 32 28 28 (602112)
I0403 14:42:56.731451 13556 net.cpp:156] Memory required for data: 558760992
I0403 14:42:56.731472 13556 layer_factory.hpp:77] Creating layer inception_3a/relu_pool_proj
I0403 14:42:56.731492 13556 net.cpp:91] Creating Layer inception_3a/relu_pool_proj
I0403 14:42:56.731508 13556 net.cpp:425] inception_3a/relu_pool_proj <- inception_3a/pool_proj
I0403 14:42:56.731524 13556 net.cpp:386] inception_3a/relu_pool_proj -> inception_3a/pool_proj (in-place)
I0403 14:42:56.731791 13556 net.cpp:141] Setting up inception_3a/relu_pool_proj
I0403 14:42:56.731815 13556 net.cpp:148] Top shape: 24 32 28 28 (602112)
I0403 14:42:56.731829 13556 net.cpp:156] Memory required for data: 561169440
I0403 14:42:56.731843 13556 layer_factory.hpp:77] Creating layer inception_3a/output
I0403 14:42:56.731859 13556 net.cpp:91] Creating Layer inception_3a/output
I0403 14:42:56.731874 13556 net.cpp:425] inception_3a/output <- inception_3a/1x1
I0403 14:42:56.731889 13556 net.cpp:425] inception_3a/output <- inception_3a/3x3
I0403 14:42:56.731904 13556 net.cpp:425] inception_3a/output <- inception_3a/5x5
I0403 14:42:56.731920 13556 net.cpp:425] inception_3a/output <- inception_3a/pool_proj
I0403 14:42:56.731937 13556 net.cpp:399] inception_3a/output -> inception_3a/output
I0403 14:42:56.731981 13556 net.cpp:141] Setting up inception_3a/output
I0403 14:42:56.732005 13556 net.cpp:148] Top shape: 24 256 28 28 (4816896)
I0403 14:42:56.732020 13556 net.cpp:156] Memory required for data: 580437024
I0403 14:42:56.732034 13556 layer_factory.hpp:77] Creating layer inception_3a/output_inception_3a/output_0_split
I0403 14:42:56.732050 13556 net.cpp:91] Creating Layer inception_3a/output_inception_3a/output_0_split
I0403 14:42:56.732064 13556 net.cpp:425] inception_3a/output_inception_3a/output_0_split <- inception_3a/output
I0403 14:42:56.732084 13556 net.cpp:399] inception_3a/output_inception_3a/output_0_split -> inception_3a/output_inception_3a/output_0_split_0
I0403 14:42:56.732102 13556 net.cpp:399] inception_3a/output_inception_3a/output_0_split -> inception_3a/output_inception_3a/output_0_split_1
I0403 14:42:56.732123 13556 net.cpp:399] inception_3a/output_inception_3a/output_0_split -> inception_3a/output_inception_3a/output_0_split_2
I0403 14:42:56.732143 13556 net.cpp:399] inception_3a/output_inception_3a/output_0_split -> inception_3a/output_inception_3a/output_0_split_3
I0403 14:42:56.732214 13556 net.cpp:141] Setting up inception_3a/output_inception_3a/output_0_split
I0403 14:42:56.732235 13556 net.cpp:148] Top shape: 24 256 28 28 (4816896)
I0403 14:42:56.732251 13556 net.cpp:148] Top shape: 24 256 28 28 (4816896)
I0403 14:42:56.732267 13556 net.cpp:148] Top shape: 24 256 28 28 (4816896)
I0403 14:42:56.732282 13556 net.cpp:148] Top shape: 24 256 28 28 (4816896)
I0403 14:42:56.732295 13556 net.cpp:156] Memory required for data: 657507360
I0403 14:42:56.732309 13556 layer_factory.hpp:77] Creating layer inception_3b/1x1
I0403 14:42:56.732331 13556 net.cpp:91] Creating Layer inception_3b/1x1
I0403 14:42:56.732347 13556 net.cpp:425] inception_3b/1x1 <- inception_3a/output_inception_3a/output_0_split_0
I0403 14:42:56.732367 13556 net.cpp:399] inception_3b/1x1 -> inception_3b/1x1
I0403 14:42:56.733454 13556 net.cpp:141] Setting up inception_3b/1x1
I0403 14:42:56.733494 13556 net.cpp:148] Top shape: 24 128 28 28 (2408448)
I0403 14:42:56.733508 13556 net.cpp:156] Memory required for data: 667141152
I0403 14:42:56.733526 13556 layer_factory.hpp:77] Creating layer inception_3b/relu_1x1
I0403 14:42:56.733543 13556 net.cpp:91] Creating Layer inception_3b/relu_1x1
I0403 14:42:56.733558 13556 net.cpp:425] inception_3b/relu_1x1 <- inception_3b/1x1
I0403 14:42:56.733582 13556 net.cpp:386] inception_3b/relu_1x1 -> inception_3b/1x1 (in-place)
I0403 14:42:56.733753 13556 net.cpp:141] Setting up inception_3b/relu_1x1
I0403 14:42:56.733777 13556 net.cpp:148] Top shape: 24 128 28 28 (2408448)
I0403 14:42:56.733791 13556 net.cpp:156] Memory required for data: 676774944
I0403 14:42:56.733805 13556 layer_factory.hpp:77] Creating layer inception_3b/3x3_reduce
I0403 14:42:56.733826 13556 net.cpp:91] Creating Layer inception_3b/3x3_reduce
I0403 14:42:56.733844 13556 net.cpp:425] inception_3b/3x3_reduce <- inception_3a/output_inception_3a/output_0_split_1
I0403 14:42:56.733865 13556 net.cpp:399] inception_3b/3x3_reduce -> inception_3b/3x3_reduce
I0403 14:42:56.735023 13556 net.cpp:141] Setting up inception_3b/3x3_reduce
I0403 14:42:56.735052 13556 net.cpp:148] Top shape: 24 128 28 28 (2408448)
I0403 14:42:56.735069 13556 net.cpp:156] Memory required for data: 686408736
I0403 14:42:56.735086 13556 layer_factory.hpp:77] Creating layer inception_3b/relu_3x3_reduce
I0403 14:42:56.735105 13556 net.cpp:91] Creating Layer inception_3b/relu_3x3_reduce
I0403 14:42:56.735119 13556 net.cpp:425] inception_3b/relu_3x3_reduce <- inception_3b/3x3_reduce
I0403 14:42:56.735138 13556 net.cpp:386] inception_3b/relu_3x3_reduce -> inception_3b/3x3_reduce (in-place)
I0403 14:42:56.735313 13556 net.cpp:141] Setting up inception_3b/relu_3x3_reduce
I0403 14:42:56.735337 13556 net.cpp:148] Top shape: 24 128 28 28 (2408448)
I0403 14:42:56.735352 13556 net.cpp:156] Memory required for data: 696042528
I0403 14:42:56.735366 13556 layer_factory.hpp:77] Creating layer inception_3b/3x3
I0403 14:42:56.735391 13556 net.cpp:91] Creating Layer inception_3b/3x3
I0403 14:42:56.735410 13556 net.cpp:425] inception_3b/3x3 <- inception_3b/3x3_reduce
I0403 14:42:56.735429 13556 net.cpp:399] inception_3b/3x3 -> inception_3b/3x3
I0403 14:42:56.738328 13556 net.cpp:141] Setting up inception_3b/3x3
I0403 14:42:56.738358 13556 net.cpp:148] Top shape: 24 192 28 28 (3612672)
I0403 14:42:56.738373 13556 net.cpp:156] Memory required for data: 710493216
I0403 14:42:56.738390 13556 layer_factory.hpp:77] Creating layer inception_3b/relu_3x3
I0403 14:42:56.738410 13556 net.cpp:91] Creating Layer inception_3b/relu_3x3
I0403 14:42:56.738427 13556 net.cpp:425] inception_3b/relu_3x3 <- inception_3b/3x3
I0403 14:42:56.738443 13556 net.cpp:386] inception_3b/relu_3x3 -> inception_3b/3x3 (in-place)
I0403 14:42:56.738718 13556 net.cpp:141] Setting up inception_3b/relu_3x3
I0403 14:42:56.738744 13556 net.cpp:148] Top shape: 24 192 28 28 (3612672)
I0403 14:42:56.738759 13556 net.cpp:156] Memory required for data: 724943904
I0403 14:42:56.738773 13556 layer_factory.hpp:77] Creating layer inception_3b/5x5_reduce
I0403 14:42:56.738797 13556 net.cpp:91] Creating Layer inception_3b/5x5_reduce
I0403 14:42:56.738816 13556 net.cpp:425] inception_3b/5x5_reduce <- inception_3a/output_inception_3a/output_0_split_2
I0403 14:42:56.738837 13556 net.cpp:399] inception_3b/5x5_reduce -> inception_3b/5x5_reduce
I0403 14:42:56.739810 13556 net.cpp:141] Setting up inception_3b/5x5_reduce
I0403 14:42:56.739837 13556 net.cpp:148] Top shape: 24 32 28 28 (602112)
I0403 14:42:56.739852 13556 net.cpp:156] Memory required for data: 727352352
I0403 14:42:56.739871 13556 layer_factory.hpp:77] Creating layer inception_3b/relu_5x5_reduce
I0403 14:42:56.739889 13556 net.cpp:91] Creating Layer inception_3b/relu_5x5_reduce
I0403 14:42:56.739907 13556 net.cpp:425] inception_3b/relu_5x5_reduce <- inception_3b/5x5_reduce
I0403 14:42:56.739923 13556 net.cpp:386] inception_3b/relu_5x5_reduce -> inception_3b/5x5_reduce (in-place)
I0403 14:42:56.740093 13556 net.cpp:141] Setting up inception_3b/relu_5x5_reduce
I0403 14:42:56.740130 13556 net.cpp:148] Top shape: 24 32 28 28 (602112)
I0403 14:42:56.740145 13556 net.cpp:156] Memory required for data: 729760800
I0403 14:42:56.740159 13556 layer_factory.hpp:77] Creating layer inception_3b/5x5
I0403 14:42:56.740180 13556 net.cpp:91] Creating Layer inception_3b/5x5
I0403 14:42:56.740198 13556 net.cpp:425] inception_3b/5x5 <- inception_3b/5x5_reduce
I0403 14:42:56.740218 13556 net.cpp:399] inception_3b/5x5 -> inception_3b/5x5
I0403 14:42:56.742172 13556 net.cpp:141] Setting up inception_3b/5x5
I0403 14:42:56.742202 13556 net.cpp:148] Top shape: 24 96 28 28 (1806336)
I0403 14:42:56.742218 13556 net.cpp:156] Memory required for data: 736986144
I0403 14:42:56.742236 13556 layer_factory.hpp:77] Creating layer inception_3b/relu_5x5
I0403 14:42:56.742254 13556 net.cpp:91] Creating Layer inception_3b/relu_5x5
I0403 14:42:56.742270 13556 net.cpp:425] inception_3b/relu_5x5 <- inception_3b/5x5
I0403 14:42:56.742290 13556 net.cpp:386] inception_3b/relu_5x5 -> inception_3b/5x5 (in-place)
I0403 14:42:56.742478 13556 net.cpp:141] Setting up inception_3b/relu_5x5
I0403 14:42:56.742503 13556 net.cpp:148] Top shape: 24 96 28 28 (1806336)
I0403 14:42:56.742518 13556 net.cpp:156] Memory required for data: 744211488
I0403 14:42:56.742532 13556 layer_factory.hpp:77] Creating layer inception_3b/pool
I0403 14:42:56.742549 13556 net.cpp:91] Creating Layer inception_3b/pool
I0403 14:42:56.742565 13556 net.cpp:425] inception_3b/pool <- inception_3a/output_inception_3a/output_0_split_3
I0403 14:42:56.742588 13556 net.cpp:399] inception_3b/pool -> inception_3b/pool
I0403 14:42:56.742645 13556 net.cpp:141] Setting up inception_3b/pool
I0403 14:42:56.742667 13556 net.cpp:148] Top shape: 24 256 28 28 (4816896)
I0403 14:42:56.742681 13556 net.cpp:156] Memory required for data: 763479072
I0403 14:42:56.742697 13556 layer_factory.hpp:77] Creating layer inception_3b/pool_proj
I0403 14:42:56.742719 13556 net.cpp:91] Creating Layer inception_3b/pool_proj
I0403 14:42:56.742736 13556 net.cpp:425] inception_3b/pool_proj <- inception_3b/pool
I0403 14:42:56.742754 13556 net.cpp:399] inception_3b/pool_proj -> inception_3b/pool_proj
I0403 14:42:56.743796 13556 net.cpp:141] Setting up inception_3b/pool_proj
I0403 14:42:56.743824 13556 net.cpp:148] Top shape: 24 64 28 28 (1204224)
I0403 14:42:56.743839 13556 net.cpp:156] Memory required for data: 768295968
I0403 14:42:56.743856 13556 layer_factory.hpp:77] Creating layer inception_3b/relu_pool_proj
I0403 14:42:56.743875 13556 net.cpp:91] Creating Layer inception_3b/relu_pool_proj
I0403 14:42:56.743893 13556 net.cpp:425] inception_3b/relu_pool_proj <- inception_3b/pool_proj
I0403 14:42:56.743911 13556 net.cpp:386] inception_3b/relu_pool_proj -> inception_3b/pool_proj (in-place)
I0403 14:42:56.744309 13556 net.cpp:141] Setting up inception_3b/relu_pool_proj
I0403 14:42:56.744335 13556 net.cpp:148] Top shape: 24 64 28 28 (1204224)
I0403 14:42:56.744350 13556 net.cpp:156] Memory required for data: 773112864
I0403 14:42:56.744364 13556 layer_factory.hpp:77] Creating layer inception_3b/output
I0403 14:42:56.744385 13556 net.cpp:91] Creating Layer inception_3b/output
I0403 14:42:56.744400 13556 net.cpp:425] inception_3b/output <- inception_3b/1x1
I0403 14:42:56.744416 13556 net.cpp:425] inception_3b/output <- inception_3b/3x3
I0403 14:42:56.744431 13556 net.cpp:425] inception_3b/output <- inception_3b/5x5
I0403 14:42:56.744446 13556 net.cpp:425] inception_3b/output <- inception_3b/pool_proj
I0403 14:42:56.744463 13556 net.cpp:399] inception_3b/output -> inception_3b/output
I0403 14:42:56.744508 13556 net.cpp:141] Setting up inception_3b/output
I0403 14:42:56.744530 13556 net.cpp:148] Top shape: 24 480 28 28 (9031680)
I0403 14:42:56.744545 13556 net.cpp:156] Memory required for data: 809239584
I0403 14:42:56.744559 13556 layer_factory.hpp:77] Creating layer pool3/3x3_s2
I0403 14:42:56.744586 13556 net.cpp:91] Creating Layer pool3/3x3_s2
I0403 14:42:56.744604 13556 net.cpp:425] pool3/3x3_s2 <- inception_3b/output
I0403 14:42:56.744624 13556 net.cpp:399] pool3/3x3_s2 -> pool3/3x3_s2
I0403 14:42:56.744695 13556 net.cpp:141] Setting up pool3/3x3_s2
I0403 14:42:56.744721 13556 net.cpp:148] Top shape: 24 480 14 14 (2257920)
I0403 14:42:56.744736 13556 net.cpp:156] Memory required for data: 818271264
I0403 14:42:56.744750 13556 layer_factory.hpp:77] Creating layer pool3/3x3_s2_pool3/3x3_s2_0_split
I0403 14:42:56.744765 13556 net.cpp:91] Creating Layer pool3/3x3_s2_pool3/3x3_s2_0_split
I0403 14:42:56.744781 13556 net.cpp:425] pool3/3x3_s2_pool3/3x3_s2_0_split <- pool3/3x3_s2
I0403 14:42:56.744797 13556 net.cpp:399] pool3/3x3_s2_pool3/3x3_s2_0_split -> pool3/3x3_s2_pool3/3x3_s2_0_split_0
I0403 14:42:56.744817 13556 net.cpp:399] pool3/3x3_s2_pool3/3x3_s2_0_split -> pool3/3x3_s2_pool3/3x3_s2_0_split_1
I0403 14:42:56.744837 13556 net.cpp:399] pool3/3x3_s2_pool3/3x3_s2_0_split -> pool3/3x3_s2_pool3/3x3_s2_0_split_2
I0403 14:42:56.744856 13556 net.cpp:399] pool3/3x3_s2_pool3/3x3_s2_0_split -> pool3/3x3_s2_pool3/3x3_s2_0_split_3
I0403 14:42:56.744933 13556 net.cpp:141] Setting up pool3/3x3_s2_pool3/3x3_s2_0_split
I0403 14:42:56.744956 13556 net.cpp:148] Top shape: 24 480 14 14 (2257920)
I0403 14:42:56.744972 13556 net.cpp:148] Top shape: 24 480 14 14 (2257920)
I0403 14:42:56.744987 13556 net.cpp:148] Top shape: 24 480 14 14 (2257920)
I0403 14:42:56.745002 13556 net.cpp:148] Top shape: 24 480 14 14 (2257920)
I0403 14:42:56.745015 13556 net.cpp:156] Memory required for data: 854397984
I0403 14:42:56.745029 13556 layer_factory.hpp:77] Creating layer inception_4a/1x1
I0403 14:42:56.745051 13556 net.cpp:91] Creating Layer inception_4a/1x1
I0403 14:42:56.745069 13556 net.cpp:425] inception_4a/1x1 <- pool3/3x3_s2_pool3/3x3_s2_0_split_0
I0403 14:42:56.745090 13556 net.cpp:399] inception_4a/1x1 -> inception_4a/1x1
I0403 14:42:56.746646 13556 net.cpp:141] Setting up inception_4a/1x1
I0403 14:42:56.746675 13556 net.cpp:148] Top shape: 24 192 14 14 (903168)
I0403 14:42:56.746690 13556 net.cpp:156] Memory required for data: 858010656
I0403 14:42:56.746707 13556 layer_factory.hpp:77] Creating layer inception_4a/relu_1x1
I0403 14:42:56.746727 13556 net.cpp:91] Creating Layer inception_4a/relu_1x1
I0403 14:42:56.746743 13556 net.cpp:425] inception_4a/relu_1x1 <- inception_4a/1x1
I0403 14:42:56.746760 13556 net.cpp:386] inception_4a/relu_1x1 -> inception_4a/1x1 (in-place)
I0403 14:42:56.746933 13556 net.cpp:141] Setting up inception_4a/relu_1x1
I0403 14:42:56.746958 13556 net.cpp:148] Top shape: 24 192 14 14 (903168)
I0403 14:42:56.746973 13556 net.cpp:156] Memory required for data: 861623328
I0403 14:42:56.746986 13556 layer_factory.hpp:77] Creating layer inception_4a/3x3_reduce
I0403 14:42:56.747007 13556 net.cpp:91] Creating Layer inception_4a/3x3_reduce
I0403 14:42:56.747025 13556 net.cpp:425] inception_4a/3x3_reduce <- pool3/3x3_s2_pool3/3x3_s2_0_split_1
I0403 14:42:56.747045 13556 net.cpp:399] inception_4a/3x3_reduce -> inception_4a/3x3_reduce
I0403 14:42:56.748307 13556 net.cpp:141] Setting up inception_4a/3x3_reduce
I0403 14:42:56.748337 13556 net.cpp:148] Top shape: 24 96 14 14 (451584)
I0403 14:42:56.748353 13556 net.cpp:156] Memory required for data: 863429664
I0403 14:42:56.748374 13556 layer_factory.hpp:77] Creating layer inception_4a/relu_3x3_reduce
I0403 14:42:56.748395 13556 net.cpp:91] Creating Layer inception_4a/relu_3x3_reduce
I0403 14:42:56.748412 13556 net.cpp:425] inception_4a/relu_3x3_reduce <- inception_4a/3x3_reduce
I0403 14:42:56.748430 13556 net.cpp:386] inception_4a/relu_3x3_reduce -> inception_4a/3x3_reduce (in-place)
I0403 14:42:56.748606 13556 net.cpp:141] Setting up inception_4a/relu_3x3_reduce
I0403 14:42:56.748633 13556 net.cpp:148] Top shape: 24 96 14 14 (451584)
I0403 14:42:56.748648 13556 net.cpp:156] Memory required for data: 865236000
I0403 14:42:56.748662 13556 layer_factory.hpp:77] Creating layer inception_4a/3x3
I0403 14:42:56.748684 13556 net.cpp:91] Creating Layer inception_4a/3x3
I0403 14:42:56.748702 13556 net.cpp:425] inception_4a/3x3 <- inception_4a/3x3_reduce
I0403 14:42:56.748720 13556 net.cpp:399] inception_4a/3x3 -> inception_4a/3x3
I0403 14:42:56.751382 13556 net.cpp:141] Setting up inception_4a/3x3
I0403 14:42:56.751412 13556 net.cpp:148] Top shape: 24 208 14 14 (978432)
I0403 14:42:56.751428 13556 net.cpp:156] Memory required for data: 869149728
I0403 14:42:56.751446 13556 layer_factory.hpp:77] Creating layer inception_4a/relu_3x3
I0403 14:42:56.751463 13556 net.cpp:91] Creating Layer inception_4a/relu_3x3
I0403 14:42:56.751479 13556 net.cpp:425] inception_4a/relu_3x3 <- inception_4a/3x3
I0403 14:42:56.751498 13556 net.cpp:386] inception_4a/relu_3x3 -> inception_4a/3x3 (in-place)
I0403 14:42:56.751780 13556 net.cpp:141] Setting up inception_4a/relu_3x3
I0403 14:42:56.751807 13556 net.cpp:148] Top shape: 24 208 14 14 (978432)
I0403 14:42:56.751823 13556 net.cpp:156] Memory required for data: 873063456
I0403 14:42:56.751838 13556 layer_factory.hpp:77] Creating layer inception_4a/5x5_reduce
I0403 14:42:56.751862 13556 net.cpp:91] Creating Layer inception_4a/5x5_reduce
I0403 14:42:56.751878 13556 net.cpp:425] inception_4a/5x5_reduce <- pool3/3x3_s2_pool3/3x3_s2_0_split_2
I0403 14:42:56.751898 13556 net.cpp:399] inception_4a/5x5_reduce -> inception_4a/5x5_reduce
I0403 14:42:56.752933 13556 net.cpp:141] Setting up inception_4a/5x5_reduce
I0403 14:42:56.752961 13556 net.cpp:148] Top shape: 24 16 14 14 (75264)
I0403 14:42:56.752977 13556 net.cpp:156] Memory required for data: 873364512
I0403 14:42:56.752996 13556 layer_factory.hpp:77] Creating layer inception_4a/relu_5x5_reduce
I0403 14:42:56.753015 13556 net.cpp:91] Creating Layer inception_4a/relu_5x5_reduce
I0403 14:42:56.753034 13556 net.cpp:425] inception_4a/relu_5x5_reduce <- inception_4a/5x5_reduce
I0403 14:42:56.753062 13556 net.cpp:386] inception_4a/relu_5x5_reduce -> inception_4a/5x5_reduce (in-place)
I0403 14:42:56.753238 13556 net.cpp:141] Setting up inception_4a/relu_5x5_reduce
I0403 14:42:56.753265 13556 net.cpp:148] Top shape: 24 16 14 14 (75264)
I0403 14:42:56.753280 13556 net.cpp:156] Memory required for data: 873665568
I0403 14:42:56.753294 13556 layer_factory.hpp:77] Creating layer inception_4a/5x5
I0403 14:42:56.753316 13556 net.cpp:91] Creating Layer inception_4a/5x5
I0403 14:42:56.753334 13556 net.cpp:425] inception_4a/5x5 <- inception_4a/5x5_reduce
I0403 14:42:56.753365 13556 net.cpp:399] inception_4a/5x5 -> inception_4a/5x5
I0403 14:42:56.754413 13556 net.cpp:141] Setting up inception_4a/5x5
I0403 14:42:56.754441 13556 net.cpp:148] Top shape: 24 48 14 14 (225792)
I0403 14:42:56.754454 13556 net.cpp:156] Memory required for data: 874568736
I0403 14:42:56.754472 13556 layer_factory.hpp:77] Creating layer inception_4a/relu_5x5
I0403 14:42:56.754492 13556 net.cpp:91] Creating Layer inception_4a/relu_5x5
I0403 14:42:56.754508 13556 net.cpp:425] inception_4a/relu_5x5 <- inception_4a/5x5
I0403 14:42:56.754523 13556 net.cpp:386] inception_4a/relu_5x5 -> inception_4a/5x5 (in-place)
I0403 14:42:56.754709 13556 net.cpp:141] Setting up inception_4a/relu_5x5
I0403 14:42:56.754735 13556 net.cpp:148] Top shape: 24 48 14 14 (225792)
I0403 14:42:56.754750 13556 net.cpp:156] Memory required for data: 875471904
I0403 14:42:56.754763 13556 layer_factory.hpp:77] Creating layer inception_4a/pool
I0403 14:42:56.754781 13556 net.cpp:91] Creating Layer inception_4a/pool
I0403 14:42:56.754796 13556 net.cpp:425] inception_4a/pool <- pool3/3x3_s2_pool3/3x3_s2_0_split_3
I0403 14:42:56.754814 13556 net.cpp:399] inception_4a/pool -> inception_4a/pool
I0403 14:42:56.754873 13556 net.cpp:141] Setting up inception_4a/pool
I0403 14:42:56.754895 13556 net.cpp:148] Top shape: 24 480 14 14 (2257920)
I0403 14:42:56.754909 13556 net.cpp:156] Memory required for data: 884503584
I0403 14:42:56.754923 13556 layer_factory.hpp:77] Creating layer inception_4a/pool_proj
I0403 14:42:56.754945 13556 net.cpp:91] Creating Layer inception_4a/pool_proj
I0403 14:42:56.754961 13556 net.cpp:425] inception_4a/pool_proj <- inception_4a/pool
I0403 14:42:56.754981 13556 net.cpp:399] inception_4a/pool_proj -> inception_4a/pool_proj
I0403 14:42:56.756103 13556 net.cpp:141] Setting up inception_4a/pool_proj
I0403 14:42:56.756134 13556 net.cpp:148] Top shape: 24 64 14 14 (301056)
I0403 14:42:56.756163 13556 net.cpp:156] Memory required for data: 885707808
I0403 14:42:56.756181 13556 layer_factory.hpp:77] Creating layer inception_4a/relu_pool_proj
I0403 14:42:56.756199 13556 net.cpp:91] Creating Layer inception_4a/relu_pool_proj
I0403 14:42:56.756216 13556 net.cpp:425] inception_4a/relu_pool_proj <- inception_4a/pool_proj
I0403 14:42:56.756232 13556 net.cpp:386] inception_4a/relu_pool_proj -> inception_4a/pool_proj (in-place)
I0403 14:42:56.756502 13556 net.cpp:141] Setting up inception_4a/relu_pool_proj
I0403 14:42:56.756531 13556 net.cpp:148] Top shape: 24 64 14 14 (301056)
I0403 14:42:56.756546 13556 net.cpp:156] Memory required for data: 886912032
I0403 14:42:56.756559 13556 layer_factory.hpp:77] Creating layer inception_4a/output
I0403 14:42:56.756579 13556 net.cpp:91] Creating Layer inception_4a/output
I0403 14:42:56.756597 13556 net.cpp:425] inception_4a/output <- inception_4a/1x1
I0403 14:42:56.756611 13556 net.cpp:425] inception_4a/output <- inception_4a/3x3
I0403 14:42:56.756628 13556 net.cpp:425] inception_4a/output <- inception_4a/5x5
I0403 14:42:56.756642 13556 net.cpp:425] inception_4a/output <- inception_4a/pool_proj
I0403 14:42:56.756659 13556 net.cpp:399] inception_4a/output -> inception_4a/output
I0403 14:42:56.756703 13556 net.cpp:141] Setting up inception_4a/output
I0403 14:42:56.756724 13556 net.cpp:148] Top shape: 24 512 14 14 (2408448)
I0403 14:42:56.756738 13556 net.cpp:156] Memory required for data: 896545824
I0403 14:42:56.756752 13556 layer_factory.hpp:77] Creating layer inception_4a/output_inception_4a/output_0_split
I0403 14:42:56.756768 13556 net.cpp:91] Creating Layer inception_4a/output_inception_4a/output_0_split
I0403 14:42:56.756786 13556 net.cpp:425] inception_4a/output_inception_4a/output_0_split <- inception_4a/output
I0403 14:42:56.756803 13556 net.cpp:399] inception_4a/output_inception_4a/output_0_split -> inception_4a/output_inception_4a/output_0_split_0
I0403 14:42:56.756822 13556 net.cpp:399] inception_4a/output_inception_4a/output_0_split -> inception_4a/output_inception_4a/output_0_split_1
I0403 14:42:56.756841 13556 net.cpp:399] inception_4a/output_inception_4a/output_0_split -> inception_4a/output_inception_4a/output_0_split_2
I0403 14:42:56.756860 13556 net.cpp:399] inception_4a/output_inception_4a/output_0_split -> inception_4a/output_inception_4a/output_0_split_3
I0403 14:42:56.756880 13556 net.cpp:399] inception_4a/output_inception_4a/output_0_split -> inception_4a/output_inception_4a/output_0_split_4
I0403 14:42:56.756973 13556 net.cpp:141] Setting up inception_4a/output_inception_4a/output_0_split
I0403 14:42:56.756995 13556 net.cpp:148] Top shape: 24 512 14 14 (2408448)
I0403 14:42:56.757011 13556 net.cpp:148] Top shape: 24 512 14 14 (2408448)
I0403 14:42:56.757026 13556 net.cpp:148] Top shape: 24 512 14 14 (2408448)
I0403 14:42:56.757040 13556 net.cpp:148] Top shape: 24 512 14 14 (2408448)
I0403 14:42:56.757055 13556 net.cpp:148] Top shape: 24 512 14 14 (2408448)
I0403 14:42:56.757067 13556 net.cpp:156] Memory required for data: 944714784
I0403 14:42:56.757081 13556 layer_factory.hpp:77] Creating layer loss1/ave_pool
I0403 14:42:56.757097 13556 net.cpp:91] Creating Layer loss1/ave_pool
I0403 14:42:56.757112 13556 net.cpp:425] loss1/ave_pool <- inception_4a/output_inception_4a/output_0_split_0
I0403 14:42:56.757129 13556 net.cpp:399] loss1/ave_pool -> loss1/ave_pool
I0403 14:42:56.757324 13556 net.cpp:141] Setting up loss1/ave_pool
I0403 14:42:56.757351 13556 net.cpp:148] Top shape: 24 512 4 4 (196608)
I0403 14:42:56.757366 13556 net.cpp:156] Memory required for data: 945501216
I0403 14:42:56.757380 13556 layer_factory.hpp:77] Creating layer loss1/conv
I0403 14:42:56.757398 13556 net.cpp:91] Creating Layer loss1/conv
I0403 14:42:56.757416 13556 net.cpp:425] loss1/conv <- loss1/ave_pool
I0403 14:42:56.757436 13556 net.cpp:399] loss1/conv -> loss1/conv
I0403 14:42:56.758798 13556 net.cpp:141] Setting up loss1/conv
I0403 14:42:56.758827 13556 net.cpp:148] Top shape: 24 128 4 4 (49152)
I0403 14:42:56.758843 13556 net.cpp:156] Memory required for data: 945697824
I0403 14:42:56.758875 13556 layer_factory.hpp:77] Creating layer loss1/relu_conv
I0403 14:42:56.758894 13556 net.cpp:91] Creating Layer loss1/relu_conv
I0403 14:42:56.758909 13556 net.cpp:425] loss1/relu_conv <- loss1/conv
I0403 14:42:56.758929 13556 net.cpp:386] loss1/relu_conv -> loss1/conv (in-place)
I0403 14:42:56.759199 13556 net.cpp:141] Setting up loss1/relu_conv
I0403 14:42:56.759227 13556 net.cpp:148] Top shape: 24 128 4 4 (49152)
I0403 14:42:56.759241 13556 net.cpp:156] Memory required for data: 945894432
I0403 14:42:56.759256 13556 layer_factory.hpp:77] Creating layer loss1/fc
I0403 14:42:56.759297 13556 net.cpp:91] Creating Layer loss1/fc
I0403 14:42:56.759316 13556 net.cpp:425] loss1/fc <- loss1/conv
I0403 14:42:56.759336 13556 net.cpp:399] loss1/fc -> loss1/fc
I0403 14:42:56.777019 13556 net.cpp:141] Setting up loss1/fc
I0403 14:42:56.777058 13556 net.cpp:148] Top shape: 24 1024 (24576)
I0403 14:42:56.777073 13556 net.cpp:156] Memory required for data: 945992736
I0403 14:42:56.777092 13556 layer_factory.hpp:77] Creating layer loss1/relu_fc
I0403 14:42:56.777112 13556 net.cpp:91] Creating Layer loss1/relu_fc
I0403 14:42:56.777130 13556 net.cpp:425] loss1/relu_fc <- loss1/fc
I0403 14:42:56.777148 13556 net.cpp:386] loss1/relu_fc -> loss1/fc (in-place)
I0403 14:42:56.777340 13556 net.cpp:141] Setting up loss1/relu_fc
I0403 14:42:56.777364 13556 net.cpp:148] Top shape: 24 1024 (24576)
I0403 14:42:56.777379 13556 net.cpp:156] Memory required for data: 946091040
I0403 14:42:56.777393 13556 layer_factory.hpp:77] Creating layer loss1/drop_fc
I0403 14:42:56.777422 13556 net.cpp:91] Creating Layer loss1/drop_fc
I0403 14:42:56.777441 13556 net.cpp:425] loss1/drop_fc <- loss1/fc
I0403 14:42:56.777459 13556 net.cpp:386] loss1/drop_fc -> loss1/fc (in-place)
I0403 14:42:56.777510 13556 net.cpp:141] Setting up loss1/drop_fc
I0403 14:42:56.777534 13556 net.cpp:148] Top shape: 24 1024 (24576)
I0403 14:42:56.777547 13556 net.cpp:156] Memory required for data: 946189344
I0403 14:42:56.777562 13556 layer_factory.hpp:77] Creating layer loss1/classifier_plantvillage
I0403 14:42:56.777590 13556 net.cpp:91] Creating Layer loss1/classifier_plantvillage
I0403 14:42:56.777606 13556 net.cpp:425] loss1/classifier_plantvillage <- loss1/fc
I0403 14:42:56.777624 13556 net.cpp:399] loss1/classifier_plantvillage -> loss1/classifier_plantvillage
I0403 14:42:56.778535 13556 net.cpp:141] Setting up loss1/classifier_plantvillage
I0403 14:42:56.778565 13556 net.cpp:148] Top shape: 24 38 (912)
I0403 14:42:56.778586 13556 net.cpp:156] Memory required for data: 946192992
I0403 14:42:56.778605 13556 layer_factory.hpp:77] Creating layer loss1/classifier_plantvillage_loss1/classifier_plantvillage_0_split
I0403 14:42:56.778625 13556 net.cpp:91] Creating Layer loss1/classifier_plantvillage_loss1/classifier_plantvillage_0_split
I0403 14:42:56.778640 13556 net.cpp:425] loss1/classifier_plantvillage_loss1/classifier_plantvillage_0_split <- loss1/classifier_plantvillage
I0403 14:42:56.778659 13556 net.cpp:399] loss1/classifier_plantvillage_loss1/classifier_plantvillage_0_split -> loss1/classifier_plantvillage_loss1/classifier_plantvillage_0_split_0
I0403 14:42:56.778681 13556 net.cpp:399] loss1/classifier_plantvillage_loss1/classifier_plantvillage_0_split -> loss1/classifier_plantvillage_loss1/classifier_plantvillage_0_split_1
I0403 14:42:56.778700 13556 net.cpp:399] loss1/classifier_plantvillage_loss1/classifier_plantvillage_0_split -> loss1/classifier_plantvillage_loss1/classifier_plantvillage_0_split_2
I0403 14:42:56.778767 13556 net.cpp:141] Setting up loss1/classifier_plantvillage_loss1/classifier_plantvillage_0_split
I0403 14:42:56.778790 13556 net.cpp:148] Top shape: 24 38 (912)
I0403 14:42:56.778806 13556 net.cpp:148] Top shape: 24 38 (912)
I0403 14:42:56.778821 13556 net.cpp:148] Top shape: 24 38 (912)
I0403 14:42:56.778834 13556 net.cpp:156] Memory required for data: 946203936
I0403 14:42:56.778847 13556 layer_factory.hpp:77] Creating layer inception_4b/1x1
I0403 14:42:56.778870 13556 net.cpp:91] Creating Layer inception_4b/1x1
I0403 14:42:56.778908 13556 net.cpp:425] inception_4b/1x1 <- inception_4a/output_inception_4a/output_0_split_1
I0403 14:42:56.778928 13556 net.cpp:399] inception_4b/1x1 -> inception_4b/1x1
I0403 14:42:56.780649 13556 net.cpp:141] Setting up inception_4b/1x1
I0403 14:42:56.780678 13556 net.cpp:148] Top shape: 24 160 14 14 (752640)
I0403 14:42:56.780692 13556 net.cpp:156] Memory required for data: 949214496
I0403 14:42:56.780710 13556 layer_factory.hpp:77] Creating layer inception_4b/relu_1x1
I0403 14:42:56.780727 13556 net.cpp:91] Creating Layer inception_4b/relu_1x1
I0403 14:42:56.780743 13556 net.cpp:425] inception_4b/relu_1x1 <- inception_4b/1x1
I0403 14:42:56.780762 13556 net.cpp:386] inception_4b/relu_1x1 -> inception_4b/1x1 (in-place)
I0403 14:42:56.780941 13556 net.cpp:141] Setting up inception_4b/relu_1x1
I0403 14:42:56.780966 13556 net.cpp:148] Top shape: 24 160 14 14 (752640)
I0403 14:42:56.780978 13556 net.cpp:156] Memory required for data: 952225056
I0403 14:42:56.780993 13556 layer_factory.hpp:77] Creating layer inception_4b/3x3_reduce
I0403 14:42:56.781016 13556 net.cpp:91] Creating Layer inception_4b/3x3_reduce
I0403 14:42:56.781034 13556 net.cpp:425] inception_4b/3x3_reduce <- inception_4a/output_inception_4a/output_0_split_2
I0403 14:42:56.781057 13556 net.cpp:399] inception_4b/3x3_reduce -> inception_4b/3x3_reduce
I0403 14:42:56.782410 13556 net.cpp:141] Setting up inception_4b/3x3_reduce
I0403 14:42:56.782438 13556 net.cpp:148] Top shape: 24 112 14 14 (526848)
I0403 14:42:56.782454 13556 net.cpp:156] Memory required for data: 954332448
I0403 14:42:56.782471 13556 layer_factory.hpp:77] Creating layer inception_4b/relu_3x3_reduce
I0403 14:42:56.782493 13556 net.cpp:91] Creating Layer inception_4b/relu_3x3_reduce
I0403 14:42:56.782510 13556 net.cpp:425] inception_4b/relu_3x3_reduce <- inception_4b/3x3_reduce
I0403 14:42:56.782527 13556 net.cpp:386] inception_4b/relu_3x3_reduce -> inception_4b/3x3_reduce (in-place)
I0403 14:42:56.782816 13556 net.cpp:141] Setting up inception_4b/relu_3x3_reduce
I0403 14:42:56.782842 13556 net.cpp:148] Top shape: 24 112 14 14 (526848)
I0403 14:42:56.782857 13556 net.cpp:156] Memory required for data: 956439840
I0403 14:42:56.782872 13556 layer_factory.hpp:77] Creating layer inception_4b/3x3
I0403 14:42:56.782894 13556 net.cpp:91] Creating Layer inception_4b/3x3
I0403 14:42:56.782912 13556 net.cpp:425] inception_4b/3x3 <- inception_4b/3x3_reduce
I0403 14:42:56.782932 13556 net.cpp:399] inception_4b/3x3 -> inception_4b/3x3
I0403 14:42:56.786049 13556 net.cpp:141] Setting up inception_4b/3x3
I0403 14:42:56.786079 13556 net.cpp:148] Top shape: 24 224 14 14 (1053696)
I0403 14:42:56.786095 13556 net.cpp:156] Memory required for data: 960654624
I0403 14:42:56.786116 13556 layer_factory.hpp:77] Creating layer inception_4b/relu_3x3
I0403 14:42:56.786136 13556 net.cpp:91] Creating Layer inception_4b/relu_3x3
I0403 14:42:56.786154 13556 net.cpp:425] inception_4b/relu_3x3 <- inception_4b/3x3
I0403 14:42:56.786170 13556 net.cpp:386] inception_4b/relu_3x3 -> inception_4b/3x3 (in-place)
I0403 14:42:56.786361 13556 net.cpp:141] Setting up inception_4b/relu_3x3
I0403 14:42:56.786387 13556 net.cpp:148] Top shape: 24 224 14 14 (1053696)
I0403 14:42:56.786402 13556 net.cpp:156] Memory required for data: 964869408
I0403 14:42:56.786417 13556 layer_factory.hpp:77] Creating layer inception_4b/5x5_reduce
I0403 14:42:56.786439 13556 net.cpp:91] Creating Layer inception_4b/5x5_reduce
I0403 14:42:56.786456 13556 net.cpp:425] inception_4b/5x5_reduce <- inception_4a/output_inception_4a/output_0_split_3
I0403 14:42:56.786479 13556 net.cpp:399] inception_4b/5x5_reduce -> inception_4b/5x5_reduce
I0403 14:42:56.787598 13556 net.cpp:141] Setting up inception_4b/5x5_reduce
I0403 14:42:56.787626 13556 net.cpp:148] Top shape: 24 24 14 14 (112896)
I0403 14:42:56.787642 13556 net.cpp:156] Memory required for data: 965320992
I0403 14:42:56.787659 13556 layer_factory.hpp:77] Creating layer inception_4b/relu_5x5_reduce
I0403 14:42:56.787678 13556 net.cpp:91] Creating Layer inception_4b/relu_5x5_reduce
I0403 14:42:56.787710 13556 net.cpp:425] inception_4b/relu_5x5_reduce <- inception_4b/5x5_reduce
I0403 14:42:56.787732 13556 net.cpp:386] inception_4b/relu_5x5_reduce -> inception_4b/5x5_reduce (in-place)
I0403 14:42:56.787919 13556 net.cpp:141] Setting up inception_4b/relu_5x5_reduce
I0403 14:42:56.787945 13556 net.cpp:148] Top shape: 24 24 14 14 (112896)
I0403 14:42:56.787958 13556 net.cpp:156] Memory required for data: 965772576
I0403 14:42:56.787973 13556 layer_factory.hpp:77] Creating layer inception_4b/5x5
I0403 14:42:56.787995 13556 net.cpp:91] Creating Layer inception_4b/5x5
I0403 14:42:56.788012 13556 net.cpp:425] inception_4b/5x5 <- inception_4b/5x5_reduce
I0403 14:42:56.788033 13556 net.cpp:399] inception_4b/5x5 -> inception_4b/5x5
I0403 14:42:56.789301 13556 net.cpp:141] Setting up inception_4b/5x5
I0403 14:42:56.789330 13556 net.cpp:148] Top shape: 24 64 14 14 (301056)
I0403 14:42:56.789345 13556 net.cpp:156] Memory required for data: 966976800
I0403 14:42:56.789363 13556 layer_factory.hpp:77] Creating layer inception_4b/relu_5x5
I0403 14:42:56.789383 13556 net.cpp:91] Creating Layer inception_4b/relu_5x5
I0403 14:42:56.789399 13556 net.cpp:425] inception_4b/relu_5x5 <- inception_4b/5x5
I0403 14:42:56.789419 13556 net.cpp:386] inception_4b/relu_5x5 -> inception_4b/5x5 (in-place)
I0403 14:42:56.789718 13556 net.cpp:141] Setting up inception_4b/relu_5x5
I0403 14:42:56.789746 13556 net.cpp:148] Top shape: 24 64 14 14 (301056)
I0403 14:42:56.789760 13556 net.cpp:156] Memory required for data: 968181024
I0403 14:42:56.789775 13556 layer_factory.hpp:77] Creating layer inception_4b/pool
I0403 14:42:56.789794 13556 net.cpp:91] Creating Layer inception_4b/pool
I0403 14:42:56.789811 13556 net.cpp:425] inception_4b/pool <- inception_4a/output_inception_4a/output_0_split_4
I0403 14:42:56.789831 13556 net.cpp:399] inception_4b/pool -> inception_4b/pool
I0403 14:42:56.789897 13556 net.cpp:141] Setting up inception_4b/pool
I0403 14:42:56.789924 13556 net.cpp:148] Top shape: 24 512 14 14 (2408448)
I0403 14:42:56.789940 13556 net.cpp:156] Memory required for data: 977814816
I0403 14:42:56.789954 13556 layer_factory.hpp:77] Creating layer inception_4b/pool_proj
I0403 14:42:56.789978 13556 net.cpp:91] Creating Layer inception_4b/pool_proj
I0403 14:42:56.789995 13556 net.cpp:425] inception_4b/pool_proj <- inception_4b/pool
I0403 14:42:56.790014 13556 net.cpp:399] inception_4b/pool_proj -> inception_4b/pool_proj
I0403 14:42:56.791263 13556 net.cpp:141] Setting up inception_4b/pool_proj
I0403 14:42:56.791291 13556 net.cpp:148] Top shape: 24 64 14 14 (301056)
I0403 14:42:56.791309 13556 net.cpp:156] Memory required for data: 979019040
I0403 14:42:56.791328 13556 layer_factory.hpp:77] Creating layer inception_4b/relu_pool_proj
I0403 14:42:56.791348 13556 net.cpp:91] Creating Layer inception_4b/relu_pool_proj
I0403 14:42:56.791365 13556 net.cpp:425] inception_4b/relu_pool_proj <- inception_4b/pool_proj
I0403 14:42:56.791383 13556 net.cpp:386] inception_4b/relu_pool_proj -> inception_4b/pool_proj (in-place)
I0403 14:42:56.791570 13556 net.cpp:141] Setting up inception_4b/relu_pool_proj
I0403 14:42:56.791599 13556 net.cpp:148] Top shape: 24 64 14 14 (301056)
I0403 14:42:56.791615 13556 net.cpp:156] Memory required for data: 980223264
I0403 14:42:56.791628 13556 layer_factory.hpp:77] Creating layer inception_4b/output
I0403 14:42:56.791648 13556 net.cpp:91] Creating Layer inception_4b/output
I0403 14:42:56.791664 13556 net.cpp:425] inception_4b/output <- inception_4b/1x1
I0403 14:42:56.791682 13556 net.cpp:425] inception_4b/output <- inception_4b/3x3
I0403 14:42:56.791697 13556 net.cpp:425] inception_4b/output <- inception_4b/5x5
I0403 14:42:56.791713 13556 net.cpp:425] inception_4b/output <- inception_4b/pool_proj
I0403 14:42:56.791730 13556 net.cpp:399] inception_4b/output -> inception_4b/output
I0403 14:42:56.791779 13556 net.cpp:141] Setting up inception_4b/output
I0403 14:42:56.791802 13556 net.cpp:148] Top shape: 24 512 14 14 (2408448)
I0403 14:42:56.791816 13556 net.cpp:156] Memory required for data: 989857056
I0403 14:42:56.791846 13556 layer_factory.hpp:77] Creating layer inception_4b/output_inception_4b/output_0_split
I0403 14:42:56.791864 13556 net.cpp:91] Creating Layer inception_4b/output_inception_4b/output_0_split
I0403 14:42:56.791880 13556 net.cpp:425] inception_4b/output_inception_4b/output_0_split <- inception_4b/output
I0403 14:42:56.791900 13556 net.cpp:399] inception_4b/output_inception_4b/output_0_split -> inception_4b/output_inception_4b/output_0_split_0
I0403 14:42:56.791921 13556 net.cpp:399] inception_4b/output_inception_4b/output_0_split -> inception_4b/output_inception_4b/output_0_split_1
I0403 14:42:56.791942 13556 net.cpp:399] inception_4b/output_inception_4b/output_0_split -> inception_4b/output_inception_4b/output_0_split_2
I0403 14:42:56.791963 13556 net.cpp:399] inception_4b/output_inception_4b/output_0_split -> inception_4b/output_inception_4b/output_0_split_3
I0403 14:42:56.792050 13556 net.cpp:141] Setting up inception_4b/output_inception_4b/output_0_split
I0403 14:42:56.792076 13556 net.cpp:148] Top shape: 24 512 14 14 (2408448)
I0403 14:42:56.792093 13556 net.cpp:148] Top shape: 24 512 14 14 (2408448)
I0403 14:42:56.792109 13556 net.cpp:148] Top shape: 24 512 14 14 (2408448)
I0403 14:42:56.792124 13556 net.cpp:148] Top shape: 24 512 14 14 (2408448)
I0403 14:42:56.792138 13556 net.cpp:156] Memory required for data: 1028392224
I0403 14:42:56.792152 13556 layer_factory.hpp:77] Creating layer inception_4c/1x1
I0403 14:42:56.792174 13556 net.cpp:91] Creating Layer inception_4c/1x1
I0403 14:42:56.792192 13556 net.cpp:425] inception_4c/1x1 <- inception_4b/output_inception_4b/output_0_split_0
I0403 14:42:56.792212 13556 net.cpp:399] inception_4c/1x1 -> inception_4c/1x1
I0403 14:42:56.793696 13556 net.cpp:141] Setting up inception_4c/1x1
I0403 14:42:56.793725 13556 net.cpp:148] Top shape: 24 128 14 14 (602112)
I0403 14:42:56.793740 13556 net.cpp:156] Memory required for data: 1030800672
I0403 14:42:56.793759 13556 layer_factory.hpp:77] Creating layer inception_4c/relu_1x1
I0403 14:42:56.793781 13556 net.cpp:91] Creating Layer inception_4c/relu_1x1
I0403 14:42:56.793799 13556 net.cpp:425] inception_4c/relu_1x1 <- inception_4c/1x1
I0403 14:42:56.793817 13556 net.cpp:386] inception_4c/relu_1x1 -> inception_4c/1x1 (in-place)
I0403 14:42:56.794000 13556 net.cpp:141] Setting up inception_4c/relu_1x1
I0403 14:42:56.794028 13556 net.cpp:148] Top shape: 24 128 14 14 (602112)
I0403 14:42:56.794042 13556 net.cpp:156] Memory required for data: 1033209120
I0403 14:42:56.794057 13556 layer_factory.hpp:77] Creating layer inception_4c/3x3_reduce
I0403 14:42:56.794080 13556 net.cpp:91] Creating Layer inception_4c/3x3_reduce
I0403 14:42:56.794100 13556 net.cpp:425] inception_4c/3x3_reduce <- inception_4b/output_inception_4b/output_0_split_1
I0403 14:42:56.794121 13556 net.cpp:399] inception_4c/3x3_reduce -> inception_4c/3x3_reduce
I0403 14:42:56.796139 13556 net.cpp:141] Setting up inception_4c/3x3_reduce
I0403 14:42:56.796167 13556 net.cpp:148] Top shape: 24 128 14 14 (602112)
I0403 14:42:56.796183 13556 net.cpp:156] Memory required for data: 1035617568
I0403 14:42:56.796202 13556 layer_factory.hpp:77] Creating layer inception_4c/relu_3x3_reduce
I0403 14:42:56.796221 13556 net.cpp:91] Creating Layer inception_4c/relu_3x3_reduce
I0403 14:42:56.796237 13556 net.cpp:425] inception_4c/relu_3x3_reduce <- inception_4c/3x3_reduce
I0403 14:42:56.796257 13556 net.cpp:386] inception_4c/relu_3x3_reduce -> inception_4c/3x3_reduce (in-place)
I0403 14:42:56.796560 13556 net.cpp:141] Setting up inception_4c/relu_3x3_reduce
I0403 14:42:56.796591 13556 net.cpp:148] Top shape: 24 128 14 14 (602112)
I0403 14:42:56.796607 13556 net.cpp:156] Memory required for data: 1038026016
I0403 14:42:56.796622 13556 layer_factory.hpp:77] Creating layer inception_4c/3x3
I0403 14:42:56.796644 13556 net.cpp:91] Creating Layer inception_4c/3x3
I0403 14:42:56.796663 13556 net.cpp:425] inception_4c/3x3 <- inception_4c/3x3_reduce
I0403 14:42:56.796684 13556 net.cpp:399] inception_4c/3x3 -> inception_4c/3x3
I0403 14:42:56.800406 13556 net.cpp:141] Setting up inception_4c/3x3
I0403 14:42:56.800448 13556 net.cpp:148] Top shape: 24 256 14 14 (1204224)
I0403 14:42:56.800465 13556 net.cpp:156] Memory required for data: 1042842912
I0403 14:42:56.800498 13556 layer_factory.hpp:77] Creating layer inception_4c/relu_3x3
I0403 14:42:56.800521 13556 net.cpp:91] Creating Layer inception_4c/relu_3x3
I0403 14:42:56.800539 13556 net.cpp:425] inception_4c/relu_3x3 <- inception_4c/3x3
I0403 14:42:56.800556 13556 net.cpp:386] inception_4c/relu_3x3 -> inception_4c/3x3 (in-place)
I0403 14:42:56.800750 13556 net.cpp:141] Setting up inception_4c/relu_3x3
I0403 14:42:56.800775 13556 net.cpp:148] Top shape: 24 256 14 14 (1204224)
I0403 14:42:56.800791 13556 net.cpp:156] Memory required for data: 1047659808
I0403 14:42:56.800804 13556 layer_factory.hpp:77] Creating layer inception_4c/5x5_reduce
I0403 14:42:56.800827 13556 net.cpp:91] Creating Layer inception_4c/5x5_reduce
I0403 14:42:56.800846 13556 net.cpp:425] inception_4c/5x5_reduce <- inception_4b/output_inception_4b/output_0_split_2
I0403 14:42:56.800870 13556 net.cpp:399] inception_4c/5x5_reduce -> inception_4c/5x5_reduce
I0403 14:42:56.801998 13556 net.cpp:141] Setting up inception_4c/5x5_reduce
I0403 14:42:56.802026 13556 net.cpp:148] Top shape: 24 24 14 14 (112896)
I0403 14:42:56.802042 13556 net.cpp:156] Memory required for data: 1048111392
I0403 14:42:56.802062 13556 layer_factory.hpp:77] Creating layer inception_4c/relu_5x5_reduce
I0403 14:42:56.802079 13556 net.cpp:91] Creating Layer inception_4c/relu_5x5_reduce
I0403 14:42:56.802095 13556 net.cpp:425] inception_4c/relu_5x5_reduce <- inception_4c/5x5_reduce
I0403 14:42:56.802115 13556 net.cpp:386] inception_4c/relu_5x5_reduce -> inception_4c/5x5_reduce (in-place)
I0403 14:42:56.802316 13556 net.cpp:141] Setting up inception_4c/relu_5x5_reduce
I0403 14:42:56.802342 13556 net.cpp:148] Top shape: 24 24 14 14 (112896)
I0403 14:42:56.802357 13556 net.cpp:156] Memory required for data: 1048562976
I0403 14:42:56.802372 13556 layer_factory.hpp:77] Creating layer inception_4c/5x5
I0403 14:42:56.802395 13556 net.cpp:91] Creating Layer inception_4c/5x5
I0403 14:42:56.802414 13556 net.cpp:425] inception_4c/5x5 <- inception_4c/5x5_reduce
I0403 14:42:56.802436 13556 net.cpp:399] inception_4c/5x5 -> inception_4c/5x5
I0403 14:42:56.803728 13556 net.cpp:141] Setting up inception_4c/5x5
I0403 14:42:56.803755 13556 net.cpp:148] Top shape: 24 64 14 14 (301056)
I0403 14:42:56.803771 13556 net.cpp:156] Memory required for data: 1049767200
I0403 14:42:56.803788 13556 layer_factory.hpp:77] Creating layer inception_4c/relu_5x5
I0403 14:42:56.803808 13556 net.cpp:91] Creating Layer inception_4c/relu_5x5
I0403 14:42:56.803825 13556 net.cpp:425] inception_4c/relu_5x5 <- inception_4c/5x5
I0403 14:42:56.803843 13556 net.cpp:386] inception_4c/relu_5x5 -> inception_4c/5x5 (in-place)
I0403 14:42:56.804127 13556 net.cpp:141] Setting up inception_4c/relu_5x5
I0403 14:42:56.804153 13556 net.cpp:148] Top shape: 24 64 14 14 (301056)
I0403 14:42:56.804168 13556 net.cpp:156] Memory required for data: 1050971424
I0403 14:42:56.804183 13556 layer_factory.hpp:77] Creating layer inception_4c/pool
I0403 14:42:56.804201 13556 net.cpp:91] Creating Layer inception_4c/pool
I0403 14:42:56.804217 13556 net.cpp:425] inception_4c/pool <- inception_4b/output_inception_4b/output_0_split_3
I0403 14:42:56.804235 13556 net.cpp:399] inception_4c/pool -> inception_4c/pool
I0403 14:42:56.804303 13556 net.cpp:141] Setting up inception_4c/pool
I0403 14:42:56.804327 13556 net.cpp:148] Top shape: 24 512 14 14 (2408448)
I0403 14:42:56.804340 13556 net.cpp:156] Memory required for data: 1060605216
I0403 14:42:56.804354 13556 layer_factory.hpp:77] Creating layer inception_4c/pool_proj
I0403 14:42:56.804376 13556 net.cpp:91] Creating Layer inception_4c/pool_proj
I0403 14:42:56.804394 13556 net.cpp:425] inception_4c/pool_proj <- inception_4c/pool
I0403 14:42:56.804417 13556 net.cpp:399] inception_4c/pool_proj -> inception_4c/pool_proj
I0403 14:42:56.805647 13556 net.cpp:141] Setting up inception_4c/pool_proj
I0403 14:42:56.805675 13556 net.cpp:148] Top shape: 24 64 14 14 (301056)
I0403 14:42:56.805706 13556 net.cpp:156] Memory required for data: 1061809440
I0403 14:42:56.805724 13556 layer_factory.hpp:77] Creating layer inception_4c/relu_pool_proj
I0403 14:42:56.805750 13556 net.cpp:91] Creating Layer inception_4c/relu_pool_proj
I0403 14:42:56.805778 13556 net.cpp:425] inception_4c/relu_pool_proj <- inception_4c/pool_proj
I0403 14:42:56.805801 13556 net.cpp:386] inception_4c/relu_pool_proj -> inception_4c/pool_proj (in-place)
I0403 14:42:56.805989 13556 net.cpp:141] Setting up inception_4c/relu_pool_proj
I0403 14:42:56.806015 13556 net.cpp:148] Top shape: 24 64 14 14 (301056)
I0403 14:42:56.806030 13556 net.cpp:156] Memory required for data: 1063013664
I0403 14:42:56.806044 13556 layer_factory.hpp:77] Creating layer inception_4c/output
I0403 14:42:56.806063 13556 net.cpp:91] Creating Layer inception_4c/output
I0403 14:42:56.806080 13556 net.cpp:425] inception_4c/output <- inception_4c/1x1
I0403 14:42:56.806097 13556 net.cpp:425] inception_4c/output <- inception_4c/3x3
I0403 14:42:56.806112 13556 net.cpp:425] inception_4c/output <- inception_4c/5x5
I0403 14:42:56.806128 13556 net.cpp:425] inception_4c/output <- inception_4c/pool_proj
I0403 14:42:56.806143 13556 net.cpp:399] inception_4c/output -> inception_4c/output
I0403 14:42:56.806191 13556 net.cpp:141] Setting up inception_4c/output
I0403 14:42:56.806216 13556 net.cpp:148] Top shape: 24 512 14 14 (2408448)
I0403 14:42:56.806229 13556 net.cpp:156] Memory required for data: 1072647456
I0403 14:42:56.806243 13556 layer_factory.hpp:77] Creating layer inception_4c/output_inception_4c/output_0_split
I0403 14:42:56.806260 13556 net.cpp:91] Creating Layer inception_4c/output_inception_4c/output_0_split
I0403 14:42:56.806277 13556 net.cpp:425] inception_4c/output_inception_4c/output_0_split <- inception_4c/output
I0403 14:42:56.806295 13556 net.cpp:399] inception_4c/output_inception_4c/output_0_split -> inception_4c/output_inception_4c/output_0_split_0
I0403 14:42:56.806315 13556 net.cpp:399] inception_4c/output_inception_4c/output_0_split -> inception_4c/output_inception_4c/output_0_split_1
I0403 14:42:56.806335 13556 net.cpp:399] inception_4c/output_inception_4c/output_0_split -> inception_4c/output_inception_4c/output_0_split_2
I0403 14:42:56.806355 13556 net.cpp:399] inception_4c/output_inception_4c/output_0_split -> inception_4c/output_inception_4c/output_0_split_3
I0403 14:42:56.806442 13556 net.cpp:141] Setting up inception_4c/output_inception_4c/output_0_split
I0403 14:42:56.806468 13556 net.cpp:148] Top shape: 24 512 14 14 (2408448)
I0403 14:42:56.806485 13556 net.cpp:148] Top shape: 24 512 14 14 (2408448)
I0403 14:42:56.806501 13556 net.cpp:148] Top shape: 24 512 14 14 (2408448)
I0403 14:42:56.806516 13556 net.cpp:148] Top shape: 24 512 14 14 (2408448)
I0403 14:42:56.806529 13556 net.cpp:156] Memory required for data: 1111182624
I0403 14:42:56.806543 13556 layer_factory.hpp:77] Creating layer inception_4d/1x1
I0403 14:42:56.806565 13556 net.cpp:91] Creating Layer inception_4d/1x1
I0403 14:42:56.806586 13556 net.cpp:425] inception_4d/1x1 <- inception_4c/output_inception_4c/output_0_split_0
I0403 14:42:56.806605 13556 net.cpp:399] inception_4d/1x1 -> inception_4d/1x1
I0403 14:42:56.807986 13556 net.cpp:141] Setting up inception_4d/1x1
I0403 14:42:56.808015 13556 net.cpp:148] Top shape: 24 112 14 14 (526848)
I0403 14:42:56.808032 13556 net.cpp:156] Memory required for data: 1113290016
I0403 14:42:56.808049 13556 layer_factory.hpp:77] Creating layer inception_4d/relu_1x1
I0403 14:42:56.808066 13556 net.cpp:91] Creating Layer inception_4d/relu_1x1
I0403 14:42:56.808082 13556 net.cpp:425] inception_4d/relu_1x1 <- inception_4d/1x1
I0403 14:42:56.808101 13556 net.cpp:386] inception_4d/relu_1x1 -> inception_4d/1x1 (in-place)
I0403 14:42:56.808292 13556 net.cpp:141] Setting up inception_4d/relu_1x1
I0403 14:42:56.808323 13556 net.cpp:148] Top shape: 24 112 14 14 (526848)
I0403 14:42:56.808336 13556 net.cpp:156] Memory required for data: 1115397408
I0403 14:42:56.808351 13556 layer_factory.hpp:77] Creating layer inception_4d/3x3_reduce
I0403 14:42:56.808385 13556 net.cpp:91] Creating Layer inception_4d/3x3_reduce
I0403 14:42:56.808403 13556 net.cpp:425] inception_4d/3x3_reduce <- inception_4c/output_inception_4c/output_0_split_1
I0403 14:42:56.808425 13556 net.cpp:399] inception_4d/3x3_reduce -> inception_4d/3x3_reduce
I0403 14:42:56.809897 13556 net.cpp:141] Setting up inception_4d/3x3_reduce
I0403 14:42:56.809923 13556 net.cpp:148] Top shape: 24 144 14 14 (677376)
I0403 14:42:56.809938 13556 net.cpp:156] Memory required for data: 1118106912
I0403 14:42:56.809955 13556 layer_factory.hpp:77] Creating layer inception_4d/relu_3x3_reduce
I0403 14:42:56.809975 13556 net.cpp:91] Creating Layer inception_4d/relu_3x3_reduce
I0403 14:42:56.809991 13556 net.cpp:425] inception_4d/relu_3x3_reduce <- inception_4d/3x3_reduce
I0403 14:42:56.810009 13556 net.cpp:386] inception_4d/relu_3x3_reduce -> inception_4d/3x3_reduce (in-place)
I0403 14:42:56.810289 13556 net.cpp:141] Setting up inception_4d/relu_3x3_reduce
I0403 14:42:56.810314 13556 net.cpp:148] Top shape: 24 144 14 14 (677376)
I0403 14:42:56.810329 13556 net.cpp:156] Memory required for data: 1120816416
I0403 14:42:56.810343 13556 layer_factory.hpp:77] Creating layer inception_4d/3x3
I0403 14:42:56.810364 13556 net.cpp:91] Creating Layer inception_4d/3x3
I0403 14:42:56.810380 13556 net.cpp:425] inception_4d/3x3 <- inception_4d/3x3_reduce
I0403 14:42:56.810400 13556 net.cpp:399] inception_4d/3x3 -> inception_4d/3x3
I0403 14:42:56.814539 13556 net.cpp:141] Setting up inception_4d/3x3
I0403 14:42:56.814579 13556 net.cpp:148] Top shape: 24 288 14 14 (1354752)
I0403 14:42:56.814597 13556 net.cpp:156] Memory required for data: 1126235424
I0403 14:42:56.814615 13556 layer_factory.hpp:77] Creating layer inception_4d/relu_3x3
I0403 14:42:56.814631 13556 net.cpp:91] Creating Layer inception_4d/relu_3x3
I0403 14:42:56.814647 13556 net.cpp:425] inception_4d/relu_3x3 <- inception_4d/3x3
I0403 14:42:56.814666 13556 net.cpp:386] inception_4d/relu_3x3 -> inception_4d/3x3 (in-place)
I0403 14:42:56.814844 13556 net.cpp:141] Setting up inception_4d/relu_3x3
I0403 14:42:56.814867 13556 net.cpp:148] Top shape: 24 288 14 14 (1354752)
I0403 14:42:56.814882 13556 net.cpp:156] Memory required for data: 1131654432
I0403 14:42:56.814895 13556 layer_factory.hpp:77] Creating layer inception_4d/5x5_reduce
I0403 14:42:56.814916 13556 net.cpp:91] Creating Layer inception_4d/5x5_reduce
I0403 14:42:56.814934 13556 net.cpp:425] inception_4d/5x5_reduce <- inception_4c/output_inception_4c/output_0_split_2
I0403 14:42:56.814955 13556 net.cpp:399] inception_4d/5x5_reduce -> inception_4d/5x5_reduce
I0403 14:42:56.816074 13556 net.cpp:141] Setting up inception_4d/5x5_reduce
I0403 14:42:56.816102 13556 net.cpp:148] Top shape: 24 32 14 14 (150528)
I0403 14:42:56.816118 13556 net.cpp:156] Memory required for data: 1132256544
I0403 14:42:56.816136 13556 layer_factory.hpp:77] Creating layer inception_4d/relu_5x5_reduce
I0403 14:42:56.816154 13556 net.cpp:91] Creating Layer inception_4d/relu_5x5_reduce
I0403 14:42:56.816169 13556 net.cpp:425] inception_4d/relu_5x5_reduce <- inception_4d/5x5_reduce
I0403 14:42:56.816186 13556 net.cpp:386] inception_4d/relu_5x5_reduce -> inception_4d/5x5_reduce (in-place)
I0403 14:42:56.816370 13556 net.cpp:141] Setting up inception_4d/relu_5x5_reduce
I0403 14:42:56.816393 13556 net.cpp:148] Top shape: 24 32 14 14 (150528)
I0403 14:42:56.816407 13556 net.cpp:156] Memory required for data: 1132858656
I0403 14:42:56.816421 13556 layer_factory.hpp:77] Creating layer inception_4d/5x5
I0403 14:42:56.816442 13556 net.cpp:91] Creating Layer inception_4d/5x5
I0403 14:42:56.816459 13556 net.cpp:425] inception_4d/5x5 <- inception_4d/5x5_reduce
I0403 14:42:56.816479 13556 net.cpp:399] inception_4d/5x5 -> inception_4d/5x5
I0403 14:42:56.817927 13556 net.cpp:141] Setting up inception_4d/5x5
I0403 14:42:56.817955 13556 net.cpp:148] Top shape: 24 64 14 14 (301056)
I0403 14:42:56.817968 13556 net.cpp:156] Memory required for data: 1134062880
I0403 14:42:56.817986 13556 layer_factory.hpp:77] Creating layer inception_4d/relu_5x5
I0403 14:42:56.818020 13556 net.cpp:91] Creating Layer inception_4d/relu_5x5
I0403 14:42:56.818037 13556 net.cpp:425] inception_4d/relu_5x5 <- inception_4d/5x5
I0403 14:42:56.818053 13556 net.cpp:386] inception_4d/relu_5x5 -> inception_4d/5x5 (in-place)
I0403 14:42:56.818346 13556 net.cpp:141] Setting up inception_4d/relu_5x5
I0403 14:42:56.818370 13556 net.cpp:148] Top shape: 24 64 14 14 (301056)
I0403 14:42:56.818385 13556 net.cpp:156] Memory required for data: 1135267104
I0403 14:42:56.818398 13556 layer_factory.hpp:77] Creating layer inception_4d/pool
I0403 14:42:56.818415 13556 net.cpp:91] Creating Layer inception_4d/pool
I0403 14:42:56.818431 13556 net.cpp:425] inception_4d/pool <- inception_4c/output_inception_4c/output_0_split_3
I0403 14:42:56.818450 13556 net.cpp:399] inception_4d/pool -> inception_4d/pool
I0403 14:42:56.818517 13556 net.cpp:141] Setting up inception_4d/pool
I0403 14:42:56.818542 13556 net.cpp:148] Top shape: 24 512 14 14 (2408448)
I0403 14:42:56.818555 13556 net.cpp:156] Memory required for data: 1144900896
I0403 14:42:56.818572 13556 layer_factory.hpp:77] Creating layer inception_4d/pool_proj
I0403 14:42:56.818595 13556 net.cpp:91] Creating Layer inception_4d/pool_proj
I0403 14:42:56.818613 13556 net.cpp:425] inception_4d/pool_proj <- inception_4d/pool
I0403 14:42:56.818632 13556 net.cpp:399] inception_4d/pool_proj -> inception_4d/pool_proj
I0403 14:42:56.820350 13556 net.cpp:141] Setting up inception_4d/pool_proj
I0403 14:42:56.820379 13556 net.cpp:148] Top shape: 24 64 14 14 (301056)
I0403 14:42:56.820395 13556 net.cpp:156] Memory required for data: 1146105120
I0403 14:42:56.820413 13556 layer_factory.hpp:77] Creating layer inception_4d/relu_pool_proj
I0403 14:42:56.820430 13556 net.cpp:91] Creating Layer inception_4d/relu_pool_proj
I0403 14:42:56.820447 13556 net.cpp:425] inception_4d/relu_pool_proj <- inception_4d/pool_proj
I0403 14:42:56.820466 13556 net.cpp:386] inception_4d/relu_pool_proj -> inception_4d/pool_proj (in-place)
I0403 14:42:56.820652 13556 net.cpp:141] Setting up inception_4d/relu_pool_proj
I0403 14:42:56.820675 13556 net.cpp:148] Top shape: 24 64 14 14 (301056)
I0403 14:42:56.820689 13556 net.cpp:156] Memory required for data: 1147309344
I0403 14:42:56.820703 13556 layer_factory.hpp:77] Creating layer inception_4d/output
I0403 14:42:56.820719 13556 net.cpp:91] Creating Layer inception_4d/output
I0403 14:42:56.820734 13556 net.cpp:425] inception_4d/output <- inception_4d/1x1
I0403 14:42:56.820750 13556 net.cpp:425] inception_4d/output <- inception_4d/3x3
I0403 14:42:56.820765 13556 net.cpp:425] inception_4d/output <- inception_4d/5x5
I0403 14:42:56.820780 13556 net.cpp:425] inception_4d/output <- inception_4d/pool_proj
I0403 14:42:56.820799 13556 net.cpp:399] inception_4d/output -> inception_4d/output
I0403 14:42:56.820845 13556 net.cpp:141] Setting up inception_4d/output
I0403 14:42:56.820870 13556 net.cpp:148] Top shape: 24 528 14 14 (2483712)
I0403 14:42:56.820884 13556 net.cpp:156] Memory required for data: 1157244192
I0403 14:42:56.820899 13556 layer_factory.hpp:77] Creating layer inception_4d/output_inception_4d/output_0_split
I0403 14:42:56.820914 13556 net.cpp:91] Creating Layer inception_4d/output_inception_4d/output_0_split
I0403 14:42:56.820930 13556 net.cpp:425] inception_4d/output_inception_4d/output_0_split <- inception_4d/output
I0403 14:42:56.820948 13556 net.cpp:399] inception_4d/output_inception_4d/output_0_split -> inception_4d/output_inception_4d/output_0_split_0
I0403 14:42:56.820968 13556 net.cpp:399] inception_4d/output_inception_4d/output_0_split -> inception_4d/output_inception_4d/output_0_split_1
I0403 14:42:56.820988 13556 net.cpp:399] inception_4d/output_inception_4d/output_0_split -> inception_4d/output_inception_4d/output_0_split_2
I0403 14:42:56.821008 13556 net.cpp:399] inception_4d/output_inception_4d/output_0_split -> inception_4d/output_inception_4d/output_0_split_3
I0403 14:42:56.821027 13556 net.cpp:399] inception_4d/output_inception_4d/output_0_split -> inception_4d/output_inception_4d/output_0_split_4
I0403 14:42:56.821126 13556 net.cpp:141] Setting up inception_4d/output_inception_4d/output_0_split
I0403 14:42:56.821161 13556 net.cpp:148] Top shape: 24 528 14 14 (2483712)
I0403 14:42:56.821179 13556 net.cpp:148] Top shape: 24 528 14 14 (2483712)
I0403 14:42:56.821195 13556 net.cpp:148] Top shape: 24 528 14 14 (2483712)
I0403 14:42:56.821210 13556 net.cpp:148] Top shape: 24 528 14 14 (2483712)
I0403 14:42:56.821225 13556 net.cpp:148] Top shape: 24 528 14 14 (2483712)
I0403 14:42:56.821238 13556 net.cpp:156] Memory required for data: 1206918432
I0403 14:42:56.821257 13556 layer_factory.hpp:77] Creating layer loss2/ave_pool
I0403 14:42:56.821274 13556 net.cpp:91] Creating Layer loss2/ave_pool
I0403 14:42:56.821290 13556 net.cpp:425] loss2/ave_pool <- inception_4d/output_inception_4d/output_0_split_0
I0403 14:42:56.821310 13556 net.cpp:399] loss2/ave_pool -> loss2/ave_pool
I0403 14:42:56.821635 13556 net.cpp:141] Setting up loss2/ave_pool
I0403 14:42:56.821673 13556 net.cpp:148] Top shape: 24 528 4 4 (202752)
I0403 14:42:56.821688 13556 net.cpp:156] Memory required for data: 1207729440
I0403 14:42:56.821703 13556 layer_factory.hpp:77] Creating layer loss2/conv
I0403 14:42:56.821727 13556 net.cpp:91] Creating Layer loss2/conv
I0403 14:42:56.821743 13556 net.cpp:425] loss2/conv <- loss2/ave_pool
I0403 14:42:56.821765 13556 net.cpp:399] loss2/conv -> loss2/conv
I0403 14:42:56.823688 13556 net.cpp:141] Setting up loss2/conv
I0403 14:42:56.823716 13556 net.cpp:148] Top shape: 24 128 4 4 (49152)
I0403 14:42:56.823732 13556 net.cpp:156] Memory required for data: 1207926048
I0403 14:42:56.823751 13556 layer_factory.hpp:77] Creating layer loss2/relu_conv
I0403 14:42:56.823771 13556 net.cpp:91] Creating Layer loss2/relu_conv
I0403 14:42:56.823789 13556 net.cpp:425] loss2/relu_conv <- loss2/conv
I0403 14:42:56.823806 13556 net.cpp:386] loss2/relu_conv -> loss2/conv (in-place)
I0403 14:42:56.824090 13556 net.cpp:141] Setting up loss2/relu_conv
I0403 14:42:56.824117 13556 net.cpp:148] Top shape: 24 128 4 4 (49152)
I0403 14:42:56.824131 13556 net.cpp:156] Memory required for data: 1208122656
I0403 14:42:56.824146 13556 layer_factory.hpp:77] Creating layer loss2/fc
I0403 14:42:56.824167 13556 net.cpp:91] Creating Layer loss2/fc
I0403 14:42:56.824183 13556 net.cpp:425] loss2/fc <- loss2/conv
I0403 14:42:56.824201 13556 net.cpp:399] loss2/fc -> loss2/fc
I0403 14:42:56.841958 13556 net.cpp:141] Setting up loss2/fc
I0403 14:42:56.841990 13556 net.cpp:148] Top shape: 24 1024 (24576)
I0403 14:42:56.842005 13556 net.cpp:156] Memory required for data: 1208220960
I0403 14:42:56.842023 13556 layer_factory.hpp:77] Creating layer loss2/relu_fc
I0403 14:42:56.842041 13556 net.cpp:91] Creating Layer loss2/relu_fc
I0403 14:42:56.842057 13556 net.cpp:425] loss2/relu_fc <- loss2/fc
I0403 14:42:56.842077 13556 net.cpp:386] loss2/relu_fc -> loss2/fc (in-place)
I0403 14:42:56.842375 13556 net.cpp:141] Setting up loss2/relu_fc
I0403 14:42:56.842401 13556 net.cpp:148] Top shape: 24 1024 (24576)
I0403 14:42:56.842414 13556 net.cpp:156] Memory required for data: 1208319264
I0403 14:42:56.842428 13556 layer_factory.hpp:77] Creating layer loss2/drop_fc
I0403 14:42:56.842447 13556 net.cpp:91] Creating Layer loss2/drop_fc
I0403 14:42:56.842461 13556 net.cpp:425] loss2/drop_fc <- loss2/fc
I0403 14:42:56.842479 13556 net.cpp:386] loss2/drop_fc -> loss2/fc (in-place)
I0403 14:42:56.842528 13556 net.cpp:141] Setting up loss2/drop_fc
I0403 14:42:56.842550 13556 net.cpp:148] Top shape: 24 1024 (24576)
I0403 14:42:56.842563 13556 net.cpp:156] Memory required for data: 1208417568
I0403 14:42:56.842591 13556 layer_factory.hpp:77] Creating layer loss2/classifier_plantvillage
I0403 14:42:56.842612 13556 net.cpp:91] Creating Layer loss2/classifier_plantvillage
I0403 14:42:56.842628 13556 net.cpp:425] loss2/classifier_plantvillage <- loss2/fc
I0403 14:42:56.842648 13556 net.cpp:399] loss2/classifier_plantvillage -> loss2/classifier_plantvillage
I0403 14:42:56.843039 13556 net.cpp:141] Setting up loss2/classifier_plantvillage
I0403 14:42:56.843062 13556 net.cpp:148] Top shape: 24 38 (912)
I0403 14:42:56.843076 13556 net.cpp:156] Memory required for data: 1208421216
I0403 14:42:56.843111 13556 layer_factory.hpp:77] Creating layer loss2/classifier_plantvillage_loss2/classifier_plantvillage_0_split
I0403 14:42:56.843132 13556 net.cpp:91] Creating Layer loss2/classifier_plantvillage_loss2/classifier_plantvillage_0_split
I0403 14:42:56.843147 13556 net.cpp:425] loss2/classifier_plantvillage_loss2/classifier_plantvillage_0_split <- loss2/classifier_plantvillage
I0403 14:42:56.843164 13556 net.cpp:399] loss2/classifier_plantvillage_loss2/classifier_plantvillage_0_split -> loss2/classifier_plantvillage_loss2/classifier_plantvillage_0_split_0
I0403 14:42:56.843183 13556 net.cpp:399] loss2/classifier_plantvillage_loss2/classifier_plantvillage_0_split -> loss2/classifier_plantvillage_loss2/classifier_plantvillage_0_split_1
I0403 14:42:56.843202 13556 net.cpp:399] loss2/classifier_plantvillage_loss2/classifier_plantvillage_0_split -> loss2/classifier_plantvillage_loss2/classifier_plantvillage_0_split_2
I0403 14:42:56.843281 13556 net.cpp:141] Setting up loss2/classifier_plantvillage_loss2/classifier_plantvillage_0_split
I0403 14:42:56.843302 13556 net.cpp:148] Top shape: 24 38 (912)
I0403 14:42:56.843317 13556 net.cpp:148] Top shape: 24 38 (912)
I0403 14:42:56.843333 13556 net.cpp:148] Top shape: 24 38 (912)
I0403 14:42:56.843345 13556 net.cpp:156] Memory required for data: 1208432160
I0403 14:42:56.843358 13556 layer_factory.hpp:77] Creating layer inception_4e/1x1
I0403 14:42:56.843377 13556 net.cpp:91] Creating Layer inception_4e/1x1
I0403 14:42:56.843394 13556 net.cpp:425] inception_4e/1x1 <- inception_4d/output_inception_4d/output_0_split_1
I0403 14:42:56.843413 13556 net.cpp:399] inception_4e/1x1 -> inception_4e/1x1
I0403 14:42:56.845206 13556 net.cpp:141] Setting up inception_4e/1x1
I0403 14:42:56.845233 13556 net.cpp:148] Top shape: 24 256 14 14 (1204224)
I0403 14:42:56.845247 13556 net.cpp:156] Memory required for data: 1213249056
I0403 14:42:56.845266 13556 layer_factory.hpp:77] Creating layer inception_4e/relu_1x1
I0403 14:42:56.845285 13556 net.cpp:91] Creating Layer inception_4e/relu_1x1
I0403 14:42:56.845302 13556 net.cpp:425] inception_4e/relu_1x1 <- inception_4e/1x1
I0403 14:42:56.845319 13556 net.cpp:386] inception_4e/relu_1x1 -> inception_4e/1x1 (in-place)
I0403 14:42:56.845610 13556 net.cpp:141] Setting up inception_4e/relu_1x1
I0403 14:42:56.845635 13556 net.cpp:148] Top shape: 24 256 14 14 (1204224)
I0403 14:42:56.845649 13556 net.cpp:156] Memory required for data: 1218065952
I0403 14:42:56.845664 13556 layer_factory.hpp:77] Creating layer inception_4e/3x3_reduce
I0403 14:42:56.845685 13556 net.cpp:91] Creating Layer inception_4e/3x3_reduce
I0403 14:42:56.845701 13556 net.cpp:425] inception_4e/3x3_reduce <- inception_4d/output_inception_4d/output_0_split_2
I0403 14:42:56.845721 13556 net.cpp:399] inception_4e/3x3_reduce -> inception_4e/3x3_reduce
I0403 14:42:56.847790 13556 net.cpp:141] Setting up inception_4e/3x3_reduce
I0403 14:42:56.847817 13556 net.cpp:148] Top shape: 24 160 14 14 (752640)
I0403 14:42:56.847832 13556 net.cpp:156] Memory required for data: 1221076512
I0403 14:42:56.847849 13556 layer_factory.hpp:77] Creating layer inception_4e/relu_3x3_reduce
I0403 14:42:56.847869 13556 net.cpp:91] Creating Layer inception_4e/relu_3x3_reduce
I0403 14:42:56.847887 13556 net.cpp:425] inception_4e/relu_3x3_reduce <- inception_4e/3x3_reduce
I0403 14:42:56.847903 13556 net.cpp:386] inception_4e/relu_3x3_reduce -> inception_4e/3x3_reduce (in-place)
I0403 14:42:56.848081 13556 net.cpp:141] Setting up inception_4e/relu_3x3_reduce
I0403 14:42:56.848105 13556 net.cpp:148] Top shape: 24 160 14 14 (752640)
I0403 14:42:56.848119 13556 net.cpp:156] Memory required for data: 1224087072
I0403 14:42:56.848132 13556 layer_factory.hpp:77] Creating layer inception_4e/3x3
I0403 14:42:56.848155 13556 net.cpp:91] Creating Layer inception_4e/3x3
I0403 14:42:56.848171 13556 net.cpp:425] inception_4e/3x3 <- inception_4e/3x3_reduce
I0403 14:42:56.848188 13556 net.cpp:399] inception_4e/3x3 -> inception_4e/3x3
I0403 14:42:56.853087 13556 net.cpp:141] Setting up inception_4e/3x3
I0403 14:42:56.853127 13556 net.cpp:148] Top shape: 24 320 14 14 (1505280)
I0403 14:42:56.853143 13556 net.cpp:156] Memory required for data: 1230108192
I0403 14:42:56.853160 13556 layer_factory.hpp:77] Creating layer inception_4e/relu_3x3
I0403 14:42:56.853179 13556 net.cpp:91] Creating Layer inception_4e/relu_3x3
I0403 14:42:56.853196 13556 net.cpp:425] inception_4e/relu_3x3 <- inception_4e/3x3
I0403 14:42:56.853212 13556 net.cpp:386] inception_4e/relu_3x3 -> inception_4e/3x3 (in-place)
I0403 14:42:56.853508 13556 net.cpp:141] Setting up inception_4e/relu_3x3
I0403 14:42:56.853535 13556 net.cpp:148] Top shape: 24 320 14 14 (1505280)
I0403 14:42:56.853551 13556 net.cpp:156] Memory required for data: 1236129312
I0403 14:42:56.853565 13556 layer_factory.hpp:77] Creating layer inception_4e/5x5_reduce
I0403 14:42:56.853592 13556 net.cpp:91] Creating Layer inception_4e/5x5_reduce
I0403 14:42:56.853610 13556 net.cpp:425] inception_4e/5x5_reduce <- inception_4d/output_inception_4d/output_0_split_3
I0403 14:42:56.853628 13556 net.cpp:399] inception_4e/5x5_reduce -> inception_4e/5x5_reduce
I0403 14:42:56.854687 13556 net.cpp:141] Setting up inception_4e/5x5_reduce
I0403 14:42:56.854714 13556 net.cpp:148] Top shape: 24 32 14 14 (150528)
I0403 14:42:56.854729 13556 net.cpp:156] Memory required for data: 1236731424
I0403 14:42:56.854746 13556 layer_factory.hpp:77] Creating layer inception_4e/relu_5x5_reduce
I0403 14:42:56.854765 13556 net.cpp:91] Creating Layer inception_4e/relu_5x5_reduce
I0403 14:42:56.854782 13556 net.cpp:425] inception_4e/relu_5x5_reduce <- inception_4e/5x5_reduce
I0403 14:42:56.854799 13556 net.cpp:386] inception_4e/relu_5x5_reduce -> inception_4e/5x5_reduce (in-place)
I0403 14:42:56.855095 13556 net.cpp:141] Setting up inception_4e/relu_5x5_reduce
I0403 14:42:56.855120 13556 net.cpp:148] Top shape: 24 32 14 14 (150528)
I0403 14:42:56.855135 13556 net.cpp:156] Memory required for data: 1237333536
I0403 14:42:56.855149 13556 layer_factory.hpp:77] Creating layer inception_4e/5x5
I0403 14:42:56.855185 13556 net.cpp:91] Creating Layer inception_4e/5x5
I0403 14:42:56.855203 13556 net.cpp:425] inception_4e/5x5 <- inception_4e/5x5_reduce
I0403 14:42:56.855221 13556 net.cpp:399] inception_4e/5x5 -> inception_4e/5x5
I0403 14:42:56.857133 13556 net.cpp:141] Setting up inception_4e/5x5
I0403 14:42:56.857161 13556 net.cpp:148] Top shape: 24 128 14 14 (602112)
I0403 14:42:56.857177 13556 net.cpp:156] Memory required for data: 1239741984
I0403 14:42:56.857193 13556 layer_factory.hpp:77] Creating layer inception_4e/relu_5x5
I0403 14:42:56.857210 13556 net.cpp:91] Creating Layer inception_4e/relu_5x5
I0403 14:42:56.857226 13556 net.cpp:425] inception_4e/relu_5x5 <- inception_4e/5x5
I0403 14:42:56.857244 13556 net.cpp:386] inception_4e/relu_5x5 -> inception_4e/5x5 (in-place)
I0403 14:42:56.857437 13556 net.cpp:141] Setting up inception_4e/relu_5x5
I0403 14:42:56.857461 13556 net.cpp:148] Top shape: 24 128 14 14 (602112)
I0403 14:42:56.857475 13556 net.cpp:156] Memory required for data: 1242150432
I0403 14:42:56.857489 13556 layer_factory.hpp:77] Creating layer inception_4e/pool
I0403 14:42:56.857508 13556 net.cpp:91] Creating Layer inception_4e/pool
I0403 14:42:56.857524 13556 net.cpp:425] inception_4e/pool <- inception_4d/output_inception_4d/output_0_split_4
I0403 14:42:56.857542 13556 net.cpp:399] inception_4e/pool -> inception_4e/pool
I0403 14:42:56.857614 13556 net.cpp:141] Setting up inception_4e/pool
I0403 14:42:56.857637 13556 net.cpp:148] Top shape: 24 528 14 14 (2483712)
I0403 14:42:56.857651 13556 net.cpp:156] Memory required for data: 1252085280
I0403 14:42:56.857664 13556 layer_factory.hpp:77] Creating layer inception_4e/pool_proj
I0403 14:42:56.857686 13556 net.cpp:91] Creating Layer inception_4e/pool_proj
I0403 14:42:56.857703 13556 net.cpp:425] inception_4e/pool_proj <- inception_4e/pool
I0403 14:42:56.857722 13556 net.cpp:399] inception_4e/pool_proj -> inception_4e/pool_proj
I0403 14:42:56.859243 13556 net.cpp:141] Setting up inception_4e/pool_proj
I0403 14:42:56.859272 13556 net.cpp:148] Top shape: 24 128 14 14 (602112)
I0403 14:42:56.859302 13556 net.cpp:156] Memory required for data: 1254493728
I0403 14:42:56.859321 13556 layer_factory.hpp:77] Creating layer inception_4e/relu_pool_proj
I0403 14:42:56.859340 13556 net.cpp:91] Creating Layer inception_4e/relu_pool_proj
I0403 14:42:56.859355 13556 net.cpp:425] inception_4e/relu_pool_proj <- inception_4e/pool_proj
I0403 14:42:56.859375 13556 net.cpp:386] inception_4e/relu_pool_proj -> inception_4e/pool_proj (in-place)
I0403 14:42:56.859673 13556 net.cpp:141] Setting up inception_4e/relu_pool_proj
I0403 14:42:56.859699 13556 net.cpp:148] Top shape: 24 128 14 14 (602112)
I0403 14:42:56.859714 13556 net.cpp:156] Memory required for data: 1256902176
I0403 14:42:56.859729 13556 layer_factory.hpp:77] Creating layer inception_4e/output
I0403 14:42:56.859746 13556 net.cpp:91] Creating Layer inception_4e/output
I0403 14:42:56.859761 13556 net.cpp:425] inception_4e/output <- inception_4e/1x1
I0403 14:42:56.859777 13556 net.cpp:425] inception_4e/output <- inception_4e/3x3
I0403 14:42:56.859793 13556 net.cpp:425] inception_4e/output <- inception_4e/5x5
I0403 14:42:56.859809 13556 net.cpp:425] inception_4e/output <- inception_4e/pool_proj
I0403 14:42:56.859828 13556 net.cpp:399] inception_4e/output -> inception_4e/output
I0403 14:42:56.859877 13556 net.cpp:141] Setting up inception_4e/output
I0403 14:42:56.859901 13556 net.cpp:148] Top shape: 24 832 14 14 (3913728)
I0403 14:42:56.859918 13556 net.cpp:156] Memory required for data: 1272557088
I0403 14:42:56.859933 13556 layer_factory.hpp:77] Creating layer pool4/3x3_s2
I0403 14:42:56.859951 13556 net.cpp:91] Creating Layer pool4/3x3_s2
I0403 14:42:56.859966 13556 net.cpp:425] pool4/3x3_s2 <- inception_4e/output
I0403 14:42:56.859983 13556 net.cpp:399] pool4/3x3_s2 -> pool4/3x3_s2
I0403 14:42:56.860054 13556 net.cpp:141] Setting up pool4/3x3_s2
I0403 14:42:56.860079 13556 net.cpp:148] Top shape: 24 832 7 7 (978432)
I0403 14:42:56.860092 13556 net.cpp:156] Memory required for data: 1276470816
I0403 14:42:56.860106 13556 layer_factory.hpp:77] Creating layer pool4/3x3_s2_pool4/3x3_s2_0_split
I0403 14:42:56.860122 13556 net.cpp:91] Creating Layer pool4/3x3_s2_pool4/3x3_s2_0_split
I0403 14:42:56.860138 13556 net.cpp:425] pool4/3x3_s2_pool4/3x3_s2_0_split <- pool4/3x3_s2
I0403 14:42:56.860158 13556 net.cpp:399] pool4/3x3_s2_pool4/3x3_s2_0_split -> pool4/3x3_s2_pool4/3x3_s2_0_split_0
I0403 14:42:56.860178 13556 net.cpp:399] pool4/3x3_s2_pool4/3x3_s2_0_split -> pool4/3x3_s2_pool4/3x3_s2_0_split_1
I0403 14:42:56.860198 13556 net.cpp:399] pool4/3x3_s2_pool4/3x3_s2_0_split -> pool4/3x3_s2_pool4/3x3_s2_0_split_2
I0403 14:42:56.860218 13556 net.cpp:399] pool4/3x3_s2_pool4/3x3_s2_0_split -> pool4/3x3_s2_pool4/3x3_s2_0_split_3
I0403 14:42:56.860311 13556 net.cpp:141] Setting up pool4/3x3_s2_pool4/3x3_s2_0_split
I0403 14:42:56.860334 13556 net.cpp:148] Top shape: 24 832 7 7 (978432)
I0403 14:42:56.860350 13556 net.cpp:148] Top shape: 24 832 7 7 (978432)
I0403 14:42:56.860365 13556 net.cpp:148] Top shape: 24 832 7 7 (978432)
I0403 14:42:56.860380 13556 net.cpp:148] Top shape: 24 832 7 7 (978432)
I0403 14:42:56.860394 13556 net.cpp:156] Memory required for data: 1292125728
I0403 14:42:56.860409 13556 layer_factory.hpp:77] Creating layer inception_5a/1x1
I0403 14:42:56.860430 13556 net.cpp:91] Creating Layer inception_5a/1x1
I0403 14:42:56.860447 13556 net.cpp:425] inception_5a/1x1 <- pool4/3x3_s2_pool4/3x3_s2_0_split_0
I0403 14:42:56.860469 13556 net.cpp:399] inception_5a/1x1 -> inception_5a/1x1
I0403 14:42:56.863384 13556 net.cpp:141] Setting up inception_5a/1x1
I0403 14:42:56.863415 13556 net.cpp:148] Top shape: 24 256 7 7 (301056)
I0403 14:42:56.863430 13556 net.cpp:156] Memory required for data: 1293329952
I0403 14:42:56.863447 13556 layer_factory.hpp:77] Creating layer inception_5a/relu_1x1
I0403 14:42:56.863467 13556 net.cpp:91] Creating Layer inception_5a/relu_1x1
I0403 14:42:56.863484 13556 net.cpp:425] inception_5a/relu_1x1 <- inception_5a/1x1
I0403 14:42:56.863502 13556 net.cpp:386] inception_5a/relu_1x1 -> inception_5a/1x1 (in-place)
I0403 14:42:56.863819 13556 net.cpp:141] Setting up inception_5a/relu_1x1
I0403 14:42:56.863847 13556 net.cpp:148] Top shape: 24 256 7 7 (301056)
I0403 14:42:56.863860 13556 net.cpp:156] Memory required for data: 1294534176
I0403 14:42:56.863875 13556 layer_factory.hpp:77] Creating layer inception_5a/3x3_reduce
I0403 14:42:56.863898 13556 net.cpp:91] Creating Layer inception_5a/3x3_reduce
I0403 14:42:56.863914 13556 net.cpp:425] inception_5a/3x3_reduce <- pool4/3x3_s2_pool4/3x3_s2_0_split_1
I0403 14:42:56.863936 13556 net.cpp:399] inception_5a/3x3_reduce -> inception_5a/3x3_reduce
I0403 14:42:56.866408 13556 net.cpp:141] Setting up inception_5a/3x3_reduce
I0403 14:42:56.866441 13556 net.cpp:148] Top shape: 24 160 7 7 (188160)
I0403 14:42:56.866456 13556 net.cpp:156] Memory required for data: 1295286816
I0403 14:42:56.866474 13556 layer_factory.hpp:77] Creating layer inception_5a/relu_3x3_reduce
I0403 14:42:56.866492 13556 net.cpp:91] Creating Layer inception_5a/relu_3x3_reduce
I0403 14:42:56.866509 13556 net.cpp:425] inception_5a/relu_3x3_reduce <- inception_5a/3x3_reduce
I0403 14:42:56.866526 13556 net.cpp:386] inception_5a/relu_3x3_reduce -> inception_5a/3x3_reduce (in-place)
I0403 14:42:56.866721 13556 net.cpp:141] Setting up inception_5a/relu_3x3_reduce
I0403 14:42:56.866746 13556 net.cpp:148] Top shape: 24 160 7 7 (188160)
I0403 14:42:56.866761 13556 net.cpp:156] Memory required for data: 1296039456
I0403 14:42:56.866775 13556 layer_factory.hpp:77] Creating layer inception_5a/3x3
I0403 14:42:56.866797 13556 net.cpp:91] Creating Layer inception_5a/3x3
I0403 14:42:56.866816 13556 net.cpp:425] inception_5a/3x3 <- inception_5a/3x3_reduce
I0403 14:42:56.866837 13556 net.cpp:399] inception_5a/3x3 -> inception_5a/3x3
I0403 14:42:56.871891 13556 net.cpp:141] Setting up inception_5a/3x3
I0403 14:42:56.871919 13556 net.cpp:148] Top shape: 24 320 7 7 (376320)
I0403 14:42:56.871934 13556 net.cpp:156] Memory required for data: 1297544736
I0403 14:42:56.871953 13556 layer_factory.hpp:77] Creating layer inception_5a/relu_3x3
I0403 14:42:56.871971 13556 net.cpp:91] Creating Layer inception_5a/relu_3x3
I0403 14:42:56.871986 13556 net.cpp:425] inception_5a/relu_3x3 <- inception_5a/3x3
I0403 14:42:56.872005 13556 net.cpp:386] inception_5a/relu_3x3 -> inception_5a/3x3 (in-place)
I0403 14:42:56.872303 13556 net.cpp:141] Setting up inception_5a/relu_3x3
I0403 14:42:56.872329 13556 net.cpp:148] Top shape: 24 320 7 7 (376320)
I0403 14:42:56.872344 13556 net.cpp:156] Memory required for data: 1299050016
I0403 14:42:56.872359 13556 layer_factory.hpp:77] Creating layer inception_5a/5x5_reduce
I0403 14:42:56.872380 13556 net.cpp:91] Creating Layer inception_5a/5x5_reduce
I0403 14:42:56.872398 13556 net.cpp:425] inception_5a/5x5_reduce <- pool4/3x3_s2_pool4/3x3_s2_0_split_2
I0403 14:42:56.872421 13556 net.cpp:399] inception_5a/5x5_reduce -> inception_5a/5x5_reduce
I0403 14:42:56.873616 13556 net.cpp:141] Setting up inception_5a/5x5_reduce
I0403 14:42:56.873644 13556 net.cpp:148] Top shape: 24 32 7 7 (37632)
I0403 14:42:56.873661 13556 net.cpp:156] Memory required for data: 1299200544
I0403 14:42:56.873678 13556 layer_factory.hpp:77] Creating layer inception_5a/relu_5x5_reduce
I0403 14:42:56.873698 13556 net.cpp:91] Creating Layer inception_5a/relu_5x5_reduce
I0403 14:42:56.873714 13556 net.cpp:425] inception_5a/relu_5x5_reduce <- inception_5a/5x5_reduce
I0403 14:42:56.873733 13556 net.cpp:386] inception_5a/relu_5x5_reduce -> inception_5a/5x5_reduce (in-place)
I0403 14:42:56.874034 13556 net.cpp:141] Setting up inception_5a/relu_5x5_reduce
I0403 14:42:56.874060 13556 net.cpp:148] Top shape: 24 32 7 7 (37632)
I0403 14:42:56.874075 13556 net.cpp:156] Memory required for data: 1299351072
I0403 14:42:56.874089 13556 layer_factory.hpp:77] Creating layer inception_5a/5x5
I0403 14:42:56.874114 13556 net.cpp:91] Creating Layer inception_5a/5x5
I0403 14:42:56.874132 13556 net.cpp:425] inception_5a/5x5 <- inception_5a/5x5_reduce
I0403 14:42:56.874153 13556 net.cpp:399] inception_5a/5x5 -> inception_5a/5x5
I0403 14:42:56.875898 13556 net.cpp:141] Setting up inception_5a/5x5
I0403 14:42:56.875938 13556 net.cpp:148] Top shape: 24 128 7 7 (150528)
I0403 14:42:56.875954 13556 net.cpp:156] Memory required for data: 1299953184
I0403 14:42:56.875972 13556 layer_factory.hpp:77] Creating layer inception_5a/relu_5x5
I0403 14:42:56.875989 13556 net.cpp:91] Creating Layer inception_5a/relu_5x5
I0403 14:42:56.876006 13556 net.cpp:425] inception_5a/relu_5x5 <- inception_5a/5x5
I0403 14:42:56.876025 13556 net.cpp:386] inception_5a/relu_5x5 -> inception_5a/5x5 (in-place)
I0403 14:42:56.876215 13556 net.cpp:141] Setting up inception_5a/relu_5x5
I0403 14:42:56.876240 13556 net.cpp:148] Top shape: 24 128 7 7 (150528)
I0403 14:42:56.876255 13556 net.cpp:156] Memory required for data: 1300555296
I0403 14:42:56.876271 13556 layer_factory.hpp:77] Creating layer inception_5a/pool
I0403 14:42:56.876291 13556 net.cpp:91] Creating Layer inception_5a/pool
I0403 14:42:56.876307 13556 net.cpp:425] inception_5a/pool <- pool4/3x3_s2_pool4/3x3_s2_0_split_3
I0403 14:42:56.876324 13556 net.cpp:399] inception_5a/pool -> inception_5a/pool
I0403 14:42:56.876397 13556 net.cpp:141] Setting up inception_5a/pool
I0403 14:42:56.876420 13556 net.cpp:148] Top shape: 24 832 7 7 (978432)
I0403 14:42:56.876435 13556 net.cpp:156] Memory required for data: 1304469024
I0403 14:42:56.876449 13556 layer_factory.hpp:77] Creating layer inception_5a/pool_proj
I0403 14:42:56.876471 13556 net.cpp:91] Creating Layer inception_5a/pool_proj
I0403 14:42:56.876489 13556 net.cpp:425] inception_5a/pool_proj <- inception_5a/pool
I0403 14:42:56.876510 13556 net.cpp:399] inception_5a/pool_proj -> inception_5a/pool_proj
I0403 14:42:56.878825 13556 net.cpp:141] Setting up inception_5a/pool_proj
I0403 14:42:56.878856 13556 net.cpp:148] Top shape: 24 128 7 7 (150528)
I0403 14:42:56.878873 13556 net.cpp:156] Memory required for data: 1305071136
I0403 14:42:56.878891 13556 layer_factory.hpp:77] Creating layer inception_5a/relu_pool_proj
I0403 14:42:56.878909 13556 net.cpp:91] Creating Layer inception_5a/relu_pool_proj
I0403 14:42:56.878926 13556 net.cpp:425] inception_5a/relu_pool_proj <- inception_5a/pool_proj
I0403 14:42:56.878948 13556 net.cpp:386] inception_5a/relu_pool_proj -> inception_5a/pool_proj (in-place)
I0403 14:42:56.879245 13556 net.cpp:141] Setting up inception_5a/relu_pool_proj
I0403 14:42:56.879273 13556 net.cpp:148] Top shape: 24 128 7 7 (150528)
I0403 14:42:56.879289 13556 net.cpp:156] Memory required for data: 1305673248
I0403 14:42:56.879304 13556 layer_factory.hpp:77] Creating layer inception_5a/output
I0403 14:42:56.879322 13556 net.cpp:91] Creating Layer inception_5a/output
I0403 14:42:56.879338 13556 net.cpp:425] inception_5a/output <- inception_5a/1x1
I0403 14:42:56.879354 13556 net.cpp:425] inception_5a/output <- inception_5a/3x3
I0403 14:42:56.879370 13556 net.cpp:425] inception_5a/output <- inception_5a/5x5
I0403 14:42:56.879385 13556 net.cpp:425] inception_5a/output <- inception_5a/pool_proj
I0403 14:42:56.879403 13556 net.cpp:399] inception_5a/output -> inception_5a/output
I0403 14:42:56.879454 13556 net.cpp:141] Setting up inception_5a/output
I0403 14:42:56.879477 13556 net.cpp:148] Top shape: 24 832 7 7 (978432)
I0403 14:42:56.879492 13556 net.cpp:156] Memory required for data: 1309586976
I0403 14:42:56.879505 13556 layer_factory.hpp:77] Creating layer inception_5a/output_inception_5a/output_0_split
I0403 14:42:56.879525 13556 net.cpp:91] Creating Layer inception_5a/output_inception_5a/output_0_split
I0403 14:42:56.879542 13556 net.cpp:425] inception_5a/output_inception_5a/output_0_split <- inception_5a/output
I0403 14:42:56.879559 13556 net.cpp:399] inception_5a/output_inception_5a/output_0_split -> inception_5a/output_inception_5a/output_0_split_0
I0403 14:42:56.879601 13556 net.cpp:399] inception_5a/output_inception_5a/output_0_split -> inception_5a/output_inception_5a/output_0_split_1
I0403 14:42:56.879626 13556 net.cpp:399] inception_5a/output_inception_5a/output_0_split -> inception_5a/output_inception_5a/output_0_split_2
I0403 14:42:56.879660 13556 net.cpp:399] inception_5a/output_inception_5a/output_0_split -> inception_5a/output_inception_5a/output_0_split_3
I0403 14:42:56.879779 13556 net.cpp:141] Setting up inception_5a/output_inception_5a/output_0_split
I0403 14:42:56.879804 13556 net.cpp:148] Top shape: 24 832 7 7 (978432)
I0403 14:42:56.879822 13556 net.cpp:148] Top shape: 24 832 7 7 (978432)
I0403 14:42:56.879837 13556 net.cpp:148] Top shape: 24 832 7 7 (978432)
I0403 14:42:56.879854 13556 net.cpp:148] Top shape: 24 832 7 7 (978432)
I0403 14:42:56.879868 13556 net.cpp:156] Memory required for data: 1325241888
I0403 14:42:56.879884 13556 layer_factory.hpp:77] Creating layer inception_5b/1x1
I0403 14:42:56.879907 13556 net.cpp:91] Creating Layer inception_5b/1x1
I0403 14:42:56.879925 13556 net.cpp:425] inception_5b/1x1 <- inception_5a/output_inception_5a/output_0_split_0
I0403 14:42:56.879959 13556 net.cpp:399] inception_5b/1x1 -> inception_5b/1x1
I0403 14:42:56.883958 13556 net.cpp:141] Setting up inception_5b/1x1
I0403 14:42:56.883991 13556 net.cpp:148] Top shape: 24 384 7 7 (451584)
I0403 14:42:56.884008 13556 net.cpp:156] Memory required for data: 1327048224
I0403 14:42:56.884027 13556 layer_factory.hpp:77] Creating layer inception_5b/relu_1x1
I0403 14:42:56.884045 13556 net.cpp:91] Creating Layer inception_5b/relu_1x1
I0403 14:42:56.884063 13556 net.cpp:425] inception_5b/relu_1x1 <- inception_5b/1x1
I0403 14:42:56.884079 13556 net.cpp:386] inception_5b/relu_1x1 -> inception_5b/1x1 (in-place)
I0403 14:42:56.884395 13556 net.cpp:141] Setting up inception_5b/relu_1x1
I0403 14:42:56.884431 13556 net.cpp:148] Top shape: 24 384 7 7 (451584)
I0403 14:42:56.884446 13556 net.cpp:156] Memory required for data: 1328854560
I0403 14:42:56.884462 13556 layer_factory.hpp:77] Creating layer inception_5b/3x3_reduce
I0403 14:42:56.884485 13556 net.cpp:91] Creating Layer inception_5b/3x3_reduce
I0403 14:42:56.884503 13556 net.cpp:425] inception_5b/3x3_reduce <- inception_5a/output_inception_5a/output_0_split_1
I0403 14:42:56.884523 13556 net.cpp:399] inception_5b/3x3_reduce -> inception_5b/3x3_reduce
I0403 14:42:56.887329 13556 net.cpp:141] Setting up inception_5b/3x3_reduce
I0403 14:42:56.887362 13556 net.cpp:148] Top shape: 24 192 7 7 (225792)
I0403 14:42:56.887379 13556 net.cpp:156] Memory required for data: 1329757728
I0403 14:42:56.887398 13556 layer_factory.hpp:77] Creating layer inception_5b/relu_3x3_reduce
I0403 14:42:56.887416 13556 net.cpp:91] Creating Layer inception_5b/relu_3x3_reduce
I0403 14:42:56.887437 13556 net.cpp:425] inception_5b/relu_3x3_reduce <- inception_5b/3x3_reduce
I0403 14:42:56.887457 13556 net.cpp:386] inception_5b/relu_3x3_reduce -> inception_5b/3x3_reduce (in-place)
I0403 14:42:56.887662 13556 net.cpp:141] Setting up inception_5b/relu_3x3_reduce
I0403 14:42:56.887688 13556 net.cpp:148] Top shape: 24 192 7 7 (225792)
I0403 14:42:56.887702 13556 net.cpp:156] Memory required for data: 1330660896
I0403 14:42:56.887717 13556 layer_factory.hpp:77] Creating layer inception_5b/3x3
I0403 14:42:56.887739 13556 net.cpp:91] Creating Layer inception_5b/3x3
I0403 14:42:56.887758 13556 net.cpp:425] inception_5b/3x3 <- inception_5b/3x3_reduce
I0403 14:42:56.887789 13556 net.cpp:399] inception_5b/3x3 -> inception_5b/3x3
I0403 14:42:56.894846 13556 net.cpp:141] Setting up inception_5b/3x3
I0403 14:42:56.894878 13556 net.cpp:148] Top shape: 24 384 7 7 (451584)
I0403 14:42:56.894902 13556 net.cpp:156] Memory required for data: 1332467232
I0403 14:42:56.894922 13556 layer_factory.hpp:77] Creating layer inception_5b/relu_3x3
I0403 14:42:56.894939 13556 net.cpp:91] Creating Layer inception_5b/relu_3x3
I0403 14:42:56.894956 13556 net.cpp:425] inception_5b/relu_3x3 <- inception_5b/3x3
I0403 14:42:56.894976 13556 net.cpp:386] inception_5b/relu_3x3 -> inception_5b/3x3 (in-place)
I0403 14:42:56.895290 13556 net.cpp:141] Setting up inception_5b/relu_3x3
I0403 14:42:56.895319 13556 net.cpp:148] Top shape: 24 384 7 7 (451584)
I0403 14:42:56.895335 13556 net.cpp:156] Memory required for data: 1334273568
I0403 14:42:56.895350 13556 layer_factory.hpp:77] Creating layer inception_5b/5x5_reduce
I0403 14:42:56.895395 13556 net.cpp:91] Creating Layer inception_5b/5x5_reduce
I0403 14:42:56.895413 13556 net.cpp:425] inception_5b/5x5_reduce <- inception_5a/output_inception_5a/output_0_split_2
I0403 14:42:56.895433 13556 net.cpp:399] inception_5b/5x5_reduce -> inception_5b/5x5_reduce
I0403 14:42:56.896793 13556 net.cpp:141] Setting up inception_5b/5x5_reduce
I0403 14:42:56.896821 13556 net.cpp:148] Top shape: 24 48 7 7 (56448)
I0403 14:42:56.896838 13556 net.cpp:156] Memory required for data: 1334499360
I0403 14:42:56.896857 13556 layer_factory.hpp:77] Creating layer inception_5b/relu_5x5_reduce
I0403 14:42:56.896875 13556 net.cpp:91] Creating Layer inception_5b/relu_5x5_reduce
I0403 14:42:56.896891 13556 net.cpp:425] inception_5b/relu_5x5_reduce <- inception_5b/5x5_reduce
I0403 14:42:56.896913 13556 net.cpp:386] inception_5b/relu_5x5_reduce -> inception_5b/5x5_reduce (in-place)
I0403 14:42:56.897310 13556 net.cpp:141] Setting up inception_5b/relu_5x5_reduce
I0403 14:42:56.897343 13556 net.cpp:148] Top shape: 24 48 7 7 (56448)
I0403 14:42:56.897358 13556 net.cpp:156] Memory required for data: 1334725152
I0403 14:42:56.897373 13556 layer_factory.hpp:77] Creating layer inception_5b/5x5
I0403 14:42:56.897394 13556 net.cpp:91] Creating Layer inception_5b/5x5
I0403 14:42:56.897413 13556 net.cpp:425] inception_5b/5x5 <- inception_5b/5x5_reduce
I0403 14:42:56.897431 13556 net.cpp:399] inception_5b/5x5 -> inception_5b/5x5
I0403 14:42:56.899616 13556 net.cpp:141] Setting up inception_5b/5x5
I0403 14:42:56.899643 13556 net.cpp:148] Top shape: 24 128 7 7 (150528)
I0403 14:42:56.899658 13556 net.cpp:156] Memory required for data: 1335327264
I0403 14:42:56.899675 13556 layer_factory.hpp:77] Creating layer inception_5b/relu_5x5
I0403 14:42:56.899694 13556 net.cpp:91] Creating Layer inception_5b/relu_5x5
I0403 14:42:56.899710 13556 net.cpp:425] inception_5b/relu_5x5 <- inception_5b/5x5
I0403 14:42:56.899727 13556 net.cpp:386] inception_5b/relu_5x5 -> inception_5b/5x5 (in-place)
I0403 14:42:56.899915 13556 net.cpp:141] Setting up inception_5b/relu_5x5
I0403 14:42:56.899940 13556 net.cpp:148] Top shape: 24 128 7 7 (150528)
I0403 14:42:56.899953 13556 net.cpp:156] Memory required for data: 1335929376
I0403 14:42:56.899967 13556 layer_factory.hpp:77] Creating layer inception_5b/pool
I0403 14:42:56.899987 13556 net.cpp:91] Creating Layer inception_5b/pool
I0403 14:42:56.900003 13556 net.cpp:425] inception_5b/pool <- inception_5a/output_inception_5a/output_0_split_3
I0403 14:42:56.900022 13556 net.cpp:399] inception_5b/pool -> inception_5b/pool
I0403 14:42:56.900097 13556 net.cpp:141] Setting up inception_5b/pool
I0403 14:42:56.900120 13556 net.cpp:148] Top shape: 24 832 7 7 (978432)
I0403 14:42:56.900135 13556 net.cpp:156] Memory required for data: 1339843104
I0403 14:42:56.900148 13556 layer_factory.hpp:77] Creating layer inception_5b/pool_proj
I0403 14:42:56.900169 13556 net.cpp:91] Creating Layer inception_5b/pool_proj
I0403 14:42:56.900187 13556 net.cpp:425] inception_5b/pool_proj <- inception_5b/pool
I0403 14:42:56.900207 13556 net.cpp:399] inception_5b/pool_proj -> inception_5b/pool_proj
I0403 14:42:56.902541 13556 net.cpp:141] Setting up inception_5b/pool_proj
I0403 14:42:56.902575 13556 net.cpp:148] Top shape: 24 128 7 7 (150528)
I0403 14:42:56.902592 13556 net.cpp:156] Memory required for data: 1340445216
I0403 14:42:56.902609 13556 layer_factory.hpp:77] Creating layer inception_5b/relu_pool_proj
I0403 14:42:56.902626 13556 net.cpp:91] Creating Layer inception_5b/relu_pool_proj
I0403 14:42:56.902642 13556 net.cpp:425] inception_5b/relu_pool_proj <- inception_5b/pool_proj
I0403 14:42:56.902662 13556 net.cpp:386] inception_5b/relu_pool_proj -> inception_5b/pool_proj (in-place)
I0403 14:42:56.902962 13556 net.cpp:141] Setting up inception_5b/relu_pool_proj
I0403 14:42:56.902987 13556 net.cpp:148] Top shape: 24 128 7 7 (150528)
I0403 14:42:56.903002 13556 net.cpp:156] Memory required for data: 1341047328
I0403 14:42:56.903017 13556 layer_factory.hpp:77] Creating layer inception_5b/output
I0403 14:42:56.903033 13556 net.cpp:91] Creating Layer inception_5b/output
I0403 14:42:56.903062 13556 net.cpp:425] inception_5b/output <- inception_5b/1x1
I0403 14:42:56.903080 13556 net.cpp:425] inception_5b/output <- inception_5b/3x3
I0403 14:42:56.903096 13556 net.cpp:425] inception_5b/output <- inception_5b/5x5
I0403 14:42:56.903111 13556 net.cpp:425] inception_5b/output <- inception_5b/pool_proj
I0403 14:42:56.903131 13556 net.cpp:399] inception_5b/output -> inception_5b/output
I0403 14:42:56.903180 13556 net.cpp:141] Setting up inception_5b/output
I0403 14:42:56.903206 13556 net.cpp:148] Top shape: 24 1024 7 7 (1204224)
I0403 14:42:56.903221 13556 net.cpp:156] Memory required for data: 1345864224
I0403 14:42:56.903235 13556 layer_factory.hpp:77] Creating layer pool5/7x7_s1
I0403 14:42:56.903251 13556 net.cpp:91] Creating Layer pool5/7x7_s1
I0403 14:42:56.903269 13556 net.cpp:425] pool5/7x7_s1 <- inception_5b/output
I0403 14:42:56.903285 13556 net.cpp:399] pool5/7x7_s1 -> pool5/7x7_s1
I0403 14:42:56.903499 13556 net.cpp:141] Setting up pool5/7x7_s1
I0403 14:42:56.903524 13556 net.cpp:148] Top shape: 24 1024 1 1 (24576)
I0403 14:42:56.903538 13556 net.cpp:156] Memory required for data: 1345962528
I0403 14:42:56.903553 13556 layer_factory.hpp:77] Creating layer pool5/drop_7x7_s1
I0403 14:42:56.903573 13556 net.cpp:91] Creating Layer pool5/drop_7x7_s1
I0403 14:42:56.903590 13556 net.cpp:425] pool5/drop_7x7_s1 <- pool5/7x7_s1
I0403 14:42:56.903609 13556 net.cpp:386] pool5/drop_7x7_s1 -> pool5/7x7_s1 (in-place)
I0403 14:42:56.903658 13556 net.cpp:141] Setting up pool5/drop_7x7_s1
I0403 14:42:56.903683 13556 net.cpp:148] Top shape: 24 1024 1 1 (24576)
I0403 14:42:56.903698 13556 net.cpp:156] Memory required for data: 1346060832
I0403 14:42:56.903712 13556 layer_factory.hpp:77] Creating layer loss3/classifier_plantvillage
I0403 14:42:56.903731 13556 net.cpp:91] Creating Layer loss3/classifier_plantvillage
I0403 14:42:56.903748 13556 net.cpp:425] loss3/classifier_plantvillage <- pool5/7x7_s1
I0403 14:42:56.903767 13556 net.cpp:399] loss3/classifier_plantvillage -> loss3/classifier_plantvillage
I0403 14:42:56.904186 13556 net.cpp:141] Setting up loss3/classifier_plantvillage
I0403 14:42:56.904209 13556 net.cpp:148] Top shape: 24 38 (912)
I0403 14:42:56.904224 13556 net.cpp:156] Memory required for data: 1346064480
I0403 14:42:56.904240 13556 layer_factory.hpp:77] Creating layer loss3/classifier_plantvillage_loss3/classifier_plantvillage_0_split
I0403 14:42:56.904263 13556 net.cpp:91] Creating Layer loss3/classifier_plantvillage_loss3/classifier_plantvillage_0_split
I0403 14:42:56.904278 13556 net.cpp:425] loss3/classifier_plantvillage_loss3/classifier_plantvillage_0_split <- loss3/classifier_plantvillage
I0403 14:42:56.904295 13556 net.cpp:399] loss3/classifier_plantvillage_loss3/classifier_plantvillage_0_split -> loss3/classifier_plantvillage_loss3/classifier_plantvillage_0_split_0
I0403 14:42:56.904314 13556 net.cpp:399] loss3/classifier_plantvillage_loss3/classifier_plantvillage_0_split -> loss3/classifier_plantvillage_loss3/classifier_plantvillage_0_split_1
I0403 14:42:56.904336 13556 net.cpp:399] loss3/classifier_plantvillage_loss3/classifier_plantvillage_0_split -> loss3/classifier_plantvillage_loss3/classifier_plantvillage_0_split_2
I0403 14:42:56.904356 13556 net.cpp:399] loss3/classifier_plantvillage_loss3/classifier_plantvillage_0_split -> loss3/classifier_plantvillage_loss3/classifier_plantvillage_0_split_3
I0403 14:42:56.904456 13556 net.cpp:141] Setting up loss3/classifier_plantvillage_loss3/classifier_plantvillage_0_split
I0403 14:42:56.904479 13556 net.cpp:148] Top shape: 24 38 (912)
I0403 14:42:56.904494 13556 net.cpp:148] Top shape: 24 38 (912)
I0403 14:42:56.904507 13556 net.cpp:148] Top shape: 24 38 (912)
I0403 14:42:56.904521 13556 net.cpp:148] Top shape: 24 38 (912)
I0403 14:42:56.904534 13556 net.cpp:156] Memory required for data: 1346079072
I0403 14:42:56.904547 13556 layer_factory.hpp:77] Creating layer loss1/loss
I0403 14:42:56.904613 13556 net.cpp:91] Creating Layer loss1/loss
I0403 14:42:56.904633 13556 net.cpp:425] loss1/loss <- loss1/classifier_plantvillage_loss1/classifier_plantvillage_0_split_0
I0403 14:42:56.904675 13556 net.cpp:425] loss1/loss <- label_data_1_split_0
…
