…
I0403 15:13:49.457303 14244 net.cpp:313] The NetState phase (1) differed from the phase (0) specified by a rule in layer data
I0403 15:13:49.458431 14244 net.cpp:49] Initializing net from parameters: 
state {
  phase: TEST
}
layer {
  name: "data"
  type: "Data"
  top: "data"
  top: "label"
  include {
    phase: TEST
  }
  transform_param {
    mirror: false
    crop_size: 224
    mean_file: "/home/mohanty/data/final_dataset/lmdb/color-40-60/mean.binaryproto"
  }
  data_param {
    source: "/home/mohanty/data/final_dataset/lmdb/color-40-60/test_db"
    batch_size: 24
    backend: LMDB
  }
}
layer {
  name: "conv1/7x7_s2"
  type: "Convolution"
  bottom: "data"
  top: "conv1/7x7_s2"
  param {
    lr_mult: 1
    decay_mult: 1
  }
  param {
    lr_mult: 2
    decay_mult: 0
  }
  convolution_param {
    num_output: 64
    pad: 3
    kernel_size: 7
    stride: 2
    weight_filler {
      type: "xavier"
      std: 0.1
    }
    bias_filler {
      type: "constant"
      value: 0.2
    }
  }
}
layer {
  name: "conv1/relu_7x7"
  type: "ReLU"
  bottom: "conv1/7x7_s2"
  top: "conv1/7x7_s2"
}
layer {
  name: "pool1/3x3_s2"
  type: "Pooling"
  bottom: "conv1/7x7_s2"
  top: "pool1/3x3_s2"
  pooling_param {
    pool: MAX
    kernel_size: 3
    stride: 2
  }
}
layer {
  name: "pool1/norm1"
  type: "LRN"
  bottom: "pool1/3x3_s2"
  top: "pool1/norm1"
  lrn_param {
    local_size: 5
    alpha: 0.0001
    beta: 0.75
  }
}
layer {
  name: "conv2/3x3_reduce"
  type: "Convolution"
  bottom: "pool1/norm1"
  top: "conv2/3x3_reduce"
  param {
    lr_mult: 1
    decay_mult: 1
  }
  param {
    lr_mult: 2
    decay_mult: 0
  }
  convolution_param {
    num_output: 64
    kernel_size: 1
    weight_filler {
      type: "xavier"
      std: 0.1
    }
    bias_filler {
      type: "constant"
      value: 0.2
    }
  }
}
layer {
  name: "conv2/relu_3x3_reduce"
  type: "ReLU"
  bottom: "conv2/3x3_reduce"
  top: "conv2/3x3_reduce"
}
layer {
  name: "conv2/3x3"
  type: "Convolution"
  bottom: "conv2/3x3_reduce"
  top: "conv2/3x3"
  param {
    lr_mult: 1
    decay_mult: 1
  }
  param {
    lr_mult: 2
    decay_mult: 0
  }
  convolution_param {
    num_output: 192
    pad: 1
    kernel_size: 3
    weight_filler {
      type: "xavier"
      std: 0.03
    }
    bias_filler {
      type: "constant"
      value: 0.2
    }
  }
}
layer {
  name: "conv2/relu_3x3"
  type: "ReLU"
  bottom: "conv2/3x3"
  top: "conv2/3x3"
}
layer {
  name: "conv2/norm2"
  type: "LRN"
  bottom: "conv2/3x3"
  top: "conv2/norm2"
  lrn_param {
    local_size: 5
    alpha: 0.0001
    beta: 0.75
  }
}
layer {
  name: "pool2/3x3_s2"
  type: "Pooling"
  bottom: "conv2/norm2"
  top: "pool2/3x3_s2"
  pooling_param {
    pool: MAX
    kernel_size: 3
    stride: 2
  }
}
layer {
  name: "inception_3a/1x1"
  type: "Convolution"
  bottom: "pool2/3x3_s2"
  top: "inception_3a/1x1"
  param {
    lr_mult: 1
    decay_mult: 1
  }
  param {
    lr_mult: 2
    decay_mult: 0
  }
  convolution_param {
    num_output: 64
    kernel_size: 1
    weight_filler {
      type: "xavier"
      std: 0.03
    }
    bias_filler {
      type: "constant"
      value: 0.2
    }
  }
}
layer {
  name: "inception_3a/relu_1x1"
  type: "ReLU"
  bottom: "inception_3a/1x1"
  top: "inception_3a/1x1"
}
layer {
  name: "inception_3a/3x3_reduce"
  type: "Convolution"
  bottom: "pool2/3x3_s2"
  top: "inception_3a/3x3_reduce"
  param {
    lr_mult: 1
    decay_mult: 1
  }
  param {
    lr_mult: 2
    decay_mult: 0
  }
  convolution_param {
    num_output: 96
    kernel_size: 1
    weight_filler {
      type: "xavier"
      std: 0.09
    }
    bias_filler {
      type: "constant"
      value: 0.2
    }
  }
}
layer {
  name: "inception_3a/relu_3x3_reduce"
  type: "ReLU"
  bottom: "inception_3a/3x3_reduce"
  top: "inception_3a/3x3_reduce"
}
layer {
  name: "inception_3a/3x3"
  type: "Convolution"
  bottom: "inception_3a/3x3_reduce"
  top: "inception_3a/3x3"
  param {
    lr_mult: 1
    decay_mult: 1
  }
  param {
    lr_mult: 2
    decay_mult: 0
  }
  convolution_param {
    num_output: 128
    pad: 1
    kernel_size: 3
    weight_filler {
      type: "xavier"
      std: 0.03
    }
    bias_filler {
      type: "constant"
      value: 0.2
    }
  }
}
layer {
  name: "inception_3a/relu_3x3"
  type: "ReLU"
  bottom: "inception_3a/3x3"
  top: "inception_3a/3x3"
}
layer {
  name: "inception_3a/5x5_reduce"
  type: "Convolution"
  bottom: "pool2/3x3_s2"
  top: "inception_3a/5x5_reduce"
  param {
    lr_mult: 1
    decay_mult: 1
  }
  param {
    lr_mult: 2
    decay_mult: 0
  }
  convolution_param {
    num_output: 16
    kernel_size: 1
    weight_filler {
      type: "xavier"
      std: 0.2
    }
    bias_filler {
      type: "constant"
      value: 0.2
    }
  }
}
layer {
  name: "inception_3a/relu_5x5_reduce"
  type: "ReLU"
  bottom: "inception_3a/5x5_reduce"
  top: "inception_3a/5x5_reduce"
}
layer {
  name: "inception_3a/5x5"
  type: "Convolution"
  bottom: "inception_3a/5x5_reduce"
  top: "inception_3a/5x5"
  param {
    lr_mult: 1
    decay_mult: 1
  }
  param {
    lr_mult: 2
    decay_mult: 0
  }
  convolution_param {
    num_output: 32
    pad: 2
    kernel_size: 5
    weight_filler {
      type: "xavier"
      std: 0.03
    }
    bias_filler {
      type: "constant"
      value: 0.2
    }
  }
}
layer {
  name: "inception_3a/relu_5x5"
  type: "ReLU"
  bottom: "inception_3a/5x5"
  top: "inception_3a/5x5"
}
layer {
  name: "inception_3a/pool"
  type: "Pooling"
  bottom: "pool2/3x3_s2"
  top: "inception_3a/pool"
  pooling_param {
    pool: MAX
    kernel_size: 3
    stride: 1
    pad: 1
  }
}
layer {
  name: "inception_3a/pool_proj"
  type: "Convolution"
  bottom: "inception_3a/pool"
  top: "inception_3a/pool_proj"
  param {
    lr_mult: 1
    decay_mult: 1
  }
  param {
    lr_mult: 2
    decay_mult: 0
  }
  convolution_param {
    num_output: 32
    kernel_size: 1
    weight_filler {
      type: "xavier"
      std: 0.1
    }
    bias_filler {
      type: "constant"
      value: 0.2
    }
  }
}
layer {
  name: "inception_3a/relu_pool_proj"
  type: "ReLU"
  bottom: "inception_3a/pool_proj"
  top: "inception_3a/pool_proj"
}
layer {
  name: "inception_3a/output"
  type: "Concat"
  bottom: "inception_3a/1x1"
  bottom: "inception_3a/3x3"
  bottom: "inception_3a/5x5"
  bottom: "inception_3a/pool_proj"
  top: "inception_3a/output"
}
layer {
  name: "inception_3b/1x1"
  type: "Convolution"
  bottom: "inception_3a/output"
  top: "inception_3b/1x1"
  param {
    lr_mult: 1
    decay_mult: 1
  }
  param {
    lr_mult: 2
    decay_mult: 0
  }
  convolution_param {
    num_output: 128
    kernel_size: 1
    weight_filler {
      type: "xavier"
      std: 0.03
    }
    bias_filler {
      type: "constant"
      value: 0.2
    }
  }
}
layer {
  name: "inception_3b/relu_1x1"
  type: "ReLU"
  bottom: "inception_3b/1x1"
  top: "inception_3b/1x1"
}
layer {
  name: "inception_3b/3x3_reduce"
  type: "Convolution"
  bottom: "inception_3a/output"
  top: "inception_3b/3x3_reduce"
  param {
    lr_mult: 1
    decay_mult: 1
  }
  param {
    lr_mult: 2
    decay_mult: 0
  }
  convolution_param {
    num_output: 128
    kernel_size: 1
    weight_filler {
      type: "xavier"
      std: 0.09
    }
    bias_filler {
      type: "constant"
      value: 0.2
    }
  }
}
layer {
  name: "inception_3b/relu_3x3_reduce"
  type: "ReLU"
  bottom: "inception_3b/3x3_reduce"
  top: "inception_3b/3x3_reduce"
}
layer {
  name: "inception_3b/3x3"
  type: "Convolution"
  bottom: "inception_3b/3x3_reduce"
  top: "inception_3b/3x3"
  param {
    lr_mult: 1
    decay_mult: 1
  }
  param {
    lr_mult: 2
    decay_mult: 0
  }
  convolution_param {
    num_output: 192
    pad: 1
    kernel_size: 3
    weight_filler {
      type: "xavier"
      std: 0.03
    }
    bias_filler {
      type: "constant"
      value: 0.2
    }
  }
}
layer {
  name: "inception_3b/relu_3x3"
  type: "ReLU"
  bottom: "inception_3b/3x3"
  top: "inception_3b/3x3"
}
layer {
  name: "inception_3b/5x5_reduce"
  type: "Convolution"
  bottom: "inception_3a/output"
  top: "inception_3b/5x5_reduce"
  param {
    lr_mult: 1
    decay_mult: 1
  }
  param {
    lr_mult: 2
    decay_mult: 0
  }
  convolution_param {
    num_output: 32
    kernel_size: 1
    weight_filler {
      type: "xavier"
      std: 0.2
    }
    bias_filler {
      type: "constant"
      value: 0.2
    }
  }
}
layer {
  name: "inception_3b/relu_5x5_reduce"
  type: "ReLU"
  bottom: "inception_3b/5x5_reduce"
  top: "inception_3b/5x5_reduce"
}
layer {
  name: "inception_3b/5x5"
  type: "Convolution"
  bottom: "inception_3b/5x5_reduce"
  top: "inception_3b/5x5"
  param {
    lr_mult: 1
    decay_mult: 1
  }
  param {
    lr_mult: 2
    decay_mult: 0
  }
  convolution_param {
    num_output: 96
    pad: 2
    kernel_size: 5
    weight_filler {
      type: "xavier"
      std: 0.03
    }
    bias_filler {
      type: "constant"
      value: 0.2
    }
  }
}
layer {
  name: "inception_3b/relu_5x5"
  type: "ReLU"
  bottom: "inception_3b/5x5"
  top: "inception_3b/5x5"
}
layer {
  name: "inception_3b/pool"
  type: "Pooling"
  bottom: "inception_3a/output"
  top: "inception_3b/pool"
  pooling_param {
    pool: MAX
    kernel_size: 3
    stride: 1
    pad: 1
  }
}
layer {
  name: "inception_3b/pool_proj"
  type: "Convolution"
  bottom: "inception_3b/pool"
  top: "inception_3b/pool_proj"
  param {
    lr_mult: 1
    decay_mult: 1
  }
  param {
    lr_mult: 2
    decay_mult: 0
  }
  convolution_param {
    num_output: 64
    kernel_size: 1
    weight_filler {
      type: "xavier"
      std: 0.1
    }
    bias_filler {
      type: "constant"
      value: 0.2
    }
  }
}
layer {
  name: "inception_3b/relu_pool_proj"
  type: "ReLU"
  bottom: "inception_3b/pool_proj"
  top: "inception_3b/pool_proj"
}
layer {
  name: "inception_3b/output"
  type: "Concat"
  bottom: "inception_3b/1x1"
  bottom: "inception_3b/3x3"
  bottom: "inception_3b/5x5"
  bottom: "inception_3b/pool_proj"
  top: "inception_3b/output"
}
layer {
  name: "pool3/3x3_s2"
  type: "Pooling"
  bottom: "inception_3b/output"
  top: "pool3/3x3_s2"
  pooling_param {
    pool: MAX
    kernel_size: 3
    stride: 2
  }
}
layer {
  name: "inception_4a/1x1"
  type: "Convolution"
  bottom: "pool3/3x3_s2"
  top: "inception_4a/1x1"
  param {
    lr_mult: 1
    decay_mult: 1
  }
  param {
    lr_mult: 2
    decay_mult: 0
  }
  convolution_param {
    num_output: 192
    kernel_size: 1
    weight_filler {
      type: "xavier"
      std: 0.03
    }
    bias_filler {
      type: "constant"
      value: 0.2
    }
  }
}
layer {
  name: "inception_4a/relu_1x1"
  type: "ReLU"
  bottom: "inception_4a/1x1"
  top: "inception_4a/1x1"
}
layer {
  name: "inception_4a/3x3_reduce"
  type: "Convolution"
  bottom: "pool3/3x3_s2"
  top: "inception_4a/3x3_reduce"
  param {
    lr_mult: 1
    decay_mult: 1
  }
  param {
    lr_mult: 2
    decay_mult: 0
  }
  convolution_param {
    num_output: 96
    kernel_size: 1
    weight_filler {
      type: "xavier"
      std: 0.09
    }
    bias_filler {
      type: "constant"
      value: 0.2
    }
  }
}
layer {
  name: "inception_4a/relu_3x3_reduce"
  type: "ReLU"
  bottom: "inception_4a/3x3_reduce"
  top: "inception_4a/3x3_reduce"
}
layer {
  name: "inception_4a/3x3"
  type: "Convolution"
  bottom: "inception_4a/3x3_reduce"
  top: "inception_4a/3x3"
  param {
    lr_mult: 1
    decay_mult: 1
  }
  param {
    lr_mult: 2
    decay_mult: 0
  }
  convolution_param {
    num_output: 208
    pad: 1
    kernel_size: 3
    weight_filler {
      type: "xavier"
      std: 0.03
    }
    bias_filler {
      type: "constant"
      value: 0.2
    }
  }
}
layer {
  name: "inception_4a/relu_3x3"
  type: "ReLU"
  bottom: "inception_4a/3x3"
  top: "inception_4a/3x3"
}
layer {
  name: "inception_4a/5x5_reduce"
  type: "Convolution"
  bottom: "pool3/3x3_s2"
  top: "inception_4a/5x5_reduce"
  param {
    lr_mult: 1
    decay_mult: 1
  }
  param {
    lr_mult: 2
    decay_mult: 0
  }
  convolution_param {
    num_output: 16
    kernel_size: 1
    weight_filler {
      type: "xavier"
      std: 0.2
    }
    bias_filler {
      type: "constant"
      value: 0.2
    }
  }
}
layer {
  name: "inception_4a/relu_5x5_reduce"
  type: "ReLU"
  bottom: "inception_4a/5x5_reduce"
  top: "inception_4a/5x5_reduce"
}
layer {
  name: "inception_4a/5x5"
  type: "Convolution"
  bottom: "inception_4a/5x5_reduce"
  top: "inception_4a/5x5"
  param {
    lr_mult: 1
    decay_mult: 1
  }
  param {
    lr_mult: 2
    decay_mult: 0
  }
  convolution_param {
    num_output: 48
    pad: 2
    kernel_size: 5
    weight_filler {
      type: "xavier"
      std: 0.03
    }
    bias_filler {
      type: "constant"
      value: 0.2
    }
  }
}
layer {
  name: "inception_4a/relu_5x5"
  type: "ReLU"
  bottom: "inception_4a/5x5"
  top: "inception_4a/5x5"
}
layer {
  name: "inception_4a/pool"
  type: "Pooling"
  bottom: "pool3/3x3_s2"
  top: "inception_4a/pool"
  pooling_param {
    pool: MAX
    kernel_size: 3
    stride: 1
    pad: 1
  }
}
layer {
  name: "inception_4a/pool_proj"
  type: "Convolution"
  bottom: "inception_4a/pool"
  top: "inception_4a/pool_proj"
  param {
    lr_mult: 1
    decay_mult: 1
  }
  param {
    lr_mult: 2
    decay_mult: 0
  }
  convolution_param {
    num_output: 64
    kernel_size: 1
    weight_filler {
      type: "xavier"
      std: 0.1
    }
    bias_filler {
      type: "constant"
      value: 0.2
    }
  }
}
layer {
  name: "inception_4a/relu_pool_proj"
  type: "ReLU"
  bottom: "inception_4a/pool_proj"
  top: "inception_4a/pool_proj"
}
layer {
  name: "inception_4a/output"
  type: "Concat"
  bottom: "inception_4a/1x1"
  bottom: "inception_4a/3x3"
  bottom: "inception_4a/5x5"
  bottom: "inception_4a/pool_proj"
  top: "inception_4a/output"
}
layer {
  name: "loss1/ave_pool"
  type: "Pooling"
  bottom: "inception_4a/output"
  top: "loss1/ave_pool"
  pooling_param {
    pool: AVE
    kernel_size: 5
    stride: 3
  }
}
layer {
  name: "loss1/conv"
  type: "Convolution"
  bottom: "loss1/ave_pool"
  top: "loss1/conv"
  param {
    lr_mult: 1
    decay_mult: 1
  }
  param {
    lr_mult: 2
    decay_mult: 0
  }
  convolution_param {
    num_output: 128
    kernel_size: 1
    weight_filler {
      type: "xavier"
      std: 0.08
    }
    bias_filler {
      type: "constant"
      value: 0.2
    }
  }
}
layer {
  name: "loss1/relu_conv"
  type: "ReLU"
  bottom: "loss1/conv"
  top: "loss1/conv"
}
layer {
  name: "loss1/fc"
  type: "InnerProduct"
  bottom: "loss1/conv"
  top: "loss1/fc"
  param {
    lr_mult: 1
    decay_mult: 1
  }
  param {
    lr_mult: 2
    decay_mult: 0
  }
  inner_product_param {
    num_output: 1024
    weight_filler {
      type: "xavier"
      std: 0.02
    }
    bias_filler {
      type: "constant"
      value: 0.2
    }
  }
}
layer {
  name: "loss1/relu_fc"
  type: "ReLU"
  bottom: "loss1/fc"
  top: "loss1/fc"
}
layer {
  name: "loss1/drop_fc"
  type: "Dropout"
  bottom: "loss1/fc"
  top: "loss1/fc"
  dropout_param {
    dropout_ratio: 0.7
  }
}
layer {
  name: "loss1/classifier_plantvillage"
  type: "InnerProduct"
  bottom: "loss1/fc"
  top: "loss1/classifier_plantvillage"
  param {
    lr_mult: 1
    decay_mult: 1
  }
  param {
    lr_mult: 2
    decay_mult: 0
  }
  inner_product_param {
    num_output: 38
    weight_filler {
      type: "xavier"
      std: 0.0009765625
    }
    bias_filler {
      type: "constant"
      value: 0
    }
  }
}
layer {
  name: "inception_4b/1x1"
  type: "Convolution"
  bottom: "inception_4a/output"
  top: "inception_4b/1x1"
  param {
    lr_mult: 1
    decay_mult: 1
  }
  param {
    lr_mult: 2
    decay_mult: 0
  }
  convolution_param {
    num_output: 160
    kernel_size: 1
    weight_filler {
      type: "xavier"
      std: 0.03
    }
    bias_filler {
      type: "constant"
      value: 0.2
    }
  }
}
layer {
  name: "inception_4b/relu_1x1"
  type: "ReLU"
  bottom: "inception_4b/1x1"
  top: "inception_4b/1x1"
}
layer {
  name: "inception_4b/3x3_reduce"
  type: "Convolution"
  bottom: "inception_4a/output"
  top: "inception_4b/3x3_reduce"
  param {
    lr_mult: 1
    decay_mult: 1
  }
  param {
    lr_mult: 2
    decay_mult: 0
  }
  convolution_param {
    num_output: 112
    kernel_size: 1
    weight_filler {
      type: "xavier"
      std: 0.09
    }
    bias_filler {
      type: "constant"
      value: 0.2
    }
  }
}
layer {
  name: "inception_4b/relu_3x3_reduce"
  type: "ReLU"
  bottom: "inception_4b/3x3_reduce"
  top: "inception_4b/3x3_reduce"
}
layer {
  name: "inception_4b/3x3"
  type: "Convolution"
  bottom: "inception_4b/3x3_reduce"
  top: "inception_4b/3x3"
  param {
    lr_mult: 1
    decay_mult: 1
  }
  param {
    lr_mult: 2
    decay_mult: 0
  }
  convolution_param {
    num_output: 224
    pad: 1
    kernel_size: 3
    weight_filler {
      type: "xavier"
      std: 0.03
    }
    bias_filler {
      type: "constant"
      value: 0.2
    }
  }
}
layer {
  name: "inception_4b/relu_3x3"
  type: "ReLU"
  bottom: "inception_4b/3x3"
  top: "inception_4b/3x3"
}
layer {
  name: "inception_4b/5x5_reduce"
  type: "Convolution"
  bottom: "inception_4a/output"
  top: "inception_4b/5x5_reduce"
  param {
    lr_mult: 1
    decay_mult: 1
  }
  param {
    lr_mult: 2
    decay_mult: 0
  }
  convolution_param {
    num_output: 24
    kernel_size: 1
    weight_filler {
      type: "xavier"
      std: 0.2
    }
    bias_filler {
      type: "constant"
      value: 0.2
    }
  }
}
layer {
  name: "inception_4b/relu_5x5_reduce"
  type: "ReLU"
  bottom: "inception_4b/5x5_reduce"
  top: "inception_4b/5x5_reduce"
}
layer {
  name: "inception_4b/5x5"
  type: "Convolution"
  bottom: "inception_4b/5x5_reduce"
  top: "inception_4b/5x5"
  param {
    lr_mult: 1
    decay_mult: 1
  }
  param {
    lr_mult: 2
    decay_mult: 0
  }
  convolution_param {
    num_output: 64
    pad: 2
    kernel_size: 5
    weight_filler {
      type: "xavier"
      std: 0.03
    }
    bias_filler {
      type: "constant"
      value: 0.2
    }
  }
}
layer {
  name: "inception_4b/relu_5x5"
  type: "ReLU"
  bottom: "inception_4b/5x5"
  top: "inception_4b/5x5"
}
layer {
  name: "inception_4b/pool"
  type: "Pooling"
  bottom: "inception_4a/output"
  top: "inception_4b/pool"
  pooling_param {
    pool: MAX
    kernel_size: 3
    stride: 1
    pad: 1
  }
}
layer {
  name: "inception_4b/pool_proj"
  type: "Convolution"
  bottom: "inception_4b/pool"
  top: "inception_4b/pool_proj"
  param {
    lr_mult: 1
    decay_mult: 1
  }
  param {
    lr_mult: 2
    decay_mult: 0
  }
  convolution_param {
    num_output: 64
    kernel_size: 1
    weight_filler {
      type: "xavier"
      std: 0.1
    }
    bias_filler {
      type: "constant"
      value: 0.2
    }
  }
}
layer {
  name: "inception_4b/relu_pool_proj"
  type: "ReLU"
  bottom: "inception_4b/pool_proj"
  top: "inception_4b/pool_proj"
}
layer {
  name: "inception_4b/output"
  type: "Concat"
  bottom: "inception_4b/1x1"
  bottom: "inception_4b/3x3"
  bottom: "inception_4b/5x5"
  bottom: "inception_4b/pool_proj"
  top: "inception_4b/output"
}
layer {
  name: "inception_4c/1x1"
  type: "Convolution"
  bottom: "inception_4b/output"
  top: "inception_4c/1x1"
  param {
    lr_mult: 1
    decay_mult: 1
  }
  param {
    lr_mult: 2
    decay_mult: 0
  }
  convolution_param {
    num_output: 128
    kernel_size: 1
    weight_filler {
      type: "xavier"
      std: 0.03
    }
    bias_filler {
      type: "constant"
      value: 0.2
    }
  }
}
layer {
  name: "inception_4c/relu_1x1"
  type: "ReLU"
  bottom: "inception_4c/1x1"
  top: "inception_4c/1x1"
}
layer {
  name: "inception_4c/3x3_reduce"
  type: "Convolution"
  bottom: "inception_4b/output"
  top: "inception_4c/3x3_reduce"
  param {
    lr_mult: 1
    decay_mult: 1
  }
  param {
    lr_mult: 2
    decay_mult: 0
  }
  convolution_param {
    num_output: 128
    kernel_size: 1
    weight_filler {
      type: "xavier"
      std: 0.09
    }
    bias_filler {
      type: "constant"
      value: 0.2
    }
  }
}
layer {
  name: "inception_4c/relu_3x3_reduce"
  type: "ReLU"
  bottom: "inception_4c/3x3_reduce"
  top: "inception_4c/3x3_reduce"
}
layer {
  name: "inception_4c/3x3"
  type: "Convolution"
  bottom: "inception_4c/3x3_reduce"
  top: "inception_4c/3x3"
  param {
    lr_mult: 1
    decay_mult: 1
  }
  param {
    lr_mult: 2
    decay_mult: 0
  }
  convolution_param {
    num_output: 256
    pad: 1
    kernel_size: 3
    weight_filler {
      type: "xavier"
      std: 0.03
    }
    bias_filler {
      type: "constant"
      value: 0.2
    }
  }
}
layer {
  name: "inception_4c/relu_3x3"
  type: "ReLU"
  bottom: "inception_4c/3x3"
  top: "inception_4c/3x3"
}
layer {
  name: "inception_4c/5x5_reduce"
  type: "Convolution"
  bottom: "inception_4b/output"
  top: "inception_4c/5x5_reduce"
  param {
    lr_mult: 1
    decay_mult: 1
  }
  param {
    lr_mult: 2
    decay_mult: 0
  }
  convolution_param {
    num_output: 24
    kernel_size: 1
    weight_filler {
      type: "xavier"
      std: 0.2
    }
    bias_filler {
      type: "constant"
      value: 0.2
    }
  }
}
layer {
  name: "inception_4c/relu_5x5_reduce"
  type: "ReLU"
  bottom: "inception_4c/5x5_reduce"
  top: "inception_4c/5x5_reduce"
}
layer {
  name: "inception_4c/5x5"
  type: "Convolution"
  bottom: "inception_4c/5x5_reduce"
  top: "inception_4c/5x5"
  param {
    lr_mult: 1
    decay_mult: 1
  }
  param {
    lr_mult: 2
    decay_mult: 0
  }
  convolution_param {
    num_output: 64
    pad: 2
    kernel_size: 5
    weight_filler {
      type: "xavier"
      std: 0.03
    }
    bias_filler {
      type: "constant"
      value: 0.2
    }
  }
}
layer {
  name: "inception_4c/relu_5x5"
  type: "ReLU"
  bottom: "inception_4c/5x5"
  top: "inception_4c/5x5"
}
layer {
  name: "inception_4c/pool"
  type: "Pooling"
  bottom: "inception_4b/output"
  top: "inception_4c/pool"
  pooling_param {
    pool: MAX
    kernel_size: 3
    stride: 1
    pad: 1
  }
}
layer {
  name: "inception_4c/pool_proj"
  type: "Convolution"
  bottom: "inception_4c/pool"
  top: "inception_4c/pool_proj"
  param {
    lr_mult: 1
    decay_mult: 1
  }
  param {
    lr_mult: 2
    decay_mult: 0
  }
  convolution_param {
    num_output: 64
    kernel_size: 1
    weight_filler {
      type: "xavier"
      std: 0.1
    }
    bias_filler {
      type: "constant"
      value: 0.2
    }
  }
}
layer {
  name: "inception_4c/relu_pool_proj"
  type: "ReLU"
  bottom: "inception_4c/pool_proj"
  top: "inception_4c/pool_proj"
}
layer {
  name: "inception_4c/output"
  type: "Concat"
  bottom: "inception_4c/1x1"
  bottom: "inception_4c/3x3"
  bottom: "inception_4c/5x5"
  bottom: "inception_4c/pool_proj"
  top: "inception_4c/output"
}
layer {
  name: "inception_4d/1x1"
  type: "Convolution"
  bottom: "inception_4c/output"
  top: "inception_4d/1x1"
  param {
    lr_mult: 1
    decay_mult: 1
  }
  param {
    lr_mult: 2
    decay_mult: 0
  }
  convolution_param {
    num_output: 112
    kernel_size: 1
    weight_filler {
      type: "xavier"
      std: 0.03
    }
    bias_filler {
      type: "constant"
      value: 0.2
    }
  }
}
layer {
  name: "inception_4d/relu_1x1"
  type: "ReLU"
  bottom: "inception_4d/1x1"
  top: "inception_4d/1x1"
}
layer {
  name: "inception_4d/3x3_reduce"
  type: "Convolution"
  bottom: "inception_4c/output"
  top: "inception_4d/3x3_reduce"
  param {
    lr_mult: 1
    decay_mult: 1
  }
  param {
    lr_mult: 2
    decay_mult: 0
  }
  convolution_param {
    num_output: 144
    kernel_size: 1
    weight_filler {
      type: "xavier"
      std: 0.09
    }
    bias_filler {
      type: "constant"
      value: 0.2
    }
  }
}
layer {
  name: "inception_4d/relu_3x3_reduce"
  type: "ReLU"
  bottom: "inception_4d/3x3_reduce"
  top: "inception_4d/3x3_reduce"
}
layer {
  name: "inception_4d/3x3"
  type: "Convolution"
  bottom: "inception_4d/3x3_reduce"
  top: "inception_4d/3x3"
  param {
    lr_mult: 1
    decay_mult: 1
  }
  param {
    lr_mult: 2
    decay_mult: 0
  }
  convolution_param {
    num_output: 288
    pad: 1
    kernel_size: 3
    weight_filler {
      type: "xavier"
      std: 0.03
    }
    bias_filler {
      type: "constant"
      value: 0.2
    }
  }
}
layer {
  name: "inception_4d/relu_3x3"
  type: "ReLU"
  bottom: "inception_4d/3x3"
  top: "inception_4d/3x3"
}
layer {
  name: "inception_4d/5x5_reduce"
  type: "Convolution"
  bottom: "inception_4c/output"
  top: "inception_4d/5x5_reduce"
  param {
    lr_mult: 1
    decay_mult: 1
  }
  param {
    lr_mult: 2
    decay_mult: 0
  }
  convolution_param {
    num_output: 32
    kernel_size: 1
    weight_filler {
      type: "xavier"
      std: 0.2
    }
    bias_filler {
      type: "constant"
      value: 0.2
    }
  }
}
layer {
  name: "inception_4d/relu_5x5_reduce"
  type: "ReLU"
  bottom: "inception_4d/5x5_reduce"
  top: "inception_4d/5x5_reduce"
}
layer {
  name: "inception_4d/5x5"
  type: "Convolution"
  bottom: "inception_4d/5x5_reduce"
  top: "inception_4d/5x5"
  param {
    lr_mult: 1
    decay_mult: 1
  }
  param {
    lr_mult: 2
    decay_mult: 0
  }
  convolution_param {
    num_output: 64
    pad: 2
    kernel_size: 5
    weight_filler {
      type: "xavier"
      std: 0.03
    }
    bias_filler {
      type: "constant"
      value: 0.2
    }
  }
}
layer {
  name: "inception_4d/relu_5x5"
  type: "ReLU"
  bottom: "inception_4d/5x5"
  top: "inception_4d/5x5"
}
layer {
  name: "inception_4d/pool"
  type: "Pooling"
  bottom: "inception_4c/output"
  top: "inception_4d/pool"
  pooling_param {
    pool: MAX
    kernel_size: 3
    stride: 1
    pad: 1
  }
}
layer {
  name: "inception_4d/pool_proj"
  type: "Convolution"
  bottom: "inception_4d/pool"
  top: "inception_4d/pool_proj"
  param {
    lr_mult: 1
    decay_mult: 1
  }
  param {
    lr_mult: 2
    decay_mult: 0
  }
  convolution_param {
    num_output: 64
    kernel_size: 1
    weight_filler {
      type: "xavier"
      std: 0.1
    }
    bias_filler {
      type: "constant"
      value: 0.2
    }
  }
}
layer {
  name: "inception_4d/relu_pool_proj"
  type: "ReLU"
  bottom: "inception_4d/pool_proj"
  top: "inception_4d/pool_proj"
}
layer {
  name: "inception_4d/output"
  type: "Concat"
  bottom: "inception_4d/1x1"
  bottom: "inception_4d/3x3"
  bottom: "inception_4d/5x5"
  bottom: "inception_4d/pool_proj"
  top: "inception_4d/output"
}
layer {
  name: "loss2/ave_pool"
  type: "Pooling"
  bottom: "inception_4d/output"
  top: "loss2/ave_pool"
  pooling_param {
    pool: AVE
    kernel_size: 5
    stride: 3
  }
}
layer {
  name: "loss2/conv"
  type: "Convolution"
  bottom: "loss2/ave_pool"
  top: "loss2/conv"
  param {
    lr_mult: 1
    decay_mult: 1
  }
  param {
    lr_mult: 2
    decay_mult: 0
  }
  convolution_param {
    num_output: 128
    kernel_size: 1
    weight_filler {
      type: "xavier"
      std: 0.08
    }
    bias_filler {
      type: "constant"
      value: 0.2
    }
  }
}
layer {
  name: "loss2/relu_conv"
  type: "ReLU"
  bottom: "loss2/conv"
  top: "loss2/conv"
}
layer {
  name: "loss2/fc"
  type: "InnerProduct"
  bottom: "loss2/conv"
  top: "loss2/fc"
  param {
    lr_mult: 1
    decay_mult: 1
  }
  param {
    lr_mult: 2
    decay_mult: 0
  }
  inner_product_param {
    num_output: 1024
    weight_filler {
      type: "xavier"
      std: 0.02
    }
    bias_filler {
      type: "constant"
      value: 0.2
    }
  }
}
layer {
  name: "loss2/relu_fc"
  type: "ReLU"
  bottom: "loss2/fc"
  top: "loss2/fc"
}
layer {
  name: "loss2/drop_fc"
  type: "Dropout"
  bottom: "loss2/fc"
  top: "loss2/fc"
  dropout_param {
    dropout_ratio: 0.7
  }
}
layer {
  name: "loss2/classifier_plantvillage"
  type: "InnerProduct"
  bottom: "loss2/fc"
  top: "loss2/classifier_plantvillage"
  param {
    lr_mult: 1
    decay_mult: 1
  }
  param {
    lr_mult: 2
    decay_mult: 0
  }
  inner_product_param {
    num_output: 38
    weight_filler {
      type: "xavier"
      std: 0.0009765625
    }
    bias_filler {
      type: "constant"
      value: 0
    }
  }
}
layer {
  name: "inception_4e/1x1"
  type: "Convolution"
  bottom: "inception_4d/output"
  top: "inception_4e/1x1"
  param {
    lr_mult: 1
    decay_mult: 1
  }
  param {
    lr_mult: 2
    decay_mult: 0
  }
  convolution_param {
    num_output: 256
    kernel_size: 1
    weight_filler {
      type: "xavier"
      std: 0.03
    }
    bias_filler {
      type: "constant"
      value: 0.2
    }
  }
}
layer {
  name: "inception_4e/relu_1x1"
  type: "ReLU"
  bottom: "inception_4e/1x1"
  top: "inception_4e/1x1"
}
layer {
  name: "inception_4e/3x3_reduce"
  type: "Convolution"
  bottom: "inception_4d/output"
  top: "inception_4e/3x3_reduce"
  param {
    lr_mult: 1
    decay_mult: 1
  }
  param {
    lr_mult: 2
    decay_mult: 0
  }
  convolution_param {
    num_output: 160
    kernel_size: 1
    weight_filler {
      type: "xavier"
      std: 0.09
    }
    bias_filler {
      type: "constant"
      value: 0.2
    }
  }
}
layer {
  name: "inception_4e/relu_3x3_reduce"
  type: "ReLU"
  bottom: "inception_4e/3x3_reduce"
  top: "inception_4e/3x3_reduce"
}
layer {
  name: "inception_4e/3x3"
  type: "Convolution"
  bottom: "inception_4e/3x3_reduce"
  top: "inception_4e/3x3"
  param {
    lr_mult: 1
    decay_mult: 1
  }
  param {
    lr_mult: 2
    decay_mult: 0
  }
  convolution_param {
    num_output: 320
    pad: 1
    kernel_size: 3
    weight_filler {
      type: "xavier"
      std: 0.03
    }
    bias_filler {
      type: "constant"
      value: 0.2
    }
  }
}
layer {
  name: "inception_4e/relu_3x3"
  type: "ReLU"
  bottom: "inception_4e/3x3"
  top: "inception_4e/3x3"
}
layer {
  name: "inception_4e/5x5_reduce"
  type: "Convolution"
  bottom: "inception_4d/output"
  top: "inception_4e/5x5_reduce"
  param {
    lr_mult: 1
    decay_mult: 1
  }
  param {
    lr_mult: 2
    decay_mult: 0
  }
  convolution_param {
    num_output: 32
    kernel_size: 1
    weight_filler {
      type: "xavier"
      std: 0.2
    }
    bias_filler {
      type: "constant"
      value: 0.2
    }
  }
}
layer {
  name: "inception_4e/relu_5x5_reduce"
  type: "ReLU"
  bottom: "inception_4e/5x5_reduce"
  top: "inception_4e/5x5_reduce"
}
layer {
  name: "inception_4e/5x5"
  type: "Convolution"
  bottom: "inception_4e/5x5_reduce"
  top: "inception_4e/5x5"
  p
I0403 15:13:49.459756 14244 layer_factory.hpp:77] Creating layer data
I0403 15:13:49.460378 14244 net.cpp:91] Creating Layer data
I0403 15:13:49.460412 14244 net.cpp:399] data -> data
I0403 15:13:49.460466 14244 net.cpp:399] data -> label
I0403 15:13:49.460505 14244 data_transformer.cpp:25] Loading mean file from: /home/mohanty/data/final_dataset/lmdb/color-40-60/mean.binaryproto
I0403 15:13:49.464396 14246 db_lmdb.cpp:38] Opened lmdb /home/mohanty/data/final_dataset/lmdb/color-40-60/test_db
I0403 15:13:49.474426 14244 data_layer.cpp:41] output data size: 24,3,224,224
I0403 15:13:49.501987 14244 net.cpp:141] Setting up data
I0403 15:13:49.502043 14244 net.cpp:148] Top shape: 24 3 224 224 (3612672)
I0403 15:13:49.502068 14244 net.cpp:148] Top shape: 24 (24)
I0403 15:13:49.502084 14244 net.cpp:156] Memory required for data: 14450784
I0403 15:13:49.502113 14244 layer_factory.hpp:77] Creating layer label_data_1_split
I0403 15:13:49.502141 14244 net.cpp:91] Creating Layer label_data_1_split
I0403 15:13:49.502161 14244 net.cpp:425] label_data_1_split <- label
I0403 15:13:49.502192 14244 net.cpp:399] label_data_1_split -> label_data_1_split_0
I0403 15:13:49.502223 14244 net.cpp:399] label_data_1_split -> label_data_1_split_1
I0403 15:13:49.502246 14244 net.cpp:399] label_data_1_split -> label_data_1_split_2
I0403 15:13:49.502267 14244 net.cpp:399] label_data_1_split -> label_data_1_split_3
I0403 15:13:49.502290 14244 net.cpp:399] label_data_1_split -> label_data_1_split_4
I0403 15:13:49.502311 14244 net.cpp:399] label_data_1_split -> label_data_1_split_5
I0403 15:13:49.502333 14244 net.cpp:399] label_data_1_split -> label_data_1_split_6
I0403 15:13:49.502354 14244 net.cpp:399] label_data_1_split -> label_data_1_split_7
I0403 15:13:49.502374 14244 net.cpp:399] label_data_1_split -> label_data_1_split_8
I0403 15:13:49.502395 14244 net.cpp:399] label_data_1_split -> label_data_1_split_9
I0403 15:13:49.502513 14244 net.cpp:141] Setting up label_data_1_split
I0403 15:13:49.502537 14244 net.cpp:148] Top shape: 24 (24)
I0403 15:13:49.502554 14244 net.cpp:148] Top shape: 24 (24)
I0403 15:13:49.502574 14244 net.cpp:148] Top shape: 24 (24)
I0403 15:13:49.502593 14244 net.cpp:148] Top shape: 24 (24)
I0403 15:13:49.502607 14244 net.cpp:148] Top shape: 24 (24)
I0403 15:13:49.502624 14244 net.cpp:148] Top shape: 24 (24)
I0403 15:13:49.502638 14244 net.cpp:148] Top shape: 24 (24)
I0403 15:13:49.502655 14244 net.cpp:148] Top shape: 24 (24)
I0403 15:13:49.502670 14244 net.cpp:148] Top shape: 24 (24)
I0403 15:13:49.502684 14244 net.cpp:148] Top shape: 24 (24)
I0403 15:13:49.502718 14244 net.cpp:156] Memory required for data: 14451744
I0403 15:13:49.502735 14244 layer_factory.hpp:77] Creating layer conv1/7x7_s2
I0403 15:13:49.502768 14244 net.cpp:91] Creating Layer conv1/7x7_s2
I0403 15:13:49.502786 14244 net.cpp:425] conv1/7x7_s2 <- data
I0403 15:13:49.502804 14244 net.cpp:399] conv1/7x7_s2 -> conv1/7x7_s2
I0403 15:13:49.644198 14244 net.cpp:141] Setting up conv1/7x7_s2
I0403 15:13:49.644286 14244 net.cpp:148] Top shape: 24 64 112 112 (19267584)
I0403 15:13:49.644304 14244 net.cpp:156] Memory required for data: 91522080
I0403 15:13:49.644332 14244 layer_factory.hpp:77] Creating layer conv1/relu_7x7
I0403 15:13:49.644361 14244 net.cpp:91] Creating Layer conv1/relu_7x7
I0403 15:13:49.644379 14244 net.cpp:425] conv1/relu_7x7 <- conv1/7x7_s2
I0403 15:13:49.644397 14244 net.cpp:386] conv1/relu_7x7 -> conv1/7x7_s2 (in-place)
I0403 15:13:49.644692 14244 net.cpp:141] Setting up conv1/relu_7x7
I0403 15:13:49.644719 14244 net.cpp:148] Top shape: 24 64 112 112 (19267584)
I0403 15:13:49.644734 14244 net.cpp:156] Memory required for data: 168592416
I0403 15:13:49.644748 14244 layer_factory.hpp:77] Creating layer pool1/3x3_s2
I0403 15:13:49.644775 14244 net.cpp:91] Creating Layer pool1/3x3_s2
I0403 15:13:49.644793 14244 net.cpp:425] pool1/3x3_s2 <- conv1/7x7_s2
I0403 15:13:49.644814 14244 net.cpp:399] pool1/3x3_s2 -> pool1/3x3_s2
I0403 15:13:49.644889 14244 net.cpp:141] Setting up pool1/3x3_s2
I0403 15:13:49.644912 14244 net.cpp:148] Top shape: 24 64 56 56 (4816896)
I0403 15:13:49.644927 14244 net.cpp:156] Memory required for data: 187860000
I0403 15:13:49.644942 14244 layer_factory.hpp:77] Creating layer pool1/norm1
I0403 15:13:49.644966 14244 net.cpp:91] Creating Layer pool1/norm1
I0403 15:13:49.644984 14244 net.cpp:425] pool1/norm1 <- pool1/3x3_s2
I0403 15:13:49.645027 14244 net.cpp:399] pool1/norm1 -> pool1/norm1
I0403 15:13:49.645326 14244 net.cpp:141] Setting up pool1/norm1
I0403 15:13:49.645354 14244 net.cpp:148] Top shape: 24 64 56 56 (4816896)
I0403 15:13:49.645370 14244 net.cpp:156] Memory required for data: 207127584
I0403 15:13:49.645385 14244 layer_factory.hpp:77] Creating layer conv2/3x3_reduce
I0403 15:13:49.645411 14244 net.cpp:91] Creating Layer conv2/3x3_reduce
I0403 15:13:49.645427 14244 net.cpp:425] conv2/3x3_reduce <- pool1/norm1
I0403 15:13:49.645445 14244 net.cpp:399] conv2/3x3_reduce -> conv2/3x3_reduce
I0403 15:13:49.646847 14244 net.cpp:141] Setting up conv2/3x3_reduce
I0403 15:13:49.646878 14244 net.cpp:148] Top shape: 24 64 56 56 (4816896)
I0403 15:13:49.646893 14244 net.cpp:156] Memory required for data: 226395168
I0403 15:13:49.646915 14244 layer_factory.hpp:77] Creating layer conv2/relu_3x3_reduce
I0403 15:13:49.646934 14244 net.cpp:91] Creating Layer conv2/relu_3x3_reduce
I0403 15:13:49.646951 14244 net.cpp:425] conv2/relu_3x3_reduce <- conv2/3x3_reduce
I0403 15:13:49.646971 14244 net.cpp:386] conv2/relu_3x3_reduce -> conv2/3x3_reduce (in-place)
I0403 15:13:49.647238 14244 net.cpp:141] Setting up conv2/relu_3x3_reduce
I0403 15:13:49.647264 14244 net.cpp:148] Top shape: 24 64 56 56 (4816896)
I0403 15:13:49.647279 14244 net.cpp:156] Memory required for data: 245662752
I0403 15:13:49.647294 14244 layer_factory.hpp:77] Creating layer conv2/3x3
I0403 15:13:49.647318 14244 net.cpp:91] Creating Layer conv2/3x3
I0403 15:13:49.647336 14244 net.cpp:425] conv2/3x3 <- conv2/3x3_reduce
I0403 15:13:49.647356 14244 net.cpp:399] conv2/3x3 -> conv2/3x3
I0403 15:13:49.649667 14244 net.cpp:141] Setting up conv2/3x3
I0403 15:13:49.649698 14244 net.cpp:148] Top shape: 24 192 56 56 (14450688)
I0403 15:13:49.649715 14244 net.cpp:156] Memory required for data: 303465504
I0403 15:13:49.649737 14244 layer_factory.hpp:77] Creating layer conv2/relu_3x3
I0403 15:13:49.649758 14244 net.cpp:91] Creating Layer conv2/relu_3x3
I0403 15:13:49.649775 14244 net.cpp:425] conv2/relu_3x3 <- conv2/3x3
I0403 15:13:49.649792 14244 net.cpp:386] conv2/relu_3x3 -> conv2/3x3 (in-place)
I0403 15:13:49.649979 14244 net.cpp:141] Setting up conv2/relu_3x3
I0403 15:13:49.650007 14244 net.cpp:148] Top shape: 24 192 56 56 (14450688)
I0403 15:13:49.650061 14244 net.cpp:156] Memory required for data: 361268256
I0403 15:13:49.650077 14244 layer_factory.hpp:77] Creating layer conv2/norm2
I0403 15:13:49.650095 14244 net.cpp:91] Creating Layer conv2/norm2
I0403 15:13:49.650111 14244 net.cpp:425] conv2/norm2 <- conv2/3x3
I0403 15:13:49.650131 14244 net.cpp:399] conv2/norm2 -> conv2/norm2
I0403 15:13:49.650429 14244 net.cpp:141] Setting up conv2/norm2
I0403 15:13:49.650456 14244 net.cpp:148] Top shape: 24 192 56 56 (14450688)
I0403 15:13:49.650472 14244 net.cpp:156] Memory required for data: 419071008
I0403 15:13:49.650486 14244 layer_factory.hpp:77] Creating layer pool2/3x3_s2
I0403 15:13:49.650503 14244 net.cpp:91] Creating Layer pool2/3x3_s2
I0403 15:13:49.650517 14244 net.cpp:425] pool2/3x3_s2 <- conv2/norm2
I0403 15:13:49.650535 14244 net.cpp:399] pool2/3x3_s2 -> pool2/3x3_s2
I0403 15:13:49.650589 14244 net.cpp:141] Setting up pool2/3x3_s2
I0403 15:13:49.650614 14244 net.cpp:148] Top shape: 24 192 28 28 (3612672)
I0403 15:13:49.650627 14244 net.cpp:156] Memory required for data: 433521696
I0403 15:13:49.650640 14244 layer_factory.hpp:77] Creating layer pool2/3x3_s2_pool2/3x3_s2_0_split
I0403 15:13:49.650658 14244 net.cpp:91] Creating Layer pool2/3x3_s2_pool2/3x3_s2_0_split
I0403 15:13:49.650674 14244 net.cpp:425] pool2/3x3_s2_pool2/3x3_s2_0_split <- pool2/3x3_s2
I0403 15:13:49.650691 14244 net.cpp:399] pool2/3x3_s2_pool2/3x3_s2_0_split -> pool2/3x3_s2_pool2/3x3_s2_0_split_0
I0403 15:13:49.650712 14244 net.cpp:399] pool2/3x3_s2_pool2/3x3_s2_0_split -> pool2/3x3_s2_pool2/3x3_s2_0_split_1
I0403 15:13:49.650730 14244 net.cpp:399] pool2/3x3_s2_pool2/3x3_s2_0_split -> pool2/3x3_s2_pool2/3x3_s2_0_split_2
I0403 15:13:49.650749 14244 net.cpp:399] pool2/3x3_s2_pool2/3x3_s2_0_split -> pool2/3x3_s2_pool2/3x3_s2_0_split_3
I0403 15:13:49.650815 14244 net.cpp:141] Setting up pool2/3x3_s2_pool2/3x3_s2_0_split
I0403 15:13:49.650836 14244 net.cpp:148] Top shape: 24 192 28 28 (3612672)
I0403 15:13:49.650851 14244 net.cpp:148] Top shape: 24 192 28 28 (3612672)
I0403 15:13:49.650866 14244 net.cpp:148] Top shape: 24 192 28 28 (3612672)
I0403 15:13:49.650881 14244 net.cpp:148] Top shape: 24 192 28 28 (3612672)
I0403 15:13:49.650893 14244 net.cpp:156] Memory required for data: 491324448
I0403 15:13:49.650907 14244 layer_factory.hpp:77] Creating layer inception_3a/1x1
I0403 15:13:49.650928 14244 net.cpp:91] Creating Layer inception_3a/1x1
I0403 15:13:49.650944 14244 net.cpp:425] inception_3a/1x1 <- pool2/3x3_s2_pool2/3x3_s2_0_split_0
I0403 15:13:49.650964 14244 net.cpp:399] inception_3a/1x1 -> inception_3a/1x1
I0403 15:13:49.652439 14244 net.cpp:141] Setting up inception_3a/1x1
I0403 15:13:49.652468 14244 net.cpp:148] Top shape: 24 64 28 28 (1204224)
I0403 15:13:49.652483 14244 net.cpp:156] Memory required for data: 496141344
I0403 15:13:49.652501 14244 layer_factory.hpp:77] Creating layer inception_3a/relu_1x1
I0403 15:13:49.652520 14244 net.cpp:91] Creating Layer inception_3a/relu_1x1
I0403 15:13:49.652536 14244 net.cpp:425] inception_3a/relu_1x1 <- inception_3a/1x1
I0403 15:13:49.652554 14244 net.cpp:386] inception_3a/relu_1x1 -> inception_3a/1x1 (in-place)
I0403 15:13:49.652720 14244 net.cpp:141] Setting up inception_3a/relu_1x1
I0403 15:13:49.652745 14244 net.cpp:148] Top shape: 24 64 28 28 (1204224)
I0403 15:13:49.652758 14244 net.cpp:156] Memory required for data: 500958240
I0403 15:13:49.652772 14244 layer_factory.hpp:77] Creating layer inception_3a/3x3_reduce
I0403 15:13:49.652794 14244 net.cpp:91] Creating Layer inception_3a/3x3_reduce
I0403 15:13:49.652813 14244 net.cpp:425] inception_3a/3x3_reduce <- pool2/3x3_s2_pool2/3x3_s2_0_split_1
I0403 15:13:49.652830 14244 net.cpp:399] inception_3a/3x3_reduce -> inception_3a/3x3_reduce
I0403 15:13:49.654444 14244 net.cpp:141] Setting up inception_3a/3x3_reduce
I0403 15:13:49.654474 14244 net.cpp:148] Top shape: 24 96 28 28 (1806336)
I0403 15:13:49.654489 14244 net.cpp:156] Memory required for data: 508183584
I0403 15:13:49.654510 14244 layer_factory.hpp:77] Creating layer inception_3a/relu_3x3_reduce
I0403 15:13:49.654546 14244 net.cpp:91] Creating Layer inception_3a/relu_3x3_reduce
I0403 15:13:49.654582 14244 net.cpp:425] inception_3a/relu_3x3_reduce <- inception_3a/3x3_reduce
I0403 15:13:49.654603 14244 net.cpp:386] inception_3a/relu_3x3_reduce -> inception_3a/3x3_reduce (in-place)
I0403 15:13:49.654778 14244 net.cpp:141] Setting up inception_3a/relu_3x3_reduce
I0403 15:13:49.654801 14244 net.cpp:148] Top shape: 24 96 28 28 (1806336)
I0403 15:13:49.654815 14244 net.cpp:156] Memory required for data: 515408928
I0403 15:13:49.654829 14244 layer_factory.hpp:77] Creating layer inception_3a/3x3
I0403 15:13:49.654856 14244 net.cpp:91] Creating Layer inception_3a/3x3
I0403 15:13:49.654873 14244 net.cpp:425] inception_3a/3x3 <- inception_3a/3x3_reduce
I0403 15:13:49.654894 14244 net.cpp:399] inception_3a/3x3 -> inception_3a/3x3
I0403 15:13:49.656467 14244 net.cpp:141] Setting up inception_3a/3x3
I0403 15:13:49.656497 14244 net.cpp:148] Top shape: 24 128 28 28 (2408448)
I0403 15:13:49.656510 14244 net.cpp:156] Memory required for data: 525042720
I0403 15:13:49.656528 14244 layer_factory.hpp:77] Creating layer inception_3a/relu_3x3
I0403 15:13:49.656548 14244 net.cpp:91] Creating Layer inception_3a/relu_3x3
I0403 15:13:49.656564 14244 net.cpp:425] inception_3a/relu_3x3 <- inception_3a/3x3
I0403 15:13:49.656585 14244 net.cpp:386] inception_3a/relu_3x3 -> inception_3a/3x3 (in-place)
I0403 15:13:49.656847 14244 net.cpp:141] Setting up inception_3a/relu_3x3
I0403 15:13:49.656872 14244 net.cpp:148] Top shape: 24 128 28 28 (2408448)
I0403 15:13:49.656886 14244 net.cpp:156] Memory required for data: 534676512
I0403 15:13:49.656901 14244 layer_factory.hpp:77] Creating layer inception_3a/5x5_reduce
I0403 15:13:49.656922 14244 net.cpp:91] Creating Layer inception_3a/5x5_reduce
I0403 15:13:49.656939 14244 net.cpp:425] inception_3a/5x5_reduce <- pool2/3x3_s2_pool2/3x3_s2_0_split_2
I0403 15:13:49.656958 14244 net.cpp:399] inception_3a/5x5_reduce -> inception_3a/5x5_reduce
I0403 15:13:49.657876 14244 net.cpp:141] Setting up inception_3a/5x5_reduce
I0403 15:13:49.657902 14244 net.cpp:148] Top shape: 24 16 28 28 (301056)
I0403 15:13:49.657917 14244 net.cpp:156] Memory required for data: 535880736
I0403 15:13:49.657933 14244 layer_factory.hpp:77] Creating layer inception_3a/relu_5x5_reduce
I0403 15:13:49.657953 14244 net.cpp:91] Creating Layer inception_3a/relu_5x5_reduce
I0403 15:13:49.657968 14244 net.cpp:425] inception_3a/relu_5x5_reduce <- inception_3a/5x5_reduce
I0403 15:13:49.657984 14244 net.cpp:386] inception_3a/relu_5x5_reduce -> inception_3a/5x5_reduce (in-place)
I0403 15:13:49.658268 14244 net.cpp:141] Setting up inception_3a/relu_5x5_reduce
I0403 15:13:49.658298 14244 net.cpp:148] Top shape: 24 16 28 28 (301056)
I0403 15:13:49.658313 14244 net.cpp:156] Memory required for data: 537084960
I0403 15:13:49.658326 14244 layer_factory.hpp:77] Creating layer inception_3a/5x5
I0403 15:13:49.658347 14244 net.cpp:91] Creating Layer inception_3a/5x5
I0403 15:13:49.658365 14244 net.cpp:425] inception_3a/5x5 <- inception_3a/5x5_reduce
I0403 15:13:49.658381 14244 net.cpp:399] inception_3a/5x5 -> inception_3a/5x5
I0403 15:13:49.659348 14244 net.cpp:141] Setting up inception_3a/5x5
I0403 15:13:49.659373 14244 net.cpp:148] Top shape: 24 32 28 28 (602112)
I0403 15:13:49.659389 14244 net.cpp:156] Memory required for data: 539493408
I0403 15:13:49.659406 14244 layer_factory.hpp:77] Creating layer inception_3a/relu_5x5
I0403 15:13:49.659425 14244 net.cpp:91] Creating Layer inception_3a/relu_5x5
I0403 15:13:49.659441 14244 net.cpp:425] inception_3a/relu_5x5 <- inception_3a/5x5
I0403 15:13:49.659457 14244 net.cpp:386] inception_3a/relu_5x5 -> inception_3a/5x5 (in-place)
I0403 15:13:49.659626 14244 net.cpp:141] Setting up inception_3a/relu_5x5
I0403 15:13:49.659651 14244 net.cpp:148] Top shape: 24 32 28 28 (602112)
I0403 15:13:49.659665 14244 net.cpp:156] Memory required for data: 541901856
I0403 15:13:49.659679 14244 layer_factory.hpp:77] Creating layer inception_3a/pool
I0403 15:13:49.659698 14244 net.cpp:91] Creating Layer inception_3a/pool
I0403 15:13:49.659713 14244 net.cpp:425] inception_3a/pool <- pool2/3x3_s2_pool2/3x3_s2_0_split_3
I0403 15:13:49.659745 14244 net.cpp:399] inception_3a/pool -> inception_3a/pool
I0403 15:13:49.659801 14244 net.cpp:141] Setting up inception_3a/pool
I0403 15:13:49.659823 14244 net.cpp:148] Top shape: 24 192 28 28 (3612672)
I0403 15:13:49.659837 14244 net.cpp:156] Memory required for data: 556352544
I0403 15:13:49.659850 14244 layer_factory.hpp:77] Creating layer inception_3a/pool_proj
I0403 15:13:49.659871 14244 net.cpp:91] Creating Layer inception_3a/pool_proj
I0403 15:13:49.659888 14244 net.cpp:425] inception_3a/pool_proj <- inception_3a/pool
I0403 15:13:49.659907 14244 net.cpp:399] inception_3a/pool_proj -> inception_3a/pool_proj
I0403 15:13:49.660830 14244 net.cpp:141] Setting up inception_3a/pool_proj
I0403 15:13:49.660861 14244 net.cpp:148] Top shape: 24 32 28 28 (602112)
I0403 15:13:49.660878 14244 net.cpp:156] Memory required for data: 558760992
I0403 15:13:49.660900 14244 layer_factory.hpp:77] Creating layer inception_3a/relu_pool_proj
I0403 15:13:49.660922 14244 net.cpp:91] Creating Layer inception_3a/relu_pool_proj
I0403 15:13:49.660936 14244 net.cpp:425] inception_3a/relu_pool_proj <- inception_3a/pool_proj
I0403 15:13:49.660953 14244 net.cpp:386] inception_3a/relu_pool_proj -> inception_3a/pool_proj (in-place)
I0403 15:13:49.661212 14244 net.cpp:141] Setting up inception_3a/relu_pool_proj
I0403 15:13:49.661237 14244 net.cpp:148] Top shape: 24 32 28 28 (602112)
I0403 15:13:49.661252 14244 net.cpp:156] Memory required for data: 561169440
I0403 15:13:49.661265 14244 layer_factory.hpp:77] Creating layer inception_3a/output
I0403 15:13:49.661284 14244 net.cpp:91] Creating Layer inception_3a/output
I0403 15:13:49.661300 14244 net.cpp:425] inception_3a/output <- inception_3a/1x1
I0403 15:13:49.661315 14244 net.cpp:425] inception_3a/output <- inception_3a/3x3
I0403 15:13:49.661330 14244 net.cpp:425] inception_3a/output <- inception_3a/5x5
I0403 15:13:49.661345 14244 net.cpp:425] inception_3a/output <- inception_3a/pool_proj
I0403 15:13:49.661360 14244 net.cpp:399] inception_3a/output -> inception_3a/output
I0403 15:13:49.661406 14244 net.cpp:141] Setting up inception_3a/output
I0403 15:13:49.661427 14244 net.cpp:148] Top shape: 24 256 28 28 (4816896)
I0403 15:13:49.661442 14244 net.cpp:156] Memory required for data: 580437024
I0403 15:13:49.661454 14244 layer_factory.hpp:77] Creating layer inception_3a/output_inception_3a/output_0_split
I0403 15:13:49.661470 14244 net.cpp:91] Creating Layer inception_3a/output_inception_3a/output_0_split
I0403 15:13:49.661484 14244 net.cpp:425] inception_3a/output_inception_3a/output_0_split <- inception_3a/output
I0403 15:13:49.661504 14244 net.cpp:399] inception_3a/output_inception_3a/output_0_split -> inception_3a/output_inception_3a/output_0_split_0
I0403 15:13:49.661522 14244 net.cpp:399] inception_3a/output_inception_3a/output_0_split -> inception_3a/output_inception_3a/output_0_split_1
I0403 15:13:49.661543 14244 net.cpp:399] inception_3a/output_inception_3a/output_0_split -> inception_3a/output_inception_3a/output_0_split_2
I0403 15:13:49.661563 14244 net.cpp:399] inception_3a/output_inception_3a/output_0_split -> inception_3a/output_inception_3a/output_0_split_3
I0403 15:13:49.661639 14244 net.cpp:141] Setting up inception_3a/output_inception_3a/output_0_split
I0403 15:13:49.661660 14244 net.cpp:148] Top shape: 24 256 28 28 (4816896)
I0403 15:13:49.661676 14244 net.cpp:148] Top shape: 24 256 28 28 (4816896)
I0403 15:13:49.661690 14244 net.cpp:148] Top shape: 24 256 28 28 (4816896)
I0403 15:13:49.661705 14244 net.cpp:148] Top shape: 24 256 28 28 (4816896)
I0403 15:13:49.661718 14244 net.cpp:156] Memory required for data: 657507360
I0403 15:13:49.661731 14244 layer_factory.hpp:77] Creating layer inception_3b/1x1
I0403 15:13:49.661752 14244 net.cpp:91] Creating Layer inception_3b/1x1
I0403 15:13:49.661769 14244 net.cpp:425] inception_3b/1x1 <- inception_3a/output_inception_3a/output_0_split_0
I0403 15:13:49.661788 14244 net.cpp:399] inception_3b/1x1 -> inception_3b/1x1
I0403 15:13:49.662873 14244 net.cpp:141] Setting up inception_3b/1x1
I0403 15:13:49.662909 14244 net.cpp:148] Top shape: 24 128 28 28 (2408448)
I0403 15:13:49.662925 14244 net.cpp:156] Memory required for data: 667141152
I0403 15:13:49.662941 14244 layer_factory.hpp:77] Creating layer inception_3b/relu_1x1
I0403 15:13:49.662958 14244 net.cpp:91] Creating Layer inception_3b/relu_1x1
I0403 15:13:49.662973 14244 net.cpp:425] inception_3b/relu_1x1 <- inception_3b/1x1
I0403 15:13:49.662993 14244 net.cpp:386] inception_3b/relu_1x1 -> inception_3b/1x1 (in-place)
I0403 15:13:49.663161 14244 net.cpp:141] Setting up inception_3b/relu_1x1
I0403 15:13:49.663187 14244 net.cpp:148] Top shape: 24 128 28 28 (2408448)
I0403 15:13:49.663202 14244 net.cpp:156] Memory required for data: 676774944
I0403 15:13:49.663214 14244 layer_factory.hpp:77] Creating layer inception_3b/3x3_reduce
I0403 15:13:49.663235 14244 net.cpp:91] Creating Layer inception_3b/3x3_reduce
I0403 15:13:49.663252 14244 net.cpp:425] inception_3b/3x3_reduce <- inception_3a/output_inception_3a/output_0_split_1
I0403 15:13:49.663272 14244 net.cpp:399] inception_3b/3x3_reduce -> inception_3b/3x3_reduce
I0403 15:13:49.664403 14244 net.cpp:141] Setting up inception_3b/3x3_reduce
I0403 15:13:49.664429 14244 net.cpp:148] Top shape: 24 128 28 28 (2408448)
I0403 15:13:49.664444 14244 net.cpp:156] Memory required for data: 686408736
I0403 15:13:49.664463 14244 layer_factory.hpp:77] Creating layer inception_3b/relu_3x3_reduce
I0403 15:13:49.664479 14244 net.cpp:91] Creating Layer inception_3b/relu_3x3_reduce
I0403 15:13:49.664497 14244 net.cpp:425] inception_3b/relu_3x3_reduce <- inception_3b/3x3_reduce
I0403 15:13:49.664513 14244 net.cpp:386] inception_3b/relu_3x3_reduce -> inception_3b/3x3_reduce (in-place)
I0403 15:13:49.664686 14244 net.cpp:141] Setting up inception_3b/relu_3x3_reduce
I0403 15:13:49.664711 14244 net.cpp:148] Top shape: 24 128 28 28 (2408448)
I0403 15:13:49.664724 14244 net.cpp:156] Memory required for data: 696042528
I0403 15:13:49.664738 14244 layer_factory.hpp:77] Creating layer inception_3b/3x3
I0403 15:13:49.664763 14244 net.cpp:91] Creating Layer inception_3b/3x3
I0403 15:13:49.664779 14244 net.cpp:425] inception_3b/3x3 <- inception_3b/3x3_reduce
I0403 15:13:49.664796 14244 net.cpp:399] inception_3b/3x3 -> inception_3b/3x3
I0403 15:13:49.667624 14244 net.cpp:141] Setting up inception_3b/3x3
I0403 15:13:49.667654 14244 net.cpp:148] Top shape: 24 192 28 28 (3612672)
I0403 15:13:49.667668 14244 net.cpp:156] Memory required for data: 710493216
I0403 15:13:49.667685 14244 layer_factory.hpp:77] Creating layer inception_3b/relu_3x3
I0403 15:13:49.667706 14244 net.cpp:91] Creating Layer inception_3b/relu_3x3
I0403 15:13:49.667721 14244 net.cpp:425] inception_3b/relu_3x3 <- inception_3b/3x3
I0403 15:13:49.667737 14244 net.cpp:386] inception_3b/relu_3x3 -> inception_3b/3x3 (in-place)
I0403 15:13:49.668004 14244 net.cpp:141] Setting up inception_3b/relu_3x3
I0403 15:13:49.668030 14244 net.cpp:148] Top shape: 24 192 28 28 (3612672)
I0403 15:13:49.668045 14244 net.cpp:156] Memory required for data: 724943904
I0403 15:13:49.668058 14244 layer_factory.hpp:77] Creating layer inception_3b/5x5_reduce
I0403 15:13:49.668079 14244 net.cpp:91] Creating Layer inception_3b/5x5_reduce
I0403 15:13:49.668097 14244 net.cpp:425] inception_3b/5x5_reduce <- inception_3a/output_inception_3a/output_0_split_2
I0403 15:13:49.668118 14244 net.cpp:399] inception_3b/5x5_reduce -> inception_3b/5x5_reduce
I0403 15:13:49.669055 14244 net.cpp:141] Setting up inception_3b/5x5_reduce
I0403 15:13:49.669082 14244 net.cpp:148] Top shape: 24 32 28 28 (602112)
I0403 15:13:49.669096 14244 net.cpp:156] Memory required for data: 727352352
I0403 15:13:49.669114 14244 layer_factory.hpp:77] Creating layer inception_3b/relu_5x5_reduce
I0403 15:13:49.669133 14244 net.cpp:91] Creating Layer inception_3b/relu_5x5_reduce
I0403 15:13:49.669148 14244 net.cpp:425] inception_3b/relu_5x5_reduce <- inception_3b/5x5_reduce
I0403 15:13:49.669164 14244 net.cpp:386] inception_3b/relu_5x5_reduce -> inception_3b/5x5_reduce (in-place)
I0403 15:13:49.669332 14244 net.cpp:141] Setting up inception_3b/relu_5x5_reduce
I0403 15:13:49.669368 14244 net.cpp:148] Top shape: 24 32 28 28 (602112)
I0403 15:13:49.669383 14244 net.cpp:156] Memory required for data: 729760800
I0403 15:13:49.669396 14244 layer_factory.hpp:77] Creating layer inception_3b/5x5
I0403 15:13:49.669419 14244 net.cpp:91] Creating Layer inception_3b/5x5
I0403 15:13:49.669436 14244 net.cpp:425] inception_3b/5x5 <- inception_3b/5x5_reduce
I0403 15:13:49.669455 14244 net.cpp:399] inception_3b/5x5 -> inception_3b/5x5
I0403 15:13:49.671370 14244 net.cpp:141] Setting up inception_3b/5x5
I0403 15:13:49.671399 14244 net.cpp:148] Top shape: 24 96 28 28 (1806336)
I0403 15:13:49.671416 14244 net.cpp:156] Memory required for data: 736986144
I0403 15:13:49.671433 14244 layer_factory.hpp:77] Creating layer inception_3b/relu_5x5
I0403 15:13:49.671450 14244 net.cpp:91] Creating Layer inception_3b/relu_5x5
I0403 15:13:49.671465 14244 net.cpp:425] inception_3b/relu_5x5 <- inception_3b/5x5
I0403 15:13:49.671483 14244 net.cpp:386] inception_3b/relu_5x5 -> inception_3b/5x5 (in-place)
I0403 15:13:49.671670 14244 net.cpp:141] Setting up inception_3b/relu_5x5
I0403 15:13:49.671695 14244 net.cpp:148] Top shape: 24 96 28 28 (1806336)
I0403 15:13:49.671710 14244 net.cpp:156] Memory required for data: 744211488
I0403 15:13:49.671722 14244 layer_factory.hpp:77] Creating layer inception_3b/pool
I0403 15:13:49.671739 14244 net.cpp:91] Creating Layer inception_3b/pool
I0403 15:13:49.671754 14244 net.cpp:425] inception_3b/pool <- inception_3a/output_inception_3a/output_0_split_3
I0403 15:13:49.671772 14244 net.cpp:399] inception_3b/pool -> inception_3b/pool
I0403 15:13:49.671826 14244 net.cpp:141] Setting up inception_3b/pool
I0403 15:13:49.671849 14244 net.cpp:148] Top shape: 24 256 28 28 (4816896)
I0403 15:13:49.671862 14244 net.cpp:156] Memory required for data: 763479072
I0403 15:13:49.671875 14244 layer_factory.hpp:77] Creating layer inception_3b/pool_proj
I0403 15:13:49.671896 14244 net.cpp:91] Creating Layer inception_3b/pool_proj
I0403 15:13:49.671913 14244 net.cpp:425] inception_3b/pool_proj <- inception_3b/pool
I0403 15:13:49.671932 14244 net.cpp:399] inception_3b/pool_proj -> inception_3b/pool_proj
I0403 15:13:49.672932 14244 net.cpp:141] Setting up inception_3b/pool_proj
I0403 15:13:49.672961 14244 net.cpp:148] Top shape: 24 64 28 28 (1204224)
I0403 15:13:49.672977 14244 net.cpp:156] Memory required for data: 768295968
I0403 15:13:49.672994 14244 layer_factory.hpp:77] Creating layer inception_3b/relu_pool_proj
I0403 15:13:49.673012 14244 net.cpp:91] Creating Layer inception_3b/relu_pool_proj
I0403 15:13:49.673027 14244 net.cpp:425] inception_3b/relu_pool_proj <- inception_3b/pool_proj
I0403 15:13:49.673043 14244 net.cpp:386] inception_3b/relu_pool_proj -> inception_3b/pool_proj (in-place)
I0403 15:13:49.673420 14244 net.cpp:141] Setting up inception_3b/relu_pool_proj
I0403 15:13:49.673447 14244 net.cpp:148] Top shape: 24 64 28 28 (1204224)
I0403 15:13:49.673475 14244 net.cpp:156] Memory required for data: 773112864
I0403 15:13:49.673490 14244 layer_factory.hpp:77] Creating layer inception_3b/output
I0403 15:13:49.673506 14244 net.cpp:91] Creating Layer inception_3b/output
I0403 15:13:49.673522 14244 net.cpp:425] inception_3b/output <- inception_3b/1x1
I0403 15:13:49.673538 14244 net.cpp:425] inception_3b/output <- inception_3b/3x3
I0403 15:13:49.673553 14244 net.cpp:425] inception_3b/output <- inception_3b/5x5
I0403 15:13:49.673573 14244 net.cpp:425] inception_3b/output <- inception_3b/pool_proj
I0403 15:13:49.673591 14244 net.cpp:399] inception_3b/output -> inception_3b/output
I0403 15:13:49.673635 14244 net.cpp:141] Setting up inception_3b/output
I0403 15:13:49.673658 14244 net.cpp:148] Top shape: 24 480 28 28 (9031680)
I0403 15:13:49.673672 14244 net.cpp:156] Memory required for data: 809239584
I0403 15:13:49.673686 14244 layer_factory.hpp:77] Creating layer pool3/3x3_s2
I0403 15:13:49.673707 14244 net.cpp:91] Creating Layer pool3/3x3_s2
I0403 15:13:49.673723 14244 net.cpp:425] pool3/3x3_s2 <- inception_3b/output
I0403 15:13:49.673740 14244 net.cpp:399] pool3/3x3_s2 -> pool3/3x3_s2
I0403 15:13:49.673811 14244 net.cpp:141] Setting up pool3/3x3_s2
I0403 15:13:49.673835 14244 net.cpp:148] Top shape: 24 480 14 14 (2257920)
I0403 15:13:49.673848 14244 net.cpp:156] Memory required for data: 818271264
I0403 15:13:49.673862 14244 layer_factory.hpp:77] Creating layer pool3/3x3_s2_pool3/3x3_s2_0_split
I0403 15:13:49.673879 14244 net.cpp:91] Creating Layer pool3/3x3_s2_pool3/3x3_s2_0_split
I0403 15:13:49.673893 14244 net.cpp:425] pool3/3x3_s2_pool3/3x3_s2_0_split <- pool3/3x3_s2
I0403 15:13:49.673913 14244 net.cpp:399] pool3/3x3_s2_pool3/3x3_s2_0_split -> pool3/3x3_s2_pool3/3x3_s2_0_split_0
I0403 15:13:49.673931 14244 net.cpp:399] pool3/3x3_s2_pool3/3x3_s2_0_split -> pool3/3x3_s2_pool3/3x3_s2_0_split_1
I0403 15:13:49.673950 14244 net.cpp:399] pool3/3x3_s2_pool3/3x3_s2_0_split -> pool3/3x3_s2_pool3/3x3_s2_0_split_2
I0403 15:13:49.673969 14244 net.cpp:399] pool3/3x3_s2_pool3/3x3_s2_0_split -> pool3/3x3_s2_pool3/3x3_s2_0_split_3
I0403 15:13:49.674042 14244 net.cpp:141] Setting up pool3/3x3_s2_pool3/3x3_s2_0_split
I0403 15:13:49.674065 14244 net.cpp:148] Top shape: 24 480 14 14 (2257920)
I0403 15:13:49.674080 14244 net.cpp:148] Top shape: 24 480 14 14 (2257920)
I0403 15:13:49.674095 14244 net.cpp:148] Top shape: 24 480 14 14 (2257920)
I0403 15:13:49.674109 14244 net.cpp:148] Top shape: 24 480 14 14 (2257920)
I0403 15:13:49.674123 14244 net.cpp:156] Memory required for data: 854397984
I0403 15:13:49.674136 14244 layer_factory.hpp:77] Creating layer inception_4a/1x1
I0403 15:13:49.674160 14244 net.cpp:91] Creating Layer inception_4a/1x1
I0403 15:13:49.674176 14244 net.cpp:425] inception_4a/1x1 <- pool3/3x3_s2_pool3/3x3_s2_0_split_0
I0403 15:13:49.674196 14244 net.cpp:399] inception_4a/1x1 -> inception_4a/1x1
I0403 15:13:49.675801 14244 net.cpp:141] Setting up inception_4a/1x1
I0403 15:13:49.675830 14244 net.cpp:148] Top shape: 24 192 14 14 (903168)
I0403 15:13:49.675848 14244 net.cpp:156] Memory required for data: 858010656
I0403 15:13:49.675865 14244 layer_factory.hpp:77] Creating layer inception_4a/relu_1x1
I0403 15:13:49.675884 14244 net.cpp:91] Creating Layer inception_4a/relu_1x1
I0403 15:13:49.675899 14244 net.cpp:425] inception_4a/relu_1x1 <- inception_4a/1x1
I0403 15:13:49.675918 14244 net.cpp:386] inception_4a/relu_1x1 -> inception_4a/1x1 (in-place)
I0403 15:13:49.676090 14244 net.cpp:141] Setting up inception_4a/relu_1x1
I0403 15:13:49.676117 14244 net.cpp:148] Top shape: 24 192 14 14 (903168)
I0403 15:13:49.676133 14244 net.cpp:156] Memory required for data: 861623328
I0403 15:13:49.676147 14244 layer_factory.hpp:77] Creating layer inception_4a/3x3_reduce
I0403 15:13:49.676168 14244 net.cpp:91] Creating Layer inception_4a/3x3_reduce
I0403 15:13:49.676185 14244 net.cpp:425] inception_4a/3x3_reduce <- pool3/3x3_s2_pool3/3x3_s2_0_split_1
I0403 15:13:49.676206 14244 net.cpp:399] inception_4a/3x3_reduce -> inception_4a/3x3_reduce
I0403 15:13:49.677450 14244 net.cpp:141] Setting up inception_4a/3x3_reduce
I0403 15:13:49.677481 14244 net.cpp:148] Top shape: 24 96 14 14 (451584)
I0403 15:13:49.677498 14244 net.cpp:156] Memory required for data: 863429664
I0403 15:13:49.677521 14244 layer_factory.hpp:77] Creating layer inception_4a/relu_3x3_reduce
I0403 15:13:49.677543 14244 net.cpp:91] Creating Layer inception_4a/relu_3x3_reduce
I0403 15:13:49.677561 14244 net.cpp:425] inception_4a/relu_3x3_reduce <- inception_4a/3x3_reduce
I0403 15:13:49.677582 14244 net.cpp:386] inception_4a/relu_3x3_reduce -> inception_4a/3x3_reduce (in-place)
I0403 15:13:49.677757 14244 net.cpp:141] Setting up inception_4a/relu_3x3_reduce
I0403 15:13:49.677781 14244 net.cpp:148] Top shape: 24 96 14 14 (451584)
I0403 15:13:49.677796 14244 net.cpp:156] Memory required for data: 865236000
I0403 15:13:49.677810 14244 layer_factory.hpp:77] Creating layer inception_4a/3x3
I0403 15:13:49.677832 14244 net.cpp:91] Creating Layer inception_4a/3x3
I0403 15:13:49.677850 14244 net.cpp:425] inception_4a/3x3 <- inception_4a/3x3_reduce
I0403 15:13:49.677871 14244 net.cpp:399] inception_4a/3x3 -> inception_4a/3x3
I0403 15:13:49.680517 14244 net.cpp:141] Setting up inception_4a/3x3
I0403 15:13:49.680546 14244 net.cpp:148] Top shape: 24 208 14 14 (978432)
I0403 15:13:49.680560 14244 net.cpp:156] Memory required for data: 869149728
I0403 15:13:49.680583 14244 layer_factory.hpp:77] Creating layer inception_4a/relu_3x3
I0403 15:13:49.680604 14244 net.cpp:91] Creating Layer inception_4a/relu_3x3
I0403 15:13:49.680621 14244 net.cpp:425] inception_4a/relu_3x3 <- inception_4a/3x3
I0403 15:13:49.680637 14244 net.cpp:386] inception_4a/relu_3x3 -> inception_4a/3x3 (in-place)
I0403 15:13:49.680919 14244 net.cpp:141] Setting up inception_4a/relu_3x3
I0403 15:13:49.680944 14244 net.cpp:148] Top shape: 24 208 14 14 (978432)
I0403 15:13:49.680959 14244 net.cpp:156] Memory required for data: 873063456
I0403 15:13:49.680974 14244 layer_factory.hpp:77] Creating layer inception_4a/5x5_reduce
I0403 15:13:49.680997 14244 net.cpp:91] Creating Layer inception_4a/5x5_reduce
I0403 15:13:49.681015 14244 net.cpp:425] inception_4a/5x5_reduce <- pool3/3x3_s2_pool3/3x3_s2_0_split_2
I0403 15:13:49.681035 14244 net.cpp:399] inception_4a/5x5_reduce -> inception_4a/5x5_reduce
I0403 15:13:49.682096 14244 net.cpp:141] Setting up inception_4a/5x5_reduce
I0403 15:13:49.682121 14244 net.cpp:148] Top shape: 24 16 14 14 (75264)
I0403 15:13:49.682137 14244 net.cpp:156] Memory required for data: 873364512
I0403 15:13:49.682154 14244 layer_factory.hpp:77] Creating layer inception_4a/relu_5x5_reduce
I0403 15:13:49.682175 14244 net.cpp:91] Creating Layer inception_4a/relu_5x5_reduce
I0403 15:13:49.682191 14244 net.cpp:425] inception_4a/relu_5x5_reduce <- inception_4a/5x5_reduce
I0403 15:13:49.682209 14244 net.cpp:386] inception_4a/relu_5x5_reduce -> inception_4a/5x5_reduce (in-place)
I0403 15:13:49.682387 14244 net.cpp:141] Setting up inception_4a/relu_5x5_reduce
I0403 15:13:49.682412 14244 net.cpp:148] Top shape: 24 16 14 14 (75264)
I0403 15:13:49.682426 14244 net.cpp:156] Memory required for data: 873665568
I0403 15:13:49.682440 14244 layer_factory.hpp:77] Creating layer inception_4a/5x5
I0403 15:13:49.682463 14244 net.cpp:91] Creating Layer inception_4a/5x5
I0403 15:13:49.682481 14244 net.cpp:425] inception_4a/5x5 <- inception_4a/5x5_reduce
I0403 15:13:49.682499 14244 net.cpp:399] inception_4a/5x5 -> inception_4a/5x5
I0403 15:13:49.683576 14244 net.cpp:141] Setting up inception_4a/5x5
I0403 15:13:49.683607 14244 net.cpp:148] Top shape: 24 48 14 14 (225792)
I0403 15:13:49.683625 14244 net.cpp:156] Memory required for data: 874568736
I0403 15:13:49.683645 14244 layer_factory.hpp:77] Creating layer inception_4a/relu_5x5
I0403 15:13:49.683663 14244 net.cpp:91] Creating Layer inception_4a/relu_5x5
I0403 15:13:49.683679 14244 net.cpp:425] inception_4a/relu_5x5 <- inception_4a/5x5
I0403 15:13:49.683697 14244 net.cpp:386] inception_4a/relu_5x5 -> inception_4a/5x5 (in-place)
I0403 15:13:49.683874 14244 net.cpp:141] Setting up inception_4a/relu_5x5
I0403 15:13:49.683903 14244 net.cpp:148] Top shape: 24 48 14 14 (225792)
I0403 15:13:49.683920 14244 net.cpp:156] Memory required for data: 875471904
I0403 15:13:49.683934 14244 layer_factory.hpp:77] Creating layer inception_4a/pool
I0403 15:13:49.683954 14244 net.cpp:91] Creating Layer inception_4a/pool
I0403 15:13:49.683969 14244 net.cpp:425] inception_4a/pool <- pool3/3x3_s2_pool3/3x3_s2_0_split_3
I0403 15:13:49.683987 14244 net.cpp:399] inception_4a/pool -> inception_4a/pool
I0403 15:13:49.684047 14244 net.cpp:141] Setting up inception_4a/pool
I0403 15:13:49.684072 14244 net.cpp:148] Top shape: 24 480 14 14 (2257920)
I0403 15:13:49.684087 14244 net.cpp:156] Memory required for data: 884503584
I0403 15:13:49.684100 14244 layer_factory.hpp:77] Creating layer inception_4a/pool_proj
I0403 15:13:49.684121 14244 net.cpp:91] Creating Layer inception_4a/pool_proj
I0403 15:13:49.684139 14244 net.cpp:425] inception_4a/pool_proj <- inception_4a/pool
I0403 15:13:49.684156 14244 net.cpp:399] inception_4a/pool_proj -> inception_4a/pool_proj
I0403 15:13:49.685312 14244 net.cpp:141] Setting up inception_4a/pool_proj
I0403 15:13:49.685344 14244 net.cpp:148] Top shape: 24 64 14 14 (301056)
I0403 15:13:49.685374 14244 net.cpp:156] Memory required for data: 885707808
I0403 15:13:49.685394 14244 layer_factory.hpp:77] Creating layer inception_4a/relu_pool_proj
I0403 15:13:49.685411 14244 net.cpp:91] Creating Layer inception_4a/relu_pool_proj
I0403 15:13:49.685427 14244 net.cpp:425] inception_4a/relu_pool_proj <- inception_4a/pool_proj
I0403 15:13:49.685443 14244 net.cpp:386] inception_4a/relu_pool_proj -> inception_4a/pool_proj (in-place)
I0403 15:13:49.685731 14244 net.cpp:141] Setting up inception_4a/relu_pool_proj
I0403 15:13:49.685760 14244 net.cpp:148] Top shape: 24 64 14 14 (301056)
I0403 15:13:49.685775 14244 net.cpp:156] Memory required for data: 886912032
I0403 15:13:49.685791 14244 layer_factory.hpp:77] Creating layer inception_4a/output
I0403 15:13:49.685807 14244 net.cpp:91] Creating Layer inception_4a/output
I0403 15:13:49.685822 14244 net.cpp:425] inception_4a/output <- inception_4a/1x1
I0403 15:13:49.685838 14244 net.cpp:425] inception_4a/output <- inception_4a/3x3
I0403 15:13:49.685853 14244 net.cpp:425] inception_4a/output <- inception_4a/5x5
I0403 15:13:49.685868 14244 net.cpp:425] inception_4a/output <- inception_4a/pool_proj
I0403 15:13:49.685884 14244 net.cpp:399] inception_4a/output -> inception_4a/output
I0403 15:13:49.685930 14244 net.cpp:141] Setting up inception_4a/output
I0403 15:13:49.685953 14244 net.cpp:148] Top shape: 24 512 14 14 (2408448)
I0403 15:13:49.685967 14244 net.cpp:156] Memory required for data: 896545824
I0403 15:13:49.685981 14244 layer_factory.hpp:77] Creating layer inception_4a/output_inception_4a/output_0_split
I0403 15:13:49.686000 14244 net.cpp:91] Creating Layer inception_4a/output_inception_4a/output_0_split
I0403 15:13:49.686017 14244 net.cpp:425] inception_4a/output_inception_4a/output_0_split <- inception_4a/output
I0403 15:13:49.686033 14244 net.cpp:399] inception_4a/output_inception_4a/output_0_split -> inception_4a/output_inception_4a/output_0_split_0
I0403 15:13:49.686055 14244 net.cpp:399] inception_4a/output_inception_4a/output_0_split -> inception_4a/output_inception_4a/output_0_split_1
I0403 15:13:49.686075 14244 net.cpp:399] inception_4a/output_inception_4a/output_0_split -> inception_4a/output_inception_4a/output_0_split_2
I0403 15:13:49.686097 14244 net.cpp:399] inception_4a/output_inception_4a/output_0_split -> inception_4a/output_inception_4a/output_0_split_3
I0403 15:13:49.686117 14244 net.cpp:399] inception_4a/output_inception_4a/output_0_split -> inception_4a/output_inception_4a/output_0_split_4
I0403 15:13:49.686209 14244 net.cpp:141] Setting up inception_4a/output_inception_4a/output_0_split
I0403 15:13:49.686233 14244 net.cpp:148] Top shape: 24 512 14 14 (2408448)
I0403 15:13:49.686249 14244 net.cpp:148] Top shape: 24 512 14 14 (2408448)
I0403 15:13:49.686264 14244 net.cpp:148] Top shape: 24 512 14 14 (2408448)
I0403 15:13:49.686278 14244 net.cpp:148] Top shape: 24 512 14 14 (2408448)
I0403 15:13:49.686295 14244 net.cpp:148] Top shape: 24 512 14 14 (2408448)
I0403 15:13:49.686307 14244 net.cpp:156] Memory required for data: 944714784
I0403 15:13:49.686321 14244 layer_factory.hpp:77] Creating layer loss1/ave_pool
I0403 15:13:49.686342 14244 net.cpp:91] Creating Layer loss1/ave_pool
I0403 15:13:49.686358 14244 net.cpp:425] loss1/ave_pool <- inception_4a/output_inception_4a/output_0_split_0
I0403 15:13:49.686374 14244 net.cpp:399] loss1/ave_pool -> loss1/ave_pool
I0403 15:13:49.686589 14244 net.cpp:141] Setting up loss1/ave_pool
I0403 15:13:49.686617 14244 net.cpp:148] Top shape: 24 512 4 4 (196608)
I0403 15:13:49.686633 14244 net.cpp:156] Memory required for data: 945501216
I0403 15:13:49.686648 14244 layer_factory.hpp:77] Creating layer loss1/conv
I0403 15:13:49.686669 14244 net.cpp:91] Creating Layer loss1/conv
I0403 15:13:49.686686 14244 net.cpp:425] loss1/conv <- loss1/ave_pool
I0403 15:13:49.686704 14244 net.cpp:399] loss1/conv -> loss1/conv
I0403 15:13:49.688114 14244 net.cpp:141] Setting up loss1/conv
I0403 15:13:49.688143 14244 net.cpp:148] Top shape: 24 128 4 4 (49152)
I0403 15:13:49.688159 14244 net.cpp:156] Memory required for data: 945697824
I0403 15:13:49.688194 14244 layer_factory.hpp:77] Creating layer loss1/relu_conv
I0403 15:13:49.688216 14244 net.cpp:91] Creating Layer loss1/relu_conv
I0403 15:13:49.688235 14244 net.cpp:425] loss1/relu_conv <- loss1/conv
I0403 15:13:49.688251 14244 net.cpp:386] loss1/relu_conv -> loss1/conv (in-place)
I0403 15:13:49.688536 14244 net.cpp:141] Setting up loss1/relu_conv
I0403 15:13:49.688563 14244 net.cpp:148] Top shape: 24 128 4 4 (49152)
I0403 15:13:49.688585 14244 net.cpp:156] Memory required for data: 945894432
I0403 15:13:49.688601 14244 layer_factory.hpp:77] Creating layer loss1/fc
I0403 15:13:49.688627 14244 net.cpp:91] Creating Layer loss1/fc
I0403 15:13:49.688645 14244 net.cpp:425] loss1/fc <- loss1/conv
I0403 15:13:49.688664 14244 net.cpp:399] loss1/fc -> loss1/fc
I0403 15:13:49.706327 14244 net.cpp:141] Setting up loss1/fc
I0403 15:13:49.706375 14244 net.cpp:148] Top shape: 24 1024 (24576)
I0403 15:13:49.706392 14244 net.cpp:156] Memory required for data: 945992736
I0403 15:13:49.706410 14244 layer_factory.hpp:77] Creating layer loss1/relu_fc
I0403 15:13:49.706429 14244 net.cpp:91] Creating Layer loss1/relu_fc
I0403 15:13:49.706446 14244 net.cpp:425] loss1/relu_fc <- loss1/fc
I0403 15:13:49.706466 14244 net.cpp:386] loss1/relu_fc -> loss1/fc (in-place)
I0403 15:13:49.706672 14244 net.cpp:141] Setting up loss1/relu_fc
I0403 15:13:49.706697 14244 net.cpp:148] Top shape: 24 1024 (24576)
I0403 15:13:49.706712 14244 net.cpp:156] Memory required for data: 946091040
I0403 15:13:49.706727 14244 layer_factory.hpp:77] Creating layer loss1/drop_fc
I0403 15:13:49.706754 14244 net.cpp:91] Creating Layer loss1/drop_fc
I0403 15:13:49.706773 14244 net.cpp:425] loss1/drop_fc <- loss1/fc
I0403 15:13:49.706792 14244 net.cpp:386] loss1/drop_fc -> loss1/fc (in-place)
I0403 15:13:49.706842 14244 net.cpp:141] Setting up loss1/drop_fc
I0403 15:13:49.706866 14244 net.cpp:148] Top shape: 24 1024 (24576)
I0403 15:13:49.706881 14244 net.cpp:156] Memory required for data: 946189344
I0403 15:13:49.706894 14244 layer_factory.hpp:77] Creating layer loss1/classifier_plantvillage
I0403 15:13:49.706918 14244 net.cpp:91] Creating Layer loss1/classifier_plantvillage
I0403 15:13:49.706933 14244 net.cpp:425] loss1/classifier_plantvillage <- loss1/fc
I0403 15:13:49.706954 14244 net.cpp:399] loss1/classifier_plantvillage -> loss1/classifier_plantvillage
I0403 15:13:49.707869 14244 net.cpp:141] Setting up loss1/classifier_plantvillage
I0403 15:13:49.707898 14244 net.cpp:148] Top shape: 24 38 (912)
I0403 15:13:49.707914 14244 net.cpp:156] Memory required for data: 946192992
I0403 15:13:49.707931 14244 layer_factory.hpp:77] Creating layer loss1/classifier_plantvillage_loss1/classifier_plantvillage_0_split
I0403 15:13:49.707949 14244 net.cpp:91] Creating Layer loss1/classifier_plantvillage_loss1/classifier_plantvillage_0_split
I0403 15:13:49.707964 14244 net.cpp:425] loss1/classifier_plantvillage_loss1/classifier_plantvillage_0_split <- loss1/classifier_plantvillage
I0403 15:13:49.707984 14244 net.cpp:399] loss1/classifier_plantvillage_loss1/classifier_plantvillage_0_split -> loss1/classifier_plantvillage_loss1/classifier_plantvillage_0_split_0
I0403 15:13:49.708005 14244 net.cpp:399] loss1/classifier_plantvillage_loss1/classifier_plantvillage_0_split -> loss1/classifier_plantvillage_loss1/classifier_plantvillage_0_split_1
I0403 15:13:49.708024 14244 net.cpp:399] loss1/classifier_plantvillage_loss1/classifier_plantvillage_0_split -> loss1/classifier_plantvillage_loss1/classifier_plantvillage_0_split_2
I0403 15:13:49.708091 14244 net.cpp:141] Setting up loss1/classifier_plantvillage_loss1/classifier_plantvillage_0_split
I0403 15:13:49.708115 14244 net.cpp:148] Top shape: 24 38 (912)
I0403 15:13:49.708132 14244 net.cpp:148] Top shape: 24 38 (912)
I0403 15:13:49.708147 14244 net.cpp:148] Top shape: 24 38 (912)
I0403 15:13:49.708160 14244 net.cpp:156] Memory required for data: 946203936
I0403 15:13:49.708174 14244 layer_factory.hpp:77] Creating layer inception_4b/1x1
I0403 15:13:49.708195 14244 net.cpp:91] Creating Layer inception_4b/1x1
I0403 15:13:49.708235 14244 net.cpp:425] inception_4b/1x1 <- inception_4a/output_inception_4a/output_0_split_1
I0403 15:13:49.708255 14244 net.cpp:399] inception_4b/1x1 -> inception_4b/1x1
I0403 15:13:49.709995 14244 net.cpp:141] Setting up inception_4b/1x1
I0403 15:13:49.710024 14244 net.cpp:148] Top shape: 24 160 14 14 (752640)
I0403 15:13:49.710041 14244 net.cpp:156] Memory required for data: 949214496
I0403 15:13:49.710059 14244 layer_factory.hpp:77] Creating layer inception_4b/relu_1x1
I0403 15:13:49.710079 14244 net.cpp:91] Creating Layer inception_4b/relu_1x1
I0403 15:13:49.710098 14244 net.cpp:425] inception_4b/relu_1x1 <- inception_4b/1x1
I0403 15:13:49.710114 14244 net.cpp:386] inception_4b/relu_1x1 -> inception_4b/1x1 (in-place)
I0403 15:13:49.710294 14244 net.cpp:141] Setting up inception_4b/relu_1x1
I0403 15:13:49.710319 14244 net.cpp:148] Top shape: 24 160 14 14 (752640)
I0403 15:13:49.710333 14244 net.cpp:156] Memory required for data: 952225056
I0403 15:13:49.710348 14244 layer_factory.hpp:77] Creating layer inception_4b/3x3_reduce
I0403 15:13:49.710371 14244 net.cpp:91] Creating Layer inception_4b/3x3_reduce
I0403 15:13:49.710388 14244 net.cpp:425] inception_4b/3x3_reduce <- inception_4a/output_inception_4a/output_0_split_2
I0403 15:13:49.710407 14244 net.cpp:399] inception_4b/3x3_reduce -> inception_4b/3x3_reduce
I0403 15:13:49.711768 14244 net.cpp:141] Setting up inception_4b/3x3_reduce
I0403 15:13:49.711796 14244 net.cpp:148] Top shape: 24 112 14 14 (526848)
I0403 15:13:49.711812 14244 net.cpp:156] Memory required for data: 954332448
I0403 15:13:49.711830 14244 layer_factory.hpp:77] Creating layer inception_4b/relu_3x3_reduce
I0403 15:13:49.711853 14244 net.cpp:91] Creating Layer inception_4b/relu_3x3_reduce
I0403 15:13:49.711869 14244 net.cpp:425] inception_4b/relu_3x3_reduce <- inception_4b/3x3_reduce
I0403 15:13:49.711885 14244 net.cpp:386] inception_4b/relu_3x3_reduce -> inception_4b/3x3_reduce (in-place)
I0403 15:13:49.712172 14244 net.cpp:141] Setting up inception_4b/relu_3x3_reduce
I0403 15:13:49.712198 14244 net.cpp:148] Top shape: 24 112 14 14 (526848)
I0403 15:13:49.712214 14244 net.cpp:156] Memory required for data: 956439840
I0403 15:13:49.712229 14244 layer_factory.hpp:77] Creating layer inception_4b/3x3
I0403 15:13:49.712250 14244 net.cpp:91] Creating Layer inception_4b/3x3
I0403 15:13:49.712270 14244 net.cpp:425] inception_4b/3x3 <- inception_4b/3x3_reduce
I0403 15:13:49.712288 14244 net.cpp:399] inception_4b/3x3 -> inception_4b/3x3
I0403 15:13:49.715260 14244 net.cpp:141] Setting up inception_4b/3x3
I0403 15:13:49.715291 14244 net.cpp:148] Top shape: 24 224 14 14 (1053696)
I0403 15:13:49.715311 14244 net.cpp:156] Memory required for data: 960654624
I0403 15:13:49.715328 14244 layer_factory.hpp:77] Creating layer inception_4b/relu_3x3
I0403 15:13:49.715348 14244 net.cpp:91] Creating Layer inception_4b/relu_3x3
I0403 15:13:49.715365 14244 net.cpp:425] inception_4b/relu_3x3 <- inception_4b/3x3
I0403 15:13:49.715384 14244 net.cpp:386] inception_4b/relu_3x3 -> inception_4b/3x3 (in-place)
I0403 15:13:49.715562 14244 net.cpp:141] Setting up inception_4b/relu_3x3
I0403 15:13:49.715591 14244 net.cpp:148] Top shape: 24 224 14 14 (1053696)
I0403 15:13:49.715606 14244 net.cpp:156] Memory required for data: 964869408
I0403 15:13:49.715620 14244 layer_factory.hpp:77] Creating layer inception_4b/5x5_reduce
I0403 15:13:49.715642 14244 net.cpp:91] Creating Layer inception_4b/5x5_reduce
I0403 15:13:49.715659 14244 net.cpp:425] inception_4b/5x5_reduce <- inception_4a/output_inception_4a/output_0_split_3
I0403 15:13:49.715680 14244 net.cpp:399] inception_4b/5x5_reduce -> inception_4b/5x5_reduce
I0403 15:13:49.716773 14244 net.cpp:141] Setting up inception_4b/5x5_reduce
I0403 15:13:49.716800 14244 net.cpp:148] Top shape: 24 24 14 14 (112896)
I0403 15:13:49.716816 14244 net.cpp:156] Memory required for data: 965320992
I0403 15:13:49.716835 14244 layer_factory.hpp:77] Creating layer inception_4b/relu_5x5_reduce
I0403 15:13:49.716855 14244 net.cpp:91] Creating Layer inception_4b/relu_5x5_reduce
I0403 15:13:49.716886 14244 net.cpp:425] inception_4b/relu_5x5_reduce <- inception_4b/5x5_reduce
I0403 15:13:49.716917 14244 net.cpp:386] inception_4b/relu_5x5_reduce -> inception_4b/5x5_reduce (in-place)
I0403 15:13:49.717089 14244 net.cpp:141] Setting up inception_4b/relu_5x5_reduce
I0403 15:13:49.717116 14244 net.cpp:148] Top shape: 24 24 14 14 (112896)
I0403 15:13:49.717131 14244 net.cpp:156] Memory required for data: 965772576
I0403 15:13:49.717145 14244 layer_factory.hpp:77] Creating layer inception_4b/5x5
I0403 15:13:49.717166 14244 net.cpp:91] Creating Layer inception_4b/5x5
I0403 15:13:49.717182 14244 net.cpp:425] inception_4b/5x5 <- inception_4b/5x5_reduce
I0403 15:13:49.717200 14244 net.cpp:399] inception_4b/5x5 -> inception_4b/5x5
I0403 15:13:49.718385 14244 net.cpp:141] Setting up inception_4b/5x5
I0403 15:13:49.718413 14244 net.cpp:148] Top shape: 24 64 14 14 (301056)
I0403 15:13:49.718428 14244 net.cpp:156] Memory required for data: 966976800
I0403 15:13:49.718446 14244 layer_factory.hpp:77] Creating layer inception_4b/relu_5x5
I0403 15:13:49.718466 14244 net.cpp:91] Creating Layer inception_4b/relu_5x5
I0403 15:13:49.718482 14244 net.cpp:425] inception_4b/relu_5x5 <- inception_4b/5x5
I0403 15:13:49.718497 14244 net.cpp:386] inception_4b/relu_5x5 -> inception_4b/5x5 (in-place)
I0403 15:13:49.718777 14244 net.cpp:141] Setting up inception_4b/relu_5x5
I0403 15:13:49.718802 14244 net.cpp:148] Top shape: 24 64 14 14 (301056)
I0403 15:13:49.718817 14244 net.cpp:156] Memory required for data: 968181024
I0403 15:13:49.718832 14244 layer_factory.hpp:77] Creating layer inception_4b/pool
I0403 15:13:49.718852 14244 net.cpp:91] Creating Layer inception_4b/pool
I0403 15:13:49.718868 14244 net.cpp:425] inception_4b/pool <- inception_4a/output_inception_4a/output_0_split_4
I0403 15:13:49.718884 14244 net.cpp:399] inception_4b/pool -> inception_4b/pool
I0403 15:13:49.718947 14244 net.cpp:141] Setting up inception_4b/pool
I0403 15:13:49.718971 14244 net.cpp:148] Top shape: 24 512 14 14 (2408448)
I0403 15:13:49.718983 14244 net.cpp:156] Memory required for data: 977814816
I0403 15:13:49.718997 14244 layer_factory.hpp:77] Creating layer inception_4b/pool_proj
I0403 15:13:49.719018 14244 net.cpp:91] Creating Layer inception_4b/pool_proj
I0403 15:13:49.719035 14244 net.cpp:425] inception_4b/pool_proj <- inception_4b/pool
I0403 15:13:49.719054 14244 net.cpp:399] inception_4b/pool_proj -> inception_4b/pool_proj
I0403 15:13:49.720217 14244 net.cpp:141] Setting up inception_4b/pool_proj
I0403 15:13:49.720244 14244 net.cpp:148] Top shape: 24 64 14 14 (301056)
I0403 15:13:49.720262 14244 net.cpp:156] Memory required for data: 979019040
I0403 15:13:49.720279 14244 layer_factory.hpp:77] Creating layer inception_4b/relu_pool_proj
I0403 15:13:49.720304 14244 net.cpp:91] Creating Layer inception_4b/relu_pool_proj
I0403 15:13:49.720321 14244 net.cpp:425] inception_4b/relu_pool_proj <- inception_4b/pool_proj
I0403 15:13:49.720338 14244 net.cpp:386] inception_4b/relu_pool_proj -> inception_4b/pool_proj (in-place)
I0403 15:13:49.720517 14244 net.cpp:141] Setting up inception_4b/relu_pool_proj
I0403 15:13:49.720546 14244 net.cpp:148] Top shape: 24 64 14 14 (301056)
I0403 15:13:49.720561 14244 net.cpp:156] Memory required for data: 980223264
I0403 15:13:49.720582 14244 layer_factory.hpp:77] Creating layer inception_4b/output
I0403 15:13:49.720598 14244 net.cpp:91] Creating Layer inception_4b/output
I0403 15:13:49.720613 14244 net.cpp:425] inception_4b/output <- inception_4b/1x1
I0403 15:13:49.720628 14244 net.cpp:425] inception_4b/output <- inception_4b/3x3
I0403 15:13:49.720643 14244 net.cpp:425] inception_4b/output <- inception_4b/5x5
I0403 15:13:49.720657 14244 net.cpp:425] inception_4b/output <- inception_4b/pool_proj
I0403 15:13:49.720672 14244 net.cpp:399] inception_4b/output -> inception_4b/output
I0403 15:13:49.720717 14244 net.cpp:141] Setting up inception_4b/output
I0403 15:13:49.720741 14244 net.cpp:148] Top shape: 24 512 14 14 (2408448)
I0403 15:13:49.720754 14244 net.cpp:156] Memory required for data: 989857056
I0403 15:13:49.720782 14244 layer_factory.hpp:77] Creating layer inception_4b/output_inception_4b/output_0_split
I0403 15:13:49.720798 14244 net.cpp:91] Creating Layer inception_4b/output_inception_4b/output_0_split
I0403 15:13:49.720813 14244 net.cpp:425] inception_4b/output_inception_4b/output_0_split <- inception_4b/output
I0403 15:13:49.720831 14244 net.cpp:399] inception_4b/output_inception_4b/output_0_split -> inception_4b/output_inception_4b/output_0_split_0
I0403 15:13:49.720851 14244 net.cpp:399] inception_4b/output_inception_4b/output_0_split -> inception_4b/output_inception_4b/output_0_split_1
I0403 15:13:49.720870 14244 net.cpp:399] inception_4b/output_inception_4b/output_0_split -> inception_4b/output_inception_4b/output_0_split_2
I0403 15:13:49.720892 14244 net.cpp:399] inception_4b/output_inception_4b/output_0_split -> inception_4b/output_inception_4b/output_0_split_3
I0403 15:13:49.720974 14244 net.cpp:141] Setting up inception_4b/output_inception_4b/output_0_split
I0403 15:13:49.720998 14244 net.cpp:148] Top shape: 24 512 14 14 (2408448)
I0403 15:13:49.721012 14244 net.cpp:148] Top shape: 24 512 14 14 (2408448)
I0403 15:13:49.721026 14244 net.cpp:148] Top shape: 24 512 14 14 (2408448)
I0403 15:13:49.721041 14244 net.cpp:148] Top shape: 24 512 14 14 (2408448)
I0403 15:13:49.721053 14244 net.cpp:156] Memory required for data: 1028392224
I0403 15:13:49.721067 14244 layer_factory.hpp:77] Creating layer inception_4c/1x1
I0403 15:13:49.721088 14244 net.cpp:91] Creating Layer inception_4c/1x1
I0403 15:13:49.721106 14244 net.cpp:425] inception_4c/1x1 <- inception_4b/output_inception_4b/output_0_split_0
I0403 15:13:49.721124 14244 net.cpp:399] inception_4c/1x1 -> inception_4c/1x1
I0403 15:13:49.722506 14244 net.cpp:141] Setting up inception_4c/1x1
I0403 15:13:49.722537 14244 net.cpp:148] Top shape: 24 128 14 14 (602112)
I0403 15:13:49.722555 14244 net.cpp:156] Memory required for data: 1030800672
I0403 15:13:49.722578 14244 layer_factory.hpp:77] Creating layer inception_4c/relu_1x1
I0403 15:13:49.722597 14244 net.cpp:91] Creating Layer inception_4c/relu_1x1
I0403 15:13:49.722614 14244 net.cpp:425] inception_4c/relu_1x1 <- inception_4c/1x1
I0403 15:13:49.722631 14244 net.cpp:386] inception_4c/relu_1x1 -> inception_4c/1x1 (in-place)
I0403 15:13:49.722806 14244 net.cpp:141] Setting up inception_4c/relu_1x1
I0403 15:13:49.722831 14244 net.cpp:148] Top shape: 24 128 14 14 (602112)
I0403 15:13:49.722843 14244 net.cpp:156] Memory required for data: 1033209120
I0403 15:13:49.722857 14244 layer_factory.hpp:77] Creating layer inception_4c/3x3_reduce
I0403 15:13:49.722877 14244 net.cpp:91] Creating Layer inception_4c/3x3_reduce
I0403 15:13:49.722894 14244 net.cpp:425] inception_4c/3x3_reduce <- inception_4b/output_inception_4b/output_0_split_1
I0403 15:13:49.722914 14244 net.cpp:399] inception_4c/3x3_reduce -> inception_4c/3x3_reduce
I0403 15:13:49.724808 14244 net.cpp:141] Setting up inception_4c/3x3_reduce
I0403 15:13:49.724838 14244 net.cpp:148] Top shape: 24 128 14 14 (602112)
I0403 15:13:49.724853 14244 net.cpp:156] Memory required for data: 1035617568
I0403 15:13:49.724869 14244 layer_factory.hpp:77] Creating layer inception_4c/relu_3x3_reduce
I0403 15:13:49.724886 14244 net.cpp:91] Creating Layer inception_4c/relu_3x3_reduce
I0403 15:13:49.724901 14244 net.cpp:425] inception_4c/relu_3x3_reduce <- inception_4c/3x3_reduce
I0403 15:13:49.724920 14244 net.cpp:386] inception_4c/relu_3x3_reduce -> inception_4c/3x3_reduce (in-place)
I0403 15:13:49.725215 14244 net.cpp:141] Setting up inception_4c/relu_3x3_reduce
I0403 15:13:49.725244 14244 net.cpp:148] Top shape: 24 128 14 14 (602112)
I0403 15:13:49.725260 14244 net.cpp:156] Memory required for data: 1038026016
I0403 15:13:49.725275 14244 layer_factory.hpp:77] Creating layer inception_4c/3x3
I0403 15:13:49.725298 14244 net.cpp:91] Creating Layer inception_4c/3x3
I0403 15:13:49.725317 14244 net.cpp:425] inception_4c/3x3 <- inception_4c/3x3_reduce
I0403 15:13:49.725339 14244 net.cpp:399] inception_4c/3x3 -> inception_4c/3x3
I0403 15:13:49.729068 14244 net.cpp:141] Setting up inception_4c/3x3
I0403 15:13:49.729110 14244 net.cpp:148] Top shape: 24 256 14 14 (1204224)
I0403 15:13:49.729128 14244 net.cpp:156] Memory required for data: 1042842912
I0403 15:13:49.729161 14244 layer_factory.hpp:77] Creating layer inception_4c/relu_3x3
I0403 15:13:49.729187 14244 net.cpp:91] Creating Layer inception_4c/relu_3x3
I0403 15:13:49.729205 14244 net.cpp:425] inception_4c/relu_3x3 <- inception_4c/3x3
I0403 15:13:49.729223 14244 net.cpp:386] inception_4c/relu_3x3 -> inception_4c/3x3 (in-place)
I0403 15:13:49.729409 14244 net.cpp:141] Setting up inception_4c/relu_3x3
I0403 15:13:49.729435 14244 net.cpp:148] Top shape: 24 256 14 14 (1204224)
I0403 15:13:49.729451 14244 net.cpp:156] Memory required for data: 1047659808
I0403 15:13:49.729467 14244 layer_factory.hpp:77] Creating layer inception_4c/5x5_reduce
I0403 15:13:49.729490 14244 net.cpp:91] Creating Layer inception_4c/5x5_reduce
I0403 15:13:49.729508 14244 net.cpp:425] inception_4c/5x5_reduce <- inception_4b/output_inception_4b/output_0_split_2
I0403 15:13:49.729531 14244 net.cpp:399] inception_4c/5x5_reduce -> inception_4c/5x5_reduce
I0403 15:13:49.730651 14244 net.cpp:141] Setting up inception_4c/5x5_reduce
I0403 15:13:49.730679 14244 net.cpp:148] Top shape: 24 24 14 14 (112896)
I0403 15:13:49.730695 14244 net.cpp:156] Memory required for data: 1048111392
I0403 15:13:49.730713 14244 layer_factory.hpp:77] Creating layer inception_4c/relu_5x5_reduce
I0403 15:13:49.730733 14244 net.cpp:91] Creating Layer inception_4c/relu_5x5_reduce
I0403 15:13:49.730751 14244 net.cpp:425] inception_4c/relu_5x5_reduce <- inception_4c/5x5_reduce
I0403 15:13:49.730768 14244 net.cpp:386] inception_4c/relu_5x5_reduce -> inception_4c/5x5_reduce (in-place)
I0403 15:13:49.730954 14244 net.cpp:141] Setting up inception_4c/relu_5x5_reduce
I0403 15:13:49.730983 14244 net.cpp:148] Top shape: 24 24 14 14 (112896)
I0403 15:13:49.731000 14244 net.cpp:156] Memory required for data: 1048562976
I0403 15:13:49.731015 14244 layer_factory.hpp:77] Creating layer inception_4c/5x5
I0403 15:13:49.731037 14244 net.cpp:91] Creating Layer inception_4c/5x5
I0403 15:13:49.731055 14244 net.cpp:425] inception_4c/5x5 <- inception_4c/5x5_reduce
I0403 15:13:49.731073 14244 net.cpp:399] inception_4c/5x5 -> inception_4c/5x5
I0403 15:13:49.732305 14244 net.cpp:141] Setting up inception_4c/5x5
I0403 15:13:49.732332 14244 net.cpp:148] Top shape: 24 64 14 14 (301056)
I0403 15:13:49.732349 14244 net.cpp:156] Memory required for data: 1049767200
I0403 15:13:49.732369 14244 layer_factory.hpp:77] Creating layer inception_4c/relu_5x5
I0403 15:13:49.732388 14244 net.cpp:91] Creating Layer inception_4c/relu_5x5
I0403 15:13:49.732403 14244 net.cpp:425] inception_4c/relu_5x5 <- inception_4c/5x5
I0403 15:13:49.732419 14244 net.cpp:386] inception_4c/relu_5x5 -> inception_4c/5x5 (in-place)
I0403 15:13:49.732710 14244 net.cpp:141] Setting up inception_4c/relu_5x5
I0403 15:13:49.732738 14244 net.cpp:148] Top shape: 24 64 14 14 (301056)
I0403 15:13:49.732754 14244 net.cpp:156] Memory required for data: 1050971424
I0403 15:13:49.732769 14244 layer_factory.hpp:77] Creating layer inception_4c/pool
I0403 15:13:49.732786 14244 net.cpp:91] Creating Layer inception_4c/pool
I0403 15:13:49.732801 14244 net.cpp:425] inception_4c/pool <- inception_4b/output_inception_4b/output_0_split_3
I0403 15:13:49.732821 14244 net.cpp:399] inception_4c/pool -> inception_4c/pool
I0403 15:13:49.732885 14244 net.cpp:141] Setting up inception_4c/pool
I0403 15:13:49.732908 14244 net.cpp:148] Top shape: 24 512 14 14 (2408448)
I0403 15:13:49.732923 14244 net.cpp:156] Memory required for data: 1060605216
I0403 15:13:49.732936 14244 layer_factory.hpp:77] Creating layer inception_4c/pool_proj
I0403 15:13:49.732959 14244 net.cpp:91] Creating Layer inception_4c/pool_proj
I0403 15:13:49.732975 14244 net.cpp:425] inception_4c/pool_proj <- inception_4c/pool
I0403 15:13:49.732995 14244 net.cpp:399] inception_4c/pool_proj -> inception_4c/pool_proj
I0403 15:13:49.734200 14244 net.cpp:141] Setting up inception_4c/pool_proj
I0403 15:13:49.734230 14244 net.cpp:148] Top shape: 24 64 14 14 (301056)
I0403 15:13:49.734259 14244 net.cpp:156] Memory required for data: 1061809440
I0403 15:13:49.734279 14244 layer_factory.hpp:77] Creating layer inception_4c/relu_pool_proj
I0403 15:13:49.734303 14244 net.cpp:91] Creating Layer inception_4c/relu_pool_proj
I0403 15:13:49.734321 14244 net.cpp:425] inception_4c/relu_pool_proj <- inception_4c/pool_proj
I0403 15:13:49.734339 14244 net.cpp:386] inception_4c/relu_pool_proj -> inception_4c/pool_proj (in-place)
I0403 15:13:49.734522 14244 net.cpp:141] Setting up inception_4c/relu_pool_proj
I0403 15:13:49.734546 14244 net.cpp:148] Top shape: 24 64 14 14 (301056)
I0403 15:13:49.734561 14244 net.cpp:156] Memory required for data: 1063013664
I0403 15:13:49.734587 14244 layer_factory.hpp:77] Creating layer inception_4c/output
I0403 15:13:49.734609 14244 net.cpp:91] Creating Layer inception_4c/output
I0403 15:13:49.734627 14244 net.cpp:425] inception_4c/output <- inception_4c/1x1
I0403 15:13:49.734642 14244 net.cpp:425] inception_4c/output <- inception_4c/3x3
I0403 15:13:49.734658 14244 net.cpp:425] inception_4c/output <- inception_4c/5x5
I0403 15:13:49.734673 14244 net.cpp:425] inception_4c/output <- inception_4c/pool_proj
I0403 15:13:49.734689 14244 net.cpp:399] inception_4c/output -> inception_4c/output
I0403 15:13:49.734735 14244 net.cpp:141] Setting up inception_4c/output
I0403 15:13:49.734758 14244 net.cpp:148] Top shape: 24 512 14 14 (2408448)
I0403 15:13:49.734773 14244 net.cpp:156] Memory required for data: 1072647456
I0403 15:13:49.734787 14244 layer_factory.hpp:77] Creating layer inception_4c/output_inception_4c/output_0_split
I0403 15:13:49.734803 14244 net.cpp:91] Creating Layer inception_4c/output_inception_4c/output_0_split
I0403 15:13:49.734818 14244 net.cpp:425] inception_4c/output_inception_4c/output_0_split <- inception_4c/output
I0403 15:13:49.734838 14244 net.cpp:399] inception_4c/output_inception_4c/output_0_split -> inception_4c/output_inception_4c/output_0_split_0
I0403 15:13:49.734858 14244 net.cpp:399] inception_4c/output_inception_4c/output_0_split -> inception_4c/output_inception_4c/output_0_split_1
I0403 15:13:49.734879 14244 net.cpp:399] inception_4c/output_inception_4c/output_0_split -> inception_4c/output_inception_4c/output_0_split_2
I0403 15:13:49.734899 14244 net.cpp:399] inception_4c/output_inception_4c/output_0_split -> inception_4c/output_inception_4c/output_0_split_3
I0403 15:13:49.734987 14244 net.cpp:141] Setting up inception_4c/output_inception_4c/output_0_split
I0403 15:13:49.735009 14244 net.cpp:148] Top shape: 24 512 14 14 (2408448)
I0403 15:13:49.735024 14244 net.cpp:148] Top shape: 24 512 14 14 (2408448)
I0403 15:13:49.735039 14244 net.cpp:148] Top shape: 24 512 14 14 (2408448)
I0403 15:13:49.735054 14244 net.cpp:148] Top shape: 24 512 14 14 (2408448)
I0403 15:13:49.735066 14244 net.cpp:156] Memory required for data: 1111182624
I0403 15:13:49.735080 14244 layer_factory.hpp:77] Creating layer inception_4d/1x1
I0403 15:13:49.735102 14244 net.cpp:91] Creating Layer inception_4d/1x1
I0403 15:13:49.735119 14244 net.cpp:425] inception_4d/1x1 <- inception_4c/output_inception_4c/output_0_split_0
I0403 15:13:49.735139 14244 net.cpp:399] inception_4d/1x1 -> inception_4d/1x1
I0403 15:13:49.736544 14244 net.cpp:141] Setting up inception_4d/1x1
I0403 15:13:49.736578 14244 net.cpp:148] Top shape: 24 112 14 14 (526848)
I0403 15:13:49.736596 14244 net.cpp:156] Memory required for data: 1113290016
I0403 15:13:49.736615 14244 layer_factory.hpp:77] Creating layer inception_4d/relu_1x1
I0403 15:13:49.736634 14244 net.cpp:91] Creating Layer inception_4d/relu_1x1
I0403 15:13:49.736649 14244 net.cpp:425] inception_4d/relu_1x1 <- inception_4d/1x1
I0403 15:13:49.736667 14244 net.cpp:386] inception_4d/relu_1x1 -> inception_4d/1x1 (in-place)
I0403 15:13:49.736850 14244 net.cpp:141] Setting up inception_4d/relu_1x1
I0403 15:13:49.736876 14244 net.cpp:148] Top shape: 24 112 14 14 (526848)
I0403 15:13:49.736889 14244 net.cpp:156] Memory required for data: 1115397408
I0403 15:13:49.736903 14244 layer_factory.hpp:77] Creating layer inception_4d/3x3_reduce
I0403 15:13:49.736940 14244 net.cpp:91] Creating Layer inception_4d/3x3_reduce
I0403 15:13:49.736958 14244 net.cpp:425] inception_4d/3x3_reduce <- inception_4c/output_inception_4c/output_0_split_1
I0403 15:13:49.736979 14244 net.cpp:399] inception_4d/3x3_reduce -> inception_4d/3x3_reduce
I0403 15:13:49.738478 14244 net.cpp:141] Setting up inception_4d/3x3_reduce
I0403 15:13:49.738509 14244 net.cpp:148] Top shape: 24 144 14 14 (677376)
I0403 15:13:49.738526 14244 net.cpp:156] Memory required for data: 1118106912
I0403 15:13:49.738545 14244 layer_factory.hpp:77] Creating layer inception_4d/relu_3x3_reduce
I0403 15:13:49.738564 14244 net.cpp:91] Creating Layer inception_4d/relu_3x3_reduce
I0403 15:13:49.738587 14244 net.cpp:425] inception_4d/relu_3x3_reduce <- inception_4d/3x3_reduce
I0403 15:13:49.738605 14244 net.cpp:386] inception_4d/relu_3x3_reduce -> inception_4d/3x3_reduce (in-place)
I0403 15:13:49.738893 14244 net.cpp:141] Setting up inception_4d/relu_3x3_reduce
I0403 15:13:49.738921 14244 net.cpp:148] Top shape: 24 144 14 14 (677376)
I0403 15:13:49.738936 14244 net.cpp:156] Memory required for data: 1120816416
I0403 15:13:49.738951 14244 layer_factory.hpp:77] Creating layer inception_4d/3x3
I0403 15:13:49.738973 14244 net.cpp:91] Creating Layer inception_4d/3x3
I0403 15:13:49.738991 14244 net.cpp:425] inception_4d/3x3 <- inception_4d/3x3_reduce
I0403 15:13:49.739007 14244 net.cpp:399] inception_4d/3x3 -> inception_4d/3x3
I0403 15:13:49.743257 14244 net.cpp:141] Setting up inception_4d/3x3
I0403 15:13:49.743285 14244 net.cpp:148] Top shape: 24 288 14 14 (1354752)
I0403 15:13:49.743302 14244 net.cpp:156] Memory required for data: 1126235424
I0403 15:13:49.743321 14244 layer_factory.hpp:77] Creating layer inception_4d/relu_3x3
I0403 15:13:49.743338 14244 net.cpp:91] Creating Layer inception_4d/relu_3x3
I0403 15:13:49.743355 14244 net.cpp:425] inception_4d/relu_3x3 <- inception_4d/3x3
I0403 15:13:49.743372 14244 net.cpp:386] inception_4d/relu_3x3 -> inception_4d/3x3 (in-place)
I0403 15:13:49.743554 14244 net.cpp:141] Setting up inception_4d/relu_3x3
I0403 15:13:49.743583 14244 net.cpp:148] Top shape: 24 288 14 14 (1354752)
I0403 15:13:49.743598 14244 net.cpp:156] Memory required for data: 1131654432
I0403 15:13:49.743613 14244 layer_factory.hpp:77] Creating layer inception_4d/5x5_reduce
I0403 15:13:49.743635 14244 net.cpp:91] Creating Layer inception_4d/5x5_reduce
I0403 15:13:49.743651 14244 net.cpp:425] inception_4d/5x5_reduce <- inception_4c/output_inception_4c/output_0_split_2
I0403 15:13:49.743672 14244 net.cpp:399] inception_4d/5x5_reduce -> inception_4d/5x5_reduce
I0403 15:13:49.744815 14244 net.cpp:141] Setting up inception_4d/5x5_reduce
I0403 15:13:49.744843 14244 net.cpp:148] Top shape: 24 32 14 14 (150528)
I0403 15:13:49.744858 14244 net.cpp:156] Memory required for data: 1132256544
I0403 15:13:49.744876 14244 layer_factory.hpp:77] Creating layer inception_4d/relu_5x5_reduce
I0403 15:13:49.744894 14244 net.cpp:91] Creating Layer inception_4d/relu_5x5_reduce
I0403 15:13:49.744913 14244 net.cpp:425] inception_4d/relu_5x5_reduce <- inception_4d/5x5_reduce
I0403 15:13:49.744930 14244 net.cpp:386] inception_4d/relu_5x5_reduce -> inception_4d/5x5_reduce (in-place)
I0403 15:13:49.745115 14244 net.cpp:141] Setting up inception_4d/relu_5x5_reduce
I0403 15:13:49.745139 14244 net.cpp:148] Top shape: 24 32 14 14 (150528)
I0403 15:13:49.745154 14244 net.cpp:156] Memory required for data: 1132858656
I0403 15:13:49.745168 14244 layer_factory.hpp:77] Creating layer inception_4d/5x5
I0403 15:13:49.745190 14244 net.cpp:91] Creating Layer inception_4d/5x5
I0403 15:13:49.745208 14244 net.cpp:425] inception_4d/5x5 <- inception_4d/5x5_reduce
I0403 15:13:49.745229 14244 net.cpp:399] inception_4d/5x5 -> inception_4d/5x5
I0403 15:13:49.746701 14244 net.cpp:141] Setting up inception_4d/5x5
I0403 15:13:49.746729 14244 net.cpp:148] Top shape: 24 64 14 14 (301056)
I0403 15:13:49.746745 14244 net.cpp:156] Memory required for data: 1134062880
I0403 15:13:49.746764 14244 layer_factory.hpp:77] Creating layer inception_4d/relu_5x5
I0403 15:13:49.746800 14244 net.cpp:91] Creating Layer inception_4d/relu_5x5
I0403 15:13:49.746819 14244 net.cpp:425] inception_4d/relu_5x5 <- inception_4d/5x5
I0403 15:13:49.746835 14244 net.cpp:386] inception_4d/relu_5x5 -> inception_4d/5x5 (in-place)
I0403 15:13:49.747135 14244 net.cpp:141] Setting up inception_4d/relu_5x5
I0403 15:13:49.747162 14244 net.cpp:148] Top shape: 24 64 14 14 (301056)
I0403 15:13:49.747176 14244 net.cpp:156] Memory required for data: 1135267104
I0403 15:13:49.747190 14244 layer_factory.hpp:77] Creating layer inception_4d/pool
I0403 15:13:49.747210 14244 net.cpp:91] Creating Layer inception_4d/pool
I0403 15:13:49.747226 14244 net.cpp:425] inception_4d/pool <- inception_4c/output_inception_4c/output_0_split_3
I0403 15:13:49.747244 14244 net.cpp:399] inception_4d/pool -> inception_4d/pool
I0403 15:13:49.747311 14244 net.cpp:141] Setting up inception_4d/pool
I0403 15:13:49.747335 14244 net.cpp:148] Top shape: 24 512 14 14 (2408448)
I0403 15:13:49.747349 14244 net.cpp:156] Memory required for data: 1144900896
I0403 15:13:49.747364 14244 layer_factory.hpp:77] Creating layer inception_4d/pool_proj
I0403 15:13:49.747385 14244 net.cpp:91] Creating Layer inception_4d/pool_proj
I0403 15:13:49.747402 14244 net.cpp:425] inception_4d/pool_proj <- inception_4d/pool
I0403 15:13:49.747423 14244 net.cpp:399] inception_4d/pool_proj -> inception_4d/pool_proj
I0403 15:13:49.749184 14244 net.cpp:141] Setting up inception_4d/pool_proj
I0403 15:13:49.749213 14244 net.cpp:148] Top shape: 24 64 14 14 (301056)
I0403 15:13:49.749229 14244 net.cpp:156] Memory required for data: 1146105120
I0403 15:13:49.749248 14244 layer_factory.hpp:77] Creating layer inception_4d/relu_pool_proj
I0403 15:13:49.749266 14244 net.cpp:91] Creating Layer inception_4d/relu_pool_proj
I0403 15:13:49.749284 14244 net.cpp:425] inception_4d/relu_pool_proj <- inception_4d/pool_proj
I0403 15:13:49.749305 14244 net.cpp:386] inception_4d/relu_pool_proj -> inception_4d/pool_proj (in-place)
I0403 15:13:49.749482 14244 net.cpp:141] Setting up inception_4d/relu_pool_proj
I0403 15:13:49.749506 14244 net.cpp:148] Top shape: 24 64 14 14 (301056)
I0403 15:13:49.749521 14244 net.cpp:156] Memory required for data: 1147309344
I0403 15:13:49.749534 14244 layer_factory.hpp:77] Creating layer inception_4d/output
I0403 15:13:49.749554 14244 net.cpp:91] Creating Layer inception_4d/output
I0403 15:13:49.749574 14244 net.cpp:425] inception_4d/output <- inception_4d/1x1
I0403 15:13:49.749593 14244 net.cpp:425] inception_4d/output <- inception_4d/3x3
I0403 15:13:49.749608 14244 net.cpp:425] inception_4d/output <- inception_4d/5x5
I0403 15:13:49.749622 14244 net.cpp:425] inception_4d/output <- inception_4d/pool_proj
I0403 15:13:49.749639 14244 net.cpp:399] inception_4d/output -> inception_4d/output
I0403 15:13:49.749686 14244 net.cpp:141] Setting up inception_4d/output
I0403 15:13:49.749708 14244 net.cpp:148] Top shape: 24 528 14 14 (2483712)
I0403 15:13:49.749722 14244 net.cpp:156] Memory required for data: 1157244192
I0403 15:13:49.749737 14244 layer_factory.hpp:77] Creating layer inception_4d/output_inception_4d/output_0_split
I0403 15:13:49.749753 14244 net.cpp:91] Creating Layer inception_4d/output_inception_4d/output_0_split
I0403 15:13:49.749768 14244 net.cpp:425] inception_4d/output_inception_4d/output_0_split <- inception_4d/output
I0403 15:13:49.749788 14244 net.cpp:399] inception_4d/output_inception_4d/output_0_split -> inception_4d/output_inception_4d/output_0_split_0
I0403 15:13:49.749807 14244 net.cpp:399] inception_4d/output_inception_4d/output_0_split -> inception_4d/output_inception_4d/output_0_split_1
I0403 15:13:49.749827 14244 net.cpp:399] inception_4d/output_inception_4d/output_0_split -> inception_4d/output_inception_4d/output_0_split_2
I0403 15:13:49.749847 14244 net.cpp:399] inception_4d/output_inception_4d/output_0_split -> inception_4d/output_inception_4d/output_0_split_3
I0403 15:13:49.749866 14244 net.cpp:399] inception_4d/output_inception_4d/output_0_split -> inception_4d/output_inception_4d/output_0_split_4
I0403 15:13:49.749964 14244 net.cpp:141] Setting up inception_4d/output_inception_4d/output_0_split
I0403 15:13:49.749999 14244 net.cpp:148] Top shape: 24 528 14 14 (2483712)
I0403 15:13:49.750017 14244 net.cpp:148] Top shape: 24 528 14 14 (2483712)
I0403 15:13:49.750032 14244 net.cpp:148] Top shape: 24 528 14 14 (2483712)
I0403 15:13:49.750047 14244 net.cpp:148] Top shape: 24 528 14 14 (2483712)
I0403 15:13:49.750061 14244 net.cpp:148] Top shape: 24 528 14 14 (2483712)
I0403 15:13:49.750074 14244 net.cpp:156] Memory required for data: 1206918432
I0403 15:13:49.750088 14244 layer_factory.hpp:77] Creating layer loss2/ave_pool
I0403 15:13:49.750104 14244 net.cpp:91] Creating Layer loss2/ave_pool
I0403 15:13:49.750120 14244 net.cpp:425] loss2/ave_pool <- inception_4d/output_inception_4d/output_0_split_0
I0403 15:13:49.750139 14244 net.cpp:399] loss2/ave_pool -> loss2/ave_pool
I0403 15:13:49.750450 14244 net.cpp:141] Setting up loss2/ave_pool
I0403 15:13:49.750475 14244 net.cpp:148] Top shape: 24 528 4 4 (202752)
I0403 15:13:49.750489 14244 net.cpp:156] Memory required for data: 1207729440
I0403 15:13:49.750504 14244 layer_factory.hpp:77] Creating layer loss2/conv
I0403 15:13:49.750525 14244 net.cpp:91] Creating Layer loss2/conv
I0403 15:13:49.750541 14244 net.cpp:425] loss2/conv <- loss2/ave_pool
I0403 15:13:49.750561 14244 net.cpp:399] loss2/conv -> loss2/conv
I0403 15:13:49.752416 14244 net.cpp:141] Setting up loss2/conv
I0403 15:13:49.752445 14244 net.cpp:148] Top shape: 24 128 4 4 (49152)
I0403 15:13:49.752462 14244 net.cpp:156] Memory required for data: 1207926048
I0403 15:13:49.752481 14244 layer_factory.hpp:77] Creating layer loss2/relu_conv
I0403 15:13:49.752502 14244 net.cpp:91] Creating Layer loss2/relu_conv
I0403 15:13:49.752518 14244 net.cpp:425] loss2/relu_conv <- loss2/conv
I0403 15:13:49.752534 14244 net.cpp:386] loss2/relu_conv -> loss2/conv (in-place)
I0403 15:13:49.752817 14244 net.cpp:141] Setting up loss2/relu_conv
I0403 15:13:49.752843 14244 net.cpp:148] Top shape: 24 128 4 4 (49152)
I0403 15:13:49.752857 14244 net.cpp:156] Memory required for data: 1208122656
I0403 15:13:49.752871 14244 layer_factory.hpp:77] Creating layer loss2/fc
I0403 15:13:49.752892 14244 net.cpp:91] Creating Layer loss2/fc
I0403 15:13:49.752909 14244 net.cpp:425] loss2/fc <- loss2/conv
I0403 15:13:49.752929 14244 net.cpp:399] loss2/fc -> loss2/fc
I0403 15:13:49.770705 14244 net.cpp:141] Setting up loss2/fc
I0403 15:13:49.770738 14244 net.cpp:148] Top shape: 24 1024 (24576)
I0403 15:13:49.770756 14244 net.cpp:156] Memory required for data: 1208220960
I0403 15:13:49.770774 14244 layer_factory.hpp:77] Creating layer loss2/relu_fc
I0403 15:13:49.770793 14244 net.cpp:91] Creating Layer loss2/relu_fc
I0403 15:13:49.770814 14244 net.cpp:425] loss2/relu_fc <- loss2/fc
I0403 15:13:49.770833 14244 net.cpp:386] loss2/relu_fc -> loss2/fc (in-place)
I0403 15:13:49.771148 14244 net.cpp:141] Setting up loss2/relu_fc
I0403 15:13:49.771176 14244 net.cpp:148] Top shape: 24 1024 (24576)
I0403 15:13:49.771193 14244 net.cpp:156] Memory required for data: 1208319264
I0403 15:13:49.771206 14244 layer_factory.hpp:77] Creating layer loss2/drop_fc
I0403 15:13:49.771225 14244 net.cpp:91] Creating Layer loss2/drop_fc
I0403 15:13:49.771240 14244 net.cpp:425] loss2/drop_fc <- loss2/fc
I0403 15:13:49.771261 14244 net.cpp:386] loss2/drop_fc -> loss2/fc (in-place)
I0403 15:13:49.771313 14244 net.cpp:141] Setting up loss2/drop_fc
I0403 15:13:49.771340 14244 net.cpp:148] Top shape: 24 1024 (24576)
I0403 15:13:49.771356 14244 net.cpp:156] Memory required for data: 1208417568
I0403 15:13:49.771371 14244 layer_factory.hpp:77] Creating layer loss2/classifier_plantvillage
I0403 15:13:49.771390 14244 net.cpp:91] Creating Layer loss2/classifier_plantvillage
I0403 15:13:49.771406 14244 net.cpp:425] loss2/classifier_plantvillage <- loss2/fc
I0403 15:13:49.771428 14244 net.cpp:399] loss2/classifier_plantvillage -> loss2/classifier_plantvillage
I0403 15:13:49.771843 14244 net.cpp:141] Setting up loss2/classifier_plantvillage
I0403 15:13:49.771870 14244 net.cpp:148] Top shape: 24 38 (912)
I0403 15:13:49.771885 14244 net.cpp:156] Memory required for data: 1208421216
I0403 15:13:49.771921 14244 layer_factory.hpp:77] Creating layer loss2/classifier_plantvillage_loss2/classifier_plantvillage_0_split
I0403 15:13:49.771940 14244 net.cpp:91] Creating Layer loss2/classifier_plantvillage_loss2/classifier_plantvillage_0_split
I0403 15:13:49.771955 14244 net.cpp:425] loss2/classifier_plantvillage_loss2/classifier_plantvillage_0_split <- loss2/classifier_plantvillage
I0403 15:13:49.771972 14244 net.cpp:399] loss2/classifier_plantvillage_loss2/classifier_plantvillage_0_split -> loss2/classifier_plantvillage_loss2/classifier_plantvillage_0_split_0
I0403 15:13:49.771992 14244 net.cpp:399] loss2/classifier_plantvillage_loss2/classifier_plantvillage_0_split -> loss2/classifier_plantvillage_loss2/classifier_plantvillage_0_split_1
I0403 15:13:49.772016 14244 net.cpp:399] loss2/classifier_plantvillage_loss2/classifier_plantvillage_0_split -> loss2/classifier_plantvillage_loss2/classifier_plantvillage_0_split_2
I0403 15:13:49.772095 14244 net.cpp:141] Setting up loss2/classifier_plantvillage_loss2/classifier_plantvillage_0_split
I0403 15:13:49.772119 14244 net.cpp:148] Top shape: 24 38 (912)
I0403 15:13:49.772133 14244 net.cpp:148] Top shape: 24 38 (912)
I0403 15:13:49.772148 14244 net.cpp:148] Top shape: 24 38 (912)
I0403 15:13:49.772161 14244 net.cpp:156] Memory required for data: 1208432160
I0403 15:13:49.772176 14244 layer_factory.hpp:77] Creating layer inception_4e/1x1
I0403 15:13:49.772197 14244 net.cpp:91] Creating Layer inception_4e/1x1
I0403 15:13:49.772214 14244 net.cpp:425] inception_4e/1x1 <- inception_4d/output_inception_4d/output_0_split_1
I0403 15:13:49.772235 14244 net.cpp:399] inception_4e/1x1 -> inception_4e/1x1
I0403 15:13:49.774075 14244 net.cpp:141] Setting up inception_4e/1x1
I0403 15:13:49.774106 14244 net.cpp:148] Top shape: 24 256 14 14 (1204224)
I0403 15:13:49.774121 14244 net.cpp:156] Memory required for data: 1213249056
I0403 15:13:49.774139 14244 layer_factory.hpp:77] Creating layer inception_4e/relu_1x1
I0403 15:13:49.774159 14244 net.cpp:91] Creating Layer inception_4e/relu_1x1
I0403 15:13:49.774175 14244 net.cpp:425] inception_4e/relu_1x1 <- inception_4e/1x1
I0403 15:13:49.774191 14244 net.cpp:386] inception_4e/relu_1x1 -> inception_4e/1x1 (in-place)
I0403 15:13:49.774485 14244 net.cpp:141] Setting up inception_4e/relu_1x1
I0403 15:13:49.774512 14244 net.cpp:148] Top shape: 24 256 14 14 (1204224)
I0403 15:13:49.774526 14244 net.cpp:156] Memory required for data: 1218065952
I0403 15:13:49.774541 14244 layer_factory.hpp:77] Creating layer inception_4e/3x3_reduce
I0403 15:13:49.774564 14244 net.cpp:91] Creating Layer inception_4e/3x3_reduce
I0403 15:13:49.774592 14244 net.cpp:425] inception_4e/3x3_reduce <- inception_4d/output_inception_4d/output_0_split_2
I0403 15:13:49.774613 14244 net.cpp:399] inception_4e/3x3_reduce -> inception_4e/3x3_reduce
I0403 15:13:49.776737 14244 net.cpp:141] Setting up inception_4e/3x3_reduce
I0403 15:13:49.776767 14244 net.cpp:148] Top shape: 24 160 14 14 (752640)
I0403 15:13:49.776784 14244 net.cpp:156] Memory required for data: 1221076512
I0403 15:13:49.776803 14244 layer_factory.hpp:77] Creating layer inception_4e/relu_3x3_reduce
I0403 15:13:49.776824 14244 net.cpp:91] Creating Layer inception_4e/relu_3x3_reduce
I0403 15:13:49.776844 14244 net.cpp:425] inception_4e/relu_3x3_reduce <- inception_4e/3x3_reduce
I0403 15:13:49.776861 14244 net.cpp:386] inception_4e/relu_3x3_reduce -> inception_4e/3x3_reduce (in-place)
I0403 15:13:49.777050 14244 net.cpp:141] Setting up inception_4e/relu_3x3_reduce
I0403 15:13:49.777078 14244 net.cpp:148] Top shape: 24 160 14 14 (752640)
I0403 15:13:49.777094 14244 net.cpp:156] Memory required for data: 1224087072
I0403 15:13:49.777109 14244 layer_factory.hpp:77] Creating layer inception_4e/3x3
I0403 15:13:49.777132 14244 net.cpp:91] Creating Layer inception_4e/3x3
I0403 15:13:49.777150 14244 net.cpp:425] inception_4e/3x3 <- inception_4e/3x3_reduce
I0403 15:13:49.777168 14244 net.cpp:399] inception_4e/3x3 -> inception_4e/3x3
I0403 15:13:49.782165 14244 net.cpp:141] Setting up inception_4e/3x3
I0403 15:13:49.782208 14244 net.cpp:148] Top shape: 24 320 14 14 (1505280)
I0403 15:13:49.782227 14244 net.cpp:156] Memory required for data: 1230108192
I0403 15:13:49.782245 14244 layer_factory.hpp:77] Creating layer inception_4e/relu_3x3
I0403 15:13:49.782264 14244 net.cpp:91] Creating Layer inception_4e/relu_3x3
I0403 15:13:49.782280 14244 net.cpp:425] inception_4e/relu_3x3 <- inception_4e/3x3
I0403 15:13:49.782302 14244 net.cpp:386] inception_4e/relu_3x3 -> inception_4e/3x3 (in-place)
I0403 15:13:49.782608 14244 net.cpp:141] Setting up inception_4e/relu_3x3
I0403 15:13:49.782636 14244 net.cpp:148] Top shape: 24 320 14 14 (1505280)
I0403 15:13:49.782654 14244 net.cpp:156] Memory required for data: 1236129312
I0403 15:13:49.782668 14244 layer_factory.hpp:77] Creating layer inception_4e/5x5_reduce
I0403 15:13:49.782692 14244 net.cpp:91] Creating Layer inception_4e/5x5_reduce
I0403 15:13:49.782711 14244 net.cpp:425] inception_4e/5x5_reduce <- inception_4d/output_inception_4d/output_0_split_3
I0403 15:13:49.782732 14244 net.cpp:399] inception_4e/5x5_reduce -> inception_4e/5x5_reduce
I0403 15:13:49.783800 14244 net.cpp:141] Setting up inception_4e/5x5_reduce
I0403 15:13:49.783829 14244 net.cpp:148] Top shape: 24 32 14 14 (150528)
I0403 15:13:49.783846 14244 net.cpp:156] Memory required for data: 1236731424
I0403 15:13:49.783865 14244 layer_factory.hpp:77] Creating layer inception_4e/relu_5x5_reduce
I0403 15:13:49.783885 14244 net.cpp:91] Creating Layer inception_4e/relu_5x5_reduce
I0403 15:13:49.783902 14244 net.cpp:425] inception_4e/relu_5x5_reduce <- inception_4e/5x5_reduce
I0403 15:13:49.783920 14244 net.cpp:386] inception_4e/relu_5x5_reduce -> inception_4e/5x5_reduce (in-place)
I0403 15:13:49.784214 14244 net.cpp:141] Setting up inception_4e/relu_5x5_reduce
I0403 15:13:49.784241 14244 net.cpp:148] Top shape: 24 32 14 14 (150528)
I0403 15:13:49.784258 14244 net.cpp:156] Memory required for data: 1237333536
I0403 15:13:49.784272 14244 layer_factory.hpp:77] Creating layer inception_4e/5x5
I0403 15:13:49.784310 14244 net.cpp:91] Creating Layer inception_4e/5x5
I0403 15:13:49.784330 14244 net.cpp:425] inception_4e/5x5 <- inception_4e/5x5_reduce
I0403 15:13:49.784349 14244 net.cpp:399] inception_4e/5x5 -> inception_4e/5x5
I0403 15:13:49.786211 14244 net.cpp:141] Setting up inception_4e/5x5
I0403 15:13:49.786238 14244 net.cpp:148] Top shape: 24 128 14 14 (602112)
I0403 15:13:49.786259 14244 net.cpp:156] Memory required for data: 1239741984
I0403 15:13:49.786278 14244 layer_factory.hpp:77] Creating layer inception_4e/relu_5x5
I0403 15:13:49.786298 14244 net.cpp:91] Creating Layer inception_4e/relu_5x5
I0403 15:13:49.786315 14244 net.cpp:425] inception_4e/relu_5x5 <- inception_4e/5x5
I0403 15:13:49.786332 14244 net.cpp:386] inception_4e/relu_5x5 -> inception_4e/5x5 (in-place)
I0403 15:13:49.786528 14244 net.cpp:141] Setting up inception_4e/relu_5x5
I0403 15:13:49.786553 14244 net.cpp:148] Top shape: 24 128 14 14 (602112)
I0403 15:13:49.786576 14244 net.cpp:156] Memory required for data: 1242150432
I0403 15:13:49.786592 14244 layer_factory.hpp:77] Creating layer inception_4e/pool
I0403 15:13:49.786610 14244 net.cpp:91] Creating Layer inception_4e/pool
I0403 15:13:49.786626 14244 net.cpp:425] inception_4e/pool <- inception_4d/output_inception_4d/output_0_split_4
I0403 15:13:49.786644 14244 net.cpp:399] inception_4e/pool -> inception_4e/pool
I0403 15:13:49.786715 14244 net.cpp:141] Setting up inception_4e/pool
I0403 15:13:49.786739 14244 net.cpp:148] Top shape: 24 528 14 14 (2483712)
I0403 15:13:49.786753 14244 net.cpp:156] Memory required for data: 1252085280
I0403 15:13:49.786767 14244 layer_factory.hpp:77] Creating layer inception_4e/pool_proj
I0403 15:13:49.786797 14244 net.cpp:91] Creating Layer inception_4e/pool_proj
I0403 15:13:49.786813 14244 net.cpp:425] inception_4e/pool_proj <- inception_4e/pool
I0403 15:13:49.786834 14244 net.cpp:399] inception_4e/pool_proj -> inception_4e/pool_proj
I0403 15:13:49.788357 14244 net.cpp:141] Setting up inception_4e/pool_proj
I0403 15:13:49.788386 14244 net.cpp:148] Top shape: 24 128 14 14 (602112)
I0403 15:13:49.788417 14244 net.cpp:156] Memory required for data: 1254493728
I0403 15:13:49.788437 14244 layer_factory.hpp:77] Creating layer inception_4e/relu_pool_proj
I0403 15:13:49.788455 14244 net.cpp:91] Creating Layer inception_4e/relu_pool_proj
I0403 15:13:49.788472 14244 net.cpp:425] inception_4e/relu_pool_proj <- inception_4e/pool_proj
I0403 15:13:49.788491 14244 net.cpp:386] inception_4e/relu_pool_proj -> inception_4e/pool_proj (in-place)
I0403 15:13:49.788821 14244 net.cpp:141] Setting up inception_4e/relu_pool_proj
I0403 15:13:49.788848 14244 net.cpp:148] Top shape: 24 128 14 14 (602112)
I0403 15:13:49.788866 14244 net.cpp:156] Memory required for data: 1256902176
I0403 15:13:49.788882 14244 layer_factory.hpp:77] Creating layer inception_4e/output
I0403 15:13:49.788898 14244 net.cpp:91] Creating Layer inception_4e/output
I0403 15:13:49.788913 14244 net.cpp:425] inception_4e/output <- inception_4e/1x1
I0403 15:13:49.788929 14244 net.cpp:425] inception_4e/output <- inception_4e/3x3
I0403 15:13:49.788944 14244 net.cpp:425] inception_4e/output <- inception_4e/5x5
I0403 15:13:49.788960 14244 net.cpp:425] inception_4e/output <- inception_4e/pool_proj
I0403 15:13:49.788980 14244 net.cpp:399] inception_4e/output -> inception_4e/output
I0403 15:13:49.789028 14244 net.cpp:141] Setting up inception_4e/output
I0403 15:13:49.789053 14244 net.cpp:148] Top shape: 24 832 14 14 (3913728)
I0403 15:13:49.789068 14244 net.cpp:156] Memory required for data: 1272557088
I0403 15:13:49.789083 14244 layer_factory.hpp:77] Creating layer pool4/3x3_s2
I0403 15:13:49.789099 14244 net.cpp:91] Creating Layer pool4/3x3_s2
I0403 15:13:49.789114 14244 net.cpp:425] pool4/3x3_s2 <- inception_4e/output
I0403 15:13:49.789134 14244 net.cpp:399] pool4/3x3_s2 -> pool4/3x3_s2
I0403 15:13:49.789201 14244 net.cpp:141] Setting up pool4/3x3_s2
I0403 15:13:49.789224 14244 net.cpp:148] Top shape: 24 832 7 7 (978432)
I0403 15:13:49.789238 14244 net.cpp:156] Memory required for data: 1276470816
I0403 15:13:49.789252 14244 layer_factory.hpp:77] Creating layer pool4/3x3_s2_pool4/3x3_s2_0_split
I0403 15:13:49.789271 14244 net.cpp:91] Creating Layer pool4/3x3_s2_pool4/3x3_s2_0_split
I0403 15:13:49.789288 14244 net.cpp:425] pool4/3x3_s2_pool4/3x3_s2_0_split <- pool4/3x3_s2
I0403 15:13:49.789304 14244 net.cpp:399] pool4/3x3_s2_pool4/3x3_s2_0_split -> pool4/3x3_s2_pool4/3x3_s2_0_split_0
I0403 15:13:49.789324 14244 net.cpp:399] pool4/3x3_s2_pool4/3x3_s2_0_split -> pool4/3x3_s2_pool4/3x3_s2_0_split_1
I0403 15:13:49.789342 14244 net.cpp:399] pool4/3x3_s2_pool4/3x3_s2_0_split -> pool4/3x3_s2_pool4/3x3_s2_0_split_2
I0403 15:13:49.789364 14244 net.cpp:399] pool4/3x3_s2_pool4/3x3_s2_0_split -> pool4/3x3_s2_pool4/3x3_s2_0_split_3
I0403 15:13:49.789456 14244 net.cpp:141] Setting up pool4/3x3_s2_pool4/3x3_s2_0_split
I0403 15:13:49.789479 14244 net.cpp:148] Top shape: 24 832 7 7 (978432)
I0403 15:13:49.789495 14244 net.cpp:148] Top shape: 24 832 7 7 (978432)
I0403 15:13:49.789510 14244 net.cpp:148] Top shape: 24 832 7 7 (978432)
I0403 15:13:49.789525 14244 net.cpp:148] Top shape: 24 832 7 7 (978432)
I0403 15:13:49.789537 14244 net.cpp:156] Memory required for data: 1292125728
I0403 15:13:49.789551 14244 layer_factory.hpp:77] Creating layer inception_5a/1x1
I0403 15:13:49.789577 14244 net.cpp:91] Creating Layer inception_5a/1x1
I0403 15:13:49.789594 14244 net.cpp:425] inception_5a/1x1 <- pool4/3x3_s2_pool4/3x3_s2_0_split_0
I0403 15:13:49.789614 14244 net.cpp:399] inception_5a/1x1 -> inception_5a/1x1
I0403 15:13:49.792467 14244 net.cpp:141] Setting up inception_5a/1x1
I0403 15:13:49.792497 14244 net.cpp:148] Top shape: 24 256 7 7 (301056)
I0403 15:13:49.792515 14244 net.cpp:156] Memory required for data: 1293329952
I0403 15:13:49.792533 14244 layer_factory.hpp:77] Creating layer inception_5a/relu_1x1
I0403 15:13:49.792553 14244 net.cpp:91] Creating Layer inception_5a/relu_1x1
I0403 15:13:49.792575 14244 net.cpp:425] inception_5a/relu_1x1 <- inception_5a/1x1
I0403 15:13:49.792594 14244 net.cpp:386] inception_5a/relu_1x1 -> inception_5a/1x1 (in-place)
I0403 15:13:49.792904 14244 net.cpp:141] Setting up inception_5a/relu_1x1
I0403 15:13:49.792930 14244 net.cpp:148] Top shape: 24 256 7 7 (301056)
I0403 15:13:49.792945 14244 net.cpp:156] Memory required for data: 1294534176
I0403 15:13:49.792959 14244 layer_factory.hpp:77] Creating layer inception_5a/3x3_reduce
I0403 15:13:49.792982 14244 net.cpp:91] Creating Layer inception_5a/3x3_reduce
I0403 15:13:49.793000 14244 net.cpp:425] inception_5a/3x3_reduce <- pool4/3x3_s2_pool4/3x3_s2_0_split_1
I0403 15:13:49.793020 14244 net.cpp:399] inception_5a/3x3_reduce -> inception_5a/3x3_reduce
I0403 15:13:49.795481 14244 net.cpp:141] Setting up inception_5a/3x3_reduce
I0403 15:13:49.795511 14244 net.cpp:148] Top shape: 24 160 7 7 (188160)
I0403 15:13:49.795532 14244 net.cpp:156] Memory required for data: 1295286816
I0403 15:13:49.795552 14244 layer_factory.hpp:77] Creating layer inception_5a/relu_3x3_reduce
I0403 15:13:49.795572 14244 net.cpp:91] Creating Layer inception_5a/relu_3x3_reduce
I0403 15:13:49.795591 14244 net.cpp:425] inception_5a/relu_3x3_reduce <- inception_5a/3x3_reduce
I0403 15:13:49.795610 14244 net.cpp:386] inception_5a/relu_3x3_reduce -> inception_5a/3x3_reduce (in-place)
I0403 15:13:49.795799 14244 net.cpp:141] Setting up inception_5a/relu_3x3_reduce
I0403 15:13:49.795825 14244 net.cpp:148] Top shape: 24 160 7 7 (188160)
I0403 15:13:49.795841 14244 net.cpp:156] Memory required for data: 1296039456
I0403 15:13:49.795855 14244 layer_factory.hpp:77] Creating layer inception_5a/3x3
I0403 15:13:49.795876 14244 net.cpp:91] Creating Layer inception_5a/3x3
I0403 15:13:49.795893 14244 net.cpp:425] inception_5a/3x3 <- inception_5a/3x3_reduce
I0403 15:13:49.795914 14244 net.cpp:399] inception_5a/3x3 -> inception_5a/3x3
I0403 15:13:49.801352 14244 net.cpp:141] Setting up inception_5a/3x3
I0403 15:13:49.801383 14244 net.cpp:148] Top shape: 24 320 7 7 (376320)
I0403 15:13:49.801400 14244 net.cpp:156] Memory required for data: 1297544736
I0403 15:13:49.801419 14244 layer_factory.hpp:77] Creating layer inception_5a/relu_3x3
I0403 15:13:49.801441 14244 net.cpp:91] Creating Layer inception_5a/relu_3x3
I0403 15:13:49.801458 14244 net.cpp:425] inception_5a/relu_3x3 <- inception_5a/3x3
I0403 15:13:49.801476 14244 net.cpp:386] inception_5a/relu_3x3 -> inception_5a/3x3 (in-place)
I0403 15:13:49.801782 14244 net.cpp:141] Setting up inception_5a/relu_3x3
I0403 15:13:49.801808 14244 net.cpp:148] Top shape: 24 320 7 7 (376320)
I0403 15:13:49.801823 14244 net.cpp:156] Memory required for data: 1299050016
I0403 15:13:49.801837 14244 layer_factory.hpp:77] Creating layer inception_5a/5x5_reduce
I0403 15:13:49.801859 14244 net.cpp:91] Creating Layer inception_5a/5x5_reduce
I0403 15:13:49.801877 14244 net.cpp:425] inception_5a/5x5_reduce <- pool4/3x3_s2_pool4/3x3_s2_0_split_2
I0403 15:13:49.801898 14244 net.cpp:399] inception_5a/5x5_reduce -> inception_5a/5x5_reduce
I0403 15:13:49.803067 14244 net.cpp:141] Setting up inception_5a/5x5_reduce
I0403 15:13:49.803099 14244 net.cpp:148] Top shape: 24 32 7 7 (37632)
I0403 15:13:49.803117 14244 net.cpp:156] Memory required for data: 1299200544
I0403 15:13:49.803135 14244 layer_factory.hpp:77] Creating layer inception_5a/relu_5x5_reduce
I0403 15:13:49.803153 14244 net.cpp:91] Creating Layer inception_5a/relu_5x5_reduce
I0403 15:13:49.803169 14244 net.cpp:425] inception_5a/relu_5x5_reduce <- inception_5a/5x5_reduce
I0403 15:13:49.803184 14244 net.cpp:386] inception_5a/relu_5x5_reduce -> inception_5a/5x5_reduce (in-place)
I0403 15:13:49.803488 14244 net.cpp:141] Setting up inception_5a/relu_5x5_reduce
I0403 15:13:49.803514 14244 net.cpp:148] Top shape: 24 32 7 7 (37632)
I0403 15:13:49.803529 14244 net.cpp:156] Memory required for data: 1299351072
I0403 15:13:49.803544 14244 layer_factory.hpp:77] Creating layer inception_5a/5x5
I0403 15:13:49.803566 14244 net.cpp:91] Creating Layer inception_5a/5x5
I0403 15:13:49.803588 14244 net.cpp:425] inception_5a/5x5 <- inception_5a/5x5_reduce
I0403 15:13:49.803609 14244 net.cpp:399] inception_5a/5x5 -> inception_5a/5x5
I0403 15:13:49.805330 14244 net.cpp:141] Setting up inception_5a/5x5
I0403 15:13:49.805369 14244 net.cpp:148] Top shape: 24 128 7 7 (150528)
I0403 15:13:49.805387 14244 net.cpp:156] Memory required for data: 1299953184
I0403 15:13:49.805404 14244 layer_factory.hpp:77] Creating layer inception_5a/relu_5x5
I0403 15:13:49.805428 14244 net.cpp:91] Creating Layer inception_5a/relu_5x5
I0403 15:13:49.805446 14244 net.cpp:425] inception_5a/relu_5x5 <- inception_5a/5x5
I0403 15:13:49.805464 14244 net.cpp:386] inception_5a/relu_5x5 -> inception_5a/5x5 (in-place)
I0403 15:13:49.805655 14244 net.cpp:141] Setting up inception_5a/relu_5x5
I0403 15:13:49.805681 14244 net.cpp:148] Top shape: 24 128 7 7 (150528)
I0403 15:13:49.805696 14244 net.cpp:156] Memory required for data: 1300555296
I0403 15:13:49.805709 14244 layer_factory.hpp:77] Creating layer inception_5a/pool
I0403 15:13:49.805726 14244 net.cpp:91] Creating Layer inception_5a/pool
I0403 15:13:49.805740 14244 net.cpp:425] inception_5a/pool <- pool4/3x3_s2_pool4/3x3_s2_0_split_3
I0403 15:13:49.805757 14244 net.cpp:399] inception_5a/pool -> inception_5a/pool
I0403 15:13:49.805825 14244 net.cpp:141] Setting up inception_5a/pool
I0403 15:13:49.805848 14244 net.cpp:148] Top shape: 24 832 7 7 (978432)
I0403 15:13:49.805861 14244 net.cpp:156] Memory required for data: 1304469024
I0403 15:13:49.805876 14244 layer_factory.hpp:77] Creating layer inception_5a/pool_proj
I0403 15:13:49.805896 14244 net.cpp:91] Creating Layer inception_5a/pool_proj
I0403 15:13:49.805912 14244 net.cpp:425] inception_5a/pool_proj <- inception_5a/pool
I0403 15:13:49.805932 14244 net.cpp:399] inception_5a/pool_proj -> inception_5a/pool_proj
I0403 15:13:49.808197 14244 net.cpp:141] Setting up inception_5a/pool_proj
I0403 15:13:49.808228 14244 net.cpp:148] Top shape: 24 128 7 7 (150528)
I0403 15:13:49.808243 14244 net.cpp:156] Memory required for data: 1305071136
I0403 15:13:49.808261 14244 layer_factory.hpp:77] Creating layer inception_5a/relu_pool_proj
I0403 15:13:49.808281 14244 net.cpp:91] Creating Layer inception_5a/relu_pool_proj
I0403 15:13:49.808300 14244 net.cpp:425] inception_5a/relu_pool_proj <- inception_5a/pool_proj
I0403 15:13:49.808315 14244 net.cpp:386] inception_5a/relu_pool_proj -> inception_5a/pool_proj (in-place)
I0403 15:13:49.808606 14244 net.cpp:141] Setting up inception_5a/relu_pool_proj
I0403 15:13:49.808631 14244 net.cpp:148] Top shape: 24 128 7 7 (150528)
I0403 15:13:49.808645 14244 net.cpp:156] Memory required for data: 1305673248
I0403 15:13:49.808660 14244 layer_factory.hpp:77] Creating layer inception_5a/output
I0403 15:13:49.808676 14244 net.cpp:91] Creating Layer inception_5a/output
I0403 15:13:49.808691 14244 net.cpp:425] inception_5a/output <- inception_5a/1x1
I0403 15:13:49.808706 14244 net.cpp:425] inception_5a/output <- inception_5a/3x3
I0403 15:13:49.808722 14244 net.cpp:425] inception_5a/output <- inception_5a/5x5
I0403 15:13:49.808737 14244 net.cpp:425] inception_5a/output <- inception_5a/pool_proj
I0403 15:13:49.808756 14244 net.cpp:399] inception_5a/output -> inception_5a/output
I0403 15:13:49.808804 14244 net.cpp:141] Setting up inception_5a/output
I0403 15:13:49.808830 14244 net.cpp:148] Top shape: 24 832 7 7 (978432)
I0403 15:13:49.808845 14244 net.cpp:156] Memory required for data: 1309586976
I0403 15:13:49.808858 14244 layer_factory.hpp:77] Creating layer inception_5a/output_inception_5a/output_0_split
I0403 15:13:49.808874 14244 net.cpp:91] Creating Layer inception_5a/output_inception_5a/output_0_split
I0403 15:13:49.808888 14244 net.cpp:425] inception_5a/output_inception_5a/output_0_split <- inception_5a/output
I0403 15:13:49.808909 14244 net.cpp:399] inception_5a/output_inception_5a/output_0_split -> inception_5a/output_inception_5a/output_0_split_0
I0403 15:13:49.808929 14244 net.cpp:399] inception_5a/output_inception_5a/output_0_split -> inception_5a/output_inception_5a/output_0_split_1
I0403 15:13:49.808948 14244 net.cpp:399] inception_5a/output_inception_5a/output_0_split -> inception_5a/output_inception_5a/output_0_split_2
I0403 15:13:49.808967 14244 net.cpp:399] inception_5a/output_inception_5a/output_0_split -> inception_5a/output_inception_5a/output_0_split_3
I0403 15:13:49.809077 14244 net.cpp:141] Setting up inception_5a/output_inception_5a/output_0_split
I0403 15:13:49.809099 14244 net.cpp:148] Top shape: 24 832 7 7 (978432)
I0403 15:13:49.809114 14244 net.cpp:148] Top shape: 24 832 7 7 (978432)
I0403 15:13:49.809128 14244 net.cpp:148] Top shape: 24 832 7 7 (978432)
I0403 15:13:49.809142 14244 net.cpp:148] Top shape: 24 832 7 7 (978432)
I0403 15:13:49.809155 14244 net.cpp:156] Memory required for data: 1325241888
I0403 15:13:49.809170 14244 layer_factory.hpp:77] Creating layer inception_5b/1x1
I0403 15:13:49.809190 14244 net.cpp:91] Creating Layer inception_5b/1x1
I0403 15:13:49.809206 14244 net.cpp:425] inception_5b/1x1 <- inception_5a/output_inception_5a/output_0_split_0
I0403 15:13:49.809226 14244 net.cpp:399] inception_5b/1x1 -> inception_5b/1x1
I0403 15:13:49.812928 14244 net.cpp:141] Setting up inception_5b/1x1
I0403 15:13:49.812960 14244 net.cpp:148] Top shape: 24 384 7 7 (451584)
I0403 15:13:49.812976 14244 net.cpp:156] Memory required for data: 1327048224
I0403 15:13:49.812995 14244 layer_factory.hpp:77] Creating layer inception_5b/relu_1x1
I0403 15:13:49.813015 14244 net.cpp:91] Creating Layer inception_5b/relu_1x1
I0403 15:13:49.813031 14244 net.cpp:425] inception_5b/relu_1x1 <- inception_5b/1x1
I0403 15:13:49.813050 14244 net.cpp:386] inception_5b/relu_1x1 -> inception_5b/1x1 (in-place)
I0403 15:13:49.813357 14244 net.cpp:141] Setting up inception_5b/relu_1x1
I0403 15:13:49.813385 14244 net.cpp:148] Top shape: 24 384 7 7 (451584)
I0403 15:13:49.813402 14244 net.cpp:156] Memory required for data: 1328854560
I0403 15:13:49.813418 14244 layer_factory.hpp:77] Creating layer inception_5b/3x3_reduce
I0403 15:13:49.813441 14244 net.cpp:91] Creating Layer inception_5b/3x3_reduce
I0403 15:13:49.813460 14244 net.cpp:425] inception_5b/3x3_reduce <- inception_5a/output_inception_5a/output_0_split_1
I0403 15:13:49.813483 14244 net.cpp:399] inception_5b/3x3_reduce -> inception_5b/3x3_reduce
I0403 15:13:49.816138 14244 net.cpp:141] Setting up inception_5b/3x3_reduce
I0403 15:13:49.816169 14244 net.cpp:148] Top shape: 24 192 7 7 (225792)
I0403 15:13:49.816185 14244 net.cpp:156] Memory required for data: 1329757728
I0403 15:13:49.816205 14244 layer_factory.hpp:77] Creating layer inception_5b/relu_3x3_reduce
I0403 15:13:49.816220 14244 net.cpp:91] Creating Layer inception_5b/relu_3x3_reduce
I0403 15:13:49.816239 14244 net.cpp:425] inception_5b/relu_3x3_reduce <- inception_5b/3x3_reduce
I0403 15:13:49.816256 14244 net.cpp:386] inception_5b/relu_3x3_reduce -> inception_5b/3x3_reduce (in-place)
I0403 15:13:49.816439 14244 net.cpp:141] Setting up inception_5b/relu_3x3_reduce
I0403 15:13:49.816464 14244 net.cpp:148] Top shape: 24 192 7 7 (225792)
I0403 15:13:49.816478 14244 net.cpp:156] Memory required for data: 1330660896
I0403 15:13:49.816493 14244 layer_factory.hpp:77] Creating layer inception_5b/3x3
I0403 15:13:49.816514 14244 net.cpp:91] Creating Layer inception_5b/3x3
I0403 15:13:49.816530 14244 net.cpp:425] inception_5b/3x3 <- inception_5b/3x3_reduce
I0403 15:13:49.816551 14244 net.cpp:399] inception_5b/3x3 -> inception_5b/3x3
I0403 15:13:49.823104 14244 net.cpp:141] Setting up inception_5b/3x3
I0403 15:13:49.823133 14244 net.cpp:148] Top shape: 24 384 7 7 (451584)
I0403 15:13:49.823150 14244 net.cpp:156] Memory required for data: 1332467232
I0403 15:13:49.823169 14244 layer_factory.hpp:77] Creating layer inception_5b/relu_3x3
I0403 15:13:49.823190 14244 net.cpp:91] Creating Layer inception_5b/relu_3x3
I0403 15:13:49.823207 14244 net.cpp:425] inception_5b/relu_3x3 <- inception_5b/3x3
I0403 15:13:49.823225 14244 net.cpp:386] inception_5b/relu_3x3 -> inception_5b/3x3 (in-place)
I0403 15:13:49.823514 14244 net.cpp:141] Setting up inception_5b/relu_3x3
I0403 15:13:49.823539 14244 net.cpp:148] Top shape: 24 384 7 7 (451584)
I0403 15:13:49.823554 14244 net.cpp:156] Memory required for data: 1334273568
I0403 15:13:49.823572 14244 layer_factory.hpp:77] Creating layer inception_5b/5x5_reduce
I0403 15:13:49.823611 14244 net.cpp:91] Creating Layer inception_5b/5x5_reduce
I0403 15:13:49.823628 14244 net.cpp:425] inception_5b/5x5_reduce <- inception_5a/output_inception_5a/output_0_split_2
I0403 15:13:49.823650 14244 net.cpp:399] inception_5b/5x5_reduce -> inception_5b/5x5_reduce
I0403 15:13:49.824949 14244 net.cpp:141] Setting up inception_5b/5x5_reduce
I0403 15:13:49.824977 14244 net.cpp:148] Top shape: 24 48 7 7 (56448)
I0403 15:13:49.824992 14244 net.cpp:156] Memory required for data: 1334499360
I0403 15:13:49.825011 14244 layer_factory.hpp:77] Creating layer inception_5b/relu_5x5_reduce
I0403 15:13:49.825028 14244 net.cpp:91] Creating Layer inception_5b/relu_5x5_reduce
I0403 15:13:49.825057 14244 net.cpp:425] inception_5b/relu_5x5_reduce <- inception_5b/5x5_reduce
I0403 15:13:49.825075 14244 net.cpp:386] inception_5b/relu_5x5_reduce -> inception_5b/5x5_reduce (in-place)
I0403 15:13:49.825438 14244 net.cpp:141] Setting up inception_5b/relu_5x5_reduce
I0403 15:13:49.825464 14244 net.cpp:148] Top shape: 24 48 7 7 (56448)
I0403 15:13:49.825479 14244 net.cpp:156] Memory required for data: 1334725152
I0403 15:13:49.825494 14244 layer_factory.hpp:77] Creating layer inception_5b/5x5
I0403 15:13:49.825512 14244 net.cpp:91] Creating Layer inception_5b/5x5
I0403 15:13:49.825528 14244 net.cpp:425] inception_5b/5x5 <- inception_5b/5x5_reduce
I0403 15:13:49.825546 14244 net.cpp:399] inception_5b/5x5 -> inception_5b/5x5
I0403 15:13:49.827550 14244 net.cpp:141] Setting up inception_5b/5x5
I0403 15:13:49.827582 14244 net.cpp:148] Top shape: 24 128 7 7 (150528)
I0403 15:13:49.827600 14244 net.cpp:156] Memory required for data: 1335327264
I0403 15:13:49.827617 14244 layer_factory.hpp:77] Creating layer inception_5b/relu_5x5
I0403 15:13:49.827638 14244 net.cpp:91] Creating Layer inception_5b/relu_5x5
I0403 15:13:49.827656 14244 net.cpp:425] inception_5b/relu_5x5 <- inception_5b/5x5
I0403 15:13:49.827672 14244 net.cpp:386] inception_5b/relu_5x5 -> inception_5b/5x5 (in-place)
I0403 15:13:49.827860 14244 net.cpp:141] Setting up inception_5b/relu_5x5
I0403 15:13:49.827884 14244 net.cpp:148] Top shape: 24 128 7 7 (150528)
I0403 15:13:49.827899 14244 net.cpp:156] Memory required for data: 1335929376
I0403 15:13:49.827913 14244 layer_factory.hpp:77] Creating layer inception_5b/pool
I0403 15:13:49.827931 14244 net.cpp:91] Creating Layer inception_5b/pool
I0403 15:13:49.827949 14244 net.cpp:425] inception_5b/pool <- inception_5a/output_inception_5a/output_0_split_3
I0403 15:13:49.827967 14244 net.cpp:399] inception_5b/pool -> inception_5b/pool
I0403 15:13:49.828038 14244 net.cpp:141] Setting up inception_5b/pool
I0403 15:13:49.828061 14244 net.cpp:148] Top shape: 24 832 7 7 (978432)
I0403 15:13:49.828074 14244 net.cpp:156] Memory required for data: 1339843104
I0403 15:13:49.828088 14244 layer_factory.hpp:77] Creating layer inception_5b/pool_proj
I0403 15:13:49.828109 14244 net.cpp:91] Creating Layer inception_5b/pool_proj
I0403 15:13:49.828125 14244 net.cpp:425] inception_5b/pool_proj <- inception_5b/pool
I0403 15:13:49.828145 14244 net.cpp:399] inception_5b/pool_proj -> inception_5b/pool_proj
I0403 15:13:49.830421 14244 net.cpp:141] Setting up inception_5b/pool_proj
I0403 15:13:49.830451 14244 net.cpp:148] Top shape: 24 128 7 7 (150528)
I0403 15:13:49.830468 14244 net.cpp:156] Memory required for data: 1340445216
I0403 15:13:49.830487 14244 layer_factory.hpp:77] Creating layer inception_5b/relu_pool_proj
I0403 15:13:49.830504 14244 net.cpp:91] Creating Layer inception_5b/relu_pool_proj
I0403 15:13:49.830520 14244 net.cpp:425] inception_5b/relu_pool_proj <- inception_5b/pool_proj
I0403 15:13:49.830539 14244 net.cpp:386] inception_5b/relu_pool_proj -> inception_5b/pool_proj (in-place)
I0403 15:13:49.830840 14244 net.cpp:141] Setting up inception_5b/relu_pool_proj
I0403 15:13:49.830868 14244 net.cpp:148] Top shape: 24 128 7 7 (150528)
I0403 15:13:49.830883 14244 net.cpp:156] Memory required for data: 1341047328
I0403 15:13:49.830898 14244 layer_factory.hpp:77] Creating layer inception_5b/output
I0403 15:13:49.830914 14244 net.cpp:91] Creating Layer inception_5b/output
I0403 15:13:49.830945 14244 net.cpp:425] inception_5b/output <- inception_5b/1x1
I0403 15:13:49.830963 14244 net.cpp:425] inception_5b/output <- inception_5b/3x3
I0403 15:13:49.830981 14244 net.cpp:425] inception_5b/output <- inception_5b/5x5
I0403 15:13:49.830998 14244 net.cpp:425] inception_5b/output <- inception_5b/pool_proj
I0403 15:13:49.831017 14244 net.cpp:399] inception_5b/output -> inception_5b/output
I0403 15:13:49.831068 14244 net.cpp:141] Setting up inception_5b/output
I0403 15:13:49.831094 14244 net.cpp:148] Top shape: 24 1024 7 7 (1204224)
I0403 15:13:49.831110 14244 net.cpp:156] Memory required for data: 1345864224
I0403 15:13:49.831125 14244 layer_factory.hpp:77] Creating layer pool5/7x7_s1
I0403 15:13:49.831141 14244 net.cpp:91] Creating Layer pool5/7x7_s1
I0403 15:13:49.831156 14244 net.cpp:425] pool5/7x7_s1 <- inception_5b/output
I0403 15:13:49.831176 14244 net.cpp:399] pool5/7x7_s1 -> pool5/7x7_s1
I0403 15:13:49.831387 14244 net.cpp:141] Setting up pool5/7x7_s1
I0403 15:13:49.831410 14244 net.cpp:148] Top shape: 24 1024 1 1 (24576)
I0403 15:13:49.831424 14244 net.cpp:156] Memory required for data: 1345962528
I0403 15:13:49.831439 14244 layer_factory.hpp:77] Creating layer pool5/drop_7x7_s1
I0403 15:13:49.831455 14244 net.cpp:91] Creating Layer pool5/drop_7x7_s1
I0403 15:13:49.831470 14244 net.cpp:425] pool5/drop_7x7_s1 <- pool5/7x7_s1
I0403 15:13:49.831488 14244 net.cpp:386] pool5/drop_7x7_s1 -> pool5/7x7_s1 (in-place)
I0403 15:13:49.831538 14244 net.cpp:141] Setting up pool5/drop_7x7_s1
I0403 15:13:49.831562 14244 net.cpp:148] Top shape: 24 1024 1 1 (24576)
I0403 15:13:49.831580 14244 net.cpp:156] Memory required for data: 1346060832
I0403 15:13:49.831594 14244 layer_factory.hpp:77] Creating layer loss3/classifier_plantvillage
I0403 15:13:49.831612 14244 net.cpp:91] Creating Layer loss3/classifier_plantvillage
I0403 15:13:49.831627 14244 net.cpp:425] loss3/classifier_plantvillage <- pool5/7x7_s1
I0403 15:13:49.831647 14244 net.cpp:399] loss3/classifier_plantvillage -> loss3/classifier_plantvillage
I0403 15:13:49.832064 14244 net.cpp:141] Setting up loss3/classifier_plantvillage
I0403 15:13:49.832087 14244 net.cpp:148] Top shape: 24 38 (912)
I0403 15:13:49.832101 14244 net.cpp:156] Memory required for data: 1346064480
I0403 15:13:49.832118 14244 layer_factory.hpp:77] Creating layer loss3/classifier_plantvillage_loss3/classifier_plantvillage_0_split
I0403 15:13:49.832139 14244 net.cpp:91] Creating Layer loss3/classifier_plantvillage_loss3/classifier_plantvillage_0_split
I0403 15:13:49.832154 14244 net.cpp:425] loss3/classifier_plantvillage_loss3/classifier_plantvillage_0_split <- loss3/classifier_plantvillage
I0403 15:13:49.832173 14244 net.cpp:399] loss3/classifier_plantvillage_loss3/classifier_plantvillage_0_split -> loss3/classifier_plantvillage_loss3/classifier_plantvillage_0_split_0
I0403 15:13:49.832193 14244 net.cpp:399] loss3/classifier_plantvillage_loss3/classifier_plantvillage_0_split -> loss3/classifier_plantvillage_loss3/classifier_plantvillage_0_split_1
I0403 15:13:49.832212 14244 net.cpp:399] loss3/classifier_plantvillage_loss3/classifier_plantvillage_0_split -> loss3/classifier_plantvillage_loss3/classifier_plantvillage_0_split_2
I0403 15:13:49.832231 14244 net.cpp:399] loss3/classifier_plantvillage_loss3/classifier_plantvillage_0_split -> loss3/classifier_plantvillage_loss3/classifier_plantvillage_0_split_3
I0403 15:13:49.832327 14244 net.cpp:141] Setting up loss3/classifier_plantvillage_loss3/classifier_plantvillage_0_split
I0403 15:13:49.832350 14244 net.cpp:148] Top shape: 24 38 (912)
I0403 15:13:49.832365 14244 net.cpp:148] Top shape: 24 38 (912)
I0403 15:13:49.832379 14244 net.cpp:148] Top shape: 24 38 (912)
I0403 15:13:49.832393 14244 net.cpp:148] Top shape: 24 38 (912)
I0403 15:13:49.832406 14244 net.cpp:156] Memory required for data: 1346079072
I0403 15:13:49.832419 14244 layer_factory.hpp:77] Creating layer loss1/loss
I0403 15:13:49.832439 14244 net.cpp:91] Creating Layer loss1/loss
I0403 15:13:49.832455 14244 net.cpp:425] loss1/loss <- loss1/classifier_plantvillage_loss1/classifier_plantvillage_0_split_0
I0403 15:13:49.832485 14244 net.cpp:425] loss1/loss <- label_data_1_split_0
…
