…
I0403 15:05:35.558257 14104 net.cpp:313] The NetState phase (1) differed from the phase (0) specified by a rule in layer data
I0403 15:05:35.559404 14104 net.cpp:49] Initializing net from parameters: 
state {
  phase: TEST
}
layer {
  name: "data"
  type: "Data"
  top: "data"
  top: "label"
  include {
    phase: TEST
  }
  transform_param {
    mirror: false
    crop_size: 224
    mean_file: "/home/mohanty/data/final_dataset/lmdb/color-40-60/mean.binaryproto"
  }
  data_param {
    source: "/home/mohanty/data/final_dataset/lmdb/color-40-60/test_db"
    batch_size: 24
    backend: LMDB
  }
}
layer {
  name: "conv1/7x7_s2"
  type: "Convolution"
  bottom: "data"
  top: "conv1/7x7_s2"
  param {
    lr_mult: 1
    decay_mult: 1
  }
  param {
    lr_mult: 2
    decay_mult: 0
  }
  convolution_param {
    num_output: 64
    pad: 3
    kernel_size: 7
    stride: 2
    weight_filler {
      type: "xavier"
      std: 0.1
    }
    bias_filler {
      type: "constant"
      value: 0.2
    }
  }
}
layer {
  name: "conv1/relu_7x7"
  type: "ReLU"
  bottom: "conv1/7x7_s2"
  top: "conv1/7x7_s2"
}
layer {
  name: "pool1/3x3_s2"
  type: "Pooling"
  bottom: "conv1/7x7_s2"
  top: "pool1/3x3_s2"
  pooling_param {
    pool: MAX
    kernel_size: 3
    stride: 2
  }
}
layer {
  name: "pool1/norm1"
  type: "LRN"
  bottom: "pool1/3x3_s2"
  top: "pool1/norm1"
  lrn_param {
    local_size: 5
    alpha: 0.0001
    beta: 0.75
  }
}
layer {
  name: "conv2/3x3_reduce"
  type: "Convolution"
  bottom: "pool1/norm1"
  top: "conv2/3x3_reduce"
  param {
    lr_mult: 1
    decay_mult: 1
  }
  param {
    lr_mult: 2
    decay_mult: 0
  }
  convolution_param {
    num_output: 64
    kernel_size: 1
    weight_filler {
      type: "xavier"
      std: 0.1
    }
    bias_filler {
      type: "constant"
      value: 0.2
    }
  }
}
layer {
  name: "conv2/relu_3x3_reduce"
  type: "ReLU"
  bottom: "conv2/3x3_reduce"
  top: "conv2/3x3_reduce"
}
layer {
  name: "conv2/3x3"
  type: "Convolution"
  bottom: "conv2/3x3_reduce"
  top: "conv2/3x3"
  param {
    lr_mult: 1
    decay_mult: 1
  }
  param {
    lr_mult: 2
    decay_mult: 0
  }
  convolution_param {
    num_output: 192
    pad: 1
    kernel_size: 3
    weight_filler {
      type: "xavier"
      std: 0.03
    }
    bias_filler {
      type: "constant"
      value: 0.2
    }
  }
}
layer {
  name: "conv2/relu_3x3"
  type: "ReLU"
  bottom: "conv2/3x3"
  top: "conv2/3x3"
}
layer {
  name: "conv2/norm2"
  type: "LRN"
  bottom: "conv2/3x3"
  top: "conv2/norm2"
  lrn_param {
    local_size: 5
    alpha: 0.0001
    beta: 0.75
  }
}
layer {
  name: "pool2/3x3_s2"
  type: "Pooling"
  bottom: "conv2/norm2"
  top: "pool2/3x3_s2"
  pooling_param {
    pool: MAX
    kernel_size: 3
    stride: 2
  }
}
layer {
  name: "inception_3a/1x1"
  type: "Convolution"
  bottom: "pool2/3x3_s2"
  top: "inception_3a/1x1"
  param {
    lr_mult: 1
    decay_mult: 1
  }
  param {
    lr_mult: 2
    decay_mult: 0
  }
  convolution_param {
    num_output: 64
    kernel_size: 1
    weight_filler {
      type: "xavier"
      std: 0.03
    }
    bias_filler {
      type: "constant"
      value: 0.2
    }
  }
}
layer {
  name: "inception_3a/relu_1x1"
  type: "ReLU"
  bottom: "inception_3a/1x1"
  top: "inception_3a/1x1"
}
layer {
  name: "inception_3a/3x3_reduce"
  type: "Convolution"
  bottom: "pool2/3x3_s2"
  top: "inception_3a/3x3_reduce"
  param {
    lr_mult: 1
    decay_mult: 1
  }
  param {
    lr_mult: 2
    decay_mult: 0
  }
  convolution_param {
    num_output: 96
    kernel_size: 1
    weight_filler {
      type: "xavier"
      std: 0.09
    }
    bias_filler {
      type: "constant"
      value: 0.2
    }
  }
}
layer {
  name: "inception_3a/relu_3x3_reduce"
  type: "ReLU"
  bottom: "inception_3a/3x3_reduce"
  top: "inception_3a/3x3_reduce"
}
layer {
  name: "inception_3a/3x3"
  type: "Convolution"
  bottom: "inception_3a/3x3_reduce"
  top: "inception_3a/3x3"
  param {
    lr_mult: 1
    decay_mult: 1
  }
  param {
    lr_mult: 2
    decay_mult: 0
  }
  convolution_param {
    num_output: 128
    pad: 1
    kernel_size: 3
    weight_filler {
      type: "xavier"
      std: 0.03
    }
    bias_filler {
      type: "constant"
      value: 0.2
    }
  }
}
layer {
  name: "inception_3a/relu_3x3"
  type: "ReLU"
  bottom: "inception_3a/3x3"
  top: "inception_3a/3x3"
}
layer {
  name: "inception_3a/5x5_reduce"
  type: "Convolution"
  bottom: "pool2/3x3_s2"
  top: "inception_3a/5x5_reduce"
  param {
    lr_mult: 1
    decay_mult: 1
  }
  param {
    lr_mult: 2
    decay_mult: 0
  }
  convolution_param {
    num_output: 16
    kernel_size: 1
    weight_filler {
      type: "xavier"
      std: 0.2
    }
    bias_filler {
      type: "constant"
      value: 0.2
    }
  }
}
layer {
  name: "inception_3a/relu_5x5_reduce"
  type: "ReLU"
  bottom: "inception_3a/5x5_reduce"
  top: "inception_3a/5x5_reduce"
}
layer {
  name: "inception_3a/5x5"
  type: "Convolution"
  bottom: "inception_3a/5x5_reduce"
  top: "inception_3a/5x5"
  param {
    lr_mult: 1
    decay_mult: 1
  }
  param {
    lr_mult: 2
    decay_mult: 0
  }
  convolution_param {
    num_output: 32
    pad: 2
    kernel_size: 5
    weight_filler {
      type: "xavier"
      std: 0.03
    }
    bias_filler {
      type: "constant"
      value: 0.2
    }
  }
}
layer {
  name: "inception_3a/relu_5x5"
  type: "ReLU"
  bottom: "inception_3a/5x5"
  top: "inception_3a/5x5"
}
layer {
  name: "inception_3a/pool"
  type: "Pooling"
  bottom: "pool2/3x3_s2"
  top: "inception_3a/pool"
  pooling_param {
    pool: MAX
    kernel_size: 3
    stride: 1
    pad: 1
  }
}
layer {
  name: "inception_3a/pool_proj"
  type: "Convolution"
  bottom: "inception_3a/pool"
  top: "inception_3a/pool_proj"
  param {
    lr_mult: 1
    decay_mult: 1
  }
  param {
    lr_mult: 2
    decay_mult: 0
  }
  convolution_param {
    num_output: 32
    kernel_size: 1
    weight_filler {
      type: "xavier"
      std: 0.1
    }
    bias_filler {
      type: "constant"
      value: 0.2
    }
  }
}
layer {
  name: "inception_3a/relu_pool_proj"
  type: "ReLU"
  bottom: "inception_3a/pool_proj"
  top: "inception_3a/pool_proj"
}
layer {
  name: "inception_3a/output"
  type: "Concat"
  bottom: "inception_3a/1x1"
  bottom: "inception_3a/3x3"
  bottom: "inception_3a/5x5"
  bottom: "inception_3a/pool_proj"
  top: "inception_3a/output"
}
layer {
  name: "inception_3b/1x1"
  type: "Convolution"
  bottom: "inception_3a/output"
  top: "inception_3b/1x1"
  param {
    lr_mult: 1
    decay_mult: 1
  }
  param {
    lr_mult: 2
    decay_mult: 0
  }
  convolution_param {
    num_output: 128
    kernel_size: 1
    weight_filler {
      type: "xavier"
      std: 0.03
    }
    bias_filler {
      type: "constant"
      value: 0.2
    }
  }
}
layer {
  name: "inception_3b/relu_1x1"
  type: "ReLU"
  bottom: "inception_3b/1x1"
  top: "inception_3b/1x1"
}
layer {
  name: "inception_3b/3x3_reduce"
  type: "Convolution"
  bottom: "inception_3a/output"
  top: "inception_3b/3x3_reduce"
  param {
    lr_mult: 1
    decay_mult: 1
  }
  param {
    lr_mult: 2
    decay_mult: 0
  }
  convolution_param {
    num_output: 128
    kernel_size: 1
    weight_filler {
      type: "xavier"
      std: 0.09
    }
    bias_filler {
      type: "constant"
      value: 0.2
    }
  }
}
layer {
  name: "inception_3b/relu_3x3_reduce"
  type: "ReLU"
  bottom: "inception_3b/3x3_reduce"
  top: "inception_3b/3x3_reduce"
}
layer {
  name: "inception_3b/3x3"
  type: "Convolution"
  bottom: "inception_3b/3x3_reduce"
  top: "inception_3b/3x3"
  param {
    lr_mult: 1
    decay_mult: 1
  }
  param {
    lr_mult: 2
    decay_mult: 0
  }
  convolution_param {
    num_output: 192
    pad: 1
    kernel_size: 3
    weight_filler {
      type: "xavier"
      std: 0.03
    }
    bias_filler {
      type: "constant"
      value: 0.2
    }
  }
}
layer {
  name: "inception_3b/relu_3x3"
  type: "ReLU"
  bottom: "inception_3b/3x3"
  top: "inception_3b/3x3"
}
layer {
  name: "inception_3b/5x5_reduce"
  type: "Convolution"
  bottom: "inception_3a/output"
  top: "inception_3b/5x5_reduce"
  param {
    lr_mult: 1
    decay_mult: 1
  }
  param {
    lr_mult: 2
    decay_mult: 0
  }
  convolution_param {
    num_output: 32
    kernel_size: 1
    weight_filler {
      type: "xavier"
      std: 0.2
    }
    bias_filler {
      type: "constant"
      value: 0.2
    }
  }
}
layer {
  name: "inception_3b/relu_5x5_reduce"
  type: "ReLU"
  bottom: "inception_3b/5x5_reduce"
  top: "inception_3b/5x5_reduce"
}
layer {
  name: "inception_3b/5x5"
  type: "Convolution"
  bottom: "inception_3b/5x5_reduce"
  top: "inception_3b/5x5"
  param {
    lr_mult: 1
    decay_mult: 1
  }
  param {
    lr_mult: 2
    decay_mult: 0
  }
  convolution_param {
    num_output: 96
    pad: 2
    kernel_size: 5
    weight_filler {
      type: "xavier"
      std: 0.03
    }
    bias_filler {
      type: "constant"
      value: 0.2
    }
  }
}
layer {
  name: "inception_3b/relu_5x5"
  type: "ReLU"
  bottom: "inception_3b/5x5"
  top: "inception_3b/5x5"
}
layer {
  name: "inception_3b/pool"
  type: "Pooling"
  bottom: "inception_3a/output"
  top: "inception_3b/pool"
  pooling_param {
    pool: MAX
    kernel_size: 3
    stride: 1
    pad: 1
  }
}
layer {
  name: "inception_3b/pool_proj"
  type: "Convolution"
  bottom: "inception_3b/pool"
  top: "inception_3b/pool_proj"
  param {
    lr_mult: 1
    decay_mult: 1
  }
  param {
    lr_mult: 2
    decay_mult: 0
  }
  convolution_param {
    num_output: 64
    kernel_size: 1
    weight_filler {
      type: "xavier"
      std: 0.1
    }
    bias_filler {
      type: "constant"
      value: 0.2
    }
  }
}
layer {
  name: "inception_3b/relu_pool_proj"
  type: "ReLU"
  bottom: "inception_3b/pool_proj"
  top: "inception_3b/pool_proj"
}
layer {
  name: "inception_3b/output"
  type: "Concat"
  bottom: "inception_3b/1x1"
  bottom: "inception_3b/3x3"
  bottom: "inception_3b/5x5"
  bottom: "inception_3b/pool_proj"
  top: "inception_3b/output"
}
layer {
  name: "pool3/3x3_s2"
  type: "Pooling"
  bottom: "inception_3b/output"
  top: "pool3/3x3_s2"
  pooling_param {
    pool: MAX
    kernel_size: 3
    stride: 2
  }
}
layer {
  name: "inception_4a/1x1"
  type: "Convolution"
  bottom: "pool3/3x3_s2"
  top: "inception_4a/1x1"
  param {
    lr_mult: 1
    decay_mult: 1
  }
  param {
    lr_mult: 2
    decay_mult: 0
  }
  convolution_param {
    num_output: 192
    kernel_size: 1
    weight_filler {
      type: "xavier"
      std: 0.03
    }
    bias_filler {
      type: "constant"
      value: 0.2
    }
  }
}
layer {
  name: "inception_4a/relu_1x1"
  type: "ReLU"
  bottom: "inception_4a/1x1"
  top: "inception_4a/1x1"
}
layer {
  name: "inception_4a/3x3_reduce"
  type: "Convolution"
  bottom: "pool3/3x3_s2"
  top: "inception_4a/3x3_reduce"
  param {
    lr_mult: 1
    decay_mult: 1
  }
  param {
    lr_mult: 2
    decay_mult: 0
  }
  convolution_param {
    num_output: 96
    kernel_size: 1
    weight_filler {
      type: "xavier"
      std: 0.09
    }
    bias_filler {
      type: "constant"
      value: 0.2
    }
  }
}
layer {
  name: "inception_4a/relu_3x3_reduce"
  type: "ReLU"
  bottom: "inception_4a/3x3_reduce"
  top: "inception_4a/3x3_reduce"
}
layer {
  name: "inception_4a/3x3"
  type: "Convolution"
  bottom: "inception_4a/3x3_reduce"
  top: "inception_4a/3x3"
  param {
    lr_mult: 1
    decay_mult: 1
  }
  param {
    lr_mult: 2
    decay_mult: 0
  }
  convolution_param {
    num_output: 208
    pad: 1
    kernel_size: 3
    weight_filler {
      type: "xavier"
      std: 0.03
    }
    bias_filler {
      type: "constant"
      value: 0.2
    }
  }
}
layer {
  name: "inception_4a/relu_3x3"
  type: "ReLU"
  bottom: "inception_4a/3x3"
  top: "inception_4a/3x3"
}
layer {
  name: "inception_4a/5x5_reduce"
  type: "Convolution"
  bottom: "pool3/3x3_s2"
  top: "inception_4a/5x5_reduce"
  param {
    lr_mult: 1
    decay_mult: 1
  }
  param {
    lr_mult: 2
    decay_mult: 0
  }
  convolution_param {
    num_output: 16
    kernel_size: 1
    weight_filler {
      type: "xavier"
      std: 0.2
    }
    bias_filler {
      type: "constant"
      value: 0.2
    }
  }
}
layer {
  name: "inception_4a/relu_5x5_reduce"
  type: "ReLU"
  bottom: "inception_4a/5x5_reduce"
  top: "inception_4a/5x5_reduce"
}
layer {
  name: "inception_4a/5x5"
  type: "Convolution"
  bottom: "inception_4a/5x5_reduce"
  top: "inception_4a/5x5"
  param {
    lr_mult: 1
    decay_mult: 1
  }
  param {
    lr_mult: 2
    decay_mult: 0
  }
  convolution_param {
    num_output: 48
    pad: 2
    kernel_size: 5
    weight_filler {
      type: "xavier"
      std: 0.03
    }
    bias_filler {
      type: "constant"
      value: 0.2
    }
  }
}
layer {
  name: "inception_4a/relu_5x5"
  type: "ReLU"
  bottom: "inception_4a/5x5"
  top: "inception_4a/5x5"
}
layer {
  name: "inception_4a/pool"
  type: "Pooling"
  bottom: "pool3/3x3_s2"
  top: "inception_4a/pool"
  pooling_param {
    pool: MAX
    kernel_size: 3
    stride: 1
    pad: 1
  }
}
layer {
  name: "inception_4a/pool_proj"
  type: "Convolution"
  bottom: "inception_4a/pool"
  top: "inception_4a/pool_proj"
  param {
    lr_mult: 1
    decay_mult: 1
  }
  param {
    lr_mult: 2
    decay_mult: 0
  }
  convolution_param {
    num_output: 64
    kernel_size: 1
    weight_filler {
      type: "xavier"
      std: 0.1
    }
    bias_filler {
      type: "constant"
      value: 0.2
    }
  }
}
layer {
  name: "inception_4a/relu_pool_proj"
  type: "ReLU"
  bottom: "inception_4a/pool_proj"
  top: "inception_4a/pool_proj"
}
layer {
  name: "inception_4a/output"
  type: "Concat"
  bottom: "inception_4a/1x1"
  bottom: "inception_4a/3x3"
  bottom: "inception_4a/5x5"
  bottom: "inception_4a/pool_proj"
  top: "inception_4a/output"
}
layer {
  name: "loss1/ave_pool"
  type: "Pooling"
  bottom: "inception_4a/output"
  top: "loss1/ave_pool"
  pooling_param {
    pool: AVE
    kernel_size: 5
    stride: 3
  }
}
layer {
  name: "loss1/conv"
  type: "Convolution"
  bottom: "loss1/ave_pool"
  top: "loss1/conv"
  param {
    lr_mult: 1
    decay_mult: 1
  }
  param {
    lr_mult: 2
    decay_mult: 0
  }
  convolution_param {
    num_output: 128
    kernel_size: 1
    weight_filler {
      type: "xavier"
      std: 0.08
    }
    bias_filler {
      type: "constant"
      value: 0.2
    }
  }
}
layer {
  name: "loss1/relu_conv"
  type: "ReLU"
  bottom: "loss1/conv"
  top: "loss1/conv"
}
layer {
  name: "loss1/fc"
  type: "InnerProduct"
  bottom: "loss1/conv"
  top: "loss1/fc"
  param {
    lr_mult: 1
    decay_mult: 1
  }
  param {
    lr_mult: 2
    decay_mult: 0
  }
  inner_product_param {
    num_output: 1024
    weight_filler {
      type: "xavier"
      std: 0.02
    }
    bias_filler {
      type: "constant"
      value: 0.2
    }
  }
}
layer {
  name: "loss1/relu_fc"
  type: "ReLU"
  bottom: "loss1/fc"
  top: "loss1/fc"
}
layer {
  name: "loss1/drop_fc"
  type: "Dropout"
  bottom: "loss1/fc"
  top: "loss1/fc"
  dropout_param {
    dropout_ratio: 0.7
  }
}
layer {
  name: "loss1/classifier_plantvillage"
  type: "InnerProduct"
  bottom: "loss1/fc"
  top: "loss1/classifier_plantvillage"
  param {
    lr_mult: 1
    decay_mult: 1
  }
  param {
    lr_mult: 2
    decay_mult: 0
  }
  inner_product_param {
    num_output: 38
    weight_filler {
      type: "xavier"
      std: 0.0009765625
    }
    bias_filler {
      type: "constant"
      value: 0
    }
  }
}
layer {
  name: "inception_4b/1x1"
  type: "Convolution"
  bottom: "inception_4a/output"
  top: "inception_4b/1x1"
  param {
    lr_mult: 1
    decay_mult: 1
  }
  param {
    lr_mult: 2
    decay_mult: 0
  }
  convolution_param {
    num_output: 160
    kernel_size: 1
    weight_filler {
      type: "xavier"
      std: 0.03
    }
    bias_filler {
      type: "constant"
      value: 0.2
    }
  }
}
layer {
  name: "inception_4b/relu_1x1"
  type: "ReLU"
  bottom: "inception_4b/1x1"
  top: "inception_4b/1x1"
}
layer {
  name: "inception_4b/3x3_reduce"
  type: "Convolution"
  bottom: "inception_4a/output"
  top: "inception_4b/3x3_reduce"
  param {
    lr_mult: 1
    decay_mult: 1
  }
  param {
    lr_mult: 2
    decay_mult: 0
  }
  convolution_param {
    num_output: 112
    kernel_size: 1
    weight_filler {
      type: "xavier"
      std: 0.09
    }
    bias_filler {
      type: "constant"
      value: 0.2
    }
  }
}
layer {
  name: "inception_4b/relu_3x3_reduce"
  type: "ReLU"
  bottom: "inception_4b/3x3_reduce"
  top: "inception_4b/3x3_reduce"
}
layer {
  name: "inception_4b/3x3"
  type: "Convolution"
  bottom: "inception_4b/3x3_reduce"
  top: "inception_4b/3x3"
  param {
    lr_mult: 1
    decay_mult: 1
  }
  param {
    lr_mult: 2
    decay_mult: 0
  }
  convolution_param {
    num_output: 224
    pad: 1
    kernel_size: 3
    weight_filler {
      type: "xavier"
      std: 0.03
    }
    bias_filler {
      type: "constant"
      value: 0.2
    }
  }
}
layer {
  name: "inception_4b/relu_3x3"
  type: "ReLU"
  bottom: "inception_4b/3x3"
  top: "inception_4b/3x3"
}
layer {
  name: "inception_4b/5x5_reduce"
  type: "Convolution"
  bottom: "inception_4a/output"
  top: "inception_4b/5x5_reduce"
  param {
    lr_mult: 1
    decay_mult: 1
  }
  param {
    lr_mult: 2
    decay_mult: 0
  }
  convolution_param {
    num_output: 24
    kernel_size: 1
    weight_filler {
      type: "xavier"
      std: 0.2
    }
    bias_filler {
      type: "constant"
      value: 0.2
    }
  }
}
layer {
  name: "inception_4b/relu_5x5_reduce"
  type: "ReLU"
  bottom: "inception_4b/5x5_reduce"
  top: "inception_4b/5x5_reduce"
}
layer {
  name: "inception_4b/5x5"
  type: "Convolution"
  bottom: "inception_4b/5x5_reduce"
  top: "inception_4b/5x5"
  param {
    lr_mult: 1
    decay_mult: 1
  }
  param {
    lr_mult: 2
    decay_mult: 0
  }
  convolution_param {
    num_output: 64
    pad: 2
    kernel_size: 5
    weight_filler {
      type: "xavier"
      std: 0.03
    }
    bias_filler {
      type: "constant"
      value: 0.2
    }
  }
}
layer {
  name: "inception_4b/relu_5x5"
  type: "ReLU"
  bottom: "inception_4b/5x5"
  top: "inception_4b/5x5"
}
layer {
  name: "inception_4b/pool"
  type: "Pooling"
  bottom: "inception_4a/output"
  top: "inception_4b/pool"
  pooling_param {
    pool: MAX
    kernel_size: 3
    stride: 1
    pad: 1
  }
}
layer {
  name: "inception_4b/pool_proj"
  type: "Convolution"
  bottom: "inception_4b/pool"
  top: "inception_4b/pool_proj"
  param {
    lr_mult: 1
    decay_mult: 1
  }
  param {
    lr_mult: 2
    decay_mult: 0
  }
  convolution_param {
    num_output: 64
    kernel_size: 1
    weight_filler {
      type: "xavier"
      std: 0.1
    }
    bias_filler {
      type: "constant"
      value: 0.2
    }
  }
}
layer {
  name: "inception_4b/relu_pool_proj"
  type: "ReLU"
  bottom: "inception_4b/pool_proj"
  top: "inception_4b/pool_proj"
}
layer {
  name: "inception_4b/output"
  type: "Concat"
  bottom: "inception_4b/1x1"
  bottom: "inception_4b/3x3"
  bottom: "inception_4b/5x5"
  bottom: "inception_4b/pool_proj"
  top: "inception_4b/output"
}
layer {
  name: "inception_4c/1x1"
  type: "Convolution"
  bottom: "inception_4b/output"
  top: "inception_4c/1x1"
  param {
    lr_mult: 1
    decay_mult: 1
  }
  param {
    lr_mult: 2
    decay_mult: 0
  }
  convolution_param {
    num_output: 128
    kernel_size: 1
    weight_filler {
      type: "xavier"
      std: 0.03
    }
    bias_filler {
      type: "constant"
      value: 0.2
    }
  }
}
layer {
  name: "inception_4c/relu_1x1"
  type: "ReLU"
  bottom: "inception_4c/1x1"
  top: "inception_4c/1x1"
}
layer {
  name: "inception_4c/3x3_reduce"
  type: "Convolution"
  bottom: "inception_4b/output"
  top: "inception_4c/3x3_reduce"
  param {
    lr_mult: 1
    decay_mult: 1
  }
  param {
    lr_mult: 2
    decay_mult: 0
  }
  convolution_param {
    num_output: 128
    kernel_size: 1
    weight_filler {
      type: "xavier"
      std: 0.09
    }
    bias_filler {
      type: "constant"
      value: 0.2
    }
  }
}
layer {
  name: "inception_4c/relu_3x3_reduce"
  type: "ReLU"
  bottom: "inception_4c/3x3_reduce"
  top: "inception_4c/3x3_reduce"
}
layer {
  name: "inception_4c/3x3"
  type: "Convolution"
  bottom: "inception_4c/3x3_reduce"
  top: "inception_4c/3x3"
  param {
    lr_mult: 1
    decay_mult: 1
  }
  param {
    lr_mult: 2
    decay_mult: 0
  }
  convolution_param {
    num_output: 256
    pad: 1
    kernel_size: 3
    weight_filler {
      type: "xavier"
      std: 0.03
    }
    bias_filler {
      type: "constant"
      value: 0.2
    }
  }
}
layer {
  name: "inception_4c/relu_3x3"
  type: "ReLU"
  bottom: "inception_4c/3x3"
  top: "inception_4c/3x3"
}
layer {
  name: "inception_4c/5x5_reduce"
  type: "Convolution"
  bottom: "inception_4b/output"
  top: "inception_4c/5x5_reduce"
  param {
    lr_mult: 1
    decay_mult: 1
  }
  param {
    lr_mult: 2
    decay_mult: 0
  }
  convolution_param {
    num_output: 24
    kernel_size: 1
    weight_filler {
      type: "xavier"
      std: 0.2
    }
    bias_filler {
      type: "constant"
      value: 0.2
    }
  }
}
layer {
  name: "inception_4c/relu_5x5_reduce"
  type: "ReLU"
  bottom: "inception_4c/5x5_reduce"
  top: "inception_4c/5x5_reduce"
}
layer {
  name: "inception_4c/5x5"
  type: "Convolution"
  bottom: "inception_4c/5x5_reduce"
  top: "inception_4c/5x5"
  param {
    lr_mult: 1
    decay_mult: 1
  }
  param {
    lr_mult: 2
    decay_mult: 0
  }
  convolution_param {
    num_output: 64
    pad: 2
    kernel_size: 5
    weight_filler {
      type: "xavier"
      std: 0.03
    }
    bias_filler {
      type: "constant"
      value: 0.2
    }
  }
}
layer {
  name: "inception_4c/relu_5x5"
  type: "ReLU"
  bottom: "inception_4c/5x5"
  top: "inception_4c/5x5"
}
layer {
  name: "inception_4c/pool"
  type: "Pooling"
  bottom: "inception_4b/output"
  top: "inception_4c/pool"
  pooling_param {
    pool: MAX
    kernel_size: 3
    stride: 1
    pad: 1
  }
}
layer {
  name: "inception_4c/pool_proj"
  type: "Convolution"
  bottom: "inception_4c/pool"
  top: "inception_4c/pool_proj"
  param {
    lr_mult: 1
    decay_mult: 1
  }
  param {
    lr_mult: 2
    decay_mult: 0
  }
  convolution_param {
    num_output: 64
    kernel_size: 1
    weight_filler {
      type: "xavier"
      std: 0.1
    }
    bias_filler {
      type: "constant"
      value: 0.2
    }
  }
}
layer {
  name: "inception_4c/relu_pool_proj"
  type: "ReLU"
  bottom: "inception_4c/pool_proj"
  top: "inception_4c/pool_proj"
}
layer {
  name: "inception_4c/output"
  type: "Concat"
  bottom: "inception_4c/1x1"
  bottom: "inception_4c/3x3"
  bottom: "inception_4c/5x5"
  bottom: "inception_4c/pool_proj"
  top: "inception_4c/output"
}
layer {
  name: "inception_4d/1x1"
  type: "Convolution"
  bottom: "inception_4c/output"
  top: "inception_4d/1x1"
  param {
    lr_mult: 1
    decay_mult: 1
  }
  param {
    lr_mult: 2
    decay_mult: 0
  }
  convolution_param {
    num_output: 112
    kernel_size: 1
    weight_filler {
      type: "xavier"
      std: 0.03
    }
    bias_filler {
      type: "constant"
      value: 0.2
    }
  }
}
layer {
  name: "inception_4d/relu_1x1"
  type: "ReLU"
  bottom: "inception_4d/1x1"
  top: "inception_4d/1x1"
}
layer {
  name: "inception_4d/3x3_reduce"
  type: "Convolution"
  bottom: "inception_4c/output"
  top: "inception_4d/3x3_reduce"
  param {
    lr_mult: 1
    decay_mult: 1
  }
  param {
    lr_mult: 2
    decay_mult: 0
  }
  convolution_param {
    num_output: 144
    kernel_size: 1
    weight_filler {
      type: "xavier"
      std: 0.09
    }
    bias_filler {
      type: "constant"
      value: 0.2
    }
  }
}
layer {
  name: "inception_4d/relu_3x3_reduce"
  type: "ReLU"
  bottom: "inception_4d/3x3_reduce"
  top: "inception_4d/3x3_reduce"
}
layer {
  name: "inception_4d/3x3"
  type: "Convolution"
  bottom: "inception_4d/3x3_reduce"
  top: "inception_4d/3x3"
  param {
    lr_mult: 1
    decay_mult: 1
  }
  param {
    lr_mult: 2
    decay_mult: 0
  }
  convolution_param {
    num_output: 288
    pad: 1
    kernel_size: 3
    weight_filler {
      type: "xavier"
      std: 0.03
    }
    bias_filler {
      type: "constant"
      value: 0.2
    }
  }
}
layer {
  name: "inception_4d/relu_3x3"
  type: "ReLU"
  bottom: "inception_4d/3x3"
  top: "inception_4d/3x3"
}
layer {
  name: "inception_4d/5x5_reduce"
  type: "Convolution"
  bottom: "inception_4c/output"
  top: "inception_4d/5x5_reduce"
  param {
    lr_mult: 1
    decay_mult: 1
  }
  param {
    lr_mult: 2
    decay_mult: 0
  }
  convolution_param {
    num_output: 32
    kernel_size: 1
    weight_filler {
      type: "xavier"
      std: 0.2
    }
    bias_filler {
      type: "constant"
      value: 0.2
    }
  }
}
layer {
  name: "inception_4d/relu_5x5_reduce"
  type: "ReLU"
  bottom: "inception_4d/5x5_reduce"
  top: "inception_4d/5x5_reduce"
}
layer {
  name: "inception_4d/5x5"
  type: "Convolution"
  bottom: "inception_4d/5x5_reduce"
  top: "inception_4d/5x5"
  param {
    lr_mult: 1
    decay_mult: 1
  }
  param {
    lr_mult: 2
    decay_mult: 0
  }
  convolution_param {
    num_output: 64
    pad: 2
    kernel_size: 5
    weight_filler {
      type: "xavier"
      std: 0.03
    }
    bias_filler {
      type: "constant"
      value: 0.2
    }
  }
}
layer {
  name: "inception_4d/relu_5x5"
  type: "ReLU"
  bottom: "inception_4d/5x5"
  top: "inception_4d/5x5"
}
layer {
  name: "inception_4d/pool"
  type: "Pooling"
  bottom: "inception_4c/output"
  top: "inception_4d/pool"
  pooling_param {
    pool: MAX
    kernel_size: 3
    stride: 1
    pad: 1
  }
}
layer {
  name: "inception_4d/pool_proj"
  type: "Convolution"
  bottom: "inception_4d/pool"
  top: "inception_4d/pool_proj"
  param {
    lr_mult: 1
    decay_mult: 1
  }
  param {
    lr_mult: 2
    decay_mult: 0
  }
  convolution_param {
    num_output: 64
    kernel_size: 1
    weight_filler {
      type: "xavier"
      std: 0.1
    }
    bias_filler {
      type: "constant"
      value: 0.2
    }
  }
}
layer {
  name: "inception_4d/relu_pool_proj"
  type: "ReLU"
  bottom: "inception_4d/pool_proj"
  top: "inception_4d/pool_proj"
}
layer {
  name: "inception_4d/output"
  type: "Concat"
  bottom: "inception_4d/1x1"
  bottom: "inception_4d/3x3"
  bottom: "inception_4d/5x5"
  bottom: "inception_4d/pool_proj"
  top: "inception_4d/output"
}
layer {
  name: "loss2/ave_pool"
  type: "Pooling"
  bottom: "inception_4d/output"
  top: "loss2/ave_pool"
  pooling_param {
    pool: AVE
    kernel_size: 5
    stride: 3
  }
}
layer {
  name: "loss2/conv"
  type: "Convolution"
  bottom: "loss2/ave_pool"
  top: "loss2/conv"
  param {
    lr_mult: 1
    decay_mult: 1
  }
  param {
    lr_mult: 2
    decay_mult: 0
  }
  convolution_param {
    num_output: 128
    kernel_size: 1
    weight_filler {
      type: "xavier"
      std: 0.08
    }
    bias_filler {
      type: "constant"
      value: 0.2
    }
  }
}
layer {
  name: "loss2/relu_conv"
  type: "ReLU"
  bottom: "loss2/conv"
  top: "loss2/conv"
}
layer {
  name: "loss2/fc"
  type: "InnerProduct"
  bottom: "loss2/conv"
  top: "loss2/fc"
  param {
    lr_mult: 1
    decay_mult: 1
  }
  param {
    lr_mult: 2
    decay_mult: 0
  }
  inner_product_param {
    num_output: 1024
    weight_filler {
      type: "xavier"
      std: 0.02
    }
    bias_filler {
      type: "constant"
      value: 0.2
    }
  }
}
layer {
  name: "loss2/relu_fc"
  type: "ReLU"
  bottom: "loss2/fc"
  top: "loss2/fc"
}
layer {
  name: "loss2/drop_fc"
  type: "Dropout"
  bottom: "loss2/fc"
  top: "loss2/fc"
  dropout_param {
    dropout_ratio: 0.7
  }
}
layer {
  name: "loss2/classifier_plantvillage"
  type: "InnerProduct"
  bottom: "loss2/fc"
  top: "loss2/classifier_plantvillage"
  param {
    lr_mult: 1
    decay_mult: 1
  }
  param {
    lr_mult: 2
    decay_mult: 0
  }
  inner_product_param {
    num_output: 38
    weight_filler {
      type: "xavier"
      std: 0.0009765625
    }
    bias_filler {
      type: "constant"
      value: 0
    }
  }
}
layer {
  name: "inception_4e/1x1"
  type: "Convolution"
  bottom: "inception_4d/output"
  top: "inception_4e/1x1"
  param {
    lr_mult: 1
    decay_mult: 1
  }
  param {
    lr_mult: 2
    decay_mult: 0
  }
  convolution_param {
    num_output: 256
    kernel_size: 1
    weight_filler {
      type: "xavier"
      std: 0.03
    }
    bias_filler {
      type: "constant"
      value: 0.2
    }
  }
}
layer {
  name: "inception_4e/relu_1x1"
  type: "ReLU"
  bottom: "inception_4e/1x1"
  top: "inception_4e/1x1"
}
layer {
  name: "inception_4e/3x3_reduce"
  type: "Convolution"
  bottom: "inception_4d/output"
  top: "inception_4e/3x3_reduce"
  param {
    lr_mult: 1
    decay_mult: 1
  }
  param {
    lr_mult: 2
    decay_mult: 0
  }
  convolution_param {
    num_output: 160
    kernel_size: 1
    weight_filler {
      type: "xavier"
      std: 0.09
    }
    bias_filler {
      type: "constant"
      value: 0.2
    }
  }
}
layer {
  name: "inception_4e/relu_3x3_reduce"
  type: "ReLU"
  bottom: "inception_4e/3x3_reduce"
  top: "inception_4e/3x3_reduce"
}
layer {
  name: "inception_4e/3x3"
  type: "Convolution"
  bottom: "inception_4e/3x3_reduce"
  top: "inception_4e/3x3"
  param {
    lr_mult: 1
    decay_mult: 1
  }
  param {
    lr_mult: 2
    decay_mult: 0
  }
  convolution_param {
    num_output: 320
    pad: 1
    kernel_size: 3
    weight_filler {
      type: "xavier"
      std: 0.03
    }
    bias_filler {
      type: "constant"
      value: 0.2
    }
  }
}
layer {
  name: "inception_4e/relu_3x3"
  type: "ReLU"
  bottom: "inception_4e/3x3"
  top: "inception_4e/3x3"
}
layer {
  name: "inception_4e/5x5_reduce"
  type: "Convolution"
  bottom: "inception_4d/output"
  top: "inception_4e/5x5_reduce"
  param {
    lr_mult: 1
    decay_mult: 1
  }
  param {
    lr_mult: 2
    decay_mult: 0
  }
  convolution_param {
    num_output: 32
    kernel_size: 1
    weight_filler {
      type: "xavier"
      std: 0.2
    }
    bias_filler {
      type: "constant"
      value: 0.2
    }
  }
}
layer {
  name: "inception_4e/relu_5x5_reduce"
  type: "ReLU"
  bottom: "inception_4e/5x5_reduce"
  top: "inception_4e/5x5_reduce"
}
layer {
  name: "inception_4e/5x5"
  type: "Convolution"
  bottom: "inception_4e/5x5_reduce"
  top: "inception_4e/5x5"
  p
I0403 15:05:35.560767 14104 layer_factory.hpp:77] Creating layer data
I0403 15:05:35.561388 14104 net.cpp:91] Creating Layer data
I0403 15:05:35.561421 14104 net.cpp:399] data -> data
I0403 15:05:35.561472 14104 net.cpp:399] data -> label
I0403 15:05:35.561509 14104 data_transformer.cpp:25] Loading mean file from: /home/mohanty/data/final_dataset/lmdb/color-40-60/mean.binaryproto
I0403 15:05:35.564815 14108 db_lmdb.cpp:38] Opened lmdb /home/mohanty/data/final_dataset/lmdb/color-40-60/test_db
I0403 15:05:35.574834 14104 data_layer.cpp:41] output data size: 24,3,224,224
I0403 15:05:35.601080 14104 net.cpp:141] Setting up data
I0403 15:05:35.601150 14104 net.cpp:148] Top shape: 24 3 224 224 (3612672)
I0403 15:05:35.601171 14104 net.cpp:148] Top shape: 24 (24)
I0403 15:05:35.601186 14104 net.cpp:156] Memory required for data: 14450784
I0403 15:05:35.601213 14104 layer_factory.hpp:77] Creating layer label_data_1_split
I0403 15:05:35.601238 14104 net.cpp:91] Creating Layer label_data_1_split
I0403 15:05:35.601255 14104 net.cpp:425] label_data_1_split <- label
I0403 15:05:35.601286 14104 net.cpp:399] label_data_1_split -> label_data_1_split_0
I0403 15:05:35.601315 14104 net.cpp:399] label_data_1_split -> label_data_1_split_1
I0403 15:05:35.601336 14104 net.cpp:399] label_data_1_split -> label_data_1_split_2
I0403 15:05:35.601357 14104 net.cpp:399] label_data_1_split -> label_data_1_split_3
I0403 15:05:35.601377 14104 net.cpp:399] label_data_1_split -> label_data_1_split_4
I0403 15:05:35.601397 14104 net.cpp:399] label_data_1_split -> label_data_1_split_5
I0403 15:05:35.601416 14104 net.cpp:399] label_data_1_split -> label_data_1_split_6
I0403 15:05:35.601436 14104 net.cpp:399] label_data_1_split -> label_data_1_split_7
I0403 15:05:35.601456 14104 net.cpp:399] label_data_1_split -> label_data_1_split_8
I0403 15:05:35.601476 14104 net.cpp:399] label_data_1_split -> label_data_1_split_9
I0403 15:05:35.601594 14104 net.cpp:141] Setting up label_data_1_split
I0403 15:05:35.601622 14104 net.cpp:148] Top shape: 24 (24)
I0403 15:05:35.601639 14104 net.cpp:148] Top shape: 24 (24)
I0403 15:05:35.601655 14104 net.cpp:148] Top shape: 24 (24)
I0403 15:05:35.601670 14104 net.cpp:148] Top shape: 24 (24)
I0403 15:05:35.601683 14104 net.cpp:148] Top shape: 24 (24)
I0403 15:05:35.601698 14104 net.cpp:148] Top shape: 24 (24)
I0403 15:05:35.601713 14104 net.cpp:148] Top shape: 24 (24)
I0403 15:05:35.601728 14104 net.cpp:148] Top shape: 24 (24)
I0403 15:05:35.601742 14104 net.cpp:148] Top shape: 24 (24)
I0403 15:05:35.601758 14104 net.cpp:148] Top shape: 24 (24)
I0403 15:05:35.601805 14104 net.cpp:156] Memory required for data: 14451744
I0403 15:05:35.601821 14104 layer_factory.hpp:77] Creating layer conv1/7x7_s2
I0403 15:05:35.601851 14104 net.cpp:91] Creating Layer conv1/7x7_s2
I0403 15:05:35.601869 14104 net.cpp:425] conv1/7x7_s2 <- data
I0403 15:05:35.601887 14104 net.cpp:399] conv1/7x7_s2 -> conv1/7x7_s2
I0403 15:05:35.744799 14104 net.cpp:141] Setting up conv1/7x7_s2
I0403 15:05:35.744861 14104 net.cpp:148] Top shape: 24 64 112 112 (19267584)
I0403 15:05:35.744879 14104 net.cpp:156] Memory required for data: 91522080
I0403 15:05:35.744906 14104 layer_factory.hpp:77] Creating layer conv1/relu_7x7
I0403 15:05:35.744935 14104 net.cpp:91] Creating Layer conv1/relu_7x7
I0403 15:05:35.744953 14104 net.cpp:425] conv1/relu_7x7 <- conv1/7x7_s2
I0403 15:05:35.744972 14104 net.cpp:386] conv1/relu_7x7 -> conv1/7x7_s2 (in-place)
I0403 15:05:35.745252 14104 net.cpp:141] Setting up conv1/relu_7x7
I0403 15:05:35.745280 14104 net.cpp:148] Top shape: 24 64 112 112 (19267584)
I0403 15:05:35.745295 14104 net.cpp:156] Memory required for data: 168592416
I0403 15:05:35.745308 14104 layer_factory.hpp:77] Creating layer pool1/3x3_s2
I0403 15:05:35.745334 14104 net.cpp:91] Creating Layer pool1/3x3_s2
I0403 15:05:35.745352 14104 net.cpp:425] pool1/3x3_s2 <- conv1/7x7_s2
I0403 15:05:35.745369 14104 net.cpp:399] pool1/3x3_s2 -> pool1/3x3_s2
I0403 15:05:35.745446 14104 net.cpp:141] Setting up pool1/3x3_s2
I0403 15:05:35.745471 14104 net.cpp:148] Top shape: 24 64 56 56 (4816896)
I0403 15:05:35.745484 14104 net.cpp:156] Memory required for data: 187860000
I0403 15:05:35.745498 14104 layer_factory.hpp:77] Creating layer pool1/norm1
I0403 15:05:35.745522 14104 net.cpp:91] Creating Layer pool1/norm1
I0403 15:05:35.745543 14104 net.cpp:425] pool1/norm1 <- pool1/3x3_s2
I0403 15:05:35.745558 14104 net.cpp:399] pool1/norm1 -> pool1/norm1
I0403 15:05:35.745868 14104 net.cpp:141] Setting up pool1/norm1
I0403 15:05:35.745894 14104 net.cpp:148] Top shape: 24 64 56 56 (4816896)
I0403 15:05:35.745909 14104 net.cpp:156] Memory required for data: 207127584
I0403 15:05:35.745923 14104 layer_factory.hpp:77] Creating layer conv2/3x3_reduce
I0403 15:05:35.745951 14104 net.cpp:91] Creating Layer conv2/3x3_reduce
I0403 15:05:35.745968 14104 net.cpp:425] conv2/3x3_reduce <- pool1/norm1
I0403 15:05:35.745986 14104 net.cpp:399] conv2/3x3_reduce -> conv2/3x3_reduce
I0403 15:05:35.747433 14104 net.cpp:141] Setting up conv2/3x3_reduce
I0403 15:05:35.747462 14104 net.cpp:148] Top shape: 24 64 56 56 (4816896)
I0403 15:05:35.747478 14104 net.cpp:156] Memory required for data: 226395168
I0403 15:05:35.747498 14104 layer_factory.hpp:77] Creating layer conv2/relu_3x3_reduce
I0403 15:05:35.747516 14104 net.cpp:91] Creating Layer conv2/relu_3x3_reduce
I0403 15:05:35.747537 14104 net.cpp:425] conv2/relu_3x3_reduce <- conv2/3x3_reduce
I0403 15:05:35.747555 14104 net.cpp:386] conv2/relu_3x3_reduce -> conv2/3x3_reduce (in-place)
I0403 15:05:35.747855 14104 net.cpp:141] Setting up conv2/relu_3x3_reduce
I0403 15:05:35.747881 14104 net.cpp:148] Top shape: 24 64 56 56 (4816896)
I0403 15:05:35.747896 14104 net.cpp:156] Memory required for data: 245662752
I0403 15:05:35.747910 14104 layer_factory.hpp:77] Creating layer conv2/3x3
I0403 15:05:35.747933 14104 net.cpp:91] Creating Layer conv2/3x3
I0403 15:05:35.747951 14104 net.cpp:425] conv2/3x3 <- conv2/3x3_reduce
I0403 15:05:35.747972 14104 net.cpp:399] conv2/3x3 -> conv2/3x3
I0403 15:05:35.750309 14104 net.cpp:141] Setting up conv2/3x3
I0403 15:05:35.750339 14104 net.cpp:148] Top shape: 24 192 56 56 (14450688)
I0403 15:05:35.750355 14104 net.cpp:156] Memory required for data: 303465504
I0403 15:05:35.750375 14104 layer_factory.hpp:77] Creating layer conv2/relu_3x3
I0403 15:05:35.750396 14104 net.cpp:91] Creating Layer conv2/relu_3x3
I0403 15:05:35.750412 14104 net.cpp:425] conv2/relu_3x3 <- conv2/3x3
I0403 15:05:35.750428 14104 net.cpp:386] conv2/relu_3x3 -> conv2/3x3 (in-place)
I0403 15:05:35.750614 14104 net.cpp:141] Setting up conv2/relu_3x3
I0403 15:05:35.750639 14104 net.cpp:148] Top shape: 24 192 56 56 (14450688)
I0403 15:05:35.750684 14104 net.cpp:156] Memory required for data: 361268256
I0403 15:05:35.750699 14104 layer_factory.hpp:77] Creating layer conv2/norm2
I0403 15:05:35.750718 14104 net.cpp:91] Creating Layer conv2/norm2
I0403 15:05:35.750735 14104 net.cpp:425] conv2/norm2 <- conv2/3x3
I0403 15:05:35.750753 14104 net.cpp:399] conv2/norm2 -> conv2/norm2
I0403 15:05:35.751118 14104 net.cpp:141] Setting up conv2/norm2
I0403 15:05:35.751148 14104 net.cpp:148] Top shape: 24 192 56 56 (14450688)
I0403 15:05:35.751163 14104 net.cpp:156] Memory required for data: 419071008
I0403 15:05:35.751178 14104 layer_factory.hpp:77] Creating layer pool2/3x3_s2
I0403 15:05:35.751195 14104 net.cpp:91] Creating Layer pool2/3x3_s2
I0403 15:05:35.751210 14104 net.cpp:425] pool2/3x3_s2 <- conv2/norm2
I0403 15:05:35.751230 14104 net.cpp:399] pool2/3x3_s2 -> pool2/3x3_s2
I0403 15:05:35.751282 14104 net.cpp:141] Setting up pool2/3x3_s2
I0403 15:05:35.751307 14104 net.cpp:148] Top shape: 24 192 28 28 (3612672)
I0403 15:05:35.751322 14104 net.cpp:156] Memory required for data: 433521696
I0403 15:05:35.751337 14104 layer_factory.hpp:77] Creating layer pool2/3x3_s2_pool2/3x3_s2_0_split
I0403 15:05:35.751353 14104 net.cpp:91] Creating Layer pool2/3x3_s2_pool2/3x3_s2_0_split
I0403 15:05:35.751368 14104 net.cpp:425] pool2/3x3_s2_pool2/3x3_s2_0_split <- pool2/3x3_s2
I0403 15:05:35.751384 14104 net.cpp:399] pool2/3x3_s2_pool2/3x3_s2_0_split -> pool2/3x3_s2_pool2/3x3_s2_0_split_0
I0403 15:05:35.751402 14104 net.cpp:399] pool2/3x3_s2_pool2/3x3_s2_0_split -> pool2/3x3_s2_pool2/3x3_s2_0_split_1
I0403 15:05:35.751422 14104 net.cpp:399] pool2/3x3_s2_pool2/3x3_s2_0_split -> pool2/3x3_s2_pool2/3x3_s2_0_split_2
I0403 15:05:35.751443 14104 net.cpp:399] pool2/3x3_s2_pool2/3x3_s2_0_split -> pool2/3x3_s2_pool2/3x3_s2_0_split_3
I0403 15:05:35.751516 14104 net.cpp:141] Setting up pool2/3x3_s2_pool2/3x3_s2_0_split
I0403 15:05:35.751539 14104 net.cpp:148] Top shape: 24 192 28 28 (3612672)
I0403 15:05:35.751554 14104 net.cpp:148] Top shape: 24 192 28 28 (3612672)
I0403 15:05:35.751569 14104 net.cpp:148] Top shape: 24 192 28 28 (3612672)
I0403 15:05:35.751590 14104 net.cpp:148] Top shape: 24 192 28 28 (3612672)
I0403 15:05:35.751607 14104 net.cpp:156] Memory required for data: 491324448
I0403 15:05:35.751622 14104 layer_factory.hpp:77] Creating layer inception_3a/1x1
I0403 15:05:35.751646 14104 net.cpp:91] Creating Layer inception_3a/1x1
I0403 15:05:35.751662 14104 net.cpp:425] inception_3a/1x1 <- pool2/3x3_s2_pool2/3x3_s2_0_split_0
I0403 15:05:35.751682 14104 net.cpp:399] inception_3a/1x1 -> inception_3a/1x1
I0403 15:05:35.753247 14104 net.cpp:141] Setting up inception_3a/1x1
I0403 15:05:35.753275 14104 net.cpp:148] Top shape: 24 64 28 28 (1204224)
I0403 15:05:35.753290 14104 net.cpp:156] Memory required for data: 496141344
I0403 15:05:35.753309 14104 layer_factory.hpp:77] Creating layer inception_3a/relu_1x1
I0403 15:05:35.753325 14104 net.cpp:91] Creating Layer inception_3a/relu_1x1
I0403 15:05:35.753340 14104 net.cpp:425] inception_3a/relu_1x1 <- inception_3a/1x1
I0403 15:05:35.753358 14104 net.cpp:386] inception_3a/relu_1x1 -> inception_3a/1x1 (in-place)
I0403 15:05:35.753530 14104 net.cpp:141] Setting up inception_3a/relu_1x1
I0403 15:05:35.753556 14104 net.cpp:148] Top shape: 24 64 28 28 (1204224)
I0403 15:05:35.753569 14104 net.cpp:156] Memory required for data: 500958240
I0403 15:05:35.753583 14104 layer_factory.hpp:77] Creating layer inception_3a/3x3_reduce
I0403 15:05:35.753607 14104 net.cpp:91] Creating Layer inception_3a/3x3_reduce
I0403 15:05:35.753625 14104 net.cpp:425] inception_3a/3x3_reduce <- pool2/3x3_s2_pool2/3x3_s2_0_split_1
I0403 15:05:35.753644 14104 net.cpp:399] inception_3a/3x3_reduce -> inception_3a/3x3_reduce
I0403 15:05:35.755295 14104 net.cpp:141] Setting up inception_3a/3x3_reduce
I0403 15:05:35.755323 14104 net.cpp:148] Top shape: 24 96 28 28 (1806336)
I0403 15:05:35.755339 14104 net.cpp:156] Memory required for data: 508183584
I0403 15:05:35.755358 14104 layer_factory.hpp:77] Creating layer inception_3a/relu_3x3_reduce
I0403 15:05:35.755398 14104 net.cpp:91] Creating Layer inception_3a/relu_3x3_reduce
I0403 15:05:35.755414 14104 net.cpp:425] inception_3a/relu_3x3_reduce <- inception_3a/3x3_reduce
I0403 15:05:35.755430 14104 net.cpp:386] inception_3a/relu_3x3_reduce -> inception_3a/3x3_reduce (in-place)
I0403 15:05:35.755625 14104 net.cpp:141] Setting up inception_3a/relu_3x3_reduce
I0403 15:05:35.755651 14104 net.cpp:148] Top shape: 24 96 28 28 (1806336)
I0403 15:05:35.755666 14104 net.cpp:156] Memory required for data: 515408928
I0403 15:05:35.755681 14104 layer_factory.hpp:77] Creating layer inception_3a/3x3
I0403 15:05:35.755703 14104 net.cpp:91] Creating Layer inception_3a/3x3
I0403 15:05:35.755719 14104 net.cpp:425] inception_3a/3x3 <- inception_3a/3x3_reduce
I0403 15:05:35.755738 14104 net.cpp:399] inception_3a/3x3 -> inception_3a/3x3
I0403 15:05:35.757354 14104 net.cpp:141] Setting up inception_3a/3x3
I0403 15:05:35.757380 14104 net.cpp:148] Top shape: 24 128 28 28 (2408448)
I0403 15:05:35.757395 14104 net.cpp:156] Memory required for data: 525042720
I0403 15:05:35.757411 14104 layer_factory.hpp:77] Creating layer inception_3a/relu_3x3
I0403 15:05:35.757431 14104 net.cpp:91] Creating Layer inception_3a/relu_3x3
I0403 15:05:35.757447 14104 net.cpp:425] inception_3a/relu_3x3 <- inception_3a/3x3
I0403 15:05:35.757462 14104 net.cpp:386] inception_3a/relu_3x3 -> inception_3a/3x3 (in-place)
I0403 15:05:35.757735 14104 net.cpp:141] Setting up inception_3a/relu_3x3
I0403 15:05:35.757761 14104 net.cpp:148] Top shape: 24 128 28 28 (2408448)
I0403 15:05:35.757776 14104 net.cpp:156] Memory required for data: 534676512
I0403 15:05:35.757788 14104 layer_factory.hpp:77] Creating layer inception_3a/5x5_reduce
I0403 15:05:35.757810 14104 net.cpp:91] Creating Layer inception_3a/5x5_reduce
I0403 15:05:35.757827 14104 net.cpp:425] inception_3a/5x5_reduce <- pool2/3x3_s2_pool2/3x3_s2_0_split_2
I0403 15:05:35.757846 14104 net.cpp:399] inception_3a/5x5_reduce -> inception_3a/5x5_reduce
I0403 15:05:35.758795 14104 net.cpp:141] Setting up inception_3a/5x5_reduce
I0403 15:05:35.758822 14104 net.cpp:148] Top shape: 24 16 28 28 (301056)
I0403 15:05:35.758836 14104 net.cpp:156] Memory required for data: 535880736
I0403 15:05:35.758853 14104 layer_factory.hpp:77] Creating layer inception_3a/relu_5x5_reduce
I0403 15:05:35.758874 14104 net.cpp:91] Creating Layer inception_3a/relu_5x5_reduce
I0403 15:05:35.758891 14104 net.cpp:425] inception_3a/relu_5x5_reduce <- inception_3a/5x5_reduce
I0403 15:05:35.758908 14104 net.cpp:386] inception_3a/relu_5x5_reduce -> inception_3a/5x5_reduce (in-place)
I0403 15:05:35.759201 14104 net.cpp:141] Setting up inception_3a/relu_5x5_reduce
I0403 15:05:35.759225 14104 net.cpp:148] Top shape: 24 16 28 28 (301056)
I0403 15:05:35.759239 14104 net.cpp:156] Memory required for data: 537084960
I0403 15:05:35.759253 14104 layer_factory.hpp:77] Creating layer inception_3a/5x5
I0403 15:05:35.759275 14104 net.cpp:91] Creating Layer inception_3a/5x5
I0403 15:05:35.759291 14104 net.cpp:425] inception_3a/5x5 <- inception_3a/5x5_reduce
I0403 15:05:35.759310 14104 net.cpp:399] inception_3a/5x5 -> inception_3a/5x5
I0403 15:05:35.760314 14104 net.cpp:141] Setting up inception_3a/5x5
I0403 15:05:35.760341 14104 net.cpp:148] Top shape: 24 32 28 28 (602112)
I0403 15:05:35.760355 14104 net.cpp:156] Memory required for data: 539493408
I0403 15:05:35.760372 14104 layer_factory.hpp:77] Creating layer inception_3a/relu_5x5
I0403 15:05:35.760388 14104 net.cpp:91] Creating Layer inception_3a/relu_5x5
I0403 15:05:35.760403 14104 net.cpp:425] inception_3a/relu_5x5 <- inception_3a/5x5
I0403 15:05:35.760421 14104 net.cpp:386] inception_3a/relu_5x5 -> inception_3a/5x5 (in-place)
I0403 15:05:35.760591 14104 net.cpp:141] Setting up inception_3a/relu_5x5
I0403 15:05:35.760619 14104 net.cpp:148] Top shape: 24 32 28 28 (602112)
I0403 15:05:35.760633 14104 net.cpp:156] Memory required for data: 541901856
I0403 15:05:35.760646 14104 layer_factory.hpp:77] Creating layer inception_3a/pool
I0403 15:05:35.760665 14104 net.cpp:91] Creating Layer inception_3a/pool
I0403 15:05:35.760681 14104 net.cpp:425] inception_3a/pool <- pool2/3x3_s2_pool2/3x3_s2_0_split_3
I0403 15:05:35.760712 14104 net.cpp:399] inception_3a/pool -> inception_3a/pool
I0403 15:05:35.760771 14104 net.cpp:141] Setting up inception_3a/pool
I0403 15:05:35.760792 14104 net.cpp:148] Top shape: 24 192 28 28 (3612672)
I0403 15:05:35.760807 14104 net.cpp:156] Memory required for data: 556352544
I0403 15:05:35.760820 14104 layer_factory.hpp:77] Creating layer inception_3a/pool_proj
I0403 15:05:35.760841 14104 net.cpp:91] Creating Layer inception_3a/pool_proj
I0403 15:05:35.760857 14104 net.cpp:425] inception_3a/pool_proj <- inception_3a/pool
I0403 15:05:35.760877 14104 net.cpp:399] inception_3a/pool_proj -> inception_3a/pool_proj
I0403 15:05:35.761831 14104 net.cpp:141] Setting up inception_3a/pool_proj
I0403 15:05:35.761862 14104 net.cpp:148] Top shape: 24 32 28 28 (602112)
I0403 15:05:35.761876 14104 net.cpp:156] Memory required for data: 558760992
I0403 15:05:35.761896 14104 layer_factory.hpp:77] Creating layer inception_3a/relu_pool_proj
I0403 15:05:35.761919 14104 net.cpp:91] Creating Layer inception_3a/relu_pool_proj
I0403 15:05:35.761934 14104 net.cpp:425] inception_3a/relu_pool_proj <- inception_3a/pool_proj
I0403 15:05:35.761950 14104 net.cpp:386] inception_3a/relu_pool_proj -> inception_3a/pool_proj (in-place)
I0403 15:05:35.762220 14104 net.cpp:141] Setting up inception_3a/relu_pool_proj
I0403 15:05:35.762245 14104 net.cpp:148] Top shape: 24 32 28 28 (602112)
I0403 15:05:35.762259 14104 net.cpp:156] Memory required for data: 561169440
I0403 15:05:35.762274 14104 layer_factory.hpp:77] Creating layer inception_3a/output
I0403 15:05:35.762290 14104 net.cpp:91] Creating Layer inception_3a/output
I0403 15:05:35.762305 14104 net.cpp:425] inception_3a/output <- inception_3a/1x1
I0403 15:05:35.762320 14104 net.cpp:425] inception_3a/output <- inception_3a/3x3
I0403 15:05:35.762333 14104 net.cpp:425] inception_3a/output <- inception_3a/5x5
I0403 15:05:35.762348 14104 net.cpp:425] inception_3a/output <- inception_3a/pool_proj
I0403 15:05:35.762367 14104 net.cpp:399] inception_3a/output -> inception_3a/output
I0403 15:05:35.762413 14104 net.cpp:141] Setting up inception_3a/output
I0403 15:05:35.762434 14104 net.cpp:148] Top shape: 24 256 28 28 (4816896)
I0403 15:05:35.762449 14104 net.cpp:156] Memory required for data: 580437024
I0403 15:05:35.762461 14104 layer_factory.hpp:77] Creating layer inception_3a/output_inception_3a/output_0_split
I0403 15:05:35.762477 14104 net.cpp:91] Creating Layer inception_3a/output_inception_3a/output_0_split
I0403 15:05:35.762492 14104 net.cpp:425] inception_3a/output_inception_3a/output_0_split <- inception_3a/output
I0403 15:05:35.762511 14104 net.cpp:399] inception_3a/output_inception_3a/output_0_split -> inception_3a/output_inception_3a/output_0_split_0
I0403 15:05:35.762531 14104 net.cpp:399] inception_3a/output_inception_3a/output_0_split -> inception_3a/output_inception_3a/output_0_split_1
I0403 15:05:35.762552 14104 net.cpp:399] inception_3a/output_inception_3a/output_0_split -> inception_3a/output_inception_3a/output_0_split_2
I0403 15:05:35.762572 14104 net.cpp:399] inception_3a/output_inception_3a/output_0_split -> inception_3a/output_inception_3a/output_0_split_3
I0403 15:05:35.762650 14104 net.cpp:141] Setting up inception_3a/output_inception_3a/output_0_split
I0403 15:05:35.762671 14104 net.cpp:148] Top shape: 24 256 28 28 (4816896)
I0403 15:05:35.762686 14104 net.cpp:148] Top shape: 24 256 28 28 (4816896)
I0403 15:05:35.762701 14104 net.cpp:148] Top shape: 24 256 28 28 (4816896)
I0403 15:05:35.762714 14104 net.cpp:148] Top shape: 24 256 28 28 (4816896)
I0403 15:05:35.762727 14104 net.cpp:156] Memory required for data: 657507360
I0403 15:05:35.762740 14104 layer_factory.hpp:77] Creating layer inception_3b/1x1
I0403 15:05:35.762760 14104 net.cpp:91] Creating Layer inception_3b/1x1
I0403 15:05:35.762776 14104 net.cpp:425] inception_3b/1x1 <- inception_3a/output_inception_3a/output_0_split_0
I0403 15:05:35.762795 14104 net.cpp:399] inception_3b/1x1 -> inception_3b/1x1
I0403 15:05:35.763909 14104 net.cpp:141] Setting up inception_3b/1x1
I0403 15:05:35.763949 14104 net.cpp:148] Top shape: 24 128 28 28 (2408448)
I0403 15:05:35.763965 14104 net.cpp:156] Memory required for data: 667141152
I0403 15:05:35.763983 14104 layer_factory.hpp:77] Creating layer inception_3b/relu_1x1
I0403 15:05:35.763999 14104 net.cpp:91] Creating Layer inception_3b/relu_1x1
I0403 15:05:35.764015 14104 net.cpp:425] inception_3b/relu_1x1 <- inception_3b/1x1
I0403 15:05:35.764035 14104 net.cpp:386] inception_3b/relu_1x1 -> inception_3b/1x1 (in-place)
I0403 15:05:35.764210 14104 net.cpp:141] Setting up inception_3b/relu_1x1
I0403 15:05:35.764235 14104 net.cpp:148] Top shape: 24 128 28 28 (2408448)
I0403 15:05:35.764247 14104 net.cpp:156] Memory required for data: 676774944
I0403 15:05:35.764261 14104 layer_factory.hpp:77] Creating layer inception_3b/3x3_reduce
I0403 15:05:35.764282 14104 net.cpp:91] Creating Layer inception_3b/3x3_reduce
I0403 15:05:35.764298 14104 net.cpp:425] inception_3b/3x3_reduce <- inception_3a/output_inception_3a/output_0_split_1
I0403 15:05:35.764318 14104 net.cpp:399] inception_3b/3x3_reduce -> inception_3b/3x3_reduce
I0403 15:05:35.765488 14104 net.cpp:141] Setting up inception_3b/3x3_reduce
I0403 15:05:35.765516 14104 net.cpp:148] Top shape: 24 128 28 28 (2408448)
I0403 15:05:35.765532 14104 net.cpp:156] Memory required for data: 686408736
I0403 15:05:35.765549 14104 layer_factory.hpp:77] Creating layer inception_3b/relu_3x3_reduce
I0403 15:05:35.765566 14104 net.cpp:91] Creating Layer inception_3b/relu_3x3_reduce
I0403 15:05:35.765581 14104 net.cpp:425] inception_3b/relu_3x3_reduce <- inception_3b/3x3_reduce
I0403 15:05:35.765602 14104 net.cpp:386] inception_3b/relu_3x3_reduce -> inception_3b/3x3_reduce (in-place)
I0403 15:05:35.765779 14104 net.cpp:141] Setting up inception_3b/relu_3x3_reduce
I0403 15:05:35.765805 14104 net.cpp:148] Top shape: 24 128 28 28 (2408448)
I0403 15:05:35.765818 14104 net.cpp:156] Memory required for data: 696042528
I0403 15:05:35.765832 14104 layer_factory.hpp:77] Creating layer inception_3b/3x3
I0403 15:05:35.765857 14104 net.cpp:91] Creating Layer inception_3b/3x3
I0403 15:05:35.765875 14104 net.cpp:425] inception_3b/3x3 <- inception_3b/3x3_reduce
I0403 15:05:35.765893 14104 net.cpp:399] inception_3b/3x3 -> inception_3b/3x3
I0403 15:05:35.768807 14104 net.cpp:141] Setting up inception_3b/3x3
I0403 15:05:35.768836 14104 net.cpp:148] Top shape: 24 192 28 28 (3612672)
I0403 15:05:35.768851 14104 net.cpp:156] Memory required for data: 710493216
I0403 15:05:35.768869 14104 layer_factory.hpp:77] Creating layer inception_3b/relu_3x3
I0403 15:05:35.768889 14104 net.cpp:91] Creating Layer inception_3b/relu_3x3
I0403 15:05:35.768905 14104 net.cpp:425] inception_3b/relu_3x3 <- inception_3b/3x3
I0403 15:05:35.768921 14104 net.cpp:386] inception_3b/relu_3x3 -> inception_3b/3x3 (in-place)
I0403 15:05:35.769207 14104 net.cpp:141] Setting up inception_3b/relu_3x3
I0403 15:05:35.769232 14104 net.cpp:148] Top shape: 24 192 28 28 (3612672)
I0403 15:05:35.769248 14104 net.cpp:156] Memory required for data: 724943904
I0403 15:05:35.769261 14104 layer_factory.hpp:77] Creating layer inception_3b/5x5_reduce
I0403 15:05:35.769284 14104 net.cpp:91] Creating Layer inception_3b/5x5_reduce
I0403 15:05:35.769302 14104 net.cpp:425] inception_3b/5x5_reduce <- inception_3a/output_inception_3a/output_0_split_2
I0403 15:05:35.769322 14104 net.cpp:399] inception_3b/5x5_reduce -> inception_3b/5x5_reduce
I0403 15:05:35.770328 14104 net.cpp:141] Setting up inception_3b/5x5_reduce
I0403 15:05:35.770354 14104 net.cpp:148] Top shape: 24 32 28 28 (602112)
I0403 15:05:35.770370 14104 net.cpp:156] Memory required for data: 727352352
I0403 15:05:35.770386 14104 layer_factory.hpp:77] Creating layer inception_3b/relu_5x5_reduce
I0403 15:05:35.770403 14104 net.cpp:91] Creating Layer inception_3b/relu_5x5_reduce
I0403 15:05:35.770419 14104 net.cpp:425] inception_3b/relu_5x5_reduce <- inception_3b/5x5_reduce
I0403 15:05:35.770438 14104 net.cpp:386] inception_3b/relu_5x5_reduce -> inception_3b/5x5_reduce (in-place)
I0403 15:05:35.770623 14104 net.cpp:141] Setting up inception_3b/relu_5x5_reduce
I0403 15:05:35.770659 14104 net.cpp:148] Top shape: 24 32 28 28 (602112)
I0403 15:05:35.770674 14104 net.cpp:156] Memory required for data: 729760800
I0403 15:05:35.770689 14104 layer_factory.hpp:77] Creating layer inception_3b/5x5
I0403 15:05:35.770710 14104 net.cpp:91] Creating Layer inception_3b/5x5
I0403 15:05:35.770728 14104 net.cpp:425] inception_3b/5x5 <- inception_3b/5x5_reduce
I0403 15:05:35.770748 14104 net.cpp:399] inception_3b/5x5 -> inception_3b/5x5
I0403 15:05:35.772718 14104 net.cpp:141] Setting up inception_3b/5x5
I0403 15:05:35.772747 14104 net.cpp:148] Top shape: 24 96 28 28 (1806336)
I0403 15:05:35.772763 14104 net.cpp:156] Memory required for data: 736986144
I0403 15:05:35.772780 14104 layer_factory.hpp:77] Creating layer inception_3b/relu_5x5
I0403 15:05:35.772797 14104 net.cpp:91] Creating Layer inception_3b/relu_5x5
I0403 15:05:35.772814 14104 net.cpp:425] inception_3b/relu_5x5 <- inception_3b/5x5
I0403 15:05:35.772835 14104 net.cpp:386] inception_3b/relu_5x5 -> inception_3b/5x5 (in-place)
I0403 15:05:35.773030 14104 net.cpp:141] Setting up inception_3b/relu_5x5
I0403 15:05:35.773054 14104 net.cpp:148] Top shape: 24 96 28 28 (1806336)
I0403 15:05:35.773067 14104 net.cpp:156] Memory required for data: 744211488
I0403 15:05:35.773082 14104 layer_factory.hpp:77] Creating layer inception_3b/pool
I0403 15:05:35.773098 14104 net.cpp:91] Creating Layer inception_3b/pool
I0403 15:05:35.773114 14104 net.cpp:425] inception_3b/pool <- inception_3a/output_inception_3a/output_0_split_3
I0403 15:05:35.773131 14104 net.cpp:399] inception_3b/pool -> inception_3b/pool
I0403 15:05:35.773188 14104 net.cpp:141] Setting up inception_3b/pool
I0403 15:05:35.773211 14104 net.cpp:148] Top shape: 24 256 28 28 (4816896)
I0403 15:05:35.773226 14104 net.cpp:156] Memory required for data: 763479072
I0403 15:05:35.773238 14104 layer_factory.hpp:77] Creating layer inception_3b/pool_proj
I0403 15:05:35.773260 14104 net.cpp:91] Creating Layer inception_3b/pool_proj
I0403 15:05:35.773277 14104 net.cpp:425] inception_3b/pool_proj <- inception_3b/pool
I0403 15:05:35.773296 14104 net.cpp:399] inception_3b/pool_proj -> inception_3b/pool_proj
I0403 15:05:35.774359 14104 net.cpp:141] Setting up inception_3b/pool_proj
I0403 15:05:35.774386 14104 net.cpp:148] Top shape: 24 64 28 28 (1204224)
I0403 15:05:35.774405 14104 net.cpp:156] Memory required for data: 768295968
I0403 15:05:35.774423 14104 layer_factory.hpp:77] Creating layer inception_3b/relu_pool_proj
I0403 15:05:35.774441 14104 net.cpp:91] Creating Layer inception_3b/relu_pool_proj
I0403 15:05:35.774456 14104 net.cpp:425] inception_3b/relu_pool_proj <- inception_3b/pool_proj
I0403 15:05:35.774473 14104 net.cpp:386] inception_3b/relu_pool_proj -> inception_3b/pool_proj (in-place)
I0403 15:05:35.774883 14104 net.cpp:141] Setting up inception_3b/relu_pool_proj
I0403 15:05:35.774909 14104 net.cpp:148] Top shape: 24 64 28 28 (1204224)
I0403 15:05:35.774924 14104 net.cpp:156] Memory required for data: 773112864
I0403 15:05:35.774937 14104 layer_factory.hpp:77] Creating layer inception_3b/output
I0403 15:05:35.774956 14104 net.cpp:91] Creating Layer inception_3b/output
I0403 15:05:35.774972 14104 net.cpp:425] inception_3b/output <- inception_3b/1x1
I0403 15:05:35.774988 14104 net.cpp:425] inception_3b/output <- inception_3b/3x3
I0403 15:05:35.775003 14104 net.cpp:425] inception_3b/output <- inception_3b/5x5
I0403 15:05:35.775017 14104 net.cpp:425] inception_3b/output <- inception_3b/pool_proj
I0403 15:05:35.775033 14104 net.cpp:399] inception_3b/output -> inception_3b/output
I0403 15:05:35.775077 14104 net.cpp:141] Setting up inception_3b/output
I0403 15:05:35.775100 14104 net.cpp:148] Top shape: 24 480 28 28 (9031680)
I0403 15:05:35.775115 14104 net.cpp:156] Memory required for data: 809239584
I0403 15:05:35.775128 14104 layer_factory.hpp:77] Creating layer pool3/3x3_s2
I0403 15:05:35.775144 14104 net.cpp:91] Creating Layer pool3/3x3_s2
I0403 15:05:35.775159 14104 net.cpp:425] pool3/3x3_s2 <- inception_3b/output
I0403 15:05:35.775178 14104 net.cpp:399] pool3/3x3_s2 -> pool3/3x3_s2
I0403 15:05:35.775252 14104 net.cpp:141] Setting up pool3/3x3_s2
I0403 15:05:35.775275 14104 net.cpp:148] Top shape: 24 480 14 14 (2257920)
I0403 15:05:35.775290 14104 net.cpp:156] Memory required for data: 818271264
I0403 15:05:35.775303 14104 layer_factory.hpp:77] Creating layer pool3/3x3_s2_pool3/3x3_s2_0_split
I0403 15:05:35.775322 14104 net.cpp:91] Creating Layer pool3/3x3_s2_pool3/3x3_s2_0_split
I0403 15:05:35.775337 14104 net.cpp:425] pool3/3x3_s2_pool3/3x3_s2_0_split <- pool3/3x3_s2
I0403 15:05:35.775357 14104 net.cpp:399] pool3/3x3_s2_pool3/3x3_s2_0_split -> pool3/3x3_s2_pool3/3x3_s2_0_split_0
I0403 15:05:35.775375 14104 net.cpp:399] pool3/3x3_s2_pool3/3x3_s2_0_split -> pool3/3x3_s2_pool3/3x3_s2_0_split_1
I0403 15:05:35.775394 14104 net.cpp:399] pool3/3x3_s2_pool3/3x3_s2_0_split -> pool3/3x3_s2_pool3/3x3_s2_0_split_2
I0403 15:05:35.775413 14104 net.cpp:399] pool3/3x3_s2_pool3/3x3_s2_0_split -> pool3/3x3_s2_pool3/3x3_s2_0_split_3
I0403 15:05:35.775488 14104 net.cpp:141] Setting up pool3/3x3_s2_pool3/3x3_s2_0_split
I0403 15:05:35.775511 14104 net.cpp:148] Top shape: 24 480 14 14 (2257920)
I0403 15:05:35.775527 14104 net.cpp:148] Top shape: 24 480 14 14 (2257920)
I0403 15:05:35.775542 14104 net.cpp:148] Top shape: 24 480 14 14 (2257920)
I0403 15:05:35.775555 14104 net.cpp:148] Top shape: 24 480 14 14 (2257920)
I0403 15:05:35.775568 14104 net.cpp:156] Memory required for data: 854397984
I0403 15:05:35.775581 14104 layer_factory.hpp:77] Creating layer inception_4a/1x1
I0403 15:05:35.775607 14104 net.cpp:91] Creating Layer inception_4a/1x1
I0403 15:05:35.775625 14104 net.cpp:425] inception_4a/1x1 <- pool3/3x3_s2_pool3/3x3_s2_0_split_0
I0403 15:05:35.775645 14104 net.cpp:399] inception_4a/1x1 -> inception_4a/1x1
I0403 15:05:35.777221 14104 net.cpp:141] Setting up inception_4a/1x1
I0403 15:05:35.777251 14104 net.cpp:148] Top shape: 24 192 14 14 (903168)
I0403 15:05:35.777267 14104 net.cpp:156] Memory required for data: 858010656
I0403 15:05:35.777284 14104 layer_factory.hpp:77] Creating layer inception_4a/relu_1x1
I0403 15:05:35.777302 14104 net.cpp:91] Creating Layer inception_4a/relu_1x1
I0403 15:05:35.777318 14104 net.cpp:425] inception_4a/relu_1x1 <- inception_4a/1x1
I0403 15:05:35.777333 14104 net.cpp:386] inception_4a/relu_1x1 -> inception_4a/1x1 (in-place)
I0403 15:05:35.777514 14104 net.cpp:141] Setting up inception_4a/relu_1x1
I0403 15:05:35.777539 14104 net.cpp:148] Top shape: 24 192 14 14 (903168)
I0403 15:05:35.777554 14104 net.cpp:156] Memory required for data: 861623328
I0403 15:05:35.777567 14104 layer_factory.hpp:77] Creating layer inception_4a/3x3_reduce
I0403 15:05:35.777588 14104 net.cpp:91] Creating Layer inception_4a/3x3_reduce
I0403 15:05:35.777609 14104 net.cpp:425] inception_4a/3x3_reduce <- pool3/3x3_s2_pool3/3x3_s2_0_split_1
I0403 15:05:35.777631 14104 net.cpp:399] inception_4a/3x3_reduce -> inception_4a/3x3_reduce
I0403 15:05:35.778903 14104 net.cpp:141] Setting up inception_4a/3x3_reduce
I0403 15:05:35.778931 14104 net.cpp:148] Top shape: 24 96 14 14 (451584)
I0403 15:05:35.778946 14104 net.cpp:156] Memory required for data: 863429664
I0403 15:05:35.778971 14104 layer_factory.hpp:77] Creating layer inception_4a/relu_3x3_reduce
I0403 15:05:35.778990 14104 net.cpp:91] Creating Layer inception_4a/relu_3x3_reduce
I0403 15:05:35.779006 14104 net.cpp:425] inception_4a/relu_3x3_reduce <- inception_4a/3x3_reduce
I0403 15:05:35.779022 14104 net.cpp:386] inception_4a/relu_3x3_reduce -> inception_4a/3x3_reduce (in-place)
I0403 15:05:35.779196 14104 net.cpp:141] Setting up inception_4a/relu_3x3_reduce
I0403 15:05:35.779227 14104 net.cpp:148] Top shape: 24 96 14 14 (451584)
I0403 15:05:35.779242 14104 net.cpp:156] Memory required for data: 865236000
I0403 15:05:35.779255 14104 layer_factory.hpp:77] Creating layer inception_4a/3x3
I0403 15:05:35.779276 14104 net.cpp:91] Creating Layer inception_4a/3x3
I0403 15:05:35.779294 14104 net.cpp:425] inception_4a/3x3 <- inception_4a/3x3_reduce
I0403 15:05:35.779311 14104 net.cpp:399] inception_4a/3x3 -> inception_4a/3x3
I0403 15:05:35.782016 14104 net.cpp:141] Setting up inception_4a/3x3
I0403 15:05:35.782043 14104 net.cpp:148] Top shape: 24 208 14 14 (978432)
I0403 15:05:35.782059 14104 net.cpp:156] Memory required for data: 869149728
I0403 15:05:35.782076 14104 layer_factory.hpp:77] Creating layer inception_4a/relu_3x3
I0403 15:05:35.782094 14104 net.cpp:91] Creating Layer inception_4a/relu_3x3
I0403 15:05:35.782109 14104 net.cpp:425] inception_4a/relu_3x3 <- inception_4a/3x3
I0403 15:05:35.782129 14104 net.cpp:386] inception_4a/relu_3x3 -> inception_4a/3x3 (in-place)
I0403 15:05:35.782414 14104 net.cpp:141] Setting up inception_4a/relu_3x3
I0403 15:05:35.782440 14104 net.cpp:148] Top shape: 24 208 14 14 (978432)
I0403 15:05:35.782455 14104 net.cpp:156] Memory required for data: 873063456
I0403 15:05:35.782469 14104 layer_factory.hpp:77] Creating layer inception_4a/5x5_reduce
I0403 15:05:35.782490 14104 net.cpp:91] Creating Layer inception_4a/5x5_reduce
I0403 15:05:35.782507 14104 net.cpp:425] inception_4a/5x5_reduce <- pool3/3x3_s2_pool3/3x3_s2_0_split_2
I0403 15:05:35.782529 14104 net.cpp:399] inception_4a/5x5_reduce -> inception_4a/5x5_reduce
I0403 15:05:35.783550 14104 net.cpp:141] Setting up inception_4a/5x5_reduce
I0403 15:05:35.783577 14104 net.cpp:148] Top shape: 24 16 14 14 (75264)
I0403 15:05:35.783591 14104 net.cpp:156] Memory required for data: 873364512
I0403 15:05:35.783613 14104 layer_factory.hpp:77] Creating layer inception_4a/relu_5x5_reduce
I0403 15:05:35.783632 14104 net.cpp:91] Creating Layer inception_4a/relu_5x5_reduce
I0403 15:05:35.783646 14104 net.cpp:425] inception_4a/relu_5x5_reduce <- inception_4a/5x5_reduce
I0403 15:05:35.783664 14104 net.cpp:386] inception_4a/relu_5x5_reduce -> inception_4a/5x5_reduce (in-place)
I0403 15:05:35.783841 14104 net.cpp:141] Setting up inception_4a/relu_5x5_reduce
I0403 15:05:35.783865 14104 net.cpp:148] Top shape: 24 16 14 14 (75264)
I0403 15:05:35.783879 14104 net.cpp:156] Memory required for data: 873665568
I0403 15:05:35.783892 14104 layer_factory.hpp:77] Creating layer inception_4a/5x5
I0403 15:05:35.783920 14104 net.cpp:91] Creating Layer inception_4a/5x5
I0403 15:05:35.783936 14104 net.cpp:425] inception_4a/5x5 <- inception_4a/5x5_reduce
I0403 15:05:35.783956 14104 net.cpp:399] inception_4a/5x5 -> inception_4a/5x5
I0403 15:05:35.785027 14104 net.cpp:141] Setting up inception_4a/5x5
I0403 15:05:35.785053 14104 net.cpp:148] Top shape: 24 48 14 14 (225792)
I0403 15:05:35.785068 14104 net.cpp:156] Memory required for data: 874568736
I0403 15:05:35.785084 14104 layer_factory.hpp:77] Creating layer inception_4a/relu_5x5
I0403 15:05:35.785104 14104 net.cpp:91] Creating Layer inception_4a/relu_5x5
I0403 15:05:35.785120 14104 net.cpp:425] inception_4a/relu_5x5 <- inception_4a/5x5
I0403 15:05:35.785135 14104 net.cpp:386] inception_4a/relu_5x5 -> inception_4a/5x5 (in-place)
I0403 15:05:35.785307 14104 net.cpp:141] Setting up inception_4a/relu_5x5
I0403 15:05:35.785333 14104 net.cpp:148] Top shape: 24 48 14 14 (225792)
I0403 15:05:35.785347 14104 net.cpp:156] Memory required for data: 875471904
I0403 15:05:35.785362 14104 layer_factory.hpp:77] Creating layer inception_4a/pool
I0403 15:05:35.785390 14104 net.cpp:91] Creating Layer inception_4a/pool
I0403 15:05:35.785405 14104 net.cpp:425] inception_4a/pool <- pool3/3x3_s2_pool3/3x3_s2_0_split_3
I0403 15:05:35.785425 14104 net.cpp:399] inception_4a/pool -> inception_4a/pool
I0403 15:05:35.785487 14104 net.cpp:141] Setting up inception_4a/pool
I0403 15:05:35.785511 14104 net.cpp:148] Top shape: 24 480 14 14 (2257920)
I0403 15:05:35.785526 14104 net.cpp:156] Memory required for data: 884503584
I0403 15:05:35.785540 14104 layer_factory.hpp:77] Creating layer inception_4a/pool_proj
I0403 15:05:35.785562 14104 net.cpp:91] Creating Layer inception_4a/pool_proj
I0403 15:05:35.785583 14104 net.cpp:425] inception_4a/pool_proj <- inception_4a/pool
I0403 15:05:35.785605 14104 net.cpp:399] inception_4a/pool_proj -> inception_4a/pool_proj
I0403 15:05:35.786780 14104 net.cpp:141] Setting up inception_4a/pool_proj
I0403 15:05:35.786809 14104 net.cpp:148] Top shape: 24 64 14 14 (301056)
I0403 15:05:35.786841 14104 net.cpp:156] Memory required for data: 885707808
I0403 15:05:35.786861 14104 layer_factory.hpp:77] Creating layer inception_4a/relu_pool_proj
I0403 15:05:35.786881 14104 net.cpp:91] Creating Layer inception_4a/relu_pool_proj
I0403 15:05:35.786898 14104 net.cpp:425] inception_4a/relu_pool_proj <- inception_4a/pool_proj
I0403 15:05:35.786916 14104 net.cpp:386] inception_4a/relu_pool_proj -> inception_4a/pool_proj (in-place)
I0403 15:05:35.787202 14104 net.cpp:141] Setting up inception_4a/relu_pool_proj
I0403 15:05:35.787228 14104 net.cpp:148] Top shape: 24 64 14 14 (301056)
I0403 15:05:35.787243 14104 net.cpp:156] Memory required for data: 886912032
I0403 15:05:35.787256 14104 layer_factory.hpp:77] Creating layer inception_4a/output
I0403 15:05:35.787276 14104 net.cpp:91] Creating Layer inception_4a/output
I0403 15:05:35.787292 14104 net.cpp:425] inception_4a/output <- inception_4a/1x1
I0403 15:05:35.787308 14104 net.cpp:425] inception_4a/output <- inception_4a/3x3
I0403 15:05:35.787323 14104 net.cpp:425] inception_4a/output <- inception_4a/5x5
I0403 15:05:35.787339 14104 net.cpp:425] inception_4a/output <- inception_4a/pool_proj
I0403 15:05:35.787354 14104 net.cpp:399] inception_4a/output -> inception_4a/output
I0403 15:05:35.787400 14104 net.cpp:141] Setting up inception_4a/output
I0403 15:05:35.787423 14104 net.cpp:148] Top shape: 24 512 14 14 (2408448)
I0403 15:05:35.787437 14104 net.cpp:156] Memory required for data: 896545824
I0403 15:05:35.787451 14104 layer_factory.hpp:77] Creating layer inception_4a/output_inception_4a/output_0_split
I0403 15:05:35.787467 14104 net.cpp:91] Creating Layer inception_4a/output_inception_4a/output_0_split
I0403 15:05:35.787482 14104 net.cpp:425] inception_4a/output_inception_4a/output_0_split <- inception_4a/output
I0403 15:05:35.787502 14104 net.cpp:399] inception_4a/output_inception_4a/output_0_split -> inception_4a/output_inception_4a/output_0_split_0
I0403 15:05:35.787523 14104 net.cpp:399] inception_4a/output_inception_4a/output_0_split -> inception_4a/output_inception_4a/output_0_split_1
I0403 15:05:35.787542 14104 net.cpp:399] inception_4a/output_inception_4a/output_0_split -> inception_4a/output_inception_4a/output_0_split_2
I0403 15:05:35.787565 14104 net.cpp:399] inception_4a/output_inception_4a/output_0_split -> inception_4a/output_inception_4a/output_0_split_3
I0403 15:05:35.787585 14104 net.cpp:399] inception_4a/output_inception_4a/output_0_split -> inception_4a/output_inception_4a/output_0_split_4
I0403 15:05:35.787683 14104 net.cpp:141] Setting up inception_4a/output_inception_4a/output_0_split
I0403 15:05:35.787705 14104 net.cpp:148] Top shape: 24 512 14 14 (2408448)
I0403 15:05:35.787721 14104 net.cpp:148] Top shape: 24 512 14 14 (2408448)
I0403 15:05:35.787736 14104 net.cpp:148] Top shape: 24 512 14 14 (2408448)
I0403 15:05:35.787750 14104 net.cpp:148] Top shape: 24 512 14 14 (2408448)
I0403 15:05:35.787765 14104 net.cpp:148] Top shape: 24 512 14 14 (2408448)
I0403 15:05:35.787778 14104 net.cpp:156] Memory required for data: 944714784
I0403 15:05:35.787791 14104 layer_factory.hpp:77] Creating layer loss1/ave_pool
I0403 15:05:35.787808 14104 net.cpp:91] Creating Layer loss1/ave_pool
I0403 15:05:35.787824 14104 net.cpp:425] loss1/ave_pool <- inception_4a/output_inception_4a/output_0_split_0
I0403 15:05:35.787843 14104 net.cpp:399] loss1/ave_pool -> loss1/ave_pool
I0403 15:05:35.788054 14104 net.cpp:141] Setting up loss1/ave_pool
I0403 15:05:35.788080 14104 net.cpp:148] Top shape: 24 512 4 4 (196608)
I0403 15:05:35.788094 14104 net.cpp:156] Memory required for data: 945501216
I0403 15:05:35.788108 14104 layer_factory.hpp:77] Creating layer loss1/conv
I0403 15:05:35.788130 14104 net.cpp:91] Creating Layer loss1/conv
I0403 15:05:35.788148 14104 net.cpp:425] loss1/conv <- loss1/ave_pool
I0403 15:05:35.788174 14104 net.cpp:399] loss1/conv -> loss1/conv
I0403 15:05:35.789587 14104 net.cpp:141] Setting up loss1/conv
I0403 15:05:35.789628 14104 net.cpp:148] Top shape: 24 128 4 4 (49152)
I0403 15:05:35.789644 14104 net.cpp:156] Memory required for data: 945697824
I0403 15:05:35.789677 14104 layer_factory.hpp:77] Creating layer loss1/relu_conv
I0403 15:05:35.789697 14104 net.cpp:91] Creating Layer loss1/relu_conv
I0403 15:05:35.789712 14104 net.cpp:425] loss1/relu_conv <- loss1/conv
I0403 15:05:35.789733 14104 net.cpp:386] loss1/relu_conv -> loss1/conv (in-place)
I0403 15:05:35.790017 14104 net.cpp:141] Setting up loss1/relu_conv
I0403 15:05:35.790045 14104 net.cpp:148] Top shape: 24 128 4 4 (49152)
I0403 15:05:35.790058 14104 net.cpp:156] Memory required for data: 945894432
I0403 15:05:35.790072 14104 layer_factory.hpp:77] Creating layer loss1/fc
I0403 15:05:35.790096 14104 net.cpp:91] Creating Layer loss1/fc
I0403 15:05:35.790112 14104 net.cpp:425] loss1/fc <- loss1/conv
I0403 15:05:35.790132 14104 net.cpp:399] loss1/fc -> loss1/fc
I0403 15:05:35.807796 14104 net.cpp:141] Setting up loss1/fc
I0403 15:05:35.807848 14104 net.cpp:148] Top shape: 24 1024 (24576)
I0403 15:05:35.807864 14104 net.cpp:156] Memory required for data: 945992736
I0403 15:05:35.807883 14104 layer_factory.hpp:77] Creating layer loss1/relu_fc
I0403 15:05:35.807911 14104 net.cpp:91] Creating Layer loss1/relu_fc
I0403 15:05:35.807927 14104 net.cpp:425] loss1/relu_fc <- loss1/fc
I0403 15:05:35.807945 14104 net.cpp:386] loss1/relu_fc -> loss1/fc (in-place)
I0403 15:05:35.808156 14104 net.cpp:141] Setting up loss1/relu_fc
I0403 15:05:35.808181 14104 net.cpp:148] Top shape: 24 1024 (24576)
I0403 15:05:35.808194 14104 net.cpp:156] Memory required for data: 946091040
I0403 15:05:35.808208 14104 layer_factory.hpp:77] Creating layer loss1/drop_fc
I0403 15:05:35.808235 14104 net.cpp:91] Creating Layer loss1/drop_fc
I0403 15:05:35.808254 14104 net.cpp:425] loss1/drop_fc <- loss1/fc
I0403 15:05:35.808271 14104 net.cpp:386] loss1/drop_fc -> loss1/fc (in-place)
I0403 15:05:35.808341 14104 net.cpp:141] Setting up loss1/drop_fc
I0403 15:05:35.808365 14104 net.cpp:148] Top shape: 24 1024 (24576)
I0403 15:05:35.808379 14104 net.cpp:156] Memory required for data: 946189344
I0403 15:05:35.808394 14104 layer_factory.hpp:77] Creating layer loss1/classifier_plantvillage
I0403 15:05:35.808418 14104 net.cpp:91] Creating Layer loss1/classifier_plantvillage
I0403 15:05:35.808434 14104 net.cpp:425] loss1/classifier_plantvillage <- loss1/fc
I0403 15:05:35.808452 14104 net.cpp:399] loss1/classifier_plantvillage -> loss1/classifier_plantvillage
I0403 15:05:35.809392 14104 net.cpp:141] Setting up loss1/classifier_plantvillage
I0403 15:05:35.809422 14104 net.cpp:148] Top shape: 24 38 (912)
I0403 15:05:35.809438 14104 net.cpp:156] Memory required for data: 946192992
I0403 15:05:35.809456 14104 layer_factory.hpp:77] Creating layer loss1/classifier_plantvillage_loss1/classifier_plantvillage_0_split
I0403 15:05:35.809474 14104 net.cpp:91] Creating Layer loss1/classifier_plantvillage_loss1/classifier_plantvillage_0_split
I0403 15:05:35.809489 14104 net.cpp:425] loss1/classifier_plantvillage_loss1/classifier_plantvillage_0_split <- loss1/classifier_plantvillage
I0403 15:05:35.809506 14104 net.cpp:399] loss1/classifier_plantvillage_loss1/classifier_plantvillage_0_split -> loss1/classifier_plantvillage_loss1/classifier_plantvillage_0_split_0
I0403 15:05:35.809528 14104 net.cpp:399] loss1/classifier_plantvillage_loss1/classifier_plantvillage_0_split -> loss1/classifier_plantvillage_loss1/classifier_plantvillage_0_split_1
I0403 15:05:35.809550 14104 net.cpp:399] loss1/classifier_plantvillage_loss1/classifier_plantvillage_0_split -> loss1/classifier_plantvillage_loss1/classifier_plantvillage_0_split_2
I0403 15:05:35.809620 14104 net.cpp:141] Setting up loss1/classifier_plantvillage_loss1/classifier_plantvillage_0_split
I0403 15:05:35.809643 14104 net.cpp:148] Top shape: 24 38 (912)
I0403 15:05:35.809659 14104 net.cpp:148] Top shape: 24 38 (912)
I0403 15:05:35.809674 14104 net.cpp:148] Top shape: 24 38 (912)
I0403 15:05:35.809686 14104 net.cpp:156] Memory required for data: 946203936
I0403 15:05:35.809700 14104 layer_factory.hpp:77] Creating layer inception_4b/1x1
I0403 15:05:35.809720 14104 net.cpp:91] Creating Layer inception_4b/1x1
I0403 15:05:35.809763 14104 net.cpp:425] inception_4b/1x1 <- inception_4a/output_inception_4a/output_0_split_1
I0403 15:05:35.809787 14104 net.cpp:399] inception_4b/1x1 -> inception_4b/1x1
I0403 15:05:35.811475 14104 net.cpp:141] Setting up inception_4b/1x1
I0403 15:05:35.811503 14104 net.cpp:148] Top shape: 24 160 14 14 (752640)
I0403 15:05:35.811518 14104 net.cpp:156] Memory required for data: 949214496
I0403 15:05:35.811535 14104 layer_factory.hpp:77] Creating layer inception_4b/relu_1x1
I0403 15:05:35.811553 14104 net.cpp:91] Creating Layer inception_4b/relu_1x1
I0403 15:05:35.811568 14104 net.cpp:425] inception_4b/relu_1x1 <- inception_4b/1x1
I0403 15:05:35.811588 14104 net.cpp:386] inception_4b/relu_1x1 -> inception_4b/1x1 (in-place)
I0403 15:05:35.811774 14104 net.cpp:141] Setting up inception_4b/relu_1x1
I0403 15:05:35.811800 14104 net.cpp:148] Top shape: 24 160 14 14 (752640)
I0403 15:05:35.811813 14104 net.cpp:156] Memory required for data: 952225056
I0403 15:05:35.811826 14104 layer_factory.hpp:77] Creating layer inception_4b/3x3_reduce
I0403 15:05:35.811849 14104 net.cpp:91] Creating Layer inception_4b/3x3_reduce
I0403 15:05:35.811866 14104 net.cpp:425] inception_4b/3x3_reduce <- inception_4a/output_inception_4a/output_0_split_2
I0403 15:05:35.811887 14104 net.cpp:399] inception_4b/3x3_reduce -> inception_4b/3x3_reduce
I0403 15:05:35.813310 14104 net.cpp:141] Setting up inception_4b/3x3_reduce
I0403 15:05:35.813338 14104 net.cpp:148] Top shape: 24 112 14 14 (526848)
I0403 15:05:35.813354 14104 net.cpp:156] Memory required for data: 954332448
I0403 15:05:35.813372 14104 layer_factory.hpp:77] Creating layer inception_4b/relu_3x3_reduce
I0403 15:05:35.813393 14104 net.cpp:91] Creating Layer inception_4b/relu_3x3_reduce
I0403 15:05:35.813410 14104 net.cpp:425] inception_4b/relu_3x3_reduce <- inception_4b/3x3_reduce
I0403 15:05:35.813426 14104 net.cpp:386] inception_4b/relu_3x3_reduce -> inception_4b/3x3_reduce (in-place)
I0403 15:05:35.813727 14104 net.cpp:141] Setting up inception_4b/relu_3x3_reduce
I0403 15:05:35.813755 14104 net.cpp:148] Top shape: 24 112 14 14 (526848)
I0403 15:05:35.813769 14104 net.cpp:156] Memory required for data: 956439840
I0403 15:05:35.813783 14104 layer_factory.hpp:77] Creating layer inception_4b/3x3
I0403 15:05:35.813808 14104 net.cpp:91] Creating Layer inception_4b/3x3
I0403 15:05:35.813827 14104 net.cpp:425] inception_4b/3x3 <- inception_4b/3x3_reduce
I0403 15:05:35.813848 14104 net.cpp:399] inception_4b/3x3 -> inception_4b/3x3
I0403 15:05:35.816922 14104 net.cpp:141] Setting up inception_4b/3x3
I0403 15:05:35.816954 14104 net.cpp:148] Top shape: 24 224 14 14 (1053696)
I0403 15:05:35.816972 14104 net.cpp:156] Memory required for data: 960654624
I0403 15:05:35.816990 14104 layer_factory.hpp:77] Creating layer inception_4b/relu_3x3
I0403 15:05:35.817008 14104 net.cpp:91] Creating Layer inception_4b/relu_3x3
I0403 15:05:35.817024 14104 net.cpp:425] inception_4b/relu_3x3 <- inception_4b/3x3
I0403 15:05:35.817040 14104 net.cpp:386] inception_4b/relu_3x3 -> inception_4b/3x3 (in-place)
I0403 15:05:35.817232 14104 net.cpp:141] Setting up inception_4b/relu_3x3
I0403 15:05:35.817257 14104 net.cpp:148] Top shape: 24 224 14 14 (1053696)
I0403 15:05:35.817272 14104 net.cpp:156] Memory required for data: 964869408
I0403 15:05:35.817286 14104 layer_factory.hpp:77] Creating layer inception_4b/5x5_reduce
I0403 15:05:35.817309 14104 net.cpp:91] Creating Layer inception_4b/5x5_reduce
I0403 15:05:35.817327 14104 net.cpp:425] inception_4b/5x5_reduce <- inception_4a/output_inception_4a/output_0_split_3
I0403 15:05:35.817348 14104 net.cpp:399] inception_4b/5x5_reduce -> inception_4b/5x5_reduce
I0403 15:05:35.818472 14104 net.cpp:141] Setting up inception_4b/5x5_reduce
I0403 15:05:35.818501 14104 net.cpp:148] Top shape: 24 24 14 14 (112896)
I0403 15:05:35.818516 14104 net.cpp:156] Memory required for data: 965320992
I0403 15:05:35.818534 14104 layer_factory.hpp:77] Creating layer inception_4b/relu_5x5_reduce
I0403 15:05:35.818555 14104 net.cpp:91] Creating Layer inception_4b/relu_5x5_reduce
I0403 15:05:35.818588 14104 net.cpp:425] inception_4b/relu_5x5_reduce <- inception_4b/5x5_reduce
I0403 15:05:35.818610 14104 net.cpp:386] inception_4b/relu_5x5_reduce -> inception_4b/5x5_reduce (in-place)
I0403 15:05:35.818802 14104 net.cpp:141] Setting up inception_4b/relu_5x5_reduce
I0403 15:05:35.818828 14104 net.cpp:148] Top shape: 24 24 14 14 (112896)
I0403 15:05:35.818843 14104 net.cpp:156] Memory required for data: 965772576
I0403 15:05:35.818858 14104 layer_factory.hpp:77] Creating layer inception_4b/5x5
I0403 15:05:35.818881 14104 net.cpp:91] Creating Layer inception_4b/5x5
I0403 15:05:35.818899 14104 net.cpp:425] inception_4b/5x5 <- inception_4b/5x5_reduce
I0403 15:05:35.818918 14104 net.cpp:399] inception_4b/5x5 -> inception_4b/5x5
I0403 15:05:35.820206 14104 net.cpp:141] Setting up inception_4b/5x5
I0403 15:05:35.820235 14104 net.cpp:148] Top shape: 24 64 14 14 (301056)
I0403 15:05:35.820250 14104 net.cpp:156] Memory required for data: 966976800
I0403 15:05:35.820268 14104 layer_factory.hpp:77] Creating layer inception_4b/relu_5x5
I0403 15:05:35.820286 14104 net.cpp:91] Creating Layer inception_4b/relu_5x5
I0403 15:05:35.820302 14104 net.cpp:425] inception_4b/relu_5x5 <- inception_4b/5x5
I0403 15:05:35.820322 14104 net.cpp:386] inception_4b/relu_5x5 -> inception_4b/5x5 (in-place)
I0403 15:05:35.820621 14104 net.cpp:141] Setting up inception_4b/relu_5x5
I0403 15:05:35.820649 14104 net.cpp:148] Top shape: 24 64 14 14 (301056)
I0403 15:05:35.820663 14104 net.cpp:156] Memory required for data: 968181024
I0403 15:05:35.820678 14104 layer_factory.hpp:77] Creating layer inception_4b/pool
I0403 15:05:35.820696 14104 net.cpp:91] Creating Layer inception_4b/pool
I0403 15:05:35.820713 14104 net.cpp:425] inception_4b/pool <- inception_4a/output_inception_4a/output_0_split_4
I0403 15:05:35.820734 14104 net.cpp:399] inception_4b/pool -> inception_4b/pool
I0403 15:05:35.820801 14104 net.cpp:141] Setting up inception_4b/pool
I0403 15:05:35.820827 14104 net.cpp:148] Top shape: 24 512 14 14 (2408448)
I0403 15:05:35.820842 14104 net.cpp:156] Memory required for data: 977814816
I0403 15:05:35.820857 14104 layer_factory.hpp:77] Creating layer inception_4b/pool_proj
I0403 15:05:35.820879 14104 net.cpp:91] Creating Layer inception_4b/pool_proj
I0403 15:05:35.820897 14104 net.cpp:425] inception_4b/pool_proj <- inception_4b/pool
I0403 15:05:35.820916 14104 net.cpp:399] inception_4b/pool_proj -> inception_4b/pool_proj
I0403 15:05:35.822171 14104 net.cpp:141] Setting up inception_4b/pool_proj
I0403 15:05:35.822206 14104 net.cpp:148] Top shape: 24 64 14 14 (301056)
I0403 15:05:35.822227 14104 net.cpp:156] Memory required for data: 979019040
I0403 15:05:35.822255 14104 layer_factory.hpp:77] Creating layer inception_4b/relu_pool_proj
I0403 15:05:35.822281 14104 net.cpp:91] Creating Layer inception_4b/relu_pool_proj
I0403 15:05:35.822300 14104 net.cpp:425] inception_4b/relu_pool_proj <- inception_4b/pool_proj
I0403 15:05:35.822317 14104 net.cpp:386] inception_4b/relu_pool_proj -> inception_4b/pool_proj (in-place)
I0403 15:05:35.822506 14104 net.cpp:141] Setting up inception_4b/relu_pool_proj
I0403 15:05:35.822532 14104 net.cpp:148] Top shape: 24 64 14 14 (301056)
I0403 15:05:35.822551 14104 net.cpp:156] Memory required for data: 980223264
I0403 15:05:35.822566 14104 layer_factory.hpp:77] Creating layer inception_4b/output
I0403 15:05:35.822583 14104 net.cpp:91] Creating Layer inception_4b/output
I0403 15:05:35.822602 14104 net.cpp:425] inception_4b/output <- inception_4b/1x1
I0403 15:05:35.822620 14104 net.cpp:425] inception_4b/output <- inception_4b/3x3
I0403 15:05:35.822636 14104 net.cpp:425] inception_4b/output <- inception_4b/5x5
I0403 15:05:35.822652 14104 net.cpp:425] inception_4b/output <- inception_4b/pool_proj
I0403 15:05:35.822669 14104 net.cpp:399] inception_4b/output -> inception_4b/output
I0403 15:05:35.822720 14104 net.cpp:141] Setting up inception_4b/output
I0403 15:05:35.822743 14104 net.cpp:148] Top shape: 24 512 14 14 (2408448)
I0403 15:05:35.822757 14104 net.cpp:156] Memory required for data: 989857056
I0403 15:05:35.822788 14104 layer_factory.hpp:77] Creating layer inception_4b/output_inception_4b/output_0_split
I0403 15:05:35.822806 14104 net.cpp:91] Creating Layer inception_4b/output_inception_4b/output_0_split
I0403 15:05:35.822821 14104 net.cpp:425] inception_4b/output_inception_4b/output_0_split <- inception_4b/output
I0403 15:05:35.822841 14104 net.cpp:399] inception_4b/output_inception_4b/output_0_split -> inception_4b/output_inception_4b/output_0_split_0
I0403 15:05:35.822863 14104 net.cpp:399] inception_4b/output_inception_4b/output_0_split -> inception_4b/output_inception_4b/output_0_split_1
I0403 15:05:35.822885 14104 net.cpp:399] inception_4b/output_inception_4b/output_0_split -> inception_4b/output_inception_4b/output_0_split_2
I0403 15:05:35.822906 14104 net.cpp:399] inception_4b/output_inception_4b/output_0_split -> inception_4b/output_inception_4b/output_0_split_3
I0403 15:05:35.822993 14104 net.cpp:141] Setting up inception_4b/output_inception_4b/output_0_split
I0403 15:05:35.823016 14104 net.cpp:148] Top shape: 24 512 14 14 (2408448)
I0403 15:05:35.823032 14104 net.cpp:148] Top shape: 24 512 14 14 (2408448)
I0403 15:05:35.823048 14104 net.cpp:148] Top shape: 24 512 14 14 (2408448)
I0403 15:05:35.823063 14104 net.cpp:148] Top shape: 24 512 14 14 (2408448)
I0403 15:05:35.823076 14104 net.cpp:156] Memory required for data: 1028392224
I0403 15:05:35.823091 14104 layer_factory.hpp:77] Creating layer inception_4c/1x1
I0403 15:05:35.823113 14104 net.cpp:91] Creating Layer inception_4c/1x1
I0403 15:05:35.823130 14104 net.cpp:425] inception_4c/1x1 <- inception_4b/output_inception_4b/output_0_split_0
I0403 15:05:35.823151 14104 net.cpp:399] inception_4c/1x1 -> inception_4c/1x1
I0403 15:05:35.824674 14104 net.cpp:141] Setting up inception_4c/1x1
I0403 15:05:35.824705 14104 net.cpp:148] Top shape: 24 128 14 14 (602112)
I0403 15:05:35.824722 14104 net.cpp:156] Memory required for data: 1030800672
I0403 15:05:35.824739 14104 layer_factory.hpp:77] Creating layer inception_4c/relu_1x1
I0403 15:05:35.824758 14104 net.cpp:91] Creating Layer inception_4c/relu_1x1
I0403 15:05:35.824772 14104 net.cpp:425] inception_4c/relu_1x1 <- inception_4c/1x1
I0403 15:05:35.824790 14104 net.cpp:386] inception_4c/relu_1x1 -> inception_4c/1x1 (in-place)
I0403 15:05:35.824975 14104 net.cpp:141] Setting up inception_4c/relu_1x1
I0403 15:05:35.825001 14104 net.cpp:148] Top shape: 24 128 14 14 (602112)
I0403 15:05:35.825017 14104 net.cpp:156] Memory required for data: 1033209120
I0403 15:05:35.825031 14104 layer_factory.hpp:77] Creating layer inception_4c/3x3_reduce
I0403 15:05:35.825052 14104 net.cpp:91] Creating Layer inception_4c/3x3_reduce
I0403 15:05:35.825069 14104 net.cpp:425] inception_4c/3x3_reduce <- inception_4b/output_inception_4b/output_0_split_1
I0403 15:05:35.825093 14104 net.cpp:399] inception_4c/3x3_reduce -> inception_4c/3x3_reduce
I0403 15:05:35.827056 14104 net.cpp:141] Setting up inception_4c/3x3_reduce
I0403 15:05:35.827085 14104 net.cpp:148] Top shape: 24 128 14 14 (602112)
I0403 15:05:35.827100 14104 net.cpp:156] Memory required for data: 1035617568
I0403 15:05:35.827118 14104 layer_factory.hpp:77] Creating layer inception_4c/relu_3x3_reduce
I0403 15:05:35.827136 14104 net.cpp:91] Creating Layer inception_4c/relu_3x3_reduce
I0403 15:05:35.827153 14104 net.cpp:425] inception_4c/relu_3x3_reduce <- inception_4c/3x3_reduce
I0403 15:05:35.827170 14104 net.cpp:386] inception_4c/relu_3x3_reduce -> inception_4c/3x3_reduce (in-place)
I0403 15:05:35.827464 14104 net.cpp:141] Setting up inception_4c/relu_3x3_reduce
I0403 15:05:35.827491 14104 net.cpp:148] Top shape: 24 128 14 14 (602112)
I0403 15:05:35.827504 14104 net.cpp:156] Memory required for data: 1038026016
I0403 15:05:35.827518 14104 layer_factory.hpp:77] Creating layer inception_4c/3x3
I0403 15:05:35.827540 14104 net.cpp:91] Creating Layer inception_4c/3x3
I0403 15:05:35.827558 14104 net.cpp:425] inception_4c/3x3 <- inception_4c/3x3_reduce
I0403 15:05:35.827579 14104 net.cpp:399] inception_4c/3x3 -> inception_4c/3x3
I0403 15:05:35.831259 14104 net.cpp:141] Setting up inception_4c/3x3
I0403 15:05:35.831300 14104 net.cpp:148] Top shape: 24 256 14 14 (1204224)
I0403 15:05:35.831315 14104 net.cpp:156] Memory required for data: 1042842912
I0403 15:05:35.831346 14104 layer_factory.hpp:77] Creating layer inception_4c/relu_3x3
I0403 15:05:35.831365 14104 net.cpp:91] Creating Layer inception_4c/relu_3x3
I0403 15:05:35.831382 14104 net.cpp:425] inception_4c/relu_3x3 <- inception_4c/3x3
I0403 15:05:35.831408 14104 net.cpp:386] inception_4c/relu_3x3 -> inception_4c/3x3 (in-place)
I0403 15:05:35.831588 14104 net.cpp:141] Setting up inception_4c/relu_3x3
I0403 15:05:35.831616 14104 net.cpp:148] Top shape: 24 256 14 14 (1204224)
I0403 15:05:35.831631 14104 net.cpp:156] Memory required for data: 1047659808
I0403 15:05:35.831645 14104 layer_factory.hpp:77] Creating layer inception_4c/5x5_reduce
I0403 15:05:35.831665 14104 net.cpp:91] Creating Layer inception_4c/5x5_reduce
I0403 15:05:35.831682 14104 net.cpp:425] inception_4c/5x5_reduce <- inception_4b/output_inception_4b/output_0_split_2
I0403 15:05:35.831703 14104 net.cpp:399] inception_4c/5x5_reduce -> inception_4c/5x5_reduce
I0403 15:05:35.832780 14104 net.cpp:141] Setting up inception_4c/5x5_reduce
I0403 15:05:35.832808 14104 net.cpp:148] Top shape: 24 24 14 14 (112896)
I0403 15:05:35.832823 14104 net.cpp:156] Memory required for data: 1048111392
I0403 15:05:35.832839 14104 layer_factory.hpp:77] Creating layer inception_4c/relu_5x5_reduce
I0403 15:05:35.832859 14104 net.cpp:91] Creating Layer inception_4c/relu_5x5_reduce
I0403 15:05:35.832875 14104 net.cpp:425] inception_4c/relu_5x5_reduce <- inception_4c/5x5_reduce
I0403 15:05:35.832890 14104 net.cpp:386] inception_4c/relu_5x5_reduce -> inception_4c/5x5_reduce (in-place)
I0403 15:05:35.833071 14104 net.cpp:141] Setting up inception_4c/relu_5x5_reduce
I0403 15:05:35.833094 14104 net.cpp:148] Top shape: 24 24 14 14 (112896)
I0403 15:05:35.833108 14104 net.cpp:156] Memory required for data: 1048562976
I0403 15:05:35.833122 14104 layer_factory.hpp:77] Creating layer inception_4c/5x5
I0403 15:05:35.833145 14104 net.cpp:91] Creating Layer inception_4c/5x5
I0403 15:05:35.833163 14104 net.cpp:425] inception_4c/5x5 <- inception_4c/5x5_reduce
I0403 15:05:35.833180 14104 net.cpp:399] inception_4c/5x5 -> inception_4c/5x5
I0403 15:05:35.834404 14104 net.cpp:141] Setting up inception_4c/5x5
I0403 15:05:35.834430 14104 net.cpp:148] Top shape: 24 64 14 14 (301056)
I0403 15:05:35.834445 14104 net.cpp:156] Memory required for data: 1049767200
I0403 15:05:35.834462 14104 layer_factory.hpp:77] Creating layer inception_4c/relu_5x5
I0403 15:05:35.834482 14104 net.cpp:91] Creating Layer inception_4c/relu_5x5
I0403 15:05:35.834497 14104 net.cpp:425] inception_4c/relu_5x5 <- inception_4c/5x5
I0403 15:05:35.834512 14104 net.cpp:386] inception_4c/relu_5x5 -> inception_4c/5x5 (in-place)
I0403 15:05:35.834808 14104 net.cpp:141] Setting up inception_4c/relu_5x5
I0403 15:05:35.834835 14104 net.cpp:148] Top shape: 24 64 14 14 (301056)
I0403 15:05:35.834851 14104 net.cpp:156] Memory required for data: 1050971424
I0403 15:05:35.834866 14104 layer_factory.hpp:77] Creating layer inception_4c/pool
I0403 15:05:35.834882 14104 net.cpp:91] Creating Layer inception_4c/pool
I0403 15:05:35.834898 14104 net.cpp:425] inception_4c/pool <- inception_4b/output_inception_4b/output_0_split_3
I0403 15:05:35.834915 14104 net.cpp:399] inception_4c/pool -> inception_4c/pool
I0403 15:05:35.834980 14104 net.cpp:141] Setting up inception_4c/pool
I0403 15:05:35.835002 14104 net.cpp:148] Top shape: 24 512 14 14 (2408448)
I0403 15:05:35.835016 14104 net.cpp:156] Memory required for data: 1060605216
I0403 15:05:35.835029 14104 layer_factory.hpp:77] Creating layer inception_4c/pool_proj
I0403 15:05:35.835049 14104 net.cpp:91] Creating Layer inception_4c/pool_proj
I0403 15:05:35.835067 14104 net.cpp:425] inception_4c/pool_proj <- inception_4c/pool
I0403 15:05:35.835085 14104 net.cpp:399] inception_4c/pool_proj -> inception_4c/pool_proj
I0403 15:05:35.836295 14104 net.cpp:141] Setting up inception_4c/pool_proj
I0403 15:05:35.836323 14104 net.cpp:148] Top shape: 24 64 14 14 (301056)
I0403 15:05:35.836350 14104 net.cpp:156] Memory required for data: 1061809440
I0403 15:05:35.836369 14104 layer_factory.hpp:77] Creating layer inception_4c/relu_pool_proj
I0403 15:05:35.836386 14104 net.cpp:91] Creating Layer inception_4c/relu_pool_proj
I0403 15:05:35.836400 14104 net.cpp:425] inception_4c/relu_pool_proj <- inception_4c/pool_proj
I0403 15:05:35.836419 14104 net.cpp:386] inception_4c/relu_pool_proj -> inception_4c/pool_proj (in-place)
I0403 15:05:35.836606 14104 net.cpp:141] Setting up inception_4c/relu_pool_proj
I0403 15:05:35.836632 14104 net.cpp:148] Top shape: 24 64 14 14 (301056)
I0403 15:05:35.836644 14104 net.cpp:156] Memory required for data: 1063013664
I0403 15:05:35.836658 14104 layer_factory.hpp:77] Creating layer inception_4c/output
I0403 15:05:35.836675 14104 net.cpp:91] Creating Layer inception_4c/output
I0403 15:05:35.836691 14104 net.cpp:425] inception_4c/output <- inception_4c/1x1
I0403 15:05:35.836706 14104 net.cpp:425] inception_4c/output <- inception_4c/3x3
I0403 15:05:35.836721 14104 net.cpp:425] inception_4c/output <- inception_4c/5x5
I0403 15:05:35.836736 14104 net.cpp:425] inception_4c/output <- inception_4c/pool_proj
I0403 15:05:35.836752 14104 net.cpp:399] inception_4c/output -> inception_4c/output
I0403 15:05:35.836799 14104 net.cpp:141] Setting up inception_4c/output
I0403 15:05:35.836822 14104 net.cpp:148] Top shape: 24 512 14 14 (2408448)
I0403 15:05:35.836835 14104 net.cpp:156] Memory required for data: 1072647456
I0403 15:05:35.836849 14104 layer_factory.hpp:77] Creating layer inception_4c/output_inception_4c/output_0_split
I0403 15:05:35.836865 14104 net.cpp:91] Creating Layer inception_4c/output_inception_4c/output_0_split
I0403 15:05:35.836879 14104 net.cpp:425] inception_4c/output_inception_4c/output_0_split <- inception_4c/output
I0403 15:05:35.836897 14104 net.cpp:399] inception_4c/output_inception_4c/output_0_split -> inception_4c/output_inception_4c/output_0_split_0
I0403 15:05:35.836916 14104 net.cpp:399] inception_4c/output_inception_4c/output_0_split -> inception_4c/output_inception_4c/output_0_split_1
I0403 15:05:35.836936 14104 net.cpp:399] inception_4c/output_inception_4c/output_0_split -> inception_4c/output_inception_4c/output_0_split_2
I0403 15:05:35.836956 14104 net.cpp:399] inception_4c/output_inception_4c/output_0_split -> inception_4c/output_inception_4c/output_0_split_3
I0403 15:05:35.837038 14104 net.cpp:141] Setting up inception_4c/output_inception_4c/output_0_split
I0403 15:05:35.837060 14104 net.cpp:148] Top shape: 24 512 14 14 (2408448)
I0403 15:05:35.837075 14104 net.cpp:148] Top shape: 24 512 14 14 (2408448)
I0403 15:05:35.837090 14104 net.cpp:148] Top shape: 24 512 14 14 (2408448)
I0403 15:05:35.837103 14104 net.cpp:148] Top shape: 24 512 14 14 (2408448)
I0403 15:05:35.837116 14104 net.cpp:156] Memory required for data: 1111182624
I0403 15:05:35.837129 14104 layer_factory.hpp:77] Creating layer inception_4d/1x1
I0403 15:05:35.837151 14104 net.cpp:91] Creating Layer inception_4d/1x1
I0403 15:05:35.837167 14104 net.cpp:425] inception_4d/1x1 <- inception_4c/output_inception_4c/output_0_split_0
I0403 15:05:35.837187 14104 net.cpp:399] inception_4d/1x1 -> inception_4d/1x1
I0403 15:05:35.838549 14104 net.cpp:141] Setting up inception_4d/1x1
I0403 15:05:35.838578 14104 net.cpp:148] Top shape: 24 112 14 14 (526848)
I0403 15:05:35.838594 14104 net.cpp:156] Memory required for data: 1113290016
I0403 15:05:35.838615 14104 layer_factory.hpp:77] Creating layer inception_4d/relu_1x1
I0403 15:05:35.838634 14104 net.cpp:91] Creating Layer inception_4d/relu_1x1
I0403 15:05:35.838647 14104 net.cpp:425] inception_4d/relu_1x1 <- inception_4d/1x1
I0403 15:05:35.838665 14104 net.cpp:386] inception_4d/relu_1x1 -> inception_4d/1x1 (in-place)
I0403 15:05:35.838853 14104 net.cpp:141] Setting up inception_4d/relu_1x1
I0403 15:05:35.838877 14104 net.cpp:148] Top shape: 24 112 14 14 (526848)
I0403 15:05:35.838891 14104 net.cpp:156] Memory required for data: 1115397408
I0403 15:05:35.838904 14104 layer_factory.hpp:77] Creating layer inception_4d/3x3_reduce
I0403 15:05:35.838939 14104 net.cpp:91] Creating Layer inception_4d/3x3_reduce
I0403 15:05:35.838958 14104 net.cpp:425] inception_4d/3x3_reduce <- inception_4c/output_inception_4c/output_0_split_1
I0403 15:05:35.838978 14104 net.cpp:399] inception_4d/3x3_reduce -> inception_4d/3x3_reduce
I0403 15:05:35.840497 14104 net.cpp:141] Setting up inception_4d/3x3_reduce
I0403 15:05:35.840524 14104 net.cpp:148] Top shape: 24 144 14 14 (677376)
I0403 15:05:35.840540 14104 net.cpp:156] Memory required for data: 1118106912
I0403 15:05:35.840558 14104 layer_factory.hpp:77] Creating layer inception_4d/relu_3x3_reduce
I0403 15:05:35.840589 14104 net.cpp:91] Creating Layer inception_4d/relu_3x3_reduce
I0403 15:05:35.840610 14104 net.cpp:425] inception_4d/relu_3x3_reduce <- inception_4d/3x3_reduce
I0403 15:05:35.840626 14104 net.cpp:386] inception_4d/relu_3x3_reduce -> inception_4d/3x3_reduce (in-place)
I0403 15:05:35.840920 14104 net.cpp:141] Setting up inception_4d/relu_3x3_reduce
I0403 15:05:35.840945 14104 net.cpp:148] Top shape: 24 144 14 14 (677376)
I0403 15:05:35.840960 14104 net.cpp:156] Memory required for data: 1120816416
I0403 15:05:35.840972 14104 layer_factory.hpp:77] Creating layer inception_4d/3x3
I0403 15:05:35.840996 14104 net.cpp:91] Creating Layer inception_4d/3x3
I0403 15:05:35.841012 14104 net.cpp:425] inception_4d/3x3 <- inception_4d/3x3_reduce
I0403 15:05:35.841030 14104 net.cpp:399] inception_4d/3x3 -> inception_4d/3x3
I0403 15:05:35.845201 14104 net.cpp:141] Setting up inception_4d/3x3
I0403 15:05:35.845232 14104 net.cpp:148] Top shape: 24 288 14 14 (1354752)
I0403 15:05:35.845247 14104 net.cpp:156] Memory required for data: 1126235424
I0403 15:05:35.845264 14104 layer_factory.hpp:77] Creating layer inception_4d/relu_3x3
I0403 15:05:35.845281 14104 net.cpp:91] Creating Layer inception_4d/relu_3x3
I0403 15:05:35.845296 14104 net.cpp:425] inception_4d/relu_3x3 <- inception_4d/3x3
I0403 15:05:35.845316 14104 net.cpp:386] inception_4d/relu_3x3 -> inception_4d/3x3 (in-place)
I0403 15:05:35.845500 14104 net.cpp:141] Setting up inception_4d/relu_3x3
I0403 15:05:35.845523 14104 net.cpp:148] Top shape: 24 288 14 14 (1354752)
I0403 15:05:35.845537 14104 net.cpp:156] Memory required for data: 1131654432
I0403 15:05:35.845551 14104 layer_factory.hpp:77] Creating layer inception_4d/5x5_reduce
I0403 15:05:35.845571 14104 net.cpp:91] Creating Layer inception_4d/5x5_reduce
I0403 15:05:35.845587 14104 net.cpp:425] inception_4d/5x5_reduce <- inception_4c/output_inception_4c/output_0_split_2
I0403 15:05:35.845612 14104 net.cpp:399] inception_4d/5x5_reduce -> inception_4d/5x5_reduce
I0403 15:05:35.846753 14104 net.cpp:141] Setting up inception_4d/5x5_reduce
I0403 15:05:35.846781 14104 net.cpp:148] Top shape: 24 32 14 14 (150528)
I0403 15:05:35.846796 14104 net.cpp:156] Memory required for data: 1132256544
I0403 15:05:35.846812 14104 layer_factory.hpp:77] Creating layer inception_4d/relu_5x5_reduce
I0403 15:05:35.846829 14104 net.cpp:91] Creating Layer inception_4d/relu_5x5_reduce
I0403 15:05:35.846844 14104 net.cpp:425] inception_4d/relu_5x5_reduce <- inception_4d/5x5_reduce
I0403 15:05:35.846861 14104 net.cpp:386] inception_4d/relu_5x5_reduce -> inception_4d/5x5_reduce (in-place)
I0403 15:05:35.847048 14104 net.cpp:141] Setting up inception_4d/relu_5x5_reduce
I0403 15:05:35.847072 14104 net.cpp:148] Top shape: 24 32 14 14 (150528)
I0403 15:05:35.847085 14104 net.cpp:156] Memory required for data: 1132858656
I0403 15:05:35.847100 14104 layer_factory.hpp:77] Creating layer inception_4d/5x5
I0403 15:05:35.847121 14104 net.cpp:91] Creating Layer inception_4d/5x5
I0403 15:05:35.847137 14104 net.cpp:425] inception_4d/5x5 <- inception_4d/5x5_reduce
I0403 15:05:35.847157 14104 net.cpp:399] inception_4d/5x5 -> inception_4d/5x5
I0403 15:05:35.848623 14104 net.cpp:141] Setting up inception_4d/5x5
I0403 15:05:35.848649 14104 net.cpp:148] Top shape: 24 64 14 14 (301056)
I0403 15:05:35.848664 14104 net.cpp:156] Memory required for data: 1134062880
I0403 15:05:35.848681 14104 layer_factory.hpp:77] Creating layer inception_4d/relu_5x5
I0403 15:05:35.848714 14104 net.cpp:91] Creating Layer inception_4d/relu_5x5
I0403 15:05:35.848732 14104 net.cpp:425] inception_4d/relu_5x5 <- inception_4d/5x5
I0403 15:05:35.848747 14104 net.cpp:386] inception_4d/relu_5x5 -> inception_4d/5x5 (in-place)
I0403 15:05:35.849052 14104 net.cpp:141] Setting up inception_4d/relu_5x5
I0403 15:05:35.849078 14104 net.cpp:148] Top shape: 24 64 14 14 (301056)
I0403 15:05:35.849092 14104 net.cpp:156] Memory required for data: 1135267104
I0403 15:05:35.849105 14104 layer_factory.hpp:77] Creating layer inception_4d/pool
I0403 15:05:35.849123 14104 net.cpp:91] Creating Layer inception_4d/pool
I0403 15:05:35.849139 14104 net.cpp:425] inception_4d/pool <- inception_4c/output_inception_4c/output_0_split_3
I0403 15:05:35.849156 14104 net.cpp:399] inception_4d/pool -> inception_4d/pool
I0403 15:05:35.849222 14104 net.cpp:141] Setting up inception_4d/pool
I0403 15:05:35.849246 14104 net.cpp:148] Top shape: 24 512 14 14 (2408448)
I0403 15:05:35.849259 14104 net.cpp:156] Memory required for data: 1144900896
I0403 15:05:35.849272 14104 layer_factory.hpp:77] Creating layer inception_4d/pool_proj
I0403 15:05:35.849293 14104 net.cpp:91] Creating Layer inception_4d/pool_proj
I0403 15:05:35.849310 14104 net.cpp:425] inception_4d/pool_proj <- inception_4d/pool
I0403 15:05:35.849330 14104 net.cpp:399] inception_4d/pool_proj -> inception_4d/pool_proj
I0403 15:05:35.851073 14104 net.cpp:141] Setting up inception_4d/pool_proj
I0403 15:05:35.851104 14104 net.cpp:148] Top shape: 24 64 14 14 (301056)
I0403 15:05:35.851119 14104 net.cpp:156] Memory required for data: 1146105120
I0403 15:05:35.851137 14104 layer_factory.hpp:77] Creating layer inception_4d/relu_pool_proj
I0403 15:05:35.851153 14104 net.cpp:91] Creating Layer inception_4d/relu_pool_proj
I0403 15:05:35.851169 14104 net.cpp:425] inception_4d/relu_pool_proj <- inception_4d/pool_proj
I0403 15:05:35.851187 14104 net.cpp:386] inception_4d/relu_pool_proj -> inception_4d/pool_proj (in-place)
I0403 15:05:35.851372 14104 net.cpp:141] Setting up inception_4d/relu_pool_proj
I0403 15:05:35.851395 14104 net.cpp:148] Top shape: 24 64 14 14 (301056)
I0403 15:05:35.851409 14104 net.cpp:156] Memory required for data: 1147309344
I0403 15:05:35.851423 14104 layer_factory.hpp:77] Creating layer inception_4d/output
I0403 15:05:35.851438 14104 net.cpp:91] Creating Layer inception_4d/output
I0403 15:05:35.851454 14104 net.cpp:425] inception_4d/output <- inception_4d/1x1
I0403 15:05:35.851469 14104 net.cpp:425] inception_4d/output <- inception_4d/3x3
I0403 15:05:35.851483 14104 net.cpp:425] inception_4d/output <- inception_4d/5x5
I0403 15:05:35.851498 14104 net.cpp:425] inception_4d/output <- inception_4d/pool_proj
I0403 15:05:35.851516 14104 net.cpp:399] inception_4d/output -> inception_4d/output
I0403 15:05:35.851565 14104 net.cpp:141] Setting up inception_4d/output
I0403 15:05:35.851588 14104 net.cpp:148] Top shape: 24 528 14 14 (2483712)
I0403 15:05:35.851605 14104 net.cpp:156] Memory required for data: 1157244192
I0403 15:05:35.851620 14104 layer_factory.hpp:77] Creating layer inception_4d/output_inception_4d/output_0_split
I0403 15:05:35.851636 14104 net.cpp:91] Creating Layer inception_4d/output_inception_4d/output_0_split
I0403 15:05:35.851651 14104 net.cpp:425] inception_4d/output_inception_4d/output_0_split <- inception_4d/output
I0403 15:05:35.851671 14104 net.cpp:399] inception_4d/output_inception_4d/output_0_split -> inception_4d/output_inception_4d/output_0_split_0
I0403 15:05:35.851692 14104 net.cpp:399] inception_4d/output_inception_4d/output_0_split -> inception_4d/output_inception_4d/output_0_split_1
I0403 15:05:35.851713 14104 net.cpp:399] inception_4d/output_inception_4d/output_0_split -> inception_4d/output_inception_4d/output_0_split_2
I0403 15:05:35.851733 14104 net.cpp:399] inception_4d/output_inception_4d/output_0_split -> inception_4d/output_inception_4d/output_0_split_3
I0403 15:05:35.851752 14104 net.cpp:399] inception_4d/output_inception_4d/output_0_split -> inception_4d/output_inception_4d/output_0_split_4
I0403 15:05:35.851851 14104 net.cpp:141] Setting up inception_4d/output_inception_4d/output_0_split
I0403 15:05:35.851887 14104 net.cpp:148] Top shape: 24 528 14 14 (2483712)
I0403 15:05:35.851905 14104 net.cpp:148] Top shape: 24 528 14 14 (2483712)
I0403 15:05:35.851919 14104 net.cpp:148] Top shape: 24 528 14 14 (2483712)
I0403 15:05:35.851933 14104 net.cpp:148] Top shape: 24 528 14 14 (2483712)
I0403 15:05:35.851948 14104 net.cpp:148] Top shape: 24 528 14 14 (2483712)
I0403 15:05:35.851959 14104 net.cpp:156] Memory required for data: 1206918432
I0403 15:05:35.851974 14104 layer_factory.hpp:77] Creating layer loss2/ave_pool
I0403 15:05:35.851989 14104 net.cpp:91] Creating Layer loss2/ave_pool
I0403 15:05:35.852005 14104 net.cpp:425] loss2/ave_pool <- inception_4d/output_inception_4d/output_0_split_0
I0403 15:05:35.852025 14104 net.cpp:399] loss2/ave_pool -> loss2/ave_pool
I0403 15:05:35.852334 14104 net.cpp:141] Setting up loss2/ave_pool
I0403 15:05:35.852361 14104 net.cpp:148] Top shape: 24 528 4 4 (202752)
I0403 15:05:35.852377 14104 net.cpp:156] Memory required for data: 1207729440
I0403 15:05:35.852391 14104 layer_factory.hpp:77] Creating layer loss2/conv
I0403 15:05:35.852411 14104 net.cpp:91] Creating Layer loss2/conv
I0403 15:05:35.852429 14104 net.cpp:425] loss2/conv <- loss2/ave_pool
I0403 15:05:35.852448 14104 net.cpp:399] loss2/conv -> loss2/conv
I0403 15:05:35.854310 14104 net.cpp:141] Setting up loss2/conv
I0403 15:05:35.854337 14104 net.cpp:148] Top shape: 24 128 4 4 (49152)
I0403 15:05:35.854352 14104 net.cpp:156] Memory required for data: 1207926048
I0403 15:05:35.854368 14104 layer_factory.hpp:77] Creating layer loss2/relu_conv
I0403 15:05:35.854388 14104 net.cpp:91] Creating Layer loss2/relu_conv
I0403 15:05:35.854404 14104 net.cpp:425] loss2/relu_conv <- loss2/conv
I0403 15:05:35.854420 14104 net.cpp:386] loss2/relu_conv -> loss2/conv (in-place)
I0403 15:05:35.854718 14104 net.cpp:141] Setting up loss2/relu_conv
I0403 15:05:35.854744 14104 net.cpp:148] Top shape: 24 128 4 4 (49152)
I0403 15:05:35.854758 14104 net.cpp:156] Memory required for data: 1208122656
I0403 15:05:35.854773 14104 layer_factory.hpp:77] Creating layer loss2/fc
I0403 15:05:35.854792 14104 net.cpp:91] Creating Layer loss2/fc
I0403 15:05:35.854809 14104 net.cpp:425] loss2/fc <- loss2/conv
I0403 15:05:35.854828 14104 net.cpp:399] loss2/fc -> loss2/fc
I0403 15:05:35.872001 14104 net.cpp:141] Setting up loss2/fc
I0403 15:05:35.872032 14104 net.cpp:148] Top shape: 24 1024 (24576)
I0403 15:05:35.872047 14104 net.cpp:156] Memory required for data: 1208220960
I0403 15:05:35.872064 14104 layer_factory.hpp:77] Creating layer loss2/relu_fc
I0403 15:05:35.872081 14104 net.cpp:91] Creating Layer loss2/relu_fc
I0403 15:05:35.872095 14104 net.cpp:425] loss2/relu_fc <- loss2/fc
I0403 15:05:35.872113 14104 net.cpp:386] loss2/relu_fc -> loss2/fc (in-place)
I0403 15:05:35.872414 14104 net.cpp:141] Setting up loss2/relu_fc
I0403 15:05:35.872440 14104 net.cpp:148] Top shape: 24 1024 (24576)
I0403 15:05:35.872454 14104 net.cpp:156] Memory required for data: 1208319264
I0403 15:05:35.872468 14104 layer_factory.hpp:77] Creating layer loss2/drop_fc
I0403 15:05:35.872485 14104 net.cpp:91] Creating Layer loss2/drop_fc
I0403 15:05:35.872499 14104 net.cpp:425] loss2/drop_fc <- loss2/fc
I0403 15:05:35.872517 14104 net.cpp:386] loss2/drop_fc -> loss2/fc (in-place)
I0403 15:05:35.872565 14104 net.cpp:141] Setting up loss2/drop_fc
I0403 15:05:35.872591 14104 net.cpp:148] Top shape: 24 1024 (24576)
I0403 15:05:35.872609 14104 net.cpp:156] Memory required for data: 1208417568
I0403 15:05:35.872623 14104 layer_factory.hpp:77] Creating layer loss2/classifier_plantvillage
I0403 15:05:35.872640 14104 net.cpp:91] Creating Layer loss2/classifier_plantvillage
I0403 15:05:35.872655 14104 net.cpp:425] loss2/classifier_plantvillage <- loss2/fc
I0403 15:05:35.872675 14104 net.cpp:399] loss2/classifier_plantvillage -> loss2/classifier_plantvillage
I0403 15:05:35.873072 14104 net.cpp:141] Setting up loss2/classifier_plantvillage
I0403 15:05:35.873096 14104 net.cpp:148] Top shape: 24 38 (912)
I0403 15:05:35.873111 14104 net.cpp:156] Memory required for data: 1208421216
I0403 15:05:35.873143 14104 layer_factory.hpp:77] Creating layer loss2/classifier_plantvillage_loss2/classifier_plantvillage_0_split
I0403 15:05:35.873163 14104 net.cpp:91] Creating Layer loss2/classifier_plantvillage_loss2/classifier_plantvillage_0_split
I0403 15:05:35.873179 14104 net.cpp:425] loss2/classifier_plantvillage_loss2/classifier_plantvillage_0_split <- loss2/classifier_plantvillage
I0403 15:05:35.873196 14104 net.cpp:399] loss2/classifier_plantvillage_loss2/classifier_plantvillage_0_split -> loss2/classifier_plantvillage_loss2/classifier_plantvillage_0_split_0
I0403 15:05:35.873215 14104 net.cpp:399] loss2/classifier_plantvillage_loss2/classifier_plantvillage_0_split -> loss2/classifier_plantvillage_loss2/classifier_plantvillage_0_split_1
I0403 15:05:35.873239 14104 net.cpp:399] loss2/classifier_plantvillage_loss2/classifier_plantvillage_0_split -> loss2/classifier_plantvillage_loss2/classifier_plantvillage_0_split_2
I0403 15:05:35.873317 14104 net.cpp:141] Setting up loss2/classifier_plantvillage_loss2/classifier_plantvillage_0_split
I0403 15:05:35.873338 14104 net.cpp:148] Top shape: 24 38 (912)
I0403 15:05:35.873353 14104 net.cpp:148] Top shape: 24 38 (912)
I0403 15:05:35.873368 14104 net.cpp:148] Top shape: 24 38 (912)
I0403 15:05:35.873379 14104 net.cpp:156] Memory required for data: 1208432160
I0403 15:05:35.873394 14104 layer_factory.hpp:77] Creating layer inception_4e/1x1
I0403 15:05:35.873414 14104 net.cpp:91] Creating Layer inception_4e/1x1
I0403 15:05:35.873431 14104 net.cpp:425] inception_4e/1x1 <- inception_4d/output_inception_4d/output_0_split_1
I0403 15:05:35.873450 14104 net.cpp:399] inception_4e/1x1 -> inception_4e/1x1
I0403 15:05:35.875289 14104 net.cpp:141] Setting up inception_4e/1x1
I0403 15:05:35.875319 14104 net.cpp:148] Top shape: 24 256 14 14 (1204224)
I0403 15:05:35.875334 14104 net.cpp:156] Memory required for data: 1213249056
I0403 15:05:35.875350 14104 layer_factory.hpp:77] Creating layer inception_4e/relu_1x1
I0403 15:05:35.875371 14104 net.cpp:91] Creating Layer inception_4e/relu_1x1
I0403 15:05:35.875387 14104 net.cpp:425] inception_4e/relu_1x1 <- inception_4e/1x1
I0403 15:05:35.875404 14104 net.cpp:386] inception_4e/relu_1x1 -> inception_4e/1x1 (in-place)
I0403 15:05:35.875712 14104 net.cpp:141] Setting up inception_4e/relu_1x1
I0403 15:05:35.875740 14104 net.cpp:148] Top shape: 24 256 14 14 (1204224)
I0403 15:05:35.875753 14104 net.cpp:156] Memory required for data: 1218065952
I0403 15:05:35.875768 14104 layer_factory.hpp:77] Creating layer inception_4e/3x3_reduce
I0403 15:05:35.875789 14104 net.cpp:91] Creating Layer inception_4e/3x3_reduce
I0403 15:05:35.875807 14104 net.cpp:425] inception_4e/3x3_reduce <- inception_4d/output_inception_4d/output_0_split_2
I0403 15:05:35.875826 14104 net.cpp:399] inception_4e/3x3_reduce -> inception_4e/3x3_reduce
I0403 15:05:35.877962 14104 net.cpp:141] Setting up inception_4e/3x3_reduce
I0403 15:05:35.877992 14104 net.cpp:148] Top shape: 24 160 14 14 (752640)
I0403 15:05:35.878008 14104 net.cpp:156] Memory required for data: 1221076512
I0403 15:05:35.878026 14104 layer_factory.hpp:77] Creating layer inception_4e/relu_3x3_reduce
I0403 15:05:35.878046 14104 net.cpp:91] Creating Layer inception_4e/relu_3x3_reduce
I0403 15:05:35.878062 14104 net.cpp:425] inception_4e/relu_3x3_reduce <- inception_4e/3x3_reduce
I0403 15:05:35.878079 14104 net.cpp:386] inception_4e/relu_3x3_reduce -> inception_4e/3x3_reduce (in-place)
I0403 15:05:35.878269 14104 net.cpp:141] Setting up inception_4e/relu_3x3_reduce
I0403 15:05:35.878298 14104 net.cpp:148] Top shape: 24 160 14 14 (752640)
I0403 15:05:35.878314 14104 net.cpp:156] Memory required for data: 1224087072
I0403 15:05:35.878327 14104 layer_factory.hpp:77] Creating layer inception_4e/3x3
I0403 15:05:35.878351 14104 net.cpp:91] Creating Layer inception_4e/3x3
I0403 15:05:35.878368 14104 net.cpp:425] inception_4e/3x3 <- inception_4e/3x3_reduce
I0403 15:05:35.878386 14104 net.cpp:399] inception_4e/3x3 -> inception_4e/3x3
I0403 15:05:35.883407 14104 net.cpp:141] Setting up inception_4e/3x3
I0403 15:05:35.883450 14104 net.cpp:148] Top shape: 24 320 14 14 (1505280)
I0403 15:05:35.883467 14104 net.cpp:156] Memory required for data: 1230108192
I0403 15:05:35.883486 14104 layer_factory.hpp:77] Creating layer inception_4e/relu_3x3
I0403 15:05:35.883502 14104 net.cpp:91] Creating Layer inception_4e/relu_3x3
I0403 15:05:35.883518 14104 net.cpp:425] inception_4e/relu_3x3 <- inception_4e/3x3
I0403 15:05:35.883535 14104 net.cpp:386] inception_4e/relu_3x3 -> inception_4e/3x3 (in-place)
I0403 15:05:35.883851 14104 net.cpp:141] Setting up inception_4e/relu_3x3
I0403 15:05:35.883878 14104 net.cpp:148] Top shape: 24 320 14 14 (1505280)
I0403 15:05:35.883893 14104 net.cpp:156] Memory required for data: 1236129312
I0403 15:05:35.883908 14104 layer_factory.hpp:77] Creating layer inception_4e/5x5_reduce
I0403 15:05:35.883929 14104 net.cpp:91] Creating Layer inception_4e/5x5_reduce
I0403 15:05:35.883946 14104 net.cpp:425] inception_4e/5x5_reduce <- inception_4d/output_inception_4d/output_0_split_3
I0403 15:05:35.883967 14104 net.cpp:399] inception_4e/5x5_reduce -> inception_4e/5x5_reduce
I0403 15:05:35.885076 14104 net.cpp:141] Setting up inception_4e/5x5_reduce
I0403 15:05:35.885102 14104 net.cpp:148] Top shape: 24 32 14 14 (150528)
I0403 15:05:35.885118 14104 net.cpp:156] Memory required for data: 1236731424
I0403 15:05:35.885135 14104 layer_factory.hpp:77] Creating layer inception_4e/relu_5x5_reduce
I0403 15:05:35.885155 14104 net.cpp:91] Creating Layer inception_4e/relu_5x5_reduce
I0403 15:05:35.885172 14104 net.cpp:425] inception_4e/relu_5x5_reduce <- inception_4e/5x5_reduce
I0403 15:05:35.885190 14104 net.cpp:386] inception_4e/relu_5x5_reduce -> inception_4e/5x5_reduce (in-place)
I0403 15:05:35.885498 14104 net.cpp:141] Setting up inception_4e/relu_5x5_reduce
I0403 15:05:35.885524 14104 net.cpp:148] Top shape: 24 32 14 14 (150528)
I0403 15:05:35.885537 14104 net.cpp:156] Memory required for data: 1237333536
I0403 15:05:35.885551 14104 layer_factory.hpp:77] Creating layer inception_4e/5x5
I0403 15:05:35.885591 14104 net.cpp:91] Creating Layer inception_4e/5x5
I0403 15:05:35.885613 14104 net.cpp:425] inception_4e/5x5 <- inception_4e/5x5_reduce
I0403 15:05:35.885633 14104 net.cpp:399] inception_4e/5x5 -> inception_4e/5x5
I0403 15:05:35.887531 14104 net.cpp:141] Setting up inception_4e/5x5
I0403 15:05:35.887559 14104 net.cpp:148] Top shape: 24 128 14 14 (602112)
I0403 15:05:35.887574 14104 net.cpp:156] Memory required for data: 1239741984
I0403 15:05:35.887593 14104 layer_factory.hpp:77] Creating layer inception_4e/relu_5x5
I0403 15:05:35.887614 14104 net.cpp:91] Creating Layer inception_4e/relu_5x5
I0403 15:05:35.887635 14104 net.cpp:425] inception_4e/relu_5x5 <- inception_4e/5x5
I0403 15:05:35.887652 14104 net.cpp:386] inception_4e/relu_5x5 -> inception_4e/5x5 (in-place)
I0403 15:05:35.887857 14104 net.cpp:141] Setting up inception_4e/relu_5x5
I0403 15:05:35.887882 14104 net.cpp:148] Top shape: 24 128 14 14 (602112)
I0403 15:05:35.887895 14104 net.cpp:156] Memory required for data: 1242150432
I0403 15:05:35.887909 14104 layer_factory.hpp:77] Creating layer inception_4e/pool
I0403 15:05:35.887930 14104 net.cpp:91] Creating Layer inception_4e/pool
I0403 15:05:35.887946 14104 net.cpp:425] inception_4e/pool <- inception_4d/output_inception_4d/output_0_split_4
I0403 15:05:35.887964 14104 net.cpp:399] inception_4e/pool -> inception_4e/pool
I0403 15:05:35.888037 14104 net.cpp:141] Setting up inception_4e/pool
I0403 15:05:35.888061 14104 net.cpp:148] Top shape: 24 528 14 14 (2483712)
I0403 15:05:35.888074 14104 net.cpp:156] Memory required for data: 1252085280
I0403 15:05:35.888088 14104 layer_factory.hpp:77] Creating layer inception_4e/pool_proj
I0403 15:05:35.888109 14104 net.cpp:91] Creating Layer inception_4e/pool_proj
I0403 15:05:35.888126 14104 net.cpp:425] inception_4e/pool_proj <- inception_4e/pool
I0403 15:05:35.888146 14104 net.cpp:399] inception_4e/pool_proj -> inception_4e/pool_proj
I0403 15:05:35.889703 14104 net.cpp:141] Setting up inception_4e/pool_proj
I0403 15:05:35.889734 14104 net.cpp:148] Top shape: 24 128 14 14 (602112)
I0403 15:05:35.889762 14104 net.cpp:156] Memory required for data: 1254493728
I0403 15:05:35.889782 14104 layer_factory.hpp:77] Creating layer inception_4e/relu_pool_proj
I0403 15:05:35.889801 14104 net.cpp:91] Creating Layer inception_4e/relu_pool_proj
I0403 15:05:35.889816 14104 net.cpp:425] inception_4e/relu_pool_proj <- inception_4e/pool_proj
I0403 15:05:35.889835 14104 net.cpp:386] inception_4e/relu_pool_proj -> inception_4e/pool_proj (in-place)
I0403 15:05:35.890136 14104 net.cpp:141] Setting up inception_4e/relu_pool_proj
I0403 15:05:35.890164 14104 net.cpp:148] Top shape: 24 128 14 14 (602112)
I0403 15:05:35.890180 14104 net.cpp:156] Memory required for data: 1256902176
I0403 15:05:35.890194 14104 layer_factory.hpp:77] Creating layer inception_4e/output
I0403 15:05:35.890211 14104 net.cpp:91] Creating Layer inception_4e/output
I0403 15:05:35.890226 14104 net.cpp:425] inception_4e/output <- inception_4e/1x1
I0403 15:05:35.890242 14104 net.cpp:425] inception_4e/output <- inception_4e/3x3
I0403 15:05:35.890257 14104 net.cpp:425] inception_4e/output <- inception_4e/5x5
I0403 15:05:35.890272 14104 net.cpp:425] inception_4e/output <- inception_4e/pool_proj
I0403 15:05:35.890290 14104 net.cpp:399] inception_4e/output -> inception_4e/output
I0403 15:05:35.890341 14104 net.cpp:141] Setting up inception_4e/output
I0403 15:05:35.890363 14104 net.cpp:148] Top shape: 24 832 14 14 (3913728)
I0403 15:05:35.890377 14104 net.cpp:156] Memory required for data: 1272557088
I0403 15:05:35.890391 14104 layer_factory.hpp:77] Creating layer pool4/3x3_s2
I0403 15:05:35.890410 14104 net.cpp:91] Creating Layer pool4/3x3_s2
I0403 15:05:35.890426 14104 net.cpp:425] pool4/3x3_s2 <- inception_4e/output
I0403 15:05:35.890444 14104 net.cpp:399] pool4/3x3_s2 -> pool4/3x3_s2
I0403 15:05:35.890513 14104 net.cpp:141] Setting up pool4/3x3_s2
I0403 15:05:35.890537 14104 net.cpp:148] Top shape: 24 832 7 7 (978432)
I0403 15:05:35.890552 14104 net.cpp:156] Memory required for data: 1276470816
I0403 15:05:35.890564 14104 layer_factory.hpp:77] Creating layer pool4/3x3_s2_pool4/3x3_s2_0_split
I0403 15:05:35.890583 14104 net.cpp:91] Creating Layer pool4/3x3_s2_pool4/3x3_s2_0_split
I0403 15:05:35.890602 14104 net.cpp:425] pool4/3x3_s2_pool4/3x3_s2_0_split <- pool4/3x3_s2
I0403 15:05:35.890621 14104 net.cpp:399] pool4/3x3_s2_pool4/3x3_s2_0_split -> pool4/3x3_s2_pool4/3x3_s2_0_split_0
I0403 15:05:35.890642 14104 net.cpp:399] pool4/3x3_s2_pool4/3x3_s2_0_split -> pool4/3x3_s2_pool4/3x3_s2_0_split_1
I0403 15:05:35.890661 14104 net.cpp:399] pool4/3x3_s2_pool4/3x3_s2_0_split -> pool4/3x3_s2_pool4/3x3_s2_0_split_2
I0403 15:05:35.890681 14104 net.cpp:399] pool4/3x3_s2_pool4/3x3_s2_0_split -> pool4/3x3_s2_pool4/3x3_s2_0_split_3
I0403 15:05:35.890774 14104 net.cpp:141] Setting up pool4/3x3_s2_pool4/3x3_s2_0_split
I0403 15:05:35.890797 14104 net.cpp:148] Top shape: 24 832 7 7 (978432)
I0403 15:05:35.890812 14104 net.cpp:148] Top shape: 24 832 7 7 (978432)
I0403 15:05:35.890827 14104 net.cpp:148] Top shape: 24 832 7 7 (978432)
I0403 15:05:35.890841 14104 net.cpp:148] Top shape: 24 832 7 7 (978432)
I0403 15:05:35.890854 14104 net.cpp:156] Memory required for data: 1292125728
I0403 15:05:35.890868 14104 layer_factory.hpp:77] Creating layer inception_5a/1x1
I0403 15:05:35.890889 14104 net.cpp:91] Creating Layer inception_5a/1x1
I0403 15:05:35.890907 14104 net.cpp:425] inception_5a/1x1 <- pool4/3x3_s2_pool4/3x3_s2_0_split_0
I0403 15:05:35.890928 14104 net.cpp:399] inception_5a/1x1 -> inception_5a/1x1
I0403 15:05:35.893813 14104 net.cpp:141] Setting up inception_5a/1x1
I0403 15:05:35.893843 14104 net.cpp:148] Top shape: 24 256 7 7 (301056)
I0403 15:05:35.893858 14104 net.cpp:156] Memory required for data: 1293329952
I0403 15:05:35.893875 14104 layer_factory.hpp:77] Creating layer inception_5a/relu_1x1
I0403 15:05:35.893895 14104 net.cpp:91] Creating Layer inception_5a/relu_1x1
I0403 15:05:35.893913 14104 net.cpp:425] inception_5a/relu_1x1 <- inception_5a/1x1
I0403 15:05:35.893929 14104 net.cpp:386] inception_5a/relu_1x1 -> inception_5a/1x1 (in-place)
I0403 15:05:35.894251 14104 net.cpp:141] Setting up inception_5a/relu_1x1
I0403 15:05:35.894279 14104 net.cpp:148] Top shape: 24 256 7 7 (301056)
I0403 15:05:35.894294 14104 net.cpp:156] Memory required for data: 1294534176
I0403 15:05:35.894307 14104 layer_factory.hpp:77] Creating layer inception_5a/3x3_reduce
I0403 15:05:35.894330 14104 net.cpp:91] Creating Layer inception_5a/3x3_reduce
I0403 15:05:35.894346 14104 net.cpp:425] inception_5a/3x3_reduce <- pool4/3x3_s2_pool4/3x3_s2_0_split_1
I0403 15:05:35.894367 14104 net.cpp:399] inception_5a/3x3_reduce -> inception_5a/3x3_reduce
I0403 15:05:35.896865 14104 net.cpp:141] Setting up inception_5a/3x3_reduce
I0403 15:05:35.896899 14104 net.cpp:148] Top shape: 24 160 7 7 (188160)
I0403 15:05:35.896915 14104 net.cpp:156] Memory required for data: 1295286816
I0403 15:05:35.896934 14104 layer_factory.hpp:77] Creating layer inception_5a/relu_3x3_reduce
I0403 15:05:35.896951 14104 net.cpp:91] Creating Layer inception_5a/relu_3x3_reduce
I0403 15:05:35.896966 14104 net.cpp:425] inception_5a/relu_3x3_reduce <- inception_5a/3x3_reduce
I0403 15:05:35.896986 14104 net.cpp:386] inception_5a/relu_3x3_reduce -> inception_5a/3x3_reduce (in-place)
I0403 15:05:35.897178 14104 net.cpp:141] Setting up inception_5a/relu_3x3_reduce
I0403 15:05:35.897203 14104 net.cpp:148] Top shape: 24 160 7 7 (188160)
I0403 15:05:35.897217 14104 net.cpp:156] Memory required for data: 1296039456
I0403 15:05:35.897231 14104 layer_factory.hpp:77] Creating layer inception_5a/3x3
I0403 15:05:35.897253 14104 net.cpp:91] Creating Layer inception_5a/3x3
I0403 15:05:35.897270 14104 net.cpp:425] inception_5a/3x3 <- inception_5a/3x3_reduce
I0403 15:05:35.897291 14104 net.cpp:399] inception_5a/3x3 -> inception_5a/3x3
I0403 15:05:35.902356 14104 net.cpp:141] Setting up inception_5a/3x3
I0403 15:05:35.902386 14104 net.cpp:148] Top shape: 24 320 7 7 (376320)
I0403 15:05:35.902401 14104 net.cpp:156] Memory required for data: 1297544736
I0403 15:05:35.902420 14104 layer_factory.hpp:77] Creating layer inception_5a/relu_3x3
I0403 15:05:35.902439 14104 net.cpp:91] Creating Layer inception_5a/relu_3x3
I0403 15:05:35.902456 14104 net.cpp:425] inception_5a/relu_3x3 <- inception_5a/3x3
I0403 15:05:35.902472 14104 net.cpp:386] inception_5a/relu_3x3 -> inception_5a/3x3 (in-place)
I0403 15:05:35.902781 14104 net.cpp:141] Setting up inception_5a/relu_3x3
I0403 15:05:35.902808 14104 net.cpp:148] Top shape: 24 320 7 7 (376320)
I0403 15:05:35.902822 14104 net.cpp:156] Memory required for data: 1299050016
I0403 15:05:35.902837 14104 layer_factory.hpp:77] Creating layer inception_5a/5x5_reduce
I0403 15:05:35.902858 14104 net.cpp:91] Creating Layer inception_5a/5x5_reduce
I0403 15:05:35.902875 14104 net.cpp:425] inception_5a/5x5_reduce <- pool4/3x3_s2_pool4/3x3_s2_0_split_2
I0403 15:05:35.902897 14104 net.cpp:399] inception_5a/5x5_reduce -> inception_5a/5x5_reduce
I0403 15:05:35.904096 14104 net.cpp:141] Setting up inception_5a/5x5_reduce
I0403 15:05:35.904125 14104 net.cpp:148] Top shape: 24 32 7 7 (37632)
I0403 15:05:35.904141 14104 net.cpp:156] Memory required for data: 1299200544
I0403 15:05:35.904158 14104 layer_factory.hpp:77] Creating layer inception_5a/relu_5x5_reduce
I0403 15:05:35.904178 14104 net.cpp:91] Creating Layer inception_5a/relu_5x5_reduce
I0403 15:05:35.904194 14104 net.cpp:425] inception_5a/relu_5x5_reduce <- inception_5a/5x5_reduce
I0403 15:05:35.904211 14104 net.cpp:386] inception_5a/relu_5x5_reduce -> inception_5a/5x5_reduce (in-place)
I0403 15:05:35.904517 14104 net.cpp:141] Setting up inception_5a/relu_5x5_reduce
I0403 15:05:35.904546 14104 net.cpp:148] Top shape: 24 32 7 7 (37632)
I0403 15:05:35.904561 14104 net.cpp:156] Memory required for data: 1299351072
I0403 15:05:35.904573 14104 layer_factory.hpp:77] Creating layer inception_5a/5x5
I0403 15:05:35.904595 14104 net.cpp:91] Creating Layer inception_5a/5x5
I0403 15:05:35.904624 14104 net.cpp:425] inception_5a/5x5 <- inception_5a/5x5_reduce
I0403 15:05:35.904646 14104 net.cpp:399] inception_5a/5x5 -> inception_5a/5x5
I0403 15:05:35.906397 14104 net.cpp:141] Setting up inception_5a/5x5
I0403 15:05:35.906438 14104 net.cpp:148] Top shape: 24 128 7 7 (150528)
I0403 15:05:35.906455 14104 net.cpp:156] Memory required for data: 1299953184
I0403 15:05:35.906471 14104 layer_factory.hpp:77] Creating layer inception_5a/relu_5x5
I0403 15:05:35.906491 14104 net.cpp:91] Creating Layer inception_5a/relu_5x5
I0403 15:05:35.906507 14104 net.cpp:425] inception_5a/relu_5x5 <- inception_5a/5x5
I0403 15:05:35.906523 14104 net.cpp:386] inception_5a/relu_5x5 -> inception_5a/5x5 (in-place)
I0403 15:05:35.906724 14104 net.cpp:141] Setting up inception_5a/relu_5x5
I0403 15:05:35.906750 14104 net.cpp:148] Top shape: 24 128 7 7 (150528)
I0403 15:05:35.906764 14104 net.cpp:156] Memory required for data: 1300555296
I0403 15:05:35.906779 14104 layer_factory.hpp:77] Creating layer inception_5a/pool
I0403 15:05:35.906797 14104 net.cpp:91] Creating Layer inception_5a/pool
I0403 15:05:35.906815 14104 net.cpp:425] inception_5a/pool <- pool4/3x3_s2_pool4/3x3_s2_0_split_3
I0403 15:05:35.906832 14104 net.cpp:399] inception_5a/pool -> inception_5a/pool
I0403 15:05:35.906906 14104 net.cpp:141] Setting up inception_5a/pool
I0403 15:05:35.906930 14104 net.cpp:148] Top shape: 24 832 7 7 (978432)
I0403 15:05:35.906945 14104 net.cpp:156] Memory required for data: 1304469024
I0403 15:05:35.906960 14104 layer_factory.hpp:77] Creating layer inception_5a/pool_proj
I0403 15:05:35.906980 14104 net.cpp:91] Creating Layer inception_5a/pool_proj
I0403 15:05:35.906997 14104 net.cpp:425] inception_5a/pool_proj <- inception_5a/pool
I0403 15:05:35.907017 14104 net.cpp:399] inception_5a/pool_proj -> inception_5a/pool_proj
I0403 15:05:35.909373 14104 net.cpp:141] Setting up inception_5a/pool_proj
I0403 15:05:35.909402 14104 net.cpp:148] Top shape: 24 128 7 7 (150528)
I0403 15:05:35.909418 14104 net.cpp:156] Memory required for data: 1305071136
I0403 15:05:35.909435 14104 layer_factory.hpp:77] Creating layer inception_5a/relu_pool_proj
I0403 15:05:35.909453 14104 net.cpp:91] Creating Layer inception_5a/relu_pool_proj
I0403 15:05:35.909469 14104 net.cpp:425] inception_5a/relu_pool_proj <- inception_5a/pool_proj
I0403 15:05:35.909487 14104 net.cpp:386] inception_5a/relu_pool_proj -> inception_5a/pool_proj (in-place)
I0403 15:05:35.909795 14104 net.cpp:141] Setting up inception_5a/relu_pool_proj
I0403 15:05:35.909821 14104 net.cpp:148] Top shape: 24 128 7 7 (150528)
I0403 15:05:35.909835 14104 net.cpp:156] Memory required for data: 1305673248
I0403 15:05:35.909849 14104 layer_factory.hpp:77] Creating layer inception_5a/output
I0403 15:05:35.909867 14104 net.cpp:91] Creating Layer inception_5a/output
I0403 15:05:35.909883 14104 net.cpp:425] inception_5a/output <- inception_5a/1x1
I0403 15:05:35.909898 14104 net.cpp:425] inception_5a/output <- inception_5a/3x3
I0403 15:05:35.909914 14104 net.cpp:425] inception_5a/output <- inception_5a/5x5
I0403 15:05:35.909929 14104 net.cpp:425] inception_5a/output <- inception_5a/pool_proj
I0403 15:05:35.909946 14104 net.cpp:399] inception_5a/output -> inception_5a/output
I0403 15:05:35.909996 14104 net.cpp:141] Setting up inception_5a/output
I0403 15:05:35.910022 14104 net.cpp:148] Top shape: 24 832 7 7 (978432)
I0403 15:05:35.910037 14104 net.cpp:156] Memory required for data: 1309586976
I0403 15:05:35.910051 14104 layer_factory.hpp:77] Creating layer inception_5a/output_inception_5a/output_0_split
I0403 15:05:35.910068 14104 net.cpp:91] Creating Layer inception_5a/output_inception_5a/output_0_split
I0403 15:05:35.910082 14104 net.cpp:425] inception_5a/output_inception_5a/output_0_split <- inception_5a/output
I0403 15:05:35.910099 14104 net.cpp:399] inception_5a/output_inception_5a/output_0_split -> inception_5a/output_inception_5a/output_0_split_0
I0403 15:05:35.910118 14104 net.cpp:399] inception_5a/output_inception_5a/output_0_split -> inception_5a/output_inception_5a/output_0_split_1
I0403 15:05:35.910140 14104 net.cpp:399] inception_5a/output_inception_5a/output_0_split -> inception_5a/output_inception_5a/output_0_split_2
I0403 15:05:35.910162 14104 net.cpp:399] inception_5a/output_inception_5a/output_0_split -> inception_5a/output_inception_5a/output_0_split_3
I0403 15:05:35.910277 14104 net.cpp:141] Setting up inception_5a/output_inception_5a/output_0_split
I0403 15:05:35.910301 14104 net.cpp:148] Top shape: 24 832 7 7 (978432)
I0403 15:05:35.910316 14104 net.cpp:148] Top shape: 24 832 7 7 (978432)
I0403 15:05:35.910331 14104 net.cpp:148] Top shape: 24 832 7 7 (978432)
I0403 15:05:35.910346 14104 net.cpp:148] Top shape: 24 832 7 7 (978432)
I0403 15:05:35.910361 14104 net.cpp:156] Memory required for data: 1325241888
I0403 15:05:35.910373 14104 layer_factory.hpp:77] Creating layer inception_5b/1x1
I0403 15:05:35.910395 14104 net.cpp:91] Creating Layer inception_5b/1x1
I0403 15:05:35.910413 14104 net.cpp:425] inception_5b/1x1 <- inception_5a/output_inception_5a/output_0_split_0
I0403 15:05:35.910434 14104 net.cpp:399] inception_5b/1x1 -> inception_5b/1x1
I0403 15:05:35.914235 14104 net.cpp:141] Setting up inception_5b/1x1
I0403 15:05:35.914268 14104 net.cpp:148] Top shape: 24 384 7 7 (451584)
I0403 15:05:35.914284 14104 net.cpp:156] Memory required for data: 1327048224
I0403 15:05:35.914302 14104 layer_factory.hpp:77] Creating layer inception_5b/relu_1x1
I0403 15:05:35.914320 14104 net.cpp:91] Creating Layer inception_5b/relu_1x1
I0403 15:05:35.914335 14104 net.cpp:425] inception_5b/relu_1x1 <- inception_5b/1x1
I0403 15:05:35.914355 14104 net.cpp:386] inception_5b/relu_1x1 -> inception_5b/1x1 (in-place)
I0403 15:05:35.914677 14104 net.cpp:141] Setting up inception_5b/relu_1x1
I0403 15:05:35.914705 14104 net.cpp:148] Top shape: 24 384 7 7 (451584)
I0403 15:05:35.914721 14104 net.cpp:156] Memory required for data: 1328854560
I0403 15:05:35.914736 14104 layer_factory.hpp:77] Creating layer inception_5b/3x3_reduce
I0403 15:05:35.914757 14104 net.cpp:91] Creating Layer inception_5b/3x3_reduce
I0403 15:05:35.914774 14104 net.cpp:425] inception_5b/3x3_reduce <- inception_5a/output_inception_5a/output_0_split_1
I0403 15:05:35.914793 14104 net.cpp:399] inception_5b/3x3_reduce -> inception_5b/3x3_reduce
I0403 15:05:35.917500 14104 net.cpp:141] Setting up inception_5b/3x3_reduce
I0403 15:05:35.917529 14104 net.cpp:148] Top shape: 24 192 7 7 (225792)
I0403 15:05:35.917546 14104 net.cpp:156] Memory required for data: 1329757728
I0403 15:05:35.917563 14104 layer_factory.hpp:77] Creating layer inception_5b/relu_3x3_reduce
I0403 15:05:35.917580 14104 net.cpp:91] Creating Layer inception_5b/relu_3x3_reduce
I0403 15:05:35.917596 14104 net.cpp:425] inception_5b/relu_3x3_reduce <- inception_5b/3x3_reduce
I0403 15:05:35.917623 14104 net.cpp:386] inception_5b/relu_3x3_reduce -> inception_5b/3x3_reduce (in-place)
I0403 15:05:35.917822 14104 net.cpp:141] Setting up inception_5b/relu_3x3_reduce
I0403 15:05:35.917846 14104 net.cpp:148] Top shape: 24 192 7 7 (225792)
I0403 15:05:35.917861 14104 net.cpp:156] Memory required for data: 1330660896
I0403 15:05:35.917875 14104 layer_factory.hpp:77] Creating layer inception_5b/3x3
I0403 15:05:35.917896 14104 net.cpp:91] Creating Layer inception_5b/3x3
I0403 15:05:35.917913 14104 net.cpp:425] inception_5b/3x3 <- inception_5b/3x3_reduce
I0403 15:05:35.917945 14104 net.cpp:399] inception_5b/3x3 -> inception_5b/3x3
I0403 15:05:35.924479 14104 net.cpp:141] Setting up inception_5b/3x3
I0403 15:05:35.924506 14104 net.cpp:148] Top shape: 24 384 7 7 (451584)
I0403 15:05:35.924521 14104 net.cpp:156] Memory required for data: 1332467232
I0403 15:05:35.924538 14104 layer_factory.hpp:77] Creating layer inception_5b/relu_3x3
I0403 15:05:35.924556 14104 net.cpp:91] Creating Layer inception_5b/relu_3x3
I0403 15:05:35.924571 14104 net.cpp:425] inception_5b/relu_3x3 <- inception_5b/3x3
I0403 15:05:35.924588 14104 net.cpp:386] inception_5b/relu_3x3 -> inception_5b/3x3 (in-place)
I0403 15:05:35.924899 14104 net.cpp:141] Setting up inception_5b/relu_3x3
I0403 15:05:35.924924 14104 net.cpp:148] Top shape: 24 384 7 7 (451584)
I0403 15:05:35.924938 14104 net.cpp:156] Memory required for data: 1334273568
I0403 15:05:35.924952 14104 layer_factory.hpp:77] Creating layer inception_5b/5x5_reduce
I0403 15:05:35.924993 14104 net.cpp:91] Creating Layer inception_5b/5x5_reduce
I0403 15:05:35.925010 14104 net.cpp:425] inception_5b/5x5_reduce <- inception_5a/output_inception_5a/output_0_split_2
I0403 15:05:35.925032 14104 net.cpp:399] inception_5b/5x5_reduce -> inception_5b/5x5_reduce
I0403 15:05:35.926296 14104 net.cpp:141] Setting up inception_5b/5x5_reduce
I0403 15:05:35.926326 14104 net.cpp:148] Top shape: 24 48 7 7 (56448)
I0403 15:05:35.926340 14104 net.cpp:156] Memory required for data: 1334499360
I0403 15:05:35.926358 14104 layer_factory.hpp:77] Creating layer inception_5b/relu_5x5_reduce
I0403 15:05:35.926375 14104 net.cpp:91] Creating Layer inception_5b/relu_5x5_reduce
I0403 15:05:35.926390 14104 net.cpp:425] inception_5b/relu_5x5_reduce <- inception_5b/5x5_reduce
I0403 15:05:35.926409 14104 net.cpp:386] inception_5b/relu_5x5_reduce -> inception_5b/5x5_reduce (in-place)
I0403 15:05:35.926785 14104 net.cpp:141] Setting up inception_5b/relu_5x5_reduce
I0403 15:05:35.926811 14104 net.cpp:148] Top shape: 24 48 7 7 (56448)
I0403 15:05:35.926826 14104 net.cpp:156] Memory required for data: 1334725152
I0403 15:05:35.926839 14104 layer_factory.hpp:77] Creating layer inception_5b/5x5
I0403 15:05:35.926858 14104 net.cpp:91] Creating Layer inception_5b/5x5
I0403 15:05:35.926873 14104 net.cpp:425] inception_5b/5x5 <- inception_5b/5x5_reduce
I0403 15:05:35.926890 14104 net.cpp:399] inception_5b/5x5 -> inception_5b/5x5
I0403 15:05:35.928932 14104 net.cpp:141] Setting up inception_5b/5x5
I0403 15:05:35.928959 14104 net.cpp:148] Top shape: 24 128 7 7 (150528)
I0403 15:05:35.928974 14104 net.cpp:156] Memory required for data: 1335327264
I0403 15:05:35.928992 14104 layer_factory.hpp:77] Creating layer inception_5b/relu_5x5
I0403 15:05:35.929010 14104 net.cpp:91] Creating Layer inception_5b/relu_5x5
I0403 15:05:35.929028 14104 net.cpp:425] inception_5b/relu_5x5 <- inception_5b/5x5
I0403 15:05:35.929044 14104 net.cpp:386] inception_5b/relu_5x5 -> inception_5b/5x5 (in-place)
I0403 15:05:35.929239 14104 net.cpp:141] Setting up inception_5b/relu_5x5
I0403 15:05:35.929262 14104 net.cpp:148] Top shape: 24 128 7 7 (150528)
I0403 15:05:35.929276 14104 net.cpp:156] Memory required for data: 1335929376
I0403 15:05:35.929289 14104 layer_factory.hpp:77] Creating layer inception_5b/pool
I0403 15:05:35.929307 14104 net.cpp:91] Creating Layer inception_5b/pool
I0403 15:05:35.929323 14104 net.cpp:425] inception_5b/pool <- inception_5a/output_inception_5a/output_0_split_3
I0403 15:05:35.929340 14104 net.cpp:399] inception_5b/pool -> inception_5b/pool
I0403 15:05:35.929412 14104 net.cpp:141] Setting up inception_5b/pool
I0403 15:05:35.929436 14104 net.cpp:148] Top shape: 24 832 7 7 (978432)
I0403 15:05:35.929450 14104 net.cpp:156] Memory required for data: 1339843104
I0403 15:05:35.929463 14104 layer_factory.hpp:77] Creating layer inception_5b/pool_proj
I0403 15:05:35.929484 14104 net.cpp:91] Creating Layer inception_5b/pool_proj
I0403 15:05:35.929502 14104 net.cpp:425] inception_5b/pool_proj <- inception_5b/pool
I0403 15:05:35.929522 14104 net.cpp:399] inception_5b/pool_proj -> inception_5b/pool_proj
I0403 15:05:35.931802 14104 net.cpp:141] Setting up inception_5b/pool_proj
I0403 15:05:35.931830 14104 net.cpp:148] Top shape: 24 128 7 7 (150528)
I0403 15:05:35.931846 14104 net.cpp:156] Memory required for data: 1340445216
I0403 15:05:35.931862 14104 layer_factory.hpp:77] Creating layer inception_5b/relu_pool_proj
I0403 15:05:35.931879 14104 net.cpp:91] Creating Layer inception_5b/relu_pool_proj
I0403 15:05:35.931895 14104 net.cpp:425] inception_5b/relu_pool_proj <- inception_5b/pool_proj
I0403 15:05:35.931916 14104 net.cpp:386] inception_5b/relu_pool_proj -> inception_5b/pool_proj (in-place)
I0403 15:05:35.932214 14104 net.cpp:141] Setting up inception_5b/relu_pool_proj
I0403 15:05:35.932238 14104 net.cpp:148] Top shape: 24 128 7 7 (150528)
I0403 15:05:35.932253 14104 net.cpp:156] Memory required for data: 1341047328
I0403 15:05:35.932267 14104 layer_factory.hpp:77] Creating layer inception_5b/output
I0403 15:05:35.932283 14104 net.cpp:91] Creating Layer inception_5b/output
I0403 15:05:35.932313 14104 net.cpp:425] inception_5b/output <- inception_5b/1x1
I0403 15:05:35.932330 14104 net.cpp:425] inception_5b/output <- inception_5b/3x3
I0403 15:05:35.932345 14104 net.cpp:425] inception_5b/output <- inception_5b/5x5
I0403 15:05:35.932360 14104 net.cpp:425] inception_5b/output <- inception_5b/pool_proj
I0403 15:05:35.932379 14104 net.cpp:399] inception_5b/output -> inception_5b/output
I0403 15:05:35.932430 14104 net.cpp:141] Setting up inception_5b/output
I0403 15:05:35.932456 14104 net.cpp:148] Top shape: 24 1024 7 7 (1204224)
I0403 15:05:35.932471 14104 net.cpp:156] Memory required for data: 1345864224
I0403 15:05:35.932483 14104 layer_factory.hpp:77] Creating layer pool5/7x7_s1
I0403 15:05:35.932500 14104 net.cpp:91] Creating Layer pool5/7x7_s1
I0403 15:05:35.932514 14104 net.cpp:425] pool5/7x7_s1 <- inception_5b/output
I0403 15:05:35.932534 14104 net.cpp:399] pool5/7x7_s1 -> pool5/7x7_s1
I0403 15:05:35.932757 14104 net.cpp:141] Setting up pool5/7x7_s1
I0403 15:05:35.932781 14104 net.cpp:148] Top shape: 24 1024 1 1 (24576)
I0403 15:05:35.932796 14104 net.cpp:156] Memory required for data: 1345962528
I0403 15:05:35.932808 14104 layer_factory.hpp:77] Creating layer pool5/drop_7x7_s1
I0403 15:05:35.932824 14104 net.cpp:91] Creating Layer pool5/drop_7x7_s1
I0403 15:05:35.932839 14104 net.cpp:425] pool5/drop_7x7_s1 <- pool5/7x7_s1
I0403 15:05:35.932858 14104 net.cpp:386] pool5/drop_7x7_s1 -> pool5/7x7_s1 (in-place)
I0403 15:05:35.932907 14104 net.cpp:141] Setting up pool5/drop_7x7_s1
I0403 15:05:35.932931 14104 net.cpp:148] Top shape: 24 1024 1 1 (24576)
I0403 15:05:35.932946 14104 net.cpp:156] Memory required for data: 1346060832
I0403 15:05:35.932960 14104 layer_factory.hpp:77] Creating layer loss3/classifier_plantvillage
I0403 15:05:35.932977 14104 net.cpp:91] Creating Layer loss3/classifier_plantvillage
I0403 15:05:35.932992 14104 net.cpp:425] loss3/classifier_plantvillage <- pool5/7x7_s1
I0403 15:05:35.933012 14104 net.cpp:399] loss3/classifier_plantvillage -> loss3/classifier_plantvillage
I0403 15:05:35.933429 14104 net.cpp:141] Setting up loss3/classifier_plantvillage
I0403 15:05:35.933455 14104 net.cpp:148] Top shape: 24 38 (912)
I0403 15:05:35.933470 14104 net.cpp:156] Memory required for data: 1346064480
I0403 15:05:35.933487 14104 layer_factory.hpp:77] Creating layer loss3/classifier_plantvillage_loss3/classifier_plantvillage_0_split
I0403 15:05:35.933506 14104 net.cpp:91] Creating Layer loss3/classifier_plantvillage_loss3/classifier_plantvillage_0_split
I0403 15:05:35.933519 14104 net.cpp:425] loss3/classifier_plantvillage_loss3/classifier_plantvillage_0_split <- loss3/classifier_plantvillage
I0403 15:05:35.933536 14104 net.cpp:399] loss3/classifier_plantvillage_loss3/classifier_plantvillage_0_split -> loss3/classifier_plantvillage_loss3/classifier_plantvillage_0_split_0
I0403 15:05:35.933555 14104 net.cpp:399] loss3/classifier_plantvillage_loss3/classifier_plantvillage_0_split -> loss3/classifier_plantvillage_loss3/classifier_plantvillage_0_split_1
I0403 15:05:35.933576 14104 net.cpp:399] loss3/classifier_plantvillage_loss3/classifier_plantvillage_0_split -> loss3/classifier_plantvillage_loss3/classifier_plantvillage_0_split_2
I0403 15:05:35.933596 14104 net.cpp:399] loss3/classifier_plantvillage_loss3/classifier_plantvillage_0_split -> loss3/classifier_plantvillage_loss3/classifier_plantvillage_0_split_3
I0403 15:05:35.933701 14104 net.cpp:141] Setting up loss3/classifier_plantvillage_loss3/classifier_plantvillage_0_split
I0403 15:05:35.933722 14104 net.cpp:148] Top shape: 24 38 (912)
I0403 15:05:35.933738 14104 net.cpp:148] Top shape: 24 38 (912)
I0403 15:05:35.933753 14104 net.cpp:148] Top shape: 24 38 (912)
I0403 15:05:35.933765 14104 net.cpp:148] Top shape: 24 38 (912)
I0403 15:05:35.933779 14104 net.cpp:156] Memory required for data: 1346079072
I0403 15:05:35.933792 14104 layer_factory.hpp:77] Creating layer loss1/loss
I0403 15:05:35.933815 14104 net.cpp:91] Creating Layer loss1/loss
I0403 15:05:35.933831 14104 net.cpp:425] loss1/loss <- loss1/classifier_plantvillage_loss1/classifier_plantvillage_0_split_0
I0403 15:05:35.933861 14104 net.cpp:425] loss1/loss <- label_data_1_split_0
…
