…
I0403 15:03:31.911208 14052 net.cpp:313] The NetState phase (1) differed from the phase (0) specified by a rule in layer data
I0403 15:03:31.912355 14052 net.cpp:49] Initializing net from parameters: 
state {
  phase: TEST
}
layer {
  name: "data"
  type: "Data"
  top: "data"
  top: "label"
  include {
    phase: TEST
  }
  transform_param {
    mirror: false
    crop_size: 224
    mean_file: "/home/mohanty/data/final_dataset/lmdb/color-40-60/mean.binaryproto"
  }
  data_param {
    source: "/home/mohanty/data/final_dataset/lmdb/color-40-60/test_db"
    batch_size: 24
    backend: LMDB
  }
}
layer {
  name: "conv1/7x7_s2"
  type: "Convolution"
  bottom: "data"
  top: "conv1/7x7_s2"
  param {
    lr_mult: 1
    decay_mult: 1
  }
  param {
    lr_mult: 2
    decay_mult: 0
  }
  convolution_param {
    num_output: 64
    pad: 3
    kernel_size: 7
    stride: 2
    weight_filler {
      type: "xavier"
      std: 0.1
    }
    bias_filler {
      type: "constant"
      value: 0.2
    }
  }
}
layer {
  name: "conv1/relu_7x7"
  type: "ReLU"
  bottom: "conv1/7x7_s2"
  top: "conv1/7x7_s2"
}
layer {
  name: "pool1/3x3_s2"
  type: "Pooling"
  bottom: "conv1/7x7_s2"
  top: "pool1/3x3_s2"
  pooling_param {
    pool: MAX
    kernel_size: 3
    stride: 2
  }
}
layer {
  name: "pool1/norm1"
  type: "LRN"
  bottom: "pool1/3x3_s2"
  top: "pool1/norm1"
  lrn_param {
    local_size: 5
    alpha: 0.0001
    beta: 0.75
  }
}
layer {
  name: "conv2/3x3_reduce"
  type: "Convolution"
  bottom: "pool1/norm1"
  top: "conv2/3x3_reduce"
  param {
    lr_mult: 1
    decay_mult: 1
  }
  param {
    lr_mult: 2
    decay_mult: 0
  }
  convolution_param {
    num_output: 64
    kernel_size: 1
    weight_filler {
      type: "xavier"
      std: 0.1
    }
    bias_filler {
      type: "constant"
      value: 0.2
    }
  }
}
layer {
  name: "conv2/relu_3x3_reduce"
  type: "ReLU"
  bottom: "conv2/3x3_reduce"
  top: "conv2/3x3_reduce"
}
layer {
  name: "conv2/3x3"
  type: "Convolution"
  bottom: "conv2/3x3_reduce"
  top: "conv2/3x3"
  param {
    lr_mult: 1
    decay_mult: 1
  }
  param {
    lr_mult: 2
    decay_mult: 0
  }
  convolution_param {
    num_output: 192
    pad: 1
    kernel_size: 3
    weight_filler {
      type: "xavier"
      std: 0.03
    }
    bias_filler {
      type: "constant"
      value: 0.2
    }
  }
}
layer {
  name: "conv2/relu_3x3"
  type: "ReLU"
  bottom: "conv2/3x3"
  top: "conv2/3x3"
}
layer {
  name: "conv2/norm2"
  type: "LRN"
  bottom: "conv2/3x3"
  top: "conv2/norm2"
  lrn_param {
    local_size: 5
    alpha: 0.0001
    beta: 0.75
  }
}
layer {
  name: "pool2/3x3_s2"
  type: "Pooling"
  bottom: "conv2/norm2"
  top: "pool2/3x3_s2"
  pooling_param {
    pool: MAX
    kernel_size: 3
    stride: 2
  }
}
layer {
  name: "inception_3a/1x1"
  type: "Convolution"
  bottom: "pool2/3x3_s2"
  top: "inception_3a/1x1"
  param {
    lr_mult: 1
    decay_mult: 1
  }
  param {
    lr_mult: 2
    decay_mult: 0
  }
  convolution_param {
    num_output: 64
    kernel_size: 1
    weight_filler {
      type: "xavier"
      std: 0.03
    }
    bias_filler {
      type: "constant"
      value: 0.2
    }
  }
}
layer {
  name: "inception_3a/relu_1x1"
  type: "ReLU"
  bottom: "inception_3a/1x1"
  top: "inception_3a/1x1"
}
layer {
  name: "inception_3a/3x3_reduce"
  type: "Convolution"
  bottom: "pool2/3x3_s2"
  top: "inception_3a/3x3_reduce"
  param {
    lr_mult: 1
    decay_mult: 1
  }
  param {
    lr_mult: 2
    decay_mult: 0
  }
  convolution_param {
    num_output: 96
    kernel_size: 1
    weight_filler {
      type: "xavier"
      std: 0.09
    }
    bias_filler {
      type: "constant"
      value: 0.2
    }
  }
}
layer {
  name: "inception_3a/relu_3x3_reduce"
  type: "ReLU"
  bottom: "inception_3a/3x3_reduce"
  top: "inception_3a/3x3_reduce"
}
layer {
  name: "inception_3a/3x3"
  type: "Convolution"
  bottom: "inception_3a/3x3_reduce"
  top: "inception_3a/3x3"
  param {
    lr_mult: 1
    decay_mult: 1
  }
  param {
    lr_mult: 2
    decay_mult: 0
  }
  convolution_param {
    num_output: 128
    pad: 1
    kernel_size: 3
    weight_filler {
      type: "xavier"
      std: 0.03
    }
    bias_filler {
      type: "constant"
      value: 0.2
    }
  }
}
layer {
  name: "inception_3a/relu_3x3"
  type: "ReLU"
  bottom: "inception_3a/3x3"
  top: "inception_3a/3x3"
}
layer {
  name: "inception_3a/5x5_reduce"
  type: "Convolution"
  bottom: "pool2/3x3_s2"
  top: "inception_3a/5x5_reduce"
  param {
    lr_mult: 1
    decay_mult: 1
  }
  param {
    lr_mult: 2
    decay_mult: 0
  }
  convolution_param {
    num_output: 16
    kernel_size: 1
    weight_filler {
      type: "xavier"
      std: 0.2
    }
    bias_filler {
      type: "constant"
      value: 0.2
    }
  }
}
layer {
  name: "inception_3a/relu_5x5_reduce"
  type: "ReLU"
  bottom: "inception_3a/5x5_reduce"
  top: "inception_3a/5x5_reduce"
}
layer {
  name: "inception_3a/5x5"
  type: "Convolution"
  bottom: "inception_3a/5x5_reduce"
  top: "inception_3a/5x5"
  param {
    lr_mult: 1
    decay_mult: 1
  }
  param {
    lr_mult: 2
    decay_mult: 0
  }
  convolution_param {
    num_output: 32
    pad: 2
    kernel_size: 5
    weight_filler {
      type: "xavier"
      std: 0.03
    }
    bias_filler {
      type: "constant"
      value: 0.2
    }
  }
}
layer {
  name: "inception_3a/relu_5x5"
  type: "ReLU"
  bottom: "inception_3a/5x5"
  top: "inception_3a/5x5"
}
layer {
  name: "inception_3a/pool"
  type: "Pooling"
  bottom: "pool2/3x3_s2"
  top: "inception_3a/pool"
  pooling_param {
    pool: MAX
    kernel_size: 3
    stride: 1
    pad: 1
  }
}
layer {
  name: "inception_3a/pool_proj"
  type: "Convolution"
  bottom: "inception_3a/pool"
  top: "inception_3a/pool_proj"
  param {
    lr_mult: 1
    decay_mult: 1
  }
  param {
    lr_mult: 2
    decay_mult: 0
  }
  convolution_param {
    num_output: 32
    kernel_size: 1
    weight_filler {
      type: "xavier"
      std: 0.1
    }
    bias_filler {
      type: "constant"
      value: 0.2
    }
  }
}
layer {
  name: "inception_3a/relu_pool_proj"
  type: "ReLU"
  bottom: "inception_3a/pool_proj"
  top: "inception_3a/pool_proj"
}
layer {
  name: "inception_3a/output"
  type: "Concat"
  bottom: "inception_3a/1x1"
  bottom: "inception_3a/3x3"
  bottom: "inception_3a/5x5"
  bottom: "inception_3a/pool_proj"
  top: "inception_3a/output"
}
layer {
  name: "inception_3b/1x1"
  type: "Convolution"
  bottom: "inception_3a/output"
  top: "inception_3b/1x1"
  param {
    lr_mult: 1
    decay_mult: 1
  }
  param {
    lr_mult: 2
    decay_mult: 0
  }
  convolution_param {
    num_output: 128
    kernel_size: 1
    weight_filler {
      type: "xavier"
      std: 0.03
    }
    bias_filler {
      type: "constant"
      value: 0.2
    }
  }
}
layer {
  name: "inception_3b/relu_1x1"
  type: "ReLU"
  bottom: "inception_3b/1x1"
  top: "inception_3b/1x1"
}
layer {
  name: "inception_3b/3x3_reduce"
  type: "Convolution"
  bottom: "inception_3a/output"
  top: "inception_3b/3x3_reduce"
  param {
    lr_mult: 1
    decay_mult: 1
  }
  param {
    lr_mult: 2
    decay_mult: 0
  }
  convolution_param {
    num_output: 128
    kernel_size: 1
    weight_filler {
      type: "xavier"
      std: 0.09
    }
    bias_filler {
      type: "constant"
      value: 0.2
    }
  }
}
layer {
  name: "inception_3b/relu_3x3_reduce"
  type: "ReLU"
  bottom: "inception_3b/3x3_reduce"
  top: "inception_3b/3x3_reduce"
}
layer {
  name: "inception_3b/3x3"
  type: "Convolution"
  bottom: "inception_3b/3x3_reduce"
  top: "inception_3b/3x3"
  param {
    lr_mult: 1
    decay_mult: 1
  }
  param {
    lr_mult: 2
    decay_mult: 0
  }
  convolution_param {
    num_output: 192
    pad: 1
    kernel_size: 3
    weight_filler {
      type: "xavier"
      std: 0.03
    }
    bias_filler {
      type: "constant"
      value: 0.2
    }
  }
}
layer {
  name: "inception_3b/relu_3x3"
  type: "ReLU"
  bottom: "inception_3b/3x3"
  top: "inception_3b/3x3"
}
layer {
  name: "inception_3b/5x5_reduce"
  type: "Convolution"
  bottom: "inception_3a/output"
  top: "inception_3b/5x5_reduce"
  param {
    lr_mult: 1
    decay_mult: 1
  }
  param {
    lr_mult: 2
    decay_mult: 0
  }
  convolution_param {
    num_output: 32
    kernel_size: 1
    weight_filler {
      type: "xavier"
      std: 0.2
    }
    bias_filler {
      type: "constant"
      value: 0.2
    }
  }
}
layer {
  name: "inception_3b/relu_5x5_reduce"
  type: "ReLU"
  bottom: "inception_3b/5x5_reduce"
  top: "inception_3b/5x5_reduce"
}
layer {
  name: "inception_3b/5x5"
  type: "Convolution"
  bottom: "inception_3b/5x5_reduce"
  top: "inception_3b/5x5"
  param {
    lr_mult: 1
    decay_mult: 1
  }
  param {
    lr_mult: 2
    decay_mult: 0
  }
  convolution_param {
    num_output: 96
    pad: 2
    kernel_size: 5
    weight_filler {
      type: "xavier"
      std: 0.03
    }
    bias_filler {
      type: "constant"
      value: 0.2
    }
  }
}
layer {
  name: "inception_3b/relu_5x5"
  type: "ReLU"
  bottom: "inception_3b/5x5"
  top: "inception_3b/5x5"
}
layer {
  name: "inception_3b/pool"
  type: "Pooling"
  bottom: "inception_3a/output"
  top: "inception_3b/pool"
  pooling_param {
    pool: MAX
    kernel_size: 3
    stride: 1
    pad: 1
  }
}
layer {
  name: "inception_3b/pool_proj"
  type: "Convolution"
  bottom: "inception_3b/pool"
  top: "inception_3b/pool_proj"
  param {
    lr_mult: 1
    decay_mult: 1
  }
  param {
    lr_mult: 2
    decay_mult: 0
  }
  convolution_param {
    num_output: 64
    kernel_size: 1
    weight_filler {
      type: "xavier"
      std: 0.1
    }
    bias_filler {
      type: "constant"
      value: 0.2
    }
  }
}
layer {
  name: "inception_3b/relu_pool_proj"
  type: "ReLU"
  bottom: "inception_3b/pool_proj"
  top: "inception_3b/pool_proj"
}
layer {
  name: "inception_3b/output"
  type: "Concat"
  bottom: "inception_3b/1x1"
  bottom: "inception_3b/3x3"
  bottom: "inception_3b/5x5"
  bottom: "inception_3b/pool_proj"
  top: "inception_3b/output"
}
layer {
  name: "pool3/3x3_s2"
  type: "Pooling"
  bottom: "inception_3b/output"
  top: "pool3/3x3_s2"
  pooling_param {
    pool: MAX
    kernel_size: 3
    stride: 2
  }
}
layer {
  name: "inception_4a/1x1"
  type: "Convolution"
  bottom: "pool3/3x3_s2"
  top: "inception_4a/1x1"
  param {
    lr_mult: 1
    decay_mult: 1
  }
  param {
    lr_mult: 2
    decay_mult: 0
  }
  convolution_param {
    num_output: 192
    kernel_size: 1
    weight_filler {
      type: "xavier"
      std: 0.03
    }
    bias_filler {
      type: "constant"
      value: 0.2
    }
  }
}
layer {
  name: "inception_4a/relu_1x1"
  type: "ReLU"
  bottom: "inception_4a/1x1"
  top: "inception_4a/1x1"
}
layer {
  name: "inception_4a/3x3_reduce"
  type: "Convolution"
  bottom: "pool3/3x3_s2"
  top: "inception_4a/3x3_reduce"
  param {
    lr_mult: 1
    decay_mult: 1
  }
  param {
    lr_mult: 2
    decay_mult: 0
  }
  convolution_param {
    num_output: 96
    kernel_size: 1
    weight_filler {
      type: "xavier"
      std: 0.09
    }
    bias_filler {
      type: "constant"
      value: 0.2
    }
  }
}
layer {
  name: "inception_4a/relu_3x3_reduce"
  type: "ReLU"
  bottom: "inception_4a/3x3_reduce"
  top: "inception_4a/3x3_reduce"
}
layer {
  name: "inception_4a/3x3"
  type: "Convolution"
  bottom: "inception_4a/3x3_reduce"
  top: "inception_4a/3x3"
  param {
    lr_mult: 1
    decay_mult: 1
  }
  param {
    lr_mult: 2
    decay_mult: 0
  }
  convolution_param {
    num_output: 208
    pad: 1
    kernel_size: 3
    weight_filler {
      type: "xavier"
      std: 0.03
    }
    bias_filler {
      type: "constant"
      value: 0.2
    }
  }
}
layer {
  name: "inception_4a/relu_3x3"
  type: "ReLU"
  bottom: "inception_4a/3x3"
  top: "inception_4a/3x3"
}
layer {
  name: "inception_4a/5x5_reduce"
  type: "Convolution"
  bottom: "pool3/3x3_s2"
  top: "inception_4a/5x5_reduce"
  param {
    lr_mult: 1
    decay_mult: 1
  }
  param {
    lr_mult: 2
    decay_mult: 0
  }
  convolution_param {
    num_output: 16
    kernel_size: 1
    weight_filler {
      type: "xavier"
      std: 0.2
    }
    bias_filler {
      type: "constant"
      value: 0.2
    }
  }
}
layer {
  name: "inception_4a/relu_5x5_reduce"
  type: "ReLU"
  bottom: "inception_4a/5x5_reduce"
  top: "inception_4a/5x5_reduce"
}
layer {
  name: "inception_4a/5x5"
  type: "Convolution"
  bottom: "inception_4a/5x5_reduce"
  top: "inception_4a/5x5"
  param {
    lr_mult: 1
    decay_mult: 1
  }
  param {
    lr_mult: 2
    decay_mult: 0
  }
  convolution_param {
    num_output: 48
    pad: 2
    kernel_size: 5
    weight_filler {
      type: "xavier"
      std: 0.03
    }
    bias_filler {
      type: "constant"
      value: 0.2
    }
  }
}
layer {
  name: "inception_4a/relu_5x5"
  type: "ReLU"
  bottom: "inception_4a/5x5"
  top: "inception_4a/5x5"
}
layer {
  name: "inception_4a/pool"
  type: "Pooling"
  bottom: "pool3/3x3_s2"
  top: "inception_4a/pool"
  pooling_param {
    pool: MAX
    kernel_size: 3
    stride: 1
    pad: 1
  }
}
layer {
  name: "inception_4a/pool_proj"
  type: "Convolution"
  bottom: "inception_4a/pool"
  top: "inception_4a/pool_proj"
  param {
    lr_mult: 1
    decay_mult: 1
  }
  param {
    lr_mult: 2
    decay_mult: 0
  }
  convolution_param {
    num_output: 64
    kernel_size: 1
    weight_filler {
      type: "xavier"
      std: 0.1
    }
    bias_filler {
      type: "constant"
      value: 0.2
    }
  }
}
layer {
  name: "inception_4a/relu_pool_proj"
  type: "ReLU"
  bottom: "inception_4a/pool_proj"
  top: "inception_4a/pool_proj"
}
layer {
  name: "inception_4a/output"
  type: "Concat"
  bottom: "inception_4a/1x1"
  bottom: "inception_4a/3x3"
  bottom: "inception_4a/5x5"
  bottom: "inception_4a/pool_proj"
  top: "inception_4a/output"
}
layer {
  name: "loss1/ave_pool"
  type: "Pooling"
  bottom: "inception_4a/output"
  top: "loss1/ave_pool"
  pooling_param {
    pool: AVE
    kernel_size: 5
    stride: 3
  }
}
layer {
  name: "loss1/conv"
  type: "Convolution"
  bottom: "loss1/ave_pool"
  top: "loss1/conv"
  param {
    lr_mult: 1
    decay_mult: 1
  }
  param {
    lr_mult: 2
    decay_mult: 0
  }
  convolution_param {
    num_output: 128
    kernel_size: 1
    weight_filler {
      type: "xavier"
      std: 0.08
    }
    bias_filler {
      type: "constant"
      value: 0.2
    }
  }
}
layer {
  name: "loss1/relu_conv"
  type: "ReLU"
  bottom: "loss1/conv"
  top: "loss1/conv"
}
layer {
  name: "loss1/fc"
  type: "InnerProduct"
  bottom: "loss1/conv"
  top: "loss1/fc"
  param {
    lr_mult: 1
    decay_mult: 1
  }
  param {
    lr_mult: 2
    decay_mult: 0
  }
  inner_product_param {
    num_output: 1024
    weight_filler {
      type: "xavier"
      std: 0.02
    }
    bias_filler {
      type: "constant"
      value: 0.2
    }
  }
}
layer {
  name: "loss1/relu_fc"
  type: "ReLU"
  bottom: "loss1/fc"
  top: "loss1/fc"
}
layer {
  name: "loss1/drop_fc"
  type: "Dropout"
  bottom: "loss1/fc"
  top: "loss1/fc"
  dropout_param {
    dropout_ratio: 0.7
  }
}
layer {
  name: "loss1/classifier_plantvillage"
  type: "InnerProduct"
  bottom: "loss1/fc"
  top: "loss1/classifier_plantvillage"
  param {
    lr_mult: 1
    decay_mult: 1
  }
  param {
    lr_mult: 2
    decay_mult: 0
  }
  inner_product_param {
    num_output: 38
    weight_filler {
      type: "xavier"
      std: 0.0009765625
    }
    bias_filler {
      type: "constant"
      value: 0
    }
  }
}
layer {
  name: "inception_4b/1x1"
  type: "Convolution"
  bottom: "inception_4a/output"
  top: "inception_4b/1x1"
  param {
    lr_mult: 1
    decay_mult: 1
  }
  param {
    lr_mult: 2
    decay_mult: 0
  }
  convolution_param {
    num_output: 160
    kernel_size: 1
    weight_filler {
      type: "xavier"
      std: 0.03
    }
    bias_filler {
      type: "constant"
      value: 0.2
    }
  }
}
layer {
  name: "inception_4b/relu_1x1"
  type: "ReLU"
  bottom: "inception_4b/1x1"
  top: "inception_4b/1x1"
}
layer {
  name: "inception_4b/3x3_reduce"
  type: "Convolution"
  bottom: "inception_4a/output"
  top: "inception_4b/3x3_reduce"
  param {
    lr_mult: 1
    decay_mult: 1
  }
  param {
    lr_mult: 2
    decay_mult: 0
  }
  convolution_param {
    num_output: 112
    kernel_size: 1
    weight_filler {
      type: "xavier"
      std: 0.09
    }
    bias_filler {
      type: "constant"
      value: 0.2
    }
  }
}
layer {
  name: "inception_4b/relu_3x3_reduce"
  type: "ReLU"
  bottom: "inception_4b/3x3_reduce"
  top: "inception_4b/3x3_reduce"
}
layer {
  name: "inception_4b/3x3"
  type: "Convolution"
  bottom: "inception_4b/3x3_reduce"
  top: "inception_4b/3x3"
  param {
    lr_mult: 1
    decay_mult: 1
  }
  param {
    lr_mult: 2
    decay_mult: 0
  }
  convolution_param {
    num_output: 224
    pad: 1
    kernel_size: 3
    weight_filler {
      type: "xavier"
      std: 0.03
    }
    bias_filler {
      type: "constant"
      value: 0.2
    }
  }
}
layer {
  name: "inception_4b/relu_3x3"
  type: "ReLU"
  bottom: "inception_4b/3x3"
  top: "inception_4b/3x3"
}
layer {
  name: "inception_4b/5x5_reduce"
  type: "Convolution"
  bottom: "inception_4a/output"
  top: "inception_4b/5x5_reduce"
  param {
    lr_mult: 1
    decay_mult: 1
  }
  param {
    lr_mult: 2
    decay_mult: 0
  }
  convolution_param {
    num_output: 24
    kernel_size: 1
    weight_filler {
      type: "xavier"
      std: 0.2
    }
    bias_filler {
      type: "constant"
      value: 0.2
    }
  }
}
layer {
  name: "inception_4b/relu_5x5_reduce"
  type: "ReLU"
  bottom: "inception_4b/5x5_reduce"
  top: "inception_4b/5x5_reduce"
}
layer {
  name: "inception_4b/5x5"
  type: "Convolution"
  bottom: "inception_4b/5x5_reduce"
  top: "inception_4b/5x5"
  param {
    lr_mult: 1
    decay_mult: 1
  }
  param {
    lr_mult: 2
    decay_mult: 0
  }
  convolution_param {
    num_output: 64
    pad: 2
    kernel_size: 5
    weight_filler {
      type: "xavier"
      std: 0.03
    }
    bias_filler {
      type: "constant"
      value: 0.2
    }
  }
}
layer {
  name: "inception_4b/relu_5x5"
  type: "ReLU"
  bottom: "inception_4b/5x5"
  top: "inception_4b/5x5"
}
layer {
  name: "inception_4b/pool"
  type: "Pooling"
  bottom: "inception_4a/output"
  top: "inception_4b/pool"
  pooling_param {
    pool: MAX
    kernel_size: 3
    stride: 1
    pad: 1
  }
}
layer {
  name: "inception_4b/pool_proj"
  type: "Convolution"
  bottom: "inception_4b/pool"
  top: "inception_4b/pool_proj"
  param {
    lr_mult: 1
    decay_mult: 1
  }
  param {
    lr_mult: 2
    decay_mult: 0
  }
  convolution_param {
    num_output: 64
    kernel_size: 1
    weight_filler {
      type: "xavier"
      std: 0.1
    }
    bias_filler {
      type: "constant"
      value: 0.2
    }
  }
}
layer {
  name: "inception_4b/relu_pool_proj"
  type: "ReLU"
  bottom: "inception_4b/pool_proj"
  top: "inception_4b/pool_proj"
}
layer {
  name: "inception_4b/output"
  type: "Concat"
  bottom: "inception_4b/1x1"
  bottom: "inception_4b/3x3"
  bottom: "inception_4b/5x5"
  bottom: "inception_4b/pool_proj"
  top: "inception_4b/output"
}
layer {
  name: "inception_4c/1x1"
  type: "Convolution"
  bottom: "inception_4b/output"
  top: "inception_4c/1x1"
  param {
    lr_mult: 1
    decay_mult: 1
  }
  param {
    lr_mult: 2
    decay_mult: 0
  }
  convolution_param {
    num_output: 128
    kernel_size: 1
    weight_filler {
      type: "xavier"
      std: 0.03
    }
    bias_filler {
      type: "constant"
      value: 0.2
    }
  }
}
layer {
  name: "inception_4c/relu_1x1"
  type: "ReLU"
  bottom: "inception_4c/1x1"
  top: "inception_4c/1x1"
}
layer {
  name: "inception_4c/3x3_reduce"
  type: "Convolution"
  bottom: "inception_4b/output"
  top: "inception_4c/3x3_reduce"
  param {
    lr_mult: 1
    decay_mult: 1
  }
  param {
    lr_mult: 2
    decay_mult: 0
  }
  convolution_param {
    num_output: 128
    kernel_size: 1
    weight_filler {
      type: "xavier"
      std: 0.09
    }
    bias_filler {
      type: "constant"
      value: 0.2
    }
  }
}
layer {
  name: "inception_4c/relu_3x3_reduce"
  type: "ReLU"
  bottom: "inception_4c/3x3_reduce"
  top: "inception_4c/3x3_reduce"
}
layer {
  name: "inception_4c/3x3"
  type: "Convolution"
  bottom: "inception_4c/3x3_reduce"
  top: "inception_4c/3x3"
  param {
    lr_mult: 1
    decay_mult: 1
  }
  param {
    lr_mult: 2
    decay_mult: 0
  }
  convolution_param {
    num_output: 256
    pad: 1
    kernel_size: 3
    weight_filler {
      type: "xavier"
      std: 0.03
    }
    bias_filler {
      type: "constant"
      value: 0.2
    }
  }
}
layer {
  name: "inception_4c/relu_3x3"
  type: "ReLU"
  bottom: "inception_4c/3x3"
  top: "inception_4c/3x3"
}
layer {
  name: "inception_4c/5x5_reduce"
  type: "Convolution"
  bottom: "inception_4b/output"
  top: "inception_4c/5x5_reduce"
  param {
    lr_mult: 1
    decay_mult: 1
  }
  param {
    lr_mult: 2
    decay_mult: 0
  }
  convolution_param {
    num_output: 24
    kernel_size: 1
    weight_filler {
      type: "xavier"
      std: 0.2
    }
    bias_filler {
      type: "constant"
      value: 0.2
    }
  }
}
layer {
  name: "inception_4c/relu_5x5_reduce"
  type: "ReLU"
  bottom: "inception_4c/5x5_reduce"
  top: "inception_4c/5x5_reduce"
}
layer {
  name: "inception_4c/5x5"
  type: "Convolution"
  bottom: "inception_4c/5x5_reduce"
  top: "inception_4c/5x5"
  param {
    lr_mult: 1
    decay_mult: 1
  }
  param {
    lr_mult: 2
    decay_mult: 0
  }
  convolution_param {
    num_output: 64
    pad: 2
    kernel_size: 5
    weight_filler {
      type: "xavier"
      std: 0.03
    }
    bias_filler {
      type: "constant"
      value: 0.2
    }
  }
}
layer {
  name: "inception_4c/relu_5x5"
  type: "ReLU"
  bottom: "inception_4c/5x5"
  top: "inception_4c/5x5"
}
layer {
  name: "inception_4c/pool"
  type: "Pooling"
  bottom: "inception_4b/output"
  top: "inception_4c/pool"
  pooling_param {
    pool: MAX
    kernel_size: 3
    stride: 1
    pad: 1
  }
}
layer {
  name: "inception_4c/pool_proj"
  type: "Convolution"
  bottom: "inception_4c/pool"
  top: "inception_4c/pool_proj"
  param {
    lr_mult: 1
    decay_mult: 1
  }
  param {
    lr_mult: 2
    decay_mult: 0
  }
  convolution_param {
    num_output: 64
    kernel_size: 1
    weight_filler {
      type: "xavier"
      std: 0.1
    }
    bias_filler {
      type: "constant"
      value: 0.2
    }
  }
}
layer {
  name: "inception_4c/relu_pool_proj"
  type: "ReLU"
  bottom: "inception_4c/pool_proj"
  top: "inception_4c/pool_proj"
}
layer {
  name: "inception_4c/output"
  type: "Concat"
  bottom: "inception_4c/1x1"
  bottom: "inception_4c/3x3"
  bottom: "inception_4c/5x5"
  bottom: "inception_4c/pool_proj"
  top: "inception_4c/output"
}
layer {
  name: "inception_4d/1x1"
  type: "Convolution"
  bottom: "inception_4c/output"
  top: "inception_4d/1x1"
  param {
    lr_mult: 1
    decay_mult: 1
  }
  param {
    lr_mult: 2
    decay_mult: 0
  }
  convolution_param {
    num_output: 112
    kernel_size: 1
    weight_filler {
      type: "xavier"
      std: 0.03
    }
    bias_filler {
      type: "constant"
      value: 0.2
    }
  }
}
layer {
  name: "inception_4d/relu_1x1"
  type: "ReLU"
  bottom: "inception_4d/1x1"
  top: "inception_4d/1x1"
}
layer {
  name: "inception_4d/3x3_reduce"
  type: "Convolution"
  bottom: "inception_4c/output"
  top: "inception_4d/3x3_reduce"
  param {
    lr_mult: 1
    decay_mult: 1
  }
  param {
    lr_mult: 2
    decay_mult: 0
  }
  convolution_param {
    num_output: 144
    kernel_size: 1
    weight_filler {
      type: "xavier"
      std: 0.09
    }
    bias_filler {
      type: "constant"
      value: 0.2
    }
  }
}
layer {
  name: "inception_4d/relu_3x3_reduce"
  type: "ReLU"
  bottom: "inception_4d/3x3_reduce"
  top: "inception_4d/3x3_reduce"
}
layer {
  name: "inception_4d/3x3"
  type: "Convolution"
  bottom: "inception_4d/3x3_reduce"
  top: "inception_4d/3x3"
  param {
    lr_mult: 1
    decay_mult: 1
  }
  param {
    lr_mult: 2
    decay_mult: 0
  }
  convolution_param {
    num_output: 288
    pad: 1
    kernel_size: 3
    weight_filler {
      type: "xavier"
      std: 0.03
    }
    bias_filler {
      type: "constant"
      value: 0.2
    }
  }
}
layer {
  name: "inception_4d/relu_3x3"
  type: "ReLU"
  bottom: "inception_4d/3x3"
  top: "inception_4d/3x3"
}
layer {
  name: "inception_4d/5x5_reduce"
  type: "Convolution"
  bottom: "inception_4c/output"
  top: "inception_4d/5x5_reduce"
  param {
    lr_mult: 1
    decay_mult: 1
  }
  param {
    lr_mult: 2
    decay_mult: 0
  }
  convolution_param {
    num_output: 32
    kernel_size: 1
    weight_filler {
      type: "xavier"
      std: 0.2
    }
    bias_filler {
      type: "constant"
      value: 0.2
    }
  }
}
layer {
  name: "inception_4d/relu_5x5_reduce"
  type: "ReLU"
  bottom: "inception_4d/5x5_reduce"
  top: "inception_4d/5x5_reduce"
}
layer {
  name: "inception_4d/5x5"
  type: "Convolution"
  bottom: "inception_4d/5x5_reduce"
  top: "inception_4d/5x5"
  param {
    lr_mult: 1
    decay_mult: 1
  }
  param {
    lr_mult: 2
    decay_mult: 0
  }
  convolution_param {
    num_output: 64
    pad: 2
    kernel_size: 5
    weight_filler {
      type: "xavier"
      std: 0.03
    }
    bias_filler {
      type: "constant"
      value: 0.2
    }
  }
}
layer {
  name: "inception_4d/relu_5x5"
  type: "ReLU"
  bottom: "inception_4d/5x5"
  top: "inception_4d/5x5"
}
layer {
  name: "inception_4d/pool"
  type: "Pooling"
  bottom: "inception_4c/output"
  top: "inception_4d/pool"
  pooling_param {
    pool: MAX
    kernel_size: 3
    stride: 1
    pad: 1
  }
}
layer {
  name: "inception_4d/pool_proj"
  type: "Convolution"
  bottom: "inception_4d/pool"
  top: "inception_4d/pool_proj"
  param {
    lr_mult: 1
    decay_mult: 1
  }
  param {
    lr_mult: 2
    decay_mult: 0
  }
  convolution_param {
    num_output: 64
    kernel_size: 1
    weight_filler {
      type: "xavier"
      std: 0.1
    }
    bias_filler {
      type: "constant"
      value: 0.2
    }
  }
}
layer {
  name: "inception_4d/relu_pool_proj"
  type: "ReLU"
  bottom: "inception_4d/pool_proj"
  top: "inception_4d/pool_proj"
}
layer {
  name: "inception_4d/output"
  type: "Concat"
  bottom: "inception_4d/1x1"
  bottom: "inception_4d/3x3"
  bottom: "inception_4d/5x5"
  bottom: "inception_4d/pool_proj"
  top: "inception_4d/output"
}
layer {
  name: "loss2/ave_pool"
  type: "Pooling"
  bottom: "inception_4d/output"
  top: "loss2/ave_pool"
  pooling_param {
    pool: AVE
    kernel_size: 5
    stride: 3
  }
}
layer {
  name: "loss2/conv"
  type: "Convolution"
  bottom: "loss2/ave_pool"
  top: "loss2/conv"
  param {
    lr_mult: 1
    decay_mult: 1
  }
  param {
    lr_mult: 2
    decay_mult: 0
  }
  convolution_param {
    num_output: 128
    kernel_size: 1
    weight_filler {
      type: "xavier"
      std: 0.08
    }
    bias_filler {
      type: "constant"
      value: 0.2
    }
  }
}
layer {
  name: "loss2/relu_conv"
  type: "ReLU"
  bottom: "loss2/conv"
  top: "loss2/conv"
}
layer {
  name: "loss2/fc"
  type: "InnerProduct"
  bottom: "loss2/conv"
  top: "loss2/fc"
  param {
    lr_mult: 1
    decay_mult: 1
  }
  param {
    lr_mult: 2
    decay_mult: 0
  }
  inner_product_param {
    num_output: 1024
    weight_filler {
      type: "xavier"
      std: 0.02
    }
    bias_filler {
      type: "constant"
      value: 0.2
    }
  }
}
layer {
  name: "loss2/relu_fc"
  type: "ReLU"
  bottom: "loss2/fc"
  top: "loss2/fc"
}
layer {
  name: "loss2/drop_fc"
  type: "Dropout"
  bottom: "loss2/fc"
  top: "loss2/fc"
  dropout_param {
    dropout_ratio: 0.7
  }
}
layer {
  name: "loss2/classifier_plantvillage"
  type: "InnerProduct"
  bottom: "loss2/fc"
  top: "loss2/classifier_plantvillage"
  param {
    lr_mult: 1
    decay_mult: 1
  }
  param {
    lr_mult: 2
    decay_mult: 0
  }
  inner_product_param {
    num_output: 38
    weight_filler {
      type: "xavier"
      std: 0.0009765625
    }
    bias_filler {
      type: "constant"
      value: 0
    }
  }
}
layer {
  name: "inception_4e/1x1"
  type: "Convolution"
  bottom: "inception_4d/output"
  top: "inception_4e/1x1"
  param {
    lr_mult: 1
    decay_mult: 1
  }
  param {
    lr_mult: 2
    decay_mult: 0
  }
  convolution_param {
    num_output: 256
    kernel_size: 1
    weight_filler {
      type: "xavier"
      std: 0.03
    }
    bias_filler {
      type: "constant"
      value: 0.2
    }
  }
}
layer {
  name: "inception_4e/relu_1x1"
  type: "ReLU"
  bottom: "inception_4e/1x1"
  top: "inception_4e/1x1"
}
layer {
  name: "inception_4e/3x3_reduce"
  type: "Convolution"
  bottom: "inception_4d/output"
  top: "inception_4e/3x3_reduce"
  param {
    lr_mult: 1
    decay_mult: 1
  }
  param {
    lr_mult: 2
    decay_mult: 0
  }
  convolution_param {
    num_output: 160
    kernel_size: 1
    weight_filler {
      type: "xavier"
      std: 0.09
    }
    bias_filler {
      type: "constant"
      value: 0.2
    }
  }
}
layer {
  name: "inception_4e/relu_3x3_reduce"
  type: "ReLU"
  bottom: "inception_4e/3x3_reduce"
  top: "inception_4e/3x3_reduce"
}
layer {
  name: "inception_4e/3x3"
  type: "Convolution"
  bottom: "inception_4e/3x3_reduce"
  top: "inception_4e/3x3"
  param {
    lr_mult: 1
    decay_mult: 1
  }
  param {
    lr_mult: 2
    decay_mult: 0
  }
  convolution_param {
    num_output: 320
    pad: 1
    kernel_size: 3
    weight_filler {
      type: "xavier"
      std: 0.03
    }
    bias_filler {
      type: "constant"
      value: 0.2
    }
  }
}
layer {
  name: "inception_4e/relu_3x3"
  type: "ReLU"
  bottom: "inception_4e/3x3"
  top: "inception_4e/3x3"
}
layer {
  name: "inception_4e/5x5_reduce"
  type: "Convolution"
  bottom: "inception_4d/output"
  top: "inception_4e/5x5_reduce"
  param {
    lr_mult: 1
    decay_mult: 1
  }
  param {
    lr_mult: 2
    decay_mult: 0
  }
  convolution_param {
    num_output: 32
    kernel_size: 1
    weight_filler {
      type: "xavier"
      std: 0.2
    }
    bias_filler {
      type: "constant"
      value: 0.2
    }
  }
}
layer {
  name: "inception_4e/relu_5x5_reduce"
  type: "ReLU"
  bottom: "inception_4e/5x5_reduce"
  top: "inception_4e/5x5_reduce"
}
layer {
  name: "inception_4e/5x5"
  type: "Convolution"
  bottom: "inception_4e/5x5_reduce"
  top: "inception_4e/5x5"
  p
I0403 15:03:31.913655 14052 layer_factory.hpp:77] Creating layer data
I0403 15:03:31.914281 14052 net.cpp:91] Creating Layer data
I0403 15:03:31.914312 14052 net.cpp:399] data -> data
I0403 15:03:31.914366 14052 net.cpp:399] data -> label
I0403 15:03:31.914402 14052 data_transformer.cpp:25] Loading mean file from: /home/mohanty/data/final_dataset/lmdb/color-40-60/mean.binaryproto
I0403 15:03:31.917151 14056 db_lmdb.cpp:38] Opened lmdb /home/mohanty/data/final_dataset/lmdb/color-40-60/test_db
I0403 15:03:31.928109 14052 data_layer.cpp:41] output data size: 24,3,224,224
I0403 15:03:31.955291 14052 net.cpp:141] Setting up data
I0403 15:03:31.955363 14052 net.cpp:148] Top shape: 24 3 224 224 (3612672)
I0403 15:03:31.955384 14052 net.cpp:148] Top shape: 24 (24)
I0403 15:03:31.955399 14052 net.cpp:156] Memory required for data: 14450784
I0403 15:03:31.955425 14052 layer_factory.hpp:77] Creating layer label_data_1_split
I0403 15:03:31.955451 14052 net.cpp:91] Creating Layer label_data_1_split
I0403 15:03:31.955467 14052 net.cpp:425] label_data_1_split <- label
I0403 15:03:31.955499 14052 net.cpp:399] label_data_1_split -> label_data_1_split_0
I0403 15:03:31.955526 14052 net.cpp:399] label_data_1_split -> label_data_1_split_1
I0403 15:03:31.955548 14052 net.cpp:399] label_data_1_split -> label_data_1_split_2
I0403 15:03:31.955567 14052 net.cpp:399] label_data_1_split -> label_data_1_split_3
I0403 15:03:31.955586 14052 net.cpp:399] label_data_1_split -> label_data_1_split_4
I0403 15:03:31.955610 14052 net.cpp:399] label_data_1_split -> label_data_1_split_5
I0403 15:03:31.955631 14052 net.cpp:399] label_data_1_split -> label_data_1_split_6
I0403 15:03:31.955651 14052 net.cpp:399] label_data_1_split -> label_data_1_split_7
I0403 15:03:31.955669 14052 net.cpp:399] label_data_1_split -> label_data_1_split_8
I0403 15:03:31.955688 14052 net.cpp:399] label_data_1_split -> label_data_1_split_9
I0403 15:03:31.955804 14052 net.cpp:141] Setting up label_data_1_split
I0403 15:03:31.955827 14052 net.cpp:148] Top shape: 24 (24)
I0403 15:03:31.955843 14052 net.cpp:148] Top shape: 24 (24)
I0403 15:03:31.955858 14052 net.cpp:148] Top shape: 24 (24)
I0403 15:03:31.955873 14052 net.cpp:148] Top shape: 24 (24)
I0403 15:03:31.955888 14052 net.cpp:148] Top shape: 24 (24)
I0403 15:03:31.955904 14052 net.cpp:148] Top shape: 24 (24)
I0403 15:03:31.955919 14052 net.cpp:148] Top shape: 24 (24)
I0403 15:03:31.955934 14052 net.cpp:148] Top shape: 24 (24)
I0403 15:03:31.955948 14052 net.cpp:148] Top shape: 24 (24)
I0403 15:03:31.955965 14052 net.cpp:148] Top shape: 24 (24)
I0403 15:03:31.956012 14052 net.cpp:156] Memory required for data: 14451744
I0403 15:03:31.956027 14052 layer_factory.hpp:77] Creating layer conv1/7x7_s2
I0403 15:03:31.956058 14052 net.cpp:91] Creating Layer conv1/7x7_s2
I0403 15:03:31.956075 14052 net.cpp:425] conv1/7x7_s2 <- data
I0403 15:03:31.956094 14052 net.cpp:399] conv1/7x7_s2 -> conv1/7x7_s2
I0403 15:03:32.097262 14052 net.cpp:141] Setting up conv1/7x7_s2
I0403 15:03:32.097340 14052 net.cpp:148] Top shape: 24 64 112 112 (19267584)
I0403 15:03:32.097358 14052 net.cpp:156] Memory required for data: 91522080
I0403 15:03:32.097390 14052 layer_factory.hpp:77] Creating layer conv1/relu_7x7
I0403 15:03:32.097419 14052 net.cpp:91] Creating Layer conv1/relu_7x7
I0403 15:03:32.097437 14052 net.cpp:425] conv1/relu_7x7 <- conv1/7x7_s2
I0403 15:03:32.097457 14052 net.cpp:386] conv1/relu_7x7 -> conv1/7x7_s2 (in-place)
I0403 15:03:32.097730 14052 net.cpp:141] Setting up conv1/relu_7x7
I0403 15:03:32.097759 14052 net.cpp:148] Top shape: 24 64 112 112 (19267584)
I0403 15:03:32.097774 14052 net.cpp:156] Memory required for data: 168592416
I0403 15:03:32.097790 14052 layer_factory.hpp:77] Creating layer pool1/3x3_s2
I0403 15:03:32.097815 14052 net.cpp:91] Creating Layer pool1/3x3_s2
I0403 15:03:32.097833 14052 net.cpp:425] pool1/3x3_s2 <- conv1/7x7_s2
I0403 15:03:32.097853 14052 net.cpp:399] pool1/3x3_s2 -> pool1/3x3_s2
I0403 15:03:32.097934 14052 net.cpp:141] Setting up pool1/3x3_s2
I0403 15:03:32.097959 14052 net.cpp:148] Top shape: 24 64 56 56 (4816896)
I0403 15:03:32.097975 14052 net.cpp:156] Memory required for data: 187860000
I0403 15:03:32.097990 14052 layer_factory.hpp:77] Creating layer pool1/norm1
I0403 15:03:32.098013 14052 net.cpp:91] Creating Layer pool1/norm1
I0403 15:03:32.098031 14052 net.cpp:425] pool1/norm1 <- pool1/3x3_s2
I0403 15:03:32.098049 14052 net.cpp:399] pool1/norm1 -> pool1/norm1
I0403 15:03:32.098348 14052 net.cpp:141] Setting up pool1/norm1
I0403 15:03:32.098376 14052 net.cpp:148] Top shape: 24 64 56 56 (4816896)
I0403 15:03:32.098392 14052 net.cpp:156] Memory required for data: 207127584
I0403 15:03:32.098407 14052 layer_factory.hpp:77] Creating layer conv2/3x3_reduce
I0403 15:03:32.098433 14052 net.cpp:91] Creating Layer conv2/3x3_reduce
I0403 15:03:32.098449 14052 net.cpp:425] conv2/3x3_reduce <- pool1/norm1
I0403 15:03:32.098469 14052 net.cpp:399] conv2/3x3_reduce -> conv2/3x3_reduce
I0403 15:03:32.099853 14052 net.cpp:141] Setting up conv2/3x3_reduce
I0403 15:03:32.099884 14052 net.cpp:148] Top shape: 24 64 56 56 (4816896)
I0403 15:03:32.099900 14052 net.cpp:156] Memory required for data: 226395168
I0403 15:03:32.099921 14052 layer_factory.hpp:77] Creating layer conv2/relu_3x3_reduce
I0403 15:03:32.099941 14052 net.cpp:91] Creating Layer conv2/relu_3x3_reduce
I0403 15:03:32.099958 14052 net.cpp:425] conv2/relu_3x3_reduce <- conv2/3x3_reduce
I0403 15:03:32.099975 14052 net.cpp:386] conv2/relu_3x3_reduce -> conv2/3x3_reduce (in-place)
I0403 15:03:32.100235 14052 net.cpp:141] Setting up conv2/relu_3x3_reduce
I0403 15:03:32.100265 14052 net.cpp:148] Top shape: 24 64 56 56 (4816896)
I0403 15:03:32.100282 14052 net.cpp:156] Memory required for data: 245662752
I0403 15:03:32.100298 14052 layer_factory.hpp:77] Creating layer conv2/3x3
I0403 15:03:32.100320 14052 net.cpp:91] Creating Layer conv2/3x3
I0403 15:03:32.100338 14052 net.cpp:425] conv2/3x3 <- conv2/3x3_reduce
I0403 15:03:32.100356 14052 net.cpp:399] conv2/3x3 -> conv2/3x3
I0403 15:03:32.102725 14052 net.cpp:141] Setting up conv2/3x3
I0403 15:03:32.102756 14052 net.cpp:148] Top shape: 24 192 56 56 (14450688)
I0403 15:03:32.102773 14052 net.cpp:156] Memory required for data: 303465504
I0403 15:03:32.102795 14052 layer_factory.hpp:77] Creating layer conv2/relu_3x3
I0403 15:03:32.102815 14052 net.cpp:91] Creating Layer conv2/relu_3x3
I0403 15:03:32.102833 14052 net.cpp:425] conv2/relu_3x3 <- conv2/3x3
I0403 15:03:32.102849 14052 net.cpp:386] conv2/relu_3x3 -> conv2/3x3 (in-place)
I0403 15:03:32.103024 14052 net.cpp:141] Setting up conv2/relu_3x3
I0403 15:03:32.103051 14052 net.cpp:148] Top shape: 24 192 56 56 (14450688)
I0403 15:03:32.103101 14052 net.cpp:156] Memory required for data: 361268256
I0403 15:03:32.103118 14052 layer_factory.hpp:77] Creating layer conv2/norm2
I0403 15:03:32.103140 14052 net.cpp:91] Creating Layer conv2/norm2
I0403 15:03:32.103157 14052 net.cpp:425] conv2/norm2 <- conv2/3x3
I0403 15:03:32.103178 14052 net.cpp:399] conv2/norm2 -> conv2/norm2
I0403 15:03:32.103495 14052 net.cpp:141] Setting up conv2/norm2
I0403 15:03:32.103526 14052 net.cpp:148] Top shape: 24 192 56 56 (14450688)
I0403 15:03:32.103543 14052 net.cpp:156] Memory required for data: 419071008
I0403 15:03:32.103559 14052 layer_factory.hpp:77] Creating layer pool2/3x3_s2
I0403 15:03:32.103577 14052 net.cpp:91] Creating Layer pool2/3x3_s2
I0403 15:03:32.103593 14052 net.cpp:425] pool2/3x3_s2 <- conv2/norm2
I0403 15:03:32.103618 14052 net.cpp:399] pool2/3x3_s2 -> pool2/3x3_s2
I0403 15:03:32.103677 14052 net.cpp:141] Setting up pool2/3x3_s2
I0403 15:03:32.103704 14052 net.cpp:148] Top shape: 24 192 28 28 (3612672)
I0403 15:03:32.103720 14052 net.cpp:156] Memory required for data: 433521696
I0403 15:03:32.103735 14052 layer_factory.hpp:77] Creating layer pool2/3x3_s2_pool2/3x3_s2_0_split
I0403 15:03:32.103754 14052 net.cpp:91] Creating Layer pool2/3x3_s2_pool2/3x3_s2_0_split
I0403 15:03:32.103770 14052 net.cpp:425] pool2/3x3_s2_pool2/3x3_s2_0_split <- pool2/3x3_s2
I0403 15:03:32.103786 14052 net.cpp:399] pool2/3x3_s2_pool2/3x3_s2_0_split -> pool2/3x3_s2_pool2/3x3_s2_0_split_0
I0403 15:03:32.103806 14052 net.cpp:399] pool2/3x3_s2_pool2/3x3_s2_0_split -> pool2/3x3_s2_pool2/3x3_s2_0_split_1
I0403 15:03:32.103829 14052 net.cpp:399] pool2/3x3_s2_pool2/3x3_s2_0_split -> pool2/3x3_s2_pool2/3x3_s2_0_split_2
I0403 15:03:32.103850 14052 net.cpp:399] pool2/3x3_s2_pool2/3x3_s2_0_split -> pool2/3x3_s2_pool2/3x3_s2_0_split_3
I0403 15:03:32.103936 14052 net.cpp:141] Setting up pool2/3x3_s2_pool2/3x3_s2_0_split
I0403 15:03:32.103960 14052 net.cpp:148] Top shape: 24 192 28 28 (3612672)
I0403 15:03:32.103976 14052 net.cpp:148] Top shape: 24 192 28 28 (3612672)
I0403 15:03:32.103991 14052 net.cpp:148] Top shape: 24 192 28 28 (3612672)
I0403 15:03:32.104007 14052 net.cpp:148] Top shape: 24 192 28 28 (3612672)
I0403 15:03:32.104019 14052 net.cpp:156] Memory required for data: 491324448
I0403 15:03:32.104034 14052 layer_factory.hpp:77] Creating layer inception_3a/1x1
I0403 15:03:32.104056 14052 net.cpp:91] Creating Layer inception_3a/1x1
I0403 15:03:32.104074 14052 net.cpp:425] inception_3a/1x1 <- pool2/3x3_s2_pool2/3x3_s2_0_split_0
I0403 15:03:32.104094 14052 net.cpp:399] inception_3a/1x1 -> inception_3a/1x1
I0403 15:03:32.105654 14052 net.cpp:141] Setting up inception_3a/1x1
I0403 15:03:32.105684 14052 net.cpp:148] Top shape: 24 64 28 28 (1204224)
I0403 15:03:32.105700 14052 net.cpp:156] Memory required for data: 496141344
I0403 15:03:32.105720 14052 layer_factory.hpp:77] Creating layer inception_3a/relu_1x1
I0403 15:03:32.105737 14052 net.cpp:91] Creating Layer inception_3a/relu_1x1
I0403 15:03:32.105753 14052 net.cpp:425] inception_3a/relu_1x1 <- inception_3a/1x1
I0403 15:03:32.105772 14052 net.cpp:386] inception_3a/relu_1x1 -> inception_3a/1x1 (in-place)
I0403 15:03:32.105949 14052 net.cpp:141] Setting up inception_3a/relu_1x1
I0403 15:03:32.105974 14052 net.cpp:148] Top shape: 24 64 28 28 (1204224)
I0403 15:03:32.105989 14052 net.cpp:156] Memory required for data: 500958240
I0403 15:03:32.106004 14052 layer_factory.hpp:77] Creating layer inception_3a/3x3_reduce
I0403 15:03:32.106027 14052 net.cpp:91] Creating Layer inception_3a/3x3_reduce
I0403 15:03:32.106045 14052 net.cpp:425] inception_3a/3x3_reduce <- pool2/3x3_s2_pool2/3x3_s2_0_split_1
I0403 15:03:32.106065 14052 net.cpp:399] inception_3a/3x3_reduce -> inception_3a/3x3_reduce
I0403 15:03:32.107786 14052 net.cpp:141] Setting up inception_3a/3x3_reduce
I0403 15:03:32.107816 14052 net.cpp:148] Top shape: 24 96 28 28 (1806336)
I0403 15:03:32.107832 14052 net.cpp:156] Memory required for data: 508183584
I0403 15:03:32.107853 14052 layer_factory.hpp:77] Creating layer inception_3a/relu_3x3_reduce
I0403 15:03:32.107892 14052 net.cpp:91] Creating Layer inception_3a/relu_3x3_reduce
I0403 15:03:32.107910 14052 net.cpp:425] inception_3a/relu_3x3_reduce <- inception_3a/3x3_reduce
I0403 15:03:32.107928 14052 net.cpp:386] inception_3a/relu_3x3_reduce -> inception_3a/3x3_reduce (in-place)
I0403 15:03:32.108114 14052 net.cpp:141] Setting up inception_3a/relu_3x3_reduce
I0403 15:03:32.108141 14052 net.cpp:148] Top shape: 24 96 28 28 (1806336)
I0403 15:03:32.108156 14052 net.cpp:156] Memory required for data: 515408928
I0403 15:03:32.108171 14052 layer_factory.hpp:77] Creating layer inception_3a/3x3
I0403 15:03:32.108196 14052 net.cpp:91] Creating Layer inception_3a/3x3
I0403 15:03:32.108212 14052 net.cpp:425] inception_3a/3x3 <- inception_3a/3x3_reduce
I0403 15:03:32.108233 14052 net.cpp:399] inception_3a/3x3 -> inception_3a/3x3
I0403 15:03:32.109913 14052 net.cpp:141] Setting up inception_3a/3x3
I0403 15:03:32.109942 14052 net.cpp:148] Top shape: 24 128 28 28 (2408448)
I0403 15:03:32.109958 14052 net.cpp:156] Memory required for data: 525042720
I0403 15:03:32.109977 14052 layer_factory.hpp:77] Creating layer inception_3a/relu_3x3
I0403 15:03:32.110000 14052 net.cpp:91] Creating Layer inception_3a/relu_3x3
I0403 15:03:32.110018 14052 net.cpp:425] inception_3a/relu_3x3 <- inception_3a/3x3
I0403 15:03:32.110035 14052 net.cpp:386] inception_3a/relu_3x3 -> inception_3a/3x3 (in-place)
I0403 15:03:32.110317 14052 net.cpp:141] Setting up inception_3a/relu_3x3
I0403 15:03:32.110343 14052 net.cpp:148] Top shape: 24 128 28 28 (2408448)
I0403 15:03:32.110358 14052 net.cpp:156] Memory required for data: 534676512
I0403 15:03:32.110373 14052 layer_factory.hpp:77] Creating layer inception_3a/5x5_reduce
I0403 15:03:32.110395 14052 net.cpp:91] Creating Layer inception_3a/5x5_reduce
I0403 15:03:32.110412 14052 net.cpp:425] inception_3a/5x5_reduce <- pool2/3x3_s2_pool2/3x3_s2_0_split_2
I0403 15:03:32.110433 14052 net.cpp:399] inception_3a/5x5_reduce -> inception_3a/5x5_reduce
I0403 15:03:32.111428 14052 net.cpp:141] Setting up inception_3a/5x5_reduce
I0403 15:03:32.111457 14052 net.cpp:148] Top shape: 24 16 28 28 (301056)
I0403 15:03:32.111472 14052 net.cpp:156] Memory required for data: 535880736
I0403 15:03:32.111490 14052 layer_factory.hpp:77] Creating layer inception_3a/relu_5x5_reduce
I0403 15:03:32.111510 14052 net.cpp:91] Creating Layer inception_3a/relu_5x5_reduce
I0403 15:03:32.111527 14052 net.cpp:425] inception_3a/relu_5x5_reduce <- inception_3a/5x5_reduce
I0403 15:03:32.111546 14052 net.cpp:386] inception_3a/relu_5x5_reduce -> inception_3a/5x5_reduce (in-place)
I0403 15:03:32.111851 14052 net.cpp:141] Setting up inception_3a/relu_5x5_reduce
I0403 15:03:32.111882 14052 net.cpp:148] Top shape: 24 16 28 28 (301056)
I0403 15:03:32.111898 14052 net.cpp:156] Memory required for data: 537084960
I0403 15:03:32.111914 14052 layer_factory.hpp:77] Creating layer inception_3a/5x5
I0403 15:03:32.111937 14052 net.cpp:91] Creating Layer inception_3a/5x5
I0403 15:03:32.111954 14052 net.cpp:425] inception_3a/5x5 <- inception_3a/5x5_reduce
I0403 15:03:32.111973 14052 net.cpp:399] inception_3a/5x5 -> inception_3a/5x5
I0403 15:03:32.113029 14052 net.cpp:141] Setting up inception_3a/5x5
I0403 15:03:32.113059 14052 net.cpp:148] Top shape: 24 32 28 28 (602112)
I0403 15:03:32.113075 14052 net.cpp:156] Memory required for data: 539493408
I0403 15:03:32.113093 14052 layer_factory.hpp:77] Creating layer inception_3a/relu_5x5
I0403 15:03:32.113114 14052 net.cpp:91] Creating Layer inception_3a/relu_5x5
I0403 15:03:32.113132 14052 net.cpp:425] inception_3a/relu_5x5 <- inception_3a/5x5
I0403 15:03:32.113150 14052 net.cpp:386] inception_3a/relu_5x5 -> inception_3a/5x5 (in-place)
I0403 15:03:32.113330 14052 net.cpp:141] Setting up inception_3a/relu_5x5
I0403 15:03:32.113356 14052 net.cpp:148] Top shape: 24 32 28 28 (602112)
I0403 15:03:32.113371 14052 net.cpp:156] Memory required for data: 541901856
I0403 15:03:32.113386 14052 layer_factory.hpp:77] Creating layer inception_3a/pool
I0403 15:03:32.113407 14052 net.cpp:91] Creating Layer inception_3a/pool
I0403 15:03:32.113425 14052 net.cpp:425] inception_3a/pool <- pool2/3x3_s2_pool2/3x3_s2_0_split_3
I0403 15:03:32.113459 14052 net.cpp:399] inception_3a/pool -> inception_3a/pool
I0403 15:03:32.113523 14052 net.cpp:141] Setting up inception_3a/pool
I0403 15:03:32.113546 14052 net.cpp:148] Top shape: 24 192 28 28 (3612672)
I0403 15:03:32.113561 14052 net.cpp:156] Memory required for data: 556352544
I0403 15:03:32.113576 14052 layer_factory.hpp:77] Creating layer inception_3a/pool_proj
I0403 15:03:32.113607 14052 net.cpp:91] Creating Layer inception_3a/pool_proj
I0403 15:03:32.113627 14052 net.cpp:425] inception_3a/pool_proj <- inception_3a/pool
I0403 15:03:32.113649 14052 net.cpp:399] inception_3a/pool_proj -> inception_3a/pool_proj
I0403 15:03:32.114668 14052 net.cpp:141] Setting up inception_3a/pool_proj
I0403 15:03:32.114699 14052 net.cpp:148] Top shape: 24 32 28 28 (602112)
I0403 15:03:32.114717 14052 net.cpp:156] Memory required for data: 558760992
I0403 15:03:32.114739 14052 layer_factory.hpp:77] Creating layer inception_3a/relu_pool_proj
I0403 15:03:32.114763 14052 net.cpp:91] Creating Layer inception_3a/relu_pool_proj
I0403 15:03:32.114779 14052 net.cpp:425] inception_3a/relu_pool_proj <- inception_3a/pool_proj
I0403 15:03:32.114797 14052 net.cpp:386] inception_3a/relu_pool_proj -> inception_3a/pool_proj (in-place)
I0403 15:03:32.115084 14052 net.cpp:141] Setting up inception_3a/relu_pool_proj
I0403 15:03:32.115113 14052 net.cpp:148] Top shape: 24 32 28 28 (602112)
I0403 15:03:32.115128 14052 net.cpp:156] Memory required for data: 561169440
I0403 15:03:32.115144 14052 layer_factory.hpp:77] Creating layer inception_3a/output
I0403 15:03:32.115162 14052 net.cpp:91] Creating Layer inception_3a/output
I0403 15:03:32.115178 14052 net.cpp:425] inception_3a/output <- inception_3a/1x1
I0403 15:03:32.115195 14052 net.cpp:425] inception_3a/output <- inception_3a/3x3
I0403 15:03:32.115211 14052 net.cpp:425] inception_3a/output <- inception_3a/5x5
I0403 15:03:32.115227 14052 net.cpp:425] inception_3a/output <- inception_3a/pool_proj
I0403 15:03:32.115247 14052 net.cpp:399] inception_3a/output -> inception_3a/output
I0403 15:03:32.115300 14052 net.cpp:141] Setting up inception_3a/output
I0403 15:03:32.115324 14052 net.cpp:148] Top shape: 24 256 28 28 (4816896)
I0403 15:03:32.115339 14052 net.cpp:156] Memory required for data: 580437024
I0403 15:03:32.115355 14052 layer_factory.hpp:77] Creating layer inception_3a/output_inception_3a/output_0_split
I0403 15:03:32.115372 14052 net.cpp:91] Creating Layer inception_3a/output_inception_3a/output_0_split
I0403 15:03:32.115388 14052 net.cpp:425] inception_3a/output_inception_3a/output_0_split <- inception_3a/output
I0403 15:03:32.115408 14052 net.cpp:399] inception_3a/output_inception_3a/output_0_split -> inception_3a/output_inception_3a/output_0_split_0
I0403 15:03:32.115429 14052 net.cpp:399] inception_3a/output_inception_3a/output_0_split -> inception_3a/output_inception_3a/output_0_split_1
I0403 15:03:32.115453 14052 net.cpp:399] inception_3a/output_inception_3a/output_0_split -> inception_3a/output_inception_3a/output_0_split_2
I0403 15:03:32.115476 14052 net.cpp:399] inception_3a/output_inception_3a/output_0_split -> inception_3a/output_inception_3a/output_0_split_3
I0403 15:03:32.115557 14052 net.cpp:141] Setting up inception_3a/output_inception_3a/output_0_split
I0403 15:03:32.115581 14052 net.cpp:148] Top shape: 24 256 28 28 (4816896)
I0403 15:03:32.115602 14052 net.cpp:148] Top shape: 24 256 28 28 (4816896)
I0403 15:03:32.115620 14052 net.cpp:148] Top shape: 24 256 28 28 (4816896)
I0403 15:03:32.115636 14052 net.cpp:148] Top shape: 24 256 28 28 (4816896)
I0403 15:03:32.115650 14052 net.cpp:156] Memory required for data: 657507360
I0403 15:03:32.115665 14052 layer_factory.hpp:77] Creating layer inception_3b/1x1
I0403 15:03:32.115689 14052 net.cpp:91] Creating Layer inception_3b/1x1
I0403 15:03:32.115706 14052 net.cpp:425] inception_3b/1x1 <- inception_3a/output_inception_3a/output_0_split_0
I0403 15:03:32.115728 14052 net.cpp:399] inception_3b/1x1 -> inception_3b/1x1
I0403 15:03:32.116921 14052 net.cpp:141] Setting up inception_3b/1x1
I0403 15:03:32.116963 14052 net.cpp:148] Top shape: 24 128 28 28 (2408448)
I0403 15:03:32.116981 14052 net.cpp:156] Memory required for data: 667141152
I0403 15:03:32.117000 14052 layer_factory.hpp:77] Creating layer inception_3b/relu_1x1
I0403 15:03:32.117019 14052 net.cpp:91] Creating Layer inception_3b/relu_1x1
I0403 15:03:32.117036 14052 net.cpp:425] inception_3b/relu_1x1 <- inception_3b/1x1
I0403 15:03:32.117058 14052 net.cpp:386] inception_3b/relu_1x1 -> inception_3b/1x1 (in-place)
I0403 15:03:32.117240 14052 net.cpp:141] Setting up inception_3b/relu_1x1
I0403 15:03:32.117269 14052 net.cpp:148] Top shape: 24 128 28 28 (2408448)
I0403 15:03:32.117283 14052 net.cpp:156] Memory required for data: 676774944
I0403 15:03:32.117298 14052 layer_factory.hpp:77] Creating layer inception_3b/3x3_reduce
I0403 15:03:32.117322 14052 net.cpp:91] Creating Layer inception_3b/3x3_reduce
I0403 15:03:32.117341 14052 net.cpp:425] inception_3b/3x3_reduce <- inception_3a/output_inception_3a/output_0_split_1
I0403 15:03:32.117363 14052 net.cpp:399] inception_3b/3x3_reduce -> inception_3b/3x3_reduce
I0403 15:03:32.118554 14052 net.cpp:141] Setting up inception_3b/3x3_reduce
I0403 15:03:32.118584 14052 net.cpp:148] Top shape: 24 128 28 28 (2408448)
I0403 15:03:32.118605 14052 net.cpp:156] Memory required for data: 686408736
I0403 15:03:32.118625 14052 layer_factory.hpp:77] Creating layer inception_3b/relu_3x3_reduce
I0403 15:03:32.118644 14052 net.cpp:91] Creating Layer inception_3b/relu_3x3_reduce
I0403 15:03:32.118661 14052 net.cpp:425] inception_3b/relu_3x3_reduce <- inception_3b/3x3_reduce
I0403 15:03:32.118681 14052 net.cpp:386] inception_3b/relu_3x3_reduce -> inception_3b/3x3_reduce (in-place)
I0403 15:03:32.118863 14052 net.cpp:141] Setting up inception_3b/relu_3x3_reduce
I0403 15:03:32.118891 14052 net.cpp:148] Top shape: 24 128 28 28 (2408448)
I0403 15:03:32.118906 14052 net.cpp:156] Memory required for data: 696042528
I0403 15:03:32.118921 14052 layer_factory.hpp:77] Creating layer inception_3b/3x3
I0403 15:03:32.118947 14052 net.cpp:91] Creating Layer inception_3b/3x3
I0403 15:03:32.118966 14052 net.cpp:425] inception_3b/3x3 <- inception_3b/3x3_reduce
I0403 15:03:32.118986 14052 net.cpp:399] inception_3b/3x3 -> inception_3b/3x3
I0403 15:03:32.122047 14052 net.cpp:141] Setting up inception_3b/3x3
I0403 15:03:32.122077 14052 net.cpp:148] Top shape: 24 192 28 28 (3612672)
I0403 15:03:32.122093 14052 net.cpp:156] Memory required for data: 710493216
I0403 15:03:32.122112 14052 layer_factory.hpp:77] Creating layer inception_3b/relu_3x3
I0403 15:03:32.122134 14052 net.cpp:91] Creating Layer inception_3b/relu_3x3
I0403 15:03:32.122151 14052 net.cpp:425] inception_3b/relu_3x3 <- inception_3b/3x3
I0403 15:03:32.122169 14052 net.cpp:386] inception_3b/relu_3x3 -> inception_3b/3x3 (in-place)
I0403 15:03:32.122462 14052 net.cpp:141] Setting up inception_3b/relu_3x3
I0403 15:03:32.122489 14052 net.cpp:148] Top shape: 24 192 28 28 (3612672)
I0403 15:03:32.122504 14052 net.cpp:156] Memory required for data: 724943904
I0403 15:03:32.122520 14052 layer_factory.hpp:77] Creating layer inception_3b/5x5_reduce
I0403 15:03:32.122545 14052 net.cpp:91] Creating Layer inception_3b/5x5_reduce
I0403 15:03:32.122563 14052 net.cpp:425] inception_3b/5x5_reduce <- inception_3a/output_inception_3a/output_0_split_2
I0403 15:03:32.122586 14052 net.cpp:399] inception_3b/5x5_reduce -> inception_3b/5x5_reduce
I0403 15:03:32.123641 14052 net.cpp:141] Setting up inception_3b/5x5_reduce
I0403 15:03:32.123672 14052 net.cpp:148] Top shape: 24 32 28 28 (602112)
I0403 15:03:32.123687 14052 net.cpp:156] Memory required for data: 727352352
I0403 15:03:32.123706 14052 layer_factory.hpp:77] Creating layer inception_3b/relu_5x5_reduce
I0403 15:03:32.123728 14052 net.cpp:91] Creating Layer inception_3b/relu_5x5_reduce
I0403 15:03:32.123745 14052 net.cpp:425] inception_3b/relu_5x5_reduce <- inception_3b/5x5_reduce
I0403 15:03:32.123764 14052 net.cpp:386] inception_3b/relu_5x5_reduce -> inception_3b/5x5_reduce (in-place)
I0403 15:03:32.123947 14052 net.cpp:141] Setting up inception_3b/relu_5x5_reduce
I0403 15:03:32.123989 14052 net.cpp:148] Top shape: 24 32 28 28 (602112)
I0403 15:03:32.124006 14052 net.cpp:156] Memory required for data: 729760800
I0403 15:03:32.124022 14052 layer_factory.hpp:77] Creating layer inception_3b/5x5
I0403 15:03:32.124042 14052 net.cpp:91] Creating Layer inception_3b/5x5
I0403 15:03:32.124058 14052 net.cpp:425] inception_3b/5x5 <- inception_3b/5x5_reduce
I0403 15:03:32.124080 14052 net.cpp:399] inception_3b/5x5 -> inception_3b/5x5
I0403 15:03:32.126163 14052 net.cpp:141] Setting up inception_3b/5x5
I0403 15:03:32.126194 14052 net.cpp:148] Top shape: 24 96 28 28 (1806336)
I0403 15:03:32.126209 14052 net.cpp:156] Memory required for data: 736986144
I0403 15:03:32.126227 14052 layer_factory.hpp:77] Creating layer inception_3b/relu_5x5
I0403 15:03:32.126246 14052 net.cpp:91] Creating Layer inception_3b/relu_5x5
I0403 15:03:32.126262 14052 net.cpp:425] inception_3b/relu_5x5 <- inception_3b/5x5
I0403 15:03:32.126282 14052 net.cpp:386] inception_3b/relu_5x5 -> inception_3b/5x5 (in-place)
I0403 15:03:32.126477 14052 net.cpp:141] Setting up inception_3b/relu_5x5
I0403 15:03:32.126503 14052 net.cpp:148] Top shape: 24 96 28 28 (1806336)
I0403 15:03:32.126518 14052 net.cpp:156] Memory required for data: 744211488
I0403 15:03:32.126533 14052 layer_factory.hpp:77] Creating layer inception_3b/pool
I0403 15:03:32.126550 14052 net.cpp:91] Creating Layer inception_3b/pool
I0403 15:03:32.126566 14052 net.cpp:425] inception_3b/pool <- inception_3a/output_inception_3a/output_0_split_3
I0403 15:03:32.126587 14052 net.cpp:399] inception_3b/pool -> inception_3b/pool
I0403 15:03:32.126652 14052 net.cpp:141] Setting up inception_3b/pool
I0403 15:03:32.126675 14052 net.cpp:148] Top shape: 24 256 28 28 (4816896)
I0403 15:03:32.126689 14052 net.cpp:156] Memory required for data: 763479072
I0403 15:03:32.126703 14052 layer_factory.hpp:77] Creating layer inception_3b/pool_proj
I0403 15:03:32.126725 14052 net.cpp:91] Creating Layer inception_3b/pool_proj
I0403 15:03:32.126744 14052 net.cpp:425] inception_3b/pool_proj <- inception_3b/pool
I0403 15:03:32.126765 14052 net.cpp:399] inception_3b/pool_proj -> inception_3b/pool_proj
I0403 15:03:32.127858 14052 net.cpp:141] Setting up inception_3b/pool_proj
I0403 15:03:32.127887 14052 net.cpp:148] Top shape: 24 64 28 28 (1204224)
I0403 15:03:32.127904 14052 net.cpp:156] Memory required for data: 768295968
I0403 15:03:32.127921 14052 layer_factory.hpp:77] Creating layer inception_3b/relu_pool_proj
I0403 15:03:32.127939 14052 net.cpp:91] Creating Layer inception_3b/relu_pool_proj
I0403 15:03:32.127955 14052 net.cpp:425] inception_3b/relu_pool_proj <- inception_3b/pool_proj
I0403 15:03:32.127972 14052 net.cpp:386] inception_3b/relu_pool_proj -> inception_3b/pool_proj (in-place)
I0403 15:03:32.128367 14052 net.cpp:141] Setting up inception_3b/relu_pool_proj
I0403 15:03:32.128393 14052 net.cpp:148] Top shape: 24 64 28 28 (1204224)
I0403 15:03:32.128408 14052 net.cpp:156] Memory required for data: 773112864
I0403 15:03:32.128422 14052 layer_factory.hpp:77] Creating layer inception_3b/output
I0403 15:03:32.128442 14052 net.cpp:91] Creating Layer inception_3b/output
I0403 15:03:32.128458 14052 net.cpp:425] inception_3b/output <- inception_3b/1x1
I0403 15:03:32.128474 14052 net.cpp:425] inception_3b/output <- inception_3b/3x3
I0403 15:03:32.128490 14052 net.cpp:425] inception_3b/output <- inception_3b/5x5
I0403 15:03:32.128505 14052 net.cpp:425] inception_3b/output <- inception_3b/pool_proj
I0403 15:03:32.128522 14052 net.cpp:399] inception_3b/output -> inception_3b/output
I0403 15:03:32.128567 14052 net.cpp:141] Setting up inception_3b/output
I0403 15:03:32.128590 14052 net.cpp:148] Top shape: 24 480 28 28 (9031680)
I0403 15:03:32.128608 14052 net.cpp:156] Memory required for data: 809239584
I0403 15:03:32.128624 14052 layer_factory.hpp:77] Creating layer pool3/3x3_s2
I0403 15:03:32.128640 14052 net.cpp:91] Creating Layer pool3/3x3_s2
I0403 15:03:32.128655 14052 net.cpp:425] pool3/3x3_s2 <- inception_3b/output
I0403 15:03:32.128675 14052 net.cpp:399] pool3/3x3_s2 -> pool3/3x3_s2
I0403 15:03:32.128747 14052 net.cpp:141] Setting up pool3/3x3_s2
I0403 15:03:32.128770 14052 net.cpp:148] Top shape: 24 480 14 14 (2257920)
I0403 15:03:32.128784 14052 net.cpp:156] Memory required for data: 818271264
I0403 15:03:32.128798 14052 layer_factory.hpp:77] Creating layer pool3/3x3_s2_pool3/3x3_s2_0_split
I0403 15:03:32.128818 14052 net.cpp:91] Creating Layer pool3/3x3_s2_pool3/3x3_s2_0_split
I0403 15:03:32.128834 14052 net.cpp:425] pool3/3x3_s2_pool3/3x3_s2_0_split <- pool3/3x3_s2
I0403 15:03:32.128852 14052 net.cpp:399] pool3/3x3_s2_pool3/3x3_s2_0_split -> pool3/3x3_s2_pool3/3x3_s2_0_split_0
I0403 15:03:32.128871 14052 net.cpp:399] pool3/3x3_s2_pool3/3x3_s2_0_split -> pool3/3x3_s2_pool3/3x3_s2_0_split_1
I0403 15:03:32.128890 14052 net.cpp:399] pool3/3x3_s2_pool3/3x3_s2_0_split -> pool3/3x3_s2_pool3/3x3_s2_0_split_2
I0403 15:03:32.128909 14052 net.cpp:399] pool3/3x3_s2_pool3/3x3_s2_0_split -> pool3/3x3_s2_pool3/3x3_s2_0_split_3
I0403 15:03:32.128983 14052 net.cpp:141] Setting up pool3/3x3_s2_pool3/3x3_s2_0_split
I0403 15:03:32.129007 14052 net.cpp:148] Top shape: 24 480 14 14 (2257920)
I0403 15:03:32.129024 14052 net.cpp:148] Top shape: 24 480 14 14 (2257920)
I0403 15:03:32.129040 14052 net.cpp:148] Top shape: 24 480 14 14 (2257920)
I0403 15:03:32.129055 14052 net.cpp:148] Top shape: 24 480 14 14 (2257920)
I0403 15:03:32.129067 14052 net.cpp:156] Memory required for data: 854397984
I0403 15:03:32.129081 14052 layer_factory.hpp:77] Creating layer inception_4a/1x1
I0403 15:03:32.129099 14052 net.cpp:91] Creating Layer inception_4a/1x1
I0403 15:03:32.129115 14052 net.cpp:425] inception_4a/1x1 <- pool3/3x3_s2_pool3/3x3_s2_0_split_0
I0403 15:03:32.129135 14052 net.cpp:399] inception_4a/1x1 -> inception_4a/1x1
I0403 15:03:32.130695 14052 net.cpp:141] Setting up inception_4a/1x1
I0403 15:03:32.130727 14052 net.cpp:148] Top shape: 24 192 14 14 (903168)
I0403 15:03:32.130743 14052 net.cpp:156] Memory required for data: 858010656
I0403 15:03:32.130759 14052 layer_factory.hpp:77] Creating layer inception_4a/relu_1x1
I0403 15:03:32.130777 14052 net.cpp:91] Creating Layer inception_4a/relu_1x1
I0403 15:03:32.130792 14052 net.cpp:425] inception_4a/relu_1x1 <- inception_4a/1x1
I0403 15:03:32.130808 14052 net.cpp:386] inception_4a/relu_1x1 -> inception_4a/1x1 (in-place)
I0403 15:03:32.130986 14052 net.cpp:141] Setting up inception_4a/relu_1x1
I0403 15:03:32.131011 14052 net.cpp:148] Top shape: 24 192 14 14 (903168)
I0403 15:03:32.131026 14052 net.cpp:156] Memory required for data: 861623328
I0403 15:03:32.131039 14052 layer_factory.hpp:77] Creating layer inception_4a/3x3_reduce
I0403 15:03:32.131060 14052 net.cpp:91] Creating Layer inception_4a/3x3_reduce
I0403 15:03:32.131078 14052 net.cpp:425] inception_4a/3x3_reduce <- pool3/3x3_s2_pool3/3x3_s2_0_split_1
I0403 15:03:32.131098 14052 net.cpp:399] inception_4a/3x3_reduce -> inception_4a/3x3_reduce
I0403 15:03:32.132411 14052 net.cpp:141] Setting up inception_4a/3x3_reduce
I0403 15:03:32.132439 14052 net.cpp:148] Top shape: 24 96 14 14 (451584)
I0403 15:03:32.132455 14052 net.cpp:156] Memory required for data: 863429664
I0403 15:03:32.132479 14052 layer_factory.hpp:77] Creating layer inception_4a/relu_3x3_reduce
I0403 15:03:32.132498 14052 net.cpp:91] Creating Layer inception_4a/relu_3x3_reduce
I0403 15:03:32.132513 14052 net.cpp:425] inception_4a/relu_3x3_reduce <- inception_4a/3x3_reduce
I0403 15:03:32.132530 14052 net.cpp:386] inception_4a/relu_3x3_reduce -> inception_4a/3x3_reduce (in-place)
I0403 15:03:32.132709 14052 net.cpp:141] Setting up inception_4a/relu_3x3_reduce
I0403 15:03:32.132735 14052 net.cpp:148] Top shape: 24 96 14 14 (451584)
I0403 15:03:32.132750 14052 net.cpp:156] Memory required for data: 865236000
I0403 15:03:32.132763 14052 layer_factory.hpp:77] Creating layer inception_4a/3x3
I0403 15:03:32.132784 14052 net.cpp:91] Creating Layer inception_4a/3x3
I0403 15:03:32.132800 14052 net.cpp:425] inception_4a/3x3 <- inception_4a/3x3_reduce
I0403 15:03:32.132822 14052 net.cpp:399] inception_4a/3x3 -> inception_4a/3x3
I0403 15:03:32.135412 14052 net.cpp:141] Setting up inception_4a/3x3
I0403 15:03:32.135440 14052 net.cpp:148] Top shape: 24 208 14 14 (978432)
I0403 15:03:32.135455 14052 net.cpp:156] Memory required for data: 869149728
I0403 15:03:32.135473 14052 layer_factory.hpp:77] Creating layer inception_4a/relu_3x3
I0403 15:03:32.135489 14052 net.cpp:91] Creating Layer inception_4a/relu_3x3
I0403 15:03:32.135505 14052 net.cpp:425] inception_4a/relu_3x3 <- inception_4a/3x3
I0403 15:03:32.135524 14052 net.cpp:386] inception_4a/relu_3x3 -> inception_4a/3x3 (in-place)
I0403 15:03:32.135798 14052 net.cpp:141] Setting up inception_4a/relu_3x3
I0403 15:03:32.135823 14052 net.cpp:148] Top shape: 24 208 14 14 (978432)
I0403 15:03:32.135838 14052 net.cpp:156] Memory required for data: 873063456
I0403 15:03:32.135853 14052 layer_factory.hpp:77] Creating layer inception_4a/5x5_reduce
I0403 15:03:32.135874 14052 net.cpp:91] Creating Layer inception_4a/5x5_reduce
I0403 15:03:32.135890 14052 net.cpp:425] inception_4a/5x5_reduce <- pool3/3x3_s2_pool3/3x3_s2_0_split_2
I0403 15:03:32.135910 14052 net.cpp:399] inception_4a/5x5_reduce -> inception_4a/5x5_reduce
I0403 15:03:32.136917 14052 net.cpp:141] Setting up inception_4a/5x5_reduce
I0403 15:03:32.136943 14052 net.cpp:148] Top shape: 24 16 14 14 (75264)
I0403 15:03:32.136958 14052 net.cpp:156] Memory required for data: 873364512
I0403 15:03:32.136976 14052 layer_factory.hpp:77] Creating layer inception_4a/relu_5x5_reduce
I0403 15:03:32.136996 14052 net.cpp:91] Creating Layer inception_4a/relu_5x5_reduce
I0403 15:03:32.137012 14052 net.cpp:425] inception_4a/relu_5x5_reduce <- inception_4a/5x5_reduce
I0403 15:03:32.137029 14052 net.cpp:386] inception_4a/relu_5x5_reduce -> inception_4a/5x5_reduce (in-place)
I0403 15:03:32.137202 14052 net.cpp:141] Setting up inception_4a/relu_5x5_reduce
I0403 15:03:32.137225 14052 net.cpp:148] Top shape: 24 16 14 14 (75264)
I0403 15:03:32.137239 14052 net.cpp:156] Memory required for data: 873665568
I0403 15:03:32.137253 14052 layer_factory.hpp:77] Creating layer inception_4a/5x5
I0403 15:03:32.137276 14052 net.cpp:91] Creating Layer inception_4a/5x5
I0403 15:03:32.137292 14052 net.cpp:425] inception_4a/5x5 <- inception_4a/5x5_reduce
I0403 15:03:32.137315 14052 net.cpp:399] inception_4a/5x5 -> inception_4a/5x5
I0403 15:03:32.138377 14052 net.cpp:141] Setting up inception_4a/5x5
I0403 15:03:32.138403 14052 net.cpp:148] Top shape: 24 48 14 14 (225792)
I0403 15:03:32.138418 14052 net.cpp:156] Memory required for data: 874568736
I0403 15:03:32.138437 14052 layer_factory.hpp:77] Creating layer inception_4a/relu_5x5
I0403 15:03:32.138455 14052 net.cpp:91] Creating Layer inception_4a/relu_5x5
I0403 15:03:32.138471 14052 net.cpp:425] inception_4a/relu_5x5 <- inception_4a/5x5
I0403 15:03:32.138487 14052 net.cpp:386] inception_4a/relu_5x5 -> inception_4a/5x5 (in-place)
I0403 15:03:32.138666 14052 net.cpp:141] Setting up inception_4a/relu_5x5
I0403 15:03:32.138690 14052 net.cpp:148] Top shape: 24 48 14 14 (225792)
I0403 15:03:32.138705 14052 net.cpp:156] Memory required for data: 875471904
I0403 15:03:32.138718 14052 layer_factory.hpp:77] Creating layer inception_4a/pool
I0403 15:03:32.138734 14052 net.cpp:91] Creating Layer inception_4a/pool
I0403 15:03:32.138749 14052 net.cpp:425] inception_4a/pool <- pool3/3x3_s2_pool3/3x3_s2_0_split_3
I0403 15:03:32.138768 14052 net.cpp:399] inception_4a/pool -> inception_4a/pool
I0403 15:03:32.138828 14052 net.cpp:141] Setting up inception_4a/pool
I0403 15:03:32.138851 14052 net.cpp:148] Top shape: 24 480 14 14 (2257920)
I0403 15:03:32.138864 14052 net.cpp:156] Memory required for data: 884503584
I0403 15:03:32.138878 14052 layer_factory.hpp:77] Creating layer inception_4a/pool_proj
I0403 15:03:32.138900 14052 net.cpp:91] Creating Layer inception_4a/pool_proj
I0403 15:03:32.138917 14052 net.cpp:425] inception_4a/pool_proj <- inception_4a/pool
I0403 15:03:32.138934 14052 net.cpp:399] inception_4a/pool_proj -> inception_4a/pool_proj
I0403 15:03:32.140108 14052 net.cpp:141] Setting up inception_4a/pool_proj
I0403 15:03:32.140136 14052 net.cpp:148] Top shape: 24 64 14 14 (301056)
I0403 15:03:32.140167 14052 net.cpp:156] Memory required for data: 885707808
I0403 15:03:32.140187 14052 layer_factory.hpp:77] Creating layer inception_4a/relu_pool_proj
I0403 15:03:32.140203 14052 net.cpp:91] Creating Layer inception_4a/relu_pool_proj
I0403 15:03:32.140218 14052 net.cpp:425] inception_4a/relu_pool_proj <- inception_4a/pool_proj
I0403 15:03:32.140238 14052 net.cpp:386] inception_4a/relu_pool_proj -> inception_4a/pool_proj (in-place)
I0403 15:03:32.140512 14052 net.cpp:141] Setting up inception_4a/relu_pool_proj
I0403 15:03:32.140540 14052 net.cpp:148] Top shape: 24 64 14 14 (301056)
I0403 15:03:32.140557 14052 net.cpp:156] Memory required for data: 886912032
I0403 15:03:32.140570 14052 layer_factory.hpp:77] Creating layer inception_4a/output
I0403 15:03:32.140586 14052 net.cpp:91] Creating Layer inception_4a/output
I0403 15:03:32.140605 14052 net.cpp:425] inception_4a/output <- inception_4a/1x1
I0403 15:03:32.140624 14052 net.cpp:425] inception_4a/output <- inception_4a/3x3
I0403 15:03:32.140640 14052 net.cpp:425] inception_4a/output <- inception_4a/5x5
I0403 15:03:32.140653 14052 net.cpp:425] inception_4a/output <- inception_4a/pool_proj
I0403 15:03:32.140669 14052 net.cpp:399] inception_4a/output -> inception_4a/output
I0403 15:03:32.140714 14052 net.cpp:141] Setting up inception_4a/output
I0403 15:03:32.140736 14052 net.cpp:148] Top shape: 24 512 14 14 (2408448)
I0403 15:03:32.140750 14052 net.cpp:156] Memory required for data: 896545824
I0403 15:03:32.140764 14052 layer_factory.hpp:77] Creating layer inception_4a/output_inception_4a/output_0_split
I0403 15:03:32.140782 14052 net.cpp:91] Creating Layer inception_4a/output_inception_4a/output_0_split
I0403 15:03:32.140799 14052 net.cpp:425] inception_4a/output_inception_4a/output_0_split <- inception_4a/output
I0403 15:03:32.140815 14052 net.cpp:399] inception_4a/output_inception_4a/output_0_split -> inception_4a/output_inception_4a/output_0_split_0
I0403 15:03:32.140835 14052 net.cpp:399] inception_4a/output_inception_4a/output_0_split -> inception_4a/output_inception_4a/output_0_split_1
I0403 15:03:32.140856 14052 net.cpp:399] inception_4a/output_inception_4a/output_0_split -> inception_4a/output_inception_4a/output_0_split_2
I0403 15:03:32.140878 14052 net.cpp:399] inception_4a/output_inception_4a/output_0_split -> inception_4a/output_inception_4a/output_0_split_3
I0403 15:03:32.140897 14052 net.cpp:399] inception_4a/output_inception_4a/output_0_split -> inception_4a/output_inception_4a/output_0_split_4
I0403 15:03:32.140985 14052 net.cpp:141] Setting up inception_4a/output_inception_4a/output_0_split
I0403 15:03:32.141006 14052 net.cpp:148] Top shape: 24 512 14 14 (2408448)
I0403 15:03:32.141021 14052 net.cpp:148] Top shape: 24 512 14 14 (2408448)
I0403 15:03:32.141036 14052 net.cpp:148] Top shape: 24 512 14 14 (2408448)
I0403 15:03:32.141052 14052 net.cpp:148] Top shape: 24 512 14 14 (2408448)
I0403 15:03:32.141065 14052 net.cpp:148] Top shape: 24 512 14 14 (2408448)
I0403 15:03:32.141078 14052 net.cpp:156] Memory required for data: 944714784
I0403 15:03:32.141091 14052 layer_factory.hpp:77] Creating layer loss1/ave_pool
I0403 15:03:32.141108 14052 net.cpp:91] Creating Layer loss1/ave_pool
I0403 15:03:32.141122 14052 net.cpp:425] loss1/ave_pool <- inception_4a/output_inception_4a/output_0_split_0
I0403 15:03:32.141141 14052 net.cpp:399] loss1/ave_pool -> loss1/ave_pool
I0403 15:03:32.141341 14052 net.cpp:141] Setting up loss1/ave_pool
I0403 15:03:32.141368 14052 net.cpp:148] Top shape: 24 512 4 4 (196608)
I0403 15:03:32.141383 14052 net.cpp:156] Memory required for data: 945501216
I0403 15:03:32.141397 14052 layer_factory.hpp:77] Creating layer loss1/conv
I0403 15:03:32.141418 14052 net.cpp:91] Creating Layer loss1/conv
I0403 15:03:32.141435 14052 net.cpp:425] loss1/conv <- loss1/ave_pool
I0403 15:03:32.141453 14052 net.cpp:399] loss1/conv -> loss1/conv
I0403 15:03:32.142874 14052 net.cpp:141] Setting up loss1/conv
I0403 15:03:32.142902 14052 net.cpp:148] Top shape: 24 128 4 4 (49152)
I0403 15:03:32.142916 14052 net.cpp:156] Memory required for data: 945697824
I0403 15:03:32.142951 14052 layer_factory.hpp:77] Creating layer loss1/relu_conv
I0403 15:03:32.142969 14052 net.cpp:91] Creating Layer loss1/relu_conv
I0403 15:03:32.142987 14052 net.cpp:425] loss1/relu_conv <- loss1/conv
I0403 15:03:32.143009 14052 net.cpp:386] loss1/relu_conv -> loss1/conv (in-place)
I0403 15:03:32.143292 14052 net.cpp:141] Setting up loss1/relu_conv
I0403 15:03:32.143319 14052 net.cpp:148] Top shape: 24 128 4 4 (49152)
I0403 15:03:32.143334 14052 net.cpp:156] Memory required for data: 945894432
I0403 15:03:32.143349 14052 layer_factory.hpp:77] Creating layer loss1/fc
I0403 15:03:32.143371 14052 net.cpp:91] Creating Layer loss1/fc
I0403 15:03:32.143388 14052 net.cpp:425] loss1/fc <- loss1/conv
I0403 15:03:32.143409 14052 net.cpp:399] loss1/fc -> loss1/fc
I0403 15:03:32.161124 14052 net.cpp:141] Setting up loss1/fc
I0403 15:03:32.161157 14052 net.cpp:148] Top shape: 24 1024 (24576)
I0403 15:03:32.161172 14052 net.cpp:156] Memory required for data: 945992736
I0403 15:03:32.161190 14052 layer_factory.hpp:77] Creating layer loss1/relu_fc
I0403 15:03:32.161207 14052 net.cpp:91] Creating Layer loss1/relu_fc
I0403 15:03:32.161221 14052 net.cpp:425] loss1/relu_fc <- loss1/fc
I0403 15:03:32.161238 14052 net.cpp:386] loss1/relu_fc -> loss1/fc (in-place)
I0403 15:03:32.161424 14052 net.cpp:141] Setting up loss1/relu_fc
I0403 15:03:32.161450 14052 net.cpp:148] Top shape: 24 1024 (24576)
I0403 15:03:32.161464 14052 net.cpp:156] Memory required for data: 946091040
I0403 15:03:32.161478 14052 layer_factory.hpp:77] Creating layer loss1/drop_fc
I0403 15:03:32.161504 14052 net.cpp:91] Creating Layer loss1/drop_fc
I0403 15:03:32.161520 14052 net.cpp:425] loss1/drop_fc <- loss1/fc
I0403 15:03:32.161540 14052 net.cpp:386] loss1/drop_fc -> loss1/fc (in-place)
I0403 15:03:32.161589 14052 net.cpp:141] Setting up loss1/drop_fc
I0403 15:03:32.161615 14052 net.cpp:148] Top shape: 24 1024 (24576)
I0403 15:03:32.161629 14052 net.cpp:156] Memory required for data: 946189344
I0403 15:03:32.161644 14052 layer_factory.hpp:77] Creating layer loss1/classifier_plantvillage
I0403 15:03:32.161665 14052 net.cpp:91] Creating Layer loss1/classifier_plantvillage
I0403 15:03:32.161681 14052 net.cpp:425] loss1/classifier_plantvillage <- loss1/fc
I0403 15:03:32.161701 14052 net.cpp:399] loss1/classifier_plantvillage -> loss1/classifier_plantvillage
I0403 15:03:32.162611 14052 net.cpp:141] Setting up loss1/classifier_plantvillage
I0403 15:03:32.162638 14052 net.cpp:148] Top shape: 24 38 (912)
I0403 15:03:32.162653 14052 net.cpp:156] Memory required for data: 946192992
I0403 15:03:32.162670 14052 layer_factory.hpp:77] Creating layer loss1/classifier_plantvillage_loss1/classifier_plantvillage_0_split
I0403 15:03:32.162688 14052 net.cpp:91] Creating Layer loss1/classifier_plantvillage_loss1/classifier_plantvillage_0_split
I0403 15:03:32.162703 14052 net.cpp:425] loss1/classifier_plantvillage_loss1/classifier_plantvillage_0_split <- loss1/classifier_plantvillage
I0403 15:03:32.162720 14052 net.cpp:399] loss1/classifier_plantvillage_loss1/classifier_plantvillage_0_split -> loss1/classifier_plantvillage_loss1/classifier_plantvillage_0_split_0
I0403 15:03:32.162740 14052 net.cpp:399] loss1/classifier_plantvillage_loss1/classifier_plantvillage_0_split -> loss1/classifier_plantvillage_loss1/classifier_plantvillage_0_split_1
I0403 15:03:32.162760 14052 net.cpp:399] loss1/classifier_plantvillage_loss1/classifier_plantvillage_0_split -> loss1/classifier_plantvillage_loss1/classifier_plantvillage_0_split_2
I0403 15:03:32.162824 14052 net.cpp:141] Setting up loss1/classifier_plantvillage_loss1/classifier_plantvillage_0_split
I0403 15:03:32.162847 14052 net.cpp:148] Top shape: 24 38 (912)
I0403 15:03:32.162861 14052 net.cpp:148] Top shape: 24 38 (912)
I0403 15:03:32.162876 14052 net.cpp:148] Top shape: 24 38 (912)
I0403 15:03:32.162889 14052 net.cpp:156] Memory required for data: 946203936
I0403 15:03:32.162901 14052 layer_factory.hpp:77] Creating layer inception_4b/1x1
I0403 15:03:32.162924 14052 net.cpp:91] Creating Layer inception_4b/1x1
I0403 15:03:32.162955 14052 net.cpp:425] inception_4b/1x1 <- inception_4a/output_inception_4a/output_0_split_1
I0403 15:03:32.162974 14052 net.cpp:399] inception_4b/1x1 -> inception_4b/1x1
I0403 15:03:32.164567 14052 net.cpp:141] Setting up inception_4b/1x1
I0403 15:03:32.164618 14052 net.cpp:148] Top shape: 24 160 14 14 (752640)
I0403 15:03:32.164636 14052 net.cpp:156] Memory required for data: 949214496
I0403 15:03:32.164655 14052 layer_factory.hpp:77] Creating layer inception_4b/relu_1x1
I0403 15:03:32.164674 14052 net.cpp:91] Creating Layer inception_4b/relu_1x1
I0403 15:03:32.164690 14052 net.cpp:425] inception_4b/relu_1x1 <- inception_4b/1x1
I0403 15:03:32.164710 14052 net.cpp:386] inception_4b/relu_1x1 -> inception_4b/1x1 (in-place)
I0403 15:03:32.164891 14052 net.cpp:141] Setting up inception_4b/relu_1x1
I0403 15:03:32.164927 14052 net.cpp:148] Top shape: 24 160 14 14 (752640)
I0403 15:03:32.164942 14052 net.cpp:156] Memory required for data: 952225056
I0403 15:03:32.164957 14052 layer_factory.hpp:77] Creating layer inception_4b/3x3_reduce
I0403 15:03:32.164978 14052 net.cpp:91] Creating Layer inception_4b/3x3_reduce
I0403 15:03:32.164995 14052 net.cpp:425] inception_4b/3x3_reduce <- inception_4a/output_inception_4a/output_0_split_2
I0403 15:03:32.165017 14052 net.cpp:399] inception_4b/3x3_reduce -> inception_4b/3x3_reduce
I0403 15:03:32.166335 14052 net.cpp:141] Setting up inception_4b/3x3_reduce
I0403 15:03:32.166363 14052 net.cpp:148] Top shape: 24 112 14 14 (526848)
I0403 15:03:32.166378 14052 net.cpp:156] Memory required for data: 954332448
I0403 15:03:32.166395 14052 layer_factory.hpp:77] Creating layer inception_4b/relu_3x3_reduce
I0403 15:03:32.166415 14052 net.cpp:91] Creating Layer inception_4b/relu_3x3_reduce
I0403 15:03:32.166432 14052 net.cpp:425] inception_4b/relu_3x3_reduce <- inception_4b/3x3_reduce
I0403 15:03:32.166448 14052 net.cpp:386] inception_4b/relu_3x3_reduce -> inception_4b/3x3_reduce (in-place)
I0403 15:03:32.166733 14052 net.cpp:141] Setting up inception_4b/relu_3x3_reduce
I0403 15:03:32.166759 14052 net.cpp:148] Top shape: 24 112 14 14 (526848)
I0403 15:03:32.166772 14052 net.cpp:156] Memory required for data: 956439840
I0403 15:03:32.166785 14052 layer_factory.hpp:77] Creating layer inception_4b/3x3
I0403 15:03:32.166807 14052 net.cpp:91] Creating Layer inception_4b/3x3
I0403 15:03:32.166824 14052 net.cpp:425] inception_4b/3x3 <- inception_4b/3x3_reduce
I0403 15:03:32.166843 14052 net.cpp:399] inception_4b/3x3 -> inception_4b/3x3
I0403 15:03:32.169739 14052 net.cpp:141] Setting up inception_4b/3x3
I0403 15:03:32.169770 14052 net.cpp:148] Top shape: 24 224 14 14 (1053696)
I0403 15:03:32.169785 14052 net.cpp:156] Memory required for data: 960654624
I0403 15:03:32.169803 14052 layer_factory.hpp:77] Creating layer inception_4b/relu_3x3
I0403 15:03:32.169822 14052 net.cpp:91] Creating Layer inception_4b/relu_3x3
I0403 15:03:32.169837 14052 net.cpp:425] inception_4b/relu_3x3 <- inception_4b/3x3
I0403 15:03:32.169858 14052 net.cpp:386] inception_4b/relu_3x3 -> inception_4b/3x3 (in-place)
I0403 15:03:32.170038 14052 net.cpp:141] Setting up inception_4b/relu_3x3
I0403 15:03:32.170064 14052 net.cpp:148] Top shape: 24 224 14 14 (1053696)
I0403 15:03:32.170078 14052 net.cpp:156] Memory required for data: 964869408
I0403 15:03:32.170092 14052 layer_factory.hpp:77] Creating layer inception_4b/5x5_reduce
I0403 15:03:32.170114 14052 net.cpp:91] Creating Layer inception_4b/5x5_reduce
I0403 15:03:32.170131 14052 net.cpp:425] inception_4b/5x5_reduce <- inception_4a/output_inception_4a/output_0_split_3
I0403 15:03:32.170151 14052 net.cpp:399] inception_4b/5x5_reduce -> inception_4b/5x5_reduce
I0403 15:03:32.171246 14052 net.cpp:141] Setting up inception_4b/5x5_reduce
I0403 15:03:32.171275 14052 net.cpp:148] Top shape: 24 24 14 14 (112896)
I0403 15:03:32.171290 14052 net.cpp:156] Memory required for data: 965320992
I0403 15:03:32.171308 14052 layer_factory.hpp:77] Creating layer inception_4b/relu_5x5_reduce
I0403 15:03:32.171329 14052 net.cpp:91] Creating Layer inception_4b/relu_5x5_reduce
I0403 15:03:32.171360 14052 net.cpp:425] inception_4b/relu_5x5_reduce <- inception_4b/5x5_reduce
I0403 15:03:32.171378 14052 net.cpp:386] inception_4b/relu_5x5_reduce -> inception_4b/5x5_reduce (in-place)
I0403 15:03:32.171562 14052 net.cpp:141] Setting up inception_4b/relu_5x5_reduce
I0403 15:03:32.171586 14052 net.cpp:148] Top shape: 24 24 14 14 (112896)
I0403 15:03:32.171605 14052 net.cpp:156] Memory required for data: 965772576
I0403 15:03:32.171620 14052 layer_factory.hpp:77] Creating layer inception_4b/5x5
I0403 15:03:32.171644 14052 net.cpp:91] Creating Layer inception_4b/5x5
I0403 15:03:32.171661 14052 net.cpp:425] inception_4b/5x5 <- inception_4b/5x5_reduce
I0403 15:03:32.171679 14052 net.cpp:399] inception_4b/5x5 -> inception_4b/5x5
I0403 15:03:32.172909 14052 net.cpp:141] Setting up inception_4b/5x5
I0403 15:03:32.172936 14052 net.cpp:148] Top shape: 24 64 14 14 (301056)
I0403 15:03:32.172951 14052 net.cpp:156] Memory required for data: 966976800
I0403 15:03:32.172969 14052 layer_factory.hpp:77] Creating layer inception_4b/relu_5x5
I0403 15:03:32.172987 14052 net.cpp:91] Creating Layer inception_4b/relu_5x5
I0403 15:03:32.173003 14052 net.cpp:425] inception_4b/relu_5x5 <- inception_4b/5x5
I0403 15:03:32.173022 14052 net.cpp:386] inception_4b/relu_5x5 -> inception_4b/5x5 (in-place)
I0403 15:03:32.173308 14052 net.cpp:141] Setting up inception_4b/relu_5x5
I0403 15:03:32.173334 14052 net.cpp:148] Top shape: 24 64 14 14 (301056)
I0403 15:03:32.173349 14052 net.cpp:156] Memory required for data: 968181024
I0403 15:03:32.173363 14052 layer_factory.hpp:77] Creating layer inception_4b/pool
I0403 15:03:32.173380 14052 net.cpp:91] Creating Layer inception_4b/pool
I0403 15:03:32.173395 14052 net.cpp:425] inception_4b/pool <- inception_4a/output_inception_4a/output_0_split_4
I0403 15:03:32.173415 14052 net.cpp:399] inception_4b/pool -> inception_4b/pool
I0403 15:03:32.173480 14052 net.cpp:141] Setting up inception_4b/pool
I0403 15:03:32.173502 14052 net.cpp:148] Top shape: 24 512 14 14 (2408448)
I0403 15:03:32.173516 14052 net.cpp:156] Memory required for data: 977814816
I0403 15:03:32.173530 14052 layer_factory.hpp:77] Creating layer inception_4b/pool_proj
I0403 15:03:32.173553 14052 net.cpp:91] Creating Layer inception_4b/pool_proj
I0403 15:03:32.173570 14052 net.cpp:425] inception_4b/pool_proj <- inception_4b/pool
I0403 15:03:32.173588 14052 net.cpp:399] inception_4b/pool_proj -> inception_4b/pool_proj
I0403 15:03:32.174813 14052 net.cpp:141] Setting up inception_4b/pool_proj
I0403 15:03:32.174839 14052 net.cpp:148] Top shape: 24 64 14 14 (301056)
I0403 15:03:32.174855 14052 net.cpp:156] Memory required for data: 979019040
I0403 15:03:32.174873 14052 layer_factory.hpp:77] Creating layer inception_4b/relu_pool_proj
I0403 15:03:32.174893 14052 net.cpp:91] Creating Layer inception_4b/relu_pool_proj
I0403 15:03:32.174911 14052 net.cpp:425] inception_4b/relu_pool_proj <- inception_4b/pool_proj
I0403 15:03:32.174926 14052 net.cpp:386] inception_4b/relu_pool_proj -> inception_4b/pool_proj (in-place)
I0403 15:03:32.175107 14052 net.cpp:141] Setting up inception_4b/relu_pool_proj
I0403 15:03:32.175135 14052 net.cpp:148] Top shape: 24 64 14 14 (301056)
I0403 15:03:32.175150 14052 net.cpp:156] Memory required for data: 980223264
I0403 15:03:32.175165 14052 layer_factory.hpp:77] Creating layer inception_4b/output
I0403 15:03:32.175182 14052 net.cpp:91] Creating Layer inception_4b/output
I0403 15:03:32.175196 14052 net.cpp:425] inception_4b/output <- inception_4b/1x1
I0403 15:03:32.175212 14052 net.cpp:425] inception_4b/output <- inception_4b/3x3
I0403 15:03:32.175230 14052 net.cpp:425] inception_4b/output <- inception_4b/5x5
I0403 15:03:32.175246 14052 net.cpp:425] inception_4b/output <- inception_4b/pool_proj
I0403 15:03:32.175263 14052 net.cpp:399] inception_4b/output -> inception_4b/output
I0403 15:03:32.175310 14052 net.cpp:141] Setting up inception_4b/output
I0403 15:03:32.175333 14052 net.cpp:148] Top shape: 24 512 14 14 (2408448)
I0403 15:03:32.175348 14052 net.cpp:156] Memory required for data: 989857056
I0403 15:03:32.175375 14052 layer_factory.hpp:77] Creating layer inception_4b/output_inception_4b/output_0_split
I0403 15:03:32.175393 14052 net.cpp:91] Creating Layer inception_4b/output_inception_4b/output_0_split
I0403 15:03:32.175412 14052 net.cpp:425] inception_4b/output_inception_4b/output_0_split <- inception_4b/output
I0403 15:03:32.175429 14052 net.cpp:399] inception_4b/output_inception_4b/output_0_split -> inception_4b/output_inception_4b/output_0_split_0
I0403 15:03:32.175449 14052 net.cpp:399] inception_4b/output_inception_4b/output_0_split -> inception_4b/output_inception_4b/output_0_split_1
I0403 15:03:32.175469 14052 net.cpp:399] inception_4b/output_inception_4b/output_0_split -> inception_4b/output_inception_4b/output_0_split_2
I0403 15:03:32.175488 14052 net.cpp:399] inception_4b/output_inception_4b/output_0_split -> inception_4b/output_inception_4b/output_0_split_3
I0403 15:03:32.175573 14052 net.cpp:141] Setting up inception_4b/output_inception_4b/output_0_split
I0403 15:03:32.175596 14052 net.cpp:148] Top shape: 24 512 14 14 (2408448)
I0403 15:03:32.175617 14052 net.cpp:148] Top shape: 24 512 14 14 (2408448)
I0403 15:03:32.175632 14052 net.cpp:148] Top shape: 24 512 14 14 (2408448)
I0403 15:03:32.175647 14052 net.cpp:148] Top shape: 24 512 14 14 (2408448)
I0403 15:03:32.175660 14052 net.cpp:156] Memory required for data: 1028392224
I0403 15:03:32.175674 14052 layer_factory.hpp:77] Creating layer inception_4c/1x1
I0403 15:03:32.175695 14052 net.cpp:91] Creating Layer inception_4c/1x1
I0403 15:03:32.175712 14052 net.cpp:425] inception_4c/1x1 <- inception_4b/output_inception_4b/output_0_split_0
I0403 15:03:32.175732 14052 net.cpp:399] inception_4c/1x1 -> inception_4c/1x1
I0403 15:03:32.177170 14052 net.cpp:141] Setting up inception_4c/1x1
I0403 15:03:32.177201 14052 net.cpp:148] Top shape: 24 128 14 14 (602112)
I0403 15:03:32.177217 14052 net.cpp:156] Memory required for data: 1030800672
I0403 15:03:32.177235 14052 layer_factory.hpp:77] Creating layer inception_4c/relu_1x1
I0403 15:03:32.177253 14052 net.cpp:91] Creating Layer inception_4c/relu_1x1
I0403 15:03:32.177269 14052 net.cpp:425] inception_4c/relu_1x1 <- inception_4c/1x1
I0403 15:03:32.177285 14052 net.cpp:386] inception_4c/relu_1x1 -> inception_4c/1x1 (in-place)
I0403 15:03:32.177470 14052 net.cpp:141] Setting up inception_4c/relu_1x1
I0403 15:03:32.177495 14052 net.cpp:148] Top shape: 24 128 14 14 (602112)
I0403 15:03:32.177510 14052 net.cpp:156] Memory required for data: 1033209120
I0403 15:03:32.177523 14052 layer_factory.hpp:77] Creating layer inception_4c/3x3_reduce
I0403 15:03:32.177546 14052 net.cpp:91] Creating Layer inception_4c/3x3_reduce
I0403 15:03:32.177562 14052 net.cpp:425] inception_4c/3x3_reduce <- inception_4b/output_inception_4b/output_0_split_1
I0403 15:03:32.177582 14052 net.cpp:399] inception_4c/3x3_reduce -> inception_4c/3x3_reduce
I0403 15:03:32.179527 14052 net.cpp:141] Setting up inception_4c/3x3_reduce
I0403 15:03:32.179555 14052 net.cpp:148] Top shape: 24 128 14 14 (602112)
I0403 15:03:32.179570 14052 net.cpp:156] Memory required for data: 1035617568
I0403 15:03:32.179589 14052 layer_factory.hpp:77] Creating layer inception_4c/relu_3x3_reduce
I0403 15:03:32.179613 14052 net.cpp:91] Creating Layer inception_4c/relu_3x3_reduce
I0403 15:03:32.179631 14052 net.cpp:425] inception_4c/relu_3x3_reduce <- inception_4c/3x3_reduce
I0403 15:03:32.179647 14052 net.cpp:386] inception_4c/relu_3x3_reduce -> inception_4c/3x3_reduce (in-place)
I0403 15:03:32.179934 14052 net.cpp:141] Setting up inception_4c/relu_3x3_reduce
I0403 15:03:32.179961 14052 net.cpp:148] Top shape: 24 128 14 14 (602112)
I0403 15:03:32.179975 14052 net.cpp:156] Memory required for data: 1038026016
I0403 15:03:32.179989 14052 layer_factory.hpp:77] Creating layer inception_4c/3x3
I0403 15:03:32.180011 14052 net.cpp:91] Creating Layer inception_4c/3x3
I0403 15:03:32.180028 14052 net.cpp:425] inception_4c/3x3 <- inception_4c/3x3_reduce
I0403 15:03:32.180049 14052 net.cpp:399] inception_4c/3x3 -> inception_4c/3x3
I0403 15:03:32.183684 14052 net.cpp:141] Setting up inception_4c/3x3
I0403 15:03:32.183725 14052 net.cpp:148] Top shape: 24 256 14 14 (1204224)
I0403 15:03:32.183742 14052 net.cpp:156] Memory required for data: 1042842912
I0403 15:03:32.183773 14052 layer_factory.hpp:77] Creating layer inception_4c/relu_3x3
I0403 15:03:32.183795 14052 net.cpp:91] Creating Layer inception_4c/relu_3x3
I0403 15:03:32.183812 14052 net.cpp:425] inception_4c/relu_3x3 <- inception_4c/3x3
I0403 15:03:32.183828 14052 net.cpp:386] inception_4c/relu_3x3 -> inception_4c/3x3 (in-place)
I0403 15:03:32.184011 14052 net.cpp:141] Setting up inception_4c/relu_3x3
I0403 15:03:32.184037 14052 net.cpp:148] Top shape: 24 256 14 14 (1204224)
I0403 15:03:32.184051 14052 net.cpp:156] Memory required for data: 1047659808
I0403 15:03:32.184065 14052 layer_factory.hpp:77] Creating layer inception_4c/5x5_reduce
I0403 15:03:32.184087 14052 net.cpp:91] Creating Layer inception_4c/5x5_reduce
I0403 15:03:32.184104 14052 net.cpp:425] inception_4c/5x5_reduce <- inception_4b/output_inception_4b/output_0_split_2
I0403 15:03:32.184124 14052 net.cpp:399] inception_4c/5x5_reduce -> inception_4c/5x5_reduce
I0403 15:03:32.185245 14052 net.cpp:141] Setting up inception_4c/5x5_reduce
I0403 15:03:32.185274 14052 net.cpp:148] Top shape: 24 24 14 14 (112896)
I0403 15:03:32.185291 14052 net.cpp:156] Memory required for data: 1048111392
I0403 15:03:32.185307 14052 layer_factory.hpp:77] Creating layer inception_4c/relu_5x5_reduce
I0403 15:03:32.185328 14052 net.cpp:91] Creating Layer inception_4c/relu_5x5_reduce
I0403 15:03:32.185344 14052 net.cpp:425] inception_4c/relu_5x5_reduce <- inception_4c/5x5_reduce
I0403 15:03:32.185361 14052 net.cpp:386] inception_4c/relu_5x5_reduce -> inception_4c/5x5_reduce (in-place)
I0403 15:03:32.185550 14052 net.cpp:141] Setting up inception_4c/relu_5x5_reduce
I0403 15:03:32.185575 14052 net.cpp:148] Top shape: 24 24 14 14 (112896)
I0403 15:03:32.185590 14052 net.cpp:156] Memory required for data: 1048562976
I0403 15:03:32.185608 14052 layer_factory.hpp:77] Creating layer inception_4c/5x5
I0403 15:03:32.185632 14052 net.cpp:91] Creating Layer inception_4c/5x5
I0403 15:03:32.185649 14052 net.cpp:425] inception_4c/5x5 <- inception_4c/5x5_reduce
I0403 15:03:32.185667 14052 net.cpp:399] inception_4c/5x5 -> inception_4c/5x5
I0403 15:03:32.186919 14052 net.cpp:141] Setting up inception_4c/5x5
I0403 15:03:32.186949 14052 net.cpp:148] Top shape: 24 64 14 14 (301056)
I0403 15:03:32.186965 14052 net.cpp:156] Memory required for data: 1049767200
I0403 15:03:32.186982 14052 layer_factory.hpp:77] Creating layer inception_4c/relu_5x5
I0403 15:03:32.187000 14052 net.cpp:91] Creating Layer inception_4c/relu_5x5
I0403 15:03:32.187016 14052 net.cpp:425] inception_4c/relu_5x5 <- inception_4c/5x5
I0403 15:03:32.187031 14052 net.cpp:386] inception_4c/relu_5x5 -> inception_4c/5x5 (in-place)
I0403 15:03:32.187321 14052 net.cpp:141] Setting up inception_4c/relu_5x5
I0403 15:03:32.187350 14052 net.cpp:148] Top shape: 24 64 14 14 (301056)
I0403 15:03:32.187366 14052 net.cpp:156] Memory required for data: 1050971424
I0403 15:03:32.187381 14052 layer_factory.hpp:77] Creating layer inception_4c/pool
I0403 15:03:32.187397 14052 net.cpp:91] Creating Layer inception_4c/pool
I0403 15:03:32.187412 14052 net.cpp:425] inception_4c/pool <- inception_4b/output_inception_4b/output_0_split_3
I0403 15:03:32.187430 14052 net.cpp:399] inception_4c/pool -> inception_4c/pool
I0403 15:03:32.187497 14052 net.cpp:141] Setting up inception_4c/pool
I0403 15:03:32.187520 14052 net.cpp:148] Top shape: 24 512 14 14 (2408448)
I0403 15:03:32.187535 14052 net.cpp:156] Memory required for data: 1060605216
I0403 15:03:32.187547 14052 layer_factory.hpp:77] Creating layer inception_4c/pool_proj
I0403 15:03:32.187568 14052 net.cpp:91] Creating Layer inception_4c/pool_proj
I0403 15:03:32.187587 14052 net.cpp:425] inception_4c/pool_proj <- inception_4c/pool
I0403 15:03:32.187610 14052 net.cpp:399] inception_4c/pool_proj -> inception_4c/pool_proj
I0403 15:03:32.188845 14052 net.cpp:141] Setting up inception_4c/pool_proj
I0403 15:03:32.188874 14052 net.cpp:148] Top shape: 24 64 14 14 (301056)
I0403 15:03:32.188902 14052 net.cpp:156] Memory required for data: 1061809440
I0403 15:03:32.188921 14052 layer_factory.hpp:77] Creating layer inception_4c/relu_pool_proj
I0403 15:03:32.188943 14052 net.cpp:91] Creating Layer inception_4c/relu_pool_proj
I0403 15:03:32.188961 14052 net.cpp:425] inception_4c/relu_pool_proj <- inception_4c/pool_proj
I0403 15:03:32.188977 14052 net.cpp:386] inception_4c/relu_pool_proj -> inception_4c/pool_proj (in-place)
I0403 15:03:32.189167 14052 net.cpp:141] Setting up inception_4c/relu_pool_proj
I0403 15:03:32.189193 14052 net.cpp:148] Top shape: 24 64 14 14 (301056)
I0403 15:03:32.189208 14052 net.cpp:156] Memory required for data: 1063013664
I0403 15:03:32.189223 14052 layer_factory.hpp:77] Creating layer inception_4c/output
I0403 15:03:32.189239 14052 net.cpp:91] Creating Layer inception_4c/output
I0403 15:03:32.189268 14052 net.cpp:425] inception_4c/output <- inception_4c/1x1
I0403 15:03:32.189285 14052 net.cpp:425] inception_4c/output <- inception_4c/3x3
I0403 15:03:32.189301 14052 net.cpp:425] inception_4c/output <- inception_4c/5x5
I0403 15:03:32.189316 14052 net.cpp:425] inception_4c/output <- inception_4c/pool_proj
I0403 15:03:32.189333 14052 net.cpp:399] inception_4c/output -> inception_4c/output
I0403 15:03:32.189383 14052 net.cpp:141] Setting up inception_4c/output
I0403 15:03:32.189406 14052 net.cpp:148] Top shape: 24 512 14 14 (2408448)
I0403 15:03:32.189421 14052 net.cpp:156] Memory required for data: 1072647456
I0403 15:03:32.189435 14052 layer_factory.hpp:77] Creating layer inception_4c/output_inception_4c/output_0_split
I0403 15:03:32.189452 14052 net.cpp:91] Creating Layer inception_4c/output_inception_4c/output_0_split
I0403 15:03:32.189467 14052 net.cpp:425] inception_4c/output_inception_4c/output_0_split <- inception_4c/output
I0403 15:03:32.189486 14052 net.cpp:399] inception_4c/output_inception_4c/output_0_split -> inception_4c/output_inception_4c/output_0_split_0
I0403 15:03:32.189507 14052 net.cpp:399] inception_4c/output_inception_4c/output_0_split -> inception_4c/output_inception_4c/output_0_split_1
I0403 15:03:32.189527 14052 net.cpp:399] inception_4c/output_inception_4c/output_0_split -> inception_4c/output_inception_4c/output_0_split_2
I0403 15:03:32.189548 14052 net.cpp:399] inception_4c/output_inception_4c/output_0_split -> inception_4c/output_inception_4c/output_0_split_3
I0403 15:03:32.189651 14052 net.cpp:141] Setting up inception_4c/output_inception_4c/output_0_split
I0403 15:03:32.189674 14052 net.cpp:148] Top shape: 24 512 14 14 (2408448)
I0403 15:03:32.189690 14052 net.cpp:148] Top shape: 24 512 14 14 (2408448)
I0403 15:03:32.189705 14052 net.cpp:148] Top shape: 24 512 14 14 (2408448)
I0403 15:03:32.189719 14052 net.cpp:148] Top shape: 24 512 14 14 (2408448)
I0403 15:03:32.189733 14052 net.cpp:156] Memory required for data: 1111182624
I0403 15:03:32.189746 14052 layer_factory.hpp:77] Creating layer inception_4d/1x1
I0403 15:03:32.189769 14052 net.cpp:91] Creating Layer inception_4d/1x1
I0403 15:03:32.189785 14052 net.cpp:425] inception_4d/1x1 <- inception_4c/output_inception_4c/output_0_split_0
I0403 15:03:32.189805 14052 net.cpp:399] inception_4d/1x1 -> inception_4d/1x1
I0403 15:03:32.191201 14052 net.cpp:141] Setting up inception_4d/1x1
I0403 15:03:32.191231 14052 net.cpp:148] Top shape: 24 112 14 14 (526848)
I0403 15:03:32.191246 14052 net.cpp:156] Memory required for data: 1113290016
I0403 15:03:32.191265 14052 layer_factory.hpp:77] Creating layer inception_4d/relu_1x1
I0403 15:03:32.191283 14052 net.cpp:91] Creating Layer inception_4d/relu_1x1
I0403 15:03:32.191298 14052 net.cpp:425] inception_4d/relu_1x1 <- inception_4d/1x1
I0403 15:03:32.191316 14052 net.cpp:386] inception_4d/relu_1x1 -> inception_4d/1x1 (in-place)
I0403 15:03:32.191501 14052 net.cpp:141] Setting up inception_4d/relu_1x1
I0403 15:03:32.191525 14052 net.cpp:148] Top shape: 24 112 14 14 (526848)
I0403 15:03:32.191540 14052 net.cpp:156] Memory required for data: 1115397408
I0403 15:03:32.191555 14052 layer_factory.hpp:77] Creating layer inception_4d/3x3_reduce
I0403 15:03:32.191591 14052 net.cpp:91] Creating Layer inception_4d/3x3_reduce
I0403 15:03:32.191628 14052 net.cpp:425] inception_4d/3x3_reduce <- inception_4c/output_inception_4c/output_0_split_1
I0403 15:03:32.191651 14052 net.cpp:399] inception_4d/3x3_reduce -> inception_4d/3x3_reduce
I0403 15:03:32.193213 14052 net.cpp:141] Setting up inception_4d/3x3_reduce
I0403 15:03:32.193253 14052 net.cpp:148] Top shape: 24 144 14 14 (677376)
I0403 15:03:32.193269 14052 net.cpp:156] Memory required for data: 1118106912
I0403 15:03:32.193289 14052 layer_factory.hpp:77] Creating layer inception_4d/relu_3x3_reduce
I0403 15:03:32.193310 14052 net.cpp:91] Creating Layer inception_4d/relu_3x3_reduce
I0403 15:03:32.193328 14052 net.cpp:425] inception_4d/relu_3x3_reduce <- inception_4d/3x3_reduce
I0403 15:03:32.193346 14052 net.cpp:386] inception_4d/relu_3x3_reduce -> inception_4d/3x3_reduce (in-place)
I0403 15:03:32.193667 14052 net.cpp:141] Setting up inception_4d/relu_3x3_reduce
I0403 15:03:32.193694 14052 net.cpp:148] Top shape: 24 144 14 14 (677376)
I0403 15:03:32.193709 14052 net.cpp:156] Memory required for data: 1120816416
I0403 15:03:32.193723 14052 layer_factory.hpp:77] Creating layer inception_4d/3x3
I0403 15:03:32.193748 14052 net.cpp:91] Creating Layer inception_4d/3x3
I0403 15:03:32.193766 14052 net.cpp:425] inception_4d/3x3 <- inception_4d/3x3_reduce
I0403 15:03:32.193785 14052 net.cpp:399] inception_4d/3x3 -> inception_4d/3x3
I0403 15:03:32.198223 14052 net.cpp:141] Setting up inception_4d/3x3
I0403 15:03:32.198256 14052 net.cpp:148] Top shape: 24 288 14 14 (1354752)
I0403 15:03:32.198273 14052 net.cpp:156] Memory required for data: 1126235424
I0403 15:03:32.198292 14052 layer_factory.hpp:77] Creating layer inception_4d/relu_3x3
I0403 15:03:32.198310 14052 net.cpp:91] Creating Layer inception_4d/relu_3x3
I0403 15:03:32.198326 14052 net.cpp:425] inception_4d/relu_3x3 <- inception_4d/3x3
I0403 15:03:32.198346 14052 net.cpp:386] inception_4d/relu_3x3 -> inception_4d/3x3 (in-place)
I0403 15:03:32.198536 14052 net.cpp:141] Setting up inception_4d/relu_3x3
I0403 15:03:32.198562 14052 net.cpp:148] Top shape: 24 288 14 14 (1354752)
I0403 15:03:32.198577 14052 net.cpp:156] Memory required for data: 1131654432
I0403 15:03:32.198591 14052 layer_factory.hpp:77] Creating layer inception_4d/5x5_reduce
I0403 15:03:32.198618 14052 net.cpp:91] Creating Layer inception_4d/5x5_reduce
I0403 15:03:32.198637 14052 net.cpp:425] inception_4d/5x5_reduce <- inception_4c/output_inception_4c/output_0_split_2
I0403 15:03:32.198659 14052 net.cpp:399] inception_4d/5x5_reduce -> inception_4d/5x5_reduce
I0403 15:03:32.199858 14052 net.cpp:141] Setting up inception_4d/5x5_reduce
I0403 15:03:32.199887 14052 net.cpp:148] Top shape: 24 32 14 14 (150528)
I0403 15:03:32.199903 14052 net.cpp:156] Memory required for data: 1132256544
I0403 15:03:32.199920 14052 layer_factory.hpp:77] Creating layer inception_4d/relu_5x5_reduce
I0403 15:03:32.199939 14052 net.cpp:91] Creating Layer inception_4d/relu_5x5_reduce
I0403 15:03:32.199954 14052 net.cpp:425] inception_4d/relu_5x5_reduce <- inception_4d/5x5_reduce
I0403 15:03:32.199973 14052 net.cpp:386] inception_4d/relu_5x5_reduce -> inception_4d/5x5_reduce (in-place)
I0403 15:03:32.200167 14052 net.cpp:141] Setting up inception_4d/relu_5x5_reduce
I0403 15:03:32.200193 14052 net.cpp:148] Top shape: 24 32 14 14 (150528)
I0403 15:03:32.200207 14052 net.cpp:156] Memory required for data: 1132858656
I0403 15:03:32.200222 14052 layer_factory.hpp:77] Creating layer inception_4d/5x5
I0403 15:03:32.200245 14052 net.cpp:91] Creating Layer inception_4d/5x5
I0403 15:03:32.200264 14052 net.cpp:425] inception_4d/5x5 <- inception_4d/5x5_reduce
I0403 15:03:32.200285 14052 net.cpp:399] inception_4d/5x5 -> inception_4d/5x5
I0403 15:03:32.201838 14052 net.cpp:141] Setting up inception_4d/5x5
I0403 15:03:32.201866 14052 net.cpp:148] Top shape: 24 64 14 14 (301056)
I0403 15:03:32.201882 14052 net.cpp:156] Memory required for data: 1134062880
I0403 15:03:32.201901 14052 layer_factory.hpp:77] Creating layer inception_4d/relu_5x5
I0403 15:03:32.201937 14052 net.cpp:91] Creating Layer inception_4d/relu_5x5
I0403 15:03:32.201956 14052 net.cpp:425] inception_4d/relu_5x5 <- inception_4d/5x5
I0403 15:03:32.201973 14052 net.cpp:386] inception_4d/relu_5x5 -> inception_4d/5x5 (in-place)
I0403 15:03:32.202286 14052 net.cpp:141] Setting up inception_4d/relu_5x5
I0403 15:03:32.202313 14052 net.cpp:148] Top shape: 24 64 14 14 (301056)
I0403 15:03:32.202328 14052 net.cpp:156] Memory required for data: 1135267104
I0403 15:03:32.202343 14052 layer_factory.hpp:77] Creating layer inception_4d/pool
I0403 15:03:32.202364 14052 net.cpp:91] Creating Layer inception_4d/pool
I0403 15:03:32.202383 14052 net.cpp:425] inception_4d/pool <- inception_4c/output_inception_4c/output_0_split_3
I0403 15:03:32.202400 14052 net.cpp:399] inception_4d/pool -> inception_4d/pool
I0403 15:03:32.202471 14052 net.cpp:141] Setting up inception_4d/pool
I0403 15:03:32.202496 14052 net.cpp:148] Top shape: 24 512 14 14 (2408448)
I0403 15:03:32.202509 14052 net.cpp:156] Memory required for data: 1144900896
I0403 15:03:32.202523 14052 layer_factory.hpp:77] Creating layer inception_4d/pool_proj
I0403 15:03:32.202546 14052 net.cpp:91] Creating Layer inception_4d/pool_proj
I0403 15:03:32.202564 14052 net.cpp:425] inception_4d/pool_proj <- inception_4d/pool
I0403 15:03:32.202584 14052 net.cpp:399] inception_4d/pool_proj -> inception_4d/pool_proj
I0403 15:03:32.204421 14052 net.cpp:141] Setting up inception_4d/pool_proj
I0403 15:03:32.204450 14052 net.cpp:148] Top shape: 24 64 14 14 (301056)
I0403 15:03:32.204466 14052 net.cpp:156] Memory required for data: 1146105120
I0403 15:03:32.204485 14052 layer_factory.hpp:77] Creating layer inception_4d/relu_pool_proj
I0403 15:03:32.204502 14052 net.cpp:91] Creating Layer inception_4d/relu_pool_proj
I0403 15:03:32.204519 14052 net.cpp:425] inception_4d/relu_pool_proj <- inception_4d/pool_proj
I0403 15:03:32.204538 14052 net.cpp:386] inception_4d/relu_pool_proj -> inception_4d/pool_proj (in-place)
I0403 15:03:32.204746 14052 net.cpp:141] Setting up inception_4d/relu_pool_proj
I0403 15:03:32.204772 14052 net.cpp:148] Top shape: 24 64 14 14 (301056)
I0403 15:03:32.204787 14052 net.cpp:156] Memory required for data: 1147309344
I0403 15:03:32.204802 14052 layer_factory.hpp:77] Creating layer inception_4d/output
I0403 15:03:32.204819 14052 net.cpp:91] Creating Layer inception_4d/output
I0403 15:03:32.204835 14052 net.cpp:425] inception_4d/output <- inception_4d/1x1
I0403 15:03:32.204851 14052 net.cpp:425] inception_4d/output <- inception_4d/3x3
I0403 15:03:32.204867 14052 net.cpp:425] inception_4d/output <- inception_4d/5x5
I0403 15:03:32.204884 14052 net.cpp:425] inception_4d/output <- inception_4d/pool_proj
I0403 15:03:32.204902 14052 net.cpp:399] inception_4d/output -> inception_4d/output
I0403 15:03:32.204954 14052 net.cpp:141] Setting up inception_4d/output
I0403 15:03:32.204978 14052 net.cpp:148] Top shape: 24 528 14 14 (2483712)
I0403 15:03:32.204993 14052 net.cpp:156] Memory required for data: 1157244192
I0403 15:03:32.205008 14052 layer_factory.hpp:77] Creating layer inception_4d/output_inception_4d/output_0_split
I0403 15:03:32.205025 14052 net.cpp:91] Creating Layer inception_4d/output_inception_4d/output_0_split
I0403 15:03:32.205040 14052 net.cpp:425] inception_4d/output_inception_4d/output_0_split <- inception_4d/output
I0403 15:03:32.205061 14052 net.cpp:399] inception_4d/output_inception_4d/output_0_split -> inception_4d/output_inception_4d/output_0_split_0
I0403 15:03:32.205083 14052 net.cpp:399] inception_4d/output_inception_4d/output_0_split -> inception_4d/output_inception_4d/output_0_split_1
I0403 15:03:32.205103 14052 net.cpp:399] inception_4d/output_inception_4d/output_0_split -> inception_4d/output_inception_4d/output_0_split_2
I0403 15:03:32.205124 14052 net.cpp:399] inception_4d/output_inception_4d/output_0_split -> inception_4d/output_inception_4d/output_0_split_3
I0403 15:03:32.205143 14052 net.cpp:399] inception_4d/output_inception_4d/output_0_split -> inception_4d/output_inception_4d/output_0_split_4
I0403 15:03:32.205248 14052 net.cpp:141] Setting up inception_4d/output_inception_4d/output_0_split
I0403 15:03:32.205287 14052 net.cpp:148] Top shape: 24 528 14 14 (2483712)
I0403 15:03:32.205304 14052 net.cpp:148] Top shape: 24 528 14 14 (2483712)
I0403 15:03:32.205320 14052 net.cpp:148] Top shape: 24 528 14 14 (2483712)
I0403 15:03:32.205337 14052 net.cpp:148] Top shape: 24 528 14 14 (2483712)
I0403 15:03:32.205351 14052 net.cpp:148] Top shape: 24 528 14 14 (2483712)
I0403 15:03:32.205364 14052 net.cpp:156] Memory required for data: 1206918432
I0403 15:03:32.205379 14052 layer_factory.hpp:77] Creating layer loss2/ave_pool
I0403 15:03:32.205396 14052 net.cpp:91] Creating Layer loss2/ave_pool
I0403 15:03:32.205412 14052 net.cpp:425] loss2/ave_pool <- inception_4d/output_inception_4d/output_0_split_0
I0403 15:03:32.205433 14052 net.cpp:399] loss2/ave_pool -> loss2/ave_pool
I0403 15:03:32.205762 14052 net.cpp:141] Setting up loss2/ave_pool
I0403 15:03:32.205790 14052 net.cpp:148] Top shape: 24 528 4 4 (202752)
I0403 15:03:32.205804 14052 net.cpp:156] Memory required for data: 1207729440
I0403 15:03:32.205819 14052 layer_factory.hpp:77] Creating layer loss2/conv
I0403 15:03:32.205842 14052 net.cpp:91] Creating Layer loss2/conv
I0403 15:03:32.205859 14052 net.cpp:425] loss2/conv <- loss2/ave_pool
I0403 15:03:32.205881 14052 net.cpp:399] loss2/conv -> loss2/conv
I0403 15:03:32.207837 14052 net.cpp:141] Setting up loss2/conv
I0403 15:03:32.207866 14052 net.cpp:148] Top shape: 24 128 4 4 (49152)
I0403 15:03:32.207883 14052 net.cpp:156] Memory required for data: 1207926048
I0403 15:03:32.207901 14052 layer_factory.hpp:77] Creating layer loss2/relu_conv
I0403 15:03:32.207922 14052 net.cpp:91] Creating Layer loss2/relu_conv
I0403 15:03:32.207940 14052 net.cpp:425] loss2/relu_conv <- loss2/conv
I0403 15:03:32.207958 14052 net.cpp:386] loss2/relu_conv -> loss2/conv (in-place)
I0403 15:03:32.208252 14052 net.cpp:141] Setting up loss2/relu_conv
I0403 15:03:32.208279 14052 net.cpp:148] Top shape: 24 128 4 4 (49152)
I0403 15:03:32.208294 14052 net.cpp:156] Memory required for data: 1208122656
I0403 15:03:32.208309 14052 layer_factory.hpp:77] Creating layer loss2/fc
I0403 15:03:32.208331 14052 net.cpp:91] Creating Layer loss2/fc
I0403 15:03:32.208349 14052 net.cpp:425] loss2/fc <- loss2/conv
I0403 15:03:32.208370 14052 net.cpp:399] loss2/fc -> loss2/fc
I0403 15:03:32.225770 14052 net.cpp:141] Setting up loss2/fc
I0403 15:03:32.225805 14052 net.cpp:148] Top shape: 24 1024 (24576)
I0403 15:03:32.225821 14052 net.cpp:156] Memory required for data: 1208220960
I0403 15:03:32.225837 14052 layer_factory.hpp:77] Creating layer loss2/relu_fc
I0403 15:03:32.225855 14052 net.cpp:91] Creating Layer loss2/relu_fc
I0403 15:03:32.225872 14052 net.cpp:425] loss2/relu_fc <- loss2/fc
I0403 15:03:32.225890 14052 net.cpp:386] loss2/relu_fc -> loss2/fc (in-place)
I0403 15:03:32.226191 14052 net.cpp:141] Setting up loss2/relu_fc
I0403 15:03:32.226215 14052 net.cpp:148] Top shape: 24 1024 (24576)
I0403 15:03:32.226229 14052 net.cpp:156] Memory required for data: 1208319264
I0403 15:03:32.226243 14052 layer_factory.hpp:77] Creating layer loss2/drop_fc
I0403 15:03:32.226263 14052 net.cpp:91] Creating Layer loss2/drop_fc
I0403 15:03:32.226279 14052 net.cpp:425] loss2/drop_fc <- loss2/fc
I0403 15:03:32.226297 14052 net.cpp:386] loss2/drop_fc -> loss2/fc (in-place)
I0403 15:03:32.226346 14052 net.cpp:141] Setting up loss2/drop_fc
I0403 15:03:32.226372 14052 net.cpp:148] Top shape: 24 1024 (24576)
I0403 15:03:32.226385 14052 net.cpp:156] Memory required for data: 1208417568
I0403 15:03:32.226400 14052 layer_factory.hpp:77] Creating layer loss2/classifier_plantvillage
I0403 15:03:32.226418 14052 net.cpp:91] Creating Layer loss2/classifier_plantvillage
I0403 15:03:32.226431 14052 net.cpp:425] loss2/classifier_plantvillage <- loss2/fc
I0403 15:03:32.226451 14052 net.cpp:399] loss2/classifier_plantvillage -> loss2/classifier_plantvillage
I0403 15:03:32.226857 14052 net.cpp:141] Setting up loss2/classifier_plantvillage
I0403 15:03:32.226881 14052 net.cpp:148] Top shape: 24 38 (912)
I0403 15:03:32.226894 14052 net.cpp:156] Memory required for data: 1208421216
I0403 15:03:32.226932 14052 layer_factory.hpp:77] Creating layer loss2/classifier_plantvillage_loss2/classifier_plantvillage_0_split
I0403 15:03:32.226953 14052 net.cpp:91] Creating Layer loss2/classifier_plantvillage_loss2/classifier_plantvillage_0_split
I0403 15:03:32.226969 14052 net.cpp:425] loss2/classifier_plantvillage_loss2/classifier_plantvillage_0_split <- loss2/classifier_plantvillage
I0403 15:03:32.226985 14052 net.cpp:399] loss2/classifier_plantvillage_loss2/classifier_plantvillage_0_split -> loss2/classifier_plantvillage_loss2/classifier_plantvillage_0_split_0
I0403 15:03:32.227005 14052 net.cpp:399] loss2/classifier_plantvillage_loss2/classifier_plantvillage_0_split -> loss2/classifier_plantvillage_loss2/classifier_plantvillage_0_split_1
I0403 15:03:32.227028 14052 net.cpp:399] loss2/classifier_plantvillage_loss2/classifier_plantvillage_0_split -> loss2/classifier_plantvillage_loss2/classifier_plantvillage_0_split_2
I0403 15:03:32.227103 14052 net.cpp:141] Setting up loss2/classifier_plantvillage_loss2/classifier_plantvillage_0_split
I0403 15:03:32.227125 14052 net.cpp:148] Top shape: 24 38 (912)
I0403 15:03:32.227140 14052 net.cpp:148] Top shape: 24 38 (912)
I0403 15:03:32.227154 14052 net.cpp:148] Top shape: 24 38 (912)
I0403 15:03:32.227166 14052 net.cpp:156] Memory required for data: 1208432160
I0403 15:03:32.227180 14052 layer_factory.hpp:77] Creating layer inception_4e/1x1
I0403 15:03:32.227201 14052 net.cpp:91] Creating Layer inception_4e/1x1
I0403 15:03:32.227219 14052 net.cpp:425] inception_4e/1x1 <- inception_4d/output_inception_4d/output_0_split_1
I0403 15:03:32.227236 14052 net.cpp:399] inception_4e/1x1 -> inception_4e/1x1
I0403 15:03:32.229030 14052 net.cpp:141] Setting up inception_4e/1x1
I0403 15:03:32.229056 14052 net.cpp:148] Top shape: 24 256 14 14 (1204224)
I0403 15:03:32.229071 14052 net.cpp:156] Memory required for data: 1213249056
I0403 15:03:32.229089 14052 layer_factory.hpp:77] Creating layer inception_4e/relu_1x1
I0403 15:03:32.229109 14052 net.cpp:91] Creating Layer inception_4e/relu_1x1
I0403 15:03:32.229123 14052 net.cpp:425] inception_4e/relu_1x1 <- inception_4e/1x1
I0403 15:03:32.229140 14052 net.cpp:386] inception_4e/relu_1x1 -> inception_4e/1x1 (in-place)
I0403 15:03:32.229431 14052 net.cpp:141] Setting up inception_4e/relu_1x1
I0403 15:03:32.229457 14052 net.cpp:148] Top shape: 24 256 14 14 (1204224)
I0403 15:03:32.229471 14052 net.cpp:156] Memory required for data: 1218065952
I0403 15:03:32.229485 14052 layer_factory.hpp:77] Creating layer inception_4e/3x3_reduce
I0403 15:03:32.229507 14052 net.cpp:91] Creating Layer inception_4e/3x3_reduce
I0403 15:03:32.229524 14052 net.cpp:425] inception_4e/3x3_reduce <- inception_4d/output_inception_4d/output_0_split_2
I0403 15:03:32.229544 14052 net.cpp:399] inception_4e/3x3_reduce -> inception_4e/3x3_reduce
I0403 15:03:32.231628 14052 net.cpp:141] Setting up inception_4e/3x3_reduce
I0403 15:03:32.231657 14052 net.cpp:148] Top shape: 24 160 14 14 (752640)
I0403 15:03:32.231670 14052 net.cpp:156] Memory required for data: 1221076512
I0403 15:03:32.231688 14052 layer_factory.hpp:77] Creating layer inception_4e/relu_3x3_reduce
I0403 15:03:32.231709 14052 net.cpp:91] Creating Layer inception_4e/relu_3x3_reduce
I0403 15:03:32.231724 14052 net.cpp:425] inception_4e/relu_3x3_reduce <- inception_4e/3x3_reduce
I0403 15:03:32.231741 14052 net.cpp:386] inception_4e/relu_3x3_reduce -> inception_4e/3x3_reduce (in-place)
I0403 15:03:32.231923 14052 net.cpp:141] Setting up inception_4e/relu_3x3_reduce
I0403 15:03:32.231950 14052 net.cpp:148] Top shape: 24 160 14 14 (752640)
I0403 15:03:32.231964 14052 net.cpp:156] Memory required for data: 1224087072
I0403 15:03:32.231978 14052 layer_factory.hpp:77] Creating layer inception_4e/3x3
I0403 15:03:32.231999 14052 net.cpp:91] Creating Layer inception_4e/3x3
I0403 15:03:32.232017 14052 net.cpp:425] inception_4e/3x3 <- inception_4e/3x3_reduce
I0403 15:03:32.232033 14052 net.cpp:399] inception_4e/3x3 -> inception_4e/3x3
I0403 15:03:32.236910 14052 net.cpp:141] Setting up inception_4e/3x3
I0403 15:03:32.236953 14052 net.cpp:148] Top shape: 24 320 14 14 (1505280)
I0403 15:03:32.236970 14052 net.cpp:156] Memory required for data: 1230108192
I0403 15:03:32.236987 14052 layer_factory.hpp:77] Creating layer inception_4e/relu_3x3
I0403 15:03:32.237004 14052 net.cpp:91] Creating Layer inception_4e/relu_3x3
I0403 15:03:32.237020 14052 net.cpp:425] inception_4e/relu_3x3 <- inception_4e/3x3
I0403 15:03:32.237036 14052 net.cpp:386] inception_4e/relu_3x3 -> inception_4e/3x3 (in-place)
I0403 15:03:32.237334 14052 net.cpp:141] Setting up inception_4e/relu_3x3
I0403 15:03:32.237360 14052 net.cpp:148] Top shape: 24 320 14 14 (1505280)
I0403 15:03:32.237373 14052 net.cpp:156] Memory required for data: 1236129312
I0403 15:03:32.237388 14052 layer_factory.hpp:77] Creating layer inception_4e/5x5_reduce
I0403 15:03:32.237411 14052 net.cpp:91] Creating Layer inception_4e/5x5_reduce
I0403 15:03:32.237428 14052 net.cpp:425] inception_4e/5x5_reduce <- inception_4d/output_inception_4d/output_0_split_3
I0403 15:03:32.237449 14052 net.cpp:399] inception_4e/5x5_reduce -> inception_4e/5x5_reduce
I0403 15:03:32.238494 14052 net.cpp:141] Setting up inception_4e/5x5_reduce
I0403 15:03:32.238522 14052 net.cpp:148] Top shape: 24 32 14 14 (150528)
I0403 15:03:32.238535 14052 net.cpp:156] Memory required for data: 1236731424
I0403 15:03:32.238553 14052 layer_factory.hpp:77] Creating layer inception_4e/relu_5x5_reduce
I0403 15:03:32.238572 14052 net.cpp:91] Creating Layer inception_4e/relu_5x5_reduce
I0403 15:03:32.238589 14052 net.cpp:425] inception_4e/relu_5x5_reduce <- inception_4e/5x5_reduce
I0403 15:03:32.238608 14052 net.cpp:386] inception_4e/relu_5x5_reduce -> inception_4e/5x5_reduce (in-place)
I0403 15:03:32.238903 14052 net.cpp:141] Setting up inception_4e/relu_5x5_reduce
I0403 15:03:32.238927 14052 net.cpp:148] Top shape: 24 32 14 14 (150528)
I0403 15:03:32.238942 14052 net.cpp:156] Memory required for data: 1237333536
I0403 15:03:32.238956 14052 layer_factory.hpp:77] Creating layer inception_4e/5x5
I0403 15:03:32.238994 14052 net.cpp:91] Creating Layer inception_4e/5x5
I0403 15:03:32.239013 14052 net.cpp:425] inception_4e/5x5 <- inception_4e/5x5_reduce
I0403 15:03:32.239032 14052 net.cpp:399] inception_4e/5x5 -> inception_4e/5x5
I0403 15:03:32.240869 14052 net.cpp:141] Setting up inception_4e/5x5
I0403 15:03:32.240896 14052 net.cpp:148] Top shape: 24 128 14 14 (602112)
I0403 15:03:32.240911 14052 net.cpp:156] Memory required for data: 1239741984
I0403 15:03:32.240928 14052 layer_factory.hpp:77] Creating layer inception_4e/relu_5x5
I0403 15:03:32.240948 14052 net.cpp:91] Creating Layer inception_4e/relu_5x5
I0403 15:03:32.240964 14052 net.cpp:425] inception_4e/relu_5x5 <- inception_4e/5x5
I0403 15:03:32.240980 14052 net.cpp:386] inception_4e/relu_5x5 -> inception_4e/5x5 (in-place)
I0403 15:03:32.241173 14052 net.cpp:141] Setting up inception_4e/relu_5x5
I0403 15:03:32.241196 14052 net.cpp:148] Top shape: 24 128 14 14 (602112)
I0403 15:03:32.241211 14052 net.cpp:156] Memory required for data: 1242150432
I0403 15:03:32.241225 14052 layer_factory.hpp:77] Creating layer inception_4e/pool
I0403 15:03:32.241245 14052 net.cpp:91] Creating Layer inception_4e/pool
I0403 15:03:32.241262 14052 net.cpp:425] inception_4e/pool <- inception_4d/output_inception_4d/output_0_split_4
I0403 15:03:32.241278 14052 net.cpp:399] inception_4e/pool -> inception_4e/pool
I0403 15:03:32.241349 14052 net.cpp:141] Setting up inception_4e/pool
I0403 15:03:32.241372 14052 net.cpp:148] Top shape: 24 528 14 14 (2483712)
I0403 15:03:32.241386 14052 net.cpp:156] Memory required for data: 1252085280
I0403 15:03:32.241400 14052 layer_factory.hpp:77] Creating layer inception_4e/pool_proj
I0403 15:03:32.241420 14052 net.cpp:91] Creating Layer inception_4e/pool_proj
I0403 15:03:32.241437 14052 net.cpp:425] inception_4e/pool_proj <- inception_4e/pool
I0403 15:03:32.241456 14052 net.cpp:399] inception_4e/pool_proj -> inception_4e/pool_proj
I0403 15:03:32.242921 14052 net.cpp:141] Setting up inception_4e/pool_proj
I0403 15:03:32.242949 14052 net.cpp:148] Top shape: 24 128 14 14 (602112)
I0403 15:03:32.242979 14052 net.cpp:156] Memory required for data: 1254493728
I0403 15:03:32.242997 14052 layer_factory.hpp:77] Creating layer inception_4e/relu_pool_proj
I0403 15:03:32.243015 14052 net.cpp:91] Creating Layer inception_4e/relu_pool_proj
I0403 15:03:32.243031 14052 net.cpp:425] inception_4e/relu_pool_proj <- inception_4e/pool_proj
I0403 15:03:32.243049 14052 net.cpp:386] inception_4e/relu_pool_proj -> inception_4e/pool_proj (in-place)
I0403 15:03:32.243332 14052 net.cpp:141] Setting up inception_4e/relu_pool_proj
I0403 15:03:32.243357 14052 net.cpp:148] Top shape: 24 128 14 14 (602112)
I0403 15:03:32.243372 14052 net.cpp:156] Memory required for data: 1256902176
I0403 15:03:32.243386 14052 layer_factory.hpp:77] Creating layer inception_4e/output
I0403 15:03:32.243402 14052 net.cpp:91] Creating Layer inception_4e/output
I0403 15:03:32.243417 14052 net.cpp:425] inception_4e/output <- inception_4e/1x1
I0403 15:03:32.243433 14052 net.cpp:425] inception_4e/output <- inception_4e/3x3
I0403 15:03:32.243449 14052 net.cpp:425] inception_4e/output <- inception_4e/5x5
I0403 15:03:32.243464 14052 net.cpp:425] inception_4e/output <- inception_4e/pool_proj
I0403 15:03:32.243482 14052 net.cpp:399] inception_4e/output -> inception_4e/output
I0403 15:03:32.243530 14052 net.cpp:141] Setting up inception_4e/output
I0403 15:03:32.243556 14052 net.cpp:148] Top shape: 24 832 14 14 (3913728)
I0403 15:03:32.243569 14052 net.cpp:156] Memory required for data: 1272557088
I0403 15:03:32.243583 14052 layer_factory.hpp:77] Creating layer pool4/3x3_s2
I0403 15:03:32.243602 14052 net.cpp:91] Creating Layer pool4/3x3_s2
I0403 15:03:32.243619 14052 net.cpp:425] pool4/3x3_s2 <- inception_4e/output
I0403 15:03:32.243639 14052 net.cpp:399] pool4/3x3_s2 -> pool4/3x3_s2
I0403 15:03:32.243705 14052 net.cpp:141] Setting up pool4/3x3_s2
I0403 15:03:32.243727 14052 net.cpp:148] Top shape: 24 832 7 7 (978432)
I0403 15:03:32.243741 14052 net.cpp:156] Memory required for data: 1276470816
I0403 15:03:32.243754 14052 layer_factory.hpp:77] Creating layer pool4/3x3_s2_pool4/3x3_s2_0_split
I0403 15:03:32.243772 14052 net.cpp:91] Creating Layer pool4/3x3_s2_pool4/3x3_s2_0_split
I0403 15:03:32.243788 14052 net.cpp:425] pool4/3x3_s2_pool4/3x3_s2_0_split <- pool4/3x3_s2
I0403 15:03:32.243804 14052 net.cpp:399] pool4/3x3_s2_pool4/3x3_s2_0_split -> pool4/3x3_s2_pool4/3x3_s2_0_split_0
I0403 15:03:32.243824 14052 net.cpp:399] pool4/3x3_s2_pool4/3x3_s2_0_split -> pool4/3x3_s2_pool4/3x3_s2_0_split_1
I0403 15:03:32.243842 14052 net.cpp:399] pool4/3x3_s2_pool4/3x3_s2_0_split -> pool4/3x3_s2_pool4/3x3_s2_0_split_2
I0403 15:03:32.243860 14052 net.cpp:399] pool4/3x3_s2_pool4/3x3_s2_0_split -> pool4/3x3_s2_pool4/3x3_s2_0_split_3
I0403 15:03:32.243947 14052 net.cpp:141] Setting up pool4/3x3_s2_pool4/3x3_s2_0_split
I0403 15:03:32.243971 14052 net.cpp:148] Top shape: 24 832 7 7 (978432)
I0403 15:03:32.243986 14052 net.cpp:148] Top shape: 24 832 7 7 (978432)
I0403 15:03:32.244001 14052 net.cpp:148] Top shape: 24 832 7 7 (978432)
I0403 15:03:32.244015 14052 net.cpp:148] Top shape: 24 832 7 7 (978432)
I0403 15:03:32.244029 14052 net.cpp:156] Memory required for data: 1292125728
I0403 15:03:32.244041 14052 layer_factory.hpp:77] Creating layer inception_5a/1x1
I0403 15:03:32.244062 14052 net.cpp:91] Creating Layer inception_5a/1x1
I0403 15:03:32.244079 14052 net.cpp:425] inception_5a/1x1 <- pool4/3x3_s2_pool4/3x3_s2_0_split_0
I0403 15:03:32.244102 14052 net.cpp:399] inception_5a/1x1 -> inception_5a/1x1
I0403 15:03:32.247010 14052 net.cpp:141] Setting up inception_5a/1x1
I0403 15:03:32.247041 14052 net.cpp:148] Top shape: 24 256 7 7 (301056)
I0403 15:03:32.247056 14052 net.cpp:156] Memory required for data: 1293329952
I0403 15:03:32.247074 14052 layer_factory.hpp:77] Creating layer inception_5a/relu_1x1
I0403 15:03:32.247094 14052 net.cpp:91] Creating Layer inception_5a/relu_1x1
I0403 15:03:32.247110 14052 net.cpp:425] inception_5a/relu_1x1 <- inception_5a/1x1
I0403 15:03:32.247128 14052 net.cpp:386] inception_5a/relu_1x1 -> inception_5a/1x1 (in-place)
I0403 15:03:32.247445 14052 net.cpp:141] Setting up inception_5a/relu_1x1
I0403 15:03:32.247472 14052 net.cpp:148] Top shape: 24 256 7 7 (301056)
I0403 15:03:32.247486 14052 net.cpp:156] Memory required for data: 1294534176
I0403 15:03:32.247500 14052 layer_factory.hpp:77] Creating layer inception_5a/3x3_reduce
I0403 15:03:32.247522 14052 net.cpp:91] Creating Layer inception_5a/3x3_reduce
I0403 15:03:32.247539 14052 net.cpp:425] inception_5a/3x3_reduce <- pool4/3x3_s2_pool4/3x3_s2_0_split_1
I0403 15:03:32.247560 14052 net.cpp:399] inception_5a/3x3_reduce -> inception_5a/3x3_reduce
I0403 15:03:32.250025 14052 net.cpp:141] Setting up inception_5a/3x3_reduce
I0403 15:03:32.250054 14052 net.cpp:148] Top shape: 24 160 7 7 (188160)
I0403 15:03:32.250072 14052 net.cpp:156] Memory required for data: 1295286816
I0403 15:03:32.250089 14052 layer_factory.hpp:77] Creating layer inception_5a/relu_3x3_reduce
I0403 15:03:32.250108 14052 net.cpp:91] Creating Layer inception_5a/relu_3x3_reduce
I0403 15:03:32.250123 14052 net.cpp:425] inception_5a/relu_3x3_reduce <- inception_5a/3x3_reduce
I0403 15:03:32.250143 14052 net.cpp:386] inception_5a/relu_3x3_reduce -> inception_5a/3x3_reduce (in-place)
I0403 15:03:32.250329 14052 net.cpp:141] Setting up inception_5a/relu_3x3_reduce
I0403 15:03:32.250355 14052 net.cpp:148] Top shape: 24 160 7 7 (188160)
I0403 15:03:32.250368 14052 net.cpp:156] Memory required for data: 1296039456
I0403 15:03:32.250382 14052 layer_factory.hpp:77] Creating layer inception_5a/3x3
I0403 15:03:32.250403 14052 net.cpp:91] Creating Layer inception_5a/3x3
I0403 15:03:32.250421 14052 net.cpp:425] inception_5a/3x3 <- inception_5a/3x3_reduce
I0403 15:03:32.250442 14052 net.cpp:399] inception_5a/3x3 -> inception_5a/3x3
I0403 15:03:32.255498 14052 net.cpp:141] Setting up inception_5a/3x3
I0403 15:03:32.255527 14052 net.cpp:148] Top shape: 24 320 7 7 (376320)
I0403 15:03:32.255542 14052 net.cpp:156] Memory required for data: 1297544736
I0403 15:03:32.255560 14052 layer_factory.hpp:77] Creating layer inception_5a/relu_3x3
I0403 15:03:32.255580 14052 net.cpp:91] Creating Layer inception_5a/relu_3x3
I0403 15:03:32.255597 14052 net.cpp:425] inception_5a/relu_3x3 <- inception_5a/3x3
I0403 15:03:32.255620 14052 net.cpp:386] inception_5a/relu_3x3 -> inception_5a/3x3 (in-place)
I0403 15:03:32.255913 14052 net.cpp:141] Setting up inception_5a/relu_3x3
I0403 15:03:32.255939 14052 net.cpp:148] Top shape: 24 320 7 7 (376320)
I0403 15:03:32.255954 14052 net.cpp:156] Memory required for data: 1299050016
I0403 15:03:32.255969 14052 layer_factory.hpp:77] Creating layer inception_5a/5x5_reduce
I0403 15:03:32.255990 14052 net.cpp:91] Creating Layer inception_5a/5x5_reduce
I0403 15:03:32.256007 14052 net.cpp:425] inception_5a/5x5_reduce <- pool4/3x3_s2_pool4/3x3_s2_0_split_2
I0403 15:03:32.256029 14052 net.cpp:399] inception_5a/5x5_reduce -> inception_5a/5x5_reduce
I0403 15:03:32.257205 14052 net.cpp:141] Setting up inception_5a/5x5_reduce
I0403 15:03:32.257232 14052 net.cpp:148] Top shape: 24 32 7 7 (37632)
I0403 15:03:32.257247 14052 net.cpp:156] Memory required for data: 1299200544
I0403 15:03:32.257267 14052 layer_factory.hpp:77] Creating layer inception_5a/relu_5x5_reduce
I0403 15:03:32.257287 14052 net.cpp:91] Creating Layer inception_5a/relu_5x5_reduce
I0403 15:03:32.257303 14052 net.cpp:425] inception_5a/relu_5x5_reduce <- inception_5a/5x5_reduce
I0403 15:03:32.257320 14052 net.cpp:386] inception_5a/relu_5x5_reduce -> inception_5a/5x5_reduce (in-place)
I0403 15:03:32.257627 14052 net.cpp:141] Setting up inception_5a/relu_5x5_reduce
I0403 15:03:32.257653 14052 net.cpp:148] Top shape: 24 32 7 7 (37632)
I0403 15:03:32.257668 14052 net.cpp:156] Memory required for data: 1299351072
I0403 15:03:32.257683 14052 layer_factory.hpp:77] Creating layer inception_5a/5x5
I0403 15:03:32.257704 14052 net.cpp:91] Creating Layer inception_5a/5x5
I0403 15:03:32.257721 14052 net.cpp:425] inception_5a/5x5 <- inception_5a/5x5_reduce
I0403 15:03:32.257742 14052 net.cpp:399] inception_5a/5x5 -> inception_5a/5x5
I0403 15:03:32.259480 14052 net.cpp:141] Setting up inception_5a/5x5
I0403 15:03:32.259519 14052 net.cpp:148] Top shape: 24 128 7 7 (150528)
I0403 15:03:32.259536 14052 net.cpp:156] Memory required for data: 1299953184
I0403 15:03:32.259554 14052 layer_factory.hpp:77] Creating layer inception_5a/relu_5x5
I0403 15:03:32.259577 14052 net.cpp:91] Creating Layer inception_5a/relu_5x5
I0403 15:03:32.259593 14052 net.cpp:425] inception_5a/relu_5x5 <- inception_5a/5x5
I0403 15:03:32.259615 14052 net.cpp:386] inception_5a/relu_5x5 -> inception_5a/5x5 (in-place)
I0403 15:03:32.259805 14052 net.cpp:141] Setting up inception_5a/relu_5x5
I0403 15:03:32.259842 14052 net.cpp:148] Top shape: 24 128 7 7 (150528)
I0403 15:03:32.259858 14052 net.cpp:156] Memory required for data: 1300555296
I0403 15:03:32.259872 14052 layer_factory.hpp:77] Creating layer inception_5a/pool
I0403 15:03:32.259892 14052 net.cpp:91] Creating Layer inception_5a/pool
I0403 15:03:32.259910 14052 net.cpp:425] inception_5a/pool <- pool4/3x3_s2_pool4/3x3_s2_0_split_3
I0403 15:03:32.259927 14052 net.cpp:399] inception_5a/pool -> inception_5a/pool
I0403 15:03:32.260002 14052 net.cpp:141] Setting up inception_5a/pool
I0403 15:03:32.260027 14052 net.cpp:148] Top shape: 24 832 7 7 (978432)
I0403 15:03:32.260041 14052 net.cpp:156] Memory required for data: 1304469024
I0403 15:03:32.260056 14052 layer_factory.hpp:77] Creating layer inception_5a/pool_proj
I0403 15:03:32.260077 14052 net.cpp:91] Creating Layer inception_5a/pool_proj
I0403 15:03:32.260095 14052 net.cpp:425] inception_5a/pool_proj <- inception_5a/pool
I0403 15:03:32.260116 14052 net.cpp:399] inception_5a/pool_proj -> inception_5a/pool_proj
I0403 15:03:32.262522 14052 net.cpp:141] Setting up inception_5a/pool_proj
I0403 15:03:32.262565 14052 net.cpp:148] Top shape: 24 128 7 7 (150528)
I0403 15:03:32.262581 14052 net.cpp:156] Memory required for data: 1305071136
I0403 15:03:32.262603 14052 layer_factory.hpp:77] Creating layer inception_5a/relu_pool_proj
I0403 15:03:32.262624 14052 net.cpp:91] Creating Layer inception_5a/relu_pool_proj
I0403 15:03:32.262639 14052 net.cpp:425] inception_5a/relu_pool_proj <- inception_5a/pool_proj
I0403 15:03:32.262660 14052 net.cpp:386] inception_5a/relu_pool_proj -> inception_5a/pool_proj (in-place)
I0403 15:03:32.262977 14052 net.cpp:141] Setting up inception_5a/relu_pool_proj
I0403 15:03:32.263003 14052 net.cpp:148] Top shape: 24 128 7 7 (150528)
I0403 15:03:32.263018 14052 net.cpp:156] Memory required for data: 1305673248
I0403 15:03:32.263032 14052 layer_factory.hpp:77] Creating layer inception_5a/output
I0403 15:03:32.263049 14052 net.cpp:91] Creating Layer inception_5a/output
I0403 15:03:32.263065 14052 net.cpp:425] inception_5a/output <- inception_5a/1x1
I0403 15:03:32.263082 14052 net.cpp:425] inception_5a/output <- inception_5a/3x3
I0403 15:03:32.263098 14052 net.cpp:425] inception_5a/output <- inception_5a/5x5
I0403 15:03:32.263113 14052 net.cpp:425] inception_5a/output <- inception_5a/pool_proj
I0403 15:03:32.263131 14052 net.cpp:399] inception_5a/output -> inception_5a/output
I0403 15:03:32.263181 14052 net.cpp:141] Setting up inception_5a/output
I0403 15:03:32.263206 14052 net.cpp:148] Top shape: 24 832 7 7 (978432)
I0403 15:03:32.263221 14052 net.cpp:156] Memory required for data: 1309586976
I0403 15:03:32.263236 14052 layer_factory.hpp:77] Creating layer inception_5a/output_inception_5a/output_0_split
I0403 15:03:32.263252 14052 net.cpp:91] Creating Layer inception_5a/output_inception_5a/output_0_split
I0403 15:03:32.263268 14052 net.cpp:425] inception_5a/output_inception_5a/output_0_split <- inception_5a/output
I0403 15:03:32.263285 14052 net.cpp:399] inception_5a/output_inception_5a/output_0_split -> inception_5a/output_inception_5a/output_0_split_0
I0403 15:03:32.263305 14052 net.cpp:399] inception_5a/output_inception_5a/output_0_split -> inception_5a/output_inception_5a/output_0_split_1
I0403 15:03:32.263327 14052 net.cpp:399] inception_5a/output_inception_5a/output_0_split -> inception_5a/output_inception_5a/output_0_split_2
I0403 15:03:32.263348 14052 net.cpp:399] inception_5a/output_inception_5a/output_0_split -> inception_5a/output_inception_5a/output_0_split_3
I0403 15:03:32.263461 14052 net.cpp:141] Setting up inception_5a/output_inception_5a/output_0_split
I0403 15:03:32.263485 14052 net.cpp:148] Top shape: 24 832 7 7 (978432)
I0403 15:03:32.263500 14052 net.cpp:148] Top shape: 24 832 7 7 (978432)
I0403 15:03:32.263515 14052 net.cpp:148] Top shape: 24 832 7 7 (978432)
I0403 15:03:32.263530 14052 net.cpp:148] Top shape: 24 832 7 7 (978432)
I0403 15:03:32.263543 14052 net.cpp:156] Memory required for data: 1325241888
I0403 15:03:32.263556 14052 layer_factory.hpp:77] Creating layer inception_5b/1x1
I0403 15:03:32.263578 14052 net.cpp:91] Creating Layer inception_5b/1x1
I0403 15:03:32.263595 14052 net.cpp:425] inception_5b/1x1 <- inception_5a/output_inception_5a/output_0_split_0
I0403 15:03:32.263620 14052 net.cpp:399] inception_5b/1x1 -> inception_5b/1x1
I0403 15:03:32.267433 14052 net.cpp:141] Setting up inception_5b/1x1
I0403 15:03:32.267464 14052 net.cpp:148] Top shape: 24 384 7 7 (451584)
I0403 15:03:32.267482 14052 net.cpp:156] Memory required for data: 1327048224
I0403 15:03:32.267499 14052 layer_factory.hpp:77] Creating layer inception_5b/relu_1x1
I0403 15:03:32.267518 14052 net.cpp:91] Creating Layer inception_5b/relu_1x1
I0403 15:03:32.267534 14052 net.cpp:425] inception_5b/relu_1x1 <- inception_5b/1x1
I0403 15:03:32.267551 14052 net.cpp:386] inception_5b/relu_1x1 -> inception_5b/1x1 (in-place)
I0403 15:03:32.267864 14052 net.cpp:141] Setting up inception_5b/relu_1x1
I0403 15:03:32.267892 14052 net.cpp:148] Top shape: 24 384 7 7 (451584)
I0403 15:03:32.267907 14052 net.cpp:156] Memory required for data: 1328854560
I0403 15:03:32.267922 14052 layer_factory.hpp:77] Creating layer inception_5b/3x3_reduce
I0403 15:03:32.267943 14052 net.cpp:91] Creating Layer inception_5b/3x3_reduce
I0403 15:03:32.267961 14052 net.cpp:425] inception_5b/3x3_reduce <- inception_5a/output_inception_5a/output_0_split_1
I0403 15:03:32.267978 14052 net.cpp:399] inception_5b/3x3_reduce -> inception_5b/3x3_reduce
I0403 15:03:32.270655 14052 net.cpp:141] Setting up inception_5b/3x3_reduce
I0403 15:03:32.270684 14052 net.cpp:148] Top shape: 24 192 7 7 (225792)
I0403 15:03:32.270699 14052 net.cpp:156] Memory required for data: 1329757728
I0403 15:03:32.270717 14052 layer_factory.hpp:77] Creating layer inception_5b/relu_3x3_reduce
I0403 15:03:32.270735 14052 net.cpp:91] Creating Layer inception_5b/relu_3x3_reduce
I0403 15:03:32.270751 14052 net.cpp:425] inception_5b/relu_3x3_reduce <- inception_5b/3x3_reduce
I0403 15:03:32.270771 14052 net.cpp:386] inception_5b/relu_3x3_reduce -> inception_5b/3x3_reduce (in-place)
I0403 15:03:32.270962 14052 net.cpp:141] Setting up inception_5b/relu_3x3_reduce
I0403 15:03:32.270987 14052 net.cpp:148] Top shape: 24 192 7 7 (225792)
I0403 15:03:32.271003 14052 net.cpp:156] Memory required for data: 1330660896
I0403 15:03:32.271016 14052 layer_factory.hpp:77] Creating layer inception_5b/3x3
I0403 15:03:32.271037 14052 net.cpp:91] Creating Layer inception_5b/3x3
I0403 15:03:32.271055 14052 net.cpp:425] inception_5b/3x3 <- inception_5b/3x3_reduce
I0403 15:03:32.271075 14052 net.cpp:399] inception_5b/3x3 -> inception_5b/3x3
I0403 15:03:32.277814 14052 net.cpp:141] Setting up inception_5b/3x3
I0403 15:03:32.277844 14052 net.cpp:148] Top shape: 24 384 7 7 (451584)
I0403 15:03:32.277860 14052 net.cpp:156] Memory required for data: 1332467232
I0403 15:03:32.277879 14052 layer_factory.hpp:77] Creating layer inception_5b/relu_3x3
I0403 15:03:32.277896 14052 net.cpp:91] Creating Layer inception_5b/relu_3x3
I0403 15:03:32.277914 14052 net.cpp:425] inception_5b/relu_3x3 <- inception_5b/3x3
I0403 15:03:32.277932 14052 net.cpp:386] inception_5b/relu_3x3 -> inception_5b/3x3 (in-place)
I0403 15:03:32.278233 14052 net.cpp:141] Setting up inception_5b/relu_3x3
I0403 15:03:32.278259 14052 net.cpp:148] Top shape: 24 384 7 7 (451584)
I0403 15:03:32.278273 14052 net.cpp:156] Memory required for data: 1334273568
I0403 15:03:32.278288 14052 layer_factory.hpp:77] Creating layer inception_5b/5x5_reduce
I0403 15:03:32.278329 14052 net.cpp:91] Creating Layer inception_5b/5x5_reduce
I0403 15:03:32.278348 14052 net.cpp:425] inception_5b/5x5_reduce <- inception_5a/output_inception_5a/output_0_split_2
I0403 15:03:32.278370 14052 net.cpp:399] inception_5b/5x5_reduce -> inception_5b/5x5_reduce
I0403 15:03:32.279659 14052 net.cpp:141] Setting up inception_5b/5x5_reduce
I0403 15:03:32.279687 14052 net.cpp:148] Top shape: 24 48 7 7 (56448)
I0403 15:03:32.279703 14052 net.cpp:156] Memory required for data: 1334499360
I0403 15:03:32.279721 14052 layer_factory.hpp:77] Creating layer inception_5b/relu_5x5_reduce
I0403 15:03:32.279738 14052 net.cpp:91] Creating Layer inception_5b/relu_5x5_reduce
I0403 15:03:32.279754 14052 net.cpp:425] inception_5b/relu_5x5_reduce <- inception_5b/5x5_reduce
I0403 15:03:32.279774 14052 net.cpp:386] inception_5b/relu_5x5_reduce -> inception_5b/5x5_reduce (in-place)
I0403 15:03:32.280148 14052 net.cpp:141] Setting up inception_5b/relu_5x5_reduce
I0403 15:03:32.280175 14052 net.cpp:148] Top shape: 24 48 7 7 (56448)
I0403 15:03:32.280190 14052 net.cpp:156] Memory required for data: 1334725152
I0403 15:03:32.280205 14052 layer_factory.hpp:77] Creating layer inception_5b/5x5
I0403 15:03:32.280223 14052 net.cpp:91] Creating Layer inception_5b/5x5
I0403 15:03:32.280241 14052 net.cpp:425] inception_5b/5x5 <- inception_5b/5x5_reduce
I0403 15:03:32.280259 14052 net.cpp:399] inception_5b/5x5 -> inception_5b/5x5
I0403 15:03:32.282351 14052 net.cpp:141] Setting up inception_5b/5x5
I0403 15:03:32.282377 14052 net.cpp:148] Top shape: 24 128 7 7 (150528)
I0403 15:03:32.282392 14052 net.cpp:156] Memory required for data: 1335327264
I0403 15:03:32.282410 14052 layer_factory.hpp:77] Creating layer inception_5b/relu_5x5
I0403 15:03:32.282430 14052 net.cpp:91] Creating Layer inception_5b/relu_5x5
I0403 15:03:32.282447 14052 net.cpp:425] inception_5b/relu_5x5 <- inception_5b/5x5
I0403 15:03:32.282464 14052 net.cpp:386] inception_5b/relu_5x5 -> inception_5b/5x5 (in-place)
I0403 15:03:32.282665 14052 net.cpp:141] Setting up inception_5b/relu_5x5
I0403 15:03:32.282692 14052 net.cpp:148] Top shape: 24 128 7 7 (150528)
I0403 15:03:32.282707 14052 net.cpp:156] Memory required for data: 1335929376
I0403 15:03:32.282721 14052 layer_factory.hpp:77] Creating layer inception_5b/pool
I0403 15:03:32.282740 14052 net.cpp:91] Creating Layer inception_5b/pool
I0403 15:03:32.282755 14052 net.cpp:425] inception_5b/pool <- inception_5a/output_inception_5a/output_0_split_3
I0403 15:03:32.282773 14052 net.cpp:399] inception_5b/pool -> inception_5b/pool
I0403 15:03:32.282848 14052 net.cpp:141] Setting up inception_5b/pool
I0403 15:03:32.282872 14052 net.cpp:148] Top shape: 24 832 7 7 (978432)
I0403 15:03:32.282886 14052 net.cpp:156] Memory required for data: 1339843104
I0403 15:03:32.282901 14052 layer_factory.hpp:77] Creating layer inception_5b/pool_proj
I0403 15:03:32.282922 14052 net.cpp:91] Creating Layer inception_5b/pool_proj
I0403 15:03:32.282938 14052 net.cpp:425] inception_5b/pool_proj <- inception_5b/pool
I0403 15:03:32.282959 14052 net.cpp:399] inception_5b/pool_proj -> inception_5b/pool_proj
I0403 15:03:32.285296 14052 net.cpp:141] Setting up inception_5b/pool_proj
I0403 15:03:32.285326 14052 net.cpp:148] Top shape: 24 128 7 7 (150528)
I0403 15:03:32.285341 14052 net.cpp:156] Memory required for data: 1340445216
I0403 15:03:32.285359 14052 layer_factory.hpp:77] Creating layer inception_5b/relu_pool_proj
I0403 15:03:32.285379 14052 net.cpp:91] Creating Layer inception_5b/relu_pool_proj
I0403 15:03:32.285397 14052 net.cpp:425] inception_5b/relu_pool_proj <- inception_5b/pool_proj
I0403 15:03:32.285413 14052 net.cpp:386] inception_5b/relu_pool_proj -> inception_5b/pool_proj (in-place)
I0403 15:03:32.285718 14052 net.cpp:141] Setting up inception_5b/relu_pool_proj
I0403 15:03:32.285745 14052 net.cpp:148] Top shape: 24 128 7 7 (150528)
I0403 15:03:32.285760 14052 net.cpp:156] Memory required for data: 1341047328
I0403 15:03:32.285774 14052 layer_factory.hpp:77] Creating layer inception_5b/output
I0403 15:03:32.285792 14052 net.cpp:91] Creating Layer inception_5b/output
I0403 15:03:32.285822 14052 net.cpp:425] inception_5b/output <- inception_5b/1x1
I0403 15:03:32.285840 14052 net.cpp:425] inception_5b/output <- inception_5b/3x3
I0403 15:03:32.285856 14052 net.cpp:425] inception_5b/output <- inception_5b/5x5
I0403 15:03:32.285872 14052 net.cpp:425] inception_5b/output <- inception_5b/pool_proj
I0403 15:03:32.285892 14052 net.cpp:399] inception_5b/output -> inception_5b/output
I0403 15:03:32.285943 14052 net.cpp:141] Setting up inception_5b/output
I0403 15:03:32.285969 14052 net.cpp:148] Top shape: 24 1024 7 7 (1204224)
I0403 15:03:32.285984 14052 net.cpp:156] Memory required for data: 1345864224
I0403 15:03:32.285998 14052 layer_factory.hpp:77] Creating layer pool5/7x7_s1
I0403 15:03:32.286015 14052 net.cpp:91] Creating Layer pool5/7x7_s1
I0403 15:03:32.286031 14052 net.cpp:425] pool5/7x7_s1 <- inception_5b/output
I0403 15:03:32.286052 14052 net.cpp:399] pool5/7x7_s1 -> pool5/7x7_s1
I0403 15:03:32.286267 14052 net.cpp:141] Setting up pool5/7x7_s1
I0403 15:03:32.286293 14052 net.cpp:148] Top shape: 24 1024 1 1 (24576)
I0403 15:03:32.286309 14052 net.cpp:156] Memory required for data: 1345962528
I0403 15:03:32.286321 14052 layer_factory.hpp:77] Creating layer pool5/drop_7x7_s1
I0403 15:03:32.286339 14052 net.cpp:91] Creating Layer pool5/drop_7x7_s1
I0403 15:03:32.286358 14052 net.cpp:425] pool5/drop_7x7_s1 <- pool5/7x7_s1
I0403 15:03:32.286375 14052 net.cpp:386] pool5/drop_7x7_s1 -> pool5/7x7_s1 (in-place)
I0403 15:03:32.286424 14052 net.cpp:141] Setting up pool5/drop_7x7_s1
I0403 15:03:32.286449 14052 net.cpp:148] Top shape: 24 1024 1 1 (24576)
I0403 15:03:32.286465 14052 net.cpp:156] Memory required for data: 1346060832
I0403 15:03:32.286479 14052 layer_factory.hpp:77] Creating layer loss3/classifier_plantvillage
I0403 15:03:32.286499 14052 net.cpp:91] Creating Layer loss3/classifier_plantvillage
I0403 15:03:32.286514 14052 net.cpp:425] loss3/classifier_plantvillage <- pool5/7x7_s1
I0403 15:03:32.286535 14052 net.cpp:399] loss3/classifier_plantvillage -> loss3/classifier_plantvillage
I0403 15:03:32.286968 14052 net.cpp:141] Setting up loss3/classifier_plantvillage
I0403 15:03:32.286994 14052 net.cpp:148] Top shape: 24 38 (912)
I0403 15:03:32.287009 14052 net.cpp:156] Memory required for data: 1346064480
I0403 15:03:32.287026 14052 layer_factory.hpp:77] Creating layer loss3/classifier_plantvillage_loss3/classifier_plantvillage_0_split
I0403 15:03:32.287045 14052 net.cpp:91] Creating Layer loss3/classifier_plantvillage_loss3/classifier_plantvillage_0_split
I0403 15:03:32.287060 14052 net.cpp:425] loss3/classifier_plantvillage_loss3/classifier_plantvillage_0_split <- loss3/classifier_plantvillage
I0403 15:03:32.287077 14052 net.cpp:399] loss3/classifier_plantvillage_loss3/classifier_plantvillage_0_split -> loss3/classifier_plantvillage_loss3/classifier_plantvillage_0_split_0
I0403 15:03:32.287099 14052 net.cpp:399] loss3/classifier_plantvillage_loss3/classifier_plantvillage_0_split -> loss3/classifier_plantvillage_loss3/classifier_plantvillage_0_split_1
I0403 15:03:32.287120 14052 net.cpp:399] loss3/classifier_plantvillage_loss3/classifier_plantvillage_0_split -> loss3/classifier_plantvillage_loss3/classifier_plantvillage_0_split_2
I0403 15:03:32.287140 14052 net.cpp:399] loss3/classifier_plantvillage_loss3/classifier_plantvillage_0_split -> loss3/classifier_plantvillage_loss3/classifier_plantvillage_0_split_3
I0403 15:03:32.287243 14052 net.cpp:141] Setting up loss3/classifier_plantvillage_loss3/classifier_plantvillage_0_split
I0403 15:03:32.287268 14052 net.cpp:148] Top shape: 24 38 (912)
I0403 15:03:32.287284 14052 net.cpp:148] Top shape: 24 38 (912)
I0403 15:03:32.287299 14052 net.cpp:148] Top shape: 24 38 (912)
I0403 15:03:32.287314 14052 net.cpp:148] Top shape: 24 38 (912)
I0403 15:03:32.287328 14052 net.cpp:156] Memory required for data: 1346079072
I0403 15:03:32.287341 14052 layer_factory.hpp:77] Creating layer loss1/loss
I0403 15:03:32.287364 14052 net.cpp:91] Creating Layer loss1/loss
I0403 15:03:32.287382 14052 net.cpp:425] loss1/loss <- loss1/classifier_plantvillage_loss1/classifier_plantvillage_0_split_0
I0403 15:03:32.287413 14052 net.cpp:425] loss1/loss <- label_data_1_split_0
…
