…
I0403 14:14:02.703239 13067 net.cpp:313] The NetState phase (1) differed from the phase (0) specified by a rule in layer data
I0403 14:14:02.704401 13067 net.cpp:49] Initializing net from parameters: 
state {
  phase: TEST
}
layer {
  name: "data"
  type: "Data"
  top: "data"
  top: "label"
  include {
    phase: TEST
  }
  transform_param {
    mirror: false
    crop_size: 224
    mean_file: "/home/mohanty/data/final_dataset/lmdb/color-40-60/mean.binaryproto"
  }
  data_param {
    source: "/home/mohanty/data/final_dataset/lmdb/color-40-60/test_db"
    batch_size: 24
    backend: LMDB
  }
}
layer {
  name: "conv1/7x7_s2"
  type: "Convolution"
  bottom: "data"
  top: "conv1/7x7_s2"
  param {
    lr_mult: 1
    decay_mult: 1
  }
  param {
    lr_mult: 2
    decay_mult: 0
  }
  convolution_param {
    num_output: 64
    pad: 3
    kernel_size: 7
    stride: 2
    weight_filler {
      type: "xavier"
      std: 0.1
    }
    bias_filler {
      type: "constant"
      value: 0.2
    }
  }
}
layer {
  name: "conv1/relu_7x7"
  type: "ReLU"
  bottom: "conv1/7x7_s2"
  top: "conv1/7x7_s2"
}
layer {
  name: "pool1/3x3_s2"
  type: "Pooling"
  bottom: "conv1/7x7_s2"
  top: "pool1/3x3_s2"
  pooling_param {
    pool: MAX
    kernel_size: 3
    stride: 2
  }
}
layer {
  name: "pool1/norm1"
  type: "LRN"
  bottom: "pool1/3x3_s2"
  top: "pool1/norm1"
  lrn_param {
    local_size: 5
    alpha: 0.0001
    beta: 0.75
  }
}
layer {
  name: "conv2/3x3_reduce"
  type: "Convolution"
  bottom: "pool1/norm1"
  top: "conv2/3x3_reduce"
  param {
    lr_mult: 1
    decay_mult: 1
  }
  param {
    lr_mult: 2
    decay_mult: 0
  }
  convolution_param {
    num_output: 64
    kernel_size: 1
    weight_filler {
      type: "xavier"
      std: 0.1
    }
    bias_filler {
      type: "constant"
      value: 0.2
    }
  }
}
layer {
  name: "conv2/relu_3x3_reduce"
  type: "ReLU"
  bottom: "conv2/3x3_reduce"
  top: "conv2/3x3_reduce"
}
layer {
  name: "conv2/3x3"
  type: "Convolution"
  bottom: "conv2/3x3_reduce"
  top: "conv2/3x3"
  param {
    lr_mult: 1
    decay_mult: 1
  }
  param {
    lr_mult: 2
    decay_mult: 0
  }
  convolution_param {
    num_output: 192
    pad: 1
    kernel_size: 3
    weight_filler {
      type: "xavier"
      std: 0.03
    }
    bias_filler {
      type: "constant"
      value: 0.2
    }
  }
}
layer {
  name: "conv2/relu_3x3"
  type: "ReLU"
  bottom: "conv2/3x3"
  top: "conv2/3x3"
}
layer {
  name: "conv2/norm2"
  type: "LRN"
  bottom: "conv2/3x3"
  top: "conv2/norm2"
  lrn_param {
    local_size: 5
    alpha: 0.0001
    beta: 0.75
  }
}
layer {
  name: "pool2/3x3_s2"
  type: "Pooling"
  bottom: "conv2/norm2"
  top: "pool2/3x3_s2"
  pooling_param {
    pool: MAX
    kernel_size: 3
    stride: 2
  }
}
layer {
  name: "inception_3a/1x1"
  type: "Convolution"
  bottom: "pool2/3x3_s2"
  top: "inception_3a/1x1"
  param {
    lr_mult: 1
    decay_mult: 1
  }
  param {
    lr_mult: 2
    decay_mult: 0
  }
  convolution_param {
    num_output: 64
    kernel_size: 1
    weight_filler {
      type: "xavier"
      std: 0.03
    }
    bias_filler {
      type: "constant"
      value: 0.2
    }
  }
}
layer {
  name: "inception_3a/relu_1x1"
  type: "ReLU"
  bottom: "inception_3a/1x1"
  top: "inception_3a/1x1"
}
layer {
  name: "inception_3a/3x3_reduce"
  type: "Convolution"
  bottom: "pool2/3x3_s2"
  top: "inception_3a/3x3_reduce"
  param {
    lr_mult: 1
    decay_mult: 1
  }
  param {
    lr_mult: 2
    decay_mult: 0
  }
  convolution_param {
    num_output: 96
    kernel_size: 1
    weight_filler {
      type: "xavier"
      std: 0.09
    }
    bias_filler {
      type: "constant"
      value: 0.2
    }
  }
}
layer {
  name: "inception_3a/relu_3x3_reduce"
  type: "ReLU"
  bottom: "inception_3a/3x3_reduce"
  top: "inception_3a/3x3_reduce"
}
layer {
  name: "inception_3a/3x3"
  type: "Convolution"
  bottom: "inception_3a/3x3_reduce"
  top: "inception_3a/3x3"
  param {
    lr_mult: 1
    decay_mult: 1
  }
  param {
    lr_mult: 2
    decay_mult: 0
  }
  convolution_param {
    num_output: 128
    pad: 1
    kernel_size: 3
    weight_filler {
      type: "xavier"
      std: 0.03
    }
    bias_filler {
      type: "constant"
      value: 0.2
    }
  }
}
layer {
  name: "inception_3a/relu_3x3"
  type: "ReLU"
  bottom: "inception_3a/3x3"
  top: "inception_3a/3x3"
}
layer {
  name: "inception_3a/5x5_reduce"
  type: "Convolution"
  bottom: "pool2/3x3_s2"
  top: "inception_3a/5x5_reduce"
  param {
    lr_mult: 1
    decay_mult: 1
  }
  param {
    lr_mult: 2
    decay_mult: 0
  }
  convolution_param {
    num_output: 16
    kernel_size: 1
    weight_filler {
      type: "xavier"
      std: 0.2
    }
    bias_filler {
      type: "constant"
      value: 0.2
    }
  }
}
layer {
  name: "inception_3a/relu_5x5_reduce"
  type: "ReLU"
  bottom: "inception_3a/5x5_reduce"
  top: "inception_3a/5x5_reduce"
}
layer {
  name: "inception_3a/5x5"
  type: "Convolution"
  bottom: "inception_3a/5x5_reduce"
  top: "inception_3a/5x5"
  param {
    lr_mult: 1
    decay_mult: 1
  }
  param {
    lr_mult: 2
    decay_mult: 0
  }
  convolution_param {
    num_output: 32
    pad: 2
    kernel_size: 5
    weight_filler {
      type: "xavier"
      std: 0.03
    }
    bias_filler {
      type: "constant"
      value: 0.2
    }
  }
}
layer {
  name: "inception_3a/relu_5x5"
  type: "ReLU"
  bottom: "inception_3a/5x5"
  top: "inception_3a/5x5"
}
layer {
  name: "inception_3a/pool"
  type: "Pooling"
  bottom: "pool2/3x3_s2"
  top: "inception_3a/pool"
  pooling_param {
    pool: MAX
    kernel_size: 3
    stride: 1
    pad: 1
  }
}
layer {
  name: "inception_3a/pool_proj"
  type: "Convolution"
  bottom: "inception_3a/pool"
  top: "inception_3a/pool_proj"
  param {
    lr_mult: 1
    decay_mult: 1
  }
  param {
    lr_mult: 2
    decay_mult: 0
  }
  convolution_param {
    num_output: 32
    kernel_size: 1
    weight_filler {
      type: "xavier"
      std: 0.1
    }
    bias_filler {
      type: "constant"
      value: 0.2
    }
  }
}
layer {
  name: "inception_3a/relu_pool_proj"
  type: "ReLU"
  bottom: "inception_3a/pool_proj"
  top: "inception_3a/pool_proj"
}
layer {
  name: "inception_3a/output"
  type: "Concat"
  bottom: "inception_3a/1x1"
  bottom: "inception_3a/3x3"
  bottom: "inception_3a/5x5"
  bottom: "inception_3a/pool_proj"
  top: "inception_3a/output"
}
layer {
  name: "inception_3b/1x1"
  type: "Convolution"
  bottom: "inception_3a/output"
  top: "inception_3b/1x1"
  param {
    lr_mult: 1
    decay_mult: 1
  }
  param {
    lr_mult: 2
    decay_mult: 0
  }
  convolution_param {
    num_output: 128
    kernel_size: 1
    weight_filler {
      type: "xavier"
      std: 0.03
    }
    bias_filler {
      type: "constant"
      value: 0.2
    }
  }
}
layer {
  name: "inception_3b/relu_1x1"
  type: "ReLU"
  bottom: "inception_3b/1x1"
  top: "inception_3b/1x1"
}
layer {
  name: "inception_3b/3x3_reduce"
  type: "Convolution"
  bottom: "inception_3a/output"
  top: "inception_3b/3x3_reduce"
  param {
    lr_mult: 1
    decay_mult: 1
  }
  param {
    lr_mult: 2
    decay_mult: 0
  }
  convolution_param {
    num_output: 128
    kernel_size: 1
    weight_filler {
      type: "xavier"
      std: 0.09
    }
    bias_filler {
      type: "constant"
      value: 0.2
    }
  }
}
layer {
  name: "inception_3b/relu_3x3_reduce"
  type: "ReLU"
  bottom: "inception_3b/3x3_reduce"
  top: "inception_3b/3x3_reduce"
}
layer {
  name: "inception_3b/3x3"
  type: "Convolution"
  bottom: "inception_3b/3x3_reduce"
  top: "inception_3b/3x3"
  param {
    lr_mult: 1
    decay_mult: 1
  }
  param {
    lr_mult: 2
    decay_mult: 0
  }
  convolution_param {
    num_output: 192
    pad: 1
    kernel_size: 3
    weight_filler {
      type: "xavier"
      std: 0.03
    }
    bias_filler {
      type: "constant"
      value: 0.2
    }
  }
}
layer {
  name: "inception_3b/relu_3x3"
  type: "ReLU"
  bottom: "inception_3b/3x3"
  top: "inception_3b/3x3"
}
layer {
  name: "inception_3b/5x5_reduce"
  type: "Convolution"
  bottom: "inception_3a/output"
  top: "inception_3b/5x5_reduce"
  param {
    lr_mult: 1
    decay_mult: 1
  }
  param {
    lr_mult: 2
    decay_mult: 0
  }
  convolution_param {
    num_output: 32
    kernel_size: 1
    weight_filler {
      type: "xavier"
      std: 0.2
    }
    bias_filler {
      type: "constant"
      value: 0.2
    }
  }
}
layer {
  name: "inception_3b/relu_5x5_reduce"
  type: "ReLU"
  bottom: "inception_3b/5x5_reduce"
  top: "inception_3b/5x5_reduce"
}
layer {
  name: "inception_3b/5x5"
  type: "Convolution"
  bottom: "inception_3b/5x5_reduce"
  top: "inception_3b/5x5"
  param {
    lr_mult: 1
    decay_mult: 1
  }
  param {
    lr_mult: 2
    decay_mult: 0
  }
  convolution_param {
    num_output: 96
    pad: 2
    kernel_size: 5
    weight_filler {
      type: "xavier"
      std: 0.03
    }
    bias_filler {
      type: "constant"
      value: 0.2
    }
  }
}
layer {
  name: "inception_3b/relu_5x5"
  type: "ReLU"
  bottom: "inception_3b/5x5"
  top: "inception_3b/5x5"
}
layer {
  name: "inception_3b/pool"
  type: "Pooling"
  bottom: "inception_3a/output"
  top: "inception_3b/pool"
  pooling_param {
    pool: MAX
    kernel_size: 3
    stride: 1
    pad: 1
  }
}
layer {
  name: "inception_3b/pool_proj"
  type: "Convolution"
  bottom: "inception_3b/pool"
  top: "inception_3b/pool_proj"
  param {
    lr_mult: 1
    decay_mult: 1
  }
  param {
    lr_mult: 2
    decay_mult: 0
  }
  convolution_param {
    num_output: 64
    kernel_size: 1
    weight_filler {
      type: "xavier"
      std: 0.1
    }
    bias_filler {
      type: "constant"
      value: 0.2
    }
  }
}
layer {
  name: "inception_3b/relu_pool_proj"
  type: "ReLU"
  bottom: "inception_3b/pool_proj"
  top: "inception_3b/pool_proj"
}
layer {
  name: "inception_3b/output"
  type: "Concat"
  bottom: "inception_3b/1x1"
  bottom: "inception_3b/3x3"
  bottom: "inception_3b/5x5"
  bottom: "inception_3b/pool_proj"
  top: "inception_3b/output"
}
layer {
  name: "pool3/3x3_s2"
  type: "Pooling"
  bottom: "inception_3b/output"
  top: "pool3/3x3_s2"
  pooling_param {
    pool: MAX
    kernel_size: 3
    stride: 2
  }
}
layer {
  name: "inception_4a/1x1"
  type: "Convolution"
  bottom: "pool3/3x3_s2"
  top: "inception_4a/1x1"
  param {
    lr_mult: 1
    decay_mult: 1
  }
  param {
    lr_mult: 2
    decay_mult: 0
  }
  convolution_param {
    num_output: 192
    kernel_size: 1
    weight_filler {
      type: "xavier"
      std: 0.03
    }
    bias_filler {
      type: "constant"
      value: 0.2
    }
  }
}
layer {
  name: "inception_4a/relu_1x1"
  type: "ReLU"
  bottom: "inception_4a/1x1"
  top: "inception_4a/1x1"
}
layer {
  name: "inception_4a/3x3_reduce"
  type: "Convolution"
  bottom: "pool3/3x3_s2"
  top: "inception_4a/3x3_reduce"
  param {
    lr_mult: 1
    decay_mult: 1
  }
  param {
    lr_mult: 2
    decay_mult: 0
  }
  convolution_param {
    num_output: 96
    kernel_size: 1
    weight_filler {
      type: "xavier"
      std: 0.09
    }
    bias_filler {
      type: "constant"
      value: 0.2
    }
  }
}
layer {
  name: "inception_4a/relu_3x3_reduce"
  type: "ReLU"
  bottom: "inception_4a/3x3_reduce"
  top: "inception_4a/3x3_reduce"
}
layer {
  name: "inception_4a/3x3"
  type: "Convolution"
  bottom: "inception_4a/3x3_reduce"
  top: "inception_4a/3x3"
  param {
    lr_mult: 1
    decay_mult: 1
  }
  param {
    lr_mult: 2
    decay_mult: 0
  }
  convolution_param {
    num_output: 208
    pad: 1
    kernel_size: 3
    weight_filler {
      type: "xavier"
      std: 0.03
    }
    bias_filler {
      type: "constant"
      value: 0.2
    }
  }
}
layer {
  name: "inception_4a/relu_3x3"
  type: "ReLU"
  bottom: "inception_4a/3x3"
  top: "inception_4a/3x3"
}
layer {
  name: "inception_4a/5x5_reduce"
  type: "Convolution"
  bottom: "pool3/3x3_s2"
  top: "inception_4a/5x5_reduce"
  param {
    lr_mult: 1
    decay_mult: 1
  }
  param {
    lr_mult: 2
    decay_mult: 0
  }
  convolution_param {
    num_output: 16
    kernel_size: 1
    weight_filler {
      type: "xavier"
      std: 0.2
    }
    bias_filler {
      type: "constant"
      value: 0.2
    }
  }
}
layer {
  name: "inception_4a/relu_5x5_reduce"
  type: "ReLU"
  bottom: "inception_4a/5x5_reduce"
  top: "inception_4a/5x5_reduce"
}
layer {
  name: "inception_4a/5x5"
  type: "Convolution"
  bottom: "inception_4a/5x5_reduce"
  top: "inception_4a/5x5"
  param {
    lr_mult: 1
    decay_mult: 1
  }
  param {
    lr_mult: 2
    decay_mult: 0
  }
  convolution_param {
    num_output: 48
    pad: 2
    kernel_size: 5
    weight_filler {
      type: "xavier"
      std: 0.03
    }
    bias_filler {
      type: "constant"
      value: 0.2
    }
  }
}
layer {
  name: "inception_4a/relu_5x5"
  type: "ReLU"
  bottom: "inception_4a/5x5"
  top: "inception_4a/5x5"
}
layer {
  name: "inception_4a/pool"
  type: "Pooling"
  bottom: "pool3/3x3_s2"
  top: "inception_4a/pool"
  pooling_param {
    pool: MAX
    kernel_size: 3
    stride: 1
    pad: 1
  }
}
layer {
  name: "inception_4a/pool_proj"
  type: "Convolution"
  bottom: "inception_4a/pool"
  top: "inception_4a/pool_proj"
  param {
    lr_mult: 1
    decay_mult: 1
  }
  param {
    lr_mult: 2
    decay_mult: 0
  }
  convolution_param {
    num_output: 64
    kernel_size: 1
    weight_filler {
      type: "xavier"
      std: 0.1
    }
    bias_filler {
      type: "constant"
      value: 0.2
    }
  }
}
layer {
  name: "inception_4a/relu_pool_proj"
  type: "ReLU"
  bottom: "inception_4a/pool_proj"
  top: "inception_4a/pool_proj"
}
layer {
  name: "inception_4a/output"
  type: "Concat"
  bottom: "inception_4a/1x1"
  bottom: "inception_4a/3x3"
  bottom: "inception_4a/5x5"
  bottom: "inception_4a/pool_proj"
  top: "inception_4a/output"
}
layer {
  name: "loss1/ave_pool"
  type: "Pooling"
  bottom: "inception_4a/output"
  top: "loss1/ave_pool"
  pooling_param {
    pool: AVE
    kernel_size: 5
    stride: 3
  }
}
layer {
  name: "loss1/conv"
  type: "Convolution"
  bottom: "loss1/ave_pool"
  top: "loss1/conv"
  param {
    lr_mult: 1
    decay_mult: 1
  }
  param {
    lr_mult: 2
    decay_mult: 0
  }
  convolution_param {
    num_output: 128
    kernel_size: 1
    weight_filler {
      type: "xavier"
      std: 0.08
    }
    bias_filler {
      type: "constant"
      value: 0.2
    }
  }
}
layer {
  name: "loss1/relu_conv"
  type: "ReLU"
  bottom: "loss1/conv"
  top: "loss1/conv"
}
layer {
  name: "loss1/fc"
  type: "InnerProduct"
  bottom: "loss1/conv"
  top: "loss1/fc"
  param {
    lr_mult: 1
    decay_mult: 1
  }
  param {
    lr_mult: 2
    decay_mult: 0
  }
  inner_product_param {
    num_output: 1024
    weight_filler {
      type: "xavier"
      std: 0.02
    }
    bias_filler {
      type: "constant"
      value: 0.2
    }
  }
}
layer {
  name: "loss1/relu_fc"
  type: "ReLU"
  bottom: "loss1/fc"
  top: "loss1/fc"
}
layer {
  name: "loss1/drop_fc"
  type: "Dropout"
  bottom: "loss1/fc"
  top: "loss1/fc"
  dropout_param {
    dropout_ratio: 0.7
  }
}
layer {
  name: "loss1/classifier_plantvillage"
  type: "InnerProduct"
  bottom: "loss1/fc"
  top: "loss1/classifier_plantvillage"
  param {
    lr_mult: 1
    decay_mult: 1
  }
  param {
    lr_mult: 2
    decay_mult: 0
  }
  inner_product_param {
    num_output: 38
    weight_filler {
      type: "xavier"
      std: 0.0009765625
    }
    bias_filler {
      type: "constant"
      value: 0
    }
  }
}
layer {
  name: "inception_4b/1x1"
  type: "Convolution"
  bottom: "inception_4a/output"
  top: "inception_4b/1x1"
  param {
    lr_mult: 1
    decay_mult: 1
  }
  param {
    lr_mult: 2
    decay_mult: 0
  }
  convolution_param {
    num_output: 160
    kernel_size: 1
    weight_filler {
      type: "xavier"
      std: 0.03
    }
    bias_filler {
      type: "constant"
      value: 0.2
    }
  }
}
layer {
  name: "inception_4b/relu_1x1"
  type: "ReLU"
  bottom: "inception_4b/1x1"
  top: "inception_4b/1x1"
}
layer {
  name: "inception_4b/3x3_reduce"
  type: "Convolution"
  bottom: "inception_4a/output"
  top: "inception_4b/3x3_reduce"
  param {
    lr_mult: 1
    decay_mult: 1
  }
  param {
    lr_mult: 2
    decay_mult: 0
  }
  convolution_param {
    num_output: 112
    kernel_size: 1
    weight_filler {
      type: "xavier"
      std: 0.09
    }
    bias_filler {
      type: "constant"
      value: 0.2
    }
  }
}
layer {
  name: "inception_4b/relu_3x3_reduce"
  type: "ReLU"
  bottom: "inception_4b/3x3_reduce"
  top: "inception_4b/3x3_reduce"
}
layer {
  name: "inception_4b/3x3"
  type: "Convolution"
  bottom: "inception_4b/3x3_reduce"
  top: "inception_4b/3x3"
  param {
    lr_mult: 1
    decay_mult: 1
  }
  param {
    lr_mult: 2
    decay_mult: 0
  }
  convolution_param {
    num_output: 224
    pad: 1
    kernel_size: 3
    weight_filler {
      type: "xavier"
      std: 0.03
    }
    bias_filler {
      type: "constant"
      value: 0.2
    }
  }
}
layer {
  name: "inception_4b/relu_3x3"
  type: "ReLU"
  bottom: "inception_4b/3x3"
  top: "inception_4b/3x3"
}
layer {
  name: "inception_4b/5x5_reduce"
  type: "Convolution"
  bottom: "inception_4a/output"
  top: "inception_4b/5x5_reduce"
  param {
    lr_mult: 1
    decay_mult: 1
  }
  param {
    lr_mult: 2
    decay_mult: 0
  }
  convolution_param {
    num_output: 24
    kernel_size: 1
    weight_filler {
      type: "xavier"
      std: 0.2
    }
    bias_filler {
      type: "constant"
      value: 0.2
    }
  }
}
layer {
  name: "inception_4b/relu_5x5_reduce"
  type: "ReLU"
  bottom: "inception_4b/5x5_reduce"
  top: "inception_4b/5x5_reduce"
}
layer {
  name: "inception_4b/5x5"
  type: "Convolution"
  bottom: "inception_4b/5x5_reduce"
  top: "inception_4b/5x5"
  param {
    lr_mult: 1
    decay_mult: 1
  }
  param {
    lr_mult: 2
    decay_mult: 0
  }
  convolution_param {
    num_output: 64
    pad: 2
    kernel_size: 5
    weight_filler {
      type: "xavier"
      std: 0.03
    }
    bias_filler {
      type: "constant"
      value: 0.2
    }
  }
}
layer {
  name: "inception_4b/relu_5x5"
  type: "ReLU"
  bottom: "inception_4b/5x5"
  top: "inception_4b/5x5"
}
layer {
  name: "inception_4b/pool"
  type: "Pooling"
  bottom: "inception_4a/output"
  top: "inception_4b/pool"
  pooling_param {
    pool: MAX
    kernel_size: 3
    stride: 1
    pad: 1
  }
}
layer {
  name: "inception_4b/pool_proj"
  type: "Convolution"
  bottom: "inception_4b/pool"
  top: "inception_4b/pool_proj"
  param {
    lr_mult: 1
    decay_mult: 1
  }
  param {
    lr_mult: 2
    decay_mult: 0
  }
  convolution_param {
    num_output: 64
    kernel_size: 1
    weight_filler {
      type: "xavier"
      std: 0.1
    }
    bias_filler {
      type: "constant"
      value: 0.2
    }
  }
}
layer {
  name: "inception_4b/relu_pool_proj"
  type: "ReLU"
  bottom: "inception_4b/pool_proj"
  top: "inception_4b/pool_proj"
}
layer {
  name: "inception_4b/output"
  type: "Concat"
  bottom: "inception_4b/1x1"
  bottom: "inception_4b/3x3"
  bottom: "inception_4b/5x5"
  bottom: "inception_4b/pool_proj"
  top: "inception_4b/output"
}
layer {
  name: "inception_4c/1x1"
  type: "Convolution"
  bottom: "inception_4b/output"
  top: "inception_4c/1x1"
  param {
    lr_mult: 1
    decay_mult: 1
  }
  param {
    lr_mult: 2
    decay_mult: 0
  }
  convolution_param {
    num_output: 128
    kernel_size: 1
    weight_filler {
      type: "xavier"
      std: 0.03
    }
    bias_filler {
      type: "constant"
      value: 0.2
    }
  }
}
layer {
  name: "inception_4c/relu_1x1"
  type: "ReLU"
  bottom: "inception_4c/1x1"
  top: "inception_4c/1x1"
}
layer {
  name: "inception_4c/3x3_reduce"
  type: "Convolution"
  bottom: "inception_4b/output"
  top: "inception_4c/3x3_reduce"
  param {
    lr_mult: 1
    decay_mult: 1
  }
  param {
    lr_mult: 2
    decay_mult: 0
  }
  convolution_param {
    num_output: 128
    kernel_size: 1
    weight_filler {
      type: "xavier"
      std: 0.09
    }
    bias_filler {
      type: "constant"
      value: 0.2
    }
  }
}
layer {
  name: "inception_4c/relu_3x3_reduce"
  type: "ReLU"
  bottom: "inception_4c/3x3_reduce"
  top: "inception_4c/3x3_reduce"
}
layer {
  name: "inception_4c/3x3"
  type: "Convolution"
  bottom: "inception_4c/3x3_reduce"
  top: "inception_4c/3x3"
  param {
    lr_mult: 1
    decay_mult: 1
  }
  param {
    lr_mult: 2
    decay_mult: 0
  }
  convolution_param {
    num_output: 256
    pad: 1
    kernel_size: 3
    weight_filler {
      type: "xavier"
      std: 0.03
    }
    bias_filler {
      type: "constant"
      value: 0.2
    }
  }
}
layer {
  name: "inception_4c/relu_3x3"
  type: "ReLU"
  bottom: "inception_4c/3x3"
  top: "inception_4c/3x3"
}
layer {
  name: "inception_4c/5x5_reduce"
  type: "Convolution"
  bottom: "inception_4b/output"
  top: "inception_4c/5x5_reduce"
  param {
    lr_mult: 1
    decay_mult: 1
  }
  param {
    lr_mult: 2
    decay_mult: 0
  }
  convolution_param {
    num_output: 24
    kernel_size: 1
    weight_filler {
      type: "xavier"
      std: 0.2
    }
    bias_filler {
      type: "constant"
      value: 0.2
    }
  }
}
layer {
  name: "inception_4c/relu_5x5_reduce"
  type: "ReLU"
  bottom: "inception_4c/5x5_reduce"
  top: "inception_4c/5x5_reduce"
}
layer {
  name: "inception_4c/5x5"
  type: "Convolution"
  bottom: "inception_4c/5x5_reduce"
  top: "inception_4c/5x5"
  param {
    lr_mult: 1
    decay_mult: 1
  }
  param {
    lr_mult: 2
    decay_mult: 0
  }
  convolution_param {
    num_output: 64
    pad: 2
    kernel_size: 5
    weight_filler {
      type: "xavier"
      std: 0.03
    }
    bias_filler {
      type: "constant"
      value: 0.2
    }
  }
}
layer {
  name: "inception_4c/relu_5x5"
  type: "ReLU"
  bottom: "inception_4c/5x5"
  top: "inception_4c/5x5"
}
layer {
  name: "inception_4c/pool"
  type: "Pooling"
  bottom: "inception_4b/output"
  top: "inception_4c/pool"
  pooling_param {
    pool: MAX
    kernel_size: 3
    stride: 1
    pad: 1
  }
}
layer {
  name: "inception_4c/pool_proj"
  type: "Convolution"
  bottom: "inception_4c/pool"
  top: "inception_4c/pool_proj"
  param {
    lr_mult: 1
    decay_mult: 1
  }
  param {
    lr_mult: 2
    decay_mult: 0
  }
  convolution_param {
    num_output: 64
    kernel_size: 1
    weight_filler {
      type: "xavier"
      std: 0.1
    }
    bias_filler {
      type: "constant"
      value: 0.2
    }
  }
}
layer {
  name: "inception_4c/relu_pool_proj"
  type: "ReLU"
  bottom: "inception_4c/pool_proj"
  top: "inception_4c/pool_proj"
}
layer {
  name: "inception_4c/output"
  type: "Concat"
  bottom: "inception_4c/1x1"
  bottom: "inception_4c/3x3"
  bottom: "inception_4c/5x5"
  bottom: "inception_4c/pool_proj"
  top: "inception_4c/output"
}
layer {
  name: "inception_4d/1x1"
  type: "Convolution"
  bottom: "inception_4c/output"
  top: "inception_4d/1x1"
  param {
    lr_mult: 1
    decay_mult: 1
  }
  param {
    lr_mult: 2
    decay_mult: 0
  }
  convolution_param {
    num_output: 112
    kernel_size: 1
    weight_filler {
      type: "xavier"
      std: 0.03
    }
    bias_filler {
      type: "constant"
      value: 0.2
    }
  }
}
layer {
  name: "inception_4d/relu_1x1"
  type: "ReLU"
  bottom: "inception_4d/1x1"
  top: "inception_4d/1x1"
}
layer {
  name: "inception_4d/3x3_reduce"
  type: "Convolution"
  bottom: "inception_4c/output"
  top: "inception_4d/3x3_reduce"
  param {
    lr_mult: 1
    decay_mult: 1
  }
  param {
    lr_mult: 2
    decay_mult: 0
  }
  convolution_param {
    num_output: 144
    kernel_size: 1
    weight_filler {
      type: "xavier"
      std: 0.09
    }
    bias_filler {
      type: "constant"
      value: 0.2
    }
  }
}
layer {
  name: "inception_4d/relu_3x3_reduce"
  type: "ReLU"
  bottom: "inception_4d/3x3_reduce"
  top: "inception_4d/3x3_reduce"
}
layer {
  name: "inception_4d/3x3"
  type: "Convolution"
  bottom: "inception_4d/3x3_reduce"
  top: "inception_4d/3x3"
  param {
    lr_mult: 1
    decay_mult: 1
  }
  param {
    lr_mult: 2
    decay_mult: 0
  }
  convolution_param {
    num_output: 288
    pad: 1
    kernel_size: 3
    weight_filler {
      type: "xavier"
      std: 0.03
    }
    bias_filler {
      type: "constant"
      value: 0.2
    }
  }
}
layer {
  name: "inception_4d/relu_3x3"
  type: "ReLU"
  bottom: "inception_4d/3x3"
  top: "inception_4d/3x3"
}
layer {
  name: "inception_4d/5x5_reduce"
  type: "Convolution"
  bottom: "inception_4c/output"
  top: "inception_4d/5x5_reduce"
  param {
    lr_mult: 1
    decay_mult: 1
  }
  param {
    lr_mult: 2
    decay_mult: 0
  }
  convolution_param {
    num_output: 32
    kernel_size: 1
    weight_filler {
      type: "xavier"
      std: 0.2
    }
    bias_filler {
      type: "constant"
      value: 0.2
    }
  }
}
layer {
  name: "inception_4d/relu_5x5_reduce"
  type: "ReLU"
  bottom: "inception_4d/5x5_reduce"
  top: "inception_4d/5x5_reduce"
}
layer {
  name: "inception_4d/5x5"
  type: "Convolution"
  bottom: "inception_4d/5x5_reduce"
  top: "inception_4d/5x5"
  param {
    lr_mult: 1
    decay_mult: 1
  }
  param {
    lr_mult: 2
    decay_mult: 0
  }
  convolution_param {
    num_output: 64
    pad: 2
    kernel_size: 5
    weight_filler {
      type: "xavier"
      std: 0.03
    }
    bias_filler {
      type: "constant"
      value: 0.2
    }
  }
}
layer {
  name: "inception_4d/relu_5x5"
  type: "ReLU"
  bottom: "inception_4d/5x5"
  top: "inception_4d/5x5"
}
layer {
  name: "inception_4d/pool"
  type: "Pooling"
  bottom: "inception_4c/output"
  top: "inception_4d/pool"
  pooling_param {
    pool: MAX
    kernel_size: 3
    stride: 1
    pad: 1
  }
}
layer {
  name: "inception_4d/pool_proj"
  type: "Convolution"
  bottom: "inception_4d/pool"
  top: "inception_4d/pool_proj"
  param {
    lr_mult: 1
    decay_mult: 1
  }
  param {
    lr_mult: 2
    decay_mult: 0
  }
  convolution_param {
    num_output: 64
    kernel_size: 1
    weight_filler {
      type: "xavier"
      std: 0.1
    }
    bias_filler {
      type: "constant"
      value: 0.2
    }
  }
}
layer {
  name: "inception_4d/relu_pool_proj"
  type: "ReLU"
  bottom: "inception_4d/pool_proj"
  top: "inception_4d/pool_proj"
}
layer {
  name: "inception_4d/output"
  type: "Concat"
  bottom: "inception_4d/1x1"
  bottom: "inception_4d/3x3"
  bottom: "inception_4d/5x5"
  bottom: "inception_4d/pool_proj"
  top: "inception_4d/output"
}
layer {
  name: "loss2/ave_pool"
  type: "Pooling"
  bottom: "inception_4d/output"
  top: "loss2/ave_pool"
  pooling_param {
    pool: AVE
    kernel_size: 5
    stride: 3
  }
}
layer {
  name: "loss2/conv"
  type: "Convolution"
  bottom: "loss2/ave_pool"
  top: "loss2/conv"
  param {
    lr_mult: 1
    decay_mult: 1
  }
  param {
    lr_mult: 2
    decay_mult: 0
  }
  convolution_param {
    num_output: 128
    kernel_size: 1
    weight_filler {
      type: "xavier"
      std: 0.08
    }
    bias_filler {
      type: "constant"
      value: 0.2
    }
  }
}
layer {
  name: "loss2/relu_conv"
  type: "ReLU"
  bottom: "loss2/conv"
  top: "loss2/conv"
}
layer {
  name: "loss2/fc"
  type: "InnerProduct"
  bottom: "loss2/conv"
  top: "loss2/fc"
  param {
    lr_mult: 1
    decay_mult: 1
  }
  param {
    lr_mult: 2
    decay_mult: 0
  }
  inner_product_param {
    num_output: 1024
    weight_filler {
      type: "xavier"
      std: 0.02
    }
    bias_filler {
      type: "constant"
      value: 0.2
    }
  }
}
layer {
  name: "loss2/relu_fc"
  type: "ReLU"
  bottom: "loss2/fc"
  top: "loss2/fc"
}
layer {
  name: "loss2/drop_fc"
  type: "Dropout"
  bottom: "loss2/fc"
  top: "loss2/fc"
  dropout_param {
    dropout_ratio: 0.7
  }
}
layer {
  name: "loss2/classifier_plantvillage"
  type: "InnerProduct"
  bottom: "loss2/fc"
  top: "loss2/classifier_plantvillage"
  param {
    lr_mult: 1
    decay_mult: 1
  }
  param {
    lr_mult: 2
    decay_mult: 0
  }
  inner_product_param {
    num_output: 38
    weight_filler {
      type: "xavier"
      std: 0.0009765625
    }
    bias_filler {
      type: "constant"
      value: 0
    }
  }
}
layer {
  name: "inception_4e/1x1"
  type: "Convolution"
  bottom: "inception_4d/output"
  top: "inception_4e/1x1"
  param {
    lr_mult: 1
    decay_mult: 1
  }
  param {
    lr_mult: 2
    decay_mult: 0
  }
  convolution_param {
    num_output: 256
    kernel_size: 1
    weight_filler {
      type: "xavier"
      std: 0.03
    }
    bias_filler {
      type: "constant"
      value: 0.2
    }
  }
}
layer {
  name: "inception_4e/relu_1x1"
  type: "ReLU"
  bottom: "inception_4e/1x1"
  top: "inception_4e/1x1"
}
layer {
  name: "inception_4e/3x3_reduce"
  type: "Convolution"
  bottom: "inception_4d/output"
  top: "inception_4e/3x3_reduce"
  param {
    lr_mult: 1
    decay_mult: 1
  }
  param {
    lr_mult: 2
    decay_mult: 0
  }
  convolution_param {
    num_output: 160
    kernel_size: 1
    weight_filler {
      type: "xavier"
      std: 0.09
    }
    bias_filler {
      type: "constant"
      value: 0.2
    }
  }
}
layer {
  name: "inception_4e/relu_3x3_reduce"
  type: "ReLU"
  bottom: "inception_4e/3x3_reduce"
  top: "inception_4e/3x3_reduce"
}
layer {
  name: "inception_4e/3x3"
  type: "Convolution"
  bottom: "inception_4e/3x3_reduce"
  top: "inception_4e/3x3"
  param {
    lr_mult: 1
    decay_mult: 1
  }
  param {
    lr_mult: 2
    decay_mult: 0
  }
  convolution_param {
    num_output: 320
    pad: 1
    kernel_size: 3
    weight_filler {
      type: "xavier"
      std: 0.03
    }
    bias_filler {
      type: "constant"
      value: 0.2
    }
  }
}
layer {
  name: "inception_4e/relu_3x3"
  type: "ReLU"
  bottom: "inception_4e/3x3"
  top: "inception_4e/3x3"
}
layer {
  name: "inception_4e/5x5_reduce"
  type: "Convolution"
  bottom: "inception_4d/output"
  top: "inception_4e/5x5_reduce"
  param {
    lr_mult: 1
    decay_mult: 1
  }
  param {
    lr_mult: 2
    decay_mult: 0
  }
  convolution_param {
    num_output: 32
    kernel_size: 1
    weight_filler {
      type: "xavier"
      std: 0.2
    }
    bias_filler {
      type: "constant"
      value: 0.2
    }
  }
}
layer {
  name: "inception_4e/relu_5x5_reduce"
  type: "ReLU"
  bottom: "inception_4e/5x5_reduce"
  top: "inception_4e/5x5_reduce"
}
layer {
  name: "inception_4e/5x5"
  type: "Convolution"
  bottom: "inception_4e/5x5_reduce"
  top: "inception_4e/5x5"
  p
I0403 14:14:02.705760 13067 layer_factory.hpp:77] Creating layer data
I0403 14:14:02.706338 13067 net.cpp:91] Creating Layer data
I0403 14:14:02.706368 13067 net.cpp:399] data -> data
I0403 14:14:02.706418 13067 net.cpp:399] data -> label
I0403 14:14:02.706454 13067 data_transformer.cpp:25] Loading mean file from: /home/mohanty/data/final_dataset/lmdb/color-40-60/mean.binaryproto
I0403 14:14:02.737720 13069 db_lmdb.cpp:38] Opened lmdb /home/mohanty/data/final_dataset/lmdb/color-40-60/test_db
I0403 14:14:02.841598 13067 data_layer.cpp:41] output data size: 24,3,224,224
I0403 14:14:02.868875 13067 net.cpp:141] Setting up data
I0403 14:14:02.868952 13067 net.cpp:148] Top shape: 24 3 224 224 (3612672)
I0403 14:14:02.868974 13067 net.cpp:148] Top shape: 24 (24)
I0403 14:14:02.868988 13067 net.cpp:156] Memory required for data: 14450784
I0403 14:14:02.869014 13067 layer_factory.hpp:77] Creating layer label_data_1_split
I0403 14:14:02.869040 13067 net.cpp:91] Creating Layer label_data_1_split
I0403 14:14:02.869057 13067 net.cpp:425] label_data_1_split <- label
I0403 14:14:02.869089 13067 net.cpp:399] label_data_1_split -> label_data_1_split_0
I0403 14:14:02.869115 13067 net.cpp:399] label_data_1_split -> label_data_1_split_1
I0403 14:14:02.869135 13067 net.cpp:399] label_data_1_split -> label_data_1_split_2
I0403 14:14:02.869155 13067 net.cpp:399] label_data_1_split -> label_data_1_split_3
I0403 14:14:02.869174 13067 net.cpp:399] label_data_1_split -> label_data_1_split_4
I0403 14:14:02.869191 13067 net.cpp:399] label_data_1_split -> label_data_1_split_5
I0403 14:14:02.869210 13067 net.cpp:399] label_data_1_split -> label_data_1_split_6
I0403 14:14:02.869228 13067 net.cpp:399] label_data_1_split -> label_data_1_split_7
I0403 14:14:02.869246 13067 net.cpp:399] label_data_1_split -> label_data_1_split_8
I0403 14:14:02.869266 13067 net.cpp:399] label_data_1_split -> label_data_1_split_9
I0403 14:14:02.869379 13067 net.cpp:141] Setting up label_data_1_split
I0403 14:14:02.869402 13067 net.cpp:148] Top shape: 24 (24)
I0403 14:14:02.869418 13067 net.cpp:148] Top shape: 24 (24)
I0403 14:14:02.869433 13067 net.cpp:148] Top shape: 24 (24)
I0403 14:14:02.869448 13067 net.cpp:148] Top shape: 24 (24)
I0403 14:14:02.869463 13067 net.cpp:148] Top shape: 24 (24)
I0403 14:14:02.869478 13067 net.cpp:148] Top shape: 24 (24)
I0403 14:14:02.869493 13067 net.cpp:148] Top shape: 24 (24)
I0403 14:14:02.869508 13067 net.cpp:148] Top shape: 24 (24)
I0403 14:14:02.869523 13067 net.cpp:148] Top shape: 24 (24)
I0403 14:14:02.869537 13067 net.cpp:148] Top shape: 24 (24)
I0403 14:14:02.869583 13067 net.cpp:156] Memory required for data: 14451744
I0403 14:14:02.869602 13067 layer_factory.hpp:77] Creating layer conv1/7x7_s2
I0403 14:14:02.869634 13067 net.cpp:91] Creating Layer conv1/7x7_s2
I0403 14:14:02.869652 13067 net.cpp:425] conv1/7x7_s2 <- data
I0403 14:14:02.869670 13067 net.cpp:399] conv1/7x7_s2 -> conv1/7x7_s2
I0403 14:14:03.019811 13067 net.cpp:141] Setting up conv1/7x7_s2
I0403 14:14:03.019853 13067 net.cpp:148] Top shape: 24 64 112 112 (19267584)
I0403 14:14:03.019871 13067 net.cpp:156] Memory required for data: 91522080
I0403 14:14:03.019902 13067 layer_factory.hpp:77] Creating layer conv1/relu_7x7
I0403 14:14:03.019929 13067 net.cpp:91] Creating Layer conv1/relu_7x7
I0403 14:14:03.019948 13067 net.cpp:425] conv1/relu_7x7 <- conv1/7x7_s2
I0403 14:14:03.019968 13067 net.cpp:386] conv1/relu_7x7 -> conv1/7x7_s2 (in-place)
I0403 14:14:03.020232 13067 net.cpp:141] Setting up conv1/relu_7x7
I0403 14:14:03.020262 13067 net.cpp:148] Top shape: 24 64 112 112 (19267584)
I0403 14:14:03.020277 13067 net.cpp:156] Memory required for data: 168592416
I0403 14:14:03.020292 13067 layer_factory.hpp:77] Creating layer pool1/3x3_s2
I0403 14:14:03.020318 13067 net.cpp:91] Creating Layer pool1/3x3_s2
I0403 14:14:03.020335 13067 net.cpp:425] pool1/3x3_s2 <- conv1/7x7_s2
I0403 14:14:03.020354 13067 net.cpp:399] pool1/3x3_s2 -> pool1/3x3_s2
I0403 14:14:03.020429 13067 net.cpp:141] Setting up pool1/3x3_s2
I0403 14:14:03.020454 13067 net.cpp:148] Top shape: 24 64 56 56 (4816896)
I0403 14:14:03.020469 13067 net.cpp:156] Memory required for data: 187860000
I0403 14:14:03.020484 13067 layer_factory.hpp:77] Creating layer pool1/norm1
I0403 14:14:03.020509 13067 net.cpp:91] Creating Layer pool1/norm1
I0403 14:14:03.020527 13067 net.cpp:425] pool1/norm1 <- pool1/3x3_s2
I0403 14:14:03.020545 13067 net.cpp:399] pool1/norm1 -> pool1/norm1
I0403 14:14:03.020848 13067 net.cpp:141] Setting up pool1/norm1
I0403 14:14:03.020877 13067 net.cpp:148] Top shape: 24 64 56 56 (4816896)
I0403 14:14:03.020894 13067 net.cpp:156] Memory required for data: 207127584
I0403 14:14:03.020910 13067 layer_factory.hpp:77] Creating layer conv2/3x3_reduce
I0403 14:14:03.020936 13067 net.cpp:91] Creating Layer conv2/3x3_reduce
I0403 14:14:03.020951 13067 net.cpp:425] conv2/3x3_reduce <- pool1/norm1
I0403 14:14:03.020970 13067 net.cpp:399] conv2/3x3_reduce -> conv2/3x3_reduce
I0403 14:14:03.022354 13067 net.cpp:141] Setting up conv2/3x3_reduce
I0403 14:14:03.022385 13067 net.cpp:148] Top shape: 24 64 56 56 (4816896)
I0403 14:14:03.022402 13067 net.cpp:156] Memory required for data: 226395168
I0403 14:14:03.022423 13067 layer_factory.hpp:77] Creating layer conv2/relu_3x3_reduce
I0403 14:14:03.022442 13067 net.cpp:91] Creating Layer conv2/relu_3x3_reduce
I0403 14:14:03.022459 13067 net.cpp:425] conv2/relu_3x3_reduce <- conv2/3x3_reduce
I0403 14:14:03.022475 13067 net.cpp:386] conv2/relu_3x3_reduce -> conv2/3x3_reduce (in-place)
I0403 14:14:03.022737 13067 net.cpp:141] Setting up conv2/relu_3x3_reduce
I0403 14:14:03.022764 13067 net.cpp:148] Top shape: 24 64 56 56 (4816896)
I0403 14:14:03.022778 13067 net.cpp:156] Memory required for data: 245662752
I0403 14:14:03.022794 13067 layer_factory.hpp:77] Creating layer conv2/3x3
I0403 14:14:03.022815 13067 net.cpp:91] Creating Layer conv2/3x3
I0403 14:14:03.022832 13067 net.cpp:425] conv2/3x3 <- conv2/3x3_reduce
I0403 14:14:03.022850 13067 net.cpp:399] conv2/3x3 -> conv2/3x3
I0403 14:14:03.025212 13067 net.cpp:141] Setting up conv2/3x3
I0403 14:14:03.025243 13067 net.cpp:148] Top shape: 24 192 56 56 (14450688)
I0403 14:14:03.025262 13067 net.cpp:156] Memory required for data: 303465504
I0403 14:14:03.025284 13067 layer_factory.hpp:77] Creating layer conv2/relu_3x3
I0403 14:14:03.025302 13067 net.cpp:91] Creating Layer conv2/relu_3x3
I0403 14:14:03.025318 13067 net.cpp:425] conv2/relu_3x3 <- conv2/3x3
I0403 14:14:03.025336 13067 net.cpp:386] conv2/relu_3x3 -> conv2/3x3 (in-place)
I0403 14:14:03.025512 13067 net.cpp:141] Setting up conv2/relu_3x3
I0403 14:14:03.025537 13067 net.cpp:148] Top shape: 24 192 56 56 (14450688)
I0403 14:14:03.025571 13067 net.cpp:156] Memory required for data: 361268256
I0403 14:14:03.025588 13067 layer_factory.hpp:77] Creating layer conv2/norm2
I0403 14:14:03.025610 13067 net.cpp:91] Creating Layer conv2/norm2
I0403 14:14:03.025629 13067 net.cpp:425] conv2/norm2 <- conv2/3x3
I0403 14:14:03.025648 13067 net.cpp:399] conv2/norm2 -> conv2/norm2
I0403 14:14:03.025954 13067 net.cpp:141] Setting up conv2/norm2
I0403 14:14:03.025981 13067 net.cpp:148] Top shape: 24 192 56 56 (14450688)
I0403 14:14:03.025996 13067 net.cpp:156] Memory required for data: 419071008
I0403 14:14:03.026011 13067 layer_factory.hpp:77] Creating layer pool2/3x3_s2
I0403 14:14:03.026028 13067 net.cpp:91] Creating Layer pool2/3x3_s2
I0403 14:14:03.026043 13067 net.cpp:425] pool2/3x3_s2 <- conv2/norm2
I0403 14:14:03.026062 13067 net.cpp:399] pool2/3x3_s2 -> pool2/3x3_s2
I0403 14:14:03.026118 13067 net.cpp:141] Setting up pool2/3x3_s2
I0403 14:14:03.026141 13067 net.cpp:148] Top shape: 24 192 28 28 (3612672)
I0403 14:14:03.026156 13067 net.cpp:156] Memory required for data: 433521696
I0403 14:14:03.026170 13067 layer_factory.hpp:77] Creating layer pool2/3x3_s2_pool2/3x3_s2_0_split
I0403 14:14:03.026188 13067 net.cpp:91] Creating Layer pool2/3x3_s2_pool2/3x3_s2_0_split
I0403 14:14:03.026203 13067 net.cpp:425] pool2/3x3_s2_pool2/3x3_s2_0_split <- pool2/3x3_s2
I0403 14:14:03.026223 13067 net.cpp:399] pool2/3x3_s2_pool2/3x3_s2_0_split -> pool2/3x3_s2_pool2/3x3_s2_0_split_0
I0403 14:14:03.026243 13067 net.cpp:399] pool2/3x3_s2_pool2/3x3_s2_0_split -> pool2/3x3_s2_pool2/3x3_s2_0_split_1
I0403 14:14:03.026265 13067 net.cpp:399] pool2/3x3_s2_pool2/3x3_s2_0_split -> pool2/3x3_s2_pool2/3x3_s2_0_split_2
I0403 14:14:03.026284 13067 net.cpp:399] pool2/3x3_s2_pool2/3x3_s2_0_split -> pool2/3x3_s2_pool2/3x3_s2_0_split_3
I0403 14:14:03.026352 13067 net.cpp:141] Setting up pool2/3x3_s2_pool2/3x3_s2_0_split
I0403 14:14:03.026377 13067 net.cpp:148] Top shape: 24 192 28 28 (3612672)
I0403 14:14:03.026394 13067 net.cpp:148] Top shape: 24 192 28 28 (3612672)
I0403 14:14:03.026410 13067 net.cpp:148] Top shape: 24 192 28 28 (3612672)
I0403 14:14:03.026425 13067 net.cpp:148] Top shape: 24 192 28 28 (3612672)
I0403 14:14:03.026439 13067 net.cpp:156] Memory required for data: 491324448
I0403 14:14:03.026453 13067 layer_factory.hpp:77] Creating layer inception_3a/1x1
I0403 14:14:03.026475 13067 net.cpp:91] Creating Layer inception_3a/1x1
I0403 14:14:03.026492 13067 net.cpp:425] inception_3a/1x1 <- pool2/3x3_s2_pool2/3x3_s2_0_split_0
I0403 14:14:03.026511 13067 net.cpp:399] inception_3a/1x1 -> inception_3a/1x1
I0403 14:14:03.028079 13067 net.cpp:141] Setting up inception_3a/1x1
I0403 14:14:03.028110 13067 net.cpp:148] Top shape: 24 64 28 28 (1204224)
I0403 14:14:03.028126 13067 net.cpp:156] Memory required for data: 496141344
I0403 14:14:03.028144 13067 layer_factory.hpp:77] Creating layer inception_3a/relu_1x1
I0403 14:14:03.028169 13067 net.cpp:91] Creating Layer inception_3a/relu_1x1
I0403 14:14:03.028185 13067 net.cpp:425] inception_3a/relu_1x1 <- inception_3a/1x1
I0403 14:14:03.028203 13067 net.cpp:386] inception_3a/relu_1x1 -> inception_3a/1x1 (in-place)
I0403 14:14:03.028380 13067 net.cpp:141] Setting up inception_3a/relu_1x1
I0403 14:14:03.028409 13067 net.cpp:148] Top shape: 24 64 28 28 (1204224)
I0403 14:14:03.028424 13067 net.cpp:156] Memory required for data: 500958240
I0403 14:14:03.028440 13067 layer_factory.hpp:77] Creating layer inception_3a/3x3_reduce
I0403 14:14:03.028463 13067 net.cpp:91] Creating Layer inception_3a/3x3_reduce
I0403 14:14:03.028481 13067 net.cpp:425] inception_3a/3x3_reduce <- pool2/3x3_s2_pool2/3x3_s2_0_split_1
I0403 14:14:03.028499 13067 net.cpp:399] inception_3a/3x3_reduce -> inception_3a/3x3_reduce
I0403 14:14:03.030264 13067 net.cpp:141] Setting up inception_3a/3x3_reduce
I0403 14:14:03.030297 13067 net.cpp:148] Top shape: 24 96 28 28 (1806336)
I0403 14:14:03.030314 13067 net.cpp:156] Memory required for data: 508183584
I0403 14:14:03.030338 13067 layer_factory.hpp:77] Creating layer inception_3a/relu_3x3_reduce
I0403 14:14:03.030377 13067 net.cpp:91] Creating Layer inception_3a/relu_3x3_reduce
I0403 14:14:03.030396 13067 net.cpp:425] inception_3a/relu_3x3_reduce <- inception_3a/3x3_reduce
I0403 14:14:03.030417 13067 net.cpp:386] inception_3a/relu_3x3_reduce -> inception_3a/3x3_reduce (in-place)
I0403 14:14:03.030616 13067 net.cpp:141] Setting up inception_3a/relu_3x3_reduce
I0403 14:14:03.030642 13067 net.cpp:148] Top shape: 24 96 28 28 (1806336)
I0403 14:14:03.030658 13067 net.cpp:156] Memory required for data: 515408928
I0403 14:14:03.030674 13067 layer_factory.hpp:77] Creating layer inception_3a/3x3
I0403 14:14:03.030696 13067 net.cpp:91] Creating Layer inception_3a/3x3
I0403 14:14:03.030714 13067 net.cpp:425] inception_3a/3x3 <- inception_3a/3x3_reduce
I0403 14:14:03.030737 13067 net.cpp:399] inception_3a/3x3 -> inception_3a/3x3
I0403 14:14:03.032464 13067 net.cpp:141] Setting up inception_3a/3x3
I0403 14:14:03.032497 13067 net.cpp:148] Top shape: 24 128 28 28 (2408448)
I0403 14:14:03.032515 13067 net.cpp:156] Memory required for data: 525042720
I0403 14:14:03.032533 13067 layer_factory.hpp:77] Creating layer inception_3a/relu_3x3
I0403 14:14:03.032552 13067 net.cpp:91] Creating Layer inception_3a/relu_3x3
I0403 14:14:03.032568 13067 net.cpp:425] inception_3a/relu_3x3 <- inception_3a/3x3
I0403 14:14:03.032585 13067 net.cpp:386] inception_3a/relu_3x3 -> inception_3a/3x3 (in-place)
I0403 14:14:03.032874 13067 net.cpp:141] Setting up inception_3a/relu_3x3
I0403 14:14:03.032904 13067 net.cpp:148] Top shape: 24 128 28 28 (2408448)
I0403 14:14:03.032922 13067 net.cpp:156] Memory required for data: 534676512
I0403 14:14:03.032937 13067 layer_factory.hpp:77] Creating layer inception_3a/5x5_reduce
I0403 14:14:03.032956 13067 net.cpp:91] Creating Layer inception_3a/5x5_reduce
I0403 14:14:03.032974 13067 net.cpp:425] inception_3a/5x5_reduce <- pool2/3x3_s2_pool2/3x3_s2_0_split_2
I0403 14:14:03.032995 13067 net.cpp:399] inception_3a/5x5_reduce -> inception_3a/5x5_reduce
I0403 14:14:03.034000 13067 net.cpp:141] Setting up inception_3a/5x5_reduce
I0403 14:14:03.034032 13067 net.cpp:148] Top shape: 24 16 28 28 (301056)
I0403 14:14:03.034049 13067 net.cpp:156] Memory required for data: 535880736
I0403 14:14:03.034068 13067 layer_factory.hpp:77] Creating layer inception_3a/relu_5x5_reduce
I0403 14:14:03.034087 13067 net.cpp:91] Creating Layer inception_3a/relu_5x5_reduce
I0403 14:14:03.034103 13067 net.cpp:425] inception_3a/relu_5x5_reduce <- inception_3a/5x5_reduce
I0403 14:14:03.034121 13067 net.cpp:386] inception_3a/relu_5x5_reduce -> inception_3a/5x5_reduce (in-place)
I0403 14:14:03.034436 13067 net.cpp:141] Setting up inception_3a/relu_5x5_reduce
I0403 14:14:03.034463 13067 net.cpp:148] Top shape: 24 16 28 28 (301056)
I0403 14:14:03.034479 13067 net.cpp:156] Memory required for data: 537084960
I0403 14:14:03.034495 13067 layer_factory.hpp:77] Creating layer inception_3a/5x5
I0403 14:14:03.034518 13067 net.cpp:91] Creating Layer inception_3a/5x5
I0403 14:14:03.034536 13067 net.cpp:425] inception_3a/5x5 <- inception_3a/5x5_reduce
I0403 14:14:03.034559 13067 net.cpp:399] inception_3a/5x5 -> inception_3a/5x5
I0403 14:14:03.035624 13067 net.cpp:141] Setting up inception_3a/5x5
I0403 14:14:03.035655 13067 net.cpp:148] Top shape: 24 32 28 28 (602112)
I0403 14:14:03.035670 13067 net.cpp:156] Memory required for data: 539493408
I0403 14:14:03.035689 13067 layer_factory.hpp:77] Creating layer inception_3a/relu_5x5
I0403 14:14:03.035712 13067 net.cpp:91] Creating Layer inception_3a/relu_5x5
I0403 14:14:03.035729 13067 net.cpp:425] inception_3a/relu_5x5 <- inception_3a/5x5
I0403 14:14:03.035747 13067 net.cpp:386] inception_3a/relu_5x5 -> inception_3a/5x5 (in-place)
I0403 14:14:03.035926 13067 net.cpp:141] Setting up inception_3a/relu_5x5
I0403 14:14:03.035954 13067 net.cpp:148] Top shape: 24 32 28 28 (602112)
I0403 14:14:03.035970 13067 net.cpp:156] Memory required for data: 541901856
I0403 14:14:03.035985 13067 layer_factory.hpp:77] Creating layer inception_3a/pool
I0403 14:14:03.036005 13067 net.cpp:91] Creating Layer inception_3a/pool
I0403 14:14:03.036020 13067 net.cpp:425] inception_3a/pool <- pool2/3x3_s2_pool2/3x3_s2_0_split_3
I0403 14:14:03.036062 13067 net.cpp:399] inception_3a/pool -> inception_3a/pool
I0403 14:14:03.036123 13067 net.cpp:141] Setting up inception_3a/pool
I0403 14:14:03.036149 13067 net.cpp:148] Top shape: 24 192 28 28 (3612672)
I0403 14:14:03.036164 13067 net.cpp:156] Memory required for data: 556352544
I0403 14:14:03.036178 13067 layer_factory.hpp:77] Creating layer inception_3a/pool_proj
I0403 14:14:03.036201 13067 net.cpp:91] Creating Layer inception_3a/pool_proj
I0403 14:14:03.036219 13067 net.cpp:425] inception_3a/pool_proj <- inception_3a/pool
I0403 14:14:03.036242 13067 net.cpp:399] inception_3a/pool_proj -> inception_3a/pool_proj
I0403 14:14:03.037264 13067 net.cpp:141] Setting up inception_3a/pool_proj
I0403 14:14:03.037294 13067 net.cpp:148] Top shape: 24 32 28 28 (602112)
I0403 14:14:03.037310 13067 net.cpp:156] Memory required for data: 558760992
I0403 14:14:03.037335 13067 layer_factory.hpp:77] Creating layer inception_3a/relu_pool_proj
I0403 14:14:03.037356 13067 net.cpp:91] Creating Layer inception_3a/relu_pool_proj
I0403 14:14:03.037372 13067 net.cpp:425] inception_3a/relu_pool_proj <- inception_3a/pool_proj
I0403 14:14:03.037390 13067 net.cpp:386] inception_3a/relu_pool_proj -> inception_3a/pool_proj (in-place)
I0403 14:14:03.037690 13067 net.cpp:141] Setting up inception_3a/relu_pool_proj
I0403 14:14:03.037720 13067 net.cpp:148] Top shape: 24 32 28 28 (602112)
I0403 14:14:03.037736 13067 net.cpp:156] Memory required for data: 561169440
I0403 14:14:03.037752 13067 layer_factory.hpp:77] Creating layer inception_3a/output
I0403 14:14:03.037770 13067 net.cpp:91] Creating Layer inception_3a/output
I0403 14:14:03.037786 13067 net.cpp:425] inception_3a/output <- inception_3a/1x1
I0403 14:14:03.037802 13067 net.cpp:425] inception_3a/output <- inception_3a/3x3
I0403 14:14:03.037819 13067 net.cpp:425] inception_3a/output <- inception_3a/5x5
I0403 14:14:03.037835 13067 net.cpp:425] inception_3a/output <- inception_3a/pool_proj
I0403 14:14:03.037853 13067 net.cpp:399] inception_3a/output -> inception_3a/output
I0403 14:14:03.037902 13067 net.cpp:141] Setting up inception_3a/output
I0403 14:14:03.037926 13067 net.cpp:148] Top shape: 24 256 28 28 (4816896)
I0403 14:14:03.037941 13067 net.cpp:156] Memory required for data: 580437024
I0403 14:14:03.037956 13067 layer_factory.hpp:77] Creating layer inception_3a/output_inception_3a/output_0_split
I0403 14:14:03.037973 13067 net.cpp:91] Creating Layer inception_3a/output_inception_3a/output_0_split
I0403 14:14:03.037992 13067 net.cpp:425] inception_3a/output_inception_3a/output_0_split <- inception_3a/output
I0403 14:14:03.038010 13067 net.cpp:399] inception_3a/output_inception_3a/output_0_split -> inception_3a/output_inception_3a/output_0_split_0
I0403 14:14:03.038031 13067 net.cpp:399] inception_3a/output_inception_3a/output_0_split -> inception_3a/output_inception_3a/output_0_split_1
I0403 14:14:03.038055 13067 net.cpp:399] inception_3a/output_inception_3a/output_0_split -> inception_3a/output_inception_3a/output_0_split_2
I0403 14:14:03.038079 13067 net.cpp:399] inception_3a/output_inception_3a/output_0_split -> inception_3a/output_inception_3a/output_0_split_3
I0403 14:14:03.038158 13067 net.cpp:141] Setting up inception_3a/output_inception_3a/output_0_split
I0403 14:14:03.038182 13067 net.cpp:148] Top shape: 24 256 28 28 (4816896)
I0403 14:14:03.038199 13067 net.cpp:148] Top shape: 24 256 28 28 (4816896)
I0403 14:14:03.038214 13067 net.cpp:148] Top shape: 24 256 28 28 (4816896)
I0403 14:14:03.038230 13067 net.cpp:148] Top shape: 24 256 28 28 (4816896)
I0403 14:14:03.038244 13067 net.cpp:156] Memory required for data: 657507360
I0403 14:14:03.038261 13067 layer_factory.hpp:77] Creating layer inception_3b/1x1
I0403 14:14:03.038285 13067 net.cpp:91] Creating Layer inception_3b/1x1
I0403 14:14:03.038301 13067 net.cpp:425] inception_3b/1x1 <- inception_3a/output_inception_3a/output_0_split_0
I0403 14:14:03.038323 13067 net.cpp:399] inception_3b/1x1 -> inception_3b/1x1
I0403 14:14:03.039516 13067 net.cpp:141] Setting up inception_3b/1x1
I0403 14:14:03.039561 13067 net.cpp:148] Top shape: 24 128 28 28 (2408448)
I0403 14:14:03.039577 13067 net.cpp:156] Memory required for data: 667141152
I0403 14:14:03.039597 13067 layer_factory.hpp:77] Creating layer inception_3b/relu_1x1
I0403 14:14:03.039623 13067 net.cpp:91] Creating Layer inception_3b/relu_1x1
I0403 14:14:03.039641 13067 net.cpp:425] inception_3b/relu_1x1 <- inception_3b/1x1
I0403 14:14:03.039659 13067 net.cpp:386] inception_3b/relu_1x1 -> inception_3b/1x1 (in-place)
I0403 14:14:03.039841 13067 net.cpp:141] Setting up inception_3b/relu_1x1
I0403 14:14:03.039870 13067 net.cpp:148] Top shape: 24 128 28 28 (2408448)
I0403 14:14:03.039886 13067 net.cpp:156] Memory required for data: 676774944
I0403 14:14:03.039901 13067 layer_factory.hpp:77] Creating layer inception_3b/3x3_reduce
I0403 14:14:03.039924 13067 net.cpp:91] Creating Layer inception_3b/3x3_reduce
I0403 14:14:03.039942 13067 net.cpp:425] inception_3b/3x3_reduce <- inception_3a/output_inception_3a/output_0_split_1
I0403 14:14:03.039963 13067 net.cpp:399] inception_3b/3x3_reduce -> inception_3b/3x3_reduce
I0403 14:14:03.041146 13067 net.cpp:141] Setting up inception_3b/3x3_reduce
I0403 14:14:03.041175 13067 net.cpp:148] Top shape: 24 128 28 28 (2408448)
I0403 14:14:03.041191 13067 net.cpp:156] Memory required for data: 686408736
I0403 14:14:03.041210 13067 layer_factory.hpp:77] Creating layer inception_3b/relu_3x3_reduce
I0403 14:14:03.041231 13067 net.cpp:91] Creating Layer inception_3b/relu_3x3_reduce
I0403 14:14:03.041249 13067 net.cpp:425] inception_3b/relu_3x3_reduce <- inception_3b/3x3_reduce
I0403 14:14:03.041268 13067 net.cpp:386] inception_3b/relu_3x3_reduce -> inception_3b/3x3_reduce (in-place)
I0403 14:14:03.041451 13067 net.cpp:141] Setting up inception_3b/relu_3x3_reduce
I0403 14:14:03.041478 13067 net.cpp:148] Top shape: 24 128 28 28 (2408448)
I0403 14:14:03.041493 13067 net.cpp:156] Memory required for data: 696042528
I0403 14:14:03.041508 13067 layer_factory.hpp:77] Creating layer inception_3b/3x3
I0403 14:14:03.041535 13067 net.cpp:91] Creating Layer inception_3b/3x3
I0403 14:14:03.041553 13067 net.cpp:425] inception_3b/3x3 <- inception_3b/3x3_reduce
I0403 14:14:03.041575 13067 net.cpp:399] inception_3b/3x3 -> inception_3b/3x3
I0403 14:14:03.044637 13067 net.cpp:141] Setting up inception_3b/3x3
I0403 14:14:03.044672 13067 net.cpp:148] Top shape: 24 192 28 28 (3612672)
I0403 14:14:03.044688 13067 net.cpp:156] Memory required for data: 710493216
I0403 14:14:03.044708 13067 layer_factory.hpp:77] Creating layer inception_3b/relu_3x3
I0403 14:14:03.044726 13067 net.cpp:91] Creating Layer inception_3b/relu_3x3
I0403 14:14:03.044742 13067 net.cpp:425] inception_3b/relu_3x3 <- inception_3b/3x3
I0403 14:14:03.044760 13067 net.cpp:386] inception_3b/relu_3x3 -> inception_3b/3x3 (in-place)
I0403 14:14:03.045048 13067 net.cpp:141] Setting up inception_3b/relu_3x3
I0403 14:14:03.045078 13067 net.cpp:148] Top shape: 24 192 28 28 (3612672)
I0403 14:14:03.045094 13067 net.cpp:156] Memory required for data: 724943904
I0403 14:14:03.045110 13067 layer_factory.hpp:77] Creating layer inception_3b/5x5_reduce
I0403 14:14:03.045130 13067 net.cpp:91] Creating Layer inception_3b/5x5_reduce
I0403 14:14:03.045147 13067 net.cpp:425] inception_3b/5x5_reduce <- inception_3a/output_inception_3a/output_0_split_2
I0403 14:14:03.045169 13067 net.cpp:399] inception_3b/5x5_reduce -> inception_3b/5x5_reduce
I0403 14:14:03.046211 13067 net.cpp:141] Setting up inception_3b/5x5_reduce
I0403 14:14:03.046241 13067 net.cpp:148] Top shape: 24 32 28 28 (602112)
I0403 14:14:03.046257 13067 net.cpp:156] Memory required for data: 727352352
I0403 14:14:03.046277 13067 layer_factory.hpp:77] Creating layer inception_3b/relu_5x5_reduce
I0403 14:14:03.046298 13067 net.cpp:91] Creating Layer inception_3b/relu_5x5_reduce
I0403 14:14:03.046315 13067 net.cpp:425] inception_3b/relu_5x5_reduce <- inception_3b/5x5_reduce
I0403 14:14:03.046334 13067 net.cpp:386] inception_3b/relu_5x5_reduce -> inception_3b/5x5_reduce (in-place)
I0403 14:14:03.046522 13067 net.cpp:141] Setting up inception_3b/relu_5x5_reduce
I0403 14:14:03.046563 13067 net.cpp:148] Top shape: 24 32 28 28 (602112)
I0403 14:14:03.046581 13067 net.cpp:156] Memory required for data: 729760800
I0403 14:14:03.046596 13067 layer_factory.hpp:77] Creating layer inception_3b/5x5
I0403 14:14:03.046624 13067 net.cpp:91] Creating Layer inception_3b/5x5
I0403 14:14:03.046643 13067 net.cpp:425] inception_3b/5x5 <- inception_3b/5x5_reduce
I0403 14:14:03.046663 13067 net.cpp:399] inception_3b/5x5 -> inception_3b/5x5
I0403 14:14:03.048718 13067 net.cpp:141] Setting up inception_3b/5x5
I0403 14:14:03.048748 13067 net.cpp:148] Top shape: 24 96 28 28 (1806336)
I0403 14:14:03.048764 13067 net.cpp:156] Memory required for data: 736986144
I0403 14:14:03.048782 13067 layer_factory.hpp:77] Creating layer inception_3b/relu_5x5
I0403 14:14:03.048804 13067 net.cpp:91] Creating Layer inception_3b/relu_5x5
I0403 14:14:03.048820 13067 net.cpp:425] inception_3b/relu_5x5 <- inception_3b/5x5
I0403 14:14:03.048837 13067 net.cpp:386] inception_3b/relu_5x5 -> inception_3b/5x5 (in-place)
I0403 14:14:03.049034 13067 net.cpp:141] Setting up inception_3b/relu_5x5
I0403 14:14:03.049060 13067 net.cpp:148] Top shape: 24 96 28 28 (1806336)
I0403 14:14:03.049075 13067 net.cpp:156] Memory required for data: 744211488
I0403 14:14:03.049090 13067 layer_factory.hpp:77] Creating layer inception_3b/pool
I0403 14:14:03.049108 13067 net.cpp:91] Creating Layer inception_3b/pool
I0403 14:14:03.049123 13067 net.cpp:425] inception_3b/pool <- inception_3a/output_inception_3a/output_0_split_3
I0403 14:14:03.049140 13067 net.cpp:399] inception_3b/pool -> inception_3b/pool
I0403 14:14:03.049197 13067 net.cpp:141] Setting up inception_3b/pool
I0403 14:14:03.049221 13067 net.cpp:148] Top shape: 24 256 28 28 (4816896)
I0403 14:14:03.049235 13067 net.cpp:156] Memory required for data: 763479072
I0403 14:14:03.049249 13067 layer_factory.hpp:77] Creating layer inception_3b/pool_proj
I0403 14:14:03.049288 13067 net.cpp:91] Creating Layer inception_3b/pool_proj
I0403 14:14:03.049305 13067 net.cpp:425] inception_3b/pool_proj <- inception_3b/pool
I0403 14:14:03.049326 13067 net.cpp:399] inception_3b/pool_proj -> inception_3b/pool_proj
I0403 14:14:03.050422 13067 net.cpp:141] Setting up inception_3b/pool_proj
I0403 14:14:03.050451 13067 net.cpp:148] Top shape: 24 64 28 28 (1204224)
I0403 14:14:03.050467 13067 net.cpp:156] Memory required for data: 768295968
I0403 14:14:03.050485 13067 layer_factory.hpp:77] Creating layer inception_3b/relu_pool_proj
I0403 14:14:03.050503 13067 net.cpp:91] Creating Layer inception_3b/relu_pool_proj
I0403 14:14:03.050518 13067 net.cpp:425] inception_3b/relu_pool_proj <- inception_3b/pool_proj
I0403 14:14:03.050536 13067 net.cpp:386] inception_3b/relu_pool_proj -> inception_3b/pool_proj (in-place)
I0403 14:14:03.050931 13067 net.cpp:141] Setting up inception_3b/relu_pool_proj
I0403 14:14:03.050959 13067 net.cpp:148] Top shape: 24 64 28 28 (1204224)
I0403 14:14:03.050976 13067 net.cpp:156] Memory required for data: 773112864
I0403 14:14:03.050990 13067 layer_factory.hpp:77] Creating layer inception_3b/output
I0403 14:14:03.051007 13067 net.cpp:91] Creating Layer inception_3b/output
I0403 14:14:03.051022 13067 net.cpp:425] inception_3b/output <- inception_3b/1x1
I0403 14:14:03.051038 13067 net.cpp:425] inception_3b/output <- inception_3b/3x3
I0403 14:14:03.051053 13067 net.cpp:425] inception_3b/output <- inception_3b/5x5
I0403 14:14:03.051069 13067 net.cpp:425] inception_3b/output <- inception_3b/pool_proj
I0403 14:14:03.051084 13067 net.cpp:399] inception_3b/output -> inception_3b/output
I0403 14:14:03.051128 13067 net.cpp:141] Setting up inception_3b/output
I0403 14:14:03.051151 13067 net.cpp:148] Top shape: 24 480 28 28 (9031680)
I0403 14:14:03.051164 13067 net.cpp:156] Memory required for data: 809239584
I0403 14:14:03.051178 13067 layer_factory.hpp:77] Creating layer pool3/3x3_s2
I0403 14:14:03.051198 13067 net.cpp:91] Creating Layer pool3/3x3_s2
I0403 14:14:03.051213 13067 net.cpp:425] pool3/3x3_s2 <- inception_3b/output
I0403 14:14:03.051229 13067 net.cpp:399] pool3/3x3_s2 -> pool3/3x3_s2
I0403 14:14:03.051306 13067 net.cpp:141] Setting up pool3/3x3_s2
I0403 14:14:03.051329 13067 net.cpp:148] Top shape: 24 480 14 14 (2257920)
I0403 14:14:03.051343 13067 net.cpp:156] Memory required for data: 818271264
I0403 14:14:03.051357 13067 layer_factory.hpp:77] Creating layer pool3/3x3_s2_pool3/3x3_s2_0_split
I0403 14:14:03.051373 13067 net.cpp:91] Creating Layer pool3/3x3_s2_pool3/3x3_s2_0_split
I0403 14:14:03.051388 13067 net.cpp:425] pool3/3x3_s2_pool3/3x3_s2_0_split <- pool3/3x3_s2
I0403 14:14:03.051406 13067 net.cpp:399] pool3/3x3_s2_pool3/3x3_s2_0_split -> pool3/3x3_s2_pool3/3x3_s2_0_split_0
I0403 14:14:03.051426 13067 net.cpp:399] pool3/3x3_s2_pool3/3x3_s2_0_split -> pool3/3x3_s2_pool3/3x3_s2_0_split_1
I0403 14:14:03.051445 13067 net.cpp:399] pool3/3x3_s2_pool3/3x3_s2_0_split -> pool3/3x3_s2_pool3/3x3_s2_0_split_2
I0403 14:14:03.051465 13067 net.cpp:399] pool3/3x3_s2_pool3/3x3_s2_0_split -> pool3/3x3_s2_pool3/3x3_s2_0_split_3
I0403 14:14:03.051539 13067 net.cpp:141] Setting up pool3/3x3_s2_pool3/3x3_s2_0_split
I0403 14:14:03.051564 13067 net.cpp:148] Top shape: 24 480 14 14 (2257920)
I0403 14:14:03.051581 13067 net.cpp:148] Top shape: 24 480 14 14 (2257920)
I0403 14:14:03.051596 13067 net.cpp:148] Top shape: 24 480 14 14 (2257920)
I0403 14:14:03.051616 13067 net.cpp:148] Top shape: 24 480 14 14 (2257920)
I0403 14:14:03.051630 13067 net.cpp:156] Memory required for data: 854397984
I0403 14:14:03.051643 13067 layer_factory.hpp:77] Creating layer inception_4a/1x1
I0403 14:14:03.051667 13067 net.cpp:91] Creating Layer inception_4a/1x1
I0403 14:14:03.051683 13067 net.cpp:425] inception_4a/1x1 <- pool3/3x3_s2_pool3/3x3_s2_0_split_0
I0403 14:14:03.051702 13067 net.cpp:399] inception_4a/1x1 -> inception_4a/1x1
I0403 14:14:03.053267 13067 net.cpp:141] Setting up inception_4a/1x1
I0403 14:14:03.053294 13067 net.cpp:148] Top shape: 24 192 14 14 (903168)
I0403 14:14:03.053309 13067 net.cpp:156] Memory required for data: 858010656
I0403 14:14:03.053328 13067 layer_factory.hpp:77] Creating layer inception_4a/relu_1x1
I0403 14:14:03.053344 13067 net.cpp:91] Creating Layer inception_4a/relu_1x1
I0403 14:14:03.053390 13067 net.cpp:425] inception_4a/relu_1x1 <- inception_4a/1x1
I0403 14:14:03.053406 13067 net.cpp:386] inception_4a/relu_1x1 -> inception_4a/1x1 (in-place)
I0403 14:14:03.053585 13067 net.cpp:141] Setting up inception_4a/relu_1x1
I0403 14:14:03.053614 13067 net.cpp:148] Top shape: 24 192 14 14 (903168)
I0403 14:14:03.053630 13067 net.cpp:156] Memory required for data: 861623328
I0403 14:14:03.053658 13067 layer_factory.hpp:77] Creating layer inception_4a/3x3_reduce
I0403 14:14:03.053678 13067 net.cpp:91] Creating Layer inception_4a/3x3_reduce
I0403 14:14:03.053695 13067 net.cpp:425] inception_4a/3x3_reduce <- pool3/3x3_s2_pool3/3x3_s2_0_split_1
I0403 14:14:03.053716 13067 net.cpp:399] inception_4a/3x3_reduce -> inception_4a/3x3_reduce
I0403 14:14:03.054989 13067 net.cpp:141] Setting up inception_4a/3x3_reduce
I0403 14:14:03.055017 13067 net.cpp:148] Top shape: 24 96 14 14 (451584)
I0403 14:14:03.055032 13067 net.cpp:156] Memory required for data: 863429664
I0403 14:14:03.055057 13067 layer_factory.hpp:77] Creating layer inception_4a/relu_3x3_reduce
I0403 14:14:03.055075 13067 net.cpp:91] Creating Layer inception_4a/relu_3x3_reduce
I0403 14:14:03.055091 13067 net.cpp:425] inception_4a/relu_3x3_reduce <- inception_4a/3x3_reduce
I0403 14:14:03.055110 13067 net.cpp:386] inception_4a/relu_3x3_reduce -> inception_4a/3x3_reduce (in-place)
I0403 14:14:03.055284 13067 net.cpp:141] Setting up inception_4a/relu_3x3_reduce
I0403 14:14:03.055310 13067 net.cpp:148] Top shape: 24 96 14 14 (451584)
I0403 14:14:03.055323 13067 net.cpp:156] Memory required for data: 865236000
I0403 14:14:03.055337 13067 layer_factory.hpp:77] Creating layer inception_4a/3x3
I0403 14:14:03.055358 13067 net.cpp:91] Creating Layer inception_4a/3x3
I0403 14:14:03.055376 13067 net.cpp:425] inception_4a/3x3 <- inception_4a/3x3_reduce
I0403 14:14:03.055395 13067 net.cpp:399] inception_4a/3x3 -> inception_4a/3x3
I0403 14:14:03.058084 13067 net.cpp:141] Setting up inception_4a/3x3
I0403 14:14:03.058112 13067 net.cpp:148] Top shape: 24 208 14 14 (978432)
I0403 14:14:03.058128 13067 net.cpp:156] Memory required for data: 869149728
I0403 14:14:03.058146 13067 layer_factory.hpp:77] Creating layer inception_4a/relu_3x3
I0403 14:14:03.058166 13067 net.cpp:91] Creating Layer inception_4a/relu_3x3
I0403 14:14:03.058182 13067 net.cpp:425] inception_4a/relu_3x3 <- inception_4a/3x3
I0403 14:14:03.058198 13067 net.cpp:386] inception_4a/relu_3x3 -> inception_4a/3x3 (in-place)
I0403 14:14:03.058475 13067 net.cpp:141] Setting up inception_4a/relu_3x3
I0403 14:14:03.058501 13067 net.cpp:148] Top shape: 24 208 14 14 (978432)
I0403 14:14:03.058516 13067 net.cpp:156] Memory required for data: 873063456
I0403 14:14:03.058529 13067 layer_factory.hpp:77] Creating layer inception_4a/5x5_reduce
I0403 14:14:03.058552 13067 net.cpp:91] Creating Layer inception_4a/5x5_reduce
I0403 14:14:03.058568 13067 net.cpp:425] inception_4a/5x5_reduce <- pool3/3x3_s2_pool3/3x3_s2_0_split_2
I0403 14:14:03.058589 13067 net.cpp:399] inception_4a/5x5_reduce -> inception_4a/5x5_reduce
I0403 14:14:03.059597 13067 net.cpp:141] Setting up inception_4a/5x5_reduce
I0403 14:14:03.059628 13067 net.cpp:148] Top shape: 24 16 14 14 (75264)
I0403 14:14:03.059643 13067 net.cpp:156] Memory required for data: 873364512
I0403 14:14:03.059661 13067 layer_factory.hpp:77] Creating layer inception_4a/relu_5x5_reduce
I0403 14:14:03.059680 13067 net.cpp:91] Creating Layer inception_4a/relu_5x5_reduce
I0403 14:14:03.059697 13067 net.cpp:425] inception_4a/relu_5x5_reduce <- inception_4a/5x5_reduce
I0403 14:14:03.059713 13067 net.cpp:386] inception_4a/relu_5x5_reduce -> inception_4a/5x5_reduce (in-place)
I0403 14:14:03.059887 13067 net.cpp:141] Setting up inception_4a/relu_5x5_reduce
I0403 14:14:03.059914 13067 net.cpp:148] Top shape: 24 16 14 14 (75264)
I0403 14:14:03.059929 13067 net.cpp:156] Memory required for data: 873665568
I0403 14:14:03.059943 13067 layer_factory.hpp:77] Creating layer inception_4a/5x5
I0403 14:14:03.059968 13067 net.cpp:91] Creating Layer inception_4a/5x5
I0403 14:14:03.059985 13067 net.cpp:425] inception_4a/5x5 <- inception_4a/5x5_reduce
I0403 14:14:03.060003 13067 net.cpp:399] inception_4a/5x5 -> inception_4a/5x5
I0403 14:14:03.061069 13067 net.cpp:141] Setting up inception_4a/5x5
I0403 14:14:03.061097 13067 net.cpp:148] Top shape: 24 48 14 14 (225792)
I0403 14:14:03.061113 13067 net.cpp:156] Memory required for data: 874568736
I0403 14:14:03.061131 13067 layer_factory.hpp:77] Creating layer inception_4a/relu_5x5
I0403 14:14:03.061149 13067 net.cpp:91] Creating Layer inception_4a/relu_5x5
I0403 14:14:03.061164 13067 net.cpp:425] inception_4a/relu_5x5 <- inception_4a/5x5
I0403 14:14:03.061182 13067 net.cpp:386] inception_4a/relu_5x5 -> inception_4a/5x5 (in-place)
I0403 14:14:03.061357 13067 net.cpp:141] Setting up inception_4a/relu_5x5
I0403 14:14:03.061383 13067 net.cpp:148] Top shape: 24 48 14 14 (225792)
I0403 14:14:03.061396 13067 net.cpp:156] Memory required for data: 875471904
I0403 14:14:03.061410 13067 layer_factory.hpp:77] Creating layer inception_4a/pool
I0403 14:14:03.061427 13067 net.cpp:91] Creating Layer inception_4a/pool
I0403 14:14:03.061446 13067 net.cpp:425] inception_4a/pool <- pool3/3x3_s2_pool3/3x3_s2_0_split_3
I0403 14:14:03.061463 13067 net.cpp:399] inception_4a/pool -> inception_4a/pool
I0403 14:14:03.061524 13067 net.cpp:141] Setting up inception_4a/pool
I0403 14:14:03.061547 13067 net.cpp:148] Top shape: 24 480 14 14 (2257920)
I0403 14:14:03.061561 13067 net.cpp:156] Memory required for data: 884503584
I0403 14:14:03.061575 13067 layer_factory.hpp:77] Creating layer inception_4a/pool_proj
I0403 14:14:03.061596 13067 net.cpp:91] Creating Layer inception_4a/pool_proj
I0403 14:14:03.061619 13067 net.cpp:425] inception_4a/pool_proj <- inception_4a/pool
I0403 14:14:03.061640 13067 net.cpp:399] inception_4a/pool_proj -> inception_4a/pool_proj
I0403 14:14:03.062795 13067 net.cpp:141] Setting up inception_4a/pool_proj
I0403 14:14:03.062824 13067 net.cpp:148] Top shape: 24 64 14 14 (301056)
I0403 14:14:03.062855 13067 net.cpp:156] Memory required for data: 885707808
I0403 14:14:03.062873 13067 layer_factory.hpp:77] Creating layer inception_4a/relu_pool_proj
I0403 14:14:03.062891 13067 net.cpp:91] Creating Layer inception_4a/relu_pool_proj
I0403 14:14:03.062906 13067 net.cpp:425] inception_4a/relu_pool_proj <- inception_4a/pool_proj
I0403 14:14:03.062925 13067 net.cpp:386] inception_4a/relu_pool_proj -> inception_4a/pool_proj (in-place)
I0403 14:14:03.063205 13067 net.cpp:141] Setting up inception_4a/relu_pool_proj
I0403 14:14:03.063231 13067 net.cpp:148] Top shape: 24 64 14 14 (301056)
I0403 14:14:03.063246 13067 net.cpp:156] Memory required for data: 886912032
I0403 14:14:03.063262 13067 layer_factory.hpp:77] Creating layer inception_4a/output
I0403 14:14:03.063287 13067 net.cpp:91] Creating Layer inception_4a/output
I0403 14:14:03.063302 13067 net.cpp:425] inception_4a/output <- inception_4a/1x1
I0403 14:14:03.063318 13067 net.cpp:425] inception_4a/output <- inception_4a/3x3
I0403 14:14:03.063333 13067 net.cpp:425] inception_4a/output <- inception_4a/5x5
I0403 14:14:03.063349 13067 net.cpp:425] inception_4a/output <- inception_4a/pool_proj
I0403 14:14:03.063367 13067 net.cpp:399] inception_4a/output -> inception_4a/output
I0403 14:14:03.063411 13067 net.cpp:141] Setting up inception_4a/output
I0403 14:14:03.063438 13067 net.cpp:148] Top shape: 24 512 14 14 (2408448)
I0403 14:14:03.063453 13067 net.cpp:156] Memory required for data: 896545824
I0403 14:14:03.063467 13067 layer_factory.hpp:77] Creating layer inception_4a/output_inception_4a/output_0_split
I0403 14:14:03.063484 13067 net.cpp:91] Creating Layer inception_4a/output_inception_4a/output_0_split
I0403 14:14:03.063499 13067 net.cpp:425] inception_4a/output_inception_4a/output_0_split <- inception_4a/output
I0403 14:14:03.063515 13067 net.cpp:399] inception_4a/output_inception_4a/output_0_split -> inception_4a/output_inception_4a/output_0_split_0
I0403 14:14:03.063536 13067 net.cpp:399] inception_4a/output_inception_4a/output_0_split -> inception_4a/output_inception_4a/output_0_split_1
I0403 14:14:03.063557 13067 net.cpp:399] inception_4a/output_inception_4a/output_0_split -> inception_4a/output_inception_4a/output_0_split_2
I0403 14:14:03.063586 13067 net.cpp:399] inception_4a/output_inception_4a/output_0_split -> inception_4a/output_inception_4a/output_0_split_3
I0403 14:14:03.063624 13067 net.cpp:399] inception_4a/output_inception_4a/output_0_split -> inception_4a/output_inception_4a/output_0_split_4
I0403 14:14:03.063722 13067 net.cpp:141] Setting up inception_4a/output_inception_4a/output_0_split
I0403 14:14:03.063745 13067 net.cpp:148] Top shape: 24 512 14 14 (2408448)
I0403 14:14:03.063762 13067 net.cpp:148] Top shape: 24 512 14 14 (2408448)
I0403 14:14:03.063777 13067 net.cpp:148] Top shape: 24 512 14 14 (2408448)
I0403 14:14:03.063792 13067 net.cpp:148] Top shape: 24 512 14 14 (2408448)
I0403 14:14:03.063807 13067 net.cpp:148] Top shape: 24 512 14 14 (2408448)
I0403 14:14:03.063822 13067 net.cpp:156] Memory required for data: 944714784
I0403 14:14:03.063835 13067 layer_factory.hpp:77] Creating layer loss1/ave_pool
I0403 14:14:03.063854 13067 net.cpp:91] Creating Layer loss1/ave_pool
I0403 14:14:03.063871 13067 net.cpp:425] loss1/ave_pool <- inception_4a/output_inception_4a/output_0_split_0
I0403 14:14:03.063889 13067 net.cpp:399] loss1/ave_pool -> loss1/ave_pool
I0403 14:14:03.064095 13067 net.cpp:141] Setting up loss1/ave_pool
I0403 14:14:03.064121 13067 net.cpp:148] Top shape: 24 512 4 4 (196608)
I0403 14:14:03.064136 13067 net.cpp:156] Memory required for data: 945501216
I0403 14:14:03.064151 13067 layer_factory.hpp:77] Creating layer loss1/conv
I0403 14:14:03.064172 13067 net.cpp:91] Creating Layer loss1/conv
I0403 14:14:03.064189 13067 net.cpp:425] loss1/conv <- loss1/ave_pool
I0403 14:14:03.064211 13067 net.cpp:399] loss1/conv -> loss1/conv
I0403 14:14:03.065652 13067 net.cpp:141] Setting up loss1/conv
I0403 14:14:03.065681 13067 net.cpp:148] Top shape: 24 128 4 4 (49152)
I0403 14:14:03.065697 13067 net.cpp:156] Memory required for data: 945697824
I0403 14:14:03.065731 13067 layer_factory.hpp:77] Creating layer loss1/relu_conv
I0403 14:14:03.065752 13067 net.cpp:91] Creating Layer loss1/relu_conv
I0403 14:14:03.065769 13067 net.cpp:425] loss1/relu_conv <- loss1/conv
I0403 14:14:03.065788 13067 net.cpp:386] loss1/relu_conv -> loss1/conv (in-place)
I0403 14:14:03.066074 13067 net.cpp:141] Setting up loss1/relu_conv
I0403 14:14:03.066102 13067 net.cpp:148] Top shape: 24 128 4 4 (49152)
I0403 14:14:03.066117 13067 net.cpp:156] Memory required for data: 945894432
I0403 14:14:03.066131 13067 layer_factory.hpp:77] Creating layer loss1/fc
I0403 14:14:03.066156 13067 net.cpp:91] Creating Layer loss1/fc
I0403 14:14:03.066174 13067 net.cpp:425] loss1/fc <- loss1/conv
I0403 14:14:03.066193 13067 net.cpp:399] loss1/fc -> loss1/fc
I0403 14:14:03.084938 13067 net.cpp:141] Setting up loss1/fc
I0403 14:14:03.084991 13067 net.cpp:148] Top shape: 24 1024 (24576)
I0403 14:14:03.085007 13067 net.cpp:156] Memory required for data: 945992736
I0403 14:14:03.085027 13067 layer_factory.hpp:77] Creating layer loss1/relu_fc
I0403 14:14:03.085047 13067 net.cpp:91] Creating Layer loss1/relu_fc
I0403 14:14:03.085064 13067 net.cpp:425] loss1/relu_fc <- loss1/fc
I0403 14:14:03.085086 13067 net.cpp:386] loss1/relu_fc -> loss1/fc (in-place)
I0403 14:14:03.085300 13067 net.cpp:141] Setting up loss1/relu_fc
I0403 14:14:03.085326 13067 net.cpp:148] Top shape: 24 1024 (24576)
I0403 14:14:03.085340 13067 net.cpp:156] Memory required for data: 946091040
I0403 14:14:03.085356 13067 layer_factory.hpp:77] Creating layer loss1/drop_fc
I0403 14:14:03.085386 13067 net.cpp:91] Creating Layer loss1/drop_fc
I0403 14:14:03.085403 13067 net.cpp:425] loss1/drop_fc <- loss1/fc
I0403 14:14:03.085422 13067 net.cpp:386] loss1/drop_fc -> loss1/fc (in-place)
I0403 14:14:03.085474 13067 net.cpp:141] Setting up loss1/drop_fc
I0403 14:14:03.085501 13067 net.cpp:148] Top shape: 24 1024 (24576)
I0403 14:14:03.085516 13067 net.cpp:156] Memory required for data: 946189344
I0403 14:14:03.085531 13067 layer_factory.hpp:77] Creating layer loss1/classifier_plantvillage
I0403 14:14:03.085551 13067 net.cpp:91] Creating Layer loss1/classifier_plantvillage
I0403 14:14:03.085566 13067 net.cpp:425] loss1/classifier_plantvillage <- loss1/fc
I0403 14:14:03.085587 13067 net.cpp:399] loss1/classifier_plantvillage -> loss1/classifier_plantvillage
I0403 14:14:03.086547 13067 net.cpp:141] Setting up loss1/classifier_plantvillage
I0403 14:14:03.086576 13067 net.cpp:148] Top shape: 24 38 (912)
I0403 14:14:03.086591 13067 net.cpp:156] Memory required for data: 946192992
I0403 14:14:03.086614 13067 layer_factory.hpp:77] Creating layer loss1/classifier_plantvillage_loss1/classifier_plantvillage_0_split
I0403 14:14:03.086637 13067 net.cpp:91] Creating Layer loss1/classifier_plantvillage_loss1/classifier_plantvillage_0_split
I0403 14:14:03.086653 13067 net.cpp:425] loss1/classifier_plantvillage_loss1/classifier_plantvillage_0_split <- loss1/classifier_plantvillage
I0403 14:14:03.086671 13067 net.cpp:399] loss1/classifier_plantvillage_loss1/classifier_plantvillage_0_split -> loss1/classifier_plantvillage_loss1/classifier_plantvillage_0_split_0
I0403 14:14:03.086691 13067 net.cpp:399] loss1/classifier_plantvillage_loss1/classifier_plantvillage_0_split -> loss1/classifier_plantvillage_loss1/classifier_plantvillage_0_split_1
I0403 14:14:03.086711 13067 net.cpp:399] loss1/classifier_plantvillage_loss1/classifier_plantvillage_0_split -> loss1/classifier_plantvillage_loss1/classifier_plantvillage_0_split_2
I0403 14:14:03.086778 13067 net.cpp:141] Setting up loss1/classifier_plantvillage_loss1/classifier_plantvillage_0_split
I0403 14:14:03.086804 13067 net.cpp:148] Top shape: 24 38 (912)
I0403 14:14:03.086822 13067 net.cpp:148] Top shape: 24 38 (912)
I0403 14:14:03.086838 13067 net.cpp:148] Top shape: 24 38 (912)
I0403 14:14:03.086851 13067 net.cpp:156] Memory required for data: 946203936
I0403 14:14:03.086865 13067 layer_factory.hpp:77] Creating layer inception_4b/1x1
I0403 14:14:03.086886 13067 net.cpp:91] Creating Layer inception_4b/1x1
I0403 14:14:03.086927 13067 net.cpp:425] inception_4b/1x1 <- inception_4a/output_inception_4a/output_0_split_1
I0403 14:14:03.086948 13067 net.cpp:399] inception_4b/1x1 -> inception_4b/1x1
I0403 14:14:03.088656 13067 net.cpp:141] Setting up inception_4b/1x1
I0403 14:14:03.088686 13067 net.cpp:148] Top shape: 24 160 14 14 (752640)
I0403 14:14:03.088702 13067 net.cpp:156] Memory required for data: 949214496
I0403 14:14:03.088721 13067 layer_factory.hpp:77] Creating layer inception_4b/relu_1x1
I0403 14:14:03.088740 13067 net.cpp:91] Creating Layer inception_4b/relu_1x1
I0403 14:14:03.088757 13067 net.cpp:425] inception_4b/relu_1x1 <- inception_4b/1x1
I0403 14:14:03.088774 13067 net.cpp:386] inception_4b/relu_1x1 -> inception_4b/1x1 (in-place)
I0403 14:14:03.088959 13067 net.cpp:141] Setting up inception_4b/relu_1x1
I0403 14:14:03.088987 13067 net.cpp:148] Top shape: 24 160 14 14 (752640)
I0403 14:14:03.089004 13067 net.cpp:156] Memory required for data: 952225056
I0403 14:14:03.089017 13067 layer_factory.hpp:77] Creating layer inception_4b/3x3_reduce
I0403 14:14:03.089040 13067 net.cpp:91] Creating Layer inception_4b/3x3_reduce
I0403 14:14:03.089057 13067 net.cpp:425] inception_4b/3x3_reduce <- inception_4a/output_inception_4a/output_0_split_2
I0403 14:14:03.089076 13067 net.cpp:399] inception_4b/3x3_reduce -> inception_4b/3x3_reduce
I0403 14:14:03.090466 13067 net.cpp:141] Setting up inception_4b/3x3_reduce
I0403 14:14:03.090497 13067 net.cpp:148] Top shape: 24 112 14 14 (526848)
I0403 14:14:03.090514 13067 net.cpp:156] Memory required for data: 954332448
I0403 14:14:03.090533 13067 layer_factory.hpp:77] Creating layer inception_4b/relu_3x3_reduce
I0403 14:14:03.090551 13067 net.cpp:91] Creating Layer inception_4b/relu_3x3_reduce
I0403 14:14:03.090566 13067 net.cpp:425] inception_4b/relu_3x3_reduce <- inception_4b/3x3_reduce
I0403 14:14:03.090586 13067 net.cpp:386] inception_4b/relu_3x3_reduce -> inception_4b/3x3_reduce (in-place)
I0403 14:14:03.090878 13067 net.cpp:141] Setting up inception_4b/relu_3x3_reduce
I0403 14:14:03.090908 13067 net.cpp:148] Top shape: 24 112 14 14 (526848)
I0403 14:14:03.090924 13067 net.cpp:156] Memory required for data: 956439840
I0403 14:14:03.090937 13067 layer_factory.hpp:77] Creating layer inception_4b/3x3
I0403 14:14:03.090960 13067 net.cpp:91] Creating Layer inception_4b/3x3
I0403 14:14:03.090977 13067 net.cpp:425] inception_4b/3x3 <- inception_4b/3x3_reduce
I0403 14:14:03.090996 13067 net.cpp:399] inception_4b/3x3 -> inception_4b/3x3
I0403 14:14:03.094077 13067 net.cpp:141] Setting up inception_4b/3x3
I0403 14:14:03.094107 13067 net.cpp:148] Top shape: 24 224 14 14 (1053696)
I0403 14:14:03.094123 13067 net.cpp:156] Memory required for data: 960654624
I0403 14:14:03.094141 13067 layer_factory.hpp:77] Creating layer inception_4b/relu_3x3
I0403 14:14:03.094162 13067 net.cpp:91] Creating Layer inception_4b/relu_3x3
I0403 14:14:03.094179 13067 net.cpp:425] inception_4b/relu_3x3 <- inception_4b/3x3
I0403 14:14:03.094197 13067 net.cpp:386] inception_4b/relu_3x3 -> inception_4b/3x3 (in-place)
I0403 14:14:03.094382 13067 net.cpp:141] Setting up inception_4b/relu_3x3
I0403 14:14:03.094408 13067 net.cpp:148] Top shape: 24 224 14 14 (1053696)
I0403 14:14:03.094422 13067 net.cpp:156] Memory required for data: 964869408
I0403 14:14:03.094436 13067 layer_factory.hpp:77] Creating layer inception_4b/5x5_reduce
I0403 14:14:03.094458 13067 net.cpp:91] Creating Layer inception_4b/5x5_reduce
I0403 14:14:03.094476 13067 net.cpp:425] inception_4b/5x5_reduce <- inception_4a/output_inception_4a/output_0_split_3
I0403 14:14:03.094499 13067 net.cpp:399] inception_4b/5x5_reduce -> inception_4b/5x5_reduce
I0403 14:14:03.095644 13067 net.cpp:141] Setting up inception_4b/5x5_reduce
I0403 14:14:03.095674 13067 net.cpp:148] Top shape: 24 24 14 14 (112896)
I0403 14:14:03.095690 13067 net.cpp:156] Memory required for data: 965320992
I0403 14:14:03.095707 13067 layer_factory.hpp:77] Creating layer inception_4b/relu_5x5_reduce
I0403 14:14:03.095727 13067 net.cpp:91] Creating Layer inception_4b/relu_5x5_reduce
I0403 14:14:03.095759 13067 net.cpp:425] inception_4b/relu_5x5_reduce <- inception_4b/5x5_reduce
I0403 14:14:03.095778 13067 net.cpp:386] inception_4b/relu_5x5_reduce -> inception_4b/5x5_reduce (in-place)
I0403 14:14:03.095966 13067 net.cpp:141] Setting up inception_4b/relu_5x5_reduce
I0403 14:14:03.095993 13067 net.cpp:148] Top shape: 24 24 14 14 (112896)
I0403 14:14:03.096006 13067 net.cpp:156] Memory required for data: 965772576
I0403 14:14:03.096021 13067 layer_factory.hpp:77] Creating layer inception_4b/5x5
I0403 14:14:03.096045 13067 net.cpp:91] Creating Layer inception_4b/5x5
I0403 14:14:03.096063 13067 net.cpp:425] inception_4b/5x5 <- inception_4b/5x5_reduce
I0403 14:14:03.096084 13067 net.cpp:399] inception_4b/5x5 -> inception_4b/5x5
I0403 14:14:03.097354 13067 net.cpp:141] Setting up inception_4b/5x5
I0403 14:14:03.097383 13067 net.cpp:148] Top shape: 24 64 14 14 (301056)
I0403 14:14:03.097398 13067 net.cpp:156] Memory required for data: 966976800
I0403 14:14:03.097417 13067 layer_factory.hpp:77] Creating layer inception_4b/relu_5x5
I0403 14:14:03.097439 13067 net.cpp:91] Creating Layer inception_4b/relu_5x5
I0403 14:14:03.097455 13067 net.cpp:425] inception_4b/relu_5x5 <- inception_4b/5x5
I0403 14:14:03.097472 13067 net.cpp:386] inception_4b/relu_5x5 -> inception_4b/5x5 (in-place)
I0403 14:14:03.097772 13067 net.cpp:141] Setting up inception_4b/relu_5x5
I0403 14:14:03.097800 13067 net.cpp:148] Top shape: 24 64 14 14 (301056)
I0403 14:14:03.097813 13067 net.cpp:156] Memory required for data: 968181024
I0403 14:14:03.097828 13067 layer_factory.hpp:77] Creating layer inception_4b/pool
I0403 14:14:03.097849 13067 net.cpp:91] Creating Layer inception_4b/pool
I0403 14:14:03.097867 13067 net.cpp:425] inception_4b/pool <- inception_4a/output_inception_4a/output_0_split_4
I0403 14:14:03.097884 13067 net.cpp:399] inception_4b/pool -> inception_4b/pool
I0403 14:14:03.097954 13067 net.cpp:141] Setting up inception_4b/pool
I0403 14:14:03.097977 13067 net.cpp:148] Top shape: 24 512 14 14 (2408448)
I0403 14:14:03.097992 13067 net.cpp:156] Memory required for data: 977814816
I0403 14:14:03.098006 13067 layer_factory.hpp:77] Creating layer inception_4b/pool_proj
I0403 14:14:03.098028 13067 net.cpp:91] Creating Layer inception_4b/pool_proj
I0403 14:14:03.098045 13067 net.cpp:425] inception_4b/pool_proj <- inception_4b/pool
I0403 14:14:03.098067 13067 net.cpp:399] inception_4b/pool_proj -> inception_4b/pool_proj
I0403 14:14:03.099313 13067 net.cpp:141] Setting up inception_4b/pool_proj
I0403 14:14:03.099345 13067 net.cpp:148] Top shape: 24 64 14 14 (301056)
I0403 14:14:03.099361 13067 net.cpp:156] Memory required for data: 979019040
I0403 14:14:03.099380 13067 layer_factory.hpp:77] Creating layer inception_4b/relu_pool_proj
I0403 14:14:03.099398 13067 net.cpp:91] Creating Layer inception_4b/relu_pool_proj
I0403 14:14:03.099414 13067 net.cpp:425] inception_4b/relu_pool_proj <- inception_4b/pool_proj
I0403 14:14:03.099431 13067 net.cpp:386] inception_4b/relu_pool_proj -> inception_4b/pool_proj (in-place)
I0403 14:14:03.099629 13067 net.cpp:141] Setting up inception_4b/relu_pool_proj
I0403 14:14:03.099656 13067 net.cpp:148] Top shape: 24 64 14 14 (301056)
I0403 14:14:03.099674 13067 net.cpp:156] Memory required for data: 980223264
I0403 14:14:03.099689 13067 layer_factory.hpp:77] Creating layer inception_4b/output
I0403 14:14:03.099706 13067 net.cpp:91] Creating Layer inception_4b/output
I0403 14:14:03.099721 13067 net.cpp:425] inception_4b/output <- inception_4b/1x1
I0403 14:14:03.099738 13067 net.cpp:425] inception_4b/output <- inception_4b/3x3
I0403 14:14:03.099753 13067 net.cpp:425] inception_4b/output <- inception_4b/5x5
I0403 14:14:03.099769 13067 net.cpp:425] inception_4b/output <- inception_4b/pool_proj
I0403 14:14:03.099788 13067 net.cpp:399] inception_4b/output -> inception_4b/output
I0403 14:14:03.099835 13067 net.cpp:141] Setting up inception_4b/output
I0403 14:14:03.099859 13067 net.cpp:148] Top shape: 24 512 14 14 (2408448)
I0403 14:14:03.099874 13067 net.cpp:156] Memory required for data: 989857056
I0403 14:14:03.099906 13067 layer_factory.hpp:77] Creating layer inception_4b/output_inception_4b/output_0_split
I0403 14:14:03.099927 13067 net.cpp:91] Creating Layer inception_4b/output_inception_4b/output_0_split
I0403 14:14:03.099943 13067 net.cpp:425] inception_4b/output_inception_4b/output_0_split <- inception_4b/output
I0403 14:14:03.099962 13067 net.cpp:399] inception_4b/output_inception_4b/output_0_split -> inception_4b/output_inception_4b/output_0_split_0
I0403 14:14:03.099982 13067 net.cpp:399] inception_4b/output_inception_4b/output_0_split -> inception_4b/output_inception_4b/output_0_split_1
I0403 14:14:03.100006 13067 net.cpp:399] inception_4b/output_inception_4b/output_0_split -> inception_4b/output_inception_4b/output_0_split_2
I0403 14:14:03.100026 13067 net.cpp:399] inception_4b/output_inception_4b/output_0_split -> inception_4b/output_inception_4b/output_0_split_3
I0403 14:14:03.100112 13067 net.cpp:141] Setting up inception_4b/output_inception_4b/output_0_split
I0403 14:14:03.100136 13067 net.cpp:148] Top shape: 24 512 14 14 (2408448)
I0403 14:14:03.100152 13067 net.cpp:148] Top shape: 24 512 14 14 (2408448)
I0403 14:14:03.100167 13067 net.cpp:148] Top shape: 24 512 14 14 (2408448)
I0403 14:14:03.100183 13067 net.cpp:148] Top shape: 24 512 14 14 (2408448)
I0403 14:14:03.100196 13067 net.cpp:156] Memory required for data: 1028392224
I0403 14:14:03.100211 13067 layer_factory.hpp:77] Creating layer inception_4c/1x1
I0403 14:14:03.100232 13067 net.cpp:91] Creating Layer inception_4c/1x1
I0403 14:14:03.100250 13067 net.cpp:425] inception_4c/1x1 <- inception_4b/output_inception_4b/output_0_split_0
I0403 14:14:03.100272 13067 net.cpp:399] inception_4c/1x1 -> inception_4c/1x1
I0403 14:14:03.101760 13067 net.cpp:141] Setting up inception_4c/1x1
I0403 14:14:03.101793 13067 net.cpp:148] Top shape: 24 128 14 14 (602112)
I0403 14:14:03.101809 13067 net.cpp:156] Memory required for data: 1030800672
I0403 14:14:03.101827 13067 layer_factory.hpp:77] Creating layer inception_4c/relu_1x1
I0403 14:14:03.101845 13067 net.cpp:91] Creating Layer inception_4c/relu_1x1
I0403 14:14:03.101861 13067 net.cpp:425] inception_4c/relu_1x1 <- inception_4c/1x1
I0403 14:14:03.101881 13067 net.cpp:386] inception_4c/relu_1x1 -> inception_4c/1x1 (in-place)
I0403 14:14:03.102066 13067 net.cpp:141] Setting up inception_4c/relu_1x1
I0403 14:14:03.102092 13067 net.cpp:148] Top shape: 24 128 14 14 (602112)
I0403 14:14:03.102105 13067 net.cpp:156] Memory required for data: 1033209120
I0403 14:14:03.102120 13067 layer_factory.hpp:77] Creating layer inception_4c/3x3_reduce
I0403 14:14:03.102143 13067 net.cpp:91] Creating Layer inception_4c/3x3_reduce
I0403 14:14:03.102159 13067 net.cpp:425] inception_4c/3x3_reduce <- inception_4b/output_inception_4b/output_0_split_1
I0403 14:14:03.102180 13067 net.cpp:399] inception_4c/3x3_reduce -> inception_4c/3x3_reduce
I0403 14:14:03.104202 13067 net.cpp:141] Setting up inception_4c/3x3_reduce
I0403 14:14:03.104231 13067 net.cpp:148] Top shape: 24 128 14 14 (602112)
I0403 14:14:03.104248 13067 net.cpp:156] Memory required for data: 1035617568
I0403 14:14:03.104267 13067 layer_factory.hpp:77] Creating layer inception_4c/relu_3x3_reduce
I0403 14:14:03.104287 13067 net.cpp:91] Creating Layer inception_4c/relu_3x3_reduce
I0403 14:14:03.104305 13067 net.cpp:425] inception_4c/relu_3x3_reduce <- inception_4c/3x3_reduce
I0403 14:14:03.104321 13067 net.cpp:386] inception_4c/relu_3x3_reduce -> inception_4c/3x3_reduce (in-place)
I0403 14:14:03.104625 13067 net.cpp:141] Setting up inception_4c/relu_3x3_reduce
I0403 14:14:03.104652 13067 net.cpp:148] Top shape: 24 128 14 14 (602112)
I0403 14:14:03.104668 13067 net.cpp:156] Memory required for data: 1038026016
I0403 14:14:03.104689 13067 layer_factory.hpp:77] Creating layer inception_4c/3x3
I0403 14:14:03.104712 13067 net.cpp:91] Creating Layer inception_4c/3x3
I0403 14:14:03.104729 13067 net.cpp:425] inception_4c/3x3 <- inception_4c/3x3_reduce
I0403 14:14:03.104753 13067 net.cpp:399] inception_4c/3x3 -> inception_4c/3x3
I0403 14:14:03.108479 13067 net.cpp:141] Setting up inception_4c/3x3
I0403 14:14:03.108521 13067 net.cpp:148] Top shape: 24 256 14 14 (1204224)
I0403 14:14:03.108544 13067 net.cpp:156] Memory required for data: 1042842912
I0403 14:14:03.108577 13067 layer_factory.hpp:77] Creating layer inception_4c/relu_3x3
I0403 14:14:03.108604 13067 net.cpp:91] Creating Layer inception_4c/relu_3x3
I0403 14:14:03.108623 13067 net.cpp:425] inception_4c/relu_3x3 <- inception_4c/3x3
I0403 14:14:03.108640 13067 net.cpp:386] inception_4c/relu_3x3 -> inception_4c/3x3 (in-place)
I0403 14:14:03.108826 13067 net.cpp:141] Setting up inception_4c/relu_3x3
I0403 14:14:03.108852 13067 net.cpp:148] Top shape: 24 256 14 14 (1204224)
I0403 14:14:03.108867 13067 net.cpp:156] Memory required for data: 1047659808
I0403 14:14:03.108881 13067 layer_factory.hpp:77] Creating layer inception_4c/5x5_reduce
I0403 14:14:03.108906 13067 net.cpp:91] Creating Layer inception_4c/5x5_reduce
I0403 14:14:03.108924 13067 net.cpp:425] inception_4c/5x5_reduce <- inception_4b/output_inception_4b/output_0_split_2
I0403 14:14:03.108943 13067 net.cpp:399] inception_4c/5x5_reduce -> inception_4c/5x5_reduce
I0403 14:14:03.110046 13067 net.cpp:141] Setting up inception_4c/5x5_reduce
I0403 14:14:03.110074 13067 net.cpp:148] Top shape: 24 24 14 14 (112896)
I0403 14:14:03.110090 13067 net.cpp:156] Memory required for data: 1048111392
I0403 14:14:03.110108 13067 layer_factory.hpp:77] Creating layer inception_4c/relu_5x5_reduce
I0403 14:14:03.110127 13067 net.cpp:91] Creating Layer inception_4c/relu_5x5_reduce
I0403 14:14:03.110143 13067 net.cpp:425] inception_4c/relu_5x5_reduce <- inception_4c/5x5_reduce
I0403 14:14:03.110162 13067 net.cpp:386] inception_4c/relu_5x5_reduce -> inception_4c/5x5_reduce (in-place)
I0403 14:14:03.110344 13067 net.cpp:141] Setting up inception_4c/relu_5x5_reduce
I0403 14:14:03.110369 13067 net.cpp:148] Top shape: 24 24 14 14 (112896)
I0403 14:14:03.110383 13067 net.cpp:156] Memory required for data: 1048562976
I0403 14:14:03.110397 13067 layer_factory.hpp:77] Creating layer inception_4c/5x5
I0403 14:14:03.110419 13067 net.cpp:91] Creating Layer inception_4c/5x5
I0403 14:14:03.110436 13067 net.cpp:425] inception_4c/5x5 <- inception_4c/5x5_reduce
I0403 14:14:03.110457 13067 net.cpp:399] inception_4c/5x5 -> inception_4c/5x5
I0403 14:14:03.111702 13067 net.cpp:141] Setting up inception_4c/5x5
I0403 14:14:03.111732 13067 net.cpp:148] Top shape: 24 64 14 14 (301056)
I0403 14:14:03.111748 13067 net.cpp:156] Memory required for data: 1049767200
I0403 14:14:03.111765 13067 layer_factory.hpp:77] Creating layer inception_4c/relu_5x5
I0403 14:14:03.111783 13067 net.cpp:91] Creating Layer inception_4c/relu_5x5
I0403 14:14:03.111799 13067 net.cpp:425] inception_4c/relu_5x5 <- inception_4c/5x5
I0403 14:14:03.111817 13067 net.cpp:386] inception_4c/relu_5x5 -> inception_4c/5x5 (in-place)
I0403 14:14:03.112109 13067 net.cpp:141] Setting up inception_4c/relu_5x5
I0403 14:14:03.112138 13067 net.cpp:148] Top shape: 24 64 14 14 (301056)
I0403 14:14:03.112152 13067 net.cpp:156] Memory required for data: 1050971424
I0403 14:14:03.112167 13067 layer_factory.hpp:77] Creating layer inception_4c/pool
I0403 14:14:03.112184 13067 net.cpp:91] Creating Layer inception_4c/pool
I0403 14:14:03.112200 13067 net.cpp:425] inception_4c/pool <- inception_4b/output_inception_4b/output_0_split_3
I0403 14:14:03.112218 13067 net.cpp:399] inception_4c/pool -> inception_4c/pool
I0403 14:14:03.112282 13067 net.cpp:141] Setting up inception_4c/pool
I0403 14:14:03.112308 13067 net.cpp:148] Top shape: 24 512 14 14 (2408448)
I0403 14:14:03.112323 13067 net.cpp:156] Memory required for data: 1060605216
I0403 14:14:03.112336 13067 layer_factory.hpp:77] Creating layer inception_4c/pool_proj
I0403 14:14:03.112355 13067 net.cpp:91] Creating Layer inception_4c/pool_proj
I0403 14:14:03.112371 13067 net.cpp:425] inception_4c/pool_proj <- inception_4c/pool
I0403 14:14:03.112393 13067 net.cpp:399] inception_4c/pool_proj -> inception_4c/pool_proj
I0403 14:14:03.113636 13067 net.cpp:141] Setting up inception_4c/pool_proj
I0403 14:14:03.113664 13067 net.cpp:148] Top shape: 24 64 14 14 (301056)
I0403 14:14:03.113710 13067 net.cpp:156] Memory required for data: 1061809440
I0403 14:14:03.113731 13067 layer_factory.hpp:77] Creating layer inception_4c/relu_pool_proj
I0403 14:14:03.113750 13067 net.cpp:91] Creating Layer inception_4c/relu_pool_proj
I0403 14:14:03.113767 13067 net.cpp:425] inception_4c/relu_pool_proj <- inception_4c/pool_proj
I0403 14:14:03.113785 13067 net.cpp:386] inception_4c/relu_pool_proj -> inception_4c/pool_proj (in-place)
I0403 14:14:03.113992 13067 net.cpp:141] Setting up inception_4c/relu_pool_proj
I0403 14:14:03.114019 13067 net.cpp:148] Top shape: 24 64 14 14 (301056)
I0403 14:14:03.114035 13067 net.cpp:156] Memory required for data: 1063013664
I0403 14:14:03.114049 13067 layer_factory.hpp:77] Creating layer inception_4c/output
I0403 14:14:03.114068 13067 net.cpp:91] Creating Layer inception_4c/output
I0403 14:14:03.114083 13067 net.cpp:425] inception_4c/output <- inception_4c/1x1
I0403 14:14:03.114099 13067 net.cpp:425] inception_4c/output <- inception_4c/3x3
I0403 14:14:03.114114 13067 net.cpp:425] inception_4c/output <- inception_4c/5x5
I0403 14:14:03.114130 13067 net.cpp:425] inception_4c/output <- inception_4c/pool_proj
I0403 14:14:03.114150 13067 net.cpp:399] inception_4c/output -> inception_4c/output
I0403 14:14:03.114197 13067 net.cpp:141] Setting up inception_4c/output
I0403 14:14:03.114222 13067 net.cpp:148] Top shape: 24 512 14 14 (2408448)
I0403 14:14:03.114235 13067 net.cpp:156] Memory required for data: 1072647456
I0403 14:14:03.114249 13067 layer_factory.hpp:77] Creating layer inception_4c/output_inception_4c/output_0_split
I0403 14:14:03.114271 13067 net.cpp:91] Creating Layer inception_4c/output_inception_4c/output_0_split
I0403 14:14:03.114286 13067 net.cpp:425] inception_4c/output_inception_4c/output_0_split <- inception_4c/output
I0403 14:14:03.114305 13067 net.cpp:399] inception_4c/output_inception_4c/output_0_split -> inception_4c/output_inception_4c/output_0_split_0
I0403 14:14:03.114325 13067 net.cpp:399] inception_4c/output_inception_4c/output_0_split -> inception_4c/output_inception_4c/output_0_split_1
I0403 14:14:03.114347 13067 net.cpp:399] inception_4c/output_inception_4c/output_0_split -> inception_4c/output_inception_4c/output_0_split_2
I0403 14:14:03.114367 13067 net.cpp:399] inception_4c/output_inception_4c/output_0_split -> inception_4c/output_inception_4c/output_0_split_3
I0403 14:14:03.114454 13067 net.cpp:141] Setting up inception_4c/output_inception_4c/output_0_split
I0403 14:14:03.114478 13067 net.cpp:148] Top shape: 24 512 14 14 (2408448)
I0403 14:14:03.114495 13067 net.cpp:148] Top shape: 24 512 14 14 (2408448)
I0403 14:14:03.114511 13067 net.cpp:148] Top shape: 24 512 14 14 (2408448)
I0403 14:14:03.114526 13067 net.cpp:148] Top shape: 24 512 14 14 (2408448)
I0403 14:14:03.114538 13067 net.cpp:156] Memory required for data: 1111182624
I0403 14:14:03.114552 13067 layer_factory.hpp:77] Creating layer inception_4d/1x1
I0403 14:14:03.114574 13067 net.cpp:91] Creating Layer inception_4d/1x1
I0403 14:14:03.114591 13067 net.cpp:425] inception_4d/1x1 <- inception_4c/output_inception_4c/output_0_split_0
I0403 14:14:03.114625 13067 net.cpp:399] inception_4d/1x1 -> inception_4d/1x1
I0403 14:14:03.116065 13067 net.cpp:141] Setting up inception_4d/1x1
I0403 14:14:03.116094 13067 net.cpp:148] Top shape: 24 112 14 14 (526848)
I0403 14:14:03.116111 13067 net.cpp:156] Memory required for data: 1113290016
I0403 14:14:03.116128 13067 layer_factory.hpp:77] Creating layer inception_4d/relu_1x1
I0403 14:14:03.116149 13067 net.cpp:91] Creating Layer inception_4d/relu_1x1
I0403 14:14:03.116166 13067 net.cpp:425] inception_4d/relu_1x1 <- inception_4d/1x1
I0403 14:14:03.116183 13067 net.cpp:386] inception_4d/relu_1x1 -> inception_4d/1x1 (in-place)
I0403 14:14:03.116369 13067 net.cpp:141] Setting up inception_4d/relu_1x1
I0403 14:14:03.116395 13067 net.cpp:148] Top shape: 24 112 14 14 (526848)
I0403 14:14:03.116410 13067 net.cpp:156] Memory required for data: 1115397408
I0403 14:14:03.116425 13067 layer_factory.hpp:77] Creating layer inception_4d/3x3_reduce
I0403 14:14:03.116464 13067 net.cpp:91] Creating Layer inception_4d/3x3_reduce
I0403 14:14:03.116483 13067 net.cpp:425] inception_4d/3x3_reduce <- inception_4c/output_inception_4c/output_0_split_1
I0403 14:14:03.116503 13067 net.cpp:399] inception_4d/3x3_reduce -> inception_4d/3x3_reduce
I0403 14:14:03.118062 13067 net.cpp:141] Setting up inception_4d/3x3_reduce
I0403 14:14:03.118091 13067 net.cpp:148] Top shape: 24 144 14 14 (677376)
I0403 14:14:03.118106 13067 net.cpp:156] Memory required for data: 1118106912
I0403 14:14:03.118124 13067 layer_factory.hpp:77] Creating layer inception_4d/relu_3x3_reduce
I0403 14:14:03.118144 13067 net.cpp:91] Creating Layer inception_4d/relu_3x3_reduce
I0403 14:14:03.118160 13067 net.cpp:425] inception_4d/relu_3x3_reduce <- inception_4d/3x3_reduce
I0403 14:14:03.118178 13067 net.cpp:386] inception_4d/relu_3x3_reduce -> inception_4d/3x3_reduce (in-place)
I0403 14:14:03.118474 13067 net.cpp:141] Setting up inception_4d/relu_3x3_reduce
I0403 14:14:03.118500 13067 net.cpp:148] Top shape: 24 144 14 14 (677376)
I0403 14:14:03.118515 13067 net.cpp:156] Memory required for data: 1120816416
I0403 14:14:03.118530 13067 layer_factory.hpp:77] Creating layer inception_4d/3x3
I0403 14:14:03.118553 13067 net.cpp:91] Creating Layer inception_4d/3x3
I0403 14:14:03.118571 13067 net.cpp:425] inception_4d/3x3 <- inception_4d/3x3_reduce
I0403 14:14:03.118592 13067 net.cpp:399] inception_4d/3x3 -> inception_4d/3x3
I0403 14:14:03.122977 13067 net.cpp:141] Setting up inception_4d/3x3
I0403 14:14:03.123008 13067 net.cpp:148] Top shape: 24 288 14 14 (1354752)
I0403 14:14:03.123023 13067 net.cpp:156] Memory required for data: 1126235424
I0403 14:14:03.123041 13067 layer_factory.hpp:77] Creating layer inception_4d/relu_3x3
I0403 14:14:03.123062 13067 net.cpp:91] Creating Layer inception_4d/relu_3x3
I0403 14:14:03.123080 13067 net.cpp:425] inception_4d/relu_3x3 <- inception_4d/3x3
I0403 14:14:03.123096 13067 net.cpp:386] inception_4d/relu_3x3 -> inception_4d/3x3 (in-place)
I0403 14:14:03.123284 13067 net.cpp:141] Setting up inception_4d/relu_3x3
I0403 14:14:03.123314 13067 net.cpp:148] Top shape: 24 288 14 14 (1354752)
I0403 14:14:03.123330 13067 net.cpp:156] Memory required for data: 1131654432
I0403 14:14:03.123344 13067 layer_factory.hpp:77] Creating layer inception_4d/5x5_reduce
I0403 14:14:03.123366 13067 net.cpp:91] Creating Layer inception_4d/5x5_reduce
I0403 14:14:03.123384 13067 net.cpp:425] inception_4d/5x5_reduce <- inception_4c/output_inception_4c/output_0_split_2
I0403 14:14:03.123404 13067 net.cpp:399] inception_4d/5x5_reduce -> inception_4d/5x5_reduce
I0403 14:14:03.124585 13067 net.cpp:141] Setting up inception_4d/5x5_reduce
I0403 14:14:03.124624 13067 net.cpp:148] Top shape: 24 32 14 14 (150528)
I0403 14:14:03.124642 13067 net.cpp:156] Memory required for data: 1132256544
I0403 14:14:03.124661 13067 layer_factory.hpp:77] Creating layer inception_4d/relu_5x5_reduce
I0403 14:14:03.124682 13067 net.cpp:91] Creating Layer inception_4d/relu_5x5_reduce
I0403 14:14:03.124699 13067 net.cpp:425] inception_4d/relu_5x5_reduce <- inception_4d/5x5_reduce
I0403 14:14:03.124716 13067 net.cpp:386] inception_4d/relu_5x5_reduce -> inception_4d/5x5_reduce (in-place)
I0403 14:14:03.124910 13067 net.cpp:141] Setting up inception_4d/relu_5x5_reduce
I0403 14:14:03.124936 13067 net.cpp:148] Top shape: 24 32 14 14 (150528)
I0403 14:14:03.124950 13067 net.cpp:156] Memory required for data: 1132858656
I0403 14:14:03.124965 13067 layer_factory.hpp:77] Creating layer inception_4d/5x5
I0403 14:14:03.124989 13067 net.cpp:91] Creating Layer inception_4d/5x5
I0403 14:14:03.125005 13067 net.cpp:425] inception_4d/5x5 <- inception_4d/5x5_reduce
I0403 14:14:03.125025 13067 net.cpp:399] inception_4d/5x5 -> inception_4d/5x5
I0403 14:14:03.126541 13067 net.cpp:141] Setting up inception_4d/5x5
I0403 14:14:03.126572 13067 net.cpp:148] Top shape: 24 64 14 14 (301056)
I0403 14:14:03.126590 13067 net.cpp:156] Memory required for data: 1134062880
I0403 14:14:03.126613 13067 layer_factory.hpp:77] Creating layer inception_4d/relu_5x5
I0403 14:14:03.126646 13067 net.cpp:91] Creating Layer inception_4d/relu_5x5
I0403 14:14:03.126664 13067 net.cpp:425] inception_4d/relu_5x5 <- inception_4d/5x5
I0403 14:14:03.126684 13067 net.cpp:386] inception_4d/relu_5x5 -> inception_4d/5x5 (in-place)
I0403 14:14:03.126994 13067 net.cpp:141] Setting up inception_4d/relu_5x5
I0403 14:14:03.127023 13067 net.cpp:148] Top shape: 24 64 14 14 (301056)
I0403 14:14:03.127039 13067 net.cpp:156] Memory required for data: 1135267104
I0403 14:14:03.127054 13067 layer_factory.hpp:77] Creating layer inception_4d/pool
I0403 14:14:03.127073 13067 net.cpp:91] Creating Layer inception_4d/pool
I0403 14:14:03.127089 13067 net.cpp:425] inception_4d/pool <- inception_4c/output_inception_4c/output_0_split_3
I0403 14:14:03.127111 13067 net.cpp:399] inception_4d/pool -> inception_4d/pool
I0403 14:14:03.127180 13067 net.cpp:141] Setting up inception_4d/pool
I0403 14:14:03.127204 13067 net.cpp:148] Top shape: 24 512 14 14 (2408448)
I0403 14:14:03.127219 13067 net.cpp:156] Memory required for data: 1144900896
I0403 14:14:03.127234 13067 layer_factory.hpp:77] Creating layer inception_4d/pool_proj
I0403 14:14:03.127256 13067 net.cpp:91] Creating Layer inception_4d/pool_proj
I0403 14:14:03.127274 13067 net.cpp:425] inception_4d/pool_proj <- inception_4d/pool
I0403 14:14:03.127295 13067 net.cpp:399] inception_4d/pool_proj -> inception_4d/pool_proj
I0403 14:14:03.129120 13067 net.cpp:141] Setting up inception_4d/pool_proj
I0403 14:14:03.129150 13067 net.cpp:148] Top shape: 24 64 14 14 (301056)
I0403 14:14:03.129166 13067 net.cpp:156] Memory required for data: 1146105120
I0403 14:14:03.129185 13067 layer_factory.hpp:77] Creating layer inception_4d/relu_pool_proj
I0403 14:14:03.129205 13067 net.cpp:91] Creating Layer inception_4d/relu_pool_proj
I0403 14:14:03.129223 13067 net.cpp:425] inception_4d/relu_pool_proj <- inception_4d/pool_proj
I0403 14:14:03.129241 13067 net.cpp:386] inception_4d/relu_pool_proj -> inception_4d/pool_proj (in-place)
I0403 14:14:03.129427 13067 net.cpp:141] Setting up inception_4d/relu_pool_proj
I0403 14:14:03.129456 13067 net.cpp:148] Top shape: 24 64 14 14 (301056)
I0403 14:14:03.129472 13067 net.cpp:156] Memory required for data: 1147309344
I0403 14:14:03.129487 13067 layer_factory.hpp:77] Creating layer inception_4d/output
I0403 14:14:03.129503 13067 net.cpp:91] Creating Layer inception_4d/output
I0403 14:14:03.129518 13067 net.cpp:425] inception_4d/output <- inception_4d/1x1
I0403 14:14:03.129534 13067 net.cpp:425] inception_4d/output <- inception_4d/3x3
I0403 14:14:03.129551 13067 net.cpp:425] inception_4d/output <- inception_4d/5x5
I0403 14:14:03.129566 13067 net.cpp:425] inception_4d/output <- inception_4d/pool_proj
I0403 14:14:03.129583 13067 net.cpp:399] inception_4d/output -> inception_4d/output
I0403 14:14:03.129637 13067 net.cpp:141] Setting up inception_4d/output
I0403 14:14:03.129662 13067 net.cpp:148] Top shape: 24 528 14 14 (2483712)
I0403 14:14:03.129676 13067 net.cpp:156] Memory required for data: 1157244192
I0403 14:14:03.129690 13067 layer_factory.hpp:77] Creating layer inception_4d/output_inception_4d/output_0_split
I0403 14:14:03.129710 13067 net.cpp:91] Creating Layer inception_4d/output_inception_4d/output_0_split
I0403 14:14:03.129727 13067 net.cpp:425] inception_4d/output_inception_4d/output_0_split <- inception_4d/output
I0403 14:14:03.129745 13067 net.cpp:399] inception_4d/output_inception_4d/output_0_split -> inception_4d/output_inception_4d/output_0_split_0
I0403 14:14:03.129765 13067 net.cpp:399] inception_4d/output_inception_4d/output_0_split -> inception_4d/output_inception_4d/output_0_split_1
I0403 14:14:03.129786 13067 net.cpp:399] inception_4d/output_inception_4d/output_0_split -> inception_4d/output_inception_4d/output_0_split_2
I0403 14:14:03.129806 13067 net.cpp:399] inception_4d/output_inception_4d/output_0_split -> inception_4d/output_inception_4d/output_0_split_3
I0403 14:14:03.129828 13067 net.cpp:399] inception_4d/output_inception_4d/output_0_split -> inception_4d/output_inception_4d/output_0_split_4
I0403 14:14:03.129937 13067 net.cpp:141] Setting up inception_4d/output_inception_4d/output_0_split
I0403 14:14:03.129973 13067 net.cpp:148] Top shape: 24 528 14 14 (2483712)
I0403 14:14:03.129990 13067 net.cpp:148] Top shape: 24 528 14 14 (2483712)
I0403 14:14:03.130007 13067 net.cpp:148] Top shape: 24 528 14 14 (2483712)
I0403 14:14:03.130020 13067 net.cpp:148] Top shape: 24 528 14 14 (2483712)
I0403 14:14:03.130035 13067 net.cpp:148] Top shape: 24 528 14 14 (2483712)
I0403 14:14:03.130048 13067 net.cpp:156] Memory required for data: 1206918432
I0403 14:14:03.130062 13067 layer_factory.hpp:77] Creating layer loss2/ave_pool
I0403 14:14:03.130080 13067 net.cpp:91] Creating Layer loss2/ave_pool
I0403 14:14:03.130102 13067 net.cpp:425] loss2/ave_pool <- inception_4d/output_inception_4d/output_0_split_0
I0403 14:14:03.130121 13067 net.cpp:399] loss2/ave_pool -> loss2/ave_pool
I0403 14:14:03.130444 13067 net.cpp:141] Setting up loss2/ave_pool
I0403 14:14:03.130470 13067 net.cpp:148] Top shape: 24 528 4 4 (202752)
I0403 14:14:03.130486 13067 net.cpp:156] Memory required for data: 1207729440
I0403 14:14:03.130501 13067 layer_factory.hpp:77] Creating layer loss2/conv
I0403 14:14:03.130522 13067 net.cpp:91] Creating Layer loss2/conv
I0403 14:14:03.130540 13067 net.cpp:425] loss2/conv <- loss2/ave_pool
I0403 14:14:03.130561 13067 net.cpp:399] loss2/conv -> loss2/conv
I0403 14:14:03.132565 13067 net.cpp:141] Setting up loss2/conv
I0403 14:14:03.132603 13067 net.cpp:148] Top shape: 24 128 4 4 (49152)
I0403 14:14:03.132634 13067 net.cpp:156] Memory required for data: 1207926048
I0403 14:14:03.132653 13067 layer_factory.hpp:77] Creating layer loss2/relu_conv
I0403 14:14:03.132671 13067 net.cpp:91] Creating Layer loss2/relu_conv
I0403 14:14:03.132686 13067 net.cpp:425] loss2/relu_conv <- loss2/conv
I0403 14:14:03.132704 13067 net.cpp:386] loss2/relu_conv -> loss2/conv (in-place)
I0403 14:14:03.132998 13067 net.cpp:141] Setting up loss2/relu_conv
I0403 14:14:03.133028 13067 net.cpp:148] Top shape: 24 128 4 4 (49152)
I0403 14:14:03.133044 13067 net.cpp:156] Memory required for data: 1208122656
I0403 14:14:03.133059 13067 layer_factory.hpp:77] Creating layer loss2/fc
I0403 14:14:03.133079 13067 net.cpp:91] Creating Layer loss2/fc
I0403 14:14:03.133095 13067 net.cpp:425] loss2/fc <- loss2/conv
I0403 14:14:03.133116 13067 net.cpp:399] loss2/fc -> loss2/fc
I0403 14:14:03.150991 13067 net.cpp:141] Setting up loss2/fc
I0403 14:14:03.151026 13067 net.cpp:148] Top shape: 24 1024 (24576)
I0403 14:14:03.151041 13067 net.cpp:156] Memory required for data: 1208220960
I0403 14:14:03.151059 13067 layer_factory.hpp:77] Creating layer loss2/relu_fc
I0403 14:14:03.151077 13067 net.cpp:91] Creating Layer loss2/relu_fc
I0403 14:14:03.151093 13067 net.cpp:425] loss2/relu_fc <- loss2/fc
I0403 14:14:03.151109 13067 net.cpp:386] loss2/relu_fc -> loss2/fc (in-place)
I0403 14:14:03.151397 13067 net.cpp:141] Setting up loss2/relu_fc
I0403 14:14:03.151422 13067 net.cpp:148] Top shape: 24 1024 (24576)
I0403 14:14:03.151437 13067 net.cpp:156] Memory required for data: 1208319264
I0403 14:14:03.151451 13067 layer_factory.hpp:77] Creating layer loss2/drop_fc
I0403 14:14:03.151470 13067 net.cpp:91] Creating Layer loss2/drop_fc
I0403 14:14:03.151487 13067 net.cpp:425] loss2/drop_fc <- loss2/fc
I0403 14:14:03.151504 13067 net.cpp:386] loss2/drop_fc -> loss2/fc (in-place)
I0403 14:14:03.151552 13067 net.cpp:141] Setting up loss2/drop_fc
I0403 14:14:03.151574 13067 net.cpp:148] Top shape: 24 1024 (24576)
I0403 14:14:03.151588 13067 net.cpp:156] Memory required for data: 1208417568
I0403 14:14:03.151607 13067 layer_factory.hpp:77] Creating layer loss2/classifier_plantvillage
I0403 14:14:03.151626 13067 net.cpp:91] Creating Layer loss2/classifier_plantvillage
I0403 14:14:03.151643 13067 net.cpp:425] loss2/classifier_plantvillage <- loss2/fc
I0403 14:14:03.151660 13067 net.cpp:399] loss2/classifier_plantvillage -> loss2/classifier_plantvillage
I0403 14:14:03.152050 13067 net.cpp:141] Setting up loss2/classifier_plantvillage
I0403 14:14:03.152075 13067 net.cpp:148] Top shape: 24 38 (912)
I0403 14:14:03.152088 13067 net.cpp:156] Memory required for data: 1208421216
I0403 14:14:03.152122 13067 layer_factory.hpp:77] Creating layer loss2/classifier_plantvillage_loss2/classifier_plantvillage_0_split
I0403 14:14:03.152140 13067 net.cpp:91] Creating Layer loss2/classifier_plantvillage_loss2/classifier_plantvillage_0_split
I0403 14:14:03.152155 13067 net.cpp:425] loss2/classifier_plantvillage_loss2/classifier_plantvillage_0_split <- loss2/classifier_plantvillage
I0403 14:14:03.152174 13067 net.cpp:399] loss2/classifier_plantvillage_loss2/classifier_plantvillage_0_split -> loss2/classifier_plantvillage_loss2/classifier_plantvillage_0_split_0
I0403 14:14:03.152195 13067 net.cpp:399] loss2/classifier_plantvillage_loss2/classifier_plantvillage_0_split -> loss2/classifier_plantvillage_loss2/classifier_plantvillage_0_split_1
I0403 14:14:03.152215 13067 net.cpp:399] loss2/classifier_plantvillage_loss2/classifier_plantvillage_0_split -> loss2/classifier_plantvillage_loss2/classifier_plantvillage_0_split_2
I0403 14:14:03.152289 13067 net.cpp:141] Setting up loss2/classifier_plantvillage_loss2/classifier_plantvillage_0_split
I0403 14:14:03.152314 13067 net.cpp:148] Top shape: 24 38 (912)
I0403 14:14:03.152331 13067 net.cpp:148] Top shape: 24 38 (912)
I0403 14:14:03.152346 13067 net.cpp:148] Top shape: 24 38 (912)
I0403 14:14:03.152359 13067 net.cpp:156] Memory required for data: 1208432160
I0403 14:14:03.152374 13067 layer_factory.hpp:77] Creating layer inception_4e/1x1
I0403 14:14:03.152393 13067 net.cpp:91] Creating Layer inception_4e/1x1
I0403 14:14:03.152410 13067 net.cpp:425] inception_4e/1x1 <- inception_4d/output_inception_4d/output_0_split_1
I0403 14:14:03.152427 13067 net.cpp:399] inception_4e/1x1 -> inception_4e/1x1
I0403 14:14:03.154199 13067 net.cpp:141] Setting up inception_4e/1x1
I0403 14:14:03.154228 13067 net.cpp:148] Top shape: 24 256 14 14 (1204224)
I0403 14:14:03.154244 13067 net.cpp:156] Memory required for data: 1213249056
I0403 14:14:03.154263 13067 layer_factory.hpp:77] Creating layer inception_4e/relu_1x1
I0403 14:14:03.154280 13067 net.cpp:91] Creating Layer inception_4e/relu_1x1
I0403 14:14:03.154296 13067 net.cpp:425] inception_4e/relu_1x1 <- inception_4e/1x1
I0403 14:14:03.154315 13067 net.cpp:386] inception_4e/relu_1x1 -> inception_4e/1x1 (in-place)
I0403 14:14:03.154613 13067 net.cpp:141] Setting up inception_4e/relu_1x1
I0403 14:14:03.154640 13067 net.cpp:148] Top shape: 24 256 14 14 (1204224)
I0403 14:14:03.154655 13067 net.cpp:156] Memory required for data: 1218065952
I0403 14:14:03.154670 13067 layer_factory.hpp:77] Creating layer inception_4e/3x3_reduce
I0403 14:14:03.154691 13067 net.cpp:91] Creating Layer inception_4e/3x3_reduce
I0403 14:14:03.154707 13067 net.cpp:425] inception_4e/3x3_reduce <- inception_4d/output_inception_4d/output_0_split_2
I0403 14:14:03.154726 13067 net.cpp:399] inception_4e/3x3_reduce -> inception_4e/3x3_reduce
I0403 14:14:03.156817 13067 net.cpp:141] Setting up inception_4e/3x3_reduce
I0403 14:14:03.156848 13067 net.cpp:148] Top shape: 24 160 14 14 (752640)
I0403 14:14:03.156863 13067 net.cpp:156] Memory required for data: 1221076512
I0403 14:14:03.156882 13067 layer_factory.hpp:77] Creating layer inception_4e/relu_3x3_reduce
I0403 14:14:03.156898 13067 net.cpp:91] Creating Layer inception_4e/relu_3x3_reduce
I0403 14:14:03.156914 13067 net.cpp:425] inception_4e/relu_3x3_reduce <- inception_4e/3x3_reduce
I0403 14:14:03.156930 13067 net.cpp:386] inception_4e/relu_3x3_reduce -> inception_4e/3x3_reduce (in-place)
I0403 14:14:03.157112 13067 net.cpp:141] Setting up inception_4e/relu_3x3_reduce
I0403 14:14:03.157137 13067 net.cpp:148] Top shape: 24 160 14 14 (752640)
I0403 14:14:03.157151 13067 net.cpp:156] Memory required for data: 1224087072
I0403 14:14:03.157165 13067 layer_factory.hpp:77] Creating layer inception_4e/3x3
I0403 14:14:03.157186 13067 net.cpp:91] Creating Layer inception_4e/3x3
I0403 14:14:03.157202 13067 net.cpp:425] inception_4e/3x3 <- inception_4e/3x3_reduce
I0403 14:14:03.157223 13067 net.cpp:399] inception_4e/3x3 -> inception_4e/3x3
I0403 14:14:03.162243 13067 net.cpp:141] Setting up inception_4e/3x3
I0403 14:14:03.162286 13067 net.cpp:148] Top shape: 24 320 14 14 (1505280)
I0403 14:14:03.162302 13067 net.cpp:156] Memory required for data: 1230108192
I0403 14:14:03.162320 13067 layer_factory.hpp:77] Creating layer inception_4e/relu_3x3
I0403 14:14:03.162339 13067 net.cpp:91] Creating Layer inception_4e/relu_3x3
I0403 14:14:03.162354 13067 net.cpp:425] inception_4e/relu_3x3 <- inception_4e/3x3
I0403 14:14:03.162374 13067 net.cpp:386] inception_4e/relu_3x3 -> inception_4e/3x3 (in-place)
I0403 14:14:03.162677 13067 net.cpp:141] Setting up inception_4e/relu_3x3
I0403 14:14:03.162703 13067 net.cpp:148] Top shape: 24 320 14 14 (1505280)
I0403 14:14:03.162719 13067 net.cpp:156] Memory required for data: 1236129312
I0403 14:14:03.162734 13067 layer_factory.hpp:77] Creating layer inception_4e/5x5_reduce
I0403 14:14:03.162755 13067 net.cpp:91] Creating Layer inception_4e/5x5_reduce
I0403 14:14:03.162772 13067 net.cpp:425] inception_4e/5x5_reduce <- inception_4d/output_inception_4d/output_0_split_3
I0403 14:14:03.162792 13067 net.cpp:399] inception_4e/5x5_reduce -> inception_4e/5x5_reduce
I0403 14:14:03.163864 13067 net.cpp:141] Setting up inception_4e/5x5_reduce
I0403 14:14:03.163894 13067 net.cpp:148] Top shape: 24 32 14 14 (150528)
I0403 14:14:03.163910 13067 net.cpp:156] Memory required for data: 1236731424
I0403 14:14:03.163928 13067 layer_factory.hpp:77] Creating layer inception_4e/relu_5x5_reduce
I0403 14:14:03.163945 13067 net.cpp:91] Creating Layer inception_4e/relu_5x5_reduce
I0403 14:14:03.163960 13067 net.cpp:425] inception_4e/relu_5x5_reduce <- inception_4e/5x5_reduce
I0403 14:14:03.163981 13067 net.cpp:386] inception_4e/relu_5x5_reduce -> inception_4e/5x5_reduce (in-place)
I0403 14:14:03.164278 13067 net.cpp:141] Setting up inception_4e/relu_5x5_reduce
I0403 14:14:03.164305 13067 net.cpp:148] Top shape: 24 32 14 14 (150528)
I0403 14:14:03.164321 13067 net.cpp:156] Memory required for data: 1237333536
I0403 14:14:03.164336 13067 layer_factory.hpp:77] Creating layer inception_4e/5x5
I0403 14:14:03.164376 13067 net.cpp:91] Creating Layer inception_4e/5x5
I0403 14:14:03.164394 13067 net.cpp:425] inception_4e/5x5 <- inception_4e/5x5_reduce
I0403 14:14:03.164413 13067 net.cpp:399] inception_4e/5x5 -> inception_4e/5x5
I0403 14:14:03.166273 13067 net.cpp:141] Setting up inception_4e/5x5
I0403 14:14:03.166301 13067 net.cpp:148] Top shape: 24 128 14 14 (602112)
I0403 14:14:03.166317 13067 net.cpp:156] Memory required for data: 1239741984
I0403 14:14:03.166335 13067 layer_factory.hpp:77] Creating layer inception_4e/relu_5x5
I0403 14:14:03.166355 13067 net.cpp:91] Creating Layer inception_4e/relu_5x5
I0403 14:14:03.166371 13067 net.cpp:425] inception_4e/relu_5x5 <- inception_4e/5x5
I0403 14:14:03.166388 13067 net.cpp:386] inception_4e/relu_5x5 -> inception_4e/5x5 (in-place)
I0403 14:14:03.166582 13067 net.cpp:141] Setting up inception_4e/relu_5x5
I0403 14:14:03.166613 13067 net.cpp:148] Top shape: 24 128 14 14 (602112)
I0403 14:14:03.166630 13067 net.cpp:156] Memory required for data: 1242150432
I0403 14:14:03.166645 13067 layer_factory.hpp:77] Creating layer inception_4e/pool
I0403 14:14:03.166661 13067 net.cpp:91] Creating Layer inception_4e/pool
I0403 14:14:03.166676 13067 net.cpp:425] inception_4e/pool <- inception_4d/output_inception_4d/output_0_split_4
I0403 14:14:03.166697 13067 net.cpp:399] inception_4e/pool -> inception_4e/pool
I0403 14:14:03.166766 13067 net.cpp:141] Setting up inception_4e/pool
I0403 14:14:03.166790 13067 net.cpp:148] Top shape: 24 528 14 14 (2483712)
I0403 14:14:03.166805 13067 net.cpp:156] Memory required for data: 1252085280
I0403 14:14:03.166818 13067 layer_factory.hpp:77] Creating layer inception_4e/pool_proj
I0403 14:14:03.166841 13067 net.cpp:91] Creating Layer inception_4e/pool_proj
I0403 14:14:03.166859 13067 net.cpp:425] inception_4e/pool_proj <- inception_4e/pool
I0403 14:14:03.166877 13067 net.cpp:399] inception_4e/pool_proj -> inception_4e/pool_proj
I0403 14:14:03.168419 13067 net.cpp:141] Setting up inception_4e/pool_proj
I0403 14:14:03.168448 13067 net.cpp:148] Top shape: 24 128 14 14 (602112)
I0403 14:14:03.168478 13067 net.cpp:156] Memory required for data: 1254493728
I0403 14:14:03.168496 13067 layer_factory.hpp:77] Creating layer inception_4e/relu_pool_proj
I0403 14:14:03.168519 13067 net.cpp:91] Creating Layer inception_4e/relu_pool_proj
I0403 14:14:03.168535 13067 net.cpp:425] inception_4e/relu_pool_proj <- inception_4e/pool_proj
I0403 14:14:03.168551 13067 net.cpp:386] inception_4e/relu_pool_proj -> inception_4e/pool_proj (in-place)
I0403 14:14:03.168849 13067 net.cpp:141] Setting up inception_4e/relu_pool_proj
I0403 14:14:03.168875 13067 net.cpp:148] Top shape: 24 128 14 14 (602112)
I0403 14:14:03.168889 13067 net.cpp:156] Memory required for data: 1256902176
I0403 14:14:03.168905 13067 layer_factory.hpp:77] Creating layer inception_4e/output
I0403 14:14:03.168921 13067 net.cpp:91] Creating Layer inception_4e/output
I0403 14:14:03.168936 13067 net.cpp:425] inception_4e/output <- inception_4e/1x1
I0403 14:14:03.168956 13067 net.cpp:425] inception_4e/output <- inception_4e/3x3
I0403 14:14:03.168973 13067 net.cpp:425] inception_4e/output <- inception_4e/5x5
I0403 14:14:03.168988 13067 net.cpp:425] inception_4e/output <- inception_4e/pool_proj
I0403 14:14:03.169004 13067 net.cpp:399] inception_4e/output -> inception_4e/output
I0403 14:14:03.169055 13067 net.cpp:141] Setting up inception_4e/output
I0403 14:14:03.169078 13067 net.cpp:148] Top shape: 24 832 14 14 (3913728)
I0403 14:14:03.169092 13067 net.cpp:156] Memory required for data: 1272557088
I0403 14:14:03.169106 13067 layer_factory.hpp:77] Creating layer pool4/3x3_s2
I0403 14:14:03.169123 13067 net.cpp:91] Creating Layer pool4/3x3_s2
I0403 14:14:03.169138 13067 net.cpp:425] pool4/3x3_s2 <- inception_4e/output
I0403 14:14:03.169159 13067 net.cpp:399] pool4/3x3_s2 -> pool4/3x3_s2
I0403 14:14:03.169226 13067 net.cpp:141] Setting up pool4/3x3_s2
I0403 14:14:03.169250 13067 net.cpp:148] Top shape: 24 832 7 7 (978432)
I0403 14:14:03.169266 13067 net.cpp:156] Memory required for data: 1276470816
I0403 14:14:03.169281 13067 layer_factory.hpp:77] Creating layer pool4/3x3_s2_pool4/3x3_s2_0_split
I0403 14:14:03.169299 13067 net.cpp:91] Creating Layer pool4/3x3_s2_pool4/3x3_s2_0_split
I0403 14:14:03.169317 13067 net.cpp:425] pool4/3x3_s2_pool4/3x3_s2_0_split <- pool4/3x3_s2
I0403 14:14:03.169335 13067 net.cpp:399] pool4/3x3_s2_pool4/3x3_s2_0_split -> pool4/3x3_s2_pool4/3x3_s2_0_split_0
I0403 14:14:03.169356 13067 net.cpp:399] pool4/3x3_s2_pool4/3x3_s2_0_split -> pool4/3x3_s2_pool4/3x3_s2_0_split_1
I0403 14:14:03.169376 13067 net.cpp:399] pool4/3x3_s2_pool4/3x3_s2_0_split -> pool4/3x3_s2_pool4/3x3_s2_0_split_2
I0403 14:14:03.169395 13067 net.cpp:399] pool4/3x3_s2_pool4/3x3_s2_0_split -> pool4/3x3_s2_pool4/3x3_s2_0_split_3
I0403 14:14:03.169486 13067 net.cpp:141] Setting up pool4/3x3_s2_pool4/3x3_s2_0_split
I0403 14:14:03.169509 13067 net.cpp:148] Top shape: 24 832 7 7 (978432)
I0403 14:14:03.169524 13067 net.cpp:148] Top shape: 24 832 7 7 (978432)
I0403 14:14:03.169538 13067 net.cpp:148] Top shape: 24 832 7 7 (978432)
I0403 14:14:03.169553 13067 net.cpp:148] Top shape: 24 832 7 7 (978432)
I0403 14:14:03.169567 13067 net.cpp:156] Memory required for data: 1292125728
I0403 14:14:03.169581 13067 layer_factory.hpp:77] Creating layer inception_5a/1x1
I0403 14:14:03.169621 13067 net.cpp:91] Creating Layer inception_5a/1x1
I0403 14:14:03.169641 13067 net.cpp:425] inception_5a/1x1 <- pool4/3x3_s2_pool4/3x3_s2_0_split_0
I0403 14:14:03.169662 13067 net.cpp:399] inception_5a/1x1 -> inception_5a/1x1
I0403 14:14:03.172626 13067 net.cpp:141] Setting up inception_5a/1x1
I0403 14:14:03.172658 13067 net.cpp:148] Top shape: 24 256 7 7 (301056)
I0403 14:14:03.172677 13067 net.cpp:156] Memory required for data: 1293329952
I0403 14:14:03.172694 13067 layer_factory.hpp:77] Creating layer inception_5a/relu_1x1
I0403 14:14:03.172713 13067 net.cpp:91] Creating Layer inception_5a/relu_1x1
I0403 14:14:03.172729 13067 net.cpp:425] inception_5a/relu_1x1 <- inception_5a/1x1
I0403 14:14:03.172746 13067 net.cpp:386] inception_5a/relu_1x1 -> inception_5a/1x1 (in-place)
I0403 14:14:03.173076 13067 net.cpp:141] Setting up inception_5a/relu_1x1
I0403 14:14:03.173105 13067 net.cpp:148] Top shape: 24 256 7 7 (301056)
I0403 14:14:03.173121 13067 net.cpp:156] Memory required for data: 1294534176
I0403 14:14:03.173136 13067 layer_factory.hpp:77] Creating layer inception_5a/3x3_reduce
I0403 14:14:03.173156 13067 net.cpp:91] Creating Layer inception_5a/3x3_reduce
I0403 14:14:03.173173 13067 net.cpp:425] inception_5a/3x3_reduce <- pool4/3x3_s2_pool4/3x3_s2_0_split_1
I0403 14:14:03.173195 13067 net.cpp:399] inception_5a/3x3_reduce -> inception_5a/3x3_reduce
I0403 14:14:03.175755 13067 net.cpp:141] Setting up inception_5a/3x3_reduce
I0403 14:14:03.175786 13067 net.cpp:148] Top shape: 24 160 7 7 (188160)
I0403 14:14:03.175803 13067 net.cpp:156] Memory required for data: 1295286816
I0403 14:14:03.175822 13067 layer_factory.hpp:77] Creating layer inception_5a/relu_3x3_reduce
I0403 14:14:03.175840 13067 net.cpp:91] Creating Layer inception_5a/relu_3x3_reduce
I0403 14:14:03.175856 13067 net.cpp:425] inception_5a/relu_3x3_reduce <- inception_5a/3x3_reduce
I0403 14:14:03.175876 13067 net.cpp:386] inception_5a/relu_3x3_reduce -> inception_5a/3x3_reduce (in-place)
I0403 14:14:03.176070 13067 net.cpp:141] Setting up inception_5a/relu_3x3_reduce
I0403 14:14:03.176096 13067 net.cpp:148] Top shape: 24 160 7 7 (188160)
I0403 14:14:03.176110 13067 net.cpp:156] Memory required for data: 1296039456
I0403 14:14:03.176126 13067 layer_factory.hpp:77] Creating layer inception_5a/3x3
I0403 14:14:03.176147 13067 net.cpp:91] Creating Layer inception_5a/3x3
I0403 14:14:03.176165 13067 net.cpp:425] inception_5a/3x3 <- inception_5a/3x3_reduce
I0403 14:14:03.176187 13067 net.cpp:399] inception_5a/3x3 -> inception_5a/3x3
I0403 14:14:03.181383 13067 net.cpp:141] Setting up inception_5a/3x3
I0403 14:14:03.181414 13067 net.cpp:148] Top shape: 24 320 7 7 (376320)
I0403 14:14:03.181432 13067 net.cpp:156] Memory required for data: 1297544736
I0403 14:14:03.181449 13067 layer_factory.hpp:77] Creating layer inception_5a/relu_3x3
I0403 14:14:03.181470 13067 net.cpp:91] Creating Layer inception_5a/relu_3x3
I0403 14:14:03.181488 13067 net.cpp:425] inception_5a/relu_3x3 <- inception_5a/3x3
I0403 14:14:03.181505 13067 net.cpp:386] inception_5a/relu_3x3 -> inception_5a/3x3 (in-place)
I0403 14:14:03.181814 13067 net.cpp:141] Setting up inception_5a/relu_3x3
I0403 14:14:03.181841 13067 net.cpp:148] Top shape: 24 320 7 7 (376320)
I0403 14:14:03.181857 13067 net.cpp:156] Memory required for data: 1299050016
I0403 14:14:03.181871 13067 layer_factory.hpp:77] Creating layer inception_5a/5x5_reduce
I0403 14:14:03.181896 13067 net.cpp:91] Creating Layer inception_5a/5x5_reduce
I0403 14:14:03.181915 13067 net.cpp:425] inception_5a/5x5_reduce <- pool4/3x3_s2_pool4/3x3_s2_0_split_2
I0403 14:14:03.181934 13067 net.cpp:399] inception_5a/5x5_reduce -> inception_5a/5x5_reduce
I0403 14:14:03.183154 13067 net.cpp:141] Setting up inception_5a/5x5_reduce
I0403 14:14:03.183185 13067 net.cpp:148] Top shape: 24 32 7 7 (37632)
I0403 14:14:03.183203 13067 net.cpp:156] Memory required for data: 1299200544
I0403 14:14:03.183223 13067 layer_factory.hpp:77] Creating layer inception_5a/relu_5x5_reduce
I0403 14:14:03.183240 13067 net.cpp:91] Creating Layer inception_5a/relu_5x5_reduce
I0403 14:14:03.183256 13067 net.cpp:425] inception_5a/relu_5x5_reduce <- inception_5a/5x5_reduce
I0403 14:14:03.183274 13067 net.cpp:386] inception_5a/relu_5x5_reduce -> inception_5a/5x5_reduce (in-place)
I0403 14:14:03.183581 13067 net.cpp:141] Setting up inception_5a/relu_5x5_reduce
I0403 14:14:03.183614 13067 net.cpp:148] Top shape: 24 32 7 7 (37632)
I0403 14:14:03.183631 13067 net.cpp:156] Memory required for data: 1299351072
I0403 14:14:03.183646 13067 layer_factory.hpp:77] Creating layer inception_5a/5x5
I0403 14:14:03.183670 13067 net.cpp:91] Creating Layer inception_5a/5x5
I0403 14:14:03.183686 13067 net.cpp:425] inception_5a/5x5 <- inception_5a/5x5_reduce
I0403 14:14:03.183706 13067 net.cpp:399] inception_5a/5x5 -> inception_5a/5x5
I0403 14:14:03.185516 13067 net.cpp:141] Setting up inception_5a/5x5
I0403 14:14:03.185571 13067 net.cpp:148] Top shape: 24 128 7 7 (150528)
I0403 14:14:03.185588 13067 net.cpp:156] Memory required for data: 1299953184
I0403 14:14:03.185612 13067 layer_factory.hpp:77] Creating layer inception_5a/relu_5x5
I0403 14:14:03.185634 13067 net.cpp:91] Creating Layer inception_5a/relu_5x5
I0403 14:14:03.185652 13067 net.cpp:425] inception_5a/relu_5x5 <- inception_5a/5x5
I0403 14:14:03.185669 13067 net.cpp:386] inception_5a/relu_5x5 -> inception_5a/5x5 (in-place)
I0403 14:14:03.185863 13067 net.cpp:141] Setting up inception_5a/relu_5x5
I0403 14:14:03.185891 13067 net.cpp:148] Top shape: 24 128 7 7 (150528)
I0403 14:14:03.185906 13067 net.cpp:156] Memory required for data: 1300555296
I0403 14:14:03.185921 13067 layer_factory.hpp:77] Creating layer inception_5a/pool
I0403 14:14:03.185938 13067 net.cpp:91] Creating Layer inception_5a/pool
I0403 14:14:03.185956 13067 net.cpp:425] inception_5a/pool <- pool4/3x3_s2_pool4/3x3_s2_0_split_3
I0403 14:14:03.185976 13067 net.cpp:399] inception_5a/pool -> inception_5a/pool
I0403 14:14:03.186050 13067 net.cpp:141] Setting up inception_5a/pool
I0403 14:14:03.186074 13067 net.cpp:148] Top shape: 24 832 7 7 (978432)
I0403 14:14:03.186089 13067 net.cpp:156] Memory required for data: 1304469024
I0403 14:14:03.186103 13067 layer_factory.hpp:77] Creating layer inception_5a/pool_proj
I0403 14:14:03.186126 13067 net.cpp:91] Creating Layer inception_5a/pool_proj
I0403 14:14:03.186144 13067 net.cpp:425] inception_5a/pool_proj <- inception_5a/pool
I0403 14:14:03.186163 13067 net.cpp:399] inception_5a/pool_proj -> inception_5a/pool_proj
I0403 14:14:03.188570 13067 net.cpp:141] Setting up inception_5a/pool_proj
I0403 14:14:03.188604 13067 net.cpp:148] Top shape: 24 128 7 7 (150528)
I0403 14:14:03.188621 13067 net.cpp:156] Memory required for data: 1305071136
I0403 14:14:03.188640 13067 layer_factory.hpp:77] Creating layer inception_5a/relu_pool_proj
I0403 14:14:03.188660 13067 net.cpp:91] Creating Layer inception_5a/relu_pool_proj
I0403 14:14:03.188676 13067 net.cpp:425] inception_5a/relu_pool_proj <- inception_5a/pool_proj
I0403 14:14:03.188694 13067 net.cpp:386] inception_5a/relu_pool_proj -> inception_5a/pool_proj (in-place)
I0403 14:14:03.188992 13067 net.cpp:141] Setting up inception_5a/relu_pool_proj
I0403 14:14:03.189018 13067 net.cpp:148] Top shape: 24 128 7 7 (150528)
I0403 14:14:03.189033 13067 net.cpp:156] Memory required for data: 1305673248
I0403 14:14:03.189048 13067 layer_factory.hpp:77] Creating layer inception_5a/output
I0403 14:14:03.189066 13067 net.cpp:91] Creating Layer inception_5a/output
I0403 14:14:03.189082 13067 net.cpp:425] inception_5a/output <- inception_5a/1x1
I0403 14:14:03.189100 13067 net.cpp:425] inception_5a/output <- inception_5a/3x3
I0403 14:14:03.189115 13067 net.cpp:425] inception_5a/output <- inception_5a/5x5
I0403 14:14:03.189131 13067 net.cpp:425] inception_5a/output <- inception_5a/pool_proj
I0403 14:14:03.189146 13067 net.cpp:399] inception_5a/output -> inception_5a/output
I0403 14:14:03.189198 13067 net.cpp:141] Setting up inception_5a/output
I0403 14:14:03.189220 13067 net.cpp:148] Top shape: 24 832 7 7 (978432)
I0403 14:14:03.189242 13067 net.cpp:156] Memory required for data: 1309586976
I0403 14:14:03.189261 13067 layer_factory.hpp:77] Creating layer inception_5a/output_inception_5a/output_0_split
I0403 14:14:03.189280 13067 net.cpp:91] Creating Layer inception_5a/output_inception_5a/output_0_split
I0403 14:14:03.189293 13067 net.cpp:425] inception_5a/output_inception_5a/output_0_split <- inception_5a/output
I0403 14:14:03.189314 13067 net.cpp:399] inception_5a/output_inception_5a/output_0_split -> inception_5a/output_inception_5a/output_0_split_0
I0403 14:14:03.189335 13067 net.cpp:399] inception_5a/output_inception_5a/output_0_split -> inception_5a/output_inception_5a/output_0_split_1
I0403 14:14:03.189354 13067 net.cpp:399] inception_5a/output_inception_5a/output_0_split -> inception_5a/output_inception_5a/output_0_split_2
I0403 14:14:03.189374 13067 net.cpp:399] inception_5a/output_inception_5a/output_0_split -> inception_5a/output_inception_5a/output_0_split_3
I0403 14:14:03.189488 13067 net.cpp:141] Setting up inception_5a/output_inception_5a/output_0_split
I0403 14:14:03.189514 13067 net.cpp:148] Top shape: 24 832 7 7 (978432)
I0403 14:14:03.189532 13067 net.cpp:148] Top shape: 24 832 7 7 (978432)
I0403 14:14:03.189548 13067 net.cpp:148] Top shape: 24 832 7 7 (978432)
I0403 14:14:03.189563 13067 net.cpp:148] Top shape: 24 832 7 7 (978432)
I0403 14:14:03.189575 13067 net.cpp:156] Memory required for data: 1325241888
I0403 14:14:03.189589 13067 layer_factory.hpp:77] Creating layer inception_5b/1x1
I0403 14:14:03.189616 13067 net.cpp:91] Creating Layer inception_5b/1x1
I0403 14:14:03.189635 13067 net.cpp:425] inception_5b/1x1 <- inception_5a/output_inception_5a/output_0_split_0
I0403 14:14:03.189653 13067 net.cpp:399] inception_5b/1x1 -> inception_5b/1x1
I0403 14:14:03.193465 13067 net.cpp:141] Setting up inception_5b/1x1
I0403 14:14:03.193495 13067 net.cpp:148] Top shape: 24 384 7 7 (451584)
I0403 14:14:03.193511 13067 net.cpp:156] Memory required for data: 1327048224
I0403 14:14:03.193529 13067 layer_factory.hpp:77] Creating layer inception_5b/relu_1x1
I0403 14:14:03.193549 13067 net.cpp:91] Creating Layer inception_5b/relu_1x1
I0403 14:14:03.193572 13067 net.cpp:425] inception_5b/relu_1x1 <- inception_5b/1x1
I0403 14:14:03.193589 13067 net.cpp:386] inception_5b/relu_1x1 -> inception_5b/1x1 (in-place)
I0403 14:14:03.193899 13067 net.cpp:141] Setting up inception_5b/relu_1x1
I0403 14:14:03.193925 13067 net.cpp:148] Top shape: 24 384 7 7 (451584)
I0403 14:14:03.193940 13067 net.cpp:156] Memory required for data: 1328854560
I0403 14:14:03.193954 13067 layer_factory.hpp:77] Creating layer inception_5b/3x3_reduce
I0403 14:14:03.193976 13067 net.cpp:91] Creating Layer inception_5b/3x3_reduce
I0403 14:14:03.193994 13067 net.cpp:425] inception_5b/3x3_reduce <- inception_5a/output_inception_5a/output_0_split_1
I0403 14:14:03.194016 13067 net.cpp:399] inception_5b/3x3_reduce -> inception_5b/3x3_reduce
I0403 14:14:03.196738 13067 net.cpp:141] Setting up inception_5b/3x3_reduce
I0403 14:14:03.196768 13067 net.cpp:148] Top shape: 24 192 7 7 (225792)
I0403 14:14:03.196784 13067 net.cpp:156] Memory required for data: 1329757728
I0403 14:14:03.196801 13067 layer_factory.hpp:77] Creating layer inception_5b/relu_3x3_reduce
I0403 14:14:03.196821 13067 net.cpp:91] Creating Layer inception_5b/relu_3x3_reduce
I0403 14:14:03.196840 13067 net.cpp:425] inception_5b/relu_3x3_reduce <- inception_5b/3x3_reduce
I0403 14:14:03.196856 13067 net.cpp:386] inception_5b/relu_3x3_reduce -> inception_5b/3x3_reduce (in-place)
I0403 14:14:03.197048 13067 net.cpp:141] Setting up inception_5b/relu_3x3_reduce
I0403 14:14:03.197073 13067 net.cpp:148] Top shape: 24 192 7 7 (225792)
I0403 14:14:03.197088 13067 net.cpp:156] Memory required for data: 1330660896
I0403 14:14:03.197103 13067 layer_factory.hpp:77] Creating layer inception_5b/3x3
I0403 14:14:03.197125 13067 net.cpp:91] Creating Layer inception_5b/3x3
I0403 14:14:03.197144 13067 net.cpp:425] inception_5b/3x3 <- inception_5b/3x3_reduce
I0403 14:14:03.197162 13067 net.cpp:399] inception_5b/3x3 -> inception_5b/3x3
I0403 14:14:03.203810 13067 net.cpp:141] Setting up inception_5b/3x3
I0403 14:14:03.203838 13067 net.cpp:148] Top shape: 24 384 7 7 (451584)
I0403 14:14:03.203853 13067 net.cpp:156] Memory required for data: 1332467232
I0403 14:14:03.203871 13067 layer_factory.hpp:77] Creating layer inception_5b/relu_3x3
I0403 14:14:03.203891 13067 net.cpp:91] Creating Layer inception_5b/relu_3x3
I0403 14:14:03.203907 13067 net.cpp:425] inception_5b/relu_3x3 <- inception_5b/3x3
I0403 14:14:03.203923 13067 net.cpp:386] inception_5b/relu_3x3 -> inception_5b/3x3 (in-place)
I0403 14:14:03.204217 13067 net.cpp:141] Setting up inception_5b/relu_3x3
I0403 14:14:03.204243 13067 net.cpp:148] Top shape: 24 384 7 7 (451584)
I0403 14:14:03.204257 13067 net.cpp:156] Memory required for data: 1334273568
I0403 14:14:03.204272 13067 layer_factory.hpp:77] Creating layer inception_5b/5x5_reduce
I0403 14:14:03.204309 13067 net.cpp:91] Creating Layer inception_5b/5x5_reduce
I0403 14:14:03.204327 13067 net.cpp:425] inception_5b/5x5_reduce <- inception_5a/output_inception_5a/output_0_split_2
I0403 14:14:03.204349 13067 net.cpp:399] inception_5b/5x5_reduce -> inception_5b/5x5_reduce
I0403 14:14:03.205617 13067 net.cpp:141] Setting up inception_5b/5x5_reduce
I0403 14:14:03.205644 13067 net.cpp:148] Top shape: 24 48 7 7 (56448)
I0403 14:14:03.205658 13067 net.cpp:156] Memory required for data: 1334499360
I0403 14:14:03.205677 13067 layer_factory.hpp:77] Creating layer inception_5b/relu_5x5_reduce
I0403 14:14:03.205695 13067 net.cpp:91] Creating Layer inception_5b/relu_5x5_reduce
I0403 14:14:03.205710 13067 net.cpp:425] inception_5b/relu_5x5_reduce <- inception_5b/5x5_reduce
I0403 14:14:03.205727 13067 net.cpp:386] inception_5b/relu_5x5_reduce -> inception_5b/5x5_reduce (in-place)
I0403 14:14:03.206096 13067 net.cpp:141] Setting up inception_5b/relu_5x5_reduce
I0403 14:14:03.206122 13067 net.cpp:148] Top shape: 24 48 7 7 (56448)
I0403 14:14:03.206136 13067 net.cpp:156] Memory required for data: 1334725152
I0403 14:14:03.206151 13067 layer_factory.hpp:77] Creating layer inception_5b/5x5
I0403 14:14:03.206171 13067 net.cpp:91] Creating Layer inception_5b/5x5
I0403 14:14:03.206185 13067 net.cpp:425] inception_5b/5x5 <- inception_5b/5x5_reduce
I0403 14:14:03.206203 13067 net.cpp:399] inception_5b/5x5 -> inception_5b/5x5
I0403 14:14:03.208292 13067 net.cpp:141] Setting up inception_5b/5x5
I0403 14:14:03.208323 13067 net.cpp:148] Top shape: 24 128 7 7 (150528)
I0403 14:14:03.208338 13067 net.cpp:156] Memory required for data: 1335327264
I0403 14:14:03.208355 13067 layer_factory.hpp:77] Creating layer inception_5b/relu_5x5
I0403 14:14:03.208372 13067 net.cpp:91] Creating Layer inception_5b/relu_5x5
I0403 14:14:03.208387 13067 net.cpp:425] inception_5b/relu_5x5 <- inception_5b/5x5
I0403 14:14:03.208403 13067 net.cpp:386] inception_5b/relu_5x5 -> inception_5b/5x5 (in-place)
I0403 14:14:03.208591 13067 net.cpp:141] Setting up inception_5b/relu_5x5
I0403 14:14:03.208621 13067 net.cpp:148] Top shape: 24 128 7 7 (150528)
I0403 14:14:03.208637 13067 net.cpp:156] Memory required for data: 1335929376
I0403 14:14:03.208652 13067 layer_factory.hpp:77] Creating layer inception_5b/pool
I0403 14:14:03.208669 13067 net.cpp:91] Creating Layer inception_5b/pool
I0403 14:14:03.208683 13067 net.cpp:425] inception_5b/pool <- inception_5a/output_inception_5a/output_0_split_3
I0403 14:14:03.208703 13067 net.cpp:399] inception_5b/pool -> inception_5b/pool
I0403 14:14:03.208775 13067 net.cpp:141] Setting up inception_5b/pool
I0403 14:14:03.208799 13067 net.cpp:148] Top shape: 24 832 7 7 (978432)
I0403 14:14:03.208813 13067 net.cpp:156] Memory required for data: 1339843104
I0403 14:14:03.208827 13067 layer_factory.hpp:77] Creating layer inception_5b/pool_proj
I0403 14:14:03.208844 13067 net.cpp:91] Creating Layer inception_5b/pool_proj
I0403 14:14:03.208860 13067 net.cpp:425] inception_5b/pool_proj <- inception_5b/pool
I0403 14:14:03.208880 13067 net.cpp:399] inception_5b/pool_proj -> inception_5b/pool_proj
I0403 14:14:03.211138 13067 net.cpp:141] Setting up inception_5b/pool_proj
I0403 14:14:03.211166 13067 net.cpp:148] Top shape: 24 128 7 7 (150528)
I0403 14:14:03.211181 13067 net.cpp:156] Memory required for data: 1340445216
I0403 14:14:03.211199 13067 layer_factory.hpp:77] Creating layer inception_5b/relu_pool_proj
I0403 14:14:03.211218 13067 net.cpp:91] Creating Layer inception_5b/relu_pool_proj
I0403 14:14:03.211236 13067 net.cpp:425] inception_5b/relu_pool_proj <- inception_5b/pool_proj
I0403 14:14:03.211251 13067 net.cpp:386] inception_5b/relu_pool_proj -> inception_5b/pool_proj (in-place)
I0403 14:14:03.211544 13067 net.cpp:141] Setting up inception_5b/relu_pool_proj
I0403 14:14:03.211570 13067 net.cpp:148] Top shape: 24 128 7 7 (150528)
I0403 14:14:03.211583 13067 net.cpp:156] Memory required for data: 1341047328
I0403 14:14:03.211597 13067 layer_factory.hpp:77] Creating layer inception_5b/output
I0403 14:14:03.211621 13067 net.cpp:91] Creating Layer inception_5b/output
I0403 14:14:03.211650 13067 net.cpp:425] inception_5b/output <- inception_5b/1x1
I0403 14:14:03.211668 13067 net.cpp:425] inception_5b/output <- inception_5b/3x3
I0403 14:14:03.211683 13067 net.cpp:425] inception_5b/output <- inception_5b/5x5
I0403 14:14:03.211699 13067 net.cpp:425] inception_5b/output <- inception_5b/pool_proj
I0403 14:14:03.211715 13067 net.cpp:399] inception_5b/output -> inception_5b/output
I0403 14:14:03.211766 13067 net.cpp:141] Setting up inception_5b/output
I0403 14:14:03.211789 13067 net.cpp:148] Top shape: 24 1024 7 7 (1204224)
I0403 14:14:03.211804 13067 net.cpp:156] Memory required for data: 1345864224
I0403 14:14:03.211818 13067 layer_factory.hpp:77] Creating layer pool5/7x7_s1
I0403 14:14:03.211834 13067 net.cpp:91] Creating Layer pool5/7x7_s1
I0403 14:14:03.211849 13067 net.cpp:425] pool5/7x7_s1 <- inception_5b/output
I0403 14:14:03.211869 13067 net.cpp:399] pool5/7x7_s1 -> pool5/7x7_s1
I0403 14:14:03.212077 13067 net.cpp:141] Setting up pool5/7x7_s1
I0403 14:14:03.212101 13067 net.cpp:148] Top shape: 24 1024 1 1 (24576)
I0403 14:14:03.212116 13067 net.cpp:156] Memory required for data: 1345962528
I0403 14:14:03.212128 13067 layer_factory.hpp:77] Creating layer pool5/drop_7x7_s1
I0403 14:14:03.212147 13067 net.cpp:91] Creating Layer pool5/drop_7x7_s1
I0403 14:14:03.212163 13067 net.cpp:425] pool5/drop_7x7_s1 <- pool5/7x7_s1
I0403 14:14:03.212179 13067 net.cpp:386] pool5/drop_7x7_s1 -> pool5/7x7_s1 (in-place)
I0403 14:14:03.212232 13067 net.cpp:141] Setting up pool5/drop_7x7_s1
I0403 14:14:03.212255 13067 net.cpp:148] Top shape: 24 1024 1 1 (24576)
I0403 14:14:03.212268 13067 net.cpp:156] Memory required for data: 1346060832
I0403 14:14:03.212282 13067 layer_factory.hpp:77] Creating layer loss3/classifier_plantvillage
I0403 14:14:03.212302 13067 net.cpp:91] Creating Layer loss3/classifier_plantvillage
I0403 14:14:03.212318 13067 net.cpp:425] loss3/classifier_plantvillage <- pool5/7x7_s1
I0403 14:14:03.212337 13067 net.cpp:399] loss3/classifier_plantvillage -> loss3/classifier_plantvillage
I0403 14:14:03.212761 13067 net.cpp:141] Setting up loss3/classifier_plantvillage
I0403 14:14:03.212785 13067 net.cpp:148] Top shape: 24 38 (912)
I0403 14:14:03.212800 13067 net.cpp:156] Memory required for data: 1346064480
I0403 14:14:03.212816 13067 layer_factory.hpp:77] Creating layer loss3/classifier_plantvillage_loss3/classifier_plantvillage_0_split
I0403 14:14:03.212834 13067 net.cpp:91] Creating Layer loss3/classifier_plantvillage_loss3/classifier_plantvillage_0_split
I0403 14:14:03.212851 13067 net.cpp:425] loss3/classifier_plantvillage_loss3/classifier_plantvillage_0_split <- loss3/classifier_plantvillage
I0403 14:14:03.212869 13067 net.cpp:399] loss3/classifier_plantvillage_loss3/classifier_plantvillage_0_split -> loss3/classifier_plantvillage_loss3/classifier_plantvillage_0_split_0
I0403 14:14:03.212889 13067 net.cpp:399] loss3/classifier_plantvillage_loss3/classifier_plantvillage_0_split -> loss3/classifier_plantvillage_loss3/classifier_plantvillage_0_split_1
I0403 14:14:03.212908 13067 net.cpp:399] loss3/classifier_plantvillage_loss3/classifier_plantvillage_0_split -> loss3/classifier_plantvillage_loss3/classifier_plantvillage_0_split_2
I0403 14:14:03.212927 13067 net.cpp:399] loss3/classifier_plantvillage_loss3/classifier_plantvillage_0_split -> loss3/classifier_plantvillage_loss3/classifier_plantvillage_0_split_3
I0403 14:14:03.213026 13067 net.cpp:141] Setting up loss3/classifier_plantvillage_loss3/classifier_plantvillage_0_split
I0403 14:14:03.213047 13067 net.cpp:148] Top shape: 24 38 (912)
I0403 14:14:03.213063 13067 net.cpp:148] Top shape: 24 38 (912)
I0403 14:14:03.213078 13067 net.cpp:148] Top shape: 24 38 (912)
I0403 14:14:03.213093 13067 net.cpp:148] Top shape: 24 38 (912)
I0403 14:14:03.213104 13067 net.cpp:156] Memory required for data: 1346079072
I0403 14:14:03.213119 13067 layer_factory.hpp:77] Creating layer loss1/loss
I0403 14:14:03.213138 13067 net.cpp:91] Creating Layer loss1/loss
I0403 14:14:03.213155 13067 net.cpp:425] loss1/loss <- loss1/classifier_plantvillage_loss1/classifier_plantvillage_0_split_0
I0403 14:14:03.213183 13067 net.cpp:425] loss1/loss <- label_data_1_split_0
…
