…
I0403 15:11:45.843608 14213 net.cpp:313] The NetState phase (1) differed from the phase (0) specified by a rule in layer data
I0403 15:11:45.844714 14213 net.cpp:49] Initializing net from parameters: 
state {
  phase: TEST
}
layer {
  name: "data"
  type: "Data"
  top: "data"
  top: "label"
  include {
    phase: TEST
  }
  transform_param {
    mirror: false
    crop_size: 224
    mean_file: "/home/mohanty/data/final_dataset/lmdb/color-40-60/mean.binaryproto"
  }
  data_param {
    source: "/home/mohanty/data/final_dataset/lmdb/color-40-60/test_db"
    batch_size: 24
    backend: LMDB
  }
}
layer {
  name: "conv1/7x7_s2"
  type: "Convolution"
  bottom: "data"
  top: "conv1/7x7_s2"
  param {
    lr_mult: 1
    decay_mult: 1
  }
  param {
    lr_mult: 2
    decay_mult: 0
  }
  convolution_param {
    num_output: 64
    pad: 3
    kernel_size: 7
    stride: 2
    weight_filler {
      type: "xavier"
      std: 0.1
    }
    bias_filler {
      type: "constant"
      value: 0.2
    }
  }
}
layer {
  name: "conv1/relu_7x7"
  type: "ReLU"
  bottom: "conv1/7x7_s2"
  top: "conv1/7x7_s2"
}
layer {
  name: "pool1/3x3_s2"
  type: "Pooling"
  bottom: "conv1/7x7_s2"
  top: "pool1/3x3_s2"
  pooling_param {
    pool: MAX
    kernel_size: 3
    stride: 2
  }
}
layer {
  name: "pool1/norm1"
  type: "LRN"
  bottom: "pool1/3x3_s2"
  top: "pool1/norm1"
  lrn_param {
    local_size: 5
    alpha: 0.0001
    beta: 0.75
  }
}
layer {
  name: "conv2/3x3_reduce"
  type: "Convolution"
  bottom: "pool1/norm1"
  top: "conv2/3x3_reduce"
  param {
    lr_mult: 1
    decay_mult: 1
  }
  param {
    lr_mult: 2
    decay_mult: 0
  }
  convolution_param {
    num_output: 64
    kernel_size: 1
    weight_filler {
      type: "xavier"
      std: 0.1
    }
    bias_filler {
      type: "constant"
      value: 0.2
    }
  }
}
layer {
  name: "conv2/relu_3x3_reduce"
  type: "ReLU"
  bottom: "conv2/3x3_reduce"
  top: "conv2/3x3_reduce"
}
layer {
  name: "conv2/3x3"
  type: "Convolution"
  bottom: "conv2/3x3_reduce"
  top: "conv2/3x3"
  param {
    lr_mult: 1
    decay_mult: 1
  }
  param {
    lr_mult: 2
    decay_mult: 0
  }
  convolution_param {
    num_output: 192
    pad: 1
    kernel_size: 3
    weight_filler {
      type: "xavier"
      std: 0.03
    }
    bias_filler {
      type: "constant"
      value: 0.2
    }
  }
}
layer {
  name: "conv2/relu_3x3"
  type: "ReLU"
  bottom: "conv2/3x3"
  top: "conv2/3x3"
}
layer {
  name: "conv2/norm2"
  type: "LRN"
  bottom: "conv2/3x3"
  top: "conv2/norm2"
  lrn_param {
    local_size: 5
    alpha: 0.0001
    beta: 0.75
  }
}
layer {
  name: "pool2/3x3_s2"
  type: "Pooling"
  bottom: "conv2/norm2"
  top: "pool2/3x3_s2"
  pooling_param {
    pool: MAX
    kernel_size: 3
    stride: 2
  }
}
layer {
  name: "inception_3a/1x1"
  type: "Convolution"
  bottom: "pool2/3x3_s2"
  top: "inception_3a/1x1"
  param {
    lr_mult: 1
    decay_mult: 1
  }
  param {
    lr_mult: 2
    decay_mult: 0
  }
  convolution_param {
    num_output: 64
    kernel_size: 1
    weight_filler {
      type: "xavier"
      std: 0.03
    }
    bias_filler {
      type: "constant"
      value: 0.2
    }
  }
}
layer {
  name: "inception_3a/relu_1x1"
  type: "ReLU"
  bottom: "inception_3a/1x1"
  top: "inception_3a/1x1"
}
layer {
  name: "inception_3a/3x3_reduce"
  type: "Convolution"
  bottom: "pool2/3x3_s2"
  top: "inception_3a/3x3_reduce"
  param {
    lr_mult: 1
    decay_mult: 1
  }
  param {
    lr_mult: 2
    decay_mult: 0
  }
  convolution_param {
    num_output: 96
    kernel_size: 1
    weight_filler {
      type: "xavier"
      std: 0.09
    }
    bias_filler {
      type: "constant"
      value: 0.2
    }
  }
}
layer {
  name: "inception_3a/relu_3x3_reduce"
  type: "ReLU"
  bottom: "inception_3a/3x3_reduce"
  top: "inception_3a/3x3_reduce"
}
layer {
  name: "inception_3a/3x3"
  type: "Convolution"
  bottom: "inception_3a/3x3_reduce"
  top: "inception_3a/3x3"
  param {
    lr_mult: 1
    decay_mult: 1
  }
  param {
    lr_mult: 2
    decay_mult: 0
  }
  convolution_param {
    num_output: 128
    pad: 1
    kernel_size: 3
    weight_filler {
      type: "xavier"
      std: 0.03
    }
    bias_filler {
      type: "constant"
      value: 0.2
    }
  }
}
layer {
  name: "inception_3a/relu_3x3"
  type: "ReLU"
  bottom: "inception_3a/3x3"
  top: "inception_3a/3x3"
}
layer {
  name: "inception_3a/5x5_reduce"
  type: "Convolution"
  bottom: "pool2/3x3_s2"
  top: "inception_3a/5x5_reduce"
  param {
    lr_mult: 1
    decay_mult: 1
  }
  param {
    lr_mult: 2
    decay_mult: 0
  }
  convolution_param {
    num_output: 16
    kernel_size: 1
    weight_filler {
      type: "xavier"
      std: 0.2
    }
    bias_filler {
      type: "constant"
      value: 0.2
    }
  }
}
layer {
  name: "inception_3a/relu_5x5_reduce"
  type: "ReLU"
  bottom: "inception_3a/5x5_reduce"
  top: "inception_3a/5x5_reduce"
}
layer {
  name: "inception_3a/5x5"
  type: "Convolution"
  bottom: "inception_3a/5x5_reduce"
  top: "inception_3a/5x5"
  param {
    lr_mult: 1
    decay_mult: 1
  }
  param {
    lr_mult: 2
    decay_mult: 0
  }
  convolution_param {
    num_output: 32
    pad: 2
    kernel_size: 5
    weight_filler {
      type: "xavier"
      std: 0.03
    }
    bias_filler {
      type: "constant"
      value: 0.2
    }
  }
}
layer {
  name: "inception_3a/relu_5x5"
  type: "ReLU"
  bottom: "inception_3a/5x5"
  top: "inception_3a/5x5"
}
layer {
  name: "inception_3a/pool"
  type: "Pooling"
  bottom: "pool2/3x3_s2"
  top: "inception_3a/pool"
  pooling_param {
    pool: MAX
    kernel_size: 3
    stride: 1
    pad: 1
  }
}
layer {
  name: "inception_3a/pool_proj"
  type: "Convolution"
  bottom: "inception_3a/pool"
  top: "inception_3a/pool_proj"
  param {
    lr_mult: 1
    decay_mult: 1
  }
  param {
    lr_mult: 2
    decay_mult: 0
  }
  convolution_param {
    num_output: 32
    kernel_size: 1
    weight_filler {
      type: "xavier"
      std: 0.1
    }
    bias_filler {
      type: "constant"
      value: 0.2
    }
  }
}
layer {
  name: "inception_3a/relu_pool_proj"
  type: "ReLU"
  bottom: "inception_3a/pool_proj"
  top: "inception_3a/pool_proj"
}
layer {
  name: "inception_3a/output"
  type: "Concat"
  bottom: "inception_3a/1x1"
  bottom: "inception_3a/3x3"
  bottom: "inception_3a/5x5"
  bottom: "inception_3a/pool_proj"
  top: "inception_3a/output"
}
layer {
  name: "inception_3b/1x1"
  type: "Convolution"
  bottom: "inception_3a/output"
  top: "inception_3b/1x1"
  param {
    lr_mult: 1
    decay_mult: 1
  }
  param {
    lr_mult: 2
    decay_mult: 0
  }
  convolution_param {
    num_output: 128
    kernel_size: 1
    weight_filler {
      type: "xavier"
      std: 0.03
    }
    bias_filler {
      type: "constant"
      value: 0.2
    }
  }
}
layer {
  name: "inception_3b/relu_1x1"
  type: "ReLU"
  bottom: "inception_3b/1x1"
  top: "inception_3b/1x1"
}
layer {
  name: "inception_3b/3x3_reduce"
  type: "Convolution"
  bottom: "inception_3a/output"
  top: "inception_3b/3x3_reduce"
  param {
    lr_mult: 1
    decay_mult: 1
  }
  param {
    lr_mult: 2
    decay_mult: 0
  }
  convolution_param {
    num_output: 128
    kernel_size: 1
    weight_filler {
      type: "xavier"
      std: 0.09
    }
    bias_filler {
      type: "constant"
      value: 0.2
    }
  }
}
layer {
  name: "inception_3b/relu_3x3_reduce"
  type: "ReLU"
  bottom: "inception_3b/3x3_reduce"
  top: "inception_3b/3x3_reduce"
}
layer {
  name: "inception_3b/3x3"
  type: "Convolution"
  bottom: "inception_3b/3x3_reduce"
  top: "inception_3b/3x3"
  param {
    lr_mult: 1
    decay_mult: 1
  }
  param {
    lr_mult: 2
    decay_mult: 0
  }
  convolution_param {
    num_output: 192
    pad: 1
    kernel_size: 3
    weight_filler {
      type: "xavier"
      std: 0.03
    }
    bias_filler {
      type: "constant"
      value: 0.2
    }
  }
}
layer {
  name: "inception_3b/relu_3x3"
  type: "ReLU"
  bottom: "inception_3b/3x3"
  top: "inception_3b/3x3"
}
layer {
  name: "inception_3b/5x5_reduce"
  type: "Convolution"
  bottom: "inception_3a/output"
  top: "inception_3b/5x5_reduce"
  param {
    lr_mult: 1
    decay_mult: 1
  }
  param {
    lr_mult: 2
    decay_mult: 0
  }
  convolution_param {
    num_output: 32
    kernel_size: 1
    weight_filler {
      type: "xavier"
      std: 0.2
    }
    bias_filler {
      type: "constant"
      value: 0.2
    }
  }
}
layer {
  name: "inception_3b/relu_5x5_reduce"
  type: "ReLU"
  bottom: "inception_3b/5x5_reduce"
  top: "inception_3b/5x5_reduce"
}
layer {
  name: "inception_3b/5x5"
  type: "Convolution"
  bottom: "inception_3b/5x5_reduce"
  top: "inception_3b/5x5"
  param {
    lr_mult: 1
    decay_mult: 1
  }
  param {
    lr_mult: 2
    decay_mult: 0
  }
  convolution_param {
    num_output: 96
    pad: 2
    kernel_size: 5
    weight_filler {
      type: "xavier"
      std: 0.03
    }
    bias_filler {
      type: "constant"
      value: 0.2
    }
  }
}
layer {
  name: "inception_3b/relu_5x5"
  type: "ReLU"
  bottom: "inception_3b/5x5"
  top: "inception_3b/5x5"
}
layer {
  name: "inception_3b/pool"
  type: "Pooling"
  bottom: "inception_3a/output"
  top: "inception_3b/pool"
  pooling_param {
    pool: MAX
    kernel_size: 3
    stride: 1
    pad: 1
  }
}
layer {
  name: "inception_3b/pool_proj"
  type: "Convolution"
  bottom: "inception_3b/pool"
  top: "inception_3b/pool_proj"
  param {
    lr_mult: 1
    decay_mult: 1
  }
  param {
    lr_mult: 2
    decay_mult: 0
  }
  convolution_param {
    num_output: 64
    kernel_size: 1
    weight_filler {
      type: "xavier"
      std: 0.1
    }
    bias_filler {
      type: "constant"
      value: 0.2
    }
  }
}
layer {
  name: "inception_3b/relu_pool_proj"
  type: "ReLU"
  bottom: "inception_3b/pool_proj"
  top: "inception_3b/pool_proj"
}
layer {
  name: "inception_3b/output"
  type: "Concat"
  bottom: "inception_3b/1x1"
  bottom: "inception_3b/3x3"
  bottom: "inception_3b/5x5"
  bottom: "inception_3b/pool_proj"
  top: "inception_3b/output"
}
layer {
  name: "pool3/3x3_s2"
  type: "Pooling"
  bottom: "inception_3b/output"
  top: "pool3/3x3_s2"
  pooling_param {
    pool: MAX
    kernel_size: 3
    stride: 2
  }
}
layer {
  name: "inception_4a/1x1"
  type: "Convolution"
  bottom: "pool3/3x3_s2"
  top: "inception_4a/1x1"
  param {
    lr_mult: 1
    decay_mult: 1
  }
  param {
    lr_mult: 2
    decay_mult: 0
  }
  convolution_param {
    num_output: 192
    kernel_size: 1
    weight_filler {
      type: "xavier"
      std: 0.03
    }
    bias_filler {
      type: "constant"
      value: 0.2
    }
  }
}
layer {
  name: "inception_4a/relu_1x1"
  type: "ReLU"
  bottom: "inception_4a/1x1"
  top: "inception_4a/1x1"
}
layer {
  name: "inception_4a/3x3_reduce"
  type: "Convolution"
  bottom: "pool3/3x3_s2"
  top: "inception_4a/3x3_reduce"
  param {
    lr_mult: 1
    decay_mult: 1
  }
  param {
    lr_mult: 2
    decay_mult: 0
  }
  convolution_param {
    num_output: 96
    kernel_size: 1
    weight_filler {
      type: "xavier"
      std: 0.09
    }
    bias_filler {
      type: "constant"
      value: 0.2
    }
  }
}
layer {
  name: "inception_4a/relu_3x3_reduce"
  type: "ReLU"
  bottom: "inception_4a/3x3_reduce"
  top: "inception_4a/3x3_reduce"
}
layer {
  name: "inception_4a/3x3"
  type: "Convolution"
  bottom: "inception_4a/3x3_reduce"
  top: "inception_4a/3x3"
  param {
    lr_mult: 1
    decay_mult: 1
  }
  param {
    lr_mult: 2
    decay_mult: 0
  }
  convolution_param {
    num_output: 208
    pad: 1
    kernel_size: 3
    weight_filler {
      type: "xavier"
      std: 0.03
    }
    bias_filler {
      type: "constant"
      value: 0.2
    }
  }
}
layer {
  name: "inception_4a/relu_3x3"
  type: "ReLU"
  bottom: "inception_4a/3x3"
  top: "inception_4a/3x3"
}
layer {
  name: "inception_4a/5x5_reduce"
  type: "Convolution"
  bottom: "pool3/3x3_s2"
  top: "inception_4a/5x5_reduce"
  param {
    lr_mult: 1
    decay_mult: 1
  }
  param {
    lr_mult: 2
    decay_mult: 0
  }
  convolution_param {
    num_output: 16
    kernel_size: 1
    weight_filler {
      type: "xavier"
      std: 0.2
    }
    bias_filler {
      type: "constant"
      value: 0.2
    }
  }
}
layer {
  name: "inception_4a/relu_5x5_reduce"
  type: "ReLU"
  bottom: "inception_4a/5x5_reduce"
  top: "inception_4a/5x5_reduce"
}
layer {
  name: "inception_4a/5x5"
  type: "Convolution"
  bottom: "inception_4a/5x5_reduce"
  top: "inception_4a/5x5"
  param {
    lr_mult: 1
    decay_mult: 1
  }
  param {
    lr_mult: 2
    decay_mult: 0
  }
  convolution_param {
    num_output: 48
    pad: 2
    kernel_size: 5
    weight_filler {
      type: "xavier"
      std: 0.03
    }
    bias_filler {
      type: "constant"
      value: 0.2
    }
  }
}
layer {
  name: "inception_4a/relu_5x5"
  type: "ReLU"
  bottom: "inception_4a/5x5"
  top: "inception_4a/5x5"
}
layer {
  name: "inception_4a/pool"
  type: "Pooling"
  bottom: "pool3/3x3_s2"
  top: "inception_4a/pool"
  pooling_param {
    pool: MAX
    kernel_size: 3
    stride: 1
    pad: 1
  }
}
layer {
  name: "inception_4a/pool_proj"
  type: "Convolution"
  bottom: "inception_4a/pool"
  top: "inception_4a/pool_proj"
  param {
    lr_mult: 1
    decay_mult: 1
  }
  param {
    lr_mult: 2
    decay_mult: 0
  }
  convolution_param {
    num_output: 64
    kernel_size: 1
    weight_filler {
      type: "xavier"
      std: 0.1
    }
    bias_filler {
      type: "constant"
      value: 0.2
    }
  }
}
layer {
  name: "inception_4a/relu_pool_proj"
  type: "ReLU"
  bottom: "inception_4a/pool_proj"
  top: "inception_4a/pool_proj"
}
layer {
  name: "inception_4a/output"
  type: "Concat"
  bottom: "inception_4a/1x1"
  bottom: "inception_4a/3x3"
  bottom: "inception_4a/5x5"
  bottom: "inception_4a/pool_proj"
  top: "inception_4a/output"
}
layer {
  name: "loss1/ave_pool"
  type: "Pooling"
  bottom: "inception_4a/output"
  top: "loss1/ave_pool"
  pooling_param {
    pool: AVE
    kernel_size: 5
    stride: 3
  }
}
layer {
  name: "loss1/conv"
  type: "Convolution"
  bottom: "loss1/ave_pool"
  top: "loss1/conv"
  param {
    lr_mult: 1
    decay_mult: 1
  }
  param {
    lr_mult: 2
    decay_mult: 0
  }
  convolution_param {
    num_output: 128
    kernel_size: 1
    weight_filler {
      type: "xavier"
      std: 0.08
    }
    bias_filler {
      type: "constant"
      value: 0.2
    }
  }
}
layer {
  name: "loss1/relu_conv"
  type: "ReLU"
  bottom: "loss1/conv"
  top: "loss1/conv"
}
layer {
  name: "loss1/fc"
  type: "InnerProduct"
  bottom: "loss1/conv"
  top: "loss1/fc"
  param {
    lr_mult: 1
    decay_mult: 1
  }
  param {
    lr_mult: 2
    decay_mult: 0
  }
  inner_product_param {
    num_output: 1024
    weight_filler {
      type: "xavier"
      std: 0.02
    }
    bias_filler {
      type: "constant"
      value: 0.2
    }
  }
}
layer {
  name: "loss1/relu_fc"
  type: "ReLU"
  bottom: "loss1/fc"
  top: "loss1/fc"
}
layer {
  name: "loss1/drop_fc"
  type: "Dropout"
  bottom: "loss1/fc"
  top: "loss1/fc"
  dropout_param {
    dropout_ratio: 0.7
  }
}
layer {
  name: "loss1/classifier_plantvillage"
  type: "InnerProduct"
  bottom: "loss1/fc"
  top: "loss1/classifier_plantvillage"
  param {
    lr_mult: 1
    decay_mult: 1
  }
  param {
    lr_mult: 2
    decay_mult: 0
  }
  inner_product_param {
    num_output: 38
    weight_filler {
      type: "xavier"
      std: 0.0009765625
    }
    bias_filler {
      type: "constant"
      value: 0
    }
  }
}
layer {
  name: "inception_4b/1x1"
  type: "Convolution"
  bottom: "inception_4a/output"
  top: "inception_4b/1x1"
  param {
    lr_mult: 1
    decay_mult: 1
  }
  param {
    lr_mult: 2
    decay_mult: 0
  }
  convolution_param {
    num_output: 160
    kernel_size: 1
    weight_filler {
      type: "xavier"
      std: 0.03
    }
    bias_filler {
      type: "constant"
      value: 0.2
    }
  }
}
layer {
  name: "inception_4b/relu_1x1"
  type: "ReLU"
  bottom: "inception_4b/1x1"
  top: "inception_4b/1x1"
}
layer {
  name: "inception_4b/3x3_reduce"
  type: "Convolution"
  bottom: "inception_4a/output"
  top: "inception_4b/3x3_reduce"
  param {
    lr_mult: 1
    decay_mult: 1
  }
  param {
    lr_mult: 2
    decay_mult: 0
  }
  convolution_param {
    num_output: 112
    kernel_size: 1
    weight_filler {
      type: "xavier"
      std: 0.09
    }
    bias_filler {
      type: "constant"
      value: 0.2
    }
  }
}
layer {
  name: "inception_4b/relu_3x3_reduce"
  type: "ReLU"
  bottom: "inception_4b/3x3_reduce"
  top: "inception_4b/3x3_reduce"
}
layer {
  name: "inception_4b/3x3"
  type: "Convolution"
  bottom: "inception_4b/3x3_reduce"
  top: "inception_4b/3x3"
  param {
    lr_mult: 1
    decay_mult: 1
  }
  param {
    lr_mult: 2
    decay_mult: 0
  }
  convolution_param {
    num_output: 224
    pad: 1
    kernel_size: 3
    weight_filler {
      type: "xavier"
      std: 0.03
    }
    bias_filler {
      type: "constant"
      value: 0.2
    }
  }
}
layer {
  name: "inception_4b/relu_3x3"
  type: "ReLU"
  bottom: "inception_4b/3x3"
  top: "inception_4b/3x3"
}
layer {
  name: "inception_4b/5x5_reduce"
  type: "Convolution"
  bottom: "inception_4a/output"
  top: "inception_4b/5x5_reduce"
  param {
    lr_mult: 1
    decay_mult: 1
  }
  param {
    lr_mult: 2
    decay_mult: 0
  }
  convolution_param {
    num_output: 24
    kernel_size: 1
    weight_filler {
      type: "xavier"
      std: 0.2
    }
    bias_filler {
      type: "constant"
      value: 0.2
    }
  }
}
layer {
  name: "inception_4b/relu_5x5_reduce"
  type: "ReLU"
  bottom: "inception_4b/5x5_reduce"
  top: "inception_4b/5x5_reduce"
}
layer {
  name: "inception_4b/5x5"
  type: "Convolution"
  bottom: "inception_4b/5x5_reduce"
  top: "inception_4b/5x5"
  param {
    lr_mult: 1
    decay_mult: 1
  }
  param {
    lr_mult: 2
    decay_mult: 0
  }
  convolution_param {
    num_output: 64
    pad: 2
    kernel_size: 5
    weight_filler {
      type: "xavier"
      std: 0.03
    }
    bias_filler {
      type: "constant"
      value: 0.2
    }
  }
}
layer {
  name: "inception_4b/relu_5x5"
  type: "ReLU"
  bottom: "inception_4b/5x5"
  top: "inception_4b/5x5"
}
layer {
  name: "inception_4b/pool"
  type: "Pooling"
  bottom: "inception_4a/output"
  top: "inception_4b/pool"
  pooling_param {
    pool: MAX
    kernel_size: 3
    stride: 1
    pad: 1
  }
}
layer {
  name: "inception_4b/pool_proj"
  type: "Convolution"
  bottom: "inception_4b/pool"
  top: "inception_4b/pool_proj"
  param {
    lr_mult: 1
    decay_mult: 1
  }
  param {
    lr_mult: 2
    decay_mult: 0
  }
  convolution_param {
    num_output: 64
    kernel_size: 1
    weight_filler {
      type: "xavier"
      std: 0.1
    }
    bias_filler {
      type: "constant"
      value: 0.2
    }
  }
}
layer {
  name: "inception_4b/relu_pool_proj"
  type: "ReLU"
  bottom: "inception_4b/pool_proj"
  top: "inception_4b/pool_proj"
}
layer {
  name: "inception_4b/output"
  type: "Concat"
  bottom: "inception_4b/1x1"
  bottom: "inception_4b/3x3"
  bottom: "inception_4b/5x5"
  bottom: "inception_4b/pool_proj"
  top: "inception_4b/output"
}
layer {
  name: "inception_4c/1x1"
  type: "Convolution"
  bottom: "inception_4b/output"
  top: "inception_4c/1x1"
  param {
    lr_mult: 1
    decay_mult: 1
  }
  param {
    lr_mult: 2
    decay_mult: 0
  }
  convolution_param {
    num_output: 128
    kernel_size: 1
    weight_filler {
      type: "xavier"
      std: 0.03
    }
    bias_filler {
      type: "constant"
      value: 0.2
    }
  }
}
layer {
  name: "inception_4c/relu_1x1"
  type: "ReLU"
  bottom: "inception_4c/1x1"
  top: "inception_4c/1x1"
}
layer {
  name: "inception_4c/3x3_reduce"
  type: "Convolution"
  bottom: "inception_4b/output"
  top: "inception_4c/3x3_reduce"
  param {
    lr_mult: 1
    decay_mult: 1
  }
  param {
    lr_mult: 2
    decay_mult: 0
  }
  convolution_param {
    num_output: 128
    kernel_size: 1
    weight_filler {
      type: "xavier"
      std: 0.09
    }
    bias_filler {
      type: "constant"
      value: 0.2
    }
  }
}
layer {
  name: "inception_4c/relu_3x3_reduce"
  type: "ReLU"
  bottom: "inception_4c/3x3_reduce"
  top: "inception_4c/3x3_reduce"
}
layer {
  name: "inception_4c/3x3"
  type: "Convolution"
  bottom: "inception_4c/3x3_reduce"
  top: "inception_4c/3x3"
  param {
    lr_mult: 1
    decay_mult: 1
  }
  param {
    lr_mult: 2
    decay_mult: 0
  }
  convolution_param {
    num_output: 256
    pad: 1
    kernel_size: 3
    weight_filler {
      type: "xavier"
      std: 0.03
    }
    bias_filler {
      type: "constant"
      value: 0.2
    }
  }
}
layer {
  name: "inception_4c/relu_3x3"
  type: "ReLU"
  bottom: "inception_4c/3x3"
  top: "inception_4c/3x3"
}
layer {
  name: "inception_4c/5x5_reduce"
  type: "Convolution"
  bottom: "inception_4b/output"
  top: "inception_4c/5x5_reduce"
  param {
    lr_mult: 1
    decay_mult: 1
  }
  param {
    lr_mult: 2
    decay_mult: 0
  }
  convolution_param {
    num_output: 24
    kernel_size: 1
    weight_filler {
      type: "xavier"
      std: 0.2
    }
    bias_filler {
      type: "constant"
      value: 0.2
    }
  }
}
layer {
  name: "inception_4c/relu_5x5_reduce"
  type: "ReLU"
  bottom: "inception_4c/5x5_reduce"
  top: "inception_4c/5x5_reduce"
}
layer {
  name: "inception_4c/5x5"
  type: "Convolution"
  bottom: "inception_4c/5x5_reduce"
  top: "inception_4c/5x5"
  param {
    lr_mult: 1
    decay_mult: 1
  }
  param {
    lr_mult: 2
    decay_mult: 0
  }
  convolution_param {
    num_output: 64
    pad: 2
    kernel_size: 5
    weight_filler {
      type: "xavier"
      std: 0.03
    }
    bias_filler {
      type: "constant"
      value: 0.2
    }
  }
}
layer {
  name: "inception_4c/relu_5x5"
  type: "ReLU"
  bottom: "inception_4c/5x5"
  top: "inception_4c/5x5"
}
layer {
  name: "inception_4c/pool"
  type: "Pooling"
  bottom: "inception_4b/output"
  top: "inception_4c/pool"
  pooling_param {
    pool: MAX
    kernel_size: 3
    stride: 1
    pad: 1
  }
}
layer {
  name: "inception_4c/pool_proj"
  type: "Convolution"
  bottom: "inception_4c/pool"
  top: "inception_4c/pool_proj"
  param {
    lr_mult: 1
    decay_mult: 1
  }
  param {
    lr_mult: 2
    decay_mult: 0
  }
  convolution_param {
    num_output: 64
    kernel_size: 1
    weight_filler {
      type: "xavier"
      std: 0.1
    }
    bias_filler {
      type: "constant"
      value: 0.2
    }
  }
}
layer {
  name: "inception_4c/relu_pool_proj"
  type: "ReLU"
  bottom: "inception_4c/pool_proj"
  top: "inception_4c/pool_proj"
}
layer {
  name: "inception_4c/output"
  type: "Concat"
  bottom: "inception_4c/1x1"
  bottom: "inception_4c/3x3"
  bottom: "inception_4c/5x5"
  bottom: "inception_4c/pool_proj"
  top: "inception_4c/output"
}
layer {
  name: "inception_4d/1x1"
  type: "Convolution"
  bottom: "inception_4c/output"
  top: "inception_4d/1x1"
  param {
    lr_mult: 1
    decay_mult: 1
  }
  param {
    lr_mult: 2
    decay_mult: 0
  }
  convolution_param {
    num_output: 112
    kernel_size: 1
    weight_filler {
      type: "xavier"
      std: 0.03
    }
    bias_filler {
      type: "constant"
      value: 0.2
    }
  }
}
layer {
  name: "inception_4d/relu_1x1"
  type: "ReLU"
  bottom: "inception_4d/1x1"
  top: "inception_4d/1x1"
}
layer {
  name: "inception_4d/3x3_reduce"
  type: "Convolution"
  bottom: "inception_4c/output"
  top: "inception_4d/3x3_reduce"
  param {
    lr_mult: 1
    decay_mult: 1
  }
  param {
    lr_mult: 2
    decay_mult: 0
  }
  convolution_param {
    num_output: 144
    kernel_size: 1
    weight_filler {
      type: "xavier"
      std: 0.09
    }
    bias_filler {
      type: "constant"
      value: 0.2
    }
  }
}
layer {
  name: "inception_4d/relu_3x3_reduce"
  type: "ReLU"
  bottom: "inception_4d/3x3_reduce"
  top: "inception_4d/3x3_reduce"
}
layer {
  name: "inception_4d/3x3"
  type: "Convolution"
  bottom: "inception_4d/3x3_reduce"
  top: "inception_4d/3x3"
  param {
    lr_mult: 1
    decay_mult: 1
  }
  param {
    lr_mult: 2
    decay_mult: 0
  }
  convolution_param {
    num_output: 288
    pad: 1
    kernel_size: 3
    weight_filler {
      type: "xavier"
      std: 0.03
    }
    bias_filler {
      type: "constant"
      value: 0.2
    }
  }
}
layer {
  name: "inception_4d/relu_3x3"
  type: "ReLU"
  bottom: "inception_4d/3x3"
  top: "inception_4d/3x3"
}
layer {
  name: "inception_4d/5x5_reduce"
  type: "Convolution"
  bottom: "inception_4c/output"
  top: "inception_4d/5x5_reduce"
  param {
    lr_mult: 1
    decay_mult: 1
  }
  param {
    lr_mult: 2
    decay_mult: 0
  }
  convolution_param {
    num_output: 32
    kernel_size: 1
    weight_filler {
      type: "xavier"
      std: 0.2
    }
    bias_filler {
      type: "constant"
      value: 0.2
    }
  }
}
layer {
  name: "inception_4d/relu_5x5_reduce"
  type: "ReLU"
  bottom: "inception_4d/5x5_reduce"
  top: "inception_4d/5x5_reduce"
}
layer {
  name: "inception_4d/5x5"
  type: "Convolution"
  bottom: "inception_4d/5x5_reduce"
  top: "inception_4d/5x5"
  param {
    lr_mult: 1
    decay_mult: 1
  }
  param {
    lr_mult: 2
    decay_mult: 0
  }
  convolution_param {
    num_output: 64
    pad: 2
    kernel_size: 5
    weight_filler {
      type: "xavier"
      std: 0.03
    }
    bias_filler {
      type: "constant"
      value: 0.2
    }
  }
}
layer {
  name: "inception_4d/relu_5x5"
  type: "ReLU"
  bottom: "inception_4d/5x5"
  top: "inception_4d/5x5"
}
layer {
  name: "inception_4d/pool"
  type: "Pooling"
  bottom: "inception_4c/output"
  top: "inception_4d/pool"
  pooling_param {
    pool: MAX
    kernel_size: 3
    stride: 1
    pad: 1
  }
}
layer {
  name: "inception_4d/pool_proj"
  type: "Convolution"
  bottom: "inception_4d/pool"
  top: "inception_4d/pool_proj"
  param {
    lr_mult: 1
    decay_mult: 1
  }
  param {
    lr_mult: 2
    decay_mult: 0
  }
  convolution_param {
    num_output: 64
    kernel_size: 1
    weight_filler {
      type: "xavier"
      std: 0.1
    }
    bias_filler {
      type: "constant"
      value: 0.2
    }
  }
}
layer {
  name: "inception_4d/relu_pool_proj"
  type: "ReLU"
  bottom: "inception_4d/pool_proj"
  top: "inception_4d/pool_proj"
}
layer {
  name: "inception_4d/output"
  type: "Concat"
  bottom: "inception_4d/1x1"
  bottom: "inception_4d/3x3"
  bottom: "inception_4d/5x5"
  bottom: "inception_4d/pool_proj"
  top: "inception_4d/output"
}
layer {
  name: "loss2/ave_pool"
  type: "Pooling"
  bottom: "inception_4d/output"
  top: "loss2/ave_pool"
  pooling_param {
    pool: AVE
    kernel_size: 5
    stride: 3
  }
}
layer {
  name: "loss2/conv"
  type: "Convolution"
  bottom: "loss2/ave_pool"
  top: "loss2/conv"
  param {
    lr_mult: 1
    decay_mult: 1
  }
  param {
    lr_mult: 2
    decay_mult: 0
  }
  convolution_param {
    num_output: 128
    kernel_size: 1
    weight_filler {
      type: "xavier"
      std: 0.08
    }
    bias_filler {
      type: "constant"
      value: 0.2
    }
  }
}
layer {
  name: "loss2/relu_conv"
  type: "ReLU"
  bottom: "loss2/conv"
  top: "loss2/conv"
}
layer {
  name: "loss2/fc"
  type: "InnerProduct"
  bottom: "loss2/conv"
  top: "loss2/fc"
  param {
    lr_mult: 1
    decay_mult: 1
  }
  param {
    lr_mult: 2
    decay_mult: 0
  }
  inner_product_param {
    num_output: 1024
    weight_filler {
      type: "xavier"
      std: 0.02
    }
    bias_filler {
      type: "constant"
      value: 0.2
    }
  }
}
layer {
  name: "loss2/relu_fc"
  type: "ReLU"
  bottom: "loss2/fc"
  top: "loss2/fc"
}
layer {
  name: "loss2/drop_fc"
  type: "Dropout"
  bottom: "loss2/fc"
  top: "loss2/fc"
  dropout_param {
    dropout_ratio: 0.7
  }
}
layer {
  name: "loss2/classifier_plantvillage"
  type: "InnerProduct"
  bottom: "loss2/fc"
  top: "loss2/classifier_plantvillage"
  param {
    lr_mult: 1
    decay_mult: 1
  }
  param {
    lr_mult: 2
    decay_mult: 0
  }
  inner_product_param {
    num_output: 38
    weight_filler {
      type: "xavier"
      std: 0.0009765625
    }
    bias_filler {
      type: "constant"
      value: 0
    }
  }
}
layer {
  name: "inception_4e/1x1"
  type: "Convolution"
  bottom: "inception_4d/output"
  top: "inception_4e/1x1"
  param {
    lr_mult: 1
    decay_mult: 1
  }
  param {
    lr_mult: 2
    decay_mult: 0
  }
  convolution_param {
    num_output: 256
    kernel_size: 1
    weight_filler {
      type: "xavier"
      std: 0.03
    }
    bias_filler {
      type: "constant"
      value: 0.2
    }
  }
}
layer {
  name: "inception_4e/relu_1x1"
  type: "ReLU"
  bottom: "inception_4e/1x1"
  top: "inception_4e/1x1"
}
layer {
  name: "inception_4e/3x3_reduce"
  type: "Convolution"
  bottom: "inception_4d/output"
  top: "inception_4e/3x3_reduce"
  param {
    lr_mult: 1
    decay_mult: 1
  }
  param {
    lr_mult: 2
    decay_mult: 0
  }
  convolution_param {
    num_output: 160
    kernel_size: 1
    weight_filler {
      type: "xavier"
      std: 0.09
    }
    bias_filler {
      type: "constant"
      value: 0.2
    }
  }
}
layer {
  name: "inception_4e/relu_3x3_reduce"
  type: "ReLU"
  bottom: "inception_4e/3x3_reduce"
  top: "inception_4e/3x3_reduce"
}
layer {
  name: "inception_4e/3x3"
  type: "Convolution"
  bottom: "inception_4e/3x3_reduce"
  top: "inception_4e/3x3"
  param {
    lr_mult: 1
    decay_mult: 1
  }
  param {
    lr_mult: 2
    decay_mult: 0
  }
  convolution_param {
    num_output: 320
    pad: 1
    kernel_size: 3
    weight_filler {
      type: "xavier"
      std: 0.03
    }
    bias_filler {
      type: "constant"
      value: 0.2
    }
  }
}
layer {
  name: "inception_4e/relu_3x3"
  type: "ReLU"
  bottom: "inception_4e/3x3"
  top: "inception_4e/3x3"
}
layer {
  name: "inception_4e/5x5_reduce"
  type: "Convolution"
  bottom: "inception_4d/output"
  top: "inception_4e/5x5_reduce"
  param {
    lr_mult: 1
    decay_mult: 1
  }
  param {
    lr_mult: 2
    decay_mult: 0
  }
  convolution_param {
    num_output: 32
    kernel_size: 1
    weight_filler {
      type: "xavier"
      std: 0.2
    }
    bias_filler {
      type: "constant"
      value: 0.2
    }
  }
}
layer {
  name: "inception_4e/relu_5x5_reduce"
  type: "ReLU"
  bottom: "inception_4e/5x5_reduce"
  top: "inception_4e/5x5_reduce"
}
layer {
  name: "inception_4e/5x5"
  type: "Convolution"
  bottom: "inception_4e/5x5_reduce"
  top: "inception_4e/5x5"
  p
I0403 15:11:45.845883 14213 layer_factory.hpp:77] Creating layer data
I0403 15:11:45.846451 14213 net.cpp:91] Creating Layer data
I0403 15:11:45.846480 14213 net.cpp:399] data -> data
I0403 15:11:45.846529 14213 net.cpp:399] data -> label
I0403 15:11:45.846565 14213 data_transformer.cpp:25] Loading mean file from: /home/mohanty/data/final_dataset/lmdb/color-40-60/mean.binaryproto
I0403 15:11:45.849012 14216 db_lmdb.cpp:38] Opened lmdb /home/mohanty/data/final_dataset/lmdb/color-40-60/test_db
I0403 15:11:45.859845 14213 data_layer.cpp:41] output data size: 24,3,224,224
I0403 15:11:45.886508 14213 net.cpp:141] Setting up data
I0403 15:11:45.886595 14213 net.cpp:148] Top shape: 24 3 224 224 (3612672)
I0403 15:11:45.886622 14213 net.cpp:148] Top shape: 24 (24)
I0403 15:11:45.886638 14213 net.cpp:156] Memory required for data: 14450784
I0403 15:11:45.886665 14213 layer_factory.hpp:77] Creating layer label_data_1_split
I0403 15:11:45.886692 14213 net.cpp:91] Creating Layer label_data_1_split
I0403 15:11:45.886708 14213 net.cpp:425] label_data_1_split <- label
I0403 15:11:45.886740 14213 net.cpp:399] label_data_1_split -> label_data_1_split_0
I0403 15:11:45.886768 14213 net.cpp:399] label_data_1_split -> label_data_1_split_1
I0403 15:11:45.886790 14213 net.cpp:399] label_data_1_split -> label_data_1_split_2
I0403 15:11:45.886811 14213 net.cpp:399] label_data_1_split -> label_data_1_split_3
I0403 15:11:45.886829 14213 net.cpp:399] label_data_1_split -> label_data_1_split_4
I0403 15:11:45.886848 14213 net.cpp:399] label_data_1_split -> label_data_1_split_5
I0403 15:11:45.886868 14213 net.cpp:399] label_data_1_split -> label_data_1_split_6
I0403 15:11:45.886888 14213 net.cpp:399] label_data_1_split -> label_data_1_split_7
I0403 15:11:45.886906 14213 net.cpp:399] label_data_1_split -> label_data_1_split_8
I0403 15:11:45.886925 14213 net.cpp:399] label_data_1_split -> label_data_1_split_9
I0403 15:11:45.887045 14213 net.cpp:141] Setting up label_data_1_split
I0403 15:11:45.887074 14213 net.cpp:148] Top shape: 24 (24)
I0403 15:11:45.887094 14213 net.cpp:148] Top shape: 24 (24)
I0403 15:11:45.887109 14213 net.cpp:148] Top shape: 24 (24)
I0403 15:11:45.887125 14213 net.cpp:148] Top shape: 24 (24)
I0403 15:11:45.887141 14213 net.cpp:148] Top shape: 24 (24)
I0403 15:11:45.887156 14213 net.cpp:148] Top shape: 24 (24)
I0403 15:11:45.887171 14213 net.cpp:148] Top shape: 24 (24)
I0403 15:11:45.887187 14213 net.cpp:148] Top shape: 24 (24)
I0403 15:11:45.887202 14213 net.cpp:148] Top shape: 24 (24)
I0403 15:11:45.887222 14213 net.cpp:148] Top shape: 24 (24)
I0403 15:11:45.887269 14213 net.cpp:156] Memory required for data: 14451744
I0403 15:11:45.887284 14213 layer_factory.hpp:77] Creating layer conv1/7x7_s2
I0403 15:11:45.887315 14213 net.cpp:91] Creating Layer conv1/7x7_s2
I0403 15:11:45.887336 14213 net.cpp:425] conv1/7x7_s2 <- data
I0403 15:11:45.887357 14213 net.cpp:399] conv1/7x7_s2 -> conv1/7x7_s2
I0403 15:11:46.022225 14213 net.cpp:141] Setting up conv1/7x7_s2
I0403 15:11:46.022305 14213 net.cpp:148] Top shape: 24 64 112 112 (19267584)
I0403 15:11:46.022322 14213 net.cpp:156] Memory required for data: 91522080
I0403 15:11:46.022352 14213 layer_factory.hpp:77] Creating layer conv1/relu_7x7
I0403 15:11:46.022378 14213 net.cpp:91] Creating Layer conv1/relu_7x7
I0403 15:11:46.022397 14213 net.cpp:425] conv1/relu_7x7 <- conv1/7x7_s2
I0403 15:11:46.022414 14213 net.cpp:386] conv1/relu_7x7 -> conv1/7x7_s2 (in-place)
I0403 15:11:46.022670 14213 net.cpp:141] Setting up conv1/relu_7x7
I0403 15:11:46.022725 14213 net.cpp:148] Top shape: 24 64 112 112 (19267584)
I0403 15:11:46.022740 14213 net.cpp:156] Memory required for data: 168592416
I0403 15:11:46.022755 14213 layer_factory.hpp:77] Creating layer pool1/3x3_s2
I0403 15:11:46.022779 14213 net.cpp:91] Creating Layer pool1/3x3_s2
I0403 15:11:46.022797 14213 net.cpp:425] pool1/3x3_s2 <- conv1/7x7_s2
I0403 15:11:46.022815 14213 net.cpp:399] pool1/3x3_s2 -> pool1/3x3_s2
I0403 15:11:46.022888 14213 net.cpp:141] Setting up pool1/3x3_s2
I0403 15:11:46.022912 14213 net.cpp:148] Top shape: 24 64 56 56 (4816896)
I0403 15:11:46.022927 14213 net.cpp:156] Memory required for data: 187860000
I0403 15:11:46.022941 14213 layer_factory.hpp:77] Creating layer pool1/norm1
I0403 15:11:46.022965 14213 net.cpp:91] Creating Layer pool1/norm1
I0403 15:11:46.022982 14213 net.cpp:425] pool1/norm1 <- pool1/3x3_s2
I0403 15:11:46.023000 14213 net.cpp:399] pool1/norm1 -> pool1/norm1
I0403 15:11:46.023278 14213 net.cpp:141] Setting up pool1/norm1
I0403 15:11:46.023305 14213 net.cpp:148] Top shape: 24 64 56 56 (4816896)
I0403 15:11:46.023320 14213 net.cpp:156] Memory required for data: 207127584
I0403 15:11:46.023334 14213 layer_factory.hpp:77] Creating layer conv2/3x3_reduce
I0403 15:11:46.023358 14213 net.cpp:91] Creating Layer conv2/3x3_reduce
I0403 15:11:46.023375 14213 net.cpp:425] conv2/3x3_reduce <- pool1/norm1
I0403 15:11:46.023392 14213 net.cpp:399] conv2/3x3_reduce -> conv2/3x3_reduce
I0403 15:11:46.024739 14213 net.cpp:141] Setting up conv2/3x3_reduce
I0403 15:11:46.024770 14213 net.cpp:148] Top shape: 24 64 56 56 (4816896)
I0403 15:11:46.024786 14213 net.cpp:156] Memory required for data: 226395168
I0403 15:11:46.024807 14213 layer_factory.hpp:77] Creating layer conv2/relu_3x3_reduce
I0403 15:11:46.024826 14213 net.cpp:91] Creating Layer conv2/relu_3x3_reduce
I0403 15:11:46.024842 14213 net.cpp:425] conv2/relu_3x3_reduce <- conv2/3x3_reduce
I0403 15:11:46.024857 14213 net.cpp:386] conv2/relu_3x3_reduce -> conv2/3x3_reduce (in-place)
I0403 15:11:46.025102 14213 net.cpp:141] Setting up conv2/relu_3x3_reduce
I0403 15:11:46.025130 14213 net.cpp:148] Top shape: 24 64 56 56 (4816896)
I0403 15:11:46.025144 14213 net.cpp:156] Memory required for data: 245662752
I0403 15:11:46.025158 14213 layer_factory.hpp:77] Creating layer conv2/3x3
I0403 15:11:46.025179 14213 net.cpp:91] Creating Layer conv2/3x3
I0403 15:11:46.025195 14213 net.cpp:425] conv2/3x3 <- conv2/3x3_reduce
I0403 15:11:46.025213 14213 net.cpp:399] conv2/3x3 -> conv2/3x3
I0403 15:11:46.027433 14213 net.cpp:141] Setting up conv2/3x3
I0403 15:11:46.027464 14213 net.cpp:148] Top shape: 24 192 56 56 (14450688)
I0403 15:11:46.027482 14213 net.cpp:156] Memory required for data: 303465504
I0403 15:11:46.027503 14213 layer_factory.hpp:77] Creating layer conv2/relu_3x3
I0403 15:11:46.027521 14213 net.cpp:91] Creating Layer conv2/relu_3x3
I0403 15:11:46.027539 14213 net.cpp:425] conv2/relu_3x3 <- conv2/3x3
I0403 15:11:46.027557 14213 net.cpp:386] conv2/relu_3x3 -> conv2/3x3 (in-place)
I0403 15:11:46.027767 14213 net.cpp:141] Setting up conv2/relu_3x3
I0403 15:11:46.027794 14213 net.cpp:148] Top shape: 24 192 56 56 (14450688)
I0403 15:11:46.027847 14213 net.cpp:156] Memory required for data: 361268256
I0403 15:11:46.027863 14213 layer_factory.hpp:77] Creating layer conv2/norm2
I0403 15:11:46.027880 14213 net.cpp:91] Creating Layer conv2/norm2
I0403 15:11:46.027896 14213 net.cpp:425] conv2/norm2 <- conv2/3x3
I0403 15:11:46.027914 14213 net.cpp:399] conv2/norm2 -> conv2/norm2
I0403 15:11:46.028223 14213 net.cpp:141] Setting up conv2/norm2
I0403 15:11:46.028249 14213 net.cpp:148] Top shape: 24 192 56 56 (14450688)
I0403 15:11:46.028265 14213 net.cpp:156] Memory required for data: 419071008
I0403 15:11:46.028280 14213 layer_factory.hpp:77] Creating layer pool2/3x3_s2
I0403 15:11:46.028301 14213 net.cpp:91] Creating Layer pool2/3x3_s2
I0403 15:11:46.028318 14213 net.cpp:425] pool2/3x3_s2 <- conv2/norm2
I0403 15:11:46.028336 14213 net.cpp:399] pool2/3x3_s2 -> pool2/3x3_s2
I0403 15:11:46.028390 14213 net.cpp:141] Setting up pool2/3x3_s2
I0403 15:11:46.028414 14213 net.cpp:148] Top shape: 24 192 28 28 (3612672)
I0403 15:11:46.028429 14213 net.cpp:156] Memory required for data: 433521696
I0403 15:11:46.028444 14213 layer_factory.hpp:77] Creating layer pool2/3x3_s2_pool2/3x3_s2_0_split
I0403 15:11:46.028460 14213 net.cpp:91] Creating Layer pool2/3x3_s2_pool2/3x3_s2_0_split
I0403 15:11:46.028476 14213 net.cpp:425] pool2/3x3_s2_pool2/3x3_s2_0_split <- pool2/3x3_s2
I0403 15:11:46.028496 14213 net.cpp:399] pool2/3x3_s2_pool2/3x3_s2_0_split -> pool2/3x3_s2_pool2/3x3_s2_0_split_0
I0403 15:11:46.028517 14213 net.cpp:399] pool2/3x3_s2_pool2/3x3_s2_0_split -> pool2/3x3_s2_pool2/3x3_s2_0_split_1
I0403 15:11:46.028539 14213 net.cpp:399] pool2/3x3_s2_pool2/3x3_s2_0_split -> pool2/3x3_s2_pool2/3x3_s2_0_split_2
I0403 15:11:46.028560 14213 net.cpp:399] pool2/3x3_s2_pool2/3x3_s2_0_split -> pool2/3x3_s2_pool2/3x3_s2_0_split_3
I0403 15:11:46.028637 14213 net.cpp:141] Setting up pool2/3x3_s2_pool2/3x3_s2_0_split
I0403 15:11:46.028666 14213 net.cpp:148] Top shape: 24 192 28 28 (3612672)
I0403 15:11:46.028683 14213 net.cpp:148] Top shape: 24 192 28 28 (3612672)
I0403 15:11:46.028700 14213 net.cpp:148] Top shape: 24 192 28 28 (3612672)
I0403 15:11:46.028717 14213 net.cpp:148] Top shape: 24 192 28 28 (3612672)
I0403 15:11:46.028731 14213 net.cpp:156] Memory required for data: 491324448
I0403 15:11:46.028748 14213 layer_factory.hpp:77] Creating layer inception_3a/1x1
I0403 15:11:46.028769 14213 net.cpp:91] Creating Layer inception_3a/1x1
I0403 15:11:46.028785 14213 net.cpp:425] inception_3a/1x1 <- pool2/3x3_s2_pool2/3x3_s2_0_split_0
I0403 15:11:46.028805 14213 net.cpp:399] inception_3a/1x1 -> inception_3a/1x1
I0403 15:11:46.030378 14213 net.cpp:141] Setting up inception_3a/1x1
I0403 15:11:46.030408 14213 net.cpp:148] Top shape: 24 64 28 28 (1204224)
I0403 15:11:46.030426 14213 net.cpp:156] Memory required for data: 496141344
I0403 15:11:46.030444 14213 layer_factory.hpp:77] Creating layer inception_3a/relu_1x1
I0403 15:11:46.030464 14213 net.cpp:91] Creating Layer inception_3a/relu_1x1
I0403 15:11:46.030481 14213 net.cpp:425] inception_3a/relu_1x1 <- inception_3a/1x1
I0403 15:11:46.030498 14213 net.cpp:386] inception_3a/relu_1x1 -> inception_3a/1x1 (in-place)
I0403 15:11:46.030678 14213 net.cpp:141] Setting up inception_3a/relu_1x1
I0403 15:11:46.030707 14213 net.cpp:148] Top shape: 24 64 28 28 (1204224)
I0403 15:11:46.030724 14213 net.cpp:156] Memory required for data: 500958240
I0403 15:11:46.030738 14213 layer_factory.hpp:77] Creating layer inception_3a/3x3_reduce
I0403 15:11:46.030761 14213 net.cpp:91] Creating Layer inception_3a/3x3_reduce
I0403 15:11:46.030778 14213 net.cpp:425] inception_3a/3x3_reduce <- pool2/3x3_s2_pool2/3x3_s2_0_split_1
I0403 15:11:46.030797 14213 net.cpp:399] inception_3a/3x3_reduce -> inception_3a/3x3_reduce
I0403 15:11:46.032565 14213 net.cpp:141] Setting up inception_3a/3x3_reduce
I0403 15:11:46.032610 14213 net.cpp:148] Top shape: 24 96 28 28 (1806336)
I0403 15:11:46.032629 14213 net.cpp:156] Memory required for data: 508183584
I0403 15:11:46.032654 14213 layer_factory.hpp:77] Creating layer inception_3a/relu_3x3_reduce
I0403 15:11:46.032691 14213 net.cpp:91] Creating Layer inception_3a/relu_3x3_reduce
I0403 15:11:46.032711 14213 net.cpp:425] inception_3a/relu_3x3_reduce <- inception_3a/3x3_reduce
I0403 15:11:46.032757 14213 net.cpp:386] inception_3a/relu_3x3_reduce -> inception_3a/3x3_reduce (in-place)
I0403 15:11:46.032953 14213 net.cpp:141] Setting up inception_3a/relu_3x3_reduce
I0403 15:11:46.032980 14213 net.cpp:148] Top shape: 24 96 28 28 (1806336)
I0403 15:11:46.032997 14213 net.cpp:156] Memory required for data: 515408928
I0403 15:11:46.033011 14213 layer_factory.hpp:77] Creating layer inception_3a/3x3
I0403 15:11:46.033033 14213 net.cpp:91] Creating Layer inception_3a/3x3
I0403 15:11:46.033052 14213 net.cpp:425] inception_3a/3x3 <- inception_3a/3x3_reduce
I0403 15:11:46.033077 14213 net.cpp:399] inception_3a/3x3 -> inception_3a/3x3
I0403 15:11:46.034795 14213 net.cpp:141] Setting up inception_3a/3x3
I0403 15:11:46.034826 14213 net.cpp:148] Top shape: 24 128 28 28 (2408448)
I0403 15:11:46.034843 14213 net.cpp:156] Memory required for data: 525042720
I0403 15:11:46.034862 14213 layer_factory.hpp:77] Creating layer inception_3a/relu_3x3
I0403 15:11:46.034879 14213 net.cpp:91] Creating Layer inception_3a/relu_3x3
I0403 15:11:46.034894 14213 net.cpp:425] inception_3a/relu_3x3 <- inception_3a/3x3
I0403 15:11:46.034914 14213 net.cpp:386] inception_3a/relu_3x3 -> inception_3a/3x3 (in-place)
I0403 15:11:46.035187 14213 net.cpp:141] Setting up inception_3a/relu_3x3
I0403 15:11:46.035217 14213 net.cpp:148] Top shape: 24 128 28 28 (2408448)
I0403 15:11:46.035233 14213 net.cpp:156] Memory required for data: 534676512
I0403 15:11:46.035246 14213 layer_factory.hpp:77] Creating layer inception_3a/5x5_reduce
I0403 15:11:46.035269 14213 net.cpp:91] Creating Layer inception_3a/5x5_reduce
I0403 15:11:46.035285 14213 net.cpp:425] inception_3a/5x5_reduce <- pool2/3x3_s2_pool2/3x3_s2_0_split_2
I0403 15:11:46.035303 14213 net.cpp:399] inception_3a/5x5_reduce -> inception_3a/5x5_reduce
I0403 15:11:46.036262 14213 net.cpp:141] Setting up inception_3a/5x5_reduce
I0403 15:11:46.036291 14213 net.cpp:148] Top shape: 24 16 28 28 (301056)
I0403 15:11:46.036309 14213 net.cpp:156] Memory required for data: 535880736
I0403 15:11:46.036327 14213 layer_factory.hpp:77] Creating layer inception_3a/relu_5x5_reduce
I0403 15:11:46.036345 14213 net.cpp:91] Creating Layer inception_3a/relu_5x5_reduce
I0403 15:11:46.036361 14213 net.cpp:425] inception_3a/relu_5x5_reduce <- inception_3a/5x5_reduce
I0403 15:11:46.036382 14213 net.cpp:386] inception_3a/relu_5x5_reduce -> inception_3a/5x5_reduce (in-place)
I0403 15:11:46.036680 14213 net.cpp:141] Setting up inception_3a/relu_5x5_reduce
I0403 15:11:46.036706 14213 net.cpp:148] Top shape: 24 16 28 28 (301056)
I0403 15:11:46.036722 14213 net.cpp:156] Memory required for data: 537084960
I0403 15:11:46.036736 14213 layer_factory.hpp:77] Creating layer inception_3a/5x5
I0403 15:11:46.036758 14213 net.cpp:91] Creating Layer inception_3a/5x5
I0403 15:11:46.036775 14213 net.cpp:425] inception_3a/5x5 <- inception_3a/5x5_reduce
I0403 15:11:46.036797 14213 net.cpp:399] inception_3a/5x5 -> inception_3a/5x5
I0403 15:11:46.037803 14213 net.cpp:141] Setting up inception_3a/5x5
I0403 15:11:46.037832 14213 net.cpp:148] Top shape: 24 32 28 28 (602112)
I0403 15:11:46.037848 14213 net.cpp:156] Memory required for data: 539493408
I0403 15:11:46.037865 14213 layer_factory.hpp:77] Creating layer inception_3a/relu_5x5
I0403 15:11:46.037885 14213 net.cpp:91] Creating Layer inception_3a/relu_5x5
I0403 15:11:46.037901 14213 net.cpp:425] inception_3a/relu_5x5 <- inception_3a/5x5
I0403 15:11:46.037919 14213 net.cpp:386] inception_3a/relu_5x5 -> inception_3a/5x5 (in-place)
I0403 15:11:46.038092 14213 net.cpp:141] Setting up inception_3a/relu_5x5
I0403 15:11:46.038117 14213 net.cpp:148] Top shape: 24 32 28 28 (602112)
I0403 15:11:46.038131 14213 net.cpp:156] Memory required for data: 541901856
I0403 15:11:46.038146 14213 layer_factory.hpp:77] Creating layer inception_3a/pool
I0403 15:11:46.038163 14213 net.cpp:91] Creating Layer inception_3a/pool
I0403 15:11:46.038178 14213 net.cpp:425] inception_3a/pool <- pool2/3x3_s2_pool2/3x3_s2_0_split_3
I0403 15:11:46.038213 14213 net.cpp:399] inception_3a/pool -> inception_3a/pool
I0403 15:11:46.038271 14213 net.cpp:141] Setting up inception_3a/pool
I0403 15:11:46.038295 14213 net.cpp:148] Top shape: 24 192 28 28 (3612672)
I0403 15:11:46.038308 14213 net.cpp:156] Memory required for data: 556352544
I0403 15:11:46.038322 14213 layer_factory.hpp:77] Creating layer inception_3a/pool_proj
I0403 15:11:46.038347 14213 net.cpp:91] Creating Layer inception_3a/pool_proj
I0403 15:11:46.038363 14213 net.cpp:425] inception_3a/pool_proj <- inception_3a/pool
I0403 15:11:46.038383 14213 net.cpp:399] inception_3a/pool_proj -> inception_3a/pool_proj
I0403 15:11:46.039332 14213 net.cpp:141] Setting up inception_3a/pool_proj
I0403 15:11:46.039361 14213 net.cpp:148] Top shape: 24 32 28 28 (602112)
I0403 15:11:46.039377 14213 net.cpp:156] Memory required for data: 558760992
I0403 15:11:46.039400 14213 layer_factory.hpp:77] Creating layer inception_3a/relu_pool_proj
I0403 15:11:46.039422 14213 net.cpp:91] Creating Layer inception_3a/relu_pool_proj
I0403 15:11:46.039438 14213 net.cpp:425] inception_3a/relu_pool_proj <- inception_3a/pool_proj
I0403 15:11:46.039458 14213 net.cpp:386] inception_3a/relu_pool_proj -> inception_3a/pool_proj (in-place)
I0403 15:11:46.039733 14213 net.cpp:141] Setting up inception_3a/relu_pool_proj
I0403 15:11:46.039764 14213 net.cpp:148] Top shape: 24 32 28 28 (602112)
I0403 15:11:46.039783 14213 net.cpp:156] Memory required for data: 561169440
I0403 15:11:46.039798 14213 layer_factory.hpp:77] Creating layer inception_3a/output
I0403 15:11:46.039815 14213 net.cpp:91] Creating Layer inception_3a/output
I0403 15:11:46.039830 14213 net.cpp:425] inception_3a/output <- inception_3a/1x1
I0403 15:11:46.039847 14213 net.cpp:425] inception_3a/output <- inception_3a/3x3
I0403 15:11:46.039862 14213 net.cpp:425] inception_3a/output <- inception_3a/5x5
I0403 15:11:46.039877 14213 net.cpp:425] inception_3a/output <- inception_3a/pool_proj
I0403 15:11:46.039893 14213 net.cpp:399] inception_3a/output -> inception_3a/output
I0403 15:11:46.039940 14213 net.cpp:141] Setting up inception_3a/output
I0403 15:11:46.039963 14213 net.cpp:148] Top shape: 24 256 28 28 (4816896)
I0403 15:11:46.039976 14213 net.cpp:156] Memory required for data: 580437024
I0403 15:11:46.039991 14213 layer_factory.hpp:77] Creating layer inception_3a/output_inception_3a/output_0_split
I0403 15:11:46.040007 14213 net.cpp:91] Creating Layer inception_3a/output_inception_3a/output_0_split
I0403 15:11:46.040022 14213 net.cpp:425] inception_3a/output_inception_3a/output_0_split <- inception_3a/output
I0403 15:11:46.040041 14213 net.cpp:399] inception_3a/output_inception_3a/output_0_split -> inception_3a/output_inception_3a/output_0_split_0
I0403 15:11:46.040062 14213 net.cpp:399] inception_3a/output_inception_3a/output_0_split -> inception_3a/output_inception_3a/output_0_split_1
I0403 15:11:46.040086 14213 net.cpp:399] inception_3a/output_inception_3a/output_0_split -> inception_3a/output_inception_3a/output_0_split_2
I0403 15:11:46.040109 14213 net.cpp:399] inception_3a/output_inception_3a/output_0_split -> inception_3a/output_inception_3a/output_0_split_3
I0403 15:11:46.040181 14213 net.cpp:141] Setting up inception_3a/output_inception_3a/output_0_split
I0403 15:11:46.040204 14213 net.cpp:148] Top shape: 24 256 28 28 (4816896)
I0403 15:11:46.040222 14213 net.cpp:148] Top shape: 24 256 28 28 (4816896)
I0403 15:11:46.040238 14213 net.cpp:148] Top shape: 24 256 28 28 (4816896)
I0403 15:11:46.040253 14213 net.cpp:148] Top shape: 24 256 28 28 (4816896)
I0403 15:11:46.040267 14213 net.cpp:156] Memory required for data: 657507360
I0403 15:11:46.040282 14213 layer_factory.hpp:77] Creating layer inception_3b/1x1
I0403 15:11:46.040302 14213 net.cpp:91] Creating Layer inception_3b/1x1
I0403 15:11:46.040316 14213 net.cpp:425] inception_3b/1x1 <- inception_3a/output_inception_3a/output_0_split_0
I0403 15:11:46.040336 14213 net.cpp:399] inception_3b/1x1 -> inception_3b/1x1
I0403 15:11:46.041467 14213 net.cpp:141] Setting up inception_3b/1x1
I0403 15:11:46.041507 14213 net.cpp:148] Top shape: 24 128 28 28 (2408448)
I0403 15:11:46.041527 14213 net.cpp:156] Memory required for data: 667141152
I0403 15:11:46.041546 14213 layer_factory.hpp:77] Creating layer inception_3b/relu_1x1
I0403 15:11:46.041566 14213 net.cpp:91] Creating Layer inception_3b/relu_1x1
I0403 15:11:46.041584 14213 net.cpp:425] inception_3b/relu_1x1 <- inception_3b/1x1
I0403 15:11:46.041604 14213 net.cpp:386] inception_3b/relu_1x1 -> inception_3b/1x1 (in-place)
I0403 15:11:46.041781 14213 net.cpp:141] Setting up inception_3b/relu_1x1
I0403 15:11:46.041808 14213 net.cpp:148] Top shape: 24 128 28 28 (2408448)
I0403 15:11:46.041824 14213 net.cpp:156] Memory required for data: 676774944
I0403 15:11:46.041838 14213 layer_factory.hpp:77] Creating layer inception_3b/3x3_reduce
I0403 15:11:46.041860 14213 net.cpp:91] Creating Layer inception_3b/3x3_reduce
I0403 15:11:46.041877 14213 net.cpp:425] inception_3b/3x3_reduce <- inception_3a/output_inception_3a/output_0_split_1
I0403 15:11:46.041895 14213 net.cpp:399] inception_3b/3x3_reduce -> inception_3b/3x3_reduce
I0403 15:11:46.043025 14213 net.cpp:141] Setting up inception_3b/3x3_reduce
I0403 15:11:46.043052 14213 net.cpp:148] Top shape: 24 128 28 28 (2408448)
I0403 15:11:46.043067 14213 net.cpp:156] Memory required for data: 686408736
I0403 15:11:46.043086 14213 layer_factory.hpp:77] Creating layer inception_3b/relu_3x3_reduce
I0403 15:11:46.043105 14213 net.cpp:91] Creating Layer inception_3b/relu_3x3_reduce
I0403 15:11:46.043122 14213 net.cpp:425] inception_3b/relu_3x3_reduce <- inception_3b/3x3_reduce
I0403 15:11:46.043138 14213 net.cpp:386] inception_3b/relu_3x3_reduce -> inception_3b/3x3_reduce (in-place)
I0403 15:11:46.043308 14213 net.cpp:141] Setting up inception_3b/relu_3x3_reduce
I0403 15:11:46.043335 14213 net.cpp:148] Top shape: 24 128 28 28 (2408448)
I0403 15:11:46.043351 14213 net.cpp:156] Memory required for data: 696042528
I0403 15:11:46.043365 14213 layer_factory.hpp:77] Creating layer inception_3b/3x3
I0403 15:11:46.043390 14213 net.cpp:91] Creating Layer inception_3b/3x3
I0403 15:11:46.043407 14213 net.cpp:425] inception_3b/3x3 <- inception_3b/3x3_reduce
I0403 15:11:46.043428 14213 net.cpp:399] inception_3b/3x3 -> inception_3b/3x3
I0403 15:11:46.046327 14213 net.cpp:141] Setting up inception_3b/3x3
I0403 15:11:46.046360 14213 net.cpp:148] Top shape: 24 192 28 28 (3612672)
I0403 15:11:46.046376 14213 net.cpp:156] Memory required for data: 710493216
I0403 15:11:46.046396 14213 layer_factory.hpp:77] Creating layer inception_3b/relu_3x3
I0403 15:11:46.046413 14213 net.cpp:91] Creating Layer inception_3b/relu_3x3
I0403 15:11:46.046429 14213 net.cpp:425] inception_3b/relu_3x3 <- inception_3b/3x3
I0403 15:11:46.046448 14213 net.cpp:386] inception_3b/relu_3x3 -> inception_3b/3x3 (in-place)
I0403 15:11:46.046732 14213 net.cpp:141] Setting up inception_3b/relu_3x3
I0403 15:11:46.046763 14213 net.cpp:148] Top shape: 24 192 28 28 (3612672)
I0403 15:11:46.046779 14213 net.cpp:156] Memory required for data: 724943904
I0403 15:11:46.046794 14213 layer_factory.hpp:77] Creating layer inception_3b/5x5_reduce
I0403 15:11:46.046818 14213 net.cpp:91] Creating Layer inception_3b/5x5_reduce
I0403 15:11:46.046835 14213 net.cpp:425] inception_3b/5x5_reduce <- inception_3a/output_inception_3a/output_0_split_2
I0403 15:11:46.046854 14213 net.cpp:399] inception_3b/5x5_reduce -> inception_3b/5x5_reduce
I0403 15:11:46.047878 14213 net.cpp:141] Setting up inception_3b/5x5_reduce
I0403 15:11:46.047906 14213 net.cpp:148] Top shape: 24 32 28 28 (602112)
I0403 15:11:46.047922 14213 net.cpp:156] Memory required for data: 727352352
I0403 15:11:46.047941 14213 layer_factory.hpp:77] Creating layer inception_3b/relu_5x5_reduce
I0403 15:11:46.047961 14213 net.cpp:91] Creating Layer inception_3b/relu_5x5_reduce
I0403 15:11:46.047977 14213 net.cpp:425] inception_3b/relu_5x5_reduce <- inception_3b/5x5_reduce
I0403 15:11:46.047996 14213 net.cpp:386] inception_3b/relu_5x5_reduce -> inception_3b/5x5_reduce (in-place)
I0403 15:11:46.048182 14213 net.cpp:141] Setting up inception_3b/relu_5x5_reduce
I0403 15:11:46.048219 14213 net.cpp:148] Top shape: 24 32 28 28 (602112)
I0403 15:11:46.048234 14213 net.cpp:156] Memory required for data: 729760800
I0403 15:11:46.048249 14213 layer_factory.hpp:77] Creating layer inception_3b/5x5
I0403 15:11:46.048270 14213 net.cpp:91] Creating Layer inception_3b/5x5
I0403 15:11:46.048287 14213 net.cpp:425] inception_3b/5x5 <- inception_3b/5x5_reduce
I0403 15:11:46.048308 14213 net.cpp:399] inception_3b/5x5 -> inception_3b/5x5
I0403 15:11:46.050269 14213 net.cpp:141] Setting up inception_3b/5x5
I0403 15:11:46.050300 14213 net.cpp:148] Top shape: 24 96 28 28 (1806336)
I0403 15:11:46.050317 14213 net.cpp:156] Memory required for data: 736986144
I0403 15:11:46.050335 14213 layer_factory.hpp:77] Creating layer inception_3b/relu_5x5
I0403 15:11:46.050355 14213 net.cpp:91] Creating Layer inception_3b/relu_5x5
I0403 15:11:46.050374 14213 net.cpp:425] inception_3b/relu_5x5 <- inception_3b/5x5
I0403 15:11:46.050391 14213 net.cpp:386] inception_3b/relu_5x5 -> inception_3b/5x5 (in-place)
I0403 15:11:46.050582 14213 net.cpp:141] Setting up inception_3b/relu_5x5
I0403 15:11:46.050613 14213 net.cpp:148] Top shape: 24 96 28 28 (1806336)
I0403 15:11:46.050629 14213 net.cpp:156] Memory required for data: 744211488
I0403 15:11:46.050645 14213 layer_factory.hpp:77] Creating layer inception_3b/pool
I0403 15:11:46.050663 14213 net.cpp:91] Creating Layer inception_3b/pool
I0403 15:11:46.050678 14213 net.cpp:425] inception_3b/pool <- inception_3a/output_inception_3a/output_0_split_3
I0403 15:11:46.050696 14213 net.cpp:399] inception_3b/pool -> inception_3b/pool
I0403 15:11:46.050752 14213 net.cpp:141] Setting up inception_3b/pool
I0403 15:11:46.050777 14213 net.cpp:148] Top shape: 24 256 28 28 (4816896)
I0403 15:11:46.050792 14213 net.cpp:156] Memory required for data: 763479072
I0403 15:11:46.050807 14213 layer_factory.hpp:77] Creating layer inception_3b/pool_proj
I0403 15:11:46.050829 14213 net.cpp:91] Creating Layer inception_3b/pool_proj
I0403 15:11:46.050848 14213 net.cpp:425] inception_3b/pool_proj <- inception_3b/pool
I0403 15:11:46.050869 14213 net.cpp:399] inception_3b/pool_proj -> inception_3b/pool_proj
I0403 15:11:46.051930 14213 net.cpp:141] Setting up inception_3b/pool_proj
I0403 15:11:46.051959 14213 net.cpp:148] Top shape: 24 64 28 28 (1204224)
I0403 15:11:46.051975 14213 net.cpp:156] Memory required for data: 768295968
I0403 15:11:46.051993 14213 layer_factory.hpp:77] Creating layer inception_3b/relu_pool_proj
I0403 15:11:46.052012 14213 net.cpp:91] Creating Layer inception_3b/relu_pool_proj
I0403 15:11:46.052028 14213 net.cpp:425] inception_3b/relu_pool_proj <- inception_3b/pool_proj
I0403 15:11:46.052047 14213 net.cpp:386] inception_3b/relu_pool_proj -> inception_3b/pool_proj (in-place)
I0403 15:11:46.052444 14213 net.cpp:141] Setting up inception_3b/relu_pool_proj
I0403 15:11:46.052472 14213 net.cpp:148] Top shape: 24 64 28 28 (1204224)
I0403 15:11:46.052489 14213 net.cpp:156] Memory required for data: 773112864
I0403 15:11:46.052502 14213 layer_factory.hpp:77] Creating layer inception_3b/output
I0403 15:11:46.052520 14213 net.cpp:91] Creating Layer inception_3b/output
I0403 15:11:46.052534 14213 net.cpp:425] inception_3b/output <- inception_3b/1x1
I0403 15:11:46.052551 14213 net.cpp:425] inception_3b/output <- inception_3b/3x3
I0403 15:11:46.052567 14213 net.cpp:425] inception_3b/output <- inception_3b/5x5
I0403 15:11:46.052582 14213 net.cpp:425] inception_3b/output <- inception_3b/pool_proj
I0403 15:11:46.052604 14213 net.cpp:399] inception_3b/output -> inception_3b/output
I0403 15:11:46.052649 14213 net.cpp:141] Setting up inception_3b/output
I0403 15:11:46.052671 14213 net.cpp:148] Top shape: 24 480 28 28 (9031680)
I0403 15:11:46.052686 14213 net.cpp:156] Memory required for data: 809239584
I0403 15:11:46.052700 14213 layer_factory.hpp:77] Creating layer pool3/3x3_s2
I0403 15:11:46.052719 14213 net.cpp:91] Creating Layer pool3/3x3_s2
I0403 15:11:46.052736 14213 net.cpp:425] pool3/3x3_s2 <- inception_3b/output
I0403 15:11:46.052753 14213 net.cpp:399] pool3/3x3_s2 -> pool3/3x3_s2
I0403 15:11:46.052826 14213 net.cpp:141] Setting up pool3/3x3_s2
I0403 15:11:46.052850 14213 net.cpp:148] Top shape: 24 480 14 14 (2257920)
I0403 15:11:46.052863 14213 net.cpp:156] Memory required for data: 818271264
I0403 15:11:46.052877 14213 layer_factory.hpp:77] Creating layer pool3/3x3_s2_pool3/3x3_s2_0_split
I0403 15:11:46.052894 14213 net.cpp:91] Creating Layer pool3/3x3_s2_pool3/3x3_s2_0_split
I0403 15:11:46.052908 14213 net.cpp:425] pool3/3x3_s2_pool3/3x3_s2_0_split <- pool3/3x3_s2
I0403 15:11:46.052927 14213 net.cpp:399] pool3/3x3_s2_pool3/3x3_s2_0_split -> pool3/3x3_s2_pool3/3x3_s2_0_split_0
I0403 15:11:46.052947 14213 net.cpp:399] pool3/3x3_s2_pool3/3x3_s2_0_split -> pool3/3x3_s2_pool3/3x3_s2_0_split_1
I0403 15:11:46.052968 14213 net.cpp:399] pool3/3x3_s2_pool3/3x3_s2_0_split -> pool3/3x3_s2_pool3/3x3_s2_0_split_2
I0403 15:11:46.052985 14213 net.cpp:399] pool3/3x3_s2_pool3/3x3_s2_0_split -> pool3/3x3_s2_pool3/3x3_s2_0_split_3
I0403 15:11:46.053062 14213 net.cpp:141] Setting up pool3/3x3_s2_pool3/3x3_s2_0_split
I0403 15:11:46.053084 14213 net.cpp:148] Top shape: 24 480 14 14 (2257920)
I0403 15:11:46.053100 14213 net.cpp:148] Top shape: 24 480 14 14 (2257920)
I0403 15:11:46.053117 14213 net.cpp:148] Top shape: 24 480 14 14 (2257920)
I0403 15:11:46.053130 14213 net.cpp:148] Top shape: 24 480 14 14 (2257920)
I0403 15:11:46.053143 14213 net.cpp:156] Memory required for data: 854397984
I0403 15:11:46.053158 14213 layer_factory.hpp:77] Creating layer inception_4a/1x1
I0403 15:11:46.053179 14213 net.cpp:91] Creating Layer inception_4a/1x1
I0403 15:11:46.053196 14213 net.cpp:425] inception_4a/1x1 <- pool3/3x3_s2_pool3/3x3_s2_0_split_0
I0403 15:11:46.053217 14213 net.cpp:399] inception_4a/1x1 -> inception_4a/1x1
I0403 15:11:46.054783 14213 net.cpp:141] Setting up inception_4a/1x1
I0403 15:11:46.054814 14213 net.cpp:148] Top shape: 24 192 14 14 (903168)
I0403 15:11:46.054831 14213 net.cpp:156] Memory required for data: 858010656
I0403 15:11:46.054849 14213 layer_factory.hpp:77] Creating layer inception_4a/relu_1x1
I0403 15:11:46.054868 14213 net.cpp:91] Creating Layer inception_4a/relu_1x1
I0403 15:11:46.054883 14213 net.cpp:425] inception_4a/relu_1x1 <- inception_4a/1x1
I0403 15:11:46.054903 14213 net.cpp:386] inception_4a/relu_1x1 -> inception_4a/1x1 (in-place)
I0403 15:11:46.055078 14213 net.cpp:141] Setting up inception_4a/relu_1x1
I0403 15:11:46.055102 14213 net.cpp:148] Top shape: 24 192 14 14 (903168)
I0403 15:11:46.055117 14213 net.cpp:156] Memory required for data: 861623328
I0403 15:11:46.055131 14213 layer_factory.hpp:77] Creating layer inception_4a/3x3_reduce
I0403 15:11:46.055153 14213 net.cpp:91] Creating Layer inception_4a/3x3_reduce
I0403 15:11:46.055171 14213 net.cpp:425] inception_4a/3x3_reduce <- pool3/3x3_s2_pool3/3x3_s2_0_split_1
I0403 15:11:46.055191 14213 net.cpp:399] inception_4a/3x3_reduce -> inception_4a/3x3_reduce
I0403 15:11:46.056494 14213 net.cpp:141] Setting up inception_4a/3x3_reduce
I0403 15:11:46.056524 14213 net.cpp:148] Top shape: 24 96 14 14 (451584)
I0403 15:11:46.056542 14213 net.cpp:156] Memory required for data: 863429664
I0403 15:11:46.056567 14213 layer_factory.hpp:77] Creating layer inception_4a/relu_3x3_reduce
I0403 15:11:46.056589 14213 net.cpp:91] Creating Layer inception_4a/relu_3x3_reduce
I0403 15:11:46.056612 14213 net.cpp:425] inception_4a/relu_3x3_reduce <- inception_4a/3x3_reduce
I0403 15:11:46.056633 14213 net.cpp:386] inception_4a/relu_3x3_reduce -> inception_4a/3x3_reduce (in-place)
I0403 15:11:46.056812 14213 net.cpp:141] Setting up inception_4a/relu_3x3_reduce
I0403 15:11:46.056838 14213 net.cpp:148] Top shape: 24 96 14 14 (451584)
I0403 15:11:46.056852 14213 net.cpp:156] Memory required for data: 865236000
I0403 15:11:46.056867 14213 layer_factory.hpp:77] Creating layer inception_4a/3x3
I0403 15:11:46.056890 14213 net.cpp:91] Creating Layer inception_4a/3x3
I0403 15:11:46.056907 14213 net.cpp:425] inception_4a/3x3 <- inception_4a/3x3_reduce
I0403 15:11:46.056931 14213 net.cpp:399] inception_4a/3x3 -> inception_4a/3x3
I0403 15:11:46.059617 14213 net.cpp:141] Setting up inception_4a/3x3
I0403 15:11:46.059646 14213 net.cpp:148] Top shape: 24 208 14 14 (978432)
I0403 15:11:46.059662 14213 net.cpp:156] Memory required for data: 869149728
I0403 15:11:46.059680 14213 layer_factory.hpp:77] Creating layer inception_4a/relu_3x3
I0403 15:11:46.059701 14213 net.cpp:91] Creating Layer inception_4a/relu_3x3
I0403 15:11:46.059720 14213 net.cpp:425] inception_4a/relu_3x3 <- inception_4a/3x3
I0403 15:11:46.059737 14213 net.cpp:386] inception_4a/relu_3x3 -> inception_4a/3x3 (in-place)
I0403 15:11:46.060017 14213 net.cpp:141] Setting up inception_4a/relu_3x3
I0403 15:11:46.060044 14213 net.cpp:148] Top shape: 24 208 14 14 (978432)
I0403 15:11:46.060060 14213 net.cpp:156] Memory required for data: 873063456
I0403 15:11:46.060073 14213 layer_factory.hpp:77] Creating layer inception_4a/5x5_reduce
I0403 15:11:46.060096 14213 net.cpp:91] Creating Layer inception_4a/5x5_reduce
I0403 15:11:46.060114 14213 net.cpp:425] inception_4a/5x5_reduce <- pool3/3x3_s2_pool3/3x3_s2_0_split_2
I0403 15:11:46.060137 14213 net.cpp:399] inception_4a/5x5_reduce -> inception_4a/5x5_reduce
I0403 15:11:46.061189 14213 net.cpp:141] Setting up inception_4a/5x5_reduce
I0403 15:11:46.061218 14213 net.cpp:148] Top shape: 24 16 14 14 (75264)
I0403 15:11:46.061234 14213 net.cpp:156] Memory required for data: 873364512
I0403 15:11:46.061252 14213 layer_factory.hpp:77] Creating layer inception_4a/relu_5x5_reduce
I0403 15:11:46.061274 14213 net.cpp:91] Creating Layer inception_4a/relu_5x5_reduce
I0403 15:11:46.061290 14213 net.cpp:425] inception_4a/relu_5x5_reduce <- inception_4a/5x5_reduce
I0403 15:11:46.061308 14213 net.cpp:386] inception_4a/relu_5x5_reduce -> inception_4a/5x5_reduce (in-place)
I0403 15:11:46.061486 14213 net.cpp:141] Setting up inception_4a/relu_5x5_reduce
I0403 15:11:46.061511 14213 net.cpp:148] Top shape: 24 16 14 14 (75264)
I0403 15:11:46.061527 14213 net.cpp:156] Memory required for data: 873665568
I0403 15:11:46.061542 14213 layer_factory.hpp:77] Creating layer inception_4a/5x5
I0403 15:11:46.061563 14213 net.cpp:91] Creating Layer inception_4a/5x5
I0403 15:11:46.061580 14213 net.cpp:425] inception_4a/5x5 <- inception_4a/5x5_reduce
I0403 15:11:46.061606 14213 net.cpp:399] inception_4a/5x5 -> inception_4a/5x5
I0403 15:11:46.062703 14213 net.cpp:141] Setting up inception_4a/5x5
I0403 15:11:46.062734 14213 net.cpp:148] Top shape: 24 48 14 14 (225792)
I0403 15:11:46.062752 14213 net.cpp:156] Memory required for data: 874568736
I0403 15:11:46.062770 14213 layer_factory.hpp:77] Creating layer inception_4a/relu_5x5
I0403 15:11:46.062788 14213 net.cpp:91] Creating Layer inception_4a/relu_5x5
I0403 15:11:46.062804 14213 net.cpp:425] inception_4a/relu_5x5 <- inception_4a/5x5
I0403 15:11:46.062824 14213 net.cpp:386] inception_4a/relu_5x5 -> inception_4a/5x5 (in-place)
I0403 15:11:46.063004 14213 net.cpp:141] Setting up inception_4a/relu_5x5
I0403 15:11:46.063030 14213 net.cpp:148] Top shape: 24 48 14 14 (225792)
I0403 15:11:46.063045 14213 net.cpp:156] Memory required for data: 875471904
I0403 15:11:46.063058 14213 layer_factory.hpp:77] Creating layer inception_4a/pool
I0403 15:11:46.063076 14213 net.cpp:91] Creating Layer inception_4a/pool
I0403 15:11:46.063091 14213 net.cpp:425] inception_4a/pool <- pool3/3x3_s2_pool3/3x3_s2_0_split_3
I0403 15:11:46.063110 14213 net.cpp:399] inception_4a/pool -> inception_4a/pool
I0403 15:11:46.063174 14213 net.cpp:141] Setting up inception_4a/pool
I0403 15:11:46.063196 14213 net.cpp:148] Top shape: 24 480 14 14 (2257920)
I0403 15:11:46.063210 14213 net.cpp:156] Memory required for data: 884503584
I0403 15:11:46.063225 14213 layer_factory.hpp:77] Creating layer inception_4a/pool_proj
I0403 15:11:46.063246 14213 net.cpp:91] Creating Layer inception_4a/pool_proj
I0403 15:11:46.063262 14213 net.cpp:425] inception_4a/pool_proj <- inception_4a/pool
I0403 15:11:46.063282 14213 net.cpp:399] inception_4a/pool_proj -> inception_4a/pool_proj
I0403 15:11:46.064461 14213 net.cpp:141] Setting up inception_4a/pool_proj
I0403 15:11:46.064488 14213 net.cpp:148] Top shape: 24 64 14 14 (301056)
I0403 15:11:46.064519 14213 net.cpp:156] Memory required for data: 885707808
I0403 15:11:46.064538 14213 layer_factory.hpp:77] Creating layer inception_4a/relu_pool_proj
I0403 15:11:46.064559 14213 net.cpp:91] Creating Layer inception_4a/relu_pool_proj
I0403 15:11:46.064576 14213 net.cpp:425] inception_4a/relu_pool_proj <- inception_4a/pool_proj
I0403 15:11:46.064594 14213 net.cpp:386] inception_4a/relu_pool_proj -> inception_4a/pool_proj (in-place)
I0403 15:11:46.064899 14213 net.cpp:141] Setting up inception_4a/relu_pool_proj
I0403 15:11:46.064929 14213 net.cpp:148] Top shape: 24 64 14 14 (301056)
I0403 15:11:46.064944 14213 net.cpp:156] Memory required for data: 886912032
I0403 15:11:46.064957 14213 layer_factory.hpp:77] Creating layer inception_4a/output
I0403 15:11:46.064975 14213 net.cpp:91] Creating Layer inception_4a/output
I0403 15:11:46.064990 14213 net.cpp:425] inception_4a/output <- inception_4a/1x1
I0403 15:11:46.065006 14213 net.cpp:425] inception_4a/output <- inception_4a/3x3
I0403 15:11:46.065021 14213 net.cpp:425] inception_4a/output <- inception_4a/5x5
I0403 15:11:46.065035 14213 net.cpp:425] inception_4a/output <- inception_4a/pool_proj
I0403 15:11:46.065054 14213 net.cpp:399] inception_4a/output -> inception_4a/output
I0403 15:11:46.065099 14213 net.cpp:141] Setting up inception_4a/output
I0403 15:11:46.065124 14213 net.cpp:148] Top shape: 24 512 14 14 (2408448)
I0403 15:11:46.065138 14213 net.cpp:156] Memory required for data: 896545824
I0403 15:11:46.065152 14213 layer_factory.hpp:77] Creating layer inception_4a/output_inception_4a/output_0_split
I0403 15:11:46.065170 14213 net.cpp:91] Creating Layer inception_4a/output_inception_4a/output_0_split
I0403 15:11:46.065184 14213 net.cpp:425] inception_4a/output_inception_4a/output_0_split <- inception_4a/output
I0403 15:11:46.065203 14213 net.cpp:399] inception_4a/output_inception_4a/output_0_split -> inception_4a/output_inception_4a/output_0_split_0
I0403 15:11:46.065223 14213 net.cpp:399] inception_4a/output_inception_4a/output_0_split -> inception_4a/output_inception_4a/output_0_split_1
I0403 15:11:46.065244 14213 net.cpp:399] inception_4a/output_inception_4a/output_0_split -> inception_4a/output_inception_4a/output_0_split_2
I0403 15:11:46.065264 14213 net.cpp:399] inception_4a/output_inception_4a/output_0_split -> inception_4a/output_inception_4a/output_0_split_3
I0403 15:11:46.065284 14213 net.cpp:399] inception_4a/output_inception_4a/output_0_split -> inception_4a/output_inception_4a/output_0_split_4
I0403 15:11:46.065376 14213 net.cpp:141] Setting up inception_4a/output_inception_4a/output_0_split
I0403 15:11:46.065397 14213 net.cpp:148] Top shape: 24 512 14 14 (2408448)
I0403 15:11:46.065413 14213 net.cpp:148] Top shape: 24 512 14 14 (2408448)
I0403 15:11:46.065428 14213 net.cpp:148] Top shape: 24 512 14 14 (2408448)
I0403 15:11:46.065443 14213 net.cpp:148] Top shape: 24 512 14 14 (2408448)
I0403 15:11:46.065459 14213 net.cpp:148] Top shape: 24 512 14 14 (2408448)
I0403 15:11:46.065471 14213 net.cpp:156] Memory required for data: 944714784
I0403 15:11:46.065485 14213 layer_factory.hpp:77] Creating layer loss1/ave_pool
I0403 15:11:46.065505 14213 net.cpp:91] Creating Layer loss1/ave_pool
I0403 15:11:46.065521 14213 net.cpp:425] loss1/ave_pool <- inception_4a/output_inception_4a/output_0_split_0
I0403 15:11:46.065538 14213 net.cpp:399] loss1/ave_pool -> loss1/ave_pool
I0403 15:11:46.065753 14213 net.cpp:141] Setting up loss1/ave_pool
I0403 15:11:46.065778 14213 net.cpp:148] Top shape: 24 512 4 4 (196608)
I0403 15:11:46.065793 14213 net.cpp:156] Memory required for data: 945501216
I0403 15:11:46.065807 14213 layer_factory.hpp:77] Creating layer loss1/conv
I0403 15:11:46.065830 14213 net.cpp:91] Creating Layer loss1/conv
I0403 15:11:46.065847 14213 net.cpp:425] loss1/conv <- loss1/ave_pool
I0403 15:11:46.065868 14213 net.cpp:399] loss1/conv -> loss1/conv
I0403 15:11:46.067279 14213 net.cpp:141] Setting up loss1/conv
I0403 15:11:46.067308 14213 net.cpp:148] Top shape: 24 128 4 4 (49152)
I0403 15:11:46.067323 14213 net.cpp:156] Memory required for data: 945697824
I0403 15:11:46.067358 14213 layer_factory.hpp:77] Creating layer loss1/relu_conv
I0403 15:11:46.067379 14213 net.cpp:91] Creating Layer loss1/relu_conv
I0403 15:11:46.067397 14213 net.cpp:425] loss1/relu_conv <- loss1/conv
I0403 15:11:46.067416 14213 net.cpp:386] loss1/relu_conv -> loss1/conv (in-place)
I0403 15:11:46.067703 14213 net.cpp:141] Setting up loss1/relu_conv
I0403 15:11:46.067729 14213 net.cpp:148] Top shape: 24 128 4 4 (49152)
I0403 15:11:46.067744 14213 net.cpp:156] Memory required for data: 945894432
I0403 15:11:46.067759 14213 layer_factory.hpp:77] Creating layer loss1/fc
I0403 15:11:46.067785 14213 net.cpp:91] Creating Layer loss1/fc
I0403 15:11:46.067805 14213 net.cpp:425] loss1/fc <- loss1/conv
I0403 15:11:46.067826 14213 net.cpp:399] loss1/fc -> loss1/fc
I0403 15:11:46.085163 14213 net.cpp:141] Setting up loss1/fc
I0403 15:11:46.085197 14213 net.cpp:148] Top shape: 24 1024 (24576)
I0403 15:11:46.085213 14213 net.cpp:156] Memory required for data: 945992736
I0403 15:11:46.085232 14213 layer_factory.hpp:77] Creating layer loss1/relu_fc
I0403 15:11:46.085249 14213 net.cpp:91] Creating Layer loss1/relu_fc
I0403 15:11:46.085265 14213 net.cpp:425] loss1/relu_fc <- loss1/fc
I0403 15:11:46.085284 14213 net.cpp:386] loss1/relu_fc -> loss1/fc (in-place)
I0403 15:11:46.085469 14213 net.cpp:141] Setting up loss1/relu_fc
I0403 15:11:46.085495 14213 net.cpp:148] Top shape: 24 1024 (24576)
I0403 15:11:46.085510 14213 net.cpp:156] Memory required for data: 946091040
I0403 15:11:46.085525 14213 layer_factory.hpp:77] Creating layer loss1/drop_fc
I0403 15:11:46.085556 14213 net.cpp:91] Creating Layer loss1/drop_fc
I0403 15:11:46.085573 14213 net.cpp:425] loss1/drop_fc <- loss1/fc
I0403 15:11:46.085592 14213 net.cpp:386] loss1/drop_fc -> loss1/fc (in-place)
I0403 15:11:46.085650 14213 net.cpp:141] Setting up loss1/drop_fc
I0403 15:11:46.085672 14213 net.cpp:148] Top shape: 24 1024 (24576)
I0403 15:11:46.085686 14213 net.cpp:156] Memory required for data: 946189344
I0403 15:11:46.085700 14213 layer_factory.hpp:77] Creating layer loss1/classifier_plantvillage
I0403 15:11:46.085717 14213 net.cpp:91] Creating Layer loss1/classifier_plantvillage
I0403 15:11:46.085732 14213 net.cpp:425] loss1/classifier_plantvillage <- loss1/fc
I0403 15:11:46.085752 14213 net.cpp:399] loss1/classifier_plantvillage -> loss1/classifier_plantvillage
I0403 15:11:46.086638 14213 net.cpp:141] Setting up loss1/classifier_plantvillage
I0403 15:11:46.086665 14213 net.cpp:148] Top shape: 24 38 (912)
I0403 15:11:46.086681 14213 net.cpp:156] Memory required for data: 946192992
I0403 15:11:46.086699 14213 layer_factory.hpp:77] Creating layer loss1/classifier_plantvillage_loss1/classifier_plantvillage_0_split
I0403 15:11:46.086717 14213 net.cpp:91] Creating Layer loss1/classifier_plantvillage_loss1/classifier_plantvillage_0_split
I0403 15:11:46.086733 14213 net.cpp:425] loss1/classifier_plantvillage_loss1/classifier_plantvillage_0_split <- loss1/classifier_plantvillage
I0403 15:11:46.086750 14213 net.cpp:399] loss1/classifier_plantvillage_loss1/classifier_plantvillage_0_split -> loss1/classifier_plantvillage_loss1/classifier_plantvillage_0_split_0
I0403 15:11:46.086771 14213 net.cpp:399] loss1/classifier_plantvillage_loss1/classifier_plantvillage_0_split -> loss1/classifier_plantvillage_loss1/classifier_plantvillage_0_split_1
I0403 15:11:46.086789 14213 net.cpp:399] loss1/classifier_plantvillage_loss1/classifier_plantvillage_0_split -> loss1/classifier_plantvillage_loss1/classifier_plantvillage_0_split_2
I0403 15:11:46.086855 14213 net.cpp:141] Setting up loss1/classifier_plantvillage_loss1/classifier_plantvillage_0_split
I0403 15:11:46.086879 14213 net.cpp:148] Top shape: 24 38 (912)
I0403 15:11:46.086894 14213 net.cpp:148] Top shape: 24 38 (912)
I0403 15:11:46.086908 14213 net.cpp:148] Top shape: 24 38 (912)
I0403 15:11:46.086921 14213 net.cpp:156] Memory required for data: 946203936
I0403 15:11:46.086935 14213 layer_factory.hpp:77] Creating layer inception_4b/1x1
I0403 15:11:46.086956 14213 net.cpp:91] Creating Layer inception_4b/1x1
I0403 15:11:46.086987 14213 net.cpp:425] inception_4b/1x1 <- inception_4a/output_inception_4a/output_0_split_1
I0403 15:11:46.087007 14213 net.cpp:399] inception_4b/1x1 -> inception_4b/1x1
I0403 15:11:46.088616 14213 net.cpp:141] Setting up inception_4b/1x1
I0403 15:11:46.088645 14213 net.cpp:148] Top shape: 24 160 14 14 (752640)
I0403 15:11:46.088661 14213 net.cpp:156] Memory required for data: 949214496
I0403 15:11:46.088680 14213 layer_factory.hpp:77] Creating layer inception_4b/relu_1x1
I0403 15:11:46.088699 14213 net.cpp:91] Creating Layer inception_4b/relu_1x1
I0403 15:11:46.088716 14213 net.cpp:425] inception_4b/relu_1x1 <- inception_4b/1x1
I0403 15:11:46.088734 14213 net.cpp:386] inception_4b/relu_1x1 -> inception_4b/1x1 (in-place)
I0403 15:11:46.088908 14213 net.cpp:141] Setting up inception_4b/relu_1x1
I0403 15:11:46.088933 14213 net.cpp:148] Top shape: 24 160 14 14 (752640)
I0403 15:11:46.088948 14213 net.cpp:156] Memory required for data: 952225056
I0403 15:11:46.088961 14213 layer_factory.hpp:77] Creating layer inception_4b/3x3_reduce
I0403 15:11:46.088984 14213 net.cpp:91] Creating Layer inception_4b/3x3_reduce
I0403 15:11:46.089002 14213 net.cpp:425] inception_4b/3x3_reduce <- inception_4a/output_inception_4a/output_0_split_2
I0403 15:11:46.089022 14213 net.cpp:399] inception_4b/3x3_reduce -> inception_4b/3x3_reduce
I0403 15:11:46.090334 14213 net.cpp:141] Setting up inception_4b/3x3_reduce
I0403 15:11:46.090365 14213 net.cpp:148] Top shape: 24 112 14 14 (526848)
I0403 15:11:46.090383 14213 net.cpp:156] Memory required for data: 954332448
I0403 15:11:46.090400 14213 layer_factory.hpp:77] Creating layer inception_4b/relu_3x3_reduce
I0403 15:11:46.090420 14213 net.cpp:91] Creating Layer inception_4b/relu_3x3_reduce
I0403 15:11:46.090435 14213 net.cpp:425] inception_4b/relu_3x3_reduce <- inception_4b/3x3_reduce
I0403 15:11:46.090454 14213 net.cpp:386] inception_4b/relu_3x3_reduce -> inception_4b/3x3_reduce (in-place)
I0403 15:11:46.090735 14213 net.cpp:141] Setting up inception_4b/relu_3x3_reduce
I0403 15:11:46.090764 14213 net.cpp:148] Top shape: 24 112 14 14 (526848)
I0403 15:11:46.090781 14213 net.cpp:156] Memory required for data: 956439840
I0403 15:11:46.090795 14213 layer_factory.hpp:77] Creating layer inception_4b/3x3
I0403 15:11:46.090816 14213 net.cpp:91] Creating Layer inception_4b/3x3
I0403 15:11:46.090836 14213 net.cpp:425] inception_4b/3x3 <- inception_4b/3x3_reduce
I0403 15:11:46.090855 14213 net.cpp:399] inception_4b/3x3 -> inception_4b/3x3
I0403 15:11:46.093750 14213 net.cpp:141] Setting up inception_4b/3x3
I0403 15:11:46.093780 14213 net.cpp:148] Top shape: 24 224 14 14 (1053696)
I0403 15:11:46.093796 14213 net.cpp:156] Memory required for data: 960654624
I0403 15:11:46.093816 14213 layer_factory.hpp:77] Creating layer inception_4b/relu_3x3
I0403 15:11:46.093835 14213 net.cpp:91] Creating Layer inception_4b/relu_3x3
I0403 15:11:46.093852 14213 net.cpp:425] inception_4b/relu_3x3 <- inception_4b/3x3
I0403 15:11:46.093868 14213 net.cpp:386] inception_4b/relu_3x3 -> inception_4b/3x3 (in-place)
I0403 15:11:46.094044 14213 net.cpp:141] Setting up inception_4b/relu_3x3
I0403 15:11:46.094069 14213 net.cpp:148] Top shape: 24 224 14 14 (1053696)
I0403 15:11:46.094082 14213 net.cpp:156] Memory required for data: 964869408
I0403 15:11:46.094096 14213 layer_factory.hpp:77] Creating layer inception_4b/5x5_reduce
I0403 15:11:46.094117 14213 net.cpp:91] Creating Layer inception_4b/5x5_reduce
I0403 15:11:46.094135 14213 net.cpp:425] inception_4b/5x5_reduce <- inception_4a/output_inception_4a/output_0_split_3
I0403 15:11:46.094156 14213 net.cpp:399] inception_4b/5x5_reduce -> inception_4b/5x5_reduce
I0403 15:11:46.095235 14213 net.cpp:141] Setting up inception_4b/5x5_reduce
I0403 15:11:46.095265 14213 net.cpp:148] Top shape: 24 24 14 14 (112896)
I0403 15:11:46.095283 14213 net.cpp:156] Memory required for data: 965320992
I0403 15:11:46.095300 14213 layer_factory.hpp:77] Creating layer inception_4b/relu_5x5_reduce
I0403 15:11:46.095319 14213 net.cpp:91] Creating Layer inception_4b/relu_5x5_reduce
I0403 15:11:46.095350 14213 net.cpp:425] inception_4b/relu_5x5_reduce <- inception_4b/5x5_reduce
I0403 15:11:46.095367 14213 net.cpp:386] inception_4b/relu_5x5_reduce -> inception_4b/5x5_reduce (in-place)
I0403 15:11:46.095547 14213 net.cpp:141] Setting up inception_4b/relu_5x5_reduce
I0403 15:11:46.095572 14213 net.cpp:148] Top shape: 24 24 14 14 (112896)
I0403 15:11:46.095587 14213 net.cpp:156] Memory required for data: 965772576
I0403 15:11:46.095604 14213 layer_factory.hpp:77] Creating layer inception_4b/5x5
I0403 15:11:46.095628 14213 net.cpp:91] Creating Layer inception_4b/5x5
I0403 15:11:46.095645 14213 net.cpp:425] inception_4b/5x5 <- inception_4b/5x5_reduce
I0403 15:11:46.095664 14213 net.cpp:399] inception_4b/5x5 -> inception_4b/5x5
I0403 15:11:46.096855 14213 net.cpp:141] Setting up inception_4b/5x5
I0403 15:11:46.096884 14213 net.cpp:148] Top shape: 24 64 14 14 (301056)
I0403 15:11:46.096907 14213 net.cpp:156] Memory required for data: 966976800
I0403 15:11:46.096925 14213 layer_factory.hpp:77] Creating layer inception_4b/relu_5x5
I0403 15:11:46.096946 14213 net.cpp:91] Creating Layer inception_4b/relu_5x5
I0403 15:11:46.096962 14213 net.cpp:425] inception_4b/relu_5x5 <- inception_4b/5x5
I0403 15:11:46.096979 14213 net.cpp:386] inception_4b/relu_5x5 -> inception_4b/5x5 (in-place)
I0403 15:11:46.097259 14213 net.cpp:141] Setting up inception_4b/relu_5x5
I0403 15:11:46.097286 14213 net.cpp:148] Top shape: 24 64 14 14 (301056)
I0403 15:11:46.097301 14213 net.cpp:156] Memory required for data: 968181024
I0403 15:11:46.097316 14213 layer_factory.hpp:77] Creating layer inception_4b/pool
I0403 15:11:46.097337 14213 net.cpp:91] Creating Layer inception_4b/pool
I0403 15:11:46.097355 14213 net.cpp:425] inception_4b/pool <- inception_4a/output_inception_4a/output_0_split_4
I0403 15:11:46.097374 14213 net.cpp:399] inception_4b/pool -> inception_4b/pool
I0403 15:11:46.097437 14213 net.cpp:141] Setting up inception_4b/pool
I0403 15:11:46.097460 14213 net.cpp:148] Top shape: 24 512 14 14 (2408448)
I0403 15:11:46.097475 14213 net.cpp:156] Memory required for data: 977814816
I0403 15:11:46.097488 14213 layer_factory.hpp:77] Creating layer inception_4b/pool_proj
I0403 15:11:46.097509 14213 net.cpp:91] Creating Layer inception_4b/pool_proj
I0403 15:11:46.097527 14213 net.cpp:425] inception_4b/pool_proj <- inception_4b/pool
I0403 15:11:46.097548 14213 net.cpp:399] inception_4b/pool_proj -> inception_4b/pool_proj
I0403 15:11:46.098723 14213 net.cpp:141] Setting up inception_4b/pool_proj
I0403 15:11:46.098752 14213 net.cpp:148] Top shape: 24 64 14 14 (301056)
I0403 15:11:46.098768 14213 net.cpp:156] Memory required for data: 979019040
I0403 15:11:46.098786 14213 layer_factory.hpp:77] Creating layer inception_4b/relu_pool_proj
I0403 15:11:46.098805 14213 net.cpp:91] Creating Layer inception_4b/relu_pool_proj
I0403 15:11:46.098822 14213 net.cpp:425] inception_4b/relu_pool_proj <- inception_4b/pool_proj
I0403 15:11:46.098839 14213 net.cpp:386] inception_4b/relu_pool_proj -> inception_4b/pool_proj (in-place)
I0403 15:11:46.099015 14213 net.cpp:141] Setting up inception_4b/relu_pool_proj
I0403 15:11:46.099040 14213 net.cpp:148] Top shape: 24 64 14 14 (301056)
I0403 15:11:46.099053 14213 net.cpp:156] Memory required for data: 980223264
I0403 15:11:46.099066 14213 layer_factory.hpp:77] Creating layer inception_4b/output
I0403 15:11:46.099083 14213 net.cpp:91] Creating Layer inception_4b/output
I0403 15:11:46.099097 14213 net.cpp:425] inception_4b/output <- inception_4b/1x1
I0403 15:11:46.099113 14213 net.cpp:425] inception_4b/output <- inception_4b/3x3
I0403 15:11:46.099128 14213 net.cpp:425] inception_4b/output <- inception_4b/5x5
I0403 15:11:46.099143 14213 net.cpp:425] inception_4b/output <- inception_4b/pool_proj
I0403 15:11:46.099161 14213 net.cpp:399] inception_4b/output -> inception_4b/output
I0403 15:11:46.099205 14213 net.cpp:141] Setting up inception_4b/output
I0403 15:11:46.099231 14213 net.cpp:148] Top shape: 24 512 14 14 (2408448)
I0403 15:11:46.099246 14213 net.cpp:156] Memory required for data: 989857056
I0403 15:11:46.099272 14213 layer_factory.hpp:77] Creating layer inception_4b/output_inception_4b/output_0_split
I0403 15:11:46.099290 14213 net.cpp:91] Creating Layer inception_4b/output_inception_4b/output_0_split
I0403 15:11:46.099304 14213 net.cpp:425] inception_4b/output_inception_4b/output_0_split <- inception_4b/output
I0403 15:11:46.099321 14213 net.cpp:399] inception_4b/output_inception_4b/output_0_split -> inception_4b/output_inception_4b/output_0_split_0
I0403 15:11:46.099340 14213 net.cpp:399] inception_4b/output_inception_4b/output_0_split -> inception_4b/output_inception_4b/output_0_split_1
I0403 15:11:46.099362 14213 net.cpp:399] inception_4b/output_inception_4b/output_0_split -> inception_4b/output_inception_4b/output_0_split_2
I0403 15:11:46.099383 14213 net.cpp:399] inception_4b/output_inception_4b/output_0_split -> inception_4b/output_inception_4b/output_0_split_3
I0403 15:11:46.099467 14213 net.cpp:141] Setting up inception_4b/output_inception_4b/output_0_split
I0403 15:11:46.099489 14213 net.cpp:148] Top shape: 24 512 14 14 (2408448)
I0403 15:11:46.099505 14213 net.cpp:148] Top shape: 24 512 14 14 (2408448)
I0403 15:11:46.099519 14213 net.cpp:148] Top shape: 24 512 14 14 (2408448)
I0403 15:11:46.099534 14213 net.cpp:148] Top shape: 24 512 14 14 (2408448)
I0403 15:11:46.099547 14213 net.cpp:156] Memory required for data: 1028392224
I0403 15:11:46.099561 14213 layer_factory.hpp:77] Creating layer inception_4c/1x1
I0403 15:11:46.099582 14213 net.cpp:91] Creating Layer inception_4c/1x1
I0403 15:11:46.099603 14213 net.cpp:425] inception_4c/1x1 <- inception_4b/output_inception_4b/output_0_split_0
I0403 15:11:46.099635 14213 net.cpp:399] inception_4c/1x1 -> inception_4c/1x1
I0403 15:11:46.101042 14213 net.cpp:141] Setting up inception_4c/1x1
I0403 15:11:46.101071 14213 net.cpp:148] Top shape: 24 128 14 14 (602112)
I0403 15:11:46.101086 14213 net.cpp:156] Memory required for data: 1030800672
I0403 15:11:46.101104 14213 layer_factory.hpp:77] Creating layer inception_4c/relu_1x1
I0403 15:11:46.101122 14213 net.cpp:91] Creating Layer inception_4c/relu_1x1
I0403 15:11:46.101138 14213 net.cpp:425] inception_4c/relu_1x1 <- inception_4c/1x1
I0403 15:11:46.101157 14213 net.cpp:386] inception_4c/relu_1x1 -> inception_4c/1x1 (in-place)
I0403 15:11:46.101337 14213 net.cpp:141] Setting up inception_4c/relu_1x1
I0403 15:11:46.101361 14213 net.cpp:148] Top shape: 24 128 14 14 (602112)
I0403 15:11:46.101374 14213 net.cpp:156] Memory required for data: 1033209120
I0403 15:11:46.101388 14213 layer_factory.hpp:77] Creating layer inception_4c/3x3_reduce
I0403 15:11:46.101408 14213 net.cpp:91] Creating Layer inception_4c/3x3_reduce
I0403 15:11:46.101425 14213 net.cpp:425] inception_4c/3x3_reduce <- inception_4b/output_inception_4b/output_0_split_1
I0403 15:11:46.101445 14213 net.cpp:399] inception_4c/3x3_reduce -> inception_4c/3x3_reduce
I0403 15:11:46.103350 14213 net.cpp:141] Setting up inception_4c/3x3_reduce
I0403 15:11:46.103392 14213 net.cpp:148] Top shape: 24 128 14 14 (602112)
I0403 15:11:46.103407 14213 net.cpp:156] Memory required for data: 1035617568
I0403 15:11:46.103425 14213 layer_factory.hpp:77] Creating layer inception_4c/relu_3x3_reduce
I0403 15:11:46.103445 14213 net.cpp:91] Creating Layer inception_4c/relu_3x3_reduce
I0403 15:11:46.103461 14213 net.cpp:425] inception_4c/relu_3x3_reduce <- inception_4c/3x3_reduce
I0403 15:11:46.103478 14213 net.cpp:386] inception_4c/relu_3x3_reduce -> inception_4c/3x3_reduce (in-place)
I0403 15:11:46.103763 14213 net.cpp:141] Setting up inception_4c/relu_3x3_reduce
I0403 15:11:46.103790 14213 net.cpp:148] Top shape: 24 128 14 14 (602112)
I0403 15:11:46.103804 14213 net.cpp:156] Memory required for data: 1038026016
I0403 15:11:46.103818 14213 layer_factory.hpp:77] Creating layer inception_4c/3x3
I0403 15:11:46.103839 14213 net.cpp:91] Creating Layer inception_4c/3x3
I0403 15:11:46.103858 14213 net.cpp:425] inception_4c/3x3 <- inception_4c/3x3_reduce
I0403 15:11:46.103879 14213 net.cpp:399] inception_4c/3x3 -> inception_4c/3x3
I0403 15:11:46.107435 14213 net.cpp:141] Setting up inception_4c/3x3
I0403 15:11:46.107476 14213 net.cpp:148] Top shape: 24 256 14 14 (1204224)
I0403 15:11:46.107493 14213 net.cpp:156] Memory required for data: 1042842912
I0403 15:11:46.107525 14213 layer_factory.hpp:77] Creating layer inception_4c/relu_3x3
I0403 15:11:46.107550 14213 net.cpp:91] Creating Layer inception_4c/relu_3x3
I0403 15:11:46.107568 14213 net.cpp:425] inception_4c/relu_3x3 <- inception_4c/3x3
I0403 15:11:46.107585 14213 net.cpp:386] inception_4c/relu_3x3 -> inception_4c/3x3 (in-place)
I0403 15:11:46.107766 14213 net.cpp:141] Setting up inception_4c/relu_3x3
I0403 15:11:46.107794 14213 net.cpp:148] Top shape: 24 256 14 14 (1204224)
I0403 15:11:46.107808 14213 net.cpp:156] Memory required for data: 1047659808
I0403 15:11:46.107822 14213 layer_factory.hpp:77] Creating layer inception_4c/5x5_reduce
I0403 15:11:46.107844 14213 net.cpp:91] Creating Layer inception_4c/5x5_reduce
I0403 15:11:46.107861 14213 net.cpp:425] inception_4c/5x5_reduce <- inception_4b/output_inception_4b/output_0_split_2
I0403 15:11:46.107879 14213 net.cpp:399] inception_4c/5x5_reduce -> inception_4c/5x5_reduce
I0403 15:11:46.108954 14213 net.cpp:141] Setting up inception_4c/5x5_reduce
I0403 15:11:46.108985 14213 net.cpp:148] Top shape: 24 24 14 14 (112896)
I0403 15:11:46.109002 14213 net.cpp:156] Memory required for data: 1048111392
I0403 15:11:46.109019 14213 layer_factory.hpp:77] Creating layer inception_4c/relu_5x5_reduce
I0403 15:11:46.109036 14213 net.cpp:91] Creating Layer inception_4c/relu_5x5_reduce
I0403 15:11:46.109051 14213 net.cpp:425] inception_4c/relu_5x5_reduce <- inception_4c/5x5_reduce
I0403 15:11:46.109067 14213 net.cpp:386] inception_4c/relu_5x5_reduce -> inception_4c/5x5_reduce (in-place)
I0403 15:11:46.109246 14213 net.cpp:141] Setting up inception_4c/relu_5x5_reduce
I0403 15:11:46.109272 14213 net.cpp:148] Top shape: 24 24 14 14 (112896)
I0403 15:11:46.109287 14213 net.cpp:156] Memory required for data: 1048562976
I0403 15:11:46.109302 14213 layer_factory.hpp:77] Creating layer inception_4c/5x5
I0403 15:11:46.109323 14213 net.cpp:91] Creating Layer inception_4c/5x5
I0403 15:11:46.109339 14213 net.cpp:425] inception_4c/5x5 <- inception_4c/5x5_reduce
I0403 15:11:46.109359 14213 net.cpp:399] inception_4c/5x5 -> inception_4c/5x5
I0403 15:11:46.110579 14213 net.cpp:141] Setting up inception_4c/5x5
I0403 15:11:46.110610 14213 net.cpp:148] Top shape: 24 64 14 14 (301056)
I0403 15:11:46.110628 14213 net.cpp:156] Memory required for data: 1049767200
I0403 15:11:46.110646 14213 layer_factory.hpp:77] Creating layer inception_4c/relu_5x5
I0403 15:11:46.110663 14213 net.cpp:91] Creating Layer inception_4c/relu_5x5
I0403 15:11:46.110678 14213 net.cpp:425] inception_4c/relu_5x5 <- inception_4c/5x5
I0403 15:11:46.110697 14213 net.cpp:386] inception_4c/relu_5x5 -> inception_4c/5x5 (in-place)
I0403 15:11:46.110980 14213 net.cpp:141] Setting up inception_4c/relu_5x5
I0403 15:11:46.111006 14213 net.cpp:148] Top shape: 24 64 14 14 (301056)
I0403 15:11:46.111021 14213 net.cpp:156] Memory required for data: 1050971424
I0403 15:11:46.111034 14213 layer_factory.hpp:77] Creating layer inception_4c/pool
I0403 15:11:46.111050 14213 net.cpp:91] Creating Layer inception_4c/pool
I0403 15:11:46.111065 14213 net.cpp:425] inception_4c/pool <- inception_4b/output_inception_4b/output_0_split_3
I0403 15:11:46.111085 14213 net.cpp:399] inception_4c/pool -> inception_4c/pool
I0403 15:11:46.111148 14213 net.cpp:141] Setting up inception_4c/pool
I0403 15:11:46.111171 14213 net.cpp:148] Top shape: 24 512 14 14 (2408448)
I0403 15:11:46.111186 14213 net.cpp:156] Memory required for data: 1060605216
I0403 15:11:46.111199 14213 layer_factory.hpp:77] Creating layer inception_4c/pool_proj
I0403 15:11:46.111222 14213 net.cpp:91] Creating Layer inception_4c/pool_proj
I0403 15:11:46.111238 14213 net.cpp:425] inception_4c/pool_proj <- inception_4c/pool
I0403 15:11:46.111256 14213 net.cpp:399] inception_4c/pool_proj -> inception_4c/pool_proj
I0403 15:11:46.112455 14213 net.cpp:141] Setting up inception_4c/pool_proj
I0403 15:11:46.112481 14213 net.cpp:148] Top shape: 24 64 14 14 (301056)
I0403 15:11:46.112510 14213 net.cpp:156] Memory required for data: 1061809440
I0403 15:11:46.112529 14213 layer_factory.hpp:77] Creating layer inception_4c/relu_pool_proj
I0403 15:11:46.112550 14213 net.cpp:91] Creating Layer inception_4c/relu_pool_proj
I0403 15:11:46.112567 14213 net.cpp:425] inception_4c/relu_pool_proj <- inception_4c/pool_proj
I0403 15:11:46.112584 14213 net.cpp:386] inception_4c/relu_pool_proj -> inception_4c/pool_proj (in-place)
I0403 15:11:46.112766 14213 net.cpp:141] Setting up inception_4c/relu_pool_proj
I0403 15:11:46.112792 14213 net.cpp:148] Top shape: 24 64 14 14 (301056)
I0403 15:11:46.112805 14213 net.cpp:156] Memory required for data: 1063013664
I0403 15:11:46.112818 14213 layer_factory.hpp:77] Creating layer inception_4c/output
I0403 15:11:46.112834 14213 net.cpp:91] Creating Layer inception_4c/output
I0403 15:11:46.112848 14213 net.cpp:425] inception_4c/output <- inception_4c/1x1
I0403 15:11:46.112864 14213 net.cpp:425] inception_4c/output <- inception_4c/3x3
I0403 15:11:46.112879 14213 net.cpp:425] inception_4c/output <- inception_4c/5x5
I0403 15:11:46.112895 14213 net.cpp:425] inception_4c/output <- inception_4c/pool_proj
I0403 15:11:46.112912 14213 net.cpp:399] inception_4c/output -> inception_4c/output
I0403 15:11:46.112957 14213 net.cpp:141] Setting up inception_4c/output
I0403 15:11:46.112982 14213 net.cpp:148] Top shape: 24 512 14 14 (2408448)
I0403 15:11:46.112998 14213 net.cpp:156] Memory required for data: 1072647456
I0403 15:11:46.113010 14213 layer_factory.hpp:77] Creating layer inception_4c/output_inception_4c/output_0_split
I0403 15:11:46.113026 14213 net.cpp:91] Creating Layer inception_4c/output_inception_4c/output_0_split
I0403 15:11:46.113040 14213 net.cpp:425] inception_4c/output_inception_4c/output_0_split <- inception_4c/output
I0403 15:11:46.113056 14213 net.cpp:399] inception_4c/output_inception_4c/output_0_split -> inception_4c/output_inception_4c/output_0_split_0
I0403 15:11:46.113075 14213 net.cpp:399] inception_4c/output_inception_4c/output_0_split -> inception_4c/output_inception_4c/output_0_split_1
I0403 15:11:46.113097 14213 net.cpp:399] inception_4c/output_inception_4c/output_0_split -> inception_4c/output_inception_4c/output_0_split_2
I0403 15:11:46.113117 14213 net.cpp:399] inception_4c/output_inception_4c/output_0_split -> inception_4c/output_inception_4c/output_0_split_3
I0403 15:11:46.113203 14213 net.cpp:141] Setting up inception_4c/output_inception_4c/output_0_split
I0403 15:11:46.113224 14213 net.cpp:148] Top shape: 24 512 14 14 (2408448)
I0403 15:11:46.113240 14213 net.cpp:148] Top shape: 24 512 14 14 (2408448)
I0403 15:11:46.113255 14213 net.cpp:148] Top shape: 24 512 14 14 (2408448)
I0403 15:11:46.113270 14213 net.cpp:148] Top shape: 24 512 14 14 (2408448)
I0403 15:11:46.113281 14213 net.cpp:156] Memory required for data: 1111182624
I0403 15:11:46.113294 14213 layer_factory.hpp:77] Creating layer inception_4d/1x1
I0403 15:11:46.113317 14213 net.cpp:91] Creating Layer inception_4d/1x1
I0403 15:11:46.113332 14213 net.cpp:425] inception_4d/1x1 <- inception_4c/output_inception_4c/output_0_split_0
I0403 15:11:46.113353 14213 net.cpp:399] inception_4d/1x1 -> inception_4d/1x1
I0403 15:11:46.114707 14213 net.cpp:141] Setting up inception_4d/1x1
I0403 15:11:46.114737 14213 net.cpp:148] Top shape: 24 112 14 14 (526848)
I0403 15:11:46.114751 14213 net.cpp:156] Memory required for data: 1113290016
I0403 15:11:46.114769 14213 layer_factory.hpp:77] Creating layer inception_4d/relu_1x1
I0403 15:11:46.114789 14213 net.cpp:91] Creating Layer inception_4d/relu_1x1
I0403 15:11:46.114807 14213 net.cpp:425] inception_4d/relu_1x1 <- inception_4d/1x1
I0403 15:11:46.114825 14213 net.cpp:386] inception_4d/relu_1x1 -> inception_4d/1x1 (in-place)
I0403 15:11:46.115003 14213 net.cpp:141] Setting up inception_4d/relu_1x1
I0403 15:11:46.115030 14213 net.cpp:148] Top shape: 24 112 14 14 (526848)
I0403 15:11:46.115044 14213 net.cpp:156] Memory required for data: 1115397408
I0403 15:11:46.115058 14213 layer_factory.hpp:77] Creating layer inception_4d/3x3_reduce
I0403 15:11:46.115092 14213 net.cpp:91] Creating Layer inception_4d/3x3_reduce
I0403 15:11:46.115109 14213 net.cpp:425] inception_4d/3x3_reduce <- inception_4c/output_inception_4c/output_0_split_1
I0403 15:11:46.115129 14213 net.cpp:399] inception_4d/3x3_reduce -> inception_4d/3x3_reduce
I0403 15:11:46.116650 14213 net.cpp:141] Setting up inception_4d/3x3_reduce
I0403 15:11:46.116679 14213 net.cpp:148] Top shape: 24 144 14 14 (677376)
I0403 15:11:46.116696 14213 net.cpp:156] Memory required for data: 1118106912
I0403 15:11:46.116714 14213 layer_factory.hpp:77] Creating layer inception_4d/relu_3x3_reduce
I0403 15:11:46.116734 14213 net.cpp:91] Creating Layer inception_4d/relu_3x3_reduce
I0403 15:11:46.116750 14213 net.cpp:425] inception_4d/relu_3x3_reduce <- inception_4d/3x3_reduce
I0403 15:11:46.116771 14213 net.cpp:386] inception_4d/relu_3x3_reduce -> inception_4d/3x3_reduce (in-place)
I0403 15:11:46.117063 14213 net.cpp:141] Setting up inception_4d/relu_3x3_reduce
I0403 15:11:46.117090 14213 net.cpp:148] Top shape: 24 144 14 14 (677376)
I0403 15:11:46.117105 14213 net.cpp:156] Memory required for data: 1120816416
I0403 15:11:46.117120 14213 layer_factory.hpp:77] Creating layer inception_4d/3x3
I0403 15:11:46.117144 14213 net.cpp:91] Creating Layer inception_4d/3x3
I0403 15:11:46.117161 14213 net.cpp:425] inception_4d/3x3 <- inception_4d/3x3_reduce
I0403 15:11:46.117183 14213 net.cpp:399] inception_4d/3x3 -> inception_4d/3x3
I0403 15:11:46.121462 14213 net.cpp:141] Setting up inception_4d/3x3
I0403 15:11:46.121492 14213 net.cpp:148] Top shape: 24 288 14 14 (1354752)
I0403 15:11:46.121508 14213 net.cpp:156] Memory required for data: 1126235424
I0403 15:11:46.121526 14213 layer_factory.hpp:77] Creating layer inception_4d/relu_3x3
I0403 15:11:46.121549 14213 net.cpp:91] Creating Layer inception_4d/relu_3x3
I0403 15:11:46.121568 14213 net.cpp:425] inception_4d/relu_3x3 <- inception_4d/3x3
I0403 15:11:46.121587 14213 net.cpp:386] inception_4d/relu_3x3 -> inception_4d/3x3 (in-place)
I0403 15:11:46.121778 14213 net.cpp:141] Setting up inception_4d/relu_3x3
I0403 15:11:46.121808 14213 net.cpp:148] Top shape: 24 288 14 14 (1354752)
I0403 15:11:46.121824 14213 net.cpp:156] Memory required for data: 1131654432
I0403 15:11:46.121839 14213 layer_factory.hpp:77] Creating layer inception_4d/5x5_reduce
I0403 15:11:46.121860 14213 net.cpp:91] Creating Layer inception_4d/5x5_reduce
I0403 15:11:46.121877 14213 net.cpp:425] inception_4d/5x5_reduce <- inception_4c/output_inception_4c/output_0_split_2
I0403 15:11:46.121896 14213 net.cpp:399] inception_4d/5x5_reduce -> inception_4d/5x5_reduce
I0403 15:11:46.123126 14213 net.cpp:141] Setting up inception_4d/5x5_reduce
I0403 15:11:46.123155 14213 net.cpp:148] Top shape: 24 32 14 14 (150528)
I0403 15:11:46.123172 14213 net.cpp:156] Memory required for data: 1132256544
I0403 15:11:46.123190 14213 layer_factory.hpp:77] Creating layer inception_4d/relu_5x5_reduce
I0403 15:11:46.123211 14213 net.cpp:91] Creating Layer inception_4d/relu_5x5_reduce
I0403 15:11:46.123229 14213 net.cpp:425] inception_4d/relu_5x5_reduce <- inception_4d/5x5_reduce
I0403 15:11:46.123246 14213 net.cpp:386] inception_4d/relu_5x5_reduce -> inception_4d/5x5_reduce (in-place)
I0403 15:11:46.123436 14213 net.cpp:141] Setting up inception_4d/relu_5x5_reduce
I0403 15:11:46.123466 14213 net.cpp:148] Top shape: 24 32 14 14 (150528)
I0403 15:11:46.123483 14213 net.cpp:156] Memory required for data: 1132858656
I0403 15:11:46.123498 14213 layer_factory.hpp:77] Creating layer inception_4d/5x5
I0403 15:11:46.123519 14213 net.cpp:91] Creating Layer inception_4d/5x5
I0403 15:11:46.123538 14213 net.cpp:425] inception_4d/5x5 <- inception_4d/5x5_reduce
I0403 15:11:46.123556 14213 net.cpp:399] inception_4d/5x5 -> inception_4d/5x5
I0403 15:11:46.125072 14213 net.cpp:141] Setting up inception_4d/5x5
I0403 15:11:46.125105 14213 net.cpp:148] Top shape: 24 64 14 14 (301056)
I0403 15:11:46.125123 14213 net.cpp:156] Memory required for data: 1134062880
I0403 15:11:46.125144 14213 layer_factory.hpp:77] Creating layer inception_4d/relu_5x5
I0403 15:11:46.125177 14213 net.cpp:91] Creating Layer inception_4d/relu_5x5
I0403 15:11:46.125195 14213 net.cpp:425] inception_4d/relu_5x5 <- inception_4d/5x5
I0403 15:11:46.125213 14213 net.cpp:386] inception_4d/relu_5x5 -> inception_4d/5x5 (in-place)
I0403 15:11:46.125522 14213 net.cpp:141] Setting up inception_4d/relu_5x5
I0403 15:11:46.125552 14213 net.cpp:148] Top shape: 24 64 14 14 (301056)
I0403 15:11:46.125569 14213 net.cpp:156] Memory required for data: 1135267104
I0403 15:11:46.125584 14213 layer_factory.hpp:77] Creating layer inception_4d/pool
I0403 15:11:46.125607 14213 net.cpp:91] Creating Layer inception_4d/pool
I0403 15:11:46.125625 14213 net.cpp:425] inception_4d/pool <- inception_4c/output_inception_4c/output_0_split_3
I0403 15:11:46.125646 14213 net.cpp:399] inception_4d/pool -> inception_4d/pool
I0403 15:11:46.125712 14213 net.cpp:141] Setting up inception_4d/pool
I0403 15:11:46.125738 14213 net.cpp:148] Top shape: 24 512 14 14 (2408448)
I0403 15:11:46.125753 14213 net.cpp:156] Memory required for data: 1144900896
I0403 15:11:46.125767 14213 layer_factory.hpp:77] Creating layer inception_4d/pool_proj
I0403 15:11:46.125789 14213 net.cpp:91] Creating Layer inception_4d/pool_proj
I0403 15:11:46.125808 14213 net.cpp:425] inception_4d/pool_proj <- inception_4d/pool
I0403 15:11:46.125826 14213 net.cpp:399] inception_4d/pool_proj -> inception_4d/pool_proj
I0403 15:11:46.127580 14213 net.cpp:141] Setting up inception_4d/pool_proj
I0403 15:11:46.127614 14213 net.cpp:148] Top shape: 24 64 14 14 (301056)
I0403 15:11:46.127632 14213 net.cpp:156] Memory required for data: 1146105120
I0403 15:11:46.127651 14213 layer_factory.hpp:77] Creating layer inception_4d/relu_pool_proj
I0403 15:11:46.127673 14213 net.cpp:91] Creating Layer inception_4d/relu_pool_proj
I0403 15:11:46.127691 14213 net.cpp:425] inception_4d/relu_pool_proj <- inception_4d/pool_proj
I0403 15:11:46.127708 14213 net.cpp:386] inception_4d/relu_pool_proj -> inception_4d/pool_proj (in-place)
I0403 15:11:46.127894 14213 net.cpp:141] Setting up inception_4d/relu_pool_proj
I0403 15:11:46.127921 14213 net.cpp:148] Top shape: 24 64 14 14 (301056)
I0403 15:11:46.127938 14213 net.cpp:156] Memory required for data: 1147309344
I0403 15:11:46.127953 14213 layer_factory.hpp:77] Creating layer inception_4d/output
I0403 15:11:46.127969 14213 net.cpp:91] Creating Layer inception_4d/output
I0403 15:11:46.127985 14213 net.cpp:425] inception_4d/output <- inception_4d/1x1
I0403 15:11:46.128000 14213 net.cpp:425] inception_4d/output <- inception_4d/3x3
I0403 15:11:46.128016 14213 net.cpp:425] inception_4d/output <- inception_4d/5x5
I0403 15:11:46.128032 14213 net.cpp:425] inception_4d/output <- inception_4d/pool_proj
I0403 15:11:46.128048 14213 net.cpp:399] inception_4d/output -> inception_4d/output
I0403 15:11:46.128096 14213 net.cpp:141] Setting up inception_4d/output
I0403 15:11:46.128120 14213 net.cpp:148] Top shape: 24 528 14 14 (2483712)
I0403 15:11:46.128135 14213 net.cpp:156] Memory required for data: 1157244192
I0403 15:11:46.128150 14213 layer_factory.hpp:77] Creating layer inception_4d/output_inception_4d/output_0_split
I0403 15:11:46.128170 14213 net.cpp:91] Creating Layer inception_4d/output_inception_4d/output_0_split
I0403 15:11:46.128186 14213 net.cpp:425] inception_4d/output_inception_4d/output_0_split <- inception_4d/output
I0403 15:11:46.128203 14213 net.cpp:399] inception_4d/output_inception_4d/output_0_split -> inception_4d/output_inception_4d/output_0_split_0
I0403 15:11:46.128223 14213 net.cpp:399] inception_4d/output_inception_4d/output_0_split -> inception_4d/output_inception_4d/output_0_split_1
I0403 15:11:46.128244 14213 net.cpp:399] inception_4d/output_inception_4d/output_0_split -> inception_4d/output_inception_4d/output_0_split_2
I0403 15:11:46.128269 14213 net.cpp:399] inception_4d/output_inception_4d/output_0_split -> inception_4d/output_inception_4d/output_0_split_3
I0403 15:11:46.128288 14213 net.cpp:399] inception_4d/output_inception_4d/output_0_split -> inception_4d/output_inception_4d/output_0_split_4
I0403 15:11:46.128389 14213 net.cpp:141] Setting up inception_4d/output_inception_4d/output_0_split
I0403 15:11:46.128424 14213 net.cpp:148] Top shape: 24 528 14 14 (2483712)
I0403 15:11:46.128442 14213 net.cpp:148] Top shape: 24 528 14 14 (2483712)
I0403 15:11:46.128458 14213 net.cpp:148] Top shape: 24 528 14 14 (2483712)
I0403 15:11:46.128473 14213 net.cpp:148] Top shape: 24 528 14 14 (2483712)
I0403 15:11:46.128487 14213 net.cpp:148] Top shape: 24 528 14 14 (2483712)
I0403 15:11:46.128500 14213 net.cpp:156] Memory required for data: 1206918432
I0403 15:11:46.128515 14213 layer_factory.hpp:77] Creating layer loss2/ave_pool
I0403 15:11:46.128531 14213 net.cpp:91] Creating Layer loss2/ave_pool
I0403 15:11:46.128548 14213 net.cpp:425] loss2/ave_pool <- inception_4d/output_inception_4d/output_0_split_0
I0403 15:11:46.128568 14213 net.cpp:399] loss2/ave_pool -> loss2/ave_pool
I0403 15:11:46.128891 14213 net.cpp:141] Setting up loss2/ave_pool
I0403 15:11:46.128927 14213 net.cpp:148] Top shape: 24 528 4 4 (202752)
I0403 15:11:46.128942 14213 net.cpp:156] Memory required for data: 1207729440
I0403 15:11:46.128957 14213 layer_factory.hpp:77] Creating layer loss2/conv
I0403 15:11:46.128978 14213 net.cpp:91] Creating Layer loss2/conv
I0403 15:11:46.128995 14213 net.cpp:425] loss2/conv <- loss2/ave_pool
I0403 15:11:46.129017 14213 net.cpp:399] loss2/conv -> loss2/conv
I0403 15:11:46.130914 14213 net.cpp:141] Setting up loss2/conv
I0403 15:11:46.130946 14213 net.cpp:148] Top shape: 24 128 4 4 (49152)
I0403 15:11:46.130964 14213 net.cpp:156] Memory required for data: 1207926048
I0403 15:11:46.130982 14213 layer_factory.hpp:77] Creating layer loss2/relu_conv
I0403 15:11:46.131001 14213 net.cpp:91] Creating Layer loss2/relu_conv
I0403 15:11:46.131017 14213 net.cpp:425] loss2/relu_conv <- loss2/conv
I0403 15:11:46.131036 14213 net.cpp:386] loss2/relu_conv -> loss2/conv (in-place)
I0403 15:11:46.131325 14213 net.cpp:141] Setting up loss2/relu_conv
I0403 15:11:46.131353 14213 net.cpp:148] Top shape: 24 128 4 4 (49152)
I0403 15:11:46.131368 14213 net.cpp:156] Memory required for data: 1208122656
I0403 15:11:46.131382 14213 layer_factory.hpp:77] Creating layer loss2/fc
I0403 15:11:46.131400 14213 net.cpp:91] Creating Layer loss2/fc
I0403 15:11:46.131417 14213 net.cpp:425] loss2/fc <- loss2/conv
I0403 15:11:46.131439 14213 net.cpp:399] loss2/fc -> loss2/fc
I0403 15:11:46.149078 14213 net.cpp:141] Setting up loss2/fc
I0403 15:11:46.149134 14213 net.cpp:148] Top shape: 24 1024 (24576)
I0403 15:11:46.149152 14213 net.cpp:156] Memory required for data: 1208220960
I0403 15:11:46.149170 14213 layer_factory.hpp:77] Creating layer loss2/relu_fc
I0403 15:11:46.149193 14213 net.cpp:91] Creating Layer loss2/relu_fc
I0403 15:11:46.149211 14213 net.cpp:425] loss2/relu_fc <- loss2/fc
I0403 15:11:46.149231 14213 net.cpp:386] loss2/relu_fc -> loss2/fc (in-place)
I0403 15:11:46.149574 14213 net.cpp:141] Setting up loss2/relu_fc
I0403 15:11:46.149605 14213 net.cpp:148] Top shape: 24 1024 (24576)
I0403 15:11:46.149621 14213 net.cpp:156] Memory required for data: 1208319264
I0403 15:11:46.149636 14213 layer_factory.hpp:77] Creating layer loss2/drop_fc
I0403 15:11:46.149658 14213 net.cpp:91] Creating Layer loss2/drop_fc
I0403 15:11:46.149674 14213 net.cpp:425] loss2/drop_fc <- loss2/fc
I0403 15:11:46.149691 14213 net.cpp:386] loss2/drop_fc -> loss2/fc (in-place)
I0403 15:11:46.149744 14213 net.cpp:141] Setting up loss2/drop_fc
I0403 15:11:46.149766 14213 net.cpp:148] Top shape: 24 1024 (24576)
I0403 15:11:46.149780 14213 net.cpp:156] Memory required for data: 1208417568
I0403 15:11:46.149796 14213 layer_factory.hpp:77] Creating layer loss2/classifier_plantvillage
I0403 15:11:46.149813 14213 net.cpp:91] Creating Layer loss2/classifier_plantvillage
I0403 15:11:46.149828 14213 net.cpp:425] loss2/classifier_plantvillage <- loss2/fc
I0403 15:11:46.149848 14213 net.cpp:399] loss2/classifier_plantvillage -> loss2/classifier_plantvillage
I0403 15:11:46.150264 14213 net.cpp:141] Setting up loss2/classifier_plantvillage
I0403 15:11:46.150290 14213 net.cpp:148] Top shape: 24 38 (912)
I0403 15:11:46.150305 14213 net.cpp:156] Memory required for data: 1208421216
I0403 15:11:46.150354 14213 layer_factory.hpp:77] Creating layer loss2/classifier_plantvillage_loss2/classifier_plantvillage_0_split
I0403 15:11:46.150373 14213 net.cpp:91] Creating Layer loss2/classifier_plantvillage_loss2/classifier_plantvillage_0_split
I0403 15:11:46.150388 14213 net.cpp:425] loss2/classifier_plantvillage_loss2/classifier_plantvillage_0_split <- loss2/classifier_plantvillage
I0403 15:11:46.150408 14213 net.cpp:399] loss2/classifier_plantvillage_loss2/classifier_plantvillage_0_split -> loss2/classifier_plantvillage_loss2/classifier_plantvillage_0_split_0
I0403 15:11:46.150429 14213 net.cpp:399] loss2/classifier_plantvillage_loss2/classifier_plantvillage_0_split -> loss2/classifier_plantvillage_loss2/classifier_plantvillage_0_split_1
I0403 15:11:46.150449 14213 net.cpp:399] loss2/classifier_plantvillage_loss2/classifier_plantvillage_0_split -> loss2/classifier_plantvillage_loss2/classifier_plantvillage_0_split_2
I0403 15:11:46.150527 14213 net.cpp:141] Setting up loss2/classifier_plantvillage_loss2/classifier_plantvillage_0_split
I0403 15:11:46.150554 14213 net.cpp:148] Top shape: 24 38 (912)
I0403 15:11:46.150570 14213 net.cpp:148] Top shape: 24 38 (912)
I0403 15:11:46.150585 14213 net.cpp:148] Top shape: 24 38 (912)
I0403 15:11:46.150602 14213 net.cpp:156] Memory required for data: 1208432160
I0403 15:11:46.150619 14213 layer_factory.hpp:77] Creating layer inception_4e/1x1
I0403 15:11:46.150640 14213 net.cpp:91] Creating Layer inception_4e/1x1
I0403 15:11:46.150656 14213 net.cpp:425] inception_4e/1x1 <- inception_4d/output_inception_4d/output_0_split_1
I0403 15:11:46.150676 14213 net.cpp:399] inception_4e/1x1 -> inception_4e/1x1
I0403 15:11:46.152523 14213 net.cpp:141] Setting up inception_4e/1x1
I0403 15:11:46.152551 14213 net.cpp:148] Top shape: 24 256 14 14 (1204224)
I0403 15:11:46.152566 14213 net.cpp:156] Memory required for data: 1213249056
I0403 15:11:46.152585 14213 layer_factory.hpp:77] Creating layer inception_4e/relu_1x1
I0403 15:11:46.152606 14213 net.cpp:91] Creating Layer inception_4e/relu_1x1
I0403 15:11:46.152623 14213 net.cpp:425] inception_4e/relu_1x1 <- inception_4e/1x1
I0403 15:11:46.152642 14213 net.cpp:386] inception_4e/relu_1x1 -> inception_4e/1x1 (in-place)
I0403 15:11:46.152942 14213 net.cpp:141] Setting up inception_4e/relu_1x1
I0403 15:11:46.152971 14213 net.cpp:148] Top shape: 24 256 14 14 (1204224)
I0403 15:11:46.152986 14213 net.cpp:156] Memory required for data: 1218065952
I0403 15:11:46.152999 14213 layer_factory.hpp:77] Creating layer inception_4e/3x3_reduce
I0403 15:11:46.153022 14213 net.cpp:91] Creating Layer inception_4e/3x3_reduce
I0403 15:11:46.153038 14213 net.cpp:425] inception_4e/3x3_reduce <- inception_4d/output_inception_4d/output_0_split_2
I0403 15:11:46.153060 14213 net.cpp:399] inception_4e/3x3_reduce -> inception_4e/3x3_reduce
I0403 15:11:46.155215 14213 net.cpp:141] Setting up inception_4e/3x3_reduce
I0403 15:11:46.155248 14213 net.cpp:148] Top shape: 24 160 14 14 (752640)
I0403 15:11:46.155266 14213 net.cpp:156] Memory required for data: 1221076512
I0403 15:11:46.155284 14213 layer_factory.hpp:77] Creating layer inception_4e/relu_3x3_reduce
I0403 15:11:46.155303 14213 net.cpp:91] Creating Layer inception_4e/relu_3x3_reduce
I0403 15:11:46.155318 14213 net.cpp:425] inception_4e/relu_3x3_reduce <- inception_4e/3x3_reduce
I0403 15:11:46.155339 14213 net.cpp:386] inception_4e/relu_3x3_reduce -> inception_4e/3x3_reduce (in-place)
I0403 15:11:46.155526 14213 net.cpp:141] Setting up inception_4e/relu_3x3_reduce
I0403 15:11:46.155553 14213 net.cpp:148] Top shape: 24 160 14 14 (752640)
I0403 15:11:46.155567 14213 net.cpp:156] Memory required for data: 1224087072
I0403 15:11:46.155581 14213 layer_factory.hpp:77] Creating layer inception_4e/3x3
I0403 15:11:46.155621 14213 net.cpp:91] Creating Layer inception_4e/3x3
I0403 15:11:46.155640 14213 net.cpp:425] inception_4e/3x3 <- inception_4e/3x3_reduce
I0403 15:11:46.155674 14213 net.cpp:399] inception_4e/3x3 -> inception_4e/3x3
I0403 15:11:46.160708 14213 net.cpp:141] Setting up inception_4e/3x3
I0403 15:11:46.160750 14213 net.cpp:148] Top shape: 24 320 14 14 (1505280)
I0403 15:11:46.160768 14213 net.cpp:156] Memory required for data: 1230108192
I0403 15:11:46.160787 14213 layer_factory.hpp:77] Creating layer inception_4e/relu_3x3
I0403 15:11:46.160805 14213 net.cpp:91] Creating Layer inception_4e/relu_3x3
I0403 15:11:46.160822 14213 net.cpp:425] inception_4e/relu_3x3 <- inception_4e/3x3
I0403 15:11:46.160840 14213 net.cpp:386] inception_4e/relu_3x3 -> inception_4e/3x3 (in-place)
I0403 15:11:46.161140 14213 net.cpp:141] Setting up inception_4e/relu_3x3
I0403 15:11:46.161166 14213 net.cpp:148] Top shape: 24 320 14 14 (1505280)
I0403 15:11:46.161181 14213 net.cpp:156] Memory required for data: 1236129312
I0403 15:11:46.161195 14213 layer_factory.hpp:77] Creating layer inception_4e/5x5_reduce
I0403 15:11:46.161219 14213 net.cpp:91] Creating Layer inception_4e/5x5_reduce
I0403 15:11:46.161238 14213 net.cpp:425] inception_4e/5x5_reduce <- inception_4d/output_inception_4d/output_0_split_3
I0403 15:11:46.161258 14213 net.cpp:399] inception_4e/5x5_reduce -> inception_4e/5x5_reduce
I0403 15:11:46.162299 14213 net.cpp:141] Setting up inception_4e/5x5_reduce
I0403 15:11:46.162328 14213 net.cpp:148] Top shape: 24 32 14 14 (150528)
I0403 15:11:46.162345 14213 net.cpp:156] Memory required for data: 1236731424
I0403 15:11:46.162363 14213 layer_factory.hpp:77] Creating layer inception_4e/relu_5x5_reduce
I0403 15:11:46.162379 14213 net.cpp:91] Creating Layer inception_4e/relu_5x5_reduce
I0403 15:11:46.162395 14213 net.cpp:425] inception_4e/relu_5x5_reduce <- inception_4e/5x5_reduce
I0403 15:11:46.162410 14213 net.cpp:386] inception_4e/relu_5x5_reduce -> inception_4e/5x5_reduce (in-place)
I0403 15:11:46.162703 14213 net.cpp:141] Setting up inception_4e/relu_5x5_reduce
I0403 15:11:46.162731 14213 net.cpp:148] Top shape: 24 32 14 14 (150528)
I0403 15:11:46.162746 14213 net.cpp:156] Memory required for data: 1237333536
I0403 15:11:46.162760 14213 layer_factory.hpp:77] Creating layer inception_4e/5x5
I0403 15:11:46.162799 14213 net.cpp:91] Creating Layer inception_4e/5x5
I0403 15:11:46.162818 14213 net.cpp:425] inception_4e/5x5 <- inception_4e/5x5_reduce
I0403 15:11:46.162837 14213 net.cpp:399] inception_4e/5x5 -> inception_4e/5x5
I0403 15:11:46.164643 14213 net.cpp:141] Setting up inception_4e/5x5
I0403 15:11:46.164671 14213 net.cpp:148] Top shape: 24 128 14 14 (602112)
I0403 15:11:46.164687 14213 net.cpp:156] Memory required for data: 1239741984
I0403 15:11:46.164706 14213 layer_factory.hpp:77] Creating layer inception_4e/relu_5x5
I0403 15:11:46.164727 14213 net.cpp:91] Creating Layer inception_4e/relu_5x5
I0403 15:11:46.164744 14213 net.cpp:425] inception_4e/relu_5x5 <- inception_4e/5x5
I0403 15:11:46.164762 14213 net.cpp:386] inception_4e/relu_5x5 -> inception_4e/5x5 (in-place)
I0403 15:11:46.164955 14213 net.cpp:141] Setting up inception_4e/relu_5x5
I0403 15:11:46.164983 14213 net.cpp:148] Top shape: 24 128 14 14 (602112)
I0403 15:11:46.164997 14213 net.cpp:156] Memory required for data: 1242150432
I0403 15:11:46.165011 14213 layer_factory.hpp:77] Creating layer inception_4e/pool
I0403 15:11:46.165029 14213 net.cpp:91] Creating Layer inception_4e/pool
I0403 15:11:46.165043 14213 net.cpp:425] inception_4e/pool <- inception_4d/output_inception_4d/output_0_split_4
I0403 15:11:46.165063 14213 net.cpp:399] inception_4e/pool -> inception_4e/pool
I0403 15:11:46.165130 14213 net.cpp:141] Setting up inception_4e/pool
I0403 15:11:46.165153 14213 net.cpp:148] Top shape: 24 528 14 14 (2483712)
I0403 15:11:46.165169 14213 net.cpp:156] Memory required for data: 1252085280
I0403 15:11:46.165182 14213 layer_factory.hpp:77] Creating layer inception_4e/pool_proj
I0403 15:11:46.165204 14213 net.cpp:91] Creating Layer inception_4e/pool_proj
I0403 15:11:46.165220 14213 net.cpp:425] inception_4e/pool_proj <- inception_4e/pool
I0403 15:11:46.165240 14213 net.cpp:399] inception_4e/pool_proj -> inception_4e/pool_proj
I0403 15:11:46.166717 14213 net.cpp:141] Setting up inception_4e/pool_proj
I0403 15:11:46.166744 14213 net.cpp:148] Top shape: 24 128 14 14 (602112)
I0403 15:11:46.166774 14213 net.cpp:156] Memory required for data: 1254493728
I0403 15:11:46.166793 14213 layer_factory.hpp:77] Creating layer inception_4e/relu_pool_proj
I0403 15:11:46.166815 14213 net.cpp:91] Creating Layer inception_4e/relu_pool_proj
I0403 15:11:46.166832 14213 net.cpp:425] inception_4e/relu_pool_proj <- inception_4e/pool_proj
I0403 15:11:46.166849 14213 net.cpp:386] inception_4e/relu_pool_proj -> inception_4e/pool_proj (in-place)
I0403 15:11:46.167140 14213 net.cpp:141] Setting up inception_4e/relu_pool_proj
I0403 15:11:46.167165 14213 net.cpp:148] Top shape: 24 128 14 14 (602112)
I0403 15:11:46.167181 14213 net.cpp:156] Memory required for data: 1256902176
I0403 15:11:46.167197 14213 layer_factory.hpp:77] Creating layer inception_4e/output
I0403 15:11:46.167217 14213 net.cpp:91] Creating Layer inception_4e/output
I0403 15:11:46.167234 14213 net.cpp:425] inception_4e/output <- inception_4e/1x1
I0403 15:11:46.167260 14213 net.cpp:425] inception_4e/output <- inception_4e/3x3
I0403 15:11:46.167276 14213 net.cpp:425] inception_4e/output <- inception_4e/5x5
I0403 15:11:46.167292 14213 net.cpp:425] inception_4e/output <- inception_4e/pool_proj
I0403 15:11:46.167310 14213 net.cpp:399] inception_4e/output -> inception_4e/output
I0403 15:11:46.167361 14213 net.cpp:141] Setting up inception_4e/output
I0403 15:11:46.167384 14213 net.cpp:148] Top shape: 24 832 14 14 (3913728)
I0403 15:11:46.167399 14213 net.cpp:156] Memory required for data: 1272557088
I0403 15:11:46.167413 14213 layer_factory.hpp:77] Creating layer pool4/3x3_s2
I0403 15:11:46.167431 14213 net.cpp:91] Creating Layer pool4/3x3_s2
I0403 15:11:46.167448 14213 net.cpp:425] pool4/3x3_s2 <- inception_4e/output
I0403 15:11:46.167469 14213 net.cpp:399] pool4/3x3_s2 -> pool4/3x3_s2
I0403 15:11:46.167534 14213 net.cpp:141] Setting up pool4/3x3_s2
I0403 15:11:46.167570 14213 net.cpp:148] Top shape: 24 832 7 7 (978432)
I0403 15:11:46.167585 14213 net.cpp:156] Memory required for data: 1276470816
I0403 15:11:46.167603 14213 layer_factory.hpp:77] Creating layer pool4/3x3_s2_pool4/3x3_s2_0_split
I0403 15:11:46.167621 14213 net.cpp:91] Creating Layer pool4/3x3_s2_pool4/3x3_s2_0_split
I0403 15:11:46.167636 14213 net.cpp:425] pool4/3x3_s2_pool4/3x3_s2_0_split <- pool4/3x3_s2
I0403 15:11:46.167652 14213 net.cpp:399] pool4/3x3_s2_pool4/3x3_s2_0_split -> pool4/3x3_s2_pool4/3x3_s2_0_split_0
I0403 15:11:46.167675 14213 net.cpp:399] pool4/3x3_s2_pool4/3x3_s2_0_split -> pool4/3x3_s2_pool4/3x3_s2_0_split_1
I0403 15:11:46.167695 14213 net.cpp:399] pool4/3x3_s2_pool4/3x3_s2_0_split -> pool4/3x3_s2_pool4/3x3_s2_0_split_2
I0403 15:11:46.167714 14213 net.cpp:399] pool4/3x3_s2_pool4/3x3_s2_0_split -> pool4/3x3_s2_pool4/3x3_s2_0_split_3
I0403 15:11:46.167804 14213 net.cpp:141] Setting up pool4/3x3_s2_pool4/3x3_s2_0_split
I0403 15:11:46.167826 14213 net.cpp:148] Top shape: 24 832 7 7 (978432)
I0403 15:11:46.167841 14213 net.cpp:148] Top shape: 24 832 7 7 (978432)
I0403 15:11:46.167855 14213 net.cpp:148] Top shape: 24 832 7 7 (978432)
I0403 15:11:46.167870 14213 net.cpp:148] Top shape: 24 832 7 7 (978432)
I0403 15:11:46.167883 14213 net.cpp:156] Memory required for data: 1292125728
I0403 15:11:46.167896 14213 layer_factory.hpp:77] Creating layer inception_5a/1x1
I0403 15:11:46.167917 14213 net.cpp:91] Creating Layer inception_5a/1x1
I0403 15:11:46.167935 14213 net.cpp:425] inception_5a/1x1 <- pool4/3x3_s2_pool4/3x3_s2_0_split_0
I0403 15:11:46.167954 14213 net.cpp:399] inception_5a/1x1 -> inception_5a/1x1
I0403 15:11:46.170742 14213 net.cpp:141] Setting up inception_5a/1x1
I0403 15:11:46.170773 14213 net.cpp:148] Top shape: 24 256 7 7 (301056)
I0403 15:11:46.170788 14213 net.cpp:156] Memory required for data: 1293329952
I0403 15:11:46.170806 14213 layer_factory.hpp:77] Creating layer inception_5a/relu_1x1
I0403 15:11:46.170826 14213 net.cpp:91] Creating Layer inception_5a/relu_1x1
I0403 15:11:46.170843 14213 net.cpp:425] inception_5a/relu_1x1 <- inception_5a/1x1
I0403 15:11:46.170861 14213 net.cpp:386] inception_5a/relu_1x1 -> inception_5a/1x1 (in-place)
I0403 15:11:46.171171 14213 net.cpp:141] Setting up inception_5a/relu_1x1
I0403 15:11:46.171198 14213 net.cpp:148] Top shape: 24 256 7 7 (301056)
I0403 15:11:46.171213 14213 net.cpp:156] Memory required for data: 1294534176
I0403 15:11:46.171229 14213 layer_factory.hpp:77] Creating layer inception_5a/3x3_reduce
I0403 15:11:46.171253 14213 net.cpp:91] Creating Layer inception_5a/3x3_reduce
I0403 15:11:46.171270 14213 net.cpp:425] inception_5a/3x3_reduce <- pool4/3x3_s2_pool4/3x3_s2_0_split_1
I0403 15:11:46.171290 14213 net.cpp:399] inception_5a/3x3_reduce -> inception_5a/3x3_reduce
I0403 15:11:46.173744 14213 net.cpp:141] Setting up inception_5a/3x3_reduce
I0403 15:11:46.173774 14213 net.cpp:148] Top shape: 24 160 7 7 (188160)
I0403 15:11:46.173791 14213 net.cpp:156] Memory required for data: 1295286816
I0403 15:11:46.173810 14213 layer_factory.hpp:77] Creating layer inception_5a/relu_3x3_reduce
I0403 15:11:46.173831 14213 net.cpp:91] Creating Layer inception_5a/relu_3x3_reduce
I0403 15:11:46.173848 14213 net.cpp:425] inception_5a/relu_3x3_reduce <- inception_5a/3x3_reduce
I0403 15:11:46.173867 14213 net.cpp:386] inception_5a/relu_3x3_reduce -> inception_5a/3x3_reduce (in-place)
I0403 15:11:46.174065 14213 net.cpp:141] Setting up inception_5a/relu_3x3_reduce
I0403 15:11:46.174090 14213 net.cpp:148] Top shape: 24 160 7 7 (188160)
I0403 15:11:46.174104 14213 net.cpp:156] Memory required for data: 1296039456
I0403 15:11:46.174118 14213 layer_factory.hpp:77] Creating layer inception_5a/3x3
I0403 15:11:46.174141 14213 net.cpp:91] Creating Layer inception_5a/3x3
I0403 15:11:46.174159 14213 net.cpp:425] inception_5a/3x3 <- inception_5a/3x3_reduce
I0403 15:11:46.174176 14213 net.cpp:399] inception_5a/3x3 -> inception_5a/3x3
I0403 15:11:46.179113 14213 net.cpp:141] Setting up inception_5a/3x3
I0403 15:11:46.179147 14213 net.cpp:148] Top shape: 24 320 7 7 (376320)
I0403 15:11:46.179163 14213 net.cpp:156] Memory required for data: 1297544736
I0403 15:11:46.179182 14213 layer_factory.hpp:77] Creating layer inception_5a/relu_3x3
I0403 15:11:46.179200 14213 net.cpp:91] Creating Layer inception_5a/relu_3x3
I0403 15:11:46.179216 14213 net.cpp:425] inception_5a/relu_3x3 <- inception_5a/3x3
I0403 15:11:46.179234 14213 net.cpp:386] inception_5a/relu_3x3 -> inception_5a/3x3 (in-place)
I0403 15:11:46.179522 14213 net.cpp:141] Setting up inception_5a/relu_3x3
I0403 15:11:46.179551 14213 net.cpp:148] Top shape: 24 320 7 7 (376320)
I0403 15:11:46.179568 14213 net.cpp:156] Memory required for data: 1299050016
I0403 15:11:46.179581 14213 layer_factory.hpp:77] Creating layer inception_5a/5x5_reduce
I0403 15:11:46.179605 14213 net.cpp:91] Creating Layer inception_5a/5x5_reduce
I0403 15:11:46.179630 14213 net.cpp:425] inception_5a/5x5_reduce <- pool4/3x3_s2_pool4/3x3_s2_0_split_2
I0403 15:11:46.179651 14213 net.cpp:399] inception_5a/5x5_reduce -> inception_5a/5x5_reduce
I0403 15:11:46.180799 14213 net.cpp:141] Setting up inception_5a/5x5_reduce
I0403 15:11:46.180831 14213 net.cpp:148] Top shape: 24 32 7 7 (37632)
I0403 15:11:46.180847 14213 net.cpp:156] Memory required for data: 1299200544
I0403 15:11:46.180866 14213 layer_factory.hpp:77] Creating layer inception_5a/relu_5x5_reduce
I0403 15:11:46.180883 14213 net.cpp:91] Creating Layer inception_5a/relu_5x5_reduce
I0403 15:11:46.180901 14213 net.cpp:425] inception_5a/relu_5x5_reduce <- inception_5a/5x5_reduce
I0403 15:11:46.180922 14213 net.cpp:386] inception_5a/relu_5x5_reduce -> inception_5a/5x5_reduce (in-place)
I0403 15:11:46.181213 14213 net.cpp:141] Setting up inception_5a/relu_5x5_reduce
I0403 15:11:46.181242 14213 net.cpp:148] Top shape: 24 32 7 7 (37632)
I0403 15:11:46.181260 14213 net.cpp:156] Memory required for data: 1299351072
I0403 15:11:46.181274 14213 layer_factory.hpp:77] Creating layer inception_5a/5x5
I0403 15:11:46.181298 14213 net.cpp:91] Creating Layer inception_5a/5x5
I0403 15:11:46.181315 14213 net.cpp:425] inception_5a/5x5 <- inception_5a/5x5_reduce
I0403 15:11:46.181334 14213 net.cpp:399] inception_5a/5x5 -> inception_5a/5x5
I0403 15:11:46.183034 14213 net.cpp:141] Setting up inception_5a/5x5
I0403 15:11:46.183076 14213 net.cpp:148] Top shape: 24 128 7 7 (150528)
I0403 15:11:46.183094 14213 net.cpp:156] Memory required for data: 1299953184
I0403 15:11:46.183114 14213 layer_factory.hpp:77] Creating layer inception_5a/relu_5x5
I0403 15:11:46.183131 14213 net.cpp:91] Creating Layer inception_5a/relu_5x5
I0403 15:11:46.183147 14213 net.cpp:425] inception_5a/relu_5x5 <- inception_5a/5x5
I0403 15:11:46.183164 14213 net.cpp:386] inception_5a/relu_5x5 -> inception_5a/5x5 (in-place)
I0403 15:11:46.183357 14213 net.cpp:141] Setting up inception_5a/relu_5x5
I0403 15:11:46.183383 14213 net.cpp:148] Top shape: 24 128 7 7 (150528)
I0403 15:11:46.183399 14213 net.cpp:156] Memory required for data: 1300555296
I0403 15:11:46.183414 14213 layer_factory.hpp:77] Creating layer inception_5a/pool
I0403 15:11:46.183431 14213 net.cpp:91] Creating Layer inception_5a/pool
I0403 15:11:46.183447 14213 net.cpp:425] inception_5a/pool <- pool4/3x3_s2_pool4/3x3_s2_0_split_3
I0403 15:11:46.183466 14213 net.cpp:399] inception_5a/pool -> inception_5a/pool
I0403 15:11:46.183536 14213 net.cpp:141] Setting up inception_5a/pool
I0403 15:11:46.183560 14213 net.cpp:148] Top shape: 24 832 7 7 (978432)
I0403 15:11:46.183575 14213 net.cpp:156] Memory required for data: 1304469024
I0403 15:11:46.183589 14213 layer_factory.hpp:77] Creating layer inception_5a/pool_proj
I0403 15:11:46.183614 14213 net.cpp:91] Creating Layer inception_5a/pool_proj
I0403 15:11:46.183630 14213 net.cpp:425] inception_5a/pool_proj <- inception_5a/pool
I0403 15:11:46.183650 14213 net.cpp:399] inception_5a/pool_proj -> inception_5a/pool_proj
I0403 15:11:46.185894 14213 net.cpp:141] Setting up inception_5a/pool_proj
I0403 15:11:46.185923 14213 net.cpp:148] Top shape: 24 128 7 7 (150528)
I0403 15:11:46.185940 14213 net.cpp:156] Memory required for data: 1305071136
I0403 15:11:46.185958 14213 layer_factory.hpp:77] Creating layer inception_5a/relu_pool_proj
I0403 15:11:46.185977 14213 net.cpp:91] Creating Layer inception_5a/relu_pool_proj
I0403 15:11:46.185994 14213 net.cpp:425] inception_5a/relu_pool_proj <- inception_5a/pool_proj
I0403 15:11:46.186012 14213 net.cpp:386] inception_5a/relu_pool_proj -> inception_5a/pool_proj (in-place)
I0403 15:11:46.186310 14213 net.cpp:141] Setting up inception_5a/relu_pool_proj
I0403 15:11:46.186336 14213 net.cpp:148] Top shape: 24 128 7 7 (150528)
I0403 15:11:46.186352 14213 net.cpp:156] Memory required for data: 1305673248
I0403 15:11:46.186367 14213 layer_factory.hpp:77] Creating layer inception_5a/output
I0403 15:11:46.186386 14213 net.cpp:91] Creating Layer inception_5a/output
I0403 15:11:46.186403 14213 net.cpp:425] inception_5a/output <- inception_5a/1x1
I0403 15:11:46.186419 14213 net.cpp:425] inception_5a/output <- inception_5a/3x3
I0403 15:11:46.186435 14213 net.cpp:425] inception_5a/output <- inception_5a/5x5
I0403 15:11:46.186452 14213 net.cpp:425] inception_5a/output <- inception_5a/pool_proj
I0403 15:11:46.186468 14213 net.cpp:399] inception_5a/output -> inception_5a/output
I0403 15:11:46.186520 14213 net.cpp:141] Setting up inception_5a/output
I0403 15:11:46.186545 14213 net.cpp:148] Top shape: 24 832 7 7 (978432)
I0403 15:11:46.186560 14213 net.cpp:156] Memory required for data: 1309586976
I0403 15:11:46.186574 14213 layer_factory.hpp:77] Creating layer inception_5a/output_inception_5a/output_0_split
I0403 15:11:46.186591 14213 net.cpp:91] Creating Layer inception_5a/output_inception_5a/output_0_split
I0403 15:11:46.186621 14213 net.cpp:425] inception_5a/output_inception_5a/output_0_split <- inception_5a/output
I0403 15:11:46.186641 14213 net.cpp:399] inception_5a/output_inception_5a/output_0_split -> inception_5a/output_inception_5a/output_0_split_0
I0403 15:11:46.186662 14213 net.cpp:399] inception_5a/output_inception_5a/output_0_split -> inception_5a/output_inception_5a/output_0_split_1
I0403 15:11:46.186681 14213 net.cpp:399] inception_5a/output_inception_5a/output_0_split -> inception_5a/output_inception_5a/output_0_split_2
I0403 15:11:46.186700 14213 net.cpp:399] inception_5a/output_inception_5a/output_0_split -> inception_5a/output_inception_5a/output_0_split_3
I0403 15:11:46.186813 14213 net.cpp:141] Setting up inception_5a/output_inception_5a/output_0_split
I0403 15:11:46.186838 14213 net.cpp:148] Top shape: 24 832 7 7 (978432)
I0403 15:11:46.186856 14213 net.cpp:148] Top shape: 24 832 7 7 (978432)
I0403 15:11:46.186871 14213 net.cpp:148] Top shape: 24 832 7 7 (978432)
I0403 15:11:46.186884 14213 net.cpp:148] Top shape: 24 832 7 7 (978432)
I0403 15:11:46.186897 14213 net.cpp:156] Memory required for data: 1325241888
I0403 15:11:46.186918 14213 layer_factory.hpp:77] Creating layer inception_5b/1x1
I0403 15:11:46.186939 14213 net.cpp:91] Creating Layer inception_5b/1x1
I0403 15:11:46.186955 14213 net.cpp:425] inception_5b/1x1 <- inception_5a/output_inception_5a/output_0_split_0
I0403 15:11:46.186974 14213 net.cpp:399] inception_5b/1x1 -> inception_5b/1x1
I0403 15:11:46.190644 14213 net.cpp:141] Setting up inception_5b/1x1
I0403 15:11:46.190672 14213 net.cpp:148] Top shape: 24 384 7 7 (451584)
I0403 15:11:46.190688 14213 net.cpp:156] Memory required for data: 1327048224
I0403 15:11:46.190707 14213 layer_factory.hpp:77] Creating layer inception_5b/relu_1x1
I0403 15:11:46.190727 14213 net.cpp:91] Creating Layer inception_5b/relu_1x1
I0403 15:11:46.190743 14213 net.cpp:425] inception_5b/relu_1x1 <- inception_5b/1x1
I0403 15:11:46.190762 14213 net.cpp:386] inception_5b/relu_1x1 -> inception_5b/1x1 (in-place)
I0403 15:11:46.191058 14213 net.cpp:141] Setting up inception_5b/relu_1x1
I0403 15:11:46.191085 14213 net.cpp:148] Top shape: 24 384 7 7 (451584)
I0403 15:11:46.191102 14213 net.cpp:156] Memory required for data: 1328854560
I0403 15:11:46.191117 14213 layer_factory.hpp:77] Creating layer inception_5b/3x3_reduce
I0403 15:11:46.191138 14213 net.cpp:91] Creating Layer inception_5b/3x3_reduce
I0403 15:11:46.191154 14213 net.cpp:425] inception_5b/3x3_reduce <- inception_5a/output_inception_5a/output_0_split_1
I0403 15:11:46.191175 14213 net.cpp:399] inception_5b/3x3_reduce -> inception_5b/3x3_reduce
I0403 15:11:46.193783 14213 net.cpp:141] Setting up inception_5b/3x3_reduce
I0403 15:11:46.193811 14213 net.cpp:148] Top shape: 24 192 7 7 (225792)
I0403 15:11:46.193827 14213 net.cpp:156] Memory required for data: 1329757728
I0403 15:11:46.193845 14213 layer_factory.hpp:77] Creating layer inception_5b/relu_3x3_reduce
I0403 15:11:46.193866 14213 net.cpp:91] Creating Layer inception_5b/relu_3x3_reduce
I0403 15:11:46.193883 14213 net.cpp:425] inception_5b/relu_3x3_reduce <- inception_5b/3x3_reduce
I0403 15:11:46.193900 14213 net.cpp:386] inception_5b/relu_3x3_reduce -> inception_5b/3x3_reduce (in-place)
I0403 15:11:46.194087 14213 net.cpp:141] Setting up inception_5b/relu_3x3_reduce
I0403 15:11:46.194114 14213 net.cpp:148] Top shape: 24 192 7 7 (225792)
I0403 15:11:46.194129 14213 net.cpp:156] Memory required for data: 1330660896
I0403 15:11:46.194144 14213 layer_factory.hpp:77] Creating layer inception_5b/3x3
I0403 15:11:46.194164 14213 net.cpp:91] Creating Layer inception_5b/3x3
I0403 15:11:46.194181 14213 net.cpp:425] inception_5b/3x3 <- inception_5b/3x3_reduce
I0403 15:11:46.194200 14213 net.cpp:399] inception_5b/3x3 -> inception_5b/3x3
I0403 15:11:46.200736 14213 net.cpp:141] Setting up inception_5b/3x3
I0403 15:11:46.200764 14213 net.cpp:148] Top shape: 24 384 7 7 (451584)
I0403 15:11:46.200781 14213 net.cpp:156] Memory required for data: 1332467232
I0403 15:11:46.200799 14213 layer_factory.hpp:77] Creating layer inception_5b/relu_3x3
I0403 15:11:46.200819 14213 net.cpp:91] Creating Layer inception_5b/relu_3x3
I0403 15:11:46.200835 14213 net.cpp:425] inception_5b/relu_3x3 <- inception_5b/3x3
I0403 15:11:46.200852 14213 net.cpp:386] inception_5b/relu_3x3 -> inception_5b/3x3 (in-place)
I0403 15:11:46.201149 14213 net.cpp:141] Setting up inception_5b/relu_3x3
I0403 15:11:46.201175 14213 net.cpp:148] Top shape: 24 384 7 7 (451584)
I0403 15:11:46.201190 14213 net.cpp:156] Memory required for data: 1334273568
I0403 15:11:46.201205 14213 layer_factory.hpp:77] Creating layer inception_5b/5x5_reduce
I0403 15:11:46.201243 14213 net.cpp:91] Creating Layer inception_5b/5x5_reduce
I0403 15:11:46.201261 14213 net.cpp:425] inception_5b/5x5_reduce <- inception_5a/output_inception_5a/output_0_split_2
I0403 15:11:46.201283 14213 net.cpp:399] inception_5b/5x5_reduce -> inception_5b/5x5_reduce
I0403 15:11:46.202538 14213 net.cpp:141] Setting up inception_5b/5x5_reduce
I0403 15:11:46.202566 14213 net.cpp:148] Top shape: 24 48 7 7 (56448)
I0403 15:11:46.202582 14213 net.cpp:156] Memory required for data: 1334499360
I0403 15:11:46.202605 14213 layer_factory.hpp:77] Creating layer inception_5b/relu_5x5_reduce
I0403 15:11:46.202626 14213 net.cpp:91] Creating Layer inception_5b/relu_5x5_reduce
I0403 15:11:46.202644 14213 net.cpp:425] inception_5b/relu_5x5_reduce <- inception_5b/5x5_reduce
I0403 15:11:46.202661 14213 net.cpp:386] inception_5b/relu_5x5_reduce -> inception_5b/5x5_reduce (in-place)
I0403 15:11:46.203028 14213 net.cpp:141] Setting up inception_5b/relu_5x5_reduce
I0403 15:11:46.203054 14213 net.cpp:148] Top shape: 24 48 7 7 (56448)
I0403 15:11:46.203070 14213 net.cpp:156] Memory required for data: 1334725152
I0403 15:11:46.203085 14213 layer_factory.hpp:77] Creating layer inception_5b/5x5
I0403 15:11:46.203105 14213 net.cpp:91] Creating Layer inception_5b/5x5
I0403 15:11:46.203124 14213 net.cpp:425] inception_5b/5x5 <- inception_5b/5x5_reduce
I0403 15:11:46.203141 14213 net.cpp:399] inception_5b/5x5 -> inception_5b/5x5
I0403 15:11:46.205250 14213 net.cpp:141] Setting up inception_5b/5x5
I0403 15:11:46.205278 14213 net.cpp:148] Top shape: 24 128 7 7 (150528)
I0403 15:11:46.205296 14213 net.cpp:156] Memory required for data: 1335327264
I0403 15:11:46.205314 14213 layer_factory.hpp:77] Creating layer inception_5b/relu_5x5
I0403 15:11:46.205337 14213 net.cpp:91] Creating Layer inception_5b/relu_5x5
I0403 15:11:46.205354 14213 net.cpp:425] inception_5b/relu_5x5 <- inception_5b/5x5
I0403 15:11:46.205373 14213 net.cpp:386] inception_5b/relu_5x5 -> inception_5b/5x5 (in-place)
I0403 15:11:46.205574 14213 net.cpp:141] Setting up inception_5b/relu_5x5
I0403 15:11:46.205603 14213 net.cpp:148] Top shape: 24 128 7 7 (150528)
I0403 15:11:46.205621 14213 net.cpp:156] Memory required for data: 1335929376
I0403 15:11:46.205637 14213 layer_factory.hpp:77] Creating layer inception_5b/pool
I0403 15:11:46.205654 14213 net.cpp:91] Creating Layer inception_5b/pool
I0403 15:11:46.205672 14213 net.cpp:425] inception_5b/pool <- inception_5a/output_inception_5a/output_0_split_3
I0403 15:11:46.205692 14213 net.cpp:399] inception_5b/pool -> inception_5b/pool
I0403 15:11:46.205766 14213 net.cpp:141] Setting up inception_5b/pool
I0403 15:11:46.205790 14213 net.cpp:148] Top shape: 24 832 7 7 (978432)
I0403 15:11:46.205804 14213 net.cpp:156] Memory required for data: 1339843104
I0403 15:11:46.205818 14213 layer_factory.hpp:77] Creating layer inception_5b/pool_proj
I0403 15:11:46.205842 14213 net.cpp:91] Creating Layer inception_5b/pool_proj
I0403 15:11:46.205859 14213 net.cpp:425] inception_5b/pool_proj <- inception_5b/pool
I0403 15:11:46.205878 14213 net.cpp:399] inception_5b/pool_proj -> inception_5b/pool_proj
I0403 15:11:46.208201 14213 net.cpp:141] Setting up inception_5b/pool_proj
I0403 15:11:46.208231 14213 net.cpp:148] Top shape: 24 128 7 7 (150528)
I0403 15:11:46.208248 14213 net.cpp:156] Memory required for data: 1340445216
I0403 15:11:46.208266 14213 layer_factory.hpp:77] Creating layer inception_5b/relu_pool_proj
I0403 15:11:46.208288 14213 net.cpp:91] Creating Layer inception_5b/relu_pool_proj
I0403 15:11:46.208307 14213 net.cpp:425] inception_5b/relu_pool_proj <- inception_5b/pool_proj
I0403 15:11:46.208323 14213 net.cpp:386] inception_5b/relu_pool_proj -> inception_5b/pool_proj (in-place)
I0403 15:11:46.208638 14213 net.cpp:141] Setting up inception_5b/relu_pool_proj
I0403 15:11:46.208665 14213 net.cpp:148] Top shape: 24 128 7 7 (150528)
I0403 15:11:46.208680 14213 net.cpp:156] Memory required for data: 1341047328
I0403 15:11:46.208694 14213 layer_factory.hpp:77] Creating layer inception_5b/output
I0403 15:11:46.208714 14213 net.cpp:91] Creating Layer inception_5b/output
I0403 15:11:46.208745 14213 net.cpp:425] inception_5b/output <- inception_5b/1x1
I0403 15:11:46.208763 14213 net.cpp:425] inception_5b/output <- inception_5b/3x3
I0403 15:11:46.208780 14213 net.cpp:425] inception_5b/output <- inception_5b/5x5
I0403 15:11:46.208794 14213 net.cpp:425] inception_5b/output <- inception_5b/pool_proj
I0403 15:11:46.208811 14213 net.cpp:399] inception_5b/output -> inception_5b/output
I0403 15:11:46.208864 14213 net.cpp:141] Setting up inception_5b/output
I0403 15:11:46.208887 14213 net.cpp:148] Top shape: 24 1024 7 7 (1204224)
I0403 15:11:46.208901 14213 net.cpp:156] Memory required for data: 1345864224
I0403 15:11:46.208915 14213 layer_factory.hpp:77] Creating layer pool5/7x7_s1
I0403 15:11:46.208932 14213 net.cpp:91] Creating Layer pool5/7x7_s1
I0403 15:11:46.208947 14213 net.cpp:425] pool5/7x7_s1 <- inception_5b/output
I0403 15:11:46.208997 14213 net.cpp:399] pool5/7x7_s1 -> pool5/7x7_s1
I0403 15:11:46.209224 14213 net.cpp:141] Setting up pool5/7x7_s1
I0403 15:11:46.209264 14213 net.cpp:148] Top shape: 24 1024 1 1 (24576)
I0403 15:11:46.209280 14213 net.cpp:156] Memory required for data: 1345962528
I0403 15:11:46.209295 14213 layer_factory.hpp:77] Creating layer pool5/drop_7x7_s1
I0403 15:11:46.209311 14213 net.cpp:91] Creating Layer pool5/drop_7x7_s1
I0403 15:11:46.209327 14213 net.cpp:425] pool5/drop_7x7_s1 <- pool5/7x7_s1
I0403 15:11:46.209343 14213 net.cpp:386] pool5/drop_7x7_s1 -> pool5/7x7_s1 (in-place)
I0403 15:11:46.209394 14213 net.cpp:141] Setting up pool5/drop_7x7_s1
I0403 15:11:46.209417 14213 net.cpp:148] Top shape: 24 1024 1 1 (24576)
I0403 15:11:46.209431 14213 net.cpp:156] Memory required for data: 1346060832
I0403 15:11:46.209445 14213 layer_factory.hpp:77] Creating layer loss3/classifier_plantvillage
I0403 15:11:46.209466 14213 net.cpp:91] Creating Layer loss3/classifier_plantvillage
I0403 15:11:46.209483 14213 net.cpp:425] loss3/classifier_plantvillage <- pool5/7x7_s1
I0403 15:11:46.209501 14213 net.cpp:399] loss3/classifier_plantvillage -> loss3/classifier_plantvillage
I0403 15:11:46.209940 14213 net.cpp:141] Setting up loss3/classifier_plantvillage
I0403 15:11:46.209966 14213 net.cpp:148] Top shape: 24 38 (912)
I0403 15:11:46.209981 14213 net.cpp:156] Memory required for data: 1346064480
I0403 15:11:46.210000 14213 layer_factory.hpp:77] Creating layer loss3/classifier_plantvillage_loss3/classifier_plantvillage_0_split
I0403 15:11:46.210017 14213 net.cpp:91] Creating Layer loss3/classifier_plantvillage_loss3/classifier_plantvillage_0_split
I0403 15:11:46.210033 14213 net.cpp:425] loss3/classifier_plantvillage_loss3/classifier_plantvillage_0_split <- loss3/classifier_plantvillage
I0403 15:11:46.210053 14213 net.cpp:399] loss3/classifier_plantvillage_loss3/classifier_plantvillage_0_split -> loss3/classifier_plantvillage_loss3/classifier_plantvillage_0_split_0
I0403 15:11:46.210075 14213 net.cpp:399] loss3/classifier_plantvillage_loss3/classifier_plantvillage_0_split -> loss3/classifier_plantvillage_loss3/classifier_plantvillage_0_split_1
I0403 15:11:46.210095 14213 net.cpp:399] loss3/classifier_plantvillage_loss3/classifier_plantvillage_0_split -> loss3/classifier_plantvillage_loss3/classifier_plantvillage_0_split_2
I0403 15:11:46.210115 14213 net.cpp:399] loss3/classifier_plantvillage_loss3/classifier_plantvillage_0_split -> loss3/classifier_plantvillage_loss3/classifier_plantvillage_0_split_3
I0403 15:11:46.210221 14213 net.cpp:141] Setting up loss3/classifier_plantvillage_loss3/classifier_plantvillage_0_split
I0403 15:11:46.210247 14213 net.cpp:148] Top shape: 24 38 (912)
I0403 15:11:46.210263 14213 net.cpp:148] Top shape: 24 38 (912)
I0403 15:11:46.210278 14213 net.cpp:148] Top shape: 24 38 (912)
I0403 15:11:46.210294 14213 net.cpp:148] Top shape: 24 38 (912)
I0403 15:11:46.210306 14213 net.cpp:156] Memory required for data: 1346079072
I0403 15:11:46.210321 14213 layer_factory.hpp:77] Creating layer loss1/loss
I0403 15:11:46.210341 14213 net.cpp:91] Creating Layer loss1/loss
I0403 15:11:46.210358 14213 net.cpp:425] loss1/loss <- loss1/classifier_plantvillage_loss1/classifier_plantvillage_0_split_0
I0403 15:11:46.210389 14213 net.cpp:425] loss1/loss <- label_data_1_split_0
…
