…
I0403 14:18:10.280194 13119 net.cpp:313] The NetState phase (1) differed from the phase (0) specified by a rule in layer data
I0403 14:18:10.281352 13119 net.cpp:49] Initializing net from parameters: 
state {
  phase: TEST
}
layer {
  name: "data"
  type: "Data"
  top: "data"
  top: "label"
  include {
    phase: TEST
  }
  transform_param {
    mirror: false
    crop_size: 224
    mean_file: "/home/mohanty/data/final_dataset/lmdb/color-40-60/mean.binaryproto"
  }
  data_param {
    source: "/home/mohanty/data/final_dataset/lmdb/color-40-60/test_db"
    batch_size: 24
    backend: LMDB
  }
}
layer {
  name: "conv1/7x7_s2"
  type: "Convolution"
  bottom: "data"
  top: "conv1/7x7_s2"
  param {
    lr_mult: 1
    decay_mult: 1
  }
  param {
    lr_mult: 2
    decay_mult: 0
  }
  convolution_param {
    num_output: 64
    pad: 3
    kernel_size: 7
    stride: 2
    weight_filler {
      type: "xavier"
      std: 0.1
    }
    bias_filler {
      type: "constant"
      value: 0.2
    }
  }
}
layer {
  name: "conv1/relu_7x7"
  type: "ReLU"
  bottom: "conv1/7x7_s2"
  top: "conv1/7x7_s2"
}
layer {
  name: "pool1/3x3_s2"
  type: "Pooling"
  bottom: "conv1/7x7_s2"
  top: "pool1/3x3_s2"
  pooling_param {
    pool: MAX
    kernel_size: 3
    stride: 2
  }
}
layer {
  name: "pool1/norm1"
  type: "LRN"
  bottom: "pool1/3x3_s2"
  top: "pool1/norm1"
  lrn_param {
    local_size: 5
    alpha: 0.0001
    beta: 0.75
  }
}
layer {
  name: "conv2/3x3_reduce"
  type: "Convolution"
  bottom: "pool1/norm1"
  top: "conv2/3x3_reduce"
  param {
    lr_mult: 1
    decay_mult: 1
  }
  param {
    lr_mult: 2
    decay_mult: 0
  }
  convolution_param {
    num_output: 64
    kernel_size: 1
    weight_filler {
      type: "xavier"
      std: 0.1
    }
    bias_filler {
      type: "constant"
      value: 0.2
    }
  }
}
layer {
  name: "conv2/relu_3x3_reduce"
  type: "ReLU"
  bottom: "conv2/3x3_reduce"
  top: "conv2/3x3_reduce"
}
layer {
  name: "conv2/3x3"
  type: "Convolution"
  bottom: "conv2/3x3_reduce"
  top: "conv2/3x3"
  param {
    lr_mult: 1
    decay_mult: 1
  }
  param {
    lr_mult: 2
    decay_mult: 0
  }
  convolution_param {
    num_output: 192
    pad: 1
    kernel_size: 3
    weight_filler {
      type: "xavier"
      std: 0.03
    }
    bias_filler {
      type: "constant"
      value: 0.2
    }
  }
}
layer {
  name: "conv2/relu_3x3"
  type: "ReLU"
  bottom: "conv2/3x3"
  top: "conv2/3x3"
}
layer {
  name: "conv2/norm2"
  type: "LRN"
  bottom: "conv2/3x3"
  top: "conv2/norm2"
  lrn_param {
    local_size: 5
    alpha: 0.0001
    beta: 0.75
  }
}
layer {
  name: "pool2/3x3_s2"
  type: "Pooling"
  bottom: "conv2/norm2"
  top: "pool2/3x3_s2"
  pooling_param {
    pool: MAX
    kernel_size: 3
    stride: 2
  }
}
layer {
  name: "inception_3a/1x1"
  type: "Convolution"
  bottom: "pool2/3x3_s2"
  top: "inception_3a/1x1"
  param {
    lr_mult: 1
    decay_mult: 1
  }
  param {
    lr_mult: 2
    decay_mult: 0
  }
  convolution_param {
    num_output: 64
    kernel_size: 1
    weight_filler {
      type: "xavier"
      std: 0.03
    }
    bias_filler {
      type: "constant"
      value: 0.2
    }
  }
}
layer {
  name: "inception_3a/relu_1x1"
  type: "ReLU"
  bottom: "inception_3a/1x1"
  top: "inception_3a/1x1"
}
layer {
  name: "inception_3a/3x3_reduce"
  type: "Convolution"
  bottom: "pool2/3x3_s2"
  top: "inception_3a/3x3_reduce"
  param {
    lr_mult: 1
    decay_mult: 1
  }
  param {
    lr_mult: 2
    decay_mult: 0
  }
  convolution_param {
    num_output: 96
    kernel_size: 1
    weight_filler {
      type: "xavier"
      std: 0.09
    }
    bias_filler {
      type: "constant"
      value: 0.2
    }
  }
}
layer {
  name: "inception_3a/relu_3x3_reduce"
  type: "ReLU"
  bottom: "inception_3a/3x3_reduce"
  top: "inception_3a/3x3_reduce"
}
layer {
  name: "inception_3a/3x3"
  type: "Convolution"
  bottom: "inception_3a/3x3_reduce"
  top: "inception_3a/3x3"
  param {
    lr_mult: 1
    decay_mult: 1
  }
  param {
    lr_mult: 2
    decay_mult: 0
  }
  convolution_param {
    num_output: 128
    pad: 1
    kernel_size: 3
    weight_filler {
      type: "xavier"
      std: 0.03
    }
    bias_filler {
      type: "constant"
      value: 0.2
    }
  }
}
layer {
  name: "inception_3a/relu_3x3"
  type: "ReLU"
  bottom: "inception_3a/3x3"
  top: "inception_3a/3x3"
}
layer {
  name: "inception_3a/5x5_reduce"
  type: "Convolution"
  bottom: "pool2/3x3_s2"
  top: "inception_3a/5x5_reduce"
  param {
    lr_mult: 1
    decay_mult: 1
  }
  param {
    lr_mult: 2
    decay_mult: 0
  }
  convolution_param {
    num_output: 16
    kernel_size: 1
    weight_filler {
      type: "xavier"
      std: 0.2
    }
    bias_filler {
      type: "constant"
      value: 0.2
    }
  }
}
layer {
  name: "inception_3a/relu_5x5_reduce"
  type: "ReLU"
  bottom: "inception_3a/5x5_reduce"
  top: "inception_3a/5x5_reduce"
}
layer {
  name: "inception_3a/5x5"
  type: "Convolution"
  bottom: "inception_3a/5x5_reduce"
  top: "inception_3a/5x5"
  param {
    lr_mult: 1
    decay_mult: 1
  }
  param {
    lr_mult: 2
    decay_mult: 0
  }
  convolution_param {
    num_output: 32
    pad: 2
    kernel_size: 5
    weight_filler {
      type: "xavier"
      std: 0.03
    }
    bias_filler {
      type: "constant"
      value: 0.2
    }
  }
}
layer {
  name: "inception_3a/relu_5x5"
  type: "ReLU"
  bottom: "inception_3a/5x5"
  top: "inception_3a/5x5"
}
layer {
  name: "inception_3a/pool"
  type: "Pooling"
  bottom: "pool2/3x3_s2"
  top: "inception_3a/pool"
  pooling_param {
    pool: MAX
    kernel_size: 3
    stride: 1
    pad: 1
  }
}
layer {
  name: "inception_3a/pool_proj"
  type: "Convolution"
  bottom: "inception_3a/pool"
  top: "inception_3a/pool_proj"
  param {
    lr_mult: 1
    decay_mult: 1
  }
  param {
    lr_mult: 2
    decay_mult: 0
  }
  convolution_param {
    num_output: 32
    kernel_size: 1
    weight_filler {
      type: "xavier"
      std: 0.1
    }
    bias_filler {
      type: "constant"
      value: 0.2
    }
  }
}
layer {
  name: "inception_3a/relu_pool_proj"
  type: "ReLU"
  bottom: "inception_3a/pool_proj"
  top: "inception_3a/pool_proj"
}
layer {
  name: "inception_3a/output"
  type: "Concat"
  bottom: "inception_3a/1x1"
  bottom: "inception_3a/3x3"
  bottom: "inception_3a/5x5"
  bottom: "inception_3a/pool_proj"
  top: "inception_3a/output"
}
layer {
  name: "inception_3b/1x1"
  type: "Convolution"
  bottom: "inception_3a/output"
  top: "inception_3b/1x1"
  param {
    lr_mult: 1
    decay_mult: 1
  }
  param {
    lr_mult: 2
    decay_mult: 0
  }
  convolution_param {
    num_output: 128
    kernel_size: 1
    weight_filler {
      type: "xavier"
      std: 0.03
    }
    bias_filler {
      type: "constant"
      value: 0.2
    }
  }
}
layer {
  name: "inception_3b/relu_1x1"
  type: "ReLU"
  bottom: "inception_3b/1x1"
  top: "inception_3b/1x1"
}
layer {
  name: "inception_3b/3x3_reduce"
  type: "Convolution"
  bottom: "inception_3a/output"
  top: "inception_3b/3x3_reduce"
  param {
    lr_mult: 1
    decay_mult: 1
  }
  param {
    lr_mult: 2
    decay_mult: 0
  }
  convolution_param {
    num_output: 128
    kernel_size: 1
    weight_filler {
      type: "xavier"
      std: 0.09
    }
    bias_filler {
      type: "constant"
      value: 0.2
    }
  }
}
layer {
  name: "inception_3b/relu_3x3_reduce"
  type: "ReLU"
  bottom: "inception_3b/3x3_reduce"
  top: "inception_3b/3x3_reduce"
}
layer {
  name: "inception_3b/3x3"
  type: "Convolution"
  bottom: "inception_3b/3x3_reduce"
  top: "inception_3b/3x3"
  param {
    lr_mult: 1
    decay_mult: 1
  }
  param {
    lr_mult: 2
    decay_mult: 0
  }
  convolution_param {
    num_output: 192
    pad: 1
    kernel_size: 3
    weight_filler {
      type: "xavier"
      std: 0.03
    }
    bias_filler {
      type: "constant"
      value: 0.2
    }
  }
}
layer {
  name: "inception_3b/relu_3x3"
  type: "ReLU"
  bottom: "inception_3b/3x3"
  top: "inception_3b/3x3"
}
layer {
  name: "inception_3b/5x5_reduce"
  type: "Convolution"
  bottom: "inception_3a/output"
  top: "inception_3b/5x5_reduce"
  param {
    lr_mult: 1
    decay_mult: 1
  }
  param {
    lr_mult: 2
    decay_mult: 0
  }
  convolution_param {
    num_output: 32
    kernel_size: 1
    weight_filler {
      type: "xavier"
      std: 0.2
    }
    bias_filler {
      type: "constant"
      value: 0.2
    }
  }
}
layer {
  name: "inception_3b/relu_5x5_reduce"
  type: "ReLU"
  bottom: "inception_3b/5x5_reduce"
  top: "inception_3b/5x5_reduce"
}
layer {
  name: "inception_3b/5x5"
  type: "Convolution"
  bottom: "inception_3b/5x5_reduce"
  top: "inception_3b/5x5"
  param {
    lr_mult: 1
    decay_mult: 1
  }
  param {
    lr_mult: 2
    decay_mult: 0
  }
  convolution_param {
    num_output: 96
    pad: 2
    kernel_size: 5
    weight_filler {
      type: "xavier"
      std: 0.03
    }
    bias_filler {
      type: "constant"
      value: 0.2
    }
  }
}
layer {
  name: "inception_3b/relu_5x5"
  type: "ReLU"
  bottom: "inception_3b/5x5"
  top: "inception_3b/5x5"
}
layer {
  name: "inception_3b/pool"
  type: "Pooling"
  bottom: "inception_3a/output"
  top: "inception_3b/pool"
  pooling_param {
    pool: MAX
    kernel_size: 3
    stride: 1
    pad: 1
  }
}
layer {
  name: "inception_3b/pool_proj"
  type: "Convolution"
  bottom: "inception_3b/pool"
  top: "inception_3b/pool_proj"
  param {
    lr_mult: 1
    decay_mult: 1
  }
  param {
    lr_mult: 2
    decay_mult: 0
  }
  convolution_param {
    num_output: 64
    kernel_size: 1
    weight_filler {
      type: "xavier"
      std: 0.1
    }
    bias_filler {
      type: "constant"
      value: 0.2
    }
  }
}
layer {
  name: "inception_3b/relu_pool_proj"
  type: "ReLU"
  bottom: "inception_3b/pool_proj"
  top: "inception_3b/pool_proj"
}
layer {
  name: "inception_3b/output"
  type: "Concat"
  bottom: "inception_3b/1x1"
  bottom: "inception_3b/3x3"
  bottom: "inception_3b/5x5"
  bottom: "inception_3b/pool_proj"
  top: "inception_3b/output"
}
layer {
  name: "pool3/3x3_s2"
  type: "Pooling"
  bottom: "inception_3b/output"
  top: "pool3/3x3_s2"
  pooling_param {
    pool: MAX
    kernel_size: 3
    stride: 2
  }
}
layer {
  name: "inception_4a/1x1"
  type: "Convolution"
  bottom: "pool3/3x3_s2"
  top: "inception_4a/1x1"
  param {
    lr_mult: 1
    decay_mult: 1
  }
  param {
    lr_mult: 2
    decay_mult: 0
  }
  convolution_param {
    num_output: 192
    kernel_size: 1
    weight_filler {
      type: "xavier"
      std: 0.03
    }
    bias_filler {
      type: "constant"
      value: 0.2
    }
  }
}
layer {
  name: "inception_4a/relu_1x1"
  type: "ReLU"
  bottom: "inception_4a/1x1"
  top: "inception_4a/1x1"
}
layer {
  name: "inception_4a/3x3_reduce"
  type: "Convolution"
  bottom: "pool3/3x3_s2"
  top: "inception_4a/3x3_reduce"
  param {
    lr_mult: 1
    decay_mult: 1
  }
  param {
    lr_mult: 2
    decay_mult: 0
  }
  convolution_param {
    num_output: 96
    kernel_size: 1
    weight_filler {
      type: "xavier"
      std: 0.09
    }
    bias_filler {
      type: "constant"
      value: 0.2
    }
  }
}
layer {
  name: "inception_4a/relu_3x3_reduce"
  type: "ReLU"
  bottom: "inception_4a/3x3_reduce"
  top: "inception_4a/3x3_reduce"
}
layer {
  name: "inception_4a/3x3"
  type: "Convolution"
  bottom: "inception_4a/3x3_reduce"
  top: "inception_4a/3x3"
  param {
    lr_mult: 1
    decay_mult: 1
  }
  param {
    lr_mult: 2
    decay_mult: 0
  }
  convolution_param {
    num_output: 208
    pad: 1
    kernel_size: 3
    weight_filler {
      type: "xavier"
      std: 0.03
    }
    bias_filler {
      type: "constant"
      value: 0.2
    }
  }
}
layer {
  name: "inception_4a/relu_3x3"
  type: "ReLU"
  bottom: "inception_4a/3x3"
  top: "inception_4a/3x3"
}
layer {
  name: "inception_4a/5x5_reduce"
  type: "Convolution"
  bottom: "pool3/3x3_s2"
  top: "inception_4a/5x5_reduce"
  param {
    lr_mult: 1
    decay_mult: 1
  }
  param {
    lr_mult: 2
    decay_mult: 0
  }
  convolution_param {
    num_output: 16
    kernel_size: 1
    weight_filler {
      type: "xavier"
      std: 0.2
    }
    bias_filler {
      type: "constant"
      value: 0.2
    }
  }
}
layer {
  name: "inception_4a/relu_5x5_reduce"
  type: "ReLU"
  bottom: "inception_4a/5x5_reduce"
  top: "inception_4a/5x5_reduce"
}
layer {
  name: "inception_4a/5x5"
  type: "Convolution"
  bottom: "inception_4a/5x5_reduce"
  top: "inception_4a/5x5"
  param {
    lr_mult: 1
    decay_mult: 1
  }
  param {
    lr_mult: 2
    decay_mult: 0
  }
  convolution_param {
    num_output: 48
    pad: 2
    kernel_size: 5
    weight_filler {
      type: "xavier"
      std: 0.03
    }
    bias_filler {
      type: "constant"
      value: 0.2
    }
  }
}
layer {
  name: "inception_4a/relu_5x5"
  type: "ReLU"
  bottom: "inception_4a/5x5"
  top: "inception_4a/5x5"
}
layer {
  name: "inception_4a/pool"
  type: "Pooling"
  bottom: "pool3/3x3_s2"
  top: "inception_4a/pool"
  pooling_param {
    pool: MAX
    kernel_size: 3
    stride: 1
    pad: 1
  }
}
layer {
  name: "inception_4a/pool_proj"
  type: "Convolution"
  bottom: "inception_4a/pool"
  top: "inception_4a/pool_proj"
  param {
    lr_mult: 1
    decay_mult: 1
  }
  param {
    lr_mult: 2
    decay_mult: 0
  }
  convolution_param {
    num_output: 64
    kernel_size: 1
    weight_filler {
      type: "xavier"
      std: 0.1
    }
    bias_filler {
      type: "constant"
      value: 0.2
    }
  }
}
layer {
  name: "inception_4a/relu_pool_proj"
  type: "ReLU"
  bottom: "inception_4a/pool_proj"
  top: "inception_4a/pool_proj"
}
layer {
  name: "inception_4a/output"
  type: "Concat"
  bottom: "inception_4a/1x1"
  bottom: "inception_4a/3x3"
  bottom: "inception_4a/5x5"
  bottom: "inception_4a/pool_proj"
  top: "inception_4a/output"
}
layer {
  name: "loss1/ave_pool"
  type: "Pooling"
  bottom: "inception_4a/output"
  top: "loss1/ave_pool"
  pooling_param {
    pool: AVE
    kernel_size: 5
    stride: 3
  }
}
layer {
  name: "loss1/conv"
  type: "Convolution"
  bottom: "loss1/ave_pool"
  top: "loss1/conv"
  param {
    lr_mult: 1
    decay_mult: 1
  }
  param {
    lr_mult: 2
    decay_mult: 0
  }
  convolution_param {
    num_output: 128
    kernel_size: 1
    weight_filler {
      type: "xavier"
      std: 0.08
    }
    bias_filler {
      type: "constant"
      value: 0.2
    }
  }
}
layer {
  name: "loss1/relu_conv"
  type: "ReLU"
  bottom: "loss1/conv"
  top: "loss1/conv"
}
layer {
  name: "loss1/fc"
  type: "InnerProduct"
  bottom: "loss1/conv"
  top: "loss1/fc"
  param {
    lr_mult: 1
    decay_mult: 1
  }
  param {
    lr_mult: 2
    decay_mult: 0
  }
  inner_product_param {
    num_output: 1024
    weight_filler {
      type: "xavier"
      std: 0.02
    }
    bias_filler {
      type: "constant"
      value: 0.2
    }
  }
}
layer {
  name: "loss1/relu_fc"
  type: "ReLU"
  bottom: "loss1/fc"
  top: "loss1/fc"
}
layer {
  name: "loss1/drop_fc"
  type: "Dropout"
  bottom: "loss1/fc"
  top: "loss1/fc"
  dropout_param {
    dropout_ratio: 0.7
  }
}
layer {
  name: "loss1/classifier_plantvillage"
  type: "InnerProduct"
  bottom: "loss1/fc"
  top: "loss1/classifier_plantvillage"
  param {
    lr_mult: 1
    decay_mult: 1
  }
  param {
    lr_mult: 2
    decay_mult: 0
  }
  inner_product_param {
    num_output: 38
    weight_filler {
      type: "xavier"
      std: 0.0009765625
    }
    bias_filler {
      type: "constant"
      value: 0
    }
  }
}
layer {
  name: "inception_4b/1x1"
  type: "Convolution"
  bottom: "inception_4a/output"
  top: "inception_4b/1x1"
  param {
    lr_mult: 1
    decay_mult: 1
  }
  param {
    lr_mult: 2
    decay_mult: 0
  }
  convolution_param {
    num_output: 160
    kernel_size: 1
    weight_filler {
      type: "xavier"
      std: 0.03
    }
    bias_filler {
      type: "constant"
      value: 0.2
    }
  }
}
layer {
  name: "inception_4b/relu_1x1"
  type: "ReLU"
  bottom: "inception_4b/1x1"
  top: "inception_4b/1x1"
}
layer {
  name: "inception_4b/3x3_reduce"
  type: "Convolution"
  bottom: "inception_4a/output"
  top: "inception_4b/3x3_reduce"
  param {
    lr_mult: 1
    decay_mult: 1
  }
  param {
    lr_mult: 2
    decay_mult: 0
  }
  convolution_param {
    num_output: 112
    kernel_size: 1
    weight_filler {
      type: "xavier"
      std: 0.09
    }
    bias_filler {
      type: "constant"
      value: 0.2
    }
  }
}
layer {
  name: "inception_4b/relu_3x3_reduce"
  type: "ReLU"
  bottom: "inception_4b/3x3_reduce"
  top: "inception_4b/3x3_reduce"
}
layer {
  name: "inception_4b/3x3"
  type: "Convolution"
  bottom: "inception_4b/3x3_reduce"
  top: "inception_4b/3x3"
  param {
    lr_mult: 1
    decay_mult: 1
  }
  param {
    lr_mult: 2
    decay_mult: 0
  }
  convolution_param {
    num_output: 224
    pad: 1
    kernel_size: 3
    weight_filler {
      type: "xavier"
      std: 0.03
    }
    bias_filler {
      type: "constant"
      value: 0.2
    }
  }
}
layer {
  name: "inception_4b/relu_3x3"
  type: "ReLU"
  bottom: "inception_4b/3x3"
  top: "inception_4b/3x3"
}
layer {
  name: "inception_4b/5x5_reduce"
  type: "Convolution"
  bottom: "inception_4a/output"
  top: "inception_4b/5x5_reduce"
  param {
    lr_mult: 1
    decay_mult: 1
  }
  param {
    lr_mult: 2
    decay_mult: 0
  }
  convolution_param {
    num_output: 24
    kernel_size: 1
    weight_filler {
      type: "xavier"
      std: 0.2
    }
    bias_filler {
      type: "constant"
      value: 0.2
    }
  }
}
layer {
  name: "inception_4b/relu_5x5_reduce"
  type: "ReLU"
  bottom: "inception_4b/5x5_reduce"
  top: "inception_4b/5x5_reduce"
}
layer {
  name: "inception_4b/5x5"
  type: "Convolution"
  bottom: "inception_4b/5x5_reduce"
  top: "inception_4b/5x5"
  param {
    lr_mult: 1
    decay_mult: 1
  }
  param {
    lr_mult: 2
    decay_mult: 0
  }
  convolution_param {
    num_output: 64
    pad: 2
    kernel_size: 5
    weight_filler {
      type: "xavier"
      std: 0.03
    }
    bias_filler {
      type: "constant"
      value: 0.2
    }
  }
}
layer {
  name: "inception_4b/relu_5x5"
  type: "ReLU"
  bottom: "inception_4b/5x5"
  top: "inception_4b/5x5"
}
layer {
  name: "inception_4b/pool"
  type: "Pooling"
  bottom: "inception_4a/output"
  top: "inception_4b/pool"
  pooling_param {
    pool: MAX
    kernel_size: 3
    stride: 1
    pad: 1
  }
}
layer {
  name: "inception_4b/pool_proj"
  type: "Convolution"
  bottom: "inception_4b/pool"
  top: "inception_4b/pool_proj"
  param {
    lr_mult: 1
    decay_mult: 1
  }
  param {
    lr_mult: 2
    decay_mult: 0
  }
  convolution_param {
    num_output: 64
    kernel_size: 1
    weight_filler {
      type: "xavier"
      std: 0.1
    }
    bias_filler {
      type: "constant"
      value: 0.2
    }
  }
}
layer {
  name: "inception_4b/relu_pool_proj"
  type: "ReLU"
  bottom: "inception_4b/pool_proj"
  top: "inception_4b/pool_proj"
}
layer {
  name: "inception_4b/output"
  type: "Concat"
  bottom: "inception_4b/1x1"
  bottom: "inception_4b/3x3"
  bottom: "inception_4b/5x5"
  bottom: "inception_4b/pool_proj"
  top: "inception_4b/output"
}
layer {
  name: "inception_4c/1x1"
  type: "Convolution"
  bottom: "inception_4b/output"
  top: "inception_4c/1x1"
  param {
    lr_mult: 1
    decay_mult: 1
  }
  param {
    lr_mult: 2
    decay_mult: 0
  }
  convolution_param {
    num_output: 128
    kernel_size: 1
    weight_filler {
      type: "xavier"
      std: 0.03
    }
    bias_filler {
      type: "constant"
      value: 0.2
    }
  }
}
layer {
  name: "inception_4c/relu_1x1"
  type: "ReLU"
  bottom: "inception_4c/1x1"
  top: "inception_4c/1x1"
}
layer {
  name: "inception_4c/3x3_reduce"
  type: "Convolution"
  bottom: "inception_4b/output"
  top: "inception_4c/3x3_reduce"
  param {
    lr_mult: 1
    decay_mult: 1
  }
  param {
    lr_mult: 2
    decay_mult: 0
  }
  convolution_param {
    num_output: 128
    kernel_size: 1
    weight_filler {
      type: "xavier"
      std: 0.09
    }
    bias_filler {
      type: "constant"
      value: 0.2
    }
  }
}
layer {
  name: "inception_4c/relu_3x3_reduce"
  type: "ReLU"
  bottom: "inception_4c/3x3_reduce"
  top: "inception_4c/3x3_reduce"
}
layer {
  name: "inception_4c/3x3"
  type: "Convolution"
  bottom: "inception_4c/3x3_reduce"
  top: "inception_4c/3x3"
  param {
    lr_mult: 1
    decay_mult: 1
  }
  param {
    lr_mult: 2
    decay_mult: 0
  }
  convolution_param {
    num_output: 256
    pad: 1
    kernel_size: 3
    weight_filler {
      type: "xavier"
      std: 0.03
    }
    bias_filler {
      type: "constant"
      value: 0.2
    }
  }
}
layer {
  name: "inception_4c/relu_3x3"
  type: "ReLU"
  bottom: "inception_4c/3x3"
  top: "inception_4c/3x3"
}
layer {
  name: "inception_4c/5x5_reduce"
  type: "Convolution"
  bottom: "inception_4b/output"
  top: "inception_4c/5x5_reduce"
  param {
    lr_mult: 1
    decay_mult: 1
  }
  param {
    lr_mult: 2
    decay_mult: 0
  }
  convolution_param {
    num_output: 24
    kernel_size: 1
    weight_filler {
      type: "xavier"
      std: 0.2
    }
    bias_filler {
      type: "constant"
      value: 0.2
    }
  }
}
layer {
  name: "inception_4c/relu_5x5_reduce"
  type: "ReLU"
  bottom: "inception_4c/5x5_reduce"
  top: "inception_4c/5x5_reduce"
}
layer {
  name: "inception_4c/5x5"
  type: "Convolution"
  bottom: "inception_4c/5x5_reduce"
  top: "inception_4c/5x5"
  param {
    lr_mult: 1
    decay_mult: 1
  }
  param {
    lr_mult: 2
    decay_mult: 0
  }
  convolution_param {
    num_output: 64
    pad: 2
    kernel_size: 5
    weight_filler {
      type: "xavier"
      std: 0.03
    }
    bias_filler {
      type: "constant"
      value: 0.2
    }
  }
}
layer {
  name: "inception_4c/relu_5x5"
  type: "ReLU"
  bottom: "inception_4c/5x5"
  top: "inception_4c/5x5"
}
layer {
  name: "inception_4c/pool"
  type: "Pooling"
  bottom: "inception_4b/output"
  top: "inception_4c/pool"
  pooling_param {
    pool: MAX
    kernel_size: 3
    stride: 1
    pad: 1
  }
}
layer {
  name: "inception_4c/pool_proj"
  type: "Convolution"
  bottom: "inception_4c/pool"
  top: "inception_4c/pool_proj"
  param {
    lr_mult: 1
    decay_mult: 1
  }
  param {
    lr_mult: 2
    decay_mult: 0
  }
  convolution_param {
    num_output: 64
    kernel_size: 1
    weight_filler {
      type: "xavier"
      std: 0.1
    }
    bias_filler {
      type: "constant"
      value: 0.2
    }
  }
}
layer {
  name: "inception_4c/relu_pool_proj"
  type: "ReLU"
  bottom: "inception_4c/pool_proj"
  top: "inception_4c/pool_proj"
}
layer {
  name: "inception_4c/output"
  type: "Concat"
  bottom: "inception_4c/1x1"
  bottom: "inception_4c/3x3"
  bottom: "inception_4c/5x5"
  bottom: "inception_4c/pool_proj"
  top: "inception_4c/output"
}
layer {
  name: "inception_4d/1x1"
  type: "Convolution"
  bottom: "inception_4c/output"
  top: "inception_4d/1x1"
  param {
    lr_mult: 1
    decay_mult: 1
  }
  param {
    lr_mult: 2
    decay_mult: 0
  }
  convolution_param {
    num_output: 112
    kernel_size: 1
    weight_filler {
      type: "xavier"
      std: 0.03
    }
    bias_filler {
      type: "constant"
      value: 0.2
    }
  }
}
layer {
  name: "inception_4d/relu_1x1"
  type: "ReLU"
  bottom: "inception_4d/1x1"
  top: "inception_4d/1x1"
}
layer {
  name: "inception_4d/3x3_reduce"
  type: "Convolution"
  bottom: "inception_4c/output"
  top: "inception_4d/3x3_reduce"
  param {
    lr_mult: 1
    decay_mult: 1
  }
  param {
    lr_mult: 2
    decay_mult: 0
  }
  convolution_param {
    num_output: 144
    kernel_size: 1
    weight_filler {
      type: "xavier"
      std: 0.09
    }
    bias_filler {
      type: "constant"
      value: 0.2
    }
  }
}
layer {
  name: "inception_4d/relu_3x3_reduce"
  type: "ReLU"
  bottom: "inception_4d/3x3_reduce"
  top: "inception_4d/3x3_reduce"
}
layer {
  name: "inception_4d/3x3"
  type: "Convolution"
  bottom: "inception_4d/3x3_reduce"
  top: "inception_4d/3x3"
  param {
    lr_mult: 1
    decay_mult: 1
  }
  param {
    lr_mult: 2
    decay_mult: 0
  }
  convolution_param {
    num_output: 288
    pad: 1
    kernel_size: 3
    weight_filler {
      type: "xavier"
      std: 0.03
    }
    bias_filler {
      type: "constant"
      value: 0.2
    }
  }
}
layer {
  name: "inception_4d/relu_3x3"
  type: "ReLU"
  bottom: "inception_4d/3x3"
  top: "inception_4d/3x3"
}
layer {
  name: "inception_4d/5x5_reduce"
  type: "Convolution"
  bottom: "inception_4c/output"
  top: "inception_4d/5x5_reduce"
  param {
    lr_mult: 1
    decay_mult: 1
  }
  param {
    lr_mult: 2
    decay_mult: 0
  }
  convolution_param {
    num_output: 32
    kernel_size: 1
    weight_filler {
      type: "xavier"
      std: 0.2
    }
    bias_filler {
      type: "constant"
      value: 0.2
    }
  }
}
layer {
  name: "inception_4d/relu_5x5_reduce"
  type: "ReLU"
  bottom: "inception_4d/5x5_reduce"
  top: "inception_4d/5x5_reduce"
}
layer {
  name: "inception_4d/5x5"
  type: "Convolution"
  bottom: "inception_4d/5x5_reduce"
  top: "inception_4d/5x5"
  param {
    lr_mult: 1
    decay_mult: 1
  }
  param {
    lr_mult: 2
    decay_mult: 0
  }
  convolution_param {
    num_output: 64
    pad: 2
    kernel_size: 5
    weight_filler {
      type: "xavier"
      std: 0.03
    }
    bias_filler {
      type: "constant"
      value: 0.2
    }
  }
}
layer {
  name: "inception_4d/relu_5x5"
  type: "ReLU"
  bottom: "inception_4d/5x5"
  top: "inception_4d/5x5"
}
layer {
  name: "inception_4d/pool"
  type: "Pooling"
  bottom: "inception_4c/output"
  top: "inception_4d/pool"
  pooling_param {
    pool: MAX
    kernel_size: 3
    stride: 1
    pad: 1
  }
}
layer {
  name: "inception_4d/pool_proj"
  type: "Convolution"
  bottom: "inception_4d/pool"
  top: "inception_4d/pool_proj"
  param {
    lr_mult: 1
    decay_mult: 1
  }
  param {
    lr_mult: 2
    decay_mult: 0
  }
  convolution_param {
    num_output: 64
    kernel_size: 1
    weight_filler {
      type: "xavier"
      std: 0.1
    }
    bias_filler {
      type: "constant"
      value: 0.2
    }
  }
}
layer {
  name: "inception_4d/relu_pool_proj"
  type: "ReLU"
  bottom: "inception_4d/pool_proj"
  top: "inception_4d/pool_proj"
}
layer {
  name: "inception_4d/output"
  type: "Concat"
  bottom: "inception_4d/1x1"
  bottom: "inception_4d/3x3"
  bottom: "inception_4d/5x5"
  bottom: "inception_4d/pool_proj"
  top: "inception_4d/output"
}
layer {
  name: "loss2/ave_pool"
  type: "Pooling"
  bottom: "inception_4d/output"
  top: "loss2/ave_pool"
  pooling_param {
    pool: AVE
    kernel_size: 5
    stride: 3
  }
}
layer {
  name: "loss2/conv"
  type: "Convolution"
  bottom: "loss2/ave_pool"
  top: "loss2/conv"
  param {
    lr_mult: 1
    decay_mult: 1
  }
  param {
    lr_mult: 2
    decay_mult: 0
  }
  convolution_param {
    num_output: 128
    kernel_size: 1
    weight_filler {
      type: "xavier"
      std: 0.08
    }
    bias_filler {
      type: "constant"
      value: 0.2
    }
  }
}
layer {
  name: "loss2/relu_conv"
  type: "ReLU"
  bottom: "loss2/conv"
  top: "loss2/conv"
}
layer {
  name: "loss2/fc"
  type: "InnerProduct"
  bottom: "loss2/conv"
  top: "loss2/fc"
  param {
    lr_mult: 1
    decay_mult: 1
  }
  param {
    lr_mult: 2
    decay_mult: 0
  }
  inner_product_param {
    num_output: 1024
    weight_filler {
      type: "xavier"
      std: 0.02
    }
    bias_filler {
      type: "constant"
      value: 0.2
    }
  }
}
layer {
  name: "loss2/relu_fc"
  type: "ReLU"
  bottom: "loss2/fc"
  top: "loss2/fc"
}
layer {
  name: "loss2/drop_fc"
  type: "Dropout"
  bottom: "loss2/fc"
  top: "loss2/fc"
  dropout_param {
    dropout_ratio: 0.7
  }
}
layer {
  name: "loss2/classifier_plantvillage"
  type: "InnerProduct"
  bottom: "loss2/fc"
  top: "loss2/classifier_plantvillage"
  param {
    lr_mult: 1
    decay_mult: 1
  }
  param {
    lr_mult: 2
    decay_mult: 0
  }
  inner_product_param {
    num_output: 38
    weight_filler {
      type: "xavier"
      std: 0.0009765625
    }
    bias_filler {
      type: "constant"
      value: 0
    }
  }
}
layer {
  name: "inception_4e/1x1"
  type: "Convolution"
  bottom: "inception_4d/output"
  top: "inception_4e/1x1"
  param {
    lr_mult: 1
    decay_mult: 1
  }
  param {
    lr_mult: 2
    decay_mult: 0
  }
  convolution_param {
    num_output: 256
    kernel_size: 1
    weight_filler {
      type: "xavier"
      std: 0.03
    }
    bias_filler {
      type: "constant"
      value: 0.2
    }
  }
}
layer {
  name: "inception_4e/relu_1x1"
  type: "ReLU"
  bottom: "inception_4e/1x1"
  top: "inception_4e/1x1"
}
layer {
  name: "inception_4e/3x3_reduce"
  type: "Convolution"
  bottom: "inception_4d/output"
  top: "inception_4e/3x3_reduce"
  param {
    lr_mult: 1
    decay_mult: 1
  }
  param {
    lr_mult: 2
    decay_mult: 0
  }
  convolution_param {
    num_output: 160
    kernel_size: 1
    weight_filler {
      type: "xavier"
      std: 0.09
    }
    bias_filler {
      type: "constant"
      value: 0.2
    }
  }
}
layer {
  name: "inception_4e/relu_3x3_reduce"
  type: "ReLU"
  bottom: "inception_4e/3x3_reduce"
  top: "inception_4e/3x3_reduce"
}
layer {
  name: "inception_4e/3x3"
  type: "Convolution"
  bottom: "inception_4e/3x3_reduce"
  top: "inception_4e/3x3"
  param {
    lr_mult: 1
    decay_mult: 1
  }
  param {
    lr_mult: 2
    decay_mult: 0
  }
  convolution_param {
    num_output: 320
    pad: 1
    kernel_size: 3
    weight_filler {
      type: "xavier"
      std: 0.03
    }
    bias_filler {
      type: "constant"
      value: 0.2
    }
  }
}
layer {
  name: "inception_4e/relu_3x3"
  type: "ReLU"
  bottom: "inception_4e/3x3"
  top: "inception_4e/3x3"
}
layer {
  name: "inception_4e/5x5_reduce"
  type: "Convolution"
  bottom: "inception_4d/output"
  top: "inception_4e/5x5_reduce"
  param {
    lr_mult: 1
    decay_mult: 1
  }
  param {
    lr_mult: 2
    decay_mult: 0
  }
  convolution_param {
    num_output: 32
    kernel_size: 1
    weight_filler {
      type: "xavier"
      std: 0.2
    }
    bias_filler {
      type: "constant"
      value: 0.2
    }
  }
}
layer {
  name: "inception_4e/relu_5x5_reduce"
  type: "ReLU"
  bottom: "inception_4e/5x5_reduce"
  top: "inception_4e/5x5_reduce"
}
layer {
  name: "inception_4e/5x5"
  type: "Convolution"
  bottom: "inception_4e/5x5_reduce"
  top: "inception_4e/5x5"
  p
I0403 14:18:10.282593 13119 layer_factory.hpp:77] Creating layer data
I0403 14:18:10.283221 13119 net.cpp:91] Creating Layer data
I0403 14:18:10.283253 13119 net.cpp:399] data -> data
I0403 14:18:10.283304 13119 net.cpp:399] data -> label
I0403 14:18:10.283341 13119 data_transformer.cpp:25] Loading mean file from: /home/mohanty/data/final_dataset/lmdb/color-40-60/mean.binaryproto
I0403 14:18:10.286008 13124 db_lmdb.cpp:38] Opened lmdb /home/mohanty/data/final_dataset/lmdb/color-40-60/test_db
I0403 14:18:10.296994 13119 data_layer.cpp:41] output data size: 24,3,224,224
I0403 14:18:10.324790 13119 net.cpp:141] Setting up data
I0403 14:18:10.324861 13119 net.cpp:148] Top shape: 24 3 224 224 (3612672)
I0403 14:18:10.324882 13119 net.cpp:148] Top shape: 24 (24)
I0403 14:18:10.324897 13119 net.cpp:156] Memory required for data: 14450784
I0403 14:18:10.324923 13119 layer_factory.hpp:77] Creating layer label_data_1_split
I0403 14:18:10.324949 13119 net.cpp:91] Creating Layer label_data_1_split
I0403 14:18:10.324965 13119 net.cpp:425] label_data_1_split <- label
I0403 14:18:10.324996 13119 net.cpp:399] label_data_1_split -> label_data_1_split_0
I0403 14:18:10.325023 13119 net.cpp:399] label_data_1_split -> label_data_1_split_1
I0403 14:18:10.325043 13119 net.cpp:399] label_data_1_split -> label_data_1_split_2
I0403 14:18:10.325063 13119 net.cpp:399] label_data_1_split -> label_data_1_split_3
I0403 14:18:10.325083 13119 net.cpp:399] label_data_1_split -> label_data_1_split_4
I0403 14:18:10.325103 13119 net.cpp:399] label_data_1_split -> label_data_1_split_5
I0403 14:18:10.325120 13119 net.cpp:399] label_data_1_split -> label_data_1_split_6
I0403 14:18:10.325140 13119 net.cpp:399] label_data_1_split -> label_data_1_split_7
I0403 14:18:10.325160 13119 net.cpp:399] label_data_1_split -> label_data_1_split_8
I0403 14:18:10.325178 13119 net.cpp:399] label_data_1_split -> label_data_1_split_9
I0403 14:18:10.325291 13119 net.cpp:141] Setting up label_data_1_split
I0403 14:18:10.325315 13119 net.cpp:148] Top shape: 24 (24)
I0403 14:18:10.325331 13119 net.cpp:148] Top shape: 24 (24)
I0403 14:18:10.325346 13119 net.cpp:148] Top shape: 24 (24)
I0403 14:18:10.325362 13119 net.cpp:148] Top shape: 24 (24)
I0403 14:18:10.325376 13119 net.cpp:148] Top shape: 24 (24)
I0403 14:18:10.325392 13119 net.cpp:148] Top shape: 24 (24)
I0403 14:18:10.325407 13119 net.cpp:148] Top shape: 24 (24)
I0403 14:18:10.325423 13119 net.cpp:148] Top shape: 24 (24)
I0403 14:18:10.325438 13119 net.cpp:148] Top shape: 24 (24)
I0403 14:18:10.325453 13119 net.cpp:148] Top shape: 24 (24)
I0403 14:18:10.325489 13119 net.cpp:156] Memory required for data: 14451744
I0403 14:18:10.325503 13119 layer_factory.hpp:77] Creating layer conv1/7x7_s2
I0403 14:18:10.325533 13119 net.cpp:91] Creating Layer conv1/7x7_s2
I0403 14:18:10.325551 13119 net.cpp:425] conv1/7x7_s2 <- data
I0403 14:18:10.325570 13119 net.cpp:399] conv1/7x7_s2 -> conv1/7x7_s2
I0403 14:18:10.466840 13119 net.cpp:141] Setting up conv1/7x7_s2
I0403 14:18:10.466919 13119 net.cpp:148] Top shape: 24 64 112 112 (19267584)
I0403 14:18:10.466936 13119 net.cpp:156] Memory required for data: 91522080
I0403 14:18:10.466966 13119 layer_factory.hpp:77] Creating layer conv1/relu_7x7
I0403 14:18:10.466994 13119 net.cpp:91] Creating Layer conv1/relu_7x7
I0403 14:18:10.467012 13119 net.cpp:425] conv1/relu_7x7 <- conv1/7x7_s2
I0403 14:18:10.467031 13119 net.cpp:386] conv1/relu_7x7 -> conv1/7x7_s2 (in-place)
I0403 14:18:10.467326 13119 net.cpp:141] Setting up conv1/relu_7x7
I0403 14:18:10.467355 13119 net.cpp:148] Top shape: 24 64 112 112 (19267584)
I0403 14:18:10.467370 13119 net.cpp:156] Memory required for data: 168592416
I0403 14:18:10.467384 13119 layer_factory.hpp:77] Creating layer pool1/3x3_s2
I0403 14:18:10.467408 13119 net.cpp:91] Creating Layer pool1/3x3_s2
I0403 14:18:10.467427 13119 net.cpp:425] pool1/3x3_s2 <- conv1/7x7_s2
I0403 14:18:10.467444 13119 net.cpp:399] pool1/3x3_s2 -> pool1/3x3_s2
I0403 14:18:10.467519 13119 net.cpp:141] Setting up pool1/3x3_s2
I0403 14:18:10.467543 13119 net.cpp:148] Top shape: 24 64 56 56 (4816896)
I0403 14:18:10.467558 13119 net.cpp:156] Memory required for data: 187860000
I0403 14:18:10.467572 13119 layer_factory.hpp:77] Creating layer pool1/norm1
I0403 14:18:10.467597 13119 net.cpp:91] Creating Layer pool1/norm1
I0403 14:18:10.467618 13119 net.cpp:425] pool1/norm1 <- pool1/3x3_s2
I0403 14:18:10.467636 13119 net.cpp:399] pool1/norm1 -> pool1/norm1
I0403 14:18:10.467921 13119 net.cpp:141] Setting up pool1/norm1
I0403 14:18:10.467948 13119 net.cpp:148] Top shape: 24 64 56 56 (4816896)
I0403 14:18:10.467963 13119 net.cpp:156] Memory required for data: 207127584
I0403 14:18:10.467978 13119 layer_factory.hpp:77] Creating layer conv2/3x3_reduce
I0403 14:18:10.468003 13119 net.cpp:91] Creating Layer conv2/3x3_reduce
I0403 14:18:10.468019 13119 net.cpp:425] conv2/3x3_reduce <- pool1/norm1
I0403 14:18:10.468037 13119 net.cpp:399] conv2/3x3_reduce -> conv2/3x3_reduce
I0403 14:18:10.469411 13119 net.cpp:141] Setting up conv2/3x3_reduce
I0403 14:18:10.469440 13119 net.cpp:148] Top shape: 24 64 56 56 (4816896)
I0403 14:18:10.469456 13119 net.cpp:156] Memory required for data: 226395168
I0403 14:18:10.469477 13119 layer_factory.hpp:77] Creating layer conv2/relu_3x3_reduce
I0403 14:18:10.469497 13119 net.cpp:91] Creating Layer conv2/relu_3x3_reduce
I0403 14:18:10.469512 13119 net.cpp:425] conv2/relu_3x3_reduce <- conv2/3x3_reduce
I0403 14:18:10.469529 13119 net.cpp:386] conv2/relu_3x3_reduce -> conv2/3x3_reduce (in-place)
I0403 14:18:10.469786 13119 net.cpp:141] Setting up conv2/relu_3x3_reduce
I0403 14:18:10.469813 13119 net.cpp:148] Top shape: 24 64 56 56 (4816896)
I0403 14:18:10.469828 13119 net.cpp:156] Memory required for data: 245662752
I0403 14:18:10.469843 13119 layer_factory.hpp:77] Creating layer conv2/3x3
I0403 14:18:10.469866 13119 net.cpp:91] Creating Layer conv2/3x3
I0403 14:18:10.469882 13119 net.cpp:425] conv2/3x3 <- conv2/3x3_reduce
I0403 14:18:10.469900 13119 net.cpp:399] conv2/3x3 -> conv2/3x3
I0403 14:18:10.472240 13119 net.cpp:141] Setting up conv2/3x3
I0403 14:18:10.472275 13119 net.cpp:148] Top shape: 24 192 56 56 (14450688)
I0403 14:18:10.472321 13119 net.cpp:156] Memory required for data: 303465504
I0403 14:18:10.472347 13119 layer_factory.hpp:77] Creating layer conv2/relu_3x3
I0403 14:18:10.472368 13119 net.cpp:91] Creating Layer conv2/relu_3x3
I0403 14:18:10.472383 13119 net.cpp:425] conv2/relu_3x3 <- conv2/3x3
I0403 14:18:10.472404 13119 net.cpp:386] conv2/relu_3x3 -> conv2/3x3 (in-place)
I0403 14:18:10.472585 13119 net.cpp:141] Setting up conv2/relu_3x3
I0403 14:18:10.472615 13119 net.cpp:148] Top shape: 24 192 56 56 (14450688)
I0403 14:18:10.472667 13119 net.cpp:156] Memory required for data: 361268256
I0403 14:18:10.472683 13119 layer_factory.hpp:77] Creating layer conv2/norm2
I0403 14:18:10.472704 13119 net.cpp:91] Creating Layer conv2/norm2
I0403 14:18:10.472720 13119 net.cpp:425] conv2/norm2 <- conv2/3x3
I0403 14:18:10.472740 13119 net.cpp:399] conv2/norm2 -> conv2/norm2
I0403 14:18:10.473052 13119 net.cpp:141] Setting up conv2/norm2
I0403 14:18:10.473081 13119 net.cpp:148] Top shape: 24 192 56 56 (14450688)
I0403 14:18:10.473098 13119 net.cpp:156] Memory required for data: 419071008
I0403 14:18:10.473114 13119 layer_factory.hpp:77] Creating layer pool2/3x3_s2
I0403 14:18:10.473131 13119 net.cpp:91] Creating Layer pool2/3x3_s2
I0403 14:18:10.473146 13119 net.cpp:425] pool2/3x3_s2 <- conv2/norm2
I0403 14:18:10.473166 13119 net.cpp:399] pool2/3x3_s2 -> pool2/3x3_s2
I0403 14:18:10.473219 13119 net.cpp:141] Setting up pool2/3x3_s2
I0403 14:18:10.473243 13119 net.cpp:148] Top shape: 24 192 28 28 (3612672)
I0403 14:18:10.473260 13119 net.cpp:156] Memory required for data: 433521696
I0403 14:18:10.473274 13119 layer_factory.hpp:77] Creating layer pool2/3x3_s2_pool2/3x3_s2_0_split
I0403 14:18:10.473294 13119 net.cpp:91] Creating Layer pool2/3x3_s2_pool2/3x3_s2_0_split
I0403 14:18:10.473309 13119 net.cpp:425] pool2/3x3_s2_pool2/3x3_s2_0_split <- pool2/3x3_s2
I0403 14:18:10.473326 13119 net.cpp:399] pool2/3x3_s2_pool2/3x3_s2_0_split -> pool2/3x3_s2_pool2/3x3_s2_0_split_0
I0403 14:18:10.473346 13119 net.cpp:399] pool2/3x3_s2_pool2/3x3_s2_0_split -> pool2/3x3_s2_pool2/3x3_s2_0_split_1
I0403 14:18:10.473366 13119 net.cpp:399] pool2/3x3_s2_pool2/3x3_s2_0_split -> pool2/3x3_s2_pool2/3x3_s2_0_split_2
I0403 14:18:10.473386 13119 net.cpp:399] pool2/3x3_s2_pool2/3x3_s2_0_split -> pool2/3x3_s2_pool2/3x3_s2_0_split_3
I0403 14:18:10.473456 13119 net.cpp:141] Setting up pool2/3x3_s2_pool2/3x3_s2_0_split
I0403 14:18:10.473479 13119 net.cpp:148] Top shape: 24 192 28 28 (3612672)
I0403 14:18:10.473495 13119 net.cpp:148] Top shape: 24 192 28 28 (3612672)
I0403 14:18:10.473511 13119 net.cpp:148] Top shape: 24 192 28 28 (3612672)
I0403 14:18:10.473526 13119 net.cpp:148] Top shape: 24 192 28 28 (3612672)
I0403 14:18:10.473541 13119 net.cpp:156] Memory required for data: 491324448
I0403 14:18:10.473554 13119 layer_factory.hpp:77] Creating layer inception_3a/1x1
I0403 14:18:10.473577 13119 net.cpp:91] Creating Layer inception_3a/1x1
I0403 14:18:10.473594 13119 net.cpp:425] inception_3a/1x1 <- pool2/3x3_s2_pool2/3x3_s2_0_split_0
I0403 14:18:10.473620 13119 net.cpp:399] inception_3a/1x1 -> inception_3a/1x1
I0403 14:18:10.475191 13119 net.cpp:141] Setting up inception_3a/1x1
I0403 14:18:10.475222 13119 net.cpp:148] Top shape: 24 64 28 28 (1204224)
I0403 14:18:10.475239 13119 net.cpp:156] Memory required for data: 496141344
I0403 14:18:10.475257 13119 layer_factory.hpp:77] Creating layer inception_3a/relu_1x1
I0403 14:18:10.475275 13119 net.cpp:91] Creating Layer inception_3a/relu_1x1
I0403 14:18:10.475291 13119 net.cpp:425] inception_3a/relu_1x1 <- inception_3a/1x1
I0403 14:18:10.475311 13119 net.cpp:386] inception_3a/relu_1x1 -> inception_3a/1x1 (in-place)
I0403 14:18:10.475483 13119 net.cpp:141] Setting up inception_3a/relu_1x1
I0403 14:18:10.475508 13119 net.cpp:148] Top shape: 24 64 28 28 (1204224)
I0403 14:18:10.475522 13119 net.cpp:156] Memory required for data: 500958240
I0403 14:18:10.475536 13119 layer_factory.hpp:77] Creating layer inception_3a/3x3_reduce
I0403 14:18:10.475558 13119 net.cpp:91] Creating Layer inception_3a/3x3_reduce
I0403 14:18:10.475574 13119 net.cpp:425] inception_3a/3x3_reduce <- pool2/3x3_s2_pool2/3x3_s2_0_split_1
I0403 14:18:10.475594 13119 net.cpp:399] inception_3a/3x3_reduce -> inception_3a/3x3_reduce
I0403 14:18:10.477293 13119 net.cpp:141] Setting up inception_3a/3x3_reduce
I0403 14:18:10.477324 13119 net.cpp:148] Top shape: 24 96 28 28 (1806336)
I0403 14:18:10.477339 13119 net.cpp:156] Memory required for data: 508183584
I0403 14:18:10.477360 13119 layer_factory.hpp:77] Creating layer inception_3a/relu_3x3_reduce
I0403 14:18:10.477396 13119 net.cpp:91] Creating Layer inception_3a/relu_3x3_reduce
I0403 14:18:10.477416 13119 net.cpp:425] inception_3a/relu_3x3_reduce <- inception_3a/3x3_reduce
I0403 14:18:10.477432 13119 net.cpp:386] inception_3a/relu_3x3_reduce -> inception_3a/3x3_reduce (in-place)
I0403 14:18:10.477617 13119 net.cpp:141] Setting up inception_3a/relu_3x3_reduce
I0403 14:18:10.477648 13119 net.cpp:148] Top shape: 24 96 28 28 (1806336)
I0403 14:18:10.477664 13119 net.cpp:156] Memory required for data: 515408928
I0403 14:18:10.477679 13119 layer_factory.hpp:77] Creating layer inception_3a/3x3
I0403 14:18:10.477700 13119 net.cpp:91] Creating Layer inception_3a/3x3
I0403 14:18:10.477717 13119 net.cpp:425] inception_3a/3x3 <- inception_3a/3x3_reduce
I0403 14:18:10.477735 13119 net.cpp:399] inception_3a/3x3 -> inception_3a/3x3
I0403 14:18:10.479362 13119 net.cpp:141] Setting up inception_3a/3x3
I0403 14:18:10.479389 13119 net.cpp:148] Top shape: 24 128 28 28 (2408448)
I0403 14:18:10.479404 13119 net.cpp:156] Memory required for data: 525042720
I0403 14:18:10.479423 13119 layer_factory.hpp:77] Creating layer inception_3a/relu_3x3
I0403 14:18:10.479439 13119 net.cpp:91] Creating Layer inception_3a/relu_3x3
I0403 14:18:10.479455 13119 net.cpp:425] inception_3a/relu_3x3 <- inception_3a/3x3
I0403 14:18:10.479475 13119 net.cpp:386] inception_3a/relu_3x3 -> inception_3a/3x3 (in-place)
I0403 14:18:10.479744 13119 net.cpp:141] Setting up inception_3a/relu_3x3
I0403 14:18:10.479770 13119 net.cpp:148] Top shape: 24 128 28 28 (2408448)
I0403 14:18:10.479786 13119 net.cpp:156] Memory required for data: 534676512
I0403 14:18:10.479800 13119 layer_factory.hpp:77] Creating layer inception_3a/5x5_reduce
I0403 14:18:10.479822 13119 net.cpp:91] Creating Layer inception_3a/5x5_reduce
I0403 14:18:10.479840 13119 net.cpp:425] inception_3a/5x5_reduce <- pool2/3x3_s2_pool2/3x3_s2_0_split_2
I0403 14:18:10.479861 13119 net.cpp:399] inception_3a/5x5_reduce -> inception_3a/5x5_reduce
I0403 14:18:10.480803 13119 net.cpp:141] Setting up inception_3a/5x5_reduce
I0403 14:18:10.480830 13119 net.cpp:148] Top shape: 24 16 28 28 (301056)
I0403 14:18:10.480845 13119 net.cpp:156] Memory required for data: 535880736
I0403 14:18:10.480864 13119 layer_factory.hpp:77] Creating layer inception_3a/relu_5x5_reduce
I0403 14:18:10.480883 13119 net.cpp:91] Creating Layer inception_3a/relu_5x5_reduce
I0403 14:18:10.480900 13119 net.cpp:425] inception_3a/relu_5x5_reduce <- inception_3a/5x5_reduce
I0403 14:18:10.480916 13119 net.cpp:386] inception_3a/relu_5x5_reduce -> inception_3a/5x5_reduce (in-place)
I0403 14:18:10.481209 13119 net.cpp:141] Setting up inception_3a/relu_5x5_reduce
I0403 14:18:10.481235 13119 net.cpp:148] Top shape: 24 16 28 28 (301056)
I0403 14:18:10.481250 13119 net.cpp:156] Memory required for data: 537084960
I0403 14:18:10.481266 13119 layer_factory.hpp:77] Creating layer inception_3a/5x5
I0403 14:18:10.481290 13119 net.cpp:91] Creating Layer inception_3a/5x5
I0403 14:18:10.481308 13119 net.cpp:425] inception_3a/5x5 <- inception_3a/5x5_reduce
I0403 14:18:10.481328 13119 net.cpp:399] inception_3a/5x5 -> inception_3a/5x5
I0403 14:18:10.482319 13119 net.cpp:141] Setting up inception_3a/5x5
I0403 14:18:10.482347 13119 net.cpp:148] Top shape: 24 32 28 28 (602112)
I0403 14:18:10.482362 13119 net.cpp:156] Memory required for data: 539493408
I0403 14:18:10.482380 13119 layer_factory.hpp:77] Creating layer inception_3a/relu_5x5
I0403 14:18:10.482398 13119 net.cpp:91] Creating Layer inception_3a/relu_5x5
I0403 14:18:10.482414 13119 net.cpp:425] inception_3a/relu_5x5 <- inception_3a/5x5
I0403 14:18:10.482432 13119 net.cpp:386] inception_3a/relu_5x5 -> inception_3a/5x5 (in-place)
I0403 14:18:10.482606 13119 net.cpp:141] Setting up inception_3a/relu_5x5
I0403 14:18:10.482632 13119 net.cpp:148] Top shape: 24 32 28 28 (602112)
I0403 14:18:10.482646 13119 net.cpp:156] Memory required for data: 541901856
I0403 14:18:10.482661 13119 layer_factory.hpp:77] Creating layer inception_3a/pool
I0403 14:18:10.482679 13119 net.cpp:91] Creating Layer inception_3a/pool
I0403 14:18:10.482695 13119 net.cpp:425] inception_3a/pool <- pool2/3x3_s2_pool2/3x3_s2_0_split_3
I0403 14:18:10.482728 13119 net.cpp:399] inception_3a/pool -> inception_3a/pool
I0403 14:18:10.482785 13119 net.cpp:141] Setting up inception_3a/pool
I0403 14:18:10.482808 13119 net.cpp:148] Top shape: 24 192 28 28 (3612672)
I0403 14:18:10.482823 13119 net.cpp:156] Memory required for data: 556352544
I0403 14:18:10.482837 13119 layer_factory.hpp:77] Creating layer inception_3a/pool_proj
I0403 14:18:10.482859 13119 net.cpp:91] Creating Layer inception_3a/pool_proj
I0403 14:18:10.482877 13119 net.cpp:425] inception_3a/pool_proj <- inception_3a/pool
I0403 14:18:10.482897 13119 net.cpp:399] inception_3a/pool_proj -> inception_3a/pool_proj
I0403 14:18:10.483846 13119 net.cpp:141] Setting up inception_3a/pool_proj
I0403 14:18:10.483876 13119 net.cpp:148] Top shape: 24 32 28 28 (602112)
I0403 14:18:10.483891 13119 net.cpp:156] Memory required for data: 558760992
I0403 14:18:10.483912 13119 layer_factory.hpp:77] Creating layer inception_3a/relu_pool_proj
I0403 14:18:10.483933 13119 net.cpp:91] Creating Layer inception_3a/relu_pool_proj
I0403 14:18:10.483950 13119 net.cpp:425] inception_3a/relu_pool_proj <- inception_3a/pool_proj
I0403 14:18:10.483968 13119 net.cpp:386] inception_3a/relu_pool_proj -> inception_3a/pool_proj (in-place)
I0403 14:18:10.484236 13119 net.cpp:141] Setting up inception_3a/relu_pool_proj
I0403 14:18:10.484263 13119 net.cpp:148] Top shape: 24 32 28 28 (602112)
I0403 14:18:10.484278 13119 net.cpp:156] Memory required for data: 561169440
I0403 14:18:10.484293 13119 layer_factory.hpp:77] Creating layer inception_3a/output
I0403 14:18:10.484310 13119 net.cpp:91] Creating Layer inception_3a/output
I0403 14:18:10.484326 13119 net.cpp:425] inception_3a/output <- inception_3a/1x1
I0403 14:18:10.484343 13119 net.cpp:425] inception_3a/output <- inception_3a/3x3
I0403 14:18:10.484357 13119 net.cpp:425] inception_3a/output <- inception_3a/5x5
I0403 14:18:10.484372 13119 net.cpp:425] inception_3a/output <- inception_3a/pool_proj
I0403 14:18:10.484395 13119 net.cpp:399] inception_3a/output -> inception_3a/output
I0403 14:18:10.484439 13119 net.cpp:141] Setting up inception_3a/output
I0403 14:18:10.484465 13119 net.cpp:148] Top shape: 24 256 28 28 (4816896)
I0403 14:18:10.484482 13119 net.cpp:156] Memory required for data: 580437024
I0403 14:18:10.484495 13119 layer_factory.hpp:77] Creating layer inception_3a/output_inception_3a/output_0_split
I0403 14:18:10.484511 13119 net.cpp:91] Creating Layer inception_3a/output_inception_3a/output_0_split
I0403 14:18:10.484525 13119 net.cpp:425] inception_3a/output_inception_3a/output_0_split <- inception_3a/output
I0403 14:18:10.484542 13119 net.cpp:399] inception_3a/output_inception_3a/output_0_split -> inception_3a/output_inception_3a/output_0_split_0
I0403 14:18:10.484561 13119 net.cpp:399] inception_3a/output_inception_3a/output_0_split -> inception_3a/output_inception_3a/output_0_split_1
I0403 14:18:10.484586 13119 net.cpp:399] inception_3a/output_inception_3a/output_0_split -> inception_3a/output_inception_3a/output_0_split_2
I0403 14:18:10.484617 13119 net.cpp:399] inception_3a/output_inception_3a/output_0_split -> inception_3a/output_inception_3a/output_0_split_3
I0403 14:18:10.484694 13119 net.cpp:141] Setting up inception_3a/output_inception_3a/output_0_split
I0403 14:18:10.484719 13119 net.cpp:148] Top shape: 24 256 28 28 (4816896)
I0403 14:18:10.484740 13119 net.cpp:148] Top shape: 24 256 28 28 (4816896)
I0403 14:18:10.484755 13119 net.cpp:148] Top shape: 24 256 28 28 (4816896)
I0403 14:18:10.484771 13119 net.cpp:148] Top shape: 24 256 28 28 (4816896)
I0403 14:18:10.484784 13119 net.cpp:156] Memory required for data: 657507360
I0403 14:18:10.484798 13119 layer_factory.hpp:77] Creating layer inception_3b/1x1
I0403 14:18:10.484820 13119 net.cpp:91] Creating Layer inception_3b/1x1
I0403 14:18:10.484838 13119 net.cpp:425] inception_3b/1x1 <- inception_3a/output_inception_3a/output_0_split_0
I0403 14:18:10.484855 13119 net.cpp:399] inception_3b/1x1 -> inception_3b/1x1
I0403 14:18:10.486007 13119 net.cpp:141] Setting up inception_3b/1x1
I0403 14:18:10.486050 13119 net.cpp:148] Top shape: 24 128 28 28 (2408448)
I0403 14:18:10.486068 13119 net.cpp:156] Memory required for data: 667141152
I0403 14:18:10.486088 13119 layer_factory.hpp:77] Creating layer inception_3b/relu_1x1
I0403 14:18:10.486105 13119 net.cpp:91] Creating Layer inception_3b/relu_1x1
I0403 14:18:10.486120 13119 net.cpp:425] inception_3b/relu_1x1 <- inception_3b/1x1
I0403 14:18:10.486140 13119 net.cpp:386] inception_3b/relu_1x1 -> inception_3b/1x1 (in-place)
I0403 14:18:10.486316 13119 net.cpp:141] Setting up inception_3b/relu_1x1
I0403 14:18:10.486341 13119 net.cpp:148] Top shape: 24 128 28 28 (2408448)
I0403 14:18:10.486356 13119 net.cpp:156] Memory required for data: 676774944
I0403 14:18:10.486371 13119 layer_factory.hpp:77] Creating layer inception_3b/3x3_reduce
I0403 14:18:10.486393 13119 net.cpp:91] Creating Layer inception_3b/3x3_reduce
I0403 14:18:10.486412 13119 net.cpp:425] inception_3b/3x3_reduce <- inception_3a/output_inception_3a/output_0_split_1
I0403 14:18:10.486433 13119 net.cpp:399] inception_3b/3x3_reduce -> inception_3b/3x3_reduce
I0403 14:18:10.487581 13119 net.cpp:141] Setting up inception_3b/3x3_reduce
I0403 14:18:10.487617 13119 net.cpp:148] Top shape: 24 128 28 28 (2408448)
I0403 14:18:10.487634 13119 net.cpp:156] Memory required for data: 686408736
I0403 14:18:10.487653 13119 layer_factory.hpp:77] Creating layer inception_3b/relu_3x3_reduce
I0403 14:18:10.487670 13119 net.cpp:91] Creating Layer inception_3b/relu_3x3_reduce
I0403 14:18:10.487687 13119 net.cpp:425] inception_3b/relu_3x3_reduce <- inception_3b/3x3_reduce
I0403 14:18:10.487704 13119 net.cpp:386] inception_3b/relu_3x3_reduce -> inception_3b/3x3_reduce (in-place)
I0403 14:18:10.487890 13119 net.cpp:141] Setting up inception_3b/relu_3x3_reduce
I0403 14:18:10.487915 13119 net.cpp:148] Top shape: 24 128 28 28 (2408448)
I0403 14:18:10.487929 13119 net.cpp:156] Memory required for data: 696042528
I0403 14:18:10.487944 13119 layer_factory.hpp:77] Creating layer inception_3b/3x3
I0403 14:18:10.487969 13119 net.cpp:91] Creating Layer inception_3b/3x3
I0403 14:18:10.487987 13119 net.cpp:425] inception_3b/3x3 <- inception_3b/3x3_reduce
I0403 14:18:10.488008 13119 net.cpp:399] inception_3b/3x3 -> inception_3b/3x3
I0403 14:18:10.491006 13119 net.cpp:141] Setting up inception_3b/3x3
I0403 14:18:10.491035 13119 net.cpp:148] Top shape: 24 192 28 28 (3612672)
I0403 14:18:10.491051 13119 net.cpp:156] Memory required for data: 710493216
I0403 14:18:10.491070 13119 layer_factory.hpp:77] Creating layer inception_3b/relu_3x3
I0403 14:18:10.491088 13119 net.cpp:91] Creating Layer inception_3b/relu_3x3
I0403 14:18:10.491104 13119 net.cpp:425] inception_3b/relu_3x3 <- inception_3b/3x3
I0403 14:18:10.491123 13119 net.cpp:386] inception_3b/relu_3x3 -> inception_3b/3x3 (in-place)
I0403 14:18:10.491406 13119 net.cpp:141] Setting up inception_3b/relu_3x3
I0403 14:18:10.491433 13119 net.cpp:148] Top shape: 24 192 28 28 (3612672)
I0403 14:18:10.491449 13119 net.cpp:156] Memory required for data: 724943904
I0403 14:18:10.491464 13119 layer_factory.hpp:77] Creating layer inception_3b/5x5_reduce
I0403 14:18:10.491487 13119 net.cpp:91] Creating Layer inception_3b/5x5_reduce
I0403 14:18:10.491503 13119 net.cpp:425] inception_3b/5x5_reduce <- inception_3a/output_inception_3a/output_0_split_2
I0403 14:18:10.491525 13119 net.cpp:399] inception_3b/5x5_reduce -> inception_3b/5x5_reduce
I0403 14:18:10.492527 13119 net.cpp:141] Setting up inception_3b/5x5_reduce
I0403 14:18:10.492555 13119 net.cpp:148] Top shape: 24 32 28 28 (602112)
I0403 14:18:10.492570 13119 net.cpp:156] Memory required for data: 727352352
I0403 14:18:10.492588 13119 layer_factory.hpp:77] Creating layer inception_3b/relu_5x5_reduce
I0403 14:18:10.492612 13119 net.cpp:91] Creating Layer inception_3b/relu_5x5_reduce
I0403 14:18:10.492630 13119 net.cpp:425] inception_3b/relu_5x5_reduce <- inception_3b/5x5_reduce
I0403 14:18:10.492650 13119 net.cpp:386] inception_3b/relu_5x5_reduce -> inception_3b/5x5_reduce (in-place)
I0403 14:18:10.492830 13119 net.cpp:141] Setting up inception_3b/relu_5x5_reduce
I0403 14:18:10.492868 13119 net.cpp:148] Top shape: 24 32 28 28 (602112)
I0403 14:18:10.492884 13119 net.cpp:156] Memory required for data: 729760800
I0403 14:18:10.492898 13119 layer_factory.hpp:77] Creating layer inception_3b/5x5
I0403 14:18:10.492921 13119 net.cpp:91] Creating Layer inception_3b/5x5
I0403 14:18:10.492938 13119 net.cpp:425] inception_3b/5x5 <- inception_3b/5x5_reduce
I0403 14:18:10.492959 13119 net.cpp:399] inception_3b/5x5 -> inception_3b/5x5
I0403 14:18:10.495002 13119 net.cpp:141] Setting up inception_3b/5x5
I0403 14:18:10.495033 13119 net.cpp:148] Top shape: 24 96 28 28 (1806336)
I0403 14:18:10.495050 13119 net.cpp:156] Memory required for data: 736986144
I0403 14:18:10.495069 13119 layer_factory.hpp:77] Creating layer inception_3b/relu_5x5
I0403 14:18:10.495087 13119 net.cpp:91] Creating Layer inception_3b/relu_5x5
I0403 14:18:10.495103 13119 net.cpp:425] inception_3b/relu_5x5 <- inception_3b/5x5
I0403 14:18:10.495121 13119 net.cpp:386] inception_3b/relu_5x5 -> inception_3b/5x5 (in-place)
I0403 14:18:10.495316 13119 net.cpp:141] Setting up inception_3b/relu_5x5
I0403 14:18:10.495342 13119 net.cpp:148] Top shape: 24 96 28 28 (1806336)
I0403 14:18:10.495357 13119 net.cpp:156] Memory required for data: 744211488
I0403 14:18:10.495373 13119 layer_factory.hpp:77] Creating layer inception_3b/pool
I0403 14:18:10.495390 13119 net.cpp:91] Creating Layer inception_3b/pool
I0403 14:18:10.495405 13119 net.cpp:425] inception_3b/pool <- inception_3a/output_inception_3a/output_0_split_3
I0403 14:18:10.495424 13119 net.cpp:399] inception_3b/pool -> inception_3b/pool
I0403 14:18:10.495479 13119 net.cpp:141] Setting up inception_3b/pool
I0403 14:18:10.495506 13119 net.cpp:148] Top shape: 24 256 28 28 (4816896)
I0403 14:18:10.495520 13119 net.cpp:156] Memory required for data: 763479072
I0403 14:18:10.495535 13119 layer_factory.hpp:77] Creating layer inception_3b/pool_proj
I0403 14:18:10.495563 13119 net.cpp:91] Creating Layer inception_3b/pool_proj
I0403 14:18:10.495581 13119 net.cpp:425] inception_3b/pool_proj <- inception_3b/pool
I0403 14:18:10.495604 13119 net.cpp:399] inception_3b/pool_proj -> inception_3b/pool_proj
I0403 14:18:10.496675 13119 net.cpp:141] Setting up inception_3b/pool_proj
I0403 14:18:10.496702 13119 net.cpp:148] Top shape: 24 64 28 28 (1204224)
I0403 14:18:10.496717 13119 net.cpp:156] Memory required for data: 768295968
I0403 14:18:10.496737 13119 layer_factory.hpp:77] Creating layer inception_3b/relu_pool_proj
I0403 14:18:10.496757 13119 net.cpp:91] Creating Layer inception_3b/relu_pool_proj
I0403 14:18:10.496773 13119 net.cpp:425] inception_3b/relu_pool_proj <- inception_3b/pool_proj
I0403 14:18:10.496790 13119 net.cpp:386] inception_3b/relu_pool_proj -> inception_3b/pool_proj (in-place)
I0403 14:18:10.497192 13119 net.cpp:141] Setting up inception_3b/relu_pool_proj
I0403 14:18:10.497220 13119 net.cpp:148] Top shape: 24 64 28 28 (1204224)
I0403 14:18:10.497234 13119 net.cpp:156] Memory required for data: 773112864
I0403 14:18:10.497249 13119 layer_factory.hpp:77] Creating layer inception_3b/output
I0403 14:18:10.497268 13119 net.cpp:91] Creating Layer inception_3b/output
I0403 14:18:10.497283 13119 net.cpp:425] inception_3b/output <- inception_3b/1x1
I0403 14:18:10.497299 13119 net.cpp:425] inception_3b/output <- inception_3b/3x3
I0403 14:18:10.497315 13119 net.cpp:425] inception_3b/output <- inception_3b/5x5
I0403 14:18:10.497330 13119 net.cpp:425] inception_3b/output <- inception_3b/pool_proj
I0403 14:18:10.497350 13119 net.cpp:399] inception_3b/output -> inception_3b/output
I0403 14:18:10.497397 13119 net.cpp:141] Setting up inception_3b/output
I0403 14:18:10.497421 13119 net.cpp:148] Top shape: 24 480 28 28 (9031680)
I0403 14:18:10.497436 13119 net.cpp:156] Memory required for data: 809239584
I0403 14:18:10.497449 13119 layer_factory.hpp:77] Creating layer pool3/3x3_s2
I0403 14:18:10.497467 13119 net.cpp:91] Creating Layer pool3/3x3_s2
I0403 14:18:10.497483 13119 net.cpp:425] pool3/3x3_s2 <- inception_3b/output
I0403 14:18:10.497503 13119 net.cpp:399] pool3/3x3_s2 -> pool3/3x3_s2
I0403 14:18:10.497575 13119 net.cpp:141] Setting up pool3/3x3_s2
I0403 14:18:10.497602 13119 net.cpp:148] Top shape: 24 480 14 14 (2257920)
I0403 14:18:10.497619 13119 net.cpp:156] Memory required for data: 818271264
I0403 14:18:10.497633 13119 layer_factory.hpp:77] Creating layer pool3/3x3_s2_pool3/3x3_s2_0_split
I0403 14:18:10.497653 13119 net.cpp:91] Creating Layer pool3/3x3_s2_pool3/3x3_s2_0_split
I0403 14:18:10.497669 13119 net.cpp:425] pool3/3x3_s2_pool3/3x3_s2_0_split <- pool3/3x3_s2
I0403 14:18:10.497686 13119 net.cpp:399] pool3/3x3_s2_pool3/3x3_s2_0_split -> pool3/3x3_s2_pool3/3x3_s2_0_split_0
I0403 14:18:10.497705 13119 net.cpp:399] pool3/3x3_s2_pool3/3x3_s2_0_split -> pool3/3x3_s2_pool3/3x3_s2_0_split_1
I0403 14:18:10.497728 13119 net.cpp:399] pool3/3x3_s2_pool3/3x3_s2_0_split -> pool3/3x3_s2_pool3/3x3_s2_0_split_2
I0403 14:18:10.497748 13119 net.cpp:399] pool3/3x3_s2_pool3/3x3_s2_0_split -> pool3/3x3_s2_pool3/3x3_s2_0_split_3
I0403 14:18:10.497825 13119 net.cpp:141] Setting up pool3/3x3_s2_pool3/3x3_s2_0_split
I0403 14:18:10.497848 13119 net.cpp:148] Top shape: 24 480 14 14 (2257920)
I0403 14:18:10.497864 13119 net.cpp:148] Top shape: 24 480 14 14 (2257920)
I0403 14:18:10.497879 13119 net.cpp:148] Top shape: 24 480 14 14 (2257920)
I0403 14:18:10.497895 13119 net.cpp:148] Top shape: 24 480 14 14 (2257920)
I0403 14:18:10.497908 13119 net.cpp:156] Memory required for data: 854397984
I0403 14:18:10.497922 13119 layer_factory.hpp:77] Creating layer inception_4a/1x1
I0403 14:18:10.497946 13119 net.cpp:91] Creating Layer inception_4a/1x1
I0403 14:18:10.497961 13119 net.cpp:425] inception_4a/1x1 <- pool3/3x3_s2_pool3/3x3_s2_0_split_0
I0403 14:18:10.497983 13119 net.cpp:399] inception_4a/1x1 -> inception_4a/1x1
I0403 14:18:10.499583 13119 net.cpp:141] Setting up inception_4a/1x1
I0403 14:18:10.499615 13119 net.cpp:148] Top shape: 24 192 14 14 (903168)
I0403 14:18:10.499632 13119 net.cpp:156] Memory required for data: 858010656
I0403 14:18:10.499650 13119 layer_factory.hpp:77] Creating layer inception_4a/relu_1x1
I0403 14:18:10.499672 13119 net.cpp:91] Creating Layer inception_4a/relu_1x1
I0403 14:18:10.499689 13119 net.cpp:425] inception_4a/relu_1x1 <- inception_4a/1x1
I0403 14:18:10.499706 13119 net.cpp:386] inception_4a/relu_1x1 -> inception_4a/1x1 (in-place)
I0403 14:18:10.499887 13119 net.cpp:141] Setting up inception_4a/relu_1x1
I0403 14:18:10.499915 13119 net.cpp:148] Top shape: 24 192 14 14 (903168)
I0403 14:18:10.499930 13119 net.cpp:156] Memory required for data: 861623328
I0403 14:18:10.499944 13119 layer_factory.hpp:77] Creating layer inception_4a/3x3_reduce
I0403 14:18:10.499968 13119 net.cpp:91] Creating Layer inception_4a/3x3_reduce
I0403 14:18:10.499984 13119 net.cpp:425] inception_4a/3x3_reduce <- pool3/3x3_s2_pool3/3x3_s2_0_split_1
I0403 14:18:10.500002 13119 net.cpp:399] inception_4a/3x3_reduce -> inception_4a/3x3_reduce
I0403 14:18:10.501293 13119 net.cpp:141] Setting up inception_4a/3x3_reduce
I0403 14:18:10.501322 13119 net.cpp:148] Top shape: 24 96 14 14 (451584)
I0403 14:18:10.501338 13119 net.cpp:156] Memory required for data: 863429664
I0403 14:18:10.501363 13119 layer_factory.hpp:77] Creating layer inception_4a/relu_3x3_reduce
I0403 14:18:10.501384 13119 net.cpp:91] Creating Layer inception_4a/relu_3x3_reduce
I0403 14:18:10.501400 13119 net.cpp:425] inception_4a/relu_3x3_reduce <- inception_4a/3x3_reduce
I0403 14:18:10.501417 13119 net.cpp:386] inception_4a/relu_3x3_reduce -> inception_4a/3x3_reduce (in-place)
I0403 14:18:10.501593 13119 net.cpp:141] Setting up inception_4a/relu_3x3_reduce
I0403 14:18:10.501624 13119 net.cpp:148] Top shape: 24 96 14 14 (451584)
I0403 14:18:10.501641 13119 net.cpp:156] Memory required for data: 865236000
I0403 14:18:10.501655 13119 layer_factory.hpp:77] Creating layer inception_4a/3x3
I0403 14:18:10.501677 13119 net.cpp:91] Creating Layer inception_4a/3x3
I0403 14:18:10.501694 13119 net.cpp:425] inception_4a/3x3 <- inception_4a/3x3_reduce
I0403 14:18:10.501714 13119 net.cpp:399] inception_4a/3x3 -> inception_4a/3x3
I0403 14:18:10.504447 13119 net.cpp:141] Setting up inception_4a/3x3
I0403 14:18:10.504478 13119 net.cpp:148] Top shape: 24 208 14 14 (978432)
I0403 14:18:10.504494 13119 net.cpp:156] Memory required for data: 869149728
I0403 14:18:10.504513 13119 layer_factory.hpp:77] Creating layer inception_4a/relu_3x3
I0403 14:18:10.504530 13119 net.cpp:91] Creating Layer inception_4a/relu_3x3
I0403 14:18:10.504545 13119 net.cpp:425] inception_4a/relu_3x3 <- inception_4a/3x3
I0403 14:18:10.504562 13119 net.cpp:386] inception_4a/relu_3x3 -> inception_4a/3x3 (in-place)
I0403 14:18:10.504848 13119 net.cpp:141] Setting up inception_4a/relu_3x3
I0403 14:18:10.504878 13119 net.cpp:148] Top shape: 24 208 14 14 (978432)
I0403 14:18:10.504894 13119 net.cpp:156] Memory required for data: 873063456
I0403 14:18:10.504907 13119 layer_factory.hpp:77] Creating layer inception_4a/5x5_reduce
I0403 14:18:10.504930 13119 net.cpp:91] Creating Layer inception_4a/5x5_reduce
I0403 14:18:10.504946 13119 net.cpp:425] inception_4a/5x5_reduce <- pool3/3x3_s2_pool3/3x3_s2_0_split_2
I0403 14:18:10.504966 13119 net.cpp:399] inception_4a/5x5_reduce -> inception_4a/5x5_reduce
I0403 14:18:10.505978 13119 net.cpp:141] Setting up inception_4a/5x5_reduce
I0403 14:18:10.506006 13119 net.cpp:148] Top shape: 24 16 14 14 (75264)
I0403 14:18:10.506021 13119 net.cpp:156] Memory required for data: 873364512
I0403 14:18:10.506037 13119 layer_factory.hpp:77] Creating layer inception_4a/relu_5x5_reduce
I0403 14:18:10.506057 13119 net.cpp:91] Creating Layer inception_4a/relu_5x5_reduce
I0403 14:18:10.506072 13119 net.cpp:425] inception_4a/relu_5x5_reduce <- inception_4a/5x5_reduce
I0403 14:18:10.506090 13119 net.cpp:386] inception_4a/relu_5x5_reduce -> inception_4a/5x5_reduce (in-place)
I0403 14:18:10.506265 13119 net.cpp:141] Setting up inception_4a/relu_5x5_reduce
I0403 14:18:10.506290 13119 net.cpp:148] Top shape: 24 16 14 14 (75264)
I0403 14:18:10.506304 13119 net.cpp:156] Memory required for data: 873665568
I0403 14:18:10.506319 13119 layer_factory.hpp:77] Creating layer inception_4a/5x5
I0403 14:18:10.506340 13119 net.cpp:91] Creating Layer inception_4a/5x5
I0403 14:18:10.506358 13119 net.cpp:425] inception_4a/5x5 <- inception_4a/5x5_reduce
I0403 14:18:10.506379 13119 net.cpp:399] inception_4a/5x5 -> inception_4a/5x5
I0403 14:18:10.507453 13119 net.cpp:141] Setting up inception_4a/5x5
I0403 14:18:10.507480 13119 net.cpp:148] Top shape: 24 48 14 14 (225792)
I0403 14:18:10.507495 13119 net.cpp:156] Memory required for data: 874568736
I0403 14:18:10.507513 13119 layer_factory.hpp:77] Creating layer inception_4a/relu_5x5
I0403 14:18:10.507532 13119 net.cpp:91] Creating Layer inception_4a/relu_5x5
I0403 14:18:10.507550 13119 net.cpp:425] inception_4a/relu_5x5 <- inception_4a/5x5
I0403 14:18:10.507566 13119 net.cpp:386] inception_4a/relu_5x5 -> inception_4a/5x5 (in-place)
I0403 14:18:10.507743 13119 net.cpp:141] Setting up inception_4a/relu_5x5
I0403 14:18:10.507771 13119 net.cpp:148] Top shape: 24 48 14 14 (225792)
I0403 14:18:10.507786 13119 net.cpp:156] Memory required for data: 875471904
I0403 14:18:10.507800 13119 layer_factory.hpp:77] Creating layer inception_4a/pool
I0403 14:18:10.507817 13119 net.cpp:91] Creating Layer inception_4a/pool
I0403 14:18:10.507833 13119 net.cpp:425] inception_4a/pool <- pool3/3x3_s2_pool3/3x3_s2_0_split_3
I0403 14:18:10.507849 13119 net.cpp:399] inception_4a/pool -> inception_4a/pool
I0403 14:18:10.507910 13119 net.cpp:141] Setting up inception_4a/pool
I0403 14:18:10.507933 13119 net.cpp:148] Top shape: 24 480 14 14 (2257920)
I0403 14:18:10.507947 13119 net.cpp:156] Memory required for data: 884503584
I0403 14:18:10.507961 13119 layer_factory.hpp:77] Creating layer inception_4a/pool_proj
I0403 14:18:10.507984 13119 net.cpp:91] Creating Layer inception_4a/pool_proj
I0403 14:18:10.508002 13119 net.cpp:425] inception_4a/pool_proj <- inception_4a/pool
I0403 14:18:10.508021 13119 net.cpp:399] inception_4a/pool_proj -> inception_4a/pool_proj
I0403 14:18:10.509168 13119 net.cpp:141] Setting up inception_4a/pool_proj
I0403 14:18:10.509196 13119 net.cpp:148] Top shape: 24 64 14 14 (301056)
I0403 14:18:10.509225 13119 net.cpp:156] Memory required for data: 885707808
I0403 14:18:10.509244 13119 layer_factory.hpp:77] Creating layer inception_4a/relu_pool_proj
I0403 14:18:10.509268 13119 net.cpp:91] Creating Layer inception_4a/relu_pool_proj
I0403 14:18:10.509284 13119 net.cpp:425] inception_4a/relu_pool_proj <- inception_4a/pool_proj
I0403 14:18:10.509300 13119 net.cpp:386] inception_4a/relu_pool_proj -> inception_4a/pool_proj (in-place)
I0403 14:18:10.509578 13119 net.cpp:141] Setting up inception_4a/relu_pool_proj
I0403 14:18:10.509608 13119 net.cpp:148] Top shape: 24 64 14 14 (301056)
I0403 14:18:10.509624 13119 net.cpp:156] Memory required for data: 886912032
I0403 14:18:10.509639 13119 layer_factory.hpp:77] Creating layer inception_4a/output
I0403 14:18:10.509659 13119 net.cpp:91] Creating Layer inception_4a/output
I0403 14:18:10.509675 13119 net.cpp:425] inception_4a/output <- inception_4a/1x1
I0403 14:18:10.509690 13119 net.cpp:425] inception_4a/output <- inception_4a/3x3
I0403 14:18:10.509706 13119 net.cpp:425] inception_4a/output <- inception_4a/5x5
I0403 14:18:10.509721 13119 net.cpp:425] inception_4a/output <- inception_4a/pool_proj
I0403 14:18:10.509738 13119 net.cpp:399] inception_4a/output -> inception_4a/output
I0403 14:18:10.509783 13119 net.cpp:141] Setting up inception_4a/output
I0403 14:18:10.509805 13119 net.cpp:148] Top shape: 24 512 14 14 (2408448)
I0403 14:18:10.509820 13119 net.cpp:156] Memory required for data: 896545824
I0403 14:18:10.509835 13119 layer_factory.hpp:77] Creating layer inception_4a/output_inception_4a/output_0_split
I0403 14:18:10.509852 13119 net.cpp:91] Creating Layer inception_4a/output_inception_4a/output_0_split
I0403 14:18:10.509866 13119 net.cpp:425] inception_4a/output_inception_4a/output_0_split <- inception_4a/output
I0403 14:18:10.509886 13119 net.cpp:399] inception_4a/output_inception_4a/output_0_split -> inception_4a/output_inception_4a/output_0_split_0
I0403 14:18:10.509907 13119 net.cpp:399] inception_4a/output_inception_4a/output_0_split -> inception_4a/output_inception_4a/output_0_split_1
I0403 14:18:10.509927 13119 net.cpp:399] inception_4a/output_inception_4a/output_0_split -> inception_4a/output_inception_4a/output_0_split_2
I0403 14:18:10.509948 13119 net.cpp:399] inception_4a/output_inception_4a/output_0_split -> inception_4a/output_inception_4a/output_0_split_3
I0403 14:18:10.509966 13119 net.cpp:399] inception_4a/output_inception_4a/output_0_split -> inception_4a/output_inception_4a/output_0_split_4
I0403 14:18:10.510063 13119 net.cpp:141] Setting up inception_4a/output_inception_4a/output_0_split
I0403 14:18:10.510085 13119 net.cpp:148] Top shape: 24 512 14 14 (2408448)
I0403 14:18:10.510102 13119 net.cpp:148] Top shape: 24 512 14 14 (2408448)
I0403 14:18:10.510118 13119 net.cpp:148] Top shape: 24 512 14 14 (2408448)
I0403 14:18:10.510133 13119 net.cpp:148] Top shape: 24 512 14 14 (2408448)
I0403 14:18:10.510148 13119 net.cpp:148] Top shape: 24 512 14 14 (2408448)
I0403 14:18:10.510161 13119 net.cpp:156] Memory required for data: 944714784
I0403 14:18:10.510175 13119 layer_factory.hpp:77] Creating layer loss1/ave_pool
I0403 14:18:10.510192 13119 net.cpp:91] Creating Layer loss1/ave_pool
I0403 14:18:10.510207 13119 net.cpp:425] loss1/ave_pool <- inception_4a/output_inception_4a/output_0_split_0
I0403 14:18:10.510227 13119 net.cpp:399] loss1/ave_pool -> loss1/ave_pool
I0403 14:18:10.510428 13119 net.cpp:141] Setting up loss1/ave_pool
I0403 14:18:10.510454 13119 net.cpp:148] Top shape: 24 512 4 4 (196608)
I0403 14:18:10.510468 13119 net.cpp:156] Memory required for data: 945501216
I0403 14:18:10.510483 13119 layer_factory.hpp:77] Creating layer loss1/conv
I0403 14:18:10.510505 13119 net.cpp:91] Creating Layer loss1/conv
I0403 14:18:10.510521 13119 net.cpp:425] loss1/conv <- loss1/ave_pool
I0403 14:18:10.510542 13119 net.cpp:399] loss1/conv -> loss1/conv
I0403 14:18:10.511941 13119 net.cpp:141] Setting up loss1/conv
I0403 14:18:10.511971 13119 net.cpp:148] Top shape: 24 128 4 4 (49152)
I0403 14:18:10.511988 13119 net.cpp:156] Memory required for data: 945697824
I0403 14:18:10.512020 13119 layer_factory.hpp:77] Creating layer loss1/relu_conv
I0403 14:18:10.512040 13119 net.cpp:91] Creating Layer loss1/relu_conv
I0403 14:18:10.512055 13119 net.cpp:425] loss1/relu_conv <- loss1/conv
I0403 14:18:10.512073 13119 net.cpp:386] loss1/relu_conv -> loss1/conv (in-place)
I0403 14:18:10.512351 13119 net.cpp:141] Setting up loss1/relu_conv
I0403 14:18:10.512378 13119 net.cpp:148] Top shape: 24 128 4 4 (49152)
I0403 14:18:10.512394 13119 net.cpp:156] Memory required for data: 945894432
I0403 14:18:10.512408 13119 layer_factory.hpp:77] Creating layer loss1/fc
I0403 14:18:10.512431 13119 net.cpp:91] Creating Layer loss1/fc
I0403 14:18:10.512449 13119 net.cpp:425] loss1/fc <- loss1/conv
I0403 14:18:10.512468 13119 net.cpp:399] loss1/fc -> loss1/fc
I0403 14:18:10.530140 13119 net.cpp:141] Setting up loss1/fc
I0403 14:18:10.530174 13119 net.cpp:148] Top shape: 24 1024 (24576)
I0403 14:18:10.530190 13119 net.cpp:156] Memory required for data: 945992736
I0403 14:18:10.530208 13119 layer_factory.hpp:77] Creating layer loss1/relu_fc
I0403 14:18:10.530226 13119 net.cpp:91] Creating Layer loss1/relu_fc
I0403 14:18:10.530241 13119 net.cpp:425] loss1/relu_fc <- loss1/fc
I0403 14:18:10.530258 13119 net.cpp:386] loss1/relu_fc -> loss1/fc (in-place)
I0403 14:18:10.530443 13119 net.cpp:141] Setting up loss1/relu_fc
I0403 14:18:10.530470 13119 net.cpp:148] Top shape: 24 1024 (24576)
I0403 14:18:10.530485 13119 net.cpp:156] Memory required for data: 946091040
I0403 14:18:10.530499 13119 layer_factory.hpp:77] Creating layer loss1/drop_fc
I0403 14:18:10.530524 13119 net.cpp:91] Creating Layer loss1/drop_fc
I0403 14:18:10.530540 13119 net.cpp:425] loss1/drop_fc <- loss1/fc
I0403 14:18:10.530560 13119 net.cpp:386] loss1/drop_fc -> loss1/fc (in-place)
I0403 14:18:10.530613 13119 net.cpp:141] Setting up loss1/drop_fc
I0403 14:18:10.530637 13119 net.cpp:148] Top shape: 24 1024 (24576)
I0403 14:18:10.530652 13119 net.cpp:156] Memory required for data: 946189344
I0403 14:18:10.530665 13119 layer_factory.hpp:77] Creating layer loss1/classifier_plantvillage
I0403 14:18:10.530688 13119 net.cpp:91] Creating Layer loss1/classifier_plantvillage
I0403 14:18:10.530704 13119 net.cpp:425] loss1/classifier_plantvillage <- loss1/fc
I0403 14:18:10.530720 13119 net.cpp:399] loss1/classifier_plantvillage -> loss1/classifier_plantvillage
I0403 14:18:10.531630 13119 net.cpp:141] Setting up loss1/classifier_plantvillage
I0403 14:18:10.531661 13119 net.cpp:148] Top shape: 24 38 (912)
I0403 14:18:10.531677 13119 net.cpp:156] Memory required for data: 946192992
I0403 14:18:10.531694 13119 layer_factory.hpp:77] Creating layer loss1/classifier_plantvillage_loss1/classifier_plantvillage_0_split
I0403 14:18:10.531714 13119 net.cpp:91] Creating Layer loss1/classifier_plantvillage_loss1/classifier_plantvillage_0_split
I0403 14:18:10.531730 13119 net.cpp:425] loss1/classifier_plantvillage_loss1/classifier_plantvillage_0_split <- loss1/classifier_plantvillage
I0403 14:18:10.531747 13119 net.cpp:399] loss1/classifier_plantvillage_loss1/classifier_plantvillage_0_split -> loss1/classifier_plantvillage_loss1/classifier_plantvillage_0_split_0
I0403 14:18:10.531766 13119 net.cpp:399] loss1/classifier_plantvillage_loss1/classifier_plantvillage_0_split -> loss1/classifier_plantvillage_loss1/classifier_plantvillage_0_split_1
I0403 14:18:10.531788 13119 net.cpp:399] loss1/classifier_plantvillage_loss1/classifier_plantvillage_0_split -> loss1/classifier_plantvillage_loss1/classifier_plantvillage_0_split_2
I0403 14:18:10.531854 13119 net.cpp:141] Setting up loss1/classifier_plantvillage_loss1/classifier_plantvillage_0_split
I0403 14:18:10.531877 13119 net.cpp:148] Top shape: 24 38 (912)
I0403 14:18:10.531893 13119 net.cpp:148] Top shape: 24 38 (912)
I0403 14:18:10.531908 13119 net.cpp:148] Top shape: 24 38 (912)
I0403 14:18:10.531922 13119 net.cpp:156] Memory required for data: 946203936
I0403 14:18:10.531935 13119 layer_factory.hpp:77] Creating layer inception_4b/1x1
I0403 14:18:10.531956 13119 net.cpp:91] Creating Layer inception_4b/1x1
I0403 14:18:10.531988 13119 net.cpp:425] inception_4b/1x1 <- inception_4a/output_inception_4a/output_0_split_1
I0403 14:18:10.532011 13119 net.cpp:399] inception_4b/1x1 -> inception_4b/1x1
I0403 14:18:10.533723 13119 net.cpp:141] Setting up inception_4b/1x1
I0403 14:18:10.533752 13119 net.cpp:148] Top shape: 24 160 14 14 (752640)
I0403 14:18:10.533767 13119 net.cpp:156] Memory required for data: 949214496
I0403 14:18:10.533787 13119 layer_factory.hpp:77] Creating layer inception_4b/relu_1x1
I0403 14:18:10.533804 13119 net.cpp:91] Creating Layer inception_4b/relu_1x1
I0403 14:18:10.533820 13119 net.cpp:425] inception_4b/relu_1x1 <- inception_4b/1x1
I0403 14:18:10.533843 13119 net.cpp:386] inception_4b/relu_1x1 -> inception_4b/1x1 (in-place)
I0403 14:18:10.534029 13119 net.cpp:141] Setting up inception_4b/relu_1x1
I0403 14:18:10.534054 13119 net.cpp:148] Top shape: 24 160 14 14 (752640)
I0403 14:18:10.534070 13119 net.cpp:156] Memory required for data: 952225056
I0403 14:18:10.534085 13119 layer_factory.hpp:77] Creating layer inception_4b/3x3_reduce
I0403 14:18:10.534106 13119 net.cpp:91] Creating Layer inception_4b/3x3_reduce
I0403 14:18:10.534123 13119 net.cpp:425] inception_4b/3x3_reduce <- inception_4a/output_inception_4a/output_0_split_2
I0403 14:18:10.534144 13119 net.cpp:399] inception_4b/3x3_reduce -> inception_4b/3x3_reduce
I0403 14:18:10.535542 13119 net.cpp:141] Setting up inception_4b/3x3_reduce
I0403 14:18:10.535572 13119 net.cpp:148] Top shape: 24 112 14 14 (526848)
I0403 14:18:10.535586 13119 net.cpp:156] Memory required for data: 954332448
I0403 14:18:10.535609 13119 layer_factory.hpp:77] Creating layer inception_4b/relu_3x3_reduce
I0403 14:18:10.535630 13119 net.cpp:91] Creating Layer inception_4b/relu_3x3_reduce
I0403 14:18:10.535647 13119 net.cpp:425] inception_4b/relu_3x3_reduce <- inception_4b/3x3_reduce
I0403 14:18:10.535665 13119 net.cpp:386] inception_4b/relu_3x3_reduce -> inception_4b/3x3_reduce (in-place)
I0403 14:18:10.535956 13119 net.cpp:141] Setting up inception_4b/relu_3x3_reduce
I0403 14:18:10.535982 13119 net.cpp:148] Top shape: 24 112 14 14 (526848)
I0403 14:18:10.535997 13119 net.cpp:156] Memory required for data: 956439840
I0403 14:18:10.536013 13119 layer_factory.hpp:77] Creating layer inception_4b/3x3
I0403 14:18:10.536036 13119 net.cpp:91] Creating Layer inception_4b/3x3
I0403 14:18:10.536053 13119 net.cpp:425] inception_4b/3x3 <- inception_4b/3x3_reduce
I0403 14:18:10.536077 13119 net.cpp:399] inception_4b/3x3 -> inception_4b/3x3
I0403 14:18:10.539136 13119 net.cpp:141] Setting up inception_4b/3x3
I0403 14:18:10.539165 13119 net.cpp:148] Top shape: 24 224 14 14 (1053696)
I0403 14:18:10.539181 13119 net.cpp:156] Memory required for data: 960654624
I0403 14:18:10.539201 13119 layer_factory.hpp:77] Creating layer inception_4b/relu_3x3
I0403 14:18:10.539222 13119 net.cpp:91] Creating Layer inception_4b/relu_3x3
I0403 14:18:10.539239 13119 net.cpp:425] inception_4b/relu_3x3 <- inception_4b/3x3
I0403 14:18:10.539258 13119 net.cpp:386] inception_4b/relu_3x3 -> inception_4b/3x3 (in-place)
I0403 14:18:10.539441 13119 net.cpp:141] Setting up inception_4b/relu_3x3
I0403 14:18:10.539469 13119 net.cpp:148] Top shape: 24 224 14 14 (1053696)
I0403 14:18:10.539484 13119 net.cpp:156] Memory required for data: 964869408
I0403 14:18:10.539499 13119 layer_factory.hpp:77] Creating layer inception_4b/5x5_reduce
I0403 14:18:10.539521 13119 net.cpp:91] Creating Layer inception_4b/5x5_reduce
I0403 14:18:10.539540 13119 net.cpp:425] inception_4b/5x5_reduce <- inception_4a/output_inception_4a/output_0_split_3
I0403 14:18:10.539558 13119 net.cpp:399] inception_4b/5x5_reduce -> inception_4b/5x5_reduce
I0403 14:18:10.540668 13119 net.cpp:141] Setting up inception_4b/5x5_reduce
I0403 14:18:10.540696 13119 net.cpp:148] Top shape: 24 24 14 14 (112896)
I0403 14:18:10.540712 13119 net.cpp:156] Memory required for data: 965320992
I0403 14:18:10.540730 13119 layer_factory.hpp:77] Creating layer inception_4b/relu_5x5_reduce
I0403 14:18:10.540750 13119 net.cpp:91] Creating Layer inception_4b/relu_5x5_reduce
I0403 14:18:10.540781 13119 net.cpp:425] inception_4b/relu_5x5_reduce <- inception_4b/5x5_reduce
I0403 14:18:10.540802 13119 net.cpp:386] inception_4b/relu_5x5_reduce -> inception_4b/5x5_reduce (in-place)
I0403 14:18:10.540988 13119 net.cpp:141] Setting up inception_4b/relu_5x5_reduce
I0403 14:18:10.541014 13119 net.cpp:148] Top shape: 24 24 14 14 (112896)
I0403 14:18:10.541029 13119 net.cpp:156] Memory required for data: 965772576
I0403 14:18:10.541043 13119 layer_factory.hpp:77] Creating layer inception_4b/5x5
I0403 14:18:10.541065 13119 net.cpp:91] Creating Layer inception_4b/5x5
I0403 14:18:10.541084 13119 net.cpp:425] inception_4b/5x5 <- inception_4b/5x5_reduce
I0403 14:18:10.541105 13119 net.cpp:399] inception_4b/5x5 -> inception_4b/5x5
I0403 14:18:10.542361 13119 net.cpp:141] Setting up inception_4b/5x5
I0403 14:18:10.542390 13119 net.cpp:148] Top shape: 24 64 14 14 (301056)
I0403 14:18:10.542405 13119 net.cpp:156] Memory required for data: 966976800
I0403 14:18:10.542424 13119 layer_factory.hpp:77] Creating layer inception_4b/relu_5x5
I0403 14:18:10.542443 13119 net.cpp:91] Creating Layer inception_4b/relu_5x5
I0403 14:18:10.542459 13119 net.cpp:425] inception_4b/relu_5x5 <- inception_4b/5x5
I0403 14:18:10.542479 13119 net.cpp:386] inception_4b/relu_5x5 -> inception_4b/5x5 (in-place)
I0403 14:18:10.542783 13119 net.cpp:141] Setting up inception_4b/relu_5x5
I0403 14:18:10.542809 13119 net.cpp:148] Top shape: 24 64 14 14 (301056)
I0403 14:18:10.542824 13119 net.cpp:156] Memory required for data: 968181024
I0403 14:18:10.542839 13119 layer_factory.hpp:77] Creating layer inception_4b/pool
I0403 14:18:10.542856 13119 net.cpp:91] Creating Layer inception_4b/pool
I0403 14:18:10.542873 13119 net.cpp:425] inception_4b/pool <- inception_4a/output_inception_4a/output_0_split_4
I0403 14:18:10.542896 13119 net.cpp:399] inception_4b/pool -> inception_4b/pool
I0403 14:18:10.542963 13119 net.cpp:141] Setting up inception_4b/pool
I0403 14:18:10.542987 13119 net.cpp:148] Top shape: 24 512 14 14 (2408448)
I0403 14:18:10.543002 13119 net.cpp:156] Memory required for data: 977814816
I0403 14:18:10.543016 13119 layer_factory.hpp:77] Creating layer inception_4b/pool_proj
I0403 14:18:10.543041 13119 net.cpp:91] Creating Layer inception_4b/pool_proj
I0403 14:18:10.543058 13119 net.cpp:425] inception_4b/pool_proj <- inception_4b/pool
I0403 14:18:10.543077 13119 net.cpp:399] inception_4b/pool_proj -> inception_4b/pool_proj
I0403 14:18:10.544303 13119 net.cpp:141] Setting up inception_4b/pool_proj
I0403 14:18:10.544332 13119 net.cpp:148] Top shape: 24 64 14 14 (301056)
I0403 14:18:10.544348 13119 net.cpp:156] Memory required for data: 979019040
I0403 14:18:10.544366 13119 layer_factory.hpp:77] Creating layer inception_4b/relu_pool_proj
I0403 14:18:10.544384 13119 net.cpp:91] Creating Layer inception_4b/relu_pool_proj
I0403 14:18:10.544401 13119 net.cpp:425] inception_4b/relu_pool_proj <- inception_4b/pool_proj
I0403 14:18:10.544422 13119 net.cpp:386] inception_4b/relu_pool_proj -> inception_4b/pool_proj (in-place)
I0403 14:18:10.544617 13119 net.cpp:141] Setting up inception_4b/relu_pool_proj
I0403 14:18:10.544643 13119 net.cpp:148] Top shape: 24 64 14 14 (301056)
I0403 14:18:10.544658 13119 net.cpp:156] Memory required for data: 980223264
I0403 14:18:10.544672 13119 layer_factory.hpp:77] Creating layer inception_4b/output
I0403 14:18:10.544692 13119 net.cpp:91] Creating Layer inception_4b/output
I0403 14:18:10.544709 13119 net.cpp:425] inception_4b/output <- inception_4b/1x1
I0403 14:18:10.544725 13119 net.cpp:425] inception_4b/output <- inception_4b/3x3
I0403 14:18:10.544741 13119 net.cpp:425] inception_4b/output <- inception_4b/5x5
I0403 14:18:10.544757 13119 net.cpp:425] inception_4b/output <- inception_4b/pool_proj
I0403 14:18:10.544775 13119 net.cpp:399] inception_4b/output -> inception_4b/output
I0403 14:18:10.544822 13119 net.cpp:141] Setting up inception_4b/output
I0403 14:18:10.544847 13119 net.cpp:148] Top shape: 24 512 14 14 (2408448)
I0403 14:18:10.544862 13119 net.cpp:156] Memory required for data: 989857056
I0403 14:18:10.544890 13119 layer_factory.hpp:77] Creating layer inception_4b/output_inception_4b/output_0_split
I0403 14:18:10.544909 13119 net.cpp:91] Creating Layer inception_4b/output_inception_4b/output_0_split
I0403 14:18:10.544924 13119 net.cpp:425] inception_4b/output_inception_4b/output_0_split <- inception_4b/output
I0403 14:18:10.544945 13119 net.cpp:399] inception_4b/output_inception_4b/output_0_split -> inception_4b/output_inception_4b/output_0_split_0
I0403 14:18:10.544966 13119 net.cpp:399] inception_4b/output_inception_4b/output_0_split -> inception_4b/output_inception_4b/output_0_split_1
I0403 14:18:10.544987 13119 net.cpp:399] inception_4b/output_inception_4b/output_0_split -> inception_4b/output_inception_4b/output_0_split_2
I0403 14:18:10.545007 13119 net.cpp:399] inception_4b/output_inception_4b/output_0_split -> inception_4b/output_inception_4b/output_0_split_3
I0403 14:18:10.545094 13119 net.cpp:141] Setting up inception_4b/output_inception_4b/output_0_split
I0403 14:18:10.545120 13119 net.cpp:148] Top shape: 24 512 14 14 (2408448)
I0403 14:18:10.545137 13119 net.cpp:148] Top shape: 24 512 14 14 (2408448)
I0403 14:18:10.545153 13119 net.cpp:148] Top shape: 24 512 14 14 (2408448)
I0403 14:18:10.545169 13119 net.cpp:148] Top shape: 24 512 14 14 (2408448)
I0403 14:18:10.545183 13119 net.cpp:156] Memory required for data: 1028392224
I0403 14:18:10.545197 13119 layer_factory.hpp:77] Creating layer inception_4c/1x1
I0403 14:18:10.545222 13119 net.cpp:91] Creating Layer inception_4c/1x1
I0403 14:18:10.545239 13119 net.cpp:425] inception_4c/1x1 <- inception_4b/output_inception_4b/output_0_split_0
I0403 14:18:10.545258 13119 net.cpp:399] inception_4c/1x1 -> inception_4c/1x1
I0403 14:18:10.546731 13119 net.cpp:141] Setting up inception_4c/1x1
I0403 14:18:10.546759 13119 net.cpp:148] Top shape: 24 128 14 14 (602112)
I0403 14:18:10.546777 13119 net.cpp:156] Memory required for data: 1030800672
I0403 14:18:10.546794 13119 layer_factory.hpp:77] Creating layer inception_4c/relu_1x1
I0403 14:18:10.546815 13119 net.cpp:91] Creating Layer inception_4c/relu_1x1
I0403 14:18:10.546833 13119 net.cpp:425] inception_4c/relu_1x1 <- inception_4c/1x1
I0403 14:18:10.546849 13119 net.cpp:386] inception_4c/relu_1x1 -> inception_4c/1x1 (in-place)
I0403 14:18:10.547034 13119 net.cpp:141] Setting up inception_4c/relu_1x1
I0403 14:18:10.547062 13119 net.cpp:148] Top shape: 24 128 14 14 (602112)
I0403 14:18:10.547078 13119 net.cpp:156] Memory required for data: 1033209120
I0403 14:18:10.547092 13119 layer_factory.hpp:77] Creating layer inception_4c/3x3_reduce
I0403 14:18:10.547114 13119 net.cpp:91] Creating Layer inception_4c/3x3_reduce
I0403 14:18:10.547132 13119 net.cpp:425] inception_4c/3x3_reduce <- inception_4b/output_inception_4b/output_0_split_1
I0403 14:18:10.547152 13119 net.cpp:399] inception_4c/3x3_reduce -> inception_4c/3x3_reduce
I0403 14:18:10.549144 13119 net.cpp:141] Setting up inception_4c/3x3_reduce
I0403 14:18:10.549176 13119 net.cpp:148] Top shape: 24 128 14 14 (602112)
I0403 14:18:10.549193 13119 net.cpp:156] Memory required for data: 1035617568
I0403 14:18:10.549211 13119 layer_factory.hpp:77] Creating layer inception_4c/relu_3x3_reduce
I0403 14:18:10.549229 13119 net.cpp:91] Creating Layer inception_4c/relu_3x3_reduce
I0403 14:18:10.549245 13119 net.cpp:425] inception_4c/relu_3x3_reduce <- inception_4c/3x3_reduce
I0403 14:18:10.549266 13119 net.cpp:386] inception_4c/relu_3x3_reduce -> inception_4c/3x3_reduce (in-place)
I0403 14:18:10.549559 13119 net.cpp:141] Setting up inception_4c/relu_3x3_reduce
I0403 14:18:10.549588 13119 net.cpp:148] Top shape: 24 128 14 14 (602112)
I0403 14:18:10.549609 13119 net.cpp:156] Memory required for data: 1038026016
I0403 14:18:10.549625 13119 layer_factory.hpp:77] Creating layer inception_4c/3x3
I0403 14:18:10.549649 13119 net.cpp:91] Creating Layer inception_4c/3x3
I0403 14:18:10.549667 13119 net.cpp:425] inception_4c/3x3 <- inception_4c/3x3_reduce
I0403 14:18:10.549686 13119 net.cpp:399] inception_4c/3x3 -> inception_4c/3x3
I0403 14:18:10.553355 13119 net.cpp:141] Setting up inception_4c/3x3
I0403 14:18:10.553397 13119 net.cpp:148] Top shape: 24 256 14 14 (1204224)
I0403 14:18:10.553413 13119 net.cpp:156] Memory required for data: 1042842912
I0403 14:18:10.553448 13119 layer_factory.hpp:77] Creating layer inception_4c/relu_3x3
I0403 14:18:10.553469 13119 net.cpp:91] Creating Layer inception_4c/relu_3x3
I0403 14:18:10.553484 13119 net.cpp:425] inception_4c/relu_3x3 <- inception_4c/3x3
I0403 14:18:10.553503 13119 net.cpp:386] inception_4c/relu_3x3 -> inception_4c/3x3 (in-place)
I0403 14:18:10.553690 13119 net.cpp:141] Setting up inception_4c/relu_3x3
I0403 14:18:10.553715 13119 net.cpp:148] Top shape: 24 256 14 14 (1204224)
I0403 14:18:10.553730 13119 net.cpp:156] Memory required for data: 1047659808
I0403 14:18:10.553745 13119 layer_factory.hpp:77] Creating layer inception_4c/5x5_reduce
I0403 14:18:10.553767 13119 net.cpp:91] Creating Layer inception_4c/5x5_reduce
I0403 14:18:10.553786 13119 net.cpp:425] inception_4c/5x5_reduce <- inception_4b/output_inception_4b/output_0_split_2
I0403 14:18:10.553807 13119 net.cpp:399] inception_4c/5x5_reduce -> inception_4c/5x5_reduce
I0403 14:18:10.554906 13119 net.cpp:141] Setting up inception_4c/5x5_reduce
I0403 14:18:10.554934 13119 net.cpp:148] Top shape: 24 24 14 14 (112896)
I0403 14:18:10.554949 13119 net.cpp:156] Memory required for data: 1048111392
I0403 14:18:10.554967 13119 layer_factory.hpp:77] Creating layer inception_4c/relu_5x5_reduce
I0403 14:18:10.554986 13119 net.cpp:91] Creating Layer inception_4c/relu_5x5_reduce
I0403 14:18:10.555001 13119 net.cpp:425] inception_4c/relu_5x5_reduce <- inception_4c/5x5_reduce
I0403 14:18:10.555021 13119 net.cpp:386] inception_4c/relu_5x5_reduce -> inception_4c/5x5_reduce (in-place)
I0403 14:18:10.555204 13119 net.cpp:141] Setting up inception_4c/relu_5x5_reduce
I0403 14:18:10.555229 13119 net.cpp:148] Top shape: 24 24 14 14 (112896)
I0403 14:18:10.555244 13119 net.cpp:156] Memory required for data: 1048562976
I0403 14:18:10.555259 13119 layer_factory.hpp:77] Creating layer inception_4c/5x5
I0403 14:18:10.555281 13119 net.cpp:91] Creating Layer inception_4c/5x5
I0403 14:18:10.555299 13119 net.cpp:425] inception_4c/5x5 <- inception_4c/5x5_reduce
I0403 14:18:10.555320 13119 net.cpp:399] inception_4c/5x5 -> inception_4c/5x5
I0403 14:18:10.556563 13119 net.cpp:141] Setting up inception_4c/5x5
I0403 14:18:10.556591 13119 net.cpp:148] Top shape: 24 64 14 14 (301056)
I0403 14:18:10.556610 13119 net.cpp:156] Memory required for data: 1049767200
I0403 14:18:10.556629 13119 layer_factory.hpp:77] Creating layer inception_4c/relu_5x5
I0403 14:18:10.556650 13119 net.cpp:91] Creating Layer inception_4c/relu_5x5
I0403 14:18:10.556668 13119 net.cpp:425] inception_4c/relu_5x5 <- inception_4c/5x5
I0403 14:18:10.556684 13119 net.cpp:386] inception_4c/relu_5x5 -> inception_4c/5x5 (in-place)
I0403 14:18:10.556973 13119 net.cpp:141] Setting up inception_4c/relu_5x5
I0403 14:18:10.556999 13119 net.cpp:148] Top shape: 24 64 14 14 (301056)
I0403 14:18:10.557014 13119 net.cpp:156] Memory required for data: 1050971424
I0403 14:18:10.557029 13119 layer_factory.hpp:77] Creating layer inception_4c/pool
I0403 14:18:10.557049 13119 net.cpp:91] Creating Layer inception_4c/pool
I0403 14:18:10.557065 13119 net.cpp:425] inception_4c/pool <- inception_4b/output_inception_4b/output_0_split_3
I0403 14:18:10.557082 13119 net.cpp:399] inception_4c/pool -> inception_4c/pool
I0403 14:18:10.557148 13119 net.cpp:141] Setting up inception_4c/pool
I0403 14:18:10.557173 13119 net.cpp:148] Top shape: 24 512 14 14 (2408448)
I0403 14:18:10.557186 13119 net.cpp:156] Memory required for data: 1060605216
I0403 14:18:10.557200 13119 layer_factory.hpp:77] Creating layer inception_4c/pool_proj
I0403 14:18:10.557222 13119 net.cpp:91] Creating Layer inception_4c/pool_proj
I0403 14:18:10.557251 13119 net.cpp:425] inception_4c/pool_proj <- inception_4c/pool
I0403 14:18:10.557274 13119 net.cpp:399] inception_4c/pool_proj -> inception_4c/pool_proj
I0403 14:18:10.558523 13119 net.cpp:141] Setting up inception_4c/pool_proj
I0403 14:18:10.558552 13119 net.cpp:148] Top shape: 24 64 14 14 (301056)
I0403 14:18:10.558580 13119 net.cpp:156] Memory required for data: 1061809440
I0403 14:18:10.558604 13119 layer_factory.hpp:77] Creating layer inception_4c/relu_pool_proj
I0403 14:18:10.558624 13119 net.cpp:91] Creating Layer inception_4c/relu_pool_proj
I0403 14:18:10.558640 13119 net.cpp:425] inception_4c/relu_pool_proj <- inception_4c/pool_proj
I0403 14:18:10.558660 13119 net.cpp:386] inception_4c/relu_pool_proj -> inception_4c/pool_proj (in-place)
I0403 14:18:10.558846 13119 net.cpp:141] Setting up inception_4c/relu_pool_proj
I0403 14:18:10.558871 13119 net.cpp:148] Top shape: 24 64 14 14 (301056)
I0403 14:18:10.558886 13119 net.cpp:156] Memory required for data: 1063013664
I0403 14:18:10.558899 13119 layer_factory.hpp:77] Creating layer inception_4c/output
I0403 14:18:10.558918 13119 net.cpp:91] Creating Layer inception_4c/output
I0403 14:18:10.558934 13119 net.cpp:425] inception_4c/output <- inception_4c/1x1
I0403 14:18:10.558951 13119 net.cpp:425] inception_4c/output <- inception_4c/3x3
I0403 14:18:10.558966 13119 net.cpp:425] inception_4c/output <- inception_4c/5x5
I0403 14:18:10.558982 13119 net.cpp:425] inception_4c/output <- inception_4c/pool_proj
I0403 14:18:10.558998 13119 net.cpp:399] inception_4c/output -> inception_4c/output
I0403 14:18:10.559043 13119 net.cpp:141] Setting up inception_4c/output
I0403 14:18:10.559068 13119 net.cpp:148] Top shape: 24 512 14 14 (2408448)
I0403 14:18:10.559084 13119 net.cpp:156] Memory required for data: 1072647456
I0403 14:18:10.559098 13119 layer_factory.hpp:77] Creating layer inception_4c/output_inception_4c/output_0_split
I0403 14:18:10.559114 13119 net.cpp:91] Creating Layer inception_4c/output_inception_4c/output_0_split
I0403 14:18:10.559129 13119 net.cpp:425] inception_4c/output_inception_4c/output_0_split <- inception_4c/output
I0403 14:18:10.559149 13119 net.cpp:399] inception_4c/output_inception_4c/output_0_split -> inception_4c/output_inception_4c/output_0_split_0
I0403 14:18:10.559168 13119 net.cpp:399] inception_4c/output_inception_4c/output_0_split -> inception_4c/output_inception_4c/output_0_split_1
I0403 14:18:10.559188 13119 net.cpp:399] inception_4c/output_inception_4c/output_0_split -> inception_4c/output_inception_4c/output_0_split_2
I0403 14:18:10.559208 13119 net.cpp:399] inception_4c/output_inception_4c/output_0_split -> inception_4c/output_inception_4c/output_0_split_3
I0403 14:18:10.559293 13119 net.cpp:141] Setting up inception_4c/output_inception_4c/output_0_split
I0403 14:18:10.559317 13119 net.cpp:148] Top shape: 24 512 14 14 (2408448)
I0403 14:18:10.559335 13119 net.cpp:148] Top shape: 24 512 14 14 (2408448)
I0403 14:18:10.559350 13119 net.cpp:148] Top shape: 24 512 14 14 (2408448)
I0403 14:18:10.559365 13119 net.cpp:148] Top shape: 24 512 14 14 (2408448)
I0403 14:18:10.559379 13119 net.cpp:156] Memory required for data: 1111182624
I0403 14:18:10.559393 13119 layer_factory.hpp:77] Creating layer inception_4d/1x1
I0403 14:18:10.559414 13119 net.cpp:91] Creating Layer inception_4d/1x1
I0403 14:18:10.559432 13119 net.cpp:425] inception_4d/1x1 <- inception_4c/output_inception_4c/output_0_split_0
I0403 14:18:10.559449 13119 net.cpp:399] inception_4d/1x1 -> inception_4d/1x1
I0403 14:18:10.560839 13119 net.cpp:141] Setting up inception_4d/1x1
I0403 14:18:10.560869 13119 net.cpp:148] Top shape: 24 112 14 14 (526848)
I0403 14:18:10.560886 13119 net.cpp:156] Memory required for data: 1113290016
I0403 14:18:10.560904 13119 layer_factory.hpp:77] Creating layer inception_4d/relu_1x1
I0403 14:18:10.560922 13119 net.cpp:91] Creating Layer inception_4d/relu_1x1
I0403 14:18:10.560938 13119 net.cpp:425] inception_4d/relu_1x1 <- inception_4d/1x1
I0403 14:18:10.560955 13119 net.cpp:386] inception_4d/relu_1x1 -> inception_4d/1x1 (in-place)
I0403 14:18:10.561141 13119 net.cpp:141] Setting up inception_4d/relu_1x1
I0403 14:18:10.561167 13119 net.cpp:148] Top shape: 24 112 14 14 (526848)
I0403 14:18:10.561182 13119 net.cpp:156] Memory required for data: 1115397408
I0403 14:18:10.561197 13119 layer_factory.hpp:77] Creating layer inception_4d/3x3_reduce
I0403 14:18:10.561233 13119 net.cpp:91] Creating Layer inception_4d/3x3_reduce
I0403 14:18:10.561250 13119 net.cpp:425] inception_4d/3x3_reduce <- inception_4c/output_inception_4c/output_0_split_1
I0403 14:18:10.561272 13119 net.cpp:399] inception_4d/3x3_reduce -> inception_4d/3x3_reduce
I0403 14:18:10.562783 13119 net.cpp:141] Setting up inception_4d/3x3_reduce
I0403 14:18:10.562810 13119 net.cpp:148] Top shape: 24 144 14 14 (677376)
I0403 14:18:10.562826 13119 net.cpp:156] Memory required for data: 1118106912
I0403 14:18:10.562844 13119 layer_factory.hpp:77] Creating layer inception_4d/relu_3x3_reduce
I0403 14:18:10.562865 13119 net.cpp:91] Creating Layer inception_4d/relu_3x3_reduce
I0403 14:18:10.562881 13119 net.cpp:425] inception_4d/relu_3x3_reduce <- inception_4d/3x3_reduce
I0403 14:18:10.562898 13119 net.cpp:386] inception_4d/relu_3x3_reduce -> inception_4d/3x3_reduce (in-place)
I0403 14:18:10.563186 13119 net.cpp:141] Setting up inception_4d/relu_3x3_reduce
I0403 14:18:10.563212 13119 net.cpp:148] Top shape: 24 144 14 14 (677376)
I0403 14:18:10.563227 13119 net.cpp:156] Memory required for data: 1120816416
I0403 14:18:10.563242 13119 layer_factory.hpp:77] Creating layer inception_4d/3x3
I0403 14:18:10.563263 13119 net.cpp:91] Creating Layer inception_4d/3x3
I0403 14:18:10.563280 13119 net.cpp:425] inception_4d/3x3 <- inception_4d/3x3_reduce
I0403 14:18:10.563302 13119 net.cpp:399] inception_4d/3x3 -> inception_4d/3x3
I0403 14:18:10.567618 13119 net.cpp:141] Setting up inception_4d/3x3
I0403 14:18:10.567649 13119 net.cpp:148] Top shape: 24 288 14 14 (1354752)
I0403 14:18:10.567665 13119 net.cpp:156] Memory required for data: 1126235424
I0403 14:18:10.567683 13119 layer_factory.hpp:77] Creating layer inception_4d/relu_3x3
I0403 14:18:10.567701 13119 net.cpp:91] Creating Layer inception_4d/relu_3x3
I0403 14:18:10.567718 13119 net.cpp:425] inception_4d/relu_3x3 <- inception_4d/3x3
I0403 14:18:10.567736 13119 net.cpp:386] inception_4d/relu_3x3 -> inception_4d/3x3 (in-place)
I0403 14:18:10.567919 13119 net.cpp:141] Setting up inception_4d/relu_3x3
I0403 14:18:10.567942 13119 net.cpp:148] Top shape: 24 288 14 14 (1354752)
I0403 14:18:10.567956 13119 net.cpp:156] Memory required for data: 1131654432
I0403 14:18:10.567971 13119 layer_factory.hpp:77] Creating layer inception_4d/5x5_reduce
I0403 14:18:10.567993 13119 net.cpp:91] Creating Layer inception_4d/5x5_reduce
I0403 14:18:10.568009 13119 net.cpp:425] inception_4d/5x5_reduce <- inception_4c/output_inception_4c/output_0_split_2
I0403 14:18:10.568033 13119 net.cpp:399] inception_4d/5x5_reduce -> inception_4d/5x5_reduce
I0403 14:18:10.569187 13119 net.cpp:141] Setting up inception_4d/5x5_reduce
I0403 14:18:10.569216 13119 net.cpp:148] Top shape: 24 32 14 14 (150528)
I0403 14:18:10.569233 13119 net.cpp:156] Memory required for data: 1132256544
I0403 14:18:10.569252 13119 layer_factory.hpp:77] Creating layer inception_4d/relu_5x5_reduce
I0403 14:18:10.569270 13119 net.cpp:91] Creating Layer inception_4d/relu_5x5_reduce
I0403 14:18:10.569286 13119 net.cpp:425] inception_4d/relu_5x5_reduce <- inception_4d/5x5_reduce
I0403 14:18:10.569303 13119 net.cpp:386] inception_4d/relu_5x5_reduce -> inception_4d/5x5_reduce (in-place)
I0403 14:18:10.569489 13119 net.cpp:141] Setting up inception_4d/relu_5x5_reduce
I0403 14:18:10.569514 13119 net.cpp:148] Top shape: 24 32 14 14 (150528)
I0403 14:18:10.569527 13119 net.cpp:156] Memory required for data: 1132858656
I0403 14:18:10.569541 13119 layer_factory.hpp:77] Creating layer inception_4d/5x5
I0403 14:18:10.569563 13119 net.cpp:91] Creating Layer inception_4d/5x5
I0403 14:18:10.569581 13119 net.cpp:425] inception_4d/5x5 <- inception_4d/5x5_reduce
I0403 14:18:10.569604 13119 net.cpp:399] inception_4d/5x5 -> inception_4d/5x5
I0403 14:18:10.571082 13119 net.cpp:141] Setting up inception_4d/5x5
I0403 14:18:10.571110 13119 net.cpp:148] Top shape: 24 64 14 14 (301056)
I0403 14:18:10.571125 13119 net.cpp:156] Memory required for data: 1134062880
I0403 14:18:10.571144 13119 layer_factory.hpp:77] Creating layer inception_4d/relu_5x5
I0403 14:18:10.571180 13119 net.cpp:91] Creating Layer inception_4d/relu_5x5
I0403 14:18:10.571198 13119 net.cpp:425] inception_4d/relu_5x5 <- inception_4d/5x5
I0403 14:18:10.571214 13119 net.cpp:386] inception_4d/relu_5x5 -> inception_4d/5x5 (in-place)
I0403 14:18:10.571519 13119 net.cpp:141] Setting up inception_4d/relu_5x5
I0403 14:18:10.571545 13119 net.cpp:148] Top shape: 24 64 14 14 (301056)
I0403 14:18:10.571560 13119 net.cpp:156] Memory required for data: 1135267104
I0403 14:18:10.571574 13119 layer_factory.hpp:77] Creating layer inception_4d/pool
I0403 14:18:10.571593 13119 net.cpp:91] Creating Layer inception_4d/pool
I0403 14:18:10.571626 13119 net.cpp:425] inception_4d/pool <- inception_4c/output_inception_4c/output_0_split_3
I0403 14:18:10.571650 13119 net.cpp:399] inception_4d/pool -> inception_4d/pool
I0403 14:18:10.571722 13119 net.cpp:141] Setting up inception_4d/pool
I0403 14:18:10.571748 13119 net.cpp:148] Top shape: 24 512 14 14 (2408448)
I0403 14:18:10.571763 13119 net.cpp:156] Memory required for data: 1144900896
I0403 14:18:10.571777 13119 layer_factory.hpp:77] Creating layer inception_4d/pool_proj
I0403 14:18:10.571799 13119 net.cpp:91] Creating Layer inception_4d/pool_proj
I0403 14:18:10.571817 13119 net.cpp:425] inception_4d/pool_proj <- inception_4d/pool
I0403 14:18:10.571838 13119 net.cpp:399] inception_4d/pool_proj -> inception_4d/pool_proj
I0403 14:18:10.573688 13119 net.cpp:141] Setting up inception_4d/pool_proj
I0403 14:18:10.573720 13119 net.cpp:148] Top shape: 24 64 14 14 (301056)
I0403 14:18:10.573737 13119 net.cpp:156] Memory required for data: 1146105120
I0403 14:18:10.573756 13119 layer_factory.hpp:77] Creating layer inception_4d/relu_pool_proj
I0403 14:18:10.573775 13119 net.cpp:91] Creating Layer inception_4d/relu_pool_proj
I0403 14:18:10.573791 13119 net.cpp:425] inception_4d/relu_pool_proj <- inception_4d/pool_proj
I0403 14:18:10.573810 13119 net.cpp:386] inception_4d/relu_pool_proj -> inception_4d/pool_proj (in-place)
I0403 14:18:10.574002 13119 net.cpp:141] Setting up inception_4d/relu_pool_proj
I0403 14:18:10.574026 13119 net.cpp:148] Top shape: 24 64 14 14 (301056)
I0403 14:18:10.574041 13119 net.cpp:156] Memory required for data: 1147309344
I0403 14:18:10.574056 13119 layer_factory.hpp:77] Creating layer inception_4d/output
I0403 14:18:10.574074 13119 net.cpp:91] Creating Layer inception_4d/output
I0403 14:18:10.574090 13119 net.cpp:425] inception_4d/output <- inception_4d/1x1
I0403 14:18:10.574106 13119 net.cpp:425] inception_4d/output <- inception_4d/3x3
I0403 14:18:10.574122 13119 net.cpp:425] inception_4d/output <- inception_4d/5x5
I0403 14:18:10.574138 13119 net.cpp:425] inception_4d/output <- inception_4d/pool_proj
I0403 14:18:10.574158 13119 net.cpp:399] inception_4d/output -> inception_4d/output
I0403 14:18:10.574206 13119 net.cpp:141] Setting up inception_4d/output
I0403 14:18:10.574234 13119 net.cpp:148] Top shape: 24 528 14 14 (2483712)
I0403 14:18:10.574249 13119 net.cpp:156] Memory required for data: 1157244192
I0403 14:18:10.574264 13119 layer_factory.hpp:77] Creating layer inception_4d/output_inception_4d/output_0_split
I0403 14:18:10.574281 13119 net.cpp:91] Creating Layer inception_4d/output_inception_4d/output_0_split
I0403 14:18:10.574300 13119 net.cpp:425] inception_4d/output_inception_4d/output_0_split <- inception_4d/output
I0403 14:18:10.574317 13119 net.cpp:399] inception_4d/output_inception_4d/output_0_split -> inception_4d/output_inception_4d/output_0_split_0
I0403 14:18:10.574340 13119 net.cpp:399] inception_4d/output_inception_4d/output_0_split -> inception_4d/output_inception_4d/output_0_split_1
I0403 14:18:10.574362 13119 net.cpp:399] inception_4d/output_inception_4d/output_0_split -> inception_4d/output_inception_4d/output_0_split_2
I0403 14:18:10.574383 13119 net.cpp:399] inception_4d/output_inception_4d/output_0_split -> inception_4d/output_inception_4d/output_0_split_3
I0403 14:18:10.574404 13119 net.cpp:399] inception_4d/output_inception_4d/output_0_split -> inception_4d/output_inception_4d/output_0_split_4
I0403 14:18:10.574509 13119 net.cpp:141] Setting up inception_4d/output_inception_4d/output_0_split
I0403 14:18:10.574545 13119 net.cpp:148] Top shape: 24 528 14 14 (2483712)
I0403 14:18:10.574566 13119 net.cpp:148] Top shape: 24 528 14 14 (2483712)
I0403 14:18:10.574584 13119 net.cpp:148] Top shape: 24 528 14 14 (2483712)
I0403 14:18:10.574609 13119 net.cpp:148] Top shape: 24 528 14 14 (2483712)
I0403 14:18:10.574628 13119 net.cpp:148] Top shape: 24 528 14 14 (2483712)
I0403 14:18:10.574642 13119 net.cpp:156] Memory required for data: 1206918432
I0403 14:18:10.574657 13119 layer_factory.hpp:77] Creating layer loss2/ave_pool
I0403 14:18:10.574676 13119 net.cpp:91] Creating Layer loss2/ave_pool
I0403 14:18:10.574692 13119 net.cpp:425] loss2/ave_pool <- inception_4d/output_inception_4d/output_0_split_0
I0403 14:18:10.574709 13119 net.cpp:399] loss2/ave_pool -> loss2/ave_pool
I0403 14:18:10.575034 13119 net.cpp:141] Setting up loss2/ave_pool
I0403 14:18:10.575064 13119 net.cpp:148] Top shape: 24 528 4 4 (202752)
I0403 14:18:10.575081 13119 net.cpp:156] Memory required for data: 1207729440
I0403 14:18:10.575098 13119 layer_factory.hpp:77] Creating layer loss2/conv
I0403 14:18:10.575119 13119 net.cpp:91] Creating Layer loss2/conv
I0403 14:18:10.575137 13119 net.cpp:425] loss2/conv <- loss2/ave_pool
I0403 14:18:10.575156 13119 net.cpp:399] loss2/conv -> loss2/conv
I0403 14:18:10.577111 13119 net.cpp:141] Setting up loss2/conv
I0403 14:18:10.577139 13119 net.cpp:148] Top shape: 24 128 4 4 (49152)
I0403 14:18:10.577157 13119 net.cpp:156] Memory required for data: 1207926048
I0403 14:18:10.577174 13119 layer_factory.hpp:77] Creating layer loss2/relu_conv
I0403 14:18:10.577193 13119 net.cpp:91] Creating Layer loss2/relu_conv
I0403 14:18:10.577210 13119 net.cpp:425] loss2/relu_conv <- loss2/conv
I0403 14:18:10.577229 13119 net.cpp:386] loss2/relu_conv -> loss2/conv (in-place)
I0403 14:18:10.577522 13119 net.cpp:141] Setting up loss2/relu_conv
I0403 14:18:10.577549 13119 net.cpp:148] Top shape: 24 128 4 4 (49152)
I0403 14:18:10.577565 13119 net.cpp:156] Memory required for data: 1208122656
I0403 14:18:10.577580 13119 layer_factory.hpp:77] Creating layer loss2/fc
I0403 14:18:10.577603 13119 net.cpp:91] Creating Layer loss2/fc
I0403 14:18:10.577621 13119 net.cpp:425] loss2/fc <- loss2/conv
I0403 14:18:10.577642 13119 net.cpp:399] loss2/fc -> loss2/fc
I0403 14:18:10.595562 13119 net.cpp:141] Setting up loss2/fc
I0403 14:18:10.595594 13119 net.cpp:148] Top shape: 24 1024 (24576)
I0403 14:18:10.595614 13119 net.cpp:156] Memory required for data: 1208220960
I0403 14:18:10.595633 13119 layer_factory.hpp:77] Creating layer loss2/relu_fc
I0403 14:18:10.595650 13119 net.cpp:91] Creating Layer loss2/relu_fc
I0403 14:18:10.595665 13119 net.cpp:425] loss2/relu_fc <- loss2/fc
I0403 14:18:10.595681 13119 net.cpp:386] loss2/relu_fc -> loss2/fc (in-place)
I0403 14:18:10.595983 13119 net.cpp:141] Setting up loss2/relu_fc
I0403 14:18:10.596007 13119 net.cpp:148] Top shape: 24 1024 (24576)
I0403 14:18:10.596022 13119 net.cpp:156] Memory required for data: 1208319264
I0403 14:18:10.596036 13119 layer_factory.hpp:77] Creating layer loss2/drop_fc
I0403 14:18:10.596053 13119 net.cpp:91] Creating Layer loss2/drop_fc
I0403 14:18:10.596068 13119 net.cpp:425] loss2/drop_fc <- loss2/fc
I0403 14:18:10.596086 13119 net.cpp:386] loss2/drop_fc -> loss2/fc (in-place)
I0403 14:18:10.596135 13119 net.cpp:141] Setting up loss2/drop_fc
I0403 14:18:10.596158 13119 net.cpp:148] Top shape: 24 1024 (24576)
I0403 14:18:10.596171 13119 net.cpp:156] Memory required for data: 1208417568
I0403 14:18:10.596185 13119 layer_factory.hpp:77] Creating layer loss2/classifier_plantvillage
I0403 14:18:10.596205 13119 net.cpp:91] Creating Layer loss2/classifier_plantvillage
I0403 14:18:10.596221 13119 net.cpp:425] loss2/classifier_plantvillage <- loss2/fc
I0403 14:18:10.596241 13119 net.cpp:399] loss2/classifier_plantvillage -> loss2/classifier_plantvillage
I0403 14:18:10.596645 13119 net.cpp:141] Setting up loss2/classifier_plantvillage
I0403 14:18:10.596669 13119 net.cpp:148] Top shape: 24 38 (912)
I0403 14:18:10.596683 13119 net.cpp:156] Memory required for data: 1208421216
I0403 14:18:10.596719 13119 layer_factory.hpp:77] Creating layer loss2/classifier_plantvillage_loss2/classifier_plantvillage_0_split
I0403 14:18:10.596737 13119 net.cpp:91] Creating Layer loss2/classifier_plantvillage_loss2/classifier_plantvillage_0_split
I0403 14:18:10.596752 13119 net.cpp:425] loss2/classifier_plantvillage_loss2/classifier_plantvillage_0_split <- loss2/classifier_plantvillage
I0403 14:18:10.596771 13119 net.cpp:399] loss2/classifier_plantvillage_loss2/classifier_plantvillage_0_split -> loss2/classifier_plantvillage_loss2/classifier_plantvillage_0_split_0
I0403 14:18:10.596791 13119 net.cpp:399] loss2/classifier_plantvillage_loss2/classifier_plantvillage_0_split -> loss2/classifier_plantvillage_loss2/classifier_plantvillage_0_split_1
I0403 14:18:10.596812 13119 net.cpp:399] loss2/classifier_plantvillage_loss2/classifier_plantvillage_0_split -> loss2/classifier_plantvillage_loss2/classifier_plantvillage_0_split_2
I0403 14:18:10.596887 13119 net.cpp:141] Setting up loss2/classifier_plantvillage_loss2/classifier_plantvillage_0_split
I0403 14:18:10.596910 13119 net.cpp:148] Top shape: 24 38 (912)
I0403 14:18:10.596925 13119 net.cpp:148] Top shape: 24 38 (912)
I0403 14:18:10.596940 13119 net.cpp:148] Top shape: 24 38 (912)
I0403 14:18:10.596953 13119 net.cpp:156] Memory required for data: 1208432160
I0403 14:18:10.596967 13119 layer_factory.hpp:77] Creating layer inception_4e/1x1
I0403 14:18:10.596988 13119 net.cpp:91] Creating Layer inception_4e/1x1
I0403 14:18:10.597005 13119 net.cpp:425] inception_4e/1x1 <- inception_4d/output_inception_4d/output_0_split_1
I0403 14:18:10.597023 13119 net.cpp:399] inception_4e/1x1 -> inception_4e/1x1
I0403 14:18:10.598799 13119 net.cpp:141] Setting up inception_4e/1x1
I0403 14:18:10.598827 13119 net.cpp:148] Top shape: 24 256 14 14 (1204224)
I0403 14:18:10.598841 13119 net.cpp:156] Memory required for data: 1213249056
I0403 14:18:10.598858 13119 layer_factory.hpp:77] Creating layer inception_4e/relu_1x1
I0403 14:18:10.598878 13119 net.cpp:91] Creating Layer inception_4e/relu_1x1
I0403 14:18:10.598894 13119 net.cpp:425] inception_4e/relu_1x1 <- inception_4e/1x1
I0403 14:18:10.598912 13119 net.cpp:386] inception_4e/relu_1x1 -> inception_4e/1x1 (in-place)
I0403 14:18:10.599205 13119 net.cpp:141] Setting up inception_4e/relu_1x1
I0403 14:18:10.599231 13119 net.cpp:148] Top shape: 24 256 14 14 (1204224)
I0403 14:18:10.599244 13119 net.cpp:156] Memory required for data: 1218065952
I0403 14:18:10.599258 13119 layer_factory.hpp:77] Creating layer inception_4e/3x3_reduce
I0403 14:18:10.599282 13119 net.cpp:91] Creating Layer inception_4e/3x3_reduce
I0403 14:18:10.599300 13119 net.cpp:425] inception_4e/3x3_reduce <- inception_4d/output_inception_4d/output_0_split_2
I0403 14:18:10.599320 13119 net.cpp:399] inception_4e/3x3_reduce -> inception_4e/3x3_reduce
I0403 14:18:10.601398 13119 net.cpp:141] Setting up inception_4e/3x3_reduce
I0403 14:18:10.601426 13119 net.cpp:148] Top shape: 24 160 14 14 (752640)
I0403 14:18:10.601441 13119 net.cpp:156] Memory required for data: 1221076512
I0403 14:18:10.601459 13119 layer_factory.hpp:77] Creating layer inception_4e/relu_3x3_reduce
I0403 14:18:10.601475 13119 net.cpp:91] Creating Layer inception_4e/relu_3x3_reduce
I0403 14:18:10.601490 13119 net.cpp:425] inception_4e/relu_3x3_reduce <- inception_4e/3x3_reduce
I0403 14:18:10.601510 13119 net.cpp:386] inception_4e/relu_3x3_reduce -> inception_4e/3x3_reduce (in-place)
I0403 14:18:10.601693 13119 net.cpp:141] Setting up inception_4e/relu_3x3_reduce
I0403 14:18:10.601717 13119 net.cpp:148] Top shape: 24 160 14 14 (752640)
I0403 14:18:10.601732 13119 net.cpp:156] Memory required for data: 1224087072
I0403 14:18:10.601745 13119 layer_factory.hpp:77] Creating layer inception_4e/3x3
I0403 14:18:10.601768 13119 net.cpp:91] Creating Layer inception_4e/3x3
I0403 14:18:10.601784 13119 net.cpp:425] inception_4e/3x3 <- inception_4e/3x3_reduce
I0403 14:18:10.601804 13119 net.cpp:399] inception_4e/3x3 -> inception_4e/3x3
I0403 14:18:10.606681 13119 net.cpp:141] Setting up inception_4e/3x3
I0403 14:18:10.606720 13119 net.cpp:148] Top shape: 24 320 14 14 (1505280)
I0403 14:18:10.606736 13119 net.cpp:156] Memory required for data: 1230108192
I0403 14:18:10.606755 13119 layer_factory.hpp:77] Creating layer inception_4e/relu_3x3
I0403 14:18:10.606775 13119 net.cpp:91] Creating Layer inception_4e/relu_3x3
I0403 14:18:10.606791 13119 net.cpp:425] inception_4e/relu_3x3 <- inception_4e/3x3
I0403 14:18:10.606808 13119 net.cpp:386] inception_4e/relu_3x3 -> inception_4e/3x3 (in-place)
I0403 14:18:10.607102 13119 net.cpp:141] Setting up inception_4e/relu_3x3
I0403 14:18:10.607131 13119 net.cpp:148] Top shape: 24 320 14 14 (1505280)
I0403 14:18:10.607146 13119 net.cpp:156] Memory required for data: 1236129312
I0403 14:18:10.607159 13119 layer_factory.hpp:77] Creating layer inception_4e/5x5_reduce
I0403 14:18:10.607182 13119 net.cpp:91] Creating Layer inception_4e/5x5_reduce
I0403 14:18:10.607198 13119 net.cpp:425] inception_4e/5x5_reduce <- inception_4d/output_inception_4d/output_0_split_3
I0403 14:18:10.607216 13119 net.cpp:399] inception_4e/5x5_reduce -> inception_4e/5x5_reduce
I0403 14:18:10.608258 13119 net.cpp:141] Setting up inception_4e/5x5_reduce
I0403 14:18:10.608284 13119 net.cpp:148] Top shape: 24 32 14 14 (150528)
I0403 14:18:10.608300 13119 net.cpp:156] Memory required for data: 1236731424
I0403 14:18:10.608319 13119 layer_factory.hpp:77] Creating layer inception_4e/relu_5x5_reduce
I0403 14:18:10.608337 13119 net.cpp:91] Creating Layer inception_4e/relu_5x5_reduce
I0403 14:18:10.608353 13119 net.cpp:425] inception_4e/relu_5x5_reduce <- inception_4e/5x5_reduce
I0403 14:18:10.608371 13119 net.cpp:386] inception_4e/relu_5x5_reduce -> inception_4e/5x5_reduce (in-place)
I0403 14:18:10.608665 13119 net.cpp:141] Setting up inception_4e/relu_5x5_reduce
I0403 14:18:10.608690 13119 net.cpp:148] Top shape: 24 32 14 14 (150528)
I0403 14:18:10.608705 13119 net.cpp:156] Memory required for data: 1237333536
I0403 14:18:10.608719 13119 layer_factory.hpp:77] Creating layer inception_4e/5x5
I0403 14:18:10.608757 13119 net.cpp:91] Creating Layer inception_4e/5x5
I0403 14:18:10.608777 13119 net.cpp:425] inception_4e/5x5 <- inception_4e/5x5_reduce
I0403 14:18:10.608794 13119 net.cpp:399] inception_4e/5x5 -> inception_4e/5x5
I0403 14:18:10.610592 13119 net.cpp:141] Setting up inception_4e/5x5
I0403 14:18:10.610625 13119 net.cpp:148] Top shape: 24 128 14 14 (602112)
I0403 14:18:10.610641 13119 net.cpp:156] Memory required for data: 1239741984
I0403 14:18:10.610659 13119 layer_factory.hpp:77] Creating layer inception_4e/relu_5x5
I0403 14:18:10.610677 13119 net.cpp:91] Creating Layer inception_4e/relu_5x5
I0403 14:18:10.610692 13119 net.cpp:425] inception_4e/relu_5x5 <- inception_4e/5x5
I0403 14:18:10.610709 13119 net.cpp:386] inception_4e/relu_5x5 -> inception_4e/5x5 (in-place)
I0403 14:18:10.610899 13119 net.cpp:141] Setting up inception_4e/relu_5x5
I0403 14:18:10.610924 13119 net.cpp:148] Top shape: 24 128 14 14 (602112)
I0403 14:18:10.610939 13119 net.cpp:156] Memory required for data: 1242150432
I0403 14:18:10.610951 13119 layer_factory.hpp:77] Creating layer inception_4e/pool
I0403 14:18:10.610970 13119 net.cpp:91] Creating Layer inception_4e/pool
I0403 14:18:10.610985 13119 net.cpp:425] inception_4e/pool <- inception_4d/output_inception_4d/output_0_split_4
I0403 14:18:10.611003 13119 net.cpp:399] inception_4e/pool -> inception_4e/pool
I0403 14:18:10.611071 13119 net.cpp:141] Setting up inception_4e/pool
I0403 14:18:10.611094 13119 net.cpp:148] Top shape: 24 528 14 14 (2483712)
I0403 14:18:10.611109 13119 net.cpp:156] Memory required for data: 1252085280
I0403 14:18:10.611121 13119 layer_factory.hpp:77] Creating layer inception_4e/pool_proj
I0403 14:18:10.611145 13119 net.cpp:91] Creating Layer inception_4e/pool_proj
I0403 14:18:10.611161 13119 net.cpp:425] inception_4e/pool_proj <- inception_4e/pool
I0403 14:18:10.611179 13119 net.cpp:399] inception_4e/pool_proj -> inception_4e/pool_proj
I0403 14:18:10.612653 13119 net.cpp:141] Setting up inception_4e/pool_proj
I0403 14:18:10.612682 13119 net.cpp:148] Top shape: 24 128 14 14 (602112)
I0403 14:18:10.612710 13119 net.cpp:156] Memory required for data: 1254493728
I0403 14:18:10.612730 13119 layer_factory.hpp:77] Creating layer inception_4e/relu_pool_proj
I0403 14:18:10.612746 13119 net.cpp:91] Creating Layer inception_4e/relu_pool_proj
I0403 14:18:10.612762 13119 net.cpp:425] inception_4e/relu_pool_proj <- inception_4e/pool_proj
I0403 14:18:10.612781 13119 net.cpp:386] inception_4e/relu_pool_proj -> inception_4e/pool_proj (in-place)
I0403 14:18:10.613067 13119 net.cpp:141] Setting up inception_4e/relu_pool_proj
I0403 14:18:10.613095 13119 net.cpp:148] Top shape: 24 128 14 14 (602112)
I0403 14:18:10.613111 13119 net.cpp:156] Memory required for data: 1256902176
I0403 14:18:10.613124 13119 layer_factory.hpp:77] Creating layer inception_4e/output
I0403 14:18:10.613142 13119 net.cpp:91] Creating Layer inception_4e/output
I0403 14:18:10.613157 13119 net.cpp:425] inception_4e/output <- inception_4e/1x1
I0403 14:18:10.613173 13119 net.cpp:425] inception_4e/output <- inception_4e/3x3
I0403 14:18:10.613188 13119 net.cpp:425] inception_4e/output <- inception_4e/5x5
I0403 14:18:10.613201 13119 net.cpp:425] inception_4e/output <- inception_4e/pool_proj
I0403 14:18:10.613219 13119 net.cpp:399] inception_4e/output -> inception_4e/output
I0403 14:18:10.613267 13119 net.cpp:141] Setting up inception_4e/output
I0403 14:18:10.613291 13119 net.cpp:148] Top shape: 24 832 14 14 (3913728)
I0403 14:18:10.613304 13119 net.cpp:156] Memory required for data: 1272557088
I0403 14:18:10.613318 13119 layer_factory.hpp:77] Creating layer pool4/3x3_s2
I0403 14:18:10.613337 13119 net.cpp:91] Creating Layer pool4/3x3_s2
I0403 14:18:10.613353 13119 net.cpp:425] pool4/3x3_s2 <- inception_4e/output
I0403 14:18:10.613370 13119 net.cpp:399] pool4/3x3_s2 -> pool4/3x3_s2
I0403 14:18:10.613437 13119 net.cpp:141] Setting up pool4/3x3_s2
I0403 14:18:10.613461 13119 net.cpp:148] Top shape: 24 832 7 7 (978432)
I0403 14:18:10.613474 13119 net.cpp:156] Memory required for data: 1276470816
I0403 14:18:10.613487 13119 layer_factory.hpp:77] Creating layer pool4/3x3_s2_pool4/3x3_s2_0_split
I0403 14:18:10.613503 13119 net.cpp:91] Creating Layer pool4/3x3_s2_pool4/3x3_s2_0_split
I0403 14:18:10.613518 13119 net.cpp:425] pool4/3x3_s2_pool4/3x3_s2_0_split <- pool4/3x3_s2
I0403 14:18:10.613538 13119 net.cpp:399] pool4/3x3_s2_pool4/3x3_s2_0_split -> pool4/3x3_s2_pool4/3x3_s2_0_split_0
I0403 14:18:10.613557 13119 net.cpp:399] pool4/3x3_s2_pool4/3x3_s2_0_split -> pool4/3x3_s2_pool4/3x3_s2_0_split_1
I0403 14:18:10.613576 13119 net.cpp:399] pool4/3x3_s2_pool4/3x3_s2_0_split -> pool4/3x3_s2_pool4/3x3_s2_0_split_2
I0403 14:18:10.613595 13119 net.cpp:399] pool4/3x3_s2_pool4/3x3_s2_0_split -> pool4/3x3_s2_pool4/3x3_s2_0_split_3
I0403 14:18:10.613687 13119 net.cpp:141] Setting up pool4/3x3_s2_pool4/3x3_s2_0_split
I0403 14:18:10.613711 13119 net.cpp:148] Top shape: 24 832 7 7 (978432)
I0403 14:18:10.613728 13119 net.cpp:148] Top shape: 24 832 7 7 (978432)
I0403 14:18:10.613742 13119 net.cpp:148] Top shape: 24 832 7 7 (978432)
I0403 14:18:10.613757 13119 net.cpp:148] Top shape: 24 832 7 7 (978432)
I0403 14:18:10.613770 13119 net.cpp:156] Memory required for data: 1292125728
I0403 14:18:10.613785 13119 layer_factory.hpp:77] Creating layer inception_5a/1x1
I0403 14:18:10.613806 13119 net.cpp:91] Creating Layer inception_5a/1x1
I0403 14:18:10.613822 13119 net.cpp:425] inception_5a/1x1 <- pool4/3x3_s2_pool4/3x3_s2_0_split_0
I0403 14:18:10.613842 13119 net.cpp:399] inception_5a/1x1 -> inception_5a/1x1
I0403 14:18:10.616618 13119 net.cpp:141] Setting up inception_5a/1x1
I0403 14:18:10.616647 13119 net.cpp:148] Top shape: 24 256 7 7 (301056)
I0403 14:18:10.616662 13119 net.cpp:156] Memory required for data: 1293329952
I0403 14:18:10.616678 13119 layer_factory.hpp:77] Creating layer inception_5a/relu_1x1
I0403 14:18:10.616696 13119 net.cpp:91] Creating Layer inception_5a/relu_1x1
I0403 14:18:10.616711 13119 net.cpp:425] inception_5a/relu_1x1 <- inception_5a/1x1
I0403 14:18:10.616730 13119 net.cpp:386] inception_5a/relu_1x1 -> inception_5a/1x1 (in-place)
I0403 14:18:10.617035 13119 net.cpp:141] Setting up inception_5a/relu_1x1
I0403 14:18:10.617061 13119 net.cpp:148] Top shape: 24 256 7 7 (301056)
I0403 14:18:10.617075 13119 net.cpp:156] Memory required for data: 1294534176
I0403 14:18:10.617089 13119 layer_factory.hpp:77] Creating layer inception_5a/3x3_reduce
I0403 14:18:10.617111 13119 net.cpp:91] Creating Layer inception_5a/3x3_reduce
I0403 14:18:10.617128 13119 net.cpp:425] inception_5a/3x3_reduce <- pool4/3x3_s2_pool4/3x3_s2_0_split_1
I0403 14:18:10.617149 13119 net.cpp:399] inception_5a/3x3_reduce -> inception_5a/3x3_reduce
I0403 14:18:10.619535 13119 net.cpp:141] Setting up inception_5a/3x3_reduce
I0403 14:18:10.619563 13119 net.cpp:148] Top shape: 24 160 7 7 (188160)
I0403 14:18:10.619580 13119 net.cpp:156] Memory required for data: 1295286816
I0403 14:18:10.619596 13119 layer_factory.hpp:77] Creating layer inception_5a/relu_3x3_reduce
I0403 14:18:10.619621 13119 net.cpp:91] Creating Layer inception_5a/relu_3x3_reduce
I0403 14:18:10.619637 13119 net.cpp:425] inception_5a/relu_3x3_reduce <- inception_5a/3x3_reduce
I0403 14:18:10.619653 13119 net.cpp:386] inception_5a/relu_3x3_reduce -> inception_5a/3x3_reduce (in-place)
I0403 14:18:10.619837 13119 net.cpp:141] Setting up inception_5a/relu_3x3_reduce
I0403 14:18:10.619861 13119 net.cpp:148] Top shape: 24 160 7 7 (188160)
I0403 14:18:10.619876 13119 net.cpp:156] Memory required for data: 1296039456
I0403 14:18:10.619890 13119 layer_factory.hpp:77] Creating layer inception_5a/3x3
I0403 14:18:10.619912 13119 net.cpp:91] Creating Layer inception_5a/3x3
I0403 14:18:10.619930 13119 net.cpp:425] inception_5a/3x3 <- inception_5a/3x3_reduce
I0403 14:18:10.619949 13119 net.cpp:399] inception_5a/3x3 -> inception_5a/3x3
I0403 14:18:10.624856 13119 net.cpp:141] Setting up inception_5a/3x3
I0403 14:18:10.624887 13119 net.cpp:148] Top shape: 24 320 7 7 (376320)
I0403 14:18:10.624903 13119 net.cpp:156] Memory required for data: 1297544736
I0403 14:18:10.624922 13119 layer_factory.hpp:77] Creating layer inception_5a/relu_3x3
I0403 14:18:10.624939 13119 net.cpp:91] Creating Layer inception_5a/relu_3x3
I0403 14:18:10.624953 13119 net.cpp:425] inception_5a/relu_3x3 <- inception_5a/3x3
I0403 14:18:10.624972 13119 net.cpp:386] inception_5a/relu_3x3 -> inception_5a/3x3 (in-place)
I0403 14:18:10.625265 13119 net.cpp:141] Setting up inception_5a/relu_3x3
I0403 14:18:10.625293 13119 net.cpp:148] Top shape: 24 320 7 7 (376320)
I0403 14:18:10.625310 13119 net.cpp:156] Memory required for data: 1299050016
I0403 14:18:10.625324 13119 layer_factory.hpp:77] Creating layer inception_5a/5x5_reduce
I0403 14:18:10.625346 13119 net.cpp:91] Creating Layer inception_5a/5x5_reduce
I0403 14:18:10.625363 13119 net.cpp:425] inception_5a/5x5_reduce <- pool4/3x3_s2_pool4/3x3_s2_0_split_2
I0403 14:18:10.625385 13119 net.cpp:399] inception_5a/5x5_reduce -> inception_5a/5x5_reduce
I0403 14:18:10.626565 13119 net.cpp:141] Setting up inception_5a/5x5_reduce
I0403 14:18:10.626592 13119 net.cpp:148] Top shape: 24 32 7 7 (37632)
I0403 14:18:10.626612 13119 net.cpp:156] Memory required for data: 1299200544
I0403 14:18:10.626631 13119 layer_factory.hpp:77] Creating layer inception_5a/relu_5x5_reduce
I0403 14:18:10.626648 13119 net.cpp:91] Creating Layer inception_5a/relu_5x5_reduce
I0403 14:18:10.626663 13119 net.cpp:425] inception_5a/relu_5x5_reduce <- inception_5a/5x5_reduce
I0403 14:18:10.626682 13119 net.cpp:386] inception_5a/relu_5x5_reduce -> inception_5a/5x5_reduce (in-place)
I0403 14:18:10.626981 13119 net.cpp:141] Setting up inception_5a/relu_5x5_reduce
I0403 14:18:10.627007 13119 net.cpp:148] Top shape: 24 32 7 7 (37632)
I0403 14:18:10.627020 13119 net.cpp:156] Memory required for data: 1299351072
I0403 14:18:10.627034 13119 layer_factory.hpp:77] Creating layer inception_5a/5x5
I0403 14:18:10.627058 13119 net.cpp:91] Creating Layer inception_5a/5x5
I0403 14:18:10.627074 13119 net.cpp:425] inception_5a/5x5 <- inception_5a/5x5_reduce
I0403 14:18:10.627095 13119 net.cpp:399] inception_5a/5x5 -> inception_5a/5x5
I0403 14:18:10.628845 13119 net.cpp:141] Setting up inception_5a/5x5
I0403 14:18:10.628888 13119 net.cpp:148] Top shape: 24 128 7 7 (150528)
I0403 14:18:10.628906 13119 net.cpp:156] Memory required for data: 1299953184
I0403 14:18:10.628924 13119 layer_factory.hpp:77] Creating layer inception_5a/relu_5x5
I0403 14:18:10.628943 13119 net.cpp:91] Creating Layer inception_5a/relu_5x5
I0403 14:18:10.628959 13119 net.cpp:425] inception_5a/relu_5x5 <- inception_5a/5x5
I0403 14:18:10.628979 13119 net.cpp:386] inception_5a/relu_5x5 -> inception_5a/5x5 (in-place)
I0403 14:18:10.629179 13119 net.cpp:141] Setting up inception_5a/relu_5x5
I0403 14:18:10.629204 13119 net.cpp:148] Top shape: 24 128 7 7 (150528)
I0403 14:18:10.629220 13119 net.cpp:156] Memory required for data: 1300555296
I0403 14:18:10.629233 13119 layer_factory.hpp:77] Creating layer inception_5a/pool
I0403 14:18:10.629252 13119 net.cpp:91] Creating Layer inception_5a/pool
I0403 14:18:10.629268 13119 net.cpp:425] inception_5a/pool <- pool4/3x3_s2_pool4/3x3_s2_0_split_3
I0403 14:18:10.629289 13119 net.cpp:399] inception_5a/pool -> inception_5a/pool
I0403 14:18:10.629364 13119 net.cpp:141] Setting up inception_5a/pool
I0403 14:18:10.629387 13119 net.cpp:148] Top shape: 24 832 7 7 (978432)
I0403 14:18:10.629402 13119 net.cpp:156] Memory required for data: 1304469024
I0403 14:18:10.629417 13119 layer_factory.hpp:77] Creating layer inception_5a/pool_proj
I0403 14:18:10.629441 13119 net.cpp:91] Creating Layer inception_5a/pool_proj
I0403 14:18:10.629457 13119 net.cpp:425] inception_5a/pool_proj <- inception_5a/pool
I0403 14:18:10.629478 13119 net.cpp:399] inception_5a/pool_proj -> inception_5a/pool_proj
I0403 14:18:10.631846 13119 net.cpp:141] Setting up inception_5a/pool_proj
I0403 14:18:10.631878 13119 net.cpp:148] Top shape: 24 128 7 7 (150528)
I0403 14:18:10.631896 13119 net.cpp:156] Memory required for data: 1305071136
I0403 14:18:10.631914 13119 layer_factory.hpp:77] Creating layer inception_5a/relu_pool_proj
I0403 14:18:10.631932 13119 net.cpp:91] Creating Layer inception_5a/relu_pool_proj
I0403 14:18:10.631949 13119 net.cpp:425] inception_5a/relu_pool_proj <- inception_5a/pool_proj
I0403 14:18:10.631966 13119 net.cpp:386] inception_5a/relu_pool_proj -> inception_5a/pool_proj (in-place)
I0403 14:18:10.632272 13119 net.cpp:141] Setting up inception_5a/relu_pool_proj
I0403 14:18:10.632302 13119 net.cpp:148] Top shape: 24 128 7 7 (150528)
I0403 14:18:10.632318 13119 net.cpp:156] Memory required for data: 1305673248
I0403 14:18:10.632334 13119 layer_factory.hpp:77] Creating layer inception_5a/output
I0403 14:18:10.632351 13119 net.cpp:91] Creating Layer inception_5a/output
I0403 14:18:10.632367 13119 net.cpp:425] inception_5a/output <- inception_5a/1x1
I0403 14:18:10.632385 13119 net.cpp:425] inception_5a/output <- inception_5a/3x3
I0403 14:18:10.632400 13119 net.cpp:425] inception_5a/output <- inception_5a/5x5
I0403 14:18:10.632416 13119 net.cpp:425] inception_5a/output <- inception_5a/pool_proj
I0403 14:18:10.632433 13119 net.cpp:399] inception_5a/output -> inception_5a/output
I0403 14:18:10.632486 13119 net.cpp:141] Setting up inception_5a/output
I0403 14:18:10.632510 13119 net.cpp:148] Top shape: 24 832 7 7 (978432)
I0403 14:18:10.632525 13119 net.cpp:156] Memory required for data: 1309586976
I0403 14:18:10.632540 13119 layer_factory.hpp:77] Creating layer inception_5a/output_inception_5a/output_0_split
I0403 14:18:10.632560 13119 net.cpp:91] Creating Layer inception_5a/output_inception_5a/output_0_split
I0403 14:18:10.632576 13119 net.cpp:425] inception_5a/output_inception_5a/output_0_split <- inception_5a/output
I0403 14:18:10.632594 13119 net.cpp:399] inception_5a/output_inception_5a/output_0_split -> inception_5a/output_inception_5a/output_0_split_0
I0403 14:18:10.632621 13119 net.cpp:399] inception_5a/output_inception_5a/output_0_split -> inception_5a/output_inception_5a/output_0_split_1
I0403 14:18:10.632642 13119 net.cpp:399] inception_5a/output_inception_5a/output_0_split -> inception_5a/output_inception_5a/output_0_split_2
I0403 14:18:10.632663 13119 net.cpp:399] inception_5a/output_inception_5a/output_0_split -> inception_5a/output_inception_5a/output_0_split_3
I0403 14:18:10.632778 13119 net.cpp:141] Setting up inception_5a/output_inception_5a/output_0_split
I0403 14:18:10.632814 13119 net.cpp:148] Top shape: 24 832 7 7 (978432)
I0403 14:18:10.632833 13119 net.cpp:148] Top shape: 24 832 7 7 (978432)
I0403 14:18:10.632848 13119 net.cpp:148] Top shape: 24 832 7 7 (978432)
I0403 14:18:10.632864 13119 net.cpp:148] Top shape: 24 832 7 7 (978432)
I0403 14:18:10.632879 13119 net.cpp:156] Memory required for data: 1325241888
I0403 14:18:10.632894 13119 layer_factory.hpp:77] Creating layer inception_5b/1x1
I0403 14:18:10.632916 13119 net.cpp:91] Creating Layer inception_5b/1x1
I0403 14:18:10.632935 13119 net.cpp:425] inception_5b/1x1 <- inception_5a/output_inception_5a/output_0_split_0
I0403 14:18:10.632957 13119 net.cpp:399] inception_5b/1x1 -> inception_5b/1x1
I0403 14:18:10.636879 13119 net.cpp:141] Setting up inception_5b/1x1
I0403 14:18:10.636910 13119 net.cpp:148] Top shape: 24 384 7 7 (451584)
I0403 14:18:10.636926 13119 net.cpp:156] Memory required for data: 1327048224
I0403 14:18:10.636945 13119 layer_factory.hpp:77] Creating layer inception_5b/relu_1x1
I0403 14:18:10.636965 13119 net.cpp:91] Creating Layer inception_5b/relu_1x1
I0403 14:18:10.636982 13119 net.cpp:425] inception_5b/relu_1x1 <- inception_5b/1x1
I0403 14:18:10.637001 13119 net.cpp:386] inception_5b/relu_1x1 -> inception_5b/1x1 (in-place)
I0403 14:18:10.637318 13119 net.cpp:141] Setting up inception_5b/relu_1x1
I0403 14:18:10.637346 13119 net.cpp:148] Top shape: 24 384 7 7 (451584)
I0403 14:18:10.637361 13119 net.cpp:156] Memory required for data: 1328854560
I0403 14:18:10.637375 13119 layer_factory.hpp:77] Creating layer inception_5b/3x3_reduce
I0403 14:18:10.637400 13119 net.cpp:91] Creating Layer inception_5b/3x3_reduce
I0403 14:18:10.637419 13119 net.cpp:425] inception_5b/3x3_reduce <- inception_5a/output_inception_5a/output_0_split_1
I0403 14:18:10.637439 13119 net.cpp:399] inception_5b/3x3_reduce -> inception_5b/3x3_reduce
I0403 14:18:10.640197 13119 net.cpp:141] Setting up inception_5b/3x3_reduce
I0403 14:18:10.640228 13119 net.cpp:148] Top shape: 24 192 7 7 (225792)
I0403 14:18:10.640245 13119 net.cpp:156] Memory required for data: 1329757728
I0403 14:18:10.640264 13119 layer_factory.hpp:77] Creating layer inception_5b/relu_3x3_reduce
I0403 14:18:10.640282 13119 net.cpp:91] Creating Layer inception_5b/relu_3x3_reduce
I0403 14:18:10.640300 13119 net.cpp:425] inception_5b/relu_3x3_reduce <- inception_5b/3x3_reduce
I0403 14:18:10.640317 13119 net.cpp:386] inception_5b/relu_3x3_reduce -> inception_5b/3x3_reduce (in-place)
I0403 14:18:10.640516 13119 net.cpp:141] Setting up inception_5b/relu_3x3_reduce
I0403 14:18:10.640542 13119 net.cpp:148] Top shape: 24 192 7 7 (225792)
I0403 14:18:10.640558 13119 net.cpp:156] Memory required for data: 1330660896
I0403 14:18:10.640573 13119 layer_factory.hpp:77] Creating layer inception_5b/3x3
I0403 14:18:10.640597 13119 net.cpp:91] Creating Layer inception_5b/3x3
I0403 14:18:10.640619 13119 net.cpp:425] inception_5b/3x3 <- inception_5b/3x3_reduce
I0403 14:18:10.640643 13119 net.cpp:399] inception_5b/3x3 -> inception_5b/3x3
I0403 14:18:10.647613 13119 net.cpp:141] Setting up inception_5b/3x3
I0403 14:18:10.647645 13119 net.cpp:148] Top shape: 24 384 7 7 (451584)
I0403 14:18:10.647661 13119 net.cpp:156] Memory required for data: 1332467232
I0403 14:18:10.647680 13119 layer_factory.hpp:77] Creating layer inception_5b/relu_3x3
I0403 14:18:10.647697 13119 net.cpp:91] Creating Layer inception_5b/relu_3x3
I0403 14:18:10.647713 13119 net.cpp:425] inception_5b/relu_3x3 <- inception_5b/3x3
I0403 14:18:10.647730 13119 net.cpp:386] inception_5b/relu_3x3 -> inception_5b/3x3 (in-place)
I0403 14:18:10.648028 13119 net.cpp:141] Setting up inception_5b/relu_3x3
I0403 14:18:10.648057 13119 net.cpp:148] Top shape: 24 384 7 7 (451584)
I0403 14:18:10.648073 13119 net.cpp:156] Memory required for data: 1334273568
I0403 14:18:10.648088 13119 layer_factory.hpp:77] Creating layer inception_5b/5x5_reduce
I0403 14:18:10.648126 13119 net.cpp:91] Creating Layer inception_5b/5x5_reduce
I0403 14:18:10.648146 13119 net.cpp:425] inception_5b/5x5_reduce <- inception_5a/output_inception_5a/output_0_split_2
I0403 14:18:10.648165 13119 net.cpp:399] inception_5b/5x5_reduce -> inception_5b/5x5_reduce
I0403 14:18:10.649441 13119 net.cpp:141] Setting up inception_5b/5x5_reduce
I0403 14:18:10.649471 13119 net.cpp:148] Top shape: 24 48 7 7 (56448)
I0403 14:18:10.649487 13119 net.cpp:156] Memory required for data: 1334499360
I0403 14:18:10.649505 13119 layer_factory.hpp:77] Creating layer inception_5b/relu_5x5_reduce
I0403 14:18:10.649523 13119 net.cpp:91] Creating Layer inception_5b/relu_5x5_reduce
I0403 14:18:10.649539 13119 net.cpp:425] inception_5b/relu_5x5_reduce <- inception_5b/5x5_reduce
I0403 14:18:10.649557 13119 net.cpp:386] inception_5b/relu_5x5_reduce -> inception_5b/5x5_reduce (in-place)
I0403 14:18:10.649935 13119 net.cpp:141] Setting up inception_5b/relu_5x5_reduce
I0403 14:18:10.649962 13119 net.cpp:148] Top shape: 24 48 7 7 (56448)
I0403 14:18:10.649977 13119 net.cpp:156] Memory required for data: 1334725152
I0403 14:18:10.649992 13119 layer_factory.hpp:77] Creating layer inception_5b/5x5
I0403 14:18:10.650012 13119 net.cpp:91] Creating Layer inception_5b/5x5
I0403 14:18:10.650029 13119 net.cpp:425] inception_5b/5x5 <- inception_5b/5x5_reduce
I0403 14:18:10.650048 13119 net.cpp:399] inception_5b/5x5 -> inception_5b/5x5
I0403 14:18:10.652132 13119 net.cpp:141] Setting up inception_5b/5x5
I0403 14:18:10.652158 13119 net.cpp:148] Top shape: 24 128 7 7 (150528)
I0403 14:18:10.652173 13119 net.cpp:156] Memory required for data: 1335327264
I0403 14:18:10.652191 13119 layer_factory.hpp:77] Creating layer inception_5b/relu_5x5
I0403 14:18:10.652209 13119 net.cpp:91] Creating Layer inception_5b/relu_5x5
I0403 14:18:10.652225 13119 net.cpp:425] inception_5b/relu_5x5 <- inception_5b/5x5
I0403 14:18:10.652245 13119 net.cpp:386] inception_5b/relu_5x5 -> inception_5b/5x5 (in-place)
I0403 14:18:10.652438 13119 net.cpp:141] Setting up inception_5b/relu_5x5
I0403 14:18:10.652463 13119 net.cpp:148] Top shape: 24 128 7 7 (150528)
I0403 14:18:10.652478 13119 net.cpp:156] Memory required for data: 1335929376
I0403 14:18:10.652493 13119 layer_factory.hpp:77] Creating layer inception_5b/pool
I0403 14:18:10.652513 13119 net.cpp:91] Creating Layer inception_5b/pool
I0403 14:18:10.652529 13119 net.cpp:425] inception_5b/pool <- inception_5a/output_inception_5a/output_0_split_3
I0403 14:18:10.652547 13119 net.cpp:399] inception_5b/pool -> inception_5b/pool
I0403 14:18:10.652627 13119 net.cpp:141] Setting up inception_5b/pool
I0403 14:18:10.652652 13119 net.cpp:148] Top shape: 24 832 7 7 (978432)
I0403 14:18:10.652667 13119 net.cpp:156] Memory required for data: 1339843104
I0403 14:18:10.652681 13119 layer_factory.hpp:77] Creating layer inception_5b/pool_proj
I0403 14:18:10.652703 13119 net.cpp:91] Creating Layer inception_5b/pool_proj
I0403 14:18:10.652720 13119 net.cpp:425] inception_5b/pool_proj <- inception_5b/pool
I0403 14:18:10.652741 13119 net.cpp:399] inception_5b/pool_proj -> inception_5b/pool_proj
I0403 14:18:10.655072 13119 net.cpp:141] Setting up inception_5b/pool_proj
I0403 14:18:10.655104 13119 net.cpp:148] Top shape: 24 128 7 7 (150528)
I0403 14:18:10.655120 13119 net.cpp:156] Memory required for data: 1340445216
I0403 14:18:10.655138 13119 layer_factory.hpp:77] Creating layer inception_5b/relu_pool_proj
I0403 14:18:10.655156 13119 net.cpp:91] Creating Layer inception_5b/relu_pool_proj
I0403 14:18:10.655172 13119 net.cpp:425] inception_5b/relu_pool_proj <- inception_5b/pool_proj
I0403 14:18:10.655190 13119 net.cpp:386] inception_5b/relu_pool_proj -> inception_5b/pool_proj (in-place)
I0403 14:18:10.655488 13119 net.cpp:141] Setting up inception_5b/relu_pool_proj
I0403 14:18:10.655517 13119 net.cpp:148] Top shape: 24 128 7 7 (150528)
I0403 14:18:10.655534 13119 net.cpp:156] Memory required for data: 1341047328
I0403 14:18:10.655549 13119 layer_factory.hpp:77] Creating layer inception_5b/output
I0403 14:18:10.655565 13119 net.cpp:91] Creating Layer inception_5b/output
I0403 14:18:10.655606 13119 net.cpp:425] inception_5b/output <- inception_5b/1x1
I0403 14:18:10.655625 13119 net.cpp:425] inception_5b/output <- inception_5b/3x3
I0403 14:18:10.655642 13119 net.cpp:425] inception_5b/output <- inception_5b/5x5
I0403 14:18:10.655658 13119 net.cpp:425] inception_5b/output <- inception_5b/pool_proj
I0403 14:18:10.655678 13119 net.cpp:399] inception_5b/output -> inception_5b/output
I0403 14:18:10.655730 13119 net.cpp:141] Setting up inception_5b/output
I0403 14:18:10.655753 13119 net.cpp:148] Top shape: 24 1024 7 7 (1204224)
I0403 14:18:10.655767 13119 net.cpp:156] Memory required for data: 1345864224
I0403 14:18:10.655781 13119 layer_factory.hpp:77] Creating layer pool5/7x7_s1
I0403 14:18:10.655802 13119 net.cpp:91] Creating Layer pool5/7x7_s1
I0403 14:18:10.655819 13119 net.cpp:425] pool5/7x7_s1 <- inception_5b/output
I0403 14:18:10.655838 13119 net.cpp:399] pool5/7x7_s1 -> pool5/7x7_s1
I0403 14:18:10.656054 13119 net.cpp:141] Setting up pool5/7x7_s1
I0403 14:18:10.656080 13119 net.cpp:148] Top shape: 24 1024 1 1 (24576)
I0403 14:18:10.656093 13119 net.cpp:156] Memory required for data: 1345962528
I0403 14:18:10.656107 13119 layer_factory.hpp:77] Creating layer pool5/drop_7x7_s1
I0403 14:18:10.656126 13119 net.cpp:91] Creating Layer pool5/drop_7x7_s1
I0403 14:18:10.656141 13119 net.cpp:425] pool5/drop_7x7_s1 <- pool5/7x7_s1
I0403 14:18:10.656160 13119 net.cpp:386] pool5/drop_7x7_s1 -> pool5/7x7_s1 (in-place)
I0403 14:18:10.656209 13119 net.cpp:141] Setting up pool5/drop_7x7_s1
I0403 14:18:10.656232 13119 net.cpp:148] Top shape: 24 1024 1 1 (24576)
I0403 14:18:10.656246 13119 net.cpp:156] Memory required for data: 1346060832
I0403 14:18:10.656260 13119 layer_factory.hpp:77] Creating layer loss3/classifier_plantvillage
I0403 14:18:10.656281 13119 net.cpp:91] Creating Layer loss3/classifier_plantvillage
I0403 14:18:10.656299 13119 net.cpp:425] loss3/classifier_plantvillage <- pool5/7x7_s1
I0403 14:18:10.656322 13119 net.cpp:399] loss3/classifier_plantvillage -> loss3/classifier_plantvillage
I0403 14:18:10.656755 13119 net.cpp:141] Setting up loss3/classifier_plantvillage
I0403 14:18:10.656780 13119 net.cpp:148] Top shape: 24 38 (912)
I0403 14:18:10.656795 13119 net.cpp:156] Memory required for data: 1346064480
I0403 14:18:10.656812 13119 layer_factory.hpp:77] Creating layer loss3/classifier_plantvillage_loss3/classifier_plantvillage_0_split
I0403 14:18:10.656833 13119 net.cpp:91] Creating Layer loss3/classifier_plantvillage_loss3/classifier_plantvillage_0_split
I0403 14:18:10.656849 13119 net.cpp:425] loss3/classifier_plantvillage_loss3/classifier_plantvillage_0_split <- loss3/classifier_plantvillage
I0403 14:18:10.656867 13119 net.cpp:399] loss3/classifier_plantvillage_loss3/classifier_plantvillage_0_split -> loss3/classifier_plantvillage_loss3/classifier_plantvillage_0_split_0
I0403 14:18:10.656885 13119 net.cpp:399] loss3/classifier_plantvillage_loss3/classifier_plantvillage_0_split -> loss3/classifier_plantvillage_loss3/classifier_plantvillage_0_split_1
I0403 14:18:10.656905 13119 net.cpp:399] loss3/classifier_plantvillage_loss3/classifier_plantvillage_0_split -> loss3/classifier_plantvillage_loss3/classifier_plantvillage_0_split_2
I0403 14:18:10.656929 13119 net.cpp:399] loss3/classifier_plantvillage_loss3/classifier_plantvillage_0_split -> loss3/classifier_plantvillage_loss3/classifier_plantvillage_0_split_3
I0403 14:18:10.657030 13119 net.cpp:141] Setting up loss3/classifier_plantvillage_loss3/classifier_plantvillage_0_split
I0403 14:18:10.657053 13119 net.cpp:148] Top shape: 24 38 (912)
I0403 14:18:10.657069 13119 net.cpp:148] Top shape: 24 38 (912)
I0403 14:18:10.657084 13119 net.cpp:148] Top shape: 24 38 (912)
I0403 14:18:10.657099 13119 net.cpp:148] Top shape: 24 38 (912)
I0403 14:18:10.657112 13119 net.cpp:156] Memory required for data: 1346079072
I0403 14:18:10.657126 13119 layer_factory.hpp:77] Creating layer loss1/loss
I0403 14:18:10.657147 13119 net.cpp:91] Creating Layer loss1/loss
I0403 14:18:10.657165 13119 net.cpp:425] loss1/loss <- loss1/classifier_plantvillage_loss1/classifier_plantvillage_0_split_0
I0403 14:18:10.657194 13119 net.cpp:425] loss1/loss <- label_data_1_split_0
…
