…
I0403 14:28:30.473635 13305 net.cpp:313] The NetState phase (1) differed from the phase (0) specified by a rule in layer data
I0403 14:28:30.474817 13305 net.cpp:49] Initializing net from parameters: 
state {
  phase: TEST
}
layer {
  name: "data"
  type: "Data"
  top: "data"
  top: "label"
  include {
    phase: TEST
  }
  transform_param {
    mirror: false
    crop_size: 224
    mean_file: "/home/mohanty/data/final_dataset/lmdb/color-40-60/mean.binaryproto"
  }
  data_param {
    source: "/home/mohanty/data/final_dataset/lmdb/color-40-60/test_db"
    batch_size: 24
    backend: LMDB
  }
}
layer {
  name: "conv1/7x7_s2"
  type: "Convolution"
  bottom: "data"
  top: "conv1/7x7_s2"
  param {
    lr_mult: 1
    decay_mult: 1
  }
  param {
    lr_mult: 2
    decay_mult: 0
  }
  convolution_param {
    num_output: 64
    pad: 3
    kernel_size: 7
    stride: 2
    weight_filler {
      type: "xavier"
      std: 0.1
    }
    bias_filler {
      type: "constant"
      value: 0.2
    }
  }
}
layer {
  name: "conv1/relu_7x7"
  type: "ReLU"
  bottom: "conv1/7x7_s2"
  top: "conv1/7x7_s2"
}
layer {
  name: "pool1/3x3_s2"
  type: "Pooling"
  bottom: "conv1/7x7_s2"
  top: "pool1/3x3_s2"
  pooling_param {
    pool: MAX
    kernel_size: 3
    stride: 2
  }
}
layer {
  name: "pool1/norm1"
  type: "LRN"
  bottom: "pool1/3x3_s2"
  top: "pool1/norm1"
  lrn_param {
    local_size: 5
    alpha: 0.0001
    beta: 0.75
  }
}
layer {
  name: "conv2/3x3_reduce"
  type: "Convolution"
  bottom: "pool1/norm1"
  top: "conv2/3x3_reduce"
  param {
    lr_mult: 1
    decay_mult: 1
  }
  param {
    lr_mult: 2
    decay_mult: 0
  }
  convolution_param {
    num_output: 64
    kernel_size: 1
    weight_filler {
      type: "xavier"
      std: 0.1
    }
    bias_filler {
      type: "constant"
      value: 0.2
    }
  }
}
layer {
  name: "conv2/relu_3x3_reduce"
  type: "ReLU"
  bottom: "conv2/3x3_reduce"
  top: "conv2/3x3_reduce"
}
layer {
  name: "conv2/3x3"
  type: "Convolution"
  bottom: "conv2/3x3_reduce"
  top: "conv2/3x3"
  param {
    lr_mult: 1
    decay_mult: 1
  }
  param {
    lr_mult: 2
    decay_mult: 0
  }
  convolution_param {
    num_output: 192
    pad: 1
    kernel_size: 3
    weight_filler {
      type: "xavier"
      std: 0.03
    }
    bias_filler {
      type: "constant"
      value: 0.2
    }
  }
}
layer {
  name: "conv2/relu_3x3"
  type: "ReLU"
  bottom: "conv2/3x3"
  top: "conv2/3x3"
}
layer {
  name: "conv2/norm2"
  type: "LRN"
  bottom: "conv2/3x3"
  top: "conv2/norm2"
  lrn_param {
    local_size: 5
    alpha: 0.0001
    beta: 0.75
  }
}
layer {
  name: "pool2/3x3_s2"
  type: "Pooling"
  bottom: "conv2/norm2"
  top: "pool2/3x3_s2"
  pooling_param {
    pool: MAX
    kernel_size: 3
    stride: 2
  }
}
layer {
  name: "inception_3a/1x1"
  type: "Convolution"
  bottom: "pool2/3x3_s2"
  top: "inception_3a/1x1"
  param {
    lr_mult: 1
    decay_mult: 1
  }
  param {
    lr_mult: 2
    decay_mult: 0
  }
  convolution_param {
    num_output: 64
    kernel_size: 1
    weight_filler {
      type: "xavier"
      std: 0.03
    }
    bias_filler {
      type: "constant"
      value: 0.2
    }
  }
}
layer {
  name: "inception_3a/relu_1x1"
  type: "ReLU"
  bottom: "inception_3a/1x1"
  top: "inception_3a/1x1"
}
layer {
  name: "inception_3a/3x3_reduce"
  type: "Convolution"
  bottom: "pool2/3x3_s2"
  top: "inception_3a/3x3_reduce"
  param {
    lr_mult: 1
    decay_mult: 1
  }
  param {
    lr_mult: 2
    decay_mult: 0
  }
  convolution_param {
    num_output: 96
    kernel_size: 1
    weight_filler {
      type: "xavier"
      std: 0.09
    }
    bias_filler {
      type: "constant"
      value: 0.2
    }
  }
}
layer {
  name: "inception_3a/relu_3x3_reduce"
  type: "ReLU"
  bottom: "inception_3a/3x3_reduce"
  top: "inception_3a/3x3_reduce"
}
layer {
  name: "inception_3a/3x3"
  type: "Convolution"
  bottom: "inception_3a/3x3_reduce"
  top: "inception_3a/3x3"
  param {
    lr_mult: 1
    decay_mult: 1
  }
  param {
    lr_mult: 2
    decay_mult: 0
  }
  convolution_param {
    num_output: 128
    pad: 1
    kernel_size: 3
    weight_filler {
      type: "xavier"
      std: 0.03
    }
    bias_filler {
      type: "constant"
      value: 0.2
    }
  }
}
layer {
  name: "inception_3a/relu_3x3"
  type: "ReLU"
  bottom: "inception_3a/3x3"
  top: "inception_3a/3x3"
}
layer {
  name: "inception_3a/5x5_reduce"
  type: "Convolution"
  bottom: "pool2/3x3_s2"
  top: "inception_3a/5x5_reduce"
  param {
    lr_mult: 1
    decay_mult: 1
  }
  param {
    lr_mult: 2
    decay_mult: 0
  }
  convolution_param {
    num_output: 16
    kernel_size: 1
    weight_filler {
      type: "xavier"
      std: 0.2
    }
    bias_filler {
      type: "constant"
      value: 0.2
    }
  }
}
layer {
  name: "inception_3a/relu_5x5_reduce"
  type: "ReLU"
  bottom: "inception_3a/5x5_reduce"
  top: "inception_3a/5x5_reduce"
}
layer {
  name: "inception_3a/5x5"
  type: "Convolution"
  bottom: "inception_3a/5x5_reduce"
  top: "inception_3a/5x5"
  param {
    lr_mult: 1
    decay_mult: 1
  }
  param {
    lr_mult: 2
    decay_mult: 0
  }
  convolution_param {
    num_output: 32
    pad: 2
    kernel_size: 5
    weight_filler {
      type: "xavier"
      std: 0.03
    }
    bias_filler {
      type: "constant"
      value: 0.2
    }
  }
}
layer {
  name: "inception_3a/relu_5x5"
  type: "ReLU"
  bottom: "inception_3a/5x5"
  top: "inception_3a/5x5"
}
layer {
  name: "inception_3a/pool"
  type: "Pooling"
  bottom: "pool2/3x3_s2"
  top: "inception_3a/pool"
  pooling_param {
    pool: MAX
    kernel_size: 3
    stride: 1
    pad: 1
  }
}
layer {
  name: "inception_3a/pool_proj"
  type: "Convolution"
  bottom: "inception_3a/pool"
  top: "inception_3a/pool_proj"
  param {
    lr_mult: 1
    decay_mult: 1
  }
  param {
    lr_mult: 2
    decay_mult: 0
  }
  convolution_param {
    num_output: 32
    kernel_size: 1
    weight_filler {
      type: "xavier"
      std: 0.1
    }
    bias_filler {
      type: "constant"
      value: 0.2
    }
  }
}
layer {
  name: "inception_3a/relu_pool_proj"
  type: "ReLU"
  bottom: "inception_3a/pool_proj"
  top: "inception_3a/pool_proj"
}
layer {
  name: "inception_3a/output"
  type: "Concat"
  bottom: "inception_3a/1x1"
  bottom: "inception_3a/3x3"
  bottom: "inception_3a/5x5"
  bottom: "inception_3a/pool_proj"
  top: "inception_3a/output"
}
layer {
  name: "inception_3b/1x1"
  type: "Convolution"
  bottom: "inception_3a/output"
  top: "inception_3b/1x1"
  param {
    lr_mult: 1
    decay_mult: 1
  }
  param {
    lr_mult: 2
    decay_mult: 0
  }
  convolution_param {
    num_output: 128
    kernel_size: 1
    weight_filler {
      type: "xavier"
      std: 0.03
    }
    bias_filler {
      type: "constant"
      value: 0.2
    }
  }
}
layer {
  name: "inception_3b/relu_1x1"
  type: "ReLU"
  bottom: "inception_3b/1x1"
  top: "inception_3b/1x1"
}
layer {
  name: "inception_3b/3x3_reduce"
  type: "Convolution"
  bottom: "inception_3a/output"
  top: "inception_3b/3x3_reduce"
  param {
    lr_mult: 1
    decay_mult: 1
  }
  param {
    lr_mult: 2
    decay_mult: 0
  }
  convolution_param {
    num_output: 128
    kernel_size: 1
    weight_filler {
      type: "xavier"
      std: 0.09
    }
    bias_filler {
      type: "constant"
      value: 0.2
    }
  }
}
layer {
  name: "inception_3b/relu_3x3_reduce"
  type: "ReLU"
  bottom: "inception_3b/3x3_reduce"
  top: "inception_3b/3x3_reduce"
}
layer {
  name: "inception_3b/3x3"
  type: "Convolution"
  bottom: "inception_3b/3x3_reduce"
  top: "inception_3b/3x3"
  param {
    lr_mult: 1
    decay_mult: 1
  }
  param {
    lr_mult: 2
    decay_mult: 0
  }
  convolution_param {
    num_output: 192
    pad: 1
    kernel_size: 3
    weight_filler {
      type: "xavier"
      std: 0.03
    }
    bias_filler {
      type: "constant"
      value: 0.2
    }
  }
}
layer {
  name: "inception_3b/relu_3x3"
  type: "ReLU"
  bottom: "inception_3b/3x3"
  top: "inception_3b/3x3"
}
layer {
  name: "inception_3b/5x5_reduce"
  type: "Convolution"
  bottom: "inception_3a/output"
  top: "inception_3b/5x5_reduce"
  param {
    lr_mult: 1
    decay_mult: 1
  }
  param {
    lr_mult: 2
    decay_mult: 0
  }
  convolution_param {
    num_output: 32
    kernel_size: 1
    weight_filler {
      type: "xavier"
      std: 0.2
    }
    bias_filler {
      type: "constant"
      value: 0.2
    }
  }
}
layer {
  name: "inception_3b/relu_5x5_reduce"
  type: "ReLU"
  bottom: "inception_3b/5x5_reduce"
  top: "inception_3b/5x5_reduce"
}
layer {
  name: "inception_3b/5x5"
  type: "Convolution"
  bottom: "inception_3b/5x5_reduce"
  top: "inception_3b/5x5"
  param {
    lr_mult: 1
    decay_mult: 1
  }
  param {
    lr_mult: 2
    decay_mult: 0
  }
  convolution_param {
    num_output: 96
    pad: 2
    kernel_size: 5
    weight_filler {
      type: "xavier"
      std: 0.03
    }
    bias_filler {
      type: "constant"
      value: 0.2
    }
  }
}
layer {
  name: "inception_3b/relu_5x5"
  type: "ReLU"
  bottom: "inception_3b/5x5"
  top: "inception_3b/5x5"
}
layer {
  name: "inception_3b/pool"
  type: "Pooling"
  bottom: "inception_3a/output"
  top: "inception_3b/pool"
  pooling_param {
    pool: MAX
    kernel_size: 3
    stride: 1
    pad: 1
  }
}
layer {
  name: "inception_3b/pool_proj"
  type: "Convolution"
  bottom: "inception_3b/pool"
  top: "inception_3b/pool_proj"
  param {
    lr_mult: 1
    decay_mult: 1
  }
  param {
    lr_mult: 2
    decay_mult: 0
  }
  convolution_param {
    num_output: 64
    kernel_size: 1
    weight_filler {
      type: "xavier"
      std: 0.1
    }
    bias_filler {
      type: "constant"
      value: 0.2
    }
  }
}
layer {
  name: "inception_3b/relu_pool_proj"
  type: "ReLU"
  bottom: "inception_3b/pool_proj"
  top: "inception_3b/pool_proj"
}
layer {
  name: "inception_3b/output"
  type: "Concat"
  bottom: "inception_3b/1x1"
  bottom: "inception_3b/3x3"
  bottom: "inception_3b/5x5"
  bottom: "inception_3b/pool_proj"
  top: "inception_3b/output"
}
layer {
  name: "pool3/3x3_s2"
  type: "Pooling"
  bottom: "inception_3b/output"
  top: "pool3/3x3_s2"
  pooling_param {
    pool: MAX
    kernel_size: 3
    stride: 2
  }
}
layer {
  name: "inception_4a/1x1"
  type: "Convolution"
  bottom: "pool3/3x3_s2"
  top: "inception_4a/1x1"
  param {
    lr_mult: 1
    decay_mult: 1
  }
  param {
    lr_mult: 2
    decay_mult: 0
  }
  convolution_param {
    num_output: 192
    kernel_size: 1
    weight_filler {
      type: "xavier"
      std: 0.03
    }
    bias_filler {
      type: "constant"
      value: 0.2
    }
  }
}
layer {
  name: "inception_4a/relu_1x1"
  type: "ReLU"
  bottom: "inception_4a/1x1"
  top: "inception_4a/1x1"
}
layer {
  name: "inception_4a/3x3_reduce"
  type: "Convolution"
  bottom: "pool3/3x3_s2"
  top: "inception_4a/3x3_reduce"
  param {
    lr_mult: 1
    decay_mult: 1
  }
  param {
    lr_mult: 2
    decay_mult: 0
  }
  convolution_param {
    num_output: 96
    kernel_size: 1
    weight_filler {
      type: "xavier"
      std: 0.09
    }
    bias_filler {
      type: "constant"
      value: 0.2
    }
  }
}
layer {
  name: "inception_4a/relu_3x3_reduce"
  type: "ReLU"
  bottom: "inception_4a/3x3_reduce"
  top: "inception_4a/3x3_reduce"
}
layer {
  name: "inception_4a/3x3"
  type: "Convolution"
  bottom: "inception_4a/3x3_reduce"
  top: "inception_4a/3x3"
  param {
    lr_mult: 1
    decay_mult: 1
  }
  param {
    lr_mult: 2
    decay_mult: 0
  }
  convolution_param {
    num_output: 208
    pad: 1
    kernel_size: 3
    weight_filler {
      type: "xavier"
      std: 0.03
    }
    bias_filler {
      type: "constant"
      value: 0.2
    }
  }
}
layer {
  name: "inception_4a/relu_3x3"
  type: "ReLU"
  bottom: "inception_4a/3x3"
  top: "inception_4a/3x3"
}
layer {
  name: "inception_4a/5x5_reduce"
  type: "Convolution"
  bottom: "pool3/3x3_s2"
  top: "inception_4a/5x5_reduce"
  param {
    lr_mult: 1
    decay_mult: 1
  }
  param {
    lr_mult: 2
    decay_mult: 0
  }
  convolution_param {
    num_output: 16
    kernel_size: 1
    weight_filler {
      type: "xavier"
      std: 0.2
    }
    bias_filler {
      type: "constant"
      value: 0.2
    }
  }
}
layer {
  name: "inception_4a/relu_5x5_reduce"
  type: "ReLU"
  bottom: "inception_4a/5x5_reduce"
  top: "inception_4a/5x5_reduce"
}
layer {
  name: "inception_4a/5x5"
  type: "Convolution"
  bottom: "inception_4a/5x5_reduce"
  top: "inception_4a/5x5"
  param {
    lr_mult: 1
    decay_mult: 1
  }
  param {
    lr_mult: 2
    decay_mult: 0
  }
  convolution_param {
    num_output: 48
    pad: 2
    kernel_size: 5
    weight_filler {
      type: "xavier"
      std: 0.03
    }
    bias_filler {
      type: "constant"
      value: 0.2
    }
  }
}
layer {
  name: "inception_4a/relu_5x5"
  type: "ReLU"
  bottom: "inception_4a/5x5"
  top: "inception_4a/5x5"
}
layer {
  name: "inception_4a/pool"
  type: "Pooling"
  bottom: "pool3/3x3_s2"
  top: "inception_4a/pool"
  pooling_param {
    pool: MAX
    kernel_size: 3
    stride: 1
    pad: 1
  }
}
layer {
  name: "inception_4a/pool_proj"
  type: "Convolution"
  bottom: "inception_4a/pool"
  top: "inception_4a/pool_proj"
  param {
    lr_mult: 1
    decay_mult: 1
  }
  param {
    lr_mult: 2
    decay_mult: 0
  }
  convolution_param {
    num_output: 64
    kernel_size: 1
    weight_filler {
      type: "xavier"
      std: 0.1
    }
    bias_filler {
      type: "constant"
      value: 0.2
    }
  }
}
layer {
  name: "inception_4a/relu_pool_proj"
  type: "ReLU"
  bottom: "inception_4a/pool_proj"
  top: "inception_4a/pool_proj"
}
layer {
  name: "inception_4a/output"
  type: "Concat"
  bottom: "inception_4a/1x1"
  bottom: "inception_4a/3x3"
  bottom: "inception_4a/5x5"
  bottom: "inception_4a/pool_proj"
  top: "inception_4a/output"
}
layer {
  name: "loss1/ave_pool"
  type: "Pooling"
  bottom: "inception_4a/output"
  top: "loss1/ave_pool"
  pooling_param {
    pool: AVE
    kernel_size: 5
    stride: 3
  }
}
layer {
  name: "loss1/conv"
  type: "Convolution"
  bottom: "loss1/ave_pool"
  top: "loss1/conv"
  param {
    lr_mult: 1
    decay_mult: 1
  }
  param {
    lr_mult: 2
    decay_mult: 0
  }
  convolution_param {
    num_output: 128
    kernel_size: 1
    weight_filler {
      type: "xavier"
      std: 0.08
    }
    bias_filler {
      type: "constant"
      value: 0.2
    }
  }
}
layer {
  name: "loss1/relu_conv"
  type: "ReLU"
  bottom: "loss1/conv"
  top: "loss1/conv"
}
layer {
  name: "loss1/fc"
  type: "InnerProduct"
  bottom: "loss1/conv"
  top: "loss1/fc"
  param {
    lr_mult: 1
    decay_mult: 1
  }
  param {
    lr_mult: 2
    decay_mult: 0
  }
  inner_product_param {
    num_output: 1024
    weight_filler {
      type: "xavier"
      std: 0.02
    }
    bias_filler {
      type: "constant"
      value: 0.2
    }
  }
}
layer {
  name: "loss1/relu_fc"
  type: "ReLU"
  bottom: "loss1/fc"
  top: "loss1/fc"
}
layer {
  name: "loss1/drop_fc"
  type: "Dropout"
  bottom: "loss1/fc"
  top: "loss1/fc"
  dropout_param {
    dropout_ratio: 0.7
  }
}
layer {
  name: "loss1/classifier_plantvillage"
  type: "InnerProduct"
  bottom: "loss1/fc"
  top: "loss1/classifier_plantvillage"
  param {
    lr_mult: 1
    decay_mult: 1
  }
  param {
    lr_mult: 2
    decay_mult: 0
  }
  inner_product_param {
    num_output: 38
    weight_filler {
      type: "xavier"
      std: 0.0009765625
    }
    bias_filler {
      type: "constant"
      value: 0
    }
  }
}
layer {
  name: "inception_4b/1x1"
  type: "Convolution"
  bottom: "inception_4a/output"
  top: "inception_4b/1x1"
  param {
    lr_mult: 1
    decay_mult: 1
  }
  param {
    lr_mult: 2
    decay_mult: 0
  }
  convolution_param {
    num_output: 160
    kernel_size: 1
    weight_filler {
      type: "xavier"
      std: 0.03
    }
    bias_filler {
      type: "constant"
      value: 0.2
    }
  }
}
layer {
  name: "inception_4b/relu_1x1"
  type: "ReLU"
  bottom: "inception_4b/1x1"
  top: "inception_4b/1x1"
}
layer {
  name: "inception_4b/3x3_reduce"
  type: "Convolution"
  bottom: "inception_4a/output"
  top: "inception_4b/3x3_reduce"
  param {
    lr_mult: 1
    decay_mult: 1
  }
  param {
    lr_mult: 2
    decay_mult: 0
  }
  convolution_param {
    num_output: 112
    kernel_size: 1
    weight_filler {
      type: "xavier"
      std: 0.09
    }
    bias_filler {
      type: "constant"
      value: 0.2
    }
  }
}
layer {
  name: "inception_4b/relu_3x3_reduce"
  type: "ReLU"
  bottom: "inception_4b/3x3_reduce"
  top: "inception_4b/3x3_reduce"
}
layer {
  name: "inception_4b/3x3"
  type: "Convolution"
  bottom: "inception_4b/3x3_reduce"
  top: "inception_4b/3x3"
  param {
    lr_mult: 1
    decay_mult: 1
  }
  param {
    lr_mult: 2
    decay_mult: 0
  }
  convolution_param {
    num_output: 224
    pad: 1
    kernel_size: 3
    weight_filler {
      type: "xavier"
      std: 0.03
    }
    bias_filler {
      type: "constant"
      value: 0.2
    }
  }
}
layer {
  name: "inception_4b/relu_3x3"
  type: "ReLU"
  bottom: "inception_4b/3x3"
  top: "inception_4b/3x3"
}
layer {
  name: "inception_4b/5x5_reduce"
  type: "Convolution"
  bottom: "inception_4a/output"
  top: "inception_4b/5x5_reduce"
  param {
    lr_mult: 1
    decay_mult: 1
  }
  param {
    lr_mult: 2
    decay_mult: 0
  }
  convolution_param {
    num_output: 24
    kernel_size: 1
    weight_filler {
      type: "xavier"
      std: 0.2
    }
    bias_filler {
      type: "constant"
      value: 0.2
    }
  }
}
layer {
  name: "inception_4b/relu_5x5_reduce"
  type: "ReLU"
  bottom: "inception_4b/5x5_reduce"
  top: "inception_4b/5x5_reduce"
}
layer {
  name: "inception_4b/5x5"
  type: "Convolution"
  bottom: "inception_4b/5x5_reduce"
  top: "inception_4b/5x5"
  param {
    lr_mult: 1
    decay_mult: 1
  }
  param {
    lr_mult: 2
    decay_mult: 0
  }
  convolution_param {
    num_output: 64
    pad: 2
    kernel_size: 5
    weight_filler {
      type: "xavier"
      std: 0.03
    }
    bias_filler {
      type: "constant"
      value: 0.2
    }
  }
}
layer {
  name: "inception_4b/relu_5x5"
  type: "ReLU"
  bottom: "inception_4b/5x5"
  top: "inception_4b/5x5"
}
layer {
  name: "inception_4b/pool"
  type: "Pooling"
  bottom: "inception_4a/output"
  top: "inception_4b/pool"
  pooling_param {
    pool: MAX
    kernel_size: 3
    stride: 1
    pad: 1
  }
}
layer {
  name: "inception_4b/pool_proj"
  type: "Convolution"
  bottom: "inception_4b/pool"
  top: "inception_4b/pool_proj"
  param {
    lr_mult: 1
    decay_mult: 1
  }
  param {
    lr_mult: 2
    decay_mult: 0
  }
  convolution_param {
    num_output: 64
    kernel_size: 1
    weight_filler {
      type: "xavier"
      std: 0.1
    }
    bias_filler {
      type: "constant"
      value: 0.2
    }
  }
}
layer {
  name: "inception_4b/relu_pool_proj"
  type: "ReLU"
  bottom: "inception_4b/pool_proj"
  top: "inception_4b/pool_proj"
}
layer {
  name: "inception_4b/output"
  type: "Concat"
  bottom: "inception_4b/1x1"
  bottom: "inception_4b/3x3"
  bottom: "inception_4b/5x5"
  bottom: "inception_4b/pool_proj"
  top: "inception_4b/output"
}
layer {
  name: "inception_4c/1x1"
  type: "Convolution"
  bottom: "inception_4b/output"
  top: "inception_4c/1x1"
  param {
    lr_mult: 1
    decay_mult: 1
  }
  param {
    lr_mult: 2
    decay_mult: 0
  }
  convolution_param {
    num_output: 128
    kernel_size: 1
    weight_filler {
      type: "xavier"
      std: 0.03
    }
    bias_filler {
      type: "constant"
      value: 0.2
    }
  }
}
layer {
  name: "inception_4c/relu_1x1"
  type: "ReLU"
  bottom: "inception_4c/1x1"
  top: "inception_4c/1x1"
}
layer {
  name: "inception_4c/3x3_reduce"
  type: "Convolution"
  bottom: "inception_4b/output"
  top: "inception_4c/3x3_reduce"
  param {
    lr_mult: 1
    decay_mult: 1
  }
  param {
    lr_mult: 2
    decay_mult: 0
  }
  convolution_param {
    num_output: 128
    kernel_size: 1
    weight_filler {
      type: "xavier"
      std: 0.09
    }
    bias_filler {
      type: "constant"
      value: 0.2
    }
  }
}
layer {
  name: "inception_4c/relu_3x3_reduce"
  type: "ReLU"
  bottom: "inception_4c/3x3_reduce"
  top: "inception_4c/3x3_reduce"
}
layer {
  name: "inception_4c/3x3"
  type: "Convolution"
  bottom: "inception_4c/3x3_reduce"
  top: "inception_4c/3x3"
  param {
    lr_mult: 1
    decay_mult: 1
  }
  param {
    lr_mult: 2
    decay_mult: 0
  }
  convolution_param {
    num_output: 256
    pad: 1
    kernel_size: 3
    weight_filler {
      type: "xavier"
      std: 0.03
    }
    bias_filler {
      type: "constant"
      value: 0.2
    }
  }
}
layer {
  name: "inception_4c/relu_3x3"
  type: "ReLU"
  bottom: "inception_4c/3x3"
  top: "inception_4c/3x3"
}
layer {
  name: "inception_4c/5x5_reduce"
  type: "Convolution"
  bottom: "inception_4b/output"
  top: "inception_4c/5x5_reduce"
  param {
    lr_mult: 1
    decay_mult: 1
  }
  param {
    lr_mult: 2
    decay_mult: 0
  }
  convolution_param {
    num_output: 24
    kernel_size: 1
    weight_filler {
      type: "xavier"
      std: 0.2
    }
    bias_filler {
      type: "constant"
      value: 0.2
    }
  }
}
layer {
  name: "inception_4c/relu_5x5_reduce"
  type: "ReLU"
  bottom: "inception_4c/5x5_reduce"
  top: "inception_4c/5x5_reduce"
}
layer {
  name: "inception_4c/5x5"
  type: "Convolution"
  bottom: "inception_4c/5x5_reduce"
  top: "inception_4c/5x5"
  param {
    lr_mult: 1
    decay_mult: 1
  }
  param {
    lr_mult: 2
    decay_mult: 0
  }
  convolution_param {
    num_output: 64
    pad: 2
    kernel_size: 5
    weight_filler {
      type: "xavier"
      std: 0.03
    }
    bias_filler {
      type: "constant"
      value: 0.2
    }
  }
}
layer {
  name: "inception_4c/relu_5x5"
  type: "ReLU"
  bottom: "inception_4c/5x5"
  top: "inception_4c/5x5"
}
layer {
  name: "inception_4c/pool"
  type: "Pooling"
  bottom: "inception_4b/output"
  top: "inception_4c/pool"
  pooling_param {
    pool: MAX
    kernel_size: 3
    stride: 1
    pad: 1
  }
}
layer {
  name: "inception_4c/pool_proj"
  type: "Convolution"
  bottom: "inception_4c/pool"
  top: "inception_4c/pool_proj"
  param {
    lr_mult: 1
    decay_mult: 1
  }
  param {
    lr_mult: 2
    decay_mult: 0
  }
  convolution_param {
    num_output: 64
    kernel_size: 1
    weight_filler {
      type: "xavier"
      std: 0.1
    }
    bias_filler {
      type: "constant"
      value: 0.2
    }
  }
}
layer {
  name: "inception_4c/relu_pool_proj"
  type: "ReLU"
  bottom: "inception_4c/pool_proj"
  top: "inception_4c/pool_proj"
}
layer {
  name: "inception_4c/output"
  type: "Concat"
  bottom: "inception_4c/1x1"
  bottom: "inception_4c/3x3"
  bottom: "inception_4c/5x5"
  bottom: "inception_4c/pool_proj"
  top: "inception_4c/output"
}
layer {
  name: "inception_4d/1x1"
  type: "Convolution"
  bottom: "inception_4c/output"
  top: "inception_4d/1x1"
  param {
    lr_mult: 1
    decay_mult: 1
  }
  param {
    lr_mult: 2
    decay_mult: 0
  }
  convolution_param {
    num_output: 112
    kernel_size: 1
    weight_filler {
      type: "xavier"
      std: 0.03
    }
    bias_filler {
      type: "constant"
      value: 0.2
    }
  }
}
layer {
  name: "inception_4d/relu_1x1"
  type: "ReLU"
  bottom: "inception_4d/1x1"
  top: "inception_4d/1x1"
}
layer {
  name: "inception_4d/3x3_reduce"
  type: "Convolution"
  bottom: "inception_4c/output"
  top: "inception_4d/3x3_reduce"
  param {
    lr_mult: 1
    decay_mult: 1
  }
  param {
    lr_mult: 2
    decay_mult: 0
  }
  convolution_param {
    num_output: 144
    kernel_size: 1
    weight_filler {
      type: "xavier"
      std: 0.09
    }
    bias_filler {
      type: "constant"
      value: 0.2
    }
  }
}
layer {
  name: "inception_4d/relu_3x3_reduce"
  type: "ReLU"
  bottom: "inception_4d/3x3_reduce"
  top: "inception_4d/3x3_reduce"
}
layer {
  name: "inception_4d/3x3"
  type: "Convolution"
  bottom: "inception_4d/3x3_reduce"
  top: "inception_4d/3x3"
  param {
    lr_mult: 1
    decay_mult: 1
  }
  param {
    lr_mult: 2
    decay_mult: 0
  }
  convolution_param {
    num_output: 288
    pad: 1
    kernel_size: 3
    weight_filler {
      type: "xavier"
      std: 0.03
    }
    bias_filler {
      type: "constant"
      value: 0.2
    }
  }
}
layer {
  name: "inception_4d/relu_3x3"
  type: "ReLU"
  bottom: "inception_4d/3x3"
  top: "inception_4d/3x3"
}
layer {
  name: "inception_4d/5x5_reduce"
  type: "Convolution"
  bottom: "inception_4c/output"
  top: "inception_4d/5x5_reduce"
  param {
    lr_mult: 1
    decay_mult: 1
  }
  param {
    lr_mult: 2
    decay_mult: 0
  }
  convolution_param {
    num_output: 32
    kernel_size: 1
    weight_filler {
      type: "xavier"
      std: 0.2
    }
    bias_filler {
      type: "constant"
      value: 0.2
    }
  }
}
layer {
  name: "inception_4d/relu_5x5_reduce"
  type: "ReLU"
  bottom: "inception_4d/5x5_reduce"
  top: "inception_4d/5x5_reduce"
}
layer {
  name: "inception_4d/5x5"
  type: "Convolution"
  bottom: "inception_4d/5x5_reduce"
  top: "inception_4d/5x5"
  param {
    lr_mult: 1
    decay_mult: 1
  }
  param {
    lr_mult: 2
    decay_mult: 0
  }
  convolution_param {
    num_output: 64
    pad: 2
    kernel_size: 5
    weight_filler {
      type: "xavier"
      std: 0.03
    }
    bias_filler {
      type: "constant"
      value: 0.2
    }
  }
}
layer {
  name: "inception_4d/relu_5x5"
  type: "ReLU"
  bottom: "inception_4d/5x5"
  top: "inception_4d/5x5"
}
layer {
  name: "inception_4d/pool"
  type: "Pooling"
  bottom: "inception_4c/output"
  top: "inception_4d/pool"
  pooling_param {
    pool: MAX
    kernel_size: 3
    stride: 1
    pad: 1
  }
}
layer {
  name: "inception_4d/pool_proj"
  type: "Convolution"
  bottom: "inception_4d/pool"
  top: "inception_4d/pool_proj"
  param {
    lr_mult: 1
    decay_mult: 1
  }
  param {
    lr_mult: 2
    decay_mult: 0
  }
  convolution_param {
    num_output: 64
    kernel_size: 1
    weight_filler {
      type: "xavier"
      std: 0.1
    }
    bias_filler {
      type: "constant"
      value: 0.2
    }
  }
}
layer {
  name: "inception_4d/relu_pool_proj"
  type: "ReLU"
  bottom: "inception_4d/pool_proj"
  top: "inception_4d/pool_proj"
}
layer {
  name: "inception_4d/output"
  type: "Concat"
  bottom: "inception_4d/1x1"
  bottom: "inception_4d/3x3"
  bottom: "inception_4d/5x5"
  bottom: "inception_4d/pool_proj"
  top: "inception_4d/output"
}
layer {
  name: "loss2/ave_pool"
  type: "Pooling"
  bottom: "inception_4d/output"
  top: "loss2/ave_pool"
  pooling_param {
    pool: AVE
    kernel_size: 5
    stride: 3
  }
}
layer {
  name: "loss2/conv"
  type: "Convolution"
  bottom: "loss2/ave_pool"
  top: "loss2/conv"
  param {
    lr_mult: 1
    decay_mult: 1
  }
  param {
    lr_mult: 2
    decay_mult: 0
  }
  convolution_param {
    num_output: 128
    kernel_size: 1
    weight_filler {
      type: "xavier"
      std: 0.08
    }
    bias_filler {
      type: "constant"
      value: 0.2
    }
  }
}
layer {
  name: "loss2/relu_conv"
  type: "ReLU"
  bottom: "loss2/conv"
  top: "loss2/conv"
}
layer {
  name: "loss2/fc"
  type: "InnerProduct"
  bottom: "loss2/conv"
  top: "loss2/fc"
  param {
    lr_mult: 1
    decay_mult: 1
  }
  param {
    lr_mult: 2
    decay_mult: 0
  }
  inner_product_param {
    num_output: 1024
    weight_filler {
      type: "xavier"
      std: 0.02
    }
    bias_filler {
      type: "constant"
      value: 0.2
    }
  }
}
layer {
  name: "loss2/relu_fc"
  type: "ReLU"
  bottom: "loss2/fc"
  top: "loss2/fc"
}
layer {
  name: "loss2/drop_fc"
  type: "Dropout"
  bottom: "loss2/fc"
  top: "loss2/fc"
  dropout_param {
    dropout_ratio: 0.7
  }
}
layer {
  name: "loss2/classifier_plantvillage"
  type: "InnerProduct"
  bottom: "loss2/fc"
  top: "loss2/classifier_plantvillage"
  param {
    lr_mult: 1
    decay_mult: 1
  }
  param {
    lr_mult: 2
    decay_mult: 0
  }
  inner_product_param {
    num_output: 38
    weight_filler {
      type: "xavier"
      std: 0.0009765625
    }
    bias_filler {
      type: "constant"
      value: 0
    }
  }
}
layer {
  name: "inception_4e/1x1"
  type: "Convolution"
  bottom: "inception_4d/output"
  top: "inception_4e/1x1"
  param {
    lr_mult: 1
    decay_mult: 1
  }
  param {
    lr_mult: 2
    decay_mult: 0
  }
  convolution_param {
    num_output: 256
    kernel_size: 1
    weight_filler {
      type: "xavier"
      std: 0.03
    }
    bias_filler {
      type: "constant"
      value: 0.2
    }
  }
}
layer {
  name: "inception_4e/relu_1x1"
  type: "ReLU"
  bottom: "inception_4e/1x1"
  top: "inception_4e/1x1"
}
layer {
  name: "inception_4e/3x3_reduce"
  type: "Convolution"
  bottom: "inception_4d/output"
  top: "inception_4e/3x3_reduce"
  param {
    lr_mult: 1
    decay_mult: 1
  }
  param {
    lr_mult: 2
    decay_mult: 0
  }
  convolution_param {
    num_output: 160
    kernel_size: 1
    weight_filler {
      type: "xavier"
      std: 0.09
    }
    bias_filler {
      type: "constant"
      value: 0.2
    }
  }
}
layer {
  name: "inception_4e/relu_3x3_reduce"
  type: "ReLU"
  bottom: "inception_4e/3x3_reduce"
  top: "inception_4e/3x3_reduce"
}
layer {
  name: "inception_4e/3x3"
  type: "Convolution"
  bottom: "inception_4e/3x3_reduce"
  top: "inception_4e/3x3"
  param {
    lr_mult: 1
    decay_mult: 1
  }
  param {
    lr_mult: 2
    decay_mult: 0
  }
  convolution_param {
    num_output: 320
    pad: 1
    kernel_size: 3
    weight_filler {
      type: "xavier"
      std: 0.03
    }
    bias_filler {
      type: "constant"
      value: 0.2
    }
  }
}
layer {
  name: "inception_4e/relu_3x3"
  type: "ReLU"
  bottom: "inception_4e/3x3"
  top: "inception_4e/3x3"
}
layer {
  name: "inception_4e/5x5_reduce"
  type: "Convolution"
  bottom: "inception_4d/output"
  top: "inception_4e/5x5_reduce"
  param {
    lr_mult: 1
    decay_mult: 1
  }
  param {
    lr_mult: 2
    decay_mult: 0
  }
  convolution_param {
    num_output: 32
    kernel_size: 1
    weight_filler {
      type: "xavier"
      std: 0.2
    }
    bias_filler {
      type: "constant"
      value: 0.2
    }
  }
}
layer {
  name: "inception_4e/relu_5x5_reduce"
  type: "ReLU"
  bottom: "inception_4e/5x5_reduce"
  top: "inception_4e/5x5_reduce"
}
layer {
  name: "inception_4e/5x5"
  type: "Convolution"
  bottom: "inception_4e/5x5_reduce"
  top: "inception_4e/5x5"
  p
I0403 14:28:30.476061 13305 layer_factory.hpp:77] Creating layer data
I0403 14:28:30.476672 13305 net.cpp:91] Creating Layer data
I0403 14:28:30.476706 13305 net.cpp:399] data -> data
I0403 14:28:30.476757 13305 net.cpp:399] data -> label
I0403 14:28:30.476793 13305 data_transformer.cpp:25] Loading mean file from: /home/mohanty/data/final_dataset/lmdb/color-40-60/mean.binaryproto
I0403 14:28:30.479651 13308 db_lmdb.cpp:38] Opened lmdb /home/mohanty/data/final_dataset/lmdb/color-40-60/test_db
I0403 14:28:30.490059 13305 data_layer.cpp:41] output data size: 24,3,224,224
I0403 14:28:30.516757 13305 net.cpp:141] Setting up data
I0403 14:28:30.516831 13305 net.cpp:148] Top shape: 24 3 224 224 (3612672)
I0403 14:28:30.516854 13305 net.cpp:148] Top shape: 24 (24)
I0403 14:28:30.516868 13305 net.cpp:156] Memory required for data: 14450784
I0403 14:28:30.516894 13305 layer_factory.hpp:77] Creating layer label_data_1_split
I0403 14:28:30.516921 13305 net.cpp:91] Creating Layer label_data_1_split
I0403 14:28:30.516938 13305 net.cpp:425] label_data_1_split <- label
I0403 14:28:30.516969 13305 net.cpp:399] label_data_1_split -> label_data_1_split_0
I0403 14:28:30.516995 13305 net.cpp:399] label_data_1_split -> label_data_1_split_1
I0403 14:28:30.517016 13305 net.cpp:399] label_data_1_split -> label_data_1_split_2
I0403 14:28:30.517036 13305 net.cpp:399] label_data_1_split -> label_data_1_split_3
I0403 14:28:30.517055 13305 net.cpp:399] label_data_1_split -> label_data_1_split_4
I0403 14:28:30.517074 13305 net.cpp:399] label_data_1_split -> label_data_1_split_5
I0403 14:28:30.517092 13305 net.cpp:399] label_data_1_split -> label_data_1_split_6
I0403 14:28:30.517112 13305 net.cpp:399] label_data_1_split -> label_data_1_split_7
I0403 14:28:30.517130 13305 net.cpp:399] label_data_1_split -> label_data_1_split_8
I0403 14:28:30.517149 13305 net.cpp:399] label_data_1_split -> label_data_1_split_9
I0403 14:28:30.517261 13305 net.cpp:141] Setting up label_data_1_split
I0403 14:28:30.517284 13305 net.cpp:148] Top shape: 24 (24)
I0403 14:28:30.517302 13305 net.cpp:148] Top shape: 24 (24)
I0403 14:28:30.517316 13305 net.cpp:148] Top shape: 24 (24)
I0403 14:28:30.517331 13305 net.cpp:148] Top shape: 24 (24)
I0403 14:28:30.517345 13305 net.cpp:148] Top shape: 24 (24)
I0403 14:28:30.517360 13305 net.cpp:148] Top shape: 24 (24)
I0403 14:28:30.517374 13305 net.cpp:148] Top shape: 24 (24)
I0403 14:28:30.517390 13305 net.cpp:148] Top shape: 24 (24)
I0403 14:28:30.517403 13305 net.cpp:148] Top shape: 24 (24)
I0403 14:28:30.517418 13305 net.cpp:148] Top shape: 24 (24)
I0403 14:28:30.517464 13305 net.cpp:156] Memory required for data: 14451744
I0403 14:28:30.517480 13305 layer_factory.hpp:77] Creating layer conv1/7x7_s2
I0403 14:28:30.517510 13305 net.cpp:91] Creating Layer conv1/7x7_s2
I0403 14:28:30.517529 13305 net.cpp:425] conv1/7x7_s2 <- data
I0403 14:28:30.517546 13305 net.cpp:399] conv1/7x7_s2 -> conv1/7x7_s2
I0403 14:28:30.656319 13305 net.cpp:141] Setting up conv1/7x7_s2
I0403 14:28:30.656383 13305 net.cpp:148] Top shape: 24 64 112 112 (19267584)
I0403 14:28:30.656401 13305 net.cpp:156] Memory required for data: 91522080
I0403 14:28:30.656432 13305 layer_factory.hpp:77] Creating layer conv1/relu_7x7
I0403 14:28:30.656458 13305 net.cpp:91] Creating Layer conv1/relu_7x7
I0403 14:28:30.656476 13305 net.cpp:425] conv1/relu_7x7 <- conv1/7x7_s2
I0403 14:28:30.656496 13305 net.cpp:386] conv1/relu_7x7 -> conv1/7x7_s2 (in-place)
I0403 14:28:30.656751 13305 net.cpp:141] Setting up conv1/relu_7x7
I0403 14:28:30.656779 13305 net.cpp:148] Top shape: 24 64 112 112 (19267584)
I0403 14:28:30.656793 13305 net.cpp:156] Memory required for data: 168592416
I0403 14:28:30.656808 13305 layer_factory.hpp:77] Creating layer pool1/3x3_s2
I0403 14:28:30.656833 13305 net.cpp:91] Creating Layer pool1/3x3_s2
I0403 14:28:30.656850 13305 net.cpp:425] pool1/3x3_s2 <- conv1/7x7_s2
I0403 14:28:30.656868 13305 net.cpp:399] pool1/3x3_s2 -> pool1/3x3_s2
I0403 14:28:30.656962 13305 net.cpp:141] Setting up pool1/3x3_s2
I0403 14:28:30.656987 13305 net.cpp:148] Top shape: 24 64 56 56 (4816896)
I0403 14:28:30.657001 13305 net.cpp:156] Memory required for data: 187860000
I0403 14:28:30.657016 13305 layer_factory.hpp:77] Creating layer pool1/norm1
I0403 14:28:30.657039 13305 net.cpp:91] Creating Layer pool1/norm1
I0403 14:28:30.657058 13305 net.cpp:425] pool1/norm1 <- pool1/3x3_s2
I0403 14:28:30.657075 13305 net.cpp:399] pool1/norm1 -> pool1/norm1
I0403 14:28:30.657357 13305 net.cpp:141] Setting up pool1/norm1
I0403 14:28:30.657384 13305 net.cpp:148] Top shape: 24 64 56 56 (4816896)
I0403 14:28:30.657399 13305 net.cpp:156] Memory required for data: 207127584
I0403 14:28:30.657414 13305 layer_factory.hpp:77] Creating layer conv2/3x3_reduce
I0403 14:28:30.657438 13305 net.cpp:91] Creating Layer conv2/3x3_reduce
I0403 14:28:30.657454 13305 net.cpp:425] conv2/3x3_reduce <- pool1/norm1
I0403 14:28:30.657471 13305 net.cpp:399] conv2/3x3_reduce -> conv2/3x3_reduce
I0403 14:28:30.658826 13305 net.cpp:141] Setting up conv2/3x3_reduce
I0403 14:28:30.658855 13305 net.cpp:148] Top shape: 24 64 56 56 (4816896)
I0403 14:28:30.658871 13305 net.cpp:156] Memory required for data: 226395168
I0403 14:28:30.658891 13305 layer_factory.hpp:77] Creating layer conv2/relu_3x3_reduce
I0403 14:28:30.658910 13305 net.cpp:91] Creating Layer conv2/relu_3x3_reduce
I0403 14:28:30.658924 13305 net.cpp:425] conv2/relu_3x3_reduce <- conv2/3x3_reduce
I0403 14:28:30.658941 13305 net.cpp:386] conv2/relu_3x3_reduce -> conv2/3x3_reduce (in-place)
I0403 14:28:30.659190 13305 net.cpp:141] Setting up conv2/relu_3x3_reduce
I0403 14:28:30.659216 13305 net.cpp:148] Top shape: 24 64 56 56 (4816896)
I0403 14:28:30.659231 13305 net.cpp:156] Memory required for data: 245662752
I0403 14:28:30.659245 13305 layer_factory.hpp:77] Creating layer conv2/3x3
I0403 14:28:30.659268 13305 net.cpp:91] Creating Layer conv2/3x3
I0403 14:28:30.659284 13305 net.cpp:425] conv2/3x3 <- conv2/3x3_reduce
I0403 14:28:30.659302 13305 net.cpp:399] conv2/3x3 -> conv2/3x3
I0403 14:28:30.661527 13305 net.cpp:141] Setting up conv2/3x3
I0403 14:28:30.661556 13305 net.cpp:148] Top shape: 24 192 56 56 (14450688)
I0403 14:28:30.661577 13305 net.cpp:156] Memory required for data: 303465504
I0403 14:28:30.661598 13305 layer_factory.hpp:77] Creating layer conv2/relu_3x3
I0403 14:28:30.661617 13305 net.cpp:91] Creating Layer conv2/relu_3x3
I0403 14:28:30.661631 13305 net.cpp:425] conv2/relu_3x3 <- conv2/3x3
I0403 14:28:30.661648 13305 net.cpp:386] conv2/relu_3x3 -> conv2/3x3 (in-place)
I0403 14:28:30.661801 13305 net.cpp:141] Setting up conv2/relu_3x3
I0403 14:28:30.661824 13305 net.cpp:148] Top shape: 24 192 56 56 (14450688)
I0403 14:28:30.661877 13305 net.cpp:156] Memory required for data: 361268256
I0403 14:28:30.661892 13305 layer_factory.hpp:77] Creating layer conv2/norm2
I0403 14:28:30.661911 13305 net.cpp:91] Creating Layer conv2/norm2
I0403 14:28:30.661926 13305 net.cpp:425] conv2/norm2 <- conv2/3x3
I0403 14:28:30.661942 13305 net.cpp:399] conv2/norm2 -> conv2/norm2
I0403 14:28:30.662216 13305 net.cpp:141] Setting up conv2/norm2
I0403 14:28:30.662241 13305 net.cpp:148] Top shape: 24 192 56 56 (14450688)
I0403 14:28:30.662256 13305 net.cpp:156] Memory required for data: 419071008
I0403 14:28:30.662271 13305 layer_factory.hpp:77] Creating layer pool2/3x3_s2
I0403 14:28:30.662286 13305 net.cpp:91] Creating Layer pool2/3x3_s2
I0403 14:28:30.662302 13305 net.cpp:425] pool2/3x3_s2 <- conv2/norm2
I0403 14:28:30.662318 13305 net.cpp:399] pool2/3x3_s2 -> pool2/3x3_s2
I0403 14:28:30.662365 13305 net.cpp:141] Setting up pool2/3x3_s2
I0403 14:28:30.662386 13305 net.cpp:148] Top shape: 24 192 28 28 (3612672)
I0403 14:28:30.662401 13305 net.cpp:156] Memory required for data: 433521696
I0403 14:28:30.662415 13305 layer_factory.hpp:77] Creating layer pool2/3x3_s2_pool2/3x3_s2_0_split
I0403 14:28:30.662442 13305 net.cpp:91] Creating Layer pool2/3x3_s2_pool2/3x3_s2_0_split
I0403 14:28:30.662457 13305 net.cpp:425] pool2/3x3_s2_pool2/3x3_s2_0_split <- pool2/3x3_s2
I0403 14:28:30.662474 13305 net.cpp:399] pool2/3x3_s2_pool2/3x3_s2_0_split -> pool2/3x3_s2_pool2/3x3_s2_0_split_0
I0403 14:28:30.662493 13305 net.cpp:399] pool2/3x3_s2_pool2/3x3_s2_0_split -> pool2/3x3_s2_pool2/3x3_s2_0_split_1
I0403 14:28:30.662511 13305 net.cpp:399] pool2/3x3_s2_pool2/3x3_s2_0_split -> pool2/3x3_s2_pool2/3x3_s2_0_split_2
I0403 14:28:30.662530 13305 net.cpp:399] pool2/3x3_s2_pool2/3x3_s2_0_split -> pool2/3x3_s2_pool2/3x3_s2_0_split_3
I0403 14:28:30.662598 13305 net.cpp:141] Setting up pool2/3x3_s2_pool2/3x3_s2_0_split
I0403 14:28:30.662621 13305 net.cpp:148] Top shape: 24 192 28 28 (3612672)
I0403 14:28:30.662637 13305 net.cpp:148] Top shape: 24 192 28 28 (3612672)
I0403 14:28:30.662652 13305 net.cpp:148] Top shape: 24 192 28 28 (3612672)
I0403 14:28:30.662667 13305 net.cpp:148] Top shape: 24 192 28 28 (3612672)
I0403 14:28:30.662680 13305 net.cpp:156] Memory required for data: 491324448
I0403 14:28:30.662694 13305 layer_factory.hpp:77] Creating layer inception_3a/1x1
I0403 14:28:30.662714 13305 net.cpp:91] Creating Layer inception_3a/1x1
I0403 14:28:30.662729 13305 net.cpp:425] inception_3a/1x1 <- pool2/3x3_s2_pool2/3x3_s2_0_split_0
I0403 14:28:30.662747 13305 net.cpp:399] inception_3a/1x1 -> inception_3a/1x1
I0403 14:28:30.664183 13305 net.cpp:141] Setting up inception_3a/1x1
I0403 14:28:30.664212 13305 net.cpp:148] Top shape: 24 64 28 28 (1204224)
I0403 14:28:30.664227 13305 net.cpp:156] Memory required for data: 496141344
I0403 14:28:30.664245 13305 layer_factory.hpp:77] Creating layer inception_3a/relu_1x1
I0403 14:28:30.664264 13305 net.cpp:91] Creating Layer inception_3a/relu_1x1
I0403 14:28:30.664280 13305 net.cpp:425] inception_3a/relu_1x1 <- inception_3a/1x1
I0403 14:28:30.664300 13305 net.cpp:386] inception_3a/relu_1x1 -> inception_3a/1x1 (in-place)
I0403 14:28:30.664456 13305 net.cpp:141] Setting up inception_3a/relu_1x1
I0403 14:28:30.664480 13305 net.cpp:148] Top shape: 24 64 28 28 (1204224)
I0403 14:28:30.664494 13305 net.cpp:156] Memory required for data: 500958240
I0403 14:28:30.664508 13305 layer_factory.hpp:77] Creating layer inception_3a/3x3_reduce
I0403 14:28:30.664528 13305 net.cpp:91] Creating Layer inception_3a/3x3_reduce
I0403 14:28:30.664543 13305 net.cpp:425] inception_3a/3x3_reduce <- pool2/3x3_s2_pool2/3x3_s2_0_split_1
I0403 14:28:30.664561 13305 net.cpp:399] inception_3a/3x3_reduce -> inception_3a/3x3_reduce
I0403 14:28:30.666219 13305 net.cpp:141] Setting up inception_3a/3x3_reduce
I0403 14:28:30.666247 13305 net.cpp:148] Top shape: 24 96 28 28 (1806336)
I0403 14:28:30.666262 13305 net.cpp:156] Memory required for data: 508183584
I0403 14:28:30.666282 13305 layer_factory.hpp:77] Creating layer inception_3a/relu_3x3_reduce
I0403 14:28:30.666321 13305 net.cpp:91] Creating Layer inception_3a/relu_3x3_reduce
I0403 14:28:30.666338 13305 net.cpp:425] inception_3a/relu_3x3_reduce <- inception_3a/3x3_reduce
I0403 14:28:30.666357 13305 net.cpp:386] inception_3a/relu_3x3_reduce -> inception_3a/3x3_reduce (in-place)
I0403 14:28:30.666532 13305 net.cpp:141] Setting up inception_3a/relu_3x3_reduce
I0403 14:28:30.666555 13305 net.cpp:148] Top shape: 24 96 28 28 (1806336)
I0403 14:28:30.666574 13305 net.cpp:156] Memory required for data: 515408928
I0403 14:28:30.666589 13305 layer_factory.hpp:77] Creating layer inception_3a/3x3
I0403 14:28:30.666613 13305 net.cpp:91] Creating Layer inception_3a/3x3
I0403 14:28:30.666630 13305 net.cpp:425] inception_3a/3x3 <- inception_3a/3x3_reduce
I0403 14:28:30.666651 13305 net.cpp:399] inception_3a/3x3 -> inception_3a/3x3
I0403 14:28:30.668248 13305 net.cpp:141] Setting up inception_3a/3x3
I0403 14:28:30.668280 13305 net.cpp:148] Top shape: 24 128 28 28 (2408448)
I0403 14:28:30.668297 13305 net.cpp:156] Memory required for data: 525042720
I0403 14:28:30.668316 13305 layer_factory.hpp:77] Creating layer inception_3a/relu_3x3
I0403 14:28:30.668334 13305 net.cpp:91] Creating Layer inception_3a/relu_3x3
I0403 14:28:30.668349 13305 net.cpp:425] inception_3a/relu_3x3 <- inception_3a/3x3
I0403 14:28:30.668365 13305 net.cpp:386] inception_3a/relu_3x3 -> inception_3a/3x3 (in-place)
I0403 14:28:30.668654 13305 net.cpp:141] Setting up inception_3a/relu_3x3
I0403 14:28:30.668684 13305 net.cpp:148] Top shape: 24 128 28 28 (2408448)
I0403 14:28:30.668699 13305 net.cpp:156] Memory required for data: 534676512
I0403 14:28:30.668715 13305 layer_factory.hpp:77] Creating layer inception_3a/5x5_reduce
I0403 14:28:30.668735 13305 net.cpp:91] Creating Layer inception_3a/5x5_reduce
I0403 14:28:30.668751 13305 net.cpp:425] inception_3a/5x5_reduce <- pool2/3x3_s2_pool2/3x3_s2_0_split_2
I0403 14:28:30.668771 13305 net.cpp:399] inception_3a/5x5_reduce -> inception_3a/5x5_reduce
I0403 14:28:30.669711 13305 net.cpp:141] Setting up inception_3a/5x5_reduce
I0403 14:28:30.669739 13305 net.cpp:148] Top shape: 24 16 28 28 (301056)
I0403 14:28:30.669755 13305 net.cpp:156] Memory required for data: 535880736
I0403 14:28:30.669773 13305 layer_factory.hpp:77] Creating layer inception_3a/relu_5x5_reduce
I0403 14:28:30.669790 13305 net.cpp:91] Creating Layer inception_3a/relu_5x5_reduce
I0403 14:28:30.669806 13305 net.cpp:425] inception_3a/relu_5x5_reduce <- inception_3a/5x5_reduce
I0403 14:28:30.669824 13305 net.cpp:386] inception_3a/relu_5x5_reduce -> inception_3a/5x5_reduce (in-place)
I0403 14:28:30.670120 13305 net.cpp:141] Setting up inception_3a/relu_5x5_reduce
I0403 14:28:30.670145 13305 net.cpp:148] Top shape: 24 16 28 28 (301056)
I0403 14:28:30.670161 13305 net.cpp:156] Memory required for data: 537084960
I0403 14:28:30.670176 13305 layer_factory.hpp:77] Creating layer inception_3a/5x5
I0403 14:28:30.670197 13305 net.cpp:91] Creating Layer inception_3a/5x5
I0403 14:28:30.670213 13305 net.cpp:425] inception_3a/5x5 <- inception_3a/5x5_reduce
I0403 14:28:30.670233 13305 net.cpp:399] inception_3a/5x5 -> inception_3a/5x5
I0403 14:28:30.671231 13305 net.cpp:141] Setting up inception_3a/5x5
I0403 14:28:30.671260 13305 net.cpp:148] Top shape: 24 32 28 28 (602112)
I0403 14:28:30.671277 13305 net.cpp:156] Memory required for data: 539493408
I0403 14:28:30.671296 13305 layer_factory.hpp:77] Creating layer inception_3a/relu_5x5
I0403 14:28:30.671314 13305 net.cpp:91] Creating Layer inception_3a/relu_5x5
I0403 14:28:30.671329 13305 net.cpp:425] inception_3a/relu_5x5 <- inception_3a/5x5
I0403 14:28:30.671345 13305 net.cpp:386] inception_3a/relu_5x5 -> inception_3a/5x5 (in-place)
I0403 14:28:30.671520 13305 net.cpp:141] Setting up inception_3a/relu_5x5
I0403 14:28:30.671547 13305 net.cpp:148] Top shape: 24 32 28 28 (602112)
I0403 14:28:30.671562 13305 net.cpp:156] Memory required for data: 541901856
I0403 14:28:30.671581 13305 layer_factory.hpp:77] Creating layer inception_3a/pool
I0403 14:28:30.671599 13305 net.cpp:91] Creating Layer inception_3a/pool
I0403 14:28:30.671614 13305 net.cpp:425] inception_3a/pool <- pool2/3x3_s2_pool2/3x3_s2_0_split_3
I0403 14:28:30.671649 13305 net.cpp:399] inception_3a/pool -> inception_3a/pool
I0403 14:28:30.671706 13305 net.cpp:141] Setting up inception_3a/pool
I0403 14:28:30.671731 13305 net.cpp:148] Top shape: 24 192 28 28 (3612672)
I0403 14:28:30.671747 13305 net.cpp:156] Memory required for data: 556352544
I0403 14:28:30.671761 13305 layer_factory.hpp:77] Creating layer inception_3a/pool_proj
I0403 14:28:30.671783 13305 net.cpp:91] Creating Layer inception_3a/pool_proj
I0403 14:28:30.671799 13305 net.cpp:425] inception_3a/pool_proj <- inception_3a/pool
I0403 14:28:30.671818 13305 net.cpp:399] inception_3a/pool_proj -> inception_3a/pool_proj
I0403 14:28:30.672771 13305 net.cpp:141] Setting up inception_3a/pool_proj
I0403 14:28:30.672798 13305 net.cpp:148] Top shape: 24 32 28 28 (602112)
I0403 14:28:30.672813 13305 net.cpp:156] Memory required for data: 558760992
I0403 14:28:30.672837 13305 layer_factory.hpp:77] Creating layer inception_3a/relu_pool_proj
I0403 14:28:30.672857 13305 net.cpp:91] Creating Layer inception_3a/relu_pool_proj
I0403 14:28:30.672873 13305 net.cpp:425] inception_3a/relu_pool_proj <- inception_3a/pool_proj
I0403 14:28:30.672891 13305 net.cpp:386] inception_3a/relu_pool_proj -> inception_3a/pool_proj (in-place)
I0403 14:28:30.673161 13305 net.cpp:141] Setting up inception_3a/relu_pool_proj
I0403 14:28:30.673188 13305 net.cpp:148] Top shape: 24 32 28 28 (602112)
I0403 14:28:30.673204 13305 net.cpp:156] Memory required for data: 561169440
I0403 14:28:30.673219 13305 layer_factory.hpp:77] Creating layer inception_3a/output
I0403 14:28:30.673236 13305 net.cpp:91] Creating Layer inception_3a/output
I0403 14:28:30.673251 13305 net.cpp:425] inception_3a/output <- inception_3a/1x1
I0403 14:28:30.673266 13305 net.cpp:425] inception_3a/output <- inception_3a/3x3
I0403 14:28:30.673282 13305 net.cpp:425] inception_3a/output <- inception_3a/5x5
I0403 14:28:30.673300 13305 net.cpp:425] inception_3a/output <- inception_3a/pool_proj
I0403 14:28:30.673316 13305 net.cpp:399] inception_3a/output -> inception_3a/output
I0403 14:28:30.673364 13305 net.cpp:141] Setting up inception_3a/output
I0403 14:28:30.673388 13305 net.cpp:148] Top shape: 24 256 28 28 (4816896)
I0403 14:28:30.673403 13305 net.cpp:156] Memory required for data: 580437024
I0403 14:28:30.673415 13305 layer_factory.hpp:77] Creating layer inception_3a/output_inception_3a/output_0_split
I0403 14:28:30.673434 13305 net.cpp:91] Creating Layer inception_3a/output_inception_3a/output_0_split
I0403 14:28:30.673450 13305 net.cpp:425] inception_3a/output_inception_3a/output_0_split <- inception_3a/output
I0403 14:28:30.673467 13305 net.cpp:399] inception_3a/output_inception_3a/output_0_split -> inception_3a/output_inception_3a/output_0_split_0
I0403 14:28:30.673486 13305 net.cpp:399] inception_3a/output_inception_3a/output_0_split -> inception_3a/output_inception_3a/output_0_split_1
I0403 14:28:30.673511 13305 net.cpp:399] inception_3a/output_inception_3a/output_0_split -> inception_3a/output_inception_3a/output_0_split_2
I0403 14:28:30.673530 13305 net.cpp:399] inception_3a/output_inception_3a/output_0_split -> inception_3a/output_inception_3a/output_0_split_3
I0403 14:28:30.673609 13305 net.cpp:141] Setting up inception_3a/output_inception_3a/output_0_split
I0403 14:28:30.673632 13305 net.cpp:148] Top shape: 24 256 28 28 (4816896)
I0403 14:28:30.673650 13305 net.cpp:148] Top shape: 24 256 28 28 (4816896)
I0403 14:28:30.673665 13305 net.cpp:148] Top shape: 24 256 28 28 (4816896)
I0403 14:28:30.673679 13305 net.cpp:148] Top shape: 24 256 28 28 (4816896)
I0403 14:28:30.673692 13305 net.cpp:156] Memory required for data: 657507360
I0403 14:28:30.673705 13305 layer_factory.hpp:77] Creating layer inception_3b/1x1
I0403 14:28:30.673732 13305 net.cpp:91] Creating Layer inception_3b/1x1
I0403 14:28:30.673748 13305 net.cpp:425] inception_3b/1x1 <- inception_3a/output_inception_3a/output_0_split_0
I0403 14:28:30.673768 13305 net.cpp:399] inception_3b/1x1 -> inception_3b/1x1
I0403 14:28:30.674903 13305 net.cpp:141] Setting up inception_3b/1x1
I0403 14:28:30.674943 13305 net.cpp:148] Top shape: 24 128 28 28 (2408448)
I0403 14:28:30.674958 13305 net.cpp:156] Memory required for data: 667141152
I0403 14:28:30.674976 13305 layer_factory.hpp:77] Creating layer inception_3b/relu_1x1
I0403 14:28:30.674996 13305 net.cpp:91] Creating Layer inception_3b/relu_1x1
I0403 14:28:30.675014 13305 net.cpp:425] inception_3b/relu_1x1 <- inception_3b/1x1
I0403 14:28:30.675030 13305 net.cpp:386] inception_3b/relu_1x1 -> inception_3b/1x1 (in-place)
I0403 14:28:30.675201 13305 net.cpp:141] Setting up inception_3b/relu_1x1
I0403 14:28:30.675228 13305 net.cpp:148] Top shape: 24 128 28 28 (2408448)
I0403 14:28:30.675248 13305 net.cpp:156] Memory required for data: 676774944
I0403 14:28:30.675264 13305 layer_factory.hpp:77] Creating layer inception_3b/3x3_reduce
I0403 14:28:30.675287 13305 net.cpp:91] Creating Layer inception_3b/3x3_reduce
I0403 14:28:30.675302 13305 net.cpp:425] inception_3b/3x3_reduce <- inception_3a/output_inception_3a/output_0_split_1
I0403 14:28:30.675321 13305 net.cpp:399] inception_3b/3x3_reduce -> inception_3b/3x3_reduce
I0403 14:28:30.676455 13305 net.cpp:141] Setting up inception_3b/3x3_reduce
I0403 14:28:30.676483 13305 net.cpp:148] Top shape: 24 128 28 28 (2408448)
I0403 14:28:30.676498 13305 net.cpp:156] Memory required for data: 686408736
I0403 14:28:30.676517 13305 layer_factory.hpp:77] Creating layer inception_3b/relu_3x3_reduce
I0403 14:28:30.676537 13305 net.cpp:91] Creating Layer inception_3b/relu_3x3_reduce
I0403 14:28:30.676553 13305 net.cpp:425] inception_3b/relu_3x3_reduce <- inception_3b/3x3_reduce
I0403 14:28:30.676574 13305 net.cpp:386] inception_3b/relu_3x3_reduce -> inception_3b/3x3_reduce (in-place)
I0403 14:28:30.676749 13305 net.cpp:141] Setting up inception_3b/relu_3x3_reduce
I0403 14:28:30.676775 13305 net.cpp:148] Top shape: 24 128 28 28 (2408448)
I0403 14:28:30.676791 13305 net.cpp:156] Memory required for data: 696042528
I0403 14:28:30.676805 13305 layer_factory.hpp:77] Creating layer inception_3b/3x3
I0403 14:28:30.676829 13305 net.cpp:91] Creating Layer inception_3b/3x3
I0403 14:28:30.676847 13305 net.cpp:425] inception_3b/3x3 <- inception_3b/3x3_reduce
I0403 14:28:30.676868 13305 net.cpp:399] inception_3b/3x3 -> inception_3b/3x3
I0403 14:28:30.679770 13305 net.cpp:141] Setting up inception_3b/3x3
I0403 14:28:30.679801 13305 net.cpp:148] Top shape: 24 192 28 28 (3612672)
I0403 14:28:30.679817 13305 net.cpp:156] Memory required for data: 710493216
I0403 14:28:30.679836 13305 layer_factory.hpp:77] Creating layer inception_3b/relu_3x3
I0403 14:28:30.679853 13305 net.cpp:91] Creating Layer inception_3b/relu_3x3
I0403 14:28:30.679868 13305 net.cpp:425] inception_3b/relu_3x3 <- inception_3b/3x3
I0403 14:28:30.679885 13305 net.cpp:386] inception_3b/relu_3x3 -> inception_3b/3x3 (in-place)
I0403 14:28:30.680157 13305 net.cpp:141] Setting up inception_3b/relu_3x3
I0403 14:28:30.680186 13305 net.cpp:148] Top shape: 24 192 28 28 (3612672)
I0403 14:28:30.680202 13305 net.cpp:156] Memory required for data: 724943904
I0403 14:28:30.680217 13305 layer_factory.hpp:77] Creating layer inception_3b/5x5_reduce
I0403 14:28:30.680238 13305 net.cpp:91] Creating Layer inception_3b/5x5_reduce
I0403 14:28:30.680255 13305 net.cpp:425] inception_3b/5x5_reduce <- inception_3a/output_inception_3a/output_0_split_2
I0403 14:28:30.680274 13305 net.cpp:399] inception_3b/5x5_reduce -> inception_3b/5x5_reduce
I0403 14:28:30.681262 13305 net.cpp:141] Setting up inception_3b/5x5_reduce
I0403 14:28:30.681293 13305 net.cpp:148] Top shape: 24 32 28 28 (602112)
I0403 14:28:30.681308 13305 net.cpp:156] Memory required for data: 727352352
I0403 14:28:30.681326 13305 layer_factory.hpp:77] Creating layer inception_3b/relu_5x5_reduce
I0403 14:28:30.681344 13305 net.cpp:91] Creating Layer inception_3b/relu_5x5_reduce
I0403 14:28:30.681360 13305 net.cpp:425] inception_3b/relu_5x5_reduce <- inception_3b/5x5_reduce
I0403 14:28:30.681377 13305 net.cpp:386] inception_3b/relu_5x5_reduce -> inception_3b/5x5_reduce (in-place)
I0403 14:28:30.681551 13305 net.cpp:141] Setting up inception_3b/relu_5x5_reduce
I0403 14:28:30.681596 13305 net.cpp:148] Top shape: 24 32 28 28 (602112)
I0403 14:28:30.681612 13305 net.cpp:156] Memory required for data: 729760800
I0403 14:28:30.681625 13305 layer_factory.hpp:77] Creating layer inception_3b/5x5
I0403 14:28:30.681648 13305 net.cpp:91] Creating Layer inception_3b/5x5
I0403 14:28:30.681665 13305 net.cpp:425] inception_3b/5x5 <- inception_3b/5x5_reduce
I0403 14:28:30.681685 13305 net.cpp:399] inception_3b/5x5 -> inception_3b/5x5
I0403 14:28:30.683706 13305 net.cpp:141] Setting up inception_3b/5x5
I0403 14:28:30.683734 13305 net.cpp:148] Top shape: 24 96 28 28 (1806336)
I0403 14:28:30.683750 13305 net.cpp:156] Memory required for data: 736986144
I0403 14:28:30.683768 13305 layer_factory.hpp:77] Creating layer inception_3b/relu_5x5
I0403 14:28:30.683789 13305 net.cpp:91] Creating Layer inception_3b/relu_5x5
I0403 14:28:30.683805 13305 net.cpp:425] inception_3b/relu_5x5 <- inception_3b/5x5
I0403 14:28:30.683822 13305 net.cpp:386] inception_3b/relu_5x5 -> inception_3b/5x5 (in-place)
I0403 14:28:30.684011 13305 net.cpp:141] Setting up inception_3b/relu_5x5
I0403 14:28:30.684036 13305 net.cpp:148] Top shape: 24 96 28 28 (1806336)
I0403 14:28:30.684051 13305 net.cpp:156] Memory required for data: 744211488
I0403 14:28:30.684064 13305 layer_factory.hpp:77] Creating layer inception_3b/pool
I0403 14:28:30.684082 13305 net.cpp:91] Creating Layer inception_3b/pool
I0403 14:28:30.684098 13305 net.cpp:425] inception_3b/pool <- inception_3a/output_inception_3a/output_0_split_3
I0403 14:28:30.684116 13305 net.cpp:399] inception_3b/pool -> inception_3b/pool
I0403 14:28:30.684170 13305 net.cpp:141] Setting up inception_3b/pool
I0403 14:28:30.684193 13305 net.cpp:148] Top shape: 24 256 28 28 (4816896)
I0403 14:28:30.684207 13305 net.cpp:156] Memory required for data: 763479072
I0403 14:28:30.684221 13305 layer_factory.hpp:77] Creating layer inception_3b/pool_proj
I0403 14:28:30.684243 13305 net.cpp:91] Creating Layer inception_3b/pool_proj
I0403 14:28:30.684259 13305 net.cpp:425] inception_3b/pool_proj <- inception_3b/pool
I0403 14:28:30.684280 13305 net.cpp:399] inception_3b/pool_proj -> inception_3b/pool_proj
I0403 14:28:30.685336 13305 net.cpp:141] Setting up inception_3b/pool_proj
I0403 14:28:30.685364 13305 net.cpp:148] Top shape: 24 64 28 28 (1204224)
I0403 14:28:30.685379 13305 net.cpp:156] Memory required for data: 768295968
I0403 14:28:30.685397 13305 layer_factory.hpp:77] Creating layer inception_3b/relu_pool_proj
I0403 14:28:30.685415 13305 net.cpp:91] Creating Layer inception_3b/relu_pool_proj
I0403 14:28:30.685434 13305 net.cpp:425] inception_3b/relu_pool_proj <- inception_3b/pool_proj
I0403 14:28:30.685451 13305 net.cpp:386] inception_3b/relu_pool_proj -> inception_3b/pool_proj (in-place)
I0403 14:28:30.685845 13305 net.cpp:141] Setting up inception_3b/relu_pool_proj
I0403 14:28:30.685871 13305 net.cpp:148] Top shape: 24 64 28 28 (1204224)
I0403 14:28:30.685886 13305 net.cpp:156] Memory required for data: 773112864
I0403 14:28:30.685900 13305 layer_factory.hpp:77] Creating layer inception_3b/output
I0403 14:28:30.685917 13305 net.cpp:91] Creating Layer inception_3b/output
I0403 14:28:30.685933 13305 net.cpp:425] inception_3b/output <- inception_3b/1x1
I0403 14:28:30.685950 13305 net.cpp:425] inception_3b/output <- inception_3b/3x3
I0403 14:28:30.685966 13305 net.cpp:425] inception_3b/output <- inception_3b/5x5
I0403 14:28:30.685981 13305 net.cpp:425] inception_3b/output <- inception_3b/pool_proj
I0403 14:28:30.686000 13305 net.cpp:399] inception_3b/output -> inception_3b/output
I0403 14:28:30.686043 13305 net.cpp:141] Setting up inception_3b/output
I0403 14:28:30.686067 13305 net.cpp:148] Top shape: 24 480 28 28 (9031680)
I0403 14:28:30.686082 13305 net.cpp:156] Memory required for data: 809239584
I0403 14:28:30.686096 13305 layer_factory.hpp:77] Creating layer pool3/3x3_s2
I0403 14:28:30.686113 13305 net.cpp:91] Creating Layer pool3/3x3_s2
I0403 14:28:30.686130 13305 net.cpp:425] pool3/3x3_s2 <- inception_3b/output
I0403 14:28:30.686146 13305 net.cpp:399] pool3/3x3_s2 -> pool3/3x3_s2
I0403 14:28:30.686220 13305 net.cpp:141] Setting up pool3/3x3_s2
I0403 14:28:30.686244 13305 net.cpp:148] Top shape: 24 480 14 14 (2257920)
I0403 14:28:30.686259 13305 net.cpp:156] Memory required for data: 818271264
I0403 14:28:30.686275 13305 layer_factory.hpp:77] Creating layer pool3/3x3_s2_pool3/3x3_s2_0_split
I0403 14:28:30.686291 13305 net.cpp:91] Creating Layer pool3/3x3_s2_pool3/3x3_s2_0_split
I0403 14:28:30.686306 13305 net.cpp:425] pool3/3x3_s2_pool3/3x3_s2_0_split <- pool3/3x3_s2
I0403 14:28:30.686326 13305 net.cpp:399] pool3/3x3_s2_pool3/3x3_s2_0_split -> pool3/3x3_s2_pool3/3x3_s2_0_split_0
I0403 14:28:30.686345 13305 net.cpp:399] pool3/3x3_s2_pool3/3x3_s2_0_split -> pool3/3x3_s2_pool3/3x3_s2_0_split_1
I0403 14:28:30.686364 13305 net.cpp:399] pool3/3x3_s2_pool3/3x3_s2_0_split -> pool3/3x3_s2_pool3/3x3_s2_0_split_2
I0403 14:28:30.686383 13305 net.cpp:399] pool3/3x3_s2_pool3/3x3_s2_0_split -> pool3/3x3_s2_pool3/3x3_s2_0_split_3
I0403 14:28:30.686461 13305 net.cpp:141] Setting up pool3/3x3_s2_pool3/3x3_s2_0_split
I0403 14:28:30.686485 13305 net.cpp:148] Top shape: 24 480 14 14 (2257920)
I0403 14:28:30.686501 13305 net.cpp:148] Top shape: 24 480 14 14 (2257920)
I0403 14:28:30.686516 13305 net.cpp:148] Top shape: 24 480 14 14 (2257920)
I0403 14:28:30.686530 13305 net.cpp:148] Top shape: 24 480 14 14 (2257920)
I0403 14:28:30.686544 13305 net.cpp:156] Memory required for data: 854397984
I0403 14:28:30.686558 13305 layer_factory.hpp:77] Creating layer inception_4a/1x1
I0403 14:28:30.686589 13305 net.cpp:91] Creating Layer inception_4a/1x1
I0403 14:28:30.686607 13305 net.cpp:425] inception_4a/1x1 <- pool3/3x3_s2_pool3/3x3_s2_0_split_0
I0403 14:28:30.686628 13305 net.cpp:399] inception_4a/1x1 -> inception_4a/1x1
I0403 14:28:30.688213 13305 net.cpp:141] Setting up inception_4a/1x1
I0403 14:28:30.688240 13305 net.cpp:148] Top shape: 24 192 14 14 (903168)
I0403 14:28:30.688256 13305 net.cpp:156] Memory required for data: 858010656
I0403 14:28:30.688272 13305 layer_factory.hpp:77] Creating layer inception_4a/relu_1x1
I0403 14:28:30.688292 13305 net.cpp:91] Creating Layer inception_4a/relu_1x1
I0403 14:28:30.688308 13305 net.cpp:425] inception_4a/relu_1x1 <- inception_4a/1x1
I0403 14:28:30.688324 13305 net.cpp:386] inception_4a/relu_1x1 -> inception_4a/1x1 (in-place)
I0403 14:28:30.688491 13305 net.cpp:141] Setting up inception_4a/relu_1x1
I0403 14:28:30.688515 13305 net.cpp:148] Top shape: 24 192 14 14 (903168)
I0403 14:28:30.688529 13305 net.cpp:156] Memory required for data: 861623328
I0403 14:28:30.688542 13305 layer_factory.hpp:77] Creating layer inception_4a/3x3_reduce
I0403 14:28:30.688573 13305 net.cpp:91] Creating Layer inception_4a/3x3_reduce
I0403 14:28:30.688591 13305 net.cpp:425] inception_4a/3x3_reduce <- pool3/3x3_s2_pool3/3x3_s2_0_split_1
I0403 14:28:30.688609 13305 net.cpp:399] inception_4a/3x3_reduce -> inception_4a/3x3_reduce
I0403 14:28:30.689878 13305 net.cpp:141] Setting up inception_4a/3x3_reduce
I0403 14:28:30.689906 13305 net.cpp:148] Top shape: 24 96 14 14 (451584)
I0403 14:28:30.689923 13305 net.cpp:156] Memory required for data: 863429664
I0403 14:28:30.689945 13305 layer_factory.hpp:77] Creating layer inception_4a/relu_3x3_reduce
I0403 14:28:30.689965 13305 net.cpp:91] Creating Layer inception_4a/relu_3x3_reduce
I0403 14:28:30.689982 13305 net.cpp:425] inception_4a/relu_3x3_reduce <- inception_4a/3x3_reduce
I0403 14:28:30.690011 13305 net.cpp:386] inception_4a/relu_3x3_reduce -> inception_4a/3x3_reduce (in-place)
I0403 14:28:30.690196 13305 net.cpp:141] Setting up inception_4a/relu_3x3_reduce
I0403 14:28:30.690229 13305 net.cpp:148] Top shape: 24 96 14 14 (451584)
I0403 14:28:30.690244 13305 net.cpp:156] Memory required for data: 865236000
I0403 14:28:30.690259 13305 layer_factory.hpp:77] Creating layer inception_4a/3x3
I0403 14:28:30.690282 13305 net.cpp:91] Creating Layer inception_4a/3x3
I0403 14:28:30.690307 13305 net.cpp:425] inception_4a/3x3 <- inception_4a/3x3_reduce
I0403 14:28:30.690328 13305 net.cpp:399] inception_4a/3x3 -> inception_4a/3x3
I0403 14:28:30.692977 13305 net.cpp:141] Setting up inception_4a/3x3
I0403 14:28:30.693006 13305 net.cpp:148] Top shape: 24 208 14 14 (978432)
I0403 14:28:30.693022 13305 net.cpp:156] Memory required for data: 869149728
I0403 14:28:30.693039 13305 layer_factory.hpp:77] Creating layer inception_4a/relu_3x3
I0403 14:28:30.693059 13305 net.cpp:91] Creating Layer inception_4a/relu_3x3
I0403 14:28:30.693076 13305 net.cpp:425] inception_4a/relu_3x3 <- inception_4a/3x3
I0403 14:28:30.693092 13305 net.cpp:386] inception_4a/relu_3x3 -> inception_4a/3x3 (in-place)
I0403 14:28:30.693372 13305 net.cpp:141] Setting up inception_4a/relu_3x3
I0403 14:28:30.693397 13305 net.cpp:148] Top shape: 24 208 14 14 (978432)
I0403 14:28:30.693413 13305 net.cpp:156] Memory required for data: 873063456
I0403 14:28:30.693426 13305 layer_factory.hpp:77] Creating layer inception_4a/5x5_reduce
I0403 14:28:30.693449 13305 net.cpp:91] Creating Layer inception_4a/5x5_reduce
I0403 14:28:30.693466 13305 net.cpp:425] inception_4a/5x5_reduce <- pool3/3x3_s2_pool3/3x3_s2_0_split_2
I0403 14:28:30.693487 13305 net.cpp:399] inception_4a/5x5_reduce -> inception_4a/5x5_reduce
I0403 14:28:30.694496 13305 net.cpp:141] Setting up inception_4a/5x5_reduce
I0403 14:28:30.694525 13305 net.cpp:148] Top shape: 24 16 14 14 (75264)
I0403 14:28:30.694542 13305 net.cpp:156] Memory required for data: 873364512
I0403 14:28:30.694561 13305 layer_factory.hpp:77] Creating layer inception_4a/relu_5x5_reduce
I0403 14:28:30.694589 13305 net.cpp:91] Creating Layer inception_4a/relu_5x5_reduce
I0403 14:28:30.694608 13305 net.cpp:425] inception_4a/relu_5x5_reduce <- inception_4a/5x5_reduce
I0403 14:28:30.694624 13305 net.cpp:386] inception_4a/relu_5x5_reduce -> inception_4a/5x5_reduce (in-place)
I0403 14:28:30.694800 13305 net.cpp:141] Setting up inception_4a/relu_5x5_reduce
I0403 14:28:30.694828 13305 net.cpp:148] Top shape: 24 16 14 14 (75264)
I0403 14:28:30.694842 13305 net.cpp:156] Memory required for data: 873665568
I0403 14:28:30.694857 13305 layer_factory.hpp:77] Creating layer inception_4a/5x5
I0403 14:28:30.694878 13305 net.cpp:91] Creating Layer inception_4a/5x5
I0403 14:28:30.694895 13305 net.cpp:425] inception_4a/5x5 <- inception_4a/5x5_reduce
I0403 14:28:30.694916 13305 net.cpp:399] inception_4a/5x5 -> inception_4a/5x5
I0403 14:28:30.696007 13305 net.cpp:141] Setting up inception_4a/5x5
I0403 14:28:30.696033 13305 net.cpp:148] Top shape: 24 48 14 14 (225792)
I0403 14:28:30.696048 13305 net.cpp:156] Memory required for data: 874568736
I0403 14:28:30.696065 13305 layer_factory.hpp:77] Creating layer inception_4a/relu_5x5
I0403 14:28:30.696082 13305 net.cpp:91] Creating Layer inception_4a/relu_5x5
I0403 14:28:30.696099 13305 net.cpp:425] inception_4a/relu_5x5 <- inception_4a/5x5
I0403 14:28:30.696117 13305 net.cpp:386] inception_4a/relu_5x5 -> inception_4a/5x5 (in-place)
I0403 14:28:30.696295 13305 net.cpp:141] Setting up inception_4a/relu_5x5
I0403 14:28:30.696321 13305 net.cpp:148] Top shape: 24 48 14 14 (225792)
I0403 14:28:30.696334 13305 net.cpp:156] Memory required for data: 875471904
I0403 14:28:30.696349 13305 layer_factory.hpp:77] Creating layer inception_4a/pool
I0403 14:28:30.696368 13305 net.cpp:91] Creating Layer inception_4a/pool
I0403 14:28:30.696384 13305 net.cpp:425] inception_4a/pool <- pool3/3x3_s2_pool3/3x3_s2_0_split_3
I0403 14:28:30.696401 13305 net.cpp:399] inception_4a/pool -> inception_4a/pool
I0403 14:28:30.696461 13305 net.cpp:141] Setting up inception_4a/pool
I0403 14:28:30.696491 13305 net.cpp:148] Top shape: 24 480 14 14 (2257920)
I0403 14:28:30.696504 13305 net.cpp:156] Memory required for data: 884503584
I0403 14:28:30.696519 13305 layer_factory.hpp:77] Creating layer inception_4a/pool_proj
I0403 14:28:30.696540 13305 net.cpp:91] Creating Layer inception_4a/pool_proj
I0403 14:28:30.696557 13305 net.cpp:425] inception_4a/pool_proj <- inception_4a/pool
I0403 14:28:30.696583 13305 net.cpp:399] inception_4a/pool_proj -> inception_4a/pool_proj
I0403 14:28:30.697744 13305 net.cpp:141] Setting up inception_4a/pool_proj
I0403 14:28:30.697772 13305 net.cpp:148] Top shape: 24 64 14 14 (301056)
I0403 14:28:30.697803 13305 net.cpp:156] Memory required for data: 885707808
I0403 14:28:30.697821 13305 layer_factory.hpp:77] Creating layer inception_4a/relu_pool_proj
I0403 14:28:30.697839 13305 net.cpp:91] Creating Layer inception_4a/relu_pool_proj
I0403 14:28:30.697855 13305 net.cpp:425] inception_4a/relu_pool_proj <- inception_4a/pool_proj
I0403 14:28:30.697875 13305 net.cpp:386] inception_4a/relu_pool_proj -> inception_4a/pool_proj (in-place)
I0403 14:28:30.698178 13305 net.cpp:141] Setting up inception_4a/relu_pool_proj
I0403 14:28:30.698204 13305 net.cpp:148] Top shape: 24 64 14 14 (301056)
I0403 14:28:30.698220 13305 net.cpp:156] Memory required for data: 886912032
I0403 14:28:30.698235 13305 layer_factory.hpp:77] Creating layer inception_4a/output
I0403 14:28:30.698251 13305 net.cpp:91] Creating Layer inception_4a/output
I0403 14:28:30.698267 13305 net.cpp:425] inception_4a/output <- inception_4a/1x1
I0403 14:28:30.698284 13305 net.cpp:425] inception_4a/output <- inception_4a/3x3
I0403 14:28:30.698302 13305 net.cpp:425] inception_4a/output <- inception_4a/5x5
I0403 14:28:30.698318 13305 net.cpp:425] inception_4a/output <- inception_4a/pool_proj
I0403 14:28:30.698338 13305 net.cpp:399] inception_4a/output -> inception_4a/output
I0403 14:28:30.698382 13305 net.cpp:141] Setting up inception_4a/output
I0403 14:28:30.698408 13305 net.cpp:148] Top shape: 24 512 14 14 (2408448)
I0403 14:28:30.698424 13305 net.cpp:156] Memory required for data: 896545824
I0403 14:28:30.698439 13305 layer_factory.hpp:77] Creating layer inception_4a/output_inception_4a/output_0_split
I0403 14:28:30.698457 13305 net.cpp:91] Creating Layer inception_4a/output_inception_4a/output_0_split
I0403 14:28:30.698472 13305 net.cpp:425] inception_4a/output_inception_4a/output_0_split <- inception_4a/output
I0403 14:28:30.698493 13305 net.cpp:399] inception_4a/output_inception_4a/output_0_split -> inception_4a/output_inception_4a/output_0_split_0
I0403 14:28:30.698514 13305 net.cpp:399] inception_4a/output_inception_4a/output_0_split -> inception_4a/output_inception_4a/output_0_split_1
I0403 14:28:30.698535 13305 net.cpp:399] inception_4a/output_inception_4a/output_0_split -> inception_4a/output_inception_4a/output_0_split_2
I0403 14:28:30.698556 13305 net.cpp:399] inception_4a/output_inception_4a/output_0_split -> inception_4a/output_inception_4a/output_0_split_3
I0403 14:28:30.698580 13305 net.cpp:399] inception_4a/output_inception_4a/output_0_split -> inception_4a/output_inception_4a/output_0_split_4
I0403 14:28:30.698675 13305 net.cpp:141] Setting up inception_4a/output_inception_4a/output_0_split
I0403 14:28:30.698703 13305 net.cpp:148] Top shape: 24 512 14 14 (2408448)
I0403 14:28:30.698719 13305 net.cpp:148] Top shape: 24 512 14 14 (2408448)
I0403 14:28:30.698735 13305 net.cpp:148] Top shape: 24 512 14 14 (2408448)
I0403 14:28:30.698750 13305 net.cpp:148] Top shape: 24 512 14 14 (2408448)
I0403 14:28:30.698766 13305 net.cpp:148] Top shape: 24 512 14 14 (2408448)
I0403 14:28:30.698781 13305 net.cpp:156] Memory required for data: 944714784
I0403 14:28:30.698796 13305 layer_factory.hpp:77] Creating layer loss1/ave_pool
I0403 14:28:30.698813 13305 net.cpp:91] Creating Layer loss1/ave_pool
I0403 14:28:30.698830 13305 net.cpp:425] loss1/ave_pool <- inception_4a/output_inception_4a/output_0_split_0
I0403 14:28:30.698849 13305 net.cpp:399] loss1/ave_pool -> loss1/ave_pool
I0403 14:28:30.699064 13305 net.cpp:141] Setting up loss1/ave_pool
I0403 14:28:30.699090 13305 net.cpp:148] Top shape: 24 512 4 4 (196608)
I0403 14:28:30.699106 13305 net.cpp:156] Memory required for data: 945501216
I0403 14:28:30.699121 13305 layer_factory.hpp:77] Creating layer loss1/conv
I0403 14:28:30.699144 13305 net.cpp:91] Creating Layer loss1/conv
I0403 14:28:30.699163 13305 net.cpp:425] loss1/conv <- loss1/ave_pool
I0403 14:28:30.699185 13305 net.cpp:399] loss1/conv -> loss1/conv
I0403 14:28:30.700670 13305 net.cpp:141] Setting up loss1/conv
I0403 14:28:30.700700 13305 net.cpp:148] Top shape: 24 128 4 4 (49152)
I0403 14:28:30.700716 13305 net.cpp:156] Memory required for data: 945697824
I0403 14:28:30.700752 13305 layer_factory.hpp:77] Creating layer loss1/relu_conv
I0403 14:28:30.700774 13305 net.cpp:91] Creating Layer loss1/relu_conv
I0403 14:28:30.700793 13305 net.cpp:425] loss1/relu_conv <- loss1/conv
I0403 14:28:30.700810 13305 net.cpp:386] loss1/relu_conv -> loss1/conv (in-place)
I0403 14:28:30.701104 13305 net.cpp:141] Setting up loss1/relu_conv
I0403 14:28:30.701133 13305 net.cpp:148] Top shape: 24 128 4 4 (49152)
I0403 14:28:30.701148 13305 net.cpp:156] Memory required for data: 945894432
I0403 14:28:30.701164 13305 layer_factory.hpp:77] Creating layer loss1/fc
I0403 14:28:30.701190 13305 net.cpp:91] Creating Layer loss1/fc
I0403 14:28:30.701210 13305 net.cpp:425] loss1/fc <- loss1/conv
I0403 14:28:30.701231 13305 net.cpp:399] loss1/fc -> loss1/fc
I0403 14:28:30.720062 13305 net.cpp:141] Setting up loss1/fc
I0403 14:28:30.720136 13305 net.cpp:148] Top shape: 24 1024 (24576)
I0403 14:28:30.720154 13305 net.cpp:156] Memory required for data: 945992736
I0403 14:28:30.720172 13305 layer_factory.hpp:77] Creating layer loss1/relu_fc
I0403 14:28:30.720192 13305 net.cpp:91] Creating Layer loss1/relu_fc
I0403 14:28:30.720213 13305 net.cpp:425] loss1/relu_fc <- loss1/fc
I0403 14:28:30.720230 13305 net.cpp:386] loss1/relu_fc -> loss1/fc (in-place)
I0403 14:28:30.720448 13305 net.cpp:141] Setting up loss1/relu_fc
I0403 14:28:30.720489 13305 net.cpp:148] Top shape: 24 1024 (24576)
I0403 14:28:30.720506 13305 net.cpp:156] Memory required for data: 946091040
I0403 14:28:30.720522 13305 layer_factory.hpp:77] Creating layer loss1/drop_fc
I0403 14:28:30.720553 13305 net.cpp:91] Creating Layer loss1/drop_fc
I0403 14:28:30.720576 13305 net.cpp:425] loss1/drop_fc <- loss1/fc
I0403 14:28:30.720594 13305 net.cpp:386] loss1/drop_fc -> loss1/fc (in-place)
I0403 14:28:30.720649 13305 net.cpp:141] Setting up loss1/drop_fc
I0403 14:28:30.720675 13305 net.cpp:148] Top shape: 24 1024 (24576)
I0403 14:28:30.720692 13305 net.cpp:156] Memory required for data: 946189344
I0403 14:28:30.720708 13305 layer_factory.hpp:77] Creating layer loss1/classifier_plantvillage
I0403 14:28:30.720727 13305 net.cpp:91] Creating Layer loss1/classifier_plantvillage
I0403 14:28:30.720743 13305 net.cpp:425] loss1/classifier_plantvillage <- loss1/fc
I0403 14:28:30.720765 13305 net.cpp:399] loss1/classifier_plantvillage -> loss1/classifier_plantvillage
I0403 14:28:30.721734 13305 net.cpp:141] Setting up loss1/classifier_plantvillage
I0403 14:28:30.721765 13305 net.cpp:148] Top shape: 24 38 (912)
I0403 14:28:30.721781 13305 net.cpp:156] Memory required for data: 946192992
I0403 14:28:30.721799 13305 layer_factory.hpp:77] Creating layer loss1/classifier_plantvillage_loss1/classifier_plantvillage_0_split
I0403 14:28:30.721820 13305 net.cpp:91] Creating Layer loss1/classifier_plantvillage_loss1/classifier_plantvillage_0_split
I0403 14:28:30.721837 13305 net.cpp:425] loss1/classifier_plantvillage_loss1/classifier_plantvillage_0_split <- loss1/classifier_plantvillage
I0403 14:28:30.721854 13305 net.cpp:399] loss1/classifier_plantvillage_loss1/classifier_plantvillage_0_split -> loss1/classifier_plantvillage_loss1/classifier_plantvillage_0_split_0
I0403 14:28:30.721874 13305 net.cpp:399] loss1/classifier_plantvillage_loss1/classifier_plantvillage_0_split -> loss1/classifier_plantvillage_loss1/classifier_plantvillage_0_split_1
I0403 14:28:30.721895 13305 net.cpp:399] loss1/classifier_plantvillage_loss1/classifier_plantvillage_0_split -> loss1/classifier_plantvillage_loss1/classifier_plantvillage_0_split_2
I0403 14:28:30.721964 13305 net.cpp:141] Setting up loss1/classifier_plantvillage_loss1/classifier_plantvillage_0_split
I0403 14:28:30.721987 13305 net.cpp:148] Top shape: 24 38 (912)
I0403 14:28:30.722004 13305 net.cpp:148] Top shape: 24 38 (912)
I0403 14:28:30.722019 13305 net.cpp:148] Top shape: 24 38 (912)
I0403 14:28:30.722033 13305 net.cpp:156] Memory required for data: 946203936
I0403 14:28:30.722048 13305 layer_factory.hpp:77] Creating layer inception_4b/1x1
I0403 14:28:30.722070 13305 net.cpp:91] Creating Layer inception_4b/1x1
I0403 14:28:30.722110 13305 net.cpp:425] inception_4b/1x1 <- inception_4a/output_inception_4a/output_0_split_1
I0403 14:28:30.722133 13305 net.cpp:399] inception_4b/1x1 -> inception_4b/1x1
I0403 14:28:30.723852 13305 net.cpp:141] Setting up inception_4b/1x1
I0403 14:28:30.723884 13305 net.cpp:148] Top shape: 24 160 14 14 (752640)
I0403 14:28:30.723901 13305 net.cpp:156] Memory required for data: 949214496
I0403 14:28:30.723919 13305 layer_factory.hpp:77] Creating layer inception_4b/relu_1x1
I0403 14:28:30.723937 13305 net.cpp:91] Creating Layer inception_4b/relu_1x1
I0403 14:28:30.723954 13305 net.cpp:425] inception_4b/relu_1x1 <- inception_4b/1x1
I0403 14:28:30.723971 13305 net.cpp:386] inception_4b/relu_1x1 -> inception_4b/1x1 (in-place)
I0403 14:28:30.724159 13305 net.cpp:141] Setting up inception_4b/relu_1x1
I0403 14:28:30.724186 13305 net.cpp:148] Top shape: 24 160 14 14 (752640)
I0403 14:28:30.724201 13305 net.cpp:156] Memory required for data: 952225056
I0403 14:28:30.724216 13305 layer_factory.hpp:77] Creating layer inception_4b/3x3_reduce
I0403 14:28:30.724238 13305 net.cpp:91] Creating Layer inception_4b/3x3_reduce
I0403 14:28:30.724256 13305 net.cpp:425] inception_4b/3x3_reduce <- inception_4a/output_inception_4a/output_0_split_2
I0403 14:28:30.724274 13305 net.cpp:399] inception_4b/3x3_reduce -> inception_4b/3x3_reduce
I0403 14:28:30.725678 13305 net.cpp:141] Setting up inception_4b/3x3_reduce
I0403 14:28:30.725709 13305 net.cpp:148] Top shape: 24 112 14 14 (526848)
I0403 14:28:30.725728 13305 net.cpp:156] Memory required for data: 954332448
I0403 14:28:30.725746 13305 layer_factory.hpp:77] Creating layer inception_4b/relu_3x3_reduce
I0403 14:28:30.725764 13305 net.cpp:91] Creating Layer inception_4b/relu_3x3_reduce
I0403 14:28:30.725781 13305 net.cpp:425] inception_4b/relu_3x3_reduce <- inception_4b/3x3_reduce
I0403 14:28:30.725802 13305 net.cpp:386] inception_4b/relu_3x3_reduce -> inception_4b/3x3_reduce (in-place)
I0403 14:28:30.726092 13305 net.cpp:141] Setting up inception_4b/relu_3x3_reduce
I0403 14:28:30.726121 13305 net.cpp:148] Top shape: 24 112 14 14 (526848)
I0403 14:28:30.726138 13305 net.cpp:156] Memory required for data: 956439840
I0403 14:28:30.726153 13305 layer_factory.hpp:77] Creating layer inception_4b/3x3
I0403 14:28:30.726176 13305 net.cpp:91] Creating Layer inception_4b/3x3
I0403 14:28:30.726194 13305 net.cpp:425] inception_4b/3x3 <- inception_4b/3x3_reduce
I0403 14:28:30.726213 13305 net.cpp:399] inception_4b/3x3 -> inception_4b/3x3
I0403 14:28:30.729280 13305 net.cpp:141] Setting up inception_4b/3x3
I0403 14:28:30.729311 13305 net.cpp:148] Top shape: 24 224 14 14 (1053696)
I0403 14:28:30.729326 13305 net.cpp:156] Memory required for data: 960654624
I0403 14:28:30.729346 13305 layer_factory.hpp:77] Creating layer inception_4b/relu_3x3
I0403 14:28:30.729367 13305 net.cpp:91] Creating Layer inception_4b/relu_3x3
I0403 14:28:30.729384 13305 net.cpp:425] inception_4b/relu_3x3 <- inception_4b/3x3
I0403 14:28:30.729401 13305 net.cpp:386] inception_4b/relu_3x3 -> inception_4b/3x3 (in-place)
I0403 14:28:30.729593 13305 net.cpp:141] Setting up inception_4b/relu_3x3
I0403 14:28:30.729619 13305 net.cpp:148] Top shape: 24 224 14 14 (1053696)
I0403 14:28:30.729635 13305 net.cpp:156] Memory required for data: 964869408
I0403 14:28:30.729650 13305 layer_factory.hpp:77] Creating layer inception_4b/5x5_reduce
I0403 14:28:30.729674 13305 net.cpp:91] Creating Layer inception_4b/5x5_reduce
I0403 14:28:30.729692 13305 net.cpp:425] inception_4b/5x5_reduce <- inception_4a/output_inception_4a/output_0_split_3
I0403 14:28:30.729712 13305 net.cpp:399] inception_4b/5x5_reduce -> inception_4b/5x5_reduce
I0403 14:28:30.730821 13305 net.cpp:141] Setting up inception_4b/5x5_reduce
I0403 14:28:30.730852 13305 net.cpp:148] Top shape: 24 24 14 14 (112896)
I0403 14:28:30.730870 13305 net.cpp:156] Memory required for data: 965320992
I0403 14:28:30.730887 13305 layer_factory.hpp:77] Creating layer inception_4b/relu_5x5_reduce
I0403 14:28:30.730906 13305 net.cpp:91] Creating Layer inception_4b/relu_5x5_reduce
I0403 14:28:30.730938 13305 net.cpp:425] inception_4b/relu_5x5_reduce <- inception_4b/5x5_reduce
I0403 14:28:30.730960 13305 net.cpp:386] inception_4b/relu_5x5_reduce -> inception_4b/5x5_reduce (in-place)
I0403 14:28:30.731148 13305 net.cpp:141] Setting up inception_4b/relu_5x5_reduce
I0403 14:28:30.731174 13305 net.cpp:148] Top shape: 24 24 14 14 (112896)
I0403 14:28:30.731189 13305 net.cpp:156] Memory required for data: 965772576
I0403 14:28:30.731204 13305 layer_factory.hpp:77] Creating layer inception_4b/5x5
I0403 14:28:30.731226 13305 net.cpp:91] Creating Layer inception_4b/5x5
I0403 14:28:30.731245 13305 net.cpp:425] inception_4b/5x5 <- inception_4b/5x5_reduce
I0403 14:28:30.731266 13305 net.cpp:399] inception_4b/5x5 -> inception_4b/5x5
I0403 14:28:30.732517 13305 net.cpp:141] Setting up inception_4b/5x5
I0403 14:28:30.732544 13305 net.cpp:148] Top shape: 24 64 14 14 (301056)
I0403 14:28:30.732563 13305 net.cpp:156] Memory required for data: 966976800
I0403 14:28:30.732588 13305 layer_factory.hpp:77] Creating layer inception_4b/relu_5x5
I0403 14:28:30.732606 13305 net.cpp:91] Creating Layer inception_4b/relu_5x5
I0403 14:28:30.732623 13305 net.cpp:425] inception_4b/relu_5x5 <- inception_4b/5x5
I0403 14:28:30.732641 13305 net.cpp:386] inception_4b/relu_5x5 -> inception_4b/5x5 (in-place)
I0403 14:28:30.732933 13305 net.cpp:141] Setting up inception_4b/relu_5x5
I0403 14:28:30.732961 13305 net.cpp:148] Top shape: 24 64 14 14 (301056)
I0403 14:28:30.732978 13305 net.cpp:156] Memory required for data: 968181024
I0403 14:28:30.732992 13305 layer_factory.hpp:77] Creating layer inception_4b/pool
I0403 14:28:30.733011 13305 net.cpp:91] Creating Layer inception_4b/pool
I0403 14:28:30.733028 13305 net.cpp:425] inception_4b/pool <- inception_4a/output_inception_4a/output_0_split_4
I0403 14:28:30.733047 13305 net.cpp:399] inception_4b/pool -> inception_4b/pool
I0403 14:28:30.733114 13305 net.cpp:141] Setting up inception_4b/pool
I0403 14:28:30.733137 13305 net.cpp:148] Top shape: 24 512 14 14 (2408448)
I0403 14:28:30.733152 13305 net.cpp:156] Memory required for data: 977814816
I0403 14:28:30.733166 13305 layer_factory.hpp:77] Creating layer inception_4b/pool_proj
I0403 14:28:30.733189 13305 net.cpp:91] Creating Layer inception_4b/pool_proj
I0403 14:28:30.733206 13305 net.cpp:425] inception_4b/pool_proj <- inception_4b/pool
I0403 14:28:30.733227 13305 net.cpp:399] inception_4b/pool_proj -> inception_4b/pool_proj
I0403 14:28:30.734457 13305 net.cpp:141] Setting up inception_4b/pool_proj
I0403 14:28:30.734493 13305 net.cpp:148] Top shape: 24 64 14 14 (301056)
I0403 14:28:30.734509 13305 net.cpp:156] Memory required for data: 979019040
I0403 14:28:30.734529 13305 layer_factory.hpp:77] Creating layer inception_4b/relu_pool_proj
I0403 14:28:30.734547 13305 net.cpp:91] Creating Layer inception_4b/relu_pool_proj
I0403 14:28:30.734563 13305 net.cpp:425] inception_4b/relu_pool_proj <- inception_4b/pool_proj
I0403 14:28:30.734594 13305 net.cpp:386] inception_4b/relu_pool_proj -> inception_4b/pool_proj (in-place)
I0403 14:28:30.734783 13305 net.cpp:141] Setting up inception_4b/relu_pool_proj
I0403 14:28:30.734814 13305 net.cpp:148] Top shape: 24 64 14 14 (301056)
I0403 14:28:30.734838 13305 net.cpp:156] Memory required for data: 980223264
I0403 14:28:30.734858 13305 layer_factory.hpp:77] Creating layer inception_4b/output
I0403 14:28:30.734876 13305 net.cpp:91] Creating Layer inception_4b/output
I0403 14:28:30.734891 13305 net.cpp:425] inception_4b/output <- inception_4b/1x1
I0403 14:28:30.734908 13305 net.cpp:425] inception_4b/output <- inception_4b/3x3
I0403 14:28:30.734925 13305 net.cpp:425] inception_4b/output <- inception_4b/5x5
I0403 14:28:30.734941 13305 net.cpp:425] inception_4b/output <- inception_4b/pool_proj
I0403 14:28:30.734961 13305 net.cpp:399] inception_4b/output -> inception_4b/output
I0403 14:28:30.735008 13305 net.cpp:141] Setting up inception_4b/output
I0403 14:28:30.735033 13305 net.cpp:148] Top shape: 24 512 14 14 (2408448)
I0403 14:28:30.735049 13305 net.cpp:156] Memory required for data: 989857056
I0403 14:28:30.735082 13305 layer_factory.hpp:77] Creating layer inception_4b/output_inception_4b/output_0_split
I0403 14:28:30.735102 13305 net.cpp:91] Creating Layer inception_4b/output_inception_4b/output_0_split
I0403 14:28:30.735123 13305 net.cpp:425] inception_4b/output_inception_4b/output_0_split <- inception_4b/output
I0403 14:28:30.735144 13305 net.cpp:399] inception_4b/output_inception_4b/output_0_split -> inception_4b/output_inception_4b/output_0_split_0
I0403 14:28:30.735169 13305 net.cpp:399] inception_4b/output_inception_4b/output_0_split -> inception_4b/output_inception_4b/output_0_split_1
I0403 14:28:30.735189 13305 net.cpp:399] inception_4b/output_inception_4b/output_0_split -> inception_4b/output_inception_4b/output_0_split_2
I0403 14:28:30.735210 13305 net.cpp:399] inception_4b/output_inception_4b/output_0_split -> inception_4b/output_inception_4b/output_0_split_3
I0403 14:28:30.735296 13305 net.cpp:141] Setting up inception_4b/output_inception_4b/output_0_split
I0403 14:28:30.735323 13305 net.cpp:148] Top shape: 24 512 14 14 (2408448)
I0403 14:28:30.735340 13305 net.cpp:148] Top shape: 24 512 14 14 (2408448)
I0403 14:28:30.735355 13305 net.cpp:148] Top shape: 24 512 14 14 (2408448)
I0403 14:28:30.735370 13305 net.cpp:148] Top shape: 24 512 14 14 (2408448)
I0403 14:28:30.735384 13305 net.cpp:156] Memory required for data: 1028392224
I0403 14:28:30.735399 13305 layer_factory.hpp:77] Creating layer inception_4c/1x1
I0403 14:28:30.735421 13305 net.cpp:91] Creating Layer inception_4c/1x1
I0403 14:28:30.735438 13305 net.cpp:425] inception_4c/1x1 <- inception_4b/output_inception_4b/output_0_split_0
I0403 14:28:30.735460 13305 net.cpp:399] inception_4c/1x1 -> inception_4c/1x1
I0403 14:28:30.736960 13305 net.cpp:141] Setting up inception_4c/1x1
I0403 14:28:30.736989 13305 net.cpp:148] Top shape: 24 128 14 14 (602112)
I0403 14:28:30.737005 13305 net.cpp:156] Memory required for data: 1030800672
I0403 14:28:30.737025 13305 layer_factory.hpp:77] Creating layer inception_4c/relu_1x1
I0403 14:28:30.737046 13305 net.cpp:91] Creating Layer inception_4c/relu_1x1
I0403 14:28:30.737062 13305 net.cpp:425] inception_4c/relu_1x1 <- inception_4c/1x1
I0403 14:28:30.737079 13305 net.cpp:386] inception_4c/relu_1x1 -> inception_4c/1x1 (in-place)
I0403 14:28:30.737264 13305 net.cpp:141] Setting up inception_4c/relu_1x1
I0403 14:28:30.737290 13305 net.cpp:148] Top shape: 24 128 14 14 (602112)
I0403 14:28:30.737304 13305 net.cpp:156] Memory required for data: 1033209120
I0403 14:28:30.737319 13305 layer_factory.hpp:77] Creating layer inception_4c/3x3_reduce
I0403 14:28:30.737341 13305 net.cpp:91] Creating Layer inception_4c/3x3_reduce
I0403 14:28:30.737360 13305 net.cpp:425] inception_4c/3x3_reduce <- inception_4b/output_inception_4b/output_0_split_1
I0403 14:28:30.737380 13305 net.cpp:399] inception_4c/3x3_reduce -> inception_4c/3x3_reduce
I0403 14:28:30.739377 13305 net.cpp:141] Setting up inception_4c/3x3_reduce
I0403 14:28:30.739408 13305 net.cpp:148] Top shape: 24 128 14 14 (602112)
I0403 14:28:30.739423 13305 net.cpp:156] Memory required for data: 1035617568
I0403 14:28:30.739440 13305 layer_factory.hpp:77] Creating layer inception_4c/relu_3x3_reduce
I0403 14:28:30.739460 13305 net.cpp:91] Creating Layer inception_4c/relu_3x3_reduce
I0403 14:28:30.739477 13305 net.cpp:425] inception_4c/relu_3x3_reduce <- inception_4c/3x3_reduce
I0403 14:28:30.739495 13305 net.cpp:386] inception_4c/relu_3x3_reduce -> inception_4c/3x3_reduce (in-place)
I0403 14:28:30.739785 13305 net.cpp:141] Setting up inception_4c/relu_3x3_reduce
I0403 14:28:30.739812 13305 net.cpp:148] Top shape: 24 128 14 14 (602112)
I0403 14:28:30.739827 13305 net.cpp:156] Memory required for data: 1038026016
I0403 14:28:30.739842 13305 layer_factory.hpp:77] Creating layer inception_4c/3x3
I0403 14:28:30.739866 13305 net.cpp:91] Creating Layer inception_4c/3x3
I0403 14:28:30.739883 13305 net.cpp:425] inception_4c/3x3 <- inception_4c/3x3_reduce
I0403 14:28:30.739902 13305 net.cpp:399] inception_4c/3x3 -> inception_4c/3x3
I0403 14:28:30.743559 13305 net.cpp:141] Setting up inception_4c/3x3
I0403 14:28:30.743608 13305 net.cpp:148] Top shape: 24 256 14 14 (1204224)
I0403 14:28:30.743625 13305 net.cpp:156] Memory required for data: 1042842912
I0403 14:28:30.743657 13305 layer_factory.hpp:77] Creating layer inception_4c/relu_3x3
I0403 14:28:30.743677 13305 net.cpp:91] Creating Layer inception_4c/relu_3x3
I0403 14:28:30.743693 13305 net.cpp:425] inception_4c/relu_3x3 <- inception_4c/3x3
I0403 14:28:30.743710 13305 net.cpp:386] inception_4c/relu_3x3 -> inception_4c/3x3 (in-place)
I0403 14:28:30.743902 13305 net.cpp:141] Setting up inception_4c/relu_3x3
I0403 14:28:30.743929 13305 net.cpp:148] Top shape: 24 256 14 14 (1204224)
I0403 14:28:30.743944 13305 net.cpp:156] Memory required for data: 1047659808
I0403 14:28:30.743959 13305 layer_factory.hpp:77] Creating layer inception_4c/5x5_reduce
I0403 14:28:30.743983 13305 net.cpp:91] Creating Layer inception_4c/5x5_reduce
I0403 14:28:30.743999 13305 net.cpp:425] inception_4c/5x5_reduce <- inception_4b/output_inception_4b/output_0_split_2
I0403 14:28:30.744017 13305 net.cpp:399] inception_4c/5x5_reduce -> inception_4c/5x5_reduce
I0403 14:28:30.745118 13305 net.cpp:141] Setting up inception_4c/5x5_reduce
I0403 14:28:30.745147 13305 net.cpp:148] Top shape: 24 24 14 14 (112896)
I0403 14:28:30.745163 13305 net.cpp:156] Memory required for data: 1048111392
I0403 14:28:30.745182 13305 layer_factory.hpp:77] Creating layer inception_4c/relu_5x5_reduce
I0403 14:28:30.745201 13305 net.cpp:91] Creating Layer inception_4c/relu_5x5_reduce
I0403 14:28:30.745218 13305 net.cpp:425] inception_4c/relu_5x5_reduce <- inception_4c/5x5_reduce
I0403 14:28:30.745235 13305 net.cpp:386] inception_4c/relu_5x5_reduce -> inception_4c/5x5_reduce (in-place)
I0403 14:28:30.745421 13305 net.cpp:141] Setting up inception_4c/relu_5x5_reduce
I0403 14:28:30.745446 13305 net.cpp:148] Top shape: 24 24 14 14 (112896)
I0403 14:28:30.745461 13305 net.cpp:156] Memory required for data: 1048562976
I0403 14:28:30.745476 13305 layer_factory.hpp:77] Creating layer inception_4c/5x5
I0403 14:28:30.745497 13305 net.cpp:91] Creating Layer inception_4c/5x5
I0403 14:28:30.745514 13305 net.cpp:425] inception_4c/5x5 <- inception_4c/5x5_reduce
I0403 14:28:30.745535 13305 net.cpp:399] inception_4c/5x5 -> inception_4c/5x5
I0403 14:28:30.746779 13305 net.cpp:141] Setting up inception_4c/5x5
I0403 14:28:30.746808 13305 net.cpp:148] Top shape: 24 64 14 14 (301056)
I0403 14:28:30.746822 13305 net.cpp:156] Memory required for data: 1049767200
I0403 14:28:30.746840 13305 layer_factory.hpp:77] Creating layer inception_4c/relu_5x5
I0403 14:28:30.746858 13305 net.cpp:91] Creating Layer inception_4c/relu_5x5
I0403 14:28:30.746875 13305 net.cpp:425] inception_4c/relu_5x5 <- inception_4c/5x5
I0403 14:28:30.746893 13305 net.cpp:386] inception_4c/relu_5x5 -> inception_4c/5x5 (in-place)
I0403 14:28:30.747182 13305 net.cpp:141] Setting up inception_4c/relu_5x5
I0403 14:28:30.747208 13305 net.cpp:148] Top shape: 24 64 14 14 (301056)
I0403 14:28:30.747223 13305 net.cpp:156] Memory required for data: 1050971424
I0403 14:28:30.747238 13305 layer_factory.hpp:77] Creating layer inception_4c/pool
I0403 14:28:30.747256 13305 net.cpp:91] Creating Layer inception_4c/pool
I0403 14:28:30.747274 13305 net.cpp:425] inception_4c/pool <- inception_4b/output_inception_4b/output_0_split_3
I0403 14:28:30.747294 13305 net.cpp:399] inception_4c/pool -> inception_4c/pool
I0403 14:28:30.747361 13305 net.cpp:141] Setting up inception_4c/pool
I0403 14:28:30.747387 13305 net.cpp:148] Top shape: 24 512 14 14 (2408448)
I0403 14:28:30.747402 13305 net.cpp:156] Memory required for data: 1060605216
I0403 14:28:30.747416 13305 layer_factory.hpp:77] Creating layer inception_4c/pool_proj
I0403 14:28:30.747437 13305 net.cpp:91] Creating Layer inception_4c/pool_proj
I0403 14:28:30.747454 13305 net.cpp:425] inception_4c/pool_proj <- inception_4c/pool
I0403 14:28:30.747473 13305 net.cpp:399] inception_4c/pool_proj -> inception_4c/pool_proj
I0403 14:28:30.748698 13305 net.cpp:141] Setting up inception_4c/pool_proj
I0403 14:28:30.748729 13305 net.cpp:148] Top shape: 24 64 14 14 (301056)
I0403 14:28:30.748759 13305 net.cpp:156] Memory required for data: 1061809440
I0403 14:28:30.748778 13305 layer_factory.hpp:77] Creating layer inception_4c/relu_pool_proj
I0403 14:28:30.748797 13305 net.cpp:91] Creating Layer inception_4c/relu_pool_proj
I0403 14:28:30.748812 13305 net.cpp:425] inception_4c/relu_pool_proj <- inception_4c/pool_proj
I0403 14:28:30.748829 13305 net.cpp:386] inception_4c/relu_pool_proj -> inception_4c/pool_proj (in-place)
I0403 14:28:30.749013 13305 net.cpp:141] Setting up inception_4c/relu_pool_proj
I0403 14:28:30.749038 13305 net.cpp:148] Top shape: 24 64 14 14 (301056)
I0403 14:28:30.749053 13305 net.cpp:156] Memory required for data: 1063013664
I0403 14:28:30.749068 13305 layer_factory.hpp:77] Creating layer inception_4c/output
I0403 14:28:30.749083 13305 net.cpp:91] Creating Layer inception_4c/output
I0403 14:28:30.749099 13305 net.cpp:425] inception_4c/output <- inception_4c/1x1
I0403 14:28:30.749114 13305 net.cpp:425] inception_4c/output <- inception_4c/3x3
I0403 14:28:30.749130 13305 net.cpp:425] inception_4c/output <- inception_4c/5x5
I0403 14:28:30.749145 13305 net.cpp:425] inception_4c/output <- inception_4c/pool_proj
I0403 14:28:30.749163 13305 net.cpp:399] inception_4c/output -> inception_4c/output
I0403 14:28:30.749209 13305 net.cpp:141] Setting up inception_4c/output
I0403 14:28:30.749233 13305 net.cpp:148] Top shape: 24 512 14 14 (2408448)
I0403 14:28:30.749245 13305 net.cpp:156] Memory required for data: 1072647456
I0403 14:28:30.749259 13305 layer_factory.hpp:77] Creating layer inception_4c/output_inception_4c/output_0_split
I0403 14:28:30.749279 13305 net.cpp:91] Creating Layer inception_4c/output_inception_4c/output_0_split
I0403 14:28:30.749297 13305 net.cpp:425] inception_4c/output_inception_4c/output_0_split <- inception_4c/output
I0403 14:28:30.749315 13305 net.cpp:399] inception_4c/output_inception_4c/output_0_split -> inception_4c/output_inception_4c/output_0_split_0
I0403 14:28:30.749336 13305 net.cpp:399] inception_4c/output_inception_4c/output_0_split -> inception_4c/output_inception_4c/output_0_split_1
I0403 14:28:30.749356 13305 net.cpp:399] inception_4c/output_inception_4c/output_0_split -> inception_4c/output_inception_4c/output_0_split_2
I0403 14:28:30.749375 13305 net.cpp:399] inception_4c/output_inception_4c/output_0_split -> inception_4c/output_inception_4c/output_0_split_3
I0403 14:28:30.749459 13305 net.cpp:141] Setting up inception_4c/output_inception_4c/output_0_split
I0403 14:28:30.749482 13305 net.cpp:148] Top shape: 24 512 14 14 (2408448)
I0403 14:28:30.749498 13305 net.cpp:148] Top shape: 24 512 14 14 (2408448)
I0403 14:28:30.749513 13305 net.cpp:148] Top shape: 24 512 14 14 (2408448)
I0403 14:28:30.749528 13305 net.cpp:148] Top shape: 24 512 14 14 (2408448)
I0403 14:28:30.749541 13305 net.cpp:156] Memory required for data: 1111182624
I0403 14:28:30.749554 13305 layer_factory.hpp:77] Creating layer inception_4d/1x1
I0403 14:28:30.749594 13305 net.cpp:91] Creating Layer inception_4d/1x1
I0403 14:28:30.749614 13305 net.cpp:425] inception_4d/1x1 <- inception_4c/output_inception_4c/output_0_split_0
I0403 14:28:30.749635 13305 net.cpp:399] inception_4d/1x1 -> inception_4d/1x1
I0403 14:28:30.751058 13305 net.cpp:141] Setting up inception_4d/1x1
I0403 14:28:30.751087 13305 net.cpp:148] Top shape: 24 112 14 14 (526848)
I0403 14:28:30.751103 13305 net.cpp:156] Memory required for data: 1113290016
I0403 14:28:30.751121 13305 layer_factory.hpp:77] Creating layer inception_4d/relu_1x1
I0403 14:28:30.751142 13305 net.cpp:91] Creating Layer inception_4d/relu_1x1
I0403 14:28:30.751159 13305 net.cpp:425] inception_4d/relu_1x1 <- inception_4d/1x1
I0403 14:28:30.751176 13305 net.cpp:386] inception_4d/relu_1x1 -> inception_4d/1x1 (in-place)
I0403 14:28:30.751366 13305 net.cpp:141] Setting up inception_4d/relu_1x1
I0403 14:28:30.751391 13305 net.cpp:148] Top shape: 24 112 14 14 (526848)
I0403 14:28:30.751406 13305 net.cpp:156] Memory required for data: 1115397408
I0403 14:28:30.751421 13305 layer_factory.hpp:77] Creating layer inception_4d/3x3_reduce
I0403 14:28:30.751463 13305 net.cpp:91] Creating Layer inception_4d/3x3_reduce
I0403 14:28:30.751482 13305 net.cpp:425] inception_4d/3x3_reduce <- inception_4c/output_inception_4c/output_0_split_1
I0403 14:28:30.751502 13305 net.cpp:399] inception_4d/3x3_reduce -> inception_4d/3x3_reduce
I0403 14:28:30.753065 13305 net.cpp:141] Setting up inception_4d/3x3_reduce
I0403 14:28:30.753094 13305 net.cpp:148] Top shape: 24 144 14 14 (677376)
I0403 14:28:30.753110 13305 net.cpp:156] Memory required for data: 1118106912
I0403 14:28:30.753129 13305 layer_factory.hpp:77] Creating layer inception_4d/relu_3x3_reduce
I0403 14:28:30.753147 13305 net.cpp:91] Creating Layer inception_4d/relu_3x3_reduce
I0403 14:28:30.753162 13305 net.cpp:425] inception_4d/relu_3x3_reduce <- inception_4d/3x3_reduce
I0403 14:28:30.753182 13305 net.cpp:386] inception_4d/relu_3x3_reduce -> inception_4d/3x3_reduce (in-place)
I0403 14:28:30.753479 13305 net.cpp:141] Setting up inception_4d/relu_3x3_reduce
I0403 14:28:30.753505 13305 net.cpp:148] Top shape: 24 144 14 14 (677376)
I0403 14:28:30.753521 13305 net.cpp:156] Memory required for data: 1120816416
I0403 14:28:30.753536 13305 layer_factory.hpp:77] Creating layer inception_4d/3x3
I0403 14:28:30.753559 13305 net.cpp:91] Creating Layer inception_4d/3x3
I0403 14:28:30.753582 13305 net.cpp:425] inception_4d/3x3 <- inception_4d/3x3_reduce
I0403 14:28:30.753605 13305 net.cpp:399] inception_4d/3x3 -> inception_4d/3x3
I0403 14:28:30.758007 13305 net.cpp:141] Setting up inception_4d/3x3
I0403 14:28:30.758038 13305 net.cpp:148] Top shape: 24 288 14 14 (1354752)
I0403 14:28:30.758052 13305 net.cpp:156] Memory required for data: 1126235424
I0403 14:28:30.758071 13305 layer_factory.hpp:77] Creating layer inception_4d/relu_3x3
I0403 14:28:30.758091 13305 net.cpp:91] Creating Layer inception_4d/relu_3x3
I0403 14:28:30.758108 13305 net.cpp:425] inception_4d/relu_3x3 <- inception_4d/3x3
I0403 14:28:30.758126 13305 net.cpp:386] inception_4d/relu_3x3 -> inception_4d/3x3 (in-place)
I0403 14:28:30.758314 13305 net.cpp:141] Setting up inception_4d/relu_3x3
I0403 14:28:30.758342 13305 net.cpp:148] Top shape: 24 288 14 14 (1354752)
I0403 14:28:30.758358 13305 net.cpp:156] Memory required for data: 1131654432
I0403 14:28:30.758373 13305 layer_factory.hpp:77] Creating layer inception_4d/5x5_reduce
I0403 14:28:30.758394 13305 net.cpp:91] Creating Layer inception_4d/5x5_reduce
I0403 14:28:30.758412 13305 net.cpp:425] inception_4d/5x5_reduce <- inception_4c/output_inception_4c/output_0_split_2
I0403 14:28:30.758431 13305 net.cpp:399] inception_4d/5x5_reduce -> inception_4d/5x5_reduce
I0403 14:28:30.759636 13305 net.cpp:141] Setting up inception_4d/5x5_reduce
I0403 14:28:30.759665 13305 net.cpp:148] Top shape: 24 32 14 14 (150528)
I0403 14:28:30.759681 13305 net.cpp:156] Memory required for data: 1132256544
I0403 14:28:30.759699 13305 layer_factory.hpp:77] Creating layer inception_4d/relu_5x5_reduce
I0403 14:28:30.759721 13305 net.cpp:91] Creating Layer inception_4d/relu_5x5_reduce
I0403 14:28:30.759737 13305 net.cpp:425] inception_4d/relu_5x5_reduce <- inception_4d/5x5_reduce
I0403 14:28:30.759755 13305 net.cpp:386] inception_4d/relu_5x5_reduce -> inception_4d/5x5_reduce (in-place)
I0403 14:28:30.759954 13305 net.cpp:141] Setting up inception_4d/relu_5x5_reduce
I0403 14:28:30.759981 13305 net.cpp:148] Top shape: 24 32 14 14 (150528)
I0403 14:28:30.759997 13305 net.cpp:156] Memory required for data: 1132858656
I0403 14:28:30.760012 13305 layer_factory.hpp:77] Creating layer inception_4d/5x5
I0403 14:28:30.760035 13305 net.cpp:91] Creating Layer inception_4d/5x5
I0403 14:28:30.760052 13305 net.cpp:425] inception_4d/5x5 <- inception_4d/5x5_reduce
I0403 14:28:30.760071 13305 net.cpp:399] inception_4d/5x5 -> inception_4d/5x5
I0403 14:28:30.761592 13305 net.cpp:141] Setting up inception_4d/5x5
I0403 14:28:30.761622 13305 net.cpp:148] Top shape: 24 64 14 14 (301056)
I0403 14:28:30.761639 13305 net.cpp:156] Memory required for data: 1134062880
I0403 14:28:30.761658 13305 layer_factory.hpp:77] Creating layer inception_4d/relu_5x5
I0403 14:28:30.761692 13305 net.cpp:91] Creating Layer inception_4d/relu_5x5
I0403 14:28:30.761709 13305 net.cpp:425] inception_4d/relu_5x5 <- inception_4d/5x5
I0403 14:28:30.761730 13305 net.cpp:386] inception_4d/relu_5x5 -> inception_4d/5x5 (in-place)
I0403 14:28:30.762038 13305 net.cpp:141] Setting up inception_4d/relu_5x5
I0403 14:28:30.762068 13305 net.cpp:148] Top shape: 24 64 14 14 (301056)
I0403 14:28:30.762084 13305 net.cpp:156] Memory required for data: 1135267104
I0403 14:28:30.762099 13305 layer_factory.hpp:77] Creating layer inception_4d/pool
I0403 14:28:30.762117 13305 net.cpp:91] Creating Layer inception_4d/pool
I0403 14:28:30.762133 13305 net.cpp:425] inception_4d/pool <- inception_4c/output_inception_4c/output_0_split_3
I0403 14:28:30.762154 13305 net.cpp:399] inception_4d/pool -> inception_4d/pool
I0403 14:28:30.762222 13305 net.cpp:141] Setting up inception_4d/pool
I0403 14:28:30.762245 13305 net.cpp:148] Top shape: 24 512 14 14 (2408448)
I0403 14:28:30.762260 13305 net.cpp:156] Memory required for data: 1144900896
I0403 14:28:30.762275 13305 layer_factory.hpp:77] Creating layer inception_4d/pool_proj
I0403 14:28:30.762300 13305 net.cpp:91] Creating Layer inception_4d/pool_proj
I0403 14:28:30.762316 13305 net.cpp:425] inception_4d/pool_proj <- inception_4d/pool
I0403 14:28:30.762337 13305 net.cpp:399] inception_4d/pool_proj -> inception_4d/pool_proj
I0403 14:28:30.764155 13305 net.cpp:141] Setting up inception_4d/pool_proj
I0403 14:28:30.764186 13305 net.cpp:148] Top shape: 24 64 14 14 (301056)
I0403 14:28:30.764204 13305 net.cpp:156] Memory required for data: 1146105120
I0403 14:28:30.764222 13305 layer_factory.hpp:77] Creating layer inception_4d/relu_pool_proj
I0403 14:28:30.764243 13305 net.cpp:91] Creating Layer inception_4d/relu_pool_proj
I0403 14:28:30.764261 13305 net.cpp:425] inception_4d/relu_pool_proj <- inception_4d/pool_proj
I0403 14:28:30.764277 13305 net.cpp:386] inception_4d/relu_pool_proj -> inception_4d/pool_proj (in-place)
I0403 14:28:30.764469 13305 net.cpp:141] Setting up inception_4d/relu_pool_proj
I0403 14:28:30.764497 13305 net.cpp:148] Top shape: 24 64 14 14 (301056)
I0403 14:28:30.764513 13305 net.cpp:156] Memory required for data: 1147309344
I0403 14:28:30.764528 13305 layer_factory.hpp:77] Creating layer inception_4d/output
I0403 14:28:30.764545 13305 net.cpp:91] Creating Layer inception_4d/output
I0403 14:28:30.764561 13305 net.cpp:425] inception_4d/output <- inception_4d/1x1
I0403 14:28:30.764590 13305 net.cpp:425] inception_4d/output <- inception_4d/3x3
I0403 14:28:30.764610 13305 net.cpp:425] inception_4d/output <- inception_4d/5x5
I0403 14:28:30.764626 13305 net.cpp:425] inception_4d/output <- inception_4d/pool_proj
I0403 14:28:30.764642 13305 net.cpp:399] inception_4d/output -> inception_4d/output
I0403 14:28:30.764693 13305 net.cpp:141] Setting up inception_4d/output
I0403 14:28:30.764716 13305 net.cpp:148] Top shape: 24 528 14 14 (2483712)
I0403 14:28:30.764731 13305 net.cpp:156] Memory required for data: 1157244192
I0403 14:28:30.764745 13305 layer_factory.hpp:77] Creating layer inception_4d/output_inception_4d/output_0_split
I0403 14:28:30.764766 13305 net.cpp:91] Creating Layer inception_4d/output_inception_4d/output_0_split
I0403 14:28:30.764782 13305 net.cpp:425] inception_4d/output_inception_4d/output_0_split <- inception_4d/output
I0403 14:28:30.764801 13305 net.cpp:399] inception_4d/output_inception_4d/output_0_split -> inception_4d/output_inception_4d/output_0_split_0
I0403 14:28:30.764822 13305 net.cpp:399] inception_4d/output_inception_4d/output_0_split -> inception_4d/output_inception_4d/output_0_split_1
I0403 14:28:30.764842 13305 net.cpp:399] inception_4d/output_inception_4d/output_0_split -> inception_4d/output_inception_4d/output_0_split_2
I0403 14:28:30.764864 13305 net.cpp:399] inception_4d/output_inception_4d/output_0_split -> inception_4d/output_inception_4d/output_0_split_3
I0403 14:28:30.764885 13305 net.cpp:399] inception_4d/output_inception_4d/output_0_split -> inception_4d/output_inception_4d/output_0_split_4
I0403 14:28:30.764991 13305 net.cpp:141] Setting up inception_4d/output_inception_4d/output_0_split
I0403 14:28:30.765027 13305 net.cpp:148] Top shape: 24 528 14 14 (2483712)
I0403 14:28:30.765045 13305 net.cpp:148] Top shape: 24 528 14 14 (2483712)
I0403 14:28:30.765060 13305 net.cpp:148] Top shape: 24 528 14 14 (2483712)
I0403 14:28:30.765075 13305 net.cpp:148] Top shape: 24 528 14 14 (2483712)
I0403 14:28:30.765091 13305 net.cpp:148] Top shape: 24 528 14 14 (2483712)
I0403 14:28:30.765105 13305 net.cpp:156] Memory required for data: 1206918432
I0403 14:28:30.765120 13305 layer_factory.hpp:77] Creating layer loss2/ave_pool
I0403 14:28:30.765139 13305 net.cpp:91] Creating Layer loss2/ave_pool
I0403 14:28:30.765156 13305 net.cpp:425] loss2/ave_pool <- inception_4d/output_inception_4d/output_0_split_0
I0403 14:28:30.765174 13305 net.cpp:399] loss2/ave_pool -> loss2/ave_pool
I0403 14:28:30.765496 13305 net.cpp:141] Setting up loss2/ave_pool
I0403 14:28:30.765523 13305 net.cpp:148] Top shape: 24 528 4 4 (202752)
I0403 14:28:30.765539 13305 net.cpp:156] Memory required for data: 1207729440
I0403 14:28:30.765554 13305 layer_factory.hpp:77] Creating layer loss2/conv
I0403 14:28:30.765580 13305 net.cpp:91] Creating Layer loss2/conv
I0403 14:28:30.765600 13305 net.cpp:425] loss2/conv <- loss2/ave_pool
I0403 14:28:30.765621 13305 net.cpp:399] loss2/conv -> loss2/conv
I0403 14:28:30.767575 13305 net.cpp:141] Setting up loss2/conv
I0403 14:28:30.767606 13305 net.cpp:148] Top shape: 24 128 4 4 (49152)
I0403 14:28:30.767622 13305 net.cpp:156] Memory required for data: 1207926048
I0403 14:28:30.767642 13305 layer_factory.hpp:77] Creating layer loss2/relu_conv
I0403 14:28:30.767659 13305 net.cpp:91] Creating Layer loss2/relu_conv
I0403 14:28:30.767675 13305 net.cpp:425] loss2/relu_conv <- loss2/conv
I0403 14:28:30.767695 13305 net.cpp:386] loss2/relu_conv -> loss2/conv (in-place)
I0403 14:28:30.767987 13305 net.cpp:141] Setting up loss2/relu_conv
I0403 14:28:30.768016 13305 net.cpp:148] Top shape: 24 128 4 4 (49152)
I0403 14:28:30.768031 13305 net.cpp:156] Memory required for data: 1208122656
I0403 14:28:30.768046 13305 layer_factory.hpp:77] Creating layer loss2/fc
I0403 14:28:30.768065 13305 net.cpp:91] Creating Layer loss2/fc
I0403 14:28:30.768081 13305 net.cpp:425] loss2/fc <- loss2/conv
I0403 14:28:30.768103 13305 net.cpp:399] loss2/fc -> loss2/fc
I0403 14:28:30.785820 13305 net.cpp:141] Setting up loss2/fc
I0403 14:28:30.785853 13305 net.cpp:148] Top shape: 24 1024 (24576)
I0403 14:28:30.785871 13305 net.cpp:156] Memory required for data: 1208220960
I0403 14:28:30.785888 13305 layer_factory.hpp:77] Creating layer loss2/relu_fc
I0403 14:28:30.785905 13305 net.cpp:91] Creating Layer loss2/relu_fc
I0403 14:28:30.785922 13305 net.cpp:425] loss2/relu_fc <- loss2/fc
I0403 14:28:30.785938 13305 net.cpp:386] loss2/relu_fc -> loss2/fc (in-place)
I0403 14:28:30.786240 13305 net.cpp:141] Setting up loss2/relu_fc
I0403 14:28:30.786267 13305 net.cpp:148] Top shape: 24 1024 (24576)
I0403 14:28:30.786284 13305 net.cpp:156] Memory required for data: 1208319264
I0403 14:28:30.786299 13305 layer_factory.hpp:77] Creating layer loss2/drop_fc
I0403 14:28:30.786317 13305 net.cpp:91] Creating Layer loss2/drop_fc
I0403 14:28:30.786334 13305 net.cpp:425] loss2/drop_fc <- loss2/fc
I0403 14:28:30.786350 13305 net.cpp:386] loss2/drop_fc -> loss2/fc (in-place)
I0403 14:28:30.786401 13305 net.cpp:141] Setting up loss2/drop_fc
I0403 14:28:30.786432 13305 net.cpp:148] Top shape: 24 1024 (24576)
I0403 14:28:30.786445 13305 net.cpp:156] Memory required for data: 1208417568
I0403 14:28:30.786459 13305 layer_factory.hpp:77] Creating layer loss2/classifier_plantvillage
I0403 14:28:30.786480 13305 net.cpp:91] Creating Layer loss2/classifier_plantvillage
I0403 14:28:30.786497 13305 net.cpp:425] loss2/classifier_plantvillage <- loss2/fc
I0403 14:28:30.786515 13305 net.cpp:399] loss2/classifier_plantvillage -> loss2/classifier_plantvillage
I0403 14:28:30.786922 13305 net.cpp:141] Setting up loss2/classifier_plantvillage
I0403 14:28:30.786947 13305 net.cpp:148] Top shape: 24 38 (912)
I0403 14:28:30.786962 13305 net.cpp:156] Memory required for data: 1208421216
I0403 14:28:30.787009 13305 layer_factory.hpp:77] Creating layer loss2/classifier_plantvillage_loss2/classifier_plantvillage_0_split
I0403 14:28:30.787026 13305 net.cpp:91] Creating Layer loss2/classifier_plantvillage_loss2/classifier_plantvillage_0_split
I0403 14:28:30.787042 13305 net.cpp:425] loss2/classifier_plantvillage_loss2/classifier_plantvillage_0_split <- loss2/classifier_plantvillage
I0403 14:28:30.787067 13305 net.cpp:399] loss2/classifier_plantvillage_loss2/classifier_plantvillage_0_split -> loss2/classifier_plantvillage_loss2/classifier_plantvillage_0_split_0
I0403 14:28:30.787088 13305 net.cpp:399] loss2/classifier_plantvillage_loss2/classifier_plantvillage_0_split -> loss2/classifier_plantvillage_loss2/classifier_plantvillage_0_split_1
I0403 14:28:30.787107 13305 net.cpp:399] loss2/classifier_plantvillage_loss2/classifier_plantvillage_0_split -> loss2/classifier_plantvillage_loss2/classifier_plantvillage_0_split_2
I0403 14:28:30.787196 13305 net.cpp:141] Setting up loss2/classifier_plantvillage_loss2/classifier_plantvillage_0_split
I0403 14:28:30.787230 13305 net.cpp:148] Top shape: 24 38 (912)
I0403 14:28:30.787252 13305 net.cpp:148] Top shape: 24 38 (912)
I0403 14:28:30.787272 13305 net.cpp:148] Top shape: 24 38 (912)
I0403 14:28:30.787286 13305 net.cpp:156] Memory required for data: 1208432160
I0403 14:28:30.787300 13305 layer_factory.hpp:77] Creating layer inception_4e/1x1
I0403 14:28:30.787322 13305 net.cpp:91] Creating Layer inception_4e/1x1
I0403 14:28:30.787348 13305 net.cpp:425] inception_4e/1x1 <- inception_4d/output_inception_4d/output_0_split_1
I0403 14:28:30.787374 13305 net.cpp:399] inception_4e/1x1 -> inception_4e/1x1
I0403 14:28:30.789291 13305 net.cpp:141] Setting up inception_4e/1x1
I0403 14:28:30.789324 13305 net.cpp:148] Top shape: 24 256 14 14 (1204224)
I0403 14:28:30.789340 13305 net.cpp:156] Memory required for data: 1213249056
I0403 14:28:30.789358 13305 layer_factory.hpp:77] Creating layer inception_4e/relu_1x1
I0403 14:28:30.789376 13305 net.cpp:91] Creating Layer inception_4e/relu_1x1
I0403 14:28:30.789393 13305 net.cpp:425] inception_4e/relu_1x1 <- inception_4e/1x1
I0403 14:28:30.789412 13305 net.cpp:386] inception_4e/relu_1x1 -> inception_4e/1x1 (in-place)
I0403 14:28:30.789728 13305 net.cpp:141] Setting up inception_4e/relu_1x1
I0403 14:28:30.789757 13305 net.cpp:148] Top shape: 24 256 14 14 (1204224)
I0403 14:28:30.789773 13305 net.cpp:156] Memory required for data: 1218065952
I0403 14:28:30.789788 13305 layer_factory.hpp:77] Creating layer inception_4e/3x3_reduce
I0403 14:28:30.789811 13305 net.cpp:91] Creating Layer inception_4e/3x3_reduce
I0403 14:28:30.789829 13305 net.cpp:425] inception_4e/3x3_reduce <- inception_4d/output_inception_4d/output_0_split_2
I0403 14:28:30.789851 13305 net.cpp:399] inception_4e/3x3_reduce -> inception_4e/3x3_reduce
I0403 14:28:30.792038 13305 net.cpp:141] Setting up inception_4e/3x3_reduce
I0403 14:28:30.792071 13305 net.cpp:148] Top shape: 24 160 14 14 (752640)
I0403 14:28:30.792088 13305 net.cpp:156] Memory required for data: 1221076512
I0403 14:28:30.792107 13305 layer_factory.hpp:77] Creating layer inception_4e/relu_3x3_reduce
I0403 14:28:30.792126 13305 net.cpp:91] Creating Layer inception_4e/relu_3x3_reduce
I0403 14:28:30.792142 13305 net.cpp:425] inception_4e/relu_3x3_reduce <- inception_4e/3x3_reduce
I0403 14:28:30.792160 13305 net.cpp:386] inception_4e/relu_3x3_reduce -> inception_4e/3x3_reduce (in-place)
I0403 14:28:30.792356 13305 net.cpp:141] Setting up inception_4e/relu_3x3_reduce
I0403 14:28:30.792381 13305 net.cpp:148] Top shape: 24 160 14 14 (752640)
I0403 14:28:30.792397 13305 net.cpp:156] Memory required for data: 1224087072
I0403 14:28:30.792412 13305 layer_factory.hpp:77] Creating layer inception_4e/3x3
I0403 14:28:30.792433 13305 net.cpp:91] Creating Layer inception_4e/3x3
I0403 14:28:30.792450 13305 net.cpp:425] inception_4e/3x3 <- inception_4e/3x3_reduce
I0403 14:28:30.792471 13305 net.cpp:399] inception_4e/3x3 -> inception_4e/3x3
I0403 14:28:30.797637 13305 net.cpp:141] Setting up inception_4e/3x3
I0403 14:28:30.797683 13305 net.cpp:148] Top shape: 24 320 14 14 (1505280)
I0403 14:28:30.797699 13305 net.cpp:156] Memory required for data: 1230108192
I0403 14:28:30.797719 13305 layer_factory.hpp:77] Creating layer inception_4e/relu_3x3
I0403 14:28:30.797739 13305 net.cpp:91] Creating Layer inception_4e/relu_3x3
I0403 14:28:30.797755 13305 net.cpp:425] inception_4e/relu_3x3 <- inception_4e/3x3
I0403 14:28:30.797773 13305 net.cpp:386] inception_4e/relu_3x3 -> inception_4e/3x3 (in-place)
I0403 14:28:30.798081 13305 net.cpp:141] Setting up inception_4e/relu_3x3
I0403 14:28:30.798110 13305 net.cpp:148] Top shape: 24 320 14 14 (1505280)
I0403 14:28:30.798125 13305 net.cpp:156] Memory required for data: 1236129312
I0403 14:28:30.798141 13305 layer_factory.hpp:77] Creating layer inception_4e/5x5_reduce
I0403 14:28:30.798163 13305 net.cpp:91] Creating Layer inception_4e/5x5_reduce
I0403 14:28:30.798180 13305 net.cpp:425] inception_4e/5x5_reduce <- inception_4d/output_inception_4d/output_0_split_3
I0403 14:28:30.798202 13305 net.cpp:399] inception_4e/5x5_reduce -> inception_4e/5x5_reduce
I0403 14:28:30.799314 13305 net.cpp:141] Setting up inception_4e/5x5_reduce
I0403 14:28:30.799343 13305 net.cpp:148] Top shape: 24 32 14 14 (150528)
I0403 14:28:30.799360 13305 net.cpp:156] Memory required for data: 1236731424
I0403 14:28:30.799379 13305 layer_factory.hpp:77] Creating layer inception_4e/relu_5x5_reduce
I0403 14:28:30.799397 13305 net.cpp:91] Creating Layer inception_4e/relu_5x5_reduce
I0403 14:28:30.799413 13305 net.cpp:425] inception_4e/relu_5x5_reduce <- inception_4e/5x5_reduce
I0403 14:28:30.799434 13305 net.cpp:386] inception_4e/relu_5x5_reduce -> inception_4e/5x5_reduce (in-place)
I0403 14:28:30.799742 13305 net.cpp:141] Setting up inception_4e/relu_5x5_reduce
I0403 14:28:30.799772 13305 net.cpp:148] Top shape: 24 32 14 14 (150528)
I0403 14:28:30.799788 13305 net.cpp:156] Memory required for data: 1237333536
I0403 14:28:30.799803 13305 layer_factory.hpp:77] Creating layer inception_4e/5x5
I0403 14:28:30.799844 13305 net.cpp:91] Creating Layer inception_4e/5x5
I0403 14:28:30.799865 13305 net.cpp:425] inception_4e/5x5 <- inception_4e/5x5_reduce
I0403 14:28:30.799885 13305 net.cpp:399] inception_4e/5x5 -> inception_4e/5x5
I0403 14:28:30.801800 13305 net.cpp:141] Setting up inception_4e/5x5
I0403 14:28:30.801827 13305 net.cpp:148] Top shape: 24 128 14 14 (602112)
I0403 14:28:30.801844 13305 net.cpp:156] Memory required for data: 1239741984
I0403 14:28:30.801864 13305 layer_factory.hpp:77] Creating layer inception_4e/relu_5x5
I0403 14:28:30.801884 13305 net.cpp:91] Creating Layer inception_4e/relu_5x5
I0403 14:28:30.801903 13305 net.cpp:425] inception_4e/relu_5x5 <- inception_4e/5x5
I0403 14:28:30.801920 13305 net.cpp:386] inception_4e/relu_5x5 -> inception_4e/5x5 (in-place)
I0403 14:28:30.802124 13305 net.cpp:141] Setting up inception_4e/relu_5x5
I0403 14:28:30.802150 13305 net.cpp:148] Top shape: 24 128 14 14 (602112)
I0403 14:28:30.802165 13305 net.cpp:156] Memory required for data: 1242150432
I0403 14:28:30.802181 13305 layer_factory.hpp:77] Creating layer inception_4e/pool
I0403 14:28:30.802201 13305 net.cpp:91] Creating Layer inception_4e/pool
I0403 14:28:30.802217 13305 net.cpp:425] inception_4e/pool <- inception_4d/output_inception_4d/output_0_split_4
I0403 14:28:30.802237 13305 net.cpp:399] inception_4e/pool -> inception_4e/pool
I0403 14:28:30.802309 13305 net.cpp:141] Setting up inception_4e/pool
I0403 14:28:30.802333 13305 net.cpp:148] Top shape: 24 528 14 14 (2483712)
I0403 14:28:30.802348 13305 net.cpp:156] Memory required for data: 1252085280
I0403 14:28:30.802363 13305 layer_factory.hpp:77] Creating layer inception_4e/pool_proj
I0403 14:28:30.802387 13305 net.cpp:91] Creating Layer inception_4e/pool_proj
I0403 14:28:30.802407 13305 net.cpp:425] inception_4e/pool_proj <- inception_4e/pool
I0403 14:28:30.802426 13305 net.cpp:399] inception_4e/pool_proj -> inception_4e/pool_proj
I0403 14:28:30.804019 13305 net.cpp:141] Setting up inception_4e/pool_proj
I0403 14:28:30.804049 13305 net.cpp:148] Top shape: 24 128 14 14 (602112)
I0403 14:28:30.804080 13305 net.cpp:156] Memory required for data: 1254493728
I0403 14:28:30.804101 13305 layer_factory.hpp:77] Creating layer inception_4e/relu_pool_proj
I0403 14:28:30.804123 13305 net.cpp:91] Creating Layer inception_4e/relu_pool_proj
I0403 14:28:30.804141 13305 net.cpp:425] inception_4e/relu_pool_proj <- inception_4e/pool_proj
I0403 14:28:30.804159 13305 net.cpp:386] inception_4e/relu_pool_proj -> inception_4e/pool_proj (in-place)
I0403 14:28:30.804473 13305 net.cpp:141] Setting up inception_4e/relu_pool_proj
I0403 14:28:30.804502 13305 net.cpp:148] Top shape: 24 128 14 14 (602112)
I0403 14:28:30.804517 13305 net.cpp:156] Memory required for data: 1256902176
I0403 14:28:30.804533 13305 layer_factory.hpp:77] Creating layer inception_4e/output
I0403 14:28:30.804556 13305 net.cpp:91] Creating Layer inception_4e/output
I0403 14:28:30.804585 13305 net.cpp:425] inception_4e/output <- inception_4e/1x1
I0403 14:28:30.804605 13305 net.cpp:425] inception_4e/output <- inception_4e/3x3
I0403 14:28:30.804622 13305 net.cpp:425] inception_4e/output <- inception_4e/5x5
I0403 14:28:30.804639 13305 net.cpp:425] inception_4e/output <- inception_4e/pool_proj
I0403 14:28:30.804658 13305 net.cpp:399] inception_4e/output -> inception_4e/output
I0403 14:28:30.804713 13305 net.cpp:141] Setting up inception_4e/output
I0403 14:28:30.804738 13305 net.cpp:148] Top shape: 24 832 14 14 (3913728)
I0403 14:28:30.804754 13305 net.cpp:156] Memory required for data: 1272557088
I0403 14:28:30.804769 13305 layer_factory.hpp:77] Creating layer pool4/3x3_s2
I0403 14:28:30.804786 13305 net.cpp:91] Creating Layer pool4/3x3_s2
I0403 14:28:30.804803 13305 net.cpp:425] pool4/3x3_s2 <- inception_4e/output
I0403 14:28:30.804826 13305 net.cpp:399] pool4/3x3_s2 -> pool4/3x3_s2
I0403 14:28:30.804896 13305 net.cpp:141] Setting up pool4/3x3_s2
I0403 14:28:30.804921 13305 net.cpp:148] Top shape: 24 832 7 7 (978432)
I0403 14:28:30.804937 13305 net.cpp:156] Memory required for data: 1276470816
I0403 14:28:30.804952 13305 layer_factory.hpp:77] Creating layer pool4/3x3_s2_pool4/3x3_s2_0_split
I0403 14:28:30.804973 13305 net.cpp:91] Creating Layer pool4/3x3_s2_pool4/3x3_s2_0_split
I0403 14:28:30.804991 13305 net.cpp:425] pool4/3x3_s2_pool4/3x3_s2_0_split <- pool4/3x3_s2
I0403 14:28:30.805011 13305 net.cpp:399] pool4/3x3_s2_pool4/3x3_s2_0_split -> pool4/3x3_s2_pool4/3x3_s2_0_split_0
I0403 14:28:30.805033 13305 net.cpp:399] pool4/3x3_s2_pool4/3x3_s2_0_split -> pool4/3x3_s2_pool4/3x3_s2_0_split_1
I0403 14:28:30.805054 13305 net.cpp:399] pool4/3x3_s2_pool4/3x3_s2_0_split -> pool4/3x3_s2_pool4/3x3_s2_0_split_2
I0403 14:28:30.805074 13305 net.cpp:399] pool4/3x3_s2_pool4/3x3_s2_0_split -> pool4/3x3_s2_pool4/3x3_s2_0_split_3
I0403 14:28:30.805169 13305 net.cpp:141] Setting up pool4/3x3_s2_pool4/3x3_s2_0_split
I0403 14:28:30.805194 13305 net.cpp:148] Top shape: 24 832 7 7 (978432)
I0403 14:28:30.805214 13305 net.cpp:148] Top shape: 24 832 7 7 (978432)
I0403 14:28:30.805232 13305 net.cpp:148] Top shape: 24 832 7 7 (978432)
I0403 14:28:30.805248 13305 net.cpp:148] Top shape: 24 832 7 7 (978432)
I0403 14:28:30.805261 13305 net.cpp:156] Memory required for data: 1292125728
I0403 14:28:30.805276 13305 layer_factory.hpp:77] Creating layer inception_5a/1x1
I0403 14:28:30.805299 13305 net.cpp:91] Creating Layer inception_5a/1x1
I0403 14:28:30.805316 13305 net.cpp:425] inception_5a/1x1 <- pool4/3x3_s2_pool4/3x3_s2_0_split_0
I0403 14:28:30.805338 13305 net.cpp:399] inception_5a/1x1 -> inception_5a/1x1
I0403 14:28:30.808382 13305 net.cpp:141] Setting up inception_5a/1x1
I0403 14:28:30.808415 13305 net.cpp:148] Top shape: 24 256 7 7 (301056)
I0403 14:28:30.808432 13305 net.cpp:156] Memory required for data: 1293329952
I0403 14:28:30.808451 13305 layer_factory.hpp:77] Creating layer inception_5a/relu_1x1
I0403 14:28:30.808471 13305 net.cpp:91] Creating Layer inception_5a/relu_1x1
I0403 14:28:30.808487 13305 net.cpp:425] inception_5a/relu_1x1 <- inception_5a/1x1
I0403 14:28:30.808506 13305 net.cpp:386] inception_5a/relu_1x1 -> inception_5a/1x1 (in-place)
I0403 14:28:30.808842 13305 net.cpp:141] Setting up inception_5a/relu_1x1
I0403 14:28:30.808872 13305 net.cpp:148] Top shape: 24 256 7 7 (301056)
I0403 14:28:30.808889 13305 net.cpp:156] Memory required for data: 1294534176
I0403 14:28:30.808905 13305 layer_factory.hpp:77] Creating layer inception_5a/3x3_reduce
I0403 14:28:30.808928 13305 net.cpp:91] Creating Layer inception_5a/3x3_reduce
I0403 14:28:30.808948 13305 net.cpp:425] inception_5a/3x3_reduce <- pool4/3x3_s2_pool4/3x3_s2_0_split_1
I0403 14:28:30.808967 13305 net.cpp:399] inception_5a/3x3_reduce -> inception_5a/3x3_reduce
I0403 14:28:30.811594 13305 net.cpp:141] Setting up inception_5a/3x3_reduce
I0403 14:28:30.811625 13305 net.cpp:148] Top shape: 24 160 7 7 (188160)
I0403 14:28:30.811642 13305 net.cpp:156] Memory required for data: 1295286816
I0403 14:28:30.811661 13305 layer_factory.hpp:77] Creating layer inception_5a/relu_3x3_reduce
I0403 14:28:30.811683 13305 net.cpp:91] Creating Layer inception_5a/relu_3x3_reduce
I0403 14:28:30.811702 13305 net.cpp:425] inception_5a/relu_3x3_reduce <- inception_5a/3x3_reduce
I0403 14:28:30.811719 13305 net.cpp:386] inception_5a/relu_3x3_reduce -> inception_5a/3x3_reduce (in-place)
I0403 14:28:30.811918 13305 net.cpp:141] Setting up inception_5a/relu_3x3_reduce
I0403 14:28:30.811947 13305 net.cpp:148] Top shape: 24 160 7 7 (188160)
I0403 14:28:30.811964 13305 net.cpp:156] Memory required for data: 1296039456
I0403 14:28:30.811980 13305 layer_factory.hpp:77] Creating layer inception_5a/3x3
I0403 14:28:30.812000 13305 net.cpp:91] Creating Layer inception_5a/3x3
I0403 14:28:30.812018 13305 net.cpp:425] inception_5a/3x3 <- inception_5a/3x3_reduce
I0403 14:28:30.812041 13305 net.cpp:399] inception_5a/3x3 -> inception_5a/3x3
I0403 14:28:30.817416 13305 net.cpp:141] Setting up inception_5a/3x3
I0403 14:28:30.817448 13305 net.cpp:148] Top shape: 24 320 7 7 (376320)
I0403 14:28:30.817464 13305 net.cpp:156] Memory required for data: 1297544736
I0403 14:28:30.817484 13305 layer_factory.hpp:77] Creating layer inception_5a/relu_3x3
I0403 14:28:30.817507 13305 net.cpp:91] Creating Layer inception_5a/relu_3x3
I0403 14:28:30.817523 13305 net.cpp:425] inception_5a/relu_3x3 <- inception_5a/3x3
I0403 14:28:30.817543 13305 net.cpp:386] inception_5a/relu_3x3 -> inception_5a/3x3 (in-place)
I0403 14:28:30.817876 13305 net.cpp:141] Setting up inception_5a/relu_3x3
I0403 14:28:30.817904 13305 net.cpp:148] Top shape: 24 320 7 7 (376320)
I0403 14:28:30.817921 13305 net.cpp:156] Memory required for data: 1299050016
I0403 14:28:30.817936 13305 layer_factory.hpp:77] Creating layer inception_5a/5x5_reduce
I0403 14:28:30.817962 13305 net.cpp:91] Creating Layer inception_5a/5x5_reduce
I0403 14:28:30.817981 13305 net.cpp:425] inception_5a/5x5_reduce <- pool4/3x3_s2_pool4/3x3_s2_0_split_2
I0403 14:28:30.818002 13305 net.cpp:399] inception_5a/5x5_reduce -> inception_5a/5x5_reduce
I0403 14:28:30.819255 13305 net.cpp:141] Setting up inception_5a/5x5_reduce
I0403 14:28:30.819288 13305 net.cpp:148] Top shape: 24 32 7 7 (37632)
I0403 14:28:30.819305 13305 net.cpp:156] Memory required for data: 1299200544
I0403 14:28:30.819325 13305 layer_factory.hpp:77] Creating layer inception_5a/relu_5x5_reduce
I0403 14:28:30.819344 13305 net.cpp:91] Creating Layer inception_5a/relu_5x5_reduce
I0403 14:28:30.819361 13305 net.cpp:425] inception_5a/relu_5x5_reduce <- inception_5a/5x5_reduce
I0403 14:28:30.819381 13305 net.cpp:386] inception_5a/relu_5x5_reduce -> inception_5a/5x5_reduce (in-place)
I0403 14:28:30.819713 13305 net.cpp:141] Setting up inception_5a/relu_5x5_reduce
I0403 14:28:30.819743 13305 net.cpp:148] Top shape: 24 32 7 7 (37632)
I0403 14:28:30.819759 13305 net.cpp:156] Memory required for data: 1299351072
I0403 14:28:30.819775 13305 layer_factory.hpp:77] Creating layer inception_5a/5x5
I0403 14:28:30.819798 13305 net.cpp:91] Creating Layer inception_5a/5x5
I0403 14:28:30.819818 13305 net.cpp:425] inception_5a/5x5 <- inception_5a/5x5_reduce
I0403 14:28:30.819840 13305 net.cpp:399] inception_5a/5x5 -> inception_5a/5x5
I0403 14:28:30.821692 13305 net.cpp:141] Setting up inception_5a/5x5
I0403 14:28:30.821735 13305 net.cpp:148] Top shape: 24 128 7 7 (150528)
I0403 14:28:30.821753 13305 net.cpp:156] Memory required for data: 1299953184
I0403 14:28:30.821773 13305 layer_factory.hpp:77] Creating layer inception_5a/relu_5x5
I0403 14:28:30.821794 13305 net.cpp:91] Creating Layer inception_5a/relu_5x5
I0403 14:28:30.821812 13305 net.cpp:425] inception_5a/relu_5x5 <- inception_5a/5x5
I0403 14:28:30.821831 13305 net.cpp:386] inception_5a/relu_5x5 -> inception_5a/5x5 (in-place)
I0403 14:28:30.822036 13305 net.cpp:141] Setting up inception_5a/relu_5x5
I0403 14:28:30.822062 13305 net.cpp:148] Top shape: 24 128 7 7 (150528)
I0403 14:28:30.822077 13305 net.cpp:156] Memory required for data: 1300555296
I0403 14:28:30.822093 13305 layer_factory.hpp:77] Creating layer inception_5a/pool
I0403 14:28:30.822110 13305 net.cpp:91] Creating Layer inception_5a/pool
I0403 14:28:30.822127 13305 net.cpp:425] inception_5a/pool <- pool4/3x3_s2_pool4/3x3_s2_0_split_3
I0403 14:28:30.822149 13305 net.cpp:399] inception_5a/pool -> inception_5a/pool
I0403 14:28:30.822223 13305 net.cpp:141] Setting up inception_5a/pool
I0403 14:28:30.822248 13305 net.cpp:148] Top shape: 24 832 7 7 (978432)
I0403 14:28:30.822263 13305 net.cpp:156] Memory required for data: 1304469024
I0403 14:28:30.822278 13305 layer_factory.hpp:77] Creating layer inception_5a/pool_proj
I0403 14:28:30.822304 13305 net.cpp:91] Creating Layer inception_5a/pool_proj
I0403 14:28:30.822324 13305 net.cpp:425] inception_5a/pool_proj <- inception_5a/pool
I0403 14:28:30.822343 13305 net.cpp:399] inception_5a/pool_proj -> inception_5a/pool_proj
I0403 14:28:30.824782 13305 net.cpp:141] Setting up inception_5a/pool_proj
I0403 14:28:30.824813 13305 net.cpp:148] Top shape: 24 128 7 7 (150528)
I0403 14:28:30.824829 13305 net.cpp:156] Memory required for data: 1305071136
I0403 14:28:30.824848 13305 layer_factory.hpp:77] Creating layer inception_5a/relu_pool_proj
I0403 14:28:30.824869 13305 net.cpp:91] Creating Layer inception_5a/relu_pool_proj
I0403 14:28:30.824887 13305 net.cpp:425] inception_5a/relu_pool_proj <- inception_5a/pool_proj
I0403 14:28:30.824905 13305 net.cpp:386] inception_5a/relu_pool_proj -> inception_5a/pool_proj (in-place)
I0403 14:28:30.825213 13305 net.cpp:141] Setting up inception_5a/relu_pool_proj
I0403 14:28:30.825240 13305 net.cpp:148] Top shape: 24 128 7 7 (150528)
I0403 14:28:30.825256 13305 net.cpp:156] Memory required for data: 1305673248
I0403 14:28:30.825273 13305 layer_factory.hpp:77] Creating layer inception_5a/output
I0403 14:28:30.825294 13305 net.cpp:91] Creating Layer inception_5a/output
I0403 14:28:30.825310 13305 net.cpp:425] inception_5a/output <- inception_5a/1x1
I0403 14:28:30.825328 13305 net.cpp:425] inception_5a/output <- inception_5a/3x3
I0403 14:28:30.825345 13305 net.cpp:425] inception_5a/output <- inception_5a/5x5
I0403 14:28:30.825361 13305 net.cpp:425] inception_5a/output <- inception_5a/pool_proj
I0403 14:28:30.825378 13305 net.cpp:399] inception_5a/output -> inception_5a/output
I0403 14:28:30.825431 13305 net.cpp:141] Setting up inception_5a/output
I0403 14:28:30.825455 13305 net.cpp:148] Top shape: 24 832 7 7 (978432)
I0403 14:28:30.825470 13305 net.cpp:156] Memory required for data: 1309586976
I0403 14:28:30.825485 13305 layer_factory.hpp:77] Creating layer inception_5a/output_inception_5a/output_0_split
I0403 14:28:30.825503 13305 net.cpp:91] Creating Layer inception_5a/output_inception_5a/output_0_split
I0403 14:28:30.825518 13305 net.cpp:425] inception_5a/output_inception_5a/output_0_split <- inception_5a/output
I0403 14:28:30.825539 13305 net.cpp:399] inception_5a/output_inception_5a/output_0_split -> inception_5a/output_inception_5a/output_0_split_0
I0403 14:28:30.825561 13305 net.cpp:399] inception_5a/output_inception_5a/output_0_split -> inception_5a/output_inception_5a/output_0_split_1
I0403 14:28:30.825587 13305 net.cpp:399] inception_5a/output_inception_5a/output_0_split -> inception_5a/output_inception_5a/output_0_split_2
I0403 14:28:30.825608 13305 net.cpp:399] inception_5a/output_inception_5a/output_0_split -> inception_5a/output_inception_5a/output_0_split_3
I0403 14:28:30.825722 13305 net.cpp:141] Setting up inception_5a/output_inception_5a/output_0_split
I0403 14:28:30.825748 13305 net.cpp:148] Top shape: 24 832 7 7 (978432)
I0403 14:28:30.825765 13305 net.cpp:148] Top shape: 24 832 7 7 (978432)
I0403 14:28:30.825780 13305 net.cpp:148] Top shape: 24 832 7 7 (978432)
I0403 14:28:30.825796 13305 net.cpp:148] Top shape: 24 832 7 7 (978432)
I0403 14:28:30.825810 13305 net.cpp:156] Memory required for data: 1325241888
I0403 14:28:30.825825 13305 layer_factory.hpp:77] Creating layer inception_5b/1x1
I0403 14:28:30.825848 13305 net.cpp:91] Creating Layer inception_5b/1x1
I0403 14:28:30.825866 13305 net.cpp:425] inception_5b/1x1 <- inception_5a/output_inception_5a/output_0_split_0
I0403 14:28:30.825888 13305 net.cpp:399] inception_5b/1x1 -> inception_5b/1x1
I0403 14:28:30.829753 13305 net.cpp:141] Setting up inception_5b/1x1
I0403 14:28:30.829783 13305 net.cpp:148] Top shape: 24 384 7 7 (451584)
I0403 14:28:30.829799 13305 net.cpp:156] Memory required for data: 1327048224
I0403 14:28:30.829818 13305 layer_factory.hpp:77] Creating layer inception_5b/relu_1x1
I0403 14:28:30.829838 13305 net.cpp:91] Creating Layer inception_5b/relu_1x1
I0403 14:28:30.829856 13305 net.cpp:425] inception_5b/relu_1x1 <- inception_5b/1x1
I0403 14:28:30.829874 13305 net.cpp:386] inception_5b/relu_1x1 -> inception_5b/1x1 (in-place)
I0403 14:28:30.830181 13305 net.cpp:141] Setting up inception_5b/relu_1x1
I0403 14:28:30.830207 13305 net.cpp:148] Top shape: 24 384 7 7 (451584)
I0403 14:28:30.830224 13305 net.cpp:156] Memory required for data: 1328854560
I0403 14:28:30.830238 13305 layer_factory.hpp:77] Creating layer inception_5b/3x3_reduce
I0403 14:28:30.830260 13305 net.cpp:91] Creating Layer inception_5b/3x3_reduce
I0403 14:28:30.830278 13305 net.cpp:425] inception_5b/3x3_reduce <- inception_5a/output_inception_5a/output_0_split_1
I0403 14:28:30.830302 13305 net.cpp:399] inception_5b/3x3_reduce -> inception_5b/3x3_reduce
I0403 14:28:30.832995 13305 net.cpp:141] Setting up inception_5b/3x3_reduce
I0403 14:28:30.833025 13305 net.cpp:148] Top shape: 24 192 7 7 (225792)
I0403 14:28:30.833040 13305 net.cpp:156] Memory required for data: 1329757728
I0403 14:28:30.833058 13305 layer_factory.hpp:77] Creating layer inception_5b/relu_3x3_reduce
I0403 14:28:30.833078 13305 net.cpp:91] Creating Layer inception_5b/relu_3x3_reduce
I0403 14:28:30.833096 13305 net.cpp:425] inception_5b/relu_3x3_reduce <- inception_5b/3x3_reduce
I0403 14:28:30.833113 13305 net.cpp:386] inception_5b/relu_3x3_reduce -> inception_5b/3x3_reduce (in-place)
I0403 14:28:30.833307 13305 net.cpp:141] Setting up inception_5b/relu_3x3_reduce
I0403 14:28:30.833334 13305 net.cpp:148] Top shape: 24 192 7 7 (225792)
I0403 14:28:30.833349 13305 net.cpp:156] Memory required for data: 1330660896
I0403 14:28:30.833364 13305 layer_factory.hpp:77] Creating layer inception_5b/3x3
I0403 14:28:30.833385 13305 net.cpp:91] Creating Layer inception_5b/3x3
I0403 14:28:30.833402 13305 net.cpp:425] inception_5b/3x3 <- inception_5b/3x3_reduce
I0403 14:28:30.833420 13305 net.cpp:399] inception_5b/3x3 -> inception_5b/3x3
I0403 14:28:30.840159 13305 net.cpp:141] Setting up inception_5b/3x3
I0403 14:28:30.840189 13305 net.cpp:148] Top shape: 24 384 7 7 (451584)
I0403 14:28:30.840204 13305 net.cpp:156] Memory required for data: 1332467232
I0403 14:28:30.840222 13305 layer_factory.hpp:77] Creating layer inception_5b/relu_3x3
I0403 14:28:30.840242 13305 net.cpp:91] Creating Layer inception_5b/relu_3x3
I0403 14:28:30.840260 13305 net.cpp:425] inception_5b/relu_3x3 <- inception_5b/3x3
I0403 14:28:30.840277 13305 net.cpp:386] inception_5b/relu_3x3 -> inception_5b/3x3 (in-place)
I0403 14:28:30.840595 13305 net.cpp:141] Setting up inception_5b/relu_3x3
I0403 14:28:30.840622 13305 net.cpp:148] Top shape: 24 384 7 7 (451584)
I0403 14:28:30.840638 13305 net.cpp:156] Memory required for data: 1334273568
I0403 14:28:30.840653 13305 layer_factory.hpp:77] Creating layer inception_5b/5x5_reduce
I0403 14:28:30.840692 13305 net.cpp:91] Creating Layer inception_5b/5x5_reduce
I0403 14:28:30.840710 13305 net.cpp:425] inception_5b/5x5_reduce <- inception_5a/output_inception_5a/output_0_split_2
I0403 14:28:30.840731 13305 net.cpp:399] inception_5b/5x5_reduce -> inception_5b/5x5_reduce
I0403 14:28:30.842062 13305 net.cpp:141] Setting up inception_5b/5x5_reduce
I0403 14:28:30.842090 13305 net.cpp:148] Top shape: 24 48 7 7 (56448)
I0403 14:28:30.842106 13305 net.cpp:156] Memory required for data: 1334499360
I0403 14:28:30.842124 13305 layer_factory.hpp:77] Creating layer inception_5b/relu_5x5_reduce
I0403 14:28:30.842146 13305 net.cpp:91] Creating Layer inception_5b/relu_5x5_reduce
I0403 14:28:30.842164 13305 net.cpp:425] inception_5b/relu_5x5_reduce <- inception_5b/5x5_reduce
I0403 14:28:30.842185 13305 net.cpp:386] inception_5b/relu_5x5_reduce -> inception_5b/5x5_reduce (in-place)
I0403 14:28:30.842558 13305 net.cpp:141] Setting up inception_5b/relu_5x5_reduce
I0403 14:28:30.842589 13305 net.cpp:148] Top shape: 24 48 7 7 (56448)
I0403 14:28:30.842604 13305 net.cpp:156] Memory required for data: 1334725152
I0403 14:28:30.842619 13305 layer_factory.hpp:77] Creating layer inception_5b/5x5
I0403 14:28:30.842639 13305 net.cpp:91] Creating Layer inception_5b/5x5
I0403 14:28:30.842656 13305 net.cpp:425] inception_5b/5x5 <- inception_5b/5x5_reduce
I0403 14:28:30.842684 13305 net.cpp:399] inception_5b/5x5 -> inception_5b/5x5
I0403 14:28:30.844774 13305 net.cpp:141] Setting up inception_5b/5x5
I0403 14:28:30.844804 13305 net.cpp:148] Top shape: 24 128 7 7 (150528)
I0403 14:28:30.844820 13305 net.cpp:156] Memory required for data: 1335327264
I0403 14:28:30.844838 13305 layer_factory.hpp:77] Creating layer inception_5b/relu_5x5
I0403 14:28:30.844856 13305 net.cpp:91] Creating Layer inception_5b/relu_5x5
I0403 14:28:30.844871 13305 net.cpp:425] inception_5b/relu_5x5 <- inception_5b/5x5
I0403 14:28:30.844889 13305 net.cpp:386] inception_5b/relu_5x5 -> inception_5b/5x5 (in-place)
I0403 14:28:30.845093 13305 net.cpp:141] Setting up inception_5b/relu_5x5
I0403 14:28:30.845118 13305 net.cpp:148] Top shape: 24 128 7 7 (150528)
I0403 14:28:30.845134 13305 net.cpp:156] Memory required for data: 1335929376
I0403 14:28:30.845147 13305 layer_factory.hpp:77] Creating layer inception_5b/pool
I0403 14:28:30.845165 13305 net.cpp:91] Creating Layer inception_5b/pool
I0403 14:28:30.845180 13305 net.cpp:425] inception_5b/pool <- inception_5a/output_inception_5a/output_0_split_3
I0403 14:28:30.845201 13305 net.cpp:399] inception_5b/pool -> inception_5b/pool
I0403 14:28:30.845286 13305 net.cpp:141] Setting up inception_5b/pool
I0403 14:28:30.845317 13305 net.cpp:148] Top shape: 24 832 7 7 (978432)
I0403 14:28:30.845340 13305 net.cpp:156] Memory required for data: 1339843104
I0403 14:28:30.845355 13305 layer_factory.hpp:77] Creating layer inception_5b/pool_proj
I0403 14:28:30.845376 13305 net.cpp:91] Creating Layer inception_5b/pool_proj
I0403 14:28:30.845394 13305 net.cpp:425] inception_5b/pool_proj <- inception_5b/pool
I0403 14:28:30.845413 13305 net.cpp:399] inception_5b/pool_proj -> inception_5b/pool_proj
I0403 14:28:30.847861 13305 net.cpp:141] Setting up inception_5b/pool_proj
I0403 14:28:30.847890 13305 net.cpp:148] Top shape: 24 128 7 7 (150528)
I0403 14:28:30.847906 13305 net.cpp:156] Memory required for data: 1340445216
I0403 14:28:30.847924 13305 layer_factory.hpp:77] Creating layer inception_5b/relu_pool_proj
I0403 14:28:30.847945 13305 net.cpp:91] Creating Layer inception_5b/relu_pool_proj
I0403 14:28:30.847962 13305 net.cpp:425] inception_5b/relu_pool_proj <- inception_5b/pool_proj
I0403 14:28:30.847980 13305 net.cpp:386] inception_5b/relu_pool_proj -> inception_5b/pool_proj (in-place)
I0403 14:28:30.848291 13305 net.cpp:141] Setting up inception_5b/relu_pool_proj
I0403 14:28:30.848317 13305 net.cpp:148] Top shape: 24 128 7 7 (150528)
I0403 14:28:30.848338 13305 net.cpp:156] Memory required for data: 1341047328
I0403 14:28:30.848358 13305 layer_factory.hpp:77] Creating layer inception_5b/output
I0403 14:28:30.848381 13305 net.cpp:91] Creating Layer inception_5b/output
I0403 14:28:30.848412 13305 net.cpp:425] inception_5b/output <- inception_5b/1x1
I0403 14:28:30.848429 13305 net.cpp:425] inception_5b/output <- inception_5b/3x3
I0403 14:28:30.848445 13305 net.cpp:425] inception_5b/output <- inception_5b/5x5
I0403 14:28:30.848474 13305 net.cpp:425] inception_5b/output <- inception_5b/pool_proj
I0403 14:28:30.848495 13305 net.cpp:399] inception_5b/output -> inception_5b/output
I0403 14:28:30.848548 13305 net.cpp:141] Setting up inception_5b/output
I0403 14:28:30.848575 13305 net.cpp:148] Top shape: 24 1024 7 7 (1204224)
I0403 14:28:30.848592 13305 net.cpp:156] Memory required for data: 1345864224
I0403 14:28:30.848606 13305 layer_factory.hpp:77] Creating layer pool5/7x7_s1
I0403 14:28:30.848624 13305 net.cpp:91] Creating Layer pool5/7x7_s1
I0403 14:28:30.848640 13305 net.cpp:425] pool5/7x7_s1 <- inception_5b/output
I0403 14:28:30.848660 13305 net.cpp:399] pool5/7x7_s1 -> pool5/7x7_s1
I0403 14:28:30.848878 13305 net.cpp:141] Setting up pool5/7x7_s1
I0403 14:28:30.848906 13305 net.cpp:148] Top shape: 24 1024 1 1 (24576)
I0403 14:28:30.848922 13305 net.cpp:156] Memory required for data: 1345962528
I0403 14:28:30.848937 13305 layer_factory.hpp:77] Creating layer pool5/drop_7x7_s1
I0403 14:28:30.848953 13305 net.cpp:91] Creating Layer pool5/drop_7x7_s1
I0403 14:28:30.848969 13305 net.cpp:425] pool5/drop_7x7_s1 <- pool5/7x7_s1
I0403 14:28:30.848987 13305 net.cpp:386] pool5/drop_7x7_s1 -> pool5/7x7_s1 (in-place)
I0403 14:28:30.849050 13305 net.cpp:141] Setting up pool5/drop_7x7_s1
I0403 14:28:30.849073 13305 net.cpp:148] Top shape: 24 1024 1 1 (24576)
I0403 14:28:30.849087 13305 net.cpp:156] Memory required for data: 1346060832
I0403 14:28:30.849107 13305 layer_factory.hpp:77] Creating layer loss3/classifier_plantvillage
I0403 14:28:30.849133 13305 net.cpp:91] Creating Layer loss3/classifier_plantvillage
I0403 14:28:30.849161 13305 net.cpp:425] loss3/classifier_plantvillage <- pool5/7x7_s1
I0403 14:28:30.849184 13305 net.cpp:399] loss3/classifier_plantvillage -> loss3/classifier_plantvillage
I0403 14:28:30.849652 13305 net.cpp:141] Setting up loss3/classifier_plantvillage
I0403 14:28:30.849730 13305 net.cpp:148] Top shape: 24 38 (912)
I0403 14:28:30.849800 13305 net.cpp:156] Memory required for data: 1346064480
I0403 14:28:30.849897 13305 layer_factory.hpp:77] Creating layer loss3/classifier_plantvillage_loss3/classifier_plantvillage_0_split
I0403 14:28:30.849928 13305 net.cpp:91] Creating Layer loss3/classifier_plantvillage_loss3/classifier_plantvillage_0_split
I0403 14:28:30.849947 13305 net.cpp:425] loss3/classifier_plantvillage_loss3/classifier_plantvillage_0_split <- loss3/classifier_plantvillage
I0403 14:28:30.849970 13305 net.cpp:399] loss3/classifier_plantvillage_loss3/classifier_plantvillage_0_split -> loss3/classifier_plantvillage_loss3/classifier_plantvillage_0_split_0
I0403 14:28:30.850054 13305 net.cpp:399] loss3/classifier_plantvillage_loss3/classifier_plantvillage_0_split -> loss3/classifier_plantvillage_loss3/classifier_plantvillage_0_split_1
I0403 14:28:30.850117 13305 net.cpp:399] loss3/classifier_plantvillage_loss3/classifier_plantvillage_0_split -> loss3/classifier_plantvillage_loss3/classifier_plantvillage_0_split_2
I0403 14:28:30.850170 13305 net.cpp:399] loss3/classifier_plantvillage_loss3/classifier_plantvillage_0_split -> loss3/classifier_plantvillage_loss3/classifier_plantvillage_0_split_3
I0403 14:28:30.850280 13305 net.cpp:141] Setting up loss3/classifier_plantvillage_loss3/classifier_plantvillage_0_split
I0403 14:28:30.850306 13305 net.cpp:148] Top shape: 24 38 (912)
I0403 14:28:30.850322 13305 net.cpp:148] Top shape: 24 38 (912)
I0403 14:28:30.850338 13305 net.cpp:148] Top shape: 24 38 (912)
I0403 14:28:30.850353 13305 net.cpp:148] Top shape: 24 38 (912)
I0403 14:28:30.850380 13305 net.cpp:156] Memory required for data: 1346079072
I0403 14:28:30.850395 13305 layer_factory.hpp:77] Creating layer loss1/loss
I0403 14:28:30.850416 13305 net.cpp:91] Creating Layer loss1/loss
I0403 14:28:30.850457 13305 net.cpp:425] loss1/loss <- loss1/classifier_plantvillage_loss1/classifier_plantvillage_0_split_0
I0403 14:28:30.850500 13305 net.cpp:425] loss1/loss <- label_data_1_split_0
…
