…
I0403 14:55:20.695741 13775 net.cpp:313] The NetState phase (1) differed from the phase (0) specified by a rule in layer data
I0403 14:55:20.696866 13775 net.cpp:49] Initializing net from parameters: 
state {
  phase: TEST
}
layer {
  name: "data"
  type: "Data"
  top: "data"
  top: "label"
  include {
    phase: TEST
  }
  transform_param {
    mirror: false
    crop_size: 224
    mean_file: "/home/mohanty/data/final_dataset/lmdb/color-40-60/mean.binaryproto"
  }
  data_param {
    source: "/home/mohanty/data/final_dataset/lmdb/color-40-60/test_db"
    batch_size: 24
    backend: LMDB
  }
}
layer {
  name: "conv1/7x7_s2"
  type: "Convolution"
  bottom: "data"
  top: "conv1/7x7_s2"
  param {
    lr_mult: 1
    decay_mult: 1
  }
  param {
    lr_mult: 2
    decay_mult: 0
  }
  convolution_param {
    num_output: 64
    pad: 3
    kernel_size: 7
    stride: 2
    weight_filler {
      type: "xavier"
      std: 0.1
    }
    bias_filler {
      type: "constant"
      value: 0.2
    }
  }
}
layer {
  name: "conv1/relu_7x7"
  type: "ReLU"
  bottom: "conv1/7x7_s2"
  top: "conv1/7x7_s2"
}
layer {
  name: "pool1/3x3_s2"
  type: "Pooling"
  bottom: "conv1/7x7_s2"
  top: "pool1/3x3_s2"
  pooling_param {
    pool: MAX
    kernel_size: 3
    stride: 2
  }
}
layer {
  name: "pool1/norm1"
  type: "LRN"
  bottom: "pool1/3x3_s2"
  top: "pool1/norm1"
  lrn_param {
    local_size: 5
    alpha: 0.0001
    beta: 0.75
  }
}
layer {
  name: "conv2/3x3_reduce"
  type: "Convolution"
  bottom: "pool1/norm1"
  top: "conv2/3x3_reduce"
  param {
    lr_mult: 1
    decay_mult: 1
  }
  param {
    lr_mult: 2
    decay_mult: 0
  }
  convolution_param {
    num_output: 64
    kernel_size: 1
    weight_filler {
      type: "xavier"
      std: 0.1
    }
    bias_filler {
      type: "constant"
      value: 0.2
    }
  }
}
layer {
  name: "conv2/relu_3x3_reduce"
  type: "ReLU"
  bottom: "conv2/3x3_reduce"
  top: "conv2/3x3_reduce"
}
layer {
  name: "conv2/3x3"
  type: "Convolution"
  bottom: "conv2/3x3_reduce"
  top: "conv2/3x3"
  param {
    lr_mult: 1
    decay_mult: 1
  }
  param {
    lr_mult: 2
    decay_mult: 0
  }
  convolution_param {
    num_output: 192
    pad: 1
    kernel_size: 3
    weight_filler {
      type: "xavier"
      std: 0.03
    }
    bias_filler {
      type: "constant"
      value: 0.2
    }
  }
}
layer {
  name: "conv2/relu_3x3"
  type: "ReLU"
  bottom: "conv2/3x3"
  top: "conv2/3x3"
}
layer {
  name: "conv2/norm2"
  type: "LRN"
  bottom: "conv2/3x3"
  top: "conv2/norm2"
  lrn_param {
    local_size: 5
    alpha: 0.0001
    beta: 0.75
  }
}
layer {
  name: "pool2/3x3_s2"
  type: "Pooling"
  bottom: "conv2/norm2"
  top: "pool2/3x3_s2"
  pooling_param {
    pool: MAX
    kernel_size: 3
    stride: 2
  }
}
layer {
  name: "inception_3a/1x1"
  type: "Convolution"
  bottom: "pool2/3x3_s2"
  top: "inception_3a/1x1"
  param {
    lr_mult: 1
    decay_mult: 1
  }
  param {
    lr_mult: 2
    decay_mult: 0
  }
  convolution_param {
    num_output: 64
    kernel_size: 1
    weight_filler {
      type: "xavier"
      std: 0.03
    }
    bias_filler {
      type: "constant"
      value: 0.2
    }
  }
}
layer {
  name: "inception_3a/relu_1x1"
  type: "ReLU"
  bottom: "inception_3a/1x1"
  top: "inception_3a/1x1"
}
layer {
  name: "inception_3a/3x3_reduce"
  type: "Convolution"
  bottom: "pool2/3x3_s2"
  top: "inception_3a/3x3_reduce"
  param {
    lr_mult: 1
    decay_mult: 1
  }
  param {
    lr_mult: 2
    decay_mult: 0
  }
  convolution_param {
    num_output: 96
    kernel_size: 1
    weight_filler {
      type: "xavier"
      std: 0.09
    }
    bias_filler {
      type: "constant"
      value: 0.2
    }
  }
}
layer {
  name: "inception_3a/relu_3x3_reduce"
  type: "ReLU"
  bottom: "inception_3a/3x3_reduce"
  top: "inception_3a/3x3_reduce"
}
layer {
  name: "inception_3a/3x3"
  type: "Convolution"
  bottom: "inception_3a/3x3_reduce"
  top: "inception_3a/3x3"
  param {
    lr_mult: 1
    decay_mult: 1
  }
  param {
    lr_mult: 2
    decay_mult: 0
  }
  convolution_param {
    num_output: 128
    pad: 1
    kernel_size: 3
    weight_filler {
      type: "xavier"
      std: 0.03
    }
    bias_filler {
      type: "constant"
      value: 0.2
    }
  }
}
layer {
  name: "inception_3a/relu_3x3"
  type: "ReLU"
  bottom: "inception_3a/3x3"
  top: "inception_3a/3x3"
}
layer {
  name: "inception_3a/5x5_reduce"
  type: "Convolution"
  bottom: "pool2/3x3_s2"
  top: "inception_3a/5x5_reduce"
  param {
    lr_mult: 1
    decay_mult: 1
  }
  param {
    lr_mult: 2
    decay_mult: 0
  }
  convolution_param {
    num_output: 16
    kernel_size: 1
    weight_filler {
      type: "xavier"
      std: 0.2
    }
    bias_filler {
      type: "constant"
      value: 0.2
    }
  }
}
layer {
  name: "inception_3a/relu_5x5_reduce"
  type: "ReLU"
  bottom: "inception_3a/5x5_reduce"
  top: "inception_3a/5x5_reduce"
}
layer {
  name: "inception_3a/5x5"
  type: "Convolution"
  bottom: "inception_3a/5x5_reduce"
  top: "inception_3a/5x5"
  param {
    lr_mult: 1
    decay_mult: 1
  }
  param {
    lr_mult: 2
    decay_mult: 0
  }
  convolution_param {
    num_output: 32
    pad: 2
    kernel_size: 5
    weight_filler {
      type: "xavier"
      std: 0.03
    }
    bias_filler {
      type: "constant"
      value: 0.2
    }
  }
}
layer {
  name: "inception_3a/relu_5x5"
  type: "ReLU"
  bottom: "inception_3a/5x5"
  top: "inception_3a/5x5"
}
layer {
  name: "inception_3a/pool"
  type: "Pooling"
  bottom: "pool2/3x3_s2"
  top: "inception_3a/pool"
  pooling_param {
    pool: MAX
    kernel_size: 3
    stride: 1
    pad: 1
  }
}
layer {
  name: "inception_3a/pool_proj"
  type: "Convolution"
  bottom: "inception_3a/pool"
  top: "inception_3a/pool_proj"
  param {
    lr_mult: 1
    decay_mult: 1
  }
  param {
    lr_mult: 2
    decay_mult: 0
  }
  convolution_param {
    num_output: 32
    kernel_size: 1
    weight_filler {
      type: "xavier"
      std: 0.1
    }
    bias_filler {
      type: "constant"
      value: 0.2
    }
  }
}
layer {
  name: "inception_3a/relu_pool_proj"
  type: "ReLU"
  bottom: "inception_3a/pool_proj"
  top: "inception_3a/pool_proj"
}
layer {
  name: "inception_3a/output"
  type: "Concat"
  bottom: "inception_3a/1x1"
  bottom: "inception_3a/3x3"
  bottom: "inception_3a/5x5"
  bottom: "inception_3a/pool_proj"
  top: "inception_3a/output"
}
layer {
  name: "inception_3b/1x1"
  type: "Convolution"
  bottom: "inception_3a/output"
  top: "inception_3b/1x1"
  param {
    lr_mult: 1
    decay_mult: 1
  }
  param {
    lr_mult: 2
    decay_mult: 0
  }
  convolution_param {
    num_output: 128
    kernel_size: 1
    weight_filler {
      type: "xavier"
      std: 0.03
    }
    bias_filler {
      type: "constant"
      value: 0.2
    }
  }
}
layer {
  name: "inception_3b/relu_1x1"
  type: "ReLU"
  bottom: "inception_3b/1x1"
  top: "inception_3b/1x1"
}
layer {
  name: "inception_3b/3x3_reduce"
  type: "Convolution"
  bottom: "inception_3a/output"
  top: "inception_3b/3x3_reduce"
  param {
    lr_mult: 1
    decay_mult: 1
  }
  param {
    lr_mult: 2
    decay_mult: 0
  }
  convolution_param {
    num_output: 128
    kernel_size: 1
    weight_filler {
      type: "xavier"
      std: 0.09
    }
    bias_filler {
      type: "constant"
      value: 0.2
    }
  }
}
layer {
  name: "inception_3b/relu_3x3_reduce"
  type: "ReLU"
  bottom: "inception_3b/3x3_reduce"
  top: "inception_3b/3x3_reduce"
}
layer {
  name: "inception_3b/3x3"
  type: "Convolution"
  bottom: "inception_3b/3x3_reduce"
  top: "inception_3b/3x3"
  param {
    lr_mult: 1
    decay_mult: 1
  }
  param {
    lr_mult: 2
    decay_mult: 0
  }
  convolution_param {
    num_output: 192
    pad: 1
    kernel_size: 3
    weight_filler {
      type: "xavier"
      std: 0.03
    }
    bias_filler {
      type: "constant"
      value: 0.2
    }
  }
}
layer {
  name: "inception_3b/relu_3x3"
  type: "ReLU"
  bottom: "inception_3b/3x3"
  top: "inception_3b/3x3"
}
layer {
  name: "inception_3b/5x5_reduce"
  type: "Convolution"
  bottom: "inception_3a/output"
  top: "inception_3b/5x5_reduce"
  param {
    lr_mult: 1
    decay_mult: 1
  }
  param {
    lr_mult: 2
    decay_mult: 0
  }
  convolution_param {
    num_output: 32
    kernel_size: 1
    weight_filler {
      type: "xavier"
      std: 0.2
    }
    bias_filler {
      type: "constant"
      value: 0.2
    }
  }
}
layer {
  name: "inception_3b/relu_5x5_reduce"
  type: "ReLU"
  bottom: "inception_3b/5x5_reduce"
  top: "inception_3b/5x5_reduce"
}
layer {
  name: "inception_3b/5x5"
  type: "Convolution"
  bottom: "inception_3b/5x5_reduce"
  top: "inception_3b/5x5"
  param {
    lr_mult: 1
    decay_mult: 1
  }
  param {
    lr_mult: 2
    decay_mult: 0
  }
  convolution_param {
    num_output: 96
    pad: 2
    kernel_size: 5
    weight_filler {
      type: "xavier"
      std: 0.03
    }
    bias_filler {
      type: "constant"
      value: 0.2
    }
  }
}
layer {
  name: "inception_3b/relu_5x5"
  type: "ReLU"
  bottom: "inception_3b/5x5"
  top: "inception_3b/5x5"
}
layer {
  name: "inception_3b/pool"
  type: "Pooling"
  bottom: "inception_3a/output"
  top: "inception_3b/pool"
  pooling_param {
    pool: MAX
    kernel_size: 3
    stride: 1
    pad: 1
  }
}
layer {
  name: "inception_3b/pool_proj"
  type: "Convolution"
  bottom: "inception_3b/pool"
  top: "inception_3b/pool_proj"
  param {
    lr_mult: 1
    decay_mult: 1
  }
  param {
    lr_mult: 2
    decay_mult: 0
  }
  convolution_param {
    num_output: 64
    kernel_size: 1
    weight_filler {
      type: "xavier"
      std: 0.1
    }
    bias_filler {
      type: "constant"
      value: 0.2
    }
  }
}
layer {
  name: "inception_3b/relu_pool_proj"
  type: "ReLU"
  bottom: "inception_3b/pool_proj"
  top: "inception_3b/pool_proj"
}
layer {
  name: "inception_3b/output"
  type: "Concat"
  bottom: "inception_3b/1x1"
  bottom: "inception_3b/3x3"
  bottom: "inception_3b/5x5"
  bottom: "inception_3b/pool_proj"
  top: "inception_3b/output"
}
layer {
  name: "pool3/3x3_s2"
  type: "Pooling"
  bottom: "inception_3b/output"
  top: "pool3/3x3_s2"
  pooling_param {
    pool: MAX
    kernel_size: 3
    stride: 2
  }
}
layer {
  name: "inception_4a/1x1"
  type: "Convolution"
  bottom: "pool3/3x3_s2"
  top: "inception_4a/1x1"
  param {
    lr_mult: 1
    decay_mult: 1
  }
  param {
    lr_mult: 2
    decay_mult: 0
  }
  convolution_param {
    num_output: 192
    kernel_size: 1
    weight_filler {
      type: "xavier"
      std: 0.03
    }
    bias_filler {
      type: "constant"
      value: 0.2
    }
  }
}
layer {
  name: "inception_4a/relu_1x1"
  type: "ReLU"
  bottom: "inception_4a/1x1"
  top: "inception_4a/1x1"
}
layer {
  name: "inception_4a/3x3_reduce"
  type: "Convolution"
  bottom: "pool3/3x3_s2"
  top: "inception_4a/3x3_reduce"
  param {
    lr_mult: 1
    decay_mult: 1
  }
  param {
    lr_mult: 2
    decay_mult: 0
  }
  convolution_param {
    num_output: 96
    kernel_size: 1
    weight_filler {
      type: "xavier"
      std: 0.09
    }
    bias_filler {
      type: "constant"
      value: 0.2
    }
  }
}
layer {
  name: "inception_4a/relu_3x3_reduce"
  type: "ReLU"
  bottom: "inception_4a/3x3_reduce"
  top: "inception_4a/3x3_reduce"
}
layer {
  name: "inception_4a/3x3"
  type: "Convolution"
  bottom: "inception_4a/3x3_reduce"
  top: "inception_4a/3x3"
  param {
    lr_mult: 1
    decay_mult: 1
  }
  param {
    lr_mult: 2
    decay_mult: 0
  }
  convolution_param {
    num_output: 208
    pad: 1
    kernel_size: 3
    weight_filler {
      type: "xavier"
      std: 0.03
    }
    bias_filler {
      type: "constant"
      value: 0.2
    }
  }
}
layer {
  name: "inception_4a/relu_3x3"
  type: "ReLU"
  bottom: "inception_4a/3x3"
  top: "inception_4a/3x3"
}
layer {
  name: "inception_4a/5x5_reduce"
  type: "Convolution"
  bottom: "pool3/3x3_s2"
  top: "inception_4a/5x5_reduce"
  param {
    lr_mult: 1
    decay_mult: 1
  }
  param {
    lr_mult: 2
    decay_mult: 0
  }
  convolution_param {
    num_output: 16
    kernel_size: 1
    weight_filler {
      type: "xavier"
      std: 0.2
    }
    bias_filler {
      type: "constant"
      value: 0.2
    }
  }
}
layer {
  name: "inception_4a/relu_5x5_reduce"
  type: "ReLU"
  bottom: "inception_4a/5x5_reduce"
  top: "inception_4a/5x5_reduce"
}
layer {
  name: "inception_4a/5x5"
  type: "Convolution"
  bottom: "inception_4a/5x5_reduce"
  top: "inception_4a/5x5"
  param {
    lr_mult: 1
    decay_mult: 1
  }
  param {
    lr_mult: 2
    decay_mult: 0
  }
  convolution_param {
    num_output: 48
    pad: 2
    kernel_size: 5
    weight_filler {
      type: "xavier"
      std: 0.03
    }
    bias_filler {
      type: "constant"
      value: 0.2
    }
  }
}
layer {
  name: "inception_4a/relu_5x5"
  type: "ReLU"
  bottom: "inception_4a/5x5"
  top: "inception_4a/5x5"
}
layer {
  name: "inception_4a/pool"
  type: "Pooling"
  bottom: "pool3/3x3_s2"
  top: "inception_4a/pool"
  pooling_param {
    pool: MAX
    kernel_size: 3
    stride: 1
    pad: 1
  }
}
layer {
  name: "inception_4a/pool_proj"
  type: "Convolution"
  bottom: "inception_4a/pool"
  top: "inception_4a/pool_proj"
  param {
    lr_mult: 1
    decay_mult: 1
  }
  param {
    lr_mult: 2
    decay_mult: 0
  }
  convolution_param {
    num_output: 64
    kernel_size: 1
    weight_filler {
      type: "xavier"
      std: 0.1
    }
    bias_filler {
      type: "constant"
      value: 0.2
    }
  }
}
layer {
  name: "inception_4a/relu_pool_proj"
  type: "ReLU"
  bottom: "inception_4a/pool_proj"
  top: "inception_4a/pool_proj"
}
layer {
  name: "inception_4a/output"
  type: "Concat"
  bottom: "inception_4a/1x1"
  bottom: "inception_4a/3x3"
  bottom: "inception_4a/5x5"
  bottom: "inception_4a/pool_proj"
  top: "inception_4a/output"
}
layer {
  name: "loss1/ave_pool"
  type: "Pooling"
  bottom: "inception_4a/output"
  top: "loss1/ave_pool"
  pooling_param {
    pool: AVE
    kernel_size: 5
    stride: 3
  }
}
layer {
  name: "loss1/conv"
  type: "Convolution"
  bottom: "loss1/ave_pool"
  top: "loss1/conv"
  param {
    lr_mult: 1
    decay_mult: 1
  }
  param {
    lr_mult: 2
    decay_mult: 0
  }
  convolution_param {
    num_output: 128
    kernel_size: 1
    weight_filler {
      type: "xavier"
      std: 0.08
    }
    bias_filler {
      type: "constant"
      value: 0.2
    }
  }
}
layer {
  name: "loss1/relu_conv"
  type: "ReLU"
  bottom: "loss1/conv"
  top: "loss1/conv"
}
layer {
  name: "loss1/fc"
  type: "InnerProduct"
  bottom: "loss1/conv"
  top: "loss1/fc"
  param {
    lr_mult: 1
    decay_mult: 1
  }
  param {
    lr_mult: 2
    decay_mult: 0
  }
  inner_product_param {
    num_output: 1024
    weight_filler {
      type: "xavier"
      std: 0.02
    }
    bias_filler {
      type: "constant"
      value: 0.2
    }
  }
}
layer {
  name: "loss1/relu_fc"
  type: "ReLU"
  bottom: "loss1/fc"
  top: "loss1/fc"
}
layer {
  name: "loss1/drop_fc"
  type: "Dropout"
  bottom: "loss1/fc"
  top: "loss1/fc"
  dropout_param {
    dropout_ratio: 0.7
  }
}
layer {
  name: "loss1/classifier_plantvillage"
  type: "InnerProduct"
  bottom: "loss1/fc"
  top: "loss1/classifier_plantvillage"
  param {
    lr_mult: 1
    decay_mult: 1
  }
  param {
    lr_mult: 2
    decay_mult: 0
  }
  inner_product_param {
    num_output: 38
    weight_filler {
      type: "xavier"
      std: 0.0009765625
    }
    bias_filler {
      type: "constant"
      value: 0
    }
  }
}
layer {
  name: "inception_4b/1x1"
  type: "Convolution"
  bottom: "inception_4a/output"
  top: "inception_4b/1x1"
  param {
    lr_mult: 1
    decay_mult: 1
  }
  param {
    lr_mult: 2
    decay_mult: 0
  }
  convolution_param {
    num_output: 160
    kernel_size: 1
    weight_filler {
      type: "xavier"
      std: 0.03
    }
    bias_filler {
      type: "constant"
      value: 0.2
    }
  }
}
layer {
  name: "inception_4b/relu_1x1"
  type: "ReLU"
  bottom: "inception_4b/1x1"
  top: "inception_4b/1x1"
}
layer {
  name: "inception_4b/3x3_reduce"
  type: "Convolution"
  bottom: "inception_4a/output"
  top: "inception_4b/3x3_reduce"
  param {
    lr_mult: 1
    decay_mult: 1
  }
  param {
    lr_mult: 2
    decay_mult: 0
  }
  convolution_param {
    num_output: 112
    kernel_size: 1
    weight_filler {
      type: "xavier"
      std: 0.09
    }
    bias_filler {
      type: "constant"
      value: 0.2
    }
  }
}
layer {
  name: "inception_4b/relu_3x3_reduce"
  type: "ReLU"
  bottom: "inception_4b/3x3_reduce"
  top: "inception_4b/3x3_reduce"
}
layer {
  name: "inception_4b/3x3"
  type: "Convolution"
  bottom: "inception_4b/3x3_reduce"
  top: "inception_4b/3x3"
  param {
    lr_mult: 1
    decay_mult: 1
  }
  param {
    lr_mult: 2
    decay_mult: 0
  }
  convolution_param {
    num_output: 224
    pad: 1
    kernel_size: 3
    weight_filler {
      type: "xavier"
      std: 0.03
    }
    bias_filler {
      type: "constant"
      value: 0.2
    }
  }
}
layer {
  name: "inception_4b/relu_3x3"
  type: "ReLU"
  bottom: "inception_4b/3x3"
  top: "inception_4b/3x3"
}
layer {
  name: "inception_4b/5x5_reduce"
  type: "Convolution"
  bottom: "inception_4a/output"
  top: "inception_4b/5x5_reduce"
  param {
    lr_mult: 1
    decay_mult: 1
  }
  param {
    lr_mult: 2
    decay_mult: 0
  }
  convolution_param {
    num_output: 24
    kernel_size: 1
    weight_filler {
      type: "xavier"
      std: 0.2
    }
    bias_filler {
      type: "constant"
      value: 0.2
    }
  }
}
layer {
  name: "inception_4b/relu_5x5_reduce"
  type: "ReLU"
  bottom: "inception_4b/5x5_reduce"
  top: "inception_4b/5x5_reduce"
}
layer {
  name: "inception_4b/5x5"
  type: "Convolution"
  bottom: "inception_4b/5x5_reduce"
  top: "inception_4b/5x5"
  param {
    lr_mult: 1
    decay_mult: 1
  }
  param {
    lr_mult: 2
    decay_mult: 0
  }
  convolution_param {
    num_output: 64
    pad: 2
    kernel_size: 5
    weight_filler {
      type: "xavier"
      std: 0.03
    }
    bias_filler {
      type: "constant"
      value: 0.2
    }
  }
}
layer {
  name: "inception_4b/relu_5x5"
  type: "ReLU"
  bottom: "inception_4b/5x5"
  top: "inception_4b/5x5"
}
layer {
  name: "inception_4b/pool"
  type: "Pooling"
  bottom: "inception_4a/output"
  top: "inception_4b/pool"
  pooling_param {
    pool: MAX
    kernel_size: 3
    stride: 1
    pad: 1
  }
}
layer {
  name: "inception_4b/pool_proj"
  type: "Convolution"
  bottom: "inception_4b/pool"
  top: "inception_4b/pool_proj"
  param {
    lr_mult: 1
    decay_mult: 1
  }
  param {
    lr_mult: 2
    decay_mult: 0
  }
  convolution_param {
    num_output: 64
    kernel_size: 1
    weight_filler {
      type: "xavier"
      std: 0.1
    }
    bias_filler {
      type: "constant"
      value: 0.2
    }
  }
}
layer {
  name: "inception_4b/relu_pool_proj"
  type: "ReLU"
  bottom: "inception_4b/pool_proj"
  top: "inception_4b/pool_proj"
}
layer {
  name: "inception_4b/output"
  type: "Concat"
  bottom: "inception_4b/1x1"
  bottom: "inception_4b/3x3"
  bottom: "inception_4b/5x5"
  bottom: "inception_4b/pool_proj"
  top: "inception_4b/output"
}
layer {
  name: "inception_4c/1x1"
  type: "Convolution"
  bottom: "inception_4b/output"
  top: "inception_4c/1x1"
  param {
    lr_mult: 1
    decay_mult: 1
  }
  param {
    lr_mult: 2
    decay_mult: 0
  }
  convolution_param {
    num_output: 128
    kernel_size: 1
    weight_filler {
      type: "xavier"
      std: 0.03
    }
    bias_filler {
      type: "constant"
      value: 0.2
    }
  }
}
layer {
  name: "inception_4c/relu_1x1"
  type: "ReLU"
  bottom: "inception_4c/1x1"
  top: "inception_4c/1x1"
}
layer {
  name: "inception_4c/3x3_reduce"
  type: "Convolution"
  bottom: "inception_4b/output"
  top: "inception_4c/3x3_reduce"
  param {
    lr_mult: 1
    decay_mult: 1
  }
  param {
    lr_mult: 2
    decay_mult: 0
  }
  convolution_param {
    num_output: 128
    kernel_size: 1
    weight_filler {
      type: "xavier"
      std: 0.09
    }
    bias_filler {
      type: "constant"
      value: 0.2
    }
  }
}
layer {
  name: "inception_4c/relu_3x3_reduce"
  type: "ReLU"
  bottom: "inception_4c/3x3_reduce"
  top: "inception_4c/3x3_reduce"
}
layer {
  name: "inception_4c/3x3"
  type: "Convolution"
  bottom: "inception_4c/3x3_reduce"
  top: "inception_4c/3x3"
  param {
    lr_mult: 1
    decay_mult: 1
  }
  param {
    lr_mult: 2
    decay_mult: 0
  }
  convolution_param {
    num_output: 256
    pad: 1
    kernel_size: 3
    weight_filler {
      type: "xavier"
      std: 0.03
    }
    bias_filler {
      type: "constant"
      value: 0.2
    }
  }
}
layer {
  name: "inception_4c/relu_3x3"
  type: "ReLU"
  bottom: "inception_4c/3x3"
  top: "inception_4c/3x3"
}
layer {
  name: "inception_4c/5x5_reduce"
  type: "Convolution"
  bottom: "inception_4b/output"
  top: "inception_4c/5x5_reduce"
  param {
    lr_mult: 1
    decay_mult: 1
  }
  param {
    lr_mult: 2
    decay_mult: 0
  }
  convolution_param {
    num_output: 24
    kernel_size: 1
    weight_filler {
      type: "xavier"
      std: 0.2
    }
    bias_filler {
      type: "constant"
      value: 0.2
    }
  }
}
layer {
  name: "inception_4c/relu_5x5_reduce"
  type: "ReLU"
  bottom: "inception_4c/5x5_reduce"
  top: "inception_4c/5x5_reduce"
}
layer {
  name: "inception_4c/5x5"
  type: "Convolution"
  bottom: "inception_4c/5x5_reduce"
  top: "inception_4c/5x5"
  param {
    lr_mult: 1
    decay_mult: 1
  }
  param {
    lr_mult: 2
    decay_mult: 0
  }
  convolution_param {
    num_output: 64
    pad: 2
    kernel_size: 5
    weight_filler {
      type: "xavier"
      std: 0.03
    }
    bias_filler {
      type: "constant"
      value: 0.2
    }
  }
}
layer {
  name: "inception_4c/relu_5x5"
  type: "ReLU"
  bottom: "inception_4c/5x5"
  top: "inception_4c/5x5"
}
layer {
  name: "inception_4c/pool"
  type: "Pooling"
  bottom: "inception_4b/output"
  top: "inception_4c/pool"
  pooling_param {
    pool: MAX
    kernel_size: 3
    stride: 1
    pad: 1
  }
}
layer {
  name: "inception_4c/pool_proj"
  type: "Convolution"
  bottom: "inception_4c/pool"
  top: "inception_4c/pool_proj"
  param {
    lr_mult: 1
    decay_mult: 1
  }
  param {
    lr_mult: 2
    decay_mult: 0
  }
  convolution_param {
    num_output: 64
    kernel_size: 1
    weight_filler {
      type: "xavier"
      std: 0.1
    }
    bias_filler {
      type: "constant"
      value: 0.2
    }
  }
}
layer {
  name: "inception_4c/relu_pool_proj"
  type: "ReLU"
  bottom: "inception_4c/pool_proj"
  top: "inception_4c/pool_proj"
}
layer {
  name: "inception_4c/output"
  type: "Concat"
  bottom: "inception_4c/1x1"
  bottom: "inception_4c/3x3"
  bottom: "inception_4c/5x5"
  bottom: "inception_4c/pool_proj"
  top: "inception_4c/output"
}
layer {
  name: "inception_4d/1x1"
  type: "Convolution"
  bottom: "inception_4c/output"
  top: "inception_4d/1x1"
  param {
    lr_mult: 1
    decay_mult: 1
  }
  param {
    lr_mult: 2
    decay_mult: 0
  }
  convolution_param {
    num_output: 112
    kernel_size: 1
    weight_filler {
      type: "xavier"
      std: 0.03
    }
    bias_filler {
      type: "constant"
      value: 0.2
    }
  }
}
layer {
  name: "inception_4d/relu_1x1"
  type: "ReLU"
  bottom: "inception_4d/1x1"
  top: "inception_4d/1x1"
}
layer {
  name: "inception_4d/3x3_reduce"
  type: "Convolution"
  bottom: "inception_4c/output"
  top: "inception_4d/3x3_reduce"
  param {
    lr_mult: 1
    decay_mult: 1
  }
  param {
    lr_mult: 2
    decay_mult: 0
  }
  convolution_param {
    num_output: 144
    kernel_size: 1
    weight_filler {
      type: "xavier"
      std: 0.09
    }
    bias_filler {
      type: "constant"
      value: 0.2
    }
  }
}
layer {
  name: "inception_4d/relu_3x3_reduce"
  type: "ReLU"
  bottom: "inception_4d/3x3_reduce"
  top: "inception_4d/3x3_reduce"
}
layer {
  name: "inception_4d/3x3"
  type: "Convolution"
  bottom: "inception_4d/3x3_reduce"
  top: "inception_4d/3x3"
  param {
    lr_mult: 1
    decay_mult: 1
  }
  param {
    lr_mult: 2
    decay_mult: 0
  }
  convolution_param {
    num_output: 288
    pad: 1
    kernel_size: 3
    weight_filler {
      type: "xavier"
      std: 0.03
    }
    bias_filler {
      type: "constant"
      value: 0.2
    }
  }
}
layer {
  name: "inception_4d/relu_3x3"
  type: "ReLU"
  bottom: "inception_4d/3x3"
  top: "inception_4d/3x3"
}
layer {
  name: "inception_4d/5x5_reduce"
  type: "Convolution"
  bottom: "inception_4c/output"
  top: "inception_4d/5x5_reduce"
  param {
    lr_mult: 1
    decay_mult: 1
  }
  param {
    lr_mult: 2
    decay_mult: 0
  }
  convolution_param {
    num_output: 32
    kernel_size: 1
    weight_filler {
      type: "xavier"
      std: 0.2
    }
    bias_filler {
      type: "constant"
      value: 0.2
    }
  }
}
layer {
  name: "inception_4d/relu_5x5_reduce"
  type: "ReLU"
  bottom: "inception_4d/5x5_reduce"
  top: "inception_4d/5x5_reduce"
}
layer {
  name: "inception_4d/5x5"
  type: "Convolution"
  bottom: "inception_4d/5x5_reduce"
  top: "inception_4d/5x5"
  param {
    lr_mult: 1
    decay_mult: 1
  }
  param {
    lr_mult: 2
    decay_mult: 0
  }
  convolution_param {
    num_output: 64
    pad: 2
    kernel_size: 5
    weight_filler {
      type: "xavier"
      std: 0.03
    }
    bias_filler {
      type: "constant"
      value: 0.2
    }
  }
}
layer {
  name: "inception_4d/relu_5x5"
  type: "ReLU"
  bottom: "inception_4d/5x5"
  top: "inception_4d/5x5"
}
layer {
  name: "inception_4d/pool"
  type: "Pooling"
  bottom: "inception_4c/output"
  top: "inception_4d/pool"
  pooling_param {
    pool: MAX
    kernel_size: 3
    stride: 1
    pad: 1
  }
}
layer {
  name: "inception_4d/pool_proj"
  type: "Convolution"
  bottom: "inception_4d/pool"
  top: "inception_4d/pool_proj"
  param {
    lr_mult: 1
    decay_mult: 1
  }
  param {
    lr_mult: 2
    decay_mult: 0
  }
  convolution_param {
    num_output: 64
    kernel_size: 1
    weight_filler {
      type: "xavier"
      std: 0.1
    }
    bias_filler {
      type: "constant"
      value: 0.2
    }
  }
}
layer {
  name: "inception_4d/relu_pool_proj"
  type: "ReLU"
  bottom: "inception_4d/pool_proj"
  top: "inception_4d/pool_proj"
}
layer {
  name: "inception_4d/output"
  type: "Concat"
  bottom: "inception_4d/1x1"
  bottom: "inception_4d/3x3"
  bottom: "inception_4d/5x5"
  bottom: "inception_4d/pool_proj"
  top: "inception_4d/output"
}
layer {
  name: "loss2/ave_pool"
  type: "Pooling"
  bottom: "inception_4d/output"
  top: "loss2/ave_pool"
  pooling_param {
    pool: AVE
    kernel_size: 5
    stride: 3
  }
}
layer {
  name: "loss2/conv"
  type: "Convolution"
  bottom: "loss2/ave_pool"
  top: "loss2/conv"
  param {
    lr_mult: 1
    decay_mult: 1
  }
  param {
    lr_mult: 2
    decay_mult: 0
  }
  convolution_param {
    num_output: 128
    kernel_size: 1
    weight_filler {
      type: "xavier"
      std: 0.08
    }
    bias_filler {
      type: "constant"
      value: 0.2
    }
  }
}
layer {
  name: "loss2/relu_conv"
  type: "ReLU"
  bottom: "loss2/conv"
  top: "loss2/conv"
}
layer {
  name: "loss2/fc"
  type: "InnerProduct"
  bottom: "loss2/conv"
  top: "loss2/fc"
  param {
    lr_mult: 1
    decay_mult: 1
  }
  param {
    lr_mult: 2
    decay_mult: 0
  }
  inner_product_param {
    num_output: 1024
    weight_filler {
      type: "xavier"
      std: 0.02
    }
    bias_filler {
      type: "constant"
      value: 0.2
    }
  }
}
layer {
  name: "loss2/relu_fc"
  type: "ReLU"
  bottom: "loss2/fc"
  top: "loss2/fc"
}
layer {
  name: "loss2/drop_fc"
  type: "Dropout"
  bottom: "loss2/fc"
  top: "loss2/fc"
  dropout_param {
    dropout_ratio: 0.7
  }
}
layer {
  name: "loss2/classifier_plantvillage"
  type: "InnerProduct"
  bottom: "loss2/fc"
  top: "loss2/classifier_plantvillage"
  param {
    lr_mult: 1
    decay_mult: 1
  }
  param {
    lr_mult: 2
    decay_mult: 0
  }
  inner_product_param {
    num_output: 38
    weight_filler {
      type: "xavier"
      std: 0.0009765625
    }
    bias_filler {
      type: "constant"
      value: 0
    }
  }
}
layer {
  name: "inception_4e/1x1"
  type: "Convolution"
  bottom: "inception_4d/output"
  top: "inception_4e/1x1"
  param {
    lr_mult: 1
    decay_mult: 1
  }
  param {
    lr_mult: 2
    decay_mult: 0
  }
  convolution_param {
    num_output: 256
    kernel_size: 1
    weight_filler {
      type: "xavier"
      std: 0.03
    }
    bias_filler {
      type: "constant"
      value: 0.2
    }
  }
}
layer {
  name: "inception_4e/relu_1x1"
  type: "ReLU"
  bottom: "inception_4e/1x1"
  top: "inception_4e/1x1"
}
layer {
  name: "inception_4e/3x3_reduce"
  type: "Convolution"
  bottom: "inception_4d/output"
  top: "inception_4e/3x3_reduce"
  param {
    lr_mult: 1
    decay_mult: 1
  }
  param {
    lr_mult: 2
    decay_mult: 0
  }
  convolution_param {
    num_output: 160
    kernel_size: 1
    weight_filler {
      type: "xavier"
      std: 0.09
    }
    bias_filler {
      type: "constant"
      value: 0.2
    }
  }
}
layer {
  name: "inception_4e/relu_3x3_reduce"
  type: "ReLU"
  bottom: "inception_4e/3x3_reduce"
  top: "inception_4e/3x3_reduce"
}
layer {
  name: "inception_4e/3x3"
  type: "Convolution"
  bottom: "inception_4e/3x3_reduce"
  top: "inception_4e/3x3"
  param {
    lr_mult: 1
    decay_mult: 1
  }
  param {
    lr_mult: 2
    decay_mult: 0
  }
  convolution_param {
    num_output: 320
    pad: 1
    kernel_size: 3
    weight_filler {
      type: "xavier"
      std: 0.03
    }
    bias_filler {
      type: "constant"
      value: 0.2
    }
  }
}
layer {
  name: "inception_4e/relu_3x3"
  type: "ReLU"
  bottom: "inception_4e/3x3"
  top: "inception_4e/3x3"
}
layer {
  name: "inception_4e/5x5_reduce"
  type: "Convolution"
  bottom: "inception_4d/output"
  top: "inception_4e/5x5_reduce"
  param {
    lr_mult: 1
    decay_mult: 1
  }
  param {
    lr_mult: 2
    decay_mult: 0
  }
  convolution_param {
    num_output: 32
    kernel_size: 1
    weight_filler {
      type: "xavier"
      std: 0.2
    }
    bias_filler {
      type: "constant"
      value: 0.2
    }
  }
}
layer {
  name: "inception_4e/relu_5x5_reduce"
  type: "ReLU"
  bottom: "inception_4e/5x5_reduce"
  top: "inception_4e/5x5_reduce"
}
layer {
  name: "inception_4e/5x5"
  type: "Convolution"
  bottom: "inception_4e/5x5_reduce"
  top: "inception_4e/5x5"
  p
I0403 14:55:20.698145 13775 layer_factory.hpp:77] Creating layer data
I0403 14:55:20.698760 13775 net.cpp:91] Creating Layer data
I0403 14:55:20.698792 13775 net.cpp:399] data -> data
I0403 14:55:20.698844 13775 net.cpp:399] data -> label
I0403 14:55:20.698882 13775 data_transformer.cpp:25] Loading mean file from: /home/mohanty/data/final_dataset/lmdb/color-40-60/mean.binaryproto
I0403 14:55:20.701990 13778 db_lmdb.cpp:38] Opened lmdb /home/mohanty/data/final_dataset/lmdb/color-40-60/test_db
I0403 14:55:20.712689 13775 data_layer.cpp:41] output data size: 24,3,224,224
I0403 14:55:20.740856 13775 net.cpp:141] Setting up data
I0403 14:55:20.740914 13775 net.cpp:148] Top shape: 24 3 224 224 (3612672)
I0403 14:55:20.740939 13775 net.cpp:148] Top shape: 24 (24)
I0403 14:55:20.740955 13775 net.cpp:156] Memory required for data: 14450784
I0403 14:55:20.740983 13775 layer_factory.hpp:77] Creating layer label_data_1_split
I0403 14:55:20.741009 13775 net.cpp:91] Creating Layer label_data_1_split
I0403 14:55:20.741027 13775 net.cpp:425] label_data_1_split <- label
I0403 14:55:20.741065 13775 net.cpp:399] label_data_1_split -> label_data_1_split_0
I0403 14:55:20.741093 13775 net.cpp:399] label_data_1_split -> label_data_1_split_1
I0403 14:55:20.741117 13775 net.cpp:399] label_data_1_split -> label_data_1_split_2
I0403 14:55:20.741138 13775 net.cpp:399] label_data_1_split -> label_data_1_split_3
I0403 14:55:20.741158 13775 net.cpp:399] label_data_1_split -> label_data_1_split_4
I0403 14:55:20.741179 13775 net.cpp:399] label_data_1_split -> label_data_1_split_5
I0403 14:55:20.741199 13775 net.cpp:399] label_data_1_split -> label_data_1_split_6
I0403 14:55:20.741219 13775 net.cpp:399] label_data_1_split -> label_data_1_split_7
I0403 14:55:20.741240 13775 net.cpp:399] label_data_1_split -> label_data_1_split_8
I0403 14:55:20.741260 13775 net.cpp:399] label_data_1_split -> label_data_1_split_9
I0403 14:55:20.741375 13775 net.cpp:141] Setting up label_data_1_split
I0403 14:55:20.741399 13775 net.cpp:148] Top shape: 24 (24)
I0403 14:55:20.741415 13775 net.cpp:148] Top shape: 24 (24)
I0403 14:55:20.741431 13775 net.cpp:148] Top shape: 24 (24)
I0403 14:55:20.741447 13775 net.cpp:148] Top shape: 24 (24)
I0403 14:55:20.741462 13775 net.cpp:148] Top shape: 24 (24)
I0403 14:55:20.741477 13775 net.cpp:148] Top shape: 24 (24)
I0403 14:55:20.741493 13775 net.cpp:148] Top shape: 24 (24)
I0403 14:55:20.741508 13775 net.cpp:148] Top shape: 24 (24)
I0403 14:55:20.741524 13775 net.cpp:148] Top shape: 24 (24)
I0403 14:55:20.741541 13775 net.cpp:148] Top shape: 24 (24)
I0403 14:55:20.741611 13775 net.cpp:156] Memory required for data: 14451744
I0403 14:55:20.741628 13775 layer_factory.hpp:77] Creating layer conv1/7x7_s2
I0403 14:55:20.741659 13775 net.cpp:91] Creating Layer conv1/7x7_s2
I0403 14:55:20.741678 13775 net.cpp:425] conv1/7x7_s2 <- data
I0403 14:55:20.741698 13775 net.cpp:399] conv1/7x7_s2 -> conv1/7x7_s2
I0403 14:55:20.883242 13775 net.cpp:141] Setting up conv1/7x7_s2
I0403 14:55:20.883332 13775 net.cpp:148] Top shape: 24 64 112 112 (19267584)
I0403 14:55:20.883384 13775 net.cpp:156] Memory required for data: 91522080
I0403 14:55:20.883421 13775 layer_factory.hpp:77] Creating layer conv1/relu_7x7
I0403 14:55:20.883450 13775 net.cpp:91] Creating Layer conv1/relu_7x7
I0403 14:55:20.883468 13775 net.cpp:425] conv1/relu_7x7 <- conv1/7x7_s2
I0403 14:55:20.883487 13775 net.cpp:386] conv1/relu_7x7 -> conv1/7x7_s2 (in-place)
I0403 14:55:20.883761 13775 net.cpp:141] Setting up conv1/relu_7x7
I0403 14:55:20.883790 13775 net.cpp:148] Top shape: 24 64 112 112 (19267584)
I0403 14:55:20.883805 13775 net.cpp:156] Memory required for data: 168592416
I0403 14:55:20.883821 13775 layer_factory.hpp:77] Creating layer pool1/3x3_s2
I0403 14:55:20.883846 13775 net.cpp:91] Creating Layer pool1/3x3_s2
I0403 14:55:20.883863 13775 net.cpp:425] pool1/3x3_s2 <- conv1/7x7_s2
I0403 14:55:20.883884 13775 net.cpp:399] pool1/3x3_s2 -> pool1/3x3_s2
I0403 14:55:20.883963 13775 net.cpp:141] Setting up pool1/3x3_s2
I0403 14:55:20.883988 13775 net.cpp:148] Top shape: 24 64 56 56 (4816896)
I0403 14:55:20.884002 13775 net.cpp:156] Memory required for data: 187860000
I0403 14:55:20.884017 13775 layer_factory.hpp:77] Creating layer pool1/norm1
I0403 14:55:20.884044 13775 net.cpp:91] Creating Layer pool1/norm1
I0403 14:55:20.884063 13775 net.cpp:425] pool1/norm1 <- pool1/3x3_s2
I0403 14:55:20.884083 13775 net.cpp:399] pool1/norm1 -> pool1/norm1
I0403 14:55:20.884394 13775 net.cpp:141] Setting up pool1/norm1
I0403 14:55:20.884423 13775 net.cpp:148] Top shape: 24 64 56 56 (4816896)
I0403 14:55:20.884438 13775 net.cpp:156] Memory required for data: 207127584
I0403 14:55:20.884452 13775 layer_factory.hpp:77] Creating layer conv2/3x3_reduce
I0403 14:55:20.884479 13775 net.cpp:91] Creating Layer conv2/3x3_reduce
I0403 14:55:20.884496 13775 net.cpp:425] conv2/3x3_reduce <- pool1/norm1
I0403 14:55:20.884517 13775 net.cpp:399] conv2/3x3_reduce -> conv2/3x3_reduce
I0403 14:55:20.885982 13775 net.cpp:141] Setting up conv2/3x3_reduce
I0403 14:55:20.886014 13775 net.cpp:148] Top shape: 24 64 56 56 (4816896)
I0403 14:55:20.886032 13775 net.cpp:156] Memory required for data: 226395168
I0403 14:55:20.886054 13775 layer_factory.hpp:77] Creating layer conv2/relu_3x3_reduce
I0403 14:55:20.886075 13775 net.cpp:91] Creating Layer conv2/relu_3x3_reduce
I0403 14:55:20.886090 13775 net.cpp:425] conv2/relu_3x3_reduce <- conv2/3x3_reduce
I0403 14:55:20.886108 13775 net.cpp:386] conv2/relu_3x3_reduce -> conv2/3x3_reduce (in-place)
I0403 14:55:20.886382 13775 net.cpp:141] Setting up conv2/relu_3x3_reduce
I0403 14:55:20.886414 13775 net.cpp:148] Top shape: 24 64 56 56 (4816896)
I0403 14:55:20.886431 13775 net.cpp:156] Memory required for data: 245662752
I0403 14:55:20.886446 13775 layer_factory.hpp:77] Creating layer conv2/3x3
I0403 14:55:20.886471 13775 net.cpp:91] Creating Layer conv2/3x3
I0403 14:55:20.886490 13775 net.cpp:425] conv2/3x3 <- conv2/3x3_reduce
I0403 14:55:20.886510 13775 net.cpp:399] conv2/3x3 -> conv2/3x3
I0403 14:55:20.888917 13775 net.cpp:141] Setting up conv2/3x3
I0403 14:55:20.888952 13775 net.cpp:148] Top shape: 24 192 56 56 (14450688)
I0403 14:55:20.888972 13775 net.cpp:156] Memory required for data: 303465504
I0403 14:55:20.888994 13775 layer_factory.hpp:77] Creating layer conv2/relu_3x3
I0403 14:55:20.889014 13775 net.cpp:91] Creating Layer conv2/relu_3x3
I0403 14:55:20.889031 13775 net.cpp:425] conv2/relu_3x3 <- conv2/3x3
I0403 14:55:20.889050 13775 net.cpp:386] conv2/relu_3x3 -> conv2/3x3 (in-place)
I0403 14:55:20.889230 13775 net.cpp:141] Setting up conv2/relu_3x3
I0403 14:55:20.889258 13775 net.cpp:148] Top shape: 24 192 56 56 (14450688)
I0403 14:55:20.889317 13775 net.cpp:156] Memory required for data: 361268256
I0403 14:55:20.889333 13775 layer_factory.hpp:77] Creating layer conv2/norm2
I0403 14:55:20.889354 13775 net.cpp:91] Creating Layer conv2/norm2
I0403 14:55:20.889372 13775 net.cpp:425] conv2/norm2 <- conv2/3x3
I0403 14:55:20.889390 13775 net.cpp:399] conv2/norm2 -> conv2/norm2
I0403 14:55:20.889708 13775 net.cpp:141] Setting up conv2/norm2
I0403 14:55:20.889735 13775 net.cpp:148] Top shape: 24 192 56 56 (14450688)
I0403 14:55:20.889751 13775 net.cpp:156] Memory required for data: 419071008
I0403 14:55:20.889766 13775 layer_factory.hpp:77] Creating layer pool2/3x3_s2
I0403 14:55:20.889786 13775 net.cpp:91] Creating Layer pool2/3x3_s2
I0403 14:55:20.889803 13775 net.cpp:425] pool2/3x3_s2 <- conv2/norm2
I0403 14:55:20.889822 13775 net.cpp:399] pool2/3x3_s2 -> pool2/3x3_s2
I0403 14:55:20.889876 13775 net.cpp:141] Setting up pool2/3x3_s2
I0403 14:55:20.889900 13775 net.cpp:148] Top shape: 24 192 28 28 (3612672)
I0403 14:55:20.889914 13775 net.cpp:156] Memory required for data: 433521696
I0403 14:55:20.889930 13775 layer_factory.hpp:77] Creating layer pool2/3x3_s2_pool2/3x3_s2_0_split
I0403 14:55:20.889947 13775 net.cpp:91] Creating Layer pool2/3x3_s2_pool2/3x3_s2_0_split
I0403 14:55:20.889962 13775 net.cpp:425] pool2/3x3_s2_pool2/3x3_s2_0_split <- pool2/3x3_s2
I0403 14:55:20.889986 13775 net.cpp:399] pool2/3x3_s2_pool2/3x3_s2_0_split -> pool2/3x3_s2_pool2/3x3_s2_0_split_0
I0403 14:55:20.890007 13775 net.cpp:399] pool2/3x3_s2_pool2/3x3_s2_0_split -> pool2/3x3_s2_pool2/3x3_s2_0_split_1
I0403 14:55:20.890027 13775 net.cpp:399] pool2/3x3_s2_pool2/3x3_s2_0_split -> pool2/3x3_s2_pool2/3x3_s2_0_split_2
I0403 14:55:20.890046 13775 net.cpp:399] pool2/3x3_s2_pool2/3x3_s2_0_split -> pool2/3x3_s2_pool2/3x3_s2_0_split_3
I0403 14:55:20.890175 13775 net.cpp:141] Setting up pool2/3x3_s2_pool2/3x3_s2_0_split
I0403 14:55:20.890203 13775 net.cpp:148] Top shape: 24 192 28 28 (3612672)
I0403 14:55:20.890221 13775 net.cpp:148] Top shape: 24 192 28 28 (3612672)
I0403 14:55:20.890238 13775 net.cpp:148] Top shape: 24 192 28 28 (3612672)
I0403 14:55:20.890254 13775 net.cpp:148] Top shape: 24 192 28 28 (3612672)
I0403 14:55:20.890269 13775 net.cpp:156] Memory required for data: 491324448
I0403 14:55:20.890282 13775 layer_factory.hpp:77] Creating layer inception_3a/1x1
I0403 14:55:20.890306 13775 net.cpp:91] Creating Layer inception_3a/1x1
I0403 14:55:20.890324 13775 net.cpp:425] inception_3a/1x1 <- pool2/3x3_s2_pool2/3x3_s2_0_split_0
I0403 14:55:20.890344 13775 net.cpp:399] inception_3a/1x1 -> inception_3a/1x1
I0403 14:55:20.891937 13775 net.cpp:141] Setting up inception_3a/1x1
I0403 14:55:20.891968 13775 net.cpp:148] Top shape: 24 64 28 28 (1204224)
I0403 14:55:20.891983 13775 net.cpp:156] Memory required for data: 496141344
I0403 14:55:20.892004 13775 layer_factory.hpp:77] Creating layer inception_3a/relu_1x1
I0403 14:55:20.892024 13775 net.cpp:91] Creating Layer inception_3a/relu_1x1
I0403 14:55:20.892042 13775 net.cpp:425] inception_3a/relu_1x1 <- inception_3a/1x1
I0403 14:55:20.892060 13775 net.cpp:386] inception_3a/relu_1x1 -> inception_3a/1x1 (in-place)
I0403 14:55:20.892235 13775 net.cpp:141] Setting up inception_3a/relu_1x1
I0403 14:55:20.892261 13775 net.cpp:148] Top shape: 24 64 28 28 (1204224)
I0403 14:55:20.892277 13775 net.cpp:156] Memory required for data: 500958240
I0403 14:55:20.892292 13775 layer_factory.hpp:77] Creating layer inception_3a/3x3_reduce
I0403 14:55:20.892314 13775 net.cpp:91] Creating Layer inception_3a/3x3_reduce
I0403 14:55:20.892334 13775 net.cpp:425] inception_3a/3x3_reduce <- pool2/3x3_s2_pool2/3x3_s2_0_split_1
I0403 14:55:20.892356 13775 net.cpp:399] inception_3a/3x3_reduce -> inception_3a/3x3_reduce
I0403 14:55:20.894039 13775 net.cpp:141] Setting up inception_3a/3x3_reduce
I0403 14:55:20.894070 13775 net.cpp:148] Top shape: 24 96 28 28 (1806336)
I0403 14:55:20.894088 13775 net.cpp:156] Memory required for data: 508183584
I0403 14:55:20.894110 13775 layer_factory.hpp:77] Creating layer inception_3a/relu_3x3_reduce
I0403 14:55:20.894145 13775 net.cpp:91] Creating Layer inception_3a/relu_3x3_reduce
I0403 14:55:20.894162 13775 net.cpp:425] inception_3a/relu_3x3_reduce <- inception_3a/3x3_reduce
I0403 14:55:20.894182 13775 net.cpp:386] inception_3a/relu_3x3_reduce -> inception_3a/3x3_reduce (in-place)
I0403 14:55:20.894361 13775 net.cpp:141] Setting up inception_3a/relu_3x3_reduce
I0403 14:55:20.894387 13775 net.cpp:148] Top shape: 24 96 28 28 (1806336)
I0403 14:55:20.894402 13775 net.cpp:156] Memory required for data: 515408928
I0403 14:55:20.894417 13775 layer_factory.hpp:77] Creating layer inception_3a/3x3
I0403 14:55:20.894439 13775 net.cpp:91] Creating Layer inception_3a/3x3
I0403 14:55:20.894456 13775 net.cpp:425] inception_3a/3x3 <- inception_3a/3x3_reduce
I0403 14:55:20.894477 13775 net.cpp:399] inception_3a/3x3 -> inception_3a/3x3
I0403 14:55:20.896139 13775 net.cpp:141] Setting up inception_3a/3x3
I0403 14:55:20.896170 13775 net.cpp:148] Top shape: 24 128 28 28 (2408448)
I0403 14:55:20.896189 13775 net.cpp:156] Memory required for data: 525042720
I0403 14:55:20.896209 13775 layer_factory.hpp:77] Creating layer inception_3a/relu_3x3
I0403 14:55:20.896227 13775 net.cpp:91] Creating Layer inception_3a/relu_3x3
I0403 14:55:20.896245 13775 net.cpp:425] inception_3a/relu_3x3 <- inception_3a/3x3
I0403 14:55:20.896265 13775 net.cpp:386] inception_3a/relu_3x3 -> inception_3a/3x3 (in-place)
I0403 14:55:20.896541 13775 net.cpp:141] Setting up inception_3a/relu_3x3
I0403 14:55:20.896576 13775 net.cpp:148] Top shape: 24 128 28 28 (2408448)
I0403 14:55:20.896595 13775 net.cpp:156] Memory required for data: 534676512
I0403 14:55:20.896611 13775 layer_factory.hpp:77] Creating layer inception_3a/5x5_reduce
I0403 14:55:20.896633 13775 net.cpp:91] Creating Layer inception_3a/5x5_reduce
I0403 14:55:20.896651 13775 net.cpp:425] inception_3a/5x5_reduce <- pool2/3x3_s2_pool2/3x3_s2_0_split_2
I0403 14:55:20.896669 13775 net.cpp:399] inception_3a/5x5_reduce -> inception_3a/5x5_reduce
I0403 14:55:20.897624 13775 net.cpp:141] Setting up inception_3a/5x5_reduce
I0403 14:55:20.897655 13775 net.cpp:148] Top shape: 24 16 28 28 (301056)
I0403 14:55:20.897673 13775 net.cpp:156] Memory required for data: 535880736
I0403 14:55:20.897693 13775 layer_factory.hpp:77] Creating layer inception_3a/relu_5x5_reduce
I0403 14:55:20.897711 13775 net.cpp:91] Creating Layer inception_3a/relu_5x5_reduce
I0403 14:55:20.897727 13775 net.cpp:425] inception_3a/relu_5x5_reduce <- inception_3a/5x5_reduce
I0403 14:55:20.897748 13775 net.cpp:386] inception_3a/relu_5x5_reduce -> inception_3a/5x5_reduce (in-place)
I0403 14:55:20.898048 13775 net.cpp:141] Setting up inception_3a/relu_5x5_reduce
I0403 14:55:20.898074 13775 net.cpp:148] Top shape: 24 16 28 28 (301056)
I0403 14:55:20.898088 13775 net.cpp:156] Memory required for data: 537084960
I0403 14:55:20.898103 13775 layer_factory.hpp:77] Creating layer inception_3a/5x5
I0403 14:55:20.898124 13775 net.cpp:91] Creating Layer inception_3a/5x5
I0403 14:55:20.898143 13775 net.cpp:425] inception_3a/5x5 <- inception_3a/5x5_reduce
I0403 14:55:20.898162 13775 net.cpp:399] inception_3a/5x5 -> inception_3a/5x5
I0403 14:55:20.899161 13775 net.cpp:141] Setting up inception_3a/5x5
I0403 14:55:20.899193 13775 net.cpp:148] Top shape: 24 32 28 28 (602112)
I0403 14:55:20.899209 13775 net.cpp:156] Memory required for data: 539493408
I0403 14:55:20.899227 13775 layer_factory.hpp:77] Creating layer inception_3a/relu_5x5
I0403 14:55:20.899245 13775 net.cpp:91] Creating Layer inception_3a/relu_5x5
I0403 14:55:20.899263 13775 net.cpp:425] inception_3a/relu_5x5 <- inception_3a/5x5
I0403 14:55:20.899282 13775 net.cpp:386] inception_3a/relu_5x5 -> inception_3a/5x5 (in-place)
I0403 14:55:20.899461 13775 net.cpp:141] Setting up inception_3a/relu_5x5
I0403 14:55:20.899487 13775 net.cpp:148] Top shape: 24 32 28 28 (602112)
I0403 14:55:20.899502 13775 net.cpp:156] Memory required for data: 541901856
I0403 14:55:20.899515 13775 layer_factory.hpp:77] Creating layer inception_3a/pool
I0403 14:55:20.899534 13775 net.cpp:91] Creating Layer inception_3a/pool
I0403 14:55:20.899549 13775 net.cpp:425] inception_3a/pool <- pool2/3x3_s2_pool2/3x3_s2_0_split_3
I0403 14:55:20.899597 13775 net.cpp:399] inception_3a/pool -> inception_3a/pool
I0403 14:55:20.899657 13775 net.cpp:141] Setting up inception_3a/pool
I0403 14:55:20.899680 13775 net.cpp:148] Top shape: 24 192 28 28 (3612672)
I0403 14:55:20.899695 13775 net.cpp:156] Memory required for data: 556352544
I0403 14:55:20.899709 13775 layer_factory.hpp:77] Creating layer inception_3a/pool_proj
I0403 14:55:20.899734 13775 net.cpp:91] Creating Layer inception_3a/pool_proj
I0403 14:55:20.899752 13775 net.cpp:425] inception_3a/pool_proj <- inception_3a/pool
I0403 14:55:20.899773 13775 net.cpp:399] inception_3a/pool_proj -> inception_3a/pool_proj
I0403 14:55:20.900732 13775 net.cpp:141] Setting up inception_3a/pool_proj
I0403 14:55:20.900761 13775 net.cpp:148] Top shape: 24 32 28 28 (602112)
I0403 14:55:20.900779 13775 net.cpp:156] Memory required for data: 558760992
I0403 14:55:20.900804 13775 layer_factory.hpp:77] Creating layer inception_3a/relu_pool_proj
I0403 14:55:20.900825 13775 net.cpp:91] Creating Layer inception_3a/relu_pool_proj
I0403 14:55:20.900841 13775 net.cpp:425] inception_3a/relu_pool_proj <- inception_3a/pool_proj
I0403 14:55:20.900862 13775 net.cpp:386] inception_3a/relu_pool_proj -> inception_3a/pool_proj (in-place)
I0403 14:55:20.901132 13775 net.cpp:141] Setting up inception_3a/relu_pool_proj
I0403 14:55:20.901163 13775 net.cpp:148] Top shape: 24 32 28 28 (602112)
I0403 14:55:20.901180 13775 net.cpp:156] Memory required for data: 561169440
I0403 14:55:20.901196 13775 layer_factory.hpp:77] Creating layer inception_3a/output
I0403 14:55:20.901213 13775 net.cpp:91] Creating Layer inception_3a/output
I0403 14:55:20.901232 13775 net.cpp:425] inception_3a/output <- inception_3a/1x1
I0403 14:55:20.901249 13775 net.cpp:425] inception_3a/output <- inception_3a/3x3
I0403 14:55:20.901268 13775 net.cpp:425] inception_3a/output <- inception_3a/5x5
I0403 14:55:20.901283 13775 net.cpp:425] inception_3a/output <- inception_3a/pool_proj
I0403 14:55:20.901303 13775 net.cpp:399] inception_3a/output -> inception_3a/output
I0403 14:55:20.901347 13775 net.cpp:141] Setting up inception_3a/output
I0403 14:55:20.901371 13775 net.cpp:148] Top shape: 24 256 28 28 (4816896)
I0403 14:55:20.901384 13775 net.cpp:156] Memory required for data: 580437024
I0403 14:55:20.901398 13775 layer_factory.hpp:77] Creating layer inception_3a/output_inception_3a/output_0_split
I0403 14:55:20.901419 13775 net.cpp:91] Creating Layer inception_3a/output_inception_3a/output_0_split
I0403 14:55:20.901435 13775 net.cpp:425] inception_3a/output_inception_3a/output_0_split <- inception_3a/output
I0403 14:55:20.901453 13775 net.cpp:399] inception_3a/output_inception_3a/output_0_split -> inception_3a/output_inception_3a/output_0_split_0
I0403 14:55:20.901471 13775 net.cpp:399] inception_3a/output_inception_3a/output_0_split -> inception_3a/output_inception_3a/output_0_split_1
I0403 14:55:20.901496 13775 net.cpp:399] inception_3a/output_inception_3a/output_0_split -> inception_3a/output_inception_3a/output_0_split_2
I0403 14:55:20.901518 13775 net.cpp:399] inception_3a/output_inception_3a/output_0_split -> inception_3a/output_inception_3a/output_0_split_3
I0403 14:55:20.901597 13775 net.cpp:141] Setting up inception_3a/output_inception_3a/output_0_split
I0403 14:55:20.901621 13775 net.cpp:148] Top shape: 24 256 28 28 (4816896)
I0403 14:55:20.901639 13775 net.cpp:148] Top shape: 24 256 28 28 (4816896)
I0403 14:55:20.901655 13775 net.cpp:148] Top shape: 24 256 28 28 (4816896)
I0403 14:55:20.901670 13775 net.cpp:148] Top shape: 24 256 28 28 (4816896)
I0403 14:55:20.901684 13775 net.cpp:156] Memory required for data: 657507360
I0403 14:55:20.901698 13775 layer_factory.hpp:77] Creating layer inception_3b/1x1
I0403 14:55:20.901721 13775 net.cpp:91] Creating Layer inception_3b/1x1
I0403 14:55:20.901738 13775 net.cpp:425] inception_3b/1x1 <- inception_3a/output_inception_3a/output_0_split_0
I0403 14:55:20.901757 13775 net.cpp:399] inception_3b/1x1 -> inception_3b/1x1
I0403 14:55:20.902880 13775 net.cpp:141] Setting up inception_3b/1x1
I0403 14:55:20.902921 13775 net.cpp:148] Top shape: 24 128 28 28 (2408448)
I0403 14:55:20.902940 13775 net.cpp:156] Memory required for data: 667141152
I0403 14:55:20.902958 13775 layer_factory.hpp:77] Creating layer inception_3b/relu_1x1
I0403 14:55:20.902981 13775 net.cpp:91] Creating Layer inception_3b/relu_1x1
I0403 14:55:20.902997 13775 net.cpp:425] inception_3b/relu_1x1 <- inception_3b/1x1
I0403 14:55:20.903015 13775 net.cpp:386] inception_3b/relu_1x1 -> inception_3b/1x1 (in-place)
I0403 14:55:20.903192 13775 net.cpp:141] Setting up inception_3b/relu_1x1
I0403 14:55:20.903218 13775 net.cpp:148] Top shape: 24 128 28 28 (2408448)
I0403 14:55:20.903234 13775 net.cpp:156] Memory required for data: 676774944
I0403 14:55:20.903249 13775 layer_factory.hpp:77] Creating layer inception_3b/3x3_reduce
I0403 14:55:20.903272 13775 net.cpp:91] Creating Layer inception_3b/3x3_reduce
I0403 14:55:20.903290 13775 net.cpp:425] inception_3b/3x3_reduce <- inception_3a/output_inception_3a/output_0_split_1
I0403 14:55:20.903308 13775 net.cpp:399] inception_3b/3x3_reduce -> inception_3b/3x3_reduce
I0403 14:55:20.904434 13775 net.cpp:141] Setting up inception_3b/3x3_reduce
I0403 14:55:20.904464 13775 net.cpp:148] Top shape: 24 128 28 28 (2408448)
I0403 14:55:20.904479 13775 net.cpp:156] Memory required for data: 686408736
I0403 14:55:20.904500 13775 layer_factory.hpp:77] Creating layer inception_3b/relu_3x3_reduce
I0403 14:55:20.904520 13775 net.cpp:91] Creating Layer inception_3b/relu_3x3_reduce
I0403 14:55:20.904538 13775 net.cpp:425] inception_3b/relu_3x3_reduce <- inception_3b/3x3_reduce
I0403 14:55:20.904556 13775 net.cpp:386] inception_3b/relu_3x3_reduce -> inception_3b/3x3_reduce (in-place)
I0403 14:55:20.904734 13775 net.cpp:141] Setting up inception_3b/relu_3x3_reduce
I0403 14:55:20.904762 13775 net.cpp:148] Top shape: 24 128 28 28 (2408448)
I0403 14:55:20.904778 13775 net.cpp:156] Memory required for data: 696042528
I0403 14:55:20.904791 13775 layer_factory.hpp:77] Creating layer inception_3b/3x3
I0403 14:55:20.904816 13775 net.cpp:91] Creating Layer inception_3b/3x3
I0403 14:55:20.904835 13775 net.cpp:425] inception_3b/3x3 <- inception_3b/3x3_reduce
I0403 14:55:20.904856 13775 net.cpp:399] inception_3b/3x3 -> inception_3b/3x3
I0403 14:55:20.907789 13775 net.cpp:141] Setting up inception_3b/3x3
I0403 14:55:20.907821 13775 net.cpp:148] Top shape: 24 192 28 28 (3612672)
I0403 14:55:20.907840 13775 net.cpp:156] Memory required for data: 710493216
I0403 14:55:20.907858 13775 layer_factory.hpp:77] Creating layer inception_3b/relu_3x3
I0403 14:55:20.907877 13775 net.cpp:91] Creating Layer inception_3b/relu_3x3
I0403 14:55:20.907894 13775 net.cpp:425] inception_3b/relu_3x3 <- inception_3b/3x3
I0403 14:55:20.907914 13775 net.cpp:386] inception_3b/relu_3x3 -> inception_3b/3x3 (in-place)
I0403 14:55:20.908192 13775 net.cpp:141] Setting up inception_3b/relu_3x3
I0403 14:55:20.908222 13775 net.cpp:148] Top shape: 24 192 28 28 (3612672)
I0403 14:55:20.908239 13775 net.cpp:156] Memory required for data: 724943904
I0403 14:55:20.908267 13775 layer_factory.hpp:77] Creating layer inception_3b/5x5_reduce
I0403 14:55:20.908291 13775 net.cpp:91] Creating Layer inception_3b/5x5_reduce
I0403 14:55:20.908311 13775 net.cpp:425] inception_3b/5x5_reduce <- inception_3a/output_inception_3a/output_0_split_2
I0403 14:55:20.908330 13775 net.cpp:399] inception_3b/5x5_reduce -> inception_3b/5x5_reduce
I0403 14:55:20.909337 13775 net.cpp:141] Setting up inception_3b/5x5_reduce
I0403 14:55:20.909368 13775 net.cpp:148] Top shape: 24 32 28 28 (602112)
I0403 14:55:20.909386 13775 net.cpp:156] Memory required for data: 727352352
I0403 14:55:20.909405 13775 layer_factory.hpp:77] Creating layer inception_3b/relu_5x5_reduce
I0403 14:55:20.909423 13775 net.cpp:91] Creating Layer inception_3b/relu_5x5_reduce
I0403 14:55:20.909440 13775 net.cpp:425] inception_3b/relu_5x5_reduce <- inception_3b/5x5_reduce
I0403 14:55:20.909459 13775 net.cpp:386] inception_3b/relu_5x5_reduce -> inception_3b/5x5_reduce (in-place)
I0403 14:55:20.909639 13775 net.cpp:141] Setting up inception_3b/relu_5x5_reduce
I0403 14:55:20.909678 13775 net.cpp:148] Top shape: 24 32 28 28 (602112)
I0403 14:55:20.909694 13775 net.cpp:156] Memory required for data: 729760800
I0403 14:55:20.909708 13775 layer_factory.hpp:77] Creating layer inception_3b/5x5
I0403 14:55:20.909731 13775 net.cpp:91] Creating Layer inception_3b/5x5
I0403 14:55:20.909749 13775 net.cpp:425] inception_3b/5x5 <- inception_3b/5x5_reduce
I0403 14:55:20.909770 13775 net.cpp:399] inception_3b/5x5 -> inception_3b/5x5
I0403 14:55:20.911733 13775 net.cpp:141] Setting up inception_3b/5x5
I0403 14:55:20.911762 13775 net.cpp:148] Top shape: 24 96 28 28 (1806336)
I0403 14:55:20.911778 13775 net.cpp:156] Memory required for data: 736986144
I0403 14:55:20.911795 13775 layer_factory.hpp:77] Creating layer inception_3b/relu_5x5
I0403 14:55:20.911815 13775 net.cpp:91] Creating Layer inception_3b/relu_5x5
I0403 14:55:20.911833 13775 net.cpp:425] inception_3b/relu_5x5 <- inception_3b/5x5
I0403 14:55:20.911849 13775 net.cpp:386] inception_3b/relu_5x5 -> inception_3b/5x5 (in-place)
I0403 14:55:20.912039 13775 net.cpp:141] Setting up inception_3b/relu_5x5
I0403 14:55:20.912065 13775 net.cpp:148] Top shape: 24 96 28 28 (1806336)
I0403 14:55:20.912080 13775 net.cpp:156] Memory required for data: 744211488
I0403 14:55:20.912093 13775 layer_factory.hpp:77] Creating layer inception_3b/pool
I0403 14:55:20.912111 13775 net.cpp:91] Creating Layer inception_3b/pool
I0403 14:55:20.912127 13775 net.cpp:425] inception_3b/pool <- inception_3a/output_inception_3a/output_0_split_3
I0403 14:55:20.912144 13775 net.cpp:399] inception_3b/pool -> inception_3b/pool
I0403 14:55:20.912200 13775 net.cpp:141] Setting up inception_3b/pool
I0403 14:55:20.912223 13775 net.cpp:148] Top shape: 24 256 28 28 (4816896)
I0403 14:55:20.912238 13775 net.cpp:156] Memory required for data: 763479072
I0403 14:55:20.912252 13775 layer_factory.hpp:77] Creating layer inception_3b/pool_proj
I0403 14:55:20.912274 13775 net.cpp:91] Creating Layer inception_3b/pool_proj
I0403 14:55:20.912294 13775 net.cpp:425] inception_3b/pool_proj <- inception_3b/pool
I0403 14:55:20.912312 13775 net.cpp:399] inception_3b/pool_proj -> inception_3b/pool_proj
I0403 14:55:20.913372 13775 net.cpp:141] Setting up inception_3b/pool_proj
I0403 14:55:20.913400 13775 net.cpp:148] Top shape: 24 64 28 28 (1204224)
I0403 14:55:20.913415 13775 net.cpp:156] Memory required for data: 768295968
I0403 14:55:20.913434 13775 layer_factory.hpp:77] Creating layer inception_3b/relu_pool_proj
I0403 14:55:20.913460 13775 net.cpp:91] Creating Layer inception_3b/relu_pool_proj
I0403 14:55:20.913476 13775 net.cpp:425] inception_3b/relu_pool_proj <- inception_3b/pool_proj
I0403 14:55:20.913496 13775 net.cpp:386] inception_3b/relu_pool_proj -> inception_3b/pool_proj (in-place)
I0403 14:55:20.913908 13775 net.cpp:141] Setting up inception_3b/relu_pool_proj
I0403 14:55:20.913933 13775 net.cpp:148] Top shape: 24 64 28 28 (1204224)
I0403 14:55:20.913947 13775 net.cpp:156] Memory required for data: 773112864
I0403 14:55:20.913962 13775 layer_factory.hpp:77] Creating layer inception_3b/output
I0403 14:55:20.913978 13775 net.cpp:91] Creating Layer inception_3b/output
I0403 14:55:20.913993 13775 net.cpp:425] inception_3b/output <- inception_3b/1x1
I0403 14:55:20.914010 13775 net.cpp:425] inception_3b/output <- inception_3b/3x3
I0403 14:55:20.914026 13775 net.cpp:425] inception_3b/output <- inception_3b/5x5
I0403 14:55:20.914041 13775 net.cpp:425] inception_3b/output <- inception_3b/pool_proj
I0403 14:55:20.914059 13775 net.cpp:399] inception_3b/output -> inception_3b/output
I0403 14:55:20.914100 13775 net.cpp:141] Setting up inception_3b/output
I0403 14:55:20.914125 13775 net.cpp:148] Top shape: 24 480 28 28 (9031680)
I0403 14:55:20.914139 13775 net.cpp:156] Memory required for data: 809239584
I0403 14:55:20.914154 13775 layer_factory.hpp:77] Creating layer pool3/3x3_s2
I0403 14:55:20.914170 13775 net.cpp:91] Creating Layer pool3/3x3_s2
I0403 14:55:20.914186 13775 net.cpp:425] pool3/3x3_s2 <- inception_3b/output
I0403 14:55:20.914204 13775 net.cpp:399] pool3/3x3_s2 -> pool3/3x3_s2
I0403 14:55:20.914274 13775 net.cpp:141] Setting up pool3/3x3_s2
I0403 14:55:20.914297 13775 net.cpp:148] Top shape: 24 480 14 14 (2257920)
I0403 14:55:20.914311 13775 net.cpp:156] Memory required for data: 818271264
I0403 14:55:20.914324 13775 layer_factory.hpp:77] Creating layer pool3/3x3_s2_pool3/3x3_s2_0_split
I0403 14:55:20.914343 13775 net.cpp:91] Creating Layer pool3/3x3_s2_pool3/3x3_s2_0_split
I0403 14:55:20.914360 13775 net.cpp:425] pool3/3x3_s2_pool3/3x3_s2_0_split <- pool3/3x3_s2
I0403 14:55:20.914376 13775 net.cpp:399] pool3/3x3_s2_pool3/3x3_s2_0_split -> pool3/3x3_s2_pool3/3x3_s2_0_split_0
I0403 14:55:20.914394 13775 net.cpp:399] pool3/3x3_s2_pool3/3x3_s2_0_split -> pool3/3x3_s2_pool3/3x3_s2_0_split_1
I0403 14:55:20.914413 13775 net.cpp:399] pool3/3x3_s2_pool3/3x3_s2_0_split -> pool3/3x3_s2_pool3/3x3_s2_0_split_2
I0403 14:55:20.914433 13775 net.cpp:399] pool3/3x3_s2_pool3/3x3_s2_0_split -> pool3/3x3_s2_pool3/3x3_s2_0_split_3
I0403 14:55:20.914507 13775 net.cpp:141] Setting up pool3/3x3_s2_pool3/3x3_s2_0_split
I0403 14:55:20.914530 13775 net.cpp:148] Top shape: 24 480 14 14 (2257920)
I0403 14:55:20.914544 13775 net.cpp:148] Top shape: 24 480 14 14 (2257920)
I0403 14:55:20.914559 13775 net.cpp:148] Top shape: 24 480 14 14 (2257920)
I0403 14:55:20.914585 13775 net.cpp:148] Top shape: 24 480 14 14 (2257920)
I0403 14:55:20.914602 13775 net.cpp:156] Memory required for data: 854397984
I0403 14:55:20.914615 13775 layer_factory.hpp:77] Creating layer inception_4a/1x1
I0403 14:55:20.914638 13775 net.cpp:91] Creating Layer inception_4a/1x1
I0403 14:55:20.914654 13775 net.cpp:425] inception_4a/1x1 <- pool3/3x3_s2_pool3/3x3_s2_0_split_0
I0403 14:55:20.914675 13775 net.cpp:399] inception_4a/1x1 -> inception_4a/1x1
I0403 14:55:20.916193 13775 net.cpp:141] Setting up inception_4a/1x1
I0403 14:55:20.916221 13775 net.cpp:148] Top shape: 24 192 14 14 (903168)
I0403 14:55:20.916237 13775 net.cpp:156] Memory required for data: 858010656
I0403 14:55:20.916254 13775 layer_factory.hpp:77] Creating layer inception_4a/relu_1x1
I0403 14:55:20.916276 13775 net.cpp:91] Creating Layer inception_4a/relu_1x1
I0403 14:55:20.916292 13775 net.cpp:425] inception_4a/relu_1x1 <- inception_4a/1x1
I0403 14:55:20.916308 13775 net.cpp:386] inception_4a/relu_1x1 -> inception_4a/1x1 (in-place)
I0403 14:55:20.916477 13775 net.cpp:141] Setting up inception_4a/relu_1x1
I0403 14:55:20.916504 13775 net.cpp:148] Top shape: 24 192 14 14 (903168)
I0403 14:55:20.916519 13775 net.cpp:156] Memory required for data: 861623328
I0403 14:55:20.916533 13775 layer_factory.hpp:77] Creating layer inception_4a/3x3_reduce
I0403 14:55:20.916553 13775 net.cpp:91] Creating Layer inception_4a/3x3_reduce
I0403 14:55:20.916573 13775 net.cpp:425] inception_4a/3x3_reduce <- pool3/3x3_s2_pool3/3x3_s2_0_split_1
I0403 14:55:20.916594 13775 net.cpp:399] inception_4a/3x3_reduce -> inception_4a/3x3_reduce
I0403 14:55:20.917830 13775 net.cpp:141] Setting up inception_4a/3x3_reduce
I0403 14:55:20.917860 13775 net.cpp:148] Top shape: 24 96 14 14 (451584)
I0403 14:55:20.917873 13775 net.cpp:156] Memory required for data: 863429664
I0403 14:55:20.917898 13775 layer_factory.hpp:77] Creating layer inception_4a/relu_3x3_reduce
I0403 14:55:20.917917 13775 net.cpp:91] Creating Layer inception_4a/relu_3x3_reduce
I0403 14:55:20.917932 13775 net.cpp:425] inception_4a/relu_3x3_reduce <- inception_4a/3x3_reduce
I0403 14:55:20.917954 13775 net.cpp:386] inception_4a/relu_3x3_reduce -> inception_4a/3x3_reduce (in-place)
I0403 14:55:20.918125 13775 net.cpp:141] Setting up inception_4a/relu_3x3_reduce
I0403 14:55:20.918149 13775 net.cpp:148] Top shape: 24 96 14 14 (451584)
I0403 14:55:20.918164 13775 net.cpp:156] Memory required for data: 865236000
I0403 14:55:20.918177 13775 layer_factory.hpp:77] Creating layer inception_4a/3x3
I0403 14:55:20.918200 13775 net.cpp:91] Creating Layer inception_4a/3x3
I0403 14:55:20.918216 13775 net.cpp:425] inception_4a/3x3 <- inception_4a/3x3_reduce
I0403 14:55:20.918236 13775 net.cpp:399] inception_4a/3x3 -> inception_4a/3x3
I0403 14:55:20.920847 13775 net.cpp:141] Setting up inception_4a/3x3
I0403 14:55:20.920877 13775 net.cpp:148] Top shape: 24 208 14 14 (978432)
I0403 14:55:20.920892 13775 net.cpp:156] Memory required for data: 869149728
I0403 14:55:20.920910 13775 layer_factory.hpp:77] Creating layer inception_4a/relu_3x3
I0403 14:55:20.920931 13775 net.cpp:91] Creating Layer inception_4a/relu_3x3
I0403 14:55:20.920950 13775 net.cpp:425] inception_4a/relu_3x3 <- inception_4a/3x3
I0403 14:55:20.920967 13775 net.cpp:386] inception_4a/relu_3x3 -> inception_4a/3x3 (in-place)
I0403 14:55:20.921243 13775 net.cpp:141] Setting up inception_4a/relu_3x3
I0403 14:55:20.921272 13775 net.cpp:148] Top shape: 24 208 14 14 (978432)
I0403 14:55:20.921286 13775 net.cpp:156] Memory required for data: 873063456
I0403 14:55:20.921309 13775 layer_factory.hpp:77] Creating layer inception_4a/5x5_reduce
I0403 14:55:20.921334 13775 net.cpp:91] Creating Layer inception_4a/5x5_reduce
I0403 14:55:20.921351 13775 net.cpp:425] inception_4a/5x5_reduce <- pool3/3x3_s2_pool3/3x3_s2_0_split_2
I0403 14:55:20.921370 13775 net.cpp:399] inception_4a/5x5_reduce -> inception_4a/5x5_reduce
I0403 14:55:20.922380 13775 net.cpp:141] Setting up inception_4a/5x5_reduce
I0403 14:55:20.922408 13775 net.cpp:148] Top shape: 24 16 14 14 (75264)
I0403 14:55:20.922425 13775 net.cpp:156] Memory required for data: 873364512
I0403 14:55:20.922442 13775 layer_factory.hpp:77] Creating layer inception_4a/relu_5x5_reduce
I0403 14:55:20.922459 13775 net.cpp:91] Creating Layer inception_4a/relu_5x5_reduce
I0403 14:55:20.922475 13775 net.cpp:425] inception_4a/relu_5x5_reduce <- inception_4a/5x5_reduce
I0403 14:55:20.922494 13775 net.cpp:386] inception_4a/relu_5x5_reduce -> inception_4a/5x5_reduce (in-place)
I0403 14:55:20.922672 13775 net.cpp:141] Setting up inception_4a/relu_5x5_reduce
I0403 14:55:20.922698 13775 net.cpp:148] Top shape: 24 16 14 14 (75264)
I0403 14:55:20.922711 13775 net.cpp:156] Memory required for data: 873665568
I0403 14:55:20.922726 13775 layer_factory.hpp:77] Creating layer inception_4a/5x5
I0403 14:55:20.922747 13775 net.cpp:91] Creating Layer inception_4a/5x5
I0403 14:55:20.922765 13775 net.cpp:425] inception_4a/5x5 <- inception_4a/5x5_reduce
I0403 14:55:20.922785 13775 net.cpp:399] inception_4a/5x5 -> inception_4a/5x5
I0403 14:55:20.923847 13775 net.cpp:141] Setting up inception_4a/5x5
I0403 14:55:20.923874 13775 net.cpp:148] Top shape: 24 48 14 14 (225792)
I0403 14:55:20.923889 13775 net.cpp:156] Memory required for data: 874568736
I0403 14:55:20.923907 13775 layer_factory.hpp:77] Creating layer inception_4a/relu_5x5
I0403 14:55:20.923925 13775 net.cpp:91] Creating Layer inception_4a/relu_5x5
I0403 14:55:20.923943 13775 net.cpp:425] inception_4a/relu_5x5 <- inception_4a/5x5
I0403 14:55:20.923960 13775 net.cpp:386] inception_4a/relu_5x5 -> inception_4a/5x5 (in-place)
I0403 14:55:20.924129 13775 net.cpp:141] Setting up inception_4a/relu_5x5
I0403 14:55:20.924154 13775 net.cpp:148] Top shape: 24 48 14 14 (225792)
I0403 14:55:20.924168 13775 net.cpp:156] Memory required for data: 875471904
I0403 14:55:20.924181 13775 layer_factory.hpp:77] Creating layer inception_4a/pool
I0403 14:55:20.924201 13775 net.cpp:91] Creating Layer inception_4a/pool
I0403 14:55:20.924217 13775 net.cpp:425] inception_4a/pool <- pool3/3x3_s2_pool3/3x3_s2_0_split_3
I0403 14:55:20.924235 13775 net.cpp:399] inception_4a/pool -> inception_4a/pool
I0403 14:55:20.924307 13775 net.cpp:141] Setting up inception_4a/pool
I0403 14:55:20.924331 13775 net.cpp:148] Top shape: 24 480 14 14 (2257920)
I0403 14:55:20.924345 13775 net.cpp:156] Memory required for data: 884503584
I0403 14:55:20.924360 13775 layer_factory.hpp:77] Creating layer inception_4a/pool_proj
I0403 14:55:20.924381 13775 net.cpp:91] Creating Layer inception_4a/pool_proj
I0403 14:55:20.924398 13775 net.cpp:425] inception_4a/pool_proj <- inception_4a/pool
I0403 14:55:20.924418 13775 net.cpp:399] inception_4a/pool_proj -> inception_4a/pool_proj
I0403 14:55:20.925608 13775 net.cpp:141] Setting up inception_4a/pool_proj
I0403 14:55:20.925637 13775 net.cpp:148] Top shape: 24 64 14 14 (301056)
I0403 14:55:20.925673 13775 net.cpp:156] Memory required for data: 885707808
I0403 14:55:20.925693 13775 layer_factory.hpp:77] Creating layer inception_4a/relu_pool_proj
I0403 14:55:20.925714 13775 net.cpp:91] Creating Layer inception_4a/relu_pool_proj
I0403 14:55:20.925732 13775 net.cpp:425] inception_4a/relu_pool_proj <- inception_4a/pool_proj
I0403 14:55:20.925750 13775 net.cpp:386] inception_4a/relu_pool_proj -> inception_4a/pool_proj (in-place)
I0403 14:55:20.926033 13775 net.cpp:141] Setting up inception_4a/relu_pool_proj
I0403 14:55:20.926059 13775 net.cpp:148] Top shape: 24 64 14 14 (301056)
I0403 14:55:20.926075 13775 net.cpp:156] Memory required for data: 886912032
I0403 14:55:20.926090 13775 layer_factory.hpp:77] Creating layer inception_4a/output
I0403 14:55:20.926107 13775 net.cpp:91] Creating Layer inception_4a/output
I0403 14:55:20.926125 13775 net.cpp:425] inception_4a/output <- inception_4a/1x1
I0403 14:55:20.926141 13775 net.cpp:425] inception_4a/output <- inception_4a/3x3
I0403 14:55:20.926162 13775 net.cpp:425] inception_4a/output <- inception_4a/5x5
I0403 14:55:20.926177 13775 net.cpp:425] inception_4a/output <- inception_4a/pool_proj
I0403 14:55:20.926194 13775 net.cpp:399] inception_4a/output -> inception_4a/output
I0403 14:55:20.926236 13775 net.cpp:141] Setting up inception_4a/output
I0403 14:55:20.926266 13775 net.cpp:148] Top shape: 24 512 14 14 (2408448)
I0403 14:55:20.926282 13775 net.cpp:156] Memory required for data: 896545824
I0403 14:55:20.926296 13775 layer_factory.hpp:77] Creating layer inception_4a/output_inception_4a/output_0_split
I0403 14:55:20.926313 13775 net.cpp:91] Creating Layer inception_4a/output_inception_4a/output_0_split
I0403 14:55:20.926328 13775 net.cpp:425] inception_4a/output_inception_4a/output_0_split <- inception_4a/output
I0403 14:55:20.926348 13775 net.cpp:399] inception_4a/output_inception_4a/output_0_split -> inception_4a/output_inception_4a/output_0_split_0
I0403 14:55:20.926369 13775 net.cpp:399] inception_4a/output_inception_4a/output_0_split -> inception_4a/output_inception_4a/output_0_split_1
I0403 14:55:20.926389 13775 net.cpp:399] inception_4a/output_inception_4a/output_0_split -> inception_4a/output_inception_4a/output_0_split_2
I0403 14:55:20.926409 13775 net.cpp:399] inception_4a/output_inception_4a/output_0_split -> inception_4a/output_inception_4a/output_0_split_3
I0403 14:55:20.926427 13775 net.cpp:399] inception_4a/output_inception_4a/output_0_split -> inception_4a/output_inception_4a/output_0_split_4
I0403 14:55:20.926517 13775 net.cpp:141] Setting up inception_4a/output_inception_4a/output_0_split
I0403 14:55:20.926539 13775 net.cpp:148] Top shape: 24 512 14 14 (2408448)
I0403 14:55:20.926558 13775 net.cpp:148] Top shape: 24 512 14 14 (2408448)
I0403 14:55:20.926578 13775 net.cpp:148] Top shape: 24 512 14 14 (2408448)
I0403 14:55:20.926594 13775 net.cpp:148] Top shape: 24 512 14 14 (2408448)
I0403 14:55:20.926609 13775 net.cpp:148] Top shape: 24 512 14 14 (2408448)
I0403 14:55:20.926622 13775 net.cpp:156] Memory required for data: 944714784
I0403 14:55:20.926636 13775 layer_factory.hpp:77] Creating layer loss1/ave_pool
I0403 14:55:20.926652 13775 net.cpp:91] Creating Layer loss1/ave_pool
I0403 14:55:20.926668 13775 net.cpp:425] loss1/ave_pool <- inception_4a/output_inception_4a/output_0_split_0
I0403 14:55:20.926688 13775 net.cpp:399] loss1/ave_pool -> loss1/ave_pool
I0403 14:55:20.926889 13775 net.cpp:141] Setting up loss1/ave_pool
I0403 14:55:20.926914 13775 net.cpp:148] Top shape: 24 512 4 4 (196608)
I0403 14:55:20.926929 13775 net.cpp:156] Memory required for data: 945501216
I0403 14:55:20.926944 13775 layer_factory.hpp:77] Creating layer loss1/conv
I0403 14:55:20.926964 13775 net.cpp:91] Creating Layer loss1/conv
I0403 14:55:20.926981 13775 net.cpp:425] loss1/conv <- loss1/ave_pool
I0403 14:55:20.927002 13775 net.cpp:399] loss1/conv -> loss1/conv
I0403 14:55:20.928381 13775 net.cpp:141] Setting up loss1/conv
I0403 14:55:20.928409 13775 net.cpp:148] Top shape: 24 128 4 4 (49152)
I0403 14:55:20.928426 13775 net.cpp:156] Memory required for data: 945697824
I0403 14:55:20.928458 13775 layer_factory.hpp:77] Creating layer loss1/relu_conv
I0403 14:55:20.928481 13775 net.cpp:91] Creating Layer loss1/relu_conv
I0403 14:55:20.928500 13775 net.cpp:425] loss1/relu_conv <- loss1/conv
I0403 14:55:20.928517 13775 net.cpp:386] loss1/relu_conv -> loss1/conv (in-place)
I0403 14:55:20.928794 13775 net.cpp:141] Setting up loss1/relu_conv
I0403 14:55:20.928822 13775 net.cpp:148] Top shape: 24 128 4 4 (49152)
I0403 14:55:20.928836 13775 net.cpp:156] Memory required for data: 945894432
I0403 14:55:20.928851 13775 layer_factory.hpp:77] Creating layer loss1/fc
I0403 14:55:20.928879 13775 net.cpp:91] Creating Layer loss1/fc
I0403 14:55:20.928896 13775 net.cpp:425] loss1/fc <- loss1/conv
I0403 14:55:20.928916 13775 net.cpp:399] loss1/fc -> loss1/fc
I0403 14:55:20.946140 13775 net.cpp:141] Setting up loss1/fc
I0403 14:55:20.946173 13775 net.cpp:148] Top shape: 24 1024 (24576)
I0403 14:55:20.946189 13775 net.cpp:156] Memory required for data: 945992736
I0403 14:55:20.946208 13775 layer_factory.hpp:77] Creating layer loss1/relu_fc
I0403 14:55:20.946225 13775 net.cpp:91] Creating Layer loss1/relu_fc
I0403 14:55:20.946250 13775 net.cpp:425] loss1/relu_fc <- loss1/fc
I0403 14:55:20.946271 13775 net.cpp:386] loss1/relu_fc -> loss1/fc (in-place)
I0403 14:55:20.946456 13775 net.cpp:141] Setting up loss1/relu_fc
I0403 14:55:20.946485 13775 net.cpp:148] Top shape: 24 1024 (24576)
I0403 14:55:20.946501 13775 net.cpp:156] Memory required for data: 946091040
I0403 14:55:20.946516 13775 layer_factory.hpp:77] Creating layer loss1/drop_fc
I0403 14:55:20.946552 13775 net.cpp:91] Creating Layer loss1/drop_fc
I0403 14:55:20.946573 13775 net.cpp:425] loss1/drop_fc <- loss1/fc
I0403 14:55:20.946593 13775 net.cpp:386] loss1/drop_fc -> loss1/fc (in-place)
I0403 14:55:20.946645 13775 net.cpp:141] Setting up loss1/drop_fc
I0403 14:55:20.946669 13775 net.cpp:148] Top shape: 24 1024 (24576)
I0403 14:55:20.946684 13775 net.cpp:156] Memory required for data: 946189344
I0403 14:55:20.946699 13775 layer_factory.hpp:77] Creating layer loss1/classifier_plantvillage
I0403 14:55:20.946717 13775 net.cpp:91] Creating Layer loss1/classifier_plantvillage
I0403 14:55:20.946732 13775 net.cpp:425] loss1/classifier_plantvillage <- loss1/fc
I0403 14:55:20.946751 13775 net.cpp:399] loss1/classifier_plantvillage -> loss1/classifier_plantvillage
I0403 14:55:20.947679 13775 net.cpp:141] Setting up loss1/classifier_plantvillage
I0403 14:55:20.947706 13775 net.cpp:148] Top shape: 24 38 (912)
I0403 14:55:20.947721 13775 net.cpp:156] Memory required for data: 946192992
I0403 14:55:20.947738 13775 layer_factory.hpp:77] Creating layer loss1/classifier_plantvillage_loss1/classifier_plantvillage_0_split
I0403 14:55:20.947758 13775 net.cpp:91] Creating Layer loss1/classifier_plantvillage_loss1/classifier_plantvillage_0_split
I0403 14:55:20.947774 13775 net.cpp:425] loss1/classifier_plantvillage_loss1/classifier_plantvillage_0_split <- loss1/classifier_plantvillage
I0403 14:55:20.947791 13775 net.cpp:399] loss1/classifier_plantvillage_loss1/classifier_plantvillage_0_split -> loss1/classifier_plantvillage_loss1/classifier_plantvillage_0_split_0
I0403 14:55:20.947811 13775 net.cpp:399] loss1/classifier_plantvillage_loss1/classifier_plantvillage_0_split -> loss1/classifier_plantvillage_loss1/classifier_plantvillage_0_split_1
I0403 14:55:20.947830 13775 net.cpp:399] loss1/classifier_plantvillage_loss1/classifier_plantvillage_0_split -> loss1/classifier_plantvillage_loss1/classifier_plantvillage_0_split_2
I0403 14:55:20.947898 13775 net.cpp:141] Setting up loss1/classifier_plantvillage_loss1/classifier_plantvillage_0_split
I0403 14:55:20.947921 13775 net.cpp:148] Top shape: 24 38 (912)
I0403 14:55:20.947937 13775 net.cpp:148] Top shape: 24 38 (912)
I0403 14:55:20.947952 13775 net.cpp:148] Top shape: 24 38 (912)
I0403 14:55:20.947964 13775 net.cpp:156] Memory required for data: 946203936
I0403 14:55:20.947978 13775 layer_factory.hpp:77] Creating layer inception_4b/1x1
I0403 14:55:20.948000 13775 net.cpp:91] Creating Layer inception_4b/1x1
I0403 14:55:20.948034 13775 net.cpp:425] inception_4b/1x1 <- inception_4a/output_inception_4a/output_0_split_1
I0403 14:55:20.948052 13775 net.cpp:399] inception_4b/1x1 -> inception_4b/1x1
I0403 14:55:20.949657 13775 net.cpp:141] Setting up inception_4b/1x1
I0403 14:55:20.949687 13775 net.cpp:148] Top shape: 24 160 14 14 (752640)
I0403 14:55:20.949703 13775 net.cpp:156] Memory required for data: 949214496
I0403 14:55:20.949725 13775 layer_factory.hpp:77] Creating layer inception_4b/relu_1x1
I0403 14:55:20.949746 13775 net.cpp:91] Creating Layer inception_4b/relu_1x1
I0403 14:55:20.949762 13775 net.cpp:425] inception_4b/relu_1x1 <- inception_4b/1x1
I0403 14:55:20.949779 13775 net.cpp:386] inception_4b/relu_1x1 -> inception_4b/1x1 (in-place)
I0403 14:55:20.949957 13775 net.cpp:141] Setting up inception_4b/relu_1x1
I0403 14:55:20.949983 13775 net.cpp:148] Top shape: 24 160 14 14 (752640)
I0403 14:55:20.949998 13775 net.cpp:156] Memory required for data: 952225056
I0403 14:55:20.950013 13775 layer_factory.hpp:77] Creating layer inception_4b/3x3_reduce
I0403 14:55:20.950034 13775 net.cpp:91] Creating Layer inception_4b/3x3_reduce
I0403 14:55:20.950052 13775 net.cpp:425] inception_4b/3x3_reduce <- inception_4a/output_inception_4a/output_0_split_2
I0403 14:55:20.950073 13775 net.cpp:399] inception_4b/3x3_reduce -> inception_4b/3x3_reduce
I0403 14:55:20.951390 13775 net.cpp:141] Setting up inception_4b/3x3_reduce
I0403 14:55:20.951418 13775 net.cpp:148] Top shape: 24 112 14 14 (526848)
I0403 14:55:20.951436 13775 net.cpp:156] Memory required for data: 954332448
I0403 14:55:20.951453 13775 layer_factory.hpp:77] Creating layer inception_4b/relu_3x3_reduce
I0403 14:55:20.951472 13775 net.cpp:91] Creating Layer inception_4b/relu_3x3_reduce
I0403 14:55:20.951488 13775 net.cpp:425] inception_4b/relu_3x3_reduce <- inception_4b/3x3_reduce
I0403 14:55:20.951511 13775 net.cpp:386] inception_4b/relu_3x3_reduce -> inception_4b/3x3_reduce (in-place)
I0403 14:55:20.951794 13775 net.cpp:141] Setting up inception_4b/relu_3x3_reduce
I0403 14:55:20.951820 13775 net.cpp:148] Top shape: 24 112 14 14 (526848)
I0403 14:55:20.951835 13775 net.cpp:156] Memory required for data: 956439840
I0403 14:55:20.951849 13775 layer_factory.hpp:77] Creating layer inception_4b/3x3
I0403 14:55:20.951870 13775 net.cpp:91] Creating Layer inception_4b/3x3
I0403 14:55:20.951889 13775 net.cpp:425] inception_4b/3x3 <- inception_4b/3x3_reduce
I0403 14:55:20.951908 13775 net.cpp:399] inception_4b/3x3 -> inception_4b/3x3
I0403 14:55:20.954814 13775 net.cpp:141] Setting up inception_4b/3x3
I0403 14:55:20.954843 13775 net.cpp:148] Top shape: 24 224 14 14 (1053696)
I0403 14:55:20.954859 13775 net.cpp:156] Memory required for data: 960654624
I0403 14:55:20.954877 13775 layer_factory.hpp:77] Creating layer inception_4b/relu_3x3
I0403 14:55:20.954897 13775 net.cpp:91] Creating Layer inception_4b/relu_3x3
I0403 14:55:20.954916 13775 net.cpp:425] inception_4b/relu_3x3 <- inception_4b/3x3
I0403 14:55:20.954934 13775 net.cpp:386] inception_4b/relu_3x3 -> inception_4b/3x3 (in-place)
I0403 14:55:20.955107 13775 net.cpp:141] Setting up inception_4b/relu_3x3
I0403 14:55:20.955137 13775 net.cpp:148] Top shape: 24 224 14 14 (1053696)
I0403 14:55:20.955153 13775 net.cpp:156] Memory required for data: 964869408
I0403 14:55:20.955168 13775 layer_factory.hpp:77] Creating layer inception_4b/5x5_reduce
I0403 14:55:20.955189 13775 net.cpp:91] Creating Layer inception_4b/5x5_reduce
I0403 14:55:20.955206 13775 net.cpp:425] inception_4b/5x5_reduce <- inception_4a/output_inception_4a/output_0_split_3
I0403 14:55:20.955225 13775 net.cpp:399] inception_4b/5x5_reduce -> inception_4b/5x5_reduce
I0403 14:55:20.956284 13775 net.cpp:141] Setting up inception_4b/5x5_reduce
I0403 14:55:20.956315 13775 net.cpp:148] Top shape: 24 24 14 14 (112896)
I0403 14:55:20.956332 13775 net.cpp:156] Memory required for data: 965320992
I0403 14:55:20.956351 13775 layer_factory.hpp:77] Creating layer inception_4b/relu_5x5_reduce
I0403 14:55:20.956369 13775 net.cpp:91] Creating Layer inception_4b/relu_5x5_reduce
I0403 14:55:20.956401 13775 net.cpp:425] inception_4b/relu_5x5_reduce <- inception_4b/5x5_reduce
I0403 14:55:20.956423 13775 net.cpp:386] inception_4b/relu_5x5_reduce -> inception_4b/5x5_reduce (in-place)
I0403 14:55:20.956605 13775 net.cpp:141] Setting up inception_4b/relu_5x5_reduce
I0403 14:55:20.956632 13775 net.cpp:148] Top shape: 24 24 14 14 (112896)
I0403 14:55:20.956646 13775 net.cpp:156] Memory required for data: 965772576
I0403 14:55:20.956661 13775 layer_factory.hpp:77] Creating layer inception_4b/5x5
I0403 14:55:20.956683 13775 net.cpp:91] Creating Layer inception_4b/5x5
I0403 14:55:20.956701 13775 net.cpp:425] inception_4b/5x5 <- inception_4b/5x5_reduce
I0403 14:55:20.956722 13775 net.cpp:399] inception_4b/5x5 -> inception_4b/5x5
I0403 14:55:20.957917 13775 net.cpp:141] Setting up inception_4b/5x5
I0403 14:55:20.957945 13775 net.cpp:148] Top shape: 24 64 14 14 (301056)
I0403 14:55:20.957962 13775 net.cpp:156] Memory required for data: 966976800
I0403 14:55:20.957983 13775 layer_factory.hpp:77] Creating layer inception_4b/relu_5x5
I0403 14:55:20.958001 13775 net.cpp:91] Creating Layer inception_4b/relu_5x5
I0403 14:55:20.958017 13775 net.cpp:425] inception_4b/relu_5x5 <- inception_4b/5x5
I0403 14:55:20.958035 13775 net.cpp:386] inception_4b/relu_5x5 -> inception_4b/5x5 (in-place)
I0403 14:55:20.958314 13775 net.cpp:141] Setting up inception_4b/relu_5x5
I0403 14:55:20.958343 13775 net.cpp:148] Top shape: 24 64 14 14 (301056)
I0403 14:55:20.958358 13775 net.cpp:156] Memory required for data: 968181024
I0403 14:55:20.958371 13775 layer_factory.hpp:77] Creating layer inception_4b/pool
I0403 14:55:20.958391 13775 net.cpp:91] Creating Layer inception_4b/pool
I0403 14:55:20.958408 13775 net.cpp:425] inception_4b/pool <- inception_4a/output_inception_4a/output_0_split_4
I0403 14:55:20.958428 13775 net.cpp:399] inception_4b/pool -> inception_4b/pool
I0403 14:55:20.958492 13775 net.cpp:141] Setting up inception_4b/pool
I0403 14:55:20.958516 13775 net.cpp:148] Top shape: 24 512 14 14 (2408448)
I0403 14:55:20.958530 13775 net.cpp:156] Memory required for data: 977814816
I0403 14:55:20.958544 13775 layer_factory.hpp:77] Creating layer inception_4b/pool_proj
I0403 14:55:20.958565 13775 net.cpp:91] Creating Layer inception_4b/pool_proj
I0403 14:55:20.958587 13775 net.cpp:425] inception_4b/pool_proj <- inception_4b/pool
I0403 14:55:20.958608 13775 net.cpp:399] inception_4b/pool_proj -> inception_4b/pool_proj
I0403 14:55:20.959780 13775 net.cpp:141] Setting up inception_4b/pool_proj
I0403 14:55:20.959810 13775 net.cpp:148] Top shape: 24 64 14 14 (301056)
I0403 14:55:20.959826 13775 net.cpp:156] Memory required for data: 979019040
I0403 14:55:20.959843 13775 layer_factory.hpp:77] Creating layer inception_4b/relu_pool_proj
I0403 14:55:20.959861 13775 net.cpp:91] Creating Layer inception_4b/relu_pool_proj
I0403 14:55:20.959877 13775 net.cpp:425] inception_4b/relu_pool_proj <- inception_4b/pool_proj
I0403 14:55:20.959897 13775 net.cpp:386] inception_4b/relu_pool_proj -> inception_4b/pool_proj (in-place)
I0403 14:55:20.960070 13775 net.cpp:141] Setting up inception_4b/relu_pool_proj
I0403 14:55:20.960094 13775 net.cpp:148] Top shape: 24 64 14 14 (301056)
I0403 14:55:20.960109 13775 net.cpp:156] Memory required for data: 980223264
I0403 14:55:20.960124 13775 layer_factory.hpp:77] Creating layer inception_4b/output
I0403 14:55:20.960140 13775 net.cpp:91] Creating Layer inception_4b/output
I0403 14:55:20.960155 13775 net.cpp:425] inception_4b/output <- inception_4b/1x1
I0403 14:55:20.960171 13775 net.cpp:425] inception_4b/output <- inception_4b/3x3
I0403 14:55:20.960187 13775 net.cpp:425] inception_4b/output <- inception_4b/5x5
I0403 14:55:20.960201 13775 net.cpp:425] inception_4b/output <- inception_4b/pool_proj
I0403 14:55:20.960221 13775 net.cpp:399] inception_4b/output -> inception_4b/output
I0403 14:55:20.960263 13775 net.cpp:141] Setting up inception_4b/output
I0403 14:55:20.960289 13775 net.cpp:148] Top shape: 24 512 14 14 (2408448)
I0403 14:55:20.960304 13775 net.cpp:156] Memory required for data: 989857056
I0403 14:55:20.960332 13775 layer_factory.hpp:77] Creating layer inception_4b/output_inception_4b/output_0_split
I0403 14:55:20.960350 13775 net.cpp:91] Creating Layer inception_4b/output_inception_4b/output_0_split
I0403 14:55:20.960364 13775 net.cpp:425] inception_4b/output_inception_4b/output_0_split <- inception_4b/output
I0403 14:55:20.960381 13775 net.cpp:399] inception_4b/output_inception_4b/output_0_split -> inception_4b/output_inception_4b/output_0_split_0
I0403 14:55:20.960402 13775 net.cpp:399] inception_4b/output_inception_4b/output_0_split -> inception_4b/output_inception_4b/output_0_split_1
I0403 14:55:20.960423 13775 net.cpp:399] inception_4b/output_inception_4b/output_0_split -> inception_4b/output_inception_4b/output_0_split_2
I0403 14:55:20.960444 13775 net.cpp:399] inception_4b/output_inception_4b/output_0_split -> inception_4b/output_inception_4b/output_0_split_3
I0403 14:55:20.960526 13775 net.cpp:141] Setting up inception_4b/output_inception_4b/output_0_split
I0403 14:55:20.960549 13775 net.cpp:148] Top shape: 24 512 14 14 (2408448)
I0403 14:55:20.960566 13775 net.cpp:148] Top shape: 24 512 14 14 (2408448)
I0403 14:55:20.960585 13775 net.cpp:148] Top shape: 24 512 14 14 (2408448)
I0403 14:55:20.960600 13775 net.cpp:148] Top shape: 24 512 14 14 (2408448)
I0403 14:55:20.960613 13775 net.cpp:156] Memory required for data: 1028392224
I0403 14:55:20.960628 13775 layer_factory.hpp:77] Creating layer inception_4c/1x1
I0403 14:55:20.960650 13775 net.cpp:91] Creating Layer inception_4c/1x1
I0403 14:55:20.960667 13775 net.cpp:425] inception_4c/1x1 <- inception_4b/output_inception_4b/output_0_split_0
I0403 14:55:20.960685 13775 net.cpp:399] inception_4c/1x1 -> inception_4c/1x1
I0403 14:55:20.962113 13775 net.cpp:141] Setting up inception_4c/1x1
I0403 14:55:20.962141 13775 net.cpp:148] Top shape: 24 128 14 14 (602112)
I0403 14:55:20.962157 13775 net.cpp:156] Memory required for data: 1030800672
I0403 14:55:20.962175 13775 layer_factory.hpp:77] Creating layer inception_4c/relu_1x1
I0403 14:55:20.962198 13775 net.cpp:91] Creating Layer inception_4c/relu_1x1
I0403 14:55:20.962218 13775 net.cpp:425] inception_4c/relu_1x1 <- inception_4c/1x1
I0403 14:55:20.962234 13775 net.cpp:386] inception_4c/relu_1x1 -> inception_4c/1x1 (in-place)
I0403 14:55:20.962421 13775 net.cpp:141] Setting up inception_4c/relu_1x1
I0403 14:55:20.962445 13775 net.cpp:148] Top shape: 24 128 14 14 (602112)
I0403 14:55:20.962460 13775 net.cpp:156] Memory required for data: 1033209120
I0403 14:55:20.962473 13775 layer_factory.hpp:77] Creating layer inception_4c/3x3_reduce
I0403 14:55:20.962496 13775 net.cpp:91] Creating Layer inception_4c/3x3_reduce
I0403 14:55:20.962512 13775 net.cpp:425] inception_4c/3x3_reduce <- inception_4b/output_inception_4b/output_0_split_1
I0403 14:55:20.962534 13775 net.cpp:399] inception_4c/3x3_reduce -> inception_4c/3x3_reduce
I0403 14:55:20.964465 13775 net.cpp:141] Setting up inception_4c/3x3_reduce
I0403 14:55:20.964496 13775 net.cpp:148] Top shape: 24 128 14 14 (602112)
I0403 14:55:20.964514 13775 net.cpp:156] Memory required for data: 1035617568
I0403 14:55:20.964534 13775 layer_factory.hpp:77] Creating layer inception_4c/relu_3x3_reduce
I0403 14:55:20.964552 13775 net.cpp:91] Creating Layer inception_4c/relu_3x3_reduce
I0403 14:55:20.964579 13775 net.cpp:425] inception_4c/relu_3x3_reduce <- inception_4c/3x3_reduce
I0403 14:55:20.964602 13775 net.cpp:386] inception_4c/relu_3x3_reduce -> inception_4c/3x3_reduce (in-place)
I0403 14:55:20.964891 13775 net.cpp:141] Setting up inception_4c/relu_3x3_reduce
I0403 14:55:20.964925 13775 net.cpp:148] Top shape: 24 128 14 14 (602112)
I0403 14:55:20.964941 13775 net.cpp:156] Memory required for data: 1038026016
I0403 14:55:20.964957 13775 layer_factory.hpp:77] Creating layer inception_4c/3x3
I0403 14:55:20.964982 13775 net.cpp:91] Creating Layer inception_4c/3x3
I0403 14:55:20.965000 13775 net.cpp:425] inception_4c/3x3 <- inception_4c/3x3_reduce
I0403 14:55:20.965019 13775 net.cpp:399] inception_4c/3x3 -> inception_4c/3x3
I0403 14:55:20.968629 13775 net.cpp:141] Setting up inception_4c/3x3
I0403 14:55:20.968674 13775 net.cpp:148] Top shape: 24 256 14 14 (1204224)
I0403 14:55:20.968693 13775 net.cpp:156] Memory required for data: 1042842912
I0403 14:55:20.968725 13775 layer_factory.hpp:77] Creating layer inception_4c/relu_3x3
I0403 14:55:20.968747 13775 net.cpp:91] Creating Layer inception_4c/relu_3x3
I0403 14:55:20.968765 13775 net.cpp:425] inception_4c/relu_3x3 <- inception_4c/3x3
I0403 14:55:20.968786 13775 net.cpp:386] inception_4c/relu_3x3 -> inception_4c/3x3 (in-place)
I0403 14:55:20.968966 13775 net.cpp:141] Setting up inception_4c/relu_3x3
I0403 14:55:20.968996 13775 net.cpp:148] Top shape: 24 256 14 14 (1204224)
I0403 14:55:20.969012 13775 net.cpp:156] Memory required for data: 1047659808
I0403 14:55:20.969027 13775 layer_factory.hpp:77] Creating layer inception_4c/5x5_reduce
I0403 14:55:20.969050 13775 net.cpp:91] Creating Layer inception_4c/5x5_reduce
I0403 14:55:20.969069 13775 net.cpp:425] inception_4c/5x5_reduce <- inception_4b/output_inception_4b/output_0_split_2
I0403 14:55:20.969089 13775 net.cpp:399] inception_4c/5x5_reduce -> inception_4c/5x5_reduce
I0403 14:55:20.970190 13775 net.cpp:141] Setting up inception_4c/5x5_reduce
I0403 14:55:20.970221 13775 net.cpp:148] Top shape: 24 24 14 14 (112896)
I0403 14:55:20.970238 13775 net.cpp:156] Memory required for data: 1048111392
I0403 14:55:20.970257 13775 layer_factory.hpp:77] Creating layer inception_4c/relu_5x5_reduce
I0403 14:55:20.970276 13775 net.cpp:91] Creating Layer inception_4c/relu_5x5_reduce
I0403 14:55:20.970294 13775 net.cpp:425] inception_4c/relu_5x5_reduce <- inception_4c/5x5_reduce
I0403 14:55:20.970312 13775 net.cpp:386] inception_4c/relu_5x5_reduce -> inception_4c/5x5_reduce (in-place)
I0403 14:55:20.970502 13775 net.cpp:141] Setting up inception_4c/relu_5x5_reduce
I0403 14:55:20.970528 13775 net.cpp:148] Top shape: 24 24 14 14 (112896)
I0403 14:55:20.970544 13775 net.cpp:156] Memory required for data: 1048562976
I0403 14:55:20.970561 13775 layer_factory.hpp:77] Creating layer inception_4c/5x5
I0403 14:55:20.970590 13775 net.cpp:91] Creating Layer inception_4c/5x5
I0403 14:55:20.970612 13775 net.cpp:425] inception_4c/5x5 <- inception_4c/5x5_reduce
I0403 14:55:20.970633 13775 net.cpp:399] inception_4c/5x5 -> inception_4c/5x5
I0403 14:55:20.971879 13775 net.cpp:141] Setting up inception_4c/5x5
I0403 14:55:20.971909 13775 net.cpp:148] Top shape: 24 64 14 14 (301056)
I0403 14:55:20.971925 13775 net.cpp:156] Memory required for data: 1049767200
I0403 14:55:20.971945 13775 layer_factory.hpp:77] Creating layer inception_4c/relu_5x5
I0403 14:55:20.971962 13775 net.cpp:91] Creating Layer inception_4c/relu_5x5
I0403 14:55:20.971981 13775 net.cpp:425] inception_4c/relu_5x5 <- inception_4c/5x5
I0403 14:55:20.972000 13775 net.cpp:386] inception_4c/relu_5x5 -> inception_4c/5x5 (in-place)
I0403 14:55:20.972291 13775 net.cpp:141] Setting up inception_4c/relu_5x5
I0403 14:55:20.972318 13775 net.cpp:148] Top shape: 24 64 14 14 (301056)
I0403 14:55:20.972333 13775 net.cpp:156] Memory required for data: 1050971424
I0403 14:55:20.972350 13775 layer_factory.hpp:77] Creating layer inception_4c/pool
I0403 14:55:20.972369 13775 net.cpp:91] Creating Layer inception_4c/pool
I0403 14:55:20.972386 13775 net.cpp:425] inception_4c/pool <- inception_4b/output_inception_4b/output_0_split_3
I0403 14:55:20.972407 13775 net.cpp:399] inception_4c/pool -> inception_4c/pool
I0403 14:55:20.972475 13775 net.cpp:141] Setting up inception_4c/pool
I0403 14:55:20.972498 13775 net.cpp:148] Top shape: 24 512 14 14 (2408448)
I0403 14:55:20.972513 13775 net.cpp:156] Memory required for data: 1060605216
I0403 14:55:20.972527 13775 layer_factory.hpp:77] Creating layer inception_4c/pool_proj
I0403 14:55:20.972551 13775 net.cpp:91] Creating Layer inception_4c/pool_proj
I0403 14:55:20.972573 13775 net.cpp:425] inception_4c/pool_proj <- inception_4c/pool
I0403 14:55:20.972594 13775 net.cpp:399] inception_4c/pool_proj -> inception_4c/pool_proj
I0403 14:55:20.973826 13775 net.cpp:141] Setting up inception_4c/pool_proj
I0403 14:55:20.973857 13775 net.cpp:148] Top shape: 24 64 14 14 (301056)
I0403 14:55:20.973888 13775 net.cpp:156] Memory required for data: 1061809440
I0403 14:55:20.973908 13775 layer_factory.hpp:77] Creating layer inception_4c/relu_pool_proj
I0403 14:55:20.973928 13775 net.cpp:91] Creating Layer inception_4c/relu_pool_proj
I0403 14:55:20.973947 13775 net.cpp:425] inception_4c/relu_pool_proj <- inception_4c/pool_proj
I0403 14:55:20.973968 13775 net.cpp:386] inception_4c/relu_pool_proj -> inception_4c/pool_proj (in-place)
I0403 14:55:20.974154 13775 net.cpp:141] Setting up inception_4c/relu_pool_proj
I0403 14:55:20.974180 13775 net.cpp:148] Top shape: 24 64 14 14 (301056)
I0403 14:55:20.974195 13775 net.cpp:156] Memory required for data: 1063013664
I0403 14:55:20.974210 13775 layer_factory.hpp:77] Creating layer inception_4c/output
I0403 14:55:20.974226 13775 net.cpp:91] Creating Layer inception_4c/output
I0403 14:55:20.974241 13775 net.cpp:425] inception_4c/output <- inception_4c/1x1
I0403 14:55:20.974257 13775 net.cpp:425] inception_4c/output <- inception_4c/3x3
I0403 14:55:20.974273 13775 net.cpp:425] inception_4c/output <- inception_4c/5x5
I0403 14:55:20.974289 13775 net.cpp:425] inception_4c/output <- inception_4c/pool_proj
I0403 14:55:20.974310 13775 net.cpp:399] inception_4c/output -> inception_4c/output
I0403 14:55:20.974357 13775 net.cpp:141] Setting up inception_4c/output
I0403 14:55:20.974382 13775 net.cpp:148] Top shape: 24 512 14 14 (2408448)
I0403 14:55:20.974398 13775 net.cpp:156] Memory required for data: 1072647456
I0403 14:55:20.974412 13775 layer_factory.hpp:77] Creating layer inception_4c/output_inception_4c/output_0_split
I0403 14:55:20.974431 13775 net.cpp:91] Creating Layer inception_4c/output_inception_4c/output_0_split
I0403 14:55:20.974445 13775 net.cpp:425] inception_4c/output_inception_4c/output_0_split <- inception_4c/output
I0403 14:55:20.974462 13775 net.cpp:399] inception_4c/output_inception_4c/output_0_split -> inception_4c/output_inception_4c/output_0_split_0
I0403 14:55:20.974484 13775 net.cpp:399] inception_4c/output_inception_4c/output_0_split -> inception_4c/output_inception_4c/output_0_split_1
I0403 14:55:20.974505 13775 net.cpp:399] inception_4c/output_inception_4c/output_0_split -> inception_4c/output_inception_4c/output_0_split_2
I0403 14:55:20.974524 13775 net.cpp:399] inception_4c/output_inception_4c/output_0_split -> inception_4c/output_inception_4c/output_0_split_3
I0403 14:55:20.974632 13775 net.cpp:141] Setting up inception_4c/output_inception_4c/output_0_split
I0403 14:55:20.974668 13775 net.cpp:148] Top shape: 24 512 14 14 (2408448)
I0403 14:55:20.974684 13775 net.cpp:148] Top shape: 24 512 14 14 (2408448)
I0403 14:55:20.974699 13775 net.cpp:148] Top shape: 24 512 14 14 (2408448)
I0403 14:55:20.974714 13775 net.cpp:148] Top shape: 24 512 14 14 (2408448)
I0403 14:55:20.974727 13775 net.cpp:156] Memory required for data: 1111182624
I0403 14:55:20.974742 13775 layer_factory.hpp:77] Creating layer inception_4d/1x1
I0403 14:55:20.974764 13775 net.cpp:91] Creating Layer inception_4d/1x1
I0403 14:55:20.974784 13775 net.cpp:425] inception_4d/1x1 <- inception_4c/output_inception_4c/output_0_split_0
I0403 14:55:20.974802 13775 net.cpp:399] inception_4d/1x1 -> inception_4d/1x1
I0403 14:55:20.976199 13775 net.cpp:141] Setting up inception_4d/1x1
I0403 14:55:20.976229 13775 net.cpp:148] Top shape: 24 112 14 14 (526848)
I0403 14:55:20.976245 13775 net.cpp:156] Memory required for data: 1113290016
I0403 14:55:20.976265 13775 layer_factory.hpp:77] Creating layer inception_4d/relu_1x1
I0403 14:55:20.976289 13775 net.cpp:91] Creating Layer inception_4d/relu_1x1
I0403 14:55:20.976306 13775 net.cpp:425] inception_4d/relu_1x1 <- inception_4d/1x1
I0403 14:55:20.976325 13775 net.cpp:386] inception_4d/relu_1x1 -> inception_4d/1x1 (in-place)
I0403 14:55:20.976508 13775 net.cpp:141] Setting up inception_4d/relu_1x1
I0403 14:55:20.976537 13775 net.cpp:148] Top shape: 24 112 14 14 (526848)
I0403 14:55:20.976554 13775 net.cpp:156] Memory required for data: 1115397408
I0403 14:55:20.976573 13775 layer_factory.hpp:77] Creating layer inception_4d/3x3_reduce
I0403 14:55:20.976610 13775 net.cpp:91] Creating Layer inception_4d/3x3_reduce
I0403 14:55:20.976630 13775 net.cpp:425] inception_4d/3x3_reduce <- inception_4c/output_inception_4c/output_0_split_1
I0403 14:55:20.976649 13775 net.cpp:399] inception_4d/3x3_reduce -> inception_4d/3x3_reduce
I0403 14:55:20.978175 13775 net.cpp:141] Setting up inception_4d/3x3_reduce
I0403 14:55:20.978204 13775 net.cpp:148] Top shape: 24 144 14 14 (677376)
I0403 14:55:20.978220 13775 net.cpp:156] Memory required for data: 1118106912
I0403 14:55:20.978240 13775 layer_factory.hpp:77] Creating layer inception_4d/relu_3x3_reduce
I0403 14:55:20.978260 13775 net.cpp:91] Creating Layer inception_4d/relu_3x3_reduce
I0403 14:55:20.978279 13775 net.cpp:425] inception_4d/relu_3x3_reduce <- inception_4d/3x3_reduce
I0403 14:55:20.978297 13775 net.cpp:386] inception_4d/relu_3x3_reduce -> inception_4d/3x3_reduce (in-place)
I0403 14:55:20.978592 13775 net.cpp:141] Setting up inception_4d/relu_3x3_reduce
I0403 14:55:20.978621 13775 net.cpp:148] Top shape: 24 144 14 14 (677376)
I0403 14:55:20.978636 13775 net.cpp:156] Memory required for data: 1120816416
I0403 14:55:20.978652 13775 layer_factory.hpp:77] Creating layer inception_4d/3x3
I0403 14:55:20.978677 13775 net.cpp:91] Creating Layer inception_4d/3x3
I0403 14:55:20.978695 13775 net.cpp:425] inception_4d/3x3 <- inception_4d/3x3_reduce
I0403 14:55:20.978716 13775 net.cpp:399] inception_4d/3x3 -> inception_4d/3x3
I0403 14:55:20.983006 13775 net.cpp:141] Setting up inception_4d/3x3
I0403 14:55:20.983037 13775 net.cpp:148] Top shape: 24 288 14 14 (1354752)
I0403 14:55:20.983052 13775 net.cpp:156] Memory required for data: 1126235424
I0403 14:55:20.983070 13775 layer_factory.hpp:77] Creating layer inception_4d/relu_3x3
I0403 14:55:20.983090 13775 net.cpp:91] Creating Layer inception_4d/relu_3x3
I0403 14:55:20.983108 13775 net.cpp:425] inception_4d/relu_3x3 <- inception_4d/3x3
I0403 14:55:20.983125 13775 net.cpp:386] inception_4d/relu_3x3 -> inception_4d/3x3 (in-place)
I0403 14:55:20.983312 13775 net.cpp:141] Setting up inception_4d/relu_3x3
I0403 14:55:20.983340 13775 net.cpp:148] Top shape: 24 288 14 14 (1354752)
I0403 14:55:20.983355 13775 net.cpp:156] Memory required for data: 1131654432
I0403 14:55:20.983371 13775 layer_factory.hpp:77] Creating layer inception_4d/5x5_reduce
I0403 14:55:20.983392 13775 net.cpp:91] Creating Layer inception_4d/5x5_reduce
I0403 14:55:20.983410 13775 net.cpp:425] inception_4d/5x5_reduce <- inception_4c/output_inception_4c/output_0_split_2
I0403 14:55:20.983436 13775 net.cpp:399] inception_4d/5x5_reduce -> inception_4d/5x5_reduce
I0403 14:55:20.984602 13775 net.cpp:141] Setting up inception_4d/5x5_reduce
I0403 14:55:20.984632 13775 net.cpp:148] Top shape: 24 32 14 14 (150528)
I0403 14:55:20.984649 13775 net.cpp:156] Memory required for data: 1132256544
I0403 14:55:20.984668 13775 layer_factory.hpp:77] Creating layer inception_4d/relu_5x5_reduce
I0403 14:55:20.984688 13775 net.cpp:91] Creating Layer inception_4d/relu_5x5_reduce
I0403 14:55:20.984707 13775 net.cpp:425] inception_4d/relu_5x5_reduce <- inception_4d/5x5_reduce
I0403 14:55:20.984725 13775 net.cpp:386] inception_4d/relu_5x5_reduce -> inception_4d/5x5_reduce (in-place)
I0403 14:55:20.984912 13775 net.cpp:141] Setting up inception_4d/relu_5x5_reduce
I0403 14:55:20.984941 13775 net.cpp:148] Top shape: 24 32 14 14 (150528)
I0403 14:55:20.984958 13775 net.cpp:156] Memory required for data: 1132858656
I0403 14:55:20.984972 13775 layer_factory.hpp:77] Creating layer inception_4d/5x5
I0403 14:55:20.984997 13775 net.cpp:91] Creating Layer inception_4d/5x5
I0403 14:55:20.985015 13775 net.cpp:425] inception_4d/5x5 <- inception_4d/5x5_reduce
I0403 14:55:20.985034 13775 net.cpp:399] inception_4d/5x5 -> inception_4d/5x5
I0403 14:55:20.986528 13775 net.cpp:141] Setting up inception_4d/5x5
I0403 14:55:20.986557 13775 net.cpp:148] Top shape: 24 64 14 14 (301056)
I0403 14:55:20.986580 13775 net.cpp:156] Memory required for data: 1134062880
I0403 14:55:20.986601 13775 layer_factory.hpp:77] Creating layer inception_4d/relu_5x5
I0403 14:55:20.986637 13775 net.cpp:91] Creating Layer inception_4d/relu_5x5
I0403 14:55:20.986657 13775 net.cpp:425] inception_4d/relu_5x5 <- inception_4d/5x5
I0403 14:55:20.986678 13775 net.cpp:386] inception_4d/relu_5x5 -> inception_4d/5x5 (in-place)
I0403 14:55:20.986984 13775 net.cpp:141] Setting up inception_4d/relu_5x5
I0403 14:55:20.987011 13775 net.cpp:148] Top shape: 24 64 14 14 (301056)
I0403 14:55:20.987026 13775 net.cpp:156] Memory required for data: 1135267104
I0403 14:55:20.987041 13775 layer_factory.hpp:77] Creating layer inception_4d/pool
I0403 14:55:20.987059 13775 net.cpp:91] Creating Layer inception_4d/pool
I0403 14:55:20.987076 13775 net.cpp:425] inception_4d/pool <- inception_4c/output_inception_4c/output_0_split_3
I0403 14:55:20.987095 13775 net.cpp:399] inception_4d/pool -> inception_4d/pool
I0403 14:55:20.987164 13775 net.cpp:141] Setting up inception_4d/pool
I0403 14:55:20.987187 13775 net.cpp:148] Top shape: 24 512 14 14 (2408448)
I0403 14:55:20.987201 13775 net.cpp:156] Memory required for data: 1144900896
I0403 14:55:20.987216 13775 layer_factory.hpp:77] Creating layer inception_4d/pool_proj
I0403 14:55:20.987239 13775 net.cpp:91] Creating Layer inception_4d/pool_proj
I0403 14:55:20.987257 13775 net.cpp:425] inception_4d/pool_proj <- inception_4d/pool
I0403 14:55:20.987275 13775 net.cpp:399] inception_4d/pool_proj -> inception_4d/pool_proj
I0403 14:55:20.989048 13775 net.cpp:141] Setting up inception_4d/pool_proj
I0403 14:55:20.989078 13775 net.cpp:148] Top shape: 24 64 14 14 (301056)
I0403 14:55:20.989094 13775 net.cpp:156] Memory required for data: 1146105120
I0403 14:55:20.989114 13775 layer_factory.hpp:77] Creating layer inception_4d/relu_pool_proj
I0403 14:55:20.989166 13775 net.cpp:91] Creating Layer inception_4d/relu_pool_proj
I0403 14:55:20.989186 13775 net.cpp:425] inception_4d/relu_pool_proj <- inception_4d/pool_proj
I0403 14:55:20.989204 13775 net.cpp:386] inception_4d/relu_pool_proj -> inception_4d/pool_proj (in-place)
I0403 14:55:20.989400 13775 net.cpp:141] Setting up inception_4d/relu_pool_proj
I0403 14:55:20.989441 13775 net.cpp:148] Top shape: 24 64 14 14 (301056)
I0403 14:55:20.989456 13775 net.cpp:156] Memory required for data: 1147309344
I0403 14:55:20.989472 13775 layer_factory.hpp:77] Creating layer inception_4d/output
I0403 14:55:20.989490 13775 net.cpp:91] Creating Layer inception_4d/output
I0403 14:55:20.989506 13775 net.cpp:425] inception_4d/output <- inception_4d/1x1
I0403 14:55:20.989522 13775 net.cpp:425] inception_4d/output <- inception_4d/3x3
I0403 14:55:20.989538 13775 net.cpp:425] inception_4d/output <- inception_4d/5x5
I0403 14:55:20.989553 13775 net.cpp:425] inception_4d/output <- inception_4d/pool_proj
I0403 14:55:20.989578 13775 net.cpp:399] inception_4d/output -> inception_4d/output
I0403 14:55:20.989626 13775 net.cpp:141] Setting up inception_4d/output
I0403 14:55:20.989650 13775 net.cpp:148] Top shape: 24 528 14 14 (2483712)
I0403 14:55:20.989665 13775 net.cpp:156] Memory required for data: 1157244192
I0403 14:55:20.989681 13775 layer_factory.hpp:77] Creating layer inception_4d/output_inception_4d/output_0_split
I0403 14:55:20.989699 13775 net.cpp:91] Creating Layer inception_4d/output_inception_4d/output_0_split
I0403 14:55:20.989717 13775 net.cpp:425] inception_4d/output_inception_4d/output_0_split <- inception_4d/output
I0403 14:55:20.989734 13775 net.cpp:399] inception_4d/output_inception_4d/output_0_split -> inception_4d/output_inception_4d/output_0_split_0
I0403 14:55:20.989758 13775 net.cpp:399] inception_4d/output_inception_4d/output_0_split -> inception_4d/output_inception_4d/output_0_split_1
I0403 14:55:20.989780 13775 net.cpp:399] inception_4d/output_inception_4d/output_0_split -> inception_4d/output_inception_4d/output_0_split_2
I0403 14:55:20.989801 13775 net.cpp:399] inception_4d/output_inception_4d/output_0_split -> inception_4d/output_inception_4d/output_0_split_3
I0403 14:55:20.989821 13775 net.cpp:399] inception_4d/output_inception_4d/output_0_split -> inception_4d/output_inception_4d/output_0_split_4
I0403 14:55:20.989923 13775 net.cpp:141] Setting up inception_4d/output_inception_4d/output_0_split
I0403 14:55:20.989959 13775 net.cpp:148] Top shape: 24 528 14 14 (2483712)
I0403 14:55:20.989977 13775 net.cpp:148] Top shape: 24 528 14 14 (2483712)
I0403 14:55:20.989994 13775 net.cpp:148] Top shape: 24 528 14 14 (2483712)
I0403 14:55:20.990007 13775 net.cpp:148] Top shape: 24 528 14 14 (2483712)
I0403 14:55:20.990022 13775 net.cpp:148] Top shape: 24 528 14 14 (2483712)
I0403 14:55:20.990036 13775 net.cpp:156] Memory required for data: 1206918432
I0403 14:55:20.990051 13775 layer_factory.hpp:77] Creating layer loss2/ave_pool
I0403 14:55:20.990070 13775 net.cpp:91] Creating Layer loss2/ave_pool
I0403 14:55:20.990087 13775 net.cpp:425] loss2/ave_pool <- inception_4d/output_inception_4d/output_0_split_0
I0403 14:55:20.990105 13775 net.cpp:399] loss2/ave_pool -> loss2/ave_pool
I0403 14:55:20.990417 13775 net.cpp:141] Setting up loss2/ave_pool
I0403 14:55:20.990442 13775 net.cpp:148] Top shape: 24 528 4 4 (202752)
I0403 14:55:20.990461 13775 net.cpp:156] Memory required for data: 1207729440
I0403 14:55:20.990476 13775 layer_factory.hpp:77] Creating layer loss2/conv
I0403 14:55:20.990496 13775 net.cpp:91] Creating Layer loss2/conv
I0403 14:55:20.990514 13775 net.cpp:425] loss2/conv <- loss2/ave_pool
I0403 14:55:20.990535 13775 net.cpp:399] loss2/conv -> loss2/conv
I0403 14:55:20.992440 13775 net.cpp:141] Setting up loss2/conv
I0403 14:55:20.992472 13775 net.cpp:148] Top shape: 24 128 4 4 (49152)
I0403 14:55:20.992491 13775 net.cpp:156] Memory required for data: 1207926048
I0403 14:55:20.992511 13775 layer_factory.hpp:77] Creating layer loss2/relu_conv
I0403 14:55:20.992532 13775 net.cpp:91] Creating Layer loss2/relu_conv
I0403 14:55:20.992549 13775 net.cpp:425] loss2/relu_conv <- loss2/conv
I0403 14:55:20.992574 13775 net.cpp:386] loss2/relu_conv -> loss2/conv (in-place)
I0403 14:55:20.992866 13775 net.cpp:141] Setting up loss2/relu_conv
I0403 14:55:20.992894 13775 net.cpp:148] Top shape: 24 128 4 4 (49152)
I0403 14:55:20.992909 13775 net.cpp:156] Memory required for data: 1208122656
I0403 14:55:20.992924 13775 layer_factory.hpp:77] Creating layer loss2/fc
I0403 14:55:20.992944 13775 net.cpp:91] Creating Layer loss2/fc
I0403 14:55:20.992960 13775 net.cpp:425] loss2/fc <- loss2/conv
I0403 14:55:20.992983 13775 net.cpp:399] loss2/fc -> loss2/fc
I0403 14:55:21.010444 13775 net.cpp:141] Setting up loss2/fc
I0403 14:55:21.010478 13775 net.cpp:148] Top shape: 24 1024 (24576)
I0403 14:55:21.010494 13775 net.cpp:156] Memory required for data: 1208220960
I0403 14:55:21.010514 13775 layer_factory.hpp:77] Creating layer loss2/relu_fc
I0403 14:55:21.010536 13775 net.cpp:91] Creating Layer loss2/relu_fc
I0403 14:55:21.010555 13775 net.cpp:425] loss2/relu_fc <- loss2/fc
I0403 14:55:21.010576 13775 net.cpp:386] loss2/relu_fc -> loss2/fc (in-place)
I0403 14:55:21.010896 13775 net.cpp:141] Setting up loss2/relu_fc
I0403 14:55:21.010921 13775 net.cpp:148] Top shape: 24 1024 (24576)
I0403 14:55:21.010936 13775 net.cpp:156] Memory required for data: 1208319264
I0403 14:55:21.010951 13775 layer_factory.hpp:77] Creating layer loss2/drop_fc
I0403 14:55:21.010970 13775 net.cpp:91] Creating Layer loss2/drop_fc
I0403 14:55:21.010987 13775 net.cpp:425] loss2/drop_fc <- loss2/fc
I0403 14:55:21.011003 13775 net.cpp:386] loss2/drop_fc -> loss2/fc (in-place)
I0403 14:55:21.011054 13775 net.cpp:141] Setting up loss2/drop_fc
I0403 14:55:21.011076 13775 net.cpp:148] Top shape: 24 1024 (24576)
I0403 14:55:21.011090 13775 net.cpp:156] Memory required for data: 1208417568
I0403 14:55:21.011104 13775 layer_factory.hpp:77] Creating layer loss2/classifier_plantvillage
I0403 14:55:21.011126 13775 net.cpp:91] Creating Layer loss2/classifier_plantvillage
I0403 14:55:21.011142 13775 net.cpp:425] loss2/classifier_plantvillage <- loss2/fc
I0403 14:55:21.011160 13775 net.cpp:399] loss2/classifier_plantvillage -> loss2/classifier_plantvillage
I0403 14:55:21.011560 13775 net.cpp:141] Setting up loss2/classifier_plantvillage
I0403 14:55:21.011590 13775 net.cpp:148] Top shape: 24 38 (912)
I0403 14:55:21.011605 13775 net.cpp:156] Memory required for data: 1208421216
I0403 14:55:21.011646 13775 layer_factory.hpp:77] Creating layer loss2/classifier_plantvillage_loss2/classifier_plantvillage_0_split
I0403 14:55:21.011665 13775 net.cpp:91] Creating Layer loss2/classifier_plantvillage_loss2/classifier_plantvillage_0_split
I0403 14:55:21.011682 13775 net.cpp:425] loss2/classifier_plantvillage_loss2/classifier_plantvillage_0_split <- loss2/classifier_plantvillage
I0403 14:55:21.011700 13775 net.cpp:399] loss2/classifier_plantvillage_loss2/classifier_plantvillage_0_split -> loss2/classifier_plantvillage_loss2/classifier_plantvillage_0_split_0
I0403 14:55:21.011721 13775 net.cpp:399] loss2/classifier_plantvillage_loss2/classifier_plantvillage_0_split -> loss2/classifier_plantvillage_loss2/classifier_plantvillage_0_split_1
I0403 14:55:21.011741 13775 net.cpp:399] loss2/classifier_plantvillage_loss2/classifier_plantvillage_0_split -> loss2/classifier_plantvillage_loss2/classifier_plantvillage_0_split_2
I0403 14:55:21.011816 13775 net.cpp:141] Setting up loss2/classifier_plantvillage_loss2/classifier_plantvillage_0_split
I0403 14:55:21.011848 13775 net.cpp:148] Top shape: 24 38 (912)
I0403 14:55:21.011865 13775 net.cpp:148] Top shape: 24 38 (912)
I0403 14:55:21.011880 13775 net.cpp:148] Top shape: 24 38 (912)
I0403 14:55:21.011893 13775 net.cpp:156] Memory required for data: 1208432160
I0403 14:55:21.011907 13775 layer_factory.hpp:77] Creating layer inception_4e/1x1
I0403 14:55:21.011927 13775 net.cpp:91] Creating Layer inception_4e/1x1
I0403 14:55:21.011943 13775 net.cpp:425] inception_4e/1x1 <- inception_4d/output_inception_4d/output_0_split_1
I0403 14:55:21.011962 13775 net.cpp:399] inception_4e/1x1 -> inception_4e/1x1
I0403 14:55:21.013770 13775 net.cpp:141] Setting up inception_4e/1x1
I0403 14:55:21.013799 13775 net.cpp:148] Top shape: 24 256 14 14 (1204224)
I0403 14:55:21.013815 13775 net.cpp:156] Memory required for data: 1213249056
I0403 14:55:21.013834 13775 layer_factory.hpp:77] Creating layer inception_4e/relu_1x1
I0403 14:55:21.013852 13775 net.cpp:91] Creating Layer inception_4e/relu_1x1
I0403 14:55:21.013869 13775 net.cpp:425] inception_4e/relu_1x1 <- inception_4e/1x1
I0403 14:55:21.013887 13775 net.cpp:386] inception_4e/relu_1x1 -> inception_4e/1x1 (in-place)
I0403 14:55:21.014180 13775 net.cpp:141] Setting up inception_4e/relu_1x1
I0403 14:55:21.014206 13775 net.cpp:148] Top shape: 24 256 14 14 (1204224)
I0403 14:55:21.014220 13775 net.cpp:156] Memory required for data: 1218065952
I0403 14:55:21.014235 13775 layer_factory.hpp:77] Creating layer inception_4e/3x3_reduce
I0403 14:55:21.014256 13775 net.cpp:91] Creating Layer inception_4e/3x3_reduce
I0403 14:55:21.014274 13775 net.cpp:425] inception_4e/3x3_reduce <- inception_4d/output_inception_4d/output_0_split_2
I0403 14:55:21.014295 13775 net.cpp:399] inception_4e/3x3_reduce -> inception_4e/3x3_reduce
I0403 14:55:21.016410 13775 net.cpp:141] Setting up inception_4e/3x3_reduce
I0403 14:55:21.016443 13775 net.cpp:148] Top shape: 24 160 14 14 (752640)
I0403 14:55:21.016461 13775 net.cpp:156] Memory required for data: 1221076512
I0403 14:55:21.016480 13775 layer_factory.hpp:77] Creating layer inception_4e/relu_3x3_reduce
I0403 14:55:21.016499 13775 net.cpp:91] Creating Layer inception_4e/relu_3x3_reduce
I0403 14:55:21.016515 13775 net.cpp:425] inception_4e/relu_3x3_reduce <- inception_4e/3x3_reduce
I0403 14:55:21.016535 13775 net.cpp:386] inception_4e/relu_3x3_reduce -> inception_4e/3x3_reduce (in-place)
I0403 14:55:21.016721 13775 net.cpp:141] Setting up inception_4e/relu_3x3_reduce
I0403 14:55:21.016746 13775 net.cpp:148] Top shape: 24 160 14 14 (752640)
I0403 14:55:21.016759 13775 net.cpp:156] Memory required for data: 1224087072
I0403 14:55:21.016773 13775 layer_factory.hpp:77] Creating layer inception_4e/3x3
I0403 14:55:21.016795 13775 net.cpp:91] Creating Layer inception_4e/3x3
I0403 14:55:21.016813 13775 net.cpp:425] inception_4e/3x3 <- inception_4e/3x3_reduce
I0403 14:55:21.016834 13775 net.cpp:399] inception_4e/3x3 -> inception_4e/3x3
I0403 14:55:21.021720 13775 net.cpp:141] Setting up inception_4e/3x3
I0403 14:55:21.021764 13775 net.cpp:148] Top shape: 24 320 14 14 (1505280)
I0403 14:55:21.021781 13775 net.cpp:156] Memory required for data: 1230108192
I0403 14:55:21.021800 13775 layer_factory.hpp:77] Creating layer inception_4e/relu_3x3
I0403 14:55:21.021819 13775 net.cpp:91] Creating Layer inception_4e/relu_3x3
I0403 14:55:21.021838 13775 net.cpp:425] inception_4e/relu_3x3 <- inception_4e/3x3
I0403 14:55:21.021857 13775 net.cpp:386] inception_4e/relu_3x3 -> inception_4e/3x3 (in-place)
I0403 14:55:21.022151 13775 net.cpp:141] Setting up inception_4e/relu_3x3
I0403 14:55:21.022177 13775 net.cpp:148] Top shape: 24 320 14 14 (1505280)
I0403 14:55:21.022192 13775 net.cpp:156] Memory required for data: 1236129312
I0403 14:55:21.022207 13775 layer_factory.hpp:77] Creating layer inception_4e/5x5_reduce
I0403 14:55:21.022229 13775 net.cpp:91] Creating Layer inception_4e/5x5_reduce
I0403 14:55:21.022246 13775 net.cpp:425] inception_4e/5x5_reduce <- inception_4d/output_inception_4d/output_0_split_3
I0403 14:55:21.022269 13775 net.cpp:399] inception_4e/5x5_reduce -> inception_4e/5x5_reduce
I0403 14:55:21.023319 13775 net.cpp:141] Setting up inception_4e/5x5_reduce
I0403 14:55:21.023347 13775 net.cpp:148] Top shape: 24 32 14 14 (150528)
I0403 14:55:21.023363 13775 net.cpp:156] Memory required for data: 1236731424
I0403 14:55:21.023381 13775 layer_factory.hpp:77] Creating layer inception_4e/relu_5x5_reduce
I0403 14:55:21.023399 13775 net.cpp:91] Creating Layer inception_4e/relu_5x5_reduce
I0403 14:55:21.023416 13775 net.cpp:425] inception_4e/relu_5x5_reduce <- inception_4e/5x5_reduce
I0403 14:55:21.023433 13775 net.cpp:386] inception_4e/relu_5x5_reduce -> inception_4e/5x5_reduce (in-place)
I0403 14:55:21.023732 13775 net.cpp:141] Setting up inception_4e/relu_5x5_reduce
I0403 14:55:21.023757 13775 net.cpp:148] Top shape: 24 32 14 14 (150528)
I0403 14:55:21.023772 13775 net.cpp:156] Memory required for data: 1237333536
I0403 14:55:21.023787 13775 layer_factory.hpp:77] Creating layer inception_4e/5x5
I0403 14:55:21.023824 13775 net.cpp:91] Creating Layer inception_4e/5x5
I0403 14:55:21.023849 13775 net.cpp:425] inception_4e/5x5 <- inception_4e/5x5_reduce
I0403 14:55:21.023867 13775 net.cpp:399] inception_4e/5x5 -> inception_4e/5x5
I0403 14:55:21.025714 13775 net.cpp:141] Setting up inception_4e/5x5
I0403 14:55:21.025744 13775 net.cpp:148] Top shape: 24 128 14 14 (602112)
I0403 14:55:21.025763 13775 net.cpp:156] Memory required for data: 1239741984
I0403 14:55:21.025781 13775 layer_factory.hpp:77] Creating layer inception_4e/relu_5x5
I0403 14:55:21.025800 13775 net.cpp:91] Creating Layer inception_4e/relu_5x5
I0403 14:55:21.025816 13775 net.cpp:425] inception_4e/relu_5x5 <- inception_4e/5x5
I0403 14:55:21.025832 13775 net.cpp:386] inception_4e/relu_5x5 -> inception_4e/5x5 (in-place)
I0403 14:55:21.026029 13775 net.cpp:141] Setting up inception_4e/relu_5x5
I0403 14:55:21.026053 13775 net.cpp:148] Top shape: 24 128 14 14 (602112)
I0403 14:55:21.026067 13775 net.cpp:156] Memory required for data: 1242150432
I0403 14:55:21.026082 13775 layer_factory.hpp:77] Creating layer inception_4e/pool
I0403 14:55:21.026099 13775 net.cpp:91] Creating Layer inception_4e/pool
I0403 14:55:21.026115 13775 net.cpp:425] inception_4e/pool <- inception_4d/output_inception_4d/output_0_split_4
I0403 14:55:21.026134 13775 net.cpp:399] inception_4e/pool -> inception_4e/pool
I0403 14:55:21.026202 13775 net.cpp:141] Setting up inception_4e/pool
I0403 14:55:21.026228 13775 net.cpp:148] Top shape: 24 528 14 14 (2483712)
I0403 14:55:21.026243 13775 net.cpp:156] Memory required for data: 1252085280
I0403 14:55:21.026257 13775 layer_factory.hpp:77] Creating layer inception_4e/pool_proj
I0403 14:55:21.026278 13775 net.cpp:91] Creating Layer inception_4e/pool_proj
I0403 14:55:21.026298 13775 net.cpp:425] inception_4e/pool_proj <- inception_4e/pool
I0403 14:55:21.026314 13775 net.cpp:399] inception_4e/pool_proj -> inception_4e/pool_proj
I0403 14:55:21.027806 13775 net.cpp:141] Setting up inception_4e/pool_proj
I0403 14:55:21.027834 13775 net.cpp:148] Top shape: 24 128 14 14 (602112)
I0403 14:55:21.027873 13775 net.cpp:156] Memory required for data: 1254493728
I0403 14:55:21.027894 13775 layer_factory.hpp:77] Creating layer inception_4e/relu_pool_proj
I0403 14:55:21.027912 13775 net.cpp:91] Creating Layer inception_4e/relu_pool_proj
I0403 14:55:21.027928 13775 net.cpp:425] inception_4e/relu_pool_proj <- inception_4e/pool_proj
I0403 14:55:21.027947 13775 net.cpp:386] inception_4e/relu_pool_proj -> inception_4e/pool_proj (in-place)
I0403 14:55:21.028240 13775 net.cpp:141] Setting up inception_4e/relu_pool_proj
I0403 14:55:21.028266 13775 net.cpp:148] Top shape: 24 128 14 14 (602112)
I0403 14:55:21.028283 13775 net.cpp:156] Memory required for data: 1256902176
I0403 14:55:21.028300 13775 layer_factory.hpp:77] Creating layer inception_4e/output
I0403 14:55:21.028316 13775 net.cpp:91] Creating Layer inception_4e/output
I0403 14:55:21.028331 13775 net.cpp:425] inception_4e/output <- inception_4e/1x1
I0403 14:55:21.028347 13775 net.cpp:425] inception_4e/output <- inception_4e/3x3
I0403 14:55:21.028362 13775 net.cpp:425] inception_4e/output <- inception_4e/5x5
I0403 14:55:21.028378 13775 net.cpp:425] inception_4e/output <- inception_4e/pool_proj
I0403 14:55:21.028393 13775 net.cpp:399] inception_4e/output -> inception_4e/output
I0403 14:55:21.028444 13775 net.cpp:141] Setting up inception_4e/output
I0403 14:55:21.028466 13775 net.cpp:148] Top shape: 24 832 14 14 (3913728)
I0403 14:55:21.028481 13775 net.cpp:156] Memory required for data: 1272557088
I0403 14:55:21.028494 13775 layer_factory.hpp:77] Creating layer pool4/3x3_s2
I0403 14:55:21.028512 13775 net.cpp:91] Creating Layer pool4/3x3_s2
I0403 14:55:21.028528 13775 net.cpp:425] pool4/3x3_s2 <- inception_4e/output
I0403 14:55:21.028547 13775 net.cpp:399] pool4/3x3_s2 -> pool4/3x3_s2
I0403 14:55:21.028627 13775 net.cpp:141] Setting up pool4/3x3_s2
I0403 14:55:21.028661 13775 net.cpp:148] Top shape: 24 832 7 7 (978432)
I0403 14:55:21.028676 13775 net.cpp:156] Memory required for data: 1276470816
I0403 14:55:21.028690 13775 layer_factory.hpp:77] Creating layer pool4/3x3_s2_pool4/3x3_s2_0_split
I0403 14:55:21.028707 13775 net.cpp:91] Creating Layer pool4/3x3_s2_pool4/3x3_s2_0_split
I0403 14:55:21.028723 13775 net.cpp:425] pool4/3x3_s2_pool4/3x3_s2_0_split <- pool4/3x3_s2
I0403 14:55:21.028743 13775 net.cpp:399] pool4/3x3_s2_pool4/3x3_s2_0_split -> pool4/3x3_s2_pool4/3x3_s2_0_split_0
I0403 14:55:21.028764 13775 net.cpp:399] pool4/3x3_s2_pool4/3x3_s2_0_split -> pool4/3x3_s2_pool4/3x3_s2_0_split_1
I0403 14:55:21.028784 13775 net.cpp:399] pool4/3x3_s2_pool4/3x3_s2_0_split -> pool4/3x3_s2_pool4/3x3_s2_0_split_2
I0403 14:55:21.028802 13775 net.cpp:399] pool4/3x3_s2_pool4/3x3_s2_0_split -> pool4/3x3_s2_pool4/3x3_s2_0_split_3
I0403 14:55:21.028894 13775 net.cpp:141] Setting up pool4/3x3_s2_pool4/3x3_s2_0_split
I0403 14:55:21.028918 13775 net.cpp:148] Top shape: 24 832 7 7 (978432)
I0403 14:55:21.028941 13775 net.cpp:148] Top shape: 24 832 7 7 (978432)
I0403 14:55:21.028956 13775 net.cpp:148] Top shape: 24 832 7 7 (978432)
I0403 14:55:21.028972 13775 net.cpp:148] Top shape: 24 832 7 7 (978432)
I0403 14:55:21.028985 13775 net.cpp:156] Memory required for data: 1292125728
I0403 14:55:21.029000 13775 layer_factory.hpp:77] Creating layer inception_5a/1x1
I0403 14:55:21.029022 13775 net.cpp:91] Creating Layer inception_5a/1x1
I0403 14:55:21.029041 13775 net.cpp:425] inception_5a/1x1 <- pool4/3x3_s2_pool4/3x3_s2_0_split_0
I0403 14:55:21.029058 13775 net.cpp:399] inception_5a/1x1 -> inception_5a/1x1
I0403 14:55:21.031889 13775 net.cpp:141] Setting up inception_5a/1x1
I0403 14:55:21.031921 13775 net.cpp:148] Top shape: 24 256 7 7 (301056)
I0403 14:55:21.031939 13775 net.cpp:156] Memory required for data: 1293329952
I0403 14:55:21.031956 13775 layer_factory.hpp:77] Creating layer inception_5a/relu_1x1
I0403 14:55:21.031975 13775 net.cpp:91] Creating Layer inception_5a/relu_1x1
I0403 14:55:21.031991 13775 net.cpp:425] inception_5a/relu_1x1 <- inception_5a/1x1
I0403 14:55:21.032009 13775 net.cpp:386] inception_5a/relu_1x1 -> inception_5a/1x1 (in-place)
I0403 14:55:21.032312 13775 net.cpp:141] Setting up inception_5a/relu_1x1
I0403 14:55:21.032341 13775 net.cpp:148] Top shape: 24 256 7 7 (301056)
I0403 14:55:21.032357 13775 net.cpp:156] Memory required for data: 1294534176
I0403 14:55:21.032372 13775 layer_factory.hpp:77] Creating layer inception_5a/3x3_reduce
I0403 14:55:21.032393 13775 net.cpp:91] Creating Layer inception_5a/3x3_reduce
I0403 14:55:21.032412 13775 net.cpp:425] inception_5a/3x3_reduce <- pool4/3x3_s2_pool4/3x3_s2_0_split_1
I0403 14:55:21.032429 13775 net.cpp:399] inception_5a/3x3_reduce -> inception_5a/3x3_reduce
I0403 14:55:21.034847 13775 net.cpp:141] Setting up inception_5a/3x3_reduce
I0403 14:55:21.034878 13775 net.cpp:148] Top shape: 24 160 7 7 (188160)
I0403 14:55:21.034894 13775 net.cpp:156] Memory required for data: 1295286816
I0403 14:55:21.034912 13775 layer_factory.hpp:77] Creating layer inception_5a/relu_3x3_reduce
I0403 14:55:21.034934 13775 net.cpp:91] Creating Layer inception_5a/relu_3x3_reduce
I0403 14:55:21.034952 13775 net.cpp:425] inception_5a/relu_3x3_reduce <- inception_5a/3x3_reduce
I0403 14:55:21.034971 13775 net.cpp:386] inception_5a/relu_3x3_reduce -> inception_5a/3x3_reduce (in-place)
I0403 14:55:21.035154 13775 net.cpp:141] Setting up inception_5a/relu_3x3_reduce
I0403 14:55:21.035183 13775 net.cpp:148] Top shape: 24 160 7 7 (188160)
I0403 14:55:21.035199 13775 net.cpp:156] Memory required for data: 1296039456
I0403 14:55:21.035214 13775 layer_factory.hpp:77] Creating layer inception_5a/3x3
I0403 14:55:21.035248 13775 net.cpp:91] Creating Layer inception_5a/3x3
I0403 14:55:21.035267 13775 net.cpp:425] inception_5a/3x3 <- inception_5a/3x3_reduce
I0403 14:55:21.035286 13775 net.cpp:399] inception_5a/3x3 -> inception_5a/3x3
I0403 14:55:21.040217 13775 net.cpp:141] Setting up inception_5a/3x3
I0403 14:55:21.040249 13775 net.cpp:148] Top shape: 24 320 7 7 (376320)
I0403 14:55:21.040267 13775 net.cpp:156] Memory required for data: 1297544736
I0403 14:55:21.040285 13775 layer_factory.hpp:77] Creating layer inception_5a/relu_3x3
I0403 14:55:21.040307 13775 net.cpp:91] Creating Layer inception_5a/relu_3x3
I0403 14:55:21.040323 13775 net.cpp:425] inception_5a/relu_3x3 <- inception_5a/3x3
I0403 14:55:21.040338 13775 net.cpp:386] inception_5a/relu_3x3 -> inception_5a/3x3 (in-place)
I0403 14:55:21.040632 13775 net.cpp:141] Setting up inception_5a/relu_3x3
I0403 14:55:21.040660 13775 net.cpp:148] Top shape: 24 320 7 7 (376320)
I0403 14:55:21.040676 13775 net.cpp:156] Memory required for data: 1299050016
I0403 14:55:21.040693 13775 layer_factory.hpp:77] Creating layer inception_5a/5x5_reduce
I0403 14:55:21.040715 13775 net.cpp:91] Creating Layer inception_5a/5x5_reduce
I0403 14:55:21.040734 13775 net.cpp:425] inception_5a/5x5_reduce <- pool4/3x3_s2_pool4/3x3_s2_0_split_2
I0403 14:55:21.040752 13775 net.cpp:399] inception_5a/5x5_reduce -> inception_5a/5x5_reduce
I0403 14:55:21.041906 13775 net.cpp:141] Setting up inception_5a/5x5_reduce
I0403 14:55:21.041936 13775 net.cpp:148] Top shape: 24 32 7 7 (37632)
I0403 14:55:21.041954 13775 net.cpp:156] Memory required for data: 1299200544
I0403 14:55:21.041973 13775 layer_factory.hpp:77] Creating layer inception_5a/relu_5x5_reduce
I0403 14:55:21.041992 13775 net.cpp:91] Creating Layer inception_5a/relu_5x5_reduce
I0403 14:55:21.042008 13775 net.cpp:425] inception_5a/relu_5x5_reduce <- inception_5a/5x5_reduce
I0403 14:55:21.042028 13775 net.cpp:386] inception_5a/relu_5x5_reduce -> inception_5a/5x5_reduce (in-place)
I0403 14:55:21.042330 13775 net.cpp:141] Setting up inception_5a/relu_5x5_reduce
I0403 14:55:21.042356 13775 net.cpp:148] Top shape: 24 32 7 7 (37632)
I0403 14:55:21.042371 13775 net.cpp:156] Memory required for data: 1299351072
I0403 14:55:21.042384 13775 layer_factory.hpp:77] Creating layer inception_5a/5x5
I0403 14:55:21.042407 13775 net.cpp:91] Creating Layer inception_5a/5x5
I0403 14:55:21.042423 13775 net.cpp:425] inception_5a/5x5 <- inception_5a/5x5_reduce
I0403 14:55:21.042443 13775 net.cpp:399] inception_5a/5x5 -> inception_5a/5x5
I0403 14:55:21.044145 13775 net.cpp:141] Setting up inception_5a/5x5
I0403 14:55:21.044188 13775 net.cpp:148] Top shape: 24 128 7 7 (150528)
I0403 14:55:21.044205 13775 net.cpp:156] Memory required for data: 1299953184
I0403 14:55:21.044224 13775 layer_factory.hpp:77] Creating layer inception_5a/relu_5x5
I0403 14:55:21.044241 13775 net.cpp:91] Creating Layer inception_5a/relu_5x5
I0403 14:55:21.044260 13775 net.cpp:425] inception_5a/relu_5x5 <- inception_5a/5x5
I0403 14:55:21.044276 13775 net.cpp:386] inception_5a/relu_5x5 -> inception_5a/5x5 (in-place)
I0403 14:55:21.044471 13775 net.cpp:141] Setting up inception_5a/relu_5x5
I0403 14:55:21.044497 13775 net.cpp:148] Top shape: 24 128 7 7 (150528)
I0403 14:55:21.044512 13775 net.cpp:156] Memory required for data: 1300555296
I0403 14:55:21.044526 13775 layer_factory.hpp:77] Creating layer inception_5a/pool
I0403 14:55:21.044543 13775 net.cpp:91] Creating Layer inception_5a/pool
I0403 14:55:21.044559 13775 net.cpp:425] inception_5a/pool <- pool4/3x3_s2_pool4/3x3_s2_0_split_3
I0403 14:55:21.044592 13775 net.cpp:399] inception_5a/pool -> inception_5a/pool
I0403 14:55:21.044666 13775 net.cpp:141] Setting up inception_5a/pool
I0403 14:55:21.044692 13775 net.cpp:148] Top shape: 24 832 7 7 (978432)
I0403 14:55:21.044706 13775 net.cpp:156] Memory required for data: 1304469024
I0403 14:55:21.044721 13775 layer_factory.hpp:77] Creating layer inception_5a/pool_proj
I0403 14:55:21.044742 13775 net.cpp:91] Creating Layer inception_5a/pool_proj
I0403 14:55:21.044759 13775 net.cpp:425] inception_5a/pool_proj <- inception_5a/pool
I0403 14:55:21.044777 13775 net.cpp:399] inception_5a/pool_proj -> inception_5a/pool_proj
I0403 14:55:21.047062 13775 net.cpp:141] Setting up inception_5a/pool_proj
I0403 14:55:21.047092 13775 net.cpp:148] Top shape: 24 128 7 7 (150528)
I0403 14:55:21.047109 13775 net.cpp:156] Memory required for data: 1305071136
I0403 14:55:21.047129 13775 layer_factory.hpp:77] Creating layer inception_5a/relu_pool_proj
I0403 14:55:21.047150 13775 net.cpp:91] Creating Layer inception_5a/relu_pool_proj
I0403 14:55:21.047168 13775 net.cpp:425] inception_5a/relu_pool_proj <- inception_5a/pool_proj
I0403 14:55:21.047185 13775 net.cpp:386] inception_5a/relu_pool_proj -> inception_5a/pool_proj (in-place)
I0403 14:55:21.047489 13775 net.cpp:141] Setting up inception_5a/relu_pool_proj
I0403 14:55:21.047515 13775 net.cpp:148] Top shape: 24 128 7 7 (150528)
I0403 14:55:21.047529 13775 net.cpp:156] Memory required for data: 1305673248
I0403 14:55:21.047554 13775 layer_factory.hpp:77] Creating layer inception_5a/output
I0403 14:55:21.047575 13775 net.cpp:91] Creating Layer inception_5a/output
I0403 14:55:21.047593 13775 net.cpp:425] inception_5a/output <- inception_5a/1x1
I0403 14:55:21.047610 13775 net.cpp:425] inception_5a/output <- inception_5a/3x3
I0403 14:55:21.047624 13775 net.cpp:425] inception_5a/output <- inception_5a/5x5
I0403 14:55:21.047641 13775 net.cpp:425] inception_5a/output <- inception_5a/pool_proj
I0403 14:55:21.047657 13775 net.cpp:399] inception_5a/output -> inception_5a/output
I0403 14:55:21.047708 13775 net.cpp:141] Setting up inception_5a/output
I0403 14:55:21.047730 13775 net.cpp:148] Top shape: 24 832 7 7 (978432)
I0403 14:55:21.047744 13775 net.cpp:156] Memory required for data: 1309586976
I0403 14:55:21.047758 13775 layer_factory.hpp:77] Creating layer inception_5a/output_inception_5a/output_0_split
I0403 14:55:21.047775 13775 net.cpp:91] Creating Layer inception_5a/output_inception_5a/output_0_split
I0403 14:55:21.047790 13775 net.cpp:425] inception_5a/output_inception_5a/output_0_split <- inception_5a/output
I0403 14:55:21.047807 13775 net.cpp:399] inception_5a/output_inception_5a/output_0_split -> inception_5a/output_inception_5a/output_0_split_0
I0403 14:55:21.047828 13775 net.cpp:399] inception_5a/output_inception_5a/output_0_split -> inception_5a/output_inception_5a/output_0_split_1
I0403 14:55:21.047857 13775 net.cpp:399] inception_5a/output_inception_5a/output_0_split -> inception_5a/output_inception_5a/output_0_split_2
I0403 14:55:21.047875 13775 net.cpp:399] inception_5a/output_inception_5a/output_0_split -> inception_5a/output_inception_5a/output_0_split_3
I0403 14:55:21.047987 13775 net.cpp:141] Setting up inception_5a/output_inception_5a/output_0_split
I0403 14:55:21.048012 13775 net.cpp:148] Top shape: 24 832 7 7 (978432)
I0403 14:55:21.048029 13775 net.cpp:148] Top shape: 24 832 7 7 (978432)
I0403 14:55:21.048044 13775 net.cpp:148] Top shape: 24 832 7 7 (978432)
I0403 14:55:21.048058 13775 net.cpp:148] Top shape: 24 832 7 7 (978432)
I0403 14:55:21.048071 13775 net.cpp:156] Memory required for data: 1325241888
I0403 14:55:21.048085 13775 layer_factory.hpp:77] Creating layer inception_5b/1x1
I0403 14:55:21.048106 13775 net.cpp:91] Creating Layer inception_5b/1x1
I0403 14:55:21.048123 13775 net.cpp:425] inception_5b/1x1 <- inception_5a/output_inception_5a/output_0_split_0
I0403 14:55:21.048143 13775 net.cpp:399] inception_5b/1x1 -> inception_5b/1x1
I0403 14:55:21.051831 13775 net.cpp:141] Setting up inception_5b/1x1
I0403 14:55:21.051861 13775 net.cpp:148] Top shape: 24 384 7 7 (451584)
I0403 14:55:21.051877 13775 net.cpp:156] Memory required for data: 1327048224
I0403 14:55:21.051895 13775 layer_factory.hpp:77] Creating layer inception_5b/relu_1x1
I0403 14:55:21.051916 13775 net.cpp:91] Creating Layer inception_5b/relu_1x1
I0403 14:55:21.051935 13775 net.cpp:425] inception_5b/relu_1x1 <- inception_5b/1x1
I0403 14:55:21.051952 13775 net.cpp:386] inception_5b/relu_1x1 -> inception_5b/1x1 (in-place)
I0403 14:55:21.052250 13775 net.cpp:141] Setting up inception_5b/relu_1x1
I0403 14:55:21.052276 13775 net.cpp:148] Top shape: 24 384 7 7 (451584)
I0403 14:55:21.052292 13775 net.cpp:156] Memory required for data: 1328854560
I0403 14:55:21.052306 13775 layer_factory.hpp:77] Creating layer inception_5b/3x3_reduce
I0403 14:55:21.052328 13775 net.cpp:91] Creating Layer inception_5b/3x3_reduce
I0403 14:55:21.052346 13775 net.cpp:425] inception_5b/3x3_reduce <- inception_5a/output_inception_5a/output_0_split_1
I0403 14:55:21.052366 13775 net.cpp:399] inception_5b/3x3_reduce -> inception_5b/3x3_reduce
I0403 14:55:21.055060 13775 net.cpp:141] Setting up inception_5b/3x3_reduce
I0403 14:55:21.055091 13775 net.cpp:148] Top shape: 24 192 7 7 (225792)
I0403 14:55:21.055107 13775 net.cpp:156] Memory required for data: 1329757728
I0403 14:55:21.055125 13775 layer_factory.hpp:77] Creating layer inception_5b/relu_3x3_reduce
I0403 14:55:21.055145 13775 net.cpp:91] Creating Layer inception_5b/relu_3x3_reduce
I0403 14:55:21.055162 13775 net.cpp:425] inception_5b/relu_3x3_reduce <- inception_5b/3x3_reduce
I0403 14:55:21.055179 13775 net.cpp:386] inception_5b/relu_3x3_reduce -> inception_5b/3x3_reduce (in-place)
I0403 14:55:21.055371 13775 net.cpp:141] Setting up inception_5b/relu_3x3_reduce
I0403 14:55:21.055397 13775 net.cpp:148] Top shape: 24 192 7 7 (225792)
I0403 14:55:21.055413 13775 net.cpp:156] Memory required for data: 1330660896
I0403 14:55:21.055426 13775 layer_factory.hpp:77] Creating layer inception_5b/3x3
I0403 14:55:21.055449 13775 net.cpp:91] Creating Layer inception_5b/3x3
I0403 14:55:21.055467 13775 net.cpp:425] inception_5b/3x3 <- inception_5b/3x3_reduce
I0403 14:55:21.055490 13775 net.cpp:399] inception_5b/3x3 -> inception_5b/3x3
I0403 14:55:21.062247 13775 net.cpp:141] Setting up inception_5b/3x3
I0403 14:55:21.062280 13775 net.cpp:148] Top shape: 24 384 7 7 (451584)
I0403 14:55:21.062297 13775 net.cpp:156] Memory required for data: 1332467232
I0403 14:55:21.062316 13775 layer_factory.hpp:77] Creating layer inception_5b/relu_3x3
I0403 14:55:21.062337 13775 net.cpp:91] Creating Layer inception_5b/relu_3x3
I0403 14:55:21.062356 13775 net.cpp:425] inception_5b/relu_3x3 <- inception_5b/3x3
I0403 14:55:21.062376 13775 net.cpp:386] inception_5b/relu_3x3 -> inception_5b/3x3 (in-place)
I0403 14:55:21.062680 13775 net.cpp:141] Setting up inception_5b/relu_3x3
I0403 14:55:21.062707 13775 net.cpp:148] Top shape: 24 384 7 7 (451584)
I0403 14:55:21.062723 13775 net.cpp:156] Memory required for data: 1334273568
I0403 14:55:21.062739 13775 layer_factory.hpp:77] Creating layer inception_5b/5x5_reduce
I0403 14:55:21.062783 13775 net.cpp:91] Creating Layer inception_5b/5x5_reduce
I0403 14:55:21.062803 13775 net.cpp:425] inception_5b/5x5_reduce <- inception_5a/output_inception_5a/output_0_split_2
I0403 14:55:21.062821 13775 net.cpp:399] inception_5b/5x5_reduce -> inception_5b/5x5_reduce
I0403 14:55:21.064117 13775 net.cpp:141] Setting up inception_5b/5x5_reduce
I0403 14:55:21.064146 13775 net.cpp:148] Top shape: 24 48 7 7 (56448)
I0403 14:55:21.064165 13775 net.cpp:156] Memory required for data: 1334499360
I0403 14:55:21.064184 13775 layer_factory.hpp:77] Creating layer inception_5b/relu_5x5_reduce
I0403 14:55:21.064203 13775 net.cpp:91] Creating Layer inception_5b/relu_5x5_reduce
I0403 14:55:21.064218 13775 net.cpp:425] inception_5b/relu_5x5_reduce <- inception_5b/5x5_reduce
I0403 14:55:21.064237 13775 net.cpp:386] inception_5b/relu_5x5_reduce -> inception_5b/5x5_reduce (in-place)
I0403 14:55:21.064623 13775 net.cpp:141] Setting up inception_5b/relu_5x5_reduce
I0403 14:55:21.064652 13775 net.cpp:148] Top shape: 24 48 7 7 (56448)
I0403 14:55:21.064669 13775 net.cpp:156] Memory required for data: 1334725152
I0403 14:55:21.064684 13775 layer_factory.hpp:77] Creating layer inception_5b/5x5
I0403 14:55:21.064704 13775 net.cpp:91] Creating Layer inception_5b/5x5
I0403 14:55:21.064723 13775 net.cpp:425] inception_5b/5x5 <- inception_5b/5x5_reduce
I0403 14:55:21.064741 13775 net.cpp:399] inception_5b/5x5 -> inception_5b/5x5
I0403 14:55:21.066823 13775 net.cpp:141] Setting up inception_5b/5x5
I0403 14:55:21.066854 13775 net.cpp:148] Top shape: 24 128 7 7 (150528)
I0403 14:55:21.066872 13775 net.cpp:156] Memory required for data: 1335327264
I0403 14:55:21.066891 13775 layer_factory.hpp:77] Creating layer inception_5b/relu_5x5
I0403 14:55:21.066910 13775 net.cpp:91] Creating Layer inception_5b/relu_5x5
I0403 14:55:21.066928 13775 net.cpp:425] inception_5b/relu_5x5 <- inception_5b/5x5
I0403 14:55:21.066949 13775 net.cpp:386] inception_5b/relu_5x5 -> inception_5b/5x5 (in-place)
I0403 14:55:21.067148 13775 net.cpp:141] Setting up inception_5b/relu_5x5
I0403 14:55:21.067174 13775 net.cpp:148] Top shape: 24 128 7 7 (150528)
I0403 14:55:21.067189 13775 net.cpp:156] Memory required for data: 1335929376
I0403 14:55:21.067205 13775 layer_factory.hpp:77] Creating layer inception_5b/pool
I0403 14:55:21.067224 13775 net.cpp:91] Creating Layer inception_5b/pool
I0403 14:55:21.067239 13775 net.cpp:425] inception_5b/pool <- inception_5a/output_inception_5a/output_0_split_3
I0403 14:55:21.067260 13775 net.cpp:399] inception_5b/pool -> inception_5b/pool
I0403 14:55:21.067333 13775 net.cpp:141] Setting up inception_5b/pool
I0403 14:55:21.067358 13775 net.cpp:148] Top shape: 24 832 7 7 (978432)
I0403 14:55:21.067373 13775 net.cpp:156] Memory required for data: 1339843104
I0403 14:55:21.067386 13775 layer_factory.hpp:77] Creating layer inception_5b/pool_proj
I0403 14:55:21.067410 13775 net.cpp:91] Creating Layer inception_5b/pool_proj
I0403 14:55:21.067427 13775 net.cpp:425] inception_5b/pool_proj <- inception_5b/pool
I0403 14:55:21.067446 13775 net.cpp:399] inception_5b/pool_proj -> inception_5b/pool_proj
I0403 14:55:21.069795 13775 net.cpp:141] Setting up inception_5b/pool_proj
I0403 14:55:21.069829 13775 net.cpp:148] Top shape: 24 128 7 7 (150528)
I0403 14:55:21.069846 13775 net.cpp:156] Memory required for data: 1340445216
I0403 14:55:21.069865 13775 layer_factory.hpp:77] Creating layer inception_5b/relu_pool_proj
I0403 14:55:21.069883 13775 net.cpp:91] Creating Layer inception_5b/relu_pool_proj
I0403 14:55:21.069900 13775 net.cpp:425] inception_5b/relu_pool_proj <- inception_5b/pool_proj
I0403 14:55:21.069919 13775 net.cpp:386] inception_5b/relu_pool_proj -> inception_5b/pool_proj (in-place)
I0403 14:55:21.070222 13775 net.cpp:141] Setting up inception_5b/relu_pool_proj
I0403 14:55:21.070252 13775 net.cpp:148] Top shape: 24 128 7 7 (150528)
I0403 14:55:21.070269 13775 net.cpp:156] Memory required for data: 1341047328
I0403 14:55:21.070284 13775 layer_factory.hpp:77] Creating layer inception_5b/output
I0403 14:55:21.070302 13775 net.cpp:91] Creating Layer inception_5b/output
I0403 14:55:21.070334 13775 net.cpp:425] inception_5b/output <- inception_5b/1x1
I0403 14:55:21.070354 13775 net.cpp:425] inception_5b/output <- inception_5b/3x3
I0403 14:55:21.070371 13775 net.cpp:425] inception_5b/output <- inception_5b/5x5
I0403 14:55:21.070387 13775 net.cpp:425] inception_5b/output <- inception_5b/pool_proj
I0403 14:55:21.070405 13775 net.cpp:399] inception_5b/output -> inception_5b/output
I0403 14:55:21.070461 13775 net.cpp:141] Setting up inception_5b/output
I0403 14:55:21.070487 13775 net.cpp:148] Top shape: 24 1024 7 7 (1204224)
I0403 14:55:21.070502 13775 net.cpp:156] Memory required for data: 1345864224
I0403 14:55:21.070518 13775 layer_factory.hpp:77] Creating layer pool5/7x7_s1
I0403 14:55:21.070538 13775 net.cpp:91] Creating Layer pool5/7x7_s1
I0403 14:55:21.070556 13775 net.cpp:425] pool5/7x7_s1 <- inception_5b/output
I0403 14:55:21.070580 13775 net.cpp:399] pool5/7x7_s1 -> pool5/7x7_s1
I0403 14:55:21.070798 13775 net.cpp:141] Setting up pool5/7x7_s1
I0403 14:55:21.070827 13775 net.cpp:148] Top shape: 24 1024 1 1 (24576)
I0403 14:55:21.070842 13775 net.cpp:156] Memory required for data: 1345962528
I0403 14:55:21.070857 13775 layer_factory.hpp:77] Creating layer pool5/drop_7x7_s1
I0403 14:55:21.070873 13775 net.cpp:91] Creating Layer pool5/drop_7x7_s1
I0403 14:55:21.070889 13775 net.cpp:425] pool5/drop_7x7_s1 <- pool5/7x7_s1
I0403 14:55:21.070907 13775 net.cpp:386] pool5/drop_7x7_s1 -> pool5/7x7_s1 (in-place)
I0403 14:55:21.070960 13775 net.cpp:141] Setting up pool5/drop_7x7_s1
I0403 14:55:21.070982 13775 net.cpp:148] Top shape: 24 1024 1 1 (24576)
I0403 14:55:21.070997 13775 net.cpp:156] Memory required for data: 1346060832
I0403 14:55:21.071012 13775 layer_factory.hpp:77] Creating layer loss3/classifier_plantvillage
I0403 14:55:21.071033 13775 net.cpp:91] Creating Layer loss3/classifier_plantvillage
I0403 14:55:21.071050 13775 net.cpp:425] loss3/classifier_plantvillage <- pool5/7x7_s1
I0403 14:55:21.071069 13775 net.cpp:399] loss3/classifier_plantvillage -> loss3/classifier_plantvillage
I0403 14:55:21.071498 13775 net.cpp:141] Setting up loss3/classifier_plantvillage
I0403 14:55:21.071523 13775 net.cpp:148] Top shape: 24 38 (912)
I0403 14:55:21.071537 13775 net.cpp:156] Memory required for data: 1346064480
I0403 14:55:21.071563 13775 layer_factory.hpp:77] Creating layer loss3/classifier_plantvillage_loss3/classifier_plantvillage_0_split
I0403 14:55:21.071588 13775 net.cpp:91] Creating Layer loss3/classifier_plantvillage_loss3/classifier_plantvillage_0_split
I0403 14:55:21.071604 13775 net.cpp:425] loss3/classifier_plantvillage_loss3/classifier_plantvillage_0_split <- loss3/classifier_plantvillage
I0403 14:55:21.071624 13775 net.cpp:399] loss3/classifier_plantvillage_loss3/classifier_plantvillage_0_split -> loss3/classifier_plantvillage_loss3/classifier_plantvillage_0_split_0
I0403 14:55:21.071645 13775 net.cpp:399] loss3/classifier_plantvillage_loss3/classifier_plantvillage_0_split -> loss3/classifier_plantvillage_loss3/classifier_plantvillage_0_split_1
I0403 14:55:21.071666 13775 net.cpp:399] loss3/classifier_plantvillage_loss3/classifier_plantvillage_0_split -> loss3/classifier_plantvillage_loss3/classifier_plantvillage_0_split_2
I0403 14:55:21.071686 13775 net.cpp:399] loss3/classifier_plantvillage_loss3/classifier_plantvillage_0_split -> loss3/classifier_plantvillage_loss3/classifier_plantvillage_0_split_3
I0403 14:55:21.071794 13775 net.cpp:141] Setting up loss3/classifier_plantvillage_loss3/classifier_plantvillage_0_split
I0403 14:55:21.071816 13775 net.cpp:148] Top shape: 24 38 (912)
I0403 14:55:21.071832 13775 net.cpp:148] Top shape: 24 38 (912)
I0403 14:55:21.071853 13775 net.cpp:148] Top shape: 24 38 (912)
I0403 14:55:21.071867 13775 net.cpp:148] Top shape: 24 38 (912)
I0403 14:55:21.071882 13775 net.cpp:156] Memory required for data: 1346079072
I0403 14:55:21.071894 13775 layer_factory.hpp:77] Creating layer loss1/loss
I0403 14:55:21.071915 13775 net.cpp:91] Creating Layer loss1/loss
I0403 14:55:21.071933 13775 net.cpp:425] loss1/loss <- loss1/classifier_plantvillage_loss1/classifier_plantvillage_0_split_0
I0403 14:55:21.071964 13775 net.cpp:425] loss1/loss <- label_data_1_split_0
…
