…
I0403 14:30:33.970484 13352 net.cpp:313] The NetState phase (1) differed from the phase (0) specified by a rule in layer data
I0403 14:30:33.971580 13352 net.cpp:49] Initializing net from parameters: 
state {
  phase: TEST
}
layer {
  name: "data"
  type: "Data"
  top: "data"
  top: "label"
  include {
    phase: TEST
  }
  transform_param {
    mirror: false
    crop_size: 224
    mean_file: "/home/mohanty/data/final_dataset/lmdb/color-40-60/mean.binaryproto"
  }
  data_param {
    source: "/home/mohanty/data/final_dataset/lmdb/color-40-60/test_db"
    batch_size: 24
    backend: LMDB
  }
}
layer {
  name: "conv1/7x7_s2"
  type: "Convolution"
  bottom: "data"
  top: "conv1/7x7_s2"
  param {
    lr_mult: 1
    decay_mult: 1
  }
  param {
    lr_mult: 2
    decay_mult: 0
  }
  convolution_param {
    num_output: 64
    pad: 3
    kernel_size: 7
    stride: 2
    weight_filler {
      type: "xavier"
      std: 0.1
    }
    bias_filler {
      type: "constant"
      value: 0.2
    }
  }
}
layer {
  name: "conv1/relu_7x7"
  type: "ReLU"
  bottom: "conv1/7x7_s2"
  top: "conv1/7x7_s2"
}
layer {
  name: "pool1/3x3_s2"
  type: "Pooling"
  bottom: "conv1/7x7_s2"
  top: "pool1/3x3_s2"
  pooling_param {
    pool: MAX
    kernel_size: 3
    stride: 2
  }
}
layer {
  name: "pool1/norm1"
  type: "LRN"
  bottom: "pool1/3x3_s2"
  top: "pool1/norm1"
  lrn_param {
    local_size: 5
    alpha: 0.0001
    beta: 0.75
  }
}
layer {
  name: "conv2/3x3_reduce"
  type: "Convolution"
  bottom: "pool1/norm1"
  top: "conv2/3x3_reduce"
  param {
    lr_mult: 1
    decay_mult: 1
  }
  param {
    lr_mult: 2
    decay_mult: 0
  }
  convolution_param {
    num_output: 64
    kernel_size: 1
    weight_filler {
      type: "xavier"
      std: 0.1
    }
    bias_filler {
      type: "constant"
      value: 0.2
    }
  }
}
layer {
  name: "conv2/relu_3x3_reduce"
  type: "ReLU"
  bottom: "conv2/3x3_reduce"
  top: "conv2/3x3_reduce"
}
layer {
  name: "conv2/3x3"
  type: "Convolution"
  bottom: "conv2/3x3_reduce"
  top: "conv2/3x3"
  param {
    lr_mult: 1
    decay_mult: 1
  }
  param {
    lr_mult: 2
    decay_mult: 0
  }
  convolution_param {
    num_output: 192
    pad: 1
    kernel_size: 3
    weight_filler {
      type: "xavier"
      std: 0.03
    }
    bias_filler {
      type: "constant"
      value: 0.2
    }
  }
}
layer {
  name: "conv2/relu_3x3"
  type: "ReLU"
  bottom: "conv2/3x3"
  top: "conv2/3x3"
}
layer {
  name: "conv2/norm2"
  type: "LRN"
  bottom: "conv2/3x3"
  top: "conv2/norm2"
  lrn_param {
    local_size: 5
    alpha: 0.0001
    beta: 0.75
  }
}
layer {
  name: "pool2/3x3_s2"
  type: "Pooling"
  bottom: "conv2/norm2"
  top: "pool2/3x3_s2"
  pooling_param {
    pool: MAX
    kernel_size: 3
    stride: 2
  }
}
layer {
  name: "inception_3a/1x1"
  type: "Convolution"
  bottom: "pool2/3x3_s2"
  top: "inception_3a/1x1"
  param {
    lr_mult: 1
    decay_mult: 1
  }
  param {
    lr_mult: 2
    decay_mult: 0
  }
  convolution_param {
    num_output: 64
    kernel_size: 1
    weight_filler {
      type: "xavier"
      std: 0.03
    }
    bias_filler {
      type: "constant"
      value: 0.2
    }
  }
}
layer {
  name: "inception_3a/relu_1x1"
  type: "ReLU"
  bottom: "inception_3a/1x1"
  top: "inception_3a/1x1"
}
layer {
  name: "inception_3a/3x3_reduce"
  type: "Convolution"
  bottom: "pool2/3x3_s2"
  top: "inception_3a/3x3_reduce"
  param {
    lr_mult: 1
    decay_mult: 1
  }
  param {
    lr_mult: 2
    decay_mult: 0
  }
  convolution_param {
    num_output: 96
    kernel_size: 1
    weight_filler {
      type: "xavier"
      std: 0.09
    }
    bias_filler {
      type: "constant"
      value: 0.2
    }
  }
}
layer {
  name: "inception_3a/relu_3x3_reduce"
  type: "ReLU"
  bottom: "inception_3a/3x3_reduce"
  top: "inception_3a/3x3_reduce"
}
layer {
  name: "inception_3a/3x3"
  type: "Convolution"
  bottom: "inception_3a/3x3_reduce"
  top: "inception_3a/3x3"
  param {
    lr_mult: 1
    decay_mult: 1
  }
  param {
    lr_mult: 2
    decay_mult: 0
  }
  convolution_param {
    num_output: 128
    pad: 1
    kernel_size: 3
    weight_filler {
      type: "xavier"
      std: 0.03
    }
    bias_filler {
      type: "constant"
      value: 0.2
    }
  }
}
layer {
  name: "inception_3a/relu_3x3"
  type: "ReLU"
  bottom: "inception_3a/3x3"
  top: "inception_3a/3x3"
}
layer {
  name: "inception_3a/5x5_reduce"
  type: "Convolution"
  bottom: "pool2/3x3_s2"
  top: "inception_3a/5x5_reduce"
  param {
    lr_mult: 1
    decay_mult: 1
  }
  param {
    lr_mult: 2
    decay_mult: 0
  }
  convolution_param {
    num_output: 16
    kernel_size: 1
    weight_filler {
      type: "xavier"
      std: 0.2
    }
    bias_filler {
      type: "constant"
      value: 0.2
    }
  }
}
layer {
  name: "inception_3a/relu_5x5_reduce"
  type: "ReLU"
  bottom: "inception_3a/5x5_reduce"
  top: "inception_3a/5x5_reduce"
}
layer {
  name: "inception_3a/5x5"
  type: "Convolution"
  bottom: "inception_3a/5x5_reduce"
  top: "inception_3a/5x5"
  param {
    lr_mult: 1
    decay_mult: 1
  }
  param {
    lr_mult: 2
    decay_mult: 0
  }
  convolution_param {
    num_output: 32
    pad: 2
    kernel_size: 5
    weight_filler {
      type: "xavier"
      std: 0.03
    }
    bias_filler {
      type: "constant"
      value: 0.2
    }
  }
}
layer {
  name: "inception_3a/relu_5x5"
  type: "ReLU"
  bottom: "inception_3a/5x5"
  top: "inception_3a/5x5"
}
layer {
  name: "inception_3a/pool"
  type: "Pooling"
  bottom: "pool2/3x3_s2"
  top: "inception_3a/pool"
  pooling_param {
    pool: MAX
    kernel_size: 3
    stride: 1
    pad: 1
  }
}
layer {
  name: "inception_3a/pool_proj"
  type: "Convolution"
  bottom: "inception_3a/pool"
  top: "inception_3a/pool_proj"
  param {
    lr_mult: 1
    decay_mult: 1
  }
  param {
    lr_mult: 2
    decay_mult: 0
  }
  convolution_param {
    num_output: 32
    kernel_size: 1
    weight_filler {
      type: "xavier"
      std: 0.1
    }
    bias_filler {
      type: "constant"
      value: 0.2
    }
  }
}
layer {
  name: "inception_3a/relu_pool_proj"
  type: "ReLU"
  bottom: "inception_3a/pool_proj"
  top: "inception_3a/pool_proj"
}
layer {
  name: "inception_3a/output"
  type: "Concat"
  bottom: "inception_3a/1x1"
  bottom: "inception_3a/3x3"
  bottom: "inception_3a/5x5"
  bottom: "inception_3a/pool_proj"
  top: "inception_3a/output"
}
layer {
  name: "inception_3b/1x1"
  type: "Convolution"
  bottom: "inception_3a/output"
  top: "inception_3b/1x1"
  param {
    lr_mult: 1
    decay_mult: 1
  }
  param {
    lr_mult: 2
    decay_mult: 0
  }
  convolution_param {
    num_output: 128
    kernel_size: 1
    weight_filler {
      type: "xavier"
      std: 0.03
    }
    bias_filler {
      type: "constant"
      value: 0.2
    }
  }
}
layer {
  name: "inception_3b/relu_1x1"
  type: "ReLU"
  bottom: "inception_3b/1x1"
  top: "inception_3b/1x1"
}
layer {
  name: "inception_3b/3x3_reduce"
  type: "Convolution"
  bottom: "inception_3a/output"
  top: "inception_3b/3x3_reduce"
  param {
    lr_mult: 1
    decay_mult: 1
  }
  param {
    lr_mult: 2
    decay_mult: 0
  }
  convolution_param {
    num_output: 128
    kernel_size: 1
    weight_filler {
      type: "xavier"
      std: 0.09
    }
    bias_filler {
      type: "constant"
      value: 0.2
    }
  }
}
layer {
  name: "inception_3b/relu_3x3_reduce"
  type: "ReLU"
  bottom: "inception_3b/3x3_reduce"
  top: "inception_3b/3x3_reduce"
}
layer {
  name: "inception_3b/3x3"
  type: "Convolution"
  bottom: "inception_3b/3x3_reduce"
  top: "inception_3b/3x3"
  param {
    lr_mult: 1
    decay_mult: 1
  }
  param {
    lr_mult: 2
    decay_mult: 0
  }
  convolution_param {
    num_output: 192
    pad: 1
    kernel_size: 3
    weight_filler {
      type: "xavier"
      std: 0.03
    }
    bias_filler {
      type: "constant"
      value: 0.2
    }
  }
}
layer {
  name: "inception_3b/relu_3x3"
  type: "ReLU"
  bottom: "inception_3b/3x3"
  top: "inception_3b/3x3"
}
layer {
  name: "inception_3b/5x5_reduce"
  type: "Convolution"
  bottom: "inception_3a/output"
  top: "inception_3b/5x5_reduce"
  param {
    lr_mult: 1
    decay_mult: 1
  }
  param {
    lr_mult: 2
    decay_mult: 0
  }
  convolution_param {
    num_output: 32
    kernel_size: 1
    weight_filler {
      type: "xavier"
      std: 0.2
    }
    bias_filler {
      type: "constant"
      value: 0.2
    }
  }
}
layer {
  name: "inception_3b/relu_5x5_reduce"
  type: "ReLU"
  bottom: "inception_3b/5x5_reduce"
  top: "inception_3b/5x5_reduce"
}
layer {
  name: "inception_3b/5x5"
  type: "Convolution"
  bottom: "inception_3b/5x5_reduce"
  top: "inception_3b/5x5"
  param {
    lr_mult: 1
    decay_mult: 1
  }
  param {
    lr_mult: 2
    decay_mult: 0
  }
  convolution_param {
    num_output: 96
    pad: 2
    kernel_size: 5
    weight_filler {
      type: "xavier"
      std: 0.03
    }
    bias_filler {
      type: "constant"
      value: 0.2
    }
  }
}
layer {
  name: "inception_3b/relu_5x5"
  type: "ReLU"
  bottom: "inception_3b/5x5"
  top: "inception_3b/5x5"
}
layer {
  name: "inception_3b/pool"
  type: "Pooling"
  bottom: "inception_3a/output"
  top: "inception_3b/pool"
  pooling_param {
    pool: MAX
    kernel_size: 3
    stride: 1
    pad: 1
  }
}
layer {
  name: "inception_3b/pool_proj"
  type: "Convolution"
  bottom: "inception_3b/pool"
  top: "inception_3b/pool_proj"
  param {
    lr_mult: 1
    decay_mult: 1
  }
  param {
    lr_mult: 2
    decay_mult: 0
  }
  convolution_param {
    num_output: 64
    kernel_size: 1
    weight_filler {
      type: "xavier"
      std: 0.1
    }
    bias_filler {
      type: "constant"
      value: 0.2
    }
  }
}
layer {
  name: "inception_3b/relu_pool_proj"
  type: "ReLU"
  bottom: "inception_3b/pool_proj"
  top: "inception_3b/pool_proj"
}
layer {
  name: "inception_3b/output"
  type: "Concat"
  bottom: "inception_3b/1x1"
  bottom: "inception_3b/3x3"
  bottom: "inception_3b/5x5"
  bottom: "inception_3b/pool_proj"
  top: "inception_3b/output"
}
layer {
  name: "pool3/3x3_s2"
  type: "Pooling"
  bottom: "inception_3b/output"
  top: "pool3/3x3_s2"
  pooling_param {
    pool: MAX
    kernel_size: 3
    stride: 2
  }
}
layer {
  name: "inception_4a/1x1"
  type: "Convolution"
  bottom: "pool3/3x3_s2"
  top: "inception_4a/1x1"
  param {
    lr_mult: 1
    decay_mult: 1
  }
  param {
    lr_mult: 2
    decay_mult: 0
  }
  convolution_param {
    num_output: 192
    kernel_size: 1
    weight_filler {
      type: "xavier"
      std: 0.03
    }
    bias_filler {
      type: "constant"
      value: 0.2
    }
  }
}
layer {
  name: "inception_4a/relu_1x1"
  type: "ReLU"
  bottom: "inception_4a/1x1"
  top: "inception_4a/1x1"
}
layer {
  name: "inception_4a/3x3_reduce"
  type: "Convolution"
  bottom: "pool3/3x3_s2"
  top: "inception_4a/3x3_reduce"
  param {
    lr_mult: 1
    decay_mult: 1
  }
  param {
    lr_mult: 2
    decay_mult: 0
  }
  convolution_param {
    num_output: 96
    kernel_size: 1
    weight_filler {
      type: "xavier"
      std: 0.09
    }
    bias_filler {
      type: "constant"
      value: 0.2
    }
  }
}
layer {
  name: "inception_4a/relu_3x3_reduce"
  type: "ReLU"
  bottom: "inception_4a/3x3_reduce"
  top: "inception_4a/3x3_reduce"
}
layer {
  name: "inception_4a/3x3"
  type: "Convolution"
  bottom: "inception_4a/3x3_reduce"
  top: "inception_4a/3x3"
  param {
    lr_mult: 1
    decay_mult: 1
  }
  param {
    lr_mult: 2
    decay_mult: 0
  }
  convolution_param {
    num_output: 208
    pad: 1
    kernel_size: 3
    weight_filler {
      type: "xavier"
      std: 0.03
    }
    bias_filler {
      type: "constant"
      value: 0.2
    }
  }
}
layer {
  name: "inception_4a/relu_3x3"
  type: "ReLU"
  bottom: "inception_4a/3x3"
  top: "inception_4a/3x3"
}
layer {
  name: "inception_4a/5x5_reduce"
  type: "Convolution"
  bottom: "pool3/3x3_s2"
  top: "inception_4a/5x5_reduce"
  param {
    lr_mult: 1
    decay_mult: 1
  }
  param {
    lr_mult: 2
    decay_mult: 0
  }
  convolution_param {
    num_output: 16
    kernel_size: 1
    weight_filler {
      type: "xavier"
      std: 0.2
    }
    bias_filler {
      type: "constant"
      value: 0.2
    }
  }
}
layer {
  name: "inception_4a/relu_5x5_reduce"
  type: "ReLU"
  bottom: "inception_4a/5x5_reduce"
  top: "inception_4a/5x5_reduce"
}
layer {
  name: "inception_4a/5x5"
  type: "Convolution"
  bottom: "inception_4a/5x5_reduce"
  top: "inception_4a/5x5"
  param {
    lr_mult: 1
    decay_mult: 1
  }
  param {
    lr_mult: 2
    decay_mult: 0
  }
  convolution_param {
    num_output: 48
    pad: 2
    kernel_size: 5
    weight_filler {
      type: "xavier"
      std: 0.03
    }
    bias_filler {
      type: "constant"
      value: 0.2
    }
  }
}
layer {
  name: "inception_4a/relu_5x5"
  type: "ReLU"
  bottom: "inception_4a/5x5"
  top: "inception_4a/5x5"
}
layer {
  name: "inception_4a/pool"
  type: "Pooling"
  bottom: "pool3/3x3_s2"
  top: "inception_4a/pool"
  pooling_param {
    pool: MAX
    kernel_size: 3
    stride: 1
    pad: 1
  }
}
layer {
  name: "inception_4a/pool_proj"
  type: "Convolution"
  bottom: "inception_4a/pool"
  top: "inception_4a/pool_proj"
  param {
    lr_mult: 1
    decay_mult: 1
  }
  param {
    lr_mult: 2
    decay_mult: 0
  }
  convolution_param {
    num_output: 64
    kernel_size: 1
    weight_filler {
      type: "xavier"
      std: 0.1
    }
    bias_filler {
      type: "constant"
      value: 0.2
    }
  }
}
layer {
  name: "inception_4a/relu_pool_proj"
  type: "ReLU"
  bottom: "inception_4a/pool_proj"
  top: "inception_4a/pool_proj"
}
layer {
  name: "inception_4a/output"
  type: "Concat"
  bottom: "inception_4a/1x1"
  bottom: "inception_4a/3x3"
  bottom: "inception_4a/5x5"
  bottom: "inception_4a/pool_proj"
  top: "inception_4a/output"
}
layer {
  name: "loss1/ave_pool"
  type: "Pooling"
  bottom: "inception_4a/output"
  top: "loss1/ave_pool"
  pooling_param {
    pool: AVE
    kernel_size: 5
    stride: 3
  }
}
layer {
  name: "loss1/conv"
  type: "Convolution"
  bottom: "loss1/ave_pool"
  top: "loss1/conv"
  param {
    lr_mult: 1
    decay_mult: 1
  }
  param {
    lr_mult: 2
    decay_mult: 0
  }
  convolution_param {
    num_output: 128
    kernel_size: 1
    weight_filler {
      type: "xavier"
      std: 0.08
    }
    bias_filler {
      type: "constant"
      value: 0.2
    }
  }
}
layer {
  name: "loss1/relu_conv"
  type: "ReLU"
  bottom: "loss1/conv"
  top: "loss1/conv"
}
layer {
  name: "loss1/fc"
  type: "InnerProduct"
  bottom: "loss1/conv"
  top: "loss1/fc"
  param {
    lr_mult: 1
    decay_mult: 1
  }
  param {
    lr_mult: 2
    decay_mult: 0
  }
  inner_product_param {
    num_output: 1024
    weight_filler {
      type: "xavier"
      std: 0.02
    }
    bias_filler {
      type: "constant"
      value: 0.2
    }
  }
}
layer {
  name: "loss1/relu_fc"
  type: "ReLU"
  bottom: "loss1/fc"
  top: "loss1/fc"
}
layer {
  name: "loss1/drop_fc"
  type: "Dropout"
  bottom: "loss1/fc"
  top: "loss1/fc"
  dropout_param {
    dropout_ratio: 0.7
  }
}
layer {
  name: "loss1/classifier_plantvillage"
  type: "InnerProduct"
  bottom: "loss1/fc"
  top: "loss1/classifier_plantvillage"
  param {
    lr_mult: 1
    decay_mult: 1
  }
  param {
    lr_mult: 2
    decay_mult: 0
  }
  inner_product_param {
    num_output: 38
    weight_filler {
      type: "xavier"
      std: 0.0009765625
    }
    bias_filler {
      type: "constant"
      value: 0
    }
  }
}
layer {
  name: "inception_4b/1x1"
  type: "Convolution"
  bottom: "inception_4a/output"
  top: "inception_4b/1x1"
  param {
    lr_mult: 1
    decay_mult: 1
  }
  param {
    lr_mult: 2
    decay_mult: 0
  }
  convolution_param {
    num_output: 160
    kernel_size: 1
    weight_filler {
      type: "xavier"
      std: 0.03
    }
    bias_filler {
      type: "constant"
      value: 0.2
    }
  }
}
layer {
  name: "inception_4b/relu_1x1"
  type: "ReLU"
  bottom: "inception_4b/1x1"
  top: "inception_4b/1x1"
}
layer {
  name: "inception_4b/3x3_reduce"
  type: "Convolution"
  bottom: "inception_4a/output"
  top: "inception_4b/3x3_reduce"
  param {
    lr_mult: 1
    decay_mult: 1
  }
  param {
    lr_mult: 2
    decay_mult: 0
  }
  convolution_param {
    num_output: 112
    kernel_size: 1
    weight_filler {
      type: "xavier"
      std: 0.09
    }
    bias_filler {
      type: "constant"
      value: 0.2
    }
  }
}
layer {
  name: "inception_4b/relu_3x3_reduce"
  type: "ReLU"
  bottom: "inception_4b/3x3_reduce"
  top: "inception_4b/3x3_reduce"
}
layer {
  name: "inception_4b/3x3"
  type: "Convolution"
  bottom: "inception_4b/3x3_reduce"
  top: "inception_4b/3x3"
  param {
    lr_mult: 1
    decay_mult: 1
  }
  param {
    lr_mult: 2
    decay_mult: 0
  }
  convolution_param {
    num_output: 224
    pad: 1
    kernel_size: 3
    weight_filler {
      type: "xavier"
      std: 0.03
    }
    bias_filler {
      type: "constant"
      value: 0.2
    }
  }
}
layer {
  name: "inception_4b/relu_3x3"
  type: "ReLU"
  bottom: "inception_4b/3x3"
  top: "inception_4b/3x3"
}
layer {
  name: "inception_4b/5x5_reduce"
  type: "Convolution"
  bottom: "inception_4a/output"
  top: "inception_4b/5x5_reduce"
  param {
    lr_mult: 1
    decay_mult: 1
  }
  param {
    lr_mult: 2
    decay_mult: 0
  }
  convolution_param {
    num_output: 24
    kernel_size: 1
    weight_filler {
      type: "xavier"
      std: 0.2
    }
    bias_filler {
      type: "constant"
      value: 0.2
    }
  }
}
layer {
  name: "inception_4b/relu_5x5_reduce"
  type: "ReLU"
  bottom: "inception_4b/5x5_reduce"
  top: "inception_4b/5x5_reduce"
}
layer {
  name: "inception_4b/5x5"
  type: "Convolution"
  bottom: "inception_4b/5x5_reduce"
  top: "inception_4b/5x5"
  param {
    lr_mult: 1
    decay_mult: 1
  }
  param {
    lr_mult: 2
    decay_mult: 0
  }
  convolution_param {
    num_output: 64
    pad: 2
    kernel_size: 5
    weight_filler {
      type: "xavier"
      std: 0.03
    }
    bias_filler {
      type: "constant"
      value: 0.2
    }
  }
}
layer {
  name: "inception_4b/relu_5x5"
  type: "ReLU"
  bottom: "inception_4b/5x5"
  top: "inception_4b/5x5"
}
layer {
  name: "inception_4b/pool"
  type: "Pooling"
  bottom: "inception_4a/output"
  top: "inception_4b/pool"
  pooling_param {
    pool: MAX
    kernel_size: 3
    stride: 1
    pad: 1
  }
}
layer {
  name: "inception_4b/pool_proj"
  type: "Convolution"
  bottom: "inception_4b/pool"
  top: "inception_4b/pool_proj"
  param {
    lr_mult: 1
    decay_mult: 1
  }
  param {
    lr_mult: 2
    decay_mult: 0
  }
  convolution_param {
    num_output: 64
    kernel_size: 1
    weight_filler {
      type: "xavier"
      std: 0.1
    }
    bias_filler {
      type: "constant"
      value: 0.2
    }
  }
}
layer {
  name: "inception_4b/relu_pool_proj"
  type: "ReLU"
  bottom: "inception_4b/pool_proj"
  top: "inception_4b/pool_proj"
}
layer {
  name: "inception_4b/output"
  type: "Concat"
  bottom: "inception_4b/1x1"
  bottom: "inception_4b/3x3"
  bottom: "inception_4b/5x5"
  bottom: "inception_4b/pool_proj"
  top: "inception_4b/output"
}
layer {
  name: "inception_4c/1x1"
  type: "Convolution"
  bottom: "inception_4b/output"
  top: "inception_4c/1x1"
  param {
    lr_mult: 1
    decay_mult: 1
  }
  param {
    lr_mult: 2
    decay_mult: 0
  }
  convolution_param {
    num_output: 128
    kernel_size: 1
    weight_filler {
      type: "xavier"
      std: 0.03
    }
    bias_filler {
      type: "constant"
      value: 0.2
    }
  }
}
layer {
  name: "inception_4c/relu_1x1"
  type: "ReLU"
  bottom: "inception_4c/1x1"
  top: "inception_4c/1x1"
}
layer {
  name: "inception_4c/3x3_reduce"
  type: "Convolution"
  bottom: "inception_4b/output"
  top: "inception_4c/3x3_reduce"
  param {
    lr_mult: 1
    decay_mult: 1
  }
  param {
    lr_mult: 2
    decay_mult: 0
  }
  convolution_param {
    num_output: 128
    kernel_size: 1
    weight_filler {
      type: "xavier"
      std: 0.09
    }
    bias_filler {
      type: "constant"
      value: 0.2
    }
  }
}
layer {
  name: "inception_4c/relu_3x3_reduce"
  type: "ReLU"
  bottom: "inception_4c/3x3_reduce"
  top: "inception_4c/3x3_reduce"
}
layer {
  name: "inception_4c/3x3"
  type: "Convolution"
  bottom: "inception_4c/3x3_reduce"
  top: "inception_4c/3x3"
  param {
    lr_mult: 1
    decay_mult: 1
  }
  param {
    lr_mult: 2
    decay_mult: 0
  }
  convolution_param {
    num_output: 256
    pad: 1
    kernel_size: 3
    weight_filler {
      type: "xavier"
      std: 0.03
    }
    bias_filler {
      type: "constant"
      value: 0.2
    }
  }
}
layer {
  name: "inception_4c/relu_3x3"
  type: "ReLU"
  bottom: "inception_4c/3x3"
  top: "inception_4c/3x3"
}
layer {
  name: "inception_4c/5x5_reduce"
  type: "Convolution"
  bottom: "inception_4b/output"
  top: "inception_4c/5x5_reduce"
  param {
    lr_mult: 1
    decay_mult: 1
  }
  param {
    lr_mult: 2
    decay_mult: 0
  }
  convolution_param {
    num_output: 24
    kernel_size: 1
    weight_filler {
      type: "xavier"
      std: 0.2
    }
    bias_filler {
      type: "constant"
      value: 0.2
    }
  }
}
layer {
  name: "inception_4c/relu_5x5_reduce"
  type: "ReLU"
  bottom: "inception_4c/5x5_reduce"
  top: "inception_4c/5x5_reduce"
}
layer {
  name: "inception_4c/5x5"
  type: "Convolution"
  bottom: "inception_4c/5x5_reduce"
  top: "inception_4c/5x5"
  param {
    lr_mult: 1
    decay_mult: 1
  }
  param {
    lr_mult: 2
    decay_mult: 0
  }
  convolution_param {
    num_output: 64
    pad: 2
    kernel_size: 5
    weight_filler {
      type: "xavier"
      std: 0.03
    }
    bias_filler {
      type: "constant"
      value: 0.2
    }
  }
}
layer {
  name: "inception_4c/relu_5x5"
  type: "ReLU"
  bottom: "inception_4c/5x5"
  top: "inception_4c/5x5"
}
layer {
  name: "inception_4c/pool"
  type: "Pooling"
  bottom: "inception_4b/output"
  top: "inception_4c/pool"
  pooling_param {
    pool: MAX
    kernel_size: 3
    stride: 1
    pad: 1
  }
}
layer {
  name: "inception_4c/pool_proj"
  type: "Convolution"
  bottom: "inception_4c/pool"
  top: "inception_4c/pool_proj"
  param {
    lr_mult: 1
    decay_mult: 1
  }
  param {
    lr_mult: 2
    decay_mult: 0
  }
  convolution_param {
    num_output: 64
    kernel_size: 1
    weight_filler {
      type: "xavier"
      std: 0.1
    }
    bias_filler {
      type: "constant"
      value: 0.2
    }
  }
}
layer {
  name: "inception_4c/relu_pool_proj"
  type: "ReLU"
  bottom: "inception_4c/pool_proj"
  top: "inception_4c/pool_proj"
}
layer {
  name: "inception_4c/output"
  type: "Concat"
  bottom: "inception_4c/1x1"
  bottom: "inception_4c/3x3"
  bottom: "inception_4c/5x5"
  bottom: "inception_4c/pool_proj"
  top: "inception_4c/output"
}
layer {
  name: "inception_4d/1x1"
  type: "Convolution"
  bottom: "inception_4c/output"
  top: "inception_4d/1x1"
  param {
    lr_mult: 1
    decay_mult: 1
  }
  param {
    lr_mult: 2
    decay_mult: 0
  }
  convolution_param {
    num_output: 112
    kernel_size: 1
    weight_filler {
      type: "xavier"
      std: 0.03
    }
    bias_filler {
      type: "constant"
      value: 0.2
    }
  }
}
layer {
  name: "inception_4d/relu_1x1"
  type: "ReLU"
  bottom: "inception_4d/1x1"
  top: "inception_4d/1x1"
}
layer {
  name: "inception_4d/3x3_reduce"
  type: "Convolution"
  bottom: "inception_4c/output"
  top: "inception_4d/3x3_reduce"
  param {
    lr_mult: 1
    decay_mult: 1
  }
  param {
    lr_mult: 2
    decay_mult: 0
  }
  convolution_param {
    num_output: 144
    kernel_size: 1
    weight_filler {
      type: "xavier"
      std: 0.09
    }
    bias_filler {
      type: "constant"
      value: 0.2
    }
  }
}
layer {
  name: "inception_4d/relu_3x3_reduce"
  type: "ReLU"
  bottom: "inception_4d/3x3_reduce"
  top: "inception_4d/3x3_reduce"
}
layer {
  name: "inception_4d/3x3"
  type: "Convolution"
  bottom: "inception_4d/3x3_reduce"
  top: "inception_4d/3x3"
  param {
    lr_mult: 1
    decay_mult: 1
  }
  param {
    lr_mult: 2
    decay_mult: 0
  }
  convolution_param {
    num_output: 288
    pad: 1
    kernel_size: 3
    weight_filler {
      type: "xavier"
      std: 0.03
    }
    bias_filler {
      type: "constant"
      value: 0.2
    }
  }
}
layer {
  name: "inception_4d/relu_3x3"
  type: "ReLU"
  bottom: "inception_4d/3x3"
  top: "inception_4d/3x3"
}
layer {
  name: "inception_4d/5x5_reduce"
  type: "Convolution"
  bottom: "inception_4c/output"
  top: "inception_4d/5x5_reduce"
  param {
    lr_mult: 1
    decay_mult: 1
  }
  param {
    lr_mult: 2
    decay_mult: 0
  }
  convolution_param {
    num_output: 32
    kernel_size: 1
    weight_filler {
      type: "xavier"
      std: 0.2
    }
    bias_filler {
      type: "constant"
      value: 0.2
    }
  }
}
layer {
  name: "inception_4d/relu_5x5_reduce"
  type: "ReLU"
  bottom: "inception_4d/5x5_reduce"
  top: "inception_4d/5x5_reduce"
}
layer {
  name: "inception_4d/5x5"
  type: "Convolution"
  bottom: "inception_4d/5x5_reduce"
  top: "inception_4d/5x5"
  param {
    lr_mult: 1
    decay_mult: 1
  }
  param {
    lr_mult: 2
    decay_mult: 0
  }
  convolution_param {
    num_output: 64
    pad: 2
    kernel_size: 5
    weight_filler {
      type: "xavier"
      std: 0.03
    }
    bias_filler {
      type: "constant"
      value: 0.2
    }
  }
}
layer {
  name: "inception_4d/relu_5x5"
  type: "ReLU"
  bottom: "inception_4d/5x5"
  top: "inception_4d/5x5"
}
layer {
  name: "inception_4d/pool"
  type: "Pooling"
  bottom: "inception_4c/output"
  top: "inception_4d/pool"
  pooling_param {
    pool: MAX
    kernel_size: 3
    stride: 1
    pad: 1
  }
}
layer {
  name: "inception_4d/pool_proj"
  type: "Convolution"
  bottom: "inception_4d/pool"
  top: "inception_4d/pool_proj"
  param {
    lr_mult: 1
    decay_mult: 1
  }
  param {
    lr_mult: 2
    decay_mult: 0
  }
  convolution_param {
    num_output: 64
    kernel_size: 1
    weight_filler {
      type: "xavier"
      std: 0.1
    }
    bias_filler {
      type: "constant"
      value: 0.2
    }
  }
}
layer {
  name: "inception_4d/relu_pool_proj"
  type: "ReLU"
  bottom: "inception_4d/pool_proj"
  top: "inception_4d/pool_proj"
}
layer {
  name: "inception_4d/output"
  type: "Concat"
  bottom: "inception_4d/1x1"
  bottom: "inception_4d/3x3"
  bottom: "inception_4d/5x5"
  bottom: "inception_4d/pool_proj"
  top: "inception_4d/output"
}
layer {
  name: "loss2/ave_pool"
  type: "Pooling"
  bottom: "inception_4d/output"
  top: "loss2/ave_pool"
  pooling_param {
    pool: AVE
    kernel_size: 5
    stride: 3
  }
}
layer {
  name: "loss2/conv"
  type: "Convolution"
  bottom: "loss2/ave_pool"
  top: "loss2/conv"
  param {
    lr_mult: 1
    decay_mult: 1
  }
  param {
    lr_mult: 2
    decay_mult: 0
  }
  convolution_param {
    num_output: 128
    kernel_size: 1
    weight_filler {
      type: "xavier"
      std: 0.08
    }
    bias_filler {
      type: "constant"
      value: 0.2
    }
  }
}
layer {
  name: "loss2/relu_conv"
  type: "ReLU"
  bottom: "loss2/conv"
  top: "loss2/conv"
}
layer {
  name: "loss2/fc"
  type: "InnerProduct"
  bottom: "loss2/conv"
  top: "loss2/fc"
  param {
    lr_mult: 1
    decay_mult: 1
  }
  param {
    lr_mult: 2
    decay_mult: 0
  }
  inner_product_param {
    num_output: 1024
    weight_filler {
      type: "xavier"
      std: 0.02
    }
    bias_filler {
      type: "constant"
      value: 0.2
    }
  }
}
layer {
  name: "loss2/relu_fc"
  type: "ReLU"
  bottom: "loss2/fc"
  top: "loss2/fc"
}
layer {
  name: "loss2/drop_fc"
  type: "Dropout"
  bottom: "loss2/fc"
  top: "loss2/fc"
  dropout_param {
    dropout_ratio: 0.7
  }
}
layer {
  name: "loss2/classifier_plantvillage"
  type: "InnerProduct"
  bottom: "loss2/fc"
  top: "loss2/classifier_plantvillage"
  param {
    lr_mult: 1
    decay_mult: 1
  }
  param {
    lr_mult: 2
    decay_mult: 0
  }
  inner_product_param {
    num_output: 38
    weight_filler {
      type: "xavier"
      std: 0.0009765625
    }
    bias_filler {
      type: "constant"
      value: 0
    }
  }
}
layer {
  name: "inception_4e/1x1"
  type: "Convolution"
  bottom: "inception_4d/output"
  top: "inception_4e/1x1"
  param {
    lr_mult: 1
    decay_mult: 1
  }
  param {
    lr_mult: 2
    decay_mult: 0
  }
  convolution_param {
    num_output: 256
    kernel_size: 1
    weight_filler {
      type: "xavier"
      std: 0.03
    }
    bias_filler {
      type: "constant"
      value: 0.2
    }
  }
}
layer {
  name: "inception_4e/relu_1x1"
  type: "ReLU"
  bottom: "inception_4e/1x1"
  top: "inception_4e/1x1"
}
layer {
  name: "inception_4e/3x3_reduce"
  type: "Convolution"
  bottom: "inception_4d/output"
  top: "inception_4e/3x3_reduce"
  param {
    lr_mult: 1
    decay_mult: 1
  }
  param {
    lr_mult: 2
    decay_mult: 0
  }
  convolution_param {
    num_output: 160
    kernel_size: 1
    weight_filler {
      type: "xavier"
      std: 0.09
    }
    bias_filler {
      type: "constant"
      value: 0.2
    }
  }
}
layer {
  name: "inception_4e/relu_3x3_reduce"
  type: "ReLU"
  bottom: "inception_4e/3x3_reduce"
  top: "inception_4e/3x3_reduce"
}
layer {
  name: "inception_4e/3x3"
  type: "Convolution"
  bottom: "inception_4e/3x3_reduce"
  top: "inception_4e/3x3"
  param {
    lr_mult: 1
    decay_mult: 1
  }
  param {
    lr_mult: 2
    decay_mult: 0
  }
  convolution_param {
    num_output: 320
    pad: 1
    kernel_size: 3
    weight_filler {
      type: "xavier"
      std: 0.03
    }
    bias_filler {
      type: "constant"
      value: 0.2
    }
  }
}
layer {
  name: "inception_4e/relu_3x3"
  type: "ReLU"
  bottom: "inception_4e/3x3"
  top: "inception_4e/3x3"
}
layer {
  name: "inception_4e/5x5_reduce"
  type: "Convolution"
  bottom: "inception_4d/output"
  top: "inception_4e/5x5_reduce"
  param {
    lr_mult: 1
    decay_mult: 1
  }
  param {
    lr_mult: 2
    decay_mult: 0
  }
  convolution_param {
    num_output: 32
    kernel_size: 1
    weight_filler {
      type: "xavier"
      std: 0.2
    }
    bias_filler {
      type: "constant"
      value: 0.2
    }
  }
}
layer {
  name: "inception_4e/relu_5x5_reduce"
  type: "ReLU"
  bottom: "inception_4e/5x5_reduce"
  top: "inception_4e/5x5_reduce"
}
layer {
  name: "inception_4e/5x5"
  type: "Convolution"
  bottom: "inception_4e/5x5_reduce"
  top: "inception_4e/5x5"
  p
I0403 14:30:33.972815 13352 layer_factory.hpp:77] Creating layer data
I0403 14:30:33.973386 13352 net.cpp:91] Creating Layer data
I0403 14:30:33.973414 13352 net.cpp:399] data -> data
I0403 14:30:33.973464 13352 net.cpp:399] data -> label
I0403 14:30:33.973500 13352 data_transformer.cpp:25] Loading mean file from: /home/mohanty/data/final_dataset/lmdb/color-40-60/mean.binaryproto
I0403 14:30:33.976593 13356 db_lmdb.cpp:38] Opened lmdb /home/mohanty/data/final_dataset/lmdb/color-40-60/test_db
I0403 14:30:33.987022 13352 data_layer.cpp:41] output data size: 24,3,224,224
I0403 14:30:34.015619 13352 net.cpp:141] Setting up data
I0403 14:30:34.015712 13352 net.cpp:148] Top shape: 24 3 224 224 (3612672)
I0403 14:30:34.015735 13352 net.cpp:148] Top shape: 24 (24)
I0403 14:30:34.015750 13352 net.cpp:156] Memory required for data: 14450784
I0403 14:30:34.015780 13352 layer_factory.hpp:77] Creating layer label_data_1_split
I0403 14:30:34.015807 13352 net.cpp:91] Creating Layer label_data_1_split
I0403 14:30:34.015826 13352 net.cpp:425] label_data_1_split <- label
I0403 14:30:34.015861 13352 net.cpp:399] label_data_1_split -> label_data_1_split_0
I0403 14:30:34.015889 13352 net.cpp:399] label_data_1_split -> label_data_1_split_1
I0403 14:30:34.015913 13352 net.cpp:399] label_data_1_split -> label_data_1_split_2
I0403 14:30:34.015934 13352 net.cpp:399] label_data_1_split -> label_data_1_split_3
I0403 14:30:34.015954 13352 net.cpp:399] label_data_1_split -> label_data_1_split_4
I0403 14:30:34.015975 13352 net.cpp:399] label_data_1_split -> label_data_1_split_5
I0403 14:30:34.015996 13352 net.cpp:399] label_data_1_split -> label_data_1_split_6
I0403 14:30:34.016017 13352 net.cpp:399] label_data_1_split -> label_data_1_split_7
I0403 14:30:34.016037 13352 net.cpp:399] label_data_1_split -> label_data_1_split_8
I0403 14:30:34.016058 13352 net.cpp:399] label_data_1_split -> label_data_1_split_9
I0403 14:30:34.016178 13352 net.cpp:141] Setting up label_data_1_split
I0403 14:30:34.016203 13352 net.cpp:148] Top shape: 24 (24)
I0403 14:30:34.016222 13352 net.cpp:148] Top shape: 24 (24)
I0403 14:30:34.016237 13352 net.cpp:148] Top shape: 24 (24)
I0403 14:30:34.016254 13352 net.cpp:148] Top shape: 24 (24)
I0403 14:30:34.016270 13352 net.cpp:148] Top shape: 24 (24)
I0403 14:30:34.016286 13352 net.cpp:148] Top shape: 24 (24)
I0403 14:30:34.016302 13352 net.cpp:148] Top shape: 24 (24)
I0403 14:30:34.016319 13352 net.cpp:148] Top shape: 24 (24)
I0403 14:30:34.016335 13352 net.cpp:148] Top shape: 24 (24)
I0403 14:30:34.016352 13352 net.cpp:148] Top shape: 24 (24)
I0403 14:30:34.016407 13352 net.cpp:156] Memory required for data: 14451744
I0403 14:30:34.016424 13352 layer_factory.hpp:77] Creating layer conv1/7x7_s2
I0403 14:30:34.016458 13352 net.cpp:91] Creating Layer conv1/7x7_s2
I0403 14:30:34.016476 13352 net.cpp:425] conv1/7x7_s2 <- data
I0403 14:30:34.016497 13352 net.cpp:399] conv1/7x7_s2 -> conv1/7x7_s2
I0403 14:30:34.160030 13352 net.cpp:141] Setting up conv1/7x7_s2
I0403 14:30:34.160073 13352 net.cpp:148] Top shape: 24 64 112 112 (19267584)
I0403 14:30:34.160090 13352 net.cpp:156] Memory required for data: 91522080
I0403 14:30:34.160120 13352 layer_factory.hpp:77] Creating layer conv1/relu_7x7
I0403 14:30:34.160148 13352 net.cpp:91] Creating Layer conv1/relu_7x7
I0403 14:30:34.160166 13352 net.cpp:425] conv1/relu_7x7 <- conv1/7x7_s2
I0403 14:30:34.160186 13352 net.cpp:386] conv1/relu_7x7 -> conv1/7x7_s2 (in-place)
I0403 14:30:34.160444 13352 net.cpp:141] Setting up conv1/relu_7x7
I0403 14:30:34.160471 13352 net.cpp:148] Top shape: 24 64 112 112 (19267584)
I0403 14:30:34.160486 13352 net.cpp:156] Memory required for data: 168592416
I0403 14:30:34.160501 13352 layer_factory.hpp:77] Creating layer pool1/3x3_s2
I0403 14:30:34.160526 13352 net.cpp:91] Creating Layer pool1/3x3_s2
I0403 14:30:34.160543 13352 net.cpp:425] pool1/3x3_s2 <- conv1/7x7_s2
I0403 14:30:34.160562 13352 net.cpp:399] pool1/3x3_s2 -> pool1/3x3_s2
I0403 14:30:34.160640 13352 net.cpp:141] Setting up pool1/3x3_s2
I0403 14:30:34.160665 13352 net.cpp:148] Top shape: 24 64 56 56 (4816896)
I0403 14:30:34.160679 13352 net.cpp:156] Memory required for data: 187860000
I0403 14:30:34.160693 13352 layer_factory.hpp:77] Creating layer pool1/norm1
I0403 14:30:34.160718 13352 net.cpp:91] Creating Layer pool1/norm1
I0403 14:30:34.160735 13352 net.cpp:425] pool1/norm1 <- pool1/3x3_s2
I0403 14:30:34.160753 13352 net.cpp:399] pool1/norm1 -> pool1/norm1
I0403 14:30:34.161041 13352 net.cpp:141] Setting up pool1/norm1
I0403 14:30:34.161067 13352 net.cpp:148] Top shape: 24 64 56 56 (4816896)
I0403 14:30:34.161083 13352 net.cpp:156] Memory required for data: 207127584
I0403 14:30:34.161098 13352 layer_factory.hpp:77] Creating layer conv2/3x3_reduce
I0403 14:30:34.161123 13352 net.cpp:91] Creating Layer conv2/3x3_reduce
I0403 14:30:34.161141 13352 net.cpp:425] conv2/3x3_reduce <- pool1/norm1
I0403 14:30:34.161160 13352 net.cpp:399] conv2/3x3_reduce -> conv2/3x3_reduce
I0403 14:30:34.162534 13352 net.cpp:141] Setting up conv2/3x3_reduce
I0403 14:30:34.162565 13352 net.cpp:148] Top shape: 24 64 56 56 (4816896)
I0403 14:30:34.162582 13352 net.cpp:156] Memory required for data: 226395168
I0403 14:30:34.162621 13352 layer_factory.hpp:77] Creating layer conv2/relu_3x3_reduce
I0403 14:30:34.162642 13352 net.cpp:91] Creating Layer conv2/relu_3x3_reduce
I0403 14:30:34.162657 13352 net.cpp:425] conv2/relu_3x3_reduce <- conv2/3x3_reduce
I0403 14:30:34.162674 13352 net.cpp:386] conv2/relu_3x3_reduce -> conv2/3x3_reduce (in-place)
I0403 14:30:34.162927 13352 net.cpp:141] Setting up conv2/relu_3x3_reduce
I0403 14:30:34.162955 13352 net.cpp:148] Top shape: 24 64 56 56 (4816896)
I0403 14:30:34.162971 13352 net.cpp:156] Memory required for data: 245662752
I0403 14:30:34.162986 13352 layer_factory.hpp:77] Creating layer conv2/3x3
I0403 14:30:34.163008 13352 net.cpp:91] Creating Layer conv2/3x3
I0403 14:30:34.163054 13352 net.cpp:425] conv2/3x3 <- conv2/3x3_reduce
I0403 14:30:34.163079 13352 net.cpp:399] conv2/3x3 -> conv2/3x3
I0403 14:30:34.165343 13352 net.cpp:141] Setting up conv2/3x3
I0403 14:30:34.165372 13352 net.cpp:148] Top shape: 24 192 56 56 (14450688)
I0403 14:30:34.165388 13352 net.cpp:156] Memory required for data: 303465504
I0403 14:30:34.165410 13352 layer_factory.hpp:77] Creating layer conv2/relu_3x3
I0403 14:30:34.165428 13352 net.cpp:91] Creating Layer conv2/relu_3x3
I0403 14:30:34.165444 13352 net.cpp:425] conv2/relu_3x3 <- conv2/3x3
I0403 14:30:34.165462 13352 net.cpp:386] conv2/relu_3x3 -> conv2/3x3 (in-place)
I0403 14:30:34.165623 13352 net.cpp:141] Setting up conv2/relu_3x3
I0403 14:30:34.165648 13352 net.cpp:148] Top shape: 24 192 56 56 (14450688)
I0403 14:30:34.165701 13352 net.cpp:156] Memory required for data: 361268256
I0403 14:30:34.165717 13352 layer_factory.hpp:77] Creating layer conv2/norm2
I0403 14:30:34.165736 13352 net.cpp:91] Creating Layer conv2/norm2
I0403 14:30:34.165752 13352 net.cpp:425] conv2/norm2 <- conv2/3x3
I0403 14:30:34.165769 13352 net.cpp:399] conv2/norm2 -> conv2/norm2
I0403 14:30:34.166051 13352 net.cpp:141] Setting up conv2/norm2
I0403 14:30:34.166077 13352 net.cpp:148] Top shape: 24 192 56 56 (14450688)
I0403 14:30:34.166092 13352 net.cpp:156] Memory required for data: 419071008
I0403 14:30:34.166107 13352 layer_factory.hpp:77] Creating layer pool2/3x3_s2
I0403 14:30:34.166124 13352 net.cpp:91] Creating Layer pool2/3x3_s2
I0403 14:30:34.166141 13352 net.cpp:425] pool2/3x3_s2 <- conv2/norm2
I0403 14:30:34.166157 13352 net.cpp:399] pool2/3x3_s2 -> pool2/3x3_s2
I0403 14:30:34.166204 13352 net.cpp:141] Setting up pool2/3x3_s2
I0403 14:30:34.166227 13352 net.cpp:148] Top shape: 24 192 28 28 (3612672)
I0403 14:30:34.166241 13352 net.cpp:156] Memory required for data: 433521696
I0403 14:30:34.166256 13352 layer_factory.hpp:77] Creating layer pool2/3x3_s2_pool2/3x3_s2_0_split
I0403 14:30:34.166273 13352 net.cpp:91] Creating Layer pool2/3x3_s2_pool2/3x3_s2_0_split
I0403 14:30:34.166287 13352 net.cpp:425] pool2/3x3_s2_pool2/3x3_s2_0_split <- pool2/3x3_s2
I0403 14:30:34.166304 13352 net.cpp:399] pool2/3x3_s2_pool2/3x3_s2_0_split -> pool2/3x3_s2_pool2/3x3_s2_0_split_0
I0403 14:30:34.166323 13352 net.cpp:399] pool2/3x3_s2_pool2/3x3_s2_0_split -> pool2/3x3_s2_pool2/3x3_s2_0_split_1
I0403 14:30:34.166342 13352 net.cpp:399] pool2/3x3_s2_pool2/3x3_s2_0_split -> pool2/3x3_s2_pool2/3x3_s2_0_split_2
I0403 14:30:34.166363 13352 net.cpp:399] pool2/3x3_s2_pool2/3x3_s2_0_split -> pool2/3x3_s2_pool2/3x3_s2_0_split_3
I0403 14:30:34.166425 13352 net.cpp:141] Setting up pool2/3x3_s2_pool2/3x3_s2_0_split
I0403 14:30:34.166447 13352 net.cpp:148] Top shape: 24 192 28 28 (3612672)
I0403 14:30:34.166463 13352 net.cpp:148] Top shape: 24 192 28 28 (3612672)
I0403 14:30:34.166478 13352 net.cpp:148] Top shape: 24 192 28 28 (3612672)
I0403 14:30:34.166494 13352 net.cpp:148] Top shape: 24 192 28 28 (3612672)
I0403 14:30:34.166507 13352 net.cpp:156] Memory required for data: 491324448
I0403 14:30:34.166522 13352 layer_factory.hpp:77] Creating layer inception_3a/1x1
I0403 14:30:34.166541 13352 net.cpp:91] Creating Layer inception_3a/1x1
I0403 14:30:34.166558 13352 net.cpp:425] inception_3a/1x1 <- pool2/3x3_s2_pool2/3x3_s2_0_split_0
I0403 14:30:34.166575 13352 net.cpp:399] inception_3a/1x1 -> inception_3a/1x1
I0403 14:30:34.168014 13352 net.cpp:141] Setting up inception_3a/1x1
I0403 14:30:34.168045 13352 net.cpp:148] Top shape: 24 64 28 28 (1204224)
I0403 14:30:34.168062 13352 net.cpp:156] Memory required for data: 496141344
I0403 14:30:34.168081 13352 layer_factory.hpp:77] Creating layer inception_3a/relu_1x1
I0403 14:30:34.168097 13352 net.cpp:91] Creating Layer inception_3a/relu_1x1
I0403 14:30:34.168113 13352 net.cpp:425] inception_3a/relu_1x1 <- inception_3a/1x1
I0403 14:30:34.168130 13352 net.cpp:386] inception_3a/relu_1x1 -> inception_3a/1x1 (in-place)
I0403 14:30:34.168303 13352 net.cpp:141] Setting up inception_3a/relu_1x1
I0403 14:30:34.168329 13352 net.cpp:148] Top shape: 24 64 28 28 (1204224)
I0403 14:30:34.168342 13352 net.cpp:156] Memory required for data: 500958240
I0403 14:30:34.168356 13352 layer_factory.hpp:77] Creating layer inception_3a/3x3_reduce
I0403 14:30:34.168378 13352 net.cpp:91] Creating Layer inception_3a/3x3_reduce
I0403 14:30:34.168396 13352 net.cpp:425] inception_3a/3x3_reduce <- pool2/3x3_s2_pool2/3x3_s2_0_split_1
I0403 14:30:34.168416 13352 net.cpp:399] inception_3a/3x3_reduce -> inception_3a/3x3_reduce
I0403 14:30:34.170099 13352 net.cpp:141] Setting up inception_3a/3x3_reduce
I0403 14:30:34.170130 13352 net.cpp:148] Top shape: 24 96 28 28 (1806336)
I0403 14:30:34.170147 13352 net.cpp:156] Memory required for data: 508183584
I0403 14:30:34.170168 13352 layer_factory.hpp:77] Creating layer inception_3a/relu_3x3_reduce
I0403 14:30:34.170204 13352 net.cpp:91] Creating Layer inception_3a/relu_3x3_reduce
I0403 14:30:34.170224 13352 net.cpp:425] inception_3a/relu_3x3_reduce <- inception_3a/3x3_reduce
I0403 14:30:34.170243 13352 net.cpp:386] inception_3a/relu_3x3_reduce -> inception_3a/3x3_reduce (in-place)
I0403 14:30:34.170424 13352 net.cpp:141] Setting up inception_3a/relu_3x3_reduce
I0403 14:30:34.170449 13352 net.cpp:148] Top shape: 24 96 28 28 (1806336)
I0403 14:30:34.170464 13352 net.cpp:156] Memory required for data: 515408928
I0403 14:30:34.170478 13352 layer_factory.hpp:77] Creating layer inception_3a/3x3
I0403 14:30:34.170501 13352 net.cpp:91] Creating Layer inception_3a/3x3
I0403 14:30:34.170518 13352 net.cpp:425] inception_3a/3x3 <- inception_3a/3x3_reduce
I0403 14:30:34.170537 13352 net.cpp:399] inception_3a/3x3 -> inception_3a/3x3
I0403 14:30:34.172174 13352 net.cpp:141] Setting up inception_3a/3x3
I0403 14:30:34.172204 13352 net.cpp:148] Top shape: 24 128 28 28 (2408448)
I0403 14:30:34.172219 13352 net.cpp:156] Memory required for data: 525042720
I0403 14:30:34.172236 13352 layer_factory.hpp:77] Creating layer inception_3a/relu_3x3
I0403 14:30:34.172256 13352 net.cpp:91] Creating Layer inception_3a/relu_3x3
I0403 14:30:34.172271 13352 net.cpp:425] inception_3a/relu_3x3 <- inception_3a/3x3
I0403 14:30:34.172291 13352 net.cpp:386] inception_3a/relu_3x3 -> inception_3a/3x3 (in-place)
I0403 14:30:34.172565 13352 net.cpp:141] Setting up inception_3a/relu_3x3
I0403 14:30:34.172592 13352 net.cpp:148] Top shape: 24 128 28 28 (2408448)
I0403 14:30:34.172612 13352 net.cpp:156] Memory required for data: 534676512
I0403 14:30:34.172627 13352 layer_factory.hpp:77] Creating layer inception_3a/5x5_reduce
I0403 14:30:34.172652 13352 net.cpp:91] Creating Layer inception_3a/5x5_reduce
I0403 14:30:34.172669 13352 net.cpp:425] inception_3a/5x5_reduce <- pool2/3x3_s2_pool2/3x3_s2_0_split_2
I0403 14:30:34.172690 13352 net.cpp:399] inception_3a/5x5_reduce -> inception_3a/5x5_reduce
I0403 14:30:34.173637 13352 net.cpp:141] Setting up inception_3a/5x5_reduce
I0403 14:30:34.173666 13352 net.cpp:148] Top shape: 24 16 28 28 (301056)
I0403 14:30:34.173681 13352 net.cpp:156] Memory required for data: 535880736
I0403 14:30:34.173699 13352 layer_factory.hpp:77] Creating layer inception_3a/relu_5x5_reduce
I0403 14:30:34.173717 13352 net.cpp:91] Creating Layer inception_3a/relu_5x5_reduce
I0403 14:30:34.173732 13352 net.cpp:425] inception_3a/relu_5x5_reduce <- inception_3a/5x5_reduce
I0403 14:30:34.173751 13352 net.cpp:386] inception_3a/relu_5x5_reduce -> inception_3a/5x5_reduce (in-place)
I0403 14:30:34.174048 13352 net.cpp:141] Setting up inception_3a/relu_5x5_reduce
I0403 14:30:34.174074 13352 net.cpp:148] Top shape: 24 16 28 28 (301056)
I0403 14:30:34.174089 13352 net.cpp:156] Memory required for data: 537084960
I0403 14:30:34.174104 13352 layer_factory.hpp:77] Creating layer inception_3a/5x5
I0403 14:30:34.174126 13352 net.cpp:91] Creating Layer inception_3a/5x5
I0403 14:30:34.174144 13352 net.cpp:425] inception_3a/5x5 <- inception_3a/5x5_reduce
I0403 14:30:34.174165 13352 net.cpp:399] inception_3a/5x5 -> inception_3a/5x5
I0403 14:30:34.175165 13352 net.cpp:141] Setting up inception_3a/5x5
I0403 14:30:34.175196 13352 net.cpp:148] Top shape: 24 32 28 28 (602112)
I0403 14:30:34.175212 13352 net.cpp:156] Memory required for data: 539493408
I0403 14:30:34.175230 13352 layer_factory.hpp:77] Creating layer inception_3a/relu_5x5
I0403 14:30:34.175248 13352 net.cpp:91] Creating Layer inception_3a/relu_5x5
I0403 14:30:34.175266 13352 net.cpp:425] inception_3a/relu_5x5 <- inception_3a/5x5
I0403 14:30:34.175285 13352 net.cpp:386] inception_3a/relu_5x5 -> inception_3a/5x5 (in-place)
I0403 14:30:34.175454 13352 net.cpp:141] Setting up inception_3a/relu_5x5
I0403 14:30:34.175479 13352 net.cpp:148] Top shape: 24 32 28 28 (602112)
I0403 14:30:34.175493 13352 net.cpp:156] Memory required for data: 541901856
I0403 14:30:34.175508 13352 layer_factory.hpp:77] Creating layer inception_3a/pool
I0403 14:30:34.175525 13352 net.cpp:91] Creating Layer inception_3a/pool
I0403 14:30:34.175541 13352 net.cpp:425] inception_3a/pool <- pool2/3x3_s2_pool2/3x3_s2_0_split_3
I0403 14:30:34.175577 13352 net.cpp:399] inception_3a/pool -> inception_3a/pool
I0403 14:30:34.175642 13352 net.cpp:141] Setting up inception_3a/pool
I0403 14:30:34.175665 13352 net.cpp:148] Top shape: 24 192 28 28 (3612672)
I0403 14:30:34.175679 13352 net.cpp:156] Memory required for data: 556352544
I0403 14:30:34.175693 13352 layer_factory.hpp:77] Creating layer inception_3a/pool_proj
I0403 14:30:34.175715 13352 net.cpp:91] Creating Layer inception_3a/pool_proj
I0403 14:30:34.175734 13352 net.cpp:425] inception_3a/pool_proj <- inception_3a/pool
I0403 14:30:34.175755 13352 net.cpp:399] inception_3a/pool_proj -> inception_3a/pool_proj
I0403 14:30:34.176702 13352 net.cpp:141] Setting up inception_3a/pool_proj
I0403 14:30:34.176730 13352 net.cpp:148] Top shape: 24 32 28 28 (602112)
I0403 14:30:34.176746 13352 net.cpp:156] Memory required for data: 558760992
I0403 14:30:34.176769 13352 layer_factory.hpp:77] Creating layer inception_3a/relu_pool_proj
I0403 14:30:34.176789 13352 net.cpp:91] Creating Layer inception_3a/relu_pool_proj
I0403 14:30:34.176805 13352 net.cpp:425] inception_3a/relu_pool_proj <- inception_3a/pool_proj
I0403 14:30:34.176826 13352 net.cpp:386] inception_3a/relu_pool_proj -> inception_3a/pool_proj (in-place)
I0403 14:30:34.177095 13352 net.cpp:141] Setting up inception_3a/relu_pool_proj
I0403 14:30:34.177122 13352 net.cpp:148] Top shape: 24 32 28 28 (602112)
I0403 14:30:34.177137 13352 net.cpp:156] Memory required for data: 561169440
I0403 14:30:34.177151 13352 layer_factory.hpp:77] Creating layer inception_3a/output
I0403 14:30:34.177168 13352 net.cpp:91] Creating Layer inception_3a/output
I0403 14:30:34.177183 13352 net.cpp:425] inception_3a/output <- inception_3a/1x1
I0403 14:30:34.177199 13352 net.cpp:425] inception_3a/output <- inception_3a/3x3
I0403 14:30:34.177216 13352 net.cpp:425] inception_3a/output <- inception_3a/5x5
I0403 14:30:34.177230 13352 net.cpp:425] inception_3a/output <- inception_3a/pool_proj
I0403 14:30:34.177249 13352 net.cpp:399] inception_3a/output -> inception_3a/output
I0403 14:30:34.177296 13352 net.cpp:141] Setting up inception_3a/output
I0403 14:30:34.177322 13352 net.cpp:148] Top shape: 24 256 28 28 (4816896)
I0403 14:30:34.177337 13352 net.cpp:156] Memory required for data: 580437024
I0403 14:30:34.177352 13352 layer_factory.hpp:77] Creating layer inception_3a/output_inception_3a/output_0_split
I0403 14:30:34.177369 13352 net.cpp:91] Creating Layer inception_3a/output_inception_3a/output_0_split
I0403 14:30:34.177383 13352 net.cpp:425] inception_3a/output_inception_3a/output_0_split <- inception_3a/output
I0403 14:30:34.177400 13352 net.cpp:399] inception_3a/output_inception_3a/output_0_split -> inception_3a/output_inception_3a/output_0_split_0
I0403 14:30:34.177420 13352 net.cpp:399] inception_3a/output_inception_3a/output_0_split -> inception_3a/output_inception_3a/output_0_split_1
I0403 14:30:34.177444 13352 net.cpp:399] inception_3a/output_inception_3a/output_0_split -> inception_3a/output_inception_3a/output_0_split_2
I0403 14:30:34.177466 13352 net.cpp:399] inception_3a/output_inception_3a/output_0_split -> inception_3a/output_inception_3a/output_0_split_3
I0403 14:30:34.177541 13352 net.cpp:141] Setting up inception_3a/output_inception_3a/output_0_split
I0403 14:30:34.177567 13352 net.cpp:148] Top shape: 24 256 28 28 (4816896)
I0403 14:30:34.177583 13352 net.cpp:148] Top shape: 24 256 28 28 (4816896)
I0403 14:30:34.177603 13352 net.cpp:148] Top shape: 24 256 28 28 (4816896)
I0403 14:30:34.177620 13352 net.cpp:148] Top shape: 24 256 28 28 (4816896)
I0403 14:30:34.177634 13352 net.cpp:156] Memory required for data: 657507360
I0403 14:30:34.177649 13352 layer_factory.hpp:77] Creating layer inception_3b/1x1
I0403 14:30:34.177670 13352 net.cpp:91] Creating Layer inception_3b/1x1
I0403 14:30:34.177687 13352 net.cpp:425] inception_3b/1x1 <- inception_3a/output_inception_3a/output_0_split_0
I0403 14:30:34.177706 13352 net.cpp:399] inception_3b/1x1 -> inception_3b/1x1
I0403 14:30:34.178830 13352 net.cpp:141] Setting up inception_3b/1x1
I0403 14:30:34.178870 13352 net.cpp:148] Top shape: 24 128 28 28 (2408448)
I0403 14:30:34.178886 13352 net.cpp:156] Memory required for data: 667141152
I0403 14:30:34.178905 13352 layer_factory.hpp:77] Creating layer inception_3b/relu_1x1
I0403 14:30:34.178925 13352 net.cpp:91] Creating Layer inception_3b/relu_1x1
I0403 14:30:34.178941 13352 net.cpp:425] inception_3b/relu_1x1 <- inception_3b/1x1
I0403 14:30:34.178958 13352 net.cpp:386] inception_3b/relu_1x1 -> inception_3b/1x1 (in-place)
I0403 14:30:34.179134 13352 net.cpp:141] Setting up inception_3b/relu_1x1
I0403 14:30:34.179159 13352 net.cpp:148] Top shape: 24 128 28 28 (2408448)
I0403 14:30:34.179174 13352 net.cpp:156] Memory required for data: 676774944
I0403 14:30:34.179189 13352 layer_factory.hpp:77] Creating layer inception_3b/3x3_reduce
I0403 14:30:34.179211 13352 net.cpp:91] Creating Layer inception_3b/3x3_reduce
I0403 14:30:34.179229 13352 net.cpp:425] inception_3b/3x3_reduce <- inception_3a/output_inception_3a/output_0_split_1
I0403 14:30:34.179250 13352 net.cpp:399] inception_3b/3x3_reduce -> inception_3b/3x3_reduce
I0403 14:30:34.180384 13352 net.cpp:141] Setting up inception_3b/3x3_reduce
I0403 14:30:34.180416 13352 net.cpp:148] Top shape: 24 128 28 28 (2408448)
I0403 14:30:34.180433 13352 net.cpp:156] Memory required for data: 686408736
I0403 14:30:34.180450 13352 layer_factory.hpp:77] Creating layer inception_3b/relu_3x3_reduce
I0403 14:30:34.180467 13352 net.cpp:91] Creating Layer inception_3b/relu_3x3_reduce
I0403 14:30:34.180483 13352 net.cpp:425] inception_3b/relu_3x3_reduce <- inception_3b/3x3_reduce
I0403 14:30:34.180500 13352 net.cpp:386] inception_3b/relu_3x3_reduce -> inception_3b/3x3_reduce (in-place)
I0403 14:30:34.180673 13352 net.cpp:141] Setting up inception_3b/relu_3x3_reduce
I0403 14:30:34.180701 13352 net.cpp:148] Top shape: 24 128 28 28 (2408448)
I0403 14:30:34.180716 13352 net.cpp:156] Memory required for data: 696042528
I0403 14:30:34.180732 13352 layer_factory.hpp:77] Creating layer inception_3b/3x3
I0403 14:30:34.180755 13352 net.cpp:91] Creating Layer inception_3b/3x3
I0403 14:30:34.180773 13352 net.cpp:425] inception_3b/3x3 <- inception_3b/3x3_reduce
I0403 14:30:34.180794 13352 net.cpp:399] inception_3b/3x3 -> inception_3b/3x3
I0403 14:30:34.183682 13352 net.cpp:141] Setting up inception_3b/3x3
I0403 14:30:34.183712 13352 net.cpp:148] Top shape: 24 192 28 28 (3612672)
I0403 14:30:34.183727 13352 net.cpp:156] Memory required for data: 710493216
I0403 14:30:34.183744 13352 layer_factory.hpp:77] Creating layer inception_3b/relu_3x3
I0403 14:30:34.183763 13352 net.cpp:91] Creating Layer inception_3b/relu_3x3
I0403 14:30:34.183779 13352 net.cpp:425] inception_3b/relu_3x3 <- inception_3b/3x3
I0403 14:30:34.183800 13352 net.cpp:386] inception_3b/relu_3x3 -> inception_3b/3x3 (in-place)
I0403 14:30:34.184072 13352 net.cpp:141] Setting up inception_3b/relu_3x3
I0403 14:30:34.184098 13352 net.cpp:148] Top shape: 24 192 28 28 (3612672)
I0403 14:30:34.184113 13352 net.cpp:156] Memory required for data: 724943904
I0403 14:30:34.184128 13352 layer_factory.hpp:77] Creating layer inception_3b/5x5_reduce
I0403 14:30:34.184150 13352 net.cpp:91] Creating Layer inception_3b/5x5_reduce
I0403 14:30:34.184170 13352 net.cpp:425] inception_3b/5x5_reduce <- inception_3a/output_inception_3a/output_0_split_2
I0403 14:30:34.184191 13352 net.cpp:399] inception_3b/5x5_reduce -> inception_3b/5x5_reduce
I0403 14:30:34.185179 13352 net.cpp:141] Setting up inception_3b/5x5_reduce
I0403 14:30:34.185210 13352 net.cpp:148] Top shape: 24 32 28 28 (602112)
I0403 14:30:34.185226 13352 net.cpp:156] Memory required for data: 727352352
I0403 14:30:34.185243 13352 layer_factory.hpp:77] Creating layer inception_3b/relu_5x5_reduce
I0403 14:30:34.185261 13352 net.cpp:91] Creating Layer inception_3b/relu_5x5_reduce
I0403 14:30:34.185276 13352 net.cpp:425] inception_3b/relu_5x5_reduce <- inception_3b/5x5_reduce
I0403 14:30:34.185295 13352 net.cpp:386] inception_3b/relu_5x5_reduce -> inception_3b/5x5_reduce (in-place)
I0403 14:30:34.185470 13352 net.cpp:141] Setting up inception_3b/relu_5x5_reduce
I0403 14:30:34.185508 13352 net.cpp:148] Top shape: 24 32 28 28 (602112)
I0403 14:30:34.185523 13352 net.cpp:156] Memory required for data: 729760800
I0403 14:30:34.185537 13352 layer_factory.hpp:77] Creating layer inception_3b/5x5
I0403 14:30:34.185559 13352 net.cpp:91] Creating Layer inception_3b/5x5
I0403 14:30:34.185576 13352 net.cpp:425] inception_3b/5x5 <- inception_3b/5x5_reduce
I0403 14:30:34.185597 13352 net.cpp:399] inception_3b/5x5 -> inception_3b/5x5
I0403 14:30:34.187640 13352 net.cpp:141] Setting up inception_3b/5x5
I0403 14:30:34.187669 13352 net.cpp:148] Top shape: 24 96 28 28 (1806336)
I0403 14:30:34.187688 13352 net.cpp:156] Memory required for data: 736986144
I0403 14:30:34.187706 13352 layer_factory.hpp:77] Creating layer inception_3b/relu_5x5
I0403 14:30:34.187726 13352 net.cpp:91] Creating Layer inception_3b/relu_5x5
I0403 14:30:34.187741 13352 net.cpp:425] inception_3b/relu_5x5 <- inception_3b/5x5
I0403 14:30:34.187758 13352 net.cpp:386] inception_3b/relu_5x5 -> inception_3b/5x5 (in-place)
I0403 14:30:34.187952 13352 net.cpp:141] Setting up inception_3b/relu_5x5
I0403 14:30:34.187978 13352 net.cpp:148] Top shape: 24 96 28 28 (1806336)
I0403 14:30:34.187994 13352 net.cpp:156] Memory required for data: 744211488
I0403 14:30:34.188009 13352 layer_factory.hpp:77] Creating layer inception_3b/pool
I0403 14:30:34.188026 13352 net.cpp:91] Creating Layer inception_3b/pool
I0403 14:30:34.188042 13352 net.cpp:425] inception_3b/pool <- inception_3a/output_inception_3a/output_0_split_3
I0403 14:30:34.188060 13352 net.cpp:399] inception_3b/pool -> inception_3b/pool
I0403 14:30:34.188118 13352 net.cpp:141] Setting up inception_3b/pool
I0403 14:30:34.188145 13352 net.cpp:148] Top shape: 24 256 28 28 (4816896)
I0403 14:30:34.188161 13352 net.cpp:156] Memory required for data: 763479072
I0403 14:30:34.188175 13352 layer_factory.hpp:77] Creating layer inception_3b/pool_proj
I0403 14:30:34.188195 13352 net.cpp:91] Creating Layer inception_3b/pool_proj
I0403 14:30:34.188212 13352 net.cpp:425] inception_3b/pool_proj <- inception_3b/pool
I0403 14:30:34.188235 13352 net.cpp:399] inception_3b/pool_proj -> inception_3b/pool_proj
I0403 14:30:34.189304 13352 net.cpp:141] Setting up inception_3b/pool_proj
I0403 14:30:34.189333 13352 net.cpp:148] Top shape: 24 64 28 28 (1204224)
I0403 14:30:34.189349 13352 net.cpp:156] Memory required for data: 768295968
I0403 14:30:34.189368 13352 layer_factory.hpp:77] Creating layer inception_3b/relu_pool_proj
I0403 14:30:34.189388 13352 net.cpp:91] Creating Layer inception_3b/relu_pool_proj
I0403 14:30:34.189406 13352 net.cpp:425] inception_3b/relu_pool_proj <- inception_3b/pool_proj
I0403 14:30:34.189424 13352 net.cpp:386] inception_3b/relu_pool_proj -> inception_3b/pool_proj (in-place)
I0403 14:30:34.189832 13352 net.cpp:141] Setting up inception_3b/relu_pool_proj
I0403 14:30:34.189859 13352 net.cpp:148] Top shape: 24 64 28 28 (1204224)
I0403 14:30:34.189874 13352 net.cpp:156] Memory required for data: 773112864
I0403 14:30:34.189889 13352 layer_factory.hpp:77] Creating layer inception_3b/output
I0403 14:30:34.189908 13352 net.cpp:91] Creating Layer inception_3b/output
I0403 14:30:34.189924 13352 net.cpp:425] inception_3b/output <- inception_3b/1x1
I0403 14:30:34.189940 13352 net.cpp:425] inception_3b/output <- inception_3b/3x3
I0403 14:30:34.189957 13352 net.cpp:425] inception_3b/output <- inception_3b/5x5
I0403 14:30:34.189973 13352 net.cpp:425] inception_3b/output <- inception_3b/pool_proj
I0403 14:30:34.189992 13352 net.cpp:399] inception_3b/output -> inception_3b/output
I0403 14:30:34.190037 13352 net.cpp:141] Setting up inception_3b/output
I0403 14:30:34.190063 13352 net.cpp:148] Top shape: 24 480 28 28 (9031680)
I0403 14:30:34.190079 13352 net.cpp:156] Memory required for data: 809239584
I0403 14:30:34.190094 13352 layer_factory.hpp:77] Creating layer pool3/3x3_s2
I0403 14:30:34.190111 13352 net.cpp:91] Creating Layer pool3/3x3_s2
I0403 14:30:34.190127 13352 net.cpp:425] pool3/3x3_s2 <- inception_3b/output
I0403 14:30:34.190147 13352 net.cpp:399] pool3/3x3_s2 -> pool3/3x3_s2
I0403 14:30:34.190222 13352 net.cpp:141] Setting up pool3/3x3_s2
I0403 14:30:34.190245 13352 net.cpp:148] Top shape: 24 480 14 14 (2257920)
I0403 14:30:34.190260 13352 net.cpp:156] Memory required for data: 818271264
I0403 14:30:34.190275 13352 layer_factory.hpp:77] Creating layer pool3/3x3_s2_pool3/3x3_s2_0_split
I0403 14:30:34.190296 13352 net.cpp:91] Creating Layer pool3/3x3_s2_pool3/3x3_s2_0_split
I0403 14:30:34.190313 13352 net.cpp:425] pool3/3x3_s2_pool3/3x3_s2_0_split <- pool3/3x3_s2
I0403 14:30:34.190330 13352 net.cpp:399] pool3/3x3_s2_pool3/3x3_s2_0_split -> pool3/3x3_s2_pool3/3x3_s2_0_split_0
I0403 14:30:34.190351 13352 net.cpp:399] pool3/3x3_s2_pool3/3x3_s2_0_split -> pool3/3x3_s2_pool3/3x3_s2_0_split_1
I0403 14:30:34.190371 13352 net.cpp:399] pool3/3x3_s2_pool3/3x3_s2_0_split -> pool3/3x3_s2_pool3/3x3_s2_0_split_2
I0403 14:30:34.190393 13352 net.cpp:399] pool3/3x3_s2_pool3/3x3_s2_0_split -> pool3/3x3_s2_pool3/3x3_s2_0_split_3
I0403 14:30:34.190474 13352 net.cpp:141] Setting up pool3/3x3_s2_pool3/3x3_s2_0_split
I0403 14:30:34.190496 13352 net.cpp:148] Top shape: 24 480 14 14 (2257920)
I0403 14:30:34.190513 13352 net.cpp:148] Top shape: 24 480 14 14 (2257920)
I0403 14:30:34.190529 13352 net.cpp:148] Top shape: 24 480 14 14 (2257920)
I0403 14:30:34.190546 13352 net.cpp:148] Top shape: 24 480 14 14 (2257920)
I0403 14:30:34.190560 13352 net.cpp:156] Memory required for data: 854397984
I0403 14:30:34.190574 13352 layer_factory.hpp:77] Creating layer inception_4a/1x1
I0403 14:30:34.190598 13352 net.cpp:91] Creating Layer inception_4a/1x1
I0403 14:30:34.190619 13352 net.cpp:425] inception_4a/1x1 <- pool3/3x3_s2_pool3/3x3_s2_0_split_0
I0403 14:30:34.190641 13352 net.cpp:399] inception_4a/1x1 -> inception_4a/1x1
I0403 14:30:34.192271 13352 net.cpp:141] Setting up inception_4a/1x1
I0403 14:30:34.192301 13352 net.cpp:148] Top shape: 24 192 14 14 (903168)
I0403 14:30:34.192318 13352 net.cpp:156] Memory required for data: 858010656
I0403 14:30:34.192337 13352 layer_factory.hpp:77] Creating layer inception_4a/relu_1x1
I0403 14:30:34.192358 13352 net.cpp:91] Creating Layer inception_4a/relu_1x1
I0403 14:30:34.192374 13352 net.cpp:425] inception_4a/relu_1x1 <- inception_4a/1x1
I0403 14:30:34.192391 13352 net.cpp:386] inception_4a/relu_1x1 -> inception_4a/1x1 (in-place)
I0403 14:30:34.192569 13352 net.cpp:141] Setting up inception_4a/relu_1x1
I0403 14:30:34.192601 13352 net.cpp:148] Top shape: 24 192 14 14 (903168)
I0403 14:30:34.192620 13352 net.cpp:156] Memory required for data: 861623328
I0403 14:30:34.192634 13352 layer_factory.hpp:77] Creating layer inception_4a/3x3_reduce
I0403 14:30:34.192656 13352 net.cpp:91] Creating Layer inception_4a/3x3_reduce
I0403 14:30:34.192674 13352 net.cpp:425] inception_4a/3x3_reduce <- pool3/3x3_s2_pool3/3x3_s2_0_split_1
I0403 14:30:34.192693 13352 net.cpp:399] inception_4a/3x3_reduce -> inception_4a/3x3_reduce
I0403 14:30:34.193989 13352 net.cpp:141] Setting up inception_4a/3x3_reduce
I0403 14:30:34.194016 13352 net.cpp:148] Top shape: 24 96 14 14 (451584)
I0403 14:30:34.194032 13352 net.cpp:156] Memory required for data: 863429664
I0403 14:30:34.194057 13352 layer_factory.hpp:77] Creating layer inception_4a/relu_3x3_reduce
I0403 14:30:34.194079 13352 net.cpp:91] Creating Layer inception_4a/relu_3x3_reduce
I0403 14:30:34.194097 13352 net.cpp:425] inception_4a/relu_3x3_reduce <- inception_4a/3x3_reduce
I0403 14:30:34.194114 13352 net.cpp:386] inception_4a/relu_3x3_reduce -> inception_4a/3x3_reduce (in-place)
I0403 14:30:34.194294 13352 net.cpp:141] Setting up inception_4a/relu_3x3_reduce
I0403 14:30:34.194320 13352 net.cpp:148] Top shape: 24 96 14 14 (451584)
I0403 14:30:34.194335 13352 net.cpp:156] Memory required for data: 865236000
I0403 14:30:34.194350 13352 layer_factory.hpp:77] Creating layer inception_4a/3x3
I0403 14:30:34.194373 13352 net.cpp:91] Creating Layer inception_4a/3x3
I0403 14:30:34.194391 13352 net.cpp:425] inception_4a/3x3 <- inception_4a/3x3_reduce
I0403 14:30:34.194409 13352 net.cpp:399] inception_4a/3x3 -> inception_4a/3x3
I0403 14:30:34.197209 13352 net.cpp:141] Setting up inception_4a/3x3
I0403 14:30:34.197242 13352 net.cpp:148] Top shape: 24 208 14 14 (978432)
I0403 14:30:34.197258 13352 net.cpp:156] Memory required for data: 869149728
I0403 14:30:34.197276 13352 layer_factory.hpp:77] Creating layer inception_4a/relu_3x3
I0403 14:30:34.197296 13352 net.cpp:91] Creating Layer inception_4a/relu_3x3
I0403 14:30:34.197311 13352 net.cpp:425] inception_4a/relu_3x3 <- inception_4a/3x3
I0403 14:30:34.197329 13352 net.cpp:386] inception_4a/relu_3x3 -> inception_4a/3x3 (in-place)
I0403 14:30:34.197607 13352 net.cpp:141] Setting up inception_4a/relu_3x3
I0403 14:30:34.197634 13352 net.cpp:148] Top shape: 24 208 14 14 (978432)
I0403 14:30:34.197651 13352 net.cpp:156] Memory required for data: 873063456
I0403 14:30:34.197665 13352 layer_factory.hpp:77] Creating layer inception_4a/5x5_reduce
I0403 14:30:34.197690 13352 net.cpp:91] Creating Layer inception_4a/5x5_reduce
I0403 14:30:34.197707 13352 net.cpp:425] inception_4a/5x5_reduce <- pool3/3x3_s2_pool3/3x3_s2_0_split_2
I0403 14:30:34.197726 13352 net.cpp:399] inception_4a/5x5_reduce -> inception_4a/5x5_reduce
I0403 14:30:34.198736 13352 net.cpp:141] Setting up inception_4a/5x5_reduce
I0403 14:30:34.198765 13352 net.cpp:148] Top shape: 24 16 14 14 (75264)
I0403 14:30:34.198782 13352 net.cpp:156] Memory required for data: 873364512
I0403 14:30:34.198801 13352 layer_factory.hpp:77] Creating layer inception_4a/relu_5x5_reduce
I0403 14:30:34.198819 13352 net.cpp:91] Creating Layer inception_4a/relu_5x5_reduce
I0403 14:30:34.198834 13352 net.cpp:425] inception_4a/relu_5x5_reduce <- inception_4a/5x5_reduce
I0403 14:30:34.198853 13352 net.cpp:386] inception_4a/relu_5x5_reduce -> inception_4a/5x5_reduce (in-place)
I0403 14:30:34.199028 13352 net.cpp:141] Setting up inception_4a/relu_5x5_reduce
I0403 14:30:34.199053 13352 net.cpp:148] Top shape: 24 16 14 14 (75264)
I0403 14:30:34.199067 13352 net.cpp:156] Memory required for data: 873665568
I0403 14:30:34.199082 13352 layer_factory.hpp:77] Creating layer inception_4a/5x5
I0403 14:30:34.199103 13352 net.cpp:91] Creating Layer inception_4a/5x5
I0403 14:30:34.199121 13352 net.cpp:425] inception_4a/5x5 <- inception_4a/5x5_reduce
I0403 14:30:34.199143 13352 net.cpp:399] inception_4a/5x5 -> inception_4a/5x5
I0403 14:30:34.200251 13352 net.cpp:141] Setting up inception_4a/5x5
I0403 14:30:34.200279 13352 net.cpp:148] Top shape: 24 48 14 14 (225792)
I0403 14:30:34.200296 13352 net.cpp:156] Memory required for data: 874568736
I0403 14:30:34.200314 13352 layer_factory.hpp:77] Creating layer inception_4a/relu_5x5
I0403 14:30:34.200332 13352 net.cpp:91] Creating Layer inception_4a/relu_5x5
I0403 14:30:34.200348 13352 net.cpp:425] inception_4a/relu_5x5 <- inception_4a/5x5
I0403 14:30:34.200368 13352 net.cpp:386] inception_4a/relu_5x5 -> inception_4a/5x5 (in-place)
I0403 14:30:34.200541 13352 net.cpp:141] Setting up inception_4a/relu_5x5
I0403 14:30:34.200567 13352 net.cpp:148] Top shape: 24 48 14 14 (225792)
I0403 14:30:34.200582 13352 net.cpp:156] Memory required for data: 875471904
I0403 14:30:34.200595 13352 layer_factory.hpp:77] Creating layer inception_4a/pool
I0403 14:30:34.200620 13352 net.cpp:91] Creating Layer inception_4a/pool
I0403 14:30:34.200637 13352 net.cpp:425] inception_4a/pool <- pool3/3x3_s2_pool3/3x3_s2_0_split_3
I0403 14:30:34.200655 13352 net.cpp:399] inception_4a/pool -> inception_4a/pool
I0403 14:30:34.200717 13352 net.cpp:141] Setting up inception_4a/pool
I0403 14:30:34.200741 13352 net.cpp:148] Top shape: 24 480 14 14 (2257920)
I0403 14:30:34.200755 13352 net.cpp:156] Memory required for data: 884503584
I0403 14:30:34.200769 13352 layer_factory.hpp:77] Creating layer inception_4a/pool_proj
I0403 14:30:34.200790 13352 net.cpp:91] Creating Layer inception_4a/pool_proj
I0403 14:30:34.200808 13352 net.cpp:425] inception_4a/pool_proj <- inception_4a/pool
I0403 14:30:34.200830 13352 net.cpp:399] inception_4a/pool_proj -> inception_4a/pool_proj
I0403 14:30:34.201994 13352 net.cpp:141] Setting up inception_4a/pool_proj
I0403 14:30:34.202023 13352 net.cpp:148] Top shape: 24 64 14 14 (301056)
I0403 14:30:34.202054 13352 net.cpp:156] Memory required for data: 885707808
I0403 14:30:34.202074 13352 layer_factory.hpp:77] Creating layer inception_4a/relu_pool_proj
I0403 14:30:34.202095 13352 net.cpp:91] Creating Layer inception_4a/relu_pool_proj
I0403 14:30:34.202112 13352 net.cpp:425] inception_4a/relu_pool_proj <- inception_4a/pool_proj
I0403 14:30:34.202131 13352 net.cpp:386] inception_4a/relu_pool_proj -> inception_4a/pool_proj (in-place)
I0403 14:30:34.202409 13352 net.cpp:141] Setting up inception_4a/relu_pool_proj
I0403 14:30:34.202435 13352 net.cpp:148] Top shape: 24 64 14 14 (301056)
I0403 14:30:34.202450 13352 net.cpp:156] Memory required for data: 886912032
I0403 14:30:34.202466 13352 layer_factory.hpp:77] Creating layer inception_4a/output
I0403 14:30:34.202483 13352 net.cpp:91] Creating Layer inception_4a/output
I0403 14:30:34.202498 13352 net.cpp:425] inception_4a/output <- inception_4a/1x1
I0403 14:30:34.202515 13352 net.cpp:425] inception_4a/output <- inception_4a/3x3
I0403 14:30:34.202532 13352 net.cpp:425] inception_4a/output <- inception_4a/5x5
I0403 14:30:34.202548 13352 net.cpp:425] inception_4a/output <- inception_4a/pool_proj
I0403 14:30:34.202566 13352 net.cpp:399] inception_4a/output -> inception_4a/output
I0403 14:30:34.202617 13352 net.cpp:141] Setting up inception_4a/output
I0403 14:30:34.202641 13352 net.cpp:148] Top shape: 24 512 14 14 (2408448)
I0403 14:30:34.202656 13352 net.cpp:156] Memory required for data: 896545824
I0403 14:30:34.202671 13352 layer_factory.hpp:77] Creating layer inception_4a/output_inception_4a/output_0_split
I0403 14:30:34.202687 13352 net.cpp:91] Creating Layer inception_4a/output_inception_4a/output_0_split
I0403 14:30:34.202702 13352 net.cpp:425] inception_4a/output_inception_4a/output_0_split <- inception_4a/output
I0403 14:30:34.202723 13352 net.cpp:399] inception_4a/output_inception_4a/output_0_split -> inception_4a/output_inception_4a/output_0_split_0
I0403 14:30:34.202744 13352 net.cpp:399] inception_4a/output_inception_4a/output_0_split -> inception_4a/output_inception_4a/output_0_split_1
I0403 14:30:34.202764 13352 net.cpp:399] inception_4a/output_inception_4a/output_0_split -> inception_4a/output_inception_4a/output_0_split_2
I0403 14:30:34.202785 13352 net.cpp:399] inception_4a/output_inception_4a/output_0_split -> inception_4a/output_inception_4a/output_0_split_3
I0403 14:30:34.202805 13352 net.cpp:399] inception_4a/output_inception_4a/output_0_split -> inception_4a/output_inception_4a/output_0_split_4
I0403 14:30:34.202896 13352 net.cpp:141] Setting up inception_4a/output_inception_4a/output_0_split
I0403 14:30:34.202921 13352 net.cpp:148] Top shape: 24 512 14 14 (2408448)
I0403 14:30:34.202937 13352 net.cpp:148] Top shape: 24 512 14 14 (2408448)
I0403 14:30:34.202952 13352 net.cpp:148] Top shape: 24 512 14 14 (2408448)
I0403 14:30:34.202967 13352 net.cpp:148] Top shape: 24 512 14 14 (2408448)
I0403 14:30:34.202983 13352 net.cpp:148] Top shape: 24 512 14 14 (2408448)
I0403 14:30:34.202997 13352 net.cpp:156] Memory required for data: 944714784
I0403 14:30:34.203012 13352 layer_factory.hpp:77] Creating layer loss1/ave_pool
I0403 14:30:34.203029 13352 net.cpp:91] Creating Layer loss1/ave_pool
I0403 14:30:34.203045 13352 net.cpp:425] loss1/ave_pool <- inception_4a/output_inception_4a/output_0_split_0
I0403 14:30:34.203064 13352 net.cpp:399] loss1/ave_pool -> loss1/ave_pool
I0403 14:30:34.203269 13352 net.cpp:141] Setting up loss1/ave_pool
I0403 14:30:34.203296 13352 net.cpp:148] Top shape: 24 512 4 4 (196608)
I0403 14:30:34.203311 13352 net.cpp:156] Memory required for data: 945501216
I0403 14:30:34.203326 13352 layer_factory.hpp:77] Creating layer loss1/conv
I0403 14:30:34.203348 13352 net.cpp:91] Creating Layer loss1/conv
I0403 14:30:34.203366 13352 net.cpp:425] loss1/conv <- loss1/ave_pool
I0403 14:30:34.203385 13352 net.cpp:399] loss1/conv -> loss1/conv
I0403 14:30:34.204831 13352 net.cpp:141] Setting up loss1/conv
I0403 14:30:34.204865 13352 net.cpp:148] Top shape: 24 128 4 4 (49152)
I0403 14:30:34.204884 13352 net.cpp:156] Memory required for data: 945697824
I0403 14:30:34.204917 13352 layer_factory.hpp:77] Creating layer loss1/relu_conv
I0403 14:30:34.204937 13352 net.cpp:91] Creating Layer loss1/relu_conv
I0403 14:30:34.204953 13352 net.cpp:425] loss1/relu_conv <- loss1/conv
I0403 14:30:34.204970 13352 net.cpp:386] loss1/relu_conv -> loss1/conv (in-place)
I0403 14:30:34.205270 13352 net.cpp:141] Setting up loss1/relu_conv
I0403 14:30:34.205299 13352 net.cpp:148] Top shape: 24 128 4 4 (49152)
I0403 14:30:34.205315 13352 net.cpp:156] Memory required for data: 945894432
I0403 14:30:34.205330 13352 layer_factory.hpp:77] Creating layer loss1/fc
I0403 14:30:34.205353 13352 net.cpp:91] Creating Layer loss1/fc
I0403 14:30:34.205371 13352 net.cpp:425] loss1/fc <- loss1/conv
I0403 14:30:34.205391 13352 net.cpp:399] loss1/fc -> loss1/fc
I0403 14:30:34.222822 13352 net.cpp:141] Setting up loss1/fc
I0403 14:30:34.222853 13352 net.cpp:148] Top shape: 24 1024 (24576)
I0403 14:30:34.222869 13352 net.cpp:156] Memory required for data: 945992736
I0403 14:30:34.222887 13352 layer_factory.hpp:77] Creating layer loss1/relu_fc
I0403 14:30:34.222906 13352 net.cpp:91] Creating Layer loss1/relu_fc
I0403 14:30:34.222923 13352 net.cpp:425] loss1/relu_fc <- loss1/fc
I0403 14:30:34.222939 13352 net.cpp:386] loss1/relu_fc -> loss1/fc (in-place)
I0403 14:30:34.223116 13352 net.cpp:141] Setting up loss1/relu_fc
I0403 14:30:34.223142 13352 net.cpp:148] Top shape: 24 1024 (24576)
I0403 14:30:34.223157 13352 net.cpp:156] Memory required for data: 946091040
I0403 14:30:34.223171 13352 layer_factory.hpp:77] Creating layer loss1/drop_fc
I0403 14:30:34.223197 13352 net.cpp:91] Creating Layer loss1/drop_fc
I0403 14:30:34.223214 13352 net.cpp:425] loss1/drop_fc <- loss1/fc
I0403 14:30:34.223232 13352 net.cpp:386] loss1/drop_fc -> loss1/fc (in-place)
I0403 14:30:34.223281 13352 net.cpp:141] Setting up loss1/drop_fc
I0403 14:30:34.223305 13352 net.cpp:148] Top shape: 24 1024 (24576)
I0403 14:30:34.223320 13352 net.cpp:156] Memory required for data: 946189344
I0403 14:30:34.223335 13352 layer_factory.hpp:77] Creating layer loss1/classifier_plantvillage
I0403 14:30:34.223354 13352 net.cpp:91] Creating Layer loss1/classifier_plantvillage
I0403 14:30:34.223371 13352 net.cpp:425] loss1/classifier_plantvillage <- loss1/fc
I0403 14:30:34.223388 13352 net.cpp:399] loss1/classifier_plantvillage -> loss1/classifier_plantvillage
I0403 14:30:34.224328 13352 net.cpp:141] Setting up loss1/classifier_plantvillage
I0403 14:30:34.224357 13352 net.cpp:148] Top shape: 24 38 (912)
I0403 14:30:34.224372 13352 net.cpp:156] Memory required for data: 946192992
I0403 14:30:34.224390 13352 layer_factory.hpp:77] Creating layer loss1/classifier_plantvillage_loss1/classifier_plantvillage_0_split
I0403 14:30:34.224407 13352 net.cpp:91] Creating Layer loss1/classifier_plantvillage_loss1/classifier_plantvillage_0_split
I0403 14:30:34.224422 13352 net.cpp:425] loss1/classifier_plantvillage_loss1/classifier_plantvillage_0_split <- loss1/classifier_plantvillage
I0403 14:30:34.224438 13352 net.cpp:399] loss1/classifier_plantvillage_loss1/classifier_plantvillage_0_split -> loss1/classifier_plantvillage_loss1/classifier_plantvillage_0_split_0
I0403 14:30:34.224457 13352 net.cpp:399] loss1/classifier_plantvillage_loss1/classifier_plantvillage_0_split -> loss1/classifier_plantvillage_loss1/classifier_plantvillage_0_split_1
I0403 14:30:34.224478 13352 net.cpp:399] loss1/classifier_plantvillage_loss1/classifier_plantvillage_0_split -> loss1/classifier_plantvillage_loss1/classifier_plantvillage_0_split_2
I0403 14:30:34.224542 13352 net.cpp:141] Setting up loss1/classifier_plantvillage_loss1/classifier_plantvillage_0_split
I0403 14:30:34.224565 13352 net.cpp:148] Top shape: 24 38 (912)
I0403 14:30:34.224581 13352 net.cpp:148] Top shape: 24 38 (912)
I0403 14:30:34.224596 13352 net.cpp:148] Top shape: 24 38 (912)
I0403 14:30:34.224620 13352 net.cpp:156] Memory required for data: 946203936
I0403 14:30:34.224635 13352 layer_factory.hpp:77] Creating layer inception_4b/1x1
I0403 14:30:34.224654 13352 net.cpp:91] Creating Layer inception_4b/1x1
I0403 14:30:34.224686 13352 net.cpp:425] inception_4b/1x1 <- inception_4a/output_inception_4a/output_0_split_1
I0403 14:30:34.224709 13352 net.cpp:399] inception_4b/1x1 -> inception_4b/1x1
I0403 14:30:34.226292 13352 net.cpp:141] Setting up inception_4b/1x1
I0403 14:30:34.226322 13352 net.cpp:148] Top shape: 24 160 14 14 (752640)
I0403 14:30:34.226337 13352 net.cpp:156] Memory required for data: 949214496
I0403 14:30:34.226356 13352 layer_factory.hpp:77] Creating layer inception_4b/relu_1x1
I0403 14:30:34.226372 13352 net.cpp:91] Creating Layer inception_4b/relu_1x1
I0403 14:30:34.226387 13352 net.cpp:425] inception_4b/relu_1x1 <- inception_4b/1x1
I0403 14:30:34.226404 13352 net.cpp:386] inception_4b/relu_1x1 -> inception_4b/1x1 (in-place)
I0403 14:30:34.226588 13352 net.cpp:141] Setting up inception_4b/relu_1x1
I0403 14:30:34.226618 13352 net.cpp:148] Top shape: 24 160 14 14 (752640)
I0403 14:30:34.226634 13352 net.cpp:156] Memory required for data: 952225056
I0403 14:30:34.226647 13352 layer_factory.hpp:77] Creating layer inception_4b/3x3_reduce
I0403 14:30:34.226670 13352 net.cpp:91] Creating Layer inception_4b/3x3_reduce
I0403 14:30:34.226686 13352 net.cpp:425] inception_4b/3x3_reduce <- inception_4a/output_inception_4a/output_0_split_2
I0403 14:30:34.226707 13352 net.cpp:399] inception_4b/3x3_reduce -> inception_4b/3x3_reduce
I0403 14:30:34.228055 13352 net.cpp:141] Setting up inception_4b/3x3_reduce
I0403 14:30:34.228081 13352 net.cpp:148] Top shape: 24 112 14 14 (526848)
I0403 14:30:34.228096 13352 net.cpp:156] Memory required for data: 954332448
I0403 14:30:34.228114 13352 layer_factory.hpp:77] Creating layer inception_4b/relu_3x3_reduce
I0403 14:30:34.228132 13352 net.cpp:91] Creating Layer inception_4b/relu_3x3_reduce
I0403 14:30:34.228147 13352 net.cpp:425] inception_4b/relu_3x3_reduce <- inception_4b/3x3_reduce
I0403 14:30:34.228165 13352 net.cpp:386] inception_4b/relu_3x3_reduce -> inception_4b/3x3_reduce (in-place)
I0403 14:30:34.228436 13352 net.cpp:141] Setting up inception_4b/relu_3x3_reduce
I0403 14:30:34.228461 13352 net.cpp:148] Top shape: 24 112 14 14 (526848)
I0403 14:30:34.228476 13352 net.cpp:156] Memory required for data: 956439840
I0403 14:30:34.228489 13352 layer_factory.hpp:77] Creating layer inception_4b/3x3
I0403 14:30:34.228512 13352 net.cpp:91] Creating Layer inception_4b/3x3
I0403 14:30:34.228528 13352 net.cpp:425] inception_4b/3x3 <- inception_4b/3x3_reduce
I0403 14:30:34.228550 13352 net.cpp:399] inception_4b/3x3 -> inception_4b/3x3
I0403 14:30:34.231428 13352 net.cpp:141] Setting up inception_4b/3x3
I0403 14:30:34.231456 13352 net.cpp:148] Top shape: 24 224 14 14 (1053696)
I0403 14:30:34.231472 13352 net.cpp:156] Memory required for data: 960654624
I0403 14:30:34.231489 13352 layer_factory.hpp:77] Creating layer inception_4b/relu_3x3
I0403 14:30:34.231509 13352 net.cpp:91] Creating Layer inception_4b/relu_3x3
I0403 14:30:34.231525 13352 net.cpp:425] inception_4b/relu_3x3 <- inception_4b/3x3
I0403 14:30:34.231542 13352 net.cpp:386] inception_4b/relu_3x3 -> inception_4b/3x3 (in-place)
I0403 14:30:34.231735 13352 net.cpp:141] Setting up inception_4b/relu_3x3
I0403 14:30:34.231762 13352 net.cpp:148] Top shape: 24 224 14 14 (1053696)
I0403 14:30:34.231778 13352 net.cpp:156] Memory required for data: 964869408
I0403 14:30:34.231792 13352 layer_factory.hpp:77] Creating layer inception_4b/5x5_reduce
I0403 14:30:34.231817 13352 net.cpp:91] Creating Layer inception_4b/5x5_reduce
I0403 14:30:34.231847 13352 net.cpp:425] inception_4b/5x5_reduce <- inception_4a/output_inception_4a/output_0_split_3
I0403 14:30:34.231864 13352 net.cpp:399] inception_4b/5x5_reduce -> inception_4b/5x5_reduce
I0403 14:30:34.232910 13352 net.cpp:141] Setting up inception_4b/5x5_reduce
I0403 14:30:34.232940 13352 net.cpp:148] Top shape: 24 24 14 14 (112896)
I0403 14:30:34.232956 13352 net.cpp:156] Memory required for data: 965320992
I0403 14:30:34.232975 13352 layer_factory.hpp:77] Creating layer inception_4b/relu_5x5_reduce
I0403 14:30:34.232992 13352 net.cpp:91] Creating Layer inception_4b/relu_5x5_reduce
I0403 14:30:34.233021 13352 net.cpp:425] inception_4b/relu_5x5_reduce <- inception_4b/5x5_reduce
I0403 14:30:34.233042 13352 net.cpp:386] inception_4b/relu_5x5_reduce -> inception_4b/5x5_reduce (in-place)
I0403 14:30:34.233218 13352 net.cpp:141] Setting up inception_4b/relu_5x5_reduce
I0403 14:30:34.233243 13352 net.cpp:148] Top shape: 24 24 14 14 (112896)
I0403 14:30:34.233258 13352 net.cpp:156] Memory required for data: 965772576
I0403 14:30:34.233270 13352 layer_factory.hpp:77] Creating layer inception_4b/5x5
I0403 14:30:34.233291 13352 net.cpp:91] Creating Layer inception_4b/5x5
I0403 14:30:34.233309 13352 net.cpp:425] inception_4b/5x5 <- inception_4b/5x5_reduce
I0403 14:30:34.233330 13352 net.cpp:399] inception_4b/5x5 -> inception_4b/5x5
I0403 14:30:34.234554 13352 net.cpp:141] Setting up inception_4b/5x5
I0403 14:30:34.234583 13352 net.cpp:148] Top shape: 24 64 14 14 (301056)
I0403 14:30:34.234609 13352 net.cpp:156] Memory required for data: 966976800
I0403 14:30:34.234630 13352 layer_factory.hpp:77] Creating layer inception_4b/relu_5x5
I0403 14:30:34.234648 13352 net.cpp:91] Creating Layer inception_4b/relu_5x5
I0403 14:30:34.234664 13352 net.cpp:425] inception_4b/relu_5x5 <- inception_4b/5x5
I0403 14:30:34.234681 13352 net.cpp:386] inception_4b/relu_5x5 -> inception_4b/5x5 (in-place)
I0403 14:30:34.234963 13352 net.cpp:141] Setting up inception_4b/relu_5x5
I0403 14:30:34.234992 13352 net.cpp:148] Top shape: 24 64 14 14 (301056)
I0403 14:30:34.235008 13352 net.cpp:156] Memory required for data: 968181024
I0403 14:30:34.235023 13352 layer_factory.hpp:77] Creating layer inception_4b/pool
I0403 14:30:34.235040 13352 net.cpp:91] Creating Layer inception_4b/pool
I0403 14:30:34.235055 13352 net.cpp:425] inception_4b/pool <- inception_4a/output_inception_4a/output_0_split_4
I0403 14:30:34.235075 13352 net.cpp:399] inception_4b/pool -> inception_4b/pool
I0403 14:30:34.235141 13352 net.cpp:141] Setting up inception_4b/pool
I0403 14:30:34.235164 13352 net.cpp:148] Top shape: 24 512 14 14 (2408448)
I0403 14:30:34.235179 13352 net.cpp:156] Memory required for data: 977814816
I0403 14:30:34.235193 13352 layer_factory.hpp:77] Creating layer inception_4b/pool_proj
I0403 14:30:34.235215 13352 net.cpp:91] Creating Layer inception_4b/pool_proj
I0403 14:30:34.235232 13352 net.cpp:425] inception_4b/pool_proj <- inception_4b/pool
I0403 14:30:34.235255 13352 net.cpp:399] inception_4b/pool_proj -> inception_4b/pool_proj
I0403 14:30:34.236485 13352 net.cpp:141] Setting up inception_4b/pool_proj
I0403 14:30:34.236512 13352 net.cpp:148] Top shape: 24 64 14 14 (301056)
I0403 14:30:34.236528 13352 net.cpp:156] Memory required for data: 979019040
I0403 14:30:34.236546 13352 layer_factory.hpp:77] Creating layer inception_4b/relu_pool_proj
I0403 14:30:34.236564 13352 net.cpp:91] Creating Layer inception_4b/relu_pool_proj
I0403 14:30:34.236580 13352 net.cpp:425] inception_4b/relu_pool_proj <- inception_4b/pool_proj
I0403 14:30:34.236603 13352 net.cpp:386] inception_4b/relu_pool_proj -> inception_4b/pool_proj (in-place)
I0403 14:30:34.236786 13352 net.cpp:141] Setting up inception_4b/relu_pool_proj
I0403 14:30:34.236811 13352 net.cpp:148] Top shape: 24 64 14 14 (301056)
I0403 14:30:34.236825 13352 net.cpp:156] Memory required for data: 980223264
I0403 14:30:34.236840 13352 layer_factory.hpp:77] Creating layer inception_4b/output
I0403 14:30:34.236857 13352 net.cpp:91] Creating Layer inception_4b/output
I0403 14:30:34.236872 13352 net.cpp:425] inception_4b/output <- inception_4b/1x1
I0403 14:30:34.236887 13352 net.cpp:425] inception_4b/output <- inception_4b/3x3
I0403 14:30:34.236907 13352 net.cpp:425] inception_4b/output <- inception_4b/5x5
I0403 14:30:34.236922 13352 net.cpp:425] inception_4b/output <- inception_4b/pool_proj
I0403 14:30:34.236939 13352 net.cpp:399] inception_4b/output -> inception_4b/output
I0403 14:30:34.236984 13352 net.cpp:141] Setting up inception_4b/output
I0403 14:30:34.237010 13352 net.cpp:148] Top shape: 24 512 14 14 (2408448)
I0403 14:30:34.237025 13352 net.cpp:156] Memory required for data: 989857056
I0403 14:30:34.237052 13352 layer_factory.hpp:77] Creating layer inception_4b/output_inception_4b/output_0_split
I0403 14:30:34.237071 13352 net.cpp:91] Creating Layer inception_4b/output_inception_4b/output_0_split
I0403 14:30:34.237085 13352 net.cpp:425] inception_4b/output_inception_4b/output_0_split <- inception_4b/output
I0403 14:30:34.237105 13352 net.cpp:399] inception_4b/output_inception_4b/output_0_split -> inception_4b/output_inception_4b/output_0_split_0
I0403 14:30:34.237126 13352 net.cpp:399] inception_4b/output_inception_4b/output_0_split -> inception_4b/output_inception_4b/output_0_split_1
I0403 14:30:34.237146 13352 net.cpp:399] inception_4b/output_inception_4b/output_0_split -> inception_4b/output_inception_4b/output_0_split_2
I0403 14:30:34.237166 13352 net.cpp:399] inception_4b/output_inception_4b/output_0_split -> inception_4b/output_inception_4b/output_0_split_3
I0403 14:30:34.237249 13352 net.cpp:141] Setting up inception_4b/output_inception_4b/output_0_split
I0403 14:30:34.237275 13352 net.cpp:148] Top shape: 24 512 14 14 (2408448)
I0403 14:30:34.237294 13352 net.cpp:148] Top shape: 24 512 14 14 (2408448)
I0403 14:30:34.237315 13352 net.cpp:148] Top shape: 24 512 14 14 (2408448)
I0403 14:30:34.237330 13352 net.cpp:148] Top shape: 24 512 14 14 (2408448)
I0403 14:30:34.237344 13352 net.cpp:156] Memory required for data: 1028392224
I0403 14:30:34.237357 13352 layer_factory.hpp:77] Creating layer inception_4c/1x1
I0403 14:30:34.237381 13352 net.cpp:91] Creating Layer inception_4c/1x1
I0403 14:30:34.237397 13352 net.cpp:425] inception_4c/1x1 <- inception_4b/output_inception_4b/output_0_split_0
I0403 14:30:34.237419 13352 net.cpp:399] inception_4c/1x1 -> inception_4c/1x1
I0403 14:30:34.238845 13352 net.cpp:141] Setting up inception_4c/1x1
I0403 14:30:34.238873 13352 net.cpp:148] Top shape: 24 128 14 14 (602112)
I0403 14:30:34.238888 13352 net.cpp:156] Memory required for data: 1030800672
I0403 14:30:34.238905 13352 layer_factory.hpp:77] Creating layer inception_4c/relu_1x1
I0403 14:30:34.238925 13352 net.cpp:91] Creating Layer inception_4c/relu_1x1
I0403 14:30:34.238942 13352 net.cpp:425] inception_4c/relu_1x1 <- inception_4c/1x1
I0403 14:30:34.238960 13352 net.cpp:386] inception_4c/relu_1x1 -> inception_4c/1x1 (in-place)
I0403 14:30:34.239140 13352 net.cpp:141] Setting up inception_4c/relu_1x1
I0403 14:30:34.239163 13352 net.cpp:148] Top shape: 24 128 14 14 (602112)
I0403 14:30:34.239178 13352 net.cpp:156] Memory required for data: 1033209120
I0403 14:30:34.239193 13352 layer_factory.hpp:77] Creating layer inception_4c/3x3_reduce
I0403 14:30:34.239217 13352 net.cpp:91] Creating Layer inception_4c/3x3_reduce
I0403 14:30:34.239234 13352 net.cpp:425] inception_4c/3x3_reduce <- inception_4b/output_inception_4b/output_0_split_1
I0403 14:30:34.239253 13352 net.cpp:399] inception_4c/3x3_reduce -> inception_4c/3x3_reduce
I0403 14:30:34.241222 13352 net.cpp:141] Setting up inception_4c/3x3_reduce
I0403 14:30:34.241253 13352 net.cpp:148] Top shape: 24 128 14 14 (602112)
I0403 14:30:34.241269 13352 net.cpp:156] Memory required for data: 1035617568
I0403 14:30:34.241287 13352 layer_factory.hpp:77] Creating layer inception_4c/relu_3x3_reduce
I0403 14:30:34.241305 13352 net.cpp:91] Creating Layer inception_4c/relu_3x3_reduce
I0403 14:30:34.241322 13352 net.cpp:425] inception_4c/relu_3x3_reduce <- inception_4c/3x3_reduce
I0403 14:30:34.241340 13352 net.cpp:386] inception_4c/relu_3x3_reduce -> inception_4c/3x3_reduce (in-place)
I0403 14:30:34.241626 13352 net.cpp:141] Setting up inception_4c/relu_3x3_reduce
I0403 14:30:34.241653 13352 net.cpp:148] Top shape: 24 128 14 14 (602112)
I0403 14:30:34.241669 13352 net.cpp:156] Memory required for data: 1038026016
I0403 14:30:34.241684 13352 layer_factory.hpp:77] Creating layer inception_4c/3x3
I0403 14:30:34.241709 13352 net.cpp:91] Creating Layer inception_4c/3x3
I0403 14:30:34.241727 13352 net.cpp:425] inception_4c/3x3 <- inception_4c/3x3_reduce
I0403 14:30:34.241745 13352 net.cpp:399] inception_4c/3x3 -> inception_4c/3x3
I0403 14:30:34.245385 13352 net.cpp:141] Setting up inception_4c/3x3
I0403 14:30:34.245429 13352 net.cpp:148] Top shape: 24 256 14 14 (1204224)
I0403 14:30:34.245446 13352 net.cpp:156] Memory required for data: 1042842912
I0403 14:30:34.245478 13352 layer_factory.hpp:77] Creating layer inception_4c/relu_3x3
I0403 14:30:34.245499 13352 net.cpp:91] Creating Layer inception_4c/relu_3x3
I0403 14:30:34.245514 13352 net.cpp:425] inception_4c/relu_3x3 <- inception_4c/3x3
I0403 14:30:34.245533 13352 net.cpp:386] inception_4c/relu_3x3 -> inception_4c/3x3 (in-place)
I0403 14:30:34.245718 13352 net.cpp:141] Setting up inception_4c/relu_3x3
I0403 14:30:34.245745 13352 net.cpp:148] Top shape: 24 256 14 14 (1204224)
I0403 14:30:34.245765 13352 net.cpp:156] Memory required for data: 1047659808
I0403 14:30:34.245784 13352 layer_factory.hpp:77] Creating layer inception_4c/5x5_reduce
I0403 14:30:34.245806 13352 net.cpp:91] Creating Layer inception_4c/5x5_reduce
I0403 14:30:34.245825 13352 net.cpp:425] inception_4c/5x5_reduce <- inception_4b/output_inception_4b/output_0_split_2
I0403 14:30:34.245843 13352 net.cpp:399] inception_4c/5x5_reduce -> inception_4c/5x5_reduce
I0403 14:30:34.246960 13352 net.cpp:141] Setting up inception_4c/5x5_reduce
I0403 14:30:34.246991 13352 net.cpp:148] Top shape: 24 24 14 14 (112896)
I0403 14:30:34.247009 13352 net.cpp:156] Memory required for data: 1048111392
I0403 14:30:34.247027 13352 layer_factory.hpp:77] Creating layer inception_4c/relu_5x5_reduce
I0403 14:30:34.247045 13352 net.cpp:91] Creating Layer inception_4c/relu_5x5_reduce
I0403 14:30:34.247062 13352 net.cpp:425] inception_4c/relu_5x5_reduce <- inception_4c/5x5_reduce
I0403 14:30:34.247082 13352 net.cpp:386] inception_4c/relu_5x5_reduce -> inception_4c/5x5_reduce (in-place)
I0403 14:30:34.247273 13352 net.cpp:141] Setting up inception_4c/relu_5x5_reduce
I0403 14:30:34.247300 13352 net.cpp:148] Top shape: 24 24 14 14 (112896)
I0403 14:30:34.247315 13352 net.cpp:156] Memory required for data: 1048562976
I0403 14:30:34.247330 13352 layer_factory.hpp:77] Creating layer inception_4c/5x5
I0403 14:30:34.247354 13352 net.cpp:91] Creating Layer inception_4c/5x5
I0403 14:30:34.247371 13352 net.cpp:425] inception_4c/5x5 <- inception_4c/5x5_reduce
I0403 14:30:34.247395 13352 net.cpp:399] inception_4c/5x5 -> inception_4c/5x5
I0403 14:30:34.248704 13352 net.cpp:141] Setting up inception_4c/5x5
I0403 14:30:34.248733 13352 net.cpp:148] Top shape: 24 64 14 14 (301056)
I0403 14:30:34.248751 13352 net.cpp:156] Memory required for data: 1049767200
I0403 14:30:34.248770 13352 layer_factory.hpp:77] Creating layer inception_4c/relu_5x5
I0403 14:30:34.248790 13352 net.cpp:91] Creating Layer inception_4c/relu_5x5
I0403 14:30:34.248808 13352 net.cpp:425] inception_4c/relu_5x5 <- inception_4c/5x5
I0403 14:30:34.248826 13352 net.cpp:386] inception_4c/relu_5x5 -> inception_4c/5x5 (in-place)
I0403 14:30:34.249121 13352 net.cpp:141] Setting up inception_4c/relu_5x5
I0403 14:30:34.249148 13352 net.cpp:148] Top shape: 24 64 14 14 (301056)
I0403 14:30:34.249164 13352 net.cpp:156] Memory required for data: 1050971424
I0403 14:30:34.249178 13352 layer_factory.hpp:77] Creating layer inception_4c/pool
I0403 14:30:34.249199 13352 net.cpp:91] Creating Layer inception_4c/pool
I0403 14:30:34.249217 13352 net.cpp:425] inception_4c/pool <- inception_4b/output_inception_4b/output_0_split_3
I0403 14:30:34.249235 13352 net.cpp:399] inception_4c/pool -> inception_4c/pool
I0403 14:30:34.249302 13352 net.cpp:141] Setting up inception_4c/pool
I0403 14:30:34.249327 13352 net.cpp:148] Top shape: 24 512 14 14 (2408448)
I0403 14:30:34.249342 13352 net.cpp:156] Memory required for data: 1060605216
I0403 14:30:34.249357 13352 layer_factory.hpp:77] Creating layer inception_4c/pool_proj
I0403 14:30:34.249379 13352 net.cpp:91] Creating Layer inception_4c/pool_proj
I0403 14:30:34.249397 13352 net.cpp:425] inception_4c/pool_proj <- inception_4c/pool
I0403 14:30:34.249418 13352 net.cpp:399] inception_4c/pool_proj -> inception_4c/pool_proj
I0403 14:30:34.250669 13352 net.cpp:141] Setting up inception_4c/pool_proj
I0403 14:30:34.250700 13352 net.cpp:148] Top shape: 24 64 14 14 (301056)
I0403 14:30:34.250731 13352 net.cpp:156] Memory required for data: 1061809440
I0403 14:30:34.250751 13352 layer_factory.hpp:77] Creating layer inception_4c/relu_pool_proj
I0403 14:30:34.250771 13352 net.cpp:91] Creating Layer inception_4c/relu_pool_proj
I0403 14:30:34.250787 13352 net.cpp:425] inception_4c/relu_pool_proj <- inception_4c/pool_proj
I0403 14:30:34.250807 13352 net.cpp:386] inception_4c/relu_pool_proj -> inception_4c/pool_proj (in-place)
I0403 14:30:34.250995 13352 net.cpp:141] Setting up inception_4c/relu_pool_proj
I0403 14:30:34.251020 13352 net.cpp:148] Top shape: 24 64 14 14 (301056)
I0403 14:30:34.251035 13352 net.cpp:156] Memory required for data: 1063013664
I0403 14:30:34.251050 13352 layer_factory.hpp:77] Creating layer inception_4c/output
I0403 14:30:34.251068 13352 net.cpp:91] Creating Layer inception_4c/output
I0403 14:30:34.251083 13352 net.cpp:425] inception_4c/output <- inception_4c/1x1
I0403 14:30:34.251099 13352 net.cpp:425] inception_4c/output <- inception_4c/3x3
I0403 14:30:34.251116 13352 net.cpp:425] inception_4c/output <- inception_4c/5x5
I0403 14:30:34.251132 13352 net.cpp:425] inception_4c/output <- inception_4c/pool_proj
I0403 14:30:34.251152 13352 net.cpp:399] inception_4c/output -> inception_4c/output
I0403 14:30:34.251199 13352 net.cpp:141] Setting up inception_4c/output
I0403 14:30:34.251226 13352 net.cpp:148] Top shape: 24 512 14 14 (2408448)
I0403 14:30:34.251242 13352 net.cpp:156] Memory required for data: 1072647456
I0403 14:30:34.251256 13352 layer_factory.hpp:77] Creating layer inception_4c/output_inception_4c/output_0_split
I0403 14:30:34.251273 13352 net.cpp:91] Creating Layer inception_4c/output_inception_4c/output_0_split
I0403 14:30:34.251288 13352 net.cpp:425] inception_4c/output_inception_4c/output_0_split <- inception_4c/output
I0403 14:30:34.251308 13352 net.cpp:399] inception_4c/output_inception_4c/output_0_split -> inception_4c/output_inception_4c/output_0_split_0
I0403 14:30:34.251329 13352 net.cpp:399] inception_4c/output_inception_4c/output_0_split -> inception_4c/output_inception_4c/output_0_split_1
I0403 14:30:34.251350 13352 net.cpp:399] inception_4c/output_inception_4c/output_0_split -> inception_4c/output_inception_4c/output_0_split_2
I0403 14:30:34.251370 13352 net.cpp:399] inception_4c/output_inception_4c/output_0_split -> inception_4c/output_inception_4c/output_0_split_3
I0403 14:30:34.251457 13352 net.cpp:141] Setting up inception_4c/output_inception_4c/output_0_split
I0403 14:30:34.251483 13352 net.cpp:148] Top shape: 24 512 14 14 (2408448)
I0403 14:30:34.251502 13352 net.cpp:148] Top shape: 24 512 14 14 (2408448)
I0403 14:30:34.251528 13352 net.cpp:148] Top shape: 24 512 14 14 (2408448)
I0403 14:30:34.251545 13352 net.cpp:148] Top shape: 24 512 14 14 (2408448)
I0403 14:30:34.251559 13352 net.cpp:156] Memory required for data: 1111182624
I0403 14:30:34.251574 13352 layer_factory.hpp:77] Creating layer inception_4d/1x1
I0403 14:30:34.251595 13352 net.cpp:91] Creating Layer inception_4d/1x1
I0403 14:30:34.251617 13352 net.cpp:425] inception_4d/1x1 <- inception_4c/output_inception_4c/output_0_split_0
I0403 14:30:34.251641 13352 net.cpp:399] inception_4d/1x1 -> inception_4d/1x1
I0403 14:30:34.253084 13352 net.cpp:141] Setting up inception_4d/1x1
I0403 14:30:34.253111 13352 net.cpp:148] Top shape: 24 112 14 14 (526848)
I0403 14:30:34.253128 13352 net.cpp:156] Memory required for data: 1113290016
I0403 14:30:34.253145 13352 layer_factory.hpp:77] Creating layer inception_4d/relu_1x1
I0403 14:30:34.253165 13352 net.cpp:91] Creating Layer inception_4d/relu_1x1
I0403 14:30:34.253182 13352 net.cpp:425] inception_4d/relu_1x1 <- inception_4d/1x1
I0403 14:30:34.253199 13352 net.cpp:386] inception_4d/relu_1x1 -> inception_4d/1x1 (in-place)
I0403 14:30:34.253382 13352 net.cpp:141] Setting up inception_4d/relu_1x1
I0403 14:30:34.253408 13352 net.cpp:148] Top shape: 24 112 14 14 (526848)
I0403 14:30:34.253424 13352 net.cpp:156] Memory required for data: 1115397408
I0403 14:30:34.253439 13352 layer_factory.hpp:77] Creating layer inception_4d/3x3_reduce
I0403 14:30:34.253474 13352 net.cpp:91] Creating Layer inception_4d/3x3_reduce
I0403 14:30:34.253494 13352 net.cpp:425] inception_4d/3x3_reduce <- inception_4c/output_inception_4c/output_0_split_1
I0403 14:30:34.253512 13352 net.cpp:399] inception_4d/3x3_reduce -> inception_4d/3x3_reduce
I0403 14:30:34.255061 13352 net.cpp:141] Setting up inception_4d/3x3_reduce
I0403 14:30:34.255089 13352 net.cpp:148] Top shape: 24 144 14 14 (677376)
I0403 14:30:34.255105 13352 net.cpp:156] Memory required for data: 1118106912
I0403 14:30:34.255121 13352 layer_factory.hpp:77] Creating layer inception_4d/relu_3x3_reduce
I0403 14:30:34.255141 13352 net.cpp:91] Creating Layer inception_4d/relu_3x3_reduce
I0403 14:30:34.255157 13352 net.cpp:425] inception_4d/relu_3x3_reduce <- inception_4d/3x3_reduce
I0403 14:30:34.255174 13352 net.cpp:386] inception_4d/relu_3x3_reduce -> inception_4d/3x3_reduce (in-place)
I0403 14:30:34.255461 13352 net.cpp:141] Setting up inception_4d/relu_3x3_reduce
I0403 14:30:34.255487 13352 net.cpp:148] Top shape: 24 144 14 14 (677376)
I0403 14:30:34.255502 13352 net.cpp:156] Memory required for data: 1120816416
I0403 14:30:34.255529 13352 layer_factory.hpp:77] Creating layer inception_4d/3x3
I0403 14:30:34.255551 13352 net.cpp:91] Creating Layer inception_4d/3x3
I0403 14:30:34.255569 13352 net.cpp:425] inception_4d/3x3 <- inception_4d/3x3_reduce
I0403 14:30:34.255591 13352 net.cpp:399] inception_4d/3x3 -> inception_4d/3x3
I0403 14:30:34.259922 13352 net.cpp:141] Setting up inception_4d/3x3
I0403 14:30:34.259951 13352 net.cpp:148] Top shape: 24 288 14 14 (1354752)
I0403 14:30:34.259968 13352 net.cpp:156] Memory required for data: 1126235424
I0403 14:30:34.259985 13352 layer_factory.hpp:77] Creating layer inception_4d/relu_3x3
I0403 14:30:34.260005 13352 net.cpp:91] Creating Layer inception_4d/relu_3x3
I0403 14:30:34.260022 13352 net.cpp:425] inception_4d/relu_3x3 <- inception_4d/3x3
I0403 14:30:34.260040 13352 net.cpp:386] inception_4d/relu_3x3 -> inception_4d/3x3 (in-place)
I0403 14:30:34.260222 13352 net.cpp:141] Setting up inception_4d/relu_3x3
I0403 14:30:34.260247 13352 net.cpp:148] Top shape: 24 288 14 14 (1354752)
I0403 14:30:34.260262 13352 net.cpp:156] Memory required for data: 1131654432
I0403 14:30:34.260277 13352 layer_factory.hpp:77] Creating layer inception_4d/5x5_reduce
I0403 14:30:34.260300 13352 net.cpp:91] Creating Layer inception_4d/5x5_reduce
I0403 14:30:34.260318 13352 net.cpp:425] inception_4d/5x5_reduce <- inception_4c/output_inception_4c/output_0_split_2
I0403 14:30:34.260339 13352 net.cpp:399] inception_4d/5x5_reduce -> inception_4d/5x5_reduce
I0403 14:30:34.261492 13352 net.cpp:141] Setting up inception_4d/5x5_reduce
I0403 14:30:34.261533 13352 net.cpp:148] Top shape: 24 32 14 14 (150528)
I0403 14:30:34.261550 13352 net.cpp:156] Memory required for data: 1132256544
I0403 14:30:34.261570 13352 layer_factory.hpp:77] Creating layer inception_4d/relu_5x5_reduce
I0403 14:30:34.261589 13352 net.cpp:91] Creating Layer inception_4d/relu_5x5_reduce
I0403 14:30:34.261610 13352 net.cpp:425] inception_4d/relu_5x5_reduce <- inception_4d/5x5_reduce
I0403 14:30:34.261627 13352 net.cpp:386] inception_4d/relu_5x5_reduce -> inception_4d/5x5_reduce (in-place)
I0403 14:30:34.261832 13352 net.cpp:141] Setting up inception_4d/relu_5x5_reduce
I0403 14:30:34.261859 13352 net.cpp:148] Top shape: 24 32 14 14 (150528)
I0403 14:30:34.261874 13352 net.cpp:156] Memory required for data: 1132858656
I0403 14:30:34.261888 13352 layer_factory.hpp:77] Creating layer inception_4d/5x5
I0403 14:30:34.261911 13352 net.cpp:91] Creating Layer inception_4d/5x5
I0403 14:30:34.261929 13352 net.cpp:425] inception_4d/5x5 <- inception_4d/5x5_reduce
I0403 14:30:34.261947 13352 net.cpp:399] inception_4d/5x5 -> inception_4d/5x5
I0403 14:30:34.263443 13352 net.cpp:141] Setting up inception_4d/5x5
I0403 14:30:34.263471 13352 net.cpp:148] Top shape: 24 64 14 14 (301056)
I0403 14:30:34.263487 13352 net.cpp:156] Memory required for data: 1134062880
I0403 14:30:34.263506 13352 layer_factory.hpp:77] Creating layer inception_4d/relu_5x5
I0403 14:30:34.263552 13352 net.cpp:91] Creating Layer inception_4d/relu_5x5
I0403 14:30:34.263571 13352 net.cpp:425] inception_4d/relu_5x5 <- inception_4d/5x5
I0403 14:30:34.263591 13352 net.cpp:386] inception_4d/relu_5x5 -> inception_4d/5x5 (in-place)
I0403 14:30:34.263916 13352 net.cpp:141] Setting up inception_4d/relu_5x5
I0403 14:30:34.263942 13352 net.cpp:148] Top shape: 24 64 14 14 (301056)
I0403 14:30:34.263957 13352 net.cpp:156] Memory required for data: 1135267104
I0403 14:30:34.263972 13352 layer_factory.hpp:77] Creating layer inception_4d/pool
I0403 14:30:34.263988 13352 net.cpp:91] Creating Layer inception_4d/pool
I0403 14:30:34.264004 13352 net.cpp:425] inception_4d/pool <- inception_4c/output_inception_4c/output_0_split_3
I0403 14:30:34.264024 13352 net.cpp:399] inception_4d/pool -> inception_4d/pool
I0403 14:30:34.264091 13352 net.cpp:141] Setting up inception_4d/pool
I0403 14:30:34.264117 13352 net.cpp:148] Top shape: 24 512 14 14 (2408448)
I0403 14:30:34.264132 13352 net.cpp:156] Memory required for data: 1144900896
I0403 14:30:34.264147 13352 layer_factory.hpp:77] Creating layer inception_4d/pool_proj
I0403 14:30:34.264168 13352 net.cpp:91] Creating Layer inception_4d/pool_proj
I0403 14:30:34.264185 13352 net.cpp:425] inception_4d/pool_proj <- inception_4d/pool
I0403 14:30:34.264204 13352 net.cpp:399] inception_4d/pool_proj -> inception_4d/pool_proj
I0403 14:30:34.265974 13352 net.cpp:141] Setting up inception_4d/pool_proj
I0403 14:30:34.266003 13352 net.cpp:148] Top shape: 24 64 14 14 (301056)
I0403 14:30:34.266019 13352 net.cpp:156] Memory required for data: 1146105120
I0403 14:30:34.266037 13352 layer_factory.hpp:77] Creating layer inception_4d/relu_pool_proj
I0403 14:30:34.266057 13352 net.cpp:91] Creating Layer inception_4d/relu_pool_proj
I0403 14:30:34.266074 13352 net.cpp:425] inception_4d/relu_pool_proj <- inception_4d/pool_proj
I0403 14:30:34.266093 13352 net.cpp:386] inception_4d/relu_pool_proj -> inception_4d/pool_proj (in-place)
I0403 14:30:34.266279 13352 net.cpp:141] Setting up inception_4d/relu_pool_proj
I0403 14:30:34.266305 13352 net.cpp:148] Top shape: 24 64 14 14 (301056)
I0403 14:30:34.266319 13352 net.cpp:156] Memory required for data: 1147309344
I0403 14:30:34.266333 13352 layer_factory.hpp:77] Creating layer inception_4d/output
I0403 14:30:34.266350 13352 net.cpp:91] Creating Layer inception_4d/output
I0403 14:30:34.266366 13352 net.cpp:425] inception_4d/output <- inception_4d/1x1
I0403 14:30:34.266381 13352 net.cpp:425] inception_4d/output <- inception_4d/3x3
I0403 14:30:34.266397 13352 net.cpp:425] inception_4d/output <- inception_4d/5x5
I0403 14:30:34.266413 13352 net.cpp:425] inception_4d/output <- inception_4d/pool_proj
I0403 14:30:34.266432 13352 net.cpp:399] inception_4d/output -> inception_4d/output
I0403 14:30:34.266479 13352 net.cpp:141] Setting up inception_4d/output
I0403 14:30:34.266505 13352 net.cpp:148] Top shape: 24 528 14 14 (2483712)
I0403 14:30:34.266520 13352 net.cpp:156] Memory required for data: 1157244192
I0403 14:30:34.266535 13352 layer_factory.hpp:77] Creating layer inception_4d/output_inception_4d/output_0_split
I0403 14:30:34.266551 13352 net.cpp:91] Creating Layer inception_4d/output_inception_4d/output_0_split
I0403 14:30:34.266567 13352 net.cpp:425] inception_4d/output_inception_4d/output_0_split <- inception_4d/output
I0403 14:30:34.266584 13352 net.cpp:399] inception_4d/output_inception_4d/output_0_split -> inception_4d/output_inception_4d/output_0_split_0
I0403 14:30:34.266608 13352 net.cpp:399] inception_4d/output_inception_4d/output_0_split -> inception_4d/output_inception_4d/output_0_split_1
I0403 14:30:34.266633 13352 net.cpp:399] inception_4d/output_inception_4d/output_0_split -> inception_4d/output_inception_4d/output_0_split_2
I0403 14:30:34.266655 13352 net.cpp:399] inception_4d/output_inception_4d/output_0_split -> inception_4d/output_inception_4d/output_0_split_3
I0403 14:30:34.266676 13352 net.cpp:399] inception_4d/output_inception_4d/output_0_split -> inception_4d/output_inception_4d/output_0_split_4
I0403 14:30:34.266780 13352 net.cpp:141] Setting up inception_4d/output_inception_4d/output_0_split
I0403 14:30:34.266815 13352 net.cpp:148] Top shape: 24 528 14 14 (2483712)
I0403 14:30:34.266832 13352 net.cpp:148] Top shape: 24 528 14 14 (2483712)
I0403 14:30:34.266849 13352 net.cpp:148] Top shape: 24 528 14 14 (2483712)
I0403 14:30:34.266863 13352 net.cpp:148] Top shape: 24 528 14 14 (2483712)
I0403 14:30:34.266880 13352 net.cpp:148] Top shape: 24 528 14 14 (2483712)
I0403 14:30:34.266893 13352 net.cpp:156] Memory required for data: 1206918432
I0403 14:30:34.266907 13352 layer_factory.hpp:77] Creating layer loss2/ave_pool
I0403 14:30:34.266927 13352 net.cpp:91] Creating Layer loss2/ave_pool
I0403 14:30:34.266944 13352 net.cpp:425] loss2/ave_pool <- inception_4d/output_inception_4d/output_0_split_0
I0403 14:30:34.266963 13352 net.cpp:399] loss2/ave_pool -> loss2/ave_pool
I0403 14:30:34.267273 13352 net.cpp:141] Setting up loss2/ave_pool
I0403 14:30:34.267302 13352 net.cpp:148] Top shape: 24 528 4 4 (202752)
I0403 14:30:34.267316 13352 net.cpp:156] Memory required for data: 1207729440
I0403 14:30:34.267331 13352 layer_factory.hpp:77] Creating layer loss2/conv
I0403 14:30:34.267355 13352 net.cpp:91] Creating Layer loss2/conv
I0403 14:30:34.267372 13352 net.cpp:425] loss2/conv <- loss2/ave_pool
I0403 14:30:34.267390 13352 net.cpp:399] loss2/conv -> loss2/conv
I0403 14:30:34.269386 13352 net.cpp:141] Setting up loss2/conv
I0403 14:30:34.269414 13352 net.cpp:148] Top shape: 24 128 4 4 (49152)
I0403 14:30:34.269430 13352 net.cpp:156] Memory required for data: 1207926048
I0403 14:30:34.269449 13352 layer_factory.hpp:77] Creating layer loss2/relu_conv
I0403 14:30:34.269469 13352 net.cpp:91] Creating Layer loss2/relu_conv
I0403 14:30:34.269484 13352 net.cpp:425] loss2/relu_conv <- loss2/conv
I0403 14:30:34.269505 13352 net.cpp:386] loss2/relu_conv -> loss2/conv (in-place)
I0403 14:30:34.269804 13352 net.cpp:141] Setting up loss2/relu_conv
I0403 14:30:34.269830 13352 net.cpp:148] Top shape: 24 128 4 4 (49152)
I0403 14:30:34.269846 13352 net.cpp:156] Memory required for data: 1208122656
I0403 14:30:34.269860 13352 layer_factory.hpp:77] Creating layer loss2/fc
I0403 14:30:34.269881 13352 net.cpp:91] Creating Layer loss2/fc
I0403 14:30:34.269896 13352 net.cpp:425] loss2/fc <- loss2/conv
I0403 14:30:34.269917 13352 net.cpp:399] loss2/fc -> loss2/fc
I0403 14:30:34.288305 13352 net.cpp:141] Setting up loss2/fc
I0403 14:30:34.288357 13352 net.cpp:148] Top shape: 24 1024 (24576)
I0403 14:30:34.288372 13352 net.cpp:156] Memory required for data: 1208220960
I0403 14:30:34.288393 13352 layer_factory.hpp:77] Creating layer loss2/relu_fc
I0403 14:30:34.288413 13352 net.cpp:91] Creating Layer loss2/relu_fc
I0403 14:30:34.288429 13352 net.cpp:425] loss2/relu_fc <- loss2/fc
I0403 14:30:34.288447 13352 net.cpp:386] loss2/relu_fc -> loss2/fc (in-place)
I0403 14:30:34.288810 13352 net.cpp:141] Setting up loss2/relu_fc
I0403 14:30:34.288849 13352 net.cpp:148] Top shape: 24 1024 (24576)
I0403 14:30:34.288866 13352 net.cpp:156] Memory required for data: 1208319264
I0403 14:30:34.288882 13352 layer_factory.hpp:77] Creating layer loss2/drop_fc
I0403 14:30:34.288899 13352 net.cpp:91] Creating Layer loss2/drop_fc
I0403 14:30:34.288914 13352 net.cpp:425] loss2/drop_fc <- loss2/fc
I0403 14:30:34.288933 13352 net.cpp:386] loss2/drop_fc -> loss2/fc (in-place)
I0403 14:30:34.288983 13352 net.cpp:141] Setting up loss2/drop_fc
I0403 14:30:34.289006 13352 net.cpp:148] Top shape: 24 1024 (24576)
I0403 14:30:34.289021 13352 net.cpp:156] Memory required for data: 1208417568
I0403 14:30:34.289036 13352 layer_factory.hpp:77] Creating layer loss2/classifier_plantvillage
I0403 14:30:34.289055 13352 net.cpp:91] Creating Layer loss2/classifier_plantvillage
I0403 14:30:34.289072 13352 net.cpp:425] loss2/classifier_plantvillage <- loss2/fc
I0403 14:30:34.289090 13352 net.cpp:399] loss2/classifier_plantvillage -> loss2/classifier_plantvillage
I0403 14:30:34.289506 13352 net.cpp:141] Setting up loss2/classifier_plantvillage
I0403 14:30:34.289532 13352 net.cpp:148] Top shape: 24 38 (912)
I0403 14:30:34.289547 13352 net.cpp:156] Memory required for data: 1208421216
I0403 14:30:34.289587 13352 layer_factory.hpp:77] Creating layer loss2/classifier_plantvillage_loss2/classifier_plantvillage_0_split
I0403 14:30:34.289610 13352 net.cpp:91] Creating Layer loss2/classifier_plantvillage_loss2/classifier_plantvillage_0_split
I0403 14:30:34.289628 13352 net.cpp:425] loss2/classifier_plantvillage_loss2/classifier_plantvillage_0_split <- loss2/classifier_plantvillage
I0403 14:30:34.289649 13352 net.cpp:399] loss2/classifier_plantvillage_loss2/classifier_plantvillage_0_split -> loss2/classifier_plantvillage_loss2/classifier_plantvillage_0_split_0
I0403 14:30:34.289669 13352 net.cpp:399] loss2/classifier_plantvillage_loss2/classifier_plantvillage_0_split -> loss2/classifier_plantvillage_loss2/classifier_plantvillage_0_split_1
I0403 14:30:34.289690 13352 net.cpp:399] loss2/classifier_plantvillage_loss2/classifier_plantvillage_0_split -> loss2/classifier_plantvillage_loss2/classifier_plantvillage_0_split_2
I0403 14:30:34.289768 13352 net.cpp:141] Setting up loss2/classifier_plantvillage_loss2/classifier_plantvillage_0_split
I0403 14:30:34.289791 13352 net.cpp:148] Top shape: 24 38 (912)
I0403 14:30:34.289808 13352 net.cpp:148] Top shape: 24 38 (912)
I0403 14:30:34.289822 13352 net.cpp:148] Top shape: 24 38 (912)
I0403 14:30:34.289836 13352 net.cpp:156] Memory required for data: 1208432160
I0403 14:30:34.289850 13352 layer_factory.hpp:77] Creating layer inception_4e/1x1
I0403 14:30:34.289873 13352 net.cpp:91] Creating Layer inception_4e/1x1
I0403 14:30:34.289891 13352 net.cpp:425] inception_4e/1x1 <- inception_4d/output_inception_4d/output_0_split_1
I0403 14:30:34.289911 13352 net.cpp:399] inception_4e/1x1 -> inception_4e/1x1
I0403 14:30:34.291827 13352 net.cpp:141] Setting up inception_4e/1x1
I0403 14:30:34.291867 13352 net.cpp:148] Top shape: 24 256 14 14 (1204224)
I0403 14:30:34.291883 13352 net.cpp:156] Memory required for data: 1213249056
I0403 14:30:34.291900 13352 layer_factory.hpp:77] Creating layer inception_4e/relu_1x1
I0403 14:30:34.291921 13352 net.cpp:91] Creating Layer inception_4e/relu_1x1
I0403 14:30:34.291937 13352 net.cpp:425] inception_4e/relu_1x1 <- inception_4e/1x1
I0403 14:30:34.291954 13352 net.cpp:386] inception_4e/relu_1x1 -> inception_4e/1x1 (in-place)
I0403 14:30:34.292253 13352 net.cpp:141] Setting up inception_4e/relu_1x1
I0403 14:30:34.292279 13352 net.cpp:148] Top shape: 24 256 14 14 (1204224)
I0403 14:30:34.292295 13352 net.cpp:156] Memory required for data: 1218065952
I0403 14:30:34.292309 13352 layer_factory.hpp:77] Creating layer inception_4e/3x3_reduce
I0403 14:30:34.292331 13352 net.cpp:91] Creating Layer inception_4e/3x3_reduce
I0403 14:30:34.292349 13352 net.cpp:425] inception_4e/3x3_reduce <- inception_4d/output_inception_4d/output_0_split_2
I0403 14:30:34.292371 13352 net.cpp:399] inception_4e/3x3_reduce -> inception_4e/3x3_reduce
I0403 14:30:34.294505 13352 net.cpp:141] Setting up inception_4e/3x3_reduce
I0403 14:30:34.294533 13352 net.cpp:148] Top shape: 24 160 14 14 (752640)
I0403 14:30:34.294549 13352 net.cpp:156] Memory required for data: 1221076512
I0403 14:30:34.294567 13352 layer_factory.hpp:77] Creating layer inception_4e/relu_3x3_reduce
I0403 14:30:34.294584 13352 net.cpp:91] Creating Layer inception_4e/relu_3x3_reduce
I0403 14:30:34.294610 13352 net.cpp:425] inception_4e/relu_3x3_reduce <- inception_4e/3x3_reduce
I0403 14:30:34.294632 13352 net.cpp:386] inception_4e/relu_3x3_reduce -> inception_4e/3x3_reduce (in-place)
I0403 14:30:34.294821 13352 net.cpp:141] Setting up inception_4e/relu_3x3_reduce
I0403 14:30:34.294845 13352 net.cpp:148] Top shape: 24 160 14 14 (752640)
I0403 14:30:34.294860 13352 net.cpp:156] Memory required for data: 1224087072
I0403 14:30:34.294875 13352 layer_factory.hpp:77] Creating layer inception_4e/3x3
I0403 14:30:34.294896 13352 net.cpp:91] Creating Layer inception_4e/3x3
I0403 14:30:34.294914 13352 net.cpp:425] inception_4e/3x3 <- inception_4e/3x3_reduce
I0403 14:30:34.294934 13352 net.cpp:399] inception_4e/3x3 -> inception_4e/3x3
I0403 14:30:34.300065 13352 net.cpp:141] Setting up inception_4e/3x3
I0403 14:30:34.300107 13352 net.cpp:148] Top shape: 24 320 14 14 (1505280)
I0403 14:30:34.300122 13352 net.cpp:156] Memory required for data: 1230108192
I0403 14:30:34.300140 13352 layer_factory.hpp:77] Creating layer inception_4e/relu_3x3
I0403 14:30:34.300160 13352 net.cpp:91] Creating Layer inception_4e/relu_3x3
I0403 14:30:34.300178 13352 net.cpp:425] inception_4e/relu_3x3 <- inception_4e/3x3
I0403 14:30:34.300195 13352 net.cpp:386] inception_4e/relu_3x3 -> inception_4e/3x3 (in-place)
I0403 14:30:34.300498 13352 net.cpp:141] Setting up inception_4e/relu_3x3
I0403 14:30:34.300524 13352 net.cpp:148] Top shape: 24 320 14 14 (1505280)
I0403 14:30:34.300539 13352 net.cpp:156] Memory required for data: 1236129312
I0403 14:30:34.300554 13352 layer_factory.hpp:77] Creating layer inception_4e/5x5_reduce
I0403 14:30:34.300576 13352 net.cpp:91] Creating Layer inception_4e/5x5_reduce
I0403 14:30:34.300593 13352 net.cpp:425] inception_4e/5x5_reduce <- inception_4d/output_inception_4d/output_0_split_3
I0403 14:30:34.300621 13352 net.cpp:399] inception_4e/5x5_reduce -> inception_4e/5x5_reduce
I0403 14:30:34.301697 13352 net.cpp:141] Setting up inception_4e/5x5_reduce
I0403 14:30:34.301724 13352 net.cpp:148] Top shape: 24 32 14 14 (150528)
I0403 14:30:34.301740 13352 net.cpp:156] Memory required for data: 1236731424
I0403 14:30:34.301759 13352 layer_factory.hpp:77] Creating layer inception_4e/relu_5x5_reduce
I0403 14:30:34.301776 13352 net.cpp:91] Creating Layer inception_4e/relu_5x5_reduce
I0403 14:30:34.301791 13352 net.cpp:425] inception_4e/relu_5x5_reduce <- inception_4e/5x5_reduce
I0403 14:30:34.301810 13352 net.cpp:386] inception_4e/relu_5x5_reduce -> inception_4e/5x5_reduce (in-place)
I0403 14:30:34.302110 13352 net.cpp:141] Setting up inception_4e/relu_5x5_reduce
I0403 14:30:34.302136 13352 net.cpp:148] Top shape: 24 32 14 14 (150528)
I0403 14:30:34.302151 13352 net.cpp:156] Memory required for data: 1237333536
I0403 14:30:34.302166 13352 layer_factory.hpp:77] Creating layer inception_4e/5x5
I0403 14:30:34.302204 13352 net.cpp:91] Creating Layer inception_4e/5x5
I0403 14:30:34.302223 13352 net.cpp:425] inception_4e/5x5 <- inception_4e/5x5_reduce
I0403 14:30:34.302242 13352 net.cpp:399] inception_4e/5x5 -> inception_4e/5x5
I0403 14:30:34.304127 13352 net.cpp:141] Setting up inception_4e/5x5
I0403 14:30:34.304157 13352 net.cpp:148] Top shape: 24 128 14 14 (602112)
I0403 14:30:34.304173 13352 net.cpp:156] Memory required for data: 1239741984
I0403 14:30:34.304193 13352 layer_factory.hpp:77] Creating layer inception_4e/relu_5x5
I0403 14:30:34.304209 13352 net.cpp:91] Creating Layer inception_4e/relu_5x5
I0403 14:30:34.304225 13352 net.cpp:425] inception_4e/relu_5x5 <- inception_4e/5x5
I0403 14:30:34.304244 13352 net.cpp:386] inception_4e/relu_5x5 -> inception_4e/5x5 (in-place)
I0403 14:30:34.304446 13352 net.cpp:141] Setting up inception_4e/relu_5x5
I0403 14:30:34.304471 13352 net.cpp:148] Top shape: 24 128 14 14 (602112)
I0403 14:30:34.304486 13352 net.cpp:156] Memory required for data: 1242150432
I0403 14:30:34.304500 13352 layer_factory.hpp:77] Creating layer inception_4e/pool
I0403 14:30:34.304518 13352 net.cpp:91] Creating Layer inception_4e/pool
I0403 14:30:34.304533 13352 net.cpp:425] inception_4e/pool <- inception_4d/output_inception_4d/output_0_split_4
I0403 14:30:34.304553 13352 net.cpp:399] inception_4e/pool -> inception_4e/pool
I0403 14:30:34.304636 13352 net.cpp:141] Setting up inception_4e/pool
I0403 14:30:34.304661 13352 net.cpp:148] Top shape: 24 528 14 14 (2483712)
I0403 14:30:34.304677 13352 net.cpp:156] Memory required for data: 1252085280
I0403 14:30:34.304690 13352 layer_factory.hpp:77] Creating layer inception_4e/pool_proj
I0403 14:30:34.304713 13352 net.cpp:91] Creating Layer inception_4e/pool_proj
I0403 14:30:34.304731 13352 net.cpp:425] inception_4e/pool_proj <- inception_4e/pool
I0403 14:30:34.304750 13352 net.cpp:399] inception_4e/pool_proj -> inception_4e/pool_proj
I0403 14:30:34.306262 13352 net.cpp:141] Setting up inception_4e/pool_proj
I0403 14:30:34.306290 13352 net.cpp:148] Top shape: 24 128 14 14 (602112)
I0403 14:30:34.306319 13352 net.cpp:156] Memory required for data: 1254493728
I0403 14:30:34.306339 13352 layer_factory.hpp:77] Creating layer inception_4e/relu_pool_proj
I0403 14:30:34.306360 13352 net.cpp:91] Creating Layer inception_4e/relu_pool_proj
I0403 14:30:34.306376 13352 net.cpp:425] inception_4e/relu_pool_proj <- inception_4e/pool_proj
I0403 14:30:34.306393 13352 net.cpp:386] inception_4e/relu_pool_proj -> inception_4e/pool_proj (in-place)
I0403 14:30:34.306694 13352 net.cpp:141] Setting up inception_4e/relu_pool_proj
I0403 14:30:34.306721 13352 net.cpp:148] Top shape: 24 128 14 14 (602112)
I0403 14:30:34.306736 13352 net.cpp:156] Memory required for data: 1256902176
I0403 14:30:34.306751 13352 layer_factory.hpp:77] Creating layer inception_4e/output
I0403 14:30:34.306771 13352 net.cpp:91] Creating Layer inception_4e/output
I0403 14:30:34.306787 13352 net.cpp:425] inception_4e/output <- inception_4e/1x1
I0403 14:30:34.306802 13352 net.cpp:425] inception_4e/output <- inception_4e/3x3
I0403 14:30:34.306818 13352 net.cpp:425] inception_4e/output <- inception_4e/5x5
I0403 14:30:34.306834 13352 net.cpp:425] inception_4e/output <- inception_4e/pool_proj
I0403 14:30:34.306851 13352 net.cpp:399] inception_4e/output -> inception_4e/output
I0403 14:30:34.306902 13352 net.cpp:141] Setting up inception_4e/output
I0403 14:30:34.306926 13352 net.cpp:148] Top shape: 24 832 14 14 (3913728)
I0403 14:30:34.306941 13352 net.cpp:156] Memory required for data: 1272557088
I0403 14:30:34.306956 13352 layer_factory.hpp:77] Creating layer pool4/3x3_s2
I0403 14:30:34.306972 13352 net.cpp:91] Creating Layer pool4/3x3_s2
I0403 14:30:34.306988 13352 net.cpp:425] pool4/3x3_s2 <- inception_4e/output
I0403 14:30:34.307008 13352 net.cpp:399] pool4/3x3_s2 -> pool4/3x3_s2
I0403 14:30:34.307080 13352 net.cpp:141] Setting up pool4/3x3_s2
I0403 14:30:34.307102 13352 net.cpp:148] Top shape: 24 832 7 7 (978432)
I0403 14:30:34.307117 13352 net.cpp:156] Memory required for data: 1276470816
I0403 14:30:34.307132 13352 layer_factory.hpp:77] Creating layer pool4/3x3_s2_pool4/3x3_s2_0_split
I0403 14:30:34.307148 13352 net.cpp:91] Creating Layer pool4/3x3_s2_pool4/3x3_s2_0_split
I0403 14:30:34.307163 13352 net.cpp:425] pool4/3x3_s2_pool4/3x3_s2_0_split <- pool4/3x3_s2
I0403 14:30:34.307183 13352 net.cpp:399] pool4/3x3_s2_pool4/3x3_s2_0_split -> pool4/3x3_s2_pool4/3x3_s2_0_split_0
I0403 14:30:34.307204 13352 net.cpp:399] pool4/3x3_s2_pool4/3x3_s2_0_split -> pool4/3x3_s2_pool4/3x3_s2_0_split_1
I0403 14:30:34.307224 13352 net.cpp:399] pool4/3x3_s2_pool4/3x3_s2_0_split -> pool4/3x3_s2_pool4/3x3_s2_0_split_2
I0403 14:30:34.307242 13352 net.cpp:399] pool4/3x3_s2_pool4/3x3_s2_0_split -> pool4/3x3_s2_pool4/3x3_s2_0_split_3
I0403 14:30:34.307334 13352 net.cpp:141] Setting up pool4/3x3_s2_pool4/3x3_s2_0_split
I0403 14:30:34.307361 13352 net.cpp:148] Top shape: 24 832 7 7 (978432)
I0403 14:30:34.307379 13352 net.cpp:148] Top shape: 24 832 7 7 (978432)
I0403 14:30:34.307394 13352 net.cpp:148] Top shape: 24 832 7 7 (978432)
I0403 14:30:34.307410 13352 net.cpp:148] Top shape: 24 832 7 7 (978432)
I0403 14:30:34.307423 13352 net.cpp:156] Memory required for data: 1292125728
I0403 14:30:34.307437 13352 layer_factory.hpp:77] Creating layer inception_5a/1x1
I0403 14:30:34.307458 13352 net.cpp:91] Creating Layer inception_5a/1x1
I0403 14:30:34.307477 13352 net.cpp:425] inception_5a/1x1 <- pool4/3x3_s2_pool4/3x3_s2_0_split_0
I0403 14:30:34.307497 13352 net.cpp:399] inception_5a/1x1 -> inception_5a/1x1
I0403 14:30:34.310416 13352 net.cpp:141] Setting up inception_5a/1x1
I0403 14:30:34.310446 13352 net.cpp:148] Top shape: 24 256 7 7 (301056)
I0403 14:30:34.310461 13352 net.cpp:156] Memory required for data: 1293329952
I0403 14:30:34.310479 13352 layer_factory.hpp:77] Creating layer inception_5a/relu_1x1
I0403 14:30:34.310497 13352 net.cpp:91] Creating Layer inception_5a/relu_1x1
I0403 14:30:34.310513 13352 net.cpp:425] inception_5a/relu_1x1 <- inception_5a/1x1
I0403 14:30:34.310533 13352 net.cpp:386] inception_5a/relu_1x1 -> inception_5a/1x1 (in-place)
I0403 14:30:34.310847 13352 net.cpp:141] Setting up inception_5a/relu_1x1
I0403 14:30:34.310873 13352 net.cpp:148] Top shape: 24 256 7 7 (301056)
I0403 14:30:34.310889 13352 net.cpp:156] Memory required for data: 1294534176
I0403 14:30:34.310902 13352 layer_factory.hpp:77] Creating layer inception_5a/3x3_reduce
I0403 14:30:34.310925 13352 net.cpp:91] Creating Layer inception_5a/3x3_reduce
I0403 14:30:34.310943 13352 net.cpp:425] inception_5a/3x3_reduce <- pool4/3x3_s2_pool4/3x3_s2_0_split_1
I0403 14:30:34.310964 13352 net.cpp:399] inception_5a/3x3_reduce -> inception_5a/3x3_reduce
I0403 14:30:34.314142 13352 net.cpp:141] Setting up inception_5a/3x3_reduce
I0403 14:30:34.314170 13352 net.cpp:148] Top shape: 24 160 7 7 (188160)
I0403 14:30:34.314185 13352 net.cpp:156] Memory required for data: 1295286816
I0403 14:30:34.314203 13352 layer_factory.hpp:77] Creating layer inception_5a/relu_3x3_reduce
I0403 14:30:34.314223 13352 net.cpp:91] Creating Layer inception_5a/relu_3x3_reduce
I0403 14:30:34.314239 13352 net.cpp:425] inception_5a/relu_3x3_reduce <- inception_5a/3x3_reduce
I0403 14:30:34.314255 13352 net.cpp:386] inception_5a/relu_3x3_reduce -> inception_5a/3x3_reduce (in-place)
I0403 14:30:34.314437 13352 net.cpp:141] Setting up inception_5a/relu_3x3_reduce
I0403 14:30:34.314463 13352 net.cpp:148] Top shape: 24 160 7 7 (188160)
I0403 14:30:34.314478 13352 net.cpp:156] Memory required for data: 1296039456
I0403 14:30:34.314492 13352 layer_factory.hpp:77] Creating layer inception_5a/3x3
I0403 14:30:34.314515 13352 net.cpp:91] Creating Layer inception_5a/3x3
I0403 14:30:34.314532 13352 net.cpp:425] inception_5a/3x3 <- inception_5a/3x3_reduce
I0403 14:30:34.314550 13352 net.cpp:399] inception_5a/3x3 -> inception_5a/3x3
I0403 14:30:34.319500 13352 net.cpp:141] Setting up inception_5a/3x3
I0403 14:30:34.319530 13352 net.cpp:148] Top shape: 24 320 7 7 (376320)
I0403 14:30:34.319546 13352 net.cpp:156] Memory required for data: 1297544736
I0403 14:30:34.319564 13352 layer_factory.hpp:77] Creating layer inception_5a/relu_3x3
I0403 14:30:34.319581 13352 net.cpp:91] Creating Layer inception_5a/relu_3x3
I0403 14:30:34.319597 13352 net.cpp:425] inception_5a/relu_3x3 <- inception_5a/3x3
I0403 14:30:34.319622 13352 net.cpp:386] inception_5a/relu_3x3 -> inception_5a/3x3 (in-place)
I0403 14:30:34.319906 13352 net.cpp:141] Setting up inception_5a/relu_3x3
I0403 14:30:34.319934 13352 net.cpp:148] Top shape: 24 320 7 7 (376320)
I0403 14:30:34.319949 13352 net.cpp:156] Memory required for data: 1299050016
I0403 14:30:34.319963 13352 layer_factory.hpp:77] Creating layer inception_5a/5x5_reduce
I0403 14:30:34.319985 13352 net.cpp:91] Creating Layer inception_5a/5x5_reduce
I0403 14:30:34.320003 13352 net.cpp:425] inception_5a/5x5_reduce <- pool4/3x3_s2_pool4/3x3_s2_0_split_2
I0403 14:30:34.320021 13352 net.cpp:399] inception_5a/5x5_reduce -> inception_5a/5x5_reduce
I0403 14:30:34.321162 13352 net.cpp:141] Setting up inception_5a/5x5_reduce
I0403 14:30:34.321192 13352 net.cpp:148] Top shape: 24 32 7 7 (37632)
I0403 14:30:34.321208 13352 net.cpp:156] Memory required for data: 1299200544
I0403 14:30:34.321226 13352 layer_factory.hpp:77] Creating layer inception_5a/relu_5x5_reduce
I0403 14:30:34.321244 13352 net.cpp:91] Creating Layer inception_5a/relu_5x5_reduce
I0403 14:30:34.321260 13352 net.cpp:425] inception_5a/relu_5x5_reduce <- inception_5a/5x5_reduce
I0403 14:30:34.321280 13352 net.cpp:386] inception_5a/relu_5x5_reduce -> inception_5a/5x5_reduce (in-place)
I0403 14:30:34.321579 13352 net.cpp:141] Setting up inception_5a/relu_5x5_reduce
I0403 14:30:34.321609 13352 net.cpp:148] Top shape: 24 32 7 7 (37632)
I0403 14:30:34.321624 13352 net.cpp:156] Memory required for data: 1299351072
I0403 14:30:34.321638 13352 layer_factory.hpp:77] Creating layer inception_5a/5x5
I0403 14:30:34.321660 13352 net.cpp:91] Creating Layer inception_5a/5x5
I0403 14:30:34.321677 13352 net.cpp:425] inception_5a/5x5 <- inception_5a/5x5_reduce
I0403 14:30:34.321698 13352 net.cpp:399] inception_5a/5x5 -> inception_5a/5x5
I0403 14:30:34.323410 13352 net.cpp:141] Setting up inception_5a/5x5
I0403 14:30:34.323453 13352 net.cpp:148] Top shape: 24 128 7 7 (150528)
I0403 14:30:34.323469 13352 net.cpp:156] Memory required for data: 1299953184
I0403 14:30:34.323487 13352 layer_factory.hpp:77] Creating layer inception_5a/relu_5x5
I0403 14:30:34.323504 13352 net.cpp:91] Creating Layer inception_5a/relu_5x5
I0403 14:30:34.323520 13352 net.cpp:425] inception_5a/relu_5x5 <- inception_5a/5x5
I0403 14:30:34.323539 13352 net.cpp:386] inception_5a/relu_5x5 -> inception_5a/5x5 (in-place)
I0403 14:30:34.323730 13352 net.cpp:141] Setting up inception_5a/relu_5x5
I0403 14:30:34.323755 13352 net.cpp:148] Top shape: 24 128 7 7 (150528)
I0403 14:30:34.323768 13352 net.cpp:156] Memory required for data: 1300555296
I0403 14:30:34.323782 13352 layer_factory.hpp:77] Creating layer inception_5a/pool
I0403 14:30:34.323799 13352 net.cpp:91] Creating Layer inception_5a/pool
I0403 14:30:34.323815 13352 net.cpp:425] inception_5a/pool <- pool4/3x3_s2_pool4/3x3_s2_0_split_3
I0403 14:30:34.323835 13352 net.cpp:399] inception_5a/pool -> inception_5a/pool
I0403 14:30:34.323904 13352 net.cpp:141] Setting up inception_5a/pool
I0403 14:30:34.323927 13352 net.cpp:148] Top shape: 24 832 7 7 (978432)
I0403 14:30:34.323940 13352 net.cpp:156] Memory required for data: 1304469024
I0403 14:30:34.323954 13352 layer_factory.hpp:77] Creating layer inception_5a/pool_proj
I0403 14:30:34.323977 13352 net.cpp:91] Creating Layer inception_5a/pool_proj
I0403 14:30:34.323994 13352 net.cpp:425] inception_5a/pool_proj <- inception_5a/pool
I0403 14:30:34.324012 13352 net.cpp:399] inception_5a/pool_proj -> inception_5a/pool_proj
I0403 14:30:34.326241 13352 net.cpp:141] Setting up inception_5a/pool_proj
I0403 14:30:34.326274 13352 net.cpp:148] Top shape: 24 128 7 7 (150528)
I0403 14:30:34.326289 13352 net.cpp:156] Memory required for data: 1305071136
I0403 14:30:34.326308 13352 layer_factory.hpp:77] Creating layer inception_5a/relu_pool_proj
I0403 14:30:34.326325 13352 net.cpp:91] Creating Layer inception_5a/relu_pool_proj
I0403 14:30:34.326340 13352 net.cpp:425] inception_5a/relu_pool_proj <- inception_5a/pool_proj
I0403 14:30:34.326357 13352 net.cpp:386] inception_5a/relu_pool_proj -> inception_5a/pool_proj (in-place)
I0403 14:30:34.326653 13352 net.cpp:141] Setting up inception_5a/relu_pool_proj
I0403 14:30:34.326680 13352 net.cpp:148] Top shape: 24 128 7 7 (150528)
I0403 14:30:34.326696 13352 net.cpp:156] Memory required for data: 1305673248
I0403 14:30:34.326710 13352 layer_factory.hpp:77] Creating layer inception_5a/output
I0403 14:30:34.326726 13352 net.cpp:91] Creating Layer inception_5a/output
I0403 14:30:34.326741 13352 net.cpp:425] inception_5a/output <- inception_5a/1x1
I0403 14:30:34.326758 13352 net.cpp:425] inception_5a/output <- inception_5a/3x3
I0403 14:30:34.326774 13352 net.cpp:425] inception_5a/output <- inception_5a/5x5
I0403 14:30:34.326789 13352 net.cpp:425] inception_5a/output <- inception_5a/pool_proj
I0403 14:30:34.326805 13352 net.cpp:399] inception_5a/output -> inception_5a/output
I0403 14:30:34.326855 13352 net.cpp:141] Setting up inception_5a/output
I0403 14:30:34.326879 13352 net.cpp:148] Top shape: 24 832 7 7 (978432)
I0403 14:30:34.326892 13352 net.cpp:156] Memory required for data: 1309586976
I0403 14:30:34.326906 13352 layer_factory.hpp:77] Creating layer inception_5a/output_inception_5a/output_0_split
I0403 14:30:34.326925 13352 net.cpp:91] Creating Layer inception_5a/output_inception_5a/output_0_split
I0403 14:30:34.326941 13352 net.cpp:425] inception_5a/output_inception_5a/output_0_split <- inception_5a/output
I0403 14:30:34.326957 13352 net.cpp:399] inception_5a/output_inception_5a/output_0_split -> inception_5a/output_inception_5a/output_0_split_0
I0403 14:30:34.326977 13352 net.cpp:399] inception_5a/output_inception_5a/output_0_split -> inception_5a/output_inception_5a/output_0_split_1
I0403 14:30:34.326997 13352 net.cpp:399] inception_5a/output_inception_5a/output_0_split -> inception_5a/output_inception_5a/output_0_split_2
I0403 14:30:34.327016 13352 net.cpp:399] inception_5a/output_inception_5a/output_0_split -> inception_5a/output_inception_5a/output_0_split_3
I0403 14:30:34.327127 13352 net.cpp:141] Setting up inception_5a/output_inception_5a/output_0_split
I0403 14:30:34.327149 13352 net.cpp:148] Top shape: 24 832 7 7 (978432)
I0403 14:30:34.327165 13352 net.cpp:148] Top shape: 24 832 7 7 (978432)
I0403 14:30:34.327179 13352 net.cpp:148] Top shape: 24 832 7 7 (978432)
I0403 14:30:34.327194 13352 net.cpp:148] Top shape: 24 832 7 7 (978432)
I0403 14:30:34.327208 13352 net.cpp:156] Memory required for data: 1325241888
I0403 14:30:34.327221 13352 layer_factory.hpp:77] Creating layer inception_5b/1x1
I0403 14:30:34.327242 13352 net.cpp:91] Creating Layer inception_5b/1x1
I0403 14:30:34.327262 13352 net.cpp:425] inception_5b/1x1 <- inception_5a/output_inception_5a/output_0_split_0
I0403 14:30:34.327282 13352 net.cpp:399] inception_5b/1x1 -> inception_5b/1x1
I0403 14:30:34.330948 13352 net.cpp:141] Setting up inception_5b/1x1
I0403 14:30:34.330977 13352 net.cpp:148] Top shape: 24 384 7 7 (451584)
I0403 14:30:34.330993 13352 net.cpp:156] Memory required for data: 1327048224
I0403 14:30:34.331010 13352 layer_factory.hpp:77] Creating layer inception_5b/relu_1x1
I0403 14:30:34.331030 13352 net.cpp:91] Creating Layer inception_5b/relu_1x1
I0403 14:30:34.331046 13352 net.cpp:425] inception_5b/relu_1x1 <- inception_5b/1x1
I0403 14:30:34.331063 13352 net.cpp:386] inception_5b/relu_1x1 -> inception_5b/1x1 (in-place)
I0403 14:30:34.331362 13352 net.cpp:141] Setting up inception_5b/relu_1x1
I0403 14:30:34.331387 13352 net.cpp:148] Top shape: 24 384 7 7 (451584)
I0403 14:30:34.331400 13352 net.cpp:156] Memory required for data: 1328854560
I0403 14:30:34.331415 13352 layer_factory.hpp:77] Creating layer inception_5b/3x3_reduce
I0403 14:30:34.331435 13352 net.cpp:91] Creating Layer inception_5b/3x3_reduce
I0403 14:30:34.331455 13352 net.cpp:425] inception_5b/3x3_reduce <- inception_5a/output_inception_5a/output_0_split_1
I0403 14:30:34.331475 13352 net.cpp:399] inception_5b/3x3_reduce -> inception_5b/3x3_reduce
I0403 14:30:34.334157 13352 net.cpp:141] Setting up inception_5b/3x3_reduce
I0403 14:30:34.334192 13352 net.cpp:148] Top shape: 24 192 7 7 (225792)
I0403 14:30:34.334209 13352 net.cpp:156] Memory required for data: 1329757728
I0403 14:30:34.334228 13352 layer_factory.hpp:77] Creating layer inception_5b/relu_3x3_reduce
I0403 14:30:34.334245 13352 net.cpp:91] Creating Layer inception_5b/relu_3x3_reduce
I0403 14:30:34.334264 13352 net.cpp:425] inception_5b/relu_3x3_reduce <- inception_5b/3x3_reduce
I0403 14:30:34.334280 13352 net.cpp:386] inception_5b/relu_3x3_reduce -> inception_5b/3x3_reduce (in-place)
I0403 14:30:34.334486 13352 net.cpp:141] Setting up inception_5b/relu_3x3_reduce
I0403 14:30:34.334514 13352 net.cpp:148] Top shape: 24 192 7 7 (225792)
I0403 14:30:34.334532 13352 net.cpp:156] Memory required for data: 1330660896
I0403 14:30:34.334547 13352 layer_factory.hpp:77] Creating layer inception_5b/3x3
I0403 14:30:34.334568 13352 net.cpp:91] Creating Layer inception_5b/3x3
I0403 14:30:34.334586 13352 net.cpp:425] inception_5b/3x3 <- inception_5b/3x3_reduce
I0403 14:30:34.334617 13352 net.cpp:399] inception_5b/3x3 -> inception_5b/3x3
I0403 14:30:34.341589 13352 net.cpp:141] Setting up inception_5b/3x3
I0403 14:30:34.341627 13352 net.cpp:148] Top shape: 24 384 7 7 (451584)
I0403 14:30:34.341645 13352 net.cpp:156] Memory required for data: 1332467232
I0403 14:30:34.341663 13352 layer_factory.hpp:77] Creating layer inception_5b/relu_3x3
I0403 14:30:34.341682 13352 net.cpp:91] Creating Layer inception_5b/relu_3x3
I0403 14:30:34.341698 13352 net.cpp:425] inception_5b/relu_3x3 <- inception_5b/3x3
I0403 14:30:34.341716 13352 net.cpp:386] inception_5b/relu_3x3 -> inception_5b/3x3 (in-place)
I0403 14:30:34.342025 13352 net.cpp:141] Setting up inception_5b/relu_3x3
I0403 14:30:34.342054 13352 net.cpp:148] Top shape: 24 384 7 7 (451584)
I0403 14:30:34.342070 13352 net.cpp:156] Memory required for data: 1334273568
I0403 14:30:34.342087 13352 layer_factory.hpp:77] Creating layer inception_5b/5x5_reduce
I0403 14:30:34.342128 13352 net.cpp:91] Creating Layer inception_5b/5x5_reduce
I0403 14:30:34.342147 13352 net.cpp:425] inception_5b/5x5_reduce <- inception_5a/output_inception_5a/output_0_split_2
I0403 14:30:34.342167 13352 net.cpp:399] inception_5b/5x5_reduce -> inception_5b/5x5_reduce
I0403 14:30:34.343515 13352 net.cpp:141] Setting up inception_5b/5x5_reduce
I0403 14:30:34.343545 13352 net.cpp:148] Top shape: 24 48 7 7 (56448)
I0403 14:30:34.343574 13352 net.cpp:156] Memory required for data: 1334499360
I0403 14:30:34.343591 13352 layer_factory.hpp:77] Creating layer inception_5b/relu_5x5_reduce
I0403 14:30:34.343617 13352 net.cpp:91] Creating Layer inception_5b/relu_5x5_reduce
I0403 14:30:34.343636 13352 net.cpp:425] inception_5b/relu_5x5_reduce <- inception_5b/5x5_reduce
I0403 14:30:34.343654 13352 net.cpp:386] inception_5b/relu_5x5_reduce -> inception_5b/5x5_reduce (in-place)
I0403 14:30:34.344040 13352 net.cpp:141] Setting up inception_5b/relu_5x5_reduce
I0403 14:30:34.344069 13352 net.cpp:148] Top shape: 24 48 7 7 (56448)
I0403 14:30:34.344084 13352 net.cpp:156] Memory required for data: 1334725152
I0403 14:30:34.344099 13352 layer_factory.hpp:77] Creating layer inception_5b/5x5
I0403 14:30:34.344120 13352 net.cpp:91] Creating Layer inception_5b/5x5
I0403 14:30:34.344136 13352 net.cpp:425] inception_5b/5x5 <- inception_5b/5x5_reduce
I0403 14:30:34.344156 13352 net.cpp:399] inception_5b/5x5 -> inception_5b/5x5
I0403 14:30:34.346294 13352 net.cpp:141] Setting up inception_5b/5x5
I0403 14:30:34.346328 13352 net.cpp:148] Top shape: 24 128 7 7 (150528)
I0403 14:30:34.346343 13352 net.cpp:156] Memory required for data: 1335327264
I0403 14:30:34.346362 13352 layer_factory.hpp:77] Creating layer inception_5b/relu_5x5
I0403 14:30:34.346381 13352 net.cpp:91] Creating Layer inception_5b/relu_5x5
I0403 14:30:34.346398 13352 net.cpp:425] inception_5b/relu_5x5 <- inception_5b/5x5
I0403 14:30:34.346418 13352 net.cpp:386] inception_5b/relu_5x5 -> inception_5b/5x5 (in-place)
I0403 14:30:34.346626 13352 net.cpp:141] Setting up inception_5b/relu_5x5
I0403 14:30:34.346652 13352 net.cpp:148] Top shape: 24 128 7 7 (150528)
I0403 14:30:34.346668 13352 net.cpp:156] Memory required for data: 1335929376
I0403 14:30:34.346683 13352 layer_factory.hpp:77] Creating layer inception_5b/pool
I0403 14:30:34.346704 13352 net.cpp:91] Creating Layer inception_5b/pool
I0403 14:30:34.346720 13352 net.cpp:425] inception_5b/pool <- inception_5a/output_inception_5a/output_0_split_3
I0403 14:30:34.346738 13352 net.cpp:399] inception_5b/pool -> inception_5b/pool
I0403 14:30:34.346813 13352 net.cpp:141] Setting up inception_5b/pool
I0403 14:30:34.346838 13352 net.cpp:148] Top shape: 24 832 7 7 (978432)
I0403 14:30:34.346853 13352 net.cpp:156] Memory required for data: 1339843104
I0403 14:30:34.346868 13352 layer_factory.hpp:77] Creating layer inception_5b/pool_proj
I0403 14:30:34.346889 13352 net.cpp:91] Creating Layer inception_5b/pool_proj
I0403 14:30:34.346909 13352 net.cpp:425] inception_5b/pool_proj <- inception_5b/pool
I0403 14:30:34.346930 13352 net.cpp:399] inception_5b/pool_proj -> inception_5b/pool_proj
I0403 14:30:34.349342 13352 net.cpp:141] Setting up inception_5b/pool_proj
I0403 14:30:34.349373 13352 net.cpp:148] Top shape: 24 128 7 7 (150528)
I0403 14:30:34.349391 13352 net.cpp:156] Memory required for data: 1340445216
I0403 14:30:34.349411 13352 layer_factory.hpp:77] Creating layer inception_5b/relu_pool_proj
I0403 14:30:34.349429 13352 net.cpp:91] Creating Layer inception_5b/relu_pool_proj
I0403 14:30:34.349447 13352 net.cpp:425] inception_5b/relu_pool_proj <- inception_5b/pool_proj
I0403 14:30:34.349467 13352 net.cpp:386] inception_5b/relu_pool_proj -> inception_5b/pool_proj (in-place)
I0403 14:30:34.349812 13352 net.cpp:141] Setting up inception_5b/relu_pool_proj
I0403 14:30:34.349841 13352 net.cpp:148] Top shape: 24 128 7 7 (150528)
I0403 14:30:34.349858 13352 net.cpp:156] Memory required for data: 1341047328
I0403 14:30:34.349874 13352 layer_factory.hpp:77] Creating layer inception_5b/output
I0403 14:30:34.349891 13352 net.cpp:91] Creating Layer inception_5b/output
I0403 14:30:34.349922 13352 net.cpp:425] inception_5b/output <- inception_5b/1x1
I0403 14:30:34.349941 13352 net.cpp:425] inception_5b/output <- inception_5b/3x3
I0403 14:30:34.349958 13352 net.cpp:425] inception_5b/output <- inception_5b/5x5
I0403 14:30:34.349974 13352 net.cpp:425] inception_5b/output <- inception_5b/pool_proj
I0403 14:30:34.349992 13352 net.cpp:399] inception_5b/output -> inception_5b/output
I0403 14:30:34.350047 13352 net.cpp:141] Setting up inception_5b/output
I0403 14:30:34.350085 13352 net.cpp:148] Top shape: 24 1024 7 7 (1204224)
I0403 14:30:34.350100 13352 net.cpp:156] Memory required for data: 1345864224
I0403 14:30:34.350113 13352 layer_factory.hpp:77] Creating layer pool5/7x7_s1
I0403 14:30:34.350132 13352 net.cpp:91] Creating Layer pool5/7x7_s1
I0403 14:30:34.350149 13352 net.cpp:425] pool5/7x7_s1 <- inception_5b/output
I0403 14:30:34.350167 13352 net.cpp:399] pool5/7x7_s1 -> pool5/7x7_s1
I0403 14:30:34.350383 13352 net.cpp:141] Setting up pool5/7x7_s1
I0403 14:30:34.350411 13352 net.cpp:148] Top shape: 24 1024 1 1 (24576)
I0403 14:30:34.350426 13352 net.cpp:156] Memory required for data: 1345962528
I0403 14:30:34.350440 13352 layer_factory.hpp:77] Creating layer pool5/drop_7x7_s1
I0403 14:30:34.350458 13352 net.cpp:91] Creating Layer pool5/drop_7x7_s1
I0403 14:30:34.350474 13352 net.cpp:425] pool5/drop_7x7_s1 <- pool5/7x7_s1
I0403 14:30:34.350493 13352 net.cpp:386] pool5/drop_7x7_s1 -> pool5/7x7_s1 (in-place)
I0403 14:30:34.350543 13352 net.cpp:141] Setting up pool5/drop_7x7_s1
I0403 14:30:34.350565 13352 net.cpp:148] Top shape: 24 1024 1 1 (24576)
I0403 14:30:34.350579 13352 net.cpp:156] Memory required for data: 1346060832
I0403 14:30:34.350594 13352 layer_factory.hpp:77] Creating layer loss3/classifier_plantvillage
I0403 14:30:34.350620 13352 net.cpp:91] Creating Layer loss3/classifier_plantvillage
I0403 14:30:34.350638 13352 net.cpp:425] loss3/classifier_plantvillage <- pool5/7x7_s1
I0403 14:30:34.350658 13352 net.cpp:399] loss3/classifier_plantvillage -> loss3/classifier_plantvillage
I0403 14:30:34.351085 13352 net.cpp:141] Setting up loss3/classifier_plantvillage
I0403 14:30:34.351110 13352 net.cpp:148] Top shape: 24 38 (912)
I0403 14:30:34.351125 13352 net.cpp:156] Memory required for data: 1346064480
I0403 14:30:34.351142 13352 layer_factory.hpp:77] Creating layer loss3/classifier_plantvillage_loss3/classifier_plantvillage_0_split
I0403 14:30:34.351164 13352 net.cpp:91] Creating Layer loss3/classifier_plantvillage_loss3/classifier_plantvillage_0_split
I0403 14:30:34.351181 13352 net.cpp:425] loss3/classifier_plantvillage_loss3/classifier_plantvillage_0_split <- loss3/classifier_plantvillage
I0403 14:30:34.351198 13352 net.cpp:399] loss3/classifier_plantvillage_loss3/classifier_plantvillage_0_split -> loss3/classifier_plantvillage_loss3/classifier_plantvillage_0_split_0
I0403 14:30:34.351218 13352 net.cpp:399] loss3/classifier_plantvillage_loss3/classifier_plantvillage_0_split -> loss3/classifier_plantvillage_loss3/classifier_plantvillage_0_split_1
I0403 14:30:34.351240 13352 net.cpp:399] loss3/classifier_plantvillage_loss3/classifier_plantvillage_0_split -> loss3/classifier_plantvillage_loss3/classifier_plantvillage_0_split_2
I0403 14:30:34.351260 13352 net.cpp:399] loss3/classifier_plantvillage_loss3/classifier_plantvillage_0_split -> loss3/classifier_plantvillage_loss3/classifier_plantvillage_0_split_3
I0403 14:30:34.351361 13352 net.cpp:141] Setting up loss3/classifier_plantvillage_loss3/classifier_plantvillage_0_split
I0403 14:30:34.351385 13352 net.cpp:148] Top shape: 24 38 (912)
I0403 14:30:34.351400 13352 net.cpp:148] Top shape: 24 38 (912)
I0403 14:30:34.351416 13352 net.cpp:148] Top shape: 24 38 (912)
I0403 14:30:34.351430 13352 net.cpp:148] Top shape: 24 38 (912)
I0403 14:30:34.351444 13352 net.cpp:156] Memory required for data: 1346079072
I0403 14:30:34.351459 13352 layer_factory.hpp:77] Creating layer loss1/loss
I0403 14:30:34.351480 13352 net.cpp:91] Creating Layer loss1/loss
I0403 14:30:34.351496 13352 net.cpp:425] loss1/loss <- loss1/classifier_plantvillage_loss1/classifier_plantvillage_0_split_0
I0403 14:30:34.351526 13352 net.cpp:425] loss1/loss <- label_data_1_split_0
…
