…
I0403 14:47:03.877804 13630 net.cpp:313] The NetState phase (1) differed from the phase (0) specified by a rule in layer data
I0403 14:47:03.878926 13630 net.cpp:49] Initializing net from parameters: 
state {
  phase: TEST
}
layer {
  name: "data"
  type: "Data"
  top: "data"
  top: "label"
  include {
    phase: TEST
  }
  transform_param {
    mirror: false
    crop_size: 224
    mean_file: "/home/mohanty/data/final_dataset/lmdb/color-40-60/mean.binaryproto"
  }
  data_param {
    source: "/home/mohanty/data/final_dataset/lmdb/color-40-60/test_db"
    batch_size: 24
    backend: LMDB
  }
}
layer {
  name: "conv1/7x7_s2"
  type: "Convolution"
  bottom: "data"
  top: "conv1/7x7_s2"
  param {
    lr_mult: 1
    decay_mult: 1
  }
  param {
    lr_mult: 2
    decay_mult: 0
  }
  convolution_param {
    num_output: 64
    pad: 3
    kernel_size: 7
    stride: 2
    weight_filler {
      type: "xavier"
      std: 0.1
    }
    bias_filler {
      type: "constant"
      value: 0.2
    }
  }
}
layer {
  name: "conv1/relu_7x7"
  type: "ReLU"
  bottom: "conv1/7x7_s2"
  top: "conv1/7x7_s2"
}
layer {
  name: "pool1/3x3_s2"
  type: "Pooling"
  bottom: "conv1/7x7_s2"
  top: "pool1/3x3_s2"
  pooling_param {
    pool: MAX
    kernel_size: 3
    stride: 2
  }
}
layer {
  name: "pool1/norm1"
  type: "LRN"
  bottom: "pool1/3x3_s2"
  top: "pool1/norm1"
  lrn_param {
    local_size: 5
    alpha: 0.0001
    beta: 0.75
  }
}
layer {
  name: "conv2/3x3_reduce"
  type: "Convolution"
  bottom: "pool1/norm1"
  top: "conv2/3x3_reduce"
  param {
    lr_mult: 1
    decay_mult: 1
  }
  param {
    lr_mult: 2
    decay_mult: 0
  }
  convolution_param {
    num_output: 64
    kernel_size: 1
    weight_filler {
      type: "xavier"
      std: 0.1
    }
    bias_filler {
      type: "constant"
      value: 0.2
    }
  }
}
layer {
  name: "conv2/relu_3x3_reduce"
  type: "ReLU"
  bottom: "conv2/3x3_reduce"
  top: "conv2/3x3_reduce"
}
layer {
  name: "conv2/3x3"
  type: "Convolution"
  bottom: "conv2/3x3_reduce"
  top: "conv2/3x3"
  param {
    lr_mult: 1
    decay_mult: 1
  }
  param {
    lr_mult: 2
    decay_mult: 0
  }
  convolution_param {
    num_output: 192
    pad: 1
    kernel_size: 3
    weight_filler {
      type: "xavier"
      std: 0.03
    }
    bias_filler {
      type: "constant"
      value: 0.2
    }
  }
}
layer {
  name: "conv2/relu_3x3"
  type: "ReLU"
  bottom: "conv2/3x3"
  top: "conv2/3x3"
}
layer {
  name: "conv2/norm2"
  type: "LRN"
  bottom: "conv2/3x3"
  top: "conv2/norm2"
  lrn_param {
    local_size: 5
    alpha: 0.0001
    beta: 0.75
  }
}
layer {
  name: "pool2/3x3_s2"
  type: "Pooling"
  bottom: "conv2/norm2"
  top: "pool2/3x3_s2"
  pooling_param {
    pool: MAX
    kernel_size: 3
    stride: 2
  }
}
layer {
  name: "inception_3a/1x1"
  type: "Convolution"
  bottom: "pool2/3x3_s2"
  top: "inception_3a/1x1"
  param {
    lr_mult: 1
    decay_mult: 1
  }
  param {
    lr_mult: 2
    decay_mult: 0
  }
  convolution_param {
    num_output: 64
    kernel_size: 1
    weight_filler {
      type: "xavier"
      std: 0.03
    }
    bias_filler {
      type: "constant"
      value: 0.2
    }
  }
}
layer {
  name: "inception_3a/relu_1x1"
  type: "ReLU"
  bottom: "inception_3a/1x1"
  top: "inception_3a/1x1"
}
layer {
  name: "inception_3a/3x3_reduce"
  type: "Convolution"
  bottom: "pool2/3x3_s2"
  top: "inception_3a/3x3_reduce"
  param {
    lr_mult: 1
    decay_mult: 1
  }
  param {
    lr_mult: 2
    decay_mult: 0
  }
  convolution_param {
    num_output: 96
    kernel_size: 1
    weight_filler {
      type: "xavier"
      std: 0.09
    }
    bias_filler {
      type: "constant"
      value: 0.2
    }
  }
}
layer {
  name: "inception_3a/relu_3x3_reduce"
  type: "ReLU"
  bottom: "inception_3a/3x3_reduce"
  top: "inception_3a/3x3_reduce"
}
layer {
  name: "inception_3a/3x3"
  type: "Convolution"
  bottom: "inception_3a/3x3_reduce"
  top: "inception_3a/3x3"
  param {
    lr_mult: 1
    decay_mult: 1
  }
  param {
    lr_mult: 2
    decay_mult: 0
  }
  convolution_param {
    num_output: 128
    pad: 1
    kernel_size: 3
    weight_filler {
      type: "xavier"
      std: 0.03
    }
    bias_filler {
      type: "constant"
      value: 0.2
    }
  }
}
layer {
  name: "inception_3a/relu_3x3"
  type: "ReLU"
  bottom: "inception_3a/3x3"
  top: "inception_3a/3x3"
}
layer {
  name: "inception_3a/5x5_reduce"
  type: "Convolution"
  bottom: "pool2/3x3_s2"
  top: "inception_3a/5x5_reduce"
  param {
    lr_mult: 1
    decay_mult: 1
  }
  param {
    lr_mult: 2
    decay_mult: 0
  }
  convolution_param {
    num_output: 16
    kernel_size: 1
    weight_filler {
      type: "xavier"
      std: 0.2
    }
    bias_filler {
      type: "constant"
      value: 0.2
    }
  }
}
layer {
  name: "inception_3a/relu_5x5_reduce"
  type: "ReLU"
  bottom: "inception_3a/5x5_reduce"
  top: "inception_3a/5x5_reduce"
}
layer {
  name: "inception_3a/5x5"
  type: "Convolution"
  bottom: "inception_3a/5x5_reduce"
  top: "inception_3a/5x5"
  param {
    lr_mult: 1
    decay_mult: 1
  }
  param {
    lr_mult: 2
    decay_mult: 0
  }
  convolution_param {
    num_output: 32
    pad: 2
    kernel_size: 5
    weight_filler {
      type: "xavier"
      std: 0.03
    }
    bias_filler {
      type: "constant"
      value: 0.2
    }
  }
}
layer {
  name: "inception_3a/relu_5x5"
  type: "ReLU"
  bottom: "inception_3a/5x5"
  top: "inception_3a/5x5"
}
layer {
  name: "inception_3a/pool"
  type: "Pooling"
  bottom: "pool2/3x3_s2"
  top: "inception_3a/pool"
  pooling_param {
    pool: MAX
    kernel_size: 3
    stride: 1
    pad: 1
  }
}
layer {
  name: "inception_3a/pool_proj"
  type: "Convolution"
  bottom: "inception_3a/pool"
  top: "inception_3a/pool_proj"
  param {
    lr_mult: 1
    decay_mult: 1
  }
  param {
    lr_mult: 2
    decay_mult: 0
  }
  convolution_param {
    num_output: 32
    kernel_size: 1
    weight_filler {
      type: "xavier"
      std: 0.1
    }
    bias_filler {
      type: "constant"
      value: 0.2
    }
  }
}
layer {
  name: "inception_3a/relu_pool_proj"
  type: "ReLU"
  bottom: "inception_3a/pool_proj"
  top: "inception_3a/pool_proj"
}
layer {
  name: "inception_3a/output"
  type: "Concat"
  bottom: "inception_3a/1x1"
  bottom: "inception_3a/3x3"
  bottom: "inception_3a/5x5"
  bottom: "inception_3a/pool_proj"
  top: "inception_3a/output"
}
layer {
  name: "inception_3b/1x1"
  type: "Convolution"
  bottom: "inception_3a/output"
  top: "inception_3b/1x1"
  param {
    lr_mult: 1
    decay_mult: 1
  }
  param {
    lr_mult: 2
    decay_mult: 0
  }
  convolution_param {
    num_output: 128
    kernel_size: 1
    weight_filler {
      type: "xavier"
      std: 0.03
    }
    bias_filler {
      type: "constant"
      value: 0.2
    }
  }
}
layer {
  name: "inception_3b/relu_1x1"
  type: "ReLU"
  bottom: "inception_3b/1x1"
  top: "inception_3b/1x1"
}
layer {
  name: "inception_3b/3x3_reduce"
  type: "Convolution"
  bottom: "inception_3a/output"
  top: "inception_3b/3x3_reduce"
  param {
    lr_mult: 1
    decay_mult: 1
  }
  param {
    lr_mult: 2
    decay_mult: 0
  }
  convolution_param {
    num_output: 128
    kernel_size: 1
    weight_filler {
      type: "xavier"
      std: 0.09
    }
    bias_filler {
      type: "constant"
      value: 0.2
    }
  }
}
layer {
  name: "inception_3b/relu_3x3_reduce"
  type: "ReLU"
  bottom: "inception_3b/3x3_reduce"
  top: "inception_3b/3x3_reduce"
}
layer {
  name: "inception_3b/3x3"
  type: "Convolution"
  bottom: "inception_3b/3x3_reduce"
  top: "inception_3b/3x3"
  param {
    lr_mult: 1
    decay_mult: 1
  }
  param {
    lr_mult: 2
    decay_mult: 0
  }
  convolution_param {
    num_output: 192
    pad: 1
    kernel_size: 3
    weight_filler {
      type: "xavier"
      std: 0.03
    }
    bias_filler {
      type: "constant"
      value: 0.2
    }
  }
}
layer {
  name: "inception_3b/relu_3x3"
  type: "ReLU"
  bottom: "inception_3b/3x3"
  top: "inception_3b/3x3"
}
layer {
  name: "inception_3b/5x5_reduce"
  type: "Convolution"
  bottom: "inception_3a/output"
  top: "inception_3b/5x5_reduce"
  param {
    lr_mult: 1
    decay_mult: 1
  }
  param {
    lr_mult: 2
    decay_mult: 0
  }
  convolution_param {
    num_output: 32
    kernel_size: 1
    weight_filler {
      type: "xavier"
      std: 0.2
    }
    bias_filler {
      type: "constant"
      value: 0.2
    }
  }
}
layer {
  name: "inception_3b/relu_5x5_reduce"
  type: "ReLU"
  bottom: "inception_3b/5x5_reduce"
  top: "inception_3b/5x5_reduce"
}
layer {
  name: "inception_3b/5x5"
  type: "Convolution"
  bottom: "inception_3b/5x5_reduce"
  top: "inception_3b/5x5"
  param {
    lr_mult: 1
    decay_mult: 1
  }
  param {
    lr_mult: 2
    decay_mult: 0
  }
  convolution_param {
    num_output: 96
    pad: 2
    kernel_size: 5
    weight_filler {
      type: "xavier"
      std: 0.03
    }
    bias_filler {
      type: "constant"
      value: 0.2
    }
  }
}
layer {
  name: "inception_3b/relu_5x5"
  type: "ReLU"
  bottom: "inception_3b/5x5"
  top: "inception_3b/5x5"
}
layer {
  name: "inception_3b/pool"
  type: "Pooling"
  bottom: "inception_3a/output"
  top: "inception_3b/pool"
  pooling_param {
    pool: MAX
    kernel_size: 3
    stride: 1
    pad: 1
  }
}
layer {
  name: "inception_3b/pool_proj"
  type: "Convolution"
  bottom: "inception_3b/pool"
  top: "inception_3b/pool_proj"
  param {
    lr_mult: 1
    decay_mult: 1
  }
  param {
    lr_mult: 2
    decay_mult: 0
  }
  convolution_param {
    num_output: 64
    kernel_size: 1
    weight_filler {
      type: "xavier"
      std: 0.1
    }
    bias_filler {
      type: "constant"
      value: 0.2
    }
  }
}
layer {
  name: "inception_3b/relu_pool_proj"
  type: "ReLU"
  bottom: "inception_3b/pool_proj"
  top: "inception_3b/pool_proj"
}
layer {
  name: "inception_3b/output"
  type: "Concat"
  bottom: "inception_3b/1x1"
  bottom: "inception_3b/3x3"
  bottom: "inception_3b/5x5"
  bottom: "inception_3b/pool_proj"
  top: "inception_3b/output"
}
layer {
  name: "pool3/3x3_s2"
  type: "Pooling"
  bottom: "inception_3b/output"
  top: "pool3/3x3_s2"
  pooling_param {
    pool: MAX
    kernel_size: 3
    stride: 2
  }
}
layer {
  name: "inception_4a/1x1"
  type: "Convolution"
  bottom: "pool3/3x3_s2"
  top: "inception_4a/1x1"
  param {
    lr_mult: 1
    decay_mult: 1
  }
  param {
    lr_mult: 2
    decay_mult: 0
  }
  convolution_param {
    num_output: 192
    kernel_size: 1
    weight_filler {
      type: "xavier"
      std: 0.03
    }
    bias_filler {
      type: "constant"
      value: 0.2
    }
  }
}
layer {
  name: "inception_4a/relu_1x1"
  type: "ReLU"
  bottom: "inception_4a/1x1"
  top: "inception_4a/1x1"
}
layer {
  name: "inception_4a/3x3_reduce"
  type: "Convolution"
  bottom: "pool3/3x3_s2"
  top: "inception_4a/3x3_reduce"
  param {
    lr_mult: 1
    decay_mult: 1
  }
  param {
    lr_mult: 2
    decay_mult: 0
  }
  convolution_param {
    num_output: 96
    kernel_size: 1
    weight_filler {
      type: "xavier"
      std: 0.09
    }
    bias_filler {
      type: "constant"
      value: 0.2
    }
  }
}
layer {
  name: "inception_4a/relu_3x3_reduce"
  type: "ReLU"
  bottom: "inception_4a/3x3_reduce"
  top: "inception_4a/3x3_reduce"
}
layer {
  name: "inception_4a/3x3"
  type: "Convolution"
  bottom: "inception_4a/3x3_reduce"
  top: "inception_4a/3x3"
  param {
    lr_mult: 1
    decay_mult: 1
  }
  param {
    lr_mult: 2
    decay_mult: 0
  }
  convolution_param {
    num_output: 208
    pad: 1
    kernel_size: 3
    weight_filler {
      type: "xavier"
      std: 0.03
    }
    bias_filler {
      type: "constant"
      value: 0.2
    }
  }
}
layer {
  name: "inception_4a/relu_3x3"
  type: "ReLU"
  bottom: "inception_4a/3x3"
  top: "inception_4a/3x3"
}
layer {
  name: "inception_4a/5x5_reduce"
  type: "Convolution"
  bottom: "pool3/3x3_s2"
  top: "inception_4a/5x5_reduce"
  param {
    lr_mult: 1
    decay_mult: 1
  }
  param {
    lr_mult: 2
    decay_mult: 0
  }
  convolution_param {
    num_output: 16
    kernel_size: 1
    weight_filler {
      type: "xavier"
      std: 0.2
    }
    bias_filler {
      type: "constant"
      value: 0.2
    }
  }
}
layer {
  name: "inception_4a/relu_5x5_reduce"
  type: "ReLU"
  bottom: "inception_4a/5x5_reduce"
  top: "inception_4a/5x5_reduce"
}
layer {
  name: "inception_4a/5x5"
  type: "Convolution"
  bottom: "inception_4a/5x5_reduce"
  top: "inception_4a/5x5"
  param {
    lr_mult: 1
    decay_mult: 1
  }
  param {
    lr_mult: 2
    decay_mult: 0
  }
  convolution_param {
    num_output: 48
    pad: 2
    kernel_size: 5
    weight_filler {
      type: "xavier"
      std: 0.03
    }
    bias_filler {
      type: "constant"
      value: 0.2
    }
  }
}
layer {
  name: "inception_4a/relu_5x5"
  type: "ReLU"
  bottom: "inception_4a/5x5"
  top: "inception_4a/5x5"
}
layer {
  name: "inception_4a/pool"
  type: "Pooling"
  bottom: "pool3/3x3_s2"
  top: "inception_4a/pool"
  pooling_param {
    pool: MAX
    kernel_size: 3
    stride: 1
    pad: 1
  }
}
layer {
  name: "inception_4a/pool_proj"
  type: "Convolution"
  bottom: "inception_4a/pool"
  top: "inception_4a/pool_proj"
  param {
    lr_mult: 1
    decay_mult: 1
  }
  param {
    lr_mult: 2
    decay_mult: 0
  }
  convolution_param {
    num_output: 64
    kernel_size: 1
    weight_filler {
      type: "xavier"
      std: 0.1
    }
    bias_filler {
      type: "constant"
      value: 0.2
    }
  }
}
layer {
  name: "inception_4a/relu_pool_proj"
  type: "ReLU"
  bottom: "inception_4a/pool_proj"
  top: "inception_4a/pool_proj"
}
layer {
  name: "inception_4a/output"
  type: "Concat"
  bottom: "inception_4a/1x1"
  bottom: "inception_4a/3x3"
  bottom: "inception_4a/5x5"
  bottom: "inception_4a/pool_proj"
  top: "inception_4a/output"
}
layer {
  name: "loss1/ave_pool"
  type: "Pooling"
  bottom: "inception_4a/output"
  top: "loss1/ave_pool"
  pooling_param {
    pool: AVE
    kernel_size: 5
    stride: 3
  }
}
layer {
  name: "loss1/conv"
  type: "Convolution"
  bottom: "loss1/ave_pool"
  top: "loss1/conv"
  param {
    lr_mult: 1
    decay_mult: 1
  }
  param {
    lr_mult: 2
    decay_mult: 0
  }
  convolution_param {
    num_output: 128
    kernel_size: 1
    weight_filler {
      type: "xavier"
      std: 0.08
    }
    bias_filler {
      type: "constant"
      value: 0.2
    }
  }
}
layer {
  name: "loss1/relu_conv"
  type: "ReLU"
  bottom: "loss1/conv"
  top: "loss1/conv"
}
layer {
  name: "loss1/fc"
  type: "InnerProduct"
  bottom: "loss1/conv"
  top: "loss1/fc"
  param {
    lr_mult: 1
    decay_mult: 1
  }
  param {
    lr_mult: 2
    decay_mult: 0
  }
  inner_product_param {
    num_output: 1024
    weight_filler {
      type: "xavier"
      std: 0.02
    }
    bias_filler {
      type: "constant"
      value: 0.2
    }
  }
}
layer {
  name: "loss1/relu_fc"
  type: "ReLU"
  bottom: "loss1/fc"
  top: "loss1/fc"
}
layer {
  name: "loss1/drop_fc"
  type: "Dropout"
  bottom: "loss1/fc"
  top: "loss1/fc"
  dropout_param {
    dropout_ratio: 0.7
  }
}
layer {
  name: "loss1/classifier_plantvillage"
  type: "InnerProduct"
  bottom: "loss1/fc"
  top: "loss1/classifier_plantvillage"
  param {
    lr_mult: 1
    decay_mult: 1
  }
  param {
    lr_mult: 2
    decay_mult: 0
  }
  inner_product_param {
    num_output: 38
    weight_filler {
      type: "xavier"
      std: 0.0009765625
    }
    bias_filler {
      type: "constant"
      value: 0
    }
  }
}
layer {
  name: "inception_4b/1x1"
  type: "Convolution"
  bottom: "inception_4a/output"
  top: "inception_4b/1x1"
  param {
    lr_mult: 1
    decay_mult: 1
  }
  param {
    lr_mult: 2
    decay_mult: 0
  }
  convolution_param {
    num_output: 160
    kernel_size: 1
    weight_filler {
      type: "xavier"
      std: 0.03
    }
    bias_filler {
      type: "constant"
      value: 0.2
    }
  }
}
layer {
  name: "inception_4b/relu_1x1"
  type: "ReLU"
  bottom: "inception_4b/1x1"
  top: "inception_4b/1x1"
}
layer {
  name: "inception_4b/3x3_reduce"
  type: "Convolution"
  bottom: "inception_4a/output"
  top: "inception_4b/3x3_reduce"
  param {
    lr_mult: 1
    decay_mult: 1
  }
  param {
    lr_mult: 2
    decay_mult: 0
  }
  convolution_param {
    num_output: 112
    kernel_size: 1
    weight_filler {
      type: "xavier"
      std: 0.09
    }
    bias_filler {
      type: "constant"
      value: 0.2
    }
  }
}
layer {
  name: "inception_4b/relu_3x3_reduce"
  type: "ReLU"
  bottom: "inception_4b/3x3_reduce"
  top: "inception_4b/3x3_reduce"
}
layer {
  name: "inception_4b/3x3"
  type: "Convolution"
  bottom: "inception_4b/3x3_reduce"
  top: "inception_4b/3x3"
  param {
    lr_mult: 1
    decay_mult: 1
  }
  param {
    lr_mult: 2
    decay_mult: 0
  }
  convolution_param {
    num_output: 224
    pad: 1
    kernel_size: 3
    weight_filler {
      type: "xavier"
      std: 0.03
    }
    bias_filler {
      type: "constant"
      value: 0.2
    }
  }
}
layer {
  name: "inception_4b/relu_3x3"
  type: "ReLU"
  bottom: "inception_4b/3x3"
  top: "inception_4b/3x3"
}
layer {
  name: "inception_4b/5x5_reduce"
  type: "Convolution"
  bottom: "inception_4a/output"
  top: "inception_4b/5x5_reduce"
  param {
    lr_mult: 1
    decay_mult: 1
  }
  param {
    lr_mult: 2
    decay_mult: 0
  }
  convolution_param {
    num_output: 24
    kernel_size: 1
    weight_filler {
      type: "xavier"
      std: 0.2
    }
    bias_filler {
      type: "constant"
      value: 0.2
    }
  }
}
layer {
  name: "inception_4b/relu_5x5_reduce"
  type: "ReLU"
  bottom: "inception_4b/5x5_reduce"
  top: "inception_4b/5x5_reduce"
}
layer {
  name: "inception_4b/5x5"
  type: "Convolution"
  bottom: "inception_4b/5x5_reduce"
  top: "inception_4b/5x5"
  param {
    lr_mult: 1
    decay_mult: 1
  }
  param {
    lr_mult: 2
    decay_mult: 0
  }
  convolution_param {
    num_output: 64
    pad: 2
    kernel_size: 5
    weight_filler {
      type: "xavier"
      std: 0.03
    }
    bias_filler {
      type: "constant"
      value: 0.2
    }
  }
}
layer {
  name: "inception_4b/relu_5x5"
  type: "ReLU"
  bottom: "inception_4b/5x5"
  top: "inception_4b/5x5"
}
layer {
  name: "inception_4b/pool"
  type: "Pooling"
  bottom: "inception_4a/output"
  top: "inception_4b/pool"
  pooling_param {
    pool: MAX
    kernel_size: 3
    stride: 1
    pad: 1
  }
}
layer {
  name: "inception_4b/pool_proj"
  type: "Convolution"
  bottom: "inception_4b/pool"
  top: "inception_4b/pool_proj"
  param {
    lr_mult: 1
    decay_mult: 1
  }
  param {
    lr_mult: 2
    decay_mult: 0
  }
  convolution_param {
    num_output: 64
    kernel_size: 1
    weight_filler {
      type: "xavier"
      std: 0.1
    }
    bias_filler {
      type: "constant"
      value: 0.2
    }
  }
}
layer {
  name: "inception_4b/relu_pool_proj"
  type: "ReLU"
  bottom: "inception_4b/pool_proj"
  top: "inception_4b/pool_proj"
}
layer {
  name: "inception_4b/output"
  type: "Concat"
  bottom: "inception_4b/1x1"
  bottom: "inception_4b/3x3"
  bottom: "inception_4b/5x5"
  bottom: "inception_4b/pool_proj"
  top: "inception_4b/output"
}
layer {
  name: "inception_4c/1x1"
  type: "Convolution"
  bottom: "inception_4b/output"
  top: "inception_4c/1x1"
  param {
    lr_mult: 1
    decay_mult: 1
  }
  param {
    lr_mult: 2
    decay_mult: 0
  }
  convolution_param {
    num_output: 128
    kernel_size: 1
    weight_filler {
      type: "xavier"
      std: 0.03
    }
    bias_filler {
      type: "constant"
      value: 0.2
    }
  }
}
layer {
  name: "inception_4c/relu_1x1"
  type: "ReLU"
  bottom: "inception_4c/1x1"
  top: "inception_4c/1x1"
}
layer {
  name: "inception_4c/3x3_reduce"
  type: "Convolution"
  bottom: "inception_4b/output"
  top: "inception_4c/3x3_reduce"
  param {
    lr_mult: 1
    decay_mult: 1
  }
  param {
    lr_mult: 2
    decay_mult: 0
  }
  convolution_param {
    num_output: 128
    kernel_size: 1
    weight_filler {
      type: "xavier"
      std: 0.09
    }
    bias_filler {
      type: "constant"
      value: 0.2
    }
  }
}
layer {
  name: "inception_4c/relu_3x3_reduce"
  type: "ReLU"
  bottom: "inception_4c/3x3_reduce"
  top: "inception_4c/3x3_reduce"
}
layer {
  name: "inception_4c/3x3"
  type: "Convolution"
  bottom: "inception_4c/3x3_reduce"
  top: "inception_4c/3x3"
  param {
    lr_mult: 1
    decay_mult: 1
  }
  param {
    lr_mult: 2
    decay_mult: 0
  }
  convolution_param {
    num_output: 256
    pad: 1
    kernel_size: 3
    weight_filler {
      type: "xavier"
      std: 0.03
    }
    bias_filler {
      type: "constant"
      value: 0.2
    }
  }
}
layer {
  name: "inception_4c/relu_3x3"
  type: "ReLU"
  bottom: "inception_4c/3x3"
  top: "inception_4c/3x3"
}
layer {
  name: "inception_4c/5x5_reduce"
  type: "Convolution"
  bottom: "inception_4b/output"
  top: "inception_4c/5x5_reduce"
  param {
    lr_mult: 1
    decay_mult: 1
  }
  param {
    lr_mult: 2
    decay_mult: 0
  }
  convolution_param {
    num_output: 24
    kernel_size: 1
    weight_filler {
      type: "xavier"
      std: 0.2
    }
    bias_filler {
      type: "constant"
      value: 0.2
    }
  }
}
layer {
  name: "inception_4c/relu_5x5_reduce"
  type: "ReLU"
  bottom: "inception_4c/5x5_reduce"
  top: "inception_4c/5x5_reduce"
}
layer {
  name: "inception_4c/5x5"
  type: "Convolution"
  bottom: "inception_4c/5x5_reduce"
  top: "inception_4c/5x5"
  param {
    lr_mult: 1
    decay_mult: 1
  }
  param {
    lr_mult: 2
    decay_mult: 0
  }
  convolution_param {
    num_output: 64
    pad: 2
    kernel_size: 5
    weight_filler {
      type: "xavier"
      std: 0.03
    }
    bias_filler {
      type: "constant"
      value: 0.2
    }
  }
}
layer {
  name: "inception_4c/relu_5x5"
  type: "ReLU"
  bottom: "inception_4c/5x5"
  top: "inception_4c/5x5"
}
layer {
  name: "inception_4c/pool"
  type: "Pooling"
  bottom: "inception_4b/output"
  top: "inception_4c/pool"
  pooling_param {
    pool: MAX
    kernel_size: 3
    stride: 1
    pad: 1
  }
}
layer {
  name: "inception_4c/pool_proj"
  type: "Convolution"
  bottom: "inception_4c/pool"
  top: "inception_4c/pool_proj"
  param {
    lr_mult: 1
    decay_mult: 1
  }
  param {
    lr_mult: 2
    decay_mult: 0
  }
  convolution_param {
    num_output: 64
    kernel_size: 1
    weight_filler {
      type: "xavier"
      std: 0.1
    }
    bias_filler {
      type: "constant"
      value: 0.2
    }
  }
}
layer {
  name: "inception_4c/relu_pool_proj"
  type: "ReLU"
  bottom: "inception_4c/pool_proj"
  top: "inception_4c/pool_proj"
}
layer {
  name: "inception_4c/output"
  type: "Concat"
  bottom: "inception_4c/1x1"
  bottom: "inception_4c/3x3"
  bottom: "inception_4c/5x5"
  bottom: "inception_4c/pool_proj"
  top: "inception_4c/output"
}
layer {
  name: "inception_4d/1x1"
  type: "Convolution"
  bottom: "inception_4c/output"
  top: "inception_4d/1x1"
  param {
    lr_mult: 1
    decay_mult: 1
  }
  param {
    lr_mult: 2
    decay_mult: 0
  }
  convolution_param {
    num_output: 112
    kernel_size: 1
    weight_filler {
      type: "xavier"
      std: 0.03
    }
    bias_filler {
      type: "constant"
      value: 0.2
    }
  }
}
layer {
  name: "inception_4d/relu_1x1"
  type: "ReLU"
  bottom: "inception_4d/1x1"
  top: "inception_4d/1x1"
}
layer {
  name: "inception_4d/3x3_reduce"
  type: "Convolution"
  bottom: "inception_4c/output"
  top: "inception_4d/3x3_reduce"
  param {
    lr_mult: 1
    decay_mult: 1
  }
  param {
    lr_mult: 2
    decay_mult: 0
  }
  convolution_param {
    num_output: 144
    kernel_size: 1
    weight_filler {
      type: "xavier"
      std: 0.09
    }
    bias_filler {
      type: "constant"
      value: 0.2
    }
  }
}
layer {
  name: "inception_4d/relu_3x3_reduce"
  type: "ReLU"
  bottom: "inception_4d/3x3_reduce"
  top: "inception_4d/3x3_reduce"
}
layer {
  name: "inception_4d/3x3"
  type: "Convolution"
  bottom: "inception_4d/3x3_reduce"
  top: "inception_4d/3x3"
  param {
    lr_mult: 1
    decay_mult: 1
  }
  param {
    lr_mult: 2
    decay_mult: 0
  }
  convolution_param {
    num_output: 288
    pad: 1
    kernel_size: 3
    weight_filler {
      type: "xavier"
      std: 0.03
    }
    bias_filler {
      type: "constant"
      value: 0.2
    }
  }
}
layer {
  name: "inception_4d/relu_3x3"
  type: "ReLU"
  bottom: "inception_4d/3x3"
  top: "inception_4d/3x3"
}
layer {
  name: "inception_4d/5x5_reduce"
  type: "Convolution"
  bottom: "inception_4c/output"
  top: "inception_4d/5x5_reduce"
  param {
    lr_mult: 1
    decay_mult: 1
  }
  param {
    lr_mult: 2
    decay_mult: 0
  }
  convolution_param {
    num_output: 32
    kernel_size: 1
    weight_filler {
      type: "xavier"
      std: 0.2
    }
    bias_filler {
      type: "constant"
      value: 0.2
    }
  }
}
layer {
  name: "inception_4d/relu_5x5_reduce"
  type: "ReLU"
  bottom: "inception_4d/5x5_reduce"
  top: "inception_4d/5x5_reduce"
}
layer {
  name: "inception_4d/5x5"
  type: "Convolution"
  bottom: "inception_4d/5x5_reduce"
  top: "inception_4d/5x5"
  param {
    lr_mult: 1
    decay_mult: 1
  }
  param {
    lr_mult: 2
    decay_mult: 0
  }
  convolution_param {
    num_output: 64
    pad: 2
    kernel_size: 5
    weight_filler {
      type: "xavier"
      std: 0.03
    }
    bias_filler {
      type: "constant"
      value: 0.2
    }
  }
}
layer {
  name: "inception_4d/relu_5x5"
  type: "ReLU"
  bottom: "inception_4d/5x5"
  top: "inception_4d/5x5"
}
layer {
  name: "inception_4d/pool"
  type: "Pooling"
  bottom: "inception_4c/output"
  top: "inception_4d/pool"
  pooling_param {
    pool: MAX
    kernel_size: 3
    stride: 1
    pad: 1
  }
}
layer {
  name: "inception_4d/pool_proj"
  type: "Convolution"
  bottom: "inception_4d/pool"
  top: "inception_4d/pool_proj"
  param {
    lr_mult: 1
    decay_mult: 1
  }
  param {
    lr_mult: 2
    decay_mult: 0
  }
  convolution_param {
    num_output: 64
    kernel_size: 1
    weight_filler {
      type: "xavier"
      std: 0.1
    }
    bias_filler {
      type: "constant"
      value: 0.2
    }
  }
}
layer {
  name: "inception_4d/relu_pool_proj"
  type: "ReLU"
  bottom: "inception_4d/pool_proj"
  top: "inception_4d/pool_proj"
}
layer {
  name: "inception_4d/output"
  type: "Concat"
  bottom: "inception_4d/1x1"
  bottom: "inception_4d/3x3"
  bottom: "inception_4d/5x5"
  bottom: "inception_4d/pool_proj"
  top: "inception_4d/output"
}
layer {
  name: "loss2/ave_pool"
  type: "Pooling"
  bottom: "inception_4d/output"
  top: "loss2/ave_pool"
  pooling_param {
    pool: AVE
    kernel_size: 5
    stride: 3
  }
}
layer {
  name: "loss2/conv"
  type: "Convolution"
  bottom: "loss2/ave_pool"
  top: "loss2/conv"
  param {
    lr_mult: 1
    decay_mult: 1
  }
  param {
    lr_mult: 2
    decay_mult: 0
  }
  convolution_param {
    num_output: 128
    kernel_size: 1
    weight_filler {
      type: "xavier"
      std: 0.08
    }
    bias_filler {
      type: "constant"
      value: 0.2
    }
  }
}
layer {
  name: "loss2/relu_conv"
  type: "ReLU"
  bottom: "loss2/conv"
  top: "loss2/conv"
}
layer {
  name: "loss2/fc"
  type: "InnerProduct"
  bottom: "loss2/conv"
  top: "loss2/fc"
  param {
    lr_mult: 1
    decay_mult: 1
  }
  param {
    lr_mult: 2
    decay_mult: 0
  }
  inner_product_param {
    num_output: 1024
    weight_filler {
      type: "xavier"
      std: 0.02
    }
    bias_filler {
      type: "constant"
      value: 0.2
    }
  }
}
layer {
  name: "loss2/relu_fc"
  type: "ReLU"
  bottom: "loss2/fc"
  top: "loss2/fc"
}
layer {
  name: "loss2/drop_fc"
  type: "Dropout"
  bottom: "loss2/fc"
  top: "loss2/fc"
  dropout_param {
    dropout_ratio: 0.7
  }
}
layer {
  name: "loss2/classifier_plantvillage"
  type: "InnerProduct"
  bottom: "loss2/fc"
  top: "loss2/classifier_plantvillage"
  param {
    lr_mult: 1
    decay_mult: 1
  }
  param {
    lr_mult: 2
    decay_mult: 0
  }
  inner_product_param {
    num_output: 38
    weight_filler {
      type: "xavier"
      std: 0.0009765625
    }
    bias_filler {
      type: "constant"
      value: 0
    }
  }
}
layer {
  name: "inception_4e/1x1"
  type: "Convolution"
  bottom: "inception_4d/output"
  top: "inception_4e/1x1"
  param {
    lr_mult: 1
    decay_mult: 1
  }
  param {
    lr_mult: 2
    decay_mult: 0
  }
  convolution_param {
    num_output: 256
    kernel_size: 1
    weight_filler {
      type: "xavier"
      std: 0.03
    }
    bias_filler {
      type: "constant"
      value: 0.2
    }
  }
}
layer {
  name: "inception_4e/relu_1x1"
  type: "ReLU"
  bottom: "inception_4e/1x1"
  top: "inception_4e/1x1"
}
layer {
  name: "inception_4e/3x3_reduce"
  type: "Convolution"
  bottom: "inception_4d/output"
  top: "inception_4e/3x3_reduce"
  param {
    lr_mult: 1
    decay_mult: 1
  }
  param {
    lr_mult: 2
    decay_mult: 0
  }
  convolution_param {
    num_output: 160
    kernel_size: 1
    weight_filler {
      type: "xavier"
      std: 0.09
    }
    bias_filler {
      type: "constant"
      value: 0.2
    }
  }
}
layer {
  name: "inception_4e/relu_3x3_reduce"
  type: "ReLU"
  bottom: "inception_4e/3x3_reduce"
  top: "inception_4e/3x3_reduce"
}
layer {
  name: "inception_4e/3x3"
  type: "Convolution"
  bottom: "inception_4e/3x3_reduce"
  top: "inception_4e/3x3"
  param {
    lr_mult: 1
    decay_mult: 1
  }
  param {
    lr_mult: 2
    decay_mult: 0
  }
  convolution_param {
    num_output: 320
    pad: 1
    kernel_size: 3
    weight_filler {
      type: "xavier"
      std: 0.03
    }
    bias_filler {
      type: "constant"
      value: 0.2
    }
  }
}
layer {
  name: "inception_4e/relu_3x3"
  type: "ReLU"
  bottom: "inception_4e/3x3"
  top: "inception_4e/3x3"
}
layer {
  name: "inception_4e/5x5_reduce"
  type: "Convolution"
  bottom: "inception_4d/output"
  top: "inception_4e/5x5_reduce"
  param {
    lr_mult: 1
    decay_mult: 1
  }
  param {
    lr_mult: 2
    decay_mult: 0
  }
  convolution_param {
    num_output: 32
    kernel_size: 1
    weight_filler {
      type: "xavier"
      std: 0.2
    }
    bias_filler {
      type: "constant"
      value: 0.2
    }
  }
}
layer {
  name: "inception_4e/relu_5x5_reduce"
  type: "ReLU"
  bottom: "inception_4e/5x5_reduce"
  top: "inception_4e/5x5_reduce"
}
layer {
  name: "inception_4e/5x5"
  type: "Convolution"
  bottom: "inception_4e/5x5_reduce"
  top: "inception_4e/5x5"
  p
I0403 14:47:03.880094 13630 layer_factory.hpp:77] Creating layer data
I0403 14:47:03.880722 13630 net.cpp:91] Creating Layer data
I0403 14:47:03.880753 13630 net.cpp:399] data -> data
I0403 14:47:03.880802 13630 net.cpp:399] data -> label
I0403 14:47:03.880836 13630 data_transformer.cpp:25] Loading mean file from: /home/mohanty/data/final_dataset/lmdb/color-40-60/mean.binaryproto
I0403 14:47:03.883656 13634 db_lmdb.cpp:38] Opened lmdb /home/mohanty/data/final_dataset/lmdb/color-40-60/test_db
I0403 14:47:03.893918 13630 data_layer.cpp:41] output data size: 24,3,224,224
I0403 14:47:03.920945 13630 net.cpp:141] Setting up data
I0403 14:47:03.921030 13630 net.cpp:148] Top shape: 24 3 224 224 (3612672)
I0403 14:47:03.921052 13630 net.cpp:148] Top shape: 24 (24)
I0403 14:47:03.921067 13630 net.cpp:156] Memory required for data: 14450784
I0403 14:47:03.921094 13630 layer_factory.hpp:77] Creating layer label_data_1_split
I0403 14:47:03.921121 13630 net.cpp:91] Creating Layer label_data_1_split
I0403 14:47:03.921139 13630 net.cpp:425] label_data_1_split <- label
I0403 14:47:03.921171 13630 net.cpp:399] label_data_1_split -> label_data_1_split_0
I0403 14:47:03.921198 13630 net.cpp:399] label_data_1_split -> label_data_1_split_1
I0403 14:47:03.921221 13630 net.cpp:399] label_data_1_split -> label_data_1_split_2
I0403 14:47:03.921241 13630 net.cpp:399] label_data_1_split -> label_data_1_split_3
I0403 14:47:03.921263 13630 net.cpp:399] label_data_1_split -> label_data_1_split_4
I0403 14:47:03.921284 13630 net.cpp:399] label_data_1_split -> label_data_1_split_5
I0403 14:47:03.921304 13630 net.cpp:399] label_data_1_split -> label_data_1_split_6
I0403 14:47:03.921325 13630 net.cpp:399] label_data_1_split -> label_data_1_split_7
I0403 14:47:03.921345 13630 net.cpp:399] label_data_1_split -> label_data_1_split_8
I0403 14:47:03.921365 13630 net.cpp:399] label_data_1_split -> label_data_1_split_9
I0403 14:47:03.921480 13630 net.cpp:141] Setting up label_data_1_split
I0403 14:47:03.921504 13630 net.cpp:148] Top shape: 24 (24)
I0403 14:47:03.921521 13630 net.cpp:148] Top shape: 24 (24)
I0403 14:47:03.921537 13630 net.cpp:148] Top shape: 24 (24)
I0403 14:47:03.921552 13630 net.cpp:148] Top shape: 24 (24)
I0403 14:47:03.921567 13630 net.cpp:148] Top shape: 24 (24)
I0403 14:47:03.921582 13630 net.cpp:148] Top shape: 24 (24)
I0403 14:47:03.921603 13630 net.cpp:148] Top shape: 24 (24)
I0403 14:47:03.921634 13630 net.cpp:148] Top shape: 24 (24)
I0403 14:47:03.921651 13630 net.cpp:148] Top shape: 24 (24)
I0403 14:47:03.921669 13630 net.cpp:148] Top shape: 24 (24)
I0403 14:47:03.921720 13630 net.cpp:156] Memory required for data: 14451744
I0403 14:47:03.921737 13630 layer_factory.hpp:77] Creating layer conv1/7x7_s2
I0403 14:47:03.921771 13630 net.cpp:91] Creating Layer conv1/7x7_s2
I0403 14:47:03.921789 13630 net.cpp:425] conv1/7x7_s2 <- data
I0403 14:47:03.921809 13630 net.cpp:399] conv1/7x7_s2 -> conv1/7x7_s2
I0403 14:47:04.059643 13630 net.cpp:141] Setting up conv1/7x7_s2
I0403 14:47:04.059720 13630 net.cpp:148] Top shape: 24 64 112 112 (19267584)
I0403 14:47:04.059737 13630 net.cpp:156] Memory required for data: 91522080
I0403 14:47:04.059767 13630 layer_factory.hpp:77] Creating layer conv1/relu_7x7
I0403 14:47:04.059794 13630 net.cpp:91] Creating Layer conv1/relu_7x7
I0403 14:47:04.059813 13630 net.cpp:425] conv1/relu_7x7 <- conv1/7x7_s2
I0403 14:47:04.059833 13630 net.cpp:386] conv1/relu_7x7 -> conv1/7x7_s2 (in-place)
I0403 14:47:04.060082 13630 net.cpp:141] Setting up conv1/relu_7x7
I0403 14:47:04.060111 13630 net.cpp:148] Top shape: 24 64 112 112 (19267584)
I0403 14:47:04.060125 13630 net.cpp:156] Memory required for data: 168592416
I0403 14:47:04.060139 13630 layer_factory.hpp:77] Creating layer pool1/3x3_s2
I0403 14:47:04.060163 13630 net.cpp:91] Creating Layer pool1/3x3_s2
I0403 14:47:04.060180 13630 net.cpp:425] pool1/3x3_s2 <- conv1/7x7_s2
I0403 14:47:04.060199 13630 net.cpp:399] pool1/3x3_s2 -> pool1/3x3_s2
I0403 14:47:04.060271 13630 net.cpp:141] Setting up pool1/3x3_s2
I0403 14:47:04.060295 13630 net.cpp:148] Top shape: 24 64 56 56 (4816896)
I0403 14:47:04.060312 13630 net.cpp:156] Memory required for data: 187860000
I0403 14:47:04.060325 13630 layer_factory.hpp:77] Creating layer pool1/norm1
I0403 14:47:04.060348 13630 net.cpp:91] Creating Layer pool1/norm1
I0403 14:47:04.060365 13630 net.cpp:425] pool1/norm1 <- pool1/3x3_s2
I0403 14:47:04.060384 13630 net.cpp:399] pool1/norm1 -> pool1/norm1
I0403 14:47:04.060672 13630 net.cpp:141] Setting up pool1/norm1
I0403 14:47:04.060699 13630 net.cpp:148] Top shape: 24 64 56 56 (4816896)
I0403 14:47:04.060714 13630 net.cpp:156] Memory required for data: 207127584
I0403 14:47:04.060729 13630 layer_factory.hpp:77] Creating layer conv2/3x3_reduce
I0403 14:47:04.060753 13630 net.cpp:91] Creating Layer conv2/3x3_reduce
I0403 14:47:04.060770 13630 net.cpp:425] conv2/3x3_reduce <- pool1/norm1
I0403 14:47:04.060788 13630 net.cpp:399] conv2/3x3_reduce -> conv2/3x3_reduce
I0403 14:47:04.062088 13630 net.cpp:141] Setting up conv2/3x3_reduce
I0403 14:47:04.062117 13630 net.cpp:148] Top shape: 24 64 56 56 (4816896)
I0403 14:47:04.062134 13630 net.cpp:156] Memory required for data: 226395168
I0403 14:47:04.062155 13630 layer_factory.hpp:77] Creating layer conv2/relu_3x3_reduce
I0403 14:47:04.062173 13630 net.cpp:91] Creating Layer conv2/relu_3x3_reduce
I0403 14:47:04.062189 13630 net.cpp:425] conv2/relu_3x3_reduce <- conv2/3x3_reduce
I0403 14:47:04.062206 13630 net.cpp:386] conv2/relu_3x3_reduce -> conv2/3x3_reduce (in-place)
I0403 14:47:04.062450 13630 net.cpp:141] Setting up conv2/relu_3x3_reduce
I0403 14:47:04.062477 13630 net.cpp:148] Top shape: 24 64 56 56 (4816896)
I0403 14:47:04.062492 13630 net.cpp:156] Memory required for data: 245662752
I0403 14:47:04.062507 13630 layer_factory.hpp:77] Creating layer conv2/3x3
I0403 14:47:04.062528 13630 net.cpp:91] Creating Layer conv2/3x3
I0403 14:47:04.062546 13630 net.cpp:425] conv2/3x3 <- conv2/3x3_reduce
I0403 14:47:04.062563 13630 net.cpp:399] conv2/3x3 -> conv2/3x3
I0403 14:47:04.064754 13630 net.cpp:141] Setting up conv2/3x3
I0403 14:47:04.064785 13630 net.cpp:148] Top shape: 24 192 56 56 (14450688)
I0403 14:47:04.064801 13630 net.cpp:156] Memory required for data: 303465504
I0403 14:47:04.064822 13630 layer_factory.hpp:77] Creating layer conv2/relu_3x3
I0403 14:47:04.064841 13630 net.cpp:91] Creating Layer conv2/relu_3x3
I0403 14:47:04.064858 13630 net.cpp:425] conv2/relu_3x3 <- conv2/3x3
I0403 14:47:04.064875 13630 net.cpp:386] conv2/relu_3x3 -> conv2/3x3 (in-place)
I0403 14:47:04.065058 13630 net.cpp:141] Setting up conv2/relu_3x3
I0403 14:47:04.065084 13630 net.cpp:148] Top shape: 24 192 56 56 (14450688)
I0403 14:47:04.065132 13630 net.cpp:156] Memory required for data: 361268256
I0403 14:47:04.065147 13630 layer_factory.hpp:77] Creating layer conv2/norm2
I0403 14:47:04.065166 13630 net.cpp:91] Creating Layer conv2/norm2
I0403 14:47:04.065182 13630 net.cpp:425] conv2/norm2 <- conv2/3x3
I0403 14:47:04.065201 13630 net.cpp:399] conv2/norm2 -> conv2/norm2
I0403 14:47:04.065482 13630 net.cpp:141] Setting up conv2/norm2
I0403 14:47:04.065510 13630 net.cpp:148] Top shape: 24 192 56 56 (14450688)
I0403 14:47:04.065524 13630 net.cpp:156] Memory required for data: 419071008
I0403 14:47:04.065541 13630 layer_factory.hpp:77] Creating layer pool2/3x3_s2
I0403 14:47:04.065558 13630 net.cpp:91] Creating Layer pool2/3x3_s2
I0403 14:47:04.065575 13630 net.cpp:425] pool2/3x3_s2 <- conv2/norm2
I0403 14:47:04.065593 13630 net.cpp:399] pool2/3x3_s2 -> pool2/3x3_s2
I0403 14:47:04.065646 13630 net.cpp:141] Setting up pool2/3x3_s2
I0403 14:47:04.065670 13630 net.cpp:148] Top shape: 24 192 28 28 (3612672)
I0403 14:47:04.065685 13630 net.cpp:156] Memory required for data: 433521696
I0403 14:47:04.065698 13630 layer_factory.hpp:77] Creating layer pool2/3x3_s2_pool2/3x3_s2_0_split
I0403 14:47:04.065716 13630 net.cpp:91] Creating Layer pool2/3x3_s2_pool2/3x3_s2_0_split
I0403 14:47:04.065732 13630 net.cpp:425] pool2/3x3_s2_pool2/3x3_s2_0_split <- pool2/3x3_s2
I0403 14:47:04.065748 13630 net.cpp:399] pool2/3x3_s2_pool2/3x3_s2_0_split -> pool2/3x3_s2_pool2/3x3_s2_0_split_0
I0403 14:47:04.065768 13630 net.cpp:399] pool2/3x3_s2_pool2/3x3_s2_0_split -> pool2/3x3_s2_pool2/3x3_s2_0_split_1
I0403 14:47:04.065788 13630 net.cpp:399] pool2/3x3_s2_pool2/3x3_s2_0_split -> pool2/3x3_s2_pool2/3x3_s2_0_split_2
I0403 14:47:04.065806 13630 net.cpp:399] pool2/3x3_s2_pool2/3x3_s2_0_split -> pool2/3x3_s2_pool2/3x3_s2_0_split_3
I0403 14:47:04.065870 13630 net.cpp:141] Setting up pool2/3x3_s2_pool2/3x3_s2_0_split
I0403 14:47:04.065891 13630 net.cpp:148] Top shape: 24 192 28 28 (3612672)
I0403 14:47:04.065907 13630 net.cpp:148] Top shape: 24 192 28 28 (3612672)
I0403 14:47:04.065922 13630 net.cpp:148] Top shape: 24 192 28 28 (3612672)
I0403 14:47:04.065937 13630 net.cpp:148] Top shape: 24 192 28 28 (3612672)
I0403 14:47:04.065950 13630 net.cpp:156] Memory required for data: 491324448
I0403 14:47:04.065965 13630 layer_factory.hpp:77] Creating layer inception_3a/1x1
I0403 14:47:04.065985 13630 net.cpp:91] Creating Layer inception_3a/1x1
I0403 14:47:04.066001 13630 net.cpp:425] inception_3a/1x1 <- pool2/3x3_s2_pool2/3x3_s2_0_split_0
I0403 14:47:04.066020 13630 net.cpp:399] inception_3a/1x1 -> inception_3a/1x1
I0403 14:47:04.067498 13630 net.cpp:141] Setting up inception_3a/1x1
I0403 14:47:04.067526 13630 net.cpp:148] Top shape: 24 64 28 28 (1204224)
I0403 14:47:04.067543 13630 net.cpp:156] Memory required for data: 496141344
I0403 14:47:04.067560 13630 layer_factory.hpp:77] Creating layer inception_3a/relu_1x1
I0403 14:47:04.067579 13630 net.cpp:91] Creating Layer inception_3a/relu_1x1
I0403 14:47:04.067595 13630 net.cpp:425] inception_3a/relu_1x1 <- inception_3a/1x1
I0403 14:47:04.067620 13630 net.cpp:386] inception_3a/relu_1x1 -> inception_3a/1x1 (in-place)
I0403 14:47:04.067790 13630 net.cpp:141] Setting up inception_3a/relu_1x1
I0403 14:47:04.067816 13630 net.cpp:148] Top shape: 24 64 28 28 (1204224)
I0403 14:47:04.067831 13630 net.cpp:156] Memory required for data: 500958240
I0403 14:47:04.067847 13630 layer_factory.hpp:77] Creating layer inception_3a/3x3_reduce
I0403 14:47:04.067870 13630 net.cpp:91] Creating Layer inception_3a/3x3_reduce
I0403 14:47:04.067888 13630 net.cpp:425] inception_3a/3x3_reduce <- pool2/3x3_s2_pool2/3x3_s2_0_split_1
I0403 14:47:04.067910 13630 net.cpp:399] inception_3a/3x3_reduce -> inception_3a/3x3_reduce
I0403 14:47:04.069634 13630 net.cpp:141] Setting up inception_3a/3x3_reduce
I0403 14:47:04.069665 13630 net.cpp:148] Top shape: 24 96 28 28 (1806336)
I0403 14:47:04.069681 13630 net.cpp:156] Memory required for data: 508183584
I0403 14:47:04.069703 13630 layer_factory.hpp:77] Creating layer inception_3a/relu_3x3_reduce
I0403 14:47:04.069741 13630 net.cpp:91] Creating Layer inception_3a/relu_3x3_reduce
I0403 14:47:04.069761 13630 net.cpp:425] inception_3a/relu_3x3_reduce <- inception_3a/3x3_reduce
I0403 14:47:04.069778 13630 net.cpp:386] inception_3a/relu_3x3_reduce -> inception_3a/3x3_reduce (in-place)
I0403 14:47:04.069962 13630 net.cpp:141] Setting up inception_3a/relu_3x3_reduce
I0403 14:47:04.069988 13630 net.cpp:148] Top shape: 24 96 28 28 (1806336)
I0403 14:47:04.070003 13630 net.cpp:156] Memory required for data: 515408928
I0403 14:47:04.070019 13630 layer_factory.hpp:77] Creating layer inception_3a/3x3
I0403 14:47:04.070041 13630 net.cpp:91] Creating Layer inception_3a/3x3
I0403 14:47:04.070060 13630 net.cpp:425] inception_3a/3x3 <- inception_3a/3x3_reduce
I0403 14:47:04.070082 13630 net.cpp:399] inception_3a/3x3 -> inception_3a/3x3
I0403 14:47:04.071775 13630 net.cpp:141] Setting up inception_3a/3x3
I0403 14:47:04.071805 13630 net.cpp:148] Top shape: 24 128 28 28 (2408448)
I0403 14:47:04.071820 13630 net.cpp:156] Memory required for data: 525042720
I0403 14:47:04.071841 13630 layer_factory.hpp:77] Creating layer inception_3a/relu_3x3
I0403 14:47:04.071861 13630 net.cpp:91] Creating Layer inception_3a/relu_3x3
I0403 14:47:04.071878 13630 net.cpp:425] inception_3a/relu_3x3 <- inception_3a/3x3
I0403 14:47:04.071897 13630 net.cpp:386] inception_3a/relu_3x3 -> inception_3a/3x3 (in-place)
I0403 14:47:04.072177 13630 net.cpp:141] Setting up inception_3a/relu_3x3
I0403 14:47:04.072206 13630 net.cpp:148] Top shape: 24 128 28 28 (2408448)
I0403 14:47:04.072221 13630 net.cpp:156] Memory required for data: 534676512
I0403 14:47:04.072237 13630 layer_factory.hpp:77] Creating layer inception_3a/5x5_reduce
I0403 14:47:04.072259 13630 net.cpp:91] Creating Layer inception_3a/5x5_reduce
I0403 14:47:04.072278 13630 net.cpp:425] inception_3a/5x5_reduce <- pool2/3x3_s2_pool2/3x3_s2_0_split_2
I0403 14:47:04.072299 13630 net.cpp:399] inception_3a/5x5_reduce -> inception_3a/5x5_reduce
I0403 14:47:04.073283 13630 net.cpp:141] Setting up inception_3a/5x5_reduce
I0403 14:47:04.073312 13630 net.cpp:148] Top shape: 24 16 28 28 (301056)
I0403 14:47:04.073329 13630 net.cpp:156] Memory required for data: 535880736
I0403 14:47:04.073348 13630 layer_factory.hpp:77] Creating layer inception_3a/relu_5x5_reduce
I0403 14:47:04.073369 13630 net.cpp:91] Creating Layer inception_3a/relu_5x5_reduce
I0403 14:47:04.073386 13630 net.cpp:425] inception_3a/relu_5x5_reduce <- inception_3a/5x5_reduce
I0403 14:47:04.073403 13630 net.cpp:386] inception_3a/relu_5x5_reduce -> inception_3a/5x5_reduce (in-place)
I0403 14:47:04.073707 13630 net.cpp:141] Setting up inception_3a/relu_5x5_reduce
I0403 14:47:04.073736 13630 net.cpp:148] Top shape: 24 16 28 28 (301056)
I0403 14:47:04.073753 13630 net.cpp:156] Memory required for data: 537084960
I0403 14:47:04.073768 13630 layer_factory.hpp:77] Creating layer inception_3a/5x5
I0403 14:47:04.073789 13630 net.cpp:91] Creating Layer inception_3a/5x5
I0403 14:47:04.073807 13630 net.cpp:425] inception_3a/5x5 <- inception_3a/5x5_reduce
I0403 14:47:04.073827 13630 net.cpp:399] inception_3a/5x5 -> inception_3a/5x5
I0403 14:47:04.074862 13630 net.cpp:141] Setting up inception_3a/5x5
I0403 14:47:04.074890 13630 net.cpp:148] Top shape: 24 32 28 28 (602112)
I0403 14:47:04.074906 13630 net.cpp:156] Memory required for data: 539493408
I0403 14:47:04.074924 13630 layer_factory.hpp:77] Creating layer inception_3a/relu_5x5
I0403 14:47:04.074945 13630 net.cpp:91] Creating Layer inception_3a/relu_5x5
I0403 14:47:04.074964 13630 net.cpp:425] inception_3a/relu_5x5 <- inception_3a/5x5
I0403 14:47:04.074980 13630 net.cpp:386] inception_3a/relu_5x5 -> inception_3a/5x5 (in-place)
I0403 14:47:04.075158 13630 net.cpp:141] Setting up inception_3a/relu_5x5
I0403 14:47:04.075183 13630 net.cpp:148] Top shape: 24 32 28 28 (602112)
I0403 14:47:04.075198 13630 net.cpp:156] Memory required for data: 541901856
I0403 14:47:04.075213 13630 layer_factory.hpp:77] Creating layer inception_3a/pool
I0403 14:47:04.075234 13630 net.cpp:91] Creating Layer inception_3a/pool
I0403 14:47:04.075253 13630 net.cpp:425] inception_3a/pool <- pool2/3x3_s2_pool2/3x3_s2_0_split_3
I0403 14:47:04.075286 13630 net.cpp:399] inception_3a/pool -> inception_3a/pool
I0403 14:47:04.075346 13630 net.cpp:141] Setting up inception_3a/pool
I0403 14:47:04.075371 13630 net.cpp:148] Top shape: 24 192 28 28 (3612672)
I0403 14:47:04.075384 13630 net.cpp:156] Memory required for data: 556352544
I0403 14:47:04.075400 13630 layer_factory.hpp:77] Creating layer inception_3a/pool_proj
I0403 14:47:04.075423 13630 net.cpp:91] Creating Layer inception_3a/pool_proj
I0403 14:47:04.075441 13630 net.cpp:425] inception_3a/pool_proj <- inception_3a/pool
I0403 14:47:04.075465 13630 net.cpp:399] inception_3a/pool_proj -> inception_3a/pool_proj
I0403 14:47:04.076442 13630 net.cpp:141] Setting up inception_3a/pool_proj
I0403 14:47:04.076473 13630 net.cpp:148] Top shape: 24 32 28 28 (602112)
I0403 14:47:04.076490 13630 net.cpp:156] Memory required for data: 558760992
I0403 14:47:04.076513 13630 layer_factory.hpp:77] Creating layer inception_3a/relu_pool_proj
I0403 14:47:04.076535 13630 net.cpp:91] Creating Layer inception_3a/relu_pool_proj
I0403 14:47:04.076552 13630 net.cpp:425] inception_3a/relu_pool_proj <- inception_3a/pool_proj
I0403 14:47:04.076570 13630 net.cpp:386] inception_3a/relu_pool_proj -> inception_3a/pool_proj (in-place)
I0403 14:47:04.076853 13630 net.cpp:141] Setting up inception_3a/relu_pool_proj
I0403 14:47:04.076880 13630 net.cpp:148] Top shape: 24 32 28 28 (602112)
I0403 14:47:04.076895 13630 net.cpp:156] Memory required for data: 561169440
I0403 14:47:04.076910 13630 layer_factory.hpp:77] Creating layer inception_3a/output
I0403 14:47:04.076928 13630 net.cpp:91] Creating Layer inception_3a/output
I0403 14:47:04.076944 13630 net.cpp:425] inception_3a/output <- inception_3a/1x1
I0403 14:47:04.076961 13630 net.cpp:425] inception_3a/output <- inception_3a/3x3
I0403 14:47:04.076980 13630 net.cpp:425] inception_3a/output <- inception_3a/5x5
I0403 14:47:04.076997 13630 net.cpp:425] inception_3a/output <- inception_3a/pool_proj
I0403 14:47:04.077015 13630 net.cpp:399] inception_3a/output -> inception_3a/output
I0403 14:47:04.077061 13630 net.cpp:141] Setting up inception_3a/output
I0403 14:47:04.077087 13630 net.cpp:148] Top shape: 24 256 28 28 (4816896)
I0403 14:47:04.077103 13630 net.cpp:156] Memory required for data: 580437024
I0403 14:47:04.077118 13630 layer_factory.hpp:77] Creating layer inception_3a/output_inception_3a/output_0_split
I0403 14:47:04.077136 13630 net.cpp:91] Creating Layer inception_3a/output_inception_3a/output_0_split
I0403 14:47:04.077150 13630 net.cpp:425] inception_3a/output_inception_3a/output_0_split <- inception_3a/output
I0403 14:47:04.077170 13630 net.cpp:399] inception_3a/output_inception_3a/output_0_split -> inception_3a/output_inception_3a/output_0_split_0
I0403 14:47:04.077191 13630 net.cpp:399] inception_3a/output_inception_3a/output_0_split -> inception_3a/output_inception_3a/output_0_split_1
I0403 14:47:04.077214 13630 net.cpp:399] inception_3a/output_inception_3a/output_0_split -> inception_3a/output_inception_3a/output_0_split_2
I0403 14:47:04.077235 13630 net.cpp:399] inception_3a/output_inception_3a/output_0_split -> inception_3a/output_inception_3a/output_0_split_3
I0403 14:47:04.077312 13630 net.cpp:141] Setting up inception_3a/output_inception_3a/output_0_split
I0403 14:47:04.077337 13630 net.cpp:148] Top shape: 24 256 28 28 (4816896)
I0403 14:47:04.077353 13630 net.cpp:148] Top shape: 24 256 28 28 (4816896)
I0403 14:47:04.077369 13630 net.cpp:148] Top shape: 24 256 28 28 (4816896)
I0403 14:47:04.077385 13630 net.cpp:148] Top shape: 24 256 28 28 (4816896)
I0403 14:47:04.077399 13630 net.cpp:156] Memory required for data: 657507360
I0403 14:47:04.077414 13630 layer_factory.hpp:77] Creating layer inception_3b/1x1
I0403 14:47:04.077436 13630 net.cpp:91] Creating Layer inception_3b/1x1
I0403 14:47:04.077455 13630 net.cpp:425] inception_3b/1x1 <- inception_3a/output_inception_3a/output_0_split_0
I0403 14:47:04.077476 13630 net.cpp:399] inception_3b/1x1 -> inception_3b/1x1
I0403 14:47:04.078630 13630 net.cpp:141] Setting up inception_3b/1x1
I0403 14:47:04.078671 13630 net.cpp:148] Top shape: 24 128 28 28 (2408448)
I0403 14:47:04.078687 13630 net.cpp:156] Memory required for data: 667141152
I0403 14:47:04.078706 13630 layer_factory.hpp:77] Creating layer inception_3b/relu_1x1
I0403 14:47:04.078724 13630 net.cpp:91] Creating Layer inception_3b/relu_1x1
I0403 14:47:04.078742 13630 net.cpp:425] inception_3b/relu_1x1 <- inception_3b/1x1
I0403 14:47:04.078761 13630 net.cpp:386] inception_3b/relu_1x1 -> inception_3b/1x1 (in-place)
I0403 14:47:04.078938 13630 net.cpp:141] Setting up inception_3b/relu_1x1
I0403 14:47:04.078965 13630 net.cpp:148] Top shape: 24 128 28 28 (2408448)
I0403 14:47:04.078980 13630 net.cpp:156] Memory required for data: 676774944
I0403 14:47:04.078995 13630 layer_factory.hpp:77] Creating layer inception_3b/3x3_reduce
I0403 14:47:04.079018 13630 net.cpp:91] Creating Layer inception_3b/3x3_reduce
I0403 14:47:04.079035 13630 net.cpp:425] inception_3b/3x3_reduce <- inception_3a/output_inception_3a/output_0_split_1
I0403 14:47:04.079059 13630 net.cpp:399] inception_3b/3x3_reduce -> inception_3b/3x3_reduce
I0403 14:47:04.080242 13630 net.cpp:141] Setting up inception_3b/3x3_reduce
I0403 14:47:04.080273 13630 net.cpp:148] Top shape: 24 128 28 28 (2408448)
I0403 14:47:04.080291 13630 net.cpp:156] Memory required for data: 686408736
I0403 14:47:04.080310 13630 layer_factory.hpp:77] Creating layer inception_3b/relu_3x3_reduce
I0403 14:47:04.080329 13630 net.cpp:91] Creating Layer inception_3b/relu_3x3_reduce
I0403 14:47:04.080346 13630 net.cpp:425] inception_3b/relu_3x3_reduce <- inception_3b/3x3_reduce
I0403 14:47:04.080365 13630 net.cpp:386] inception_3b/relu_3x3_reduce -> inception_3b/3x3_reduce (in-place)
I0403 14:47:04.080543 13630 net.cpp:141] Setting up inception_3b/relu_3x3_reduce
I0403 14:47:04.080567 13630 net.cpp:148] Top shape: 24 128 28 28 (2408448)
I0403 14:47:04.080582 13630 net.cpp:156] Memory required for data: 696042528
I0403 14:47:04.080602 13630 layer_factory.hpp:77] Creating layer inception_3b/3x3
I0403 14:47:04.080631 13630 net.cpp:91] Creating Layer inception_3b/3x3
I0403 14:47:04.080649 13630 net.cpp:425] inception_3b/3x3 <- inception_3b/3x3_reduce
I0403 14:47:04.080668 13630 net.cpp:399] inception_3b/3x3 -> inception_3b/3x3
I0403 14:47:04.083626 13630 net.cpp:141] Setting up inception_3b/3x3
I0403 14:47:04.083654 13630 net.cpp:148] Top shape: 24 192 28 28 (3612672)
I0403 14:47:04.083670 13630 net.cpp:156] Memory required for data: 710493216
I0403 14:47:04.083688 13630 layer_factory.hpp:77] Creating layer inception_3b/relu_3x3
I0403 14:47:04.083709 13630 net.cpp:91] Creating Layer inception_3b/relu_3x3
I0403 14:47:04.083726 13630 net.cpp:425] inception_3b/relu_3x3 <- inception_3b/3x3
I0403 14:47:04.083745 13630 net.cpp:386] inception_3b/relu_3x3 -> inception_3b/3x3 (in-place)
I0403 14:47:04.084043 13630 net.cpp:141] Setting up inception_3b/relu_3x3
I0403 14:47:04.084070 13630 net.cpp:148] Top shape: 24 192 28 28 (3612672)
I0403 14:47:04.084086 13630 net.cpp:156] Memory required for data: 724943904
I0403 14:47:04.084101 13630 layer_factory.hpp:77] Creating layer inception_3b/5x5_reduce
I0403 14:47:04.084127 13630 net.cpp:91] Creating Layer inception_3b/5x5_reduce
I0403 14:47:04.084146 13630 net.cpp:425] inception_3b/5x5_reduce <- inception_3a/output_inception_3a/output_0_split_2
I0403 14:47:04.084168 13630 net.cpp:399] inception_3b/5x5_reduce -> inception_3b/5x5_reduce
I0403 14:47:04.085222 13630 net.cpp:141] Setting up inception_3b/5x5_reduce
I0403 14:47:04.085253 13630 net.cpp:148] Top shape: 24 32 28 28 (602112)
I0403 14:47:04.085269 13630 net.cpp:156] Memory required for data: 727352352
I0403 14:47:04.085289 13630 layer_factory.hpp:77] Creating layer inception_3b/relu_5x5_reduce
I0403 14:47:04.085309 13630 net.cpp:91] Creating Layer inception_3b/relu_5x5_reduce
I0403 14:47:04.085327 13630 net.cpp:425] inception_3b/relu_5x5_reduce <- inception_3b/5x5_reduce
I0403 14:47:04.085346 13630 net.cpp:386] inception_3b/relu_5x5_reduce -> inception_3b/5x5_reduce (in-place)
I0403 14:47:04.085527 13630 net.cpp:141] Setting up inception_3b/relu_5x5_reduce
I0403 14:47:04.085566 13630 net.cpp:148] Top shape: 24 32 28 28 (602112)
I0403 14:47:04.085582 13630 net.cpp:156] Memory required for data: 729760800
I0403 14:47:04.085602 13630 layer_factory.hpp:77] Creating layer inception_3b/5x5
I0403 14:47:04.085628 13630 net.cpp:91] Creating Layer inception_3b/5x5
I0403 14:47:04.085647 13630 net.cpp:425] inception_3b/5x5 <- inception_3b/5x5_reduce
I0403 14:47:04.085667 13630 net.cpp:399] inception_3b/5x5 -> inception_3b/5x5
I0403 14:47:04.087743 13630 net.cpp:141] Setting up inception_3b/5x5
I0403 14:47:04.087776 13630 net.cpp:148] Top shape: 24 96 28 28 (1806336)
I0403 14:47:04.087793 13630 net.cpp:156] Memory required for data: 736986144
I0403 14:47:04.087821 13630 layer_factory.hpp:77] Creating layer inception_3b/relu_5x5
I0403 14:47:04.087839 13630 net.cpp:91] Creating Layer inception_3b/relu_5x5
I0403 14:47:04.087857 13630 net.cpp:425] inception_3b/relu_5x5 <- inception_3b/5x5
I0403 14:47:04.087889 13630 net.cpp:386] inception_3b/relu_5x5 -> inception_3b/5x5 (in-place)
I0403 14:47:04.088083 13630 net.cpp:141] Setting up inception_3b/relu_5x5
I0403 14:47:04.088109 13630 net.cpp:148] Top shape: 24 96 28 28 (1806336)
I0403 14:47:04.088124 13630 net.cpp:156] Memory required for data: 744211488
I0403 14:47:04.088140 13630 layer_factory.hpp:77] Creating layer inception_3b/pool
I0403 14:47:04.088157 13630 net.cpp:91] Creating Layer inception_3b/pool
I0403 14:47:04.088182 13630 net.cpp:425] inception_3b/pool <- inception_3a/output_inception_3a/output_0_split_3
I0403 14:47:04.088201 13630 net.cpp:399] inception_3b/pool -> inception_3b/pool
I0403 14:47:04.088258 13630 net.cpp:141] Setting up inception_3b/pool
I0403 14:47:04.088281 13630 net.cpp:148] Top shape: 24 256 28 28 (4816896)
I0403 14:47:04.088297 13630 net.cpp:156] Memory required for data: 763479072
I0403 14:47:04.088312 13630 layer_factory.hpp:77] Creating layer inception_3b/pool_proj
I0403 14:47:04.088338 13630 net.cpp:91] Creating Layer inception_3b/pool_proj
I0403 14:47:04.088356 13630 net.cpp:425] inception_3b/pool_proj <- inception_3b/pool
I0403 14:47:04.088376 13630 net.cpp:399] inception_3b/pool_proj -> inception_3b/pool_proj
I0403 14:47:04.089448 13630 net.cpp:141] Setting up inception_3b/pool_proj
I0403 14:47:04.089476 13630 net.cpp:148] Top shape: 24 64 28 28 (1204224)
I0403 14:47:04.089493 13630 net.cpp:156] Memory required for data: 768295968
I0403 14:47:04.089512 13630 layer_factory.hpp:77] Creating layer inception_3b/relu_pool_proj
I0403 14:47:04.089534 13630 net.cpp:91] Creating Layer inception_3b/relu_pool_proj
I0403 14:47:04.089550 13630 net.cpp:425] inception_3b/relu_pool_proj <- inception_3b/pool_proj
I0403 14:47:04.089568 13630 net.cpp:386] inception_3b/relu_pool_proj -> inception_3b/pool_proj (in-place)
I0403 14:47:04.089972 13630 net.cpp:141] Setting up inception_3b/relu_pool_proj
I0403 14:47:04.089999 13630 net.cpp:148] Top shape: 24 64 28 28 (1204224)
I0403 14:47:04.090014 13630 net.cpp:156] Memory required for data: 773112864
I0403 14:47:04.090029 13630 layer_factory.hpp:77] Creating layer inception_3b/output
I0403 14:47:04.090051 13630 net.cpp:91] Creating Layer inception_3b/output
I0403 14:47:04.090068 13630 net.cpp:425] inception_3b/output <- inception_3b/1x1
I0403 14:47:04.090085 13630 net.cpp:425] inception_3b/output <- inception_3b/3x3
I0403 14:47:04.090101 13630 net.cpp:425] inception_3b/output <- inception_3b/5x5
I0403 14:47:04.090117 13630 net.cpp:425] inception_3b/output <- inception_3b/pool_proj
I0403 14:47:04.090133 13630 net.cpp:399] inception_3b/output -> inception_3b/output
I0403 14:47:04.090181 13630 net.cpp:141] Setting up inception_3b/output
I0403 14:47:04.090205 13630 net.cpp:148] Top shape: 24 480 28 28 (9031680)
I0403 14:47:04.090219 13630 net.cpp:156] Memory required for data: 809239584
I0403 14:47:04.090234 13630 layer_factory.hpp:77] Creating layer pool3/3x3_s2
I0403 14:47:04.090252 13630 net.cpp:91] Creating Layer pool3/3x3_s2
I0403 14:47:04.090267 13630 net.cpp:425] pool3/3x3_s2 <- inception_3b/output
I0403 14:47:04.090288 13630 net.cpp:399] pool3/3x3_s2 -> pool3/3x3_s2
I0403 14:47:04.090363 13630 net.cpp:141] Setting up pool3/3x3_s2
I0403 14:47:04.090389 13630 net.cpp:148] Top shape: 24 480 14 14 (2257920)
I0403 14:47:04.090405 13630 net.cpp:156] Memory required for data: 818271264
I0403 14:47:04.090420 13630 layer_factory.hpp:77] Creating layer pool3/3x3_s2_pool3/3x3_s2_0_split
I0403 14:47:04.090437 13630 net.cpp:91] Creating Layer pool3/3x3_s2_pool3/3x3_s2_0_split
I0403 14:47:04.090452 13630 net.cpp:425] pool3/3x3_s2_pool3/3x3_s2_0_split <- pool3/3x3_s2
I0403 14:47:04.090469 13630 net.cpp:399] pool3/3x3_s2_pool3/3x3_s2_0_split -> pool3/3x3_s2_pool3/3x3_s2_0_split_0
I0403 14:47:04.090492 13630 net.cpp:399] pool3/3x3_s2_pool3/3x3_s2_0_split -> pool3/3x3_s2_pool3/3x3_s2_0_split_1
I0403 14:47:04.090512 13630 net.cpp:399] pool3/3x3_s2_pool3/3x3_s2_0_split -> pool3/3x3_s2_pool3/3x3_s2_0_split_2
I0403 14:47:04.090533 13630 net.cpp:399] pool3/3x3_s2_pool3/3x3_s2_0_split -> pool3/3x3_s2_pool3/3x3_s2_0_split_3
I0403 14:47:04.090616 13630 net.cpp:141] Setting up pool3/3x3_s2_pool3/3x3_s2_0_split
I0403 14:47:04.090641 13630 net.cpp:148] Top shape: 24 480 14 14 (2257920)
I0403 14:47:04.090657 13630 net.cpp:148] Top shape: 24 480 14 14 (2257920)
I0403 14:47:04.090673 13630 net.cpp:148] Top shape: 24 480 14 14 (2257920)
I0403 14:47:04.090688 13630 net.cpp:148] Top shape: 24 480 14 14 (2257920)
I0403 14:47:04.090703 13630 net.cpp:156] Memory required for data: 854397984
I0403 14:47:04.090716 13630 layer_factory.hpp:77] Creating layer inception_4a/1x1
I0403 14:47:04.090740 13630 net.cpp:91] Creating Layer inception_4a/1x1
I0403 14:47:04.090759 13630 net.cpp:425] inception_4a/1x1 <- pool3/3x3_s2_pool3/3x3_s2_0_split_0
I0403 14:47:04.090778 13630 net.cpp:399] inception_4a/1x1 -> inception_4a/1x1
I0403 14:47:04.092381 13630 net.cpp:141] Setting up inception_4a/1x1
I0403 14:47:04.092409 13630 net.cpp:148] Top shape: 24 192 14 14 (903168)
I0403 14:47:04.092425 13630 net.cpp:156] Memory required for data: 858010656
I0403 14:47:04.092443 13630 layer_factory.hpp:77] Creating layer inception_4a/relu_1x1
I0403 14:47:04.092464 13630 net.cpp:91] Creating Layer inception_4a/relu_1x1
I0403 14:47:04.092481 13630 net.cpp:425] inception_4a/relu_1x1 <- inception_4a/1x1
I0403 14:47:04.092499 13630 net.cpp:386] inception_4a/relu_1x1 -> inception_4a/1x1 (in-place)
I0403 14:47:04.092687 13630 net.cpp:141] Setting up inception_4a/relu_1x1
I0403 14:47:04.092713 13630 net.cpp:148] Top shape: 24 192 14 14 (903168)
I0403 14:47:04.092728 13630 net.cpp:156] Memory required for data: 861623328
I0403 14:47:04.092744 13630 layer_factory.hpp:77] Creating layer inception_4a/3x3_reduce
I0403 14:47:04.092767 13630 net.cpp:91] Creating Layer inception_4a/3x3_reduce
I0403 14:47:04.092785 13630 net.cpp:425] inception_4a/3x3_reduce <- pool3/3x3_s2_pool3/3x3_s2_0_split_1
I0403 14:47:04.092808 13630 net.cpp:399] inception_4a/3x3_reduce -> inception_4a/3x3_reduce
I0403 14:47:04.094118 13630 net.cpp:141] Setting up inception_4a/3x3_reduce
I0403 14:47:04.094149 13630 net.cpp:148] Top shape: 24 96 14 14 (451584)
I0403 14:47:04.094166 13630 net.cpp:156] Memory required for data: 863429664
I0403 14:47:04.094188 13630 layer_factory.hpp:77] Creating layer inception_4a/relu_3x3_reduce
I0403 14:47:04.094210 13630 net.cpp:91] Creating Layer inception_4a/relu_3x3_reduce
I0403 14:47:04.094228 13630 net.cpp:425] inception_4a/relu_3x3_reduce <- inception_4a/3x3_reduce
I0403 14:47:04.094246 13630 net.cpp:386] inception_4a/relu_3x3_reduce -> inception_4a/3x3_reduce (in-place)
I0403 14:47:04.094429 13630 net.cpp:141] Setting up inception_4a/relu_3x3_reduce
I0403 14:47:04.094457 13630 net.cpp:148] Top shape: 24 96 14 14 (451584)
I0403 14:47:04.094472 13630 net.cpp:156] Memory required for data: 865236000
I0403 14:47:04.094486 13630 layer_factory.hpp:77] Creating layer inception_4a/3x3
I0403 14:47:04.094509 13630 net.cpp:91] Creating Layer inception_4a/3x3
I0403 14:47:04.094528 13630 net.cpp:425] inception_4a/3x3 <- inception_4a/3x3_reduce
I0403 14:47:04.094549 13630 net.cpp:399] inception_4a/3x3 -> inception_4a/3x3
I0403 14:47:04.097292 13630 net.cpp:141] Setting up inception_4a/3x3
I0403 14:47:04.097324 13630 net.cpp:148] Top shape: 24 208 14 14 (978432)
I0403 14:47:04.097342 13630 net.cpp:156] Memory required for data: 869149728
I0403 14:47:04.097360 13630 layer_factory.hpp:77] Creating layer inception_4a/relu_3x3
I0403 14:47:04.097379 13630 net.cpp:91] Creating Layer inception_4a/relu_3x3
I0403 14:47:04.097395 13630 net.cpp:425] inception_4a/relu_3x3 <- inception_4a/3x3
I0403 14:47:04.097415 13630 net.cpp:386] inception_4a/relu_3x3 -> inception_4a/3x3 (in-place)
I0403 14:47:04.097702 13630 net.cpp:141] Setting up inception_4a/relu_3x3
I0403 14:47:04.097731 13630 net.cpp:148] Top shape: 24 208 14 14 (978432)
I0403 14:47:04.097748 13630 net.cpp:156] Memory required for data: 873063456
I0403 14:47:04.097762 13630 layer_factory.hpp:77] Creating layer inception_4a/5x5_reduce
I0403 14:47:04.097786 13630 net.cpp:91] Creating Layer inception_4a/5x5_reduce
I0403 14:47:04.097805 13630 net.cpp:425] inception_4a/5x5_reduce <- pool3/3x3_s2_pool3/3x3_s2_0_split_2
I0403 14:47:04.097826 13630 net.cpp:399] inception_4a/5x5_reduce -> inception_4a/5x5_reduce
I0403 14:47:04.098875 13630 net.cpp:141] Setting up inception_4a/5x5_reduce
I0403 14:47:04.098903 13630 net.cpp:148] Top shape: 24 16 14 14 (75264)
I0403 14:47:04.098918 13630 net.cpp:156] Memory required for data: 873364512
I0403 14:47:04.098937 13630 layer_factory.hpp:77] Creating layer inception_4a/relu_5x5_reduce
I0403 14:47:04.098958 13630 net.cpp:91] Creating Layer inception_4a/relu_5x5_reduce
I0403 14:47:04.098976 13630 net.cpp:425] inception_4a/relu_5x5_reduce <- inception_4a/5x5_reduce
I0403 14:47:04.098994 13630 net.cpp:386] inception_4a/relu_5x5_reduce -> inception_4a/5x5_reduce (in-place)
I0403 14:47:04.099174 13630 net.cpp:141] Setting up inception_4a/relu_5x5_reduce
I0403 14:47:04.099200 13630 net.cpp:148] Top shape: 24 16 14 14 (75264)
I0403 14:47:04.099215 13630 net.cpp:156] Memory required for data: 873665568
I0403 14:47:04.099231 13630 layer_factory.hpp:77] Creating layer inception_4a/5x5
I0403 14:47:04.099252 13630 net.cpp:91] Creating Layer inception_4a/5x5
I0403 14:47:04.099270 13630 net.cpp:425] inception_4a/5x5 <- inception_4a/5x5_reduce
I0403 14:47:04.099292 13630 net.cpp:399] inception_4a/5x5 -> inception_4a/5x5
I0403 14:47:04.100412 13630 net.cpp:141] Setting up inception_4a/5x5
I0403 14:47:04.100440 13630 net.cpp:148] Top shape: 24 48 14 14 (225792)
I0403 14:47:04.100456 13630 net.cpp:156] Memory required for data: 874568736
I0403 14:47:04.100474 13630 layer_factory.hpp:77] Creating layer inception_4a/relu_5x5
I0403 14:47:04.100495 13630 net.cpp:91] Creating Layer inception_4a/relu_5x5
I0403 14:47:04.100513 13630 net.cpp:425] inception_4a/relu_5x5 <- inception_4a/5x5
I0403 14:47:04.100530 13630 net.cpp:386] inception_4a/relu_5x5 -> inception_4a/5x5 (in-place)
I0403 14:47:04.100719 13630 net.cpp:141] Setting up inception_4a/relu_5x5
I0403 14:47:04.100747 13630 net.cpp:148] Top shape: 24 48 14 14 (225792)
I0403 14:47:04.100762 13630 net.cpp:156] Memory required for data: 875471904
I0403 14:47:04.100777 13630 layer_factory.hpp:77] Creating layer inception_4a/pool
I0403 14:47:04.100795 13630 net.cpp:91] Creating Layer inception_4a/pool
I0403 14:47:04.100811 13630 net.cpp:425] inception_4a/pool <- pool3/3x3_s2_pool3/3x3_s2_0_split_3
I0403 14:47:04.100831 13630 net.cpp:399] inception_4a/pool -> inception_4a/pool
I0403 14:47:04.100894 13630 net.cpp:141] Setting up inception_4a/pool
I0403 14:47:04.100919 13630 net.cpp:148] Top shape: 24 480 14 14 (2257920)
I0403 14:47:04.100934 13630 net.cpp:156] Memory required for data: 884503584
I0403 14:47:04.100949 13630 layer_factory.hpp:77] Creating layer inception_4a/pool_proj
I0403 14:47:04.100970 13630 net.cpp:91] Creating Layer inception_4a/pool_proj
I0403 14:47:04.100989 13630 net.cpp:425] inception_4a/pool_proj <- inception_4a/pool
I0403 14:47:04.101011 13630 net.cpp:399] inception_4a/pool_proj -> inception_4a/pool_proj
I0403 14:47:04.102263 13630 net.cpp:141] Setting up inception_4a/pool_proj
I0403 14:47:04.102299 13630 net.cpp:148] Top shape: 24 64 14 14 (301056)
I0403 14:47:04.102334 13630 net.cpp:156] Memory required for data: 885707808
I0403 14:47:04.102355 13630 layer_factory.hpp:77] Creating layer inception_4a/relu_pool_proj
I0403 14:47:04.102375 13630 net.cpp:91] Creating Layer inception_4a/relu_pool_proj
I0403 14:47:04.102391 13630 net.cpp:425] inception_4a/relu_pool_proj <- inception_4a/pool_proj
I0403 14:47:04.102409 13630 net.cpp:386] inception_4a/relu_pool_proj -> inception_4a/pool_proj (in-place)
I0403 14:47:04.102716 13630 net.cpp:141] Setting up inception_4a/relu_pool_proj
I0403 14:47:04.102747 13630 net.cpp:148] Top shape: 24 64 14 14 (301056)
I0403 14:47:04.102763 13630 net.cpp:156] Memory required for data: 886912032
I0403 14:47:04.102779 13630 layer_factory.hpp:77] Creating layer inception_4a/output
I0403 14:47:04.102797 13630 net.cpp:91] Creating Layer inception_4a/output
I0403 14:47:04.102814 13630 net.cpp:425] inception_4a/output <- inception_4a/1x1
I0403 14:47:04.102831 13630 net.cpp:425] inception_4a/output <- inception_4a/3x3
I0403 14:47:04.102849 13630 net.cpp:425] inception_4a/output <- inception_4a/5x5
I0403 14:47:04.102864 13630 net.cpp:425] inception_4a/output <- inception_4a/pool_proj
I0403 14:47:04.102881 13630 net.cpp:399] inception_4a/output -> inception_4a/output
I0403 14:47:04.102931 13630 net.cpp:141] Setting up inception_4a/output
I0403 14:47:04.102955 13630 net.cpp:148] Top shape: 24 512 14 14 (2408448)
I0403 14:47:04.102970 13630 net.cpp:156] Memory required for data: 896545824
I0403 14:47:04.102985 13630 layer_factory.hpp:77] Creating layer inception_4a/output_inception_4a/output_0_split
I0403 14:47:04.103006 13630 net.cpp:91] Creating Layer inception_4a/output_inception_4a/output_0_split
I0403 14:47:04.103024 13630 net.cpp:425] inception_4a/output_inception_4a/output_0_split <- inception_4a/output
I0403 14:47:04.103041 13630 net.cpp:399] inception_4a/output_inception_4a/output_0_split -> inception_4a/output_inception_4a/output_0_split_0
I0403 14:47:04.103063 13630 net.cpp:399] inception_4a/output_inception_4a/output_0_split -> inception_4a/output_inception_4a/output_0_split_1
I0403 14:47:04.103085 13630 net.cpp:399] inception_4a/output_inception_4a/output_0_split -> inception_4a/output_inception_4a/output_0_split_2
I0403 14:47:04.103107 13630 net.cpp:399] inception_4a/output_inception_4a/output_0_split -> inception_4a/output_inception_4a/output_0_split_3
I0403 14:47:04.103132 13630 net.cpp:399] inception_4a/output_inception_4a/output_0_split -> inception_4a/output_inception_4a/output_0_split_4
I0403 14:47:04.103232 13630 net.cpp:141] Setting up inception_4a/output_inception_4a/output_0_split
I0403 14:47:04.103257 13630 net.cpp:148] Top shape: 24 512 14 14 (2408448)
I0403 14:47:04.103276 13630 net.cpp:148] Top shape: 24 512 14 14 (2408448)
I0403 14:47:04.103294 13630 net.cpp:148] Top shape: 24 512 14 14 (2408448)
I0403 14:47:04.103310 13630 net.cpp:148] Top shape: 24 512 14 14 (2408448)
I0403 14:47:04.103327 13630 net.cpp:148] Top shape: 24 512 14 14 (2408448)
I0403 14:47:04.103341 13630 net.cpp:156] Memory required for data: 944714784
I0403 14:47:04.103356 13630 layer_factory.hpp:77] Creating layer loss1/ave_pool
I0403 14:47:04.103375 13630 net.cpp:91] Creating Layer loss1/ave_pool
I0403 14:47:04.103391 13630 net.cpp:425] loss1/ave_pool <- inception_4a/output_inception_4a/output_0_split_0
I0403 14:47:04.103413 13630 net.cpp:399] loss1/ave_pool -> loss1/ave_pool
I0403 14:47:04.103636 13630 net.cpp:141] Setting up loss1/ave_pool
I0403 14:47:04.103665 13630 net.cpp:148] Top shape: 24 512 4 4 (196608)
I0403 14:47:04.103682 13630 net.cpp:156] Memory required for data: 945501216
I0403 14:47:04.103698 13630 layer_factory.hpp:77] Creating layer loss1/conv
I0403 14:47:04.103721 13630 net.cpp:91] Creating Layer loss1/conv
I0403 14:47:04.103739 13630 net.cpp:425] loss1/conv <- loss1/ave_pool
I0403 14:47:04.103760 13630 net.cpp:399] loss1/conv -> loss1/conv
I0403 14:47:04.105267 13630 net.cpp:141] Setting up loss1/conv
I0403 14:47:04.105298 13630 net.cpp:148] Top shape: 24 128 4 4 (49152)
I0403 14:47:04.105314 13630 net.cpp:156] Memory required for data: 945697824
I0403 14:47:04.105350 13630 layer_factory.hpp:77] Creating layer loss1/relu_conv
I0403 14:47:04.105370 13630 net.cpp:91] Creating Layer loss1/relu_conv
I0403 14:47:04.105387 13630 net.cpp:425] loss1/relu_conv <- loss1/conv
I0403 14:47:04.105407 13630 net.cpp:386] loss1/relu_conv -> loss1/conv (in-place)
I0403 14:47:04.105712 13630 net.cpp:141] Setting up loss1/relu_conv
I0403 14:47:04.105741 13630 net.cpp:148] Top shape: 24 128 4 4 (49152)
I0403 14:47:04.105756 13630 net.cpp:156] Memory required for data: 945894432
I0403 14:47:04.105772 13630 layer_factory.hpp:77] Creating layer loss1/fc
I0403 14:47:04.105797 13630 net.cpp:91] Creating Layer loss1/fc
I0403 14:47:04.105815 13630 net.cpp:425] loss1/fc <- loss1/conv
I0403 14:47:04.105837 13630 net.cpp:399] loss1/fc -> loss1/fc
I0403 14:47:04.124101 13630 net.cpp:141] Setting up loss1/fc
I0403 14:47:04.124137 13630 net.cpp:148] Top shape: 24 1024 (24576)
I0403 14:47:04.124155 13630 net.cpp:156] Memory required for data: 945992736
I0403 14:47:04.124174 13630 layer_factory.hpp:77] Creating layer loss1/relu_fc
I0403 14:47:04.124196 13630 net.cpp:91] Creating Layer loss1/relu_fc
I0403 14:47:04.124214 13630 net.cpp:425] loss1/relu_fc <- loss1/fc
I0403 14:47:04.124231 13630 net.cpp:386] loss1/relu_fc -> loss1/fc (in-place)
I0403 14:47:04.124451 13630 net.cpp:141] Setting up loss1/relu_fc
I0403 14:47:04.124475 13630 net.cpp:148] Top shape: 24 1024 (24576)
I0403 14:47:04.124490 13630 net.cpp:156] Memory required for data: 946091040
I0403 14:47:04.124505 13630 layer_factory.hpp:77] Creating layer loss1/drop_fc
I0403 14:47:04.124531 13630 net.cpp:91] Creating Layer loss1/drop_fc
I0403 14:47:04.124548 13630 net.cpp:425] loss1/drop_fc <- loss1/fc
I0403 14:47:04.124567 13630 net.cpp:386] loss1/drop_fc -> loss1/fc (in-place)
I0403 14:47:04.124629 13630 net.cpp:141] Setting up loss1/drop_fc
I0403 14:47:04.124651 13630 net.cpp:148] Top shape: 24 1024 (24576)
I0403 14:47:04.124665 13630 net.cpp:156] Memory required for data: 946189344
I0403 14:47:04.124680 13630 layer_factory.hpp:77] Creating layer loss1/classifier_plantvillage
I0403 14:47:04.124702 13630 net.cpp:91] Creating Layer loss1/classifier_plantvillage
I0403 14:47:04.124719 13630 net.cpp:425] loss1/classifier_plantvillage <- loss1/fc
I0403 14:47:04.124738 13630 net.cpp:399] loss1/classifier_plantvillage -> loss1/classifier_plantvillage
I0403 14:47:04.125655 13630 net.cpp:141] Setting up loss1/classifier_plantvillage
I0403 14:47:04.125684 13630 net.cpp:148] Top shape: 24 38 (912)
I0403 14:47:04.125701 13630 net.cpp:156] Memory required for data: 946192992
I0403 14:47:04.125718 13630 layer_factory.hpp:77] Creating layer loss1/classifier_plantvillage_loss1/classifier_plantvillage_0_split
I0403 14:47:04.125736 13630 net.cpp:91] Creating Layer loss1/classifier_plantvillage_loss1/classifier_plantvillage_0_split
I0403 14:47:04.125751 13630 net.cpp:425] loss1/classifier_plantvillage_loss1/classifier_plantvillage_0_split <- loss1/classifier_plantvillage
I0403 14:47:04.125771 13630 net.cpp:399] loss1/classifier_plantvillage_loss1/classifier_plantvillage_0_split -> loss1/classifier_plantvillage_loss1/classifier_plantvillage_0_split_0
I0403 14:47:04.125792 13630 net.cpp:399] loss1/classifier_plantvillage_loss1/classifier_plantvillage_0_split -> loss1/classifier_plantvillage_loss1/classifier_plantvillage_0_split_1
I0403 14:47:04.125820 13630 net.cpp:399] loss1/classifier_plantvillage_loss1/classifier_plantvillage_0_split -> loss1/classifier_plantvillage_loss1/classifier_plantvillage_0_split_2
I0403 14:47:04.125885 13630 net.cpp:141] Setting up loss1/classifier_plantvillage_loss1/classifier_plantvillage_0_split
I0403 14:47:04.125908 13630 net.cpp:148] Top shape: 24 38 (912)
I0403 14:47:04.125923 13630 net.cpp:148] Top shape: 24 38 (912)
I0403 14:47:04.125938 13630 net.cpp:148] Top shape: 24 38 (912)
I0403 14:47:04.125952 13630 net.cpp:156] Memory required for data: 946203936
I0403 14:47:04.125967 13630 layer_factory.hpp:77] Creating layer inception_4b/1x1
I0403 14:47:04.125989 13630 net.cpp:91] Creating Layer inception_4b/1x1
I0403 14:47:04.126034 13630 net.cpp:425] inception_4b/1x1 <- inception_4a/output_inception_4a/output_0_split_1
I0403 14:47:04.126054 13630 net.cpp:399] inception_4b/1x1 -> inception_4b/1x1
I0403 14:47:04.127688 13630 net.cpp:141] Setting up inception_4b/1x1
I0403 14:47:04.127717 13630 net.cpp:148] Top shape: 24 160 14 14 (752640)
I0403 14:47:04.127732 13630 net.cpp:156] Memory required for data: 949214496
I0403 14:47:04.127749 13630 layer_factory.hpp:77] Creating layer inception_4b/relu_1x1
I0403 14:47:04.127766 13630 net.cpp:91] Creating Layer inception_4b/relu_1x1
I0403 14:47:04.127813 13630 net.cpp:425] inception_4b/relu_1x1 <- inception_4b/1x1
I0403 14:47:04.127830 13630 net.cpp:386] inception_4b/relu_1x1 -> inception_4b/1x1 (in-place)
I0403 14:47:04.128010 13630 net.cpp:141] Setting up inception_4b/relu_1x1
I0403 14:47:04.128034 13630 net.cpp:148] Top shape: 24 160 14 14 (752640)
I0403 14:47:04.128051 13630 net.cpp:156] Memory required for data: 952225056
I0403 14:47:04.128077 13630 layer_factory.hpp:77] Creating layer inception_4b/3x3_reduce
I0403 14:47:04.128098 13630 net.cpp:91] Creating Layer inception_4b/3x3_reduce
I0403 14:47:04.128115 13630 net.cpp:425] inception_4b/3x3_reduce <- inception_4a/output_inception_4a/output_0_split_2
I0403 14:47:04.128135 13630 net.cpp:399] inception_4b/3x3_reduce -> inception_4b/3x3_reduce
I0403 14:47:04.129452 13630 net.cpp:141] Setting up inception_4b/3x3_reduce
I0403 14:47:04.129478 13630 net.cpp:148] Top shape: 24 112 14 14 (526848)
I0403 14:47:04.129493 13630 net.cpp:156] Memory required for data: 954332448
I0403 14:47:04.129511 13630 layer_factory.hpp:77] Creating layer inception_4b/relu_3x3_reduce
I0403 14:47:04.129531 13630 net.cpp:91] Creating Layer inception_4b/relu_3x3_reduce
I0403 14:47:04.129549 13630 net.cpp:425] inception_4b/relu_3x3_reduce <- inception_4b/3x3_reduce
I0403 14:47:04.129565 13630 net.cpp:386] inception_4b/relu_3x3_reduce -> inception_4b/3x3_reduce (in-place)
I0403 14:47:04.129844 13630 net.cpp:141] Setting up inception_4b/relu_3x3_reduce
I0403 14:47:04.129870 13630 net.cpp:148] Top shape: 24 112 14 14 (526848)
I0403 14:47:04.129885 13630 net.cpp:156] Memory required for data: 956439840
I0403 14:47:04.129899 13630 layer_factory.hpp:77] Creating layer inception_4b/3x3
I0403 14:47:04.129920 13630 net.cpp:91] Creating Layer inception_4b/3x3
I0403 14:47:04.129938 13630 net.cpp:425] inception_4b/3x3 <- inception_4b/3x3_reduce
I0403 14:47:04.129958 13630 net.cpp:399] inception_4b/3x3 -> inception_4b/3x3
I0403 14:47:04.132874 13630 net.cpp:141] Setting up inception_4b/3x3
I0403 14:47:04.132905 13630 net.cpp:148] Top shape: 24 224 14 14 (1053696)
I0403 14:47:04.132920 13630 net.cpp:156] Memory required for data: 960654624
I0403 14:47:04.132937 13630 layer_factory.hpp:77] Creating layer inception_4b/relu_3x3
I0403 14:47:04.132956 13630 net.cpp:91] Creating Layer inception_4b/relu_3x3
I0403 14:47:04.132971 13630 net.cpp:425] inception_4b/relu_3x3 <- inception_4b/3x3
I0403 14:47:04.132989 13630 net.cpp:386] inception_4b/relu_3x3 -> inception_4b/3x3 (in-place)
I0403 14:47:04.133162 13630 net.cpp:141] Setting up inception_4b/relu_3x3
I0403 14:47:04.133186 13630 net.cpp:148] Top shape: 24 224 14 14 (1053696)
I0403 14:47:04.133200 13630 net.cpp:156] Memory required for data: 964869408
I0403 14:47:04.133214 13630 layer_factory.hpp:77] Creating layer inception_4b/5x5_reduce
I0403 14:47:04.133236 13630 net.cpp:91] Creating Layer inception_4b/5x5_reduce
I0403 14:47:04.133254 13630 net.cpp:425] inception_4b/5x5_reduce <- inception_4a/output_inception_4a/output_0_split_3
I0403 14:47:04.133275 13630 net.cpp:399] inception_4b/5x5_reduce -> inception_4b/5x5_reduce
I0403 14:47:04.134335 13630 net.cpp:141] Setting up inception_4b/5x5_reduce
I0403 14:47:04.134361 13630 net.cpp:148] Top shape: 24 24 14 14 (112896)
I0403 14:47:04.134377 13630 net.cpp:156] Memory required for data: 965320992
I0403 14:47:04.134393 13630 layer_factory.hpp:77] Creating layer inception_4b/relu_5x5_reduce
I0403 14:47:04.134412 13630 net.cpp:91] Creating Layer inception_4b/relu_5x5_reduce
I0403 14:47:04.134441 13630 net.cpp:425] inception_4b/relu_5x5_reduce <- inception_4b/5x5_reduce
I0403 14:47:04.134462 13630 net.cpp:386] inception_4b/relu_5x5_reduce -> inception_4b/5x5_reduce (in-place)
I0403 14:47:04.134651 13630 net.cpp:141] Setting up inception_4b/relu_5x5_reduce
I0403 14:47:04.134676 13630 net.cpp:148] Top shape: 24 24 14 14 (112896)
I0403 14:47:04.134690 13630 net.cpp:156] Memory required for data: 965772576
I0403 14:47:04.134704 13630 layer_factory.hpp:77] Creating layer inception_4b/5x5
I0403 14:47:04.134727 13630 net.cpp:91] Creating Layer inception_4b/5x5
I0403 14:47:04.134744 13630 net.cpp:425] inception_4b/5x5 <- inception_4b/5x5_reduce
I0403 14:47:04.134764 13630 net.cpp:399] inception_4b/5x5 -> inception_4b/5x5
I0403 14:47:04.135957 13630 net.cpp:141] Setting up inception_4b/5x5
I0403 14:47:04.135983 13630 net.cpp:148] Top shape: 24 64 14 14 (301056)
I0403 14:47:04.135998 13630 net.cpp:156] Memory required for data: 966976800
I0403 14:47:04.136016 13630 layer_factory.hpp:77] Creating layer inception_4b/relu_5x5
I0403 14:47:04.136034 13630 net.cpp:91] Creating Layer inception_4b/relu_5x5
I0403 14:47:04.136049 13630 net.cpp:425] inception_4b/relu_5x5 <- inception_4b/5x5
I0403 14:47:04.136068 13630 net.cpp:386] inception_4b/relu_5x5 -> inception_4b/5x5 (in-place)
I0403 14:47:04.136343 13630 net.cpp:141] Setting up inception_4b/relu_5x5
I0403 14:47:04.136368 13630 net.cpp:148] Top shape: 24 64 14 14 (301056)
I0403 14:47:04.136384 13630 net.cpp:156] Memory required for data: 968181024
I0403 14:47:04.136397 13630 layer_factory.hpp:77] Creating layer inception_4b/pool
I0403 14:47:04.136415 13630 net.cpp:91] Creating Layer inception_4b/pool
I0403 14:47:04.136430 13630 net.cpp:425] inception_4b/pool <- inception_4a/output_inception_4a/output_0_split_4
I0403 14:47:04.136450 13630 net.cpp:399] inception_4b/pool -> inception_4b/pool
I0403 14:47:04.136512 13630 net.cpp:141] Setting up inception_4b/pool
I0403 14:47:04.136538 13630 net.cpp:148] Top shape: 24 512 14 14 (2408448)
I0403 14:47:04.136554 13630 net.cpp:156] Memory required for data: 977814816
I0403 14:47:04.136567 13630 layer_factory.hpp:77] Creating layer inception_4b/pool_proj
I0403 14:47:04.136587 13630 net.cpp:91] Creating Layer inception_4b/pool_proj
I0403 14:47:04.136608 13630 net.cpp:425] inception_4b/pool_proj <- inception_4b/pool
I0403 14:47:04.136627 13630 net.cpp:399] inception_4b/pool_proj -> inception_4b/pool_proj
I0403 14:47:04.137794 13630 net.cpp:141] Setting up inception_4b/pool_proj
I0403 14:47:04.137821 13630 net.cpp:148] Top shape: 24 64 14 14 (301056)
I0403 14:47:04.137836 13630 net.cpp:156] Memory required for data: 979019040
I0403 14:47:04.137855 13630 layer_factory.hpp:77] Creating layer inception_4b/relu_pool_proj
I0403 14:47:04.137874 13630 net.cpp:91] Creating Layer inception_4b/relu_pool_proj
I0403 14:47:04.137890 13630 net.cpp:425] inception_4b/relu_pool_proj <- inception_4b/pool_proj
I0403 14:47:04.137907 13630 net.cpp:386] inception_4b/relu_pool_proj -> inception_4b/pool_proj (in-place)
I0403 14:47:04.138082 13630 net.cpp:141] Setting up inception_4b/relu_pool_proj
I0403 14:47:04.138105 13630 net.cpp:148] Top shape: 24 64 14 14 (301056)
I0403 14:47:04.138119 13630 net.cpp:156] Memory required for data: 980223264
I0403 14:47:04.138134 13630 layer_factory.hpp:77] Creating layer inception_4b/output
I0403 14:47:04.138152 13630 net.cpp:91] Creating Layer inception_4b/output
I0403 14:47:04.138169 13630 net.cpp:425] inception_4b/output <- inception_4b/1x1
I0403 14:47:04.138185 13630 net.cpp:425] inception_4b/output <- inception_4b/3x3
I0403 14:47:04.138200 13630 net.cpp:425] inception_4b/output <- inception_4b/5x5
I0403 14:47:04.138214 13630 net.cpp:425] inception_4b/output <- inception_4b/pool_proj
I0403 14:47:04.138231 13630 net.cpp:399] inception_4b/output -> inception_4b/output
I0403 14:47:04.138276 13630 net.cpp:141] Setting up inception_4b/output
I0403 14:47:04.138300 13630 net.cpp:148] Top shape: 24 512 14 14 (2408448)
I0403 14:47:04.138314 13630 net.cpp:156] Memory required for data: 989857056
I0403 14:47:04.138341 13630 layer_factory.hpp:77] Creating layer inception_4b/output_inception_4b/output_0_split
I0403 14:47:04.138360 13630 net.cpp:91] Creating Layer inception_4b/output_inception_4b/output_0_split
I0403 14:47:04.138375 13630 net.cpp:425] inception_4b/output_inception_4b/output_0_split <- inception_4b/output
I0403 14:47:04.138393 13630 net.cpp:399] inception_4b/output_inception_4b/output_0_split -> inception_4b/output_inception_4b/output_0_split_0
I0403 14:47:04.138414 13630 net.cpp:399] inception_4b/output_inception_4b/output_0_split -> inception_4b/output_inception_4b/output_0_split_1
I0403 14:47:04.138434 13630 net.cpp:399] inception_4b/output_inception_4b/output_0_split -> inception_4b/output_inception_4b/output_0_split_2
I0403 14:47:04.138453 13630 net.cpp:399] inception_4b/output_inception_4b/output_0_split -> inception_4b/output_inception_4b/output_0_split_3
I0403 14:47:04.138536 13630 net.cpp:141] Setting up inception_4b/output_inception_4b/output_0_split
I0403 14:47:04.138561 13630 net.cpp:148] Top shape: 24 512 14 14 (2408448)
I0403 14:47:04.138577 13630 net.cpp:148] Top shape: 24 512 14 14 (2408448)
I0403 14:47:04.138592 13630 net.cpp:148] Top shape: 24 512 14 14 (2408448)
I0403 14:47:04.138612 13630 net.cpp:148] Top shape: 24 512 14 14 (2408448)
I0403 14:47:04.138625 13630 net.cpp:156] Memory required for data: 1028392224
I0403 14:47:04.138639 13630 layer_factory.hpp:77] Creating layer inception_4c/1x1
I0403 14:47:04.138661 13630 net.cpp:91] Creating Layer inception_4c/1x1
I0403 14:47:04.138677 13630 net.cpp:425] inception_4c/1x1 <- inception_4b/output_inception_4b/output_0_split_0
I0403 14:47:04.138695 13630 net.cpp:399] inception_4c/1x1 -> inception_4c/1x1
I0403 14:47:04.140079 13630 net.cpp:141] Setting up inception_4c/1x1
I0403 14:47:04.140106 13630 net.cpp:148] Top shape: 24 128 14 14 (602112)
I0403 14:47:04.140122 13630 net.cpp:156] Memory required for data: 1030800672
I0403 14:47:04.140139 13630 layer_factory.hpp:77] Creating layer inception_4c/relu_1x1
I0403 14:47:04.140161 13630 net.cpp:91] Creating Layer inception_4c/relu_1x1
I0403 14:47:04.140178 13630 net.cpp:425] inception_4c/relu_1x1 <- inception_4c/1x1
I0403 14:47:04.140194 13630 net.cpp:386] inception_4c/relu_1x1 -> inception_4c/1x1 (in-place)
I0403 14:47:04.140373 13630 net.cpp:141] Setting up inception_4c/relu_1x1
I0403 14:47:04.140398 13630 net.cpp:148] Top shape: 24 128 14 14 (602112)
I0403 14:47:04.140411 13630 net.cpp:156] Memory required for data: 1033209120
I0403 14:47:04.140425 13630 layer_factory.hpp:77] Creating layer inception_4c/3x3_reduce
I0403 14:47:04.140447 13630 net.cpp:91] Creating Layer inception_4c/3x3_reduce
I0403 14:47:04.140465 13630 net.cpp:425] inception_4c/3x3_reduce <- inception_4b/output_inception_4b/output_0_split_1
I0403 14:47:04.140486 13630 net.cpp:399] inception_4c/3x3_reduce -> inception_4c/3x3_reduce
I0403 14:47:04.142377 13630 net.cpp:141] Setting up inception_4c/3x3_reduce
I0403 14:47:04.142405 13630 net.cpp:148] Top shape: 24 128 14 14 (602112)
I0403 14:47:04.142421 13630 net.cpp:156] Memory required for data: 1035617568
I0403 14:47:04.142437 13630 layer_factory.hpp:77] Creating layer inception_4c/relu_3x3_reduce
I0403 14:47:04.142455 13630 net.cpp:91] Creating Layer inception_4c/relu_3x3_reduce
I0403 14:47:04.142472 13630 net.cpp:425] inception_4c/relu_3x3_reduce <- inception_4c/3x3_reduce
I0403 14:47:04.142489 13630 net.cpp:386] inception_4c/relu_3x3_reduce -> inception_4c/3x3_reduce (in-place)
I0403 14:47:04.142771 13630 net.cpp:141] Setting up inception_4c/relu_3x3_reduce
I0403 14:47:04.142797 13630 net.cpp:148] Top shape: 24 128 14 14 (602112)
I0403 14:47:04.142812 13630 net.cpp:156] Memory required for data: 1038026016
I0403 14:47:04.142825 13630 layer_factory.hpp:77] Creating layer inception_4c/3x3
I0403 14:47:04.142849 13630 net.cpp:91] Creating Layer inception_4c/3x3
I0403 14:47:04.142866 13630 net.cpp:425] inception_4c/3x3 <- inception_4c/3x3_reduce
I0403 14:47:04.142887 13630 net.cpp:399] inception_4c/3x3 -> inception_4c/3x3
I0403 14:47:04.146416 13630 net.cpp:141] Setting up inception_4c/3x3
I0403 14:47:04.146456 13630 net.cpp:148] Top shape: 24 256 14 14 (1204224)
I0403 14:47:04.146471 13630 net.cpp:156] Memory required for data: 1042842912
I0403 14:47:04.146502 13630 layer_factory.hpp:77] Creating layer inception_4c/relu_3x3
I0403 14:47:04.146524 13630 net.cpp:91] Creating Layer inception_4c/relu_3x3
I0403 14:47:04.146541 13630 net.cpp:425] inception_4c/relu_3x3 <- inception_4c/3x3
I0403 14:47:04.146559 13630 net.cpp:386] inception_4c/relu_3x3 -> inception_4c/3x3 (in-place)
I0403 14:47:04.146740 13630 net.cpp:141] Setting up inception_4c/relu_3x3
I0403 14:47:04.146764 13630 net.cpp:148] Top shape: 24 256 14 14 (1204224)
I0403 14:47:04.146778 13630 net.cpp:156] Memory required for data: 1047659808
I0403 14:47:04.146792 13630 layer_factory.hpp:77] Creating layer inception_4c/5x5_reduce
I0403 14:47:04.146814 13630 net.cpp:91] Creating Layer inception_4c/5x5_reduce
I0403 14:47:04.146831 13630 net.cpp:425] inception_4c/5x5_reduce <- inception_4b/output_inception_4b/output_0_split_2
I0403 14:47:04.146852 13630 net.cpp:399] inception_4c/5x5_reduce -> inception_4c/5x5_reduce
I0403 14:47:04.147918 13630 net.cpp:141] Setting up inception_4c/5x5_reduce
I0403 14:47:04.147945 13630 net.cpp:148] Top shape: 24 24 14 14 (112896)
I0403 14:47:04.147965 13630 net.cpp:156] Memory required for data: 1048111392
I0403 14:47:04.147982 13630 layer_factory.hpp:77] Creating layer inception_4c/relu_5x5_reduce
I0403 14:47:04.148000 13630 net.cpp:91] Creating Layer inception_4c/relu_5x5_reduce
I0403 14:47:04.148016 13630 net.cpp:425] inception_4c/relu_5x5_reduce <- inception_4c/5x5_reduce
I0403 14:47:04.148036 13630 net.cpp:386] inception_4c/relu_5x5_reduce -> inception_4c/5x5_reduce (in-place)
I0403 14:47:04.148217 13630 net.cpp:141] Setting up inception_4c/relu_5x5_reduce
I0403 14:47:04.148241 13630 net.cpp:148] Top shape: 24 24 14 14 (112896)
I0403 14:47:04.148255 13630 net.cpp:156] Memory required for data: 1048562976
I0403 14:47:04.148269 13630 layer_factory.hpp:77] Creating layer inception_4c/5x5
I0403 14:47:04.148291 13630 net.cpp:91] Creating Layer inception_4c/5x5
I0403 14:47:04.148308 13630 net.cpp:425] inception_4c/5x5 <- inception_4c/5x5_reduce
I0403 14:47:04.148327 13630 net.cpp:399] inception_4c/5x5 -> inception_4c/5x5
I0403 14:47:04.149543 13630 net.cpp:141] Setting up inception_4c/5x5
I0403 14:47:04.149569 13630 net.cpp:148] Top shape: 24 64 14 14 (301056)
I0403 14:47:04.149583 13630 net.cpp:156] Memory required for data: 1049767200
I0403 14:47:04.149605 13630 layer_factory.hpp:77] Creating layer inception_4c/relu_5x5
I0403 14:47:04.149626 13630 net.cpp:91] Creating Layer inception_4c/relu_5x5
I0403 14:47:04.149642 13630 net.cpp:425] inception_4c/relu_5x5 <- inception_4c/5x5
I0403 14:47:04.149658 13630 net.cpp:386] inception_4c/relu_5x5 -> inception_4c/5x5 (in-place)
I0403 14:47:04.149936 13630 net.cpp:141] Setting up inception_4c/relu_5x5
I0403 14:47:04.149962 13630 net.cpp:148] Top shape: 24 64 14 14 (301056)
I0403 14:47:04.149976 13630 net.cpp:156] Memory required for data: 1050971424
I0403 14:47:04.149991 13630 layer_factory.hpp:77] Creating layer inception_4c/pool
I0403 14:47:04.150009 13630 net.cpp:91] Creating Layer inception_4c/pool
I0403 14:47:04.150025 13630 net.cpp:425] inception_4c/pool <- inception_4b/output_inception_4b/output_0_split_3
I0403 14:47:04.150043 13630 net.cpp:399] inception_4c/pool -> inception_4c/pool
I0403 14:47:04.150109 13630 net.cpp:141] Setting up inception_4c/pool
I0403 14:47:04.150131 13630 net.cpp:148] Top shape: 24 512 14 14 (2408448)
I0403 14:47:04.150146 13630 net.cpp:156] Memory required for data: 1060605216
I0403 14:47:04.150161 13630 layer_factory.hpp:77] Creating layer inception_4c/pool_proj
I0403 14:47:04.150182 13630 net.cpp:91] Creating Layer inception_4c/pool_proj
I0403 14:47:04.150199 13630 net.cpp:425] inception_4c/pool_proj <- inception_4c/pool
I0403 14:47:04.150219 13630 net.cpp:399] inception_4c/pool_proj -> inception_4c/pool_proj
I0403 14:47:04.151446 13630 net.cpp:141] Setting up inception_4c/pool_proj
I0403 14:47:04.151474 13630 net.cpp:148] Top shape: 24 64 14 14 (301056)
I0403 14:47:04.151504 13630 net.cpp:156] Memory required for data: 1061809440
I0403 14:47:04.151533 13630 layer_factory.hpp:77] Creating layer inception_4c/relu_pool_proj
I0403 14:47:04.151553 13630 net.cpp:91] Creating Layer inception_4c/relu_pool_proj
I0403 14:47:04.151571 13630 net.cpp:425] inception_4c/relu_pool_proj <- inception_4c/pool_proj
I0403 14:47:04.151588 13630 net.cpp:386] inception_4c/relu_pool_proj -> inception_4c/pool_proj (in-place)
I0403 14:47:04.151775 13630 net.cpp:141] Setting up inception_4c/relu_pool_proj
I0403 14:47:04.151800 13630 net.cpp:148] Top shape: 24 64 14 14 (301056)
I0403 14:47:04.151818 13630 net.cpp:156] Memory required for data: 1063013664
I0403 14:47:04.151831 13630 layer_factory.hpp:77] Creating layer inception_4c/output
I0403 14:47:04.151850 13630 net.cpp:91] Creating Layer inception_4c/output
I0403 14:47:04.151866 13630 net.cpp:425] inception_4c/output <- inception_4c/1x1
I0403 14:47:04.151883 13630 net.cpp:425] inception_4c/output <- inception_4c/3x3
I0403 14:47:04.151898 13630 net.cpp:425] inception_4c/output <- inception_4c/5x5
I0403 14:47:04.151913 13630 net.cpp:425] inception_4c/output <- inception_4c/pool_proj
I0403 14:47:04.151929 13630 net.cpp:399] inception_4c/output -> inception_4c/output
I0403 14:47:04.151978 13630 net.cpp:141] Setting up inception_4c/output
I0403 14:47:04.152001 13630 net.cpp:148] Top shape: 24 512 14 14 (2408448)
I0403 14:47:04.152016 13630 net.cpp:156] Memory required for data: 1072647456
I0403 14:47:04.152030 13630 layer_factory.hpp:77] Creating layer inception_4c/output_inception_4c/output_0_split
I0403 14:47:04.152048 13630 net.cpp:91] Creating Layer inception_4c/output_inception_4c/output_0_split
I0403 14:47:04.152063 13630 net.cpp:425] inception_4c/output_inception_4c/output_0_split <- inception_4c/output
I0403 14:47:04.152083 13630 net.cpp:399] inception_4c/output_inception_4c/output_0_split -> inception_4c/output_inception_4c/output_0_split_0
I0403 14:47:04.152103 13630 net.cpp:399] inception_4c/output_inception_4c/output_0_split -> inception_4c/output_inception_4c/output_0_split_1
I0403 14:47:04.152124 13630 net.cpp:399] inception_4c/output_inception_4c/output_0_split -> inception_4c/output_inception_4c/output_0_split_2
I0403 14:47:04.152145 13630 net.cpp:399] inception_4c/output_inception_4c/output_0_split -> inception_4c/output_inception_4c/output_0_split_3
I0403 14:47:04.152231 13630 net.cpp:141] Setting up inception_4c/output_inception_4c/output_0_split
I0403 14:47:04.152256 13630 net.cpp:148] Top shape: 24 512 14 14 (2408448)
I0403 14:47:04.152274 13630 net.cpp:148] Top shape: 24 512 14 14 (2408448)
I0403 14:47:04.152290 13630 net.cpp:148] Top shape: 24 512 14 14 (2408448)
I0403 14:47:04.152305 13630 net.cpp:148] Top shape: 24 512 14 14 (2408448)
I0403 14:47:04.152319 13630 net.cpp:156] Memory required for data: 1111182624
I0403 14:47:04.152333 13630 layer_factory.hpp:77] Creating layer inception_4d/1x1
I0403 14:47:04.152355 13630 net.cpp:91] Creating Layer inception_4d/1x1
I0403 14:47:04.152372 13630 net.cpp:425] inception_4d/1x1 <- inception_4c/output_inception_4c/output_0_split_0
I0403 14:47:04.152390 13630 net.cpp:399] inception_4d/1x1 -> inception_4d/1x1
I0403 14:47:04.153767 13630 net.cpp:141] Setting up inception_4d/1x1
I0403 14:47:04.153797 13630 net.cpp:148] Top shape: 24 112 14 14 (526848)
I0403 14:47:04.153813 13630 net.cpp:156] Memory required for data: 1113290016
I0403 14:47:04.153831 13630 layer_factory.hpp:77] Creating layer inception_4d/relu_1x1
I0403 14:47:04.153851 13630 net.cpp:91] Creating Layer inception_4d/relu_1x1
I0403 14:47:04.153867 13630 net.cpp:425] inception_4d/relu_1x1 <- inception_4d/1x1
I0403 14:47:04.153887 13630 net.cpp:386] inception_4d/relu_1x1 -> inception_4d/1x1 (in-place)
I0403 14:47:04.154069 13630 net.cpp:141] Setting up inception_4d/relu_1x1
I0403 14:47:04.154094 13630 net.cpp:148] Top shape: 24 112 14 14 (526848)
I0403 14:47:04.154109 13630 net.cpp:156] Memory required for data: 1115397408
I0403 14:47:04.154124 13630 layer_factory.hpp:77] Creating layer inception_4d/3x3_reduce
I0403 14:47:04.154160 13630 net.cpp:91] Creating Layer inception_4d/3x3_reduce
I0403 14:47:04.154178 13630 net.cpp:425] inception_4d/3x3_reduce <- inception_4c/output_inception_4c/output_0_split_1
I0403 14:47:04.154201 13630 net.cpp:399] inception_4d/3x3_reduce -> inception_4d/3x3_reduce
I0403 14:47:04.155720 13630 net.cpp:141] Setting up inception_4d/3x3_reduce
I0403 14:47:04.155748 13630 net.cpp:148] Top shape: 24 144 14 14 (677376)
I0403 14:47:04.155766 13630 net.cpp:156] Memory required for data: 1118106912
I0403 14:47:04.155784 13630 layer_factory.hpp:77] Creating layer inception_4d/relu_3x3_reduce
I0403 14:47:04.155802 13630 net.cpp:91] Creating Layer inception_4d/relu_3x3_reduce
I0403 14:47:04.155818 13630 net.cpp:425] inception_4d/relu_3x3_reduce <- inception_4d/3x3_reduce
I0403 14:47:04.155835 13630 net.cpp:386] inception_4d/relu_3x3_reduce -> inception_4d/3x3_reduce (in-place)
I0403 14:47:04.156129 13630 net.cpp:141] Setting up inception_4d/relu_3x3_reduce
I0403 14:47:04.156155 13630 net.cpp:148] Top shape: 24 144 14 14 (677376)
I0403 14:47:04.156174 13630 net.cpp:156] Memory required for data: 1120816416
I0403 14:47:04.156188 13630 layer_factory.hpp:77] Creating layer inception_4d/3x3
I0403 14:47:04.156208 13630 net.cpp:91] Creating Layer inception_4d/3x3
I0403 14:47:04.156226 13630 net.cpp:425] inception_4d/3x3 <- inception_4d/3x3_reduce
I0403 14:47:04.156247 13630 net.cpp:399] inception_4d/3x3 -> inception_4d/3x3
I0403 14:47:04.160495 13630 net.cpp:141] Setting up inception_4d/3x3
I0403 14:47:04.160526 13630 net.cpp:148] Top shape: 24 288 14 14 (1354752)
I0403 14:47:04.160542 13630 net.cpp:156] Memory required for data: 1126235424
I0403 14:47:04.160559 13630 layer_factory.hpp:77] Creating layer inception_4d/relu_3x3
I0403 14:47:04.160578 13630 net.cpp:91] Creating Layer inception_4d/relu_3x3
I0403 14:47:04.160595 13630 net.cpp:425] inception_4d/relu_3x3 <- inception_4d/3x3
I0403 14:47:04.160619 13630 net.cpp:386] inception_4d/relu_3x3 -> inception_4d/3x3 (in-place)
I0403 14:47:04.160805 13630 net.cpp:141] Setting up inception_4d/relu_3x3
I0403 14:47:04.160830 13630 net.cpp:148] Top shape: 24 288 14 14 (1354752)
I0403 14:47:04.160845 13630 net.cpp:156] Memory required for data: 1131654432
I0403 14:47:04.160859 13630 layer_factory.hpp:77] Creating layer inception_4d/5x5_reduce
I0403 14:47:04.160881 13630 net.cpp:91] Creating Layer inception_4d/5x5_reduce
I0403 14:47:04.160899 13630 net.cpp:425] inception_4d/5x5_reduce <- inception_4c/output_inception_4c/output_0_split_2
I0403 14:47:04.160922 13630 net.cpp:399] inception_4d/5x5_reduce -> inception_4d/5x5_reduce
I0403 14:47:04.162075 13630 net.cpp:141] Setting up inception_4d/5x5_reduce
I0403 14:47:04.162106 13630 net.cpp:148] Top shape: 24 32 14 14 (150528)
I0403 14:47:04.162122 13630 net.cpp:156] Memory required for data: 1132256544
I0403 14:47:04.162139 13630 layer_factory.hpp:77] Creating layer inception_4d/relu_5x5_reduce
I0403 14:47:04.162158 13630 net.cpp:91] Creating Layer inception_4d/relu_5x5_reduce
I0403 14:47:04.162173 13630 net.cpp:425] inception_4d/relu_5x5_reduce <- inception_4d/5x5_reduce
I0403 14:47:04.162192 13630 net.cpp:386] inception_4d/relu_5x5_reduce -> inception_4d/5x5_reduce (in-place)
I0403 14:47:04.162380 13630 net.cpp:141] Setting up inception_4d/relu_5x5_reduce
I0403 14:47:04.162405 13630 net.cpp:148] Top shape: 24 32 14 14 (150528)
I0403 14:47:04.162420 13630 net.cpp:156] Memory required for data: 1132858656
I0403 14:47:04.162434 13630 layer_factory.hpp:77] Creating layer inception_4d/5x5
I0403 14:47:04.162456 13630 net.cpp:91] Creating Layer inception_4d/5x5
I0403 14:47:04.162474 13630 net.cpp:425] inception_4d/5x5 <- inception_4d/5x5_reduce
I0403 14:47:04.162497 13630 net.cpp:399] inception_4d/5x5 -> inception_4d/5x5
I0403 14:47:04.163982 13630 net.cpp:141] Setting up inception_4d/5x5
I0403 14:47:04.164011 13630 net.cpp:148] Top shape: 24 64 14 14 (301056)
I0403 14:47:04.164026 13630 net.cpp:156] Memory required for data: 1134062880
I0403 14:47:04.164044 13630 layer_factory.hpp:77] Creating layer inception_4d/relu_5x5
I0403 14:47:04.164082 13630 net.cpp:91] Creating Layer inception_4d/relu_5x5
I0403 14:47:04.164099 13630 net.cpp:425] inception_4d/relu_5x5 <- inception_4d/5x5
I0403 14:47:04.164118 13630 net.cpp:386] inception_4d/relu_5x5 -> inception_4d/5x5 (in-place)
I0403 14:47:04.164499 13630 net.cpp:141] Setting up inception_4d/relu_5x5
I0403 14:47:04.164527 13630 net.cpp:148] Top shape: 24 64 14 14 (301056)
I0403 14:47:04.164543 13630 net.cpp:156] Memory required for data: 1135267104
I0403 14:47:04.164557 13630 layer_factory.hpp:77] Creating layer inception_4d/pool
I0403 14:47:04.164575 13630 net.cpp:91] Creating Layer inception_4d/pool
I0403 14:47:04.164592 13630 net.cpp:425] inception_4d/pool <- inception_4c/output_inception_4c/output_0_split_3
I0403 14:47:04.164624 13630 net.cpp:399] inception_4d/pool -> inception_4d/pool
I0403 14:47:04.164696 13630 net.cpp:141] Setting up inception_4d/pool
I0403 14:47:04.164721 13630 net.cpp:148] Top shape: 24 512 14 14 (2408448)
I0403 14:47:04.164736 13630 net.cpp:156] Memory required for data: 1144900896
I0403 14:47:04.164751 13630 layer_factory.hpp:77] Creating layer inception_4d/pool_proj
I0403 14:47:04.164772 13630 net.cpp:91] Creating Layer inception_4d/pool_proj
I0403 14:47:04.164790 13630 net.cpp:425] inception_4d/pool_proj <- inception_4d/pool
I0403 14:47:04.164811 13630 net.cpp:399] inception_4d/pool_proj -> inception_4d/pool_proj
I0403 14:47:04.166570 13630 net.cpp:141] Setting up inception_4d/pool_proj
I0403 14:47:04.166604 13630 net.cpp:148] Top shape: 24 64 14 14 (301056)
I0403 14:47:04.166621 13630 net.cpp:156] Memory required for data: 1146105120
I0403 14:47:04.166640 13630 layer_factory.hpp:77] Creating layer inception_4d/relu_pool_proj
I0403 14:47:04.166657 13630 net.cpp:91] Creating Layer inception_4d/relu_pool_proj
I0403 14:47:04.166673 13630 net.cpp:425] inception_4d/relu_pool_proj <- inception_4d/pool_proj
I0403 14:47:04.166693 13630 net.cpp:386] inception_4d/relu_pool_proj -> inception_4d/pool_proj (in-place)
I0403 14:47:04.166883 13630 net.cpp:141] Setting up inception_4d/relu_pool_proj
I0403 14:47:04.166909 13630 net.cpp:148] Top shape: 24 64 14 14 (301056)
I0403 14:47:04.166925 13630 net.cpp:156] Memory required for data: 1147309344
I0403 14:47:04.166940 13630 layer_factory.hpp:77] Creating layer inception_4d/output
I0403 14:47:04.166960 13630 net.cpp:91] Creating Layer inception_4d/output
I0403 14:47:04.166975 13630 net.cpp:425] inception_4d/output <- inception_4d/1x1
I0403 14:47:04.166991 13630 net.cpp:425] inception_4d/output <- inception_4d/3x3
I0403 14:47:04.167011 13630 net.cpp:425] inception_4d/output <- inception_4d/5x5
I0403 14:47:04.167026 13630 net.cpp:425] inception_4d/output <- inception_4d/pool_proj
I0403 14:47:04.167043 13630 net.cpp:399] inception_4d/output -> inception_4d/output
I0403 14:47:04.167089 13630 net.cpp:141] Setting up inception_4d/output
I0403 14:47:04.167115 13630 net.cpp:148] Top shape: 24 528 14 14 (2483712)
I0403 14:47:04.167131 13630 net.cpp:156] Memory required for data: 1157244192
I0403 14:47:04.167145 13630 layer_factory.hpp:77] Creating layer inception_4d/output_inception_4d/output_0_split
I0403 14:47:04.167163 13630 net.cpp:91] Creating Layer inception_4d/output_inception_4d/output_0_split
I0403 14:47:04.167179 13630 net.cpp:425] inception_4d/output_inception_4d/output_0_split <- inception_4d/output
I0403 14:47:04.167198 13630 net.cpp:399] inception_4d/output_inception_4d/output_0_split -> inception_4d/output_inception_4d/output_0_split_0
I0403 14:47:04.167220 13630 net.cpp:399] inception_4d/output_inception_4d/output_0_split -> inception_4d/output_inception_4d/output_0_split_1
I0403 14:47:04.167242 13630 net.cpp:399] inception_4d/output_inception_4d/output_0_split -> inception_4d/output_inception_4d/output_0_split_2
I0403 14:47:04.167263 13630 net.cpp:399] inception_4d/output_inception_4d/output_0_split -> inception_4d/output_inception_4d/output_0_split_3
I0403 14:47:04.167284 13630 net.cpp:399] inception_4d/output_inception_4d/output_0_split -> inception_4d/output_inception_4d/output_0_split_4
I0403 14:47:04.167387 13630 net.cpp:141] Setting up inception_4d/output_inception_4d/output_0_split
I0403 14:47:04.167423 13630 net.cpp:148] Top shape: 24 528 14 14 (2483712)
I0403 14:47:04.167443 13630 net.cpp:148] Top shape: 24 528 14 14 (2483712)
I0403 14:47:04.167459 13630 net.cpp:148] Top shape: 24 528 14 14 (2483712)
I0403 14:47:04.167475 13630 net.cpp:148] Top shape: 24 528 14 14 (2483712)
I0403 14:47:04.167490 13630 net.cpp:148] Top shape: 24 528 14 14 (2483712)
I0403 14:47:04.167503 13630 net.cpp:156] Memory required for data: 1206918432
I0403 14:47:04.167517 13630 layer_factory.hpp:77] Creating layer loss2/ave_pool
I0403 14:47:04.167536 13630 net.cpp:91] Creating Layer loss2/ave_pool
I0403 14:47:04.167552 13630 net.cpp:425] loss2/ave_pool <- inception_4d/output_inception_4d/output_0_split_0
I0403 14:47:04.167572 13630 net.cpp:399] loss2/ave_pool -> loss2/ave_pool
I0403 14:47:04.167891 13630 net.cpp:141] Setting up loss2/ave_pool
I0403 14:47:04.167917 13630 net.cpp:148] Top shape: 24 528 4 4 (202752)
I0403 14:47:04.167933 13630 net.cpp:156] Memory required for data: 1207729440
I0403 14:47:04.167948 13630 layer_factory.hpp:77] Creating layer loss2/conv
I0403 14:47:04.167970 13630 net.cpp:91] Creating Layer loss2/conv
I0403 14:47:04.167989 13630 net.cpp:425] loss2/conv <- loss2/ave_pool
I0403 14:47:04.168009 13630 net.cpp:399] loss2/conv -> loss2/conv
I0403 14:47:04.169883 13630 net.cpp:141] Setting up loss2/conv
I0403 14:47:04.169912 13630 net.cpp:148] Top shape: 24 128 4 4 (49152)
I0403 14:47:04.169929 13630 net.cpp:156] Memory required for data: 1207926048
I0403 14:47:04.169946 13630 layer_factory.hpp:77] Creating layer loss2/relu_conv
I0403 14:47:04.169967 13630 net.cpp:91] Creating Layer loss2/relu_conv
I0403 14:47:04.169986 13630 net.cpp:425] loss2/relu_conv <- loss2/conv
I0403 14:47:04.170004 13630 net.cpp:386] loss2/relu_conv -> loss2/conv (in-place)
I0403 14:47:04.170284 13630 net.cpp:141] Setting up loss2/relu_conv
I0403 14:47:04.170310 13630 net.cpp:148] Top shape: 24 128 4 4 (49152)
I0403 14:47:04.170325 13630 net.cpp:156] Memory required for data: 1208122656
I0403 14:47:04.170338 13630 layer_factory.hpp:77] Creating layer loss2/fc
I0403 14:47:04.170359 13630 net.cpp:91] Creating Layer loss2/fc
I0403 14:47:04.170377 13630 net.cpp:425] loss2/fc <- loss2/conv
I0403 14:47:04.170395 13630 net.cpp:399] loss2/fc -> loss2/fc
I0403 14:47:04.187996 13630 net.cpp:141] Setting up loss2/fc
I0403 14:47:04.188042 13630 net.cpp:148] Top shape: 24 1024 (24576)
I0403 14:47:04.188058 13630 net.cpp:156] Memory required for data: 1208220960
I0403 14:47:04.188078 13630 layer_factory.hpp:77] Creating layer loss2/relu_fc
I0403 14:47:04.188097 13630 net.cpp:91] Creating Layer loss2/relu_fc
I0403 14:47:04.188114 13630 net.cpp:425] loss2/relu_fc <- loss2/fc
I0403 14:47:04.188135 13630 net.cpp:386] loss2/relu_fc -> loss2/fc (in-place)
I0403 14:47:04.188458 13630 net.cpp:141] Setting up loss2/relu_fc
I0403 14:47:04.188484 13630 net.cpp:148] Top shape: 24 1024 (24576)
I0403 14:47:04.188499 13630 net.cpp:156] Memory required for data: 1208319264
I0403 14:47:04.188513 13630 layer_factory.hpp:77] Creating layer loss2/drop_fc
I0403 14:47:04.188531 13630 net.cpp:91] Creating Layer loss2/drop_fc
I0403 14:47:04.188549 13630 net.cpp:425] loss2/drop_fc <- loss2/fc
I0403 14:47:04.188567 13630 net.cpp:386] loss2/drop_fc -> loss2/fc (in-place)
I0403 14:47:04.188621 13630 net.cpp:141] Setting up loss2/drop_fc
I0403 14:47:04.188644 13630 net.cpp:148] Top shape: 24 1024 (24576)
I0403 14:47:04.188658 13630 net.cpp:156] Memory required for data: 1208417568
I0403 14:47:04.188673 13630 layer_factory.hpp:77] Creating layer loss2/classifier_plantvillage
I0403 14:47:04.188694 13630 net.cpp:91] Creating Layer loss2/classifier_plantvillage
I0403 14:47:04.188712 13630 net.cpp:425] loss2/classifier_plantvillage <- loss2/fc
I0403 14:47:04.188732 13630 net.cpp:399] loss2/classifier_plantvillage -> loss2/classifier_plantvillage
I0403 14:47:04.189139 13630 net.cpp:141] Setting up loss2/classifier_plantvillage
I0403 14:47:04.189167 13630 net.cpp:148] Top shape: 24 38 (912)
I0403 14:47:04.189183 13630 net.cpp:156] Memory required for data: 1208421216
I0403 14:47:04.189229 13630 layer_factory.hpp:77] Creating layer loss2/classifier_plantvillage_loss2/classifier_plantvillage_0_split
I0403 14:47:04.189247 13630 net.cpp:91] Creating Layer loss2/classifier_plantvillage_loss2/classifier_plantvillage_0_split
I0403 14:47:04.189263 13630 net.cpp:425] loss2/classifier_plantvillage_loss2/classifier_plantvillage_0_split <- loss2/classifier_plantvillage
I0403 14:47:04.189280 13630 net.cpp:399] loss2/classifier_plantvillage_loss2/classifier_plantvillage_0_split -> loss2/classifier_plantvillage_loss2/classifier_plantvillage_0_split_0
I0403 14:47:04.189304 13630 net.cpp:399] loss2/classifier_plantvillage_loss2/classifier_plantvillage_0_split -> loss2/classifier_plantvillage_loss2/classifier_plantvillage_0_split_1
I0403 14:47:04.189326 13630 net.cpp:399] loss2/classifier_plantvillage_loss2/classifier_plantvillage_0_split -> loss2/classifier_plantvillage_loss2/classifier_plantvillage_0_split_2
I0403 14:47:04.189404 13630 net.cpp:141] Setting up loss2/classifier_plantvillage_loss2/classifier_plantvillage_0_split
I0403 14:47:04.189427 13630 net.cpp:148] Top shape: 24 38 (912)
I0403 14:47:04.189445 13630 net.cpp:148] Top shape: 24 38 (912)
I0403 14:47:04.189460 13630 net.cpp:148] Top shape: 24 38 (912)
I0403 14:47:04.189474 13630 net.cpp:156] Memory required for data: 1208432160
I0403 14:47:04.189488 13630 layer_factory.hpp:77] Creating layer inception_4e/1x1
I0403 14:47:04.189509 13630 net.cpp:91] Creating Layer inception_4e/1x1
I0403 14:47:04.189527 13630 net.cpp:425] inception_4e/1x1 <- inception_4d/output_inception_4d/output_0_split_1
I0403 14:47:04.189548 13630 net.cpp:399] inception_4e/1x1 -> inception_4e/1x1
I0403 14:47:04.191398 13630 net.cpp:141] Setting up inception_4e/1x1
I0403 14:47:04.191426 13630 net.cpp:148] Top shape: 24 256 14 14 (1204224)
I0403 14:47:04.191442 13630 net.cpp:156] Memory required for data: 1213249056
I0403 14:47:04.191462 13630 layer_factory.hpp:77] Creating layer inception_4e/relu_1x1
I0403 14:47:04.191483 13630 net.cpp:91] Creating Layer inception_4e/relu_1x1
I0403 14:47:04.191498 13630 net.cpp:425] inception_4e/relu_1x1 <- inception_4e/1x1
I0403 14:47:04.191516 13630 net.cpp:386] inception_4e/relu_1x1 -> inception_4e/1x1 (in-place)
I0403 14:47:04.191822 13630 net.cpp:141] Setting up inception_4e/relu_1x1
I0403 14:47:04.191848 13630 net.cpp:148] Top shape: 24 256 14 14 (1204224)
I0403 14:47:04.191864 13630 net.cpp:156] Memory required for data: 1218065952
I0403 14:47:04.191879 13630 layer_factory.hpp:77] Creating layer inception_4e/3x3_reduce
I0403 14:47:04.191900 13630 net.cpp:91] Creating Layer inception_4e/3x3_reduce
I0403 14:47:04.191917 13630 net.cpp:425] inception_4e/3x3_reduce <- inception_4d/output_inception_4d/output_0_split_2
I0403 14:47:04.191939 13630 net.cpp:399] inception_4e/3x3_reduce -> inception_4e/3x3_reduce
I0403 14:47:04.194108 13630 net.cpp:141] Setting up inception_4e/3x3_reduce
I0403 14:47:04.194135 13630 net.cpp:148] Top shape: 24 160 14 14 (752640)
I0403 14:47:04.194151 13630 net.cpp:156] Memory required for data: 1221076512
I0403 14:47:04.194169 13630 layer_factory.hpp:77] Creating layer inception_4e/relu_3x3_reduce
I0403 14:47:04.194190 13630 net.cpp:91] Creating Layer inception_4e/relu_3x3_reduce
I0403 14:47:04.194208 13630 net.cpp:425] inception_4e/relu_3x3_reduce <- inception_4e/3x3_reduce
I0403 14:47:04.194226 13630 net.cpp:386] inception_4e/relu_3x3_reduce -> inception_4e/3x3_reduce (in-place)
I0403 14:47:04.194413 13630 net.cpp:141] Setting up inception_4e/relu_3x3_reduce
I0403 14:47:04.194437 13630 net.cpp:148] Top shape: 24 160 14 14 (752640)
I0403 14:47:04.194453 13630 net.cpp:156] Memory required for data: 1224087072
I0403 14:47:04.194468 13630 layer_factory.hpp:77] Creating layer inception_4e/3x3
I0403 14:47:04.194491 13630 net.cpp:91] Creating Layer inception_4e/3x3
I0403 14:47:04.194509 13630 net.cpp:425] inception_4e/3x3 <- inception_4e/3x3_reduce
I0403 14:47:04.194527 13630 net.cpp:399] inception_4e/3x3 -> inception_4e/3x3
I0403 14:47:04.199558 13630 net.cpp:141] Setting up inception_4e/3x3
I0403 14:47:04.199604 13630 net.cpp:148] Top shape: 24 320 14 14 (1505280)
I0403 14:47:04.199621 13630 net.cpp:156] Memory required for data: 1230108192
I0403 14:47:04.199638 13630 layer_factory.hpp:77] Creating layer inception_4e/relu_3x3
I0403 14:47:04.199658 13630 net.cpp:91] Creating Layer inception_4e/relu_3x3
I0403 14:47:04.199676 13630 net.cpp:425] inception_4e/relu_3x3 <- inception_4e/3x3
I0403 14:47:04.199692 13630 net.cpp:386] inception_4e/relu_3x3 -> inception_4e/3x3 (in-place)
I0403 14:47:04.199996 13630 net.cpp:141] Setting up inception_4e/relu_3x3
I0403 14:47:04.200026 13630 net.cpp:148] Top shape: 24 320 14 14 (1505280)
I0403 14:47:04.200042 13630 net.cpp:156] Memory required for data: 1236129312
I0403 14:47:04.200057 13630 layer_factory.hpp:77] Creating layer inception_4e/5x5_reduce
I0403 14:47:04.200081 13630 net.cpp:91] Creating Layer inception_4e/5x5_reduce
I0403 14:47:04.200099 13630 net.cpp:425] inception_4e/5x5_reduce <- inception_4d/output_inception_4d/output_0_split_3
I0403 14:47:04.200119 13630 net.cpp:399] inception_4e/5x5_reduce -> inception_4e/5x5_reduce
I0403 14:47:04.201195 13630 net.cpp:141] Setting up inception_4e/5x5_reduce
I0403 14:47:04.201225 13630 net.cpp:148] Top shape: 24 32 14 14 (150528)
I0403 14:47:04.201241 13630 net.cpp:156] Memory required for data: 1236731424
I0403 14:47:04.201258 13630 layer_factory.hpp:77] Creating layer inception_4e/relu_5x5_reduce
I0403 14:47:04.201278 13630 net.cpp:91] Creating Layer inception_4e/relu_5x5_reduce
I0403 14:47:04.201299 13630 net.cpp:425] inception_4e/relu_5x5_reduce <- inception_4e/5x5_reduce
I0403 14:47:04.201316 13630 net.cpp:386] inception_4e/relu_5x5_reduce -> inception_4e/5x5_reduce (in-place)
I0403 14:47:04.201619 13630 net.cpp:141] Setting up inception_4e/relu_5x5_reduce
I0403 14:47:04.201647 13630 net.cpp:148] Top shape: 24 32 14 14 (150528)
I0403 14:47:04.201661 13630 net.cpp:156] Memory required for data: 1237333536
I0403 14:47:04.201676 13630 layer_factory.hpp:77] Creating layer inception_4e/5x5
I0403 14:47:04.201714 13630 net.cpp:91] Creating Layer inception_4e/5x5
I0403 14:47:04.201733 13630 net.cpp:425] inception_4e/5x5 <- inception_4e/5x5_reduce
I0403 14:47:04.201752 13630 net.cpp:399] inception_4e/5x5 -> inception_4e/5x5
I0403 14:47:04.203613 13630 net.cpp:141] Setting up inception_4e/5x5
I0403 14:47:04.203642 13630 net.cpp:148] Top shape: 24 128 14 14 (602112)
I0403 14:47:04.203660 13630 net.cpp:156] Memory required for data: 1239741984
I0403 14:47:04.203678 13630 layer_factory.hpp:77] Creating layer inception_4e/relu_5x5
I0403 14:47:04.203696 13630 net.cpp:91] Creating Layer inception_4e/relu_5x5
I0403 14:47:04.203716 13630 net.cpp:425] inception_4e/relu_5x5 <- inception_4e/5x5
I0403 14:47:04.203735 13630 net.cpp:386] inception_4e/relu_5x5 -> inception_4e/5x5 (in-place)
I0403 14:47:04.203936 13630 net.cpp:141] Setting up inception_4e/relu_5x5
I0403 14:47:04.203961 13630 net.cpp:148] Top shape: 24 128 14 14 (602112)
I0403 14:47:04.203976 13630 net.cpp:156] Memory required for data: 1242150432
I0403 14:47:04.203991 13630 layer_factory.hpp:77] Creating layer inception_4e/pool
I0403 14:47:04.204012 13630 net.cpp:91] Creating Layer inception_4e/pool
I0403 14:47:04.204030 13630 net.cpp:425] inception_4e/pool <- inception_4d/output_inception_4d/output_0_split_4
I0403 14:47:04.204048 13630 net.cpp:399] inception_4e/pool -> inception_4e/pool
I0403 14:47:04.204120 13630 net.cpp:141] Setting up inception_4e/pool
I0403 14:47:04.204145 13630 net.cpp:148] Top shape: 24 528 14 14 (2483712)
I0403 14:47:04.204160 13630 net.cpp:156] Memory required for data: 1252085280
I0403 14:47:04.204174 13630 layer_factory.hpp:77] Creating layer inception_4e/pool_proj
I0403 14:47:04.204195 13630 net.cpp:91] Creating Layer inception_4e/pool_proj
I0403 14:47:04.204213 13630 net.cpp:425] inception_4e/pool_proj <- inception_4e/pool
I0403 14:47:04.204233 13630 net.cpp:399] inception_4e/pool_proj -> inception_4e/pool_proj
I0403 14:47:04.205754 13630 net.cpp:141] Setting up inception_4e/pool_proj
I0403 14:47:04.205783 13630 net.cpp:148] Top shape: 24 128 14 14 (602112)
I0403 14:47:04.205812 13630 net.cpp:156] Memory required for data: 1254493728
I0403 14:47:04.205832 13630 layer_factory.hpp:77] Creating layer inception_4e/relu_pool_proj
I0403 14:47:04.205852 13630 net.cpp:91] Creating Layer inception_4e/relu_pool_proj
I0403 14:47:04.205868 13630 net.cpp:425] inception_4e/relu_pool_proj <- inception_4e/pool_proj
I0403 14:47:04.205886 13630 net.cpp:386] inception_4e/relu_pool_proj -> inception_4e/pool_proj (in-place)
I0403 14:47:04.206187 13630 net.cpp:141] Setting up inception_4e/relu_pool_proj
I0403 14:47:04.206212 13630 net.cpp:148] Top shape: 24 128 14 14 (602112)
I0403 14:47:04.206228 13630 net.cpp:156] Memory required for data: 1256902176
I0403 14:47:04.206243 13630 layer_factory.hpp:77] Creating layer inception_4e/output
I0403 14:47:04.206260 13630 net.cpp:91] Creating Layer inception_4e/output
I0403 14:47:04.206275 13630 net.cpp:425] inception_4e/output <- inception_4e/1x1
I0403 14:47:04.206293 13630 net.cpp:425] inception_4e/output <- inception_4e/3x3
I0403 14:47:04.206310 13630 net.cpp:425] inception_4e/output <- inception_4e/5x5
I0403 14:47:04.206324 13630 net.cpp:425] inception_4e/output <- inception_4e/pool_proj
I0403 14:47:04.206343 13630 net.cpp:399] inception_4e/output -> inception_4e/output
I0403 14:47:04.206393 13630 net.cpp:141] Setting up inception_4e/output
I0403 14:47:04.206419 13630 net.cpp:148] Top shape: 24 832 14 14 (3913728)
I0403 14:47:04.206434 13630 net.cpp:156] Memory required for data: 1272557088
I0403 14:47:04.206449 13630 layer_factory.hpp:77] Creating layer pool4/3x3_s2
I0403 14:47:04.206466 13630 net.cpp:91] Creating Layer pool4/3x3_s2
I0403 14:47:04.206481 13630 net.cpp:425] pool4/3x3_s2 <- inception_4e/output
I0403 14:47:04.206499 13630 net.cpp:399] pool4/3x3_s2 -> pool4/3x3_s2
I0403 14:47:04.206568 13630 net.cpp:141] Setting up pool4/3x3_s2
I0403 14:47:04.206593 13630 net.cpp:148] Top shape: 24 832 7 7 (978432)
I0403 14:47:04.206627 13630 net.cpp:156] Memory required for data: 1276470816
I0403 14:47:04.206643 13630 layer_factory.hpp:77] Creating layer pool4/3x3_s2_pool4/3x3_s2_0_split
I0403 14:47:04.206661 13630 net.cpp:91] Creating Layer pool4/3x3_s2_pool4/3x3_s2_0_split
I0403 14:47:04.206677 13630 net.cpp:425] pool4/3x3_s2_pool4/3x3_s2_0_split <- pool4/3x3_s2
I0403 14:47:04.206697 13630 net.cpp:399] pool4/3x3_s2_pool4/3x3_s2_0_split -> pool4/3x3_s2_pool4/3x3_s2_0_split_0
I0403 14:47:04.206718 13630 net.cpp:399] pool4/3x3_s2_pool4/3x3_s2_0_split -> pool4/3x3_s2_pool4/3x3_s2_0_split_1
I0403 14:47:04.206739 13630 net.cpp:399] pool4/3x3_s2_pool4/3x3_s2_0_split -> pool4/3x3_s2_pool4/3x3_s2_0_split_2
I0403 14:47:04.206760 13630 net.cpp:399] pool4/3x3_s2_pool4/3x3_s2_0_split -> pool4/3x3_s2_pool4/3x3_s2_0_split_3
I0403 14:47:04.206856 13630 net.cpp:141] Setting up pool4/3x3_s2_pool4/3x3_s2_0_split
I0403 14:47:04.206881 13630 net.cpp:148] Top shape: 24 832 7 7 (978432)
I0403 14:47:04.206898 13630 net.cpp:148] Top shape: 24 832 7 7 (978432)
I0403 14:47:04.206914 13630 net.cpp:148] Top shape: 24 832 7 7 (978432)
I0403 14:47:04.206929 13630 net.cpp:148] Top shape: 24 832 7 7 (978432)
I0403 14:47:04.206944 13630 net.cpp:156] Memory required for data: 1292125728
I0403 14:47:04.206959 13630 layer_factory.hpp:77] Creating layer inception_5a/1x1
I0403 14:47:04.206981 13630 net.cpp:91] Creating Layer inception_5a/1x1
I0403 14:47:04.207000 13630 net.cpp:425] inception_5a/1x1 <- pool4/3x3_s2_pool4/3x3_s2_0_split_0
I0403 14:47:04.207020 13630 net.cpp:399] inception_5a/1x1 -> inception_5a/1x1
I0403 14:47:04.210019 13630 net.cpp:141] Setting up inception_5a/1x1
I0403 14:47:04.210049 13630 net.cpp:148] Top shape: 24 256 7 7 (301056)
I0403 14:47:04.210067 13630 net.cpp:156] Memory required for data: 1293329952
I0403 14:47:04.210085 13630 layer_factory.hpp:77] Creating layer inception_5a/relu_1x1
I0403 14:47:04.210106 13630 net.cpp:91] Creating Layer inception_5a/relu_1x1
I0403 14:47:04.210124 13630 net.cpp:425] inception_5a/relu_1x1 <- inception_5a/1x1
I0403 14:47:04.210144 13630 net.cpp:386] inception_5a/relu_1x1 -> inception_5a/1x1 (in-place)
I0403 14:47:04.210469 13630 net.cpp:141] Setting up inception_5a/relu_1x1
I0403 14:47:04.210497 13630 net.cpp:148] Top shape: 24 256 7 7 (301056)
I0403 14:47:04.210513 13630 net.cpp:156] Memory required for data: 1294534176
I0403 14:47:04.210528 13630 layer_factory.hpp:77] Creating layer inception_5a/3x3_reduce
I0403 14:47:04.210551 13630 net.cpp:91] Creating Layer inception_5a/3x3_reduce
I0403 14:47:04.210571 13630 net.cpp:425] inception_5a/3x3_reduce <- pool4/3x3_s2_pool4/3x3_s2_0_split_1
I0403 14:47:04.210592 13630 net.cpp:399] inception_5a/3x3_reduce -> inception_5a/3x3_reduce
I0403 14:47:04.213135 13630 net.cpp:141] Setting up inception_5a/3x3_reduce
I0403 14:47:04.213166 13630 net.cpp:148] Top shape: 24 160 7 7 (188160)
I0403 14:47:04.213183 13630 net.cpp:156] Memory required for data: 1295286816
I0403 14:47:04.213202 13630 layer_factory.hpp:77] Creating layer inception_5a/relu_3x3_reduce
I0403 14:47:04.213222 13630 net.cpp:91] Creating Layer inception_5a/relu_3x3_reduce
I0403 14:47:04.213239 13630 net.cpp:425] inception_5a/relu_3x3_reduce <- inception_5a/3x3_reduce
I0403 14:47:04.213258 13630 net.cpp:386] inception_5a/relu_3x3_reduce -> inception_5a/3x3_reduce (in-place)
I0403 14:47:04.213455 13630 net.cpp:141] Setting up inception_5a/relu_3x3_reduce
I0403 14:47:04.213481 13630 net.cpp:148] Top shape: 24 160 7 7 (188160)
I0403 14:47:04.213496 13630 net.cpp:156] Memory required for data: 1296039456
I0403 14:47:04.213511 13630 layer_factory.hpp:77] Creating layer inception_5a/3x3
I0403 14:47:04.213534 13630 net.cpp:91] Creating Layer inception_5a/3x3
I0403 14:47:04.213552 13630 net.cpp:425] inception_5a/3x3 <- inception_5a/3x3_reduce
I0403 14:47:04.213574 13630 net.cpp:399] inception_5a/3x3 -> inception_5a/3x3
I0403 14:47:04.218638 13630 net.cpp:141] Setting up inception_5a/3x3
I0403 14:47:04.218668 13630 net.cpp:148] Top shape: 24 320 7 7 (376320)
I0403 14:47:04.218684 13630 net.cpp:156] Memory required for data: 1297544736
I0403 14:47:04.218703 13630 layer_factory.hpp:77] Creating layer inception_5a/relu_3x3
I0403 14:47:04.218721 13630 net.cpp:91] Creating Layer inception_5a/relu_3x3
I0403 14:47:04.218739 13630 net.cpp:425] inception_5a/relu_3x3 <- inception_5a/3x3
I0403 14:47:04.218757 13630 net.cpp:386] inception_5a/relu_3x3 -> inception_5a/3x3 (in-place)
I0403 14:47:04.219058 13630 net.cpp:141] Setting up inception_5a/relu_3x3
I0403 14:47:04.219084 13630 net.cpp:148] Top shape: 24 320 7 7 (376320)
I0403 14:47:04.219099 13630 net.cpp:156] Memory required for data: 1299050016
I0403 14:47:04.219115 13630 layer_factory.hpp:77] Creating layer inception_5a/5x5_reduce
I0403 14:47:04.219136 13630 net.cpp:91] Creating Layer inception_5a/5x5_reduce
I0403 14:47:04.219154 13630 net.cpp:425] inception_5a/5x5_reduce <- pool4/3x3_s2_pool4/3x3_s2_0_split_2
I0403 14:47:04.219177 13630 net.cpp:399] inception_5a/5x5_reduce -> inception_5a/5x5_reduce
I0403 14:47:04.220366 13630 net.cpp:141] Setting up inception_5a/5x5_reduce
I0403 14:47:04.220396 13630 net.cpp:148] Top shape: 24 32 7 7 (37632)
I0403 14:47:04.220412 13630 net.cpp:156] Memory required for data: 1299200544
I0403 14:47:04.220430 13630 layer_factory.hpp:77] Creating layer inception_5a/relu_5x5_reduce
I0403 14:47:04.220451 13630 net.cpp:91] Creating Layer inception_5a/relu_5x5_reduce
I0403 14:47:04.220468 13630 net.cpp:425] inception_5a/relu_5x5_reduce <- inception_5a/5x5_reduce
I0403 14:47:04.220486 13630 net.cpp:386] inception_5a/relu_5x5_reduce -> inception_5a/5x5_reduce (in-place)
I0403 14:47:04.220793 13630 net.cpp:141] Setting up inception_5a/relu_5x5_reduce
I0403 14:47:04.220819 13630 net.cpp:148] Top shape: 24 32 7 7 (37632)
I0403 14:47:04.220834 13630 net.cpp:156] Memory required for data: 1299351072
I0403 14:47:04.220849 13630 layer_factory.hpp:77] Creating layer inception_5a/5x5
I0403 14:47:04.220871 13630 net.cpp:91] Creating Layer inception_5a/5x5
I0403 14:47:04.220890 13630 net.cpp:425] inception_5a/5x5 <- inception_5a/5x5_reduce
I0403 14:47:04.220909 13630 net.cpp:399] inception_5a/5x5 -> inception_5a/5x5
I0403 14:47:04.222656 13630 net.cpp:141] Setting up inception_5a/5x5
I0403 14:47:04.222695 13630 net.cpp:148] Top shape: 24 128 7 7 (150528)
I0403 14:47:04.222712 13630 net.cpp:156] Memory required for data: 1299953184
I0403 14:47:04.222730 13630 layer_factory.hpp:77] Creating layer inception_5a/relu_5x5
I0403 14:47:04.222748 13630 net.cpp:91] Creating Layer inception_5a/relu_5x5
I0403 14:47:04.222764 13630 net.cpp:425] inception_5a/relu_5x5 <- inception_5a/5x5
I0403 14:47:04.222784 13630 net.cpp:386] inception_5a/relu_5x5 -> inception_5a/5x5 (in-place)
I0403 14:47:04.222976 13630 net.cpp:141] Setting up inception_5a/relu_5x5
I0403 14:47:04.223001 13630 net.cpp:148] Top shape: 24 128 7 7 (150528)
I0403 14:47:04.223016 13630 net.cpp:156] Memory required for data: 1300555296
I0403 14:47:04.223031 13630 layer_factory.hpp:77] Creating layer inception_5a/pool
I0403 14:47:04.223050 13630 net.cpp:91] Creating Layer inception_5a/pool
I0403 14:47:04.223068 13630 net.cpp:425] inception_5a/pool <- pool4/3x3_s2_pool4/3x3_s2_0_split_3
I0403 14:47:04.223085 13630 net.cpp:399] inception_5a/pool -> inception_5a/pool
I0403 14:47:04.223157 13630 net.cpp:141] Setting up inception_5a/pool
I0403 14:47:04.223181 13630 net.cpp:148] Top shape: 24 832 7 7 (978432)
I0403 14:47:04.223196 13630 net.cpp:156] Memory required for data: 1304469024
I0403 14:47:04.223209 13630 layer_factory.hpp:77] Creating layer inception_5a/pool_proj
I0403 14:47:04.223232 13630 net.cpp:91] Creating Layer inception_5a/pool_proj
I0403 14:47:04.223250 13630 net.cpp:425] inception_5a/pool_proj <- inception_5a/pool
I0403 14:47:04.223270 13630 net.cpp:399] inception_5a/pool_proj -> inception_5a/pool_proj
I0403 14:47:04.225563 13630 net.cpp:141] Setting up inception_5a/pool_proj
I0403 14:47:04.225594 13630 net.cpp:148] Top shape: 24 128 7 7 (150528)
I0403 14:47:04.225615 13630 net.cpp:156] Memory required for data: 1305071136
I0403 14:47:04.225633 13630 layer_factory.hpp:77] Creating layer inception_5a/relu_pool_proj
I0403 14:47:04.225651 13630 net.cpp:91] Creating Layer inception_5a/relu_pool_proj
I0403 14:47:04.225667 13630 net.cpp:425] inception_5a/relu_pool_proj <- inception_5a/pool_proj
I0403 14:47:04.225687 13630 net.cpp:386] inception_5a/relu_pool_proj -> inception_5a/pool_proj (in-place)
I0403 14:47:04.225975 13630 net.cpp:141] Setting up inception_5a/relu_pool_proj
I0403 14:47:04.226002 13630 net.cpp:148] Top shape: 24 128 7 7 (150528)
I0403 14:47:04.226017 13630 net.cpp:156] Memory required for data: 1305673248
I0403 14:47:04.226032 13630 layer_factory.hpp:77] Creating layer inception_5a/output
I0403 14:47:04.226047 13630 net.cpp:91] Creating Layer inception_5a/output
I0403 14:47:04.226063 13630 net.cpp:425] inception_5a/output <- inception_5a/1x1
I0403 14:47:04.226079 13630 net.cpp:425] inception_5a/output <- inception_5a/3x3
I0403 14:47:04.226094 13630 net.cpp:425] inception_5a/output <- inception_5a/5x5
I0403 14:47:04.226109 13630 net.cpp:425] inception_5a/output <- inception_5a/pool_proj
I0403 14:47:04.226130 13630 net.cpp:399] inception_5a/output -> inception_5a/output
I0403 14:47:04.226179 13630 net.cpp:141] Setting up inception_5a/output
I0403 14:47:04.226202 13630 net.cpp:148] Top shape: 24 832 7 7 (978432)
I0403 14:47:04.226217 13630 net.cpp:156] Memory required for data: 1309586976
I0403 14:47:04.226230 13630 layer_factory.hpp:77] Creating layer inception_5a/output_inception_5a/output_0_split
I0403 14:47:04.226251 13630 net.cpp:91] Creating Layer inception_5a/output_inception_5a/output_0_split
I0403 14:47:04.226268 13630 net.cpp:425] inception_5a/output_inception_5a/output_0_split <- inception_5a/output
I0403 14:47:04.226284 13630 net.cpp:399] inception_5a/output_inception_5a/output_0_split -> inception_5a/output_inception_5a/output_0_split_0
I0403 14:47:04.226305 13630 net.cpp:399] inception_5a/output_inception_5a/output_0_split -> inception_5a/output_inception_5a/output_0_split_1
I0403 14:47:04.226327 13630 net.cpp:399] inception_5a/output_inception_5a/output_0_split -> inception_5a/output_inception_5a/output_0_split_2
I0403 14:47:04.226348 13630 net.cpp:399] inception_5a/output_inception_5a/output_0_split -> inception_5a/output_inception_5a/output_0_split_3
I0403 14:47:04.226456 13630 net.cpp:141] Setting up inception_5a/output_inception_5a/output_0_split
I0403 14:47:04.226480 13630 net.cpp:148] Top shape: 24 832 7 7 (978432)
I0403 14:47:04.226495 13630 net.cpp:148] Top shape: 24 832 7 7 (978432)
I0403 14:47:04.226511 13630 net.cpp:148] Top shape: 24 832 7 7 (978432)
I0403 14:47:04.226526 13630 net.cpp:148] Top shape: 24 832 7 7 (978432)
I0403 14:47:04.226538 13630 net.cpp:156] Memory required for data: 1325241888
I0403 14:47:04.226552 13630 layer_factory.hpp:77] Creating layer inception_5b/1x1
I0403 14:47:04.226573 13630 net.cpp:91] Creating Layer inception_5b/1x1
I0403 14:47:04.226590 13630 net.cpp:425] inception_5b/1x1 <- inception_5a/output_inception_5a/output_0_split_0
I0403 14:47:04.226616 13630 net.cpp:399] inception_5b/1x1 -> inception_5b/1x1
I0403 14:47:04.230295 13630 net.cpp:141] Setting up inception_5b/1x1
I0403 14:47:04.230326 13630 net.cpp:148] Top shape: 24 384 7 7 (451584)
I0403 14:47:04.230342 13630 net.cpp:156] Memory required for data: 1327048224
I0403 14:47:04.230360 13630 layer_factory.hpp:77] Creating layer inception_5b/relu_1x1
I0403 14:47:04.230377 13630 net.cpp:91] Creating Layer inception_5b/relu_1x1
I0403 14:47:04.230393 13630 net.cpp:425] inception_5b/relu_1x1 <- inception_5b/1x1
I0403 14:47:04.230409 13630 net.cpp:386] inception_5b/relu_1x1 -> inception_5b/1x1 (in-place)
I0403 14:47:04.230711 13630 net.cpp:141] Setting up inception_5b/relu_1x1
I0403 14:47:04.230739 13630 net.cpp:148] Top shape: 24 384 7 7 (451584)
I0403 14:47:04.230754 13630 net.cpp:156] Memory required for data: 1328854560
I0403 14:47:04.230768 13630 layer_factory.hpp:77] Creating layer inception_5b/3x3_reduce
I0403 14:47:04.230790 13630 net.cpp:91] Creating Layer inception_5b/3x3_reduce
I0403 14:47:04.230808 13630 net.cpp:425] inception_5b/3x3_reduce <- inception_5a/output_inception_5a/output_0_split_1
I0403 14:47:04.230826 13630 net.cpp:399] inception_5b/3x3_reduce -> inception_5b/3x3_reduce
I0403 14:47:04.233429 13630 net.cpp:141] Setting up inception_5b/3x3_reduce
I0403 14:47:04.233460 13630 net.cpp:148] Top shape: 24 192 7 7 (225792)
I0403 14:47:04.233476 13630 net.cpp:156] Memory required for data: 1329757728
I0403 14:47:04.233494 13630 layer_factory.hpp:77] Creating layer inception_5b/relu_3x3_reduce
I0403 14:47:04.233511 13630 net.cpp:91] Creating Layer inception_5b/relu_3x3_reduce
I0403 14:47:04.233528 13630 net.cpp:425] inception_5b/relu_3x3_reduce <- inception_5b/3x3_reduce
I0403 14:47:04.233547 13630 net.cpp:386] inception_5b/relu_3x3_reduce -> inception_5b/3x3_reduce (in-place)
I0403 14:47:04.233737 13630 net.cpp:141] Setting up inception_5b/relu_3x3_reduce
I0403 14:47:04.233762 13630 net.cpp:148] Top shape: 24 192 7 7 (225792)
I0403 14:47:04.233777 13630 net.cpp:156] Memory required for data: 1330660896
I0403 14:47:04.233790 13630 layer_factory.hpp:77] Creating layer inception_5b/3x3
I0403 14:47:04.233811 13630 net.cpp:91] Creating Layer inception_5b/3x3
I0403 14:47:04.233829 13630 net.cpp:425] inception_5b/3x3 <- inception_5b/3x3_reduce
I0403 14:47:04.233850 13630 net.cpp:399] inception_5b/3x3 -> inception_5b/3x3
I0403 14:47:04.240393 13630 net.cpp:141] Setting up inception_5b/3x3
I0403 14:47:04.240423 13630 net.cpp:148] Top shape: 24 384 7 7 (451584)
I0403 14:47:04.240439 13630 net.cpp:156] Memory required for data: 1332467232
I0403 14:47:04.240458 13630 layer_factory.hpp:77] Creating layer inception_5b/relu_3x3
I0403 14:47:04.240475 13630 net.cpp:91] Creating Layer inception_5b/relu_3x3
I0403 14:47:04.240491 13630 net.cpp:425] inception_5b/relu_3x3 <- inception_5b/3x3
I0403 14:47:04.240509 13630 net.cpp:386] inception_5b/relu_3x3 -> inception_5b/3x3 (in-place)
I0403 14:47:04.240805 13630 net.cpp:141] Setting up inception_5b/relu_3x3
I0403 14:47:04.240833 13630 net.cpp:148] Top shape: 24 384 7 7 (451584)
I0403 14:47:04.240849 13630 net.cpp:156] Memory required for data: 1334273568
I0403 14:47:04.240864 13630 layer_factory.hpp:77] Creating layer inception_5b/5x5_reduce
I0403 14:47:04.240900 13630 net.cpp:91] Creating Layer inception_5b/5x5_reduce
I0403 14:47:04.240918 13630 net.cpp:425] inception_5b/5x5_reduce <- inception_5a/output_inception_5a/output_0_split_2
I0403 14:47:04.240937 13630 net.cpp:399] inception_5b/5x5_reduce -> inception_5b/5x5_reduce
I0403 14:47:04.242182 13630 net.cpp:141] Setting up inception_5b/5x5_reduce
I0403 14:47:04.242210 13630 net.cpp:148] Top shape: 24 48 7 7 (56448)
I0403 14:47:04.242225 13630 net.cpp:156] Memory required for data: 1334499360
I0403 14:47:04.242244 13630 layer_factory.hpp:77] Creating layer inception_5b/relu_5x5_reduce
I0403 14:47:04.242260 13630 net.cpp:91] Creating Layer inception_5b/relu_5x5_reduce
I0403 14:47:04.242276 13630 net.cpp:425] inception_5b/relu_5x5_reduce <- inception_5b/5x5_reduce
I0403 14:47:04.242297 13630 net.cpp:386] inception_5b/relu_5x5_reduce -> inception_5b/5x5_reduce (in-place)
I0403 14:47:04.242671 13630 net.cpp:141] Setting up inception_5b/relu_5x5_reduce
I0403 14:47:04.242696 13630 net.cpp:148] Top shape: 24 48 7 7 (56448)
I0403 14:47:04.242710 13630 net.cpp:156] Memory required for data: 1334725152
I0403 14:47:04.242725 13630 layer_factory.hpp:77] Creating layer inception_5b/5x5
I0403 14:47:04.242744 13630 net.cpp:91] Creating Layer inception_5b/5x5
I0403 14:47:04.242760 13630 net.cpp:425] inception_5b/5x5 <- inception_5b/5x5_reduce
I0403 14:47:04.242779 13630 net.cpp:399] inception_5b/5x5 -> inception_5b/5x5
I0403 14:47:04.244787 13630 net.cpp:141] Setting up inception_5b/5x5
I0403 14:47:04.244814 13630 net.cpp:148] Top shape: 24 128 7 7 (150528)
I0403 14:47:04.244829 13630 net.cpp:156] Memory required for data: 1335327264
I0403 14:47:04.244848 13630 layer_factory.hpp:77] Creating layer inception_5b/relu_5x5
I0403 14:47:04.244866 13630 net.cpp:91] Creating Layer inception_5b/relu_5x5
I0403 14:47:04.244884 13630 net.cpp:425] inception_5b/relu_5x5 <- inception_5b/5x5
I0403 14:47:04.244900 13630 net.cpp:386] inception_5b/relu_5x5 -> inception_5b/5x5 (in-place)
I0403 14:47:04.245090 13630 net.cpp:141] Setting up inception_5b/relu_5x5
I0403 14:47:04.245115 13630 net.cpp:148] Top shape: 24 128 7 7 (150528)
I0403 14:47:04.245129 13630 net.cpp:156] Memory required for data: 1335929376
I0403 14:47:04.245144 13630 layer_factory.hpp:77] Creating layer inception_5b/pool
I0403 14:47:04.245163 13630 net.cpp:91] Creating Layer inception_5b/pool
I0403 14:47:04.245180 13630 net.cpp:425] inception_5b/pool <- inception_5a/output_inception_5a/output_0_split_3
I0403 14:47:04.245198 13630 net.cpp:399] inception_5b/pool -> inception_5b/pool
I0403 14:47:04.245270 13630 net.cpp:141] Setting up inception_5b/pool
I0403 14:47:04.245296 13630 net.cpp:148] Top shape: 24 832 7 7 (978432)
I0403 14:47:04.245309 13630 net.cpp:156] Memory required for data: 1339843104
I0403 14:47:04.245323 13630 layer_factory.hpp:77] Creating layer inception_5b/pool_proj
I0403 14:47:04.245345 13630 net.cpp:91] Creating Layer inception_5b/pool_proj
I0403 14:47:04.245362 13630 net.cpp:425] inception_5b/pool_proj <- inception_5b/pool
I0403 14:47:04.245383 13630 net.cpp:399] inception_5b/pool_proj -> inception_5b/pool_proj
I0403 14:47:04.247639 13630 net.cpp:141] Setting up inception_5b/pool_proj
I0403 14:47:04.247668 13630 net.cpp:148] Top shape: 24 128 7 7 (150528)
I0403 14:47:04.247684 13630 net.cpp:156] Memory required for data: 1340445216
I0403 14:47:04.247701 13630 layer_factory.hpp:77] Creating layer inception_5b/relu_pool_proj
I0403 14:47:04.247720 13630 net.cpp:91] Creating Layer inception_5b/relu_pool_proj
I0403 14:47:04.247735 13630 net.cpp:425] inception_5b/relu_pool_proj <- inception_5b/pool_proj
I0403 14:47:04.247755 13630 net.cpp:386] inception_5b/relu_pool_proj -> inception_5b/pool_proj (in-place)
I0403 14:47:04.248045 13630 net.cpp:141] Setting up inception_5b/relu_pool_proj
I0403 14:47:04.248071 13630 net.cpp:148] Top shape: 24 128 7 7 (150528)
I0403 14:47:04.248085 13630 net.cpp:156] Memory required for data: 1341047328
I0403 14:47:04.248100 13630 layer_factory.hpp:77] Creating layer inception_5b/output
I0403 14:47:04.248116 13630 net.cpp:91] Creating Layer inception_5b/output
I0403 14:47:04.248145 13630 net.cpp:425] inception_5b/output <- inception_5b/1x1
I0403 14:47:04.248163 13630 net.cpp:425] inception_5b/output <- inception_5b/3x3
I0403 14:47:04.248179 13630 net.cpp:425] inception_5b/output <- inception_5b/5x5
I0403 14:47:04.248194 13630 net.cpp:425] inception_5b/output <- inception_5b/pool_proj
I0403 14:47:04.248216 13630 net.cpp:399] inception_5b/output -> inception_5b/output
I0403 14:47:04.248267 13630 net.cpp:141] Setting up inception_5b/output
I0403 14:47:04.248293 13630 net.cpp:148] Top shape: 24 1024 7 7 (1204224)
I0403 14:47:04.248308 13630 net.cpp:156] Memory required for data: 1345864224
I0403 14:47:04.248322 13630 layer_factory.hpp:77] Creating layer pool5/7x7_s1
I0403 14:47:04.248339 13630 net.cpp:91] Creating Layer pool5/7x7_s1
I0403 14:47:04.248354 13630 net.cpp:425] pool5/7x7_s1 <- inception_5b/output
I0403 14:47:04.248373 13630 net.cpp:399] pool5/7x7_s1 -> pool5/7x7_s1
I0403 14:47:04.248584 13630 net.cpp:141] Setting up pool5/7x7_s1
I0403 14:47:04.248612 13630 net.cpp:148] Top shape: 24 1024 1 1 (24576)
I0403 14:47:04.248628 13630 net.cpp:156] Memory required for data: 1345962528
I0403 14:47:04.248643 13630 layer_factory.hpp:77] Creating layer pool5/drop_7x7_s1
I0403 14:47:04.248661 13630 net.cpp:91] Creating Layer pool5/drop_7x7_s1
I0403 14:47:04.248677 13630 net.cpp:425] pool5/drop_7x7_s1 <- pool5/7x7_s1
I0403 14:47:04.248694 13630 net.cpp:386] pool5/drop_7x7_s1 -> pool5/7x7_s1 (in-place)
I0403 14:47:04.248744 13630 net.cpp:141] Setting up pool5/drop_7x7_s1
I0403 14:47:04.248769 13630 net.cpp:148] Top shape: 24 1024 1 1 (24576)
I0403 14:47:04.248785 13630 net.cpp:156] Memory required for data: 1346060832
I0403 14:47:04.248798 13630 layer_factory.hpp:77] Creating layer loss3/classifier_plantvillage
I0403 14:47:04.248817 13630 net.cpp:91] Creating Layer loss3/classifier_plantvillage
I0403 14:47:04.248832 13630 net.cpp:425] loss3/classifier_plantvillage <- pool5/7x7_s1
I0403 14:47:04.248852 13630 net.cpp:399] loss3/classifier_plantvillage -> loss3/classifier_plantvillage
I0403 14:47:04.249269 13630 net.cpp:141] Setting up loss3/classifier_plantvillage
I0403 14:47:04.249295 13630 net.cpp:148] Top shape: 24 38 (912)
I0403 14:47:04.249310 13630 net.cpp:156] Memory required for data: 1346064480
I0403 14:47:04.249326 13630 layer_factory.hpp:77] Creating layer loss3/classifier_plantvillage_loss3/classifier_plantvillage_0_split
I0403 14:47:04.249347 13630 net.cpp:91] Creating Layer loss3/classifier_plantvillage_loss3/classifier_plantvillage_0_split
I0403 14:47:04.249363 13630 net.cpp:425] loss3/classifier_plantvillage_loss3/classifier_plantvillage_0_split <- loss3/classifier_plantvillage
I0403 14:47:04.249380 13630 net.cpp:399] loss3/classifier_plantvillage_loss3/classifier_plantvillage_0_split -> loss3/classifier_plantvillage_loss3/classifier_plantvillage_0_split_0
I0403 14:47:04.249402 13630 net.cpp:399] loss3/classifier_plantvillage_loss3/classifier_plantvillage_0_split -> loss3/classifier_plantvillage_loss3/classifier_plantvillage_0_split_1
I0403 14:47:04.249423 13630 net.cpp:399] loss3/classifier_plantvillage_loss3/classifier_plantvillage_0_split -> loss3/classifier_plantvillage_loss3/classifier_plantvillage_0_split_2
I0403 14:47:04.249444 13630 net.cpp:399] loss3/classifier_plantvillage_loss3/classifier_plantvillage_0_split -> loss3/classifier_plantvillage_loss3/classifier_plantvillage_0_split_3
I0403 14:47:04.249541 13630 net.cpp:141] Setting up loss3/classifier_plantvillage_loss3/classifier_plantvillage_0_split
I0403 14:47:04.249563 13630 net.cpp:148] Top shape: 24 38 (912)
I0403 14:47:04.249578 13630 net.cpp:148] Top shape: 24 38 (912)
I0403 14:47:04.249593 13630 net.cpp:148] Top shape: 24 38 (912)
I0403 14:47:04.249613 13630 net.cpp:148] Top shape: 24 38 (912)
I0403 14:47:04.249626 13630 net.cpp:156] Memory required for data: 1346079072
I0403 14:47:04.249640 13630 layer_factory.hpp:77] Creating layer loss1/loss
I0403 14:47:04.249660 13630 net.cpp:91] Creating Layer loss1/loss
I0403 14:47:04.249677 13630 net.cpp:425] loss1/loss <- loss1/classifier_plantvillage_loss1/classifier_plantvillage_0_split_0
I0403 14:47:04.249708 13630 net.cpp:425] loss1/loss <- label_data_1_split_0
…
