…
I0403 14:24:23.292906 13241 net.cpp:313] The NetState phase (1) differed from the phase (0) specified by a rule in layer data
I0403 14:24:23.294059 13241 net.cpp:49] Initializing net from parameters: 
state {
  phase: TEST
}
layer {
  name: "data"
  type: "Data"
  top: "data"
  top: "label"
  include {
    phase: TEST
  }
  transform_param {
    mirror: false
    crop_size: 224
    mean_file: "/home/mohanty/data/final_dataset/lmdb/color-40-60/mean.binaryproto"
  }
  data_param {
    source: "/home/mohanty/data/final_dataset/lmdb/color-40-60/test_db"
    batch_size: 24
    backend: LMDB
  }
}
layer {
  name: "conv1/7x7_s2"
  type: "Convolution"
  bottom: "data"
  top: "conv1/7x7_s2"
  param {
    lr_mult: 1
    decay_mult: 1
  }
  param {
    lr_mult: 2
    decay_mult: 0
  }
  convolution_param {
    num_output: 64
    pad: 3
    kernel_size: 7
    stride: 2
    weight_filler {
      type: "xavier"
      std: 0.1
    }
    bias_filler {
      type: "constant"
      value: 0.2
    }
  }
}
layer {
  name: "conv1/relu_7x7"
  type: "ReLU"
  bottom: "conv1/7x7_s2"
  top: "conv1/7x7_s2"
}
layer {
  name: "pool1/3x3_s2"
  type: "Pooling"
  bottom: "conv1/7x7_s2"
  top: "pool1/3x3_s2"
  pooling_param {
    pool: MAX
    kernel_size: 3
    stride: 2
  }
}
layer {
  name: "pool1/norm1"
  type: "LRN"
  bottom: "pool1/3x3_s2"
  top: "pool1/norm1"
  lrn_param {
    local_size: 5
    alpha: 0.0001
    beta: 0.75
  }
}
layer {
  name: "conv2/3x3_reduce"
  type: "Convolution"
  bottom: "pool1/norm1"
  top: "conv2/3x3_reduce"
  param {
    lr_mult: 1
    decay_mult: 1
  }
  param {
    lr_mult: 2
    decay_mult: 0
  }
  convolution_param {
    num_output: 64
    kernel_size: 1
    weight_filler {
      type: "xavier"
      std: 0.1
    }
    bias_filler {
      type: "constant"
      value: 0.2
    }
  }
}
layer {
  name: "conv2/relu_3x3_reduce"
  type: "ReLU"
  bottom: "conv2/3x3_reduce"
  top: "conv2/3x3_reduce"
}
layer {
  name: "conv2/3x3"
  type: "Convolution"
  bottom: "conv2/3x3_reduce"
  top: "conv2/3x3"
  param {
    lr_mult: 1
    decay_mult: 1
  }
  param {
    lr_mult: 2
    decay_mult: 0
  }
  convolution_param {
    num_output: 192
    pad: 1
    kernel_size: 3
    weight_filler {
      type: "xavier"
      std: 0.03
    }
    bias_filler {
      type: "constant"
      value: 0.2
    }
  }
}
layer {
  name: "conv2/relu_3x3"
  type: "ReLU"
  bottom: "conv2/3x3"
  top: "conv2/3x3"
}
layer {
  name: "conv2/norm2"
  type: "LRN"
  bottom: "conv2/3x3"
  top: "conv2/norm2"
  lrn_param {
    local_size: 5
    alpha: 0.0001
    beta: 0.75
  }
}
layer {
  name: "pool2/3x3_s2"
  type: "Pooling"
  bottom: "conv2/norm2"
  top: "pool2/3x3_s2"
  pooling_param {
    pool: MAX
    kernel_size: 3
    stride: 2
  }
}
layer {
  name: "inception_3a/1x1"
  type: "Convolution"
  bottom: "pool2/3x3_s2"
  top: "inception_3a/1x1"
  param {
    lr_mult: 1
    decay_mult: 1
  }
  param {
    lr_mult: 2
    decay_mult: 0
  }
  convolution_param {
    num_output: 64
    kernel_size: 1
    weight_filler {
      type: "xavier"
      std: 0.03
    }
    bias_filler {
      type: "constant"
      value: 0.2
    }
  }
}
layer {
  name: "inception_3a/relu_1x1"
  type: "ReLU"
  bottom: "inception_3a/1x1"
  top: "inception_3a/1x1"
}
layer {
  name: "inception_3a/3x3_reduce"
  type: "Convolution"
  bottom: "pool2/3x3_s2"
  top: "inception_3a/3x3_reduce"
  param {
    lr_mult: 1
    decay_mult: 1
  }
  param {
    lr_mult: 2
    decay_mult: 0
  }
  convolution_param {
    num_output: 96
    kernel_size: 1
    weight_filler {
      type: "xavier"
      std: 0.09
    }
    bias_filler {
      type: "constant"
      value: 0.2
    }
  }
}
layer {
  name: "inception_3a/relu_3x3_reduce"
  type: "ReLU"
  bottom: "inception_3a/3x3_reduce"
  top: "inception_3a/3x3_reduce"
}
layer {
  name: "inception_3a/3x3"
  type: "Convolution"
  bottom: "inception_3a/3x3_reduce"
  top: "inception_3a/3x3"
  param {
    lr_mult: 1
    decay_mult: 1
  }
  param {
    lr_mult: 2
    decay_mult: 0
  }
  convolution_param {
    num_output: 128
    pad: 1
    kernel_size: 3
    weight_filler {
      type: "xavier"
      std: 0.03
    }
    bias_filler {
      type: "constant"
      value: 0.2
    }
  }
}
layer {
  name: "inception_3a/relu_3x3"
  type: "ReLU"
  bottom: "inception_3a/3x3"
  top: "inception_3a/3x3"
}
layer {
  name: "inception_3a/5x5_reduce"
  type: "Convolution"
  bottom: "pool2/3x3_s2"
  top: "inception_3a/5x5_reduce"
  param {
    lr_mult: 1
    decay_mult: 1
  }
  param {
    lr_mult: 2
    decay_mult: 0
  }
  convolution_param {
    num_output: 16
    kernel_size: 1
    weight_filler {
      type: "xavier"
      std: 0.2
    }
    bias_filler {
      type: "constant"
      value: 0.2
    }
  }
}
layer {
  name: "inception_3a/relu_5x5_reduce"
  type: "ReLU"
  bottom: "inception_3a/5x5_reduce"
  top: "inception_3a/5x5_reduce"
}
layer {
  name: "inception_3a/5x5"
  type: "Convolution"
  bottom: "inception_3a/5x5_reduce"
  top: "inception_3a/5x5"
  param {
    lr_mult: 1
    decay_mult: 1
  }
  param {
    lr_mult: 2
    decay_mult: 0
  }
  convolution_param {
    num_output: 32
    pad: 2
    kernel_size: 5
    weight_filler {
      type: "xavier"
      std: 0.03
    }
    bias_filler {
      type: "constant"
      value: 0.2
    }
  }
}
layer {
  name: "inception_3a/relu_5x5"
  type: "ReLU"
  bottom: "inception_3a/5x5"
  top: "inception_3a/5x5"
}
layer {
  name: "inception_3a/pool"
  type: "Pooling"
  bottom: "pool2/3x3_s2"
  top: "inception_3a/pool"
  pooling_param {
    pool: MAX
    kernel_size: 3
    stride: 1
    pad: 1
  }
}
layer {
  name: "inception_3a/pool_proj"
  type: "Convolution"
  bottom: "inception_3a/pool"
  top: "inception_3a/pool_proj"
  param {
    lr_mult: 1
    decay_mult: 1
  }
  param {
    lr_mult: 2
    decay_mult: 0
  }
  convolution_param {
    num_output: 32
    kernel_size: 1
    weight_filler {
      type: "xavier"
      std: 0.1
    }
    bias_filler {
      type: "constant"
      value: 0.2
    }
  }
}
layer {
  name: "inception_3a/relu_pool_proj"
  type: "ReLU"
  bottom: "inception_3a/pool_proj"
  top: "inception_3a/pool_proj"
}
layer {
  name: "inception_3a/output"
  type: "Concat"
  bottom: "inception_3a/1x1"
  bottom: "inception_3a/3x3"
  bottom: "inception_3a/5x5"
  bottom: "inception_3a/pool_proj"
  top: "inception_3a/output"
}
layer {
  name: "inception_3b/1x1"
  type: "Convolution"
  bottom: "inception_3a/output"
  top: "inception_3b/1x1"
  param {
    lr_mult: 1
    decay_mult: 1
  }
  param {
    lr_mult: 2
    decay_mult: 0
  }
  convolution_param {
    num_output: 128
    kernel_size: 1
    weight_filler {
      type: "xavier"
      std: 0.03
    }
    bias_filler {
      type: "constant"
      value: 0.2
    }
  }
}
layer {
  name: "inception_3b/relu_1x1"
  type: "ReLU"
  bottom: "inception_3b/1x1"
  top: "inception_3b/1x1"
}
layer {
  name: "inception_3b/3x3_reduce"
  type: "Convolution"
  bottom: "inception_3a/output"
  top: "inception_3b/3x3_reduce"
  param {
    lr_mult: 1
    decay_mult: 1
  }
  param {
    lr_mult: 2
    decay_mult: 0
  }
  convolution_param {
    num_output: 128
    kernel_size: 1
    weight_filler {
      type: "xavier"
      std: 0.09
    }
    bias_filler {
      type: "constant"
      value: 0.2
    }
  }
}
layer {
  name: "inception_3b/relu_3x3_reduce"
  type: "ReLU"
  bottom: "inception_3b/3x3_reduce"
  top: "inception_3b/3x3_reduce"
}
layer {
  name: "inception_3b/3x3"
  type: "Convolution"
  bottom: "inception_3b/3x3_reduce"
  top: "inception_3b/3x3"
  param {
    lr_mult: 1
    decay_mult: 1
  }
  param {
    lr_mult: 2
    decay_mult: 0
  }
  convolution_param {
    num_output: 192
    pad: 1
    kernel_size: 3
    weight_filler {
      type: "xavier"
      std: 0.03
    }
    bias_filler {
      type: "constant"
      value: 0.2
    }
  }
}
layer {
  name: "inception_3b/relu_3x3"
  type: "ReLU"
  bottom: "inception_3b/3x3"
  top: "inception_3b/3x3"
}
layer {
  name: "inception_3b/5x5_reduce"
  type: "Convolution"
  bottom: "inception_3a/output"
  top: "inception_3b/5x5_reduce"
  param {
    lr_mult: 1
    decay_mult: 1
  }
  param {
    lr_mult: 2
    decay_mult: 0
  }
  convolution_param {
    num_output: 32
    kernel_size: 1
    weight_filler {
      type: "xavier"
      std: 0.2
    }
    bias_filler {
      type: "constant"
      value: 0.2
    }
  }
}
layer {
  name: "inception_3b/relu_5x5_reduce"
  type: "ReLU"
  bottom: "inception_3b/5x5_reduce"
  top: "inception_3b/5x5_reduce"
}
layer {
  name: "inception_3b/5x5"
  type: "Convolution"
  bottom: "inception_3b/5x5_reduce"
  top: "inception_3b/5x5"
  param {
    lr_mult: 1
    decay_mult: 1
  }
  param {
    lr_mult: 2
    decay_mult: 0
  }
  convolution_param {
    num_output: 96
    pad: 2
    kernel_size: 5
    weight_filler {
      type: "xavier"
      std: 0.03
    }
    bias_filler {
      type: "constant"
      value: 0.2
    }
  }
}
layer {
  name: "inception_3b/relu_5x5"
  type: "ReLU"
  bottom: "inception_3b/5x5"
  top: "inception_3b/5x5"
}
layer {
  name: "inception_3b/pool"
  type: "Pooling"
  bottom: "inception_3a/output"
  top: "inception_3b/pool"
  pooling_param {
    pool: MAX
    kernel_size: 3
    stride: 1
    pad: 1
  }
}
layer {
  name: "inception_3b/pool_proj"
  type: "Convolution"
  bottom: "inception_3b/pool"
  top: "inception_3b/pool_proj"
  param {
    lr_mult: 1
    decay_mult: 1
  }
  param {
    lr_mult: 2
    decay_mult: 0
  }
  convolution_param {
    num_output: 64
    kernel_size: 1
    weight_filler {
      type: "xavier"
      std: 0.1
    }
    bias_filler {
      type: "constant"
      value: 0.2
    }
  }
}
layer {
  name: "inception_3b/relu_pool_proj"
  type: "ReLU"
  bottom: "inception_3b/pool_proj"
  top: "inception_3b/pool_proj"
}
layer {
  name: "inception_3b/output"
  type: "Concat"
  bottom: "inception_3b/1x1"
  bottom: "inception_3b/3x3"
  bottom: "inception_3b/5x5"
  bottom: "inception_3b/pool_proj"
  top: "inception_3b/output"
}
layer {
  name: "pool3/3x3_s2"
  type: "Pooling"
  bottom: "inception_3b/output"
  top: "pool3/3x3_s2"
  pooling_param {
    pool: MAX
    kernel_size: 3
    stride: 2
  }
}
layer {
  name: "inception_4a/1x1"
  type: "Convolution"
  bottom: "pool3/3x3_s2"
  top: "inception_4a/1x1"
  param {
    lr_mult: 1
    decay_mult: 1
  }
  param {
    lr_mult: 2
    decay_mult: 0
  }
  convolution_param {
    num_output: 192
    kernel_size: 1
    weight_filler {
      type: "xavier"
      std: 0.03
    }
    bias_filler {
      type: "constant"
      value: 0.2
    }
  }
}
layer {
  name: "inception_4a/relu_1x1"
  type: "ReLU"
  bottom: "inception_4a/1x1"
  top: "inception_4a/1x1"
}
layer {
  name: "inception_4a/3x3_reduce"
  type: "Convolution"
  bottom: "pool3/3x3_s2"
  top: "inception_4a/3x3_reduce"
  param {
    lr_mult: 1
    decay_mult: 1
  }
  param {
    lr_mult: 2
    decay_mult: 0
  }
  convolution_param {
    num_output: 96
    kernel_size: 1
    weight_filler {
      type: "xavier"
      std: 0.09
    }
    bias_filler {
      type: "constant"
      value: 0.2
    }
  }
}
layer {
  name: "inception_4a/relu_3x3_reduce"
  type: "ReLU"
  bottom: "inception_4a/3x3_reduce"
  top: "inception_4a/3x3_reduce"
}
layer {
  name: "inception_4a/3x3"
  type: "Convolution"
  bottom: "inception_4a/3x3_reduce"
  top: "inception_4a/3x3"
  param {
    lr_mult: 1
    decay_mult: 1
  }
  param {
    lr_mult: 2
    decay_mult: 0
  }
  convolution_param {
    num_output: 208
    pad: 1
    kernel_size: 3
    weight_filler {
      type: "xavier"
      std: 0.03
    }
    bias_filler {
      type: "constant"
      value: 0.2
    }
  }
}
layer {
  name: "inception_4a/relu_3x3"
  type: "ReLU"
  bottom: "inception_4a/3x3"
  top: "inception_4a/3x3"
}
layer {
  name: "inception_4a/5x5_reduce"
  type: "Convolution"
  bottom: "pool3/3x3_s2"
  top: "inception_4a/5x5_reduce"
  param {
    lr_mult: 1
    decay_mult: 1
  }
  param {
    lr_mult: 2
    decay_mult: 0
  }
  convolution_param {
    num_output: 16
    kernel_size: 1
    weight_filler {
      type: "xavier"
      std: 0.2
    }
    bias_filler {
      type: "constant"
      value: 0.2
    }
  }
}
layer {
  name: "inception_4a/relu_5x5_reduce"
  type: "ReLU"
  bottom: "inception_4a/5x5_reduce"
  top: "inception_4a/5x5_reduce"
}
layer {
  name: "inception_4a/5x5"
  type: "Convolution"
  bottom: "inception_4a/5x5_reduce"
  top: "inception_4a/5x5"
  param {
    lr_mult: 1
    decay_mult: 1
  }
  param {
    lr_mult: 2
    decay_mult: 0
  }
  convolution_param {
    num_output: 48
    pad: 2
    kernel_size: 5
    weight_filler {
      type: "xavier"
      std: 0.03
    }
    bias_filler {
      type: "constant"
      value: 0.2
    }
  }
}
layer {
  name: "inception_4a/relu_5x5"
  type: "ReLU"
  bottom: "inception_4a/5x5"
  top: "inception_4a/5x5"
}
layer {
  name: "inception_4a/pool"
  type: "Pooling"
  bottom: "pool3/3x3_s2"
  top: "inception_4a/pool"
  pooling_param {
    pool: MAX
    kernel_size: 3
    stride: 1
    pad: 1
  }
}
layer {
  name: "inception_4a/pool_proj"
  type: "Convolution"
  bottom: "inception_4a/pool"
  top: "inception_4a/pool_proj"
  param {
    lr_mult: 1
    decay_mult: 1
  }
  param {
    lr_mult: 2
    decay_mult: 0
  }
  convolution_param {
    num_output: 64
    kernel_size: 1
    weight_filler {
      type: "xavier"
      std: 0.1
    }
    bias_filler {
      type: "constant"
      value: 0.2
    }
  }
}
layer {
  name: "inception_4a/relu_pool_proj"
  type: "ReLU"
  bottom: "inception_4a/pool_proj"
  top: "inception_4a/pool_proj"
}
layer {
  name: "inception_4a/output"
  type: "Concat"
  bottom: "inception_4a/1x1"
  bottom: "inception_4a/3x3"
  bottom: "inception_4a/5x5"
  bottom: "inception_4a/pool_proj"
  top: "inception_4a/output"
}
layer {
  name: "loss1/ave_pool"
  type: "Pooling"
  bottom: "inception_4a/output"
  top: "loss1/ave_pool"
  pooling_param {
    pool: AVE
    kernel_size: 5
    stride: 3
  }
}
layer {
  name: "loss1/conv"
  type: "Convolution"
  bottom: "loss1/ave_pool"
  top: "loss1/conv"
  param {
    lr_mult: 1
    decay_mult: 1
  }
  param {
    lr_mult: 2
    decay_mult: 0
  }
  convolution_param {
    num_output: 128
    kernel_size: 1
    weight_filler {
      type: "xavier"
      std: 0.08
    }
    bias_filler {
      type: "constant"
      value: 0.2
    }
  }
}
layer {
  name: "loss1/relu_conv"
  type: "ReLU"
  bottom: "loss1/conv"
  top: "loss1/conv"
}
layer {
  name: "loss1/fc"
  type: "InnerProduct"
  bottom: "loss1/conv"
  top: "loss1/fc"
  param {
    lr_mult: 1
    decay_mult: 1
  }
  param {
    lr_mult: 2
    decay_mult: 0
  }
  inner_product_param {
    num_output: 1024
    weight_filler {
      type: "xavier"
      std: 0.02
    }
    bias_filler {
      type: "constant"
      value: 0.2
    }
  }
}
layer {
  name: "loss1/relu_fc"
  type: "ReLU"
  bottom: "loss1/fc"
  top: "loss1/fc"
}
layer {
  name: "loss1/drop_fc"
  type: "Dropout"
  bottom: "loss1/fc"
  top: "loss1/fc"
  dropout_param {
    dropout_ratio: 0.7
  }
}
layer {
  name: "loss1/classifier_plantvillage"
  type: "InnerProduct"
  bottom: "loss1/fc"
  top: "loss1/classifier_plantvillage"
  param {
    lr_mult: 1
    decay_mult: 1
  }
  param {
    lr_mult: 2
    decay_mult: 0
  }
  inner_product_param {
    num_output: 38
    weight_filler {
      type: "xavier"
      std: 0.0009765625
    }
    bias_filler {
      type: "constant"
      value: 0
    }
  }
}
layer {
  name: "inception_4b/1x1"
  type: "Convolution"
  bottom: "inception_4a/output"
  top: "inception_4b/1x1"
  param {
    lr_mult: 1
    decay_mult: 1
  }
  param {
    lr_mult: 2
    decay_mult: 0
  }
  convolution_param {
    num_output: 160
    kernel_size: 1
    weight_filler {
      type: "xavier"
      std: 0.03
    }
    bias_filler {
      type: "constant"
      value: 0.2
    }
  }
}
layer {
  name: "inception_4b/relu_1x1"
  type: "ReLU"
  bottom: "inception_4b/1x1"
  top: "inception_4b/1x1"
}
layer {
  name: "inception_4b/3x3_reduce"
  type: "Convolution"
  bottom: "inception_4a/output"
  top: "inception_4b/3x3_reduce"
  param {
    lr_mult: 1
    decay_mult: 1
  }
  param {
    lr_mult: 2
    decay_mult: 0
  }
  convolution_param {
    num_output: 112
    kernel_size: 1
    weight_filler {
      type: "xavier"
      std: 0.09
    }
    bias_filler {
      type: "constant"
      value: 0.2
    }
  }
}
layer {
  name: "inception_4b/relu_3x3_reduce"
  type: "ReLU"
  bottom: "inception_4b/3x3_reduce"
  top: "inception_4b/3x3_reduce"
}
layer {
  name: "inception_4b/3x3"
  type: "Convolution"
  bottom: "inception_4b/3x3_reduce"
  top: "inception_4b/3x3"
  param {
    lr_mult: 1
    decay_mult: 1
  }
  param {
    lr_mult: 2
    decay_mult: 0
  }
  convolution_param {
    num_output: 224
    pad: 1
    kernel_size: 3
    weight_filler {
      type: "xavier"
      std: 0.03
    }
    bias_filler {
      type: "constant"
      value: 0.2
    }
  }
}
layer {
  name: "inception_4b/relu_3x3"
  type: "ReLU"
  bottom: "inception_4b/3x3"
  top: "inception_4b/3x3"
}
layer {
  name: "inception_4b/5x5_reduce"
  type: "Convolution"
  bottom: "inception_4a/output"
  top: "inception_4b/5x5_reduce"
  param {
    lr_mult: 1
    decay_mult: 1
  }
  param {
    lr_mult: 2
    decay_mult: 0
  }
  convolution_param {
    num_output: 24
    kernel_size: 1
    weight_filler {
      type: "xavier"
      std: 0.2
    }
    bias_filler {
      type: "constant"
      value: 0.2
    }
  }
}
layer {
  name: "inception_4b/relu_5x5_reduce"
  type: "ReLU"
  bottom: "inception_4b/5x5_reduce"
  top: "inception_4b/5x5_reduce"
}
layer {
  name: "inception_4b/5x5"
  type: "Convolution"
  bottom: "inception_4b/5x5_reduce"
  top: "inception_4b/5x5"
  param {
    lr_mult: 1
    decay_mult: 1
  }
  param {
    lr_mult: 2
    decay_mult: 0
  }
  convolution_param {
    num_output: 64
    pad: 2
    kernel_size: 5
    weight_filler {
      type: "xavier"
      std: 0.03
    }
    bias_filler {
      type: "constant"
      value: 0.2
    }
  }
}
layer {
  name: "inception_4b/relu_5x5"
  type: "ReLU"
  bottom: "inception_4b/5x5"
  top: "inception_4b/5x5"
}
layer {
  name: "inception_4b/pool"
  type: "Pooling"
  bottom: "inception_4a/output"
  top: "inception_4b/pool"
  pooling_param {
    pool: MAX
    kernel_size: 3
    stride: 1
    pad: 1
  }
}
layer {
  name: "inception_4b/pool_proj"
  type: "Convolution"
  bottom: "inception_4b/pool"
  top: "inception_4b/pool_proj"
  param {
    lr_mult: 1
    decay_mult: 1
  }
  param {
    lr_mult: 2
    decay_mult: 0
  }
  convolution_param {
    num_output: 64
    kernel_size: 1
    weight_filler {
      type: "xavier"
      std: 0.1
    }
    bias_filler {
      type: "constant"
      value: 0.2
    }
  }
}
layer {
  name: "inception_4b/relu_pool_proj"
  type: "ReLU"
  bottom: "inception_4b/pool_proj"
  top: "inception_4b/pool_proj"
}
layer {
  name: "inception_4b/output"
  type: "Concat"
  bottom: "inception_4b/1x1"
  bottom: "inception_4b/3x3"
  bottom: "inception_4b/5x5"
  bottom: "inception_4b/pool_proj"
  top: "inception_4b/output"
}
layer {
  name: "inception_4c/1x1"
  type: "Convolution"
  bottom: "inception_4b/output"
  top: "inception_4c/1x1"
  param {
    lr_mult: 1
    decay_mult: 1
  }
  param {
    lr_mult: 2
    decay_mult: 0
  }
  convolution_param {
    num_output: 128
    kernel_size: 1
    weight_filler {
      type: "xavier"
      std: 0.03
    }
    bias_filler {
      type: "constant"
      value: 0.2
    }
  }
}
layer {
  name: "inception_4c/relu_1x1"
  type: "ReLU"
  bottom: "inception_4c/1x1"
  top: "inception_4c/1x1"
}
layer {
  name: "inception_4c/3x3_reduce"
  type: "Convolution"
  bottom: "inception_4b/output"
  top: "inception_4c/3x3_reduce"
  param {
    lr_mult: 1
    decay_mult: 1
  }
  param {
    lr_mult: 2
    decay_mult: 0
  }
  convolution_param {
    num_output: 128
    kernel_size: 1
    weight_filler {
      type: "xavier"
      std: 0.09
    }
    bias_filler {
      type: "constant"
      value: 0.2
    }
  }
}
layer {
  name: "inception_4c/relu_3x3_reduce"
  type: "ReLU"
  bottom: "inception_4c/3x3_reduce"
  top: "inception_4c/3x3_reduce"
}
layer {
  name: "inception_4c/3x3"
  type: "Convolution"
  bottom: "inception_4c/3x3_reduce"
  top: "inception_4c/3x3"
  param {
    lr_mult: 1
    decay_mult: 1
  }
  param {
    lr_mult: 2
    decay_mult: 0
  }
  convolution_param {
    num_output: 256
    pad: 1
    kernel_size: 3
    weight_filler {
      type: "xavier"
      std: 0.03
    }
    bias_filler {
      type: "constant"
      value: 0.2
    }
  }
}
layer {
  name: "inception_4c/relu_3x3"
  type: "ReLU"
  bottom: "inception_4c/3x3"
  top: "inception_4c/3x3"
}
layer {
  name: "inception_4c/5x5_reduce"
  type: "Convolution"
  bottom: "inception_4b/output"
  top: "inception_4c/5x5_reduce"
  param {
    lr_mult: 1
    decay_mult: 1
  }
  param {
    lr_mult: 2
    decay_mult: 0
  }
  convolution_param {
    num_output: 24
    kernel_size: 1
    weight_filler {
      type: "xavier"
      std: 0.2
    }
    bias_filler {
      type: "constant"
      value: 0.2
    }
  }
}
layer {
  name: "inception_4c/relu_5x5_reduce"
  type: "ReLU"
  bottom: "inception_4c/5x5_reduce"
  top: "inception_4c/5x5_reduce"
}
layer {
  name: "inception_4c/5x5"
  type: "Convolution"
  bottom: "inception_4c/5x5_reduce"
  top: "inception_4c/5x5"
  param {
    lr_mult: 1
    decay_mult: 1
  }
  param {
    lr_mult: 2
    decay_mult: 0
  }
  convolution_param {
    num_output: 64
    pad: 2
    kernel_size: 5
    weight_filler {
      type: "xavier"
      std: 0.03
    }
    bias_filler {
      type: "constant"
      value: 0.2
    }
  }
}
layer {
  name: "inception_4c/relu_5x5"
  type: "ReLU"
  bottom: "inception_4c/5x5"
  top: "inception_4c/5x5"
}
layer {
  name: "inception_4c/pool"
  type: "Pooling"
  bottom: "inception_4b/output"
  top: "inception_4c/pool"
  pooling_param {
    pool: MAX
    kernel_size: 3
    stride: 1
    pad: 1
  }
}
layer {
  name: "inception_4c/pool_proj"
  type: "Convolution"
  bottom: "inception_4c/pool"
  top: "inception_4c/pool_proj"
  param {
    lr_mult: 1
    decay_mult: 1
  }
  param {
    lr_mult: 2
    decay_mult: 0
  }
  convolution_param {
    num_output: 64
    kernel_size: 1
    weight_filler {
      type: "xavier"
      std: 0.1
    }
    bias_filler {
      type: "constant"
      value: 0.2
    }
  }
}
layer {
  name: "inception_4c/relu_pool_proj"
  type: "ReLU"
  bottom: "inception_4c/pool_proj"
  top: "inception_4c/pool_proj"
}
layer {
  name: "inception_4c/output"
  type: "Concat"
  bottom: "inception_4c/1x1"
  bottom: "inception_4c/3x3"
  bottom: "inception_4c/5x5"
  bottom: "inception_4c/pool_proj"
  top: "inception_4c/output"
}
layer {
  name: "inception_4d/1x1"
  type: "Convolution"
  bottom: "inception_4c/output"
  top: "inception_4d/1x1"
  param {
    lr_mult: 1
    decay_mult: 1
  }
  param {
    lr_mult: 2
    decay_mult: 0
  }
  convolution_param {
    num_output: 112
    kernel_size: 1
    weight_filler {
      type: "xavier"
      std: 0.03
    }
    bias_filler {
      type: "constant"
      value: 0.2
    }
  }
}
layer {
  name: "inception_4d/relu_1x1"
  type: "ReLU"
  bottom: "inception_4d/1x1"
  top: "inception_4d/1x1"
}
layer {
  name: "inception_4d/3x3_reduce"
  type: "Convolution"
  bottom: "inception_4c/output"
  top: "inception_4d/3x3_reduce"
  param {
    lr_mult: 1
    decay_mult: 1
  }
  param {
    lr_mult: 2
    decay_mult: 0
  }
  convolution_param {
    num_output: 144
    kernel_size: 1
    weight_filler {
      type: "xavier"
      std: 0.09
    }
    bias_filler {
      type: "constant"
      value: 0.2
    }
  }
}
layer {
  name: "inception_4d/relu_3x3_reduce"
  type: "ReLU"
  bottom: "inception_4d/3x3_reduce"
  top: "inception_4d/3x3_reduce"
}
layer {
  name: "inception_4d/3x3"
  type: "Convolution"
  bottom: "inception_4d/3x3_reduce"
  top: "inception_4d/3x3"
  param {
    lr_mult: 1
    decay_mult: 1
  }
  param {
    lr_mult: 2
    decay_mult: 0
  }
  convolution_param {
    num_output: 288
    pad: 1
    kernel_size: 3
    weight_filler {
      type: "xavier"
      std: 0.03
    }
    bias_filler {
      type: "constant"
      value: 0.2
    }
  }
}
layer {
  name: "inception_4d/relu_3x3"
  type: "ReLU"
  bottom: "inception_4d/3x3"
  top: "inception_4d/3x3"
}
layer {
  name: "inception_4d/5x5_reduce"
  type: "Convolution"
  bottom: "inception_4c/output"
  top: "inception_4d/5x5_reduce"
  param {
    lr_mult: 1
    decay_mult: 1
  }
  param {
    lr_mult: 2
    decay_mult: 0
  }
  convolution_param {
    num_output: 32
    kernel_size: 1
    weight_filler {
      type: "xavier"
      std: 0.2
    }
    bias_filler {
      type: "constant"
      value: 0.2
    }
  }
}
layer {
  name: "inception_4d/relu_5x5_reduce"
  type: "ReLU"
  bottom: "inception_4d/5x5_reduce"
  top: "inception_4d/5x5_reduce"
}
layer {
  name: "inception_4d/5x5"
  type: "Convolution"
  bottom: "inception_4d/5x5_reduce"
  top: "inception_4d/5x5"
  param {
    lr_mult: 1
    decay_mult: 1
  }
  param {
    lr_mult: 2
    decay_mult: 0
  }
  convolution_param {
    num_output: 64
    pad: 2
    kernel_size: 5
    weight_filler {
      type: "xavier"
      std: 0.03
    }
    bias_filler {
      type: "constant"
      value: 0.2
    }
  }
}
layer {
  name: "inception_4d/relu_5x5"
  type: "ReLU"
  bottom: "inception_4d/5x5"
  top: "inception_4d/5x5"
}
layer {
  name: "inception_4d/pool"
  type: "Pooling"
  bottom: "inception_4c/output"
  top: "inception_4d/pool"
  pooling_param {
    pool: MAX
    kernel_size: 3
    stride: 1
    pad: 1
  }
}
layer {
  name: "inception_4d/pool_proj"
  type: "Convolution"
  bottom: "inception_4d/pool"
  top: "inception_4d/pool_proj"
  param {
    lr_mult: 1
    decay_mult: 1
  }
  param {
    lr_mult: 2
    decay_mult: 0
  }
  convolution_param {
    num_output: 64
    kernel_size: 1
    weight_filler {
      type: "xavier"
      std: 0.1
    }
    bias_filler {
      type: "constant"
      value: 0.2
    }
  }
}
layer {
  name: "inception_4d/relu_pool_proj"
  type: "ReLU"
  bottom: "inception_4d/pool_proj"
  top: "inception_4d/pool_proj"
}
layer {
  name: "inception_4d/output"
  type: "Concat"
  bottom: "inception_4d/1x1"
  bottom: "inception_4d/3x3"
  bottom: "inception_4d/5x5"
  bottom: "inception_4d/pool_proj"
  top: "inception_4d/output"
}
layer {
  name: "loss2/ave_pool"
  type: "Pooling"
  bottom: "inception_4d/output"
  top: "loss2/ave_pool"
  pooling_param {
    pool: AVE
    kernel_size: 5
    stride: 3
  }
}
layer {
  name: "loss2/conv"
  type: "Convolution"
  bottom: "loss2/ave_pool"
  top: "loss2/conv"
  param {
    lr_mult: 1
    decay_mult: 1
  }
  param {
    lr_mult: 2
    decay_mult: 0
  }
  convolution_param {
    num_output: 128
    kernel_size: 1
    weight_filler {
      type: "xavier"
      std: 0.08
    }
    bias_filler {
      type: "constant"
      value: 0.2
    }
  }
}
layer {
  name: "loss2/relu_conv"
  type: "ReLU"
  bottom: "loss2/conv"
  top: "loss2/conv"
}
layer {
  name: "loss2/fc"
  type: "InnerProduct"
  bottom: "loss2/conv"
  top: "loss2/fc"
  param {
    lr_mult: 1
    decay_mult: 1
  }
  param {
    lr_mult: 2
    decay_mult: 0
  }
  inner_product_param {
    num_output: 1024
    weight_filler {
      type: "xavier"
      std: 0.02
    }
    bias_filler {
      type: "constant"
      value: 0.2
    }
  }
}
layer {
  name: "loss2/relu_fc"
  type: "ReLU"
  bottom: "loss2/fc"
  top: "loss2/fc"
}
layer {
  name: "loss2/drop_fc"
  type: "Dropout"
  bottom: "loss2/fc"
  top: "loss2/fc"
  dropout_param {
    dropout_ratio: 0.7
  }
}
layer {
  name: "loss2/classifier_plantvillage"
  type: "InnerProduct"
  bottom: "loss2/fc"
  top: "loss2/classifier_plantvillage"
  param {
    lr_mult: 1
    decay_mult: 1
  }
  param {
    lr_mult: 2
    decay_mult: 0
  }
  inner_product_param {
    num_output: 38
    weight_filler {
      type: "xavier"
      std: 0.0009765625
    }
    bias_filler {
      type: "constant"
      value: 0
    }
  }
}
layer {
  name: "inception_4e/1x1"
  type: "Convolution"
  bottom: "inception_4d/output"
  top: "inception_4e/1x1"
  param {
    lr_mult: 1
    decay_mult: 1
  }
  param {
    lr_mult: 2
    decay_mult: 0
  }
  convolution_param {
    num_output: 256
    kernel_size: 1
    weight_filler {
      type: "xavier"
      std: 0.03
    }
    bias_filler {
      type: "constant"
      value: 0.2
    }
  }
}
layer {
  name: "inception_4e/relu_1x1"
  type: "ReLU"
  bottom: "inception_4e/1x1"
  top: "inception_4e/1x1"
}
layer {
  name: "inception_4e/3x3_reduce"
  type: "Convolution"
  bottom: "inception_4d/output"
  top: "inception_4e/3x3_reduce"
  param {
    lr_mult: 1
    decay_mult: 1
  }
  param {
    lr_mult: 2
    decay_mult: 0
  }
  convolution_param {
    num_output: 160
    kernel_size: 1
    weight_filler {
      type: "xavier"
      std: 0.09
    }
    bias_filler {
      type: "constant"
      value: 0.2
    }
  }
}
layer {
  name: "inception_4e/relu_3x3_reduce"
  type: "ReLU"
  bottom: "inception_4e/3x3_reduce"
  top: "inception_4e/3x3_reduce"
}
layer {
  name: "inception_4e/3x3"
  type: "Convolution"
  bottom: "inception_4e/3x3_reduce"
  top: "inception_4e/3x3"
  param {
    lr_mult: 1
    decay_mult: 1
  }
  param {
    lr_mult: 2
    decay_mult: 0
  }
  convolution_param {
    num_output: 320
    pad: 1
    kernel_size: 3
    weight_filler {
      type: "xavier"
      std: 0.03
    }
    bias_filler {
      type: "constant"
      value: 0.2
    }
  }
}
layer {
  name: "inception_4e/relu_3x3"
  type: "ReLU"
  bottom: "inception_4e/3x3"
  top: "inception_4e/3x3"
}
layer {
  name: "inception_4e/5x5_reduce"
  type: "Convolution"
  bottom: "inception_4d/output"
  top: "inception_4e/5x5_reduce"
  param {
    lr_mult: 1
    decay_mult: 1
  }
  param {
    lr_mult: 2
    decay_mult: 0
  }
  convolution_param {
    num_output: 32
    kernel_size: 1
    weight_filler {
      type: "xavier"
      std: 0.2
    }
    bias_filler {
      type: "constant"
      value: 0.2
    }
  }
}
layer {
  name: "inception_4e/relu_5x5_reduce"
  type: "ReLU"
  bottom: "inception_4e/5x5_reduce"
  top: "inception_4e/5x5_reduce"
}
layer {
  name: "inception_4e/5x5"
  type: "Convolution"
  bottom: "inception_4e/5x5_reduce"
  top: "inception_4e/5x5"
  p
I0403 14:24:23.295384 13241 layer_factory.hpp:77] Creating layer data
I0403 14:24:23.295975 13241 net.cpp:91] Creating Layer data
I0403 14:24:23.296007 13241 net.cpp:399] data -> data
I0403 14:24:23.296058 13241 net.cpp:399] data -> label
I0403 14:24:23.296095 13241 data_transformer.cpp:25] Loading mean file from: /home/mohanty/data/final_dataset/lmdb/color-40-60/mean.binaryproto
I0403 14:24:23.300225 13244 db_lmdb.cpp:38] Opened lmdb /home/mohanty/data/final_dataset/lmdb/color-40-60/test_db
I0403 14:24:23.310034 13241 data_layer.cpp:41] output data size: 24,3,224,224
I0403 14:24:23.337587 13241 net.cpp:141] Setting up data
I0403 14:24:23.337651 13241 net.cpp:148] Top shape: 24 3 224 224 (3612672)
I0403 14:24:23.337673 13241 net.cpp:148] Top shape: 24 (24)
I0403 14:24:23.337688 13241 net.cpp:156] Memory required for data: 14450784
I0403 14:24:23.337716 13241 layer_factory.hpp:77] Creating layer label_data_1_split
I0403 14:24:23.337743 13241 net.cpp:91] Creating Layer label_data_1_split
I0403 14:24:23.337764 13241 net.cpp:425] label_data_1_split <- label
I0403 14:24:23.337795 13241 net.cpp:399] label_data_1_split -> label_data_1_split_0
I0403 14:24:23.337823 13241 net.cpp:399] label_data_1_split -> label_data_1_split_1
I0403 14:24:23.337844 13241 net.cpp:399] label_data_1_split -> label_data_1_split_2
I0403 14:24:23.337864 13241 net.cpp:399] label_data_1_split -> label_data_1_split_3
I0403 14:24:23.337884 13241 net.cpp:399] label_data_1_split -> label_data_1_split_4
I0403 14:24:23.337905 13241 net.cpp:399] label_data_1_split -> label_data_1_split_5
I0403 14:24:23.337925 13241 net.cpp:399] label_data_1_split -> label_data_1_split_6
I0403 14:24:23.337945 13241 net.cpp:399] label_data_1_split -> label_data_1_split_7
I0403 14:24:23.337965 13241 net.cpp:399] label_data_1_split -> label_data_1_split_8
I0403 14:24:23.337985 13241 net.cpp:399] label_data_1_split -> label_data_1_split_9
I0403 14:24:23.338101 13241 net.cpp:141] Setting up label_data_1_split
I0403 14:24:23.338125 13241 net.cpp:148] Top shape: 24 (24)
I0403 14:24:23.338143 13241 net.cpp:148] Top shape: 24 (24)
I0403 14:24:23.338160 13241 net.cpp:148] Top shape: 24 (24)
I0403 14:24:23.338174 13241 net.cpp:148] Top shape: 24 (24)
I0403 14:24:23.338191 13241 net.cpp:148] Top shape: 24 (24)
I0403 14:24:23.338206 13241 net.cpp:148] Top shape: 24 (24)
I0403 14:24:23.338222 13241 net.cpp:148] Top shape: 24 (24)
I0403 14:24:23.338238 13241 net.cpp:148] Top shape: 24 (24)
I0403 14:24:23.338253 13241 net.cpp:148] Top shape: 24 (24)
I0403 14:24:23.338279 13241 net.cpp:148] Top shape: 24 (24)
I0403 14:24:23.338312 13241 net.cpp:156] Memory required for data: 14451744
I0403 14:24:23.338328 13241 layer_factory.hpp:77] Creating layer conv1/7x7_s2
I0403 14:24:23.338361 13241 net.cpp:91] Creating Layer conv1/7x7_s2
I0403 14:24:23.338378 13241 net.cpp:425] conv1/7x7_s2 <- data
I0403 14:24:23.338397 13241 net.cpp:399] conv1/7x7_s2 -> conv1/7x7_s2
I0403 14:24:23.476025 13241 net.cpp:141] Setting up conv1/7x7_s2
I0403 14:24:23.476101 13241 net.cpp:148] Top shape: 24 64 112 112 (19267584)
I0403 14:24:23.476119 13241 net.cpp:156] Memory required for data: 91522080
I0403 14:24:23.476150 13241 layer_factory.hpp:77] Creating layer conv1/relu_7x7
I0403 14:24:23.476178 13241 net.cpp:91] Creating Layer conv1/relu_7x7
I0403 14:24:23.476197 13241 net.cpp:425] conv1/relu_7x7 <- conv1/7x7_s2
I0403 14:24:23.476215 13241 net.cpp:386] conv1/relu_7x7 -> conv1/7x7_s2 (in-place)
I0403 14:24:23.476480 13241 net.cpp:141] Setting up conv1/relu_7x7
I0403 14:24:23.476508 13241 net.cpp:148] Top shape: 24 64 112 112 (19267584)
I0403 14:24:23.476523 13241 net.cpp:156] Memory required for data: 168592416
I0403 14:24:23.476539 13241 layer_factory.hpp:77] Creating layer pool1/3x3_s2
I0403 14:24:23.476564 13241 net.cpp:91] Creating Layer pool1/3x3_s2
I0403 14:24:23.476583 13241 net.cpp:425] pool1/3x3_s2 <- conv1/7x7_s2
I0403 14:24:23.476605 13241 net.cpp:399] pool1/3x3_s2 -> pool1/3x3_s2
I0403 14:24:23.476681 13241 net.cpp:141] Setting up pool1/3x3_s2
I0403 14:24:23.476706 13241 net.cpp:148] Top shape: 24 64 56 56 (4816896)
I0403 14:24:23.476722 13241 net.cpp:156] Memory required for data: 187860000
I0403 14:24:23.476737 13241 layer_factory.hpp:77] Creating layer pool1/norm1
I0403 14:24:23.476761 13241 net.cpp:91] Creating Layer pool1/norm1
I0403 14:24:23.476778 13241 net.cpp:425] pool1/norm1 <- pool1/3x3_s2
I0403 14:24:23.476796 13241 net.cpp:399] pool1/norm1 -> pool1/norm1
I0403 14:24:23.477090 13241 net.cpp:141] Setting up pool1/norm1
I0403 14:24:23.477118 13241 net.cpp:148] Top shape: 24 64 56 56 (4816896)
I0403 14:24:23.477134 13241 net.cpp:156] Memory required for data: 207127584
I0403 14:24:23.477149 13241 layer_factory.hpp:77] Creating layer conv2/3x3_reduce
I0403 14:24:23.477174 13241 net.cpp:91] Creating Layer conv2/3x3_reduce
I0403 14:24:23.477191 13241 net.cpp:425] conv2/3x3_reduce <- pool1/norm1
I0403 14:24:23.477210 13241 net.cpp:399] conv2/3x3_reduce -> conv2/3x3_reduce
I0403 14:24:23.478571 13241 net.cpp:141] Setting up conv2/3x3_reduce
I0403 14:24:23.478606 13241 net.cpp:148] Top shape: 24 64 56 56 (4816896)
I0403 14:24:23.478626 13241 net.cpp:156] Memory required for data: 226395168
I0403 14:24:23.478648 13241 layer_factory.hpp:77] Creating layer conv2/relu_3x3_reduce
I0403 14:24:23.478668 13241 net.cpp:91] Creating Layer conv2/relu_3x3_reduce
I0403 14:24:23.478687 13241 net.cpp:425] conv2/relu_3x3_reduce <- conv2/3x3_reduce
I0403 14:24:23.478703 13241 net.cpp:386] conv2/relu_3x3_reduce -> conv2/3x3_reduce (in-place)
I0403 14:24:23.478958 13241 net.cpp:141] Setting up conv2/relu_3x3_reduce
I0403 14:24:23.478987 13241 net.cpp:148] Top shape: 24 64 56 56 (4816896)
I0403 14:24:23.479003 13241 net.cpp:156] Memory required for data: 245662752
I0403 14:24:23.479019 13241 layer_factory.hpp:77] Creating layer conv2/3x3
I0403 14:24:23.479041 13241 net.cpp:91] Creating Layer conv2/3x3
I0403 14:24:23.479060 13241 net.cpp:425] conv2/3x3 <- conv2/3x3_reduce
I0403 14:24:23.479079 13241 net.cpp:399] conv2/3x3 -> conv2/3x3
I0403 14:24:23.481364 13241 net.cpp:141] Setting up conv2/3x3
I0403 14:24:23.481397 13241 net.cpp:148] Top shape: 24 192 56 56 (14450688)
I0403 14:24:23.481415 13241 net.cpp:156] Memory required for data: 303465504
I0403 14:24:23.481438 13241 layer_factory.hpp:77] Creating layer conv2/relu_3x3
I0403 14:24:23.481470 13241 net.cpp:91] Creating Layer conv2/relu_3x3
I0403 14:24:23.481487 13241 net.cpp:425] conv2/relu_3x3 <- conv2/3x3
I0403 14:24:23.481504 13241 net.cpp:386] conv2/relu_3x3 -> conv2/3x3 (in-place)
I0403 14:24:23.481669 13241 net.cpp:141] Setting up conv2/relu_3x3
I0403 14:24:23.481695 13241 net.cpp:148] Top shape: 24 192 56 56 (14450688)
I0403 14:24:23.481744 13241 net.cpp:156] Memory required for data: 361268256
I0403 14:24:23.481760 13241 layer_factory.hpp:77] Creating layer conv2/norm2
I0403 14:24:23.481780 13241 net.cpp:91] Creating Layer conv2/norm2
I0403 14:24:23.481797 13241 net.cpp:425] conv2/norm2 <- conv2/3x3
I0403 14:24:23.481817 13241 net.cpp:399] conv2/norm2 -> conv2/norm2
I0403 14:24:23.482097 13241 net.cpp:141] Setting up conv2/norm2
I0403 14:24:23.482125 13241 net.cpp:148] Top shape: 24 192 56 56 (14450688)
I0403 14:24:23.482139 13241 net.cpp:156] Memory required for data: 419071008
I0403 14:24:23.482153 13241 layer_factory.hpp:77] Creating layer pool2/3x3_s2
I0403 14:24:23.482172 13241 net.cpp:91] Creating Layer pool2/3x3_s2
I0403 14:24:23.482187 13241 net.cpp:425] pool2/3x3_s2 <- conv2/norm2
I0403 14:24:23.482205 13241 net.cpp:399] pool2/3x3_s2 -> pool2/3x3_s2
I0403 14:24:23.482254 13241 net.cpp:141] Setting up pool2/3x3_s2
I0403 14:24:23.482275 13241 net.cpp:148] Top shape: 24 192 28 28 (3612672)
I0403 14:24:23.482290 13241 net.cpp:156] Memory required for data: 433521696
I0403 14:24:23.482306 13241 layer_factory.hpp:77] Creating layer pool2/3x3_s2_pool2/3x3_s2_0_split
I0403 14:24:23.482322 13241 net.cpp:91] Creating Layer pool2/3x3_s2_pool2/3x3_s2_0_split
I0403 14:24:23.482337 13241 net.cpp:425] pool2/3x3_s2_pool2/3x3_s2_0_split <- pool2/3x3_s2
I0403 14:24:23.482354 13241 net.cpp:399] pool2/3x3_s2_pool2/3x3_s2_0_split -> pool2/3x3_s2_pool2/3x3_s2_0_split_0
I0403 14:24:23.482372 13241 net.cpp:399] pool2/3x3_s2_pool2/3x3_s2_0_split -> pool2/3x3_s2_pool2/3x3_s2_0_split_1
I0403 14:24:23.482391 13241 net.cpp:399] pool2/3x3_s2_pool2/3x3_s2_0_split -> pool2/3x3_s2_pool2/3x3_s2_0_split_2
I0403 14:24:23.482410 13241 net.cpp:399] pool2/3x3_s2_pool2/3x3_s2_0_split -> pool2/3x3_s2_pool2/3x3_s2_0_split_3
I0403 14:24:23.482475 13241 net.cpp:141] Setting up pool2/3x3_s2_pool2/3x3_s2_0_split
I0403 14:24:23.482496 13241 net.cpp:148] Top shape: 24 192 28 28 (3612672)
I0403 14:24:23.482512 13241 net.cpp:148] Top shape: 24 192 28 28 (3612672)
I0403 14:24:23.482527 13241 net.cpp:148] Top shape: 24 192 28 28 (3612672)
I0403 14:24:23.482543 13241 net.cpp:148] Top shape: 24 192 28 28 (3612672)
I0403 14:24:23.482556 13241 net.cpp:156] Memory required for data: 491324448
I0403 14:24:23.482571 13241 layer_factory.hpp:77] Creating layer inception_3a/1x1
I0403 14:24:23.482590 13241 net.cpp:91] Creating Layer inception_3a/1x1
I0403 14:24:23.482611 13241 net.cpp:425] inception_3a/1x1 <- pool2/3x3_s2_pool2/3x3_s2_0_split_0
I0403 14:24:23.482630 13241 net.cpp:399] inception_3a/1x1 -> inception_3a/1x1
I0403 14:24:23.484135 13241 net.cpp:141] Setting up inception_3a/1x1
I0403 14:24:23.484165 13241 net.cpp:148] Top shape: 24 64 28 28 (1204224)
I0403 14:24:23.484181 13241 net.cpp:156] Memory required for data: 496141344
I0403 14:24:23.484201 13241 layer_factory.hpp:77] Creating layer inception_3a/relu_1x1
I0403 14:24:23.484225 13241 net.cpp:91] Creating Layer inception_3a/relu_1x1
I0403 14:24:23.484243 13241 net.cpp:425] inception_3a/relu_1x1 <- inception_3a/1x1
I0403 14:24:23.484264 13241 net.cpp:386] inception_3a/relu_1x1 -> inception_3a/1x1 (in-place)
I0403 14:24:23.484441 13241 net.cpp:141] Setting up inception_3a/relu_1x1
I0403 14:24:23.484465 13241 net.cpp:148] Top shape: 24 64 28 28 (1204224)
I0403 14:24:23.484482 13241 net.cpp:156] Memory required for data: 500958240
I0403 14:24:23.484495 13241 layer_factory.hpp:77] Creating layer inception_3a/3x3_reduce
I0403 14:24:23.484519 13241 net.cpp:91] Creating Layer inception_3a/3x3_reduce
I0403 14:24:23.484537 13241 net.cpp:425] inception_3a/3x3_reduce <- pool2/3x3_s2_pool2/3x3_s2_0_split_1
I0403 14:24:23.484556 13241 net.cpp:399] inception_3a/3x3_reduce -> inception_3a/3x3_reduce
I0403 14:24:23.486276 13241 net.cpp:141] Setting up inception_3a/3x3_reduce
I0403 14:24:23.486306 13241 net.cpp:148] Top shape: 24 96 28 28 (1806336)
I0403 14:24:23.486323 13241 net.cpp:156] Memory required for data: 508183584
I0403 14:24:23.486346 13241 layer_factory.hpp:77] Creating layer inception_3a/relu_3x3_reduce
I0403 14:24:23.486385 13241 net.cpp:91] Creating Layer inception_3a/relu_3x3_reduce
I0403 14:24:23.486404 13241 net.cpp:425] inception_3a/relu_3x3_reduce <- inception_3a/3x3_reduce
I0403 14:24:23.486423 13241 net.cpp:386] inception_3a/relu_3x3_reduce -> inception_3a/3x3_reduce (in-place)
I0403 14:24:23.486606 13241 net.cpp:141] Setting up inception_3a/relu_3x3_reduce
I0403 14:24:23.486634 13241 net.cpp:148] Top shape: 24 96 28 28 (1806336)
I0403 14:24:23.486649 13241 net.cpp:156] Memory required for data: 515408928
I0403 14:24:23.486663 13241 layer_factory.hpp:77] Creating layer inception_3a/3x3
I0403 14:24:23.486685 13241 net.cpp:91] Creating Layer inception_3a/3x3
I0403 14:24:23.486702 13241 net.cpp:425] inception_3a/3x3 <- inception_3a/3x3_reduce
I0403 14:24:23.486724 13241 net.cpp:399] inception_3a/3x3 -> inception_3a/3x3
I0403 14:24:23.488350 13241 net.cpp:141] Setting up inception_3a/3x3
I0403 14:24:23.488380 13241 net.cpp:148] Top shape: 24 128 28 28 (2408448)
I0403 14:24:23.488396 13241 net.cpp:156] Memory required for data: 525042720
I0403 14:24:23.488416 13241 layer_factory.hpp:77] Creating layer inception_3a/relu_3x3
I0403 14:24:23.488436 13241 net.cpp:91] Creating Layer inception_3a/relu_3x3
I0403 14:24:23.488453 13241 net.cpp:425] inception_3a/relu_3x3 <- inception_3a/3x3
I0403 14:24:23.488471 13241 net.cpp:386] inception_3a/relu_3x3 -> inception_3a/3x3 (in-place)
I0403 14:24:23.488751 13241 net.cpp:141] Setting up inception_3a/relu_3x3
I0403 14:24:23.488777 13241 net.cpp:148] Top shape: 24 128 28 28 (2408448)
I0403 14:24:23.488792 13241 net.cpp:156] Memory required for data: 534676512
I0403 14:24:23.488807 13241 layer_factory.hpp:77] Creating layer inception_3a/5x5_reduce
I0403 14:24:23.488829 13241 net.cpp:91] Creating Layer inception_3a/5x5_reduce
I0403 14:24:23.488853 13241 net.cpp:425] inception_3a/5x5_reduce <- pool2/3x3_s2_pool2/3x3_s2_0_split_2
I0403 14:24:23.488875 13241 net.cpp:399] inception_3a/5x5_reduce -> inception_3a/5x5_reduce
I0403 14:24:23.489845 13241 net.cpp:141] Setting up inception_3a/5x5_reduce
I0403 14:24:23.489876 13241 net.cpp:148] Top shape: 24 16 28 28 (301056)
I0403 14:24:23.489894 13241 net.cpp:156] Memory required for data: 535880736
I0403 14:24:23.489912 13241 layer_factory.hpp:77] Creating layer inception_3a/relu_5x5_reduce
I0403 14:24:23.489931 13241 net.cpp:91] Creating Layer inception_3a/relu_5x5_reduce
I0403 14:24:23.489948 13241 net.cpp:425] inception_3a/relu_5x5_reduce <- inception_3a/5x5_reduce
I0403 14:24:23.489966 13241 net.cpp:386] inception_3a/relu_5x5_reduce -> inception_3a/5x5_reduce (in-place)
I0403 14:24:23.490267 13241 net.cpp:141] Setting up inception_3a/relu_5x5_reduce
I0403 14:24:23.490298 13241 net.cpp:148] Top shape: 24 16 28 28 (301056)
I0403 14:24:23.490313 13241 net.cpp:156] Memory required for data: 537084960
I0403 14:24:23.490329 13241 layer_factory.hpp:77] Creating layer inception_3a/5x5
I0403 14:24:23.490351 13241 net.cpp:91] Creating Layer inception_3a/5x5
I0403 14:24:23.490370 13241 net.cpp:425] inception_3a/5x5 <- inception_3a/5x5_reduce
I0403 14:24:23.490391 13241 net.cpp:399] inception_3a/5x5 -> inception_3a/5x5
I0403 14:24:23.491408 13241 net.cpp:141] Setting up inception_3a/5x5
I0403 14:24:23.491437 13241 net.cpp:148] Top shape: 24 32 28 28 (602112)
I0403 14:24:23.491454 13241 net.cpp:156] Memory required for data: 539493408
I0403 14:24:23.491473 13241 layer_factory.hpp:77] Creating layer inception_3a/relu_5x5
I0403 14:24:23.491495 13241 net.cpp:91] Creating Layer inception_3a/relu_5x5
I0403 14:24:23.491514 13241 net.cpp:425] inception_3a/relu_5x5 <- inception_3a/5x5
I0403 14:24:23.491533 13241 net.cpp:386] inception_3a/relu_5x5 -> inception_3a/5x5 (in-place)
I0403 14:24:23.491711 13241 net.cpp:141] Setting up inception_3a/relu_5x5
I0403 14:24:23.491740 13241 net.cpp:148] Top shape: 24 32 28 28 (602112)
I0403 14:24:23.491757 13241 net.cpp:156] Memory required for data: 541901856
I0403 14:24:23.491772 13241 layer_factory.hpp:77] Creating layer inception_3a/pool
I0403 14:24:23.491791 13241 net.cpp:91] Creating Layer inception_3a/pool
I0403 14:24:23.491808 13241 net.cpp:425] inception_3a/pool <- pool2/3x3_s2_pool2/3x3_s2_0_split_3
I0403 14:24:23.491845 13241 net.cpp:399] inception_3a/pool -> inception_3a/pool
I0403 14:24:23.491904 13241 net.cpp:141] Setting up inception_3a/pool
I0403 14:24:23.491928 13241 net.cpp:148] Top shape: 24 192 28 28 (3612672)
I0403 14:24:23.491943 13241 net.cpp:156] Memory required for data: 556352544
I0403 14:24:23.491958 13241 layer_factory.hpp:77] Creating layer inception_3a/pool_proj
I0403 14:24:23.491981 13241 net.cpp:91] Creating Layer inception_3a/pool_proj
I0403 14:24:23.491997 13241 net.cpp:425] inception_3a/pool_proj <- inception_3a/pool
I0403 14:24:23.492018 13241 net.cpp:399] inception_3a/pool_proj -> inception_3a/pool_proj
I0403 14:24:23.492991 13241 net.cpp:141] Setting up inception_3a/pool_proj
I0403 14:24:23.493021 13241 net.cpp:148] Top shape: 24 32 28 28 (602112)
I0403 14:24:23.493037 13241 net.cpp:156] Memory required for data: 558760992
I0403 14:24:23.493062 13241 layer_factory.hpp:77] Creating layer inception_3a/relu_pool_proj
I0403 14:24:23.493083 13241 net.cpp:91] Creating Layer inception_3a/relu_pool_proj
I0403 14:24:23.493098 13241 net.cpp:425] inception_3a/relu_pool_proj <- inception_3a/pool_proj
I0403 14:24:23.493116 13241 net.cpp:386] inception_3a/relu_pool_proj -> inception_3a/pool_proj (in-place)
I0403 14:24:23.493405 13241 net.cpp:141] Setting up inception_3a/relu_pool_proj
I0403 14:24:23.493433 13241 net.cpp:148] Top shape: 24 32 28 28 (602112)
I0403 14:24:23.493448 13241 net.cpp:156] Memory required for data: 561169440
I0403 14:24:23.493464 13241 layer_factory.hpp:77] Creating layer inception_3a/output
I0403 14:24:23.493486 13241 net.cpp:91] Creating Layer inception_3a/output
I0403 14:24:23.493502 13241 net.cpp:425] inception_3a/output <- inception_3a/1x1
I0403 14:24:23.493520 13241 net.cpp:425] inception_3a/output <- inception_3a/3x3
I0403 14:24:23.493536 13241 net.cpp:425] inception_3a/output <- inception_3a/5x5
I0403 14:24:23.493566 13241 net.cpp:425] inception_3a/output <- inception_3a/pool_proj
I0403 14:24:23.493583 13241 net.cpp:399] inception_3a/output -> inception_3a/output
I0403 14:24:23.493635 13241 net.cpp:141] Setting up inception_3a/output
I0403 14:24:23.493660 13241 net.cpp:148] Top shape: 24 256 28 28 (4816896)
I0403 14:24:23.493675 13241 net.cpp:156] Memory required for data: 580437024
I0403 14:24:23.493688 13241 layer_factory.hpp:77] Creating layer inception_3a/output_inception_3a/output_0_split
I0403 14:24:23.493705 13241 net.cpp:91] Creating Layer inception_3a/output_inception_3a/output_0_split
I0403 14:24:23.493721 13241 net.cpp:425] inception_3a/output_inception_3a/output_0_split <- inception_3a/output
I0403 14:24:23.493739 13241 net.cpp:399] inception_3a/output_inception_3a/output_0_split -> inception_3a/output_inception_3a/output_0_split_0
I0403 14:24:23.493760 13241 net.cpp:399] inception_3a/output_inception_3a/output_0_split -> inception_3a/output_inception_3a/output_0_split_1
I0403 14:24:23.493782 13241 net.cpp:399] inception_3a/output_inception_3a/output_0_split -> inception_3a/output_inception_3a/output_0_split_2
I0403 14:24:23.493803 13241 net.cpp:399] inception_3a/output_inception_3a/output_0_split -> inception_3a/output_inception_3a/output_0_split_3
I0403 14:24:23.493886 13241 net.cpp:141] Setting up inception_3a/output_inception_3a/output_0_split
I0403 14:24:23.493909 13241 net.cpp:148] Top shape: 24 256 28 28 (4816896)
I0403 14:24:23.493927 13241 net.cpp:148] Top shape: 24 256 28 28 (4816896)
I0403 14:24:23.493942 13241 net.cpp:148] Top shape: 24 256 28 28 (4816896)
I0403 14:24:23.493957 13241 net.cpp:148] Top shape: 24 256 28 28 (4816896)
I0403 14:24:23.493971 13241 net.cpp:156] Memory required for data: 657507360
I0403 14:24:23.493985 13241 layer_factory.hpp:77] Creating layer inception_3b/1x1
I0403 14:24:23.494006 13241 net.cpp:91] Creating Layer inception_3b/1x1
I0403 14:24:23.494024 13241 net.cpp:425] inception_3b/1x1 <- inception_3a/output_inception_3a/output_0_split_0
I0403 14:24:23.494043 13241 net.cpp:399] inception_3b/1x1 -> inception_3b/1x1
I0403 14:24:23.495184 13241 net.cpp:141] Setting up inception_3b/1x1
I0403 14:24:23.495224 13241 net.cpp:148] Top shape: 24 128 28 28 (2408448)
I0403 14:24:23.495241 13241 net.cpp:156] Memory required for data: 667141152
I0403 14:24:23.495260 13241 layer_factory.hpp:77] Creating layer inception_3b/relu_1x1
I0403 14:24:23.495280 13241 net.cpp:91] Creating Layer inception_3b/relu_1x1
I0403 14:24:23.495297 13241 net.cpp:425] inception_3b/relu_1x1 <- inception_3b/1x1
I0403 14:24:23.495317 13241 net.cpp:386] inception_3b/relu_1x1 -> inception_3b/1x1 (in-place)
I0403 14:24:23.495493 13241 net.cpp:141] Setting up inception_3b/relu_1x1
I0403 14:24:23.495518 13241 net.cpp:148] Top shape: 24 128 28 28 (2408448)
I0403 14:24:23.495533 13241 net.cpp:156] Memory required for data: 676774944
I0403 14:24:23.495548 13241 layer_factory.hpp:77] Creating layer inception_3b/3x3_reduce
I0403 14:24:23.495569 13241 net.cpp:91] Creating Layer inception_3b/3x3_reduce
I0403 14:24:23.495586 13241 net.cpp:425] inception_3b/3x3_reduce <- inception_3a/output_inception_3a/output_0_split_1
I0403 14:24:23.495611 13241 net.cpp:399] inception_3b/3x3_reduce -> inception_3b/3x3_reduce
I0403 14:24:23.496745 13241 net.cpp:141] Setting up inception_3b/3x3_reduce
I0403 14:24:23.496775 13241 net.cpp:148] Top shape: 24 128 28 28 (2408448)
I0403 14:24:23.496791 13241 net.cpp:156] Memory required for data: 686408736
I0403 14:24:23.496810 13241 layer_factory.hpp:77] Creating layer inception_3b/relu_3x3_reduce
I0403 14:24:23.496832 13241 net.cpp:91] Creating Layer inception_3b/relu_3x3_reduce
I0403 14:24:23.496853 13241 net.cpp:425] inception_3b/relu_3x3_reduce <- inception_3b/3x3_reduce
I0403 14:24:23.496875 13241 net.cpp:386] inception_3b/relu_3x3_reduce -> inception_3b/3x3_reduce (in-place)
I0403 14:24:23.497045 13241 net.cpp:141] Setting up inception_3b/relu_3x3_reduce
I0403 14:24:23.497071 13241 net.cpp:148] Top shape: 24 128 28 28 (2408448)
I0403 14:24:23.497086 13241 net.cpp:156] Memory required for data: 696042528
I0403 14:24:23.497102 13241 layer_factory.hpp:77] Creating layer inception_3b/3x3
I0403 14:24:23.497128 13241 net.cpp:91] Creating Layer inception_3b/3x3
I0403 14:24:23.497148 13241 net.cpp:425] inception_3b/3x3 <- inception_3b/3x3_reduce
I0403 14:24:23.497166 13241 net.cpp:399] inception_3b/3x3 -> inception_3b/3x3
I0403 14:24:23.500067 13241 net.cpp:141] Setting up inception_3b/3x3
I0403 14:24:23.500097 13241 net.cpp:148] Top shape: 24 192 28 28 (3612672)
I0403 14:24:23.500114 13241 net.cpp:156] Memory required for data: 710493216
I0403 14:24:23.500133 13241 layer_factory.hpp:77] Creating layer inception_3b/relu_3x3
I0403 14:24:23.500154 13241 net.cpp:91] Creating Layer inception_3b/relu_3x3
I0403 14:24:23.500171 13241 net.cpp:425] inception_3b/relu_3x3 <- inception_3b/3x3
I0403 14:24:23.500188 13241 net.cpp:386] inception_3b/relu_3x3 -> inception_3b/3x3 (in-place)
I0403 14:24:23.500461 13241 net.cpp:141] Setting up inception_3b/relu_3x3
I0403 14:24:23.500488 13241 net.cpp:148] Top shape: 24 192 28 28 (3612672)
I0403 14:24:23.500504 13241 net.cpp:156] Memory required for data: 724943904
I0403 14:24:23.500519 13241 layer_factory.hpp:77] Creating layer inception_3b/5x5_reduce
I0403 14:24:23.500541 13241 net.cpp:91] Creating Layer inception_3b/5x5_reduce
I0403 14:24:23.500560 13241 net.cpp:425] inception_3b/5x5_reduce <- inception_3a/output_inception_3a/output_0_split_2
I0403 14:24:23.500581 13241 net.cpp:399] inception_3b/5x5_reduce -> inception_3b/5x5_reduce
I0403 14:24:23.501569 13241 net.cpp:141] Setting up inception_3b/5x5_reduce
I0403 14:24:23.501601 13241 net.cpp:148] Top shape: 24 32 28 28 (602112)
I0403 14:24:23.501621 13241 net.cpp:156] Memory required for data: 727352352
I0403 14:24:23.501641 13241 layer_factory.hpp:77] Creating layer inception_3b/relu_5x5_reduce
I0403 14:24:23.501662 13241 net.cpp:91] Creating Layer inception_3b/relu_5x5_reduce
I0403 14:24:23.501677 13241 net.cpp:425] inception_3b/relu_5x5_reduce <- inception_3b/5x5_reduce
I0403 14:24:23.501694 13241 net.cpp:386] inception_3b/relu_5x5_reduce -> inception_3b/5x5_reduce (in-place)
I0403 14:24:23.501873 13241 net.cpp:141] Setting up inception_3b/relu_5x5_reduce
I0403 14:24:23.501912 13241 net.cpp:148] Top shape: 24 32 28 28 (602112)
I0403 14:24:23.501929 13241 net.cpp:156] Memory required for data: 729760800
I0403 14:24:23.501945 13241 layer_factory.hpp:77] Creating layer inception_3b/5x5
I0403 14:24:23.501965 13241 net.cpp:91] Creating Layer inception_3b/5x5
I0403 14:24:23.501983 13241 net.cpp:425] inception_3b/5x5 <- inception_3b/5x5_reduce
I0403 14:24:23.502002 13241 net.cpp:399] inception_3b/5x5 -> inception_3b/5x5
I0403 14:24:23.503979 13241 net.cpp:141] Setting up inception_3b/5x5
I0403 14:24:23.504009 13241 net.cpp:148] Top shape: 24 96 28 28 (1806336)
I0403 14:24:23.504025 13241 net.cpp:156] Memory required for data: 736986144
I0403 14:24:23.504043 13241 layer_factory.hpp:77] Creating layer inception_3b/relu_5x5
I0403 14:24:23.504065 13241 net.cpp:91] Creating Layer inception_3b/relu_5x5
I0403 14:24:23.504084 13241 net.cpp:425] inception_3b/relu_5x5 <- inception_3b/5x5
I0403 14:24:23.504103 13241 net.cpp:386] inception_3b/relu_5x5 -> inception_3b/5x5 (in-place)
I0403 14:24:23.504292 13241 net.cpp:141] Setting up inception_3b/relu_5x5
I0403 14:24:23.504317 13241 net.cpp:148] Top shape: 24 96 28 28 (1806336)
I0403 14:24:23.504333 13241 net.cpp:156] Memory required for data: 744211488
I0403 14:24:23.504346 13241 layer_factory.hpp:77] Creating layer inception_3b/pool
I0403 14:24:23.504364 13241 net.cpp:91] Creating Layer inception_3b/pool
I0403 14:24:23.504379 13241 net.cpp:425] inception_3b/pool <- inception_3a/output_inception_3a/output_0_split_3
I0403 14:24:23.504397 13241 net.cpp:399] inception_3b/pool -> inception_3b/pool
I0403 14:24:23.504452 13241 net.cpp:141] Setting up inception_3b/pool
I0403 14:24:23.504477 13241 net.cpp:148] Top shape: 24 256 28 28 (4816896)
I0403 14:24:23.504490 13241 net.cpp:156] Memory required for data: 763479072
I0403 14:24:23.504504 13241 layer_factory.hpp:77] Creating layer inception_3b/pool_proj
I0403 14:24:23.504526 13241 net.cpp:91] Creating Layer inception_3b/pool_proj
I0403 14:24:23.504544 13241 net.cpp:425] inception_3b/pool_proj <- inception_3b/pool
I0403 14:24:23.504570 13241 net.cpp:399] inception_3b/pool_proj -> inception_3b/pool_proj
I0403 14:24:23.505645 13241 net.cpp:141] Setting up inception_3b/pool_proj
I0403 14:24:23.505681 13241 net.cpp:148] Top shape: 24 64 28 28 (1204224)
I0403 14:24:23.505699 13241 net.cpp:156] Memory required for data: 768295968
I0403 14:24:23.505723 13241 layer_factory.hpp:77] Creating layer inception_3b/relu_pool_proj
I0403 14:24:23.505741 13241 net.cpp:91] Creating Layer inception_3b/relu_pool_proj
I0403 14:24:23.505759 13241 net.cpp:425] inception_3b/relu_pool_proj <- inception_3b/pool_proj
I0403 14:24:23.505779 13241 net.cpp:386] inception_3b/relu_pool_proj -> inception_3b/pool_proj (in-place)
I0403 14:24:23.506181 13241 net.cpp:141] Setting up inception_3b/relu_pool_proj
I0403 14:24:23.506208 13241 net.cpp:148] Top shape: 24 64 28 28 (1204224)
I0403 14:24:23.506224 13241 net.cpp:156] Memory required for data: 773112864
I0403 14:24:23.506239 13241 layer_factory.hpp:77] Creating layer inception_3b/output
I0403 14:24:23.506258 13241 net.cpp:91] Creating Layer inception_3b/output
I0403 14:24:23.506273 13241 net.cpp:425] inception_3b/output <- inception_3b/1x1
I0403 14:24:23.506289 13241 net.cpp:425] inception_3b/output <- inception_3b/3x3
I0403 14:24:23.506304 13241 net.cpp:425] inception_3b/output <- inception_3b/5x5
I0403 14:24:23.506320 13241 net.cpp:425] inception_3b/output <- inception_3b/pool_proj
I0403 14:24:23.506337 13241 net.cpp:399] inception_3b/output -> inception_3b/output
I0403 14:24:23.506382 13241 net.cpp:141] Setting up inception_3b/output
I0403 14:24:23.506405 13241 net.cpp:148] Top shape: 24 480 28 28 (9031680)
I0403 14:24:23.506420 13241 net.cpp:156] Memory required for data: 809239584
I0403 14:24:23.506434 13241 layer_factory.hpp:77] Creating layer pool3/3x3_s2
I0403 14:24:23.506453 13241 net.cpp:91] Creating Layer pool3/3x3_s2
I0403 14:24:23.506471 13241 net.cpp:425] pool3/3x3_s2 <- inception_3b/output
I0403 14:24:23.506489 13241 net.cpp:399] pool3/3x3_s2 -> pool3/3x3_s2
I0403 14:24:23.506561 13241 net.cpp:141] Setting up pool3/3x3_s2
I0403 14:24:23.506585 13241 net.cpp:148] Top shape: 24 480 14 14 (2257920)
I0403 14:24:23.506604 13241 net.cpp:156] Memory required for data: 818271264
I0403 14:24:23.506620 13241 layer_factory.hpp:77] Creating layer pool3/3x3_s2_pool3/3x3_s2_0_split
I0403 14:24:23.506638 13241 net.cpp:91] Creating Layer pool3/3x3_s2_pool3/3x3_s2_0_split
I0403 14:24:23.506652 13241 net.cpp:425] pool3/3x3_s2_pool3/3x3_s2_0_split <- pool3/3x3_s2
I0403 14:24:23.506671 13241 net.cpp:399] pool3/3x3_s2_pool3/3x3_s2_0_split -> pool3/3x3_s2_pool3/3x3_s2_0_split_0
I0403 14:24:23.506690 13241 net.cpp:399] pool3/3x3_s2_pool3/3x3_s2_0_split -> pool3/3x3_s2_pool3/3x3_s2_0_split_1
I0403 14:24:23.506711 13241 net.cpp:399] pool3/3x3_s2_pool3/3x3_s2_0_split -> pool3/3x3_s2_pool3/3x3_s2_0_split_2
I0403 14:24:23.506729 13241 net.cpp:399] pool3/3x3_s2_pool3/3x3_s2_0_split -> pool3/3x3_s2_pool3/3x3_s2_0_split_3
I0403 14:24:23.506805 13241 net.cpp:141] Setting up pool3/3x3_s2_pool3/3x3_s2_0_split
I0403 14:24:23.506831 13241 net.cpp:148] Top shape: 24 480 14 14 (2257920)
I0403 14:24:23.506850 13241 net.cpp:148] Top shape: 24 480 14 14 (2257920)
I0403 14:24:23.506865 13241 net.cpp:148] Top shape: 24 480 14 14 (2257920)
I0403 14:24:23.506878 13241 net.cpp:148] Top shape: 24 480 14 14 (2257920)
I0403 14:24:23.506892 13241 net.cpp:156] Memory required for data: 854397984
I0403 14:24:23.506906 13241 layer_factory.hpp:77] Creating layer inception_4a/1x1
I0403 14:24:23.506927 13241 net.cpp:91] Creating Layer inception_4a/1x1
I0403 14:24:23.506944 13241 net.cpp:425] inception_4a/1x1 <- pool3/3x3_s2_pool3/3x3_s2_0_split_0
I0403 14:24:23.506963 13241 net.cpp:399] inception_4a/1x1 -> inception_4a/1x1
I0403 14:24:23.508558 13241 net.cpp:141] Setting up inception_4a/1x1
I0403 14:24:23.508589 13241 net.cpp:148] Top shape: 24 192 14 14 (903168)
I0403 14:24:23.508611 13241 net.cpp:156] Memory required for data: 858010656
I0403 14:24:23.508631 13241 layer_factory.hpp:77] Creating layer inception_4a/relu_1x1
I0403 14:24:23.508651 13241 net.cpp:91] Creating Layer inception_4a/relu_1x1
I0403 14:24:23.508668 13241 net.cpp:425] inception_4a/relu_1x1 <- inception_4a/1x1
I0403 14:24:23.508689 13241 net.cpp:386] inception_4a/relu_1x1 -> inception_4a/1x1 (in-place)
I0403 14:24:23.508863 13241 net.cpp:141] Setting up inception_4a/relu_1x1
I0403 14:24:23.508889 13241 net.cpp:148] Top shape: 24 192 14 14 (903168)
I0403 14:24:23.508905 13241 net.cpp:156] Memory required for data: 861623328
I0403 14:24:23.508920 13241 layer_factory.hpp:77] Creating layer inception_4a/3x3_reduce
I0403 14:24:23.508942 13241 net.cpp:91] Creating Layer inception_4a/3x3_reduce
I0403 14:24:23.508960 13241 net.cpp:425] inception_4a/3x3_reduce <- pool3/3x3_s2_pool3/3x3_s2_0_split_1
I0403 14:24:23.508980 13241 net.cpp:399] inception_4a/3x3_reduce -> inception_4a/3x3_reduce
I0403 14:24:23.510231 13241 net.cpp:141] Setting up inception_4a/3x3_reduce
I0403 14:24:23.510259 13241 net.cpp:148] Top shape: 24 96 14 14 (451584)
I0403 14:24:23.510275 13241 net.cpp:156] Memory required for data: 863429664
I0403 14:24:23.510298 13241 layer_factory.hpp:77] Creating layer inception_4a/relu_3x3_reduce
I0403 14:24:23.510318 13241 net.cpp:91] Creating Layer inception_4a/relu_3x3_reduce
I0403 14:24:23.510337 13241 net.cpp:425] inception_4a/relu_3x3_reduce <- inception_4a/3x3_reduce
I0403 14:24:23.510355 13241 net.cpp:386] inception_4a/relu_3x3_reduce -> inception_4a/3x3_reduce (in-place)
I0403 14:24:23.510527 13241 net.cpp:141] Setting up inception_4a/relu_3x3_reduce
I0403 14:24:23.510553 13241 net.cpp:148] Top shape: 24 96 14 14 (451584)
I0403 14:24:23.510568 13241 net.cpp:156] Memory required for data: 865236000
I0403 14:24:23.510583 13241 layer_factory.hpp:77] Creating layer inception_4a/3x3
I0403 14:24:23.510608 13241 net.cpp:91] Creating Layer inception_4a/3x3
I0403 14:24:23.510628 13241 net.cpp:425] inception_4a/3x3 <- inception_4a/3x3_reduce
I0403 14:24:23.510649 13241 net.cpp:399] inception_4a/3x3 -> inception_4a/3x3
I0403 14:24:23.513275 13241 net.cpp:141] Setting up inception_4a/3x3
I0403 14:24:23.513304 13241 net.cpp:148] Top shape: 24 208 14 14 (978432)
I0403 14:24:23.513319 13241 net.cpp:156] Memory required for data: 869149728
I0403 14:24:23.513336 13241 layer_factory.hpp:77] Creating layer inception_4a/relu_3x3
I0403 14:24:23.513357 13241 net.cpp:91] Creating Layer inception_4a/relu_3x3
I0403 14:24:23.513373 13241 net.cpp:425] inception_4a/relu_3x3 <- inception_4a/3x3
I0403 14:24:23.513391 13241 net.cpp:386] inception_4a/relu_3x3 -> inception_4a/3x3 (in-place)
I0403 14:24:23.513671 13241 net.cpp:141] Setting up inception_4a/relu_3x3
I0403 14:24:23.513696 13241 net.cpp:148] Top shape: 24 208 14 14 (978432)
I0403 14:24:23.513710 13241 net.cpp:156] Memory required for data: 873063456
I0403 14:24:23.513725 13241 layer_factory.hpp:77] Creating layer inception_4a/5x5_reduce
I0403 14:24:23.513746 13241 net.cpp:91] Creating Layer inception_4a/5x5_reduce
I0403 14:24:23.513763 13241 net.cpp:425] inception_4a/5x5_reduce <- pool3/3x3_s2_pool3/3x3_s2_0_split_2
I0403 14:24:23.513784 13241 net.cpp:399] inception_4a/5x5_reduce -> inception_4a/5x5_reduce
I0403 14:24:23.514796 13241 net.cpp:141] Setting up inception_4a/5x5_reduce
I0403 14:24:23.514823 13241 net.cpp:148] Top shape: 24 16 14 14 (75264)
I0403 14:24:23.514839 13241 net.cpp:156] Memory required for data: 873364512
I0403 14:24:23.514858 13241 layer_factory.hpp:77] Creating layer inception_4a/relu_5x5_reduce
I0403 14:24:23.514878 13241 net.cpp:91] Creating Layer inception_4a/relu_5x5_reduce
I0403 14:24:23.514895 13241 net.cpp:425] inception_4a/relu_5x5_reduce <- inception_4a/5x5_reduce
I0403 14:24:23.514911 13241 net.cpp:386] inception_4a/relu_5x5_reduce -> inception_4a/5x5_reduce (in-place)
I0403 14:24:23.515085 13241 net.cpp:141] Setting up inception_4a/relu_5x5_reduce
I0403 14:24:23.515111 13241 net.cpp:148] Top shape: 24 16 14 14 (75264)
I0403 14:24:23.515127 13241 net.cpp:156] Memory required for data: 873665568
I0403 14:24:23.515142 13241 layer_factory.hpp:77] Creating layer inception_4a/5x5
I0403 14:24:23.515163 13241 net.cpp:91] Creating Layer inception_4a/5x5
I0403 14:24:23.515180 13241 net.cpp:425] inception_4a/5x5 <- inception_4a/5x5_reduce
I0403 14:24:23.515198 13241 net.cpp:399] inception_4a/5x5 -> inception_4a/5x5
I0403 14:24:23.516258 13241 net.cpp:141] Setting up inception_4a/5x5
I0403 14:24:23.516290 13241 net.cpp:148] Top shape: 24 48 14 14 (225792)
I0403 14:24:23.516307 13241 net.cpp:156] Memory required for data: 874568736
I0403 14:24:23.516326 13241 layer_factory.hpp:77] Creating layer inception_4a/relu_5x5
I0403 14:24:23.516345 13241 net.cpp:91] Creating Layer inception_4a/relu_5x5
I0403 14:24:23.516360 13241 net.cpp:425] inception_4a/relu_5x5 <- inception_4a/5x5
I0403 14:24:23.516377 13241 net.cpp:386] inception_4a/relu_5x5 -> inception_4a/5x5 (in-place)
I0403 14:24:23.516559 13241 net.cpp:141] Setting up inception_4a/relu_5x5
I0403 14:24:23.516583 13241 net.cpp:148] Top shape: 24 48 14 14 (225792)
I0403 14:24:23.516602 13241 net.cpp:156] Memory required for data: 875471904
I0403 14:24:23.516618 13241 layer_factory.hpp:77] Creating layer inception_4a/pool
I0403 14:24:23.516634 13241 net.cpp:91] Creating Layer inception_4a/pool
I0403 14:24:23.516650 13241 net.cpp:425] inception_4a/pool <- pool3/3x3_s2_pool3/3x3_s2_0_split_3
I0403 14:24:23.516672 13241 net.cpp:399] inception_4a/pool -> inception_4a/pool
I0403 14:24:23.516732 13241 net.cpp:141] Setting up inception_4a/pool
I0403 14:24:23.516757 13241 net.cpp:148] Top shape: 24 480 14 14 (2257920)
I0403 14:24:23.516773 13241 net.cpp:156] Memory required for data: 884503584
I0403 14:24:23.516788 13241 layer_factory.hpp:77] Creating layer inception_4a/pool_proj
I0403 14:24:23.516808 13241 net.cpp:91] Creating Layer inception_4a/pool_proj
I0403 14:24:23.516824 13241 net.cpp:425] inception_4a/pool_proj <- inception_4a/pool
I0403 14:24:23.516842 13241 net.cpp:399] inception_4a/pool_proj -> inception_4a/pool_proj
I0403 14:24:23.518008 13241 net.cpp:141] Setting up inception_4a/pool_proj
I0403 14:24:23.518036 13241 net.cpp:148] Top shape: 24 64 14 14 (301056)
I0403 14:24:23.518065 13241 net.cpp:156] Memory required for data: 885707808
I0403 14:24:23.518085 13241 layer_factory.hpp:77] Creating layer inception_4a/relu_pool_proj
I0403 14:24:23.518101 13241 net.cpp:91] Creating Layer inception_4a/relu_pool_proj
I0403 14:24:23.518117 13241 net.cpp:425] inception_4a/relu_pool_proj <- inception_4a/pool_proj
I0403 14:24:23.518137 13241 net.cpp:386] inception_4a/relu_pool_proj -> inception_4a/pool_proj (in-place)
I0403 14:24:23.518412 13241 net.cpp:141] Setting up inception_4a/relu_pool_proj
I0403 14:24:23.518438 13241 net.cpp:148] Top shape: 24 64 14 14 (301056)
I0403 14:24:23.518452 13241 net.cpp:156] Memory required for data: 886912032
I0403 14:24:23.518465 13241 layer_factory.hpp:77] Creating layer inception_4a/output
I0403 14:24:23.518482 13241 net.cpp:91] Creating Layer inception_4a/output
I0403 14:24:23.518497 13241 net.cpp:425] inception_4a/output <- inception_4a/1x1
I0403 14:24:23.518513 13241 net.cpp:425] inception_4a/output <- inception_4a/3x3
I0403 14:24:23.518528 13241 net.cpp:425] inception_4a/output <- inception_4a/5x5
I0403 14:24:23.518544 13241 net.cpp:425] inception_4a/output <- inception_4a/pool_proj
I0403 14:24:23.518563 13241 net.cpp:399] inception_4a/output -> inception_4a/output
I0403 14:24:23.518610 13241 net.cpp:141] Setting up inception_4a/output
I0403 14:24:23.518633 13241 net.cpp:148] Top shape: 24 512 14 14 (2408448)
I0403 14:24:23.518651 13241 net.cpp:156] Memory required for data: 896545824
I0403 14:24:23.518666 13241 layer_factory.hpp:77] Creating layer inception_4a/output_inception_4a/output_0_split
I0403 14:24:23.518682 13241 net.cpp:91] Creating Layer inception_4a/output_inception_4a/output_0_split
I0403 14:24:23.518697 13241 net.cpp:425] inception_4a/output_inception_4a/output_0_split <- inception_4a/output
I0403 14:24:23.518713 13241 net.cpp:399] inception_4a/output_inception_4a/output_0_split -> inception_4a/output_inception_4a/output_0_split_0
I0403 14:24:23.518733 13241 net.cpp:399] inception_4a/output_inception_4a/output_0_split -> inception_4a/output_inception_4a/output_0_split_1
I0403 14:24:23.518754 13241 net.cpp:399] inception_4a/output_inception_4a/output_0_split -> inception_4a/output_inception_4a/output_0_split_2
I0403 14:24:23.518775 13241 net.cpp:399] inception_4a/output_inception_4a/output_0_split -> inception_4a/output_inception_4a/output_0_split_3
I0403 14:24:23.518793 13241 net.cpp:399] inception_4a/output_inception_4a/output_0_split -> inception_4a/output_inception_4a/output_0_split_4
I0403 14:24:23.518884 13241 net.cpp:141] Setting up inception_4a/output_inception_4a/output_0_split
I0403 14:24:23.518908 13241 net.cpp:148] Top shape: 24 512 14 14 (2408448)
I0403 14:24:23.518923 13241 net.cpp:148] Top shape: 24 512 14 14 (2408448)
I0403 14:24:23.518939 13241 net.cpp:148] Top shape: 24 512 14 14 (2408448)
I0403 14:24:23.518954 13241 net.cpp:148] Top shape: 24 512 14 14 (2408448)
I0403 14:24:23.518967 13241 net.cpp:148] Top shape: 24 512 14 14 (2408448)
I0403 14:24:23.518980 13241 net.cpp:156] Memory required for data: 944714784
I0403 14:24:23.518993 13241 layer_factory.hpp:77] Creating layer loss1/ave_pool
I0403 14:24:23.519012 13241 net.cpp:91] Creating Layer loss1/ave_pool
I0403 14:24:23.519029 13241 net.cpp:425] loss1/ave_pool <- inception_4a/output_inception_4a/output_0_split_0
I0403 14:24:23.519045 13241 net.cpp:399] loss1/ave_pool -> loss1/ave_pool
I0403 14:24:23.519248 13241 net.cpp:141] Setting up loss1/ave_pool
I0403 14:24:23.519274 13241 net.cpp:148] Top shape: 24 512 4 4 (196608)
I0403 14:24:23.519289 13241 net.cpp:156] Memory required for data: 945501216
I0403 14:24:23.519302 13241 layer_factory.hpp:77] Creating layer loss1/conv
I0403 14:24:23.519323 13241 net.cpp:91] Creating Layer loss1/conv
I0403 14:24:23.519340 13241 net.cpp:425] loss1/conv <- loss1/ave_pool
I0403 14:24:23.519361 13241 net.cpp:399] loss1/conv -> loss1/conv
I0403 14:24:23.520763 13241 net.cpp:141] Setting up loss1/conv
I0403 14:24:23.520792 13241 net.cpp:148] Top shape: 24 128 4 4 (49152)
I0403 14:24:23.520808 13241 net.cpp:156] Memory required for data: 945697824
I0403 14:24:23.520849 13241 layer_factory.hpp:77] Creating layer loss1/relu_conv
I0403 14:24:23.520872 13241 net.cpp:91] Creating Layer loss1/relu_conv
I0403 14:24:23.520889 13241 net.cpp:425] loss1/relu_conv <- loss1/conv
I0403 14:24:23.520905 13241 net.cpp:386] loss1/relu_conv -> loss1/conv (in-place)
I0403 14:24:23.521184 13241 net.cpp:141] Setting up loss1/relu_conv
I0403 14:24:23.521211 13241 net.cpp:148] Top shape: 24 128 4 4 (49152)
I0403 14:24:23.521225 13241 net.cpp:156] Memory required for data: 945894432
I0403 14:24:23.521240 13241 layer_factory.hpp:77] Creating layer loss1/fc
I0403 14:24:23.521266 13241 net.cpp:91] Creating Layer loss1/fc
I0403 14:24:23.521283 13241 net.cpp:425] loss1/fc <- loss1/conv
I0403 14:24:23.521301 13241 net.cpp:399] loss1/fc -> loss1/fc
I0403 14:24:23.538573 13241 net.cpp:141] Setting up loss1/fc
I0403 14:24:23.538607 13241 net.cpp:148] Top shape: 24 1024 (24576)
I0403 14:24:23.538625 13241 net.cpp:156] Memory required for data: 945992736
I0403 14:24:23.538645 13241 layer_factory.hpp:77] Creating layer loss1/relu_fc
I0403 14:24:23.538663 13241 net.cpp:91] Creating Layer loss1/relu_fc
I0403 14:24:23.538679 13241 net.cpp:425] loss1/relu_fc <- loss1/fc
I0403 14:24:23.538699 13241 net.cpp:386] loss1/relu_fc -> loss1/fc (in-place)
I0403 14:24:23.538884 13241 net.cpp:141] Setting up loss1/relu_fc
I0403 14:24:23.538909 13241 net.cpp:148] Top shape: 24 1024 (24576)
I0403 14:24:23.538923 13241 net.cpp:156] Memory required for data: 946091040
I0403 14:24:23.538938 13241 layer_factory.hpp:77] Creating layer loss1/drop_fc
I0403 14:24:23.538966 13241 net.cpp:91] Creating Layer loss1/drop_fc
I0403 14:24:23.538985 13241 net.cpp:425] loss1/drop_fc <- loss1/fc
I0403 14:24:23.539001 13241 net.cpp:386] loss1/drop_fc -> loss1/fc (in-place)
I0403 14:24:23.539050 13241 net.cpp:141] Setting up loss1/drop_fc
I0403 14:24:23.539072 13241 net.cpp:148] Top shape: 24 1024 (24576)
I0403 14:24:23.539086 13241 net.cpp:156] Memory required for data: 946189344
I0403 14:24:23.539100 13241 layer_factory.hpp:77] Creating layer loss1/classifier_plantvillage
I0403 14:24:23.539120 13241 net.cpp:91] Creating Layer loss1/classifier_plantvillage
I0403 14:24:23.539136 13241 net.cpp:425] loss1/classifier_plantvillage <- loss1/fc
I0403 14:24:23.539158 13241 net.cpp:399] loss1/classifier_plantvillage -> loss1/classifier_plantvillage
I0403 14:24:23.540071 13241 net.cpp:141] Setting up loss1/classifier_plantvillage
I0403 14:24:23.540099 13241 net.cpp:148] Top shape: 24 38 (912)
I0403 14:24:23.540117 13241 net.cpp:156] Memory required for data: 946192992
I0403 14:24:23.540134 13241 layer_factory.hpp:77] Creating layer loss1/classifier_plantvillage_loss1/classifier_plantvillage_0_split
I0403 14:24:23.540153 13241 net.cpp:91] Creating Layer loss1/classifier_plantvillage_loss1/classifier_plantvillage_0_split
I0403 14:24:23.540168 13241 net.cpp:425] loss1/classifier_plantvillage_loss1/classifier_plantvillage_0_split <- loss1/classifier_plantvillage
I0403 14:24:23.540189 13241 net.cpp:399] loss1/classifier_plantvillage_loss1/classifier_plantvillage_0_split -> loss1/classifier_plantvillage_loss1/classifier_plantvillage_0_split_0
I0403 14:24:23.540210 13241 net.cpp:399] loss1/classifier_plantvillage_loss1/classifier_plantvillage_0_split -> loss1/classifier_plantvillage_loss1/classifier_plantvillage_0_split_1
I0403 14:24:23.540231 13241 net.cpp:399] loss1/classifier_plantvillage_loss1/classifier_plantvillage_0_split -> loss1/classifier_plantvillage_loss1/classifier_plantvillage_0_split_2
I0403 14:24:23.540297 13241 net.cpp:141] Setting up loss1/classifier_plantvillage_loss1/classifier_plantvillage_0_split
I0403 14:24:23.540323 13241 net.cpp:148] Top shape: 24 38 (912)
I0403 14:24:23.540351 13241 net.cpp:148] Top shape: 24 38 (912)
I0403 14:24:23.540366 13241 net.cpp:148] Top shape: 24 38 (912)
I0403 14:24:23.540380 13241 net.cpp:156] Memory required for data: 946203936
I0403 14:24:23.540395 13241 layer_factory.hpp:77] Creating layer inception_4b/1x1
I0403 14:24:23.540413 13241 net.cpp:91] Creating Layer inception_4b/1x1
I0403 14:24:23.540446 13241 net.cpp:425] inception_4b/1x1 <- inception_4a/output_inception_4a/output_0_split_1
I0403 14:24:23.540464 13241 net.cpp:399] inception_4b/1x1 -> inception_4b/1x1
I0403 14:24:23.542075 13241 net.cpp:141] Setting up inception_4b/1x1
I0403 14:24:23.542104 13241 net.cpp:148] Top shape: 24 160 14 14 (752640)
I0403 14:24:23.542121 13241 net.cpp:156] Memory required for data: 949214496
I0403 14:24:23.542140 13241 layer_factory.hpp:77] Creating layer inception_4b/relu_1x1
I0403 14:24:23.542160 13241 net.cpp:91] Creating Layer inception_4b/relu_1x1
I0403 14:24:23.542178 13241 net.cpp:425] inception_4b/relu_1x1 <- inception_4b/1x1
I0403 14:24:23.542196 13241 net.cpp:386] inception_4b/relu_1x1 -> inception_4b/1x1 (in-place)
I0403 14:24:23.542371 13241 net.cpp:141] Setting up inception_4b/relu_1x1
I0403 14:24:23.542397 13241 net.cpp:148] Top shape: 24 160 14 14 (752640)
I0403 14:24:23.542412 13241 net.cpp:156] Memory required for data: 952225056
I0403 14:24:23.542428 13241 layer_factory.hpp:77] Creating layer inception_4b/3x3_reduce
I0403 14:24:23.542453 13241 net.cpp:91] Creating Layer inception_4b/3x3_reduce
I0403 14:24:23.542470 13241 net.cpp:425] inception_4b/3x3_reduce <- inception_4a/output_inception_4a/output_0_split_2
I0403 14:24:23.542490 13241 net.cpp:399] inception_4b/3x3_reduce -> inception_4b/3x3_reduce
I0403 14:24:23.543849 13241 net.cpp:141] Setting up inception_4b/3x3_reduce
I0403 14:24:23.543877 13241 net.cpp:148] Top shape: 24 112 14 14 (526848)
I0403 14:24:23.543894 13241 net.cpp:156] Memory required for data: 954332448
I0403 14:24:23.543911 13241 layer_factory.hpp:77] Creating layer inception_4b/relu_3x3_reduce
I0403 14:24:23.543932 13241 net.cpp:91] Creating Layer inception_4b/relu_3x3_reduce
I0403 14:24:23.543949 13241 net.cpp:425] inception_4b/relu_3x3_reduce <- inception_4b/3x3_reduce
I0403 14:24:23.543967 13241 net.cpp:386] inception_4b/relu_3x3_reduce -> inception_4b/3x3_reduce (in-place)
I0403 14:24:23.544241 13241 net.cpp:141] Setting up inception_4b/relu_3x3_reduce
I0403 14:24:23.544270 13241 net.cpp:148] Top shape: 24 112 14 14 (526848)
I0403 14:24:23.544284 13241 net.cpp:156] Memory required for data: 956439840
I0403 14:24:23.544299 13241 layer_factory.hpp:77] Creating layer inception_4b/3x3
I0403 14:24:23.544322 13241 net.cpp:91] Creating Layer inception_4b/3x3
I0403 14:24:23.544339 13241 net.cpp:425] inception_4b/3x3 <- inception_4b/3x3_reduce
I0403 14:24:23.544358 13241 net.cpp:399] inception_4b/3x3 -> inception_4b/3x3
I0403 14:24:23.547276 13241 net.cpp:141] Setting up inception_4b/3x3
I0403 14:24:23.547303 13241 net.cpp:148] Top shape: 24 224 14 14 (1053696)
I0403 14:24:23.547319 13241 net.cpp:156] Memory required for data: 960654624
I0403 14:24:23.547338 13241 layer_factory.hpp:77] Creating layer inception_4b/relu_3x3
I0403 14:24:23.547356 13241 net.cpp:91] Creating Layer inception_4b/relu_3x3
I0403 14:24:23.547374 13241 net.cpp:425] inception_4b/relu_3x3 <- inception_4b/3x3
I0403 14:24:23.547394 13241 net.cpp:386] inception_4b/relu_3x3 -> inception_4b/3x3 (in-place)
I0403 14:24:23.547571 13241 net.cpp:141] Setting up inception_4b/relu_3x3
I0403 14:24:23.547597 13241 net.cpp:148] Top shape: 24 224 14 14 (1053696)
I0403 14:24:23.547618 13241 net.cpp:156] Memory required for data: 964869408
I0403 14:24:23.547633 13241 layer_factory.hpp:77] Creating layer inception_4b/5x5_reduce
I0403 14:24:23.547657 13241 net.cpp:91] Creating Layer inception_4b/5x5_reduce
I0403 14:24:23.547675 13241 net.cpp:425] inception_4b/5x5_reduce <- inception_4a/output_inception_4a/output_0_split_3
I0403 14:24:23.547696 13241 net.cpp:399] inception_4b/5x5_reduce -> inception_4b/5x5_reduce
I0403 14:24:23.548763 13241 net.cpp:141] Setting up inception_4b/5x5_reduce
I0403 14:24:23.548790 13241 net.cpp:148] Top shape: 24 24 14 14 (112896)
I0403 14:24:23.548807 13241 net.cpp:156] Memory required for data: 965320992
I0403 14:24:23.548826 13241 layer_factory.hpp:77] Creating layer inception_4b/relu_5x5_reduce
I0403 14:24:23.548848 13241 net.cpp:91] Creating Layer inception_4b/relu_5x5_reduce
I0403 14:24:23.548880 13241 net.cpp:425] inception_4b/relu_5x5_reduce <- inception_4b/5x5_reduce
I0403 14:24:23.548899 13241 net.cpp:386] inception_4b/relu_5x5_reduce -> inception_4b/5x5_reduce (in-place)
I0403 14:24:23.549077 13241 net.cpp:141] Setting up inception_4b/relu_5x5_reduce
I0403 14:24:23.549103 13241 net.cpp:148] Top shape: 24 24 14 14 (112896)
I0403 14:24:23.549118 13241 net.cpp:156] Memory required for data: 965772576
I0403 14:24:23.549134 13241 layer_factory.hpp:77] Creating layer inception_4b/5x5
I0403 14:24:23.549154 13241 net.cpp:91] Creating Layer inception_4b/5x5
I0403 14:24:23.549171 13241 net.cpp:425] inception_4b/5x5 <- inception_4b/5x5_reduce
I0403 14:24:23.549190 13241 net.cpp:399] inception_4b/5x5 -> inception_4b/5x5
I0403 14:24:23.550401 13241 net.cpp:141] Setting up inception_4b/5x5
I0403 14:24:23.550429 13241 net.cpp:148] Top shape: 24 64 14 14 (301056)
I0403 14:24:23.550446 13241 net.cpp:156] Memory required for data: 966976800
I0403 14:24:23.550464 13241 layer_factory.hpp:77] Creating layer inception_4b/relu_5x5
I0403 14:24:23.550484 13241 net.cpp:91] Creating Layer inception_4b/relu_5x5
I0403 14:24:23.550503 13241 net.cpp:425] inception_4b/relu_5x5 <- inception_4b/5x5
I0403 14:24:23.550518 13241 net.cpp:386] inception_4b/relu_5x5 -> inception_4b/5x5 (in-place)
I0403 14:24:23.550799 13241 net.cpp:141] Setting up inception_4b/relu_5x5
I0403 14:24:23.550825 13241 net.cpp:148] Top shape: 24 64 14 14 (301056)
I0403 14:24:23.550840 13241 net.cpp:156] Memory required for data: 968181024
I0403 14:24:23.550854 13241 layer_factory.hpp:77] Creating layer inception_4b/pool
I0403 14:24:23.550874 13241 net.cpp:91] Creating Layer inception_4b/pool
I0403 14:24:23.550890 13241 net.cpp:425] inception_4b/pool <- inception_4a/output_inception_4a/output_0_split_4
I0403 14:24:23.550909 13241 net.cpp:399] inception_4b/pool -> inception_4b/pool
I0403 14:24:23.550974 13241 net.cpp:141] Setting up inception_4b/pool
I0403 14:24:23.550997 13241 net.cpp:148] Top shape: 24 512 14 14 (2408448)
I0403 14:24:23.551012 13241 net.cpp:156] Memory required for data: 977814816
I0403 14:24:23.551026 13241 layer_factory.hpp:77] Creating layer inception_4b/pool_proj
I0403 14:24:23.551046 13241 net.cpp:91] Creating Layer inception_4b/pool_proj
I0403 14:24:23.551064 13241 net.cpp:425] inception_4b/pool_proj <- inception_4b/pool
I0403 14:24:23.551084 13241 net.cpp:399] inception_4b/pool_proj -> inception_4b/pool_proj
I0403 14:24:23.552264 13241 net.cpp:141] Setting up inception_4b/pool_proj
I0403 14:24:23.552292 13241 net.cpp:148] Top shape: 24 64 14 14 (301056)
I0403 14:24:23.552309 13241 net.cpp:156] Memory required for data: 979019040
I0403 14:24:23.552327 13241 layer_factory.hpp:77] Creating layer inception_4b/relu_pool_proj
I0403 14:24:23.552350 13241 net.cpp:91] Creating Layer inception_4b/relu_pool_proj
I0403 14:24:23.552366 13241 net.cpp:425] inception_4b/relu_pool_proj <- inception_4b/pool_proj
I0403 14:24:23.552384 13241 net.cpp:386] inception_4b/relu_pool_proj -> inception_4b/pool_proj (in-place)
I0403 14:24:23.552561 13241 net.cpp:141] Setting up inception_4b/relu_pool_proj
I0403 14:24:23.552588 13241 net.cpp:148] Top shape: 24 64 14 14 (301056)
I0403 14:24:23.552610 13241 net.cpp:156] Memory required for data: 980223264
I0403 14:24:23.552628 13241 layer_factory.hpp:77] Creating layer inception_4b/output
I0403 14:24:23.552644 13241 net.cpp:91] Creating Layer inception_4b/output
I0403 14:24:23.552660 13241 net.cpp:425] inception_4b/output <- inception_4b/1x1
I0403 14:24:23.552677 13241 net.cpp:425] inception_4b/output <- inception_4b/3x3
I0403 14:24:23.552695 13241 net.cpp:425] inception_4b/output <- inception_4b/5x5
I0403 14:24:23.552709 13241 net.cpp:425] inception_4b/output <- inception_4b/pool_proj
I0403 14:24:23.552728 13241 net.cpp:399] inception_4b/output -> inception_4b/output
I0403 14:24:23.552774 13241 net.cpp:141] Setting up inception_4b/output
I0403 14:24:23.552798 13241 net.cpp:148] Top shape: 24 512 14 14 (2408448)
I0403 14:24:23.552811 13241 net.cpp:156] Memory required for data: 989857056
I0403 14:24:23.552850 13241 layer_factory.hpp:77] Creating layer inception_4b/output_inception_4b/output_0_split
I0403 14:24:23.552870 13241 net.cpp:91] Creating Layer inception_4b/output_inception_4b/output_0_split
I0403 14:24:23.552886 13241 net.cpp:425] inception_4b/output_inception_4b/output_0_split <- inception_4b/output
I0403 14:24:23.552902 13241 net.cpp:399] inception_4b/output_inception_4b/output_0_split -> inception_4b/output_inception_4b/output_0_split_0
I0403 14:24:23.552922 13241 net.cpp:399] inception_4b/output_inception_4b/output_0_split -> inception_4b/output_inception_4b/output_0_split_1
I0403 14:24:23.552942 13241 net.cpp:399] inception_4b/output_inception_4b/output_0_split -> inception_4b/output_inception_4b/output_0_split_2
I0403 14:24:23.552964 13241 net.cpp:399] inception_4b/output_inception_4b/output_0_split -> inception_4b/output_inception_4b/output_0_split_3
I0403 14:24:23.553047 13241 net.cpp:141] Setting up inception_4b/output_inception_4b/output_0_split
I0403 14:24:23.553069 13241 net.cpp:148] Top shape: 24 512 14 14 (2408448)
I0403 14:24:23.553086 13241 net.cpp:148] Top shape: 24 512 14 14 (2408448)
I0403 14:24:23.553099 13241 net.cpp:148] Top shape: 24 512 14 14 (2408448)
I0403 14:24:23.553114 13241 net.cpp:148] Top shape: 24 512 14 14 (2408448)
I0403 14:24:23.553128 13241 net.cpp:156] Memory required for data: 1028392224
I0403 14:24:23.553143 13241 layer_factory.hpp:77] Creating layer inception_4c/1x1
I0403 14:24:23.553164 13241 net.cpp:91] Creating Layer inception_4c/1x1
I0403 14:24:23.553180 13241 net.cpp:425] inception_4c/1x1 <- inception_4b/output_inception_4b/output_0_split_0
I0403 14:24:23.553200 13241 net.cpp:399] inception_4c/1x1 -> inception_4c/1x1
I0403 14:24:23.554607 13241 net.cpp:141] Setting up inception_4c/1x1
I0403 14:24:23.554641 13241 net.cpp:148] Top shape: 24 128 14 14 (602112)
I0403 14:24:23.554657 13241 net.cpp:156] Memory required for data: 1030800672
I0403 14:24:23.554677 13241 layer_factory.hpp:77] Creating layer inception_4c/relu_1x1
I0403 14:24:23.554694 13241 net.cpp:91] Creating Layer inception_4c/relu_1x1
I0403 14:24:23.554710 13241 net.cpp:425] inception_4c/relu_1x1 <- inception_4c/1x1
I0403 14:24:23.554729 13241 net.cpp:386] inception_4c/relu_1x1 -> inception_4c/1x1 (in-place)
I0403 14:24:23.554903 13241 net.cpp:141] Setting up inception_4c/relu_1x1
I0403 14:24:23.554927 13241 net.cpp:148] Top shape: 24 128 14 14 (602112)
I0403 14:24:23.554940 13241 net.cpp:156] Memory required for data: 1033209120
I0403 14:24:23.554955 13241 layer_factory.hpp:77] Creating layer inception_4c/3x3_reduce
I0403 14:24:23.554975 13241 net.cpp:91] Creating Layer inception_4c/3x3_reduce
I0403 14:24:23.554992 13241 net.cpp:425] inception_4c/3x3_reduce <- inception_4b/output_inception_4b/output_0_split_1
I0403 14:24:23.555013 13241 net.cpp:399] inception_4c/3x3_reduce -> inception_4c/3x3_reduce
I0403 14:24:23.556901 13241 net.cpp:141] Setting up inception_4c/3x3_reduce
I0403 14:24:23.556931 13241 net.cpp:148] Top shape: 24 128 14 14 (602112)
I0403 14:24:23.556946 13241 net.cpp:156] Memory required for data: 1035617568
I0403 14:24:23.556965 13241 layer_factory.hpp:77] Creating layer inception_4c/relu_3x3_reduce
I0403 14:24:23.556985 13241 net.cpp:91] Creating Layer inception_4c/relu_3x3_reduce
I0403 14:24:23.557004 13241 net.cpp:425] inception_4c/relu_3x3_reduce <- inception_4c/3x3_reduce
I0403 14:24:23.557024 13241 net.cpp:386] inception_4c/relu_3x3_reduce -> inception_4c/3x3_reduce (in-place)
I0403 14:24:23.557302 13241 net.cpp:141] Setting up inception_4c/relu_3x3_reduce
I0403 14:24:23.557329 13241 net.cpp:148] Top shape: 24 128 14 14 (602112)
I0403 14:24:23.557344 13241 net.cpp:156] Memory required for data: 1038026016
I0403 14:24:23.557358 13241 layer_factory.hpp:77] Creating layer inception_4c/3x3
I0403 14:24:23.557380 13241 net.cpp:91] Creating Layer inception_4c/3x3
I0403 14:24:23.557399 13241 net.cpp:425] inception_4c/3x3 <- inception_4c/3x3_reduce
I0403 14:24:23.557420 13241 net.cpp:399] inception_4c/3x3 -> inception_4c/3x3
I0403 14:24:23.561048 13241 net.cpp:141] Setting up inception_4c/3x3
I0403 14:24:23.561090 13241 net.cpp:148] Top shape: 24 256 14 14 (1204224)
I0403 14:24:23.561107 13241 net.cpp:156] Memory required for data: 1042842912
I0403 14:24:23.561141 13241 layer_factory.hpp:77] Creating layer inception_4c/relu_3x3
I0403 14:24:23.561166 13241 net.cpp:91] Creating Layer inception_4c/relu_3x3
I0403 14:24:23.561184 13241 net.cpp:425] inception_4c/relu_3x3 <- inception_4c/3x3
I0403 14:24:23.561202 13241 net.cpp:386] inception_4c/relu_3x3 -> inception_4c/3x3 (in-place)
I0403 14:24:23.561383 13241 net.cpp:141] Setting up inception_4c/relu_3x3
I0403 14:24:23.561409 13241 net.cpp:148] Top shape: 24 256 14 14 (1204224)
I0403 14:24:23.561425 13241 net.cpp:156] Memory required for data: 1047659808
I0403 14:24:23.561440 13241 layer_factory.hpp:77] Creating layer inception_4c/5x5_reduce
I0403 14:24:23.561465 13241 net.cpp:91] Creating Layer inception_4c/5x5_reduce
I0403 14:24:23.561483 13241 net.cpp:425] inception_4c/5x5_reduce <- inception_4b/output_inception_4b/output_0_split_2
I0403 14:24:23.561503 13241 net.cpp:399] inception_4c/5x5_reduce -> inception_4c/5x5_reduce
I0403 14:24:23.562605 13241 net.cpp:141] Setting up inception_4c/5x5_reduce
I0403 14:24:23.562635 13241 net.cpp:148] Top shape: 24 24 14 14 (112896)
I0403 14:24:23.562651 13241 net.cpp:156] Memory required for data: 1048111392
I0403 14:24:23.562671 13241 layer_factory.hpp:77] Creating layer inception_4c/relu_5x5_reduce
I0403 14:24:23.562692 13241 net.cpp:91] Creating Layer inception_4c/relu_5x5_reduce
I0403 14:24:23.562711 13241 net.cpp:425] inception_4c/relu_5x5_reduce <- inception_4c/5x5_reduce
I0403 14:24:23.562729 13241 net.cpp:386] inception_4c/relu_5x5_reduce -> inception_4c/5x5_reduce (in-place)
I0403 14:24:23.562913 13241 net.cpp:141] Setting up inception_4c/relu_5x5_reduce
I0403 14:24:23.562942 13241 net.cpp:148] Top shape: 24 24 14 14 (112896)
I0403 14:24:23.562959 13241 net.cpp:156] Memory required for data: 1048562976
I0403 14:24:23.562975 13241 layer_factory.hpp:77] Creating layer inception_4c/5x5
I0403 14:24:23.562999 13241 net.cpp:91] Creating Layer inception_4c/5x5
I0403 14:24:23.563016 13241 net.cpp:425] inception_4c/5x5 <- inception_4c/5x5_reduce
I0403 14:24:23.563036 13241 net.cpp:399] inception_4c/5x5 -> inception_4c/5x5
I0403 14:24:23.564285 13241 net.cpp:141] Setting up inception_4c/5x5
I0403 14:24:23.564314 13241 net.cpp:148] Top shape: 24 64 14 14 (301056)
I0403 14:24:23.564332 13241 net.cpp:156] Memory required for data: 1049767200
I0403 14:24:23.564352 13241 layer_factory.hpp:77] Creating layer inception_4c/relu_5x5
I0403 14:24:23.564371 13241 net.cpp:91] Creating Layer inception_4c/relu_5x5
I0403 14:24:23.564386 13241 net.cpp:425] inception_4c/relu_5x5 <- inception_4c/5x5
I0403 14:24:23.564405 13241 net.cpp:386] inception_4c/relu_5x5 -> inception_4c/5x5 (in-place)
I0403 14:24:23.564710 13241 net.cpp:141] Setting up inception_4c/relu_5x5
I0403 14:24:23.564740 13241 net.cpp:148] Top shape: 24 64 14 14 (301056)
I0403 14:24:23.564759 13241 net.cpp:156] Memory required for data: 1050971424
I0403 14:24:23.564774 13241 layer_factory.hpp:77] Creating layer inception_4c/pool
I0403 14:24:23.564792 13241 net.cpp:91] Creating Layer inception_4c/pool
I0403 14:24:23.564808 13241 net.cpp:425] inception_4c/pool <- inception_4b/output_inception_4b/output_0_split_3
I0403 14:24:23.564827 13241 net.cpp:399] inception_4c/pool -> inception_4c/pool
I0403 14:24:23.564893 13241 net.cpp:141] Setting up inception_4c/pool
I0403 14:24:23.564918 13241 net.cpp:148] Top shape: 24 512 14 14 (2408448)
I0403 14:24:23.564934 13241 net.cpp:156] Memory required for data: 1060605216
I0403 14:24:23.564949 13241 layer_factory.hpp:77] Creating layer inception_4c/pool_proj
I0403 14:24:23.564970 13241 net.cpp:91] Creating Layer inception_4c/pool_proj
I0403 14:24:23.564987 13241 net.cpp:425] inception_4c/pool_proj <- inception_4c/pool
I0403 14:24:23.565007 13241 net.cpp:399] inception_4c/pool_proj -> inception_4c/pool_proj
I0403 14:24:23.566273 13241 net.cpp:141] Setting up inception_4c/pool_proj
I0403 14:24:23.566303 13241 net.cpp:148] Top shape: 24 64 14 14 (301056)
I0403 14:24:23.566335 13241 net.cpp:156] Memory required for data: 1061809440
I0403 14:24:23.566356 13241 layer_factory.hpp:77] Creating layer inception_4c/relu_pool_proj
I0403 14:24:23.566381 13241 net.cpp:91] Creating Layer inception_4c/relu_pool_proj
I0403 14:24:23.566401 13241 net.cpp:425] inception_4c/relu_pool_proj <- inception_4c/pool_proj
I0403 14:24:23.566419 13241 net.cpp:386] inception_4c/relu_pool_proj -> inception_4c/pool_proj (in-place)
I0403 14:24:23.566606 13241 net.cpp:141] Setting up inception_4c/relu_pool_proj
I0403 14:24:23.566635 13241 net.cpp:148] Top shape: 24 64 14 14 (301056)
I0403 14:24:23.566653 13241 net.cpp:156] Memory required for data: 1063013664
I0403 14:24:23.566668 13241 layer_factory.hpp:77] Creating layer inception_4c/output
I0403 14:24:23.566686 13241 net.cpp:91] Creating Layer inception_4c/output
I0403 14:24:23.566701 13241 net.cpp:425] inception_4c/output <- inception_4c/1x1
I0403 14:24:23.566718 13241 net.cpp:425] inception_4c/output <- inception_4c/3x3
I0403 14:24:23.566735 13241 net.cpp:425] inception_4c/output <- inception_4c/5x5
I0403 14:24:23.566751 13241 net.cpp:425] inception_4c/output <- inception_4c/pool_proj
I0403 14:24:23.566771 13241 net.cpp:399] inception_4c/output -> inception_4c/output
I0403 14:24:23.566823 13241 net.cpp:141] Setting up inception_4c/output
I0403 14:24:23.566846 13241 net.cpp:148] Top shape: 24 512 14 14 (2408448)
I0403 14:24:23.566861 13241 net.cpp:156] Memory required for data: 1072647456
I0403 14:24:23.566876 13241 layer_factory.hpp:77] Creating layer inception_4c/output_inception_4c/output_0_split
I0403 14:24:23.566897 13241 net.cpp:91] Creating Layer inception_4c/output_inception_4c/output_0_split
I0403 14:24:23.566915 13241 net.cpp:425] inception_4c/output_inception_4c/output_0_split <- inception_4c/output
I0403 14:24:23.566933 13241 net.cpp:399] inception_4c/output_inception_4c/output_0_split -> inception_4c/output_inception_4c/output_0_split_0
I0403 14:24:23.566953 13241 net.cpp:399] inception_4c/output_inception_4c/output_0_split -> inception_4c/output_inception_4c/output_0_split_1
I0403 14:24:23.566974 13241 net.cpp:399] inception_4c/output_inception_4c/output_0_split -> inception_4c/output_inception_4c/output_0_split_2
I0403 14:24:23.566999 13241 net.cpp:399] inception_4c/output_inception_4c/output_0_split -> inception_4c/output_inception_4c/output_0_split_3
I0403 14:24:23.567088 13241 net.cpp:141] Setting up inception_4c/output_inception_4c/output_0_split
I0403 14:24:23.567112 13241 net.cpp:148] Top shape: 24 512 14 14 (2408448)
I0403 14:24:23.567128 13241 net.cpp:148] Top shape: 24 512 14 14 (2408448)
I0403 14:24:23.567143 13241 net.cpp:148] Top shape: 24 512 14 14 (2408448)
I0403 14:24:23.567158 13241 net.cpp:148] Top shape: 24 512 14 14 (2408448)
I0403 14:24:23.567173 13241 net.cpp:156] Memory required for data: 1111182624
I0403 14:24:23.567188 13241 layer_factory.hpp:77] Creating layer inception_4d/1x1
I0403 14:24:23.567209 13241 net.cpp:91] Creating Layer inception_4d/1x1
I0403 14:24:23.567226 13241 net.cpp:425] inception_4d/1x1 <- inception_4c/output_inception_4c/output_0_split_0
I0403 14:24:23.567247 13241 net.cpp:399] inception_4d/1x1 -> inception_4d/1x1
I0403 14:24:23.568646 13241 net.cpp:141] Setting up inception_4d/1x1
I0403 14:24:23.568675 13241 net.cpp:148] Top shape: 24 112 14 14 (526848)
I0403 14:24:23.568691 13241 net.cpp:156] Memory required for data: 1113290016
I0403 14:24:23.568709 13241 layer_factory.hpp:77] Creating layer inception_4d/relu_1x1
I0403 14:24:23.568732 13241 net.cpp:91] Creating Layer inception_4d/relu_1x1
I0403 14:24:23.568752 13241 net.cpp:425] inception_4d/relu_1x1 <- inception_4d/1x1
I0403 14:24:23.568769 13241 net.cpp:386] inception_4d/relu_1x1 -> inception_4d/1x1 (in-place)
I0403 14:24:23.568951 13241 net.cpp:141] Setting up inception_4d/relu_1x1
I0403 14:24:23.568977 13241 net.cpp:148] Top shape: 24 112 14 14 (526848)
I0403 14:24:23.568992 13241 net.cpp:156] Memory required for data: 1115397408
I0403 14:24:23.569008 13241 layer_factory.hpp:77] Creating layer inception_4d/3x3_reduce
I0403 14:24:23.569046 13241 net.cpp:91] Creating Layer inception_4d/3x3_reduce
I0403 14:24:23.569066 13241 net.cpp:425] inception_4d/3x3_reduce <- inception_4c/output_inception_4c/output_0_split_1
I0403 14:24:23.569087 13241 net.cpp:399] inception_4d/3x3_reduce -> inception_4d/3x3_reduce
I0403 14:24:23.570602 13241 net.cpp:141] Setting up inception_4d/3x3_reduce
I0403 14:24:23.570633 13241 net.cpp:148] Top shape: 24 144 14 14 (677376)
I0403 14:24:23.570649 13241 net.cpp:156] Memory required for data: 1118106912
I0403 14:24:23.570669 13241 layer_factory.hpp:77] Creating layer inception_4d/relu_3x3_reduce
I0403 14:24:23.570688 13241 net.cpp:91] Creating Layer inception_4d/relu_3x3_reduce
I0403 14:24:23.570706 13241 net.cpp:425] inception_4d/relu_3x3_reduce <- inception_4d/3x3_reduce
I0403 14:24:23.570727 13241 net.cpp:386] inception_4d/relu_3x3_reduce -> inception_4d/3x3_reduce (in-place)
I0403 14:24:23.571017 13241 net.cpp:141] Setting up inception_4d/relu_3x3_reduce
I0403 14:24:23.571045 13241 net.cpp:148] Top shape: 24 144 14 14 (677376)
I0403 14:24:23.571059 13241 net.cpp:156] Memory required for data: 1120816416
I0403 14:24:23.571074 13241 layer_factory.hpp:77] Creating layer inception_4d/3x3
I0403 14:24:23.571096 13241 net.cpp:91] Creating Layer inception_4d/3x3
I0403 14:24:23.571115 13241 net.cpp:425] inception_4d/3x3 <- inception_4d/3x3_reduce
I0403 14:24:23.571136 13241 net.cpp:399] inception_4d/3x3 -> inception_4d/3x3
I0403 14:24:23.575422 13241 net.cpp:141] Setting up inception_4d/3x3
I0403 14:24:23.575451 13241 net.cpp:148] Top shape: 24 288 14 14 (1354752)
I0403 14:24:23.575469 13241 net.cpp:156] Memory required for data: 1126235424
I0403 14:24:23.575487 13241 layer_factory.hpp:77] Creating layer inception_4d/relu_3x3
I0403 14:24:23.575505 13241 net.cpp:91] Creating Layer inception_4d/relu_3x3
I0403 14:24:23.575521 13241 net.cpp:425] inception_4d/relu_3x3 <- inception_4d/3x3
I0403 14:24:23.575541 13241 net.cpp:386] inception_4d/relu_3x3 -> inception_4d/3x3 (in-place)
I0403 14:24:23.575731 13241 net.cpp:141] Setting up inception_4d/relu_3x3
I0403 14:24:23.575759 13241 net.cpp:148] Top shape: 24 288 14 14 (1354752)
I0403 14:24:23.575775 13241 net.cpp:156] Memory required for data: 1131654432
I0403 14:24:23.575790 13241 layer_factory.hpp:77] Creating layer inception_4d/5x5_reduce
I0403 14:24:23.575812 13241 net.cpp:91] Creating Layer inception_4d/5x5_reduce
I0403 14:24:23.575831 13241 net.cpp:425] inception_4d/5x5_reduce <- inception_4c/output_inception_4c/output_0_split_2
I0403 14:24:23.575853 13241 net.cpp:399] inception_4d/5x5_reduce -> inception_4d/5x5_reduce
I0403 14:24:23.577033 13241 net.cpp:141] Setting up inception_4d/5x5_reduce
I0403 14:24:23.577064 13241 net.cpp:148] Top shape: 24 32 14 14 (150528)
I0403 14:24:23.577080 13241 net.cpp:156] Memory required for data: 1132256544
I0403 14:24:23.577098 13241 layer_factory.hpp:77] Creating layer inception_4d/relu_5x5_reduce
I0403 14:24:23.577121 13241 net.cpp:91] Creating Layer inception_4d/relu_5x5_reduce
I0403 14:24:23.577138 13241 net.cpp:425] inception_4d/relu_5x5_reduce <- inception_4d/5x5_reduce
I0403 14:24:23.577157 13241 net.cpp:386] inception_4d/relu_5x5_reduce -> inception_4d/5x5_reduce (in-place)
I0403 14:24:23.577349 13241 net.cpp:141] Setting up inception_4d/relu_5x5_reduce
I0403 14:24:23.577376 13241 net.cpp:148] Top shape: 24 32 14 14 (150528)
I0403 14:24:23.577392 13241 net.cpp:156] Memory required for data: 1132858656
I0403 14:24:23.577407 13241 layer_factory.hpp:77] Creating layer inception_4d/5x5
I0403 14:24:23.577430 13241 net.cpp:91] Creating Layer inception_4d/5x5
I0403 14:24:23.577451 13241 net.cpp:425] inception_4d/5x5 <- inception_4d/5x5_reduce
I0403 14:24:23.577471 13241 net.cpp:399] inception_4d/5x5 -> inception_4d/5x5
I0403 14:24:23.578980 13241 net.cpp:141] Setting up inception_4d/5x5
I0403 14:24:23.579008 13241 net.cpp:148] Top shape: 24 64 14 14 (301056)
I0403 14:24:23.579026 13241 net.cpp:156] Memory required for data: 1134062880
I0403 14:24:23.579047 13241 layer_factory.hpp:77] Creating layer inception_4d/relu_5x5
I0403 14:24:23.579084 13241 net.cpp:91] Creating Layer inception_4d/relu_5x5
I0403 14:24:23.579103 13241 net.cpp:425] inception_4d/relu_5x5 <- inception_4d/5x5
I0403 14:24:23.579120 13241 net.cpp:386] inception_4d/relu_5x5 -> inception_4d/5x5 (in-place)
I0403 14:24:23.579421 13241 net.cpp:141] Setting up inception_4d/relu_5x5
I0403 14:24:23.579448 13241 net.cpp:148] Top shape: 24 64 14 14 (301056)
I0403 14:24:23.579463 13241 net.cpp:156] Memory required for data: 1135267104
I0403 14:24:23.579478 13241 layer_factory.hpp:77] Creating layer inception_4d/pool
I0403 14:24:23.579499 13241 net.cpp:91] Creating Layer inception_4d/pool
I0403 14:24:23.579516 13241 net.cpp:425] inception_4d/pool <- inception_4c/output_inception_4c/output_0_split_3
I0403 14:24:23.579535 13241 net.cpp:399] inception_4d/pool -> inception_4d/pool
I0403 14:24:23.579617 13241 net.cpp:141] Setting up inception_4d/pool
I0403 14:24:23.579643 13241 net.cpp:148] Top shape: 24 512 14 14 (2408448)
I0403 14:24:23.579658 13241 net.cpp:156] Memory required for data: 1144900896
I0403 14:24:23.579671 13241 layer_factory.hpp:77] Creating layer inception_4d/pool_proj
I0403 14:24:23.579694 13241 net.cpp:91] Creating Layer inception_4d/pool_proj
I0403 14:24:23.579711 13241 net.cpp:425] inception_4d/pool_proj <- inception_4d/pool
I0403 14:24:23.579732 13241 net.cpp:399] inception_4d/pool_proj -> inception_4d/pool_proj
I0403 14:24:23.581526 13241 net.cpp:141] Setting up inception_4d/pool_proj
I0403 14:24:23.581565 13241 net.cpp:148] Top shape: 24 64 14 14 (301056)
I0403 14:24:23.581583 13241 net.cpp:156] Memory required for data: 1146105120
I0403 14:24:23.581605 13241 layer_factory.hpp:77] Creating layer inception_4d/relu_pool_proj
I0403 14:24:23.581626 13241 net.cpp:91] Creating Layer inception_4d/relu_pool_proj
I0403 14:24:23.581645 13241 net.cpp:425] inception_4d/relu_pool_proj <- inception_4d/pool_proj
I0403 14:24:23.581668 13241 net.cpp:386] inception_4d/relu_pool_proj -> inception_4d/pool_proj (in-place)
I0403 14:24:23.581856 13241 net.cpp:141] Setting up inception_4d/relu_pool_proj
I0403 14:24:23.581881 13241 net.cpp:148] Top shape: 24 64 14 14 (301056)
I0403 14:24:23.581897 13241 net.cpp:156] Memory required for data: 1147309344
I0403 14:24:23.581912 13241 layer_factory.hpp:77] Creating layer inception_4d/output
I0403 14:24:23.581931 13241 net.cpp:91] Creating Layer inception_4d/output
I0403 14:24:23.581948 13241 net.cpp:425] inception_4d/output <- inception_4d/1x1
I0403 14:24:23.581964 13241 net.cpp:425] inception_4d/output <- inception_4d/3x3
I0403 14:24:23.581979 13241 net.cpp:425] inception_4d/output <- inception_4d/5x5
I0403 14:24:23.581995 13241 net.cpp:425] inception_4d/output <- inception_4d/pool_proj
I0403 14:24:23.582011 13241 net.cpp:399] inception_4d/output -> inception_4d/output
I0403 14:24:23.582061 13241 net.cpp:141] Setting up inception_4d/output
I0403 14:24:23.582084 13241 net.cpp:148] Top shape: 24 528 14 14 (2483712)
I0403 14:24:23.582099 13241 net.cpp:156] Memory required for data: 1157244192
I0403 14:24:23.582113 13241 layer_factory.hpp:77] Creating layer inception_4d/output_inception_4d/output_0_split
I0403 14:24:23.582131 13241 net.cpp:91] Creating Layer inception_4d/output_inception_4d/output_0_split
I0403 14:24:23.582146 13241 net.cpp:425] inception_4d/output_inception_4d/output_0_split <- inception_4d/output
I0403 14:24:23.582166 13241 net.cpp:399] inception_4d/output_inception_4d/output_0_split -> inception_4d/output_inception_4d/output_0_split_0
I0403 14:24:23.582188 13241 net.cpp:399] inception_4d/output_inception_4d/output_0_split -> inception_4d/output_inception_4d/output_0_split_1
I0403 14:24:23.582209 13241 net.cpp:399] inception_4d/output_inception_4d/output_0_split -> inception_4d/output_inception_4d/output_0_split_2
I0403 14:24:23.582229 13241 net.cpp:399] inception_4d/output_inception_4d/output_0_split -> inception_4d/output_inception_4d/output_0_split_3
I0403 14:24:23.582248 13241 net.cpp:399] inception_4d/output_inception_4d/output_0_split -> inception_4d/output_inception_4d/output_0_split_4
I0403 14:24:23.582355 13241 net.cpp:141] Setting up inception_4d/output_inception_4d/output_0_split
I0403 14:24:23.582391 13241 net.cpp:148] Top shape: 24 528 14 14 (2483712)
I0403 14:24:23.582409 13241 net.cpp:148] Top shape: 24 528 14 14 (2483712)
I0403 14:24:23.582425 13241 net.cpp:148] Top shape: 24 528 14 14 (2483712)
I0403 14:24:23.582442 13241 net.cpp:148] Top shape: 24 528 14 14 (2483712)
I0403 14:24:23.582456 13241 net.cpp:148] Top shape: 24 528 14 14 (2483712)
I0403 14:24:23.582469 13241 net.cpp:156] Memory required for data: 1206918432
I0403 14:24:23.582484 13241 layer_factory.hpp:77] Creating layer loss2/ave_pool
I0403 14:24:23.582502 13241 net.cpp:91] Creating Layer loss2/ave_pool
I0403 14:24:23.582518 13241 net.cpp:425] loss2/ave_pool <- inception_4d/output_inception_4d/output_0_split_0
I0403 14:24:23.582540 13241 net.cpp:399] loss2/ave_pool -> loss2/ave_pool
I0403 14:24:23.582860 13241 net.cpp:141] Setting up loss2/ave_pool
I0403 14:24:23.582887 13241 net.cpp:148] Top shape: 24 528 4 4 (202752)
I0403 14:24:23.582903 13241 net.cpp:156] Memory required for data: 1207729440
I0403 14:24:23.582917 13241 layer_factory.hpp:77] Creating layer loss2/conv
I0403 14:24:23.582940 13241 net.cpp:91] Creating Layer loss2/conv
I0403 14:24:23.582959 13241 net.cpp:425] loss2/conv <- loss2/ave_pool
I0403 14:24:23.582979 13241 net.cpp:399] loss2/conv -> loss2/conv
I0403 14:24:23.584913 13241 net.cpp:141] Setting up loss2/conv
I0403 14:24:23.584945 13241 net.cpp:148] Top shape: 24 128 4 4 (49152)
I0403 14:24:23.584964 13241 net.cpp:156] Memory required for data: 1207926048
I0403 14:24:23.584983 13241 layer_factory.hpp:77] Creating layer loss2/relu_conv
I0403 14:24:23.585002 13241 net.cpp:91] Creating Layer loss2/relu_conv
I0403 14:24:23.585021 13241 net.cpp:425] loss2/relu_conv <- loss2/conv
I0403 14:24:23.585039 13241 net.cpp:386] loss2/relu_conv -> loss2/conv (in-place)
I0403 14:24:23.585327 13241 net.cpp:141] Setting up loss2/relu_conv
I0403 14:24:23.585356 13241 net.cpp:148] Top shape: 24 128 4 4 (49152)
I0403 14:24:23.585373 13241 net.cpp:156] Memory required for data: 1208122656
I0403 14:24:23.585389 13241 layer_factory.hpp:77] Creating layer loss2/fc
I0403 14:24:23.585409 13241 net.cpp:91] Creating Layer loss2/fc
I0403 14:24:23.585427 13241 net.cpp:425] loss2/fc <- loss2/conv
I0403 14:24:23.585446 13241 net.cpp:399] loss2/fc -> loss2/fc
I0403 14:24:23.603052 13241 net.cpp:141] Setting up loss2/fc
I0403 14:24:23.603085 13241 net.cpp:148] Top shape: 24 1024 (24576)
I0403 14:24:23.603101 13241 net.cpp:156] Memory required for data: 1208220960
I0403 14:24:23.603121 13241 layer_factory.hpp:77] Creating layer loss2/relu_fc
I0403 14:24:23.603144 13241 net.cpp:91] Creating Layer loss2/relu_fc
I0403 14:24:23.603164 13241 net.cpp:425] loss2/relu_fc <- loss2/fc
I0403 14:24:23.603183 13241 net.cpp:386] loss2/relu_fc -> loss2/fc (in-place)
I0403 14:24:23.603503 13241 net.cpp:141] Setting up loss2/relu_fc
I0403 14:24:23.603530 13241 net.cpp:148] Top shape: 24 1024 (24576)
I0403 14:24:23.603546 13241 net.cpp:156] Memory required for data: 1208319264
I0403 14:24:23.603561 13241 layer_factory.hpp:77] Creating layer loss2/drop_fc
I0403 14:24:23.603581 13241 net.cpp:91] Creating Layer loss2/drop_fc
I0403 14:24:23.603597 13241 net.cpp:425] loss2/drop_fc <- loss2/fc
I0403 14:24:23.603621 13241 net.cpp:386] loss2/drop_fc -> loss2/fc (in-place)
I0403 14:24:23.603668 13241 net.cpp:141] Setting up loss2/drop_fc
I0403 14:24:23.603693 13241 net.cpp:148] Top shape: 24 1024 (24576)
I0403 14:24:23.603709 13241 net.cpp:156] Memory required for data: 1208417568
I0403 14:24:23.603724 13241 layer_factory.hpp:77] Creating layer loss2/classifier_plantvillage
I0403 14:24:23.603740 13241 net.cpp:91] Creating Layer loss2/classifier_plantvillage
I0403 14:24:23.603756 13241 net.cpp:425] loss2/classifier_plantvillage <- loss2/fc
I0403 14:24:23.603778 13241 net.cpp:399] loss2/classifier_plantvillage -> loss2/classifier_plantvillage
I0403 14:24:23.604179 13241 net.cpp:141] Setting up loss2/classifier_plantvillage
I0403 14:24:23.604204 13241 net.cpp:148] Top shape: 24 38 (912)
I0403 14:24:23.604218 13241 net.cpp:156] Memory required for data: 1208421216
I0403 14:24:23.604260 13241 layer_factory.hpp:77] Creating layer loss2/classifier_plantvillage_loss2/classifier_plantvillage_0_split
I0403 14:24:23.604279 13241 net.cpp:91] Creating Layer loss2/classifier_plantvillage_loss2/classifier_plantvillage_0_split
I0403 14:24:23.604295 13241 net.cpp:425] loss2/classifier_plantvillage_loss2/classifier_plantvillage_0_split <- loss2/classifier_plantvillage
I0403 14:24:23.604311 13241 net.cpp:399] loss2/classifier_plantvillage_loss2/classifier_plantvillage_0_split -> loss2/classifier_plantvillage_loss2/classifier_plantvillage_0_split_0
I0403 14:24:23.604333 13241 net.cpp:399] loss2/classifier_plantvillage_loss2/classifier_plantvillage_0_split -> loss2/classifier_plantvillage_loss2/classifier_plantvillage_0_split_1
I0403 14:24:23.604354 13241 net.cpp:399] loss2/classifier_plantvillage_loss2/classifier_plantvillage_0_split -> loss2/classifier_plantvillage_loss2/classifier_plantvillage_0_split_2
I0403 14:24:23.604429 13241 net.cpp:141] Setting up loss2/classifier_plantvillage_loss2/classifier_plantvillage_0_split
I0403 14:24:23.604454 13241 net.cpp:148] Top shape: 24 38 (912)
I0403 14:24:23.604470 13241 net.cpp:148] Top shape: 24 38 (912)
I0403 14:24:23.604483 13241 net.cpp:148] Top shape: 24 38 (912)
I0403 14:24:23.604497 13241 net.cpp:156] Memory required for data: 1208432160
I0403 14:24:23.604511 13241 layer_factory.hpp:77] Creating layer inception_4e/1x1
I0403 14:24:23.604532 13241 net.cpp:91] Creating Layer inception_4e/1x1
I0403 14:24:23.604550 13241 net.cpp:425] inception_4e/1x1 <- inception_4d/output_inception_4d/output_0_split_1
I0403 14:24:23.604571 13241 net.cpp:399] inception_4e/1x1 -> inception_4e/1x1
I0403 14:24:23.606411 13241 net.cpp:141] Setting up inception_4e/1x1
I0403 14:24:23.606442 13241 net.cpp:148] Top shape: 24 256 14 14 (1204224)
I0403 14:24:23.606459 13241 net.cpp:156] Memory required for data: 1213249056
I0403 14:24:23.606477 13241 layer_factory.hpp:77] Creating layer inception_4e/relu_1x1
I0403 14:24:23.606494 13241 net.cpp:91] Creating Layer inception_4e/relu_1x1
I0403 14:24:23.606509 13241 net.cpp:425] inception_4e/relu_1x1 <- inception_4e/1x1
I0403 14:24:23.606528 13241 net.cpp:386] inception_4e/relu_1x1 -> inception_4e/1x1 (in-place)
I0403 14:24:23.606822 13241 net.cpp:141] Setting up inception_4e/relu_1x1
I0403 14:24:23.606849 13241 net.cpp:148] Top shape: 24 256 14 14 (1204224)
I0403 14:24:23.606864 13241 net.cpp:156] Memory required for data: 1218065952
I0403 14:24:23.606878 13241 layer_factory.hpp:77] Creating layer inception_4e/3x3_reduce
I0403 14:24:23.606900 13241 net.cpp:91] Creating Layer inception_4e/3x3_reduce
I0403 14:24:23.606917 13241 net.cpp:425] inception_4e/3x3_reduce <- inception_4d/output_inception_4d/output_0_split_2
I0403 14:24:23.606936 13241 net.cpp:399] inception_4e/3x3_reduce -> inception_4e/3x3_reduce
I0403 14:24:23.609032 13241 net.cpp:141] Setting up inception_4e/3x3_reduce
I0403 14:24:23.609061 13241 net.cpp:148] Top shape: 24 160 14 14 (752640)
I0403 14:24:23.609078 13241 net.cpp:156] Memory required for data: 1221076512
I0403 14:24:23.609097 13241 layer_factory.hpp:77] Creating layer inception_4e/relu_3x3_reduce
I0403 14:24:23.609119 13241 net.cpp:91] Creating Layer inception_4e/relu_3x3_reduce
I0403 14:24:23.609136 13241 net.cpp:425] inception_4e/relu_3x3_reduce <- inception_4e/3x3_reduce
I0403 14:24:23.609153 13241 net.cpp:386] inception_4e/relu_3x3_reduce -> inception_4e/3x3_reduce (in-place)
I0403 14:24:23.609335 13241 net.cpp:141] Setting up inception_4e/relu_3x3_reduce
I0403 14:24:23.609364 13241 net.cpp:148] Top shape: 24 160 14 14 (752640)
I0403 14:24:23.609380 13241 net.cpp:156] Memory required for data: 1224087072
I0403 14:24:23.609395 13241 layer_factory.hpp:77] Creating layer inception_4e/3x3
I0403 14:24:23.609416 13241 net.cpp:91] Creating Layer inception_4e/3x3
I0403 14:24:23.609436 13241 net.cpp:425] inception_4e/3x3 <- inception_4e/3x3_reduce
I0403 14:24:23.609454 13241 net.cpp:399] inception_4e/3x3 -> inception_4e/3x3
I0403 14:24:23.614362 13241 net.cpp:141] Setting up inception_4e/3x3
I0403 14:24:23.614408 13241 net.cpp:148] Top shape: 24 320 14 14 (1505280)
I0403 14:24:23.614425 13241 net.cpp:156] Memory required for data: 1230108192
I0403 14:24:23.614444 13241 layer_factory.hpp:77] Creating layer inception_4e/relu_3x3
I0403 14:24:23.614462 13241 net.cpp:91] Creating Layer inception_4e/relu_3x3
I0403 14:24:23.614480 13241 net.cpp:425] inception_4e/relu_3x3 <- inception_4e/3x3
I0403 14:24:23.614500 13241 net.cpp:386] inception_4e/relu_3x3 -> inception_4e/3x3 (in-place)
I0403 14:24:23.614805 13241 net.cpp:141] Setting up inception_4e/relu_3x3
I0403 14:24:23.614833 13241 net.cpp:148] Top shape: 24 320 14 14 (1505280)
I0403 14:24:23.614848 13241 net.cpp:156] Memory required for data: 1236129312
I0403 14:24:23.614863 13241 layer_factory.hpp:77] Creating layer inception_4e/5x5_reduce
I0403 14:24:23.614887 13241 net.cpp:91] Creating Layer inception_4e/5x5_reduce
I0403 14:24:23.614905 13241 net.cpp:425] inception_4e/5x5_reduce <- inception_4d/output_inception_4d/output_0_split_3
I0403 14:24:23.614926 13241 net.cpp:399] inception_4e/5x5_reduce -> inception_4e/5x5_reduce
I0403 14:24:23.615980 13241 net.cpp:141] Setting up inception_4e/5x5_reduce
I0403 14:24:23.616008 13241 net.cpp:148] Top shape: 24 32 14 14 (150528)
I0403 14:24:23.616024 13241 net.cpp:156] Memory required for data: 1236731424
I0403 14:24:23.616042 13241 layer_factory.hpp:77] Creating layer inception_4e/relu_5x5_reduce
I0403 14:24:23.616065 13241 net.cpp:91] Creating Layer inception_4e/relu_5x5_reduce
I0403 14:24:23.616082 13241 net.cpp:425] inception_4e/relu_5x5_reduce <- inception_4e/5x5_reduce
I0403 14:24:23.616098 13241 net.cpp:386] inception_4e/relu_5x5_reduce -> inception_4e/5x5_reduce (in-place)
I0403 14:24:23.616394 13241 net.cpp:141] Setting up inception_4e/relu_5x5_reduce
I0403 14:24:23.616420 13241 net.cpp:148] Top shape: 24 32 14 14 (150528)
I0403 14:24:23.616436 13241 net.cpp:156] Memory required for data: 1237333536
I0403 14:24:23.616449 13241 layer_factory.hpp:77] Creating layer inception_4e/5x5
I0403 14:24:23.616497 13241 net.cpp:91] Creating Layer inception_4e/5x5
I0403 14:24:23.616516 13241 net.cpp:425] inception_4e/5x5 <- inception_4e/5x5_reduce
I0403 14:24:23.616535 13241 net.cpp:399] inception_4e/5x5 -> inception_4e/5x5
I0403 14:24:23.618373 13241 net.cpp:141] Setting up inception_4e/5x5
I0403 14:24:23.618402 13241 net.cpp:148] Top shape: 24 128 14 14 (602112)
I0403 14:24:23.618417 13241 net.cpp:156] Memory required for data: 1239741984
I0403 14:24:23.618437 13241 layer_factory.hpp:77] Creating layer inception_4e/relu_5x5
I0403 14:24:23.618458 13241 net.cpp:91] Creating Layer inception_4e/relu_5x5
I0403 14:24:23.618476 13241 net.cpp:425] inception_4e/relu_5x5 <- inception_4e/5x5
I0403 14:24:23.618494 13241 net.cpp:386] inception_4e/relu_5x5 -> inception_4e/5x5 (in-place)
I0403 14:24:23.618691 13241 net.cpp:141] Setting up inception_4e/relu_5x5
I0403 14:24:23.618719 13241 net.cpp:148] Top shape: 24 128 14 14 (602112)
I0403 14:24:23.618736 13241 net.cpp:156] Memory required for data: 1242150432
I0403 14:24:23.618751 13241 layer_factory.hpp:77] Creating layer inception_4e/pool
I0403 14:24:23.618768 13241 net.cpp:91] Creating Layer inception_4e/pool
I0403 14:24:23.618783 13241 net.cpp:425] inception_4e/pool <- inception_4d/output_inception_4d/output_0_split_4
I0403 14:24:23.618803 13241 net.cpp:399] inception_4e/pool -> inception_4e/pool
I0403 14:24:23.618875 13241 net.cpp:141] Setting up inception_4e/pool
I0403 14:24:23.618897 13241 net.cpp:148] Top shape: 24 528 14 14 (2483712)
I0403 14:24:23.618912 13241 net.cpp:156] Memory required for data: 1252085280
I0403 14:24:23.618927 13241 layer_factory.hpp:77] Creating layer inception_4e/pool_proj
I0403 14:24:23.618947 13241 net.cpp:91] Creating Layer inception_4e/pool_proj
I0403 14:24:23.618964 13241 net.cpp:425] inception_4e/pool_proj <- inception_4e/pool
I0403 14:24:23.618984 13241 net.cpp:399] inception_4e/pool_proj -> inception_4e/pool_proj
I0403 14:24:23.620467 13241 net.cpp:141] Setting up inception_4e/pool_proj
I0403 14:24:23.620496 13241 net.cpp:148] Top shape: 24 128 14 14 (602112)
I0403 14:24:23.620525 13241 net.cpp:156] Memory required for data: 1254493728
I0403 14:24:23.620546 13241 layer_factory.hpp:77] Creating layer inception_4e/relu_pool_proj
I0403 14:24:23.620568 13241 net.cpp:91] Creating Layer inception_4e/relu_pool_proj
I0403 14:24:23.620586 13241 net.cpp:425] inception_4e/relu_pool_proj <- inception_4e/pool_proj
I0403 14:24:23.620610 13241 net.cpp:386] inception_4e/relu_pool_proj -> inception_4e/pool_proj (in-place)
I0403 14:24:23.620903 13241 net.cpp:141] Setting up inception_4e/relu_pool_proj
I0403 14:24:23.620930 13241 net.cpp:148] Top shape: 24 128 14 14 (602112)
I0403 14:24:23.620945 13241 net.cpp:156] Memory required for data: 1256902176
I0403 14:24:23.620960 13241 layer_factory.hpp:77] Creating layer inception_4e/output
I0403 14:24:23.620978 13241 net.cpp:91] Creating Layer inception_4e/output
I0403 14:24:23.620995 13241 net.cpp:425] inception_4e/output <- inception_4e/1x1
I0403 14:24:23.621013 13241 net.cpp:425] inception_4e/output <- inception_4e/3x3
I0403 14:24:23.621028 13241 net.cpp:425] inception_4e/output <- inception_4e/5x5
I0403 14:24:23.621042 13241 net.cpp:425] inception_4e/output <- inception_4e/pool_proj
I0403 14:24:23.621062 13241 net.cpp:399] inception_4e/output -> inception_4e/output
I0403 14:24:23.621114 13241 net.cpp:141] Setting up inception_4e/output
I0403 14:24:23.621136 13241 net.cpp:148] Top shape: 24 832 14 14 (3913728)
I0403 14:24:23.621150 13241 net.cpp:156] Memory required for data: 1272557088
I0403 14:24:23.621165 13241 layer_factory.hpp:77] Creating layer pool4/3x3_s2
I0403 14:24:23.621181 13241 net.cpp:91] Creating Layer pool4/3x3_s2
I0403 14:24:23.621196 13241 net.cpp:425] pool4/3x3_s2 <- inception_4e/output
I0403 14:24:23.621215 13241 net.cpp:399] pool4/3x3_s2 -> pool4/3x3_s2
I0403 14:24:23.621282 13241 net.cpp:141] Setting up pool4/3x3_s2
I0403 14:24:23.621306 13241 net.cpp:148] Top shape: 24 832 7 7 (978432)
I0403 14:24:23.621321 13241 net.cpp:156] Memory required for data: 1276470816
I0403 14:24:23.621335 13241 layer_factory.hpp:77] Creating layer pool4/3x3_s2_pool4/3x3_s2_0_split
I0403 14:24:23.621353 13241 net.cpp:91] Creating Layer pool4/3x3_s2_pool4/3x3_s2_0_split
I0403 14:24:23.621369 13241 net.cpp:425] pool4/3x3_s2_pool4/3x3_s2_0_split <- pool4/3x3_s2
I0403 14:24:23.621387 13241 net.cpp:399] pool4/3x3_s2_pool4/3x3_s2_0_split -> pool4/3x3_s2_pool4/3x3_s2_0_split_0
I0403 14:24:23.621407 13241 net.cpp:399] pool4/3x3_s2_pool4/3x3_s2_0_split -> pool4/3x3_s2_pool4/3x3_s2_0_split_1
I0403 14:24:23.621431 13241 net.cpp:399] pool4/3x3_s2_pool4/3x3_s2_0_split -> pool4/3x3_s2_pool4/3x3_s2_0_split_2
I0403 14:24:23.621451 13241 net.cpp:399] pool4/3x3_s2_pool4/3x3_s2_0_split -> pool4/3x3_s2_pool4/3x3_s2_0_split_3
I0403 14:24:23.621539 13241 net.cpp:141] Setting up pool4/3x3_s2_pool4/3x3_s2_0_split
I0403 14:24:23.621562 13241 net.cpp:148] Top shape: 24 832 7 7 (978432)
I0403 14:24:23.621578 13241 net.cpp:148] Top shape: 24 832 7 7 (978432)
I0403 14:24:23.621593 13241 net.cpp:148] Top shape: 24 832 7 7 (978432)
I0403 14:24:23.621624 13241 net.cpp:148] Top shape: 24 832 7 7 (978432)
I0403 14:24:23.621639 13241 net.cpp:156] Memory required for data: 1292125728
I0403 14:24:23.621654 13241 layer_factory.hpp:77] Creating layer inception_5a/1x1
I0403 14:24:23.621675 13241 net.cpp:91] Creating Layer inception_5a/1x1
I0403 14:24:23.621691 13241 net.cpp:425] inception_5a/1x1 <- pool4/3x3_s2_pool4/3x3_s2_0_split_0
I0403 14:24:23.621712 13241 net.cpp:399] inception_5a/1x1 -> inception_5a/1x1
I0403 14:24:23.624507 13241 net.cpp:141] Setting up inception_5a/1x1
I0403 14:24:23.624536 13241 net.cpp:148] Top shape: 24 256 7 7 (301056)
I0403 14:24:23.624552 13241 net.cpp:156] Memory required for data: 1293329952
I0403 14:24:23.624572 13241 layer_factory.hpp:77] Creating layer inception_5a/relu_1x1
I0403 14:24:23.624593 13241 net.cpp:91] Creating Layer inception_5a/relu_1x1
I0403 14:24:23.624631 13241 net.cpp:425] inception_5a/relu_1x1 <- inception_5a/1x1
I0403 14:24:23.624652 13241 net.cpp:386] inception_5a/relu_1x1 -> inception_5a/1x1 (in-place)
I0403 14:24:23.624964 13241 net.cpp:141] Setting up inception_5a/relu_1x1
I0403 14:24:23.624991 13241 net.cpp:148] Top shape: 24 256 7 7 (301056)
I0403 14:24:23.625007 13241 net.cpp:156] Memory required for data: 1294534176
I0403 14:24:23.625022 13241 layer_factory.hpp:77] Creating layer inception_5a/3x3_reduce
I0403 14:24:23.625046 13241 net.cpp:91] Creating Layer inception_5a/3x3_reduce
I0403 14:24:23.625064 13241 net.cpp:425] inception_5a/3x3_reduce <- pool4/3x3_s2_pool4/3x3_s2_0_split_1
I0403 14:24:23.625087 13241 net.cpp:399] inception_5a/3x3_reduce -> inception_5a/3x3_reduce
I0403 14:24:23.627516 13241 net.cpp:141] Setting up inception_5a/3x3_reduce
I0403 14:24:23.627545 13241 net.cpp:148] Top shape: 24 160 7 7 (188160)
I0403 14:24:23.627563 13241 net.cpp:156] Memory required for data: 1295286816
I0403 14:24:23.627581 13241 layer_factory.hpp:77] Creating layer inception_5a/relu_3x3_reduce
I0403 14:24:23.627604 13241 net.cpp:91] Creating Layer inception_5a/relu_3x3_reduce
I0403 14:24:23.627624 13241 net.cpp:425] inception_5a/relu_3x3_reduce <- inception_5a/3x3_reduce
I0403 14:24:23.627643 13241 net.cpp:386] inception_5a/relu_3x3_reduce -> inception_5a/3x3_reduce (in-place)
I0403 14:24:23.627827 13241 net.cpp:141] Setting up inception_5a/relu_3x3_reduce
I0403 14:24:23.627852 13241 net.cpp:148] Top shape: 24 160 7 7 (188160)
I0403 14:24:23.627867 13241 net.cpp:156] Memory required for data: 1296039456
I0403 14:24:23.627882 13241 layer_factory.hpp:77] Creating layer inception_5a/3x3
I0403 14:24:23.627903 13241 net.cpp:91] Creating Layer inception_5a/3x3
I0403 14:24:23.627920 13241 net.cpp:425] inception_5a/3x3 <- inception_5a/3x3_reduce
I0403 14:24:23.627943 13241 net.cpp:399] inception_5a/3x3 -> inception_5a/3x3
I0403 14:24:23.632863 13241 net.cpp:141] Setting up inception_5a/3x3
I0403 14:24:23.632892 13241 net.cpp:148] Top shape: 24 320 7 7 (376320)
I0403 14:24:23.632915 13241 net.cpp:156] Memory required for data: 1297544736
I0403 14:24:23.632935 13241 layer_factory.hpp:77] Creating layer inception_5a/relu_3x3
I0403 14:24:23.632956 13241 net.cpp:91] Creating Layer inception_5a/relu_3x3
I0403 14:24:23.632973 13241 net.cpp:425] inception_5a/relu_3x3 <- inception_5a/3x3
I0403 14:24:23.632990 13241 net.cpp:386] inception_5a/relu_3x3 -> inception_5a/3x3 (in-place)
I0403 14:24:23.633277 13241 net.cpp:141] Setting up inception_5a/relu_3x3
I0403 14:24:23.633306 13241 net.cpp:148] Top shape: 24 320 7 7 (376320)
I0403 14:24:23.633322 13241 net.cpp:156] Memory required for data: 1299050016
I0403 14:24:23.633337 13241 layer_factory.hpp:77] Creating layer inception_5a/5x5_reduce
I0403 14:24:23.633358 13241 net.cpp:91] Creating Layer inception_5a/5x5_reduce
I0403 14:24:23.633375 13241 net.cpp:425] inception_5a/5x5_reduce <- pool4/3x3_s2_pool4/3x3_s2_0_split_2
I0403 14:24:23.633397 13241 net.cpp:399] inception_5a/5x5_reduce -> inception_5a/5x5_reduce
I0403 14:24:23.634549 13241 net.cpp:141] Setting up inception_5a/5x5_reduce
I0403 14:24:23.634579 13241 net.cpp:148] Top shape: 24 32 7 7 (37632)
I0403 14:24:23.634608 13241 net.cpp:156] Memory required for data: 1299200544
I0403 14:24:23.634630 13241 layer_factory.hpp:77] Creating layer inception_5a/relu_5x5_reduce
I0403 14:24:23.634649 13241 net.cpp:91] Creating Layer inception_5a/relu_5x5_reduce
I0403 14:24:23.634666 13241 net.cpp:425] inception_5a/relu_5x5_reduce <- inception_5a/5x5_reduce
I0403 14:24:23.634685 13241 net.cpp:386] inception_5a/relu_5x5_reduce -> inception_5a/5x5_reduce (in-place)
I0403 14:24:23.634984 13241 net.cpp:141] Setting up inception_5a/relu_5x5_reduce
I0403 14:24:23.635012 13241 net.cpp:148] Top shape: 24 32 7 7 (37632)
I0403 14:24:23.635030 13241 net.cpp:156] Memory required for data: 1299351072
I0403 14:24:23.635046 13241 layer_factory.hpp:77] Creating layer inception_5a/5x5
I0403 14:24:23.635066 13241 net.cpp:91] Creating Layer inception_5a/5x5
I0403 14:24:23.635085 13241 net.cpp:425] inception_5a/5x5 <- inception_5a/5x5_reduce
I0403 14:24:23.635104 13241 net.cpp:399] inception_5a/5x5 -> inception_5a/5x5
I0403 14:24:23.636798 13241 net.cpp:141] Setting up inception_5a/5x5
I0403 14:24:23.636838 13241 net.cpp:148] Top shape: 24 128 7 7 (150528)
I0403 14:24:23.636857 13241 net.cpp:156] Memory required for data: 1299953184
I0403 14:24:23.636874 13241 layer_factory.hpp:77] Creating layer inception_5a/relu_5x5
I0403 14:24:23.636895 13241 net.cpp:91] Creating Layer inception_5a/relu_5x5
I0403 14:24:23.636914 13241 net.cpp:425] inception_5a/relu_5x5 <- inception_5a/5x5
I0403 14:24:23.636930 13241 net.cpp:386] inception_5a/relu_5x5 -> inception_5a/5x5 (in-place)
I0403 14:24:23.637116 13241 net.cpp:141] Setting up inception_5a/relu_5x5
I0403 14:24:23.637143 13241 net.cpp:148] Top shape: 24 128 7 7 (150528)
I0403 14:24:23.637158 13241 net.cpp:156] Memory required for data: 1300555296
I0403 14:24:23.637173 13241 layer_factory.hpp:77] Creating layer inception_5a/pool
I0403 14:24:23.637190 13241 net.cpp:91] Creating Layer inception_5a/pool
I0403 14:24:23.637207 13241 net.cpp:425] inception_5a/pool <- pool4/3x3_s2_pool4/3x3_s2_0_split_3
I0403 14:24:23.637224 13241 net.cpp:399] inception_5a/pool -> inception_5a/pool
I0403 14:24:23.637295 13241 net.cpp:141] Setting up inception_5a/pool
I0403 14:24:23.637320 13241 net.cpp:148] Top shape: 24 832 7 7 (978432)
I0403 14:24:23.637333 13241 net.cpp:156] Memory required for data: 1304469024
I0403 14:24:23.637347 13241 layer_factory.hpp:77] Creating layer inception_5a/pool_proj
I0403 14:24:23.637368 13241 net.cpp:91] Creating Layer inception_5a/pool_proj
I0403 14:24:23.637387 13241 net.cpp:425] inception_5a/pool_proj <- inception_5a/pool
I0403 14:24:23.637406 13241 net.cpp:399] inception_5a/pool_proj -> inception_5a/pool_proj
I0403 14:24:23.639688 13241 net.cpp:141] Setting up inception_5a/pool_proj
I0403 14:24:23.639716 13241 net.cpp:148] Top shape: 24 128 7 7 (150528)
I0403 14:24:23.639732 13241 net.cpp:156] Memory required for data: 1305071136
I0403 14:24:23.639751 13241 layer_factory.hpp:77] Creating layer inception_5a/relu_pool_proj
I0403 14:24:23.639773 13241 net.cpp:91] Creating Layer inception_5a/relu_pool_proj
I0403 14:24:23.639792 13241 net.cpp:425] inception_5a/relu_pool_proj <- inception_5a/pool_proj
I0403 14:24:23.639811 13241 net.cpp:386] inception_5a/relu_pool_proj -> inception_5a/pool_proj (in-place)
I0403 14:24:23.640111 13241 net.cpp:141] Setting up inception_5a/relu_pool_proj
I0403 14:24:23.640138 13241 net.cpp:148] Top shape: 24 128 7 7 (150528)
I0403 14:24:23.640166 13241 net.cpp:156] Memory required for data: 1305673248
I0403 14:24:23.640182 13241 layer_factory.hpp:77] Creating layer inception_5a/output
I0403 14:24:23.640199 13241 net.cpp:91] Creating Layer inception_5a/output
I0403 14:24:23.640215 13241 net.cpp:425] inception_5a/output <- inception_5a/1x1
I0403 14:24:23.640235 13241 net.cpp:425] inception_5a/output <- inception_5a/3x3
I0403 14:24:23.640254 13241 net.cpp:425] inception_5a/output <- inception_5a/5x5
I0403 14:24:23.640270 13241 net.cpp:425] inception_5a/output <- inception_5a/pool_proj
I0403 14:24:23.640288 13241 net.cpp:399] inception_5a/output -> inception_5a/output
I0403 14:24:23.640341 13241 net.cpp:141] Setting up inception_5a/output
I0403 14:24:23.640368 13241 net.cpp:148] Top shape: 24 832 7 7 (978432)
I0403 14:24:23.640385 13241 net.cpp:156] Memory required for data: 1309586976
I0403 14:24:23.640401 13241 layer_factory.hpp:77] Creating layer inception_5a/output_inception_5a/output_0_split
I0403 14:24:23.640419 13241 net.cpp:91] Creating Layer inception_5a/output_inception_5a/output_0_split
I0403 14:24:23.640436 13241 net.cpp:425] inception_5a/output_inception_5a/output_0_split <- inception_5a/output
I0403 14:24:23.640470 13241 net.cpp:399] inception_5a/output_inception_5a/output_0_split -> inception_5a/output_inception_5a/output_0_split_0
I0403 14:24:23.640491 13241 net.cpp:399] inception_5a/output_inception_5a/output_0_split -> inception_5a/output_inception_5a/output_0_split_1
I0403 14:24:23.640511 13241 net.cpp:399] inception_5a/output_inception_5a/output_0_split -> inception_5a/output_inception_5a/output_0_split_2
I0403 14:24:23.640530 13241 net.cpp:399] inception_5a/output_inception_5a/output_0_split -> inception_5a/output_inception_5a/output_0_split_3
I0403 14:24:23.640655 13241 net.cpp:141] Setting up inception_5a/output_inception_5a/output_0_split
I0403 14:24:23.640681 13241 net.cpp:148] Top shape: 24 832 7 7 (978432)
I0403 14:24:23.640698 13241 net.cpp:148] Top shape: 24 832 7 7 (978432)
I0403 14:24:23.640714 13241 net.cpp:148] Top shape: 24 832 7 7 (978432)
I0403 14:24:23.640728 13241 net.cpp:148] Top shape: 24 832 7 7 (978432)
I0403 14:24:23.640741 13241 net.cpp:156] Memory required for data: 1325241888
I0403 14:24:23.640756 13241 layer_factory.hpp:77] Creating layer inception_5b/1x1
I0403 14:24:23.640777 13241 net.cpp:91] Creating Layer inception_5b/1x1
I0403 14:24:23.640794 13241 net.cpp:425] inception_5b/1x1 <- inception_5a/output_inception_5a/output_0_split_0
I0403 14:24:23.640813 13241 net.cpp:399] inception_5b/1x1 -> inception_5b/1x1
I0403 14:24:23.644546 13241 net.cpp:141] Setting up inception_5b/1x1
I0403 14:24:23.644577 13241 net.cpp:148] Top shape: 24 384 7 7 (451584)
I0403 14:24:23.644593 13241 net.cpp:156] Memory required for data: 1327048224
I0403 14:24:23.644624 13241 layer_factory.hpp:77] Creating layer inception_5b/relu_1x1
I0403 14:24:23.644644 13241 net.cpp:91] Creating Layer inception_5b/relu_1x1
I0403 14:24:23.644661 13241 net.cpp:425] inception_5b/relu_1x1 <- inception_5b/1x1
I0403 14:24:23.644680 13241 net.cpp:386] inception_5b/relu_1x1 -> inception_5b/1x1 (in-place)
I0403 14:24:23.644981 13241 net.cpp:141] Setting up inception_5b/relu_1x1
I0403 14:24:23.645007 13241 net.cpp:148] Top shape: 24 384 7 7 (451584)
I0403 14:24:23.645021 13241 net.cpp:156] Memory required for data: 1328854560
I0403 14:24:23.645035 13241 layer_factory.hpp:77] Creating layer inception_5b/3x3_reduce
I0403 14:24:23.645057 13241 net.cpp:91] Creating Layer inception_5b/3x3_reduce
I0403 14:24:23.645074 13241 net.cpp:425] inception_5b/3x3_reduce <- inception_5a/output_inception_5a/output_0_split_1
I0403 14:24:23.645097 13241 net.cpp:399] inception_5b/3x3_reduce -> inception_5b/3x3_reduce
I0403 14:24:23.647754 13241 net.cpp:141] Setting up inception_5b/3x3_reduce
I0403 14:24:23.647783 13241 net.cpp:148] Top shape: 24 192 7 7 (225792)
I0403 14:24:23.647799 13241 net.cpp:156] Memory required for data: 1329757728
I0403 14:24:23.647817 13241 layer_factory.hpp:77] Creating layer inception_5b/relu_3x3_reduce
I0403 14:24:23.647838 13241 net.cpp:91] Creating Layer inception_5b/relu_3x3_reduce
I0403 14:24:23.647855 13241 net.cpp:425] inception_5b/relu_3x3_reduce <- inception_5b/3x3_reduce
I0403 14:24:23.647873 13241 net.cpp:386] inception_5b/relu_3x3_reduce -> inception_5b/3x3_reduce (in-place)
I0403 14:24:23.648064 13241 net.cpp:141] Setting up inception_5b/relu_3x3_reduce
I0403 14:24:23.648089 13241 net.cpp:148] Top shape: 24 192 7 7 (225792)
I0403 14:24:23.648105 13241 net.cpp:156] Memory required for data: 1330660896
I0403 14:24:23.648119 13241 layer_factory.hpp:77] Creating layer inception_5b/3x3
I0403 14:24:23.648141 13241 net.cpp:91] Creating Layer inception_5b/3x3
I0403 14:24:23.648161 13241 net.cpp:425] inception_5b/3x3 <- inception_5b/3x3_reduce
I0403 14:24:23.648180 13241 net.cpp:399] inception_5b/3x3 -> inception_5b/3x3
I0403 14:24:23.654939 13241 net.cpp:141] Setting up inception_5b/3x3
I0403 14:24:23.654970 13241 net.cpp:148] Top shape: 24 384 7 7 (451584)
I0403 14:24:23.654988 13241 net.cpp:156] Memory required for data: 1332467232
I0403 14:24:23.655006 13241 layer_factory.hpp:77] Creating layer inception_5b/relu_3x3
I0403 14:24:23.655030 13241 net.cpp:91] Creating Layer inception_5b/relu_3x3
I0403 14:24:23.655047 13241 net.cpp:425] inception_5b/relu_3x3 <- inception_5b/3x3
I0403 14:24:23.655066 13241 net.cpp:386] inception_5b/relu_3x3 -> inception_5b/3x3 (in-place)
I0403 14:24:23.655372 13241 net.cpp:141] Setting up inception_5b/relu_3x3
I0403 14:24:23.655401 13241 net.cpp:148] Top shape: 24 384 7 7 (451584)
I0403 14:24:23.655417 13241 net.cpp:156] Memory required for data: 1334273568
I0403 14:24:23.655433 13241 layer_factory.hpp:77] Creating layer inception_5b/5x5_reduce
I0403 14:24:23.655473 13241 net.cpp:91] Creating Layer inception_5b/5x5_reduce
I0403 14:24:23.655493 13241 net.cpp:425] inception_5b/5x5_reduce <- inception_5a/output_inception_5a/output_0_split_2
I0403 14:24:23.655519 13241 net.cpp:399] inception_5b/5x5_reduce -> inception_5b/5x5_reduce
I0403 14:24:23.656821 13241 net.cpp:141] Setting up inception_5b/5x5_reduce
I0403 14:24:23.656850 13241 net.cpp:148] Top shape: 24 48 7 7 (56448)
I0403 14:24:23.656867 13241 net.cpp:156] Memory required for data: 1334499360
I0403 14:24:23.656885 13241 layer_factory.hpp:77] Creating layer inception_5b/relu_5x5_reduce
I0403 14:24:23.656916 13241 net.cpp:91] Creating Layer inception_5b/relu_5x5_reduce
I0403 14:24:23.656936 13241 net.cpp:425] inception_5b/relu_5x5_reduce <- inception_5b/5x5_reduce
I0403 14:24:23.656955 13241 net.cpp:386] inception_5b/relu_5x5_reduce -> inception_5b/5x5_reduce (in-place)
I0403 14:24:23.657333 13241 net.cpp:141] Setting up inception_5b/relu_5x5_reduce
I0403 14:24:23.657361 13241 net.cpp:148] Top shape: 24 48 7 7 (56448)
I0403 14:24:23.657378 13241 net.cpp:156] Memory required for data: 1334725152
I0403 14:24:23.657394 13241 layer_factory.hpp:77] Creating layer inception_5b/5x5
I0403 14:24:23.657414 13241 net.cpp:91] Creating Layer inception_5b/5x5
I0403 14:24:23.657431 13241 net.cpp:425] inception_5b/5x5 <- inception_5b/5x5_reduce
I0403 14:24:23.657450 13241 net.cpp:399] inception_5b/5x5 -> inception_5b/5x5
I0403 14:24:23.659554 13241 net.cpp:141] Setting up inception_5b/5x5
I0403 14:24:23.659584 13241 net.cpp:148] Top shape: 24 128 7 7 (150528)
I0403 14:24:23.659605 13241 net.cpp:156] Memory required for data: 1335327264
I0403 14:24:23.659626 13241 layer_factory.hpp:77] Creating layer inception_5b/relu_5x5
I0403 14:24:23.659648 13241 net.cpp:91] Creating Layer inception_5b/relu_5x5
I0403 14:24:23.659667 13241 net.cpp:425] inception_5b/relu_5x5 <- inception_5b/5x5
I0403 14:24:23.659685 13241 net.cpp:386] inception_5b/relu_5x5 -> inception_5b/5x5 (in-place)
I0403 14:24:23.659884 13241 net.cpp:141] Setting up inception_5b/relu_5x5
I0403 14:24:23.659912 13241 net.cpp:148] Top shape: 24 128 7 7 (150528)
I0403 14:24:23.659929 13241 net.cpp:156] Memory required for data: 1335929376
I0403 14:24:23.659945 13241 layer_factory.hpp:77] Creating layer inception_5b/pool
I0403 14:24:23.659962 13241 net.cpp:91] Creating Layer inception_5b/pool
I0403 14:24:23.659978 13241 net.cpp:425] inception_5b/pool <- inception_5a/output_inception_5a/output_0_split_3
I0403 14:24:23.659998 13241 net.cpp:399] inception_5b/pool -> inception_5b/pool
I0403 14:24:23.660073 13241 net.cpp:141] Setting up inception_5b/pool
I0403 14:24:23.660096 13241 net.cpp:148] Top shape: 24 832 7 7 (978432)
I0403 14:24:23.660111 13241 net.cpp:156] Memory required for data: 1339843104
I0403 14:24:23.660125 13241 layer_factory.hpp:77] Creating layer inception_5b/pool_proj
I0403 14:24:23.660147 13241 net.cpp:91] Creating Layer inception_5b/pool_proj
I0403 14:24:23.660166 13241 net.cpp:425] inception_5b/pool_proj <- inception_5b/pool
I0403 14:24:23.660187 13241 net.cpp:399] inception_5b/pool_proj -> inception_5b/pool_proj
I0403 14:24:23.662510 13241 net.cpp:141] Setting up inception_5b/pool_proj
I0403 14:24:23.662541 13241 net.cpp:148] Top shape: 24 128 7 7 (150528)
I0403 14:24:23.662559 13241 net.cpp:156] Memory required for data: 1340445216
I0403 14:24:23.662577 13241 layer_factory.hpp:77] Creating layer inception_5b/relu_pool_proj
I0403 14:24:23.662601 13241 net.cpp:91] Creating Layer inception_5b/relu_pool_proj
I0403 14:24:23.662621 13241 net.cpp:425] inception_5b/relu_pool_proj <- inception_5b/pool_proj
I0403 14:24:23.662639 13241 net.cpp:386] inception_5b/relu_pool_proj -> inception_5b/pool_proj (in-place)
I0403 14:24:23.662943 13241 net.cpp:141] Setting up inception_5b/relu_pool_proj
I0403 14:24:23.662971 13241 net.cpp:148] Top shape: 24 128 7 7 (150528)
I0403 14:24:23.662987 13241 net.cpp:156] Memory required for data: 1341047328
I0403 14:24:23.663003 13241 layer_factory.hpp:77] Creating layer inception_5b/output
I0403 14:24:23.663020 13241 net.cpp:91] Creating Layer inception_5b/output
I0403 14:24:23.663053 13241 net.cpp:425] inception_5b/output <- inception_5b/1x1
I0403 14:24:23.663070 13241 net.cpp:425] inception_5b/output <- inception_5b/3x3
I0403 14:24:23.663087 13241 net.cpp:425] inception_5b/output <- inception_5b/5x5
I0403 14:24:23.663103 13241 net.cpp:425] inception_5b/output <- inception_5b/pool_proj
I0403 14:24:23.663122 13241 net.cpp:399] inception_5b/output -> inception_5b/output
I0403 14:24:23.663178 13241 net.cpp:141] Setting up inception_5b/output
I0403 14:24:23.663203 13241 net.cpp:148] Top shape: 24 1024 7 7 (1204224)
I0403 14:24:23.663218 13241 net.cpp:156] Memory required for data: 1345864224
I0403 14:24:23.663233 13241 layer_factory.hpp:77] Creating layer pool5/7x7_s1
I0403 14:24:23.663250 13241 net.cpp:91] Creating Layer pool5/7x7_s1
I0403 14:24:23.663267 13241 net.cpp:425] pool5/7x7_s1 <- inception_5b/output
I0403 14:24:23.663287 13241 net.cpp:399] pool5/7x7_s1 -> pool5/7x7_s1
I0403 14:24:23.663507 13241 net.cpp:141] Setting up pool5/7x7_s1
I0403 14:24:23.663533 13241 net.cpp:148] Top shape: 24 1024 1 1 (24576)
I0403 14:24:23.663550 13241 net.cpp:156] Memory required for data: 1345962528
I0403 14:24:23.663564 13241 layer_factory.hpp:77] Creating layer pool5/drop_7x7_s1
I0403 14:24:23.663584 13241 net.cpp:91] Creating Layer pool5/drop_7x7_s1
I0403 14:24:23.663605 13241 net.cpp:425] pool5/drop_7x7_s1 <- pool5/7x7_s1
I0403 14:24:23.663625 13241 net.cpp:386] pool5/drop_7x7_s1 -> pool5/7x7_s1 (in-place)
I0403 14:24:23.663678 13241 net.cpp:141] Setting up pool5/drop_7x7_s1
I0403 14:24:23.663702 13241 net.cpp:148] Top shape: 24 1024 1 1 (24576)
I0403 14:24:23.663717 13241 net.cpp:156] Memory required for data: 1346060832
I0403 14:24:23.663730 13241 layer_factory.hpp:77] Creating layer loss3/classifier_plantvillage
I0403 14:24:23.663749 13241 net.cpp:91] Creating Layer loss3/classifier_plantvillage
I0403 14:24:23.663765 13241 net.cpp:425] loss3/classifier_plantvillage <- pool5/7x7_s1
I0403 14:24:23.663786 13241 net.cpp:399] loss3/classifier_plantvillage -> loss3/classifier_plantvillage
I0403 14:24:23.664222 13241 net.cpp:141] Setting up loss3/classifier_plantvillage
I0403 14:24:23.664247 13241 net.cpp:148] Top shape: 24 38 (912)
I0403 14:24:23.664261 13241 net.cpp:156] Memory required for data: 1346064480
I0403 14:24:23.664279 13241 layer_factory.hpp:77] Creating layer loss3/classifier_plantvillage_loss3/classifier_plantvillage_0_split
I0403 14:24:23.664299 13241 net.cpp:91] Creating Layer loss3/classifier_plantvillage_loss3/classifier_plantvillage_0_split
I0403 14:24:23.664314 13241 net.cpp:425] loss3/classifier_plantvillage_loss3/classifier_plantvillage_0_split <- loss3/classifier_plantvillage
I0403 14:24:23.664335 13241 net.cpp:399] loss3/classifier_plantvillage_loss3/classifier_plantvillage_0_split -> loss3/classifier_plantvillage_loss3/classifier_plantvillage_0_split_0
I0403 14:24:23.664355 13241 net.cpp:399] loss3/classifier_plantvillage_loss3/classifier_plantvillage_0_split -> loss3/classifier_plantvillage_loss3/classifier_plantvillage_0_split_1
I0403 14:24:23.664376 13241 net.cpp:399] loss3/classifier_plantvillage_loss3/classifier_plantvillage_0_split -> loss3/classifier_plantvillage_loss3/classifier_plantvillage_0_split_2
I0403 14:24:23.664397 13241 net.cpp:399] loss3/classifier_plantvillage_loss3/classifier_plantvillage_0_split -> loss3/classifier_plantvillage_loss3/classifier_plantvillage_0_split_3
I0403 14:24:23.664499 13241 net.cpp:141] Setting up loss3/classifier_plantvillage_loss3/classifier_plantvillage_0_split
I0403 14:24:23.664523 13241 net.cpp:148] Top shape: 24 38 (912)
I0403 14:24:23.664540 13241 net.cpp:148] Top shape: 24 38 (912)
I0403 14:24:23.664556 13241 net.cpp:148] Top shape: 24 38 (912)
I0403 14:24:23.664572 13241 net.cpp:148] Top shape: 24 38 (912)
I0403 14:24:23.664585 13241 net.cpp:156] Memory required for data: 1346079072
I0403 14:24:23.664608 13241 layer_factory.hpp:77] Creating layer loss1/loss
I0403 14:24:23.664640 13241 net.cpp:91] Creating Layer loss1/loss
I0403 14:24:23.664659 13241 net.cpp:425] loss1/loss <- loss1/classifier_plantvillage_loss1/classifier_plantvillage_0_split_0
I0403 14:24:23.664690 13241 net.cpp:425] loss1/loss <- label_data_1_split_0
…
