…
I0403 14:46:22.179108 13619 net.cpp:313] The NetState phase (1) differed from the phase (0) specified by a rule in layer data
I0403 14:46:22.180204 13619 net.cpp:49] Initializing net from parameters: 
state {
  phase: TEST
}
layer {
  name: "data"
  type: "Data"
  top: "data"
  top: "label"
  include {
    phase: TEST
  }
  transform_param {
    mirror: false
    crop_size: 224
    mean_file: "/home/mohanty/data/final_dataset/lmdb/segmented-20-80/mean.binaryproto"
  }
  data_param {
    source: "/home/mohanty/data/final_dataset/lmdb/segmented-20-80/test_db"
    batch_size: 24
    backend: LMDB
  }
}
layer {
  name: "conv1/7x7_s2"
  type: "Convolution"
  bottom: "data"
  top: "conv1/7x7_s2"
  param {
    lr_mult: 1
    decay_mult: 1
  }
  param {
    lr_mult: 2
    decay_mult: 0
  }
  convolution_param {
    num_output: 64
    pad: 3
    kernel_size: 7
    stride: 2
    weight_filler {
      type: "xavier"
      std: 0.1
    }
    bias_filler {
      type: "constant"
      value: 0.2
    }
  }
}
layer {
  name: "conv1/relu_7x7"
  type: "ReLU"
  bottom: "conv1/7x7_s2"
  top: "conv1/7x7_s2"
}
layer {
  name: "pool1/3x3_s2"
  type: "Pooling"
  bottom: "conv1/7x7_s2"
  top: "pool1/3x3_s2"
  pooling_param {
    pool: MAX
    kernel_size: 3
    stride: 2
  }
}
layer {
  name: "pool1/norm1"
  type: "LRN"
  bottom: "pool1/3x3_s2"
  top: "pool1/norm1"
  lrn_param {
    local_size: 5
    alpha: 0.0001
    beta: 0.75
  }
}
layer {
  name: "conv2/3x3_reduce"
  type: "Convolution"
  bottom: "pool1/norm1"
  top: "conv2/3x3_reduce"
  param {
    lr_mult: 1
    decay_mult: 1
  }
  param {
    lr_mult: 2
    decay_mult: 0
  }
  convolution_param {
    num_output: 64
    kernel_size: 1
    weight_filler {
      type: "xavier"
      std: 0.1
    }
    bias_filler {
      type: "constant"
      value: 0.2
    }
  }
}
layer {
  name: "conv2/relu_3x3_reduce"
  type: "ReLU"
  bottom: "conv2/3x3_reduce"
  top: "conv2/3x3_reduce"
}
layer {
  name: "conv2/3x3"
  type: "Convolution"
  bottom: "conv2/3x3_reduce"
  top: "conv2/3x3"
  param {
    lr_mult: 1
    decay_mult: 1
  }
  param {
    lr_mult: 2
    decay_mult: 0
  }
  convolution_param {
    num_output: 192
    pad: 1
    kernel_size: 3
    weight_filler {
      type: "xavier"
      std: 0.03
    }
    bias_filler {
      type: "constant"
      value: 0.2
    }
  }
}
layer {
  name: "conv2/relu_3x3"
  type: "ReLU"
  bottom: "conv2/3x3"
  top: "conv2/3x3"
}
layer {
  name: "conv2/norm2"
  type: "LRN"
  bottom: "conv2/3x3"
  top: "conv2/norm2"
  lrn_param {
    local_size: 5
    alpha: 0.0001
    beta: 0.75
  }
}
layer {
  name: "pool2/3x3_s2"
  type: "Pooling"
  bottom: "conv2/norm2"
  top: "pool2/3x3_s2"
  pooling_param {
    pool: MAX
    kernel_size: 3
    stride: 2
  }
}
layer {
  name: "inception_3a/1x1"
  type: "Convolution"
  bottom: "pool2/3x3_s2"
  top: "inception_3a/1x1"
  param {
    lr_mult: 1
    decay_mult: 1
  }
  param {
    lr_mult: 2
    decay_mult: 0
  }
  convolution_param {
    num_output: 64
    kernel_size: 1
    weight_filler {
      type: "xavier"
      std: 0.03
    }
    bias_filler {
      type: "constant"
      value: 0.2
    }
  }
}
layer {
  name: "inception_3a/relu_1x1"
  type: "ReLU"
  bottom: "inception_3a/1x1"
  top: "inception_3a/1x1"
}
layer {
  name: "inception_3a/3x3_reduce"
  type: "Convolution"
  bottom: "pool2/3x3_s2"
  top: "inception_3a/3x3_reduce"
  param {
    lr_mult: 1
    decay_mult: 1
  }
  param {
    lr_mult: 2
    decay_mult: 0
  }
  convolution_param {
    num_output: 96
    kernel_size: 1
    weight_filler {
      type: "xavier"
      std: 0.09
    }
    bias_filler {
      type: "constant"
      value: 0.2
    }
  }
}
layer {
  name: "inception_3a/relu_3x3_reduce"
  type: "ReLU"
  bottom: "inception_3a/3x3_reduce"
  top: "inception_3a/3x3_reduce"
}
layer {
  name: "inception_3a/3x3"
  type: "Convolution"
  bottom: "inception_3a/3x3_reduce"
  top: "inception_3a/3x3"
  param {
    lr_mult: 1
    decay_mult: 1
  }
  param {
    lr_mult: 2
    decay_mult: 0
  }
  convolution_param {
    num_output: 128
    pad: 1
    kernel_size: 3
    weight_filler {
      type: "xavier"
      std: 0.03
    }
    bias_filler {
      type: "constant"
      value: 0.2
    }
  }
}
layer {
  name: "inception_3a/relu_3x3"
  type: "ReLU"
  bottom: "inception_3a/3x3"
  top: "inception_3a/3x3"
}
layer {
  name: "inception_3a/5x5_reduce"
  type: "Convolution"
  bottom: "pool2/3x3_s2"
  top: "inception_3a/5x5_reduce"
  param {
    lr_mult: 1
    decay_mult: 1
  }
  param {
    lr_mult: 2
    decay_mult: 0
  }
  convolution_param {
    num_output: 16
    kernel_size: 1
    weight_filler {
      type: "xavier"
      std: 0.2
    }
    bias_filler {
      type: "constant"
      value: 0.2
    }
  }
}
layer {
  name: "inception_3a/relu_5x5_reduce"
  type: "ReLU"
  bottom: "inception_3a/5x5_reduce"
  top: "inception_3a/5x5_reduce"
}
layer {
  name: "inception_3a/5x5"
  type: "Convolution"
  bottom: "inception_3a/5x5_reduce"
  top: "inception_3a/5x5"
  param {
    lr_mult: 1
    decay_mult: 1
  }
  param {
    lr_mult: 2
    decay_mult: 0
  }
  convolution_param {
    num_output: 32
    pad: 2
    kernel_size: 5
    weight_filler {
      type: "xavier"
      std: 0.03
    }
    bias_filler {
      type: "constant"
      value: 0.2
    }
  }
}
layer {
  name: "inception_3a/relu_5x5"
  type: "ReLU"
  bottom: "inception_3a/5x5"
  top: "inception_3a/5x5"
}
layer {
  name: "inception_3a/pool"
  type: "Pooling"
  bottom: "pool2/3x3_s2"
  top: "inception_3a/pool"
  pooling_param {
    pool: MAX
    kernel_size: 3
    stride: 1
    pad: 1
  }
}
layer {
  name: "inception_3a/pool_proj"
  type: "Convolution"
  bottom: "inception_3a/pool"
  top: "inception_3a/pool_proj"
  param {
    lr_mult: 1
    decay_mult: 1
  }
  param {
    lr_mult: 2
    decay_mult: 0
  }
  convolution_param {
    num_output: 32
    kernel_size: 1
    weight_filler {
      type: "xavier"
      std: 0.1
    }
    bias_filler {
      type: "constant"
      value: 0.2
    }
  }
}
layer {
  name: "inception_3a/relu_pool_proj"
  type: "ReLU"
  bottom: "inception_3a/pool_proj"
  top: "inception_3a/pool_proj"
}
layer {
  name: "inception_3a/output"
  type: "Concat"
  bottom: "inception_3a/1x1"
  bottom: "inception_3a/3x3"
  bottom: "inception_3a/5x5"
  bottom: "inception_3a/pool_proj"
  top: "inception_3a/output"
}
layer {
  name: "inception_3b/1x1"
  type: "Convolution"
  bottom: "inception_3a/output"
  top: "inception_3b/1x1"
  param {
    lr_mult: 1
    decay_mult: 1
  }
  param {
    lr_mult: 2
    decay_mult: 0
  }
  convolution_param {
    num_output: 128
    kernel_size: 1
    weight_filler {
      type: "xavier"
      std: 0.03
    }
    bias_filler {
      type: "constant"
      value: 0.2
    }
  }
}
layer {
  name: "inception_3b/relu_1x1"
  type: "ReLU"
  bottom: "inception_3b/1x1"
  top: "inception_3b/1x1"
}
layer {
  name: "inception_3b/3x3_reduce"
  type: "Convolution"
  bottom: "inception_3a/output"
  top: "inception_3b/3x3_reduce"
  param {
    lr_mult: 1
    decay_mult: 1
  }
  param {
    lr_mult: 2
    decay_mult: 0
  }
  convolution_param {
    num_output: 128
    kernel_size: 1
    weight_filler {
      type: "xavier"
      std: 0.09
    }
    bias_filler {
      type: "constant"
      value: 0.2
    }
  }
}
layer {
  name: "inception_3b/relu_3x3_reduce"
  type: "ReLU"
  bottom: "inception_3b/3x3_reduce"
  top: "inception_3b/3x3_reduce"
}
layer {
  name: "inception_3b/3x3"
  type: "Convolution"
  bottom: "inception_3b/3x3_reduce"
  top: "inception_3b/3x3"
  param {
    lr_mult: 1
    decay_mult: 1
  }
  param {
    lr_mult: 2
    decay_mult: 0
  }
  convolution_param {
    num_output: 192
    pad: 1
    kernel_size: 3
    weight_filler {
      type: "xavier"
      std: 0.03
    }
    bias_filler {
      type: "constant"
      value: 0.2
    }
  }
}
layer {
  name: "inception_3b/relu_3x3"
  type: "ReLU"
  bottom: "inception_3b/3x3"
  top: "inception_3b/3x3"
}
layer {
  name: "inception_3b/5x5_reduce"
  type: "Convolution"
  bottom: "inception_3a/output"
  top: "inception_3b/5x5_reduce"
  param {
    lr_mult: 1
    decay_mult: 1
  }
  param {
    lr_mult: 2
    decay_mult: 0
  }
  convolution_param {
    num_output: 32
    kernel_size: 1
    weight_filler {
      type: "xavier"
      std: 0.2
    }
    bias_filler {
      type: "constant"
      value: 0.2
    }
  }
}
layer {
  name: "inception_3b/relu_5x5_reduce"
  type: "ReLU"
  bottom: "inception_3b/5x5_reduce"
  top: "inception_3b/5x5_reduce"
}
layer {
  name: "inception_3b/5x5"
  type: "Convolution"
  bottom: "inception_3b/5x5_reduce"
  top: "inception_3b/5x5"
  param {
    lr_mult: 1
    decay_mult: 1
  }
  param {
    lr_mult: 2
    decay_mult: 0
  }
  convolution_param {
    num_output: 96
    pad: 2
    kernel_size: 5
    weight_filler {
      type: "xavier"
      std: 0.03
    }
    bias_filler {
      type: "constant"
      value: 0.2
    }
  }
}
layer {
  name: "inception_3b/relu_5x5"
  type: "ReLU"
  bottom: "inception_3b/5x5"
  top: "inception_3b/5x5"
}
layer {
  name: "inception_3b/pool"
  type: "Pooling"
  bottom: "inception_3a/output"
  top: "inception_3b/pool"
  pooling_param {
    pool: MAX
    kernel_size: 3
    stride: 1
    pad: 1
  }
}
layer {
  name: "inception_3b/pool_proj"
  type: "Convolution"
  bottom: "inception_3b/pool"
  top: "inception_3b/pool_proj"
  param {
    lr_mult: 1
    decay_mult: 1
  }
  param {
    lr_mult: 2
    decay_mult: 0
  }
  convolution_param {
    num_output: 64
    kernel_size: 1
    weight_filler {
      type: "xavier"
      std: 0.1
    }
    bias_filler {
      type: "constant"
      value: 0.2
    }
  }
}
layer {
  name: "inception_3b/relu_pool_proj"
  type: "ReLU"
  bottom: "inception_3b/pool_proj"
  top: "inception_3b/pool_proj"
}
layer {
  name: "inception_3b/output"
  type: "Concat"
  bottom: "inception_3b/1x1"
  bottom: "inception_3b/3x3"
  bottom: "inception_3b/5x5"
  bottom: "inception_3b/pool_proj"
  top: "inception_3b/output"
}
layer {
  name: "pool3/3x3_s2"
  type: "Pooling"
  bottom: "inception_3b/output"
  top: "pool3/3x3_s2"
  pooling_param {
    pool: MAX
    kernel_size: 3
    stride: 2
  }
}
layer {
  name: "inception_4a/1x1"
  type: "Convolution"
  bottom: "pool3/3x3_s2"
  top: "inception_4a/1x1"
  param {
    lr_mult: 1
    decay_mult: 1
  }
  param {
    lr_mult: 2
    decay_mult: 0
  }
  convolution_param {
    num_output: 192
    kernel_size: 1
    weight_filler {
      type: "xavier"
      std: 0.03
    }
    bias_filler {
      type: "constant"
      value: 0.2
    }
  }
}
layer {
  name: "inception_4a/relu_1x1"
  type: "ReLU"
  bottom: "inception_4a/1x1"
  top: "inception_4a/1x1"
}
layer {
  name: "inception_4a/3x3_reduce"
  type: "Convolution"
  bottom: "pool3/3x3_s2"
  top: "inception_4a/3x3_reduce"
  param {
    lr_mult: 1
    decay_mult: 1
  }
  param {
    lr_mult: 2
    decay_mult: 0
  }
  convolution_param {
    num_output: 96
    kernel_size: 1
    weight_filler {
      type: "xavier"
      std: 0.09
    }
    bias_filler {
      type: "constant"
      value: 0.2
    }
  }
}
layer {
  name: "inception_4a/relu_3x3_reduce"
  type: "ReLU"
  bottom: "inception_4a/3x3_reduce"
  top: "inception_4a/3x3_reduce"
}
layer {
  name: "inception_4a/3x3"
  type: "Convolution"
  bottom: "inception_4a/3x3_reduce"
  top: "inception_4a/3x3"
  param {
    lr_mult: 1
    decay_mult: 1
  }
  param {
    lr_mult: 2
    decay_mult: 0
  }
  convolution_param {
    num_output: 208
    pad: 1
    kernel_size: 3
    weight_filler {
      type: "xavier"
      std: 0.03
    }
    bias_filler {
      type: "constant"
      value: 0.2
    }
  }
}
layer {
  name: "inception_4a/relu_3x3"
  type: "ReLU"
  bottom: "inception_4a/3x3"
  top: "inception_4a/3x3"
}
layer {
  name: "inception_4a/5x5_reduce"
  type: "Convolution"
  bottom: "pool3/3x3_s2"
  top: "inception_4a/5x5_reduce"
  param {
    lr_mult: 1
    decay_mult: 1
  }
  param {
    lr_mult: 2
    decay_mult: 0
  }
  convolution_param {
    num_output: 16
    kernel_size: 1
    weight_filler {
      type: "xavier"
      std: 0.2
    }
    bias_filler {
      type: "constant"
      value: 0.2
    }
  }
}
layer {
  name: "inception_4a/relu_5x5_reduce"
  type: "ReLU"
  bottom: "inception_4a/5x5_reduce"
  top: "inception_4a/5x5_reduce"
}
layer {
  name: "inception_4a/5x5"
  type: "Convolution"
  bottom: "inception_4a/5x5_reduce"
  top: "inception_4a/5x5"
  param {
    lr_mult: 1
    decay_mult: 1
  }
  param {
    lr_mult: 2
    decay_mult: 0
  }
  convolution_param {
    num_output: 48
    pad: 2
    kernel_size: 5
    weight_filler {
      type: "xavier"
      std: 0.03
    }
    bias_filler {
      type: "constant"
      value: 0.2
    }
  }
}
layer {
  name: "inception_4a/relu_5x5"
  type: "ReLU"
  bottom: "inception_4a/5x5"
  top: "inception_4a/5x5"
}
layer {
  name: "inception_4a/pool"
  type: "Pooling"
  bottom: "pool3/3x3_s2"
  top: "inception_4a/pool"
  pooling_param {
    pool: MAX
    kernel_size: 3
    stride: 1
    pad: 1
  }
}
layer {
  name: "inception_4a/pool_proj"
  type: "Convolution"
  bottom: "inception_4a/pool"
  top: "inception_4a/pool_proj"
  param {
    lr_mult: 1
    decay_mult: 1
  }
  param {
    lr_mult: 2
    decay_mult: 0
  }
  convolution_param {
    num_output: 64
    kernel_size: 1
    weight_filler {
      type: "xavier"
      std: 0.1
    }
    bias_filler {
      type: "constant"
      value: 0.2
    }
  }
}
layer {
  name: "inception_4a/relu_pool_proj"
  type: "ReLU"
  bottom: "inception_4a/pool_proj"
  top: "inception_4a/pool_proj"
}
layer {
  name: "inception_4a/output"
  type: "Concat"
  bottom: "inception_4a/1x1"
  bottom: "inception_4a/3x3"
  bottom: "inception_4a/5x5"
  bottom: "inception_4a/pool_proj"
  top: "inception_4a/output"
}
layer {
  name: "loss1/ave_pool"
  type: "Pooling"
  bottom: "inception_4a/output"
  top: "loss1/ave_pool"
  pooling_param {
    pool: AVE
    kernel_size: 5
    stride: 3
  }
}
layer {
  name: "loss1/conv"
  type: "Convolution"
  bottom: "loss1/ave_pool"
  top: "loss1/conv"
  param {
    lr_mult: 1
    decay_mult: 1
  }
  param {
    lr_mult: 2
    decay_mult: 0
  }
  convolution_param {
    num_output: 128
    kernel_size: 1
    weight_filler {
      type: "xavier"
      std: 0.08
    }
    bias_filler {
      type: "constant"
      value: 0.2
    }
  }
}
layer {
  name: "loss1/relu_conv"
  type: "ReLU"
  bottom: "loss1/conv"
  top: "loss1/conv"
}
layer {
  name: "loss1/fc"
  type: "InnerProduct"
  bottom: "loss1/conv"
  top: "loss1/fc"
  param {
    lr_mult: 1
    decay_mult: 1
  }
  param {
    lr_mult: 2
    decay_mult: 0
  }
  inner_product_param {
    num_output: 1024
    weight_filler {
      type: "xavier"
      std: 0.02
    }
    bias_filler {
      type: "constant"
      value: 0.2
    }
  }
}
layer {
  name: "loss1/relu_fc"
  type: "ReLU"
  bottom: "loss1/fc"
  top: "loss1/fc"
}
layer {
  name: "loss1/drop_fc"
  type: "Dropout"
  bottom: "loss1/fc"
  top: "loss1/fc"
  dropout_param {
    dropout_ratio: 0.7
  }
}
layer {
  name: "loss1/classifier_plantvillage"
  type: "InnerProduct"
  bottom: "loss1/fc"
  top: "loss1/classifier_plantvillage"
  param {
    lr_mult: 1
    decay_mult: 1
  }
  param {
    lr_mult: 2
    decay_mult: 0
  }
  inner_product_param {
    num_output: 38
    weight_filler {
      type: "xavier"
      std: 0.0009765625
    }
    bias_filler {
      type: "constant"
      value: 0
    }
  }
}
layer {
  name: "inception_4b/1x1"
  type: "Convolution"
  bottom: "inception_4a/output"
  top: "inception_4b/1x1"
  param {
    lr_mult: 1
    decay_mult: 1
  }
  param {
    lr_mult: 2
    decay_mult: 0
  }
  convolution_param {
    num_output: 160
    kernel_size: 1
    weight_filler {
      type: "xavier"
      std: 0.03
    }
    bias_filler {
      type: "constant"
      value: 0.2
    }
  }
}
layer {
  name: "inception_4b/relu_1x1"
  type: "ReLU"
  bottom: "inception_4b/1x1"
  top: "inception_4b/1x1"
}
layer {
  name: "inception_4b/3x3_reduce"
  type: "Convolution"
  bottom: "inception_4a/output"
  top: "inception_4b/3x3_reduce"
  param {
    lr_mult: 1
    decay_mult: 1
  }
  param {
    lr_mult: 2
    decay_mult: 0
  }
  convolution_param {
    num_output: 112
    kernel_size: 1
    weight_filler {
      type: "xavier"
      std: 0.09
    }
    bias_filler {
      type: "constant"
      value: 0.2
    }
  }
}
layer {
  name: "inception_4b/relu_3x3_reduce"
  type: "ReLU"
  bottom: "inception_4b/3x3_reduce"
  top: "inception_4b/3x3_reduce"
}
layer {
  name: "inception_4b/3x3"
  type: "Convolution"
  bottom: "inception_4b/3x3_reduce"
  top: "inception_4b/3x3"
  param {
    lr_mult: 1
    decay_mult: 1
  }
  param {
    lr_mult: 2
    decay_mult: 0
  }
  convolution_param {
    num_output: 224
    pad: 1
    kernel_size: 3
    weight_filler {
      type: "xavier"
      std: 0.03
    }
    bias_filler {
      type: "constant"
      value: 0.2
    }
  }
}
layer {
  name: "inception_4b/relu_3x3"
  type: "ReLU"
  bottom: "inception_4b/3x3"
  top: "inception_4b/3x3"
}
layer {
  name: "inception_4b/5x5_reduce"
  type: "Convolution"
  bottom: "inception_4a/output"
  top: "inception_4b/5x5_reduce"
  param {
    lr_mult: 1
    decay_mult: 1
  }
  param {
    lr_mult: 2
    decay_mult: 0
  }
  convolution_param {
    num_output: 24
    kernel_size: 1
    weight_filler {
      type: "xavier"
      std: 0.2
    }
    bias_filler {
      type: "constant"
      value: 0.2
    }
  }
}
layer {
  name: "inception_4b/relu_5x5_reduce"
  type: "ReLU"
  bottom: "inception_4b/5x5_reduce"
  top: "inception_4b/5x5_reduce"
}
layer {
  name: "inception_4b/5x5"
  type: "Convolution"
  bottom: "inception_4b/5x5_reduce"
  top: "inception_4b/5x5"
  param {
    lr_mult: 1
    decay_mult: 1
  }
  param {
    lr_mult: 2
    decay_mult: 0
  }
  convolution_param {
    num_output: 64
    pad: 2
    kernel_size: 5
    weight_filler {
      type: "xavier"
      std: 0.03
    }
    bias_filler {
      type: "constant"
      value: 0.2
    }
  }
}
layer {
  name: "inception_4b/relu_5x5"
  type: "ReLU"
  bottom: "inception_4b/5x5"
  top: "inception_4b/5x5"
}
layer {
  name: "inception_4b/pool"
  type: "Pooling"
  bottom: "inception_4a/output"
  top: "inception_4b/pool"
  pooling_param {
    pool: MAX
    kernel_size: 3
    stride: 1
    pad: 1
  }
}
layer {
  name: "inception_4b/pool_proj"
  type: "Convolution"
  bottom: "inception_4b/pool"
  top: "inception_4b/pool_proj"
  param {
    lr_mult: 1
    decay_mult: 1
  }
  param {
    lr_mult: 2
    decay_mult: 0
  }
  convolution_param {
    num_output: 64
    kernel_size: 1
    weight_filler {
      type: "xavier"
      std: 0.1
    }
    bias_filler {
      type: "constant"
      value: 0.2
    }
  }
}
layer {
  name: "inception_4b/relu_pool_proj"
  type: "ReLU"
  bottom: "inception_4b/pool_proj"
  top: "inception_4b/pool_proj"
}
layer {
  name: "inception_4b/output"
  type: "Concat"
  bottom: "inception_4b/1x1"
  bottom: "inception_4b/3x3"
  bottom: "inception_4b/5x5"
  bottom: "inception_4b/pool_proj"
  top: "inception_4b/output"
}
layer {
  name: "inception_4c/1x1"
  type: "Convolution"
  bottom: "inception_4b/output"
  top: "inception_4c/1x1"
  param {
    lr_mult: 1
    decay_mult: 1
  }
  param {
    lr_mult: 2
    decay_mult: 0
  }
  convolution_param {
    num_output: 128
    kernel_size: 1
    weight_filler {
      type: "xavier"
      std: 0.03
    }
    bias_filler {
      type: "constant"
      value: 0.2
    }
  }
}
layer {
  name: "inception_4c/relu_1x1"
  type: "ReLU"
  bottom: "inception_4c/1x1"
  top: "inception_4c/1x1"
}
layer {
  name: "inception_4c/3x3_reduce"
  type: "Convolution"
  bottom: "inception_4b/output"
  top: "inception_4c/3x3_reduce"
  param {
    lr_mult: 1
    decay_mult: 1
  }
  param {
    lr_mult: 2
    decay_mult: 0
  }
  convolution_param {
    num_output: 128
    kernel_size: 1
    weight_filler {
      type: "xavier"
      std: 0.09
    }
    bias_filler {
      type: "constant"
      value: 0.2
    }
  }
}
layer {
  name: "inception_4c/relu_3x3_reduce"
  type: "ReLU"
  bottom: "inception_4c/3x3_reduce"
  top: "inception_4c/3x3_reduce"
}
layer {
  name: "inception_4c/3x3"
  type: "Convolution"
  bottom: "inception_4c/3x3_reduce"
  top: "inception_4c/3x3"
  param {
    lr_mult: 1
    decay_mult: 1
  }
  param {
    lr_mult: 2
    decay_mult: 0
  }
  convolution_param {
    num_output: 256
    pad: 1
    kernel_size: 3
    weight_filler {
      type: "xavier"
      std: 0.03
    }
    bias_filler {
      type: "constant"
      value: 0.2
    }
  }
}
layer {
  name: "inception_4c/relu_3x3"
  type: "ReLU"
  bottom: "inception_4c/3x3"
  top: "inception_4c/3x3"
}
layer {
  name: "inception_4c/5x5_reduce"
  type: "Convolution"
  bottom: "inception_4b/output"
  top: "inception_4c/5x5_reduce"
  param {
    lr_mult: 1
    decay_mult: 1
  }
  param {
    lr_mult: 2
    decay_mult: 0
  }
  convolution_param {
    num_output: 24
    kernel_size: 1
    weight_filler {
      type: "xavier"
      std: 0.2
    }
    bias_filler {
      type: "constant"
      value: 0.2
    }
  }
}
layer {
  name: "inception_4c/relu_5x5_reduce"
  type: "ReLU"
  bottom: "inception_4c/5x5_reduce"
  top: "inception_4c/5x5_reduce"
}
layer {
  name: "inception_4c/5x5"
  type: "Convolution"
  bottom: "inception_4c/5x5_reduce"
  top: "inception_4c/5x5"
  param {
    lr_mult: 1
    decay_mult: 1
  }
  param {
    lr_mult: 2
    decay_mult: 0
  }
  convolution_param {
    num_output: 64
    pad: 2
    kernel_size: 5
    weight_filler {
      type: "xavier"
      std: 0.03
    }
    bias_filler {
      type: "constant"
      value: 0.2
    }
  }
}
layer {
  name: "inception_4c/relu_5x5"
  type: "ReLU"
  bottom: "inception_4c/5x5"
  top: "inception_4c/5x5"
}
layer {
  name: "inception_4c/pool"
  type: "Pooling"
  bottom: "inception_4b/output"
  top: "inception_4c/pool"
  pooling_param {
    pool: MAX
    kernel_size: 3
    stride: 1
    pad: 1
  }
}
layer {
  name: "inception_4c/pool_proj"
  type: "Convolution"
  bottom: "inception_4c/pool"
  top: "inception_4c/pool_proj"
  param {
    lr_mult: 1
    decay_mult: 1
  }
  param {
    lr_mult: 2
    decay_mult: 0
  }
  convolution_param {
    num_output: 64
    kernel_size: 1
    weight_filler {
      type: "xavier"
      std: 0.1
    }
    bias_filler {
      type: "constant"
      value: 0.2
    }
  }
}
layer {
  name: "inception_4c/relu_pool_proj"
  type: "ReLU"
  bottom: "inception_4c/pool_proj"
  top: "inception_4c/pool_proj"
}
layer {
  name: "inception_4c/output"
  type: "Concat"
  bottom: "inception_4c/1x1"
  bottom: "inception_4c/3x3"
  bottom: "inception_4c/5x5"
  bottom: "inception_4c/pool_proj"
  top: "inception_4c/output"
}
layer {
  name: "inception_4d/1x1"
  type: "Convolution"
  bottom: "inception_4c/output"
  top: "inception_4d/1x1"
  param {
    lr_mult: 1
    decay_mult: 1
  }
  param {
    lr_mult: 2
    decay_mult: 0
  }
  convolution_param {
    num_output: 112
    kernel_size: 1
    weight_filler {
      type: "xavier"
      std: 0.03
    }
    bias_filler {
      type: "constant"
      value: 0.2
    }
  }
}
layer {
  name: "inception_4d/relu_1x1"
  type: "ReLU"
  bottom: "inception_4d/1x1"
  top: "inception_4d/1x1"
}
layer {
  name: "inception_4d/3x3_reduce"
  type: "Convolution"
  bottom: "inception_4c/output"
  top: "inception_4d/3x3_reduce"
  param {
    lr_mult: 1
    decay_mult: 1
  }
  param {
    lr_mult: 2
    decay_mult: 0
  }
  convolution_param {
    num_output: 144
    kernel_size: 1
    weight_filler {
      type: "xavier"
      std: 0.09
    }
    bias_filler {
      type: "constant"
      value: 0.2
    }
  }
}
layer {
  name: "inception_4d/relu_3x3_reduce"
  type: "ReLU"
  bottom: "inception_4d/3x3_reduce"
  top: "inception_4d/3x3_reduce"
}
layer {
  name: "inception_4d/3x3"
  type: "Convolution"
  bottom: "inception_4d/3x3_reduce"
  top: "inception_4d/3x3"
  param {
    lr_mult: 1
    decay_mult: 1
  }
  param {
    lr_mult: 2
    decay_mult: 0
  }
  convolution_param {
    num_output: 288
    pad: 1
    kernel_size: 3
    weight_filler {
      type: "xavier"
      std: 0.03
    }
    bias_filler {
      type: "constant"
      value: 0.2
    }
  }
}
layer {
  name: "inception_4d/relu_3x3"
  type: "ReLU"
  bottom: "inception_4d/3x3"
  top: "inception_4d/3x3"
}
layer {
  name: "inception_4d/5x5_reduce"
  type: "Convolution"
  bottom: "inception_4c/output"
  top: "inception_4d/5x5_reduce"
  param {
    lr_mult: 1
    decay_mult: 1
  }
  param {
    lr_mult: 2
    decay_mult: 0
  }
  convolution_param {
    num_output: 32
    kernel_size: 1
    weight_filler {
      type: "xavier"
      std: 0.2
    }
    bias_filler {
      type: "constant"
      value: 0.2
    }
  }
}
layer {
  name: "inception_4d/relu_5x5_reduce"
  type: "ReLU"
  bottom: "inception_4d/5x5_reduce"
  top: "inception_4d/5x5_reduce"
}
layer {
  name: "inception_4d/5x5"
  type: "Convolution"
  bottom: "inception_4d/5x5_reduce"
  top: "inception_4d/5x5"
  param {
    lr_mult: 1
    decay_mult: 1
  }
  param {
    lr_mult: 2
    decay_mult: 0
  }
  convolution_param {
    num_output: 64
    pad: 2
    kernel_size: 5
    weight_filler {
      type: "xavier"
      std: 0.03
    }
    bias_filler {
      type: "constant"
      value: 0.2
    }
  }
}
layer {
  name: "inception_4d/relu_5x5"
  type: "ReLU"
  bottom: "inception_4d/5x5"
  top: "inception_4d/5x5"
}
layer {
  name: "inception_4d/pool"
  type: "Pooling"
  bottom: "inception_4c/output"
  top: "inception_4d/pool"
  pooling_param {
    pool: MAX
    kernel_size: 3
    stride: 1
    pad: 1
  }
}
layer {
  name: "inception_4d/pool_proj"
  type: "Convolution"
  bottom: "inception_4d/pool"
  top: "inception_4d/pool_proj"
  param {
    lr_mult: 1
    decay_mult: 1
  }
  param {
    lr_mult: 2
    decay_mult: 0
  }
  convolution_param {
    num_output: 64
    kernel_size: 1
    weight_filler {
      type: "xavier"
      std: 0.1
    }
    bias_filler {
      type: "constant"
      value: 0.2
    }
  }
}
layer {
  name: "inception_4d/relu_pool_proj"
  type: "ReLU"
  bottom: "inception_4d/pool_proj"
  top: "inception_4d/pool_proj"
}
layer {
  name: "inception_4d/output"
  type: "Concat"
  bottom: "inception_4d/1x1"
  bottom: "inception_4d/3x3"
  bottom: "inception_4d/5x5"
  bottom: "inception_4d/pool_proj"
  top: "inception_4d/output"
}
layer {
  name: "loss2/ave_pool"
  type: "Pooling"
  bottom: "inception_4d/output"
  top: "loss2/ave_pool"
  pooling_param {
    pool: AVE
    kernel_size: 5
    stride: 3
  }
}
layer {
  name: "loss2/conv"
  type: "Convolution"
  bottom: "loss2/ave_pool"
  top: "loss2/conv"
  param {
    lr_mult: 1
    decay_mult: 1
  }
  param {
    lr_mult: 2
    decay_mult: 0
  }
  convolution_param {
    num_output: 128
    kernel_size: 1
    weight_filler {
      type: "xavier"
      std: 0.08
    }
    bias_filler {
      type: "constant"
      value: 0.2
    }
  }
}
layer {
  name: "loss2/relu_conv"
  type: "ReLU"
  bottom: "loss2/conv"
  top: "loss2/conv"
}
layer {
  name: "loss2/fc"
  type: "InnerProduct"
  bottom: "loss2/conv"
  top: "loss2/fc"
  param {
    lr_mult: 1
    decay_mult: 1
  }
  param {
    lr_mult: 2
    decay_mult: 0
  }
  inner_product_param {
    num_output: 1024
    weight_filler {
      type: "xavier"
      std: 0.02
    }
    bias_filler {
      type: "constant"
      value: 0.2
    }
  }
}
layer {
  name: "loss2/relu_fc"
  type: "ReLU"
  bottom: "loss2/fc"
  top: "loss2/fc"
}
layer {
  name: "loss2/drop_fc"
  type: "Dropout"
  bottom: "loss2/fc"
  top: "loss2/fc"
  dropout_param {
    dropout_ratio: 0.7
  }
}
layer {
  name: "loss2/classifier_plantvillage"
  type: "InnerProduct"
  bottom: "loss2/fc"
  top: "loss2/classifier_plantvillage"
  param {
    lr_mult: 1
    decay_mult: 1
  }
  param {
    lr_mult: 2
    decay_mult: 0
  }
  inner_product_param {
    num_output: 38
    weight_filler {
      type: "xavier"
      std: 0.0009765625
    }
    bias_filler {
      type: "constant"
      value: 0
    }
  }
}
layer {
  name: "inception_4e/1x1"
  type: "Convolution"
  bottom: "inception_4d/output"
  top: "inception_4e/1x1"
  param {
    lr_mult: 1
    decay_mult: 1
  }
  param {
    lr_mult: 2
    decay_mult: 0
  }
  convolution_param {
    num_output: 256
    kernel_size: 1
    weight_filler {
      type: "xavier"
      std: 0.03
    }
    bias_filler {
      type: "constant"
      value: 0.2
    }
  }
}
layer {
  name: "inception_4e/relu_1x1"
  type: "ReLU"
  bottom: "inception_4e/1x1"
  top: "inception_4e/1x1"
}
layer {
  name: "inception_4e/3x3_reduce"
  type: "Convolution"
  bottom: "inception_4d/output"
  top: "inception_4e/3x3_reduce"
  param {
    lr_mult: 1
    decay_mult: 1
  }
  param {
    lr_mult: 2
    decay_mult: 0
  }
  convolution_param {
    num_output: 160
    kernel_size: 1
    weight_filler {
      type: "xavier"
      std: 0.09
    }
    bias_filler {
      type: "constant"
      value: 0.2
    }
  }
}
layer {
  name: "inception_4e/relu_3x3_reduce"
  type: "ReLU"
  bottom: "inception_4e/3x3_reduce"
  top: "inception_4e/3x3_reduce"
}
layer {
  name: "inception_4e/3x3"
  type: "Convolution"
  bottom: "inception_4e/3x3_reduce"
  top: "inception_4e/3x3"
  param {
    lr_mult: 1
    decay_mult: 1
  }
  param {
    lr_mult: 2
    decay_mult: 0
  }
  convolution_param {
    num_output: 320
    pad: 1
    kernel_size: 3
    weight_filler {
      type: "xavier"
      std: 0.03
    }
    bias_filler {
      type: "constant"
      value: 0.2
    }
  }
}
layer {
  name: "inception_4e/relu_3x3"
  type: "ReLU"
  bottom: "inception_4e/3x3"
  top: "inception_4e/3x3"
}
layer {
  name: "inception_4e/5x5_reduce"
  type: "Convolution"
  bottom: "inception_4d/output"
  top: "inception_4e/5x5_reduce"
  param {
    lr_mult: 1
    decay_mult: 1
  }
  param {
    lr_mult: 2
    decay_mult: 0
  }
  convolution_param {
    num_output: 32
    kernel_size: 1
    weight_filler {
      type: "xavier"
      std: 0.2
    }
    bias_filler {
      type: "constant"
      value: 0.2
    }
  }
}
layer {
  name: "inception_4e/relu_5x5_reduce"
  type: "ReLU"
  bottom: "inception_4e/5x5_reduce"
  top: "inception_4e/5x5_reduce"
}
layer {
  name: "inception_4e/5x5"
  type: "Convolution"
  bottom: "inception_4e/5x5_reduce"
  top: "inception_4e/
I0403 14:46:22.181540 13619 layer_factory.hpp:77] Creating layer data
I0403 14:46:22.182138 13619 net.cpp:91] Creating Layer data
I0403 14:46:22.182170 13619 net.cpp:399] data -> data
I0403 14:46:22.182219 13619 net.cpp:399] data -> label
I0403 14:46:22.182255 13619 data_transformer.cpp:25] Loading mean file from: /home/mohanty/data/final_dataset/lmdb/segmented-20-80/mean.binaryproto
I0403 14:46:22.185304 13622 db_lmdb.cpp:38] Opened lmdb /home/mohanty/data/final_dataset/lmdb/segmented-20-80/test_db
I0403 14:46:22.195463 13619 data_layer.cpp:41] output data size: 24,3,224,224
I0403 14:46:22.222373 13619 net.cpp:141] Setting up data
I0403 14:46:22.222446 13619 net.cpp:148] Top shape: 24 3 224 224 (3612672)
I0403 14:46:22.222470 13619 net.cpp:148] Top shape: 24 (24)
I0403 14:46:22.222484 13619 net.cpp:156] Memory required for data: 14450784
I0403 14:46:22.222512 13619 layer_factory.hpp:77] Creating layer label_data_1_split
I0403 14:46:22.222543 13619 net.cpp:91] Creating Layer label_data_1_split
I0403 14:46:22.222563 13619 net.cpp:425] label_data_1_split <- label
I0403 14:46:22.222594 13619 net.cpp:399] label_data_1_split -> label_data_1_split_0
I0403 14:46:22.222622 13619 net.cpp:399] label_data_1_split -> label_data_1_split_1
I0403 14:46:22.222643 13619 net.cpp:399] label_data_1_split -> label_data_1_split_2
I0403 14:46:22.222664 13619 net.cpp:399] label_data_1_split -> label_data_1_split_3
I0403 14:46:22.222683 13619 net.cpp:399] label_data_1_split -> label_data_1_split_4
I0403 14:46:22.222703 13619 net.cpp:399] label_data_1_split -> label_data_1_split_5
I0403 14:46:22.222723 13619 net.cpp:399] label_data_1_split -> label_data_1_split_6
I0403 14:46:22.222743 13619 net.cpp:399] label_data_1_split -> label_data_1_split_7
I0403 14:46:22.222762 13619 net.cpp:399] label_data_1_split -> label_data_1_split_8
I0403 14:46:22.222782 13619 net.cpp:399] label_data_1_split -> label_data_1_split_9
I0403 14:46:22.222903 13619 net.cpp:141] Setting up label_data_1_split
I0403 14:46:22.222928 13619 net.cpp:148] Top shape: 24 (24)
I0403 14:46:22.222944 13619 net.cpp:148] Top shape: 24 (24)
I0403 14:46:22.222960 13619 net.cpp:148] Top shape: 24 (24)
I0403 14:46:22.222976 13619 net.cpp:148] Top shape: 24 (24)
I0403 14:46:22.222991 13619 net.cpp:148] Top shape: 24 (24)
I0403 14:46:22.223006 13619 net.cpp:148] Top shape: 24 (24)
I0403 14:46:22.223022 13619 net.cpp:148] Top shape: 24 (24)
I0403 14:46:22.223037 13619 net.cpp:148] Top shape: 24 (24)
I0403 14:46:22.223053 13619 net.cpp:148] Top shape: 24 (24)
I0403 14:46:22.223069 13619 net.cpp:148] Top shape: 24 (24)
I0403 14:46:22.223117 13619 net.cpp:156] Memory required for data: 14451744
I0403 14:46:22.223134 13619 layer_factory.hpp:77] Creating layer conv1/7x7_s2
I0403 14:46:22.223163 13619 net.cpp:91] Creating Layer conv1/7x7_s2
I0403 14:46:22.223182 13619 net.cpp:425] conv1/7x7_s2 <- data
I0403 14:46:22.223202 13619 net.cpp:399] conv1/7x7_s2 -> conv1/7x7_s2
I0403 14:46:22.362835 13619 net.cpp:141] Setting up conv1/7x7_s2
I0403 14:46:22.362911 13619 net.cpp:148] Top shape: 24 64 112 112 (19267584)
I0403 14:46:22.362928 13619 net.cpp:156] Memory required for data: 91522080
I0403 14:46:22.362959 13619 layer_factory.hpp:77] Creating layer conv1/relu_7x7
I0403 14:46:22.362985 13619 net.cpp:91] Creating Layer conv1/relu_7x7
I0403 14:46:22.363003 13619 net.cpp:425] conv1/relu_7x7 <- conv1/7x7_s2
I0403 14:46:22.363023 13619 net.cpp:386] conv1/relu_7x7 -> conv1/7x7_s2 (in-place)
I0403 14:46:22.363273 13619 net.cpp:141] Setting up conv1/relu_7x7
I0403 14:46:22.363302 13619 net.cpp:148] Top shape: 24 64 112 112 (19267584)
I0403 14:46:22.363317 13619 net.cpp:156] Memory required for data: 168592416
I0403 14:46:22.363332 13619 layer_factory.hpp:77] Creating layer pool1/3x3_s2
I0403 14:46:22.363355 13619 net.cpp:91] Creating Layer pool1/3x3_s2
I0403 14:46:22.363373 13619 net.cpp:425] pool1/3x3_s2 <- conv1/7x7_s2
I0403 14:46:22.363390 13619 net.cpp:399] pool1/3x3_s2 -> pool1/3x3_s2
I0403 14:46:22.363463 13619 net.cpp:141] Setting up pool1/3x3_s2
I0403 14:46:22.363487 13619 net.cpp:148] Top shape: 24 64 56 56 (4816896)
I0403 14:46:22.363502 13619 net.cpp:156] Memory required for data: 187860000
I0403 14:46:22.363517 13619 layer_factory.hpp:77] Creating layer pool1/norm1
I0403 14:46:22.363544 13619 net.cpp:91] Creating Layer pool1/norm1
I0403 14:46:22.363564 13619 net.cpp:425] pool1/norm1 <- pool1/3x3_s2
I0403 14:46:22.363580 13619 net.cpp:399] pool1/norm1 -> pool1/norm1
I0403 14:46:22.363867 13619 net.cpp:141] Setting up pool1/norm1
I0403 14:46:22.363893 13619 net.cpp:148] Top shape: 24 64 56 56 (4816896)
I0403 14:46:22.363909 13619 net.cpp:156] Memory required for data: 207127584
I0403 14:46:22.363922 13619 layer_factory.hpp:77] Creating layer conv2/3x3_reduce
I0403 14:46:22.363945 13619 net.cpp:91] Creating Layer conv2/3x3_reduce
I0403 14:46:22.363960 13619 net.cpp:425] conv2/3x3_reduce <- pool1/norm1
I0403 14:46:22.363977 13619 net.cpp:399] conv2/3x3_reduce -> conv2/3x3_reduce
I0403 14:46:22.365279 13619 net.cpp:141] Setting up conv2/3x3_reduce
I0403 14:46:22.365309 13619 net.cpp:148] Top shape: 24 64 56 56 (4816896)
I0403 14:46:22.365324 13619 net.cpp:156] Memory required for data: 226395168
I0403 14:46:22.365344 13619 layer_factory.hpp:77] Creating layer conv2/relu_3x3_reduce
I0403 14:46:22.365361 13619 net.cpp:91] Creating Layer conv2/relu_3x3_reduce
I0403 14:46:22.365376 13619 net.cpp:425] conv2/relu_3x3_reduce <- conv2/3x3_reduce
I0403 14:46:22.365392 13619 net.cpp:386] conv2/relu_3x3_reduce -> conv2/3x3_reduce (in-place)
I0403 14:46:22.365633 13619 net.cpp:141] Setting up conv2/relu_3x3_reduce
I0403 14:46:22.365658 13619 net.cpp:148] Top shape: 24 64 56 56 (4816896)
I0403 14:46:22.365674 13619 net.cpp:156] Memory required for data: 245662752
I0403 14:46:22.365687 13619 layer_factory.hpp:77] Creating layer conv2/3x3
I0403 14:46:22.365708 13619 net.cpp:91] Creating Layer conv2/3x3
I0403 14:46:22.365725 13619 net.cpp:425] conv2/3x3 <- conv2/3x3_reduce
I0403 14:46:22.365741 13619 net.cpp:399] conv2/3x3 -> conv2/3x3
I0403 14:46:22.367877 13619 net.cpp:141] Setting up conv2/3x3
I0403 14:46:22.367907 13619 net.cpp:148] Top shape: 24 192 56 56 (14450688)
I0403 14:46:22.367921 13619 net.cpp:156] Memory required for data: 303465504
I0403 14:46:22.367941 13619 layer_factory.hpp:77] Creating layer conv2/relu_3x3
I0403 14:46:22.367959 13619 net.cpp:91] Creating Layer conv2/relu_3x3
I0403 14:46:22.367974 13619 net.cpp:425] conv2/relu_3x3 <- conv2/3x3
I0403 14:46:22.367990 13619 net.cpp:386] conv2/relu_3x3 -> conv2/3x3 (in-place)
I0403 14:46:22.368142 13619 net.cpp:141] Setting up conv2/relu_3x3
I0403 14:46:22.368167 13619 net.cpp:148] Top shape: 24 192 56 56 (14450688)
I0403 14:46:22.368214 13619 net.cpp:156] Memory required for data: 361268256
I0403 14:46:22.368230 13619 layer_factory.hpp:77] Creating layer conv2/norm2
I0403 14:46:22.368247 13619 net.cpp:91] Creating Layer conv2/norm2
I0403 14:46:22.368263 13619 net.cpp:425] conv2/norm2 <- conv2/3x3
I0403 14:46:22.368279 13619 net.cpp:399] conv2/norm2 -> conv2/norm2
I0403 14:46:22.368573 13619 net.cpp:141] Setting up conv2/norm2
I0403 14:46:22.368600 13619 net.cpp:148] Top shape: 24 192 56 56 (14450688)
I0403 14:46:22.368615 13619 net.cpp:156] Memory required for data: 419071008
I0403 14:46:22.368630 13619 layer_factory.hpp:77] Creating layer pool2/3x3_s2
I0403 14:46:22.368648 13619 net.cpp:91] Creating Layer pool2/3x3_s2
I0403 14:46:22.368664 13619 net.cpp:425] pool2/3x3_s2 <- conv2/norm2
I0403 14:46:22.368680 13619 net.cpp:399] pool2/3x3_s2 -> pool2/3x3_s2
I0403 14:46:22.368729 13619 net.cpp:141] Setting up pool2/3x3_s2
I0403 14:46:22.368752 13619 net.cpp:148] Top shape: 24 192 28 28 (3612672)
I0403 14:46:22.368767 13619 net.cpp:156] Memory required for data: 433521696
I0403 14:46:22.368782 13619 layer_factory.hpp:77] Creating layer pool2/3x3_s2_pool2/3x3_s2_0_split
I0403 14:46:22.368799 13619 net.cpp:91] Creating Layer pool2/3x3_s2_pool2/3x3_s2_0_split
I0403 14:46:22.368814 13619 net.cpp:425] pool2/3x3_s2_pool2/3x3_s2_0_split <- pool2/3x3_s2
I0403 14:46:22.368830 13619 net.cpp:399] pool2/3x3_s2_pool2/3x3_s2_0_split -> pool2/3x3_s2_pool2/3x3_s2_0_split_0
I0403 14:46:22.368849 13619 net.cpp:399] pool2/3x3_s2_pool2/3x3_s2_0_split -> pool2/3x3_s2_pool2/3x3_s2_0_split_1
I0403 14:46:22.368868 13619 net.cpp:399] pool2/3x3_s2_pool2/3x3_s2_0_split -> pool2/3x3_s2_pool2/3x3_s2_0_split_2
I0403 14:46:22.368887 13619 net.cpp:399] pool2/3x3_s2_pool2/3x3_s2_0_split -> pool2/3x3_s2_pool2/3x3_s2_0_split_3
I0403 14:46:22.368950 13619 net.cpp:141] Setting up pool2/3x3_s2_pool2/3x3_s2_0_split
I0403 14:46:22.368973 13619 net.cpp:148] Top shape: 24 192 28 28 (3612672)
I0403 14:46:22.368989 13619 net.cpp:148] Top shape: 24 192 28 28 (3612672)
I0403 14:46:22.369004 13619 net.cpp:148] Top shape: 24 192 28 28 (3612672)
I0403 14:46:22.369019 13619 net.cpp:148] Top shape: 24 192 28 28 (3612672)
I0403 14:46:22.369034 13619 net.cpp:156] Memory required for data: 491324448
I0403 14:46:22.369047 13619 layer_factory.hpp:77] Creating layer inception_3a/1x1
I0403 14:46:22.369067 13619 net.cpp:91] Creating Layer inception_3a/1x1
I0403 14:46:22.369082 13619 net.cpp:425] inception_3a/1x1 <- pool2/3x3_s2_pool2/3x3_s2_0_split_0
I0403 14:46:22.369101 13619 net.cpp:399] inception_3a/1x1 -> inception_3a/1x1
I0403 14:46:22.370532 13619 net.cpp:141] Setting up inception_3a/1x1
I0403 14:46:22.370565 13619 net.cpp:148] Top shape: 24 64 28 28 (1204224)
I0403 14:46:22.370582 13619 net.cpp:156] Memory required for data: 496141344
I0403 14:46:22.370599 13619 layer_factory.hpp:77] Creating layer inception_3a/relu_1x1
I0403 14:46:22.370617 13619 net.cpp:91] Creating Layer inception_3a/relu_1x1
I0403 14:46:22.370632 13619 net.cpp:425] inception_3a/relu_1x1 <- inception_3a/1x1
I0403 14:46:22.370650 13619 net.cpp:386] inception_3a/relu_1x1 -> inception_3a/1x1 (in-place)
I0403 14:46:22.370815 13619 net.cpp:141] Setting up inception_3a/relu_1x1
I0403 14:46:22.370841 13619 net.cpp:148] Top shape: 24 64 28 28 (1204224)
I0403 14:46:22.370856 13619 net.cpp:156] Memory required for data: 500958240
I0403 14:46:22.370869 13619 layer_factory.hpp:77] Creating layer inception_3a/3x3_reduce
I0403 14:46:22.370890 13619 net.cpp:91] Creating Layer inception_3a/3x3_reduce
I0403 14:46:22.370908 13619 net.cpp:425] inception_3a/3x3_reduce <- pool2/3x3_s2_pool2/3x3_s2_0_split_1
I0403 14:46:22.370929 13619 net.cpp:399] inception_3a/3x3_reduce -> inception_3a/3x3_reduce
I0403 14:46:22.372601 13619 net.cpp:141] Setting up inception_3a/3x3_reduce
I0403 14:46:22.372630 13619 net.cpp:148] Top shape: 24 96 28 28 (1806336)
I0403 14:46:22.372645 13619 net.cpp:156] Memory required for data: 508183584
I0403 14:46:22.372666 13619 layer_factory.hpp:77] Creating layer inception_3a/relu_3x3_reduce
I0403 14:46:22.372702 13619 net.cpp:91] Creating Layer inception_3a/relu_3x3_reduce
I0403 14:46:22.372720 13619 net.cpp:425] inception_3a/relu_3x3_reduce <- inception_3a/3x3_reduce
I0403 14:46:22.372737 13619 net.cpp:386] inception_3a/relu_3x3_reduce -> inception_3a/3x3_reduce (in-place)
I0403 14:46:22.372915 13619 net.cpp:141] Setting up inception_3a/relu_3x3_reduce
I0403 14:46:22.372941 13619 net.cpp:148] Top shape: 24 96 28 28 (1806336)
I0403 14:46:22.372956 13619 net.cpp:156] Memory required for data: 515408928
I0403 14:46:22.372970 13619 layer_factory.hpp:77] Creating layer inception_3a/3x3
I0403 14:46:22.372993 13619 net.cpp:91] Creating Layer inception_3a/3x3
I0403 14:46:22.373010 13619 net.cpp:425] inception_3a/3x3 <- inception_3a/3x3_reduce
I0403 14:46:22.373030 13619 net.cpp:399] inception_3a/3x3 -> inception_3a/3x3
I0403 14:46:22.374671 13619 net.cpp:141] Setting up inception_3a/3x3
I0403 14:46:22.374701 13619 net.cpp:148] Top shape: 24 128 28 28 (2408448)
I0403 14:46:22.374716 13619 net.cpp:156] Memory required for data: 525042720
I0403 14:46:22.374733 13619 layer_factory.hpp:77] Creating layer inception_3a/relu_3x3
I0403 14:46:22.374752 13619 net.cpp:91] Creating Layer inception_3a/relu_3x3
I0403 14:46:22.374769 13619 net.cpp:425] inception_3a/relu_3x3 <- inception_3a/3x3
I0403 14:46:22.374786 13619 net.cpp:386] inception_3a/relu_3x3 -> inception_3a/3x3 (in-place)
I0403 14:46:22.375057 13619 net.cpp:141] Setting up inception_3a/relu_3x3
I0403 14:46:22.375084 13619 net.cpp:148] Top shape: 24 128 28 28 (2408448)
I0403 14:46:22.375099 13619 net.cpp:156] Memory required for data: 534676512
I0403 14:46:22.375113 13619 layer_factory.hpp:77] Creating layer inception_3a/5x5_reduce
I0403 14:46:22.375138 13619 net.cpp:91] Creating Layer inception_3a/5x5_reduce
I0403 14:46:22.375154 13619 net.cpp:425] inception_3a/5x5_reduce <- pool2/3x3_s2_pool2/3x3_s2_0_split_2
I0403 14:46:22.375174 13619 net.cpp:399] inception_3a/5x5_reduce -> inception_3a/5x5_reduce
I0403 14:46:22.376127 13619 net.cpp:141] Setting up inception_3a/5x5_reduce
I0403 14:46:22.376153 13619 net.cpp:148] Top shape: 24 16 28 28 (301056)
I0403 14:46:22.376169 13619 net.cpp:156] Memory required for data: 535880736
I0403 14:46:22.376186 13619 layer_factory.hpp:77] Creating layer inception_3a/relu_5x5_reduce
I0403 14:46:22.376206 13619 net.cpp:91] Creating Layer inception_3a/relu_5x5_reduce
I0403 14:46:22.376222 13619 net.cpp:425] inception_3a/relu_5x5_reduce <- inception_3a/5x5_reduce
I0403 14:46:22.376238 13619 net.cpp:386] inception_3a/relu_5x5_reduce -> inception_3a/5x5_reduce (in-place)
I0403 14:46:22.376528 13619 net.cpp:141] Setting up inception_3a/relu_5x5_reduce
I0403 14:46:22.376559 13619 net.cpp:148] Top shape: 24 16 28 28 (301056)
I0403 14:46:22.376576 13619 net.cpp:156] Memory required for data: 537084960
I0403 14:46:22.376590 13619 layer_factory.hpp:77] Creating layer inception_3a/5x5
I0403 14:46:22.376612 13619 net.cpp:91] Creating Layer inception_3a/5x5
I0403 14:46:22.376631 13619 net.cpp:425] inception_3a/5x5 <- inception_3a/5x5_reduce
I0403 14:46:22.376648 13619 net.cpp:399] inception_3a/5x5 -> inception_3a/5x5
I0403 14:46:22.377642 13619 net.cpp:141] Setting up inception_3a/5x5
I0403 14:46:22.377670 13619 net.cpp:148] Top shape: 24 32 28 28 (602112)
I0403 14:46:22.377686 13619 net.cpp:156] Memory required for data: 539493408
I0403 14:46:22.377703 13619 layer_factory.hpp:77] Creating layer inception_3a/relu_5x5
I0403 14:46:22.377723 13619 net.cpp:91] Creating Layer inception_3a/relu_5x5
I0403 14:46:22.377739 13619 net.cpp:425] inception_3a/relu_5x5 <- inception_3a/5x5
I0403 14:46:22.377758 13619 net.cpp:386] inception_3a/relu_5x5 -> inception_3a/5x5 (in-place)
I0403 14:46:22.377925 13619 net.cpp:141] Setting up inception_3a/relu_5x5
I0403 14:46:22.377950 13619 net.cpp:148] Top shape: 24 32 28 28 (602112)
I0403 14:46:22.377967 13619 net.cpp:156] Memory required for data: 541901856
I0403 14:46:22.377982 13619 layer_factory.hpp:77] Creating layer inception_3a/pool
I0403 14:46:22.378000 13619 net.cpp:91] Creating Layer inception_3a/pool
I0403 14:46:22.378029 13619 net.cpp:425] inception_3a/pool <- pool2/3x3_s2_pool2/3x3_s2_0_split_3
I0403 14:46:22.378047 13619 net.cpp:399] inception_3a/pool -> inception_3a/pool
I0403 14:46:22.378108 13619 net.cpp:141] Setting up inception_3a/pool
I0403 14:46:22.378130 13619 net.cpp:148] Top shape: 24 192 28 28 (3612672)
I0403 14:46:22.378145 13619 net.cpp:156] Memory required for data: 556352544
I0403 14:46:22.378159 13619 layer_factory.hpp:77] Creating layer inception_3a/pool_proj
I0403 14:46:22.378180 13619 net.cpp:91] Creating Layer inception_3a/pool_proj
I0403 14:46:22.378198 13619 net.cpp:425] inception_3a/pool_proj <- inception_3a/pool
I0403 14:46:22.378219 13619 net.cpp:399] inception_3a/pool_proj -> inception_3a/pool_proj
I0403 14:46:22.379173 13619 net.cpp:141] Setting up inception_3a/pool_proj
I0403 14:46:22.379199 13619 net.cpp:148] Top shape: 24 32 28 28 (602112)
I0403 14:46:22.379215 13619 net.cpp:156] Memory required for data: 558760992
I0403 14:46:22.379235 13619 layer_factory.hpp:77] Creating layer inception_3a/relu_pool_proj
I0403 14:46:22.379256 13619 net.cpp:91] Creating Layer inception_3a/relu_pool_proj
I0403 14:46:22.379272 13619 net.cpp:425] inception_3a/relu_pool_proj <- inception_3a/pool_proj
I0403 14:46:22.379289 13619 net.cpp:386] inception_3a/relu_pool_proj -> inception_3a/pool_proj (in-place)
I0403 14:46:22.379568 13619 net.cpp:141] Setting up inception_3a/relu_pool_proj
I0403 14:46:22.379595 13619 net.cpp:148] Top shape: 24 32 28 28 (602112)
I0403 14:46:22.379611 13619 net.cpp:156] Memory required for data: 561169440
I0403 14:46:22.379624 13619 layer_factory.hpp:77] Creating layer inception_3a/output
I0403 14:46:22.379642 13619 net.cpp:91] Creating Layer inception_3a/output
I0403 14:46:22.379657 13619 net.cpp:425] inception_3a/output <- inception_3a/1x1
I0403 14:46:22.379675 13619 net.cpp:425] inception_3a/output <- inception_3a/3x3
I0403 14:46:22.379693 13619 net.cpp:425] inception_3a/output <- inception_3a/5x5
I0403 14:46:22.379708 13619 net.cpp:425] inception_3a/output <- inception_3a/pool_proj
I0403 14:46:22.379724 13619 net.cpp:399] inception_3a/output -> inception_3a/output
I0403 14:46:22.379770 13619 net.cpp:141] Setting up inception_3a/output
I0403 14:46:22.379792 13619 net.cpp:148] Top shape: 24 256 28 28 (4816896)
I0403 14:46:22.379806 13619 net.cpp:156] Memory required for data: 580437024
I0403 14:46:22.379822 13619 layer_factory.hpp:77] Creating layer inception_3a/output_inception_3a/output_0_split
I0403 14:46:22.379838 13619 net.cpp:91] Creating Layer inception_3a/output_inception_3a/output_0_split
I0403 14:46:22.379853 13619 net.cpp:425] inception_3a/output_inception_3a/output_0_split <- inception_3a/output
I0403 14:46:22.379871 13619 net.cpp:399] inception_3a/output_inception_3a/output_0_split -> inception_3a/output_inception_3a/output_0_split_0
I0403 14:46:22.379891 13619 net.cpp:399] inception_3a/output_inception_3a/output_0_split -> inception_3a/output_inception_3a/output_0_split_1
I0403 14:46:22.379914 13619 net.cpp:399] inception_3a/output_inception_3a/output_0_split -> inception_3a/output_inception_3a/output_0_split_2
I0403 14:46:22.379937 13619 net.cpp:399] inception_3a/output_inception_3a/output_0_split -> inception_3a/output_inception_3a/output_0_split_3
I0403 14:46:22.380010 13619 net.cpp:141] Setting up inception_3a/output_inception_3a/output_0_split
I0403 14:46:22.380033 13619 net.cpp:148] Top shape: 24 256 28 28 (4816896)
I0403 14:46:22.380049 13619 net.cpp:148] Top shape: 24 256 28 28 (4816896)
I0403 14:46:22.380064 13619 net.cpp:148] Top shape: 24 256 28 28 (4816896)
I0403 14:46:22.380079 13619 net.cpp:148] Top shape: 24 256 28 28 (4816896)
I0403 14:46:22.380092 13619 net.cpp:156] Memory required for data: 657507360
I0403 14:46:22.380106 13619 layer_factory.hpp:77] Creating layer inception_3b/1x1
I0403 14:46:22.380127 13619 net.cpp:91] Creating Layer inception_3b/1x1
I0403 14:46:22.380144 13619 net.cpp:425] inception_3b/1x1 <- inception_3a/output_inception_3a/output_0_split_0
I0403 14:46:22.380164 13619 net.cpp:399] inception_3b/1x1 -> inception_3b/1x1
I0403 14:46:22.381281 13619 net.cpp:141] Setting up inception_3b/1x1
I0403 14:46:22.381321 13619 net.cpp:148] Top shape: 24 128 28 28 (2408448)
I0403 14:46:22.381337 13619 net.cpp:156] Memory required for data: 667141152
I0403 14:46:22.381355 13619 layer_factory.hpp:77] Creating layer inception_3b/relu_1x1
I0403 14:46:22.381372 13619 net.cpp:91] Creating Layer inception_3b/relu_1x1
I0403 14:46:22.381387 13619 net.cpp:425] inception_3b/relu_1x1 <- inception_3b/1x1
I0403 14:46:22.381407 13619 net.cpp:386] inception_3b/relu_1x1 -> inception_3b/1x1 (in-place)
I0403 14:46:22.381592 13619 net.cpp:141] Setting up inception_3b/relu_1x1
I0403 14:46:22.381618 13619 net.cpp:148] Top shape: 24 128 28 28 (2408448)
I0403 14:46:22.381633 13619 net.cpp:156] Memory required for data: 676774944
I0403 14:46:22.381646 13619 layer_factory.hpp:77] Creating layer inception_3b/3x3_reduce
I0403 14:46:22.381669 13619 net.cpp:91] Creating Layer inception_3b/3x3_reduce
I0403 14:46:22.381685 13619 net.cpp:425] inception_3b/3x3_reduce <- inception_3a/output_inception_3a/output_0_split_1
I0403 14:46:22.381706 13619 net.cpp:399] inception_3b/3x3_reduce -> inception_3b/3x3_reduce
I0403 14:46:22.382822 13619 net.cpp:141] Setting up inception_3b/3x3_reduce
I0403 14:46:22.382848 13619 net.cpp:148] Top shape: 24 128 28 28 (2408448)
I0403 14:46:22.382864 13619 net.cpp:156] Memory required for data: 686408736
I0403 14:46:22.382881 13619 layer_factory.hpp:77] Creating layer inception_3b/relu_3x3_reduce
I0403 14:46:22.382899 13619 net.cpp:91] Creating Layer inception_3b/relu_3x3_reduce
I0403 14:46:22.382913 13619 net.cpp:425] inception_3b/relu_3x3_reduce <- inception_3b/3x3_reduce
I0403 14:46:22.382932 13619 net.cpp:386] inception_3b/relu_3x3_reduce -> inception_3b/3x3_reduce (in-place)
I0403 14:46:22.383101 13619 net.cpp:141] Setting up inception_3b/relu_3x3_reduce
I0403 14:46:22.383126 13619 net.cpp:148] Top shape: 24 128 28 28 (2408448)
I0403 14:46:22.383141 13619 net.cpp:156] Memory required for data: 696042528
I0403 14:46:22.383155 13619 layer_factory.hpp:77] Creating layer inception_3b/3x3
I0403 14:46:22.383180 13619 net.cpp:91] Creating Layer inception_3b/3x3
I0403 14:46:22.383198 13619 net.cpp:425] inception_3b/3x3 <- inception_3b/3x3_reduce
I0403 14:46:22.383218 13619 net.cpp:399] inception_3b/3x3 -> inception_3b/3x3
I0403 14:46:22.386113 13619 net.cpp:141] Setting up inception_3b/3x3
I0403 14:46:22.386142 13619 net.cpp:148] Top shape: 24 192 28 28 (3612672)
I0403 14:46:22.386157 13619 net.cpp:156] Memory required for data: 710493216
I0403 14:46:22.386174 13619 layer_factory.hpp:77] Creating layer inception_3b/relu_3x3
I0403 14:46:22.386196 13619 net.cpp:91] Creating Layer inception_3b/relu_3x3
I0403 14:46:22.386214 13619 net.cpp:425] inception_3b/relu_3x3 <- inception_3b/3x3
I0403 14:46:22.386230 13619 net.cpp:386] inception_3b/relu_3x3 -> inception_3b/3x3 (in-place)
I0403 14:46:22.386502 13619 net.cpp:141] Setting up inception_3b/relu_3x3
I0403 14:46:22.386529 13619 net.cpp:148] Top shape: 24 192 28 28 (3612672)
I0403 14:46:22.386556 13619 net.cpp:156] Memory required for data: 724943904
I0403 14:46:22.386571 13619 layer_factory.hpp:77] Creating layer inception_3b/5x5_reduce
I0403 14:46:22.386595 13619 net.cpp:91] Creating Layer inception_3b/5x5_reduce
I0403 14:46:22.386620 13619 net.cpp:425] inception_3b/5x5_reduce <- inception_3a/output_inception_3a/output_0_split_2
I0403 14:46:22.386641 13619 net.cpp:399] inception_3b/5x5_reduce -> inception_3b/5x5_reduce
I0403 14:46:22.387612 13619 net.cpp:141] Setting up inception_3b/5x5_reduce
I0403 14:46:22.387639 13619 net.cpp:148] Top shape: 24 32 28 28 (602112)
I0403 14:46:22.387653 13619 net.cpp:156] Memory required for data: 727352352
I0403 14:46:22.387670 13619 layer_factory.hpp:77] Creating layer inception_3b/relu_5x5_reduce
I0403 14:46:22.387689 13619 net.cpp:91] Creating Layer inception_3b/relu_5x5_reduce
I0403 14:46:22.387706 13619 net.cpp:425] inception_3b/relu_5x5_reduce <- inception_3b/5x5_reduce
I0403 14:46:22.387722 13619 net.cpp:386] inception_3b/relu_5x5_reduce -> inception_3b/5x5_reduce (in-place)
I0403 14:46:22.387903 13619 net.cpp:141] Setting up inception_3b/relu_5x5_reduce
I0403 14:46:22.387929 13619 net.cpp:148] Top shape: 24 32 28 28 (602112)
I0403 14:46:22.387944 13619 net.cpp:156] Memory required for data: 729760800
I0403 14:46:22.387959 13619 layer_factory.hpp:77] Creating layer inception_3b/5x5
I0403 14:46:22.387977 13619 net.cpp:91] Creating Layer inception_3b/5x5
I0403 14:46:22.387994 13619 net.cpp:425] inception_3b/5x5 <- inception_3b/5x5_reduce
I0403 14:46:22.388012 13619 net.cpp:399] inception_3b/5x5 -> inception_3b/5x5
I0403 14:46:22.389921 13619 net.cpp:141] Setting up inception_3b/5x5
I0403 14:46:22.389950 13619 net.cpp:148] Top shape: 24 96 28 28 (1806336)
I0403 14:46:22.389964 13619 net.cpp:156] Memory required for data: 736986144
I0403 14:46:22.389981 13619 layer_factory.hpp:77] Creating layer inception_3b/relu_5x5
I0403 14:46:22.389997 13619 net.cpp:91] Creating Layer inception_3b/relu_5x5
I0403 14:46:22.390012 13619 net.cpp:425] inception_3b/relu_5x5 <- inception_3b/5x5
I0403 14:46:22.390032 13619 net.cpp:386] inception_3b/relu_5x5 -> inception_3b/5x5 (in-place)
I0403 14:46:22.390214 13619 net.cpp:141] Setting up inception_3b/relu_5x5
I0403 14:46:22.390241 13619 net.cpp:148] Top shape: 24 96 28 28 (1806336)
I0403 14:46:22.390255 13619 net.cpp:156] Memory required for data: 744211488
I0403 14:46:22.390269 13619 layer_factory.hpp:77] Creating layer inception_3b/pool
I0403 14:46:22.390285 13619 net.cpp:91] Creating Layer inception_3b/pool
I0403 14:46:22.390300 13619 net.cpp:425] inception_3b/pool <- inception_3a/output_inception_3a/output_0_split_3
I0403 14:46:22.390317 13619 net.cpp:399] inception_3b/pool -> inception_3b/pool
I0403 14:46:22.390372 13619 net.cpp:141] Setting up inception_3b/pool
I0403 14:46:22.390393 13619 net.cpp:148] Top shape: 24 256 28 28 (4816896)
I0403 14:46:22.390406 13619 net.cpp:156] Memory required for data: 763479072
I0403 14:46:22.390419 13619 layer_factory.hpp:77] Creating layer inception_3b/pool_proj
I0403 14:46:22.390440 13619 net.cpp:91] Creating Layer inception_3b/pool_proj
I0403 14:46:22.390457 13619 net.cpp:425] inception_3b/pool_proj <- inception_3b/pool
I0403 14:46:22.390476 13619 net.cpp:399] inception_3b/pool_proj -> inception_3b/pool_proj
I0403 14:46:22.391505 13619 net.cpp:141] Setting up inception_3b/pool_proj
I0403 14:46:22.391533 13619 net.cpp:148] Top shape: 24 64 28 28 (1204224)
I0403 14:46:22.391553 13619 net.cpp:156] Memory required for data: 768295968
I0403 14:46:22.391571 13619 layer_factory.hpp:77] Creating layer inception_3b/relu_pool_proj
I0403 14:46:22.391588 13619 net.cpp:91] Creating Layer inception_3b/relu_pool_proj
I0403 14:46:22.391603 13619 net.cpp:425] inception_3b/relu_pool_proj <- inception_3b/pool_proj
I0403 14:46:22.391619 13619 net.cpp:386] inception_3b/relu_pool_proj -> inception_3b/pool_proj (in-place)
I0403 14:46:22.392004 13619 net.cpp:141] Setting up inception_3b/relu_pool_proj
I0403 14:46:22.392030 13619 net.cpp:148] Top shape: 24 64 28 28 (1204224)
I0403 14:46:22.392043 13619 net.cpp:156] Memory required for data: 773112864
I0403 14:46:22.392057 13619 layer_factory.hpp:77] Creating layer inception_3b/output
I0403 14:46:22.392076 13619 net.cpp:91] Creating Layer inception_3b/output
I0403 14:46:22.392091 13619 net.cpp:425] inception_3b/output <- inception_3b/1x1
I0403 14:46:22.392107 13619 net.cpp:425] inception_3b/output <- inception_3b/3x3
I0403 14:46:22.392122 13619 net.cpp:425] inception_3b/output <- inception_3b/5x5
I0403 14:46:22.392138 13619 net.cpp:425] inception_3b/output <- inception_3b/pool_proj
I0403 14:46:22.392153 13619 net.cpp:399] inception_3b/output -> inception_3b/output
I0403 14:46:22.392196 13619 net.cpp:141] Setting up inception_3b/output
I0403 14:46:22.392218 13619 net.cpp:148] Top shape: 24 480 28 28 (9031680)
I0403 14:46:22.392232 13619 net.cpp:156] Memory required for data: 809239584
I0403 14:46:22.392246 13619 layer_factory.hpp:77] Creating layer pool3/3x3_s2
I0403 14:46:22.392262 13619 net.cpp:91] Creating Layer pool3/3x3_s2
I0403 14:46:22.392277 13619 net.cpp:425] pool3/3x3_s2 <- inception_3b/output
I0403 14:46:22.392312 13619 net.cpp:399] pool3/3x3_s2 -> pool3/3x3_s2
I0403 14:46:22.392367 13619 net.cpp:141] Setting up pool3/3x3_s2
I0403 14:46:22.392390 13619 net.cpp:148] Top shape: 24 480 14 14 (2257920)
I0403 14:46:22.392405 13619 net.cpp:156] Memory required for data: 818271264
I0403 14:46:22.392417 13619 layer_factory.hpp:77] Creating layer pool3/3x3_s2_pool3/3x3_s2_0_split
I0403 14:46:22.392436 13619 net.cpp:91] Creating Layer pool3/3x3_s2_pool3/3x3_s2_0_split
I0403 14:46:22.392452 13619 net.cpp:425] pool3/3x3_s2_pool3/3x3_s2_0_split <- pool3/3x3_s2
I0403 14:46:22.392470 13619 net.cpp:399] pool3/3x3_s2_pool3/3x3_s2_0_split -> pool3/3x3_s2_pool3/3x3_s2_0_split_0
I0403 14:46:22.392490 13619 net.cpp:399] pool3/3x3_s2_pool3/3x3_s2_0_split -> pool3/3x3_s2_pool3/3x3_s2_0_split_1
I0403 14:46:22.392509 13619 net.cpp:399] pool3/3x3_s2_pool3/3x3_s2_0_split -> pool3/3x3_s2_pool3/3x3_s2_0_split_2
I0403 14:46:22.392529 13619 net.cpp:399] pool3/3x3_s2_pool3/3x3_s2_0_split -> pool3/3x3_s2_pool3/3x3_s2_0_split_3
I0403 14:46:22.392606 13619 net.cpp:141] Setting up pool3/3x3_s2_pool3/3x3_s2_0_split
I0403 14:46:22.392632 13619 net.cpp:148] Top shape: 24 480 14 14 (2257920)
I0403 14:46:22.392647 13619 net.cpp:148] Top shape: 24 480 14 14 (2257920)
I0403 14:46:22.392662 13619 net.cpp:148] Top shape: 24 480 14 14 (2257920)
I0403 14:46:22.392676 13619 net.cpp:148] Top shape: 24 480 14 14 (2257920)
I0403 14:46:22.392689 13619 net.cpp:156] Memory required for data: 854397984
I0403 14:46:22.392702 13619 layer_factory.hpp:77] Creating layer inception_4a/1x1
I0403 14:46:22.392724 13619 net.cpp:91] Creating Layer inception_4a/1x1
I0403 14:46:22.392740 13619 net.cpp:425] inception_4a/1x1 <- pool3/3x3_s2_pool3/3x3_s2_0_split_0
I0403 14:46:22.392757 13619 net.cpp:399] inception_4a/1x1 -> inception_4a/1x1
I0403 14:46:22.394268 13619 net.cpp:141] Setting up inception_4a/1x1
I0403 14:46:22.394297 13619 net.cpp:148] Top shape: 24 192 14 14 (903168)
I0403 14:46:22.394312 13619 net.cpp:156] Memory required for data: 858010656
I0403 14:46:22.394330 13619 layer_factory.hpp:77] Creating layer inception_4a/relu_1x1
I0403 14:46:22.394346 13619 net.cpp:91] Creating Layer inception_4a/relu_1x1
I0403 14:46:22.394361 13619 net.cpp:425] inception_4a/relu_1x1 <- inception_4a/1x1
I0403 14:46:22.394377 13619 net.cpp:386] inception_4a/relu_1x1 -> inception_4a/1x1 (in-place)
I0403 14:46:22.394567 13619 net.cpp:141] Setting up inception_4a/relu_1x1
I0403 14:46:22.394593 13619 net.cpp:148] Top shape: 24 192 14 14 (903168)
I0403 14:46:22.394606 13619 net.cpp:156] Memory required for data: 861623328
I0403 14:46:22.394619 13619 layer_factory.hpp:77] Creating layer inception_4a/3x3_reduce
I0403 14:46:22.394640 13619 net.cpp:91] Creating Layer inception_4a/3x3_reduce
I0403 14:46:22.394656 13619 net.cpp:425] inception_4a/3x3_reduce <- pool3/3x3_s2_pool3/3x3_s2_0_split_1
I0403 14:46:22.394676 13619 net.cpp:399] inception_4a/3x3_reduce -> inception_4a/3x3_reduce
I0403 14:46:22.395932 13619 net.cpp:141] Setting up inception_4a/3x3_reduce
I0403 14:46:22.395962 13619 net.cpp:148] Top shape: 24 96 14 14 (451584)
I0403 14:46:22.395979 13619 net.cpp:156] Memory required for data: 863429664
I0403 14:46:22.396003 13619 layer_factory.hpp:77] Creating layer inception_4a/relu_3x3_reduce
I0403 14:46:22.396023 13619 net.cpp:91] Creating Layer inception_4a/relu_3x3_reduce
I0403 14:46:22.396039 13619 net.cpp:425] inception_4a/relu_3x3_reduce <- inception_4a/3x3_reduce
I0403 14:46:22.396055 13619 net.cpp:386] inception_4a/relu_3x3_reduce -> inception_4a/3x3_reduce (in-place)
I0403 14:46:22.396230 13619 net.cpp:141] Setting up inception_4a/relu_3x3_reduce
I0403 14:46:22.396257 13619 net.cpp:148] Top shape: 24 96 14 14 (451584)
I0403 14:46:22.396272 13619 net.cpp:156] Memory required for data: 865236000
I0403 14:46:22.396286 13619 layer_factory.hpp:77] Creating layer inception_4a/3x3
I0403 14:46:22.396308 13619 net.cpp:91] Creating Layer inception_4a/3x3
I0403 14:46:22.396327 13619 net.cpp:425] inception_4a/3x3 <- inception_4a/3x3_reduce
I0403 14:46:22.396347 13619 net.cpp:399] inception_4a/3x3 -> inception_4a/3x3
I0403 14:46:22.399009 13619 net.cpp:141] Setting up inception_4a/3x3
I0403 14:46:22.399039 13619 net.cpp:148] Top shape: 24 208 14 14 (978432)
I0403 14:46:22.399054 13619 net.cpp:156] Memory required for data: 869149728
I0403 14:46:22.399070 13619 layer_factory.hpp:77] Creating layer inception_4a/relu_3x3
I0403 14:46:22.399088 13619 net.cpp:91] Creating Layer inception_4a/relu_3x3
I0403 14:46:22.399103 13619 net.cpp:425] inception_4a/relu_3x3 <- inception_4a/3x3
I0403 14:46:22.399122 13619 net.cpp:386] inception_4a/relu_3x3 -> inception_4a/3x3 (in-place)
I0403 14:46:22.399401 13619 net.cpp:141] Setting up inception_4a/relu_3x3
I0403 14:46:22.399427 13619 net.cpp:148] Top shape: 24 208 14 14 (978432)
I0403 14:46:22.399442 13619 net.cpp:156] Memory required for data: 873063456
I0403 14:46:22.399457 13619 layer_factory.hpp:77] Creating layer inception_4a/5x5_reduce
I0403 14:46:22.399482 13619 net.cpp:91] Creating Layer inception_4a/5x5_reduce
I0403 14:46:22.399498 13619 net.cpp:425] inception_4a/5x5_reduce <- pool3/3x3_s2_pool3/3x3_s2_0_split_2
I0403 14:46:22.399518 13619 net.cpp:399] inception_4a/5x5_reduce -> inception_4a/5x5_reduce
I0403 14:46:22.400590 13619 net.cpp:141] Setting up inception_4a/5x5_reduce
I0403 14:46:22.400619 13619 net.cpp:148] Top shape: 24 16 14 14 (75264)
I0403 14:46:22.400635 13619 net.cpp:156] Memory required for data: 873364512
I0403 14:46:22.400652 13619 layer_factory.hpp:77] Creating layer inception_4a/relu_5x5_reduce
I0403 14:46:22.400672 13619 net.cpp:91] Creating Layer inception_4a/relu_5x5_reduce
I0403 14:46:22.400689 13619 net.cpp:425] inception_4a/relu_5x5_reduce <- inception_4a/5x5_reduce
I0403 14:46:22.400707 13619 net.cpp:386] inception_4a/relu_5x5_reduce -> inception_4a/5x5_reduce (in-place)
I0403 14:46:22.400887 13619 net.cpp:141] Setting up inception_4a/relu_5x5_reduce
I0403 14:46:22.400913 13619 net.cpp:148] Top shape: 24 16 14 14 (75264)
I0403 14:46:22.400933 13619 net.cpp:156] Memory required for data: 873665568
I0403 14:46:22.400948 13619 layer_factory.hpp:77] Creating layer inception_4a/5x5
I0403 14:46:22.400966 13619 net.cpp:91] Creating Layer inception_4a/5x5
I0403 14:46:22.400984 13619 net.cpp:425] inception_4a/5x5 <- inception_4a/5x5_reduce
I0403 14:46:22.401005 13619 net.cpp:399] inception_4a/5x5 -> inception_4a/5x5
I0403 14:46:22.402114 13619 net.cpp:141] Setting up inception_4a/5x5
I0403 14:46:22.402143 13619 net.cpp:148] Top shape: 24 48 14 14 (225792)
I0403 14:46:22.402158 13619 net.cpp:156] Memory required for data: 874568736
I0403 14:46:22.402175 13619 layer_factory.hpp:77] Creating layer inception_4a/relu_5x5
I0403 14:46:22.402195 13619 net.cpp:91] Creating Layer inception_4a/relu_5x5
I0403 14:46:22.402212 13619 net.cpp:425] inception_4a/relu_5x5 <- inception_4a/5x5
I0403 14:46:22.402230 13619 net.cpp:386] inception_4a/relu_5x5 -> inception_4a/5x5 (in-place)
I0403 14:46:22.402415 13619 net.cpp:141] Setting up inception_4a/relu_5x5
I0403 14:46:22.402439 13619 net.cpp:148] Top shape: 24 48 14 14 (225792)
I0403 14:46:22.402454 13619 net.cpp:156] Memory required for data: 875471904
I0403 14:46:22.402468 13619 layer_factory.hpp:77] Creating layer inception_4a/pool
I0403 14:46:22.402487 13619 net.cpp:91] Creating Layer inception_4a/pool
I0403 14:46:22.402503 13619 net.cpp:425] inception_4a/pool <- pool3/3x3_s2_pool3/3x3_s2_0_split_3
I0403 14:46:22.402523 13619 net.cpp:399] inception_4a/pool -> inception_4a/pool
I0403 14:46:22.402590 13619 net.cpp:141] Setting up inception_4a/pool
I0403 14:46:22.402614 13619 net.cpp:148] Top shape: 24 480 14 14 (2257920)
I0403 14:46:22.402628 13619 net.cpp:156] Memory required for data: 884503584
I0403 14:46:22.402642 13619 layer_factory.hpp:77] Creating layer inception_4a/pool_proj
I0403 14:46:22.402669 13619 net.cpp:91] Creating Layer inception_4a/pool_proj
I0403 14:46:22.402686 13619 net.cpp:425] inception_4a/pool_proj <- inception_4a/pool
I0403 14:46:22.402705 13619 net.cpp:399] inception_4a/pool_proj -> inception_4a/pool_proj
I0403 14:46:22.403908 13619 net.cpp:141] Setting up inception_4a/pool_proj
I0403 14:46:22.403939 13619 net.cpp:148] Top shape: 24 64 14 14 (301056)
I0403 14:46:22.403970 13619 net.cpp:156] Memory required for data: 885707808
I0403 14:46:22.403990 13619 layer_factory.hpp:77] Creating layer inception_4a/relu_pool_proj
I0403 14:46:22.404007 13619 net.cpp:91] Creating Layer inception_4a/relu_pool_proj
I0403 14:46:22.404024 13619 net.cpp:425] inception_4a/relu_pool_proj <- inception_4a/pool_proj
I0403 14:46:22.404045 13619 net.cpp:386] inception_4a/relu_pool_proj -> inception_4a/pool_proj (in-place)
I0403 14:46:22.404336 13619 net.cpp:141] Setting up inception_4a/relu_pool_proj
I0403 14:46:22.404366 13619 net.cpp:148] Top shape: 24 64 14 14 (301056)
I0403 14:46:22.404382 13619 net.cpp:156] Memory required for data: 886912032
I0403 14:46:22.404397 13619 layer_factory.hpp:77] Creating layer inception_4a/output
I0403 14:46:22.404414 13619 net.cpp:91] Creating Layer inception_4a/output
I0403 14:46:22.404429 13619 net.cpp:425] inception_4a/output <- inception_4a/1x1
I0403 14:46:22.404446 13619 net.cpp:425] inception_4a/output <- inception_4a/3x3
I0403 14:46:22.404463 13619 net.cpp:425] inception_4a/output <- inception_4a/5x5
I0403 14:46:22.404479 13619 net.cpp:425] inception_4a/output <- inception_4a/pool_proj
I0403 14:46:22.404495 13619 net.cpp:399] inception_4a/output -> inception_4a/output
I0403 14:46:22.404554 13619 net.cpp:141] Setting up inception_4a/output
I0403 14:46:22.404579 13619 net.cpp:148] Top shape: 24 512 14 14 (2408448)
I0403 14:46:22.404594 13619 net.cpp:156] Memory required for data: 896545824
I0403 14:46:22.404608 13619 layer_factory.hpp:77] Creating layer inception_4a/output_inception_4a/output_0_split
I0403 14:46:22.404628 13619 net.cpp:91] Creating Layer inception_4a/output_inception_4a/output_0_split
I0403 14:46:22.404645 13619 net.cpp:425] inception_4a/output_inception_4a/output_0_split <- inception_4a/output
I0403 14:46:22.404662 13619 net.cpp:399] inception_4a/output_inception_4a/output_0_split -> inception_4a/output_inception_4a/output_0_split_0
I0403 14:46:22.404682 13619 net.cpp:399] inception_4a/output_inception_4a/output_0_split -> inception_4a/output_inception_4a/output_0_split_1
I0403 14:46:22.404706 13619 net.cpp:399] inception_4a/output_inception_4a/output_0_split -> inception_4a/output_inception_4a/output_0_split_2
I0403 14:46:22.404727 13619 net.cpp:399] inception_4a/output_inception_4a/output_0_split -> inception_4a/output_inception_4a/output_0_split_3
I0403 14:46:22.404747 13619 net.cpp:399] inception_4a/output_inception_4a/output_0_split -> inception_4a/output_inception_4a/output_0_split_4
I0403 14:46:22.404842 13619 net.cpp:141] Setting up inception_4a/output_inception_4a/output_0_split
I0403 14:46:22.404866 13619 net.cpp:148] Top shape: 24 512 14 14 (2408448)
I0403 14:46:22.404883 13619 net.cpp:148] Top shape: 24 512 14 14 (2408448)
I0403 14:46:22.404898 13619 net.cpp:148] Top shape: 24 512 14 14 (2408448)
I0403 14:46:22.404913 13619 net.cpp:148] Top shape: 24 512 14 14 (2408448)
I0403 14:46:22.404928 13619 net.cpp:148] Top shape: 24 512 14 14 (2408448)
I0403 14:46:22.404942 13619 net.cpp:156] Memory required for data: 944714784
I0403 14:46:22.404956 13619 layer_factory.hpp:77] Creating layer loss1/ave_pool
I0403 14:46:22.404973 13619 net.cpp:91] Creating Layer loss1/ave_pool
I0403 14:46:22.404989 13619 net.cpp:425] loss1/ave_pool <- inception_4a/output_inception_4a/output_0_split_0
I0403 14:46:22.405009 13619 net.cpp:399] loss1/ave_pool -> loss1/ave_pool
I0403 14:46:22.405220 13619 net.cpp:141] Setting up loss1/ave_pool
I0403 14:46:22.405248 13619 net.cpp:148] Top shape: 24 512 4 4 (196608)
I0403 14:46:22.405264 13619 net.cpp:156] Memory required for data: 945501216
I0403 14:46:22.405279 13619 layer_factory.hpp:77] Creating layer loss1/conv
I0403 14:46:22.405303 13619 net.cpp:91] Creating Layer loss1/conv
I0403 14:46:22.405321 13619 net.cpp:425] loss1/conv <- loss1/ave_pool
I0403 14:46:22.405339 13619 net.cpp:399] loss1/conv -> loss1/conv
I0403 14:46:22.406795 13619 net.cpp:141] Setting up loss1/conv
I0403 14:46:22.406822 13619 net.cpp:148] Top shape: 24 128 4 4 (49152)
I0403 14:46:22.406852 13619 net.cpp:156] Memory required for data: 945697824
I0403 14:46:22.406872 13619 layer_factory.hpp:77] Creating layer loss1/relu_conv
I0403 14:46:22.406890 13619 net.cpp:91] Creating Layer loss1/relu_conv
I0403 14:46:22.406906 13619 net.cpp:425] loss1/relu_conv <- loss1/conv
I0403 14:46:22.406926 13619 net.cpp:386] loss1/relu_conv -> loss1/conv (in-place)
I0403 14:46:22.407214 13619 net.cpp:141] Setting up loss1/relu_conv
I0403 14:46:22.407243 13619 net.cpp:148] Top shape: 24 128 4 4 (49152)
I0403 14:46:22.407256 13619 net.cpp:156] Memory required for data: 945894432
I0403 14:46:22.407271 13619 layer_factory.hpp:77] Creating layer loss1/fc
I0403 14:46:22.407297 13619 net.cpp:91] Creating Layer loss1/fc
I0403 14:46:22.407315 13619 net.cpp:425] loss1/fc <- loss1/conv
I0403 14:46:22.407335 13619 net.cpp:399] loss1/fc -> loss1/fc
I0403 14:46:22.425333 13619 net.cpp:141] Setting up loss1/fc
I0403 14:46:22.425389 13619 net.cpp:148] Top shape: 24 1024 (24576)
I0403 14:46:22.425403 13619 net.cpp:156] Memory required for data: 945992736
I0403 14:46:22.425423 13619 layer_factory.hpp:77] Creating layer loss1/relu_fc
I0403 14:46:22.425442 13619 net.cpp:91] Creating Layer loss1/relu_fc
I0403 14:46:22.425459 13619 net.cpp:425] loss1/relu_fc <- loss1/fc
I0403 14:46:22.425477 13619 net.cpp:386] loss1/relu_fc -> loss1/fc (in-place)
I0403 14:46:22.425688 13619 net.cpp:141] Setting up loss1/relu_fc
I0403 14:46:22.425714 13619 net.cpp:148] Top shape: 24 1024 (24576)
I0403 14:46:22.425729 13619 net.cpp:156] Memory required for data: 946091040
I0403 14:46:22.425743 13619 layer_factory.hpp:77] Creating layer loss1/drop_fc
I0403 14:46:22.425772 13619 net.cpp:91] Creating Layer loss1/drop_fc
I0403 14:46:22.425789 13619 net.cpp:425] loss1/drop_fc <- loss1/fc
I0403 14:46:22.425809 13619 net.cpp:386] loss1/drop_fc -> loss1/fc (in-place)
I0403 14:46:22.425861 13619 net.cpp:141] Setting up loss1/drop_fc
I0403 14:46:22.425884 13619 net.cpp:148] Top shape: 24 1024 (24576)
I0403 14:46:22.425899 13619 net.cpp:156] Memory required for data: 946189344
I0403 14:46:22.425914 13619 layer_factory.hpp:77] Creating layer loss1/classifier_plantvillage
I0403 14:46:22.425936 13619 net.cpp:91] Creating Layer loss1/classifier_plantvillage
I0403 14:46:22.425953 13619 net.cpp:425] loss1/classifier_plantvillage <- loss1/fc
I0403 14:46:22.425973 13619 net.cpp:399] loss1/classifier_plantvillage -> loss1/classifier_plantvillage
I0403 14:46:22.426911 13619 net.cpp:141] Setting up loss1/classifier_plantvillage
I0403 14:46:22.426939 13619 net.cpp:148] Top shape: 24 38 (912)
I0403 14:46:22.426954 13619 net.cpp:156] Memory required for data: 946192992
I0403 14:46:22.426972 13619 layer_factory.hpp:77] Creating layer loss1/classifier_plantvillage_loss1/classifier_plantvillage_0_split
I0403 14:46:22.426990 13619 net.cpp:91] Creating Layer loss1/classifier_plantvillage_loss1/classifier_plantvillage_0_split
I0403 14:46:22.427005 13619 net.cpp:425] loss1/classifier_plantvillage_loss1/classifier_plantvillage_0_split <- loss1/classifier_plantvillage
I0403 14:46:22.427023 13619 net.cpp:399] loss1/classifier_plantvillage_loss1/classifier_plantvillage_0_split -> loss1/classifier_plantvillage_loss1/classifier_plantvillage_0_split_0
I0403 14:46:22.427045 13619 net.cpp:399] loss1/classifier_plantvillage_loss1/classifier_plantvillage_0_split -> loss1/classifier_plantvillage_loss1/classifier_plantvillage_0_split_1
I0403 14:46:22.427065 13619 net.cpp:399] loss1/classifier_plantvillage_loss1/classifier_plantvillage_0_split -> loss1/classifier_plantvillage_loss1/classifier_plantvillage_0_split_2
I0403 14:46:22.427131 13619 net.cpp:141] Setting up loss1/classifier_plantvillage_loss1/classifier_plantvillage_0_split
I0403 14:46:22.427153 13619 net.cpp:148] Top shape: 24 38 (912)
I0403 14:46:22.427170 13619 net.cpp:148] Top shape: 24 38 (912)
I0403 14:46:22.427183 13619 net.cpp:148] Top shape: 24 38 (912)
I0403 14:46:22.427197 13619 net.cpp:156] Memory required for data: 946203936
I0403 14:46:22.427211 13619 layer_factory.hpp:77] Creating layer inception_4b/1x1
I0403 14:46:22.427234 13619 net.cpp:91] Creating Layer inception_4b/1x1
I0403 14:46:22.427278 13619 net.cpp:425] inception_4b/1x1 <- inception_4a/output_inception_4a/output_0_split_1
I0403 14:46:22.427300 13619 net.cpp:399] inception_4b/1x1 -> inception_4b/1x1
I0403 14:46:22.428977 13619 net.cpp:141] Setting up inception_4b/1x1
I0403 14:46:22.429004 13619 net.cpp:148] Top shape: 24 160 14 14 (752640)
I0403 14:46:22.429020 13619 net.cpp:156] Memory required for data: 949214496
I0403 14:46:22.429038 13619 layer_factory.hpp:77] Creating layer inception_4b/relu_1x1
I0403 14:46:22.429055 13619 net.cpp:91] Creating Layer inception_4b/relu_1x1
I0403 14:46:22.429071 13619 net.cpp:425] inception_4b/relu_1x1 <- inception_4b/1x1
I0403 14:46:22.429090 13619 net.cpp:386] inception_4b/relu_1x1 -> inception_4b/1x1 (in-place)
I0403 14:46:22.429285 13619 net.cpp:141] Setting up inception_4b/relu_1x1
I0403 14:46:22.429311 13619 net.cpp:148] Top shape: 24 160 14 14 (752640)
I0403 14:46:22.429325 13619 net.cpp:156] Memory required for data: 952225056
I0403 14:46:22.429339 13619 layer_factory.hpp:77] Creating layer inception_4b/3x3_reduce
I0403 14:46:22.429361 13619 net.cpp:91] Creating Layer inception_4b/3x3_reduce
I0403 14:46:22.429379 13619 net.cpp:425] inception_4b/3x3_reduce <- inception_4a/output_inception_4a/output_0_split_2
I0403 14:46:22.429404 13619 net.cpp:399] inception_4b/3x3_reduce -> inception_4b/3x3_reduce
I0403 14:46:22.430769 13619 net.cpp:141] Setting up inception_4b/3x3_reduce
I0403 14:46:22.430796 13619 net.cpp:148] Top shape: 24 112 14 14 (526848)
I0403 14:46:22.430812 13619 net.cpp:156] Memory required for data: 954332448
I0403 14:46:22.430830 13619 layer_factory.hpp:77] Creating layer inception_4b/relu_3x3_reduce
I0403 14:46:22.430850 13619 net.cpp:91] Creating Layer inception_4b/relu_3x3_reduce
I0403 14:46:22.430866 13619 net.cpp:425] inception_4b/relu_3x3_reduce <- inception_4b/3x3_reduce
I0403 14:46:22.430882 13619 net.cpp:386] inception_4b/relu_3x3_reduce -> inception_4b/3x3_reduce (in-place)
I0403 14:46:22.431169 13619 net.cpp:141] Setting up inception_4b/relu_3x3_reduce
I0403 14:46:22.431195 13619 net.cpp:148] Top shape: 24 112 14 14 (526848)
I0403 14:46:22.431210 13619 net.cpp:156] Memory required for data: 956439840
I0403 14:46:22.431223 13619 layer_factory.hpp:77] Creating layer inception_4b/3x3
I0403 14:46:22.431246 13619 net.cpp:91] Creating Layer inception_4b/3x3
I0403 14:46:22.431263 13619 net.cpp:425] inception_4b/3x3 <- inception_4b/3x3_reduce
I0403 14:46:22.431283 13619 net.cpp:399] inception_4b/3x3 -> inception_4b/3x3
I0403 14:46:22.434281 13619 net.cpp:141] Setting up inception_4b/3x3
I0403 14:46:22.434314 13619 net.cpp:148] Top shape: 24 224 14 14 (1053696)
I0403 14:46:22.434330 13619 net.cpp:156] Memory required for data: 960654624
I0403 14:46:22.434347 13619 layer_factory.hpp:77] Creating layer inception_4b/relu_3x3
I0403 14:46:22.434365 13619 net.cpp:91] Creating Layer inception_4b/relu_3x3
I0403 14:46:22.434381 13619 net.cpp:425] inception_4b/relu_3x3 <- inception_4b/3x3
I0403 14:46:22.434399 13619 net.cpp:386] inception_4b/relu_3x3 -> inception_4b/3x3 (in-place)
I0403 14:46:22.434593 13619 net.cpp:141] Setting up inception_4b/relu_3x3
I0403 14:46:22.434619 13619 net.cpp:148] Top shape: 24 224 14 14 (1053696)
I0403 14:46:22.434634 13619 net.cpp:156] Memory required for data: 964869408
I0403 14:46:22.434648 13619 layer_factory.hpp:77] Creating layer inception_4b/5x5_reduce
I0403 14:46:22.434674 13619 net.cpp:91] Creating Layer inception_4b/5x5_reduce
I0403 14:46:22.434691 13619 net.cpp:425] inception_4b/5x5_reduce <- inception_4a/output_inception_4a/output_0_split_3
I0403 14:46:22.434712 13619 net.cpp:399] inception_4b/5x5_reduce -> inception_4b/5x5_reduce
I0403 14:46:22.435801 13619 net.cpp:141] Setting up inception_4b/5x5_reduce
I0403 14:46:22.435829 13619 net.cpp:148] Top shape: 24 24 14 14 (112896)
I0403 14:46:22.435844 13619 net.cpp:156] Memory required for data: 965320992
I0403 14:46:22.435863 13619 layer_factory.hpp:77] Creating layer inception_4b/relu_5x5_reduce
I0403 14:46:22.435883 13619 net.cpp:91] Creating Layer inception_4b/relu_5x5_reduce
I0403 14:46:22.435914 13619 net.cpp:425] inception_4b/relu_5x5_reduce <- inception_4b/5x5_reduce
I0403 14:46:22.435931 13619 net.cpp:386] inception_4b/relu_5x5_reduce -> inception_4b/5x5_reduce (in-place)
I0403 14:46:22.436115 13619 net.cpp:141] Setting up inception_4b/relu_5x5_reduce
I0403 14:46:22.436141 13619 net.cpp:148] Top shape: 24 24 14 14 (112896)
I0403 14:46:22.436156 13619 net.cpp:156] Memory required for data: 965772576
I0403 14:46:22.436170 13619 layer_factory.hpp:77] Creating layer inception_4b/5x5
I0403 14:46:22.436192 13619 net.cpp:91] Creating Layer inception_4b/5x5
I0403 14:46:22.436210 13619 net.cpp:425] inception_4b/5x5 <- inception_4b/5x5_reduce
I0403 14:46:22.436228 13619 net.cpp:399] inception_4b/5x5 -> inception_4b/5x5
I0403 14:46:22.437454 13619 net.cpp:141] Setting up inception_4b/5x5
I0403 14:46:22.437481 13619 net.cpp:148] Top shape: 24 64 14 14 (301056)
I0403 14:46:22.437496 13619 net.cpp:156] Memory required for data: 966976800
I0403 14:46:22.437515 13619 layer_factory.hpp:77] Creating layer inception_4b/relu_5x5
I0403 14:46:22.437532 13619 net.cpp:91] Creating Layer inception_4b/relu_5x5
I0403 14:46:22.437552 13619 net.cpp:425] inception_4b/relu_5x5 <- inception_4b/5x5
I0403 14:46:22.437572 13619 net.cpp:386] inception_4b/relu_5x5 -> inception_4b/5x5 (in-place)
I0403 14:46:22.437857 13619 net.cpp:141] Setting up inception_4b/relu_5x5
I0403 14:46:22.437885 13619 net.cpp:148] Top shape: 24 64 14 14 (301056)
I0403 14:46:22.437899 13619 net.cpp:156] Memory required for data: 968181024
I0403 14:46:22.437913 13619 layer_factory.hpp:77] Creating layer inception_4b/pool
I0403 14:46:22.437932 13619 net.cpp:91] Creating Layer inception_4b/pool
I0403 14:46:22.437948 13619 net.cpp:425] inception_4b/pool <- inception_4a/output_inception_4a/output_0_split_4
I0403 14:46:22.437968 13619 net.cpp:399] inception_4b/pool -> inception_4b/pool
I0403 14:46:22.438032 13619 net.cpp:141] Setting up inception_4b/pool
I0403 14:46:22.438056 13619 net.cpp:148] Top shape: 24 512 14 14 (2408448)
I0403 14:46:22.438071 13619 net.cpp:156] Memory required for data: 977814816
I0403 14:46:22.438083 13619 layer_factory.hpp:77] Creating layer inception_4b/pool_proj
I0403 14:46:22.438109 13619 net.cpp:91] Creating Layer inception_4b/pool_proj
I0403 14:46:22.438127 13619 net.cpp:425] inception_4b/pool_proj <- inception_4b/pool
I0403 14:46:22.438145 13619 net.cpp:399] inception_4b/pool_proj -> inception_4b/pool_proj
I0403 14:46:22.439354 13619 net.cpp:141] Setting up inception_4b/pool_proj
I0403 14:46:22.439381 13619 net.cpp:148] Top shape: 24 64 14 14 (301056)
I0403 14:46:22.439398 13619 net.cpp:156] Memory required for data: 979019040
I0403 14:46:22.439414 13619 layer_factory.hpp:77] Creating layer inception_4b/relu_pool_proj
I0403 14:46:22.439435 13619 net.cpp:91] Creating Layer inception_4b/relu_pool_proj
I0403 14:46:22.439451 13619 net.cpp:425] inception_4b/relu_pool_proj <- inception_4b/pool_proj
I0403 14:46:22.439467 13619 net.cpp:386] inception_4b/relu_pool_proj -> inception_4b/pool_proj (in-place)
I0403 14:46:22.439652 13619 net.cpp:141] Setting up inception_4b/relu_pool_proj
I0403 14:46:22.439679 13619 net.cpp:148] Top shape: 24 64 14 14 (301056)
I0403 14:46:22.439695 13619 net.cpp:156] Memory required for data: 980223264
I0403 14:46:22.439710 13619 layer_factory.hpp:77] Creating layer inception_4b/output
I0403 14:46:22.439726 13619 net.cpp:91] Creating Layer inception_4b/output
I0403 14:46:22.439741 13619 net.cpp:425] inception_4b/output <- inception_4b/1x1
I0403 14:46:22.439757 13619 net.cpp:425] inception_4b/output <- inception_4b/3x3
I0403 14:46:22.439774 13619 net.cpp:425] inception_4b/output <- inception_4b/5x5
I0403 14:46:22.439788 13619 net.cpp:425] inception_4b/output <- inception_4b/pool_proj
I0403 14:46:22.439805 13619 net.cpp:399] inception_4b/output -> inception_4b/output
I0403 14:46:22.439851 13619 net.cpp:141] Setting up inception_4b/output
I0403 14:46:22.439874 13619 net.cpp:148] Top shape: 24 512 14 14 (2408448)
I0403 14:46:22.439888 13619 net.cpp:156] Memory required for data: 989857056
I0403 14:46:22.439916 13619 layer_factory.hpp:77] Creating layer inception_4b/output_inception_4b/output_0_split
I0403 14:46:22.439934 13619 net.cpp:91] Creating Layer inception_4b/output_inception_4b/output_0_split
I0403 14:46:22.439954 13619 net.cpp:425] inception_4b/output_inception_4b/output_0_split <- inception_4b/output
I0403 14:46:22.439970 13619 net.cpp:399] inception_4b/output_inception_4b/output_0_split -> inception_4b/output_inception_4b/output_0_split_0
I0403 14:46:22.439990 13619 net.cpp:399] inception_4b/output_inception_4b/output_0_split -> inception_4b/output_inception_4b/output_0_split_1
I0403 14:46:22.440009 13619 net.cpp:399] inception_4b/output_inception_4b/output_0_split -> inception_4b/output_inception_4b/output_0_split_2
I0403 14:46:22.440029 13619 net.cpp:399] inception_4b/output_inception_4b/output_0_split -> inception_4b/output_inception_4b/output_0_split_3
I0403 14:46:22.440114 13619 net.cpp:141] Setting up inception_4b/output_inception_4b/output_0_split
I0403 14:46:22.440137 13619 net.cpp:148] Top shape: 24 512 14 14 (2408448)
I0403 14:46:22.440153 13619 net.cpp:148] Top shape: 24 512 14 14 (2408448)
I0403 14:46:22.440168 13619 net.cpp:148] Top shape: 24 512 14 14 (2408448)
I0403 14:46:22.440183 13619 net.cpp:148] Top shape: 24 512 14 14 (2408448)
I0403 14:46:22.440196 13619 net.cpp:156] Memory required for data: 1028392224
I0403 14:46:22.440210 13619 layer_factory.hpp:77] Creating layer inception_4c/1x1
I0403 14:46:22.440244 13619 net.cpp:91] Creating Layer inception_4c/1x1
I0403 14:46:22.440261 13619 net.cpp:425] inception_4c/1x1 <- inception_4b/output_inception_4b/output_0_split_0
I0403 14:46:22.440280 13619 net.cpp:399] inception_4c/1x1 -> inception_4c/1x1
I0403 14:46:22.441681 13619 net.cpp:141] Setting up inception_4c/1x1
I0403 14:46:22.441712 13619 net.cpp:148] Top shape: 24 128 14 14 (602112)
I0403 14:46:22.441728 13619 net.cpp:156] Memory required for data: 1030800672
I0403 14:46:22.441746 13619 layer_factory.hpp:77] Creating layer inception_4c/relu_1x1
I0403 14:46:22.441763 13619 net.cpp:91] Creating Layer inception_4c/relu_1x1
I0403 14:46:22.441777 13619 net.cpp:425] inception_4c/relu_1x1 <- inception_4c/1x1
I0403 14:46:22.441793 13619 net.cpp:386] inception_4c/relu_1x1 -> inception_4c/1x1 (in-place)
I0403 14:46:22.441974 13619 net.cpp:141] Setting up inception_4c/relu_1x1
I0403 14:46:22.441998 13619 net.cpp:148] Top shape: 24 128 14 14 (602112)
I0403 14:46:22.442013 13619 net.cpp:156] Memory required for data: 1033209120
I0403 14:46:22.442026 13619 layer_factory.hpp:77] Creating layer inception_4c/3x3_reduce
I0403 14:46:22.442047 13619 net.cpp:91] Creating Layer inception_4c/3x3_reduce
I0403 14:46:22.442064 13619 net.cpp:425] inception_4c/3x3_reduce <- inception_4b/output_inception_4b/output_0_split_1
I0403 14:46:22.442083 13619 net.cpp:399] inception_4c/3x3_reduce -> inception_4c/3x3_reduce
I0403 14:46:22.443979 13619 net.cpp:141] Setting up inception_4c/3x3_reduce
I0403 14:46:22.444006 13619 net.cpp:148] Top shape: 24 128 14 14 (602112)
I0403 14:46:22.444021 13619 net.cpp:156] Memory required for data: 1035617568
I0403 14:46:22.444038 13619 layer_factory.hpp:77] Creating layer inception_4c/relu_3x3_reduce
I0403 14:46:22.444057 13619 net.cpp:91] Creating Layer inception_4c/relu_3x3_reduce
I0403 14:46:22.444073 13619 net.cpp:425] inception_4c/relu_3x3_reduce <- inception_4c/3x3_reduce
I0403 14:46:22.444089 13619 net.cpp:386] inception_4c/relu_3x3_reduce -> inception_4c/3x3_reduce (in-place)
I0403 14:46:22.444368 13619 net.cpp:141] Setting up inception_4c/relu_3x3_reduce
I0403 14:46:22.444394 13619 net.cpp:148] Top shape: 24 128 14 14 (602112)
I0403 14:46:22.444408 13619 net.cpp:156] Memory required for data: 1038026016
I0403 14:46:22.444422 13619 layer_factory.hpp:77] Creating layer inception_4c/3x3
I0403 14:46:22.444445 13619 net.cpp:91] Creating Layer inception_4c/3x3
I0403 14:46:22.444463 13619 net.cpp:425] inception_4c/3x3 <- inception_4c/3x3_reduce
I0403 14:46:22.444483 13619 net.cpp:399] inception_4c/3x3 -> inception_4c/3x3
I0403 14:46:22.448007 13619 net.cpp:141] Setting up inception_4c/3x3
I0403 14:46:22.448048 13619 net.cpp:148] Top shape: 24 256 14 14 (1204224)
I0403 14:46:22.448065 13619 net.cpp:156] Memory required for data: 1042842912
I0403 14:46:22.448096 13619 layer_factory.hpp:77] Creating layer inception_4c/relu_3x3
I0403 14:46:22.448117 13619 net.cpp:91] Creating Layer inception_4c/relu_3x3
I0403 14:46:22.448134 13619 net.cpp:425] inception_4c/relu_3x3 <- inception_4c/3x3
I0403 14:46:22.448150 13619 net.cpp:386] inception_4c/relu_3x3 -> inception_4c/3x3 (in-place)
I0403 14:46:22.448325 13619 net.cpp:141] Setting up inception_4c/relu_3x3
I0403 14:46:22.448350 13619 net.cpp:148] Top shape: 24 256 14 14 (1204224)
I0403 14:46:22.448364 13619 net.cpp:156] Memory required for data: 1047659808
I0403 14:46:22.448377 13619 layer_factory.hpp:77] Creating layer inception_4c/5x5_reduce
I0403 14:46:22.448398 13619 net.cpp:91] Creating Layer inception_4c/5x5_reduce
I0403 14:46:22.448415 13619 net.cpp:425] inception_4c/5x5_reduce <- inception_4b/output_inception_4b/output_0_split_2
I0403 14:46:22.448434 13619 net.cpp:399] inception_4c/5x5_reduce -> inception_4c/5x5_reduce
I0403 14:46:22.449550 13619 net.cpp:141] Setting up inception_4c/5x5_reduce
I0403 14:46:22.449578 13619 net.cpp:148] Top shape: 24 24 14 14 (112896)
I0403 14:46:22.449592 13619 net.cpp:156] Memory required for data: 1048111392
I0403 14:46:22.449610 13619 layer_factory.hpp:77] Creating layer inception_4c/relu_5x5_reduce
I0403 14:46:22.449630 13619 net.cpp:91] Creating Layer inception_4c/relu_5x5_reduce
I0403 14:46:22.449646 13619 net.cpp:425] inception_4c/relu_5x5_reduce <- inception_4c/5x5_reduce
I0403 14:46:22.449663 13619 net.cpp:386] inception_4c/relu_5x5_reduce -> inception_4c/5x5_reduce (in-place)
I0403 14:46:22.449851 13619 net.cpp:141] Setting up inception_4c/relu_5x5_reduce
I0403 14:46:22.449875 13619 net.cpp:148] Top shape: 24 24 14 14 (112896)
I0403 14:46:22.449889 13619 net.cpp:156] Memory required for data: 1048562976
I0403 14:46:22.449903 13619 layer_factory.hpp:77] Creating layer inception_4c/5x5
I0403 14:46:22.449926 13619 net.cpp:91] Creating Layer inception_4c/5x5
I0403 14:46:22.449944 13619 net.cpp:425] inception_4c/5x5 <- inception_4c/5x5_reduce
I0403 14:46:22.449961 13619 net.cpp:399] inception_4c/5x5 -> inception_4c/5x5
I0403 14:46:22.451208 13619 net.cpp:141] Setting up inception_4c/5x5
I0403 14:46:22.451238 13619 net.cpp:148] Top shape: 24 64 14 14 (301056)
I0403 14:46:22.451254 13619 net.cpp:156] Memory required for data: 1049767200
I0403 14:46:22.451272 13619 layer_factory.hpp:77] Creating layer inception_4c/relu_5x5
I0403 14:46:22.451289 13619 net.cpp:91] Creating Layer inception_4c/relu_5x5
I0403 14:46:22.451305 13619 net.cpp:425] inception_4c/relu_5x5 <- inception_4c/5x5
I0403 14:46:22.451321 13619 net.cpp:386] inception_4c/relu_5x5 -> inception_4c/5x5 (in-place)
I0403 14:46:22.451617 13619 net.cpp:141] Setting up inception_4c/relu_5x5
I0403 14:46:22.451647 13619 net.cpp:148] Top shape: 24 64 14 14 (301056)
I0403 14:46:22.451663 13619 net.cpp:156] Memory required for data: 1050971424
I0403 14:46:22.451676 13619 layer_factory.hpp:77] Creating layer inception_4c/pool
I0403 14:46:22.451694 13619 net.cpp:91] Creating Layer inception_4c/pool
I0403 14:46:22.451709 13619 net.cpp:425] inception_4c/pool <- inception_4b/output_inception_4b/output_0_split_3
I0403 14:46:22.451726 13619 net.cpp:399] inception_4c/pool -> inception_4c/pool
I0403 14:46:22.451792 13619 net.cpp:141] Setting up inception_4c/pool
I0403 14:46:22.451815 13619 net.cpp:148] Top shape: 24 512 14 14 (2408448)
I0403 14:46:22.451830 13619 net.cpp:156] Memory required for data: 1060605216
I0403 14:46:22.451843 13619 layer_factory.hpp:77] Creating layer inception_4c/pool_proj
I0403 14:46:22.451865 13619 net.cpp:91] Creating Layer inception_4c/pool_proj
I0403 14:46:22.451882 13619 net.cpp:425] inception_4c/pool_proj <- inception_4c/pool
I0403 14:46:22.451902 13619 net.cpp:399] inception_4c/pool_proj -> inception_4c/pool_proj
I0403 14:46:22.453114 13619 net.cpp:141] Setting up inception_4c/pool_proj
I0403 14:46:22.453142 13619 net.cpp:148] Top shape: 24 64 14 14 (301056)
I0403 14:46:22.453171 13619 net.cpp:156] Memory required for data: 1061809440
I0403 14:46:22.453191 13619 layer_factory.hpp:77] Creating layer inception_4c/relu_pool_proj
I0403 14:46:22.453212 13619 net.cpp:91] Creating Layer inception_4c/relu_pool_proj
I0403 14:46:22.453228 13619 net.cpp:425] inception_4c/relu_pool_proj <- inception_4c/pool_proj
I0403 14:46:22.453245 13619 net.cpp:386] inception_4c/relu_pool_proj -> inception_4c/pool_proj (in-place)
I0403 14:46:22.453429 13619 net.cpp:141] Setting up inception_4c/relu_pool_proj
I0403 14:46:22.453457 13619 net.cpp:148] Top shape: 24 64 14 14 (301056)
I0403 14:46:22.453472 13619 net.cpp:156] Memory required for data: 1063013664
I0403 14:46:22.453486 13619 layer_factory.hpp:77] Creating layer inception_4c/output
I0403 14:46:22.453502 13619 net.cpp:91] Creating Layer inception_4c/output
I0403 14:46:22.453517 13619 net.cpp:425] inception_4c/output <- inception_4c/1x1
I0403 14:46:22.453532 13619 net.cpp:425] inception_4c/output <- inception_4c/3x3
I0403 14:46:22.453553 13619 net.cpp:425] inception_4c/output <- inception_4c/5x5
I0403 14:46:22.453570 13619 net.cpp:425] inception_4c/output <- inception_4c/pool_proj
I0403 14:46:22.453586 13619 net.cpp:399] inception_4c/output -> inception_4c/output
I0403 14:46:22.453634 13619 net.cpp:141] Setting up inception_4c/output
I0403 14:46:22.453658 13619 net.cpp:148] Top shape: 24 512 14 14 (2408448)
I0403 14:46:22.453672 13619 net.cpp:156] Memory required for data: 1072647456
I0403 14:46:22.453686 13619 layer_factory.hpp:77] Creating layer inception_4c/output_inception_4c/output_0_split
I0403 14:46:22.453703 13619 net.cpp:91] Creating Layer inception_4c/output_inception_4c/output_0_split
I0403 14:46:22.453718 13619 net.cpp:425] inception_4c/output_inception_4c/output_0_split <- inception_4c/output
I0403 14:46:22.453737 13619 net.cpp:399] inception_4c/output_inception_4c/output_0_split -> inception_4c/output_inception_4c/output_0_split_0
I0403 14:46:22.453758 13619 net.cpp:399] inception_4c/output_inception_4c/output_0_split -> inception_4c/output_inception_4c/output_0_split_1
I0403 14:46:22.453778 13619 net.cpp:399] inception_4c/output_inception_4c/output_0_split -> inception_4c/output_inception_4c/output_0_split_2
I0403 14:46:22.453796 13619 net.cpp:399] inception_4c/output_inception_4c/output_0_split -> inception_4c/output_inception_4c/output_0_split_3
I0403 14:46:22.453881 13619 net.cpp:141] Setting up inception_4c/output_inception_4c/output_0_split
I0403 14:46:22.453904 13619 net.cpp:148] Top shape: 24 512 14 14 (2408448)
I0403 14:46:22.453919 13619 net.cpp:148] Top shape: 24 512 14 14 (2408448)
I0403 14:46:22.453935 13619 net.cpp:148] Top shape: 24 512 14 14 (2408448)
I0403 14:46:22.453950 13619 net.cpp:148] Top shape: 24 512 14 14 (2408448)
I0403 14:46:22.453963 13619 net.cpp:156] Memory required for data: 1111182624
I0403 14:46:22.453977 13619 layer_factory.hpp:77] Creating layer inception_4d/1x1
I0403 14:46:22.453999 13619 net.cpp:91] Creating Layer inception_4d/1x1
I0403 14:46:22.454017 13619 net.cpp:425] inception_4d/1x1 <- inception_4c/output_inception_4c/output_0_split_0
I0403 14:46:22.454038 13619 net.cpp:399] inception_4d/1x1 -> inception_4d/1x1
I0403 14:46:22.455417 13619 net.cpp:141] Setting up inception_4d/1x1
I0403 14:46:22.455446 13619 net.cpp:148] Top shape: 24 112 14 14 (526848)
I0403 14:46:22.455461 13619 net.cpp:156] Memory required for data: 1113290016
I0403 14:46:22.455477 13619 layer_factory.hpp:77] Creating layer inception_4d/relu_1x1
I0403 14:46:22.455495 13619 net.cpp:91] Creating Layer inception_4d/relu_1x1
I0403 14:46:22.455510 13619 net.cpp:425] inception_4d/relu_1x1 <- inception_4d/1x1
I0403 14:46:22.455529 13619 net.cpp:386] inception_4d/relu_1x1 -> inception_4d/1x1 (in-place)
I0403 14:46:22.455716 13619 net.cpp:141] Setting up inception_4d/relu_1x1
I0403 14:46:22.455741 13619 net.cpp:148] Top shape: 24 112 14 14 (526848)
I0403 14:46:22.455756 13619 net.cpp:156] Memory required for data: 1115397408
I0403 14:46:22.455771 13619 layer_factory.hpp:77] Creating layer inception_4d/3x3_reduce
I0403 14:46:22.455807 13619 net.cpp:91] Creating Layer inception_4d/3x3_reduce
I0403 14:46:22.455826 13619 net.cpp:425] inception_4d/3x3_reduce <- inception_4c/output_inception_4c/output_0_split_1
I0403 14:46:22.455847 13619 net.cpp:399] inception_4d/3x3_reduce -> inception_4d/3x3_reduce
I0403 14:46:22.457346 13619 net.cpp:141] Setting up inception_4d/3x3_reduce
I0403 14:46:22.457373 13619 net.cpp:148] Top shape: 24 144 14 14 (677376)
I0403 14:46:22.457388 13619 net.cpp:156] Memory required for data: 1118106912
I0403 14:46:22.457408 13619 layer_factory.hpp:77] Creating layer inception_4d/relu_3x3_reduce
I0403 14:46:22.457427 13619 net.cpp:91] Creating Layer inception_4d/relu_3x3_reduce
I0403 14:46:22.457442 13619 net.cpp:425] inception_4d/relu_3x3_reduce <- inception_4d/3x3_reduce
I0403 14:46:22.457459 13619 net.cpp:386] inception_4d/relu_3x3_reduce -> inception_4d/3x3_reduce (in-place)
I0403 14:46:22.457752 13619 net.cpp:141] Setting up inception_4d/relu_3x3_reduce
I0403 14:46:22.457779 13619 net.cpp:148] Top shape: 24 144 14 14 (677376)
I0403 14:46:22.457794 13619 net.cpp:156] Memory required for data: 1120816416
I0403 14:46:22.457809 13619 layer_factory.hpp:77] Creating layer inception_4d/3x3
I0403 14:46:22.457833 13619 net.cpp:91] Creating Layer inception_4d/3x3
I0403 14:46:22.457849 13619 net.cpp:425] inception_4d/3x3 <- inception_4d/3x3_reduce
I0403 14:46:22.457867 13619 net.cpp:399] inception_4d/3x3 -> inception_4d/3x3
I0403 14:46:22.462141 13619 net.cpp:141] Setting up inception_4d/3x3
I0403 14:46:22.462170 13619 net.cpp:148] Top shape: 24 288 14 14 (1354752)
I0403 14:46:22.462187 13619 net.cpp:156] Memory required for data: 1126235424
I0403 14:46:22.462203 13619 layer_factory.hpp:77] Creating layer inception_4d/relu_3x3
I0403 14:46:22.462221 13619 net.cpp:91] Creating Layer inception_4d/relu_3x3
I0403 14:46:22.462236 13619 net.cpp:425] inception_4d/relu_3x3 <- inception_4d/3x3
I0403 14:46:22.462255 13619 net.cpp:386] inception_4d/relu_3x3 -> inception_4d/3x3 (in-place)
I0403 14:46:22.462438 13619 net.cpp:141] Setting up inception_4d/relu_3x3
I0403 14:46:22.462463 13619 net.cpp:148] Top shape: 24 288 14 14 (1354752)
I0403 14:46:22.462478 13619 net.cpp:156] Memory required for data: 1131654432
I0403 14:46:22.462492 13619 layer_factory.hpp:77] Creating layer inception_4d/5x5_reduce
I0403 14:46:22.462513 13619 net.cpp:91] Creating Layer inception_4d/5x5_reduce
I0403 14:46:22.462532 13619 net.cpp:425] inception_4d/5x5_reduce <- inception_4c/output_inception_4c/output_0_split_2
I0403 14:46:22.462558 13619 net.cpp:399] inception_4d/5x5_reduce -> inception_4d/5x5_reduce
I0403 14:46:22.463711 13619 net.cpp:141] Setting up inception_4d/5x5_reduce
I0403 14:46:22.463738 13619 net.cpp:148] Top shape: 24 32 14 14 (150528)
I0403 14:46:22.463753 13619 net.cpp:156] Memory required for data: 1132256544
I0403 14:46:22.463771 13619 layer_factory.hpp:77] Creating layer inception_4d/relu_5x5_reduce
I0403 14:46:22.463788 13619 net.cpp:91] Creating Layer inception_4d/relu_5x5_reduce
I0403 14:46:22.463804 13619 net.cpp:425] inception_4d/relu_5x5_reduce <- inception_4d/5x5_reduce
I0403 14:46:22.463824 13619 net.cpp:386] inception_4d/relu_5x5_reduce -> inception_4d/5x5_reduce (in-place)
I0403 14:46:22.464011 13619 net.cpp:141] Setting up inception_4d/relu_5x5_reduce
I0403 14:46:22.464036 13619 net.cpp:148] Top shape: 24 32 14 14 (150528)
I0403 14:46:22.464051 13619 net.cpp:156] Memory required for data: 1132858656
I0403 14:46:22.464066 13619 layer_factory.hpp:77] Creating layer inception_4d/5x5
I0403 14:46:22.464087 13619 net.cpp:91] Creating Layer inception_4d/5x5
I0403 14:46:22.464104 13619 net.cpp:425] inception_4d/5x5 <- inception_4d/5x5_reduce
I0403 14:46:22.464124 13619 net.cpp:399] inception_4d/5x5 -> inception_4d/5x5
I0403 14:46:22.465661 13619 net.cpp:141] Setting up inception_4d/5x5
I0403 14:46:22.465687 13619 net.cpp:148] Top shape: 24 64 14 14 (301056)
I0403 14:46:22.465703 13619 net.cpp:156] Memory required for data: 1134062880
I0403 14:46:22.465721 13619 layer_factory.hpp:77] Creating layer inception_4d/relu_5x5
I0403 14:46:22.465755 13619 net.cpp:91] Creating Layer inception_4d/relu_5x5
I0403 14:46:22.465775 13619 net.cpp:425] inception_4d/relu_5x5 <- inception_4d/5x5
I0403 14:46:22.465791 13619 net.cpp:386] inception_4d/relu_5x5 -> inception_4d/5x5 (in-place)
I0403 14:46:22.466097 13619 net.cpp:141] Setting up inception_4d/relu_5x5
I0403 14:46:22.466123 13619 net.cpp:148] Top shape: 24 64 14 14 (301056)
I0403 14:46:22.466138 13619 net.cpp:156] Memory required for data: 1135267104
I0403 14:46:22.466152 13619 layer_factory.hpp:77] Creating layer inception_4d/pool
I0403 14:46:22.466172 13619 net.cpp:91] Creating Layer inception_4d/pool
I0403 14:46:22.466189 13619 net.cpp:425] inception_4d/pool <- inception_4c/output_inception_4c/output_0_split_3
I0403 14:46:22.466207 13619 net.cpp:399] inception_4d/pool -> inception_4d/pool
I0403 14:46:22.466272 13619 net.cpp:141] Setting up inception_4d/pool
I0403 14:46:22.466298 13619 net.cpp:148] Top shape: 24 512 14 14 (2408448)
I0403 14:46:22.466313 13619 net.cpp:156] Memory required for data: 1144900896
I0403 14:46:22.466327 13619 layer_factory.hpp:77] Creating layer inception_4d/pool_proj
I0403 14:46:22.466348 13619 net.cpp:91] Creating Layer inception_4d/pool_proj
I0403 14:46:22.466367 13619 net.cpp:425] inception_4d/pool_proj <- inception_4d/pool
I0403 14:46:22.466387 13619 net.cpp:399] inception_4d/pool_proj -> inception_4d/pool_proj
I0403 14:46:22.468127 13619 net.cpp:141] Setting up inception_4d/pool_proj
I0403 14:46:22.468155 13619 net.cpp:148] Top shape: 24 64 14 14 (301056)
I0403 14:46:22.468169 13619 net.cpp:156] Memory required for data: 1146105120
I0403 14:46:22.468186 13619 layer_factory.hpp:77] Creating layer inception_4d/relu_pool_proj
I0403 14:46:22.468204 13619 net.cpp:91] Creating Layer inception_4d/relu_pool_proj
I0403 14:46:22.468219 13619 net.cpp:425] inception_4d/relu_pool_proj <- inception_4d/pool_proj
I0403 14:46:22.468237 13619 net.cpp:386] inception_4d/relu_pool_proj -> inception_4d/pool_proj (in-place)
I0403 14:46:22.468420 13619 net.cpp:141] Setting up inception_4d/relu_pool_proj
I0403 14:46:22.468443 13619 net.cpp:148] Top shape: 24 64 14 14 (301056)
I0403 14:46:22.468457 13619 net.cpp:156] Memory required for data: 1147309344
I0403 14:46:22.468471 13619 layer_factory.hpp:77] Creating layer inception_4d/output
I0403 14:46:22.468487 13619 net.cpp:91] Creating Layer inception_4d/output
I0403 14:46:22.468502 13619 net.cpp:425] inception_4d/output <- inception_4d/1x1
I0403 14:46:22.468516 13619 net.cpp:425] inception_4d/output <- inception_4d/3x3
I0403 14:46:22.468531 13619 net.cpp:425] inception_4d/output <- inception_4d/5x5
I0403 14:46:22.468551 13619 net.cpp:425] inception_4d/output <- inception_4d/pool_proj
I0403 14:46:22.468571 13619 net.cpp:399] inception_4d/output -> inception_4d/output
I0403 14:46:22.468621 13619 net.cpp:141] Setting up inception_4d/output
I0403 14:46:22.468643 13619 net.cpp:148] Top shape: 24 528 14 14 (2483712)
I0403 14:46:22.468657 13619 net.cpp:156] Memory required for data: 1157244192
I0403 14:46:22.468670 13619 layer_factory.hpp:77] Creating layer inception_4d/output_inception_4d/output_0_split
I0403 14:46:22.468686 13619 net.cpp:91] Creating Layer inception_4d/output_inception_4d/output_0_split
I0403 14:46:22.468701 13619 net.cpp:425] inception_4d/output_inception_4d/output_0_split <- inception_4d/output
I0403 14:46:22.468721 13619 net.cpp:399] inception_4d/output_inception_4d/output_0_split -> inception_4d/output_inception_4d/output_0_split_0
I0403 14:46:22.468741 13619 net.cpp:399] inception_4d/output_inception_4d/output_0_split -> inception_4d/output_inception_4d/output_0_split_1
I0403 14:46:22.468760 13619 net.cpp:399] inception_4d/output_inception_4d/output_0_split -> inception_4d/output_inception_4d/output_0_split_2
I0403 14:46:22.468780 13619 net.cpp:399] inception_4d/output_inception_4d/output_0_split -> inception_4d/output_inception_4d/output_0_split_3
I0403 14:46:22.468798 13619 net.cpp:399] inception_4d/output_inception_4d/output_0_split -> inception_4d/output_inception_4d/output_0_split_4
I0403 14:46:22.468897 13619 net.cpp:141] Setting up inception_4d/output_inception_4d/output_0_split
I0403 14:46:22.468933 13619 net.cpp:148] Top shape: 24 528 14 14 (2483712)
I0403 14:46:22.468950 13619 net.cpp:148] Top shape: 24 528 14 14 (2483712)
I0403 14:46:22.468966 13619 net.cpp:148] Top shape: 24 528 14 14 (2483712)
I0403 14:46:22.468979 13619 net.cpp:148] Top shape: 24 528 14 14 (2483712)
I0403 14:46:22.468993 13619 net.cpp:148] Top shape: 24 528 14 14 (2483712)
I0403 14:46:22.469005 13619 net.cpp:156] Memory required for data: 1206918432
I0403 14:46:22.469018 13619 layer_factory.hpp:77] Creating layer loss2/ave_pool
I0403 14:46:22.469035 13619 net.cpp:91] Creating Layer loss2/ave_pool
I0403 14:46:22.469050 13619 net.cpp:425] loss2/ave_pool <- inception_4d/output_inception_4d/output_0_split_0
I0403 14:46:22.469069 13619 net.cpp:399] loss2/ave_pool -> loss2/ave_pool
I0403 14:46:22.469375 13619 net.cpp:141] Setting up loss2/ave_pool
I0403 14:46:22.469401 13619 net.cpp:148] Top shape: 24 528 4 4 (202752)
I0403 14:46:22.469415 13619 net.cpp:156] Memory required for data: 1207729440
I0403 14:46:22.469429 13619 layer_factory.hpp:77] Creating layer loss2/conv
I0403 14:46:22.469450 13619 net.cpp:91] Creating Layer loss2/conv
I0403 14:46:22.469467 13619 net.cpp:425] loss2/conv <- loss2/ave_pool
I0403 14:46:22.469487 13619 net.cpp:399] loss2/conv -> loss2/conv
I0403 14:46:22.471328 13619 net.cpp:141] Setting up loss2/conv
I0403 14:46:22.471355 13619 net.cpp:148] Top shape: 24 128 4 4 (49152)
I0403 14:46:22.471370 13619 net.cpp:156] Memory required for data: 1207926048
I0403 14:46:22.471388 13619 layer_factory.hpp:77] Creating layer loss2/relu_conv
I0403 14:46:22.471408 13619 net.cpp:91] Creating Layer loss2/relu_conv
I0403 14:46:22.471424 13619 net.cpp:425] loss2/relu_conv <- loss2/conv
I0403 14:46:22.471441 13619 net.cpp:386] loss2/relu_conv -> loss2/conv (in-place)
I0403 14:46:22.471724 13619 net.cpp:141] Setting up loss2/relu_conv
I0403 14:46:22.471748 13619 net.cpp:148] Top shape: 24 128 4 4 (49152)
I0403 14:46:22.471763 13619 net.cpp:156] Memory required for data: 1208122656
I0403 14:46:22.471777 13619 layer_factory.hpp:77] Creating layer loss2/fc
I0403 14:46:22.471798 13619 net.cpp:91] Creating Layer loss2/fc
I0403 14:46:22.471814 13619 net.cpp:425] loss2/fc <- loss2/conv
I0403 14:46:22.471833 13619 net.cpp:399] loss2/fc -> loss2/fc
I0403 14:46:22.489094 13619 net.cpp:141] Setting up loss2/fc
I0403 14:46:22.489130 13619 net.cpp:148] Top shape: 24 1024 (24576)
I0403 14:46:22.489145 13619 net.cpp:156] Memory required for data: 1208220960
I0403 14:46:22.489163 13619 layer_factory.hpp:77] Creating layer loss2/relu_fc
I0403 14:46:22.489181 13619 net.cpp:91] Creating Layer loss2/relu_fc
I0403 14:46:22.489197 13619 net.cpp:425] loss2/relu_fc <- loss2/fc
I0403 14:46:22.489217 13619 net.cpp:386] loss2/relu_fc -> loss2/fc (in-place)
I0403 14:46:22.489518 13619 net.cpp:141] Setting up loss2/relu_fc
I0403 14:46:22.489548 13619 net.cpp:148] Top shape: 24 1024 (24576)
I0403 14:46:22.489564 13619 net.cpp:156] Memory required for data: 1208319264
I0403 14:46:22.489579 13619 layer_factory.hpp:77] Creating layer loss2/drop_fc
I0403 14:46:22.489596 13619 net.cpp:91] Creating Layer loss2/drop_fc
I0403 14:46:22.489612 13619 net.cpp:425] loss2/drop_fc <- loss2/fc
I0403 14:46:22.489631 13619 net.cpp:386] loss2/drop_fc -> loss2/fc (in-place)
I0403 14:46:22.489681 13619 net.cpp:141] Setting up loss2/drop_fc
I0403 14:46:22.489707 13619 net.cpp:148] Top shape: 24 1024 (24576)
I0403 14:46:22.489722 13619 net.cpp:156] Memory required for data: 1208417568
I0403 14:46:22.489737 13619 layer_factory.hpp:77] Creating layer loss2/classifier_plantvillage
I0403 14:46:22.489754 13619 net.cpp:91] Creating Layer loss2/classifier_plantvillage
I0403 14:46:22.489770 13619 net.cpp:425] loss2/classifier_plantvillage <- loss2/fc
I0403 14:46:22.489791 13619 net.cpp:399] loss2/classifier_plantvillage -> loss2/classifier_plantvillage
I0403 14:46:22.490202 13619 net.cpp:141] Setting up loss2/classifier_plantvillage
I0403 14:46:22.490227 13619 net.cpp:148] Top shape: 24 38 (912)
I0403 14:46:22.490262 13619 net.cpp:156] Memory required for data: 1208421216
I0403 14:46:22.490280 13619 layer_factory.hpp:77] Creating layer loss2/classifier_plantvillage_loss2/classifier_plantvillage_0_split
I0403 14:46:22.490303 13619 net.cpp:91] Creating Layer loss2/classifier_plantvillage_loss2/classifier_plantvillage_0_split
I0403 14:46:22.490319 13619 net.cpp:425] loss2/classifier_plantvillage_loss2/classifier_plantvillage_0_split <- loss2/classifier_plantvillage
I0403 14:46:22.490336 13619 net.cpp:399] loss2/classifier_plantvillage_loss2/classifier_plantvillage_0_split -> loss2/classifier_plantvillage_loss2/classifier_plantvillage_0_split_0
I0403 14:46:22.490356 13619 net.cpp:399] loss2/classifier_plantvillage_loss2/classifier_plantvillage_0_split -> loss2/classifier_plantvillage_loss2/classifier_plantvillage_0_split_1
I0403 14:46:22.490381 13619 net.cpp:399] loss2/classifier_plantvillage_loss2/classifier_plantvillage_0_split -> loss2/classifier_plantvillage_loss2/classifier_plantvillage_0_split_2
I0403 14:46:22.490458 13619 net.cpp:141] Setting up loss2/classifier_plantvillage_loss2/classifier_plantvillage_0_split
I0403 14:46:22.490480 13619 net.cpp:148] Top shape: 24 38 (912)
I0403 14:46:22.490496 13619 net.cpp:148] Top shape: 24 38 (912)
I0403 14:46:22.490511 13619 net.cpp:148] Top shape: 24 38 (912)
I0403 14:46:22.490525 13619 net.cpp:156] Memory required for data: 1208432160
I0403 14:46:22.490542 13619 layer_factory.hpp:77] Creating layer inception_4e/1x1
I0403 14:46:22.490564 13619 net.cpp:91] Creating Layer inception_4e/1x1
I0403 14:46:22.490582 13619 net.cpp:425] inception_4e/1x1 <- inception_4d/output_inception_4d/output_0_split_1
I0403 14:46:22.490602 13619 net.cpp:399] inception_4e/1x1 -> inception_4e/1x1
I0403 14:46:22.492427 13619 net.cpp:141] Setting up inception_4e/1x1
I0403 14:46:22.492455 13619 net.cpp:148] Top shape: 24 256 14 14 (1204224)
I0403 14:46:22.492473 13619 net.cpp:156] Memory required for data: 1213249056
I0403 14:46:22.492491 13619 layer_factory.hpp:77] Creating layer inception_4e/relu_1x1
I0403 14:46:22.492508 13619 net.cpp:91] Creating Layer inception_4e/relu_1x1
I0403 14:46:22.492524 13619 net.cpp:425] inception_4e/relu_1x1 <- inception_4e/1x1
I0403 14:46:22.492544 13619 net.cpp:386] inception_4e/relu_1x1 -> inception_4e/1x1 (in-place)
I0403 14:46:22.492846 13619 net.cpp:141] Setting up inception_4e/relu_1x1
I0403 14:46:22.492871 13619 net.cpp:148] Top shape: 24 256 14 14 (1204224)
I0403 14:46:22.492889 13619 net.cpp:156] Memory required for data: 1218065952
I0403 14:46:22.492904 13619 layer_factory.hpp:77] Creating layer inception_4e/3x3_reduce
I0403 14:46:22.492923 13619 net.cpp:91] Creating Layer inception_4e/3x3_reduce
I0403 14:46:22.492939 13619 net.cpp:425] inception_4e/3x3_reduce <- inception_4d/output_inception_4d/output_0_split_2
I0403 14:46:22.492960 13619 net.cpp:399] inception_4e/3x3_reduce -> inception_4e/3x3_reduce
I0403 14:46:22.495117 13619 net.cpp:141] Setting up inception_4e/3x3_reduce
I0403 14:46:22.495146 13619 net.cpp:148] Top shape: 24 160 14 14 (752640)
I0403 14:46:22.495162 13619 net.cpp:156] Memory required for data: 1221076512
I0403 14:46:22.495180 13619 layer_factory.hpp:77] Creating layer inception_4e/relu_3x3_reduce
I0403 14:46:22.495200 13619 net.cpp:91] Creating Layer inception_4e/relu_3x3_reduce
I0403 14:46:22.495216 13619 net.cpp:425] inception_4e/relu_3x3_reduce <- inception_4e/3x3_reduce
I0403 14:46:22.495234 13619 net.cpp:386] inception_4e/relu_3x3_reduce -> inception_4e/3x3_reduce (in-place)
I0403 14:46:22.495425 13619 net.cpp:141] Setting up inception_4e/relu_3x3_reduce
I0403 14:46:22.495452 13619 net.cpp:148] Top shape: 24 160 14 14 (752640)
I0403 14:46:22.495468 13619 net.cpp:156] Memory required for data: 1224087072
I0403 14:46:22.495482 13619 layer_factory.hpp:77] Creating layer inception_4e/3x3
I0403 14:46:22.495504 13619 net.cpp:91] Creating Layer inception_4e/3x3
I0403 14:46:22.495522 13619 net.cpp:425] inception_4e/3x3 <- inception_4e/3x3_reduce
I0403 14:46:22.495545 13619 net.cpp:399] inception_4e/3x3 -> inception_4e/3x3
I0403 14:46:22.500545 13619 net.cpp:141] Setting up inception_4e/3x3
I0403 14:46:22.500589 13619 net.cpp:148] Top shape: 24 320 14 14 (1505280)
I0403 14:46:22.500605 13619 net.cpp:156] Memory required for data: 1230108192
I0403 14:46:22.500623 13619 layer_factory.hpp:77] Creating layer inception_4e/relu_3x3
I0403 14:46:22.500640 13619 net.cpp:91] Creating Layer inception_4e/relu_3x3
I0403 14:46:22.500656 13619 net.cpp:425] inception_4e/relu_3x3 <- inception_4e/3x3
I0403 14:46:22.500674 13619 net.cpp:386] inception_4e/relu_3x3 -> inception_4e/3x3 (in-place)
I0403 14:46:22.500977 13619 net.cpp:141] Setting up inception_4e/relu_3x3
I0403 14:46:22.501003 13619 net.cpp:148] Top shape: 24 320 14 14 (1505280)
I0403 14:46:22.501019 13619 net.cpp:156] Memory required for data: 1236129312
I0403 14:46:22.501034 13619 layer_factory.hpp:77] Creating layer inception_4e/5x5_reduce
I0403 14:46:22.501056 13619 net.cpp:91] Creating Layer inception_4e/5x5_reduce
I0403 14:46:22.501075 13619 net.cpp:425] inception_4e/5x5_reduce <- inception_4d/output_inception_4d/output_0_split_3
I0403 14:46:22.501094 13619 net.cpp:399] inception_4e/5x5_reduce -> inception_4e/5x5_reduce
I0403 14:46:22.502171 13619 net.cpp:141] Setting up inception_4e/5x5_reduce
I0403 14:46:22.502199 13619 net.cpp:148] Top shape: 24 32 14 14 (150528)
I0403 14:46:22.502214 13619 net.cpp:156] Memory required for data: 1236731424
I0403 14:46:22.502233 13619 layer_factory.hpp:77] Creating layer inception_4e/relu_5x5_reduce
I0403 14:46:22.502251 13619 net.cpp:91] Creating Layer inception_4e/relu_5x5_reduce
I0403 14:46:22.502267 13619 net.cpp:425] inception_4e/relu_5x5_reduce <- inception_4e/5x5_reduce
I0403 14:46:22.502285 13619 net.cpp:386] inception_4e/relu_5x5_reduce -> inception_4e/5x5_reduce (in-place)
I0403 14:46:22.502605 13619 net.cpp:141] Setting up inception_4e/relu_5x5_reduce
I0403 14:46:22.502634 13619 net.cpp:148] Top shape: 24 32 14 14 (150528)
I0403 14:46:22.502648 13619 net.cpp:156] Memory required for data: 1237333536
I0403 14:46:22.502663 13619 layer_factory.hpp:77] Creating layer inception_4e/5x5
I0403 14:46:22.502703 13619 net.cpp:91] Creating Layer inception_4e/5x5
I0403 14:46:22.502723 13619 net.cpp:425] inception_4e/5x5 <- inception_4e/5x5_reduce
I0403 14:46:22.502743 13619 net.cpp:399] inception_4e/5x5 -> inception_4e/5x5
I0403 14:46:22.504659 13619 net.cpp:141] Setting up inception_4e/5x5
I0403 14:46:22.504688 13619 net.cpp:148] Top shape: 24 128 14 14 (602112)
I0403 14:46:22.504704 13619 net.cpp:156] Memory required for data: 1239741984
I0403 14:46:22.504724 13619 layer_factory.hpp:77] Creating layer inception_4e/relu_5x5
I0403 14:46:22.504744 13619 net.cpp:91] Creating Layer inception_4e/relu_5x5
I0403 14:46:22.504760 13619 net.cpp:425] inception_4e/relu_5x5 <- inception_4e/5x5
I0403 14:46:22.504777 13619 net.cpp:386] inception_4e/relu_5x5 -> inception_4e/5x5 (in-place)
I0403 14:46:22.504981 13619 net.cpp:141] Setting up inception_4e/relu_5x5
I0403 14:46:22.505007 13619 net.cpp:148] Top shape: 24 128 14 14 (602112)
I0403 14:46:22.505022 13619 net.cpp:156] Memory required for data: 1242150432
I0403 14:46:22.505035 13619 layer_factory.hpp:77] Creating layer inception_4e/pool
I0403 14:46:22.505056 13619 net.cpp:91] Creating Layer inception_4e/pool
I0403 14:46:22.505074 13619 net.cpp:425] inception_4e/pool <- inception_4d/output_inception_4d/output_0_split_4
I0403 14:46:22.505091 13619 net.cpp:399] inception_4e/pool -> inception_4e/pool
I0403 14:46:22.505164 13619 net.cpp:141] Setting up inception_4e/pool
I0403 14:46:22.505189 13619 net.cpp:148] Top shape: 24 528 14 14 (2483712)
I0403 14:46:22.505203 13619 net.cpp:156] Memory required for data: 1252085280
I0403 14:46:22.505218 13619 layer_factory.hpp:77] Creating layer inception_4e/pool_proj
I0403 14:46:22.505240 13619 net.cpp:91] Creating Layer inception_4e/pool_proj
I0403 14:46:22.505259 13619 net.cpp:425] inception_4e/pool_proj <- inception_4e/pool
I0403 14:46:22.505278 13619 net.cpp:399] inception_4e/pool_proj -> inception_4e/pool_proj
I0403 14:46:22.506855 13619 net.cpp:141] Setting up inception_4e/pool_proj
I0403 14:46:22.506897 13619 net.cpp:148] Top shape: 24 128 14 14 (602112)
I0403 14:46:22.506914 13619 net.cpp:156] Memory required for data: 1254493728
I0403 14:46:22.506933 13619 layer_factory.hpp:77] Creating layer inception_4e/relu_pool_proj
I0403 14:46:22.506952 13619 net.cpp:91] Creating Layer inception_4e/relu_pool_proj
I0403 14:46:22.506971 13619 net.cpp:425] inception_4e/relu_pool_proj <- inception_4e/pool_proj
I0403 14:46:22.507002 13619 net.cpp:386] inception_4e/relu_pool_proj -> inception_4e/pool_proj (in-place)
I0403 14:46:22.507307 13619 net.cpp:141] Setting up inception_4e/relu_pool_proj
I0403 14:46:22.507333 13619 net.cpp:148] Top shape: 24 128 14 14 (602112)
I0403 14:46:22.507349 13619 net.cpp:156] Memory required for data: 1256902176
I0403 14:46:22.507364 13619 layer_factory.hpp:77] Creating layer inception_4e/output
I0403 14:46:22.507381 13619 net.cpp:91] Creating Layer inception_4e/output
I0403 14:46:22.507397 13619 net.cpp:425] inception_4e/output <- inception_4e/1x1
I0403 14:46:22.507414 13619 net.cpp:425] inception_4e/output <- inception_4e/3x3
I0403 14:46:22.507431 13619 net.cpp:425] inception_4e/output <- inception_4e/5x5
I0403 14:46:22.507447 13619 net.cpp:425] inception_4e/output <- inception_4e/pool_proj
I0403 14:46:22.507467 13619 net.cpp:399] inception_4e/output -> inception_4e/output
I0403 14:46:22.507516 13619 net.cpp:141] Setting up inception_4e/output
I0403 14:46:22.507547 13619 net.cpp:148] Top shape: 24 832 14 14 (3913728)
I0403 14:46:22.507565 13619 net.cpp:156] Memory required for data: 1272557088
I0403 14:46:22.507580 13619 layer_factory.hpp:77] Creating layer pool4/3x3_s2
I0403 14:46:22.507597 13619 net.cpp:91] Creating Layer pool4/3x3_s2
I0403 14:46:22.507613 13619 net.cpp:425] pool4/3x3_s2 <- inception_4e/output
I0403 14:46:22.507634 13619 net.cpp:399] pool4/3x3_s2 -> pool4/3x3_s2
I0403 14:46:22.507702 13619 net.cpp:141] Setting up pool4/3x3_s2
I0403 14:46:22.507726 13619 net.cpp:148] Top shape: 24 832 7 7 (978432)
I0403 14:46:22.507741 13619 net.cpp:156] Memory required for data: 1276470816
I0403 14:46:22.507755 13619 layer_factory.hpp:77] Creating layer pool4/3x3_s2_pool4/3x3_s2_0_split
I0403 14:46:22.507776 13619 net.cpp:91] Creating Layer pool4/3x3_s2_pool4/3x3_s2_0_split
I0403 14:46:22.507792 13619 net.cpp:425] pool4/3x3_s2_pool4/3x3_s2_0_split <- pool4/3x3_s2
I0403 14:46:22.507809 13619 net.cpp:399] pool4/3x3_s2_pool4/3x3_s2_0_split -> pool4/3x3_s2_pool4/3x3_s2_0_split_0
I0403 14:46:22.507829 13619 net.cpp:399] pool4/3x3_s2_pool4/3x3_s2_0_split -> pool4/3x3_s2_pool4/3x3_s2_0_split_1
I0403 14:46:22.507849 13619 net.cpp:399] pool4/3x3_s2_pool4/3x3_s2_0_split -> pool4/3x3_s2_pool4/3x3_s2_0_split_2
I0403 14:46:22.507869 13619 net.cpp:399] pool4/3x3_s2_pool4/3x3_s2_0_split -> pool4/3x3_s2_pool4/3x3_s2_0_split_3
I0403 14:46:22.507966 13619 net.cpp:141] Setting up pool4/3x3_s2_pool4/3x3_s2_0_split
I0403 14:46:22.507990 13619 net.cpp:148] Top shape: 24 832 7 7 (978432)
I0403 14:46:22.508007 13619 net.cpp:148] Top shape: 24 832 7 7 (978432)
I0403 14:46:22.508021 13619 net.cpp:148] Top shape: 24 832 7 7 (978432)
I0403 14:46:22.508036 13619 net.cpp:148] Top shape: 24 832 7 7 (978432)
I0403 14:46:22.508049 13619 net.cpp:156] Memory required for data: 1292125728
I0403 14:46:22.508064 13619 layer_factory.hpp:77] Creating layer inception_5a/1x1
I0403 14:46:22.508086 13619 net.cpp:91] Creating Layer inception_5a/1x1
I0403 14:46:22.508103 13619 net.cpp:425] inception_5a/1x1 <- pool4/3x3_s2_pool4/3x3_s2_0_split_0
I0403 14:46:22.508124 13619 net.cpp:399] inception_5a/1x1 -> inception_5a/1x1
I0403 14:46:22.511081 13619 net.cpp:141] Setting up inception_5a/1x1
I0403 14:46:22.511111 13619 net.cpp:148] Top shape: 24 256 7 7 (301056)
I0403 14:46:22.511127 13619 net.cpp:156] Memory required for data: 1293329952
I0403 14:46:22.511145 13619 layer_factory.hpp:77] Creating layer inception_5a/relu_1x1
I0403 14:46:22.511165 13619 net.cpp:91] Creating Layer inception_5a/relu_1x1
I0403 14:46:22.511183 13619 net.cpp:425] inception_5a/relu_1x1 <- inception_5a/1x1
I0403 14:46:22.511201 13619 net.cpp:386] inception_5a/relu_1x1 -> inception_5a/1x1 (in-place)
I0403 14:46:22.511526 13619 net.cpp:141] Setting up inception_5a/relu_1x1
I0403 14:46:22.511565 13619 net.cpp:148] Top shape: 24 256 7 7 (301056)
I0403 14:46:22.511581 13619 net.cpp:156] Memory required for data: 1294534176
I0403 14:46:22.511596 13619 layer_factory.hpp:77] Creating layer inception_5a/3x3_reduce
I0403 14:46:22.511620 13619 net.cpp:91] Creating Layer inception_5a/3x3_reduce
I0403 14:46:22.511637 13619 net.cpp:425] inception_5a/3x3_reduce <- pool4/3x3_s2_pool4/3x3_s2_0_split_1
I0403 14:46:22.511659 13619 net.cpp:399] inception_5a/3x3_reduce -> inception_5a/3x3_reduce
I0403 14:46:22.514199 13619 net.cpp:141] Setting up inception_5a/3x3_reduce
I0403 14:46:22.514230 13619 net.cpp:148] Top shape: 24 160 7 7 (188160)
I0403 14:46:22.514247 13619 net.cpp:156] Memory required for data: 1295286816
I0403 14:46:22.514266 13619 layer_factory.hpp:77] Creating layer inception_5a/relu_3x3_reduce
I0403 14:46:22.514284 13619 net.cpp:91] Creating Layer inception_5a/relu_3x3_reduce
I0403 14:46:22.514302 13619 net.cpp:425] inception_5a/relu_3x3_reduce <- inception_5a/3x3_reduce
I0403 14:46:22.514322 13619 net.cpp:386] inception_5a/relu_3x3_reduce -> inception_5a/3x3_reduce (in-place)
I0403 14:46:22.514515 13619 net.cpp:141] Setting up inception_5a/relu_3x3_reduce
I0403 14:46:22.514552 13619 net.cpp:148] Top shape: 24 160 7 7 (188160)
I0403 14:46:22.514570 13619 net.cpp:156] Memory required for data: 1296039456
I0403 14:46:22.514586 13619 layer_factory.hpp:77] Creating layer inception_5a/3x3
I0403 14:46:22.514610 13619 net.cpp:91] Creating Layer inception_5a/3x3
I0403 14:46:22.514627 13619 net.cpp:425] inception_5a/3x3 <- inception_5a/3x3_reduce
I0403 14:46:22.514650 13619 net.cpp:399] inception_5a/3x3 -> inception_5a/3x3
I0403 14:46:22.519827 13619 net.cpp:141] Setting up inception_5a/3x3
I0403 14:46:22.519858 13619 net.cpp:148] Top shape: 24 320 7 7 (376320)
I0403 14:46:22.519875 13619 net.cpp:156] Memory required for data: 1297544736
I0403 14:46:22.519892 13619 layer_factory.hpp:77] Creating layer inception_5a/relu_3x3
I0403 14:46:22.519917 13619 net.cpp:91] Creating Layer inception_5a/relu_3x3
I0403 14:46:22.519937 13619 net.cpp:425] inception_5a/relu_3x3 <- inception_5a/3x3
I0403 14:46:22.519954 13619 net.cpp:386] inception_5a/relu_3x3 -> inception_5a/3x3 (in-place)
I0403 14:46:22.520257 13619 net.cpp:141] Setting up inception_5a/relu_3x3
I0403 14:46:22.520287 13619 net.cpp:148] Top shape: 24 320 7 7 (376320)
I0403 14:46:22.520306 13619 net.cpp:156] Memory required for data: 1299050016
I0403 14:46:22.520323 13619 layer_factory.hpp:77] Creating layer inception_5a/5x5_reduce
I0403 14:46:22.520347 13619 net.cpp:91] Creating Layer inception_5a/5x5_reduce
I0403 14:46:22.520372 13619 net.cpp:425] inception_5a/5x5_reduce <- pool4/3x3_s2_pool4/3x3_s2_0_split_2
I0403 14:46:22.520412 13619 net.cpp:399] inception_5a/5x5_reduce -> inception_5a/5x5_reduce
I0403 14:46:22.521636 13619 net.cpp:141] Setting up inception_5a/5x5_reduce
I0403 14:46:22.521666 13619 net.cpp:148] Top shape: 24 32 7 7 (37632)
I0403 14:46:22.521680 13619 net.cpp:156] Memory required for data: 1299200544
I0403 14:46:22.521699 13619 layer_factory.hpp:77] Creating layer inception_5a/relu_5x5_reduce
I0403 14:46:22.521719 13619 net.cpp:91] Creating Layer inception_5a/relu_5x5_reduce
I0403 14:46:22.521736 13619 net.cpp:425] inception_5a/relu_5x5_reduce <- inception_5a/5x5_reduce
I0403 14:46:22.521754 13619 net.cpp:386] inception_5a/relu_5x5_reduce -> inception_5a/5x5_reduce (in-place)
I0403 14:46:22.522053 13619 net.cpp:141] Setting up inception_5a/relu_5x5_reduce
I0403 14:46:22.522079 13619 net.cpp:148] Top shape: 24 32 7 7 (37632)
I0403 14:46:22.522094 13619 net.cpp:156] Memory required for data: 1299351072
I0403 14:46:22.522109 13619 layer_factory.hpp:77] Creating layer inception_5a/5x5
I0403 14:46:22.522130 13619 net.cpp:91] Creating Layer inception_5a/5x5
I0403 14:46:22.522148 13619 net.cpp:425] inception_5a/5x5 <- inception_5a/5x5_reduce
I0403 14:46:22.522169 13619 net.cpp:399] inception_5a/5x5 -> inception_5a/5x5
I0403 14:46:22.523921 13619 net.cpp:141] Setting up inception_5a/5x5
I0403 14:46:22.523963 13619 net.cpp:148] Top shape: 24 128 7 7 (150528)
I0403 14:46:22.523979 13619 net.cpp:156] Memory required for data: 1299953184
I0403 14:46:22.523998 13619 layer_factory.hpp:77] Creating layer inception_5a/relu_5x5
I0403 14:46:22.524018 13619 net.cpp:91] Creating Layer inception_5a/relu_5x5
I0403 14:46:22.524035 13619 net.cpp:425] inception_5a/relu_5x5 <- inception_5a/5x5
I0403 14:46:22.524052 13619 net.cpp:386] inception_5a/relu_5x5 -> inception_5a/5x5 (in-place)
I0403 14:46:22.524243 13619 net.cpp:141] Setting up inception_5a/relu_5x5
I0403 14:46:22.524268 13619 net.cpp:148] Top shape: 24 128 7 7 (150528)
I0403 14:46:22.524282 13619 net.cpp:156] Memory required for data: 1300555296
I0403 14:46:22.524298 13619 layer_factory.hpp:77] Creating layer inception_5a/pool
I0403 14:46:22.524317 13619 net.cpp:91] Creating Layer inception_5a/pool
I0403 14:46:22.524334 13619 net.cpp:425] inception_5a/pool <- pool4/3x3_s2_pool4/3x3_s2_0_split_3
I0403 14:46:22.524351 13619 net.cpp:399] inception_5a/pool -> inception_5a/pool
I0403 14:46:22.524423 13619 net.cpp:141] Setting up inception_5a/pool
I0403 14:46:22.524447 13619 net.cpp:148] Top shape: 24 832 7 7 (978432)
I0403 14:46:22.524461 13619 net.cpp:156] Memory required for data: 1304469024
I0403 14:46:22.524474 13619 layer_factory.hpp:77] Creating layer inception_5a/pool_proj
I0403 14:46:22.524495 13619 net.cpp:91] Creating Layer inception_5a/pool_proj
I0403 14:46:22.524513 13619 net.cpp:425] inception_5a/pool_proj <- inception_5a/pool
I0403 14:46:22.524533 13619 net.cpp:399] inception_5a/pool_proj -> inception_5a/pool_proj
I0403 14:46:22.526844 13619 net.cpp:141] Setting up inception_5a/pool_proj
I0403 14:46:22.526873 13619 net.cpp:148] Top shape: 24 128 7 7 (150528)
I0403 14:46:22.526890 13619 net.cpp:156] Memory required for data: 1305071136
I0403 14:46:22.526907 13619 layer_factory.hpp:77] Creating layer inception_5a/relu_pool_proj
I0403 14:46:22.526926 13619 net.cpp:91] Creating Layer inception_5a/relu_pool_proj
I0403 14:46:22.526942 13619 net.cpp:425] inception_5a/relu_pool_proj <- inception_5a/pool_proj
I0403 14:46:22.526960 13619 net.cpp:386] inception_5a/relu_pool_proj -> inception_5a/pool_proj (in-place)
I0403 14:46:22.527266 13619 net.cpp:141] Setting up inception_5a/relu_pool_proj
I0403 14:46:22.527292 13619 net.cpp:148] Top shape: 24 128 7 7 (150528)
I0403 14:46:22.527307 13619 net.cpp:156] Memory required for data: 1305673248
I0403 14:46:22.527321 13619 layer_factory.hpp:77] Creating layer inception_5a/output
I0403 14:46:22.527338 13619 net.cpp:91] Creating Layer inception_5a/output
I0403 14:46:22.527354 13619 net.cpp:425] inception_5a/output <- inception_5a/1x1
I0403 14:46:22.527369 13619 net.cpp:425] inception_5a/output <- inception_5a/3x3
I0403 14:46:22.527385 13619 net.cpp:425] inception_5a/output <- inception_5a/5x5
I0403 14:46:22.527402 13619 net.cpp:425] inception_5a/output <- inception_5a/pool_proj
I0403 14:46:22.527421 13619 net.cpp:399] inception_5a/output -> inception_5a/output
I0403 14:46:22.527472 13619 net.cpp:141] Setting up inception_5a/output
I0403 14:46:22.527498 13619 net.cpp:148] Top shape: 24 832 7 7 (978432)
I0403 14:46:22.527513 13619 net.cpp:156] Memory required for data: 1309586976
I0403 14:46:22.527528 13619 layer_factory.hpp:77] Creating layer inception_5a/output_inception_5a/output_0_split
I0403 14:46:22.527549 13619 net.cpp:91] Creating Layer inception_5a/output_inception_5a/output_0_split
I0403 14:46:22.527565 13619 net.cpp:425] inception_5a/output_inception_5a/output_0_split <- inception_5a/output
I0403 14:46:22.527582 13619 net.cpp:399] inception_5a/output_inception_5a/output_0_split -> inception_5a/output_inception_5a/output_0_split_0
I0403 14:46:22.527601 13619 net.cpp:399] inception_5a/output_inception_5a/output_0_split -> inception_5a/output_inception_5a/output_0_split_1
I0403 14:46:22.527623 13619 net.cpp:399] inception_5a/output_inception_5a/output_0_split -> inception_5a/output_inception_5a/output_0_split_2
I0403 14:46:22.527644 13619 net.cpp:399] inception_5a/output_inception_5a/output_0_split -> inception_5a/output_inception_5a/output_0_split_3
I0403 14:46:22.527758 13619 net.cpp:141] Setting up inception_5a/output_inception_5a/output_0_split
I0403 14:46:22.527782 13619 net.cpp:148] Top shape: 24 832 7 7 (978432)
I0403 14:46:22.527798 13619 net.cpp:148] Top shape: 24 832 7 7 (978432)
I0403 14:46:22.527812 13619 net.cpp:148] Top shape: 24 832 7 7 (978432)
I0403 14:46:22.527827 13619 net.cpp:148] Top shape: 24 832 7 7 (978432)
I0403 14:46:22.527840 13619 net.cpp:156] Memory required for data: 1325241888
I0403 14:46:22.527854 13619 layer_factory.hpp:77] Creating layer inception_5b/1x1
I0403 14:46:22.527875 13619 net.cpp:91] Creating Layer inception_5b/1x1
I0403 14:46:22.527892 13619 net.cpp:425] inception_5b/1x1 <- inception_5a/output_inception_5a/output_0_split_0
I0403 14:46:22.527914 13619 net.cpp:399] inception_5b/1x1 -> inception_5b/1x1
I0403 14:46:22.531662 13619 net.cpp:141] Setting up inception_5b/1x1
I0403 14:46:22.531692 13619 net.cpp:148] Top shape: 24 384 7 7 (451584)
I0403 14:46:22.531708 13619 net.cpp:156] Memory required for data: 1327048224
I0403 14:46:22.531724 13619 layer_factory.hpp:77] Creating layer inception_5b/relu_1x1
I0403 14:46:22.531743 13619 net.cpp:91] Creating Layer inception_5b/relu_1x1
I0403 14:46:22.531757 13619 net.cpp:425] inception_5b/relu_1x1 <- inception_5b/1x1
I0403 14:46:22.531776 13619 net.cpp:386] inception_5b/relu_1x1 -> inception_5b/1x1 (in-place)
I0403 14:46:22.532073 13619 net.cpp:141] Setting up inception_5b/relu_1x1
I0403 14:46:22.532100 13619 net.cpp:148] Top shape: 24 384 7 7 (451584)
I0403 14:46:22.532116 13619 net.cpp:156] Memory required for data: 1328854560
I0403 14:46:22.532130 13619 layer_factory.hpp:77] Creating layer inception_5b/3x3_reduce
I0403 14:46:22.532151 13619 net.cpp:91] Creating Layer inception_5b/3x3_reduce
I0403 14:46:22.532168 13619 net.cpp:425] inception_5b/3x3_reduce <- inception_5a/output_inception_5a/output_0_split_1
I0403 14:46:22.532186 13619 net.cpp:399] inception_5b/3x3_reduce -> inception_5b/3x3_reduce
I0403 14:46:22.534798 13619 net.cpp:141] Setting up inception_5b/3x3_reduce
I0403 14:46:22.534827 13619 net.cpp:148] Top shape: 24 192 7 7 (225792)
I0403 14:46:22.534842 13619 net.cpp:156] Memory required for data: 1329757728
I0403 14:46:22.534859 13619 layer_factory.hpp:77] Creating layer inception_5b/relu_3x3_reduce
I0403 14:46:22.534876 13619 net.cpp:91] Creating Layer inception_5b/relu_3x3_reduce
I0403 14:46:22.534893 13619 net.cpp:425] inception_5b/relu_3x3_reduce <- inception_5b/3x3_reduce
I0403 14:46:22.534910 13619 net.cpp:386] inception_5b/relu_3x3_reduce -> inception_5b/3x3_reduce (in-place)
I0403 14:46:22.535096 13619 net.cpp:141] Setting up inception_5b/relu_3x3_reduce
I0403 14:46:22.535120 13619 net.cpp:148] Top shape: 24 192 7 7 (225792)
I0403 14:46:22.535135 13619 net.cpp:156] Memory required for data: 1330660896
I0403 14:46:22.535150 13619 layer_factory.hpp:77] Creating layer inception_5b/3x3
I0403 14:46:22.535171 13619 net.cpp:91] Creating Layer inception_5b/3x3
I0403 14:46:22.535187 13619 net.cpp:425] inception_5b/3x3 <- inception_5b/3x3_reduce
I0403 14:46:22.535207 13619 net.cpp:399] inception_5b/3x3 -> inception_5b/3x3
I0403 14:46:22.541740 13619 net.cpp:141] Setting up inception_5b/3x3
I0403 14:46:22.541767 13619 net.cpp:148] Top shape: 24 384 7 7 (451584)
I0403 14:46:22.541782 13619 net.cpp:156] Memory required for data: 1332467232
I0403 14:46:22.541800 13619 layer_factory.hpp:77] Creating layer inception_5b/relu_3x3
I0403 14:46:22.541817 13619 net.cpp:91] Creating Layer inception_5b/relu_3x3
I0403 14:46:22.541832 13619 net.cpp:425] inception_5b/relu_3x3 <- inception_5b/3x3
I0403 14:46:22.541851 13619 net.cpp:386] inception_5b/relu_3x3 -> inception_5b/3x3 (in-place)
I0403 14:46:22.542150 13619 net.cpp:141] Setting up inception_5b/relu_3x3
I0403 14:46:22.542176 13619 net.cpp:148] Top shape: 24 384 7 7 (451584)
I0403 14:46:22.542191 13619 net.cpp:156] Memory required for data: 1334273568
I0403 14:46:22.542203 13619 layer_factory.hpp:77] Creating layer inception_5b/5x5_reduce
I0403 14:46:22.542239 13619 net.cpp:91] Creating Layer inception_5b/5x5_reduce
I0403 14:46:22.542258 13619 net.cpp:425] inception_5b/5x5_reduce <- inception_5a/output_inception_5a/output_0_split_2
I0403 14:46:22.542279 13619 net.cpp:399] inception_5b/5x5_reduce -> inception_5b/5x5_reduce
I0403 14:46:22.543527 13619 net.cpp:141] Setting up inception_5b/5x5_reduce
I0403 14:46:22.543558 13619 net.cpp:148] Top shape: 24 48 7 7 (56448)
I0403 14:46:22.543575 13619 net.cpp:156] Memory required for data: 1334499360
I0403 14:46:22.543591 13619 layer_factory.hpp:77] Creating layer inception_5b/relu_5x5_reduce
I0403 14:46:22.543608 13619 net.cpp:91] Creating Layer inception_5b/relu_5x5_reduce
I0403 14:46:22.543623 13619 net.cpp:425] inception_5b/relu_5x5_reduce <- inception_5b/5x5_reduce
I0403 14:46:22.543643 13619 net.cpp:386] inception_5b/relu_5x5_reduce -> inception_5b/5x5_reduce (in-place)
I0403 14:46:22.544008 13619 net.cpp:141] Setting up inception_5b/relu_5x5_reduce
I0403 14:46:22.544034 13619 net.cpp:148] Top shape: 24 48 7 7 (56448)
I0403 14:46:22.544049 13619 net.cpp:156] Memory required for data: 1334725152
I0403 14:46:22.544062 13619 layer_factory.hpp:77] Creating layer inception_5b/5x5
I0403 14:46:22.544081 13619 net.cpp:91] Creating Layer inception_5b/5x5
I0403 14:46:22.544098 13619 net.cpp:425] inception_5b/5x5 <- inception_5b/5x5_reduce
I0403 14:46:22.544116 13619 net.cpp:399] inception_5b/5x5 -> inception_5b/5x5
I0403 14:46:22.546139 13619 net.cpp:141] Setting up inception_5b/5x5
I0403 14:46:22.546165 13619 net.cpp:148] Top shape: 24 128 7 7 (150528)
I0403 14:46:22.546180 13619 net.cpp:156] Memory required for data: 1335327264
I0403 14:46:22.546196 13619 layer_factory.hpp:77] Creating layer inception_5b/relu_5x5
I0403 14:46:22.546216 13619 net.cpp:91] Creating Layer inception_5b/relu_5x5
I0403 14:46:22.546233 13619 net.cpp:425] inception_5b/relu_5x5 <- inception_5b/5x5
I0403 14:46:22.546250 13619 net.cpp:386] inception_5b/relu_5x5 -> inception_5b/5x5 (in-place)
I0403 14:46:22.546438 13619 net.cpp:141] Setting up inception_5b/relu_5x5
I0403 14:46:22.546465 13619 net.cpp:148] Top shape: 24 128 7 7 (150528)
I0403 14:46:22.546480 13619 net.cpp:156] Memory required for data: 1335929376
I0403 14:46:22.546494 13619 layer_factory.hpp:77] Creating layer inception_5b/pool
I0403 14:46:22.546510 13619 net.cpp:91] Creating Layer inception_5b/pool
I0403 14:46:22.546525 13619 net.cpp:425] inception_5b/pool <- inception_5a/output_inception_5a/output_0_split_3
I0403 14:46:22.546547 13619 net.cpp:399] inception_5b/pool -> inception_5b/pool
I0403 14:46:22.546620 13619 net.cpp:141] Setting up inception_5b/pool
I0403 14:46:22.546643 13619 net.cpp:148] Top shape: 24 832 7 7 (978432)
I0403 14:46:22.546658 13619 net.cpp:156] Memory required for data: 1339843104
I0403 14:46:22.546671 13619 layer_factory.hpp:77] Creating layer inception_5b/pool_proj
I0403 14:46:22.546691 13619 net.cpp:91] Creating Layer inception_5b/pool_proj
I0403 14:46:22.546708 13619 net.cpp:425] inception_5b/pool_proj <- inception_5b/pool
I0403 14:46:22.546728 13619 net.cpp:399] inception_5b/pool_proj -> inception_5b/pool_proj
I0403 14:46:22.548979 13619 net.cpp:141] Setting up inception_5b/pool_proj
I0403 14:46:22.549007 13619 net.cpp:148] Top shape: 24 128 7 7 (150528)
I0403 14:46:22.549022 13619 net.cpp:156] Memory required for data: 1340445216
I0403 14:46:22.549039 13619 layer_factory.hpp:77] Creating layer inception_5b/relu_pool_proj
I0403 14:46:22.549058 13619 net.cpp:91] Creating Layer inception_5b/relu_pool_proj
I0403 14:46:22.549075 13619 net.cpp:425] inception_5b/relu_pool_proj <- inception_5b/pool_proj
I0403 14:46:22.549091 13619 net.cpp:386] inception_5b/relu_pool_proj -> inception_5b/pool_proj (in-place)
I0403 14:46:22.549386 13619 net.cpp:141] Setting up inception_5b/relu_pool_proj
I0403 14:46:22.549410 13619 net.cpp:148] Top shape: 24 128 7 7 (150528)
I0403 14:46:22.549424 13619 net.cpp:156] Memory required for data: 1341047328
I0403 14:46:22.549438 13619 layer_factory.hpp:77] Creating layer inception_5b/output
I0403 14:46:22.549455 13619 net.cpp:91] Creating Layer inception_5b/output
I0403 14:46:22.549485 13619 net.cpp:425] inception_5b/output <- inception_5b/1x1
I0403 14:46:22.549502 13619 net.cpp:425] inception_5b/output <- inception_5b/3x3
I0403 14:46:22.549518 13619 net.cpp:425] inception_5b/output <- inception_5b/5x5
I0403 14:46:22.549533 13619 net.cpp:425] inception_5b/output <- inception_5b/pool_proj
I0403 14:46:22.549557 13619 net.cpp:399] inception_5b/output -> inception_5b/output
I0403 14:46:22.549608 13619 net.cpp:141] Setting up inception_5b/output
I0403 14:46:22.549635 13619 net.cpp:148] Top shape: 24 1024 7 7 (1204224)
I0403 14:46:22.549650 13619 net.cpp:156] Memory required for data: 1345864224
I0403 14:46:22.549664 13619 layer_factory.hpp:77] Creating layer pool5/7x7_s1
I0403 14:46:22.549679 13619 net.cpp:91] Creating Layer pool5/7x7_s1
I0403 14:46:22.549695 13619 net.cpp:425] pool5/7x7_s1 <- inception_5b/output
I0403 14:46:22.549715 13619 net.cpp:399] pool5/7x7_s1 -> pool5/7x7_s1
I0403 14:46:22.549923 13619 net.cpp:141] Setting up pool5/7x7_s1
I0403 14:46:22.549948 13619 net.cpp:148] Top shape: 24 1024 1 1 (24576)
I0403 14:46:22.549962 13619 net.cpp:156] Memory required for data: 1345962528
I0403 14:46:22.549975 13619 layer_factory.hpp:77] Creating layer pool5/drop_7x7_s1
I0403 14:46:22.549994 13619 net.cpp:91] Creating Layer pool5/drop_7x7_s1
I0403 14:46:22.550010 13619 net.cpp:425] pool5/drop_7x7_s1 <- pool5/7x7_s1
I0403 14:46:22.550026 13619 net.cpp:386] pool5/drop_7x7_s1 -> pool5/7x7_s1 (in-place)
I0403 14:46:22.550074 13619 net.cpp:141] Setting up pool5/drop_7x7_s1
I0403 14:46:22.550099 13619 net.cpp:148] Top shape: 24 1024 1 1 (24576)
I0403 14:46:22.550113 13619 net.cpp:156] Memory required for data: 1346060832
I0403 14:46:22.550127 13619 layer_factory.hpp:77] Creating layer loss3/classifier_plantvillage
I0403 14:46:22.550145 13619 net.cpp:91] Creating Layer loss3/classifier_plantvillage
I0403 14:46:22.550161 13619 net.cpp:425] loss3/classifier_plantvillage <- pool5/7x7_s1
I0403 14:46:22.550180 13619 net.cpp:399] loss3/classifier_plantvillage -> loss3/classifier_plantvillage
I0403 14:46:22.550649 13619 net.cpp:141] Setting up loss3/classifier_plantvillage
I0403 14:46:22.550684 13619 net.cpp:148] Top shape: 24 38 (912)
I0403 14:46:22.550698 13619 net.cpp:156] Memory required for data: 1346064480
I0403 14:46:22.550716 13619 layer_factory.hpp:77] Creating layer loss3/classifier_plantvillage_loss3/classifier_plantvillage_0_split
I0403 14:46:22.550734 13619 net.cpp:91] Creating Layer loss3/classifier_plantvillage_loss3/classifier_plantvillage_0_split
I0403 14:46:22.550750 13619 net.cpp:425] loss3/classifier_plantvillage_loss3/classifier_plantvillage_0_split <- loss3/classifier_plantvillage
I0403 14:46:22.550765 13619 net.cpp:399] loss3/classifier_plantvillage_loss3/classifier_plantvillage_0_split -> loss3/classifier_plantvillage_loss3/classifier_plantvillage_0_split_0
I0403 14:46:22.550788 13619 net.cpp:399] loss3/classifier_plantvillage_loss3/classifier_plantvillage_0_split -> loss3/classifier_plantvillage_loss3/classifier_plantvillage_0_split_1
I0403 14:46:22.550809 13619 net.cpp:399] loss3/classifier_plantvillage_loss3/classifier_plantvillage_0_split -> loss3/classifier_plantvillage_loss3/classifier_plantvillage_0_split_2
I0403 14:46:22.550829 13619 net.cpp:399] loss3/classifier_plantvillage_loss3/classifier_plantvillage_0_split -> loss3/classifier_plantvillage_loss3/classifier_plantvillage_0_split_3
I0403 14:46:22.550933 13619 net.cpp:141] Setting up loss3/classifier_plantvillage_loss3/classifier_plantvillage_0_split
I0403 14:46:22.550956 13619 net.cpp:148] Top shape: 24 38 (912)
I0403 14:46:22.550972 13619 net.cpp:148] Top shape: 24 38 (912)
I0403 14:46:22.550987 13619 net.cpp:148] Top shape: 24 38 (912)
I0403 14:46:22.551002 13619 net.cpp:148] Top shape: 24 38 (912)
I0403 14:46:22.551015 13619 net.cpp:156] Memory required for data: 1346079072
I0403 14:46:22.551029 13619 layer_factory.hpp:77] Creating layer loss1/loss
I0403 14:46:22.551053 13619 net.cpp:91] Creating Layer loss1/loss
I0403 14:46:22.551070 13619 net.cpp:425] loss1/loss <- loss1/classifier_plantvillage_loss1/classifier_plantvillage_0_split_0
I0403 14:46:22.551100 13619 net.cpp:425] loss1/loss <- label_data_1_split_0
…
