…
I0403 13:37:18.364027 11824 net.cpp:313] The NetState phase (1) differed from the phase (0) specified by a rule in layer data
I0403 13:37:18.365248 11824 net.cpp:49] Initializing net from parameters: 
state {
  phase: TEST
}
layer {
  name: "data"
  type: "Data"
  top: "data"
  top: "label"
  include {
    phase: TEST
  }
  transform_param {
    mirror: false
    crop_size: 224
    mean_file: "/home/mohanty/data/final_dataset/lmdb/segmented-20-80/mean.binaryproto"
  }
  data_param {
    source: "/home/mohanty/data/final_dataset/lmdb/segmented-20-80/test_db"
    batch_size: 24
    backend: LMDB
  }
}
layer {
  name: "conv1/7x7_s2"
  type: "Convolution"
  bottom: "data"
  top: "conv1/7x7_s2"
  param {
    lr_mult: 1
    decay_mult: 1
  }
  param {
    lr_mult: 2
    decay_mult: 0
  }
  convolution_param {
    num_output: 64
    pad: 3
    kernel_size: 7
    stride: 2
    weight_filler {
      type: "xavier"
      std: 0.1
    }
    bias_filler {
      type: "constant"
      value: 0.2
    }
  }
}
layer {
  name: "conv1/relu_7x7"
  type: "ReLU"
  bottom: "conv1/7x7_s2"
  top: "conv1/7x7_s2"
}
layer {
  name: "pool1/3x3_s2"
  type: "Pooling"
  bottom: "conv1/7x7_s2"
  top: "pool1/3x3_s2"
  pooling_param {
    pool: MAX
    kernel_size: 3
    stride: 2
  }
}
layer {
  name: "pool1/norm1"
  type: "LRN"
  bottom: "pool1/3x3_s2"
  top: "pool1/norm1"
  lrn_param {
    local_size: 5
    alpha: 0.0001
    beta: 0.75
  }
}
layer {
  name: "conv2/3x3_reduce"
  type: "Convolution"
  bottom: "pool1/norm1"
  top: "conv2/3x3_reduce"
  param {
    lr_mult: 1
    decay_mult: 1
  }
  param {
    lr_mult: 2
    decay_mult: 0
  }
  convolution_param {
    num_output: 64
    kernel_size: 1
    weight_filler {
      type: "xavier"
      std: 0.1
    }
    bias_filler {
      type: "constant"
      value: 0.2
    }
  }
}
layer {
  name: "conv2/relu_3x3_reduce"
  type: "ReLU"
  bottom: "conv2/3x3_reduce"
  top: "conv2/3x3_reduce"
}
layer {
  name: "conv2/3x3"
  type: "Convolution"
  bottom: "conv2/3x3_reduce"
  top: "conv2/3x3"
  param {
    lr_mult: 1
    decay_mult: 1
  }
  param {
    lr_mult: 2
    decay_mult: 0
  }
  convolution_param {
    num_output: 192
    pad: 1
    kernel_size: 3
    weight_filler {
      type: "xavier"
      std: 0.03
    }
    bias_filler {
      type: "constant"
      value: 0.2
    }
  }
}
layer {
  name: "conv2/relu_3x3"
  type: "ReLU"
  bottom: "conv2/3x3"
  top: "conv2/3x3"
}
layer {
  name: "conv2/norm2"
  type: "LRN"
  bottom: "conv2/3x3"
  top: "conv2/norm2"
  lrn_param {
    local_size: 5
    alpha: 0.0001
    beta: 0.75
  }
}
layer {
  name: "pool2/3x3_s2"
  type: "Pooling"
  bottom: "conv2/norm2"
  top: "pool2/3x3_s2"
  pooling_param {
    pool: MAX
    kernel_size: 3
    stride: 2
  }
}
layer {
  name: "inception_3a/1x1"
  type: "Convolution"
  bottom: "pool2/3x3_s2"
  top: "inception_3a/1x1"
  param {
    lr_mult: 1
    decay_mult: 1
  }
  param {
    lr_mult: 2
    decay_mult: 0
  }
  convolution_param {
    num_output: 64
    kernel_size: 1
    weight_filler {
      type: "xavier"
      std: 0.03
    }
    bias_filler {
      type: "constant"
      value: 0.2
    }
  }
}
layer {
  name: "inception_3a/relu_1x1"
  type: "ReLU"
  bottom: "inception_3a/1x1"
  top: "inception_3a/1x1"
}
layer {
  name: "inception_3a/3x3_reduce"
  type: "Convolution"
  bottom: "pool2/3x3_s2"
  top: "inception_3a/3x3_reduce"
  param {
    lr_mult: 1
    decay_mult: 1
  }
  param {
    lr_mult: 2
    decay_mult: 0
  }
  convolution_param {
    num_output: 96
    kernel_size: 1
    weight_filler {
      type: "xavier"
      std: 0.09
    }
    bias_filler {
      type: "constant"
      value: 0.2
    }
  }
}
layer {
  name: "inception_3a/relu_3x3_reduce"
  type: "ReLU"
  bottom: "inception_3a/3x3_reduce"
  top: "inception_3a/3x3_reduce"
}
layer {
  name: "inception_3a/3x3"
  type: "Convolution"
  bottom: "inception_3a/3x3_reduce"
  top: "inception_3a/3x3"
  param {
    lr_mult: 1
    decay_mult: 1
  }
  param {
    lr_mult: 2
    decay_mult: 0
  }
  convolution_param {
    num_output: 128
    pad: 1
    kernel_size: 3
    weight_filler {
      type: "xavier"
      std: 0.03
    }
    bias_filler {
      type: "constant"
      value: 0.2
    }
  }
}
layer {
  name: "inception_3a/relu_3x3"
  type: "ReLU"
  bottom: "inception_3a/3x3"
  top: "inception_3a/3x3"
}
layer {
  name: "inception_3a/5x5_reduce"
  type: "Convolution"
  bottom: "pool2/3x3_s2"
  top: "inception_3a/5x5_reduce"
  param {
    lr_mult: 1
    decay_mult: 1
  }
  param {
    lr_mult: 2
    decay_mult: 0
  }
  convolution_param {
    num_output: 16
    kernel_size: 1
    weight_filler {
      type: "xavier"
      std: 0.2
    }
    bias_filler {
      type: "constant"
      value: 0.2
    }
  }
}
layer {
  name: "inception_3a/relu_5x5_reduce"
  type: "ReLU"
  bottom: "inception_3a/5x5_reduce"
  top: "inception_3a/5x5_reduce"
}
layer {
  name: "inception_3a/5x5"
  type: "Convolution"
  bottom: "inception_3a/5x5_reduce"
  top: "inception_3a/5x5"
  param {
    lr_mult: 1
    decay_mult: 1
  }
  param {
    lr_mult: 2
    decay_mult: 0
  }
  convolution_param {
    num_output: 32
    pad: 2
    kernel_size: 5
    weight_filler {
      type: "xavier"
      std: 0.03
    }
    bias_filler {
      type: "constant"
      value: 0.2
    }
  }
}
layer {
  name: "inception_3a/relu_5x5"
  type: "ReLU"
  bottom: "inception_3a/5x5"
  top: "inception_3a/5x5"
}
layer {
  name: "inception_3a/pool"
  type: "Pooling"
  bottom: "pool2/3x3_s2"
  top: "inception_3a/pool"
  pooling_param {
    pool: MAX
    kernel_size: 3
    stride: 1
    pad: 1
  }
}
layer {
  name: "inception_3a/pool_proj"
  type: "Convolution"
  bottom: "inception_3a/pool"
  top: "inception_3a/pool_proj"
  param {
    lr_mult: 1
    decay_mult: 1
  }
  param {
    lr_mult: 2
    decay_mult: 0
  }
  convolution_param {
    num_output: 32
    kernel_size: 1
    weight_filler {
      type: "xavier"
      std: 0.1
    }
    bias_filler {
      type: "constant"
      value: 0.2
    }
  }
}
layer {
  name: "inception_3a/relu_pool_proj"
  type: "ReLU"
  bottom: "inception_3a/pool_proj"
  top: "inception_3a/pool_proj"
}
layer {
  name: "inception_3a/output"
  type: "Concat"
  bottom: "inception_3a/1x1"
  bottom: "inception_3a/3x3"
  bottom: "inception_3a/5x5"
  bottom: "inception_3a/pool_proj"
  top: "inception_3a/output"
}
layer {
  name: "inception_3b/1x1"
  type: "Convolution"
  bottom: "inception_3a/output"
  top: "inception_3b/1x1"
  param {
    lr_mult: 1
    decay_mult: 1
  }
  param {
    lr_mult: 2
    decay_mult: 0
  }
  convolution_param {
    num_output: 128
    kernel_size: 1
    weight_filler {
      type: "xavier"
      std: 0.03
    }
    bias_filler {
      type: "constant"
      value: 0.2
    }
  }
}
layer {
  name: "inception_3b/relu_1x1"
  type: "ReLU"
  bottom: "inception_3b/1x1"
  top: "inception_3b/1x1"
}
layer {
  name: "inception_3b/3x3_reduce"
  type: "Convolution"
  bottom: "inception_3a/output"
  top: "inception_3b/3x3_reduce"
  param {
    lr_mult: 1
    decay_mult: 1
  }
  param {
    lr_mult: 2
    decay_mult: 0
  }
  convolution_param {
    num_output: 128
    kernel_size: 1
    weight_filler {
      type: "xavier"
      std: 0.09
    }
    bias_filler {
      type: "constant"
      value: 0.2
    }
  }
}
layer {
  name: "inception_3b/relu_3x3_reduce"
  type: "ReLU"
  bottom: "inception_3b/3x3_reduce"
  top: "inception_3b/3x3_reduce"
}
layer {
  name: "inception_3b/3x3"
  type: "Convolution"
  bottom: "inception_3b/3x3_reduce"
  top: "inception_3b/3x3"
  param {
    lr_mult: 1
    decay_mult: 1
  }
  param {
    lr_mult: 2
    decay_mult: 0
  }
  convolution_param {
    num_output: 192
    pad: 1
    kernel_size: 3
    weight_filler {
      type: "xavier"
      std: 0.03
    }
    bias_filler {
      type: "constant"
      value: 0.2
    }
  }
}
layer {
  name: "inception_3b/relu_3x3"
  type: "ReLU"
  bottom: "inception_3b/3x3"
  top: "inception_3b/3x3"
}
layer {
  name: "inception_3b/5x5_reduce"
  type: "Convolution"
  bottom: "inception_3a/output"
  top: "inception_3b/5x5_reduce"
  param {
    lr_mult: 1
    decay_mult: 1
  }
  param {
    lr_mult: 2
    decay_mult: 0
  }
  convolution_param {
    num_output: 32
    kernel_size: 1
    weight_filler {
      type: "xavier"
      std: 0.2
    }
    bias_filler {
      type: "constant"
      value: 0.2
    }
  }
}
layer {
  name: "inception_3b/relu_5x5_reduce"
  type: "ReLU"
  bottom: "inception_3b/5x5_reduce"
  top: "inception_3b/5x5_reduce"
}
layer {
  name: "inception_3b/5x5"
  type: "Convolution"
  bottom: "inception_3b/5x5_reduce"
  top: "inception_3b/5x5"
  param {
    lr_mult: 1
    decay_mult: 1
  }
  param {
    lr_mult: 2
    decay_mult: 0
  }
  convolution_param {
    num_output: 96
    pad: 2
    kernel_size: 5
    weight_filler {
      type: "xavier"
      std: 0.03
    }
    bias_filler {
      type: "constant"
      value: 0.2
    }
  }
}
layer {
  name: "inception_3b/relu_5x5"
  type: "ReLU"
  bottom: "inception_3b/5x5"
  top: "inception_3b/5x5"
}
layer {
  name: "inception_3b/pool"
  type: "Pooling"
  bottom: "inception_3a/output"
  top: "inception_3b/pool"
  pooling_param {
    pool: MAX
    kernel_size: 3
    stride: 1
    pad: 1
  }
}
layer {
  name: "inception_3b/pool_proj"
  type: "Convolution"
  bottom: "inception_3b/pool"
  top: "inception_3b/pool_proj"
  param {
    lr_mult: 1
    decay_mult: 1
  }
  param {
    lr_mult: 2
    decay_mult: 0
  }
  convolution_param {
    num_output: 64
    kernel_size: 1
    weight_filler {
      type: "xavier"
      std: 0.1
    }
    bias_filler {
      type: "constant"
      value: 0.2
    }
  }
}
layer {
  name: "inception_3b/relu_pool_proj"
  type: "ReLU"
  bottom: "inception_3b/pool_proj"
  top: "inception_3b/pool_proj"
}
layer {
  name: "inception_3b/output"
  type: "Concat"
  bottom: "inception_3b/1x1"
  bottom: "inception_3b/3x3"
  bottom: "inception_3b/5x5"
  bottom: "inception_3b/pool_proj"
  top: "inception_3b/output"
}
layer {
  name: "pool3/3x3_s2"
  type: "Pooling"
  bottom: "inception_3b/output"
  top: "pool3/3x3_s2"
  pooling_param {
    pool: MAX
    kernel_size: 3
    stride: 2
  }
}
layer {
  name: "inception_4a/1x1"
  type: "Convolution"
  bottom: "pool3/3x3_s2"
  top: "inception_4a/1x1"
  param {
    lr_mult: 1
    decay_mult: 1
  }
  param {
    lr_mult: 2
    decay_mult: 0
  }
  convolution_param {
    num_output: 192
    kernel_size: 1
    weight_filler {
      type: "xavier"
      std: 0.03
    }
    bias_filler {
      type: "constant"
      value: 0.2
    }
  }
}
layer {
  name: "inception_4a/relu_1x1"
  type: "ReLU"
  bottom: "inception_4a/1x1"
  top: "inception_4a/1x1"
}
layer {
  name: "inception_4a/3x3_reduce"
  type: "Convolution"
  bottom: "pool3/3x3_s2"
  top: "inception_4a/3x3_reduce"
  param {
    lr_mult: 1
    decay_mult: 1
  }
  param {
    lr_mult: 2
    decay_mult: 0
  }
  convolution_param {
    num_output: 96
    kernel_size: 1
    weight_filler {
      type: "xavier"
      std: 0.09
    }
    bias_filler {
      type: "constant"
      value: 0.2
    }
  }
}
layer {
  name: "inception_4a/relu_3x3_reduce"
  type: "ReLU"
  bottom: "inception_4a/3x3_reduce"
  top: "inception_4a/3x3_reduce"
}
layer {
  name: "inception_4a/3x3"
  type: "Convolution"
  bottom: "inception_4a/3x3_reduce"
  top: "inception_4a/3x3"
  param {
    lr_mult: 1
    decay_mult: 1
  }
  param {
    lr_mult: 2
    decay_mult: 0
  }
  convolution_param {
    num_output: 208
    pad: 1
    kernel_size: 3
    weight_filler {
      type: "xavier"
      std: 0.03
    }
    bias_filler {
      type: "constant"
      value: 0.2
    }
  }
}
layer {
  name: "inception_4a/relu_3x3"
  type: "ReLU"
  bottom: "inception_4a/3x3"
  top: "inception_4a/3x3"
}
layer {
  name: "inception_4a/5x5_reduce"
  type: "Convolution"
  bottom: "pool3/3x3_s2"
  top: "inception_4a/5x5_reduce"
  param {
    lr_mult: 1
    decay_mult: 1
  }
  param {
    lr_mult: 2
    decay_mult: 0
  }
  convolution_param {
    num_output: 16
    kernel_size: 1
    weight_filler {
      type: "xavier"
      std: 0.2
    }
    bias_filler {
      type: "constant"
      value: 0.2
    }
  }
}
layer {
  name: "inception_4a/relu_5x5_reduce"
  type: "ReLU"
  bottom: "inception_4a/5x5_reduce"
  top: "inception_4a/5x5_reduce"
}
layer {
  name: "inception_4a/5x5"
  type: "Convolution"
  bottom: "inception_4a/5x5_reduce"
  top: "inception_4a/5x5"
  param {
    lr_mult: 1
    decay_mult: 1
  }
  param {
    lr_mult: 2
    decay_mult: 0
  }
  convolution_param {
    num_output: 48
    pad: 2
    kernel_size: 5
    weight_filler {
      type: "xavier"
      std: 0.03
    }
    bias_filler {
      type: "constant"
      value: 0.2
    }
  }
}
layer {
  name: "inception_4a/relu_5x5"
  type: "ReLU"
  bottom: "inception_4a/5x5"
  top: "inception_4a/5x5"
}
layer {
  name: "inception_4a/pool"
  type: "Pooling"
  bottom: "pool3/3x3_s2"
  top: "inception_4a/pool"
  pooling_param {
    pool: MAX
    kernel_size: 3
    stride: 1
    pad: 1
  }
}
layer {
  name: "inception_4a/pool_proj"
  type: "Convolution"
  bottom: "inception_4a/pool"
  top: "inception_4a/pool_proj"
  param {
    lr_mult: 1
    decay_mult: 1
  }
  param {
    lr_mult: 2
    decay_mult: 0
  }
  convolution_param {
    num_output: 64
    kernel_size: 1
    weight_filler {
      type: "xavier"
      std: 0.1
    }
    bias_filler {
      type: "constant"
      value: 0.2
    }
  }
}
layer {
  name: "inception_4a/relu_pool_proj"
  type: "ReLU"
  bottom: "inception_4a/pool_proj"
  top: "inception_4a/pool_proj"
}
layer {
  name: "inception_4a/output"
  type: "Concat"
  bottom: "inception_4a/1x1"
  bottom: "inception_4a/3x3"
  bottom: "inception_4a/5x5"
  bottom: "inception_4a/pool_proj"
  top: "inception_4a/output"
}
layer {
  name: "loss1/ave_pool"
  type: "Pooling"
  bottom: "inception_4a/output"
  top: "loss1/ave_pool"
  pooling_param {
    pool: AVE
    kernel_size: 5
    stride: 3
  }
}
layer {
  name: "loss1/conv"
  type: "Convolution"
  bottom: "loss1/ave_pool"
  top: "loss1/conv"
  param {
    lr_mult: 1
    decay_mult: 1
  }
  param {
    lr_mult: 2
    decay_mult: 0
  }
  convolution_param {
    num_output: 128
    kernel_size: 1
    weight_filler {
      type: "xavier"
      std: 0.08
    }
    bias_filler {
      type: "constant"
      value: 0.2
    }
  }
}
layer {
  name: "loss1/relu_conv"
  type: "ReLU"
  bottom: "loss1/conv"
  top: "loss1/conv"
}
layer {
  name: "loss1/fc"
  type: "InnerProduct"
  bottom: "loss1/conv"
  top: "loss1/fc"
  param {
    lr_mult: 1
    decay_mult: 1
  }
  param {
    lr_mult: 2
    decay_mult: 0
  }
  inner_product_param {
    num_output: 1024
    weight_filler {
      type: "xavier"
      std: 0.02
    }
    bias_filler {
      type: "constant"
      value: 0.2
    }
  }
}
layer {
  name: "loss1/relu_fc"
  type: "ReLU"
  bottom: "loss1/fc"
  top: "loss1/fc"
}
layer {
  name: "loss1/drop_fc"
  type: "Dropout"
  bottom: "loss1/fc"
  top: "loss1/fc"
  dropout_param {
    dropout_ratio: 0.7
  }
}
layer {
  name: "loss1/classifier_plantvillage"
  type: "InnerProduct"
  bottom: "loss1/fc"
  top: "loss1/classifier_plantvillage"
  param {
    lr_mult: 1
    decay_mult: 1
  }
  param {
    lr_mult: 2
    decay_mult: 0
  }
  inner_product_param {
    num_output: 38
    weight_filler {
      type: "xavier"
      std: 0.0009765625
    }
    bias_filler {
      type: "constant"
      value: 0
    }
  }
}
layer {
  name: "inception_4b/1x1"
  type: "Convolution"
  bottom: "inception_4a/output"
  top: "inception_4b/1x1"
  param {
    lr_mult: 1
    decay_mult: 1
  }
  param {
    lr_mult: 2
    decay_mult: 0
  }
  convolution_param {
    num_output: 160
    kernel_size: 1
    weight_filler {
      type: "xavier"
      std: 0.03
    }
    bias_filler {
      type: "constant"
      value: 0.2
    }
  }
}
layer {
  name: "inception_4b/relu_1x1"
  type: "ReLU"
  bottom: "inception_4b/1x1"
  top: "inception_4b/1x1"
}
layer {
  name: "inception_4b/3x3_reduce"
  type: "Convolution"
  bottom: "inception_4a/output"
  top: "inception_4b/3x3_reduce"
  param {
    lr_mult: 1
    decay_mult: 1
  }
  param {
    lr_mult: 2
    decay_mult: 0
  }
  convolution_param {
    num_output: 112
    kernel_size: 1
    weight_filler {
      type: "xavier"
      std: 0.09
    }
    bias_filler {
      type: "constant"
      value: 0.2
    }
  }
}
layer {
  name: "inception_4b/relu_3x3_reduce"
  type: "ReLU"
  bottom: "inception_4b/3x3_reduce"
  top: "inception_4b/3x3_reduce"
}
layer {
  name: "inception_4b/3x3"
  type: "Convolution"
  bottom: "inception_4b/3x3_reduce"
  top: "inception_4b/3x3"
  param {
    lr_mult: 1
    decay_mult: 1
  }
  param {
    lr_mult: 2
    decay_mult: 0
  }
  convolution_param {
    num_output: 224
    pad: 1
    kernel_size: 3
    weight_filler {
      type: "xavier"
      std: 0.03
    }
    bias_filler {
      type: "constant"
      value: 0.2
    }
  }
}
layer {
  name: "inception_4b/relu_3x3"
  type: "ReLU"
  bottom: "inception_4b/3x3"
  top: "inception_4b/3x3"
}
layer {
  name: "inception_4b/5x5_reduce"
  type: "Convolution"
  bottom: "inception_4a/output"
  top: "inception_4b/5x5_reduce"
  param {
    lr_mult: 1
    decay_mult: 1
  }
  param {
    lr_mult: 2
    decay_mult: 0
  }
  convolution_param {
    num_output: 24
    kernel_size: 1
    weight_filler {
      type: "xavier"
      std: 0.2
    }
    bias_filler {
      type: "constant"
      value: 0.2
    }
  }
}
layer {
  name: "inception_4b/relu_5x5_reduce"
  type: "ReLU"
  bottom: "inception_4b/5x5_reduce"
  top: "inception_4b/5x5_reduce"
}
layer {
  name: "inception_4b/5x5"
  type: "Convolution"
  bottom: "inception_4b/5x5_reduce"
  top: "inception_4b/5x5"
  param {
    lr_mult: 1
    decay_mult: 1
  }
  param {
    lr_mult: 2
    decay_mult: 0
  }
  convolution_param {
    num_output: 64
    pad: 2
    kernel_size: 5
    weight_filler {
      type: "xavier"
      std: 0.03
    }
    bias_filler {
      type: "constant"
      value: 0.2
    }
  }
}
layer {
  name: "inception_4b/relu_5x5"
  type: "ReLU"
  bottom: "inception_4b/5x5"
  top: "inception_4b/5x5"
}
layer {
  name: "inception_4b/pool"
  type: "Pooling"
  bottom: "inception_4a/output"
  top: "inception_4b/pool"
  pooling_param {
    pool: MAX
    kernel_size: 3
    stride: 1
    pad: 1
  }
}
layer {
  name: "inception_4b/pool_proj"
  type: "Convolution"
  bottom: "inception_4b/pool"
  top: "inception_4b/pool_proj"
  param {
    lr_mult: 1
    decay_mult: 1
  }
  param {
    lr_mult: 2
    decay_mult: 0
  }
  convolution_param {
    num_output: 64
    kernel_size: 1
    weight_filler {
      type: "xavier"
      std: 0.1
    }
    bias_filler {
      type: "constant"
      value: 0.2
    }
  }
}
layer {
  name: "inception_4b/relu_pool_proj"
  type: "ReLU"
  bottom: "inception_4b/pool_proj"
  top: "inception_4b/pool_proj"
}
layer {
  name: "inception_4b/output"
  type: "Concat"
  bottom: "inception_4b/1x1"
  bottom: "inception_4b/3x3"
  bottom: "inception_4b/5x5"
  bottom: "inception_4b/pool_proj"
  top: "inception_4b/output"
}
layer {
  name: "inception_4c/1x1"
  type: "Convolution"
  bottom: "inception_4b/output"
  top: "inception_4c/1x1"
  param {
    lr_mult: 1
    decay_mult: 1
  }
  param {
    lr_mult: 2
    decay_mult: 0
  }
  convolution_param {
    num_output: 128
    kernel_size: 1
    weight_filler {
      type: "xavier"
      std: 0.03
    }
    bias_filler {
      type: "constant"
      value: 0.2
    }
  }
}
layer {
  name: "inception_4c/relu_1x1"
  type: "ReLU"
  bottom: "inception_4c/1x1"
  top: "inception_4c/1x1"
}
layer {
  name: "inception_4c/3x3_reduce"
  type: "Convolution"
  bottom: "inception_4b/output"
  top: "inception_4c/3x3_reduce"
  param {
    lr_mult: 1
    decay_mult: 1
  }
  param {
    lr_mult: 2
    decay_mult: 0
  }
  convolution_param {
    num_output: 128
    kernel_size: 1
    weight_filler {
      type: "xavier"
      std: 0.09
    }
    bias_filler {
      type: "constant"
      value: 0.2
    }
  }
}
layer {
  name: "inception_4c/relu_3x3_reduce"
  type: "ReLU"
  bottom: "inception_4c/3x3_reduce"
  top: "inception_4c/3x3_reduce"
}
layer {
  name: "inception_4c/3x3"
  type: "Convolution"
  bottom: "inception_4c/3x3_reduce"
  top: "inception_4c/3x3"
  param {
    lr_mult: 1
    decay_mult: 1
  }
  param {
    lr_mult: 2
    decay_mult: 0
  }
  convolution_param {
    num_output: 256
    pad: 1
    kernel_size: 3
    weight_filler {
      type: "xavier"
      std: 0.03
    }
    bias_filler {
      type: "constant"
      value: 0.2
    }
  }
}
layer {
  name: "inception_4c/relu_3x3"
  type: "ReLU"
  bottom: "inception_4c/3x3"
  top: "inception_4c/3x3"
}
layer {
  name: "inception_4c/5x5_reduce"
  type: "Convolution"
  bottom: "inception_4b/output"
  top: "inception_4c/5x5_reduce"
  param {
    lr_mult: 1
    decay_mult: 1
  }
  param {
    lr_mult: 2
    decay_mult: 0
  }
  convolution_param {
    num_output: 24
    kernel_size: 1
    weight_filler {
      type: "xavier"
      std: 0.2
    }
    bias_filler {
      type: "constant"
      value: 0.2
    }
  }
}
layer {
  name: "inception_4c/relu_5x5_reduce"
  type: "ReLU"
  bottom: "inception_4c/5x5_reduce"
  top: "inception_4c/5x5_reduce"
}
layer {
  name: "inception_4c/5x5"
  type: "Convolution"
  bottom: "inception_4c/5x5_reduce"
  top: "inception_4c/5x5"
  param {
    lr_mult: 1
    decay_mult: 1
  }
  param {
    lr_mult: 2
    decay_mult: 0
  }
  convolution_param {
    num_output: 64
    pad: 2
    kernel_size: 5
    weight_filler {
      type: "xavier"
      std: 0.03
    }
    bias_filler {
      type: "constant"
      value: 0.2
    }
  }
}
layer {
  name: "inception_4c/relu_5x5"
  type: "ReLU"
  bottom: "inception_4c/5x5"
  top: "inception_4c/5x5"
}
layer {
  name: "inception_4c/pool"
  type: "Pooling"
  bottom: "inception_4b/output"
  top: "inception_4c/pool"
  pooling_param {
    pool: MAX
    kernel_size: 3
    stride: 1
    pad: 1
  }
}
layer {
  name: "inception_4c/pool_proj"
  type: "Convolution"
  bottom: "inception_4c/pool"
  top: "inception_4c/pool_proj"
  param {
    lr_mult: 1
    decay_mult: 1
  }
  param {
    lr_mult: 2
    decay_mult: 0
  }
  convolution_param {
    num_output: 64
    kernel_size: 1
    weight_filler {
      type: "xavier"
      std: 0.1
    }
    bias_filler {
      type: "constant"
      value: 0.2
    }
  }
}
layer {
  name: "inception_4c/relu_pool_proj"
  type: "ReLU"
  bottom: "inception_4c/pool_proj"
  top: "inception_4c/pool_proj"
}
layer {
  name: "inception_4c/output"
  type: "Concat"
  bottom: "inception_4c/1x1"
  bottom: "inception_4c/3x3"
  bottom: "inception_4c/5x5"
  bottom: "inception_4c/pool_proj"
  top: "inception_4c/output"
}
layer {
  name: "inception_4d/1x1"
  type: "Convolution"
  bottom: "inception_4c/output"
  top: "inception_4d/1x1"
  param {
    lr_mult: 1
    decay_mult: 1
  }
  param {
    lr_mult: 2
    decay_mult: 0
  }
  convolution_param {
    num_output: 112
    kernel_size: 1
    weight_filler {
      type: "xavier"
      std: 0.03
    }
    bias_filler {
      type: "constant"
      value: 0.2
    }
  }
}
layer {
  name: "inception_4d/relu_1x1"
  type: "ReLU"
  bottom: "inception_4d/1x1"
  top: "inception_4d/1x1"
}
layer {
  name: "inception_4d/3x3_reduce"
  type: "Convolution"
  bottom: "inception_4c/output"
  top: "inception_4d/3x3_reduce"
  param {
    lr_mult: 1
    decay_mult: 1
  }
  param {
    lr_mult: 2
    decay_mult: 0
  }
  convolution_param {
    num_output: 144
    kernel_size: 1
    weight_filler {
      type: "xavier"
      std: 0.09
    }
    bias_filler {
      type: "constant"
      value: 0.2
    }
  }
}
layer {
  name: "inception_4d/relu_3x3_reduce"
  type: "ReLU"
  bottom: "inception_4d/3x3_reduce"
  top: "inception_4d/3x3_reduce"
}
layer {
  name: "inception_4d/3x3"
  type: "Convolution"
  bottom: "inception_4d/3x3_reduce"
  top: "inception_4d/3x3"
  param {
    lr_mult: 1
    decay_mult: 1
  }
  param {
    lr_mult: 2
    decay_mult: 0
  }
  convolution_param {
    num_output: 288
    pad: 1
    kernel_size: 3
    weight_filler {
      type: "xavier"
      std: 0.03
    }
    bias_filler {
      type: "constant"
      value: 0.2
    }
  }
}
layer {
  name: "inception_4d/relu_3x3"
  type: "ReLU"
  bottom: "inception_4d/3x3"
  top: "inception_4d/3x3"
}
layer {
  name: "inception_4d/5x5_reduce"
  type: "Convolution"
  bottom: "inception_4c/output"
  top: "inception_4d/5x5_reduce"
  param {
    lr_mult: 1
    decay_mult: 1
  }
  param {
    lr_mult: 2
    decay_mult: 0
  }
  convolution_param {
    num_output: 32
    kernel_size: 1
    weight_filler {
      type: "xavier"
      std: 0.2
    }
    bias_filler {
      type: "constant"
      value: 0.2
    }
  }
}
layer {
  name: "inception_4d/relu_5x5_reduce"
  type: "ReLU"
  bottom: "inception_4d/5x5_reduce"
  top: "inception_4d/5x5_reduce"
}
layer {
  name: "inception_4d/5x5"
  type: "Convolution"
  bottom: "inception_4d/5x5_reduce"
  top: "inception_4d/5x5"
  param {
    lr_mult: 1
    decay_mult: 1
  }
  param {
    lr_mult: 2
    decay_mult: 0
  }
  convolution_param {
    num_output: 64
    pad: 2
    kernel_size: 5
    weight_filler {
      type: "xavier"
      std: 0.03
    }
    bias_filler {
      type: "constant"
      value: 0.2
    }
  }
}
layer {
  name: "inception_4d/relu_5x5"
  type: "ReLU"
  bottom: "inception_4d/5x5"
  top: "inception_4d/5x5"
}
layer {
  name: "inception_4d/pool"
  type: "Pooling"
  bottom: "inception_4c/output"
  top: "inception_4d/pool"
  pooling_param {
    pool: MAX
    kernel_size: 3
    stride: 1
    pad: 1
  }
}
layer {
  name: "inception_4d/pool_proj"
  type: "Convolution"
  bottom: "inception_4d/pool"
  top: "inception_4d/pool_proj"
  param {
    lr_mult: 1
    decay_mult: 1
  }
  param {
    lr_mult: 2
    decay_mult: 0
  }
  convolution_param {
    num_output: 64
    kernel_size: 1
    weight_filler {
      type: "xavier"
      std: 0.1
    }
    bias_filler {
      type: "constant"
      value: 0.2
    }
  }
}
layer {
  name: "inception_4d/relu_pool_proj"
  type: "ReLU"
  bottom: "inception_4d/pool_proj"
  top: "inception_4d/pool_proj"
}
layer {
  name: "inception_4d/output"
  type: "Concat"
  bottom: "inception_4d/1x1"
  bottom: "inception_4d/3x3"
  bottom: "inception_4d/5x5"
  bottom: "inception_4d/pool_proj"
  top: "inception_4d/output"
}
layer {
  name: "loss2/ave_pool"
  type: "Pooling"
  bottom: "inception_4d/output"
  top: "loss2/ave_pool"
  pooling_param {
    pool: AVE
    kernel_size: 5
    stride: 3
  }
}
layer {
  name: "loss2/conv"
  type: "Convolution"
  bottom: "loss2/ave_pool"
  top: "loss2/conv"
  param {
    lr_mult: 1
    decay_mult: 1
  }
  param {
    lr_mult: 2
    decay_mult: 0
  }
  convolution_param {
    num_output: 128
    kernel_size: 1
    weight_filler {
      type: "xavier"
      std: 0.08
    }
    bias_filler {
      type: "constant"
      value: 0.2
    }
  }
}
layer {
  name: "loss2/relu_conv"
  type: "ReLU"
  bottom: "loss2/conv"
  top: "loss2/conv"
}
layer {
  name: "loss2/fc"
  type: "InnerProduct"
  bottom: "loss2/conv"
  top: "loss2/fc"
  param {
    lr_mult: 1
    decay_mult: 1
  }
  param {
    lr_mult: 2
    decay_mult: 0
  }
  inner_product_param {
    num_output: 1024
    weight_filler {
      type: "xavier"
      std: 0.02
    }
    bias_filler {
      type: "constant"
      value: 0.2
    }
  }
}
layer {
  name: "loss2/relu_fc"
  type: "ReLU"
  bottom: "loss2/fc"
  top: "loss2/fc"
}
layer {
  name: "loss2/drop_fc"
  type: "Dropout"
  bottom: "loss2/fc"
  top: "loss2/fc"
  dropout_param {
    dropout_ratio: 0.7
  }
}
layer {
  name: "loss2/classifier_plantvillage"
  type: "InnerProduct"
  bottom: "loss2/fc"
  top: "loss2/classifier_plantvillage"
  param {
    lr_mult: 1
    decay_mult: 1
  }
  param {
    lr_mult: 2
    decay_mult: 0
  }
  inner_product_param {
    num_output: 38
    weight_filler {
      type: "xavier"
      std: 0.0009765625
    }
    bias_filler {
      type: "constant"
      value: 0
    }
  }
}
layer {
  name: "inception_4e/1x1"
  type: "Convolution"
  bottom: "inception_4d/output"
  top: "inception_4e/1x1"
  param {
    lr_mult: 1
    decay_mult: 1
  }
  param {
    lr_mult: 2
    decay_mult: 0
  }
  convolution_param {
    num_output: 256
    kernel_size: 1
    weight_filler {
      type: "xavier"
      std: 0.03
    }
    bias_filler {
      type: "constant"
      value: 0.2
    }
  }
}
layer {
  name: "inception_4e/relu_1x1"
  type: "ReLU"
  bottom: "inception_4e/1x1"
  top: "inception_4e/1x1"
}
layer {
  name: "inception_4e/3x3_reduce"
  type: "Convolution"
  bottom: "inception_4d/output"
  top: "inception_4e/3x3_reduce"
  param {
    lr_mult: 1
    decay_mult: 1
  }
  param {
    lr_mult: 2
    decay_mult: 0
  }
  convolution_param {
    num_output: 160
    kernel_size: 1
    weight_filler {
      type: "xavier"
      std: 0.09
    }
    bias_filler {
      type: "constant"
      value: 0.2
    }
  }
}
layer {
  name: "inception_4e/relu_3x3_reduce"
  type: "ReLU"
  bottom: "inception_4e/3x3_reduce"
  top: "inception_4e/3x3_reduce"
}
layer {
  name: "inception_4e/3x3"
  type: "Convolution"
  bottom: "inception_4e/3x3_reduce"
  top: "inception_4e/3x3"
  param {
    lr_mult: 1
    decay_mult: 1
  }
  param {
    lr_mult: 2
    decay_mult: 0
  }
  convolution_param {
    num_output: 320
    pad: 1
    kernel_size: 3
    weight_filler {
      type: "xavier"
      std: 0.03
    }
    bias_filler {
      type: "constant"
      value: 0.2
    }
  }
}
layer {
  name: "inception_4e/relu_3x3"
  type: "ReLU"
  bottom: "inception_4e/3x3"
  top: "inception_4e/3x3"
}
layer {
  name: "inception_4e/5x5_reduce"
  type: "Convolution"
  bottom: "inception_4d/output"
  top: "inception_4e/5x5_reduce"
  param {
    lr_mult: 1
    decay_mult: 1
  }
  param {
    lr_mult: 2
    decay_mult: 0
  }
  convolution_param {
    num_output: 32
    kernel_size: 1
    weight_filler {
      type: "xavier"
      std: 0.2
    }
    bias_filler {
      type: "constant"
      value: 0.2
    }
  }
}
layer {
  name: "inception_4e/relu_5x5_reduce"
  type: "ReLU"
  bottom: "inception_4e/5x5_reduce"
  top: "inception_4e/5x5_reduce"
}
layer {
  name: "inception_4e/5x5"
  type: "Convolution"
  bottom: "inception_4e/5x5_reduce"
  top: "inception_4e/
I0403 13:37:18.366590 11824 layer_factory.hpp:77] Creating layer data
I0403 13:37:18.367221 11824 net.cpp:91] Creating Layer data
I0403 13:37:18.367254 11824 net.cpp:399] data -> data
I0403 13:37:18.367305 11824 net.cpp:399] data -> label
I0403 13:37:18.367339 11824 data_transformer.cpp:25] Loading mean file from: /home/mohanty/data/final_dataset/lmdb/segmented-20-80/mean.binaryproto
I0403 13:37:18.372406 11827 db_lmdb.cpp:38] Opened lmdb /home/mohanty/data/final_dataset/lmdb/segmented-20-80/test_db
I0403 13:37:18.380578 11824 data_layer.cpp:41] output data size: 24,3,224,224
I0403 13:37:18.408056 11824 net.cpp:141] Setting up data
I0403 13:37:18.408148 11824 net.cpp:148] Top shape: 24 3 224 224 (3612672)
I0403 13:37:18.408170 11824 net.cpp:148] Top shape: 24 (24)
I0403 13:37:18.408186 11824 net.cpp:156] Memory required for data: 14450784
I0403 13:37:18.408215 11824 layer_factory.hpp:77] Creating layer label_data_1_split
I0403 13:37:18.408242 11824 net.cpp:91] Creating Layer label_data_1_split
I0403 13:37:18.408260 11824 net.cpp:425] label_data_1_split <- label
I0403 13:37:18.408294 11824 net.cpp:399] label_data_1_split -> label_data_1_split_0
I0403 13:37:18.408324 11824 net.cpp:399] label_data_1_split -> label_data_1_split_1
I0403 13:37:18.408345 11824 net.cpp:399] label_data_1_split -> label_data_1_split_2
I0403 13:37:18.408366 11824 net.cpp:399] label_data_1_split -> label_data_1_split_3
I0403 13:37:18.408386 11824 net.cpp:399] label_data_1_split -> label_data_1_split_4
I0403 13:37:18.408407 11824 net.cpp:399] label_data_1_split -> label_data_1_split_5
I0403 13:37:18.408427 11824 net.cpp:399] label_data_1_split -> label_data_1_split_6
I0403 13:37:18.408448 11824 net.cpp:399] label_data_1_split -> label_data_1_split_7
I0403 13:37:18.408469 11824 net.cpp:399] label_data_1_split -> label_data_1_split_8
I0403 13:37:18.408490 11824 net.cpp:399] label_data_1_split -> label_data_1_split_9
I0403 13:37:18.408617 11824 net.cpp:141] Setting up label_data_1_split
I0403 13:37:18.408641 11824 net.cpp:148] Top shape: 24 (24)
I0403 13:37:18.408659 11824 net.cpp:148] Top shape: 24 (24)
I0403 13:37:18.408675 11824 net.cpp:148] Top shape: 24 (24)
I0403 13:37:18.408691 11824 net.cpp:148] Top shape: 24 (24)
I0403 13:37:18.408707 11824 net.cpp:148] Top shape: 24 (24)
I0403 13:37:18.408723 11824 net.cpp:148] Top shape: 24 (24)
I0403 13:37:18.408740 11824 net.cpp:148] Top shape: 24 (24)
I0403 13:37:18.408756 11824 net.cpp:148] Top shape: 24 (24)
I0403 13:37:18.408771 11824 net.cpp:148] Top shape: 24 (24)
I0403 13:37:18.408788 11824 net.cpp:148] Top shape: 24 (24)
I0403 13:37:18.408838 11824 net.cpp:156] Memory required for data: 14451744
I0403 13:37:18.408854 11824 layer_factory.hpp:77] Creating layer conv1/7x7_s2
I0403 13:37:18.408886 11824 net.cpp:91] Creating Layer conv1/7x7_s2
I0403 13:37:18.408905 11824 net.cpp:425] conv1/7x7_s2 <- data
I0403 13:37:18.408924 11824 net.cpp:399] conv1/7x7_s2 -> conv1/7x7_s2
I0403 13:37:18.549953 11824 net.cpp:141] Setting up conv1/7x7_s2
I0403 13:37:18.550035 11824 net.cpp:148] Top shape: 24 64 112 112 (19267584)
I0403 13:37:18.550053 11824 net.cpp:156] Memory required for data: 91522080
I0403 13:37:18.550086 11824 layer_factory.hpp:77] Creating layer conv1/relu_7x7
I0403 13:37:18.550114 11824 net.cpp:91] Creating Layer conv1/relu_7x7
I0403 13:37:18.550133 11824 net.cpp:425] conv1/relu_7x7 <- conv1/7x7_s2
I0403 13:37:18.550153 11824 net.cpp:386] conv1/relu_7x7 -> conv1/7x7_s2 (in-place)
I0403 13:37:18.550423 11824 net.cpp:141] Setting up conv1/relu_7x7
I0403 13:37:18.550454 11824 net.cpp:148] Top shape: 24 64 112 112 (19267584)
I0403 13:37:18.550470 11824 net.cpp:156] Memory required for data: 168592416
I0403 13:37:18.550487 11824 layer_factory.hpp:77] Creating layer pool1/3x3_s2
I0403 13:37:18.550513 11824 net.cpp:91] Creating Layer pool1/3x3_s2
I0403 13:37:18.550531 11824 net.cpp:425] pool1/3x3_s2 <- conv1/7x7_s2
I0403 13:37:18.550556 11824 net.cpp:399] pool1/3x3_s2 -> pool1/3x3_s2
I0403 13:37:18.550636 11824 net.cpp:141] Setting up pool1/3x3_s2
I0403 13:37:18.550660 11824 net.cpp:148] Top shape: 24 64 56 56 (4816896)
I0403 13:37:18.550676 11824 net.cpp:156] Memory required for data: 187860000
I0403 13:37:18.550691 11824 layer_factory.hpp:77] Creating layer pool1/norm1
I0403 13:37:18.550716 11824 net.cpp:91] Creating Layer pool1/norm1
I0403 13:37:18.550734 11824 net.cpp:425] pool1/norm1 <- pool1/3x3_s2
I0403 13:37:18.550753 11824 net.cpp:399] pool1/norm1 -> pool1/norm1
I0403 13:37:18.551074 11824 net.cpp:141] Setting up pool1/norm1
I0403 13:37:18.551103 11824 net.cpp:148] Top shape: 24 64 56 56 (4816896)
I0403 13:37:18.551120 11824 net.cpp:156] Memory required for data: 207127584
I0403 13:37:18.551136 11824 layer_factory.hpp:77] Creating layer conv2/3x3_reduce
I0403 13:37:18.551163 11824 net.cpp:91] Creating Layer conv2/3x3_reduce
I0403 13:37:18.551182 11824 net.cpp:425] conv2/3x3_reduce <- pool1/norm1
I0403 13:37:18.551204 11824 net.cpp:399] conv2/3x3_reduce -> conv2/3x3_reduce
I0403 13:37:18.552659 11824 net.cpp:141] Setting up conv2/3x3_reduce
I0403 13:37:18.552693 11824 net.cpp:148] Top shape: 24 64 56 56 (4816896)
I0403 13:37:18.552711 11824 net.cpp:156] Memory required for data: 226395168
I0403 13:37:18.552733 11824 layer_factory.hpp:77] Creating layer conv2/relu_3x3_reduce
I0403 13:37:18.552753 11824 net.cpp:91] Creating Layer conv2/relu_3x3_reduce
I0403 13:37:18.552769 11824 net.cpp:425] conv2/relu_3x3_reduce <- conv2/3x3_reduce
I0403 13:37:18.552789 11824 net.cpp:386] conv2/relu_3x3_reduce -> conv2/3x3_reduce (in-place)
I0403 13:37:18.553068 11824 net.cpp:141] Setting up conv2/relu_3x3_reduce
I0403 13:37:18.553098 11824 net.cpp:148] Top shape: 24 64 56 56 (4816896)
I0403 13:37:18.553114 11824 net.cpp:156] Memory required for data: 245662752
I0403 13:37:18.553129 11824 layer_factory.hpp:77] Creating layer conv2/3x3
I0403 13:37:18.553154 11824 net.cpp:91] Creating Layer conv2/3x3
I0403 13:37:18.553172 11824 net.cpp:425] conv2/3x3 <- conv2/3x3_reduce
I0403 13:37:18.553195 11824 net.cpp:399] conv2/3x3 -> conv2/3x3
I0403 13:37:18.555613 11824 net.cpp:141] Setting up conv2/3x3
I0403 13:37:18.555646 11824 net.cpp:148] Top shape: 24 192 56 56 (14450688)
I0403 13:37:18.555665 11824 net.cpp:156] Memory required for data: 303465504
I0403 13:37:18.555686 11824 layer_factory.hpp:77] Creating layer conv2/relu_3x3
I0403 13:37:18.555707 11824 net.cpp:91] Creating Layer conv2/relu_3x3
I0403 13:37:18.555723 11824 net.cpp:425] conv2/relu_3x3 <- conv2/3x3
I0403 13:37:18.555744 11824 net.cpp:386] conv2/relu_3x3 -> conv2/3x3 (in-place)
I0403 13:37:18.555938 11824 net.cpp:141] Setting up conv2/relu_3x3
I0403 13:37:18.555963 11824 net.cpp:148] Top shape: 24 192 56 56 (14450688)
I0403 13:37:18.556013 11824 net.cpp:156] Memory required for data: 361268256
I0403 13:37:18.556033 11824 layer_factory.hpp:77] Creating layer conv2/norm2
I0403 13:37:18.556056 11824 net.cpp:91] Creating Layer conv2/norm2
I0403 13:37:18.556072 11824 net.cpp:425] conv2/norm2 <- conv2/3x3
I0403 13:37:18.556090 11824 net.cpp:399] conv2/norm2 -> conv2/norm2
I0403 13:37:18.556414 11824 net.cpp:141] Setting up conv2/norm2
I0403 13:37:18.556445 11824 net.cpp:148] Top shape: 24 192 56 56 (14450688)
I0403 13:37:18.556463 11824 net.cpp:156] Memory required for data: 419071008
I0403 13:37:18.556478 11824 layer_factory.hpp:77] Creating layer pool2/3x3_s2
I0403 13:37:18.556498 11824 net.cpp:91] Creating Layer pool2/3x3_s2
I0403 13:37:18.556514 11824 net.cpp:425] pool2/3x3_s2 <- conv2/norm2
I0403 13:37:18.556531 11824 net.cpp:399] pool2/3x3_s2 -> pool2/3x3_s2
I0403 13:37:18.556594 11824 net.cpp:141] Setting up pool2/3x3_s2
I0403 13:37:18.556619 11824 net.cpp:148] Top shape: 24 192 28 28 (3612672)
I0403 13:37:18.556634 11824 net.cpp:156] Memory required for data: 433521696
I0403 13:37:18.556649 11824 layer_factory.hpp:77] Creating layer pool2/3x3_s2_pool2/3x3_s2_0_split
I0403 13:37:18.556668 11824 net.cpp:91] Creating Layer pool2/3x3_s2_pool2/3x3_s2_0_split
I0403 13:37:18.556684 11824 net.cpp:425] pool2/3x3_s2_pool2/3x3_s2_0_split <- pool2/3x3_s2
I0403 13:37:18.556704 11824 net.cpp:399] pool2/3x3_s2_pool2/3x3_s2_0_split -> pool2/3x3_s2_pool2/3x3_s2_0_split_0
I0403 13:37:18.556725 11824 net.cpp:399] pool2/3x3_s2_pool2/3x3_s2_0_split -> pool2/3x3_s2_pool2/3x3_s2_0_split_1
I0403 13:37:18.556746 11824 net.cpp:399] pool2/3x3_s2_pool2/3x3_s2_0_split -> pool2/3x3_s2_pool2/3x3_s2_0_split_2
I0403 13:37:18.556769 11824 net.cpp:399] pool2/3x3_s2_pool2/3x3_s2_0_split -> pool2/3x3_s2_pool2/3x3_s2_0_split_3
I0403 13:37:18.556844 11824 net.cpp:141] Setting up pool2/3x3_s2_pool2/3x3_s2_0_split
I0403 13:37:18.556869 11824 net.cpp:148] Top shape: 24 192 28 28 (3612672)
I0403 13:37:18.556885 11824 net.cpp:148] Top shape: 24 192 28 28 (3612672)
I0403 13:37:18.556900 11824 net.cpp:148] Top shape: 24 192 28 28 (3612672)
I0403 13:37:18.556916 11824 net.cpp:148] Top shape: 24 192 28 28 (3612672)
I0403 13:37:18.556931 11824 net.cpp:156] Memory required for data: 491324448
I0403 13:37:18.556946 11824 layer_factory.hpp:77] Creating layer inception_3a/1x1
I0403 13:37:18.556969 11824 net.cpp:91] Creating Layer inception_3a/1x1
I0403 13:37:18.556988 11824 net.cpp:425] inception_3a/1x1 <- pool2/3x3_s2_pool2/3x3_s2_0_split_0
I0403 13:37:18.557008 11824 net.cpp:399] inception_3a/1x1 -> inception_3a/1x1
I0403 13:37:18.558627 11824 net.cpp:141] Setting up inception_3a/1x1
I0403 13:37:18.558666 11824 net.cpp:148] Top shape: 24 64 28 28 (1204224)
I0403 13:37:18.558683 11824 net.cpp:156] Memory required for data: 496141344
I0403 13:37:18.558702 11824 layer_factory.hpp:77] Creating layer inception_3a/relu_1x1
I0403 13:37:18.558720 11824 net.cpp:91] Creating Layer inception_3a/relu_1x1
I0403 13:37:18.558737 11824 net.cpp:425] inception_3a/relu_1x1 <- inception_3a/1x1
I0403 13:37:18.558756 11824 net.cpp:386] inception_3a/relu_1x1 -> inception_3a/1x1 (in-place)
I0403 13:37:18.558943 11824 net.cpp:141] Setting up inception_3a/relu_1x1
I0403 13:37:18.558967 11824 net.cpp:148] Top shape: 24 64 28 28 (1204224)
I0403 13:37:18.558984 11824 net.cpp:156] Memory required for data: 500958240
I0403 13:37:18.558998 11824 layer_factory.hpp:77] Creating layer inception_3a/3x3_reduce
I0403 13:37:18.559020 11824 net.cpp:91] Creating Layer inception_3a/3x3_reduce
I0403 13:37:18.559038 11824 net.cpp:425] inception_3a/3x3_reduce <- pool2/3x3_s2_pool2/3x3_s2_0_split_1
I0403 13:37:18.559059 11824 net.cpp:399] inception_3a/3x3_reduce -> inception_3a/3x3_reduce
I0403 13:37:18.560788 11824 net.cpp:141] Setting up inception_3a/3x3_reduce
I0403 13:37:18.560820 11824 net.cpp:148] Top shape: 24 96 28 28 (1806336)
I0403 13:37:18.560837 11824 net.cpp:156] Memory required for data: 508183584
I0403 13:37:18.560858 11824 layer_factory.hpp:77] Creating layer inception_3a/relu_3x3_reduce
I0403 13:37:18.560894 11824 net.cpp:91] Creating Layer inception_3a/relu_3x3_reduce
I0403 13:37:18.560912 11824 net.cpp:425] inception_3a/relu_3x3_reduce <- inception_3a/3x3_reduce
I0403 13:37:18.560932 11824 net.cpp:386] inception_3a/relu_3x3_reduce -> inception_3a/3x3_reduce (in-place)
I0403 13:37:18.561118 11824 net.cpp:141] Setting up inception_3a/relu_3x3_reduce
I0403 13:37:18.561146 11824 net.cpp:148] Top shape: 24 96 28 28 (1806336)
I0403 13:37:18.561161 11824 net.cpp:156] Memory required for data: 515408928
I0403 13:37:18.561177 11824 layer_factory.hpp:77] Creating layer inception_3a/3x3
I0403 13:37:18.561198 11824 net.cpp:91] Creating Layer inception_3a/3x3
I0403 13:37:18.561216 11824 net.cpp:425] inception_3a/3x3 <- inception_3a/3x3_reduce
I0403 13:37:18.561235 11824 net.cpp:399] inception_3a/3x3 -> inception_3a/3x3
I0403 13:37:18.562930 11824 net.cpp:141] Setting up inception_3a/3x3
I0403 13:37:18.562960 11824 net.cpp:148] Top shape: 24 128 28 28 (2408448)
I0403 13:37:18.562976 11824 net.cpp:156] Memory required for data: 525042720
I0403 13:37:18.562995 11824 layer_factory.hpp:77] Creating layer inception_3a/relu_3x3
I0403 13:37:18.563014 11824 net.cpp:91] Creating Layer inception_3a/relu_3x3
I0403 13:37:18.563030 11824 net.cpp:425] inception_3a/relu_3x3 <- inception_3a/3x3
I0403 13:37:18.563050 11824 net.cpp:386] inception_3a/relu_3x3 -> inception_3a/3x3 (in-place)
I0403 13:37:18.563333 11824 net.cpp:141] Setting up inception_3a/relu_3x3
I0403 13:37:18.563360 11824 net.cpp:148] Top shape: 24 128 28 28 (2408448)
I0403 13:37:18.563376 11824 net.cpp:156] Memory required for data: 534676512
I0403 13:37:18.563391 11824 layer_factory.hpp:77] Creating layer inception_3a/5x5_reduce
I0403 13:37:18.563413 11824 net.cpp:91] Creating Layer inception_3a/5x5_reduce
I0403 13:37:18.563431 11824 net.cpp:425] inception_3a/5x5_reduce <- pool2/3x3_s2_pool2/3x3_s2_0_split_2
I0403 13:37:18.563453 11824 net.cpp:399] inception_3a/5x5_reduce -> inception_3a/5x5_reduce
I0403 13:37:18.564431 11824 net.cpp:141] Setting up inception_3a/5x5_reduce
I0403 13:37:18.564460 11824 net.cpp:148] Top shape: 24 16 28 28 (301056)
I0403 13:37:18.564476 11824 net.cpp:156] Memory required for data: 535880736
I0403 13:37:18.564494 11824 layer_factory.hpp:77] Creating layer inception_3a/relu_5x5_reduce
I0403 13:37:18.564515 11824 net.cpp:91] Creating Layer inception_3a/relu_5x5_reduce
I0403 13:37:18.564532 11824 net.cpp:425] inception_3a/relu_5x5_reduce <- inception_3a/5x5_reduce
I0403 13:37:18.564563 11824 net.cpp:386] inception_3a/relu_5x5_reduce -> inception_3a/5x5_reduce (in-place)
I0403 13:37:18.564868 11824 net.cpp:141] Setting up inception_3a/relu_5x5_reduce
I0403 13:37:18.564894 11824 net.cpp:148] Top shape: 24 16 28 28 (301056)
I0403 13:37:18.564910 11824 net.cpp:156] Memory required for data: 537084960
I0403 13:37:18.564925 11824 layer_factory.hpp:77] Creating layer inception_3a/5x5
I0403 13:37:18.564949 11824 net.cpp:91] Creating Layer inception_3a/5x5
I0403 13:37:18.564967 11824 net.cpp:425] inception_3a/5x5 <- inception_3a/5x5_reduce
I0403 13:37:18.564988 11824 net.cpp:399] inception_3a/5x5 -> inception_3a/5x5
I0403 13:37:18.566020 11824 net.cpp:141] Setting up inception_3a/5x5
I0403 13:37:18.566050 11824 net.cpp:148] Top shape: 24 32 28 28 (602112)
I0403 13:37:18.566066 11824 net.cpp:156] Memory required for data: 539493408
I0403 13:37:18.566087 11824 layer_factory.hpp:77] Creating layer inception_3a/relu_5x5
I0403 13:37:18.566104 11824 net.cpp:91] Creating Layer inception_3a/relu_5x5
I0403 13:37:18.566120 11824 net.cpp:425] inception_3a/relu_5x5 <- inception_3a/5x5
I0403 13:37:18.566140 11824 net.cpp:386] inception_3a/relu_5x5 -> inception_3a/5x5 (in-place)
I0403 13:37:18.566318 11824 net.cpp:141] Setting up inception_3a/relu_5x5
I0403 13:37:18.566342 11824 net.cpp:148] Top shape: 24 32 28 28 (602112)
I0403 13:37:18.566357 11824 net.cpp:156] Memory required for data: 541901856
I0403 13:37:18.566371 11824 layer_factory.hpp:77] Creating layer inception_3a/pool
I0403 13:37:18.566390 11824 net.cpp:91] Creating Layer inception_3a/pool
I0403 13:37:18.566419 11824 net.cpp:425] inception_3a/pool <- pool2/3x3_s2_pool2/3x3_s2_0_split_3
I0403 13:37:18.566442 11824 net.cpp:399] inception_3a/pool -> inception_3a/pool
I0403 13:37:18.566503 11824 net.cpp:141] Setting up inception_3a/pool
I0403 13:37:18.566526 11824 net.cpp:148] Top shape: 24 192 28 28 (3612672)
I0403 13:37:18.566546 11824 net.cpp:156] Memory required for data: 556352544
I0403 13:37:18.566562 11824 layer_factory.hpp:77] Creating layer inception_3a/pool_proj
I0403 13:37:18.566586 11824 net.cpp:91] Creating Layer inception_3a/pool_proj
I0403 13:37:18.566602 11824 net.cpp:425] inception_3a/pool_proj <- inception_3a/pool
I0403 13:37:18.566624 11824 net.cpp:399] inception_3a/pool_proj -> inception_3a/pool_proj
I0403 13:37:18.567608 11824 net.cpp:141] Setting up inception_3a/pool_proj
I0403 13:37:18.567637 11824 net.cpp:148] Top shape: 24 32 28 28 (602112)
I0403 13:37:18.567653 11824 net.cpp:156] Memory required for data: 558760992
I0403 13:37:18.567677 11824 layer_factory.hpp:77] Creating layer inception_3a/relu_pool_proj
I0403 13:37:18.567699 11824 net.cpp:91] Creating Layer inception_3a/relu_pool_proj
I0403 13:37:18.567716 11824 net.cpp:425] inception_3a/relu_pool_proj <- inception_3a/pool_proj
I0403 13:37:18.567734 11824 net.cpp:386] inception_3a/relu_pool_proj -> inception_3a/pool_proj (in-place)
I0403 13:37:18.568012 11824 net.cpp:141] Setting up inception_3a/relu_pool_proj
I0403 13:37:18.568039 11824 net.cpp:148] Top shape: 24 32 28 28 (602112)
I0403 13:37:18.568054 11824 net.cpp:156] Memory required for data: 561169440
I0403 13:37:18.568069 11824 layer_factory.hpp:77] Creating layer inception_3a/output
I0403 13:37:18.568089 11824 net.cpp:91] Creating Layer inception_3a/output
I0403 13:37:18.568104 11824 net.cpp:425] inception_3a/output <- inception_3a/1x1
I0403 13:37:18.568120 11824 net.cpp:425] inception_3a/output <- inception_3a/3x3
I0403 13:37:18.568135 11824 net.cpp:425] inception_3a/output <- inception_3a/5x5
I0403 13:37:18.568151 11824 net.cpp:425] inception_3a/output <- inception_3a/pool_proj
I0403 13:37:18.568171 11824 net.cpp:399] inception_3a/output -> inception_3a/output
I0403 13:37:18.568218 11824 net.cpp:141] Setting up inception_3a/output
I0403 13:37:18.568245 11824 net.cpp:148] Top shape: 24 256 28 28 (4816896)
I0403 13:37:18.568260 11824 net.cpp:156] Memory required for data: 580437024
I0403 13:37:18.568275 11824 layer_factory.hpp:77] Creating layer inception_3a/output_inception_3a/output_0_split
I0403 13:37:18.568295 11824 net.cpp:91] Creating Layer inception_3a/output_inception_3a/output_0_split
I0403 13:37:18.568310 11824 net.cpp:425] inception_3a/output_inception_3a/output_0_split <- inception_3a/output
I0403 13:37:18.568328 11824 net.cpp:399] inception_3a/output_inception_3a/output_0_split -> inception_3a/output_inception_3a/output_0_split_0
I0403 13:37:18.568351 11824 net.cpp:399] inception_3a/output_inception_3a/output_0_split -> inception_3a/output_inception_3a/output_0_split_1
I0403 13:37:18.568375 11824 net.cpp:399] inception_3a/output_inception_3a/output_0_split -> inception_3a/output_inception_3a/output_0_split_2
I0403 13:37:18.568397 11824 net.cpp:399] inception_3a/output_inception_3a/output_0_split -> inception_3a/output_inception_3a/output_0_split_3
I0403 13:37:18.568471 11824 net.cpp:141] Setting up inception_3a/output_inception_3a/output_0_split
I0403 13:37:18.568496 11824 net.cpp:148] Top shape: 24 256 28 28 (4816896)
I0403 13:37:18.568514 11824 net.cpp:148] Top shape: 24 256 28 28 (4816896)
I0403 13:37:18.568529 11824 net.cpp:148] Top shape: 24 256 28 28 (4816896)
I0403 13:37:18.568550 11824 net.cpp:148] Top shape: 24 256 28 28 (4816896)
I0403 13:37:18.568564 11824 net.cpp:156] Memory required for data: 657507360
I0403 13:37:18.568579 11824 layer_factory.hpp:77] Creating layer inception_3b/1x1
I0403 13:37:18.568601 11824 net.cpp:91] Creating Layer inception_3b/1x1
I0403 13:37:18.568631 11824 net.cpp:425] inception_3b/1x1 <- inception_3a/output_inception_3a/output_0_split_0
I0403 13:37:18.568653 11824 net.cpp:399] inception_3b/1x1 -> inception_3b/1x1
I0403 13:37:18.569833 11824 net.cpp:141] Setting up inception_3b/1x1
I0403 13:37:18.569876 11824 net.cpp:148] Top shape: 24 128 28 28 (2408448)
I0403 13:37:18.569895 11824 net.cpp:156] Memory required for data: 667141152
I0403 13:37:18.569912 11824 layer_factory.hpp:77] Creating layer inception_3b/relu_1x1
I0403 13:37:18.569931 11824 net.cpp:91] Creating Layer inception_3b/relu_1x1
I0403 13:37:18.569947 11824 net.cpp:425] inception_3b/relu_1x1 <- inception_3b/1x1
I0403 13:37:18.569964 11824 net.cpp:386] inception_3b/relu_1x1 -> inception_3b/1x1 (in-place)
I0403 13:37:18.570147 11824 net.cpp:141] Setting up inception_3b/relu_1x1
I0403 13:37:18.570171 11824 net.cpp:148] Top shape: 24 128 28 28 (2408448)
I0403 13:37:18.570186 11824 net.cpp:156] Memory required for data: 676774944
I0403 13:37:18.570201 11824 layer_factory.hpp:77] Creating layer inception_3b/3x3_reduce
I0403 13:37:18.570225 11824 net.cpp:91] Creating Layer inception_3b/3x3_reduce
I0403 13:37:18.570241 11824 net.cpp:425] inception_3b/3x3_reduce <- inception_3a/output_inception_3a/output_0_split_1
I0403 13:37:18.570262 11824 net.cpp:399] inception_3b/3x3_reduce -> inception_3b/3x3_reduce
I0403 13:37:18.571429 11824 net.cpp:141] Setting up inception_3b/3x3_reduce
I0403 13:37:18.571460 11824 net.cpp:148] Top shape: 24 128 28 28 (2408448)
I0403 13:37:18.571476 11824 net.cpp:156] Memory required for data: 686408736
I0403 13:37:18.571496 11824 layer_factory.hpp:77] Creating layer inception_3b/relu_3x3_reduce
I0403 13:37:18.571514 11824 net.cpp:91] Creating Layer inception_3b/relu_3x3_reduce
I0403 13:37:18.571530 11824 net.cpp:425] inception_3b/relu_3x3_reduce <- inception_3b/3x3_reduce
I0403 13:37:18.571565 11824 net.cpp:386] inception_3b/relu_3x3_reduce -> inception_3b/3x3_reduce (in-place)
I0403 13:37:18.571741 11824 net.cpp:141] Setting up inception_3b/relu_3x3_reduce
I0403 13:37:18.571766 11824 net.cpp:148] Top shape: 24 128 28 28 (2408448)
I0403 13:37:18.571781 11824 net.cpp:156] Memory required for data: 696042528
I0403 13:37:18.571796 11824 layer_factory.hpp:77] Creating layer inception_3b/3x3
I0403 13:37:18.571822 11824 net.cpp:91] Creating Layer inception_3b/3x3
I0403 13:37:18.571841 11824 net.cpp:425] inception_3b/3x3 <- inception_3b/3x3_reduce
I0403 13:37:18.571861 11824 net.cpp:399] inception_3b/3x3 -> inception_3b/3x3
I0403 13:37:18.574844 11824 net.cpp:141] Setting up inception_3b/3x3
I0403 13:37:18.574873 11824 net.cpp:148] Top shape: 24 192 28 28 (3612672)
I0403 13:37:18.574889 11824 net.cpp:156] Memory required for data: 710493216
I0403 13:37:18.574908 11824 layer_factory.hpp:77] Creating layer inception_3b/relu_3x3
I0403 13:37:18.574928 11824 net.cpp:91] Creating Layer inception_3b/relu_3x3
I0403 13:37:18.574944 11824 net.cpp:425] inception_3b/relu_3x3 <- inception_3b/3x3
I0403 13:37:18.574964 11824 net.cpp:386] inception_3b/relu_3x3 -> inception_3b/3x3 (in-place)
I0403 13:37:18.575244 11824 net.cpp:141] Setting up inception_3b/relu_3x3
I0403 13:37:18.575271 11824 net.cpp:148] Top shape: 24 192 28 28 (3612672)
I0403 13:37:18.575287 11824 net.cpp:156] Memory required for data: 724943904
I0403 13:37:18.575302 11824 layer_factory.hpp:77] Creating layer inception_3b/5x5_reduce
I0403 13:37:18.575328 11824 net.cpp:91] Creating Layer inception_3b/5x5_reduce
I0403 13:37:18.575346 11824 net.cpp:425] inception_3b/5x5_reduce <- inception_3a/output_inception_3a/output_0_split_2
I0403 13:37:18.575367 11824 net.cpp:399] inception_3b/5x5_reduce -> inception_3b/5x5_reduce
I0403 13:37:18.576377 11824 net.cpp:141] Setting up inception_3b/5x5_reduce
I0403 13:37:18.576408 11824 net.cpp:148] Top shape: 24 32 28 28 (602112)
I0403 13:37:18.576426 11824 net.cpp:156] Memory required for data: 727352352
I0403 13:37:18.576443 11824 layer_factory.hpp:77] Creating layer inception_3b/relu_5x5_reduce
I0403 13:37:18.576462 11824 net.cpp:91] Creating Layer inception_3b/relu_5x5_reduce
I0403 13:37:18.576478 11824 net.cpp:425] inception_3b/relu_5x5_reduce <- inception_3b/5x5_reduce
I0403 13:37:18.576498 11824 net.cpp:386] inception_3b/relu_5x5_reduce -> inception_3b/5x5_reduce (in-place)
I0403 13:37:18.576695 11824 net.cpp:141] Setting up inception_3b/relu_5x5_reduce
I0403 13:37:18.576720 11824 net.cpp:148] Top shape: 24 32 28 28 (602112)
I0403 13:37:18.576736 11824 net.cpp:156] Memory required for data: 729760800
I0403 13:37:18.576751 11824 layer_factory.hpp:77] Creating layer inception_3b/5x5
I0403 13:37:18.576773 11824 net.cpp:91] Creating Layer inception_3b/5x5
I0403 13:37:18.576792 11824 net.cpp:425] inception_3b/5x5 <- inception_3b/5x5_reduce
I0403 13:37:18.576812 11824 net.cpp:399] inception_3b/5x5 -> inception_3b/5x5
I0403 13:37:18.578831 11824 net.cpp:141] Setting up inception_3b/5x5
I0403 13:37:18.578862 11824 net.cpp:148] Top shape: 24 96 28 28 (1806336)
I0403 13:37:18.578879 11824 net.cpp:156] Memory required for data: 736986144
I0403 13:37:18.578902 11824 layer_factory.hpp:77] Creating layer inception_3b/relu_5x5
I0403 13:37:18.578922 11824 net.cpp:91] Creating Layer inception_3b/relu_5x5
I0403 13:37:18.578938 11824 net.cpp:425] inception_3b/relu_5x5 <- inception_3b/5x5
I0403 13:37:18.578956 11824 net.cpp:386] inception_3b/relu_5x5 -> inception_3b/5x5 (in-place)
I0403 13:37:18.579157 11824 net.cpp:141] Setting up inception_3b/relu_5x5
I0403 13:37:18.579185 11824 net.cpp:148] Top shape: 24 96 28 28 (1806336)
I0403 13:37:18.579200 11824 net.cpp:156] Memory required for data: 744211488
I0403 13:37:18.579216 11824 layer_factory.hpp:77] Creating layer inception_3b/pool
I0403 13:37:18.579233 11824 net.cpp:91] Creating Layer inception_3b/pool
I0403 13:37:18.579251 11824 net.cpp:425] inception_3b/pool <- inception_3a/output_inception_3a/output_0_split_3
I0403 13:37:18.579269 11824 net.cpp:399] inception_3b/pool -> inception_3b/pool
I0403 13:37:18.579327 11824 net.cpp:141] Setting up inception_3b/pool
I0403 13:37:18.579351 11824 net.cpp:148] Top shape: 24 256 28 28 (4816896)
I0403 13:37:18.579367 11824 net.cpp:156] Memory required for data: 763479072
I0403 13:37:18.579381 11824 layer_factory.hpp:77] Creating layer inception_3b/pool_proj
I0403 13:37:18.579406 11824 net.cpp:91] Creating Layer inception_3b/pool_proj
I0403 13:37:18.579424 11824 net.cpp:425] inception_3b/pool_proj <- inception_3b/pool
I0403 13:37:18.579443 11824 net.cpp:399] inception_3b/pool_proj -> inception_3b/pool_proj
I0403 13:37:18.580549 11824 net.cpp:141] Setting up inception_3b/pool_proj
I0403 13:37:18.580577 11824 net.cpp:148] Top shape: 24 64 28 28 (1204224)
I0403 13:37:18.580593 11824 net.cpp:156] Memory required for data: 768295968
I0403 13:37:18.580611 11824 layer_factory.hpp:77] Creating layer inception_3b/relu_pool_proj
I0403 13:37:18.580632 11824 net.cpp:91] Creating Layer inception_3b/relu_pool_proj
I0403 13:37:18.580649 11824 net.cpp:425] inception_3b/relu_pool_proj <- inception_3b/pool_proj
I0403 13:37:18.580667 11824 net.cpp:386] inception_3b/relu_pool_proj -> inception_3b/pool_proj (in-place)
I0403 13:37:18.581068 11824 net.cpp:141] Setting up inception_3b/relu_pool_proj
I0403 13:37:18.581094 11824 net.cpp:148] Top shape: 24 64 28 28 (1204224)
I0403 13:37:18.581110 11824 net.cpp:156] Memory required for data: 773112864
I0403 13:37:18.581126 11824 layer_factory.hpp:77] Creating layer inception_3b/output
I0403 13:37:18.581145 11824 net.cpp:91] Creating Layer inception_3b/output
I0403 13:37:18.581159 11824 net.cpp:425] inception_3b/output <- inception_3b/1x1
I0403 13:37:18.581178 11824 net.cpp:425] inception_3b/output <- inception_3b/3x3
I0403 13:37:18.581195 11824 net.cpp:425] inception_3b/output <- inception_3b/5x5
I0403 13:37:18.581212 11824 net.cpp:425] inception_3b/output <- inception_3b/pool_proj
I0403 13:37:18.581228 11824 net.cpp:399] inception_3b/output -> inception_3b/output
I0403 13:37:18.581271 11824 net.cpp:141] Setting up inception_3b/output
I0403 13:37:18.581298 11824 net.cpp:148] Top shape: 24 480 28 28 (9031680)
I0403 13:37:18.581315 11824 net.cpp:156] Memory required for data: 809239584
I0403 13:37:18.581329 11824 layer_factory.hpp:77] Creating layer pool3/3x3_s2
I0403 13:37:18.581346 11824 net.cpp:91] Creating Layer pool3/3x3_s2
I0403 13:37:18.581362 11824 net.cpp:425] pool3/3x3_s2 <- inception_3b/output
I0403 13:37:18.581398 11824 net.cpp:399] pool3/3x3_s2 -> pool3/3x3_s2
I0403 13:37:18.581459 11824 net.cpp:141] Setting up pool3/3x3_s2
I0403 13:37:18.581485 11824 net.cpp:148] Top shape: 24 480 14 14 (2257920)
I0403 13:37:18.581499 11824 net.cpp:156] Memory required for data: 818271264
I0403 13:37:18.581514 11824 layer_factory.hpp:77] Creating layer pool3/3x3_s2_pool3/3x3_s2_0_split
I0403 13:37:18.581532 11824 net.cpp:91] Creating Layer pool3/3x3_s2_pool3/3x3_s2_0_split
I0403 13:37:18.581553 11824 net.cpp:425] pool3/3x3_s2_pool3/3x3_s2_0_split <- pool3/3x3_s2
I0403 13:37:18.581583 11824 net.cpp:399] pool3/3x3_s2_pool3/3x3_s2_0_split -> pool3/3x3_s2_pool3/3x3_s2_0_split_0
I0403 13:37:18.581603 11824 net.cpp:399] pool3/3x3_s2_pool3/3x3_s2_0_split -> pool3/3x3_s2_pool3/3x3_s2_0_split_1
I0403 13:37:18.581622 11824 net.cpp:399] pool3/3x3_s2_pool3/3x3_s2_0_split -> pool3/3x3_s2_pool3/3x3_s2_0_split_2
I0403 13:37:18.581645 11824 net.cpp:399] pool3/3x3_s2_pool3/3x3_s2_0_split -> pool3/3x3_s2_pool3/3x3_s2_0_split_3
I0403 13:37:18.581724 11824 net.cpp:141] Setting up pool3/3x3_s2_pool3/3x3_s2_0_split
I0403 13:37:18.581748 11824 net.cpp:148] Top shape: 24 480 14 14 (2257920)
I0403 13:37:18.581763 11824 net.cpp:148] Top shape: 24 480 14 14 (2257920)
I0403 13:37:18.581779 11824 net.cpp:148] Top shape: 24 480 14 14 (2257920)
I0403 13:37:18.581794 11824 net.cpp:148] Top shape: 24 480 14 14 (2257920)
I0403 13:37:18.581809 11824 net.cpp:156] Memory required for data: 854397984
I0403 13:37:18.581823 11824 layer_factory.hpp:77] Creating layer inception_4a/1x1
I0403 13:37:18.581852 11824 net.cpp:91] Creating Layer inception_4a/1x1
I0403 13:37:18.581871 11824 net.cpp:425] inception_4a/1x1 <- pool3/3x3_s2_pool3/3x3_s2_0_split_0
I0403 13:37:18.581892 11824 net.cpp:399] inception_4a/1x1 -> inception_4a/1x1
I0403 13:37:18.583492 11824 net.cpp:141] Setting up inception_4a/1x1
I0403 13:37:18.583519 11824 net.cpp:148] Top shape: 24 192 14 14 (903168)
I0403 13:37:18.583540 11824 net.cpp:156] Memory required for data: 858010656
I0403 13:37:18.583564 11824 layer_factory.hpp:77] Creating layer inception_4a/relu_1x1
I0403 13:37:18.583585 11824 net.cpp:91] Creating Layer inception_4a/relu_1x1
I0403 13:37:18.583602 11824 net.cpp:425] inception_4a/relu_1x1 <- inception_4a/1x1
I0403 13:37:18.583619 11824 net.cpp:386] inception_4a/relu_1x1 -> inception_4a/1x1 (in-place)
I0403 13:37:18.583796 11824 net.cpp:141] Setting up inception_4a/relu_1x1
I0403 13:37:18.583824 11824 net.cpp:148] Top shape: 24 192 14 14 (903168)
I0403 13:37:18.583840 11824 net.cpp:156] Memory required for data: 861623328
I0403 13:37:18.583854 11824 layer_factory.hpp:77] Creating layer inception_4a/3x3_reduce
I0403 13:37:18.583876 11824 net.cpp:91] Creating Layer inception_4a/3x3_reduce
I0403 13:37:18.583894 11824 net.cpp:425] inception_4a/3x3_reduce <- pool3/3x3_s2_pool3/3x3_s2_0_split_1
I0403 13:37:18.583914 11824 net.cpp:399] inception_4a/3x3_reduce -> inception_4a/3x3_reduce
I0403 13:37:18.585224 11824 net.cpp:141] Setting up inception_4a/3x3_reduce
I0403 13:37:18.585253 11824 net.cpp:148] Top shape: 24 96 14 14 (451584)
I0403 13:37:18.585269 11824 net.cpp:156] Memory required for data: 863429664
I0403 13:37:18.585297 11824 layer_factory.hpp:77] Creating layer inception_4a/relu_3x3_reduce
I0403 13:37:18.585320 11824 net.cpp:91] Creating Layer inception_4a/relu_3x3_reduce
I0403 13:37:18.585337 11824 net.cpp:425] inception_4a/relu_3x3_reduce <- inception_4a/3x3_reduce
I0403 13:37:18.585355 11824 net.cpp:386] inception_4a/relu_3x3_reduce -> inception_4a/3x3_reduce (in-place)
I0403 13:37:18.585530 11824 net.cpp:141] Setting up inception_4a/relu_3x3_reduce
I0403 13:37:18.585562 11824 net.cpp:148] Top shape: 24 96 14 14 (451584)
I0403 13:37:18.585579 11824 net.cpp:156] Memory required for data: 865236000
I0403 13:37:18.585593 11824 layer_factory.hpp:77] Creating layer inception_4a/3x3
I0403 13:37:18.585616 11824 net.cpp:91] Creating Layer inception_4a/3x3
I0403 13:37:18.585633 11824 net.cpp:425] inception_4a/3x3 <- inception_4a/3x3_reduce
I0403 13:37:18.585652 11824 net.cpp:399] inception_4a/3x3 -> inception_4a/3x3
I0403 13:37:18.588387 11824 net.cpp:141] Setting up inception_4a/3x3
I0403 13:37:18.588419 11824 net.cpp:148] Top shape: 24 208 14 14 (978432)
I0403 13:37:18.588436 11824 net.cpp:156] Memory required for data: 869149728
I0403 13:37:18.588455 11824 layer_factory.hpp:77] Creating layer inception_4a/relu_3x3
I0403 13:37:18.588474 11824 net.cpp:91] Creating Layer inception_4a/relu_3x3
I0403 13:37:18.588488 11824 net.cpp:425] inception_4a/relu_3x3 <- inception_4a/3x3
I0403 13:37:18.588508 11824 net.cpp:386] inception_4a/relu_3x3 -> inception_4a/3x3 (in-place)
I0403 13:37:18.588796 11824 net.cpp:141] Setting up inception_4a/relu_3x3
I0403 13:37:18.588825 11824 net.cpp:148] Top shape: 24 208 14 14 (978432)
I0403 13:37:18.588842 11824 net.cpp:156] Memory required for data: 873063456
I0403 13:37:18.588857 11824 layer_factory.hpp:77] Creating layer inception_4a/5x5_reduce
I0403 13:37:18.588881 11824 net.cpp:91] Creating Layer inception_4a/5x5_reduce
I0403 13:37:18.588899 11824 net.cpp:425] inception_4a/5x5_reduce <- pool3/3x3_s2_pool3/3x3_s2_0_split_2
I0403 13:37:18.588918 11824 net.cpp:399] inception_4a/5x5_reduce -> inception_4a/5x5_reduce
I0403 13:37:18.589951 11824 net.cpp:141] Setting up inception_4a/5x5_reduce
I0403 13:37:18.589982 11824 net.cpp:148] Top shape: 24 16 14 14 (75264)
I0403 13:37:18.589999 11824 net.cpp:156] Memory required for data: 873364512
I0403 13:37:18.590018 11824 layer_factory.hpp:77] Creating layer inception_4a/relu_5x5_reduce
I0403 13:37:18.590036 11824 net.cpp:91] Creating Layer inception_4a/relu_5x5_reduce
I0403 13:37:18.590052 11824 net.cpp:425] inception_4a/relu_5x5_reduce <- inception_4a/5x5_reduce
I0403 13:37:18.590071 11824 net.cpp:386] inception_4a/relu_5x5_reduce -> inception_4a/5x5_reduce (in-place)
I0403 13:37:18.590255 11824 net.cpp:141] Setting up inception_4a/relu_5x5_reduce
I0403 13:37:18.590278 11824 net.cpp:148] Top shape: 24 16 14 14 (75264)
I0403 13:37:18.590296 11824 net.cpp:156] Memory required for data: 873665568
I0403 13:37:18.590311 11824 layer_factory.hpp:77] Creating layer inception_4a/5x5
I0403 13:37:18.590333 11824 net.cpp:91] Creating Layer inception_4a/5x5
I0403 13:37:18.590350 11824 net.cpp:425] inception_4a/5x5 <- inception_4a/5x5_reduce
I0403 13:37:18.590371 11824 net.cpp:399] inception_4a/5x5 -> inception_4a/5x5
I0403 13:37:18.591480 11824 net.cpp:141] Setting up inception_4a/5x5
I0403 13:37:18.591507 11824 net.cpp:148] Top shape: 24 48 14 14 (225792)
I0403 13:37:18.591523 11824 net.cpp:156] Memory required for data: 874568736
I0403 13:37:18.591547 11824 layer_factory.hpp:77] Creating layer inception_4a/relu_5x5
I0403 13:37:18.591569 11824 net.cpp:91] Creating Layer inception_4a/relu_5x5
I0403 13:37:18.591586 11824 net.cpp:425] inception_4a/relu_5x5 <- inception_4a/5x5
I0403 13:37:18.591604 11824 net.cpp:386] inception_4a/relu_5x5 -> inception_4a/5x5 (in-place)
I0403 13:37:18.591784 11824 net.cpp:141] Setting up inception_4a/relu_5x5
I0403 13:37:18.591809 11824 net.cpp:148] Top shape: 24 48 14 14 (225792)
I0403 13:37:18.591825 11824 net.cpp:156] Memory required for data: 875471904
I0403 13:37:18.591838 11824 layer_factory.hpp:77] Creating layer inception_4a/pool
I0403 13:37:18.591859 11824 net.cpp:91] Creating Layer inception_4a/pool
I0403 13:37:18.591876 11824 net.cpp:425] inception_4a/pool <- pool3/3x3_s2_pool3/3x3_s2_0_split_3
I0403 13:37:18.591894 11824 net.cpp:399] inception_4a/pool -> inception_4a/pool
I0403 13:37:18.591960 11824 net.cpp:141] Setting up inception_4a/pool
I0403 13:37:18.591984 11824 net.cpp:148] Top shape: 24 480 14 14 (2257920)
I0403 13:37:18.592000 11824 net.cpp:156] Memory required for data: 884503584
I0403 13:37:18.592013 11824 layer_factory.hpp:77] Creating layer inception_4a/pool_proj
I0403 13:37:18.592036 11824 net.cpp:91] Creating Layer inception_4a/pool_proj
I0403 13:37:18.592054 11824 net.cpp:425] inception_4a/pool_proj <- inception_4a/pool
I0403 13:37:18.592074 11824 net.cpp:399] inception_4a/pool_proj -> inception_4a/pool_proj
I0403 13:37:18.593261 11824 net.cpp:141] Setting up inception_4a/pool_proj
I0403 13:37:18.593291 11824 net.cpp:148] Top shape: 24 64 14 14 (301056)
I0403 13:37:18.593322 11824 net.cpp:156] Memory required for data: 885707808
I0403 13:37:18.593341 11824 layer_factory.hpp:77] Creating layer inception_4a/relu_pool_proj
I0403 13:37:18.593363 11824 net.cpp:91] Creating Layer inception_4a/relu_pool_proj
I0403 13:37:18.593380 11824 net.cpp:425] inception_4a/relu_pool_proj <- inception_4a/pool_proj
I0403 13:37:18.593397 11824 net.cpp:386] inception_4a/relu_pool_proj -> inception_4a/pool_proj (in-place)
I0403 13:37:18.593691 11824 net.cpp:141] Setting up inception_4a/relu_pool_proj
I0403 13:37:18.593719 11824 net.cpp:148] Top shape: 24 64 14 14 (301056)
I0403 13:37:18.593734 11824 net.cpp:156] Memory required for data: 886912032
I0403 13:37:18.593749 11824 layer_factory.hpp:77] Creating layer inception_4a/output
I0403 13:37:18.593768 11824 net.cpp:91] Creating Layer inception_4a/output
I0403 13:37:18.593786 11824 net.cpp:425] inception_4a/output <- inception_4a/1x1
I0403 13:37:18.593802 11824 net.cpp:425] inception_4a/output <- inception_4a/3x3
I0403 13:37:18.593818 11824 net.cpp:425] inception_4a/output <- inception_4a/5x5
I0403 13:37:18.593834 11824 net.cpp:425] inception_4a/output <- inception_4a/pool_proj
I0403 13:37:18.593852 11824 net.cpp:399] inception_4a/output -> inception_4a/output
I0403 13:37:18.593899 11824 net.cpp:141] Setting up inception_4a/output
I0403 13:37:18.593924 11824 net.cpp:148] Top shape: 24 512 14 14 (2408448)
I0403 13:37:18.593937 11824 net.cpp:156] Memory required for data: 896545824
I0403 13:37:18.593952 11824 layer_factory.hpp:77] Creating layer inception_4a/output_inception_4a/output_0_split
I0403 13:37:18.593969 11824 net.cpp:91] Creating Layer inception_4a/output_inception_4a/output_0_split
I0403 13:37:18.593984 11824 net.cpp:425] inception_4a/output_inception_4a/output_0_split <- inception_4a/output
I0403 13:37:18.594004 11824 net.cpp:399] inception_4a/output_inception_4a/output_0_split -> inception_4a/output_inception_4a/output_0_split_0
I0403 13:37:18.594027 11824 net.cpp:399] inception_4a/output_inception_4a/output_0_split -> inception_4a/output_inception_4a/output_0_split_1
I0403 13:37:18.594046 11824 net.cpp:399] inception_4a/output_inception_4a/output_0_split -> inception_4a/output_inception_4a/output_0_split_2
I0403 13:37:18.594068 11824 net.cpp:399] inception_4a/output_inception_4a/output_0_split -> inception_4a/output_inception_4a/output_0_split_3
I0403 13:37:18.594087 11824 net.cpp:399] inception_4a/output_inception_4a/output_0_split -> inception_4a/output_inception_4a/output_0_split_4
I0403 13:37:18.594182 11824 net.cpp:141] Setting up inception_4a/output_inception_4a/output_0_split
I0403 13:37:18.594205 11824 net.cpp:148] Top shape: 24 512 14 14 (2408448)
I0403 13:37:18.594224 11824 net.cpp:148] Top shape: 24 512 14 14 (2408448)
I0403 13:37:18.594241 11824 net.cpp:148] Top shape: 24 512 14 14 (2408448)
I0403 13:37:18.594257 11824 net.cpp:148] Top shape: 24 512 14 14 (2408448)
I0403 13:37:18.594274 11824 net.cpp:148] Top shape: 24 512 14 14 (2408448)
I0403 13:37:18.594287 11824 net.cpp:156] Memory required for data: 944714784
I0403 13:37:18.594301 11824 layer_factory.hpp:77] Creating layer loss1/ave_pool
I0403 13:37:18.594319 11824 net.cpp:91] Creating Layer loss1/ave_pool
I0403 13:37:18.594336 11824 net.cpp:425] loss1/ave_pool <- inception_4a/output_inception_4a/output_0_split_0
I0403 13:37:18.594355 11824 net.cpp:399] loss1/ave_pool -> loss1/ave_pool
I0403 13:37:18.594579 11824 net.cpp:141] Setting up loss1/ave_pool
I0403 13:37:18.594605 11824 net.cpp:148] Top shape: 24 512 4 4 (196608)
I0403 13:37:18.594621 11824 net.cpp:156] Memory required for data: 945501216
I0403 13:37:18.594636 11824 layer_factory.hpp:77] Creating layer loss1/conv
I0403 13:37:18.594660 11824 net.cpp:91] Creating Layer loss1/conv
I0403 13:37:18.594676 11824 net.cpp:425] loss1/conv <- loss1/ave_pool
I0403 13:37:18.594697 11824 net.cpp:399] loss1/conv -> loss1/conv
I0403 13:37:18.596145 11824 net.cpp:141] Setting up loss1/conv
I0403 13:37:18.596176 11824 net.cpp:148] Top shape: 24 128 4 4 (49152)
I0403 13:37:18.596206 11824 net.cpp:156] Memory required for data: 945697824
I0403 13:37:18.596227 11824 layer_factory.hpp:77] Creating layer loss1/relu_conv
I0403 13:37:18.596246 11824 net.cpp:91] Creating Layer loss1/relu_conv
I0403 13:37:18.596261 11824 net.cpp:425] loss1/relu_conv <- loss1/conv
I0403 13:37:18.596282 11824 net.cpp:386] loss1/relu_conv -> loss1/conv (in-place)
I0403 13:37:18.596571 11824 net.cpp:141] Setting up loss1/relu_conv
I0403 13:37:18.596601 11824 net.cpp:148] Top shape: 24 128 4 4 (49152)
I0403 13:37:18.596617 11824 net.cpp:156] Memory required for data: 945894432
I0403 13:37:18.596633 11824 layer_factory.hpp:77] Creating layer loss1/fc
I0403 13:37:18.596657 11824 net.cpp:91] Creating Layer loss1/fc
I0403 13:37:18.596674 11824 net.cpp:425] loss1/fc <- loss1/conv
I0403 13:37:18.596695 11824 net.cpp:399] loss1/fc -> loss1/fc
I0403 13:37:18.614434 11824 net.cpp:141] Setting up loss1/fc
I0403 13:37:18.614469 11824 net.cpp:148] Top shape: 24 1024 (24576)
I0403 13:37:18.614485 11824 net.cpp:156] Memory required for data: 945992736
I0403 13:37:18.614503 11824 layer_factory.hpp:77] Creating layer loss1/relu_fc
I0403 13:37:18.614526 11824 net.cpp:91] Creating Layer loss1/relu_fc
I0403 13:37:18.614553 11824 net.cpp:425] loss1/relu_fc <- loss1/fc
I0403 13:37:18.614574 11824 net.cpp:386] loss1/relu_fc -> loss1/fc (in-place)
I0403 13:37:18.614776 11824 net.cpp:141] Setting up loss1/relu_fc
I0403 13:37:18.614802 11824 net.cpp:148] Top shape: 24 1024 (24576)
I0403 13:37:18.614817 11824 net.cpp:156] Memory required for data: 946091040
I0403 13:37:18.614831 11824 layer_factory.hpp:77] Creating layer loss1/drop_fc
I0403 13:37:18.614861 11824 net.cpp:91] Creating Layer loss1/drop_fc
I0403 13:37:18.614878 11824 net.cpp:425] loss1/drop_fc <- loss1/fc
I0403 13:37:18.614897 11824 net.cpp:386] loss1/drop_fc -> loss1/fc (in-place)
I0403 13:37:18.614950 11824 net.cpp:141] Setting up loss1/drop_fc
I0403 13:37:18.614972 11824 net.cpp:148] Top shape: 24 1024 (24576)
I0403 13:37:18.614987 11824 net.cpp:156] Memory required for data: 946189344
I0403 13:37:18.615002 11824 layer_factory.hpp:77] Creating layer loss1/classifier_plantvillage
I0403 13:37:18.615025 11824 net.cpp:91] Creating Layer loss1/classifier_plantvillage
I0403 13:37:18.615041 11824 net.cpp:425] loss1/classifier_plantvillage <- loss1/fc
I0403 13:37:18.615058 11824 net.cpp:399] loss1/classifier_plantvillage -> loss1/classifier_plantvillage
I0403 13:37:18.616008 11824 net.cpp:141] Setting up loss1/classifier_plantvillage
I0403 13:37:18.616036 11824 net.cpp:148] Top shape: 24 38 (912)
I0403 13:37:18.616051 11824 net.cpp:156] Memory required for data: 946192992
I0403 13:37:18.616070 11824 layer_factory.hpp:77] Creating layer loss1/classifier_plantvillage_loss1/classifier_plantvillage_0_split
I0403 13:37:18.616091 11824 net.cpp:91] Creating Layer loss1/classifier_plantvillage_loss1/classifier_plantvillage_0_split
I0403 13:37:18.616106 11824 net.cpp:425] loss1/classifier_plantvillage_loss1/classifier_plantvillage_0_split <- loss1/classifier_plantvillage
I0403 13:37:18.616123 11824 net.cpp:399] loss1/classifier_plantvillage_loss1/classifier_plantvillage_0_split -> loss1/classifier_plantvillage_loss1/classifier_plantvillage_0_split_0
I0403 13:37:18.616147 11824 net.cpp:399] loss1/classifier_plantvillage_loss1/classifier_plantvillage_0_split -> loss1/classifier_plantvillage_loss1/classifier_plantvillage_0_split_1
I0403 13:37:18.616166 11824 net.cpp:399] loss1/classifier_plantvillage_loss1/classifier_plantvillage_0_split -> loss1/classifier_plantvillage_loss1/classifier_plantvillage_0_split_2
I0403 13:37:18.616231 11824 net.cpp:141] Setting up loss1/classifier_plantvillage_loss1/classifier_plantvillage_0_split
I0403 13:37:18.616255 11824 net.cpp:148] Top shape: 24 38 (912)
I0403 13:37:18.616271 11824 net.cpp:148] Top shape: 24 38 (912)
I0403 13:37:18.616286 11824 net.cpp:148] Top shape: 24 38 (912)
I0403 13:37:18.616299 11824 net.cpp:156] Memory required for data: 946203936
I0403 13:37:18.616313 11824 layer_factory.hpp:77] Creating layer inception_4b/1x1
I0403 13:37:18.616335 11824 net.cpp:91] Creating Layer inception_4b/1x1
I0403 13:37:18.616376 11824 net.cpp:425] inception_4b/1x1 <- inception_4a/output_inception_4a/output_0_split_1
I0403 13:37:18.616395 11824 net.cpp:399] inception_4b/1x1 -> inception_4b/1x1
I0403 13:37:18.618079 11824 net.cpp:141] Setting up inception_4b/1x1
I0403 13:37:18.618110 11824 net.cpp:148] Top shape: 24 160 14 14 (752640)
I0403 13:37:18.618127 11824 net.cpp:156] Memory required for data: 949214496
I0403 13:37:18.618145 11824 layer_factory.hpp:77] Creating layer inception_4b/relu_1x1
I0403 13:37:18.618175 11824 net.cpp:91] Creating Layer inception_4b/relu_1x1
I0403 13:37:18.618191 11824 net.cpp:425] inception_4b/relu_1x1 <- inception_4b/1x1
I0403 13:37:18.618211 11824 net.cpp:386] inception_4b/relu_1x1 -> inception_4b/1x1 (in-place)
I0403 13:37:18.618381 11824 net.cpp:141] Setting up inception_4b/relu_1x1
I0403 13:37:18.618405 11824 net.cpp:148] Top shape: 24 160 14 14 (752640)
I0403 13:37:18.618419 11824 net.cpp:156] Memory required for data: 952225056
I0403 13:37:18.618433 11824 layer_factory.hpp:77] Creating layer inception_4b/3x3_reduce
I0403 13:37:18.618455 11824 net.cpp:91] Creating Layer inception_4b/3x3_reduce
I0403 13:37:18.618471 11824 net.cpp:425] inception_4b/3x3_reduce <- inception_4a/output_inception_4a/output_0_split_2
I0403 13:37:18.618491 11824 net.cpp:399] inception_4b/3x3_reduce -> inception_4b/3x3_reduce
I0403 13:37:18.619860 11824 net.cpp:141] Setting up inception_4b/3x3_reduce
I0403 13:37:18.619887 11824 net.cpp:148] Top shape: 24 112 14 14 (526848)
I0403 13:37:18.619902 11824 net.cpp:156] Memory required for data: 954332448
I0403 13:37:18.619920 11824 layer_factory.hpp:77] Creating layer inception_4b/relu_3x3_reduce
I0403 13:37:18.619936 11824 net.cpp:91] Creating Layer inception_4b/relu_3x3_reduce
I0403 13:37:18.619951 11824 net.cpp:425] inception_4b/relu_3x3_reduce <- inception_4b/3x3_reduce
I0403 13:37:18.619971 11824 net.cpp:386] inception_4b/relu_3x3_reduce -> inception_4b/3x3_reduce (in-place)
I0403 13:37:18.620244 11824 net.cpp:141] Setting up inception_4b/relu_3x3_reduce
I0403 13:37:18.620283 11824 net.cpp:148] Top shape: 24 112 14 14 (526848)
I0403 13:37:18.620299 11824 net.cpp:156] Memory required for data: 956439840
I0403 13:37:18.620316 11824 layer_factory.hpp:77] Creating layer inception_4b/3x3
I0403 13:37:18.620337 11824 net.cpp:91] Creating Layer inception_4b/3x3
I0403 13:37:18.620354 11824 net.cpp:425] inception_4b/3x3 <- inception_4b/3x3_reduce
I0403 13:37:18.620375 11824 net.cpp:399] inception_4b/3x3 -> inception_4b/3x3
I0403 13:37:18.623322 11824 net.cpp:141] Setting up inception_4b/3x3
I0403 13:37:18.623352 11824 net.cpp:148] Top shape: 24 224 14 14 (1053696)
I0403 13:37:18.623368 11824 net.cpp:156] Memory required for data: 960654624
I0403 13:37:18.623385 11824 layer_factory.hpp:77] Creating layer inception_4b/relu_3x3
I0403 13:37:18.623405 11824 net.cpp:91] Creating Layer inception_4b/relu_3x3
I0403 13:37:18.623422 11824 net.cpp:425] inception_4b/relu_3x3 <- inception_4b/3x3
I0403 13:37:18.623440 11824 net.cpp:386] inception_4b/relu_3x3 -> inception_4b/3x3 (in-place)
I0403 13:37:18.623633 11824 net.cpp:141] Setting up inception_4b/relu_3x3
I0403 13:37:18.623659 11824 net.cpp:148] Top shape: 24 224 14 14 (1053696)
I0403 13:37:18.623674 11824 net.cpp:156] Memory required for data: 964869408
I0403 13:37:18.623688 11824 layer_factory.hpp:77] Creating layer inception_4b/5x5_reduce
I0403 13:37:18.623710 11824 net.cpp:91] Creating Layer inception_4b/5x5_reduce
I0403 13:37:18.623728 11824 net.cpp:425] inception_4b/5x5_reduce <- inception_4a/output_inception_4a/output_0_split_3
I0403 13:37:18.623750 11824 net.cpp:399] inception_4b/5x5_reduce -> inception_4b/5x5_reduce
I0403 13:37:18.624840 11824 net.cpp:141] Setting up inception_4b/5x5_reduce
I0403 13:37:18.624867 11824 net.cpp:148] Top shape: 24 24 14 14 (112896)
I0403 13:37:18.624883 11824 net.cpp:156] Memory required for data: 965320992
I0403 13:37:18.624902 11824 layer_factory.hpp:77] Creating layer inception_4b/relu_5x5_reduce
I0403 13:37:18.624919 11824 net.cpp:91] Creating Layer inception_4b/relu_5x5_reduce
I0403 13:37:18.624949 11824 net.cpp:425] inception_4b/relu_5x5_reduce <- inception_4b/5x5_reduce
I0403 13:37:18.624970 11824 net.cpp:386] inception_4b/relu_5x5_reduce -> inception_4b/5x5_reduce (in-place)
I0403 13:37:18.625150 11824 net.cpp:141] Setting up inception_4b/relu_5x5_reduce
I0403 13:37:18.625175 11824 net.cpp:148] Top shape: 24 24 14 14 (112896)
I0403 13:37:18.625190 11824 net.cpp:156] Memory required for data: 965772576
I0403 13:37:18.625205 11824 layer_factory.hpp:77] Creating layer inception_4b/5x5
I0403 13:37:18.625226 11824 net.cpp:91] Creating Layer inception_4b/5x5
I0403 13:37:18.625243 11824 net.cpp:425] inception_4b/5x5 <- inception_4b/5x5_reduce
I0403 13:37:18.625263 11824 net.cpp:399] inception_4b/5x5 -> inception_4b/5x5
I0403 13:37:18.626482 11824 net.cpp:141] Setting up inception_4b/5x5
I0403 13:37:18.626513 11824 net.cpp:148] Top shape: 24 64 14 14 (301056)
I0403 13:37:18.626529 11824 net.cpp:156] Memory required for data: 966976800
I0403 13:37:18.626552 11824 layer_factory.hpp:77] Creating layer inception_4b/relu_5x5
I0403 13:37:18.626572 11824 net.cpp:91] Creating Layer inception_4b/relu_5x5
I0403 13:37:18.626587 11824 net.cpp:425] inception_4b/relu_5x5 <- inception_4b/5x5
I0403 13:37:18.626606 11824 net.cpp:386] inception_4b/relu_5x5 -> inception_4b/5x5 (in-place)
I0403 13:37:18.626889 11824 net.cpp:141] Setting up inception_4b/relu_5x5
I0403 13:37:18.626919 11824 net.cpp:148] Top shape: 24 64 14 14 (301056)
I0403 13:37:18.626936 11824 net.cpp:156] Memory required for data: 968181024
I0403 13:37:18.626951 11824 layer_factory.hpp:77] Creating layer inception_4b/pool
I0403 13:37:18.626970 11824 net.cpp:91] Creating Layer inception_4b/pool
I0403 13:37:18.626986 11824 net.cpp:425] inception_4b/pool <- inception_4a/output_inception_4a/output_0_split_4
I0403 13:37:18.627007 11824 net.cpp:399] inception_4b/pool -> inception_4b/pool
I0403 13:37:18.627071 11824 net.cpp:141] Setting up inception_4b/pool
I0403 13:37:18.627097 11824 net.cpp:148] Top shape: 24 512 14 14 (2408448)
I0403 13:37:18.627113 11824 net.cpp:156] Memory required for data: 977814816
I0403 13:37:18.627127 11824 layer_factory.hpp:77] Creating layer inception_4b/pool_proj
I0403 13:37:18.627146 11824 net.cpp:91] Creating Layer inception_4b/pool_proj
I0403 13:37:18.627163 11824 net.cpp:425] inception_4b/pool_proj <- inception_4b/pool
I0403 13:37:18.627183 11824 net.cpp:399] inception_4b/pool_proj -> inception_4b/pool_proj
I0403 13:37:18.628391 11824 net.cpp:141] Setting up inception_4b/pool_proj
I0403 13:37:18.628417 11824 net.cpp:148] Top shape: 24 64 14 14 (301056)
I0403 13:37:18.628433 11824 net.cpp:156] Memory required for data: 979019040
I0403 13:37:18.628453 11824 layer_factory.hpp:77] Creating layer inception_4b/relu_pool_proj
I0403 13:37:18.628471 11824 net.cpp:91] Creating Layer inception_4b/relu_pool_proj
I0403 13:37:18.628487 11824 net.cpp:425] inception_4b/relu_pool_proj <- inception_4b/pool_proj
I0403 13:37:18.628506 11824 net.cpp:386] inception_4b/relu_pool_proj -> inception_4b/pool_proj (in-place)
I0403 13:37:18.628689 11824 net.cpp:141] Setting up inception_4b/relu_pool_proj
I0403 13:37:18.628713 11824 net.cpp:148] Top shape: 24 64 14 14 (301056)
I0403 13:37:18.628727 11824 net.cpp:156] Memory required for data: 980223264
I0403 13:37:18.628742 11824 layer_factory.hpp:77] Creating layer inception_4b/output
I0403 13:37:18.628759 11824 net.cpp:91] Creating Layer inception_4b/output
I0403 13:37:18.628774 11824 net.cpp:425] inception_4b/output <- inception_4b/1x1
I0403 13:37:18.628793 11824 net.cpp:425] inception_4b/output <- inception_4b/3x3
I0403 13:37:18.628810 11824 net.cpp:425] inception_4b/output <- inception_4b/5x5
I0403 13:37:18.628826 11824 net.cpp:425] inception_4b/output <- inception_4b/pool_proj
I0403 13:37:18.628844 11824 net.cpp:399] inception_4b/output -> inception_4b/output
I0403 13:37:18.628890 11824 net.cpp:141] Setting up inception_4b/output
I0403 13:37:18.628913 11824 net.cpp:148] Top shape: 24 512 14 14 (2408448)
I0403 13:37:18.628927 11824 net.cpp:156] Memory required for data: 989857056
I0403 13:37:18.628955 11824 layer_factory.hpp:77] Creating layer inception_4b/output_inception_4b/output_0_split
I0403 13:37:18.628973 11824 net.cpp:91] Creating Layer inception_4b/output_inception_4b/output_0_split
I0403 13:37:18.628988 11824 net.cpp:425] inception_4b/output_inception_4b/output_0_split <- inception_4b/output
I0403 13:37:18.629009 11824 net.cpp:399] inception_4b/output_inception_4b/output_0_split -> inception_4b/output_inception_4b/output_0_split_0
I0403 13:37:18.629029 11824 net.cpp:399] inception_4b/output_inception_4b/output_0_split -> inception_4b/output_inception_4b/output_0_split_1
I0403 13:37:18.629050 11824 net.cpp:399] inception_4b/output_inception_4b/output_0_split -> inception_4b/output_inception_4b/output_0_split_2
I0403 13:37:18.629070 11824 net.cpp:399] inception_4b/output_inception_4b/output_0_split -> inception_4b/output_inception_4b/output_0_split_3
I0403 13:37:18.629153 11824 net.cpp:141] Setting up inception_4b/output_inception_4b/output_0_split
I0403 13:37:18.629179 11824 net.cpp:148] Top shape: 24 512 14 14 (2408448)
I0403 13:37:18.629195 11824 net.cpp:148] Top shape: 24 512 14 14 (2408448)
I0403 13:37:18.629209 11824 net.cpp:148] Top shape: 24 512 14 14 (2408448)
I0403 13:37:18.629225 11824 net.cpp:148] Top shape: 24 512 14 14 (2408448)
I0403 13:37:18.629236 11824 net.cpp:156] Memory required for data: 1028392224
I0403 13:37:18.629251 11824 layer_factory.hpp:77] Creating layer inception_4c/1x1
I0403 13:37:18.629274 11824 net.cpp:91] Creating Layer inception_4c/1x1
I0403 13:37:18.629290 11824 net.cpp:425] inception_4c/1x1 <- inception_4b/output_inception_4b/output_0_split_0
I0403 13:37:18.629308 11824 net.cpp:399] inception_4c/1x1 -> inception_4c/1x1
I0403 13:37:18.630794 11824 net.cpp:141] Setting up inception_4c/1x1
I0403 13:37:18.630822 11824 net.cpp:148] Top shape: 24 128 14 14 (602112)
I0403 13:37:18.630838 11824 net.cpp:156] Memory required for data: 1030800672
I0403 13:37:18.630857 11824 layer_factory.hpp:77] Creating layer inception_4c/relu_1x1
I0403 13:37:18.630879 11824 net.cpp:91] Creating Layer inception_4c/relu_1x1
I0403 13:37:18.630897 11824 net.cpp:425] inception_4c/relu_1x1 <- inception_4c/1x1
I0403 13:37:18.630914 11824 net.cpp:386] inception_4c/relu_1x1 -> inception_4c/1x1 (in-place)
I0403 13:37:18.631095 11824 net.cpp:141] Setting up inception_4c/relu_1x1
I0403 13:37:18.631122 11824 net.cpp:148] Top shape: 24 128 14 14 (602112)
I0403 13:37:18.631139 11824 net.cpp:156] Memory required for data: 1033209120
I0403 13:37:18.631153 11824 layer_factory.hpp:77] Creating layer inception_4c/3x3_reduce
I0403 13:37:18.631176 11824 net.cpp:91] Creating Layer inception_4c/3x3_reduce
I0403 13:37:18.631193 11824 net.cpp:425] inception_4c/3x3_reduce <- inception_4b/output_inception_4b/output_0_split_1
I0403 13:37:18.631212 11824 net.cpp:399] inception_4c/3x3_reduce -> inception_4c/3x3_reduce
I0403 13:37:18.633218 11824 net.cpp:141] Setting up inception_4c/3x3_reduce
I0403 13:37:18.633249 11824 net.cpp:148] Top shape: 24 128 14 14 (602112)
I0403 13:37:18.633268 11824 net.cpp:156] Memory required for data: 1035617568
I0403 13:37:18.633286 11824 layer_factory.hpp:77] Creating layer inception_4c/relu_3x3_reduce
I0403 13:37:18.633306 11824 net.cpp:91] Creating Layer inception_4c/relu_3x3_reduce
I0403 13:37:18.633322 11824 net.cpp:425] inception_4c/relu_3x3_reduce <- inception_4c/3x3_reduce
I0403 13:37:18.633342 11824 net.cpp:386] inception_4c/relu_3x3_reduce -> inception_4c/3x3_reduce (in-place)
I0403 13:37:18.633648 11824 net.cpp:141] Setting up inception_4c/relu_3x3_reduce
I0403 13:37:18.633677 11824 net.cpp:148] Top shape: 24 128 14 14 (602112)
I0403 13:37:18.633693 11824 net.cpp:156] Memory required for data: 1038026016
I0403 13:37:18.633708 11824 layer_factory.hpp:77] Creating layer inception_4c/3x3
I0403 13:37:18.633731 11824 net.cpp:91] Creating Layer inception_4c/3x3
I0403 13:37:18.633749 11824 net.cpp:425] inception_4c/3x3 <- inception_4c/3x3_reduce
I0403 13:37:18.633771 11824 net.cpp:399] inception_4c/3x3 -> inception_4c/3x3
I0403 13:37:18.637444 11824 net.cpp:141] Setting up inception_4c/3x3
I0403 13:37:18.637488 11824 net.cpp:148] Top shape: 24 256 14 14 (1204224)
I0403 13:37:18.637506 11824 net.cpp:156] Memory required for data: 1042842912
I0403 13:37:18.637542 11824 layer_factory.hpp:77] Creating layer inception_4c/relu_3x3
I0403 13:37:18.637563 11824 net.cpp:91] Creating Layer inception_4c/relu_3x3
I0403 13:37:18.637580 11824 net.cpp:425] inception_4c/relu_3x3 <- inception_4c/3x3
I0403 13:37:18.637599 11824 net.cpp:386] inception_4c/relu_3x3 -> inception_4c/3x3 (in-place)
I0403 13:37:18.637796 11824 net.cpp:141] Setting up inception_4c/relu_3x3
I0403 13:37:18.637821 11824 net.cpp:148] Top shape: 24 256 14 14 (1204224)
I0403 13:37:18.637837 11824 net.cpp:156] Memory required for data: 1047659808
I0403 13:37:18.637852 11824 layer_factory.hpp:77] Creating layer inception_4c/5x5_reduce
I0403 13:37:18.637876 11824 net.cpp:91] Creating Layer inception_4c/5x5_reduce
I0403 13:37:18.637894 11824 net.cpp:425] inception_4c/5x5_reduce <- inception_4b/output_inception_4b/output_0_split_2
I0403 13:37:18.637915 11824 net.cpp:399] inception_4c/5x5_reduce -> inception_4c/5x5_reduce
I0403 13:37:18.639026 11824 net.cpp:141] Setting up inception_4c/5x5_reduce
I0403 13:37:18.639055 11824 net.cpp:148] Top shape: 24 24 14 14 (112896)
I0403 13:37:18.639071 11824 net.cpp:156] Memory required for data: 1048111392
I0403 13:37:18.639089 11824 layer_factory.hpp:77] Creating layer inception_4c/relu_5x5_reduce
I0403 13:37:18.639106 11824 net.cpp:91] Creating Layer inception_4c/relu_5x5_reduce
I0403 13:37:18.639122 11824 net.cpp:425] inception_4c/relu_5x5_reduce <- inception_4c/5x5_reduce
I0403 13:37:18.639142 11824 net.cpp:386] inception_4c/relu_5x5_reduce -> inception_4c/5x5_reduce (in-place)
I0403 13:37:18.639327 11824 net.cpp:141] Setting up inception_4c/relu_5x5_reduce
I0403 13:37:18.639350 11824 net.cpp:148] Top shape: 24 24 14 14 (112896)
I0403 13:37:18.639365 11824 net.cpp:156] Memory required for data: 1048562976
I0403 13:37:18.639379 11824 layer_factory.hpp:77] Creating layer inception_4c/5x5
I0403 13:37:18.639401 11824 net.cpp:91] Creating Layer inception_4c/5x5
I0403 13:37:18.639420 11824 net.cpp:425] inception_4c/5x5 <- inception_4c/5x5_reduce
I0403 13:37:18.639439 11824 net.cpp:399] inception_4c/5x5 -> inception_4c/5x5
I0403 13:37:18.640722 11824 net.cpp:141] Setting up inception_4c/5x5
I0403 13:37:18.640749 11824 net.cpp:148] Top shape: 24 64 14 14 (301056)
I0403 13:37:18.640764 11824 net.cpp:156] Memory required for data: 1049767200
I0403 13:37:18.640784 11824 layer_factory.hpp:77] Creating layer inception_4c/relu_5x5
I0403 13:37:18.640804 11824 net.cpp:91] Creating Layer inception_4c/relu_5x5
I0403 13:37:18.640820 11824 net.cpp:425] inception_4c/relu_5x5 <- inception_4c/5x5
I0403 13:37:18.640838 11824 net.cpp:386] inception_4c/relu_5x5 -> inception_4c/5x5 (in-place)
I0403 13:37:18.641137 11824 net.cpp:141] Setting up inception_4c/relu_5x5
I0403 13:37:18.641165 11824 net.cpp:148] Top shape: 24 64 14 14 (301056)
I0403 13:37:18.641180 11824 net.cpp:156] Memory required for data: 1050971424
I0403 13:37:18.641194 11824 layer_factory.hpp:77] Creating layer inception_4c/pool
I0403 13:37:18.641214 11824 net.cpp:91] Creating Layer inception_4c/pool
I0403 13:37:18.641232 11824 net.cpp:425] inception_4c/pool <- inception_4b/output_inception_4b/output_0_split_3
I0403 13:37:18.641250 11824 net.cpp:399] inception_4c/pool -> inception_4c/pool
I0403 13:37:18.641319 11824 net.cpp:141] Setting up inception_4c/pool
I0403 13:37:18.641343 11824 net.cpp:148] Top shape: 24 512 14 14 (2408448)
I0403 13:37:18.641357 11824 net.cpp:156] Memory required for data: 1060605216
I0403 13:37:18.641372 11824 layer_factory.hpp:77] Creating layer inception_4c/pool_proj
I0403 13:37:18.641394 11824 net.cpp:91] Creating Layer inception_4c/pool_proj
I0403 13:37:18.641412 11824 net.cpp:425] inception_4c/pool_proj <- inception_4c/pool
I0403 13:37:18.641433 11824 net.cpp:399] inception_4c/pool_proj -> inception_4c/pool_proj
I0403 13:37:18.642698 11824 net.cpp:141] Setting up inception_4c/pool_proj
I0403 13:37:18.642729 11824 net.cpp:148] Top shape: 24 64 14 14 (301056)
I0403 13:37:18.642760 11824 net.cpp:156] Memory required for data: 1061809440
I0403 13:37:18.642781 11824 layer_factory.hpp:77] Creating layer inception_4c/relu_pool_proj
I0403 13:37:18.642799 11824 net.cpp:91] Creating Layer inception_4c/relu_pool_proj
I0403 13:37:18.642817 11824 net.cpp:425] inception_4c/relu_pool_proj <- inception_4c/pool_proj
I0403 13:37:18.642837 11824 net.cpp:386] inception_4c/relu_pool_proj -> inception_4c/pool_proj (in-place)
I0403 13:37:18.643033 11824 net.cpp:141] Setting up inception_4c/relu_pool_proj
I0403 13:37:18.643057 11824 net.cpp:148] Top shape: 24 64 14 14 (301056)
I0403 13:37:18.643071 11824 net.cpp:156] Memory required for data: 1063013664
I0403 13:37:18.643085 11824 layer_factory.hpp:77] Creating layer inception_4c/output
I0403 13:37:18.643102 11824 net.cpp:91] Creating Layer inception_4c/output
I0403 13:37:18.643118 11824 net.cpp:425] inception_4c/output <- inception_4c/1x1
I0403 13:37:18.643133 11824 net.cpp:425] inception_4c/output <- inception_4c/3x3
I0403 13:37:18.643149 11824 net.cpp:425] inception_4c/output <- inception_4c/5x5
I0403 13:37:18.643164 11824 net.cpp:425] inception_4c/output <- inception_4c/pool_proj
I0403 13:37:18.643182 11824 net.cpp:399] inception_4c/output -> inception_4c/output
I0403 13:37:18.643231 11824 net.cpp:141] Setting up inception_4c/output
I0403 13:37:18.643254 11824 net.cpp:148] Top shape: 24 512 14 14 (2408448)
I0403 13:37:18.643270 11824 net.cpp:156] Memory required for data: 1072647456
I0403 13:37:18.643285 11824 layer_factory.hpp:77] Creating layer inception_4c/output_inception_4c/output_0_split
I0403 13:37:18.643301 11824 net.cpp:91] Creating Layer inception_4c/output_inception_4c/output_0_split
I0403 13:37:18.643316 11824 net.cpp:425] inception_4c/output_inception_4c/output_0_split <- inception_4c/output
I0403 13:37:18.643334 11824 net.cpp:399] inception_4c/output_inception_4c/output_0_split -> inception_4c/output_inception_4c/output_0_split_0
I0403 13:37:18.643355 11824 net.cpp:399] inception_4c/output_inception_4c/output_0_split -> inception_4c/output_inception_4c/output_0_split_1
I0403 13:37:18.643375 11824 net.cpp:399] inception_4c/output_inception_4c/output_0_split -> inception_4c/output_inception_4c/output_0_split_2
I0403 13:37:18.643395 11824 net.cpp:399] inception_4c/output_inception_4c/output_0_split -> inception_4c/output_inception_4c/output_0_split_3
I0403 13:37:18.643482 11824 net.cpp:141] Setting up inception_4c/output_inception_4c/output_0_split
I0403 13:37:18.643507 11824 net.cpp:148] Top shape: 24 512 14 14 (2408448)
I0403 13:37:18.643523 11824 net.cpp:148] Top shape: 24 512 14 14 (2408448)
I0403 13:37:18.643543 11824 net.cpp:148] Top shape: 24 512 14 14 (2408448)
I0403 13:37:18.643560 11824 net.cpp:148] Top shape: 24 512 14 14 (2408448)
I0403 13:37:18.643574 11824 net.cpp:156] Memory required for data: 1111182624
I0403 13:37:18.643589 11824 layer_factory.hpp:77] Creating layer inception_4d/1x1
I0403 13:37:18.643610 11824 net.cpp:91] Creating Layer inception_4d/1x1
I0403 13:37:18.643627 11824 net.cpp:425] inception_4d/1x1 <- inception_4c/output_inception_4c/output_0_split_0
I0403 13:37:18.643646 11824 net.cpp:399] inception_4d/1x1 -> inception_4d/1x1
I0403 13:37:18.645077 11824 net.cpp:141] Setting up inception_4d/1x1
I0403 13:37:18.645107 11824 net.cpp:148] Top shape: 24 112 14 14 (526848)
I0403 13:37:18.645123 11824 net.cpp:156] Memory required for data: 1113290016
I0403 13:37:18.645140 11824 layer_factory.hpp:77] Creating layer inception_4d/relu_1x1
I0403 13:37:18.645160 11824 net.cpp:91] Creating Layer inception_4d/relu_1x1
I0403 13:37:18.645177 11824 net.cpp:425] inception_4d/relu_1x1 <- inception_4d/1x1
I0403 13:37:18.645195 11824 net.cpp:386] inception_4d/relu_1x1 -> inception_4d/1x1 (in-place)
I0403 13:37:18.645380 11824 net.cpp:141] Setting up inception_4d/relu_1x1
I0403 13:37:18.645403 11824 net.cpp:148] Top shape: 24 112 14 14 (526848)
I0403 13:37:18.645418 11824 net.cpp:156] Memory required for data: 1115397408
I0403 13:37:18.645432 11824 layer_factory.hpp:77] Creating layer inception_4d/3x3_reduce
I0403 13:37:18.645468 11824 net.cpp:91] Creating Layer inception_4d/3x3_reduce
I0403 13:37:18.645486 11824 net.cpp:425] inception_4d/3x3_reduce <- inception_4c/output_inception_4c/output_0_split_1
I0403 13:37:18.645508 11824 net.cpp:399] inception_4d/3x3_reduce -> inception_4d/3x3_reduce
I0403 13:37:18.647075 11824 net.cpp:141] Setting up inception_4d/3x3_reduce
I0403 13:37:18.647102 11824 net.cpp:148] Top shape: 24 144 14 14 (677376)
I0403 13:37:18.647119 11824 net.cpp:156] Memory required for data: 1118106912
I0403 13:37:18.647136 11824 layer_factory.hpp:77] Creating layer inception_4d/relu_3x3_reduce
I0403 13:37:18.647156 11824 net.cpp:91] Creating Layer inception_4d/relu_3x3_reduce
I0403 13:37:18.647173 11824 net.cpp:425] inception_4d/relu_3x3_reduce <- inception_4d/3x3_reduce
I0403 13:37:18.647189 11824 net.cpp:386] inception_4d/relu_3x3_reduce -> inception_4d/3x3_reduce (in-place)
I0403 13:37:18.647485 11824 net.cpp:141] Setting up inception_4d/relu_3x3_reduce
I0403 13:37:18.647511 11824 net.cpp:148] Top shape: 24 144 14 14 (677376)
I0403 13:37:18.647527 11824 net.cpp:156] Memory required for data: 1120816416
I0403 13:37:18.647547 11824 layer_factory.hpp:77] Creating layer inception_4d/3x3
I0403 13:37:18.647569 11824 net.cpp:91] Creating Layer inception_4d/3x3
I0403 13:37:18.647588 11824 net.cpp:425] inception_4d/3x3 <- inception_4d/3x3_reduce
I0403 13:37:18.647608 11824 net.cpp:399] inception_4d/3x3 -> inception_4d/3x3
I0403 13:37:18.651914 11824 net.cpp:141] Setting up inception_4d/3x3
I0403 13:37:18.651944 11824 net.cpp:148] Top shape: 24 288 14 14 (1354752)
I0403 13:37:18.651960 11824 net.cpp:156] Memory required for data: 1126235424
I0403 13:37:18.651978 11824 layer_factory.hpp:77] Creating layer inception_4d/relu_3x3
I0403 13:37:18.651995 11824 net.cpp:91] Creating Layer inception_4d/relu_3x3
I0403 13:37:18.652011 11824 net.cpp:425] inception_4d/relu_3x3 <- inception_4d/3x3
I0403 13:37:18.652029 11824 net.cpp:386] inception_4d/relu_3x3 -> inception_4d/3x3 (in-place)
I0403 13:37:18.652207 11824 net.cpp:141] Setting up inception_4d/relu_3x3
I0403 13:37:18.652232 11824 net.cpp:148] Top shape: 24 288 14 14 (1354752)
I0403 13:37:18.652246 11824 net.cpp:156] Memory required for data: 1131654432
I0403 13:37:18.652261 11824 layer_factory.hpp:77] Creating layer inception_4d/5x5_reduce
I0403 13:37:18.652282 11824 net.cpp:91] Creating Layer inception_4d/5x5_reduce
I0403 13:37:18.652299 11824 net.cpp:425] inception_4d/5x5_reduce <- inception_4c/output_inception_4c/output_0_split_2
I0403 13:37:18.652320 11824 net.cpp:399] inception_4d/5x5_reduce -> inception_4d/5x5_reduce
I0403 13:37:18.653468 11824 net.cpp:141] Setting up inception_4d/5x5_reduce
I0403 13:37:18.653497 11824 net.cpp:148] Top shape: 24 32 14 14 (150528)
I0403 13:37:18.653513 11824 net.cpp:156] Memory required for data: 1132256544
I0403 13:37:18.653532 11824 layer_factory.hpp:77] Creating layer inception_4d/relu_5x5_reduce
I0403 13:37:18.653553 11824 net.cpp:91] Creating Layer inception_4d/relu_5x5_reduce
I0403 13:37:18.653569 11824 net.cpp:425] inception_4d/relu_5x5_reduce <- inception_4d/5x5_reduce
I0403 13:37:18.653589 11824 net.cpp:386] inception_4d/relu_5x5_reduce -> inception_4d/5x5_reduce (in-place)
I0403 13:37:18.653770 11824 net.cpp:141] Setting up inception_4d/relu_5x5_reduce
I0403 13:37:18.653795 11824 net.cpp:148] Top shape: 24 32 14 14 (150528)
I0403 13:37:18.653808 11824 net.cpp:156] Memory required for data: 1132858656
I0403 13:37:18.653822 11824 layer_factory.hpp:77] Creating layer inception_4d/5x5
I0403 13:37:18.653843 11824 net.cpp:91] Creating Layer inception_4d/5x5
I0403 13:37:18.653859 11824 net.cpp:425] inception_4d/5x5 <- inception_4d/5x5_reduce
I0403 13:37:18.653880 11824 net.cpp:399] inception_4d/5x5 -> inception_4d/5x5
I0403 13:37:18.655369 11824 net.cpp:141] Setting up inception_4d/5x5
I0403 13:37:18.655395 11824 net.cpp:148] Top shape: 24 64 14 14 (301056)
I0403 13:37:18.655411 11824 net.cpp:156] Memory required for data: 1134062880
I0403 13:37:18.655428 11824 layer_factory.hpp:77] Creating layer inception_4d/relu_5x5
I0403 13:37:18.655462 11824 net.cpp:91] Creating Layer inception_4d/relu_5x5
I0403 13:37:18.655478 11824 net.cpp:425] inception_4d/relu_5x5 <- inception_4d/5x5
I0403 13:37:18.655498 11824 net.cpp:386] inception_4d/relu_5x5 -> inception_4d/5x5 (in-place)
I0403 13:37:18.655803 11824 net.cpp:141] Setting up inception_4d/relu_5x5
I0403 13:37:18.655829 11824 net.cpp:148] Top shape: 24 64 14 14 (301056)
I0403 13:37:18.655851 11824 net.cpp:156] Memory required for data: 1135267104
I0403 13:37:18.655866 11824 layer_factory.hpp:77] Creating layer inception_4d/pool
I0403 13:37:18.655882 11824 net.cpp:91] Creating Layer inception_4d/pool
I0403 13:37:18.655897 11824 net.cpp:425] inception_4d/pool <- inception_4c/output_inception_4c/output_0_split_3
I0403 13:37:18.655917 11824 net.cpp:399] inception_4d/pool -> inception_4d/pool
I0403 13:37:18.655984 11824 net.cpp:141] Setting up inception_4d/pool
I0403 13:37:18.656008 11824 net.cpp:148] Top shape: 24 512 14 14 (2408448)
I0403 13:37:18.656021 11824 net.cpp:156] Memory required for data: 1144900896
I0403 13:37:18.656035 11824 layer_factory.hpp:77] Creating layer inception_4d/pool_proj
I0403 13:37:18.656059 11824 net.cpp:91] Creating Layer inception_4d/pool_proj
I0403 13:37:18.656075 11824 net.cpp:425] inception_4d/pool_proj <- inception_4d/pool
I0403 13:37:18.656093 11824 net.cpp:399] inception_4d/pool_proj -> inception_4d/pool_proj
I0403 13:37:18.657846 11824 net.cpp:141] Setting up inception_4d/pool_proj
I0403 13:37:18.657877 11824 net.cpp:148] Top shape: 24 64 14 14 (301056)
I0403 13:37:18.657893 11824 net.cpp:156] Memory required for data: 1146105120
I0403 13:37:18.657912 11824 layer_factory.hpp:77] Creating layer inception_4d/relu_pool_proj
I0403 13:37:18.657930 11824 net.cpp:91] Creating Layer inception_4d/relu_pool_proj
I0403 13:37:18.657946 11824 net.cpp:425] inception_4d/relu_pool_proj <- inception_4d/pool_proj
I0403 13:37:18.657963 11824 net.cpp:386] inception_4d/relu_pool_proj -> inception_4d/pool_proj (in-place)
I0403 13:37:18.658149 11824 net.cpp:141] Setting up inception_4d/relu_pool_proj
I0403 13:37:18.658174 11824 net.cpp:148] Top shape: 24 64 14 14 (301056)
I0403 13:37:18.658188 11824 net.cpp:156] Memory required for data: 1147309344
I0403 13:37:18.658203 11824 layer_factory.hpp:77] Creating layer inception_4d/output
I0403 13:37:18.658221 11824 net.cpp:91] Creating Layer inception_4d/output
I0403 13:37:18.658237 11824 net.cpp:425] inception_4d/output <- inception_4d/1x1
I0403 13:37:18.658254 11824 net.cpp:425] inception_4d/output <- inception_4d/3x3
I0403 13:37:18.658272 11824 net.cpp:425] inception_4d/output <- inception_4d/5x5
I0403 13:37:18.658287 11824 net.cpp:425] inception_4d/output <- inception_4d/pool_proj
I0403 13:37:18.658306 11824 net.cpp:399] inception_4d/output -> inception_4d/output
I0403 13:37:18.658354 11824 net.cpp:141] Setting up inception_4d/output
I0403 13:37:18.658380 11824 net.cpp:148] Top shape: 24 528 14 14 (2483712)
I0403 13:37:18.658396 11824 net.cpp:156] Memory required for data: 1157244192
I0403 13:37:18.658409 11824 layer_factory.hpp:77] Creating layer inception_4d/output_inception_4d/output_0_split
I0403 13:37:18.658427 11824 net.cpp:91] Creating Layer inception_4d/output_inception_4d/output_0_split
I0403 13:37:18.658442 11824 net.cpp:425] inception_4d/output_inception_4d/output_0_split <- inception_4d/output
I0403 13:37:18.658463 11824 net.cpp:399] inception_4d/output_inception_4d/output_0_split -> inception_4d/output_inception_4d/output_0_split_0
I0403 13:37:18.658484 11824 net.cpp:399] inception_4d/output_inception_4d/output_0_split -> inception_4d/output_inception_4d/output_0_split_1
I0403 13:37:18.658505 11824 net.cpp:399] inception_4d/output_inception_4d/output_0_split -> inception_4d/output_inception_4d/output_0_split_2
I0403 13:37:18.658541 11824 net.cpp:399] inception_4d/output_inception_4d/output_0_split -> inception_4d/output_inception_4d/output_0_split_3
I0403 13:37:18.658562 11824 net.cpp:399] inception_4d/output_inception_4d/output_0_split -> inception_4d/output_inception_4d/output_0_split_4
I0403 13:37:18.658661 11824 net.cpp:141] Setting up inception_4d/output_inception_4d/output_0_split
I0403 13:37:18.658695 11824 net.cpp:148] Top shape: 24 528 14 14 (2483712)
I0403 13:37:18.658712 11824 net.cpp:148] Top shape: 24 528 14 14 (2483712)
I0403 13:37:18.658727 11824 net.cpp:148] Top shape: 24 528 14 14 (2483712)
I0403 13:37:18.658741 11824 net.cpp:148] Top shape: 24 528 14 14 (2483712)
I0403 13:37:18.658756 11824 net.cpp:148] Top shape: 24 528 14 14 (2483712)
I0403 13:37:18.658769 11824 net.cpp:156] Memory required for data: 1206918432
I0403 13:37:18.658782 11824 layer_factory.hpp:77] Creating layer loss2/ave_pool
I0403 13:37:18.658802 11824 net.cpp:91] Creating Layer loss2/ave_pool
I0403 13:37:18.658818 11824 net.cpp:425] loss2/ave_pool <- inception_4d/output_inception_4d/output_0_split_0
I0403 13:37:18.658836 11824 net.cpp:399] loss2/ave_pool -> loss2/ave_pool
I0403 13:37:18.659137 11824 net.cpp:141] Setting up loss2/ave_pool
I0403 13:37:18.659164 11824 net.cpp:148] Top shape: 24 528 4 4 (202752)
I0403 13:37:18.659180 11824 net.cpp:156] Memory required for data: 1207729440
I0403 13:37:18.659195 11824 layer_factory.hpp:77] Creating layer loss2/conv
I0403 13:37:18.659215 11824 net.cpp:91] Creating Layer loss2/conv
I0403 13:37:18.659232 11824 net.cpp:425] loss2/conv <- loss2/ave_pool
I0403 13:37:18.659251 11824 net.cpp:399] loss2/conv -> loss2/conv
I0403 13:37:18.661224 11824 net.cpp:141] Setting up loss2/conv
I0403 13:37:18.661252 11824 net.cpp:148] Top shape: 24 128 4 4 (49152)
I0403 13:37:18.661268 11824 net.cpp:156] Memory required for data: 1207926048
I0403 13:37:18.661286 11824 layer_factory.hpp:77] Creating layer loss2/relu_conv
I0403 13:37:18.661306 11824 net.cpp:91] Creating Layer loss2/relu_conv
I0403 13:37:18.661324 11824 net.cpp:425] loss2/relu_conv <- loss2/conv
I0403 13:37:18.661341 11824 net.cpp:386] loss2/relu_conv -> loss2/conv (in-place)
I0403 13:37:18.661628 11824 net.cpp:141] Setting up loss2/relu_conv
I0403 13:37:18.661654 11824 net.cpp:148] Top shape: 24 128 4 4 (49152)
I0403 13:37:18.661669 11824 net.cpp:156] Memory required for data: 1208122656
I0403 13:37:18.661684 11824 layer_factory.hpp:77] Creating layer loss2/fc
I0403 13:37:18.661705 11824 net.cpp:91] Creating Layer loss2/fc
I0403 13:37:18.661721 11824 net.cpp:425] loss2/fc <- loss2/conv
I0403 13:37:18.661738 11824 net.cpp:399] loss2/fc -> loss2/fc
I0403 13:37:18.679332 11824 net.cpp:141] Setting up loss2/fc
I0403 13:37:18.679373 11824 net.cpp:148] Top shape: 24 1024 (24576)
I0403 13:37:18.679389 11824 net.cpp:156] Memory required for data: 1208220960
I0403 13:37:18.679409 11824 layer_factory.hpp:77] Creating layer loss2/relu_fc
I0403 13:37:18.679426 11824 net.cpp:91] Creating Layer loss2/relu_fc
I0403 13:37:18.679442 11824 net.cpp:425] loss2/relu_fc <- loss2/fc
I0403 13:37:18.679461 11824 net.cpp:386] loss2/relu_fc -> loss2/fc (in-place)
I0403 13:37:18.679775 11824 net.cpp:141] Setting up loss2/relu_fc
I0403 13:37:18.679803 11824 net.cpp:148] Top shape: 24 1024 (24576)
I0403 13:37:18.679819 11824 net.cpp:156] Memory required for data: 1208319264
I0403 13:37:18.679834 11824 layer_factory.hpp:77] Creating layer loss2/drop_fc
I0403 13:37:18.679854 11824 net.cpp:91] Creating Layer loss2/drop_fc
I0403 13:37:18.679869 11824 net.cpp:425] loss2/drop_fc <- loss2/fc
I0403 13:37:18.679888 11824 net.cpp:386] loss2/drop_fc -> loss2/fc (in-place)
I0403 13:37:18.679937 11824 net.cpp:141] Setting up loss2/drop_fc
I0403 13:37:18.679960 11824 net.cpp:148] Top shape: 24 1024 (24576)
I0403 13:37:18.679975 11824 net.cpp:156] Memory required for data: 1208417568
I0403 13:37:18.679987 11824 layer_factory.hpp:77] Creating layer loss2/classifier_plantvillage
I0403 13:37:18.680011 11824 net.cpp:91] Creating Layer loss2/classifier_plantvillage
I0403 13:37:18.680027 11824 net.cpp:425] loss2/classifier_plantvillage <- loss2/fc
I0403 13:37:18.680047 11824 net.cpp:399] loss2/classifier_plantvillage -> loss2/classifier_plantvillage
I0403 13:37:18.680485 11824 net.cpp:141] Setting up loss2/classifier_plantvillage
I0403 13:37:18.680511 11824 net.cpp:148] Top shape: 24 38 (912)
I0403 13:37:18.680565 11824 net.cpp:156] Memory required for data: 1208421216
I0403 13:37:18.680586 11824 layer_factory.hpp:77] Creating layer loss2/classifier_plantvillage_loss2/classifier_plantvillage_0_split
I0403 13:37:18.680630 11824 net.cpp:91] Creating Layer loss2/classifier_plantvillage_loss2/classifier_plantvillage_0_split
I0403 13:37:18.680649 11824 net.cpp:425] loss2/classifier_plantvillage_loss2/classifier_plantvillage_0_split <- loss2/classifier_plantvillage
I0403 13:37:18.680666 11824 net.cpp:399] loss2/classifier_plantvillage_loss2/classifier_plantvillage_0_split -> loss2/classifier_plantvillage_loss2/classifier_plantvillage_0_split_0
I0403 13:37:18.680686 11824 net.cpp:399] loss2/classifier_plantvillage_loss2/classifier_plantvillage_0_split -> loss2/classifier_plantvillage_loss2/classifier_plantvillage_0_split_1
I0403 13:37:18.680707 11824 net.cpp:399] loss2/classifier_plantvillage_loss2/classifier_plantvillage_0_split -> loss2/classifier_plantvillage_loss2/classifier_plantvillage_0_split_2
I0403 13:37:18.680789 11824 net.cpp:141] Setting up loss2/classifier_plantvillage_loss2/classifier_plantvillage_0_split
I0403 13:37:18.680812 11824 net.cpp:148] Top shape: 24 38 (912)
I0403 13:37:18.680830 11824 net.cpp:148] Top shape: 24 38 (912)
I0403 13:37:18.680845 11824 net.cpp:148] Top shape: 24 38 (912)
I0403 13:37:18.680860 11824 net.cpp:156] Memory required for data: 1208432160
I0403 13:37:18.680874 11824 layer_factory.hpp:77] Creating layer inception_4e/1x1
I0403 13:37:18.680904 11824 net.cpp:91] Creating Layer inception_4e/1x1
I0403 13:37:18.680922 11824 net.cpp:425] inception_4e/1x1 <- inception_4d/output_inception_4d/output_0_split_1
I0403 13:37:18.680943 11824 net.cpp:399] inception_4e/1x1 -> inception_4e/1x1
I0403 13:37:18.682857 11824 net.cpp:141] Setting up inception_4e/1x1
I0403 13:37:18.682886 11824 net.cpp:148] Top shape: 24 256 14 14 (1204224)
I0403 13:37:18.682904 11824 net.cpp:156] Memory required for data: 1213249056
I0403 13:37:18.682922 11824 layer_factory.hpp:77] Creating layer inception_4e/relu_1x1
I0403 13:37:18.682942 11824 net.cpp:91] Creating Layer inception_4e/relu_1x1
I0403 13:37:18.682960 11824 net.cpp:425] inception_4e/relu_1x1 <- inception_4e/1x1
I0403 13:37:18.682977 11824 net.cpp:386] inception_4e/relu_1x1 -> inception_4e/1x1 (in-place)
I0403 13:37:18.683284 11824 net.cpp:141] Setting up inception_4e/relu_1x1
I0403 13:37:18.683310 11824 net.cpp:148] Top shape: 24 256 14 14 (1204224)
I0403 13:37:18.683326 11824 net.cpp:156] Memory required for data: 1218065952
I0403 13:37:18.683342 11824 layer_factory.hpp:77] Creating layer inception_4e/3x3_reduce
I0403 13:37:18.683364 11824 net.cpp:91] Creating Layer inception_4e/3x3_reduce
I0403 13:37:18.683382 11824 net.cpp:425] inception_4e/3x3_reduce <- inception_4d/output_inception_4d/output_0_split_2
I0403 13:37:18.683404 11824 net.cpp:399] inception_4e/3x3_reduce -> inception_4e/3x3_reduce
I0403 13:37:18.685621 11824 net.cpp:141] Setting up inception_4e/3x3_reduce
I0403 13:37:18.685650 11824 net.cpp:148] Top shape: 24 160 14 14 (752640)
I0403 13:37:18.685667 11824 net.cpp:156] Memory required for data: 1221076512
I0403 13:37:18.685686 11824 layer_factory.hpp:77] Creating layer inception_4e/relu_3x3_reduce
I0403 13:37:18.685704 11824 net.cpp:91] Creating Layer inception_4e/relu_3x3_reduce
I0403 13:37:18.685724 11824 net.cpp:425] inception_4e/relu_3x3_reduce <- inception_4e/3x3_reduce
I0403 13:37:18.685742 11824 net.cpp:386] inception_4e/relu_3x3_reduce -> inception_4e/3x3_reduce (in-place)
I0403 13:37:18.685932 11824 net.cpp:141] Setting up inception_4e/relu_3x3_reduce
I0403 13:37:18.685958 11824 net.cpp:148] Top shape: 24 160 14 14 (752640)
I0403 13:37:18.685973 11824 net.cpp:156] Memory required for data: 1224087072
I0403 13:37:18.685987 11824 layer_factory.hpp:77] Creating layer inception_4e/3x3
I0403 13:37:18.686009 11824 net.cpp:91] Creating Layer inception_4e/3x3
I0403 13:37:18.686028 11824 net.cpp:425] inception_4e/3x3 <- inception_4e/3x3_reduce
I0403 13:37:18.686049 11824 net.cpp:399] inception_4e/3x3 -> inception_4e/3x3
I0403 13:37:18.691226 11824 net.cpp:141] Setting up inception_4e/3x3
I0403 13:37:18.691282 11824 net.cpp:148] Top shape: 24 320 14 14 (1505280)
I0403 13:37:18.691299 11824 net.cpp:156] Memory required for data: 1230108192
I0403 13:37:18.691323 11824 layer_factory.hpp:77] Creating layer inception_4e/relu_3x3
I0403 13:37:18.691344 11824 net.cpp:91] Creating Layer inception_4e/relu_3x3
I0403 13:37:18.691373 11824 net.cpp:425] inception_4e/relu_3x3 <- inception_4e/3x3
I0403 13:37:18.691401 11824 net.cpp:386] inception_4e/relu_3x3 -> inception_4e/3x3 (in-place)
I0403 13:37:18.691721 11824 net.cpp:141] Setting up inception_4e/relu_3x3
I0403 13:37:18.691748 11824 net.cpp:148] Top shape: 24 320 14 14 (1505280)
I0403 13:37:18.691763 11824 net.cpp:156] Memory required for data: 1236129312
I0403 13:37:18.691779 11824 layer_factory.hpp:77] Creating layer inception_4e/5x5_reduce
I0403 13:37:18.691804 11824 net.cpp:91] Creating Layer inception_4e/5x5_reduce
I0403 13:37:18.691823 11824 net.cpp:425] inception_4e/5x5_reduce <- inception_4d/output_inception_4d/output_0_split_3
I0403 13:37:18.691843 11824 net.cpp:399] inception_4e/5x5_reduce -> inception_4e/5x5_reduce
I0403 13:37:18.692977 11824 net.cpp:141] Setting up inception_4e/5x5_reduce
I0403 13:37:18.693006 11824 net.cpp:148] Top shape: 24 32 14 14 (150528)
I0403 13:37:18.693022 11824 net.cpp:156] Memory required for data: 1236731424
I0403 13:37:18.693040 11824 layer_factory.hpp:77] Creating layer inception_4e/relu_5x5_reduce
I0403 13:37:18.693059 11824 net.cpp:91] Creating Layer inception_4e/relu_5x5_reduce
I0403 13:37:18.693075 11824 net.cpp:425] inception_4e/relu_5x5_reduce <- inception_4e/5x5_reduce
I0403 13:37:18.693101 11824 net.cpp:386] inception_4e/relu_5x5_reduce -> inception_4e/5x5_reduce (in-place)
I0403 13:37:18.693425 11824 net.cpp:141] Setting up inception_4e/relu_5x5_reduce
I0403 13:37:18.693454 11824 net.cpp:148] Top shape: 24 32 14 14 (150528)
I0403 13:37:18.693469 11824 net.cpp:156] Memory required for data: 1237333536
I0403 13:37:18.693482 11824 layer_factory.hpp:77] Creating layer inception_4e/5x5
I0403 13:37:18.693522 11824 net.cpp:91] Creating Layer inception_4e/5x5
I0403 13:37:18.693547 11824 net.cpp:425] inception_4e/5x5 <- inception_4e/5x5_reduce
I0403 13:37:18.693568 11824 net.cpp:399] inception_4e/5x5 -> inception_4e/5x5
I0403 13:37:18.695499 11824 net.cpp:141] Setting up inception_4e/5x5
I0403 13:37:18.695544 11824 net.cpp:148] Top shape: 24 128 14 14 (602112)
I0403 13:37:18.695562 11824 net.cpp:156] Memory required for data: 1239741984
I0403 13:37:18.695581 11824 layer_factory.hpp:77] Creating layer inception_4e/relu_5x5
I0403 13:37:18.695600 11824 net.cpp:91] Creating Layer inception_4e/relu_5x5
I0403 13:37:18.695616 11824 net.cpp:425] inception_4e/relu_5x5 <- inception_4e/5x5
I0403 13:37:18.695636 11824 net.cpp:386] inception_4e/relu_5x5 -> inception_4e/5x5 (in-place)
I0403 13:37:18.695838 11824 net.cpp:141] Setting up inception_4e/relu_5x5
I0403 13:37:18.695864 11824 net.cpp:148] Top shape: 24 128 14 14 (602112)
I0403 13:37:18.695879 11824 net.cpp:156] Memory required for data: 1242150432
I0403 13:37:18.695894 11824 layer_factory.hpp:77] Creating layer inception_4e/pool
I0403 13:37:18.695915 11824 net.cpp:91] Creating Layer inception_4e/pool
I0403 13:37:18.695932 11824 net.cpp:425] inception_4e/pool <- inception_4d/output_inception_4d/output_0_split_4
I0403 13:37:18.695950 11824 net.cpp:399] inception_4e/pool -> inception_4e/pool
I0403 13:37:18.696025 11824 net.cpp:141] Setting up inception_4e/pool
I0403 13:37:18.696054 11824 net.cpp:148] Top shape: 24 528 14 14 (2483712)
I0403 13:37:18.696070 11824 net.cpp:156] Memory required for data: 1252085280
I0403 13:37:18.696084 11824 layer_factory.hpp:77] Creating layer inception_4e/pool_proj
I0403 13:37:18.696106 11824 net.cpp:91] Creating Layer inception_4e/pool_proj
I0403 13:37:18.696138 11824 net.cpp:425] inception_4e/pool_proj <- inception_4e/pool
I0403 13:37:18.696161 11824 net.cpp:399] inception_4e/pool_proj -> inception_4e/pool_proj
I0403 13:37:18.697723 11824 net.cpp:141] Setting up inception_4e/pool_proj
I0403 13:37:18.697767 11824 net.cpp:148] Top shape: 24 128 14 14 (602112)
I0403 13:37:18.697785 11824 net.cpp:156] Memory required for data: 1254493728
I0403 13:37:18.697804 11824 layer_factory.hpp:77] Creating layer inception_4e/relu_pool_proj
I0403 13:37:18.697823 11824 net.cpp:91] Creating Layer inception_4e/relu_pool_proj
I0403 13:37:18.697839 11824 net.cpp:425] inception_4e/relu_pool_proj <- inception_4e/pool_proj
I0403 13:37:18.697857 11824 net.cpp:386] inception_4e/relu_pool_proj -> inception_4e/pool_proj (in-place)
I0403 13:37:18.698159 11824 net.cpp:141] Setting up inception_4e/relu_pool_proj
I0403 13:37:18.698189 11824 net.cpp:148] Top shape: 24 128 14 14 (602112)
I0403 13:37:18.698205 11824 net.cpp:156] Memory required for data: 1256902176
I0403 13:37:18.698220 11824 layer_factory.hpp:77] Creating layer inception_4e/output
I0403 13:37:18.698238 11824 net.cpp:91] Creating Layer inception_4e/output
I0403 13:37:18.698254 11824 net.cpp:425] inception_4e/output <- inception_4e/1x1
I0403 13:37:18.698272 11824 net.cpp:425] inception_4e/output <- inception_4e/3x3
I0403 13:37:18.698288 11824 net.cpp:425] inception_4e/output <- inception_4e/5x5
I0403 13:37:18.698304 11824 net.cpp:425] inception_4e/output <- inception_4e/pool_proj
I0403 13:37:18.698321 11824 net.cpp:399] inception_4e/output -> inception_4e/output
I0403 13:37:18.698374 11824 net.cpp:141] Setting up inception_4e/output
I0403 13:37:18.698398 11824 net.cpp:148] Top shape: 24 832 14 14 (3913728)
I0403 13:37:18.698413 11824 net.cpp:156] Memory required for data: 1272557088
I0403 13:37:18.698428 11824 layer_factory.hpp:77] Creating layer pool4/3x3_s2
I0403 13:37:18.698448 11824 net.cpp:91] Creating Layer pool4/3x3_s2
I0403 13:37:18.698465 11824 net.cpp:425] pool4/3x3_s2 <- inception_4e/output
I0403 13:37:18.698484 11824 net.cpp:399] pool4/3x3_s2 -> pool4/3x3_s2
I0403 13:37:18.698560 11824 net.cpp:141] Setting up pool4/3x3_s2
I0403 13:37:18.698585 11824 net.cpp:148] Top shape: 24 832 7 7 (978432)
I0403 13:37:18.698601 11824 net.cpp:156] Memory required for data: 1276470816
I0403 13:37:18.698616 11824 layer_factory.hpp:77] Creating layer pool4/3x3_s2_pool4/3x3_s2_0_split
I0403 13:37:18.698633 11824 net.cpp:91] Creating Layer pool4/3x3_s2_pool4/3x3_s2_0_split
I0403 13:37:18.698649 11824 net.cpp:425] pool4/3x3_s2_pool4/3x3_s2_0_split <- pool4/3x3_s2
I0403 13:37:18.698669 11824 net.cpp:399] pool4/3x3_s2_pool4/3x3_s2_0_split -> pool4/3x3_s2_pool4/3x3_s2_0_split_0
I0403 13:37:18.698691 11824 net.cpp:399] pool4/3x3_s2_pool4/3x3_s2_0_split -> pool4/3x3_s2_pool4/3x3_s2_0_split_1
I0403 13:37:18.698712 11824 net.cpp:399] pool4/3x3_s2_pool4/3x3_s2_0_split -> pool4/3x3_s2_pool4/3x3_s2_0_split_2
I0403 13:37:18.698732 11824 net.cpp:399] pool4/3x3_s2_pool4/3x3_s2_0_split -> pool4/3x3_s2_pool4/3x3_s2_0_split_3
I0403 13:37:18.698830 11824 net.cpp:141] Setting up pool4/3x3_s2_pool4/3x3_s2_0_split
I0403 13:37:18.698858 11824 net.cpp:148] Top shape: 24 832 7 7 (978432)
I0403 13:37:18.698874 11824 net.cpp:148] Top shape: 24 832 7 7 (978432)
I0403 13:37:18.698891 11824 net.cpp:148] Top shape: 24 832 7 7 (978432)
I0403 13:37:18.698909 11824 net.cpp:148] Top shape: 24 832 7 7 (978432)
I0403 13:37:18.698921 11824 net.cpp:156] Memory required for data: 1292125728
I0403 13:37:18.698938 11824 layer_factory.hpp:77] Creating layer inception_5a/1x1
I0403 13:37:18.698974 11824 net.cpp:91] Creating Layer inception_5a/1x1
I0403 13:37:18.698992 11824 net.cpp:425] inception_5a/1x1 <- pool4/3x3_s2_pool4/3x3_s2_0_split_0
I0403 13:37:18.699009 11824 net.cpp:399] inception_5a/1x1 -> inception_5a/1x1
I0403 13:37:18.701884 11824 net.cpp:141] Setting up inception_5a/1x1
I0403 13:37:18.701913 11824 net.cpp:148] Top shape: 24 256 7 7 (301056)
I0403 13:37:18.701930 11824 net.cpp:156] Memory required for data: 1293329952
I0403 13:37:18.701948 11824 layer_factory.hpp:77] Creating layer inception_5a/relu_1x1
I0403 13:37:18.701967 11824 net.cpp:91] Creating Layer inception_5a/relu_1x1
I0403 13:37:18.701983 11824 net.cpp:425] inception_5a/relu_1x1 <- inception_5a/1x1
I0403 13:37:18.702003 11824 net.cpp:386] inception_5a/relu_1x1 -> inception_5a/1x1 (in-place)
I0403 13:37:18.702316 11824 net.cpp:141] Setting up inception_5a/relu_1x1
I0403 13:37:18.702342 11824 net.cpp:148] Top shape: 24 256 7 7 (301056)
I0403 13:37:18.702356 11824 net.cpp:156] Memory required for data: 1294534176
I0403 13:37:18.702371 11824 layer_factory.hpp:77] Creating layer inception_5a/3x3_reduce
I0403 13:37:18.702394 11824 net.cpp:91] Creating Layer inception_5a/3x3_reduce
I0403 13:37:18.702410 11824 net.cpp:425] inception_5a/3x3_reduce <- pool4/3x3_s2_pool4/3x3_s2_0_split_1
I0403 13:37:18.702432 11824 net.cpp:399] inception_5a/3x3_reduce -> inception_5a/3x3_reduce
I0403 13:37:18.704910 11824 net.cpp:141] Setting up inception_5a/3x3_reduce
I0403 13:37:18.704941 11824 net.cpp:148] Top shape: 24 160 7 7 (188160)
I0403 13:37:18.704957 11824 net.cpp:156] Memory required for data: 1295286816
I0403 13:37:18.704977 11824 layer_factory.hpp:77] Creating layer inception_5a/relu_3x3_reduce
I0403 13:37:18.704993 11824 net.cpp:91] Creating Layer inception_5a/relu_3x3_reduce
I0403 13:37:18.705009 11824 net.cpp:425] inception_5a/relu_3x3_reduce <- inception_5a/3x3_reduce
I0403 13:37:18.705026 11824 net.cpp:386] inception_5a/relu_3x3_reduce -> inception_5a/3x3_reduce (in-place)
I0403 13:37:18.705214 11824 net.cpp:141] Setting up inception_5a/relu_3x3_reduce
I0403 13:37:18.705240 11824 net.cpp:148] Top shape: 24 160 7 7 (188160)
I0403 13:37:18.705256 11824 net.cpp:156] Memory required for data: 1296039456
I0403 13:37:18.705271 11824 layer_factory.hpp:77] Creating layer inception_5a/3x3
I0403 13:37:18.705293 11824 net.cpp:91] Creating Layer inception_5a/3x3
I0403 13:37:18.705310 11824 net.cpp:425] inception_5a/3x3 <- inception_5a/3x3_reduce
I0403 13:37:18.705329 11824 net.cpp:399] inception_5a/3x3 -> inception_5a/3x3
I0403 13:37:18.710388 11824 net.cpp:141] Setting up inception_5a/3x3
I0403 13:37:18.710418 11824 net.cpp:148] Top shape: 24 320 7 7 (376320)
I0403 13:37:18.710434 11824 net.cpp:156] Memory required for data: 1297544736
I0403 13:37:18.710453 11824 layer_factory.hpp:77] Creating layer inception_5a/relu_3x3
I0403 13:37:18.710470 11824 net.cpp:91] Creating Layer inception_5a/relu_3x3
I0403 13:37:18.710487 11824 net.cpp:425] inception_5a/relu_3x3 <- inception_5a/3x3
I0403 13:37:18.710506 11824 net.cpp:386] inception_5a/relu_3x3 -> inception_5a/3x3 (in-place)
I0403 13:37:18.710806 11824 net.cpp:141] Setting up inception_5a/relu_3x3
I0403 13:37:18.710834 11824 net.cpp:148] Top shape: 24 320 7 7 (376320)
I0403 13:37:18.710849 11824 net.cpp:156] Memory required for data: 1299050016
I0403 13:37:18.710863 11824 layer_factory.hpp:77] Creating layer inception_5a/5x5_reduce
I0403 13:37:18.710885 11824 net.cpp:91] Creating Layer inception_5a/5x5_reduce
I0403 13:37:18.710902 11824 net.cpp:425] inception_5a/5x5_reduce <- pool4/3x3_s2_pool4/3x3_s2_0_split_2
I0403 13:37:18.710927 11824 net.cpp:399] inception_5a/5x5_reduce -> inception_5a/5x5_reduce
I0403 13:37:18.712107 11824 net.cpp:141] Setting up inception_5a/5x5_reduce
I0403 13:37:18.712138 11824 net.cpp:148] Top shape: 24 32 7 7 (37632)
I0403 13:37:18.712155 11824 net.cpp:156] Memory required for data: 1299200544
I0403 13:37:18.712173 11824 layer_factory.hpp:77] Creating layer inception_5a/relu_5x5_reduce
I0403 13:37:18.712193 11824 net.cpp:91] Creating Layer inception_5a/relu_5x5_reduce
I0403 13:37:18.712211 11824 net.cpp:425] inception_5a/relu_5x5_reduce <- inception_5a/5x5_reduce
I0403 13:37:18.712229 11824 net.cpp:386] inception_5a/relu_5x5_reduce -> inception_5a/5x5_reduce (in-place)
I0403 13:37:18.712528 11824 net.cpp:141] Setting up inception_5a/relu_5x5_reduce
I0403 13:37:18.712558 11824 net.cpp:148] Top shape: 24 32 7 7 (37632)
I0403 13:37:18.712575 11824 net.cpp:156] Memory required for data: 1299351072
I0403 13:37:18.712589 11824 layer_factory.hpp:77] Creating layer inception_5a/5x5
I0403 13:37:18.712612 11824 net.cpp:91] Creating Layer inception_5a/5x5
I0403 13:37:18.712630 11824 net.cpp:425] inception_5a/5x5 <- inception_5a/5x5_reduce
I0403 13:37:18.712651 11824 net.cpp:399] inception_5a/5x5 -> inception_5a/5x5
I0403 13:37:18.714382 11824 net.cpp:141] Setting up inception_5a/5x5
I0403 13:37:18.714422 11824 net.cpp:148] Top shape: 24 128 7 7 (150528)
I0403 13:37:18.714439 11824 net.cpp:156] Memory required for data: 1299953184
I0403 13:37:18.714457 11824 layer_factory.hpp:77] Creating layer inception_5a/relu_5x5
I0403 13:37:18.714475 11824 net.cpp:91] Creating Layer inception_5a/relu_5x5
I0403 13:37:18.714491 11824 net.cpp:425] inception_5a/relu_5x5 <- inception_5a/5x5
I0403 13:37:18.714511 11824 net.cpp:386] inception_5a/relu_5x5 -> inception_5a/5x5 (in-place)
I0403 13:37:18.714714 11824 net.cpp:141] Setting up inception_5a/relu_5x5
I0403 13:37:18.714738 11824 net.cpp:148] Top shape: 24 128 7 7 (150528)
I0403 13:37:18.714753 11824 net.cpp:156] Memory required for data: 1300555296
I0403 13:37:18.714767 11824 layer_factory.hpp:77] Creating layer inception_5a/pool
I0403 13:37:18.714792 11824 net.cpp:91] Creating Layer inception_5a/pool
I0403 13:37:18.714808 11824 net.cpp:425] inception_5a/pool <- pool4/3x3_s2_pool4/3x3_s2_0_split_3
I0403 13:37:18.714826 11824 net.cpp:399] inception_5a/pool -> inception_5a/pool
I0403 13:37:18.714897 11824 net.cpp:141] Setting up inception_5a/pool
I0403 13:37:18.714920 11824 net.cpp:148] Top shape: 24 832 7 7 (978432)
I0403 13:37:18.714934 11824 net.cpp:156] Memory required for data: 1304469024
I0403 13:37:18.714948 11824 layer_factory.hpp:77] Creating layer inception_5a/pool_proj
I0403 13:37:18.714970 11824 net.cpp:91] Creating Layer inception_5a/pool_proj
I0403 13:37:18.714987 11824 net.cpp:425] inception_5a/pool_proj <- inception_5a/pool
I0403 13:37:18.715008 11824 net.cpp:399] inception_5a/pool_proj -> inception_5a/pool_proj
I0403 13:37:18.717296 11824 net.cpp:141] Setting up inception_5a/pool_proj
I0403 13:37:18.717327 11824 net.cpp:148] Top shape: 24 128 7 7 (150528)
I0403 13:37:18.717344 11824 net.cpp:156] Memory required for data: 1305071136
I0403 13:37:18.717361 11824 layer_factory.hpp:77] Creating layer inception_5a/relu_pool_proj
I0403 13:37:18.717380 11824 net.cpp:91] Creating Layer inception_5a/relu_pool_proj
I0403 13:37:18.717396 11824 net.cpp:425] inception_5a/relu_pool_proj <- inception_5a/pool_proj
I0403 13:37:18.717414 11824 net.cpp:386] inception_5a/relu_pool_proj -> inception_5a/pool_proj (in-place)
I0403 13:37:18.717720 11824 net.cpp:141] Setting up inception_5a/relu_pool_proj
I0403 13:37:18.717749 11824 net.cpp:148] Top shape: 24 128 7 7 (150528)
I0403 13:37:18.717766 11824 net.cpp:156] Memory required for data: 1305673248
I0403 13:37:18.717780 11824 layer_factory.hpp:77] Creating layer inception_5a/output
I0403 13:37:18.717797 11824 net.cpp:91] Creating Layer inception_5a/output
I0403 13:37:18.717813 11824 net.cpp:425] inception_5a/output <- inception_5a/1x1
I0403 13:37:18.717829 11824 net.cpp:425] inception_5a/output <- inception_5a/3x3
I0403 13:37:18.717845 11824 net.cpp:425] inception_5a/output <- inception_5a/5x5
I0403 13:37:18.717860 11824 net.cpp:425] inception_5a/output <- inception_5a/pool_proj
I0403 13:37:18.717880 11824 net.cpp:399] inception_5a/output -> inception_5a/output
I0403 13:37:18.717931 11824 net.cpp:141] Setting up inception_5a/output
I0403 13:37:18.717953 11824 net.cpp:148] Top shape: 24 832 7 7 (978432)
I0403 13:37:18.717978 11824 net.cpp:156] Memory required for data: 1309586976
I0403 13:37:18.717993 11824 layer_factory.hpp:77] Creating layer inception_5a/output_inception_5a/output_0_split
I0403 13:37:18.718014 11824 net.cpp:91] Creating Layer inception_5a/output_inception_5a/output_0_split
I0403 13:37:18.718034 11824 net.cpp:425] inception_5a/output_inception_5a/output_0_split <- inception_5a/output
I0403 13:37:18.718051 11824 net.cpp:399] inception_5a/output_inception_5a/output_0_split -> inception_5a/output_inception_5a/output_0_split_0
I0403 13:37:18.718072 11824 net.cpp:399] inception_5a/output_inception_5a/output_0_split -> inception_5a/output_inception_5a/output_0_split_1
I0403 13:37:18.718092 11824 net.cpp:399] inception_5a/output_inception_5a/output_0_split -> inception_5a/output_inception_5a/output_0_split_2
I0403 13:37:18.718116 11824 net.cpp:399] inception_5a/output_inception_5a/output_0_split -> inception_5a/output_inception_5a/output_0_split_3
I0403 13:37:18.718233 11824 net.cpp:141] Setting up inception_5a/output_inception_5a/output_0_split
I0403 13:37:18.718257 11824 net.cpp:148] Top shape: 24 832 7 7 (978432)
I0403 13:37:18.718273 11824 net.cpp:148] Top shape: 24 832 7 7 (978432)
I0403 13:37:18.718302 11824 net.cpp:148] Top shape: 24 832 7 7 (978432)
I0403 13:37:18.718317 11824 net.cpp:148] Top shape: 24 832 7 7 (978432)
I0403 13:37:18.718329 11824 net.cpp:156] Memory required for data: 1325241888
I0403 13:37:18.718344 11824 layer_factory.hpp:77] Creating layer inception_5b/1x1
I0403 13:37:18.718365 11824 net.cpp:91] Creating Layer inception_5b/1x1
I0403 13:37:18.718382 11824 net.cpp:425] inception_5b/1x1 <- inception_5a/output_inception_5a/output_0_split_0
I0403 13:37:18.718403 11824 net.cpp:399] inception_5b/1x1 -> inception_5b/1x1
I0403 13:37:18.722249 11824 net.cpp:141] Setting up inception_5b/1x1
I0403 13:37:18.722281 11824 net.cpp:148] Top shape: 24 384 7 7 (451584)
I0403 13:37:18.722296 11824 net.cpp:156] Memory required for data: 1327048224
I0403 13:37:18.722316 11824 layer_factory.hpp:77] Creating layer inception_5b/relu_1x1
I0403 13:37:18.722333 11824 net.cpp:91] Creating Layer inception_5b/relu_1x1
I0403 13:37:18.722350 11824 net.cpp:425] inception_5b/relu_1x1 <- inception_5b/1x1
I0403 13:37:18.722368 11824 net.cpp:386] inception_5b/relu_1x1 -> inception_5b/1x1 (in-place)
I0403 13:37:18.722683 11824 net.cpp:141] Setting up inception_5b/relu_1x1
I0403 13:37:18.722719 11824 net.cpp:148] Top shape: 24 384 7 7 (451584)
I0403 13:37:18.722743 11824 net.cpp:156] Memory required for data: 1328854560
I0403 13:37:18.722771 11824 layer_factory.hpp:77] Creating layer inception_5b/3x3_reduce
I0403 13:37:18.722792 11824 net.cpp:91] Creating Layer inception_5b/3x3_reduce
I0403 13:37:18.722816 11824 net.cpp:425] inception_5b/3x3_reduce <- inception_5a/output_inception_5a/output_0_split_1
I0403 13:37:18.722838 11824 net.cpp:399] inception_5b/3x3_reduce -> inception_5b/3x3_reduce
I0403 13:37:18.725661 11824 net.cpp:141] Setting up inception_5b/3x3_reduce
I0403 13:37:18.725694 11824 net.cpp:148] Top shape: 24 192 7 7 (225792)
I0403 13:37:18.725711 11824 net.cpp:156] Memory required for data: 1329757728
I0403 13:37:18.725730 11824 layer_factory.hpp:77] Creating layer inception_5b/relu_3x3_reduce
I0403 13:37:18.725749 11824 net.cpp:91] Creating Layer inception_5b/relu_3x3_reduce
I0403 13:37:18.725766 11824 net.cpp:425] inception_5b/relu_3x3_reduce <- inception_5b/3x3_reduce
I0403 13:37:18.725786 11824 net.cpp:386] inception_5b/relu_3x3_reduce -> inception_5b/3x3_reduce (in-place)
I0403 13:37:18.725982 11824 net.cpp:141] Setting up inception_5b/relu_3x3_reduce
I0403 13:37:18.726007 11824 net.cpp:148] Top shape: 24 192 7 7 (225792)
I0403 13:37:18.726022 11824 net.cpp:156] Memory required for data: 1330660896
I0403 13:37:18.726037 11824 layer_factory.hpp:77] Creating layer inception_5b/3x3
I0403 13:37:18.726059 11824 net.cpp:91] Creating Layer inception_5b/3x3
I0403 13:37:18.726078 11824 net.cpp:425] inception_5b/3x3 <- inception_5b/3x3_reduce
I0403 13:37:18.726099 11824 net.cpp:399] inception_5b/3x3 -> inception_5b/3x3
I0403 13:37:18.733085 11824 net.cpp:141] Setting up inception_5b/3x3
I0403 13:37:18.733117 11824 net.cpp:148] Top shape: 24 384 7 7 (451584)
I0403 13:37:18.733135 11824 net.cpp:156] Memory required for data: 1332467232
I0403 13:37:18.733155 11824 layer_factory.hpp:77] Creating layer inception_5b/relu_3x3
I0403 13:37:18.733173 11824 net.cpp:91] Creating Layer inception_5b/relu_3x3
I0403 13:37:18.733191 11824 net.cpp:425] inception_5b/relu_3x3 <- inception_5b/3x3
I0403 13:37:18.733209 11824 net.cpp:386] inception_5b/relu_3x3 -> inception_5b/3x3 (in-place)
I0403 13:37:18.733516 11824 net.cpp:141] Setting up inception_5b/relu_3x3
I0403 13:37:18.733551 11824 net.cpp:148] Top shape: 24 384 7 7 (451584)
I0403 13:37:18.733568 11824 net.cpp:156] Memory required for data: 1334273568
I0403 13:37:18.733583 11824 layer_factory.hpp:77] Creating layer inception_5b/5x5_reduce
I0403 13:37:18.733626 11824 net.cpp:91] Creating Layer inception_5b/5x5_reduce
I0403 13:37:18.733645 11824 net.cpp:425] inception_5b/5x5_reduce <- inception_5a/output_inception_5a/output_0_split_2
I0403 13:37:18.733665 11824 net.cpp:399] inception_5b/5x5_reduce -> inception_5b/5x5_reduce
I0403 13:37:18.734994 11824 net.cpp:141] Setting up inception_5b/5x5_reduce
I0403 13:37:18.735026 11824 net.cpp:148] Top shape: 24 48 7 7 (56448)
I0403 13:37:18.735044 11824 net.cpp:156] Memory required for data: 1334499360
I0403 13:37:18.735061 11824 layer_factory.hpp:77] Creating layer inception_5b/relu_5x5_reduce
I0403 13:37:18.735080 11824 net.cpp:91] Creating Layer inception_5b/relu_5x5_reduce
I0403 13:37:18.735097 11824 net.cpp:425] inception_5b/relu_5x5_reduce <- inception_5b/5x5_reduce
I0403 13:37:18.735115 11824 net.cpp:386] inception_5b/relu_5x5_reduce -> inception_5b/5x5_reduce (in-place)
I0403 13:37:18.735502 11824 net.cpp:141] Setting up inception_5b/relu_5x5_reduce
I0403 13:37:18.735530 11824 net.cpp:148] Top shape: 24 48 7 7 (56448)
I0403 13:37:18.735551 11824 net.cpp:156] Memory required for data: 1334725152
I0403 13:37:18.735568 11824 layer_factory.hpp:77] Creating layer inception_5b/5x5
I0403 13:37:18.735587 11824 net.cpp:91] Creating Layer inception_5b/5x5
I0403 13:37:18.735605 11824 net.cpp:425] inception_5b/5x5 <- inception_5b/5x5_reduce
I0403 13:37:18.735625 11824 net.cpp:399] inception_5b/5x5 -> inception_5b/5x5
I0403 13:37:18.737795 11824 net.cpp:141] Setting up inception_5b/5x5
I0403 13:37:18.737823 11824 net.cpp:148] Top shape: 24 128 7 7 (150528)
I0403 13:37:18.737839 11824 net.cpp:156] Memory required for data: 1335327264
I0403 13:37:18.737859 11824 layer_factory.hpp:77] Creating layer inception_5b/relu_5x5
I0403 13:37:18.737877 11824 net.cpp:91] Creating Layer inception_5b/relu_5x5
I0403 13:37:18.737895 11824 net.cpp:425] inception_5b/relu_5x5 <- inception_5b/5x5
I0403 13:37:18.737913 11824 net.cpp:386] inception_5b/relu_5x5 -> inception_5b/5x5 (in-place)
I0403 13:37:18.738116 11824 net.cpp:141] Setting up inception_5b/relu_5x5
I0403 13:37:18.738142 11824 net.cpp:148] Top shape: 24 128 7 7 (150528)
I0403 13:37:18.738157 11824 net.cpp:156] Memory required for data: 1335929376
I0403 13:37:18.738171 11824 layer_factory.hpp:77] Creating layer inception_5b/pool
I0403 13:37:18.738193 11824 net.cpp:91] Creating Layer inception_5b/pool
I0403 13:37:18.738210 11824 net.cpp:425] inception_5b/pool <- inception_5a/output_inception_5a/output_0_split_3
I0403 13:37:18.738229 11824 net.cpp:399] inception_5b/pool -> inception_5b/pool
I0403 13:37:18.738306 11824 net.cpp:141] Setting up inception_5b/pool
I0403 13:37:18.738332 11824 net.cpp:148] Top shape: 24 832 7 7 (978432)
I0403 13:37:18.738346 11824 net.cpp:156] Memory required for data: 1339843104
I0403 13:37:18.738361 11824 layer_factory.hpp:77] Creating layer inception_5b/pool_proj
I0403 13:37:18.738384 11824 net.cpp:91] Creating Layer inception_5b/pool_proj
I0403 13:37:18.738402 11824 net.cpp:425] inception_5b/pool_proj <- inception_5b/pool
I0403 13:37:18.738423 11824 net.cpp:399] inception_5b/pool_proj -> inception_5b/pool_proj
I0403 13:37:18.740836 11824 net.cpp:141] Setting up inception_5b/pool_proj
I0403 13:37:18.740869 11824 net.cpp:148] Top shape: 24 128 7 7 (150528)
I0403 13:37:18.740886 11824 net.cpp:156] Memory required for data: 1340445216
I0403 13:37:18.740906 11824 layer_factory.hpp:77] Creating layer inception_5b/relu_pool_proj
I0403 13:37:18.740923 11824 net.cpp:91] Creating Layer inception_5b/relu_pool_proj
I0403 13:37:18.740942 11824 net.cpp:425] inception_5b/relu_pool_proj <- inception_5b/pool_proj
I0403 13:37:18.740962 11824 net.cpp:386] inception_5b/relu_pool_proj -> inception_5b/pool_proj (in-place)
I0403 13:37:18.741272 11824 net.cpp:141] Setting up inception_5b/relu_pool_proj
I0403 13:37:18.741302 11824 net.cpp:148] Top shape: 24 128 7 7 (150528)
I0403 13:37:18.741317 11824 net.cpp:156] Memory required for data: 1341047328
I0403 13:37:18.741333 11824 layer_factory.hpp:77] Creating layer inception_5b/output
I0403 13:37:18.741350 11824 net.cpp:91] Creating Layer inception_5b/output
I0403 13:37:18.741382 11824 net.cpp:425] inception_5b/output <- inception_5b/1x1
I0403 13:37:18.741400 11824 net.cpp:425] inception_5b/output <- inception_5b/3x3
I0403 13:37:18.741417 11824 net.cpp:425] inception_5b/output <- inception_5b/5x5
I0403 13:37:18.741435 11824 net.cpp:425] inception_5b/output <- inception_5b/pool_proj
I0403 13:37:18.741451 11824 net.cpp:399] inception_5b/output -> inception_5b/output
I0403 13:37:18.741508 11824 net.cpp:141] Setting up inception_5b/output
I0403 13:37:18.741533 11824 net.cpp:148] Top shape: 24 1024 7 7 (1204224)
I0403 13:37:18.741554 11824 net.cpp:156] Memory required for data: 1345864224
I0403 13:37:18.741569 11824 layer_factory.hpp:77] Creating layer pool5/7x7_s1
I0403 13:37:18.741590 11824 net.cpp:91] Creating Layer pool5/7x7_s1
I0403 13:37:18.741607 11824 net.cpp:425] pool5/7x7_s1 <- inception_5b/output
I0403 13:37:18.741627 11824 net.cpp:399] pool5/7x7_s1 -> pool5/7x7_s1
I0403 13:37:18.741853 11824 net.cpp:141] Setting up pool5/7x7_s1
I0403 13:37:18.741879 11824 net.cpp:148] Top shape: 24 1024 1 1 (24576)
I0403 13:37:18.741894 11824 net.cpp:156] Memory required for data: 1345962528
I0403 13:37:18.741909 11824 layer_factory.hpp:77] Creating layer pool5/drop_7x7_s1
I0403 13:37:18.741927 11824 net.cpp:91] Creating Layer pool5/drop_7x7_s1
I0403 13:37:18.741943 11824 net.cpp:425] pool5/drop_7x7_s1 <- pool5/7x7_s1
I0403 13:37:18.741963 11824 net.cpp:386] pool5/drop_7x7_s1 -> pool5/7x7_s1 (in-place)
I0403 13:37:18.742015 11824 net.cpp:141] Setting up pool5/drop_7x7_s1
I0403 13:37:18.742041 11824 net.cpp:148] Top shape: 24 1024 1 1 (24576)
I0403 13:37:18.742058 11824 net.cpp:156] Memory required for data: 1346060832
I0403 13:37:18.742071 11824 layer_factory.hpp:77] Creating layer loss3/classifier_plantvillage
I0403 13:37:18.742091 11824 net.cpp:91] Creating Layer loss3/classifier_plantvillage
I0403 13:37:18.742107 11824 net.cpp:425] loss3/classifier_plantvillage <- pool5/7x7_s1
I0403 13:37:18.742128 11824 net.cpp:399] loss3/classifier_plantvillage -> loss3/classifier_plantvillage
I0403 13:37:18.742583 11824 net.cpp:141] Setting up loss3/classifier_plantvillage
I0403 13:37:18.742609 11824 net.cpp:148] Top shape: 24 38 (912)
I0403 13:37:18.742624 11824 net.cpp:156] Memory required for data: 1346064480
I0403 13:37:18.742642 11824 layer_factory.hpp:77] Creating layer loss3/classifier_plantvillage_loss3/classifier_plantvillage_0_split
I0403 13:37:18.742665 11824 net.cpp:91] Creating Layer loss3/classifier_plantvillage_loss3/classifier_plantvillage_0_split
I0403 13:37:18.742681 11824 net.cpp:425] loss3/classifier_plantvillage_loss3/classifier_plantvillage_0_split <- loss3/classifier_plantvillage
I0403 13:37:18.742699 11824 net.cpp:399] loss3/classifier_plantvillage_loss3/classifier_plantvillage_0_split -> loss3/classifier_plantvillage_loss3/classifier_plantvillage_0_split_0
I0403 13:37:18.742719 11824 net.cpp:399] loss3/classifier_plantvillage_loss3/classifier_plantvillage_0_split -> loss3/classifier_plantvillage_loss3/classifier_plantvillage_0_split_1
I0403 13:37:18.742739 11824 net.cpp:399] loss3/classifier_plantvillage_loss3/classifier_plantvillage_0_split -> loss3/classifier_plantvillage_loss3/classifier_plantvillage_0_split_2
I0403 13:37:18.742763 11824 net.cpp:399] loss3/classifier_plantvillage_loss3/classifier_plantvillage_0_split -> loss3/classifier_plantvillage_loss3/classifier_plantvillage_0_split_3
I0403 13:37:18.742871 11824 net.cpp:141] Setting up loss3/classifier_plantvillage_loss3/classifier_plantvillage_0_split
I0403 13:37:18.742894 11824 net.cpp:148] Top shape: 24 38 (912)
I0403 13:37:18.742910 11824 net.cpp:148] Top shape: 24 38 (912)
I0403 13:37:18.742925 11824 net.cpp:148] Top shape: 24 38 (912)
I0403 13:37:18.742941 11824 net.cpp:148] Top shape: 24 38 (912)
I0403 13:37:18.742955 11824 net.cpp:156] Memory required for data: 1346079072
I0403 13:37:18.742969 11824 layer_factory.hpp:77] Creating layer loss1/loss
I0403 13:37:18.742990 11824 net.cpp:91] Creating Layer loss1/loss
I0403 13:37:18.743008 11824 net.cpp:425] loss1/loss <- loss1/classifier_plantvillage_loss1/classifier_plantvillage_0_split_0
I0403 13:37:18.743041 11824 net.cpp:425] loss1/loss <- label_data_1_split_0
…
