…
I0403 14:32:35.290004 13379 net.cpp:313] The NetState phase (1) differed from the phase (0) specified by a rule in layer data
I0403 14:32:35.291115 13379 net.cpp:49] Initializing net from parameters: 
state {
  phase: TEST
}
layer {
  name: "data"
  type: "Data"
  top: "data"
  top: "label"
  include {
    phase: TEST
  }
  transform_param {
    mirror: false
    crop_size: 224
    mean_file: "/home/mohanty/data/final_dataset/lmdb/segmented-20-80/mean.binaryproto"
  }
  data_param {
    source: "/home/mohanty/data/final_dataset/lmdb/segmented-20-80/test_db"
    batch_size: 24
    backend: LMDB
  }
}
layer {
  name: "conv1/7x7_s2"
  type: "Convolution"
  bottom: "data"
  top: "conv1/7x7_s2"
  param {
    lr_mult: 1
    decay_mult: 1
  }
  param {
    lr_mult: 2
    decay_mult: 0
  }
  convolution_param {
    num_output: 64
    pad: 3
    kernel_size: 7
    stride: 2
    weight_filler {
      type: "xavier"
      std: 0.1
    }
    bias_filler {
      type: "constant"
      value: 0.2
    }
  }
}
layer {
  name: "conv1/relu_7x7"
  type: "ReLU"
  bottom: "conv1/7x7_s2"
  top: "conv1/7x7_s2"
}
layer {
  name: "pool1/3x3_s2"
  type: "Pooling"
  bottom: "conv1/7x7_s2"
  top: "pool1/3x3_s2"
  pooling_param {
    pool: MAX
    kernel_size: 3
    stride: 2
  }
}
layer {
  name: "pool1/norm1"
  type: "LRN"
  bottom: "pool1/3x3_s2"
  top: "pool1/norm1"
  lrn_param {
    local_size: 5
    alpha: 0.0001
    beta: 0.75
  }
}
layer {
  name: "conv2/3x3_reduce"
  type: "Convolution"
  bottom: "pool1/norm1"
  top: "conv2/3x3_reduce"
  param {
    lr_mult: 1
    decay_mult: 1
  }
  param {
    lr_mult: 2
    decay_mult: 0
  }
  convolution_param {
    num_output: 64
    kernel_size: 1
    weight_filler {
      type: "xavier"
      std: 0.1
    }
    bias_filler {
      type: "constant"
      value: 0.2
    }
  }
}
layer {
  name: "conv2/relu_3x3_reduce"
  type: "ReLU"
  bottom: "conv2/3x3_reduce"
  top: "conv2/3x3_reduce"
}
layer {
  name: "conv2/3x3"
  type: "Convolution"
  bottom: "conv2/3x3_reduce"
  top: "conv2/3x3"
  param {
    lr_mult: 1
    decay_mult: 1
  }
  param {
    lr_mult: 2
    decay_mult: 0
  }
  convolution_param {
    num_output: 192
    pad: 1
    kernel_size: 3
    weight_filler {
      type: "xavier"
      std: 0.03
    }
    bias_filler {
      type: "constant"
      value: 0.2
    }
  }
}
layer {
  name: "conv2/relu_3x3"
  type: "ReLU"
  bottom: "conv2/3x3"
  top: "conv2/3x3"
}
layer {
  name: "conv2/norm2"
  type: "LRN"
  bottom: "conv2/3x3"
  top: "conv2/norm2"
  lrn_param {
    local_size: 5
    alpha: 0.0001
    beta: 0.75
  }
}
layer {
  name: "pool2/3x3_s2"
  type: "Pooling"
  bottom: "conv2/norm2"
  top: "pool2/3x3_s2"
  pooling_param {
    pool: MAX
    kernel_size: 3
    stride: 2
  }
}
layer {
  name: "inception_3a/1x1"
  type: "Convolution"
  bottom: "pool2/3x3_s2"
  top: "inception_3a/1x1"
  param {
    lr_mult: 1
    decay_mult: 1
  }
  param {
    lr_mult: 2
    decay_mult: 0
  }
  convolution_param {
    num_output: 64
    kernel_size: 1
    weight_filler {
      type: "xavier"
      std: 0.03
    }
    bias_filler {
      type: "constant"
      value: 0.2
    }
  }
}
layer {
  name: "inception_3a/relu_1x1"
  type: "ReLU"
  bottom: "inception_3a/1x1"
  top: "inception_3a/1x1"
}
layer {
  name: "inception_3a/3x3_reduce"
  type: "Convolution"
  bottom: "pool2/3x3_s2"
  top: "inception_3a/3x3_reduce"
  param {
    lr_mult: 1
    decay_mult: 1
  }
  param {
    lr_mult: 2
    decay_mult: 0
  }
  convolution_param {
    num_output: 96
    kernel_size: 1
    weight_filler {
      type: "xavier"
      std: 0.09
    }
    bias_filler {
      type: "constant"
      value: 0.2
    }
  }
}
layer {
  name: "inception_3a/relu_3x3_reduce"
  type: "ReLU"
  bottom: "inception_3a/3x3_reduce"
  top: "inception_3a/3x3_reduce"
}
layer {
  name: "inception_3a/3x3"
  type: "Convolution"
  bottom: "inception_3a/3x3_reduce"
  top: "inception_3a/3x3"
  param {
    lr_mult: 1
    decay_mult: 1
  }
  param {
    lr_mult: 2
    decay_mult: 0
  }
  convolution_param {
    num_output: 128
    pad: 1
    kernel_size: 3
    weight_filler {
      type: "xavier"
      std: 0.03
    }
    bias_filler {
      type: "constant"
      value: 0.2
    }
  }
}
layer {
  name: "inception_3a/relu_3x3"
  type: "ReLU"
  bottom: "inception_3a/3x3"
  top: "inception_3a/3x3"
}
layer {
  name: "inception_3a/5x5_reduce"
  type: "Convolution"
  bottom: "pool2/3x3_s2"
  top: "inception_3a/5x5_reduce"
  param {
    lr_mult: 1
    decay_mult: 1
  }
  param {
    lr_mult: 2
    decay_mult: 0
  }
  convolution_param {
    num_output: 16
    kernel_size: 1
    weight_filler {
      type: "xavier"
      std: 0.2
    }
    bias_filler {
      type: "constant"
      value: 0.2
    }
  }
}
layer {
  name: "inception_3a/relu_5x5_reduce"
  type: "ReLU"
  bottom: "inception_3a/5x5_reduce"
  top: "inception_3a/5x5_reduce"
}
layer {
  name: "inception_3a/5x5"
  type: "Convolution"
  bottom: "inception_3a/5x5_reduce"
  top: "inception_3a/5x5"
  param {
    lr_mult: 1
    decay_mult: 1
  }
  param {
    lr_mult: 2
    decay_mult: 0
  }
  convolution_param {
    num_output: 32
    pad: 2
    kernel_size: 5
    weight_filler {
      type: "xavier"
      std: 0.03
    }
    bias_filler {
      type: "constant"
      value: 0.2
    }
  }
}
layer {
  name: "inception_3a/relu_5x5"
  type: "ReLU"
  bottom: "inception_3a/5x5"
  top: "inception_3a/5x5"
}
layer {
  name: "inception_3a/pool"
  type: "Pooling"
  bottom: "pool2/3x3_s2"
  top: "inception_3a/pool"
  pooling_param {
    pool: MAX
    kernel_size: 3
    stride: 1
    pad: 1
  }
}
layer {
  name: "inception_3a/pool_proj"
  type: "Convolution"
  bottom: "inception_3a/pool"
  top: "inception_3a/pool_proj"
  param {
    lr_mult: 1
    decay_mult: 1
  }
  param {
    lr_mult: 2
    decay_mult: 0
  }
  convolution_param {
    num_output: 32
    kernel_size: 1
    weight_filler {
      type: "xavier"
      std: 0.1
    }
    bias_filler {
      type: "constant"
      value: 0.2
    }
  }
}
layer {
  name: "inception_3a/relu_pool_proj"
  type: "ReLU"
  bottom: "inception_3a/pool_proj"
  top: "inception_3a/pool_proj"
}
layer {
  name: "inception_3a/output"
  type: "Concat"
  bottom: "inception_3a/1x1"
  bottom: "inception_3a/3x3"
  bottom: "inception_3a/5x5"
  bottom: "inception_3a/pool_proj"
  top: "inception_3a/output"
}
layer {
  name: "inception_3b/1x1"
  type: "Convolution"
  bottom: "inception_3a/output"
  top: "inception_3b/1x1"
  param {
    lr_mult: 1
    decay_mult: 1
  }
  param {
    lr_mult: 2
    decay_mult: 0
  }
  convolution_param {
    num_output: 128
    kernel_size: 1
    weight_filler {
      type: "xavier"
      std: 0.03
    }
    bias_filler {
      type: "constant"
      value: 0.2
    }
  }
}
layer {
  name: "inception_3b/relu_1x1"
  type: "ReLU"
  bottom: "inception_3b/1x1"
  top: "inception_3b/1x1"
}
layer {
  name: "inception_3b/3x3_reduce"
  type: "Convolution"
  bottom: "inception_3a/output"
  top: "inception_3b/3x3_reduce"
  param {
    lr_mult: 1
    decay_mult: 1
  }
  param {
    lr_mult: 2
    decay_mult: 0
  }
  convolution_param {
    num_output: 128
    kernel_size: 1
    weight_filler {
      type: "xavier"
      std: 0.09
    }
    bias_filler {
      type: "constant"
      value: 0.2
    }
  }
}
layer {
  name: "inception_3b/relu_3x3_reduce"
  type: "ReLU"
  bottom: "inception_3b/3x3_reduce"
  top: "inception_3b/3x3_reduce"
}
layer {
  name: "inception_3b/3x3"
  type: "Convolution"
  bottom: "inception_3b/3x3_reduce"
  top: "inception_3b/3x3"
  param {
    lr_mult: 1
    decay_mult: 1
  }
  param {
    lr_mult: 2
    decay_mult: 0
  }
  convolution_param {
    num_output: 192
    pad: 1
    kernel_size: 3
    weight_filler {
      type: "xavier"
      std: 0.03
    }
    bias_filler {
      type: "constant"
      value: 0.2
    }
  }
}
layer {
  name: "inception_3b/relu_3x3"
  type: "ReLU"
  bottom: "inception_3b/3x3"
  top: "inception_3b/3x3"
}
layer {
  name: "inception_3b/5x5_reduce"
  type: "Convolution"
  bottom: "inception_3a/output"
  top: "inception_3b/5x5_reduce"
  param {
    lr_mult: 1
    decay_mult: 1
  }
  param {
    lr_mult: 2
    decay_mult: 0
  }
  convolution_param {
    num_output: 32
    kernel_size: 1
    weight_filler {
      type: "xavier"
      std: 0.2
    }
    bias_filler {
      type: "constant"
      value: 0.2
    }
  }
}
layer {
  name: "inception_3b/relu_5x5_reduce"
  type: "ReLU"
  bottom: "inception_3b/5x5_reduce"
  top: "inception_3b/5x5_reduce"
}
layer {
  name: "inception_3b/5x5"
  type: "Convolution"
  bottom: "inception_3b/5x5_reduce"
  top: "inception_3b/5x5"
  param {
    lr_mult: 1
    decay_mult: 1
  }
  param {
    lr_mult: 2
    decay_mult: 0
  }
  convolution_param {
    num_output: 96
    pad: 2
    kernel_size: 5
    weight_filler {
      type: "xavier"
      std: 0.03
    }
    bias_filler {
      type: "constant"
      value: 0.2
    }
  }
}
layer {
  name: "inception_3b/relu_5x5"
  type: "ReLU"
  bottom: "inception_3b/5x5"
  top: "inception_3b/5x5"
}
layer {
  name: "inception_3b/pool"
  type: "Pooling"
  bottom: "inception_3a/output"
  top: "inception_3b/pool"
  pooling_param {
    pool: MAX
    kernel_size: 3
    stride: 1
    pad: 1
  }
}
layer {
  name: "inception_3b/pool_proj"
  type: "Convolution"
  bottom: "inception_3b/pool"
  top: "inception_3b/pool_proj"
  param {
    lr_mult: 1
    decay_mult: 1
  }
  param {
    lr_mult: 2
    decay_mult: 0
  }
  convolution_param {
    num_output: 64
    kernel_size: 1
    weight_filler {
      type: "xavier"
      std: 0.1
    }
    bias_filler {
      type: "constant"
      value: 0.2
    }
  }
}
layer {
  name: "inception_3b/relu_pool_proj"
  type: "ReLU"
  bottom: "inception_3b/pool_proj"
  top: "inception_3b/pool_proj"
}
layer {
  name: "inception_3b/output"
  type: "Concat"
  bottom: "inception_3b/1x1"
  bottom: "inception_3b/3x3"
  bottom: "inception_3b/5x5"
  bottom: "inception_3b/pool_proj"
  top: "inception_3b/output"
}
layer {
  name: "pool3/3x3_s2"
  type: "Pooling"
  bottom: "inception_3b/output"
  top: "pool3/3x3_s2"
  pooling_param {
    pool: MAX
    kernel_size: 3
    stride: 2
  }
}
layer {
  name: "inception_4a/1x1"
  type: "Convolution"
  bottom: "pool3/3x3_s2"
  top: "inception_4a/1x1"
  param {
    lr_mult: 1
    decay_mult: 1
  }
  param {
    lr_mult: 2
    decay_mult: 0
  }
  convolution_param {
    num_output: 192
    kernel_size: 1
    weight_filler {
      type: "xavier"
      std: 0.03
    }
    bias_filler {
      type: "constant"
      value: 0.2
    }
  }
}
layer {
  name: "inception_4a/relu_1x1"
  type: "ReLU"
  bottom: "inception_4a/1x1"
  top: "inception_4a/1x1"
}
layer {
  name: "inception_4a/3x3_reduce"
  type: "Convolution"
  bottom: "pool3/3x3_s2"
  top: "inception_4a/3x3_reduce"
  param {
    lr_mult: 1
    decay_mult: 1
  }
  param {
    lr_mult: 2
    decay_mult: 0
  }
  convolution_param {
    num_output: 96
    kernel_size: 1
    weight_filler {
      type: "xavier"
      std: 0.09
    }
    bias_filler {
      type: "constant"
      value: 0.2
    }
  }
}
layer {
  name: "inception_4a/relu_3x3_reduce"
  type: "ReLU"
  bottom: "inception_4a/3x3_reduce"
  top: "inception_4a/3x3_reduce"
}
layer {
  name: "inception_4a/3x3"
  type: "Convolution"
  bottom: "inception_4a/3x3_reduce"
  top: "inception_4a/3x3"
  param {
    lr_mult: 1
    decay_mult: 1
  }
  param {
    lr_mult: 2
    decay_mult: 0
  }
  convolution_param {
    num_output: 208
    pad: 1
    kernel_size: 3
    weight_filler {
      type: "xavier"
      std: 0.03
    }
    bias_filler {
      type: "constant"
      value: 0.2
    }
  }
}
layer {
  name: "inception_4a/relu_3x3"
  type: "ReLU"
  bottom: "inception_4a/3x3"
  top: "inception_4a/3x3"
}
layer {
  name: "inception_4a/5x5_reduce"
  type: "Convolution"
  bottom: "pool3/3x3_s2"
  top: "inception_4a/5x5_reduce"
  param {
    lr_mult: 1
    decay_mult: 1
  }
  param {
    lr_mult: 2
    decay_mult: 0
  }
  convolution_param {
    num_output: 16
    kernel_size: 1
    weight_filler {
      type: "xavier"
      std: 0.2
    }
    bias_filler {
      type: "constant"
      value: 0.2
    }
  }
}
layer {
  name: "inception_4a/relu_5x5_reduce"
  type: "ReLU"
  bottom: "inception_4a/5x5_reduce"
  top: "inception_4a/5x5_reduce"
}
layer {
  name: "inception_4a/5x5"
  type: "Convolution"
  bottom: "inception_4a/5x5_reduce"
  top: "inception_4a/5x5"
  param {
    lr_mult: 1
    decay_mult: 1
  }
  param {
    lr_mult: 2
    decay_mult: 0
  }
  convolution_param {
    num_output: 48
    pad: 2
    kernel_size: 5
    weight_filler {
      type: "xavier"
      std: 0.03
    }
    bias_filler {
      type: "constant"
      value: 0.2
    }
  }
}
layer {
  name: "inception_4a/relu_5x5"
  type: "ReLU"
  bottom: "inception_4a/5x5"
  top: "inception_4a/5x5"
}
layer {
  name: "inception_4a/pool"
  type: "Pooling"
  bottom: "pool3/3x3_s2"
  top: "inception_4a/pool"
  pooling_param {
    pool: MAX
    kernel_size: 3
    stride: 1
    pad: 1
  }
}
layer {
  name: "inception_4a/pool_proj"
  type: "Convolution"
  bottom: "inception_4a/pool"
  top: "inception_4a/pool_proj"
  param {
    lr_mult: 1
    decay_mult: 1
  }
  param {
    lr_mult: 2
    decay_mult: 0
  }
  convolution_param {
    num_output: 64
    kernel_size: 1
    weight_filler {
      type: "xavier"
      std: 0.1
    }
    bias_filler {
      type: "constant"
      value: 0.2
    }
  }
}
layer {
  name: "inception_4a/relu_pool_proj"
  type: "ReLU"
  bottom: "inception_4a/pool_proj"
  top: "inception_4a/pool_proj"
}
layer {
  name: "inception_4a/output"
  type: "Concat"
  bottom: "inception_4a/1x1"
  bottom: "inception_4a/3x3"
  bottom: "inception_4a/5x5"
  bottom: "inception_4a/pool_proj"
  top: "inception_4a/output"
}
layer {
  name: "loss1/ave_pool"
  type: "Pooling"
  bottom: "inception_4a/output"
  top: "loss1/ave_pool"
  pooling_param {
    pool: AVE
    kernel_size: 5
    stride: 3
  }
}
layer {
  name: "loss1/conv"
  type: "Convolution"
  bottom: "loss1/ave_pool"
  top: "loss1/conv"
  param {
    lr_mult: 1
    decay_mult: 1
  }
  param {
    lr_mult: 2
    decay_mult: 0
  }
  convolution_param {
    num_output: 128
    kernel_size: 1
    weight_filler {
      type: "xavier"
      std: 0.08
    }
    bias_filler {
      type: "constant"
      value: 0.2
    }
  }
}
layer {
  name: "loss1/relu_conv"
  type: "ReLU"
  bottom: "loss1/conv"
  top: "loss1/conv"
}
layer {
  name: "loss1/fc"
  type: "InnerProduct"
  bottom: "loss1/conv"
  top: "loss1/fc"
  param {
    lr_mult: 1
    decay_mult: 1
  }
  param {
    lr_mult: 2
    decay_mult: 0
  }
  inner_product_param {
    num_output: 1024
    weight_filler {
      type: "xavier"
      std: 0.02
    }
    bias_filler {
      type: "constant"
      value: 0.2
    }
  }
}
layer {
  name: "loss1/relu_fc"
  type: "ReLU"
  bottom: "loss1/fc"
  top: "loss1/fc"
}
layer {
  name: "loss1/drop_fc"
  type: "Dropout"
  bottom: "loss1/fc"
  top: "loss1/fc"
  dropout_param {
    dropout_ratio: 0.7
  }
}
layer {
  name: "loss1/classifier_plantvillage"
  type: "InnerProduct"
  bottom: "loss1/fc"
  top: "loss1/classifier_plantvillage"
  param {
    lr_mult: 1
    decay_mult: 1
  }
  param {
    lr_mult: 2
    decay_mult: 0
  }
  inner_product_param {
    num_output: 38
    weight_filler {
      type: "xavier"
      std: 0.0009765625
    }
    bias_filler {
      type: "constant"
      value: 0
    }
  }
}
layer {
  name: "inception_4b/1x1"
  type: "Convolution"
  bottom: "inception_4a/output"
  top: "inception_4b/1x1"
  param {
    lr_mult: 1
    decay_mult: 1
  }
  param {
    lr_mult: 2
    decay_mult: 0
  }
  convolution_param {
    num_output: 160
    kernel_size: 1
    weight_filler {
      type: "xavier"
      std: 0.03
    }
    bias_filler {
      type: "constant"
      value: 0.2
    }
  }
}
layer {
  name: "inception_4b/relu_1x1"
  type: "ReLU"
  bottom: "inception_4b/1x1"
  top: "inception_4b/1x1"
}
layer {
  name: "inception_4b/3x3_reduce"
  type: "Convolution"
  bottom: "inception_4a/output"
  top: "inception_4b/3x3_reduce"
  param {
    lr_mult: 1
    decay_mult: 1
  }
  param {
    lr_mult: 2
    decay_mult: 0
  }
  convolution_param {
    num_output: 112
    kernel_size: 1
    weight_filler {
      type: "xavier"
      std: 0.09
    }
    bias_filler {
      type: "constant"
      value: 0.2
    }
  }
}
layer {
  name: "inception_4b/relu_3x3_reduce"
  type: "ReLU"
  bottom: "inception_4b/3x3_reduce"
  top: "inception_4b/3x3_reduce"
}
layer {
  name: "inception_4b/3x3"
  type: "Convolution"
  bottom: "inception_4b/3x3_reduce"
  top: "inception_4b/3x3"
  param {
    lr_mult: 1
    decay_mult: 1
  }
  param {
    lr_mult: 2
    decay_mult: 0
  }
  convolution_param {
    num_output: 224
    pad: 1
    kernel_size: 3
    weight_filler {
      type: "xavier"
      std: 0.03
    }
    bias_filler {
      type: "constant"
      value: 0.2
    }
  }
}
layer {
  name: "inception_4b/relu_3x3"
  type: "ReLU"
  bottom: "inception_4b/3x3"
  top: "inception_4b/3x3"
}
layer {
  name: "inception_4b/5x5_reduce"
  type: "Convolution"
  bottom: "inception_4a/output"
  top: "inception_4b/5x5_reduce"
  param {
    lr_mult: 1
    decay_mult: 1
  }
  param {
    lr_mult: 2
    decay_mult: 0
  }
  convolution_param {
    num_output: 24
    kernel_size: 1
    weight_filler {
      type: "xavier"
      std: 0.2
    }
    bias_filler {
      type: "constant"
      value: 0.2
    }
  }
}
layer {
  name: "inception_4b/relu_5x5_reduce"
  type: "ReLU"
  bottom: "inception_4b/5x5_reduce"
  top: "inception_4b/5x5_reduce"
}
layer {
  name: "inception_4b/5x5"
  type: "Convolution"
  bottom: "inception_4b/5x5_reduce"
  top: "inception_4b/5x5"
  param {
    lr_mult: 1
    decay_mult: 1
  }
  param {
    lr_mult: 2
    decay_mult: 0
  }
  convolution_param {
    num_output: 64
    pad: 2
    kernel_size: 5
    weight_filler {
      type: "xavier"
      std: 0.03
    }
    bias_filler {
      type: "constant"
      value: 0.2
    }
  }
}
layer {
  name: "inception_4b/relu_5x5"
  type: "ReLU"
  bottom: "inception_4b/5x5"
  top: "inception_4b/5x5"
}
layer {
  name: "inception_4b/pool"
  type: "Pooling"
  bottom: "inception_4a/output"
  top: "inception_4b/pool"
  pooling_param {
    pool: MAX
    kernel_size: 3
    stride: 1
    pad: 1
  }
}
layer {
  name: "inception_4b/pool_proj"
  type: "Convolution"
  bottom: "inception_4b/pool"
  top: "inception_4b/pool_proj"
  param {
    lr_mult: 1
    decay_mult: 1
  }
  param {
    lr_mult: 2
    decay_mult: 0
  }
  convolution_param {
    num_output: 64
    kernel_size: 1
    weight_filler {
      type: "xavier"
      std: 0.1
    }
    bias_filler {
      type: "constant"
      value: 0.2
    }
  }
}
layer {
  name: "inception_4b/relu_pool_proj"
  type: "ReLU"
  bottom: "inception_4b/pool_proj"
  top: "inception_4b/pool_proj"
}
layer {
  name: "inception_4b/output"
  type: "Concat"
  bottom: "inception_4b/1x1"
  bottom: "inception_4b/3x3"
  bottom: "inception_4b/5x5"
  bottom: "inception_4b/pool_proj"
  top: "inception_4b/output"
}
layer {
  name: "inception_4c/1x1"
  type: "Convolution"
  bottom: "inception_4b/output"
  top: "inception_4c/1x1"
  param {
    lr_mult: 1
    decay_mult: 1
  }
  param {
    lr_mult: 2
    decay_mult: 0
  }
  convolution_param {
    num_output: 128
    kernel_size: 1
    weight_filler {
      type: "xavier"
      std: 0.03
    }
    bias_filler {
      type: "constant"
      value: 0.2
    }
  }
}
layer {
  name: "inception_4c/relu_1x1"
  type: "ReLU"
  bottom: "inception_4c/1x1"
  top: "inception_4c/1x1"
}
layer {
  name: "inception_4c/3x3_reduce"
  type: "Convolution"
  bottom: "inception_4b/output"
  top: "inception_4c/3x3_reduce"
  param {
    lr_mult: 1
    decay_mult: 1
  }
  param {
    lr_mult: 2
    decay_mult: 0
  }
  convolution_param {
    num_output: 128
    kernel_size: 1
    weight_filler {
      type: "xavier"
      std: 0.09
    }
    bias_filler {
      type: "constant"
      value: 0.2
    }
  }
}
layer {
  name: "inception_4c/relu_3x3_reduce"
  type: "ReLU"
  bottom: "inception_4c/3x3_reduce"
  top: "inception_4c/3x3_reduce"
}
layer {
  name: "inception_4c/3x3"
  type: "Convolution"
  bottom: "inception_4c/3x3_reduce"
  top: "inception_4c/3x3"
  param {
    lr_mult: 1
    decay_mult: 1
  }
  param {
    lr_mult: 2
    decay_mult: 0
  }
  convolution_param {
    num_output: 256
    pad: 1
    kernel_size: 3
    weight_filler {
      type: "xavier"
      std: 0.03
    }
    bias_filler {
      type: "constant"
      value: 0.2
    }
  }
}
layer {
  name: "inception_4c/relu_3x3"
  type: "ReLU"
  bottom: "inception_4c/3x3"
  top: "inception_4c/3x3"
}
layer {
  name: "inception_4c/5x5_reduce"
  type: "Convolution"
  bottom: "inception_4b/output"
  top: "inception_4c/5x5_reduce"
  param {
    lr_mult: 1
    decay_mult: 1
  }
  param {
    lr_mult: 2
    decay_mult: 0
  }
  convolution_param {
    num_output: 24
    kernel_size: 1
    weight_filler {
      type: "xavier"
      std: 0.2
    }
    bias_filler {
      type: "constant"
      value: 0.2
    }
  }
}
layer {
  name: "inception_4c/relu_5x5_reduce"
  type: "ReLU"
  bottom: "inception_4c/5x5_reduce"
  top: "inception_4c/5x5_reduce"
}
layer {
  name: "inception_4c/5x5"
  type: "Convolution"
  bottom: "inception_4c/5x5_reduce"
  top: "inception_4c/5x5"
  param {
    lr_mult: 1
    decay_mult: 1
  }
  param {
    lr_mult: 2
    decay_mult: 0
  }
  convolution_param {
    num_output: 64
    pad: 2
    kernel_size: 5
    weight_filler {
      type: "xavier"
      std: 0.03
    }
    bias_filler {
      type: "constant"
      value: 0.2
    }
  }
}
layer {
  name: "inception_4c/relu_5x5"
  type: "ReLU"
  bottom: "inception_4c/5x5"
  top: "inception_4c/5x5"
}
layer {
  name: "inception_4c/pool"
  type: "Pooling"
  bottom: "inception_4b/output"
  top: "inception_4c/pool"
  pooling_param {
    pool: MAX
    kernel_size: 3
    stride: 1
    pad: 1
  }
}
layer {
  name: "inception_4c/pool_proj"
  type: "Convolution"
  bottom: "inception_4c/pool"
  top: "inception_4c/pool_proj"
  param {
    lr_mult: 1
    decay_mult: 1
  }
  param {
    lr_mult: 2
    decay_mult: 0
  }
  convolution_param {
    num_output: 64
    kernel_size: 1
    weight_filler {
      type: "xavier"
      std: 0.1
    }
    bias_filler {
      type: "constant"
      value: 0.2
    }
  }
}
layer {
  name: "inception_4c/relu_pool_proj"
  type: "ReLU"
  bottom: "inception_4c/pool_proj"
  top: "inception_4c/pool_proj"
}
layer {
  name: "inception_4c/output"
  type: "Concat"
  bottom: "inception_4c/1x1"
  bottom: "inception_4c/3x3"
  bottom: "inception_4c/5x5"
  bottom: "inception_4c/pool_proj"
  top: "inception_4c/output"
}
layer {
  name: "inception_4d/1x1"
  type: "Convolution"
  bottom: "inception_4c/output"
  top: "inception_4d/1x1"
  param {
    lr_mult: 1
    decay_mult: 1
  }
  param {
    lr_mult: 2
    decay_mult: 0
  }
  convolution_param {
    num_output: 112
    kernel_size: 1
    weight_filler {
      type: "xavier"
      std: 0.03
    }
    bias_filler {
      type: "constant"
      value: 0.2
    }
  }
}
layer {
  name: "inception_4d/relu_1x1"
  type: "ReLU"
  bottom: "inception_4d/1x1"
  top: "inception_4d/1x1"
}
layer {
  name: "inception_4d/3x3_reduce"
  type: "Convolution"
  bottom: "inception_4c/output"
  top: "inception_4d/3x3_reduce"
  param {
    lr_mult: 1
    decay_mult: 1
  }
  param {
    lr_mult: 2
    decay_mult: 0
  }
  convolution_param {
    num_output: 144
    kernel_size: 1
    weight_filler {
      type: "xavier"
      std: 0.09
    }
    bias_filler {
      type: "constant"
      value: 0.2
    }
  }
}
layer {
  name: "inception_4d/relu_3x3_reduce"
  type: "ReLU"
  bottom: "inception_4d/3x3_reduce"
  top: "inception_4d/3x3_reduce"
}
layer {
  name: "inception_4d/3x3"
  type: "Convolution"
  bottom: "inception_4d/3x3_reduce"
  top: "inception_4d/3x3"
  param {
    lr_mult: 1
    decay_mult: 1
  }
  param {
    lr_mult: 2
    decay_mult: 0
  }
  convolution_param {
    num_output: 288
    pad: 1
    kernel_size: 3
    weight_filler {
      type: "xavier"
      std: 0.03
    }
    bias_filler {
      type: "constant"
      value: 0.2
    }
  }
}
layer {
  name: "inception_4d/relu_3x3"
  type: "ReLU"
  bottom: "inception_4d/3x3"
  top: "inception_4d/3x3"
}
layer {
  name: "inception_4d/5x5_reduce"
  type: "Convolution"
  bottom: "inception_4c/output"
  top: "inception_4d/5x5_reduce"
  param {
    lr_mult: 1
    decay_mult: 1
  }
  param {
    lr_mult: 2
    decay_mult: 0
  }
  convolution_param {
    num_output: 32
    kernel_size: 1
    weight_filler {
      type: "xavier"
      std: 0.2
    }
    bias_filler {
      type: "constant"
      value: 0.2
    }
  }
}
layer {
  name: "inception_4d/relu_5x5_reduce"
  type: "ReLU"
  bottom: "inception_4d/5x5_reduce"
  top: "inception_4d/5x5_reduce"
}
layer {
  name: "inception_4d/5x5"
  type: "Convolution"
  bottom: "inception_4d/5x5_reduce"
  top: "inception_4d/5x5"
  param {
    lr_mult: 1
    decay_mult: 1
  }
  param {
    lr_mult: 2
    decay_mult: 0
  }
  convolution_param {
    num_output: 64
    pad: 2
    kernel_size: 5
    weight_filler {
      type: "xavier"
      std: 0.03
    }
    bias_filler {
      type: "constant"
      value: 0.2
    }
  }
}
layer {
  name: "inception_4d/relu_5x5"
  type: "ReLU"
  bottom: "inception_4d/5x5"
  top: "inception_4d/5x5"
}
layer {
  name: "inception_4d/pool"
  type: "Pooling"
  bottom: "inception_4c/output"
  top: "inception_4d/pool"
  pooling_param {
    pool: MAX
    kernel_size: 3
    stride: 1
    pad: 1
  }
}
layer {
  name: "inception_4d/pool_proj"
  type: "Convolution"
  bottom: "inception_4d/pool"
  top: "inception_4d/pool_proj"
  param {
    lr_mult: 1
    decay_mult: 1
  }
  param {
    lr_mult: 2
    decay_mult: 0
  }
  convolution_param {
    num_output: 64
    kernel_size: 1
    weight_filler {
      type: "xavier"
      std: 0.1
    }
    bias_filler {
      type: "constant"
      value: 0.2
    }
  }
}
layer {
  name: "inception_4d/relu_pool_proj"
  type: "ReLU"
  bottom: "inception_4d/pool_proj"
  top: "inception_4d/pool_proj"
}
layer {
  name: "inception_4d/output"
  type: "Concat"
  bottom: "inception_4d/1x1"
  bottom: "inception_4d/3x3"
  bottom: "inception_4d/5x5"
  bottom: "inception_4d/pool_proj"
  top: "inception_4d/output"
}
layer {
  name: "loss2/ave_pool"
  type: "Pooling"
  bottom: "inception_4d/output"
  top: "loss2/ave_pool"
  pooling_param {
    pool: AVE
    kernel_size: 5
    stride: 3
  }
}
layer {
  name: "loss2/conv"
  type: "Convolution"
  bottom: "loss2/ave_pool"
  top: "loss2/conv"
  param {
    lr_mult: 1
    decay_mult: 1
  }
  param {
    lr_mult: 2
    decay_mult: 0
  }
  convolution_param {
    num_output: 128
    kernel_size: 1
    weight_filler {
      type: "xavier"
      std: 0.08
    }
    bias_filler {
      type: "constant"
      value: 0.2
    }
  }
}
layer {
  name: "loss2/relu_conv"
  type: "ReLU"
  bottom: "loss2/conv"
  top: "loss2/conv"
}
layer {
  name: "loss2/fc"
  type: "InnerProduct"
  bottom: "loss2/conv"
  top: "loss2/fc"
  param {
    lr_mult: 1
    decay_mult: 1
  }
  param {
    lr_mult: 2
    decay_mult: 0
  }
  inner_product_param {
    num_output: 1024
    weight_filler {
      type: "xavier"
      std: 0.02
    }
    bias_filler {
      type: "constant"
      value: 0.2
    }
  }
}
layer {
  name: "loss2/relu_fc"
  type: "ReLU"
  bottom: "loss2/fc"
  top: "loss2/fc"
}
layer {
  name: "loss2/drop_fc"
  type: "Dropout"
  bottom: "loss2/fc"
  top: "loss2/fc"
  dropout_param {
    dropout_ratio: 0.7
  }
}
layer {
  name: "loss2/classifier_plantvillage"
  type: "InnerProduct"
  bottom: "loss2/fc"
  top: "loss2/classifier_plantvillage"
  param {
    lr_mult: 1
    decay_mult: 1
  }
  param {
    lr_mult: 2
    decay_mult: 0
  }
  inner_product_param {
    num_output: 38
    weight_filler {
      type: "xavier"
      std: 0.0009765625
    }
    bias_filler {
      type: "constant"
      value: 0
    }
  }
}
layer {
  name: "inception_4e/1x1"
  type: "Convolution"
  bottom: "inception_4d/output"
  top: "inception_4e/1x1"
  param {
    lr_mult: 1
    decay_mult: 1
  }
  param {
    lr_mult: 2
    decay_mult: 0
  }
  convolution_param {
    num_output: 256
    kernel_size: 1
    weight_filler {
      type: "xavier"
      std: 0.03
    }
    bias_filler {
      type: "constant"
      value: 0.2
    }
  }
}
layer {
  name: "inception_4e/relu_1x1"
  type: "ReLU"
  bottom: "inception_4e/1x1"
  top: "inception_4e/1x1"
}
layer {
  name: "inception_4e/3x3_reduce"
  type: "Convolution"
  bottom: "inception_4d/output"
  top: "inception_4e/3x3_reduce"
  param {
    lr_mult: 1
    decay_mult: 1
  }
  param {
    lr_mult: 2
    decay_mult: 0
  }
  convolution_param {
    num_output: 160
    kernel_size: 1
    weight_filler {
      type: "xavier"
      std: 0.09
    }
    bias_filler {
      type: "constant"
      value: 0.2
    }
  }
}
layer {
  name: "inception_4e/relu_3x3_reduce"
  type: "ReLU"
  bottom: "inception_4e/3x3_reduce"
  top: "inception_4e/3x3_reduce"
}
layer {
  name: "inception_4e/3x3"
  type: "Convolution"
  bottom: "inception_4e/3x3_reduce"
  top: "inception_4e/3x3"
  param {
    lr_mult: 1
    decay_mult: 1
  }
  param {
    lr_mult: 2
    decay_mult: 0
  }
  convolution_param {
    num_output: 320
    pad: 1
    kernel_size: 3
    weight_filler {
      type: "xavier"
      std: 0.03
    }
    bias_filler {
      type: "constant"
      value: 0.2
    }
  }
}
layer {
  name: "inception_4e/relu_3x3"
  type: "ReLU"
  bottom: "inception_4e/3x3"
  top: "inception_4e/3x3"
}
layer {
  name: "inception_4e/5x5_reduce"
  type: "Convolution"
  bottom: "inception_4d/output"
  top: "inception_4e/5x5_reduce"
  param {
    lr_mult: 1
    decay_mult: 1
  }
  param {
    lr_mult: 2
    decay_mult: 0
  }
  convolution_param {
    num_output: 32
    kernel_size: 1
    weight_filler {
      type: "xavier"
      std: 0.2
    }
    bias_filler {
      type: "constant"
      value: 0.2
    }
  }
}
layer {
  name: "inception_4e/relu_5x5_reduce"
  type: "ReLU"
  bottom: "inception_4e/5x5_reduce"
  top: "inception_4e/5x5_reduce"
}
layer {
  name: "inception_4e/5x5"
  type: "Convolution"
  bottom: "inception_4e/5x5_reduce"
  top: "inception_4e/
I0403 14:32:35.292372 13379 layer_factory.hpp:77] Creating layer data
I0403 14:32:35.292950 13379 net.cpp:91] Creating Layer data
I0403 14:32:35.292981 13379 net.cpp:399] data -> data
I0403 14:32:35.293031 13379 net.cpp:399] data -> label
I0403 14:32:35.293066 13379 data_transformer.cpp:25] Loading mean file from: /home/mohanty/data/final_dataset/lmdb/segmented-20-80/mean.binaryproto
I0403 14:32:35.295856 13382 db_lmdb.cpp:38] Opened lmdb /home/mohanty/data/final_dataset/lmdb/segmented-20-80/test_db
I0403 14:32:35.305968 13379 data_layer.cpp:41] output data size: 24,3,224,224
I0403 14:32:35.332667 13379 net.cpp:141] Setting up data
I0403 14:32:35.332759 13379 net.cpp:148] Top shape: 24 3 224 224 (3612672)
I0403 14:32:35.332784 13379 net.cpp:148] Top shape: 24 (24)
I0403 14:32:35.332800 13379 net.cpp:156] Memory required for data: 14450784
I0403 14:32:35.332828 13379 layer_factory.hpp:77] Creating layer label_data_1_split
I0403 14:32:35.332855 13379 net.cpp:91] Creating Layer label_data_1_split
I0403 14:32:35.332875 13379 net.cpp:425] label_data_1_split <- label
I0403 14:32:35.332909 13379 net.cpp:399] label_data_1_split -> label_data_1_split_0
I0403 14:32:35.332938 13379 net.cpp:399] label_data_1_split -> label_data_1_split_1
I0403 14:32:35.332962 13379 net.cpp:399] label_data_1_split -> label_data_1_split_2
I0403 14:32:35.332983 13379 net.cpp:399] label_data_1_split -> label_data_1_split_3
I0403 14:32:35.333003 13379 net.cpp:399] label_data_1_split -> label_data_1_split_4
I0403 14:32:35.333024 13379 net.cpp:399] label_data_1_split -> label_data_1_split_5
I0403 14:32:35.333044 13379 net.cpp:399] label_data_1_split -> label_data_1_split_6
I0403 14:32:35.333065 13379 net.cpp:399] label_data_1_split -> label_data_1_split_7
I0403 14:32:35.333087 13379 net.cpp:399] label_data_1_split -> label_data_1_split_8
I0403 14:32:35.333109 13379 net.cpp:399] label_data_1_split -> label_data_1_split_9
I0403 14:32:35.333227 13379 net.cpp:141] Setting up label_data_1_split
I0403 14:32:35.333251 13379 net.cpp:148] Top shape: 24 (24)
I0403 14:32:35.333269 13379 net.cpp:148] Top shape: 24 (24)
I0403 14:32:35.333286 13379 net.cpp:148] Top shape: 24 (24)
I0403 14:32:35.333302 13379 net.cpp:148] Top shape: 24 (24)
I0403 14:32:35.333317 13379 net.cpp:148] Top shape: 24 (24)
I0403 14:32:35.333331 13379 net.cpp:148] Top shape: 24 (24)
I0403 14:32:35.333348 13379 net.cpp:148] Top shape: 24 (24)
I0403 14:32:35.333364 13379 net.cpp:148] Top shape: 24 (24)
I0403 14:32:35.333379 13379 net.cpp:148] Top shape: 24 (24)
I0403 14:32:35.333395 13379 net.cpp:148] Top shape: 24 (24)
I0403 14:32:35.333448 13379 net.cpp:156] Memory required for data: 14451744
I0403 14:32:35.333464 13379 layer_factory.hpp:77] Creating layer conv1/7x7_s2
I0403 14:32:35.333497 13379 net.cpp:91] Creating Layer conv1/7x7_s2
I0403 14:32:35.333514 13379 net.cpp:425] conv1/7x7_s2 <- data
I0403 14:32:35.333534 13379 net.cpp:399] conv1/7x7_s2 -> conv1/7x7_s2
I0403 14:32:35.470957 13379 net.cpp:141] Setting up conv1/7x7_s2
I0403 14:32:35.471035 13379 net.cpp:148] Top shape: 24 64 112 112 (19267584)
I0403 14:32:35.471051 13379 net.cpp:156] Memory required for data: 91522080
I0403 14:32:35.471081 13379 layer_factory.hpp:77] Creating layer conv1/relu_7x7
I0403 14:32:35.471107 13379 net.cpp:91] Creating Layer conv1/relu_7x7
I0403 14:32:35.471123 13379 net.cpp:425] conv1/relu_7x7 <- conv1/7x7_s2
I0403 14:32:35.471144 13379 net.cpp:386] conv1/relu_7x7 -> conv1/7x7_s2 (in-place)
I0403 14:32:35.471415 13379 net.cpp:141] Setting up conv1/relu_7x7
I0403 14:32:35.471442 13379 net.cpp:148] Top shape: 24 64 112 112 (19267584)
I0403 14:32:35.471458 13379 net.cpp:156] Memory required for data: 168592416
I0403 14:32:35.471472 13379 layer_factory.hpp:77] Creating layer pool1/3x3_s2
I0403 14:32:35.471495 13379 net.cpp:91] Creating Layer pool1/3x3_s2
I0403 14:32:35.471513 13379 net.cpp:425] pool1/3x3_s2 <- conv1/7x7_s2
I0403 14:32:35.471532 13379 net.cpp:399] pool1/3x3_s2 -> pool1/3x3_s2
I0403 14:32:35.471614 13379 net.cpp:141] Setting up pool1/3x3_s2
I0403 14:32:35.471640 13379 net.cpp:148] Top shape: 24 64 56 56 (4816896)
I0403 14:32:35.471654 13379 net.cpp:156] Memory required for data: 187860000
I0403 14:32:35.471668 13379 layer_factory.hpp:77] Creating layer pool1/norm1
I0403 14:32:35.471691 13379 net.cpp:91] Creating Layer pool1/norm1
I0403 14:32:35.471709 13379 net.cpp:425] pool1/norm1 <- pool1/3x3_s2
I0403 14:32:35.471727 13379 net.cpp:399] pool1/norm1 -> pool1/norm1
I0403 14:32:35.472025 13379 net.cpp:141] Setting up pool1/norm1
I0403 14:32:35.472051 13379 net.cpp:148] Top shape: 24 64 56 56 (4816896)
I0403 14:32:35.472066 13379 net.cpp:156] Memory required for data: 207127584
I0403 14:32:35.472080 13379 layer_factory.hpp:77] Creating layer conv2/3x3_reduce
I0403 14:32:35.472105 13379 net.cpp:91] Creating Layer conv2/3x3_reduce
I0403 14:32:35.472122 13379 net.cpp:425] conv2/3x3_reduce <- pool1/norm1
I0403 14:32:35.472142 13379 net.cpp:399] conv2/3x3_reduce -> conv2/3x3_reduce
I0403 14:32:35.473495 13379 net.cpp:141] Setting up conv2/3x3_reduce
I0403 14:32:35.473523 13379 net.cpp:148] Top shape: 24 64 56 56 (4816896)
I0403 14:32:35.473544 13379 net.cpp:156] Memory required for data: 226395168
I0403 14:32:35.473565 13379 layer_factory.hpp:77] Creating layer conv2/relu_3x3_reduce
I0403 14:32:35.473587 13379 net.cpp:91] Creating Layer conv2/relu_3x3_reduce
I0403 14:32:35.473603 13379 net.cpp:425] conv2/relu_3x3_reduce <- conv2/3x3_reduce
I0403 14:32:35.473618 13379 net.cpp:386] conv2/relu_3x3_reduce -> conv2/3x3_reduce (in-place)
I0403 14:32:35.473878 13379 net.cpp:141] Setting up conv2/relu_3x3_reduce
I0403 14:32:35.473904 13379 net.cpp:148] Top shape: 24 64 56 56 (4816896)
I0403 14:32:35.473918 13379 net.cpp:156] Memory required for data: 245662752
I0403 14:32:35.473932 13379 layer_factory.hpp:77] Creating layer conv2/3x3
I0403 14:32:35.473958 13379 net.cpp:91] Creating Layer conv2/3x3
I0403 14:32:35.473975 13379 net.cpp:425] conv2/3x3 <- conv2/3x3_reduce
I0403 14:32:35.473994 13379 net.cpp:399] conv2/3x3 -> conv2/3x3
I0403 14:32:35.476219 13379 net.cpp:141] Setting up conv2/3x3
I0403 14:32:35.476251 13379 net.cpp:148] Top shape: 24 192 56 56 (14450688)
I0403 14:32:35.476276 13379 net.cpp:156] Memory required for data: 303465504
I0403 14:32:35.476302 13379 layer_factory.hpp:77] Creating layer conv2/relu_3x3
I0403 14:32:35.476328 13379 net.cpp:91] Creating Layer conv2/relu_3x3
I0403 14:32:35.476346 13379 net.cpp:425] conv2/relu_3x3 <- conv2/3x3
I0403 14:32:35.476362 13379 net.cpp:386] conv2/relu_3x3 -> conv2/3x3 (in-place)
I0403 14:32:35.476531 13379 net.cpp:141] Setting up conv2/relu_3x3
I0403 14:32:35.476572 13379 net.cpp:148] Top shape: 24 192 56 56 (14450688)
I0403 14:32:35.476625 13379 net.cpp:156] Memory required for data: 361268256
I0403 14:32:35.476640 13379 layer_factory.hpp:77] Creating layer conv2/norm2
I0403 14:32:35.476658 13379 net.cpp:91] Creating Layer conv2/norm2
I0403 14:32:35.476675 13379 net.cpp:425] conv2/norm2 <- conv2/3x3
I0403 14:32:35.476694 13379 net.cpp:399] conv2/norm2 -> conv2/norm2
I0403 14:32:35.476999 13379 net.cpp:141] Setting up conv2/norm2
I0403 14:32:35.477026 13379 net.cpp:148] Top shape: 24 192 56 56 (14450688)
I0403 14:32:35.477042 13379 net.cpp:156] Memory required for data: 419071008
I0403 14:32:35.477056 13379 layer_factory.hpp:77] Creating layer pool2/3x3_s2
I0403 14:32:35.477073 13379 net.cpp:91] Creating Layer pool2/3x3_s2
I0403 14:32:35.477088 13379 net.cpp:425] pool2/3x3_s2 <- conv2/norm2
I0403 14:32:35.477109 13379 net.cpp:399] pool2/3x3_s2 -> pool2/3x3_s2
I0403 14:32:35.477164 13379 net.cpp:141] Setting up pool2/3x3_s2
I0403 14:32:35.477187 13379 net.cpp:148] Top shape: 24 192 28 28 (3612672)
I0403 14:32:35.477202 13379 net.cpp:156] Memory required for data: 433521696
I0403 14:32:35.477217 13379 layer_factory.hpp:77] Creating layer pool2/3x3_s2_pool2/3x3_s2_0_split
I0403 14:32:35.477234 13379 net.cpp:91] Creating Layer pool2/3x3_s2_pool2/3x3_s2_0_split
I0403 14:32:35.477251 13379 net.cpp:425] pool2/3x3_s2_pool2/3x3_s2_0_split <- pool2/3x3_s2
I0403 14:32:35.477272 13379 net.cpp:399] pool2/3x3_s2_pool2/3x3_s2_0_split -> pool2/3x3_s2_pool2/3x3_s2_0_split_0
I0403 14:32:35.477291 13379 net.cpp:399] pool2/3x3_s2_pool2/3x3_s2_0_split -> pool2/3x3_s2_pool2/3x3_s2_0_split_1
I0403 14:32:35.477319 13379 net.cpp:399] pool2/3x3_s2_pool2/3x3_s2_0_split -> pool2/3x3_s2_pool2/3x3_s2_0_split_2
I0403 14:32:35.477339 13379 net.cpp:399] pool2/3x3_s2_pool2/3x3_s2_0_split -> pool2/3x3_s2_pool2/3x3_s2_0_split_3
I0403 14:32:35.477407 13379 net.cpp:141] Setting up pool2/3x3_s2_pool2/3x3_s2_0_split
I0403 14:32:35.477432 13379 net.cpp:148] Top shape: 24 192 28 28 (3612672)
I0403 14:32:35.477449 13379 net.cpp:148] Top shape: 24 192 28 28 (3612672)
I0403 14:32:35.477465 13379 net.cpp:148] Top shape: 24 192 28 28 (3612672)
I0403 14:32:35.477480 13379 net.cpp:148] Top shape: 24 192 28 28 (3612672)
I0403 14:32:35.477494 13379 net.cpp:156] Memory required for data: 491324448
I0403 14:32:35.477509 13379 layer_factory.hpp:77] Creating layer inception_3a/1x1
I0403 14:32:35.477530 13379 net.cpp:91] Creating Layer inception_3a/1x1
I0403 14:32:35.477552 13379 net.cpp:425] inception_3a/1x1 <- pool2/3x3_s2_pool2/3x3_s2_0_split_0
I0403 14:32:35.477571 13379 net.cpp:399] inception_3a/1x1 -> inception_3a/1x1
I0403 14:32:35.479084 13379 net.cpp:141] Setting up inception_3a/1x1
I0403 14:32:35.479115 13379 net.cpp:148] Top shape: 24 64 28 28 (1204224)
I0403 14:32:35.479130 13379 net.cpp:156] Memory required for data: 496141344
I0403 14:32:35.479148 13379 layer_factory.hpp:77] Creating layer inception_3a/relu_1x1
I0403 14:32:35.479169 13379 net.cpp:91] Creating Layer inception_3a/relu_1x1
I0403 14:32:35.479187 13379 net.cpp:425] inception_3a/relu_1x1 <- inception_3a/1x1
I0403 14:32:35.479203 13379 net.cpp:386] inception_3a/relu_1x1 -> inception_3a/1x1 (in-place)
I0403 14:32:35.479375 13379 net.cpp:141] Setting up inception_3a/relu_1x1
I0403 14:32:35.479405 13379 net.cpp:148] Top shape: 24 64 28 28 (1204224)
I0403 14:32:35.479421 13379 net.cpp:156] Memory required for data: 500958240
I0403 14:32:35.479436 13379 layer_factory.hpp:77] Creating layer inception_3a/3x3_reduce
I0403 14:32:35.479459 13379 net.cpp:91] Creating Layer inception_3a/3x3_reduce
I0403 14:32:35.479476 13379 net.cpp:425] inception_3a/3x3_reduce <- pool2/3x3_s2_pool2/3x3_s2_0_split_1
I0403 14:32:35.479495 13379 net.cpp:399] inception_3a/3x3_reduce -> inception_3a/3x3_reduce
I0403 14:32:35.481175 13379 net.cpp:141] Setting up inception_3a/3x3_reduce
I0403 14:32:35.481204 13379 net.cpp:148] Top shape: 24 96 28 28 (1806336)
I0403 14:32:35.481220 13379 net.cpp:156] Memory required for data: 508183584
I0403 14:32:35.481240 13379 layer_factory.hpp:77] Creating layer inception_3a/relu_3x3_reduce
I0403 14:32:35.481279 13379 net.cpp:91] Creating Layer inception_3a/relu_3x3_reduce
I0403 14:32:35.481298 13379 net.cpp:425] inception_3a/relu_3x3_reduce <- inception_3a/3x3_reduce
I0403 14:32:35.481317 13379 net.cpp:386] inception_3a/relu_3x3_reduce -> inception_3a/3x3_reduce (in-place)
I0403 14:32:35.481495 13379 net.cpp:141] Setting up inception_3a/relu_3x3_reduce
I0403 14:32:35.481520 13379 net.cpp:148] Top shape: 24 96 28 28 (1806336)
I0403 14:32:35.481534 13379 net.cpp:156] Memory required for data: 515408928
I0403 14:32:35.481554 13379 layer_factory.hpp:77] Creating layer inception_3a/3x3
I0403 14:32:35.481577 13379 net.cpp:91] Creating Layer inception_3a/3x3
I0403 14:32:35.481595 13379 net.cpp:425] inception_3a/3x3 <- inception_3a/3x3_reduce
I0403 14:32:35.481616 13379 net.cpp:399] inception_3a/3x3 -> inception_3a/3x3
I0403 14:32:35.483248 13379 net.cpp:141] Setting up inception_3a/3x3
I0403 14:32:35.483279 13379 net.cpp:148] Top shape: 24 128 28 28 (2408448)
I0403 14:32:35.483296 13379 net.cpp:156] Memory required for data: 525042720
I0403 14:32:35.483315 13379 layer_factory.hpp:77] Creating layer inception_3a/relu_3x3
I0403 14:32:35.483335 13379 net.cpp:91] Creating Layer inception_3a/relu_3x3
I0403 14:32:35.483350 13379 net.cpp:425] inception_3a/relu_3x3 <- inception_3a/3x3
I0403 14:32:35.483367 13379 net.cpp:386] inception_3a/relu_3x3 -> inception_3a/3x3 (in-place)
I0403 14:32:35.483649 13379 net.cpp:141] Setting up inception_3a/relu_3x3
I0403 14:32:35.483677 13379 net.cpp:148] Top shape: 24 128 28 28 (2408448)
I0403 14:32:35.483693 13379 net.cpp:156] Memory required for data: 534676512
I0403 14:32:35.483708 13379 layer_factory.hpp:77] Creating layer inception_3a/5x5_reduce
I0403 14:32:35.483731 13379 net.cpp:91] Creating Layer inception_3a/5x5_reduce
I0403 14:32:35.483748 13379 net.cpp:425] inception_3a/5x5_reduce <- pool2/3x3_s2_pool2/3x3_s2_0_split_2
I0403 14:32:35.483767 13379 net.cpp:399] inception_3a/5x5_reduce -> inception_3a/5x5_reduce
I0403 14:32:35.484742 13379 net.cpp:141] Setting up inception_3a/5x5_reduce
I0403 14:32:35.484772 13379 net.cpp:148] Top shape: 24 16 28 28 (301056)
I0403 14:32:35.484788 13379 net.cpp:156] Memory required for data: 535880736
I0403 14:32:35.484807 13379 layer_factory.hpp:77] Creating layer inception_3a/relu_5x5_reduce
I0403 14:32:35.484825 13379 net.cpp:91] Creating Layer inception_3a/relu_5x5_reduce
I0403 14:32:35.484848 13379 net.cpp:425] inception_3a/relu_5x5_reduce <- inception_3a/5x5_reduce
I0403 14:32:35.484868 13379 net.cpp:386] inception_3a/relu_5x5_reduce -> inception_3a/5x5_reduce (in-place)
I0403 14:32:35.485170 13379 net.cpp:141] Setting up inception_3a/relu_5x5_reduce
I0403 14:32:35.485196 13379 net.cpp:148] Top shape: 24 16 28 28 (301056)
I0403 14:32:35.485211 13379 net.cpp:156] Memory required for data: 537084960
I0403 14:32:35.485226 13379 layer_factory.hpp:77] Creating layer inception_3a/5x5
I0403 14:32:35.485249 13379 net.cpp:91] Creating Layer inception_3a/5x5
I0403 14:32:35.485268 13379 net.cpp:425] inception_3a/5x5 <- inception_3a/5x5_reduce
I0403 14:32:35.485288 13379 net.cpp:399] inception_3a/5x5 -> inception_3a/5x5
I0403 14:32:35.486307 13379 net.cpp:141] Setting up inception_3a/5x5
I0403 14:32:35.486335 13379 net.cpp:148] Top shape: 24 32 28 28 (602112)
I0403 14:32:35.486351 13379 net.cpp:156] Memory required for data: 539493408
I0403 14:32:35.486368 13379 layer_factory.hpp:77] Creating layer inception_3a/relu_5x5
I0403 14:32:35.486389 13379 net.cpp:91] Creating Layer inception_3a/relu_5x5
I0403 14:32:35.486405 13379 net.cpp:425] inception_3a/relu_5x5 <- inception_3a/5x5
I0403 14:32:35.486423 13379 net.cpp:386] inception_3a/relu_5x5 -> inception_3a/5x5 (in-place)
I0403 14:32:35.486603 13379 net.cpp:141] Setting up inception_3a/relu_5x5
I0403 14:32:35.486630 13379 net.cpp:148] Top shape: 24 32 28 28 (602112)
I0403 14:32:35.486645 13379 net.cpp:156] Memory required for data: 541901856
I0403 14:32:35.486660 13379 layer_factory.hpp:77] Creating layer inception_3a/pool
I0403 14:32:35.486678 13379 net.cpp:91] Creating Layer inception_3a/pool
I0403 14:32:35.486708 13379 net.cpp:425] inception_3a/pool <- pool2/3x3_s2_pool2/3x3_s2_0_split_3
I0403 14:32:35.486729 13379 net.cpp:399] inception_3a/pool -> inception_3a/pool
I0403 14:32:35.486788 13379 net.cpp:141] Setting up inception_3a/pool
I0403 14:32:35.486810 13379 net.cpp:148] Top shape: 24 192 28 28 (3612672)
I0403 14:32:35.486825 13379 net.cpp:156] Memory required for data: 556352544
I0403 14:32:35.486840 13379 layer_factory.hpp:77] Creating layer inception_3a/pool_proj
I0403 14:32:35.486861 13379 net.cpp:91] Creating Layer inception_3a/pool_proj
I0403 14:32:35.486878 13379 net.cpp:425] inception_3a/pool_proj <- inception_3a/pool
I0403 14:32:35.486899 13379 net.cpp:399] inception_3a/pool_proj -> inception_3a/pool_proj
I0403 14:32:35.487867 13379 net.cpp:141] Setting up inception_3a/pool_proj
I0403 14:32:35.487895 13379 net.cpp:148] Top shape: 24 32 28 28 (602112)
I0403 14:32:35.487910 13379 net.cpp:156] Memory required for data: 558760992
I0403 14:32:35.487933 13379 layer_factory.hpp:77] Creating layer inception_3a/relu_pool_proj
I0403 14:32:35.487953 13379 net.cpp:91] Creating Layer inception_3a/relu_pool_proj
I0403 14:32:35.487969 13379 net.cpp:425] inception_3a/relu_pool_proj <- inception_3a/pool_proj
I0403 14:32:35.487989 13379 net.cpp:386] inception_3a/relu_pool_proj -> inception_3a/pool_proj (in-place)
I0403 14:32:35.488262 13379 net.cpp:141] Setting up inception_3a/relu_pool_proj
I0403 14:32:35.488291 13379 net.cpp:148] Top shape: 24 32 28 28 (602112)
I0403 14:32:35.488306 13379 net.cpp:156] Memory required for data: 561169440
I0403 14:32:35.488320 13379 layer_factory.hpp:77] Creating layer inception_3a/output
I0403 14:32:35.488338 13379 net.cpp:91] Creating Layer inception_3a/output
I0403 14:32:35.488355 13379 net.cpp:425] inception_3a/output <- inception_3a/1x1
I0403 14:32:35.488371 13379 net.cpp:425] inception_3a/output <- inception_3a/3x3
I0403 14:32:35.488386 13379 net.cpp:425] inception_3a/output <- inception_3a/5x5
I0403 14:32:35.488401 13379 net.cpp:425] inception_3a/output <- inception_3a/pool_proj
I0403 14:32:35.488418 13379 net.cpp:399] inception_3a/output -> inception_3a/output
I0403 14:32:35.488464 13379 net.cpp:141] Setting up inception_3a/output
I0403 14:32:35.488487 13379 net.cpp:148] Top shape: 24 256 28 28 (4816896)
I0403 14:32:35.488502 13379 net.cpp:156] Memory required for data: 580437024
I0403 14:32:35.488515 13379 layer_factory.hpp:77] Creating layer inception_3a/output_inception_3a/output_0_split
I0403 14:32:35.488531 13379 net.cpp:91] Creating Layer inception_3a/output_inception_3a/output_0_split
I0403 14:32:35.488555 13379 net.cpp:425] inception_3a/output_inception_3a/output_0_split <- inception_3a/output
I0403 14:32:35.488574 13379 net.cpp:399] inception_3a/output_inception_3a/output_0_split -> inception_3a/output_inception_3a/output_0_split_0
I0403 14:32:35.488593 13379 net.cpp:399] inception_3a/output_inception_3a/output_0_split -> inception_3a/output_inception_3a/output_0_split_1
I0403 14:32:35.488617 13379 net.cpp:399] inception_3a/output_inception_3a/output_0_split -> inception_3a/output_inception_3a/output_0_split_2
I0403 14:32:35.488639 13379 net.cpp:399] inception_3a/output_inception_3a/output_0_split -> inception_3a/output_inception_3a/output_0_split_3
I0403 14:32:35.488714 13379 net.cpp:141] Setting up inception_3a/output_inception_3a/output_0_split
I0403 14:32:35.488736 13379 net.cpp:148] Top shape: 24 256 28 28 (4816896)
I0403 14:32:35.488752 13379 net.cpp:148] Top shape: 24 256 28 28 (4816896)
I0403 14:32:35.488768 13379 net.cpp:148] Top shape: 24 256 28 28 (4816896)
I0403 14:32:35.488783 13379 net.cpp:148] Top shape: 24 256 28 28 (4816896)
I0403 14:32:35.488797 13379 net.cpp:156] Memory required for data: 657507360
I0403 14:32:35.488811 13379 layer_factory.hpp:77] Creating layer inception_3b/1x1
I0403 14:32:35.488833 13379 net.cpp:91] Creating Layer inception_3b/1x1
I0403 14:32:35.488850 13379 net.cpp:425] inception_3b/1x1 <- inception_3a/output_inception_3a/output_0_split_0
I0403 14:32:35.488875 13379 net.cpp:399] inception_3b/1x1 -> inception_3b/1x1
I0403 14:32:35.490021 13379 net.cpp:141] Setting up inception_3b/1x1
I0403 14:32:35.490061 13379 net.cpp:148] Top shape: 24 128 28 28 (2408448)
I0403 14:32:35.490078 13379 net.cpp:156] Memory required for data: 667141152
I0403 14:32:35.490097 13379 layer_factory.hpp:77] Creating layer inception_3b/relu_1x1
I0403 14:32:35.490118 13379 net.cpp:91] Creating Layer inception_3b/relu_1x1
I0403 14:32:35.490134 13379 net.cpp:425] inception_3b/relu_1x1 <- inception_3b/1x1
I0403 14:32:35.490150 13379 net.cpp:386] inception_3b/relu_1x1 -> inception_3b/1x1 (in-place)
I0403 14:32:35.490324 13379 net.cpp:141] Setting up inception_3b/relu_1x1
I0403 14:32:35.490350 13379 net.cpp:148] Top shape: 24 128 28 28 (2408448)
I0403 14:32:35.490366 13379 net.cpp:156] Memory required for data: 676774944
I0403 14:32:35.490381 13379 layer_factory.hpp:77] Creating layer inception_3b/3x3_reduce
I0403 14:32:35.490403 13379 net.cpp:91] Creating Layer inception_3b/3x3_reduce
I0403 14:32:35.490420 13379 net.cpp:425] inception_3b/3x3_reduce <- inception_3a/output_inception_3a/output_0_split_1
I0403 14:32:35.490440 13379 net.cpp:399] inception_3b/3x3_reduce -> inception_3b/3x3_reduce
I0403 14:32:35.491583 13379 net.cpp:141] Setting up inception_3b/3x3_reduce
I0403 14:32:35.491611 13379 net.cpp:148] Top shape: 24 128 28 28 (2408448)
I0403 14:32:35.491626 13379 net.cpp:156] Memory required for data: 686408736
I0403 14:32:35.491644 13379 layer_factory.hpp:77] Creating layer inception_3b/relu_3x3_reduce
I0403 14:32:35.491665 13379 net.cpp:91] Creating Layer inception_3b/relu_3x3_reduce
I0403 14:32:35.491683 13379 net.cpp:425] inception_3b/relu_3x3_reduce <- inception_3b/3x3_reduce
I0403 14:32:35.491699 13379 net.cpp:386] inception_3b/relu_3x3_reduce -> inception_3b/3x3_reduce (in-place)
I0403 14:32:35.491873 13379 net.cpp:141] Setting up inception_3b/relu_3x3_reduce
I0403 14:32:35.491897 13379 net.cpp:148] Top shape: 24 128 28 28 (2408448)
I0403 14:32:35.491912 13379 net.cpp:156] Memory required for data: 696042528
I0403 14:32:35.491926 13379 layer_factory.hpp:77] Creating layer inception_3b/3x3
I0403 14:32:35.491952 13379 net.cpp:91] Creating Layer inception_3b/3x3
I0403 14:32:35.491971 13379 net.cpp:425] inception_3b/3x3 <- inception_3b/3x3_reduce
I0403 14:32:35.491991 13379 net.cpp:399] inception_3b/3x3 -> inception_3b/3x3
I0403 14:32:35.494940 13379 net.cpp:141] Setting up inception_3b/3x3
I0403 14:32:35.494971 13379 net.cpp:148] Top shape: 24 192 28 28 (3612672)
I0403 14:32:35.494987 13379 net.cpp:156] Memory required for data: 710493216
I0403 14:32:35.495005 13379 layer_factory.hpp:77] Creating layer inception_3b/relu_3x3
I0403 14:32:35.495023 13379 net.cpp:91] Creating Layer inception_3b/relu_3x3
I0403 14:32:35.495039 13379 net.cpp:425] inception_3b/relu_3x3 <- inception_3b/3x3
I0403 14:32:35.495056 13379 net.cpp:386] inception_3b/relu_3x3 -> inception_3b/3x3 (in-place)
I0403 14:32:35.495329 13379 net.cpp:141] Setting up inception_3b/relu_3x3
I0403 14:32:35.495358 13379 net.cpp:148] Top shape: 24 192 28 28 (3612672)
I0403 14:32:35.495374 13379 net.cpp:156] Memory required for data: 724943904
I0403 14:32:35.495389 13379 layer_factory.hpp:77] Creating layer inception_3b/5x5_reduce
I0403 14:32:35.495411 13379 net.cpp:91] Creating Layer inception_3b/5x5_reduce
I0403 14:32:35.495429 13379 net.cpp:425] inception_3b/5x5_reduce <- inception_3a/output_inception_3a/output_0_split_2
I0403 14:32:35.495446 13379 net.cpp:399] inception_3b/5x5_reduce -> inception_3b/5x5_reduce
I0403 14:32:35.496434 13379 net.cpp:141] Setting up inception_3b/5x5_reduce
I0403 14:32:35.496464 13379 net.cpp:148] Top shape: 24 32 28 28 (602112)
I0403 14:32:35.496481 13379 net.cpp:156] Memory required for data: 727352352
I0403 14:32:35.496498 13379 layer_factory.hpp:77] Creating layer inception_3b/relu_5x5_reduce
I0403 14:32:35.496518 13379 net.cpp:91] Creating Layer inception_3b/relu_5x5_reduce
I0403 14:32:35.496533 13379 net.cpp:425] inception_3b/relu_5x5_reduce <- inception_3b/5x5_reduce
I0403 14:32:35.496556 13379 net.cpp:386] inception_3b/relu_5x5_reduce -> inception_3b/5x5_reduce (in-place)
I0403 14:32:35.496747 13379 net.cpp:141] Setting up inception_3b/relu_5x5_reduce
I0403 14:32:35.496778 13379 net.cpp:148] Top shape: 24 32 28 28 (602112)
I0403 14:32:35.496794 13379 net.cpp:156] Memory required for data: 729760800
I0403 14:32:35.496809 13379 layer_factory.hpp:77] Creating layer inception_3b/5x5
I0403 14:32:35.496831 13379 net.cpp:91] Creating Layer inception_3b/5x5
I0403 14:32:35.496848 13379 net.cpp:425] inception_3b/5x5 <- inception_3b/5x5_reduce
I0403 14:32:35.496867 13379 net.cpp:399] inception_3b/5x5 -> inception_3b/5x5
I0403 14:32:35.498922 13379 net.cpp:141] Setting up inception_3b/5x5
I0403 14:32:35.498952 13379 net.cpp:148] Top shape: 24 96 28 28 (1806336)
I0403 14:32:35.498968 13379 net.cpp:156] Memory required for data: 736986144
I0403 14:32:35.498987 13379 layer_factory.hpp:77] Creating layer inception_3b/relu_5x5
I0403 14:32:35.499008 13379 net.cpp:91] Creating Layer inception_3b/relu_5x5
I0403 14:32:35.499025 13379 net.cpp:425] inception_3b/relu_5x5 <- inception_3b/5x5
I0403 14:32:35.499042 13379 net.cpp:386] inception_3b/relu_5x5 -> inception_3b/5x5 (in-place)
I0403 14:32:35.499240 13379 net.cpp:141] Setting up inception_3b/relu_5x5
I0403 14:32:35.499269 13379 net.cpp:148] Top shape: 24 96 28 28 (1806336)
I0403 14:32:35.499284 13379 net.cpp:156] Memory required for data: 744211488
I0403 14:32:35.499299 13379 layer_factory.hpp:77] Creating layer inception_3b/pool
I0403 14:32:35.499316 13379 net.cpp:91] Creating Layer inception_3b/pool
I0403 14:32:35.499332 13379 net.cpp:425] inception_3b/pool <- inception_3a/output_inception_3a/output_0_split_3
I0403 14:32:35.499351 13379 net.cpp:399] inception_3b/pool -> inception_3b/pool
I0403 14:32:35.499408 13379 net.cpp:141] Setting up inception_3b/pool
I0403 14:32:35.499431 13379 net.cpp:148] Top shape: 24 256 28 28 (4816896)
I0403 14:32:35.499445 13379 net.cpp:156] Memory required for data: 763479072
I0403 14:32:35.499460 13379 layer_factory.hpp:77] Creating layer inception_3b/pool_proj
I0403 14:32:35.499483 13379 net.cpp:91] Creating Layer inception_3b/pool_proj
I0403 14:32:35.499501 13379 net.cpp:425] inception_3b/pool_proj <- inception_3b/pool
I0403 14:32:35.499522 13379 net.cpp:399] inception_3b/pool_proj -> inception_3b/pool_proj
I0403 14:32:35.500617 13379 net.cpp:141] Setting up inception_3b/pool_proj
I0403 14:32:35.500648 13379 net.cpp:148] Top shape: 24 64 28 28 (1204224)
I0403 14:32:35.500664 13379 net.cpp:156] Memory required for data: 768295968
I0403 14:32:35.500684 13379 layer_factory.hpp:77] Creating layer inception_3b/relu_pool_proj
I0403 14:32:35.500701 13379 net.cpp:91] Creating Layer inception_3b/relu_pool_proj
I0403 14:32:35.500718 13379 net.cpp:425] inception_3b/relu_pool_proj <- inception_3b/pool_proj
I0403 14:32:35.500738 13379 net.cpp:386] inception_3b/relu_pool_proj -> inception_3b/pool_proj (in-place)
I0403 14:32:35.501147 13379 net.cpp:141] Setting up inception_3b/relu_pool_proj
I0403 14:32:35.501176 13379 net.cpp:148] Top shape: 24 64 28 28 (1204224)
I0403 14:32:35.501191 13379 net.cpp:156] Memory required for data: 773112864
I0403 14:32:35.501207 13379 layer_factory.hpp:77] Creating layer inception_3b/output
I0403 14:32:35.501224 13379 net.cpp:91] Creating Layer inception_3b/output
I0403 14:32:35.501240 13379 net.cpp:425] inception_3b/output <- inception_3b/1x1
I0403 14:32:35.501257 13379 net.cpp:425] inception_3b/output <- inception_3b/3x3
I0403 14:32:35.501274 13379 net.cpp:425] inception_3b/output <- inception_3b/5x5
I0403 14:32:35.501291 13379 net.cpp:425] inception_3b/output <- inception_3b/pool_proj
I0403 14:32:35.501312 13379 net.cpp:399] inception_3b/output -> inception_3b/output
I0403 14:32:35.501358 13379 net.cpp:141] Setting up inception_3b/output
I0403 14:32:35.501381 13379 net.cpp:148] Top shape: 24 480 28 28 (9031680)
I0403 14:32:35.501396 13379 net.cpp:156] Memory required for data: 809239584
I0403 14:32:35.501410 13379 layer_factory.hpp:77] Creating layer pool3/3x3_s2
I0403 14:32:35.501430 13379 net.cpp:91] Creating Layer pool3/3x3_s2
I0403 14:32:35.501448 13379 net.cpp:425] pool3/3x3_s2 <- inception_3b/output
I0403 14:32:35.501482 13379 net.cpp:399] pool3/3x3_s2 -> pool3/3x3_s2
I0403 14:32:35.501549 13379 net.cpp:141] Setting up pool3/3x3_s2
I0403 14:32:35.501572 13379 net.cpp:148] Top shape: 24 480 14 14 (2257920)
I0403 14:32:35.501587 13379 net.cpp:156] Memory required for data: 818271264
I0403 14:32:35.501601 13379 layer_factory.hpp:77] Creating layer pool3/3x3_s2_pool3/3x3_s2_0_split
I0403 14:32:35.501619 13379 net.cpp:91] Creating Layer pool3/3x3_s2_pool3/3x3_s2_0_split
I0403 14:32:35.501634 13379 net.cpp:425] pool3/3x3_s2_pool3/3x3_s2_0_split <- pool3/3x3_s2
I0403 14:32:35.501653 13379 net.cpp:399] pool3/3x3_s2_pool3/3x3_s2_0_split -> pool3/3x3_s2_pool3/3x3_s2_0_split_0
I0403 14:32:35.501675 13379 net.cpp:399] pool3/3x3_s2_pool3/3x3_s2_0_split -> pool3/3x3_s2_pool3/3x3_s2_0_split_1
I0403 14:32:35.501695 13379 net.cpp:399] pool3/3x3_s2_pool3/3x3_s2_0_split -> pool3/3x3_s2_pool3/3x3_s2_0_split_2
I0403 14:32:35.501714 13379 net.cpp:399] pool3/3x3_s2_pool3/3x3_s2_0_split -> pool3/3x3_s2_pool3/3x3_s2_0_split_3
I0403 14:32:35.501793 13379 net.cpp:141] Setting up pool3/3x3_s2_pool3/3x3_s2_0_split
I0403 14:32:35.501819 13379 net.cpp:148] Top shape: 24 480 14 14 (2257920)
I0403 14:32:35.501837 13379 net.cpp:148] Top shape: 24 480 14 14 (2257920)
I0403 14:32:35.501852 13379 net.cpp:148] Top shape: 24 480 14 14 (2257920)
I0403 14:32:35.501868 13379 net.cpp:148] Top shape: 24 480 14 14 (2257920)
I0403 14:32:35.501881 13379 net.cpp:156] Memory required for data: 854397984
I0403 14:32:35.501895 13379 layer_factory.hpp:77] Creating layer inception_4a/1x1
I0403 14:32:35.501917 13379 net.cpp:91] Creating Layer inception_4a/1x1
I0403 14:32:35.501935 13379 net.cpp:425] inception_4a/1x1 <- pool3/3x3_s2_pool3/3x3_s2_0_split_0
I0403 14:32:35.501955 13379 net.cpp:399] inception_4a/1x1 -> inception_4a/1x1
I0403 14:32:35.503559 13379 net.cpp:141] Setting up inception_4a/1x1
I0403 14:32:35.503587 13379 net.cpp:148] Top shape: 24 192 14 14 (903168)
I0403 14:32:35.503604 13379 net.cpp:156] Memory required for data: 858010656
I0403 14:32:35.503623 13379 layer_factory.hpp:77] Creating layer inception_4a/relu_1x1
I0403 14:32:35.503643 13379 net.cpp:91] Creating Layer inception_4a/relu_1x1
I0403 14:32:35.503660 13379 net.cpp:425] inception_4a/relu_1x1 <- inception_4a/1x1
I0403 14:32:35.503677 13379 net.cpp:386] inception_4a/relu_1x1 -> inception_4a/1x1 (in-place)
I0403 14:32:35.503859 13379 net.cpp:141] Setting up inception_4a/relu_1x1
I0403 14:32:35.503885 13379 net.cpp:148] Top shape: 24 192 14 14 (903168)
I0403 14:32:35.503898 13379 net.cpp:156] Memory required for data: 861623328
I0403 14:32:35.503913 13379 layer_factory.hpp:77] Creating layer inception_4a/3x3_reduce
I0403 14:32:35.503940 13379 net.cpp:91] Creating Layer inception_4a/3x3_reduce
I0403 14:32:35.503959 13379 net.cpp:425] inception_4a/3x3_reduce <- pool3/3x3_s2_pool3/3x3_s2_0_split_1
I0403 14:32:35.503980 13379 net.cpp:399] inception_4a/3x3_reduce -> inception_4a/3x3_reduce
I0403 14:32:35.505295 13379 net.cpp:141] Setting up inception_4a/3x3_reduce
I0403 14:32:35.505326 13379 net.cpp:148] Top shape: 24 96 14 14 (451584)
I0403 14:32:35.505342 13379 net.cpp:156] Memory required for data: 863429664
I0403 14:32:35.505368 13379 layer_factory.hpp:77] Creating layer inception_4a/relu_3x3_reduce
I0403 14:32:35.505388 13379 net.cpp:91] Creating Layer inception_4a/relu_3x3_reduce
I0403 14:32:35.505405 13379 net.cpp:425] inception_4a/relu_3x3_reduce <- inception_4a/3x3_reduce
I0403 14:32:35.505424 13379 net.cpp:386] inception_4a/relu_3x3_reduce -> inception_4a/3x3_reduce (in-place)
I0403 14:32:35.505620 13379 net.cpp:141] Setting up inception_4a/relu_3x3_reduce
I0403 14:32:35.505645 13379 net.cpp:148] Top shape: 24 96 14 14 (451584)
I0403 14:32:35.505661 13379 net.cpp:156] Memory required for data: 865236000
I0403 14:32:35.505676 13379 layer_factory.hpp:77] Creating layer inception_4a/3x3
I0403 14:32:35.505698 13379 net.cpp:91] Creating Layer inception_4a/3x3
I0403 14:32:35.505717 13379 net.cpp:425] inception_4a/3x3 <- inception_4a/3x3_reduce
I0403 14:32:35.505738 13379 net.cpp:399] inception_4a/3x3 -> inception_4a/3x3
I0403 14:32:35.508473 13379 net.cpp:141] Setting up inception_4a/3x3
I0403 14:32:35.508503 13379 net.cpp:148] Top shape: 24 208 14 14 (978432)
I0403 14:32:35.508519 13379 net.cpp:156] Memory required for data: 869149728
I0403 14:32:35.508541 13379 layer_factory.hpp:77] Creating layer inception_4a/relu_3x3
I0403 14:32:35.508564 13379 net.cpp:91] Creating Layer inception_4a/relu_3x3
I0403 14:32:35.508582 13379 net.cpp:425] inception_4a/relu_3x3 <- inception_4a/3x3
I0403 14:32:35.508599 13379 net.cpp:386] inception_4a/relu_3x3 -> inception_4a/3x3 (in-place)
I0403 14:32:35.508887 13379 net.cpp:141] Setting up inception_4a/relu_3x3
I0403 14:32:35.508913 13379 net.cpp:148] Top shape: 24 208 14 14 (978432)
I0403 14:32:35.508929 13379 net.cpp:156] Memory required for data: 873063456
I0403 14:32:35.508944 13379 layer_factory.hpp:77] Creating layer inception_4a/5x5_reduce
I0403 14:32:35.508967 13379 net.cpp:91] Creating Layer inception_4a/5x5_reduce
I0403 14:32:35.508985 13379 net.cpp:425] inception_4a/5x5_reduce <- pool3/3x3_s2_pool3/3x3_s2_0_split_2
I0403 14:32:35.509006 13379 net.cpp:399] inception_4a/5x5_reduce -> inception_4a/5x5_reduce
I0403 14:32:35.510058 13379 net.cpp:141] Setting up inception_4a/5x5_reduce
I0403 14:32:35.510087 13379 net.cpp:148] Top shape: 24 16 14 14 (75264)
I0403 14:32:35.510103 13379 net.cpp:156] Memory required for data: 873364512
I0403 14:32:35.510121 13379 layer_factory.hpp:77] Creating layer inception_4a/relu_5x5_reduce
I0403 14:32:35.510143 13379 net.cpp:91] Creating Layer inception_4a/relu_5x5_reduce
I0403 14:32:35.510160 13379 net.cpp:425] inception_4a/relu_5x5_reduce <- inception_4a/5x5_reduce
I0403 14:32:35.510177 13379 net.cpp:386] inception_4a/relu_5x5_reduce -> inception_4a/5x5_reduce (in-place)
I0403 14:32:35.510361 13379 net.cpp:141] Setting up inception_4a/relu_5x5_reduce
I0403 14:32:35.510390 13379 net.cpp:148] Top shape: 24 16 14 14 (75264)
I0403 14:32:35.510406 13379 net.cpp:156] Memory required for data: 873665568
I0403 14:32:35.510421 13379 layer_factory.hpp:77] Creating layer inception_4a/5x5
I0403 14:32:35.510442 13379 net.cpp:91] Creating Layer inception_4a/5x5
I0403 14:32:35.510460 13379 net.cpp:425] inception_4a/5x5 <- inception_4a/5x5_reduce
I0403 14:32:35.510479 13379 net.cpp:399] inception_4a/5x5 -> inception_4a/5x5
I0403 14:32:35.511595 13379 net.cpp:141] Setting up inception_4a/5x5
I0403 14:32:35.511625 13379 net.cpp:148] Top shape: 24 48 14 14 (225792)
I0403 14:32:35.511641 13379 net.cpp:156] Memory required for data: 874568736
I0403 14:32:35.511659 13379 layer_factory.hpp:77] Creating layer inception_4a/relu_5x5
I0403 14:32:35.511677 13379 net.cpp:91] Creating Layer inception_4a/relu_5x5
I0403 14:32:35.511694 13379 net.cpp:425] inception_4a/relu_5x5 <- inception_4a/5x5
I0403 14:32:35.511714 13379 net.cpp:386] inception_4a/relu_5x5 -> inception_4a/5x5 (in-place)
I0403 14:32:35.511903 13379 net.cpp:141] Setting up inception_4a/relu_5x5
I0403 14:32:35.511927 13379 net.cpp:148] Top shape: 24 48 14 14 (225792)
I0403 14:32:35.511942 13379 net.cpp:156] Memory required for data: 875471904
I0403 14:32:35.511956 13379 layer_factory.hpp:77] Creating layer inception_4a/pool
I0403 14:32:35.511977 13379 net.cpp:91] Creating Layer inception_4a/pool
I0403 14:32:35.511994 13379 net.cpp:425] inception_4a/pool <- pool3/3x3_s2_pool3/3x3_s2_0_split_3
I0403 14:32:35.512012 13379 net.cpp:399] inception_4a/pool -> inception_4a/pool
I0403 14:32:35.512075 13379 net.cpp:141] Setting up inception_4a/pool
I0403 14:32:35.512099 13379 net.cpp:148] Top shape: 24 480 14 14 (2257920)
I0403 14:32:35.512115 13379 net.cpp:156] Memory required for data: 884503584
I0403 14:32:35.512128 13379 layer_factory.hpp:77] Creating layer inception_4a/pool_proj
I0403 14:32:35.512151 13379 net.cpp:91] Creating Layer inception_4a/pool_proj
I0403 14:32:35.512168 13379 net.cpp:425] inception_4a/pool_proj <- inception_4a/pool
I0403 14:32:35.512189 13379 net.cpp:399] inception_4a/pool_proj -> inception_4a/pool_proj
I0403 14:32:35.513386 13379 net.cpp:141] Setting up inception_4a/pool_proj
I0403 14:32:35.513416 13379 net.cpp:148] Top shape: 24 64 14 14 (301056)
I0403 14:32:35.513447 13379 net.cpp:156] Memory required for data: 885707808
I0403 14:32:35.513468 13379 layer_factory.hpp:77] Creating layer inception_4a/relu_pool_proj
I0403 14:32:35.513487 13379 net.cpp:91] Creating Layer inception_4a/relu_pool_proj
I0403 14:32:35.513504 13379 net.cpp:425] inception_4a/relu_pool_proj <- inception_4a/pool_proj
I0403 14:32:35.513525 13379 net.cpp:386] inception_4a/relu_pool_proj -> inception_4a/pool_proj (in-place)
I0403 14:32:35.513828 13379 net.cpp:141] Setting up inception_4a/relu_pool_proj
I0403 14:32:35.513855 13379 net.cpp:148] Top shape: 24 64 14 14 (301056)
I0403 14:32:35.513870 13379 net.cpp:156] Memory required for data: 886912032
I0403 14:32:35.513885 13379 layer_factory.hpp:77] Creating layer inception_4a/output
I0403 14:32:35.513903 13379 net.cpp:91] Creating Layer inception_4a/output
I0403 14:32:35.513919 13379 net.cpp:425] inception_4a/output <- inception_4a/1x1
I0403 14:32:35.513936 13379 net.cpp:425] inception_4a/output <- inception_4a/3x3
I0403 14:32:35.513952 13379 net.cpp:425] inception_4a/output <- inception_4a/5x5
I0403 14:32:35.513968 13379 net.cpp:425] inception_4a/output <- inception_4a/pool_proj
I0403 14:32:35.513988 13379 net.cpp:399] inception_4a/output -> inception_4a/output
I0403 14:32:35.514034 13379 net.cpp:141] Setting up inception_4a/output
I0403 14:32:35.514060 13379 net.cpp:148] Top shape: 24 512 14 14 (2408448)
I0403 14:32:35.514075 13379 net.cpp:156] Memory required for data: 896545824
I0403 14:32:35.514091 13379 layer_factory.hpp:77] Creating layer inception_4a/output_inception_4a/output_0_split
I0403 14:32:35.514107 13379 net.cpp:91] Creating Layer inception_4a/output_inception_4a/output_0_split
I0403 14:32:35.514123 13379 net.cpp:425] inception_4a/output_inception_4a/output_0_split <- inception_4a/output
I0403 14:32:35.514140 13379 net.cpp:399] inception_4a/output_inception_4a/output_0_split -> inception_4a/output_inception_4a/output_0_split_0
I0403 14:32:35.514163 13379 net.cpp:399] inception_4a/output_inception_4a/output_0_split -> inception_4a/output_inception_4a/output_0_split_1
I0403 14:32:35.514185 13379 net.cpp:399] inception_4a/output_inception_4a/output_0_split -> inception_4a/output_inception_4a/output_0_split_2
I0403 14:32:35.514207 13379 net.cpp:399] inception_4a/output_inception_4a/output_0_split -> inception_4a/output_inception_4a/output_0_split_3
I0403 14:32:35.514227 13379 net.cpp:399] inception_4a/output_inception_4a/output_0_split -> inception_4a/output_inception_4a/output_0_split_4
I0403 14:32:35.514322 13379 net.cpp:141] Setting up inception_4a/output_inception_4a/output_0_split
I0403 14:32:35.514345 13379 net.cpp:148] Top shape: 24 512 14 14 (2408448)
I0403 14:32:35.514365 13379 net.cpp:148] Top shape: 24 512 14 14 (2408448)
I0403 14:32:35.514382 13379 net.cpp:148] Top shape: 24 512 14 14 (2408448)
I0403 14:32:35.514397 13379 net.cpp:148] Top shape: 24 512 14 14 (2408448)
I0403 14:32:35.514413 13379 net.cpp:148] Top shape: 24 512 14 14 (2408448)
I0403 14:32:35.514426 13379 net.cpp:156] Memory required for data: 944714784
I0403 14:32:35.514441 13379 layer_factory.hpp:77] Creating layer loss1/ave_pool
I0403 14:32:35.514459 13379 net.cpp:91] Creating Layer loss1/ave_pool
I0403 14:32:35.514475 13379 net.cpp:425] loss1/ave_pool <- inception_4a/output_inception_4a/output_0_split_0
I0403 14:32:35.514492 13379 net.cpp:399] loss1/ave_pool -> loss1/ave_pool
I0403 14:32:35.514724 13379 net.cpp:141] Setting up loss1/ave_pool
I0403 14:32:35.514751 13379 net.cpp:148] Top shape: 24 512 4 4 (196608)
I0403 14:32:35.514766 13379 net.cpp:156] Memory required for data: 945501216
I0403 14:32:35.514780 13379 layer_factory.hpp:77] Creating layer loss1/conv
I0403 14:32:35.514803 13379 net.cpp:91] Creating Layer loss1/conv
I0403 14:32:35.514822 13379 net.cpp:425] loss1/conv <- loss1/ave_pool
I0403 14:32:35.514842 13379 net.cpp:399] loss1/conv -> loss1/conv
I0403 14:32:35.516324 13379 net.cpp:141] Setting up loss1/conv
I0403 14:32:35.516355 13379 net.cpp:148] Top shape: 24 128 4 4 (49152)
I0403 14:32:35.516386 13379 net.cpp:156] Memory required for data: 945697824
I0403 14:32:35.516407 13379 layer_factory.hpp:77] Creating layer loss1/relu_conv
I0403 14:32:35.516429 13379 net.cpp:91] Creating Layer loss1/relu_conv
I0403 14:32:35.516448 13379 net.cpp:425] loss1/relu_conv <- loss1/conv
I0403 14:32:35.516477 13379 net.cpp:386] loss1/relu_conv -> loss1/conv (in-place)
I0403 14:32:35.516777 13379 net.cpp:141] Setting up loss1/relu_conv
I0403 14:32:35.516814 13379 net.cpp:148] Top shape: 24 128 4 4 (49152)
I0403 14:32:35.516829 13379 net.cpp:156] Memory required for data: 945894432
I0403 14:32:35.516844 13379 layer_factory.hpp:77] Creating layer loss1/fc
I0403 14:32:35.516870 13379 net.cpp:91] Creating Layer loss1/fc
I0403 14:32:35.516887 13379 net.cpp:425] loss1/fc <- loss1/conv
I0403 14:32:35.516906 13379 net.cpp:399] loss1/fc -> loss1/fc
I0403 14:32:35.534227 13379 net.cpp:141] Setting up loss1/fc
I0403 14:32:35.534260 13379 net.cpp:148] Top shape: 24 1024 (24576)
I0403 14:32:35.534276 13379 net.cpp:156] Memory required for data: 945992736
I0403 14:32:35.534293 13379 layer_factory.hpp:77] Creating layer loss1/relu_fc
I0403 14:32:35.534312 13379 net.cpp:91] Creating Layer loss1/relu_fc
I0403 14:32:35.534327 13379 net.cpp:425] loss1/relu_fc <- loss1/fc
I0403 14:32:35.534346 13379 net.cpp:386] loss1/relu_fc -> loss1/fc (in-place)
I0403 14:32:35.534534 13379 net.cpp:141] Setting up loss1/relu_fc
I0403 14:32:35.534566 13379 net.cpp:148] Top shape: 24 1024 (24576)
I0403 14:32:35.534581 13379 net.cpp:156] Memory required for data: 946091040
I0403 14:32:35.534595 13379 layer_factory.hpp:77] Creating layer loss1/drop_fc
I0403 14:32:35.534623 13379 net.cpp:91] Creating Layer loss1/drop_fc
I0403 14:32:35.534641 13379 net.cpp:425] loss1/drop_fc <- loss1/fc
I0403 14:32:35.534658 13379 net.cpp:386] loss1/drop_fc -> loss1/fc (in-place)
I0403 14:32:35.534708 13379 net.cpp:141] Setting up loss1/drop_fc
I0403 14:32:35.534732 13379 net.cpp:148] Top shape: 24 1024 (24576)
I0403 14:32:35.534749 13379 net.cpp:156] Memory required for data: 946189344
I0403 14:32:35.534762 13379 layer_factory.hpp:77] Creating layer loss1/classifier_plantvillage
I0403 14:32:35.534780 13379 net.cpp:91] Creating Layer loss1/classifier_plantvillage
I0403 14:32:35.534795 13379 net.cpp:425] loss1/classifier_plantvillage <- loss1/fc
I0403 14:32:35.534814 13379 net.cpp:399] loss1/classifier_plantvillage -> loss1/classifier_plantvillage
I0403 14:32:35.535704 13379 net.cpp:141] Setting up loss1/classifier_plantvillage
I0403 14:32:35.535732 13379 net.cpp:148] Top shape: 24 38 (912)
I0403 14:32:35.535747 13379 net.cpp:156] Memory required for data: 946192992
I0403 14:32:35.535763 13379 layer_factory.hpp:77] Creating layer loss1/classifier_plantvillage_loss1/classifier_plantvillage_0_split
I0403 14:32:35.535784 13379 net.cpp:91] Creating Layer loss1/classifier_plantvillage_loss1/classifier_plantvillage_0_split
I0403 14:32:35.535800 13379 net.cpp:425] loss1/classifier_plantvillage_loss1/classifier_plantvillage_0_split <- loss1/classifier_plantvillage
I0403 14:32:35.535817 13379 net.cpp:399] loss1/classifier_plantvillage_loss1/classifier_plantvillage_0_split -> loss1/classifier_plantvillage_loss1/classifier_plantvillage_0_split_0
I0403 14:32:35.535837 13379 net.cpp:399] loss1/classifier_plantvillage_loss1/classifier_plantvillage_0_split -> loss1/classifier_plantvillage_loss1/classifier_plantvillage_0_split_1
I0403 14:32:35.535856 13379 net.cpp:399] loss1/classifier_plantvillage_loss1/classifier_plantvillage_0_split -> loss1/classifier_plantvillage_loss1/classifier_plantvillage_0_split_2
I0403 14:32:35.535922 13379 net.cpp:141] Setting up loss1/classifier_plantvillage_loss1/classifier_plantvillage_0_split
I0403 14:32:35.535944 13379 net.cpp:148] Top shape: 24 38 (912)
I0403 14:32:35.535961 13379 net.cpp:148] Top shape: 24 38 (912)
I0403 14:32:35.535977 13379 net.cpp:148] Top shape: 24 38 (912)
I0403 14:32:35.535990 13379 net.cpp:156] Memory required for data: 946203936
I0403 14:32:35.536005 13379 layer_factory.hpp:77] Creating layer inception_4b/1x1
I0403 14:32:35.536023 13379 net.cpp:91] Creating Layer inception_4b/1x1
I0403 14:32:35.536058 13379 net.cpp:425] inception_4b/1x1 <- inception_4a/output_inception_4a/output_0_split_1
I0403 14:32:35.536080 13379 net.cpp:399] inception_4b/1x1 -> inception_4b/1x1
I0403 14:32:35.537709 13379 net.cpp:141] Setting up inception_4b/1x1
I0403 14:32:35.537736 13379 net.cpp:148] Top shape: 24 160 14 14 (752640)
I0403 14:32:35.537752 13379 net.cpp:156] Memory required for data: 949214496
I0403 14:32:35.537770 13379 layer_factory.hpp:77] Creating layer inception_4b/relu_1x1
I0403 14:32:35.537789 13379 net.cpp:91] Creating Layer inception_4b/relu_1x1
I0403 14:32:35.537806 13379 net.cpp:425] inception_4b/relu_1x1 <- inception_4b/1x1
I0403 14:32:35.537822 13379 net.cpp:386] inception_4b/relu_1x1 -> inception_4b/1x1 (in-place)
I0403 14:32:35.538003 13379 net.cpp:141] Setting up inception_4b/relu_1x1
I0403 14:32:35.538029 13379 net.cpp:148] Top shape: 24 160 14 14 (752640)
I0403 14:32:35.538044 13379 net.cpp:156] Memory required for data: 952225056
I0403 14:32:35.538058 13379 layer_factory.hpp:77] Creating layer inception_4b/3x3_reduce
I0403 14:32:35.538080 13379 net.cpp:91] Creating Layer inception_4b/3x3_reduce
I0403 14:32:35.538097 13379 net.cpp:425] inception_4b/3x3_reduce <- inception_4a/output_inception_4a/output_0_split_2
I0403 14:32:35.538115 13379 net.cpp:399] inception_4b/3x3_reduce -> inception_4b/3x3_reduce
I0403 14:32:35.539460 13379 net.cpp:141] Setting up inception_4b/3x3_reduce
I0403 14:32:35.539489 13379 net.cpp:148] Top shape: 24 112 14 14 (526848)
I0403 14:32:35.539505 13379 net.cpp:156] Memory required for data: 954332448
I0403 14:32:35.539522 13379 layer_factory.hpp:77] Creating layer inception_4b/relu_3x3_reduce
I0403 14:32:35.539544 13379 net.cpp:91] Creating Layer inception_4b/relu_3x3_reduce
I0403 14:32:35.539561 13379 net.cpp:425] inception_4b/relu_3x3_reduce <- inception_4b/3x3_reduce
I0403 14:32:35.539580 13379 net.cpp:386] inception_4b/relu_3x3_reduce -> inception_4b/3x3_reduce (in-place)
I0403 14:32:35.539855 13379 net.cpp:141] Setting up inception_4b/relu_3x3_reduce
I0403 14:32:35.539882 13379 net.cpp:148] Top shape: 24 112 14 14 (526848)
I0403 14:32:35.539898 13379 net.cpp:156] Memory required for data: 956439840
I0403 14:32:35.539912 13379 layer_factory.hpp:77] Creating layer inception_4b/3x3
I0403 14:32:35.539933 13379 net.cpp:91] Creating Layer inception_4b/3x3
I0403 14:32:35.539952 13379 net.cpp:425] inception_4b/3x3 <- inception_4b/3x3_reduce
I0403 14:32:35.539969 13379 net.cpp:399] inception_4b/3x3 -> inception_4b/3x3
I0403 14:32:35.542865 13379 net.cpp:141] Setting up inception_4b/3x3
I0403 14:32:35.542893 13379 net.cpp:148] Top shape: 24 224 14 14 (1053696)
I0403 14:32:35.542908 13379 net.cpp:156] Memory required for data: 960654624
I0403 14:32:35.542927 13379 layer_factory.hpp:77] Creating layer inception_4b/relu_3x3
I0403 14:32:35.542946 13379 net.cpp:91] Creating Layer inception_4b/relu_3x3
I0403 14:32:35.542963 13379 net.cpp:425] inception_4b/relu_3x3 <- inception_4b/3x3
I0403 14:32:35.542979 13379 net.cpp:386] inception_4b/relu_3x3 -> inception_4b/3x3 (in-place)
I0403 14:32:35.543157 13379 net.cpp:141] Setting up inception_4b/relu_3x3
I0403 14:32:35.543180 13379 net.cpp:148] Top shape: 24 224 14 14 (1053696)
I0403 14:32:35.543195 13379 net.cpp:156] Memory required for data: 964869408
I0403 14:32:35.543208 13379 layer_factory.hpp:77] Creating layer inception_4b/5x5_reduce
I0403 14:32:35.543229 13379 net.cpp:91] Creating Layer inception_4b/5x5_reduce
I0403 14:32:35.543249 13379 net.cpp:425] inception_4b/5x5_reduce <- inception_4a/output_inception_4a/output_0_split_3
I0403 14:32:35.543269 13379 net.cpp:399] inception_4b/5x5_reduce -> inception_4b/5x5_reduce
I0403 14:32:35.544334 13379 net.cpp:141] Setting up inception_4b/5x5_reduce
I0403 14:32:35.544361 13379 net.cpp:148] Top shape: 24 24 14 14 (112896)
I0403 14:32:35.544376 13379 net.cpp:156] Memory required for data: 965320992
I0403 14:32:35.544394 13379 layer_factory.hpp:77] Creating layer inception_4b/relu_5x5_reduce
I0403 14:32:35.544414 13379 net.cpp:91] Creating Layer inception_4b/relu_5x5_reduce
I0403 14:32:35.544443 13379 net.cpp:425] inception_4b/relu_5x5_reduce <- inception_4b/5x5_reduce
I0403 14:32:35.544461 13379 net.cpp:386] inception_4b/relu_5x5_reduce -> inception_4b/5x5_reduce (in-place)
I0403 14:32:35.544654 13379 net.cpp:141] Setting up inception_4b/relu_5x5_reduce
I0403 14:32:35.544678 13379 net.cpp:148] Top shape: 24 24 14 14 (112896)
I0403 14:32:35.544692 13379 net.cpp:156] Memory required for data: 965772576
I0403 14:32:35.544708 13379 layer_factory.hpp:77] Creating layer inception_4b/5x5
I0403 14:32:35.544730 13379 net.cpp:91] Creating Layer inception_4b/5x5
I0403 14:32:35.544747 13379 net.cpp:425] inception_4b/5x5 <- inception_4b/5x5_reduce
I0403 14:32:35.544767 13379 net.cpp:399] inception_4b/5x5 -> inception_4b/5x5
I0403 14:32:35.545997 13379 net.cpp:141] Setting up inception_4b/5x5
I0403 14:32:35.546025 13379 net.cpp:148] Top shape: 24 64 14 14 (301056)
I0403 14:32:35.546041 13379 net.cpp:156] Memory required for data: 966976800
I0403 14:32:35.546059 13379 layer_factory.hpp:77] Creating layer inception_4b/relu_5x5
I0403 14:32:35.546078 13379 net.cpp:91] Creating Layer inception_4b/relu_5x5
I0403 14:32:35.546095 13379 net.cpp:425] inception_4b/relu_5x5 <- inception_4b/5x5
I0403 14:32:35.546113 13379 net.cpp:386] inception_4b/relu_5x5 -> inception_4b/5x5 (in-place)
I0403 14:32:35.546406 13379 net.cpp:141] Setting up inception_4b/relu_5x5
I0403 14:32:35.546432 13379 net.cpp:148] Top shape: 24 64 14 14 (301056)
I0403 14:32:35.546447 13379 net.cpp:156] Memory required for data: 968181024
I0403 14:32:35.546463 13379 layer_factory.hpp:77] Creating layer inception_4b/pool
I0403 14:32:35.546483 13379 net.cpp:91] Creating Layer inception_4b/pool
I0403 14:32:35.546500 13379 net.cpp:425] inception_4b/pool <- inception_4a/output_inception_4a/output_0_split_4
I0403 14:32:35.546519 13379 net.cpp:399] inception_4b/pool -> inception_4b/pool
I0403 14:32:35.546587 13379 net.cpp:141] Setting up inception_4b/pool
I0403 14:32:35.546612 13379 net.cpp:148] Top shape: 24 512 14 14 (2408448)
I0403 14:32:35.546625 13379 net.cpp:156] Memory required for data: 977814816
I0403 14:32:35.546640 13379 layer_factory.hpp:77] Creating layer inception_4b/pool_proj
I0403 14:32:35.546661 13379 net.cpp:91] Creating Layer inception_4b/pool_proj
I0403 14:32:35.546679 13379 net.cpp:425] inception_4b/pool_proj <- inception_4b/pool
I0403 14:32:35.546700 13379 net.cpp:399] inception_4b/pool_proj -> inception_4b/pool_proj
I0403 14:32:35.547919 13379 net.cpp:141] Setting up inception_4b/pool_proj
I0403 14:32:35.547950 13379 net.cpp:148] Top shape: 24 64 14 14 (301056)
I0403 14:32:35.547966 13379 net.cpp:156] Memory required for data: 979019040
I0403 14:32:35.547984 13379 layer_factory.hpp:77] Creating layer inception_4b/relu_pool_proj
I0403 14:32:35.548002 13379 net.cpp:91] Creating Layer inception_4b/relu_pool_proj
I0403 14:32:35.548019 13379 net.cpp:425] inception_4b/relu_pool_proj <- inception_4b/pool_proj
I0403 14:32:35.548037 13379 net.cpp:386] inception_4b/relu_pool_proj -> inception_4b/pool_proj (in-place)
I0403 14:32:35.548218 13379 net.cpp:141] Setting up inception_4b/relu_pool_proj
I0403 14:32:35.548243 13379 net.cpp:148] Top shape: 24 64 14 14 (301056)
I0403 14:32:35.548260 13379 net.cpp:156] Memory required for data: 980223264
I0403 14:32:35.548275 13379 layer_factory.hpp:77] Creating layer inception_4b/output
I0403 14:32:35.548292 13379 net.cpp:91] Creating Layer inception_4b/output
I0403 14:32:35.548307 13379 net.cpp:425] inception_4b/output <- inception_4b/1x1
I0403 14:32:35.548323 13379 net.cpp:425] inception_4b/output <- inception_4b/3x3
I0403 14:32:35.548338 13379 net.cpp:425] inception_4b/output <- inception_4b/5x5
I0403 14:32:35.548354 13379 net.cpp:425] inception_4b/output <- inception_4b/pool_proj
I0403 14:32:35.548373 13379 net.cpp:399] inception_4b/output -> inception_4b/output
I0403 14:32:35.548418 13379 net.cpp:141] Setting up inception_4b/output
I0403 14:32:35.548440 13379 net.cpp:148] Top shape: 24 512 14 14 (2408448)
I0403 14:32:35.548455 13379 net.cpp:156] Memory required for data: 989857056
I0403 14:32:35.548485 13379 layer_factory.hpp:77] Creating layer inception_4b/output_inception_4b/output_0_split
I0403 14:32:35.548504 13379 net.cpp:91] Creating Layer inception_4b/output_inception_4b/output_0_split
I0403 14:32:35.548521 13379 net.cpp:425] inception_4b/output_inception_4b/output_0_split <- inception_4b/output
I0403 14:32:35.548542 13379 net.cpp:399] inception_4b/output_inception_4b/output_0_split -> inception_4b/output_inception_4b/output_0_split_0
I0403 14:32:35.548564 13379 net.cpp:399] inception_4b/output_inception_4b/output_0_split -> inception_4b/output_inception_4b/output_0_split_1
I0403 14:32:35.548588 13379 net.cpp:399] inception_4b/output_inception_4b/output_0_split -> inception_4b/output_inception_4b/output_0_split_2
I0403 14:32:35.548609 13379 net.cpp:399] inception_4b/output_inception_4b/output_0_split -> inception_4b/output_inception_4b/output_0_split_3
I0403 14:32:35.548692 13379 net.cpp:141] Setting up inception_4b/output_inception_4b/output_0_split
I0403 14:32:35.548715 13379 net.cpp:148] Top shape: 24 512 14 14 (2408448)
I0403 14:32:35.548732 13379 net.cpp:148] Top shape: 24 512 14 14 (2408448)
I0403 14:32:35.548748 13379 net.cpp:148] Top shape: 24 512 14 14 (2408448)
I0403 14:32:35.548763 13379 net.cpp:148] Top shape: 24 512 14 14 (2408448)
I0403 14:32:35.548775 13379 net.cpp:156] Memory required for data: 1028392224
I0403 14:32:35.548789 13379 layer_factory.hpp:77] Creating layer inception_4c/1x1
I0403 14:32:35.548811 13379 net.cpp:91] Creating Layer inception_4c/1x1
I0403 14:32:35.548830 13379 net.cpp:425] inception_4c/1x1 <- inception_4b/output_inception_4b/output_0_split_0
I0403 14:32:35.548849 13379 net.cpp:399] inception_4c/1x1 -> inception_4c/1x1
I0403 14:32:35.550289 13379 net.cpp:141] Setting up inception_4c/1x1
I0403 14:32:35.550318 13379 net.cpp:148] Top shape: 24 128 14 14 (602112)
I0403 14:32:35.550333 13379 net.cpp:156] Memory required for data: 1030800672
I0403 14:32:35.550351 13379 layer_factory.hpp:77] Creating layer inception_4c/relu_1x1
I0403 14:32:35.550369 13379 net.cpp:91] Creating Layer inception_4c/relu_1x1
I0403 14:32:35.550384 13379 net.cpp:425] inception_4c/relu_1x1 <- inception_4c/1x1
I0403 14:32:35.550405 13379 net.cpp:386] inception_4c/relu_1x1 -> inception_4c/1x1 (in-place)
I0403 14:32:35.550592 13379 net.cpp:141] Setting up inception_4c/relu_1x1
I0403 14:32:35.550616 13379 net.cpp:148] Top shape: 24 128 14 14 (602112)
I0403 14:32:35.550631 13379 net.cpp:156] Memory required for data: 1033209120
I0403 14:32:35.550645 13379 layer_factory.hpp:77] Creating layer inception_4c/3x3_reduce
I0403 14:32:35.550668 13379 net.cpp:91] Creating Layer inception_4c/3x3_reduce
I0403 14:32:35.550685 13379 net.cpp:425] inception_4c/3x3_reduce <- inception_4b/output_inception_4b/output_0_split_1
I0403 14:32:35.550705 13379 net.cpp:399] inception_4c/3x3_reduce -> inception_4c/3x3_reduce
I0403 14:32:35.552670 13379 net.cpp:141] Setting up inception_4c/3x3_reduce
I0403 14:32:35.552698 13379 net.cpp:148] Top shape: 24 128 14 14 (602112)
I0403 14:32:35.552713 13379 net.cpp:156] Memory required for data: 1035617568
I0403 14:32:35.552731 13379 layer_factory.hpp:77] Creating layer inception_4c/relu_3x3_reduce
I0403 14:32:35.552752 13379 net.cpp:91] Creating Layer inception_4c/relu_3x3_reduce
I0403 14:32:35.552769 13379 net.cpp:425] inception_4c/relu_3x3_reduce <- inception_4c/3x3_reduce
I0403 14:32:35.552788 13379 net.cpp:386] inception_4c/relu_3x3_reduce -> inception_4c/3x3_reduce (in-place)
I0403 14:32:35.553073 13379 net.cpp:141] Setting up inception_4c/relu_3x3_reduce
I0403 14:32:35.553099 13379 net.cpp:148] Top shape: 24 128 14 14 (602112)
I0403 14:32:35.553113 13379 net.cpp:156] Memory required for data: 1038026016
I0403 14:32:35.553128 13379 layer_factory.hpp:77] Creating layer inception_4c/3x3
I0403 14:32:35.553151 13379 net.cpp:91] Creating Layer inception_4c/3x3
I0403 14:32:35.553169 13379 net.cpp:425] inception_4c/3x3 <- inception_4c/3x3_reduce
I0403 14:32:35.553191 13379 net.cpp:399] inception_4c/3x3 -> inception_4c/3x3
I0403 14:32:35.556864 13379 net.cpp:141] Setting up inception_4c/3x3
I0403 14:32:35.556905 13379 net.cpp:148] Top shape: 24 256 14 14 (1204224)
I0403 14:32:35.556924 13379 net.cpp:156] Memory required for data: 1042842912
I0403 14:32:35.556957 13379 layer_factory.hpp:77] Creating layer inception_4c/relu_3x3
I0403 14:32:35.556977 13379 net.cpp:91] Creating Layer inception_4c/relu_3x3
I0403 14:32:35.556993 13379 net.cpp:425] inception_4c/relu_3x3 <- inception_4c/3x3
I0403 14:32:35.557010 13379 net.cpp:386] inception_4c/relu_3x3 -> inception_4c/3x3 (in-place)
I0403 14:32:35.557196 13379 net.cpp:141] Setting up inception_4c/relu_3x3
I0403 14:32:35.557221 13379 net.cpp:148] Top shape: 24 256 14 14 (1204224)
I0403 14:32:35.557235 13379 net.cpp:156] Memory required for data: 1047659808
I0403 14:32:35.557250 13379 layer_factory.hpp:77] Creating layer inception_4c/5x5_reduce
I0403 14:32:35.557277 13379 net.cpp:91] Creating Layer inception_4c/5x5_reduce
I0403 14:32:35.557294 13379 net.cpp:425] inception_4c/5x5_reduce <- inception_4b/output_inception_4b/output_0_split_2
I0403 14:32:35.557315 13379 net.cpp:399] inception_4c/5x5_reduce -> inception_4c/5x5_reduce
I0403 14:32:35.558411 13379 net.cpp:141] Setting up inception_4c/5x5_reduce
I0403 14:32:35.558439 13379 net.cpp:148] Top shape: 24 24 14 14 (112896)
I0403 14:32:35.558455 13379 net.cpp:156] Memory required for data: 1048111392
I0403 14:32:35.558473 13379 layer_factory.hpp:77] Creating layer inception_4c/relu_5x5_reduce
I0403 14:32:35.558493 13379 net.cpp:91] Creating Layer inception_4c/relu_5x5_reduce
I0403 14:32:35.558511 13379 net.cpp:425] inception_4c/relu_5x5_reduce <- inception_4c/5x5_reduce
I0403 14:32:35.558528 13379 net.cpp:386] inception_4c/relu_5x5_reduce -> inception_4c/5x5_reduce (in-place)
I0403 14:32:35.558722 13379 net.cpp:141] Setting up inception_4c/relu_5x5_reduce
I0403 14:32:35.558747 13379 net.cpp:148] Top shape: 24 24 14 14 (112896)
I0403 14:32:35.558760 13379 net.cpp:156] Memory required for data: 1048562976
I0403 14:32:35.558775 13379 layer_factory.hpp:77] Creating layer inception_4c/5x5
I0403 14:32:35.558797 13379 net.cpp:91] Creating Layer inception_4c/5x5
I0403 14:32:35.558815 13379 net.cpp:425] inception_4c/5x5 <- inception_4c/5x5_reduce
I0403 14:32:35.558835 13379 net.cpp:399] inception_4c/5x5 -> inception_4c/5x5
I0403 14:32:35.560094 13379 net.cpp:141] Setting up inception_4c/5x5
I0403 14:32:35.560124 13379 net.cpp:148] Top shape: 24 64 14 14 (301056)
I0403 14:32:35.560140 13379 net.cpp:156] Memory required for data: 1049767200
I0403 14:32:35.560159 13379 layer_factory.hpp:77] Creating layer inception_4c/relu_5x5
I0403 14:32:35.560176 13379 net.cpp:91] Creating Layer inception_4c/relu_5x5
I0403 14:32:35.560192 13379 net.cpp:425] inception_4c/relu_5x5 <- inception_4c/5x5
I0403 14:32:35.560211 13379 net.cpp:386] inception_4c/relu_5x5 -> inception_4c/5x5 (in-place)
I0403 14:32:35.560504 13379 net.cpp:141] Setting up inception_4c/relu_5x5
I0403 14:32:35.560534 13379 net.cpp:148] Top shape: 24 64 14 14 (301056)
I0403 14:32:35.560554 13379 net.cpp:156] Memory required for data: 1050971424
I0403 14:32:35.560569 13379 layer_factory.hpp:77] Creating layer inception_4c/pool
I0403 14:32:35.560585 13379 net.cpp:91] Creating Layer inception_4c/pool
I0403 14:32:35.560602 13379 net.cpp:425] inception_4c/pool <- inception_4b/output_inception_4b/output_0_split_3
I0403 14:32:35.560622 13379 net.cpp:399] inception_4c/pool -> inception_4c/pool
I0403 14:32:35.560691 13379 net.cpp:141] Setting up inception_4c/pool
I0403 14:32:35.560717 13379 net.cpp:148] Top shape: 24 512 14 14 (2408448)
I0403 14:32:35.560732 13379 net.cpp:156] Memory required for data: 1060605216
I0403 14:32:35.560747 13379 layer_factory.hpp:77] Creating layer inception_4c/pool_proj
I0403 14:32:35.560770 13379 net.cpp:91] Creating Layer inception_4c/pool_proj
I0403 14:32:35.560787 13379 net.cpp:425] inception_4c/pool_proj <- inception_4c/pool
I0403 14:32:35.560806 13379 net.cpp:399] inception_4c/pool_proj -> inception_4c/pool_proj
I0403 14:32:35.562042 13379 net.cpp:141] Setting up inception_4c/pool_proj
I0403 14:32:35.562070 13379 net.cpp:148] Top shape: 24 64 14 14 (301056)
I0403 14:32:35.562103 13379 net.cpp:156] Memory required for data: 1061809440
I0403 14:32:35.562124 13379 layer_factory.hpp:77] Creating layer inception_4c/relu_pool_proj
I0403 14:32:35.562141 13379 net.cpp:91] Creating Layer inception_4c/relu_pool_proj
I0403 14:32:35.562157 13379 net.cpp:425] inception_4c/relu_pool_proj <- inception_4c/pool_proj
I0403 14:32:35.562175 13379 net.cpp:386] inception_4c/relu_pool_proj -> inception_4c/pool_proj (in-place)
I0403 14:32:35.562358 13379 net.cpp:141] Setting up inception_4c/relu_pool_proj
I0403 14:32:35.562386 13379 net.cpp:148] Top shape: 24 64 14 14 (301056)
I0403 14:32:35.562400 13379 net.cpp:156] Memory required for data: 1063013664
I0403 14:32:35.562415 13379 layer_factory.hpp:77] Creating layer inception_4c/output
I0403 14:32:35.562433 13379 net.cpp:91] Creating Layer inception_4c/output
I0403 14:32:35.562448 13379 net.cpp:425] inception_4c/output <- inception_4c/1x1
I0403 14:32:35.562465 13379 net.cpp:425] inception_4c/output <- inception_4c/3x3
I0403 14:32:35.562481 13379 net.cpp:425] inception_4c/output <- inception_4c/5x5
I0403 14:32:35.562497 13379 net.cpp:425] inception_4c/output <- inception_4c/pool_proj
I0403 14:32:35.562517 13379 net.cpp:399] inception_4c/output -> inception_4c/output
I0403 14:32:35.562566 13379 net.cpp:141] Setting up inception_4c/output
I0403 14:32:35.562590 13379 net.cpp:148] Top shape: 24 512 14 14 (2408448)
I0403 14:32:35.562604 13379 net.cpp:156] Memory required for data: 1072647456
I0403 14:32:35.562619 13379 layer_factory.hpp:77] Creating layer inception_4c/output_inception_4c/output_0_split
I0403 14:32:35.562638 13379 net.cpp:91] Creating Layer inception_4c/output_inception_4c/output_0_split
I0403 14:32:35.562656 13379 net.cpp:425] inception_4c/output_inception_4c/output_0_split <- inception_4c/output
I0403 14:32:35.562674 13379 net.cpp:399] inception_4c/output_inception_4c/output_0_split -> inception_4c/output_inception_4c/output_0_split_0
I0403 14:32:35.562695 13379 net.cpp:399] inception_4c/output_inception_4c/output_0_split -> inception_4c/output_inception_4c/output_0_split_1
I0403 14:32:35.562719 13379 net.cpp:399] inception_4c/output_inception_4c/output_0_split -> inception_4c/output_inception_4c/output_0_split_2
I0403 14:32:35.562739 13379 net.cpp:399] inception_4c/output_inception_4c/output_0_split -> inception_4c/output_inception_4c/output_0_split_3
I0403 14:32:35.562825 13379 net.cpp:141] Setting up inception_4c/output_inception_4c/output_0_split
I0403 14:32:35.562849 13379 net.cpp:148] Top shape: 24 512 14 14 (2408448)
I0403 14:32:35.562867 13379 net.cpp:148] Top shape: 24 512 14 14 (2408448)
I0403 14:32:35.562883 13379 net.cpp:148] Top shape: 24 512 14 14 (2408448)
I0403 14:32:35.562898 13379 net.cpp:148] Top shape: 24 512 14 14 (2408448)
I0403 14:32:35.562913 13379 net.cpp:156] Memory required for data: 1111182624
I0403 14:32:35.562927 13379 layer_factory.hpp:77] Creating layer inception_4d/1x1
I0403 14:32:35.562952 13379 net.cpp:91] Creating Layer inception_4d/1x1
I0403 14:32:35.562970 13379 net.cpp:425] inception_4d/1x1 <- inception_4c/output_inception_4c/output_0_split_0
I0403 14:32:35.562991 13379 net.cpp:399] inception_4d/1x1 -> inception_4d/1x1
I0403 14:32:35.564420 13379 net.cpp:141] Setting up inception_4d/1x1
I0403 14:32:35.564447 13379 net.cpp:148] Top shape: 24 112 14 14 (526848)
I0403 14:32:35.564462 13379 net.cpp:156] Memory required for data: 1113290016
I0403 14:32:35.564481 13379 layer_factory.hpp:77] Creating layer inception_4d/relu_1x1
I0403 14:32:35.564507 13379 net.cpp:91] Creating Layer inception_4d/relu_1x1
I0403 14:32:35.564524 13379 net.cpp:425] inception_4d/relu_1x1 <- inception_4d/1x1
I0403 14:32:35.564551 13379 net.cpp:386] inception_4d/relu_1x1 -> inception_4d/1x1 (in-place)
I0403 14:32:35.564733 13379 net.cpp:141] Setting up inception_4d/relu_1x1
I0403 14:32:35.564757 13379 net.cpp:148] Top shape: 24 112 14 14 (526848)
I0403 14:32:35.564772 13379 net.cpp:156] Memory required for data: 1115397408
I0403 14:32:35.564786 13379 layer_factory.hpp:77] Creating layer inception_4d/3x3_reduce
I0403 14:32:35.564826 13379 net.cpp:91] Creating Layer inception_4d/3x3_reduce
I0403 14:32:35.564844 13379 net.cpp:425] inception_4d/3x3_reduce <- inception_4c/output_inception_4c/output_0_split_1
I0403 14:32:35.564863 13379 net.cpp:399] inception_4d/3x3_reduce -> inception_4d/3x3_reduce
I0403 14:32:35.566385 13379 net.cpp:141] Setting up inception_4d/3x3_reduce
I0403 14:32:35.566413 13379 net.cpp:148] Top shape: 24 144 14 14 (677376)
I0403 14:32:35.566429 13379 net.cpp:156] Memory required for data: 1118106912
I0403 14:32:35.566447 13379 layer_factory.hpp:77] Creating layer inception_4d/relu_3x3_reduce
I0403 14:32:35.566465 13379 net.cpp:91] Creating Layer inception_4d/relu_3x3_reduce
I0403 14:32:35.566483 13379 net.cpp:425] inception_4d/relu_3x3_reduce <- inception_4d/3x3_reduce
I0403 14:32:35.566501 13379 net.cpp:386] inception_4d/relu_3x3_reduce -> inception_4d/3x3_reduce (in-place)
I0403 14:32:35.566797 13379 net.cpp:141] Setting up inception_4d/relu_3x3_reduce
I0403 14:32:35.566823 13379 net.cpp:148] Top shape: 24 144 14 14 (677376)
I0403 14:32:35.566838 13379 net.cpp:156] Memory required for data: 1120816416
I0403 14:32:35.566854 13379 layer_factory.hpp:77] Creating layer inception_4d/3x3
I0403 14:32:35.566875 13379 net.cpp:91] Creating Layer inception_4d/3x3
I0403 14:32:35.566893 13379 net.cpp:425] inception_4d/3x3 <- inception_4d/3x3_reduce
I0403 14:32:35.566915 13379 net.cpp:399] inception_4d/3x3 -> inception_4d/3x3
I0403 14:32:35.571250 13379 net.cpp:141] Setting up inception_4d/3x3
I0403 14:32:35.571280 13379 net.cpp:148] Top shape: 24 288 14 14 (1354752)
I0403 14:32:35.571296 13379 net.cpp:156] Memory required for data: 1126235424
I0403 14:32:35.571315 13379 layer_factory.hpp:77] Creating layer inception_4d/relu_3x3
I0403 14:32:35.571334 13379 net.cpp:91] Creating Layer inception_4d/relu_3x3
I0403 14:32:35.571352 13379 net.cpp:425] inception_4d/relu_3x3 <- inception_4d/3x3
I0403 14:32:35.571369 13379 net.cpp:386] inception_4d/relu_3x3 -> inception_4d/3x3 (in-place)
I0403 14:32:35.571557 13379 net.cpp:141] Setting up inception_4d/relu_3x3
I0403 14:32:35.571585 13379 net.cpp:148] Top shape: 24 288 14 14 (1354752)
I0403 14:32:35.571601 13379 net.cpp:156] Memory required for data: 1131654432
I0403 14:32:35.571616 13379 layer_factory.hpp:77] Creating layer inception_4d/5x5_reduce
I0403 14:32:35.571638 13379 net.cpp:91] Creating Layer inception_4d/5x5_reduce
I0403 14:32:35.571656 13379 net.cpp:425] inception_4d/5x5_reduce <- inception_4c/output_inception_4c/output_0_split_2
I0403 14:32:35.571676 13379 net.cpp:399] inception_4d/5x5_reduce -> inception_4d/5x5_reduce
I0403 14:32:35.572834 13379 net.cpp:141] Setting up inception_4d/5x5_reduce
I0403 14:32:35.572861 13379 net.cpp:148] Top shape: 24 32 14 14 (150528)
I0403 14:32:35.572877 13379 net.cpp:156] Memory required for data: 1132256544
I0403 14:32:35.572896 13379 layer_factory.hpp:77] Creating layer inception_4d/relu_5x5_reduce
I0403 14:32:35.572916 13379 net.cpp:91] Creating Layer inception_4d/relu_5x5_reduce
I0403 14:32:35.572933 13379 net.cpp:425] inception_4d/relu_5x5_reduce <- inception_4d/5x5_reduce
I0403 14:32:35.572950 13379 net.cpp:386] inception_4d/relu_5x5_reduce -> inception_4d/5x5_reduce (in-place)
I0403 14:32:35.573143 13379 net.cpp:141] Setting up inception_4d/relu_5x5_reduce
I0403 14:32:35.573168 13379 net.cpp:148] Top shape: 24 32 14 14 (150528)
I0403 14:32:35.573182 13379 net.cpp:156] Memory required for data: 1132858656
I0403 14:32:35.573197 13379 layer_factory.hpp:77] Creating layer inception_4d/5x5
I0403 14:32:35.573220 13379 net.cpp:91] Creating Layer inception_4d/5x5
I0403 14:32:35.573238 13379 net.cpp:425] inception_4d/5x5 <- inception_4d/5x5_reduce
I0403 14:32:35.573257 13379 net.cpp:399] inception_4d/5x5 -> inception_4d/5x5
I0403 14:32:35.574777 13379 net.cpp:141] Setting up inception_4d/5x5
I0403 14:32:35.574806 13379 net.cpp:148] Top shape: 24 64 14 14 (301056)
I0403 14:32:35.574823 13379 net.cpp:156] Memory required for data: 1134062880
I0403 14:32:35.574842 13379 layer_factory.hpp:77] Creating layer inception_4d/relu_5x5
I0403 14:32:35.574875 13379 net.cpp:91] Creating Layer inception_4d/relu_5x5
I0403 14:32:35.574893 13379 net.cpp:425] inception_4d/relu_5x5 <- inception_4d/5x5
I0403 14:32:35.574913 13379 net.cpp:386] inception_4d/relu_5x5 -> inception_4d/5x5 (in-place)
I0403 14:32:35.575217 13379 net.cpp:141] Setting up inception_4d/relu_5x5
I0403 14:32:35.575244 13379 net.cpp:148] Top shape: 24 64 14 14 (301056)
I0403 14:32:35.575261 13379 net.cpp:156] Memory required for data: 1135267104
I0403 14:32:35.575276 13379 layer_factory.hpp:77] Creating layer inception_4d/pool
I0403 14:32:35.575294 13379 net.cpp:91] Creating Layer inception_4d/pool
I0403 14:32:35.575310 13379 net.cpp:425] inception_4d/pool <- inception_4c/output_inception_4c/output_0_split_3
I0403 14:32:35.575331 13379 net.cpp:399] inception_4d/pool -> inception_4d/pool
I0403 14:32:35.575398 13379 net.cpp:141] Setting up inception_4d/pool
I0403 14:32:35.575423 13379 net.cpp:148] Top shape: 24 512 14 14 (2408448)
I0403 14:32:35.575438 13379 net.cpp:156] Memory required for data: 1144900896
I0403 14:32:35.575451 13379 layer_factory.hpp:77] Creating layer inception_4d/pool_proj
I0403 14:32:35.575474 13379 net.cpp:91] Creating Layer inception_4d/pool_proj
I0403 14:32:35.575491 13379 net.cpp:425] inception_4d/pool_proj <- inception_4d/pool
I0403 14:32:35.575511 13379 net.cpp:399] inception_4d/pool_proj -> inception_4d/pool_proj
I0403 14:32:35.577309 13379 net.cpp:141] Setting up inception_4d/pool_proj
I0403 14:32:35.577337 13379 net.cpp:148] Top shape: 24 64 14 14 (301056)
I0403 14:32:35.577353 13379 net.cpp:156] Memory required for data: 1146105120
I0403 14:32:35.577371 13379 layer_factory.hpp:77] Creating layer inception_4d/relu_pool_proj
I0403 14:32:35.577391 13379 net.cpp:91] Creating Layer inception_4d/relu_pool_proj
I0403 14:32:35.577409 13379 net.cpp:425] inception_4d/relu_pool_proj <- inception_4d/pool_proj
I0403 14:32:35.577425 13379 net.cpp:386] inception_4d/relu_pool_proj -> inception_4d/pool_proj (in-place)
I0403 14:32:35.577622 13379 net.cpp:141] Setting up inception_4d/relu_pool_proj
I0403 14:32:35.577649 13379 net.cpp:148] Top shape: 24 64 14 14 (301056)
I0403 14:32:35.577666 13379 net.cpp:156] Memory required for data: 1147309344
I0403 14:32:35.577680 13379 layer_factory.hpp:77] Creating layer inception_4d/output
I0403 14:32:35.577697 13379 net.cpp:91] Creating Layer inception_4d/output
I0403 14:32:35.577713 13379 net.cpp:425] inception_4d/output <- inception_4d/1x1
I0403 14:32:35.577728 13379 net.cpp:425] inception_4d/output <- inception_4d/3x3
I0403 14:32:35.577745 13379 net.cpp:425] inception_4d/output <- inception_4d/5x5
I0403 14:32:35.577760 13379 net.cpp:425] inception_4d/output <- inception_4d/pool_proj
I0403 14:32:35.577777 13379 net.cpp:399] inception_4d/output -> inception_4d/output
I0403 14:32:35.577826 13379 net.cpp:141] Setting up inception_4d/output
I0403 14:32:35.577849 13379 net.cpp:148] Top shape: 24 528 14 14 (2483712)
I0403 14:32:35.577864 13379 net.cpp:156] Memory required for data: 1157244192
I0403 14:32:35.577879 13379 layer_factory.hpp:77] Creating layer inception_4d/output_inception_4d/output_0_split
I0403 14:32:35.577899 13379 net.cpp:91] Creating Layer inception_4d/output_inception_4d/output_0_split
I0403 14:32:35.577915 13379 net.cpp:425] inception_4d/output_inception_4d/output_0_split <- inception_4d/output
I0403 14:32:35.577934 13379 net.cpp:399] inception_4d/output_inception_4d/output_0_split -> inception_4d/output_inception_4d/output_0_split_0
I0403 14:32:35.577953 13379 net.cpp:399] inception_4d/output_inception_4d/output_0_split -> inception_4d/output_inception_4d/output_0_split_1
I0403 14:32:35.577973 13379 net.cpp:399] inception_4d/output_inception_4d/output_0_split -> inception_4d/output_inception_4d/output_0_split_2
I0403 14:32:35.577993 13379 net.cpp:399] inception_4d/output_inception_4d/output_0_split -> inception_4d/output_inception_4d/output_0_split_3
I0403 14:32:35.578016 13379 net.cpp:399] inception_4d/output_inception_4d/output_0_split -> inception_4d/output_inception_4d/output_0_split_4
I0403 14:32:35.578124 13379 net.cpp:141] Setting up inception_4d/output_inception_4d/output_0_split
I0403 14:32:35.578160 13379 net.cpp:148] Top shape: 24 528 14 14 (2483712)
I0403 14:32:35.578176 13379 net.cpp:148] Top shape: 24 528 14 14 (2483712)
I0403 14:32:35.578191 13379 net.cpp:148] Top shape: 24 528 14 14 (2483712)
I0403 14:32:35.578207 13379 net.cpp:148] Top shape: 24 528 14 14 (2483712)
I0403 14:32:35.578222 13379 net.cpp:148] Top shape: 24 528 14 14 (2483712)
I0403 14:32:35.578235 13379 net.cpp:156] Memory required for data: 1206918432
I0403 14:32:35.578250 13379 layer_factory.hpp:77] Creating layer loss2/ave_pool
I0403 14:32:35.578269 13379 net.cpp:91] Creating Layer loss2/ave_pool
I0403 14:32:35.578289 13379 net.cpp:425] loss2/ave_pool <- inception_4d/output_inception_4d/output_0_split_0
I0403 14:32:35.578307 13379 net.cpp:399] loss2/ave_pool -> loss2/ave_pool
I0403 14:32:35.578624 13379 net.cpp:141] Setting up loss2/ave_pool
I0403 14:32:35.578650 13379 net.cpp:148] Top shape: 24 528 4 4 (202752)
I0403 14:32:35.578665 13379 net.cpp:156] Memory required for data: 1207729440
I0403 14:32:35.578680 13379 layer_factory.hpp:77] Creating layer loss2/conv
I0403 14:32:35.578702 13379 net.cpp:91] Creating Layer loss2/conv
I0403 14:32:35.578721 13379 net.cpp:425] loss2/conv <- loss2/ave_pool
I0403 14:32:35.578742 13379 net.cpp:399] loss2/conv -> loss2/conv
I0403 14:32:35.580747 13379 net.cpp:141] Setting up loss2/conv
I0403 14:32:35.580780 13379 net.cpp:148] Top shape: 24 128 4 4 (49152)
I0403 14:32:35.580797 13379 net.cpp:156] Memory required for data: 1207926048
I0403 14:32:35.580816 13379 layer_factory.hpp:77] Creating layer loss2/relu_conv
I0403 14:32:35.580834 13379 net.cpp:91] Creating Layer loss2/relu_conv
I0403 14:32:35.580852 13379 net.cpp:425] loss2/relu_conv <- loss2/conv
I0403 14:32:35.580868 13379 net.cpp:386] loss2/relu_conv -> loss2/conv (in-place)
I0403 14:32:35.581166 13379 net.cpp:141] Setting up loss2/relu_conv
I0403 14:32:35.581197 13379 net.cpp:148] Top shape: 24 128 4 4 (49152)
I0403 14:32:35.581212 13379 net.cpp:156] Memory required for data: 1208122656
I0403 14:32:35.581228 13379 layer_factory.hpp:77] Creating layer loss2/fc
I0403 14:32:35.581248 13379 net.cpp:91] Creating Layer loss2/fc
I0403 14:32:35.581266 13379 net.cpp:425] loss2/fc <- loss2/conv
I0403 14:32:35.581289 13379 net.cpp:399] loss2/fc -> loss2/fc
I0403 14:32:35.599584 13379 net.cpp:141] Setting up loss2/fc
I0403 14:32:35.599642 13379 net.cpp:148] Top shape: 24 1024 (24576)
I0403 14:32:35.599658 13379 net.cpp:156] Memory required for data: 1208220960
I0403 14:32:35.599678 13379 layer_factory.hpp:77] Creating layer loss2/relu_fc
I0403 14:32:35.599697 13379 net.cpp:91] Creating Layer loss2/relu_fc
I0403 14:32:35.599715 13379 net.cpp:425] loss2/relu_fc <- loss2/fc
I0403 14:32:35.599735 13379 net.cpp:386] loss2/relu_fc -> loss2/fc (in-place)
I0403 14:32:35.600080 13379 net.cpp:141] Setting up loss2/relu_fc
I0403 14:32:35.600106 13379 net.cpp:148] Top shape: 24 1024 (24576)
I0403 14:32:35.600121 13379 net.cpp:156] Memory required for data: 1208319264
I0403 14:32:35.600136 13379 layer_factory.hpp:77] Creating layer loss2/drop_fc
I0403 14:32:35.600157 13379 net.cpp:91] Creating Layer loss2/drop_fc
I0403 14:32:35.600174 13379 net.cpp:425] loss2/drop_fc <- loss2/fc
I0403 14:32:35.600191 13379 net.cpp:386] loss2/drop_fc -> loss2/fc (in-place)
I0403 14:32:35.600244 13379 net.cpp:141] Setting up loss2/drop_fc
I0403 14:32:35.600268 13379 net.cpp:148] Top shape: 24 1024 (24576)
I0403 14:32:35.600282 13379 net.cpp:156] Memory required for data: 1208417568
I0403 14:32:35.600297 13379 layer_factory.hpp:77] Creating layer loss2/classifier_plantvillage
I0403 14:32:35.600318 13379 net.cpp:91] Creating Layer loss2/classifier_plantvillage
I0403 14:32:35.600335 13379 net.cpp:425] loss2/classifier_plantvillage <- loss2/fc
I0403 14:32:35.600353 13379 net.cpp:399] loss2/classifier_plantvillage -> loss2/classifier_plantvillage
I0403 14:32:35.600774 13379 net.cpp:141] Setting up loss2/classifier_plantvillage
I0403 14:32:35.600798 13379 net.cpp:148] Top shape: 24 38 (912)
I0403 14:32:35.600836 13379 net.cpp:156] Memory required for data: 1208421216
I0403 14:32:35.600854 13379 layer_factory.hpp:77] Creating layer loss2/classifier_plantvillage_loss2/classifier_plantvillage_0_split
I0403 14:32:35.600873 13379 net.cpp:91] Creating Layer loss2/classifier_plantvillage_loss2/classifier_plantvillage_0_split
I0403 14:32:35.600889 13379 net.cpp:425] loss2/classifier_plantvillage_loss2/classifier_plantvillage_0_split <- loss2/classifier_plantvillage
I0403 14:32:35.600909 13379 net.cpp:399] loss2/classifier_plantvillage_loss2/classifier_plantvillage_0_split -> loss2/classifier_plantvillage_loss2/classifier_plantvillage_0_split_0
I0403 14:32:35.600931 13379 net.cpp:399] loss2/classifier_plantvillage_loss2/classifier_plantvillage_0_split -> loss2/classifier_plantvillage_loss2/classifier_plantvillage_0_split_1
I0403 14:32:35.600951 13379 net.cpp:399] loss2/classifier_plantvillage_loss2/classifier_plantvillage_0_split -> loss2/classifier_plantvillage_loss2/classifier_plantvillage_0_split_2
I0403 14:32:35.601030 13379 net.cpp:141] Setting up loss2/classifier_plantvillage_loss2/classifier_plantvillage_0_split
I0403 14:32:35.601057 13379 net.cpp:148] Top shape: 24 38 (912)
I0403 14:32:35.601073 13379 net.cpp:148] Top shape: 24 38 (912)
I0403 14:32:35.601089 13379 net.cpp:148] Top shape: 24 38 (912)
I0403 14:32:35.601101 13379 net.cpp:156] Memory required for data: 1208432160
I0403 14:32:35.601115 13379 layer_factory.hpp:77] Creating layer inception_4e/1x1
I0403 14:32:35.601137 13379 net.cpp:91] Creating Layer inception_4e/1x1
I0403 14:32:35.601156 13379 net.cpp:425] inception_4e/1x1 <- inception_4d/output_inception_4d/output_0_split_1
I0403 14:32:35.601174 13379 net.cpp:399] inception_4e/1x1 -> inception_4e/1x1
I0403 14:32:35.603040 13379 net.cpp:141] Setting up inception_4e/1x1
I0403 14:32:35.603070 13379 net.cpp:148] Top shape: 24 256 14 14 (1204224)
I0403 14:32:35.603087 13379 net.cpp:156] Memory required for data: 1213249056
I0403 14:32:35.603106 13379 layer_factory.hpp:77] Creating layer inception_4e/relu_1x1
I0403 14:32:35.603124 13379 net.cpp:91] Creating Layer inception_4e/relu_1x1
I0403 14:32:35.603139 13379 net.cpp:425] inception_4e/relu_1x1 <- inception_4e/1x1
I0403 14:32:35.603158 13379 net.cpp:386] inception_4e/relu_1x1 -> inception_4e/1x1 (in-place)
I0403 14:32:35.603454 13379 net.cpp:141] Setting up inception_4e/relu_1x1
I0403 14:32:35.603482 13379 net.cpp:148] Top shape: 24 256 14 14 (1204224)
I0403 14:32:35.603498 13379 net.cpp:156] Memory required for data: 1218065952
I0403 14:32:35.603514 13379 layer_factory.hpp:77] Creating layer inception_4e/3x3_reduce
I0403 14:32:35.603539 13379 net.cpp:91] Creating Layer inception_4e/3x3_reduce
I0403 14:32:35.603559 13379 net.cpp:425] inception_4e/3x3_reduce <- inception_4d/output_inception_4d/output_0_split_2
I0403 14:32:35.603579 13379 net.cpp:399] inception_4e/3x3_reduce -> inception_4e/3x3_reduce
I0403 14:32:35.605803 13379 net.cpp:141] Setting up inception_4e/3x3_reduce
I0403 14:32:35.605834 13379 net.cpp:148] Top shape: 24 160 14 14 (752640)
I0403 14:32:35.605851 13379 net.cpp:156] Memory required for data: 1221076512
I0403 14:32:35.605870 13379 layer_factory.hpp:77] Creating layer inception_4e/relu_3x3_reduce
I0403 14:32:35.605887 13379 net.cpp:91] Creating Layer inception_4e/relu_3x3_reduce
I0403 14:32:35.605903 13379 net.cpp:425] inception_4e/relu_3x3_reduce <- inception_4e/3x3_reduce
I0403 14:32:35.605921 13379 net.cpp:386] inception_4e/relu_3x3_reduce -> inception_4e/3x3_reduce (in-place)
I0403 14:32:35.606109 13379 net.cpp:141] Setting up inception_4e/relu_3x3_reduce
I0403 14:32:35.606134 13379 net.cpp:148] Top shape: 24 160 14 14 (752640)
I0403 14:32:35.606149 13379 net.cpp:156] Memory required for data: 1224087072
I0403 14:32:35.606164 13379 layer_factory.hpp:77] Creating layer inception_4e/3x3
I0403 14:32:35.606186 13379 net.cpp:91] Creating Layer inception_4e/3x3
I0403 14:32:35.606204 13379 net.cpp:425] inception_4e/3x3 <- inception_4e/3x3_reduce
I0403 14:32:35.606225 13379 net.cpp:399] inception_4e/3x3 -> inception_4e/3x3
I0403 14:32:35.611301 13379 net.cpp:141] Setting up inception_4e/3x3
I0403 14:32:35.611342 13379 net.cpp:148] Top shape: 24 320 14 14 (1505280)
I0403 14:32:35.611358 13379 net.cpp:156] Memory required for data: 1230108192
I0403 14:32:35.611376 13379 layer_factory.hpp:77] Creating layer inception_4e/relu_3x3
I0403 14:32:35.611393 13379 net.cpp:91] Creating Layer inception_4e/relu_3x3
I0403 14:32:35.611409 13379 net.cpp:425] inception_4e/relu_3x3 <- inception_4e/3x3
I0403 14:32:35.611428 13379 net.cpp:386] inception_4e/relu_3x3 -> inception_4e/3x3 (in-place)
I0403 14:32:35.611726 13379 net.cpp:141] Setting up inception_4e/relu_3x3
I0403 14:32:35.611750 13379 net.cpp:148] Top shape: 24 320 14 14 (1505280)
I0403 14:32:35.611765 13379 net.cpp:156] Memory required for data: 1236129312
I0403 14:32:35.611780 13379 layer_factory.hpp:77] Creating layer inception_4e/5x5_reduce
I0403 14:32:35.611801 13379 net.cpp:91] Creating Layer inception_4e/5x5_reduce
I0403 14:32:35.611819 13379 net.cpp:425] inception_4e/5x5_reduce <- inception_4d/output_inception_4d/output_0_split_3
I0403 14:32:35.611840 13379 net.cpp:399] inception_4e/5x5_reduce -> inception_4e/5x5_reduce
I0403 14:32:35.612900 13379 net.cpp:141] Setting up inception_4e/5x5_reduce
I0403 14:32:35.612929 13379 net.cpp:148] Top shape: 24 32 14 14 (150528)
I0403 14:32:35.612946 13379 net.cpp:156] Memory required for data: 1236731424
I0403 14:32:35.612963 13379 layer_factory.hpp:77] Creating layer inception_4e/relu_5x5_reduce
I0403 14:32:35.612982 13379 net.cpp:91] Creating Layer inception_4e/relu_5x5_reduce
I0403 14:32:35.612998 13379 net.cpp:425] inception_4e/relu_5x5_reduce <- inception_4e/5x5_reduce
I0403 14:32:35.613016 13379 net.cpp:386] inception_4e/relu_5x5_reduce -> inception_4e/5x5_reduce (in-place)
I0403 14:32:35.613317 13379 net.cpp:141] Setting up inception_4e/relu_5x5_reduce
I0403 14:32:35.613344 13379 net.cpp:148] Top shape: 24 32 14 14 (150528)
I0403 14:32:35.613373 13379 net.cpp:156] Memory required for data: 1237333536
I0403 14:32:35.613386 13379 layer_factory.hpp:77] Creating layer inception_4e/5x5
I0403 14:32:35.613431 13379 net.cpp:91] Creating Layer inception_4e/5x5
I0403 14:32:35.613451 13379 net.cpp:425] inception_4e/5x5 <- inception_4e/5x5_reduce
I0403 14:32:35.613471 13379 net.cpp:399] inception_4e/5x5 -> inception_4e/5x5
I0403 14:32:35.615317 13379 net.cpp:141] Setting up inception_4e/5x5
I0403 14:32:35.615345 13379 net.cpp:148] Top shape: 24 128 14 14 (602112)
I0403 14:32:35.615360 13379 net.cpp:156] Memory required for data: 1239741984
I0403 14:32:35.615378 13379 layer_factory.hpp:77] Creating layer inception_4e/relu_5x5
I0403 14:32:35.615398 13379 net.cpp:91] Creating Layer inception_4e/relu_5x5
I0403 14:32:35.615416 13379 net.cpp:425] inception_4e/relu_5x5 <- inception_4e/5x5
I0403 14:32:35.615432 13379 net.cpp:386] inception_4e/relu_5x5 -> inception_4e/5x5 (in-place)
I0403 14:32:35.615628 13379 net.cpp:141] Setting up inception_4e/relu_5x5
I0403 14:32:35.615654 13379 net.cpp:148] Top shape: 24 128 14 14 (602112)
I0403 14:32:35.615669 13379 net.cpp:156] Memory required for data: 1242150432
I0403 14:32:35.615684 13379 layer_factory.hpp:77] Creating layer inception_4e/pool
I0403 14:32:35.615702 13379 net.cpp:91] Creating Layer inception_4e/pool
I0403 14:32:35.615717 13379 net.cpp:425] inception_4e/pool <- inception_4d/output_inception_4d/output_0_split_4
I0403 14:32:35.615737 13379 net.cpp:399] inception_4e/pool -> inception_4e/pool
I0403 14:32:35.615808 13379 net.cpp:141] Setting up inception_4e/pool
I0403 14:32:35.615830 13379 net.cpp:148] Top shape: 24 528 14 14 (2483712)
I0403 14:32:35.615844 13379 net.cpp:156] Memory required for data: 1252085280
I0403 14:32:35.615859 13379 layer_factory.hpp:77] Creating layer inception_4e/pool_proj
I0403 14:32:35.615880 13379 net.cpp:91] Creating Layer inception_4e/pool_proj
I0403 14:32:35.615897 13379 net.cpp:425] inception_4e/pool_proj <- inception_4e/pool
I0403 14:32:35.615914 13379 net.cpp:399] inception_4e/pool_proj -> inception_4e/pool_proj
I0403 14:32:35.617409 13379 net.cpp:141] Setting up inception_4e/pool_proj
I0403 14:32:35.617449 13379 net.cpp:148] Top shape: 24 128 14 14 (602112)
I0403 14:32:35.617465 13379 net.cpp:156] Memory required for data: 1254493728
I0403 14:32:35.617483 13379 layer_factory.hpp:77] Creating layer inception_4e/relu_pool_proj
I0403 14:32:35.617504 13379 net.cpp:91] Creating Layer inception_4e/relu_pool_proj
I0403 14:32:35.617522 13379 net.cpp:425] inception_4e/relu_pool_proj <- inception_4e/pool_proj
I0403 14:32:35.617543 13379 net.cpp:386] inception_4e/relu_pool_proj -> inception_4e/pool_proj (in-place)
I0403 14:32:35.617843 13379 net.cpp:141] Setting up inception_4e/relu_pool_proj
I0403 14:32:35.617869 13379 net.cpp:148] Top shape: 24 128 14 14 (602112)
I0403 14:32:35.617884 13379 net.cpp:156] Memory required for data: 1256902176
I0403 14:32:35.617898 13379 layer_factory.hpp:77] Creating layer inception_4e/output
I0403 14:32:35.617915 13379 net.cpp:91] Creating Layer inception_4e/output
I0403 14:32:35.617931 13379 net.cpp:425] inception_4e/output <- inception_4e/1x1
I0403 14:32:35.617954 13379 net.cpp:425] inception_4e/output <- inception_4e/3x3
I0403 14:32:35.617971 13379 net.cpp:425] inception_4e/output <- inception_4e/5x5
I0403 14:32:35.617988 13379 net.cpp:425] inception_4e/output <- inception_4e/pool_proj
I0403 14:32:35.618005 13379 net.cpp:399] inception_4e/output -> inception_4e/output
I0403 14:32:35.618057 13379 net.cpp:141] Setting up inception_4e/output
I0403 14:32:35.618079 13379 net.cpp:148] Top shape: 24 832 14 14 (3913728)
I0403 14:32:35.618094 13379 net.cpp:156] Memory required for data: 1272557088
I0403 14:32:35.618109 13379 layer_factory.hpp:77] Creating layer pool4/3x3_s2
I0403 14:32:35.618126 13379 net.cpp:91] Creating Layer pool4/3x3_s2
I0403 14:32:35.618141 13379 net.cpp:425] pool4/3x3_s2 <- inception_4e/output
I0403 14:32:35.618161 13379 net.cpp:399] pool4/3x3_s2 -> pool4/3x3_s2
I0403 14:32:35.618229 13379 net.cpp:141] Setting up pool4/3x3_s2
I0403 14:32:35.618253 13379 net.cpp:148] Top shape: 24 832 7 7 (978432)
I0403 14:32:35.618268 13379 net.cpp:156] Memory required for data: 1276470816
I0403 14:32:35.618283 13379 layer_factory.hpp:77] Creating layer pool4/3x3_s2_pool4/3x3_s2_0_split
I0403 14:32:35.618304 13379 net.cpp:91] Creating Layer pool4/3x3_s2_pool4/3x3_s2_0_split
I0403 14:32:35.618319 13379 net.cpp:425] pool4/3x3_s2_pool4/3x3_s2_0_split <- pool4/3x3_s2
I0403 14:32:35.618336 13379 net.cpp:399] pool4/3x3_s2_pool4/3x3_s2_0_split -> pool4/3x3_s2_pool4/3x3_s2_0_split_0
I0403 14:32:35.618360 13379 net.cpp:399] pool4/3x3_s2_pool4/3x3_s2_0_split -> pool4/3x3_s2_pool4/3x3_s2_0_split_1
I0403 14:32:35.618381 13379 net.cpp:399] pool4/3x3_s2_pool4/3x3_s2_0_split -> pool4/3x3_s2_pool4/3x3_s2_0_split_2
I0403 14:32:35.618401 13379 net.cpp:399] pool4/3x3_s2_pool4/3x3_s2_0_split -> pool4/3x3_s2_pool4/3x3_s2_0_split_3
I0403 14:32:35.618490 13379 net.cpp:141] Setting up pool4/3x3_s2_pool4/3x3_s2_0_split
I0403 14:32:35.618513 13379 net.cpp:148] Top shape: 24 832 7 7 (978432)
I0403 14:32:35.618530 13379 net.cpp:148] Top shape: 24 832 7 7 (978432)
I0403 14:32:35.618549 13379 net.cpp:148] Top shape: 24 832 7 7 (978432)
I0403 14:32:35.618566 13379 net.cpp:148] Top shape: 24 832 7 7 (978432)
I0403 14:32:35.618579 13379 net.cpp:156] Memory required for data: 1292125728
I0403 14:32:35.618594 13379 layer_factory.hpp:77] Creating layer inception_5a/1x1
I0403 14:32:35.618616 13379 net.cpp:91] Creating Layer inception_5a/1x1
I0403 14:32:35.618633 13379 net.cpp:425] inception_5a/1x1 <- pool4/3x3_s2_pool4/3x3_s2_0_split_0
I0403 14:32:35.618654 13379 net.cpp:399] inception_5a/1x1 -> inception_5a/1x1
I0403 14:32:35.621469 13379 net.cpp:141] Setting up inception_5a/1x1
I0403 14:32:35.621500 13379 net.cpp:148] Top shape: 24 256 7 7 (301056)
I0403 14:32:35.621516 13379 net.cpp:156] Memory required for data: 1293329952
I0403 14:32:35.621536 13379 layer_factory.hpp:77] Creating layer inception_5a/relu_1x1
I0403 14:32:35.621557 13379 net.cpp:91] Creating Layer inception_5a/relu_1x1
I0403 14:32:35.621573 13379 net.cpp:425] inception_5a/relu_1x1 <- inception_5a/1x1
I0403 14:32:35.621597 13379 net.cpp:386] inception_5a/relu_1x1 -> inception_5a/1x1 (in-place)
I0403 14:32:35.621906 13379 net.cpp:141] Setting up inception_5a/relu_1x1
I0403 14:32:35.621933 13379 net.cpp:148] Top shape: 24 256 7 7 (301056)
I0403 14:32:35.621948 13379 net.cpp:156] Memory required for data: 1294534176
I0403 14:32:35.621963 13379 layer_factory.hpp:77] Creating layer inception_5a/3x3_reduce
I0403 14:32:35.621984 13379 net.cpp:91] Creating Layer inception_5a/3x3_reduce
I0403 14:32:35.621999 13379 net.cpp:425] inception_5a/3x3_reduce <- pool4/3x3_s2_pool4/3x3_s2_0_split_1
I0403 14:32:35.622020 13379 net.cpp:399] inception_5a/3x3_reduce -> inception_5a/3x3_reduce
I0403 14:32:35.624485 13379 net.cpp:141] Setting up inception_5a/3x3_reduce
I0403 14:32:35.624514 13379 net.cpp:148] Top shape: 24 160 7 7 (188160)
I0403 14:32:35.624529 13379 net.cpp:156] Memory required for data: 1295286816
I0403 14:32:35.624562 13379 layer_factory.hpp:77] Creating layer inception_5a/relu_3x3_reduce
I0403 14:32:35.624580 13379 net.cpp:91] Creating Layer inception_5a/relu_3x3_reduce
I0403 14:32:35.624596 13379 net.cpp:425] inception_5a/relu_3x3_reduce <- inception_5a/3x3_reduce
I0403 14:32:35.624616 13379 net.cpp:386] inception_5a/relu_3x3_reduce -> inception_5a/3x3_reduce (in-place)
I0403 14:32:35.624802 13379 net.cpp:141] Setting up inception_5a/relu_3x3_reduce
I0403 14:32:35.624826 13379 net.cpp:148] Top shape: 24 160 7 7 (188160)
I0403 14:32:35.624841 13379 net.cpp:156] Memory required for data: 1296039456
I0403 14:32:35.624855 13379 layer_factory.hpp:77] Creating layer inception_5a/3x3
I0403 14:32:35.624876 13379 net.cpp:91] Creating Layer inception_5a/3x3
I0403 14:32:35.624894 13379 net.cpp:425] inception_5a/3x3 <- inception_5a/3x3_reduce
I0403 14:32:35.624915 13379 net.cpp:399] inception_5a/3x3 -> inception_5a/3x3
I0403 14:32:35.629847 13379 net.cpp:141] Setting up inception_5a/3x3
I0403 14:32:35.629885 13379 net.cpp:148] Top shape: 24 320 7 7 (376320)
I0403 14:32:35.629900 13379 net.cpp:156] Memory required for data: 1297544736
I0403 14:32:35.629919 13379 layer_factory.hpp:77] Creating layer inception_5a/relu_3x3
I0403 14:32:35.629938 13379 net.cpp:91] Creating Layer inception_5a/relu_3x3
I0403 14:32:35.629956 13379 net.cpp:425] inception_5a/relu_3x3 <- inception_5a/3x3
I0403 14:32:35.629972 13379 net.cpp:386] inception_5a/relu_3x3 -> inception_5a/3x3 (in-place)
I0403 14:32:35.630264 13379 net.cpp:141] Setting up inception_5a/relu_3x3
I0403 14:32:35.630288 13379 net.cpp:148] Top shape: 24 320 7 7 (376320)
I0403 14:32:35.630303 13379 net.cpp:156] Memory required for data: 1299050016
I0403 14:32:35.630317 13379 layer_factory.hpp:77] Creating layer inception_5a/5x5_reduce
I0403 14:32:35.630342 13379 net.cpp:91] Creating Layer inception_5a/5x5_reduce
I0403 14:32:35.630359 13379 net.cpp:425] inception_5a/5x5_reduce <- pool4/3x3_s2_pool4/3x3_s2_0_split_2
I0403 14:32:35.630378 13379 net.cpp:399] inception_5a/5x5_reduce -> inception_5a/5x5_reduce
I0403 14:32:35.631532 13379 net.cpp:141] Setting up inception_5a/5x5_reduce
I0403 14:32:35.631569 13379 net.cpp:148] Top shape: 24 32 7 7 (37632)
I0403 14:32:35.631585 13379 net.cpp:156] Memory required for data: 1299200544
I0403 14:32:35.631603 13379 layer_factory.hpp:77] Creating layer inception_5a/relu_5x5_reduce
I0403 14:32:35.631620 13379 net.cpp:91] Creating Layer inception_5a/relu_5x5_reduce
I0403 14:32:35.631638 13379 net.cpp:425] inception_5a/relu_5x5_reduce <- inception_5a/5x5_reduce
I0403 14:32:35.631654 13379 net.cpp:386] inception_5a/relu_5x5_reduce -> inception_5a/5x5_reduce (in-place)
I0403 14:32:35.631952 13379 net.cpp:141] Setting up inception_5a/relu_5x5_reduce
I0403 14:32:35.631978 13379 net.cpp:148] Top shape: 24 32 7 7 (37632)
I0403 14:32:35.631994 13379 net.cpp:156] Memory required for data: 1299351072
I0403 14:32:35.632009 13379 layer_factory.hpp:77] Creating layer inception_5a/5x5
I0403 14:32:35.632030 13379 net.cpp:91] Creating Layer inception_5a/5x5
I0403 14:32:35.632047 13379 net.cpp:425] inception_5a/5x5 <- inception_5a/5x5_reduce
I0403 14:32:35.632066 13379 net.cpp:399] inception_5a/5x5 -> inception_5a/5x5
I0403 14:32:35.633764 13379 net.cpp:141] Setting up inception_5a/5x5
I0403 14:32:35.633801 13379 net.cpp:148] Top shape: 24 128 7 7 (150528)
I0403 14:32:35.633817 13379 net.cpp:156] Memory required for data: 1299953184
I0403 14:32:35.633836 13379 layer_factory.hpp:77] Creating layer inception_5a/relu_5x5
I0403 14:32:35.633854 13379 net.cpp:91] Creating Layer inception_5a/relu_5x5
I0403 14:32:35.633873 13379 net.cpp:425] inception_5a/relu_5x5 <- inception_5a/5x5
I0403 14:32:35.633889 13379 net.cpp:386] inception_5a/relu_5x5 -> inception_5a/5x5 (in-place)
I0403 14:32:35.634078 13379 net.cpp:141] Setting up inception_5a/relu_5x5
I0403 14:32:35.634102 13379 net.cpp:148] Top shape: 24 128 7 7 (150528)
I0403 14:32:35.634117 13379 net.cpp:156] Memory required for data: 1300555296
I0403 14:32:35.634131 13379 layer_factory.hpp:77] Creating layer inception_5a/pool
I0403 14:32:35.634148 13379 net.cpp:91] Creating Layer inception_5a/pool
I0403 14:32:35.634163 13379 net.cpp:425] inception_5a/pool <- pool4/3x3_s2_pool4/3x3_s2_0_split_3
I0403 14:32:35.634182 13379 net.cpp:399] inception_5a/pool -> inception_5a/pool
I0403 14:32:35.634251 13379 net.cpp:141] Setting up inception_5a/pool
I0403 14:32:35.634275 13379 net.cpp:148] Top shape: 24 832 7 7 (978432)
I0403 14:32:35.634289 13379 net.cpp:156] Memory required for data: 1304469024
I0403 14:32:35.634302 13379 layer_factory.hpp:77] Creating layer inception_5a/pool_proj
I0403 14:32:35.634325 13379 net.cpp:91] Creating Layer inception_5a/pool_proj
I0403 14:32:35.634342 13379 net.cpp:425] inception_5a/pool_proj <- inception_5a/pool
I0403 14:32:35.634361 13379 net.cpp:399] inception_5a/pool_proj -> inception_5a/pool_proj
I0403 14:32:35.636644 13379 net.cpp:141] Setting up inception_5a/pool_proj
I0403 14:32:35.636674 13379 net.cpp:148] Top shape: 24 128 7 7 (150528)
I0403 14:32:35.636689 13379 net.cpp:156] Memory required for data: 1305071136
I0403 14:32:35.636708 13379 layer_factory.hpp:77] Creating layer inception_5a/relu_pool_proj
I0403 14:32:35.636726 13379 net.cpp:91] Creating Layer inception_5a/relu_pool_proj
I0403 14:32:35.636744 13379 net.cpp:425] inception_5a/relu_pool_proj <- inception_5a/pool_proj
I0403 14:32:35.636760 13379 net.cpp:386] inception_5a/relu_pool_proj -> inception_5a/pool_proj (in-place)
I0403 14:32:35.637054 13379 net.cpp:141] Setting up inception_5a/relu_pool_proj
I0403 14:32:35.637080 13379 net.cpp:148] Top shape: 24 128 7 7 (150528)
I0403 14:32:35.637094 13379 net.cpp:156] Memory required for data: 1305673248
I0403 14:32:35.637109 13379 layer_factory.hpp:77] Creating layer inception_5a/output
I0403 14:32:35.637128 13379 net.cpp:91] Creating Layer inception_5a/output
I0403 14:32:35.637145 13379 net.cpp:425] inception_5a/output <- inception_5a/1x1
I0403 14:32:35.637161 13379 net.cpp:425] inception_5a/output <- inception_5a/3x3
I0403 14:32:35.637177 13379 net.cpp:425] inception_5a/output <- inception_5a/5x5
I0403 14:32:35.637192 13379 net.cpp:425] inception_5a/output <- inception_5a/pool_proj
I0403 14:32:35.637209 13379 net.cpp:399] inception_5a/output -> inception_5a/output
I0403 14:32:35.637259 13379 net.cpp:141] Setting up inception_5a/output
I0403 14:32:35.637282 13379 net.cpp:148] Top shape: 24 832 7 7 (978432)
I0403 14:32:35.637296 13379 net.cpp:156] Memory required for data: 1309586976
I0403 14:32:35.637311 13379 layer_factory.hpp:77] Creating layer inception_5a/output_inception_5a/output_0_split
I0403 14:32:35.637327 13379 net.cpp:91] Creating Layer inception_5a/output_inception_5a/output_0_split
I0403 14:32:35.637342 13379 net.cpp:425] inception_5a/output_inception_5a/output_0_split <- inception_5a/output
I0403 14:32:35.637362 13379 net.cpp:399] inception_5a/output_inception_5a/output_0_split -> inception_5a/output_inception_5a/output_0_split_0
I0403 14:32:35.637382 13379 net.cpp:399] inception_5a/output_inception_5a/output_0_split -> inception_5a/output_inception_5a/output_0_split_1
I0403 14:32:35.637401 13379 net.cpp:399] inception_5a/output_inception_5a/output_0_split -> inception_5a/output_inception_5a/output_0_split_2
I0403 14:32:35.637421 13379 net.cpp:399] inception_5a/output_inception_5a/output_0_split -> inception_5a/output_inception_5a/output_0_split_3
I0403 14:32:35.637531 13379 net.cpp:141] Setting up inception_5a/output_inception_5a/output_0_split
I0403 14:32:35.637562 13379 net.cpp:148] Top shape: 24 832 7 7 (978432)
I0403 14:32:35.637579 13379 net.cpp:148] Top shape: 24 832 7 7 (978432)
I0403 14:32:35.637594 13379 net.cpp:148] Top shape: 24 832 7 7 (978432)
I0403 14:32:35.637609 13379 net.cpp:148] Top shape: 24 832 7 7 (978432)
I0403 14:32:35.637622 13379 net.cpp:156] Memory required for data: 1325241888
I0403 14:32:35.637635 13379 layer_factory.hpp:77] Creating layer inception_5b/1x1
I0403 14:32:35.637657 13379 net.cpp:91] Creating Layer inception_5b/1x1
I0403 14:32:35.637675 13379 net.cpp:425] inception_5b/1x1 <- inception_5a/output_inception_5a/output_0_split_0
I0403 14:32:35.637692 13379 net.cpp:399] inception_5b/1x1 -> inception_5b/1x1
I0403 14:32:35.641422 13379 net.cpp:141] Setting up inception_5b/1x1
I0403 14:32:35.641451 13379 net.cpp:148] Top shape: 24 384 7 7 (451584)
I0403 14:32:35.641468 13379 net.cpp:156] Memory required for data: 1327048224
I0403 14:32:35.641484 13379 layer_factory.hpp:77] Creating layer inception_5b/relu_1x1
I0403 14:32:35.641505 13379 net.cpp:91] Creating Layer inception_5b/relu_1x1
I0403 14:32:35.641520 13379 net.cpp:425] inception_5b/relu_1x1 <- inception_5b/1x1
I0403 14:32:35.641543 13379 net.cpp:386] inception_5b/relu_1x1 -> inception_5b/1x1 (in-place)
I0403 14:32:35.641854 13379 net.cpp:141] Setting up inception_5b/relu_1x1
I0403 14:32:35.641882 13379 net.cpp:148] Top shape: 24 384 7 7 (451584)
I0403 14:32:35.641896 13379 net.cpp:156] Memory required for data: 1328854560
I0403 14:32:35.641911 13379 layer_factory.hpp:77] Creating layer inception_5b/3x3_reduce
I0403 14:32:35.641933 13379 net.cpp:91] Creating Layer inception_5b/3x3_reduce
I0403 14:32:35.641952 13379 net.cpp:425] inception_5b/3x3_reduce <- inception_5a/output_inception_5a/output_0_split_1
I0403 14:32:35.641973 13379 net.cpp:399] inception_5b/3x3_reduce -> inception_5b/3x3_reduce
I0403 14:32:35.644691 13379 net.cpp:141] Setting up inception_5b/3x3_reduce
I0403 14:32:35.644722 13379 net.cpp:148] Top shape: 24 192 7 7 (225792)
I0403 14:32:35.644737 13379 net.cpp:156] Memory required for data: 1329757728
I0403 14:32:35.644757 13379 layer_factory.hpp:77] Creating layer inception_5b/relu_3x3_reduce
I0403 14:32:35.644778 13379 net.cpp:91] Creating Layer inception_5b/relu_3x3_reduce
I0403 14:32:35.644794 13379 net.cpp:425] inception_5b/relu_3x3_reduce <- inception_5b/3x3_reduce
I0403 14:32:35.644812 13379 net.cpp:386] inception_5b/relu_3x3_reduce -> inception_5b/3x3_reduce (in-place)
I0403 14:32:35.645005 13379 net.cpp:141] Setting up inception_5b/relu_3x3_reduce
I0403 14:32:35.645031 13379 net.cpp:148] Top shape: 24 192 7 7 (225792)
I0403 14:32:35.645045 13379 net.cpp:156] Memory required for data: 1330660896
I0403 14:32:35.645059 13379 layer_factory.hpp:77] Creating layer inception_5b/3x3
I0403 14:32:35.645083 13379 net.cpp:91] Creating Layer inception_5b/3x3
I0403 14:32:35.645102 13379 net.cpp:425] inception_5b/3x3 <- inception_5b/3x3_reduce
I0403 14:32:35.645120 13379 net.cpp:399] inception_5b/3x3 -> inception_5b/3x3
I0403 14:32:35.651896 13379 net.cpp:141] Setting up inception_5b/3x3
I0403 14:32:35.651926 13379 net.cpp:148] Top shape: 24 384 7 7 (451584)
I0403 14:32:35.651942 13379 net.cpp:156] Memory required for data: 1332467232
I0403 14:32:35.651959 13379 layer_factory.hpp:77] Creating layer inception_5b/relu_3x3
I0403 14:32:35.651980 13379 net.cpp:91] Creating Layer inception_5b/relu_3x3
I0403 14:32:35.651998 13379 net.cpp:425] inception_5b/relu_3x3 <- inception_5b/3x3
I0403 14:32:35.652016 13379 net.cpp:386] inception_5b/relu_3x3 -> inception_5b/3x3 (in-place)
I0403 14:32:35.652325 13379 net.cpp:141] Setting up inception_5b/relu_3x3
I0403 14:32:35.652351 13379 net.cpp:148] Top shape: 24 384 7 7 (451584)
I0403 14:32:35.652365 13379 net.cpp:156] Memory required for data: 1334273568
I0403 14:32:35.652380 13379 layer_factory.hpp:77] Creating layer inception_5b/5x5_reduce
I0403 14:32:35.652418 13379 net.cpp:91] Creating Layer inception_5b/5x5_reduce
I0403 14:32:35.652437 13379 net.cpp:425] inception_5b/5x5_reduce <- inception_5a/output_inception_5a/output_0_split_2
I0403 14:32:35.652458 13379 net.cpp:399] inception_5b/5x5_reduce -> inception_5b/5x5_reduce
I0403 14:32:35.653764 13379 net.cpp:141] Setting up inception_5b/5x5_reduce
I0403 14:32:35.653805 13379 net.cpp:148] Top shape: 24 48 7 7 (56448)
I0403 14:32:35.653822 13379 net.cpp:156] Memory required for data: 1334499360
I0403 14:32:35.653841 13379 layer_factory.hpp:77] Creating layer inception_5b/relu_5x5_reduce
I0403 14:32:35.653861 13379 net.cpp:91] Creating Layer inception_5b/relu_5x5_reduce
I0403 14:32:35.653884 13379 net.cpp:425] inception_5b/relu_5x5_reduce <- inception_5b/5x5_reduce
I0403 14:32:35.653903 13379 net.cpp:386] inception_5b/relu_5x5_reduce -> inception_5b/5x5_reduce (in-place)
I0403 14:32:35.654287 13379 net.cpp:141] Setting up inception_5b/relu_5x5_reduce
I0403 14:32:35.654314 13379 net.cpp:148] Top shape: 24 48 7 7 (56448)
I0403 14:32:35.654330 13379 net.cpp:156] Memory required for data: 1334725152
I0403 14:32:35.654345 13379 layer_factory.hpp:77] Creating layer inception_5b/5x5
I0403 14:32:35.654367 13379 net.cpp:91] Creating Layer inception_5b/5x5
I0403 14:32:35.654384 13379 net.cpp:425] inception_5b/5x5 <- inception_5b/5x5_reduce
I0403 14:32:35.654403 13379 net.cpp:399] inception_5b/5x5 -> inception_5b/5x5
I0403 14:32:35.656572 13379 net.cpp:141] Setting up inception_5b/5x5
I0403 14:32:35.656604 13379 net.cpp:148] Top shape: 24 128 7 7 (150528)
I0403 14:32:35.656621 13379 net.cpp:156] Memory required for data: 1335327264
I0403 14:32:35.656640 13379 layer_factory.hpp:77] Creating layer inception_5b/relu_5x5
I0403 14:32:35.656658 13379 net.cpp:91] Creating Layer inception_5b/relu_5x5
I0403 14:32:35.656674 13379 net.cpp:425] inception_5b/relu_5x5 <- inception_5b/5x5
I0403 14:32:35.656692 13379 net.cpp:386] inception_5b/relu_5x5 -> inception_5b/5x5 (in-place)
I0403 14:32:35.656896 13379 net.cpp:141] Setting up inception_5b/relu_5x5
I0403 14:32:35.656924 13379 net.cpp:148] Top shape: 24 128 7 7 (150528)
I0403 14:32:35.656940 13379 net.cpp:156] Memory required for data: 1335929376
I0403 14:32:35.656955 13379 layer_factory.hpp:77] Creating layer inception_5b/pool
I0403 14:32:35.656973 13379 net.cpp:91] Creating Layer inception_5b/pool
I0403 14:32:35.656991 13379 net.cpp:425] inception_5b/pool <- inception_5a/output_inception_5a/output_0_split_3
I0403 14:32:35.657012 13379 net.cpp:399] inception_5b/pool -> inception_5b/pool
I0403 14:32:35.657088 13379 net.cpp:141] Setting up inception_5b/pool
I0403 14:32:35.657114 13379 net.cpp:148] Top shape: 24 832 7 7 (978432)
I0403 14:32:35.657131 13379 net.cpp:156] Memory required for data: 1339843104
I0403 14:32:35.657145 13379 layer_factory.hpp:77] Creating layer inception_5b/pool_proj
I0403 14:32:35.657166 13379 net.cpp:91] Creating Layer inception_5b/pool_proj
I0403 14:32:35.657184 13379 net.cpp:425] inception_5b/pool_proj <- inception_5b/pool
I0403 14:32:35.657204 13379 net.cpp:399] inception_5b/pool_proj -> inception_5b/pool_proj
I0403 14:32:35.659621 13379 net.cpp:141] Setting up inception_5b/pool_proj
I0403 14:32:35.659651 13379 net.cpp:148] Top shape: 24 128 7 7 (150528)
I0403 14:32:35.659667 13379 net.cpp:156] Memory required for data: 1340445216
I0403 14:32:35.659687 13379 layer_factory.hpp:77] Creating layer inception_5b/relu_pool_proj
I0403 14:32:35.659708 13379 net.cpp:91] Creating Layer inception_5b/relu_pool_proj
I0403 14:32:35.659725 13379 net.cpp:425] inception_5b/relu_pool_proj <- inception_5b/pool_proj
I0403 14:32:35.659742 13379 net.cpp:386] inception_5b/relu_pool_proj -> inception_5b/pool_proj (in-place)
I0403 14:32:35.660053 13379 net.cpp:141] Setting up inception_5b/relu_pool_proj
I0403 14:32:35.660080 13379 net.cpp:148] Top shape: 24 128 7 7 (150528)
I0403 14:32:35.660095 13379 net.cpp:156] Memory required for data: 1341047328
I0403 14:32:35.660111 13379 layer_factory.hpp:77] Creating layer inception_5b/output
I0403 14:32:35.660131 13379 net.cpp:91] Creating Layer inception_5b/output
I0403 14:32:35.660163 13379 net.cpp:425] inception_5b/output <- inception_5b/1x1
I0403 14:32:35.660182 13379 net.cpp:425] inception_5b/output <- inception_5b/3x3
I0403 14:32:35.660199 13379 net.cpp:425] inception_5b/output <- inception_5b/5x5
I0403 14:32:35.660217 13379 net.cpp:425] inception_5b/output <- inception_5b/pool_proj
I0403 14:32:35.660233 13379 net.cpp:399] inception_5b/output -> inception_5b/output
I0403 14:32:35.660290 13379 net.cpp:141] Setting up inception_5b/output
I0403 14:32:35.660315 13379 net.cpp:148] Top shape: 24 1024 7 7 (1204224)
I0403 14:32:35.660329 13379 net.cpp:156] Memory required for data: 1345864224
I0403 14:32:35.660344 13379 layer_factory.hpp:77] Creating layer pool5/7x7_s1
I0403 14:32:35.660363 13379 net.cpp:91] Creating Layer pool5/7x7_s1
I0403 14:32:35.660392 13379 net.cpp:425] pool5/7x7_s1 <- inception_5b/output
I0403 14:32:35.660414 13379 net.cpp:399] pool5/7x7_s1 -> pool5/7x7_s1
I0403 14:32:35.660666 13379 net.cpp:141] Setting up pool5/7x7_s1
I0403 14:32:35.660702 13379 net.cpp:148] Top shape: 24 1024 1 1 (24576)
I0403 14:32:35.660717 13379 net.cpp:156] Memory required for data: 1345962528
I0403 14:32:35.660732 13379 layer_factory.hpp:77] Creating layer pool5/drop_7x7_s1
I0403 14:32:35.660753 13379 net.cpp:91] Creating Layer pool5/drop_7x7_s1
I0403 14:32:35.660771 13379 net.cpp:425] pool5/drop_7x7_s1 <- pool5/7x7_s1
I0403 14:32:35.660789 13379 net.cpp:386] pool5/drop_7x7_s1 -> pool5/7x7_s1 (in-place)
I0403 14:32:35.660845 13379 net.cpp:141] Setting up pool5/drop_7x7_s1
I0403 14:32:35.660867 13379 net.cpp:148] Top shape: 24 1024 1 1 (24576)
I0403 14:32:35.660882 13379 net.cpp:156] Memory required for data: 1346060832
I0403 14:32:35.660897 13379 layer_factory.hpp:77] Creating layer loss3/classifier_plantvillage
I0403 14:32:35.660919 13379 net.cpp:91] Creating Layer loss3/classifier_plantvillage
I0403 14:32:35.660938 13379 net.cpp:425] loss3/classifier_plantvillage <- pool5/7x7_s1
I0403 14:32:35.660956 13379 net.cpp:399] loss3/classifier_plantvillage -> loss3/classifier_plantvillage
I0403 14:32:35.661406 13379 net.cpp:141] Setting up loss3/classifier_plantvillage
I0403 14:32:35.661432 13379 net.cpp:148] Top shape: 24 38 (912)
I0403 14:32:35.661445 13379 net.cpp:156] Memory required for data: 1346064480
I0403 14:32:35.661464 13379 layer_factory.hpp:77] Creating layer loss3/classifier_plantvillage_loss3/classifier_plantvillage_0_split
I0403 14:32:35.661483 13379 net.cpp:91] Creating Layer loss3/classifier_plantvillage_loss3/classifier_plantvillage_0_split
I0403 14:32:35.661499 13379 net.cpp:425] loss3/classifier_plantvillage_loss3/classifier_plantvillage_0_split <- loss3/classifier_plantvillage
I0403 14:32:35.661519 13379 net.cpp:399] loss3/classifier_plantvillage_loss3/classifier_plantvillage_0_split -> loss3/classifier_plantvillage_loss3/classifier_plantvillage_0_split_0
I0403 14:32:35.661545 13379 net.cpp:399] loss3/classifier_plantvillage_loss3/classifier_plantvillage_0_split -> loss3/classifier_plantvillage_loss3/classifier_plantvillage_0_split_1
I0403 14:32:35.661568 13379 net.cpp:399] loss3/classifier_plantvillage_loss3/classifier_plantvillage_0_split -> loss3/classifier_plantvillage_loss3/classifier_plantvillage_0_split_2
I0403 14:32:35.661594 13379 net.cpp:399] loss3/classifier_plantvillage_loss3/classifier_plantvillage_0_split -> loss3/classifier_plantvillage_loss3/classifier_plantvillage_0_split_3
I0403 14:32:35.661697 13379 net.cpp:141] Setting up loss3/classifier_plantvillage_loss3/classifier_plantvillage_0_split
I0403 14:32:35.661721 13379 net.cpp:148] Top shape: 24 38 (912)
I0403 14:32:35.661737 13379 net.cpp:148] Top shape: 24 38 (912)
I0403 14:32:35.661752 13379 net.cpp:148] Top shape: 24 38 (912)
I0403 14:32:35.661767 13379 net.cpp:148] Top shape: 24 38 (912)
I0403 14:32:35.661782 13379 net.cpp:156] Memory required for data: 1346079072
I0403 14:32:35.661795 13379 layer_factory.hpp:77] Creating layer loss1/loss
I0403 14:32:35.661818 13379 net.cpp:91] Creating Layer loss1/loss
I0403 14:32:35.661834 13379 net.cpp:425] loss1/loss <- loss1/classifier_plantvillage_loss1/classifier_plantvillage_0_split_0
I0403 14:32:35.661866 13379 net.cpp:425] loss1/loss <- label_data_1_split_0
…
