…
I0403 13:59:22.714300 12350 net.cpp:313] The NetState phase (1) differed from the phase (0) specified by a rule in layer data
I0403 13:59:22.715466 12350 net.cpp:49] Initializing net from parameters: 
state {
  phase: TEST
}
layer {
  name: "data"
  type: "Data"
  top: "data"
  top: "label"
  include {
    phase: TEST
  }
  transform_param {
    mirror: false
    crop_size: 224
    mean_file: "/home/mohanty/data/final_dataset/lmdb/segmented-20-80/mean.binaryproto"
  }
  data_param {
    source: "/home/mohanty/data/final_dataset/lmdb/segmented-20-80/test_db"
    batch_size: 24
    backend: LMDB
  }
}
layer {
  name: "conv1/7x7_s2"
  type: "Convolution"
  bottom: "data"
  top: "conv1/7x7_s2"
  param {
    lr_mult: 1
    decay_mult: 1
  }
  param {
    lr_mult: 2
    decay_mult: 0
  }
  convolution_param {
    num_output: 64
    pad: 3
    kernel_size: 7
    stride: 2
    weight_filler {
      type: "xavier"
      std: 0.1
    }
    bias_filler {
      type: "constant"
      value: 0.2
    }
  }
}
layer {
  name: "conv1/relu_7x7"
  type: "ReLU"
  bottom: "conv1/7x7_s2"
  top: "conv1/7x7_s2"
}
layer {
  name: "pool1/3x3_s2"
  type: "Pooling"
  bottom: "conv1/7x7_s2"
  top: "pool1/3x3_s2"
  pooling_param {
    pool: MAX
    kernel_size: 3
    stride: 2
  }
}
layer {
  name: "pool1/norm1"
  type: "LRN"
  bottom: "pool1/3x3_s2"
  top: "pool1/norm1"
  lrn_param {
    local_size: 5
    alpha: 0.0001
    beta: 0.75
  }
}
layer {
  name: "conv2/3x3_reduce"
  type: "Convolution"
  bottom: "pool1/norm1"
  top: "conv2/3x3_reduce"
  param {
    lr_mult: 1
    decay_mult: 1
  }
  param {
    lr_mult: 2
    decay_mult: 0
  }
  convolution_param {
    num_output: 64
    kernel_size: 1
    weight_filler {
      type: "xavier"
      std: 0.1
    }
    bias_filler {
      type: "constant"
      value: 0.2
    }
  }
}
layer {
  name: "conv2/relu_3x3_reduce"
  type: "ReLU"
  bottom: "conv2/3x3_reduce"
  top: "conv2/3x3_reduce"
}
layer {
  name: "conv2/3x3"
  type: "Convolution"
  bottom: "conv2/3x3_reduce"
  top: "conv2/3x3"
  param {
    lr_mult: 1
    decay_mult: 1
  }
  param {
    lr_mult: 2
    decay_mult: 0
  }
  convolution_param {
    num_output: 192
    pad: 1
    kernel_size: 3
    weight_filler {
      type: "xavier"
      std: 0.03
    }
    bias_filler {
      type: "constant"
      value: 0.2
    }
  }
}
layer {
  name: "conv2/relu_3x3"
  type: "ReLU"
  bottom: "conv2/3x3"
  top: "conv2/3x3"
}
layer {
  name: "conv2/norm2"
  type: "LRN"
  bottom: "conv2/3x3"
  top: "conv2/norm2"
  lrn_param {
    local_size: 5
    alpha: 0.0001
    beta: 0.75
  }
}
layer {
  name: "pool2/3x3_s2"
  type: "Pooling"
  bottom: "conv2/norm2"
  top: "pool2/3x3_s2"
  pooling_param {
    pool: MAX
    kernel_size: 3
    stride: 2
  }
}
layer {
  name: "inception_3a/1x1"
  type: "Convolution"
  bottom: "pool2/3x3_s2"
  top: "inception_3a/1x1"
  param {
    lr_mult: 1
    decay_mult: 1
  }
  param {
    lr_mult: 2
    decay_mult: 0
  }
  convolution_param {
    num_output: 64
    kernel_size: 1
    weight_filler {
      type: "xavier"
      std: 0.03
    }
    bias_filler {
      type: "constant"
      value: 0.2
    }
  }
}
layer {
  name: "inception_3a/relu_1x1"
  type: "ReLU"
  bottom: "inception_3a/1x1"
  top: "inception_3a/1x1"
}
layer {
  name: "inception_3a/3x3_reduce"
  type: "Convolution"
  bottom: "pool2/3x3_s2"
  top: "inception_3a/3x3_reduce"
  param {
    lr_mult: 1
    decay_mult: 1
  }
  param {
    lr_mult: 2
    decay_mult: 0
  }
  convolution_param {
    num_output: 96
    kernel_size: 1
    weight_filler {
      type: "xavier"
      std: 0.09
    }
    bias_filler {
      type: "constant"
      value: 0.2
    }
  }
}
layer {
  name: "inception_3a/relu_3x3_reduce"
  type: "ReLU"
  bottom: "inception_3a/3x3_reduce"
  top: "inception_3a/3x3_reduce"
}
layer {
  name: "inception_3a/3x3"
  type: "Convolution"
  bottom: "inception_3a/3x3_reduce"
  top: "inception_3a/3x3"
  param {
    lr_mult: 1
    decay_mult: 1
  }
  param {
    lr_mult: 2
    decay_mult: 0
  }
  convolution_param {
    num_output: 128
    pad: 1
    kernel_size: 3
    weight_filler {
      type: "xavier"
      std: 0.03
    }
    bias_filler {
      type: "constant"
      value: 0.2
    }
  }
}
layer {
  name: "inception_3a/relu_3x3"
  type: "ReLU"
  bottom: "inception_3a/3x3"
  top: "inception_3a/3x3"
}
layer {
  name: "inception_3a/5x5_reduce"
  type: "Convolution"
  bottom: "pool2/3x3_s2"
  top: "inception_3a/5x5_reduce"
  param {
    lr_mult: 1
    decay_mult: 1
  }
  param {
    lr_mult: 2
    decay_mult: 0
  }
  convolution_param {
    num_output: 16
    kernel_size: 1
    weight_filler {
      type: "xavier"
      std: 0.2
    }
    bias_filler {
      type: "constant"
      value: 0.2
    }
  }
}
layer {
  name: "inception_3a/relu_5x5_reduce"
  type: "ReLU"
  bottom: "inception_3a/5x5_reduce"
  top: "inception_3a/5x5_reduce"
}
layer {
  name: "inception_3a/5x5"
  type: "Convolution"
  bottom: "inception_3a/5x5_reduce"
  top: "inception_3a/5x5"
  param {
    lr_mult: 1
    decay_mult: 1
  }
  param {
    lr_mult: 2
    decay_mult: 0
  }
  convolution_param {
    num_output: 32
    pad: 2
    kernel_size: 5
    weight_filler {
      type: "xavier"
      std: 0.03
    }
    bias_filler {
      type: "constant"
      value: 0.2
    }
  }
}
layer {
  name: "inception_3a/relu_5x5"
  type: "ReLU"
  bottom: "inception_3a/5x5"
  top: "inception_3a/5x5"
}
layer {
  name: "inception_3a/pool"
  type: "Pooling"
  bottom: "pool2/3x3_s2"
  top: "inception_3a/pool"
  pooling_param {
    pool: MAX
    kernel_size: 3
    stride: 1
    pad: 1
  }
}
layer {
  name: "inception_3a/pool_proj"
  type: "Convolution"
  bottom: "inception_3a/pool"
  top: "inception_3a/pool_proj"
  param {
    lr_mult: 1
    decay_mult: 1
  }
  param {
    lr_mult: 2
    decay_mult: 0
  }
  convolution_param {
    num_output: 32
    kernel_size: 1
    weight_filler {
      type: "xavier"
      std: 0.1
    }
    bias_filler {
      type: "constant"
      value: 0.2
    }
  }
}
layer {
  name: "inception_3a/relu_pool_proj"
  type: "ReLU"
  bottom: "inception_3a/pool_proj"
  top: "inception_3a/pool_proj"
}
layer {
  name: "inception_3a/output"
  type: "Concat"
  bottom: "inception_3a/1x1"
  bottom: "inception_3a/3x3"
  bottom: "inception_3a/5x5"
  bottom: "inception_3a/pool_proj"
  top: "inception_3a/output"
}
layer {
  name: "inception_3b/1x1"
  type: "Convolution"
  bottom: "inception_3a/output"
  top: "inception_3b/1x1"
  param {
    lr_mult: 1
    decay_mult: 1
  }
  param {
    lr_mult: 2
    decay_mult: 0
  }
  convolution_param {
    num_output: 128
    kernel_size: 1
    weight_filler {
      type: "xavier"
      std: 0.03
    }
    bias_filler {
      type: "constant"
      value: 0.2
    }
  }
}
layer {
  name: "inception_3b/relu_1x1"
  type: "ReLU"
  bottom: "inception_3b/1x1"
  top: "inception_3b/1x1"
}
layer {
  name: "inception_3b/3x3_reduce"
  type: "Convolution"
  bottom: "inception_3a/output"
  top: "inception_3b/3x3_reduce"
  param {
    lr_mult: 1
    decay_mult: 1
  }
  param {
    lr_mult: 2
    decay_mult: 0
  }
  convolution_param {
    num_output: 128
    kernel_size: 1
    weight_filler {
      type: "xavier"
      std: 0.09
    }
    bias_filler {
      type: "constant"
      value: 0.2
    }
  }
}
layer {
  name: "inception_3b/relu_3x3_reduce"
  type: "ReLU"
  bottom: "inception_3b/3x3_reduce"
  top: "inception_3b/3x3_reduce"
}
layer {
  name: "inception_3b/3x3"
  type: "Convolution"
  bottom: "inception_3b/3x3_reduce"
  top: "inception_3b/3x3"
  param {
    lr_mult: 1
    decay_mult: 1
  }
  param {
    lr_mult: 2
    decay_mult: 0
  }
  convolution_param {
    num_output: 192
    pad: 1
    kernel_size: 3
    weight_filler {
      type: "xavier"
      std: 0.03
    }
    bias_filler {
      type: "constant"
      value: 0.2
    }
  }
}
layer {
  name: "inception_3b/relu_3x3"
  type: "ReLU"
  bottom: "inception_3b/3x3"
  top: "inception_3b/3x3"
}
layer {
  name: "inception_3b/5x5_reduce"
  type: "Convolution"
  bottom: "inception_3a/output"
  top: "inception_3b/5x5_reduce"
  param {
    lr_mult: 1
    decay_mult: 1
  }
  param {
    lr_mult: 2
    decay_mult: 0
  }
  convolution_param {
    num_output: 32
    kernel_size: 1
    weight_filler {
      type: "xavier"
      std: 0.2
    }
    bias_filler {
      type: "constant"
      value: 0.2
    }
  }
}
layer {
  name: "inception_3b/relu_5x5_reduce"
  type: "ReLU"
  bottom: "inception_3b/5x5_reduce"
  top: "inception_3b/5x5_reduce"
}
layer {
  name: "inception_3b/5x5"
  type: "Convolution"
  bottom: "inception_3b/5x5_reduce"
  top: "inception_3b/5x5"
  param {
    lr_mult: 1
    decay_mult: 1
  }
  param {
    lr_mult: 2
    decay_mult: 0
  }
  convolution_param {
    num_output: 96
    pad: 2
    kernel_size: 5
    weight_filler {
      type: "xavier"
      std: 0.03
    }
    bias_filler {
      type: "constant"
      value: 0.2
    }
  }
}
layer {
  name: "inception_3b/relu_5x5"
  type: "ReLU"
  bottom: "inception_3b/5x5"
  top: "inception_3b/5x5"
}
layer {
  name: "inception_3b/pool"
  type: "Pooling"
  bottom: "inception_3a/output"
  top: "inception_3b/pool"
  pooling_param {
    pool: MAX
    kernel_size: 3
    stride: 1
    pad: 1
  }
}
layer {
  name: "inception_3b/pool_proj"
  type: "Convolution"
  bottom: "inception_3b/pool"
  top: "inception_3b/pool_proj"
  param {
    lr_mult: 1
    decay_mult: 1
  }
  param {
    lr_mult: 2
    decay_mult: 0
  }
  convolution_param {
    num_output: 64
    kernel_size: 1
    weight_filler {
      type: "xavier"
      std: 0.1
    }
    bias_filler {
      type: "constant"
      value: 0.2
    }
  }
}
layer {
  name: "inception_3b/relu_pool_proj"
  type: "ReLU"
  bottom: "inception_3b/pool_proj"
  top: "inception_3b/pool_proj"
}
layer {
  name: "inception_3b/output"
  type: "Concat"
  bottom: "inception_3b/1x1"
  bottom: "inception_3b/3x3"
  bottom: "inception_3b/5x5"
  bottom: "inception_3b/pool_proj"
  top: "inception_3b/output"
}
layer {
  name: "pool3/3x3_s2"
  type: "Pooling"
  bottom: "inception_3b/output"
  top: "pool3/3x3_s2"
  pooling_param {
    pool: MAX
    kernel_size: 3
    stride: 2
  }
}
layer {
  name: "inception_4a/1x1"
  type: "Convolution"
  bottom: "pool3/3x3_s2"
  top: "inception_4a/1x1"
  param {
    lr_mult: 1
    decay_mult: 1
  }
  param {
    lr_mult: 2
    decay_mult: 0
  }
  convolution_param {
    num_output: 192
    kernel_size: 1
    weight_filler {
      type: "xavier"
      std: 0.03
    }
    bias_filler {
      type: "constant"
      value: 0.2
    }
  }
}
layer {
  name: "inception_4a/relu_1x1"
  type: "ReLU"
  bottom: "inception_4a/1x1"
  top: "inception_4a/1x1"
}
layer {
  name: "inception_4a/3x3_reduce"
  type: "Convolution"
  bottom: "pool3/3x3_s2"
  top: "inception_4a/3x3_reduce"
  param {
    lr_mult: 1
    decay_mult: 1
  }
  param {
    lr_mult: 2
    decay_mult: 0
  }
  convolution_param {
    num_output: 96
    kernel_size: 1
    weight_filler {
      type: "xavier"
      std: 0.09
    }
    bias_filler {
      type: "constant"
      value: 0.2
    }
  }
}
layer {
  name: "inception_4a/relu_3x3_reduce"
  type: "ReLU"
  bottom: "inception_4a/3x3_reduce"
  top: "inception_4a/3x3_reduce"
}
layer {
  name: "inception_4a/3x3"
  type: "Convolution"
  bottom: "inception_4a/3x3_reduce"
  top: "inception_4a/3x3"
  param {
    lr_mult: 1
    decay_mult: 1
  }
  param {
    lr_mult: 2
    decay_mult: 0
  }
  convolution_param {
    num_output: 208
    pad: 1
    kernel_size: 3
    weight_filler {
      type: "xavier"
      std: 0.03
    }
    bias_filler {
      type: "constant"
      value: 0.2
    }
  }
}
layer {
  name: "inception_4a/relu_3x3"
  type: "ReLU"
  bottom: "inception_4a/3x3"
  top: "inception_4a/3x3"
}
layer {
  name: "inception_4a/5x5_reduce"
  type: "Convolution"
  bottom: "pool3/3x3_s2"
  top: "inception_4a/5x5_reduce"
  param {
    lr_mult: 1
    decay_mult: 1
  }
  param {
    lr_mult: 2
    decay_mult: 0
  }
  convolution_param {
    num_output: 16
    kernel_size: 1
    weight_filler {
      type: "xavier"
      std: 0.2
    }
    bias_filler {
      type: "constant"
      value: 0.2
    }
  }
}
layer {
  name: "inception_4a/relu_5x5_reduce"
  type: "ReLU"
  bottom: "inception_4a/5x5_reduce"
  top: "inception_4a/5x5_reduce"
}
layer {
  name: "inception_4a/5x5"
  type: "Convolution"
  bottom: "inception_4a/5x5_reduce"
  top: "inception_4a/5x5"
  param {
    lr_mult: 1
    decay_mult: 1
  }
  param {
    lr_mult: 2
    decay_mult: 0
  }
  convolution_param {
    num_output: 48
    pad: 2
    kernel_size: 5
    weight_filler {
      type: "xavier"
      std: 0.03
    }
    bias_filler {
      type: "constant"
      value: 0.2
    }
  }
}
layer {
  name: "inception_4a/relu_5x5"
  type: "ReLU"
  bottom: "inception_4a/5x5"
  top: "inception_4a/5x5"
}
layer {
  name: "inception_4a/pool"
  type: "Pooling"
  bottom: "pool3/3x3_s2"
  top: "inception_4a/pool"
  pooling_param {
    pool: MAX
    kernel_size: 3
    stride: 1
    pad: 1
  }
}
layer {
  name: "inception_4a/pool_proj"
  type: "Convolution"
  bottom: "inception_4a/pool"
  top: "inception_4a/pool_proj"
  param {
    lr_mult: 1
    decay_mult: 1
  }
  param {
    lr_mult: 2
    decay_mult: 0
  }
  convolution_param {
    num_output: 64
    kernel_size: 1
    weight_filler {
      type: "xavier"
      std: 0.1
    }
    bias_filler {
      type: "constant"
      value: 0.2
    }
  }
}
layer {
  name: "inception_4a/relu_pool_proj"
  type: "ReLU"
  bottom: "inception_4a/pool_proj"
  top: "inception_4a/pool_proj"
}
layer {
  name: "inception_4a/output"
  type: "Concat"
  bottom: "inception_4a/1x1"
  bottom: "inception_4a/3x3"
  bottom: "inception_4a/5x5"
  bottom: "inception_4a/pool_proj"
  top: "inception_4a/output"
}
layer {
  name: "loss1/ave_pool"
  type: "Pooling"
  bottom: "inception_4a/output"
  top: "loss1/ave_pool"
  pooling_param {
    pool: AVE
    kernel_size: 5
    stride: 3
  }
}
layer {
  name: "loss1/conv"
  type: "Convolution"
  bottom: "loss1/ave_pool"
  top: "loss1/conv"
  param {
    lr_mult: 1
    decay_mult: 1
  }
  param {
    lr_mult: 2
    decay_mult: 0
  }
  convolution_param {
    num_output: 128
    kernel_size: 1
    weight_filler {
      type: "xavier"
      std: 0.08
    }
    bias_filler {
      type: "constant"
      value: 0.2
    }
  }
}
layer {
  name: "loss1/relu_conv"
  type: "ReLU"
  bottom: "loss1/conv"
  top: "loss1/conv"
}
layer {
  name: "loss1/fc"
  type: "InnerProduct"
  bottom: "loss1/conv"
  top: "loss1/fc"
  param {
    lr_mult: 1
    decay_mult: 1
  }
  param {
    lr_mult: 2
    decay_mult: 0
  }
  inner_product_param {
    num_output: 1024
    weight_filler {
      type: "xavier"
      std: 0.02
    }
    bias_filler {
      type: "constant"
      value: 0.2
    }
  }
}
layer {
  name: "loss1/relu_fc"
  type: "ReLU"
  bottom: "loss1/fc"
  top: "loss1/fc"
}
layer {
  name: "loss1/drop_fc"
  type: "Dropout"
  bottom: "loss1/fc"
  top: "loss1/fc"
  dropout_param {
    dropout_ratio: 0.7
  }
}
layer {
  name: "loss1/classifier_plantvillage"
  type: "InnerProduct"
  bottom: "loss1/fc"
  top: "loss1/classifier_plantvillage"
  param {
    lr_mult: 1
    decay_mult: 1
  }
  param {
    lr_mult: 2
    decay_mult: 0
  }
  inner_product_param {
    num_output: 38
    weight_filler {
      type: "xavier"
      std: 0.0009765625
    }
    bias_filler {
      type: "constant"
      value: 0
    }
  }
}
layer {
  name: "inception_4b/1x1"
  type: "Convolution"
  bottom: "inception_4a/output"
  top: "inception_4b/1x1"
  param {
    lr_mult: 1
    decay_mult: 1
  }
  param {
    lr_mult: 2
    decay_mult: 0
  }
  convolution_param {
    num_output: 160
    kernel_size: 1
    weight_filler {
      type: "xavier"
      std: 0.03
    }
    bias_filler {
      type: "constant"
      value: 0.2
    }
  }
}
layer {
  name: "inception_4b/relu_1x1"
  type: "ReLU"
  bottom: "inception_4b/1x1"
  top: "inception_4b/1x1"
}
layer {
  name: "inception_4b/3x3_reduce"
  type: "Convolution"
  bottom: "inception_4a/output"
  top: "inception_4b/3x3_reduce"
  param {
    lr_mult: 1
    decay_mult: 1
  }
  param {
    lr_mult: 2
    decay_mult: 0
  }
  convolution_param {
    num_output: 112
    kernel_size: 1
    weight_filler {
      type: "xavier"
      std: 0.09
    }
    bias_filler {
      type: "constant"
      value: 0.2
    }
  }
}
layer {
  name: "inception_4b/relu_3x3_reduce"
  type: "ReLU"
  bottom: "inception_4b/3x3_reduce"
  top: "inception_4b/3x3_reduce"
}
layer {
  name: "inception_4b/3x3"
  type: "Convolution"
  bottom: "inception_4b/3x3_reduce"
  top: "inception_4b/3x3"
  param {
    lr_mult: 1
    decay_mult: 1
  }
  param {
    lr_mult: 2
    decay_mult: 0
  }
  convolution_param {
    num_output: 224
    pad: 1
    kernel_size: 3
    weight_filler {
      type: "xavier"
      std: 0.03
    }
    bias_filler {
      type: "constant"
      value: 0.2
    }
  }
}
layer {
  name: "inception_4b/relu_3x3"
  type: "ReLU"
  bottom: "inception_4b/3x3"
  top: "inception_4b/3x3"
}
layer {
  name: "inception_4b/5x5_reduce"
  type: "Convolution"
  bottom: "inception_4a/output"
  top: "inception_4b/5x5_reduce"
  param {
    lr_mult: 1
    decay_mult: 1
  }
  param {
    lr_mult: 2
    decay_mult: 0
  }
  convolution_param {
    num_output: 24
    kernel_size: 1
    weight_filler {
      type: "xavier"
      std: 0.2
    }
    bias_filler {
      type: "constant"
      value: 0.2
    }
  }
}
layer {
  name: "inception_4b/relu_5x5_reduce"
  type: "ReLU"
  bottom: "inception_4b/5x5_reduce"
  top: "inception_4b/5x5_reduce"
}
layer {
  name: "inception_4b/5x5"
  type: "Convolution"
  bottom: "inception_4b/5x5_reduce"
  top: "inception_4b/5x5"
  param {
    lr_mult: 1
    decay_mult: 1
  }
  param {
    lr_mult: 2
    decay_mult: 0
  }
  convolution_param {
    num_output: 64
    pad: 2
    kernel_size: 5
    weight_filler {
      type: "xavier"
      std: 0.03
    }
    bias_filler {
      type: "constant"
      value: 0.2
    }
  }
}
layer {
  name: "inception_4b/relu_5x5"
  type: "ReLU"
  bottom: "inception_4b/5x5"
  top: "inception_4b/5x5"
}
layer {
  name: "inception_4b/pool"
  type: "Pooling"
  bottom: "inception_4a/output"
  top: "inception_4b/pool"
  pooling_param {
    pool: MAX
    kernel_size: 3
    stride: 1
    pad: 1
  }
}
layer {
  name: "inception_4b/pool_proj"
  type: "Convolution"
  bottom: "inception_4b/pool"
  top: "inception_4b/pool_proj"
  param {
    lr_mult: 1
    decay_mult: 1
  }
  param {
    lr_mult: 2
    decay_mult: 0
  }
  convolution_param {
    num_output: 64
    kernel_size: 1
    weight_filler {
      type: "xavier"
      std: 0.1
    }
    bias_filler {
      type: "constant"
      value: 0.2
    }
  }
}
layer {
  name: "inception_4b/relu_pool_proj"
  type: "ReLU"
  bottom: "inception_4b/pool_proj"
  top: "inception_4b/pool_proj"
}
layer {
  name: "inception_4b/output"
  type: "Concat"
  bottom: "inception_4b/1x1"
  bottom: "inception_4b/3x3"
  bottom: "inception_4b/5x5"
  bottom: "inception_4b/pool_proj"
  top: "inception_4b/output"
}
layer {
  name: "inception_4c/1x1"
  type: "Convolution"
  bottom: "inception_4b/output"
  top: "inception_4c/1x1"
  param {
    lr_mult: 1
    decay_mult: 1
  }
  param {
    lr_mult: 2
    decay_mult: 0
  }
  convolution_param {
    num_output: 128
    kernel_size: 1
    weight_filler {
      type: "xavier"
      std: 0.03
    }
    bias_filler {
      type: "constant"
      value: 0.2
    }
  }
}
layer {
  name: "inception_4c/relu_1x1"
  type: "ReLU"
  bottom: "inception_4c/1x1"
  top: "inception_4c/1x1"
}
layer {
  name: "inception_4c/3x3_reduce"
  type: "Convolution"
  bottom: "inception_4b/output"
  top: "inception_4c/3x3_reduce"
  param {
    lr_mult: 1
    decay_mult: 1
  }
  param {
    lr_mult: 2
    decay_mult: 0
  }
  convolution_param {
    num_output: 128
    kernel_size: 1
    weight_filler {
      type: "xavier"
      std: 0.09
    }
    bias_filler {
      type: "constant"
      value: 0.2
    }
  }
}
layer {
  name: "inception_4c/relu_3x3_reduce"
  type: "ReLU"
  bottom: "inception_4c/3x3_reduce"
  top: "inception_4c/3x3_reduce"
}
layer {
  name: "inception_4c/3x3"
  type: "Convolution"
  bottom: "inception_4c/3x3_reduce"
  top: "inception_4c/3x3"
  param {
    lr_mult: 1
    decay_mult: 1
  }
  param {
    lr_mult: 2
    decay_mult: 0
  }
  convolution_param {
    num_output: 256
    pad: 1
    kernel_size: 3
    weight_filler {
      type: "xavier"
      std: 0.03
    }
    bias_filler {
      type: "constant"
      value: 0.2
    }
  }
}
layer {
  name: "inception_4c/relu_3x3"
  type: "ReLU"
  bottom: "inception_4c/3x3"
  top: "inception_4c/3x3"
}
layer {
  name: "inception_4c/5x5_reduce"
  type: "Convolution"
  bottom: "inception_4b/output"
  top: "inception_4c/5x5_reduce"
  param {
    lr_mult: 1
    decay_mult: 1
  }
  param {
    lr_mult: 2
    decay_mult: 0
  }
  convolution_param {
    num_output: 24
    kernel_size: 1
    weight_filler {
      type: "xavier"
      std: 0.2
    }
    bias_filler {
      type: "constant"
      value: 0.2
    }
  }
}
layer {
  name: "inception_4c/relu_5x5_reduce"
  type: "ReLU"
  bottom: "inception_4c/5x5_reduce"
  top: "inception_4c/5x5_reduce"
}
layer {
  name: "inception_4c/5x5"
  type: "Convolution"
  bottom: "inception_4c/5x5_reduce"
  top: "inception_4c/5x5"
  param {
    lr_mult: 1
    decay_mult: 1
  }
  param {
    lr_mult: 2
    decay_mult: 0
  }
  convolution_param {
    num_output: 64
    pad: 2
    kernel_size: 5
    weight_filler {
      type: "xavier"
      std: 0.03
    }
    bias_filler {
      type: "constant"
      value: 0.2
    }
  }
}
layer {
  name: "inception_4c/relu_5x5"
  type: "ReLU"
  bottom: "inception_4c/5x5"
  top: "inception_4c/5x5"
}
layer {
  name: "inception_4c/pool"
  type: "Pooling"
  bottom: "inception_4b/output"
  top: "inception_4c/pool"
  pooling_param {
    pool: MAX
    kernel_size: 3
    stride: 1
    pad: 1
  }
}
layer {
  name: "inception_4c/pool_proj"
  type: "Convolution"
  bottom: "inception_4c/pool"
  top: "inception_4c/pool_proj"
  param {
    lr_mult: 1
    decay_mult: 1
  }
  param {
    lr_mult: 2
    decay_mult: 0
  }
  convolution_param {
    num_output: 64
    kernel_size: 1
    weight_filler {
      type: "xavier"
      std: 0.1
    }
    bias_filler {
      type: "constant"
      value: 0.2
    }
  }
}
layer {
  name: "inception_4c/relu_pool_proj"
  type: "ReLU"
  bottom: "inception_4c/pool_proj"
  top: "inception_4c/pool_proj"
}
layer {
  name: "inception_4c/output"
  type: "Concat"
  bottom: "inception_4c/1x1"
  bottom: "inception_4c/3x3"
  bottom: "inception_4c/5x5"
  bottom: "inception_4c/pool_proj"
  top: "inception_4c/output"
}
layer {
  name: "inception_4d/1x1"
  type: "Convolution"
  bottom: "inception_4c/output"
  top: "inception_4d/1x1"
  param {
    lr_mult: 1
    decay_mult: 1
  }
  param {
    lr_mult: 2
    decay_mult: 0
  }
  convolution_param {
    num_output: 112
    kernel_size: 1
    weight_filler {
      type: "xavier"
      std: 0.03
    }
    bias_filler {
      type: "constant"
      value: 0.2
    }
  }
}
layer {
  name: "inception_4d/relu_1x1"
  type: "ReLU"
  bottom: "inception_4d/1x1"
  top: "inception_4d/1x1"
}
layer {
  name: "inception_4d/3x3_reduce"
  type: "Convolution"
  bottom: "inception_4c/output"
  top: "inception_4d/3x3_reduce"
  param {
    lr_mult: 1
    decay_mult: 1
  }
  param {
    lr_mult: 2
    decay_mult: 0
  }
  convolution_param {
    num_output: 144
    kernel_size: 1
    weight_filler {
      type: "xavier"
      std: 0.09
    }
    bias_filler {
      type: "constant"
      value: 0.2
    }
  }
}
layer {
  name: "inception_4d/relu_3x3_reduce"
  type: "ReLU"
  bottom: "inception_4d/3x3_reduce"
  top: "inception_4d/3x3_reduce"
}
layer {
  name: "inception_4d/3x3"
  type: "Convolution"
  bottom: "inception_4d/3x3_reduce"
  top: "inception_4d/3x3"
  param {
    lr_mult: 1
    decay_mult: 1
  }
  param {
    lr_mult: 2
    decay_mult: 0
  }
  convolution_param {
    num_output: 288
    pad: 1
    kernel_size: 3
    weight_filler {
      type: "xavier"
      std: 0.03
    }
    bias_filler {
      type: "constant"
      value: 0.2
    }
  }
}
layer {
  name: "inception_4d/relu_3x3"
  type: "ReLU"
  bottom: "inception_4d/3x3"
  top: "inception_4d/3x3"
}
layer {
  name: "inception_4d/5x5_reduce"
  type: "Convolution"
  bottom: "inception_4c/output"
  top: "inception_4d/5x5_reduce"
  param {
    lr_mult: 1
    decay_mult: 1
  }
  param {
    lr_mult: 2
    decay_mult: 0
  }
  convolution_param {
    num_output: 32
    kernel_size: 1
    weight_filler {
      type: "xavier"
      std: 0.2
    }
    bias_filler {
      type: "constant"
      value: 0.2
    }
  }
}
layer {
  name: "inception_4d/relu_5x5_reduce"
  type: "ReLU"
  bottom: "inception_4d/5x5_reduce"
  top: "inception_4d/5x5_reduce"
}
layer {
  name: "inception_4d/5x5"
  type: "Convolution"
  bottom: "inception_4d/5x5_reduce"
  top: "inception_4d/5x5"
  param {
    lr_mult: 1
    decay_mult: 1
  }
  param {
    lr_mult: 2
    decay_mult: 0
  }
  convolution_param {
    num_output: 64
    pad: 2
    kernel_size: 5
    weight_filler {
      type: "xavier"
      std: 0.03
    }
    bias_filler {
      type: "constant"
      value: 0.2
    }
  }
}
layer {
  name: "inception_4d/relu_5x5"
  type: "ReLU"
  bottom: "inception_4d/5x5"
  top: "inception_4d/5x5"
}
layer {
  name: "inception_4d/pool"
  type: "Pooling"
  bottom: "inception_4c/output"
  top: "inception_4d/pool"
  pooling_param {
    pool: MAX
    kernel_size: 3
    stride: 1
    pad: 1
  }
}
layer {
  name: "inception_4d/pool_proj"
  type: "Convolution"
  bottom: "inception_4d/pool"
  top: "inception_4d/pool_proj"
  param {
    lr_mult: 1
    decay_mult: 1
  }
  param {
    lr_mult: 2
    decay_mult: 0
  }
  convolution_param {
    num_output: 64
    kernel_size: 1
    weight_filler {
      type: "xavier"
      std: 0.1
    }
    bias_filler {
      type: "constant"
      value: 0.2
    }
  }
}
layer {
  name: "inception_4d/relu_pool_proj"
  type: "ReLU"
  bottom: "inception_4d/pool_proj"
  top: "inception_4d/pool_proj"
}
layer {
  name: "inception_4d/output"
  type: "Concat"
  bottom: "inception_4d/1x1"
  bottom: "inception_4d/3x3"
  bottom: "inception_4d/5x5"
  bottom: "inception_4d/pool_proj"
  top: "inception_4d/output"
}
layer {
  name: "loss2/ave_pool"
  type: "Pooling"
  bottom: "inception_4d/output"
  top: "loss2/ave_pool"
  pooling_param {
    pool: AVE
    kernel_size: 5
    stride: 3
  }
}
layer {
  name: "loss2/conv"
  type: "Convolution"
  bottom: "loss2/ave_pool"
  top: "loss2/conv"
  param {
    lr_mult: 1
    decay_mult: 1
  }
  param {
    lr_mult: 2
    decay_mult: 0
  }
  convolution_param {
    num_output: 128
    kernel_size: 1
    weight_filler {
      type: "xavier"
      std: 0.08
    }
    bias_filler {
      type: "constant"
      value: 0.2
    }
  }
}
layer {
  name: "loss2/relu_conv"
  type: "ReLU"
  bottom: "loss2/conv"
  top: "loss2/conv"
}
layer {
  name: "loss2/fc"
  type: "InnerProduct"
  bottom: "loss2/conv"
  top: "loss2/fc"
  param {
    lr_mult: 1
    decay_mult: 1
  }
  param {
    lr_mult: 2
    decay_mult: 0
  }
  inner_product_param {
    num_output: 1024
    weight_filler {
      type: "xavier"
      std: 0.02
    }
    bias_filler {
      type: "constant"
      value: 0.2
    }
  }
}
layer {
  name: "loss2/relu_fc"
  type: "ReLU"
  bottom: "loss2/fc"
  top: "loss2/fc"
}
layer {
  name: "loss2/drop_fc"
  type: "Dropout"
  bottom: "loss2/fc"
  top: "loss2/fc"
  dropout_param {
    dropout_ratio: 0.7
  }
}
layer {
  name: "loss2/classifier_plantvillage"
  type: "InnerProduct"
  bottom: "loss2/fc"
  top: "loss2/classifier_plantvillage"
  param {
    lr_mult: 1
    decay_mult: 1
  }
  param {
    lr_mult: 2
    decay_mult: 0
  }
  inner_product_param {
    num_output: 38
    weight_filler {
      type: "xavier"
      std: 0.0009765625
    }
    bias_filler {
      type: "constant"
      value: 0
    }
  }
}
layer {
  name: "inception_4e/1x1"
  type: "Convolution"
  bottom: "inception_4d/output"
  top: "inception_4e/1x1"
  param {
    lr_mult: 1
    decay_mult: 1
  }
  param {
    lr_mult: 2
    decay_mult: 0
  }
  convolution_param {
    num_output: 256
    kernel_size: 1
    weight_filler {
      type: "xavier"
      std: 0.03
    }
    bias_filler {
      type: "constant"
      value: 0.2
    }
  }
}
layer {
  name: "inception_4e/relu_1x1"
  type: "ReLU"
  bottom: "inception_4e/1x1"
  top: "inception_4e/1x1"
}
layer {
  name: "inception_4e/3x3_reduce"
  type: "Convolution"
  bottom: "inception_4d/output"
  top: "inception_4e/3x3_reduce"
  param {
    lr_mult: 1
    decay_mult: 1
  }
  param {
    lr_mult: 2
    decay_mult: 0
  }
  convolution_param {
    num_output: 160
    kernel_size: 1
    weight_filler {
      type: "xavier"
      std: 0.09
    }
    bias_filler {
      type: "constant"
      value: 0.2
    }
  }
}
layer {
  name: "inception_4e/relu_3x3_reduce"
  type: "ReLU"
  bottom: "inception_4e/3x3_reduce"
  top: "inception_4e/3x3_reduce"
}
layer {
  name: "inception_4e/3x3"
  type: "Convolution"
  bottom: "inception_4e/3x3_reduce"
  top: "inception_4e/3x3"
  param {
    lr_mult: 1
    decay_mult: 1
  }
  param {
    lr_mult: 2
    decay_mult: 0
  }
  convolution_param {
    num_output: 320
    pad: 1
    kernel_size: 3
    weight_filler {
      type: "xavier"
      std: 0.03
    }
    bias_filler {
      type: "constant"
      value: 0.2
    }
  }
}
layer {
  name: "inception_4e/relu_3x3"
  type: "ReLU"
  bottom: "inception_4e/3x3"
  top: "inception_4e/3x3"
}
layer {
  name: "inception_4e/5x5_reduce"
  type: "Convolution"
  bottom: "inception_4d/output"
  top: "inception_4e/5x5_reduce"
  param {
    lr_mult: 1
    decay_mult: 1
  }
  param {
    lr_mult: 2
    decay_mult: 0
  }
  convolution_param {
    num_output: 32
    kernel_size: 1
    weight_filler {
      type: "xavier"
      std: 0.2
    }
    bias_filler {
      type: "constant"
      value: 0.2
    }
  }
}
layer {
  name: "inception_4e/relu_5x5_reduce"
  type: "ReLU"
  bottom: "inception_4e/5x5_reduce"
  top: "inception_4e/5x5_reduce"
}
layer {
  name: "inception_4e/5x5"
  type: "Convolution"
  bottom: "inception_4e/5x5_reduce"
  top: "inception_4e/
I0403 13:59:22.716770 12350 layer_factory.hpp:77] Creating layer data
I0403 13:59:22.717387 12350 net.cpp:91] Creating Layer data
I0403 13:59:22.717417 12350 net.cpp:399] data -> data
I0403 13:59:22.717468 12350 net.cpp:399] data -> label
I0403 13:59:22.717502 12350 data_transformer.cpp:25] Loading mean file from: /home/mohanty/data/final_dataset/lmdb/segmented-20-80/mean.binaryproto
I0403 13:59:22.722301 12356 db_lmdb.cpp:38] Opened lmdb /home/mohanty/data/final_dataset/lmdb/segmented-20-80/test_db
I0403 13:59:22.731005 12350 data_layer.cpp:41] output data size: 24,3,224,224
I0403 13:59:22.758085 12350 net.cpp:141] Setting up data
I0403 13:59:22.758172 12350 net.cpp:148] Top shape: 24 3 224 224 (3612672)
I0403 13:59:22.758195 12350 net.cpp:148] Top shape: 24 (24)
I0403 13:59:22.758210 12350 net.cpp:156] Memory required for data: 14450784
I0403 13:59:22.758239 12350 layer_factory.hpp:77] Creating layer label_data_1_split
I0403 13:59:22.758265 12350 net.cpp:91] Creating Layer label_data_1_split
I0403 13:59:22.758285 12350 net.cpp:425] label_data_1_split <- label
I0403 13:59:22.758316 12350 net.cpp:399] label_data_1_split -> label_data_1_split_0
I0403 13:59:22.758344 12350 net.cpp:399] label_data_1_split -> label_data_1_split_1
I0403 13:59:22.758366 12350 net.cpp:399] label_data_1_split -> label_data_1_split_2
I0403 13:59:22.758388 12350 net.cpp:399] label_data_1_split -> label_data_1_split_3
I0403 13:59:22.758409 12350 net.cpp:399] label_data_1_split -> label_data_1_split_4
I0403 13:59:22.758429 12350 net.cpp:399] label_data_1_split -> label_data_1_split_5
I0403 13:59:22.758447 12350 net.cpp:399] label_data_1_split -> label_data_1_split_6
I0403 13:59:22.758466 12350 net.cpp:399] label_data_1_split -> label_data_1_split_7
I0403 13:59:22.758486 12350 net.cpp:399] label_data_1_split -> label_data_1_split_8
I0403 13:59:22.758505 12350 net.cpp:399] label_data_1_split -> label_data_1_split_9
I0403 13:59:22.758626 12350 net.cpp:141] Setting up label_data_1_split
I0403 13:59:22.758651 12350 net.cpp:148] Top shape: 24 (24)
I0403 13:59:22.758667 12350 net.cpp:148] Top shape: 24 (24)
I0403 13:59:22.758682 12350 net.cpp:148] Top shape: 24 (24)
I0403 13:59:22.758697 12350 net.cpp:148] Top shape: 24 (24)
I0403 13:59:22.758713 12350 net.cpp:148] Top shape: 24 (24)
I0403 13:59:22.758728 12350 net.cpp:148] Top shape: 24 (24)
I0403 13:59:22.758743 12350 net.cpp:148] Top shape: 24 (24)
I0403 13:59:22.758757 12350 net.cpp:148] Top shape: 24 (24)
I0403 13:59:22.758772 12350 net.cpp:148] Top shape: 24 (24)
I0403 13:59:22.758787 12350 net.cpp:148] Top shape: 24 (24)
I0403 13:59:22.758834 12350 net.cpp:156] Memory required for data: 14451744
I0403 13:59:22.758851 12350 layer_factory.hpp:77] Creating layer conv1/7x7_s2
I0403 13:59:22.758882 12350 net.cpp:91] Creating Layer conv1/7x7_s2
I0403 13:59:22.758899 12350 net.cpp:425] conv1/7x7_s2 <- data
I0403 13:59:22.758919 12350 net.cpp:399] conv1/7x7_s2 -> conv1/7x7_s2
I0403 13:59:22.895272 12350 net.cpp:141] Setting up conv1/7x7_s2
I0403 13:59:22.895349 12350 net.cpp:148] Top shape: 24 64 112 112 (19267584)
I0403 13:59:22.895366 12350 net.cpp:156] Memory required for data: 91522080
I0403 13:59:22.895396 12350 layer_factory.hpp:77] Creating layer conv1/relu_7x7
I0403 13:59:22.895422 12350 net.cpp:91] Creating Layer conv1/relu_7x7
I0403 13:59:22.895440 12350 net.cpp:425] conv1/relu_7x7 <- conv1/7x7_s2
I0403 13:59:22.895458 12350 net.cpp:386] conv1/relu_7x7 -> conv1/7x7_s2 (in-place)
I0403 13:59:22.895730 12350 net.cpp:141] Setting up conv1/relu_7x7
I0403 13:59:22.895759 12350 net.cpp:148] Top shape: 24 64 112 112 (19267584)
I0403 13:59:22.895774 12350 net.cpp:156] Memory required for data: 168592416
I0403 13:59:22.895789 12350 layer_factory.hpp:77] Creating layer pool1/3x3_s2
I0403 13:59:22.895812 12350 net.cpp:91] Creating Layer pool1/3x3_s2
I0403 13:59:22.895829 12350 net.cpp:425] pool1/3x3_s2 <- conv1/7x7_s2
I0403 13:59:22.895846 12350 net.cpp:399] pool1/3x3_s2 -> pool1/3x3_s2
I0403 13:59:22.895922 12350 net.cpp:141] Setting up pool1/3x3_s2
I0403 13:59:22.895946 12350 net.cpp:148] Top shape: 24 64 56 56 (4816896)
I0403 13:59:22.895961 12350 net.cpp:156] Memory required for data: 187860000
I0403 13:59:22.895974 12350 layer_factory.hpp:77] Creating layer pool1/norm1
I0403 13:59:22.895999 12350 net.cpp:91] Creating Layer pool1/norm1
I0403 13:59:22.896016 12350 net.cpp:425] pool1/norm1 <- pool1/3x3_s2
I0403 13:59:22.896035 12350 net.cpp:399] pool1/norm1 -> pool1/norm1
I0403 13:59:22.896338 12350 net.cpp:141] Setting up pool1/norm1
I0403 13:59:22.896366 12350 net.cpp:148] Top shape: 24 64 56 56 (4816896)
I0403 13:59:22.896383 12350 net.cpp:156] Memory required for data: 207127584
I0403 13:59:22.896397 12350 layer_factory.hpp:77] Creating layer conv2/3x3_reduce
I0403 13:59:22.896423 12350 net.cpp:91] Creating Layer conv2/3x3_reduce
I0403 13:59:22.896440 12350 net.cpp:425] conv2/3x3_reduce <- pool1/norm1
I0403 13:59:22.896458 12350 net.cpp:399] conv2/3x3_reduce -> conv2/3x3_reduce
I0403 13:59:22.897846 12350 net.cpp:141] Setting up conv2/3x3_reduce
I0403 13:59:22.897876 12350 net.cpp:148] Top shape: 24 64 56 56 (4816896)
I0403 13:59:22.897891 12350 net.cpp:156] Memory required for data: 226395168
I0403 13:59:22.897912 12350 layer_factory.hpp:77] Creating layer conv2/relu_3x3_reduce
I0403 13:59:22.897933 12350 net.cpp:91] Creating Layer conv2/relu_3x3_reduce
I0403 13:59:22.897948 12350 net.cpp:425] conv2/relu_3x3_reduce <- conv2/3x3_reduce
I0403 13:59:22.897964 12350 net.cpp:386] conv2/relu_3x3_reduce -> conv2/3x3_reduce (in-place)
I0403 13:59:22.898238 12350 net.cpp:141] Setting up conv2/relu_3x3_reduce
I0403 13:59:22.898265 12350 net.cpp:148] Top shape: 24 64 56 56 (4816896)
I0403 13:59:22.898279 12350 net.cpp:156] Memory required for data: 245662752
I0403 13:59:22.898293 12350 layer_factory.hpp:77] Creating layer conv2/3x3
I0403 13:59:22.898315 12350 net.cpp:91] Creating Layer conv2/3x3
I0403 13:59:22.898332 12350 net.cpp:425] conv2/3x3 <- conv2/3x3_reduce
I0403 13:59:22.898352 12350 net.cpp:399] conv2/3x3 -> conv2/3x3
I0403 13:59:22.900615 12350 net.cpp:141] Setting up conv2/3x3
I0403 13:59:22.900645 12350 net.cpp:148] Top shape: 24 192 56 56 (14450688)
I0403 13:59:22.900660 12350 net.cpp:156] Memory required for data: 303465504
I0403 13:59:22.900682 12350 layer_factory.hpp:77] Creating layer conv2/relu_3x3
I0403 13:59:22.900701 12350 net.cpp:91] Creating Layer conv2/relu_3x3
I0403 13:59:22.900717 12350 net.cpp:425] conv2/relu_3x3 <- conv2/3x3
I0403 13:59:22.900733 12350 net.cpp:386] conv2/relu_3x3 -> conv2/3x3 (in-place)
I0403 13:59:22.900902 12350 net.cpp:141] Setting up conv2/relu_3x3
I0403 13:59:22.900928 12350 net.cpp:148] Top shape: 24 192 56 56 (14450688)
I0403 13:59:22.900976 12350 net.cpp:156] Memory required for data: 361268256
I0403 13:59:22.901005 12350 layer_factory.hpp:77] Creating layer conv2/norm2
I0403 13:59:22.901023 12350 net.cpp:91] Creating Layer conv2/norm2
I0403 13:59:22.901038 12350 net.cpp:425] conv2/norm2 <- conv2/3x3
I0403 13:59:22.901059 12350 net.cpp:399] conv2/norm2 -> conv2/norm2
I0403 13:59:22.901360 12350 net.cpp:141] Setting up conv2/norm2
I0403 13:59:22.901386 12350 net.cpp:148] Top shape: 24 192 56 56 (14450688)
I0403 13:59:22.901401 12350 net.cpp:156] Memory required for data: 419071008
I0403 13:59:22.901415 12350 layer_factory.hpp:77] Creating layer pool2/3x3_s2
I0403 13:59:22.901432 12350 net.cpp:91] Creating Layer pool2/3x3_s2
I0403 13:59:22.901446 12350 net.cpp:425] pool2/3x3_s2 <- conv2/norm2
I0403 13:59:22.901466 12350 net.cpp:399] pool2/3x3_s2 -> pool2/3x3_s2
I0403 13:59:22.901520 12350 net.cpp:141] Setting up pool2/3x3_s2
I0403 13:59:22.901548 12350 net.cpp:148] Top shape: 24 192 28 28 (3612672)
I0403 13:59:22.901566 12350 net.cpp:156] Memory required for data: 433521696
I0403 13:59:22.901579 12350 layer_factory.hpp:77] Creating layer pool2/3x3_s2_pool2/3x3_s2_0_split
I0403 13:59:22.901597 12350 net.cpp:91] Creating Layer pool2/3x3_s2_pool2/3x3_s2_0_split
I0403 13:59:22.901612 12350 net.cpp:425] pool2/3x3_s2_pool2/3x3_s2_0_split <- pool2/3x3_s2
I0403 13:59:22.901628 12350 net.cpp:399] pool2/3x3_s2_pool2/3x3_s2_0_split -> pool2/3x3_s2_pool2/3x3_s2_0_split_0
I0403 13:59:22.901648 12350 net.cpp:399] pool2/3x3_s2_pool2/3x3_s2_0_split -> pool2/3x3_s2_pool2/3x3_s2_0_split_1
I0403 13:59:22.901669 12350 net.cpp:399] pool2/3x3_s2_pool2/3x3_s2_0_split -> pool2/3x3_s2_pool2/3x3_s2_0_split_2
I0403 13:59:22.901689 12350 net.cpp:399] pool2/3x3_s2_pool2/3x3_s2_0_split -> pool2/3x3_s2_pool2/3x3_s2_0_split_3
I0403 13:59:22.901759 12350 net.cpp:141] Setting up pool2/3x3_s2_pool2/3x3_s2_0_split
I0403 13:59:22.901782 12350 net.cpp:148] Top shape: 24 192 28 28 (3612672)
I0403 13:59:22.901796 12350 net.cpp:148] Top shape: 24 192 28 28 (3612672)
I0403 13:59:22.901810 12350 net.cpp:148] Top shape: 24 192 28 28 (3612672)
I0403 13:59:22.901825 12350 net.cpp:148] Top shape: 24 192 28 28 (3612672)
I0403 13:59:22.901839 12350 net.cpp:156] Memory required for data: 491324448
I0403 13:59:22.901854 12350 layer_factory.hpp:77] Creating layer inception_3a/1x1
I0403 13:59:22.901875 12350 net.cpp:91] Creating Layer inception_3a/1x1
I0403 13:59:22.901892 12350 net.cpp:425] inception_3a/1x1 <- pool2/3x3_s2_pool2/3x3_s2_0_split_0
I0403 13:59:22.901909 12350 net.cpp:399] inception_3a/1x1 -> inception_3a/1x1
I0403 13:59:22.903412 12350 net.cpp:141] Setting up inception_3a/1x1
I0403 13:59:22.903441 12350 net.cpp:148] Top shape: 24 64 28 28 (1204224)
I0403 13:59:22.903456 12350 net.cpp:156] Memory required for data: 496141344
I0403 13:59:22.903475 12350 layer_factory.hpp:77] Creating layer inception_3a/relu_1x1
I0403 13:59:22.903494 12350 net.cpp:91] Creating Layer inception_3a/relu_1x1
I0403 13:59:22.903512 12350 net.cpp:425] inception_3a/relu_1x1 <- inception_3a/1x1
I0403 13:59:22.903527 12350 net.cpp:386] inception_3a/relu_1x1 -> inception_3a/1x1 (in-place)
I0403 13:59:22.903707 12350 net.cpp:141] Setting up inception_3a/relu_1x1
I0403 13:59:22.903730 12350 net.cpp:148] Top shape: 24 64 28 28 (1204224)
I0403 13:59:22.903748 12350 net.cpp:156] Memory required for data: 500958240
I0403 13:59:22.903762 12350 layer_factory.hpp:77] Creating layer inception_3a/3x3_reduce
I0403 13:59:22.903782 12350 net.cpp:91] Creating Layer inception_3a/3x3_reduce
I0403 13:59:22.903797 12350 net.cpp:425] inception_3a/3x3_reduce <- pool2/3x3_s2_pool2/3x3_s2_0_split_1
I0403 13:59:22.903818 12350 net.cpp:399] inception_3a/3x3_reduce -> inception_3a/3x3_reduce
I0403 13:59:22.905488 12350 net.cpp:141] Setting up inception_3a/3x3_reduce
I0403 13:59:22.905519 12350 net.cpp:148] Top shape: 24 96 28 28 (1806336)
I0403 13:59:22.905534 12350 net.cpp:156] Memory required for data: 508183584
I0403 13:59:22.905562 12350 layer_factory.hpp:77] Creating layer inception_3a/relu_3x3_reduce
I0403 13:59:22.905597 12350 net.cpp:91] Creating Layer inception_3a/relu_3x3_reduce
I0403 13:59:22.905616 12350 net.cpp:425] inception_3a/relu_3x3_reduce <- inception_3a/3x3_reduce
I0403 13:59:22.905632 12350 net.cpp:386] inception_3a/relu_3x3_reduce -> inception_3a/3x3_reduce (in-place)
I0403 13:59:22.905812 12350 net.cpp:141] Setting up inception_3a/relu_3x3_reduce
I0403 13:59:22.905836 12350 net.cpp:148] Top shape: 24 96 28 28 (1806336)
I0403 13:59:22.905850 12350 net.cpp:156] Memory required for data: 515408928
I0403 13:59:22.905864 12350 layer_factory.hpp:77] Creating layer inception_3a/3x3
I0403 13:59:22.905889 12350 net.cpp:91] Creating Layer inception_3a/3x3
I0403 13:59:22.905906 12350 net.cpp:425] inception_3a/3x3 <- inception_3a/3x3_reduce
I0403 13:59:22.905925 12350 net.cpp:399] inception_3a/3x3 -> inception_3a/3x3
I0403 13:59:22.907555 12350 net.cpp:141] Setting up inception_3a/3x3
I0403 13:59:22.907585 12350 net.cpp:148] Top shape: 24 128 28 28 (2408448)
I0403 13:59:22.907603 12350 net.cpp:156] Memory required for data: 525042720
I0403 13:59:22.907620 12350 layer_factory.hpp:77] Creating layer inception_3a/relu_3x3
I0403 13:59:22.907641 12350 net.cpp:91] Creating Layer inception_3a/relu_3x3
I0403 13:59:22.907660 12350 net.cpp:425] inception_3a/relu_3x3 <- inception_3a/3x3
I0403 13:59:22.907676 12350 net.cpp:386] inception_3a/relu_3x3 -> inception_3a/3x3 (in-place)
I0403 13:59:22.907946 12350 net.cpp:141] Setting up inception_3a/relu_3x3
I0403 13:59:22.907973 12350 net.cpp:148] Top shape: 24 128 28 28 (2408448)
I0403 13:59:22.907987 12350 net.cpp:156] Memory required for data: 534676512
I0403 13:59:22.908001 12350 layer_factory.hpp:77] Creating layer inception_3a/5x5_reduce
I0403 13:59:22.908022 12350 net.cpp:91] Creating Layer inception_3a/5x5_reduce
I0403 13:59:22.908040 12350 net.cpp:425] inception_3a/5x5_reduce <- pool2/3x3_s2_pool2/3x3_s2_0_split_2
I0403 13:59:22.908061 12350 net.cpp:399] inception_3a/5x5_reduce -> inception_3a/5x5_reduce
I0403 13:59:22.909009 12350 net.cpp:141] Setting up inception_3a/5x5_reduce
I0403 13:59:22.909039 12350 net.cpp:148] Top shape: 24 16 28 28 (301056)
I0403 13:59:22.909054 12350 net.cpp:156] Memory required for data: 535880736
I0403 13:59:22.909072 12350 layer_factory.hpp:77] Creating layer inception_3a/relu_5x5_reduce
I0403 13:59:22.909095 12350 net.cpp:91] Creating Layer inception_3a/relu_5x5_reduce
I0403 13:59:22.909111 12350 net.cpp:425] inception_3a/relu_5x5_reduce <- inception_3a/5x5_reduce
I0403 13:59:22.909127 12350 net.cpp:386] inception_3a/relu_5x5_reduce -> inception_3a/5x5_reduce (in-place)
I0403 13:59:22.909418 12350 net.cpp:141] Setting up inception_3a/relu_5x5_reduce
I0403 13:59:22.909446 12350 net.cpp:148] Top shape: 24 16 28 28 (301056)
I0403 13:59:22.909462 12350 net.cpp:156] Memory required for data: 537084960
I0403 13:59:22.909476 12350 layer_factory.hpp:77] Creating layer inception_3a/5x5
I0403 13:59:22.909500 12350 net.cpp:91] Creating Layer inception_3a/5x5
I0403 13:59:22.909518 12350 net.cpp:425] inception_3a/5x5 <- inception_3a/5x5_reduce
I0403 13:59:22.909539 12350 net.cpp:399] inception_3a/5x5 -> inception_3a/5x5
I0403 13:59:22.910581 12350 net.cpp:141] Setting up inception_3a/5x5
I0403 13:59:22.910609 12350 net.cpp:148] Top shape: 24 32 28 28 (602112)
I0403 13:59:22.910624 12350 net.cpp:156] Memory required for data: 539493408
I0403 13:59:22.910641 12350 layer_factory.hpp:77] Creating layer inception_3a/relu_5x5
I0403 13:59:22.910661 12350 net.cpp:91] Creating Layer inception_3a/relu_5x5
I0403 13:59:22.910678 12350 net.cpp:425] inception_3a/relu_5x5 <- inception_3a/5x5
I0403 13:59:22.910696 12350 net.cpp:386] inception_3a/relu_5x5 -> inception_3a/5x5 (in-place)
I0403 13:59:22.910866 12350 net.cpp:141] Setting up inception_3a/relu_5x5
I0403 13:59:22.910892 12350 net.cpp:148] Top shape: 24 32 28 28 (602112)
I0403 13:59:22.910907 12350 net.cpp:156] Memory required for data: 541901856
I0403 13:59:22.910922 12350 layer_factory.hpp:77] Creating layer inception_3a/pool
I0403 13:59:22.910938 12350 net.cpp:91] Creating Layer inception_3a/pool
I0403 13:59:22.910967 12350 net.cpp:425] inception_3a/pool <- pool2/3x3_s2_pool2/3x3_s2_0_split_3
I0403 13:59:22.910985 12350 net.cpp:399] inception_3a/pool -> inception_3a/pool
I0403 13:59:22.911042 12350 net.cpp:141] Setting up inception_3a/pool
I0403 13:59:22.911065 12350 net.cpp:148] Top shape: 24 192 28 28 (3612672)
I0403 13:59:22.911080 12350 net.cpp:156] Memory required for data: 556352544
I0403 13:59:22.911094 12350 layer_factory.hpp:77] Creating layer inception_3a/pool_proj
I0403 13:59:22.911115 12350 net.cpp:91] Creating Layer inception_3a/pool_proj
I0403 13:59:22.911133 12350 net.cpp:425] inception_3a/pool_proj <- inception_3a/pool
I0403 13:59:22.911154 12350 net.cpp:399] inception_3a/pool_proj -> inception_3a/pool_proj
I0403 13:59:22.912104 12350 net.cpp:141] Setting up inception_3a/pool_proj
I0403 13:59:22.912130 12350 net.cpp:148] Top shape: 24 32 28 28 (602112)
I0403 13:59:22.912145 12350 net.cpp:156] Memory required for data: 558760992
I0403 13:59:22.912165 12350 layer_factory.hpp:77] Creating layer inception_3a/relu_pool_proj
I0403 13:59:22.912186 12350 net.cpp:91] Creating Layer inception_3a/relu_pool_proj
I0403 13:59:22.912202 12350 net.cpp:425] inception_3a/relu_pool_proj <- inception_3a/pool_proj
I0403 13:59:22.912219 12350 net.cpp:386] inception_3a/relu_pool_proj -> inception_3a/pool_proj (in-place)
I0403 13:59:22.912488 12350 net.cpp:141] Setting up inception_3a/relu_pool_proj
I0403 13:59:22.912513 12350 net.cpp:148] Top shape: 24 32 28 28 (602112)
I0403 13:59:22.912528 12350 net.cpp:156] Memory required for data: 561169440
I0403 13:59:22.912545 12350 layer_factory.hpp:77] Creating layer inception_3a/output
I0403 13:59:22.912565 12350 net.cpp:91] Creating Layer inception_3a/output
I0403 13:59:22.912581 12350 net.cpp:425] inception_3a/output <- inception_3a/1x1
I0403 13:59:22.912597 12350 net.cpp:425] inception_3a/output <- inception_3a/3x3
I0403 13:59:22.912611 12350 net.cpp:425] inception_3a/output <- inception_3a/5x5
I0403 13:59:22.912626 12350 net.cpp:425] inception_3a/output <- inception_3a/pool_proj
I0403 13:59:22.912642 12350 net.cpp:399] inception_3a/output -> inception_3a/output
I0403 13:59:22.912689 12350 net.cpp:141] Setting up inception_3a/output
I0403 13:59:22.912710 12350 net.cpp:148] Top shape: 24 256 28 28 (4816896)
I0403 13:59:22.912724 12350 net.cpp:156] Memory required for data: 580437024
I0403 13:59:22.912739 12350 layer_factory.hpp:77] Creating layer inception_3a/output_inception_3a/output_0_split
I0403 13:59:22.912753 12350 net.cpp:91] Creating Layer inception_3a/output_inception_3a/output_0_split
I0403 13:59:22.912767 12350 net.cpp:425] inception_3a/output_inception_3a/output_0_split <- inception_3a/output
I0403 13:59:22.912786 12350 net.cpp:399] inception_3a/output_inception_3a/output_0_split -> inception_3a/output_inception_3a/output_0_split_0
I0403 13:59:22.912804 12350 net.cpp:399] inception_3a/output_inception_3a/output_0_split -> inception_3a/output_inception_3a/output_0_split_1
I0403 13:59:22.912828 12350 net.cpp:399] inception_3a/output_inception_3a/output_0_split -> inception_3a/output_inception_3a/output_0_split_2
I0403 13:59:22.912863 12350 net.cpp:399] inception_3a/output_inception_3a/output_0_split -> inception_3a/output_inception_3a/output_0_split_3
I0403 13:59:22.912935 12350 net.cpp:141] Setting up inception_3a/output_inception_3a/output_0_split
I0403 13:59:22.912957 12350 net.cpp:148] Top shape: 24 256 28 28 (4816896)
I0403 13:59:22.912974 12350 net.cpp:148] Top shape: 24 256 28 28 (4816896)
I0403 13:59:22.912989 12350 net.cpp:148] Top shape: 24 256 28 28 (4816896)
I0403 13:59:22.913003 12350 net.cpp:148] Top shape: 24 256 28 28 (4816896)
I0403 13:59:22.913017 12350 net.cpp:156] Memory required for data: 657507360
I0403 13:59:22.913030 12350 layer_factory.hpp:77] Creating layer inception_3b/1x1
I0403 13:59:22.913053 12350 net.cpp:91] Creating Layer inception_3b/1x1
I0403 13:59:22.913069 12350 net.cpp:425] inception_3b/1x1 <- inception_3a/output_inception_3a/output_0_split_0
I0403 13:59:22.913089 12350 net.cpp:399] inception_3b/1x1 -> inception_3b/1x1
I0403 13:59:22.914192 12350 net.cpp:141] Setting up inception_3b/1x1
I0403 13:59:22.914232 12350 net.cpp:148] Top shape: 24 128 28 28 (2408448)
I0403 13:59:22.914247 12350 net.cpp:156] Memory required for data: 667141152
I0403 13:59:22.914264 12350 layer_factory.hpp:77] Creating layer inception_3b/relu_1x1
I0403 13:59:22.914285 12350 net.cpp:91] Creating Layer inception_3b/relu_1x1
I0403 13:59:22.914301 12350 net.cpp:425] inception_3b/relu_1x1 <- inception_3b/1x1
I0403 13:59:22.914317 12350 net.cpp:386] inception_3b/relu_1x1 -> inception_3b/1x1 (in-place)
I0403 13:59:22.914480 12350 net.cpp:141] Setting up inception_3b/relu_1x1
I0403 13:59:22.914505 12350 net.cpp:148] Top shape: 24 128 28 28 (2408448)
I0403 13:59:22.914518 12350 net.cpp:156] Memory required for data: 676774944
I0403 13:59:22.914533 12350 layer_factory.hpp:77] Creating layer inception_3b/3x3_reduce
I0403 13:59:22.914567 12350 net.cpp:91] Creating Layer inception_3b/3x3_reduce
I0403 13:59:22.914587 12350 net.cpp:425] inception_3b/3x3_reduce <- inception_3a/output_inception_3a/output_0_split_1
I0403 13:59:22.914604 12350 net.cpp:399] inception_3b/3x3_reduce -> inception_3b/3x3_reduce
I0403 13:59:22.915730 12350 net.cpp:141] Setting up inception_3b/3x3_reduce
I0403 13:59:22.915757 12350 net.cpp:148] Top shape: 24 128 28 28 (2408448)
I0403 13:59:22.915772 12350 net.cpp:156] Memory required for data: 686408736
I0403 13:59:22.915789 12350 layer_factory.hpp:77] Creating layer inception_3b/relu_3x3_reduce
I0403 13:59:22.915807 12350 net.cpp:91] Creating Layer inception_3b/relu_3x3_reduce
I0403 13:59:22.915820 12350 net.cpp:425] inception_3b/relu_3x3_reduce <- inception_3b/3x3_reduce
I0403 13:59:22.915839 12350 net.cpp:386] inception_3b/relu_3x3_reduce -> inception_3b/3x3_reduce (in-place)
I0403 13:59:22.916007 12350 net.cpp:141] Setting up inception_3b/relu_3x3_reduce
I0403 13:59:22.916030 12350 net.cpp:148] Top shape: 24 128 28 28 (2408448)
I0403 13:59:22.916044 12350 net.cpp:156] Memory required for data: 696042528
I0403 13:59:22.916059 12350 layer_factory.hpp:77] Creating layer inception_3b/3x3
I0403 13:59:22.916085 12350 net.cpp:91] Creating Layer inception_3b/3x3
I0403 13:59:22.916102 12350 net.cpp:425] inception_3b/3x3 <- inception_3b/3x3_reduce
I0403 13:59:22.916121 12350 net.cpp:399] inception_3b/3x3 -> inception_3b/3x3
I0403 13:59:22.918998 12350 net.cpp:141] Setting up inception_3b/3x3
I0403 13:59:22.919028 12350 net.cpp:148] Top shape: 24 192 28 28 (3612672)
I0403 13:59:22.919044 12350 net.cpp:156] Memory required for data: 710493216
I0403 13:59:22.919061 12350 layer_factory.hpp:77] Creating layer inception_3b/relu_3x3
I0403 13:59:22.919082 12350 net.cpp:91] Creating Layer inception_3b/relu_3x3
I0403 13:59:22.919101 12350 net.cpp:425] inception_3b/relu_3x3 <- inception_3b/3x3
I0403 13:59:22.919121 12350 net.cpp:386] inception_3b/relu_3x3 -> inception_3b/3x3 (in-place)
I0403 13:59:22.919394 12350 net.cpp:141] Setting up inception_3b/relu_3x3
I0403 13:59:22.919420 12350 net.cpp:148] Top shape: 24 192 28 28 (3612672)
I0403 13:59:22.919435 12350 net.cpp:156] Memory required for data: 724943904
I0403 13:59:22.919450 12350 layer_factory.hpp:77] Creating layer inception_3b/5x5_reduce
I0403 13:59:22.919472 12350 net.cpp:91] Creating Layer inception_3b/5x5_reduce
I0403 13:59:22.919491 12350 net.cpp:425] inception_3b/5x5_reduce <- inception_3a/output_inception_3a/output_0_split_2
I0403 13:59:22.919512 12350 net.cpp:399] inception_3b/5x5_reduce -> inception_3b/5x5_reduce
I0403 13:59:22.920495 12350 net.cpp:141] Setting up inception_3b/5x5_reduce
I0403 13:59:22.920521 12350 net.cpp:148] Top shape: 24 32 28 28 (602112)
I0403 13:59:22.920541 12350 net.cpp:156] Memory required for data: 727352352
I0403 13:59:22.920559 12350 layer_factory.hpp:77] Creating layer inception_3b/relu_5x5_reduce
I0403 13:59:22.920579 12350 net.cpp:91] Creating Layer inception_3b/relu_5x5_reduce
I0403 13:59:22.920596 12350 net.cpp:425] inception_3b/relu_5x5_reduce <- inception_3b/5x5_reduce
I0403 13:59:22.920614 12350 net.cpp:386] inception_3b/relu_5x5_reduce -> inception_3b/5x5_reduce (in-place)
I0403 13:59:22.920802 12350 net.cpp:141] Setting up inception_3b/relu_5x5_reduce
I0403 13:59:22.920830 12350 net.cpp:148] Top shape: 24 32 28 28 (602112)
I0403 13:59:22.920845 12350 net.cpp:156] Memory required for data: 729760800
I0403 13:59:22.920858 12350 layer_factory.hpp:77] Creating layer inception_3b/5x5
I0403 13:59:22.920881 12350 net.cpp:91] Creating Layer inception_3b/5x5
I0403 13:59:22.920897 12350 net.cpp:425] inception_3b/5x5 <- inception_3b/5x5_reduce
I0403 13:59:22.920915 12350 net.cpp:399] inception_3b/5x5 -> inception_3b/5x5
I0403 13:59:22.922840 12350 net.cpp:141] Setting up inception_3b/5x5
I0403 13:59:22.922869 12350 net.cpp:148] Top shape: 24 96 28 28 (1806336)
I0403 13:59:22.922884 12350 net.cpp:156] Memory required for data: 736986144
I0403 13:59:22.922902 12350 layer_factory.hpp:77] Creating layer inception_3b/relu_5x5
I0403 13:59:22.922920 12350 net.cpp:91] Creating Layer inception_3b/relu_5x5
I0403 13:59:22.922937 12350 net.cpp:425] inception_3b/relu_5x5 <- inception_3b/5x5
I0403 13:59:22.922955 12350 net.cpp:386] inception_3b/relu_5x5 -> inception_3b/5x5 (in-place)
I0403 13:59:22.923157 12350 net.cpp:141] Setting up inception_3b/relu_5x5
I0403 13:59:22.923182 12350 net.cpp:148] Top shape: 24 96 28 28 (1806336)
I0403 13:59:22.923195 12350 net.cpp:156] Memory required for data: 744211488
I0403 13:59:22.923209 12350 layer_factory.hpp:77] Creating layer inception_3b/pool
I0403 13:59:22.923226 12350 net.cpp:91] Creating Layer inception_3b/pool
I0403 13:59:22.923243 12350 net.cpp:425] inception_3b/pool <- inception_3a/output_inception_3a/output_0_split_3
I0403 13:59:22.923259 12350 net.cpp:399] inception_3b/pool -> inception_3b/pool
I0403 13:59:22.923317 12350 net.cpp:141] Setting up inception_3b/pool
I0403 13:59:22.923352 12350 net.cpp:148] Top shape: 24 256 28 28 (4816896)
I0403 13:59:22.923365 12350 net.cpp:156] Memory required for data: 763479072
I0403 13:59:22.923378 12350 layer_factory.hpp:77] Creating layer inception_3b/pool_proj
I0403 13:59:22.923399 12350 net.cpp:91] Creating Layer inception_3b/pool_proj
I0403 13:59:22.923416 12350 net.cpp:425] inception_3b/pool_proj <- inception_3b/pool
I0403 13:59:22.923435 12350 net.cpp:399] inception_3b/pool_proj -> inception_3b/pool_proj
I0403 13:59:22.924443 12350 net.cpp:141] Setting up inception_3b/pool_proj
I0403 13:59:22.924474 12350 net.cpp:148] Top shape: 24 64 28 28 (1204224)
I0403 13:59:22.924490 12350 net.cpp:156] Memory required for data: 768295968
I0403 13:59:22.924510 12350 layer_factory.hpp:77] Creating layer inception_3b/relu_pool_proj
I0403 13:59:22.924527 12350 net.cpp:91] Creating Layer inception_3b/relu_pool_proj
I0403 13:59:22.924556 12350 net.cpp:425] inception_3b/relu_pool_proj <- inception_3b/pool_proj
I0403 13:59:22.924574 12350 net.cpp:386] inception_3b/relu_pool_proj -> inception_3b/pool_proj (in-place)
I0403 13:59:22.924990 12350 net.cpp:141] Setting up inception_3b/relu_pool_proj
I0403 13:59:22.925015 12350 net.cpp:148] Top shape: 24 64 28 28 (1204224)
I0403 13:59:22.925029 12350 net.cpp:156] Memory required for data: 773112864
I0403 13:59:22.925042 12350 layer_factory.hpp:77] Creating layer inception_3b/output
I0403 13:59:22.925061 12350 net.cpp:91] Creating Layer inception_3b/output
I0403 13:59:22.925077 12350 net.cpp:425] inception_3b/output <- inception_3b/1x1
I0403 13:59:22.925092 12350 net.cpp:425] inception_3b/output <- inception_3b/3x3
I0403 13:59:22.925107 12350 net.cpp:425] inception_3b/output <- inception_3b/5x5
I0403 13:59:22.925122 12350 net.cpp:425] inception_3b/output <- inception_3b/pool_proj
I0403 13:59:22.925137 12350 net.cpp:399] inception_3b/output -> inception_3b/output
I0403 13:59:22.925179 12350 net.cpp:141] Setting up inception_3b/output
I0403 13:59:22.925201 12350 net.cpp:148] Top shape: 24 480 28 28 (9031680)
I0403 13:59:22.925215 12350 net.cpp:156] Memory required for data: 809239584
I0403 13:59:22.925228 12350 layer_factory.hpp:77] Creating layer pool3/3x3_s2
I0403 13:59:22.925245 12350 net.cpp:91] Creating Layer pool3/3x3_s2
I0403 13:59:22.925258 12350 net.cpp:425] pool3/3x3_s2 <- inception_3b/output
I0403 13:59:22.925292 12350 net.cpp:399] pool3/3x3_s2 -> pool3/3x3_s2
I0403 13:59:22.925349 12350 net.cpp:141] Setting up pool3/3x3_s2
I0403 13:59:22.925371 12350 net.cpp:148] Top shape: 24 480 14 14 (2257920)
I0403 13:59:22.925384 12350 net.cpp:156] Memory required for data: 818271264
I0403 13:59:22.925398 12350 layer_factory.hpp:77] Creating layer pool3/3x3_s2_pool3/3x3_s2_0_split
I0403 13:59:22.925415 12350 net.cpp:91] Creating Layer pool3/3x3_s2_pool3/3x3_s2_0_split
I0403 13:59:22.925429 12350 net.cpp:425] pool3/3x3_s2_pool3/3x3_s2_0_split <- pool3/3x3_s2
I0403 13:59:22.925447 12350 net.cpp:399] pool3/3x3_s2_pool3/3x3_s2_0_split -> pool3/3x3_s2_pool3/3x3_s2_0_split_0
I0403 13:59:22.925467 12350 net.cpp:399] pool3/3x3_s2_pool3/3x3_s2_0_split -> pool3/3x3_s2_pool3/3x3_s2_0_split_1
I0403 13:59:22.925485 12350 net.cpp:399] pool3/3x3_s2_pool3/3x3_s2_0_split -> pool3/3x3_s2_pool3/3x3_s2_0_split_2
I0403 13:59:22.925503 12350 net.cpp:399] pool3/3x3_s2_pool3/3x3_s2_0_split -> pool3/3x3_s2_pool3/3x3_s2_0_split_3
I0403 13:59:22.925578 12350 net.cpp:141] Setting up pool3/3x3_s2_pool3/3x3_s2_0_split
I0403 13:59:22.925603 12350 net.cpp:148] Top shape: 24 480 14 14 (2257920)
I0403 13:59:22.925618 12350 net.cpp:148] Top shape: 24 480 14 14 (2257920)
I0403 13:59:22.925633 12350 net.cpp:148] Top shape: 24 480 14 14 (2257920)
I0403 13:59:22.925647 12350 net.cpp:148] Top shape: 24 480 14 14 (2257920)
I0403 13:59:22.925660 12350 net.cpp:156] Memory required for data: 854397984
I0403 13:59:22.925673 12350 layer_factory.hpp:77] Creating layer inception_4a/1x1
I0403 13:59:22.925694 12350 net.cpp:91] Creating Layer inception_4a/1x1
I0403 13:59:22.925710 12350 net.cpp:425] inception_4a/1x1 <- pool3/3x3_s2_pool3/3x3_s2_0_split_0
I0403 13:59:22.925729 12350 net.cpp:399] inception_4a/1x1 -> inception_4a/1x1
I0403 13:59:22.927312 12350 net.cpp:141] Setting up inception_4a/1x1
I0403 13:59:22.927340 12350 net.cpp:148] Top shape: 24 192 14 14 (903168)
I0403 13:59:22.927356 12350 net.cpp:156] Memory required for data: 858010656
I0403 13:59:22.927373 12350 layer_factory.hpp:77] Creating layer inception_4a/relu_1x1
I0403 13:59:22.927391 12350 net.cpp:91] Creating Layer inception_4a/relu_1x1
I0403 13:59:22.927405 12350 net.cpp:425] inception_4a/relu_1x1 <- inception_4a/1x1
I0403 13:59:22.927423 12350 net.cpp:386] inception_4a/relu_1x1 -> inception_4a/1x1 (in-place)
I0403 13:59:22.927602 12350 net.cpp:141] Setting up inception_4a/relu_1x1
I0403 13:59:22.927625 12350 net.cpp:148] Top shape: 24 192 14 14 (903168)
I0403 13:59:22.927639 12350 net.cpp:156] Memory required for data: 861623328
I0403 13:59:22.927652 12350 layer_factory.hpp:77] Creating layer inception_4a/3x3_reduce
I0403 13:59:22.927672 12350 net.cpp:91] Creating Layer inception_4a/3x3_reduce
I0403 13:59:22.927690 12350 net.cpp:425] inception_4a/3x3_reduce <- pool3/3x3_s2_pool3/3x3_s2_0_split_1
I0403 13:59:22.927708 12350 net.cpp:399] inception_4a/3x3_reduce -> inception_4a/3x3_reduce
I0403 13:59:22.929004 12350 net.cpp:141] Setting up inception_4a/3x3_reduce
I0403 13:59:22.929033 12350 net.cpp:148] Top shape: 24 96 14 14 (451584)
I0403 13:59:22.929049 12350 net.cpp:156] Memory required for data: 863429664
I0403 13:59:22.929072 12350 layer_factory.hpp:77] Creating layer inception_4a/relu_3x3_reduce
I0403 13:59:22.929090 12350 net.cpp:91] Creating Layer inception_4a/relu_3x3_reduce
I0403 13:59:22.929105 12350 net.cpp:425] inception_4a/relu_3x3_reduce <- inception_4a/3x3_reduce
I0403 13:59:22.929121 12350 net.cpp:386] inception_4a/relu_3x3_reduce -> inception_4a/3x3_reduce (in-place)
I0403 13:59:22.929289 12350 net.cpp:141] Setting up inception_4a/relu_3x3_reduce
I0403 13:59:22.929313 12350 net.cpp:148] Top shape: 24 96 14 14 (451584)
I0403 13:59:22.929327 12350 net.cpp:156] Memory required for data: 865236000
I0403 13:59:22.929342 12350 layer_factory.hpp:77] Creating layer inception_4a/3x3
I0403 13:59:22.929361 12350 net.cpp:91] Creating Layer inception_4a/3x3
I0403 13:59:22.929378 12350 net.cpp:425] inception_4a/3x3 <- inception_4a/3x3_reduce
I0403 13:59:22.929397 12350 net.cpp:399] inception_4a/3x3 -> inception_4a/3x3
I0403 13:59:22.932044 12350 net.cpp:141] Setting up inception_4a/3x3
I0403 13:59:22.932073 12350 net.cpp:148] Top shape: 24 208 14 14 (978432)
I0403 13:59:22.932090 12350 net.cpp:156] Memory required for data: 869149728
I0403 13:59:22.932107 12350 layer_factory.hpp:77] Creating layer inception_4a/relu_3x3
I0403 13:59:22.932126 12350 net.cpp:91] Creating Layer inception_4a/relu_3x3
I0403 13:59:22.932140 12350 net.cpp:425] inception_4a/relu_3x3 <- inception_4a/3x3
I0403 13:59:22.932159 12350 net.cpp:386] inception_4a/relu_3x3 -> inception_4a/3x3 (in-place)
I0403 13:59:22.932431 12350 net.cpp:141] Setting up inception_4a/relu_3x3
I0403 13:59:22.932456 12350 net.cpp:148] Top shape: 24 208 14 14 (978432)
I0403 13:59:22.932471 12350 net.cpp:156] Memory required for data: 873063456
I0403 13:59:22.932484 12350 layer_factory.hpp:77] Creating layer inception_4a/5x5_reduce
I0403 13:59:22.932505 12350 net.cpp:91] Creating Layer inception_4a/5x5_reduce
I0403 13:59:22.932521 12350 net.cpp:425] inception_4a/5x5_reduce <- pool3/3x3_s2_pool3/3x3_s2_0_split_2
I0403 13:59:22.932555 12350 net.cpp:399] inception_4a/5x5_reduce -> inception_4a/5x5_reduce
I0403 13:59:22.933557 12350 net.cpp:141] Setting up inception_4a/5x5_reduce
I0403 13:59:22.933585 12350 net.cpp:148] Top shape: 24 16 14 14 (75264)
I0403 13:59:22.933612 12350 net.cpp:156] Memory required for data: 873364512
I0403 13:59:22.933629 12350 layer_factory.hpp:77] Creating layer inception_4a/relu_5x5_reduce
I0403 13:59:22.933650 12350 net.cpp:91] Creating Layer inception_4a/relu_5x5_reduce
I0403 13:59:22.933668 12350 net.cpp:425] inception_4a/relu_5x5_reduce <- inception_4a/5x5_reduce
I0403 13:59:22.933693 12350 net.cpp:386] inception_4a/relu_5x5_reduce -> inception_4a/5x5_reduce (in-place)
I0403 13:59:22.933861 12350 net.cpp:141] Setting up inception_4a/relu_5x5_reduce
I0403 13:59:22.933889 12350 net.cpp:148] Top shape: 24 16 14 14 (75264)
I0403 13:59:22.933904 12350 net.cpp:156] Memory required for data: 873665568
I0403 13:59:22.933918 12350 layer_factory.hpp:77] Creating layer inception_4a/5x5
I0403 13:59:22.933940 12350 net.cpp:91] Creating Layer inception_4a/5x5
I0403 13:59:22.933965 12350 net.cpp:425] inception_4a/5x5 <- inception_4a/5x5_reduce
I0403 13:59:22.933984 12350 net.cpp:399] inception_4a/5x5 -> inception_4a/5x5
I0403 13:59:22.935045 12350 net.cpp:141] Setting up inception_4a/5x5
I0403 13:59:22.935073 12350 net.cpp:148] Top shape: 24 48 14 14 (225792)
I0403 13:59:22.935089 12350 net.cpp:156] Memory required for data: 874568736
I0403 13:59:22.935109 12350 layer_factory.hpp:77] Creating layer inception_4a/relu_5x5
I0403 13:59:22.935128 12350 net.cpp:91] Creating Layer inception_4a/relu_5x5
I0403 13:59:22.935145 12350 net.cpp:425] inception_4a/relu_5x5 <- inception_4a/5x5
I0403 13:59:22.935163 12350 net.cpp:386] inception_4a/relu_5x5 -> inception_4a/5x5 (in-place)
I0403 13:59:22.935338 12350 net.cpp:141] Setting up inception_4a/relu_5x5
I0403 13:59:22.935364 12350 net.cpp:148] Top shape: 24 48 14 14 (225792)
I0403 13:59:22.935377 12350 net.cpp:156] Memory required for data: 875471904
I0403 13:59:22.935392 12350 layer_factory.hpp:77] Creating layer inception_4a/pool
I0403 13:59:22.935410 12350 net.cpp:91] Creating Layer inception_4a/pool
I0403 13:59:22.935425 12350 net.cpp:425] inception_4a/pool <- pool3/3x3_s2_pool3/3x3_s2_0_split_3
I0403 13:59:22.935443 12350 net.cpp:399] inception_4a/pool -> inception_4a/pool
I0403 13:59:22.935502 12350 net.cpp:141] Setting up inception_4a/pool
I0403 13:59:22.935526 12350 net.cpp:148] Top shape: 24 480 14 14 (2257920)
I0403 13:59:22.935546 12350 net.cpp:156] Memory required for data: 884503584
I0403 13:59:22.935562 12350 layer_factory.hpp:77] Creating layer inception_4a/pool_proj
I0403 13:59:22.935593 12350 net.cpp:91] Creating Layer inception_4a/pool_proj
I0403 13:59:22.935611 12350 net.cpp:425] inception_4a/pool_proj <- inception_4a/pool
I0403 13:59:22.935631 12350 net.cpp:399] inception_4a/pool_proj -> inception_4a/pool_proj
I0403 13:59:22.936761 12350 net.cpp:141] Setting up inception_4a/pool_proj
I0403 13:59:22.936791 12350 net.cpp:148] Top shape: 24 64 14 14 (301056)
I0403 13:59:22.936823 12350 net.cpp:156] Memory required for data: 885707808
I0403 13:59:22.936842 12350 layer_factory.hpp:77] Creating layer inception_4a/relu_pool_proj
I0403 13:59:22.936859 12350 net.cpp:91] Creating Layer inception_4a/relu_pool_proj
I0403 13:59:22.936875 12350 net.cpp:425] inception_4a/relu_pool_proj <- inception_4a/pool_proj
I0403 13:59:22.936895 12350 net.cpp:386] inception_4a/relu_pool_proj -> inception_4a/pool_proj (in-place)
I0403 13:59:22.937168 12350 net.cpp:141] Setting up inception_4a/relu_pool_proj
I0403 13:59:22.937198 12350 net.cpp:148] Top shape: 24 64 14 14 (301056)
I0403 13:59:22.937213 12350 net.cpp:156] Memory required for data: 886912032
I0403 13:59:22.937228 12350 layer_factory.hpp:77] Creating layer inception_4a/output
I0403 13:59:22.937244 12350 net.cpp:91] Creating Layer inception_4a/output
I0403 13:59:22.937260 12350 net.cpp:425] inception_4a/output <- inception_4a/1x1
I0403 13:59:22.937278 12350 net.cpp:425] inception_4a/output <- inception_4a/3x3
I0403 13:59:22.937293 12350 net.cpp:425] inception_4a/output <- inception_4a/5x5
I0403 13:59:22.937319 12350 net.cpp:425] inception_4a/output <- inception_4a/pool_proj
I0403 13:59:22.937337 12350 net.cpp:399] inception_4a/output -> inception_4a/output
I0403 13:59:22.937381 12350 net.cpp:141] Setting up inception_4a/output
I0403 13:59:22.937403 12350 net.cpp:148] Top shape: 24 512 14 14 (2408448)
I0403 13:59:22.937417 12350 net.cpp:156] Memory required for data: 896545824
I0403 13:59:22.937433 12350 layer_factory.hpp:77] Creating layer inception_4a/output_inception_4a/output_0_split
I0403 13:59:22.937451 12350 net.cpp:91] Creating Layer inception_4a/output_inception_4a/output_0_split
I0403 13:59:22.937468 12350 net.cpp:425] inception_4a/output_inception_4a/output_0_split <- inception_4a/output
I0403 13:59:22.937484 12350 net.cpp:399] inception_4a/output_inception_4a/output_0_split -> inception_4a/output_inception_4a/output_0_split_0
I0403 13:59:22.937504 12350 net.cpp:399] inception_4a/output_inception_4a/output_0_split -> inception_4a/output_inception_4a/output_0_split_1
I0403 13:59:22.937525 12350 net.cpp:399] inception_4a/output_inception_4a/output_0_split -> inception_4a/output_inception_4a/output_0_split_2
I0403 13:59:22.937553 12350 net.cpp:399] inception_4a/output_inception_4a/output_0_split -> inception_4a/output_inception_4a/output_0_split_3
I0403 13:59:22.937575 12350 net.cpp:399] inception_4a/output_inception_4a/output_0_split -> inception_4a/output_inception_4a/output_0_split_4
I0403 13:59:22.937675 12350 net.cpp:141] Setting up inception_4a/output_inception_4a/output_0_split
I0403 13:59:22.937698 12350 net.cpp:148] Top shape: 24 512 14 14 (2408448)
I0403 13:59:22.937716 12350 net.cpp:148] Top shape: 24 512 14 14 (2408448)
I0403 13:59:22.937731 12350 net.cpp:148] Top shape: 24 512 14 14 (2408448)
I0403 13:59:22.937747 12350 net.cpp:148] Top shape: 24 512 14 14 (2408448)
I0403 13:59:22.937762 12350 net.cpp:148] Top shape: 24 512 14 14 (2408448)
I0403 13:59:22.937774 12350 net.cpp:156] Memory required for data: 944714784
I0403 13:59:22.937788 12350 layer_factory.hpp:77] Creating layer loss1/ave_pool
I0403 13:59:22.937808 12350 net.cpp:91] Creating Layer loss1/ave_pool
I0403 13:59:22.937824 12350 net.cpp:425] loss1/ave_pool <- inception_4a/output_inception_4a/output_0_split_0
I0403 13:59:22.937842 12350 net.cpp:399] loss1/ave_pool -> loss1/ave_pool
I0403 13:59:22.938042 12350 net.cpp:141] Setting up loss1/ave_pool
I0403 13:59:22.938071 12350 net.cpp:148] Top shape: 24 512 4 4 (196608)
I0403 13:59:22.938086 12350 net.cpp:156] Memory required for data: 945501216
I0403 13:59:22.938102 12350 layer_factory.hpp:77] Creating layer loss1/conv
I0403 13:59:22.938122 12350 net.cpp:91] Creating Layer loss1/conv
I0403 13:59:22.938139 12350 net.cpp:425] loss1/conv <- loss1/ave_pool
I0403 13:59:22.938158 12350 net.cpp:399] loss1/conv -> loss1/conv
I0403 13:59:22.939545 12350 net.cpp:141] Setting up loss1/conv
I0403 13:59:22.939574 12350 net.cpp:148] Top shape: 24 128 4 4 (49152)
I0403 13:59:22.939611 12350 net.cpp:156] Memory required for data: 945697824
I0403 13:59:22.939631 12350 layer_factory.hpp:77] Creating layer loss1/relu_conv
I0403 13:59:22.939652 12350 net.cpp:91] Creating Layer loss1/relu_conv
I0403 13:59:22.939671 12350 net.cpp:425] loss1/relu_conv <- loss1/conv
I0403 13:59:22.939688 12350 net.cpp:386] loss1/relu_conv -> loss1/conv (in-place)
I0403 13:59:22.939967 12350 net.cpp:141] Setting up loss1/relu_conv
I0403 13:59:22.939993 12350 net.cpp:148] Top shape: 24 128 4 4 (49152)
I0403 13:59:22.940007 12350 net.cpp:156] Memory required for data: 945894432
I0403 13:59:22.940022 12350 layer_factory.hpp:77] Creating layer loss1/fc
I0403 13:59:22.940047 12350 net.cpp:91] Creating Layer loss1/fc
I0403 13:59:22.940064 12350 net.cpp:425] loss1/fc <- loss1/conv
I0403 13:59:22.940083 12350 net.cpp:399] loss1/fc -> loss1/fc
I0403 13:59:22.957728 12350 net.cpp:141] Setting up loss1/fc
I0403 13:59:22.957779 12350 net.cpp:148] Top shape: 24 1024 (24576)
I0403 13:59:22.957794 12350 net.cpp:156] Memory required for data: 945992736
I0403 13:59:22.957813 12350 layer_factory.hpp:77] Creating layer loss1/relu_fc
I0403 13:59:22.957834 12350 net.cpp:91] Creating Layer loss1/relu_fc
I0403 13:59:22.957850 12350 net.cpp:425] loss1/relu_fc <- loss1/fc
I0403 13:59:22.957870 12350 net.cpp:386] loss1/relu_fc -> loss1/fc (in-place)
I0403 13:59:22.958075 12350 net.cpp:141] Setting up loss1/relu_fc
I0403 13:59:22.958098 12350 net.cpp:148] Top shape: 24 1024 (24576)
I0403 13:59:22.958113 12350 net.cpp:156] Memory required for data: 946091040
I0403 13:59:22.958127 12350 layer_factory.hpp:77] Creating layer loss1/drop_fc
I0403 13:59:22.958154 12350 net.cpp:91] Creating Layer loss1/drop_fc
I0403 13:59:22.958173 12350 net.cpp:425] loss1/drop_fc <- loss1/fc
I0403 13:59:22.958191 12350 net.cpp:386] loss1/drop_fc -> loss1/fc (in-place)
I0403 13:59:22.958242 12350 net.cpp:141] Setting up loss1/drop_fc
I0403 13:59:22.958271 12350 net.cpp:148] Top shape: 24 1024 (24576)
I0403 13:59:22.958286 12350 net.cpp:156] Memory required for data: 946189344
I0403 13:59:22.958300 12350 layer_factory.hpp:77] Creating layer loss1/classifier_plantvillage
I0403 13:59:22.958318 12350 net.cpp:91] Creating Layer loss1/classifier_plantvillage
I0403 13:59:22.958333 12350 net.cpp:425] loss1/classifier_plantvillage <- loss1/fc
I0403 13:59:22.958354 12350 net.cpp:399] loss1/classifier_plantvillage -> loss1/classifier_plantvillage
I0403 13:59:22.959285 12350 net.cpp:141] Setting up loss1/classifier_plantvillage
I0403 13:59:22.959321 12350 net.cpp:148] Top shape: 24 38 (912)
I0403 13:59:22.959336 12350 net.cpp:156] Memory required for data: 946192992
I0403 13:59:22.959353 12350 layer_factory.hpp:77] Creating layer loss1/classifier_plantvillage_loss1/classifier_plantvillage_0_split
I0403 13:59:22.959370 12350 net.cpp:91] Creating Layer loss1/classifier_plantvillage_loss1/classifier_plantvillage_0_split
I0403 13:59:22.959386 12350 net.cpp:425] loss1/classifier_plantvillage_loss1/classifier_plantvillage_0_split <- loss1/classifier_plantvillage
I0403 13:59:22.959404 12350 net.cpp:399] loss1/classifier_plantvillage_loss1/classifier_plantvillage_0_split -> loss1/classifier_plantvillage_loss1/classifier_plantvillage_0_split_0
I0403 13:59:22.959424 12350 net.cpp:399] loss1/classifier_plantvillage_loss1/classifier_plantvillage_0_split -> loss1/classifier_plantvillage_loss1/classifier_plantvillage_0_split_1
I0403 13:59:22.959445 12350 net.cpp:399] loss1/classifier_plantvillage_loss1/classifier_plantvillage_0_split -> loss1/classifier_plantvillage_loss1/classifier_plantvillage_0_split_2
I0403 13:59:22.959512 12350 net.cpp:141] Setting up loss1/classifier_plantvillage_loss1/classifier_plantvillage_0_split
I0403 13:59:22.959539 12350 net.cpp:148] Top shape: 24 38 (912)
I0403 13:59:22.959558 12350 net.cpp:148] Top shape: 24 38 (912)
I0403 13:59:22.959573 12350 net.cpp:148] Top shape: 24 38 (912)
I0403 13:59:22.959594 12350 net.cpp:156] Memory required for data: 946203936
I0403 13:59:22.959607 12350 layer_factory.hpp:77] Creating layer inception_4b/1x1
I0403 13:59:22.959631 12350 net.cpp:91] Creating Layer inception_4b/1x1
I0403 13:59:22.959671 12350 net.cpp:425] inception_4b/1x1 <- inception_4a/output_inception_4a/output_0_split_1
I0403 13:59:22.959691 12350 net.cpp:399] inception_4b/1x1 -> inception_4b/1x1
I0403 13:59:22.961359 12350 net.cpp:141] Setting up inception_4b/1x1
I0403 13:59:22.961388 12350 net.cpp:148] Top shape: 24 160 14 14 (752640)
I0403 13:59:22.961403 12350 net.cpp:156] Memory required for data: 949214496
I0403 13:59:22.961421 12350 layer_factory.hpp:77] Creating layer inception_4b/relu_1x1
I0403 13:59:22.961441 12350 net.cpp:91] Creating Layer inception_4b/relu_1x1
I0403 13:59:22.961458 12350 net.cpp:425] inception_4b/relu_1x1 <- inception_4b/1x1
I0403 13:59:22.961475 12350 net.cpp:386] inception_4b/relu_1x1 -> inception_4b/1x1 (in-place)
I0403 13:59:22.961660 12350 net.cpp:141] Setting up inception_4b/relu_1x1
I0403 13:59:22.961689 12350 net.cpp:148] Top shape: 24 160 14 14 (752640)
I0403 13:59:22.961705 12350 net.cpp:156] Memory required for data: 952225056
I0403 13:59:22.961720 12350 layer_factory.hpp:77] Creating layer inception_4b/3x3_reduce
I0403 13:59:22.961745 12350 net.cpp:91] Creating Layer inception_4b/3x3_reduce
I0403 13:59:22.961762 12350 net.cpp:425] inception_4b/3x3_reduce <- inception_4a/output_inception_4a/output_0_split_2
I0403 13:59:22.961781 12350 net.cpp:399] inception_4b/3x3_reduce -> inception_4b/3x3_reduce
I0403 13:59:22.963142 12350 net.cpp:141] Setting up inception_4b/3x3_reduce
I0403 13:59:22.963171 12350 net.cpp:148] Top shape: 24 112 14 14 (526848)
I0403 13:59:22.963192 12350 net.cpp:156] Memory required for data: 954332448
I0403 13:59:22.963212 12350 layer_factory.hpp:77] Creating layer inception_4b/relu_3x3_reduce
I0403 13:59:22.963230 12350 net.cpp:91] Creating Layer inception_4b/relu_3x3_reduce
I0403 13:59:22.963248 12350 net.cpp:425] inception_4b/relu_3x3_reduce <- inception_4b/3x3_reduce
I0403 13:59:22.963268 12350 net.cpp:386] inception_4b/relu_3x3_reduce -> inception_4b/3x3_reduce (in-place)
I0403 13:59:22.963553 12350 net.cpp:141] Setting up inception_4b/relu_3x3_reduce
I0403 13:59:22.963579 12350 net.cpp:148] Top shape: 24 112 14 14 (526848)
I0403 13:59:22.963605 12350 net.cpp:156] Memory required for data: 956439840
I0403 13:59:22.963619 12350 layer_factory.hpp:77] Creating layer inception_4b/3x3
I0403 13:59:22.963639 12350 net.cpp:91] Creating Layer inception_4b/3x3
I0403 13:59:22.963655 12350 net.cpp:425] inception_4b/3x3 <- inception_4b/3x3_reduce
I0403 13:59:22.963675 12350 net.cpp:399] inception_4b/3x3 -> inception_4b/3x3
I0403 13:59:22.966655 12350 net.cpp:141] Setting up inception_4b/3x3
I0403 13:59:22.966686 12350 net.cpp:148] Top shape: 24 224 14 14 (1053696)
I0403 13:59:22.966701 12350 net.cpp:156] Memory required for data: 960654624
I0403 13:59:22.966720 12350 layer_factory.hpp:77] Creating layer inception_4b/relu_3x3
I0403 13:59:22.966739 12350 net.cpp:91] Creating Layer inception_4b/relu_3x3
I0403 13:59:22.966755 12350 net.cpp:425] inception_4b/relu_3x3 <- inception_4b/3x3
I0403 13:59:22.966775 12350 net.cpp:386] inception_4b/relu_3x3 -> inception_4b/3x3 (in-place)
I0403 13:59:22.966956 12350 net.cpp:141] Setting up inception_4b/relu_3x3
I0403 13:59:22.966982 12350 net.cpp:148] Top shape: 24 224 14 14 (1053696)
I0403 13:59:22.966997 12350 net.cpp:156] Memory required for data: 964869408
I0403 13:59:22.967012 12350 layer_factory.hpp:77] Creating layer inception_4b/5x5_reduce
I0403 13:59:22.967034 12350 net.cpp:91] Creating Layer inception_4b/5x5_reduce
I0403 13:59:22.967052 12350 net.cpp:425] inception_4b/5x5_reduce <- inception_4a/output_inception_4a/output_0_split_3
I0403 13:59:22.967075 12350 net.cpp:399] inception_4b/5x5_reduce -> inception_4b/5x5_reduce
I0403 13:59:22.968164 12350 net.cpp:141] Setting up inception_4b/5x5_reduce
I0403 13:59:22.968192 12350 net.cpp:148] Top shape: 24 24 14 14 (112896)
I0403 13:59:22.968209 12350 net.cpp:156] Memory required for data: 965320992
I0403 13:59:22.968228 12350 layer_factory.hpp:77] Creating layer inception_4b/relu_5x5_reduce
I0403 13:59:22.968250 12350 net.cpp:91] Creating Layer inception_4b/relu_5x5_reduce
I0403 13:59:22.968282 12350 net.cpp:425] inception_4b/relu_5x5_reduce <- inception_4b/5x5_reduce
I0403 13:59:22.968302 12350 net.cpp:386] inception_4b/relu_5x5_reduce -> inception_4b/5x5_reduce (in-place)
I0403 13:59:22.968484 12350 net.cpp:141] Setting up inception_4b/relu_5x5_reduce
I0403 13:59:22.968513 12350 net.cpp:148] Top shape: 24 24 14 14 (112896)
I0403 13:59:22.968529 12350 net.cpp:156] Memory required for data: 965772576
I0403 13:59:22.968550 12350 layer_factory.hpp:77] Creating layer inception_4b/5x5
I0403 13:59:22.968574 12350 net.cpp:91] Creating Layer inception_4b/5x5
I0403 13:59:22.968593 12350 net.cpp:425] inception_4b/5x5 <- inception_4b/5x5_reduce
I0403 13:59:22.968613 12350 net.cpp:399] inception_4b/5x5 -> inception_4b/5x5
I0403 13:59:22.969837 12350 net.cpp:141] Setting up inception_4b/5x5
I0403 13:59:22.969866 12350 net.cpp:148] Top shape: 24 64 14 14 (301056)
I0403 13:59:22.969882 12350 net.cpp:156] Memory required for data: 966976800
I0403 13:59:22.969902 12350 layer_factory.hpp:77] Creating layer inception_4b/relu_5x5
I0403 13:59:22.969920 12350 net.cpp:91] Creating Layer inception_4b/relu_5x5
I0403 13:59:22.969938 12350 net.cpp:425] inception_4b/relu_5x5 <- inception_4b/5x5
I0403 13:59:22.969955 12350 net.cpp:386] inception_4b/relu_5x5 -> inception_4b/5x5 (in-place)
I0403 13:59:22.970242 12350 net.cpp:141] Setting up inception_4b/relu_5x5
I0403 13:59:22.970271 12350 net.cpp:148] Top shape: 24 64 14 14 (301056)
I0403 13:59:22.970285 12350 net.cpp:156] Memory required for data: 968181024
I0403 13:59:22.970300 12350 layer_factory.hpp:77] Creating layer inception_4b/pool
I0403 13:59:22.970319 12350 net.cpp:91] Creating Layer inception_4b/pool
I0403 13:59:22.970335 12350 net.cpp:425] inception_4b/pool <- inception_4a/output_inception_4a/output_0_split_4
I0403 13:59:22.970355 12350 net.cpp:399] inception_4b/pool -> inception_4b/pool
I0403 13:59:22.970418 12350 net.cpp:141] Setting up inception_4b/pool
I0403 13:59:22.970443 12350 net.cpp:148] Top shape: 24 512 14 14 (2408448)
I0403 13:59:22.970456 12350 net.cpp:156] Memory required for data: 977814816
I0403 13:59:22.970471 12350 layer_factory.hpp:77] Creating layer inception_4b/pool_proj
I0403 13:59:22.970492 12350 net.cpp:91] Creating Layer inception_4b/pool_proj
I0403 13:59:22.970510 12350 net.cpp:425] inception_4b/pool_proj <- inception_4b/pool
I0403 13:59:22.970530 12350 net.cpp:399] inception_4b/pool_proj -> inception_4b/pool_proj
I0403 13:59:22.971789 12350 net.cpp:141] Setting up inception_4b/pool_proj
I0403 13:59:22.971818 12350 net.cpp:148] Top shape: 24 64 14 14 (301056)
I0403 13:59:22.971833 12350 net.cpp:156] Memory required for data: 979019040
I0403 13:59:22.971853 12350 layer_factory.hpp:77] Creating layer inception_4b/relu_pool_proj
I0403 13:59:22.971873 12350 net.cpp:91] Creating Layer inception_4b/relu_pool_proj
I0403 13:59:22.971889 12350 net.cpp:425] inception_4b/relu_pool_proj <- inception_4b/pool_proj
I0403 13:59:22.971907 12350 net.cpp:386] inception_4b/relu_pool_proj -> inception_4b/pool_proj (in-place)
I0403 13:59:22.972087 12350 net.cpp:141] Setting up inception_4b/relu_pool_proj
I0403 13:59:22.972116 12350 net.cpp:148] Top shape: 24 64 14 14 (301056)
I0403 13:59:22.972132 12350 net.cpp:156] Memory required for data: 980223264
I0403 13:59:22.972148 12350 layer_factory.hpp:77] Creating layer inception_4b/output
I0403 13:59:22.972165 12350 net.cpp:91] Creating Layer inception_4b/output
I0403 13:59:22.972180 12350 net.cpp:425] inception_4b/output <- inception_4b/1x1
I0403 13:59:22.972198 12350 net.cpp:425] inception_4b/output <- inception_4b/3x3
I0403 13:59:22.972213 12350 net.cpp:425] inception_4b/output <- inception_4b/5x5
I0403 13:59:22.972229 12350 net.cpp:425] inception_4b/output <- inception_4b/pool_proj
I0403 13:59:22.972245 12350 net.cpp:399] inception_4b/output -> inception_4b/output
I0403 13:59:22.972293 12350 net.cpp:141] Setting up inception_4b/output
I0403 13:59:22.972316 12350 net.cpp:148] Top shape: 24 512 14 14 (2408448)
I0403 13:59:22.972332 12350 net.cpp:156] Memory required for data: 989857056
I0403 13:59:22.972359 12350 layer_factory.hpp:77] Creating layer inception_4b/output_inception_4b/output_0_split
I0403 13:59:22.972379 12350 net.cpp:91] Creating Layer inception_4b/output_inception_4b/output_0_split
I0403 13:59:22.972396 12350 net.cpp:425] inception_4b/output_inception_4b/output_0_split <- inception_4b/output
I0403 13:59:22.972414 12350 net.cpp:399] inception_4b/output_inception_4b/output_0_split -> inception_4b/output_inception_4b/output_0_split_0
I0403 13:59:22.972432 12350 net.cpp:399] inception_4b/output_inception_4b/output_0_split -> inception_4b/output_inception_4b/output_0_split_1
I0403 13:59:22.972450 12350 net.cpp:399] inception_4b/output_inception_4b/output_0_split -> inception_4b/output_inception_4b/output_0_split_2
I0403 13:59:22.972470 12350 net.cpp:399] inception_4b/output_inception_4b/output_0_split -> inception_4b/output_inception_4b/output_0_split_3
I0403 13:59:22.972558 12350 net.cpp:141] Setting up inception_4b/output_inception_4b/output_0_split
I0403 13:59:22.972582 12350 net.cpp:148] Top shape: 24 512 14 14 (2408448)
I0403 13:59:22.972597 12350 net.cpp:148] Top shape: 24 512 14 14 (2408448)
I0403 13:59:22.972612 12350 net.cpp:148] Top shape: 24 512 14 14 (2408448)
I0403 13:59:22.972626 12350 net.cpp:148] Top shape: 24 512 14 14 (2408448)
I0403 13:59:22.972640 12350 net.cpp:156] Memory required for data: 1028392224
I0403 13:59:22.972653 12350 layer_factory.hpp:77] Creating layer inception_4c/1x1
I0403 13:59:22.972676 12350 net.cpp:91] Creating Layer inception_4c/1x1
I0403 13:59:22.972692 12350 net.cpp:425] inception_4c/1x1 <- inception_4b/output_inception_4b/output_0_split_0
I0403 13:59:22.972713 12350 net.cpp:399] inception_4c/1x1 -> inception_4c/1x1
I0403 13:59:22.974153 12350 net.cpp:141] Setting up inception_4c/1x1
I0403 13:59:22.974184 12350 net.cpp:148] Top shape: 24 128 14 14 (602112)
I0403 13:59:22.974201 12350 net.cpp:156] Memory required for data: 1030800672
I0403 13:59:22.974220 12350 layer_factory.hpp:77] Creating layer inception_4c/relu_1x1
I0403 13:59:22.974237 12350 net.cpp:91] Creating Layer inception_4c/relu_1x1
I0403 13:59:22.974254 12350 net.cpp:425] inception_4c/relu_1x1 <- inception_4c/1x1
I0403 13:59:22.974273 12350 net.cpp:386] inception_4c/relu_1x1 -> inception_4c/1x1 (in-place)
I0403 13:59:22.974457 12350 net.cpp:141] Setting up inception_4c/relu_1x1
I0403 13:59:22.974481 12350 net.cpp:148] Top shape: 24 128 14 14 (602112)
I0403 13:59:22.974495 12350 net.cpp:156] Memory required for data: 1033209120
I0403 13:59:22.974509 12350 layer_factory.hpp:77] Creating layer inception_4c/3x3_reduce
I0403 13:59:22.974529 12350 net.cpp:91] Creating Layer inception_4c/3x3_reduce
I0403 13:59:22.974558 12350 net.cpp:425] inception_4c/3x3_reduce <- inception_4b/output_inception_4b/output_0_split_1
I0403 13:59:22.974582 12350 net.cpp:399] inception_4c/3x3_reduce -> inception_4c/3x3_reduce
I0403 13:59:22.976534 12350 net.cpp:141] Setting up inception_4c/3x3_reduce
I0403 13:59:22.976568 12350 net.cpp:148] Top shape: 24 128 14 14 (602112)
I0403 13:59:22.976584 12350 net.cpp:156] Memory required for data: 1035617568
I0403 13:59:22.976603 12350 layer_factory.hpp:77] Creating layer inception_4c/relu_3x3_reduce
I0403 13:59:22.976621 12350 net.cpp:91] Creating Layer inception_4c/relu_3x3_reduce
I0403 13:59:22.976639 12350 net.cpp:425] inception_4c/relu_3x3_reduce <- inception_4c/3x3_reduce
I0403 13:59:22.976655 12350 net.cpp:386] inception_4c/relu_3x3_reduce -> inception_4c/3x3_reduce (in-place)
I0403 13:59:22.976940 12350 net.cpp:141] Setting up inception_4c/relu_3x3_reduce
I0403 13:59:22.976968 12350 net.cpp:148] Top shape: 24 128 14 14 (602112)
I0403 13:59:22.976981 12350 net.cpp:156] Memory required for data: 1038026016
I0403 13:59:22.976996 12350 layer_factory.hpp:77] Creating layer inception_4c/3x3
I0403 13:59:22.977020 12350 net.cpp:91] Creating Layer inception_4c/3x3
I0403 13:59:22.977035 12350 net.cpp:425] inception_4c/3x3 <- inception_4c/3x3_reduce
I0403 13:59:22.977056 12350 net.cpp:399] inception_4c/3x3 -> inception_4c/3x3
I0403 13:59:22.980670 12350 net.cpp:141] Setting up inception_4c/3x3
I0403 13:59:22.980713 12350 net.cpp:148] Top shape: 24 256 14 14 (1204224)
I0403 13:59:22.980731 12350 net.cpp:156] Memory required for data: 1042842912
I0403 13:59:22.980763 12350 layer_factory.hpp:77] Creating layer inception_4c/relu_3x3
I0403 13:59:22.980788 12350 net.cpp:91] Creating Layer inception_4c/relu_3x3
I0403 13:59:22.980816 12350 net.cpp:425] inception_4c/relu_3x3 <- inception_4c/3x3
I0403 13:59:22.980834 12350 net.cpp:386] inception_4c/relu_3x3 -> inception_4c/3x3 (in-place)
I0403 13:59:22.981017 12350 net.cpp:141] Setting up inception_4c/relu_3x3
I0403 13:59:22.981043 12350 net.cpp:148] Top shape: 24 256 14 14 (1204224)
I0403 13:59:22.981060 12350 net.cpp:156] Memory required for data: 1047659808
I0403 13:59:22.981073 12350 layer_factory.hpp:77] Creating layer inception_4c/5x5_reduce
I0403 13:59:22.981102 12350 net.cpp:91] Creating Layer inception_4c/5x5_reduce
I0403 13:59:22.981119 12350 net.cpp:425] inception_4c/5x5_reduce <- inception_4b/output_inception_4b/output_0_split_2
I0403 13:59:22.981140 12350 net.cpp:399] inception_4c/5x5_reduce -> inception_4c/5x5_reduce
I0403 13:59:22.982247 12350 net.cpp:141] Setting up inception_4c/5x5_reduce
I0403 13:59:22.982277 12350 net.cpp:148] Top shape: 24 24 14 14 (112896)
I0403 13:59:22.982292 12350 net.cpp:156] Memory required for data: 1048111392
I0403 13:59:22.982311 12350 layer_factory.hpp:77] Creating layer inception_4c/relu_5x5_reduce
I0403 13:59:22.982332 12350 net.cpp:91] Creating Layer inception_4c/relu_5x5_reduce
I0403 13:59:22.982349 12350 net.cpp:425] inception_4c/relu_5x5_reduce <- inception_4c/5x5_reduce
I0403 13:59:22.982367 12350 net.cpp:386] inception_4c/relu_5x5_reduce -> inception_4c/5x5_reduce (in-place)
I0403 13:59:22.982556 12350 net.cpp:141] Setting up inception_4c/relu_5x5_reduce
I0403 13:59:22.982584 12350 net.cpp:148] Top shape: 24 24 14 14 (112896)
I0403 13:59:22.982600 12350 net.cpp:156] Memory required for data: 1048562976
I0403 13:59:22.982615 12350 layer_factory.hpp:77] Creating layer inception_4c/5x5
I0403 13:59:22.982638 12350 net.cpp:91] Creating Layer inception_4c/5x5
I0403 13:59:22.982657 12350 net.cpp:425] inception_4c/5x5 <- inception_4c/5x5_reduce
I0403 13:59:22.982676 12350 net.cpp:399] inception_4c/5x5 -> inception_4c/5x5
I0403 13:59:22.983932 12350 net.cpp:141] Setting up inception_4c/5x5
I0403 13:59:22.983963 12350 net.cpp:148] Top shape: 24 64 14 14 (301056)
I0403 13:59:22.983979 12350 net.cpp:156] Memory required for data: 1049767200
I0403 13:59:22.983999 12350 layer_factory.hpp:77] Creating layer inception_4c/relu_5x5
I0403 13:59:22.984017 12350 net.cpp:91] Creating Layer inception_4c/relu_5x5
I0403 13:59:22.984035 12350 net.cpp:425] inception_4c/relu_5x5 <- inception_4c/5x5
I0403 13:59:22.984052 12350 net.cpp:386] inception_4c/relu_5x5 -> inception_4c/5x5 (in-place)
I0403 13:59:22.984344 12350 net.cpp:141] Setting up inception_4c/relu_5x5
I0403 13:59:22.984374 12350 net.cpp:148] Top shape: 24 64 14 14 (301056)
I0403 13:59:22.984390 12350 net.cpp:156] Memory required for data: 1050971424
I0403 13:59:22.984405 12350 layer_factory.hpp:77] Creating layer inception_4c/pool
I0403 13:59:22.984422 12350 net.cpp:91] Creating Layer inception_4c/pool
I0403 13:59:22.984438 12350 net.cpp:425] inception_4c/pool <- inception_4b/output_inception_4b/output_0_split_3
I0403 13:59:22.984455 12350 net.cpp:399] inception_4c/pool -> inception_4c/pool
I0403 13:59:22.984520 12350 net.cpp:141] Setting up inception_4c/pool
I0403 13:59:22.984555 12350 net.cpp:148] Top shape: 24 512 14 14 (2408448)
I0403 13:59:22.984571 12350 net.cpp:156] Memory required for data: 1060605216
I0403 13:59:22.984586 12350 layer_factory.hpp:77] Creating layer inception_4c/pool_proj
I0403 13:59:22.984607 12350 net.cpp:91] Creating Layer inception_4c/pool_proj
I0403 13:59:22.984625 12350 net.cpp:425] inception_4c/pool_proj <- inception_4c/pool
I0403 13:59:22.984645 12350 net.cpp:399] inception_4c/pool_proj -> inception_4c/pool_proj
I0403 13:59:22.985878 12350 net.cpp:141] Setting up inception_4c/pool_proj
I0403 13:59:22.985908 12350 net.cpp:148] Top shape: 24 64 14 14 (301056)
I0403 13:59:22.985937 12350 net.cpp:156] Memory required for data: 1061809440
I0403 13:59:22.985957 12350 layer_factory.hpp:77] Creating layer inception_4c/relu_pool_proj
I0403 13:59:22.985980 12350 net.cpp:91] Creating Layer inception_4c/relu_pool_proj
I0403 13:59:22.985998 12350 net.cpp:425] inception_4c/relu_pool_proj <- inception_4c/pool_proj
I0403 13:59:22.986016 12350 net.cpp:386] inception_4c/relu_pool_proj -> inception_4c/pool_proj (in-place)
I0403 13:59:22.986197 12350 net.cpp:141] Setting up inception_4c/relu_pool_proj
I0403 13:59:22.986224 12350 net.cpp:148] Top shape: 24 64 14 14 (301056)
I0403 13:59:22.986238 12350 net.cpp:156] Memory required for data: 1063013664
I0403 13:59:22.986253 12350 layer_factory.hpp:77] Creating layer inception_4c/output
I0403 13:59:22.986271 12350 net.cpp:91] Creating Layer inception_4c/output
I0403 13:59:22.986285 12350 net.cpp:425] inception_4c/output <- inception_4c/1x1
I0403 13:59:22.986300 12350 net.cpp:425] inception_4c/output <- inception_4c/3x3
I0403 13:59:22.986316 12350 net.cpp:425] inception_4c/output <- inception_4c/5x5
I0403 13:59:22.986331 12350 net.cpp:425] inception_4c/output <- inception_4c/pool_proj
I0403 13:59:22.986347 12350 net.cpp:399] inception_4c/output -> inception_4c/output
I0403 13:59:22.986394 12350 net.cpp:141] Setting up inception_4c/output
I0403 13:59:22.986418 12350 net.cpp:148] Top shape: 24 512 14 14 (2408448)
I0403 13:59:22.986431 12350 net.cpp:156] Memory required for data: 1072647456
I0403 13:59:22.986445 12350 layer_factory.hpp:77] Creating layer inception_4c/output_inception_4c/output_0_split
I0403 13:59:22.986464 12350 net.cpp:91] Creating Layer inception_4c/output_inception_4c/output_0_split
I0403 13:59:22.986479 12350 net.cpp:425] inception_4c/output_inception_4c/output_0_split <- inception_4c/output
I0403 13:59:22.986496 12350 net.cpp:399] inception_4c/output_inception_4c/output_0_split -> inception_4c/output_inception_4c/output_0_split_0
I0403 13:59:22.986515 12350 net.cpp:399] inception_4c/output_inception_4c/output_0_split -> inception_4c/output_inception_4c/output_0_split_1
I0403 13:59:22.986534 12350 net.cpp:399] inception_4c/output_inception_4c/output_0_split -> inception_4c/output_inception_4c/output_0_split_2
I0403 13:59:22.986559 12350 net.cpp:399] inception_4c/output_inception_4c/output_0_split -> inception_4c/output_inception_4c/output_0_split_3
I0403 13:59:22.986646 12350 net.cpp:141] Setting up inception_4c/output_inception_4c/output_0_split
I0403 13:59:22.986668 12350 net.cpp:148] Top shape: 24 512 14 14 (2408448)
I0403 13:59:22.986685 12350 net.cpp:148] Top shape: 24 512 14 14 (2408448)
I0403 13:59:22.986699 12350 net.cpp:148] Top shape: 24 512 14 14 (2408448)
I0403 13:59:22.986714 12350 net.cpp:148] Top shape: 24 512 14 14 (2408448)
I0403 13:59:22.986726 12350 net.cpp:156] Memory required for data: 1111182624
I0403 13:59:22.986740 12350 layer_factory.hpp:77] Creating layer inception_4d/1x1
I0403 13:59:22.986762 12350 net.cpp:91] Creating Layer inception_4d/1x1
I0403 13:59:22.986778 12350 net.cpp:425] inception_4d/1x1 <- inception_4c/output_inception_4c/output_0_split_0
I0403 13:59:22.986799 12350 net.cpp:399] inception_4d/1x1 -> inception_4d/1x1
I0403 13:59:22.988191 12350 net.cpp:141] Setting up inception_4d/1x1
I0403 13:59:22.988219 12350 net.cpp:148] Top shape: 24 112 14 14 (526848)
I0403 13:59:22.988246 12350 net.cpp:156] Memory required for data: 1113290016
I0403 13:59:22.988265 12350 layer_factory.hpp:77] Creating layer inception_4d/relu_1x1
I0403 13:59:22.988284 12350 net.cpp:91] Creating Layer inception_4d/relu_1x1
I0403 13:59:22.988301 12350 net.cpp:425] inception_4d/relu_1x1 <- inception_4d/1x1
I0403 13:59:22.988322 12350 net.cpp:386] inception_4d/relu_1x1 -> inception_4d/1x1 (in-place)
I0403 13:59:22.988513 12350 net.cpp:141] Setting up inception_4d/relu_1x1
I0403 13:59:22.988543 12350 net.cpp:148] Top shape: 24 112 14 14 (526848)
I0403 13:59:22.988559 12350 net.cpp:156] Memory required for data: 1115397408
I0403 13:59:22.988574 12350 layer_factory.hpp:77] Creating layer inception_4d/3x3_reduce
I0403 13:59:22.988610 12350 net.cpp:91] Creating Layer inception_4d/3x3_reduce
I0403 13:59:22.988641 12350 net.cpp:425] inception_4d/3x3_reduce <- inception_4c/output_inception_4c/output_0_split_1
I0403 13:59:22.988662 12350 net.cpp:399] inception_4d/3x3_reduce -> inception_4d/3x3_reduce
I0403 13:59:22.990188 12350 net.cpp:141] Setting up inception_4d/3x3_reduce
I0403 13:59:22.990219 12350 net.cpp:148] Top shape: 24 144 14 14 (677376)
I0403 13:59:22.990236 12350 net.cpp:156] Memory required for data: 1118106912
I0403 13:59:22.990255 12350 layer_factory.hpp:77] Creating layer inception_4d/relu_3x3_reduce
I0403 13:59:22.990274 12350 net.cpp:91] Creating Layer inception_4d/relu_3x3_reduce
I0403 13:59:22.990290 12350 net.cpp:425] inception_4d/relu_3x3_reduce <- inception_4d/3x3_reduce
I0403 13:59:22.990310 12350 net.cpp:386] inception_4d/relu_3x3_reduce -> inception_4d/3x3_reduce (in-place)
I0403 13:59:22.990603 12350 net.cpp:141] Setting up inception_4d/relu_3x3_reduce
I0403 13:59:22.990633 12350 net.cpp:148] Top shape: 24 144 14 14 (677376)
I0403 13:59:22.990648 12350 net.cpp:156] Memory required for data: 1120816416
I0403 13:59:22.990664 12350 layer_factory.hpp:77] Creating layer inception_4d/3x3
I0403 13:59:22.990685 12350 net.cpp:91] Creating Layer inception_4d/3x3
I0403 13:59:22.990703 12350 net.cpp:425] inception_4d/3x3 <- inception_4d/3x3_reduce
I0403 13:59:22.990723 12350 net.cpp:399] inception_4d/3x3 -> inception_4d/3x3
I0403 13:59:22.995023 12350 net.cpp:141] Setting up inception_4d/3x3
I0403 13:59:22.995054 12350 net.cpp:148] Top shape: 24 288 14 14 (1354752)
I0403 13:59:22.995070 12350 net.cpp:156] Memory required for data: 1126235424
I0403 13:59:22.995088 12350 layer_factory.hpp:77] Creating layer inception_4d/relu_3x3
I0403 13:59:22.995110 12350 net.cpp:91] Creating Layer inception_4d/relu_3x3
I0403 13:59:22.995126 12350 net.cpp:425] inception_4d/relu_3x3 <- inception_4d/3x3
I0403 13:59:22.995142 12350 net.cpp:386] inception_4d/relu_3x3 -> inception_4d/3x3 (in-place)
I0403 13:59:22.995333 12350 net.cpp:141] Setting up inception_4d/relu_3x3
I0403 13:59:22.995357 12350 net.cpp:148] Top shape: 24 288 14 14 (1354752)
I0403 13:59:22.995373 12350 net.cpp:156] Memory required for data: 1131654432
I0403 13:59:22.995386 12350 layer_factory.hpp:77] Creating layer inception_4d/5x5_reduce
I0403 13:59:22.995407 12350 net.cpp:91] Creating Layer inception_4d/5x5_reduce
I0403 13:59:22.995424 12350 net.cpp:425] inception_4d/5x5_reduce <- inception_4c/output_inception_4c/output_0_split_2
I0403 13:59:22.995445 12350 net.cpp:399] inception_4d/5x5_reduce -> inception_4d/5x5_reduce
I0403 13:59:22.996611 12350 net.cpp:141] Setting up inception_4d/5x5_reduce
I0403 13:59:22.996639 12350 net.cpp:148] Top shape: 24 32 14 14 (150528)
I0403 13:59:22.996655 12350 net.cpp:156] Memory required for data: 1132256544
I0403 13:59:22.996675 12350 layer_factory.hpp:77] Creating layer inception_4d/relu_5x5_reduce
I0403 13:59:22.996692 12350 net.cpp:91] Creating Layer inception_4d/relu_5x5_reduce
I0403 13:59:22.996709 12350 net.cpp:425] inception_4d/relu_5x5_reduce <- inception_4d/5x5_reduce
I0403 13:59:22.996729 12350 net.cpp:386] inception_4d/relu_5x5_reduce -> inception_4d/5x5_reduce (in-place)
I0403 13:59:22.996917 12350 net.cpp:141] Setting up inception_4d/relu_5x5_reduce
I0403 13:59:22.996942 12350 net.cpp:148] Top shape: 24 32 14 14 (150528)
I0403 13:59:22.996956 12350 net.cpp:156] Memory required for data: 1132858656
I0403 13:59:22.996971 12350 layer_factory.hpp:77] Creating layer inception_4d/5x5
I0403 13:59:22.996992 12350 net.cpp:91] Creating Layer inception_4d/5x5
I0403 13:59:22.997009 12350 net.cpp:425] inception_4d/5x5 <- inception_4d/5x5_reduce
I0403 13:59:22.997028 12350 net.cpp:399] inception_4d/5x5 -> inception_4d/5x5
I0403 13:59:22.998510 12350 net.cpp:141] Setting up inception_4d/5x5
I0403 13:59:22.998543 12350 net.cpp:148] Top shape: 24 64 14 14 (301056)
I0403 13:59:22.998560 12350 net.cpp:156] Memory required for data: 1134062880
I0403 13:59:22.998580 12350 layer_factory.hpp:77] Creating layer inception_4d/relu_5x5
I0403 13:59:22.998616 12350 net.cpp:91] Creating Layer inception_4d/relu_5x5
I0403 13:59:22.998634 12350 net.cpp:425] inception_4d/relu_5x5 <- inception_4d/5x5
I0403 13:59:22.998652 12350 net.cpp:386] inception_4d/relu_5x5 -> inception_4d/5x5 (in-place)
I0403 13:59:22.998957 12350 net.cpp:141] Setting up inception_4d/relu_5x5
I0403 13:59:22.998983 12350 net.cpp:148] Top shape: 24 64 14 14 (301056)
I0403 13:59:22.998998 12350 net.cpp:156] Memory required for data: 1135267104
I0403 13:59:22.999013 12350 layer_factory.hpp:77] Creating layer inception_4d/pool
I0403 13:59:22.999033 12350 net.cpp:91] Creating Layer inception_4d/pool
I0403 13:59:22.999049 12350 net.cpp:425] inception_4d/pool <- inception_4c/output_inception_4c/output_0_split_3
I0403 13:59:22.999068 12350 net.cpp:399] inception_4d/pool -> inception_4d/pool
I0403 13:59:22.999133 12350 net.cpp:141] Setting up inception_4d/pool
I0403 13:59:22.999158 12350 net.cpp:148] Top shape: 24 512 14 14 (2408448)
I0403 13:59:22.999172 12350 net.cpp:156] Memory required for data: 1144900896
I0403 13:59:22.999186 12350 layer_factory.hpp:77] Creating layer inception_4d/pool_proj
I0403 13:59:22.999207 12350 net.cpp:91] Creating Layer inception_4d/pool_proj
I0403 13:59:22.999225 12350 net.cpp:425] inception_4d/pool_proj <- inception_4d/pool
I0403 13:59:22.999248 12350 net.cpp:399] inception_4d/pool_proj -> inception_4d/pool_proj
I0403 13:59:23.001030 12350 net.cpp:141] Setting up inception_4d/pool_proj
I0403 13:59:23.001062 12350 net.cpp:148] Top shape: 24 64 14 14 (301056)
I0403 13:59:23.001078 12350 net.cpp:156] Memory required for data: 1146105120
I0403 13:59:23.001097 12350 layer_factory.hpp:77] Creating layer inception_4d/relu_pool_proj
I0403 13:59:23.001117 12350 net.cpp:91] Creating Layer inception_4d/relu_pool_proj
I0403 13:59:23.001137 12350 net.cpp:425] inception_4d/relu_pool_proj <- inception_4d/pool_proj
I0403 13:59:23.001153 12350 net.cpp:386] inception_4d/relu_pool_proj -> inception_4d/pool_proj (in-place)
I0403 13:59:23.001339 12350 net.cpp:141] Setting up inception_4d/relu_pool_proj
I0403 13:59:23.001365 12350 net.cpp:148] Top shape: 24 64 14 14 (301056)
I0403 13:59:23.001381 12350 net.cpp:156] Memory required for data: 1147309344
I0403 13:59:23.001396 12350 layer_factory.hpp:77] Creating layer inception_4d/output
I0403 13:59:23.001416 12350 net.cpp:91] Creating Layer inception_4d/output
I0403 13:59:23.001433 12350 net.cpp:425] inception_4d/output <- inception_4d/1x1
I0403 13:59:23.001451 12350 net.cpp:425] inception_4d/output <- inception_4d/3x3
I0403 13:59:23.001466 12350 net.cpp:425] inception_4d/output <- inception_4d/5x5
I0403 13:59:23.001482 12350 net.cpp:425] inception_4d/output <- inception_4d/pool_proj
I0403 13:59:23.001498 12350 net.cpp:399] inception_4d/output -> inception_4d/output
I0403 13:59:23.001559 12350 net.cpp:141] Setting up inception_4d/output
I0403 13:59:23.001582 12350 net.cpp:148] Top shape: 24 528 14 14 (2483712)
I0403 13:59:23.001597 12350 net.cpp:156] Memory required for data: 1157244192
I0403 13:59:23.001619 12350 layer_factory.hpp:77] Creating layer inception_4d/output_inception_4d/output_0_split
I0403 13:59:23.001636 12350 net.cpp:91] Creating Layer inception_4d/output_inception_4d/output_0_split
I0403 13:59:23.001652 12350 net.cpp:425] inception_4d/output_inception_4d/output_0_split <- inception_4d/output
I0403 13:59:23.001672 12350 net.cpp:399] inception_4d/output_inception_4d/output_0_split -> inception_4d/output_inception_4d/output_0_split_0
I0403 13:59:23.001693 12350 net.cpp:399] inception_4d/output_inception_4d/output_0_split -> inception_4d/output_inception_4d/output_0_split_1
I0403 13:59:23.001713 12350 net.cpp:399] inception_4d/output_inception_4d/output_0_split -> inception_4d/output_inception_4d/output_0_split_2
I0403 13:59:23.001732 12350 net.cpp:399] inception_4d/output_inception_4d/output_0_split -> inception_4d/output_inception_4d/output_0_split_3
I0403 13:59:23.001752 12350 net.cpp:399] inception_4d/output_inception_4d/output_0_split -> inception_4d/output_inception_4d/output_0_split_4
I0403 13:59:23.001857 12350 net.cpp:141] Setting up inception_4d/output_inception_4d/output_0_split
I0403 13:59:23.001901 12350 net.cpp:148] Top shape: 24 528 14 14 (2483712)
I0403 13:59:23.001919 12350 net.cpp:148] Top shape: 24 528 14 14 (2483712)
I0403 13:59:23.001934 12350 net.cpp:148] Top shape: 24 528 14 14 (2483712)
I0403 13:59:23.001948 12350 net.cpp:148] Top shape: 24 528 14 14 (2483712)
I0403 13:59:23.001963 12350 net.cpp:148] Top shape: 24 528 14 14 (2483712)
I0403 13:59:23.001977 12350 net.cpp:156] Memory required for data: 1206918432
I0403 13:59:23.001991 12350 layer_factory.hpp:77] Creating layer loss2/ave_pool
I0403 13:59:23.002008 12350 net.cpp:91] Creating Layer loss2/ave_pool
I0403 13:59:23.002023 12350 net.cpp:425] loss2/ave_pool <- inception_4d/output_inception_4d/output_0_split_0
I0403 13:59:23.002044 12350 net.cpp:399] loss2/ave_pool -> loss2/ave_pool
I0403 13:59:23.002364 12350 net.cpp:141] Setting up loss2/ave_pool
I0403 13:59:23.002390 12350 net.cpp:148] Top shape: 24 528 4 4 (202752)
I0403 13:59:23.002406 12350 net.cpp:156] Memory required for data: 1207729440
I0403 13:59:23.002420 12350 layer_factory.hpp:77] Creating layer loss2/conv
I0403 13:59:23.002442 12350 net.cpp:91] Creating Layer loss2/conv
I0403 13:59:23.002460 12350 net.cpp:425] loss2/conv <- loss2/ave_pool
I0403 13:59:23.002480 12350 net.cpp:399] loss2/conv -> loss2/conv
I0403 13:59:23.004396 12350 net.cpp:141] Setting up loss2/conv
I0403 13:59:23.004426 12350 net.cpp:148] Top shape: 24 128 4 4 (49152)
I0403 13:59:23.004443 12350 net.cpp:156] Memory required for data: 1207926048
I0403 13:59:23.004462 12350 layer_factory.hpp:77] Creating layer loss2/relu_conv
I0403 13:59:23.004484 12350 net.cpp:91] Creating Layer loss2/relu_conv
I0403 13:59:23.004503 12350 net.cpp:425] loss2/relu_conv <- loss2/conv
I0403 13:59:23.004521 12350 net.cpp:386] loss2/relu_conv -> loss2/conv (in-place)
I0403 13:59:23.004822 12350 net.cpp:141] Setting up loss2/relu_conv
I0403 13:59:23.004850 12350 net.cpp:148] Top shape: 24 128 4 4 (49152)
I0403 13:59:23.004866 12350 net.cpp:156] Memory required for data: 1208122656
I0403 13:59:23.004881 12350 layer_factory.hpp:77] Creating layer loss2/fc
I0403 13:59:23.004904 12350 net.cpp:91] Creating Layer loss2/fc
I0403 13:59:23.004923 12350 net.cpp:425] loss2/fc <- loss2/conv
I0403 13:59:23.004943 12350 net.cpp:399] loss2/fc -> loss2/fc
I0403 13:59:23.022629 12350 net.cpp:141] Setting up loss2/fc
I0403 13:59:23.022682 12350 net.cpp:148] Top shape: 24 1024 (24576)
I0403 13:59:23.022698 12350 net.cpp:156] Memory required for data: 1208220960
I0403 13:59:23.022717 12350 layer_factory.hpp:77] Creating layer loss2/relu_fc
I0403 13:59:23.022737 12350 net.cpp:91] Creating Layer loss2/relu_fc
I0403 13:59:23.022754 12350 net.cpp:425] loss2/relu_fc <- loss2/fc
I0403 13:59:23.022774 12350 net.cpp:386] loss2/relu_fc -> loss2/fc (in-place)
I0403 13:59:23.023115 12350 net.cpp:141] Setting up loss2/relu_fc
I0403 13:59:23.023141 12350 net.cpp:148] Top shape: 24 1024 (24576)
I0403 13:59:23.023156 12350 net.cpp:156] Memory required for data: 1208319264
I0403 13:59:23.023170 12350 layer_factory.hpp:77] Creating layer loss2/drop_fc
I0403 13:59:23.023188 12350 net.cpp:91] Creating Layer loss2/drop_fc
I0403 13:59:23.023203 12350 net.cpp:425] loss2/drop_fc <- loss2/fc
I0403 13:59:23.023222 12350 net.cpp:386] loss2/drop_fc -> loss2/fc (in-place)
I0403 13:59:23.023274 12350 net.cpp:141] Setting up loss2/drop_fc
I0403 13:59:23.023298 12350 net.cpp:148] Top shape: 24 1024 (24576)
I0403 13:59:23.023319 12350 net.cpp:156] Memory required for data: 1208417568
I0403 13:59:23.023334 12350 layer_factory.hpp:77] Creating layer loss2/classifier_plantvillage
I0403 13:59:23.023352 12350 net.cpp:91] Creating Layer loss2/classifier_plantvillage
I0403 13:59:23.023367 12350 net.cpp:425] loss2/classifier_plantvillage <- loss2/fc
I0403 13:59:23.023388 12350 net.cpp:399] loss2/classifier_plantvillage -> loss2/classifier_plantvillage
I0403 13:59:23.023810 12350 net.cpp:141] Setting up loss2/classifier_plantvillage
I0403 13:59:23.023838 12350 net.cpp:148] Top shape: 24 38 (912)
I0403 13:59:23.023877 12350 net.cpp:156] Memory required for data: 1208421216
I0403 13:59:23.023897 12350 layer_factory.hpp:77] Creating layer loss2/classifier_plantvillage_loss2/classifier_plantvillage_0_split
I0403 13:59:23.023918 12350 net.cpp:91] Creating Layer loss2/classifier_plantvillage_loss2/classifier_plantvillage_0_split
I0403 13:59:23.023936 12350 net.cpp:425] loss2/classifier_plantvillage_loss2/classifier_plantvillage_0_split <- loss2/classifier_plantvillage
I0403 13:59:23.023952 12350 net.cpp:399] loss2/classifier_plantvillage_loss2/classifier_plantvillage_0_split -> loss2/classifier_plantvillage_loss2/classifier_plantvillage_0_split_0
I0403 13:59:23.023974 12350 net.cpp:399] loss2/classifier_plantvillage_loss2/classifier_plantvillage_0_split -> loss2/classifier_plantvillage_loss2/classifier_plantvillage_0_split_1
I0403 13:59:23.023994 12350 net.cpp:399] loss2/classifier_plantvillage_loss2/classifier_plantvillage_0_split -> loss2/classifier_plantvillage_loss2/classifier_plantvillage_0_split_2
I0403 13:59:23.024072 12350 net.cpp:141] Setting up loss2/classifier_plantvillage_loss2/classifier_plantvillage_0_split
I0403 13:59:23.024096 12350 net.cpp:148] Top shape: 24 38 (912)
I0403 13:59:23.024111 12350 net.cpp:148] Top shape: 24 38 (912)
I0403 13:59:23.024126 12350 net.cpp:148] Top shape: 24 38 (912)
I0403 13:59:23.024137 12350 net.cpp:156] Memory required for data: 1208432160
I0403 13:59:23.024152 12350 layer_factory.hpp:77] Creating layer inception_4e/1x1
I0403 13:59:23.024173 12350 net.cpp:91] Creating Layer inception_4e/1x1
I0403 13:59:23.024191 12350 net.cpp:425] inception_4e/1x1 <- inception_4d/output_inception_4d/output_0_split_1
I0403 13:59:23.024209 12350 net.cpp:399] inception_4e/1x1 -> inception_4e/1x1
I0403 13:59:23.026067 12350 net.cpp:141] Setting up inception_4e/1x1
I0403 13:59:23.026098 12350 net.cpp:148] Top shape: 24 256 14 14 (1204224)
I0403 13:59:23.026115 12350 net.cpp:156] Memory required for data: 1213249056
I0403 13:59:23.026134 12350 layer_factory.hpp:77] Creating layer inception_4e/relu_1x1
I0403 13:59:23.026154 12350 net.cpp:91] Creating Layer inception_4e/relu_1x1
I0403 13:59:23.026170 12350 net.cpp:425] inception_4e/relu_1x1 <- inception_4e/1x1
I0403 13:59:23.026187 12350 net.cpp:386] inception_4e/relu_1x1 -> inception_4e/1x1 (in-place)
I0403 13:59:23.026485 12350 net.cpp:141] Setting up inception_4e/relu_1x1
I0403 13:59:23.026513 12350 net.cpp:148] Top shape: 24 256 14 14 (1204224)
I0403 13:59:23.026528 12350 net.cpp:156] Memory required for data: 1218065952
I0403 13:59:23.026548 12350 layer_factory.hpp:77] Creating layer inception_4e/3x3_reduce
I0403 13:59:23.026573 12350 net.cpp:91] Creating Layer inception_4e/3x3_reduce
I0403 13:59:23.026592 12350 net.cpp:425] inception_4e/3x3_reduce <- inception_4d/output_inception_4d/output_0_split_2
I0403 13:59:23.026609 12350 net.cpp:399] inception_4e/3x3_reduce -> inception_4e/3x3_reduce
I0403 13:59:23.028745 12350 net.cpp:141] Setting up inception_4e/3x3_reduce
I0403 13:59:23.028775 12350 net.cpp:148] Top shape: 24 160 14 14 (752640)
I0403 13:59:23.028791 12350 net.cpp:156] Memory required for data: 1221076512
I0403 13:59:23.028810 12350 layer_factory.hpp:77] Creating layer inception_4e/relu_3x3_reduce
I0403 13:59:23.028831 12350 net.cpp:91] Creating Layer inception_4e/relu_3x3_reduce
I0403 13:59:23.028849 12350 net.cpp:425] inception_4e/relu_3x3_reduce <- inception_4e/3x3_reduce
I0403 13:59:23.028867 12350 net.cpp:386] inception_4e/relu_3x3_reduce -> inception_4e/3x3_reduce (in-place)
I0403 13:59:23.029050 12350 net.cpp:141] Setting up inception_4e/relu_3x3_reduce
I0403 13:59:23.029078 12350 net.cpp:148] Top shape: 24 160 14 14 (752640)
I0403 13:59:23.029093 12350 net.cpp:156] Memory required for data: 1224087072
I0403 13:59:23.029106 12350 layer_factory.hpp:77] Creating layer inception_4e/3x3
I0403 13:59:23.029127 12350 net.cpp:91] Creating Layer inception_4e/3x3
I0403 13:59:23.029145 12350 net.cpp:425] inception_4e/3x3 <- inception_4e/3x3_reduce
I0403 13:59:23.029162 12350 net.cpp:399] inception_4e/3x3 -> inception_4e/3x3
I0403 13:59:23.034178 12350 net.cpp:141] Setting up inception_4e/3x3
I0403 13:59:23.034222 12350 net.cpp:148] Top shape: 24 320 14 14 (1505280)
I0403 13:59:23.034240 12350 net.cpp:156] Memory required for data: 1230108192
I0403 13:59:23.034260 12350 layer_factory.hpp:77] Creating layer inception_4e/relu_3x3
I0403 13:59:23.034277 12350 net.cpp:91] Creating Layer inception_4e/relu_3x3
I0403 13:59:23.034293 12350 net.cpp:425] inception_4e/relu_3x3 <- inception_4e/3x3
I0403 13:59:23.034312 12350 net.cpp:386] inception_4e/relu_3x3 -> inception_4e/3x3 (in-place)
I0403 13:59:23.034632 12350 net.cpp:141] Setting up inception_4e/relu_3x3
I0403 13:59:23.034659 12350 net.cpp:148] Top shape: 24 320 14 14 (1505280)
I0403 13:59:23.034674 12350 net.cpp:156] Memory required for data: 1236129312
I0403 13:59:23.034689 12350 layer_factory.hpp:77] Creating layer inception_4e/5x5_reduce
I0403 13:59:23.034713 12350 net.cpp:91] Creating Layer inception_4e/5x5_reduce
I0403 13:59:23.034730 12350 net.cpp:425] inception_4e/5x5_reduce <- inception_4d/output_inception_4d/output_0_split_3
I0403 13:59:23.034751 12350 net.cpp:399] inception_4e/5x5_reduce -> inception_4e/5x5_reduce
I0403 13:59:23.035841 12350 net.cpp:141] Setting up inception_4e/5x5_reduce
I0403 13:59:23.035868 12350 net.cpp:148] Top shape: 24 32 14 14 (150528)
I0403 13:59:23.035883 12350 net.cpp:156] Memory required for data: 1236731424
I0403 13:59:23.035902 12350 layer_factory.hpp:77] Creating layer inception_4e/relu_5x5_reduce
I0403 13:59:23.035922 12350 net.cpp:91] Creating Layer inception_4e/relu_5x5_reduce
I0403 13:59:23.035938 12350 net.cpp:425] inception_4e/relu_5x5_reduce <- inception_4e/5x5_reduce
I0403 13:59:23.035954 12350 net.cpp:386] inception_4e/relu_5x5_reduce -> inception_4e/5x5_reduce (in-place)
I0403 13:59:23.036257 12350 net.cpp:141] Setting up inception_4e/relu_5x5_reduce
I0403 13:59:23.036283 12350 net.cpp:148] Top shape: 24 32 14 14 (150528)
I0403 13:59:23.036298 12350 net.cpp:156] Memory required for data: 1237333536
I0403 13:59:23.036311 12350 layer_factory.hpp:77] Creating layer inception_4e/5x5
I0403 13:59:23.036351 12350 net.cpp:91] Creating Layer inception_4e/5x5
I0403 13:59:23.036370 12350 net.cpp:425] inception_4e/5x5 <- inception_4e/5x5_reduce
I0403 13:59:23.036391 12350 net.cpp:399] inception_4e/5x5 -> inception_4e/5x5
I0403 13:59:23.038244 12350 net.cpp:141] Setting up inception_4e/5x5
I0403 13:59:23.038275 12350 net.cpp:148] Top shape: 24 128 14 14 (602112)
I0403 13:59:23.038290 12350 net.cpp:156] Memory required for data: 1239741984
I0403 13:59:23.038310 12350 layer_factory.hpp:77] Creating layer inception_4e/relu_5x5
I0403 13:59:23.038331 12350 net.cpp:91] Creating Layer inception_4e/relu_5x5
I0403 13:59:23.038347 12350 net.cpp:425] inception_4e/relu_5x5 <- inception_4e/5x5
I0403 13:59:23.038363 12350 net.cpp:386] inception_4e/relu_5x5 -> inception_4e/5x5 (in-place)
I0403 13:59:23.038564 12350 net.cpp:141] Setting up inception_4e/relu_5x5
I0403 13:59:23.038589 12350 net.cpp:148] Top shape: 24 128 14 14 (602112)
I0403 13:59:23.038604 12350 net.cpp:156] Memory required for data: 1242150432
I0403 13:59:23.038617 12350 layer_factory.hpp:77] Creating layer inception_4e/pool
I0403 13:59:23.038637 12350 net.cpp:91] Creating Layer inception_4e/pool
I0403 13:59:23.038653 12350 net.cpp:425] inception_4e/pool <- inception_4d/output_inception_4d/output_0_split_4
I0403 13:59:23.038671 12350 net.cpp:399] inception_4e/pool -> inception_4e/pool
I0403 13:59:23.038740 12350 net.cpp:141] Setting up inception_4e/pool
I0403 13:59:23.038764 12350 net.cpp:148] Top shape: 24 528 14 14 (2483712)
I0403 13:59:23.038779 12350 net.cpp:156] Memory required for data: 1252085280
I0403 13:59:23.038792 12350 layer_factory.hpp:77] Creating layer inception_4e/pool_proj
I0403 13:59:23.038813 12350 net.cpp:91] Creating Layer inception_4e/pool_proj
I0403 13:59:23.038830 12350 net.cpp:425] inception_4e/pool_proj <- inception_4e/pool
I0403 13:59:23.038851 12350 net.cpp:399] inception_4e/pool_proj -> inception_4e/pool_proj
I0403 13:59:23.040355 12350 net.cpp:141] Setting up inception_4e/pool_proj
I0403 13:59:23.040395 12350 net.cpp:148] Top shape: 24 128 14 14 (602112)
I0403 13:59:23.040412 12350 net.cpp:156] Memory required for data: 1254493728
I0403 13:59:23.040431 12350 layer_factory.hpp:77] Creating layer inception_4e/relu_pool_proj
I0403 13:59:23.040452 12350 net.cpp:91] Creating Layer inception_4e/relu_pool_proj
I0403 13:59:23.040467 12350 net.cpp:425] inception_4e/relu_pool_proj <- inception_4e/pool_proj
I0403 13:59:23.040484 12350 net.cpp:386] inception_4e/relu_pool_proj -> inception_4e/pool_proj (in-place)
I0403 13:59:23.040786 12350 net.cpp:141] Setting up inception_4e/relu_pool_proj
I0403 13:59:23.040812 12350 net.cpp:148] Top shape: 24 128 14 14 (602112)
I0403 13:59:23.040827 12350 net.cpp:156] Memory required for data: 1256902176
I0403 13:59:23.040840 12350 layer_factory.hpp:77] Creating layer inception_4e/output
I0403 13:59:23.040858 12350 net.cpp:91] Creating Layer inception_4e/output
I0403 13:59:23.040874 12350 net.cpp:425] inception_4e/output <- inception_4e/1x1
I0403 13:59:23.040889 12350 net.cpp:425] inception_4e/output <- inception_4e/3x3
I0403 13:59:23.040904 12350 net.cpp:425] inception_4e/output <- inception_4e/5x5
I0403 13:59:23.040920 12350 net.cpp:425] inception_4e/output <- inception_4e/pool_proj
I0403 13:59:23.040938 12350 net.cpp:399] inception_4e/output -> inception_4e/output
I0403 13:59:23.040987 12350 net.cpp:141] Setting up inception_4e/output
I0403 13:59:23.041013 12350 net.cpp:148] Top shape: 24 832 14 14 (3913728)
I0403 13:59:23.041026 12350 net.cpp:156] Memory required for data: 1272557088
I0403 13:59:23.041040 12350 layer_factory.hpp:77] Creating layer pool4/3x3_s2
I0403 13:59:23.041057 12350 net.cpp:91] Creating Layer pool4/3x3_s2
I0403 13:59:23.041072 12350 net.cpp:425] pool4/3x3_s2 <- inception_4e/output
I0403 13:59:23.041092 12350 net.cpp:399] pool4/3x3_s2 -> pool4/3x3_s2
I0403 13:59:23.041158 12350 net.cpp:141] Setting up pool4/3x3_s2
I0403 13:59:23.041182 12350 net.cpp:148] Top shape: 24 832 7 7 (978432)
I0403 13:59:23.041195 12350 net.cpp:156] Memory required for data: 1276470816
I0403 13:59:23.041209 12350 layer_factory.hpp:77] Creating layer pool4/3x3_s2_pool4/3x3_s2_0_split
I0403 13:59:23.041229 12350 net.cpp:91] Creating Layer pool4/3x3_s2_pool4/3x3_s2_0_split
I0403 13:59:23.041244 12350 net.cpp:425] pool4/3x3_s2_pool4/3x3_s2_0_split <- pool4/3x3_s2
I0403 13:59:23.041263 12350 net.cpp:399] pool4/3x3_s2_pool4/3x3_s2_0_split -> pool4/3x3_s2_pool4/3x3_s2_0_split_0
I0403 13:59:23.041283 12350 net.cpp:399] pool4/3x3_s2_pool4/3x3_s2_0_split -> pool4/3x3_s2_pool4/3x3_s2_0_split_1
I0403 13:59:23.041303 12350 net.cpp:399] pool4/3x3_s2_pool4/3x3_s2_0_split -> pool4/3x3_s2_pool4/3x3_s2_0_split_2
I0403 13:59:23.041324 12350 net.cpp:399] pool4/3x3_s2_pool4/3x3_s2_0_split -> pool4/3x3_s2_pool4/3x3_s2_0_split_3
I0403 13:59:23.041417 12350 net.cpp:141] Setting up pool4/3x3_s2_pool4/3x3_s2_0_split
I0403 13:59:23.041440 12350 net.cpp:148] Top shape: 24 832 7 7 (978432)
I0403 13:59:23.041456 12350 net.cpp:148] Top shape: 24 832 7 7 (978432)
I0403 13:59:23.041471 12350 net.cpp:148] Top shape: 24 832 7 7 (978432)
I0403 13:59:23.041486 12350 net.cpp:148] Top shape: 24 832 7 7 (978432)
I0403 13:59:23.041498 12350 net.cpp:156] Memory required for data: 1292125728
I0403 13:59:23.041512 12350 layer_factory.hpp:77] Creating layer inception_5a/1x1
I0403 13:59:23.041534 12350 net.cpp:91] Creating Layer inception_5a/1x1
I0403 13:59:23.041556 12350 net.cpp:425] inception_5a/1x1 <- pool4/3x3_s2_pool4/3x3_s2_0_split_0
I0403 13:59:23.041577 12350 net.cpp:399] inception_5a/1x1 -> inception_5a/1x1
I0403 13:59:23.044425 12350 net.cpp:141] Setting up inception_5a/1x1
I0403 13:59:23.044456 12350 net.cpp:148] Top shape: 24 256 7 7 (301056)
I0403 13:59:23.044471 12350 net.cpp:156] Memory required for data: 1293329952
I0403 13:59:23.044491 12350 layer_factory.hpp:77] Creating layer inception_5a/relu_1x1
I0403 13:59:23.044512 12350 net.cpp:91] Creating Layer inception_5a/relu_1x1
I0403 13:59:23.044529 12350 net.cpp:425] inception_5a/relu_1x1 <- inception_5a/1x1
I0403 13:59:23.044559 12350 net.cpp:386] inception_5a/relu_1x1 -> inception_5a/1x1 (in-place)
I0403 13:59:23.044881 12350 net.cpp:141] Setting up inception_5a/relu_1x1
I0403 13:59:23.044909 12350 net.cpp:148] Top shape: 24 256 7 7 (301056)
I0403 13:59:23.044922 12350 net.cpp:156] Memory required for data: 1294534176
I0403 13:59:23.044937 12350 layer_factory.hpp:77] Creating layer inception_5a/3x3_reduce
I0403 13:59:23.044960 12350 net.cpp:91] Creating Layer inception_5a/3x3_reduce
I0403 13:59:23.044976 12350 net.cpp:425] inception_5a/3x3_reduce <- pool4/3x3_s2_pool4/3x3_s2_0_split_1
I0403 13:59:23.044996 12350 net.cpp:399] inception_5a/3x3_reduce -> inception_5a/3x3_reduce
I0403 13:59:23.047471 12350 net.cpp:141] Setting up inception_5a/3x3_reduce
I0403 13:59:23.047502 12350 net.cpp:148] Top shape: 24 160 7 7 (188160)
I0403 13:59:23.047518 12350 net.cpp:156] Memory required for data: 1295286816
I0403 13:59:23.047539 12350 layer_factory.hpp:77] Creating layer inception_5a/relu_3x3_reduce
I0403 13:59:23.047564 12350 net.cpp:91] Creating Layer inception_5a/relu_3x3_reduce
I0403 13:59:23.047593 12350 net.cpp:425] inception_5a/relu_3x3_reduce <- inception_5a/3x3_reduce
I0403 13:59:23.047612 12350 net.cpp:386] inception_5a/relu_3x3_reduce -> inception_5a/3x3_reduce (in-place)
I0403 13:59:23.047803 12350 net.cpp:141] Setting up inception_5a/relu_3x3_reduce
I0403 13:59:23.047827 12350 net.cpp:148] Top shape: 24 160 7 7 (188160)
I0403 13:59:23.047842 12350 net.cpp:156] Memory required for data: 1296039456
I0403 13:59:23.047857 12350 layer_factory.hpp:77] Creating layer inception_5a/3x3
I0403 13:59:23.047889 12350 net.cpp:91] Creating Layer inception_5a/3x3
I0403 13:59:23.047905 12350 net.cpp:425] inception_5a/3x3 <- inception_5a/3x3_reduce
I0403 13:59:23.047925 12350 net.cpp:399] inception_5a/3x3 -> inception_5a/3x3
I0403 13:59:23.052935 12350 net.cpp:141] Setting up inception_5a/3x3
I0403 13:59:23.052964 12350 net.cpp:148] Top shape: 24 320 7 7 (376320)
I0403 13:59:23.052979 12350 net.cpp:156] Memory required for data: 1297544736
I0403 13:59:23.052997 12350 layer_factory.hpp:77] Creating layer inception_5a/relu_3x3
I0403 13:59:23.053017 12350 net.cpp:91] Creating Layer inception_5a/relu_3x3
I0403 13:59:23.053033 12350 net.cpp:425] inception_5a/relu_3x3 <- inception_5a/3x3
I0403 13:59:23.053050 12350 net.cpp:386] inception_5a/relu_3x3 -> inception_5a/3x3 (in-place)
I0403 13:59:23.053340 12350 net.cpp:141] Setting up inception_5a/relu_3x3
I0403 13:59:23.053365 12350 net.cpp:148] Top shape: 24 320 7 7 (376320)
I0403 13:59:23.053380 12350 net.cpp:156] Memory required for data: 1299050016
I0403 13:59:23.053395 12350 layer_factory.hpp:77] Creating layer inception_5a/5x5_reduce
I0403 13:59:23.053416 12350 net.cpp:91] Creating Layer inception_5a/5x5_reduce
I0403 13:59:23.053431 12350 net.cpp:425] inception_5a/5x5_reduce <- pool4/3x3_s2_pool4/3x3_s2_0_split_2
I0403 13:59:23.053452 12350 net.cpp:399] inception_5a/5x5_reduce -> inception_5a/5x5_reduce
I0403 13:59:23.054649 12350 net.cpp:141] Setting up inception_5a/5x5_reduce
I0403 13:59:23.054678 12350 net.cpp:148] Top shape: 24 32 7 7 (37632)
I0403 13:59:23.054694 12350 net.cpp:156] Memory required for data: 1299200544
I0403 13:59:23.054713 12350 layer_factory.hpp:77] Creating layer inception_5a/relu_5x5_reduce
I0403 13:59:23.054734 12350 net.cpp:91] Creating Layer inception_5a/relu_5x5_reduce
I0403 13:59:23.054751 12350 net.cpp:425] inception_5a/relu_5x5_reduce <- inception_5a/5x5_reduce
I0403 13:59:23.054767 12350 net.cpp:386] inception_5a/relu_5x5_reduce -> inception_5a/5x5_reduce (in-place)
I0403 13:59:23.055061 12350 net.cpp:141] Setting up inception_5a/relu_5x5_reduce
I0403 13:59:23.055086 12350 net.cpp:148] Top shape: 24 32 7 7 (37632)
I0403 13:59:23.055100 12350 net.cpp:156] Memory required for data: 1299351072
I0403 13:59:23.055114 12350 layer_factory.hpp:77] Creating layer inception_5a/5x5
I0403 13:59:23.055136 12350 net.cpp:91] Creating Layer inception_5a/5x5
I0403 13:59:23.055153 12350 net.cpp:425] inception_5a/5x5 <- inception_5a/5x5_reduce
I0403 13:59:23.055171 12350 net.cpp:399] inception_5a/5x5 -> inception_5a/5x5
I0403 13:59:23.056897 12350 net.cpp:141] Setting up inception_5a/5x5
I0403 13:59:23.056936 12350 net.cpp:148] Top shape: 24 128 7 7 (150528)
I0403 13:59:23.056951 12350 net.cpp:156] Memory required for data: 1299953184
I0403 13:59:23.056968 12350 layer_factory.hpp:77] Creating layer inception_5a/relu_5x5
I0403 13:59:23.056988 12350 net.cpp:91] Creating Layer inception_5a/relu_5x5
I0403 13:59:23.057004 12350 net.cpp:425] inception_5a/relu_5x5 <- inception_5a/5x5
I0403 13:59:23.057021 12350 net.cpp:386] inception_5a/relu_5x5 -> inception_5a/5x5 (in-place)
I0403 13:59:23.057207 12350 net.cpp:141] Setting up inception_5a/relu_5x5
I0403 13:59:23.057231 12350 net.cpp:148] Top shape: 24 128 7 7 (150528)
I0403 13:59:23.057245 12350 net.cpp:156] Memory required for data: 1300555296
I0403 13:59:23.057260 12350 layer_factory.hpp:77] Creating layer inception_5a/pool
I0403 13:59:23.057279 12350 net.cpp:91] Creating Layer inception_5a/pool
I0403 13:59:23.057296 12350 net.cpp:425] inception_5a/pool <- pool4/3x3_s2_pool4/3x3_s2_0_split_3
I0403 13:59:23.057315 12350 net.cpp:399] inception_5a/pool -> inception_5a/pool
I0403 13:59:23.057385 12350 net.cpp:141] Setting up inception_5a/pool
I0403 13:59:23.057420 12350 net.cpp:148] Top shape: 24 832 7 7 (978432)
I0403 13:59:23.057437 12350 net.cpp:156] Memory required for data: 1304469024
I0403 13:59:23.057451 12350 layer_factory.hpp:77] Creating layer inception_5a/pool_proj
I0403 13:59:23.057473 12350 net.cpp:91] Creating Layer inception_5a/pool_proj
I0403 13:59:23.057490 12350 net.cpp:425] inception_5a/pool_proj <- inception_5a/pool
I0403 13:59:23.057510 12350 net.cpp:399] inception_5a/pool_proj -> inception_5a/pool_proj
I0403 13:59:23.059816 12350 net.cpp:141] Setting up inception_5a/pool_proj
I0403 13:59:23.059847 12350 net.cpp:148] Top shape: 24 128 7 7 (150528)
I0403 13:59:23.059864 12350 net.cpp:156] Memory required for data: 1305071136
I0403 13:59:23.059882 12350 layer_factory.hpp:77] Creating layer inception_5a/relu_pool_proj
I0403 13:59:23.059900 12350 net.cpp:91] Creating Layer inception_5a/relu_pool_proj
I0403 13:59:23.059914 12350 net.cpp:425] inception_5a/relu_pool_proj <- inception_5a/pool_proj
I0403 13:59:23.059933 12350 net.cpp:386] inception_5a/relu_pool_proj -> inception_5a/pool_proj (in-place)
I0403 13:59:23.060225 12350 net.cpp:141] Setting up inception_5a/relu_pool_proj
I0403 13:59:23.060250 12350 net.cpp:148] Top shape: 24 128 7 7 (150528)
I0403 13:59:23.060266 12350 net.cpp:156] Memory required for data: 1305673248
I0403 13:59:23.060281 12350 layer_factory.hpp:77] Creating layer inception_5a/output
I0403 13:59:23.060297 12350 net.cpp:91] Creating Layer inception_5a/output
I0403 13:59:23.060312 12350 net.cpp:425] inception_5a/output <- inception_5a/1x1
I0403 13:59:23.060328 12350 net.cpp:425] inception_5a/output <- inception_5a/3x3
I0403 13:59:23.060343 12350 net.cpp:425] inception_5a/output <- inception_5a/5x5
I0403 13:59:23.060359 12350 net.cpp:425] inception_5a/output <- inception_5a/pool_proj
I0403 13:59:23.060377 12350 net.cpp:399] inception_5a/output -> inception_5a/output
I0403 13:59:23.060426 12350 net.cpp:141] Setting up inception_5a/output
I0403 13:59:23.060451 12350 net.cpp:148] Top shape: 24 832 7 7 (978432)
I0403 13:59:23.060466 12350 net.cpp:156] Memory required for data: 1309586976
I0403 13:59:23.060479 12350 layer_factory.hpp:77] Creating layer inception_5a/output_inception_5a/output_0_split
I0403 13:59:23.060495 12350 net.cpp:91] Creating Layer inception_5a/output_inception_5a/output_0_split
I0403 13:59:23.060510 12350 net.cpp:425] inception_5a/output_inception_5a/output_0_split <- inception_5a/output
I0403 13:59:23.060526 12350 net.cpp:399] inception_5a/output_inception_5a/output_0_split -> inception_5a/output_inception_5a/output_0_split_0
I0403 13:59:23.060552 12350 net.cpp:399] inception_5a/output_inception_5a/output_0_split -> inception_5a/output_inception_5a/output_0_split_1
I0403 13:59:23.060575 12350 net.cpp:399] inception_5a/output_inception_5a/output_0_split -> inception_5a/output_inception_5a/output_0_split_2
I0403 13:59:23.060595 12350 net.cpp:399] inception_5a/output_inception_5a/output_0_split -> inception_5a/output_inception_5a/output_0_split_3
I0403 13:59:23.060705 12350 net.cpp:141] Setting up inception_5a/output_inception_5a/output_0_split
I0403 13:59:23.060729 12350 net.cpp:148] Top shape: 24 832 7 7 (978432)
I0403 13:59:23.060744 12350 net.cpp:148] Top shape: 24 832 7 7 (978432)
I0403 13:59:23.060757 12350 net.cpp:148] Top shape: 24 832 7 7 (978432)
I0403 13:59:23.060771 12350 net.cpp:148] Top shape: 24 832 7 7 (978432)
I0403 13:59:23.060784 12350 net.cpp:156] Memory required for data: 1325241888
I0403 13:59:23.060798 12350 layer_factory.hpp:77] Creating layer inception_5b/1x1
I0403 13:59:23.060820 12350 net.cpp:91] Creating Layer inception_5b/1x1
I0403 13:59:23.060837 12350 net.cpp:425] inception_5b/1x1 <- inception_5a/output_inception_5a/output_0_split_0
I0403 13:59:23.060855 12350 net.cpp:399] inception_5b/1x1 -> inception_5b/1x1
I0403 13:59:23.064647 12350 net.cpp:141] Setting up inception_5b/1x1
I0403 13:59:23.064680 12350 net.cpp:148] Top shape: 24 384 7 7 (451584)
I0403 13:59:23.064698 12350 net.cpp:156] Memory required for data: 1327048224
I0403 13:59:23.064716 12350 layer_factory.hpp:77] Creating layer inception_5b/relu_1x1
I0403 13:59:23.064734 12350 net.cpp:91] Creating Layer inception_5b/relu_1x1
I0403 13:59:23.064749 12350 net.cpp:425] inception_5b/relu_1x1 <- inception_5b/1x1
I0403 13:59:23.064769 12350 net.cpp:386] inception_5b/relu_1x1 -> inception_5b/1x1 (in-place)
I0403 13:59:23.065080 12350 net.cpp:141] Setting up inception_5b/relu_1x1
I0403 13:59:23.065106 12350 net.cpp:148] Top shape: 24 384 7 7 (451584)
I0403 13:59:23.065121 12350 net.cpp:156] Memory required for data: 1328854560
I0403 13:59:23.065135 12350 layer_factory.hpp:77] Creating layer inception_5b/3x3_reduce
I0403 13:59:23.065157 12350 net.cpp:91] Creating Layer inception_5b/3x3_reduce
I0403 13:59:23.065176 12350 net.cpp:425] inception_5b/3x3_reduce <- inception_5a/output_inception_5a/output_0_split_1
I0403 13:59:23.065197 12350 net.cpp:399] inception_5b/3x3_reduce -> inception_5b/3x3_reduce
I0403 13:59:23.067878 12350 net.cpp:141] Setting up inception_5b/3x3_reduce
I0403 13:59:23.067908 12350 net.cpp:148] Top shape: 24 192 7 7 (225792)
I0403 13:59:23.067924 12350 net.cpp:156] Memory required for data: 1329757728
I0403 13:59:23.067941 12350 layer_factory.hpp:77] Creating layer inception_5b/relu_3x3_reduce
I0403 13:59:23.067960 12350 net.cpp:91] Creating Layer inception_5b/relu_3x3_reduce
I0403 13:59:23.067975 12350 net.cpp:425] inception_5b/relu_3x3_reduce <- inception_5b/3x3_reduce
I0403 13:59:23.067993 12350 net.cpp:386] inception_5b/relu_3x3_reduce -> inception_5b/3x3_reduce (in-place)
I0403 13:59:23.068197 12350 net.cpp:141] Setting up inception_5b/relu_3x3_reduce
I0403 13:59:23.068220 12350 net.cpp:148] Top shape: 24 192 7 7 (225792)
I0403 13:59:23.068234 12350 net.cpp:156] Memory required for data: 1330660896
I0403 13:59:23.068249 12350 layer_factory.hpp:77] Creating layer inception_5b/3x3
I0403 13:59:23.068270 12350 net.cpp:91] Creating Layer inception_5b/3x3
I0403 13:59:23.068289 12350 net.cpp:425] inception_5b/3x3 <- inception_5b/3x3_reduce
I0403 13:59:23.068307 12350 net.cpp:399] inception_5b/3x3 -> inception_5b/3x3
I0403 13:59:23.075000 12350 net.cpp:141] Setting up inception_5b/3x3
I0403 13:59:23.075029 12350 net.cpp:148] Top shape: 24 384 7 7 (451584)
I0403 13:59:23.075044 12350 net.cpp:156] Memory required for data: 1332467232
I0403 13:59:23.075062 12350 layer_factory.hpp:77] Creating layer inception_5b/relu_3x3
I0403 13:59:23.075078 12350 net.cpp:91] Creating Layer inception_5b/relu_3x3
I0403 13:59:23.075094 12350 net.cpp:425] inception_5b/relu_3x3 <- inception_5b/3x3
I0403 13:59:23.075114 12350 net.cpp:386] inception_5b/relu_3x3 -> inception_5b/3x3 (in-place)
I0403 13:59:23.075409 12350 net.cpp:141] Setting up inception_5b/relu_3x3
I0403 13:59:23.075434 12350 net.cpp:148] Top shape: 24 384 7 7 (451584)
I0403 13:59:23.075449 12350 net.cpp:156] Memory required for data: 1334273568
I0403 13:59:23.075462 12350 layer_factory.hpp:77] Creating layer inception_5b/5x5_reduce
I0403 13:59:23.075501 12350 net.cpp:91] Creating Layer inception_5b/5x5_reduce
I0403 13:59:23.075520 12350 net.cpp:425] inception_5b/5x5_reduce <- inception_5a/output_inception_5a/output_0_split_2
I0403 13:59:23.075546 12350 net.cpp:399] inception_5b/5x5_reduce -> inception_5b/5x5_reduce
I0403 13:59:23.076827 12350 net.cpp:141] Setting up inception_5b/5x5_reduce
I0403 13:59:23.076853 12350 net.cpp:148] Top shape: 24 48 7 7 (56448)
I0403 13:59:23.076867 12350 net.cpp:156] Memory required for data: 1334499360
I0403 13:59:23.076884 12350 layer_factory.hpp:77] Creating layer inception_5b/relu_5x5_reduce
I0403 13:59:23.076903 12350 net.cpp:91] Creating Layer inception_5b/relu_5x5_reduce
I0403 13:59:23.076920 12350 net.cpp:425] inception_5b/relu_5x5_reduce <- inception_5b/5x5_reduce
I0403 13:59:23.076936 12350 net.cpp:386] inception_5b/relu_5x5_reduce -> inception_5b/5x5_reduce (in-place)
I0403 13:59:23.077304 12350 net.cpp:141] Setting up inception_5b/relu_5x5_reduce
I0403 13:59:23.077329 12350 net.cpp:148] Top shape: 24 48 7 7 (56448)
I0403 13:59:23.077343 12350 net.cpp:156] Memory required for data: 1334725152
I0403 13:59:23.077358 12350 layer_factory.hpp:77] Creating layer inception_5b/5x5
I0403 13:59:23.077376 12350 net.cpp:91] Creating Layer inception_5b/5x5
I0403 13:59:23.077394 12350 net.cpp:425] inception_5b/5x5 <- inception_5b/5x5_reduce
I0403 13:59:23.077410 12350 net.cpp:399] inception_5b/5x5 -> inception_5b/5x5
I0403 13:59:23.079500 12350 net.cpp:141] Setting up inception_5b/5x5
I0403 13:59:23.079530 12350 net.cpp:148] Top shape: 24 128 7 7 (150528)
I0403 13:59:23.079551 12350 net.cpp:156] Memory required for data: 1335327264
I0403 13:59:23.079571 12350 layer_factory.hpp:77] Creating layer inception_5b/relu_5x5
I0403 13:59:23.079602 12350 net.cpp:91] Creating Layer inception_5b/relu_5x5
I0403 13:59:23.079618 12350 net.cpp:425] inception_5b/relu_5x5 <- inception_5b/5x5
I0403 13:59:23.079635 12350 net.cpp:386] inception_5b/relu_5x5 -> inception_5b/5x5 (in-place)
I0403 13:59:23.079840 12350 net.cpp:141] Setting up inception_5b/relu_5x5
I0403 13:59:23.079866 12350 net.cpp:148] Top shape: 24 128 7 7 (150528)
I0403 13:59:23.079880 12350 net.cpp:156] Memory required for data: 1335929376
I0403 13:59:23.079895 12350 layer_factory.hpp:77] Creating layer inception_5b/pool
I0403 13:59:23.079910 12350 net.cpp:91] Creating Layer inception_5b/pool
I0403 13:59:23.079926 12350 net.cpp:425] inception_5b/pool <- inception_5a/output_inception_5a/output_0_split_3
I0403 13:59:23.079943 12350 net.cpp:399] inception_5b/pool -> inception_5b/pool
I0403 13:59:23.080014 12350 net.cpp:141] Setting up inception_5b/pool
I0403 13:59:23.080036 12350 net.cpp:148] Top shape: 24 832 7 7 (978432)
I0403 13:59:23.080050 12350 net.cpp:156] Memory required for data: 1339843104
I0403 13:59:23.080063 12350 layer_factory.hpp:77] Creating layer inception_5b/pool_proj
I0403 13:59:23.080085 12350 net.cpp:91] Creating Layer inception_5b/pool_proj
I0403 13:59:23.080101 12350 net.cpp:425] inception_5b/pool_proj <- inception_5b/pool
I0403 13:59:23.080121 12350 net.cpp:399] inception_5b/pool_proj -> inception_5b/pool_proj
I0403 13:59:23.082412 12350 net.cpp:141] Setting up inception_5b/pool_proj
I0403 13:59:23.082440 12350 net.cpp:148] Top shape: 24 128 7 7 (150528)
I0403 13:59:23.082455 12350 net.cpp:156] Memory required for data: 1340445216
I0403 13:59:23.082473 12350 layer_factory.hpp:77] Creating layer inception_5b/relu_pool_proj
I0403 13:59:23.082494 12350 net.cpp:91] Creating Layer inception_5b/relu_pool_proj
I0403 13:59:23.082509 12350 net.cpp:425] inception_5b/relu_pool_proj <- inception_5b/pool_proj
I0403 13:59:23.082526 12350 net.cpp:386] inception_5b/relu_pool_proj -> inception_5b/pool_proj (in-place)
I0403 13:59:23.082819 12350 net.cpp:141] Setting up inception_5b/relu_pool_proj
I0403 13:59:23.082844 12350 net.cpp:148] Top shape: 24 128 7 7 (150528)
I0403 13:59:23.082859 12350 net.cpp:156] Memory required for data: 1341047328
I0403 13:59:23.082873 12350 layer_factory.hpp:77] Creating layer inception_5b/output
I0403 13:59:23.082890 12350 net.cpp:91] Creating Layer inception_5b/output
I0403 13:59:23.082919 12350 net.cpp:425] inception_5b/output <- inception_5b/1x1
I0403 13:59:23.082937 12350 net.cpp:425] inception_5b/output <- inception_5b/3x3
I0403 13:59:23.082955 12350 net.cpp:425] inception_5b/output <- inception_5b/5x5
I0403 13:59:23.082970 12350 net.cpp:425] inception_5b/output <- inception_5b/pool_proj
I0403 13:59:23.082986 12350 net.cpp:399] inception_5b/output -> inception_5b/output
I0403 13:59:23.083047 12350 net.cpp:141] Setting up inception_5b/output
I0403 13:59:23.083073 12350 net.cpp:148] Top shape: 24 1024 7 7 (1204224)
I0403 13:59:23.083088 12350 net.cpp:156] Memory required for data: 1345864224
I0403 13:59:23.083103 12350 layer_factory.hpp:77] Creating layer pool5/7x7_s1
I0403 13:59:23.083120 12350 net.cpp:91] Creating Layer pool5/7x7_s1
I0403 13:59:23.083137 12350 net.cpp:425] pool5/7x7_s1 <- inception_5b/output
I0403 13:59:23.083156 12350 net.cpp:399] pool5/7x7_s1 -> pool5/7x7_s1
I0403 13:59:23.083370 12350 net.cpp:141] Setting up pool5/7x7_s1
I0403 13:59:23.083395 12350 net.cpp:148] Top shape: 24 1024 1 1 (24576)
I0403 13:59:23.083410 12350 net.cpp:156] Memory required for data: 1345962528
I0403 13:59:23.083425 12350 layer_factory.hpp:77] Creating layer pool5/drop_7x7_s1
I0403 13:59:23.083446 12350 net.cpp:91] Creating Layer pool5/drop_7x7_s1
I0403 13:59:23.083461 12350 net.cpp:425] pool5/drop_7x7_s1 <- pool5/7x7_s1
I0403 13:59:23.083478 12350 net.cpp:386] pool5/drop_7x7_s1 -> pool5/7x7_s1 (in-place)
I0403 13:59:23.083530 12350 net.cpp:141] Setting up pool5/drop_7x7_s1
I0403 13:59:23.083556 12350 net.cpp:148] Top shape: 24 1024 1 1 (24576)
I0403 13:59:23.083571 12350 net.cpp:156] Memory required for data: 1346060832
I0403 13:59:23.083586 12350 layer_factory.hpp:77] Creating layer loss3/classifier_plantvillage
I0403 13:59:23.083607 12350 net.cpp:91] Creating Layer loss3/classifier_plantvillage
I0403 13:59:23.083623 12350 net.cpp:425] loss3/classifier_plantvillage <- pool5/7x7_s1
I0403 13:59:23.083643 12350 net.cpp:399] loss3/classifier_plantvillage -> loss3/classifier_plantvillage
I0403 13:59:23.084074 12350 net.cpp:141] Setting up loss3/classifier_plantvillage
I0403 13:59:23.084097 12350 net.cpp:148] Top shape: 24 38 (912)
I0403 13:59:23.084112 12350 net.cpp:156] Memory required for data: 1346064480
I0403 13:59:23.084130 12350 layer_factory.hpp:77] Creating layer loss3/classifier_plantvillage_loss3/classifier_plantvillage_0_split
I0403 13:59:23.084147 12350 net.cpp:91] Creating Layer loss3/classifier_plantvillage_loss3/classifier_plantvillage_0_split
I0403 13:59:23.084163 12350 net.cpp:425] loss3/classifier_plantvillage_loss3/classifier_plantvillage_0_split <- loss3/classifier_plantvillage
I0403 13:59:23.084183 12350 net.cpp:399] loss3/classifier_plantvillage_loss3/classifier_plantvillage_0_split -> loss3/classifier_plantvillage_loss3/classifier_plantvillage_0_split_0
I0403 13:59:23.084204 12350 net.cpp:399] loss3/classifier_plantvillage_loss3/classifier_plantvillage_0_split -> loss3/classifier_plantvillage_loss3/classifier_plantvillage_0_split_1
I0403 13:59:23.084224 12350 net.cpp:399] loss3/classifier_plantvillage_loss3/classifier_plantvillage_0_split -> loss3/classifier_plantvillage_loss3/classifier_plantvillage_0_split_2
I0403 13:59:23.084244 12350 net.cpp:399] loss3/classifier_plantvillage_loss3/classifier_plantvillage_0_split -> loss3/classifier_plantvillage_loss3/classifier_plantvillage_0_split_3
I0403 13:59:23.084349 12350 net.cpp:141] Setting up loss3/classifier_plantvillage_loss3/classifier_plantvillage_0_split
I0403 13:59:23.084372 12350 net.cpp:148] Top shape: 24 38 (912)
I0403 13:59:23.084388 12350 net.cpp:148] Top shape: 24 38 (912)
I0403 13:59:23.084401 12350 net.cpp:148] Top shape: 24 38 (912)
I0403 13:59:23.084416 12350 net.cpp:148] Top shape: 24 38 (912)
I0403 13:59:23.084429 12350 net.cpp:156] Memory required for data: 1346079072
I0403 13:59:23.084444 12350 layer_factory.hpp:77] Creating layer loss1/loss
I0403 13:59:23.084465 12350 net.cpp:91] Creating Layer loss1/loss
I0403 13:59:23.084482 12350 net.cpp:425] loss1/loss <- loss1/classifier_plantvillage_loss1/classifier_plantvillage_0_split_0
I0403 13:59:23.084513 12350 net.cpp:425] loss1/loss <- label_data_1_split_0
…
