…
I0403 14:43:36.025334 13568 net.cpp:313] The NetState phase (1) differed from the phase (0) specified by a rule in layer data
I0403 14:43:36.026506 13568 net.cpp:49] Initializing net from parameters: 
state {
  phase: TEST
}
layer {
  name: "data"
  type: "Data"
  top: "data"
  top: "label"
  include {
    phase: TEST
  }
  transform_param {
    mirror: false
    crop_size: 224
    mean_file: "/home/mohanty/data/final_dataset/lmdb/segmented-20-80/mean.binaryproto"
  }
  data_param {
    source: "/home/mohanty/data/final_dataset/lmdb/segmented-20-80/test_db"
    batch_size: 24
    backend: LMDB
  }
}
layer {
  name: "conv1/7x7_s2"
  type: "Convolution"
  bottom: "data"
  top: "conv1/7x7_s2"
  param {
    lr_mult: 1
    decay_mult: 1
  }
  param {
    lr_mult: 2
    decay_mult: 0
  }
  convolution_param {
    num_output: 64
    pad: 3
    kernel_size: 7
    stride: 2
    weight_filler {
      type: "xavier"
      std: 0.1
    }
    bias_filler {
      type: "constant"
      value: 0.2
    }
  }
}
layer {
  name: "conv1/relu_7x7"
  type: "ReLU"
  bottom: "conv1/7x7_s2"
  top: "conv1/7x7_s2"
}
layer {
  name: "pool1/3x3_s2"
  type: "Pooling"
  bottom: "conv1/7x7_s2"
  top: "pool1/3x3_s2"
  pooling_param {
    pool: MAX
    kernel_size: 3
    stride: 2
  }
}
layer {
  name: "pool1/norm1"
  type: "LRN"
  bottom: "pool1/3x3_s2"
  top: "pool1/norm1"
  lrn_param {
    local_size: 5
    alpha: 0.0001
    beta: 0.75
  }
}
layer {
  name: "conv2/3x3_reduce"
  type: "Convolution"
  bottom: "pool1/norm1"
  top: "conv2/3x3_reduce"
  param {
    lr_mult: 1
    decay_mult: 1
  }
  param {
    lr_mult: 2
    decay_mult: 0
  }
  convolution_param {
    num_output: 64
    kernel_size: 1
    weight_filler {
      type: "xavier"
      std: 0.1
    }
    bias_filler {
      type: "constant"
      value: 0.2
    }
  }
}
layer {
  name: "conv2/relu_3x3_reduce"
  type: "ReLU"
  bottom: "conv2/3x3_reduce"
  top: "conv2/3x3_reduce"
}
layer {
  name: "conv2/3x3"
  type: "Convolution"
  bottom: "conv2/3x3_reduce"
  top: "conv2/3x3"
  param {
    lr_mult: 1
    decay_mult: 1
  }
  param {
    lr_mult: 2
    decay_mult: 0
  }
  convolution_param {
    num_output: 192
    pad: 1
    kernel_size: 3
    weight_filler {
      type: "xavier"
      std: 0.03
    }
    bias_filler {
      type: "constant"
      value: 0.2
    }
  }
}
layer {
  name: "conv2/relu_3x3"
  type: "ReLU"
  bottom: "conv2/3x3"
  top: "conv2/3x3"
}
layer {
  name: "conv2/norm2"
  type: "LRN"
  bottom: "conv2/3x3"
  top: "conv2/norm2"
  lrn_param {
    local_size: 5
    alpha: 0.0001
    beta: 0.75
  }
}
layer {
  name: "pool2/3x3_s2"
  type: "Pooling"
  bottom: "conv2/norm2"
  top: "pool2/3x3_s2"
  pooling_param {
    pool: MAX
    kernel_size: 3
    stride: 2
  }
}
layer {
  name: "inception_3a/1x1"
  type: "Convolution"
  bottom: "pool2/3x3_s2"
  top: "inception_3a/1x1"
  param {
    lr_mult: 1
    decay_mult: 1
  }
  param {
    lr_mult: 2
    decay_mult: 0
  }
  convolution_param {
    num_output: 64
    kernel_size: 1
    weight_filler {
      type: "xavier"
      std: 0.03
    }
    bias_filler {
      type: "constant"
      value: 0.2
    }
  }
}
layer {
  name: "inception_3a/relu_1x1"
  type: "ReLU"
  bottom: "inception_3a/1x1"
  top: "inception_3a/1x1"
}
layer {
  name: "inception_3a/3x3_reduce"
  type: "Convolution"
  bottom: "pool2/3x3_s2"
  top: "inception_3a/3x3_reduce"
  param {
    lr_mult: 1
    decay_mult: 1
  }
  param {
    lr_mult: 2
    decay_mult: 0
  }
  convolution_param {
    num_output: 96
    kernel_size: 1
    weight_filler {
      type: "xavier"
      std: 0.09
    }
    bias_filler {
      type: "constant"
      value: 0.2
    }
  }
}
layer {
  name: "inception_3a/relu_3x3_reduce"
  type: "ReLU"
  bottom: "inception_3a/3x3_reduce"
  top: "inception_3a/3x3_reduce"
}
layer {
  name: "inception_3a/3x3"
  type: "Convolution"
  bottom: "inception_3a/3x3_reduce"
  top: "inception_3a/3x3"
  param {
    lr_mult: 1
    decay_mult: 1
  }
  param {
    lr_mult: 2
    decay_mult: 0
  }
  convolution_param {
    num_output: 128
    pad: 1
    kernel_size: 3
    weight_filler {
      type: "xavier"
      std: 0.03
    }
    bias_filler {
      type: "constant"
      value: 0.2
    }
  }
}
layer {
  name: "inception_3a/relu_3x3"
  type: "ReLU"
  bottom: "inception_3a/3x3"
  top: "inception_3a/3x3"
}
layer {
  name: "inception_3a/5x5_reduce"
  type: "Convolution"
  bottom: "pool2/3x3_s2"
  top: "inception_3a/5x5_reduce"
  param {
    lr_mult: 1
    decay_mult: 1
  }
  param {
    lr_mult: 2
    decay_mult: 0
  }
  convolution_param {
    num_output: 16
    kernel_size: 1
    weight_filler {
      type: "xavier"
      std: 0.2
    }
    bias_filler {
      type: "constant"
      value: 0.2
    }
  }
}
layer {
  name: "inception_3a/relu_5x5_reduce"
  type: "ReLU"
  bottom: "inception_3a/5x5_reduce"
  top: "inception_3a/5x5_reduce"
}
layer {
  name: "inception_3a/5x5"
  type: "Convolution"
  bottom: "inception_3a/5x5_reduce"
  top: "inception_3a/5x5"
  param {
    lr_mult: 1
    decay_mult: 1
  }
  param {
    lr_mult: 2
    decay_mult: 0
  }
  convolution_param {
    num_output: 32
    pad: 2
    kernel_size: 5
    weight_filler {
      type: "xavier"
      std: 0.03
    }
    bias_filler {
      type: "constant"
      value: 0.2
    }
  }
}
layer {
  name: "inception_3a/relu_5x5"
  type: "ReLU"
  bottom: "inception_3a/5x5"
  top: "inception_3a/5x5"
}
layer {
  name: "inception_3a/pool"
  type: "Pooling"
  bottom: "pool2/3x3_s2"
  top: "inception_3a/pool"
  pooling_param {
    pool: MAX
    kernel_size: 3
    stride: 1
    pad: 1
  }
}
layer {
  name: "inception_3a/pool_proj"
  type: "Convolution"
  bottom: "inception_3a/pool"
  top: "inception_3a/pool_proj"
  param {
    lr_mult: 1
    decay_mult: 1
  }
  param {
    lr_mult: 2
    decay_mult: 0
  }
  convolution_param {
    num_output: 32
    kernel_size: 1
    weight_filler {
      type: "xavier"
      std: 0.1
    }
    bias_filler {
      type: "constant"
      value: 0.2
    }
  }
}
layer {
  name: "inception_3a/relu_pool_proj"
  type: "ReLU"
  bottom: "inception_3a/pool_proj"
  top: "inception_3a/pool_proj"
}
layer {
  name: "inception_3a/output"
  type: "Concat"
  bottom: "inception_3a/1x1"
  bottom: "inception_3a/3x3"
  bottom: "inception_3a/5x5"
  bottom: "inception_3a/pool_proj"
  top: "inception_3a/output"
}
layer {
  name: "inception_3b/1x1"
  type: "Convolution"
  bottom: "inception_3a/output"
  top: "inception_3b/1x1"
  param {
    lr_mult: 1
    decay_mult: 1
  }
  param {
    lr_mult: 2
    decay_mult: 0
  }
  convolution_param {
    num_output: 128
    kernel_size: 1
    weight_filler {
      type: "xavier"
      std: 0.03
    }
    bias_filler {
      type: "constant"
      value: 0.2
    }
  }
}
layer {
  name: "inception_3b/relu_1x1"
  type: "ReLU"
  bottom: "inception_3b/1x1"
  top: "inception_3b/1x1"
}
layer {
  name: "inception_3b/3x3_reduce"
  type: "Convolution"
  bottom: "inception_3a/output"
  top: "inception_3b/3x3_reduce"
  param {
    lr_mult: 1
    decay_mult: 1
  }
  param {
    lr_mult: 2
    decay_mult: 0
  }
  convolution_param {
    num_output: 128
    kernel_size: 1
    weight_filler {
      type: "xavier"
      std: 0.09
    }
    bias_filler {
      type: "constant"
      value: 0.2
    }
  }
}
layer {
  name: "inception_3b/relu_3x3_reduce"
  type: "ReLU"
  bottom: "inception_3b/3x3_reduce"
  top: "inception_3b/3x3_reduce"
}
layer {
  name: "inception_3b/3x3"
  type: "Convolution"
  bottom: "inception_3b/3x3_reduce"
  top: "inception_3b/3x3"
  param {
    lr_mult: 1
    decay_mult: 1
  }
  param {
    lr_mult: 2
    decay_mult: 0
  }
  convolution_param {
    num_output: 192
    pad: 1
    kernel_size: 3
    weight_filler {
      type: "xavier"
      std: 0.03
    }
    bias_filler {
      type: "constant"
      value: 0.2
    }
  }
}
layer {
  name: "inception_3b/relu_3x3"
  type: "ReLU"
  bottom: "inception_3b/3x3"
  top: "inception_3b/3x3"
}
layer {
  name: "inception_3b/5x5_reduce"
  type: "Convolution"
  bottom: "inception_3a/output"
  top: "inception_3b/5x5_reduce"
  param {
    lr_mult: 1
    decay_mult: 1
  }
  param {
    lr_mult: 2
    decay_mult: 0
  }
  convolution_param {
    num_output: 32
    kernel_size: 1
    weight_filler {
      type: "xavier"
      std: 0.2
    }
    bias_filler {
      type: "constant"
      value: 0.2
    }
  }
}
layer {
  name: "inception_3b/relu_5x5_reduce"
  type: "ReLU"
  bottom: "inception_3b/5x5_reduce"
  top: "inception_3b/5x5_reduce"
}
layer {
  name: "inception_3b/5x5"
  type: "Convolution"
  bottom: "inception_3b/5x5_reduce"
  top: "inception_3b/5x5"
  param {
    lr_mult: 1
    decay_mult: 1
  }
  param {
    lr_mult: 2
    decay_mult: 0
  }
  convolution_param {
    num_output: 96
    pad: 2
    kernel_size: 5
    weight_filler {
      type: "xavier"
      std: 0.03
    }
    bias_filler {
      type: "constant"
      value: 0.2
    }
  }
}
layer {
  name: "inception_3b/relu_5x5"
  type: "ReLU"
  bottom: "inception_3b/5x5"
  top: "inception_3b/5x5"
}
layer {
  name: "inception_3b/pool"
  type: "Pooling"
  bottom: "inception_3a/output"
  top: "inception_3b/pool"
  pooling_param {
    pool: MAX
    kernel_size: 3
    stride: 1
    pad: 1
  }
}
layer {
  name: "inception_3b/pool_proj"
  type: "Convolution"
  bottom: "inception_3b/pool"
  top: "inception_3b/pool_proj"
  param {
    lr_mult: 1
    decay_mult: 1
  }
  param {
    lr_mult: 2
    decay_mult: 0
  }
  convolution_param {
    num_output: 64
    kernel_size: 1
    weight_filler {
      type: "xavier"
      std: 0.1
    }
    bias_filler {
      type: "constant"
      value: 0.2
    }
  }
}
layer {
  name: "inception_3b/relu_pool_proj"
  type: "ReLU"
  bottom: "inception_3b/pool_proj"
  top: "inception_3b/pool_proj"
}
layer {
  name: "inception_3b/output"
  type: "Concat"
  bottom: "inception_3b/1x1"
  bottom: "inception_3b/3x3"
  bottom: "inception_3b/5x5"
  bottom: "inception_3b/pool_proj"
  top: "inception_3b/output"
}
layer {
  name: "pool3/3x3_s2"
  type: "Pooling"
  bottom: "inception_3b/output"
  top: "pool3/3x3_s2"
  pooling_param {
    pool: MAX
    kernel_size: 3
    stride: 2
  }
}
layer {
  name: "inception_4a/1x1"
  type: "Convolution"
  bottom: "pool3/3x3_s2"
  top: "inception_4a/1x1"
  param {
    lr_mult: 1
    decay_mult: 1
  }
  param {
    lr_mult: 2
    decay_mult: 0
  }
  convolution_param {
    num_output: 192
    kernel_size: 1
    weight_filler {
      type: "xavier"
      std: 0.03
    }
    bias_filler {
      type: "constant"
      value: 0.2
    }
  }
}
layer {
  name: "inception_4a/relu_1x1"
  type: "ReLU"
  bottom: "inception_4a/1x1"
  top: "inception_4a/1x1"
}
layer {
  name: "inception_4a/3x3_reduce"
  type: "Convolution"
  bottom: "pool3/3x3_s2"
  top: "inception_4a/3x3_reduce"
  param {
    lr_mult: 1
    decay_mult: 1
  }
  param {
    lr_mult: 2
    decay_mult: 0
  }
  convolution_param {
    num_output: 96
    kernel_size: 1
    weight_filler {
      type: "xavier"
      std: 0.09
    }
    bias_filler {
      type: "constant"
      value: 0.2
    }
  }
}
layer {
  name: "inception_4a/relu_3x3_reduce"
  type: "ReLU"
  bottom: "inception_4a/3x3_reduce"
  top: "inception_4a/3x3_reduce"
}
layer {
  name: "inception_4a/3x3"
  type: "Convolution"
  bottom: "inception_4a/3x3_reduce"
  top: "inception_4a/3x3"
  param {
    lr_mult: 1
    decay_mult: 1
  }
  param {
    lr_mult: 2
    decay_mult: 0
  }
  convolution_param {
    num_output: 208
    pad: 1
    kernel_size: 3
    weight_filler {
      type: "xavier"
      std: 0.03
    }
    bias_filler {
      type: "constant"
      value: 0.2
    }
  }
}
layer {
  name: "inception_4a/relu_3x3"
  type: "ReLU"
  bottom: "inception_4a/3x3"
  top: "inception_4a/3x3"
}
layer {
  name: "inception_4a/5x5_reduce"
  type: "Convolution"
  bottom: "pool3/3x3_s2"
  top: "inception_4a/5x5_reduce"
  param {
    lr_mult: 1
    decay_mult: 1
  }
  param {
    lr_mult: 2
    decay_mult: 0
  }
  convolution_param {
    num_output: 16
    kernel_size: 1
    weight_filler {
      type: "xavier"
      std: 0.2
    }
    bias_filler {
      type: "constant"
      value: 0.2
    }
  }
}
layer {
  name: "inception_4a/relu_5x5_reduce"
  type: "ReLU"
  bottom: "inception_4a/5x5_reduce"
  top: "inception_4a/5x5_reduce"
}
layer {
  name: "inception_4a/5x5"
  type: "Convolution"
  bottom: "inception_4a/5x5_reduce"
  top: "inception_4a/5x5"
  param {
    lr_mult: 1
    decay_mult: 1
  }
  param {
    lr_mult: 2
    decay_mult: 0
  }
  convolution_param {
    num_output: 48
    pad: 2
    kernel_size: 5
    weight_filler {
      type: "xavier"
      std: 0.03
    }
    bias_filler {
      type: "constant"
      value: 0.2
    }
  }
}
layer {
  name: "inception_4a/relu_5x5"
  type: "ReLU"
  bottom: "inception_4a/5x5"
  top: "inception_4a/5x5"
}
layer {
  name: "inception_4a/pool"
  type: "Pooling"
  bottom: "pool3/3x3_s2"
  top: "inception_4a/pool"
  pooling_param {
    pool: MAX
    kernel_size: 3
    stride: 1
    pad: 1
  }
}
layer {
  name: "inception_4a/pool_proj"
  type: "Convolution"
  bottom: "inception_4a/pool"
  top: "inception_4a/pool_proj"
  param {
    lr_mult: 1
    decay_mult: 1
  }
  param {
    lr_mult: 2
    decay_mult: 0
  }
  convolution_param {
    num_output: 64
    kernel_size: 1
    weight_filler {
      type: "xavier"
      std: 0.1
    }
    bias_filler {
      type: "constant"
      value: 0.2
    }
  }
}
layer {
  name: "inception_4a/relu_pool_proj"
  type: "ReLU"
  bottom: "inception_4a/pool_proj"
  top: "inception_4a/pool_proj"
}
layer {
  name: "inception_4a/output"
  type: "Concat"
  bottom: "inception_4a/1x1"
  bottom: "inception_4a/3x3"
  bottom: "inception_4a/5x5"
  bottom: "inception_4a/pool_proj"
  top: "inception_4a/output"
}
layer {
  name: "loss1/ave_pool"
  type: "Pooling"
  bottom: "inception_4a/output"
  top: "loss1/ave_pool"
  pooling_param {
    pool: AVE
    kernel_size: 5
    stride: 3
  }
}
layer {
  name: "loss1/conv"
  type: "Convolution"
  bottom: "loss1/ave_pool"
  top: "loss1/conv"
  param {
    lr_mult: 1
    decay_mult: 1
  }
  param {
    lr_mult: 2
    decay_mult: 0
  }
  convolution_param {
    num_output: 128
    kernel_size: 1
    weight_filler {
      type: "xavier"
      std: 0.08
    }
    bias_filler {
      type: "constant"
      value: 0.2
    }
  }
}
layer {
  name: "loss1/relu_conv"
  type: "ReLU"
  bottom: "loss1/conv"
  top: "loss1/conv"
}
layer {
  name: "loss1/fc"
  type: "InnerProduct"
  bottom: "loss1/conv"
  top: "loss1/fc"
  param {
    lr_mult: 1
    decay_mult: 1
  }
  param {
    lr_mult: 2
    decay_mult: 0
  }
  inner_product_param {
    num_output: 1024
    weight_filler {
      type: "xavier"
      std: 0.02
    }
    bias_filler {
      type: "constant"
      value: 0.2
    }
  }
}
layer {
  name: "loss1/relu_fc"
  type: "ReLU"
  bottom: "loss1/fc"
  top: "loss1/fc"
}
layer {
  name: "loss1/drop_fc"
  type: "Dropout"
  bottom: "loss1/fc"
  top: "loss1/fc"
  dropout_param {
    dropout_ratio: 0.7
  }
}
layer {
  name: "loss1/classifier_plantvillage"
  type: "InnerProduct"
  bottom: "loss1/fc"
  top: "loss1/classifier_plantvillage"
  param {
    lr_mult: 1
    decay_mult: 1
  }
  param {
    lr_mult: 2
    decay_mult: 0
  }
  inner_product_param {
    num_output: 38
    weight_filler {
      type: "xavier"
      std: 0.0009765625
    }
    bias_filler {
      type: "constant"
      value: 0
    }
  }
}
layer {
  name: "inception_4b/1x1"
  type: "Convolution"
  bottom: "inception_4a/output"
  top: "inception_4b/1x1"
  param {
    lr_mult: 1
    decay_mult: 1
  }
  param {
    lr_mult: 2
    decay_mult: 0
  }
  convolution_param {
    num_output: 160
    kernel_size: 1
    weight_filler {
      type: "xavier"
      std: 0.03
    }
    bias_filler {
      type: "constant"
      value: 0.2
    }
  }
}
layer {
  name: "inception_4b/relu_1x1"
  type: "ReLU"
  bottom: "inception_4b/1x1"
  top: "inception_4b/1x1"
}
layer {
  name: "inception_4b/3x3_reduce"
  type: "Convolution"
  bottom: "inception_4a/output"
  top: "inception_4b/3x3_reduce"
  param {
    lr_mult: 1
    decay_mult: 1
  }
  param {
    lr_mult: 2
    decay_mult: 0
  }
  convolution_param {
    num_output: 112
    kernel_size: 1
    weight_filler {
      type: "xavier"
      std: 0.09
    }
    bias_filler {
      type: "constant"
      value: 0.2
    }
  }
}
layer {
  name: "inception_4b/relu_3x3_reduce"
  type: "ReLU"
  bottom: "inception_4b/3x3_reduce"
  top: "inception_4b/3x3_reduce"
}
layer {
  name: "inception_4b/3x3"
  type: "Convolution"
  bottom: "inception_4b/3x3_reduce"
  top: "inception_4b/3x3"
  param {
    lr_mult: 1
    decay_mult: 1
  }
  param {
    lr_mult: 2
    decay_mult: 0
  }
  convolution_param {
    num_output: 224
    pad: 1
    kernel_size: 3
    weight_filler {
      type: "xavier"
      std: 0.03
    }
    bias_filler {
      type: "constant"
      value: 0.2
    }
  }
}
layer {
  name: "inception_4b/relu_3x3"
  type: "ReLU"
  bottom: "inception_4b/3x3"
  top: "inception_4b/3x3"
}
layer {
  name: "inception_4b/5x5_reduce"
  type: "Convolution"
  bottom: "inception_4a/output"
  top: "inception_4b/5x5_reduce"
  param {
    lr_mult: 1
    decay_mult: 1
  }
  param {
    lr_mult: 2
    decay_mult: 0
  }
  convolution_param {
    num_output: 24
    kernel_size: 1
    weight_filler {
      type: "xavier"
      std: 0.2
    }
    bias_filler {
      type: "constant"
      value: 0.2
    }
  }
}
layer {
  name: "inception_4b/relu_5x5_reduce"
  type: "ReLU"
  bottom: "inception_4b/5x5_reduce"
  top: "inception_4b/5x5_reduce"
}
layer {
  name: "inception_4b/5x5"
  type: "Convolution"
  bottom: "inception_4b/5x5_reduce"
  top: "inception_4b/5x5"
  param {
    lr_mult: 1
    decay_mult: 1
  }
  param {
    lr_mult: 2
    decay_mult: 0
  }
  convolution_param {
    num_output: 64
    pad: 2
    kernel_size: 5
    weight_filler {
      type: "xavier"
      std: 0.03
    }
    bias_filler {
      type: "constant"
      value: 0.2
    }
  }
}
layer {
  name: "inception_4b/relu_5x5"
  type: "ReLU"
  bottom: "inception_4b/5x5"
  top: "inception_4b/5x5"
}
layer {
  name: "inception_4b/pool"
  type: "Pooling"
  bottom: "inception_4a/output"
  top: "inception_4b/pool"
  pooling_param {
    pool: MAX
    kernel_size: 3
    stride: 1
    pad: 1
  }
}
layer {
  name: "inception_4b/pool_proj"
  type: "Convolution"
  bottom: "inception_4b/pool"
  top: "inception_4b/pool_proj"
  param {
    lr_mult: 1
    decay_mult: 1
  }
  param {
    lr_mult: 2
    decay_mult: 0
  }
  convolution_param {
    num_output: 64
    kernel_size: 1
    weight_filler {
      type: "xavier"
      std: 0.1
    }
    bias_filler {
      type: "constant"
      value: 0.2
    }
  }
}
layer {
  name: "inception_4b/relu_pool_proj"
  type: "ReLU"
  bottom: "inception_4b/pool_proj"
  top: "inception_4b/pool_proj"
}
layer {
  name: "inception_4b/output"
  type: "Concat"
  bottom: "inception_4b/1x1"
  bottom: "inception_4b/3x3"
  bottom: "inception_4b/5x5"
  bottom: "inception_4b/pool_proj"
  top: "inception_4b/output"
}
layer {
  name: "inception_4c/1x1"
  type: "Convolution"
  bottom: "inception_4b/output"
  top: "inception_4c/1x1"
  param {
    lr_mult: 1
    decay_mult: 1
  }
  param {
    lr_mult: 2
    decay_mult: 0
  }
  convolution_param {
    num_output: 128
    kernel_size: 1
    weight_filler {
      type: "xavier"
      std: 0.03
    }
    bias_filler {
      type: "constant"
      value: 0.2
    }
  }
}
layer {
  name: "inception_4c/relu_1x1"
  type: "ReLU"
  bottom: "inception_4c/1x1"
  top: "inception_4c/1x1"
}
layer {
  name: "inception_4c/3x3_reduce"
  type: "Convolution"
  bottom: "inception_4b/output"
  top: "inception_4c/3x3_reduce"
  param {
    lr_mult: 1
    decay_mult: 1
  }
  param {
    lr_mult: 2
    decay_mult: 0
  }
  convolution_param {
    num_output: 128
    kernel_size: 1
    weight_filler {
      type: "xavier"
      std: 0.09
    }
    bias_filler {
      type: "constant"
      value: 0.2
    }
  }
}
layer {
  name: "inception_4c/relu_3x3_reduce"
  type: "ReLU"
  bottom: "inception_4c/3x3_reduce"
  top: "inception_4c/3x3_reduce"
}
layer {
  name: "inception_4c/3x3"
  type: "Convolution"
  bottom: "inception_4c/3x3_reduce"
  top: "inception_4c/3x3"
  param {
    lr_mult: 1
    decay_mult: 1
  }
  param {
    lr_mult: 2
    decay_mult: 0
  }
  convolution_param {
    num_output: 256
    pad: 1
    kernel_size: 3
    weight_filler {
      type: "xavier"
      std: 0.03
    }
    bias_filler {
      type: "constant"
      value: 0.2
    }
  }
}
layer {
  name: "inception_4c/relu_3x3"
  type: "ReLU"
  bottom: "inception_4c/3x3"
  top: "inception_4c/3x3"
}
layer {
  name: "inception_4c/5x5_reduce"
  type: "Convolution"
  bottom: "inception_4b/output"
  top: "inception_4c/5x5_reduce"
  param {
    lr_mult: 1
    decay_mult: 1
  }
  param {
    lr_mult: 2
    decay_mult: 0
  }
  convolution_param {
    num_output: 24
    kernel_size: 1
    weight_filler {
      type: "xavier"
      std: 0.2
    }
    bias_filler {
      type: "constant"
      value: 0.2
    }
  }
}
layer {
  name: "inception_4c/relu_5x5_reduce"
  type: "ReLU"
  bottom: "inception_4c/5x5_reduce"
  top: "inception_4c/5x5_reduce"
}
layer {
  name: "inception_4c/5x5"
  type: "Convolution"
  bottom: "inception_4c/5x5_reduce"
  top: "inception_4c/5x5"
  param {
    lr_mult: 1
    decay_mult: 1
  }
  param {
    lr_mult: 2
    decay_mult: 0
  }
  convolution_param {
    num_output: 64
    pad: 2
    kernel_size: 5
    weight_filler {
      type: "xavier"
      std: 0.03
    }
    bias_filler {
      type: "constant"
      value: 0.2
    }
  }
}
layer {
  name: "inception_4c/relu_5x5"
  type: "ReLU"
  bottom: "inception_4c/5x5"
  top: "inception_4c/5x5"
}
layer {
  name: "inception_4c/pool"
  type: "Pooling"
  bottom: "inception_4b/output"
  top: "inception_4c/pool"
  pooling_param {
    pool: MAX
    kernel_size: 3
    stride: 1
    pad: 1
  }
}
layer {
  name: "inception_4c/pool_proj"
  type: "Convolution"
  bottom: "inception_4c/pool"
  top: "inception_4c/pool_proj"
  param {
    lr_mult: 1
    decay_mult: 1
  }
  param {
    lr_mult: 2
    decay_mult: 0
  }
  convolution_param {
    num_output: 64
    kernel_size: 1
    weight_filler {
      type: "xavier"
      std: 0.1
    }
    bias_filler {
      type: "constant"
      value: 0.2
    }
  }
}
layer {
  name: "inception_4c/relu_pool_proj"
  type: "ReLU"
  bottom: "inception_4c/pool_proj"
  top: "inception_4c/pool_proj"
}
layer {
  name: "inception_4c/output"
  type: "Concat"
  bottom: "inception_4c/1x1"
  bottom: "inception_4c/3x3"
  bottom: "inception_4c/5x5"
  bottom: "inception_4c/pool_proj"
  top: "inception_4c/output"
}
layer {
  name: "inception_4d/1x1"
  type: "Convolution"
  bottom: "inception_4c/output"
  top: "inception_4d/1x1"
  param {
    lr_mult: 1
    decay_mult: 1
  }
  param {
    lr_mult: 2
    decay_mult: 0
  }
  convolution_param {
    num_output: 112
    kernel_size: 1
    weight_filler {
      type: "xavier"
      std: 0.03
    }
    bias_filler {
      type: "constant"
      value: 0.2
    }
  }
}
layer {
  name: "inception_4d/relu_1x1"
  type: "ReLU"
  bottom: "inception_4d/1x1"
  top: "inception_4d/1x1"
}
layer {
  name: "inception_4d/3x3_reduce"
  type: "Convolution"
  bottom: "inception_4c/output"
  top: "inception_4d/3x3_reduce"
  param {
    lr_mult: 1
    decay_mult: 1
  }
  param {
    lr_mult: 2
    decay_mult: 0
  }
  convolution_param {
    num_output: 144
    kernel_size: 1
    weight_filler {
      type: "xavier"
      std: 0.09
    }
    bias_filler {
      type: "constant"
      value: 0.2
    }
  }
}
layer {
  name: "inception_4d/relu_3x3_reduce"
  type: "ReLU"
  bottom: "inception_4d/3x3_reduce"
  top: "inception_4d/3x3_reduce"
}
layer {
  name: "inception_4d/3x3"
  type: "Convolution"
  bottom: "inception_4d/3x3_reduce"
  top: "inception_4d/3x3"
  param {
    lr_mult: 1
    decay_mult: 1
  }
  param {
    lr_mult: 2
    decay_mult: 0
  }
  convolution_param {
    num_output: 288
    pad: 1
    kernel_size: 3
    weight_filler {
      type: "xavier"
      std: 0.03
    }
    bias_filler {
      type: "constant"
      value: 0.2
    }
  }
}
layer {
  name: "inception_4d/relu_3x3"
  type: "ReLU"
  bottom: "inception_4d/3x3"
  top: "inception_4d/3x3"
}
layer {
  name: "inception_4d/5x5_reduce"
  type: "Convolution"
  bottom: "inception_4c/output"
  top: "inception_4d/5x5_reduce"
  param {
    lr_mult: 1
    decay_mult: 1
  }
  param {
    lr_mult: 2
    decay_mult: 0
  }
  convolution_param {
    num_output: 32
    kernel_size: 1
    weight_filler {
      type: "xavier"
      std: 0.2
    }
    bias_filler {
      type: "constant"
      value: 0.2
    }
  }
}
layer {
  name: "inception_4d/relu_5x5_reduce"
  type: "ReLU"
  bottom: "inception_4d/5x5_reduce"
  top: "inception_4d/5x5_reduce"
}
layer {
  name: "inception_4d/5x5"
  type: "Convolution"
  bottom: "inception_4d/5x5_reduce"
  top: "inception_4d/5x5"
  param {
    lr_mult: 1
    decay_mult: 1
  }
  param {
    lr_mult: 2
    decay_mult: 0
  }
  convolution_param {
    num_output: 64
    pad: 2
    kernel_size: 5
    weight_filler {
      type: "xavier"
      std: 0.03
    }
    bias_filler {
      type: "constant"
      value: 0.2
    }
  }
}
layer {
  name: "inception_4d/relu_5x5"
  type: "ReLU"
  bottom: "inception_4d/5x5"
  top: "inception_4d/5x5"
}
layer {
  name: "inception_4d/pool"
  type: "Pooling"
  bottom: "inception_4c/output"
  top: "inception_4d/pool"
  pooling_param {
    pool: MAX
    kernel_size: 3
    stride: 1
    pad: 1
  }
}
layer {
  name: "inception_4d/pool_proj"
  type: "Convolution"
  bottom: "inception_4d/pool"
  top: "inception_4d/pool_proj"
  param {
    lr_mult: 1
    decay_mult: 1
  }
  param {
    lr_mult: 2
    decay_mult: 0
  }
  convolution_param {
    num_output: 64
    kernel_size: 1
    weight_filler {
      type: "xavier"
      std: 0.1
    }
    bias_filler {
      type: "constant"
      value: 0.2
    }
  }
}
layer {
  name: "inception_4d/relu_pool_proj"
  type: "ReLU"
  bottom: "inception_4d/pool_proj"
  top: "inception_4d/pool_proj"
}
layer {
  name: "inception_4d/output"
  type: "Concat"
  bottom: "inception_4d/1x1"
  bottom: "inception_4d/3x3"
  bottom: "inception_4d/5x5"
  bottom: "inception_4d/pool_proj"
  top: "inception_4d/output"
}
layer {
  name: "loss2/ave_pool"
  type: "Pooling"
  bottom: "inception_4d/output"
  top: "loss2/ave_pool"
  pooling_param {
    pool: AVE
    kernel_size: 5
    stride: 3
  }
}
layer {
  name: "loss2/conv"
  type: "Convolution"
  bottom: "loss2/ave_pool"
  top: "loss2/conv"
  param {
    lr_mult: 1
    decay_mult: 1
  }
  param {
    lr_mult: 2
    decay_mult: 0
  }
  convolution_param {
    num_output: 128
    kernel_size: 1
    weight_filler {
      type: "xavier"
      std: 0.08
    }
    bias_filler {
      type: "constant"
      value: 0.2
    }
  }
}
layer {
  name: "loss2/relu_conv"
  type: "ReLU"
  bottom: "loss2/conv"
  top: "loss2/conv"
}
layer {
  name: "loss2/fc"
  type: "InnerProduct"
  bottom: "loss2/conv"
  top: "loss2/fc"
  param {
    lr_mult: 1
    decay_mult: 1
  }
  param {
    lr_mult: 2
    decay_mult: 0
  }
  inner_product_param {
    num_output: 1024
    weight_filler {
      type: "xavier"
      std: 0.02
    }
    bias_filler {
      type: "constant"
      value: 0.2
    }
  }
}
layer {
  name: "loss2/relu_fc"
  type: "ReLU"
  bottom: "loss2/fc"
  top: "loss2/fc"
}
layer {
  name: "loss2/drop_fc"
  type: "Dropout"
  bottom: "loss2/fc"
  top: "loss2/fc"
  dropout_param {
    dropout_ratio: 0.7
  }
}
layer {
  name: "loss2/classifier_plantvillage"
  type: "InnerProduct"
  bottom: "loss2/fc"
  top: "loss2/classifier_plantvillage"
  param {
    lr_mult: 1
    decay_mult: 1
  }
  param {
    lr_mult: 2
    decay_mult: 0
  }
  inner_product_param {
    num_output: 38
    weight_filler {
      type: "xavier"
      std: 0.0009765625
    }
    bias_filler {
      type: "constant"
      value: 0
    }
  }
}
layer {
  name: "inception_4e/1x1"
  type: "Convolution"
  bottom: "inception_4d/output"
  top: "inception_4e/1x1"
  param {
    lr_mult: 1
    decay_mult: 1
  }
  param {
    lr_mult: 2
    decay_mult: 0
  }
  convolution_param {
    num_output: 256
    kernel_size: 1
    weight_filler {
      type: "xavier"
      std: 0.03
    }
    bias_filler {
      type: "constant"
      value: 0.2
    }
  }
}
layer {
  name: "inception_4e/relu_1x1"
  type: "ReLU"
  bottom: "inception_4e/1x1"
  top: "inception_4e/1x1"
}
layer {
  name: "inception_4e/3x3_reduce"
  type: "Convolution"
  bottom: "inception_4d/output"
  top: "inception_4e/3x3_reduce"
  param {
    lr_mult: 1
    decay_mult: 1
  }
  param {
    lr_mult: 2
    decay_mult: 0
  }
  convolution_param {
    num_output: 160
    kernel_size: 1
    weight_filler {
      type: "xavier"
      std: 0.09
    }
    bias_filler {
      type: "constant"
      value: 0.2
    }
  }
}
layer {
  name: "inception_4e/relu_3x3_reduce"
  type: "ReLU"
  bottom: "inception_4e/3x3_reduce"
  top: "inception_4e/3x3_reduce"
}
layer {
  name: "inception_4e/3x3"
  type: "Convolution"
  bottom: "inception_4e/3x3_reduce"
  top: "inception_4e/3x3"
  param {
    lr_mult: 1
    decay_mult: 1
  }
  param {
    lr_mult: 2
    decay_mult: 0
  }
  convolution_param {
    num_output: 320
    pad: 1
    kernel_size: 3
    weight_filler {
      type: "xavier"
      std: 0.03
    }
    bias_filler {
      type: "constant"
      value: 0.2
    }
  }
}
layer {
  name: "inception_4e/relu_3x3"
  type: "ReLU"
  bottom: "inception_4e/3x3"
  top: "inception_4e/3x3"
}
layer {
  name: "inception_4e/5x5_reduce"
  type: "Convolution"
  bottom: "inception_4d/output"
  top: "inception_4e/5x5_reduce"
  param {
    lr_mult: 1
    decay_mult: 1
  }
  param {
    lr_mult: 2
    decay_mult: 0
  }
  convolution_param {
    num_output: 32
    kernel_size: 1
    weight_filler {
      type: "xavier"
      std: 0.2
    }
    bias_filler {
      type: "constant"
      value: 0.2
    }
  }
}
layer {
  name: "inception_4e/relu_5x5_reduce"
  type: "ReLU"
  bottom: "inception_4e/5x5_reduce"
  top: "inception_4e/5x5_reduce"
}
layer {
  name: "inception_4e/5x5"
  type: "Convolution"
  bottom: "inception_4e/5x5_reduce"
  top: "inception_4e/
I0403 14:43:36.027796 13568 layer_factory.hpp:77] Creating layer data
I0403 14:43:36.028416 13568 net.cpp:91] Creating Layer data
I0403 14:43:36.028448 13568 net.cpp:399] data -> data
I0403 14:43:36.028499 13568 net.cpp:399] data -> label
I0403 14:43:36.028535 13568 data_transformer.cpp:25] Loading mean file from: /home/mohanty/data/final_dataset/lmdb/segmented-20-80/mean.binaryproto
I0403 14:43:36.030921 13571 db_lmdb.cpp:38] Opened lmdb /home/mohanty/data/final_dataset/lmdb/segmented-20-80/test_db
I0403 14:43:36.041671 13568 data_layer.cpp:41] output data size: 24,3,224,224
I0403 14:43:36.068045 13568 net.cpp:141] Setting up data
I0403 14:43:36.068120 13568 net.cpp:148] Top shape: 24 3 224 224 (3612672)
I0403 14:43:36.068141 13568 net.cpp:148] Top shape: 24 (24)
I0403 14:43:36.068156 13568 net.cpp:156] Memory required for data: 14450784
I0403 14:43:36.068181 13568 layer_factory.hpp:77] Creating layer label_data_1_split
I0403 14:43:36.068207 13568 net.cpp:91] Creating Layer label_data_1_split
I0403 14:43:36.068224 13568 net.cpp:425] label_data_1_split <- label
I0403 14:43:36.068255 13568 net.cpp:399] label_data_1_split -> label_data_1_split_0
I0403 14:43:36.068282 13568 net.cpp:399] label_data_1_split -> label_data_1_split_1
I0403 14:43:36.068302 13568 net.cpp:399] label_data_1_split -> label_data_1_split_2
I0403 14:43:36.068321 13568 net.cpp:399] label_data_1_split -> label_data_1_split_3
I0403 14:43:36.068341 13568 net.cpp:399] label_data_1_split -> label_data_1_split_4
I0403 14:43:36.068359 13568 net.cpp:399] label_data_1_split -> label_data_1_split_5
I0403 14:43:36.068378 13568 net.cpp:399] label_data_1_split -> label_data_1_split_6
I0403 14:43:36.068398 13568 net.cpp:399] label_data_1_split -> label_data_1_split_7
I0403 14:43:36.068418 13568 net.cpp:399] label_data_1_split -> label_data_1_split_8
I0403 14:43:36.068436 13568 net.cpp:399] label_data_1_split -> label_data_1_split_9
I0403 14:43:36.068553 13568 net.cpp:141] Setting up label_data_1_split
I0403 14:43:36.068577 13568 net.cpp:148] Top shape: 24 (24)
I0403 14:43:36.068593 13568 net.cpp:148] Top shape: 24 (24)
I0403 14:43:36.068608 13568 net.cpp:148] Top shape: 24 (24)
I0403 14:43:36.068624 13568 net.cpp:148] Top shape: 24 (24)
I0403 14:43:36.068639 13568 net.cpp:148] Top shape: 24 (24)
I0403 14:43:36.068652 13568 net.cpp:148] Top shape: 24 (24)
I0403 14:43:36.068667 13568 net.cpp:148] Top shape: 24 (24)
I0403 14:43:36.068682 13568 net.cpp:148] Top shape: 24 (24)
I0403 14:43:36.068697 13568 net.cpp:148] Top shape: 24 (24)
I0403 14:43:36.068712 13568 net.cpp:148] Top shape: 24 (24)
I0403 14:43:36.068758 13568 net.cpp:156] Memory required for data: 14451744
I0403 14:43:36.068773 13568 layer_factory.hpp:77] Creating layer conv1/7x7_s2
I0403 14:43:36.068804 13568 net.cpp:91] Creating Layer conv1/7x7_s2
I0403 14:43:36.068820 13568 net.cpp:425] conv1/7x7_s2 <- data
I0403 14:43:36.068840 13568 net.cpp:399] conv1/7x7_s2 -> conv1/7x7_s2
I0403 14:43:36.205169 13568 net.cpp:141] Setting up conv1/7x7_s2
I0403 14:43:36.205247 13568 net.cpp:148] Top shape: 24 64 112 112 (19267584)
I0403 14:43:36.205266 13568 net.cpp:156] Memory required for data: 91522080
I0403 14:43:36.205296 13568 layer_factory.hpp:77] Creating layer conv1/relu_7x7
I0403 14:43:36.205323 13568 net.cpp:91] Creating Layer conv1/relu_7x7
I0403 14:43:36.205341 13568 net.cpp:425] conv1/relu_7x7 <- conv1/7x7_s2
I0403 14:43:36.205360 13568 net.cpp:386] conv1/relu_7x7 -> conv1/7x7_s2 (in-place)
I0403 14:43:36.205621 13568 net.cpp:141] Setting up conv1/relu_7x7
I0403 14:43:36.205647 13568 net.cpp:148] Top shape: 24 64 112 112 (19267584)
I0403 14:43:36.205662 13568 net.cpp:156] Memory required for data: 168592416
I0403 14:43:36.205677 13568 layer_factory.hpp:77] Creating layer pool1/3x3_s2
I0403 14:43:36.205700 13568 net.cpp:91] Creating Layer pool1/3x3_s2
I0403 14:43:36.205718 13568 net.cpp:425] pool1/3x3_s2 <- conv1/7x7_s2
I0403 14:43:36.205735 13568 net.cpp:399] pool1/3x3_s2 -> pool1/3x3_s2
I0403 14:43:36.205807 13568 net.cpp:141] Setting up pool1/3x3_s2
I0403 14:43:36.205831 13568 net.cpp:148] Top shape: 24 64 56 56 (4816896)
I0403 14:43:36.205845 13568 net.cpp:156] Memory required for data: 187860000
I0403 14:43:36.205859 13568 layer_factory.hpp:77] Creating layer pool1/norm1
I0403 14:43:36.205883 13568 net.cpp:91] Creating Layer pool1/norm1
I0403 14:43:36.205899 13568 net.cpp:425] pool1/norm1 <- pool1/3x3_s2
I0403 14:43:36.205916 13568 net.cpp:399] pool1/norm1 -> pool1/norm1
I0403 14:43:36.206197 13568 net.cpp:141] Setting up pool1/norm1
I0403 14:43:36.206223 13568 net.cpp:148] Top shape: 24 64 56 56 (4816896)
I0403 14:43:36.206238 13568 net.cpp:156] Memory required for data: 207127584
I0403 14:43:36.206254 13568 layer_factory.hpp:77] Creating layer conv2/3x3_reduce
I0403 14:43:36.206279 13568 net.cpp:91] Creating Layer conv2/3x3_reduce
I0403 14:43:36.206295 13568 net.cpp:425] conv2/3x3_reduce <- pool1/norm1
I0403 14:43:36.206312 13568 net.cpp:399] conv2/3x3_reduce -> conv2/3x3_reduce
I0403 14:43:36.207690 13568 net.cpp:141] Setting up conv2/3x3_reduce
I0403 14:43:36.207720 13568 net.cpp:148] Top shape: 24 64 56 56 (4816896)
I0403 14:43:36.207734 13568 net.cpp:156] Memory required for data: 226395168
I0403 14:43:36.207754 13568 layer_factory.hpp:77] Creating layer conv2/relu_3x3_reduce
I0403 14:43:36.207775 13568 net.cpp:91] Creating Layer conv2/relu_3x3_reduce
I0403 14:43:36.207792 13568 net.cpp:425] conv2/relu_3x3_reduce <- conv2/3x3_reduce
I0403 14:43:36.207809 13568 net.cpp:386] conv2/relu_3x3_reduce -> conv2/3x3_reduce (in-place)
I0403 14:43:36.208079 13568 net.cpp:141] Setting up conv2/relu_3x3_reduce
I0403 14:43:36.208104 13568 net.cpp:148] Top shape: 24 64 56 56 (4816896)
I0403 14:43:36.208119 13568 net.cpp:156] Memory required for data: 245662752
I0403 14:43:36.208133 13568 layer_factory.hpp:77] Creating layer conv2/3x3
I0403 14:43:36.208158 13568 net.cpp:91] Creating Layer conv2/3x3
I0403 14:43:36.208175 13568 net.cpp:425] conv2/3x3 <- conv2/3x3_reduce
I0403 14:43:36.208196 13568 net.cpp:399] conv2/3x3 -> conv2/3x3
I0403 14:43:36.210539 13568 net.cpp:141] Setting up conv2/3x3
I0403 14:43:36.210582 13568 net.cpp:148] Top shape: 24 192 56 56 (14450688)
I0403 14:43:36.210599 13568 net.cpp:156] Memory required for data: 303465504
I0403 14:43:36.210619 13568 layer_factory.hpp:77] Creating layer conv2/relu_3x3
I0403 14:43:36.210640 13568 net.cpp:91] Creating Layer conv2/relu_3x3
I0403 14:43:36.210657 13568 net.cpp:425] conv2/relu_3x3 <- conv2/3x3
I0403 14:43:36.210675 13568 net.cpp:386] conv2/relu_3x3 -> conv2/3x3 (in-place)
I0403 14:43:36.210847 13568 net.cpp:141] Setting up conv2/relu_3x3
I0403 14:43:36.210872 13568 net.cpp:148] Top shape: 24 192 56 56 (14450688)
I0403 14:43:36.210921 13568 net.cpp:156] Memory required for data: 361268256
I0403 14:43:36.210937 13568 layer_factory.hpp:77] Creating layer conv2/norm2
I0403 14:43:36.210955 13568 net.cpp:91] Creating Layer conv2/norm2
I0403 14:43:36.210973 13568 net.cpp:425] conv2/norm2 <- conv2/3x3
I0403 14:43:36.210991 13568 net.cpp:399] conv2/norm2 -> conv2/norm2
I0403 14:43:36.211294 13568 net.cpp:141] Setting up conv2/norm2
I0403 14:43:36.211324 13568 net.cpp:148] Top shape: 24 192 56 56 (14450688)
I0403 14:43:36.211339 13568 net.cpp:156] Memory required for data: 419071008
I0403 14:43:36.211354 13568 layer_factory.hpp:77] Creating layer pool2/3x3_s2
I0403 14:43:36.211372 13568 net.cpp:91] Creating Layer pool2/3x3_s2
I0403 14:43:36.211387 13568 net.cpp:425] pool2/3x3_s2 <- conv2/norm2
I0403 14:43:36.211406 13568 net.cpp:399] pool2/3x3_s2 -> pool2/3x3_s2
I0403 14:43:36.211459 13568 net.cpp:141] Setting up pool2/3x3_s2
I0403 14:43:36.211485 13568 net.cpp:148] Top shape: 24 192 28 28 (3612672)
I0403 14:43:36.211500 13568 net.cpp:156] Memory required for data: 433521696
I0403 14:43:36.211514 13568 layer_factory.hpp:77] Creating layer pool2/3x3_s2_pool2/3x3_s2_0_split
I0403 14:43:36.211531 13568 net.cpp:91] Creating Layer pool2/3x3_s2_pool2/3x3_s2_0_split
I0403 14:43:36.211566 13568 net.cpp:425] pool2/3x3_s2_pool2/3x3_s2_0_split <- pool2/3x3_s2
I0403 14:43:36.211585 13568 net.cpp:399] pool2/3x3_s2_pool2/3x3_s2_0_split -> pool2/3x3_s2_pool2/3x3_s2_0_split_0
I0403 14:43:36.211606 13568 net.cpp:399] pool2/3x3_s2_pool2/3x3_s2_0_split -> pool2/3x3_s2_pool2/3x3_s2_0_split_1
I0403 14:43:36.211627 13568 net.cpp:399] pool2/3x3_s2_pool2/3x3_s2_0_split -> pool2/3x3_s2_pool2/3x3_s2_0_split_2
I0403 14:43:36.211649 13568 net.cpp:399] pool2/3x3_s2_pool2/3x3_s2_0_split -> pool2/3x3_s2_pool2/3x3_s2_0_split_3
I0403 14:43:36.211722 13568 net.cpp:141] Setting up pool2/3x3_s2_pool2/3x3_s2_0_split
I0403 14:43:36.211745 13568 net.cpp:148] Top shape: 24 192 28 28 (3612672)
I0403 14:43:36.211762 13568 net.cpp:148] Top shape: 24 192 28 28 (3612672)
I0403 14:43:36.211777 13568 net.cpp:148] Top shape: 24 192 28 28 (3612672)
I0403 14:43:36.211792 13568 net.cpp:148] Top shape: 24 192 28 28 (3612672)
I0403 14:43:36.211807 13568 net.cpp:156] Memory required for data: 491324448
I0403 14:43:36.211820 13568 layer_factory.hpp:77] Creating layer inception_3a/1x1
I0403 14:43:36.211843 13568 net.cpp:91] Creating Layer inception_3a/1x1
I0403 14:43:36.211860 13568 net.cpp:425] inception_3a/1x1 <- pool2/3x3_s2_pool2/3x3_s2_0_split_0
I0403 14:43:36.211880 13568 net.cpp:399] inception_3a/1x1 -> inception_3a/1x1
I0403 14:43:36.213443 13568 net.cpp:141] Setting up inception_3a/1x1
I0403 14:43:36.213472 13568 net.cpp:148] Top shape: 24 64 28 28 (1204224)
I0403 14:43:36.213488 13568 net.cpp:156] Memory required for data: 496141344
I0403 14:43:36.213507 13568 layer_factory.hpp:77] Creating layer inception_3a/relu_1x1
I0403 14:43:36.213526 13568 net.cpp:91] Creating Layer inception_3a/relu_1x1
I0403 14:43:36.213551 13568 net.cpp:425] inception_3a/relu_1x1 <- inception_3a/1x1
I0403 14:43:36.213572 13568 net.cpp:386] inception_3a/relu_1x1 -> inception_3a/1x1 (in-place)
I0403 14:43:36.213753 13568 net.cpp:141] Setting up inception_3a/relu_1x1
I0403 14:43:36.213778 13568 net.cpp:148] Top shape: 24 64 28 28 (1204224)
I0403 14:43:36.213793 13568 net.cpp:156] Memory required for data: 500958240
I0403 14:43:36.213809 13568 layer_factory.hpp:77] Creating layer inception_3a/3x3_reduce
I0403 14:43:36.213831 13568 net.cpp:91] Creating Layer inception_3a/3x3_reduce
I0403 14:43:36.213848 13568 net.cpp:425] inception_3a/3x3_reduce <- pool2/3x3_s2_pool2/3x3_s2_0_split_1
I0403 14:43:36.213870 13568 net.cpp:399] inception_3a/3x3_reduce -> inception_3a/3x3_reduce
I0403 14:43:36.215622 13568 net.cpp:141] Setting up inception_3a/3x3_reduce
I0403 14:43:36.215651 13568 net.cpp:148] Top shape: 24 96 28 28 (1806336)
I0403 14:43:36.215667 13568 net.cpp:156] Memory required for data: 508183584
I0403 14:43:36.215687 13568 layer_factory.hpp:77] Creating layer inception_3a/relu_3x3_reduce
I0403 14:43:36.215725 13568 net.cpp:91] Creating Layer inception_3a/relu_3x3_reduce
I0403 14:43:36.215742 13568 net.cpp:425] inception_3a/relu_3x3_reduce <- inception_3a/3x3_reduce
I0403 14:43:36.215759 13568 net.cpp:386] inception_3a/relu_3x3_reduce -> inception_3a/3x3_reduce (in-place)
I0403 14:43:36.215939 13568 net.cpp:141] Setting up inception_3a/relu_3x3_reduce
I0403 14:43:36.215965 13568 net.cpp:148] Top shape: 24 96 28 28 (1806336)
I0403 14:43:36.215981 13568 net.cpp:156] Memory required for data: 515408928
I0403 14:43:36.215994 13568 layer_factory.hpp:77] Creating layer inception_3a/3x3
I0403 14:43:36.216017 13568 net.cpp:91] Creating Layer inception_3a/3x3
I0403 14:43:36.216034 13568 net.cpp:425] inception_3a/3x3 <- inception_3a/3x3_reduce
I0403 14:43:36.216055 13568 net.cpp:399] inception_3a/3x3 -> inception_3a/3x3
I0403 14:43:36.217705 13568 net.cpp:141] Setting up inception_3a/3x3
I0403 14:43:36.217732 13568 net.cpp:148] Top shape: 24 128 28 28 (2408448)
I0403 14:43:36.217747 13568 net.cpp:156] Memory required for data: 525042720
I0403 14:43:36.217766 13568 layer_factory.hpp:77] Creating layer inception_3a/relu_3x3
I0403 14:43:36.217787 13568 net.cpp:91] Creating Layer inception_3a/relu_3x3
I0403 14:43:36.217803 13568 net.cpp:425] inception_3a/relu_3x3 <- inception_3a/3x3
I0403 14:43:36.217820 13568 net.cpp:386] inception_3a/relu_3x3 -> inception_3a/3x3 (in-place)
I0403 14:43:36.218091 13568 net.cpp:141] Setting up inception_3a/relu_3x3
I0403 14:43:36.218117 13568 net.cpp:148] Top shape: 24 128 28 28 (2408448)
I0403 14:43:36.218132 13568 net.cpp:156] Memory required for data: 534676512
I0403 14:43:36.218147 13568 layer_factory.hpp:77] Creating layer inception_3a/5x5_reduce
I0403 14:43:36.218168 13568 net.cpp:91] Creating Layer inception_3a/5x5_reduce
I0403 14:43:36.218185 13568 net.cpp:425] inception_3a/5x5_reduce <- pool2/3x3_s2_pool2/3x3_s2_0_split_2
I0403 14:43:36.218206 13568 net.cpp:399] inception_3a/5x5_reduce -> inception_3a/5x5_reduce
I0403 14:43:36.219166 13568 net.cpp:141] Setting up inception_3a/5x5_reduce
I0403 14:43:36.219193 13568 net.cpp:148] Top shape: 24 16 28 28 (301056)
I0403 14:43:36.219208 13568 net.cpp:156] Memory required for data: 535880736
I0403 14:43:36.219226 13568 layer_factory.hpp:77] Creating layer inception_3a/relu_5x5_reduce
I0403 14:43:36.219246 13568 net.cpp:91] Creating Layer inception_3a/relu_5x5_reduce
I0403 14:43:36.219264 13568 net.cpp:425] inception_3a/relu_5x5_reduce <- inception_3a/5x5_reduce
I0403 14:43:36.219281 13568 net.cpp:386] inception_3a/relu_5x5_reduce -> inception_3a/5x5_reduce (in-place)
I0403 14:43:36.219583 13568 net.cpp:141] Setting up inception_3a/relu_5x5_reduce
I0403 14:43:36.219610 13568 net.cpp:148] Top shape: 24 16 28 28 (301056)
I0403 14:43:36.219626 13568 net.cpp:156] Memory required for data: 537084960
I0403 14:43:36.219641 13568 layer_factory.hpp:77] Creating layer inception_3a/5x5
I0403 14:43:36.219662 13568 net.cpp:91] Creating Layer inception_3a/5x5
I0403 14:43:36.219679 13568 net.cpp:425] inception_3a/5x5 <- inception_3a/5x5_reduce
I0403 14:43:36.219698 13568 net.cpp:399] inception_3a/5x5 -> inception_3a/5x5
I0403 14:43:36.220710 13568 net.cpp:141] Setting up inception_3a/5x5
I0403 14:43:36.220736 13568 net.cpp:148] Top shape: 24 32 28 28 (602112)
I0403 14:43:36.220752 13568 net.cpp:156] Memory required for data: 539493408
I0403 14:43:36.220769 13568 layer_factory.hpp:77] Creating layer inception_3a/relu_5x5
I0403 14:43:36.220789 13568 net.cpp:91] Creating Layer inception_3a/relu_5x5
I0403 14:43:36.220805 13568 net.cpp:425] inception_3a/relu_5x5 <- inception_3a/5x5
I0403 14:43:36.220823 13568 net.cpp:386] inception_3a/relu_5x5 -> inception_3a/5x5 (in-place)
I0403 14:43:36.220993 13568 net.cpp:141] Setting up inception_3a/relu_5x5
I0403 14:43:36.221016 13568 net.cpp:148] Top shape: 24 32 28 28 (602112)
I0403 14:43:36.221030 13568 net.cpp:156] Memory required for data: 541901856
I0403 14:43:36.221045 13568 layer_factory.hpp:77] Creating layer inception_3a/pool
I0403 14:43:36.221065 13568 net.cpp:91] Creating Layer inception_3a/pool
I0403 14:43:36.221093 13568 net.cpp:425] inception_3a/pool <- pool2/3x3_s2_pool2/3x3_s2_0_split_3
I0403 14:43:36.221112 13568 net.cpp:399] inception_3a/pool -> inception_3a/pool
I0403 14:43:36.221169 13568 net.cpp:141] Setting up inception_3a/pool
I0403 14:43:36.221192 13568 net.cpp:148] Top shape: 24 192 28 28 (3612672)
I0403 14:43:36.221207 13568 net.cpp:156] Memory required for data: 556352544
I0403 14:43:36.221220 13568 layer_factory.hpp:77] Creating layer inception_3a/pool_proj
I0403 14:43:36.221242 13568 net.cpp:91] Creating Layer inception_3a/pool_proj
I0403 14:43:36.221261 13568 net.cpp:425] inception_3a/pool_proj <- inception_3a/pool
I0403 14:43:36.221282 13568 net.cpp:399] inception_3a/pool_proj -> inception_3a/pool_proj
I0403 14:43:36.222241 13568 net.cpp:141] Setting up inception_3a/pool_proj
I0403 14:43:36.222272 13568 net.cpp:148] Top shape: 24 32 28 28 (602112)
I0403 14:43:36.222287 13568 net.cpp:156] Memory required for data: 558760992
I0403 14:43:36.222308 13568 layer_factory.hpp:77] Creating layer inception_3a/relu_pool_proj
I0403 14:43:36.222329 13568 net.cpp:91] Creating Layer inception_3a/relu_pool_proj
I0403 14:43:36.222345 13568 net.cpp:425] inception_3a/relu_pool_proj <- inception_3a/pool_proj
I0403 14:43:36.222362 13568 net.cpp:386] inception_3a/relu_pool_proj -> inception_3a/pool_proj (in-place)
I0403 14:43:36.222640 13568 net.cpp:141] Setting up inception_3a/relu_pool_proj
I0403 14:43:36.222664 13568 net.cpp:148] Top shape: 24 32 28 28 (602112)
I0403 14:43:36.222679 13568 net.cpp:156] Memory required for data: 561169440
I0403 14:43:36.222693 13568 layer_factory.hpp:77] Creating layer inception_3a/output
I0403 14:43:36.222710 13568 net.cpp:91] Creating Layer inception_3a/output
I0403 14:43:36.222725 13568 net.cpp:425] inception_3a/output <- inception_3a/1x1
I0403 14:43:36.222741 13568 net.cpp:425] inception_3a/output <- inception_3a/3x3
I0403 14:43:36.222755 13568 net.cpp:425] inception_3a/output <- inception_3a/5x5
I0403 14:43:36.222770 13568 net.cpp:425] inception_3a/output <- inception_3a/pool_proj
I0403 14:43:36.222790 13568 net.cpp:399] inception_3a/output -> inception_3a/output
I0403 14:43:36.222837 13568 net.cpp:141] Setting up inception_3a/output
I0403 14:43:36.222859 13568 net.cpp:148] Top shape: 24 256 28 28 (4816896)
I0403 14:43:36.222873 13568 net.cpp:156] Memory required for data: 580437024
I0403 14:43:36.222887 13568 layer_factory.hpp:77] Creating layer inception_3a/output_inception_3a/output_0_split
I0403 14:43:36.222903 13568 net.cpp:91] Creating Layer inception_3a/output_inception_3a/output_0_split
I0403 14:43:36.222918 13568 net.cpp:425] inception_3a/output_inception_3a/output_0_split <- inception_3a/output
I0403 14:43:36.222937 13568 net.cpp:399] inception_3a/output_inception_3a/output_0_split -> inception_3a/output_inception_3a/output_0_split_0
I0403 14:43:36.222957 13568 net.cpp:399] inception_3a/output_inception_3a/output_0_split -> inception_3a/output_inception_3a/output_0_split_1
I0403 14:43:36.222980 13568 net.cpp:399] inception_3a/output_inception_3a/output_0_split -> inception_3a/output_inception_3a/output_0_split_2
I0403 14:43:36.223002 13568 net.cpp:399] inception_3a/output_inception_3a/output_0_split -> inception_3a/output_inception_3a/output_0_split_3
I0403 14:43:36.223080 13568 net.cpp:141] Setting up inception_3a/output_inception_3a/output_0_split
I0403 14:43:36.223104 13568 net.cpp:148] Top shape: 24 256 28 28 (4816896)
I0403 14:43:36.223119 13568 net.cpp:148] Top shape: 24 256 28 28 (4816896)
I0403 14:43:36.223134 13568 net.cpp:148] Top shape: 24 256 28 28 (4816896)
I0403 14:43:36.223150 13568 net.cpp:148] Top shape: 24 256 28 28 (4816896)
I0403 14:43:36.223162 13568 net.cpp:156] Memory required for data: 657507360
I0403 14:43:36.223176 13568 layer_factory.hpp:77] Creating layer inception_3b/1x1
I0403 14:43:36.223198 13568 net.cpp:91] Creating Layer inception_3b/1x1
I0403 14:43:36.223214 13568 net.cpp:425] inception_3b/1x1 <- inception_3a/output_inception_3a/output_0_split_0
I0403 14:43:36.223234 13568 net.cpp:399] inception_3b/1x1 -> inception_3b/1x1
I0403 14:43:36.224402 13568 net.cpp:141] Setting up inception_3b/1x1
I0403 14:43:36.224443 13568 net.cpp:148] Top shape: 24 128 28 28 (2408448)
I0403 14:43:36.224459 13568 net.cpp:156] Memory required for data: 667141152
I0403 14:43:36.224478 13568 layer_factory.hpp:77] Creating layer inception_3b/relu_1x1
I0403 14:43:36.224495 13568 net.cpp:91] Creating Layer inception_3b/relu_1x1
I0403 14:43:36.224511 13568 net.cpp:425] inception_3b/relu_1x1 <- inception_3b/1x1
I0403 14:43:36.224531 13568 net.cpp:386] inception_3b/relu_1x1 -> inception_3b/1x1 (in-place)
I0403 14:43:36.224721 13568 net.cpp:141] Setting up inception_3b/relu_1x1
I0403 14:43:36.224747 13568 net.cpp:148] Top shape: 24 128 28 28 (2408448)
I0403 14:43:36.224761 13568 net.cpp:156] Memory required for data: 676774944
I0403 14:43:36.224776 13568 layer_factory.hpp:77] Creating layer inception_3b/3x3_reduce
I0403 14:43:36.224798 13568 net.cpp:91] Creating Layer inception_3b/3x3_reduce
I0403 14:43:36.224817 13568 net.cpp:425] inception_3b/3x3_reduce <- inception_3a/output_inception_3a/output_0_split_1
I0403 14:43:36.224838 13568 net.cpp:399] inception_3b/3x3_reduce -> inception_3b/3x3_reduce
I0403 14:43:36.226004 13568 net.cpp:141] Setting up inception_3b/3x3_reduce
I0403 14:43:36.226032 13568 net.cpp:148] Top shape: 24 128 28 28 (2408448)
I0403 14:43:36.226047 13568 net.cpp:156] Memory required for data: 686408736
I0403 14:43:36.226065 13568 layer_factory.hpp:77] Creating layer inception_3b/relu_3x3_reduce
I0403 14:43:36.226083 13568 net.cpp:91] Creating Layer inception_3b/relu_3x3_reduce
I0403 14:43:36.226099 13568 net.cpp:425] inception_3b/relu_3x3_reduce <- inception_3b/3x3_reduce
I0403 14:43:36.226117 13568 net.cpp:386] inception_3b/relu_3x3_reduce -> inception_3b/3x3_reduce (in-place)
I0403 14:43:36.226289 13568 net.cpp:141] Setting up inception_3b/relu_3x3_reduce
I0403 14:43:36.226313 13568 net.cpp:148] Top shape: 24 128 28 28 (2408448)
I0403 14:43:36.226328 13568 net.cpp:156] Memory required for data: 696042528
I0403 14:43:36.226342 13568 layer_factory.hpp:77] Creating layer inception_3b/3x3
I0403 14:43:36.226367 13568 net.cpp:91] Creating Layer inception_3b/3x3
I0403 14:43:36.226385 13568 net.cpp:425] inception_3b/3x3 <- inception_3b/3x3_reduce
I0403 14:43:36.226403 13568 net.cpp:399] inception_3b/3x3 -> inception_3b/3x3
I0403 14:43:36.229316 13568 net.cpp:141] Setting up inception_3b/3x3
I0403 14:43:36.229344 13568 net.cpp:148] Top shape: 24 192 28 28 (3612672)
I0403 14:43:36.229359 13568 net.cpp:156] Memory required for data: 710493216
I0403 14:43:36.229377 13568 layer_factory.hpp:77] Creating layer inception_3b/relu_3x3
I0403 14:43:36.229398 13568 net.cpp:91] Creating Layer inception_3b/relu_3x3
I0403 14:43:36.229413 13568 net.cpp:425] inception_3b/relu_3x3 <- inception_3b/3x3
I0403 14:43:36.229430 13568 net.cpp:386] inception_3b/relu_3x3 -> inception_3b/3x3 (in-place)
I0403 14:43:36.229712 13568 net.cpp:141] Setting up inception_3b/relu_3x3
I0403 14:43:36.229737 13568 net.cpp:148] Top shape: 24 192 28 28 (3612672)
I0403 14:43:36.229753 13568 net.cpp:156] Memory required for data: 724943904
I0403 14:43:36.229768 13568 layer_factory.hpp:77] Creating layer inception_3b/5x5_reduce
I0403 14:43:36.229790 13568 net.cpp:91] Creating Layer inception_3b/5x5_reduce
I0403 14:43:36.229807 13568 net.cpp:425] inception_3b/5x5_reduce <- inception_3a/output_inception_3a/output_0_split_2
I0403 14:43:36.229828 13568 net.cpp:399] inception_3b/5x5_reduce -> inception_3b/5x5_reduce
I0403 14:43:36.230824 13568 net.cpp:141] Setting up inception_3b/5x5_reduce
I0403 14:43:36.230851 13568 net.cpp:148] Top shape: 24 32 28 28 (602112)
I0403 14:43:36.230866 13568 net.cpp:156] Memory required for data: 727352352
I0403 14:43:36.230883 13568 layer_factory.hpp:77] Creating layer inception_3b/relu_5x5_reduce
I0403 14:43:36.230903 13568 net.cpp:91] Creating Layer inception_3b/relu_5x5_reduce
I0403 14:43:36.230919 13568 net.cpp:425] inception_3b/relu_5x5_reduce <- inception_3b/5x5_reduce
I0403 14:43:36.230936 13568 net.cpp:386] inception_3b/relu_5x5_reduce -> inception_3b/5x5_reduce (in-place)
I0403 14:43:36.231123 13568 net.cpp:141] Setting up inception_3b/relu_5x5_reduce
I0403 14:43:36.231150 13568 net.cpp:148] Top shape: 24 32 28 28 (602112)
I0403 14:43:36.231165 13568 net.cpp:156] Memory required for data: 729760800
I0403 14:43:36.231179 13568 layer_factory.hpp:77] Creating layer inception_3b/5x5
I0403 14:43:36.231199 13568 net.cpp:91] Creating Layer inception_3b/5x5
I0403 14:43:36.231214 13568 net.cpp:425] inception_3b/5x5 <- inception_3b/5x5_reduce
I0403 14:43:36.231233 13568 net.cpp:399] inception_3b/5x5 -> inception_3b/5x5
I0403 14:43:36.233165 13568 net.cpp:141] Setting up inception_3b/5x5
I0403 14:43:36.233193 13568 net.cpp:148] Top shape: 24 96 28 28 (1806336)
I0403 14:43:36.233208 13568 net.cpp:156] Memory required for data: 736986144
I0403 14:43:36.233225 13568 layer_factory.hpp:77] Creating layer inception_3b/relu_5x5
I0403 14:43:36.233243 13568 net.cpp:91] Creating Layer inception_3b/relu_5x5
I0403 14:43:36.233258 13568 net.cpp:425] inception_3b/relu_5x5 <- inception_3b/5x5
I0403 14:43:36.233276 13568 net.cpp:386] inception_3b/relu_5x5 -> inception_3b/5x5 (in-place)
I0403 14:43:36.233463 13568 net.cpp:141] Setting up inception_3b/relu_5x5
I0403 14:43:36.233486 13568 net.cpp:148] Top shape: 24 96 28 28 (1806336)
I0403 14:43:36.233500 13568 net.cpp:156] Memory required for data: 744211488
I0403 14:43:36.233513 13568 layer_factory.hpp:77] Creating layer inception_3b/pool
I0403 14:43:36.233530 13568 net.cpp:91] Creating Layer inception_3b/pool
I0403 14:43:36.233549 13568 net.cpp:425] inception_3b/pool <- inception_3a/output_inception_3a/output_0_split_3
I0403 14:43:36.233574 13568 net.cpp:399] inception_3b/pool -> inception_3b/pool
I0403 14:43:36.233638 13568 net.cpp:141] Setting up inception_3b/pool
I0403 14:43:36.233659 13568 net.cpp:148] Top shape: 24 256 28 28 (4816896)
I0403 14:43:36.233672 13568 net.cpp:156] Memory required for data: 763479072
I0403 14:43:36.233685 13568 layer_factory.hpp:77] Creating layer inception_3b/pool_proj
I0403 14:43:36.233706 13568 net.cpp:91] Creating Layer inception_3b/pool_proj
I0403 14:43:36.233722 13568 net.cpp:425] inception_3b/pool_proj <- inception_3b/pool
I0403 14:43:36.233742 13568 net.cpp:399] inception_3b/pool_proj -> inception_3b/pool_proj
I0403 14:43:36.234771 13568 net.cpp:141] Setting up inception_3b/pool_proj
I0403 14:43:36.234800 13568 net.cpp:148] Top shape: 24 64 28 28 (1204224)
I0403 14:43:36.234817 13568 net.cpp:156] Memory required for data: 768295968
I0403 14:43:36.234833 13568 layer_factory.hpp:77] Creating layer inception_3b/relu_pool_proj
I0403 14:43:36.234850 13568 net.cpp:91] Creating Layer inception_3b/relu_pool_proj
I0403 14:43:36.234866 13568 net.cpp:425] inception_3b/relu_pool_proj <- inception_3b/pool_proj
I0403 14:43:36.234884 13568 net.cpp:386] inception_3b/relu_pool_proj -> inception_3b/pool_proj (in-place)
I0403 14:43:36.235267 13568 net.cpp:141] Setting up inception_3b/relu_pool_proj
I0403 14:43:36.235292 13568 net.cpp:148] Top shape: 24 64 28 28 (1204224)
I0403 14:43:36.235306 13568 net.cpp:156] Memory required for data: 773112864
I0403 14:43:36.235321 13568 layer_factory.hpp:77] Creating layer inception_3b/output
I0403 14:43:36.235338 13568 net.cpp:91] Creating Layer inception_3b/output
I0403 14:43:36.235354 13568 net.cpp:425] inception_3b/output <- inception_3b/1x1
I0403 14:43:36.235370 13568 net.cpp:425] inception_3b/output <- inception_3b/3x3
I0403 14:43:36.235385 13568 net.cpp:425] inception_3b/output <- inception_3b/5x5
I0403 14:43:36.235400 13568 net.cpp:425] inception_3b/output <- inception_3b/pool_proj
I0403 14:43:36.235416 13568 net.cpp:399] inception_3b/output -> inception_3b/output
I0403 14:43:36.235460 13568 net.cpp:141] Setting up inception_3b/output
I0403 14:43:36.235481 13568 net.cpp:148] Top shape: 24 480 28 28 (9031680)
I0403 14:43:36.235496 13568 net.cpp:156] Memory required for data: 809239584
I0403 14:43:36.235509 13568 layer_factory.hpp:77] Creating layer pool3/3x3_s2
I0403 14:43:36.235525 13568 net.cpp:91] Creating Layer pool3/3x3_s2
I0403 14:43:36.235545 13568 net.cpp:425] pool3/3x3_s2 <- inception_3b/output
I0403 14:43:36.235580 13568 net.cpp:399] pool3/3x3_s2 -> pool3/3x3_s2
I0403 14:43:36.235637 13568 net.cpp:141] Setting up pool3/3x3_s2
I0403 14:43:36.235659 13568 net.cpp:148] Top shape: 24 480 14 14 (2257920)
I0403 14:43:36.235673 13568 net.cpp:156] Memory required for data: 818271264
I0403 14:43:36.235687 13568 layer_factory.hpp:77] Creating layer pool3/3x3_s2_pool3/3x3_s2_0_split
I0403 14:43:36.235705 13568 net.cpp:91] Creating Layer pool3/3x3_s2_pool3/3x3_s2_0_split
I0403 14:43:36.235720 13568 net.cpp:425] pool3/3x3_s2_pool3/3x3_s2_0_split <- pool3/3x3_s2
I0403 14:43:36.235739 13568 net.cpp:399] pool3/3x3_s2_pool3/3x3_s2_0_split -> pool3/3x3_s2_pool3/3x3_s2_0_split_0
I0403 14:43:36.235759 13568 net.cpp:399] pool3/3x3_s2_pool3/3x3_s2_0_split -> pool3/3x3_s2_pool3/3x3_s2_0_split_1
I0403 14:43:36.235777 13568 net.cpp:399] pool3/3x3_s2_pool3/3x3_s2_0_split -> pool3/3x3_s2_pool3/3x3_s2_0_split_2
I0403 14:43:36.235795 13568 net.cpp:399] pool3/3x3_s2_pool3/3x3_s2_0_split -> pool3/3x3_s2_pool3/3x3_s2_0_split_3
I0403 14:43:36.235867 13568 net.cpp:141] Setting up pool3/3x3_s2_pool3/3x3_s2_0_split
I0403 14:43:36.235890 13568 net.cpp:148] Top shape: 24 480 14 14 (2257920)
I0403 14:43:36.235906 13568 net.cpp:148] Top shape: 24 480 14 14 (2257920)
I0403 14:43:36.235921 13568 net.cpp:148] Top shape: 24 480 14 14 (2257920)
I0403 14:43:36.235935 13568 net.cpp:148] Top shape: 24 480 14 14 (2257920)
I0403 14:43:36.235949 13568 net.cpp:156] Memory required for data: 854397984
I0403 14:43:36.235961 13568 layer_factory.hpp:77] Creating layer inception_4a/1x1
I0403 14:43:36.235980 13568 net.cpp:91] Creating Layer inception_4a/1x1
I0403 14:43:36.235996 13568 net.cpp:425] inception_4a/1x1 <- pool3/3x3_s2_pool3/3x3_s2_0_split_0
I0403 14:43:36.236016 13568 net.cpp:399] inception_4a/1x1 -> inception_4a/1x1
I0403 14:43:36.237567 13568 net.cpp:141] Setting up inception_4a/1x1
I0403 14:43:36.237596 13568 net.cpp:148] Top shape: 24 192 14 14 (903168)
I0403 14:43:36.237612 13568 net.cpp:156] Memory required for data: 858010656
I0403 14:43:36.237629 13568 layer_factory.hpp:77] Creating layer inception_4a/relu_1x1
I0403 14:43:36.237646 13568 net.cpp:91] Creating Layer inception_4a/relu_1x1
I0403 14:43:36.237661 13568 net.cpp:425] inception_4a/relu_1x1 <- inception_4a/1x1
I0403 14:43:36.237678 13568 net.cpp:386] inception_4a/relu_1x1 -> inception_4a/1x1 (in-place)
I0403 14:43:36.237853 13568 net.cpp:141] Setting up inception_4a/relu_1x1
I0403 14:43:36.237876 13568 net.cpp:148] Top shape: 24 192 14 14 (903168)
I0403 14:43:36.237890 13568 net.cpp:156] Memory required for data: 861623328
I0403 14:43:36.237905 13568 layer_factory.hpp:77] Creating layer inception_4a/3x3_reduce
I0403 14:43:36.237926 13568 net.cpp:91] Creating Layer inception_4a/3x3_reduce
I0403 14:43:36.237942 13568 net.cpp:425] inception_4a/3x3_reduce <- pool3/3x3_s2_pool3/3x3_s2_0_split_1
I0403 14:43:36.237962 13568 net.cpp:399] inception_4a/3x3_reduce -> inception_4a/3x3_reduce
I0403 14:43:36.239193 13568 net.cpp:141] Setting up inception_4a/3x3_reduce
I0403 14:43:36.239223 13568 net.cpp:148] Top shape: 24 96 14 14 (451584)
I0403 14:43:36.239238 13568 net.cpp:156] Memory required for data: 863429664
I0403 14:43:36.239262 13568 layer_factory.hpp:77] Creating layer inception_4a/relu_3x3_reduce
I0403 14:43:36.239281 13568 net.cpp:91] Creating Layer inception_4a/relu_3x3_reduce
I0403 14:43:36.239296 13568 net.cpp:425] inception_4a/relu_3x3_reduce <- inception_4a/3x3_reduce
I0403 14:43:36.239313 13568 net.cpp:386] inception_4a/relu_3x3_reduce -> inception_4a/3x3_reduce (in-place)
I0403 14:43:36.239485 13568 net.cpp:141] Setting up inception_4a/relu_3x3_reduce
I0403 14:43:36.239511 13568 net.cpp:148] Top shape: 24 96 14 14 (451584)
I0403 14:43:36.239526 13568 net.cpp:156] Memory required for data: 865236000
I0403 14:43:36.239543 13568 layer_factory.hpp:77] Creating layer inception_4a/3x3
I0403 14:43:36.239568 13568 net.cpp:91] Creating Layer inception_4a/3x3
I0403 14:43:36.239585 13568 net.cpp:425] inception_4a/3x3 <- inception_4a/3x3_reduce
I0403 14:43:36.239605 13568 net.cpp:399] inception_4a/3x3 -> inception_4a/3x3
I0403 14:43:36.242223 13568 net.cpp:141] Setting up inception_4a/3x3
I0403 14:43:36.242250 13568 net.cpp:148] Top shape: 24 208 14 14 (978432)
I0403 14:43:36.242264 13568 net.cpp:156] Memory required for data: 869149728
I0403 14:43:36.242282 13568 layer_factory.hpp:77] Creating layer inception_4a/relu_3x3
I0403 14:43:36.242298 13568 net.cpp:91] Creating Layer inception_4a/relu_3x3
I0403 14:43:36.242314 13568 net.cpp:425] inception_4a/relu_3x3 <- inception_4a/3x3
I0403 14:43:36.242333 13568 net.cpp:386] inception_4a/relu_3x3 -> inception_4a/3x3 (in-place)
I0403 14:43:36.242625 13568 net.cpp:141] Setting up inception_4a/relu_3x3
I0403 14:43:36.242651 13568 net.cpp:148] Top shape: 24 208 14 14 (978432)
I0403 14:43:36.242666 13568 net.cpp:156] Memory required for data: 873063456
I0403 14:43:36.242681 13568 layer_factory.hpp:77] Creating layer inception_4a/5x5_reduce
I0403 14:43:36.242702 13568 net.cpp:91] Creating Layer inception_4a/5x5_reduce
I0403 14:43:36.242720 13568 net.cpp:425] inception_4a/5x5_reduce <- pool3/3x3_s2_pool3/3x3_s2_0_split_2
I0403 14:43:36.242740 13568 net.cpp:399] inception_4a/5x5_reduce -> inception_4a/5x5_reduce
I0403 14:43:36.243772 13568 net.cpp:141] Setting up inception_4a/5x5_reduce
I0403 14:43:36.243799 13568 net.cpp:148] Top shape: 24 16 14 14 (75264)
I0403 14:43:36.243814 13568 net.cpp:156] Memory required for data: 873364512
I0403 14:43:36.243832 13568 layer_factory.hpp:77] Creating layer inception_4a/relu_5x5_reduce
I0403 14:43:36.243852 13568 net.cpp:91] Creating Layer inception_4a/relu_5x5_reduce
I0403 14:43:36.243868 13568 net.cpp:425] inception_4a/relu_5x5_reduce <- inception_4a/5x5_reduce
I0403 14:43:36.243885 13568 net.cpp:386] inception_4a/relu_5x5_reduce -> inception_4a/5x5_reduce (in-place)
I0403 14:43:36.244061 13568 net.cpp:141] Setting up inception_4a/relu_5x5_reduce
I0403 14:43:36.244086 13568 net.cpp:148] Top shape: 24 16 14 14 (75264)
I0403 14:43:36.244101 13568 net.cpp:156] Memory required for data: 873665568
I0403 14:43:36.244114 13568 layer_factory.hpp:77] Creating layer inception_4a/5x5
I0403 14:43:36.244137 13568 net.cpp:91] Creating Layer inception_4a/5x5
I0403 14:43:36.244153 13568 net.cpp:425] inception_4a/5x5 <- inception_4a/5x5_reduce
I0403 14:43:36.244174 13568 net.cpp:399] inception_4a/5x5 -> inception_4a/5x5
I0403 14:43:36.245276 13568 net.cpp:141] Setting up inception_4a/5x5
I0403 14:43:36.245304 13568 net.cpp:148] Top shape: 24 48 14 14 (225792)
I0403 14:43:36.245319 13568 net.cpp:156] Memory required for data: 874568736
I0403 14:43:36.245337 13568 layer_factory.hpp:77] Creating layer inception_4a/relu_5x5
I0403 14:43:36.245357 13568 net.cpp:91] Creating Layer inception_4a/relu_5x5
I0403 14:43:36.245373 13568 net.cpp:425] inception_4a/relu_5x5 <- inception_4a/5x5
I0403 14:43:36.245389 13568 net.cpp:386] inception_4a/relu_5x5 -> inception_4a/5x5 (in-place)
I0403 14:43:36.245579 13568 net.cpp:141] Setting up inception_4a/relu_5x5
I0403 14:43:36.245605 13568 net.cpp:148] Top shape: 24 48 14 14 (225792)
I0403 14:43:36.245620 13568 net.cpp:156] Memory required for data: 875471904
I0403 14:43:36.245633 13568 layer_factory.hpp:77] Creating layer inception_4a/pool
I0403 14:43:36.245651 13568 net.cpp:91] Creating Layer inception_4a/pool
I0403 14:43:36.245666 13568 net.cpp:425] inception_4a/pool <- pool3/3x3_s2_pool3/3x3_s2_0_split_3
I0403 14:43:36.245687 13568 net.cpp:399] inception_4a/pool -> inception_4a/pool
I0403 14:43:36.245746 13568 net.cpp:141] Setting up inception_4a/pool
I0403 14:43:36.245769 13568 net.cpp:148] Top shape: 24 480 14 14 (2257920)
I0403 14:43:36.245784 13568 net.cpp:156] Memory required for data: 884503584
I0403 14:43:36.245797 13568 layer_factory.hpp:77] Creating layer inception_4a/pool_proj
I0403 14:43:36.245821 13568 net.cpp:91] Creating Layer inception_4a/pool_proj
I0403 14:43:36.245838 13568 net.cpp:425] inception_4a/pool_proj <- inception_4a/pool
I0403 14:43:36.245857 13568 net.cpp:399] inception_4a/pool_proj -> inception_4a/pool_proj
I0403 14:43:36.247030 13568 net.cpp:141] Setting up inception_4a/pool_proj
I0403 14:43:36.247059 13568 net.cpp:148] Top shape: 24 64 14 14 (301056)
I0403 14:43:36.247090 13568 net.cpp:156] Memory required for data: 885707808
I0403 14:43:36.247109 13568 layer_factory.hpp:77] Creating layer inception_4a/relu_pool_proj
I0403 14:43:36.247128 13568 net.cpp:91] Creating Layer inception_4a/relu_pool_proj
I0403 14:43:36.247144 13568 net.cpp:425] inception_4a/relu_pool_proj <- inception_4a/pool_proj
I0403 14:43:36.247164 13568 net.cpp:386] inception_4a/relu_pool_proj -> inception_4a/pool_proj (in-place)
I0403 14:43:36.247447 13568 net.cpp:141] Setting up inception_4a/relu_pool_proj
I0403 14:43:36.247474 13568 net.cpp:148] Top shape: 24 64 14 14 (301056)
I0403 14:43:36.247490 13568 net.cpp:156] Memory required for data: 886912032
I0403 14:43:36.247504 13568 layer_factory.hpp:77] Creating layer inception_4a/output
I0403 14:43:36.247522 13568 net.cpp:91] Creating Layer inception_4a/output
I0403 14:43:36.247541 13568 net.cpp:425] inception_4a/output <- inception_4a/1x1
I0403 14:43:36.247560 13568 net.cpp:425] inception_4a/output <- inception_4a/3x3
I0403 14:43:36.247575 13568 net.cpp:425] inception_4a/output <- inception_4a/5x5
I0403 14:43:36.247596 13568 net.cpp:425] inception_4a/output <- inception_4a/pool_proj
I0403 14:43:36.247612 13568 net.cpp:399] inception_4a/output -> inception_4a/output
I0403 14:43:36.247658 13568 net.cpp:141] Setting up inception_4a/output
I0403 14:43:36.247680 13568 net.cpp:148] Top shape: 24 512 14 14 (2408448)
I0403 14:43:36.247694 13568 net.cpp:156] Memory required for data: 896545824
I0403 14:43:36.247709 13568 layer_factory.hpp:77] Creating layer inception_4a/output_inception_4a/output_0_split
I0403 14:43:36.247727 13568 net.cpp:91] Creating Layer inception_4a/output_inception_4a/output_0_split
I0403 14:43:36.247743 13568 net.cpp:425] inception_4a/output_inception_4a/output_0_split <- inception_4a/output
I0403 14:43:36.247761 13568 net.cpp:399] inception_4a/output_inception_4a/output_0_split -> inception_4a/output_inception_4a/output_0_split_0
I0403 14:43:36.247781 13568 net.cpp:399] inception_4a/output_inception_4a/output_0_split -> inception_4a/output_inception_4a/output_0_split_1
I0403 14:43:36.247800 13568 net.cpp:399] inception_4a/output_inception_4a/output_0_split -> inception_4a/output_inception_4a/output_0_split_2
I0403 14:43:36.247824 13568 net.cpp:399] inception_4a/output_inception_4a/output_0_split -> inception_4a/output_inception_4a/output_0_split_3
I0403 14:43:36.247843 13568 net.cpp:399] inception_4a/output_inception_4a/output_0_split -> inception_4a/output_inception_4a/output_0_split_4
I0403 14:43:36.247933 13568 net.cpp:141] Setting up inception_4a/output_inception_4a/output_0_split
I0403 14:43:36.247956 13568 net.cpp:148] Top shape: 24 512 14 14 (2408448)
I0403 14:43:36.247972 13568 net.cpp:148] Top shape: 24 512 14 14 (2408448)
I0403 14:43:36.247987 13568 net.cpp:148] Top shape: 24 512 14 14 (2408448)
I0403 14:43:36.248002 13568 net.cpp:148] Top shape: 24 512 14 14 (2408448)
I0403 14:43:36.248015 13568 net.cpp:148] Top shape: 24 512 14 14 (2408448)
I0403 14:43:36.248028 13568 net.cpp:156] Memory required for data: 944714784
I0403 14:43:36.248042 13568 layer_factory.hpp:77] Creating layer loss1/ave_pool
I0403 14:43:36.248059 13568 net.cpp:91] Creating Layer loss1/ave_pool
I0403 14:43:36.248075 13568 net.cpp:425] loss1/ave_pool <- inception_4a/output_inception_4a/output_0_split_0
I0403 14:43:36.248096 13568 net.cpp:399] loss1/ave_pool -> loss1/ave_pool
I0403 14:43:36.248299 13568 net.cpp:141] Setting up loss1/ave_pool
I0403 14:43:36.248327 13568 net.cpp:148] Top shape: 24 512 4 4 (196608)
I0403 14:43:36.248342 13568 net.cpp:156] Memory required for data: 945501216
I0403 14:43:36.248356 13568 layer_factory.hpp:77] Creating layer loss1/conv
I0403 14:43:36.248378 13568 net.cpp:91] Creating Layer loss1/conv
I0403 14:43:36.248395 13568 net.cpp:425] loss1/conv <- loss1/ave_pool
I0403 14:43:36.248414 13568 net.cpp:399] loss1/conv -> loss1/conv
I0403 14:43:36.249815 13568 net.cpp:141] Setting up loss1/conv
I0403 14:43:36.249843 13568 net.cpp:148] Top shape: 24 128 4 4 (49152)
I0403 14:43:36.249872 13568 net.cpp:156] Memory required for data: 945697824
I0403 14:43:36.249892 13568 layer_factory.hpp:77] Creating layer loss1/relu_conv
I0403 14:43:36.249910 13568 net.cpp:91] Creating Layer loss1/relu_conv
I0403 14:43:36.249925 13568 net.cpp:425] loss1/relu_conv <- loss1/conv
I0403 14:43:36.249944 13568 net.cpp:386] loss1/relu_conv -> loss1/conv (in-place)
I0403 14:43:36.250226 13568 net.cpp:141] Setting up loss1/relu_conv
I0403 14:43:36.250252 13568 net.cpp:148] Top shape: 24 128 4 4 (49152)
I0403 14:43:36.250267 13568 net.cpp:156] Memory required for data: 945894432
I0403 14:43:36.250282 13568 layer_factory.hpp:77] Creating layer loss1/fc
I0403 14:43:36.250303 13568 net.cpp:91] Creating Layer loss1/fc
I0403 14:43:36.250321 13568 net.cpp:425] loss1/fc <- loss1/conv
I0403 14:43:36.250341 13568 net.cpp:399] loss1/fc -> loss1/fc
I0403 14:43:36.268127 13568 net.cpp:141] Setting up loss1/fc
I0403 14:43:36.268159 13568 net.cpp:148] Top shape: 24 1024 (24576)
I0403 14:43:36.268178 13568 net.cpp:156] Memory required for data: 945992736
I0403 14:43:36.268196 13568 layer_factory.hpp:77] Creating layer loss1/relu_fc
I0403 14:43:36.268215 13568 net.cpp:91] Creating Layer loss1/relu_fc
I0403 14:43:36.268230 13568 net.cpp:425] loss1/relu_fc <- loss1/fc
I0403 14:43:36.268247 13568 net.cpp:386] loss1/relu_fc -> loss1/fc (in-place)
I0403 14:43:36.268450 13568 net.cpp:141] Setting up loss1/relu_fc
I0403 14:43:36.268474 13568 net.cpp:148] Top shape: 24 1024 (24576)
I0403 14:43:36.268489 13568 net.cpp:156] Memory required for data: 946091040
I0403 14:43:36.268503 13568 layer_factory.hpp:77] Creating layer loss1/drop_fc
I0403 14:43:36.268530 13568 net.cpp:91] Creating Layer loss1/drop_fc
I0403 14:43:36.268553 13568 net.cpp:425] loss1/drop_fc <- loss1/fc
I0403 14:43:36.268573 13568 net.cpp:386] loss1/drop_fc -> loss1/fc (in-place)
I0403 14:43:36.268625 13568 net.cpp:141] Setting up loss1/drop_fc
I0403 14:43:36.268648 13568 net.cpp:148] Top shape: 24 1024 (24576)
I0403 14:43:36.268662 13568 net.cpp:156] Memory required for data: 946189344
I0403 14:43:36.268676 13568 layer_factory.hpp:77] Creating layer loss1/classifier_plantvillage
I0403 14:43:36.268698 13568 net.cpp:91] Creating Layer loss1/classifier_plantvillage
I0403 14:43:36.268715 13568 net.cpp:425] loss1/classifier_plantvillage <- loss1/fc
I0403 14:43:36.268734 13568 net.cpp:399] loss1/classifier_plantvillage -> loss1/classifier_plantvillage
I0403 14:43:36.269681 13568 net.cpp:141] Setting up loss1/classifier_plantvillage
I0403 14:43:36.269711 13568 net.cpp:148] Top shape: 24 38 (912)
I0403 14:43:36.269726 13568 net.cpp:156] Memory required for data: 946192992
I0403 14:43:36.269743 13568 layer_factory.hpp:77] Creating layer loss1/classifier_plantvillage_loss1/classifier_plantvillage_0_split
I0403 14:43:36.269773 13568 net.cpp:91] Creating Layer loss1/classifier_plantvillage_loss1/classifier_plantvillage_0_split
I0403 14:43:36.269789 13568 net.cpp:425] loss1/classifier_plantvillage_loss1/classifier_plantvillage_0_split <- loss1/classifier_plantvillage
I0403 14:43:36.269809 13568 net.cpp:399] loss1/classifier_plantvillage_loss1/classifier_plantvillage_0_split -> loss1/classifier_plantvillage_loss1/classifier_plantvillage_0_split_0
I0403 14:43:36.269829 13568 net.cpp:399] loss1/classifier_plantvillage_loss1/classifier_plantvillage_0_split -> loss1/classifier_plantvillage_loss1/classifier_plantvillage_0_split_1
I0403 14:43:36.269850 13568 net.cpp:399] loss1/classifier_plantvillage_loss1/classifier_plantvillage_0_split -> loss1/classifier_plantvillage_loss1/classifier_plantvillage_0_split_2
I0403 14:43:36.269914 13568 net.cpp:141] Setting up loss1/classifier_plantvillage_loss1/classifier_plantvillage_0_split
I0403 14:43:36.269938 13568 net.cpp:148] Top shape: 24 38 (912)
I0403 14:43:36.269953 13568 net.cpp:148] Top shape: 24 38 (912)
I0403 14:43:36.269968 13568 net.cpp:148] Top shape: 24 38 (912)
I0403 14:43:36.269981 13568 net.cpp:156] Memory required for data: 946203936
I0403 14:43:36.269995 13568 layer_factory.hpp:77] Creating layer inception_4b/1x1
I0403 14:43:36.270017 13568 net.cpp:91] Creating Layer inception_4b/1x1
I0403 14:43:36.270057 13568 net.cpp:425] inception_4b/1x1 <- inception_4a/output_inception_4a/output_0_split_1
I0403 14:43:36.270077 13568 net.cpp:399] inception_4b/1x1 -> inception_4b/1x1
I0403 14:43:36.271759 13568 net.cpp:141] Setting up inception_4b/1x1
I0403 14:43:36.271786 13568 net.cpp:148] Top shape: 24 160 14 14 (752640)
I0403 14:43:36.271802 13568 net.cpp:156] Memory required for data: 949214496
I0403 14:43:36.271821 13568 layer_factory.hpp:77] Creating layer inception_4b/relu_1x1
I0403 14:43:36.271839 13568 net.cpp:91] Creating Layer inception_4b/relu_1x1
I0403 14:43:36.271855 13568 net.cpp:425] inception_4b/relu_1x1 <- inception_4b/1x1
I0403 14:43:36.271875 13568 net.cpp:386] inception_4b/relu_1x1 -> inception_4b/1x1 (in-place)
I0403 14:43:36.272058 13568 net.cpp:141] Setting up inception_4b/relu_1x1
I0403 14:43:36.272083 13568 net.cpp:148] Top shape: 24 160 14 14 (752640)
I0403 14:43:36.272097 13568 net.cpp:156] Memory required for data: 952225056
I0403 14:43:36.272112 13568 layer_factory.hpp:77] Creating layer inception_4b/3x3_reduce
I0403 14:43:36.272135 13568 net.cpp:91] Creating Layer inception_4b/3x3_reduce
I0403 14:43:36.272151 13568 net.cpp:425] inception_4b/3x3_reduce <- inception_4a/output_inception_4a/output_0_split_2
I0403 14:43:36.272173 13568 net.cpp:399] inception_4b/3x3_reduce -> inception_4b/3x3_reduce
I0403 14:43:36.273530 13568 net.cpp:141] Setting up inception_4b/3x3_reduce
I0403 14:43:36.273562 13568 net.cpp:148] Top shape: 24 112 14 14 (526848)
I0403 14:43:36.273578 13568 net.cpp:156] Memory required for data: 954332448
I0403 14:43:36.273596 13568 layer_factory.hpp:77] Creating layer inception_4b/relu_3x3_reduce
I0403 14:43:36.273622 13568 net.cpp:91] Creating Layer inception_4b/relu_3x3_reduce
I0403 14:43:36.273638 13568 net.cpp:425] inception_4b/relu_3x3_reduce <- inception_4b/3x3_reduce
I0403 14:43:36.273655 13568 net.cpp:386] inception_4b/relu_3x3_reduce -> inception_4b/3x3_reduce (in-place)
I0403 14:43:36.273937 13568 net.cpp:141] Setting up inception_4b/relu_3x3_reduce
I0403 14:43:36.273963 13568 net.cpp:148] Top shape: 24 112 14 14 (526848)
I0403 14:43:36.273978 13568 net.cpp:156] Memory required for data: 956439840
I0403 14:43:36.273993 13568 layer_factory.hpp:77] Creating layer inception_4b/3x3
I0403 14:43:36.274014 13568 net.cpp:91] Creating Layer inception_4b/3x3
I0403 14:43:36.274031 13568 net.cpp:425] inception_4b/3x3 <- inception_4b/3x3_reduce
I0403 14:43:36.274052 13568 net.cpp:399] inception_4b/3x3 -> inception_4b/3x3
I0403 14:43:36.277060 13568 net.cpp:141] Setting up inception_4b/3x3
I0403 14:43:36.277091 13568 net.cpp:148] Top shape: 24 224 14 14 (1053696)
I0403 14:43:36.277107 13568 net.cpp:156] Memory required for data: 960654624
I0403 14:43:36.277125 13568 layer_factory.hpp:77] Creating layer inception_4b/relu_3x3
I0403 14:43:36.277143 13568 net.cpp:91] Creating Layer inception_4b/relu_3x3
I0403 14:43:36.277158 13568 net.cpp:425] inception_4b/relu_3x3 <- inception_4b/3x3
I0403 14:43:36.277179 13568 net.cpp:386] inception_4b/relu_3x3 -> inception_4b/3x3 (in-place)
I0403 14:43:36.277362 13568 net.cpp:141] Setting up inception_4b/relu_3x3
I0403 14:43:36.277386 13568 net.cpp:148] Top shape: 24 224 14 14 (1053696)
I0403 14:43:36.277401 13568 net.cpp:156] Memory required for data: 964869408
I0403 14:43:36.277415 13568 layer_factory.hpp:77] Creating layer inception_4b/5x5_reduce
I0403 14:43:36.277438 13568 net.cpp:91] Creating Layer inception_4b/5x5_reduce
I0403 14:43:36.277456 13568 net.cpp:425] inception_4b/5x5_reduce <- inception_4a/output_inception_4a/output_0_split_3
I0403 14:43:36.277477 13568 net.cpp:399] inception_4b/5x5_reduce -> inception_4b/5x5_reduce
I0403 14:43:36.278578 13568 net.cpp:141] Setting up inception_4b/5x5_reduce
I0403 14:43:36.278605 13568 net.cpp:148] Top shape: 24 24 14 14 (112896)
I0403 14:43:36.278621 13568 net.cpp:156] Memory required for data: 965320992
I0403 14:43:36.278638 13568 layer_factory.hpp:77] Creating layer inception_4b/relu_5x5_reduce
I0403 14:43:36.278659 13568 net.cpp:91] Creating Layer inception_4b/relu_5x5_reduce
I0403 14:43:36.278690 13568 net.cpp:425] inception_4b/relu_5x5_reduce <- inception_4b/5x5_reduce
I0403 14:43:36.278709 13568 net.cpp:386] inception_4b/relu_5x5_reduce -> inception_4b/5x5_reduce (in-place)
I0403 14:43:36.278893 13568 net.cpp:141] Setting up inception_4b/relu_5x5_reduce
I0403 14:43:36.278918 13568 net.cpp:148] Top shape: 24 24 14 14 (112896)
I0403 14:43:36.278933 13568 net.cpp:156] Memory required for data: 965772576
I0403 14:43:36.278946 13568 layer_factory.hpp:77] Creating layer inception_4b/5x5
I0403 14:43:36.278970 13568 net.cpp:91] Creating Layer inception_4b/5x5
I0403 14:43:36.278987 13568 net.cpp:425] inception_4b/5x5 <- inception_4b/5x5_reduce
I0403 14:43:36.279006 13568 net.cpp:399] inception_4b/5x5 -> inception_4b/5x5
I0403 14:43:36.280236 13568 net.cpp:141] Setting up inception_4b/5x5
I0403 14:43:36.280263 13568 net.cpp:148] Top shape: 24 64 14 14 (301056)
I0403 14:43:36.280277 13568 net.cpp:156] Memory required for data: 966976800
I0403 14:43:36.280295 13568 layer_factory.hpp:77] Creating layer inception_4b/relu_5x5
I0403 14:43:36.280313 13568 net.cpp:91] Creating Layer inception_4b/relu_5x5
I0403 14:43:36.280329 13568 net.cpp:425] inception_4b/relu_5x5 <- inception_4b/5x5
I0403 14:43:36.280349 13568 net.cpp:386] inception_4b/relu_5x5 -> inception_4b/5x5 (in-place)
I0403 14:43:36.280640 13568 net.cpp:141] Setting up inception_4b/relu_5x5
I0403 14:43:36.280666 13568 net.cpp:148] Top shape: 24 64 14 14 (301056)
I0403 14:43:36.280681 13568 net.cpp:156] Memory required for data: 968181024
I0403 14:43:36.280695 13568 layer_factory.hpp:77] Creating layer inception_4b/pool
I0403 14:43:36.280714 13568 net.cpp:91] Creating Layer inception_4b/pool
I0403 14:43:36.280730 13568 net.cpp:425] inception_4b/pool <- inception_4a/output_inception_4a/output_0_split_4
I0403 14:43:36.280750 13568 net.cpp:399] inception_4b/pool -> inception_4b/pool
I0403 14:43:36.280813 13568 net.cpp:141] Setting up inception_4b/pool
I0403 14:43:36.280836 13568 net.cpp:148] Top shape: 24 512 14 14 (2408448)
I0403 14:43:36.280851 13568 net.cpp:156] Memory required for data: 977814816
I0403 14:43:36.280865 13568 layer_factory.hpp:77] Creating layer inception_4b/pool_proj
I0403 14:43:36.280889 13568 net.cpp:91] Creating Layer inception_4b/pool_proj
I0403 14:43:36.280906 13568 net.cpp:425] inception_4b/pool_proj <- inception_4b/pool
I0403 14:43:36.280925 13568 net.cpp:399] inception_4b/pool_proj -> inception_4b/pool_proj
I0403 14:43:36.282131 13568 net.cpp:141] Setting up inception_4b/pool_proj
I0403 14:43:36.282160 13568 net.cpp:148] Top shape: 24 64 14 14 (301056)
I0403 14:43:36.282174 13568 net.cpp:156] Memory required for data: 979019040
I0403 14:43:36.282192 13568 layer_factory.hpp:77] Creating layer inception_4b/relu_pool_proj
I0403 14:43:36.282212 13568 net.cpp:91] Creating Layer inception_4b/relu_pool_proj
I0403 14:43:36.282228 13568 net.cpp:425] inception_4b/relu_pool_proj <- inception_4b/pool_proj
I0403 14:43:36.282245 13568 net.cpp:386] inception_4b/relu_pool_proj -> inception_4b/pool_proj (in-place)
I0403 14:43:36.282424 13568 net.cpp:141] Setting up inception_4b/relu_pool_proj
I0403 14:43:36.282451 13568 net.cpp:148] Top shape: 24 64 14 14 (301056)
I0403 14:43:36.282466 13568 net.cpp:156] Memory required for data: 980223264
I0403 14:43:36.282481 13568 layer_factory.hpp:77] Creating layer inception_4b/output
I0403 14:43:36.282498 13568 net.cpp:91] Creating Layer inception_4b/output
I0403 14:43:36.282513 13568 net.cpp:425] inception_4b/output <- inception_4b/1x1
I0403 14:43:36.282529 13568 net.cpp:425] inception_4b/output <- inception_4b/3x3
I0403 14:43:36.282552 13568 net.cpp:425] inception_4b/output <- inception_4b/5x5
I0403 14:43:36.282567 13568 net.cpp:425] inception_4b/output <- inception_4b/pool_proj
I0403 14:43:36.282584 13568 net.cpp:399] inception_4b/output -> inception_4b/output
I0403 14:43:36.282631 13568 net.cpp:141] Setting up inception_4b/output
I0403 14:43:36.282654 13568 net.cpp:148] Top shape: 24 512 14 14 (2408448)
I0403 14:43:36.282668 13568 net.cpp:156] Memory required for data: 989857056
I0403 14:43:36.282696 13568 layer_factory.hpp:77] Creating layer inception_4b/output_inception_4b/output_0_split
I0403 14:43:36.282716 13568 net.cpp:91] Creating Layer inception_4b/output_inception_4b/output_0_split
I0403 14:43:36.282733 13568 net.cpp:425] inception_4b/output_inception_4b/output_0_split <- inception_4b/output
I0403 14:43:36.282752 13568 net.cpp:399] inception_4b/output_inception_4b/output_0_split -> inception_4b/output_inception_4b/output_0_split_0
I0403 14:43:36.282770 13568 net.cpp:399] inception_4b/output_inception_4b/output_0_split -> inception_4b/output_inception_4b/output_0_split_1
I0403 14:43:36.282790 13568 net.cpp:399] inception_4b/output_inception_4b/output_0_split -> inception_4b/output_inception_4b/output_0_split_2
I0403 14:43:36.282810 13568 net.cpp:399] inception_4b/output_inception_4b/output_0_split -> inception_4b/output_inception_4b/output_0_split_3
I0403 14:43:36.282893 13568 net.cpp:141] Setting up inception_4b/output_inception_4b/output_0_split
I0403 14:43:36.282917 13568 net.cpp:148] Top shape: 24 512 14 14 (2408448)
I0403 14:43:36.282932 13568 net.cpp:148] Top shape: 24 512 14 14 (2408448)
I0403 14:43:36.282948 13568 net.cpp:148] Top shape: 24 512 14 14 (2408448)
I0403 14:43:36.282963 13568 net.cpp:148] Top shape: 24 512 14 14 (2408448)
I0403 14:43:36.282975 13568 net.cpp:156] Memory required for data: 1028392224
I0403 14:43:36.282989 13568 layer_factory.hpp:77] Creating layer inception_4c/1x1
I0403 14:43:36.283011 13568 net.cpp:91] Creating Layer inception_4c/1x1
I0403 14:43:36.283028 13568 net.cpp:425] inception_4c/1x1 <- inception_4b/output_inception_4b/output_0_split_0
I0403 14:43:36.283052 13568 net.cpp:399] inception_4c/1x1 -> inception_4c/1x1
I0403 14:43:36.284487 13568 net.cpp:141] Setting up inception_4c/1x1
I0403 14:43:36.284518 13568 net.cpp:148] Top shape: 24 128 14 14 (602112)
I0403 14:43:36.284533 13568 net.cpp:156] Memory required for data: 1030800672
I0403 14:43:36.284566 13568 layer_factory.hpp:77] Creating layer inception_4c/relu_1x1
I0403 14:43:36.284585 13568 net.cpp:91] Creating Layer inception_4c/relu_1x1
I0403 14:43:36.284600 13568 net.cpp:425] inception_4c/relu_1x1 <- inception_4c/1x1
I0403 14:43:36.284617 13568 net.cpp:386] inception_4c/relu_1x1 -> inception_4c/1x1 (in-place)
I0403 14:43:36.284801 13568 net.cpp:141] Setting up inception_4c/relu_1x1
I0403 14:43:36.284826 13568 net.cpp:148] Top shape: 24 128 14 14 (602112)
I0403 14:43:36.284840 13568 net.cpp:156] Memory required for data: 1033209120
I0403 14:43:36.284854 13568 layer_factory.hpp:77] Creating layer inception_4c/3x3_reduce
I0403 14:43:36.284876 13568 net.cpp:91] Creating Layer inception_4c/3x3_reduce
I0403 14:43:36.284893 13568 net.cpp:425] inception_4c/3x3_reduce <- inception_4b/output_inception_4b/output_0_split_1
I0403 14:43:36.284914 13568 net.cpp:399] inception_4c/3x3_reduce -> inception_4c/3x3_reduce
I0403 14:43:36.286905 13568 net.cpp:141] Setting up inception_4c/3x3_reduce
I0403 14:43:36.286932 13568 net.cpp:148] Top shape: 24 128 14 14 (602112)
I0403 14:43:36.286949 13568 net.cpp:156] Memory required for data: 1035617568
I0403 14:43:36.286967 13568 layer_factory.hpp:77] Creating layer inception_4c/relu_3x3_reduce
I0403 14:43:36.286988 13568 net.cpp:91] Creating Layer inception_4c/relu_3x3_reduce
I0403 14:43:36.287004 13568 net.cpp:425] inception_4c/relu_3x3_reduce <- inception_4c/3x3_reduce
I0403 14:43:36.287021 13568 net.cpp:386] inception_4c/relu_3x3_reduce -> inception_4c/3x3_reduce (in-place)
I0403 14:43:36.287308 13568 net.cpp:141] Setting up inception_4c/relu_3x3_reduce
I0403 14:43:36.287334 13568 net.cpp:148] Top shape: 24 128 14 14 (602112)
I0403 14:43:36.287348 13568 net.cpp:156] Memory required for data: 1038026016
I0403 14:43:36.287364 13568 layer_factory.hpp:77] Creating layer inception_4c/3x3
I0403 14:43:36.287386 13568 net.cpp:91] Creating Layer inception_4c/3x3
I0403 14:43:36.287405 13568 net.cpp:425] inception_4c/3x3 <- inception_4c/3x3_reduce
I0403 14:43:36.287427 13568 net.cpp:399] inception_4c/3x3 -> inception_4c/3x3
I0403 14:43:36.291190 13568 net.cpp:141] Setting up inception_4c/3x3
I0403 14:43:36.291234 13568 net.cpp:148] Top shape: 24 256 14 14 (1204224)
I0403 14:43:36.291250 13568 net.cpp:156] Memory required for data: 1042842912
I0403 14:43:36.291283 13568 layer_factory.hpp:77] Creating layer inception_4c/relu_3x3
I0403 14:43:36.291306 13568 net.cpp:91] Creating Layer inception_4c/relu_3x3
I0403 14:43:36.291324 13568 net.cpp:425] inception_4c/relu_3x3 <- inception_4c/3x3
I0403 14:43:36.291342 13568 net.cpp:386] inception_4c/relu_3x3 -> inception_4c/3x3 (in-place)
I0403 14:43:36.291532 13568 net.cpp:141] Setting up inception_4c/relu_3x3
I0403 14:43:36.291563 13568 net.cpp:148] Top shape: 24 256 14 14 (1204224)
I0403 14:43:36.291579 13568 net.cpp:156] Memory required for data: 1047659808
I0403 14:43:36.291594 13568 layer_factory.hpp:77] Creating layer inception_4c/5x5_reduce
I0403 14:43:36.291616 13568 net.cpp:91] Creating Layer inception_4c/5x5_reduce
I0403 14:43:36.291635 13568 net.cpp:425] inception_4c/5x5_reduce <- inception_4b/output_inception_4b/output_0_split_2
I0403 14:43:36.291656 13568 net.cpp:399] inception_4c/5x5_reduce -> inception_4c/5x5_reduce
I0403 14:43:36.292795 13568 net.cpp:141] Setting up inception_4c/5x5_reduce
I0403 14:43:36.292824 13568 net.cpp:148] Top shape: 24 24 14 14 (112896)
I0403 14:43:36.292840 13568 net.cpp:156] Memory required for data: 1048111392
I0403 14:43:36.292857 13568 layer_factory.hpp:77] Creating layer inception_4c/relu_5x5_reduce
I0403 14:43:36.292878 13568 net.cpp:91] Creating Layer inception_4c/relu_5x5_reduce
I0403 14:43:36.292898 13568 net.cpp:425] inception_4c/relu_5x5_reduce <- inception_4c/5x5_reduce
I0403 14:43:36.292917 13568 net.cpp:386] inception_4c/relu_5x5_reduce -> inception_4c/5x5_reduce (in-place)
I0403 14:43:36.293108 13568 net.cpp:141] Setting up inception_4c/relu_5x5_reduce
I0403 14:43:36.293135 13568 net.cpp:148] Top shape: 24 24 14 14 (112896)
I0403 14:43:36.293150 13568 net.cpp:156] Memory required for data: 1048562976
I0403 14:43:36.293164 13568 layer_factory.hpp:77] Creating layer inception_4c/5x5
I0403 14:43:36.293189 13568 net.cpp:91] Creating Layer inception_4c/5x5
I0403 14:43:36.293207 13568 net.cpp:425] inception_4c/5x5 <- inception_4c/5x5_reduce
I0403 14:43:36.293226 13568 net.cpp:399] inception_4c/5x5 -> inception_4c/5x5
I0403 14:43:36.294553 13568 net.cpp:141] Setting up inception_4c/5x5
I0403 14:43:36.294584 13568 net.cpp:148] Top shape: 24 64 14 14 (301056)
I0403 14:43:36.294600 13568 net.cpp:156] Memory required for data: 1049767200
I0403 14:43:36.294620 13568 layer_factory.hpp:77] Creating layer inception_4c/relu_5x5
I0403 14:43:36.294638 13568 net.cpp:91] Creating Layer inception_4c/relu_5x5
I0403 14:43:36.294654 13568 net.cpp:425] inception_4c/relu_5x5 <- inception_4c/5x5
I0403 14:43:36.294672 13568 net.cpp:386] inception_4c/relu_5x5 -> inception_4c/5x5 (in-place)
I0403 14:43:36.294970 13568 net.cpp:141] Setting up inception_4c/relu_5x5
I0403 14:43:36.294999 13568 net.cpp:148] Top shape: 24 64 14 14 (301056)
I0403 14:43:36.295017 13568 net.cpp:156] Memory required for data: 1050971424
I0403 14:43:36.295032 13568 layer_factory.hpp:77] Creating layer inception_4c/pool
I0403 14:43:36.295048 13568 net.cpp:91] Creating Layer inception_4c/pool
I0403 14:43:36.295065 13568 net.cpp:425] inception_4c/pool <- inception_4b/output_inception_4b/output_0_split_3
I0403 14:43:36.295083 13568 net.cpp:399] inception_4c/pool -> inception_4c/pool
I0403 14:43:36.295150 13568 net.cpp:141] Setting up inception_4c/pool
I0403 14:43:36.295174 13568 net.cpp:148] Top shape: 24 512 14 14 (2408448)
I0403 14:43:36.295189 13568 net.cpp:156] Memory required for data: 1060605216
I0403 14:43:36.295203 13568 layer_factory.hpp:77] Creating layer inception_4c/pool_proj
I0403 14:43:36.295225 13568 net.cpp:91] Creating Layer inception_4c/pool_proj
I0403 14:43:36.295243 13568 net.cpp:425] inception_4c/pool_proj <- inception_4c/pool
I0403 14:43:36.295264 13568 net.cpp:399] inception_4c/pool_proj -> inception_4c/pool_proj
I0403 14:43:36.296526 13568 net.cpp:141] Setting up inception_4c/pool_proj
I0403 14:43:36.296560 13568 net.cpp:148] Top shape: 24 64 14 14 (301056)
I0403 14:43:36.296591 13568 net.cpp:156] Memory required for data: 1061809440
I0403 14:43:36.296610 13568 layer_factory.hpp:77] Creating layer inception_4c/relu_pool_proj
I0403 14:43:36.296633 13568 net.cpp:91] Creating Layer inception_4c/relu_pool_proj
I0403 14:43:36.296650 13568 net.cpp:425] inception_4c/relu_pool_proj <- inception_4c/pool_proj
I0403 14:43:36.296669 13568 net.cpp:386] inception_4c/relu_pool_proj -> inception_4c/pool_proj (in-place)
I0403 14:43:36.296854 13568 net.cpp:141] Setting up inception_4c/relu_pool_proj
I0403 14:43:36.296880 13568 net.cpp:148] Top shape: 24 64 14 14 (301056)
I0403 14:43:36.296897 13568 net.cpp:156] Memory required for data: 1063013664
I0403 14:43:36.296912 13568 layer_factory.hpp:77] Creating layer inception_4c/output
I0403 14:43:36.296931 13568 net.cpp:91] Creating Layer inception_4c/output
I0403 14:43:36.296947 13568 net.cpp:425] inception_4c/output <- inception_4c/1x1
I0403 14:43:36.296962 13568 net.cpp:425] inception_4c/output <- inception_4c/3x3
I0403 14:43:36.296978 13568 net.cpp:425] inception_4c/output <- inception_4c/5x5
I0403 14:43:36.296994 13568 net.cpp:425] inception_4c/output <- inception_4c/pool_proj
I0403 14:43:36.297011 13568 net.cpp:399] inception_4c/output -> inception_4c/output
I0403 14:43:36.297060 13568 net.cpp:141] Setting up inception_4c/output
I0403 14:43:36.297083 13568 net.cpp:148] Top shape: 24 512 14 14 (2408448)
I0403 14:43:36.297098 13568 net.cpp:156] Memory required for data: 1072647456
I0403 14:43:36.297112 13568 layer_factory.hpp:77] Creating layer inception_4c/output_inception_4c/output_0_split
I0403 14:43:36.297129 13568 net.cpp:91] Creating Layer inception_4c/output_inception_4c/output_0_split
I0403 14:43:36.297144 13568 net.cpp:425] inception_4c/output_inception_4c/output_0_split <- inception_4c/output
I0403 14:43:36.297164 13568 net.cpp:399] inception_4c/output_inception_4c/output_0_split -> inception_4c/output_inception_4c/output_0_split_0
I0403 14:43:36.297185 13568 net.cpp:399] inception_4c/output_inception_4c/output_0_split -> inception_4c/output_inception_4c/output_0_split_1
I0403 14:43:36.297205 13568 net.cpp:399] inception_4c/output_inception_4c/output_0_split -> inception_4c/output_inception_4c/output_0_split_2
I0403 14:43:36.297225 13568 net.cpp:399] inception_4c/output_inception_4c/output_0_split -> inception_4c/output_inception_4c/output_0_split_3
I0403 14:43:36.297313 13568 net.cpp:141] Setting up inception_4c/output_inception_4c/output_0_split
I0403 14:43:36.297338 13568 net.cpp:148] Top shape: 24 512 14 14 (2408448)
I0403 14:43:36.297353 13568 net.cpp:148] Top shape: 24 512 14 14 (2408448)
I0403 14:43:36.297369 13568 net.cpp:148] Top shape: 24 512 14 14 (2408448)
I0403 14:43:36.297384 13568 net.cpp:148] Top shape: 24 512 14 14 (2408448)
I0403 14:43:36.297396 13568 net.cpp:156] Memory required for data: 1111182624
I0403 14:43:36.297410 13568 layer_factory.hpp:77] Creating layer inception_4d/1x1
I0403 14:43:36.297433 13568 net.cpp:91] Creating Layer inception_4d/1x1
I0403 14:43:36.297451 13568 net.cpp:425] inception_4d/1x1 <- inception_4c/output_inception_4c/output_0_split_0
I0403 14:43:36.297472 13568 net.cpp:399] inception_4d/1x1 -> inception_4d/1x1
I0403 14:43:36.298916 13568 net.cpp:141] Setting up inception_4d/1x1
I0403 14:43:36.298944 13568 net.cpp:148] Top shape: 24 112 14 14 (526848)
I0403 14:43:36.298961 13568 net.cpp:156] Memory required for data: 1113290016
I0403 14:43:36.298980 13568 layer_factory.hpp:77] Creating layer inception_4d/relu_1x1
I0403 14:43:36.298998 13568 net.cpp:91] Creating Layer inception_4d/relu_1x1
I0403 14:43:36.299015 13568 net.cpp:425] inception_4d/relu_1x1 <- inception_4d/1x1
I0403 14:43:36.299034 13568 net.cpp:386] inception_4d/relu_1x1 -> inception_4d/1x1 (in-place)
I0403 14:43:36.299232 13568 net.cpp:141] Setting up inception_4d/relu_1x1
I0403 14:43:36.299257 13568 net.cpp:148] Top shape: 24 112 14 14 (526848)
I0403 14:43:36.299271 13568 net.cpp:156] Memory required for data: 1115397408
I0403 14:43:36.299288 13568 layer_factory.hpp:77] Creating layer inception_4d/3x3_reduce
I0403 14:43:36.299336 13568 net.cpp:91] Creating Layer inception_4d/3x3_reduce
I0403 14:43:36.299356 13568 net.cpp:425] inception_4d/3x3_reduce <- inception_4c/output_inception_4c/output_0_split_1
I0403 14:43:36.299378 13568 net.cpp:399] inception_4d/3x3_reduce -> inception_4d/3x3_reduce
I0403 14:43:36.300943 13568 net.cpp:141] Setting up inception_4d/3x3_reduce
I0403 14:43:36.300972 13568 net.cpp:148] Top shape: 24 144 14 14 (677376)
I0403 14:43:36.300987 13568 net.cpp:156] Memory required for data: 1118106912
I0403 14:43:36.301007 13568 layer_factory.hpp:77] Creating layer inception_4d/relu_3x3_reduce
I0403 14:43:36.301026 13568 net.cpp:91] Creating Layer inception_4d/relu_3x3_reduce
I0403 14:43:36.301044 13568 net.cpp:425] inception_4d/relu_3x3_reduce <- inception_4d/3x3_reduce
I0403 14:43:36.301061 13568 net.cpp:386] inception_4d/relu_3x3_reduce -> inception_4d/3x3_reduce (in-place)
I0403 14:43:36.301362 13568 net.cpp:141] Setting up inception_4d/relu_3x3_reduce
I0403 14:43:36.301389 13568 net.cpp:148] Top shape: 24 144 14 14 (677376)
I0403 14:43:36.301404 13568 net.cpp:156] Memory required for data: 1120816416
I0403 14:43:36.301419 13568 layer_factory.hpp:77] Creating layer inception_4d/3x3
I0403 14:43:36.301443 13568 net.cpp:91] Creating Layer inception_4d/3x3
I0403 14:43:36.301461 13568 net.cpp:425] inception_4d/3x3 <- inception_4d/3x3_reduce
I0403 14:43:36.301481 13568 net.cpp:399] inception_4d/3x3 -> inception_4d/3x3
I0403 14:43:36.305841 13568 net.cpp:141] Setting up inception_4d/3x3
I0403 14:43:36.305872 13568 net.cpp:148] Top shape: 24 288 14 14 (1354752)
I0403 14:43:36.305889 13568 net.cpp:156] Memory required for data: 1126235424
I0403 14:43:36.305907 13568 layer_factory.hpp:77] Creating layer inception_4d/relu_3x3
I0403 14:43:36.305925 13568 net.cpp:91] Creating Layer inception_4d/relu_3x3
I0403 14:43:36.305941 13568 net.cpp:425] inception_4d/relu_3x3 <- inception_4d/3x3
I0403 14:43:36.305961 13568 net.cpp:386] inception_4d/relu_3x3 -> inception_4d/3x3 (in-place)
I0403 14:43:36.306156 13568 net.cpp:141] Setting up inception_4d/relu_3x3
I0403 14:43:36.306180 13568 net.cpp:148] Top shape: 24 288 14 14 (1354752)
I0403 14:43:36.306195 13568 net.cpp:156] Memory required for data: 1131654432
I0403 14:43:36.306207 13568 layer_factory.hpp:77] Creating layer inception_4d/5x5_reduce
I0403 14:43:36.306228 13568 net.cpp:91] Creating Layer inception_4d/5x5_reduce
I0403 14:43:36.306246 13568 net.cpp:425] inception_4d/5x5_reduce <- inception_4c/output_inception_4c/output_0_split_2
I0403 14:43:36.306267 13568 net.cpp:399] inception_4d/5x5_reduce -> inception_4d/5x5_reduce
I0403 14:43:36.307415 13568 net.cpp:141] Setting up inception_4d/5x5_reduce
I0403 14:43:36.307441 13568 net.cpp:148] Top shape: 24 32 14 14 (150528)
I0403 14:43:36.307456 13568 net.cpp:156] Memory required for data: 1132256544
I0403 14:43:36.307472 13568 layer_factory.hpp:77] Creating layer inception_4d/relu_5x5_reduce
I0403 14:43:36.307489 13568 net.cpp:91] Creating Layer inception_4d/relu_5x5_reduce
I0403 14:43:36.307505 13568 net.cpp:425] inception_4d/relu_5x5_reduce <- inception_4d/5x5_reduce
I0403 14:43:36.307523 13568 net.cpp:386] inception_4d/relu_5x5_reduce -> inception_4d/5x5_reduce (in-place)
I0403 14:43:36.307711 13568 net.cpp:141] Setting up inception_4d/relu_5x5_reduce
I0403 14:43:36.307735 13568 net.cpp:148] Top shape: 24 32 14 14 (150528)
I0403 14:43:36.307750 13568 net.cpp:156] Memory required for data: 1132858656
I0403 14:43:36.307765 13568 layer_factory.hpp:77] Creating layer inception_4d/5x5
I0403 14:43:36.307785 13568 net.cpp:91] Creating Layer inception_4d/5x5
I0403 14:43:36.307803 13568 net.cpp:425] inception_4d/5x5 <- inception_4d/5x5_reduce
I0403 14:43:36.307823 13568 net.cpp:399] inception_4d/5x5 -> inception_4d/5x5
I0403 14:43:36.309267 13568 net.cpp:141] Setting up inception_4d/5x5
I0403 14:43:36.309294 13568 net.cpp:148] Top shape: 24 64 14 14 (301056)
I0403 14:43:36.309309 13568 net.cpp:156] Memory required for data: 1134062880
I0403 14:43:36.309329 13568 layer_factory.hpp:77] Creating layer inception_4d/relu_5x5
I0403 14:43:36.309363 13568 net.cpp:91] Creating Layer inception_4d/relu_5x5
I0403 14:43:36.309381 13568 net.cpp:425] inception_4d/relu_5x5 <- inception_4d/5x5
I0403 14:43:36.309397 13568 net.cpp:386] inception_4d/relu_5x5 -> inception_4d/5x5 (in-place)
I0403 14:43:36.309701 13568 net.cpp:141] Setting up inception_4d/relu_5x5
I0403 14:43:36.309727 13568 net.cpp:148] Top shape: 24 64 14 14 (301056)
I0403 14:43:36.309741 13568 net.cpp:156] Memory required for data: 1135267104
I0403 14:43:36.309756 13568 layer_factory.hpp:77] Creating layer inception_4d/pool
I0403 14:43:36.309774 13568 net.cpp:91] Creating Layer inception_4d/pool
I0403 14:43:36.309790 13568 net.cpp:425] inception_4d/pool <- inception_4c/output_inception_4c/output_0_split_3
I0403 14:43:36.309808 13568 net.cpp:399] inception_4d/pool -> inception_4d/pool
I0403 14:43:36.309872 13568 net.cpp:141] Setting up inception_4d/pool
I0403 14:43:36.309895 13568 net.cpp:148] Top shape: 24 512 14 14 (2408448)
I0403 14:43:36.309909 13568 net.cpp:156] Memory required for data: 1144900896
I0403 14:43:36.309922 13568 layer_factory.hpp:77] Creating layer inception_4d/pool_proj
I0403 14:43:36.309943 13568 net.cpp:91] Creating Layer inception_4d/pool_proj
I0403 14:43:36.309960 13568 net.cpp:425] inception_4d/pool_proj <- inception_4d/pool
I0403 14:43:36.309980 13568 net.cpp:399] inception_4d/pool_proj -> inception_4d/pool_proj
I0403 14:43:36.311708 13568 net.cpp:141] Setting up inception_4d/pool_proj
I0403 14:43:36.311738 13568 net.cpp:148] Top shape: 24 64 14 14 (301056)
I0403 14:43:36.311754 13568 net.cpp:156] Memory required for data: 1146105120
I0403 14:43:36.311772 13568 layer_factory.hpp:77] Creating layer inception_4d/relu_pool_proj
I0403 14:43:36.311789 13568 net.cpp:91] Creating Layer inception_4d/relu_pool_proj
I0403 14:43:36.311805 13568 net.cpp:425] inception_4d/relu_pool_proj <- inception_4d/pool_proj
I0403 14:43:36.311825 13568 net.cpp:386] inception_4d/relu_pool_proj -> inception_4d/pool_proj (in-place)
I0403 14:43:36.312019 13568 net.cpp:141] Setting up inception_4d/relu_pool_proj
I0403 14:43:36.312044 13568 net.cpp:148] Top shape: 24 64 14 14 (301056)
I0403 14:43:36.312058 13568 net.cpp:156] Memory required for data: 1147309344
I0403 14:43:36.312072 13568 layer_factory.hpp:77] Creating layer inception_4d/output
I0403 14:43:36.312088 13568 net.cpp:91] Creating Layer inception_4d/output
I0403 14:43:36.312103 13568 net.cpp:425] inception_4d/output <- inception_4d/1x1
I0403 14:43:36.312119 13568 net.cpp:425] inception_4d/output <- inception_4d/3x3
I0403 14:43:36.312134 13568 net.cpp:425] inception_4d/output <- inception_4d/5x5
I0403 14:43:36.312150 13568 net.cpp:425] inception_4d/output <- inception_4d/pool_proj
I0403 14:43:36.312168 13568 net.cpp:399] inception_4d/output -> inception_4d/output
I0403 14:43:36.312218 13568 net.cpp:141] Setting up inception_4d/output
I0403 14:43:36.312242 13568 net.cpp:148] Top shape: 24 528 14 14 (2483712)
I0403 14:43:36.312255 13568 net.cpp:156] Memory required for data: 1157244192
I0403 14:43:36.312269 13568 layer_factory.hpp:77] Creating layer inception_4d/output_inception_4d/output_0_split
I0403 14:43:36.312288 13568 net.cpp:91] Creating Layer inception_4d/output_inception_4d/output_0_split
I0403 14:43:36.312302 13568 net.cpp:425] inception_4d/output_inception_4d/output_0_split <- inception_4d/output
I0403 14:43:36.312322 13568 net.cpp:399] inception_4d/output_inception_4d/output_0_split -> inception_4d/output_inception_4d/output_0_split_0
I0403 14:43:36.312343 13568 net.cpp:399] inception_4d/output_inception_4d/output_0_split -> inception_4d/output_inception_4d/output_0_split_1
I0403 14:43:36.312364 13568 net.cpp:399] inception_4d/output_inception_4d/output_0_split -> inception_4d/output_inception_4d/output_0_split_2
I0403 14:43:36.312386 13568 net.cpp:399] inception_4d/output_inception_4d/output_0_split -> inception_4d/output_inception_4d/output_0_split_3
I0403 14:43:36.312405 13568 net.cpp:399] inception_4d/output_inception_4d/output_0_split -> inception_4d/output_inception_4d/output_0_split_4
I0403 14:43:36.312506 13568 net.cpp:141] Setting up inception_4d/output_inception_4d/output_0_split
I0403 14:43:36.312551 13568 net.cpp:148] Top shape: 24 528 14 14 (2483712)
I0403 14:43:36.312568 13568 net.cpp:148] Top shape: 24 528 14 14 (2483712)
I0403 14:43:36.312583 13568 net.cpp:148] Top shape: 24 528 14 14 (2483712)
I0403 14:43:36.312598 13568 net.cpp:148] Top shape: 24 528 14 14 (2483712)
I0403 14:43:36.312613 13568 net.cpp:148] Top shape: 24 528 14 14 (2483712)
I0403 14:43:36.312628 13568 net.cpp:156] Memory required for data: 1206918432
I0403 14:43:36.312641 13568 layer_factory.hpp:77] Creating layer loss2/ave_pool
I0403 14:43:36.312659 13568 net.cpp:91] Creating Layer loss2/ave_pool
I0403 14:43:36.312674 13568 net.cpp:425] loss2/ave_pool <- inception_4d/output_inception_4d/output_0_split_0
I0403 14:43:36.312695 13568 net.cpp:399] loss2/ave_pool -> loss2/ave_pool
I0403 14:43:36.313010 13568 net.cpp:141] Setting up loss2/ave_pool
I0403 14:43:36.313037 13568 net.cpp:148] Top shape: 24 528 4 4 (202752)
I0403 14:43:36.313052 13568 net.cpp:156] Memory required for data: 1207729440
I0403 14:43:36.313066 13568 layer_factory.hpp:77] Creating layer loss2/conv
I0403 14:43:36.313087 13568 net.cpp:91] Creating Layer loss2/conv
I0403 14:43:36.313105 13568 net.cpp:425] loss2/conv <- loss2/ave_pool
I0403 14:43:36.313127 13568 net.cpp:399] loss2/conv -> loss2/conv
I0403 14:43:36.315029 13568 net.cpp:141] Setting up loss2/conv
I0403 14:43:36.315057 13568 net.cpp:148] Top shape: 24 128 4 4 (49152)
I0403 14:43:36.315073 13568 net.cpp:156] Memory required for data: 1207926048
I0403 14:43:36.315089 13568 layer_factory.hpp:77] Creating layer loss2/relu_conv
I0403 14:43:36.315109 13568 net.cpp:91] Creating Layer loss2/relu_conv
I0403 14:43:36.315125 13568 net.cpp:425] loss2/relu_conv <- loss2/conv
I0403 14:43:36.315142 13568 net.cpp:386] loss2/relu_conv -> loss2/conv (in-place)
I0403 14:43:36.315420 13568 net.cpp:141] Setting up loss2/relu_conv
I0403 14:43:36.315446 13568 net.cpp:148] Top shape: 24 128 4 4 (49152)
I0403 14:43:36.315460 13568 net.cpp:156] Memory required for data: 1208122656
I0403 14:43:36.315474 13568 layer_factory.hpp:77] Creating layer loss2/fc
I0403 14:43:36.315495 13568 net.cpp:91] Creating Layer loss2/fc
I0403 14:43:36.315511 13568 net.cpp:425] loss2/fc <- loss2/conv
I0403 14:43:36.315531 13568 net.cpp:399] loss2/fc -> loss2/fc
I0403 14:43:36.332752 13568 net.cpp:141] Setting up loss2/fc
I0403 14:43:36.332782 13568 net.cpp:148] Top shape: 24 1024 (24576)
I0403 14:43:36.332798 13568 net.cpp:156] Memory required for data: 1208220960
I0403 14:43:36.332814 13568 layer_factory.hpp:77] Creating layer loss2/relu_fc
I0403 14:43:36.332833 13568 net.cpp:91] Creating Layer loss2/relu_fc
I0403 14:43:36.332847 13568 net.cpp:425] loss2/relu_fc <- loss2/fc
I0403 14:43:36.332869 13568 net.cpp:386] loss2/relu_fc -> loss2/fc (in-place)
I0403 14:43:36.333156 13568 net.cpp:141] Setting up loss2/relu_fc
I0403 14:43:36.333183 13568 net.cpp:148] Top shape: 24 1024 (24576)
I0403 14:43:36.333196 13568 net.cpp:156] Memory required for data: 1208319264
I0403 14:43:36.333210 13568 layer_factory.hpp:77] Creating layer loss2/drop_fc
I0403 14:43:36.333227 13568 net.cpp:91] Creating Layer loss2/drop_fc
I0403 14:43:36.333242 13568 net.cpp:425] loss2/drop_fc <- loss2/fc
I0403 14:43:36.333261 13568 net.cpp:386] loss2/drop_fc -> loss2/fc (in-place)
I0403 14:43:36.333309 13568 net.cpp:141] Setting up loss2/drop_fc
I0403 14:43:36.333334 13568 net.cpp:148] Top shape: 24 1024 (24576)
I0403 14:43:36.333349 13568 net.cpp:156] Memory required for data: 1208417568
I0403 14:43:36.333364 13568 layer_factory.hpp:77] Creating layer loss2/classifier_plantvillage
I0403 14:43:36.333381 13568 net.cpp:91] Creating Layer loss2/classifier_plantvillage
I0403 14:43:36.333396 13568 net.cpp:425] loss2/classifier_plantvillage <- loss2/fc
I0403 14:43:36.333417 13568 net.cpp:399] loss2/classifier_plantvillage -> loss2/classifier_plantvillage
I0403 14:43:36.333813 13568 net.cpp:141] Setting up loss2/classifier_plantvillage
I0403 14:43:36.333837 13568 net.cpp:148] Top shape: 24 38 (912)
I0403 14:43:36.333868 13568 net.cpp:156] Memory required for data: 1208421216
I0403 14:43:36.333886 13568 layer_factory.hpp:77] Creating layer loss2/classifier_plantvillage_loss2/classifier_plantvillage_0_split
I0403 14:43:36.333905 13568 net.cpp:91] Creating Layer loss2/classifier_plantvillage_loss2/classifier_plantvillage_0_split
I0403 14:43:36.333921 13568 net.cpp:425] loss2/classifier_plantvillage_loss2/classifier_plantvillage_0_split <- loss2/classifier_plantvillage
I0403 14:43:36.333938 13568 net.cpp:399] loss2/classifier_plantvillage_loss2/classifier_plantvillage_0_split -> loss2/classifier_plantvillage_loss2/classifier_plantvillage_0_split_0
I0403 14:43:36.333957 13568 net.cpp:399] loss2/classifier_plantvillage_loss2/classifier_plantvillage_0_split -> loss2/classifier_plantvillage_loss2/classifier_plantvillage_0_split_1
I0403 14:43:36.333981 13568 net.cpp:399] loss2/classifier_plantvillage_loss2/classifier_plantvillage_0_split -> loss2/classifier_plantvillage_loss2/classifier_plantvillage_0_split_2
I0403 14:43:36.334053 13568 net.cpp:141] Setting up loss2/classifier_plantvillage_loss2/classifier_plantvillage_0_split
I0403 14:43:36.334075 13568 net.cpp:148] Top shape: 24 38 (912)
I0403 14:43:36.334091 13568 net.cpp:148] Top shape: 24 38 (912)
I0403 14:43:36.334105 13568 net.cpp:148] Top shape: 24 38 (912)
I0403 14:43:36.334118 13568 net.cpp:156] Memory required for data: 1208432160
I0403 14:43:36.334132 13568 layer_factory.hpp:77] Creating layer inception_4e/1x1
I0403 14:43:36.334153 13568 net.cpp:91] Creating Layer inception_4e/1x1
I0403 14:43:36.334170 13568 net.cpp:425] inception_4e/1x1 <- inception_4d/output_inception_4d/output_0_split_1
I0403 14:43:36.334187 13568 net.cpp:399] inception_4e/1x1 -> inception_4e/1x1
I0403 14:43:36.335966 13568 net.cpp:141] Setting up inception_4e/1x1
I0403 14:43:36.335994 13568 net.cpp:148] Top shape: 24 256 14 14 (1204224)
I0403 14:43:36.336009 13568 net.cpp:156] Memory required for data: 1213249056
I0403 14:43:36.336025 13568 layer_factory.hpp:77] Creating layer inception_4e/relu_1x1
I0403 14:43:36.336046 13568 net.cpp:91] Creating Layer inception_4e/relu_1x1
I0403 14:43:36.336061 13568 net.cpp:425] inception_4e/relu_1x1 <- inception_4e/1x1
I0403 14:43:36.336078 13568 net.cpp:386] inception_4e/relu_1x1 -> inception_4e/1x1 (in-place)
I0403 14:43:36.336369 13568 net.cpp:141] Setting up inception_4e/relu_1x1
I0403 14:43:36.336395 13568 net.cpp:148] Top shape: 24 256 14 14 (1204224)
I0403 14:43:36.336408 13568 net.cpp:156] Memory required for data: 1218065952
I0403 14:43:36.336422 13568 layer_factory.hpp:77] Creating layer inception_4e/3x3_reduce
I0403 14:43:36.336443 13568 net.cpp:91] Creating Layer inception_4e/3x3_reduce
I0403 14:43:36.336462 13568 net.cpp:425] inception_4e/3x3_reduce <- inception_4d/output_inception_4d/output_0_split_2
I0403 14:43:36.336482 13568 net.cpp:399] inception_4e/3x3_reduce -> inception_4e/3x3_reduce
I0403 14:43:36.338577 13568 net.cpp:141] Setting up inception_4e/3x3_reduce
I0403 14:43:36.338604 13568 net.cpp:148] Top shape: 24 160 14 14 (752640)
I0403 14:43:36.338619 13568 net.cpp:156] Memory required for data: 1221076512
I0403 14:43:36.338637 13568 layer_factory.hpp:77] Creating layer inception_4e/relu_3x3_reduce
I0403 14:43:36.338656 13568 net.cpp:91] Creating Layer inception_4e/relu_3x3_reduce
I0403 14:43:36.338673 13568 net.cpp:425] inception_4e/relu_3x3_reduce <- inception_4e/3x3_reduce
I0403 14:43:36.338690 13568 net.cpp:386] inception_4e/relu_3x3_reduce -> inception_4e/3x3_reduce (in-place)
I0403 14:43:36.338870 13568 net.cpp:141] Setting up inception_4e/relu_3x3_reduce
I0403 14:43:36.338896 13568 net.cpp:148] Top shape: 24 160 14 14 (752640)
I0403 14:43:36.338910 13568 net.cpp:156] Memory required for data: 1224087072
I0403 14:43:36.338924 13568 layer_factory.hpp:77] Creating layer inception_4e/3x3
I0403 14:43:36.338945 13568 net.cpp:91] Creating Layer inception_4e/3x3
I0403 14:43:36.338963 13568 net.cpp:425] inception_4e/3x3 <- inception_4e/3x3_reduce
I0403 14:43:36.338980 13568 net.cpp:399] inception_4e/3x3 -> inception_4e/3x3
I0403 14:43:36.343963 13568 net.cpp:141] Setting up inception_4e/3x3
I0403 14:43:36.344007 13568 net.cpp:148] Top shape: 24 320 14 14 (1505280)
I0403 14:43:36.344022 13568 net.cpp:156] Memory required for data: 1230108192
I0403 14:43:36.344040 13568 layer_factory.hpp:77] Creating layer inception_4e/relu_3x3
I0403 14:43:36.344058 13568 net.cpp:91] Creating Layer inception_4e/relu_3x3
I0403 14:43:36.344072 13568 net.cpp:425] inception_4e/relu_3x3 <- inception_4e/3x3
I0403 14:43:36.344089 13568 net.cpp:386] inception_4e/relu_3x3 -> inception_4e/3x3 (in-place)
I0403 14:43:36.344384 13568 net.cpp:141] Setting up inception_4e/relu_3x3
I0403 14:43:36.344410 13568 net.cpp:148] Top shape: 24 320 14 14 (1505280)
I0403 14:43:36.344425 13568 net.cpp:156] Memory required for data: 1236129312
I0403 14:43:36.344439 13568 layer_factory.hpp:77] Creating layer inception_4e/5x5_reduce
I0403 14:43:36.344462 13568 net.cpp:91] Creating Layer inception_4e/5x5_reduce
I0403 14:43:36.344480 13568 net.cpp:425] inception_4e/5x5_reduce <- inception_4d/output_inception_4d/output_0_split_3
I0403 14:43:36.344501 13568 net.cpp:399] inception_4e/5x5_reduce -> inception_4e/5x5_reduce
I0403 14:43:36.345582 13568 net.cpp:141] Setting up inception_4e/5x5_reduce
I0403 14:43:36.345609 13568 net.cpp:148] Top shape: 24 32 14 14 (150528)
I0403 14:43:36.345624 13568 net.cpp:156] Memory required for data: 1236731424
I0403 14:43:36.345643 13568 layer_factory.hpp:77] Creating layer inception_4e/relu_5x5_reduce
I0403 14:43:36.345662 13568 net.cpp:91] Creating Layer inception_4e/relu_5x5_reduce
I0403 14:43:36.345679 13568 net.cpp:425] inception_4e/relu_5x5_reduce <- inception_4e/5x5_reduce
I0403 14:43:36.345696 13568 net.cpp:386] inception_4e/relu_5x5_reduce -> inception_4e/5x5_reduce (in-place)
I0403 14:43:36.345998 13568 net.cpp:141] Setting up inception_4e/relu_5x5_reduce
I0403 14:43:36.346024 13568 net.cpp:148] Top shape: 24 32 14 14 (150528)
I0403 14:43:36.346037 13568 net.cpp:156] Memory required for data: 1237333536
I0403 14:43:36.346052 13568 layer_factory.hpp:77] Creating layer inception_4e/5x5
I0403 14:43:36.346091 13568 net.cpp:91] Creating Layer inception_4e/5x5
I0403 14:43:36.346110 13568 net.cpp:425] inception_4e/5x5 <- inception_4e/5x5_reduce
I0403 14:43:36.346128 13568 net.cpp:399] inception_4e/5x5 -> inception_4e/5x5
I0403 14:43:36.347985 13568 net.cpp:141] Setting up inception_4e/5x5
I0403 14:43:36.348012 13568 net.cpp:148] Top shape: 24 128 14 14 (602112)
I0403 14:43:36.348036 13568 net.cpp:156] Memory required for data: 1239741984
I0403 14:43:36.348057 13568 layer_factory.hpp:77] Creating layer inception_4e/relu_5x5
I0403 14:43:36.348076 13568 net.cpp:91] Creating Layer inception_4e/relu_5x5
I0403 14:43:36.348098 13568 net.cpp:425] inception_4e/relu_5x5 <- inception_4e/5x5
I0403 14:43:36.348116 13568 net.cpp:386] inception_4e/relu_5x5 -> inception_4e/5x5 (in-place)
I0403 14:43:36.348323 13568 net.cpp:141] Setting up inception_4e/relu_5x5
I0403 14:43:36.348348 13568 net.cpp:148] Top shape: 24 128 14 14 (602112)
I0403 14:43:36.348371 13568 net.cpp:156] Memory required for data: 1242150432
I0403 14:43:36.348390 13568 layer_factory.hpp:77] Creating layer inception_4e/pool
I0403 14:43:36.348412 13568 net.cpp:91] Creating Layer inception_4e/pool
I0403 14:43:36.348436 13568 net.cpp:425] inception_4e/pool <- inception_4d/output_inception_4d/output_0_split_4
I0403 14:43:36.348462 13568 net.cpp:399] inception_4e/pool -> inception_4e/pool
I0403 14:43:36.348546 13568 net.cpp:141] Setting up inception_4e/pool
I0403 14:43:36.348572 13568 net.cpp:148] Top shape: 24 528 14 14 (2483712)
I0403 14:43:36.348585 13568 net.cpp:156] Memory required for data: 1252085280
I0403 14:43:36.348599 13568 layer_factory.hpp:77] Creating layer inception_4e/pool_proj
I0403 14:43:36.348621 13568 net.cpp:91] Creating Layer inception_4e/pool_proj
I0403 14:43:36.348639 13568 net.cpp:425] inception_4e/pool_proj <- inception_4e/pool
I0403 14:43:36.348659 13568 net.cpp:399] inception_4e/pool_proj -> inception_4e/pool_proj
I0403 14:43:36.350241 13568 net.cpp:141] Setting up inception_4e/pool_proj
I0403 14:43:36.350283 13568 net.cpp:148] Top shape: 24 128 14 14 (602112)
I0403 14:43:36.350298 13568 net.cpp:156] Memory required for data: 1254493728
I0403 14:43:36.350317 13568 layer_factory.hpp:77] Creating layer inception_4e/relu_pool_proj
I0403 14:43:36.350334 13568 net.cpp:91] Creating Layer inception_4e/relu_pool_proj
I0403 14:43:36.350350 13568 net.cpp:425] inception_4e/relu_pool_proj <- inception_4e/pool_proj
I0403 14:43:36.350370 13568 net.cpp:386] inception_4e/relu_pool_proj -> inception_4e/pool_proj (in-place)
I0403 14:43:36.350683 13568 net.cpp:141] Setting up inception_4e/relu_pool_proj
I0403 14:43:36.350710 13568 net.cpp:148] Top shape: 24 128 14 14 (602112)
I0403 14:43:36.350726 13568 net.cpp:156] Memory required for data: 1256902176
I0403 14:43:36.350741 13568 layer_factory.hpp:77] Creating layer inception_4e/output
I0403 14:43:36.350759 13568 net.cpp:91] Creating Layer inception_4e/output
I0403 14:43:36.350775 13568 net.cpp:425] inception_4e/output <- inception_4e/1x1
I0403 14:43:36.350790 13568 net.cpp:425] inception_4e/output <- inception_4e/3x3
I0403 14:43:36.350806 13568 net.cpp:425] inception_4e/output <- inception_4e/5x5
I0403 14:43:36.350822 13568 net.cpp:425] inception_4e/output <- inception_4e/pool_proj
I0403 14:43:36.350841 13568 net.cpp:399] inception_4e/output -> inception_4e/output
I0403 14:43:36.350893 13568 net.cpp:141] Setting up inception_4e/output
I0403 14:43:36.350919 13568 net.cpp:148] Top shape: 24 832 14 14 (3913728)
I0403 14:43:36.350935 13568 net.cpp:156] Memory required for data: 1272557088
I0403 14:43:36.350950 13568 layer_factory.hpp:77] Creating layer pool4/3x3_s2
I0403 14:43:36.350967 13568 net.cpp:91] Creating Layer pool4/3x3_s2
I0403 14:43:36.350983 13568 net.cpp:425] pool4/3x3_s2 <- inception_4e/output
I0403 14:43:36.351004 13568 net.cpp:399] pool4/3x3_s2 -> pool4/3x3_s2
I0403 14:43:36.351073 13568 net.cpp:141] Setting up pool4/3x3_s2
I0403 14:43:36.351097 13568 net.cpp:148] Top shape: 24 832 7 7 (978432)
I0403 14:43:36.351112 13568 net.cpp:156] Memory required for data: 1276470816
I0403 14:43:36.351126 13568 layer_factory.hpp:77] Creating layer pool4/3x3_s2_pool4/3x3_s2_0_split
I0403 14:43:36.351145 13568 net.cpp:91] Creating Layer pool4/3x3_s2_pool4/3x3_s2_0_split
I0403 14:43:36.351162 13568 net.cpp:425] pool4/3x3_s2_pool4/3x3_s2_0_split <- pool4/3x3_s2
I0403 14:43:36.351179 13568 net.cpp:399] pool4/3x3_s2_pool4/3x3_s2_0_split -> pool4/3x3_s2_pool4/3x3_s2_0_split_0
I0403 14:43:36.351199 13568 net.cpp:399] pool4/3x3_s2_pool4/3x3_s2_0_split -> pool4/3x3_s2_pool4/3x3_s2_0_split_1
I0403 14:43:36.351220 13568 net.cpp:399] pool4/3x3_s2_pool4/3x3_s2_0_split -> pool4/3x3_s2_pool4/3x3_s2_0_split_2
I0403 14:43:36.351240 13568 net.cpp:399] pool4/3x3_s2_pool4/3x3_s2_0_split -> pool4/3x3_s2_pool4/3x3_s2_0_split_3
I0403 14:43:36.351335 13568 net.cpp:141] Setting up pool4/3x3_s2_pool4/3x3_s2_0_split
I0403 14:43:36.351357 13568 net.cpp:148] Top shape: 24 832 7 7 (978432)
I0403 14:43:36.351374 13568 net.cpp:148] Top shape: 24 832 7 7 (978432)
I0403 14:43:36.351389 13568 net.cpp:148] Top shape: 24 832 7 7 (978432)
I0403 14:43:36.351405 13568 net.cpp:148] Top shape: 24 832 7 7 (978432)
I0403 14:43:36.351419 13568 net.cpp:156] Memory required for data: 1292125728
I0403 14:43:36.351433 13568 layer_factory.hpp:77] Creating layer inception_5a/1x1
I0403 14:43:36.351455 13568 net.cpp:91] Creating Layer inception_5a/1x1
I0403 14:43:36.351475 13568 net.cpp:425] inception_5a/1x1 <- pool4/3x3_s2_pool4/3x3_s2_0_split_0
I0403 14:43:36.351495 13568 net.cpp:399] inception_5a/1x1 -> inception_5a/1x1
I0403 14:43:36.354475 13568 net.cpp:141] Setting up inception_5a/1x1
I0403 14:43:36.354506 13568 net.cpp:148] Top shape: 24 256 7 7 (301056)
I0403 14:43:36.354521 13568 net.cpp:156] Memory required for data: 1293329952
I0403 14:43:36.354549 13568 layer_factory.hpp:77] Creating layer inception_5a/relu_1x1
I0403 14:43:36.354573 13568 net.cpp:91] Creating Layer inception_5a/relu_1x1
I0403 14:43:36.354596 13568 net.cpp:425] inception_5a/relu_1x1 <- inception_5a/1x1
I0403 14:43:36.354614 13568 net.cpp:386] inception_5a/relu_1x1 -> inception_5a/1x1 (in-place)
I0403 14:43:36.354939 13568 net.cpp:141] Setting up inception_5a/relu_1x1
I0403 14:43:36.354967 13568 net.cpp:148] Top shape: 24 256 7 7 (301056)
I0403 14:43:36.354982 13568 net.cpp:156] Memory required for data: 1294534176
I0403 14:43:36.354997 13568 layer_factory.hpp:77] Creating layer inception_5a/3x3_reduce
I0403 14:43:36.355023 13568 net.cpp:91] Creating Layer inception_5a/3x3_reduce
I0403 14:43:36.355042 13568 net.cpp:425] inception_5a/3x3_reduce <- pool4/3x3_s2_pool4/3x3_s2_0_split_1
I0403 14:43:36.355064 13568 net.cpp:399] inception_5a/3x3_reduce -> inception_5a/3x3_reduce
I0403 14:43:36.358266 13568 net.cpp:141] Setting up inception_5a/3x3_reduce
I0403 14:43:36.358297 13568 net.cpp:148] Top shape: 24 160 7 7 (188160)
I0403 14:43:36.358314 13568 net.cpp:156] Memory required for data: 1295286816
I0403 14:43:36.358332 13568 layer_factory.hpp:77] Creating layer inception_5a/relu_3x3_reduce
I0403 14:43:36.358351 13568 net.cpp:91] Creating Layer inception_5a/relu_3x3_reduce
I0403 14:43:36.358368 13568 net.cpp:425] inception_5a/relu_3x3_reduce <- inception_5a/3x3_reduce
I0403 14:43:36.358388 13568 net.cpp:386] inception_5a/relu_3x3_reduce -> inception_5a/3x3_reduce (in-place)
I0403 14:43:36.358592 13568 net.cpp:141] Setting up inception_5a/relu_3x3_reduce
I0403 14:43:36.358618 13568 net.cpp:148] Top shape: 24 160 7 7 (188160)
I0403 14:43:36.358633 13568 net.cpp:156] Memory required for data: 1296039456
I0403 14:43:36.358649 13568 layer_factory.hpp:77] Creating layer inception_5a/3x3
I0403 14:43:36.358670 13568 net.cpp:91] Creating Layer inception_5a/3x3
I0403 14:43:36.358688 13568 net.cpp:425] inception_5a/3x3 <- inception_5a/3x3_reduce
I0403 14:43:36.358711 13568 net.cpp:399] inception_5a/3x3 -> inception_5a/3x3
I0403 14:43:36.364020 13568 net.cpp:141] Setting up inception_5a/3x3
I0403 14:43:36.364051 13568 net.cpp:148] Top shape: 24 320 7 7 (376320)
I0403 14:43:36.364066 13568 net.cpp:156] Memory required for data: 1297544736
I0403 14:43:36.364085 13568 layer_factory.hpp:77] Creating layer inception_5a/relu_3x3
I0403 14:43:36.364106 13568 net.cpp:91] Creating Layer inception_5a/relu_3x3
I0403 14:43:36.364122 13568 net.cpp:425] inception_5a/relu_3x3 <- inception_5a/3x3
I0403 14:43:36.364143 13568 net.cpp:386] inception_5a/relu_3x3 -> inception_5a/3x3 (in-place)
I0403 14:43:36.364439 13568 net.cpp:141] Setting up inception_5a/relu_3x3
I0403 14:43:36.364464 13568 net.cpp:148] Top shape: 24 320 7 7 (376320)
I0403 14:43:36.364480 13568 net.cpp:156] Memory required for data: 1299050016
I0403 14:43:36.364495 13568 layer_factory.hpp:77] Creating layer inception_5a/5x5_reduce
I0403 14:43:36.364516 13568 net.cpp:91] Creating Layer inception_5a/5x5_reduce
I0403 14:43:36.364534 13568 net.cpp:425] inception_5a/5x5_reduce <- pool4/3x3_s2_pool4/3x3_s2_0_split_2
I0403 14:43:36.364573 13568 net.cpp:399] inception_5a/5x5_reduce -> inception_5a/5x5_reduce
I0403 14:43:36.365764 13568 net.cpp:141] Setting up inception_5a/5x5_reduce
I0403 14:43:36.365792 13568 net.cpp:148] Top shape: 24 32 7 7 (37632)
I0403 14:43:36.365808 13568 net.cpp:156] Memory required for data: 1299200544
I0403 14:43:36.365826 13568 layer_factory.hpp:77] Creating layer inception_5a/relu_5x5_reduce
I0403 14:43:36.365846 13568 net.cpp:91] Creating Layer inception_5a/relu_5x5_reduce
I0403 14:43:36.365864 13568 net.cpp:425] inception_5a/relu_5x5_reduce <- inception_5a/5x5_reduce
I0403 14:43:36.365880 13568 net.cpp:386] inception_5a/relu_5x5_reduce -> inception_5a/5x5_reduce (in-place)
I0403 14:43:36.366189 13568 net.cpp:141] Setting up inception_5a/relu_5x5_reduce
I0403 14:43:36.366214 13568 net.cpp:148] Top shape: 24 32 7 7 (37632)
I0403 14:43:36.366230 13568 net.cpp:156] Memory required for data: 1299351072
I0403 14:43:36.366243 13568 layer_factory.hpp:77] Creating layer inception_5a/5x5
I0403 14:43:36.366266 13568 net.cpp:91] Creating Layer inception_5a/5x5
I0403 14:43:36.366283 13568 net.cpp:425] inception_5a/5x5 <- inception_5a/5x5_reduce
I0403 14:43:36.366304 13568 net.cpp:399] inception_5a/5x5 -> inception_5a/5x5
I0403 14:43:36.368055 13568 net.cpp:141] Setting up inception_5a/5x5
I0403 14:43:36.368098 13568 net.cpp:148] Top shape: 24 128 7 7 (150528)
I0403 14:43:36.368113 13568 net.cpp:156] Memory required for data: 1299953184
I0403 14:43:36.368131 13568 layer_factory.hpp:77] Creating layer inception_5a/relu_5x5
I0403 14:43:36.368152 13568 net.cpp:91] Creating Layer inception_5a/relu_5x5
I0403 14:43:36.368170 13568 net.cpp:425] inception_5a/relu_5x5 <- inception_5a/5x5
I0403 14:43:36.368186 13568 net.cpp:386] inception_5a/relu_5x5 -> inception_5a/5x5 (in-place)
I0403 14:43:36.368378 13568 net.cpp:141] Setting up inception_5a/relu_5x5
I0403 14:43:36.368402 13568 net.cpp:148] Top shape: 24 128 7 7 (150528)
I0403 14:43:36.368417 13568 net.cpp:156] Memory required for data: 1300555296
I0403 14:43:36.368432 13568 layer_factory.hpp:77] Creating layer inception_5a/pool
I0403 14:43:36.368450 13568 net.cpp:91] Creating Layer inception_5a/pool
I0403 14:43:36.368468 13568 net.cpp:425] inception_5a/pool <- pool4/3x3_s2_pool4/3x3_s2_0_split_3
I0403 14:43:36.368484 13568 net.cpp:399] inception_5a/pool -> inception_5a/pool
I0403 14:43:36.368563 13568 net.cpp:141] Setting up inception_5a/pool
I0403 14:43:36.368587 13568 net.cpp:148] Top shape: 24 832 7 7 (978432)
I0403 14:43:36.368602 13568 net.cpp:156] Memory required for data: 1304469024
I0403 14:43:36.368616 13568 layer_factory.hpp:77] Creating layer inception_5a/pool_proj
I0403 14:43:36.368638 13568 net.cpp:91] Creating Layer inception_5a/pool_proj
I0403 14:43:36.368655 13568 net.cpp:425] inception_5a/pool_proj <- inception_5a/pool
I0403 14:43:36.368675 13568 net.cpp:399] inception_5a/pool_proj -> inception_5a/pool_proj
I0403 14:43:36.371057 13568 net.cpp:141] Setting up inception_5a/pool_proj
I0403 14:43:36.371086 13568 net.cpp:148] Top shape: 24 128 7 7 (150528)
I0403 14:43:36.371101 13568 net.cpp:156] Memory required for data: 1305071136
I0403 14:43:36.371119 13568 layer_factory.hpp:77] Creating layer inception_5a/relu_pool_proj
I0403 14:43:36.371137 13568 net.cpp:91] Creating Layer inception_5a/relu_pool_proj
I0403 14:43:36.371152 13568 net.cpp:425] inception_5a/relu_pool_proj <- inception_5a/pool_proj
I0403 14:43:36.371171 13568 net.cpp:386] inception_5a/relu_pool_proj -> inception_5a/pool_proj (in-place)
I0403 14:43:36.371471 13568 net.cpp:141] Setting up inception_5a/relu_pool_proj
I0403 14:43:36.371497 13568 net.cpp:148] Top shape: 24 128 7 7 (150528)
I0403 14:43:36.371512 13568 net.cpp:156] Memory required for data: 1305673248
I0403 14:43:36.371526 13568 layer_factory.hpp:77] Creating layer inception_5a/output
I0403 14:43:36.371551 13568 net.cpp:91] Creating Layer inception_5a/output
I0403 14:43:36.371567 13568 net.cpp:425] inception_5a/output <- inception_5a/1x1
I0403 14:43:36.371584 13568 net.cpp:425] inception_5a/output <- inception_5a/3x3
I0403 14:43:36.371599 13568 net.cpp:425] inception_5a/output <- inception_5a/5x5
I0403 14:43:36.371615 13568 net.cpp:425] inception_5a/output <- inception_5a/pool_proj
I0403 14:43:36.371634 13568 net.cpp:399] inception_5a/output -> inception_5a/output
I0403 14:43:36.371685 13568 net.cpp:141] Setting up inception_5a/output
I0403 14:43:36.371711 13568 net.cpp:148] Top shape: 24 832 7 7 (978432)
I0403 14:43:36.371726 13568 net.cpp:156] Memory required for data: 1309586976
I0403 14:43:36.371740 13568 layer_factory.hpp:77] Creating layer inception_5a/output_inception_5a/output_0_split
I0403 14:43:36.371757 13568 net.cpp:91] Creating Layer inception_5a/output_inception_5a/output_0_split
I0403 14:43:36.371773 13568 net.cpp:425] inception_5a/output_inception_5a/output_0_split <- inception_5a/output
I0403 14:43:36.371788 13568 net.cpp:399] inception_5a/output_inception_5a/output_0_split -> inception_5a/output_inception_5a/output_0_split_0
I0403 14:43:36.371809 13568 net.cpp:399] inception_5a/output_inception_5a/output_0_split -> inception_5a/output_inception_5a/output_0_split_1
I0403 14:43:36.371830 13568 net.cpp:399] inception_5a/output_inception_5a/output_0_split -> inception_5a/output_inception_5a/output_0_split_2
I0403 14:43:36.371852 13568 net.cpp:399] inception_5a/output_inception_5a/output_0_split -> inception_5a/output_inception_5a/output_0_split_3
I0403 14:43:36.371964 13568 net.cpp:141] Setting up inception_5a/output_inception_5a/output_0_split
I0403 14:43:36.371989 13568 net.cpp:148] Top shape: 24 832 7 7 (978432)
I0403 14:43:36.372004 13568 net.cpp:148] Top shape: 24 832 7 7 (978432)
I0403 14:43:36.372020 13568 net.cpp:148] Top shape: 24 832 7 7 (978432)
I0403 14:43:36.372035 13568 net.cpp:148] Top shape: 24 832 7 7 (978432)
I0403 14:43:36.372047 13568 net.cpp:156] Memory required for data: 1325241888
I0403 14:43:36.372061 13568 layer_factory.hpp:77] Creating layer inception_5b/1x1
I0403 14:43:36.372083 13568 net.cpp:91] Creating Layer inception_5b/1x1
I0403 14:43:36.372100 13568 net.cpp:425] inception_5b/1x1 <- inception_5a/output_inception_5a/output_0_split_0
I0403 14:43:36.372122 13568 net.cpp:399] inception_5b/1x1 -> inception_5b/1x1
I0403 14:43:36.375948 13568 net.cpp:141] Setting up inception_5b/1x1
I0403 14:43:36.375980 13568 net.cpp:148] Top shape: 24 384 7 7 (451584)
I0403 14:43:36.375998 13568 net.cpp:156] Memory required for data: 1327048224
I0403 14:43:36.376015 13568 layer_factory.hpp:77] Creating layer inception_5b/relu_1x1
I0403 14:43:36.376034 13568 net.cpp:91] Creating Layer inception_5b/relu_1x1
I0403 14:43:36.376049 13568 net.cpp:425] inception_5b/relu_1x1 <- inception_5b/1x1
I0403 14:43:36.376068 13568 net.cpp:386] inception_5b/relu_1x1 -> inception_5b/1x1 (in-place)
I0403 14:43:36.376376 13568 net.cpp:141] Setting up inception_5b/relu_1x1
I0403 14:43:36.376405 13568 net.cpp:148] Top shape: 24 384 7 7 (451584)
I0403 14:43:36.376420 13568 net.cpp:156] Memory required for data: 1328854560
I0403 14:43:36.376435 13568 layer_factory.hpp:77] Creating layer inception_5b/3x3_reduce
I0403 14:43:36.376457 13568 net.cpp:91] Creating Layer inception_5b/3x3_reduce
I0403 14:43:36.376476 13568 net.cpp:425] inception_5b/3x3_reduce <- inception_5a/output_inception_5a/output_0_split_1
I0403 14:43:36.376493 13568 net.cpp:399] inception_5b/3x3_reduce -> inception_5b/3x3_reduce
I0403 14:43:36.379202 13568 net.cpp:141] Setting up inception_5b/3x3_reduce
I0403 14:43:36.379233 13568 net.cpp:148] Top shape: 24 192 7 7 (225792)
I0403 14:43:36.379250 13568 net.cpp:156] Memory required for data: 1329757728
I0403 14:43:36.379268 13568 layer_factory.hpp:77] Creating layer inception_5b/relu_3x3_reduce
I0403 14:43:36.379286 13568 net.cpp:91] Creating Layer inception_5b/relu_3x3_reduce
I0403 14:43:36.379302 13568 net.cpp:425] inception_5b/relu_3x3_reduce <- inception_5b/3x3_reduce
I0403 14:43:36.379320 13568 net.cpp:386] inception_5b/relu_3x3_reduce -> inception_5b/3x3_reduce (in-place)
I0403 14:43:36.379514 13568 net.cpp:141] Setting up inception_5b/relu_3x3_reduce
I0403 14:43:36.379544 13568 net.cpp:148] Top shape: 24 192 7 7 (225792)
I0403 14:43:36.379560 13568 net.cpp:156] Memory required for data: 1330660896
I0403 14:43:36.379575 13568 layer_factory.hpp:77] Creating layer inception_5b/3x3
I0403 14:43:36.379596 13568 net.cpp:91] Creating Layer inception_5b/3x3
I0403 14:43:36.379614 13568 net.cpp:425] inception_5b/3x3 <- inception_5b/3x3_reduce
I0403 14:43:36.379636 13568 net.cpp:399] inception_5b/3x3 -> inception_5b/3x3
I0403 14:43:36.386438 13568 net.cpp:141] Setting up inception_5b/3x3
I0403 14:43:36.386467 13568 net.cpp:148] Top shape: 24 384 7 7 (451584)
I0403 14:43:36.386482 13568 net.cpp:156] Memory required for data: 1332467232
I0403 14:43:36.386500 13568 layer_factory.hpp:77] Creating layer inception_5b/relu_3x3
I0403 14:43:36.386518 13568 net.cpp:91] Creating Layer inception_5b/relu_3x3
I0403 14:43:36.386534 13568 net.cpp:425] inception_5b/relu_3x3 <- inception_5b/3x3
I0403 14:43:36.386560 13568 net.cpp:386] inception_5b/relu_3x3 -> inception_5b/3x3 (in-place)
I0403 14:43:36.386863 13568 net.cpp:141] Setting up inception_5b/relu_3x3
I0403 14:43:36.386889 13568 net.cpp:148] Top shape: 24 384 7 7 (451584)
I0403 14:43:36.386904 13568 net.cpp:156] Memory required for data: 1334273568
I0403 14:43:36.386919 13568 layer_factory.hpp:77] Creating layer inception_5b/5x5_reduce
I0403 14:43:36.386960 13568 net.cpp:91] Creating Layer inception_5b/5x5_reduce
I0403 14:43:36.386977 13568 net.cpp:425] inception_5b/5x5_reduce <- inception_5a/output_inception_5a/output_0_split_2
I0403 14:43:36.387001 13568 net.cpp:399] inception_5b/5x5_reduce -> inception_5b/5x5_reduce
I0403 14:43:36.388288 13568 net.cpp:141] Setting up inception_5b/5x5_reduce
I0403 14:43:36.388315 13568 net.cpp:148] Top shape: 24 48 7 7 (56448)
I0403 14:43:36.388330 13568 net.cpp:156] Memory required for data: 1334499360
I0403 14:43:36.388348 13568 layer_factory.hpp:77] Creating layer inception_5b/relu_5x5_reduce
I0403 14:43:36.388366 13568 net.cpp:91] Creating Layer inception_5b/relu_5x5_reduce
I0403 14:43:36.388382 13568 net.cpp:425] inception_5b/relu_5x5_reduce <- inception_5b/5x5_reduce
I0403 14:43:36.388402 13568 net.cpp:386] inception_5b/relu_5x5_reduce -> inception_5b/5x5_reduce (in-place)
I0403 14:43:36.388787 13568 net.cpp:141] Setting up inception_5b/relu_5x5_reduce
I0403 14:43:36.388814 13568 net.cpp:148] Top shape: 24 48 7 7 (56448)
I0403 14:43:36.388828 13568 net.cpp:156] Memory required for data: 1334725152
I0403 14:43:36.388844 13568 layer_factory.hpp:77] Creating layer inception_5b/5x5
I0403 14:43:36.388864 13568 net.cpp:91] Creating Layer inception_5b/5x5
I0403 14:43:36.388880 13568 net.cpp:425] inception_5b/5x5 <- inception_5b/5x5_reduce
I0403 14:43:36.388898 13568 net.cpp:399] inception_5b/5x5 -> inception_5b/5x5
I0403 14:43:36.390987 13568 net.cpp:141] Setting up inception_5b/5x5
I0403 14:43:36.391016 13568 net.cpp:148] Top shape: 24 128 7 7 (150528)
I0403 14:43:36.391031 13568 net.cpp:156] Memory required for data: 1335327264
I0403 14:43:36.391048 13568 layer_factory.hpp:77] Creating layer inception_5b/relu_5x5
I0403 14:43:36.391067 13568 net.cpp:91] Creating Layer inception_5b/relu_5x5
I0403 14:43:36.391085 13568 net.cpp:425] inception_5b/relu_5x5 <- inception_5b/5x5
I0403 14:43:36.391101 13568 net.cpp:386] inception_5b/relu_5x5 -> inception_5b/5x5 (in-place)
I0403 14:43:36.391296 13568 net.cpp:141] Setting up inception_5b/relu_5x5
I0403 14:43:36.391324 13568 net.cpp:148] Top shape: 24 128 7 7 (150528)
I0403 14:43:36.391340 13568 net.cpp:156] Memory required for data: 1335929376
I0403 14:43:36.391353 13568 layer_factory.hpp:77] Creating layer inception_5b/pool
I0403 14:43:36.391371 13568 net.cpp:91] Creating Layer inception_5b/pool
I0403 14:43:36.391387 13568 net.cpp:425] inception_5b/pool <- inception_5a/output_inception_5a/output_0_split_3
I0403 14:43:36.391404 13568 net.cpp:399] inception_5b/pool -> inception_5b/pool
I0403 14:43:36.391477 13568 net.cpp:141] Setting up inception_5b/pool
I0403 14:43:36.391501 13568 net.cpp:148] Top shape: 24 832 7 7 (978432)
I0403 14:43:36.391515 13568 net.cpp:156] Memory required for data: 1339843104
I0403 14:43:36.391546 13568 layer_factory.hpp:77] Creating layer inception_5b/pool_proj
I0403 14:43:36.391569 13568 net.cpp:91] Creating Layer inception_5b/pool_proj
I0403 14:43:36.391587 13568 net.cpp:425] inception_5b/pool_proj <- inception_5b/pool
I0403 14:43:36.391607 13568 net.cpp:399] inception_5b/pool_proj -> inception_5b/pool_proj
I0403 14:43:36.393893 13568 net.cpp:141] Setting up inception_5b/pool_proj
I0403 14:43:36.393920 13568 net.cpp:148] Top shape: 24 128 7 7 (150528)
I0403 14:43:36.393935 13568 net.cpp:156] Memory required for data: 1340445216
I0403 14:43:36.393954 13568 layer_factory.hpp:77] Creating layer inception_5b/relu_pool_proj
I0403 14:43:36.393972 13568 net.cpp:91] Creating Layer inception_5b/relu_pool_proj
I0403 14:43:36.393988 13568 net.cpp:425] inception_5b/relu_pool_proj <- inception_5b/pool_proj
I0403 14:43:36.394006 13568 net.cpp:386] inception_5b/relu_pool_proj -> inception_5b/pool_proj (in-place)
I0403 14:43:36.394297 13568 net.cpp:141] Setting up inception_5b/relu_pool_proj
I0403 14:43:36.394322 13568 net.cpp:148] Top shape: 24 128 7 7 (150528)
I0403 14:43:36.394338 13568 net.cpp:156] Memory required for data: 1341047328
I0403 14:43:36.394352 13568 layer_factory.hpp:77] Creating layer inception_5b/output
I0403 14:43:36.394369 13568 net.cpp:91] Creating Layer inception_5b/output
I0403 14:43:36.394399 13568 net.cpp:425] inception_5b/output <- inception_5b/1x1
I0403 14:43:36.394417 13568 net.cpp:425] inception_5b/output <- inception_5b/3x3
I0403 14:43:36.394431 13568 net.cpp:425] inception_5b/output <- inception_5b/5x5
I0403 14:43:36.394446 13568 net.cpp:425] inception_5b/output <- inception_5b/pool_proj
I0403 14:43:36.394465 13568 net.cpp:399] inception_5b/output -> inception_5b/output
I0403 14:43:36.394515 13568 net.cpp:141] Setting up inception_5b/output
I0403 14:43:36.394565 13568 net.cpp:148] Top shape: 24 1024 7 7 (1204224)
I0403 14:43:36.394584 13568 net.cpp:156] Memory required for data: 1345864224
I0403 14:43:36.394599 13568 layer_factory.hpp:77] Creating layer pool5/7x7_s1
I0403 14:43:36.394616 13568 net.cpp:91] Creating Layer pool5/7x7_s1
I0403 14:43:36.394631 13568 net.cpp:425] pool5/7x7_s1 <- inception_5b/output
I0403 14:43:36.394654 13568 net.cpp:399] pool5/7x7_s1 -> pool5/7x7_s1
I0403 14:43:36.394870 13568 net.cpp:141] Setting up pool5/7x7_s1
I0403 14:43:36.394896 13568 net.cpp:148] Top shape: 24 1024 1 1 (24576)
I0403 14:43:36.394911 13568 net.cpp:156] Memory required for data: 1345962528
I0403 14:43:36.394924 13568 layer_factory.hpp:77] Creating layer pool5/drop_7x7_s1
I0403 14:43:36.394942 13568 net.cpp:91] Creating Layer pool5/drop_7x7_s1
I0403 14:43:36.394960 13568 net.cpp:425] pool5/drop_7x7_s1 <- pool5/7x7_s1
I0403 14:43:36.394978 13568 net.cpp:386] pool5/drop_7x7_s1 -> pool5/7x7_s1 (in-place)
I0403 14:43:36.395026 13568 net.cpp:141] Setting up pool5/drop_7x7_s1
I0403 14:43:36.395051 13568 net.cpp:148] Top shape: 24 1024 1 1 (24576)
I0403 14:43:36.395066 13568 net.cpp:156] Memory required for data: 1346060832
I0403 14:43:36.395081 13568 layer_factory.hpp:77] Creating layer loss3/classifier_plantvillage
I0403 14:43:36.395100 13568 net.cpp:91] Creating Layer loss3/classifier_plantvillage
I0403 14:43:36.395115 13568 net.cpp:425] loss3/classifier_plantvillage <- pool5/7x7_s1
I0403 14:43:36.395136 13568 net.cpp:399] loss3/classifier_plantvillage -> loss3/classifier_plantvillage
I0403 14:43:36.395572 13568 net.cpp:141] Setting up loss3/classifier_plantvillage
I0403 14:43:36.395598 13568 net.cpp:148] Top shape: 24 38 (912)
I0403 14:43:36.395613 13568 net.cpp:156] Memory required for data: 1346064480
I0403 14:43:36.395632 13568 layer_factory.hpp:77] Creating layer loss3/classifier_plantvillage_loss3/classifier_plantvillage_0_split
I0403 14:43:36.395649 13568 net.cpp:91] Creating Layer loss3/classifier_plantvillage_loss3/classifier_plantvillage_0_split
I0403 14:43:36.395664 13568 net.cpp:425] loss3/classifier_plantvillage_loss3/classifier_plantvillage_0_split <- loss3/classifier_plantvillage
I0403 14:43:36.395681 13568 net.cpp:399] loss3/classifier_plantvillage_loss3/classifier_plantvillage_0_split -> loss3/classifier_plantvillage_loss3/classifier_plantvillage_0_split_0
I0403 14:43:36.395706 13568 net.cpp:399] loss3/classifier_plantvillage_loss3/classifier_plantvillage_0_split -> loss3/classifier_plantvillage_loss3/classifier_plantvillage_0_split_1
I0403 14:43:36.395728 13568 net.cpp:399] loss3/classifier_plantvillage_loss3/classifier_plantvillage_0_split -> loss3/classifier_plantvillage_loss3/classifier_plantvillage_0_split_2
I0403 14:43:36.395748 13568 net.cpp:399] loss3/classifier_plantvillage_loss3/classifier_plantvillage_0_split -> loss3/classifier_plantvillage_loss3/classifier_plantvillage_0_split_3
I0403 14:43:36.395853 13568 net.cpp:141] Setting up loss3/classifier_plantvillage_loss3/classifier_plantvillage_0_split
I0403 14:43:36.395875 13568 net.cpp:148] Top shape: 24 38 (912)
I0403 14:43:36.395891 13568 net.cpp:148] Top shape: 24 38 (912)
I0403 14:43:36.395905 13568 net.cpp:148] Top shape: 24 38 (912)
I0403 14:43:36.395920 13568 net.cpp:148] Top shape: 24 38 (912)
I0403 14:43:36.395933 13568 net.cpp:156] Memory required for data: 1346079072
I0403 14:43:36.395947 13568 layer_factory.hpp:77] Creating layer loss1/loss
I0403 14:43:36.395970 13568 net.cpp:91] Creating Layer loss1/loss
I0403 14:43:36.395988 13568 net.cpp:425] loss1/loss <- loss1/classifier_plantvillage_loss1/classifier_plantvillage_0_split_0
I0403 14:43:36.396019 13568 net.cpp:425] loss1/loss <- label_data_1_split_0
…
