…
I0403 14:35:19.781805 13433 net.cpp:313] The NetState phase (1) differed from the phase (0) specified by a rule in layer data
I0403 14:35:19.782946 13433 net.cpp:49] Initializing net from parameters: 
state {
  phase: TEST
}
layer {
  name: "data"
  type: "Data"
  top: "data"
  top: "label"
  include {
    phase: TEST
  }
  transform_param {
    mirror: false
    crop_size: 224
    mean_file: "/home/mohanty/data/final_dataset/lmdb/segmented-20-80/mean.binaryproto"
  }
  data_param {
    source: "/home/mohanty/data/final_dataset/lmdb/segmented-20-80/test_db"
    batch_size: 24
    backend: LMDB
  }
}
layer {
  name: "conv1/7x7_s2"
  type: "Convolution"
  bottom: "data"
  top: "conv1/7x7_s2"
  param {
    lr_mult: 1
    decay_mult: 1
  }
  param {
    lr_mult: 2
    decay_mult: 0
  }
  convolution_param {
    num_output: 64
    pad: 3
    kernel_size: 7
    stride: 2
    weight_filler {
      type: "xavier"
      std: 0.1
    }
    bias_filler {
      type: "constant"
      value: 0.2
    }
  }
}
layer {
  name: "conv1/relu_7x7"
  type: "ReLU"
  bottom: "conv1/7x7_s2"
  top: "conv1/7x7_s2"
}
layer {
  name: "pool1/3x3_s2"
  type: "Pooling"
  bottom: "conv1/7x7_s2"
  top: "pool1/3x3_s2"
  pooling_param {
    pool: MAX
    kernel_size: 3
    stride: 2
  }
}
layer {
  name: "pool1/norm1"
  type: "LRN"
  bottom: "pool1/3x3_s2"
  top: "pool1/norm1"
  lrn_param {
    local_size: 5
    alpha: 0.0001
    beta: 0.75
  }
}
layer {
  name: "conv2/3x3_reduce"
  type: "Convolution"
  bottom: "pool1/norm1"
  top: "conv2/3x3_reduce"
  param {
    lr_mult: 1
    decay_mult: 1
  }
  param {
    lr_mult: 2
    decay_mult: 0
  }
  convolution_param {
    num_output: 64
    kernel_size: 1
    weight_filler {
      type: "xavier"
      std: 0.1
    }
    bias_filler {
      type: "constant"
      value: 0.2
    }
  }
}
layer {
  name: "conv2/relu_3x3_reduce"
  type: "ReLU"
  bottom: "conv2/3x3_reduce"
  top: "conv2/3x3_reduce"
}
layer {
  name: "conv2/3x3"
  type: "Convolution"
  bottom: "conv2/3x3_reduce"
  top: "conv2/3x3"
  param {
    lr_mult: 1
    decay_mult: 1
  }
  param {
    lr_mult: 2
    decay_mult: 0
  }
  convolution_param {
    num_output: 192
    pad: 1
    kernel_size: 3
    weight_filler {
      type: "xavier"
      std: 0.03
    }
    bias_filler {
      type: "constant"
      value: 0.2
    }
  }
}
layer {
  name: "conv2/relu_3x3"
  type: "ReLU"
  bottom: "conv2/3x3"
  top: "conv2/3x3"
}
layer {
  name: "conv2/norm2"
  type: "LRN"
  bottom: "conv2/3x3"
  top: "conv2/norm2"
  lrn_param {
    local_size: 5
    alpha: 0.0001
    beta: 0.75
  }
}
layer {
  name: "pool2/3x3_s2"
  type: "Pooling"
  bottom: "conv2/norm2"
  top: "pool2/3x3_s2"
  pooling_param {
    pool: MAX
    kernel_size: 3
    stride: 2
  }
}
layer {
  name: "inception_3a/1x1"
  type: "Convolution"
  bottom: "pool2/3x3_s2"
  top: "inception_3a/1x1"
  param {
    lr_mult: 1
    decay_mult: 1
  }
  param {
    lr_mult: 2
    decay_mult: 0
  }
  convolution_param {
    num_output: 64
    kernel_size: 1
    weight_filler {
      type: "xavier"
      std: 0.03
    }
    bias_filler {
      type: "constant"
      value: 0.2
    }
  }
}
layer {
  name: "inception_3a/relu_1x1"
  type: "ReLU"
  bottom: "inception_3a/1x1"
  top: "inception_3a/1x1"
}
layer {
  name: "inception_3a/3x3_reduce"
  type: "Convolution"
  bottom: "pool2/3x3_s2"
  top: "inception_3a/3x3_reduce"
  param {
    lr_mult: 1
    decay_mult: 1
  }
  param {
    lr_mult: 2
    decay_mult: 0
  }
  convolution_param {
    num_output: 96
    kernel_size: 1
    weight_filler {
      type: "xavier"
      std: 0.09
    }
    bias_filler {
      type: "constant"
      value: 0.2
    }
  }
}
layer {
  name: "inception_3a/relu_3x3_reduce"
  type: "ReLU"
  bottom: "inception_3a/3x3_reduce"
  top: "inception_3a/3x3_reduce"
}
layer {
  name: "inception_3a/3x3"
  type: "Convolution"
  bottom: "inception_3a/3x3_reduce"
  top: "inception_3a/3x3"
  param {
    lr_mult: 1
    decay_mult: 1
  }
  param {
    lr_mult: 2
    decay_mult: 0
  }
  convolution_param {
    num_output: 128
    pad: 1
    kernel_size: 3
    weight_filler {
      type: "xavier"
      std: 0.03
    }
    bias_filler {
      type: "constant"
      value: 0.2
    }
  }
}
layer {
  name: "inception_3a/relu_3x3"
  type: "ReLU"
  bottom: "inception_3a/3x3"
  top: "inception_3a/3x3"
}
layer {
  name: "inception_3a/5x5_reduce"
  type: "Convolution"
  bottom: "pool2/3x3_s2"
  top: "inception_3a/5x5_reduce"
  param {
    lr_mult: 1
    decay_mult: 1
  }
  param {
    lr_mult: 2
    decay_mult: 0
  }
  convolution_param {
    num_output: 16
    kernel_size: 1
    weight_filler {
      type: "xavier"
      std: 0.2
    }
    bias_filler {
      type: "constant"
      value: 0.2
    }
  }
}
layer {
  name: "inception_3a/relu_5x5_reduce"
  type: "ReLU"
  bottom: "inception_3a/5x5_reduce"
  top: "inception_3a/5x5_reduce"
}
layer {
  name: "inception_3a/5x5"
  type: "Convolution"
  bottom: "inception_3a/5x5_reduce"
  top: "inception_3a/5x5"
  param {
    lr_mult: 1
    decay_mult: 1
  }
  param {
    lr_mult: 2
    decay_mult: 0
  }
  convolution_param {
    num_output: 32
    pad: 2
    kernel_size: 5
    weight_filler {
      type: "xavier"
      std: 0.03
    }
    bias_filler {
      type: "constant"
      value: 0.2
    }
  }
}
layer {
  name: "inception_3a/relu_5x5"
  type: "ReLU"
  bottom: "inception_3a/5x5"
  top: "inception_3a/5x5"
}
layer {
  name: "inception_3a/pool"
  type: "Pooling"
  bottom: "pool2/3x3_s2"
  top: "inception_3a/pool"
  pooling_param {
    pool: MAX
    kernel_size: 3
    stride: 1
    pad: 1
  }
}
layer {
  name: "inception_3a/pool_proj"
  type: "Convolution"
  bottom: "inception_3a/pool"
  top: "inception_3a/pool_proj"
  param {
    lr_mult: 1
    decay_mult: 1
  }
  param {
    lr_mult: 2
    decay_mult: 0
  }
  convolution_param {
    num_output: 32
    kernel_size: 1
    weight_filler {
      type: "xavier"
      std: 0.1
    }
    bias_filler {
      type: "constant"
      value: 0.2
    }
  }
}
layer {
  name: "inception_3a/relu_pool_proj"
  type: "ReLU"
  bottom: "inception_3a/pool_proj"
  top: "inception_3a/pool_proj"
}
layer {
  name: "inception_3a/output"
  type: "Concat"
  bottom: "inception_3a/1x1"
  bottom: "inception_3a/3x3"
  bottom: "inception_3a/5x5"
  bottom: "inception_3a/pool_proj"
  top: "inception_3a/output"
}
layer {
  name: "inception_3b/1x1"
  type: "Convolution"
  bottom: "inception_3a/output"
  top: "inception_3b/1x1"
  param {
    lr_mult: 1
    decay_mult: 1
  }
  param {
    lr_mult: 2
    decay_mult: 0
  }
  convolution_param {
    num_output: 128
    kernel_size: 1
    weight_filler {
      type: "xavier"
      std: 0.03
    }
    bias_filler {
      type: "constant"
      value: 0.2
    }
  }
}
layer {
  name: "inception_3b/relu_1x1"
  type: "ReLU"
  bottom: "inception_3b/1x1"
  top: "inception_3b/1x1"
}
layer {
  name: "inception_3b/3x3_reduce"
  type: "Convolution"
  bottom: "inception_3a/output"
  top: "inception_3b/3x3_reduce"
  param {
    lr_mult: 1
    decay_mult: 1
  }
  param {
    lr_mult: 2
    decay_mult: 0
  }
  convolution_param {
    num_output: 128
    kernel_size: 1
    weight_filler {
      type: "xavier"
      std: 0.09
    }
    bias_filler {
      type: "constant"
      value: 0.2
    }
  }
}
layer {
  name: "inception_3b/relu_3x3_reduce"
  type: "ReLU"
  bottom: "inception_3b/3x3_reduce"
  top: "inception_3b/3x3_reduce"
}
layer {
  name: "inception_3b/3x3"
  type: "Convolution"
  bottom: "inception_3b/3x3_reduce"
  top: "inception_3b/3x3"
  param {
    lr_mult: 1
    decay_mult: 1
  }
  param {
    lr_mult: 2
    decay_mult: 0
  }
  convolution_param {
    num_output: 192
    pad: 1
    kernel_size: 3
    weight_filler {
      type: "xavier"
      std: 0.03
    }
    bias_filler {
      type: "constant"
      value: 0.2
    }
  }
}
layer {
  name: "inception_3b/relu_3x3"
  type: "ReLU"
  bottom: "inception_3b/3x3"
  top: "inception_3b/3x3"
}
layer {
  name: "inception_3b/5x5_reduce"
  type: "Convolution"
  bottom: "inception_3a/output"
  top: "inception_3b/5x5_reduce"
  param {
    lr_mult: 1
    decay_mult: 1
  }
  param {
    lr_mult: 2
    decay_mult: 0
  }
  convolution_param {
    num_output: 32
    kernel_size: 1
    weight_filler {
      type: "xavier"
      std: 0.2
    }
    bias_filler {
      type: "constant"
      value: 0.2
    }
  }
}
layer {
  name: "inception_3b/relu_5x5_reduce"
  type: "ReLU"
  bottom: "inception_3b/5x5_reduce"
  top: "inception_3b/5x5_reduce"
}
layer {
  name: "inception_3b/5x5"
  type: "Convolution"
  bottom: "inception_3b/5x5_reduce"
  top: "inception_3b/5x5"
  param {
    lr_mult: 1
    decay_mult: 1
  }
  param {
    lr_mult: 2
    decay_mult: 0
  }
  convolution_param {
    num_output: 96
    pad: 2
    kernel_size: 5
    weight_filler {
      type: "xavier"
      std: 0.03
    }
    bias_filler {
      type: "constant"
      value: 0.2
    }
  }
}
layer {
  name: "inception_3b/relu_5x5"
  type: "ReLU"
  bottom: "inception_3b/5x5"
  top: "inception_3b/5x5"
}
layer {
  name: "inception_3b/pool"
  type: "Pooling"
  bottom: "inception_3a/output"
  top: "inception_3b/pool"
  pooling_param {
    pool: MAX
    kernel_size: 3
    stride: 1
    pad: 1
  }
}
layer {
  name: "inception_3b/pool_proj"
  type: "Convolution"
  bottom: "inception_3b/pool"
  top: "inception_3b/pool_proj"
  param {
    lr_mult: 1
    decay_mult: 1
  }
  param {
    lr_mult: 2
    decay_mult: 0
  }
  convolution_param {
    num_output: 64
    kernel_size: 1
    weight_filler {
      type: "xavier"
      std: 0.1
    }
    bias_filler {
      type: "constant"
      value: 0.2
    }
  }
}
layer {
  name: "inception_3b/relu_pool_proj"
  type: "ReLU"
  bottom: "inception_3b/pool_proj"
  top: "inception_3b/pool_proj"
}
layer {
  name: "inception_3b/output"
  type: "Concat"
  bottom: "inception_3b/1x1"
  bottom: "inception_3b/3x3"
  bottom: "inception_3b/5x5"
  bottom: "inception_3b/pool_proj"
  top: "inception_3b/output"
}
layer {
  name: "pool3/3x3_s2"
  type: "Pooling"
  bottom: "inception_3b/output"
  top: "pool3/3x3_s2"
  pooling_param {
    pool: MAX
    kernel_size: 3
    stride: 2
  }
}
layer {
  name: "inception_4a/1x1"
  type: "Convolution"
  bottom: "pool3/3x3_s2"
  top: "inception_4a/1x1"
  param {
    lr_mult: 1
    decay_mult: 1
  }
  param {
    lr_mult: 2
    decay_mult: 0
  }
  convolution_param {
    num_output: 192
    kernel_size: 1
    weight_filler {
      type: "xavier"
      std: 0.03
    }
    bias_filler {
      type: "constant"
      value: 0.2
    }
  }
}
layer {
  name: "inception_4a/relu_1x1"
  type: "ReLU"
  bottom: "inception_4a/1x1"
  top: "inception_4a/1x1"
}
layer {
  name: "inception_4a/3x3_reduce"
  type: "Convolution"
  bottom: "pool3/3x3_s2"
  top: "inception_4a/3x3_reduce"
  param {
    lr_mult: 1
    decay_mult: 1
  }
  param {
    lr_mult: 2
    decay_mult: 0
  }
  convolution_param {
    num_output: 96
    kernel_size: 1
    weight_filler {
      type: "xavier"
      std: 0.09
    }
    bias_filler {
      type: "constant"
      value: 0.2
    }
  }
}
layer {
  name: "inception_4a/relu_3x3_reduce"
  type: "ReLU"
  bottom: "inception_4a/3x3_reduce"
  top: "inception_4a/3x3_reduce"
}
layer {
  name: "inception_4a/3x3"
  type: "Convolution"
  bottom: "inception_4a/3x3_reduce"
  top: "inception_4a/3x3"
  param {
    lr_mult: 1
    decay_mult: 1
  }
  param {
    lr_mult: 2
    decay_mult: 0
  }
  convolution_param {
    num_output: 208
    pad: 1
    kernel_size: 3
    weight_filler {
      type: "xavier"
      std: 0.03
    }
    bias_filler {
      type: "constant"
      value: 0.2
    }
  }
}
layer {
  name: "inception_4a/relu_3x3"
  type: "ReLU"
  bottom: "inception_4a/3x3"
  top: "inception_4a/3x3"
}
layer {
  name: "inception_4a/5x5_reduce"
  type: "Convolution"
  bottom: "pool3/3x3_s2"
  top: "inception_4a/5x5_reduce"
  param {
    lr_mult: 1
    decay_mult: 1
  }
  param {
    lr_mult: 2
    decay_mult: 0
  }
  convolution_param {
    num_output: 16
    kernel_size: 1
    weight_filler {
      type: "xavier"
      std: 0.2
    }
    bias_filler {
      type: "constant"
      value: 0.2
    }
  }
}
layer {
  name: "inception_4a/relu_5x5_reduce"
  type: "ReLU"
  bottom: "inception_4a/5x5_reduce"
  top: "inception_4a/5x5_reduce"
}
layer {
  name: "inception_4a/5x5"
  type: "Convolution"
  bottom: "inception_4a/5x5_reduce"
  top: "inception_4a/5x5"
  param {
    lr_mult: 1
    decay_mult: 1
  }
  param {
    lr_mult: 2
    decay_mult: 0
  }
  convolution_param {
    num_output: 48
    pad: 2
    kernel_size: 5
    weight_filler {
      type: "xavier"
      std: 0.03
    }
    bias_filler {
      type: "constant"
      value: 0.2
    }
  }
}
layer {
  name: "inception_4a/relu_5x5"
  type: "ReLU"
  bottom: "inception_4a/5x5"
  top: "inception_4a/5x5"
}
layer {
  name: "inception_4a/pool"
  type: "Pooling"
  bottom: "pool3/3x3_s2"
  top: "inception_4a/pool"
  pooling_param {
    pool: MAX
    kernel_size: 3
    stride: 1
    pad: 1
  }
}
layer {
  name: "inception_4a/pool_proj"
  type: "Convolution"
  bottom: "inception_4a/pool"
  top: "inception_4a/pool_proj"
  param {
    lr_mult: 1
    decay_mult: 1
  }
  param {
    lr_mult: 2
    decay_mult: 0
  }
  convolution_param {
    num_output: 64
    kernel_size: 1
    weight_filler {
      type: "xavier"
      std: 0.1
    }
    bias_filler {
      type: "constant"
      value: 0.2
    }
  }
}
layer {
  name: "inception_4a/relu_pool_proj"
  type: "ReLU"
  bottom: "inception_4a/pool_proj"
  top: "inception_4a/pool_proj"
}
layer {
  name: "inception_4a/output"
  type: "Concat"
  bottom: "inception_4a/1x1"
  bottom: "inception_4a/3x3"
  bottom: "inception_4a/5x5"
  bottom: "inception_4a/pool_proj"
  top: "inception_4a/output"
}
layer {
  name: "loss1/ave_pool"
  type: "Pooling"
  bottom: "inception_4a/output"
  top: "loss1/ave_pool"
  pooling_param {
    pool: AVE
    kernel_size: 5
    stride: 3
  }
}
layer {
  name: "loss1/conv"
  type: "Convolution"
  bottom: "loss1/ave_pool"
  top: "loss1/conv"
  param {
    lr_mult: 1
    decay_mult: 1
  }
  param {
    lr_mult: 2
    decay_mult: 0
  }
  convolution_param {
    num_output: 128
    kernel_size: 1
    weight_filler {
      type: "xavier"
      std: 0.08
    }
    bias_filler {
      type: "constant"
      value: 0.2
    }
  }
}
layer {
  name: "loss1/relu_conv"
  type: "ReLU"
  bottom: "loss1/conv"
  top: "loss1/conv"
}
layer {
  name: "loss1/fc"
  type: "InnerProduct"
  bottom: "loss1/conv"
  top: "loss1/fc"
  param {
    lr_mult: 1
    decay_mult: 1
  }
  param {
    lr_mult: 2
    decay_mult: 0
  }
  inner_product_param {
    num_output: 1024
    weight_filler {
      type: "xavier"
      std: 0.02
    }
    bias_filler {
      type: "constant"
      value: 0.2
    }
  }
}
layer {
  name: "loss1/relu_fc"
  type: "ReLU"
  bottom: "loss1/fc"
  top: "loss1/fc"
}
layer {
  name: "loss1/drop_fc"
  type: "Dropout"
  bottom: "loss1/fc"
  top: "loss1/fc"
  dropout_param {
    dropout_ratio: 0.7
  }
}
layer {
  name: "loss1/classifier_plantvillage"
  type: "InnerProduct"
  bottom: "loss1/fc"
  top: "loss1/classifier_plantvillage"
  param {
    lr_mult: 1
    decay_mult: 1
  }
  param {
    lr_mult: 2
    decay_mult: 0
  }
  inner_product_param {
    num_output: 38
    weight_filler {
      type: "xavier"
      std: 0.0009765625
    }
    bias_filler {
      type: "constant"
      value: 0
    }
  }
}
layer {
  name: "inception_4b/1x1"
  type: "Convolution"
  bottom: "inception_4a/output"
  top: "inception_4b/1x1"
  param {
    lr_mult: 1
    decay_mult: 1
  }
  param {
    lr_mult: 2
    decay_mult: 0
  }
  convolution_param {
    num_output: 160
    kernel_size: 1
    weight_filler {
      type: "xavier"
      std: 0.03
    }
    bias_filler {
      type: "constant"
      value: 0.2
    }
  }
}
layer {
  name: "inception_4b/relu_1x1"
  type: "ReLU"
  bottom: "inception_4b/1x1"
  top: "inception_4b/1x1"
}
layer {
  name: "inception_4b/3x3_reduce"
  type: "Convolution"
  bottom: "inception_4a/output"
  top: "inception_4b/3x3_reduce"
  param {
    lr_mult: 1
    decay_mult: 1
  }
  param {
    lr_mult: 2
    decay_mult: 0
  }
  convolution_param {
    num_output: 112
    kernel_size: 1
    weight_filler {
      type: "xavier"
      std: 0.09
    }
    bias_filler {
      type: "constant"
      value: 0.2
    }
  }
}
layer {
  name: "inception_4b/relu_3x3_reduce"
  type: "ReLU"
  bottom: "inception_4b/3x3_reduce"
  top: "inception_4b/3x3_reduce"
}
layer {
  name: "inception_4b/3x3"
  type: "Convolution"
  bottom: "inception_4b/3x3_reduce"
  top: "inception_4b/3x3"
  param {
    lr_mult: 1
    decay_mult: 1
  }
  param {
    lr_mult: 2
    decay_mult: 0
  }
  convolution_param {
    num_output: 224
    pad: 1
    kernel_size: 3
    weight_filler {
      type: "xavier"
      std: 0.03
    }
    bias_filler {
      type: "constant"
      value: 0.2
    }
  }
}
layer {
  name: "inception_4b/relu_3x3"
  type: "ReLU"
  bottom: "inception_4b/3x3"
  top: "inception_4b/3x3"
}
layer {
  name: "inception_4b/5x5_reduce"
  type: "Convolution"
  bottom: "inception_4a/output"
  top: "inception_4b/5x5_reduce"
  param {
    lr_mult: 1
    decay_mult: 1
  }
  param {
    lr_mult: 2
    decay_mult: 0
  }
  convolution_param {
    num_output: 24
    kernel_size: 1
    weight_filler {
      type: "xavier"
      std: 0.2
    }
    bias_filler {
      type: "constant"
      value: 0.2
    }
  }
}
layer {
  name: "inception_4b/relu_5x5_reduce"
  type: "ReLU"
  bottom: "inception_4b/5x5_reduce"
  top: "inception_4b/5x5_reduce"
}
layer {
  name: "inception_4b/5x5"
  type: "Convolution"
  bottom: "inception_4b/5x5_reduce"
  top: "inception_4b/5x5"
  param {
    lr_mult: 1
    decay_mult: 1
  }
  param {
    lr_mult: 2
    decay_mult: 0
  }
  convolution_param {
    num_output: 64
    pad: 2
    kernel_size: 5
    weight_filler {
      type: "xavier"
      std: 0.03
    }
    bias_filler {
      type: "constant"
      value: 0.2
    }
  }
}
layer {
  name: "inception_4b/relu_5x5"
  type: "ReLU"
  bottom: "inception_4b/5x5"
  top: "inception_4b/5x5"
}
layer {
  name: "inception_4b/pool"
  type: "Pooling"
  bottom: "inception_4a/output"
  top: "inception_4b/pool"
  pooling_param {
    pool: MAX
    kernel_size: 3
    stride: 1
    pad: 1
  }
}
layer {
  name: "inception_4b/pool_proj"
  type: "Convolution"
  bottom: "inception_4b/pool"
  top: "inception_4b/pool_proj"
  param {
    lr_mult: 1
    decay_mult: 1
  }
  param {
    lr_mult: 2
    decay_mult: 0
  }
  convolution_param {
    num_output: 64
    kernel_size: 1
    weight_filler {
      type: "xavier"
      std: 0.1
    }
    bias_filler {
      type: "constant"
      value: 0.2
    }
  }
}
layer {
  name: "inception_4b/relu_pool_proj"
  type: "ReLU"
  bottom: "inception_4b/pool_proj"
  top: "inception_4b/pool_proj"
}
layer {
  name: "inception_4b/output"
  type: "Concat"
  bottom: "inception_4b/1x1"
  bottom: "inception_4b/3x3"
  bottom: "inception_4b/5x5"
  bottom: "inception_4b/pool_proj"
  top: "inception_4b/output"
}
layer {
  name: "inception_4c/1x1"
  type: "Convolution"
  bottom: "inception_4b/output"
  top: "inception_4c/1x1"
  param {
    lr_mult: 1
    decay_mult: 1
  }
  param {
    lr_mult: 2
    decay_mult: 0
  }
  convolution_param {
    num_output: 128
    kernel_size: 1
    weight_filler {
      type: "xavier"
      std: 0.03
    }
    bias_filler {
      type: "constant"
      value: 0.2
    }
  }
}
layer {
  name: "inception_4c/relu_1x1"
  type: "ReLU"
  bottom: "inception_4c/1x1"
  top: "inception_4c/1x1"
}
layer {
  name: "inception_4c/3x3_reduce"
  type: "Convolution"
  bottom: "inception_4b/output"
  top: "inception_4c/3x3_reduce"
  param {
    lr_mult: 1
    decay_mult: 1
  }
  param {
    lr_mult: 2
    decay_mult: 0
  }
  convolution_param {
    num_output: 128
    kernel_size: 1
    weight_filler {
      type: "xavier"
      std: 0.09
    }
    bias_filler {
      type: "constant"
      value: 0.2
    }
  }
}
layer {
  name: "inception_4c/relu_3x3_reduce"
  type: "ReLU"
  bottom: "inception_4c/3x3_reduce"
  top: "inception_4c/3x3_reduce"
}
layer {
  name: "inception_4c/3x3"
  type: "Convolution"
  bottom: "inception_4c/3x3_reduce"
  top: "inception_4c/3x3"
  param {
    lr_mult: 1
    decay_mult: 1
  }
  param {
    lr_mult: 2
    decay_mult: 0
  }
  convolution_param {
    num_output: 256
    pad: 1
    kernel_size: 3
    weight_filler {
      type: "xavier"
      std: 0.03
    }
    bias_filler {
      type: "constant"
      value: 0.2
    }
  }
}
layer {
  name: "inception_4c/relu_3x3"
  type: "ReLU"
  bottom: "inception_4c/3x3"
  top: "inception_4c/3x3"
}
layer {
  name: "inception_4c/5x5_reduce"
  type: "Convolution"
  bottom: "inception_4b/output"
  top: "inception_4c/5x5_reduce"
  param {
    lr_mult: 1
    decay_mult: 1
  }
  param {
    lr_mult: 2
    decay_mult: 0
  }
  convolution_param {
    num_output: 24
    kernel_size: 1
    weight_filler {
      type: "xavier"
      std: 0.2
    }
    bias_filler {
      type: "constant"
      value: 0.2
    }
  }
}
layer {
  name: "inception_4c/relu_5x5_reduce"
  type: "ReLU"
  bottom: "inception_4c/5x5_reduce"
  top: "inception_4c/5x5_reduce"
}
layer {
  name: "inception_4c/5x5"
  type: "Convolution"
  bottom: "inception_4c/5x5_reduce"
  top: "inception_4c/5x5"
  param {
    lr_mult: 1
    decay_mult: 1
  }
  param {
    lr_mult: 2
    decay_mult: 0
  }
  convolution_param {
    num_output: 64
    pad: 2
    kernel_size: 5
    weight_filler {
      type: "xavier"
      std: 0.03
    }
    bias_filler {
      type: "constant"
      value: 0.2
    }
  }
}
layer {
  name: "inception_4c/relu_5x5"
  type: "ReLU"
  bottom: "inception_4c/5x5"
  top: "inception_4c/5x5"
}
layer {
  name: "inception_4c/pool"
  type: "Pooling"
  bottom: "inception_4b/output"
  top: "inception_4c/pool"
  pooling_param {
    pool: MAX
    kernel_size: 3
    stride: 1
    pad: 1
  }
}
layer {
  name: "inception_4c/pool_proj"
  type: "Convolution"
  bottom: "inception_4c/pool"
  top: "inception_4c/pool_proj"
  param {
    lr_mult: 1
    decay_mult: 1
  }
  param {
    lr_mult: 2
    decay_mult: 0
  }
  convolution_param {
    num_output: 64
    kernel_size: 1
    weight_filler {
      type: "xavier"
      std: 0.1
    }
    bias_filler {
      type: "constant"
      value: 0.2
    }
  }
}
layer {
  name: "inception_4c/relu_pool_proj"
  type: "ReLU"
  bottom: "inception_4c/pool_proj"
  top: "inception_4c/pool_proj"
}
layer {
  name: "inception_4c/output"
  type: "Concat"
  bottom: "inception_4c/1x1"
  bottom: "inception_4c/3x3"
  bottom: "inception_4c/5x5"
  bottom: "inception_4c/pool_proj"
  top: "inception_4c/output"
}
layer {
  name: "inception_4d/1x1"
  type: "Convolution"
  bottom: "inception_4c/output"
  top: "inception_4d/1x1"
  param {
    lr_mult: 1
    decay_mult: 1
  }
  param {
    lr_mult: 2
    decay_mult: 0
  }
  convolution_param {
    num_output: 112
    kernel_size: 1
    weight_filler {
      type: "xavier"
      std: 0.03
    }
    bias_filler {
      type: "constant"
      value: 0.2
    }
  }
}
layer {
  name: "inception_4d/relu_1x1"
  type: "ReLU"
  bottom: "inception_4d/1x1"
  top: "inception_4d/1x1"
}
layer {
  name: "inception_4d/3x3_reduce"
  type: "Convolution"
  bottom: "inception_4c/output"
  top: "inception_4d/3x3_reduce"
  param {
    lr_mult: 1
    decay_mult: 1
  }
  param {
    lr_mult: 2
    decay_mult: 0
  }
  convolution_param {
    num_output: 144
    kernel_size: 1
    weight_filler {
      type: "xavier"
      std: 0.09
    }
    bias_filler {
      type: "constant"
      value: 0.2
    }
  }
}
layer {
  name: "inception_4d/relu_3x3_reduce"
  type: "ReLU"
  bottom: "inception_4d/3x3_reduce"
  top: "inception_4d/3x3_reduce"
}
layer {
  name: "inception_4d/3x3"
  type: "Convolution"
  bottom: "inception_4d/3x3_reduce"
  top: "inception_4d/3x3"
  param {
    lr_mult: 1
    decay_mult: 1
  }
  param {
    lr_mult: 2
    decay_mult: 0
  }
  convolution_param {
    num_output: 288
    pad: 1
    kernel_size: 3
    weight_filler {
      type: "xavier"
      std: 0.03
    }
    bias_filler {
      type: "constant"
      value: 0.2
    }
  }
}
layer {
  name: "inception_4d/relu_3x3"
  type: "ReLU"
  bottom: "inception_4d/3x3"
  top: "inception_4d/3x3"
}
layer {
  name: "inception_4d/5x5_reduce"
  type: "Convolution"
  bottom: "inception_4c/output"
  top: "inception_4d/5x5_reduce"
  param {
    lr_mult: 1
    decay_mult: 1
  }
  param {
    lr_mult: 2
    decay_mult: 0
  }
  convolution_param {
    num_output: 32
    kernel_size: 1
    weight_filler {
      type: "xavier"
      std: 0.2
    }
    bias_filler {
      type: "constant"
      value: 0.2
    }
  }
}
layer {
  name: "inception_4d/relu_5x5_reduce"
  type: "ReLU"
  bottom: "inception_4d/5x5_reduce"
  top: "inception_4d/5x5_reduce"
}
layer {
  name: "inception_4d/5x5"
  type: "Convolution"
  bottom: "inception_4d/5x5_reduce"
  top: "inception_4d/5x5"
  param {
    lr_mult: 1
    decay_mult: 1
  }
  param {
    lr_mult: 2
    decay_mult: 0
  }
  convolution_param {
    num_output: 64
    pad: 2
    kernel_size: 5
    weight_filler {
      type: "xavier"
      std: 0.03
    }
    bias_filler {
      type: "constant"
      value: 0.2
    }
  }
}
layer {
  name: "inception_4d/relu_5x5"
  type: "ReLU"
  bottom: "inception_4d/5x5"
  top: "inception_4d/5x5"
}
layer {
  name: "inception_4d/pool"
  type: "Pooling"
  bottom: "inception_4c/output"
  top: "inception_4d/pool"
  pooling_param {
    pool: MAX
    kernel_size: 3
    stride: 1
    pad: 1
  }
}
layer {
  name: "inception_4d/pool_proj"
  type: "Convolution"
  bottom: "inception_4d/pool"
  top: "inception_4d/pool_proj"
  param {
    lr_mult: 1
    decay_mult: 1
  }
  param {
    lr_mult: 2
    decay_mult: 0
  }
  convolution_param {
    num_output: 64
    kernel_size: 1
    weight_filler {
      type: "xavier"
      std: 0.1
    }
    bias_filler {
      type: "constant"
      value: 0.2
    }
  }
}
layer {
  name: "inception_4d/relu_pool_proj"
  type: "ReLU"
  bottom: "inception_4d/pool_proj"
  top: "inception_4d/pool_proj"
}
layer {
  name: "inception_4d/output"
  type: "Concat"
  bottom: "inception_4d/1x1"
  bottom: "inception_4d/3x3"
  bottom: "inception_4d/5x5"
  bottom: "inception_4d/pool_proj"
  top: "inception_4d/output"
}
layer {
  name: "loss2/ave_pool"
  type: "Pooling"
  bottom: "inception_4d/output"
  top: "loss2/ave_pool"
  pooling_param {
    pool: AVE
    kernel_size: 5
    stride: 3
  }
}
layer {
  name: "loss2/conv"
  type: "Convolution"
  bottom: "loss2/ave_pool"
  top: "loss2/conv"
  param {
    lr_mult: 1
    decay_mult: 1
  }
  param {
    lr_mult: 2
    decay_mult: 0
  }
  convolution_param {
    num_output: 128
    kernel_size: 1
    weight_filler {
      type: "xavier"
      std: 0.08
    }
    bias_filler {
      type: "constant"
      value: 0.2
    }
  }
}
layer {
  name: "loss2/relu_conv"
  type: "ReLU"
  bottom: "loss2/conv"
  top: "loss2/conv"
}
layer {
  name: "loss2/fc"
  type: "InnerProduct"
  bottom: "loss2/conv"
  top: "loss2/fc"
  param {
    lr_mult: 1
    decay_mult: 1
  }
  param {
    lr_mult: 2
    decay_mult: 0
  }
  inner_product_param {
    num_output: 1024
    weight_filler {
      type: "xavier"
      std: 0.02
    }
    bias_filler {
      type: "constant"
      value: 0.2
    }
  }
}
layer {
  name: "loss2/relu_fc"
  type: "ReLU"
  bottom: "loss2/fc"
  top: "loss2/fc"
}
layer {
  name: "loss2/drop_fc"
  type: "Dropout"
  bottom: "loss2/fc"
  top: "loss2/fc"
  dropout_param {
    dropout_ratio: 0.7
  }
}
layer {
  name: "loss2/classifier_plantvillage"
  type: "InnerProduct"
  bottom: "loss2/fc"
  top: "loss2/classifier_plantvillage"
  param {
    lr_mult: 1
    decay_mult: 1
  }
  param {
    lr_mult: 2
    decay_mult: 0
  }
  inner_product_param {
    num_output: 38
    weight_filler {
      type: "xavier"
      std: 0.0009765625
    }
    bias_filler {
      type: "constant"
      value: 0
    }
  }
}
layer {
  name: "inception_4e/1x1"
  type: "Convolution"
  bottom: "inception_4d/output"
  top: "inception_4e/1x1"
  param {
    lr_mult: 1
    decay_mult: 1
  }
  param {
    lr_mult: 2
    decay_mult: 0
  }
  convolution_param {
    num_output: 256
    kernel_size: 1
    weight_filler {
      type: "xavier"
      std: 0.03
    }
    bias_filler {
      type: "constant"
      value: 0.2
    }
  }
}
layer {
  name: "inception_4e/relu_1x1"
  type: "ReLU"
  bottom: "inception_4e/1x1"
  top: "inception_4e/1x1"
}
layer {
  name: "inception_4e/3x3_reduce"
  type: "Convolution"
  bottom: "inception_4d/output"
  top: "inception_4e/3x3_reduce"
  param {
    lr_mult: 1
    decay_mult: 1
  }
  param {
    lr_mult: 2
    decay_mult: 0
  }
  convolution_param {
    num_output: 160
    kernel_size: 1
    weight_filler {
      type: "xavier"
      std: 0.09
    }
    bias_filler {
      type: "constant"
      value: 0.2
    }
  }
}
layer {
  name: "inception_4e/relu_3x3_reduce"
  type: "ReLU"
  bottom: "inception_4e/3x3_reduce"
  top: "inception_4e/3x3_reduce"
}
layer {
  name: "inception_4e/3x3"
  type: "Convolution"
  bottom: "inception_4e/3x3_reduce"
  top: "inception_4e/3x3"
  param {
    lr_mult: 1
    decay_mult: 1
  }
  param {
    lr_mult: 2
    decay_mult: 0
  }
  convolution_param {
    num_output: 320
    pad: 1
    kernel_size: 3
    weight_filler {
      type: "xavier"
      std: 0.03
    }
    bias_filler {
      type: "constant"
      value: 0.2
    }
  }
}
layer {
  name: "inception_4e/relu_3x3"
  type: "ReLU"
  bottom: "inception_4e/3x3"
  top: "inception_4e/3x3"
}
layer {
  name: "inception_4e/5x5_reduce"
  type: "Convolution"
  bottom: "inception_4d/output"
  top: "inception_4e/5x5_reduce"
  param {
    lr_mult: 1
    decay_mult: 1
  }
  param {
    lr_mult: 2
    decay_mult: 0
  }
  convolution_param {
    num_output: 32
    kernel_size: 1
    weight_filler {
      type: "xavier"
      std: 0.2
    }
    bias_filler {
      type: "constant"
      value: 0.2
    }
  }
}
layer {
  name: "inception_4e/relu_5x5_reduce"
  type: "ReLU"
  bottom: "inception_4e/5x5_reduce"
  top: "inception_4e/5x5_reduce"
}
layer {
  name: "inception_4e/5x5"
  type: "Convolution"
  bottom: "inception_4e/5x5_reduce"
  top: "inception_4e/
I0403 14:35:19.784164 13433 layer_factory.hpp:77] Creating layer data
I0403 14:35:19.784775 13433 net.cpp:91] Creating Layer data
I0403 14:35:19.784806 13433 net.cpp:399] data -> data
I0403 14:35:19.784855 13433 net.cpp:399] data -> label
I0403 14:35:19.784893 13433 data_transformer.cpp:25] Loading mean file from: /home/mohanty/data/final_dataset/lmdb/segmented-20-80/mean.binaryproto
I0403 14:35:19.788249 13436 db_lmdb.cpp:38] Opened lmdb /home/mohanty/data/final_dataset/lmdb/segmented-20-80/test_db
I0403 14:35:19.798012 13433 data_layer.cpp:41] output data size: 24,3,224,224
I0403 14:35:19.825186 13433 net.cpp:141] Setting up data
I0403 14:35:19.825273 13433 net.cpp:148] Top shape: 24 3 224 224 (3612672)
I0403 14:35:19.825294 13433 net.cpp:148] Top shape: 24 (24)
I0403 14:35:19.825310 13433 net.cpp:156] Memory required for data: 14450784
I0403 14:35:19.825337 13433 layer_factory.hpp:77] Creating layer label_data_1_split
I0403 14:35:19.825366 13433 net.cpp:91] Creating Layer label_data_1_split
I0403 14:35:19.825383 13433 net.cpp:425] label_data_1_split <- label
I0403 14:35:19.825417 13433 net.cpp:399] label_data_1_split -> label_data_1_split_0
I0403 14:35:19.825444 13433 net.cpp:399] label_data_1_split -> label_data_1_split_1
I0403 14:35:19.825465 13433 net.cpp:399] label_data_1_split -> label_data_1_split_2
I0403 14:35:19.825486 13433 net.cpp:399] label_data_1_split -> label_data_1_split_3
I0403 14:35:19.825506 13433 net.cpp:399] label_data_1_split -> label_data_1_split_4
I0403 14:35:19.825525 13433 net.cpp:399] label_data_1_split -> label_data_1_split_5
I0403 14:35:19.825551 13433 net.cpp:399] label_data_1_split -> label_data_1_split_6
I0403 14:35:19.825572 13433 net.cpp:399] label_data_1_split -> label_data_1_split_7
I0403 14:35:19.825592 13433 net.cpp:399] label_data_1_split -> label_data_1_split_8
I0403 14:35:19.825613 13433 net.cpp:399] label_data_1_split -> label_data_1_split_9
I0403 14:35:19.825731 13433 net.cpp:141] Setting up label_data_1_split
I0403 14:35:19.825754 13433 net.cpp:148] Top shape: 24 (24)
I0403 14:35:19.825772 13433 net.cpp:148] Top shape: 24 (24)
I0403 14:35:19.825788 13433 net.cpp:148] Top shape: 24 (24)
I0403 14:35:19.825803 13433 net.cpp:148] Top shape: 24 (24)
I0403 14:35:19.825819 13433 net.cpp:148] Top shape: 24 (24)
I0403 14:35:19.825834 13433 net.cpp:148] Top shape: 24 (24)
I0403 14:35:19.825848 13433 net.cpp:148] Top shape: 24 (24)
I0403 14:35:19.825865 13433 net.cpp:148] Top shape: 24 (24)
I0403 14:35:19.825880 13433 net.cpp:148] Top shape: 24 (24)
I0403 14:35:19.825896 13433 net.cpp:148] Top shape: 24 (24)
I0403 14:35:19.825945 13433 net.cpp:156] Memory required for data: 14451744
I0403 14:35:19.825961 13433 layer_factory.hpp:77] Creating layer conv1/7x7_s2
I0403 14:35:19.825994 13433 net.cpp:91] Creating Layer conv1/7x7_s2
I0403 14:35:19.826012 13433 net.cpp:425] conv1/7x7_s2 <- data
I0403 14:35:19.826032 13433 net.cpp:399] conv1/7x7_s2 -> conv1/7x7_s2
I0403 14:35:19.968019 13433 net.cpp:141] Setting up conv1/7x7_s2
I0403 14:35:19.968071 13433 net.cpp:148] Top shape: 24 64 112 112 (19267584)
I0403 14:35:19.968088 13433 net.cpp:156] Memory required for data: 91522080
I0403 14:35:19.968118 13433 layer_factory.hpp:77] Creating layer conv1/relu_7x7
I0403 14:35:19.968143 13433 net.cpp:91] Creating Layer conv1/relu_7x7
I0403 14:35:19.968161 13433 net.cpp:425] conv1/relu_7x7 <- conv1/7x7_s2
I0403 14:35:19.968180 13433 net.cpp:386] conv1/relu_7x7 -> conv1/7x7_s2 (in-place)
I0403 14:35:19.968436 13433 net.cpp:141] Setting up conv1/relu_7x7
I0403 14:35:19.968463 13433 net.cpp:148] Top shape: 24 64 112 112 (19267584)
I0403 14:35:19.968478 13433 net.cpp:156] Memory required for data: 168592416
I0403 14:35:19.968493 13433 layer_factory.hpp:77] Creating layer pool1/3x3_s2
I0403 14:35:19.968516 13433 net.cpp:91] Creating Layer pool1/3x3_s2
I0403 14:35:19.968533 13433 net.cpp:425] pool1/3x3_s2 <- conv1/7x7_s2
I0403 14:35:19.968556 13433 net.cpp:399] pool1/3x3_s2 -> pool1/3x3_s2
I0403 14:35:19.968629 13433 net.cpp:141] Setting up pool1/3x3_s2
I0403 14:35:19.968653 13433 net.cpp:148] Top shape: 24 64 56 56 (4816896)
I0403 14:35:19.968667 13433 net.cpp:156] Memory required for data: 187860000
I0403 14:35:19.968682 13433 layer_factory.hpp:77] Creating layer pool1/norm1
I0403 14:35:19.968704 13433 net.cpp:91] Creating Layer pool1/norm1
I0403 14:35:19.968721 13433 net.cpp:425] pool1/norm1 <- pool1/3x3_s2
I0403 14:35:19.968737 13433 net.cpp:399] pool1/norm1 -> pool1/norm1
I0403 14:35:19.969017 13433 net.cpp:141] Setting up pool1/norm1
I0403 14:35:19.969043 13433 net.cpp:148] Top shape: 24 64 56 56 (4816896)
I0403 14:35:19.969058 13433 net.cpp:156] Memory required for data: 207127584
I0403 14:35:19.969074 13433 layer_factory.hpp:77] Creating layer conv2/3x3_reduce
I0403 14:35:19.969097 13433 net.cpp:91] Creating Layer conv2/3x3_reduce
I0403 14:35:19.969113 13433 net.cpp:425] conv2/3x3_reduce <- pool1/norm1
I0403 14:35:19.969130 13433 net.cpp:399] conv2/3x3_reduce -> conv2/3x3_reduce
I0403 14:35:19.970443 13433 net.cpp:141] Setting up conv2/3x3_reduce
I0403 14:35:19.970473 13433 net.cpp:148] Top shape: 24 64 56 56 (4816896)
I0403 14:35:19.970489 13433 net.cpp:156] Memory required for data: 226395168
I0403 14:35:19.970509 13433 layer_factory.hpp:77] Creating layer conv2/relu_3x3_reduce
I0403 14:35:19.970526 13433 net.cpp:91] Creating Layer conv2/relu_3x3_reduce
I0403 14:35:19.970547 13433 net.cpp:425] conv2/relu_3x3_reduce <- conv2/3x3_reduce
I0403 14:35:19.970566 13433 net.cpp:386] conv2/relu_3x3_reduce -> conv2/3x3_reduce (in-place)
I0403 14:35:19.970813 13433 net.cpp:141] Setting up conv2/relu_3x3_reduce
I0403 14:35:19.970839 13433 net.cpp:148] Top shape: 24 64 56 56 (4816896)
I0403 14:35:19.970854 13433 net.cpp:156] Memory required for data: 245662752
I0403 14:35:19.970868 13433 layer_factory.hpp:77] Creating layer conv2/3x3
I0403 14:35:19.970890 13433 net.cpp:91] Creating Layer conv2/3x3
I0403 14:35:19.970906 13433 net.cpp:425] conv2/3x3 <- conv2/3x3_reduce
I0403 14:35:19.970924 13433 net.cpp:399] conv2/3x3 -> conv2/3x3
I0403 14:35:19.973120 13433 net.cpp:141] Setting up conv2/3x3
I0403 14:35:19.973150 13433 net.cpp:148] Top shape: 24 192 56 56 (14450688)
I0403 14:35:19.973165 13433 net.cpp:156] Memory required for data: 303465504
I0403 14:35:19.973186 13433 layer_factory.hpp:77] Creating layer conv2/relu_3x3
I0403 14:35:19.973206 13433 net.cpp:91] Creating Layer conv2/relu_3x3
I0403 14:35:19.973220 13433 net.cpp:425] conv2/relu_3x3 <- conv2/3x3
I0403 14:35:19.973237 13433 net.cpp:386] conv2/relu_3x3 -> conv2/3x3 (in-place)
I0403 14:35:19.973393 13433 net.cpp:141] Setting up conv2/relu_3x3
I0403 14:35:19.973418 13433 net.cpp:148] Top shape: 24 192 56 56 (14450688)
I0403 14:35:19.973465 13433 net.cpp:156] Memory required for data: 361268256
I0403 14:35:19.973481 13433 layer_factory.hpp:77] Creating layer conv2/norm2
I0403 14:35:19.973498 13433 net.cpp:91] Creating Layer conv2/norm2
I0403 14:35:19.973515 13433 net.cpp:425] conv2/norm2 <- conv2/3x3
I0403 14:35:19.973531 13433 net.cpp:399] conv2/norm2 -> conv2/norm2
I0403 14:35:19.973817 13433 net.cpp:141] Setting up conv2/norm2
I0403 14:35:19.973845 13433 net.cpp:148] Top shape: 24 192 56 56 (14450688)
I0403 14:35:19.973860 13433 net.cpp:156] Memory required for data: 419071008
I0403 14:35:19.973875 13433 layer_factory.hpp:77] Creating layer pool2/3x3_s2
I0403 14:35:19.973891 13433 net.cpp:91] Creating Layer pool2/3x3_s2
I0403 14:35:19.973906 13433 net.cpp:425] pool2/3x3_s2 <- conv2/norm2
I0403 14:35:19.973922 13433 net.cpp:399] pool2/3x3_s2 -> pool2/3x3_s2
I0403 14:35:19.973971 13433 net.cpp:141] Setting up pool2/3x3_s2
I0403 14:35:19.973994 13433 net.cpp:148] Top shape: 24 192 28 28 (3612672)
I0403 14:35:19.974007 13433 net.cpp:156] Memory required for data: 433521696
I0403 14:35:19.974021 13433 layer_factory.hpp:77] Creating layer pool2/3x3_s2_pool2/3x3_s2_0_split
I0403 14:35:19.974038 13433 net.cpp:91] Creating Layer pool2/3x3_s2_pool2/3x3_s2_0_split
I0403 14:35:19.974052 13433 net.cpp:425] pool2/3x3_s2_pool2/3x3_s2_0_split <- pool2/3x3_s2
I0403 14:35:19.974069 13433 net.cpp:399] pool2/3x3_s2_pool2/3x3_s2_0_split -> pool2/3x3_s2_pool2/3x3_s2_0_split_0
I0403 14:35:19.974088 13433 net.cpp:399] pool2/3x3_s2_pool2/3x3_s2_0_split -> pool2/3x3_s2_pool2/3x3_s2_0_split_1
I0403 14:35:19.974107 13433 net.cpp:399] pool2/3x3_s2_pool2/3x3_s2_0_split -> pool2/3x3_s2_pool2/3x3_s2_0_split_2
I0403 14:35:19.974126 13433 net.cpp:399] pool2/3x3_s2_pool2/3x3_s2_0_split -> pool2/3x3_s2_pool2/3x3_s2_0_split_3
I0403 14:35:19.974189 13433 net.cpp:141] Setting up pool2/3x3_s2_pool2/3x3_s2_0_split
I0403 14:35:19.974210 13433 net.cpp:148] Top shape: 24 192 28 28 (3612672)
I0403 14:35:19.974226 13433 net.cpp:148] Top shape: 24 192 28 28 (3612672)
I0403 14:35:19.974241 13433 net.cpp:148] Top shape: 24 192 28 28 (3612672)
I0403 14:35:19.974256 13433 net.cpp:148] Top shape: 24 192 28 28 (3612672)
I0403 14:35:19.974269 13433 net.cpp:156] Memory required for data: 491324448
I0403 14:35:19.974283 13433 layer_factory.hpp:77] Creating layer inception_3a/1x1
I0403 14:35:19.974304 13433 net.cpp:91] Creating Layer inception_3a/1x1
I0403 14:35:19.974320 13433 net.cpp:425] inception_3a/1x1 <- pool2/3x3_s2_pool2/3x3_s2_0_split_0
I0403 14:35:19.974339 13433 net.cpp:399] inception_3a/1x1 -> inception_3a/1x1
I0403 14:35:19.975800 13433 net.cpp:141] Setting up inception_3a/1x1
I0403 14:35:19.975829 13433 net.cpp:148] Top shape: 24 64 28 28 (1204224)
I0403 14:35:19.975846 13433 net.cpp:156] Memory required for data: 496141344
I0403 14:35:19.975864 13433 layer_factory.hpp:77] Creating layer inception_3a/relu_1x1
I0403 14:35:19.975883 13433 net.cpp:91] Creating Layer inception_3a/relu_1x1
I0403 14:35:19.975898 13433 net.cpp:425] inception_3a/relu_1x1 <- inception_3a/1x1
I0403 14:35:19.975915 13433 net.cpp:386] inception_3a/relu_1x1 -> inception_3a/1x1 (in-place)
I0403 14:35:19.976083 13433 net.cpp:141] Setting up inception_3a/relu_1x1
I0403 14:35:19.976110 13433 net.cpp:148] Top shape: 24 64 28 28 (1204224)
I0403 14:35:19.976125 13433 net.cpp:156] Memory required for data: 500958240
I0403 14:35:19.976140 13433 layer_factory.hpp:77] Creating layer inception_3a/3x3_reduce
I0403 14:35:19.976161 13433 net.cpp:91] Creating Layer inception_3a/3x3_reduce
I0403 14:35:19.976179 13433 net.cpp:425] inception_3a/3x3_reduce <- pool2/3x3_s2_pool2/3x3_s2_0_split_1
I0403 14:35:19.976197 13433 net.cpp:399] inception_3a/3x3_reduce -> inception_3a/3x3_reduce
I0403 14:35:19.977890 13433 net.cpp:141] Setting up inception_3a/3x3_reduce
I0403 14:35:19.977919 13433 net.cpp:148] Top shape: 24 96 28 28 (1806336)
I0403 14:35:19.977934 13433 net.cpp:156] Memory required for data: 508183584
I0403 14:35:19.977955 13433 layer_factory.hpp:77] Creating layer inception_3a/relu_3x3_reduce
I0403 14:35:19.977993 13433 net.cpp:91] Creating Layer inception_3a/relu_3x3_reduce
I0403 14:35:19.978011 13433 net.cpp:425] inception_3a/relu_3x3_reduce <- inception_3a/3x3_reduce
I0403 14:35:19.978030 13433 net.cpp:386] inception_3a/relu_3x3_reduce -> inception_3a/3x3_reduce (in-place)
I0403 14:35:19.978209 13433 net.cpp:141] Setting up inception_3a/relu_3x3_reduce
I0403 14:35:19.978235 13433 net.cpp:148] Top shape: 24 96 28 28 (1806336)
I0403 14:35:19.978248 13433 net.cpp:156] Memory required for data: 515408928
I0403 14:35:19.978262 13433 layer_factory.hpp:77] Creating layer inception_3a/3x3
I0403 14:35:19.978284 13433 net.cpp:91] Creating Layer inception_3a/3x3
I0403 14:35:19.978302 13433 net.cpp:425] inception_3a/3x3 <- inception_3a/3x3_reduce
I0403 14:35:19.978325 13433 net.cpp:399] inception_3a/3x3 -> inception_3a/3x3
I0403 14:35:19.979957 13433 net.cpp:141] Setting up inception_3a/3x3
I0403 14:35:19.979987 13433 net.cpp:148] Top shape: 24 128 28 28 (2408448)
I0403 14:35:19.980003 13433 net.cpp:156] Memory required for data: 525042720
I0403 14:35:19.980022 13433 layer_factory.hpp:77] Creating layer inception_3a/relu_3x3
I0403 14:35:19.980041 13433 net.cpp:91] Creating Layer inception_3a/relu_3x3
I0403 14:35:19.980056 13433 net.cpp:425] inception_3a/relu_3x3 <- inception_3a/3x3
I0403 14:35:19.980072 13433 net.cpp:386] inception_3a/relu_3x3 -> inception_3a/3x3 (in-place)
I0403 14:35:19.980342 13433 net.cpp:141] Setting up inception_3a/relu_3x3
I0403 14:35:19.980370 13433 net.cpp:148] Top shape: 24 128 28 28 (2408448)
I0403 14:35:19.980386 13433 net.cpp:156] Memory required for data: 534676512
I0403 14:35:19.980401 13433 layer_factory.hpp:77] Creating layer inception_3a/5x5_reduce
I0403 14:35:19.980422 13433 net.cpp:91] Creating Layer inception_3a/5x5_reduce
I0403 14:35:19.980438 13433 net.cpp:425] inception_3a/5x5_reduce <- pool2/3x3_s2_pool2/3x3_s2_0_split_2
I0403 14:35:19.980458 13433 net.cpp:399] inception_3a/5x5_reduce -> inception_3a/5x5_reduce
I0403 14:35:19.981421 13433 net.cpp:141] Setting up inception_3a/5x5_reduce
I0403 14:35:19.981451 13433 net.cpp:148] Top shape: 24 16 28 28 (301056)
I0403 14:35:19.981467 13433 net.cpp:156] Memory required for data: 535880736
I0403 14:35:19.981485 13433 layer_factory.hpp:77] Creating layer inception_3a/relu_5x5_reduce
I0403 14:35:19.981503 13433 net.cpp:91] Creating Layer inception_3a/relu_5x5_reduce
I0403 14:35:19.981518 13433 net.cpp:425] inception_3a/relu_5x5_reduce <- inception_3a/5x5_reduce
I0403 14:35:19.981542 13433 net.cpp:386] inception_3a/relu_5x5_reduce -> inception_3a/5x5_reduce (in-place)
I0403 14:35:19.981838 13433 net.cpp:141] Setting up inception_3a/relu_5x5_reduce
I0403 14:35:19.981864 13433 net.cpp:148] Top shape: 24 16 28 28 (301056)
I0403 14:35:19.981879 13433 net.cpp:156] Memory required for data: 537084960
I0403 14:35:19.981894 13433 layer_factory.hpp:77] Creating layer inception_3a/5x5
I0403 14:35:19.981915 13433 net.cpp:91] Creating Layer inception_3a/5x5
I0403 14:35:19.981933 13433 net.cpp:425] inception_3a/5x5 <- inception_3a/5x5_reduce
I0403 14:35:19.981957 13433 net.cpp:399] inception_3a/5x5 -> inception_3a/5x5
I0403 14:35:19.982971 13433 net.cpp:141] Setting up inception_3a/5x5
I0403 14:35:19.982998 13433 net.cpp:148] Top shape: 24 32 28 28 (602112)
I0403 14:35:19.983012 13433 net.cpp:156] Memory required for data: 539493408
I0403 14:35:19.983031 13433 layer_factory.hpp:77] Creating layer inception_3a/relu_5x5
I0403 14:35:19.983050 13433 net.cpp:91] Creating Layer inception_3a/relu_5x5
I0403 14:35:19.983067 13433 net.cpp:425] inception_3a/relu_5x5 <- inception_3a/5x5
I0403 14:35:19.983083 13433 net.cpp:386] inception_3a/relu_5x5 -> inception_3a/5x5 (in-place)
I0403 14:35:19.983254 13433 net.cpp:141] Setting up inception_3a/relu_5x5
I0403 14:35:19.983280 13433 net.cpp:148] Top shape: 24 32 28 28 (602112)
I0403 14:35:19.983297 13433 net.cpp:156] Memory required for data: 541901856
I0403 14:35:19.983311 13433 layer_factory.hpp:77] Creating layer inception_3a/pool
I0403 14:35:19.983328 13433 net.cpp:91] Creating Layer inception_3a/pool
I0403 14:35:19.983358 13433 net.cpp:425] inception_3a/pool <- pool2/3x3_s2_pool2/3x3_s2_0_split_3
I0403 14:35:19.983381 13433 net.cpp:399] inception_3a/pool -> inception_3a/pool
I0403 14:35:19.983438 13433 net.cpp:141] Setting up inception_3a/pool
I0403 14:35:19.983461 13433 net.cpp:148] Top shape: 24 192 28 28 (3612672)
I0403 14:35:19.983475 13433 net.cpp:156] Memory required for data: 556352544
I0403 14:35:19.983489 13433 layer_factory.hpp:77] Creating layer inception_3a/pool_proj
I0403 14:35:19.983510 13433 net.cpp:91] Creating Layer inception_3a/pool_proj
I0403 14:35:19.983526 13433 net.cpp:425] inception_3a/pool_proj <- inception_3a/pool
I0403 14:35:19.983554 13433 net.cpp:399] inception_3a/pool_proj -> inception_3a/pool_proj
I0403 14:35:19.984513 13433 net.cpp:141] Setting up inception_3a/pool_proj
I0403 14:35:19.984550 13433 net.cpp:148] Top shape: 24 32 28 28 (602112)
I0403 14:35:19.984568 13433 net.cpp:156] Memory required for data: 558760992
I0403 14:35:19.984592 13433 layer_factory.hpp:77] Creating layer inception_3a/relu_pool_proj
I0403 14:35:19.984611 13433 net.cpp:91] Creating Layer inception_3a/relu_pool_proj
I0403 14:35:19.984627 13433 net.cpp:425] inception_3a/relu_pool_proj <- inception_3a/pool_proj
I0403 14:35:19.984645 13433 net.cpp:386] inception_3a/relu_pool_proj -> inception_3a/pool_proj (in-place)
I0403 14:35:19.984920 13433 net.cpp:141] Setting up inception_3a/relu_pool_proj
I0403 14:35:19.984948 13433 net.cpp:148] Top shape: 24 32 28 28 (602112)
I0403 14:35:19.984963 13433 net.cpp:156] Memory required for data: 561169440
I0403 14:35:19.984978 13433 layer_factory.hpp:77] Creating layer inception_3a/output
I0403 14:35:19.984995 13433 net.cpp:91] Creating Layer inception_3a/output
I0403 14:35:19.985010 13433 net.cpp:425] inception_3a/output <- inception_3a/1x1
I0403 14:35:19.985025 13433 net.cpp:425] inception_3a/output <- inception_3a/3x3
I0403 14:35:19.985041 13433 net.cpp:425] inception_3a/output <- inception_3a/5x5
I0403 14:35:19.985056 13433 net.cpp:425] inception_3a/output <- inception_3a/pool_proj
I0403 14:35:19.985074 13433 net.cpp:399] inception_3a/output -> inception_3a/output
I0403 14:35:19.985119 13433 net.cpp:141] Setting up inception_3a/output
I0403 14:35:19.985142 13433 net.cpp:148] Top shape: 24 256 28 28 (4816896)
I0403 14:35:19.985157 13433 net.cpp:156] Memory required for data: 580437024
I0403 14:35:19.985170 13433 layer_factory.hpp:77] Creating layer inception_3a/output_inception_3a/output_0_split
I0403 14:35:19.985186 13433 net.cpp:91] Creating Layer inception_3a/output_inception_3a/output_0_split
I0403 14:35:19.985208 13433 net.cpp:425] inception_3a/output_inception_3a/output_0_split <- inception_3a/output
I0403 14:35:19.985227 13433 net.cpp:399] inception_3a/output_inception_3a/output_0_split -> inception_3a/output_inception_3a/output_0_split_0
I0403 14:35:19.985246 13433 net.cpp:399] inception_3a/output_inception_3a/output_0_split -> inception_3a/output_inception_3a/output_0_split_1
I0403 14:35:19.985271 13433 net.cpp:399] inception_3a/output_inception_3a/output_0_split -> inception_3a/output_inception_3a/output_0_split_2
I0403 14:35:19.985292 13433 net.cpp:399] inception_3a/output_inception_3a/output_0_split -> inception_3a/output_inception_3a/output_0_split_3
I0403 14:35:19.985366 13433 net.cpp:141] Setting up inception_3a/output_inception_3a/output_0_split
I0403 14:35:19.985388 13433 net.cpp:148] Top shape: 24 256 28 28 (4816896)
I0403 14:35:19.985404 13433 net.cpp:148] Top shape: 24 256 28 28 (4816896)
I0403 14:35:19.985419 13433 net.cpp:148] Top shape: 24 256 28 28 (4816896)
I0403 14:35:19.985433 13433 net.cpp:148] Top shape: 24 256 28 28 (4816896)
I0403 14:35:19.985447 13433 net.cpp:156] Memory required for data: 657507360
I0403 14:35:19.985461 13433 layer_factory.hpp:77] Creating layer inception_3b/1x1
I0403 14:35:19.985482 13433 net.cpp:91] Creating Layer inception_3b/1x1
I0403 14:35:19.985499 13433 net.cpp:425] inception_3b/1x1 <- inception_3a/output_inception_3a/output_0_split_0
I0403 14:35:19.985519 13433 net.cpp:399] inception_3b/1x1 -> inception_3b/1x1
I0403 14:35:19.986652 13433 net.cpp:141] Setting up inception_3b/1x1
I0403 14:35:19.986691 13433 net.cpp:148] Top shape: 24 128 28 28 (2408448)
I0403 14:35:19.986707 13433 net.cpp:156] Memory required for data: 667141152
I0403 14:35:19.986726 13433 layer_factory.hpp:77] Creating layer inception_3b/relu_1x1
I0403 14:35:19.986745 13433 net.cpp:91] Creating Layer inception_3b/relu_1x1
I0403 14:35:19.986763 13433 net.cpp:425] inception_3b/relu_1x1 <- inception_3b/1x1
I0403 14:35:19.986778 13433 net.cpp:386] inception_3b/relu_1x1 -> inception_3b/1x1 (in-place)
I0403 14:35:19.986949 13433 net.cpp:141] Setting up inception_3b/relu_1x1
I0403 14:35:19.986976 13433 net.cpp:148] Top shape: 24 128 28 28 (2408448)
I0403 14:35:19.986991 13433 net.cpp:156] Memory required for data: 676774944
I0403 14:35:19.987005 13433 layer_factory.hpp:77] Creating layer inception_3b/3x3_reduce
I0403 14:35:19.987027 13433 net.cpp:91] Creating Layer inception_3b/3x3_reduce
I0403 14:35:19.987045 13433 net.cpp:425] inception_3b/3x3_reduce <- inception_3a/output_inception_3a/output_0_split_1
I0403 14:35:19.987063 13433 net.cpp:399] inception_3b/3x3_reduce -> inception_3b/3x3_reduce
I0403 14:35:19.988198 13433 net.cpp:141] Setting up inception_3b/3x3_reduce
I0403 14:35:19.988225 13433 net.cpp:148] Top shape: 24 128 28 28 (2408448)
I0403 14:35:19.988240 13433 net.cpp:156] Memory required for data: 686408736
I0403 14:35:19.988257 13433 layer_factory.hpp:77] Creating layer inception_3b/relu_3x3_reduce
I0403 14:35:19.988277 13433 net.cpp:91] Creating Layer inception_3b/relu_3x3_reduce
I0403 14:35:19.988296 13433 net.cpp:425] inception_3b/relu_3x3_reduce <- inception_3b/3x3_reduce
I0403 14:35:19.988313 13433 net.cpp:386] inception_3b/relu_3x3_reduce -> inception_3b/3x3_reduce (in-place)
I0403 14:35:19.988487 13433 net.cpp:141] Setting up inception_3b/relu_3x3_reduce
I0403 14:35:19.988512 13433 net.cpp:148] Top shape: 24 128 28 28 (2408448)
I0403 14:35:19.988525 13433 net.cpp:156] Memory required for data: 696042528
I0403 14:35:19.988544 13433 layer_factory.hpp:77] Creating layer inception_3b/3x3
I0403 14:35:19.988574 13433 net.cpp:91] Creating Layer inception_3b/3x3
I0403 14:35:19.988591 13433 net.cpp:425] inception_3b/3x3 <- inception_3b/3x3_reduce
I0403 14:35:19.988612 13433 net.cpp:399] inception_3b/3x3 -> inception_3b/3x3
I0403 14:35:19.991614 13433 net.cpp:141] Setting up inception_3b/3x3
I0403 14:35:19.991647 13433 net.cpp:148] Top shape: 24 192 28 28 (3612672)
I0403 14:35:19.991662 13433 net.cpp:156] Memory required for data: 710493216
I0403 14:35:19.991680 13433 layer_factory.hpp:77] Creating layer inception_3b/relu_3x3
I0403 14:35:19.991698 13433 net.cpp:91] Creating Layer inception_3b/relu_3x3
I0403 14:35:19.991714 13433 net.cpp:425] inception_3b/relu_3x3 <- inception_3b/3x3
I0403 14:35:19.991731 13433 net.cpp:386] inception_3b/relu_3x3 -> inception_3b/3x3 (in-place)
I0403 14:35:19.992019 13433 net.cpp:141] Setting up inception_3b/relu_3x3
I0403 14:35:19.992048 13433 net.cpp:148] Top shape: 24 192 28 28 (3612672)
I0403 14:35:19.992064 13433 net.cpp:156] Memory required for data: 724943904
I0403 14:35:19.992080 13433 layer_factory.hpp:77] Creating layer inception_3b/5x5_reduce
I0403 14:35:19.992103 13433 net.cpp:91] Creating Layer inception_3b/5x5_reduce
I0403 14:35:19.992120 13433 net.cpp:425] inception_3b/5x5_reduce <- inception_3a/output_inception_3a/output_0_split_2
I0403 14:35:19.992141 13433 net.cpp:399] inception_3b/5x5_reduce -> inception_3b/5x5_reduce
I0403 14:35:19.993160 13433 net.cpp:141] Setting up inception_3b/5x5_reduce
I0403 14:35:19.993187 13433 net.cpp:148] Top shape: 24 32 28 28 (602112)
I0403 14:35:19.993206 13433 net.cpp:156] Memory required for data: 727352352
I0403 14:35:19.993226 13433 layer_factory.hpp:77] Creating layer inception_3b/relu_5x5_reduce
I0403 14:35:19.993243 13433 net.cpp:91] Creating Layer inception_3b/relu_5x5_reduce
I0403 14:35:19.993258 13433 net.cpp:425] inception_3b/relu_5x5_reduce <- inception_3b/5x5_reduce
I0403 14:35:19.993275 13433 net.cpp:386] inception_3b/relu_5x5_reduce -> inception_3b/5x5_reduce (in-place)
I0403 14:35:19.993477 13433 net.cpp:141] Setting up inception_3b/relu_5x5_reduce
I0403 14:35:19.993505 13433 net.cpp:148] Top shape: 24 32 28 28 (602112)
I0403 14:35:19.993520 13433 net.cpp:156] Memory required for data: 729760800
I0403 14:35:19.993535 13433 layer_factory.hpp:77] Creating layer inception_3b/5x5
I0403 14:35:19.993563 13433 net.cpp:91] Creating Layer inception_3b/5x5
I0403 14:35:19.993580 13433 net.cpp:425] inception_3b/5x5 <- inception_3b/5x5_reduce
I0403 14:35:19.993599 13433 net.cpp:399] inception_3b/5x5 -> inception_3b/5x5
I0403 14:35:19.995643 13433 net.cpp:141] Setting up inception_3b/5x5
I0403 14:35:19.995672 13433 net.cpp:148] Top shape: 24 96 28 28 (1806336)
I0403 14:35:19.995688 13433 net.cpp:156] Memory required for data: 736986144
I0403 14:35:19.995707 13433 layer_factory.hpp:77] Creating layer inception_3b/relu_5x5
I0403 14:35:19.995728 13433 net.cpp:91] Creating Layer inception_3b/relu_5x5
I0403 14:35:19.995743 13433 net.cpp:425] inception_3b/relu_5x5 <- inception_3b/5x5
I0403 14:35:19.995761 13433 net.cpp:386] inception_3b/relu_5x5 -> inception_3b/5x5 (in-place)
I0403 14:35:19.995965 13433 net.cpp:141] Setting up inception_3b/relu_5x5
I0403 14:35:19.995990 13433 net.cpp:148] Top shape: 24 96 28 28 (1806336)
I0403 14:35:19.996004 13433 net.cpp:156] Memory required for data: 744211488
I0403 14:35:19.996019 13433 layer_factory.hpp:77] Creating layer inception_3b/pool
I0403 14:35:19.996037 13433 net.cpp:91] Creating Layer inception_3b/pool
I0403 14:35:19.996053 13433 net.cpp:425] inception_3b/pool <- inception_3a/output_inception_3a/output_0_split_3
I0403 14:35:19.996071 13433 net.cpp:399] inception_3b/pool -> inception_3b/pool
I0403 14:35:19.996129 13433 net.cpp:141] Setting up inception_3b/pool
I0403 14:35:19.996152 13433 net.cpp:148] Top shape: 24 256 28 28 (4816896)
I0403 14:35:19.996166 13433 net.cpp:156] Memory required for data: 763479072
I0403 14:35:19.996181 13433 layer_factory.hpp:77] Creating layer inception_3b/pool_proj
I0403 14:35:19.996203 13433 net.cpp:91] Creating Layer inception_3b/pool_proj
I0403 14:35:19.996220 13433 net.cpp:425] inception_3b/pool_proj <- inception_3b/pool
I0403 14:35:19.996242 13433 net.cpp:399] inception_3b/pool_proj -> inception_3b/pool_proj
I0403 14:35:19.997324 13433 net.cpp:141] Setting up inception_3b/pool_proj
I0403 14:35:19.997355 13433 net.cpp:148] Top shape: 24 64 28 28 (1204224)
I0403 14:35:19.997372 13433 net.cpp:156] Memory required for data: 768295968
I0403 14:35:19.997391 13433 layer_factory.hpp:77] Creating layer inception_3b/relu_pool_proj
I0403 14:35:19.997409 13433 net.cpp:91] Creating Layer inception_3b/relu_pool_proj
I0403 14:35:19.997426 13433 net.cpp:425] inception_3b/relu_pool_proj <- inception_3b/pool_proj
I0403 14:35:19.997445 13433 net.cpp:386] inception_3b/relu_pool_proj -> inception_3b/pool_proj (in-place)
I0403 14:35:19.997853 13433 net.cpp:141] Setting up inception_3b/relu_pool_proj
I0403 14:35:19.997881 13433 net.cpp:148] Top shape: 24 64 28 28 (1204224)
I0403 14:35:19.997896 13433 net.cpp:156] Memory required for data: 773112864
I0403 14:35:19.997911 13433 layer_factory.hpp:77] Creating layer inception_3b/output
I0403 14:35:19.997928 13433 net.cpp:91] Creating Layer inception_3b/output
I0403 14:35:19.997943 13433 net.cpp:425] inception_3b/output <- inception_3b/1x1
I0403 14:35:19.997959 13433 net.cpp:425] inception_3b/output <- inception_3b/3x3
I0403 14:35:19.997977 13433 net.cpp:425] inception_3b/output <- inception_3b/5x5
I0403 14:35:19.997992 13433 net.cpp:425] inception_3b/output <- inception_3b/pool_proj
I0403 14:35:19.998008 13433 net.cpp:399] inception_3b/output -> inception_3b/output
I0403 14:35:19.998054 13433 net.cpp:141] Setting up inception_3b/output
I0403 14:35:19.998077 13433 net.cpp:148] Top shape: 24 480 28 28 (9031680)
I0403 14:35:19.998092 13433 net.cpp:156] Memory required for data: 809239584
I0403 14:35:19.998106 13433 layer_factory.hpp:77] Creating layer pool3/3x3_s2
I0403 14:35:19.998126 13433 net.cpp:91] Creating Layer pool3/3x3_s2
I0403 14:35:19.998142 13433 net.cpp:425] pool3/3x3_s2 <- inception_3b/output
I0403 14:35:19.998177 13433 net.cpp:399] pool3/3x3_s2 -> pool3/3x3_s2
I0403 14:35:19.998236 13433 net.cpp:141] Setting up pool3/3x3_s2
I0403 14:35:19.998260 13433 net.cpp:148] Top shape: 24 480 14 14 (2257920)
I0403 14:35:19.998275 13433 net.cpp:156] Memory required for data: 818271264
I0403 14:35:19.998292 13433 layer_factory.hpp:77] Creating layer pool3/3x3_s2_pool3/3x3_s2_0_split
I0403 14:35:19.998308 13433 net.cpp:91] Creating Layer pool3/3x3_s2_pool3/3x3_s2_0_split
I0403 14:35:19.998323 13433 net.cpp:425] pool3/3x3_s2_pool3/3x3_s2_0_split <- pool3/3x3_s2
I0403 14:35:19.998343 13433 net.cpp:399] pool3/3x3_s2_pool3/3x3_s2_0_split -> pool3/3x3_s2_pool3/3x3_s2_0_split_0
I0403 14:35:19.998364 13433 net.cpp:399] pool3/3x3_s2_pool3/3x3_s2_0_split -> pool3/3x3_s2_pool3/3x3_s2_0_split_1
I0403 14:35:19.998383 13433 net.cpp:399] pool3/3x3_s2_pool3/3x3_s2_0_split -> pool3/3x3_s2_pool3/3x3_s2_0_split_2
I0403 14:35:19.998402 13433 net.cpp:399] pool3/3x3_s2_pool3/3x3_s2_0_split -> pool3/3x3_s2_pool3/3x3_s2_0_split_3
I0403 14:35:19.998481 13433 net.cpp:141] Setting up pool3/3x3_s2_pool3/3x3_s2_0_split
I0403 14:35:19.998507 13433 net.cpp:148] Top shape: 24 480 14 14 (2257920)
I0403 14:35:19.998524 13433 net.cpp:148] Top shape: 24 480 14 14 (2257920)
I0403 14:35:19.998545 13433 net.cpp:148] Top shape: 24 480 14 14 (2257920)
I0403 14:35:19.998564 13433 net.cpp:148] Top shape: 24 480 14 14 (2257920)
I0403 14:35:19.998576 13433 net.cpp:156] Memory required for data: 854397984
I0403 14:35:19.998591 13433 layer_factory.hpp:77] Creating layer inception_4a/1x1
I0403 14:35:19.998615 13433 net.cpp:91] Creating Layer inception_4a/1x1
I0403 14:35:19.998631 13433 net.cpp:425] inception_4a/1x1 <- pool3/3x3_s2_pool3/3x3_s2_0_split_0
I0403 14:35:19.998651 13433 net.cpp:399] inception_4a/1x1 -> inception_4a/1x1
I0403 14:35:20.000257 13433 net.cpp:141] Setting up inception_4a/1x1
I0403 14:35:20.000285 13433 net.cpp:148] Top shape: 24 192 14 14 (903168)
I0403 14:35:20.000303 13433 net.cpp:156] Memory required for data: 858010656
I0403 14:35:20.000321 13433 layer_factory.hpp:77] Creating layer inception_4a/relu_1x1
I0403 14:35:20.000339 13433 net.cpp:91] Creating Layer inception_4a/relu_1x1
I0403 14:35:20.000358 13433 net.cpp:425] inception_4a/relu_1x1 <- inception_4a/1x1
I0403 14:35:20.000375 13433 net.cpp:386] inception_4a/relu_1x1 -> inception_4a/1x1 (in-place)
I0403 14:35:20.000565 13433 net.cpp:141] Setting up inception_4a/relu_1x1
I0403 14:35:20.000589 13433 net.cpp:148] Top shape: 24 192 14 14 (903168)
I0403 14:35:20.000604 13433 net.cpp:156] Memory required for data: 861623328
I0403 14:35:20.000619 13433 layer_factory.hpp:77] Creating layer inception_4a/3x3_reduce
I0403 14:35:20.000641 13433 net.cpp:91] Creating Layer inception_4a/3x3_reduce
I0403 14:35:20.000658 13433 net.cpp:425] inception_4a/3x3_reduce <- pool3/3x3_s2_pool3/3x3_s2_0_split_1
I0403 14:35:20.000680 13433 net.cpp:399] inception_4a/3x3_reduce -> inception_4a/3x3_reduce
I0403 14:35:20.001996 13433 net.cpp:141] Setting up inception_4a/3x3_reduce
I0403 14:35:20.002024 13433 net.cpp:148] Top shape: 24 96 14 14 (451584)
I0403 14:35:20.002039 13433 net.cpp:156] Memory required for data: 863429664
I0403 14:35:20.002065 13433 layer_factory.hpp:77] Creating layer inception_4a/relu_3x3_reduce
I0403 14:35:20.002085 13433 net.cpp:91] Creating Layer inception_4a/relu_3x3_reduce
I0403 14:35:20.002101 13433 net.cpp:425] inception_4a/relu_3x3_reduce <- inception_4a/3x3_reduce
I0403 14:35:20.002121 13433 net.cpp:386] inception_4a/relu_3x3_reduce -> inception_4a/3x3_reduce (in-place)
I0403 14:35:20.002301 13433 net.cpp:141] Setting up inception_4a/relu_3x3_reduce
I0403 14:35:20.002326 13433 net.cpp:148] Top shape: 24 96 14 14 (451584)
I0403 14:35:20.002341 13433 net.cpp:156] Memory required for data: 865236000
I0403 14:35:20.002354 13433 layer_factory.hpp:77] Creating layer inception_4a/3x3
I0403 14:35:20.002377 13433 net.cpp:91] Creating Layer inception_4a/3x3
I0403 14:35:20.002394 13433 net.cpp:425] inception_4a/3x3 <- inception_4a/3x3_reduce
I0403 14:35:20.002415 13433 net.cpp:399] inception_4a/3x3 -> inception_4a/3x3
I0403 14:35:20.005153 13433 net.cpp:141] Setting up inception_4a/3x3
I0403 14:35:20.005182 13433 net.cpp:148] Top shape: 24 208 14 14 (978432)
I0403 14:35:20.005198 13433 net.cpp:156] Memory required for data: 869149728
I0403 14:35:20.005215 13433 layer_factory.hpp:77] Creating layer inception_4a/relu_3x3
I0403 14:35:20.005235 13433 net.cpp:91] Creating Layer inception_4a/relu_3x3
I0403 14:35:20.005251 13433 net.cpp:425] inception_4a/relu_3x3 <- inception_4a/3x3
I0403 14:35:20.005269 13433 net.cpp:386] inception_4a/relu_3x3 -> inception_4a/3x3 (in-place)
I0403 14:35:20.005555 13433 net.cpp:141] Setting up inception_4a/relu_3x3
I0403 14:35:20.005581 13433 net.cpp:148] Top shape: 24 208 14 14 (978432)
I0403 14:35:20.005596 13433 net.cpp:156] Memory required for data: 873063456
I0403 14:35:20.005610 13433 layer_factory.hpp:77] Creating layer inception_4a/5x5_reduce
I0403 14:35:20.005632 13433 net.cpp:91] Creating Layer inception_4a/5x5_reduce
I0403 14:35:20.005650 13433 net.cpp:425] inception_4a/5x5_reduce <- pool3/3x3_s2_pool3/3x3_s2_0_split_2
I0403 14:35:20.005671 13433 net.cpp:399] inception_4a/5x5_reduce -> inception_4a/5x5_reduce
I0403 14:35:20.006695 13433 net.cpp:141] Setting up inception_4a/5x5_reduce
I0403 14:35:20.006721 13433 net.cpp:148] Top shape: 24 16 14 14 (75264)
I0403 14:35:20.006737 13433 net.cpp:156] Memory required for data: 873364512
I0403 14:35:20.006754 13433 layer_factory.hpp:77] Creating layer inception_4a/relu_5x5_reduce
I0403 14:35:20.006775 13433 net.cpp:91] Creating Layer inception_4a/relu_5x5_reduce
I0403 14:35:20.006793 13433 net.cpp:425] inception_4a/relu_5x5_reduce <- inception_4a/5x5_reduce
I0403 14:35:20.006809 13433 net.cpp:386] inception_4a/relu_5x5_reduce -> inception_4a/5x5_reduce (in-place)
I0403 14:35:20.006985 13433 net.cpp:141] Setting up inception_4a/relu_5x5_reduce
I0403 14:35:20.007014 13433 net.cpp:148] Top shape: 24 16 14 14 (75264)
I0403 14:35:20.007027 13433 net.cpp:156] Memory required for data: 873665568
I0403 14:35:20.007042 13433 layer_factory.hpp:77] Creating layer inception_4a/5x5
I0403 14:35:20.007063 13433 net.cpp:91] Creating Layer inception_4a/5x5
I0403 14:35:20.007081 13433 net.cpp:425] inception_4a/5x5 <- inception_4a/5x5_reduce
I0403 14:35:20.007099 13433 net.cpp:399] inception_4a/5x5 -> inception_4a/5x5
I0403 14:35:20.008184 13433 net.cpp:141] Setting up inception_4a/5x5
I0403 14:35:20.008213 13433 net.cpp:148] Top shape: 24 48 14 14 (225792)
I0403 14:35:20.008229 13433 net.cpp:156] Memory required for data: 874568736
I0403 14:35:20.008246 13433 layer_factory.hpp:77] Creating layer inception_4a/relu_5x5
I0403 14:35:20.008263 13433 net.cpp:91] Creating Layer inception_4a/relu_5x5
I0403 14:35:20.008280 13433 net.cpp:425] inception_4a/relu_5x5 <- inception_4a/5x5
I0403 14:35:20.008301 13433 net.cpp:386] inception_4a/relu_5x5 -> inception_4a/5x5 (in-place)
I0403 14:35:20.008477 13433 net.cpp:141] Setting up inception_4a/relu_5x5
I0403 14:35:20.008502 13433 net.cpp:148] Top shape: 24 48 14 14 (225792)
I0403 14:35:20.008517 13433 net.cpp:156] Memory required for data: 875471904
I0403 14:35:20.008530 13433 layer_factory.hpp:77] Creating layer inception_4a/pool
I0403 14:35:20.008555 13433 net.cpp:91] Creating Layer inception_4a/pool
I0403 14:35:20.008574 13433 net.cpp:425] inception_4a/pool <- pool3/3x3_s2_pool3/3x3_s2_0_split_3
I0403 14:35:20.008591 13433 net.cpp:399] inception_4a/pool -> inception_4a/pool
I0403 14:35:20.008672 13433 net.cpp:141] Setting up inception_4a/pool
I0403 14:35:20.008695 13433 net.cpp:148] Top shape: 24 480 14 14 (2257920)
I0403 14:35:20.008709 13433 net.cpp:156] Memory required for data: 884503584
I0403 14:35:20.008723 13433 layer_factory.hpp:77] Creating layer inception_4a/pool_proj
I0403 14:35:20.008744 13433 net.cpp:91] Creating Layer inception_4a/pool_proj
I0403 14:35:20.008759 13433 net.cpp:425] inception_4a/pool_proj <- inception_4a/pool
I0403 14:35:20.008780 13433 net.cpp:399] inception_4a/pool_proj -> inception_4a/pool_proj
I0403 14:35:20.009902 13433 net.cpp:141] Setting up inception_4a/pool_proj
I0403 14:35:20.009929 13433 net.cpp:148] Top shape: 24 64 14 14 (301056)
I0403 14:35:20.009960 13433 net.cpp:156] Memory required for data: 885707808
I0403 14:35:20.009979 13433 layer_factory.hpp:77] Creating layer inception_4a/relu_pool_proj
I0403 14:35:20.009997 13433 net.cpp:91] Creating Layer inception_4a/relu_pool_proj
I0403 14:35:20.010012 13433 net.cpp:425] inception_4a/relu_pool_proj <- inception_4a/pool_proj
I0403 14:35:20.010032 13433 net.cpp:386] inception_4a/relu_pool_proj -> inception_4a/pool_proj (in-place)
I0403 14:35:20.010306 13433 net.cpp:141] Setting up inception_4a/relu_pool_proj
I0403 14:35:20.010331 13433 net.cpp:148] Top shape: 24 64 14 14 (301056)
I0403 14:35:20.010346 13433 net.cpp:156] Memory required for data: 886912032
I0403 14:35:20.010360 13433 layer_factory.hpp:77] Creating layer inception_4a/output
I0403 14:35:20.010376 13433 net.cpp:91] Creating Layer inception_4a/output
I0403 14:35:20.010390 13433 net.cpp:425] inception_4a/output <- inception_4a/1x1
I0403 14:35:20.010406 13433 net.cpp:425] inception_4a/output <- inception_4a/3x3
I0403 14:35:20.010421 13433 net.cpp:425] inception_4a/output <- inception_4a/5x5
I0403 14:35:20.010437 13433 net.cpp:425] inception_4a/output <- inception_4a/pool_proj
I0403 14:35:20.010455 13433 net.cpp:399] inception_4a/output -> inception_4a/output
I0403 14:35:20.010499 13433 net.cpp:141] Setting up inception_4a/output
I0403 14:35:20.010524 13433 net.cpp:148] Top shape: 24 512 14 14 (2408448)
I0403 14:35:20.010541 13433 net.cpp:156] Memory required for data: 896545824
I0403 14:35:20.010557 13433 layer_factory.hpp:77] Creating layer inception_4a/output_inception_4a/output_0_split
I0403 14:35:20.010574 13433 net.cpp:91] Creating Layer inception_4a/output_inception_4a/output_0_split
I0403 14:35:20.010589 13433 net.cpp:425] inception_4a/output_inception_4a/output_0_split <- inception_4a/output
I0403 14:35:20.010606 13433 net.cpp:399] inception_4a/output_inception_4a/output_0_split -> inception_4a/output_inception_4a/output_0_split_0
I0403 14:35:20.010627 13433 net.cpp:399] inception_4a/output_inception_4a/output_0_split -> inception_4a/output_inception_4a/output_0_split_1
I0403 14:35:20.010648 13433 net.cpp:399] inception_4a/output_inception_4a/output_0_split -> inception_4a/output_inception_4a/output_0_split_2
I0403 14:35:20.010668 13433 net.cpp:399] inception_4a/output_inception_4a/output_0_split -> inception_4a/output_inception_4a/output_0_split_3
I0403 14:35:20.010686 13433 net.cpp:399] inception_4a/output_inception_4a/output_0_split -> inception_4a/output_inception_4a/output_0_split_4
I0403 14:35:20.010778 13433 net.cpp:141] Setting up inception_4a/output_inception_4a/output_0_split
I0403 14:35:20.010800 13433 net.cpp:148] Top shape: 24 512 14 14 (2408448)
I0403 14:35:20.010815 13433 net.cpp:148] Top shape: 24 512 14 14 (2408448)
I0403 14:35:20.010833 13433 net.cpp:148] Top shape: 24 512 14 14 (2408448)
I0403 14:35:20.010848 13433 net.cpp:148] Top shape: 24 512 14 14 (2408448)
I0403 14:35:20.010862 13433 net.cpp:148] Top shape: 24 512 14 14 (2408448)
I0403 14:35:20.010875 13433 net.cpp:156] Memory required for data: 944714784
I0403 14:35:20.010888 13433 layer_factory.hpp:77] Creating layer loss1/ave_pool
I0403 14:35:20.010905 13433 net.cpp:91] Creating Layer loss1/ave_pool
I0403 14:35:20.010920 13433 net.cpp:425] loss1/ave_pool <- inception_4a/output_inception_4a/output_0_split_0
I0403 14:35:20.010936 13433 net.cpp:399] loss1/ave_pool -> loss1/ave_pool
I0403 14:35:20.011148 13433 net.cpp:141] Setting up loss1/ave_pool
I0403 14:35:20.011173 13433 net.cpp:148] Top shape: 24 512 4 4 (196608)
I0403 14:35:20.011188 13433 net.cpp:156] Memory required for data: 945501216
I0403 14:35:20.011203 13433 layer_factory.hpp:77] Creating layer loss1/conv
I0403 14:35:20.011224 13433 net.cpp:91] Creating Layer loss1/conv
I0403 14:35:20.011241 13433 net.cpp:425] loss1/conv <- loss1/ave_pool
I0403 14:35:20.011261 13433 net.cpp:399] loss1/conv -> loss1/conv
I0403 14:35:20.012671 13433 net.cpp:141] Setting up loss1/conv
I0403 14:35:20.012698 13433 net.cpp:148] Top shape: 24 128 4 4 (49152)
I0403 14:35:20.012728 13433 net.cpp:156] Memory required for data: 945697824
I0403 14:35:20.012748 13433 layer_factory.hpp:77] Creating layer loss1/relu_conv
I0403 14:35:20.012768 13433 net.cpp:91] Creating Layer loss1/relu_conv
I0403 14:35:20.012784 13433 net.cpp:425] loss1/relu_conv <- loss1/conv
I0403 14:35:20.012801 13433 net.cpp:386] loss1/relu_conv -> loss1/conv (in-place)
I0403 14:35:20.013087 13433 net.cpp:141] Setting up loss1/relu_conv
I0403 14:35:20.013110 13433 net.cpp:148] Top shape: 24 128 4 4 (49152)
I0403 14:35:20.013124 13433 net.cpp:156] Memory required for data: 945894432
I0403 14:35:20.013139 13433 layer_factory.hpp:77] Creating layer loss1/fc
I0403 14:35:20.013164 13433 net.cpp:91] Creating Layer loss1/fc
I0403 14:35:20.013180 13433 net.cpp:425] loss1/fc <- loss1/conv
I0403 14:35:20.013197 13433 net.cpp:399] loss1/fc -> loss1/fc
I0403 14:35:20.030334 13433 net.cpp:141] Setting up loss1/fc
I0403 14:35:20.030364 13433 net.cpp:148] Top shape: 24 1024 (24576)
I0403 14:35:20.030380 13433 net.cpp:156] Memory required for data: 945992736
I0403 14:35:20.030396 13433 layer_factory.hpp:77] Creating layer loss1/relu_fc
I0403 14:35:20.030413 13433 net.cpp:91] Creating Layer loss1/relu_fc
I0403 14:35:20.030429 13433 net.cpp:425] loss1/relu_fc <- loss1/fc
I0403 14:35:20.030452 13433 net.cpp:386] loss1/relu_fc -> loss1/fc (in-place)
I0403 14:35:20.030632 13433 net.cpp:141] Setting up loss1/relu_fc
I0403 14:35:20.030657 13433 net.cpp:148] Top shape: 24 1024 (24576)
I0403 14:35:20.030670 13433 net.cpp:156] Memory required for data: 946091040
I0403 14:35:20.030684 13433 layer_factory.hpp:77] Creating layer loss1/drop_fc
I0403 14:35:20.030710 13433 net.cpp:91] Creating Layer loss1/drop_fc
I0403 14:35:20.030726 13433 net.cpp:425] loss1/drop_fc <- loss1/fc
I0403 14:35:20.030742 13433 net.cpp:386] loss1/drop_fc -> loss1/fc (in-place)
I0403 14:35:20.030789 13433 net.cpp:141] Setting up loss1/drop_fc
I0403 14:35:20.030815 13433 net.cpp:148] Top shape: 24 1024 (24576)
I0403 14:35:20.030830 13433 net.cpp:156] Memory required for data: 946189344
I0403 14:35:20.030845 13433 layer_factory.hpp:77] Creating layer loss1/classifier_plantvillage
I0403 14:35:20.030863 13433 net.cpp:91] Creating Layer loss1/classifier_plantvillage
I0403 14:35:20.030877 13433 net.cpp:425] loss1/classifier_plantvillage <- loss1/fc
I0403 14:35:20.030896 13433 net.cpp:399] loss1/classifier_plantvillage -> loss1/classifier_plantvillage
I0403 14:35:20.031795 13433 net.cpp:141] Setting up loss1/classifier_plantvillage
I0403 14:35:20.031821 13433 net.cpp:148] Top shape: 24 38 (912)
I0403 14:35:20.031836 13433 net.cpp:156] Memory required for data: 946192992
I0403 14:35:20.031853 13433 layer_factory.hpp:77] Creating layer loss1/classifier_plantvillage_loss1/classifier_plantvillage_0_split
I0403 14:35:20.031873 13433 net.cpp:91] Creating Layer loss1/classifier_plantvillage_loss1/classifier_plantvillage_0_split
I0403 14:35:20.031889 13433 net.cpp:425] loss1/classifier_plantvillage_loss1/classifier_plantvillage_0_split <- loss1/classifier_plantvillage
I0403 14:35:20.031905 13433 net.cpp:399] loss1/classifier_plantvillage_loss1/classifier_plantvillage_0_split -> loss1/classifier_plantvillage_loss1/classifier_plantvillage_0_split_0
I0403 14:35:20.031925 13433 net.cpp:399] loss1/classifier_plantvillage_loss1/classifier_plantvillage_0_split -> loss1/classifier_plantvillage_loss1/classifier_plantvillage_0_split_1
I0403 14:35:20.031944 13433 net.cpp:399] loss1/classifier_plantvillage_loss1/classifier_plantvillage_0_split -> loss1/classifier_plantvillage_loss1/classifier_plantvillage_0_split_2
I0403 14:35:20.032008 13433 net.cpp:141] Setting up loss1/classifier_plantvillage_loss1/classifier_plantvillage_0_split
I0403 14:35:20.032032 13433 net.cpp:148] Top shape: 24 38 (912)
I0403 14:35:20.032047 13433 net.cpp:148] Top shape: 24 38 (912)
I0403 14:35:20.032063 13433 net.cpp:148] Top shape: 24 38 (912)
I0403 14:35:20.032075 13433 net.cpp:156] Memory required for data: 946203936
I0403 14:35:20.032089 13433 layer_factory.hpp:77] Creating layer inception_4b/1x1
I0403 14:35:20.032109 13433 net.cpp:91] Creating Layer inception_4b/1x1
I0403 14:35:20.032140 13433 net.cpp:425] inception_4b/1x1 <- inception_4a/output_inception_4a/output_0_split_1
I0403 14:35:20.032158 13433 net.cpp:399] inception_4b/1x1 -> inception_4b/1x1
I0403 14:35:20.033749 13433 net.cpp:141] Setting up inception_4b/1x1
I0403 14:35:20.033776 13433 net.cpp:148] Top shape: 24 160 14 14 (752640)
I0403 14:35:20.033792 13433 net.cpp:156] Memory required for data: 949214496
I0403 14:35:20.033808 13433 layer_factory.hpp:77] Creating layer inception_4b/relu_1x1
I0403 14:35:20.033828 13433 net.cpp:91] Creating Layer inception_4b/relu_1x1
I0403 14:35:20.033843 13433 net.cpp:425] inception_4b/relu_1x1 <- inception_4b/1x1
I0403 14:35:20.033859 13433 net.cpp:386] inception_4b/relu_1x1 -> inception_4b/1x1 (in-place)
I0403 14:35:20.034035 13433 net.cpp:141] Setting up inception_4b/relu_1x1
I0403 14:35:20.034060 13433 net.cpp:148] Top shape: 24 160 14 14 (752640)
I0403 14:35:20.034075 13433 net.cpp:156] Memory required for data: 952225056
I0403 14:35:20.034088 13433 layer_factory.hpp:77] Creating layer inception_4b/3x3_reduce
I0403 14:35:20.034111 13433 net.cpp:91] Creating Layer inception_4b/3x3_reduce
I0403 14:35:20.034126 13433 net.cpp:425] inception_4b/3x3_reduce <- inception_4a/output_inception_4a/output_0_split_2
I0403 14:35:20.034144 13433 net.cpp:399] inception_4b/3x3_reduce -> inception_4b/3x3_reduce
I0403 14:35:20.035462 13433 net.cpp:141] Setting up inception_4b/3x3_reduce
I0403 14:35:20.035492 13433 net.cpp:148] Top shape: 24 112 14 14 (526848)
I0403 14:35:20.035508 13433 net.cpp:156] Memory required for data: 954332448
I0403 14:35:20.035526 13433 layer_factory.hpp:77] Creating layer inception_4b/relu_3x3_reduce
I0403 14:35:20.035547 13433 net.cpp:91] Creating Layer inception_4b/relu_3x3_reduce
I0403 14:35:20.035563 13433 net.cpp:425] inception_4b/relu_3x3_reduce <- inception_4b/3x3_reduce
I0403 14:35:20.035583 13433 net.cpp:386] inception_4b/relu_3x3_reduce -> inception_4b/3x3_reduce (in-place)
I0403 14:35:20.035854 13433 net.cpp:141] Setting up inception_4b/relu_3x3_reduce
I0403 14:35:20.035881 13433 net.cpp:148] Top shape: 24 112 14 14 (526848)
I0403 14:35:20.035897 13433 net.cpp:156] Memory required for data: 956439840
I0403 14:35:20.035910 13433 layer_factory.hpp:77] Creating layer inception_4b/3x3
I0403 14:35:20.035934 13433 net.cpp:91] Creating Layer inception_4b/3x3
I0403 14:35:20.035950 13433 net.cpp:425] inception_4b/3x3 <- inception_4b/3x3_reduce
I0403 14:35:20.035969 13433 net.cpp:399] inception_4b/3x3 -> inception_4b/3x3
I0403 14:35:20.039002 13433 net.cpp:141] Setting up inception_4b/3x3
I0403 14:35:20.039033 13433 net.cpp:148] Top shape: 24 224 14 14 (1053696)
I0403 14:35:20.039049 13433 net.cpp:156] Memory required for data: 960654624
I0403 14:35:20.039067 13433 layer_factory.hpp:77] Creating layer inception_4b/relu_3x3
I0403 14:35:20.039088 13433 net.cpp:91] Creating Layer inception_4b/relu_3x3
I0403 14:35:20.039104 13433 net.cpp:425] inception_4b/relu_3x3 <- inception_4b/3x3
I0403 14:35:20.039121 13433 net.cpp:386] inception_4b/relu_3x3 -> inception_4b/3x3 (in-place)
I0403 14:35:20.039299 13433 net.cpp:141] Setting up inception_4b/relu_3x3
I0403 14:35:20.039324 13433 net.cpp:148] Top shape: 24 224 14 14 (1053696)
I0403 14:35:20.039337 13433 net.cpp:156] Memory required for data: 964869408
I0403 14:35:20.039351 13433 layer_factory.hpp:77] Creating layer inception_4b/5x5_reduce
I0403 14:35:20.039373 13433 net.cpp:91] Creating Layer inception_4b/5x5_reduce
I0403 14:35:20.039391 13433 net.cpp:425] inception_4b/5x5_reduce <- inception_4a/output_inception_4a/output_0_split_3
I0403 14:35:20.039412 13433 net.cpp:399] inception_4b/5x5_reduce -> inception_4b/5x5_reduce
I0403 14:35:20.040489 13433 net.cpp:141] Setting up inception_4b/5x5_reduce
I0403 14:35:20.040518 13433 net.cpp:148] Top shape: 24 24 14 14 (112896)
I0403 14:35:20.040534 13433 net.cpp:156] Memory required for data: 965320992
I0403 14:35:20.040556 13433 layer_factory.hpp:77] Creating layer inception_4b/relu_5x5_reduce
I0403 14:35:20.040577 13433 net.cpp:91] Creating Layer inception_4b/relu_5x5_reduce
I0403 14:35:20.040607 13433 net.cpp:425] inception_4b/relu_5x5_reduce <- inception_4b/5x5_reduce
I0403 14:35:20.040626 13433 net.cpp:386] inception_4b/relu_5x5_reduce -> inception_4b/5x5_reduce (in-place)
I0403 14:35:20.040807 13433 net.cpp:141] Setting up inception_4b/relu_5x5_reduce
I0403 14:35:20.040830 13433 net.cpp:148] Top shape: 24 24 14 14 (112896)
I0403 14:35:20.040844 13433 net.cpp:156] Memory required for data: 965772576
I0403 14:35:20.040858 13433 layer_factory.hpp:77] Creating layer inception_4b/5x5
I0403 14:35:20.040880 13433 net.cpp:91] Creating Layer inception_4b/5x5
I0403 14:35:20.040897 13433 net.cpp:425] inception_4b/5x5 <- inception_4b/5x5_reduce
I0403 14:35:20.040918 13433 net.cpp:399] inception_4b/5x5 -> inception_4b/5x5
I0403 14:35:20.042140 13433 net.cpp:141] Setting up inception_4b/5x5
I0403 14:35:20.042167 13433 net.cpp:148] Top shape: 24 64 14 14 (301056)
I0403 14:35:20.042182 13433 net.cpp:156] Memory required for data: 966976800
I0403 14:35:20.042201 13433 layer_factory.hpp:77] Creating layer inception_4b/relu_5x5
I0403 14:35:20.042220 13433 net.cpp:91] Creating Layer inception_4b/relu_5x5
I0403 14:35:20.042237 13433 net.cpp:425] inception_4b/relu_5x5 <- inception_4b/5x5
I0403 14:35:20.042254 13433 net.cpp:386] inception_4b/relu_5x5 -> inception_4b/5x5 (in-place)
I0403 14:35:20.042541 13433 net.cpp:141] Setting up inception_4b/relu_5x5
I0403 14:35:20.042567 13433 net.cpp:148] Top shape: 24 64 14 14 (301056)
I0403 14:35:20.042582 13433 net.cpp:156] Memory required for data: 968181024
I0403 14:35:20.042596 13433 layer_factory.hpp:77] Creating layer inception_4b/pool
I0403 14:35:20.042615 13433 net.cpp:91] Creating Layer inception_4b/pool
I0403 14:35:20.042631 13433 net.cpp:425] inception_4b/pool <- inception_4a/output_inception_4a/output_0_split_4
I0403 14:35:20.042649 13433 net.cpp:399] inception_4b/pool -> inception_4b/pool
I0403 14:35:20.042713 13433 net.cpp:141] Setting up inception_4b/pool
I0403 14:35:20.042737 13433 net.cpp:148] Top shape: 24 512 14 14 (2408448)
I0403 14:35:20.042750 13433 net.cpp:156] Memory required for data: 977814816
I0403 14:35:20.042764 13433 layer_factory.hpp:77] Creating layer inception_4b/pool_proj
I0403 14:35:20.042785 13433 net.cpp:91] Creating Layer inception_4b/pool_proj
I0403 14:35:20.042804 13433 net.cpp:425] inception_4b/pool_proj <- inception_4b/pool
I0403 14:35:20.042824 13433 net.cpp:399] inception_4b/pool_proj -> inception_4b/pool_proj
I0403 14:35:20.044025 13433 net.cpp:141] Setting up inception_4b/pool_proj
I0403 14:35:20.044055 13433 net.cpp:148] Top shape: 24 64 14 14 (301056)
I0403 14:35:20.044071 13433 net.cpp:156] Memory required for data: 979019040
I0403 14:35:20.044090 13433 layer_factory.hpp:77] Creating layer inception_4b/relu_pool_proj
I0403 14:35:20.044107 13433 net.cpp:91] Creating Layer inception_4b/relu_pool_proj
I0403 14:35:20.044122 13433 net.cpp:425] inception_4b/relu_pool_proj <- inception_4b/pool_proj
I0403 14:35:20.044139 13433 net.cpp:386] inception_4b/relu_pool_proj -> inception_4b/pool_proj (in-place)
I0403 14:35:20.044317 13433 net.cpp:141] Setting up inception_4b/relu_pool_proj
I0403 14:35:20.044343 13433 net.cpp:148] Top shape: 24 64 14 14 (301056)
I0403 14:35:20.044358 13433 net.cpp:156] Memory required for data: 980223264
I0403 14:35:20.044373 13433 layer_factory.hpp:77] Creating layer inception_4b/output
I0403 14:35:20.044389 13433 net.cpp:91] Creating Layer inception_4b/output
I0403 14:35:20.044404 13433 net.cpp:425] inception_4b/output <- inception_4b/1x1
I0403 14:35:20.044420 13433 net.cpp:425] inception_4b/output <- inception_4b/3x3
I0403 14:35:20.044435 13433 net.cpp:425] inception_4b/output <- inception_4b/5x5
I0403 14:35:20.044450 13433 net.cpp:425] inception_4b/output <- inception_4b/pool_proj
I0403 14:35:20.044468 13433 net.cpp:399] inception_4b/output -> inception_4b/output
I0403 14:35:20.044513 13433 net.cpp:141] Setting up inception_4b/output
I0403 14:35:20.044535 13433 net.cpp:148] Top shape: 24 512 14 14 (2408448)
I0403 14:35:20.044562 13433 net.cpp:156] Memory required for data: 989857056
I0403 14:35:20.044591 13433 layer_factory.hpp:77] Creating layer inception_4b/output_inception_4b/output_0_split
I0403 14:35:20.044612 13433 net.cpp:91] Creating Layer inception_4b/output_inception_4b/output_0_split
I0403 14:35:20.044627 13433 net.cpp:425] inception_4b/output_inception_4b/output_0_split <- inception_4b/output
I0403 14:35:20.044644 13433 net.cpp:399] inception_4b/output_inception_4b/output_0_split -> inception_4b/output_inception_4b/output_0_split_0
I0403 14:35:20.044663 13433 net.cpp:399] inception_4b/output_inception_4b/output_0_split -> inception_4b/output_inception_4b/output_0_split_1
I0403 14:35:20.044687 13433 net.cpp:399] inception_4b/output_inception_4b/output_0_split -> inception_4b/output_inception_4b/output_0_split_2
I0403 14:35:20.044706 13433 net.cpp:399] inception_4b/output_inception_4b/output_0_split -> inception_4b/output_inception_4b/output_0_split_3
I0403 14:35:20.044792 13433 net.cpp:141] Setting up inception_4b/output_inception_4b/output_0_split
I0403 14:35:20.044816 13433 net.cpp:148] Top shape: 24 512 14 14 (2408448)
I0403 14:35:20.044831 13433 net.cpp:148] Top shape: 24 512 14 14 (2408448)
I0403 14:35:20.044845 13433 net.cpp:148] Top shape: 24 512 14 14 (2408448)
I0403 14:35:20.044860 13433 net.cpp:148] Top shape: 24 512 14 14 (2408448)
I0403 14:35:20.044873 13433 net.cpp:156] Memory required for data: 1028392224
I0403 14:35:20.044888 13433 layer_factory.hpp:77] Creating layer inception_4c/1x1
I0403 14:35:20.044909 13433 net.cpp:91] Creating Layer inception_4c/1x1
I0403 14:35:20.044925 13433 net.cpp:425] inception_4c/1x1 <- inception_4b/output_inception_4b/output_0_split_0
I0403 14:35:20.044945 13433 net.cpp:399] inception_4c/1x1 -> inception_4c/1x1
I0403 14:35:20.046372 13433 net.cpp:141] Setting up inception_4c/1x1
I0403 14:35:20.046403 13433 net.cpp:148] Top shape: 24 128 14 14 (602112)
I0403 14:35:20.046421 13433 net.cpp:156] Memory required for data: 1030800672
I0403 14:35:20.046438 13433 layer_factory.hpp:77] Creating layer inception_4c/relu_1x1
I0403 14:35:20.046455 13433 net.cpp:91] Creating Layer inception_4c/relu_1x1
I0403 14:35:20.046471 13433 net.cpp:425] inception_4c/relu_1x1 <- inception_4c/1x1
I0403 14:35:20.046490 13433 net.cpp:386] inception_4c/relu_1x1 -> inception_4c/1x1 (in-place)
I0403 14:35:20.046674 13433 net.cpp:141] Setting up inception_4c/relu_1x1
I0403 14:35:20.046701 13433 net.cpp:148] Top shape: 24 128 14 14 (602112)
I0403 14:35:20.046715 13433 net.cpp:156] Memory required for data: 1033209120
I0403 14:35:20.046730 13433 layer_factory.hpp:77] Creating layer inception_4c/3x3_reduce
I0403 14:35:20.046751 13433 net.cpp:91] Creating Layer inception_4c/3x3_reduce
I0403 14:35:20.046775 13433 net.cpp:425] inception_4c/3x3_reduce <- inception_4b/output_inception_4b/output_0_split_1
I0403 14:35:20.046797 13433 net.cpp:399] inception_4c/3x3_reduce -> inception_4c/3x3_reduce
I0403 14:35:20.048799 13433 net.cpp:141] Setting up inception_4c/3x3_reduce
I0403 14:35:20.048827 13433 net.cpp:148] Top shape: 24 128 14 14 (602112)
I0403 14:35:20.048843 13433 net.cpp:156] Memory required for data: 1035617568
I0403 14:35:20.048861 13433 layer_factory.hpp:77] Creating layer inception_4c/relu_3x3_reduce
I0403 14:35:20.048882 13433 net.cpp:91] Creating Layer inception_4c/relu_3x3_reduce
I0403 14:35:20.048899 13433 net.cpp:425] inception_4c/relu_3x3_reduce <- inception_4c/3x3_reduce
I0403 14:35:20.048918 13433 net.cpp:386] inception_4c/relu_3x3_reduce -> inception_4c/3x3_reduce (in-place)
I0403 14:35:20.049213 13433 net.cpp:141] Setting up inception_4c/relu_3x3_reduce
I0403 14:35:20.049239 13433 net.cpp:148] Top shape: 24 128 14 14 (602112)
I0403 14:35:20.049254 13433 net.cpp:156] Memory required for data: 1038026016
I0403 14:35:20.049269 13433 layer_factory.hpp:77] Creating layer inception_4c/3x3
I0403 14:35:20.049291 13433 net.cpp:91] Creating Layer inception_4c/3x3
I0403 14:35:20.049309 13433 net.cpp:425] inception_4c/3x3 <- inception_4c/3x3_reduce
I0403 14:35:20.049331 13433 net.cpp:399] inception_4c/3x3 -> inception_4c/3x3
I0403 14:35:20.053061 13433 net.cpp:141] Setting up inception_4c/3x3
I0403 14:35:20.053103 13433 net.cpp:148] Top shape: 24 256 14 14 (1204224)
I0403 14:35:20.053119 13433 net.cpp:156] Memory required for data: 1042842912
I0403 14:35:20.053151 13433 layer_factory.hpp:77] Creating layer inception_4c/relu_3x3
I0403 14:35:20.053174 13433 net.cpp:91] Creating Layer inception_4c/relu_3x3
I0403 14:35:20.053190 13433 net.cpp:425] inception_4c/relu_3x3 <- inception_4c/3x3
I0403 14:35:20.053207 13433 net.cpp:386] inception_4c/relu_3x3 -> inception_4c/3x3 (in-place)
I0403 14:35:20.053398 13433 net.cpp:141] Setting up inception_4c/relu_3x3
I0403 14:35:20.053423 13433 net.cpp:148] Top shape: 24 256 14 14 (1204224)
I0403 14:35:20.053438 13433 net.cpp:156] Memory required for data: 1047659808
I0403 14:35:20.053452 13433 layer_factory.hpp:77] Creating layer inception_4c/5x5_reduce
I0403 14:35:20.053478 13433 net.cpp:91] Creating Layer inception_4c/5x5_reduce
I0403 14:35:20.053496 13433 net.cpp:425] inception_4c/5x5_reduce <- inception_4b/output_inception_4b/output_0_split_2
I0403 14:35:20.053515 13433 net.cpp:399] inception_4c/5x5_reduce -> inception_4c/5x5_reduce
I0403 14:35:20.054652 13433 net.cpp:141] Setting up inception_4c/5x5_reduce
I0403 14:35:20.054682 13433 net.cpp:148] Top shape: 24 24 14 14 (112896)
I0403 14:35:20.054697 13433 net.cpp:156] Memory required for data: 1048111392
I0403 14:35:20.054715 13433 layer_factory.hpp:77] Creating layer inception_4c/relu_5x5_reduce
I0403 14:35:20.054736 13433 net.cpp:91] Creating Layer inception_4c/relu_5x5_reduce
I0403 14:35:20.054754 13433 net.cpp:425] inception_4c/relu_5x5_reduce <- inception_4c/5x5_reduce
I0403 14:35:20.054771 13433 net.cpp:386] inception_4c/relu_5x5_reduce -> inception_4c/5x5_reduce (in-place)
I0403 14:35:20.054963 13433 net.cpp:141] Setting up inception_4c/relu_5x5_reduce
I0403 14:35:20.054989 13433 net.cpp:148] Top shape: 24 24 14 14 (112896)
I0403 14:35:20.055003 13433 net.cpp:156] Memory required for data: 1048562976
I0403 14:35:20.055018 13433 layer_factory.hpp:77] Creating layer inception_4c/5x5
I0403 14:35:20.055042 13433 net.cpp:91] Creating Layer inception_4c/5x5
I0403 14:35:20.055059 13433 net.cpp:425] inception_4c/5x5 <- inception_4c/5x5_reduce
I0403 14:35:20.055081 13433 net.cpp:399] inception_4c/5x5 -> inception_4c/5x5
I0403 14:35:20.056345 13433 net.cpp:141] Setting up inception_4c/5x5
I0403 14:35:20.056375 13433 net.cpp:148] Top shape: 24 64 14 14 (301056)
I0403 14:35:20.056391 13433 net.cpp:156] Memory required for data: 1049767200
I0403 14:35:20.056409 13433 layer_factory.hpp:77] Creating layer inception_4c/relu_5x5
I0403 14:35:20.056427 13433 net.cpp:91] Creating Layer inception_4c/relu_5x5
I0403 14:35:20.056442 13433 net.cpp:425] inception_4c/relu_5x5 <- inception_4c/5x5
I0403 14:35:20.056462 13433 net.cpp:386] inception_4c/relu_5x5 -> inception_4c/5x5 (in-place)
I0403 14:35:20.056757 13433 net.cpp:141] Setting up inception_4c/relu_5x5
I0403 14:35:20.056785 13433 net.cpp:148] Top shape: 24 64 14 14 (301056)
I0403 14:35:20.056802 13433 net.cpp:156] Memory required for data: 1050971424
I0403 14:35:20.056816 13433 layer_factory.hpp:77] Creating layer inception_4c/pool
I0403 14:35:20.056833 13433 net.cpp:91] Creating Layer inception_4c/pool
I0403 14:35:20.056849 13433 net.cpp:425] inception_4c/pool <- inception_4b/output_inception_4b/output_0_split_3
I0403 14:35:20.056869 13433 net.cpp:399] inception_4c/pool -> inception_4c/pool
I0403 14:35:20.056934 13433 net.cpp:141] Setting up inception_4c/pool
I0403 14:35:20.056959 13433 net.cpp:148] Top shape: 24 512 14 14 (2408448)
I0403 14:35:20.056974 13433 net.cpp:156] Memory required for data: 1060605216
I0403 14:35:20.056988 13433 layer_factory.hpp:77] Creating layer inception_4c/pool_proj
I0403 14:35:20.057008 13433 net.cpp:91] Creating Layer inception_4c/pool_proj
I0403 14:35:20.057024 13433 net.cpp:425] inception_4c/pool_proj <- inception_4c/pool
I0403 14:35:20.057044 13433 net.cpp:399] inception_4c/pool_proj -> inception_4c/pool_proj
I0403 14:35:20.058265 13433 net.cpp:141] Setting up inception_4c/pool_proj
I0403 14:35:20.058295 13433 net.cpp:148] Top shape: 24 64 14 14 (301056)
I0403 14:35:20.058323 13433 net.cpp:156] Memory required for data: 1061809440
I0403 14:35:20.058342 13433 layer_factory.hpp:77] Creating layer inception_4c/relu_pool_proj
I0403 14:35:20.058364 13433 net.cpp:91] Creating Layer inception_4c/relu_pool_proj
I0403 14:35:20.058380 13433 net.cpp:425] inception_4c/relu_pool_proj <- inception_4c/pool_proj
I0403 14:35:20.058396 13433 net.cpp:386] inception_4c/relu_pool_proj -> inception_4c/pool_proj (in-place)
I0403 14:35:20.058583 13433 net.cpp:141] Setting up inception_4c/relu_pool_proj
I0403 14:35:20.058609 13433 net.cpp:148] Top shape: 24 64 14 14 (301056)
I0403 14:35:20.058624 13433 net.cpp:156] Memory required for data: 1063013664
I0403 14:35:20.058637 13433 layer_factory.hpp:77] Creating layer inception_4c/output
I0403 14:35:20.058655 13433 net.cpp:91] Creating Layer inception_4c/output
I0403 14:35:20.058670 13433 net.cpp:425] inception_4c/output <- inception_4c/1x1
I0403 14:35:20.058684 13433 net.cpp:425] inception_4c/output <- inception_4c/3x3
I0403 14:35:20.058701 13433 net.cpp:425] inception_4c/output <- inception_4c/5x5
I0403 14:35:20.058715 13433 net.cpp:425] inception_4c/output <- inception_4c/pool_proj
I0403 14:35:20.058734 13433 net.cpp:399] inception_4c/output -> inception_4c/output
I0403 14:35:20.058780 13433 net.cpp:141] Setting up inception_4c/output
I0403 14:35:20.058802 13433 net.cpp:148] Top shape: 24 512 14 14 (2408448)
I0403 14:35:20.058816 13433 net.cpp:156] Memory required for data: 1072647456
I0403 14:35:20.058830 13433 layer_factory.hpp:77] Creating layer inception_4c/output_inception_4c/output_0_split
I0403 14:35:20.058850 13433 net.cpp:91] Creating Layer inception_4c/output_inception_4c/output_0_split
I0403 14:35:20.058866 13433 net.cpp:425] inception_4c/output_inception_4c/output_0_split <- inception_4c/output
I0403 14:35:20.058882 13433 net.cpp:399] inception_4c/output_inception_4c/output_0_split -> inception_4c/output_inception_4c/output_0_split_0
I0403 14:35:20.058902 13433 net.cpp:399] inception_4c/output_inception_4c/output_0_split -> inception_4c/output_inception_4c/output_0_split_1
I0403 14:35:20.058923 13433 net.cpp:399] inception_4c/output_inception_4c/output_0_split -> inception_4c/output_inception_4c/output_0_split_2
I0403 14:35:20.058943 13433 net.cpp:399] inception_4c/output_inception_4c/output_0_split -> inception_4c/output_inception_4c/output_0_split_3
I0403 14:35:20.059029 13433 net.cpp:141] Setting up inception_4c/output_inception_4c/output_0_split
I0403 14:35:20.059052 13433 net.cpp:148] Top shape: 24 512 14 14 (2408448)
I0403 14:35:20.059068 13433 net.cpp:148] Top shape: 24 512 14 14 (2408448)
I0403 14:35:20.059083 13433 net.cpp:148] Top shape: 24 512 14 14 (2408448)
I0403 14:35:20.059098 13433 net.cpp:148] Top shape: 24 512 14 14 (2408448)
I0403 14:35:20.059110 13433 net.cpp:156] Memory required for data: 1111182624
I0403 14:35:20.059124 13433 layer_factory.hpp:77] Creating layer inception_4d/1x1
I0403 14:35:20.059145 13433 net.cpp:91] Creating Layer inception_4d/1x1
I0403 14:35:20.059162 13433 net.cpp:425] inception_4d/1x1 <- inception_4c/output_inception_4c/output_0_split_0
I0403 14:35:20.059182 13433 net.cpp:399] inception_4d/1x1 -> inception_4d/1x1
I0403 14:35:20.060577 13433 net.cpp:141] Setting up inception_4d/1x1
I0403 14:35:20.060606 13433 net.cpp:148] Top shape: 24 112 14 14 (526848)
I0403 14:35:20.060621 13433 net.cpp:156] Memory required for data: 1113290016
I0403 14:35:20.060638 13433 layer_factory.hpp:77] Creating layer inception_4d/relu_1x1
I0403 14:35:20.060659 13433 net.cpp:91] Creating Layer inception_4d/relu_1x1
I0403 14:35:20.060675 13433 net.cpp:425] inception_4d/relu_1x1 <- inception_4d/1x1
I0403 14:35:20.060693 13433 net.cpp:386] inception_4d/relu_1x1 -> inception_4d/1x1 (in-place)
I0403 14:35:20.060876 13433 net.cpp:141] Setting up inception_4d/relu_1x1
I0403 14:35:20.060900 13433 net.cpp:148] Top shape: 24 112 14 14 (526848)
I0403 14:35:20.060914 13433 net.cpp:156] Memory required for data: 1115397408
I0403 14:35:20.060928 13433 layer_factory.hpp:77] Creating layer inception_4d/3x3_reduce
I0403 14:35:20.060966 13433 net.cpp:91] Creating Layer inception_4d/3x3_reduce
I0403 14:35:20.060984 13433 net.cpp:425] inception_4d/3x3_reduce <- inception_4c/output_inception_4c/output_0_split_1
I0403 14:35:20.061003 13433 net.cpp:399] inception_4d/3x3_reduce -> inception_4d/3x3_reduce
I0403 14:35:20.062520 13433 net.cpp:141] Setting up inception_4d/3x3_reduce
I0403 14:35:20.062551 13433 net.cpp:148] Top shape: 24 144 14 14 (677376)
I0403 14:35:20.062567 13433 net.cpp:156] Memory required for data: 1118106912
I0403 14:35:20.062585 13433 layer_factory.hpp:77] Creating layer inception_4d/relu_3x3_reduce
I0403 14:35:20.062602 13433 net.cpp:91] Creating Layer inception_4d/relu_3x3_reduce
I0403 14:35:20.062618 13433 net.cpp:425] inception_4d/relu_3x3_reduce <- inception_4d/3x3_reduce
I0403 14:35:20.062638 13433 net.cpp:386] inception_4d/relu_3x3_reduce -> inception_4d/3x3_reduce (in-place)
I0403 14:35:20.062925 13433 net.cpp:141] Setting up inception_4d/relu_3x3_reduce
I0403 14:35:20.062952 13433 net.cpp:148] Top shape: 24 144 14 14 (677376)
I0403 14:35:20.062965 13433 net.cpp:156] Memory required for data: 1120816416
I0403 14:35:20.062980 13433 layer_factory.hpp:77] Creating layer inception_4d/3x3
I0403 14:35:20.063002 13433 net.cpp:91] Creating Layer inception_4d/3x3
I0403 14:35:20.063019 13433 net.cpp:425] inception_4d/3x3 <- inception_4d/3x3_reduce
I0403 14:35:20.063040 13433 net.cpp:399] inception_4d/3x3 -> inception_4d/3x3
I0403 14:35:20.067385 13433 net.cpp:141] Setting up inception_4d/3x3
I0403 14:35:20.067414 13433 net.cpp:148] Top shape: 24 288 14 14 (1354752)
I0403 14:35:20.067430 13433 net.cpp:156] Memory required for data: 1126235424
I0403 14:35:20.067447 13433 layer_factory.hpp:77] Creating layer inception_4d/relu_3x3
I0403 14:35:20.067466 13433 net.cpp:91] Creating Layer inception_4d/relu_3x3
I0403 14:35:20.067483 13433 net.cpp:425] inception_4d/relu_3x3 <- inception_4d/3x3
I0403 14:35:20.067500 13433 net.cpp:386] inception_4d/relu_3x3 -> inception_4d/3x3 (in-place)
I0403 14:35:20.067687 13433 net.cpp:141] Setting up inception_4d/relu_3x3
I0403 14:35:20.067713 13433 net.cpp:148] Top shape: 24 288 14 14 (1354752)
I0403 14:35:20.067728 13433 net.cpp:156] Memory required for data: 1131654432
I0403 14:35:20.067742 13433 layer_factory.hpp:77] Creating layer inception_4d/5x5_reduce
I0403 14:35:20.067764 13433 net.cpp:91] Creating Layer inception_4d/5x5_reduce
I0403 14:35:20.067781 13433 net.cpp:425] inception_4d/5x5_reduce <- inception_4c/output_inception_4c/output_0_split_2
I0403 14:35:20.067800 13433 net.cpp:399] inception_4d/5x5_reduce -> inception_4d/5x5_reduce
I0403 14:35:20.068961 13433 net.cpp:141] Setting up inception_4d/5x5_reduce
I0403 14:35:20.068989 13433 net.cpp:148] Top shape: 24 32 14 14 (150528)
I0403 14:35:20.069005 13433 net.cpp:156] Memory required for data: 1132256544
I0403 14:35:20.069021 13433 layer_factory.hpp:77] Creating layer inception_4d/relu_5x5_reduce
I0403 14:35:20.069041 13433 net.cpp:91] Creating Layer inception_4d/relu_5x5_reduce
I0403 14:35:20.069057 13433 net.cpp:425] inception_4d/relu_5x5_reduce <- inception_4d/5x5_reduce
I0403 14:35:20.069075 13433 net.cpp:386] inception_4d/relu_5x5_reduce -> inception_4d/5x5_reduce (in-place)
I0403 14:35:20.069262 13433 net.cpp:141] Setting up inception_4d/relu_5x5_reduce
I0403 14:35:20.069286 13433 net.cpp:148] Top shape: 24 32 14 14 (150528)
I0403 14:35:20.069300 13433 net.cpp:156] Memory required for data: 1132858656
I0403 14:35:20.069314 13433 layer_factory.hpp:77] Creating layer inception_4d/5x5
I0403 14:35:20.069337 13433 net.cpp:91] Creating Layer inception_4d/5x5
I0403 14:35:20.069355 13433 net.cpp:425] inception_4d/5x5 <- inception_4d/5x5_reduce
I0403 14:35:20.069373 13433 net.cpp:399] inception_4d/5x5 -> inception_4d/5x5
I0403 14:35:20.070863 13433 net.cpp:141] Setting up inception_4d/5x5
I0403 14:35:20.070891 13433 net.cpp:148] Top shape: 24 64 14 14 (301056)
I0403 14:35:20.070907 13433 net.cpp:156] Memory required for data: 1134062880
I0403 14:35:20.070926 13433 layer_factory.hpp:77] Creating layer inception_4d/relu_5x5
I0403 14:35:20.070960 13433 net.cpp:91] Creating Layer inception_4d/relu_5x5
I0403 14:35:20.070976 13433 net.cpp:425] inception_4d/relu_5x5 <- inception_4d/5x5
I0403 14:35:20.070996 13433 net.cpp:386] inception_4d/relu_5x5 -> inception_4d/5x5 (in-place)
I0403 14:35:20.071296 13433 net.cpp:141] Setting up inception_4d/relu_5x5
I0403 14:35:20.071324 13433 net.cpp:148] Top shape: 24 64 14 14 (301056)
I0403 14:35:20.071339 13433 net.cpp:156] Memory required for data: 1135267104
I0403 14:35:20.071354 13433 layer_factory.hpp:77] Creating layer inception_4d/pool
I0403 14:35:20.071372 13433 net.cpp:91] Creating Layer inception_4d/pool
I0403 14:35:20.071388 13433 net.cpp:425] inception_4d/pool <- inception_4c/output_inception_4c/output_0_split_3
I0403 14:35:20.071408 13433 net.cpp:399] inception_4d/pool -> inception_4d/pool
I0403 14:35:20.071473 13433 net.cpp:141] Setting up inception_4d/pool
I0403 14:35:20.071496 13433 net.cpp:148] Top shape: 24 512 14 14 (2408448)
I0403 14:35:20.071511 13433 net.cpp:156] Memory required for data: 1144900896
I0403 14:35:20.071524 13433 layer_factory.hpp:77] Creating layer inception_4d/pool_proj
I0403 14:35:20.071550 13433 net.cpp:91] Creating Layer inception_4d/pool_proj
I0403 14:35:20.071569 13433 net.cpp:425] inception_4d/pool_proj <- inception_4d/pool
I0403 14:35:20.071593 13433 net.cpp:399] inception_4d/pool_proj -> inception_4d/pool_proj
I0403 14:35:20.073369 13433 net.cpp:141] Setting up inception_4d/pool_proj
I0403 14:35:20.073398 13433 net.cpp:148] Top shape: 24 64 14 14 (301056)
I0403 14:35:20.073413 13433 net.cpp:156] Memory required for data: 1146105120
I0403 14:35:20.073431 13433 layer_factory.hpp:77] Creating layer inception_4d/relu_pool_proj
I0403 14:35:20.073451 13433 net.cpp:91] Creating Layer inception_4d/relu_pool_proj
I0403 14:35:20.073468 13433 net.cpp:425] inception_4d/relu_pool_proj <- inception_4d/pool_proj
I0403 14:35:20.073485 13433 net.cpp:386] inception_4d/relu_pool_proj -> inception_4d/pool_proj (in-place)
I0403 14:35:20.073673 13433 net.cpp:141] Setting up inception_4d/relu_pool_proj
I0403 14:35:20.073701 13433 net.cpp:148] Top shape: 24 64 14 14 (301056)
I0403 14:35:20.073716 13433 net.cpp:156] Memory required for data: 1147309344
I0403 14:35:20.073730 13433 layer_factory.hpp:77] Creating layer inception_4d/output
I0403 14:35:20.073746 13433 net.cpp:91] Creating Layer inception_4d/output
I0403 14:35:20.073762 13433 net.cpp:425] inception_4d/output <- inception_4d/1x1
I0403 14:35:20.073778 13433 net.cpp:425] inception_4d/output <- inception_4d/3x3
I0403 14:35:20.073793 13433 net.cpp:425] inception_4d/output <- inception_4d/5x5
I0403 14:35:20.073809 13433 net.cpp:425] inception_4d/output <- inception_4d/pool_proj
I0403 14:35:20.073827 13433 net.cpp:399] inception_4d/output -> inception_4d/output
I0403 14:35:20.073875 13433 net.cpp:141] Setting up inception_4d/output
I0403 14:35:20.073899 13433 net.cpp:148] Top shape: 24 528 14 14 (2483712)
I0403 14:35:20.073911 13433 net.cpp:156] Memory required for data: 1157244192
I0403 14:35:20.073926 13433 layer_factory.hpp:77] Creating layer inception_4d/output_inception_4d/output_0_split
I0403 14:35:20.073945 13433 net.cpp:91] Creating Layer inception_4d/output_inception_4d/output_0_split
I0403 14:35:20.073961 13433 net.cpp:425] inception_4d/output_inception_4d/output_0_split <- inception_4d/output
I0403 14:35:20.073977 13433 net.cpp:399] inception_4d/output_inception_4d/output_0_split -> inception_4d/output_inception_4d/output_0_split_0
I0403 14:35:20.073997 13433 net.cpp:399] inception_4d/output_inception_4d/output_0_split -> inception_4d/output_inception_4d/output_0_split_1
I0403 14:35:20.074018 13433 net.cpp:399] inception_4d/output_inception_4d/output_0_split -> inception_4d/output_inception_4d/output_0_split_2
I0403 14:35:20.074038 13433 net.cpp:399] inception_4d/output_inception_4d/output_0_split -> inception_4d/output_inception_4d/output_0_split_3
I0403 14:35:20.074059 13433 net.cpp:399] inception_4d/output_inception_4d/output_0_split -> inception_4d/output_inception_4d/output_0_split_4
I0403 14:35:20.074167 13433 net.cpp:141] Setting up inception_4d/output_inception_4d/output_0_split
I0403 14:35:20.074203 13433 net.cpp:148] Top shape: 24 528 14 14 (2483712)
I0403 14:35:20.074218 13433 net.cpp:148] Top shape: 24 528 14 14 (2483712)
I0403 14:35:20.074234 13433 net.cpp:148] Top shape: 24 528 14 14 (2483712)
I0403 14:35:20.074249 13433 net.cpp:148] Top shape: 24 528 14 14 (2483712)
I0403 14:35:20.074265 13433 net.cpp:148] Top shape: 24 528 14 14 (2483712)
I0403 14:35:20.074280 13433 net.cpp:156] Memory required for data: 1206918432
I0403 14:35:20.074293 13433 layer_factory.hpp:77] Creating layer loss2/ave_pool
I0403 14:35:20.074311 13433 net.cpp:91] Creating Layer loss2/ave_pool
I0403 14:35:20.074326 13433 net.cpp:425] loss2/ave_pool <- inception_4d/output_inception_4d/output_0_split_0
I0403 14:35:20.074378 13433 net.cpp:399] loss2/ave_pool -> loss2/ave_pool
I0403 14:35:20.074739 13433 net.cpp:141] Setting up loss2/ave_pool
I0403 14:35:20.074766 13433 net.cpp:148] Top shape: 24 528 4 4 (202752)
I0403 14:35:20.074782 13433 net.cpp:156] Memory required for data: 1207729440
I0403 14:35:20.074797 13433 layer_factory.hpp:77] Creating layer loss2/conv
I0403 14:35:20.074821 13433 net.cpp:91] Creating Layer loss2/conv
I0403 14:35:20.074839 13433 net.cpp:425] loss2/conv <- loss2/ave_pool
I0403 14:35:20.074861 13433 net.cpp:399] loss2/conv -> loss2/conv
I0403 14:35:20.076838 13433 net.cpp:141] Setting up loss2/conv
I0403 14:35:20.076870 13433 net.cpp:148] Top shape: 24 128 4 4 (49152)
I0403 14:35:20.076887 13433 net.cpp:156] Memory required for data: 1207926048
I0403 14:35:20.076906 13433 layer_factory.hpp:77] Creating layer loss2/relu_conv
I0403 14:35:20.076923 13433 net.cpp:91] Creating Layer loss2/relu_conv
I0403 14:35:20.076939 13433 net.cpp:425] loss2/relu_conv <- loss2/conv
I0403 14:35:20.076956 13433 net.cpp:386] loss2/relu_conv -> loss2/conv (in-place)
I0403 14:35:20.077251 13433 net.cpp:141] Setting up loss2/relu_conv
I0403 14:35:20.077280 13433 net.cpp:148] Top shape: 24 128 4 4 (49152)
I0403 14:35:20.077296 13433 net.cpp:156] Memory required for data: 1208122656
I0403 14:35:20.077312 13433 layer_factory.hpp:77] Creating layer loss2/fc
I0403 14:35:20.077332 13433 net.cpp:91] Creating Layer loss2/fc
I0403 14:35:20.077348 13433 net.cpp:425] loss2/fc <- loss2/conv
I0403 14:35:20.077369 13433 net.cpp:399] loss2/fc -> loss2/fc
I0403 14:35:20.095491 13433 net.cpp:141] Setting up loss2/fc
I0403 14:35:20.095540 13433 net.cpp:148] Top shape: 24 1024 (24576)
I0403 14:35:20.095556 13433 net.cpp:156] Memory required for data: 1208220960
I0403 14:35:20.095574 13433 layer_factory.hpp:77] Creating layer loss2/relu_fc
I0403 14:35:20.095594 13433 net.cpp:91] Creating Layer loss2/relu_fc
I0403 14:35:20.095610 13433 net.cpp:425] loss2/relu_fc <- loss2/fc
I0403 14:35:20.095628 13433 net.cpp:386] loss2/relu_fc -> loss2/fc (in-place)
I0403 14:35:20.095962 13433 net.cpp:141] Setting up loss2/relu_fc
I0403 14:35:20.095986 13433 net.cpp:148] Top shape: 24 1024 (24576)
I0403 14:35:20.096000 13433 net.cpp:156] Memory required for data: 1208319264
I0403 14:35:20.096014 13433 layer_factory.hpp:77] Creating layer loss2/drop_fc
I0403 14:35:20.096035 13433 net.cpp:91] Creating Layer loss2/drop_fc
I0403 14:35:20.096050 13433 net.cpp:425] loss2/drop_fc <- loss2/fc
I0403 14:35:20.096068 13433 net.cpp:386] loss2/drop_fc -> loss2/fc (in-place)
I0403 14:35:20.096118 13433 net.cpp:141] Setting up loss2/drop_fc
I0403 14:35:20.096141 13433 net.cpp:148] Top shape: 24 1024 (24576)
I0403 14:35:20.096154 13433 net.cpp:156] Memory required for data: 1208417568
I0403 14:35:20.096180 13433 layer_factory.hpp:77] Creating layer loss2/classifier_plantvillage
I0403 14:35:20.096199 13433 net.cpp:91] Creating Layer loss2/classifier_plantvillage
I0403 14:35:20.096218 13433 net.cpp:425] loss2/classifier_plantvillage <- loss2/fc
I0403 14:35:20.096236 13433 net.cpp:399] loss2/classifier_plantvillage -> loss2/classifier_plantvillage
I0403 14:35:20.096662 13433 net.cpp:141] Setting up loss2/classifier_plantvillage
I0403 14:35:20.096685 13433 net.cpp:148] Top shape: 24 38 (912)
I0403 14:35:20.096722 13433 net.cpp:156] Memory required for data: 1208421216
I0403 14:35:20.096740 13433 layer_factory.hpp:77] Creating layer loss2/classifier_plantvillage_loss2/classifier_plantvillage_0_split
I0403 14:35:20.096758 13433 net.cpp:91] Creating Layer loss2/classifier_plantvillage_loss2/classifier_plantvillage_0_split
I0403 14:35:20.096773 13433 net.cpp:425] loss2/classifier_plantvillage_loss2/classifier_plantvillage_0_split <- loss2/classifier_plantvillage
I0403 14:35:20.096791 13433 net.cpp:399] loss2/classifier_plantvillage_loss2/classifier_plantvillage_0_split -> loss2/classifier_plantvillage_loss2/classifier_plantvillage_0_split_0
I0403 14:35:20.096812 13433 net.cpp:399] loss2/classifier_plantvillage_loss2/classifier_plantvillage_0_split -> loss2/classifier_plantvillage_loss2/classifier_plantvillage_0_split_1
I0403 14:35:20.096832 13433 net.cpp:399] loss2/classifier_plantvillage_loss2/classifier_plantvillage_0_split -> loss2/classifier_plantvillage_loss2/classifier_plantvillage_0_split_2
I0403 14:35:20.096906 13433 net.cpp:141] Setting up loss2/classifier_plantvillage_loss2/classifier_plantvillage_0_split
I0403 14:35:20.096931 13433 net.cpp:148] Top shape: 24 38 (912)
I0403 14:35:20.096947 13433 net.cpp:148] Top shape: 24 38 (912)
I0403 14:35:20.096962 13433 net.cpp:148] Top shape: 24 38 (912)
I0403 14:35:20.096976 13433 net.cpp:156] Memory required for data: 1208432160
I0403 14:35:20.096988 13433 layer_factory.hpp:77] Creating layer inception_4e/1x1
I0403 14:35:20.097009 13433 net.cpp:91] Creating Layer inception_4e/1x1
I0403 14:35:20.097026 13433 net.cpp:425] inception_4e/1x1 <- inception_4d/output_inception_4d/output_0_split_1
I0403 14:35:20.097044 13433 net.cpp:399] inception_4e/1x1 -> inception_4e/1x1
I0403 14:35:20.098875 13433 net.cpp:141] Setting up inception_4e/1x1
I0403 14:35:20.098904 13433 net.cpp:148] Top shape: 24 256 14 14 (1204224)
I0403 14:35:20.098920 13433 net.cpp:156] Memory required for data: 1213249056
I0403 14:35:20.098939 13433 layer_factory.hpp:77] Creating layer inception_4e/relu_1x1
I0403 14:35:20.098958 13433 net.cpp:91] Creating Layer inception_4e/relu_1x1
I0403 14:35:20.098973 13433 net.cpp:425] inception_4e/relu_1x1 <- inception_4e/1x1
I0403 14:35:20.098992 13433 net.cpp:386] inception_4e/relu_1x1 -> inception_4e/1x1 (in-place)
I0403 14:35:20.099287 13433 net.cpp:141] Setting up inception_4e/relu_1x1
I0403 14:35:20.099315 13433 net.cpp:148] Top shape: 24 256 14 14 (1204224)
I0403 14:35:20.099330 13433 net.cpp:156] Memory required for data: 1218065952
I0403 14:35:20.099345 13433 layer_factory.hpp:77] Creating layer inception_4e/3x3_reduce
I0403 14:35:20.099370 13433 net.cpp:91] Creating Layer inception_4e/3x3_reduce
I0403 14:35:20.099388 13433 net.cpp:425] inception_4e/3x3_reduce <- inception_4d/output_inception_4d/output_0_split_2
I0403 14:35:20.099407 13433 net.cpp:399] inception_4e/3x3_reduce -> inception_4e/3x3_reduce
I0403 14:35:20.101529 13433 net.cpp:141] Setting up inception_4e/3x3_reduce
I0403 14:35:20.101563 13433 net.cpp:148] Top shape: 24 160 14 14 (752640)
I0403 14:35:20.101580 13433 net.cpp:156] Memory required for data: 1221076512
I0403 14:35:20.101598 13433 layer_factory.hpp:77] Creating layer inception_4e/relu_3x3_reduce
I0403 14:35:20.101615 13433 net.cpp:91] Creating Layer inception_4e/relu_3x3_reduce
I0403 14:35:20.101630 13433 net.cpp:425] inception_4e/relu_3x3_reduce <- inception_4e/3x3_reduce
I0403 14:35:20.101646 13433 net.cpp:386] inception_4e/relu_3x3_reduce -> inception_4e/3x3_reduce (in-place)
I0403 14:35:20.101829 13433 net.cpp:141] Setting up inception_4e/relu_3x3_reduce
I0403 14:35:20.101855 13433 net.cpp:148] Top shape: 24 160 14 14 (752640)
I0403 14:35:20.101868 13433 net.cpp:156] Memory required for data: 1224087072
I0403 14:35:20.101882 13433 layer_factory.hpp:77] Creating layer inception_4e/3x3
I0403 14:35:20.101903 13433 net.cpp:91] Creating Layer inception_4e/3x3
I0403 14:35:20.101920 13433 net.cpp:425] inception_4e/3x3 <- inception_4e/3x3_reduce
I0403 14:35:20.101941 13433 net.cpp:399] inception_4e/3x3 -> inception_4e/3x3
I0403 14:35:20.106851 13433 net.cpp:141] Setting up inception_4e/3x3
I0403 14:35:20.106891 13433 net.cpp:148] Top shape: 24 320 14 14 (1505280)
I0403 14:35:20.106907 13433 net.cpp:156] Memory required for data: 1230108192
I0403 14:35:20.106925 13433 layer_factory.hpp:77] Creating layer inception_4e/relu_3x3
I0403 14:35:20.106942 13433 net.cpp:91] Creating Layer inception_4e/relu_3x3
I0403 14:35:20.106957 13433 net.cpp:425] inception_4e/relu_3x3 <- inception_4e/3x3
I0403 14:35:20.106976 13433 net.cpp:386] inception_4e/relu_3x3 -> inception_4e/3x3 (in-place)
I0403 14:35:20.107270 13433 net.cpp:141] Setting up inception_4e/relu_3x3
I0403 14:35:20.107295 13433 net.cpp:148] Top shape: 24 320 14 14 (1505280)
I0403 14:35:20.107309 13433 net.cpp:156] Memory required for data: 1236129312
I0403 14:35:20.107322 13433 layer_factory.hpp:77] Creating layer inception_4e/5x5_reduce
I0403 14:35:20.107343 13433 net.cpp:91] Creating Layer inception_4e/5x5_reduce
I0403 14:35:20.107360 13433 net.cpp:425] inception_4e/5x5_reduce <- inception_4d/output_inception_4d/output_0_split_3
I0403 14:35:20.107381 13433 net.cpp:399] inception_4e/5x5_reduce -> inception_4e/5x5_reduce
I0403 14:35:20.108429 13433 net.cpp:141] Setting up inception_4e/5x5_reduce
I0403 14:35:20.108458 13433 net.cpp:148] Top shape: 24 32 14 14 (150528)
I0403 14:35:20.108474 13433 net.cpp:156] Memory required for data: 1236731424
I0403 14:35:20.108490 13433 layer_factory.hpp:77] Creating layer inception_4e/relu_5x5_reduce
I0403 14:35:20.108507 13433 net.cpp:91] Creating Layer inception_4e/relu_5x5_reduce
I0403 14:35:20.108522 13433 net.cpp:425] inception_4e/relu_5x5_reduce <- inception_4e/5x5_reduce
I0403 14:35:20.108546 13433 net.cpp:386] inception_4e/relu_5x5_reduce -> inception_4e/5x5_reduce (in-place)
I0403 14:35:20.108840 13433 net.cpp:141] Setting up inception_4e/relu_5x5_reduce
I0403 14:35:20.108867 13433 net.cpp:148] Top shape: 24 32 14 14 (150528)
I0403 14:35:20.108882 13433 net.cpp:156] Memory required for data: 1237333536
I0403 14:35:20.108897 13433 layer_factory.hpp:77] Creating layer inception_4e/5x5
I0403 14:35:20.108934 13433 net.cpp:91] Creating Layer inception_4e/5x5
I0403 14:35:20.108952 13433 net.cpp:425] inception_4e/5x5 <- inception_4e/5x5_reduce
I0403 14:35:20.108971 13433 net.cpp:399] inception_4e/5x5 -> inception_4e/5x5
I0403 14:35:20.110781 13433 net.cpp:141] Setting up inception_4e/5x5
I0403 14:35:20.110807 13433 net.cpp:148] Top shape: 24 128 14 14 (602112)
I0403 14:35:20.110823 13433 net.cpp:156] Memory required for data: 1239741984
I0403 14:35:20.110841 13433 layer_factory.hpp:77] Creating layer inception_4e/relu_5x5
I0403 14:35:20.110860 13433 net.cpp:91] Creating Layer inception_4e/relu_5x5
I0403 14:35:20.110877 13433 net.cpp:425] inception_4e/relu_5x5 <- inception_4e/5x5
I0403 14:35:20.110893 13433 net.cpp:386] inception_4e/relu_5x5 -> inception_4e/5x5 (in-place)
I0403 14:35:20.111084 13433 net.cpp:141] Setting up inception_4e/relu_5x5
I0403 14:35:20.111110 13433 net.cpp:148] Top shape: 24 128 14 14 (602112)
I0403 14:35:20.111124 13433 net.cpp:156] Memory required for data: 1242150432
I0403 14:35:20.111138 13433 layer_factory.hpp:77] Creating layer inception_4e/pool
I0403 14:35:20.111156 13433 net.cpp:91] Creating Layer inception_4e/pool
I0403 14:35:20.111171 13433 net.cpp:425] inception_4e/pool <- inception_4d/output_inception_4d/output_0_split_4
I0403 14:35:20.111191 13433 net.cpp:399] inception_4e/pool -> inception_4e/pool
I0403 14:35:20.111260 13433 net.cpp:141] Setting up inception_4e/pool
I0403 14:35:20.111282 13433 net.cpp:148] Top shape: 24 528 14 14 (2483712)
I0403 14:35:20.111295 13433 net.cpp:156] Memory required for data: 1252085280
I0403 14:35:20.111310 13433 layer_factory.hpp:77] Creating layer inception_4e/pool_proj
I0403 14:35:20.111330 13433 net.cpp:91] Creating Layer inception_4e/pool_proj
I0403 14:35:20.111346 13433 net.cpp:425] inception_4e/pool_proj <- inception_4e/pool
I0403 14:35:20.111366 13433 net.cpp:399] inception_4e/pool_proj -> inception_4e/pool_proj
I0403 14:35:20.112843 13433 net.cpp:141] Setting up inception_4e/pool_proj
I0403 14:35:20.112881 13433 net.cpp:148] Top shape: 24 128 14 14 (602112)
I0403 14:35:20.112896 13433 net.cpp:156] Memory required for data: 1254493728
I0403 14:35:20.112915 13433 layer_factory.hpp:77] Creating layer inception_4e/relu_pool_proj
I0403 14:35:20.112933 13433 net.cpp:91] Creating Layer inception_4e/relu_pool_proj
I0403 14:35:20.112949 13433 net.cpp:425] inception_4e/relu_pool_proj <- inception_4e/pool_proj
I0403 14:35:20.112965 13433 net.cpp:386] inception_4e/relu_pool_proj -> inception_4e/pool_proj (in-place)
I0403 14:35:20.113260 13433 net.cpp:141] Setting up inception_4e/relu_pool_proj
I0403 14:35:20.113284 13433 net.cpp:148] Top shape: 24 128 14 14 (602112)
I0403 14:35:20.113298 13433 net.cpp:156] Memory required for data: 1256902176
I0403 14:35:20.113312 13433 layer_factory.hpp:77] Creating layer inception_4e/output
I0403 14:35:20.113329 13433 net.cpp:91] Creating Layer inception_4e/output
I0403 14:35:20.113344 13433 net.cpp:425] inception_4e/output <- inception_4e/1x1
I0403 14:35:20.113359 13433 net.cpp:425] inception_4e/output <- inception_4e/3x3
I0403 14:35:20.113375 13433 net.cpp:425] inception_4e/output <- inception_4e/5x5
I0403 14:35:20.113390 13433 net.cpp:425] inception_4e/output <- inception_4e/pool_proj
I0403 14:35:20.113409 13433 net.cpp:399] inception_4e/output -> inception_4e/output
I0403 14:35:20.113461 13433 net.cpp:141] Setting up inception_4e/output
I0403 14:35:20.113482 13433 net.cpp:148] Top shape: 24 832 14 14 (3913728)
I0403 14:35:20.113497 13433 net.cpp:156] Memory required for data: 1272557088
I0403 14:35:20.113509 13433 layer_factory.hpp:77] Creating layer pool4/3x3_s2
I0403 14:35:20.113526 13433 net.cpp:91] Creating Layer pool4/3x3_s2
I0403 14:35:20.113545 13433 net.cpp:425] pool4/3x3_s2 <- inception_4e/output
I0403 14:35:20.113566 13433 net.cpp:399] pool4/3x3_s2 -> pool4/3x3_s2
I0403 14:35:20.113632 13433 net.cpp:141] Setting up pool4/3x3_s2
I0403 14:35:20.113654 13433 net.cpp:148] Top shape: 24 832 7 7 (978432)
I0403 14:35:20.113668 13433 net.cpp:156] Memory required for data: 1276470816
I0403 14:35:20.113682 13433 layer_factory.hpp:77] Creating layer pool4/3x3_s2_pool4/3x3_s2_0_split
I0403 14:35:20.113701 13433 net.cpp:91] Creating Layer pool4/3x3_s2_pool4/3x3_s2_0_split
I0403 14:35:20.113718 13433 net.cpp:425] pool4/3x3_s2_pool4/3x3_s2_0_split <- pool4/3x3_s2
I0403 14:35:20.113734 13433 net.cpp:399] pool4/3x3_s2_pool4/3x3_s2_0_split -> pool4/3x3_s2_pool4/3x3_s2_0_split_0
I0403 14:35:20.113754 13433 net.cpp:399] pool4/3x3_s2_pool4/3x3_s2_0_split -> pool4/3x3_s2_pool4/3x3_s2_0_split_1
I0403 14:35:20.113775 13433 net.cpp:399] pool4/3x3_s2_pool4/3x3_s2_0_split -> pool4/3x3_s2_pool4/3x3_s2_0_split_2
I0403 14:35:20.113792 13433 net.cpp:399] pool4/3x3_s2_pool4/3x3_s2_0_split -> pool4/3x3_s2_pool4/3x3_s2_0_split_3
I0403 14:35:20.113881 13433 net.cpp:141] Setting up pool4/3x3_s2_pool4/3x3_s2_0_split
I0403 14:35:20.113903 13433 net.cpp:148] Top shape: 24 832 7 7 (978432)
I0403 14:35:20.113919 13433 net.cpp:148] Top shape: 24 832 7 7 (978432)
I0403 14:35:20.113932 13433 net.cpp:148] Top shape: 24 832 7 7 (978432)
I0403 14:35:20.113946 13433 net.cpp:148] Top shape: 24 832 7 7 (978432)
I0403 14:35:20.113958 13433 net.cpp:156] Memory required for data: 1292125728
I0403 14:35:20.113972 13433 layer_factory.hpp:77] Creating layer inception_5a/1x1
I0403 14:35:20.113993 13433 net.cpp:91] Creating Layer inception_5a/1x1
I0403 14:35:20.114009 13433 net.cpp:425] inception_5a/1x1 <- pool4/3x3_s2_pool4/3x3_s2_0_split_0
I0403 14:35:20.114030 13433 net.cpp:399] inception_5a/1x1 -> inception_5a/1x1
I0403 14:35:20.116866 13433 net.cpp:141] Setting up inception_5a/1x1
I0403 14:35:20.116894 13433 net.cpp:148] Top shape: 24 256 7 7 (301056)
I0403 14:35:20.116912 13433 net.cpp:156] Memory required for data: 1293329952
I0403 14:35:20.116930 13433 layer_factory.hpp:77] Creating layer inception_5a/relu_1x1
I0403 14:35:20.116947 13433 net.cpp:91] Creating Layer inception_5a/relu_1x1
I0403 14:35:20.116962 13433 net.cpp:425] inception_5a/relu_1x1 <- inception_5a/1x1
I0403 14:35:20.116978 13433 net.cpp:386] inception_5a/relu_1x1 -> inception_5a/1x1 (in-place)
I0403 14:35:20.117288 13433 net.cpp:141] Setting up inception_5a/relu_1x1
I0403 14:35:20.117313 13433 net.cpp:148] Top shape: 24 256 7 7 (301056)
I0403 14:35:20.117331 13433 net.cpp:156] Memory required for data: 1294534176
I0403 14:35:20.117346 13433 layer_factory.hpp:77] Creating layer inception_5a/3x3_reduce
I0403 14:35:20.117364 13433 net.cpp:91] Creating Layer inception_5a/3x3_reduce
I0403 14:35:20.117380 13433 net.cpp:425] inception_5a/3x3_reduce <- pool4/3x3_s2_pool4/3x3_s2_0_split_1
I0403 14:35:20.117401 13433 net.cpp:399] inception_5a/3x3_reduce -> inception_5a/3x3_reduce
I0403 14:35:20.119827 13433 net.cpp:141] Setting up inception_5a/3x3_reduce
I0403 14:35:20.119854 13433 net.cpp:148] Top shape: 24 160 7 7 (188160)
I0403 14:35:20.119870 13433 net.cpp:156] Memory required for data: 1295286816
I0403 14:35:20.119887 13433 layer_factory.hpp:77] Creating layer inception_5a/relu_3x3_reduce
I0403 14:35:20.119905 13433 net.cpp:91] Creating Layer inception_5a/relu_3x3_reduce
I0403 14:35:20.119920 13433 net.cpp:425] inception_5a/relu_3x3_reduce <- inception_5a/3x3_reduce
I0403 14:35:20.119938 13433 net.cpp:386] inception_5a/relu_3x3_reduce -> inception_5a/3x3_reduce (in-place)
I0403 14:35:20.120121 13433 net.cpp:141] Setting up inception_5a/relu_3x3_reduce
I0403 14:35:20.120144 13433 net.cpp:148] Top shape: 24 160 7 7 (188160)
I0403 14:35:20.120158 13433 net.cpp:156] Memory required for data: 1296039456
I0403 14:35:20.120172 13433 layer_factory.hpp:77] Creating layer inception_5a/3x3
I0403 14:35:20.120193 13433 net.cpp:91] Creating Layer inception_5a/3x3
I0403 14:35:20.120209 13433 net.cpp:425] inception_5a/3x3 <- inception_5a/3x3_reduce
I0403 14:35:20.120230 13433 net.cpp:399] inception_5a/3x3 -> inception_5a/3x3
I0403 14:35:20.125156 13433 net.cpp:141] Setting up inception_5a/3x3
I0403 14:35:20.125185 13433 net.cpp:148] Top shape: 24 320 7 7 (376320)
I0403 14:35:20.125200 13433 net.cpp:156] Memory required for data: 1297544736
I0403 14:35:20.125216 13433 layer_factory.hpp:77] Creating layer inception_5a/relu_3x3
I0403 14:35:20.125236 13433 net.cpp:91] Creating Layer inception_5a/relu_3x3
I0403 14:35:20.125252 13433 net.cpp:425] inception_5a/relu_3x3 <- inception_5a/3x3
I0403 14:35:20.125270 13433 net.cpp:386] inception_5a/relu_3x3 -> inception_5a/3x3 (in-place)
I0403 14:35:20.125567 13433 net.cpp:141] Setting up inception_5a/relu_3x3
I0403 14:35:20.125593 13433 net.cpp:148] Top shape: 24 320 7 7 (376320)
I0403 14:35:20.125607 13433 net.cpp:156] Memory required for data: 1299050016
I0403 14:35:20.125620 13433 layer_factory.hpp:77] Creating layer inception_5a/5x5_reduce
I0403 14:35:20.125643 13433 net.cpp:91] Creating Layer inception_5a/5x5_reduce
I0403 14:35:20.125660 13433 net.cpp:425] inception_5a/5x5_reduce <- pool4/3x3_s2_pool4/3x3_s2_0_split_2
I0403 14:35:20.125679 13433 net.cpp:399] inception_5a/5x5_reduce -> inception_5a/5x5_reduce
I0403 14:35:20.126830 13433 net.cpp:141] Setting up inception_5a/5x5_reduce
I0403 14:35:20.126859 13433 net.cpp:148] Top shape: 24 32 7 7 (37632)
I0403 14:35:20.126875 13433 net.cpp:156] Memory required for data: 1299200544
I0403 14:35:20.126893 13433 layer_factory.hpp:77] Creating layer inception_5a/relu_5x5_reduce
I0403 14:35:20.126909 13433 net.cpp:91] Creating Layer inception_5a/relu_5x5_reduce
I0403 14:35:20.126925 13433 net.cpp:425] inception_5a/relu_5x5_reduce <- inception_5a/5x5_reduce
I0403 14:35:20.126940 13433 net.cpp:386] inception_5a/relu_5x5_reduce -> inception_5a/5x5_reduce (in-place)
I0403 14:35:20.127238 13433 net.cpp:141] Setting up inception_5a/relu_5x5_reduce
I0403 14:35:20.127266 13433 net.cpp:148] Top shape: 24 32 7 7 (37632)
I0403 14:35:20.127281 13433 net.cpp:156] Memory required for data: 1299351072
I0403 14:35:20.127296 13433 layer_factory.hpp:77] Creating layer inception_5a/5x5
I0403 14:35:20.127317 13433 net.cpp:91] Creating Layer inception_5a/5x5
I0403 14:35:20.127334 13433 net.cpp:425] inception_5a/5x5 <- inception_5a/5x5_reduce
I0403 14:35:20.127352 13433 net.cpp:399] inception_5a/5x5 -> inception_5a/5x5
I0403 14:35:20.129048 13433 net.cpp:141] Setting up inception_5a/5x5
I0403 14:35:20.129086 13433 net.cpp:148] Top shape: 24 128 7 7 (150528)
I0403 14:35:20.129101 13433 net.cpp:156] Memory required for data: 1299953184
I0403 14:35:20.129118 13433 layer_factory.hpp:77] Creating layer inception_5a/relu_5x5
I0403 14:35:20.129138 13433 net.cpp:91] Creating Layer inception_5a/relu_5x5
I0403 14:35:20.129154 13433 net.cpp:425] inception_5a/relu_5x5 <- inception_5a/5x5
I0403 14:35:20.129171 13433 net.cpp:386] inception_5a/relu_5x5 -> inception_5a/5x5 (in-place)
I0403 14:35:20.129355 13433 net.cpp:141] Setting up inception_5a/relu_5x5
I0403 14:35:20.129381 13433 net.cpp:148] Top shape: 24 128 7 7 (150528)
I0403 14:35:20.129395 13433 net.cpp:156] Memory required for data: 1300555296
I0403 14:35:20.129410 13433 layer_factory.hpp:77] Creating layer inception_5a/pool
I0403 14:35:20.129426 13433 net.cpp:91] Creating Layer inception_5a/pool
I0403 14:35:20.129441 13433 net.cpp:425] inception_5a/pool <- pool4/3x3_s2_pool4/3x3_s2_0_split_3
I0403 14:35:20.129461 13433 net.cpp:399] inception_5a/pool -> inception_5a/pool
I0403 14:35:20.129528 13433 net.cpp:141] Setting up inception_5a/pool
I0403 14:35:20.129556 13433 net.cpp:148] Top shape: 24 832 7 7 (978432)
I0403 14:35:20.129570 13433 net.cpp:156] Memory required for data: 1304469024
I0403 14:35:20.129585 13433 layer_factory.hpp:77] Creating layer inception_5a/pool_proj
I0403 14:35:20.129606 13433 net.cpp:91] Creating Layer inception_5a/pool_proj
I0403 14:35:20.129623 13433 net.cpp:425] inception_5a/pool_proj <- inception_5a/pool
I0403 14:35:20.129642 13433 net.cpp:399] inception_5a/pool_proj -> inception_5a/pool_proj
I0403 14:35:20.131880 13433 net.cpp:141] Setting up inception_5a/pool_proj
I0403 14:35:20.131907 13433 net.cpp:148] Top shape: 24 128 7 7 (150528)
I0403 14:35:20.131922 13433 net.cpp:156] Memory required for data: 1305071136
I0403 14:35:20.131939 13433 layer_factory.hpp:77] Creating layer inception_5a/relu_pool_proj
I0403 14:35:20.131959 13433 net.cpp:91] Creating Layer inception_5a/relu_pool_proj
I0403 14:35:20.131975 13433 net.cpp:425] inception_5a/relu_pool_proj <- inception_5a/pool_proj
I0403 14:35:20.131991 13433 net.cpp:386] inception_5a/relu_pool_proj -> inception_5a/pool_proj (in-place)
I0403 14:35:20.132282 13433 net.cpp:141] Setting up inception_5a/relu_pool_proj
I0403 14:35:20.132307 13433 net.cpp:148] Top shape: 24 128 7 7 (150528)
I0403 14:35:20.132320 13433 net.cpp:156] Memory required for data: 1305673248
I0403 14:35:20.132334 13433 layer_factory.hpp:77] Creating layer inception_5a/output
I0403 14:35:20.132352 13433 net.cpp:91] Creating Layer inception_5a/output
I0403 14:35:20.132369 13433 net.cpp:425] inception_5a/output <- inception_5a/1x1
I0403 14:35:20.132385 13433 net.cpp:425] inception_5a/output <- inception_5a/3x3
I0403 14:35:20.132400 13433 net.cpp:425] inception_5a/output <- inception_5a/5x5
I0403 14:35:20.132416 13433 net.cpp:425] inception_5a/output <- inception_5a/pool_proj
I0403 14:35:20.132431 13433 net.cpp:399] inception_5a/output -> inception_5a/output
I0403 14:35:20.132482 13433 net.cpp:141] Setting up inception_5a/output
I0403 14:35:20.132503 13433 net.cpp:148] Top shape: 24 832 7 7 (978432)
I0403 14:35:20.132518 13433 net.cpp:156] Memory required for data: 1309586976
I0403 14:35:20.132531 13433 layer_factory.hpp:77] Creating layer inception_5a/output_inception_5a/output_0_split
I0403 14:35:20.132551 13433 net.cpp:91] Creating Layer inception_5a/output_inception_5a/output_0_split
I0403 14:35:20.132566 13433 net.cpp:425] inception_5a/output_inception_5a/output_0_split <- inception_5a/output
I0403 14:35:20.132586 13433 net.cpp:399] inception_5a/output_inception_5a/output_0_split -> inception_5a/output_inception_5a/output_0_split_0
I0403 14:35:20.132606 13433 net.cpp:399] inception_5a/output_inception_5a/output_0_split -> inception_5a/output_inception_5a/output_0_split_1
I0403 14:35:20.132625 13433 net.cpp:399] inception_5a/output_inception_5a/output_0_split -> inception_5a/output_inception_5a/output_0_split_2
I0403 14:35:20.132644 13433 net.cpp:399] inception_5a/output_inception_5a/output_0_split -> inception_5a/output_inception_5a/output_0_split_3
I0403 14:35:20.132752 13433 net.cpp:141] Setting up inception_5a/output_inception_5a/output_0_split
I0403 14:35:20.132777 13433 net.cpp:148] Top shape: 24 832 7 7 (978432)
I0403 14:35:20.132793 13433 net.cpp:148] Top shape: 24 832 7 7 (978432)
I0403 14:35:20.132808 13433 net.cpp:148] Top shape: 24 832 7 7 (978432)
I0403 14:35:20.132823 13433 net.cpp:148] Top shape: 24 832 7 7 (978432)
I0403 14:35:20.132835 13433 net.cpp:156] Memory required for data: 1325241888
I0403 14:35:20.132849 13433 layer_factory.hpp:77] Creating layer inception_5b/1x1
I0403 14:35:20.132870 13433 net.cpp:91] Creating Layer inception_5b/1x1
I0403 14:35:20.132887 13433 net.cpp:425] inception_5b/1x1 <- inception_5a/output_inception_5a/output_0_split_0
I0403 14:35:20.132905 13433 net.cpp:399] inception_5b/1x1 -> inception_5b/1x1
I0403 14:35:20.136786 13433 net.cpp:141] Setting up inception_5b/1x1
I0403 14:35:20.136816 13433 net.cpp:148] Top shape: 24 384 7 7 (451584)
I0403 14:35:20.136832 13433 net.cpp:156] Memory required for data: 1327048224
I0403 14:35:20.136850 13433 layer_factory.hpp:77] Creating layer inception_5b/relu_1x1
I0403 14:35:20.136868 13433 net.cpp:91] Creating Layer inception_5b/relu_1x1
I0403 14:35:20.136885 13433 net.cpp:425] inception_5b/relu_1x1 <- inception_5b/1x1
I0403 14:35:20.136904 13433 net.cpp:386] inception_5b/relu_1x1 -> inception_5b/1x1 (in-place)
I0403 14:35:20.137225 13433 net.cpp:141] Setting up inception_5b/relu_1x1
I0403 14:35:20.137253 13433 net.cpp:148] Top shape: 24 384 7 7 (451584)
I0403 14:35:20.137269 13433 net.cpp:156] Memory required for data: 1328854560
I0403 14:35:20.137284 13433 layer_factory.hpp:77] Creating layer inception_5b/3x3_reduce
I0403 14:35:20.137306 13433 net.cpp:91] Creating Layer inception_5b/3x3_reduce
I0403 14:35:20.137325 13433 net.cpp:425] inception_5b/3x3_reduce <- inception_5a/output_inception_5a/output_0_split_1
I0403 14:35:20.137347 13433 net.cpp:399] inception_5b/3x3_reduce -> inception_5b/3x3_reduce
I0403 14:35:20.140162 13433 net.cpp:141] Setting up inception_5b/3x3_reduce
I0403 14:35:20.140192 13433 net.cpp:148] Top shape: 24 192 7 7 (225792)
I0403 14:35:20.140208 13433 net.cpp:156] Memory required for data: 1329757728
I0403 14:35:20.140226 13433 layer_factory.hpp:77] Creating layer inception_5b/relu_3x3_reduce
I0403 14:35:20.140249 13433 net.cpp:91] Creating Layer inception_5b/relu_3x3_reduce
I0403 14:35:20.140269 13433 net.cpp:425] inception_5b/relu_3x3_reduce <- inception_5b/3x3_reduce
I0403 14:35:20.140286 13433 net.cpp:386] inception_5b/relu_3x3_reduce -> inception_5b/3x3_reduce (in-place)
I0403 14:35:20.140482 13433 net.cpp:141] Setting up inception_5b/relu_3x3_reduce
I0403 14:35:20.140507 13433 net.cpp:148] Top shape: 24 192 7 7 (225792)
I0403 14:35:20.140522 13433 net.cpp:156] Memory required for data: 1330660896
I0403 14:35:20.140540 13433 layer_factory.hpp:77] Creating layer inception_5b/3x3
I0403 14:35:20.140565 13433 net.cpp:91] Creating Layer inception_5b/3x3
I0403 14:35:20.140584 13433 net.cpp:425] inception_5b/3x3 <- inception_5b/3x3_reduce
I0403 14:35:20.140604 13433 net.cpp:399] inception_5b/3x3 -> inception_5b/3x3
I0403 14:35:20.147579 13433 net.cpp:141] Setting up inception_5b/3x3
I0403 14:35:20.147609 13433 net.cpp:148] Top shape: 24 384 7 7 (451584)
I0403 14:35:20.147625 13433 net.cpp:156] Memory required for data: 1332467232
I0403 14:35:20.147644 13433 layer_factory.hpp:77] Creating layer inception_5b/relu_3x3
I0403 14:35:20.147670 13433 net.cpp:91] Creating Layer inception_5b/relu_3x3
I0403 14:35:20.147686 13433 net.cpp:425] inception_5b/relu_3x3 <- inception_5b/3x3
I0403 14:35:20.147704 13433 net.cpp:386] inception_5b/relu_3x3 -> inception_5b/3x3 (in-place)
I0403 14:35:20.148015 13433 net.cpp:141] Setting up inception_5b/relu_3x3
I0403 14:35:20.148041 13433 net.cpp:148] Top shape: 24 384 7 7 (451584)
I0403 14:35:20.148056 13433 net.cpp:156] Memory required for data: 1334273568
I0403 14:35:20.148071 13433 layer_factory.hpp:77] Creating layer inception_5b/5x5_reduce
I0403 14:35:20.148113 13433 net.cpp:91] Creating Layer inception_5b/5x5_reduce
I0403 14:35:20.148131 13433 net.cpp:425] inception_5b/5x5_reduce <- inception_5a/output_inception_5a/output_0_split_2
I0403 14:35:20.148154 13433 net.cpp:399] inception_5b/5x5_reduce -> inception_5b/5x5_reduce
I0403 14:35:20.149477 13433 net.cpp:141] Setting up inception_5b/5x5_reduce
I0403 14:35:20.149505 13433 net.cpp:148] Top shape: 24 48 7 7 (56448)
I0403 14:35:20.149521 13433 net.cpp:156] Memory required for data: 1334499360
I0403 14:35:20.149544 13433 layer_factory.hpp:77] Creating layer inception_5b/relu_5x5_reduce
I0403 14:35:20.149565 13433 net.cpp:91] Creating Layer inception_5b/relu_5x5_reduce
I0403 14:35:20.149582 13433 net.cpp:425] inception_5b/relu_5x5_reduce <- inception_5b/5x5_reduce
I0403 14:35:20.149600 13433 net.cpp:386] inception_5b/relu_5x5_reduce -> inception_5b/5x5_reduce (in-place)
I0403 14:35:20.149991 13433 net.cpp:141] Setting up inception_5b/relu_5x5_reduce
I0403 14:35:20.150017 13433 net.cpp:148] Top shape: 24 48 7 7 (56448)
I0403 14:35:20.150033 13433 net.cpp:156] Memory required for data: 1334725152
I0403 14:35:20.150048 13433 layer_factory.hpp:77] Creating layer inception_5b/5x5
I0403 14:35:20.150068 13433 net.cpp:91] Creating Layer inception_5b/5x5
I0403 14:35:20.150084 13433 net.cpp:425] inception_5b/5x5 <- inception_5b/5x5_reduce
I0403 14:35:20.150104 13433 net.cpp:399] inception_5b/5x5 -> inception_5b/5x5
I0403 14:35:20.152287 13433 net.cpp:141] Setting up inception_5b/5x5
I0403 14:35:20.152314 13433 net.cpp:148] Top shape: 24 128 7 7 (150528)
I0403 14:35:20.152333 13433 net.cpp:156] Memory required for data: 1335327264
I0403 14:35:20.152351 13433 layer_factory.hpp:77] Creating layer inception_5b/relu_5x5
I0403 14:35:20.152369 13433 net.cpp:91] Creating Layer inception_5b/relu_5x5
I0403 14:35:20.152385 13433 net.cpp:425] inception_5b/relu_5x5 <- inception_5b/5x5
I0403 14:35:20.152402 13433 net.cpp:386] inception_5b/relu_5x5 -> inception_5b/5x5 (in-place)
I0403 14:35:20.152601 13433 net.cpp:141] Setting up inception_5b/relu_5x5
I0403 14:35:20.152627 13433 net.cpp:148] Top shape: 24 128 7 7 (150528)
I0403 14:35:20.152642 13433 net.cpp:156] Memory required for data: 1335929376
I0403 14:35:20.152657 13433 layer_factory.hpp:77] Creating layer inception_5b/pool
I0403 14:35:20.152674 13433 net.cpp:91] Creating Layer inception_5b/pool
I0403 14:35:20.152690 13433 net.cpp:425] inception_5b/pool <- inception_5a/output_inception_5a/output_0_split_3
I0403 14:35:20.152711 13433 net.cpp:399] inception_5b/pool -> inception_5b/pool
I0403 14:35:20.152784 13433 net.cpp:141] Setting up inception_5b/pool
I0403 14:35:20.152811 13433 net.cpp:148] Top shape: 24 832 7 7 (978432)
I0403 14:35:20.152825 13433 net.cpp:156] Memory required for data: 1339843104
I0403 14:35:20.152839 13433 layer_factory.hpp:77] Creating layer inception_5b/pool_proj
I0403 14:35:20.152859 13433 net.cpp:91] Creating Layer inception_5b/pool_proj
I0403 14:35:20.152875 13433 net.cpp:425] inception_5b/pool_proj <- inception_5b/pool
I0403 14:35:20.152895 13433 net.cpp:399] inception_5b/pool_proj -> inception_5b/pool_proj
I0403 14:35:20.155242 13433 net.cpp:141] Setting up inception_5b/pool_proj
I0403 14:35:20.155273 13433 net.cpp:148] Top shape: 24 128 7 7 (150528)
I0403 14:35:20.155288 13433 net.cpp:156] Memory required for data: 1340445216
I0403 14:35:20.155306 13433 layer_factory.hpp:77] Creating layer inception_5b/relu_pool_proj
I0403 14:35:20.155326 13433 net.cpp:91] Creating Layer inception_5b/relu_pool_proj
I0403 14:35:20.155342 13433 net.cpp:425] inception_5b/relu_pool_proj <- inception_5b/pool_proj
I0403 14:35:20.155360 13433 net.cpp:386] inception_5b/relu_pool_proj -> inception_5b/pool_proj (in-place)
I0403 14:35:20.155669 13433 net.cpp:141] Setting up inception_5b/relu_pool_proj
I0403 14:35:20.155695 13433 net.cpp:148] Top shape: 24 128 7 7 (150528)
I0403 14:35:20.155710 13433 net.cpp:156] Memory required for data: 1341047328
I0403 14:35:20.155725 13433 layer_factory.hpp:77] Creating layer inception_5b/output
I0403 14:35:20.155745 13433 net.cpp:91] Creating Layer inception_5b/output
I0403 14:35:20.155774 13433 net.cpp:425] inception_5b/output <- inception_5b/1x1
I0403 14:35:20.155791 13433 net.cpp:425] inception_5b/output <- inception_5b/3x3
I0403 14:35:20.155808 13433 net.cpp:425] inception_5b/output <- inception_5b/5x5
I0403 14:35:20.155824 13433 net.cpp:425] inception_5b/output <- inception_5b/pool_proj
I0403 14:35:20.155841 13433 net.cpp:399] inception_5b/output -> inception_5b/output
I0403 14:35:20.155894 13433 net.cpp:141] Setting up inception_5b/output
I0403 14:35:20.155918 13433 net.cpp:148] Top shape: 24 1024 7 7 (1204224)
I0403 14:35:20.155932 13433 net.cpp:156] Memory required for data: 1345864224
I0403 14:35:20.155946 13433 layer_factory.hpp:77] Creating layer pool5/7x7_s1
I0403 14:35:20.155962 13433 net.cpp:91] Creating Layer pool5/7x7_s1
I0403 14:35:20.155978 13433 net.cpp:425] pool5/7x7_s1 <- inception_5b/output
I0403 14:35:20.155997 13433 net.cpp:399] pool5/7x7_s1 -> pool5/7x7_s1
I0403 14:35:20.156214 13433 net.cpp:141] Setting up pool5/7x7_s1
I0403 14:35:20.156239 13433 net.cpp:148] Top shape: 24 1024 1 1 (24576)
I0403 14:35:20.156254 13433 net.cpp:156] Memory required for data: 1345962528
I0403 14:35:20.156268 13433 layer_factory.hpp:77] Creating layer pool5/drop_7x7_s1
I0403 14:35:20.156287 13433 net.cpp:91] Creating Layer pool5/drop_7x7_s1
I0403 14:35:20.156303 13433 net.cpp:425] pool5/drop_7x7_s1 <- pool5/7x7_s1
I0403 14:35:20.156321 13433 net.cpp:386] pool5/drop_7x7_s1 -> pool5/7x7_s1 (in-place)
I0403 14:35:20.156371 13433 net.cpp:141] Setting up pool5/drop_7x7_s1
I0403 14:35:20.156394 13433 net.cpp:148] Top shape: 24 1024 1 1 (24576)
I0403 14:35:20.156409 13433 net.cpp:156] Memory required for data: 1346060832
I0403 14:35:20.156422 13433 layer_factory.hpp:77] Creating layer loss3/classifier_plantvillage
I0403 14:35:20.156440 13433 net.cpp:91] Creating Layer loss3/classifier_plantvillage
I0403 14:35:20.156456 13433 net.cpp:425] loss3/classifier_plantvillage <- pool5/7x7_s1
I0403 14:35:20.156476 13433 net.cpp:399] loss3/classifier_plantvillage -> loss3/classifier_plantvillage
I0403 14:35:20.156919 13433 net.cpp:141] Setting up loss3/classifier_plantvillage
I0403 14:35:20.156944 13433 net.cpp:148] Top shape: 24 38 (912)
I0403 14:35:20.156958 13433 net.cpp:156] Memory required for data: 1346064480
I0403 14:35:20.156975 13433 layer_factory.hpp:77] Creating layer loss3/classifier_plantvillage_loss3/classifier_plantvillage_0_split
I0403 14:35:20.156994 13433 net.cpp:91] Creating Layer loss3/classifier_plantvillage_loss3/classifier_plantvillage_0_split
I0403 14:35:20.157009 13433 net.cpp:425] loss3/classifier_plantvillage_loss3/classifier_plantvillage_0_split <- loss3/classifier_plantvillage
I0403 14:35:20.157028 13433 net.cpp:399] loss3/classifier_plantvillage_loss3/classifier_plantvillage_0_split -> loss3/classifier_plantvillage_loss3/classifier_plantvillage_0_split_0
I0403 14:35:20.157049 13433 net.cpp:399] loss3/classifier_plantvillage_loss3/classifier_plantvillage_0_split -> loss3/classifier_plantvillage_loss3/classifier_plantvillage_0_split_1
I0403 14:35:20.157068 13433 net.cpp:399] loss3/classifier_plantvillage_loss3/classifier_plantvillage_0_split -> loss3/classifier_plantvillage_loss3/classifier_plantvillage_0_split_2
I0403 14:35:20.157088 13433 net.cpp:399] loss3/classifier_plantvillage_loss3/classifier_plantvillage_0_split -> loss3/classifier_plantvillage_loss3/classifier_plantvillage_0_split_3
I0403 14:35:20.157188 13433 net.cpp:141] Setting up loss3/classifier_plantvillage_loss3/classifier_plantvillage_0_split
I0403 14:35:20.157212 13433 net.cpp:148] Top shape: 24 38 (912)
I0403 14:35:20.157227 13433 net.cpp:148] Top shape: 24 38 (912)
I0403 14:35:20.157241 13433 net.cpp:148] Top shape: 24 38 (912)
I0403 14:35:20.157256 13433 net.cpp:148] Top shape: 24 38 (912)
I0403 14:35:20.157269 13433 net.cpp:156] Memory required for data: 1346079072
I0403 14:35:20.157284 13433 layer_factory.hpp:77] Creating layer loss1/loss
I0403 14:35:20.157304 13433 net.cpp:91] Creating Layer loss1/loss
I0403 14:35:20.157320 13433 net.cpp:425] loss1/loss <- loss1/classifier_plantvillage_loss1/classifier_plantvillage_0_split_0
I0403 14:35:20.157351 13433 net.cpp:425] loss1/loss <- label_data_1_split_0
…
