…
I0403 14:16:01.816202 13090 net.cpp:313] The NetState phase (1) differed from the phase (0) specified by a rule in layer data
I0403 14:16:01.817319 13090 net.cpp:49] Initializing net from parameters: 
state {
  phase: TEST
}
layer {
  name: "data"
  type: "Data"
  top: "data"
  top: "label"
  include {
    phase: TEST
  }
  transform_param {
    mirror: false
    crop_size: 224
    mean_file: "/home/mohanty/data/final_dataset/lmdb/segmented-20-80/mean.binaryproto"
  }
  data_param {
    source: "/home/mohanty/data/final_dataset/lmdb/segmented-20-80/test_db"
    batch_size: 24
    backend: LMDB
  }
}
layer {
  name: "conv1/7x7_s2"
  type: "Convolution"
  bottom: "data"
  top: "conv1/7x7_s2"
  param {
    lr_mult: 1
    decay_mult: 1
  }
  param {
    lr_mult: 2
    decay_mult: 0
  }
  convolution_param {
    num_output: 64
    pad: 3
    kernel_size: 7
    stride: 2
    weight_filler {
      type: "xavier"
      std: 0.1
    }
    bias_filler {
      type: "constant"
      value: 0.2
    }
  }
}
layer {
  name: "conv1/relu_7x7"
  type: "ReLU"
  bottom: "conv1/7x7_s2"
  top: "conv1/7x7_s2"
}
layer {
  name: "pool1/3x3_s2"
  type: "Pooling"
  bottom: "conv1/7x7_s2"
  top: "pool1/3x3_s2"
  pooling_param {
    pool: MAX
    kernel_size: 3
    stride: 2
  }
}
layer {
  name: "pool1/norm1"
  type: "LRN"
  bottom: "pool1/3x3_s2"
  top: "pool1/norm1"
  lrn_param {
    local_size: 5
    alpha: 0.0001
    beta: 0.75
  }
}
layer {
  name: "conv2/3x3_reduce"
  type: "Convolution"
  bottom: "pool1/norm1"
  top: "conv2/3x3_reduce"
  param {
    lr_mult: 1
    decay_mult: 1
  }
  param {
    lr_mult: 2
    decay_mult: 0
  }
  convolution_param {
    num_output: 64
    kernel_size: 1
    weight_filler {
      type: "xavier"
      std: 0.1
    }
    bias_filler {
      type: "constant"
      value: 0.2
    }
  }
}
layer {
  name: "conv2/relu_3x3_reduce"
  type: "ReLU"
  bottom: "conv2/3x3_reduce"
  top: "conv2/3x3_reduce"
}
layer {
  name: "conv2/3x3"
  type: "Convolution"
  bottom: "conv2/3x3_reduce"
  top: "conv2/3x3"
  param {
    lr_mult: 1
    decay_mult: 1
  }
  param {
    lr_mult: 2
    decay_mult: 0
  }
  convolution_param {
    num_output: 192
    pad: 1
    kernel_size: 3
    weight_filler {
      type: "xavier"
      std: 0.03
    }
    bias_filler {
      type: "constant"
      value: 0.2
    }
  }
}
layer {
  name: "conv2/relu_3x3"
  type: "ReLU"
  bottom: "conv2/3x3"
  top: "conv2/3x3"
}
layer {
  name: "conv2/norm2"
  type: "LRN"
  bottom: "conv2/3x3"
  top: "conv2/norm2"
  lrn_param {
    local_size: 5
    alpha: 0.0001
    beta: 0.75
  }
}
layer {
  name: "pool2/3x3_s2"
  type: "Pooling"
  bottom: "conv2/norm2"
  top: "pool2/3x3_s2"
  pooling_param {
    pool: MAX
    kernel_size: 3
    stride: 2
  }
}
layer {
  name: "inception_3a/1x1"
  type: "Convolution"
  bottom: "pool2/3x3_s2"
  top: "inception_3a/1x1"
  param {
    lr_mult: 1
    decay_mult: 1
  }
  param {
    lr_mult: 2
    decay_mult: 0
  }
  convolution_param {
    num_output: 64
    kernel_size: 1
    weight_filler {
      type: "xavier"
      std: 0.03
    }
    bias_filler {
      type: "constant"
      value: 0.2
    }
  }
}
layer {
  name: "inception_3a/relu_1x1"
  type: "ReLU"
  bottom: "inception_3a/1x1"
  top: "inception_3a/1x1"
}
layer {
  name: "inception_3a/3x3_reduce"
  type: "Convolution"
  bottom: "pool2/3x3_s2"
  top: "inception_3a/3x3_reduce"
  param {
    lr_mult: 1
    decay_mult: 1
  }
  param {
    lr_mult: 2
    decay_mult: 0
  }
  convolution_param {
    num_output: 96
    kernel_size: 1
    weight_filler {
      type: "xavier"
      std: 0.09
    }
    bias_filler {
      type: "constant"
      value: 0.2
    }
  }
}
layer {
  name: "inception_3a/relu_3x3_reduce"
  type: "ReLU"
  bottom: "inception_3a/3x3_reduce"
  top: "inception_3a/3x3_reduce"
}
layer {
  name: "inception_3a/3x3"
  type: "Convolution"
  bottom: "inception_3a/3x3_reduce"
  top: "inception_3a/3x3"
  param {
    lr_mult: 1
    decay_mult: 1
  }
  param {
    lr_mult: 2
    decay_mult: 0
  }
  convolution_param {
    num_output: 128
    pad: 1
    kernel_size: 3
    weight_filler {
      type: "xavier"
      std: 0.03
    }
    bias_filler {
      type: "constant"
      value: 0.2
    }
  }
}
layer {
  name: "inception_3a/relu_3x3"
  type: "ReLU"
  bottom: "inception_3a/3x3"
  top: "inception_3a/3x3"
}
layer {
  name: "inception_3a/5x5_reduce"
  type: "Convolution"
  bottom: "pool2/3x3_s2"
  top: "inception_3a/5x5_reduce"
  param {
    lr_mult: 1
    decay_mult: 1
  }
  param {
    lr_mult: 2
    decay_mult: 0
  }
  convolution_param {
    num_output: 16
    kernel_size: 1
    weight_filler {
      type: "xavier"
      std: 0.2
    }
    bias_filler {
      type: "constant"
      value: 0.2
    }
  }
}
layer {
  name: "inception_3a/relu_5x5_reduce"
  type: "ReLU"
  bottom: "inception_3a/5x5_reduce"
  top: "inception_3a/5x5_reduce"
}
layer {
  name: "inception_3a/5x5"
  type: "Convolution"
  bottom: "inception_3a/5x5_reduce"
  top: "inception_3a/5x5"
  param {
    lr_mult: 1
    decay_mult: 1
  }
  param {
    lr_mult: 2
    decay_mult: 0
  }
  convolution_param {
    num_output: 32
    pad: 2
    kernel_size: 5
    weight_filler {
      type: "xavier"
      std: 0.03
    }
    bias_filler {
      type: "constant"
      value: 0.2
    }
  }
}
layer {
  name: "inception_3a/relu_5x5"
  type: "ReLU"
  bottom: "inception_3a/5x5"
  top: "inception_3a/5x5"
}
layer {
  name: "inception_3a/pool"
  type: "Pooling"
  bottom: "pool2/3x3_s2"
  top: "inception_3a/pool"
  pooling_param {
    pool: MAX
    kernel_size: 3
    stride: 1
    pad: 1
  }
}
layer {
  name: "inception_3a/pool_proj"
  type: "Convolution"
  bottom: "inception_3a/pool"
  top: "inception_3a/pool_proj"
  param {
    lr_mult: 1
    decay_mult: 1
  }
  param {
    lr_mult: 2
    decay_mult: 0
  }
  convolution_param {
    num_output: 32
    kernel_size: 1
    weight_filler {
      type: "xavier"
      std: 0.1
    }
    bias_filler {
      type: "constant"
      value: 0.2
    }
  }
}
layer {
  name: "inception_3a/relu_pool_proj"
  type: "ReLU"
  bottom: "inception_3a/pool_proj"
  top: "inception_3a/pool_proj"
}
layer {
  name: "inception_3a/output"
  type: "Concat"
  bottom: "inception_3a/1x1"
  bottom: "inception_3a/3x3"
  bottom: "inception_3a/5x5"
  bottom: "inception_3a/pool_proj"
  top: "inception_3a/output"
}
layer {
  name: "inception_3b/1x1"
  type: "Convolution"
  bottom: "inception_3a/output"
  top: "inception_3b/1x1"
  param {
    lr_mult: 1
    decay_mult: 1
  }
  param {
    lr_mult: 2
    decay_mult: 0
  }
  convolution_param {
    num_output: 128
    kernel_size: 1
    weight_filler {
      type: "xavier"
      std: 0.03
    }
    bias_filler {
      type: "constant"
      value: 0.2
    }
  }
}
layer {
  name: "inception_3b/relu_1x1"
  type: "ReLU"
  bottom: "inception_3b/1x1"
  top: "inception_3b/1x1"
}
layer {
  name: "inception_3b/3x3_reduce"
  type: "Convolution"
  bottom: "inception_3a/output"
  top: "inception_3b/3x3_reduce"
  param {
    lr_mult: 1
    decay_mult: 1
  }
  param {
    lr_mult: 2
    decay_mult: 0
  }
  convolution_param {
    num_output: 128
    kernel_size: 1
    weight_filler {
      type: "xavier"
      std: 0.09
    }
    bias_filler {
      type: "constant"
      value: 0.2
    }
  }
}
layer {
  name: "inception_3b/relu_3x3_reduce"
  type: "ReLU"
  bottom: "inception_3b/3x3_reduce"
  top: "inception_3b/3x3_reduce"
}
layer {
  name: "inception_3b/3x3"
  type: "Convolution"
  bottom: "inception_3b/3x3_reduce"
  top: "inception_3b/3x3"
  param {
    lr_mult: 1
    decay_mult: 1
  }
  param {
    lr_mult: 2
    decay_mult: 0
  }
  convolution_param {
    num_output: 192
    pad: 1
    kernel_size: 3
    weight_filler {
      type: "xavier"
      std: 0.03
    }
    bias_filler {
      type: "constant"
      value: 0.2
    }
  }
}
layer {
  name: "inception_3b/relu_3x3"
  type: "ReLU"
  bottom: "inception_3b/3x3"
  top: "inception_3b/3x3"
}
layer {
  name: "inception_3b/5x5_reduce"
  type: "Convolution"
  bottom: "inception_3a/output"
  top: "inception_3b/5x5_reduce"
  param {
    lr_mult: 1
    decay_mult: 1
  }
  param {
    lr_mult: 2
    decay_mult: 0
  }
  convolution_param {
    num_output: 32
    kernel_size: 1
    weight_filler {
      type: "xavier"
      std: 0.2
    }
    bias_filler {
      type: "constant"
      value: 0.2
    }
  }
}
layer {
  name: "inception_3b/relu_5x5_reduce"
  type: "ReLU"
  bottom: "inception_3b/5x5_reduce"
  top: "inception_3b/5x5_reduce"
}
layer {
  name: "inception_3b/5x5"
  type: "Convolution"
  bottom: "inception_3b/5x5_reduce"
  top: "inception_3b/5x5"
  param {
    lr_mult: 1
    decay_mult: 1
  }
  param {
    lr_mult: 2
    decay_mult: 0
  }
  convolution_param {
    num_output: 96
    pad: 2
    kernel_size: 5
    weight_filler {
      type: "xavier"
      std: 0.03
    }
    bias_filler {
      type: "constant"
      value: 0.2
    }
  }
}
layer {
  name: "inception_3b/relu_5x5"
  type: "ReLU"
  bottom: "inception_3b/5x5"
  top: "inception_3b/5x5"
}
layer {
  name: "inception_3b/pool"
  type: "Pooling"
  bottom: "inception_3a/output"
  top: "inception_3b/pool"
  pooling_param {
    pool: MAX
    kernel_size: 3
    stride: 1
    pad: 1
  }
}
layer {
  name: "inception_3b/pool_proj"
  type: "Convolution"
  bottom: "inception_3b/pool"
  top: "inception_3b/pool_proj"
  param {
    lr_mult: 1
    decay_mult: 1
  }
  param {
    lr_mult: 2
    decay_mult: 0
  }
  convolution_param {
    num_output: 64
    kernel_size: 1
    weight_filler {
      type: "xavier"
      std: 0.1
    }
    bias_filler {
      type: "constant"
      value: 0.2
    }
  }
}
layer {
  name: "inception_3b/relu_pool_proj"
  type: "ReLU"
  bottom: "inception_3b/pool_proj"
  top: "inception_3b/pool_proj"
}
layer {
  name: "inception_3b/output"
  type: "Concat"
  bottom: "inception_3b/1x1"
  bottom: "inception_3b/3x3"
  bottom: "inception_3b/5x5"
  bottom: "inception_3b/pool_proj"
  top: "inception_3b/output"
}
layer {
  name: "pool3/3x3_s2"
  type: "Pooling"
  bottom: "inception_3b/output"
  top: "pool3/3x3_s2"
  pooling_param {
    pool: MAX
    kernel_size: 3
    stride: 2
  }
}
layer {
  name: "inception_4a/1x1"
  type: "Convolution"
  bottom: "pool3/3x3_s2"
  top: "inception_4a/1x1"
  param {
    lr_mult: 1
    decay_mult: 1
  }
  param {
    lr_mult: 2
    decay_mult: 0
  }
  convolution_param {
    num_output: 192
    kernel_size: 1
    weight_filler {
      type: "xavier"
      std: 0.03
    }
    bias_filler {
      type: "constant"
      value: 0.2
    }
  }
}
layer {
  name: "inception_4a/relu_1x1"
  type: "ReLU"
  bottom: "inception_4a/1x1"
  top: "inception_4a/1x1"
}
layer {
  name: "inception_4a/3x3_reduce"
  type: "Convolution"
  bottom: "pool3/3x3_s2"
  top: "inception_4a/3x3_reduce"
  param {
    lr_mult: 1
    decay_mult: 1
  }
  param {
    lr_mult: 2
    decay_mult: 0
  }
  convolution_param {
    num_output: 96
    kernel_size: 1
    weight_filler {
      type: "xavier"
      std: 0.09
    }
    bias_filler {
      type: "constant"
      value: 0.2
    }
  }
}
layer {
  name: "inception_4a/relu_3x3_reduce"
  type: "ReLU"
  bottom: "inception_4a/3x3_reduce"
  top: "inception_4a/3x3_reduce"
}
layer {
  name: "inception_4a/3x3"
  type: "Convolution"
  bottom: "inception_4a/3x3_reduce"
  top: "inception_4a/3x3"
  param {
    lr_mult: 1
    decay_mult: 1
  }
  param {
    lr_mult: 2
    decay_mult: 0
  }
  convolution_param {
    num_output: 208
    pad: 1
    kernel_size: 3
    weight_filler {
      type: "xavier"
      std: 0.03
    }
    bias_filler {
      type: "constant"
      value: 0.2
    }
  }
}
layer {
  name: "inception_4a/relu_3x3"
  type: "ReLU"
  bottom: "inception_4a/3x3"
  top: "inception_4a/3x3"
}
layer {
  name: "inception_4a/5x5_reduce"
  type: "Convolution"
  bottom: "pool3/3x3_s2"
  top: "inception_4a/5x5_reduce"
  param {
    lr_mult: 1
    decay_mult: 1
  }
  param {
    lr_mult: 2
    decay_mult: 0
  }
  convolution_param {
    num_output: 16
    kernel_size: 1
    weight_filler {
      type: "xavier"
      std: 0.2
    }
    bias_filler {
      type: "constant"
      value: 0.2
    }
  }
}
layer {
  name: "inception_4a/relu_5x5_reduce"
  type: "ReLU"
  bottom: "inception_4a/5x5_reduce"
  top: "inception_4a/5x5_reduce"
}
layer {
  name: "inception_4a/5x5"
  type: "Convolution"
  bottom: "inception_4a/5x5_reduce"
  top: "inception_4a/5x5"
  param {
    lr_mult: 1
    decay_mult: 1
  }
  param {
    lr_mult: 2
    decay_mult: 0
  }
  convolution_param {
    num_output: 48
    pad: 2
    kernel_size: 5
    weight_filler {
      type: "xavier"
      std: 0.03
    }
    bias_filler {
      type: "constant"
      value: 0.2
    }
  }
}
layer {
  name: "inception_4a/relu_5x5"
  type: "ReLU"
  bottom: "inception_4a/5x5"
  top: "inception_4a/5x5"
}
layer {
  name: "inception_4a/pool"
  type: "Pooling"
  bottom: "pool3/3x3_s2"
  top: "inception_4a/pool"
  pooling_param {
    pool: MAX
    kernel_size: 3
    stride: 1
    pad: 1
  }
}
layer {
  name: "inception_4a/pool_proj"
  type: "Convolution"
  bottom: "inception_4a/pool"
  top: "inception_4a/pool_proj"
  param {
    lr_mult: 1
    decay_mult: 1
  }
  param {
    lr_mult: 2
    decay_mult: 0
  }
  convolution_param {
    num_output: 64
    kernel_size: 1
    weight_filler {
      type: "xavier"
      std: 0.1
    }
    bias_filler {
      type: "constant"
      value: 0.2
    }
  }
}
layer {
  name: "inception_4a/relu_pool_proj"
  type: "ReLU"
  bottom: "inception_4a/pool_proj"
  top: "inception_4a/pool_proj"
}
layer {
  name: "inception_4a/output"
  type: "Concat"
  bottom: "inception_4a/1x1"
  bottom: "inception_4a/3x3"
  bottom: "inception_4a/5x5"
  bottom: "inception_4a/pool_proj"
  top: "inception_4a/output"
}
layer {
  name: "loss1/ave_pool"
  type: "Pooling"
  bottom: "inception_4a/output"
  top: "loss1/ave_pool"
  pooling_param {
    pool: AVE
    kernel_size: 5
    stride: 3
  }
}
layer {
  name: "loss1/conv"
  type: "Convolution"
  bottom: "loss1/ave_pool"
  top: "loss1/conv"
  param {
    lr_mult: 1
    decay_mult: 1
  }
  param {
    lr_mult: 2
    decay_mult: 0
  }
  convolution_param {
    num_output: 128
    kernel_size: 1
    weight_filler {
      type: "xavier"
      std: 0.08
    }
    bias_filler {
      type: "constant"
      value: 0.2
    }
  }
}
layer {
  name: "loss1/relu_conv"
  type: "ReLU"
  bottom: "loss1/conv"
  top: "loss1/conv"
}
layer {
  name: "loss1/fc"
  type: "InnerProduct"
  bottom: "loss1/conv"
  top: "loss1/fc"
  param {
    lr_mult: 1
    decay_mult: 1
  }
  param {
    lr_mult: 2
    decay_mult: 0
  }
  inner_product_param {
    num_output: 1024
    weight_filler {
      type: "xavier"
      std: 0.02
    }
    bias_filler {
      type: "constant"
      value: 0.2
    }
  }
}
layer {
  name: "loss1/relu_fc"
  type: "ReLU"
  bottom: "loss1/fc"
  top: "loss1/fc"
}
layer {
  name: "loss1/drop_fc"
  type: "Dropout"
  bottom: "loss1/fc"
  top: "loss1/fc"
  dropout_param {
    dropout_ratio: 0.7
  }
}
layer {
  name: "loss1/classifier_plantvillage"
  type: "InnerProduct"
  bottom: "loss1/fc"
  top: "loss1/classifier_plantvillage"
  param {
    lr_mult: 1
    decay_mult: 1
  }
  param {
    lr_mult: 2
    decay_mult: 0
  }
  inner_product_param {
    num_output: 38
    weight_filler {
      type: "xavier"
      std: 0.0009765625
    }
    bias_filler {
      type: "constant"
      value: 0
    }
  }
}
layer {
  name: "inception_4b/1x1"
  type: "Convolution"
  bottom: "inception_4a/output"
  top: "inception_4b/1x1"
  param {
    lr_mult: 1
    decay_mult: 1
  }
  param {
    lr_mult: 2
    decay_mult: 0
  }
  convolution_param {
    num_output: 160
    kernel_size: 1
    weight_filler {
      type: "xavier"
      std: 0.03
    }
    bias_filler {
      type: "constant"
      value: 0.2
    }
  }
}
layer {
  name: "inception_4b/relu_1x1"
  type: "ReLU"
  bottom: "inception_4b/1x1"
  top: "inception_4b/1x1"
}
layer {
  name: "inception_4b/3x3_reduce"
  type: "Convolution"
  bottom: "inception_4a/output"
  top: "inception_4b/3x3_reduce"
  param {
    lr_mult: 1
    decay_mult: 1
  }
  param {
    lr_mult: 2
    decay_mult: 0
  }
  convolution_param {
    num_output: 112
    kernel_size: 1
    weight_filler {
      type: "xavier"
      std: 0.09
    }
    bias_filler {
      type: "constant"
      value: 0.2
    }
  }
}
layer {
  name: "inception_4b/relu_3x3_reduce"
  type: "ReLU"
  bottom: "inception_4b/3x3_reduce"
  top: "inception_4b/3x3_reduce"
}
layer {
  name: "inception_4b/3x3"
  type: "Convolution"
  bottom: "inception_4b/3x3_reduce"
  top: "inception_4b/3x3"
  param {
    lr_mult: 1
    decay_mult: 1
  }
  param {
    lr_mult: 2
    decay_mult: 0
  }
  convolution_param {
    num_output: 224
    pad: 1
    kernel_size: 3
    weight_filler {
      type: "xavier"
      std: 0.03
    }
    bias_filler {
      type: "constant"
      value: 0.2
    }
  }
}
layer {
  name: "inception_4b/relu_3x3"
  type: "ReLU"
  bottom: "inception_4b/3x3"
  top: "inception_4b/3x3"
}
layer {
  name: "inception_4b/5x5_reduce"
  type: "Convolution"
  bottom: "inception_4a/output"
  top: "inception_4b/5x5_reduce"
  param {
    lr_mult: 1
    decay_mult: 1
  }
  param {
    lr_mult: 2
    decay_mult: 0
  }
  convolution_param {
    num_output: 24
    kernel_size: 1
    weight_filler {
      type: "xavier"
      std: 0.2
    }
    bias_filler {
      type: "constant"
      value: 0.2
    }
  }
}
layer {
  name: "inception_4b/relu_5x5_reduce"
  type: "ReLU"
  bottom: "inception_4b/5x5_reduce"
  top: "inception_4b/5x5_reduce"
}
layer {
  name: "inception_4b/5x5"
  type: "Convolution"
  bottom: "inception_4b/5x5_reduce"
  top: "inception_4b/5x5"
  param {
    lr_mult: 1
    decay_mult: 1
  }
  param {
    lr_mult: 2
    decay_mult: 0
  }
  convolution_param {
    num_output: 64
    pad: 2
    kernel_size: 5
    weight_filler {
      type: "xavier"
      std: 0.03
    }
    bias_filler {
      type: "constant"
      value: 0.2
    }
  }
}
layer {
  name: "inception_4b/relu_5x5"
  type: "ReLU"
  bottom: "inception_4b/5x5"
  top: "inception_4b/5x5"
}
layer {
  name: "inception_4b/pool"
  type: "Pooling"
  bottom: "inception_4a/output"
  top: "inception_4b/pool"
  pooling_param {
    pool: MAX
    kernel_size: 3
    stride: 1
    pad: 1
  }
}
layer {
  name: "inception_4b/pool_proj"
  type: "Convolution"
  bottom: "inception_4b/pool"
  top: "inception_4b/pool_proj"
  param {
    lr_mult: 1
    decay_mult: 1
  }
  param {
    lr_mult: 2
    decay_mult: 0
  }
  convolution_param {
    num_output: 64
    kernel_size: 1
    weight_filler {
      type: "xavier"
      std: 0.1
    }
    bias_filler {
      type: "constant"
      value: 0.2
    }
  }
}
layer {
  name: "inception_4b/relu_pool_proj"
  type: "ReLU"
  bottom: "inception_4b/pool_proj"
  top: "inception_4b/pool_proj"
}
layer {
  name: "inception_4b/output"
  type: "Concat"
  bottom: "inception_4b/1x1"
  bottom: "inception_4b/3x3"
  bottom: "inception_4b/5x5"
  bottom: "inception_4b/pool_proj"
  top: "inception_4b/output"
}
layer {
  name: "inception_4c/1x1"
  type: "Convolution"
  bottom: "inception_4b/output"
  top: "inception_4c/1x1"
  param {
    lr_mult: 1
    decay_mult: 1
  }
  param {
    lr_mult: 2
    decay_mult: 0
  }
  convolution_param {
    num_output: 128
    kernel_size: 1
    weight_filler {
      type: "xavier"
      std: 0.03
    }
    bias_filler {
      type: "constant"
      value: 0.2
    }
  }
}
layer {
  name: "inception_4c/relu_1x1"
  type: "ReLU"
  bottom: "inception_4c/1x1"
  top: "inception_4c/1x1"
}
layer {
  name: "inception_4c/3x3_reduce"
  type: "Convolution"
  bottom: "inception_4b/output"
  top: "inception_4c/3x3_reduce"
  param {
    lr_mult: 1
    decay_mult: 1
  }
  param {
    lr_mult: 2
    decay_mult: 0
  }
  convolution_param {
    num_output: 128
    kernel_size: 1
    weight_filler {
      type: "xavier"
      std: 0.09
    }
    bias_filler {
      type: "constant"
      value: 0.2
    }
  }
}
layer {
  name: "inception_4c/relu_3x3_reduce"
  type: "ReLU"
  bottom: "inception_4c/3x3_reduce"
  top: "inception_4c/3x3_reduce"
}
layer {
  name: "inception_4c/3x3"
  type: "Convolution"
  bottom: "inception_4c/3x3_reduce"
  top: "inception_4c/3x3"
  param {
    lr_mult: 1
    decay_mult: 1
  }
  param {
    lr_mult: 2
    decay_mult: 0
  }
  convolution_param {
    num_output: 256
    pad: 1
    kernel_size: 3
    weight_filler {
      type: "xavier"
      std: 0.03
    }
    bias_filler {
      type: "constant"
      value: 0.2
    }
  }
}
layer {
  name: "inception_4c/relu_3x3"
  type: "ReLU"
  bottom: "inception_4c/3x3"
  top: "inception_4c/3x3"
}
layer {
  name: "inception_4c/5x5_reduce"
  type: "Convolution"
  bottom: "inception_4b/output"
  top: "inception_4c/5x5_reduce"
  param {
    lr_mult: 1
    decay_mult: 1
  }
  param {
    lr_mult: 2
    decay_mult: 0
  }
  convolution_param {
    num_output: 24
    kernel_size: 1
    weight_filler {
      type: "xavier"
      std: 0.2
    }
    bias_filler {
      type: "constant"
      value: 0.2
    }
  }
}
layer {
  name: "inception_4c/relu_5x5_reduce"
  type: "ReLU"
  bottom: "inception_4c/5x5_reduce"
  top: "inception_4c/5x5_reduce"
}
layer {
  name: "inception_4c/5x5"
  type: "Convolution"
  bottom: "inception_4c/5x5_reduce"
  top: "inception_4c/5x5"
  param {
    lr_mult: 1
    decay_mult: 1
  }
  param {
    lr_mult: 2
    decay_mult: 0
  }
  convolution_param {
    num_output: 64
    pad: 2
    kernel_size: 5
    weight_filler {
      type: "xavier"
      std: 0.03
    }
    bias_filler {
      type: "constant"
      value: 0.2
    }
  }
}
layer {
  name: "inception_4c/relu_5x5"
  type: "ReLU"
  bottom: "inception_4c/5x5"
  top: "inception_4c/5x5"
}
layer {
  name: "inception_4c/pool"
  type: "Pooling"
  bottom: "inception_4b/output"
  top: "inception_4c/pool"
  pooling_param {
    pool: MAX
    kernel_size: 3
    stride: 1
    pad: 1
  }
}
layer {
  name: "inception_4c/pool_proj"
  type: "Convolution"
  bottom: "inception_4c/pool"
  top: "inception_4c/pool_proj"
  param {
    lr_mult: 1
    decay_mult: 1
  }
  param {
    lr_mult: 2
    decay_mult: 0
  }
  convolution_param {
    num_output: 64
    kernel_size: 1
    weight_filler {
      type: "xavier"
      std: 0.1
    }
    bias_filler {
      type: "constant"
      value: 0.2
    }
  }
}
layer {
  name: "inception_4c/relu_pool_proj"
  type: "ReLU"
  bottom: "inception_4c/pool_proj"
  top: "inception_4c/pool_proj"
}
layer {
  name: "inception_4c/output"
  type: "Concat"
  bottom: "inception_4c/1x1"
  bottom: "inception_4c/3x3"
  bottom: "inception_4c/5x5"
  bottom: "inception_4c/pool_proj"
  top: "inception_4c/output"
}
layer {
  name: "inception_4d/1x1"
  type: "Convolution"
  bottom: "inception_4c/output"
  top: "inception_4d/1x1"
  param {
    lr_mult: 1
    decay_mult: 1
  }
  param {
    lr_mult: 2
    decay_mult: 0
  }
  convolution_param {
    num_output: 112
    kernel_size: 1
    weight_filler {
      type: "xavier"
      std: 0.03
    }
    bias_filler {
      type: "constant"
      value: 0.2
    }
  }
}
layer {
  name: "inception_4d/relu_1x1"
  type: "ReLU"
  bottom: "inception_4d/1x1"
  top: "inception_4d/1x1"
}
layer {
  name: "inception_4d/3x3_reduce"
  type: "Convolution"
  bottom: "inception_4c/output"
  top: "inception_4d/3x3_reduce"
  param {
    lr_mult: 1
    decay_mult: 1
  }
  param {
    lr_mult: 2
    decay_mult: 0
  }
  convolution_param {
    num_output: 144
    kernel_size: 1
    weight_filler {
      type: "xavier"
      std: 0.09
    }
    bias_filler {
      type: "constant"
      value: 0.2
    }
  }
}
layer {
  name: "inception_4d/relu_3x3_reduce"
  type: "ReLU"
  bottom: "inception_4d/3x3_reduce"
  top: "inception_4d/3x3_reduce"
}
layer {
  name: "inception_4d/3x3"
  type: "Convolution"
  bottom: "inception_4d/3x3_reduce"
  top: "inception_4d/3x3"
  param {
    lr_mult: 1
    decay_mult: 1
  }
  param {
    lr_mult: 2
    decay_mult: 0
  }
  convolution_param {
    num_output: 288
    pad: 1
    kernel_size: 3
    weight_filler {
      type: "xavier"
      std: 0.03
    }
    bias_filler {
      type: "constant"
      value: 0.2
    }
  }
}
layer {
  name: "inception_4d/relu_3x3"
  type: "ReLU"
  bottom: "inception_4d/3x3"
  top: "inception_4d/3x3"
}
layer {
  name: "inception_4d/5x5_reduce"
  type: "Convolution"
  bottom: "inception_4c/output"
  top: "inception_4d/5x5_reduce"
  param {
    lr_mult: 1
    decay_mult: 1
  }
  param {
    lr_mult: 2
    decay_mult: 0
  }
  convolution_param {
    num_output: 32
    kernel_size: 1
    weight_filler {
      type: "xavier"
      std: 0.2
    }
    bias_filler {
      type: "constant"
      value: 0.2
    }
  }
}
layer {
  name: "inception_4d/relu_5x5_reduce"
  type: "ReLU"
  bottom: "inception_4d/5x5_reduce"
  top: "inception_4d/5x5_reduce"
}
layer {
  name: "inception_4d/5x5"
  type: "Convolution"
  bottom: "inception_4d/5x5_reduce"
  top: "inception_4d/5x5"
  param {
    lr_mult: 1
    decay_mult: 1
  }
  param {
    lr_mult: 2
    decay_mult: 0
  }
  convolution_param {
    num_output: 64
    pad: 2
    kernel_size: 5
    weight_filler {
      type: "xavier"
      std: 0.03
    }
    bias_filler {
      type: "constant"
      value: 0.2
    }
  }
}
layer {
  name: "inception_4d/relu_5x5"
  type: "ReLU"
  bottom: "inception_4d/5x5"
  top: "inception_4d/5x5"
}
layer {
  name: "inception_4d/pool"
  type: "Pooling"
  bottom: "inception_4c/output"
  top: "inception_4d/pool"
  pooling_param {
    pool: MAX
    kernel_size: 3
    stride: 1
    pad: 1
  }
}
layer {
  name: "inception_4d/pool_proj"
  type: "Convolution"
  bottom: "inception_4d/pool"
  top: "inception_4d/pool_proj"
  param {
    lr_mult: 1
    decay_mult: 1
  }
  param {
    lr_mult: 2
    decay_mult: 0
  }
  convolution_param {
    num_output: 64
    kernel_size: 1
    weight_filler {
      type: "xavier"
      std: 0.1
    }
    bias_filler {
      type: "constant"
      value: 0.2
    }
  }
}
layer {
  name: "inception_4d/relu_pool_proj"
  type: "ReLU"
  bottom: "inception_4d/pool_proj"
  top: "inception_4d/pool_proj"
}
layer {
  name: "inception_4d/output"
  type: "Concat"
  bottom: "inception_4d/1x1"
  bottom: "inception_4d/3x3"
  bottom: "inception_4d/5x5"
  bottom: "inception_4d/pool_proj"
  top: "inception_4d/output"
}
layer {
  name: "loss2/ave_pool"
  type: "Pooling"
  bottom: "inception_4d/output"
  top: "loss2/ave_pool"
  pooling_param {
    pool: AVE
    kernel_size: 5
    stride: 3
  }
}
layer {
  name: "loss2/conv"
  type: "Convolution"
  bottom: "loss2/ave_pool"
  top: "loss2/conv"
  param {
    lr_mult: 1
    decay_mult: 1
  }
  param {
    lr_mult: 2
    decay_mult: 0
  }
  convolution_param {
    num_output: 128
    kernel_size: 1
    weight_filler {
      type: "xavier"
      std: 0.08
    }
    bias_filler {
      type: "constant"
      value: 0.2
    }
  }
}
layer {
  name: "loss2/relu_conv"
  type: "ReLU"
  bottom: "loss2/conv"
  top: "loss2/conv"
}
layer {
  name: "loss2/fc"
  type: "InnerProduct"
  bottom: "loss2/conv"
  top: "loss2/fc"
  param {
    lr_mult: 1
    decay_mult: 1
  }
  param {
    lr_mult: 2
    decay_mult: 0
  }
  inner_product_param {
    num_output: 1024
    weight_filler {
      type: "xavier"
      std: 0.02
    }
    bias_filler {
      type: "constant"
      value: 0.2
    }
  }
}
layer {
  name: "loss2/relu_fc"
  type: "ReLU"
  bottom: "loss2/fc"
  top: "loss2/fc"
}
layer {
  name: "loss2/drop_fc"
  type: "Dropout"
  bottom: "loss2/fc"
  top: "loss2/fc"
  dropout_param {
    dropout_ratio: 0.7
  }
}
layer {
  name: "loss2/classifier_plantvillage"
  type: "InnerProduct"
  bottom: "loss2/fc"
  top: "loss2/classifier_plantvillage"
  param {
    lr_mult: 1
    decay_mult: 1
  }
  param {
    lr_mult: 2
    decay_mult: 0
  }
  inner_product_param {
    num_output: 38
    weight_filler {
      type: "xavier"
      std: 0.0009765625
    }
    bias_filler {
      type: "constant"
      value: 0
    }
  }
}
layer {
  name: "inception_4e/1x1"
  type: "Convolution"
  bottom: "inception_4d/output"
  top: "inception_4e/1x1"
  param {
    lr_mult: 1
    decay_mult: 1
  }
  param {
    lr_mult: 2
    decay_mult: 0
  }
  convolution_param {
    num_output: 256
    kernel_size: 1
    weight_filler {
      type: "xavier"
      std: 0.03
    }
    bias_filler {
      type: "constant"
      value: 0.2
    }
  }
}
layer {
  name: "inception_4e/relu_1x1"
  type: "ReLU"
  bottom: "inception_4e/1x1"
  top: "inception_4e/1x1"
}
layer {
  name: "inception_4e/3x3_reduce"
  type: "Convolution"
  bottom: "inception_4d/output"
  top: "inception_4e/3x3_reduce"
  param {
    lr_mult: 1
    decay_mult: 1
  }
  param {
    lr_mult: 2
    decay_mult: 0
  }
  convolution_param {
    num_output: 160
    kernel_size: 1
    weight_filler {
      type: "xavier"
      std: 0.09
    }
    bias_filler {
      type: "constant"
      value: 0.2
    }
  }
}
layer {
  name: "inception_4e/relu_3x3_reduce"
  type: "ReLU"
  bottom: "inception_4e/3x3_reduce"
  top: "inception_4e/3x3_reduce"
}
layer {
  name: "inception_4e/3x3"
  type: "Convolution"
  bottom: "inception_4e/3x3_reduce"
  top: "inception_4e/3x3"
  param {
    lr_mult: 1
    decay_mult: 1
  }
  param {
    lr_mult: 2
    decay_mult: 0
  }
  convolution_param {
    num_output: 320
    pad: 1
    kernel_size: 3
    weight_filler {
      type: "xavier"
      std: 0.03
    }
    bias_filler {
      type: "constant"
      value: 0.2
    }
  }
}
layer {
  name: "inception_4e/relu_3x3"
  type: "ReLU"
  bottom: "inception_4e/3x3"
  top: "inception_4e/3x3"
}
layer {
  name: "inception_4e/5x5_reduce"
  type: "Convolution"
  bottom: "inception_4d/output"
  top: "inception_4e/5x5_reduce"
  param {
    lr_mult: 1
    decay_mult: 1
  }
  param {
    lr_mult: 2
    decay_mult: 0
  }
  convolution_param {
    num_output: 32
    kernel_size: 1
    weight_filler {
      type: "xavier"
      std: 0.2
    }
    bias_filler {
      type: "constant"
      value: 0.2
    }
  }
}
layer {
  name: "inception_4e/relu_5x5_reduce"
  type: "ReLU"
  bottom: "inception_4e/5x5_reduce"
  top: "inception_4e/5x5_reduce"
}
layer {
  name: "inception_4e/5x5"
  type: "Convolution"
  bottom: "inception_4e/5x5_reduce"
  top: "inception_4e/
I0403 14:16:01.818579 13090 layer_factory.hpp:77] Creating layer data
I0403 14:16:01.819197 13090 net.cpp:91] Creating Layer data
I0403 14:16:01.819228 13090 net.cpp:399] data -> data
I0403 14:16:01.819278 13090 net.cpp:399] data -> label
I0403 14:16:01.819325 13090 data_transformer.cpp:25] Loading mean file from: /home/mohanty/data/final_dataset/lmdb/segmented-20-80/mean.binaryproto
I0403 14:16:01.822495 13092 db_lmdb.cpp:38] Opened lmdb /home/mohanty/data/final_dataset/lmdb/segmented-20-80/test_db
I0403 14:16:01.832600 13090 data_layer.cpp:41] output data size: 24,3,224,224
I0403 14:16:01.859169 13090 net.cpp:141] Setting up data
I0403 14:16:01.859249 13090 net.cpp:148] Top shape: 24 3 224 224 (3612672)
I0403 14:16:01.859272 13090 net.cpp:148] Top shape: 24 (24)
I0403 14:16:01.859285 13090 net.cpp:156] Memory required for data: 14450784
I0403 14:16:01.859313 13090 layer_factory.hpp:77] Creating layer label_data_1_split
I0403 14:16:01.859338 13090 net.cpp:91] Creating Layer label_data_1_split
I0403 14:16:01.859354 13090 net.cpp:425] label_data_1_split <- label
I0403 14:16:01.859385 13090 net.cpp:399] label_data_1_split -> label_data_1_split_0
I0403 14:16:01.859412 13090 net.cpp:399] label_data_1_split -> label_data_1_split_1
I0403 14:16:01.859432 13090 net.cpp:399] label_data_1_split -> label_data_1_split_2
I0403 14:16:01.859452 13090 net.cpp:399] label_data_1_split -> label_data_1_split_3
I0403 14:16:01.859472 13090 net.cpp:399] label_data_1_split -> label_data_1_split_4
I0403 14:16:01.859490 13090 net.cpp:399] label_data_1_split -> label_data_1_split_5
I0403 14:16:01.859509 13090 net.cpp:399] label_data_1_split -> label_data_1_split_6
I0403 14:16:01.859529 13090 net.cpp:399] label_data_1_split -> label_data_1_split_7
I0403 14:16:01.859554 13090 net.cpp:399] label_data_1_split -> label_data_1_split_8
I0403 14:16:01.859575 13090 net.cpp:399] label_data_1_split -> label_data_1_split_9
I0403 14:16:01.859688 13090 net.cpp:141] Setting up label_data_1_split
I0403 14:16:01.859710 13090 net.cpp:148] Top shape: 24 (24)
I0403 14:16:01.859727 13090 net.cpp:148] Top shape: 24 (24)
I0403 14:16:01.859742 13090 net.cpp:148] Top shape: 24 (24)
I0403 14:16:01.859757 13090 net.cpp:148] Top shape: 24 (24)
I0403 14:16:01.859772 13090 net.cpp:148] Top shape: 24 (24)
I0403 14:16:01.859786 13090 net.cpp:148] Top shape: 24 (24)
I0403 14:16:01.859802 13090 net.cpp:148] Top shape: 24 (24)
I0403 14:16:01.859817 13090 net.cpp:148] Top shape: 24 (24)
I0403 14:16:01.859832 13090 net.cpp:148] Top shape: 24 (24)
I0403 14:16:01.859848 13090 net.cpp:148] Top shape: 24 (24)
I0403 14:16:01.859886 13090 net.cpp:156] Memory required for data: 14451744
I0403 14:16:01.859901 13090 layer_factory.hpp:77] Creating layer conv1/7x7_s2
I0403 14:16:01.859932 13090 net.cpp:91] Creating Layer conv1/7x7_s2
I0403 14:16:01.859949 13090 net.cpp:425] conv1/7x7_s2 <- data
I0403 14:16:01.859968 13090 net.cpp:399] conv1/7x7_s2 -> conv1/7x7_s2
I0403 14:16:01.997680 13090 net.cpp:141] Setting up conv1/7x7_s2
I0403 14:16:01.997745 13090 net.cpp:148] Top shape: 24 64 112 112 (19267584)
I0403 14:16:01.997761 13090 net.cpp:156] Memory required for data: 91522080
I0403 14:16:01.997791 13090 layer_factory.hpp:77] Creating layer conv1/relu_7x7
I0403 14:16:01.997817 13090 net.cpp:91] Creating Layer conv1/relu_7x7
I0403 14:16:01.997835 13090 net.cpp:425] conv1/relu_7x7 <- conv1/7x7_s2
I0403 14:16:01.997853 13090 net.cpp:386] conv1/relu_7x7 -> conv1/7x7_s2 (in-place)
I0403 14:16:01.998106 13090 net.cpp:141] Setting up conv1/relu_7x7
I0403 14:16:01.998133 13090 net.cpp:148] Top shape: 24 64 112 112 (19267584)
I0403 14:16:01.998149 13090 net.cpp:156] Memory required for data: 168592416
I0403 14:16:01.998164 13090 layer_factory.hpp:77] Creating layer pool1/3x3_s2
I0403 14:16:01.998189 13090 net.cpp:91] Creating Layer pool1/3x3_s2
I0403 14:16:01.998206 13090 net.cpp:425] pool1/3x3_s2 <- conv1/7x7_s2
I0403 14:16:01.998224 13090 net.cpp:399] pool1/3x3_s2 -> pool1/3x3_s2
I0403 14:16:01.998296 13090 net.cpp:141] Setting up pool1/3x3_s2
I0403 14:16:01.998319 13090 net.cpp:148] Top shape: 24 64 56 56 (4816896)
I0403 14:16:01.998334 13090 net.cpp:156] Memory required for data: 187860000
I0403 14:16:01.998348 13090 layer_factory.hpp:77] Creating layer pool1/norm1
I0403 14:16:01.998373 13090 net.cpp:91] Creating Layer pool1/norm1
I0403 14:16:01.998389 13090 net.cpp:425] pool1/norm1 <- pool1/3x3_s2
I0403 14:16:01.998406 13090 net.cpp:399] pool1/norm1 -> pool1/norm1
I0403 14:16:01.998726 13090 net.cpp:141] Setting up pool1/norm1
I0403 14:16:01.998755 13090 net.cpp:148] Top shape: 24 64 56 56 (4816896)
I0403 14:16:01.998771 13090 net.cpp:156] Memory required for data: 207127584
I0403 14:16:01.998788 13090 layer_factory.hpp:77] Creating layer conv2/3x3_reduce
I0403 14:16:01.998813 13090 net.cpp:91] Creating Layer conv2/3x3_reduce
I0403 14:16:01.998831 13090 net.cpp:425] conv2/3x3_reduce <- pool1/norm1
I0403 14:16:01.998850 13090 net.cpp:399] conv2/3x3_reduce -> conv2/3x3_reduce
I0403 14:16:02.000267 13090 net.cpp:141] Setting up conv2/3x3_reduce
I0403 14:16:02.000298 13090 net.cpp:148] Top shape: 24 64 56 56 (4816896)
I0403 14:16:02.000316 13090 net.cpp:156] Memory required for data: 226395168
I0403 14:16:02.000337 13090 layer_factory.hpp:77] Creating layer conv2/relu_3x3_reduce
I0403 14:16:02.000356 13090 net.cpp:91] Creating Layer conv2/relu_3x3_reduce
I0403 14:16:02.000372 13090 net.cpp:425] conv2/relu_3x3_reduce <- conv2/3x3_reduce
I0403 14:16:02.000390 13090 net.cpp:386] conv2/relu_3x3_reduce -> conv2/3x3_reduce (in-place)
I0403 14:16:02.000672 13090 net.cpp:141] Setting up conv2/relu_3x3_reduce
I0403 14:16:02.000701 13090 net.cpp:148] Top shape: 24 64 56 56 (4816896)
I0403 14:16:02.000718 13090 net.cpp:156] Memory required for data: 245662752
I0403 14:16:02.000733 13090 layer_factory.hpp:77] Creating layer conv2/3x3
I0403 14:16:02.000766 13090 net.cpp:91] Creating Layer conv2/3x3
I0403 14:16:02.000789 13090 net.cpp:425] conv2/3x3 <- conv2/3x3_reduce
I0403 14:16:02.000816 13090 net.cpp:399] conv2/3x3 -> conv2/3x3
I0403 14:16:02.003152 13090 net.cpp:141] Setting up conv2/3x3
I0403 14:16:02.003185 13090 net.cpp:148] Top shape: 24 192 56 56 (14450688)
I0403 14:16:02.003202 13090 net.cpp:156] Memory required for data: 303465504
I0403 14:16:02.003224 13090 layer_factory.hpp:77] Creating layer conv2/relu_3x3
I0403 14:16:02.003244 13090 net.cpp:91] Creating Layer conv2/relu_3x3
I0403 14:16:02.003262 13090 net.cpp:425] conv2/relu_3x3 <- conv2/3x3
I0403 14:16:02.003281 13090 net.cpp:386] conv2/relu_3x3 -> conv2/3x3 (in-place)
I0403 14:16:02.003458 13090 net.cpp:141] Setting up conv2/relu_3x3
I0403 14:16:02.003484 13090 net.cpp:148] Top shape: 24 192 56 56 (14450688)
I0403 14:16:02.003530 13090 net.cpp:156] Memory required for data: 361268256
I0403 14:16:02.003551 13090 layer_factory.hpp:77] Creating layer conv2/norm2
I0403 14:16:02.003572 13090 net.cpp:91] Creating Layer conv2/norm2
I0403 14:16:02.003589 13090 net.cpp:425] conv2/norm2 <- conv2/3x3
I0403 14:16:02.003607 13090 net.cpp:399] conv2/norm2 -> conv2/norm2
I0403 14:16:02.003918 13090 net.cpp:141] Setting up conv2/norm2
I0403 14:16:02.003947 13090 net.cpp:148] Top shape: 24 192 56 56 (14450688)
I0403 14:16:02.003964 13090 net.cpp:156] Memory required for data: 419071008
I0403 14:16:02.003979 13090 layer_factory.hpp:77] Creating layer pool2/3x3_s2
I0403 14:16:02.003998 13090 net.cpp:91] Creating Layer pool2/3x3_s2
I0403 14:16:02.004014 13090 net.cpp:425] pool2/3x3_s2 <- conv2/norm2
I0403 14:16:02.004031 13090 net.cpp:399] pool2/3x3_s2 -> pool2/3x3_s2
I0403 14:16:02.004086 13090 net.cpp:141] Setting up pool2/3x3_s2
I0403 14:16:02.004109 13090 net.cpp:148] Top shape: 24 192 28 28 (3612672)
I0403 14:16:02.004125 13090 net.cpp:156] Memory required for data: 433521696
I0403 14:16:02.004139 13090 layer_factory.hpp:77] Creating layer pool2/3x3_s2_pool2/3x3_s2_0_split
I0403 14:16:02.004158 13090 net.cpp:91] Creating Layer pool2/3x3_s2_pool2/3x3_s2_0_split
I0403 14:16:02.004173 13090 net.cpp:425] pool2/3x3_s2_pool2/3x3_s2_0_split <- pool2/3x3_s2
I0403 14:16:02.004192 13090 net.cpp:399] pool2/3x3_s2_pool2/3x3_s2_0_split -> pool2/3x3_s2_pool2/3x3_s2_0_split_0
I0403 14:16:02.004212 13090 net.cpp:399] pool2/3x3_s2_pool2/3x3_s2_0_split -> pool2/3x3_s2_pool2/3x3_s2_0_split_1
I0403 14:16:02.004232 13090 net.cpp:399] pool2/3x3_s2_pool2/3x3_s2_0_split -> pool2/3x3_s2_pool2/3x3_s2_0_split_2
I0403 14:16:02.004252 13090 net.cpp:399] pool2/3x3_s2_pool2/3x3_s2_0_split -> pool2/3x3_s2_pool2/3x3_s2_0_split_3
I0403 14:16:02.004328 13090 net.cpp:141] Setting up pool2/3x3_s2_pool2/3x3_s2_0_split
I0403 14:16:02.004351 13090 net.cpp:148] Top shape: 24 192 28 28 (3612672)
I0403 14:16:02.004367 13090 net.cpp:148] Top shape: 24 192 28 28 (3612672)
I0403 14:16:02.004385 13090 net.cpp:148] Top shape: 24 192 28 28 (3612672)
I0403 14:16:02.004408 13090 net.cpp:148] Top shape: 24 192 28 28 (3612672)
I0403 14:16:02.004431 13090 net.cpp:156] Memory required for data: 491324448
I0403 14:16:02.004451 13090 layer_factory.hpp:77] Creating layer inception_3a/1x1
I0403 14:16:02.004482 13090 net.cpp:91] Creating Layer inception_3a/1x1
I0403 14:16:02.004499 13090 net.cpp:425] inception_3a/1x1 <- pool2/3x3_s2_pool2/3x3_s2_0_split_0
I0403 14:16:02.004520 13090 net.cpp:399] inception_3a/1x1 -> inception_3a/1x1
I0403 14:16:02.006083 13090 net.cpp:141] Setting up inception_3a/1x1
I0403 14:16:02.006116 13090 net.cpp:148] Top shape: 24 64 28 28 (1204224)
I0403 14:16:02.006134 13090 net.cpp:156] Memory required for data: 496141344
I0403 14:16:02.006152 13090 layer_factory.hpp:77] Creating layer inception_3a/relu_1x1
I0403 14:16:02.006178 13090 net.cpp:91] Creating Layer inception_3a/relu_1x1
I0403 14:16:02.006202 13090 net.cpp:425] inception_3a/relu_1x1 <- inception_3a/1x1
I0403 14:16:02.006229 13090 net.cpp:386] inception_3a/relu_1x1 -> inception_3a/1x1 (in-place)
I0403 14:16:02.006409 13090 net.cpp:141] Setting up inception_3a/relu_1x1
I0403 14:16:02.006436 13090 net.cpp:148] Top shape: 24 64 28 28 (1204224)
I0403 14:16:02.006451 13090 net.cpp:156] Memory required for data: 500958240
I0403 14:16:02.006466 13090 layer_factory.hpp:77] Creating layer inception_3a/3x3_reduce
I0403 14:16:02.006490 13090 net.cpp:91] Creating Layer inception_3a/3x3_reduce
I0403 14:16:02.006510 13090 net.cpp:425] inception_3a/3x3_reduce <- pool2/3x3_s2_pool2/3x3_s2_0_split_1
I0403 14:16:02.006531 13090 net.cpp:399] inception_3a/3x3_reduce -> inception_3a/3x3_reduce
I0403 14:16:02.008256 13090 net.cpp:141] Setting up inception_3a/3x3_reduce
I0403 14:16:02.008288 13090 net.cpp:148] Top shape: 24 96 28 28 (1806336)
I0403 14:16:02.008306 13090 net.cpp:156] Memory required for data: 508183584
I0403 14:16:02.008327 13090 layer_factory.hpp:77] Creating layer inception_3a/relu_3x3_reduce
I0403 14:16:02.008363 13090 net.cpp:91] Creating Layer inception_3a/relu_3x3_reduce
I0403 14:16:02.008381 13090 net.cpp:425] inception_3a/relu_3x3_reduce <- inception_3a/3x3_reduce
I0403 14:16:02.008401 13090 net.cpp:386] inception_3a/relu_3x3_reduce -> inception_3a/3x3_reduce (in-place)
I0403 14:16:02.008589 13090 net.cpp:141] Setting up inception_3a/relu_3x3_reduce
I0403 14:16:02.008616 13090 net.cpp:148] Top shape: 24 96 28 28 (1806336)
I0403 14:16:02.008632 13090 net.cpp:156] Memory required for data: 515408928
I0403 14:16:02.008647 13090 layer_factory.hpp:77] Creating layer inception_3a/3x3
I0403 14:16:02.008668 13090 net.cpp:91] Creating Layer inception_3a/3x3
I0403 14:16:02.008684 13090 net.cpp:425] inception_3a/3x3 <- inception_3a/3x3_reduce
I0403 14:16:02.008708 13090 net.cpp:399] inception_3a/3x3 -> inception_3a/3x3
I0403 14:16:02.010398 13090 net.cpp:141] Setting up inception_3a/3x3
I0403 14:16:02.010429 13090 net.cpp:148] Top shape: 24 128 28 28 (2408448)
I0403 14:16:02.010447 13090 net.cpp:156] Memory required for data: 525042720
I0403 14:16:02.010465 13090 layer_factory.hpp:77] Creating layer inception_3a/relu_3x3
I0403 14:16:02.010484 13090 net.cpp:91] Creating Layer inception_3a/relu_3x3
I0403 14:16:02.010500 13090 net.cpp:425] inception_3a/relu_3x3 <- inception_3a/3x3
I0403 14:16:02.010519 13090 net.cpp:386] inception_3a/relu_3x3 -> inception_3a/3x3 (in-place)
I0403 14:16:02.010804 13090 net.cpp:141] Setting up inception_3a/relu_3x3
I0403 14:16:02.010834 13090 net.cpp:148] Top shape: 24 128 28 28 (2408448)
I0403 14:16:02.010850 13090 net.cpp:156] Memory required for data: 534676512
I0403 14:16:02.010865 13090 layer_factory.hpp:77] Creating layer inception_3a/5x5_reduce
I0403 14:16:02.010888 13090 net.cpp:91] Creating Layer inception_3a/5x5_reduce
I0403 14:16:02.010905 13090 net.cpp:425] inception_3a/5x5_reduce <- pool2/3x3_s2_pool2/3x3_s2_0_split_2
I0403 14:16:02.010926 13090 net.cpp:399] inception_3a/5x5_reduce -> inception_3a/5x5_reduce
I0403 14:16:02.011920 13090 net.cpp:141] Setting up inception_3a/5x5_reduce
I0403 14:16:02.011948 13090 net.cpp:148] Top shape: 24 16 28 28 (301056)
I0403 14:16:02.011965 13090 net.cpp:156] Memory required for data: 535880736
I0403 14:16:02.011983 13090 layer_factory.hpp:77] Creating layer inception_3a/relu_5x5_reduce
I0403 14:16:02.012006 13090 net.cpp:91] Creating Layer inception_3a/relu_5x5_reduce
I0403 14:16:02.012022 13090 net.cpp:425] inception_3a/relu_5x5_reduce <- inception_3a/5x5_reduce
I0403 14:16:02.012040 13090 net.cpp:386] inception_3a/relu_5x5_reduce -> inception_3a/5x5_reduce (in-place)
I0403 14:16:02.012346 13090 net.cpp:141] Setting up inception_3a/relu_5x5_reduce
I0403 14:16:02.012372 13090 net.cpp:148] Top shape: 24 16 28 28 (301056)
I0403 14:16:02.012387 13090 net.cpp:156] Memory required for data: 537084960
I0403 14:16:02.012401 13090 layer_factory.hpp:77] Creating layer inception_3a/5x5
I0403 14:16:02.012425 13090 net.cpp:91] Creating Layer inception_3a/5x5
I0403 14:16:02.012442 13090 net.cpp:425] inception_3a/5x5 <- inception_3a/5x5_reduce
I0403 14:16:02.012464 13090 net.cpp:399] inception_3a/5x5 -> inception_3a/5x5
I0403 14:16:02.013501 13090 net.cpp:141] Setting up inception_3a/5x5
I0403 14:16:02.013535 13090 net.cpp:148] Top shape: 24 32 28 28 (602112)
I0403 14:16:02.013556 13090 net.cpp:156] Memory required for data: 539493408
I0403 14:16:02.013576 13090 layer_factory.hpp:77] Creating layer inception_3a/relu_5x5
I0403 14:16:02.013594 13090 net.cpp:91] Creating Layer inception_3a/relu_5x5
I0403 14:16:02.013610 13090 net.cpp:425] inception_3a/relu_5x5 <- inception_3a/5x5
I0403 14:16:02.013629 13090 net.cpp:386] inception_3a/relu_5x5 -> inception_3a/5x5 (in-place)
I0403 14:16:02.013808 13090 net.cpp:141] Setting up inception_3a/relu_5x5
I0403 14:16:02.013833 13090 net.cpp:148] Top shape: 24 32 28 28 (602112)
I0403 14:16:02.013847 13090 net.cpp:156] Memory required for data: 541901856
I0403 14:16:02.013862 13090 layer_factory.hpp:77] Creating layer inception_3a/pool
I0403 14:16:02.013880 13090 net.cpp:91] Creating Layer inception_3a/pool
I0403 14:16:02.013911 13090 net.cpp:425] inception_3a/pool <- pool2/3x3_s2_pool2/3x3_s2_0_split_3
I0403 14:16:02.013932 13090 net.cpp:399] inception_3a/pool -> inception_3a/pool
I0403 14:16:02.013990 13090 net.cpp:141] Setting up inception_3a/pool
I0403 14:16:02.014014 13090 net.cpp:148] Top shape: 24 192 28 28 (3612672)
I0403 14:16:02.014029 13090 net.cpp:156] Memory required for data: 556352544
I0403 14:16:02.014044 13090 layer_factory.hpp:77] Creating layer inception_3a/pool_proj
I0403 14:16:02.014068 13090 net.cpp:91] Creating Layer inception_3a/pool_proj
I0403 14:16:02.014086 13090 net.cpp:425] inception_3a/pool_proj <- inception_3a/pool
I0403 14:16:02.014106 13090 net.cpp:399] inception_3a/pool_proj -> inception_3a/pool_proj
I0403 14:16:02.015101 13090 net.cpp:141] Setting up inception_3a/pool_proj
I0403 14:16:02.015130 13090 net.cpp:148] Top shape: 24 32 28 28 (602112)
I0403 14:16:02.015146 13090 net.cpp:156] Memory required for data: 558760992
I0403 14:16:02.015172 13090 layer_factory.hpp:77] Creating layer inception_3a/relu_pool_proj
I0403 14:16:02.015193 13090 net.cpp:91] Creating Layer inception_3a/relu_pool_proj
I0403 14:16:02.015211 13090 net.cpp:425] inception_3a/relu_pool_proj <- inception_3a/pool_proj
I0403 14:16:02.015228 13090 net.cpp:386] inception_3a/relu_pool_proj -> inception_3a/pool_proj (in-place)
I0403 14:16:02.015504 13090 net.cpp:141] Setting up inception_3a/relu_pool_proj
I0403 14:16:02.015533 13090 net.cpp:148] Top shape: 24 32 28 28 (602112)
I0403 14:16:02.015554 13090 net.cpp:156] Memory required for data: 561169440
I0403 14:16:02.015570 13090 layer_factory.hpp:77] Creating layer inception_3a/output
I0403 14:16:02.015594 13090 net.cpp:91] Creating Layer inception_3a/output
I0403 14:16:02.015609 13090 net.cpp:425] inception_3a/output <- inception_3a/1x1
I0403 14:16:02.015626 13090 net.cpp:425] inception_3a/output <- inception_3a/3x3
I0403 14:16:02.015641 13090 net.cpp:425] inception_3a/output <- inception_3a/5x5
I0403 14:16:02.015656 13090 net.cpp:425] inception_3a/output <- inception_3a/pool_proj
I0403 14:16:02.015676 13090 net.cpp:399] inception_3a/output -> inception_3a/output
I0403 14:16:02.015722 13090 net.cpp:141] Setting up inception_3a/output
I0403 14:16:02.015746 13090 net.cpp:148] Top shape: 24 256 28 28 (4816896)
I0403 14:16:02.015761 13090 net.cpp:156] Memory required for data: 580437024
I0403 14:16:02.015775 13090 layer_factory.hpp:77] Creating layer inception_3a/output_inception_3a/output_0_split
I0403 14:16:02.015795 13090 net.cpp:91] Creating Layer inception_3a/output_inception_3a/output_0_split
I0403 14:16:02.015811 13090 net.cpp:425] inception_3a/output_inception_3a/output_0_split <- inception_3a/output
I0403 14:16:02.015830 13090 net.cpp:399] inception_3a/output_inception_3a/output_0_split -> inception_3a/output_inception_3a/output_0_split_0
I0403 14:16:02.015848 13090 net.cpp:399] inception_3a/output_inception_3a/output_0_split -> inception_3a/output_inception_3a/output_0_split_1
I0403 14:16:02.015875 13090 net.cpp:399] inception_3a/output_inception_3a/output_0_split -> inception_3a/output_inception_3a/output_0_split_2
I0403 14:16:02.015897 13090 net.cpp:399] inception_3a/output_inception_3a/output_0_split -> inception_3a/output_inception_3a/output_0_split_3
I0403 14:16:02.015972 13090 net.cpp:141] Setting up inception_3a/output_inception_3a/output_0_split
I0403 14:16:02.015998 13090 net.cpp:148] Top shape: 24 256 28 28 (4816896)
I0403 14:16:02.016016 13090 net.cpp:148] Top shape: 24 256 28 28 (4816896)
I0403 14:16:02.016032 13090 net.cpp:148] Top shape: 24 256 28 28 (4816896)
I0403 14:16:02.016048 13090 net.cpp:148] Top shape: 24 256 28 28 (4816896)
I0403 14:16:02.016062 13090 net.cpp:156] Memory required for data: 657507360
I0403 14:16:02.016077 13090 layer_factory.hpp:77] Creating layer inception_3b/1x1
I0403 14:16:02.016099 13090 net.cpp:91] Creating Layer inception_3b/1x1
I0403 14:16:02.016116 13090 net.cpp:425] inception_3b/1x1 <- inception_3a/output_inception_3a/output_0_split_0
I0403 14:16:02.016135 13090 net.cpp:399] inception_3b/1x1 -> inception_3b/1x1
I0403 14:16:02.017289 13090 net.cpp:141] Setting up inception_3b/1x1
I0403 14:16:02.017333 13090 net.cpp:148] Top shape: 24 128 28 28 (2408448)
I0403 14:16:02.017349 13090 net.cpp:156] Memory required for data: 667141152
I0403 14:16:02.017369 13090 layer_factory.hpp:77] Creating layer inception_3b/relu_1x1
I0403 14:16:02.017386 13090 net.cpp:91] Creating Layer inception_3b/relu_1x1
I0403 14:16:02.017401 13090 net.cpp:425] inception_3b/relu_1x1 <- inception_3b/1x1
I0403 14:16:02.017419 13090 net.cpp:386] inception_3b/relu_1x1 -> inception_3b/1x1 (in-place)
I0403 14:16:02.017604 13090 net.cpp:141] Setting up inception_3b/relu_1x1
I0403 14:16:02.017630 13090 net.cpp:148] Top shape: 24 128 28 28 (2408448)
I0403 14:16:02.017645 13090 net.cpp:156] Memory required for data: 676774944
I0403 14:16:02.017660 13090 layer_factory.hpp:77] Creating layer inception_3b/3x3_reduce
I0403 14:16:02.017683 13090 net.cpp:91] Creating Layer inception_3b/3x3_reduce
I0403 14:16:02.017700 13090 net.cpp:425] inception_3b/3x3_reduce <- inception_3a/output_inception_3a/output_0_split_1
I0403 14:16:02.017721 13090 net.cpp:399] inception_3b/3x3_reduce -> inception_3b/3x3_reduce
I0403 14:16:02.018942 13090 net.cpp:141] Setting up inception_3b/3x3_reduce
I0403 14:16:02.018970 13090 net.cpp:148] Top shape: 24 128 28 28 (2408448)
I0403 14:16:02.018985 13090 net.cpp:156] Memory required for data: 686408736
I0403 14:16:02.019003 13090 layer_factory.hpp:77] Creating layer inception_3b/relu_3x3_reduce
I0403 14:16:02.019023 13090 net.cpp:91] Creating Layer inception_3b/relu_3x3_reduce
I0403 14:16:02.019039 13090 net.cpp:425] inception_3b/relu_3x3_reduce <- inception_3b/3x3_reduce
I0403 14:16:02.019057 13090 net.cpp:386] inception_3b/relu_3x3_reduce -> inception_3b/3x3_reduce (in-place)
I0403 14:16:02.019237 13090 net.cpp:141] Setting up inception_3b/relu_3x3_reduce
I0403 14:16:02.019260 13090 net.cpp:148] Top shape: 24 128 28 28 (2408448)
I0403 14:16:02.019274 13090 net.cpp:156] Memory required for data: 696042528
I0403 14:16:02.019289 13090 layer_factory.hpp:77] Creating layer inception_3b/3x3
I0403 14:16:02.019312 13090 net.cpp:91] Creating Layer inception_3b/3x3
I0403 14:16:02.019330 13090 net.cpp:425] inception_3b/3x3 <- inception_3b/3x3_reduce
I0403 14:16:02.019350 13090 net.cpp:399] inception_3b/3x3 -> inception_3b/3x3
I0403 14:16:02.022150 13090 net.cpp:141] Setting up inception_3b/3x3
I0403 14:16:02.022181 13090 net.cpp:148] Top shape: 24 192 28 28 (3612672)
I0403 14:16:02.022195 13090 net.cpp:156] Memory required for data: 710493216
I0403 14:16:02.022213 13090 layer_factory.hpp:77] Creating layer inception_3b/relu_3x3
I0403 14:16:02.022230 13090 net.cpp:91] Creating Layer inception_3b/relu_3x3
I0403 14:16:02.022245 13090 net.cpp:425] inception_3b/relu_3x3 <- inception_3b/3x3
I0403 14:16:02.022265 13090 net.cpp:386] inception_3b/relu_3x3 -> inception_3b/3x3 (in-place)
I0403 14:16:02.022529 13090 net.cpp:141] Setting up inception_3b/relu_3x3
I0403 14:16:02.022560 13090 net.cpp:148] Top shape: 24 192 28 28 (3612672)
I0403 14:16:02.022577 13090 net.cpp:156] Memory required for data: 724943904
I0403 14:16:02.022591 13090 layer_factory.hpp:77] Creating layer inception_3b/5x5_reduce
I0403 14:16:02.022614 13090 net.cpp:91] Creating Layer inception_3b/5x5_reduce
I0403 14:16:02.022632 13090 net.cpp:425] inception_3b/5x5_reduce <- inception_3a/output_inception_3a/output_0_split_2
I0403 14:16:02.022653 13090 net.cpp:399] inception_3b/5x5_reduce -> inception_3b/5x5_reduce
I0403 14:16:02.023640 13090 net.cpp:141] Setting up inception_3b/5x5_reduce
I0403 14:16:02.023671 13090 net.cpp:148] Top shape: 24 32 28 28 (602112)
I0403 14:16:02.023689 13090 net.cpp:156] Memory required for data: 727352352
I0403 14:16:02.023708 13090 layer_factory.hpp:77] Creating layer inception_3b/relu_5x5_reduce
I0403 14:16:02.023727 13090 net.cpp:91] Creating Layer inception_3b/relu_5x5_reduce
I0403 14:16:02.023744 13090 net.cpp:425] inception_3b/relu_5x5_reduce <- inception_3b/5x5_reduce
I0403 14:16:02.023764 13090 net.cpp:386] inception_3b/relu_5x5_reduce -> inception_3b/5x5_reduce (in-place)
I0403 14:16:02.023975 13090 net.cpp:141] Setting up inception_3b/relu_5x5_reduce
I0403 14:16:02.024000 13090 net.cpp:148] Top shape: 24 32 28 28 (602112)
I0403 14:16:02.024014 13090 net.cpp:156] Memory required for data: 729760800
I0403 14:16:02.024029 13090 layer_factory.hpp:77] Creating layer inception_3b/5x5
I0403 14:16:02.024051 13090 net.cpp:91] Creating Layer inception_3b/5x5
I0403 14:16:02.024067 13090 net.cpp:425] inception_3b/5x5 <- inception_3b/5x5_reduce
I0403 14:16:02.024087 13090 net.cpp:399] inception_3b/5x5 -> inception_3b/5x5
I0403 14:16:02.026083 13090 net.cpp:141] Setting up inception_3b/5x5
I0403 14:16:02.026113 13090 net.cpp:148] Top shape: 24 96 28 28 (1806336)
I0403 14:16:02.026129 13090 net.cpp:156] Memory required for data: 736986144
I0403 14:16:02.026147 13090 layer_factory.hpp:77] Creating layer inception_3b/relu_5x5
I0403 14:16:02.026168 13090 net.cpp:91] Creating Layer inception_3b/relu_5x5
I0403 14:16:02.026185 13090 net.cpp:425] inception_3b/relu_5x5 <- inception_3b/5x5
I0403 14:16:02.026203 13090 net.cpp:386] inception_3b/relu_5x5 -> inception_3b/5x5 (in-place)
I0403 14:16:02.026397 13090 net.cpp:141] Setting up inception_3b/relu_5x5
I0403 14:16:02.026423 13090 net.cpp:148] Top shape: 24 96 28 28 (1806336)
I0403 14:16:02.026438 13090 net.cpp:156] Memory required for data: 744211488
I0403 14:16:02.026453 13090 layer_factory.hpp:77] Creating layer inception_3b/pool
I0403 14:16:02.026471 13090 net.cpp:91] Creating Layer inception_3b/pool
I0403 14:16:02.026487 13090 net.cpp:425] inception_3b/pool <- inception_3a/output_inception_3a/output_0_split_3
I0403 14:16:02.026505 13090 net.cpp:399] inception_3b/pool -> inception_3b/pool
I0403 14:16:02.026567 13090 net.cpp:141] Setting up inception_3b/pool
I0403 14:16:02.026592 13090 net.cpp:148] Top shape: 24 256 28 28 (4816896)
I0403 14:16:02.026607 13090 net.cpp:156] Memory required for data: 763479072
I0403 14:16:02.026621 13090 layer_factory.hpp:77] Creating layer inception_3b/pool_proj
I0403 14:16:02.026648 13090 net.cpp:91] Creating Layer inception_3b/pool_proj
I0403 14:16:02.026665 13090 net.cpp:425] inception_3b/pool_proj <- inception_3b/pool
I0403 14:16:02.026684 13090 net.cpp:399] inception_3b/pool_proj -> inception_3b/pool_proj
I0403 14:16:02.027765 13090 net.cpp:141] Setting up inception_3b/pool_proj
I0403 14:16:02.027792 13090 net.cpp:148] Top shape: 24 64 28 28 (1204224)
I0403 14:16:02.027808 13090 net.cpp:156] Memory required for data: 768295968
I0403 14:16:02.027827 13090 layer_factory.hpp:77] Creating layer inception_3b/relu_pool_proj
I0403 14:16:02.027848 13090 net.cpp:91] Creating Layer inception_3b/relu_pool_proj
I0403 14:16:02.027864 13090 net.cpp:425] inception_3b/relu_pool_proj <- inception_3b/pool_proj
I0403 14:16:02.027881 13090 net.cpp:386] inception_3b/relu_pool_proj -> inception_3b/pool_proj (in-place)
I0403 14:16:02.028273 13090 net.cpp:141] Setting up inception_3b/relu_pool_proj
I0403 14:16:02.028298 13090 net.cpp:148] Top shape: 24 64 28 28 (1204224)
I0403 14:16:02.028313 13090 net.cpp:156] Memory required for data: 773112864
I0403 14:16:02.028328 13090 layer_factory.hpp:77] Creating layer inception_3b/output
I0403 14:16:02.028345 13090 net.cpp:91] Creating Layer inception_3b/output
I0403 14:16:02.028360 13090 net.cpp:425] inception_3b/output <- inception_3b/1x1
I0403 14:16:02.028375 13090 net.cpp:425] inception_3b/output <- inception_3b/3x3
I0403 14:16:02.028391 13090 net.cpp:425] inception_3b/output <- inception_3b/5x5
I0403 14:16:02.028406 13090 net.cpp:425] inception_3b/output <- inception_3b/pool_proj
I0403 14:16:02.028425 13090 net.cpp:399] inception_3b/output -> inception_3b/output
I0403 14:16:02.028468 13090 net.cpp:141] Setting up inception_3b/output
I0403 14:16:02.028493 13090 net.cpp:148] Top shape: 24 480 28 28 (9031680)
I0403 14:16:02.028508 13090 net.cpp:156] Memory required for data: 809239584
I0403 14:16:02.028522 13090 layer_factory.hpp:77] Creating layer pool3/3x3_s2
I0403 14:16:02.028543 13090 net.cpp:91] Creating Layer pool3/3x3_s2
I0403 14:16:02.028560 13090 net.cpp:425] pool3/3x3_s2 <- inception_3b/output
I0403 14:16:02.028594 13090 net.cpp:399] pool3/3x3_s2 -> pool3/3x3_s2
I0403 14:16:02.028653 13090 net.cpp:141] Setting up pool3/3x3_s2
I0403 14:16:02.028676 13090 net.cpp:148] Top shape: 24 480 14 14 (2257920)
I0403 14:16:02.028690 13090 net.cpp:156] Memory required for data: 818271264
I0403 14:16:02.028705 13090 layer_factory.hpp:77] Creating layer pool3/3x3_s2_pool3/3x3_s2_0_split
I0403 14:16:02.028724 13090 net.cpp:91] Creating Layer pool3/3x3_s2_pool3/3x3_s2_0_split
I0403 14:16:02.028740 13090 net.cpp:425] pool3/3x3_s2_pool3/3x3_s2_0_split <- pool3/3x3_s2
I0403 14:16:02.028758 13090 net.cpp:399] pool3/3x3_s2_pool3/3x3_s2_0_split -> pool3/3x3_s2_pool3/3x3_s2_0_split_0
I0403 14:16:02.028776 13090 net.cpp:399] pool3/3x3_s2_pool3/3x3_s2_0_split -> pool3/3x3_s2_pool3/3x3_s2_0_split_1
I0403 14:16:02.028795 13090 net.cpp:399] pool3/3x3_s2_pool3/3x3_s2_0_split -> pool3/3x3_s2_pool3/3x3_s2_0_split_2
I0403 14:16:02.028817 13090 net.cpp:399] pool3/3x3_s2_pool3/3x3_s2_0_split -> pool3/3x3_s2_pool3/3x3_s2_0_split_3
I0403 14:16:02.028894 13090 net.cpp:141] Setting up pool3/3x3_s2_pool3/3x3_s2_0_split
I0403 14:16:02.028918 13090 net.cpp:148] Top shape: 24 480 14 14 (2257920)
I0403 14:16:02.028934 13090 net.cpp:148] Top shape: 24 480 14 14 (2257920)
I0403 14:16:02.028949 13090 net.cpp:148] Top shape: 24 480 14 14 (2257920)
I0403 14:16:02.028964 13090 net.cpp:148] Top shape: 24 480 14 14 (2257920)
I0403 14:16:02.028977 13090 net.cpp:156] Memory required for data: 854397984
I0403 14:16:02.028991 13090 layer_factory.hpp:77] Creating layer inception_4a/1x1
I0403 14:16:02.029013 13090 net.cpp:91] Creating Layer inception_4a/1x1
I0403 14:16:02.029031 13090 net.cpp:425] inception_4a/1x1 <- pool3/3x3_s2_pool3/3x3_s2_0_split_0
I0403 14:16:02.029052 13090 net.cpp:399] inception_4a/1x1 -> inception_4a/1x1
I0403 14:16:02.030604 13090 net.cpp:141] Setting up inception_4a/1x1
I0403 14:16:02.030632 13090 net.cpp:148] Top shape: 24 192 14 14 (903168)
I0403 14:16:02.030647 13090 net.cpp:156] Memory required for data: 858010656
I0403 14:16:02.030665 13090 layer_factory.hpp:77] Creating layer inception_4a/relu_1x1
I0403 14:16:02.030685 13090 net.cpp:91] Creating Layer inception_4a/relu_1x1
I0403 14:16:02.030702 13090 net.cpp:425] inception_4a/relu_1x1 <- inception_4a/1x1
I0403 14:16:02.030719 13090 net.cpp:386] inception_4a/relu_1x1 -> inception_4a/1x1 (in-place)
I0403 14:16:02.030895 13090 net.cpp:141] Setting up inception_4a/relu_1x1
I0403 14:16:02.030923 13090 net.cpp:148] Top shape: 24 192 14 14 (903168)
I0403 14:16:02.030939 13090 net.cpp:156] Memory required for data: 861623328
I0403 14:16:02.030953 13090 layer_factory.hpp:77] Creating layer inception_4a/3x3_reduce
I0403 14:16:02.030975 13090 net.cpp:91] Creating Layer inception_4a/3x3_reduce
I0403 14:16:02.030993 13090 net.cpp:425] inception_4a/3x3_reduce <- pool3/3x3_s2_pool3/3x3_s2_0_split_1
I0403 14:16:02.031011 13090 net.cpp:399] inception_4a/3x3_reduce -> inception_4a/3x3_reduce
I0403 14:16:02.032286 13090 net.cpp:141] Setting up inception_4a/3x3_reduce
I0403 14:16:02.032315 13090 net.cpp:148] Top shape: 24 96 14 14 (451584)
I0403 14:16:02.032330 13090 net.cpp:156] Memory required for data: 863429664
I0403 14:16:02.032354 13090 layer_factory.hpp:77] Creating layer inception_4a/relu_3x3_reduce
I0403 14:16:02.032373 13090 net.cpp:91] Creating Layer inception_4a/relu_3x3_reduce
I0403 14:16:02.032388 13090 net.cpp:425] inception_4a/relu_3x3_reduce <- inception_4a/3x3_reduce
I0403 14:16:02.032408 13090 net.cpp:386] inception_4a/relu_3x3_reduce -> inception_4a/3x3_reduce (in-place)
I0403 14:16:02.032588 13090 net.cpp:141] Setting up inception_4a/relu_3x3_reduce
I0403 14:16:02.032615 13090 net.cpp:148] Top shape: 24 96 14 14 (451584)
I0403 14:16:02.032631 13090 net.cpp:156] Memory required for data: 865236000
I0403 14:16:02.032645 13090 layer_factory.hpp:77] Creating layer inception_4a/3x3
I0403 14:16:02.032665 13090 net.cpp:91] Creating Layer inception_4a/3x3
I0403 14:16:02.032681 13090 net.cpp:425] inception_4a/3x3 <- inception_4a/3x3_reduce
I0403 14:16:02.032702 13090 net.cpp:399] inception_4a/3x3 -> inception_4a/3x3
I0403 14:16:02.035367 13090 net.cpp:141] Setting up inception_4a/3x3
I0403 14:16:02.035397 13090 net.cpp:148] Top shape: 24 208 14 14 (978432)
I0403 14:16:02.035413 13090 net.cpp:156] Memory required for data: 869149728
I0403 14:16:02.035431 13090 layer_factory.hpp:77] Creating layer inception_4a/relu_3x3
I0403 14:16:02.035449 13090 net.cpp:91] Creating Layer inception_4a/relu_3x3
I0403 14:16:02.035465 13090 net.cpp:425] inception_4a/relu_3x3 <- inception_4a/3x3
I0403 14:16:02.035485 13090 net.cpp:386] inception_4a/relu_3x3 -> inception_4a/3x3 (in-place)
I0403 14:16:02.035765 13090 net.cpp:141] Setting up inception_4a/relu_3x3
I0403 14:16:02.035794 13090 net.cpp:148] Top shape: 24 208 14 14 (978432)
I0403 14:16:02.035809 13090 net.cpp:156] Memory required for data: 873063456
I0403 14:16:02.035823 13090 layer_factory.hpp:77] Creating layer inception_4a/5x5_reduce
I0403 14:16:02.035846 13090 net.cpp:91] Creating Layer inception_4a/5x5_reduce
I0403 14:16:02.035864 13090 net.cpp:425] inception_4a/5x5_reduce <- pool3/3x3_s2_pool3/3x3_s2_0_split_2
I0403 14:16:02.035883 13090 net.cpp:399] inception_4a/5x5_reduce -> inception_4a/5x5_reduce
I0403 14:16:02.036900 13090 net.cpp:141] Setting up inception_4a/5x5_reduce
I0403 14:16:02.036928 13090 net.cpp:148] Top shape: 24 16 14 14 (75264)
I0403 14:16:02.036944 13090 net.cpp:156] Memory required for data: 873364512
I0403 14:16:02.036962 13090 layer_factory.hpp:77] Creating layer inception_4a/relu_5x5_reduce
I0403 14:16:02.036981 13090 net.cpp:91] Creating Layer inception_4a/relu_5x5_reduce
I0403 14:16:02.036996 13090 net.cpp:425] inception_4a/relu_5x5_reduce <- inception_4a/5x5_reduce
I0403 14:16:02.037015 13090 net.cpp:386] inception_4a/relu_5x5_reduce -> inception_4a/5x5_reduce (in-place)
I0403 14:16:02.037194 13090 net.cpp:141] Setting up inception_4a/relu_5x5_reduce
I0403 14:16:02.037220 13090 net.cpp:148] Top shape: 24 16 14 14 (75264)
I0403 14:16:02.037233 13090 net.cpp:156] Memory required for data: 873665568
I0403 14:16:02.037248 13090 layer_factory.hpp:77] Creating layer inception_4a/5x5
I0403 14:16:02.037272 13090 net.cpp:91] Creating Layer inception_4a/5x5
I0403 14:16:02.037288 13090 net.cpp:425] inception_4a/5x5 <- inception_4a/5x5_reduce
I0403 14:16:02.037308 13090 net.cpp:399] inception_4a/5x5 -> inception_4a/5x5
I0403 14:16:02.038394 13090 net.cpp:141] Setting up inception_4a/5x5
I0403 14:16:02.038421 13090 net.cpp:148] Top shape: 24 48 14 14 (225792)
I0403 14:16:02.038436 13090 net.cpp:156] Memory required for data: 874568736
I0403 14:16:02.038455 13090 layer_factory.hpp:77] Creating layer inception_4a/relu_5x5
I0403 14:16:02.038475 13090 net.cpp:91] Creating Layer inception_4a/relu_5x5
I0403 14:16:02.038491 13090 net.cpp:425] inception_4a/relu_5x5 <- inception_4a/5x5
I0403 14:16:02.038508 13090 net.cpp:386] inception_4a/relu_5x5 -> inception_4a/5x5 (in-place)
I0403 14:16:02.038691 13090 net.cpp:141] Setting up inception_4a/relu_5x5
I0403 14:16:02.038715 13090 net.cpp:148] Top shape: 24 48 14 14 (225792)
I0403 14:16:02.038730 13090 net.cpp:156] Memory required for data: 875471904
I0403 14:16:02.038744 13090 layer_factory.hpp:77] Creating layer inception_4a/pool
I0403 14:16:02.038764 13090 net.cpp:91] Creating Layer inception_4a/pool
I0403 14:16:02.038780 13090 net.cpp:425] inception_4a/pool <- pool3/3x3_s2_pool3/3x3_s2_0_split_3
I0403 14:16:02.038799 13090 net.cpp:399] inception_4a/pool -> inception_4a/pool
I0403 14:16:02.038859 13090 net.cpp:141] Setting up inception_4a/pool
I0403 14:16:02.038882 13090 net.cpp:148] Top shape: 24 480 14 14 (2257920)
I0403 14:16:02.038897 13090 net.cpp:156] Memory required for data: 884503584
I0403 14:16:02.038911 13090 layer_factory.hpp:77] Creating layer inception_4a/pool_proj
I0403 14:16:02.038933 13090 net.cpp:91] Creating Layer inception_4a/pool_proj
I0403 14:16:02.038950 13090 net.cpp:425] inception_4a/pool_proj <- inception_4a/pool
I0403 14:16:02.038971 13090 net.cpp:399] inception_4a/pool_proj -> inception_4a/pool_proj
I0403 14:16:02.040145 13090 net.cpp:141] Setting up inception_4a/pool_proj
I0403 14:16:02.040174 13090 net.cpp:148] Top shape: 24 64 14 14 (301056)
I0403 14:16:02.040204 13090 net.cpp:156] Memory required for data: 885707808
I0403 14:16:02.040223 13090 layer_factory.hpp:77] Creating layer inception_4a/relu_pool_proj
I0403 14:16:02.040246 13090 net.cpp:91] Creating Layer inception_4a/relu_pool_proj
I0403 14:16:02.040264 13090 net.cpp:425] inception_4a/relu_pool_proj <- inception_4a/pool_proj
I0403 14:16:02.040282 13090 net.cpp:386] inception_4a/relu_pool_proj -> inception_4a/pool_proj (in-place)
I0403 14:16:02.040571 13090 net.cpp:141] Setting up inception_4a/relu_pool_proj
I0403 14:16:02.040597 13090 net.cpp:148] Top shape: 24 64 14 14 (301056)
I0403 14:16:02.040611 13090 net.cpp:156] Memory required for data: 886912032
I0403 14:16:02.040627 13090 layer_factory.hpp:77] Creating layer inception_4a/output
I0403 14:16:02.040645 13090 net.cpp:91] Creating Layer inception_4a/output
I0403 14:16:02.040662 13090 net.cpp:425] inception_4a/output <- inception_4a/1x1
I0403 14:16:02.040678 13090 net.cpp:425] inception_4a/output <- inception_4a/3x3
I0403 14:16:02.040694 13090 net.cpp:425] inception_4a/output <- inception_4a/5x5
I0403 14:16:02.040709 13090 net.cpp:425] inception_4a/output <- inception_4a/pool_proj
I0403 14:16:02.040725 13090 net.cpp:399] inception_4a/output -> inception_4a/output
I0403 14:16:02.040771 13090 net.cpp:141] Setting up inception_4a/output
I0403 14:16:02.040794 13090 net.cpp:148] Top shape: 24 512 14 14 (2408448)
I0403 14:16:02.040809 13090 net.cpp:156] Memory required for data: 896545824
I0403 14:16:02.040824 13090 layer_factory.hpp:77] Creating layer inception_4a/output_inception_4a/output_0_split
I0403 14:16:02.040841 13090 net.cpp:91] Creating Layer inception_4a/output_inception_4a/output_0_split
I0403 14:16:02.040856 13090 net.cpp:425] inception_4a/output_inception_4a/output_0_split <- inception_4a/output
I0403 14:16:02.040875 13090 net.cpp:399] inception_4a/output_inception_4a/output_0_split -> inception_4a/output_inception_4a/output_0_split_0
I0403 14:16:02.040896 13090 net.cpp:399] inception_4a/output_inception_4a/output_0_split -> inception_4a/output_inception_4a/output_0_split_1
I0403 14:16:02.040916 13090 net.cpp:399] inception_4a/output_inception_4a/output_0_split -> inception_4a/output_inception_4a/output_0_split_2
I0403 14:16:02.040936 13090 net.cpp:399] inception_4a/output_inception_4a/output_0_split -> inception_4a/output_inception_4a/output_0_split_3
I0403 14:16:02.040956 13090 net.cpp:399] inception_4a/output_inception_4a/output_0_split -> inception_4a/output_inception_4a/output_0_split_4
I0403 14:16:02.041046 13090 net.cpp:141] Setting up inception_4a/output_inception_4a/output_0_split
I0403 14:16:02.041069 13090 net.cpp:148] Top shape: 24 512 14 14 (2408448)
I0403 14:16:02.041087 13090 net.cpp:148] Top shape: 24 512 14 14 (2408448)
I0403 14:16:02.041103 13090 net.cpp:148] Top shape: 24 512 14 14 (2408448)
I0403 14:16:02.041120 13090 net.cpp:148] Top shape: 24 512 14 14 (2408448)
I0403 14:16:02.041134 13090 net.cpp:148] Top shape: 24 512 14 14 (2408448)
I0403 14:16:02.041147 13090 net.cpp:156] Memory required for data: 944714784
I0403 14:16:02.041162 13090 layer_factory.hpp:77] Creating layer loss1/ave_pool
I0403 14:16:02.041178 13090 net.cpp:91] Creating Layer loss1/ave_pool
I0403 14:16:02.041194 13090 net.cpp:425] loss1/ave_pool <- inception_4a/output_inception_4a/output_0_split_0
I0403 14:16:02.041213 13090 net.cpp:399] loss1/ave_pool -> loss1/ave_pool
I0403 14:16:02.041421 13090 net.cpp:141] Setting up loss1/ave_pool
I0403 14:16:02.041447 13090 net.cpp:148] Top shape: 24 512 4 4 (196608)
I0403 14:16:02.041462 13090 net.cpp:156] Memory required for data: 945501216
I0403 14:16:02.041477 13090 layer_factory.hpp:77] Creating layer loss1/conv
I0403 14:16:02.041499 13090 net.cpp:91] Creating Layer loss1/conv
I0403 14:16:02.041517 13090 net.cpp:425] loss1/conv <- loss1/ave_pool
I0403 14:16:02.041540 13090 net.cpp:399] loss1/conv -> loss1/conv
I0403 14:16:02.042958 13090 net.cpp:141] Setting up loss1/conv
I0403 14:16:02.042989 13090 net.cpp:148] Top shape: 24 128 4 4 (49152)
I0403 14:16:02.043018 13090 net.cpp:156] Memory required for data: 945697824
I0403 14:16:02.043038 13090 layer_factory.hpp:77] Creating layer loss1/relu_conv
I0403 14:16:02.043057 13090 net.cpp:91] Creating Layer loss1/relu_conv
I0403 14:16:02.043072 13090 net.cpp:425] loss1/relu_conv <- loss1/conv
I0403 14:16:02.043092 13090 net.cpp:386] loss1/relu_conv -> loss1/conv (in-place)
I0403 14:16:02.043370 13090 net.cpp:141] Setting up loss1/relu_conv
I0403 14:16:02.043398 13090 net.cpp:148] Top shape: 24 128 4 4 (49152)
I0403 14:16:02.043414 13090 net.cpp:156] Memory required for data: 945894432
I0403 14:16:02.043429 13090 layer_factory.hpp:77] Creating layer loss1/fc
I0403 14:16:02.043452 13090 net.cpp:91] Creating Layer loss1/fc
I0403 14:16:02.043468 13090 net.cpp:425] loss1/fc <- loss1/conv
I0403 14:16:02.043489 13090 net.cpp:399] loss1/fc -> loss1/fc
I0403 14:16:02.060701 13090 net.cpp:141] Setting up loss1/fc
I0403 14:16:02.060736 13090 net.cpp:148] Top shape: 24 1024 (24576)
I0403 14:16:02.060752 13090 net.cpp:156] Memory required for data: 945992736
I0403 14:16:02.060770 13090 layer_factory.hpp:77] Creating layer loss1/relu_fc
I0403 14:16:02.060789 13090 net.cpp:91] Creating Layer loss1/relu_fc
I0403 14:16:02.060806 13090 net.cpp:425] loss1/relu_fc <- loss1/fc
I0403 14:16:02.060822 13090 net.cpp:386] loss1/relu_fc -> loss1/fc (in-place)
I0403 14:16:02.061004 13090 net.cpp:141] Setting up loss1/relu_fc
I0403 14:16:02.061030 13090 net.cpp:148] Top shape: 24 1024 (24576)
I0403 14:16:02.061045 13090 net.cpp:156] Memory required for data: 946091040
I0403 14:16:02.061059 13090 layer_factory.hpp:77] Creating layer loss1/drop_fc
I0403 14:16:02.061084 13090 net.cpp:91] Creating Layer loss1/drop_fc
I0403 14:16:02.061101 13090 net.cpp:425] loss1/drop_fc <- loss1/fc
I0403 14:16:02.061117 13090 net.cpp:386] loss1/drop_fc -> loss1/fc (in-place)
I0403 14:16:02.061167 13090 net.cpp:141] Setting up loss1/drop_fc
I0403 14:16:02.061189 13090 net.cpp:148] Top shape: 24 1024 (24576)
I0403 14:16:02.061203 13090 net.cpp:156] Memory required for data: 946189344
I0403 14:16:02.061218 13090 layer_factory.hpp:77] Creating layer loss1/classifier_plantvillage
I0403 14:16:02.061235 13090 net.cpp:91] Creating Layer loss1/classifier_plantvillage
I0403 14:16:02.061250 13090 net.cpp:425] loss1/classifier_plantvillage <- loss1/fc
I0403 14:16:02.061272 13090 net.cpp:399] loss1/classifier_plantvillage -> loss1/classifier_plantvillage
I0403 14:16:02.062156 13090 net.cpp:141] Setting up loss1/classifier_plantvillage
I0403 14:16:02.062183 13090 net.cpp:148] Top shape: 24 38 (912)
I0403 14:16:02.062198 13090 net.cpp:156] Memory required for data: 946192992
I0403 14:16:02.062216 13090 layer_factory.hpp:77] Creating layer loss1/classifier_plantvillage_loss1/classifier_plantvillage_0_split
I0403 14:16:02.062237 13090 net.cpp:91] Creating Layer loss1/classifier_plantvillage_loss1/classifier_plantvillage_0_split
I0403 14:16:02.062265 13090 net.cpp:425] loss1/classifier_plantvillage_loss1/classifier_plantvillage_0_split <- loss1/classifier_plantvillage
I0403 14:16:02.062283 13090 net.cpp:399] loss1/classifier_plantvillage_loss1/classifier_plantvillage_0_split -> loss1/classifier_plantvillage_loss1/classifier_plantvillage_0_split_0
I0403 14:16:02.062304 13090 net.cpp:399] loss1/classifier_plantvillage_loss1/classifier_plantvillage_0_split -> loss1/classifier_plantvillage_loss1/classifier_plantvillage_0_split_1
I0403 14:16:02.062326 13090 net.cpp:399] loss1/classifier_plantvillage_loss1/classifier_plantvillage_0_split -> loss1/classifier_plantvillage_loss1/classifier_plantvillage_0_split_2
I0403 14:16:02.062392 13090 net.cpp:141] Setting up loss1/classifier_plantvillage_loss1/classifier_plantvillage_0_split
I0403 14:16:02.062415 13090 net.cpp:148] Top shape: 24 38 (912)
I0403 14:16:02.062432 13090 net.cpp:148] Top shape: 24 38 (912)
I0403 14:16:02.062446 13090 net.cpp:148] Top shape: 24 38 (912)
I0403 14:16:02.062460 13090 net.cpp:156] Memory required for data: 946203936
I0403 14:16:02.062475 13090 layer_factory.hpp:77] Creating layer inception_4b/1x1
I0403 14:16:02.062496 13090 net.cpp:91] Creating Layer inception_4b/1x1
I0403 14:16:02.062530 13090 net.cpp:425] inception_4b/1x1 <- inception_4a/output_inception_4a/output_0_split_1
I0403 14:16:02.062556 13090 net.cpp:399] inception_4b/1x1 -> inception_4b/1x1
I0403 14:16:02.064188 13090 net.cpp:141] Setting up inception_4b/1x1
I0403 14:16:02.064219 13090 net.cpp:148] Top shape: 24 160 14 14 (752640)
I0403 14:16:02.064236 13090 net.cpp:156] Memory required for data: 949214496
I0403 14:16:02.064255 13090 layer_factory.hpp:77] Creating layer inception_4b/relu_1x1
I0403 14:16:02.064275 13090 net.cpp:91] Creating Layer inception_4b/relu_1x1
I0403 14:16:02.064290 13090 net.cpp:425] inception_4b/relu_1x1 <- inception_4b/1x1
I0403 14:16:02.064308 13090 net.cpp:386] inception_4b/relu_1x1 -> inception_4b/1x1 (in-place)
I0403 14:16:02.064486 13090 net.cpp:141] Setting up inception_4b/relu_1x1
I0403 14:16:02.064512 13090 net.cpp:148] Top shape: 24 160 14 14 (752640)
I0403 14:16:02.064527 13090 net.cpp:156] Memory required for data: 952225056
I0403 14:16:02.064551 13090 layer_factory.hpp:77] Creating layer inception_4b/3x3_reduce
I0403 14:16:02.064576 13090 net.cpp:91] Creating Layer inception_4b/3x3_reduce
I0403 14:16:02.064594 13090 net.cpp:425] inception_4b/3x3_reduce <- inception_4a/output_inception_4a/output_0_split_2
I0403 14:16:02.064615 13090 net.cpp:399] inception_4b/3x3_reduce -> inception_4b/3x3_reduce
I0403 14:16:02.065953 13090 net.cpp:141] Setting up inception_4b/3x3_reduce
I0403 14:16:02.065980 13090 net.cpp:148] Top shape: 24 112 14 14 (526848)
I0403 14:16:02.065995 13090 net.cpp:156] Memory required for data: 954332448
I0403 14:16:02.066014 13090 layer_factory.hpp:77] Creating layer inception_4b/relu_3x3_reduce
I0403 14:16:02.066031 13090 net.cpp:91] Creating Layer inception_4b/relu_3x3_reduce
I0403 14:16:02.066047 13090 net.cpp:425] inception_4b/relu_3x3_reduce <- inception_4b/3x3_reduce
I0403 14:16:02.066066 13090 net.cpp:386] inception_4b/relu_3x3_reduce -> inception_4b/3x3_reduce (in-place)
I0403 14:16:02.066347 13090 net.cpp:141] Setting up inception_4b/relu_3x3_reduce
I0403 14:16:02.066373 13090 net.cpp:148] Top shape: 24 112 14 14 (526848)
I0403 14:16:02.066388 13090 net.cpp:156] Memory required for data: 956439840
I0403 14:16:02.066402 13090 layer_factory.hpp:77] Creating layer inception_4b/3x3
I0403 14:16:02.066424 13090 net.cpp:91] Creating Layer inception_4b/3x3
I0403 14:16:02.066442 13090 net.cpp:425] inception_4b/3x3 <- inception_4b/3x3_reduce
I0403 14:16:02.066463 13090 net.cpp:399] inception_4b/3x3 -> inception_4b/3x3
I0403 14:16:02.069505 13090 net.cpp:141] Setting up inception_4b/3x3
I0403 14:16:02.069535 13090 net.cpp:148] Top shape: 24 224 14 14 (1053696)
I0403 14:16:02.069556 13090 net.cpp:156] Memory required for data: 960654624
I0403 14:16:02.069576 13090 layer_factory.hpp:77] Creating layer inception_4b/relu_3x3
I0403 14:16:02.069597 13090 net.cpp:91] Creating Layer inception_4b/relu_3x3
I0403 14:16:02.069613 13090 net.cpp:425] inception_4b/relu_3x3 <- inception_4b/3x3
I0403 14:16:02.069630 13090 net.cpp:386] inception_4b/relu_3x3 -> inception_4b/3x3 (in-place)
I0403 14:16:02.069815 13090 net.cpp:141] Setting up inception_4b/relu_3x3
I0403 14:16:02.069844 13090 net.cpp:148] Top shape: 24 224 14 14 (1053696)
I0403 14:16:02.069860 13090 net.cpp:156] Memory required for data: 964869408
I0403 14:16:02.069875 13090 layer_factory.hpp:77] Creating layer inception_4b/5x5_reduce
I0403 14:16:02.069897 13090 net.cpp:91] Creating Layer inception_4b/5x5_reduce
I0403 14:16:02.069916 13090 net.cpp:425] inception_4b/5x5_reduce <- inception_4a/output_inception_4a/output_0_split_3
I0403 14:16:02.069934 13090 net.cpp:399] inception_4b/5x5_reduce -> inception_4b/5x5_reduce
I0403 14:16:02.071055 13090 net.cpp:141] Setting up inception_4b/5x5_reduce
I0403 14:16:02.071084 13090 net.cpp:148] Top shape: 24 24 14 14 (112896)
I0403 14:16:02.071099 13090 net.cpp:156] Memory required for data: 965320992
I0403 14:16:02.071118 13090 layer_factory.hpp:77] Creating layer inception_4b/relu_5x5_reduce
I0403 14:16:02.071137 13090 net.cpp:91] Creating Layer inception_4b/relu_5x5_reduce
I0403 14:16:02.071171 13090 net.cpp:425] inception_4b/relu_5x5_reduce <- inception_4b/5x5_reduce
I0403 14:16:02.071192 13090 net.cpp:386] inception_4b/relu_5x5_reduce -> inception_4b/5x5_reduce (in-place)
I0403 14:16:02.071377 13090 net.cpp:141] Setting up inception_4b/relu_5x5_reduce
I0403 14:16:02.071403 13090 net.cpp:148] Top shape: 24 24 14 14 (112896)
I0403 14:16:02.071418 13090 net.cpp:156] Memory required for data: 965772576
I0403 14:16:02.071432 13090 layer_factory.hpp:77] Creating layer inception_4b/5x5
I0403 14:16:02.071455 13090 net.cpp:91] Creating Layer inception_4b/5x5
I0403 14:16:02.071472 13090 net.cpp:425] inception_4b/5x5 <- inception_4b/5x5_reduce
I0403 14:16:02.071493 13090 net.cpp:399] inception_4b/5x5 -> inception_4b/5x5
I0403 14:16:02.072767 13090 net.cpp:141] Setting up inception_4b/5x5
I0403 14:16:02.072798 13090 net.cpp:148] Top shape: 24 64 14 14 (301056)
I0403 14:16:02.072814 13090 net.cpp:156] Memory required for data: 966976800
I0403 14:16:02.072834 13090 layer_factory.hpp:77] Creating layer inception_4b/relu_5x5
I0403 14:16:02.072852 13090 net.cpp:91] Creating Layer inception_4b/relu_5x5
I0403 14:16:02.072870 13090 net.cpp:425] inception_4b/relu_5x5 <- inception_4b/5x5
I0403 14:16:02.072888 13090 net.cpp:386] inception_4b/relu_5x5 -> inception_4b/5x5 (in-place)
I0403 14:16:02.073182 13090 net.cpp:141] Setting up inception_4b/relu_5x5
I0403 14:16:02.073213 13090 net.cpp:148] Top shape: 24 64 14 14 (301056)
I0403 14:16:02.073230 13090 net.cpp:156] Memory required for data: 968181024
I0403 14:16:02.073246 13090 layer_factory.hpp:77] Creating layer inception_4b/pool
I0403 14:16:02.073266 13090 net.cpp:91] Creating Layer inception_4b/pool
I0403 14:16:02.073282 13090 net.cpp:425] inception_4b/pool <- inception_4a/output_inception_4a/output_0_split_4
I0403 14:16:02.073303 13090 net.cpp:399] inception_4b/pool -> inception_4b/pool
I0403 14:16:02.073367 13090 net.cpp:141] Setting up inception_4b/pool
I0403 14:16:02.073392 13090 net.cpp:148] Top shape: 24 512 14 14 (2408448)
I0403 14:16:02.073407 13090 net.cpp:156] Memory required for data: 977814816
I0403 14:16:02.073422 13090 layer_factory.hpp:77] Creating layer inception_4b/pool_proj
I0403 14:16:02.073444 13090 net.cpp:91] Creating Layer inception_4b/pool_proj
I0403 14:16:02.073462 13090 net.cpp:425] inception_4b/pool_proj <- inception_4b/pool
I0403 14:16:02.073483 13090 net.cpp:399] inception_4b/pool_proj -> inception_4b/pool_proj
I0403 14:16:02.074728 13090 net.cpp:141] Setting up inception_4b/pool_proj
I0403 14:16:02.074759 13090 net.cpp:148] Top shape: 24 64 14 14 (301056)
I0403 14:16:02.074775 13090 net.cpp:156] Memory required for data: 979019040
I0403 14:16:02.074795 13090 layer_factory.hpp:77] Creating layer inception_4b/relu_pool_proj
I0403 14:16:02.074813 13090 net.cpp:91] Creating Layer inception_4b/relu_pool_proj
I0403 14:16:02.074829 13090 net.cpp:425] inception_4b/relu_pool_proj <- inception_4b/pool_proj
I0403 14:16:02.074849 13090 net.cpp:386] inception_4b/relu_pool_proj -> inception_4b/pool_proj (in-place)
I0403 14:16:02.075033 13090 net.cpp:141] Setting up inception_4b/relu_pool_proj
I0403 14:16:02.075059 13090 net.cpp:148] Top shape: 24 64 14 14 (301056)
I0403 14:16:02.075074 13090 net.cpp:156] Memory required for data: 980223264
I0403 14:16:02.075088 13090 layer_factory.hpp:77] Creating layer inception_4b/output
I0403 14:16:02.075106 13090 net.cpp:91] Creating Layer inception_4b/output
I0403 14:16:02.075122 13090 net.cpp:425] inception_4b/output <- inception_4b/1x1
I0403 14:16:02.075139 13090 net.cpp:425] inception_4b/output <- inception_4b/3x3
I0403 14:16:02.075155 13090 net.cpp:425] inception_4b/output <- inception_4b/5x5
I0403 14:16:02.075170 13090 net.cpp:425] inception_4b/output <- inception_4b/pool_proj
I0403 14:16:02.075189 13090 net.cpp:399] inception_4b/output -> inception_4b/output
I0403 14:16:02.075238 13090 net.cpp:141] Setting up inception_4b/output
I0403 14:16:02.075264 13090 net.cpp:148] Top shape: 24 512 14 14 (2408448)
I0403 14:16:02.075279 13090 net.cpp:156] Memory required for data: 989857056
I0403 14:16:02.075309 13090 layer_factory.hpp:77] Creating layer inception_4b/output_inception_4b/output_0_split
I0403 14:16:02.075326 13090 net.cpp:91] Creating Layer inception_4b/output_inception_4b/output_0_split
I0403 14:16:02.075342 13090 net.cpp:425] inception_4b/output_inception_4b/output_0_split <- inception_4b/output
I0403 14:16:02.075362 13090 net.cpp:399] inception_4b/output_inception_4b/output_0_split -> inception_4b/output_inception_4b/output_0_split_0
I0403 14:16:02.075383 13090 net.cpp:399] inception_4b/output_inception_4b/output_0_split -> inception_4b/output_inception_4b/output_0_split_1
I0403 14:16:02.075404 13090 net.cpp:399] inception_4b/output_inception_4b/output_0_split -> inception_4b/output_inception_4b/output_0_split_2
I0403 14:16:02.075424 13090 net.cpp:399] inception_4b/output_inception_4b/output_0_split -> inception_4b/output_inception_4b/output_0_split_3
I0403 14:16:02.075510 13090 net.cpp:141] Setting up inception_4b/output_inception_4b/output_0_split
I0403 14:16:02.075533 13090 net.cpp:148] Top shape: 24 512 14 14 (2408448)
I0403 14:16:02.075556 13090 net.cpp:148] Top shape: 24 512 14 14 (2408448)
I0403 14:16:02.075572 13090 net.cpp:148] Top shape: 24 512 14 14 (2408448)
I0403 14:16:02.075587 13090 net.cpp:148] Top shape: 24 512 14 14 (2408448)
I0403 14:16:02.075601 13090 net.cpp:156] Memory required for data: 1028392224
I0403 14:16:02.075615 13090 layer_factory.hpp:77] Creating layer inception_4c/1x1
I0403 14:16:02.075641 13090 net.cpp:91] Creating Layer inception_4c/1x1
I0403 14:16:02.075659 13090 net.cpp:425] inception_4c/1x1 <- inception_4b/output_inception_4b/output_0_split_0
I0403 14:16:02.075678 13090 net.cpp:399] inception_4c/1x1 -> inception_4c/1x1
I0403 14:16:02.077157 13090 net.cpp:141] Setting up inception_4c/1x1
I0403 14:16:02.077186 13090 net.cpp:148] Top shape: 24 128 14 14 (602112)
I0403 14:16:02.077201 13090 net.cpp:156] Memory required for data: 1030800672
I0403 14:16:02.077220 13090 layer_factory.hpp:77] Creating layer inception_4c/relu_1x1
I0403 14:16:02.077241 13090 net.cpp:91] Creating Layer inception_4c/relu_1x1
I0403 14:16:02.077258 13090 net.cpp:425] inception_4c/relu_1x1 <- inception_4c/1x1
I0403 14:16:02.077275 13090 net.cpp:386] inception_4c/relu_1x1 -> inception_4c/1x1 (in-place)
I0403 14:16:02.077461 13090 net.cpp:141] Setting up inception_4c/relu_1x1
I0403 14:16:02.077489 13090 net.cpp:148] Top shape: 24 128 14 14 (602112)
I0403 14:16:02.077505 13090 net.cpp:156] Memory required for data: 1033209120
I0403 14:16:02.077520 13090 layer_factory.hpp:77] Creating layer inception_4c/3x3_reduce
I0403 14:16:02.077548 13090 net.cpp:91] Creating Layer inception_4c/3x3_reduce
I0403 14:16:02.077569 13090 net.cpp:425] inception_4c/3x3_reduce <- inception_4b/output_inception_4b/output_0_split_1
I0403 14:16:02.077587 13090 net.cpp:399] inception_4c/3x3_reduce -> inception_4c/3x3_reduce
I0403 14:16:02.079627 13090 net.cpp:141] Setting up inception_4c/3x3_reduce
I0403 14:16:02.079659 13090 net.cpp:148] Top shape: 24 128 14 14 (602112)
I0403 14:16:02.079677 13090 net.cpp:156] Memory required for data: 1035617568
I0403 14:16:02.079696 13090 layer_factory.hpp:77] Creating layer inception_4c/relu_3x3_reduce
I0403 14:16:02.079715 13090 net.cpp:91] Creating Layer inception_4c/relu_3x3_reduce
I0403 14:16:02.079731 13090 net.cpp:425] inception_4c/relu_3x3_reduce <- inception_4c/3x3_reduce
I0403 14:16:02.079749 13090 net.cpp:386] inception_4c/relu_3x3_reduce -> inception_4c/3x3_reduce (in-place)
I0403 14:16:02.080042 13090 net.cpp:141] Setting up inception_4c/relu_3x3_reduce
I0403 14:16:02.080072 13090 net.cpp:148] Top shape: 24 128 14 14 (602112)
I0403 14:16:02.080088 13090 net.cpp:156] Memory required for data: 1038026016
I0403 14:16:02.080103 13090 layer_factory.hpp:77] Creating layer inception_4c/3x3
I0403 14:16:02.080127 13090 net.cpp:91] Creating Layer inception_4c/3x3
I0403 14:16:02.080145 13090 net.cpp:425] inception_4c/3x3 <- inception_4c/3x3_reduce
I0403 14:16:02.080164 13090 net.cpp:399] inception_4c/3x3 -> inception_4c/3x3
I0403 14:16:02.083883 13090 net.cpp:141] Setting up inception_4c/3x3
I0403 14:16:02.083927 13090 net.cpp:148] Top shape: 24 256 14 14 (1204224)
I0403 14:16:02.083945 13090 net.cpp:156] Memory required for data: 1042842912
I0403 14:16:02.083978 13090 layer_factory.hpp:77] Creating layer inception_4c/relu_3x3
I0403 14:16:02.084000 13090 net.cpp:91] Creating Layer inception_4c/relu_3x3
I0403 14:16:02.084017 13090 net.cpp:425] inception_4c/relu_3x3 <- inception_4c/3x3
I0403 14:16:02.084036 13090 net.cpp:386] inception_4c/relu_3x3 -> inception_4c/3x3 (in-place)
I0403 14:16:02.084236 13090 net.cpp:141] Setting up inception_4c/relu_3x3
I0403 14:16:02.084264 13090 net.cpp:148] Top shape: 24 256 14 14 (1204224)
I0403 14:16:02.084278 13090 net.cpp:156] Memory required for data: 1047659808
I0403 14:16:02.084293 13090 layer_factory.hpp:77] Creating layer inception_4c/5x5_reduce
I0403 14:16:02.084317 13090 net.cpp:91] Creating Layer inception_4c/5x5_reduce
I0403 14:16:02.084336 13090 net.cpp:425] inception_4c/5x5_reduce <- inception_4b/output_inception_4b/output_0_split_2
I0403 14:16:02.084357 13090 net.cpp:399] inception_4c/5x5_reduce -> inception_4c/5x5_reduce
I0403 14:16:02.085489 13090 net.cpp:141] Setting up inception_4c/5x5_reduce
I0403 14:16:02.085517 13090 net.cpp:148] Top shape: 24 24 14 14 (112896)
I0403 14:16:02.085533 13090 net.cpp:156] Memory required for data: 1048111392
I0403 14:16:02.085558 13090 layer_factory.hpp:77] Creating layer inception_4c/relu_5x5_reduce
I0403 14:16:02.085577 13090 net.cpp:91] Creating Layer inception_4c/relu_5x5_reduce
I0403 14:16:02.085593 13090 net.cpp:425] inception_4c/relu_5x5_reduce <- inception_4c/5x5_reduce
I0403 14:16:02.085613 13090 net.cpp:386] inception_4c/relu_5x5_reduce -> inception_4c/5x5_reduce (in-place)
I0403 14:16:02.085803 13090 net.cpp:141] Setting up inception_4c/relu_5x5_reduce
I0403 14:16:02.085834 13090 net.cpp:148] Top shape: 24 24 14 14 (112896)
I0403 14:16:02.085855 13090 net.cpp:156] Memory required for data: 1048562976
I0403 14:16:02.085870 13090 layer_factory.hpp:77] Creating layer inception_4c/5x5
I0403 14:16:02.085892 13090 net.cpp:91] Creating Layer inception_4c/5x5
I0403 14:16:02.085909 13090 net.cpp:425] inception_4c/5x5 <- inception_4c/5x5_reduce
I0403 14:16:02.085932 13090 net.cpp:399] inception_4c/5x5 -> inception_4c/5x5
I0403 14:16:02.087255 13090 net.cpp:141] Setting up inception_4c/5x5
I0403 14:16:02.087282 13090 net.cpp:148] Top shape: 24 64 14 14 (301056)
I0403 14:16:02.087297 13090 net.cpp:156] Memory required for data: 1049767200
I0403 14:16:02.087316 13090 layer_factory.hpp:77] Creating layer inception_4c/relu_5x5
I0403 14:16:02.087335 13090 net.cpp:91] Creating Layer inception_4c/relu_5x5
I0403 14:16:02.087352 13090 net.cpp:425] inception_4c/relu_5x5 <- inception_4c/5x5
I0403 14:16:02.087369 13090 net.cpp:386] inception_4c/relu_5x5 -> inception_4c/5x5 (in-place)
I0403 14:16:02.087663 13090 net.cpp:141] Setting up inception_4c/relu_5x5
I0403 14:16:02.087690 13090 net.cpp:148] Top shape: 24 64 14 14 (301056)
I0403 14:16:02.087705 13090 net.cpp:156] Memory required for data: 1050971424
I0403 14:16:02.087719 13090 layer_factory.hpp:77] Creating layer inception_4c/pool
I0403 14:16:02.087739 13090 net.cpp:91] Creating Layer inception_4c/pool
I0403 14:16:02.087760 13090 net.cpp:425] inception_4c/pool <- inception_4b/output_inception_4b/output_0_split_3
I0403 14:16:02.087787 13090 net.cpp:399] inception_4c/pool -> inception_4c/pool
I0403 14:16:02.087862 13090 net.cpp:141] Setting up inception_4c/pool
I0403 14:16:02.087887 13090 net.cpp:148] Top shape: 24 512 14 14 (2408448)
I0403 14:16:02.087900 13090 net.cpp:156] Memory required for data: 1060605216
I0403 14:16:02.087914 13090 layer_factory.hpp:77] Creating layer inception_4c/pool_proj
I0403 14:16:02.087936 13090 net.cpp:91] Creating Layer inception_4c/pool_proj
I0403 14:16:02.087954 13090 net.cpp:425] inception_4c/pool_proj <- inception_4c/pool
I0403 14:16:02.087973 13090 net.cpp:399] inception_4c/pool_proj -> inception_4c/pool_proj
I0403 14:16:02.089195 13090 net.cpp:141] Setting up inception_4c/pool_proj
I0403 14:16:02.089226 13090 net.cpp:148] Top shape: 24 64 14 14 (301056)
I0403 14:16:02.089254 13090 net.cpp:156] Memory required for data: 1061809440
I0403 14:16:02.089274 13090 layer_factory.hpp:77] Creating layer inception_4c/relu_pool_proj
I0403 14:16:02.089293 13090 net.cpp:91] Creating Layer inception_4c/relu_pool_proj
I0403 14:16:02.089309 13090 net.cpp:425] inception_4c/relu_pool_proj <- inception_4c/pool_proj
I0403 14:16:02.089329 13090 net.cpp:386] inception_4c/relu_pool_proj -> inception_4c/pool_proj (in-place)
I0403 14:16:02.089512 13090 net.cpp:141] Setting up inception_4c/relu_pool_proj
I0403 14:16:02.089545 13090 net.cpp:148] Top shape: 24 64 14 14 (301056)
I0403 14:16:02.089561 13090 net.cpp:156] Memory required for data: 1063013664
I0403 14:16:02.089576 13090 layer_factory.hpp:77] Creating layer inception_4c/output
I0403 14:16:02.089599 13090 net.cpp:91] Creating Layer inception_4c/output
I0403 14:16:02.089615 13090 net.cpp:425] inception_4c/output <- inception_4c/1x1
I0403 14:16:02.089632 13090 net.cpp:425] inception_4c/output <- inception_4c/3x3
I0403 14:16:02.089646 13090 net.cpp:425] inception_4c/output <- inception_4c/5x5
I0403 14:16:02.089661 13090 net.cpp:425] inception_4c/output <- inception_4c/pool_proj
I0403 14:16:02.089680 13090 net.cpp:399] inception_4c/output -> inception_4c/output
I0403 14:16:02.089730 13090 net.cpp:141] Setting up inception_4c/output
I0403 14:16:02.089752 13090 net.cpp:148] Top shape: 24 512 14 14 (2408448)
I0403 14:16:02.089766 13090 net.cpp:156] Memory required for data: 1072647456
I0403 14:16:02.089781 13090 layer_factory.hpp:77] Creating layer inception_4c/output_inception_4c/output_0_split
I0403 14:16:02.089797 13090 net.cpp:91] Creating Layer inception_4c/output_inception_4c/output_0_split
I0403 14:16:02.089812 13090 net.cpp:425] inception_4c/output_inception_4c/output_0_split <- inception_4c/output
I0403 14:16:02.089830 13090 net.cpp:399] inception_4c/output_inception_4c/output_0_split -> inception_4c/output_inception_4c/output_0_split_0
I0403 14:16:02.089851 13090 net.cpp:399] inception_4c/output_inception_4c/output_0_split -> inception_4c/output_inception_4c/output_0_split_1
I0403 14:16:02.089871 13090 net.cpp:399] inception_4c/output_inception_4c/output_0_split -> inception_4c/output_inception_4c/output_0_split_2
I0403 14:16:02.089890 13090 net.cpp:399] inception_4c/output_inception_4c/output_0_split -> inception_4c/output_inception_4c/output_0_split_3
I0403 14:16:02.089978 13090 net.cpp:141] Setting up inception_4c/output_inception_4c/output_0_split
I0403 14:16:02.090001 13090 net.cpp:148] Top shape: 24 512 14 14 (2408448)
I0403 14:16:02.090018 13090 net.cpp:148] Top shape: 24 512 14 14 (2408448)
I0403 14:16:02.090034 13090 net.cpp:148] Top shape: 24 512 14 14 (2408448)
I0403 14:16:02.090047 13090 net.cpp:148] Top shape: 24 512 14 14 (2408448)
I0403 14:16:02.090061 13090 net.cpp:156] Memory required for data: 1111182624
I0403 14:16:02.090075 13090 layer_factory.hpp:77] Creating layer inception_4d/1x1
I0403 14:16:02.090098 13090 net.cpp:91] Creating Layer inception_4d/1x1
I0403 14:16:02.090116 13090 net.cpp:425] inception_4d/1x1 <- inception_4c/output_inception_4c/output_0_split_0
I0403 14:16:02.090133 13090 net.cpp:399] inception_4d/1x1 -> inception_4d/1x1
I0403 14:16:02.091516 13090 net.cpp:141] Setting up inception_4d/1x1
I0403 14:16:02.091548 13090 net.cpp:148] Top shape: 24 112 14 14 (526848)
I0403 14:16:02.091564 13090 net.cpp:156] Memory required for data: 1113290016
I0403 14:16:02.091583 13090 layer_factory.hpp:77] Creating layer inception_4d/relu_1x1
I0403 14:16:02.091603 13090 net.cpp:91] Creating Layer inception_4d/relu_1x1
I0403 14:16:02.091619 13090 net.cpp:425] inception_4d/relu_1x1 <- inception_4d/1x1
I0403 14:16:02.091635 13090 net.cpp:386] inception_4d/relu_1x1 -> inception_4d/1x1 (in-place)
I0403 14:16:02.091823 13090 net.cpp:141] Setting up inception_4d/relu_1x1
I0403 14:16:02.091848 13090 net.cpp:148] Top shape: 24 112 14 14 (526848)
I0403 14:16:02.091862 13090 net.cpp:156] Memory required for data: 1115397408
I0403 14:16:02.091877 13090 layer_factory.hpp:77] Creating layer inception_4d/3x3_reduce
I0403 14:16:02.091913 13090 net.cpp:91] Creating Layer inception_4d/3x3_reduce
I0403 14:16:02.091933 13090 net.cpp:425] inception_4d/3x3_reduce <- inception_4c/output_inception_4c/output_0_split_1
I0403 14:16:02.091953 13090 net.cpp:399] inception_4d/3x3_reduce -> inception_4d/3x3_reduce
I0403 14:16:02.093545 13090 net.cpp:141] Setting up inception_4d/3x3_reduce
I0403 14:16:02.093574 13090 net.cpp:148] Top shape: 24 144 14 14 (677376)
I0403 14:16:02.093590 13090 net.cpp:156] Memory required for data: 1118106912
I0403 14:16:02.093608 13090 layer_factory.hpp:77] Creating layer inception_4d/relu_3x3_reduce
I0403 14:16:02.093631 13090 net.cpp:91] Creating Layer inception_4d/relu_3x3_reduce
I0403 14:16:02.093648 13090 net.cpp:425] inception_4d/relu_3x3_reduce <- inception_4d/3x3_reduce
I0403 14:16:02.093665 13090 net.cpp:386] inception_4d/relu_3x3_reduce -> inception_4d/3x3_reduce (in-place)
I0403 14:16:02.093964 13090 net.cpp:141] Setting up inception_4d/relu_3x3_reduce
I0403 14:16:02.093991 13090 net.cpp:148] Top shape: 24 144 14 14 (677376)
I0403 14:16:02.094007 13090 net.cpp:156] Memory required for data: 1120816416
I0403 14:16:02.094022 13090 layer_factory.hpp:77] Creating layer inception_4d/3x3
I0403 14:16:02.094045 13090 net.cpp:91] Creating Layer inception_4d/3x3
I0403 14:16:02.094063 13090 net.cpp:425] inception_4d/3x3 <- inception_4d/3x3_reduce
I0403 14:16:02.094084 13090 net.cpp:399] inception_4d/3x3 -> inception_4d/3x3
I0403 14:16:02.098484 13090 net.cpp:141] Setting up inception_4d/3x3
I0403 14:16:02.098516 13090 net.cpp:148] Top shape: 24 288 14 14 (1354752)
I0403 14:16:02.098533 13090 net.cpp:156] Memory required for data: 1126235424
I0403 14:16:02.098557 13090 layer_factory.hpp:77] Creating layer inception_4d/relu_3x3
I0403 14:16:02.098577 13090 net.cpp:91] Creating Layer inception_4d/relu_3x3
I0403 14:16:02.098593 13090 net.cpp:425] inception_4d/relu_3x3 <- inception_4d/3x3
I0403 14:16:02.098610 13090 net.cpp:386] inception_4d/relu_3x3 -> inception_4d/3x3 (in-place)
I0403 14:16:02.098803 13090 net.cpp:141] Setting up inception_4d/relu_3x3
I0403 14:16:02.098837 13090 net.cpp:148] Top shape: 24 288 14 14 (1354752)
I0403 14:16:02.098860 13090 net.cpp:156] Memory required for data: 1131654432
I0403 14:16:02.098882 13090 layer_factory.hpp:77] Creating layer inception_4d/5x5_reduce
I0403 14:16:02.098913 13090 net.cpp:91] Creating Layer inception_4d/5x5_reduce
I0403 14:16:02.098938 13090 net.cpp:425] inception_4d/5x5_reduce <- inception_4c/output_inception_4c/output_0_split_2
I0403 14:16:02.098960 13090 net.cpp:399] inception_4d/5x5_reduce -> inception_4d/5x5_reduce
I0403 14:16:02.100148 13090 net.cpp:141] Setting up inception_4d/5x5_reduce
I0403 14:16:02.100178 13090 net.cpp:148] Top shape: 24 32 14 14 (150528)
I0403 14:16:02.100193 13090 net.cpp:156] Memory required for data: 1132256544
I0403 14:16:02.100213 13090 layer_factory.hpp:77] Creating layer inception_4d/relu_5x5_reduce
I0403 14:16:02.100235 13090 net.cpp:91] Creating Layer inception_4d/relu_5x5_reduce
I0403 14:16:02.100255 13090 net.cpp:425] inception_4d/relu_5x5_reduce <- inception_4d/5x5_reduce
I0403 14:16:02.100273 13090 net.cpp:386] inception_4d/relu_5x5_reduce -> inception_4d/5x5_reduce (in-place)
I0403 14:16:02.100466 13090 net.cpp:141] Setting up inception_4d/relu_5x5_reduce
I0403 14:16:02.100492 13090 net.cpp:148] Top shape: 24 32 14 14 (150528)
I0403 14:16:02.100507 13090 net.cpp:156] Memory required for data: 1132858656
I0403 14:16:02.100522 13090 layer_factory.hpp:77] Creating layer inception_4d/5x5
I0403 14:16:02.100548 13090 net.cpp:91] Creating Layer inception_4d/5x5
I0403 14:16:02.100569 13090 net.cpp:425] inception_4d/5x5 <- inception_4d/5x5_reduce
I0403 14:16:02.100590 13090 net.cpp:399] inception_4d/5x5 -> inception_4d/5x5
I0403 14:16:02.102124 13090 net.cpp:141] Setting up inception_4d/5x5
I0403 14:16:02.102154 13090 net.cpp:148] Top shape: 24 64 14 14 (301056)
I0403 14:16:02.102169 13090 net.cpp:156] Memory required for data: 1134062880
I0403 14:16:02.102188 13090 layer_factory.hpp:77] Creating layer inception_4d/relu_5x5
I0403 14:16:02.102223 13090 net.cpp:91] Creating Layer inception_4d/relu_5x5
I0403 14:16:02.102241 13090 net.cpp:425] inception_4d/relu_5x5 <- inception_4d/5x5
I0403 14:16:02.102262 13090 net.cpp:386] inception_4d/relu_5x5 -> inception_4d/5x5 (in-place)
I0403 14:16:02.102579 13090 net.cpp:141] Setting up inception_4d/relu_5x5
I0403 14:16:02.102607 13090 net.cpp:148] Top shape: 24 64 14 14 (301056)
I0403 14:16:02.102622 13090 net.cpp:156] Memory required for data: 1135267104
I0403 14:16:02.102637 13090 layer_factory.hpp:77] Creating layer inception_4d/pool
I0403 14:16:02.102655 13090 net.cpp:91] Creating Layer inception_4d/pool
I0403 14:16:02.102671 13090 net.cpp:425] inception_4d/pool <- inception_4c/output_inception_4c/output_0_split_3
I0403 14:16:02.102692 13090 net.cpp:399] inception_4d/pool -> inception_4d/pool
I0403 14:16:02.102761 13090 net.cpp:141] Setting up inception_4d/pool
I0403 14:16:02.102787 13090 net.cpp:148] Top shape: 24 512 14 14 (2408448)
I0403 14:16:02.102802 13090 net.cpp:156] Memory required for data: 1144900896
I0403 14:16:02.102815 13090 layer_factory.hpp:77] Creating layer inception_4d/pool_proj
I0403 14:16:02.102839 13090 net.cpp:91] Creating Layer inception_4d/pool_proj
I0403 14:16:02.102857 13090 net.cpp:425] inception_4d/pool_proj <- inception_4d/pool
I0403 14:16:02.102875 13090 net.cpp:399] inception_4d/pool_proj -> inception_4d/pool_proj
I0403 14:16:02.104701 13090 net.cpp:141] Setting up inception_4d/pool_proj
I0403 14:16:02.104732 13090 net.cpp:148] Top shape: 24 64 14 14 (301056)
I0403 14:16:02.104749 13090 net.cpp:156] Memory required for data: 1146105120
I0403 14:16:02.104768 13090 layer_factory.hpp:77] Creating layer inception_4d/relu_pool_proj
I0403 14:16:02.104789 13090 net.cpp:91] Creating Layer inception_4d/relu_pool_proj
I0403 14:16:02.104805 13090 net.cpp:425] inception_4d/relu_pool_proj <- inception_4d/pool_proj
I0403 14:16:02.104822 13090 net.cpp:386] inception_4d/relu_pool_proj -> inception_4d/pool_proj (in-place)
I0403 14:16:02.105029 13090 net.cpp:141] Setting up inception_4d/relu_pool_proj
I0403 14:16:02.105057 13090 net.cpp:148] Top shape: 24 64 14 14 (301056)
I0403 14:16:02.105073 13090 net.cpp:156] Memory required for data: 1147309344
I0403 14:16:02.105088 13090 layer_factory.hpp:77] Creating layer inception_4d/output
I0403 14:16:02.105108 13090 net.cpp:91] Creating Layer inception_4d/output
I0403 14:16:02.105123 13090 net.cpp:425] inception_4d/output <- inception_4d/1x1
I0403 14:16:02.105140 13090 net.cpp:425] inception_4d/output <- inception_4d/3x3
I0403 14:16:02.105157 13090 net.cpp:425] inception_4d/output <- inception_4d/5x5
I0403 14:16:02.105172 13090 net.cpp:425] inception_4d/output <- inception_4d/pool_proj
I0403 14:16:02.105193 13090 net.cpp:399] inception_4d/output -> inception_4d/output
I0403 14:16:02.105245 13090 net.cpp:141] Setting up inception_4d/output
I0403 14:16:02.105271 13090 net.cpp:148] Top shape: 24 528 14 14 (2483712)
I0403 14:16:02.105286 13090 net.cpp:156] Memory required for data: 1157244192
I0403 14:16:02.105301 13090 layer_factory.hpp:77] Creating layer inception_4d/output_inception_4d/output_0_split
I0403 14:16:02.105322 13090 net.cpp:91] Creating Layer inception_4d/output_inception_4d/output_0_split
I0403 14:16:02.105340 13090 net.cpp:425] inception_4d/output_inception_4d/output_0_split <- inception_4d/output
I0403 14:16:02.105362 13090 net.cpp:399] inception_4d/output_inception_4d/output_0_split -> inception_4d/output_inception_4d/output_0_split_0
I0403 14:16:02.105384 13090 net.cpp:399] inception_4d/output_inception_4d/output_0_split -> inception_4d/output_inception_4d/output_0_split_1
I0403 14:16:02.105407 13090 net.cpp:399] inception_4d/output_inception_4d/output_0_split -> inception_4d/output_inception_4d/output_0_split_2
I0403 14:16:02.105428 13090 net.cpp:399] inception_4d/output_inception_4d/output_0_split -> inception_4d/output_inception_4d/output_0_split_3
I0403 14:16:02.105461 13090 net.cpp:399] inception_4d/output_inception_4d/output_0_split -> inception_4d/output_inception_4d/output_0_split_4
I0403 14:16:02.105571 13090 net.cpp:141] Setting up inception_4d/output_inception_4d/output_0_split
I0403 14:16:02.105607 13090 net.cpp:148] Top shape: 24 528 14 14 (2483712)
I0403 14:16:02.105626 13090 net.cpp:148] Top shape: 24 528 14 14 (2483712)
I0403 14:16:02.105643 13090 net.cpp:148] Top shape: 24 528 14 14 (2483712)
I0403 14:16:02.105659 13090 net.cpp:148] Top shape: 24 528 14 14 (2483712)
I0403 14:16:02.105674 13090 net.cpp:148] Top shape: 24 528 14 14 (2483712)
I0403 14:16:02.105687 13090 net.cpp:156] Memory required for data: 1206918432
I0403 14:16:02.105701 13090 layer_factory.hpp:77] Creating layer loss2/ave_pool
I0403 14:16:02.105721 13090 net.cpp:91] Creating Layer loss2/ave_pool
I0403 14:16:02.105738 13090 net.cpp:425] loss2/ave_pool <- inception_4d/output_inception_4d/output_0_split_0
I0403 14:16:02.105757 13090 net.cpp:399] loss2/ave_pool -> loss2/ave_pool
I0403 14:16:02.106077 13090 net.cpp:141] Setting up loss2/ave_pool
I0403 14:16:02.106114 13090 net.cpp:148] Top shape: 24 528 4 4 (202752)
I0403 14:16:02.106133 13090 net.cpp:156] Memory required for data: 1207729440
I0403 14:16:02.106149 13090 layer_factory.hpp:77] Creating layer loss2/conv
I0403 14:16:02.106174 13090 net.cpp:91] Creating Layer loss2/conv
I0403 14:16:02.106192 13090 net.cpp:425] loss2/conv <- loss2/ave_pool
I0403 14:16:02.106211 13090 net.cpp:399] loss2/conv -> loss2/conv
I0403 14:16:02.108173 13090 net.cpp:141] Setting up loss2/conv
I0403 14:16:02.108202 13090 net.cpp:148] Top shape: 24 128 4 4 (49152)
I0403 14:16:02.108217 13090 net.cpp:156] Memory required for data: 1207926048
I0403 14:16:02.108237 13090 layer_factory.hpp:77] Creating layer loss2/relu_conv
I0403 14:16:02.108256 13090 net.cpp:91] Creating Layer loss2/relu_conv
I0403 14:16:02.108273 13090 net.cpp:425] loss2/relu_conv <- loss2/conv
I0403 14:16:02.108289 13090 net.cpp:386] loss2/relu_conv -> loss2/conv (in-place)
I0403 14:16:02.108582 13090 net.cpp:141] Setting up loss2/relu_conv
I0403 14:16:02.108608 13090 net.cpp:148] Top shape: 24 128 4 4 (49152)
I0403 14:16:02.108623 13090 net.cpp:156] Memory required for data: 1208122656
I0403 14:16:02.108638 13090 layer_factory.hpp:77] Creating layer loss2/fc
I0403 14:16:02.108659 13090 net.cpp:91] Creating Layer loss2/fc
I0403 14:16:02.108676 13090 net.cpp:425] loss2/fc <- loss2/conv
I0403 14:16:02.108695 13090 net.cpp:399] loss2/fc -> loss2/fc
I0403 14:16:02.126008 13090 net.cpp:141] Setting up loss2/fc
I0403 14:16:02.126041 13090 net.cpp:148] Top shape: 24 1024 (24576)
I0403 14:16:02.126056 13090 net.cpp:156] Memory required for data: 1208220960
I0403 14:16:02.126075 13090 layer_factory.hpp:77] Creating layer loss2/relu_fc
I0403 14:16:02.126094 13090 net.cpp:91] Creating Layer loss2/relu_fc
I0403 14:16:02.126111 13090 net.cpp:425] loss2/relu_fc <- loss2/fc
I0403 14:16:02.126132 13090 net.cpp:386] loss2/relu_fc -> loss2/fc (in-place)
I0403 14:16:02.126420 13090 net.cpp:141] Setting up loss2/relu_fc
I0403 14:16:02.126447 13090 net.cpp:148] Top shape: 24 1024 (24576)
I0403 14:16:02.126463 13090 net.cpp:156] Memory required for data: 1208319264
I0403 14:16:02.126477 13090 layer_factory.hpp:77] Creating layer loss2/drop_fc
I0403 14:16:02.126494 13090 net.cpp:91] Creating Layer loss2/drop_fc
I0403 14:16:02.126510 13090 net.cpp:425] loss2/drop_fc <- loss2/fc
I0403 14:16:02.126528 13090 net.cpp:386] loss2/drop_fc -> loss2/fc (in-place)
I0403 14:16:02.126581 13090 net.cpp:141] Setting up loss2/drop_fc
I0403 14:16:02.126603 13090 net.cpp:148] Top shape: 24 1024 (24576)
I0403 14:16:02.126617 13090 net.cpp:156] Memory required for data: 1208417568
I0403 14:16:02.126631 13090 layer_factory.hpp:77] Creating layer loss2/classifier_plantvillage
I0403 14:16:02.126652 13090 net.cpp:91] Creating Layer loss2/classifier_plantvillage
I0403 14:16:02.126668 13090 net.cpp:425] loss2/classifier_plantvillage <- loss2/fc
I0403 14:16:02.126688 13090 net.cpp:399] loss2/classifier_plantvillage -> loss2/classifier_plantvillage
I0403 14:16:02.127081 13090 net.cpp:141] Setting up loss2/classifier_plantvillage
I0403 14:16:02.127105 13090 net.cpp:148] Top shape: 24 38 (912)
I0403 14:16:02.127135 13090 net.cpp:156] Memory required for data: 1208421216
I0403 14:16:02.127154 13090 layer_factory.hpp:77] Creating layer loss2/classifier_plantvillage_loss2/classifier_plantvillage_0_split
I0403 14:16:02.127172 13090 net.cpp:91] Creating Layer loss2/classifier_plantvillage_loss2/classifier_plantvillage_0_split
I0403 14:16:02.127190 13090 net.cpp:425] loss2/classifier_plantvillage_loss2/classifier_plantvillage_0_split <- loss2/classifier_plantvillage
I0403 14:16:02.127207 13090 net.cpp:399] loss2/classifier_plantvillage_loss2/classifier_plantvillage_0_split -> loss2/classifier_plantvillage_loss2/classifier_plantvillage_0_split_0
I0403 14:16:02.127226 13090 net.cpp:399] loss2/classifier_plantvillage_loss2/classifier_plantvillage_0_split -> loss2/classifier_plantvillage_loss2/classifier_plantvillage_0_split_1
I0403 14:16:02.127245 13090 net.cpp:399] loss2/classifier_plantvillage_loss2/classifier_plantvillage_0_split -> loss2/classifier_plantvillage_loss2/classifier_plantvillage_0_split_2
I0403 14:16:02.127321 13090 net.cpp:141] Setting up loss2/classifier_plantvillage_loss2/classifier_plantvillage_0_split
I0403 14:16:02.127344 13090 net.cpp:148] Top shape: 24 38 (912)
I0403 14:16:02.127359 13090 net.cpp:148] Top shape: 24 38 (912)
I0403 14:16:02.127374 13090 net.cpp:148] Top shape: 24 38 (912)
I0403 14:16:02.127388 13090 net.cpp:156] Memory required for data: 1208432160
I0403 14:16:02.127401 13090 layer_factory.hpp:77] Creating layer inception_4e/1x1
I0403 14:16:02.127419 13090 net.cpp:91] Creating Layer inception_4e/1x1
I0403 14:16:02.127436 13090 net.cpp:425] inception_4e/1x1 <- inception_4d/output_inception_4d/output_0_split_1
I0403 14:16:02.127456 13090 net.cpp:399] inception_4e/1x1 -> inception_4e/1x1
I0403 14:16:02.129225 13090 net.cpp:141] Setting up inception_4e/1x1
I0403 14:16:02.129251 13090 net.cpp:148] Top shape: 24 256 14 14 (1204224)
I0403 14:16:02.129269 13090 net.cpp:156] Memory required for data: 1213249056
I0403 14:16:02.129287 13090 layer_factory.hpp:77] Creating layer inception_4e/relu_1x1
I0403 14:16:02.129307 13090 net.cpp:91] Creating Layer inception_4e/relu_1x1
I0403 14:16:02.129323 13090 net.cpp:425] inception_4e/relu_1x1 <- inception_4e/1x1
I0403 14:16:02.129339 13090 net.cpp:386] inception_4e/relu_1x1 -> inception_4e/1x1 (in-place)
I0403 14:16:02.129631 13090 net.cpp:141] Setting up inception_4e/relu_1x1
I0403 14:16:02.129655 13090 net.cpp:148] Top shape: 24 256 14 14 (1204224)
I0403 14:16:02.129670 13090 net.cpp:156] Memory required for data: 1218065952
I0403 14:16:02.129684 13090 layer_factory.hpp:77] Creating layer inception_4e/3x3_reduce
I0403 14:16:02.129705 13090 net.cpp:91] Creating Layer inception_4e/3x3_reduce
I0403 14:16:02.129722 13090 net.cpp:425] inception_4e/3x3_reduce <- inception_4d/output_inception_4d/output_0_split_2
I0403 14:16:02.129742 13090 net.cpp:399] inception_4e/3x3_reduce -> inception_4e/3x3_reduce
I0403 14:16:02.131814 13090 net.cpp:141] Setting up inception_4e/3x3_reduce
I0403 14:16:02.131840 13090 net.cpp:148] Top shape: 24 160 14 14 (752640)
I0403 14:16:02.131855 13090 net.cpp:156] Memory required for data: 1221076512
I0403 14:16:02.131875 13090 layer_factory.hpp:77] Creating layer inception_4e/relu_3x3_reduce
I0403 14:16:02.131891 13090 net.cpp:91] Creating Layer inception_4e/relu_3x3_reduce
I0403 14:16:02.131906 13090 net.cpp:425] inception_4e/relu_3x3_reduce <- inception_4e/3x3_reduce
I0403 14:16:02.131925 13090 net.cpp:386] inception_4e/relu_3x3_reduce -> inception_4e/3x3_reduce (in-place)
I0403 14:16:02.132104 13090 net.cpp:141] Setting up inception_4e/relu_3x3_reduce
I0403 14:16:02.132128 13090 net.cpp:148] Top shape: 24 160 14 14 (752640)
I0403 14:16:02.132143 13090 net.cpp:156] Memory required for data: 1224087072
I0403 14:16:02.132156 13090 layer_factory.hpp:77] Creating layer inception_4e/3x3
I0403 14:16:02.132177 13090 net.cpp:91] Creating Layer inception_4e/3x3
I0403 14:16:02.132194 13090 net.cpp:425] inception_4e/3x3 <- inception_4e/3x3_reduce
I0403 14:16:02.132215 13090 net.cpp:399] inception_4e/3x3 -> inception_4e/3x3
I0403 14:16:02.137061 13090 net.cpp:141] Setting up inception_4e/3x3
I0403 14:16:02.137101 13090 net.cpp:148] Top shape: 24 320 14 14 (1505280)
I0403 14:16:02.137116 13090 net.cpp:156] Memory required for data: 1230108192
I0403 14:16:02.137135 13090 layer_factory.hpp:77] Creating layer inception_4e/relu_3x3
I0403 14:16:02.137156 13090 net.cpp:91] Creating Layer inception_4e/relu_3x3
I0403 14:16:02.137172 13090 net.cpp:425] inception_4e/relu_3x3 <- inception_4e/3x3
I0403 14:16:02.137188 13090 net.cpp:386] inception_4e/relu_3x3 -> inception_4e/3x3 (in-place)
I0403 14:16:02.137481 13090 net.cpp:141] Setting up inception_4e/relu_3x3
I0403 14:16:02.137506 13090 net.cpp:148] Top shape: 24 320 14 14 (1505280)
I0403 14:16:02.137521 13090 net.cpp:156] Memory required for data: 1236129312
I0403 14:16:02.137552 13090 layer_factory.hpp:77] Creating layer inception_4e/5x5_reduce
I0403 14:16:02.137578 13090 net.cpp:91] Creating Layer inception_4e/5x5_reduce
I0403 14:16:02.137595 13090 net.cpp:425] inception_4e/5x5_reduce <- inception_4d/output_inception_4d/output_0_split_3
I0403 14:16:02.137614 13090 net.cpp:399] inception_4e/5x5_reduce -> inception_4e/5x5_reduce
I0403 14:16:02.138684 13090 net.cpp:141] Setting up inception_4e/5x5_reduce
I0403 14:16:02.138710 13090 net.cpp:148] Top shape: 24 32 14 14 (150528)
I0403 14:16:02.138725 13090 net.cpp:156] Memory required for data: 1236731424
I0403 14:16:02.138742 13090 layer_factory.hpp:77] Creating layer inception_4e/relu_5x5_reduce
I0403 14:16:02.138759 13090 net.cpp:91] Creating Layer inception_4e/relu_5x5_reduce
I0403 14:16:02.138774 13090 net.cpp:425] inception_4e/relu_5x5_reduce <- inception_4e/5x5_reduce
I0403 14:16:02.138792 13090 net.cpp:386] inception_4e/relu_5x5_reduce -> inception_4e/5x5_reduce (in-place)
I0403 14:16:02.139086 13090 net.cpp:141] Setting up inception_4e/relu_5x5_reduce
I0403 14:16:02.139111 13090 net.cpp:148] Top shape: 24 32 14 14 (150528)
I0403 14:16:02.139125 13090 net.cpp:156] Memory required for data: 1237333536
I0403 14:16:02.139139 13090 layer_factory.hpp:77] Creating layer inception_4e/5x5
I0403 14:16:02.139176 13090 net.cpp:91] Creating Layer inception_4e/5x5
I0403 14:16:02.139195 13090 net.cpp:425] inception_4e/5x5 <- inception_4e/5x5_reduce
I0403 14:16:02.139214 13090 net.cpp:399] inception_4e/5x5 -> inception_4e/5x5
I0403 14:16:02.141013 13090 net.cpp:141] Setting up inception_4e/5x5
I0403 14:16:02.141042 13090 net.cpp:148] Top shape: 24 128 14 14 (602112)
I0403 14:16:02.141057 13090 net.cpp:156] Memory required for data: 1239741984
I0403 14:16:02.141077 13090 layer_factory.hpp:77] Creating layer inception_4e/relu_5x5
I0403 14:16:02.141093 13090 net.cpp:91] Creating Layer inception_4e/relu_5x5
I0403 14:16:02.141108 13090 net.cpp:425] inception_4e/relu_5x5 <- inception_4e/5x5
I0403 14:16:02.141126 13090 net.cpp:386] inception_4e/relu_5x5 -> inception_4e/5x5 (in-place)
I0403 14:16:02.141319 13090 net.cpp:141] Setting up inception_4e/relu_5x5
I0403 14:16:02.141342 13090 net.cpp:148] Top shape: 24 128 14 14 (602112)
I0403 14:16:02.141356 13090 net.cpp:156] Memory required for data: 1242150432
I0403 14:16:02.141369 13090 layer_factory.hpp:77] Creating layer inception_4e/pool
I0403 14:16:02.141387 13090 net.cpp:91] Creating Layer inception_4e/pool
I0403 14:16:02.141402 13090 net.cpp:425] inception_4e/pool <- inception_4d/output_inception_4d/output_0_split_4
I0403 14:16:02.141422 13090 net.cpp:399] inception_4e/pool -> inception_4e/pool
I0403 14:16:02.141489 13090 net.cpp:141] Setting up inception_4e/pool
I0403 14:16:02.141512 13090 net.cpp:148] Top shape: 24 528 14 14 (2483712)
I0403 14:16:02.141527 13090 net.cpp:156] Memory required for data: 1252085280
I0403 14:16:02.141544 13090 layer_factory.hpp:77] Creating layer inception_4e/pool_proj
I0403 14:16:02.141567 13090 net.cpp:91] Creating Layer inception_4e/pool_proj
I0403 14:16:02.141583 13090 net.cpp:425] inception_4e/pool_proj <- inception_4e/pool
I0403 14:16:02.141603 13090 net.cpp:399] inception_4e/pool_proj -> inception_4e/pool_proj
I0403 14:16:02.143064 13090 net.cpp:141] Setting up inception_4e/pool_proj
I0403 14:16:02.143105 13090 net.cpp:148] Top shape: 24 128 14 14 (602112)
I0403 14:16:02.143121 13090 net.cpp:156] Memory required for data: 1254493728
I0403 14:16:02.143138 13090 layer_factory.hpp:77] Creating layer inception_4e/relu_pool_proj
I0403 14:16:02.143157 13090 net.cpp:91] Creating Layer inception_4e/relu_pool_proj
I0403 14:16:02.143172 13090 net.cpp:425] inception_4e/relu_pool_proj <- inception_4e/pool_proj
I0403 14:16:02.143187 13090 net.cpp:386] inception_4e/relu_pool_proj -> inception_4e/pool_proj (in-place)
I0403 14:16:02.143476 13090 net.cpp:141] Setting up inception_4e/relu_pool_proj
I0403 14:16:02.143503 13090 net.cpp:148] Top shape: 24 128 14 14 (602112)
I0403 14:16:02.143518 13090 net.cpp:156] Memory required for data: 1256902176
I0403 14:16:02.143532 13090 layer_factory.hpp:77] Creating layer inception_4e/output
I0403 14:16:02.143554 13090 net.cpp:91] Creating Layer inception_4e/output
I0403 14:16:02.143569 13090 net.cpp:425] inception_4e/output <- inception_4e/1x1
I0403 14:16:02.143585 13090 net.cpp:425] inception_4e/output <- inception_4e/3x3
I0403 14:16:02.143600 13090 net.cpp:425] inception_4e/output <- inception_4e/5x5
I0403 14:16:02.143615 13090 net.cpp:425] inception_4e/output <- inception_4e/pool_proj
I0403 14:16:02.143631 13090 net.cpp:399] inception_4e/output -> inception_4e/output
I0403 14:16:02.143681 13090 net.cpp:141] Setting up inception_4e/output
I0403 14:16:02.143703 13090 net.cpp:148] Top shape: 24 832 14 14 (3913728)
I0403 14:16:02.143717 13090 net.cpp:156] Memory required for data: 1272557088
I0403 14:16:02.143730 13090 layer_factory.hpp:77] Creating layer pool4/3x3_s2
I0403 14:16:02.143749 13090 net.cpp:91] Creating Layer pool4/3x3_s2
I0403 14:16:02.143765 13090 net.cpp:425] pool4/3x3_s2 <- inception_4e/output
I0403 14:16:02.143782 13090 net.cpp:399] pool4/3x3_s2 -> pool4/3x3_s2
I0403 14:16:02.143847 13090 net.cpp:141] Setting up pool4/3x3_s2
I0403 14:16:02.143870 13090 net.cpp:148] Top shape: 24 832 7 7 (978432)
I0403 14:16:02.143885 13090 net.cpp:156] Memory required for data: 1276470816
I0403 14:16:02.143898 13090 layer_factory.hpp:77] Creating layer pool4/3x3_s2_pool4/3x3_s2_0_split
I0403 14:16:02.143914 13090 net.cpp:91] Creating Layer pool4/3x3_s2_pool4/3x3_s2_0_split
I0403 14:16:02.143929 13090 net.cpp:425] pool4/3x3_s2_pool4/3x3_s2_0_split <- pool4/3x3_s2
I0403 14:16:02.143947 13090 net.cpp:399] pool4/3x3_s2_pool4/3x3_s2_0_split -> pool4/3x3_s2_pool4/3x3_s2_0_split_0
I0403 14:16:02.143966 13090 net.cpp:399] pool4/3x3_s2_pool4/3x3_s2_0_split -> pool4/3x3_s2_pool4/3x3_s2_0_split_1
I0403 14:16:02.143985 13090 net.cpp:399] pool4/3x3_s2_pool4/3x3_s2_0_split -> pool4/3x3_s2_pool4/3x3_s2_0_split_2
I0403 14:16:02.144004 13090 net.cpp:399] pool4/3x3_s2_pool4/3x3_s2_0_split -> pool4/3x3_s2_pool4/3x3_s2_0_split_3
I0403 14:16:02.144093 13090 net.cpp:141] Setting up pool4/3x3_s2_pool4/3x3_s2_0_split
I0403 14:16:02.144116 13090 net.cpp:148] Top shape: 24 832 7 7 (978432)
I0403 14:16:02.144134 13090 net.cpp:148] Top shape: 24 832 7 7 (978432)
I0403 14:16:02.144148 13090 net.cpp:148] Top shape: 24 832 7 7 (978432)
I0403 14:16:02.144162 13090 net.cpp:148] Top shape: 24 832 7 7 (978432)
I0403 14:16:02.144176 13090 net.cpp:156] Memory required for data: 1292125728
I0403 14:16:02.144188 13090 layer_factory.hpp:77] Creating layer inception_5a/1x1
I0403 14:16:02.144209 13090 net.cpp:91] Creating Layer inception_5a/1x1
I0403 14:16:02.144227 13090 net.cpp:425] inception_5a/1x1 <- pool4/3x3_s2_pool4/3x3_s2_0_split_0
I0403 14:16:02.144244 13090 net.cpp:399] inception_5a/1x1 -> inception_5a/1x1
I0403 14:16:02.147152 13090 net.cpp:141] Setting up inception_5a/1x1
I0403 14:16:02.147183 13090 net.cpp:148] Top shape: 24 256 7 7 (301056)
I0403 14:16:02.147200 13090 net.cpp:156] Memory required for data: 1293329952
I0403 14:16:02.147218 13090 layer_factory.hpp:77] Creating layer inception_5a/relu_1x1
I0403 14:16:02.147236 13090 net.cpp:91] Creating Layer inception_5a/relu_1x1
I0403 14:16:02.147253 13090 net.cpp:425] inception_5a/relu_1x1 <- inception_5a/1x1
I0403 14:16:02.147272 13090 net.cpp:386] inception_5a/relu_1x1 -> inception_5a/1x1 (in-place)
I0403 14:16:02.147594 13090 net.cpp:141] Setting up inception_5a/relu_1x1
I0403 14:16:02.147622 13090 net.cpp:148] Top shape: 24 256 7 7 (301056)
I0403 14:16:02.147639 13090 net.cpp:156] Memory required for data: 1294534176
I0403 14:16:02.147653 13090 layer_factory.hpp:77] Creating layer inception_5a/3x3_reduce
I0403 14:16:02.147677 13090 net.cpp:91] Creating Layer inception_5a/3x3_reduce
I0403 14:16:02.147696 13090 net.cpp:425] inception_5a/3x3_reduce <- pool4/3x3_s2_pool4/3x3_s2_0_split_1
I0403 14:16:02.147714 13090 net.cpp:399] inception_5a/3x3_reduce -> inception_5a/3x3_reduce
I0403 14:16:02.150177 13090 net.cpp:141] Setting up inception_5a/3x3_reduce
I0403 14:16:02.150207 13090 net.cpp:148] Top shape: 24 160 7 7 (188160)
I0403 14:16:02.150223 13090 net.cpp:156] Memory required for data: 1295286816
I0403 14:16:02.150248 13090 layer_factory.hpp:77] Creating layer inception_5a/relu_3x3_reduce
I0403 14:16:02.150276 13090 net.cpp:91] Creating Layer inception_5a/relu_3x3_reduce
I0403 14:16:02.150292 13090 net.cpp:425] inception_5a/relu_3x3_reduce <- inception_5a/3x3_reduce
I0403 14:16:02.150310 13090 net.cpp:386] inception_5a/relu_3x3_reduce -> inception_5a/3x3_reduce (in-place)
I0403 14:16:02.150499 13090 net.cpp:141] Setting up inception_5a/relu_3x3_reduce
I0403 14:16:02.150533 13090 net.cpp:148] Top shape: 24 160 7 7 (188160)
I0403 14:16:02.150555 13090 net.cpp:156] Memory required for data: 1296039456
I0403 14:16:02.150573 13090 layer_factory.hpp:77] Creating layer inception_5a/3x3
I0403 14:16:02.150601 13090 net.cpp:91] Creating Layer inception_5a/3x3
I0403 14:16:02.150620 13090 net.cpp:425] inception_5a/3x3 <- inception_5a/3x3_reduce
I0403 14:16:02.150641 13090 net.cpp:399] inception_5a/3x3 -> inception_5a/3x3
I0403 14:16:02.155838 13090 net.cpp:141] Setting up inception_5a/3x3
I0403 14:16:02.155875 13090 net.cpp:148] Top shape: 24 320 7 7 (376320)
I0403 14:16:02.155900 13090 net.cpp:156] Memory required for data: 1297544736
I0403 14:16:02.155926 13090 layer_factory.hpp:77] Creating layer inception_5a/relu_3x3
I0403 14:16:02.155953 13090 net.cpp:91] Creating Layer inception_5a/relu_3x3
I0403 14:16:02.155971 13090 net.cpp:425] inception_5a/relu_3x3 <- inception_5a/3x3
I0403 14:16:02.155990 13090 net.cpp:386] inception_5a/relu_3x3 -> inception_5a/3x3 (in-place)
I0403 14:16:02.156299 13090 net.cpp:141] Setting up inception_5a/relu_3x3
I0403 14:16:02.156327 13090 net.cpp:148] Top shape: 24 320 7 7 (376320)
I0403 14:16:02.156342 13090 net.cpp:156] Memory required for data: 1299050016
I0403 14:16:02.156357 13090 layer_factory.hpp:77] Creating layer inception_5a/5x5_reduce
I0403 14:16:02.156379 13090 net.cpp:91] Creating Layer inception_5a/5x5_reduce
I0403 14:16:02.156397 13090 net.cpp:425] inception_5a/5x5_reduce <- pool4/3x3_s2_pool4/3x3_s2_0_split_2
I0403 14:16:02.156421 13090 net.cpp:399] inception_5a/5x5_reduce -> inception_5a/5x5_reduce
I0403 14:16:02.157656 13090 net.cpp:141] Setting up inception_5a/5x5_reduce
I0403 14:16:02.157687 13090 net.cpp:148] Top shape: 24 32 7 7 (37632)
I0403 14:16:02.157704 13090 net.cpp:156] Memory required for data: 1299200544
I0403 14:16:02.157724 13090 layer_factory.hpp:77] Creating layer inception_5a/relu_5x5_reduce
I0403 14:16:02.157742 13090 net.cpp:91] Creating Layer inception_5a/relu_5x5_reduce
I0403 14:16:02.157763 13090 net.cpp:425] inception_5a/relu_5x5_reduce <- inception_5a/5x5_reduce
I0403 14:16:02.157780 13090 net.cpp:386] inception_5a/relu_5x5_reduce -> inception_5a/5x5_reduce (in-place)
I0403 14:16:02.158092 13090 net.cpp:141] Setting up inception_5a/relu_5x5_reduce
I0403 14:16:02.158119 13090 net.cpp:148] Top shape: 24 32 7 7 (37632)
I0403 14:16:02.158134 13090 net.cpp:156] Memory required for data: 1299351072
I0403 14:16:02.158149 13090 layer_factory.hpp:77] Creating layer inception_5a/5x5
I0403 14:16:02.158172 13090 net.cpp:91] Creating Layer inception_5a/5x5
I0403 14:16:02.158190 13090 net.cpp:425] inception_5a/5x5 <- inception_5a/5x5_reduce
I0403 14:16:02.158211 13090 net.cpp:399] inception_5a/5x5 -> inception_5a/5x5
I0403 14:16:02.160027 13090 net.cpp:141] Setting up inception_5a/5x5
I0403 14:16:02.160084 13090 net.cpp:148] Top shape: 24 128 7 7 (150528)
I0403 14:16:02.160099 13090 net.cpp:156] Memory required for data: 1299953184
I0403 14:16:02.160118 13090 layer_factory.hpp:77] Creating layer inception_5a/relu_5x5
I0403 14:16:02.160137 13090 net.cpp:91] Creating Layer inception_5a/relu_5x5
I0403 14:16:02.160153 13090 net.cpp:425] inception_5a/relu_5x5 <- inception_5a/5x5
I0403 14:16:02.160173 13090 net.cpp:386] inception_5a/relu_5x5 -> inception_5a/5x5 (in-place)
I0403 14:16:02.160374 13090 net.cpp:141] Setting up inception_5a/relu_5x5
I0403 14:16:02.160399 13090 net.cpp:148] Top shape: 24 128 7 7 (150528)
I0403 14:16:02.160414 13090 net.cpp:156] Memory required for data: 1300555296
I0403 14:16:02.160429 13090 layer_factory.hpp:77] Creating layer inception_5a/pool
I0403 14:16:02.160447 13090 net.cpp:91] Creating Layer inception_5a/pool
I0403 14:16:02.160466 13090 net.cpp:425] inception_5a/pool <- pool4/3x3_s2_pool4/3x3_s2_0_split_3
I0403 14:16:02.160485 13090 net.cpp:399] inception_5a/pool -> inception_5a/pool
I0403 14:16:02.160565 13090 net.cpp:141] Setting up inception_5a/pool
I0403 14:16:02.160590 13090 net.cpp:148] Top shape: 24 832 7 7 (978432)
I0403 14:16:02.160605 13090 net.cpp:156] Memory required for data: 1304469024
I0403 14:16:02.160619 13090 layer_factory.hpp:77] Creating layer inception_5a/pool_proj
I0403 14:16:02.160642 13090 net.cpp:91] Creating Layer inception_5a/pool_proj
I0403 14:16:02.160660 13090 net.cpp:425] inception_5a/pool_proj <- inception_5a/pool
I0403 14:16:02.160681 13090 net.cpp:399] inception_5a/pool_proj -> inception_5a/pool_proj
I0403 14:16:02.163055 13090 net.cpp:141] Setting up inception_5a/pool_proj
I0403 14:16:02.163089 13090 net.cpp:148] Top shape: 24 128 7 7 (150528)
I0403 14:16:02.163105 13090 net.cpp:156] Memory required for data: 1305071136
I0403 14:16:02.163125 13090 layer_factory.hpp:77] Creating layer inception_5a/relu_pool_proj
I0403 14:16:02.163143 13090 net.cpp:91] Creating Layer inception_5a/relu_pool_proj
I0403 14:16:02.163159 13090 net.cpp:425] inception_5a/relu_pool_proj <- inception_5a/pool_proj
I0403 14:16:02.163180 13090 net.cpp:386] inception_5a/relu_pool_proj -> inception_5a/pool_proj (in-place)
I0403 14:16:02.163498 13090 net.cpp:141] Setting up inception_5a/relu_pool_proj
I0403 14:16:02.163527 13090 net.cpp:148] Top shape: 24 128 7 7 (150528)
I0403 14:16:02.163548 13090 net.cpp:156] Memory required for data: 1305673248
I0403 14:16:02.163564 13090 layer_factory.hpp:77] Creating layer inception_5a/output
I0403 14:16:02.163583 13090 net.cpp:91] Creating Layer inception_5a/output
I0403 14:16:02.163609 13090 net.cpp:425] inception_5a/output <- inception_5a/1x1
I0403 14:16:02.163626 13090 net.cpp:425] inception_5a/output <- inception_5a/3x3
I0403 14:16:02.163645 13090 net.cpp:425] inception_5a/output <- inception_5a/5x5
I0403 14:16:02.163661 13090 net.cpp:425] inception_5a/output <- inception_5a/pool_proj
I0403 14:16:02.163678 13090 net.cpp:399] inception_5a/output -> inception_5a/output
I0403 14:16:02.163733 13090 net.cpp:141] Setting up inception_5a/output
I0403 14:16:02.163758 13090 net.cpp:148] Top shape: 24 832 7 7 (978432)
I0403 14:16:02.163774 13090 net.cpp:156] Memory required for data: 1309586976
I0403 14:16:02.163789 13090 layer_factory.hpp:77] Creating layer inception_5a/output_inception_5a/output_0_split
I0403 14:16:02.163806 13090 net.cpp:91] Creating Layer inception_5a/output_inception_5a/output_0_split
I0403 14:16:02.163823 13090 net.cpp:425] inception_5a/output_inception_5a/output_0_split <- inception_5a/output
I0403 14:16:02.163843 13090 net.cpp:399] inception_5a/output_inception_5a/output_0_split -> inception_5a/output_inception_5a/output_0_split_0
I0403 14:16:02.163866 13090 net.cpp:399] inception_5a/output_inception_5a/output_0_split -> inception_5a/output_inception_5a/output_0_split_1
I0403 14:16:02.163899 13090 net.cpp:399] inception_5a/output_inception_5a/output_0_split -> inception_5a/output_inception_5a/output_0_split_2
I0403 14:16:02.163924 13090 net.cpp:399] inception_5a/output_inception_5a/output_0_split -> inception_5a/output_inception_5a/output_0_split_3
I0403 14:16:02.164039 13090 net.cpp:141] Setting up inception_5a/output_inception_5a/output_0_split
I0403 14:16:02.164064 13090 net.cpp:148] Top shape: 24 832 7 7 (978432)
I0403 14:16:02.164082 13090 net.cpp:148] Top shape: 24 832 7 7 (978432)
I0403 14:16:02.164098 13090 net.cpp:148] Top shape: 24 832 7 7 (978432)
I0403 14:16:02.164113 13090 net.cpp:148] Top shape: 24 832 7 7 (978432)
I0403 14:16:02.164126 13090 net.cpp:156] Memory required for data: 1325241888
I0403 14:16:02.164140 13090 layer_factory.hpp:77] Creating layer inception_5b/1x1
I0403 14:16:02.164161 13090 net.cpp:91] Creating Layer inception_5b/1x1
I0403 14:16:02.164180 13090 net.cpp:425] inception_5b/1x1 <- inception_5a/output_inception_5a/output_0_split_0
I0403 14:16:02.164212 13090 net.cpp:399] inception_5b/1x1 -> inception_5b/1x1
I0403 14:16:02.168000 13090 net.cpp:141] Setting up inception_5b/1x1
I0403 14:16:02.168030 13090 net.cpp:148] Top shape: 24 384 7 7 (451584)
I0403 14:16:02.168045 13090 net.cpp:156] Memory required for data: 1327048224
I0403 14:16:02.168064 13090 layer_factory.hpp:77] Creating layer inception_5b/relu_1x1
I0403 14:16:02.168086 13090 net.cpp:91] Creating Layer inception_5b/relu_1x1
I0403 14:16:02.168102 13090 net.cpp:425] inception_5b/relu_1x1 <- inception_5b/1x1
I0403 14:16:02.168118 13090 net.cpp:386] inception_5b/relu_1x1 -> inception_5b/1x1 (in-place)
I0403 14:16:02.168427 13090 net.cpp:141] Setting up inception_5b/relu_1x1
I0403 14:16:02.168453 13090 net.cpp:148] Top shape: 24 384 7 7 (451584)
I0403 14:16:02.168468 13090 net.cpp:156] Memory required for data: 1328854560
I0403 14:16:02.168483 13090 layer_factory.hpp:77] Creating layer inception_5b/3x3_reduce
I0403 14:16:02.168505 13090 net.cpp:91] Creating Layer inception_5b/3x3_reduce
I0403 14:16:02.168522 13090 net.cpp:425] inception_5b/3x3_reduce <- inception_5a/output_inception_5a/output_0_split_1
I0403 14:16:02.168547 13090 net.cpp:399] inception_5b/3x3_reduce -> inception_5b/3x3_reduce
I0403 14:16:02.171221 13090 net.cpp:141] Setting up inception_5b/3x3_reduce
I0403 14:16:02.171250 13090 net.cpp:148] Top shape: 24 192 7 7 (225792)
I0403 14:16:02.171267 13090 net.cpp:156] Memory required for data: 1329757728
I0403 14:16:02.171286 13090 layer_factory.hpp:77] Creating layer inception_5b/relu_3x3_reduce
I0403 14:16:02.171305 13090 net.cpp:91] Creating Layer inception_5b/relu_3x3_reduce
I0403 14:16:02.171322 13090 net.cpp:425] inception_5b/relu_3x3_reduce <- inception_5b/3x3_reduce
I0403 14:16:02.171339 13090 net.cpp:386] inception_5b/relu_3x3_reduce -> inception_5b/3x3_reduce (in-place)
I0403 14:16:02.171530 13090 net.cpp:141] Setting up inception_5b/relu_3x3_reduce
I0403 14:16:02.171558 13090 net.cpp:148] Top shape: 24 192 7 7 (225792)
I0403 14:16:02.171574 13090 net.cpp:156] Memory required for data: 1330660896
I0403 14:16:02.171588 13090 layer_factory.hpp:77] Creating layer inception_5b/3x3
I0403 14:16:02.171610 13090 net.cpp:91] Creating Layer inception_5b/3x3
I0403 14:16:02.171628 13090 net.cpp:425] inception_5b/3x3 <- inception_5b/3x3_reduce
I0403 14:16:02.171649 13090 net.cpp:399] inception_5b/3x3 -> inception_5b/3x3
I0403 14:16:02.178393 13090 net.cpp:141] Setting up inception_5b/3x3
I0403 14:16:02.178424 13090 net.cpp:148] Top shape: 24 384 7 7 (451584)
I0403 14:16:02.178441 13090 net.cpp:156] Memory required for data: 1332467232
I0403 14:16:02.178459 13090 layer_factory.hpp:77] Creating layer inception_5b/relu_3x3
I0403 14:16:02.178478 13090 net.cpp:91] Creating Layer inception_5b/relu_3x3
I0403 14:16:02.178493 13090 net.cpp:425] inception_5b/relu_3x3 <- inception_5b/3x3
I0403 14:16:02.178513 13090 net.cpp:386] inception_5b/relu_3x3 -> inception_5b/3x3 (in-place)
I0403 14:16:02.178822 13090 net.cpp:141] Setting up inception_5b/relu_3x3
I0403 14:16:02.178850 13090 net.cpp:148] Top shape: 24 384 7 7 (451584)
I0403 14:16:02.178865 13090 net.cpp:156] Memory required for data: 1334273568
I0403 14:16:02.178880 13090 layer_factory.hpp:77] Creating layer inception_5b/5x5_reduce
I0403 14:16:02.178920 13090 net.cpp:91] Creating Layer inception_5b/5x5_reduce
I0403 14:16:02.178939 13090 net.cpp:425] inception_5b/5x5_reduce <- inception_5a/output_inception_5a/output_0_split_2
I0403 14:16:02.178958 13090 net.cpp:399] inception_5b/5x5_reduce -> inception_5b/5x5_reduce
I0403 14:16:02.180241 13090 net.cpp:141] Setting up inception_5b/5x5_reduce
I0403 14:16:02.180274 13090 net.cpp:148] Top shape: 24 48 7 7 (56448)
I0403 14:16:02.180290 13090 net.cpp:156] Memory required for data: 1334499360
I0403 14:16:02.180308 13090 layer_factory.hpp:77] Creating layer inception_5b/relu_5x5_reduce
I0403 14:16:02.180327 13090 net.cpp:91] Creating Layer inception_5b/relu_5x5_reduce
I0403 14:16:02.180343 13090 net.cpp:425] inception_5b/relu_5x5_reduce <- inception_5b/5x5_reduce
I0403 14:16:02.180361 13090 net.cpp:386] inception_5b/relu_5x5_reduce -> inception_5b/5x5_reduce (in-place)
I0403 14:16:02.180740 13090 net.cpp:141] Setting up inception_5b/relu_5x5_reduce
I0403 14:16:02.180766 13090 net.cpp:148] Top shape: 24 48 7 7 (56448)
I0403 14:16:02.180781 13090 net.cpp:156] Memory required for data: 1334725152
I0403 14:16:02.180796 13090 layer_factory.hpp:77] Creating layer inception_5b/5x5
I0403 14:16:02.180816 13090 net.cpp:91] Creating Layer inception_5b/5x5
I0403 14:16:02.180833 13090 net.cpp:425] inception_5b/5x5 <- inception_5b/5x5_reduce
I0403 14:16:02.180851 13090 net.cpp:399] inception_5b/5x5 -> inception_5b/5x5
I0403 14:16:02.182946 13090 net.cpp:141] Setting up inception_5b/5x5
I0403 14:16:02.182976 13090 net.cpp:148] Top shape: 24 128 7 7 (150528)
I0403 14:16:02.182992 13090 net.cpp:156] Memory required for data: 1335327264
I0403 14:16:02.183010 13090 layer_factory.hpp:77] Creating layer inception_5b/relu_5x5
I0403 14:16:02.183027 13090 net.cpp:91] Creating Layer inception_5b/relu_5x5
I0403 14:16:02.183043 13090 net.cpp:425] inception_5b/relu_5x5 <- inception_5b/5x5
I0403 14:16:02.183063 13090 net.cpp:386] inception_5b/relu_5x5 -> inception_5b/5x5 (in-place)
I0403 14:16:02.183259 13090 net.cpp:141] Setting up inception_5b/relu_5x5
I0403 14:16:02.183282 13090 net.cpp:148] Top shape: 24 128 7 7 (150528)
I0403 14:16:02.183298 13090 net.cpp:156] Memory required for data: 1335929376
I0403 14:16:02.183312 13090 layer_factory.hpp:77] Creating layer inception_5b/pool
I0403 14:16:02.183331 13090 net.cpp:91] Creating Layer inception_5b/pool
I0403 14:16:02.183346 13090 net.cpp:425] inception_5b/pool <- inception_5a/output_inception_5a/output_0_split_3
I0403 14:16:02.183365 13090 net.cpp:399] inception_5b/pool -> inception_5b/pool
I0403 14:16:02.183442 13090 net.cpp:141] Setting up inception_5b/pool
I0403 14:16:02.183465 13090 net.cpp:148] Top shape: 24 832 7 7 (978432)
I0403 14:16:02.183480 13090 net.cpp:156] Memory required for data: 1339843104
I0403 14:16:02.183495 13090 layer_factory.hpp:77] Creating layer inception_5b/pool_proj
I0403 14:16:02.183516 13090 net.cpp:91] Creating Layer inception_5b/pool_proj
I0403 14:16:02.183533 13090 net.cpp:425] inception_5b/pool_proj <- inception_5b/pool
I0403 14:16:02.183559 13090 net.cpp:399] inception_5b/pool_proj -> inception_5b/pool_proj
I0403 14:16:02.186022 13090 net.cpp:141] Setting up inception_5b/pool_proj
I0403 14:16:02.186054 13090 net.cpp:148] Top shape: 24 128 7 7 (150528)
I0403 14:16:02.186071 13090 net.cpp:156] Memory required for data: 1340445216
I0403 14:16:02.186090 13090 layer_factory.hpp:77] Creating layer inception_5b/relu_pool_proj
I0403 14:16:02.186110 13090 net.cpp:91] Creating Layer inception_5b/relu_pool_proj
I0403 14:16:02.186125 13090 net.cpp:425] inception_5b/relu_pool_proj <- inception_5b/pool_proj
I0403 14:16:02.186143 13090 net.cpp:386] inception_5b/relu_pool_proj -> inception_5b/pool_proj (in-place)
I0403 14:16:02.186455 13090 net.cpp:141] Setting up inception_5b/relu_pool_proj
I0403 14:16:02.186487 13090 net.cpp:148] Top shape: 24 128 7 7 (150528)
I0403 14:16:02.186512 13090 net.cpp:156] Memory required for data: 1341047328
I0403 14:16:02.186539 13090 layer_factory.hpp:77] Creating layer inception_5b/output
I0403 14:16:02.186563 13090 net.cpp:91] Creating Layer inception_5b/output
I0403 14:16:02.186596 13090 net.cpp:425] inception_5b/output <- inception_5b/1x1
I0403 14:16:02.186614 13090 net.cpp:425] inception_5b/output <- inception_5b/3x3
I0403 14:16:02.186630 13090 net.cpp:425] inception_5b/output <- inception_5b/5x5
I0403 14:16:02.186646 13090 net.cpp:425] inception_5b/output <- inception_5b/pool_proj
I0403 14:16:02.186664 13090 net.cpp:399] inception_5b/output -> inception_5b/output
I0403 14:16:02.186719 13090 net.cpp:141] Setting up inception_5b/output
I0403 14:16:02.186744 13090 net.cpp:148] Top shape: 24 1024 7 7 (1204224)
I0403 14:16:02.186759 13090 net.cpp:156] Memory required for data: 1345864224
I0403 14:16:02.186774 13090 layer_factory.hpp:77] Creating layer pool5/7x7_s1
I0403 14:16:02.186794 13090 net.cpp:91] Creating Layer pool5/7x7_s1
I0403 14:16:02.186811 13090 net.cpp:425] pool5/7x7_s1 <- inception_5b/output
I0403 14:16:02.186830 13090 net.cpp:399] pool5/7x7_s1 -> pool5/7x7_s1
I0403 14:16:02.187057 13090 net.cpp:141] Setting up pool5/7x7_s1
I0403 14:16:02.187083 13090 net.cpp:148] Top shape: 24 1024 1 1 (24576)
I0403 14:16:02.187098 13090 net.cpp:156] Memory required for data: 1345962528
I0403 14:16:02.187113 13090 layer_factory.hpp:77] Creating layer pool5/drop_7x7_s1
I0403 14:16:02.187129 13090 net.cpp:91] Creating Layer pool5/drop_7x7_s1
I0403 14:16:02.187146 13090 net.cpp:425] pool5/drop_7x7_s1 <- pool5/7x7_s1
I0403 14:16:02.187166 13090 net.cpp:386] pool5/drop_7x7_s1 -> pool5/7x7_s1 (in-place)
I0403 14:16:02.187218 13090 net.cpp:141] Setting up pool5/drop_7x7_s1
I0403 14:16:02.187242 13090 net.cpp:148] Top shape: 24 1024 1 1 (24576)
I0403 14:16:02.187257 13090 net.cpp:156] Memory required for data: 1346060832
I0403 14:16:02.187271 13090 layer_factory.hpp:77] Creating layer loss3/classifier_plantvillage
I0403 14:16:02.187293 13090 net.cpp:91] Creating Layer loss3/classifier_plantvillage
I0403 14:16:02.187310 13090 net.cpp:425] loss3/classifier_plantvillage <- pool5/7x7_s1
I0403 14:16:02.187330 13090 net.cpp:399] loss3/classifier_plantvillage -> loss3/classifier_plantvillage
I0403 14:16:02.187778 13090 net.cpp:141] Setting up loss3/classifier_plantvillage
I0403 14:16:02.187803 13090 net.cpp:148] Top shape: 24 38 (912)
I0403 14:16:02.187819 13090 net.cpp:156] Memory required for data: 1346064480
I0403 14:16:02.187837 13090 layer_factory.hpp:77] Creating layer loss3/classifier_plantvillage_loss3/classifier_plantvillage_0_split
I0403 14:16:02.187856 13090 net.cpp:91] Creating Layer loss3/classifier_plantvillage_loss3/classifier_plantvillage_0_split
I0403 14:16:02.187872 13090 net.cpp:425] loss3/classifier_plantvillage_loss3/classifier_plantvillage_0_split <- loss3/classifier_plantvillage
I0403 14:16:02.187896 13090 net.cpp:399] loss3/classifier_plantvillage_loss3/classifier_plantvillage_0_split -> loss3/classifier_plantvillage_loss3/classifier_plantvillage_0_split_0
I0403 14:16:02.187917 13090 net.cpp:399] loss3/classifier_plantvillage_loss3/classifier_plantvillage_0_split -> loss3/classifier_plantvillage_loss3/classifier_plantvillage_0_split_1
I0403 14:16:02.187938 13090 net.cpp:399] loss3/classifier_plantvillage_loss3/classifier_plantvillage_0_split -> loss3/classifier_plantvillage_loss3/classifier_plantvillage_0_split_2
I0403 14:16:02.187963 13090 net.cpp:399] loss3/classifier_plantvillage_loss3/classifier_plantvillage_0_split -> loss3/classifier_plantvillage_loss3/classifier_plantvillage_0_split_3
I0403 14:16:02.188069 13090 net.cpp:141] Setting up loss3/classifier_plantvillage_loss3/classifier_plantvillage_0_split
I0403 14:16:02.188093 13090 net.cpp:148] Top shape: 24 38 (912)
I0403 14:16:02.188110 13090 net.cpp:148] Top shape: 24 38 (912)
I0403 14:16:02.188125 13090 net.cpp:148] Top shape: 24 38 (912)
I0403 14:16:02.188141 13090 net.cpp:148] Top shape: 24 38 (912)
I0403 14:16:02.188155 13090 net.cpp:156] Memory required for data: 1346079072
I0403 14:16:02.188169 13090 layer_factory.hpp:77] Creating layer loss1/loss
I0403 14:16:02.188192 13090 net.cpp:91] Creating Layer loss1/loss
I0403 14:16:02.188210 13090 net.cpp:425] loss1/loss <- loss1/classifier_plantvillage_loss1/classifier_plantvillage_0_split_0
I0403 14:16:02.188241 13090 net.cpp:425] loss1/loss <- label_data_1_split_0
…
