…
I0403 14:02:07.490664 12551 net.cpp:313] The NetState phase (1) differed from the phase (0) specified by a rule in layer data
I0403 14:02:07.491832 12551 net.cpp:49] Initializing net from parameters: 
state {
  phase: TEST
}
layer {
  name: "data"
  type: "Data"
  top: "data"
  top: "label"
  include {
    phase: TEST
  }
  transform_param {
    mirror: false
    crop_size: 224
    mean_file: "/home/mohanty/data/final_dataset/lmdb/segmented-20-80/mean.binaryproto"
  }
  data_param {
    source: "/home/mohanty/data/final_dataset/lmdb/segmented-20-80/test_db"
    batch_size: 24
    backend: LMDB
  }
}
layer {
  name: "conv1/7x7_s2"
  type: "Convolution"
  bottom: "data"
  top: "conv1/7x7_s2"
  param {
    lr_mult: 1
    decay_mult: 1
  }
  param {
    lr_mult: 2
    decay_mult: 0
  }
  convolution_param {
    num_output: 64
    pad: 3
    kernel_size: 7
    stride: 2
    weight_filler {
      type: "xavier"
      std: 0.1
    }
    bias_filler {
      type: "constant"
      value: 0.2
    }
  }
}
layer {
  name: "conv1/relu_7x7"
  type: "ReLU"
  bottom: "conv1/7x7_s2"
  top: "conv1/7x7_s2"
}
layer {
  name: "pool1/3x3_s2"
  type: "Pooling"
  bottom: "conv1/7x7_s2"
  top: "pool1/3x3_s2"
  pooling_param {
    pool: MAX
    kernel_size: 3
    stride: 2
  }
}
layer {
  name: "pool1/norm1"
  type: "LRN"
  bottom: "pool1/3x3_s2"
  top: "pool1/norm1"
  lrn_param {
    local_size: 5
    alpha: 0.0001
    beta: 0.75
  }
}
layer {
  name: "conv2/3x3_reduce"
  type: "Convolution"
  bottom: "pool1/norm1"
  top: "conv2/3x3_reduce"
  param {
    lr_mult: 1
    decay_mult: 1
  }
  param {
    lr_mult: 2
    decay_mult: 0
  }
  convolution_param {
    num_output: 64
    kernel_size: 1
    weight_filler {
      type: "xavier"
      std: 0.1
    }
    bias_filler {
      type: "constant"
      value: 0.2
    }
  }
}
layer {
  name: "conv2/relu_3x3_reduce"
  type: "ReLU"
  bottom: "conv2/3x3_reduce"
  top: "conv2/3x3_reduce"
}
layer {
  name: "conv2/3x3"
  type: "Convolution"
  bottom: "conv2/3x3_reduce"
  top: "conv2/3x3"
  param {
    lr_mult: 1
    decay_mult: 1
  }
  param {
    lr_mult: 2
    decay_mult: 0
  }
  convolution_param {
    num_output: 192
    pad: 1
    kernel_size: 3
    weight_filler {
      type: "xavier"
      std: 0.03
    }
    bias_filler {
      type: "constant"
      value: 0.2
    }
  }
}
layer {
  name: "conv2/relu_3x3"
  type: "ReLU"
  bottom: "conv2/3x3"
  top: "conv2/3x3"
}
layer {
  name: "conv2/norm2"
  type: "LRN"
  bottom: "conv2/3x3"
  top: "conv2/norm2"
  lrn_param {
    local_size: 5
    alpha: 0.0001
    beta: 0.75
  }
}
layer {
  name: "pool2/3x3_s2"
  type: "Pooling"
  bottom: "conv2/norm2"
  top: "pool2/3x3_s2"
  pooling_param {
    pool: MAX
    kernel_size: 3
    stride: 2
  }
}
layer {
  name: "inception_3a/1x1"
  type: "Convolution"
  bottom: "pool2/3x3_s2"
  top: "inception_3a/1x1"
  param {
    lr_mult: 1
    decay_mult: 1
  }
  param {
    lr_mult: 2
    decay_mult: 0
  }
  convolution_param {
    num_output: 64
    kernel_size: 1
    weight_filler {
      type: "xavier"
      std: 0.03
    }
    bias_filler {
      type: "constant"
      value: 0.2
    }
  }
}
layer {
  name: "inception_3a/relu_1x1"
  type: "ReLU"
  bottom: "inception_3a/1x1"
  top: "inception_3a/1x1"
}
layer {
  name: "inception_3a/3x3_reduce"
  type: "Convolution"
  bottom: "pool2/3x3_s2"
  top: "inception_3a/3x3_reduce"
  param {
    lr_mult: 1
    decay_mult: 1
  }
  param {
    lr_mult: 2
    decay_mult: 0
  }
  convolution_param {
    num_output: 96
    kernel_size: 1
    weight_filler {
      type: "xavier"
      std: 0.09
    }
    bias_filler {
      type: "constant"
      value: 0.2
    }
  }
}
layer {
  name: "inception_3a/relu_3x3_reduce"
  type: "ReLU"
  bottom: "inception_3a/3x3_reduce"
  top: "inception_3a/3x3_reduce"
}
layer {
  name: "inception_3a/3x3"
  type: "Convolution"
  bottom: "inception_3a/3x3_reduce"
  top: "inception_3a/3x3"
  param {
    lr_mult: 1
    decay_mult: 1
  }
  param {
    lr_mult: 2
    decay_mult: 0
  }
  convolution_param {
    num_output: 128
    pad: 1
    kernel_size: 3
    weight_filler {
      type: "xavier"
      std: 0.03
    }
    bias_filler {
      type: "constant"
      value: 0.2
    }
  }
}
layer {
  name: "inception_3a/relu_3x3"
  type: "ReLU"
  bottom: "inception_3a/3x3"
  top: "inception_3a/3x3"
}
layer {
  name: "inception_3a/5x5_reduce"
  type: "Convolution"
  bottom: "pool2/3x3_s2"
  top: "inception_3a/5x5_reduce"
  param {
    lr_mult: 1
    decay_mult: 1
  }
  param {
    lr_mult: 2
    decay_mult: 0
  }
  convolution_param {
    num_output: 16
    kernel_size: 1
    weight_filler {
      type: "xavier"
      std: 0.2
    }
    bias_filler {
      type: "constant"
      value: 0.2
    }
  }
}
layer {
  name: "inception_3a/relu_5x5_reduce"
  type: "ReLU"
  bottom: "inception_3a/5x5_reduce"
  top: "inception_3a/5x5_reduce"
}
layer {
  name: "inception_3a/5x5"
  type: "Convolution"
  bottom: "inception_3a/5x5_reduce"
  top: "inception_3a/5x5"
  param {
    lr_mult: 1
    decay_mult: 1
  }
  param {
    lr_mult: 2
    decay_mult: 0
  }
  convolution_param {
    num_output: 32
    pad: 2
    kernel_size: 5
    weight_filler {
      type: "xavier"
      std: 0.03
    }
    bias_filler {
      type: "constant"
      value: 0.2
    }
  }
}
layer {
  name: "inception_3a/relu_5x5"
  type: "ReLU"
  bottom: "inception_3a/5x5"
  top: "inception_3a/5x5"
}
layer {
  name: "inception_3a/pool"
  type: "Pooling"
  bottom: "pool2/3x3_s2"
  top: "inception_3a/pool"
  pooling_param {
    pool: MAX
    kernel_size: 3
    stride: 1
    pad: 1
  }
}
layer {
  name: "inception_3a/pool_proj"
  type: "Convolution"
  bottom: "inception_3a/pool"
  top: "inception_3a/pool_proj"
  param {
    lr_mult: 1
    decay_mult: 1
  }
  param {
    lr_mult: 2
    decay_mult: 0
  }
  convolution_param {
    num_output: 32
    kernel_size: 1
    weight_filler {
      type: "xavier"
      std: 0.1
    }
    bias_filler {
      type: "constant"
      value: 0.2
    }
  }
}
layer {
  name: "inception_3a/relu_pool_proj"
  type: "ReLU"
  bottom: "inception_3a/pool_proj"
  top: "inception_3a/pool_proj"
}
layer {
  name: "inception_3a/output"
  type: "Concat"
  bottom: "inception_3a/1x1"
  bottom: "inception_3a/3x3"
  bottom: "inception_3a/5x5"
  bottom: "inception_3a/pool_proj"
  top: "inception_3a/output"
}
layer {
  name: "inception_3b/1x1"
  type: "Convolution"
  bottom: "inception_3a/output"
  top: "inception_3b/1x1"
  param {
    lr_mult: 1
    decay_mult: 1
  }
  param {
    lr_mult: 2
    decay_mult: 0
  }
  convolution_param {
    num_output: 128
    kernel_size: 1
    weight_filler {
      type: "xavier"
      std: 0.03
    }
    bias_filler {
      type: "constant"
      value: 0.2
    }
  }
}
layer {
  name: "inception_3b/relu_1x1"
  type: "ReLU"
  bottom: "inception_3b/1x1"
  top: "inception_3b/1x1"
}
layer {
  name: "inception_3b/3x3_reduce"
  type: "Convolution"
  bottom: "inception_3a/output"
  top: "inception_3b/3x3_reduce"
  param {
    lr_mult: 1
    decay_mult: 1
  }
  param {
    lr_mult: 2
    decay_mult: 0
  }
  convolution_param {
    num_output: 128
    kernel_size: 1
    weight_filler {
      type: "xavier"
      std: 0.09
    }
    bias_filler {
      type: "constant"
      value: 0.2
    }
  }
}
layer {
  name: "inception_3b/relu_3x3_reduce"
  type: "ReLU"
  bottom: "inception_3b/3x3_reduce"
  top: "inception_3b/3x3_reduce"
}
layer {
  name: "inception_3b/3x3"
  type: "Convolution"
  bottom: "inception_3b/3x3_reduce"
  top: "inception_3b/3x3"
  param {
    lr_mult: 1
    decay_mult: 1
  }
  param {
    lr_mult: 2
    decay_mult: 0
  }
  convolution_param {
    num_output: 192
    pad: 1
    kernel_size: 3
    weight_filler {
      type: "xavier"
      std: 0.03
    }
    bias_filler {
      type: "constant"
      value: 0.2
    }
  }
}
layer {
  name: "inception_3b/relu_3x3"
  type: "ReLU"
  bottom: "inception_3b/3x3"
  top: "inception_3b/3x3"
}
layer {
  name: "inception_3b/5x5_reduce"
  type: "Convolution"
  bottom: "inception_3a/output"
  top: "inception_3b/5x5_reduce"
  param {
    lr_mult: 1
    decay_mult: 1
  }
  param {
    lr_mult: 2
    decay_mult: 0
  }
  convolution_param {
    num_output: 32
    kernel_size: 1
    weight_filler {
      type: "xavier"
      std: 0.2
    }
    bias_filler {
      type: "constant"
      value: 0.2
    }
  }
}
layer {
  name: "inception_3b/relu_5x5_reduce"
  type: "ReLU"
  bottom: "inception_3b/5x5_reduce"
  top: "inception_3b/5x5_reduce"
}
layer {
  name: "inception_3b/5x5"
  type: "Convolution"
  bottom: "inception_3b/5x5_reduce"
  top: "inception_3b/5x5"
  param {
    lr_mult: 1
    decay_mult: 1
  }
  param {
    lr_mult: 2
    decay_mult: 0
  }
  convolution_param {
    num_output: 96
    pad: 2
    kernel_size: 5
    weight_filler {
      type: "xavier"
      std: 0.03
    }
    bias_filler {
      type: "constant"
      value: 0.2
    }
  }
}
layer {
  name: "inception_3b/relu_5x5"
  type: "ReLU"
  bottom: "inception_3b/5x5"
  top: "inception_3b/5x5"
}
layer {
  name: "inception_3b/pool"
  type: "Pooling"
  bottom: "inception_3a/output"
  top: "inception_3b/pool"
  pooling_param {
    pool: MAX
    kernel_size: 3
    stride: 1
    pad: 1
  }
}
layer {
  name: "inception_3b/pool_proj"
  type: "Convolution"
  bottom: "inception_3b/pool"
  top: "inception_3b/pool_proj"
  param {
    lr_mult: 1
    decay_mult: 1
  }
  param {
    lr_mult: 2
    decay_mult: 0
  }
  convolution_param {
    num_output: 64
    kernel_size: 1
    weight_filler {
      type: "xavier"
      std: 0.1
    }
    bias_filler {
      type: "constant"
      value: 0.2
    }
  }
}
layer {
  name: "inception_3b/relu_pool_proj"
  type: "ReLU"
  bottom: "inception_3b/pool_proj"
  top: "inception_3b/pool_proj"
}
layer {
  name: "inception_3b/output"
  type: "Concat"
  bottom: "inception_3b/1x1"
  bottom: "inception_3b/3x3"
  bottom: "inception_3b/5x5"
  bottom: "inception_3b/pool_proj"
  top: "inception_3b/output"
}
layer {
  name: "pool3/3x3_s2"
  type: "Pooling"
  bottom: "inception_3b/output"
  top: "pool3/3x3_s2"
  pooling_param {
    pool: MAX
    kernel_size: 3
    stride: 2
  }
}
layer {
  name: "inception_4a/1x1"
  type: "Convolution"
  bottom: "pool3/3x3_s2"
  top: "inception_4a/1x1"
  param {
    lr_mult: 1
    decay_mult: 1
  }
  param {
    lr_mult: 2
    decay_mult: 0
  }
  convolution_param {
    num_output: 192
    kernel_size: 1
    weight_filler {
      type: "xavier"
      std: 0.03
    }
    bias_filler {
      type: "constant"
      value: 0.2
    }
  }
}
layer {
  name: "inception_4a/relu_1x1"
  type: "ReLU"
  bottom: "inception_4a/1x1"
  top: "inception_4a/1x1"
}
layer {
  name: "inception_4a/3x3_reduce"
  type: "Convolution"
  bottom: "pool3/3x3_s2"
  top: "inception_4a/3x3_reduce"
  param {
    lr_mult: 1
    decay_mult: 1
  }
  param {
    lr_mult: 2
    decay_mult: 0
  }
  convolution_param {
    num_output: 96
    kernel_size: 1
    weight_filler {
      type: "xavier"
      std: 0.09
    }
    bias_filler {
      type: "constant"
      value: 0.2
    }
  }
}
layer {
  name: "inception_4a/relu_3x3_reduce"
  type: "ReLU"
  bottom: "inception_4a/3x3_reduce"
  top: "inception_4a/3x3_reduce"
}
layer {
  name: "inception_4a/3x3"
  type: "Convolution"
  bottom: "inception_4a/3x3_reduce"
  top: "inception_4a/3x3"
  param {
    lr_mult: 1
    decay_mult: 1
  }
  param {
    lr_mult: 2
    decay_mult: 0
  }
  convolution_param {
    num_output: 208
    pad: 1
    kernel_size: 3
    weight_filler {
      type: "xavier"
      std: 0.03
    }
    bias_filler {
      type: "constant"
      value: 0.2
    }
  }
}
layer {
  name: "inception_4a/relu_3x3"
  type: "ReLU"
  bottom: "inception_4a/3x3"
  top: "inception_4a/3x3"
}
layer {
  name: "inception_4a/5x5_reduce"
  type: "Convolution"
  bottom: "pool3/3x3_s2"
  top: "inception_4a/5x5_reduce"
  param {
    lr_mult: 1
    decay_mult: 1
  }
  param {
    lr_mult: 2
    decay_mult: 0
  }
  convolution_param {
    num_output: 16
    kernel_size: 1
    weight_filler {
      type: "xavier"
      std: 0.2
    }
    bias_filler {
      type: "constant"
      value: 0.2
    }
  }
}
layer {
  name: "inception_4a/relu_5x5_reduce"
  type: "ReLU"
  bottom: "inception_4a/5x5_reduce"
  top: "inception_4a/5x5_reduce"
}
layer {
  name: "inception_4a/5x5"
  type: "Convolution"
  bottom: "inception_4a/5x5_reduce"
  top: "inception_4a/5x5"
  param {
    lr_mult: 1
    decay_mult: 1
  }
  param {
    lr_mult: 2
    decay_mult: 0
  }
  convolution_param {
    num_output: 48
    pad: 2
    kernel_size: 5
    weight_filler {
      type: "xavier"
      std: 0.03
    }
    bias_filler {
      type: "constant"
      value: 0.2
    }
  }
}
layer {
  name: "inception_4a/relu_5x5"
  type: "ReLU"
  bottom: "inception_4a/5x5"
  top: "inception_4a/5x5"
}
layer {
  name: "inception_4a/pool"
  type: "Pooling"
  bottom: "pool3/3x3_s2"
  top: "inception_4a/pool"
  pooling_param {
    pool: MAX
    kernel_size: 3
    stride: 1
    pad: 1
  }
}
layer {
  name: "inception_4a/pool_proj"
  type: "Convolution"
  bottom: "inception_4a/pool"
  top: "inception_4a/pool_proj"
  param {
    lr_mult: 1
    decay_mult: 1
  }
  param {
    lr_mult: 2
    decay_mult: 0
  }
  convolution_param {
    num_output: 64
    kernel_size: 1
    weight_filler {
      type: "xavier"
      std: 0.1
    }
    bias_filler {
      type: "constant"
      value: 0.2
    }
  }
}
layer {
  name: "inception_4a/relu_pool_proj"
  type: "ReLU"
  bottom: "inception_4a/pool_proj"
  top: "inception_4a/pool_proj"
}
layer {
  name: "inception_4a/output"
  type: "Concat"
  bottom: "inception_4a/1x1"
  bottom: "inception_4a/3x3"
  bottom: "inception_4a/5x5"
  bottom: "inception_4a/pool_proj"
  top: "inception_4a/output"
}
layer {
  name: "loss1/ave_pool"
  type: "Pooling"
  bottom: "inception_4a/output"
  top: "loss1/ave_pool"
  pooling_param {
    pool: AVE
    kernel_size: 5
    stride: 3
  }
}
layer {
  name: "loss1/conv"
  type: "Convolution"
  bottom: "loss1/ave_pool"
  top: "loss1/conv"
  param {
    lr_mult: 1
    decay_mult: 1
  }
  param {
    lr_mult: 2
    decay_mult: 0
  }
  convolution_param {
    num_output: 128
    kernel_size: 1
    weight_filler {
      type: "xavier"
      std: 0.08
    }
    bias_filler {
      type: "constant"
      value: 0.2
    }
  }
}
layer {
  name: "loss1/relu_conv"
  type: "ReLU"
  bottom: "loss1/conv"
  top: "loss1/conv"
}
layer {
  name: "loss1/fc"
  type: "InnerProduct"
  bottom: "loss1/conv"
  top: "loss1/fc"
  param {
    lr_mult: 1
    decay_mult: 1
  }
  param {
    lr_mult: 2
    decay_mult: 0
  }
  inner_product_param {
    num_output: 1024
    weight_filler {
      type: "xavier"
      std: 0.02
    }
    bias_filler {
      type: "constant"
      value: 0.2
    }
  }
}
layer {
  name: "loss1/relu_fc"
  type: "ReLU"
  bottom: "loss1/fc"
  top: "loss1/fc"
}
layer {
  name: "loss1/drop_fc"
  type: "Dropout"
  bottom: "loss1/fc"
  top: "loss1/fc"
  dropout_param {
    dropout_ratio: 0.7
  }
}
layer {
  name: "loss1/classifier_plantvillage"
  type: "InnerProduct"
  bottom: "loss1/fc"
  top: "loss1/classifier_plantvillage"
  param {
    lr_mult: 1
    decay_mult: 1
  }
  param {
    lr_mult: 2
    decay_mult: 0
  }
  inner_product_param {
    num_output: 38
    weight_filler {
      type: "xavier"
      std: 0.0009765625
    }
    bias_filler {
      type: "constant"
      value: 0
    }
  }
}
layer {
  name: "inception_4b/1x1"
  type: "Convolution"
  bottom: "inception_4a/output"
  top: "inception_4b/1x1"
  param {
    lr_mult: 1
    decay_mult: 1
  }
  param {
    lr_mult: 2
    decay_mult: 0
  }
  convolution_param {
    num_output: 160
    kernel_size: 1
    weight_filler {
      type: "xavier"
      std: 0.03
    }
    bias_filler {
      type: "constant"
      value: 0.2
    }
  }
}
layer {
  name: "inception_4b/relu_1x1"
  type: "ReLU"
  bottom: "inception_4b/1x1"
  top: "inception_4b/1x1"
}
layer {
  name: "inception_4b/3x3_reduce"
  type: "Convolution"
  bottom: "inception_4a/output"
  top: "inception_4b/3x3_reduce"
  param {
    lr_mult: 1
    decay_mult: 1
  }
  param {
    lr_mult: 2
    decay_mult: 0
  }
  convolution_param {
    num_output: 112
    kernel_size: 1
    weight_filler {
      type: "xavier"
      std: 0.09
    }
    bias_filler {
      type: "constant"
      value: 0.2
    }
  }
}
layer {
  name: "inception_4b/relu_3x3_reduce"
  type: "ReLU"
  bottom: "inception_4b/3x3_reduce"
  top: "inception_4b/3x3_reduce"
}
layer {
  name: "inception_4b/3x3"
  type: "Convolution"
  bottom: "inception_4b/3x3_reduce"
  top: "inception_4b/3x3"
  param {
    lr_mult: 1
    decay_mult: 1
  }
  param {
    lr_mult: 2
    decay_mult: 0
  }
  convolution_param {
    num_output: 224
    pad: 1
    kernel_size: 3
    weight_filler {
      type: "xavier"
      std: 0.03
    }
    bias_filler {
      type: "constant"
      value: 0.2
    }
  }
}
layer {
  name: "inception_4b/relu_3x3"
  type: "ReLU"
  bottom: "inception_4b/3x3"
  top: "inception_4b/3x3"
}
layer {
  name: "inception_4b/5x5_reduce"
  type: "Convolution"
  bottom: "inception_4a/output"
  top: "inception_4b/5x5_reduce"
  param {
    lr_mult: 1
    decay_mult: 1
  }
  param {
    lr_mult: 2
    decay_mult: 0
  }
  convolution_param {
    num_output: 24
    kernel_size: 1
    weight_filler {
      type: "xavier"
      std: 0.2
    }
    bias_filler {
      type: "constant"
      value: 0.2
    }
  }
}
layer {
  name: "inception_4b/relu_5x5_reduce"
  type: "ReLU"
  bottom: "inception_4b/5x5_reduce"
  top: "inception_4b/5x5_reduce"
}
layer {
  name: "inception_4b/5x5"
  type: "Convolution"
  bottom: "inception_4b/5x5_reduce"
  top: "inception_4b/5x5"
  param {
    lr_mult: 1
    decay_mult: 1
  }
  param {
    lr_mult: 2
    decay_mult: 0
  }
  convolution_param {
    num_output: 64
    pad: 2
    kernel_size: 5
    weight_filler {
      type: "xavier"
      std: 0.03
    }
    bias_filler {
      type: "constant"
      value: 0.2
    }
  }
}
layer {
  name: "inception_4b/relu_5x5"
  type: "ReLU"
  bottom: "inception_4b/5x5"
  top: "inception_4b/5x5"
}
layer {
  name: "inception_4b/pool"
  type: "Pooling"
  bottom: "inception_4a/output"
  top: "inception_4b/pool"
  pooling_param {
    pool: MAX
    kernel_size: 3
    stride: 1
    pad: 1
  }
}
layer {
  name: "inception_4b/pool_proj"
  type: "Convolution"
  bottom: "inception_4b/pool"
  top: "inception_4b/pool_proj"
  param {
    lr_mult: 1
    decay_mult: 1
  }
  param {
    lr_mult: 2
    decay_mult: 0
  }
  convolution_param {
    num_output: 64
    kernel_size: 1
    weight_filler {
      type: "xavier"
      std: 0.1
    }
    bias_filler {
      type: "constant"
      value: 0.2
    }
  }
}
layer {
  name: "inception_4b/relu_pool_proj"
  type: "ReLU"
  bottom: "inception_4b/pool_proj"
  top: "inception_4b/pool_proj"
}
layer {
  name: "inception_4b/output"
  type: "Concat"
  bottom: "inception_4b/1x1"
  bottom: "inception_4b/3x3"
  bottom: "inception_4b/5x5"
  bottom: "inception_4b/pool_proj"
  top: "inception_4b/output"
}
layer {
  name: "inception_4c/1x1"
  type: "Convolution"
  bottom: "inception_4b/output"
  top: "inception_4c/1x1"
  param {
    lr_mult: 1
    decay_mult: 1
  }
  param {
    lr_mult: 2
    decay_mult: 0
  }
  convolution_param {
    num_output: 128
    kernel_size: 1
    weight_filler {
      type: "xavier"
      std: 0.03
    }
    bias_filler {
      type: "constant"
      value: 0.2
    }
  }
}
layer {
  name: "inception_4c/relu_1x1"
  type: "ReLU"
  bottom: "inception_4c/1x1"
  top: "inception_4c/1x1"
}
layer {
  name: "inception_4c/3x3_reduce"
  type: "Convolution"
  bottom: "inception_4b/output"
  top: "inception_4c/3x3_reduce"
  param {
    lr_mult: 1
    decay_mult: 1
  }
  param {
    lr_mult: 2
    decay_mult: 0
  }
  convolution_param {
    num_output: 128
    kernel_size: 1
    weight_filler {
      type: "xavier"
      std: 0.09
    }
    bias_filler {
      type: "constant"
      value: 0.2
    }
  }
}
layer {
  name: "inception_4c/relu_3x3_reduce"
  type: "ReLU"
  bottom: "inception_4c/3x3_reduce"
  top: "inception_4c/3x3_reduce"
}
layer {
  name: "inception_4c/3x3"
  type: "Convolution"
  bottom: "inception_4c/3x3_reduce"
  top: "inception_4c/3x3"
  param {
    lr_mult: 1
    decay_mult: 1
  }
  param {
    lr_mult: 2
    decay_mult: 0
  }
  convolution_param {
    num_output: 256
    pad: 1
    kernel_size: 3
    weight_filler {
      type: "xavier"
      std: 0.03
    }
    bias_filler {
      type: "constant"
      value: 0.2
    }
  }
}
layer {
  name: "inception_4c/relu_3x3"
  type: "ReLU"
  bottom: "inception_4c/3x3"
  top: "inception_4c/3x3"
}
layer {
  name: "inception_4c/5x5_reduce"
  type: "Convolution"
  bottom: "inception_4b/output"
  top: "inception_4c/5x5_reduce"
  param {
    lr_mult: 1
    decay_mult: 1
  }
  param {
    lr_mult: 2
    decay_mult: 0
  }
  convolution_param {
    num_output: 24
    kernel_size: 1
    weight_filler {
      type: "xavier"
      std: 0.2
    }
    bias_filler {
      type: "constant"
      value: 0.2
    }
  }
}
layer {
  name: "inception_4c/relu_5x5_reduce"
  type: "ReLU"
  bottom: "inception_4c/5x5_reduce"
  top: "inception_4c/5x5_reduce"
}
layer {
  name: "inception_4c/5x5"
  type: "Convolution"
  bottom: "inception_4c/5x5_reduce"
  top: "inception_4c/5x5"
  param {
    lr_mult: 1
    decay_mult: 1
  }
  param {
    lr_mult: 2
    decay_mult: 0
  }
  convolution_param {
    num_output: 64
    pad: 2
    kernel_size: 5
    weight_filler {
      type: "xavier"
      std: 0.03
    }
    bias_filler {
      type: "constant"
      value: 0.2
    }
  }
}
layer {
  name: "inception_4c/relu_5x5"
  type: "ReLU"
  bottom: "inception_4c/5x5"
  top: "inception_4c/5x5"
}
layer {
  name: "inception_4c/pool"
  type: "Pooling"
  bottom: "inception_4b/output"
  top: "inception_4c/pool"
  pooling_param {
    pool: MAX
    kernel_size: 3
    stride: 1
    pad: 1
  }
}
layer {
  name: "inception_4c/pool_proj"
  type: "Convolution"
  bottom: "inception_4c/pool"
  top: "inception_4c/pool_proj"
  param {
    lr_mult: 1
    decay_mult: 1
  }
  param {
    lr_mult: 2
    decay_mult: 0
  }
  convolution_param {
    num_output: 64
    kernel_size: 1
    weight_filler {
      type: "xavier"
      std: 0.1
    }
    bias_filler {
      type: "constant"
      value: 0.2
    }
  }
}
layer {
  name: "inception_4c/relu_pool_proj"
  type: "ReLU"
  bottom: "inception_4c/pool_proj"
  top: "inception_4c/pool_proj"
}
layer {
  name: "inception_4c/output"
  type: "Concat"
  bottom: "inception_4c/1x1"
  bottom: "inception_4c/3x3"
  bottom: "inception_4c/5x5"
  bottom: "inception_4c/pool_proj"
  top: "inception_4c/output"
}
layer {
  name: "inception_4d/1x1"
  type: "Convolution"
  bottom: "inception_4c/output"
  top: "inception_4d/1x1"
  param {
    lr_mult: 1
    decay_mult: 1
  }
  param {
    lr_mult: 2
    decay_mult: 0
  }
  convolution_param {
    num_output: 112
    kernel_size: 1
    weight_filler {
      type: "xavier"
      std: 0.03
    }
    bias_filler {
      type: "constant"
      value: 0.2
    }
  }
}
layer {
  name: "inception_4d/relu_1x1"
  type: "ReLU"
  bottom: "inception_4d/1x1"
  top: "inception_4d/1x1"
}
layer {
  name: "inception_4d/3x3_reduce"
  type: "Convolution"
  bottom: "inception_4c/output"
  top: "inception_4d/3x3_reduce"
  param {
    lr_mult: 1
    decay_mult: 1
  }
  param {
    lr_mult: 2
    decay_mult: 0
  }
  convolution_param {
    num_output: 144
    kernel_size: 1
    weight_filler {
      type: "xavier"
      std: 0.09
    }
    bias_filler {
      type: "constant"
      value: 0.2
    }
  }
}
layer {
  name: "inception_4d/relu_3x3_reduce"
  type: "ReLU"
  bottom: "inception_4d/3x3_reduce"
  top: "inception_4d/3x3_reduce"
}
layer {
  name: "inception_4d/3x3"
  type: "Convolution"
  bottom: "inception_4d/3x3_reduce"
  top: "inception_4d/3x3"
  param {
    lr_mult: 1
    decay_mult: 1
  }
  param {
    lr_mult: 2
    decay_mult: 0
  }
  convolution_param {
    num_output: 288
    pad: 1
    kernel_size: 3
    weight_filler {
      type: "xavier"
      std: 0.03
    }
    bias_filler {
      type: "constant"
      value: 0.2
    }
  }
}
layer {
  name: "inception_4d/relu_3x3"
  type: "ReLU"
  bottom: "inception_4d/3x3"
  top: "inception_4d/3x3"
}
layer {
  name: "inception_4d/5x5_reduce"
  type: "Convolution"
  bottom: "inception_4c/output"
  top: "inception_4d/5x5_reduce"
  param {
    lr_mult: 1
    decay_mult: 1
  }
  param {
    lr_mult: 2
    decay_mult: 0
  }
  convolution_param {
    num_output: 32
    kernel_size: 1
    weight_filler {
      type: "xavier"
      std: 0.2
    }
    bias_filler {
      type: "constant"
      value: 0.2
    }
  }
}
layer {
  name: "inception_4d/relu_5x5_reduce"
  type: "ReLU"
  bottom: "inception_4d/5x5_reduce"
  top: "inception_4d/5x5_reduce"
}
layer {
  name: "inception_4d/5x5"
  type: "Convolution"
  bottom: "inception_4d/5x5_reduce"
  top: "inception_4d/5x5"
  param {
    lr_mult: 1
    decay_mult: 1
  }
  param {
    lr_mult: 2
    decay_mult: 0
  }
  convolution_param {
    num_output: 64
    pad: 2
    kernel_size: 5
    weight_filler {
      type: "xavier"
      std: 0.03
    }
    bias_filler {
      type: "constant"
      value: 0.2
    }
  }
}
layer {
  name: "inception_4d/relu_5x5"
  type: "ReLU"
  bottom: "inception_4d/5x5"
  top: "inception_4d/5x5"
}
layer {
  name: "inception_4d/pool"
  type: "Pooling"
  bottom: "inception_4c/output"
  top: "inception_4d/pool"
  pooling_param {
    pool: MAX
    kernel_size: 3
    stride: 1
    pad: 1
  }
}
layer {
  name: "inception_4d/pool_proj"
  type: "Convolution"
  bottom: "inception_4d/pool"
  top: "inception_4d/pool_proj"
  param {
    lr_mult: 1
    decay_mult: 1
  }
  param {
    lr_mult: 2
    decay_mult: 0
  }
  convolution_param {
    num_output: 64
    kernel_size: 1
    weight_filler {
      type: "xavier"
      std: 0.1
    }
    bias_filler {
      type: "constant"
      value: 0.2
    }
  }
}
layer {
  name: "inception_4d/relu_pool_proj"
  type: "ReLU"
  bottom: "inception_4d/pool_proj"
  top: "inception_4d/pool_proj"
}
layer {
  name: "inception_4d/output"
  type: "Concat"
  bottom: "inception_4d/1x1"
  bottom: "inception_4d/3x3"
  bottom: "inception_4d/5x5"
  bottom: "inception_4d/pool_proj"
  top: "inception_4d/output"
}
layer {
  name: "loss2/ave_pool"
  type: "Pooling"
  bottom: "inception_4d/output"
  top: "loss2/ave_pool"
  pooling_param {
    pool: AVE
    kernel_size: 5
    stride: 3
  }
}
layer {
  name: "loss2/conv"
  type: "Convolution"
  bottom: "loss2/ave_pool"
  top: "loss2/conv"
  param {
    lr_mult: 1
    decay_mult: 1
  }
  param {
    lr_mult: 2
    decay_mult: 0
  }
  convolution_param {
    num_output: 128
    kernel_size: 1
    weight_filler {
      type: "xavier"
      std: 0.08
    }
    bias_filler {
      type: "constant"
      value: 0.2
    }
  }
}
layer {
  name: "loss2/relu_conv"
  type: "ReLU"
  bottom: "loss2/conv"
  top: "loss2/conv"
}
layer {
  name: "loss2/fc"
  type: "InnerProduct"
  bottom: "loss2/conv"
  top: "loss2/fc"
  param {
    lr_mult: 1
    decay_mult: 1
  }
  param {
    lr_mult: 2
    decay_mult: 0
  }
  inner_product_param {
    num_output: 1024
    weight_filler {
      type: "xavier"
      std: 0.02
    }
    bias_filler {
      type: "constant"
      value: 0.2
    }
  }
}
layer {
  name: "loss2/relu_fc"
  type: "ReLU"
  bottom: "loss2/fc"
  top: "loss2/fc"
}
layer {
  name: "loss2/drop_fc"
  type: "Dropout"
  bottom: "loss2/fc"
  top: "loss2/fc"
  dropout_param {
    dropout_ratio: 0.7
  }
}
layer {
  name: "loss2/classifier_plantvillage"
  type: "InnerProduct"
  bottom: "loss2/fc"
  top: "loss2/classifier_plantvillage"
  param {
    lr_mult: 1
    decay_mult: 1
  }
  param {
    lr_mult: 2
    decay_mult: 0
  }
  inner_product_param {
    num_output: 38
    weight_filler {
      type: "xavier"
      std: 0.0009765625
    }
    bias_filler {
      type: "constant"
      value: 0
    }
  }
}
layer {
  name: "inception_4e/1x1"
  type: "Convolution"
  bottom: "inception_4d/output"
  top: "inception_4e/1x1"
  param {
    lr_mult: 1
    decay_mult: 1
  }
  param {
    lr_mult: 2
    decay_mult: 0
  }
  convolution_param {
    num_output: 256
    kernel_size: 1
    weight_filler {
      type: "xavier"
      std: 0.03
    }
    bias_filler {
      type: "constant"
      value: 0.2
    }
  }
}
layer {
  name: "inception_4e/relu_1x1"
  type: "ReLU"
  bottom: "inception_4e/1x1"
  top: "inception_4e/1x1"
}
layer {
  name: "inception_4e/3x3_reduce"
  type: "Convolution"
  bottom: "inception_4d/output"
  top: "inception_4e/3x3_reduce"
  param {
    lr_mult: 1
    decay_mult: 1
  }
  param {
    lr_mult: 2
    decay_mult: 0
  }
  convolution_param {
    num_output: 160
    kernel_size: 1
    weight_filler {
      type: "xavier"
      std: 0.09
    }
    bias_filler {
      type: "constant"
      value: 0.2
    }
  }
}
layer {
  name: "inception_4e/relu_3x3_reduce"
  type: "ReLU"
  bottom: "inception_4e/3x3_reduce"
  top: "inception_4e/3x3_reduce"
}
layer {
  name: "inception_4e/3x3"
  type: "Convolution"
  bottom: "inception_4e/3x3_reduce"
  top: "inception_4e/3x3"
  param {
    lr_mult: 1
    decay_mult: 1
  }
  param {
    lr_mult: 2
    decay_mult: 0
  }
  convolution_param {
    num_output: 320
    pad: 1
    kernel_size: 3
    weight_filler {
      type: "xavier"
      std: 0.03
    }
    bias_filler {
      type: "constant"
      value: 0.2
    }
  }
}
layer {
  name: "inception_4e/relu_3x3"
  type: "ReLU"
  bottom: "inception_4e/3x3"
  top: "inception_4e/3x3"
}
layer {
  name: "inception_4e/5x5_reduce"
  type: "Convolution"
  bottom: "inception_4d/output"
  top: "inception_4e/5x5_reduce"
  param {
    lr_mult: 1
    decay_mult: 1
  }
  param {
    lr_mult: 2
    decay_mult: 0
  }
  convolution_param {
    num_output: 32
    kernel_size: 1
    weight_filler {
      type: "xavier"
      std: 0.2
    }
    bias_filler {
      type: "constant"
      value: 0.2
    }
  }
}
layer {
  name: "inception_4e/relu_5x5_reduce"
  type: "ReLU"
  bottom: "inception_4e/5x5_reduce"
  top: "inception_4e/5x5_reduce"
}
layer {
  name: "inception_4e/5x5"
  type: "Convolution"
  bottom: "inception_4e/5x5_reduce"
  top: "inception_4e/
I0403 14:02:07.493245 12551 layer_factory.hpp:77] Creating layer data
I0403 14:02:07.493844 12551 net.cpp:91] Creating Layer data
I0403 14:02:07.493872 12551 net.cpp:399] data -> data
I0403 14:02:07.493922 12551 net.cpp:399] data -> label
I0403 14:02:07.493958 12551 data_transformer.cpp:25] Loading mean file from: /home/mohanty/data/final_dataset/lmdb/segmented-20-80/mean.binaryproto
I0403 14:02:07.507896 12556 db_lmdb.cpp:38] Opened lmdb /home/mohanty/data/final_dataset/lmdb/segmented-20-80/test_db
I0403 14:02:07.510712 12551 data_layer.cpp:41] output data size: 24,3,224,224
I0403 14:02:07.539494 12551 net.cpp:141] Setting up data
I0403 14:02:07.539590 12551 net.cpp:148] Top shape: 24 3 224 224 (3612672)
I0403 14:02:07.539613 12551 net.cpp:148] Top shape: 24 (24)
I0403 14:02:07.539629 12551 net.cpp:156] Memory required for data: 14450784
I0403 14:02:07.539659 12551 layer_factory.hpp:77] Creating layer label_data_1_split
I0403 14:02:07.539685 12551 net.cpp:91] Creating Layer label_data_1_split
I0403 14:02:07.539705 12551 net.cpp:425] label_data_1_split <- label
I0403 14:02:07.539736 12551 net.cpp:399] label_data_1_split -> label_data_1_split_0
I0403 14:02:07.539765 12551 net.cpp:399] label_data_1_split -> label_data_1_split_1
I0403 14:02:07.539788 12551 net.cpp:399] label_data_1_split -> label_data_1_split_2
I0403 14:02:07.539809 12551 net.cpp:399] label_data_1_split -> label_data_1_split_3
I0403 14:02:07.539829 12551 net.cpp:399] label_data_1_split -> label_data_1_split_4
I0403 14:02:07.539849 12551 net.cpp:399] label_data_1_split -> label_data_1_split_5
I0403 14:02:07.539870 12551 net.cpp:399] label_data_1_split -> label_data_1_split_6
I0403 14:02:07.539891 12551 net.cpp:399] label_data_1_split -> label_data_1_split_7
I0403 14:02:07.539911 12551 net.cpp:399] label_data_1_split -> label_data_1_split_8
I0403 14:02:07.539930 12551 net.cpp:399] label_data_1_split -> label_data_1_split_9
I0403 14:02:07.540051 12551 net.cpp:141] Setting up label_data_1_split
I0403 14:02:07.540076 12551 net.cpp:148] Top shape: 24 (24)
I0403 14:02:07.540094 12551 net.cpp:148] Top shape: 24 (24)
I0403 14:02:07.540110 12551 net.cpp:148] Top shape: 24 (24)
I0403 14:02:07.540127 12551 net.cpp:148] Top shape: 24 (24)
I0403 14:02:07.540143 12551 net.cpp:148] Top shape: 24 (24)
I0403 14:02:07.540159 12551 net.cpp:148] Top shape: 24 (24)
I0403 14:02:07.540176 12551 net.cpp:148] Top shape: 24 (24)
I0403 14:02:07.540192 12551 net.cpp:148] Top shape: 24 (24)
I0403 14:02:07.540208 12551 net.cpp:148] Top shape: 24 (24)
I0403 14:02:07.540225 12551 net.cpp:148] Top shape: 24 (24)
I0403 14:02:07.540276 12551 net.cpp:156] Memory required for data: 14451744
I0403 14:02:07.540292 12551 layer_factory.hpp:77] Creating layer conv1/7x7_s2
I0403 14:02:07.540325 12551 net.cpp:91] Creating Layer conv1/7x7_s2
I0403 14:02:07.540343 12551 net.cpp:425] conv1/7x7_s2 <- data
I0403 14:02:07.540364 12551 net.cpp:399] conv1/7x7_s2 -> conv1/7x7_s2
I0403 14:02:07.682984 12551 net.cpp:141] Setting up conv1/7x7_s2
I0403 14:02:07.683080 12551 net.cpp:148] Top shape: 24 64 112 112 (19267584)
I0403 14:02:07.683100 12551 net.cpp:156] Memory required for data: 91522080
I0403 14:02:07.683133 12551 layer_factory.hpp:77] Creating layer conv1/relu_7x7
I0403 14:02:07.683161 12551 net.cpp:91] Creating Layer conv1/relu_7x7
I0403 14:02:07.683179 12551 net.cpp:425] conv1/relu_7x7 <- conv1/7x7_s2
I0403 14:02:07.683200 12551 net.cpp:386] conv1/relu_7x7 -> conv1/7x7_s2 (in-place)
I0403 14:02:07.683585 12551 net.cpp:141] Setting up conv1/relu_7x7
I0403 14:02:07.683614 12551 net.cpp:148] Top shape: 24 64 112 112 (19267584)
I0403 14:02:07.683629 12551 net.cpp:156] Memory required for data: 168592416
I0403 14:02:07.683645 12551 layer_factory.hpp:77] Creating layer pool1/3x3_s2
I0403 14:02:07.683672 12551 net.cpp:91] Creating Layer pool1/3x3_s2
I0403 14:02:07.683691 12551 net.cpp:425] pool1/3x3_s2 <- conv1/7x7_s2
I0403 14:02:07.683709 12551 net.cpp:399] pool1/3x3_s2 -> pool1/3x3_s2
I0403 14:02:07.683792 12551 net.cpp:141] Setting up pool1/3x3_s2
I0403 14:02:07.683817 12551 net.cpp:148] Top shape: 24 64 56 56 (4816896)
I0403 14:02:07.683833 12551 net.cpp:156] Memory required for data: 187860000
I0403 14:02:07.683847 12551 layer_factory.hpp:77] Creating layer pool1/norm1
I0403 14:02:07.683876 12551 net.cpp:91] Creating Layer pool1/norm1
I0403 14:02:07.683893 12551 net.cpp:425] pool1/norm1 <- pool1/3x3_s2
I0403 14:02:07.683912 12551 net.cpp:399] pool1/norm1 -> pool1/norm1
I0403 14:02:07.684228 12551 net.cpp:141] Setting up pool1/norm1
I0403 14:02:07.684257 12551 net.cpp:148] Top shape: 24 64 56 56 (4816896)
I0403 14:02:07.684273 12551 net.cpp:156] Memory required for data: 207127584
I0403 14:02:07.684290 12551 layer_factory.hpp:77] Creating layer conv2/3x3_reduce
I0403 14:02:07.684317 12551 net.cpp:91] Creating Layer conv2/3x3_reduce
I0403 14:02:07.684334 12551 net.cpp:425] conv2/3x3_reduce <- pool1/norm1
I0403 14:02:07.684355 12551 net.cpp:399] conv2/3x3_reduce -> conv2/3x3_reduce
I0403 14:02:07.685832 12551 net.cpp:141] Setting up conv2/3x3_reduce
I0403 14:02:07.685863 12551 net.cpp:148] Top shape: 24 64 56 56 (4816896)
I0403 14:02:07.685878 12551 net.cpp:156] Memory required for data: 226395168
I0403 14:02:07.685900 12551 layer_factory.hpp:77] Creating layer conv2/relu_3x3_reduce
I0403 14:02:07.685920 12551 net.cpp:91] Creating Layer conv2/relu_3x3_reduce
I0403 14:02:07.685937 12551 net.cpp:425] conv2/relu_3x3_reduce <- conv2/3x3_reduce
I0403 14:02:07.685956 12551 net.cpp:386] conv2/relu_3x3_reduce -> conv2/3x3_reduce (in-place)
I0403 14:02:07.686239 12551 net.cpp:141] Setting up conv2/relu_3x3_reduce
I0403 14:02:07.686266 12551 net.cpp:148] Top shape: 24 64 56 56 (4816896)
I0403 14:02:07.686282 12551 net.cpp:156] Memory required for data: 245662752
I0403 14:02:07.686297 12551 layer_factory.hpp:77] Creating layer conv2/3x3
I0403 14:02:07.686322 12551 net.cpp:91] Creating Layer conv2/3x3
I0403 14:02:07.686341 12551 net.cpp:425] conv2/3x3 <- conv2/3x3_reduce
I0403 14:02:07.686362 12551 net.cpp:399] conv2/3x3 -> conv2/3x3
I0403 14:02:07.688756 12551 net.cpp:141] Setting up conv2/3x3
I0403 14:02:07.688787 12551 net.cpp:148] Top shape: 24 192 56 56 (14450688)
I0403 14:02:07.688804 12551 net.cpp:156] Memory required for data: 303465504
I0403 14:02:07.688827 12551 layer_factory.hpp:77] Creating layer conv2/relu_3x3
I0403 14:02:07.688848 12551 net.cpp:91] Creating Layer conv2/relu_3x3
I0403 14:02:07.688863 12551 net.cpp:425] conv2/relu_3x3 <- conv2/3x3
I0403 14:02:07.688884 12551 net.cpp:386] conv2/relu_3x3 -> conv2/3x3 (in-place)
I0403 14:02:07.689067 12551 net.cpp:141] Setting up conv2/relu_3x3
I0403 14:02:07.689093 12551 net.cpp:148] Top shape: 24 192 56 56 (14450688)
I0403 14:02:07.689146 12551 net.cpp:156] Memory required for data: 361268256
I0403 14:02:07.689163 12551 layer_factory.hpp:77] Creating layer conv2/norm2
I0403 14:02:07.689184 12551 net.cpp:91] Creating Layer conv2/norm2
I0403 14:02:07.689203 12551 net.cpp:425] conv2/norm2 <- conv2/3x3
I0403 14:02:07.689221 12551 net.cpp:399] conv2/norm2 -> conv2/norm2
I0403 14:02:07.689548 12551 net.cpp:141] Setting up conv2/norm2
I0403 14:02:07.689579 12551 net.cpp:148] Top shape: 24 192 56 56 (14450688)
I0403 14:02:07.689595 12551 net.cpp:156] Memory required for data: 419071008
I0403 14:02:07.689611 12551 layer_factory.hpp:77] Creating layer pool2/3x3_s2
I0403 14:02:07.689630 12551 net.cpp:91] Creating Layer pool2/3x3_s2
I0403 14:02:07.689646 12551 net.cpp:425] pool2/3x3_s2 <- conv2/norm2
I0403 14:02:07.689664 12551 net.cpp:399] pool2/3x3_s2 -> pool2/3x3_s2
I0403 14:02:07.689721 12551 net.cpp:141] Setting up pool2/3x3_s2
I0403 14:02:07.689745 12551 net.cpp:148] Top shape: 24 192 28 28 (3612672)
I0403 14:02:07.689761 12551 net.cpp:156] Memory required for data: 433521696
I0403 14:02:07.689776 12551 layer_factory.hpp:77] Creating layer pool2/3x3_s2_pool2/3x3_s2_0_split
I0403 14:02:07.689796 12551 net.cpp:91] Creating Layer pool2/3x3_s2_pool2/3x3_s2_0_split
I0403 14:02:07.689813 12551 net.cpp:425] pool2/3x3_s2_pool2/3x3_s2_0_split <- pool2/3x3_s2
I0403 14:02:07.689831 12551 net.cpp:399] pool2/3x3_s2_pool2/3x3_s2_0_split -> pool2/3x3_s2_pool2/3x3_s2_0_split_0
I0403 14:02:07.689851 12551 net.cpp:399] pool2/3x3_s2_pool2/3x3_s2_0_split -> pool2/3x3_s2_pool2/3x3_s2_0_split_1
I0403 14:02:07.689872 12551 net.cpp:399] pool2/3x3_s2_pool2/3x3_s2_0_split -> pool2/3x3_s2_pool2/3x3_s2_0_split_2
I0403 14:02:07.689895 12551 net.cpp:399] pool2/3x3_s2_pool2/3x3_s2_0_split -> pool2/3x3_s2_pool2/3x3_s2_0_split_3
I0403 14:02:07.689970 12551 net.cpp:141] Setting up pool2/3x3_s2_pool2/3x3_s2_0_split
I0403 14:02:07.689993 12551 net.cpp:148] Top shape: 24 192 28 28 (3612672)
I0403 14:02:07.690011 12551 net.cpp:148] Top shape: 24 192 28 28 (3612672)
I0403 14:02:07.690027 12551 net.cpp:148] Top shape: 24 192 28 28 (3612672)
I0403 14:02:07.690043 12551 net.cpp:148] Top shape: 24 192 28 28 (3612672)
I0403 14:02:07.690058 12551 net.cpp:156] Memory required for data: 491324448
I0403 14:02:07.690073 12551 layer_factory.hpp:77] Creating layer inception_3a/1x1
I0403 14:02:07.690098 12551 net.cpp:91] Creating Layer inception_3a/1x1
I0403 14:02:07.690114 12551 net.cpp:425] inception_3a/1x1 <- pool2/3x3_s2_pool2/3x3_s2_0_split_0
I0403 14:02:07.690136 12551 net.cpp:399] inception_3a/1x1 -> inception_3a/1x1
I0403 14:02:07.691733 12551 net.cpp:141] Setting up inception_3a/1x1
I0403 14:02:07.691767 12551 net.cpp:148] Top shape: 24 64 28 28 (1204224)
I0403 14:02:07.691786 12551 net.cpp:156] Memory required for data: 496141344
I0403 14:02:07.691805 12551 layer_factory.hpp:77] Creating layer inception_3a/relu_1x1
I0403 14:02:07.691825 12551 net.cpp:91] Creating Layer inception_3a/relu_1x1
I0403 14:02:07.691843 12551 net.cpp:425] inception_3a/relu_1x1 <- inception_3a/1x1
I0403 14:02:07.691864 12551 net.cpp:386] inception_3a/relu_1x1 -> inception_3a/1x1 (in-place)
I0403 14:02:07.692047 12551 net.cpp:141] Setting up inception_3a/relu_1x1
I0403 14:02:07.692073 12551 net.cpp:148] Top shape: 24 64 28 28 (1204224)
I0403 14:02:07.692088 12551 net.cpp:156] Memory required for data: 500958240
I0403 14:02:07.692104 12551 layer_factory.hpp:77] Creating layer inception_3a/3x3_reduce
I0403 14:02:07.692131 12551 net.cpp:91] Creating Layer inception_3a/3x3_reduce
I0403 14:02:07.692148 12551 net.cpp:425] inception_3a/3x3_reduce <- pool2/3x3_s2_pool2/3x3_s2_0_split_1
I0403 14:02:07.692172 12551 net.cpp:399] inception_3a/3x3_reduce -> inception_3a/3x3_reduce
I0403 14:02:07.693904 12551 net.cpp:141] Setting up inception_3a/3x3_reduce
I0403 14:02:07.693934 12551 net.cpp:148] Top shape: 24 96 28 28 (1806336)
I0403 14:02:07.693950 12551 net.cpp:156] Memory required for data: 508183584
I0403 14:02:07.693972 12551 layer_factory.hpp:77] Creating layer inception_3a/relu_3x3_reduce
I0403 14:02:07.694011 12551 net.cpp:91] Creating Layer inception_3a/relu_3x3_reduce
I0403 14:02:07.694031 12551 net.cpp:425] inception_3a/relu_3x3_reduce <- inception_3a/3x3_reduce
I0403 14:02:07.694059 12551 net.cpp:386] inception_3a/relu_3x3_reduce -> inception_3a/3x3_reduce (in-place)
I0403 14:02:07.694249 12551 net.cpp:141] Setting up inception_3a/relu_3x3_reduce
I0403 14:02:07.694279 12551 net.cpp:148] Top shape: 24 96 28 28 (1806336)
I0403 14:02:07.694296 12551 net.cpp:156] Memory required for data: 515408928
I0403 14:02:07.694313 12551 layer_factory.hpp:77] Creating layer inception_3a/3x3
I0403 14:02:07.694335 12551 net.cpp:91] Creating Layer inception_3a/3x3
I0403 14:02:07.694352 12551 net.cpp:425] inception_3a/3x3 <- inception_3a/3x3_reduce
I0403 14:02:07.694385 12551 net.cpp:399] inception_3a/3x3 -> inception_3a/3x3
I0403 14:02:07.696091 12551 net.cpp:141] Setting up inception_3a/3x3
I0403 14:02:07.696121 12551 net.cpp:148] Top shape: 24 128 28 28 (2408448)
I0403 14:02:07.696138 12551 net.cpp:156] Memory required for data: 525042720
I0403 14:02:07.696157 12551 layer_factory.hpp:77] Creating layer inception_3a/relu_3x3
I0403 14:02:07.696177 12551 net.cpp:91] Creating Layer inception_3a/relu_3x3
I0403 14:02:07.696197 12551 net.cpp:425] inception_3a/relu_3x3 <- inception_3a/3x3
I0403 14:02:07.696214 12551 net.cpp:386] inception_3a/relu_3x3 -> inception_3a/3x3 (in-place)
I0403 14:02:07.696506 12551 net.cpp:141] Setting up inception_3a/relu_3x3
I0403 14:02:07.696533 12551 net.cpp:148] Top shape: 24 128 28 28 (2408448)
I0403 14:02:07.696553 12551 net.cpp:156] Memory required for data: 534676512
I0403 14:02:07.696569 12551 layer_factory.hpp:77] Creating layer inception_3a/5x5_reduce
I0403 14:02:07.696593 12551 net.cpp:91] Creating Layer inception_3a/5x5_reduce
I0403 14:02:07.696610 12551 net.cpp:425] inception_3a/5x5_reduce <- pool2/3x3_s2_pool2/3x3_s2_0_split_2
I0403 14:02:07.696631 12551 net.cpp:399] inception_3a/5x5_reduce -> inception_3a/5x5_reduce
I0403 14:02:07.697599 12551 net.cpp:141] Setting up inception_3a/5x5_reduce
I0403 14:02:07.697628 12551 net.cpp:148] Top shape: 24 16 28 28 (301056)
I0403 14:02:07.697644 12551 net.cpp:156] Memory required for data: 535880736
I0403 14:02:07.697675 12551 layer_factory.hpp:77] Creating layer inception_3a/relu_5x5_reduce
I0403 14:02:07.697698 12551 net.cpp:91] Creating Layer inception_3a/relu_5x5_reduce
I0403 14:02:07.697717 12551 net.cpp:425] inception_3a/relu_5x5_reduce <- inception_3a/5x5_reduce
I0403 14:02:07.697736 12551 net.cpp:386] inception_3a/relu_5x5_reduce -> inception_3a/5x5_reduce (in-place)
I0403 14:02:07.698060 12551 net.cpp:141] Setting up inception_3a/relu_5x5_reduce
I0403 14:02:07.698086 12551 net.cpp:148] Top shape: 24 16 28 28 (301056)
I0403 14:02:07.698102 12551 net.cpp:156] Memory required for data: 537084960
I0403 14:02:07.698117 12551 layer_factory.hpp:77] Creating layer inception_3a/5x5
I0403 14:02:07.698140 12551 net.cpp:91] Creating Layer inception_3a/5x5
I0403 14:02:07.698158 12551 net.cpp:425] inception_3a/5x5 <- inception_3a/5x5_reduce
I0403 14:02:07.698179 12551 net.cpp:399] inception_3a/5x5 -> inception_3a/5x5
I0403 14:02:07.699216 12551 net.cpp:141] Setting up inception_3a/5x5
I0403 14:02:07.699246 12551 net.cpp:148] Top shape: 24 32 28 28 (602112)
I0403 14:02:07.699266 12551 net.cpp:156] Memory required for data: 539493408
I0403 14:02:07.699285 12551 layer_factory.hpp:77] Creating layer inception_3a/relu_5x5
I0403 14:02:07.699306 12551 net.cpp:91] Creating Layer inception_3a/relu_5x5
I0403 14:02:07.699321 12551 net.cpp:425] inception_3a/relu_5x5 <- inception_3a/5x5
I0403 14:02:07.699340 12551 net.cpp:386] inception_3a/relu_5x5 -> inception_3a/5x5 (in-place)
I0403 14:02:07.699535 12551 net.cpp:141] Setting up inception_3a/relu_5x5
I0403 14:02:07.699565 12551 net.cpp:148] Top shape: 24 32 28 28 (602112)
I0403 14:02:07.699581 12551 net.cpp:156] Memory required for data: 541901856
I0403 14:02:07.699596 12551 layer_factory.hpp:77] Creating layer inception_3a/pool
I0403 14:02:07.699615 12551 net.cpp:91] Creating Layer inception_3a/pool
I0403 14:02:07.699647 12551 net.cpp:425] inception_3a/pool <- pool2/3x3_s2_pool2/3x3_s2_0_split_3
I0403 14:02:07.699671 12551 net.cpp:399] inception_3a/pool -> inception_3a/pool
I0403 14:02:07.699743 12551 net.cpp:141] Setting up inception_3a/pool
I0403 14:02:07.699766 12551 net.cpp:148] Top shape: 24 192 28 28 (3612672)
I0403 14:02:07.699782 12551 net.cpp:156] Memory required for data: 556352544
I0403 14:02:07.699797 12551 layer_factory.hpp:77] Creating layer inception_3a/pool_proj
I0403 14:02:07.699820 12551 net.cpp:91] Creating Layer inception_3a/pool_proj
I0403 14:02:07.699837 12551 net.cpp:425] inception_3a/pool_proj <- inception_3a/pool
I0403 14:02:07.699859 12551 net.cpp:399] inception_3a/pool_proj -> inception_3a/pool_proj
I0403 14:02:07.700842 12551 net.cpp:141] Setting up inception_3a/pool_proj
I0403 14:02:07.700871 12551 net.cpp:148] Top shape: 24 32 28 28 (602112)
I0403 14:02:07.700887 12551 net.cpp:156] Memory required for data: 558760992
I0403 14:02:07.700912 12551 layer_factory.hpp:77] Creating layer inception_3a/relu_pool_proj
I0403 14:02:07.700935 12551 net.cpp:91] Creating Layer inception_3a/relu_pool_proj
I0403 14:02:07.700953 12551 net.cpp:425] inception_3a/relu_pool_proj <- inception_3a/pool_proj
I0403 14:02:07.700969 12551 net.cpp:386] inception_3a/relu_pool_proj -> inception_3a/pool_proj (in-place)
I0403 14:02:07.701268 12551 net.cpp:141] Setting up inception_3a/relu_pool_proj
I0403 14:02:07.701295 12551 net.cpp:148] Top shape: 24 32 28 28 (602112)
I0403 14:02:07.701311 12551 net.cpp:156] Memory required for data: 561169440
I0403 14:02:07.701328 12551 layer_factory.hpp:77] Creating layer inception_3a/output
I0403 14:02:07.701345 12551 net.cpp:91] Creating Layer inception_3a/output
I0403 14:02:07.701362 12551 net.cpp:425] inception_3a/output <- inception_3a/1x1
I0403 14:02:07.701380 12551 net.cpp:425] inception_3a/output <- inception_3a/3x3
I0403 14:02:07.701395 12551 net.cpp:425] inception_3a/output <- inception_3a/5x5
I0403 14:02:07.701424 12551 net.cpp:425] inception_3a/output <- inception_3a/pool_proj
I0403 14:02:07.701443 12551 net.cpp:399] inception_3a/output -> inception_3a/output
I0403 14:02:07.701490 12551 net.cpp:141] Setting up inception_3a/output
I0403 14:02:07.701517 12551 net.cpp:148] Top shape: 24 256 28 28 (4816896)
I0403 14:02:07.701534 12551 net.cpp:156] Memory required for data: 580437024
I0403 14:02:07.701553 12551 layer_factory.hpp:77] Creating layer inception_3a/output_inception_3a/output_0_split
I0403 14:02:07.701571 12551 net.cpp:91] Creating Layer inception_3a/output_inception_3a/output_0_split
I0403 14:02:07.701586 12551 net.cpp:425] inception_3a/output_inception_3a/output_0_split <- inception_3a/output
I0403 14:02:07.701603 12551 net.cpp:399] inception_3a/output_inception_3a/output_0_split -> inception_3a/output_inception_3a/output_0_split_0
I0403 14:02:07.701627 12551 net.cpp:399] inception_3a/output_inception_3a/output_0_split -> inception_3a/output_inception_3a/output_0_split_1
I0403 14:02:07.701649 12551 net.cpp:399] inception_3a/output_inception_3a/output_0_split -> inception_3a/output_inception_3a/output_0_split_2
I0403 14:02:07.701671 12551 net.cpp:399] inception_3a/output_inception_3a/output_0_split -> inception_3a/output_inception_3a/output_0_split_3
I0403 14:02:07.701745 12551 net.cpp:141] Setting up inception_3a/output_inception_3a/output_0_split
I0403 14:02:07.701769 12551 net.cpp:148] Top shape: 24 256 28 28 (4816896)
I0403 14:02:07.701787 12551 net.cpp:148] Top shape: 24 256 28 28 (4816896)
I0403 14:02:07.701803 12551 net.cpp:148] Top shape: 24 256 28 28 (4816896)
I0403 14:02:07.701819 12551 net.cpp:148] Top shape: 24 256 28 28 (4816896)
I0403 14:02:07.701833 12551 net.cpp:156] Memory required for data: 657507360
I0403 14:02:07.701848 12551 layer_factory.hpp:77] Creating layer inception_3b/1x1
I0403 14:02:07.701870 12551 net.cpp:91] Creating Layer inception_3b/1x1
I0403 14:02:07.701889 12551 net.cpp:425] inception_3b/1x1 <- inception_3a/output_inception_3a/output_0_split_0
I0403 14:02:07.701912 12551 net.cpp:399] inception_3b/1x1 -> inception_3b/1x1
I0403 14:02:07.703079 12551 net.cpp:141] Setting up inception_3b/1x1
I0403 14:02:07.703126 12551 net.cpp:148] Top shape: 24 128 28 28 (2408448)
I0403 14:02:07.703145 12551 net.cpp:156] Memory required for data: 667141152
I0403 14:02:07.703163 12551 layer_factory.hpp:77] Creating layer inception_3b/relu_1x1
I0403 14:02:07.703182 12551 net.cpp:91] Creating Layer inception_3b/relu_1x1
I0403 14:02:07.703199 12551 net.cpp:425] inception_3b/relu_1x1 <- inception_3b/1x1
I0403 14:02:07.703217 12551 net.cpp:386] inception_3b/relu_1x1 -> inception_3b/1x1 (in-place)
I0403 14:02:07.703409 12551 net.cpp:141] Setting up inception_3b/relu_1x1
I0403 14:02:07.703434 12551 net.cpp:148] Top shape: 24 128 28 28 (2408448)
I0403 14:02:07.703449 12551 net.cpp:156] Memory required for data: 676774944
I0403 14:02:07.703464 12551 layer_factory.hpp:77] Creating layer inception_3b/3x3_reduce
I0403 14:02:07.703487 12551 net.cpp:91] Creating Layer inception_3b/3x3_reduce
I0403 14:02:07.703505 12551 net.cpp:425] inception_3b/3x3_reduce <- inception_3a/output_inception_3a/output_0_split_1
I0403 14:02:07.703526 12551 net.cpp:399] inception_3b/3x3_reduce -> inception_3b/3x3_reduce
I0403 14:02:07.704685 12551 net.cpp:141] Setting up inception_3b/3x3_reduce
I0403 14:02:07.704716 12551 net.cpp:148] Top shape: 24 128 28 28 (2408448)
I0403 14:02:07.704735 12551 net.cpp:156] Memory required for data: 686408736
I0403 14:02:07.704753 12551 layer_factory.hpp:77] Creating layer inception_3b/relu_3x3_reduce
I0403 14:02:07.704772 12551 net.cpp:91] Creating Layer inception_3b/relu_3x3_reduce
I0403 14:02:07.704789 12551 net.cpp:425] inception_3b/relu_3x3_reduce <- inception_3b/3x3_reduce
I0403 14:02:07.704808 12551 net.cpp:386] inception_3b/relu_3x3_reduce -> inception_3b/3x3_reduce (in-place)
I0403 14:02:07.704998 12551 net.cpp:141] Setting up inception_3b/relu_3x3_reduce
I0403 14:02:07.705025 12551 net.cpp:148] Top shape: 24 128 28 28 (2408448)
I0403 14:02:07.705041 12551 net.cpp:156] Memory required for data: 696042528
I0403 14:02:07.705056 12551 layer_factory.hpp:77] Creating layer inception_3b/3x3
I0403 14:02:07.705085 12551 net.cpp:91] Creating Layer inception_3b/3x3
I0403 14:02:07.705103 12551 net.cpp:425] inception_3b/3x3 <- inception_3b/3x3_reduce
I0403 14:02:07.705122 12551 net.cpp:399] inception_3b/3x3 -> inception_3b/3x3
I0403 14:02:07.708091 12551 net.cpp:141] Setting up inception_3b/3x3
I0403 14:02:07.708120 12551 net.cpp:148] Top shape: 24 192 28 28 (3612672)
I0403 14:02:07.708137 12551 net.cpp:156] Memory required for data: 710493216
I0403 14:02:07.708155 12551 layer_factory.hpp:77] Creating layer inception_3b/relu_3x3
I0403 14:02:07.708174 12551 net.cpp:91] Creating Layer inception_3b/relu_3x3
I0403 14:02:07.708194 12551 net.cpp:425] inception_3b/relu_3x3 <- inception_3b/3x3
I0403 14:02:07.708212 12551 net.cpp:386] inception_3b/relu_3x3 -> inception_3b/3x3 (in-place)
I0403 14:02:07.708511 12551 net.cpp:141] Setting up inception_3b/relu_3x3
I0403 14:02:07.708555 12551 net.cpp:148] Top shape: 24 192 28 28 (3612672)
I0403 14:02:07.708572 12551 net.cpp:156] Memory required for data: 724943904
I0403 14:02:07.708587 12551 layer_factory.hpp:77] Creating layer inception_3b/5x5_reduce
I0403 14:02:07.708624 12551 net.cpp:91] Creating Layer inception_3b/5x5_reduce
I0403 14:02:07.708642 12551 net.cpp:425] inception_3b/5x5_reduce <- inception_3a/output_inception_3a/output_0_split_2
I0403 14:02:07.708665 12551 net.cpp:399] inception_3b/5x5_reduce -> inception_3b/5x5_reduce
I0403 14:02:07.709703 12551 net.cpp:141] Setting up inception_3b/5x5_reduce
I0403 14:02:07.709733 12551 net.cpp:148] Top shape: 24 32 28 28 (602112)
I0403 14:02:07.709749 12551 net.cpp:156] Memory required for data: 727352352
I0403 14:02:07.709769 12551 layer_factory.hpp:77] Creating layer inception_3b/relu_5x5_reduce
I0403 14:02:07.709789 12551 net.cpp:91] Creating Layer inception_3b/relu_5x5_reduce
I0403 14:02:07.709805 12551 net.cpp:425] inception_3b/relu_5x5_reduce <- inception_3b/5x5_reduce
I0403 14:02:07.709825 12551 net.cpp:386] inception_3b/relu_5x5_reduce -> inception_3b/5x5_reduce (in-place)
I0403 14:02:07.710033 12551 net.cpp:141] Setting up inception_3b/relu_5x5_reduce
I0403 14:02:07.710059 12551 net.cpp:148] Top shape: 24 32 28 28 (602112)
I0403 14:02:07.710074 12551 net.cpp:156] Memory required for data: 729760800
I0403 14:02:07.710089 12551 layer_factory.hpp:77] Creating layer inception_3b/5x5
I0403 14:02:07.710114 12551 net.cpp:91] Creating Layer inception_3b/5x5
I0403 14:02:07.710132 12551 net.cpp:425] inception_3b/5x5 <- inception_3b/5x5_reduce
I0403 14:02:07.710153 12551 net.cpp:399] inception_3b/5x5 -> inception_3b/5x5
I0403 14:02:07.712121 12551 net.cpp:141] Setting up inception_3b/5x5
I0403 14:02:07.712152 12551 net.cpp:148] Top shape: 24 96 28 28 (1806336)
I0403 14:02:07.712169 12551 net.cpp:156] Memory required for data: 736986144
I0403 14:02:07.712201 12551 layer_factory.hpp:77] Creating layer inception_3b/relu_5x5
I0403 14:02:07.712220 12551 net.cpp:91] Creating Layer inception_3b/relu_5x5
I0403 14:02:07.712236 12551 net.cpp:425] inception_3b/relu_5x5 <- inception_3b/5x5
I0403 14:02:07.712257 12551 net.cpp:386] inception_3b/relu_5x5 -> inception_3b/5x5 (in-place)
I0403 14:02:07.712452 12551 net.cpp:141] Setting up inception_3b/relu_5x5
I0403 14:02:07.712477 12551 net.cpp:148] Top shape: 24 96 28 28 (1806336)
I0403 14:02:07.712503 12551 net.cpp:156] Memory required for data: 744211488
I0403 14:02:07.712518 12551 layer_factory.hpp:77] Creating layer inception_3b/pool
I0403 14:02:07.712539 12551 net.cpp:91] Creating Layer inception_3b/pool
I0403 14:02:07.712558 12551 net.cpp:425] inception_3b/pool <- inception_3a/output_inception_3a/output_0_split_3
I0403 14:02:07.712575 12551 net.cpp:399] inception_3b/pool -> inception_3b/pool
I0403 14:02:07.712630 12551 net.cpp:141] Setting up inception_3b/pool
I0403 14:02:07.712652 12551 net.cpp:148] Top shape: 24 256 28 28 (4816896)
I0403 14:02:07.712666 12551 net.cpp:156] Memory required for data: 763479072
I0403 14:02:07.712682 12551 layer_factory.hpp:77] Creating layer inception_3b/pool_proj
I0403 14:02:07.712704 12551 net.cpp:91] Creating Layer inception_3b/pool_proj
I0403 14:02:07.712723 12551 net.cpp:425] inception_3b/pool_proj <- inception_3b/pool
I0403 14:02:07.712740 12551 net.cpp:399] inception_3b/pool_proj -> inception_3b/pool_proj
I0403 14:02:07.713784 12551 net.cpp:141] Setting up inception_3b/pool_proj
I0403 14:02:07.713811 12551 net.cpp:148] Top shape: 24 64 28 28 (1204224)
I0403 14:02:07.713827 12551 net.cpp:156] Memory required for data: 768295968
I0403 14:02:07.713845 12551 layer_factory.hpp:77] Creating layer inception_3b/relu_pool_proj
I0403 14:02:07.713865 12551 net.cpp:91] Creating Layer inception_3b/relu_pool_proj
I0403 14:02:07.713883 12551 net.cpp:425] inception_3b/relu_pool_proj <- inception_3b/pool_proj
I0403 14:02:07.713901 12551 net.cpp:386] inception_3b/relu_pool_proj -> inception_3b/pool_proj (in-place)
I0403 14:02:07.714334 12551 net.cpp:141] Setting up inception_3b/relu_pool_proj
I0403 14:02:07.714359 12551 net.cpp:148] Top shape: 24 64 28 28 (1204224)
I0403 14:02:07.714375 12551 net.cpp:156] Memory required for data: 773112864
I0403 14:02:07.714388 12551 layer_factory.hpp:77] Creating layer inception_3b/output
I0403 14:02:07.714408 12551 net.cpp:91] Creating Layer inception_3b/output
I0403 14:02:07.714424 12551 net.cpp:425] inception_3b/output <- inception_3b/1x1
I0403 14:02:07.714442 12551 net.cpp:425] inception_3b/output <- inception_3b/3x3
I0403 14:02:07.714457 12551 net.cpp:425] inception_3b/output <- inception_3b/5x5
I0403 14:02:07.714471 12551 net.cpp:425] inception_3b/output <- inception_3b/pool_proj
I0403 14:02:07.714488 12551 net.cpp:399] inception_3b/output -> inception_3b/output
I0403 14:02:07.714529 12551 net.cpp:141] Setting up inception_3b/output
I0403 14:02:07.714565 12551 net.cpp:148] Top shape: 24 480 28 28 (9031680)
I0403 14:02:07.714581 12551 net.cpp:156] Memory required for data: 809239584
I0403 14:02:07.714596 12551 layer_factory.hpp:77] Creating layer pool3/3x3_s2
I0403 14:02:07.714613 12551 net.cpp:91] Creating Layer pool3/3x3_s2
I0403 14:02:07.714628 12551 net.cpp:425] pool3/3x3_s2 <- inception_3b/output
I0403 14:02:07.714664 12551 net.cpp:399] pool3/3x3_s2 -> pool3/3x3_s2
I0403 14:02:07.714722 12551 net.cpp:141] Setting up pool3/3x3_s2
I0403 14:02:07.714747 12551 net.cpp:148] Top shape: 24 480 14 14 (2257920)
I0403 14:02:07.714764 12551 net.cpp:156] Memory required for data: 818271264
I0403 14:02:07.714778 12551 layer_factory.hpp:77] Creating layer pool3/3x3_s2_pool3/3x3_s2_0_split
I0403 14:02:07.714795 12551 net.cpp:91] Creating Layer pool3/3x3_s2_pool3/3x3_s2_0_split
I0403 14:02:07.714809 12551 net.cpp:425] pool3/3x3_s2_pool3/3x3_s2_0_split <- pool3/3x3_s2
I0403 14:02:07.714826 12551 net.cpp:399] pool3/3x3_s2_pool3/3x3_s2_0_split -> pool3/3x3_s2_pool3/3x3_s2_0_split_0
I0403 14:02:07.714846 12551 net.cpp:399] pool3/3x3_s2_pool3/3x3_s2_0_split -> pool3/3x3_s2_pool3/3x3_s2_0_split_1
I0403 14:02:07.714869 12551 net.cpp:399] pool3/3x3_s2_pool3/3x3_s2_0_split -> pool3/3x3_s2_pool3/3x3_s2_0_split_2
I0403 14:02:07.714889 12551 net.cpp:399] pool3/3x3_s2_pool3/3x3_s2_0_split -> pool3/3x3_s2_pool3/3x3_s2_0_split_3
I0403 14:02:07.714964 12551 net.cpp:141] Setting up pool3/3x3_s2_pool3/3x3_s2_0_split
I0403 14:02:07.714987 12551 net.cpp:148] Top shape: 24 480 14 14 (2257920)
I0403 14:02:07.715003 12551 net.cpp:148] Top shape: 24 480 14 14 (2257920)
I0403 14:02:07.715018 12551 net.cpp:148] Top shape: 24 480 14 14 (2257920)
I0403 14:02:07.715034 12551 net.cpp:148] Top shape: 24 480 14 14 (2257920)
I0403 14:02:07.715047 12551 net.cpp:156] Memory required for data: 854397984
I0403 14:02:07.715061 12551 layer_factory.hpp:77] Creating layer inception_4a/1x1
I0403 14:02:07.715083 12551 net.cpp:91] Creating Layer inception_4a/1x1
I0403 14:02:07.715101 12551 net.cpp:425] inception_4a/1x1 <- pool3/3x3_s2_pool3/3x3_s2_0_split_0
I0403 14:02:07.715121 12551 net.cpp:399] inception_4a/1x1 -> inception_4a/1x1
I0403 14:02:07.716684 12551 net.cpp:141] Setting up inception_4a/1x1
I0403 14:02:07.716711 12551 net.cpp:148] Top shape: 24 192 14 14 (903168)
I0403 14:02:07.716727 12551 net.cpp:156] Memory required for data: 858010656
I0403 14:02:07.716747 12551 layer_factory.hpp:77] Creating layer inception_4a/relu_1x1
I0403 14:02:07.716766 12551 net.cpp:91] Creating Layer inception_4a/relu_1x1
I0403 14:02:07.716784 12551 net.cpp:425] inception_4a/relu_1x1 <- inception_4a/1x1
I0403 14:02:07.716801 12551 net.cpp:386] inception_4a/relu_1x1 -> inception_4a/1x1 (in-place)
I0403 14:02:07.716974 12551 net.cpp:141] Setting up inception_4a/relu_1x1
I0403 14:02:07.717001 12551 net.cpp:148] Top shape: 24 192 14 14 (903168)
I0403 14:02:07.717016 12551 net.cpp:156] Memory required for data: 861623328
I0403 14:02:07.717031 12551 layer_factory.hpp:77] Creating layer inception_4a/3x3_reduce
I0403 14:02:07.717054 12551 net.cpp:91] Creating Layer inception_4a/3x3_reduce
I0403 14:02:07.717072 12551 net.cpp:425] inception_4a/3x3_reduce <- pool3/3x3_s2_pool3/3x3_s2_0_split_1
I0403 14:02:07.717092 12551 net.cpp:399] inception_4a/3x3_reduce -> inception_4a/3x3_reduce
I0403 14:02:07.718395 12551 net.cpp:141] Setting up inception_4a/3x3_reduce
I0403 14:02:07.718423 12551 net.cpp:148] Top shape: 24 96 14 14 (451584)
I0403 14:02:07.718441 12551 net.cpp:156] Memory required for data: 863429664
I0403 14:02:07.718466 12551 layer_factory.hpp:77] Creating layer inception_4a/relu_3x3_reduce
I0403 14:02:07.718487 12551 net.cpp:91] Creating Layer inception_4a/relu_3x3_reduce
I0403 14:02:07.718504 12551 net.cpp:425] inception_4a/relu_3x3_reduce <- inception_4a/3x3_reduce
I0403 14:02:07.718523 12551 net.cpp:386] inception_4a/relu_3x3_reduce -> inception_4a/3x3_reduce (in-place)
I0403 14:02:07.718706 12551 net.cpp:141] Setting up inception_4a/relu_3x3_reduce
I0403 14:02:07.718734 12551 net.cpp:148] Top shape: 24 96 14 14 (451584)
I0403 14:02:07.718750 12551 net.cpp:156] Memory required for data: 865236000
I0403 14:02:07.718765 12551 layer_factory.hpp:77] Creating layer inception_4a/3x3
I0403 14:02:07.718788 12551 net.cpp:91] Creating Layer inception_4a/3x3
I0403 14:02:07.718806 12551 net.cpp:425] inception_4a/3x3 <- inception_4a/3x3_reduce
I0403 14:02:07.718825 12551 net.cpp:399] inception_4a/3x3 -> inception_4a/3x3
I0403 14:02:07.721621 12551 net.cpp:141] Setting up inception_4a/3x3
I0403 14:02:07.721653 12551 net.cpp:148] Top shape: 24 208 14 14 (978432)
I0403 14:02:07.721671 12551 net.cpp:156] Memory required for data: 869149728
I0403 14:02:07.721690 12551 layer_factory.hpp:77] Creating layer inception_4a/relu_3x3
I0403 14:02:07.721710 12551 net.cpp:91] Creating Layer inception_4a/relu_3x3
I0403 14:02:07.721727 12551 net.cpp:425] inception_4a/relu_3x3 <- inception_4a/3x3
I0403 14:02:07.721748 12551 net.cpp:386] inception_4a/relu_3x3 -> inception_4a/3x3 (in-place)
I0403 14:02:07.722040 12551 net.cpp:141] Setting up inception_4a/relu_3x3
I0403 14:02:07.722070 12551 net.cpp:148] Top shape: 24 208 14 14 (978432)
I0403 14:02:07.722087 12551 net.cpp:156] Memory required for data: 873063456
I0403 14:02:07.722105 12551 layer_factory.hpp:77] Creating layer inception_4a/5x5_reduce
I0403 14:02:07.722128 12551 net.cpp:91] Creating Layer inception_4a/5x5_reduce
I0403 14:02:07.722147 12551 net.cpp:425] inception_4a/5x5_reduce <- pool3/3x3_s2_pool3/3x3_s2_0_split_2
I0403 14:02:07.722167 12551 net.cpp:399] inception_4a/5x5_reduce -> inception_4a/5x5_reduce
I0403 14:02:07.723229 12551 net.cpp:141] Setting up inception_4a/5x5_reduce
I0403 14:02:07.723261 12551 net.cpp:148] Top shape: 24 16 14 14 (75264)
I0403 14:02:07.723279 12551 net.cpp:156] Memory required for data: 873364512
I0403 14:02:07.723299 12551 layer_factory.hpp:77] Creating layer inception_4a/relu_5x5_reduce
I0403 14:02:07.723317 12551 net.cpp:91] Creating Layer inception_4a/relu_5x5_reduce
I0403 14:02:07.723335 12551 net.cpp:425] inception_4a/relu_5x5_reduce <- inception_4a/5x5_reduce
I0403 14:02:07.723356 12551 net.cpp:386] inception_4a/relu_5x5_reduce -> inception_4a/5x5_reduce (in-place)
I0403 14:02:07.723548 12551 net.cpp:141] Setting up inception_4a/relu_5x5_reduce
I0403 14:02:07.723574 12551 net.cpp:148] Top shape: 24 16 14 14 (75264)
I0403 14:02:07.723589 12551 net.cpp:156] Memory required for data: 873665568
I0403 14:02:07.723605 12551 layer_factory.hpp:77] Creating layer inception_4a/5x5
I0403 14:02:07.723628 12551 net.cpp:91] Creating Layer inception_4a/5x5
I0403 14:02:07.723646 12551 net.cpp:425] inception_4a/5x5 <- inception_4a/5x5_reduce
I0403 14:02:07.723667 12551 net.cpp:399] inception_4a/5x5 -> inception_4a/5x5
I0403 14:02:07.724814 12551 net.cpp:141] Setting up inception_4a/5x5
I0403 14:02:07.724844 12551 net.cpp:148] Top shape: 24 48 14 14 (225792)
I0403 14:02:07.724860 12551 net.cpp:156] Memory required for data: 874568736
I0403 14:02:07.724879 12551 layer_factory.hpp:77] Creating layer inception_4a/relu_5x5
I0403 14:02:07.724900 12551 net.cpp:91] Creating Layer inception_4a/relu_5x5
I0403 14:02:07.724918 12551 net.cpp:425] inception_4a/relu_5x5 <- inception_4a/5x5
I0403 14:02:07.724936 12551 net.cpp:386] inception_4a/relu_5x5 -> inception_4a/5x5 (in-place)
I0403 14:02:07.725127 12551 net.cpp:141] Setting up inception_4a/relu_5x5
I0403 14:02:07.725153 12551 net.cpp:148] Top shape: 24 48 14 14 (225792)
I0403 14:02:07.725168 12551 net.cpp:156] Memory required for data: 875471904
I0403 14:02:07.725184 12551 layer_factory.hpp:77] Creating layer inception_4a/pool
I0403 14:02:07.725204 12551 net.cpp:91] Creating Layer inception_4a/pool
I0403 14:02:07.725221 12551 net.cpp:425] inception_4a/pool <- pool3/3x3_s2_pool3/3x3_s2_0_split_3
I0403 14:02:07.725240 12551 net.cpp:399] inception_4a/pool -> inception_4a/pool
I0403 14:02:07.725307 12551 net.cpp:141] Setting up inception_4a/pool
I0403 14:02:07.725332 12551 net.cpp:148] Top shape: 24 480 14 14 (2257920)
I0403 14:02:07.725347 12551 net.cpp:156] Memory required for data: 884503584
I0403 14:02:07.725363 12551 layer_factory.hpp:77] Creating layer inception_4a/pool_proj
I0403 14:02:07.725385 12551 net.cpp:91] Creating Layer inception_4a/pool_proj
I0403 14:02:07.725404 12551 net.cpp:425] inception_4a/pool_proj <- inception_4a/pool
I0403 14:02:07.725425 12551 net.cpp:399] inception_4a/pool_proj -> inception_4a/pool_proj
I0403 14:02:07.726662 12551 net.cpp:141] Setting up inception_4a/pool_proj
I0403 14:02:07.726691 12551 net.cpp:148] Top shape: 24 64 14 14 (301056)
I0403 14:02:07.726725 12551 net.cpp:156] Memory required for data: 885707808
I0403 14:02:07.726747 12551 layer_factory.hpp:77] Creating layer inception_4a/relu_pool_proj
I0403 14:02:07.726770 12551 net.cpp:91] Creating Layer inception_4a/relu_pool_proj
I0403 14:02:07.726789 12551 net.cpp:425] inception_4a/relu_pool_proj <- inception_4a/pool_proj
I0403 14:02:07.726806 12551 net.cpp:386] inception_4a/relu_pool_proj -> inception_4a/pool_proj (in-place)
I0403 14:02:07.727102 12551 net.cpp:141] Setting up inception_4a/relu_pool_proj
I0403 14:02:07.727130 12551 net.cpp:148] Top shape: 24 64 14 14 (301056)
I0403 14:02:07.727145 12551 net.cpp:156] Memory required for data: 886912032
I0403 14:02:07.727161 12551 layer_factory.hpp:77] Creating layer inception_4a/output
I0403 14:02:07.727181 12551 net.cpp:91] Creating Layer inception_4a/output
I0403 14:02:07.727200 12551 net.cpp:425] inception_4a/output <- inception_4a/1x1
I0403 14:02:07.727216 12551 net.cpp:425] inception_4a/output <- inception_4a/3x3
I0403 14:02:07.727233 12551 net.cpp:425] inception_4a/output <- inception_4a/5x5
I0403 14:02:07.727249 12551 net.cpp:425] inception_4a/output <- inception_4a/pool_proj
I0403 14:02:07.727270 12551 net.cpp:399] inception_4a/output -> inception_4a/output
I0403 14:02:07.727319 12551 net.cpp:141] Setting up inception_4a/output
I0403 14:02:07.727342 12551 net.cpp:148] Top shape: 24 512 14 14 (2408448)
I0403 14:02:07.727357 12551 net.cpp:156] Memory required for data: 896545824
I0403 14:02:07.727372 12551 layer_factory.hpp:77] Creating layer inception_4a/output_inception_4a/output_0_split
I0403 14:02:07.727391 12551 net.cpp:91] Creating Layer inception_4a/output_inception_4a/output_0_split
I0403 14:02:07.727406 12551 net.cpp:425] inception_4a/output_inception_4a/output_0_split <- inception_4a/output
I0403 14:02:07.727427 12551 net.cpp:399] inception_4a/output_inception_4a/output_0_split -> inception_4a/output_inception_4a/output_0_split_0
I0403 14:02:07.727449 12551 net.cpp:399] inception_4a/output_inception_4a/output_0_split -> inception_4a/output_inception_4a/output_0_split_1
I0403 14:02:07.727471 12551 net.cpp:399] inception_4a/output_inception_4a/output_0_split -> inception_4a/output_inception_4a/output_0_split_2
I0403 14:02:07.727494 12551 net.cpp:399] inception_4a/output_inception_4a/output_0_split -> inception_4a/output_inception_4a/output_0_split_3
I0403 14:02:07.727514 12551 net.cpp:399] inception_4a/output_inception_4a/output_0_split -> inception_4a/output_inception_4a/output_0_split_4
I0403 14:02:07.727618 12551 net.cpp:141] Setting up inception_4a/output_inception_4a/output_0_split
I0403 14:02:07.727643 12551 net.cpp:148] Top shape: 24 512 14 14 (2408448)
I0403 14:02:07.727660 12551 net.cpp:148] Top shape: 24 512 14 14 (2408448)
I0403 14:02:07.727676 12551 net.cpp:148] Top shape: 24 512 14 14 (2408448)
I0403 14:02:07.727694 12551 net.cpp:148] Top shape: 24 512 14 14 (2408448)
I0403 14:02:07.727710 12551 net.cpp:148] Top shape: 24 512 14 14 (2408448)
I0403 14:02:07.727725 12551 net.cpp:156] Memory required for data: 944714784
I0403 14:02:07.727741 12551 layer_factory.hpp:77] Creating layer loss1/ave_pool
I0403 14:02:07.727758 12551 net.cpp:91] Creating Layer loss1/ave_pool
I0403 14:02:07.727774 12551 net.cpp:425] loss1/ave_pool <- inception_4a/output_inception_4a/output_0_split_0
I0403 14:02:07.727794 12551 net.cpp:399] loss1/ave_pool -> loss1/ave_pool
I0403 14:02:07.728016 12551 net.cpp:141] Setting up loss1/ave_pool
I0403 14:02:07.728044 12551 net.cpp:148] Top shape: 24 512 4 4 (196608)
I0403 14:02:07.728060 12551 net.cpp:156] Memory required for data: 945501216
I0403 14:02:07.728075 12551 layer_factory.hpp:77] Creating layer loss1/conv
I0403 14:02:07.728101 12551 net.cpp:91] Creating Layer loss1/conv
I0403 14:02:07.728118 12551 net.cpp:425] loss1/conv <- loss1/ave_pool
I0403 14:02:07.728139 12551 net.cpp:399] loss1/conv -> loss1/conv
I0403 14:02:07.729650 12551 net.cpp:141] Setting up loss1/conv
I0403 14:02:07.729681 12551 net.cpp:148] Top shape: 24 128 4 4 (49152)
I0403 14:02:07.729712 12551 net.cpp:156] Memory required for data: 945697824
I0403 14:02:07.729733 12551 layer_factory.hpp:77] Creating layer loss1/relu_conv
I0403 14:02:07.729753 12551 net.cpp:91] Creating Layer loss1/relu_conv
I0403 14:02:07.729768 12551 net.cpp:425] loss1/relu_conv <- loss1/conv
I0403 14:02:07.729789 12551 net.cpp:386] loss1/relu_conv -> loss1/conv (in-place)
I0403 14:02:07.730092 12551 net.cpp:141] Setting up loss1/relu_conv
I0403 14:02:07.730121 12551 net.cpp:148] Top shape: 24 128 4 4 (49152)
I0403 14:02:07.730139 12551 net.cpp:156] Memory required for data: 945894432
I0403 14:02:07.730154 12551 layer_factory.hpp:77] Creating layer loss1/fc
I0403 14:02:07.730178 12551 net.cpp:91] Creating Layer loss1/fc
I0403 14:02:07.730196 12551 net.cpp:425] loss1/fc <- loss1/conv
I0403 14:02:07.730218 12551 net.cpp:399] loss1/fc -> loss1/fc
I0403 14:02:07.748685 12551 net.cpp:141] Setting up loss1/fc
I0403 14:02:07.748739 12551 net.cpp:148] Top shape: 24 1024 (24576)
I0403 14:02:07.748756 12551 net.cpp:156] Memory required for data: 945992736
I0403 14:02:07.748775 12551 layer_factory.hpp:77] Creating layer loss1/relu_fc
I0403 14:02:07.748798 12551 net.cpp:91] Creating Layer loss1/relu_fc
I0403 14:02:07.748816 12551 net.cpp:425] loss1/relu_fc <- loss1/fc
I0403 14:02:07.748836 12551 net.cpp:386] loss1/relu_fc -> loss1/fc (in-place)
I0403 14:02:07.749053 12551 net.cpp:141] Setting up loss1/relu_fc
I0403 14:02:07.749078 12551 net.cpp:148] Top shape: 24 1024 (24576)
I0403 14:02:07.749094 12551 net.cpp:156] Memory required for data: 946091040
I0403 14:02:07.749109 12551 layer_factory.hpp:77] Creating layer loss1/drop_fc
I0403 14:02:07.749136 12551 net.cpp:91] Creating Layer loss1/drop_fc
I0403 14:02:07.749155 12551 net.cpp:425] loss1/drop_fc <- loss1/fc
I0403 14:02:07.749176 12551 net.cpp:386] loss1/drop_fc -> loss1/fc (in-place)
I0403 14:02:07.749229 12551 net.cpp:141] Setting up loss1/drop_fc
I0403 14:02:07.749253 12551 net.cpp:148] Top shape: 24 1024 (24576)
I0403 14:02:07.749269 12551 net.cpp:156] Memory required for data: 946189344
I0403 14:02:07.749284 12551 layer_factory.hpp:77] Creating layer loss1/classifier_plantvillage
I0403 14:02:07.749308 12551 net.cpp:91] Creating Layer loss1/classifier_plantvillage
I0403 14:02:07.749326 12551 net.cpp:425] loss1/classifier_plantvillage <- loss1/fc
I0403 14:02:07.749344 12551 net.cpp:399] loss1/classifier_plantvillage -> loss1/classifier_plantvillage
I0403 14:02:07.750298 12551 net.cpp:141] Setting up loss1/classifier_plantvillage
I0403 14:02:07.750327 12551 net.cpp:148] Top shape: 24 38 (912)
I0403 14:02:07.750344 12551 net.cpp:156] Memory required for data: 946192992
I0403 14:02:07.750362 12551 layer_factory.hpp:77] Creating layer loss1/classifier_plantvillage_loss1/classifier_plantvillage_0_split
I0403 14:02:07.750383 12551 net.cpp:91] Creating Layer loss1/classifier_plantvillage_loss1/classifier_plantvillage_0_split
I0403 14:02:07.750401 12551 net.cpp:425] loss1/classifier_plantvillage_loss1/classifier_plantvillage_0_split <- loss1/classifier_plantvillage
I0403 14:02:07.750418 12551 net.cpp:399] loss1/classifier_plantvillage_loss1/classifier_plantvillage_0_split -> loss1/classifier_plantvillage_loss1/classifier_plantvillage_0_split_0
I0403 14:02:07.750442 12551 net.cpp:399] loss1/classifier_plantvillage_loss1/classifier_plantvillage_0_split -> loss1/classifier_plantvillage_loss1/classifier_plantvillage_0_split_1
I0403 14:02:07.750463 12551 net.cpp:399] loss1/classifier_plantvillage_loss1/classifier_plantvillage_0_split -> loss1/classifier_plantvillage_loss1/classifier_plantvillage_0_split_2
I0403 14:02:07.750532 12551 net.cpp:141] Setting up loss1/classifier_plantvillage_loss1/classifier_plantvillage_0_split
I0403 14:02:07.750560 12551 net.cpp:148] Top shape: 24 38 (912)
I0403 14:02:07.750576 12551 net.cpp:148] Top shape: 24 38 (912)
I0403 14:02:07.750592 12551 net.cpp:148] Top shape: 24 38 (912)
I0403 14:02:07.750607 12551 net.cpp:156] Memory required for data: 946203936
I0403 14:02:07.750622 12551 layer_factory.hpp:77] Creating layer inception_4b/1x1
I0403 14:02:07.750645 12551 net.cpp:91] Creating Layer inception_4b/1x1
I0403 14:02:07.750687 12551 net.cpp:425] inception_4b/1x1 <- inception_4a/output_inception_4a/output_0_split_1
I0403 14:02:07.750708 12551 net.cpp:399] inception_4b/1x1 -> inception_4b/1x1
I0403 14:02:07.752434 12551 net.cpp:141] Setting up inception_4b/1x1
I0403 14:02:07.752465 12551 net.cpp:148] Top shape: 24 160 14 14 (752640)
I0403 14:02:07.752482 12551 net.cpp:156] Memory required for data: 949214496
I0403 14:02:07.752501 12551 layer_factory.hpp:77] Creating layer inception_4b/relu_1x1
I0403 14:02:07.752519 12551 net.cpp:91] Creating Layer inception_4b/relu_1x1
I0403 14:02:07.752539 12551 net.cpp:425] inception_4b/relu_1x1 <- inception_4b/1x1
I0403 14:02:07.752562 12551 net.cpp:386] inception_4b/relu_1x1 -> inception_4b/1x1 (in-place)
I0403 14:02:07.752748 12551 net.cpp:141] Setting up inception_4b/relu_1x1
I0403 14:02:07.752774 12551 net.cpp:148] Top shape: 24 160 14 14 (752640)
I0403 14:02:07.752789 12551 net.cpp:156] Memory required for data: 952225056
I0403 14:02:07.752804 12551 layer_factory.hpp:77] Creating layer inception_4b/3x3_reduce
I0403 14:02:07.752828 12551 net.cpp:91] Creating Layer inception_4b/3x3_reduce
I0403 14:02:07.752846 12551 net.cpp:425] inception_4b/3x3_reduce <- inception_4a/output_inception_4a/output_0_split_2
I0403 14:02:07.752867 12551 net.cpp:399] inception_4b/3x3_reduce -> inception_4b/3x3_reduce
I0403 14:02:07.754259 12551 net.cpp:141] Setting up inception_4b/3x3_reduce
I0403 14:02:07.754287 12551 net.cpp:148] Top shape: 24 112 14 14 (526848)
I0403 14:02:07.754303 12551 net.cpp:156] Memory required for data: 954332448
I0403 14:02:07.754323 12551 layer_factory.hpp:77] Creating layer inception_4b/relu_3x3_reduce
I0403 14:02:07.754343 12551 net.cpp:91] Creating Layer inception_4b/relu_3x3_reduce
I0403 14:02:07.754360 12551 net.cpp:425] inception_4b/relu_3x3_reduce <- inception_4b/3x3_reduce
I0403 14:02:07.754379 12551 net.cpp:386] inception_4b/relu_3x3_reduce -> inception_4b/3x3_reduce (in-place)
I0403 14:02:07.754678 12551 net.cpp:141] Setting up inception_4b/relu_3x3_reduce
I0403 14:02:07.754705 12551 net.cpp:148] Top shape: 24 112 14 14 (526848)
I0403 14:02:07.754721 12551 net.cpp:156] Memory required for data: 956439840
I0403 14:02:07.754736 12551 layer_factory.hpp:77] Creating layer inception_4b/3x3
I0403 14:02:07.754760 12551 net.cpp:91] Creating Layer inception_4b/3x3
I0403 14:02:07.754777 12551 net.cpp:425] inception_4b/3x3 <- inception_4b/3x3_reduce
I0403 14:02:07.754801 12551 net.cpp:399] inception_4b/3x3 -> inception_4b/3x3
I0403 14:02:07.757871 12551 net.cpp:141] Setting up inception_4b/3x3
I0403 14:02:07.757902 12551 net.cpp:148] Top shape: 24 224 14 14 (1053696)
I0403 14:02:07.757918 12551 net.cpp:156] Memory required for data: 960654624
I0403 14:02:07.757938 12551 layer_factory.hpp:77] Creating layer inception_4b/relu_3x3
I0403 14:02:07.757959 12551 net.cpp:91] Creating Layer inception_4b/relu_3x3
I0403 14:02:07.757977 12551 net.cpp:425] inception_4b/relu_3x3 <- inception_4b/3x3
I0403 14:02:07.757994 12551 net.cpp:386] inception_4b/relu_3x3 -> inception_4b/3x3 (in-place)
I0403 14:02:07.758184 12551 net.cpp:141] Setting up inception_4b/relu_3x3
I0403 14:02:07.758209 12551 net.cpp:148] Top shape: 24 224 14 14 (1053696)
I0403 14:02:07.758225 12551 net.cpp:156] Memory required for data: 964869408
I0403 14:02:07.758240 12551 layer_factory.hpp:77] Creating layer inception_4b/5x5_reduce
I0403 14:02:07.758262 12551 net.cpp:91] Creating Layer inception_4b/5x5_reduce
I0403 14:02:07.758280 12551 net.cpp:425] inception_4b/5x5_reduce <- inception_4a/output_inception_4a/output_0_split_3
I0403 14:02:07.758302 12551 net.cpp:399] inception_4b/5x5_reduce -> inception_4b/5x5_reduce
I0403 14:02:07.759441 12551 net.cpp:141] Setting up inception_4b/5x5_reduce
I0403 14:02:07.759469 12551 net.cpp:148] Top shape: 24 24 14 14 (112896)
I0403 14:02:07.759486 12551 net.cpp:156] Memory required for data: 965320992
I0403 14:02:07.759505 12551 layer_factory.hpp:77] Creating layer inception_4b/relu_5x5_reduce
I0403 14:02:07.759524 12551 net.cpp:91] Creating Layer inception_4b/relu_5x5_reduce
I0403 14:02:07.759562 12551 net.cpp:425] inception_4b/relu_5x5_reduce <- inception_4b/5x5_reduce
I0403 14:02:07.759583 12551 net.cpp:386] inception_4b/relu_5x5_reduce -> inception_4b/5x5_reduce (in-place)
I0403 14:02:07.759773 12551 net.cpp:141] Setting up inception_4b/relu_5x5_reduce
I0403 14:02:07.759799 12551 net.cpp:148] Top shape: 24 24 14 14 (112896)
I0403 14:02:07.759814 12551 net.cpp:156] Memory required for data: 965772576
I0403 14:02:07.759829 12551 layer_factory.hpp:77] Creating layer inception_4b/5x5
I0403 14:02:07.759852 12551 net.cpp:91] Creating Layer inception_4b/5x5
I0403 14:02:07.759871 12551 net.cpp:425] inception_4b/5x5 <- inception_4b/5x5_reduce
I0403 14:02:07.759892 12551 net.cpp:399] inception_4b/5x5 -> inception_4b/5x5
I0403 14:02:07.761152 12551 net.cpp:141] Setting up inception_4b/5x5
I0403 14:02:07.761181 12551 net.cpp:148] Top shape: 24 64 14 14 (301056)
I0403 14:02:07.761198 12551 net.cpp:156] Memory required for data: 966976800
I0403 14:02:07.761217 12551 layer_factory.hpp:77] Creating layer inception_4b/relu_5x5
I0403 14:02:07.761236 12551 net.cpp:91] Creating Layer inception_4b/relu_5x5
I0403 14:02:07.761252 12551 net.cpp:425] inception_4b/relu_5x5 <- inception_4b/5x5
I0403 14:02:07.761273 12551 net.cpp:386] inception_4b/relu_5x5 -> inception_4b/5x5 (in-place)
I0403 14:02:07.761571 12551 net.cpp:141] Setting up inception_4b/relu_5x5
I0403 14:02:07.761600 12551 net.cpp:148] Top shape: 24 64 14 14 (301056)
I0403 14:02:07.761617 12551 net.cpp:156] Memory required for data: 968181024
I0403 14:02:07.761632 12551 layer_factory.hpp:77] Creating layer inception_4b/pool
I0403 14:02:07.761651 12551 net.cpp:91] Creating Layer inception_4b/pool
I0403 14:02:07.761667 12551 net.cpp:425] inception_4b/pool <- inception_4a/output_inception_4a/output_0_split_4
I0403 14:02:07.761688 12551 net.cpp:399] inception_4b/pool -> inception_4b/pool
I0403 14:02:07.761754 12551 net.cpp:141] Setting up inception_4b/pool
I0403 14:02:07.761780 12551 net.cpp:148] Top shape: 24 512 14 14 (2408448)
I0403 14:02:07.761796 12551 net.cpp:156] Memory required for data: 977814816
I0403 14:02:07.761811 12551 layer_factory.hpp:77] Creating layer inception_4b/pool_proj
I0403 14:02:07.761831 12551 net.cpp:91] Creating Layer inception_4b/pool_proj
I0403 14:02:07.761848 12551 net.cpp:425] inception_4b/pool_proj <- inception_4b/pool
I0403 14:02:07.761868 12551 net.cpp:399] inception_4b/pool_proj -> inception_4b/pool_proj
I0403 14:02:07.763104 12551 net.cpp:141] Setting up inception_4b/pool_proj
I0403 14:02:07.763133 12551 net.cpp:148] Top shape: 24 64 14 14 (301056)
I0403 14:02:07.763149 12551 net.cpp:156] Memory required for data: 979019040
I0403 14:02:07.763169 12551 layer_factory.hpp:77] Creating layer inception_4b/relu_pool_proj
I0403 14:02:07.763187 12551 net.cpp:91] Creating Layer inception_4b/relu_pool_proj
I0403 14:02:07.763207 12551 net.cpp:425] inception_4b/relu_pool_proj <- inception_4b/pool_proj
I0403 14:02:07.763226 12551 net.cpp:386] inception_4b/relu_pool_proj -> inception_4b/pool_proj (in-place)
I0403 14:02:07.763407 12551 net.cpp:141] Setting up inception_4b/relu_pool_proj
I0403 14:02:07.763432 12551 net.cpp:148] Top shape: 24 64 14 14 (301056)
I0403 14:02:07.763447 12551 net.cpp:156] Memory required for data: 980223264
I0403 14:02:07.763463 12551 layer_factory.hpp:77] Creating layer inception_4b/output
I0403 14:02:07.763483 12551 net.cpp:91] Creating Layer inception_4b/output
I0403 14:02:07.763497 12551 net.cpp:425] inception_4b/output <- inception_4b/1x1
I0403 14:02:07.763516 12551 net.cpp:425] inception_4b/output <- inception_4b/3x3
I0403 14:02:07.763535 12551 net.cpp:425] inception_4b/output <- inception_4b/5x5
I0403 14:02:07.763556 12551 net.cpp:425] inception_4b/output <- inception_4b/pool_proj
I0403 14:02:07.763576 12551 net.cpp:399] inception_4b/output -> inception_4b/output
I0403 14:02:07.763624 12551 net.cpp:141] Setting up inception_4b/output
I0403 14:02:07.763648 12551 net.cpp:148] Top shape: 24 512 14 14 (2408448)
I0403 14:02:07.763662 12551 net.cpp:156] Memory required for data: 989857056
I0403 14:02:07.763692 12551 layer_factory.hpp:77] Creating layer inception_4b/output_inception_4b/output_0_split
I0403 14:02:07.763711 12551 net.cpp:91] Creating Layer inception_4b/output_inception_4b/output_0_split
I0403 14:02:07.763726 12551 net.cpp:425] inception_4b/output_inception_4b/output_0_split <- inception_4b/output
I0403 14:02:07.763747 12551 net.cpp:399] inception_4b/output_inception_4b/output_0_split -> inception_4b/output_inception_4b/output_0_split_0
I0403 14:02:07.763768 12551 net.cpp:399] inception_4b/output_inception_4b/output_0_split -> inception_4b/output_inception_4b/output_0_split_1
I0403 14:02:07.763789 12551 net.cpp:399] inception_4b/output_inception_4b/output_0_split -> inception_4b/output_inception_4b/output_0_split_2
I0403 14:02:07.763809 12551 net.cpp:399] inception_4b/output_inception_4b/output_0_split -> inception_4b/output_inception_4b/output_0_split_3
I0403 14:02:07.763895 12551 net.cpp:141] Setting up inception_4b/output_inception_4b/output_0_split
I0403 14:02:07.763921 12551 net.cpp:148] Top shape: 24 512 14 14 (2408448)
I0403 14:02:07.763939 12551 net.cpp:148] Top shape: 24 512 14 14 (2408448)
I0403 14:02:07.763955 12551 net.cpp:148] Top shape: 24 512 14 14 (2408448)
I0403 14:02:07.763972 12551 net.cpp:148] Top shape: 24 512 14 14 (2408448)
I0403 14:02:07.763986 12551 net.cpp:156] Memory required for data: 1028392224
I0403 14:02:07.764001 12551 layer_factory.hpp:77] Creating layer inception_4c/1x1
I0403 14:02:07.764024 12551 net.cpp:91] Creating Layer inception_4c/1x1
I0403 14:02:07.764041 12551 net.cpp:425] inception_4c/1x1 <- inception_4b/output_inception_4b/output_0_split_0
I0403 14:02:07.764060 12551 net.cpp:399] inception_4c/1x1 -> inception_4c/1x1
I0403 14:02:07.765545 12551 net.cpp:141] Setting up inception_4c/1x1
I0403 14:02:07.765574 12551 net.cpp:148] Top shape: 24 128 14 14 (602112)
I0403 14:02:07.765591 12551 net.cpp:156] Memory required for data: 1030800672
I0403 14:02:07.765610 12551 layer_factory.hpp:77] Creating layer inception_4c/relu_1x1
I0403 14:02:07.765631 12551 net.cpp:91] Creating Layer inception_4c/relu_1x1
I0403 14:02:07.765650 12551 net.cpp:425] inception_4c/relu_1x1 <- inception_4c/1x1
I0403 14:02:07.765666 12551 net.cpp:386] inception_4c/relu_1x1 -> inception_4c/1x1 (in-place)
I0403 14:02:07.765851 12551 net.cpp:141] Setting up inception_4c/relu_1x1
I0403 14:02:07.765878 12551 net.cpp:148] Top shape: 24 128 14 14 (602112)
I0403 14:02:07.765894 12551 net.cpp:156] Memory required for data: 1033209120
I0403 14:02:07.765909 12551 layer_factory.hpp:77] Creating layer inception_4c/3x3_reduce
I0403 14:02:07.765933 12551 net.cpp:91] Creating Layer inception_4c/3x3_reduce
I0403 14:02:07.765951 12551 net.cpp:425] inception_4c/3x3_reduce <- inception_4b/output_inception_4b/output_0_split_1
I0403 14:02:07.765970 12551 net.cpp:399] inception_4c/3x3_reduce -> inception_4c/3x3_reduce
I0403 14:02:07.768019 12551 net.cpp:141] Setting up inception_4c/3x3_reduce
I0403 14:02:07.768052 12551 net.cpp:148] Top shape: 24 128 14 14 (602112)
I0403 14:02:07.768069 12551 net.cpp:156] Memory required for data: 1035617568
I0403 14:02:07.768088 12551 layer_factory.hpp:77] Creating layer inception_4c/relu_3x3_reduce
I0403 14:02:07.768107 12551 net.cpp:91] Creating Layer inception_4c/relu_3x3_reduce
I0403 14:02:07.768123 12551 net.cpp:425] inception_4c/relu_3x3_reduce <- inception_4c/3x3_reduce
I0403 14:02:07.768144 12551 net.cpp:386] inception_4c/relu_3x3_reduce -> inception_4c/3x3_reduce (in-place)
I0403 14:02:07.768446 12551 net.cpp:141] Setting up inception_4c/relu_3x3_reduce
I0403 14:02:07.768476 12551 net.cpp:148] Top shape: 24 128 14 14 (602112)
I0403 14:02:07.768492 12551 net.cpp:156] Memory required for data: 1038026016
I0403 14:02:07.768507 12551 layer_factory.hpp:77] Creating layer inception_4c/3x3
I0403 14:02:07.768532 12551 net.cpp:91] Creating Layer inception_4c/3x3
I0403 14:02:07.768556 12551 net.cpp:425] inception_4c/3x3 <- inception_4c/3x3_reduce
I0403 14:02:07.768579 12551 net.cpp:399] inception_4c/3x3 -> inception_4c/3x3
I0403 14:02:07.772405 12551 net.cpp:141] Setting up inception_4c/3x3
I0403 14:02:07.772450 12551 net.cpp:148] Top shape: 24 256 14 14 (1204224)
I0403 14:02:07.772467 12551 net.cpp:156] Memory required for data: 1042842912
I0403 14:02:07.772503 12551 layer_factory.hpp:77] Creating layer inception_4c/relu_3x3
I0403 14:02:07.772526 12551 net.cpp:91] Creating Layer inception_4c/relu_3x3
I0403 14:02:07.772547 12551 net.cpp:425] inception_4c/relu_3x3 <- inception_4c/3x3
I0403 14:02:07.772569 12551 net.cpp:386] inception_4c/relu_3x3 -> inception_4c/3x3 (in-place)
I0403 14:02:07.772764 12551 net.cpp:141] Setting up inception_4c/relu_3x3
I0403 14:02:07.772790 12551 net.cpp:148] Top shape: 24 256 14 14 (1204224)
I0403 14:02:07.772806 12551 net.cpp:156] Memory required for data: 1047659808
I0403 14:02:07.772822 12551 layer_factory.hpp:77] Creating layer inception_4c/5x5_reduce
I0403 14:02:07.772846 12551 net.cpp:91] Creating Layer inception_4c/5x5_reduce
I0403 14:02:07.772866 12551 net.cpp:425] inception_4c/5x5_reduce <- inception_4b/output_inception_4b/output_0_split_2
I0403 14:02:07.772887 12551 net.cpp:399] inception_4c/5x5_reduce -> inception_4c/5x5_reduce
I0403 14:02:07.774049 12551 net.cpp:141] Setting up inception_4c/5x5_reduce
I0403 14:02:07.774077 12551 net.cpp:148] Top shape: 24 24 14 14 (112896)
I0403 14:02:07.774093 12551 net.cpp:156] Memory required for data: 1048111392
I0403 14:02:07.774113 12551 layer_factory.hpp:77] Creating layer inception_4c/relu_5x5_reduce
I0403 14:02:07.774133 12551 net.cpp:91] Creating Layer inception_4c/relu_5x5_reduce
I0403 14:02:07.774150 12551 net.cpp:425] inception_4c/relu_5x5_reduce <- inception_4c/5x5_reduce
I0403 14:02:07.774170 12551 net.cpp:386] inception_4c/relu_5x5_reduce -> inception_4c/5x5_reduce (in-place)
I0403 14:02:07.774368 12551 net.cpp:141] Setting up inception_4c/relu_5x5_reduce
I0403 14:02:07.774394 12551 net.cpp:148] Top shape: 24 24 14 14 (112896)
I0403 14:02:07.774410 12551 net.cpp:156] Memory required for data: 1048562976
I0403 14:02:07.774425 12551 layer_factory.hpp:77] Creating layer inception_4c/5x5
I0403 14:02:07.774448 12551 net.cpp:91] Creating Layer inception_4c/5x5
I0403 14:02:07.774466 12551 net.cpp:425] inception_4c/5x5 <- inception_4c/5x5_reduce
I0403 14:02:07.774488 12551 net.cpp:399] inception_4c/5x5 -> inception_4c/5x5
I0403 14:02:07.775836 12551 net.cpp:141] Setting up inception_4c/5x5
I0403 14:02:07.775866 12551 net.cpp:148] Top shape: 24 64 14 14 (301056)
I0403 14:02:07.775882 12551 net.cpp:156] Memory required for data: 1049767200
I0403 14:02:07.775902 12551 layer_factory.hpp:77] Creating layer inception_4c/relu_5x5
I0403 14:02:07.775923 12551 net.cpp:91] Creating Layer inception_4c/relu_5x5
I0403 14:02:07.775941 12551 net.cpp:425] inception_4c/relu_5x5 <- inception_4c/5x5
I0403 14:02:07.775959 12551 net.cpp:386] inception_4c/relu_5x5 -> inception_4c/5x5 (in-place)
I0403 14:02:07.776270 12551 net.cpp:141] Setting up inception_4c/relu_5x5
I0403 14:02:07.776298 12551 net.cpp:148] Top shape: 24 64 14 14 (301056)
I0403 14:02:07.776314 12551 net.cpp:156] Memory required for data: 1050971424
I0403 14:02:07.776329 12551 layer_factory.hpp:77] Creating layer inception_4c/pool
I0403 14:02:07.776350 12551 net.cpp:91] Creating Layer inception_4c/pool
I0403 14:02:07.776368 12551 net.cpp:425] inception_4c/pool <- inception_4b/output_inception_4b/output_0_split_3
I0403 14:02:07.776391 12551 net.cpp:399] inception_4c/pool -> inception_4c/pool
I0403 14:02:07.776463 12551 net.cpp:141] Setting up inception_4c/pool
I0403 14:02:07.776489 12551 net.cpp:148] Top shape: 24 512 14 14 (2408448)
I0403 14:02:07.776504 12551 net.cpp:156] Memory required for data: 1060605216
I0403 14:02:07.776520 12551 layer_factory.hpp:77] Creating layer inception_4c/pool_proj
I0403 14:02:07.776547 12551 net.cpp:91] Creating Layer inception_4c/pool_proj
I0403 14:02:07.776566 12551 net.cpp:425] inception_4c/pool_proj <- inception_4c/pool
I0403 14:02:07.776588 12551 net.cpp:399] inception_4c/pool_proj -> inception_4c/pool_proj
I0403 14:02:07.777891 12551 net.cpp:141] Setting up inception_4c/pool_proj
I0403 14:02:07.777921 12551 net.cpp:148] Top shape: 24 64 14 14 (301056)
I0403 14:02:07.777952 12551 net.cpp:156] Memory required for data: 1061809440
I0403 14:02:07.777973 12551 layer_factory.hpp:77] Creating layer inception_4c/relu_pool_proj
I0403 14:02:07.777992 12551 net.cpp:91] Creating Layer inception_4c/relu_pool_proj
I0403 14:02:07.778008 12551 net.cpp:425] inception_4c/relu_pool_proj <- inception_4c/pool_proj
I0403 14:02:07.778030 12551 net.cpp:386] inception_4c/relu_pool_proj -> inception_4c/pool_proj (in-place)
I0403 14:02:07.778224 12551 net.cpp:141] Setting up inception_4c/relu_pool_proj
I0403 14:02:07.778250 12551 net.cpp:148] Top shape: 24 64 14 14 (301056)
I0403 14:02:07.778270 12551 net.cpp:156] Memory required for data: 1063013664
I0403 14:02:07.778285 12551 layer_factory.hpp:77] Creating layer inception_4c/output
I0403 14:02:07.778303 12551 net.cpp:91] Creating Layer inception_4c/output
I0403 14:02:07.778319 12551 net.cpp:425] inception_4c/output <- inception_4c/1x1
I0403 14:02:07.778337 12551 net.cpp:425] inception_4c/output <- inception_4c/3x3
I0403 14:02:07.778353 12551 net.cpp:425] inception_4c/output <- inception_4c/5x5
I0403 14:02:07.778370 12551 net.cpp:425] inception_4c/output <- inception_4c/pool_proj
I0403 14:02:07.778390 12551 net.cpp:399] inception_4c/output -> inception_4c/output
I0403 14:02:07.778444 12551 net.cpp:141] Setting up inception_4c/output
I0403 14:02:07.778470 12551 net.cpp:148] Top shape: 24 512 14 14 (2408448)
I0403 14:02:07.778486 12551 net.cpp:156] Memory required for data: 1072647456
I0403 14:02:07.778501 12551 layer_factory.hpp:77] Creating layer inception_4c/output_inception_4c/output_0_split
I0403 14:02:07.778519 12551 net.cpp:91] Creating Layer inception_4c/output_inception_4c/output_0_split
I0403 14:02:07.778540 12551 net.cpp:425] inception_4c/output_inception_4c/output_0_split <- inception_4c/output
I0403 14:02:07.778563 12551 net.cpp:399] inception_4c/output_inception_4c/output_0_split -> inception_4c/output_inception_4c/output_0_split_0
I0403 14:02:07.778587 12551 net.cpp:399] inception_4c/output_inception_4c/output_0_split -> inception_4c/output_inception_4c/output_0_split_1
I0403 14:02:07.778609 12551 net.cpp:399] inception_4c/output_inception_4c/output_0_split -> inception_4c/output_inception_4c/output_0_split_2
I0403 14:02:07.778630 12551 net.cpp:399] inception_4c/output_inception_4c/output_0_split -> inception_4c/output_inception_4c/output_0_split_3
I0403 14:02:07.778723 12551 net.cpp:141] Setting up inception_4c/output_inception_4c/output_0_split
I0403 14:02:07.778749 12551 net.cpp:148] Top shape: 24 512 14 14 (2408448)
I0403 14:02:07.778769 12551 net.cpp:148] Top shape: 24 512 14 14 (2408448)
I0403 14:02:07.778784 12551 net.cpp:148] Top shape: 24 512 14 14 (2408448)
I0403 14:02:07.778801 12551 net.cpp:148] Top shape: 24 512 14 14 (2408448)
I0403 14:02:07.778816 12551 net.cpp:156] Memory required for data: 1111182624
I0403 14:02:07.778831 12551 layer_factory.hpp:77] Creating layer inception_4d/1x1
I0403 14:02:07.778854 12551 net.cpp:91] Creating Layer inception_4d/1x1
I0403 14:02:07.778872 12551 net.cpp:425] inception_4d/1x1 <- inception_4c/output_inception_4c/output_0_split_0
I0403 14:02:07.778892 12551 net.cpp:399] inception_4d/1x1 -> inception_4d/1x1
I0403 14:02:07.780356 12551 net.cpp:141] Setting up inception_4d/1x1
I0403 14:02:07.780385 12551 net.cpp:148] Top shape: 24 112 14 14 (526848)
I0403 14:02:07.780402 12551 net.cpp:156] Memory required for data: 1113290016
I0403 14:02:07.780421 12551 layer_factory.hpp:77] Creating layer inception_4d/relu_1x1
I0403 14:02:07.780442 12551 net.cpp:91] Creating Layer inception_4d/relu_1x1
I0403 14:02:07.780460 12551 net.cpp:425] inception_4d/relu_1x1 <- inception_4d/1x1
I0403 14:02:07.780478 12551 net.cpp:386] inception_4d/relu_1x1 -> inception_4d/1x1 (in-place)
I0403 14:02:07.780683 12551 net.cpp:141] Setting up inception_4d/relu_1x1
I0403 14:02:07.780709 12551 net.cpp:148] Top shape: 24 112 14 14 (526848)
I0403 14:02:07.780725 12551 net.cpp:156] Memory required for data: 1115397408
I0403 14:02:07.780740 12551 layer_factory.hpp:77] Creating layer inception_4d/3x3_reduce
I0403 14:02:07.780781 12551 net.cpp:91] Creating Layer inception_4d/3x3_reduce
I0403 14:02:07.780800 12551 net.cpp:425] inception_4d/3x3_reduce <- inception_4c/output_inception_4c/output_0_split_1
I0403 14:02:07.780823 12551 net.cpp:399] inception_4d/3x3_reduce -> inception_4d/3x3_reduce
I0403 14:02:07.782429 12551 net.cpp:141] Setting up inception_4d/3x3_reduce
I0403 14:02:07.782459 12551 net.cpp:148] Top shape: 24 144 14 14 (677376)
I0403 14:02:07.782474 12551 net.cpp:156] Memory required for data: 1118106912
I0403 14:02:07.782495 12551 layer_factory.hpp:77] Creating layer inception_4d/relu_3x3_reduce
I0403 14:02:07.782516 12551 net.cpp:91] Creating Layer inception_4d/relu_3x3_reduce
I0403 14:02:07.782533 12551 net.cpp:425] inception_4d/relu_3x3_reduce <- inception_4d/3x3_reduce
I0403 14:02:07.782557 12551 net.cpp:386] inception_4d/relu_3x3_reduce -> inception_4d/3x3_reduce (in-place)
I0403 14:02:07.782863 12551 net.cpp:141] Setting up inception_4d/relu_3x3_reduce
I0403 14:02:07.782891 12551 net.cpp:148] Top shape: 24 144 14 14 (677376)
I0403 14:02:07.782907 12551 net.cpp:156] Memory required for data: 1120816416
I0403 14:02:07.782923 12551 layer_factory.hpp:77] Creating layer inception_4d/3x3
I0403 14:02:07.782946 12551 net.cpp:91] Creating Layer inception_4d/3x3
I0403 14:02:07.782964 12551 net.cpp:425] inception_4d/3x3 <- inception_4d/3x3_reduce
I0403 14:02:07.782986 12551 net.cpp:399] inception_4d/3x3 -> inception_4d/3x3
I0403 14:02:07.787477 12551 net.cpp:141] Setting up inception_4d/3x3
I0403 14:02:07.787508 12551 net.cpp:148] Top shape: 24 288 14 14 (1354752)
I0403 14:02:07.787525 12551 net.cpp:156] Memory required for data: 1126235424
I0403 14:02:07.787549 12551 layer_factory.hpp:77] Creating layer inception_4d/relu_3x3
I0403 14:02:07.787570 12551 net.cpp:91] Creating Layer inception_4d/relu_3x3
I0403 14:02:07.787586 12551 net.cpp:425] inception_4d/relu_3x3 <- inception_4d/3x3
I0403 14:02:07.787605 12551 net.cpp:386] inception_4d/relu_3x3 -> inception_4d/3x3 (in-place)
I0403 14:02:07.787796 12551 net.cpp:141] Setting up inception_4d/relu_3x3
I0403 14:02:07.787822 12551 net.cpp:148] Top shape: 24 288 14 14 (1354752)
I0403 14:02:07.787837 12551 net.cpp:156] Memory required for data: 1131654432
I0403 14:02:07.787853 12551 layer_factory.hpp:77] Creating layer inception_4d/5x5_reduce
I0403 14:02:07.787874 12551 net.cpp:91] Creating Layer inception_4d/5x5_reduce
I0403 14:02:07.787892 12551 net.cpp:425] inception_4d/5x5_reduce <- inception_4c/output_inception_4c/output_0_split_2
I0403 14:02:07.787915 12551 net.cpp:399] inception_4d/5x5_reduce -> inception_4d/5x5_reduce
I0403 14:02:07.789103 12551 net.cpp:141] Setting up inception_4d/5x5_reduce
I0403 14:02:07.789134 12551 net.cpp:148] Top shape: 24 32 14 14 (150528)
I0403 14:02:07.789150 12551 net.cpp:156] Memory required for data: 1132256544
I0403 14:02:07.789170 12551 layer_factory.hpp:77] Creating layer inception_4d/relu_5x5_reduce
I0403 14:02:07.789187 12551 net.cpp:91] Creating Layer inception_4d/relu_5x5_reduce
I0403 14:02:07.789204 12551 net.cpp:425] inception_4d/relu_5x5_reduce <- inception_4d/5x5_reduce
I0403 14:02:07.789223 12551 net.cpp:386] inception_4d/relu_5x5_reduce -> inception_4d/5x5_reduce (in-place)
I0403 14:02:07.789417 12551 net.cpp:141] Setting up inception_4d/relu_5x5_reduce
I0403 14:02:07.789443 12551 net.cpp:148] Top shape: 24 32 14 14 (150528)
I0403 14:02:07.789458 12551 net.cpp:156] Memory required for data: 1132858656
I0403 14:02:07.789472 12551 layer_factory.hpp:77] Creating layer inception_4d/5x5
I0403 14:02:07.789495 12551 net.cpp:91] Creating Layer inception_4d/5x5
I0403 14:02:07.789512 12551 net.cpp:425] inception_4d/5x5 <- inception_4d/5x5_reduce
I0403 14:02:07.789535 12551 net.cpp:399] inception_4d/5x5 -> inception_4d/5x5
I0403 14:02:07.791080 12551 net.cpp:141] Setting up inception_4d/5x5
I0403 14:02:07.791110 12551 net.cpp:148] Top shape: 24 64 14 14 (301056)
I0403 14:02:07.791126 12551 net.cpp:156] Memory required for data: 1134062880
I0403 14:02:07.791144 12551 layer_factory.hpp:77] Creating layer inception_4d/relu_5x5
I0403 14:02:07.791179 12551 net.cpp:91] Creating Layer inception_4d/relu_5x5
I0403 14:02:07.791196 12551 net.cpp:425] inception_4d/relu_5x5 <- inception_4d/5x5
I0403 14:02:07.791216 12551 net.cpp:386] inception_4d/relu_5x5 -> inception_4d/5x5 (in-place)
I0403 14:02:07.791529 12551 net.cpp:141] Setting up inception_4d/relu_5x5
I0403 14:02:07.791560 12551 net.cpp:148] Top shape: 24 64 14 14 (301056)
I0403 14:02:07.791576 12551 net.cpp:156] Memory required for data: 1135267104
I0403 14:02:07.791591 12551 layer_factory.hpp:77] Creating layer inception_4d/pool
I0403 14:02:07.791610 12551 net.cpp:91] Creating Layer inception_4d/pool
I0403 14:02:07.791625 12551 net.cpp:425] inception_4d/pool <- inception_4c/output_inception_4c/output_0_split_3
I0403 14:02:07.791646 12551 net.cpp:399] inception_4d/pool -> inception_4d/pool
I0403 14:02:07.791718 12551 net.cpp:141] Setting up inception_4d/pool
I0403 14:02:07.791743 12551 net.cpp:148] Top shape: 24 512 14 14 (2408448)
I0403 14:02:07.791757 12551 net.cpp:156] Memory required for data: 1144900896
I0403 14:02:07.791771 12551 layer_factory.hpp:77] Creating layer inception_4d/pool_proj
I0403 14:02:07.791795 12551 net.cpp:91] Creating Layer inception_4d/pool_proj
I0403 14:02:07.791813 12551 net.cpp:425] inception_4d/pool_proj <- inception_4d/pool
I0403 14:02:07.791832 12551 net.cpp:399] inception_4d/pool_proj -> inception_4d/pool_proj
I0403 14:02:07.793658 12551 net.cpp:141] Setting up inception_4d/pool_proj
I0403 14:02:07.793690 12551 net.cpp:148] Top shape: 24 64 14 14 (301056)
I0403 14:02:07.793707 12551 net.cpp:156] Memory required for data: 1146105120
I0403 14:02:07.793726 12551 layer_factory.hpp:77] Creating layer inception_4d/relu_pool_proj
I0403 14:02:07.793745 12551 net.cpp:91] Creating Layer inception_4d/relu_pool_proj
I0403 14:02:07.793761 12551 net.cpp:425] inception_4d/relu_pool_proj <- inception_4d/pool_proj
I0403 14:02:07.793779 12551 net.cpp:386] inception_4d/relu_pool_proj -> inception_4d/pool_proj (in-place)
I0403 14:02:07.793972 12551 net.cpp:141] Setting up inception_4d/relu_pool_proj
I0403 14:02:07.793998 12551 net.cpp:148] Top shape: 24 64 14 14 (301056)
I0403 14:02:07.794013 12551 net.cpp:156] Memory required for data: 1147309344
I0403 14:02:07.794028 12551 layer_factory.hpp:77] Creating layer inception_4d/output
I0403 14:02:07.794045 12551 net.cpp:91] Creating Layer inception_4d/output
I0403 14:02:07.794061 12551 net.cpp:425] inception_4d/output <- inception_4d/1x1
I0403 14:02:07.794078 12551 net.cpp:425] inception_4d/output <- inception_4d/3x3
I0403 14:02:07.794095 12551 net.cpp:425] inception_4d/output <- inception_4d/5x5
I0403 14:02:07.794111 12551 net.cpp:425] inception_4d/output <- inception_4d/pool_proj
I0403 14:02:07.794129 12551 net.cpp:399] inception_4d/output -> inception_4d/output
I0403 14:02:07.794178 12551 net.cpp:141] Setting up inception_4d/output
I0403 14:02:07.794204 12551 net.cpp:148] Top shape: 24 528 14 14 (2483712)
I0403 14:02:07.794220 12551 net.cpp:156] Memory required for data: 1157244192
I0403 14:02:07.794235 12551 layer_factory.hpp:77] Creating layer inception_4d/output_inception_4d/output_0_split
I0403 14:02:07.794253 12551 net.cpp:91] Creating Layer inception_4d/output_inception_4d/output_0_split
I0403 14:02:07.794270 12551 net.cpp:425] inception_4d/output_inception_4d/output_0_split <- inception_4d/output
I0403 14:02:07.794291 12551 net.cpp:399] inception_4d/output_inception_4d/output_0_split -> inception_4d/output_inception_4d/output_0_split_0
I0403 14:02:07.794312 12551 net.cpp:399] inception_4d/output_inception_4d/output_0_split -> inception_4d/output_inception_4d/output_0_split_1
I0403 14:02:07.794334 12551 net.cpp:399] inception_4d/output_inception_4d/output_0_split -> inception_4d/output_inception_4d/output_0_split_2
I0403 14:02:07.794355 12551 net.cpp:399] inception_4d/output_inception_4d/output_0_split -> inception_4d/output_inception_4d/output_0_split_3
I0403 14:02:07.794376 12551 net.cpp:399] inception_4d/output_inception_4d/output_0_split -> inception_4d/output_inception_4d/output_0_split_4
I0403 14:02:07.794482 12551 net.cpp:141] Setting up inception_4d/output_inception_4d/output_0_split
I0403 14:02:07.794518 12551 net.cpp:148] Top shape: 24 528 14 14 (2483712)
I0403 14:02:07.794546 12551 net.cpp:148] Top shape: 24 528 14 14 (2483712)
I0403 14:02:07.794567 12551 net.cpp:148] Top shape: 24 528 14 14 (2483712)
I0403 14:02:07.794584 12551 net.cpp:148] Top shape: 24 528 14 14 (2483712)
I0403 14:02:07.794600 12551 net.cpp:148] Top shape: 24 528 14 14 (2483712)
I0403 14:02:07.794613 12551 net.cpp:156] Memory required for data: 1206918432
I0403 14:02:07.794628 12551 layer_factory.hpp:77] Creating layer loss2/ave_pool
I0403 14:02:07.794648 12551 net.cpp:91] Creating Layer loss2/ave_pool
I0403 14:02:07.794667 12551 net.cpp:425] loss2/ave_pool <- inception_4d/output_inception_4d/output_0_split_0
I0403 14:02:07.794685 12551 net.cpp:399] loss2/ave_pool -> loss2/ave_pool
I0403 14:02:07.795008 12551 net.cpp:141] Setting up loss2/ave_pool
I0403 14:02:07.795037 12551 net.cpp:148] Top shape: 24 528 4 4 (202752)
I0403 14:02:07.795054 12551 net.cpp:156] Memory required for data: 1207729440
I0403 14:02:07.795070 12551 layer_factory.hpp:77] Creating layer loss2/conv
I0403 14:02:07.795092 12551 net.cpp:91] Creating Layer loss2/conv
I0403 14:02:07.795110 12551 net.cpp:425] loss2/conv <- loss2/ave_pool
I0403 14:02:07.795130 12551 net.cpp:399] loss2/conv -> loss2/conv
I0403 14:02:07.797096 12551 net.cpp:141] Setting up loss2/conv
I0403 14:02:07.797125 12551 net.cpp:148] Top shape: 24 128 4 4 (49152)
I0403 14:02:07.797142 12551 net.cpp:156] Memory required for data: 1207926048
I0403 14:02:07.797163 12551 layer_factory.hpp:77] Creating layer loss2/relu_conv
I0403 14:02:07.797183 12551 net.cpp:91] Creating Layer loss2/relu_conv
I0403 14:02:07.797200 12551 net.cpp:425] loss2/relu_conv <- loss2/conv
I0403 14:02:07.797217 12551 net.cpp:386] loss2/relu_conv -> loss2/conv (in-place)
I0403 14:02:07.797511 12551 net.cpp:141] Setting up loss2/relu_conv
I0403 14:02:07.797543 12551 net.cpp:148] Top shape: 24 128 4 4 (49152)
I0403 14:02:07.797560 12551 net.cpp:156] Memory required for data: 1208122656
I0403 14:02:07.797575 12551 layer_factory.hpp:77] Creating layer loss2/fc
I0403 14:02:07.797598 12551 net.cpp:91] Creating Layer loss2/fc
I0403 14:02:07.797616 12551 net.cpp:425] loss2/fc <- loss2/conv
I0403 14:02:07.797636 12551 net.cpp:399] loss2/fc -> loss2/fc
I0403 14:02:07.815899 12551 net.cpp:141] Setting up loss2/fc
I0403 14:02:07.815949 12551 net.cpp:148] Top shape: 24 1024 (24576)
I0403 14:02:07.815966 12551 net.cpp:156] Memory required for data: 1208220960
I0403 14:02:07.815985 12551 layer_factory.hpp:77] Creating layer loss2/relu_fc
I0403 14:02:07.816006 12551 net.cpp:91] Creating Layer loss2/relu_fc
I0403 14:02:07.816025 12551 net.cpp:425] loss2/relu_fc <- loss2/fc
I0403 14:02:07.816045 12551 net.cpp:386] loss2/relu_fc -> loss2/fc (in-place)
I0403 14:02:07.816390 12551 net.cpp:141] Setting up loss2/relu_fc
I0403 14:02:07.816419 12551 net.cpp:148] Top shape: 24 1024 (24576)
I0403 14:02:07.816437 12551 net.cpp:156] Memory required for data: 1208319264
I0403 14:02:07.816452 12551 layer_factory.hpp:77] Creating layer loss2/drop_fc
I0403 14:02:07.816470 12551 net.cpp:91] Creating Layer loss2/drop_fc
I0403 14:02:07.816486 12551 net.cpp:425] loss2/drop_fc <- loss2/fc
I0403 14:02:07.816506 12551 net.cpp:386] loss2/drop_fc -> loss2/fc (in-place)
I0403 14:02:07.816562 12551 net.cpp:141] Setting up loss2/drop_fc
I0403 14:02:07.816586 12551 net.cpp:148] Top shape: 24 1024 (24576)
I0403 14:02:07.816601 12551 net.cpp:156] Memory required for data: 1208417568
I0403 14:02:07.816617 12551 layer_factory.hpp:77] Creating layer loss2/classifier_plantvillage
I0403 14:02:07.816642 12551 net.cpp:91] Creating Layer loss2/classifier_plantvillage
I0403 14:02:07.816658 12551 net.cpp:425] loss2/classifier_plantvillage <- loss2/fc
I0403 14:02:07.816680 12551 net.cpp:399] loss2/classifier_plantvillage -> loss2/classifier_plantvillage
I0403 14:02:07.817101 12551 net.cpp:141] Setting up loss2/classifier_plantvillage
I0403 14:02:07.817127 12551 net.cpp:148] Top shape: 24 38 (912)
I0403 14:02:07.817169 12551 net.cpp:156] Memory required for data: 1208421216
I0403 14:02:07.817189 12551 layer_factory.hpp:77] Creating layer loss2/classifier_plantvillage_loss2/classifier_plantvillage_0_split
I0403 14:02:07.817211 12551 net.cpp:91] Creating Layer loss2/classifier_plantvillage_loss2/classifier_plantvillage_0_split
I0403 14:02:07.817229 12551 net.cpp:425] loss2/classifier_plantvillage_loss2/classifier_plantvillage_0_split <- loss2/classifier_plantvillage
I0403 14:02:07.817247 12551 net.cpp:399] loss2/classifier_plantvillage_loss2/classifier_plantvillage_0_split -> loss2/classifier_plantvillage_loss2/classifier_plantvillage_0_split_0
I0403 14:02:07.817270 12551 net.cpp:399] loss2/classifier_plantvillage_loss2/classifier_plantvillage_0_split -> loss2/classifier_plantvillage_loss2/classifier_plantvillage_0_split_1
I0403 14:02:07.817291 12551 net.cpp:399] loss2/classifier_plantvillage_loss2/classifier_plantvillage_0_split -> loss2/classifier_plantvillage_loss2/classifier_plantvillage_0_split_2
I0403 14:02:07.817373 12551 net.cpp:141] Setting up loss2/classifier_plantvillage_loss2/classifier_plantvillage_0_split
I0403 14:02:07.817396 12551 net.cpp:148] Top shape: 24 38 (912)
I0403 14:02:07.817414 12551 net.cpp:148] Top shape: 24 38 (912)
I0403 14:02:07.817430 12551 net.cpp:148] Top shape: 24 38 (912)
I0403 14:02:07.817443 12551 net.cpp:156] Memory required for data: 1208432160
I0403 14:02:07.817457 12551 layer_factory.hpp:77] Creating layer inception_4e/1x1
I0403 14:02:07.817479 12551 net.cpp:91] Creating Layer inception_4e/1x1
I0403 14:02:07.817497 12551 net.cpp:425] inception_4e/1x1 <- inception_4d/output_inception_4d/output_0_split_1
I0403 14:02:07.817519 12551 net.cpp:399] inception_4e/1x1 -> inception_4e/1x1
I0403 14:02:07.819447 12551 net.cpp:141] Setting up inception_4e/1x1
I0403 14:02:07.819475 12551 net.cpp:148] Top shape: 24 256 14 14 (1204224)
I0403 14:02:07.819492 12551 net.cpp:156] Memory required for data: 1213249056
I0403 14:02:07.819511 12551 layer_factory.hpp:77] Creating layer inception_4e/relu_1x1
I0403 14:02:07.819531 12551 net.cpp:91] Creating Layer inception_4e/relu_1x1
I0403 14:02:07.819555 12551 net.cpp:425] inception_4e/relu_1x1 <- inception_4e/1x1
I0403 14:02:07.819573 12551 net.cpp:386] inception_4e/relu_1x1 -> inception_4e/1x1 (in-place)
I0403 14:02:07.819882 12551 net.cpp:141] Setting up inception_4e/relu_1x1
I0403 14:02:07.819910 12551 net.cpp:148] Top shape: 24 256 14 14 (1204224)
I0403 14:02:07.819926 12551 net.cpp:156] Memory required for data: 1218065952
I0403 14:02:07.819941 12551 layer_factory.hpp:77] Creating layer inception_4e/3x3_reduce
I0403 14:02:07.819962 12551 net.cpp:91] Creating Layer inception_4e/3x3_reduce
I0403 14:02:07.819980 12551 net.cpp:425] inception_4e/3x3_reduce <- inception_4d/output_inception_4d/output_0_split_2
I0403 14:02:07.820003 12551 net.cpp:399] inception_4e/3x3_reduce -> inception_4e/3x3_reduce
I0403 14:02:07.822224 12551 net.cpp:141] Setting up inception_4e/3x3_reduce
I0403 14:02:07.822253 12551 net.cpp:148] Top shape: 24 160 14 14 (752640)
I0403 14:02:07.822273 12551 net.cpp:156] Memory required for data: 1221076512
I0403 14:02:07.822291 12551 layer_factory.hpp:77] Creating layer inception_4e/relu_3x3_reduce
I0403 14:02:07.822314 12551 net.cpp:91] Creating Layer inception_4e/relu_3x3_reduce
I0403 14:02:07.822330 12551 net.cpp:425] inception_4e/relu_3x3_reduce <- inception_4e/3x3_reduce
I0403 14:02:07.822347 12551 net.cpp:386] inception_4e/relu_3x3_reduce -> inception_4e/3x3_reduce (in-place)
I0403 14:02:07.822545 12551 net.cpp:141] Setting up inception_4e/relu_3x3_reduce
I0403 14:02:07.822569 12551 net.cpp:148] Top shape: 24 160 14 14 (752640)
I0403 14:02:07.822585 12551 net.cpp:156] Memory required for data: 1224087072
I0403 14:02:07.822600 12551 layer_factory.hpp:77] Creating layer inception_4e/3x3
I0403 14:02:07.822623 12551 net.cpp:91] Creating Layer inception_4e/3x3
I0403 14:02:07.822640 12551 net.cpp:425] inception_4e/3x3 <- inception_4e/3x3_reduce
I0403 14:02:07.822662 12551 net.cpp:399] inception_4e/3x3 -> inception_4e/3x3
I0403 14:02:07.828019 12551 net.cpp:141] Setting up inception_4e/3x3
I0403 14:02:07.828064 12551 net.cpp:148] Top shape: 24 320 14 14 (1505280)
I0403 14:02:07.828083 12551 net.cpp:156] Memory required for data: 1230108192
I0403 14:02:07.828101 12551 layer_factory.hpp:77] Creating layer inception_4e/relu_3x3
I0403 14:02:07.828124 12551 net.cpp:91] Creating Layer inception_4e/relu_3x3
I0403 14:02:07.828142 12551 net.cpp:425] inception_4e/relu_3x3 <- inception_4e/3x3
I0403 14:02:07.828161 12551 net.cpp:386] inception_4e/relu_3x3 -> inception_4e/3x3 (in-place)
I0403 14:02:07.828480 12551 net.cpp:141] Setting up inception_4e/relu_3x3
I0403 14:02:07.828511 12551 net.cpp:148] Top shape: 24 320 14 14 (1505280)
I0403 14:02:07.828528 12551 net.cpp:156] Memory required for data: 1236129312
I0403 14:02:07.828562 12551 layer_factory.hpp:77] Creating layer inception_4e/5x5_reduce
I0403 14:02:07.828588 12551 net.cpp:91] Creating Layer inception_4e/5x5_reduce
I0403 14:02:07.828608 12551 net.cpp:425] inception_4e/5x5_reduce <- inception_4d/output_inception_4d/output_0_split_3
I0403 14:02:07.828627 12551 net.cpp:399] inception_4e/5x5_reduce -> inception_4e/5x5_reduce
I0403 14:02:07.829777 12551 net.cpp:141] Setting up inception_4e/5x5_reduce
I0403 14:02:07.829805 12551 net.cpp:148] Top shape: 24 32 14 14 (150528)
I0403 14:02:07.829820 12551 net.cpp:156] Memory required for data: 1236731424
I0403 14:02:07.829839 12551 layer_factory.hpp:77] Creating layer inception_4e/relu_5x5_reduce
I0403 14:02:07.829857 12551 net.cpp:91] Creating Layer inception_4e/relu_5x5_reduce
I0403 14:02:07.829874 12551 net.cpp:425] inception_4e/relu_5x5_reduce <- inception_4e/5x5_reduce
I0403 14:02:07.829895 12551 net.cpp:386] inception_4e/relu_5x5_reduce -> inception_4e/5x5_reduce (in-place)
I0403 14:02:07.830201 12551 net.cpp:141] Setting up inception_4e/relu_5x5_reduce
I0403 14:02:07.830229 12551 net.cpp:148] Top shape: 24 32 14 14 (150528)
I0403 14:02:07.830245 12551 net.cpp:156] Memory required for data: 1237333536
I0403 14:02:07.830262 12551 layer_factory.hpp:77] Creating layer inception_4e/5x5
I0403 14:02:07.830304 12551 net.cpp:91] Creating Layer inception_4e/5x5
I0403 14:02:07.830324 12551 net.cpp:425] inception_4e/5x5 <- inception_4e/5x5_reduce
I0403 14:02:07.830343 12551 net.cpp:399] inception_4e/5x5 -> inception_4e/5x5
I0403 14:02:07.832294 12551 net.cpp:141] Setting up inception_4e/5x5
I0403 14:02:07.832322 12551 net.cpp:148] Top shape: 24 128 14 14 (602112)
I0403 14:02:07.832340 12551 net.cpp:156] Memory required for data: 1239741984
I0403 14:02:07.832358 12551 layer_factory.hpp:77] Creating layer inception_4e/relu_5x5
I0403 14:02:07.832377 12551 net.cpp:91] Creating Layer inception_4e/relu_5x5
I0403 14:02:07.832394 12551 net.cpp:425] inception_4e/relu_5x5 <- inception_4e/5x5
I0403 14:02:07.832413 12551 net.cpp:386] inception_4e/relu_5x5 -> inception_4e/5x5 (in-place)
I0403 14:02:07.832623 12551 net.cpp:141] Setting up inception_4e/relu_5x5
I0403 14:02:07.832649 12551 net.cpp:148] Top shape: 24 128 14 14 (602112)
I0403 14:02:07.832664 12551 net.cpp:156] Memory required for data: 1242150432
I0403 14:02:07.832680 12551 layer_factory.hpp:77] Creating layer inception_4e/pool
I0403 14:02:07.832701 12551 net.cpp:91] Creating Layer inception_4e/pool
I0403 14:02:07.832718 12551 net.cpp:425] inception_4e/pool <- inception_4d/output_inception_4d/output_0_split_4
I0403 14:02:07.832737 12551 net.cpp:399] inception_4e/pool -> inception_4e/pool
I0403 14:02:07.832811 12551 net.cpp:141] Setting up inception_4e/pool
I0403 14:02:07.832835 12551 net.cpp:148] Top shape: 24 528 14 14 (2483712)
I0403 14:02:07.832849 12551 net.cpp:156] Memory required for data: 1252085280
I0403 14:02:07.832877 12551 layer_factory.hpp:77] Creating layer inception_4e/pool_proj
I0403 14:02:07.832901 12551 net.cpp:91] Creating Layer inception_4e/pool_proj
I0403 14:02:07.832921 12551 net.cpp:425] inception_4e/pool_proj <- inception_4e/pool
I0403 14:02:07.832947 12551 net.cpp:399] inception_4e/pool_proj -> inception_4e/pool_proj
I0403 14:02:07.834532 12551 net.cpp:141] Setting up inception_4e/pool_proj
I0403 14:02:07.834585 12551 net.cpp:148] Top shape: 24 128 14 14 (602112)
I0403 14:02:07.834604 12551 net.cpp:156] Memory required for data: 1254493728
I0403 14:02:07.834622 12551 layer_factory.hpp:77] Creating layer inception_4e/relu_pool_proj
I0403 14:02:07.834641 12551 net.cpp:91] Creating Layer inception_4e/relu_pool_proj
I0403 14:02:07.834657 12551 net.cpp:425] inception_4e/relu_pool_proj <- inception_4e/pool_proj
I0403 14:02:07.834677 12551 net.cpp:386] inception_4e/relu_pool_proj -> inception_4e/pool_proj (in-place)
I0403 14:02:07.835001 12551 net.cpp:141] Setting up inception_4e/relu_pool_proj
I0403 14:02:07.835043 12551 net.cpp:148] Top shape: 24 128 14 14 (602112)
I0403 14:02:07.835059 12551 net.cpp:156] Memory required for data: 1256902176
I0403 14:02:07.835074 12551 layer_factory.hpp:77] Creating layer inception_4e/output
I0403 14:02:07.835093 12551 net.cpp:91] Creating Layer inception_4e/output
I0403 14:02:07.835108 12551 net.cpp:425] inception_4e/output <- inception_4e/1x1
I0403 14:02:07.835125 12551 net.cpp:425] inception_4e/output <- inception_4e/3x3
I0403 14:02:07.835141 12551 net.cpp:425] inception_4e/output <- inception_4e/5x5
I0403 14:02:07.835157 12551 net.cpp:425] inception_4e/output <- inception_4e/pool_proj
I0403 14:02:07.835175 12551 net.cpp:399] inception_4e/output -> inception_4e/output
I0403 14:02:07.835230 12551 net.cpp:141] Setting up inception_4e/output
I0403 14:02:07.835254 12551 net.cpp:148] Top shape: 24 832 14 14 (3913728)
I0403 14:02:07.835269 12551 net.cpp:156] Memory required for data: 1272557088
I0403 14:02:07.835284 12551 layer_factory.hpp:77] Creating layer pool4/3x3_s2
I0403 14:02:07.835305 12551 net.cpp:91] Creating Layer pool4/3x3_s2
I0403 14:02:07.835322 12551 net.cpp:425] pool4/3x3_s2 <- inception_4e/output
I0403 14:02:07.835340 12551 net.cpp:399] pool4/3x3_s2 -> pool4/3x3_s2
I0403 14:02:07.835412 12551 net.cpp:141] Setting up pool4/3x3_s2
I0403 14:02:07.835435 12551 net.cpp:148] Top shape: 24 832 7 7 (978432)
I0403 14:02:07.835450 12551 net.cpp:156] Memory required for data: 1276470816
I0403 14:02:07.835466 12551 layer_factory.hpp:77] Creating layer pool4/3x3_s2_pool4/3x3_s2_0_split
I0403 14:02:07.835484 12551 net.cpp:91] Creating Layer pool4/3x3_s2_pool4/3x3_s2_0_split
I0403 14:02:07.835500 12551 net.cpp:425] pool4/3x3_s2_pool4/3x3_s2_0_split <- pool4/3x3_s2
I0403 14:02:07.835520 12551 net.cpp:399] pool4/3x3_s2_pool4/3x3_s2_0_split -> pool4/3x3_s2_pool4/3x3_s2_0_split_0
I0403 14:02:07.835546 12551 net.cpp:399] pool4/3x3_s2_pool4/3x3_s2_0_split -> pool4/3x3_s2_pool4/3x3_s2_0_split_1
I0403 14:02:07.835569 12551 net.cpp:399] pool4/3x3_s2_pool4/3x3_s2_0_split -> pool4/3x3_s2_pool4/3x3_s2_0_split_2
I0403 14:02:07.835589 12551 net.cpp:399] pool4/3x3_s2_pool4/3x3_s2_0_split -> pool4/3x3_s2_pool4/3x3_s2_0_split_3
I0403 14:02:07.835685 12551 net.cpp:141] Setting up pool4/3x3_s2_pool4/3x3_s2_0_split
I0403 14:02:07.835711 12551 net.cpp:148] Top shape: 24 832 7 7 (978432)
I0403 14:02:07.835729 12551 net.cpp:148] Top shape: 24 832 7 7 (978432)
I0403 14:02:07.835746 12551 net.cpp:148] Top shape: 24 832 7 7 (978432)
I0403 14:02:07.835762 12551 net.cpp:148] Top shape: 24 832 7 7 (978432)
I0403 14:02:07.835777 12551 net.cpp:156] Memory required for data: 1292125728
I0403 14:02:07.835791 12551 layer_factory.hpp:77] Creating layer inception_5a/1x1
I0403 14:02:07.835813 12551 net.cpp:91] Creating Layer inception_5a/1x1
I0403 14:02:07.835831 12551 net.cpp:425] inception_5a/1x1 <- pool4/3x3_s2_pool4/3x3_s2_0_split_0
I0403 14:02:07.835850 12551 net.cpp:399] inception_5a/1x1 -> inception_5a/1x1
I0403 14:02:07.838922 12551 net.cpp:141] Setting up inception_5a/1x1
I0403 14:02:07.838951 12551 net.cpp:148] Top shape: 24 256 7 7 (301056)
I0403 14:02:07.838968 12551 net.cpp:156] Memory required for data: 1293329952
I0403 14:02:07.838987 12551 layer_factory.hpp:77] Creating layer inception_5a/relu_1x1
I0403 14:02:07.839005 12551 net.cpp:91] Creating Layer inception_5a/relu_1x1
I0403 14:02:07.839022 12551 net.cpp:425] inception_5a/relu_1x1 <- inception_5a/1x1
I0403 14:02:07.839042 12551 net.cpp:386] inception_5a/relu_1x1 -> inception_5a/1x1 (in-place)
I0403 14:02:07.839364 12551 net.cpp:141] Setting up inception_5a/relu_1x1
I0403 14:02:07.839390 12551 net.cpp:148] Top shape: 24 256 7 7 (301056)
I0403 14:02:07.839406 12551 net.cpp:156] Memory required for data: 1294534176
I0403 14:02:07.839421 12551 layer_factory.hpp:77] Creating layer inception_5a/3x3_reduce
I0403 14:02:07.839444 12551 net.cpp:91] Creating Layer inception_5a/3x3_reduce
I0403 14:02:07.839462 12551 net.cpp:425] inception_5a/3x3_reduce <- pool4/3x3_s2_pool4/3x3_s2_0_split_1
I0403 14:02:07.839484 12551 net.cpp:399] inception_5a/3x3_reduce -> inception_5a/3x3_reduce
I0403 14:02:07.842098 12551 net.cpp:141] Setting up inception_5a/3x3_reduce
I0403 14:02:07.842133 12551 net.cpp:148] Top shape: 24 160 7 7 (188160)
I0403 14:02:07.842150 12551 net.cpp:156] Memory required for data: 1295286816
I0403 14:02:07.842170 12551 layer_factory.hpp:77] Creating layer inception_5a/relu_3x3_reduce
I0403 14:02:07.842190 12551 net.cpp:91] Creating Layer inception_5a/relu_3x3_reduce
I0403 14:02:07.842206 12551 net.cpp:425] inception_5a/relu_3x3_reduce <- inception_5a/3x3_reduce
I0403 14:02:07.842224 12551 net.cpp:386] inception_5a/relu_3x3_reduce -> inception_5a/3x3_reduce (in-place)
I0403 14:02:07.842427 12551 net.cpp:141] Setting up inception_5a/relu_3x3_reduce
I0403 14:02:07.842454 12551 net.cpp:148] Top shape: 24 160 7 7 (188160)
I0403 14:02:07.842471 12551 net.cpp:156] Memory required for data: 1296039456
I0403 14:02:07.842488 12551 layer_factory.hpp:77] Creating layer inception_5a/3x3
I0403 14:02:07.842510 12551 net.cpp:91] Creating Layer inception_5a/3x3
I0403 14:02:07.842530 12551 net.cpp:425] inception_5a/3x3 <- inception_5a/3x3_reduce
I0403 14:02:07.842557 12551 net.cpp:399] inception_5a/3x3 -> inception_5a/3x3
I0403 14:02:07.847764 12551 net.cpp:141] Setting up inception_5a/3x3
I0403 14:02:07.847795 12551 net.cpp:148] Top shape: 24 320 7 7 (376320)
I0403 14:02:07.847811 12551 net.cpp:156] Memory required for data: 1297544736
I0403 14:02:07.847829 12551 layer_factory.hpp:77] Creating layer inception_5a/relu_3x3
I0403 14:02:07.847847 12551 net.cpp:91] Creating Layer inception_5a/relu_3x3
I0403 14:02:07.847863 12551 net.cpp:425] inception_5a/relu_3x3 <- inception_5a/3x3
I0403 14:02:07.847883 12551 net.cpp:386] inception_5a/relu_3x3 -> inception_5a/3x3 (in-place)
I0403 14:02:07.848181 12551 net.cpp:141] Setting up inception_5a/relu_3x3
I0403 14:02:07.848206 12551 net.cpp:148] Top shape: 24 320 7 7 (376320)
I0403 14:02:07.848222 12551 net.cpp:156] Memory required for data: 1299050016
I0403 14:02:07.848237 12551 layer_factory.hpp:77] Creating layer inception_5a/5x5_reduce
I0403 14:02:07.848258 12551 net.cpp:91] Creating Layer inception_5a/5x5_reduce
I0403 14:02:07.848275 12551 net.cpp:425] inception_5a/5x5_reduce <- pool4/3x3_s2_pool4/3x3_s2_0_split_2
I0403 14:02:07.848299 12551 net.cpp:399] inception_5a/5x5_reduce -> inception_5a/5x5_reduce
I0403 14:02:07.849524 12551 net.cpp:141] Setting up inception_5a/5x5_reduce
I0403 14:02:07.849557 12551 net.cpp:148] Top shape: 24 32 7 7 (37632)
I0403 14:02:07.849575 12551 net.cpp:156] Memory required for data: 1299200544
I0403 14:02:07.849593 12551 layer_factory.hpp:77] Creating layer inception_5a/relu_5x5_reduce
I0403 14:02:07.849614 12551 net.cpp:91] Creating Layer inception_5a/relu_5x5_reduce
I0403 14:02:07.849632 12551 net.cpp:425] inception_5a/relu_5x5_reduce <- inception_5a/5x5_reduce
I0403 14:02:07.849648 12551 net.cpp:386] inception_5a/relu_5x5_reduce -> inception_5a/5x5_reduce (in-place)
I0403 14:02:07.849956 12551 net.cpp:141] Setting up inception_5a/relu_5x5_reduce
I0403 14:02:07.849982 12551 net.cpp:148] Top shape: 24 32 7 7 (37632)
I0403 14:02:07.849997 12551 net.cpp:156] Memory required for data: 1299351072
I0403 14:02:07.850011 12551 layer_factory.hpp:77] Creating layer inception_5a/5x5
I0403 14:02:07.850034 12551 net.cpp:91] Creating Layer inception_5a/5x5
I0403 14:02:07.850052 12551 net.cpp:425] inception_5a/5x5 <- inception_5a/5x5_reduce
I0403 14:02:07.850074 12551 net.cpp:399] inception_5a/5x5 -> inception_5a/5x5
I0403 14:02:07.851860 12551 net.cpp:141] Setting up inception_5a/5x5
I0403 14:02:07.851902 12551 net.cpp:148] Top shape: 24 128 7 7 (150528)
I0403 14:02:07.851918 12551 net.cpp:156] Memory required for data: 1299953184
I0403 14:02:07.851938 12551 layer_factory.hpp:77] Creating layer inception_5a/relu_5x5
I0403 14:02:07.851956 12551 net.cpp:91] Creating Layer inception_5a/relu_5x5
I0403 14:02:07.851972 12551 net.cpp:425] inception_5a/relu_5x5 <- inception_5a/5x5
I0403 14:02:07.851992 12551 net.cpp:386] inception_5a/relu_5x5 -> inception_5a/5x5 (in-place)
I0403 14:02:07.852191 12551 net.cpp:141] Setting up inception_5a/relu_5x5
I0403 14:02:07.852217 12551 net.cpp:148] Top shape: 24 128 7 7 (150528)
I0403 14:02:07.852233 12551 net.cpp:156] Memory required for data: 1300555296
I0403 14:02:07.852248 12551 layer_factory.hpp:77] Creating layer inception_5a/pool
I0403 14:02:07.852268 12551 net.cpp:91] Creating Layer inception_5a/pool
I0403 14:02:07.852285 12551 net.cpp:425] inception_5a/pool <- pool4/3x3_s2_pool4/3x3_s2_0_split_3
I0403 14:02:07.852305 12551 net.cpp:399] inception_5a/pool -> inception_5a/pool
I0403 14:02:07.852380 12551 net.cpp:141] Setting up inception_5a/pool
I0403 14:02:07.852404 12551 net.cpp:148] Top shape: 24 832 7 7 (978432)
I0403 14:02:07.852419 12551 net.cpp:156] Memory required for data: 1304469024
I0403 14:02:07.852434 12551 layer_factory.hpp:77] Creating layer inception_5a/pool_proj
I0403 14:02:07.852457 12551 net.cpp:91] Creating Layer inception_5a/pool_proj
I0403 14:02:07.852474 12551 net.cpp:425] inception_5a/pool_proj <- inception_5a/pool
I0403 14:02:07.852495 12551 net.cpp:399] inception_5a/pool_proj -> inception_5a/pool_proj
I0403 14:02:07.854899 12551 net.cpp:141] Setting up inception_5a/pool_proj
I0403 14:02:07.854931 12551 net.cpp:148] Top shape: 24 128 7 7 (150528)
I0403 14:02:07.854949 12551 net.cpp:156] Memory required for data: 1305071136
I0403 14:02:07.854967 12551 layer_factory.hpp:77] Creating layer inception_5a/relu_pool_proj
I0403 14:02:07.854985 12551 net.cpp:91] Creating Layer inception_5a/relu_pool_proj
I0403 14:02:07.855002 12551 net.cpp:425] inception_5a/relu_pool_proj <- inception_5a/pool_proj
I0403 14:02:07.855021 12551 net.cpp:386] inception_5a/relu_pool_proj -> inception_5a/pool_proj (in-place)
I0403 14:02:07.855316 12551 net.cpp:141] Setting up inception_5a/relu_pool_proj
I0403 14:02:07.855345 12551 net.cpp:148] Top shape: 24 128 7 7 (150528)
I0403 14:02:07.855360 12551 net.cpp:156] Memory required for data: 1305673248
I0403 14:02:07.855376 12551 layer_factory.hpp:77] Creating layer inception_5a/output
I0403 14:02:07.855392 12551 net.cpp:91] Creating Layer inception_5a/output
I0403 14:02:07.855407 12551 net.cpp:425] inception_5a/output <- inception_5a/1x1
I0403 14:02:07.855424 12551 net.cpp:425] inception_5a/output <- inception_5a/3x3
I0403 14:02:07.855440 12551 net.cpp:425] inception_5a/output <- inception_5a/5x5
I0403 14:02:07.855455 12551 net.cpp:425] inception_5a/output <- inception_5a/pool_proj
I0403 14:02:07.855474 12551 net.cpp:399] inception_5a/output -> inception_5a/output
I0403 14:02:07.855525 12551 net.cpp:141] Setting up inception_5a/output
I0403 14:02:07.855552 12551 net.cpp:148] Top shape: 24 832 7 7 (978432)
I0403 14:02:07.855568 12551 net.cpp:156] Memory required for data: 1309586976
I0403 14:02:07.855582 12551 layer_factory.hpp:77] Creating layer inception_5a/output_inception_5a/output_0_split
I0403 14:02:07.855602 12551 net.cpp:91] Creating Layer inception_5a/output_inception_5a/output_0_split
I0403 14:02:07.855619 12551 net.cpp:425] inception_5a/output_inception_5a/output_0_split <- inception_5a/output
I0403 14:02:07.855636 12551 net.cpp:399] inception_5a/output_inception_5a/output_0_split -> inception_5a/output_inception_5a/output_0_split_0
I0403 14:02:07.855669 12551 net.cpp:399] inception_5a/output_inception_5a/output_0_split -> inception_5a/output_inception_5a/output_0_split_1
I0403 14:02:07.855691 12551 net.cpp:399] inception_5a/output_inception_5a/output_0_split -> inception_5a/output_inception_5a/output_0_split_2
I0403 14:02:07.855718 12551 net.cpp:399] inception_5a/output_inception_5a/output_0_split -> inception_5a/output_inception_5a/output_0_split_3
I0403 14:02:07.855836 12551 net.cpp:141] Setting up inception_5a/output_inception_5a/output_0_split
I0403 14:02:07.855861 12551 net.cpp:148] Top shape: 24 832 7 7 (978432)
I0403 14:02:07.855878 12551 net.cpp:148] Top shape: 24 832 7 7 (978432)
I0403 14:02:07.855895 12551 net.cpp:148] Top shape: 24 832 7 7 (978432)
I0403 14:02:07.855909 12551 net.cpp:148] Top shape: 24 832 7 7 (978432)
I0403 14:02:07.855923 12551 net.cpp:156] Memory required for data: 1325241888
I0403 14:02:07.855939 12551 layer_factory.hpp:77] Creating layer inception_5b/1x1
I0403 14:02:07.855962 12551 net.cpp:91] Creating Layer inception_5b/1x1
I0403 14:02:07.855979 12551 net.cpp:425] inception_5b/1x1 <- inception_5a/output_inception_5a/output_0_split_0
I0403 14:02:07.856012 12551 net.cpp:399] inception_5b/1x1 -> inception_5b/1x1
I0403 14:02:07.859880 12551 net.cpp:141] Setting up inception_5b/1x1
I0403 14:02:07.859912 12551 net.cpp:148] Top shape: 24 384 7 7 (451584)
I0403 14:02:07.859930 12551 net.cpp:156] Memory required for data: 1327048224
I0403 14:02:07.859948 12551 layer_factory.hpp:77] Creating layer inception_5b/relu_1x1
I0403 14:02:07.859966 12551 net.cpp:91] Creating Layer inception_5b/relu_1x1
I0403 14:02:07.859982 12551 net.cpp:425] inception_5b/relu_1x1 <- inception_5b/1x1
I0403 14:02:07.860000 12551 net.cpp:386] inception_5b/relu_1x1 -> inception_5b/1x1 (in-place)
I0403 14:02:07.860304 12551 net.cpp:141] Setting up inception_5b/relu_1x1
I0403 14:02:07.860335 12551 net.cpp:148] Top shape: 24 384 7 7 (451584)
I0403 14:02:07.860352 12551 net.cpp:156] Memory required for data: 1328854560
I0403 14:02:07.860366 12551 layer_factory.hpp:77] Creating layer inception_5b/3x3_reduce
I0403 14:02:07.860388 12551 net.cpp:91] Creating Layer inception_5b/3x3_reduce
I0403 14:02:07.860406 12551 net.cpp:425] inception_5b/3x3_reduce <- inception_5a/output_inception_5a/output_0_split_1
I0403 14:02:07.860425 12551 net.cpp:399] inception_5b/3x3_reduce -> inception_5b/3x3_reduce
I0403 14:02:07.863195 12551 net.cpp:141] Setting up inception_5b/3x3_reduce
I0403 14:02:07.863226 12551 net.cpp:148] Top shape: 24 192 7 7 (225792)
I0403 14:02:07.863243 12551 net.cpp:156] Memory required for data: 1329757728
I0403 14:02:07.863262 12551 layer_factory.hpp:77] Creating layer inception_5b/relu_3x3_reduce
I0403 14:02:07.863281 12551 net.cpp:91] Creating Layer inception_5b/relu_3x3_reduce
I0403 14:02:07.863299 12551 net.cpp:425] inception_5b/relu_3x3_reduce <- inception_5b/3x3_reduce
I0403 14:02:07.863319 12551 net.cpp:386] inception_5b/relu_3x3_reduce -> inception_5b/3x3_reduce (in-place)
I0403 14:02:07.863512 12551 net.cpp:141] Setting up inception_5b/relu_3x3_reduce
I0403 14:02:07.863539 12551 net.cpp:148] Top shape: 24 192 7 7 (225792)
I0403 14:02:07.863556 12551 net.cpp:156] Memory required for data: 1330660896
I0403 14:02:07.863571 12551 layer_factory.hpp:77] Creating layer inception_5b/3x3
I0403 14:02:07.863593 12551 net.cpp:91] Creating Layer inception_5b/3x3
I0403 14:02:07.863611 12551 net.cpp:425] inception_5b/3x3 <- inception_5b/3x3_reduce
I0403 14:02:07.863633 12551 net.cpp:399] inception_5b/3x3 -> inception_5b/3x3
I0403 14:02:07.870349 12551 net.cpp:141] Setting up inception_5b/3x3
I0403 14:02:07.870381 12551 net.cpp:148] Top shape: 24 384 7 7 (451584)
I0403 14:02:07.870398 12551 net.cpp:156] Memory required for data: 1332467232
I0403 14:02:07.870416 12551 layer_factory.hpp:77] Creating layer inception_5b/relu_3x3
I0403 14:02:07.870434 12551 net.cpp:91] Creating Layer inception_5b/relu_3x3
I0403 14:02:07.870450 12551 net.cpp:425] inception_5b/relu_3x3 <- inception_5b/3x3
I0403 14:02:07.870470 12551 net.cpp:386] inception_5b/relu_3x3 -> inception_5b/3x3 (in-place)
I0403 14:02:07.870767 12551 net.cpp:141] Setting up inception_5b/relu_3x3
I0403 14:02:07.870795 12551 net.cpp:148] Top shape: 24 384 7 7 (451584)
I0403 14:02:07.870811 12551 net.cpp:156] Memory required for data: 1334273568
I0403 14:02:07.870826 12551 layer_factory.hpp:77] Creating layer inception_5b/5x5_reduce
I0403 14:02:07.870867 12551 net.cpp:91] Creating Layer inception_5b/5x5_reduce
I0403 14:02:07.870887 12551 net.cpp:425] inception_5b/5x5_reduce <- inception_5a/output_inception_5a/output_0_split_2
I0403 14:02:07.870905 12551 net.cpp:399] inception_5b/5x5_reduce -> inception_5b/5x5_reduce
I0403 14:02:07.872210 12551 net.cpp:141] Setting up inception_5b/5x5_reduce
I0403 14:02:07.872241 12551 net.cpp:148] Top shape: 24 48 7 7 (56448)
I0403 14:02:07.872257 12551 net.cpp:156] Memory required for data: 1334499360
I0403 14:02:07.872277 12551 layer_factory.hpp:77] Creating layer inception_5b/relu_5x5_reduce
I0403 14:02:07.872295 12551 net.cpp:91] Creating Layer inception_5b/relu_5x5_reduce
I0403 14:02:07.872313 12551 net.cpp:425] inception_5b/relu_5x5_reduce <- inception_5b/5x5_reduce
I0403 14:02:07.872340 12551 net.cpp:386] inception_5b/relu_5x5_reduce -> inception_5b/5x5_reduce (in-place)
I0403 14:02:07.872715 12551 net.cpp:141] Setting up inception_5b/relu_5x5_reduce
I0403 14:02:07.872741 12551 net.cpp:148] Top shape: 24 48 7 7 (56448)
I0403 14:02:07.872756 12551 net.cpp:156] Memory required for data: 1334725152
I0403 14:02:07.872771 12551 layer_factory.hpp:77] Creating layer inception_5b/5x5
I0403 14:02:07.872791 12551 net.cpp:91] Creating Layer inception_5b/5x5
I0403 14:02:07.872807 12551 net.cpp:425] inception_5b/5x5 <- inception_5b/5x5_reduce
I0403 14:02:07.872824 12551 net.cpp:399] inception_5b/5x5 -> inception_5b/5x5
I0403 14:02:07.874914 12551 net.cpp:141] Setting up inception_5b/5x5
I0403 14:02:07.874943 12551 net.cpp:148] Top shape: 24 128 7 7 (150528)
I0403 14:02:07.874958 12551 net.cpp:156] Memory required for data: 1335327264
I0403 14:02:07.874977 12551 layer_factory.hpp:77] Creating layer inception_5b/relu_5x5
I0403 14:02:07.874995 12551 net.cpp:91] Creating Layer inception_5b/relu_5x5
I0403 14:02:07.875011 12551 net.cpp:425] inception_5b/relu_5x5 <- inception_5b/5x5
I0403 14:02:07.875031 12551 net.cpp:386] inception_5b/relu_5x5 -> inception_5b/5x5 (in-place)
I0403 14:02:07.875232 12551 net.cpp:141] Setting up inception_5b/relu_5x5
I0403 14:02:07.875257 12551 net.cpp:148] Top shape: 24 128 7 7 (150528)
I0403 14:02:07.875270 12551 net.cpp:156] Memory required for data: 1335929376
I0403 14:02:07.875285 12551 layer_factory.hpp:77] Creating layer inception_5b/pool
I0403 14:02:07.875304 12551 net.cpp:91] Creating Layer inception_5b/pool
I0403 14:02:07.875321 12551 net.cpp:425] inception_5b/pool <- inception_5a/output_inception_5a/output_0_split_3
I0403 14:02:07.875339 12551 net.cpp:399] inception_5b/pool -> inception_5b/pool
I0403 14:02:07.875412 12551 net.cpp:141] Setting up inception_5b/pool
I0403 14:02:07.875435 12551 net.cpp:148] Top shape: 24 832 7 7 (978432)
I0403 14:02:07.875450 12551 net.cpp:156] Memory required for data: 1339843104
I0403 14:02:07.875464 12551 layer_factory.hpp:77] Creating layer inception_5b/pool_proj
I0403 14:02:07.875484 12551 net.cpp:91] Creating Layer inception_5b/pool_proj
I0403 14:02:07.875501 12551 net.cpp:425] inception_5b/pool_proj <- inception_5b/pool
I0403 14:02:07.875521 12551 net.cpp:399] inception_5b/pool_proj -> inception_5b/pool_proj
I0403 14:02:07.877872 12551 net.cpp:141] Setting up inception_5b/pool_proj
I0403 14:02:07.877907 12551 net.cpp:148] Top shape: 24 128 7 7 (150528)
I0403 14:02:07.877923 12551 net.cpp:156] Memory required for data: 1340445216
I0403 14:02:07.877941 12551 layer_factory.hpp:77] Creating layer inception_5b/relu_pool_proj
I0403 14:02:07.877959 12551 net.cpp:91] Creating Layer inception_5b/relu_pool_proj
I0403 14:02:07.877976 12551 net.cpp:425] inception_5b/relu_pool_proj <- inception_5b/pool_proj
I0403 14:02:07.877995 12551 net.cpp:386] inception_5b/relu_pool_proj -> inception_5b/pool_proj (in-place)
I0403 14:02:07.878312 12551 net.cpp:141] Setting up inception_5b/relu_pool_proj
I0403 14:02:07.878341 12551 net.cpp:148] Top shape: 24 128 7 7 (150528)
I0403 14:02:07.878356 12551 net.cpp:156] Memory required for data: 1341047328
I0403 14:02:07.878371 12551 layer_factory.hpp:77] Creating layer inception_5b/output
I0403 14:02:07.878389 12551 net.cpp:91] Creating Layer inception_5b/output
I0403 14:02:07.878422 12551 net.cpp:425] inception_5b/output <- inception_5b/1x1
I0403 14:02:07.878439 12551 net.cpp:425] inception_5b/output <- inception_5b/3x3
I0403 14:02:07.878456 12551 net.cpp:425] inception_5b/output <- inception_5b/5x5
I0403 14:02:07.878473 12551 net.cpp:425] inception_5b/output <- inception_5b/pool_proj
I0403 14:02:07.878489 12551 net.cpp:399] inception_5b/output -> inception_5b/output
I0403 14:02:07.878559 12551 net.cpp:141] Setting up inception_5b/output
I0403 14:02:07.878583 12551 net.cpp:148] Top shape: 24 1024 7 7 (1204224)
I0403 14:02:07.878598 12551 net.cpp:156] Memory required for data: 1345864224
I0403 14:02:07.878612 12551 layer_factory.hpp:77] Creating layer pool5/7x7_s1
I0403 14:02:07.878633 12551 net.cpp:91] Creating Layer pool5/7x7_s1
I0403 14:02:07.878648 12551 net.cpp:425] pool5/7x7_s1 <- inception_5b/output
I0403 14:02:07.878666 12551 net.cpp:399] pool5/7x7_s1 -> pool5/7x7_s1
I0403 14:02:07.878885 12551 net.cpp:141] Setting up pool5/7x7_s1
I0403 14:02:07.878911 12551 net.cpp:148] Top shape: 24 1024 1 1 (24576)
I0403 14:02:07.878926 12551 net.cpp:156] Memory required for data: 1345962528
I0403 14:02:07.878942 12551 layer_factory.hpp:77] Creating layer pool5/drop_7x7_s1
I0403 14:02:07.878958 12551 net.cpp:91] Creating Layer pool5/drop_7x7_s1
I0403 14:02:07.878974 12551 net.cpp:425] pool5/drop_7x7_s1 <- pool5/7x7_s1
I0403 14:02:07.878993 12551 net.cpp:386] pool5/drop_7x7_s1 -> pool5/7x7_s1 (in-place)
I0403 14:02:07.879043 12551 net.cpp:141] Setting up pool5/drop_7x7_s1
I0403 14:02:07.879068 12551 net.cpp:148] Top shape: 24 1024 1 1 (24576)
I0403 14:02:07.879084 12551 net.cpp:156] Memory required for data: 1346060832
I0403 14:02:07.879099 12551 layer_factory.hpp:77] Creating layer loss3/classifier_plantvillage
I0403 14:02:07.879118 12551 net.cpp:91] Creating Layer loss3/classifier_plantvillage
I0403 14:02:07.879133 12551 net.cpp:425] loss3/classifier_plantvillage <- pool5/7x7_s1
I0403 14:02:07.879154 12551 net.cpp:399] loss3/classifier_plantvillage -> loss3/classifier_plantvillage
I0403 14:02:07.879590 12551 net.cpp:141] Setting up loss3/classifier_plantvillage
I0403 14:02:07.879614 12551 net.cpp:148] Top shape: 24 38 (912)
I0403 14:02:07.879629 12551 net.cpp:156] Memory required for data: 1346064480
I0403 14:02:07.879647 12551 layer_factory.hpp:77] Creating layer loss3/classifier_plantvillage_loss3/classifier_plantvillage_0_split
I0403 14:02:07.879669 12551 net.cpp:91] Creating Layer loss3/classifier_plantvillage_loss3/classifier_plantvillage_0_split
I0403 14:02:07.879686 12551 net.cpp:425] loss3/classifier_plantvillage_loss3/classifier_plantvillage_0_split <- loss3/classifier_plantvillage
I0403 14:02:07.879704 12551 net.cpp:399] loss3/classifier_plantvillage_loss3/classifier_plantvillage_0_split -> loss3/classifier_plantvillage_loss3/classifier_plantvillage_0_split_0
I0403 14:02:07.879724 12551 net.cpp:399] loss3/classifier_plantvillage_loss3/classifier_plantvillage_0_split -> loss3/classifier_plantvillage_loss3/classifier_plantvillage_0_split_1
I0403 14:02:07.879747 12551 net.cpp:399] loss3/classifier_plantvillage_loss3/classifier_plantvillage_0_split -> loss3/classifier_plantvillage_loss3/classifier_plantvillage_0_split_2
I0403 14:02:07.879770 12551 net.cpp:399] loss3/classifier_plantvillage_loss3/classifier_plantvillage_0_split -> loss3/classifier_plantvillage_loss3/classifier_plantvillage_0_split_3
I0403 14:02:07.879878 12551 net.cpp:141] Setting up loss3/classifier_plantvillage_loss3/classifier_plantvillage_0_split
I0403 14:02:07.879900 12551 net.cpp:148] Top shape: 24 38 (912)
I0403 14:02:07.879917 12551 net.cpp:148] Top shape: 24 38 (912)
I0403 14:02:07.879932 12551 net.cpp:148] Top shape: 24 38 (912)
I0403 14:02:07.879947 12551 net.cpp:148] Top shape: 24 38 (912)
I0403 14:02:07.879961 12551 net.cpp:156] Memory required for data: 1346079072
I0403 14:02:07.879976 12551 layer_factory.hpp:77] Creating layer loss1/loss
I0403 14:02:07.879997 12551 net.cpp:91] Creating Layer loss1/loss
I0403 14:02:07.880013 12551 net.cpp:425] loss1/loss <- loss1/classifier_plantvillage_loss1/classifier_plantvillage_0_split_0
I0403 14:02:07.880044 12551 net.cpp:425] loss1/loss <- label_data_1_split_0
…
