…
I0403 13:53:52.472002 12207 net.cpp:313] The NetState phase (1) differed from the phase (0) specified by a rule in layer data
I0403 13:53:52.473181 12207 net.cpp:49] Initializing net from parameters: 
state {
  phase: TEST
}
layer {
  name: "data"
  type: "Data"
  top: "data"
  top: "label"
  include {
    phase: TEST
  }
  transform_param {
    mirror: false
    crop_size: 224
    mean_file: "/home/mohanty/data/final_dataset/lmdb/segmented-20-80/mean.binaryproto"
  }
  data_param {
    source: "/home/mohanty/data/final_dataset/lmdb/segmented-20-80/test_db"
    batch_size: 24
    backend: LMDB
  }
}
layer {
  name: "conv1/7x7_s2"
  type: "Convolution"
  bottom: "data"
  top: "conv1/7x7_s2"
  param {
    lr_mult: 1
    decay_mult: 1
  }
  param {
    lr_mult: 2
    decay_mult: 0
  }
  convolution_param {
    num_output: 64
    pad: 3
    kernel_size: 7
    stride: 2
    weight_filler {
      type: "xavier"
      std: 0.1
    }
    bias_filler {
      type: "constant"
      value: 0.2
    }
  }
}
layer {
  name: "conv1/relu_7x7"
  type: "ReLU"
  bottom: "conv1/7x7_s2"
  top: "conv1/7x7_s2"
}
layer {
  name: "pool1/3x3_s2"
  type: "Pooling"
  bottom: "conv1/7x7_s2"
  top: "pool1/3x3_s2"
  pooling_param {
    pool: MAX
    kernel_size: 3
    stride: 2
  }
}
layer {
  name: "pool1/norm1"
  type: "LRN"
  bottom: "pool1/3x3_s2"
  top: "pool1/norm1"
  lrn_param {
    local_size: 5
    alpha: 0.0001
    beta: 0.75
  }
}
layer {
  name: "conv2/3x3_reduce"
  type: "Convolution"
  bottom: "pool1/norm1"
  top: "conv2/3x3_reduce"
  param {
    lr_mult: 1
    decay_mult: 1
  }
  param {
    lr_mult: 2
    decay_mult: 0
  }
  convolution_param {
    num_output: 64
    kernel_size: 1
    weight_filler {
      type: "xavier"
      std: 0.1
    }
    bias_filler {
      type: "constant"
      value: 0.2
    }
  }
}
layer {
  name: "conv2/relu_3x3_reduce"
  type: "ReLU"
  bottom: "conv2/3x3_reduce"
  top: "conv2/3x3_reduce"
}
layer {
  name: "conv2/3x3"
  type: "Convolution"
  bottom: "conv2/3x3_reduce"
  top: "conv2/3x3"
  param {
    lr_mult: 1
    decay_mult: 1
  }
  param {
    lr_mult: 2
    decay_mult: 0
  }
  convolution_param {
    num_output: 192
    pad: 1
    kernel_size: 3
    weight_filler {
      type: "xavier"
      std: 0.03
    }
    bias_filler {
      type: "constant"
      value: 0.2
    }
  }
}
layer {
  name: "conv2/relu_3x3"
  type: "ReLU"
  bottom: "conv2/3x3"
  top: "conv2/3x3"
}
layer {
  name: "conv2/norm2"
  type: "LRN"
  bottom: "conv2/3x3"
  top: "conv2/norm2"
  lrn_param {
    local_size: 5
    alpha: 0.0001
    beta: 0.75
  }
}
layer {
  name: "pool2/3x3_s2"
  type: "Pooling"
  bottom: "conv2/norm2"
  top: "pool2/3x3_s2"
  pooling_param {
    pool: MAX
    kernel_size: 3
    stride: 2
  }
}
layer {
  name: "inception_3a/1x1"
  type: "Convolution"
  bottom: "pool2/3x3_s2"
  top: "inception_3a/1x1"
  param {
    lr_mult: 1
    decay_mult: 1
  }
  param {
    lr_mult: 2
    decay_mult: 0
  }
  convolution_param {
    num_output: 64
    kernel_size: 1
    weight_filler {
      type: "xavier"
      std: 0.03
    }
    bias_filler {
      type: "constant"
      value: 0.2
    }
  }
}
layer {
  name: "inception_3a/relu_1x1"
  type: "ReLU"
  bottom: "inception_3a/1x1"
  top: "inception_3a/1x1"
}
layer {
  name: "inception_3a/3x3_reduce"
  type: "Convolution"
  bottom: "pool2/3x3_s2"
  top: "inception_3a/3x3_reduce"
  param {
    lr_mult: 1
    decay_mult: 1
  }
  param {
    lr_mult: 2
    decay_mult: 0
  }
  convolution_param {
    num_output: 96
    kernel_size: 1
    weight_filler {
      type: "xavier"
      std: 0.09
    }
    bias_filler {
      type: "constant"
      value: 0.2
    }
  }
}
layer {
  name: "inception_3a/relu_3x3_reduce"
  type: "ReLU"
  bottom: "inception_3a/3x3_reduce"
  top: "inception_3a/3x3_reduce"
}
layer {
  name: "inception_3a/3x3"
  type: "Convolution"
  bottom: "inception_3a/3x3_reduce"
  top: "inception_3a/3x3"
  param {
    lr_mult: 1
    decay_mult: 1
  }
  param {
    lr_mult: 2
    decay_mult: 0
  }
  convolution_param {
    num_output: 128
    pad: 1
    kernel_size: 3
    weight_filler {
      type: "xavier"
      std: 0.03
    }
    bias_filler {
      type: "constant"
      value: 0.2
    }
  }
}
layer {
  name: "inception_3a/relu_3x3"
  type: "ReLU"
  bottom: "inception_3a/3x3"
  top: "inception_3a/3x3"
}
layer {
  name: "inception_3a/5x5_reduce"
  type: "Convolution"
  bottom: "pool2/3x3_s2"
  top: "inception_3a/5x5_reduce"
  param {
    lr_mult: 1
    decay_mult: 1
  }
  param {
    lr_mult: 2
    decay_mult: 0
  }
  convolution_param {
    num_output: 16
    kernel_size: 1
    weight_filler {
      type: "xavier"
      std: 0.2
    }
    bias_filler {
      type: "constant"
      value: 0.2
    }
  }
}
layer {
  name: "inception_3a/relu_5x5_reduce"
  type: "ReLU"
  bottom: "inception_3a/5x5_reduce"
  top: "inception_3a/5x5_reduce"
}
layer {
  name: "inception_3a/5x5"
  type: "Convolution"
  bottom: "inception_3a/5x5_reduce"
  top: "inception_3a/5x5"
  param {
    lr_mult: 1
    decay_mult: 1
  }
  param {
    lr_mult: 2
    decay_mult: 0
  }
  convolution_param {
    num_output: 32
    pad: 2
    kernel_size: 5
    weight_filler {
      type: "xavier"
      std: 0.03
    }
    bias_filler {
      type: "constant"
      value: 0.2
    }
  }
}
layer {
  name: "inception_3a/relu_5x5"
  type: "ReLU"
  bottom: "inception_3a/5x5"
  top: "inception_3a/5x5"
}
layer {
  name: "inception_3a/pool"
  type: "Pooling"
  bottom: "pool2/3x3_s2"
  top: "inception_3a/pool"
  pooling_param {
    pool: MAX
    kernel_size: 3
    stride: 1
    pad: 1
  }
}
layer {
  name: "inception_3a/pool_proj"
  type: "Convolution"
  bottom: "inception_3a/pool"
  top: "inception_3a/pool_proj"
  param {
    lr_mult: 1
    decay_mult: 1
  }
  param {
    lr_mult: 2
    decay_mult: 0
  }
  convolution_param {
    num_output: 32
    kernel_size: 1
    weight_filler {
      type: "xavier"
      std: 0.1
    }
    bias_filler {
      type: "constant"
      value: 0.2
    }
  }
}
layer {
  name: "inception_3a/relu_pool_proj"
  type: "ReLU"
  bottom: "inception_3a/pool_proj"
  top: "inception_3a/pool_proj"
}
layer {
  name: "inception_3a/output"
  type: "Concat"
  bottom: "inception_3a/1x1"
  bottom: "inception_3a/3x3"
  bottom: "inception_3a/5x5"
  bottom: "inception_3a/pool_proj"
  top: "inception_3a/output"
}
layer {
  name: "inception_3b/1x1"
  type: "Convolution"
  bottom: "inception_3a/output"
  top: "inception_3b/1x1"
  param {
    lr_mult: 1
    decay_mult: 1
  }
  param {
    lr_mult: 2
    decay_mult: 0
  }
  convolution_param {
    num_output: 128
    kernel_size: 1
    weight_filler {
      type: "xavier"
      std: 0.03
    }
    bias_filler {
      type: "constant"
      value: 0.2
    }
  }
}
layer {
  name: "inception_3b/relu_1x1"
  type: "ReLU"
  bottom: "inception_3b/1x1"
  top: "inception_3b/1x1"
}
layer {
  name: "inception_3b/3x3_reduce"
  type: "Convolution"
  bottom: "inception_3a/output"
  top: "inception_3b/3x3_reduce"
  param {
    lr_mult: 1
    decay_mult: 1
  }
  param {
    lr_mult: 2
    decay_mult: 0
  }
  convolution_param {
    num_output: 128
    kernel_size: 1
    weight_filler {
      type: "xavier"
      std: 0.09
    }
    bias_filler {
      type: "constant"
      value: 0.2
    }
  }
}
layer {
  name: "inception_3b/relu_3x3_reduce"
  type: "ReLU"
  bottom: "inception_3b/3x3_reduce"
  top: "inception_3b/3x3_reduce"
}
layer {
  name: "inception_3b/3x3"
  type: "Convolution"
  bottom: "inception_3b/3x3_reduce"
  top: "inception_3b/3x3"
  param {
    lr_mult: 1
    decay_mult: 1
  }
  param {
    lr_mult: 2
    decay_mult: 0
  }
  convolution_param {
    num_output: 192
    pad: 1
    kernel_size: 3
    weight_filler {
      type: "xavier"
      std: 0.03
    }
    bias_filler {
      type: "constant"
      value: 0.2
    }
  }
}
layer {
  name: "inception_3b/relu_3x3"
  type: "ReLU"
  bottom: "inception_3b/3x3"
  top: "inception_3b/3x3"
}
layer {
  name: "inception_3b/5x5_reduce"
  type: "Convolution"
  bottom: "inception_3a/output"
  top: "inception_3b/5x5_reduce"
  param {
    lr_mult: 1
    decay_mult: 1
  }
  param {
    lr_mult: 2
    decay_mult: 0
  }
  convolution_param {
    num_output: 32
    kernel_size: 1
    weight_filler {
      type: "xavier"
      std: 0.2
    }
    bias_filler {
      type: "constant"
      value: 0.2
    }
  }
}
layer {
  name: "inception_3b/relu_5x5_reduce"
  type: "ReLU"
  bottom: "inception_3b/5x5_reduce"
  top: "inception_3b/5x5_reduce"
}
layer {
  name: "inception_3b/5x5"
  type: "Convolution"
  bottom: "inception_3b/5x5_reduce"
  top: "inception_3b/5x5"
  param {
    lr_mult: 1
    decay_mult: 1
  }
  param {
    lr_mult: 2
    decay_mult: 0
  }
  convolution_param {
    num_output: 96
    pad: 2
    kernel_size: 5
    weight_filler {
      type: "xavier"
      std: 0.03
    }
    bias_filler {
      type: "constant"
      value: 0.2
    }
  }
}
layer {
  name: "inception_3b/relu_5x5"
  type: "ReLU"
  bottom: "inception_3b/5x5"
  top: "inception_3b/5x5"
}
layer {
  name: "inception_3b/pool"
  type: "Pooling"
  bottom: "inception_3a/output"
  top: "inception_3b/pool"
  pooling_param {
    pool: MAX
    kernel_size: 3
    stride: 1
    pad: 1
  }
}
layer {
  name: "inception_3b/pool_proj"
  type: "Convolution"
  bottom: "inception_3b/pool"
  top: "inception_3b/pool_proj"
  param {
    lr_mult: 1
    decay_mult: 1
  }
  param {
    lr_mult: 2
    decay_mult: 0
  }
  convolution_param {
    num_output: 64
    kernel_size: 1
    weight_filler {
      type: "xavier"
      std: 0.1
    }
    bias_filler {
      type: "constant"
      value: 0.2
    }
  }
}
layer {
  name: "inception_3b/relu_pool_proj"
  type: "ReLU"
  bottom: "inception_3b/pool_proj"
  top: "inception_3b/pool_proj"
}
layer {
  name: "inception_3b/output"
  type: "Concat"
  bottom: "inception_3b/1x1"
  bottom: "inception_3b/3x3"
  bottom: "inception_3b/5x5"
  bottom: "inception_3b/pool_proj"
  top: "inception_3b/output"
}
layer {
  name: "pool3/3x3_s2"
  type: "Pooling"
  bottom: "inception_3b/output"
  top: "pool3/3x3_s2"
  pooling_param {
    pool: MAX
    kernel_size: 3
    stride: 2
  }
}
layer {
  name: "inception_4a/1x1"
  type: "Convolution"
  bottom: "pool3/3x3_s2"
  top: "inception_4a/1x1"
  param {
    lr_mult: 1
    decay_mult: 1
  }
  param {
    lr_mult: 2
    decay_mult: 0
  }
  convolution_param {
    num_output: 192
    kernel_size: 1
    weight_filler {
      type: "xavier"
      std: 0.03
    }
    bias_filler {
      type: "constant"
      value: 0.2
    }
  }
}
layer {
  name: "inception_4a/relu_1x1"
  type: "ReLU"
  bottom: "inception_4a/1x1"
  top: "inception_4a/1x1"
}
layer {
  name: "inception_4a/3x3_reduce"
  type: "Convolution"
  bottom: "pool3/3x3_s2"
  top: "inception_4a/3x3_reduce"
  param {
    lr_mult: 1
    decay_mult: 1
  }
  param {
    lr_mult: 2
    decay_mult: 0
  }
  convolution_param {
    num_output: 96
    kernel_size: 1
    weight_filler {
      type: "xavier"
      std: 0.09
    }
    bias_filler {
      type: "constant"
      value: 0.2
    }
  }
}
layer {
  name: "inception_4a/relu_3x3_reduce"
  type: "ReLU"
  bottom: "inception_4a/3x3_reduce"
  top: "inception_4a/3x3_reduce"
}
layer {
  name: "inception_4a/3x3"
  type: "Convolution"
  bottom: "inception_4a/3x3_reduce"
  top: "inception_4a/3x3"
  param {
    lr_mult: 1
    decay_mult: 1
  }
  param {
    lr_mult: 2
    decay_mult: 0
  }
  convolution_param {
    num_output: 208
    pad: 1
    kernel_size: 3
    weight_filler {
      type: "xavier"
      std: 0.03
    }
    bias_filler {
      type: "constant"
      value: 0.2
    }
  }
}
layer {
  name: "inception_4a/relu_3x3"
  type: "ReLU"
  bottom: "inception_4a/3x3"
  top: "inception_4a/3x3"
}
layer {
  name: "inception_4a/5x5_reduce"
  type: "Convolution"
  bottom: "pool3/3x3_s2"
  top: "inception_4a/5x5_reduce"
  param {
    lr_mult: 1
    decay_mult: 1
  }
  param {
    lr_mult: 2
    decay_mult: 0
  }
  convolution_param {
    num_output: 16
    kernel_size: 1
    weight_filler {
      type: "xavier"
      std: 0.2
    }
    bias_filler {
      type: "constant"
      value: 0.2
    }
  }
}
layer {
  name: "inception_4a/relu_5x5_reduce"
  type: "ReLU"
  bottom: "inception_4a/5x5_reduce"
  top: "inception_4a/5x5_reduce"
}
layer {
  name: "inception_4a/5x5"
  type: "Convolution"
  bottom: "inception_4a/5x5_reduce"
  top: "inception_4a/5x5"
  param {
    lr_mult: 1
    decay_mult: 1
  }
  param {
    lr_mult: 2
    decay_mult: 0
  }
  convolution_param {
    num_output: 48
    pad: 2
    kernel_size: 5
    weight_filler {
      type: "xavier"
      std: 0.03
    }
    bias_filler {
      type: "constant"
      value: 0.2
    }
  }
}
layer {
  name: "inception_4a/relu_5x5"
  type: "ReLU"
  bottom: "inception_4a/5x5"
  top: "inception_4a/5x5"
}
layer {
  name: "inception_4a/pool"
  type: "Pooling"
  bottom: "pool3/3x3_s2"
  top: "inception_4a/pool"
  pooling_param {
    pool: MAX
    kernel_size: 3
    stride: 1
    pad: 1
  }
}
layer {
  name: "inception_4a/pool_proj"
  type: "Convolution"
  bottom: "inception_4a/pool"
  top: "inception_4a/pool_proj"
  param {
    lr_mult: 1
    decay_mult: 1
  }
  param {
    lr_mult: 2
    decay_mult: 0
  }
  convolution_param {
    num_output: 64
    kernel_size: 1
    weight_filler {
      type: "xavier"
      std: 0.1
    }
    bias_filler {
      type: "constant"
      value: 0.2
    }
  }
}
layer {
  name: "inception_4a/relu_pool_proj"
  type: "ReLU"
  bottom: "inception_4a/pool_proj"
  top: "inception_4a/pool_proj"
}
layer {
  name: "inception_4a/output"
  type: "Concat"
  bottom: "inception_4a/1x1"
  bottom: "inception_4a/3x3"
  bottom: "inception_4a/5x5"
  bottom: "inception_4a/pool_proj"
  top: "inception_4a/output"
}
layer {
  name: "loss1/ave_pool"
  type: "Pooling"
  bottom: "inception_4a/output"
  top: "loss1/ave_pool"
  pooling_param {
    pool: AVE
    kernel_size: 5
    stride: 3
  }
}
layer {
  name: "loss1/conv"
  type: "Convolution"
  bottom: "loss1/ave_pool"
  top: "loss1/conv"
  param {
    lr_mult: 1
    decay_mult: 1
  }
  param {
    lr_mult: 2
    decay_mult: 0
  }
  convolution_param {
    num_output: 128
    kernel_size: 1
    weight_filler {
      type: "xavier"
      std: 0.08
    }
    bias_filler {
      type: "constant"
      value: 0.2
    }
  }
}
layer {
  name: "loss1/relu_conv"
  type: "ReLU"
  bottom: "loss1/conv"
  top: "loss1/conv"
}
layer {
  name: "loss1/fc"
  type: "InnerProduct"
  bottom: "loss1/conv"
  top: "loss1/fc"
  param {
    lr_mult: 1
    decay_mult: 1
  }
  param {
    lr_mult: 2
    decay_mult: 0
  }
  inner_product_param {
    num_output: 1024
    weight_filler {
      type: "xavier"
      std: 0.02
    }
    bias_filler {
      type: "constant"
      value: 0.2
    }
  }
}
layer {
  name: "loss1/relu_fc"
  type: "ReLU"
  bottom: "loss1/fc"
  top: "loss1/fc"
}
layer {
  name: "loss1/drop_fc"
  type: "Dropout"
  bottom: "loss1/fc"
  top: "loss1/fc"
  dropout_param {
    dropout_ratio: 0.7
  }
}
layer {
  name: "loss1/classifier_plantvillage"
  type: "InnerProduct"
  bottom: "loss1/fc"
  top: "loss1/classifier_plantvillage"
  param {
    lr_mult: 1
    decay_mult: 1
  }
  param {
    lr_mult: 2
    decay_mult: 0
  }
  inner_product_param {
    num_output: 38
    weight_filler {
      type: "xavier"
      std: 0.0009765625
    }
    bias_filler {
      type: "constant"
      value: 0
    }
  }
}
layer {
  name: "inception_4b/1x1"
  type: "Convolution"
  bottom: "inception_4a/output"
  top: "inception_4b/1x1"
  param {
    lr_mult: 1
    decay_mult: 1
  }
  param {
    lr_mult: 2
    decay_mult: 0
  }
  convolution_param {
    num_output: 160
    kernel_size: 1
    weight_filler {
      type: "xavier"
      std: 0.03
    }
    bias_filler {
      type: "constant"
      value: 0.2
    }
  }
}
layer {
  name: "inception_4b/relu_1x1"
  type: "ReLU"
  bottom: "inception_4b/1x1"
  top: "inception_4b/1x1"
}
layer {
  name: "inception_4b/3x3_reduce"
  type: "Convolution"
  bottom: "inception_4a/output"
  top: "inception_4b/3x3_reduce"
  param {
    lr_mult: 1
    decay_mult: 1
  }
  param {
    lr_mult: 2
    decay_mult: 0
  }
  convolution_param {
    num_output: 112
    kernel_size: 1
    weight_filler {
      type: "xavier"
      std: 0.09
    }
    bias_filler {
      type: "constant"
      value: 0.2
    }
  }
}
layer {
  name: "inception_4b/relu_3x3_reduce"
  type: "ReLU"
  bottom: "inception_4b/3x3_reduce"
  top: "inception_4b/3x3_reduce"
}
layer {
  name: "inception_4b/3x3"
  type: "Convolution"
  bottom: "inception_4b/3x3_reduce"
  top: "inception_4b/3x3"
  param {
    lr_mult: 1
    decay_mult: 1
  }
  param {
    lr_mult: 2
    decay_mult: 0
  }
  convolution_param {
    num_output: 224
    pad: 1
    kernel_size: 3
    weight_filler {
      type: "xavier"
      std: 0.03
    }
    bias_filler {
      type: "constant"
      value: 0.2
    }
  }
}
layer {
  name: "inception_4b/relu_3x3"
  type: "ReLU"
  bottom: "inception_4b/3x3"
  top: "inception_4b/3x3"
}
layer {
  name: "inception_4b/5x5_reduce"
  type: "Convolution"
  bottom: "inception_4a/output"
  top: "inception_4b/5x5_reduce"
  param {
    lr_mult: 1
    decay_mult: 1
  }
  param {
    lr_mult: 2
    decay_mult: 0
  }
  convolution_param {
    num_output: 24
    kernel_size: 1
    weight_filler {
      type: "xavier"
      std: 0.2
    }
    bias_filler {
      type: "constant"
      value: 0.2
    }
  }
}
layer {
  name: "inception_4b/relu_5x5_reduce"
  type: "ReLU"
  bottom: "inception_4b/5x5_reduce"
  top: "inception_4b/5x5_reduce"
}
layer {
  name: "inception_4b/5x5"
  type: "Convolution"
  bottom: "inception_4b/5x5_reduce"
  top: "inception_4b/5x5"
  param {
    lr_mult: 1
    decay_mult: 1
  }
  param {
    lr_mult: 2
    decay_mult: 0
  }
  convolution_param {
    num_output: 64
    pad: 2
    kernel_size: 5
    weight_filler {
      type: "xavier"
      std: 0.03
    }
    bias_filler {
      type: "constant"
      value: 0.2
    }
  }
}
layer {
  name: "inception_4b/relu_5x5"
  type: "ReLU"
  bottom: "inception_4b/5x5"
  top: "inception_4b/5x5"
}
layer {
  name: "inception_4b/pool"
  type: "Pooling"
  bottom: "inception_4a/output"
  top: "inception_4b/pool"
  pooling_param {
    pool: MAX
    kernel_size: 3
    stride: 1
    pad: 1
  }
}
layer {
  name: "inception_4b/pool_proj"
  type: "Convolution"
  bottom: "inception_4b/pool"
  top: "inception_4b/pool_proj"
  param {
    lr_mult: 1
    decay_mult: 1
  }
  param {
    lr_mult: 2
    decay_mult: 0
  }
  convolution_param {
    num_output: 64
    kernel_size: 1
    weight_filler {
      type: "xavier"
      std: 0.1
    }
    bias_filler {
      type: "constant"
      value: 0.2
    }
  }
}
layer {
  name: "inception_4b/relu_pool_proj"
  type: "ReLU"
  bottom: "inception_4b/pool_proj"
  top: "inception_4b/pool_proj"
}
layer {
  name: "inception_4b/output"
  type: "Concat"
  bottom: "inception_4b/1x1"
  bottom: "inception_4b/3x3"
  bottom: "inception_4b/5x5"
  bottom: "inception_4b/pool_proj"
  top: "inception_4b/output"
}
layer {
  name: "inception_4c/1x1"
  type: "Convolution"
  bottom: "inception_4b/output"
  top: "inception_4c/1x1"
  param {
    lr_mult: 1
    decay_mult: 1
  }
  param {
    lr_mult: 2
    decay_mult: 0
  }
  convolution_param {
    num_output: 128
    kernel_size: 1
    weight_filler {
      type: "xavier"
      std: 0.03
    }
    bias_filler {
      type: "constant"
      value: 0.2
    }
  }
}
layer {
  name: "inception_4c/relu_1x1"
  type: "ReLU"
  bottom: "inception_4c/1x1"
  top: "inception_4c/1x1"
}
layer {
  name: "inception_4c/3x3_reduce"
  type: "Convolution"
  bottom: "inception_4b/output"
  top: "inception_4c/3x3_reduce"
  param {
    lr_mult: 1
    decay_mult: 1
  }
  param {
    lr_mult: 2
    decay_mult: 0
  }
  convolution_param {
    num_output: 128
    kernel_size: 1
    weight_filler {
      type: "xavier"
      std: 0.09
    }
    bias_filler {
      type: "constant"
      value: 0.2
    }
  }
}
layer {
  name: "inception_4c/relu_3x3_reduce"
  type: "ReLU"
  bottom: "inception_4c/3x3_reduce"
  top: "inception_4c/3x3_reduce"
}
layer {
  name: "inception_4c/3x3"
  type: "Convolution"
  bottom: "inception_4c/3x3_reduce"
  top: "inception_4c/3x3"
  param {
    lr_mult: 1
    decay_mult: 1
  }
  param {
    lr_mult: 2
    decay_mult: 0
  }
  convolution_param {
    num_output: 256
    pad: 1
    kernel_size: 3
    weight_filler {
      type: "xavier"
      std: 0.03
    }
    bias_filler {
      type: "constant"
      value: 0.2
    }
  }
}
layer {
  name: "inception_4c/relu_3x3"
  type: "ReLU"
  bottom: "inception_4c/3x3"
  top: "inception_4c/3x3"
}
layer {
  name: "inception_4c/5x5_reduce"
  type: "Convolution"
  bottom: "inception_4b/output"
  top: "inception_4c/5x5_reduce"
  param {
    lr_mult: 1
    decay_mult: 1
  }
  param {
    lr_mult: 2
    decay_mult: 0
  }
  convolution_param {
    num_output: 24
    kernel_size: 1
    weight_filler {
      type: "xavier"
      std: 0.2
    }
    bias_filler {
      type: "constant"
      value: 0.2
    }
  }
}
layer {
  name: "inception_4c/relu_5x5_reduce"
  type: "ReLU"
  bottom: "inception_4c/5x5_reduce"
  top: "inception_4c/5x5_reduce"
}
layer {
  name: "inception_4c/5x5"
  type: "Convolution"
  bottom: "inception_4c/5x5_reduce"
  top: "inception_4c/5x5"
  param {
    lr_mult: 1
    decay_mult: 1
  }
  param {
    lr_mult: 2
    decay_mult: 0
  }
  convolution_param {
    num_output: 64
    pad: 2
    kernel_size: 5
    weight_filler {
      type: "xavier"
      std: 0.03
    }
    bias_filler {
      type: "constant"
      value: 0.2
    }
  }
}
layer {
  name: "inception_4c/relu_5x5"
  type: "ReLU"
  bottom: "inception_4c/5x5"
  top: "inception_4c/5x5"
}
layer {
  name: "inception_4c/pool"
  type: "Pooling"
  bottom: "inception_4b/output"
  top: "inception_4c/pool"
  pooling_param {
    pool: MAX
    kernel_size: 3
    stride: 1
    pad: 1
  }
}
layer {
  name: "inception_4c/pool_proj"
  type: "Convolution"
  bottom: "inception_4c/pool"
  top: "inception_4c/pool_proj"
  param {
    lr_mult: 1
    decay_mult: 1
  }
  param {
    lr_mult: 2
    decay_mult: 0
  }
  convolution_param {
    num_output: 64
    kernel_size: 1
    weight_filler {
      type: "xavier"
      std: 0.1
    }
    bias_filler {
      type: "constant"
      value: 0.2
    }
  }
}
layer {
  name: "inception_4c/relu_pool_proj"
  type: "ReLU"
  bottom: "inception_4c/pool_proj"
  top: "inception_4c/pool_proj"
}
layer {
  name: "inception_4c/output"
  type: "Concat"
  bottom: "inception_4c/1x1"
  bottom: "inception_4c/3x3"
  bottom: "inception_4c/5x5"
  bottom: "inception_4c/pool_proj"
  top: "inception_4c/output"
}
layer {
  name: "inception_4d/1x1"
  type: "Convolution"
  bottom: "inception_4c/output"
  top: "inception_4d/1x1"
  param {
    lr_mult: 1
    decay_mult: 1
  }
  param {
    lr_mult: 2
    decay_mult: 0
  }
  convolution_param {
    num_output: 112
    kernel_size: 1
    weight_filler {
      type: "xavier"
      std: 0.03
    }
    bias_filler {
      type: "constant"
      value: 0.2
    }
  }
}
layer {
  name: "inception_4d/relu_1x1"
  type: "ReLU"
  bottom: "inception_4d/1x1"
  top: "inception_4d/1x1"
}
layer {
  name: "inception_4d/3x3_reduce"
  type: "Convolution"
  bottom: "inception_4c/output"
  top: "inception_4d/3x3_reduce"
  param {
    lr_mult: 1
    decay_mult: 1
  }
  param {
    lr_mult: 2
    decay_mult: 0
  }
  convolution_param {
    num_output: 144
    kernel_size: 1
    weight_filler {
      type: "xavier"
      std: 0.09
    }
    bias_filler {
      type: "constant"
      value: 0.2
    }
  }
}
layer {
  name: "inception_4d/relu_3x3_reduce"
  type: "ReLU"
  bottom: "inception_4d/3x3_reduce"
  top: "inception_4d/3x3_reduce"
}
layer {
  name: "inception_4d/3x3"
  type: "Convolution"
  bottom: "inception_4d/3x3_reduce"
  top: "inception_4d/3x3"
  param {
    lr_mult: 1
    decay_mult: 1
  }
  param {
    lr_mult: 2
    decay_mult: 0
  }
  convolution_param {
    num_output: 288
    pad: 1
    kernel_size: 3
    weight_filler {
      type: "xavier"
      std: 0.03
    }
    bias_filler {
      type: "constant"
      value: 0.2
    }
  }
}
layer {
  name: "inception_4d/relu_3x3"
  type: "ReLU"
  bottom: "inception_4d/3x3"
  top: "inception_4d/3x3"
}
layer {
  name: "inception_4d/5x5_reduce"
  type: "Convolution"
  bottom: "inception_4c/output"
  top: "inception_4d/5x5_reduce"
  param {
    lr_mult: 1
    decay_mult: 1
  }
  param {
    lr_mult: 2
    decay_mult: 0
  }
  convolution_param {
    num_output: 32
    kernel_size: 1
    weight_filler {
      type: "xavier"
      std: 0.2
    }
    bias_filler {
      type: "constant"
      value: 0.2
    }
  }
}
layer {
  name: "inception_4d/relu_5x5_reduce"
  type: "ReLU"
  bottom: "inception_4d/5x5_reduce"
  top: "inception_4d/5x5_reduce"
}
layer {
  name: "inception_4d/5x5"
  type: "Convolution"
  bottom: "inception_4d/5x5_reduce"
  top: "inception_4d/5x5"
  param {
    lr_mult: 1
    decay_mult: 1
  }
  param {
    lr_mult: 2
    decay_mult: 0
  }
  convolution_param {
    num_output: 64
    pad: 2
    kernel_size: 5
    weight_filler {
      type: "xavier"
      std: 0.03
    }
    bias_filler {
      type: "constant"
      value: 0.2
    }
  }
}
layer {
  name: "inception_4d/relu_5x5"
  type: "ReLU"
  bottom: "inception_4d/5x5"
  top: "inception_4d/5x5"
}
layer {
  name: "inception_4d/pool"
  type: "Pooling"
  bottom: "inception_4c/output"
  top: "inception_4d/pool"
  pooling_param {
    pool: MAX
    kernel_size: 3
    stride: 1
    pad: 1
  }
}
layer {
  name: "inception_4d/pool_proj"
  type: "Convolution"
  bottom: "inception_4d/pool"
  top: "inception_4d/pool_proj"
  param {
    lr_mult: 1
    decay_mult: 1
  }
  param {
    lr_mult: 2
    decay_mult: 0
  }
  convolution_param {
    num_output: 64
    kernel_size: 1
    weight_filler {
      type: "xavier"
      std: 0.1
    }
    bias_filler {
      type: "constant"
      value: 0.2
    }
  }
}
layer {
  name: "inception_4d/relu_pool_proj"
  type: "ReLU"
  bottom: "inception_4d/pool_proj"
  top: "inception_4d/pool_proj"
}
layer {
  name: "inception_4d/output"
  type: "Concat"
  bottom: "inception_4d/1x1"
  bottom: "inception_4d/3x3"
  bottom: "inception_4d/5x5"
  bottom: "inception_4d/pool_proj"
  top: "inception_4d/output"
}
layer {
  name: "loss2/ave_pool"
  type: "Pooling"
  bottom: "inception_4d/output"
  top: "loss2/ave_pool"
  pooling_param {
    pool: AVE
    kernel_size: 5
    stride: 3
  }
}
layer {
  name: "loss2/conv"
  type: "Convolution"
  bottom: "loss2/ave_pool"
  top: "loss2/conv"
  param {
    lr_mult: 1
    decay_mult: 1
  }
  param {
    lr_mult: 2
    decay_mult: 0
  }
  convolution_param {
    num_output: 128
    kernel_size: 1
    weight_filler {
      type: "xavier"
      std: 0.08
    }
    bias_filler {
      type: "constant"
      value: 0.2
    }
  }
}
layer {
  name: "loss2/relu_conv"
  type: "ReLU"
  bottom: "loss2/conv"
  top: "loss2/conv"
}
layer {
  name: "loss2/fc"
  type: "InnerProduct"
  bottom: "loss2/conv"
  top: "loss2/fc"
  param {
    lr_mult: 1
    decay_mult: 1
  }
  param {
    lr_mult: 2
    decay_mult: 0
  }
  inner_product_param {
    num_output: 1024
    weight_filler {
      type: "xavier"
      std: 0.02
    }
    bias_filler {
      type: "constant"
      value: 0.2
    }
  }
}
layer {
  name: "loss2/relu_fc"
  type: "ReLU"
  bottom: "loss2/fc"
  top: "loss2/fc"
}
layer {
  name: "loss2/drop_fc"
  type: "Dropout"
  bottom: "loss2/fc"
  top: "loss2/fc"
  dropout_param {
    dropout_ratio: 0.7
  }
}
layer {
  name: "loss2/classifier_plantvillage"
  type: "InnerProduct"
  bottom: "loss2/fc"
  top: "loss2/classifier_plantvillage"
  param {
    lr_mult: 1
    decay_mult: 1
  }
  param {
    lr_mult: 2
    decay_mult: 0
  }
  inner_product_param {
    num_output: 38
    weight_filler {
      type: "xavier"
      std: 0.0009765625
    }
    bias_filler {
      type: "constant"
      value: 0
    }
  }
}
layer {
  name: "inception_4e/1x1"
  type: "Convolution"
  bottom: "inception_4d/output"
  top: "inception_4e/1x1"
  param {
    lr_mult: 1
    decay_mult: 1
  }
  param {
    lr_mult: 2
    decay_mult: 0
  }
  convolution_param {
    num_output: 256
    kernel_size: 1
    weight_filler {
      type: "xavier"
      std: 0.03
    }
    bias_filler {
      type: "constant"
      value: 0.2
    }
  }
}
layer {
  name: "inception_4e/relu_1x1"
  type: "ReLU"
  bottom: "inception_4e/1x1"
  top: "inception_4e/1x1"
}
layer {
  name: "inception_4e/3x3_reduce"
  type: "Convolution"
  bottom: "inception_4d/output"
  top: "inception_4e/3x3_reduce"
  param {
    lr_mult: 1
    decay_mult: 1
  }
  param {
    lr_mult: 2
    decay_mult: 0
  }
  convolution_param {
    num_output: 160
    kernel_size: 1
    weight_filler {
      type: "xavier"
      std: 0.09
    }
    bias_filler {
      type: "constant"
      value: 0.2
    }
  }
}
layer {
  name: "inception_4e/relu_3x3_reduce"
  type: "ReLU"
  bottom: "inception_4e/3x3_reduce"
  top: "inception_4e/3x3_reduce"
}
layer {
  name: "inception_4e/3x3"
  type: "Convolution"
  bottom: "inception_4e/3x3_reduce"
  top: "inception_4e/3x3"
  param {
    lr_mult: 1
    decay_mult: 1
  }
  param {
    lr_mult: 2
    decay_mult: 0
  }
  convolution_param {
    num_output: 320
    pad: 1
    kernel_size: 3
    weight_filler {
      type: "xavier"
      std: 0.03
    }
    bias_filler {
      type: "constant"
      value: 0.2
    }
  }
}
layer {
  name: "inception_4e/relu_3x3"
  type: "ReLU"
  bottom: "inception_4e/3x3"
  top: "inception_4e/3x3"
}
layer {
  name: "inception_4e/5x5_reduce"
  type: "Convolution"
  bottom: "inception_4d/output"
  top: "inception_4e/5x5_reduce"
  param {
    lr_mult: 1
    decay_mult: 1
  }
  param {
    lr_mult: 2
    decay_mult: 0
  }
  convolution_param {
    num_output: 32
    kernel_size: 1
    weight_filler {
      type: "xavier"
      std: 0.2
    }
    bias_filler {
      type: "constant"
      value: 0.2
    }
  }
}
layer {
  name: "inception_4e/relu_5x5_reduce"
  type: "ReLU"
  bottom: "inception_4e/5x5_reduce"
  top: "inception_4e/5x5_reduce"
}
layer {
  name: "inception_4e/5x5"
  type: "Convolution"
  bottom: "inception_4e/5x5_reduce"
  top: "inception_4e/
I0403 13:53:52.474421 12207 layer_factory.hpp:77] Creating layer data
I0403 13:53:52.475055 12207 net.cpp:91] Creating Layer data
I0403 13:53:52.475090 12207 net.cpp:399] data -> data
I0403 13:53:52.475142 12207 net.cpp:399] data -> label
I0403 13:53:52.475178 12207 data_transformer.cpp:25] Loading mean file from: /home/mohanty/data/final_dataset/lmdb/segmented-20-80/mean.binaryproto
I0403 13:53:52.479863 12212 db_lmdb.cpp:38] Opened lmdb /home/mohanty/data/final_dataset/lmdb/segmented-20-80/test_db
I0403 13:53:52.488816 12207 data_layer.cpp:41] output data size: 24,3,224,224
I0403 13:53:52.516155 12207 net.cpp:141] Setting up data
I0403 13:53:52.516247 12207 net.cpp:148] Top shape: 24 3 224 224 (3612672)
I0403 13:53:52.516269 12207 net.cpp:148] Top shape: 24 (24)
I0403 13:53:52.516285 12207 net.cpp:156] Memory required for data: 14450784
I0403 13:53:52.516312 12207 layer_factory.hpp:77] Creating layer label_data_1_split
I0403 13:53:52.516340 12207 net.cpp:91] Creating Layer label_data_1_split
I0403 13:53:52.516357 12207 net.cpp:425] label_data_1_split <- label
I0403 13:53:52.516391 12207 net.cpp:399] label_data_1_split -> label_data_1_split_0
I0403 13:53:52.516418 12207 net.cpp:399] label_data_1_split -> label_data_1_split_1
I0403 13:53:52.516440 12207 net.cpp:399] label_data_1_split -> label_data_1_split_2
I0403 13:53:52.516461 12207 net.cpp:399] label_data_1_split -> label_data_1_split_3
I0403 13:53:52.516481 12207 net.cpp:399] label_data_1_split -> label_data_1_split_4
I0403 13:53:52.516501 12207 net.cpp:399] label_data_1_split -> label_data_1_split_5
I0403 13:53:52.516520 12207 net.cpp:399] label_data_1_split -> label_data_1_split_6
I0403 13:53:52.516546 12207 net.cpp:399] label_data_1_split -> label_data_1_split_7
I0403 13:53:52.516567 12207 net.cpp:399] label_data_1_split -> label_data_1_split_8
I0403 13:53:52.516587 12207 net.cpp:399] label_data_1_split -> label_data_1_split_9
I0403 13:53:52.516707 12207 net.cpp:141] Setting up label_data_1_split
I0403 13:53:52.516732 12207 net.cpp:148] Top shape: 24 (24)
I0403 13:53:52.516749 12207 net.cpp:148] Top shape: 24 (24)
I0403 13:53:52.516765 12207 net.cpp:148] Top shape: 24 (24)
I0403 13:53:52.516782 12207 net.cpp:148] Top shape: 24 (24)
I0403 13:53:52.516796 12207 net.cpp:148] Top shape: 24 (24)
I0403 13:53:52.516813 12207 net.cpp:148] Top shape: 24 (24)
I0403 13:53:52.516829 12207 net.cpp:148] Top shape: 24 (24)
I0403 13:53:52.516844 12207 net.cpp:148] Top shape: 24 (24)
I0403 13:53:52.516860 12207 net.cpp:148] Top shape: 24 (24)
I0403 13:53:52.516875 12207 net.cpp:148] Top shape: 24 (24)
I0403 13:53:52.516923 12207 net.cpp:156] Memory required for data: 14451744
I0403 13:53:52.516940 12207 layer_factory.hpp:77] Creating layer conv1/7x7_s2
I0403 13:53:52.516971 12207 net.cpp:91] Creating Layer conv1/7x7_s2
I0403 13:53:52.516990 12207 net.cpp:425] conv1/7x7_s2 <- data
I0403 13:53:52.517010 12207 net.cpp:399] conv1/7x7_s2 -> conv1/7x7_s2
I0403 13:53:52.658483 12207 net.cpp:141] Setting up conv1/7x7_s2
I0403 13:53:52.658562 12207 net.cpp:148] Top shape: 24 64 112 112 (19267584)
I0403 13:53:52.658581 12207 net.cpp:156] Memory required for data: 91522080
I0403 13:53:52.658610 12207 layer_factory.hpp:77] Creating layer conv1/relu_7x7
I0403 13:53:52.658638 12207 net.cpp:91] Creating Layer conv1/relu_7x7
I0403 13:53:52.658654 12207 net.cpp:425] conv1/relu_7x7 <- conv1/7x7_s2
I0403 13:53:52.658674 12207 net.cpp:386] conv1/relu_7x7 -> conv1/7x7_s2 (in-place)
I0403 13:53:52.658926 12207 net.cpp:141] Setting up conv1/relu_7x7
I0403 13:53:52.658953 12207 net.cpp:148] Top shape: 24 64 112 112 (19267584)
I0403 13:53:52.658968 12207 net.cpp:156] Memory required for data: 168592416
I0403 13:53:52.658982 12207 layer_factory.hpp:77] Creating layer pool1/3x3_s2
I0403 13:53:52.659008 12207 net.cpp:91] Creating Layer pool1/3x3_s2
I0403 13:53:52.659024 12207 net.cpp:425] pool1/3x3_s2 <- conv1/7x7_s2
I0403 13:53:52.659042 12207 net.cpp:399] pool1/3x3_s2 -> pool1/3x3_s2
I0403 13:53:52.659116 12207 net.cpp:141] Setting up pool1/3x3_s2
I0403 13:53:52.659139 12207 net.cpp:148] Top shape: 24 64 56 56 (4816896)
I0403 13:53:52.659154 12207 net.cpp:156] Memory required for data: 187860000
I0403 13:53:52.659168 12207 layer_factory.hpp:77] Creating layer pool1/norm1
I0403 13:53:52.659191 12207 net.cpp:91] Creating Layer pool1/norm1
I0403 13:53:52.659209 12207 net.cpp:425] pool1/norm1 <- pool1/3x3_s2
I0403 13:53:52.659225 12207 net.cpp:399] pool1/norm1 -> pool1/norm1
I0403 13:53:52.659525 12207 net.cpp:141] Setting up pool1/norm1
I0403 13:53:52.659557 12207 net.cpp:148] Top shape: 24 64 56 56 (4816896)
I0403 13:53:52.659574 12207 net.cpp:156] Memory required for data: 207127584
I0403 13:53:52.659590 12207 layer_factory.hpp:77] Creating layer conv2/3x3_reduce
I0403 13:53:52.659634 12207 net.cpp:91] Creating Layer conv2/3x3_reduce
I0403 13:53:52.659651 12207 net.cpp:425] conv2/3x3_reduce <- pool1/norm1
I0403 13:53:52.659669 12207 net.cpp:399] conv2/3x3_reduce -> conv2/3x3_reduce
I0403 13:53:52.660980 12207 net.cpp:141] Setting up conv2/3x3_reduce
I0403 13:53:52.661013 12207 net.cpp:148] Top shape: 24 64 56 56 (4816896)
I0403 13:53:52.661029 12207 net.cpp:156] Memory required for data: 226395168
I0403 13:53:52.661049 12207 layer_factory.hpp:77] Creating layer conv2/relu_3x3_reduce
I0403 13:53:52.661068 12207 net.cpp:91] Creating Layer conv2/relu_3x3_reduce
I0403 13:53:52.661083 12207 net.cpp:425] conv2/relu_3x3_reduce <- conv2/3x3_reduce
I0403 13:53:52.661103 12207 net.cpp:386] conv2/relu_3x3_reduce -> conv2/3x3_reduce (in-place)
I0403 13:53:52.661368 12207 net.cpp:141] Setting up conv2/relu_3x3_reduce
I0403 13:53:52.661396 12207 net.cpp:148] Top shape: 24 64 56 56 (4816896)
I0403 13:53:52.661411 12207 net.cpp:156] Memory required for data: 245662752
I0403 13:53:52.661425 12207 layer_factory.hpp:77] Creating layer conv2/3x3
I0403 13:53:52.661448 12207 net.cpp:91] Creating Layer conv2/3x3
I0403 13:53:52.661465 12207 net.cpp:425] conv2/3x3 <- conv2/3x3_reduce
I0403 13:53:52.661485 12207 net.cpp:399] conv2/3x3 -> conv2/3x3
I0403 13:53:52.663786 12207 net.cpp:141] Setting up conv2/3x3
I0403 13:53:52.663817 12207 net.cpp:148] Top shape: 24 192 56 56 (14450688)
I0403 13:53:52.663835 12207 net.cpp:156] Memory required for data: 303465504
I0403 13:53:52.663854 12207 layer_factory.hpp:77] Creating layer conv2/relu_3x3
I0403 13:53:52.663873 12207 net.cpp:91] Creating Layer conv2/relu_3x3
I0403 13:53:52.663889 12207 net.cpp:425] conv2/relu_3x3 <- conv2/3x3
I0403 13:53:52.663908 12207 net.cpp:386] conv2/relu_3x3 -> conv2/3x3 (in-place)
I0403 13:53:52.664078 12207 net.cpp:141] Setting up conv2/relu_3x3
I0403 13:53:52.664103 12207 net.cpp:148] Top shape: 24 192 56 56 (14450688)
I0403 13:53:52.664149 12207 net.cpp:156] Memory required for data: 361268256
I0403 13:53:52.664165 12207 layer_factory.hpp:77] Creating layer conv2/norm2
I0403 13:53:52.664185 12207 net.cpp:91] Creating Layer conv2/norm2
I0403 13:53:52.664201 12207 net.cpp:425] conv2/norm2 <- conv2/3x3
I0403 13:53:52.664218 12207 net.cpp:399] conv2/norm2 -> conv2/norm2
I0403 13:53:52.664518 12207 net.cpp:141] Setting up conv2/norm2
I0403 13:53:52.664559 12207 net.cpp:148] Top shape: 24 192 56 56 (14450688)
I0403 13:53:52.664577 12207 net.cpp:156] Memory required for data: 419071008
I0403 13:53:52.664594 12207 layer_factory.hpp:77] Creating layer pool2/3x3_s2
I0403 13:53:52.664613 12207 net.cpp:91] Creating Layer pool2/3x3_s2
I0403 13:53:52.664628 12207 net.cpp:425] pool2/3x3_s2 <- conv2/norm2
I0403 13:53:52.664644 12207 net.cpp:399] pool2/3x3_s2 -> pool2/3x3_s2
I0403 13:53:52.664696 12207 net.cpp:141] Setting up pool2/3x3_s2
I0403 13:53:52.664718 12207 net.cpp:148] Top shape: 24 192 28 28 (3612672)
I0403 13:53:52.664732 12207 net.cpp:156] Memory required for data: 433521696
I0403 13:53:52.664746 12207 layer_factory.hpp:77] Creating layer pool2/3x3_s2_pool2/3x3_s2_0_split
I0403 13:53:52.664762 12207 net.cpp:91] Creating Layer pool2/3x3_s2_pool2/3x3_s2_0_split
I0403 13:53:52.664777 12207 net.cpp:425] pool2/3x3_s2_pool2/3x3_s2_0_split <- pool2/3x3_s2
I0403 13:53:52.664795 12207 net.cpp:399] pool2/3x3_s2_pool2/3x3_s2_0_split -> pool2/3x3_s2_pool2/3x3_s2_0_split_0
I0403 13:53:52.664815 12207 net.cpp:399] pool2/3x3_s2_pool2/3x3_s2_0_split -> pool2/3x3_s2_pool2/3x3_s2_0_split_1
I0403 13:53:52.664835 12207 net.cpp:399] pool2/3x3_s2_pool2/3x3_s2_0_split -> pool2/3x3_s2_pool2/3x3_s2_0_split_2
I0403 13:53:52.664858 12207 net.cpp:399] pool2/3x3_s2_pool2/3x3_s2_0_split -> pool2/3x3_s2_pool2/3x3_s2_0_split_3
I0403 13:53:52.664932 12207 net.cpp:141] Setting up pool2/3x3_s2_pool2/3x3_s2_0_split
I0403 13:53:52.664953 12207 net.cpp:148] Top shape: 24 192 28 28 (3612672)
I0403 13:53:52.664969 12207 net.cpp:148] Top shape: 24 192 28 28 (3612672)
I0403 13:53:52.664984 12207 net.cpp:148] Top shape: 24 192 28 28 (3612672)
I0403 13:53:52.664999 12207 net.cpp:148] Top shape: 24 192 28 28 (3612672)
I0403 13:53:52.665012 12207 net.cpp:156] Memory required for data: 491324448
I0403 13:53:52.665025 12207 layer_factory.hpp:77] Creating layer inception_3a/1x1
I0403 13:53:52.665047 12207 net.cpp:91] Creating Layer inception_3a/1x1
I0403 13:53:52.665065 12207 net.cpp:425] inception_3a/1x1 <- pool2/3x3_s2_pool2/3x3_s2_0_split_0
I0403 13:53:52.665084 12207 net.cpp:399] inception_3a/1x1 -> inception_3a/1x1
I0403 13:53:52.666623 12207 net.cpp:141] Setting up inception_3a/1x1
I0403 13:53:52.666654 12207 net.cpp:148] Top shape: 24 64 28 28 (1204224)
I0403 13:53:52.666671 12207 net.cpp:156] Memory required for data: 496141344
I0403 13:53:52.666689 12207 layer_factory.hpp:77] Creating layer inception_3a/relu_1x1
I0403 13:53:52.666707 12207 net.cpp:91] Creating Layer inception_3a/relu_1x1
I0403 13:53:52.666723 12207 net.cpp:425] inception_3a/relu_1x1 <- inception_3a/1x1
I0403 13:53:52.666741 12207 net.cpp:386] inception_3a/relu_1x1 -> inception_3a/1x1 (in-place)
I0403 13:53:52.666913 12207 net.cpp:141] Setting up inception_3a/relu_1x1
I0403 13:53:52.666936 12207 net.cpp:148] Top shape: 24 64 28 28 (1204224)
I0403 13:53:52.666950 12207 net.cpp:156] Memory required for data: 500958240
I0403 13:53:52.666965 12207 layer_factory.hpp:77] Creating layer inception_3a/3x3_reduce
I0403 13:53:52.666987 12207 net.cpp:91] Creating Layer inception_3a/3x3_reduce
I0403 13:53:52.667003 12207 net.cpp:425] inception_3a/3x3_reduce <- pool2/3x3_s2_pool2/3x3_s2_0_split_1
I0403 13:53:52.667024 12207 net.cpp:399] inception_3a/3x3_reduce -> inception_3a/3x3_reduce
I0403 13:53:52.668728 12207 net.cpp:141] Setting up inception_3a/3x3_reduce
I0403 13:53:52.668759 12207 net.cpp:148] Top shape: 24 96 28 28 (1806336)
I0403 13:53:52.668776 12207 net.cpp:156] Memory required for data: 508183584
I0403 13:53:52.668797 12207 layer_factory.hpp:77] Creating layer inception_3a/relu_3x3_reduce
I0403 13:53:52.668831 12207 net.cpp:91] Creating Layer inception_3a/relu_3x3_reduce
I0403 13:53:52.668858 12207 net.cpp:425] inception_3a/relu_3x3_reduce <- inception_3a/3x3_reduce
I0403 13:53:52.668876 12207 net.cpp:386] inception_3a/relu_3x3_reduce -> inception_3a/3x3_reduce (in-place)
I0403 13:53:52.669051 12207 net.cpp:141] Setting up inception_3a/relu_3x3_reduce
I0403 13:53:52.669078 12207 net.cpp:148] Top shape: 24 96 28 28 (1806336)
I0403 13:53:52.669095 12207 net.cpp:156] Memory required for data: 515408928
I0403 13:53:52.669108 12207 layer_factory.hpp:77] Creating layer inception_3a/3x3
I0403 13:53:52.669131 12207 net.cpp:91] Creating Layer inception_3a/3x3
I0403 13:53:52.669147 12207 net.cpp:425] inception_3a/3x3 <- inception_3a/3x3_reduce
I0403 13:53:52.669165 12207 net.cpp:399] inception_3a/3x3 -> inception_3a/3x3
I0403 13:53:52.670796 12207 net.cpp:141] Setting up inception_3a/3x3
I0403 13:53:52.670827 12207 net.cpp:148] Top shape: 24 128 28 28 (2408448)
I0403 13:53:52.670842 12207 net.cpp:156] Memory required for data: 525042720
I0403 13:53:52.670861 12207 layer_factory.hpp:77] Creating layer inception_3a/relu_3x3
I0403 13:53:52.670877 12207 net.cpp:91] Creating Layer inception_3a/relu_3x3
I0403 13:53:52.670892 12207 net.cpp:425] inception_3a/relu_3x3 <- inception_3a/3x3
I0403 13:53:52.670912 12207 net.cpp:386] inception_3a/relu_3x3 -> inception_3a/3x3 (in-place)
I0403 13:53:52.671200 12207 net.cpp:141] Setting up inception_3a/relu_3x3
I0403 13:53:52.671226 12207 net.cpp:148] Top shape: 24 128 28 28 (2408448)
I0403 13:53:52.671241 12207 net.cpp:156] Memory required for data: 534676512
I0403 13:53:52.671254 12207 layer_factory.hpp:77] Creating layer inception_3a/5x5_reduce
I0403 13:53:52.671277 12207 net.cpp:91] Creating Layer inception_3a/5x5_reduce
I0403 13:53:52.671293 12207 net.cpp:425] inception_3a/5x5_reduce <- pool2/3x3_s2_pool2/3x3_s2_0_split_2
I0403 13:53:52.671311 12207 net.cpp:399] inception_3a/5x5_reduce -> inception_3a/5x5_reduce
I0403 13:53:52.672272 12207 net.cpp:141] Setting up inception_3a/5x5_reduce
I0403 13:53:52.672299 12207 net.cpp:148] Top shape: 24 16 28 28 (301056)
I0403 13:53:52.672313 12207 net.cpp:156] Memory required for data: 535880736
I0403 13:53:52.672330 12207 layer_factory.hpp:77] Creating layer inception_3a/relu_5x5_reduce
I0403 13:53:52.672350 12207 net.cpp:91] Creating Layer inception_3a/relu_5x5_reduce
I0403 13:53:52.672366 12207 net.cpp:425] inception_3a/relu_5x5_reduce <- inception_3a/5x5_reduce
I0403 13:53:52.672382 12207 net.cpp:386] inception_3a/relu_5x5_reduce -> inception_3a/5x5_reduce (in-place)
I0403 13:53:52.672674 12207 net.cpp:141] Setting up inception_3a/relu_5x5_reduce
I0403 13:53:52.672700 12207 net.cpp:148] Top shape: 24 16 28 28 (301056)
I0403 13:53:52.672715 12207 net.cpp:156] Memory required for data: 537084960
I0403 13:53:52.672729 12207 layer_factory.hpp:77] Creating layer inception_3a/5x5
I0403 13:53:52.672750 12207 net.cpp:91] Creating Layer inception_3a/5x5
I0403 13:53:52.672766 12207 net.cpp:425] inception_3a/5x5 <- inception_3a/5x5_reduce
I0403 13:53:52.672786 12207 net.cpp:399] inception_3a/5x5 -> inception_3a/5x5
I0403 13:53:52.673789 12207 net.cpp:141] Setting up inception_3a/5x5
I0403 13:53:52.673817 12207 net.cpp:148] Top shape: 24 32 28 28 (602112)
I0403 13:53:52.673832 12207 net.cpp:156] Memory required for data: 539493408
I0403 13:53:52.673849 12207 layer_factory.hpp:77] Creating layer inception_3a/relu_5x5
I0403 13:53:52.673866 12207 net.cpp:91] Creating Layer inception_3a/relu_5x5
I0403 13:53:52.673882 12207 net.cpp:425] inception_3a/relu_5x5 <- inception_3a/5x5
I0403 13:53:52.673899 12207 net.cpp:386] inception_3a/relu_5x5 -> inception_3a/5x5 (in-place)
I0403 13:53:52.674064 12207 net.cpp:141] Setting up inception_3a/relu_5x5
I0403 13:53:52.674088 12207 net.cpp:148] Top shape: 24 32 28 28 (602112)
I0403 13:53:52.674101 12207 net.cpp:156] Memory required for data: 541901856
I0403 13:53:52.674115 12207 layer_factory.hpp:77] Creating layer inception_3a/pool
I0403 13:53:52.674132 12207 net.cpp:91] Creating Layer inception_3a/pool
I0403 13:53:52.674160 12207 net.cpp:425] inception_3a/pool <- pool2/3x3_s2_pool2/3x3_s2_0_split_3
I0403 13:53:52.674181 12207 net.cpp:399] inception_3a/pool -> inception_3a/pool
I0403 13:53:52.674235 12207 net.cpp:141] Setting up inception_3a/pool
I0403 13:53:52.674266 12207 net.cpp:148] Top shape: 24 192 28 28 (3612672)
I0403 13:53:52.674280 12207 net.cpp:156] Memory required for data: 556352544
I0403 13:53:52.674294 12207 layer_factory.hpp:77] Creating layer inception_3a/pool_proj
I0403 13:53:52.674319 12207 net.cpp:91] Creating Layer inception_3a/pool_proj
I0403 13:53:52.674335 12207 net.cpp:425] inception_3a/pool_proj <- inception_3a/pool
I0403 13:53:52.674352 12207 net.cpp:399] inception_3a/pool_proj -> inception_3a/pool_proj
I0403 13:53:52.675330 12207 net.cpp:141] Setting up inception_3a/pool_proj
I0403 13:53:52.675357 12207 net.cpp:148] Top shape: 24 32 28 28 (602112)
I0403 13:53:52.675371 12207 net.cpp:156] Memory required for data: 558760992
I0403 13:53:52.675395 12207 layer_factory.hpp:77] Creating layer inception_3a/relu_pool_proj
I0403 13:53:52.675415 12207 net.cpp:91] Creating Layer inception_3a/relu_pool_proj
I0403 13:53:52.675431 12207 net.cpp:425] inception_3a/relu_pool_proj <- inception_3a/pool_proj
I0403 13:53:52.675447 12207 net.cpp:386] inception_3a/relu_pool_proj -> inception_3a/pool_proj (in-place)
I0403 13:53:52.675720 12207 net.cpp:141] Setting up inception_3a/relu_pool_proj
I0403 13:53:52.675745 12207 net.cpp:148] Top shape: 24 32 28 28 (602112)
I0403 13:53:52.675760 12207 net.cpp:156] Memory required for data: 561169440
I0403 13:53:52.675776 12207 layer_factory.hpp:77] Creating layer inception_3a/output
I0403 13:53:52.675791 12207 net.cpp:91] Creating Layer inception_3a/output
I0403 13:53:52.675806 12207 net.cpp:425] inception_3a/output <- inception_3a/1x1
I0403 13:53:52.675822 12207 net.cpp:425] inception_3a/output <- inception_3a/3x3
I0403 13:53:52.675837 12207 net.cpp:425] inception_3a/output <- inception_3a/5x5
I0403 13:53:52.675851 12207 net.cpp:425] inception_3a/output <- inception_3a/pool_proj
I0403 13:53:52.675869 12207 net.cpp:399] inception_3a/output -> inception_3a/output
I0403 13:53:52.675912 12207 net.cpp:141] Setting up inception_3a/output
I0403 13:53:52.675935 12207 net.cpp:148] Top shape: 24 256 28 28 (4816896)
I0403 13:53:52.675948 12207 net.cpp:156] Memory required for data: 580437024
I0403 13:53:52.675961 12207 layer_factory.hpp:77] Creating layer inception_3a/output_inception_3a/output_0_split
I0403 13:53:52.675981 12207 net.cpp:91] Creating Layer inception_3a/output_inception_3a/output_0_split
I0403 13:53:52.675997 12207 net.cpp:425] inception_3a/output_inception_3a/output_0_split <- inception_3a/output
I0403 13:53:52.676014 12207 net.cpp:399] inception_3a/output_inception_3a/output_0_split -> inception_3a/output_inception_3a/output_0_split_0
I0403 13:53:52.676035 12207 net.cpp:399] inception_3a/output_inception_3a/output_0_split -> inception_3a/output_inception_3a/output_0_split_1
I0403 13:53:52.676059 12207 net.cpp:399] inception_3a/output_inception_3a/output_0_split -> inception_3a/output_inception_3a/output_0_split_2
I0403 13:53:52.676079 12207 net.cpp:399] inception_3a/output_inception_3a/output_0_split -> inception_3a/output_inception_3a/output_0_split_3
I0403 13:53:52.676146 12207 net.cpp:141] Setting up inception_3a/output_inception_3a/output_0_split
I0403 13:53:52.676170 12207 net.cpp:148] Top shape: 24 256 28 28 (4816896)
I0403 13:53:52.676187 12207 net.cpp:148] Top shape: 24 256 28 28 (4816896)
I0403 13:53:52.676203 12207 net.cpp:148] Top shape: 24 256 28 28 (4816896)
I0403 13:53:52.676216 12207 net.cpp:148] Top shape: 24 256 28 28 (4816896)
I0403 13:53:52.676229 12207 net.cpp:156] Memory required for data: 657507360
I0403 13:53:52.676242 12207 layer_factory.hpp:77] Creating layer inception_3b/1x1
I0403 13:53:52.676264 12207 net.cpp:91] Creating Layer inception_3b/1x1
I0403 13:53:52.676280 12207 net.cpp:425] inception_3b/1x1 <- inception_3a/output_inception_3a/output_0_split_0
I0403 13:53:52.676298 12207 net.cpp:399] inception_3b/1x1 -> inception_3b/1x1
I0403 13:53:52.677460 12207 net.cpp:141] Setting up inception_3b/1x1
I0403 13:53:52.677502 12207 net.cpp:148] Top shape: 24 128 28 28 (2408448)
I0403 13:53:52.677520 12207 net.cpp:156] Memory required for data: 667141152
I0403 13:53:52.677562 12207 layer_factory.hpp:77] Creating layer inception_3b/relu_1x1
I0403 13:53:52.677587 12207 net.cpp:91] Creating Layer inception_3b/relu_1x1
I0403 13:53:52.677603 12207 net.cpp:425] inception_3b/relu_1x1 <- inception_3b/1x1
I0403 13:53:52.677618 12207 net.cpp:386] inception_3b/relu_1x1 -> inception_3b/1x1 (in-place)
I0403 13:53:52.677796 12207 net.cpp:141] Setting up inception_3b/relu_1x1
I0403 13:53:52.677821 12207 net.cpp:148] Top shape: 24 128 28 28 (2408448)
I0403 13:53:52.677836 12207 net.cpp:156] Memory required for data: 676774944
I0403 13:53:52.677850 12207 layer_factory.hpp:77] Creating layer inception_3b/3x3_reduce
I0403 13:53:52.677871 12207 net.cpp:91] Creating Layer inception_3b/3x3_reduce
I0403 13:53:52.677889 12207 net.cpp:425] inception_3b/3x3_reduce <- inception_3a/output_inception_3a/output_0_split_1
I0403 13:53:52.677909 12207 net.cpp:399] inception_3b/3x3_reduce -> inception_3b/3x3_reduce
I0403 13:53:52.679052 12207 net.cpp:141] Setting up inception_3b/3x3_reduce
I0403 13:53:52.679081 12207 net.cpp:148] Top shape: 24 128 28 28 (2408448)
I0403 13:53:52.679096 12207 net.cpp:156] Memory required for data: 686408736
I0403 13:53:52.679116 12207 layer_factory.hpp:77] Creating layer inception_3b/relu_3x3_reduce
I0403 13:53:52.679136 12207 net.cpp:91] Creating Layer inception_3b/relu_3x3_reduce
I0403 13:53:52.679152 12207 net.cpp:425] inception_3b/relu_3x3_reduce <- inception_3b/3x3_reduce
I0403 13:53:52.679169 12207 net.cpp:386] inception_3b/relu_3x3_reduce -> inception_3b/3x3_reduce (in-place)
I0403 13:53:52.679347 12207 net.cpp:141] Setting up inception_3b/relu_3x3_reduce
I0403 13:53:52.679373 12207 net.cpp:148] Top shape: 24 128 28 28 (2408448)
I0403 13:53:52.679386 12207 net.cpp:156] Memory required for data: 696042528
I0403 13:53:52.679401 12207 layer_factory.hpp:77] Creating layer inception_3b/3x3
I0403 13:53:52.679426 12207 net.cpp:91] Creating Layer inception_3b/3x3
I0403 13:53:52.679445 12207 net.cpp:425] inception_3b/3x3 <- inception_3b/3x3_reduce
I0403 13:53:52.679463 12207 net.cpp:399] inception_3b/3x3 -> inception_3b/3x3
I0403 13:53:52.682423 12207 net.cpp:141] Setting up inception_3b/3x3
I0403 13:53:52.682464 12207 net.cpp:148] Top shape: 24 192 28 28 (3612672)
I0403 13:53:52.682479 12207 net.cpp:156] Memory required for data: 710493216
I0403 13:53:52.682497 12207 layer_factory.hpp:77] Creating layer inception_3b/relu_3x3
I0403 13:53:52.682514 12207 net.cpp:91] Creating Layer inception_3b/relu_3x3
I0403 13:53:52.682530 12207 net.cpp:425] inception_3b/relu_3x3 <- inception_3b/3x3
I0403 13:53:52.682554 12207 net.cpp:386] inception_3b/relu_3x3 -> inception_3b/3x3 (in-place)
I0403 13:53:52.682829 12207 net.cpp:141] Setting up inception_3b/relu_3x3
I0403 13:53:52.682857 12207 net.cpp:148] Top shape: 24 192 28 28 (3612672)
I0403 13:53:52.682870 12207 net.cpp:156] Memory required for data: 724943904
I0403 13:53:52.682885 12207 layer_factory.hpp:77] Creating layer inception_3b/5x5_reduce
I0403 13:53:52.682907 12207 net.cpp:91] Creating Layer inception_3b/5x5_reduce
I0403 13:53:52.682925 12207 net.cpp:425] inception_3b/5x5_reduce <- inception_3a/output_inception_3a/output_0_split_2
I0403 13:53:52.682945 12207 net.cpp:399] inception_3b/5x5_reduce -> inception_3b/5x5_reduce
I0403 13:53:52.683940 12207 net.cpp:141] Setting up inception_3b/5x5_reduce
I0403 13:53:52.683971 12207 net.cpp:148] Top shape: 24 32 28 28 (602112)
I0403 13:53:52.683989 12207 net.cpp:156] Memory required for data: 727352352
I0403 13:53:52.684006 12207 layer_factory.hpp:77] Creating layer inception_3b/relu_5x5_reduce
I0403 13:53:52.684025 12207 net.cpp:91] Creating Layer inception_3b/relu_5x5_reduce
I0403 13:53:52.684041 12207 net.cpp:425] inception_3b/relu_5x5_reduce <- inception_3b/5x5_reduce
I0403 13:53:52.684061 12207 net.cpp:386] inception_3b/relu_5x5_reduce -> inception_3b/5x5_reduce (in-place)
I0403 13:53:52.684264 12207 net.cpp:141] Setting up inception_3b/relu_5x5_reduce
I0403 13:53:52.684288 12207 net.cpp:148] Top shape: 24 32 28 28 (602112)
I0403 13:53:52.684303 12207 net.cpp:156] Memory required for data: 729760800
I0403 13:53:52.684316 12207 layer_factory.hpp:77] Creating layer inception_3b/5x5
I0403 13:53:52.684339 12207 net.cpp:91] Creating Layer inception_3b/5x5
I0403 13:53:52.684355 12207 net.cpp:425] inception_3b/5x5 <- inception_3b/5x5_reduce
I0403 13:53:52.684376 12207 net.cpp:399] inception_3b/5x5 -> inception_3b/5x5
I0403 13:53:52.686381 12207 net.cpp:141] Setting up inception_3b/5x5
I0403 13:53:52.686411 12207 net.cpp:148] Top shape: 24 96 28 28 (1806336)
I0403 13:53:52.686427 12207 net.cpp:156] Memory required for data: 736986144
I0403 13:53:52.686444 12207 layer_factory.hpp:77] Creating layer inception_3b/relu_5x5
I0403 13:53:52.686465 12207 net.cpp:91] Creating Layer inception_3b/relu_5x5
I0403 13:53:52.686481 12207 net.cpp:425] inception_3b/relu_5x5 <- inception_3b/5x5
I0403 13:53:52.686499 12207 net.cpp:386] inception_3b/relu_5x5 -> inception_3b/5x5 (in-place)
I0403 13:53:52.686698 12207 net.cpp:141] Setting up inception_3b/relu_5x5
I0403 13:53:52.686725 12207 net.cpp:148] Top shape: 24 96 28 28 (1806336)
I0403 13:53:52.686740 12207 net.cpp:156] Memory required for data: 744211488
I0403 13:53:52.686754 12207 layer_factory.hpp:77] Creating layer inception_3b/pool
I0403 13:53:52.686772 12207 net.cpp:91] Creating Layer inception_3b/pool
I0403 13:53:52.686787 12207 net.cpp:425] inception_3b/pool <- inception_3a/output_inception_3a/output_0_split_3
I0403 13:53:52.686805 12207 net.cpp:399] inception_3b/pool -> inception_3b/pool
I0403 13:53:52.686861 12207 net.cpp:141] Setting up inception_3b/pool
I0403 13:53:52.686885 12207 net.cpp:148] Top shape: 24 256 28 28 (4816896)
I0403 13:53:52.686899 12207 net.cpp:156] Memory required for data: 763479072
I0403 13:53:52.686914 12207 layer_factory.hpp:77] Creating layer inception_3b/pool_proj
I0403 13:53:52.686939 12207 net.cpp:91] Creating Layer inception_3b/pool_proj
I0403 13:53:52.686955 12207 net.cpp:425] inception_3b/pool_proj <- inception_3b/pool
I0403 13:53:52.686975 12207 net.cpp:399] inception_3b/pool_proj -> inception_3b/pool_proj
I0403 13:53:52.688053 12207 net.cpp:141] Setting up inception_3b/pool_proj
I0403 13:53:52.688081 12207 net.cpp:148] Top shape: 24 64 28 28 (1204224)
I0403 13:53:52.688097 12207 net.cpp:156] Memory required for data: 768295968
I0403 13:53:52.688115 12207 layer_factory.hpp:77] Creating layer inception_3b/relu_pool_proj
I0403 13:53:52.688135 12207 net.cpp:91] Creating Layer inception_3b/relu_pool_proj
I0403 13:53:52.688153 12207 net.cpp:425] inception_3b/relu_pool_proj <- inception_3b/pool_proj
I0403 13:53:52.688170 12207 net.cpp:386] inception_3b/relu_pool_proj -> inception_3b/pool_proj (in-place)
I0403 13:53:52.688592 12207 net.cpp:141] Setting up inception_3b/relu_pool_proj
I0403 13:53:52.688619 12207 net.cpp:148] Top shape: 24 64 28 28 (1204224)
I0403 13:53:52.688634 12207 net.cpp:156] Memory required for data: 773112864
I0403 13:53:52.688649 12207 layer_factory.hpp:77] Creating layer inception_3b/output
I0403 13:53:52.688666 12207 net.cpp:91] Creating Layer inception_3b/output
I0403 13:53:52.688681 12207 net.cpp:425] inception_3b/output <- inception_3b/1x1
I0403 13:53:52.688697 12207 net.cpp:425] inception_3b/output <- inception_3b/3x3
I0403 13:53:52.688716 12207 net.cpp:425] inception_3b/output <- inception_3b/5x5
I0403 13:53:52.688732 12207 net.cpp:425] inception_3b/output <- inception_3b/pool_proj
I0403 13:53:52.688750 12207 net.cpp:399] inception_3b/output -> inception_3b/output
I0403 13:53:52.688792 12207 net.cpp:141] Setting up inception_3b/output
I0403 13:53:52.688817 12207 net.cpp:148] Top shape: 24 480 28 28 (9031680)
I0403 13:53:52.688833 12207 net.cpp:156] Memory required for data: 809239584
I0403 13:53:52.688851 12207 layer_factory.hpp:77] Creating layer pool3/3x3_s2
I0403 13:53:52.688868 12207 net.cpp:91] Creating Layer pool3/3x3_s2
I0403 13:53:52.688884 12207 net.cpp:425] pool3/3x3_s2 <- inception_3b/output
I0403 13:53:52.688920 12207 net.cpp:399] pool3/3x3_s2 -> pool3/3x3_s2
I0403 13:53:52.688978 12207 net.cpp:141] Setting up pool3/3x3_s2
I0403 13:53:52.689002 12207 net.cpp:148] Top shape: 24 480 14 14 (2257920)
I0403 13:53:52.689016 12207 net.cpp:156] Memory required for data: 818271264
I0403 13:53:52.689030 12207 layer_factory.hpp:77] Creating layer pool3/3x3_s2_pool3/3x3_s2_0_split
I0403 13:53:52.689049 12207 net.cpp:91] Creating Layer pool3/3x3_s2_pool3/3x3_s2_0_split
I0403 13:53:52.689066 12207 net.cpp:425] pool3/3x3_s2_pool3/3x3_s2_0_split <- pool3/3x3_s2
I0403 13:53:52.689085 12207 net.cpp:399] pool3/3x3_s2_pool3/3x3_s2_0_split -> pool3/3x3_s2_pool3/3x3_s2_0_split_0
I0403 13:53:52.689105 12207 net.cpp:399] pool3/3x3_s2_pool3/3x3_s2_0_split -> pool3/3x3_s2_pool3/3x3_s2_0_split_1
I0403 13:53:52.689124 12207 net.cpp:399] pool3/3x3_s2_pool3/3x3_s2_0_split -> pool3/3x3_s2_pool3/3x3_s2_0_split_2
I0403 13:53:52.689146 12207 net.cpp:399] pool3/3x3_s2_pool3/3x3_s2_0_split -> pool3/3x3_s2_pool3/3x3_s2_0_split_3
I0403 13:53:52.689224 12207 net.cpp:141] Setting up pool3/3x3_s2_pool3/3x3_s2_0_split
I0403 13:53:52.689249 12207 net.cpp:148] Top shape: 24 480 14 14 (2257920)
I0403 13:53:52.689265 12207 net.cpp:148] Top shape: 24 480 14 14 (2257920)
I0403 13:53:52.689280 12207 net.cpp:148] Top shape: 24 480 14 14 (2257920)
I0403 13:53:52.689294 12207 net.cpp:148] Top shape: 24 480 14 14 (2257920)
I0403 13:53:52.689308 12207 net.cpp:156] Memory required for data: 854397984
I0403 13:53:52.689322 12207 layer_factory.hpp:77] Creating layer inception_4a/1x1
I0403 13:53:52.689344 12207 net.cpp:91] Creating Layer inception_4a/1x1
I0403 13:53:52.689362 12207 net.cpp:425] inception_4a/1x1 <- pool3/3x3_s2_pool3/3x3_s2_0_split_0
I0403 13:53:52.689383 12207 net.cpp:399] inception_4a/1x1 -> inception_4a/1x1
I0403 13:53:52.690995 12207 net.cpp:141] Setting up inception_4a/1x1
I0403 13:53:52.691023 12207 net.cpp:148] Top shape: 24 192 14 14 (903168)
I0403 13:53:52.691040 12207 net.cpp:156] Memory required for data: 858010656
I0403 13:53:52.691057 12207 layer_factory.hpp:77] Creating layer inception_4a/relu_1x1
I0403 13:53:52.691078 12207 net.cpp:91] Creating Layer inception_4a/relu_1x1
I0403 13:53:52.691094 12207 net.cpp:425] inception_4a/relu_1x1 <- inception_4a/1x1
I0403 13:53:52.691112 12207 net.cpp:386] inception_4a/relu_1x1 -> inception_4a/1x1 (in-place)
I0403 13:53:52.691299 12207 net.cpp:141] Setting up inception_4a/relu_1x1
I0403 13:53:52.691328 12207 net.cpp:148] Top shape: 24 192 14 14 (903168)
I0403 13:53:52.691342 12207 net.cpp:156] Memory required for data: 861623328
I0403 13:53:52.691356 12207 layer_factory.hpp:77] Creating layer inception_4a/3x3_reduce
I0403 13:53:52.691377 12207 net.cpp:91] Creating Layer inception_4a/3x3_reduce
I0403 13:53:52.691395 12207 net.cpp:425] inception_4a/3x3_reduce <- pool3/3x3_s2_pool3/3x3_s2_0_split_1
I0403 13:53:52.691413 12207 net.cpp:399] inception_4a/3x3_reduce -> inception_4a/3x3_reduce
I0403 13:53:52.692694 12207 net.cpp:141] Setting up inception_4a/3x3_reduce
I0403 13:53:52.692734 12207 net.cpp:148] Top shape: 24 96 14 14 (451584)
I0403 13:53:52.692749 12207 net.cpp:156] Memory required for data: 863429664
I0403 13:53:52.692773 12207 layer_factory.hpp:77] Creating layer inception_4a/relu_3x3_reduce
I0403 13:53:52.692793 12207 net.cpp:91] Creating Layer inception_4a/relu_3x3_reduce
I0403 13:53:52.692811 12207 net.cpp:425] inception_4a/relu_3x3_reduce <- inception_4a/3x3_reduce
I0403 13:53:52.692829 12207 net.cpp:386] inception_4a/relu_3x3_reduce -> inception_4a/3x3_reduce (in-place)
I0403 13:53:52.693006 12207 net.cpp:141] Setting up inception_4a/relu_3x3_reduce
I0403 13:53:52.693033 12207 net.cpp:148] Top shape: 24 96 14 14 (451584)
I0403 13:53:52.693048 12207 net.cpp:156] Memory required for data: 865236000
I0403 13:53:52.693063 12207 layer_factory.hpp:77] Creating layer inception_4a/3x3
I0403 13:53:52.693085 12207 net.cpp:91] Creating Layer inception_4a/3x3
I0403 13:53:52.693102 12207 net.cpp:425] inception_4a/3x3 <- inception_4a/3x3_reduce
I0403 13:53:52.693121 12207 net.cpp:399] inception_4a/3x3 -> inception_4a/3x3
I0403 13:53:52.695873 12207 net.cpp:141] Setting up inception_4a/3x3
I0403 13:53:52.695904 12207 net.cpp:148] Top shape: 24 208 14 14 (978432)
I0403 13:53:52.695919 12207 net.cpp:156] Memory required for data: 869149728
I0403 13:53:52.695936 12207 layer_factory.hpp:77] Creating layer inception_4a/relu_3x3
I0403 13:53:52.695953 12207 net.cpp:91] Creating Layer inception_4a/relu_3x3
I0403 13:53:52.695968 12207 net.cpp:425] inception_4a/relu_3x3 <- inception_4a/3x3
I0403 13:53:52.695987 12207 net.cpp:386] inception_4a/relu_3x3 -> inception_4a/3x3 (in-place)
I0403 13:53:52.696267 12207 net.cpp:141] Setting up inception_4a/relu_3x3
I0403 13:53:52.696296 12207 net.cpp:148] Top shape: 24 208 14 14 (978432)
I0403 13:53:52.696312 12207 net.cpp:156] Memory required for data: 873063456
I0403 13:53:52.696326 12207 layer_factory.hpp:77] Creating layer inception_4a/5x5_reduce
I0403 13:53:52.696349 12207 net.cpp:91] Creating Layer inception_4a/5x5_reduce
I0403 13:53:52.696367 12207 net.cpp:425] inception_4a/5x5_reduce <- pool3/3x3_s2_pool3/3x3_s2_0_split_2
I0403 13:53:52.696385 12207 net.cpp:399] inception_4a/5x5_reduce -> inception_4a/5x5_reduce
I0403 13:53:52.697388 12207 net.cpp:141] Setting up inception_4a/5x5_reduce
I0403 13:53:52.697417 12207 net.cpp:148] Top shape: 24 16 14 14 (75264)
I0403 13:53:52.697434 12207 net.cpp:156] Memory required for data: 873364512
I0403 13:53:52.697453 12207 layer_factory.hpp:77] Creating layer inception_4a/relu_5x5_reduce
I0403 13:53:52.697469 12207 net.cpp:91] Creating Layer inception_4a/relu_5x5_reduce
I0403 13:53:52.697485 12207 net.cpp:425] inception_4a/relu_5x5_reduce <- inception_4a/5x5_reduce
I0403 13:53:52.697504 12207 net.cpp:386] inception_4a/relu_5x5_reduce -> inception_4a/5x5_reduce (in-place)
I0403 13:53:52.697684 12207 net.cpp:141] Setting up inception_4a/relu_5x5_reduce
I0403 13:53:52.697708 12207 net.cpp:148] Top shape: 24 16 14 14 (75264)
I0403 13:53:52.697723 12207 net.cpp:156] Memory required for data: 873665568
I0403 13:53:52.697736 12207 layer_factory.hpp:77] Creating layer inception_4a/5x5
I0403 13:53:52.697757 12207 net.cpp:91] Creating Layer inception_4a/5x5
I0403 13:53:52.697774 12207 net.cpp:425] inception_4a/5x5 <- inception_4a/5x5_reduce
I0403 13:53:52.697795 12207 net.cpp:399] inception_4a/5x5 -> inception_4a/5x5
I0403 13:53:52.698865 12207 net.cpp:141] Setting up inception_4a/5x5
I0403 13:53:52.698892 12207 net.cpp:148] Top shape: 24 48 14 14 (225792)
I0403 13:53:52.698907 12207 net.cpp:156] Memory required for data: 874568736
I0403 13:53:52.698925 12207 layer_factory.hpp:77] Creating layer inception_4a/relu_5x5
I0403 13:53:52.698945 12207 net.cpp:91] Creating Layer inception_4a/relu_5x5
I0403 13:53:52.698961 12207 net.cpp:425] inception_4a/relu_5x5 <- inception_4a/5x5
I0403 13:53:52.698978 12207 net.cpp:386] inception_4a/relu_5x5 -> inception_4a/5x5 (in-place)
I0403 13:53:52.699151 12207 net.cpp:141] Setting up inception_4a/relu_5x5
I0403 13:53:52.699175 12207 net.cpp:148] Top shape: 24 48 14 14 (225792)
I0403 13:53:52.699189 12207 net.cpp:156] Memory required for data: 875471904
I0403 13:53:52.699203 12207 layer_factory.hpp:77] Creating layer inception_4a/pool
I0403 13:53:52.699223 12207 net.cpp:91] Creating Layer inception_4a/pool
I0403 13:53:52.699239 12207 net.cpp:425] inception_4a/pool <- pool3/3x3_s2_pool3/3x3_s2_0_split_3
I0403 13:53:52.699255 12207 net.cpp:399] inception_4a/pool -> inception_4a/pool
I0403 13:53:52.699316 12207 net.cpp:141] Setting up inception_4a/pool
I0403 13:53:52.699339 12207 net.cpp:148] Top shape: 24 480 14 14 (2257920)
I0403 13:53:52.699353 12207 net.cpp:156] Memory required for data: 884503584
I0403 13:53:52.699367 12207 layer_factory.hpp:77] Creating layer inception_4a/pool_proj
I0403 13:53:52.699388 12207 net.cpp:91] Creating Layer inception_4a/pool_proj
I0403 13:53:52.699404 12207 net.cpp:425] inception_4a/pool_proj <- inception_4a/pool
I0403 13:53:52.699425 12207 net.cpp:399] inception_4a/pool_proj -> inception_4a/pool_proj
I0403 13:53:52.700584 12207 net.cpp:141] Setting up inception_4a/pool_proj
I0403 13:53:52.700613 12207 net.cpp:148] Top shape: 24 64 14 14 (301056)
I0403 13:53:52.700646 12207 net.cpp:156] Memory required for data: 885707808
I0403 13:53:52.700664 12207 layer_factory.hpp:77] Creating layer inception_4a/relu_pool_proj
I0403 13:53:52.700685 12207 net.cpp:91] Creating Layer inception_4a/relu_pool_proj
I0403 13:53:52.700702 12207 net.cpp:425] inception_4a/relu_pool_proj <- inception_4a/pool_proj
I0403 13:53:52.700719 12207 net.cpp:386] inception_4a/relu_pool_proj -> inception_4a/pool_proj (in-place)
I0403 13:53:52.701004 12207 net.cpp:141] Setting up inception_4a/relu_pool_proj
I0403 13:53:52.701030 12207 net.cpp:148] Top shape: 24 64 14 14 (301056)
I0403 13:53:52.701045 12207 net.cpp:156] Memory required for data: 886912032
I0403 13:53:52.701059 12207 layer_factory.hpp:77] Creating layer inception_4a/output
I0403 13:53:52.701078 12207 net.cpp:91] Creating Layer inception_4a/output
I0403 13:53:52.701093 12207 net.cpp:425] inception_4a/output <- inception_4a/1x1
I0403 13:53:52.701109 12207 net.cpp:425] inception_4a/output <- inception_4a/3x3
I0403 13:53:52.701125 12207 net.cpp:425] inception_4a/output <- inception_4a/5x5
I0403 13:53:52.701141 12207 net.cpp:425] inception_4a/output <- inception_4a/pool_proj
I0403 13:53:52.701158 12207 net.cpp:399] inception_4a/output -> inception_4a/output
I0403 13:53:52.701203 12207 net.cpp:141] Setting up inception_4a/output
I0403 13:53:52.701226 12207 net.cpp:148] Top shape: 24 512 14 14 (2408448)
I0403 13:53:52.701247 12207 net.cpp:156] Memory required for data: 896545824
I0403 13:53:52.701262 12207 layer_factory.hpp:77] Creating layer inception_4a/output_inception_4a/output_0_split
I0403 13:53:52.701279 12207 net.cpp:91] Creating Layer inception_4a/output_inception_4a/output_0_split
I0403 13:53:52.701294 12207 net.cpp:425] inception_4a/output_inception_4a/output_0_split <- inception_4a/output
I0403 13:53:52.701313 12207 net.cpp:399] inception_4a/output_inception_4a/output_0_split -> inception_4a/output_inception_4a/output_0_split_0
I0403 13:53:52.701335 12207 net.cpp:399] inception_4a/output_inception_4a/output_0_split -> inception_4a/output_inception_4a/output_0_split_1
I0403 13:53:52.701355 12207 net.cpp:399] inception_4a/output_inception_4a/output_0_split -> inception_4a/output_inception_4a/output_0_split_2
I0403 13:53:52.701376 12207 net.cpp:399] inception_4a/output_inception_4a/output_0_split -> inception_4a/output_inception_4a/output_0_split_3
I0403 13:53:52.701395 12207 net.cpp:399] inception_4a/output_inception_4a/output_0_split -> inception_4a/output_inception_4a/output_0_split_4
I0403 13:53:52.701486 12207 net.cpp:141] Setting up inception_4a/output_inception_4a/output_0_split
I0403 13:53:52.701508 12207 net.cpp:148] Top shape: 24 512 14 14 (2408448)
I0403 13:53:52.701527 12207 net.cpp:148] Top shape: 24 512 14 14 (2408448)
I0403 13:53:52.701548 12207 net.cpp:148] Top shape: 24 512 14 14 (2408448)
I0403 13:53:52.701567 12207 net.cpp:148] Top shape: 24 512 14 14 (2408448)
I0403 13:53:52.701581 12207 net.cpp:148] Top shape: 24 512 14 14 (2408448)
I0403 13:53:52.701594 12207 net.cpp:156] Memory required for data: 944714784
I0403 13:53:52.701608 12207 layer_factory.hpp:77] Creating layer loss1/ave_pool
I0403 13:53:52.701625 12207 net.cpp:91] Creating Layer loss1/ave_pool
I0403 13:53:52.701642 12207 net.cpp:425] loss1/ave_pool <- inception_4a/output_inception_4a/output_0_split_0
I0403 13:53:52.701661 12207 net.cpp:399] loss1/ave_pool -> loss1/ave_pool
I0403 13:53:52.701866 12207 net.cpp:141] Setting up loss1/ave_pool
I0403 13:53:52.701891 12207 net.cpp:148] Top shape: 24 512 4 4 (196608)
I0403 13:53:52.701905 12207 net.cpp:156] Memory required for data: 945501216
I0403 13:53:52.701920 12207 layer_factory.hpp:77] Creating layer loss1/conv
I0403 13:53:52.701941 12207 net.cpp:91] Creating Layer loss1/conv
I0403 13:53:52.701958 12207 net.cpp:425] loss1/conv <- loss1/ave_pool
I0403 13:53:52.701977 12207 net.cpp:399] loss1/conv -> loss1/conv
I0403 13:53:52.703428 12207 net.cpp:141] Setting up loss1/conv
I0403 13:53:52.703457 12207 net.cpp:148] Top shape: 24 128 4 4 (49152)
I0403 13:53:52.703486 12207 net.cpp:156] Memory required for data: 945697824
I0403 13:53:52.703505 12207 layer_factory.hpp:77] Creating layer loss1/relu_conv
I0403 13:53:52.703523 12207 net.cpp:91] Creating Layer loss1/relu_conv
I0403 13:53:52.703543 12207 net.cpp:425] loss1/relu_conv <- loss1/conv
I0403 13:53:52.703567 12207 net.cpp:386] loss1/relu_conv -> loss1/conv (in-place)
I0403 13:53:52.703842 12207 net.cpp:141] Setting up loss1/relu_conv
I0403 13:53:52.703871 12207 net.cpp:148] Top shape: 24 128 4 4 (49152)
I0403 13:53:52.703886 12207 net.cpp:156] Memory required for data: 945894432
I0403 13:53:52.703901 12207 layer_factory.hpp:77] Creating layer loss1/fc
I0403 13:53:52.703923 12207 net.cpp:91] Creating Layer loss1/fc
I0403 13:53:52.703940 12207 net.cpp:425] loss1/fc <- loss1/conv
I0403 13:53:52.703960 12207 net.cpp:399] loss1/fc -> loss1/fc
I0403 13:53:52.721560 12207 net.cpp:141] Setting up loss1/fc
I0403 13:53:52.721613 12207 net.cpp:148] Top shape: 24 1024 (24576)
I0403 13:53:52.721629 12207 net.cpp:156] Memory required for data: 945992736
I0403 13:53:52.721647 12207 layer_factory.hpp:77] Creating layer loss1/relu_fc
I0403 13:53:52.721669 12207 net.cpp:91] Creating Layer loss1/relu_fc
I0403 13:53:52.721688 12207 net.cpp:425] loss1/relu_fc <- loss1/fc
I0403 13:53:52.721705 12207 net.cpp:386] loss1/relu_fc -> loss1/fc (in-place)
I0403 13:53:52.721917 12207 net.cpp:141] Setting up loss1/relu_fc
I0403 13:53:52.721945 12207 net.cpp:148] Top shape: 24 1024 (24576)
I0403 13:53:52.721959 12207 net.cpp:156] Memory required for data: 946091040
I0403 13:53:52.721973 12207 layer_factory.hpp:77] Creating layer loss1/drop_fc
I0403 13:53:52.722002 12207 net.cpp:91] Creating Layer loss1/drop_fc
I0403 13:53:52.722019 12207 net.cpp:425] loss1/drop_fc <- loss1/fc
I0403 13:53:52.722036 12207 net.cpp:386] loss1/drop_fc -> loss1/fc (in-place)
I0403 13:53:52.722090 12207 net.cpp:141] Setting up loss1/drop_fc
I0403 13:53:52.722113 12207 net.cpp:148] Top shape: 24 1024 (24576)
I0403 13:53:52.722127 12207 net.cpp:156] Memory required for data: 946189344
I0403 13:53:52.722141 12207 layer_factory.hpp:77] Creating layer loss1/classifier_plantvillage
I0403 13:53:52.722160 12207 net.cpp:91] Creating Layer loss1/classifier_plantvillage
I0403 13:53:52.722175 12207 net.cpp:425] loss1/classifier_plantvillage <- loss1/fc
I0403 13:53:52.722198 12207 net.cpp:399] loss1/classifier_plantvillage -> loss1/classifier_plantvillage
I0403 13:53:52.723119 12207 net.cpp:141] Setting up loss1/classifier_plantvillage
I0403 13:53:52.723146 12207 net.cpp:148] Top shape: 24 38 (912)
I0403 13:53:52.723161 12207 net.cpp:156] Memory required for data: 946192992
I0403 13:53:52.723181 12207 layer_factory.hpp:77] Creating layer loss1/classifier_plantvillage_loss1/classifier_plantvillage_0_split
I0403 13:53:52.723201 12207 net.cpp:91] Creating Layer loss1/classifier_plantvillage_loss1/classifier_plantvillage_0_split
I0403 13:53:52.723217 12207 net.cpp:425] loss1/classifier_plantvillage_loss1/classifier_plantvillage_0_split <- loss1/classifier_plantvillage
I0403 13:53:52.723234 12207 net.cpp:399] loss1/classifier_plantvillage_loss1/classifier_plantvillage_0_split -> loss1/classifier_plantvillage_loss1/classifier_plantvillage_0_split_0
I0403 13:53:52.723254 12207 net.cpp:399] loss1/classifier_plantvillage_loss1/classifier_plantvillage_0_split -> loss1/classifier_plantvillage_loss1/classifier_plantvillage_0_split_1
I0403 13:53:52.723278 12207 net.cpp:399] loss1/classifier_plantvillage_loss1/classifier_plantvillage_0_split -> loss1/classifier_plantvillage_loss1/classifier_plantvillage_0_split_2
I0403 13:53:52.723343 12207 net.cpp:141] Setting up loss1/classifier_plantvillage_loss1/classifier_plantvillage_0_split
I0403 13:53:52.723366 12207 net.cpp:148] Top shape: 24 38 (912)
I0403 13:53:52.723381 12207 net.cpp:148] Top shape: 24 38 (912)
I0403 13:53:52.723397 12207 net.cpp:148] Top shape: 24 38 (912)
I0403 13:53:52.723410 12207 net.cpp:156] Memory required for data: 946203936
I0403 13:53:52.723424 12207 layer_factory.hpp:77] Creating layer inception_4b/1x1
I0403 13:53:52.723448 12207 net.cpp:91] Creating Layer inception_4b/1x1
I0403 13:53:52.723487 12207 net.cpp:425] inception_4b/1x1 <- inception_4a/output_inception_4a/output_0_split_1
I0403 13:53:52.723506 12207 net.cpp:399] inception_4b/1x1 -> inception_4b/1x1
I0403 13:53:52.725282 12207 net.cpp:141] Setting up inception_4b/1x1
I0403 13:53:52.725314 12207 net.cpp:148] Top shape: 24 160 14 14 (752640)
I0403 13:53:52.725332 12207 net.cpp:156] Memory required for data: 949214496
I0403 13:53:52.725350 12207 layer_factory.hpp:77] Creating layer inception_4b/relu_1x1
I0403 13:53:52.725368 12207 net.cpp:91] Creating Layer inception_4b/relu_1x1
I0403 13:53:52.725383 12207 net.cpp:425] inception_4b/relu_1x1 <- inception_4b/1x1
I0403 13:53:52.725404 12207 net.cpp:386] inception_4b/relu_1x1 -> inception_4b/1x1 (in-place)
I0403 13:53:52.725594 12207 net.cpp:141] Setting up inception_4b/relu_1x1
I0403 13:53:52.725628 12207 net.cpp:148] Top shape: 24 160 14 14 (752640)
I0403 13:53:52.725643 12207 net.cpp:156] Memory required for data: 952225056
I0403 13:53:52.725658 12207 layer_factory.hpp:77] Creating layer inception_4b/3x3_reduce
I0403 13:53:52.725680 12207 net.cpp:91] Creating Layer inception_4b/3x3_reduce
I0403 13:53:52.725698 12207 net.cpp:425] inception_4b/3x3_reduce <- inception_4a/output_inception_4a/output_0_split_2
I0403 13:53:52.725719 12207 net.cpp:399] inception_4b/3x3_reduce -> inception_4b/3x3_reduce
I0403 13:53:52.727294 12207 net.cpp:141] Setting up inception_4b/3x3_reduce
I0403 13:53:52.727324 12207 net.cpp:148] Top shape: 24 112 14 14 (526848)
I0403 13:53:52.727339 12207 net.cpp:156] Memory required for data: 954332448
I0403 13:53:52.727357 12207 layer_factory.hpp:77] Creating layer inception_4b/relu_3x3_reduce
I0403 13:53:52.727375 12207 net.cpp:91] Creating Layer inception_4b/relu_3x3_reduce
I0403 13:53:52.727391 12207 net.cpp:425] inception_4b/relu_3x3_reduce <- inception_4b/3x3_reduce
I0403 13:53:52.727411 12207 net.cpp:386] inception_4b/relu_3x3_reduce -> inception_4b/3x3_reduce (in-place)
I0403 13:53:52.727707 12207 net.cpp:141] Setting up inception_4b/relu_3x3_reduce
I0403 13:53:52.727735 12207 net.cpp:148] Top shape: 24 112 14 14 (526848)
I0403 13:53:52.727751 12207 net.cpp:156] Memory required for data: 956439840
I0403 13:53:52.727766 12207 layer_factory.hpp:77] Creating layer inception_4b/3x3
I0403 13:53:52.727787 12207 net.cpp:91] Creating Layer inception_4b/3x3
I0403 13:53:52.727805 12207 net.cpp:425] inception_4b/3x3 <- inception_4b/3x3_reduce
I0403 13:53:52.727826 12207 net.cpp:399] inception_4b/3x3 -> inception_4b/3x3
I0403 13:53:52.730883 12207 net.cpp:141] Setting up inception_4b/3x3
I0403 13:53:52.730912 12207 net.cpp:148] Top shape: 24 224 14 14 (1053696)
I0403 13:53:52.730928 12207 net.cpp:156] Memory required for data: 960654624
I0403 13:53:52.730947 12207 layer_factory.hpp:77] Creating layer inception_4b/relu_3x3
I0403 13:53:52.730967 12207 net.cpp:91] Creating Layer inception_4b/relu_3x3
I0403 13:53:52.730985 12207 net.cpp:425] inception_4b/relu_3x3 <- inception_4b/3x3
I0403 13:53:52.731003 12207 net.cpp:386] inception_4b/relu_3x3 -> inception_4b/3x3 (in-place)
I0403 13:53:52.731187 12207 net.cpp:141] Setting up inception_4b/relu_3x3
I0403 13:53:52.731215 12207 net.cpp:148] Top shape: 24 224 14 14 (1053696)
I0403 13:53:52.731230 12207 net.cpp:156] Memory required for data: 964869408
I0403 13:53:52.731245 12207 layer_factory.hpp:77] Creating layer inception_4b/5x5_reduce
I0403 13:53:52.731268 12207 net.cpp:91] Creating Layer inception_4b/5x5_reduce
I0403 13:53:52.731287 12207 net.cpp:425] inception_4b/5x5_reduce <- inception_4a/output_inception_4a/output_0_split_3
I0403 13:53:52.731307 12207 net.cpp:399] inception_4b/5x5_reduce -> inception_4b/5x5_reduce
I0403 13:53:52.732430 12207 net.cpp:141] Setting up inception_4b/5x5_reduce
I0403 13:53:52.732460 12207 net.cpp:148] Top shape: 24 24 14 14 (112896)
I0403 13:53:52.732475 12207 net.cpp:156] Memory required for data: 965320992
I0403 13:53:52.732492 12207 layer_factory.hpp:77] Creating layer inception_4b/relu_5x5_reduce
I0403 13:53:52.732511 12207 net.cpp:91] Creating Layer inception_4b/relu_5x5_reduce
I0403 13:53:52.732547 12207 net.cpp:425] inception_4b/relu_5x5_reduce <- inception_4b/5x5_reduce
I0403 13:53:52.732569 12207 net.cpp:386] inception_4b/relu_5x5_reduce -> inception_4b/5x5_reduce (in-place)
I0403 13:53:52.732759 12207 net.cpp:141] Setting up inception_4b/relu_5x5_reduce
I0403 13:53:52.732784 12207 net.cpp:148] Top shape: 24 24 14 14 (112896)
I0403 13:53:52.732800 12207 net.cpp:156] Memory required for data: 965772576
I0403 13:53:52.732815 12207 layer_factory.hpp:77] Creating layer inception_4b/5x5
I0403 13:53:52.732836 12207 net.cpp:91] Creating Layer inception_4b/5x5
I0403 13:53:52.732853 12207 net.cpp:425] inception_4b/5x5 <- inception_4b/5x5_reduce
I0403 13:53:52.732875 12207 net.cpp:399] inception_4b/5x5 -> inception_4b/5x5
I0403 13:53:52.734148 12207 net.cpp:141] Setting up inception_4b/5x5
I0403 13:53:52.734179 12207 net.cpp:148] Top shape: 24 64 14 14 (301056)
I0403 13:53:52.734195 12207 net.cpp:156] Memory required for data: 966976800
I0403 13:53:52.734215 12207 layer_factory.hpp:77] Creating layer inception_4b/relu_5x5
I0403 13:53:52.734232 12207 net.cpp:91] Creating Layer inception_4b/relu_5x5
I0403 13:53:52.734248 12207 net.cpp:425] inception_4b/relu_5x5 <- inception_4b/5x5
I0403 13:53:52.734269 12207 net.cpp:386] inception_4b/relu_5x5 -> inception_4b/5x5 (in-place)
I0403 13:53:52.734576 12207 net.cpp:141] Setting up inception_4b/relu_5x5
I0403 13:53:52.734608 12207 net.cpp:148] Top shape: 24 64 14 14 (301056)
I0403 13:53:52.734624 12207 net.cpp:156] Memory required for data: 968181024
I0403 13:53:52.734639 12207 layer_factory.hpp:77] Creating layer inception_4b/pool
I0403 13:53:52.734669 12207 net.cpp:91] Creating Layer inception_4b/pool
I0403 13:53:52.734685 12207 net.cpp:425] inception_4b/pool <- inception_4a/output_inception_4a/output_0_split_4
I0403 13:53:52.734705 12207 net.cpp:399] inception_4b/pool -> inception_4b/pool
I0403 13:53:52.734771 12207 net.cpp:141] Setting up inception_4b/pool
I0403 13:53:52.734793 12207 net.cpp:148] Top shape: 24 512 14 14 (2408448)
I0403 13:53:52.734807 12207 net.cpp:156] Memory required for data: 977814816
I0403 13:53:52.734822 12207 layer_factory.hpp:77] Creating layer inception_4b/pool_proj
I0403 13:53:52.734843 12207 net.cpp:91] Creating Layer inception_4b/pool_proj
I0403 13:53:52.734860 12207 net.cpp:425] inception_4b/pool_proj <- inception_4b/pool
I0403 13:53:52.734880 12207 net.cpp:399] inception_4b/pool_proj -> inception_4b/pool_proj
I0403 13:53:52.736109 12207 net.cpp:141] Setting up inception_4b/pool_proj
I0403 13:53:52.736140 12207 net.cpp:148] Top shape: 24 64 14 14 (301056)
I0403 13:53:52.736156 12207 net.cpp:156] Memory required for data: 979019040
I0403 13:53:52.736176 12207 layer_factory.hpp:77] Creating layer inception_4b/relu_pool_proj
I0403 13:53:52.736192 12207 net.cpp:91] Creating Layer inception_4b/relu_pool_proj
I0403 13:53:52.736208 12207 net.cpp:425] inception_4b/relu_pool_proj <- inception_4b/pool_proj
I0403 13:53:52.736227 12207 net.cpp:386] inception_4b/relu_pool_proj -> inception_4b/pool_proj (in-place)
I0403 13:53:52.736421 12207 net.cpp:141] Setting up inception_4b/relu_pool_proj
I0403 13:53:52.736446 12207 net.cpp:148] Top shape: 24 64 14 14 (301056)
I0403 13:53:52.736460 12207 net.cpp:156] Memory required for data: 980223264
I0403 13:53:52.736474 12207 layer_factory.hpp:77] Creating layer inception_4b/output
I0403 13:53:52.736491 12207 net.cpp:91] Creating Layer inception_4b/output
I0403 13:53:52.736506 12207 net.cpp:425] inception_4b/output <- inception_4b/1x1
I0403 13:53:52.736521 12207 net.cpp:425] inception_4b/output <- inception_4b/3x3
I0403 13:53:52.736541 12207 net.cpp:425] inception_4b/output <- inception_4b/5x5
I0403 13:53:52.736558 12207 net.cpp:425] inception_4b/output <- inception_4b/pool_proj
I0403 13:53:52.736577 12207 net.cpp:399] inception_4b/output -> inception_4b/output
I0403 13:53:52.736625 12207 net.cpp:141] Setting up inception_4b/output
I0403 13:53:52.736649 12207 net.cpp:148] Top shape: 24 512 14 14 (2408448)
I0403 13:53:52.736663 12207 net.cpp:156] Memory required for data: 989857056
I0403 13:53:52.736691 12207 layer_factory.hpp:77] Creating layer inception_4b/output_inception_4b/output_0_split
I0403 13:53:52.736709 12207 net.cpp:91] Creating Layer inception_4b/output_inception_4b/output_0_split
I0403 13:53:52.736724 12207 net.cpp:425] inception_4b/output_inception_4b/output_0_split <- inception_4b/output
I0403 13:53:52.736743 12207 net.cpp:399] inception_4b/output_inception_4b/output_0_split -> inception_4b/output_inception_4b/output_0_split_0
I0403 13:53:52.736764 12207 net.cpp:399] inception_4b/output_inception_4b/output_0_split -> inception_4b/output_inception_4b/output_0_split_1
I0403 13:53:52.736784 12207 net.cpp:399] inception_4b/output_inception_4b/output_0_split -> inception_4b/output_inception_4b/output_0_split_2
I0403 13:53:52.736804 12207 net.cpp:399] inception_4b/output_inception_4b/output_0_split -> inception_4b/output_inception_4b/output_0_split_3
I0403 13:53:52.736887 12207 net.cpp:141] Setting up inception_4b/output_inception_4b/output_0_split
I0403 13:53:52.736913 12207 net.cpp:148] Top shape: 24 512 14 14 (2408448)
I0403 13:53:52.736929 12207 net.cpp:148] Top shape: 24 512 14 14 (2408448)
I0403 13:53:52.736944 12207 net.cpp:148] Top shape: 24 512 14 14 (2408448)
I0403 13:53:52.736958 12207 net.cpp:148] Top shape: 24 512 14 14 (2408448)
I0403 13:53:52.736971 12207 net.cpp:156] Memory required for data: 1028392224
I0403 13:53:52.736985 12207 layer_factory.hpp:77] Creating layer inception_4c/1x1
I0403 13:53:52.737006 12207 net.cpp:91] Creating Layer inception_4c/1x1
I0403 13:53:52.737023 12207 net.cpp:425] inception_4c/1x1 <- inception_4b/output_inception_4b/output_0_split_0
I0403 13:53:52.737041 12207 net.cpp:399] inception_4c/1x1 -> inception_4c/1x1
I0403 13:53:52.738517 12207 net.cpp:141] Setting up inception_4c/1x1
I0403 13:53:52.738548 12207 net.cpp:148] Top shape: 24 128 14 14 (602112)
I0403 13:53:52.738564 12207 net.cpp:156] Memory required for data: 1030800672
I0403 13:53:52.738581 12207 layer_factory.hpp:77] Creating layer inception_4c/relu_1x1
I0403 13:53:52.738602 12207 net.cpp:91] Creating Layer inception_4c/relu_1x1
I0403 13:53:52.738620 12207 net.cpp:425] inception_4c/relu_1x1 <- inception_4c/1x1
I0403 13:53:52.738637 12207 net.cpp:386] inception_4c/relu_1x1 -> inception_4c/1x1 (in-place)
I0403 13:53:52.738816 12207 net.cpp:141] Setting up inception_4c/relu_1x1
I0403 13:53:52.738843 12207 net.cpp:148] Top shape: 24 128 14 14 (602112)
I0403 13:53:52.738858 12207 net.cpp:156] Memory required for data: 1033209120
I0403 13:53:52.738873 12207 layer_factory.hpp:77] Creating layer inception_4c/3x3_reduce
I0403 13:53:52.738896 12207 net.cpp:91] Creating Layer inception_4c/3x3_reduce
I0403 13:53:52.738914 12207 net.cpp:425] inception_4c/3x3_reduce <- inception_4b/output_inception_4b/output_0_split_1
I0403 13:53:52.738932 12207 net.cpp:399] inception_4c/3x3_reduce -> inception_4c/3x3_reduce
I0403 13:53:52.741137 12207 net.cpp:141] Setting up inception_4c/3x3_reduce
I0403 13:53:52.741175 12207 net.cpp:148] Top shape: 24 128 14 14 (602112)
I0403 13:53:52.741194 12207 net.cpp:156] Memory required for data: 1035617568
I0403 13:53:52.741211 12207 layer_factory.hpp:77] Creating layer inception_4c/relu_3x3_reduce
I0403 13:53:52.741230 12207 net.cpp:91] Creating Layer inception_4c/relu_3x3_reduce
I0403 13:53:52.741246 12207 net.cpp:425] inception_4c/relu_3x3_reduce <- inception_4c/3x3_reduce
I0403 13:53:52.741264 12207 net.cpp:386] inception_4c/relu_3x3_reduce -> inception_4c/3x3_reduce (in-place)
I0403 13:53:52.741575 12207 net.cpp:141] Setting up inception_4c/relu_3x3_reduce
I0403 13:53:52.741606 12207 net.cpp:148] Top shape: 24 128 14 14 (602112)
I0403 13:53:52.741621 12207 net.cpp:156] Memory required for data: 1038026016
I0403 13:53:52.741636 12207 layer_factory.hpp:77] Creating layer inception_4c/3x3
I0403 13:53:52.741660 12207 net.cpp:91] Creating Layer inception_4c/3x3
I0403 13:53:52.741677 12207 net.cpp:425] inception_4c/3x3 <- inception_4c/3x3_reduce
I0403 13:53:52.741698 12207 net.cpp:399] inception_4c/3x3 -> inception_4c/3x3
I0403 13:53:52.745369 12207 net.cpp:141] Setting up inception_4c/3x3
I0403 13:53:52.745417 12207 net.cpp:148] Top shape: 24 256 14 14 (1204224)
I0403 13:53:52.745435 12207 net.cpp:156] Memory required for data: 1042842912
I0403 13:53:52.745467 12207 layer_factory.hpp:77] Creating layer inception_4c/relu_3x3
I0403 13:53:52.745487 12207 net.cpp:91] Creating Layer inception_4c/relu_3x3
I0403 13:53:52.745503 12207 net.cpp:425] inception_4c/relu_3x3 <- inception_4c/3x3
I0403 13:53:52.745529 12207 net.cpp:386] inception_4c/relu_3x3 -> inception_4c/3x3 (in-place)
I0403 13:53:52.745709 12207 net.cpp:141] Setting up inception_4c/relu_3x3
I0403 13:53:52.745734 12207 net.cpp:148] Top shape: 24 256 14 14 (1204224)
I0403 13:53:52.745748 12207 net.cpp:156] Memory required for data: 1047659808
I0403 13:53:52.745762 12207 layer_factory.hpp:77] Creating layer inception_4c/5x5_reduce
I0403 13:53:52.745785 12207 net.cpp:91] Creating Layer inception_4c/5x5_reduce
I0403 13:53:52.745803 12207 net.cpp:425] inception_4c/5x5_reduce <- inception_4b/output_inception_4b/output_0_split_2
I0403 13:53:52.745823 12207 net.cpp:399] inception_4c/5x5_reduce -> inception_4c/5x5_reduce
I0403 13:53:52.746913 12207 net.cpp:141] Setting up inception_4c/5x5_reduce
I0403 13:53:52.746942 12207 net.cpp:148] Top shape: 24 24 14 14 (112896)
I0403 13:53:52.746956 12207 net.cpp:156] Memory required for data: 1048111392
I0403 13:53:52.746974 12207 layer_factory.hpp:77] Creating layer inception_4c/relu_5x5_reduce
I0403 13:53:52.746992 12207 net.cpp:91] Creating Layer inception_4c/relu_5x5_reduce
I0403 13:53:52.747009 12207 net.cpp:425] inception_4c/relu_5x5_reduce <- inception_4c/5x5_reduce
I0403 13:53:52.747026 12207 net.cpp:386] inception_4c/relu_5x5_reduce -> inception_4c/5x5_reduce (in-place)
I0403 13:53:52.747211 12207 net.cpp:141] Setting up inception_4c/relu_5x5_reduce
I0403 13:53:52.747236 12207 net.cpp:148] Top shape: 24 24 14 14 (112896)
I0403 13:53:52.747251 12207 net.cpp:156] Memory required for data: 1048562976
I0403 13:53:52.747267 12207 layer_factory.hpp:77] Creating layer inception_4c/5x5
I0403 13:53:52.747287 12207 net.cpp:91] Creating Layer inception_4c/5x5
I0403 13:53:52.747304 12207 net.cpp:425] inception_4c/5x5 <- inception_4c/5x5_reduce
I0403 13:53:52.747324 12207 net.cpp:399] inception_4c/5x5 -> inception_4c/5x5
I0403 13:53:52.748575 12207 net.cpp:141] Setting up inception_4c/5x5
I0403 13:53:52.748603 12207 net.cpp:148] Top shape: 24 64 14 14 (301056)
I0403 13:53:52.748618 12207 net.cpp:156] Memory required for data: 1049767200
I0403 13:53:52.748636 12207 layer_factory.hpp:77] Creating layer inception_4c/relu_5x5
I0403 13:53:52.748656 12207 net.cpp:91] Creating Layer inception_4c/relu_5x5
I0403 13:53:52.748672 12207 net.cpp:425] inception_4c/relu_5x5 <- inception_4c/5x5
I0403 13:53:52.748688 12207 net.cpp:386] inception_4c/relu_5x5 -> inception_4c/5x5 (in-place)
I0403 13:53:52.748980 12207 net.cpp:141] Setting up inception_4c/relu_5x5
I0403 13:53:52.749006 12207 net.cpp:148] Top shape: 24 64 14 14 (301056)
I0403 13:53:52.749020 12207 net.cpp:156] Memory required for data: 1050971424
I0403 13:53:52.749034 12207 layer_factory.hpp:77] Creating layer inception_4c/pool
I0403 13:53:52.749052 12207 net.cpp:91] Creating Layer inception_4c/pool
I0403 13:53:52.749068 12207 net.cpp:425] inception_4c/pool <- inception_4b/output_inception_4b/output_0_split_3
I0403 13:53:52.749088 12207 net.cpp:399] inception_4c/pool -> inception_4c/pool
I0403 13:53:52.749155 12207 net.cpp:141] Setting up inception_4c/pool
I0403 13:53:52.749178 12207 net.cpp:148] Top shape: 24 512 14 14 (2408448)
I0403 13:53:52.749192 12207 net.cpp:156] Memory required for data: 1060605216
I0403 13:53:52.749207 12207 layer_factory.hpp:77] Creating layer inception_4c/pool_proj
I0403 13:53:52.749228 12207 net.cpp:91] Creating Layer inception_4c/pool_proj
I0403 13:53:52.749244 12207 net.cpp:425] inception_4c/pool_proj <- inception_4c/pool
I0403 13:53:52.749266 12207 net.cpp:399] inception_4c/pool_proj -> inception_4c/pool_proj
I0403 13:53:52.750494 12207 net.cpp:141] Setting up inception_4c/pool_proj
I0403 13:53:52.750527 12207 net.cpp:148] Top shape: 24 64 14 14 (301056)
I0403 13:53:52.750558 12207 net.cpp:156] Memory required for data: 1061809440
I0403 13:53:52.750577 12207 layer_factory.hpp:77] Creating layer inception_4c/relu_pool_proj
I0403 13:53:52.750596 12207 net.cpp:91] Creating Layer inception_4c/relu_pool_proj
I0403 13:53:52.750610 12207 net.cpp:425] inception_4c/relu_pool_proj <- inception_4c/pool_proj
I0403 13:53:52.750629 12207 net.cpp:386] inception_4c/relu_pool_proj -> inception_4c/pool_proj (in-place)
I0403 13:53:52.750811 12207 net.cpp:141] Setting up inception_4c/relu_pool_proj
I0403 13:53:52.750835 12207 net.cpp:148] Top shape: 24 64 14 14 (301056)
I0403 13:53:52.750850 12207 net.cpp:156] Memory required for data: 1063013664
I0403 13:53:52.750864 12207 layer_factory.hpp:77] Creating layer inception_4c/output
I0403 13:53:52.750881 12207 net.cpp:91] Creating Layer inception_4c/output
I0403 13:53:52.750895 12207 net.cpp:425] inception_4c/output <- inception_4c/1x1
I0403 13:53:52.750911 12207 net.cpp:425] inception_4c/output <- inception_4c/3x3
I0403 13:53:52.750926 12207 net.cpp:425] inception_4c/output <- inception_4c/5x5
I0403 13:53:52.750941 12207 net.cpp:425] inception_4c/output <- inception_4c/pool_proj
I0403 13:53:52.750959 12207 net.cpp:399] inception_4c/output -> inception_4c/output
I0403 13:53:52.751008 12207 net.cpp:141] Setting up inception_4c/output
I0403 13:53:52.751030 12207 net.cpp:148] Top shape: 24 512 14 14 (2408448)
I0403 13:53:52.751044 12207 net.cpp:156] Memory required for data: 1072647456
I0403 13:53:52.751058 12207 layer_factory.hpp:77] Creating layer inception_4c/output_inception_4c/output_0_split
I0403 13:53:52.751075 12207 net.cpp:91] Creating Layer inception_4c/output_inception_4c/output_0_split
I0403 13:53:52.751090 12207 net.cpp:425] inception_4c/output_inception_4c/output_0_split <- inception_4c/output
I0403 13:53:52.751108 12207 net.cpp:399] inception_4c/output_inception_4c/output_0_split -> inception_4c/output_inception_4c/output_0_split_0
I0403 13:53:52.751129 12207 net.cpp:399] inception_4c/output_inception_4c/output_0_split -> inception_4c/output_inception_4c/output_0_split_1
I0403 13:53:52.751148 12207 net.cpp:399] inception_4c/output_inception_4c/output_0_split -> inception_4c/output_inception_4c/output_0_split_2
I0403 13:53:52.751168 12207 net.cpp:399] inception_4c/output_inception_4c/output_0_split -> inception_4c/output_inception_4c/output_0_split_3
I0403 13:53:52.751255 12207 net.cpp:141] Setting up inception_4c/output_inception_4c/output_0_split
I0403 13:53:52.751278 12207 net.cpp:148] Top shape: 24 512 14 14 (2408448)
I0403 13:53:52.751293 12207 net.cpp:148] Top shape: 24 512 14 14 (2408448)
I0403 13:53:52.751308 12207 net.cpp:148] Top shape: 24 512 14 14 (2408448)
I0403 13:53:52.751322 12207 net.cpp:148] Top shape: 24 512 14 14 (2408448)
I0403 13:53:52.751335 12207 net.cpp:156] Memory required for data: 1111182624
I0403 13:53:52.751348 12207 layer_factory.hpp:77] Creating layer inception_4d/1x1
I0403 13:53:52.751371 12207 net.cpp:91] Creating Layer inception_4d/1x1
I0403 13:53:52.751389 12207 net.cpp:425] inception_4d/1x1 <- inception_4c/output_inception_4c/output_0_split_0
I0403 13:53:52.751407 12207 net.cpp:399] inception_4d/1x1 -> inception_4d/1x1
I0403 13:53:52.752789 12207 net.cpp:141] Setting up inception_4d/1x1
I0403 13:53:52.752816 12207 net.cpp:148] Top shape: 24 112 14 14 (526848)
I0403 13:53:52.752831 12207 net.cpp:156] Memory required for data: 1113290016
I0403 13:53:52.752849 12207 layer_factory.hpp:77] Creating layer inception_4d/relu_1x1
I0403 13:53:52.752868 12207 net.cpp:91] Creating Layer inception_4d/relu_1x1
I0403 13:53:52.752885 12207 net.cpp:425] inception_4d/relu_1x1 <- inception_4d/1x1
I0403 13:53:52.752902 12207 net.cpp:386] inception_4d/relu_1x1 -> inception_4d/1x1 (in-place)
I0403 13:53:52.753084 12207 net.cpp:141] Setting up inception_4d/relu_1x1
I0403 13:53:52.753109 12207 net.cpp:148] Top shape: 24 112 14 14 (526848)
I0403 13:53:52.753123 12207 net.cpp:156] Memory required for data: 1115397408
I0403 13:53:52.753139 12207 layer_factory.hpp:77] Creating layer inception_4d/3x3_reduce
I0403 13:53:52.753173 12207 net.cpp:91] Creating Layer inception_4d/3x3_reduce
I0403 13:53:52.753191 12207 net.cpp:425] inception_4d/3x3_reduce <- inception_4c/output_inception_4c/output_0_split_1
I0403 13:53:52.753212 12207 net.cpp:399] inception_4d/3x3_reduce -> inception_4d/3x3_reduce
I0403 13:53:52.754734 12207 net.cpp:141] Setting up inception_4d/3x3_reduce
I0403 13:53:52.754762 12207 net.cpp:148] Top shape: 24 144 14 14 (677376)
I0403 13:53:52.754776 12207 net.cpp:156] Memory required for data: 1118106912
I0403 13:53:52.754794 12207 layer_factory.hpp:77] Creating layer inception_4d/relu_3x3_reduce
I0403 13:53:52.754814 12207 net.cpp:91] Creating Layer inception_4d/relu_3x3_reduce
I0403 13:53:52.754832 12207 net.cpp:425] inception_4d/relu_3x3_reduce <- inception_4d/3x3_reduce
I0403 13:53:52.754848 12207 net.cpp:386] inception_4d/relu_3x3_reduce -> inception_4d/3x3_reduce (in-place)
I0403 13:53:52.755139 12207 net.cpp:141] Setting up inception_4d/relu_3x3_reduce
I0403 13:53:52.755167 12207 net.cpp:148] Top shape: 24 144 14 14 (677376)
I0403 13:53:52.755182 12207 net.cpp:156] Memory required for data: 1120816416
I0403 13:53:52.755195 12207 layer_factory.hpp:77] Creating layer inception_4d/3x3
I0403 13:53:52.755218 12207 net.cpp:91] Creating Layer inception_4d/3x3
I0403 13:53:52.755234 12207 net.cpp:425] inception_4d/3x3 <- inception_4d/3x3_reduce
I0403 13:53:52.755255 12207 net.cpp:399] inception_4d/3x3 -> inception_4d/3x3
I0403 13:53:52.759507 12207 net.cpp:141] Setting up inception_4d/3x3
I0403 13:53:52.759539 12207 net.cpp:148] Top shape: 24 288 14 14 (1354752)
I0403 13:53:52.759557 12207 net.cpp:156] Memory required for data: 1126235424
I0403 13:53:52.759574 12207 layer_factory.hpp:77] Creating layer inception_4d/relu_3x3
I0403 13:53:52.759593 12207 net.cpp:91] Creating Layer inception_4d/relu_3x3
I0403 13:53:52.759608 12207 net.cpp:425] inception_4d/relu_3x3 <- inception_4d/3x3
I0403 13:53:52.759624 12207 net.cpp:386] inception_4d/relu_3x3 -> inception_4d/3x3 (in-place)
I0403 13:53:52.759809 12207 net.cpp:141] Setting up inception_4d/relu_3x3
I0403 13:53:52.759834 12207 net.cpp:148] Top shape: 24 288 14 14 (1354752)
I0403 13:53:52.759847 12207 net.cpp:156] Memory required for data: 1131654432
I0403 13:53:52.759861 12207 layer_factory.hpp:77] Creating layer inception_4d/5x5_reduce
I0403 13:53:52.759883 12207 net.cpp:91] Creating Layer inception_4d/5x5_reduce
I0403 13:53:52.759901 12207 net.cpp:425] inception_4d/5x5_reduce <- inception_4c/output_inception_4c/output_0_split_2
I0403 13:53:52.759922 12207 net.cpp:399] inception_4d/5x5_reduce -> inception_4d/5x5_reduce
I0403 13:53:52.761071 12207 net.cpp:141] Setting up inception_4d/5x5_reduce
I0403 13:53:52.761099 12207 net.cpp:148] Top shape: 24 32 14 14 (150528)
I0403 13:53:52.761116 12207 net.cpp:156] Memory required for data: 1132256544
I0403 13:53:52.761132 12207 layer_factory.hpp:77] Creating layer inception_4d/relu_5x5_reduce
I0403 13:53:52.761160 12207 net.cpp:91] Creating Layer inception_4d/relu_5x5_reduce
I0403 13:53:52.761176 12207 net.cpp:425] inception_4d/relu_5x5_reduce <- inception_4d/5x5_reduce
I0403 13:53:52.761193 12207 net.cpp:386] inception_4d/relu_5x5_reduce -> inception_4d/5x5_reduce (in-place)
I0403 13:53:52.761380 12207 net.cpp:141] Setting up inception_4d/relu_5x5_reduce
I0403 13:53:52.761404 12207 net.cpp:148] Top shape: 24 32 14 14 (150528)
I0403 13:53:52.761420 12207 net.cpp:156] Memory required for data: 1132858656
I0403 13:53:52.761433 12207 layer_factory.hpp:77] Creating layer inception_4d/5x5
I0403 13:53:52.761454 12207 net.cpp:91] Creating Layer inception_4d/5x5
I0403 13:53:52.761472 12207 net.cpp:425] inception_4d/5x5 <- inception_4d/5x5_reduce
I0403 13:53:52.761492 12207 net.cpp:399] inception_4d/5x5 -> inception_4d/5x5
I0403 13:53:52.763041 12207 net.cpp:141] Setting up inception_4d/5x5
I0403 13:53:52.763069 12207 net.cpp:148] Top shape: 24 64 14 14 (301056)
I0403 13:53:52.763084 12207 net.cpp:156] Memory required for data: 1134062880
I0403 13:53:52.763103 12207 layer_factory.hpp:77] Creating layer inception_4d/relu_5x5
I0403 13:53:52.763137 12207 net.cpp:91] Creating Layer inception_4d/relu_5x5
I0403 13:53:52.763154 12207 net.cpp:425] inception_4d/relu_5x5 <- inception_4d/5x5
I0403 13:53:52.763175 12207 net.cpp:386] inception_4d/relu_5x5 -> inception_4d/5x5 (in-place)
I0403 13:53:52.763485 12207 net.cpp:141] Setting up inception_4d/relu_5x5
I0403 13:53:52.763519 12207 net.cpp:148] Top shape: 24 64 14 14 (301056)
I0403 13:53:52.763535 12207 net.cpp:156] Memory required for data: 1135267104
I0403 13:53:52.763550 12207 layer_factory.hpp:77] Creating layer inception_4d/pool
I0403 13:53:52.763567 12207 net.cpp:91] Creating Layer inception_4d/pool
I0403 13:53:52.763584 12207 net.cpp:425] inception_4d/pool <- inception_4c/output_inception_4c/output_0_split_3
I0403 13:53:52.763604 12207 net.cpp:399] inception_4d/pool -> inception_4d/pool
I0403 13:53:52.763674 12207 net.cpp:141] Setting up inception_4d/pool
I0403 13:53:52.763698 12207 net.cpp:148] Top shape: 24 512 14 14 (2408448)
I0403 13:53:52.763713 12207 net.cpp:156] Memory required for data: 1144900896
I0403 13:53:52.763727 12207 layer_factory.hpp:77] Creating layer inception_4d/pool_proj
I0403 13:53:52.763752 12207 net.cpp:91] Creating Layer inception_4d/pool_proj
I0403 13:53:52.763770 12207 net.cpp:425] inception_4d/pool_proj <- inception_4d/pool
I0403 13:53:52.763789 12207 net.cpp:399] inception_4d/pool_proj -> inception_4d/pool_proj
I0403 13:53:52.765641 12207 net.cpp:141] Setting up inception_4d/pool_proj
I0403 13:53:52.765676 12207 net.cpp:148] Top shape: 24 64 14 14 (301056)
I0403 13:53:52.765693 12207 net.cpp:156] Memory required for data: 1146105120
I0403 13:53:52.765712 12207 layer_factory.hpp:77] Creating layer inception_4d/relu_pool_proj
I0403 13:53:52.765730 12207 net.cpp:91] Creating Layer inception_4d/relu_pool_proj
I0403 13:53:52.765746 12207 net.cpp:425] inception_4d/relu_pool_proj <- inception_4d/pool_proj
I0403 13:53:52.765763 12207 net.cpp:386] inception_4d/relu_pool_proj -> inception_4d/pool_proj (in-place)
I0403 13:53:52.765960 12207 net.cpp:141] Setting up inception_4d/relu_pool_proj
I0403 13:53:52.765985 12207 net.cpp:148] Top shape: 24 64 14 14 (301056)
I0403 13:53:52.766000 12207 net.cpp:156] Memory required for data: 1147309344
I0403 13:53:52.766015 12207 layer_factory.hpp:77] Creating layer inception_4d/output
I0403 13:53:52.766031 12207 net.cpp:91] Creating Layer inception_4d/output
I0403 13:53:52.766047 12207 net.cpp:425] inception_4d/output <- inception_4d/1x1
I0403 13:53:52.766063 12207 net.cpp:425] inception_4d/output <- inception_4d/3x3
I0403 13:53:52.766079 12207 net.cpp:425] inception_4d/output <- inception_4d/5x5
I0403 13:53:52.766095 12207 net.cpp:425] inception_4d/output <- inception_4d/pool_proj
I0403 13:53:52.766114 12207 net.cpp:399] inception_4d/output -> inception_4d/output
I0403 13:53:52.766163 12207 net.cpp:141] Setting up inception_4d/output
I0403 13:53:52.766186 12207 net.cpp:148] Top shape: 24 528 14 14 (2483712)
I0403 13:53:52.766201 12207 net.cpp:156] Memory required for data: 1157244192
I0403 13:53:52.766216 12207 layer_factory.hpp:77] Creating layer inception_4d/output_inception_4d/output_0_split
I0403 13:53:52.766234 12207 net.cpp:91] Creating Layer inception_4d/output_inception_4d/output_0_split
I0403 13:53:52.766250 12207 net.cpp:425] inception_4d/output_inception_4d/output_0_split <- inception_4d/output
I0403 13:53:52.766271 12207 net.cpp:399] inception_4d/output_inception_4d/output_0_split -> inception_4d/output_inception_4d/output_0_split_0
I0403 13:53:52.766293 12207 net.cpp:399] inception_4d/output_inception_4d/output_0_split -> inception_4d/output_inception_4d/output_0_split_1
I0403 13:53:52.766314 12207 net.cpp:399] inception_4d/output_inception_4d/output_0_split -> inception_4d/output_inception_4d/output_0_split_2
I0403 13:53:52.766333 12207 net.cpp:399] inception_4d/output_inception_4d/output_0_split -> inception_4d/output_inception_4d/output_0_split_3
I0403 13:53:52.766353 12207 net.cpp:399] inception_4d/output_inception_4d/output_0_split -> inception_4d/output_inception_4d/output_0_split_4
I0403 13:53:52.766455 12207 net.cpp:141] Setting up inception_4d/output_inception_4d/output_0_split
I0403 13:53:52.766492 12207 net.cpp:148] Top shape: 24 528 14 14 (2483712)
I0403 13:53:52.766515 12207 net.cpp:148] Top shape: 24 528 14 14 (2483712)
I0403 13:53:52.766532 12207 net.cpp:148] Top shape: 24 528 14 14 (2483712)
I0403 13:53:52.766547 12207 net.cpp:148] Top shape: 24 528 14 14 (2483712)
I0403 13:53:52.766562 12207 net.cpp:148] Top shape: 24 528 14 14 (2483712)
I0403 13:53:52.766577 12207 net.cpp:156] Memory required for data: 1206918432
I0403 13:53:52.766590 12207 layer_factory.hpp:77] Creating layer loss2/ave_pool
I0403 13:53:52.766610 12207 net.cpp:91] Creating Layer loss2/ave_pool
I0403 13:53:52.766628 12207 net.cpp:425] loss2/ave_pool <- inception_4d/output_inception_4d/output_0_split_0
I0403 13:53:52.766646 12207 net.cpp:399] loss2/ave_pool -> loss2/ave_pool
I0403 13:53:52.766975 12207 net.cpp:141] Setting up loss2/ave_pool
I0403 13:53:52.767004 12207 net.cpp:148] Top shape: 24 528 4 4 (202752)
I0403 13:53:52.767020 12207 net.cpp:156] Memory required for data: 1207729440
I0403 13:53:52.767035 12207 layer_factory.hpp:77] Creating layer loss2/conv
I0403 13:53:52.767058 12207 net.cpp:91] Creating Layer loss2/conv
I0403 13:53:52.767076 12207 net.cpp:425] loss2/conv <- loss2/ave_pool
I0403 13:53:52.767096 12207 net.cpp:399] loss2/conv -> loss2/conv
I0403 13:53:52.769065 12207 net.cpp:141] Setting up loss2/conv
I0403 13:53:52.769094 12207 net.cpp:148] Top shape: 24 128 4 4 (49152)
I0403 13:53:52.769110 12207 net.cpp:156] Memory required for data: 1207926048
I0403 13:53:52.769129 12207 layer_factory.hpp:77] Creating layer loss2/relu_conv
I0403 13:53:52.769150 12207 net.cpp:91] Creating Layer loss2/relu_conv
I0403 13:53:52.769166 12207 net.cpp:425] loss2/relu_conv <- loss2/conv
I0403 13:53:52.769184 12207 net.cpp:386] loss2/relu_conv -> loss2/conv (in-place)
I0403 13:53:52.769477 12207 net.cpp:141] Setting up loss2/relu_conv
I0403 13:53:52.769511 12207 net.cpp:148] Top shape: 24 128 4 4 (49152)
I0403 13:53:52.769527 12207 net.cpp:156] Memory required for data: 1208122656
I0403 13:53:52.769542 12207 layer_factory.hpp:77] Creating layer loss2/fc
I0403 13:53:52.769565 12207 net.cpp:91] Creating Layer loss2/fc
I0403 13:53:52.769582 12207 net.cpp:425] loss2/fc <- loss2/conv
I0403 13:53:52.769600 12207 net.cpp:399] loss2/fc -> loss2/fc
I0403 13:53:52.787565 12207 net.cpp:141] Setting up loss2/fc
I0403 13:53:52.787627 12207 net.cpp:148] Top shape: 24 1024 (24576)
I0403 13:53:52.787643 12207 net.cpp:156] Memory required for data: 1208220960
I0403 13:53:52.787662 12207 layer_factory.hpp:77] Creating layer loss2/relu_fc
I0403 13:53:52.787684 12207 net.cpp:91] Creating Layer loss2/relu_fc
I0403 13:53:52.787703 12207 net.cpp:425] loss2/relu_fc <- loss2/fc
I0403 13:53:52.787724 12207 net.cpp:386] loss2/relu_fc -> loss2/fc (in-place)
I0403 13:53:52.788066 12207 net.cpp:141] Setting up loss2/relu_fc
I0403 13:53:52.788094 12207 net.cpp:148] Top shape: 24 1024 (24576)
I0403 13:53:52.788110 12207 net.cpp:156] Memory required for data: 1208319264
I0403 13:53:52.788125 12207 layer_factory.hpp:77] Creating layer loss2/drop_fc
I0403 13:53:52.788143 12207 net.cpp:91] Creating Layer loss2/drop_fc
I0403 13:53:52.788159 12207 net.cpp:425] loss2/drop_fc <- loss2/fc
I0403 13:53:52.788178 12207 net.cpp:386] loss2/drop_fc -> loss2/fc (in-place)
I0403 13:53:52.788228 12207 net.cpp:141] Setting up loss2/drop_fc
I0403 13:53:52.788250 12207 net.cpp:148] Top shape: 24 1024 (24576)
I0403 13:53:52.788264 12207 net.cpp:156] Memory required for data: 1208417568
I0403 13:53:52.788280 12207 layer_factory.hpp:77] Creating layer loss2/classifier_plantvillage
I0403 13:53:52.788301 12207 net.cpp:91] Creating Layer loss2/classifier_plantvillage
I0403 13:53:52.788318 12207 net.cpp:425] loss2/classifier_plantvillage <- loss2/fc
I0403 13:53:52.788338 12207 net.cpp:399] loss2/classifier_plantvillage -> loss2/classifier_plantvillage
I0403 13:53:52.788758 12207 net.cpp:141] Setting up loss2/classifier_plantvillage
I0403 13:53:52.788782 12207 net.cpp:148] Top shape: 24 38 (912)
I0403 13:53:52.788825 12207 net.cpp:156] Memory required for data: 1208421216
I0403 13:53:52.788843 12207 layer_factory.hpp:77] Creating layer loss2/classifier_plantvillage_loss2/classifier_plantvillage_0_split
I0403 13:53:52.788866 12207 net.cpp:91] Creating Layer loss2/classifier_plantvillage_loss2/classifier_plantvillage_0_split
I0403 13:53:52.788882 12207 net.cpp:425] loss2/classifier_plantvillage_loss2/classifier_plantvillage_0_split <- loss2/classifier_plantvillage
I0403 13:53:52.788898 12207 net.cpp:399] loss2/classifier_plantvillage_loss2/classifier_plantvillage_0_split -> loss2/classifier_plantvillage_loss2/classifier_plantvillage_0_split_0
I0403 13:53:52.788918 12207 net.cpp:399] loss2/classifier_plantvillage_loss2/classifier_plantvillage_0_split -> loss2/classifier_plantvillage_loss2/classifier_plantvillage_0_split_1
I0403 13:53:52.788938 12207 net.cpp:399] loss2/classifier_plantvillage_loss2/classifier_plantvillage_0_split -> loss2/classifier_plantvillage_loss2/classifier_plantvillage_0_split_2
I0403 13:53:52.789016 12207 net.cpp:141] Setting up loss2/classifier_plantvillage_loss2/classifier_plantvillage_0_split
I0403 13:53:52.789039 12207 net.cpp:148] Top shape: 24 38 (912)
I0403 13:53:52.789055 12207 net.cpp:148] Top shape: 24 38 (912)
I0403 13:53:52.789069 12207 net.cpp:148] Top shape: 24 38 (912)
I0403 13:53:52.789083 12207 net.cpp:156] Memory required for data: 1208432160
I0403 13:53:52.789096 12207 layer_factory.hpp:77] Creating layer inception_4e/1x1
I0403 13:53:52.789116 12207 net.cpp:91] Creating Layer inception_4e/1x1
I0403 13:53:52.789134 12207 net.cpp:425] inception_4e/1x1 <- inception_4d/output_inception_4d/output_0_split_1
I0403 13:53:52.789155 12207 net.cpp:399] inception_4e/1x1 -> inception_4e/1x1
I0403 13:53:52.791012 12207 net.cpp:141] Setting up inception_4e/1x1
I0403 13:53:52.791039 12207 net.cpp:148] Top shape: 24 256 14 14 (1204224)
I0403 13:53:52.791054 12207 net.cpp:156] Memory required for data: 1213249056
I0403 13:53:52.791071 12207 layer_factory.hpp:77] Creating layer inception_4e/relu_1x1
I0403 13:53:52.791091 12207 net.cpp:91] Creating Layer inception_4e/relu_1x1
I0403 13:53:52.791110 12207 net.cpp:425] inception_4e/relu_1x1 <- inception_4e/1x1
I0403 13:53:52.791126 12207 net.cpp:386] inception_4e/relu_1x1 -> inception_4e/1x1 (in-place)
I0403 13:53:52.791424 12207 net.cpp:141] Setting up inception_4e/relu_1x1
I0403 13:53:52.791450 12207 net.cpp:148] Top shape: 24 256 14 14 (1204224)
I0403 13:53:52.791465 12207 net.cpp:156] Memory required for data: 1218065952
I0403 13:53:52.791479 12207 layer_factory.hpp:77] Creating layer inception_4e/3x3_reduce
I0403 13:53:52.791501 12207 net.cpp:91] Creating Layer inception_4e/3x3_reduce
I0403 13:53:52.791525 12207 net.cpp:425] inception_4e/3x3_reduce <- inception_4d/output_inception_4d/output_0_split_2
I0403 13:53:52.791548 12207 net.cpp:399] inception_4e/3x3_reduce -> inception_4e/3x3_reduce
I0403 13:53:52.793712 12207 net.cpp:141] Setting up inception_4e/3x3_reduce
I0403 13:53:52.793741 12207 net.cpp:148] Top shape: 24 160 14 14 (752640)
I0403 13:53:52.793756 12207 net.cpp:156] Memory required for data: 1221076512
I0403 13:53:52.793773 12207 layer_factory.hpp:77] Creating layer inception_4e/relu_3x3_reduce
I0403 13:53:52.793792 12207 net.cpp:91] Creating Layer inception_4e/relu_3x3_reduce
I0403 13:53:52.793807 12207 net.cpp:425] inception_4e/relu_3x3_reduce <- inception_4e/3x3_reduce
I0403 13:53:52.793826 12207 net.cpp:386] inception_4e/relu_3x3_reduce -> inception_4e/3x3_reduce (in-place)
I0403 13:53:52.794016 12207 net.cpp:141] Setting up inception_4e/relu_3x3_reduce
I0403 13:53:52.794041 12207 net.cpp:148] Top shape: 24 160 14 14 (752640)
I0403 13:53:52.794057 12207 net.cpp:156] Memory required for data: 1224087072
I0403 13:53:52.794071 12207 layer_factory.hpp:77] Creating layer inception_4e/3x3
I0403 13:53:52.794092 12207 net.cpp:91] Creating Layer inception_4e/3x3
I0403 13:53:52.794111 12207 net.cpp:425] inception_4e/3x3 <- inception_4e/3x3_reduce
I0403 13:53:52.794131 12207 net.cpp:399] inception_4e/3x3 -> inception_4e/3x3
I0403 13:53:52.799279 12207 net.cpp:141] Setting up inception_4e/3x3
I0403 13:53:52.799321 12207 net.cpp:148] Top shape: 24 320 14 14 (1505280)
I0403 13:53:52.799338 12207 net.cpp:156] Memory required for data: 1230108192
I0403 13:53:52.799356 12207 layer_factory.hpp:77] Creating layer inception_4e/relu_3x3
I0403 13:53:52.799376 12207 net.cpp:91] Creating Layer inception_4e/relu_3x3
I0403 13:53:52.799393 12207 net.cpp:425] inception_4e/relu_3x3 <- inception_4e/3x3
I0403 13:53:52.799410 12207 net.cpp:386] inception_4e/relu_3x3 -> inception_4e/3x3 (in-place)
I0403 13:53:52.799729 12207 net.cpp:141] Setting up inception_4e/relu_3x3
I0403 13:53:52.799756 12207 net.cpp:148] Top shape: 24 320 14 14 (1505280)
I0403 13:53:52.799770 12207 net.cpp:156] Memory required for data: 1236129312
I0403 13:53:52.799784 12207 layer_factory.hpp:77] Creating layer inception_4e/5x5_reduce
I0403 13:53:52.799809 12207 net.cpp:91] Creating Layer inception_4e/5x5_reduce
I0403 13:53:52.799826 12207 net.cpp:425] inception_4e/5x5_reduce <- inception_4d/output_inception_4d/output_0_split_3
I0403 13:53:52.799845 12207 net.cpp:399] inception_4e/5x5_reduce -> inception_4e/5x5_reduce
I0403 13:53:52.800925 12207 net.cpp:141] Setting up inception_4e/5x5_reduce
I0403 13:53:52.800952 12207 net.cpp:148] Top shape: 24 32 14 14 (150528)
I0403 13:53:52.800967 12207 net.cpp:156] Memory required for data: 1236731424
I0403 13:53:52.800986 12207 layer_factory.hpp:77] Creating layer inception_4e/relu_5x5_reduce
I0403 13:53:52.801003 12207 net.cpp:91] Creating Layer inception_4e/relu_5x5_reduce
I0403 13:53:52.801018 12207 net.cpp:425] inception_4e/relu_5x5_reduce <- inception_4e/5x5_reduce
I0403 13:53:52.801038 12207 net.cpp:386] inception_4e/relu_5x5_reduce -> inception_4e/5x5_reduce (in-place)
I0403 13:53:52.801340 12207 net.cpp:141] Setting up inception_4e/relu_5x5_reduce
I0403 13:53:52.801367 12207 net.cpp:148] Top shape: 24 32 14 14 (150528)
I0403 13:53:52.801381 12207 net.cpp:156] Memory required for data: 1237333536
I0403 13:53:52.801395 12207 layer_factory.hpp:77] Creating layer inception_4e/5x5
I0403 13:53:52.801432 12207 net.cpp:91] Creating Layer inception_4e/5x5
I0403 13:53:52.801452 12207 net.cpp:425] inception_4e/5x5 <- inception_4e/5x5_reduce
I0403 13:53:52.801470 12207 net.cpp:399] inception_4e/5x5 -> inception_4e/5x5
I0403 13:53:52.803331 12207 net.cpp:141] Setting up inception_4e/5x5
I0403 13:53:52.803361 12207 net.cpp:148] Top shape: 24 128 14 14 (602112)
I0403 13:53:52.803377 12207 net.cpp:156] Memory required for data: 1239741984
I0403 13:53:52.803396 12207 layer_factory.hpp:77] Creating layer inception_4e/relu_5x5
I0403 13:53:52.803414 12207 net.cpp:91] Creating Layer inception_4e/relu_5x5
I0403 13:53:52.803429 12207 net.cpp:425] inception_4e/relu_5x5 <- inception_4e/5x5
I0403 13:53:52.803449 12207 net.cpp:386] inception_4e/relu_5x5 -> inception_4e/5x5 (in-place)
I0403 13:53:52.803668 12207 net.cpp:141] Setting up inception_4e/relu_5x5
I0403 13:53:52.803692 12207 net.cpp:148] Top shape: 24 128 14 14 (602112)
I0403 13:53:52.803706 12207 net.cpp:156] Memory required for data: 1242150432
I0403 13:53:52.803720 12207 layer_factory.hpp:77] Creating layer inception_4e/pool
I0403 13:53:52.803738 12207 net.cpp:91] Creating Layer inception_4e/pool
I0403 13:53:52.803753 12207 net.cpp:425] inception_4e/pool <- inception_4d/output_inception_4d/output_0_split_4
I0403 13:53:52.803774 12207 net.cpp:399] inception_4e/pool -> inception_4e/pool
I0403 13:53:52.803845 12207 net.cpp:141] Setting up inception_4e/pool
I0403 13:53:52.803869 12207 net.cpp:148] Top shape: 24 528 14 14 (2483712)
I0403 13:53:52.803884 12207 net.cpp:156] Memory required for data: 1252085280
I0403 13:53:52.803897 12207 layer_factory.hpp:77] Creating layer inception_4e/pool_proj
I0403 13:53:52.803918 12207 net.cpp:91] Creating Layer inception_4e/pool_proj
I0403 13:53:52.803936 12207 net.cpp:425] inception_4e/pool_proj <- inception_4e/pool
I0403 13:53:52.803956 12207 net.cpp:399] inception_4e/pool_proj -> inception_4e/pool_proj
I0403 13:53:52.805476 12207 net.cpp:141] Setting up inception_4e/pool_proj
I0403 13:53:52.805523 12207 net.cpp:148] Top shape: 24 128 14 14 (602112)
I0403 13:53:52.805541 12207 net.cpp:156] Memory required for data: 1254493728
I0403 13:53:52.805559 12207 layer_factory.hpp:77] Creating layer inception_4e/relu_pool_proj
I0403 13:53:52.805577 12207 net.cpp:91] Creating Layer inception_4e/relu_pool_proj
I0403 13:53:52.805593 12207 net.cpp:425] inception_4e/relu_pool_proj <- inception_4e/pool_proj
I0403 13:53:52.805610 12207 net.cpp:386] inception_4e/relu_pool_proj -> inception_4e/pool_proj (in-place)
I0403 13:53:52.805905 12207 net.cpp:141] Setting up inception_4e/relu_pool_proj
I0403 13:53:52.805934 12207 net.cpp:148] Top shape: 24 128 14 14 (602112)
I0403 13:53:52.805950 12207 net.cpp:156] Memory required for data: 1256902176
I0403 13:53:52.805965 12207 layer_factory.hpp:77] Creating layer inception_4e/output
I0403 13:53:52.805982 12207 net.cpp:91] Creating Layer inception_4e/output
I0403 13:53:52.805997 12207 net.cpp:425] inception_4e/output <- inception_4e/1x1
I0403 13:53:52.806013 12207 net.cpp:425] inception_4e/output <- inception_4e/3x3
I0403 13:53:52.806030 12207 net.cpp:425] inception_4e/output <- inception_4e/5x5
I0403 13:53:52.806044 12207 net.cpp:425] inception_4e/output <- inception_4e/pool_proj
I0403 13:53:52.806061 12207 net.cpp:399] inception_4e/output -> inception_4e/output
I0403 13:53:52.806113 12207 net.cpp:141] Setting up inception_4e/output
I0403 13:53:52.806136 12207 net.cpp:148] Top shape: 24 832 14 14 (3913728)
I0403 13:53:52.806151 12207 net.cpp:156] Memory required for data: 1272557088
I0403 13:53:52.806165 12207 layer_factory.hpp:77] Creating layer pool4/3x3_s2
I0403 13:53:52.806185 12207 net.cpp:91] Creating Layer pool4/3x3_s2
I0403 13:53:52.806201 12207 net.cpp:425] pool4/3x3_s2 <- inception_4e/output
I0403 13:53:52.806219 12207 net.cpp:399] pool4/3x3_s2 -> pool4/3x3_s2
I0403 13:53:52.806288 12207 net.cpp:141] Setting up pool4/3x3_s2
I0403 13:53:52.806311 12207 net.cpp:148] Top shape: 24 832 7 7 (978432)
I0403 13:53:52.806325 12207 net.cpp:156] Memory required for data: 1276470816
I0403 13:53:52.806339 12207 layer_factory.hpp:77] Creating layer pool4/3x3_s2_pool4/3x3_s2_0_split
I0403 13:53:52.806356 12207 net.cpp:91] Creating Layer pool4/3x3_s2_pool4/3x3_s2_0_split
I0403 13:53:52.806372 12207 net.cpp:425] pool4/3x3_s2_pool4/3x3_s2_0_split <- pool4/3x3_s2
I0403 13:53:52.806391 12207 net.cpp:399] pool4/3x3_s2_pool4/3x3_s2_0_split -> pool4/3x3_s2_pool4/3x3_s2_0_split_0
I0403 13:53:52.806412 12207 net.cpp:399] pool4/3x3_s2_pool4/3x3_s2_0_split -> pool4/3x3_s2_pool4/3x3_s2_0_split_1
I0403 13:53:52.806432 12207 net.cpp:399] pool4/3x3_s2_pool4/3x3_s2_0_split -> pool4/3x3_s2_pool4/3x3_s2_0_split_2
I0403 13:53:52.806452 12207 net.cpp:399] pool4/3x3_s2_pool4/3x3_s2_0_split -> pool4/3x3_s2_pool4/3x3_s2_0_split_3
I0403 13:53:52.806550 12207 net.cpp:141] Setting up pool4/3x3_s2_pool4/3x3_s2_0_split
I0403 13:53:52.806576 12207 net.cpp:148] Top shape: 24 832 7 7 (978432)
I0403 13:53:52.806593 12207 net.cpp:148] Top shape: 24 832 7 7 (978432)
I0403 13:53:52.806608 12207 net.cpp:148] Top shape: 24 832 7 7 (978432)
I0403 13:53:52.806623 12207 net.cpp:148] Top shape: 24 832 7 7 (978432)
I0403 13:53:52.806635 12207 net.cpp:156] Memory required for data: 1292125728
I0403 13:53:52.806649 12207 layer_factory.hpp:77] Creating layer inception_5a/1x1
I0403 13:53:52.806674 12207 net.cpp:91] Creating Layer inception_5a/1x1
I0403 13:53:52.806692 12207 net.cpp:425] inception_5a/1x1 <- pool4/3x3_s2_pool4/3x3_s2_0_split_0
I0403 13:53:52.806710 12207 net.cpp:399] inception_5a/1x1 -> inception_5a/1x1
I0403 13:53:52.809608 12207 net.cpp:141] Setting up inception_5a/1x1
I0403 13:53:52.809639 12207 net.cpp:148] Top shape: 24 256 7 7 (301056)
I0403 13:53:52.809656 12207 net.cpp:156] Memory required for data: 1293329952
I0403 13:53:52.809674 12207 layer_factory.hpp:77] Creating layer inception_5a/relu_1x1
I0403 13:53:52.809691 12207 net.cpp:91] Creating Layer inception_5a/relu_1x1
I0403 13:53:52.809707 12207 net.cpp:425] inception_5a/relu_1x1 <- inception_5a/1x1
I0403 13:53:52.809727 12207 net.cpp:386] inception_5a/relu_1x1 -> inception_5a/1x1 (in-place)
I0403 13:53:52.810046 12207 net.cpp:141] Setting up inception_5a/relu_1x1
I0403 13:53:52.810075 12207 net.cpp:148] Top shape: 24 256 7 7 (301056)
I0403 13:53:52.810091 12207 net.cpp:156] Memory required for data: 1294534176
I0403 13:53:52.810106 12207 layer_factory.hpp:77] Creating layer inception_5a/3x3_reduce
I0403 13:53:52.810127 12207 net.cpp:91] Creating Layer inception_5a/3x3_reduce
I0403 13:53:52.810144 12207 net.cpp:425] inception_5a/3x3_reduce <- pool4/3x3_s2_pool4/3x3_s2_0_split_1
I0403 13:53:52.810165 12207 net.cpp:399] inception_5a/3x3_reduce -> inception_5a/3x3_reduce
I0403 13:53:52.812710 12207 net.cpp:141] Setting up inception_5a/3x3_reduce
I0403 13:53:52.812738 12207 net.cpp:148] Top shape: 24 160 7 7 (188160)
I0403 13:53:52.812753 12207 net.cpp:156] Memory required for data: 1295286816
I0403 13:53:52.812770 12207 layer_factory.hpp:77] Creating layer inception_5a/relu_3x3_reduce
I0403 13:53:52.812791 12207 net.cpp:91] Creating Layer inception_5a/relu_3x3_reduce
I0403 13:53:52.812808 12207 net.cpp:425] inception_5a/relu_3x3_reduce <- inception_5a/3x3_reduce
I0403 13:53:52.812824 12207 net.cpp:386] inception_5a/relu_3x3_reduce -> inception_5a/3x3_reduce (in-place)
I0403 13:53:52.813014 12207 net.cpp:141] Setting up inception_5a/relu_3x3_reduce
I0403 13:53:52.813041 12207 net.cpp:148] Top shape: 24 160 7 7 (188160)
I0403 13:53:52.813056 12207 net.cpp:156] Memory required for data: 1296039456
I0403 13:53:52.813071 12207 layer_factory.hpp:77] Creating layer inception_5a/3x3
I0403 13:53:52.813091 12207 net.cpp:91] Creating Layer inception_5a/3x3
I0403 13:53:52.813109 12207 net.cpp:425] inception_5a/3x3 <- inception_5a/3x3_reduce
I0403 13:53:52.813127 12207 net.cpp:399] inception_5a/3x3 -> inception_5a/3x3
I0403 13:53:52.818227 12207 net.cpp:141] Setting up inception_5a/3x3
I0403 13:53:52.818256 12207 net.cpp:148] Top shape: 24 320 7 7 (376320)
I0403 13:53:52.818272 12207 net.cpp:156] Memory required for data: 1297544736
I0403 13:53:52.818290 12207 layer_factory.hpp:77] Creating layer inception_5a/relu_3x3
I0403 13:53:52.818307 12207 net.cpp:91] Creating Layer inception_5a/relu_3x3
I0403 13:53:52.818325 12207 net.cpp:425] inception_5a/relu_3x3 <- inception_5a/3x3
I0403 13:53:52.818343 12207 net.cpp:386] inception_5a/relu_3x3 -> inception_5a/3x3 (in-place)
I0403 13:53:52.818648 12207 net.cpp:141] Setting up inception_5a/relu_3x3
I0403 13:53:52.818675 12207 net.cpp:148] Top shape: 24 320 7 7 (376320)
I0403 13:53:52.818689 12207 net.cpp:156] Memory required for data: 1299050016
I0403 13:53:52.818704 12207 layer_factory.hpp:77] Creating layer inception_5a/5x5_reduce
I0403 13:53:52.818727 12207 net.cpp:91] Creating Layer inception_5a/5x5_reduce
I0403 13:53:52.818744 12207 net.cpp:425] inception_5a/5x5_reduce <- pool4/3x3_s2_pool4/3x3_s2_0_split_2
I0403 13:53:52.818766 12207 net.cpp:399] inception_5a/5x5_reduce -> inception_5a/5x5_reduce
I0403 13:53:52.819949 12207 net.cpp:141] Setting up inception_5a/5x5_reduce
I0403 13:53:52.819982 12207 net.cpp:148] Top shape: 24 32 7 7 (37632)
I0403 13:53:52.819998 12207 net.cpp:156] Memory required for data: 1299200544
I0403 13:53:52.820015 12207 layer_factory.hpp:77] Creating layer inception_5a/relu_5x5_reduce
I0403 13:53:52.820035 12207 net.cpp:91] Creating Layer inception_5a/relu_5x5_reduce
I0403 13:53:52.820052 12207 net.cpp:425] inception_5a/relu_5x5_reduce <- inception_5a/5x5_reduce
I0403 13:53:52.820070 12207 net.cpp:386] inception_5a/relu_5x5_reduce -> inception_5a/5x5_reduce (in-place)
I0403 13:53:52.820371 12207 net.cpp:141] Setting up inception_5a/relu_5x5_reduce
I0403 13:53:52.820397 12207 net.cpp:148] Top shape: 24 32 7 7 (37632)
I0403 13:53:52.820411 12207 net.cpp:156] Memory required for data: 1299351072
I0403 13:53:52.820426 12207 layer_factory.hpp:77] Creating layer inception_5a/5x5
I0403 13:53:52.820447 12207 net.cpp:91] Creating Layer inception_5a/5x5
I0403 13:53:52.820466 12207 net.cpp:425] inception_5a/5x5 <- inception_5a/5x5_reduce
I0403 13:53:52.820487 12207 net.cpp:399] inception_5a/5x5 -> inception_5a/5x5
I0403 13:53:52.822305 12207 net.cpp:141] Setting up inception_5a/5x5
I0403 13:53:52.822348 12207 net.cpp:148] Top shape: 24 128 7 7 (150528)
I0403 13:53:52.822365 12207 net.cpp:156] Memory required for data: 1299953184
I0403 13:53:52.822383 12207 layer_factory.hpp:77] Creating layer inception_5a/relu_5x5
I0403 13:53:52.822402 12207 net.cpp:91] Creating Layer inception_5a/relu_5x5
I0403 13:53:52.822417 12207 net.cpp:425] inception_5a/relu_5x5 <- inception_5a/5x5
I0403 13:53:52.822440 12207 net.cpp:386] inception_5a/relu_5x5 -> inception_5a/5x5 (in-place)
I0403 13:53:52.822645 12207 net.cpp:141] Setting up inception_5a/relu_5x5
I0403 13:53:52.822671 12207 net.cpp:148] Top shape: 24 128 7 7 (150528)
I0403 13:53:52.822685 12207 net.cpp:156] Memory required for data: 1300555296
I0403 13:53:52.822700 12207 layer_factory.hpp:77] Creating layer inception_5a/pool
I0403 13:53:52.822721 12207 net.cpp:91] Creating Layer inception_5a/pool
I0403 13:53:52.822737 12207 net.cpp:425] inception_5a/pool <- pool4/3x3_s2_pool4/3x3_s2_0_split_3
I0403 13:53:52.822756 12207 net.cpp:399] inception_5a/pool -> inception_5a/pool
I0403 13:53:52.822829 12207 net.cpp:141] Setting up inception_5a/pool
I0403 13:53:52.822852 12207 net.cpp:148] Top shape: 24 832 7 7 (978432)
I0403 13:53:52.822867 12207 net.cpp:156] Memory required for data: 1304469024
I0403 13:53:52.822881 12207 layer_factory.hpp:77] Creating layer inception_5a/pool_proj
I0403 13:53:52.822904 12207 net.cpp:91] Creating Layer inception_5a/pool_proj
I0403 13:53:52.822921 12207 net.cpp:425] inception_5a/pool_proj <- inception_5a/pool
I0403 13:53:52.822942 12207 net.cpp:399] inception_5a/pool_proj -> inception_5a/pool_proj
I0403 13:53:52.825389 12207 net.cpp:141] Setting up inception_5a/pool_proj
I0403 13:53:52.825423 12207 net.cpp:148] Top shape: 24 128 7 7 (150528)
I0403 13:53:52.825439 12207 net.cpp:156] Memory required for data: 1305071136
I0403 13:53:52.825458 12207 layer_factory.hpp:77] Creating layer inception_5a/relu_pool_proj
I0403 13:53:52.825476 12207 net.cpp:91] Creating Layer inception_5a/relu_pool_proj
I0403 13:53:52.825492 12207 net.cpp:425] inception_5a/relu_pool_proj <- inception_5a/pool_proj
I0403 13:53:52.825517 12207 net.cpp:386] inception_5a/relu_pool_proj -> inception_5a/pool_proj (in-place)
I0403 13:53:52.825829 12207 net.cpp:141] Setting up inception_5a/relu_pool_proj
I0403 13:53:52.825858 12207 net.cpp:148] Top shape: 24 128 7 7 (150528)
I0403 13:53:52.825875 12207 net.cpp:156] Memory required for data: 1305673248
I0403 13:53:52.825891 12207 layer_factory.hpp:77] Creating layer inception_5a/output
I0403 13:53:52.825907 12207 net.cpp:91] Creating Layer inception_5a/output
I0403 13:53:52.825923 12207 net.cpp:425] inception_5a/output <- inception_5a/1x1
I0403 13:53:52.825940 12207 net.cpp:425] inception_5a/output <- inception_5a/3x3
I0403 13:53:52.825955 12207 net.cpp:425] inception_5a/output <- inception_5a/5x5
I0403 13:53:52.825971 12207 net.cpp:425] inception_5a/output <- inception_5a/pool_proj
I0403 13:53:52.825989 12207 net.cpp:399] inception_5a/output -> inception_5a/output
I0403 13:53:52.826040 12207 net.cpp:141] Setting up inception_5a/output
I0403 13:53:52.826064 12207 net.cpp:148] Top shape: 24 832 7 7 (978432)
I0403 13:53:52.826078 12207 net.cpp:156] Memory required for data: 1309586976
I0403 13:53:52.826093 12207 layer_factory.hpp:77] Creating layer inception_5a/output_inception_5a/output_0_split
I0403 13:53:52.826110 12207 net.cpp:91] Creating Layer inception_5a/output_inception_5a/output_0_split
I0403 13:53:52.826127 12207 net.cpp:425] inception_5a/output_inception_5a/output_0_split <- inception_5a/output
I0403 13:53:52.826145 12207 net.cpp:399] inception_5a/output_inception_5a/output_0_split -> inception_5a/output_inception_5a/output_0_split_0
I0403 13:53:52.826167 12207 net.cpp:399] inception_5a/output_inception_5a/output_0_split -> inception_5a/output_inception_5a/output_0_split_1
I0403 13:53:52.826187 12207 net.cpp:399] inception_5a/output_inception_5a/output_0_split -> inception_5a/output_inception_5a/output_0_split_2
I0403 13:53:52.826211 12207 net.cpp:399] inception_5a/output_inception_5a/output_0_split -> inception_5a/output_inception_5a/output_0_split_3
I0403 13:53:52.826326 12207 net.cpp:141] Setting up inception_5a/output_inception_5a/output_0_split
I0403 13:53:52.826351 12207 net.cpp:148] Top shape: 24 832 7 7 (978432)
I0403 13:53:52.826367 12207 net.cpp:148] Top shape: 24 832 7 7 (978432)
I0403 13:53:52.826383 12207 net.cpp:148] Top shape: 24 832 7 7 (978432)
I0403 13:53:52.826398 12207 net.cpp:148] Top shape: 24 832 7 7 (978432)
I0403 13:53:52.826411 12207 net.cpp:156] Memory required for data: 1325241888
I0403 13:53:52.826426 12207 layer_factory.hpp:77] Creating layer inception_5b/1x1
I0403 13:53:52.826447 12207 net.cpp:91] Creating Layer inception_5b/1x1
I0403 13:53:52.826467 12207 net.cpp:425] inception_5b/1x1 <- inception_5a/output_inception_5a/output_0_split_0
I0403 13:53:52.826488 12207 net.cpp:399] inception_5b/1x1 -> inception_5b/1x1
I0403 13:53:52.830412 12207 net.cpp:141] Setting up inception_5b/1x1
I0403 13:53:52.830443 12207 net.cpp:148] Top shape: 24 384 7 7 (451584)
I0403 13:53:52.830462 12207 net.cpp:156] Memory required for data: 1327048224
I0403 13:53:52.830482 12207 layer_factory.hpp:77] Creating layer inception_5b/relu_1x1
I0403 13:53:52.830498 12207 net.cpp:91] Creating Layer inception_5b/relu_1x1
I0403 13:53:52.830523 12207 net.cpp:425] inception_5b/relu_1x1 <- inception_5b/1x1
I0403 13:53:52.830541 12207 net.cpp:386] inception_5b/relu_1x1 -> inception_5b/1x1 (in-place)
I0403 13:53:52.830858 12207 net.cpp:141] Setting up inception_5b/relu_1x1
I0403 13:53:52.830885 12207 net.cpp:148] Top shape: 24 384 7 7 (451584)
I0403 13:53:52.830904 12207 net.cpp:156] Memory required for data: 1328854560
I0403 13:53:52.830919 12207 layer_factory.hpp:77] Creating layer inception_5b/3x3_reduce
I0403 13:53:52.830937 12207 net.cpp:91] Creating Layer inception_5b/3x3_reduce
I0403 13:53:52.830955 12207 net.cpp:425] inception_5b/3x3_reduce <- inception_5a/output_inception_5a/output_0_split_1
I0403 13:53:52.830976 12207 net.cpp:399] inception_5b/3x3_reduce -> inception_5b/3x3_reduce
I0403 13:53:52.833763 12207 net.cpp:141] Setting up inception_5b/3x3_reduce
I0403 13:53:52.833793 12207 net.cpp:148] Top shape: 24 192 7 7 (225792)
I0403 13:53:52.833809 12207 net.cpp:156] Memory required for data: 1329757728
I0403 13:53:52.833828 12207 layer_factory.hpp:77] Creating layer inception_5b/relu_3x3_reduce
I0403 13:53:52.833848 12207 net.cpp:91] Creating Layer inception_5b/relu_3x3_reduce
I0403 13:53:52.833866 12207 net.cpp:425] inception_5b/relu_3x3_reduce <- inception_5b/3x3_reduce
I0403 13:53:52.833884 12207 net.cpp:386] inception_5b/relu_3x3_reduce -> inception_5b/3x3_reduce (in-place)
I0403 13:53:52.834081 12207 net.cpp:141] Setting up inception_5b/relu_3x3_reduce
I0403 13:53:52.834107 12207 net.cpp:148] Top shape: 24 192 7 7 (225792)
I0403 13:53:52.834122 12207 net.cpp:156] Memory required for data: 1330660896
I0403 13:53:52.834137 12207 layer_factory.hpp:77] Creating layer inception_5b/3x3
I0403 13:53:52.834159 12207 net.cpp:91] Creating Layer inception_5b/3x3
I0403 13:53:52.834178 12207 net.cpp:425] inception_5b/3x3 <- inception_5b/3x3_reduce
I0403 13:53:52.834200 12207 net.cpp:399] inception_5b/3x3 -> inception_5b/3x3
I0403 13:53:52.841148 12207 net.cpp:141] Setting up inception_5b/3x3
I0403 13:53:52.841181 12207 net.cpp:148] Top shape: 24 384 7 7 (451584)
I0403 13:53:52.841197 12207 net.cpp:156] Memory required for data: 1332467232
I0403 13:53:52.841214 12207 layer_factory.hpp:77] Creating layer inception_5b/relu_3x3
I0403 13:53:52.841233 12207 net.cpp:91] Creating Layer inception_5b/relu_3x3
I0403 13:53:52.841248 12207 net.cpp:425] inception_5b/relu_3x3 <- inception_5b/3x3
I0403 13:53:52.841269 12207 net.cpp:386] inception_5b/relu_3x3 -> inception_5b/3x3 (in-place)
I0403 13:53:52.841578 12207 net.cpp:141] Setting up inception_5b/relu_3x3
I0403 13:53:52.841605 12207 net.cpp:148] Top shape: 24 384 7 7 (451584)
I0403 13:53:52.841620 12207 net.cpp:156] Memory required for data: 1334273568
I0403 13:53:52.841635 12207 layer_factory.hpp:77] Creating layer inception_5b/5x5_reduce
I0403 13:53:52.841677 12207 net.cpp:91] Creating Layer inception_5b/5x5_reduce
I0403 13:53:52.841696 12207 net.cpp:425] inception_5b/5x5_reduce <- inception_5a/output_inception_5a/output_0_split_2
I0403 13:53:52.841716 12207 net.cpp:399] inception_5b/5x5_reduce -> inception_5b/5x5_reduce
I0403 13:53:52.843004 12207 net.cpp:141] Setting up inception_5b/5x5_reduce
I0403 13:53:52.843036 12207 net.cpp:148] Top shape: 24 48 7 7 (56448)
I0403 13:53:52.843053 12207 net.cpp:156] Memory required for data: 1334499360
I0403 13:53:52.843070 12207 layer_factory.hpp:77] Creating layer inception_5b/relu_5x5_reduce
I0403 13:53:52.843088 12207 net.cpp:91] Creating Layer inception_5b/relu_5x5_reduce
I0403 13:53:52.843104 12207 net.cpp:425] inception_5b/relu_5x5_reduce <- inception_5b/5x5_reduce
I0403 13:53:52.843122 12207 net.cpp:386] inception_5b/relu_5x5_reduce -> inception_5b/5x5_reduce (in-place)
I0403 13:53:52.843498 12207 net.cpp:141] Setting up inception_5b/relu_5x5_reduce
I0403 13:53:52.843530 12207 net.cpp:148] Top shape: 24 48 7 7 (56448)
I0403 13:53:52.843545 12207 net.cpp:156] Memory required for data: 1334725152
I0403 13:53:52.843559 12207 layer_factory.hpp:77] Creating layer inception_5b/5x5
I0403 13:53:52.843580 12207 net.cpp:91] Creating Layer inception_5b/5x5
I0403 13:53:52.843596 12207 net.cpp:425] inception_5b/5x5 <- inception_5b/5x5_reduce
I0403 13:53:52.843616 12207 net.cpp:399] inception_5b/5x5 -> inception_5b/5x5
I0403 13:53:52.845712 12207 net.cpp:141] Setting up inception_5b/5x5
I0403 13:53:52.845741 12207 net.cpp:148] Top shape: 24 128 7 7 (150528)
I0403 13:53:52.845758 12207 net.cpp:156] Memory required for data: 1335327264
I0403 13:53:52.845777 12207 layer_factory.hpp:77] Creating layer inception_5b/relu_5x5
I0403 13:53:52.845793 12207 net.cpp:91] Creating Layer inception_5b/relu_5x5
I0403 13:53:52.845808 12207 net.cpp:425] inception_5b/relu_5x5 <- inception_5b/5x5
I0403 13:53:52.845830 12207 net.cpp:386] inception_5b/relu_5x5 -> inception_5b/5x5 (in-place)
I0403 13:53:52.846027 12207 net.cpp:141] Setting up inception_5b/relu_5x5
I0403 13:53:52.846052 12207 net.cpp:148] Top shape: 24 128 7 7 (150528)
I0403 13:53:52.846066 12207 net.cpp:156] Memory required for data: 1335929376
I0403 13:53:52.846081 12207 layer_factory.hpp:77] Creating layer inception_5b/pool
I0403 13:53:52.846098 12207 net.cpp:91] Creating Layer inception_5b/pool
I0403 13:53:52.846114 12207 net.cpp:425] inception_5b/pool <- inception_5a/output_inception_5a/output_0_split_3
I0403 13:53:52.846134 12207 net.cpp:399] inception_5b/pool -> inception_5b/pool
I0403 13:53:52.846210 12207 net.cpp:141] Setting up inception_5b/pool
I0403 13:53:52.846233 12207 net.cpp:148] Top shape: 24 832 7 7 (978432)
I0403 13:53:52.846248 12207 net.cpp:156] Memory required for data: 1339843104
I0403 13:53:52.846262 12207 layer_factory.hpp:77] Creating layer inception_5b/pool_proj
I0403 13:53:52.846283 12207 net.cpp:91] Creating Layer inception_5b/pool_proj
I0403 13:53:52.846299 12207 net.cpp:425] inception_5b/pool_proj <- inception_5b/pool
I0403 13:53:52.846320 12207 net.cpp:399] inception_5b/pool_proj -> inception_5b/pool_proj
I0403 13:53:52.848652 12207 net.cpp:141] Setting up inception_5b/pool_proj
I0403 13:53:52.848683 12207 net.cpp:148] Top shape: 24 128 7 7 (150528)
I0403 13:53:52.848700 12207 net.cpp:156] Memory required for data: 1340445216
I0403 13:53:52.848718 12207 layer_factory.hpp:77] Creating layer inception_5b/relu_pool_proj
I0403 13:53:52.848736 12207 net.cpp:91] Creating Layer inception_5b/relu_pool_proj
I0403 13:53:52.848752 12207 net.cpp:425] inception_5b/relu_pool_proj <- inception_5b/pool_proj
I0403 13:53:52.848768 12207 net.cpp:386] inception_5b/relu_pool_proj -> inception_5b/pool_proj (in-place)
I0403 13:53:52.849071 12207 net.cpp:141] Setting up inception_5b/relu_pool_proj
I0403 13:53:52.849102 12207 net.cpp:148] Top shape: 24 128 7 7 (150528)
I0403 13:53:52.849117 12207 net.cpp:156] Memory required for data: 1341047328
I0403 13:53:52.849131 12207 layer_factory.hpp:77] Creating layer inception_5b/output
I0403 13:53:52.849148 12207 net.cpp:91] Creating Layer inception_5b/output
I0403 13:53:52.849179 12207 net.cpp:425] inception_5b/output <- inception_5b/1x1
I0403 13:53:52.849195 12207 net.cpp:425] inception_5b/output <- inception_5b/3x3
I0403 13:53:52.849211 12207 net.cpp:425] inception_5b/output <- inception_5b/5x5
I0403 13:53:52.849227 12207 net.cpp:425] inception_5b/output <- inception_5b/pool_proj
I0403 13:53:52.849244 12207 net.cpp:399] inception_5b/output -> inception_5b/output
I0403 13:53:52.849298 12207 net.cpp:141] Setting up inception_5b/output
I0403 13:53:52.849321 12207 net.cpp:148] Top shape: 24 1024 7 7 (1204224)
I0403 13:53:52.849335 12207 net.cpp:156] Memory required for data: 1345864224
I0403 13:53:52.849349 12207 layer_factory.hpp:77] Creating layer pool5/7x7_s1
I0403 13:53:52.849369 12207 net.cpp:91] Creating Layer pool5/7x7_s1
I0403 13:53:52.849385 12207 net.cpp:425] pool5/7x7_s1 <- inception_5b/output
I0403 13:53:52.849402 12207 net.cpp:399] pool5/7x7_s1 -> pool5/7x7_s1
I0403 13:53:52.849629 12207 net.cpp:141] Setting up pool5/7x7_s1
I0403 13:53:52.849654 12207 net.cpp:148] Top shape: 24 1024 1 1 (24576)
I0403 13:53:52.849669 12207 net.cpp:156] Memory required for data: 1345962528
I0403 13:53:52.849684 12207 layer_factory.hpp:77] Creating layer pool5/drop_7x7_s1
I0403 13:53:52.849701 12207 net.cpp:91] Creating Layer pool5/drop_7x7_s1
I0403 13:53:52.849716 12207 net.cpp:425] pool5/drop_7x7_s1 <- pool5/7x7_s1
I0403 13:53:52.849735 12207 net.cpp:386] pool5/drop_7x7_s1 -> pool5/7x7_s1 (in-place)
I0403 13:53:52.849786 12207 net.cpp:141] Setting up pool5/drop_7x7_s1
I0403 13:53:52.849808 12207 net.cpp:148] Top shape: 24 1024 1 1 (24576)
I0403 13:53:52.849825 12207 net.cpp:156] Memory required for data: 1346060832
I0403 13:53:52.849839 12207 layer_factory.hpp:77] Creating layer loss3/classifier_plantvillage
I0403 13:53:52.849858 12207 net.cpp:91] Creating Layer loss3/classifier_plantvillage
I0403 13:53:52.849874 12207 net.cpp:425] loss3/classifier_plantvillage <- pool5/7x7_s1
I0403 13:53:52.849895 12207 net.cpp:399] loss3/classifier_plantvillage -> loss3/classifier_plantvillage
I0403 13:53:52.850323 12207 net.cpp:141] Setting up loss3/classifier_plantvillage
I0403 13:53:52.850347 12207 net.cpp:148] Top shape: 24 38 (912)
I0403 13:53:52.850363 12207 net.cpp:156] Memory required for data: 1346064480
I0403 13:53:52.850379 12207 layer_factory.hpp:77] Creating layer loss3/classifier_plantvillage_loss3/classifier_plantvillage_0_split
I0403 13:53:52.850400 12207 net.cpp:91] Creating Layer loss3/classifier_plantvillage_loss3/classifier_plantvillage_0_split
I0403 13:53:52.850417 12207 net.cpp:425] loss3/classifier_plantvillage_loss3/classifier_plantvillage_0_split <- loss3/classifier_plantvillage
I0403 13:53:52.850435 12207 net.cpp:399] loss3/classifier_plantvillage_loss3/classifier_plantvillage_0_split -> loss3/classifier_plantvillage_loss3/classifier_plantvillage_0_split_0
I0403 13:53:52.850453 12207 net.cpp:399] loss3/classifier_plantvillage_loss3/classifier_plantvillage_0_split -> loss3/classifier_plantvillage_loss3/classifier_plantvillage_0_split_1
I0403 13:53:52.850473 12207 net.cpp:399] loss3/classifier_plantvillage_loss3/classifier_plantvillage_0_split -> loss3/classifier_plantvillage_loss3/classifier_plantvillage_0_split_2
I0403 13:53:52.850497 12207 net.cpp:399] loss3/classifier_plantvillage_loss3/classifier_plantvillage_0_split -> loss3/classifier_plantvillage_loss3/classifier_plantvillage_0_split_3
I0403 13:53:52.850606 12207 net.cpp:141] Setting up loss3/classifier_plantvillage_loss3/classifier_plantvillage_0_split
I0403 13:53:52.850630 12207 net.cpp:148] Top shape: 24 38 (912)
I0403 13:53:52.850646 12207 net.cpp:148] Top shape: 24 38 (912)
I0403 13:53:52.850659 12207 net.cpp:148] Top shape: 24 38 (912)
I0403 13:53:52.850673 12207 net.cpp:148] Top shape: 24 38 (912)
I0403 13:53:52.850687 12207 net.cpp:156] Memory required for data: 1346079072
I0403 13:53:52.850702 12207 layer_factory.hpp:77] Creating layer loss1/loss
I0403 13:53:52.850723 12207 net.cpp:91] Creating Layer loss1/loss
I0403 13:53:52.850739 12207 net.cpp:425] loss1/loss <- loss1/classifier_plantvillage_loss1/classifier_plantvillage_0_split_0
I0403 13:53:52.850770 12207 net.cpp:425] loss1/loss <- label_data_1_split_0
…
