…
I0403 14:04:53.788221 12646 net.cpp:313] The NetState phase (1) differed from the phase (0) specified by a rule in layer data
I0403 14:04:53.789407 12646 net.cpp:49] Initializing net from parameters: 
state {
  phase: TEST
}
layer {
  name: "data"
  type: "Data"
  top: "data"
  top: "label"
  include {
    phase: TEST
  }
  transform_param {
    mirror: false
    crop_size: 224
    mean_file: "/home/mohanty/data/final_dataset/lmdb/segmented-20-80/mean.binaryproto"
  }
  data_param {
    source: "/home/mohanty/data/final_dataset/lmdb/segmented-20-80/test_db"
    batch_size: 24
    backend: LMDB
  }
}
layer {
  name: "conv1/7x7_s2"
  type: "Convolution"
  bottom: "data"
  top: "conv1/7x7_s2"
  param {
    lr_mult: 1
    decay_mult: 1
  }
  param {
    lr_mult: 2
    decay_mult: 0
  }
  convolution_param {
    num_output: 64
    pad: 3
    kernel_size: 7
    stride: 2
    weight_filler {
      type: "xavier"
      std: 0.1
    }
    bias_filler {
      type: "constant"
      value: 0.2
    }
  }
}
layer {
  name: "conv1/relu_7x7"
  type: "ReLU"
  bottom: "conv1/7x7_s2"
  top: "conv1/7x7_s2"
}
layer {
  name: "pool1/3x3_s2"
  type: "Pooling"
  bottom: "conv1/7x7_s2"
  top: "pool1/3x3_s2"
  pooling_param {
    pool: MAX
    kernel_size: 3
    stride: 2
  }
}
layer {
  name: "pool1/norm1"
  type: "LRN"
  bottom: "pool1/3x3_s2"
  top: "pool1/norm1"
  lrn_param {
    local_size: 5
    alpha: 0.0001
    beta: 0.75
  }
}
layer {
  name: "conv2/3x3_reduce"
  type: "Convolution"
  bottom: "pool1/norm1"
  top: "conv2/3x3_reduce"
  param {
    lr_mult: 1
    decay_mult: 1
  }
  param {
    lr_mult: 2
    decay_mult: 0
  }
  convolution_param {
    num_output: 64
    kernel_size: 1
    weight_filler {
      type: "xavier"
      std: 0.1
    }
    bias_filler {
      type: "constant"
      value: 0.2
    }
  }
}
layer {
  name: "conv2/relu_3x3_reduce"
  type: "ReLU"
  bottom: "conv2/3x3_reduce"
  top: "conv2/3x3_reduce"
}
layer {
  name: "conv2/3x3"
  type: "Convolution"
  bottom: "conv2/3x3_reduce"
  top: "conv2/3x3"
  param {
    lr_mult: 1
    decay_mult: 1
  }
  param {
    lr_mult: 2
    decay_mult: 0
  }
  convolution_param {
    num_output: 192
    pad: 1
    kernel_size: 3
    weight_filler {
      type: "xavier"
      std: 0.03
    }
    bias_filler {
      type: "constant"
      value: 0.2
    }
  }
}
layer {
  name: "conv2/relu_3x3"
  type: "ReLU"
  bottom: "conv2/3x3"
  top: "conv2/3x3"
}
layer {
  name: "conv2/norm2"
  type: "LRN"
  bottom: "conv2/3x3"
  top: "conv2/norm2"
  lrn_param {
    local_size: 5
    alpha: 0.0001
    beta: 0.75
  }
}
layer {
  name: "pool2/3x3_s2"
  type: "Pooling"
  bottom: "conv2/norm2"
  top: "pool2/3x3_s2"
  pooling_param {
    pool: MAX
    kernel_size: 3
    stride: 2
  }
}
layer {
  name: "inception_3a/1x1"
  type: "Convolution"
  bottom: "pool2/3x3_s2"
  top: "inception_3a/1x1"
  param {
    lr_mult: 1
    decay_mult: 1
  }
  param {
    lr_mult: 2
    decay_mult: 0
  }
  convolution_param {
    num_output: 64
    kernel_size: 1
    weight_filler {
      type: "xavier"
      std: 0.03
    }
    bias_filler {
      type: "constant"
      value: 0.2
    }
  }
}
layer {
  name: "inception_3a/relu_1x1"
  type: "ReLU"
  bottom: "inception_3a/1x1"
  top: "inception_3a/1x1"
}
layer {
  name: "inception_3a/3x3_reduce"
  type: "Convolution"
  bottom: "pool2/3x3_s2"
  top: "inception_3a/3x3_reduce"
  param {
    lr_mult: 1
    decay_mult: 1
  }
  param {
    lr_mult: 2
    decay_mult: 0
  }
  convolution_param {
    num_output: 96
    kernel_size: 1
    weight_filler {
      type: "xavier"
      std: 0.09
    }
    bias_filler {
      type: "constant"
      value: 0.2
    }
  }
}
layer {
  name: "inception_3a/relu_3x3_reduce"
  type: "ReLU"
  bottom: "inception_3a/3x3_reduce"
  top: "inception_3a/3x3_reduce"
}
layer {
  name: "inception_3a/3x3"
  type: "Convolution"
  bottom: "inception_3a/3x3_reduce"
  top: "inception_3a/3x3"
  param {
    lr_mult: 1
    decay_mult: 1
  }
  param {
    lr_mult: 2
    decay_mult: 0
  }
  convolution_param {
    num_output: 128
    pad: 1
    kernel_size: 3
    weight_filler {
      type: "xavier"
      std: 0.03
    }
    bias_filler {
      type: "constant"
      value: 0.2
    }
  }
}
layer {
  name: "inception_3a/relu_3x3"
  type: "ReLU"
  bottom: "inception_3a/3x3"
  top: "inception_3a/3x3"
}
layer {
  name: "inception_3a/5x5_reduce"
  type: "Convolution"
  bottom: "pool2/3x3_s2"
  top: "inception_3a/5x5_reduce"
  param {
    lr_mult: 1
    decay_mult: 1
  }
  param {
    lr_mult: 2
    decay_mult: 0
  }
  convolution_param {
    num_output: 16
    kernel_size: 1
    weight_filler {
      type: "xavier"
      std: 0.2
    }
    bias_filler {
      type: "constant"
      value: 0.2
    }
  }
}
layer {
  name: "inception_3a/relu_5x5_reduce"
  type: "ReLU"
  bottom: "inception_3a/5x5_reduce"
  top: "inception_3a/5x5_reduce"
}
layer {
  name: "inception_3a/5x5"
  type: "Convolution"
  bottom: "inception_3a/5x5_reduce"
  top: "inception_3a/5x5"
  param {
    lr_mult: 1
    decay_mult: 1
  }
  param {
    lr_mult: 2
    decay_mult: 0
  }
  convolution_param {
    num_output: 32
    pad: 2
    kernel_size: 5
    weight_filler {
      type: "xavier"
      std: 0.03
    }
    bias_filler {
      type: "constant"
      value: 0.2
    }
  }
}
layer {
  name: "inception_3a/relu_5x5"
  type: "ReLU"
  bottom: "inception_3a/5x5"
  top: "inception_3a/5x5"
}
layer {
  name: "inception_3a/pool"
  type: "Pooling"
  bottom: "pool2/3x3_s2"
  top: "inception_3a/pool"
  pooling_param {
    pool: MAX
    kernel_size: 3
    stride: 1
    pad: 1
  }
}
layer {
  name: "inception_3a/pool_proj"
  type: "Convolution"
  bottom: "inception_3a/pool"
  top: "inception_3a/pool_proj"
  param {
    lr_mult: 1
    decay_mult: 1
  }
  param {
    lr_mult: 2
    decay_mult: 0
  }
  convolution_param {
    num_output: 32
    kernel_size: 1
    weight_filler {
      type: "xavier"
      std: 0.1
    }
    bias_filler {
      type: "constant"
      value: 0.2
    }
  }
}
layer {
  name: "inception_3a/relu_pool_proj"
  type: "ReLU"
  bottom: "inception_3a/pool_proj"
  top: "inception_3a/pool_proj"
}
layer {
  name: "inception_3a/output"
  type: "Concat"
  bottom: "inception_3a/1x1"
  bottom: "inception_3a/3x3"
  bottom: "inception_3a/5x5"
  bottom: "inception_3a/pool_proj"
  top: "inception_3a/output"
}
layer {
  name: "inception_3b/1x1"
  type: "Convolution"
  bottom: "inception_3a/output"
  top: "inception_3b/1x1"
  param {
    lr_mult: 1
    decay_mult: 1
  }
  param {
    lr_mult: 2
    decay_mult: 0
  }
  convolution_param {
    num_output: 128
    kernel_size: 1
    weight_filler {
      type: "xavier"
      std: 0.03
    }
    bias_filler {
      type: "constant"
      value: 0.2
    }
  }
}
layer {
  name: "inception_3b/relu_1x1"
  type: "ReLU"
  bottom: "inception_3b/1x1"
  top: "inception_3b/1x1"
}
layer {
  name: "inception_3b/3x3_reduce"
  type: "Convolution"
  bottom: "inception_3a/output"
  top: "inception_3b/3x3_reduce"
  param {
    lr_mult: 1
    decay_mult: 1
  }
  param {
    lr_mult: 2
    decay_mult: 0
  }
  convolution_param {
    num_output: 128
    kernel_size: 1
    weight_filler {
      type: "xavier"
      std: 0.09
    }
    bias_filler {
      type: "constant"
      value: 0.2
    }
  }
}
layer {
  name: "inception_3b/relu_3x3_reduce"
  type: "ReLU"
  bottom: "inception_3b/3x3_reduce"
  top: "inception_3b/3x3_reduce"
}
layer {
  name: "inception_3b/3x3"
  type: "Convolution"
  bottom: "inception_3b/3x3_reduce"
  top: "inception_3b/3x3"
  param {
    lr_mult: 1
    decay_mult: 1
  }
  param {
    lr_mult: 2
    decay_mult: 0
  }
  convolution_param {
    num_output: 192
    pad: 1
    kernel_size: 3
    weight_filler {
      type: "xavier"
      std: 0.03
    }
    bias_filler {
      type: "constant"
      value: 0.2
    }
  }
}
layer {
  name: "inception_3b/relu_3x3"
  type: "ReLU"
  bottom: "inception_3b/3x3"
  top: "inception_3b/3x3"
}
layer {
  name: "inception_3b/5x5_reduce"
  type: "Convolution"
  bottom: "inception_3a/output"
  top: "inception_3b/5x5_reduce"
  param {
    lr_mult: 1
    decay_mult: 1
  }
  param {
    lr_mult: 2
    decay_mult: 0
  }
  convolution_param {
    num_output: 32
    kernel_size: 1
    weight_filler {
      type: "xavier"
      std: 0.2
    }
    bias_filler {
      type: "constant"
      value: 0.2
    }
  }
}
layer {
  name: "inception_3b/relu_5x5_reduce"
  type: "ReLU"
  bottom: "inception_3b/5x5_reduce"
  top: "inception_3b/5x5_reduce"
}
layer {
  name: "inception_3b/5x5"
  type: "Convolution"
  bottom: "inception_3b/5x5_reduce"
  top: "inception_3b/5x5"
  param {
    lr_mult: 1
    decay_mult: 1
  }
  param {
    lr_mult: 2
    decay_mult: 0
  }
  convolution_param {
    num_output: 96
    pad: 2
    kernel_size: 5
    weight_filler {
      type: "xavier"
      std: 0.03
    }
    bias_filler {
      type: "constant"
      value: 0.2
    }
  }
}
layer {
  name: "inception_3b/relu_5x5"
  type: "ReLU"
  bottom: "inception_3b/5x5"
  top: "inception_3b/5x5"
}
layer {
  name: "inception_3b/pool"
  type: "Pooling"
  bottom: "inception_3a/output"
  top: "inception_3b/pool"
  pooling_param {
    pool: MAX
    kernel_size: 3
    stride: 1
    pad: 1
  }
}
layer {
  name: "inception_3b/pool_proj"
  type: "Convolution"
  bottom: "inception_3b/pool"
  top: "inception_3b/pool_proj"
  param {
    lr_mult: 1
    decay_mult: 1
  }
  param {
    lr_mult: 2
    decay_mult: 0
  }
  convolution_param {
    num_output: 64
    kernel_size: 1
    weight_filler {
      type: "xavier"
      std: 0.1
    }
    bias_filler {
      type: "constant"
      value: 0.2
    }
  }
}
layer {
  name: "inception_3b/relu_pool_proj"
  type: "ReLU"
  bottom: "inception_3b/pool_proj"
  top: "inception_3b/pool_proj"
}
layer {
  name: "inception_3b/output"
  type: "Concat"
  bottom: "inception_3b/1x1"
  bottom: "inception_3b/3x3"
  bottom: "inception_3b/5x5"
  bottom: "inception_3b/pool_proj"
  top: "inception_3b/output"
}
layer {
  name: "pool3/3x3_s2"
  type: "Pooling"
  bottom: "inception_3b/output"
  top: "pool3/3x3_s2"
  pooling_param {
    pool: MAX
    kernel_size: 3
    stride: 2
  }
}
layer {
  name: "inception_4a/1x1"
  type: "Convolution"
  bottom: "pool3/3x3_s2"
  top: "inception_4a/1x1"
  param {
    lr_mult: 1
    decay_mult: 1
  }
  param {
    lr_mult: 2
    decay_mult: 0
  }
  convolution_param {
    num_output: 192
    kernel_size: 1
    weight_filler {
      type: "xavier"
      std: 0.03
    }
    bias_filler {
      type: "constant"
      value: 0.2
    }
  }
}
layer {
  name: "inception_4a/relu_1x1"
  type: "ReLU"
  bottom: "inception_4a/1x1"
  top: "inception_4a/1x1"
}
layer {
  name: "inception_4a/3x3_reduce"
  type: "Convolution"
  bottom: "pool3/3x3_s2"
  top: "inception_4a/3x3_reduce"
  param {
    lr_mult: 1
    decay_mult: 1
  }
  param {
    lr_mult: 2
    decay_mult: 0
  }
  convolution_param {
    num_output: 96
    kernel_size: 1
    weight_filler {
      type: "xavier"
      std: 0.09
    }
    bias_filler {
      type: "constant"
      value: 0.2
    }
  }
}
layer {
  name: "inception_4a/relu_3x3_reduce"
  type: "ReLU"
  bottom: "inception_4a/3x3_reduce"
  top: "inception_4a/3x3_reduce"
}
layer {
  name: "inception_4a/3x3"
  type: "Convolution"
  bottom: "inception_4a/3x3_reduce"
  top: "inception_4a/3x3"
  param {
    lr_mult: 1
    decay_mult: 1
  }
  param {
    lr_mult: 2
    decay_mult: 0
  }
  convolution_param {
    num_output: 208
    pad: 1
    kernel_size: 3
    weight_filler {
      type: "xavier"
      std: 0.03
    }
    bias_filler {
      type: "constant"
      value: 0.2
    }
  }
}
layer {
  name: "inception_4a/relu_3x3"
  type: "ReLU"
  bottom: "inception_4a/3x3"
  top: "inception_4a/3x3"
}
layer {
  name: "inception_4a/5x5_reduce"
  type: "Convolution"
  bottom: "pool3/3x3_s2"
  top: "inception_4a/5x5_reduce"
  param {
    lr_mult: 1
    decay_mult: 1
  }
  param {
    lr_mult: 2
    decay_mult: 0
  }
  convolution_param {
    num_output: 16
    kernel_size: 1
    weight_filler {
      type: "xavier"
      std: 0.2
    }
    bias_filler {
      type: "constant"
      value: 0.2
    }
  }
}
layer {
  name: "inception_4a/relu_5x5_reduce"
  type: "ReLU"
  bottom: "inception_4a/5x5_reduce"
  top: "inception_4a/5x5_reduce"
}
layer {
  name: "inception_4a/5x5"
  type: "Convolution"
  bottom: "inception_4a/5x5_reduce"
  top: "inception_4a/5x5"
  param {
    lr_mult: 1
    decay_mult: 1
  }
  param {
    lr_mult: 2
    decay_mult: 0
  }
  convolution_param {
    num_output: 48
    pad: 2
    kernel_size: 5
    weight_filler {
      type: "xavier"
      std: 0.03
    }
    bias_filler {
      type: "constant"
      value: 0.2
    }
  }
}
layer {
  name: "inception_4a/relu_5x5"
  type: "ReLU"
  bottom: "inception_4a/5x5"
  top: "inception_4a/5x5"
}
layer {
  name: "inception_4a/pool"
  type: "Pooling"
  bottom: "pool3/3x3_s2"
  top: "inception_4a/pool"
  pooling_param {
    pool: MAX
    kernel_size: 3
    stride: 1
    pad: 1
  }
}
layer {
  name: "inception_4a/pool_proj"
  type: "Convolution"
  bottom: "inception_4a/pool"
  top: "inception_4a/pool_proj"
  param {
    lr_mult: 1
    decay_mult: 1
  }
  param {
    lr_mult: 2
    decay_mult: 0
  }
  convolution_param {
    num_output: 64
    kernel_size: 1
    weight_filler {
      type: "xavier"
      std: 0.1
    }
    bias_filler {
      type: "constant"
      value: 0.2
    }
  }
}
layer {
  name: "inception_4a/relu_pool_proj"
  type: "ReLU"
  bottom: "inception_4a/pool_proj"
  top: "inception_4a/pool_proj"
}
layer {
  name: "inception_4a/output"
  type: "Concat"
  bottom: "inception_4a/1x1"
  bottom: "inception_4a/3x3"
  bottom: "inception_4a/5x5"
  bottom: "inception_4a/pool_proj"
  top: "inception_4a/output"
}
layer {
  name: "loss1/ave_pool"
  type: "Pooling"
  bottom: "inception_4a/output"
  top: "loss1/ave_pool"
  pooling_param {
    pool: AVE
    kernel_size: 5
    stride: 3
  }
}
layer {
  name: "loss1/conv"
  type: "Convolution"
  bottom: "loss1/ave_pool"
  top: "loss1/conv"
  param {
    lr_mult: 1
    decay_mult: 1
  }
  param {
    lr_mult: 2
    decay_mult: 0
  }
  convolution_param {
    num_output: 128
    kernel_size: 1
    weight_filler {
      type: "xavier"
      std: 0.08
    }
    bias_filler {
      type: "constant"
      value: 0.2
    }
  }
}
layer {
  name: "loss1/relu_conv"
  type: "ReLU"
  bottom: "loss1/conv"
  top: "loss1/conv"
}
layer {
  name: "loss1/fc"
  type: "InnerProduct"
  bottom: "loss1/conv"
  top: "loss1/fc"
  param {
    lr_mult: 1
    decay_mult: 1
  }
  param {
    lr_mult: 2
    decay_mult: 0
  }
  inner_product_param {
    num_output: 1024
    weight_filler {
      type: "xavier"
      std: 0.02
    }
    bias_filler {
      type: "constant"
      value: 0.2
    }
  }
}
layer {
  name: "loss1/relu_fc"
  type: "ReLU"
  bottom: "loss1/fc"
  top: "loss1/fc"
}
layer {
  name: "loss1/drop_fc"
  type: "Dropout"
  bottom: "loss1/fc"
  top: "loss1/fc"
  dropout_param {
    dropout_ratio: 0.7
  }
}
layer {
  name: "loss1/classifier_plantvillage"
  type: "InnerProduct"
  bottom: "loss1/fc"
  top: "loss1/classifier_plantvillage"
  param {
    lr_mult: 1
    decay_mult: 1
  }
  param {
    lr_mult: 2
    decay_mult: 0
  }
  inner_product_param {
    num_output: 38
    weight_filler {
      type: "xavier"
      std: 0.0009765625
    }
    bias_filler {
      type: "constant"
      value: 0
    }
  }
}
layer {
  name: "inception_4b/1x1"
  type: "Convolution"
  bottom: "inception_4a/output"
  top: "inception_4b/1x1"
  param {
    lr_mult: 1
    decay_mult: 1
  }
  param {
    lr_mult: 2
    decay_mult: 0
  }
  convolution_param {
    num_output: 160
    kernel_size: 1
    weight_filler {
      type: "xavier"
      std: 0.03
    }
    bias_filler {
      type: "constant"
      value: 0.2
    }
  }
}
layer {
  name: "inception_4b/relu_1x1"
  type: "ReLU"
  bottom: "inception_4b/1x1"
  top: "inception_4b/1x1"
}
layer {
  name: "inception_4b/3x3_reduce"
  type: "Convolution"
  bottom: "inception_4a/output"
  top: "inception_4b/3x3_reduce"
  param {
    lr_mult: 1
    decay_mult: 1
  }
  param {
    lr_mult: 2
    decay_mult: 0
  }
  convolution_param {
    num_output: 112
    kernel_size: 1
    weight_filler {
      type: "xavier"
      std: 0.09
    }
    bias_filler {
      type: "constant"
      value: 0.2
    }
  }
}
layer {
  name: "inception_4b/relu_3x3_reduce"
  type: "ReLU"
  bottom: "inception_4b/3x3_reduce"
  top: "inception_4b/3x3_reduce"
}
layer {
  name: "inception_4b/3x3"
  type: "Convolution"
  bottom: "inception_4b/3x3_reduce"
  top: "inception_4b/3x3"
  param {
    lr_mult: 1
    decay_mult: 1
  }
  param {
    lr_mult: 2
    decay_mult: 0
  }
  convolution_param {
    num_output: 224
    pad: 1
    kernel_size: 3
    weight_filler {
      type: "xavier"
      std: 0.03
    }
    bias_filler {
      type: "constant"
      value: 0.2
    }
  }
}
layer {
  name: "inception_4b/relu_3x3"
  type: "ReLU"
  bottom: "inception_4b/3x3"
  top: "inception_4b/3x3"
}
layer {
  name: "inception_4b/5x5_reduce"
  type: "Convolution"
  bottom: "inception_4a/output"
  top: "inception_4b/5x5_reduce"
  param {
    lr_mult: 1
    decay_mult: 1
  }
  param {
    lr_mult: 2
    decay_mult: 0
  }
  convolution_param {
    num_output: 24
    kernel_size: 1
    weight_filler {
      type: "xavier"
      std: 0.2
    }
    bias_filler {
      type: "constant"
      value: 0.2
    }
  }
}
layer {
  name: "inception_4b/relu_5x5_reduce"
  type: "ReLU"
  bottom: "inception_4b/5x5_reduce"
  top: "inception_4b/5x5_reduce"
}
layer {
  name: "inception_4b/5x5"
  type: "Convolution"
  bottom: "inception_4b/5x5_reduce"
  top: "inception_4b/5x5"
  param {
    lr_mult: 1
    decay_mult: 1
  }
  param {
    lr_mult: 2
    decay_mult: 0
  }
  convolution_param {
    num_output: 64
    pad: 2
    kernel_size: 5
    weight_filler {
      type: "xavier"
      std: 0.03
    }
    bias_filler {
      type: "constant"
      value: 0.2
    }
  }
}
layer {
  name: "inception_4b/relu_5x5"
  type: "ReLU"
  bottom: "inception_4b/5x5"
  top: "inception_4b/5x5"
}
layer {
  name: "inception_4b/pool"
  type: "Pooling"
  bottom: "inception_4a/output"
  top: "inception_4b/pool"
  pooling_param {
    pool: MAX
    kernel_size: 3
    stride: 1
    pad: 1
  }
}
layer {
  name: "inception_4b/pool_proj"
  type: "Convolution"
  bottom: "inception_4b/pool"
  top: "inception_4b/pool_proj"
  param {
    lr_mult: 1
    decay_mult: 1
  }
  param {
    lr_mult: 2
    decay_mult: 0
  }
  convolution_param {
    num_output: 64
    kernel_size: 1
    weight_filler {
      type: "xavier"
      std: 0.1
    }
    bias_filler {
      type: "constant"
      value: 0.2
    }
  }
}
layer {
  name: "inception_4b/relu_pool_proj"
  type: "ReLU"
  bottom: "inception_4b/pool_proj"
  top: "inception_4b/pool_proj"
}
layer {
  name: "inception_4b/output"
  type: "Concat"
  bottom: "inception_4b/1x1"
  bottom: "inception_4b/3x3"
  bottom: "inception_4b/5x5"
  bottom: "inception_4b/pool_proj"
  top: "inception_4b/output"
}
layer {
  name: "inception_4c/1x1"
  type: "Convolution"
  bottom: "inception_4b/output"
  top: "inception_4c/1x1"
  param {
    lr_mult: 1
    decay_mult: 1
  }
  param {
    lr_mult: 2
    decay_mult: 0
  }
  convolution_param {
    num_output: 128
    kernel_size: 1
    weight_filler {
      type: "xavier"
      std: 0.03
    }
    bias_filler {
      type: "constant"
      value: 0.2
    }
  }
}
layer {
  name: "inception_4c/relu_1x1"
  type: "ReLU"
  bottom: "inception_4c/1x1"
  top: "inception_4c/1x1"
}
layer {
  name: "inception_4c/3x3_reduce"
  type: "Convolution"
  bottom: "inception_4b/output"
  top: "inception_4c/3x3_reduce"
  param {
    lr_mult: 1
    decay_mult: 1
  }
  param {
    lr_mult: 2
    decay_mult: 0
  }
  convolution_param {
    num_output: 128
    kernel_size: 1
    weight_filler {
      type: "xavier"
      std: 0.09
    }
    bias_filler {
      type: "constant"
      value: 0.2
    }
  }
}
layer {
  name: "inception_4c/relu_3x3_reduce"
  type: "ReLU"
  bottom: "inception_4c/3x3_reduce"
  top: "inception_4c/3x3_reduce"
}
layer {
  name: "inception_4c/3x3"
  type: "Convolution"
  bottom: "inception_4c/3x3_reduce"
  top: "inception_4c/3x3"
  param {
    lr_mult: 1
    decay_mult: 1
  }
  param {
    lr_mult: 2
    decay_mult: 0
  }
  convolution_param {
    num_output: 256
    pad: 1
    kernel_size: 3
    weight_filler {
      type: "xavier"
      std: 0.03
    }
    bias_filler {
      type: "constant"
      value: 0.2
    }
  }
}
layer {
  name: "inception_4c/relu_3x3"
  type: "ReLU"
  bottom: "inception_4c/3x3"
  top: "inception_4c/3x3"
}
layer {
  name: "inception_4c/5x5_reduce"
  type: "Convolution"
  bottom: "inception_4b/output"
  top: "inception_4c/5x5_reduce"
  param {
    lr_mult: 1
    decay_mult: 1
  }
  param {
    lr_mult: 2
    decay_mult: 0
  }
  convolution_param {
    num_output: 24
    kernel_size: 1
    weight_filler {
      type: "xavier"
      std: 0.2
    }
    bias_filler {
      type: "constant"
      value: 0.2
    }
  }
}
layer {
  name: "inception_4c/relu_5x5_reduce"
  type: "ReLU"
  bottom: "inception_4c/5x5_reduce"
  top: "inception_4c/5x5_reduce"
}
layer {
  name: "inception_4c/5x5"
  type: "Convolution"
  bottom: "inception_4c/5x5_reduce"
  top: "inception_4c/5x5"
  param {
    lr_mult: 1
    decay_mult: 1
  }
  param {
    lr_mult: 2
    decay_mult: 0
  }
  convolution_param {
    num_output: 64
    pad: 2
    kernel_size: 5
    weight_filler {
      type: "xavier"
      std: 0.03
    }
    bias_filler {
      type: "constant"
      value: 0.2
    }
  }
}
layer {
  name: "inception_4c/relu_5x5"
  type: "ReLU"
  bottom: "inception_4c/5x5"
  top: "inception_4c/5x5"
}
layer {
  name: "inception_4c/pool"
  type: "Pooling"
  bottom: "inception_4b/output"
  top: "inception_4c/pool"
  pooling_param {
    pool: MAX
    kernel_size: 3
    stride: 1
    pad: 1
  }
}
layer {
  name: "inception_4c/pool_proj"
  type: "Convolution"
  bottom: "inception_4c/pool"
  top: "inception_4c/pool_proj"
  param {
    lr_mult: 1
    decay_mult: 1
  }
  param {
    lr_mult: 2
    decay_mult: 0
  }
  convolution_param {
    num_output: 64
    kernel_size: 1
    weight_filler {
      type: "xavier"
      std: 0.1
    }
    bias_filler {
      type: "constant"
      value: 0.2
    }
  }
}
layer {
  name: "inception_4c/relu_pool_proj"
  type: "ReLU"
  bottom: "inception_4c/pool_proj"
  top: "inception_4c/pool_proj"
}
layer {
  name: "inception_4c/output"
  type: "Concat"
  bottom: "inception_4c/1x1"
  bottom: "inception_4c/3x3"
  bottom: "inception_4c/5x5"
  bottom: "inception_4c/pool_proj"
  top: "inception_4c/output"
}
layer {
  name: "inception_4d/1x1"
  type: "Convolution"
  bottom: "inception_4c/output"
  top: "inception_4d/1x1"
  param {
    lr_mult: 1
    decay_mult: 1
  }
  param {
    lr_mult: 2
    decay_mult: 0
  }
  convolution_param {
    num_output: 112
    kernel_size: 1
    weight_filler {
      type: "xavier"
      std: 0.03
    }
    bias_filler {
      type: "constant"
      value: 0.2
    }
  }
}
layer {
  name: "inception_4d/relu_1x1"
  type: "ReLU"
  bottom: "inception_4d/1x1"
  top: "inception_4d/1x1"
}
layer {
  name: "inception_4d/3x3_reduce"
  type: "Convolution"
  bottom: "inception_4c/output"
  top: "inception_4d/3x3_reduce"
  param {
    lr_mult: 1
    decay_mult: 1
  }
  param {
    lr_mult: 2
    decay_mult: 0
  }
  convolution_param {
    num_output: 144
    kernel_size: 1
    weight_filler {
      type: "xavier"
      std: 0.09
    }
    bias_filler {
      type: "constant"
      value: 0.2
    }
  }
}
layer {
  name: "inception_4d/relu_3x3_reduce"
  type: "ReLU"
  bottom: "inception_4d/3x3_reduce"
  top: "inception_4d/3x3_reduce"
}
layer {
  name: "inception_4d/3x3"
  type: "Convolution"
  bottom: "inception_4d/3x3_reduce"
  top: "inception_4d/3x3"
  param {
    lr_mult: 1
    decay_mult: 1
  }
  param {
    lr_mult: 2
    decay_mult: 0
  }
  convolution_param {
    num_output: 288
    pad: 1
    kernel_size: 3
    weight_filler {
      type: "xavier"
      std: 0.03
    }
    bias_filler {
      type: "constant"
      value: 0.2
    }
  }
}
layer {
  name: "inception_4d/relu_3x3"
  type: "ReLU"
  bottom: "inception_4d/3x3"
  top: "inception_4d/3x3"
}
layer {
  name: "inception_4d/5x5_reduce"
  type: "Convolution"
  bottom: "inception_4c/output"
  top: "inception_4d/5x5_reduce"
  param {
    lr_mult: 1
    decay_mult: 1
  }
  param {
    lr_mult: 2
    decay_mult: 0
  }
  convolution_param {
    num_output: 32
    kernel_size: 1
    weight_filler {
      type: "xavier"
      std: 0.2
    }
    bias_filler {
      type: "constant"
      value: 0.2
    }
  }
}
layer {
  name: "inception_4d/relu_5x5_reduce"
  type: "ReLU"
  bottom: "inception_4d/5x5_reduce"
  top: "inception_4d/5x5_reduce"
}
layer {
  name: "inception_4d/5x5"
  type: "Convolution"
  bottom: "inception_4d/5x5_reduce"
  top: "inception_4d/5x5"
  param {
    lr_mult: 1
    decay_mult: 1
  }
  param {
    lr_mult: 2
    decay_mult: 0
  }
  convolution_param {
    num_output: 64
    pad: 2
    kernel_size: 5
    weight_filler {
      type: "xavier"
      std: 0.03
    }
    bias_filler {
      type: "constant"
      value: 0.2
    }
  }
}
layer {
  name: "inception_4d/relu_5x5"
  type: "ReLU"
  bottom: "inception_4d/5x5"
  top: "inception_4d/5x5"
}
layer {
  name: "inception_4d/pool"
  type: "Pooling"
  bottom: "inception_4c/output"
  top: "inception_4d/pool"
  pooling_param {
    pool: MAX
    kernel_size: 3
    stride: 1
    pad: 1
  }
}
layer {
  name: "inception_4d/pool_proj"
  type: "Convolution"
  bottom: "inception_4d/pool"
  top: "inception_4d/pool_proj"
  param {
    lr_mult: 1
    decay_mult: 1
  }
  param {
    lr_mult: 2
    decay_mult: 0
  }
  convolution_param {
    num_output: 64
    kernel_size: 1
    weight_filler {
      type: "xavier"
      std: 0.1
    }
    bias_filler {
      type: "constant"
      value: 0.2
    }
  }
}
layer {
  name: "inception_4d/relu_pool_proj"
  type: "ReLU"
  bottom: "inception_4d/pool_proj"
  top: "inception_4d/pool_proj"
}
layer {
  name: "inception_4d/output"
  type: "Concat"
  bottom: "inception_4d/1x1"
  bottom: "inception_4d/3x3"
  bottom: "inception_4d/5x5"
  bottom: "inception_4d/pool_proj"
  top: "inception_4d/output"
}
layer {
  name: "loss2/ave_pool"
  type: "Pooling"
  bottom: "inception_4d/output"
  top: "loss2/ave_pool"
  pooling_param {
    pool: AVE
    kernel_size: 5
    stride: 3
  }
}
layer {
  name: "loss2/conv"
  type: "Convolution"
  bottom: "loss2/ave_pool"
  top: "loss2/conv"
  param {
    lr_mult: 1
    decay_mult: 1
  }
  param {
    lr_mult: 2
    decay_mult: 0
  }
  convolution_param {
    num_output: 128
    kernel_size: 1
    weight_filler {
      type: "xavier"
      std: 0.08
    }
    bias_filler {
      type: "constant"
      value: 0.2
    }
  }
}
layer {
  name: "loss2/relu_conv"
  type: "ReLU"
  bottom: "loss2/conv"
  top: "loss2/conv"
}
layer {
  name: "loss2/fc"
  type: "InnerProduct"
  bottom: "loss2/conv"
  top: "loss2/fc"
  param {
    lr_mult: 1
    decay_mult: 1
  }
  param {
    lr_mult: 2
    decay_mult: 0
  }
  inner_product_param {
    num_output: 1024
    weight_filler {
      type: "xavier"
      std: 0.02
    }
    bias_filler {
      type: "constant"
      value: 0.2
    }
  }
}
layer {
  name: "loss2/relu_fc"
  type: "ReLU"
  bottom: "loss2/fc"
  top: "loss2/fc"
}
layer {
  name: "loss2/drop_fc"
  type: "Dropout"
  bottom: "loss2/fc"
  top: "loss2/fc"
  dropout_param {
    dropout_ratio: 0.7
  }
}
layer {
  name: "loss2/classifier_plantvillage"
  type: "InnerProduct"
  bottom: "loss2/fc"
  top: "loss2/classifier_plantvillage"
  param {
    lr_mult: 1
    decay_mult: 1
  }
  param {
    lr_mult: 2
    decay_mult: 0
  }
  inner_product_param {
    num_output: 38
    weight_filler {
      type: "xavier"
      std: 0.0009765625
    }
    bias_filler {
      type: "constant"
      value: 0
    }
  }
}
layer {
  name: "inception_4e/1x1"
  type: "Convolution"
  bottom: "inception_4d/output"
  top: "inception_4e/1x1"
  param {
    lr_mult: 1
    decay_mult: 1
  }
  param {
    lr_mult: 2
    decay_mult: 0
  }
  convolution_param {
    num_output: 256
    kernel_size: 1
    weight_filler {
      type: "xavier"
      std: 0.03
    }
    bias_filler {
      type: "constant"
      value: 0.2
    }
  }
}
layer {
  name: "inception_4e/relu_1x1"
  type: "ReLU"
  bottom: "inception_4e/1x1"
  top: "inception_4e/1x1"
}
layer {
  name: "inception_4e/3x3_reduce"
  type: "Convolution"
  bottom: "inception_4d/output"
  top: "inception_4e/3x3_reduce"
  param {
    lr_mult: 1
    decay_mult: 1
  }
  param {
    lr_mult: 2
    decay_mult: 0
  }
  convolution_param {
    num_output: 160
    kernel_size: 1
    weight_filler {
      type: "xavier"
      std: 0.09
    }
    bias_filler {
      type: "constant"
      value: 0.2
    }
  }
}
layer {
  name: "inception_4e/relu_3x3_reduce"
  type: "ReLU"
  bottom: "inception_4e/3x3_reduce"
  top: "inception_4e/3x3_reduce"
}
layer {
  name: "inception_4e/3x3"
  type: "Convolution"
  bottom: "inception_4e/3x3_reduce"
  top: "inception_4e/3x3"
  param {
    lr_mult: 1
    decay_mult: 1
  }
  param {
    lr_mult: 2
    decay_mult: 0
  }
  convolution_param {
    num_output: 320
    pad: 1
    kernel_size: 3
    weight_filler {
      type: "xavier"
      std: 0.03
    }
    bias_filler {
      type: "constant"
      value: 0.2
    }
  }
}
layer {
  name: "inception_4e/relu_3x3"
  type: "ReLU"
  bottom: "inception_4e/3x3"
  top: "inception_4e/3x3"
}
layer {
  name: "inception_4e/5x5_reduce"
  type: "Convolution"
  bottom: "inception_4d/output"
  top: "inception_4e/5x5_reduce"
  param {
    lr_mult: 1
    decay_mult: 1
  }
  param {
    lr_mult: 2
    decay_mult: 0
  }
  convolution_param {
    num_output: 32
    kernel_size: 1
    weight_filler {
      type: "xavier"
      std: 0.2
    }
    bias_filler {
      type: "constant"
      value: 0.2
    }
  }
}
layer {
  name: "inception_4e/relu_5x5_reduce"
  type: "ReLU"
  bottom: "inception_4e/5x5_reduce"
  top: "inception_4e/5x5_reduce"
}
layer {
  name: "inception_4e/5x5"
  type: "Convolution"
  bottom: "inception_4e/5x5_reduce"
  top: "inception_4e/
I0403 14:04:53.790865 12646 layer_factory.hpp:77] Creating layer data
I0403 14:04:53.791507 12646 net.cpp:91] Creating Layer data
I0403 14:04:53.791541 12646 net.cpp:399] data -> data
I0403 14:04:53.791597 12646 net.cpp:399] data -> label
I0403 14:04:53.791635 12646 data_transformer.cpp:25] Loading mean file from: /home/mohanty/data/final_dataset/lmdb/segmented-20-80/mean.binaryproto
I0403 14:04:53.804893 12652 db_lmdb.cpp:38] Opened lmdb /home/mohanty/data/final_dataset/lmdb/segmented-20-80/test_db
I0403 14:04:53.809979 12646 data_layer.cpp:41] output data size: 24,3,224,224
I0403 14:04:53.837640 12646 net.cpp:141] Setting up data
I0403 14:04:53.837698 12646 net.cpp:148] Top shape: 24 3 224 224 (3612672)
I0403 14:04:53.837721 12646 net.cpp:148] Top shape: 24 (24)
I0403 14:04:53.837736 12646 net.cpp:156] Memory required for data: 14450784
I0403 14:04:53.837765 12646 layer_factory.hpp:77] Creating layer label_data_1_split
I0403 14:04:53.837791 12646 net.cpp:91] Creating Layer label_data_1_split
I0403 14:04:53.837810 12646 net.cpp:425] label_data_1_split <- label
I0403 14:04:53.837843 12646 net.cpp:399] label_data_1_split -> label_data_1_split_0
I0403 14:04:53.837882 12646 net.cpp:399] label_data_1_split -> label_data_1_split_1
I0403 14:04:53.837903 12646 net.cpp:399] label_data_1_split -> label_data_1_split_2
I0403 14:04:53.837923 12646 net.cpp:399] label_data_1_split -> label_data_1_split_3
I0403 14:04:53.837941 12646 net.cpp:399] label_data_1_split -> label_data_1_split_4
I0403 14:04:53.837960 12646 net.cpp:399] label_data_1_split -> label_data_1_split_5
I0403 14:04:53.837980 12646 net.cpp:399] label_data_1_split -> label_data_1_split_6
I0403 14:04:53.837999 12646 net.cpp:399] label_data_1_split -> label_data_1_split_7
I0403 14:04:53.838018 12646 net.cpp:399] label_data_1_split -> label_data_1_split_8
I0403 14:04:53.838037 12646 net.cpp:399] label_data_1_split -> label_data_1_split_9
I0403 14:04:53.838150 12646 net.cpp:141] Setting up label_data_1_split
I0403 14:04:53.838174 12646 net.cpp:148] Top shape: 24 (24)
I0403 14:04:53.838191 12646 net.cpp:148] Top shape: 24 (24)
I0403 14:04:53.838207 12646 net.cpp:148] Top shape: 24 (24)
I0403 14:04:53.838222 12646 net.cpp:148] Top shape: 24 (24)
I0403 14:04:53.838238 12646 net.cpp:148] Top shape: 24 (24)
I0403 14:04:53.838253 12646 net.cpp:148] Top shape: 24 (24)
I0403 14:04:53.838269 12646 net.cpp:148] Top shape: 24 (24)
I0403 14:04:53.838284 12646 net.cpp:148] Top shape: 24 (24)
I0403 14:04:53.838299 12646 net.cpp:148] Top shape: 24 (24)
I0403 14:04:53.838315 12646 net.cpp:148] Top shape: 24 (24)
I0403 14:04:53.838351 12646 net.cpp:156] Memory required for data: 14451744
I0403 14:04:53.838366 12646 layer_factory.hpp:77] Creating layer conv1/7x7_s2
I0403 14:04:53.838398 12646 net.cpp:91] Creating Layer conv1/7x7_s2
I0403 14:04:53.838418 12646 net.cpp:425] conv1/7x7_s2 <- data
I0403 14:04:53.838436 12646 net.cpp:399] conv1/7x7_s2 -> conv1/7x7_s2
I0403 14:04:53.977154 12646 net.cpp:141] Setting up conv1/7x7_s2
I0403 14:04:53.977238 12646 net.cpp:148] Top shape: 24 64 112 112 (19267584)
I0403 14:04:53.977254 12646 net.cpp:156] Memory required for data: 91522080
I0403 14:04:53.977284 12646 layer_factory.hpp:77] Creating layer conv1/relu_7x7
I0403 14:04:53.977313 12646 net.cpp:91] Creating Layer conv1/relu_7x7
I0403 14:04:53.977332 12646 net.cpp:425] conv1/relu_7x7 <- conv1/7x7_s2
I0403 14:04:53.977351 12646 net.cpp:386] conv1/relu_7x7 -> conv1/7x7_s2 (in-place)
I0403 14:04:53.977609 12646 net.cpp:141] Setting up conv1/relu_7x7
I0403 14:04:53.977635 12646 net.cpp:148] Top shape: 24 64 112 112 (19267584)
I0403 14:04:53.977650 12646 net.cpp:156] Memory required for data: 168592416
I0403 14:04:53.977666 12646 layer_factory.hpp:77] Creating layer pool1/3x3_s2
I0403 14:04:53.977691 12646 net.cpp:91] Creating Layer pool1/3x3_s2
I0403 14:04:53.977710 12646 net.cpp:425] pool1/3x3_s2 <- conv1/7x7_s2
I0403 14:04:53.977727 12646 net.cpp:399] pool1/3x3_s2 -> pool1/3x3_s2
I0403 14:04:53.977802 12646 net.cpp:141] Setting up pool1/3x3_s2
I0403 14:04:53.977826 12646 net.cpp:148] Top shape: 24 64 56 56 (4816896)
I0403 14:04:53.977841 12646 net.cpp:156] Memory required for data: 187860000
I0403 14:04:53.977855 12646 layer_factory.hpp:77] Creating layer pool1/norm1
I0403 14:04:53.977880 12646 net.cpp:91] Creating Layer pool1/norm1
I0403 14:04:53.977897 12646 net.cpp:425] pool1/norm1 <- pool1/3x3_s2
I0403 14:04:53.977915 12646 net.cpp:399] pool1/norm1 -> pool1/norm1
I0403 14:04:53.978201 12646 net.cpp:141] Setting up pool1/norm1
I0403 14:04:53.978229 12646 net.cpp:148] Top shape: 24 64 56 56 (4816896)
I0403 14:04:53.978243 12646 net.cpp:156] Memory required for data: 207127584
I0403 14:04:53.978257 12646 layer_factory.hpp:77] Creating layer conv2/3x3_reduce
I0403 14:04:53.978281 12646 net.cpp:91] Creating Layer conv2/3x3_reduce
I0403 14:04:53.978301 12646 net.cpp:425] conv2/3x3_reduce <- pool1/norm1
I0403 14:04:53.978317 12646 net.cpp:399] conv2/3x3_reduce -> conv2/3x3_reduce
I0403 14:04:53.979760 12646 net.cpp:141] Setting up conv2/3x3_reduce
I0403 14:04:53.979792 12646 net.cpp:148] Top shape: 24 64 56 56 (4816896)
I0403 14:04:53.979809 12646 net.cpp:156] Memory required for data: 226395168
I0403 14:04:53.979828 12646 layer_factory.hpp:77] Creating layer conv2/relu_3x3_reduce
I0403 14:04:53.979846 12646 net.cpp:91] Creating Layer conv2/relu_3x3_reduce
I0403 14:04:53.979862 12646 net.cpp:425] conv2/relu_3x3_reduce <- conv2/3x3_reduce
I0403 14:04:53.979878 12646 net.cpp:386] conv2/relu_3x3_reduce -> conv2/3x3_reduce (in-place)
I0403 14:04:53.980149 12646 net.cpp:141] Setting up conv2/relu_3x3_reduce
I0403 14:04:53.980177 12646 net.cpp:148] Top shape: 24 64 56 56 (4816896)
I0403 14:04:53.980193 12646 net.cpp:156] Memory required for data: 245662752
I0403 14:04:53.980207 12646 layer_factory.hpp:77] Creating layer conv2/3x3
I0403 14:04:53.980232 12646 net.cpp:91] Creating Layer conv2/3x3
I0403 14:04:53.980249 12646 net.cpp:425] conv2/3x3 <- conv2/3x3_reduce
I0403 14:04:53.980269 12646 net.cpp:399] conv2/3x3 -> conv2/3x3
I0403 14:04:53.983626 12646 net.cpp:141] Setting up conv2/3x3
I0403 14:04:53.983659 12646 net.cpp:148] Top shape: 24 192 56 56 (14450688)
I0403 14:04:53.983675 12646 net.cpp:156] Memory required for data: 303465504
I0403 14:04:53.983697 12646 layer_factory.hpp:77] Creating layer conv2/relu_3x3
I0403 14:04:53.983716 12646 net.cpp:91] Creating Layer conv2/relu_3x3
I0403 14:04:53.983731 12646 net.cpp:425] conv2/relu_3x3 <- conv2/3x3
I0403 14:04:53.983749 12646 net.cpp:386] conv2/relu_3x3 -> conv2/3x3 (in-place)
I0403 14:04:53.983922 12646 net.cpp:141] Setting up conv2/relu_3x3
I0403 14:04:53.983947 12646 net.cpp:148] Top shape: 24 192 56 56 (14450688)
I0403 14:04:53.984001 12646 net.cpp:156] Memory required for data: 361268256
I0403 14:04:53.984016 12646 layer_factory.hpp:77] Creating layer conv2/norm2
I0403 14:04:53.984036 12646 net.cpp:91] Creating Layer conv2/norm2
I0403 14:04:53.984053 12646 net.cpp:425] conv2/norm2 <- conv2/3x3
I0403 14:04:53.984071 12646 net.cpp:399] conv2/norm2 -> conv2/norm2
I0403 14:04:53.984371 12646 net.cpp:141] Setting up conv2/norm2
I0403 14:04:53.984400 12646 net.cpp:148] Top shape: 24 192 56 56 (14450688)
I0403 14:04:53.984416 12646 net.cpp:156] Memory required for data: 419071008
I0403 14:04:53.984431 12646 layer_factory.hpp:77] Creating layer pool2/3x3_s2
I0403 14:04:53.984449 12646 net.cpp:91] Creating Layer pool2/3x3_s2
I0403 14:04:53.984464 12646 net.cpp:425] pool2/3x3_s2 <- conv2/norm2
I0403 14:04:53.984480 12646 net.cpp:399] pool2/3x3_s2 -> pool2/3x3_s2
I0403 14:04:53.984546 12646 net.cpp:141] Setting up pool2/3x3_s2
I0403 14:04:53.984570 12646 net.cpp:148] Top shape: 24 192 28 28 (3612672)
I0403 14:04:53.984585 12646 net.cpp:156] Memory required for data: 433521696
I0403 14:04:53.984598 12646 layer_factory.hpp:77] Creating layer pool2/3x3_s2_pool2/3x3_s2_0_split
I0403 14:04:53.984614 12646 net.cpp:91] Creating Layer pool2/3x3_s2_pool2/3x3_s2_0_split
I0403 14:04:53.984629 12646 net.cpp:425] pool2/3x3_s2_pool2/3x3_s2_0_split <- pool2/3x3_s2
I0403 14:04:53.984648 12646 net.cpp:399] pool2/3x3_s2_pool2/3x3_s2_0_split -> pool2/3x3_s2_pool2/3x3_s2_0_split_0
I0403 14:04:53.984668 12646 net.cpp:399] pool2/3x3_s2_pool2/3x3_s2_0_split -> pool2/3x3_s2_pool2/3x3_s2_0_split_1
I0403 14:04:53.984686 12646 net.cpp:399] pool2/3x3_s2_pool2/3x3_s2_0_split -> pool2/3x3_s2_pool2/3x3_s2_0_split_2
I0403 14:04:53.984705 12646 net.cpp:399] pool2/3x3_s2_pool2/3x3_s2_0_split -> pool2/3x3_s2_pool2/3x3_s2_0_split_3
I0403 14:04:53.984778 12646 net.cpp:141] Setting up pool2/3x3_s2_pool2/3x3_s2_0_split
I0403 14:04:53.984800 12646 net.cpp:148] Top shape: 24 192 28 28 (3612672)
I0403 14:04:53.984815 12646 net.cpp:148] Top shape: 24 192 28 28 (3612672)
I0403 14:04:53.984830 12646 net.cpp:148] Top shape: 24 192 28 28 (3612672)
I0403 14:04:53.984845 12646 net.cpp:148] Top shape: 24 192 28 28 (3612672)
I0403 14:04:53.984858 12646 net.cpp:156] Memory required for data: 491324448
I0403 14:04:53.984871 12646 layer_factory.hpp:77] Creating layer inception_3a/1x1
I0403 14:04:53.984894 12646 net.cpp:91] Creating Layer inception_3a/1x1
I0403 14:04:53.984910 12646 net.cpp:425] inception_3a/1x1 <- pool2/3x3_s2_pool2/3x3_s2_0_split_0
I0403 14:04:53.984930 12646 net.cpp:399] inception_3a/1x1 -> inception_3a/1x1
I0403 14:04:53.986452 12646 net.cpp:141] Setting up inception_3a/1x1
I0403 14:04:53.986484 12646 net.cpp:148] Top shape: 24 64 28 28 (1204224)
I0403 14:04:53.986500 12646 net.cpp:156] Memory required for data: 496141344
I0403 14:04:53.986520 12646 layer_factory.hpp:77] Creating layer inception_3a/relu_1x1
I0403 14:04:53.986541 12646 net.cpp:91] Creating Layer inception_3a/relu_1x1
I0403 14:04:53.986557 12646 net.cpp:425] inception_3a/relu_1x1 <- inception_3a/1x1
I0403 14:04:53.986577 12646 net.cpp:386] inception_3a/relu_1x1 -> inception_3a/1x1 (in-place)
I0403 14:04:53.986748 12646 net.cpp:141] Setting up inception_3a/relu_1x1
I0403 14:04:53.986773 12646 net.cpp:148] Top shape: 24 64 28 28 (1204224)
I0403 14:04:53.986788 12646 net.cpp:156] Memory required for data: 500958240
I0403 14:04:53.986801 12646 layer_factory.hpp:77] Creating layer inception_3a/3x3_reduce
I0403 14:04:53.986822 12646 net.cpp:91] Creating Layer inception_3a/3x3_reduce
I0403 14:04:53.986840 12646 net.cpp:425] inception_3a/3x3_reduce <- pool2/3x3_s2_pool2/3x3_s2_0_split_1
I0403 14:04:53.986860 12646 net.cpp:399] inception_3a/3x3_reduce -> inception_3a/3x3_reduce
I0403 14:04:53.988540 12646 net.cpp:141] Setting up inception_3a/3x3_reduce
I0403 14:04:53.988571 12646 net.cpp:148] Top shape: 24 96 28 28 (1806336)
I0403 14:04:53.988589 12646 net.cpp:156] Memory required for data: 508183584
I0403 14:04:53.988610 12646 layer_factory.hpp:77] Creating layer inception_3a/relu_3x3_reduce
I0403 14:04:53.988644 12646 net.cpp:91] Creating Layer inception_3a/relu_3x3_reduce
I0403 14:04:53.988662 12646 net.cpp:425] inception_3a/relu_3x3_reduce <- inception_3a/3x3_reduce
I0403 14:04:53.988680 12646 net.cpp:386] inception_3a/relu_3x3_reduce -> inception_3a/3x3_reduce (in-place)
I0403 14:04:53.988860 12646 net.cpp:141] Setting up inception_3a/relu_3x3_reduce
I0403 14:04:53.988888 12646 net.cpp:148] Top shape: 24 96 28 28 (1806336)
I0403 14:04:53.988903 12646 net.cpp:156] Memory required for data: 515408928
I0403 14:04:53.988916 12646 layer_factory.hpp:77] Creating layer inception_3a/3x3
I0403 14:04:53.988935 12646 net.cpp:91] Creating Layer inception_3a/3x3
I0403 14:04:53.988951 12646 net.cpp:425] inception_3a/3x3 <- inception_3a/3x3_reduce
I0403 14:04:53.988972 12646 net.cpp:399] inception_3a/3x3 -> inception_3a/3x3
I0403 14:04:53.990607 12646 net.cpp:141] Setting up inception_3a/3x3
I0403 14:04:53.990638 12646 net.cpp:148] Top shape: 24 128 28 28 (2408448)
I0403 14:04:53.990653 12646 net.cpp:156] Memory required for data: 525042720
I0403 14:04:53.990672 12646 layer_factory.hpp:77] Creating layer inception_3a/relu_3x3
I0403 14:04:53.990689 12646 net.cpp:91] Creating Layer inception_3a/relu_3x3
I0403 14:04:53.990705 12646 net.cpp:425] inception_3a/relu_3x3 <- inception_3a/3x3
I0403 14:04:53.990722 12646 net.cpp:386] inception_3a/relu_3x3 -> inception_3a/3x3 (in-place)
I0403 14:04:53.990994 12646 net.cpp:141] Setting up inception_3a/relu_3x3
I0403 14:04:53.991022 12646 net.cpp:148] Top shape: 24 128 28 28 (2408448)
I0403 14:04:53.991039 12646 net.cpp:156] Memory required for data: 534676512
I0403 14:04:53.991052 12646 layer_factory.hpp:77] Creating layer inception_3a/5x5_reduce
I0403 14:04:53.991075 12646 net.cpp:91] Creating Layer inception_3a/5x5_reduce
I0403 14:04:53.991091 12646 net.cpp:425] inception_3a/5x5_reduce <- pool2/3x3_s2_pool2/3x3_s2_0_split_2
I0403 14:04:53.991111 12646 net.cpp:399] inception_3a/5x5_reduce -> inception_3a/5x5_reduce
I0403 14:04:53.992058 12646 net.cpp:141] Setting up inception_3a/5x5_reduce
I0403 14:04:53.992085 12646 net.cpp:148] Top shape: 24 16 28 28 (301056)
I0403 14:04:53.992100 12646 net.cpp:156] Memory required for data: 535880736
I0403 14:04:53.992117 12646 layer_factory.hpp:77] Creating layer inception_3a/relu_5x5_reduce
I0403 14:04:53.992138 12646 net.cpp:91] Creating Layer inception_3a/relu_5x5_reduce
I0403 14:04:53.992154 12646 net.cpp:425] inception_3a/relu_5x5_reduce <- inception_3a/5x5_reduce
I0403 14:04:53.992172 12646 net.cpp:386] inception_3a/relu_5x5_reduce -> inception_3a/5x5_reduce (in-place)
I0403 14:04:53.992463 12646 net.cpp:141] Setting up inception_3a/relu_5x5_reduce
I0403 14:04:53.992489 12646 net.cpp:148] Top shape: 24 16 28 28 (301056)
I0403 14:04:53.992503 12646 net.cpp:156] Memory required for data: 537084960
I0403 14:04:53.992518 12646 layer_factory.hpp:77] Creating layer inception_3a/5x5
I0403 14:04:53.992543 12646 net.cpp:91] Creating Layer inception_3a/5x5
I0403 14:04:53.992561 12646 net.cpp:425] inception_3a/5x5 <- inception_3a/5x5_reduce
I0403 14:04:53.992583 12646 net.cpp:399] inception_3a/5x5 -> inception_3a/5x5
I0403 14:04:53.993614 12646 net.cpp:141] Setting up inception_3a/5x5
I0403 14:04:53.993645 12646 net.cpp:148] Top shape: 24 32 28 28 (602112)
I0403 14:04:53.993661 12646 net.cpp:156] Memory required for data: 539493408
I0403 14:04:53.993680 12646 layer_factory.hpp:77] Creating layer inception_3a/relu_5x5
I0403 14:04:53.993698 12646 net.cpp:91] Creating Layer inception_3a/relu_5x5
I0403 14:04:53.993713 12646 net.cpp:425] inception_3a/relu_5x5 <- inception_3a/5x5
I0403 14:04:53.993733 12646 net.cpp:386] inception_3a/relu_5x5 -> inception_3a/5x5 (in-place)
I0403 14:04:53.993912 12646 net.cpp:141] Setting up inception_3a/relu_5x5
I0403 14:04:53.993937 12646 net.cpp:148] Top shape: 24 32 28 28 (602112)
I0403 14:04:53.993952 12646 net.cpp:156] Memory required for data: 541901856
I0403 14:04:53.993968 12646 layer_factory.hpp:77] Creating layer inception_3a/pool
I0403 14:04:53.993984 12646 net.cpp:91] Creating Layer inception_3a/pool
I0403 14:04:53.994014 12646 net.cpp:425] inception_3a/pool <- pool2/3x3_s2_pool2/3x3_s2_0_split_3
I0403 14:04:53.994036 12646 net.cpp:399] inception_3a/pool -> inception_3a/pool
I0403 14:04:53.994096 12646 net.cpp:141] Setting up inception_3a/pool
I0403 14:04:53.994119 12646 net.cpp:148] Top shape: 24 192 28 28 (3612672)
I0403 14:04:53.994133 12646 net.cpp:156] Memory required for data: 556352544
I0403 14:04:53.994148 12646 layer_factory.hpp:77] Creating layer inception_3a/pool_proj
I0403 14:04:53.994173 12646 net.cpp:91] Creating Layer inception_3a/pool_proj
I0403 14:04:53.994190 12646 net.cpp:425] inception_3a/pool_proj <- inception_3a/pool
I0403 14:04:53.994209 12646 net.cpp:399] inception_3a/pool_proj -> inception_3a/pool_proj
I0403 14:04:53.995205 12646 net.cpp:141] Setting up inception_3a/pool_proj
I0403 14:04:53.995234 12646 net.cpp:148] Top shape: 24 32 28 28 (602112)
I0403 14:04:53.995249 12646 net.cpp:156] Memory required for data: 558760992
I0403 14:04:53.995275 12646 layer_factory.hpp:77] Creating layer inception_3a/relu_pool_proj
I0403 14:04:53.995297 12646 net.cpp:91] Creating Layer inception_3a/relu_pool_proj
I0403 14:04:53.995314 12646 net.cpp:425] inception_3a/relu_pool_proj <- inception_3a/pool_proj
I0403 14:04:53.995332 12646 net.cpp:386] inception_3a/relu_pool_proj -> inception_3a/pool_proj (in-place)
I0403 14:04:53.995617 12646 net.cpp:141] Setting up inception_3a/relu_pool_proj
I0403 14:04:53.995646 12646 net.cpp:148] Top shape: 24 32 28 28 (602112)
I0403 14:04:53.995662 12646 net.cpp:156] Memory required for data: 561169440
I0403 14:04:53.995677 12646 layer_factory.hpp:77] Creating layer inception_3a/output
I0403 14:04:53.995694 12646 net.cpp:91] Creating Layer inception_3a/output
I0403 14:04:53.995709 12646 net.cpp:425] inception_3a/output <- inception_3a/1x1
I0403 14:04:53.995725 12646 net.cpp:425] inception_3a/output <- inception_3a/3x3
I0403 14:04:53.995740 12646 net.cpp:425] inception_3a/output <- inception_3a/5x5
I0403 14:04:53.995756 12646 net.cpp:425] inception_3a/output <- inception_3a/pool_proj
I0403 14:04:53.995775 12646 net.cpp:399] inception_3a/output -> inception_3a/output
I0403 14:04:53.995821 12646 net.cpp:141] Setting up inception_3a/output
I0403 14:04:53.995844 12646 net.cpp:148] Top shape: 24 256 28 28 (4816896)
I0403 14:04:53.995858 12646 net.cpp:156] Memory required for data: 580437024
I0403 14:04:53.995873 12646 layer_factory.hpp:77] Creating layer inception_3a/output_inception_3a/output_0_split
I0403 14:04:53.995893 12646 net.cpp:91] Creating Layer inception_3a/output_inception_3a/output_0_split
I0403 14:04:53.995908 12646 net.cpp:425] inception_3a/output_inception_3a/output_0_split <- inception_3a/output
I0403 14:04:53.995925 12646 net.cpp:399] inception_3a/output_inception_3a/output_0_split -> inception_3a/output_inception_3a/output_0_split_0
I0403 14:04:53.995944 12646 net.cpp:399] inception_3a/output_inception_3a/output_0_split -> inception_3a/output_inception_3a/output_0_split_1
I0403 14:04:53.995970 12646 net.cpp:399] inception_3a/output_inception_3a/output_0_split -> inception_3a/output_inception_3a/output_0_split_2
I0403 14:04:53.995991 12646 net.cpp:399] inception_3a/output_inception_3a/output_0_split -> inception_3a/output_inception_3a/output_0_split_3
I0403 14:04:53.996064 12646 net.cpp:141] Setting up inception_3a/output_inception_3a/output_0_split
I0403 14:04:53.996089 12646 net.cpp:148] Top shape: 24 256 28 28 (4816896)
I0403 14:04:53.996107 12646 net.cpp:148] Top shape: 24 256 28 28 (4816896)
I0403 14:04:53.996122 12646 net.cpp:148] Top shape: 24 256 28 28 (4816896)
I0403 14:04:53.996139 12646 net.cpp:148] Top shape: 24 256 28 28 (4816896)
I0403 14:04:53.996151 12646 net.cpp:156] Memory required for data: 657507360
I0403 14:04:53.996165 12646 layer_factory.hpp:77] Creating layer inception_3b/1x1
I0403 14:04:53.996187 12646 net.cpp:91] Creating Layer inception_3b/1x1
I0403 14:04:53.996206 12646 net.cpp:425] inception_3b/1x1 <- inception_3a/output_inception_3a/output_0_split_0
I0403 14:04:53.996223 12646 net.cpp:399] inception_3b/1x1 -> inception_3b/1x1
I0403 14:04:53.997385 12646 net.cpp:141] Setting up inception_3b/1x1
I0403 14:04:53.997427 12646 net.cpp:148] Top shape: 24 128 28 28 (2408448)
I0403 14:04:53.997444 12646 net.cpp:156] Memory required for data: 667141152
I0403 14:04:53.997462 12646 layer_factory.hpp:77] Creating layer inception_3b/relu_1x1
I0403 14:04:53.997481 12646 net.cpp:91] Creating Layer inception_3b/relu_1x1
I0403 14:04:53.997498 12646 net.cpp:425] inception_3b/relu_1x1 <- inception_3b/1x1
I0403 14:04:53.997514 12646 net.cpp:386] inception_3b/relu_1x1 -> inception_3b/1x1 (in-place)
I0403 14:04:53.997701 12646 net.cpp:141] Setting up inception_3b/relu_1x1
I0403 14:04:53.997728 12646 net.cpp:148] Top shape: 24 128 28 28 (2408448)
I0403 14:04:53.997745 12646 net.cpp:156] Memory required for data: 676774944
I0403 14:04:53.997758 12646 layer_factory.hpp:77] Creating layer inception_3b/3x3_reduce
I0403 14:04:53.997781 12646 net.cpp:91] Creating Layer inception_3b/3x3_reduce
I0403 14:04:53.997798 12646 net.cpp:425] inception_3b/3x3_reduce <- inception_3a/output_inception_3a/output_0_split_1
I0403 14:04:53.997818 12646 net.cpp:399] inception_3b/3x3_reduce -> inception_3b/3x3_reduce
I0403 14:04:53.998970 12646 net.cpp:141] Setting up inception_3b/3x3_reduce
I0403 14:04:53.998998 12646 net.cpp:148] Top shape: 24 128 28 28 (2408448)
I0403 14:04:53.999013 12646 net.cpp:156] Memory required for data: 686408736
I0403 14:04:53.999032 12646 layer_factory.hpp:77] Creating layer inception_3b/relu_3x3_reduce
I0403 14:04:53.999052 12646 net.cpp:91] Creating Layer inception_3b/relu_3x3_reduce
I0403 14:04:53.999069 12646 net.cpp:425] inception_3b/relu_3x3_reduce <- inception_3b/3x3_reduce
I0403 14:04:53.999086 12646 net.cpp:386] inception_3b/relu_3x3_reduce -> inception_3b/3x3_reduce (in-place)
I0403 14:04:53.999274 12646 net.cpp:141] Setting up inception_3b/relu_3x3_reduce
I0403 14:04:53.999301 12646 net.cpp:148] Top shape: 24 128 28 28 (2408448)
I0403 14:04:53.999315 12646 net.cpp:156] Memory required for data: 696042528
I0403 14:04:53.999330 12646 layer_factory.hpp:77] Creating layer inception_3b/3x3
I0403 14:04:53.999356 12646 net.cpp:91] Creating Layer inception_3b/3x3
I0403 14:04:53.999375 12646 net.cpp:425] inception_3b/3x3 <- inception_3b/3x3_reduce
I0403 14:04:53.999397 12646 net.cpp:399] inception_3b/3x3 -> inception_3b/3x3
I0403 14:04:54.002418 12646 net.cpp:141] Setting up inception_3b/3x3
I0403 14:04:54.002450 12646 net.cpp:148] Top shape: 24 192 28 28 (3612672)
I0403 14:04:54.002468 12646 net.cpp:156] Memory required for data: 710493216
I0403 14:04:54.002487 12646 layer_factory.hpp:77] Creating layer inception_3b/relu_3x3
I0403 14:04:54.002506 12646 net.cpp:91] Creating Layer inception_3b/relu_3x3
I0403 14:04:54.002522 12646 net.cpp:425] inception_3b/relu_3x3 <- inception_3b/3x3
I0403 14:04:54.002560 12646 net.cpp:386] inception_3b/relu_3x3 -> inception_3b/3x3 (in-place)
I0403 14:04:54.002843 12646 net.cpp:141] Setting up inception_3b/relu_3x3
I0403 14:04:54.002872 12646 net.cpp:148] Top shape: 24 192 28 28 (3612672)
I0403 14:04:54.002888 12646 net.cpp:156] Memory required for data: 724943904
I0403 14:04:54.002903 12646 layer_factory.hpp:77] Creating layer inception_3b/5x5_reduce
I0403 14:04:54.002926 12646 net.cpp:91] Creating Layer inception_3b/5x5_reduce
I0403 14:04:54.002944 12646 net.cpp:425] inception_3b/5x5_reduce <- inception_3a/output_inception_3a/output_0_split_2
I0403 14:04:54.002965 12646 net.cpp:399] inception_3b/5x5_reduce -> inception_3b/5x5_reduce
I0403 14:04:54.003979 12646 net.cpp:141] Setting up inception_3b/5x5_reduce
I0403 14:04:54.004010 12646 net.cpp:148] Top shape: 24 32 28 28 (602112)
I0403 14:04:54.004026 12646 net.cpp:156] Memory required for data: 727352352
I0403 14:04:54.004045 12646 layer_factory.hpp:77] Creating layer inception_3b/relu_5x5_reduce
I0403 14:04:54.004062 12646 net.cpp:91] Creating Layer inception_3b/relu_5x5_reduce
I0403 14:04:54.004079 12646 net.cpp:425] inception_3b/relu_5x5_reduce <- inception_3b/5x5_reduce
I0403 14:04:54.004098 12646 net.cpp:386] inception_3b/relu_5x5_reduce -> inception_3b/5x5_reduce (in-place)
I0403 14:04:54.004294 12646 net.cpp:141] Setting up inception_3b/relu_5x5_reduce
I0403 14:04:54.004320 12646 net.cpp:148] Top shape: 24 32 28 28 (602112)
I0403 14:04:54.004335 12646 net.cpp:156] Memory required for data: 729760800
I0403 14:04:54.004349 12646 layer_factory.hpp:77] Creating layer inception_3b/5x5
I0403 14:04:54.004371 12646 net.cpp:91] Creating Layer inception_3b/5x5
I0403 14:04:54.004389 12646 net.cpp:425] inception_3b/5x5 <- inception_3b/5x5_reduce
I0403 14:04:54.004410 12646 net.cpp:399] inception_3b/5x5 -> inception_3b/5x5
I0403 14:04:54.006448 12646 net.cpp:141] Setting up inception_3b/5x5
I0403 14:04:54.006477 12646 net.cpp:148] Top shape: 24 96 28 28 (1806336)
I0403 14:04:54.006494 12646 net.cpp:156] Memory required for data: 736986144
I0403 14:04:54.006511 12646 layer_factory.hpp:77] Creating layer inception_3b/relu_5x5
I0403 14:04:54.006531 12646 net.cpp:91] Creating Layer inception_3b/relu_5x5
I0403 14:04:54.006553 12646 net.cpp:425] inception_3b/relu_5x5 <- inception_3b/5x5
I0403 14:04:54.006573 12646 net.cpp:386] inception_3b/relu_5x5 -> inception_3b/5x5 (in-place)
I0403 14:04:54.006767 12646 net.cpp:141] Setting up inception_3b/relu_5x5
I0403 14:04:54.006793 12646 net.cpp:148] Top shape: 24 96 28 28 (1806336)
I0403 14:04:54.006808 12646 net.cpp:156] Memory required for data: 744211488
I0403 14:04:54.006822 12646 layer_factory.hpp:77] Creating layer inception_3b/pool
I0403 14:04:54.006840 12646 net.cpp:91] Creating Layer inception_3b/pool
I0403 14:04:54.006855 12646 net.cpp:425] inception_3b/pool <- inception_3a/output_inception_3a/output_0_split_3
I0403 14:04:54.006873 12646 net.cpp:399] inception_3b/pool -> inception_3b/pool
I0403 14:04:54.006930 12646 net.cpp:141] Setting up inception_3b/pool
I0403 14:04:54.006953 12646 net.cpp:148] Top shape: 24 256 28 28 (4816896)
I0403 14:04:54.006968 12646 net.cpp:156] Memory required for data: 763479072
I0403 14:04:54.006983 12646 layer_factory.hpp:77] Creating layer inception_3b/pool_proj
I0403 14:04:54.007005 12646 net.cpp:91] Creating Layer inception_3b/pool_proj
I0403 14:04:54.007024 12646 net.cpp:425] inception_3b/pool_proj <- inception_3b/pool
I0403 14:04:54.007041 12646 net.cpp:399] inception_3b/pool_proj -> inception_3b/pool_proj
I0403 14:04:54.008121 12646 net.cpp:141] Setting up inception_3b/pool_proj
I0403 14:04:54.008149 12646 net.cpp:148] Top shape: 24 64 28 28 (1204224)
I0403 14:04:54.008165 12646 net.cpp:156] Memory required for data: 768295968
I0403 14:04:54.008183 12646 layer_factory.hpp:77] Creating layer inception_3b/relu_pool_proj
I0403 14:04:54.008203 12646 net.cpp:91] Creating Layer inception_3b/relu_pool_proj
I0403 14:04:54.008220 12646 net.cpp:425] inception_3b/relu_pool_proj <- inception_3b/pool_proj
I0403 14:04:54.008239 12646 net.cpp:386] inception_3b/relu_pool_proj -> inception_3b/pool_proj (in-place)
I0403 14:04:54.008674 12646 net.cpp:141] Setting up inception_3b/relu_pool_proj
I0403 14:04:54.008702 12646 net.cpp:148] Top shape: 24 64 28 28 (1204224)
I0403 14:04:54.008718 12646 net.cpp:156] Memory required for data: 773112864
I0403 14:04:54.008731 12646 layer_factory.hpp:77] Creating layer inception_3b/output
I0403 14:04:54.008749 12646 net.cpp:91] Creating Layer inception_3b/output
I0403 14:04:54.008764 12646 net.cpp:425] inception_3b/output <- inception_3b/1x1
I0403 14:04:54.008780 12646 net.cpp:425] inception_3b/output <- inception_3b/3x3
I0403 14:04:54.008796 12646 net.cpp:425] inception_3b/output <- inception_3b/5x5
I0403 14:04:54.008811 12646 net.cpp:425] inception_3b/output <- inception_3b/pool_proj
I0403 14:04:54.008831 12646 net.cpp:399] inception_3b/output -> inception_3b/output
I0403 14:04:54.008875 12646 net.cpp:141] Setting up inception_3b/output
I0403 14:04:54.008900 12646 net.cpp:148] Top shape: 24 480 28 28 (9031680)
I0403 14:04:54.008916 12646 net.cpp:156] Memory required for data: 809239584
I0403 14:04:54.008931 12646 layer_factory.hpp:77] Creating layer pool3/3x3_s2
I0403 14:04:54.008949 12646 net.cpp:91] Creating Layer pool3/3x3_s2
I0403 14:04:54.008963 12646 net.cpp:425] pool3/3x3_s2 <- inception_3b/output
I0403 14:04:54.008999 12646 net.cpp:399] pool3/3x3_s2 -> pool3/3x3_s2
I0403 14:04:54.009060 12646 net.cpp:141] Setting up pool3/3x3_s2
I0403 14:04:54.009083 12646 net.cpp:148] Top shape: 24 480 14 14 (2257920)
I0403 14:04:54.009098 12646 net.cpp:156] Memory required for data: 818271264
I0403 14:04:54.009111 12646 layer_factory.hpp:77] Creating layer pool3/3x3_s2_pool3/3x3_s2_0_split
I0403 14:04:54.009130 12646 net.cpp:91] Creating Layer pool3/3x3_s2_pool3/3x3_s2_0_split
I0403 14:04:54.009146 12646 net.cpp:425] pool3/3x3_s2_pool3/3x3_s2_0_split <- pool3/3x3_s2
I0403 14:04:54.009165 12646 net.cpp:399] pool3/3x3_s2_pool3/3x3_s2_0_split -> pool3/3x3_s2_pool3/3x3_s2_0_split_0
I0403 14:04:54.009183 12646 net.cpp:399] pool3/3x3_s2_pool3/3x3_s2_0_split -> pool3/3x3_s2_pool3/3x3_s2_0_split_1
I0403 14:04:54.009202 12646 net.cpp:399] pool3/3x3_s2_pool3/3x3_s2_0_split -> pool3/3x3_s2_pool3/3x3_s2_0_split_2
I0403 14:04:54.009223 12646 net.cpp:399] pool3/3x3_s2_pool3/3x3_s2_0_split -> pool3/3x3_s2_pool3/3x3_s2_0_split_3
I0403 14:04:54.009301 12646 net.cpp:141] Setting up pool3/3x3_s2_pool3/3x3_s2_0_split
I0403 14:04:54.009325 12646 net.cpp:148] Top shape: 24 480 14 14 (2257920)
I0403 14:04:54.009341 12646 net.cpp:148] Top shape: 24 480 14 14 (2257920)
I0403 14:04:54.009356 12646 net.cpp:148] Top shape: 24 480 14 14 (2257920)
I0403 14:04:54.009372 12646 net.cpp:148] Top shape: 24 480 14 14 (2257920)
I0403 14:04:54.009385 12646 net.cpp:156] Memory required for data: 854397984
I0403 14:04:54.009399 12646 layer_factory.hpp:77] Creating layer inception_4a/1x1
I0403 14:04:54.009421 12646 net.cpp:91] Creating Layer inception_4a/1x1
I0403 14:04:54.009438 12646 net.cpp:425] inception_4a/1x1 <- pool3/3x3_s2_pool3/3x3_s2_0_split_0
I0403 14:04:54.009459 12646 net.cpp:399] inception_4a/1x1 -> inception_4a/1x1
I0403 14:04:54.011081 12646 net.cpp:141] Setting up inception_4a/1x1
I0403 14:04:54.011109 12646 net.cpp:148] Top shape: 24 192 14 14 (903168)
I0403 14:04:54.011126 12646 net.cpp:156] Memory required for data: 858010656
I0403 14:04:54.011143 12646 layer_factory.hpp:77] Creating layer inception_4a/relu_1x1
I0403 14:04:54.011164 12646 net.cpp:91] Creating Layer inception_4a/relu_1x1
I0403 14:04:54.011181 12646 net.cpp:425] inception_4a/relu_1x1 <- inception_4a/1x1
I0403 14:04:54.011198 12646 net.cpp:386] inception_4a/relu_1x1 -> inception_4a/1x1 (in-place)
I0403 14:04:54.011374 12646 net.cpp:141] Setting up inception_4a/relu_1x1
I0403 14:04:54.011402 12646 net.cpp:148] Top shape: 24 192 14 14 (903168)
I0403 14:04:54.011418 12646 net.cpp:156] Memory required for data: 861623328
I0403 14:04:54.011433 12646 layer_factory.hpp:77] Creating layer inception_4a/3x3_reduce
I0403 14:04:54.011454 12646 net.cpp:91] Creating Layer inception_4a/3x3_reduce
I0403 14:04:54.011472 12646 net.cpp:425] inception_4a/3x3_reduce <- pool3/3x3_s2_pool3/3x3_s2_0_split_1
I0403 14:04:54.011492 12646 net.cpp:399] inception_4a/3x3_reduce -> inception_4a/3x3_reduce
I0403 14:04:54.012795 12646 net.cpp:141] Setting up inception_4a/3x3_reduce
I0403 14:04:54.012823 12646 net.cpp:148] Top shape: 24 96 14 14 (451584)
I0403 14:04:54.012838 12646 net.cpp:156] Memory required for data: 863429664
I0403 14:04:54.012863 12646 layer_factory.hpp:77] Creating layer inception_4a/relu_3x3_reduce
I0403 14:04:54.012882 12646 net.cpp:91] Creating Layer inception_4a/relu_3x3_reduce
I0403 14:04:54.012898 12646 net.cpp:425] inception_4a/relu_3x3_reduce <- inception_4a/3x3_reduce
I0403 14:04:54.012917 12646 net.cpp:386] inception_4a/relu_3x3_reduce -> inception_4a/3x3_reduce (in-place)
I0403 14:04:54.013088 12646 net.cpp:141] Setting up inception_4a/relu_3x3_reduce
I0403 14:04:54.013115 12646 net.cpp:148] Top shape: 24 96 14 14 (451584)
I0403 14:04:54.013130 12646 net.cpp:156] Memory required for data: 865236000
I0403 14:04:54.013144 12646 layer_factory.hpp:77] Creating layer inception_4a/3x3
I0403 14:04:54.013164 12646 net.cpp:91] Creating Layer inception_4a/3x3
I0403 14:04:54.013180 12646 net.cpp:425] inception_4a/3x3 <- inception_4a/3x3_reduce
I0403 14:04:54.013200 12646 net.cpp:399] inception_4a/3x3 -> inception_4a/3x3
I0403 14:04:54.015862 12646 net.cpp:141] Setting up inception_4a/3x3
I0403 14:04:54.015892 12646 net.cpp:148] Top shape: 24 208 14 14 (978432)
I0403 14:04:54.015907 12646 net.cpp:156] Memory required for data: 869149728
I0403 14:04:54.015926 12646 layer_factory.hpp:77] Creating layer inception_4a/relu_3x3
I0403 14:04:54.015946 12646 net.cpp:91] Creating Layer inception_4a/relu_3x3
I0403 14:04:54.015961 12646 net.cpp:425] inception_4a/relu_3x3 <- inception_4a/3x3
I0403 14:04:54.015979 12646 net.cpp:386] inception_4a/relu_3x3 -> inception_4a/3x3 (in-place)
I0403 14:04:54.016258 12646 net.cpp:141] Setting up inception_4a/relu_3x3
I0403 14:04:54.016284 12646 net.cpp:148] Top shape: 24 208 14 14 (978432)
I0403 14:04:54.016300 12646 net.cpp:156] Memory required for data: 873063456
I0403 14:04:54.016314 12646 layer_factory.hpp:77] Creating layer inception_4a/5x5_reduce
I0403 14:04:54.016338 12646 net.cpp:91] Creating Layer inception_4a/5x5_reduce
I0403 14:04:54.016355 12646 net.cpp:425] inception_4a/5x5_reduce <- pool3/3x3_s2_pool3/3x3_s2_0_split_2
I0403 14:04:54.016374 12646 net.cpp:399] inception_4a/5x5_reduce -> inception_4a/5x5_reduce
I0403 14:04:54.017379 12646 net.cpp:141] Setting up inception_4a/5x5_reduce
I0403 14:04:54.017410 12646 net.cpp:148] Top shape: 24 16 14 14 (75264)
I0403 14:04:54.017426 12646 net.cpp:156] Memory required for data: 873364512
I0403 14:04:54.017443 12646 layer_factory.hpp:77] Creating layer inception_4a/relu_5x5_reduce
I0403 14:04:54.017467 12646 net.cpp:91] Creating Layer inception_4a/relu_5x5_reduce
I0403 14:04:54.017482 12646 net.cpp:425] inception_4a/relu_5x5_reduce <- inception_4a/5x5_reduce
I0403 14:04:54.017510 12646 net.cpp:386] inception_4a/relu_5x5_reduce -> inception_4a/5x5_reduce (in-place)
I0403 14:04:54.017688 12646 net.cpp:141] Setting up inception_4a/relu_5x5_reduce
I0403 14:04:54.017714 12646 net.cpp:148] Top shape: 24 16 14 14 (75264)
I0403 14:04:54.017729 12646 net.cpp:156] Memory required for data: 873665568
I0403 14:04:54.017742 12646 layer_factory.hpp:77] Creating layer inception_4a/5x5
I0403 14:04:54.017763 12646 net.cpp:91] Creating Layer inception_4a/5x5
I0403 14:04:54.017781 12646 net.cpp:425] inception_4a/5x5 <- inception_4a/5x5_reduce
I0403 14:04:54.017802 12646 net.cpp:399] inception_4a/5x5 -> inception_4a/5x5
I0403 14:04:54.018867 12646 net.cpp:141] Setting up inception_4a/5x5
I0403 14:04:54.018893 12646 net.cpp:148] Top shape: 24 48 14 14 (225792)
I0403 14:04:54.018908 12646 net.cpp:156] Memory required for data: 874568736
I0403 14:04:54.018924 12646 layer_factory.hpp:77] Creating layer inception_4a/relu_5x5
I0403 14:04:54.018944 12646 net.cpp:91] Creating Layer inception_4a/relu_5x5
I0403 14:04:54.018960 12646 net.cpp:425] inception_4a/relu_5x5 <- inception_4a/5x5
I0403 14:04:54.018976 12646 net.cpp:386] inception_4a/relu_5x5 -> inception_4a/5x5 (in-place)
I0403 14:04:54.019141 12646 net.cpp:141] Setting up inception_4a/relu_5x5
I0403 14:04:54.019165 12646 net.cpp:148] Top shape: 24 48 14 14 (225792)
I0403 14:04:54.019179 12646 net.cpp:156] Memory required for data: 875471904
I0403 14:04:54.019193 12646 layer_factory.hpp:77] Creating layer inception_4a/pool
I0403 14:04:54.019214 12646 net.cpp:91] Creating Layer inception_4a/pool
I0403 14:04:54.019232 12646 net.cpp:425] inception_4a/pool <- pool3/3x3_s2_pool3/3x3_s2_0_split_3
I0403 14:04:54.019248 12646 net.cpp:399] inception_4a/pool -> inception_4a/pool
I0403 14:04:54.019306 12646 net.cpp:141] Setting up inception_4a/pool
I0403 14:04:54.019341 12646 net.cpp:148] Top shape: 24 480 14 14 (2257920)
I0403 14:04:54.019356 12646 net.cpp:156] Memory required for data: 884503584
I0403 14:04:54.019371 12646 layer_factory.hpp:77] Creating layer inception_4a/pool_proj
I0403 14:04:54.019392 12646 net.cpp:91] Creating Layer inception_4a/pool_proj
I0403 14:04:54.019409 12646 net.cpp:425] inception_4a/pool_proj <- inception_4a/pool
I0403 14:04:54.019428 12646 net.cpp:399] inception_4a/pool_proj -> inception_4a/pool_proj
I0403 14:04:54.020570 12646 net.cpp:141] Setting up inception_4a/pool_proj
I0403 14:04:54.020598 12646 net.cpp:148] Top shape: 24 64 14 14 (301056)
I0403 14:04:54.020627 12646 net.cpp:156] Memory required for data: 885707808
I0403 14:04:54.020648 12646 layer_factory.hpp:77] Creating layer inception_4a/relu_pool_proj
I0403 14:04:54.020668 12646 net.cpp:91] Creating Layer inception_4a/relu_pool_proj
I0403 14:04:54.020684 12646 net.cpp:425] inception_4a/relu_pool_proj <- inception_4a/pool_proj
I0403 14:04:54.020699 12646 net.cpp:386] inception_4a/relu_pool_proj -> inception_4a/pool_proj (in-place)
I0403 14:04:54.020972 12646 net.cpp:141] Setting up inception_4a/relu_pool_proj
I0403 14:04:54.021008 12646 net.cpp:148] Top shape: 24 64 14 14 (301056)
I0403 14:04:54.021024 12646 net.cpp:156] Memory required for data: 886912032
I0403 14:04:54.021040 12646 layer_factory.hpp:77] Creating layer inception_4a/output
I0403 14:04:54.021059 12646 net.cpp:91] Creating Layer inception_4a/output
I0403 14:04:54.021075 12646 net.cpp:425] inception_4a/output <- inception_4a/1x1
I0403 14:04:54.021090 12646 net.cpp:425] inception_4a/output <- inception_4a/3x3
I0403 14:04:54.021106 12646 net.cpp:425] inception_4a/output <- inception_4a/5x5
I0403 14:04:54.021121 12646 net.cpp:425] inception_4a/output <- inception_4a/pool_proj
I0403 14:04:54.021137 12646 net.cpp:399] inception_4a/output -> inception_4a/output
I0403 14:04:54.021183 12646 net.cpp:141] Setting up inception_4a/output
I0403 14:04:54.021205 12646 net.cpp:148] Top shape: 24 512 14 14 (2408448)
I0403 14:04:54.021219 12646 net.cpp:156] Memory required for data: 896545824
I0403 14:04:54.021234 12646 layer_factory.hpp:77] Creating layer inception_4a/output_inception_4a/output_0_split
I0403 14:04:54.021250 12646 net.cpp:91] Creating Layer inception_4a/output_inception_4a/output_0_split
I0403 14:04:54.021265 12646 net.cpp:425] inception_4a/output_inception_4a/output_0_split <- inception_4a/output
I0403 14:04:54.021284 12646 net.cpp:399] inception_4a/output_inception_4a/output_0_split -> inception_4a/output_inception_4a/output_0_split_0
I0403 14:04:54.021304 12646 net.cpp:399] inception_4a/output_inception_4a/output_0_split -> inception_4a/output_inception_4a/output_0_split_1
I0403 14:04:54.021335 12646 net.cpp:399] inception_4a/output_inception_4a/output_0_split -> inception_4a/output_inception_4a/output_0_split_2
I0403 14:04:54.021355 12646 net.cpp:399] inception_4a/output_inception_4a/output_0_split -> inception_4a/output_inception_4a/output_0_split_3
I0403 14:04:54.021373 12646 net.cpp:399] inception_4a/output_inception_4a/output_0_split -> inception_4a/output_inception_4a/output_0_split_4
I0403 14:04:54.021461 12646 net.cpp:141] Setting up inception_4a/output_inception_4a/output_0_split
I0403 14:04:54.021483 12646 net.cpp:148] Top shape: 24 512 14 14 (2408448)
I0403 14:04:54.021502 12646 net.cpp:148] Top shape: 24 512 14 14 (2408448)
I0403 14:04:54.021517 12646 net.cpp:148] Top shape: 24 512 14 14 (2408448)
I0403 14:04:54.021530 12646 net.cpp:148] Top shape: 24 512 14 14 (2408448)
I0403 14:04:54.021549 12646 net.cpp:148] Top shape: 24 512 14 14 (2408448)
I0403 14:04:54.021564 12646 net.cpp:156] Memory required for data: 944714784
I0403 14:04:54.021576 12646 layer_factory.hpp:77] Creating layer loss1/ave_pool
I0403 14:04:54.021594 12646 net.cpp:91] Creating Layer loss1/ave_pool
I0403 14:04:54.021610 12646 net.cpp:425] loss1/ave_pool <- inception_4a/output_inception_4a/output_0_split_0
I0403 14:04:54.021630 12646 net.cpp:399] loss1/ave_pool -> loss1/ave_pool
I0403 14:04:54.021827 12646 net.cpp:141] Setting up loss1/ave_pool
I0403 14:04:54.021852 12646 net.cpp:148] Top shape: 24 512 4 4 (196608)
I0403 14:04:54.021865 12646 net.cpp:156] Memory required for data: 945501216
I0403 14:04:54.021879 12646 layer_factory.hpp:77] Creating layer loss1/conv
I0403 14:04:54.021900 12646 net.cpp:91] Creating Layer loss1/conv
I0403 14:04:54.021916 12646 net.cpp:425] loss1/conv <- loss1/ave_pool
I0403 14:04:54.021935 12646 net.cpp:399] loss1/conv -> loss1/conv
I0403 14:04:54.023363 12646 net.cpp:141] Setting up loss1/conv
I0403 14:04:54.023393 12646 net.cpp:148] Top shape: 24 128 4 4 (49152)
I0403 14:04:54.023422 12646 net.cpp:156] Memory required for data: 945697824
I0403 14:04:54.023442 12646 layer_factory.hpp:77] Creating layer loss1/relu_conv
I0403 14:04:54.023460 12646 net.cpp:91] Creating Layer loss1/relu_conv
I0403 14:04:54.023475 12646 net.cpp:425] loss1/relu_conv <- loss1/conv
I0403 14:04:54.023494 12646 net.cpp:386] loss1/relu_conv -> loss1/conv (in-place)
I0403 14:04:54.023778 12646 net.cpp:141] Setting up loss1/relu_conv
I0403 14:04:54.023807 12646 net.cpp:148] Top shape: 24 128 4 4 (49152)
I0403 14:04:54.023821 12646 net.cpp:156] Memory required for data: 945894432
I0403 14:04:54.023836 12646 layer_factory.hpp:77] Creating layer loss1/fc
I0403 14:04:54.023859 12646 net.cpp:91] Creating Layer loss1/fc
I0403 14:04:54.023876 12646 net.cpp:425] loss1/fc <- loss1/conv
I0403 14:04:54.023897 12646 net.cpp:399] loss1/fc -> loss1/fc
I0403 14:04:54.041985 12646 net.cpp:141] Setting up loss1/fc
I0403 14:04:54.042054 12646 net.cpp:148] Top shape: 24 1024 (24576)
I0403 14:04:54.042070 12646 net.cpp:156] Memory required for data: 945992736
I0403 14:04:54.042091 12646 layer_factory.hpp:77] Creating layer loss1/relu_fc
I0403 14:04:54.042114 12646 net.cpp:91] Creating Layer loss1/relu_fc
I0403 14:04:54.042131 12646 net.cpp:425] loss1/relu_fc <- loss1/fc
I0403 14:04:54.042150 12646 net.cpp:386] loss1/relu_fc -> loss1/fc (in-place)
I0403 14:04:54.042373 12646 net.cpp:141] Setting up loss1/relu_fc
I0403 14:04:54.042400 12646 net.cpp:148] Top shape: 24 1024 (24576)
I0403 14:04:54.042417 12646 net.cpp:156] Memory required for data: 946091040
I0403 14:04:54.042430 12646 layer_factory.hpp:77] Creating layer loss1/drop_fc
I0403 14:04:54.042459 12646 net.cpp:91] Creating Layer loss1/drop_fc
I0403 14:04:54.042476 12646 net.cpp:425] loss1/drop_fc <- loss1/fc
I0403 14:04:54.042493 12646 net.cpp:386] loss1/drop_fc -> loss1/fc (in-place)
I0403 14:04:54.042560 12646 net.cpp:141] Setting up loss1/drop_fc
I0403 14:04:54.042583 12646 net.cpp:148] Top shape: 24 1024 (24576)
I0403 14:04:54.042598 12646 net.cpp:156] Memory required for data: 946189344
I0403 14:04:54.042613 12646 layer_factory.hpp:77] Creating layer loss1/classifier_plantvillage
I0403 14:04:54.042630 12646 net.cpp:91] Creating Layer loss1/classifier_plantvillage
I0403 14:04:54.042646 12646 net.cpp:425] loss1/classifier_plantvillage <- loss1/fc
I0403 14:04:54.042670 12646 net.cpp:399] loss1/classifier_plantvillage -> loss1/classifier_plantvillage
I0403 14:04:54.043598 12646 net.cpp:141] Setting up loss1/classifier_plantvillage
I0403 14:04:54.043625 12646 net.cpp:148] Top shape: 24 38 (912)
I0403 14:04:54.043642 12646 net.cpp:156] Memory required for data: 946192992
I0403 14:04:54.043659 12646 layer_factory.hpp:77] Creating layer loss1/classifier_plantvillage_loss1/classifier_plantvillage_0_split
I0403 14:04:54.043679 12646 net.cpp:91] Creating Layer loss1/classifier_plantvillage_loss1/classifier_plantvillage_0_split
I0403 14:04:54.043696 12646 net.cpp:425] loss1/classifier_plantvillage_loss1/classifier_plantvillage_0_split <- loss1/classifier_plantvillage
I0403 14:04:54.043715 12646 net.cpp:399] loss1/classifier_plantvillage_loss1/classifier_plantvillage_0_split -> loss1/classifier_plantvillage_loss1/classifier_plantvillage_0_split_0
I0403 14:04:54.043733 12646 net.cpp:399] loss1/classifier_plantvillage_loss1/classifier_plantvillage_0_split -> loss1/classifier_plantvillage_loss1/classifier_plantvillage_0_split_1
I0403 14:04:54.043756 12646 net.cpp:399] loss1/classifier_plantvillage_loss1/classifier_plantvillage_0_split -> loss1/classifier_plantvillage_loss1/classifier_plantvillage_0_split_2
I0403 14:04:54.043823 12646 net.cpp:141] Setting up loss1/classifier_plantvillage_loss1/classifier_plantvillage_0_split
I0403 14:04:54.043845 12646 net.cpp:148] Top shape: 24 38 (912)
I0403 14:04:54.043860 12646 net.cpp:148] Top shape: 24 38 (912)
I0403 14:04:54.043875 12646 net.cpp:148] Top shape: 24 38 (912)
I0403 14:04:54.043889 12646 net.cpp:156] Memory required for data: 946203936
I0403 14:04:54.043902 12646 layer_factory.hpp:77] Creating layer inception_4b/1x1
I0403 14:04:54.043926 12646 net.cpp:91] Creating Layer inception_4b/1x1
I0403 14:04:54.043968 12646 net.cpp:425] inception_4b/1x1 <- inception_4a/output_inception_4a/output_0_split_1
I0403 14:04:54.043988 12646 net.cpp:399] inception_4b/1x1 -> inception_4b/1x1
I0403 14:04:54.045672 12646 net.cpp:141] Setting up inception_4b/1x1
I0403 14:04:54.045702 12646 net.cpp:148] Top shape: 24 160 14 14 (752640)
I0403 14:04:54.045719 12646 net.cpp:156] Memory required for data: 949214496
I0403 14:04:54.045737 12646 layer_factory.hpp:77] Creating layer inception_4b/relu_1x1
I0403 14:04:54.045754 12646 net.cpp:91] Creating Layer inception_4b/relu_1x1
I0403 14:04:54.045770 12646 net.cpp:425] inception_4b/relu_1x1 <- inception_4b/1x1
I0403 14:04:54.045789 12646 net.cpp:386] inception_4b/relu_1x1 -> inception_4b/1x1 (in-place)
I0403 14:04:54.045964 12646 net.cpp:141] Setting up inception_4b/relu_1x1
I0403 14:04:54.045989 12646 net.cpp:148] Top shape: 24 160 14 14 (752640)
I0403 14:04:54.046002 12646 net.cpp:156] Memory required for data: 952225056
I0403 14:04:54.046016 12646 layer_factory.hpp:77] Creating layer inception_4b/3x3_reduce
I0403 14:04:54.046038 12646 net.cpp:91] Creating Layer inception_4b/3x3_reduce
I0403 14:04:54.046056 12646 net.cpp:425] inception_4b/3x3_reduce <- inception_4a/output_inception_4a/output_0_split_2
I0403 14:04:54.046077 12646 net.cpp:399] inception_4b/3x3_reduce -> inception_4b/3x3_reduce
I0403 14:04:54.047417 12646 net.cpp:141] Setting up inception_4b/3x3_reduce
I0403 14:04:54.047444 12646 net.cpp:148] Top shape: 24 112 14 14 (526848)
I0403 14:04:54.047458 12646 net.cpp:156] Memory required for data: 954332448
I0403 14:04:54.047477 12646 layer_factory.hpp:77] Creating layer inception_4b/relu_3x3_reduce
I0403 14:04:54.047494 12646 net.cpp:91] Creating Layer inception_4b/relu_3x3_reduce
I0403 14:04:54.047509 12646 net.cpp:425] inception_4b/relu_3x3_reduce <- inception_4b/3x3_reduce
I0403 14:04:54.047528 12646 net.cpp:386] inception_4b/relu_3x3_reduce -> inception_4b/3x3_reduce (in-place)
I0403 14:04:54.047813 12646 net.cpp:141] Setting up inception_4b/relu_3x3_reduce
I0403 14:04:54.047838 12646 net.cpp:148] Top shape: 24 112 14 14 (526848)
I0403 14:04:54.047853 12646 net.cpp:156] Memory required for data: 956439840
I0403 14:04:54.047868 12646 layer_factory.hpp:77] Creating layer inception_4b/3x3
I0403 14:04:54.047889 12646 net.cpp:91] Creating Layer inception_4b/3x3
I0403 14:04:54.047907 12646 net.cpp:425] inception_4b/3x3 <- inception_4b/3x3_reduce
I0403 14:04:54.047926 12646 net.cpp:399] inception_4b/3x3 -> inception_4b/3x3
I0403 14:04:54.050871 12646 net.cpp:141] Setting up inception_4b/3x3
I0403 14:04:54.050899 12646 net.cpp:148] Top shape: 24 224 14 14 (1053696)
I0403 14:04:54.050915 12646 net.cpp:156] Memory required for data: 960654624
I0403 14:04:54.050933 12646 layer_factory.hpp:77] Creating layer inception_4b/relu_3x3
I0403 14:04:54.050953 12646 net.cpp:91] Creating Layer inception_4b/relu_3x3
I0403 14:04:54.050969 12646 net.cpp:425] inception_4b/relu_3x3 <- inception_4b/3x3
I0403 14:04:54.050987 12646 net.cpp:386] inception_4b/relu_3x3 -> inception_4b/3x3 (in-place)
I0403 14:04:54.051163 12646 net.cpp:141] Setting up inception_4b/relu_3x3
I0403 14:04:54.051189 12646 net.cpp:148] Top shape: 24 224 14 14 (1053696)
I0403 14:04:54.051205 12646 net.cpp:156] Memory required for data: 964869408
I0403 14:04:54.051219 12646 layer_factory.hpp:77] Creating layer inception_4b/5x5_reduce
I0403 14:04:54.051242 12646 net.cpp:91] Creating Layer inception_4b/5x5_reduce
I0403 14:04:54.051259 12646 net.cpp:425] inception_4b/5x5_reduce <- inception_4a/output_inception_4a/output_0_split_3
I0403 14:04:54.051278 12646 net.cpp:399] inception_4b/5x5_reduce -> inception_4b/5x5_reduce
I0403 14:04:54.052350 12646 net.cpp:141] Setting up inception_4b/5x5_reduce
I0403 14:04:54.052377 12646 net.cpp:148] Top shape: 24 24 14 14 (112896)
I0403 14:04:54.052392 12646 net.cpp:156] Memory required for data: 965320992
I0403 14:04:54.052410 12646 layer_factory.hpp:77] Creating layer inception_4b/relu_5x5_reduce
I0403 14:04:54.052428 12646 net.cpp:91] Creating Layer inception_4b/relu_5x5_reduce
I0403 14:04:54.052459 12646 net.cpp:425] inception_4b/relu_5x5_reduce <- inception_4b/5x5_reduce
I0403 14:04:54.052479 12646 net.cpp:386] inception_4b/relu_5x5_reduce -> inception_4b/5x5_reduce (in-place)
I0403 14:04:54.052661 12646 net.cpp:141] Setting up inception_4b/relu_5x5_reduce
I0403 14:04:54.052685 12646 net.cpp:148] Top shape: 24 24 14 14 (112896)
I0403 14:04:54.052700 12646 net.cpp:156] Memory required for data: 965772576
I0403 14:04:54.052714 12646 layer_factory.hpp:77] Creating layer inception_4b/5x5
I0403 14:04:54.052736 12646 net.cpp:91] Creating Layer inception_4b/5x5
I0403 14:04:54.052752 12646 net.cpp:425] inception_4b/5x5 <- inception_4b/5x5_reduce
I0403 14:04:54.052773 12646 net.cpp:399] inception_4b/5x5 -> inception_4b/5x5
I0403 14:04:54.053995 12646 net.cpp:141] Setting up inception_4b/5x5
I0403 14:04:54.054025 12646 net.cpp:148] Top shape: 24 64 14 14 (301056)
I0403 14:04:54.054041 12646 net.cpp:156] Memory required for data: 966976800
I0403 14:04:54.054059 12646 layer_factory.hpp:77] Creating layer inception_4b/relu_5x5
I0403 14:04:54.054076 12646 net.cpp:91] Creating Layer inception_4b/relu_5x5
I0403 14:04:54.054091 12646 net.cpp:425] inception_4b/relu_5x5 <- inception_4b/5x5
I0403 14:04:54.054111 12646 net.cpp:386] inception_4b/relu_5x5 -> inception_4b/5x5 (in-place)
I0403 14:04:54.054394 12646 net.cpp:141] Setting up inception_4b/relu_5x5
I0403 14:04:54.054425 12646 net.cpp:148] Top shape: 24 64 14 14 (301056)
I0403 14:04:54.054442 12646 net.cpp:156] Memory required for data: 968181024
I0403 14:04:54.054456 12646 layer_factory.hpp:77] Creating layer inception_4b/pool
I0403 14:04:54.054474 12646 net.cpp:91] Creating Layer inception_4b/pool
I0403 14:04:54.054489 12646 net.cpp:425] inception_4b/pool <- inception_4a/output_inception_4a/output_0_split_4
I0403 14:04:54.054509 12646 net.cpp:399] inception_4b/pool -> inception_4b/pool
I0403 14:04:54.054584 12646 net.cpp:141] Setting up inception_4b/pool
I0403 14:04:54.054607 12646 net.cpp:148] Top shape: 24 512 14 14 (2408448)
I0403 14:04:54.054621 12646 net.cpp:156] Memory required for data: 977814816
I0403 14:04:54.054636 12646 layer_factory.hpp:77] Creating layer inception_4b/pool_proj
I0403 14:04:54.054657 12646 net.cpp:91] Creating Layer inception_4b/pool_proj
I0403 14:04:54.054673 12646 net.cpp:425] inception_4b/pool_proj <- inception_4b/pool
I0403 14:04:54.054694 12646 net.cpp:399] inception_4b/pool_proj -> inception_4b/pool_proj
I0403 14:04:54.055891 12646 net.cpp:141] Setting up inception_4b/pool_proj
I0403 14:04:54.055919 12646 net.cpp:148] Top shape: 24 64 14 14 (301056)
I0403 14:04:54.055935 12646 net.cpp:156] Memory required for data: 979019040
I0403 14:04:54.055954 12646 layer_factory.hpp:77] Creating layer inception_4b/relu_pool_proj
I0403 14:04:54.055971 12646 net.cpp:91] Creating Layer inception_4b/relu_pool_proj
I0403 14:04:54.055986 12646 net.cpp:425] inception_4b/relu_pool_proj <- inception_4b/pool_proj
I0403 14:04:54.056005 12646 net.cpp:386] inception_4b/relu_pool_proj -> inception_4b/pool_proj (in-place)
I0403 14:04:54.056181 12646 net.cpp:141] Setting up inception_4b/relu_pool_proj
I0403 14:04:54.056205 12646 net.cpp:148] Top shape: 24 64 14 14 (301056)
I0403 14:04:54.056219 12646 net.cpp:156] Memory required for data: 980223264
I0403 14:04:54.056234 12646 layer_factory.hpp:77] Creating layer inception_4b/output
I0403 14:04:54.056251 12646 net.cpp:91] Creating Layer inception_4b/output
I0403 14:04:54.056265 12646 net.cpp:425] inception_4b/output <- inception_4b/1x1
I0403 14:04:54.056282 12646 net.cpp:425] inception_4b/output <- inception_4b/3x3
I0403 14:04:54.056298 12646 net.cpp:425] inception_4b/output <- inception_4b/5x5
I0403 14:04:54.056313 12646 net.cpp:425] inception_4b/output <- inception_4b/pool_proj
I0403 14:04:54.056331 12646 net.cpp:399] inception_4b/output -> inception_4b/output
I0403 14:04:54.056378 12646 net.cpp:141] Setting up inception_4b/output
I0403 14:04:54.056401 12646 net.cpp:148] Top shape: 24 512 14 14 (2408448)
I0403 14:04:54.056416 12646 net.cpp:156] Memory required for data: 989857056
I0403 14:04:54.056443 12646 layer_factory.hpp:77] Creating layer inception_4b/output_inception_4b/output_0_split
I0403 14:04:54.056463 12646 net.cpp:91] Creating Layer inception_4b/output_inception_4b/output_0_split
I0403 14:04:54.056476 12646 net.cpp:425] inception_4b/output_inception_4b/output_0_split <- inception_4b/output
I0403 14:04:54.056495 12646 net.cpp:399] inception_4b/output_inception_4b/output_0_split -> inception_4b/output_inception_4b/output_0_split_0
I0403 14:04:54.056516 12646 net.cpp:399] inception_4b/output_inception_4b/output_0_split -> inception_4b/output_inception_4b/output_0_split_1
I0403 14:04:54.056540 12646 net.cpp:399] inception_4b/output_inception_4b/output_0_split -> inception_4b/output_inception_4b/output_0_split_2
I0403 14:04:54.056561 12646 net.cpp:399] inception_4b/output_inception_4b/output_0_split -> inception_4b/output_inception_4b/output_0_split_3
I0403 14:04:54.056645 12646 net.cpp:141] Setting up inception_4b/output_inception_4b/output_0_split
I0403 14:04:54.056668 12646 net.cpp:148] Top shape: 24 512 14 14 (2408448)
I0403 14:04:54.056684 12646 net.cpp:148] Top shape: 24 512 14 14 (2408448)
I0403 14:04:54.056699 12646 net.cpp:148] Top shape: 24 512 14 14 (2408448)
I0403 14:04:54.056712 12646 net.cpp:148] Top shape: 24 512 14 14 (2408448)
I0403 14:04:54.056725 12646 net.cpp:156] Memory required for data: 1028392224
I0403 14:04:54.056740 12646 layer_factory.hpp:77] Creating layer inception_4c/1x1
I0403 14:04:54.056762 12646 net.cpp:91] Creating Layer inception_4c/1x1
I0403 14:04:54.056779 12646 net.cpp:425] inception_4c/1x1 <- inception_4b/output_inception_4b/output_0_split_0
I0403 14:04:54.056797 12646 net.cpp:399] inception_4c/1x1 -> inception_4c/1x1
I0403 14:04:54.058217 12646 net.cpp:141] Setting up inception_4c/1x1
I0403 14:04:54.058243 12646 net.cpp:148] Top shape: 24 128 14 14 (602112)
I0403 14:04:54.058259 12646 net.cpp:156] Memory required for data: 1030800672
I0403 14:04:54.058276 12646 layer_factory.hpp:77] Creating layer inception_4c/relu_1x1
I0403 14:04:54.058297 12646 net.cpp:91] Creating Layer inception_4c/relu_1x1
I0403 14:04:54.058315 12646 net.cpp:425] inception_4c/relu_1x1 <- inception_4c/1x1
I0403 14:04:54.058331 12646 net.cpp:386] inception_4c/relu_1x1 -> inception_4c/1x1 (in-place)
I0403 14:04:54.058503 12646 net.cpp:141] Setting up inception_4c/relu_1x1
I0403 14:04:54.058529 12646 net.cpp:148] Top shape: 24 128 14 14 (602112)
I0403 14:04:54.058548 12646 net.cpp:156] Memory required for data: 1033209120
I0403 14:04:54.058564 12646 layer_factory.hpp:77] Creating layer inception_4c/3x3_reduce
I0403 14:04:54.058588 12646 net.cpp:91] Creating Layer inception_4c/3x3_reduce
I0403 14:04:54.058605 12646 net.cpp:425] inception_4c/3x3_reduce <- inception_4b/output_inception_4b/output_0_split_1
I0403 14:04:54.058624 12646 net.cpp:399] inception_4c/3x3_reduce -> inception_4c/3x3_reduce
I0403 14:04:54.060542 12646 net.cpp:141] Setting up inception_4c/3x3_reduce
I0403 14:04:54.060572 12646 net.cpp:148] Top shape: 24 128 14 14 (602112)
I0403 14:04:54.060590 12646 net.cpp:156] Memory required for data: 1035617568
I0403 14:04:54.060607 12646 layer_factory.hpp:77] Creating layer inception_4c/relu_3x3_reduce
I0403 14:04:54.060624 12646 net.cpp:91] Creating Layer inception_4c/relu_3x3_reduce
I0403 14:04:54.060641 12646 net.cpp:425] inception_4c/relu_3x3_reduce <- inception_4c/3x3_reduce
I0403 14:04:54.060657 12646 net.cpp:386] inception_4c/relu_3x3_reduce -> inception_4c/3x3_reduce (in-place)
I0403 14:04:54.060941 12646 net.cpp:141] Setting up inception_4c/relu_3x3_reduce
I0403 14:04:54.060969 12646 net.cpp:148] Top shape: 24 128 14 14 (602112)
I0403 14:04:54.060986 12646 net.cpp:156] Memory required for data: 1038026016
I0403 14:04:54.060999 12646 layer_factory.hpp:77] Creating layer inception_4c/3x3
I0403 14:04:54.061022 12646 net.cpp:91] Creating Layer inception_4c/3x3
I0403 14:04:54.061039 12646 net.cpp:425] inception_4c/3x3 <- inception_4c/3x3_reduce
I0403 14:04:54.061058 12646 net.cpp:399] inception_4c/3x3 -> inception_4c/3x3
I0403 14:04:54.064620 12646 net.cpp:141] Setting up inception_4c/3x3
I0403 14:04:54.064664 12646 net.cpp:148] Top shape: 24 256 14 14 (1204224)
I0403 14:04:54.064682 12646 net.cpp:156] Memory required for data: 1042842912
I0403 14:04:54.064713 12646 layer_factory.hpp:77] Creating layer inception_4c/relu_3x3
I0403 14:04:54.064733 12646 net.cpp:91] Creating Layer inception_4c/relu_3x3
I0403 14:04:54.064749 12646 net.cpp:425] inception_4c/relu_3x3 <- inception_4c/3x3
I0403 14:04:54.064769 12646 net.cpp:386] inception_4c/relu_3x3 -> inception_4c/3x3 (in-place)
I0403 14:04:54.064954 12646 net.cpp:141] Setting up inception_4c/relu_3x3
I0403 14:04:54.064977 12646 net.cpp:148] Top shape: 24 256 14 14 (1204224)
I0403 14:04:54.064990 12646 net.cpp:156] Memory required for data: 1047659808
I0403 14:04:54.065004 12646 layer_factory.hpp:77] Creating layer inception_4c/5x5_reduce
I0403 14:04:54.065026 12646 net.cpp:91] Creating Layer inception_4c/5x5_reduce
I0403 14:04:54.065043 12646 net.cpp:425] inception_4c/5x5_reduce <- inception_4b/output_inception_4b/output_0_split_2
I0403 14:04:54.065063 12646 net.cpp:399] inception_4c/5x5_reduce -> inception_4c/5x5_reduce
I0403 14:04:54.066105 12646 net.cpp:141] Setting up inception_4c/5x5_reduce
I0403 14:04:54.066133 12646 net.cpp:148] Top shape: 24 24 14 14 (112896)
I0403 14:04:54.066146 12646 net.cpp:156] Memory required for data: 1048111392
I0403 14:04:54.066164 12646 layer_factory.hpp:77] Creating layer inception_4c/relu_5x5_reduce
I0403 14:04:54.066180 12646 net.cpp:91] Creating Layer inception_4c/relu_5x5_reduce
I0403 14:04:54.066196 12646 net.cpp:425] inception_4c/relu_5x5_reduce <- inception_4c/5x5_reduce
I0403 14:04:54.066216 12646 net.cpp:386] inception_4c/relu_5x5_reduce -> inception_4c/5x5_reduce (in-place)
I0403 14:04:54.066408 12646 net.cpp:141] Setting up inception_4c/relu_5x5_reduce
I0403 14:04:54.066434 12646 net.cpp:148] Top shape: 24 24 14 14 (112896)
I0403 14:04:54.066449 12646 net.cpp:156] Memory required for data: 1048562976
I0403 14:04:54.066463 12646 layer_factory.hpp:77] Creating layer inception_4c/5x5
I0403 14:04:54.066485 12646 net.cpp:91] Creating Layer inception_4c/5x5
I0403 14:04:54.066504 12646 net.cpp:425] inception_4c/5x5 <- inception_4c/5x5_reduce
I0403 14:04:54.066525 12646 net.cpp:399] inception_4c/5x5 -> inception_4c/5x5
I0403 14:04:54.067734 12646 net.cpp:141] Setting up inception_4c/5x5
I0403 14:04:54.067760 12646 net.cpp:148] Top shape: 24 64 14 14 (301056)
I0403 14:04:54.067775 12646 net.cpp:156] Memory required for data: 1049767200
I0403 14:04:54.067793 12646 layer_factory.hpp:77] Creating layer inception_4c/relu_5x5
I0403 14:04:54.067812 12646 net.cpp:91] Creating Layer inception_4c/relu_5x5
I0403 14:04:54.067829 12646 net.cpp:425] inception_4c/relu_5x5 <- inception_4c/5x5
I0403 14:04:54.067845 12646 net.cpp:386] inception_4c/relu_5x5 -> inception_4c/5x5 (in-place)
I0403 14:04:54.068138 12646 net.cpp:141] Setting up inception_4c/relu_5x5
I0403 14:04:54.068164 12646 net.cpp:148] Top shape: 24 64 14 14 (301056)
I0403 14:04:54.068179 12646 net.cpp:156] Memory required for data: 1050971424
I0403 14:04:54.068193 12646 layer_factory.hpp:77] Creating layer inception_4c/pool
I0403 14:04:54.068210 12646 net.cpp:91] Creating Layer inception_4c/pool
I0403 14:04:54.068227 12646 net.cpp:425] inception_4c/pool <- inception_4b/output_inception_4b/output_0_split_3
I0403 14:04:54.068246 12646 net.cpp:399] inception_4c/pool -> inception_4c/pool
I0403 14:04:54.068315 12646 net.cpp:141] Setting up inception_4c/pool
I0403 14:04:54.068337 12646 net.cpp:148] Top shape: 24 512 14 14 (2408448)
I0403 14:04:54.068351 12646 net.cpp:156] Memory required for data: 1060605216
I0403 14:04:54.068366 12646 layer_factory.hpp:77] Creating layer inception_4c/pool_proj
I0403 14:04:54.068387 12646 net.cpp:91] Creating Layer inception_4c/pool_proj
I0403 14:04:54.068404 12646 net.cpp:425] inception_4c/pool_proj <- inception_4c/pool
I0403 14:04:54.068423 12646 net.cpp:399] inception_4c/pool_proj -> inception_4c/pool_proj
I0403 14:04:54.069640 12646 net.cpp:141] Setting up inception_4c/pool_proj
I0403 14:04:54.069672 12646 net.cpp:148] Top shape: 24 64 14 14 (301056)
I0403 14:04:54.069701 12646 net.cpp:156] Memory required for data: 1061809440
I0403 14:04:54.069721 12646 layer_factory.hpp:77] Creating layer inception_4c/relu_pool_proj
I0403 14:04:54.069739 12646 net.cpp:91] Creating Layer inception_4c/relu_pool_proj
I0403 14:04:54.069754 12646 net.cpp:425] inception_4c/relu_pool_proj <- inception_4c/pool_proj
I0403 14:04:54.069773 12646 net.cpp:386] inception_4c/relu_pool_proj -> inception_4c/pool_proj (in-place)
I0403 14:04:54.069950 12646 net.cpp:141] Setting up inception_4c/relu_pool_proj
I0403 14:04:54.069975 12646 net.cpp:148] Top shape: 24 64 14 14 (301056)
I0403 14:04:54.069989 12646 net.cpp:156] Memory required for data: 1063013664
I0403 14:04:54.070003 12646 layer_factory.hpp:77] Creating layer inception_4c/output
I0403 14:04:54.070020 12646 net.cpp:91] Creating Layer inception_4c/output
I0403 14:04:54.070034 12646 net.cpp:425] inception_4c/output <- inception_4c/1x1
I0403 14:04:54.070050 12646 net.cpp:425] inception_4c/output <- inception_4c/3x3
I0403 14:04:54.070065 12646 net.cpp:425] inception_4c/output <- inception_4c/5x5
I0403 14:04:54.070080 12646 net.cpp:425] inception_4c/output <- inception_4c/pool_proj
I0403 14:04:54.070099 12646 net.cpp:399] inception_4c/output -> inception_4c/output
I0403 14:04:54.070145 12646 net.cpp:141] Setting up inception_4c/output
I0403 14:04:54.070170 12646 net.cpp:148] Top shape: 24 512 14 14 (2408448)
I0403 14:04:54.070184 12646 net.cpp:156] Memory required for data: 1072647456
I0403 14:04:54.070197 12646 layer_factory.hpp:77] Creating layer inception_4c/output_inception_4c/output_0_split
I0403 14:04:54.070214 12646 net.cpp:91] Creating Layer inception_4c/output_inception_4c/output_0_split
I0403 14:04:54.070228 12646 net.cpp:425] inception_4c/output_inception_4c/output_0_split <- inception_4c/output
I0403 14:04:54.070247 12646 net.cpp:399] inception_4c/output_inception_4c/output_0_split -> inception_4c/output_inception_4c/output_0_split_0
I0403 14:04:54.070267 12646 net.cpp:399] inception_4c/output_inception_4c/output_0_split -> inception_4c/output_inception_4c/output_0_split_1
I0403 14:04:54.070287 12646 net.cpp:399] inception_4c/output_inception_4c/output_0_split -> inception_4c/output_inception_4c/output_0_split_2
I0403 14:04:54.070307 12646 net.cpp:399] inception_4c/output_inception_4c/output_0_split -> inception_4c/output_inception_4c/output_0_split_3
I0403 14:04:54.070390 12646 net.cpp:141] Setting up inception_4c/output_inception_4c/output_0_split
I0403 14:04:54.070413 12646 net.cpp:148] Top shape: 24 512 14 14 (2408448)
I0403 14:04:54.070430 12646 net.cpp:148] Top shape: 24 512 14 14 (2408448)
I0403 14:04:54.070444 12646 net.cpp:148] Top shape: 24 512 14 14 (2408448)
I0403 14:04:54.070458 12646 net.cpp:148] Top shape: 24 512 14 14 (2408448)
I0403 14:04:54.070472 12646 net.cpp:156] Memory required for data: 1111182624
I0403 14:04:54.070485 12646 layer_factory.hpp:77] Creating layer inception_4d/1x1
I0403 14:04:54.070508 12646 net.cpp:91] Creating Layer inception_4d/1x1
I0403 14:04:54.070525 12646 net.cpp:425] inception_4d/1x1 <- inception_4c/output_inception_4c/output_0_split_0
I0403 14:04:54.070549 12646 net.cpp:399] inception_4d/1x1 -> inception_4d/1x1
I0403 14:04:54.071933 12646 net.cpp:141] Setting up inception_4d/1x1
I0403 14:04:54.071959 12646 net.cpp:148] Top shape: 24 112 14 14 (526848)
I0403 14:04:54.071974 12646 net.cpp:156] Memory required for data: 1113290016
I0403 14:04:54.071992 12646 layer_factory.hpp:77] Creating layer inception_4d/relu_1x1
I0403 14:04:54.072011 12646 net.cpp:91] Creating Layer inception_4d/relu_1x1
I0403 14:04:54.072027 12646 net.cpp:425] inception_4d/relu_1x1 <- inception_4d/1x1
I0403 14:04:54.072043 12646 net.cpp:386] inception_4d/relu_1x1 -> inception_4d/1x1 (in-place)
I0403 14:04:54.072217 12646 net.cpp:141] Setting up inception_4d/relu_1x1
I0403 14:04:54.072242 12646 net.cpp:148] Top shape: 24 112 14 14 (526848)
I0403 14:04:54.072257 12646 net.cpp:156] Memory required for data: 1115397408
I0403 14:04:54.072270 12646 layer_factory.hpp:77] Creating layer inception_4d/3x3_reduce
I0403 14:04:54.072306 12646 net.cpp:91] Creating Layer inception_4d/3x3_reduce
I0403 14:04:54.072325 12646 net.cpp:425] inception_4d/3x3_reduce <- inception_4c/output_inception_4c/output_0_split_1
I0403 14:04:54.072345 12646 net.cpp:399] inception_4d/3x3_reduce -> inception_4d/3x3_reduce
I0403 14:04:54.073891 12646 net.cpp:141] Setting up inception_4d/3x3_reduce
I0403 14:04:54.073920 12646 net.cpp:148] Top shape: 24 144 14 14 (677376)
I0403 14:04:54.073933 12646 net.cpp:156] Memory required for data: 1118106912
I0403 14:04:54.073951 12646 layer_factory.hpp:77] Creating layer inception_4d/relu_3x3_reduce
I0403 14:04:54.073971 12646 net.cpp:91] Creating Layer inception_4d/relu_3x3_reduce
I0403 14:04:54.073987 12646 net.cpp:425] inception_4d/relu_3x3_reduce <- inception_4d/3x3_reduce
I0403 14:04:54.074004 12646 net.cpp:386] inception_4d/relu_3x3_reduce -> inception_4d/3x3_reduce (in-place)
I0403 14:04:54.074287 12646 net.cpp:141] Setting up inception_4d/relu_3x3_reduce
I0403 14:04:54.074313 12646 net.cpp:148] Top shape: 24 144 14 14 (677376)
I0403 14:04:54.074328 12646 net.cpp:156] Memory required for data: 1120816416
I0403 14:04:54.074343 12646 layer_factory.hpp:77] Creating layer inception_4d/3x3
I0403 14:04:54.074364 12646 net.cpp:91] Creating Layer inception_4d/3x3
I0403 14:04:54.074381 12646 net.cpp:425] inception_4d/3x3 <- inception_4d/3x3_reduce
I0403 14:04:54.074401 12646 net.cpp:399] inception_4d/3x3 -> inception_4d/3x3
I0403 14:04:54.078748 12646 net.cpp:141] Setting up inception_4d/3x3
I0403 14:04:54.078780 12646 net.cpp:148] Top shape: 24 288 14 14 (1354752)
I0403 14:04:54.078797 12646 net.cpp:156] Memory required for data: 1126235424
I0403 14:04:54.078816 12646 layer_factory.hpp:77] Creating layer inception_4d/relu_3x3
I0403 14:04:54.078835 12646 net.cpp:91] Creating Layer inception_4d/relu_3x3
I0403 14:04:54.078863 12646 net.cpp:425] inception_4d/relu_3x3 <- inception_4d/3x3
I0403 14:04:54.078881 12646 net.cpp:386] inception_4d/relu_3x3 -> inception_4d/3x3 (in-place)
I0403 14:04:54.079061 12646 net.cpp:141] Setting up inception_4d/relu_3x3
I0403 14:04:54.079088 12646 net.cpp:148] Top shape: 24 288 14 14 (1354752)
I0403 14:04:54.079103 12646 net.cpp:156] Memory required for data: 1131654432
I0403 14:04:54.079118 12646 layer_factory.hpp:77] Creating layer inception_4d/5x5_reduce
I0403 14:04:54.079138 12646 net.cpp:91] Creating Layer inception_4d/5x5_reduce
I0403 14:04:54.079154 12646 net.cpp:425] inception_4d/5x5_reduce <- inception_4c/output_inception_4c/output_0_split_2
I0403 14:04:54.079176 12646 net.cpp:399] inception_4d/5x5_reduce -> inception_4d/5x5_reduce
I0403 14:04:54.080332 12646 net.cpp:141] Setting up inception_4d/5x5_reduce
I0403 14:04:54.080360 12646 net.cpp:148] Top shape: 24 32 14 14 (150528)
I0403 14:04:54.080375 12646 net.cpp:156] Memory required for data: 1132256544
I0403 14:04:54.080394 12646 layer_factory.hpp:77] Creating layer inception_4d/relu_5x5_reduce
I0403 14:04:54.080415 12646 net.cpp:91] Creating Layer inception_4d/relu_5x5_reduce
I0403 14:04:54.080432 12646 net.cpp:425] inception_4d/relu_5x5_reduce <- inception_4d/5x5_reduce
I0403 14:04:54.080449 12646 net.cpp:386] inception_4d/relu_5x5_reduce -> inception_4d/5x5_reduce (in-place)
I0403 14:04:54.080653 12646 net.cpp:141] Setting up inception_4d/relu_5x5_reduce
I0403 14:04:54.080678 12646 net.cpp:148] Top shape: 24 32 14 14 (150528)
I0403 14:04:54.080693 12646 net.cpp:156] Memory required for data: 1132858656
I0403 14:04:54.080708 12646 layer_factory.hpp:77] Creating layer inception_4d/5x5
I0403 14:04:54.080729 12646 net.cpp:91] Creating Layer inception_4d/5x5
I0403 14:04:54.080745 12646 net.cpp:425] inception_4d/5x5 <- inception_4d/5x5_reduce
I0403 14:04:54.080765 12646 net.cpp:399] inception_4d/5x5 -> inception_4d/5x5
I0403 14:04:54.082275 12646 net.cpp:141] Setting up inception_4d/5x5
I0403 14:04:54.082304 12646 net.cpp:148] Top shape: 24 64 14 14 (301056)
I0403 14:04:54.082319 12646 net.cpp:156] Memory required for data: 1134062880
I0403 14:04:54.082336 12646 layer_factory.hpp:77] Creating layer inception_4d/relu_5x5
I0403 14:04:54.082370 12646 net.cpp:91] Creating Layer inception_4d/relu_5x5
I0403 14:04:54.082387 12646 net.cpp:425] inception_4d/relu_5x5 <- inception_4d/5x5
I0403 14:04:54.082406 12646 net.cpp:386] inception_4d/relu_5x5 -> inception_4d/5x5 (in-place)
I0403 14:04:54.082711 12646 net.cpp:141] Setting up inception_4d/relu_5x5
I0403 14:04:54.082736 12646 net.cpp:148] Top shape: 24 64 14 14 (301056)
I0403 14:04:54.082751 12646 net.cpp:156] Memory required for data: 1135267104
I0403 14:04:54.082765 12646 layer_factory.hpp:77] Creating layer inception_4d/pool
I0403 14:04:54.082783 12646 net.cpp:91] Creating Layer inception_4d/pool
I0403 14:04:54.082799 12646 net.cpp:425] inception_4d/pool <- inception_4c/output_inception_4c/output_0_split_3
I0403 14:04:54.082819 12646 net.cpp:399] inception_4d/pool -> inception_4d/pool
I0403 14:04:54.082886 12646 net.cpp:141] Setting up inception_4d/pool
I0403 14:04:54.082911 12646 net.cpp:148] Top shape: 24 512 14 14 (2408448)
I0403 14:04:54.082924 12646 net.cpp:156] Memory required for data: 1144900896
I0403 14:04:54.082938 12646 layer_factory.hpp:77] Creating layer inception_4d/pool_proj
I0403 14:04:54.082962 12646 net.cpp:91] Creating Layer inception_4d/pool_proj
I0403 14:04:54.082978 12646 net.cpp:425] inception_4d/pool_proj <- inception_4d/pool
I0403 14:04:54.082996 12646 net.cpp:399] inception_4d/pool_proj -> inception_4d/pool_proj
I0403 14:04:54.084808 12646 net.cpp:141] Setting up inception_4d/pool_proj
I0403 14:04:54.084842 12646 net.cpp:148] Top shape: 24 64 14 14 (301056)
I0403 14:04:54.084859 12646 net.cpp:156] Memory required for data: 1146105120
I0403 14:04:54.084877 12646 layer_factory.hpp:77] Creating layer inception_4d/relu_pool_proj
I0403 14:04:54.084895 12646 net.cpp:91] Creating Layer inception_4d/relu_pool_proj
I0403 14:04:54.084911 12646 net.cpp:425] inception_4d/relu_pool_proj <- inception_4d/pool_proj
I0403 14:04:54.084928 12646 net.cpp:386] inception_4d/relu_pool_proj -> inception_4d/pool_proj (in-place)
I0403 14:04:54.085114 12646 net.cpp:141] Setting up inception_4d/relu_pool_proj
I0403 14:04:54.085141 12646 net.cpp:148] Top shape: 24 64 14 14 (301056)
I0403 14:04:54.085157 12646 net.cpp:156] Memory required for data: 1147309344
I0403 14:04:54.085172 12646 layer_factory.hpp:77] Creating layer inception_4d/output
I0403 14:04:54.085189 12646 net.cpp:91] Creating Layer inception_4d/output
I0403 14:04:54.085204 12646 net.cpp:425] inception_4d/output <- inception_4d/1x1
I0403 14:04:54.085221 12646 net.cpp:425] inception_4d/output <- inception_4d/3x3
I0403 14:04:54.085235 12646 net.cpp:425] inception_4d/output <- inception_4d/5x5
I0403 14:04:54.085252 12646 net.cpp:425] inception_4d/output <- inception_4d/pool_proj
I0403 14:04:54.085270 12646 net.cpp:399] inception_4d/output -> inception_4d/output
I0403 14:04:54.085317 12646 net.cpp:141] Setting up inception_4d/output
I0403 14:04:54.085340 12646 net.cpp:148] Top shape: 24 528 14 14 (2483712)
I0403 14:04:54.085355 12646 net.cpp:156] Memory required for data: 1157244192
I0403 14:04:54.085367 12646 layer_factory.hpp:77] Creating layer inception_4d/output_inception_4d/output_0_split
I0403 14:04:54.085387 12646 net.cpp:91] Creating Layer inception_4d/output_inception_4d/output_0_split
I0403 14:04:54.085415 12646 net.cpp:425] inception_4d/output_inception_4d/output_0_split <- inception_4d/output
I0403 14:04:54.085433 12646 net.cpp:399] inception_4d/output_inception_4d/output_0_split -> inception_4d/output_inception_4d/output_0_split_0
I0403 14:04:54.085460 12646 net.cpp:399] inception_4d/output_inception_4d/output_0_split -> inception_4d/output_inception_4d/output_0_split_1
I0403 14:04:54.085481 12646 net.cpp:399] inception_4d/output_inception_4d/output_0_split -> inception_4d/output_inception_4d/output_0_split_2
I0403 14:04:54.085502 12646 net.cpp:399] inception_4d/output_inception_4d/output_0_split -> inception_4d/output_inception_4d/output_0_split_3
I0403 14:04:54.085522 12646 net.cpp:399] inception_4d/output_inception_4d/output_0_split -> inception_4d/output_inception_4d/output_0_split_4
I0403 14:04:54.085633 12646 net.cpp:141] Setting up inception_4d/output_inception_4d/output_0_split
I0403 14:04:54.085669 12646 net.cpp:148] Top shape: 24 528 14 14 (2483712)
I0403 14:04:54.085687 12646 net.cpp:148] Top shape: 24 528 14 14 (2483712)
I0403 14:04:54.085703 12646 net.cpp:148] Top shape: 24 528 14 14 (2483712)
I0403 14:04:54.085718 12646 net.cpp:148] Top shape: 24 528 14 14 (2483712)
I0403 14:04:54.085746 12646 net.cpp:148] Top shape: 24 528 14 14 (2483712)
I0403 14:04:54.085759 12646 net.cpp:156] Memory required for data: 1206918432
I0403 14:04:54.085773 12646 layer_factory.hpp:77] Creating layer loss2/ave_pool
I0403 14:04:54.085793 12646 net.cpp:91] Creating Layer loss2/ave_pool
I0403 14:04:54.085809 12646 net.cpp:425] loss2/ave_pool <- inception_4d/output_inception_4d/output_0_split_0
I0403 14:04:54.085827 12646 net.cpp:399] loss2/ave_pool -> loss2/ave_pool
I0403 14:04:54.086143 12646 net.cpp:141] Setting up loss2/ave_pool
I0403 14:04:54.086171 12646 net.cpp:148] Top shape: 24 528 4 4 (202752)
I0403 14:04:54.086187 12646 net.cpp:156] Memory required for data: 1207729440
I0403 14:04:54.086201 12646 layer_factory.hpp:77] Creating layer loss2/conv
I0403 14:04:54.086223 12646 net.cpp:91] Creating Layer loss2/conv
I0403 14:04:54.086241 12646 net.cpp:425] loss2/conv <- loss2/ave_pool
I0403 14:04:54.086258 12646 net.cpp:399] loss2/conv -> loss2/conv
I0403 14:04:54.088193 12646 net.cpp:141] Setting up loss2/conv
I0403 14:04:54.088222 12646 net.cpp:148] Top shape: 24 128 4 4 (49152)
I0403 14:04:54.088238 12646 net.cpp:156] Memory required for data: 1207926048
I0403 14:04:54.088258 12646 layer_factory.hpp:77] Creating layer loss2/relu_conv
I0403 14:04:54.088279 12646 net.cpp:91] Creating Layer loss2/relu_conv
I0403 14:04:54.088297 12646 net.cpp:425] loss2/relu_conv <- loss2/conv
I0403 14:04:54.088315 12646 net.cpp:386] loss2/relu_conv -> loss2/conv (in-place)
I0403 14:04:54.088605 12646 net.cpp:141] Setting up loss2/relu_conv
I0403 14:04:54.088631 12646 net.cpp:148] Top shape: 24 128 4 4 (49152)
I0403 14:04:54.088646 12646 net.cpp:156] Memory required for data: 1208122656
I0403 14:04:54.088661 12646 layer_factory.hpp:77] Creating layer loss2/fc
I0403 14:04:54.088685 12646 net.cpp:91] Creating Layer loss2/fc
I0403 14:04:54.088702 12646 net.cpp:425] loss2/fc <- loss2/conv
I0403 14:04:54.088721 12646 net.cpp:399] loss2/fc -> loss2/fc
I0403 14:04:54.106436 12646 net.cpp:141] Setting up loss2/fc
I0403 14:04:54.106482 12646 net.cpp:148] Top shape: 24 1024 (24576)
I0403 14:04:54.106498 12646 net.cpp:156] Memory required for data: 1208220960
I0403 14:04:54.106518 12646 layer_factory.hpp:77] Creating layer loss2/relu_fc
I0403 14:04:54.106541 12646 net.cpp:91] Creating Layer loss2/relu_fc
I0403 14:04:54.106561 12646 net.cpp:425] loss2/relu_fc <- loss2/fc
I0403 14:04:54.106582 12646 net.cpp:386] loss2/relu_fc -> loss2/fc (in-place)
I0403 14:04:54.106904 12646 net.cpp:141] Setting up loss2/relu_fc
I0403 14:04:54.106931 12646 net.cpp:148] Top shape: 24 1024 (24576)
I0403 14:04:54.106947 12646 net.cpp:156] Memory required for data: 1208319264
I0403 14:04:54.106962 12646 layer_factory.hpp:77] Creating layer loss2/drop_fc
I0403 14:04:54.106979 12646 net.cpp:91] Creating Layer loss2/drop_fc
I0403 14:04:54.106994 12646 net.cpp:425] loss2/drop_fc <- loss2/fc
I0403 14:04:54.107017 12646 net.cpp:386] loss2/drop_fc -> loss2/fc (in-place)
I0403 14:04:54.107066 12646 net.cpp:141] Setting up loss2/drop_fc
I0403 14:04:54.107089 12646 net.cpp:148] Top shape: 24 1024 (24576)
I0403 14:04:54.107103 12646 net.cpp:156] Memory required for data: 1208417568
I0403 14:04:54.107117 12646 layer_factory.hpp:77] Creating layer loss2/classifier_plantvillage
I0403 14:04:54.107138 12646 net.cpp:91] Creating Layer loss2/classifier_plantvillage
I0403 14:04:54.107156 12646 net.cpp:425] loss2/classifier_plantvillage <- loss2/fc
I0403 14:04:54.107177 12646 net.cpp:399] loss2/classifier_plantvillage -> loss2/classifier_plantvillage
I0403 14:04:54.107590 12646 net.cpp:141] Setting up loss2/classifier_plantvillage
I0403 14:04:54.107615 12646 net.cpp:148] Top shape: 24 38 (912)
I0403 14:04:54.107655 12646 net.cpp:156] Memory required for data: 1208421216
I0403 14:04:54.107673 12646 layer_factory.hpp:77] Creating layer loss2/classifier_plantvillage_loss2/classifier_plantvillage_0_split
I0403 14:04:54.107692 12646 net.cpp:91] Creating Layer loss2/classifier_plantvillage_loss2/classifier_plantvillage_0_split
I0403 14:04:54.107710 12646 net.cpp:425] loss2/classifier_plantvillage_loss2/classifier_plantvillage_0_split <- loss2/classifier_plantvillage
I0403 14:04:54.107728 12646 net.cpp:399] loss2/classifier_plantvillage_loss2/classifier_plantvillage_0_split -> loss2/classifier_plantvillage_loss2/classifier_plantvillage_0_split_0
I0403 14:04:54.107748 12646 net.cpp:399] loss2/classifier_plantvillage_loss2/classifier_plantvillage_0_split -> loss2/classifier_plantvillage_loss2/classifier_plantvillage_0_split_1
I0403 14:04:54.107767 12646 net.cpp:399] loss2/classifier_plantvillage_loss2/classifier_plantvillage_0_split -> loss2/classifier_plantvillage_loss2/classifier_plantvillage_0_split_2
I0403 14:04:54.107846 12646 net.cpp:141] Setting up loss2/classifier_plantvillage_loss2/classifier_plantvillage_0_split
I0403 14:04:54.107870 12646 net.cpp:148] Top shape: 24 38 (912)
I0403 14:04:54.107887 12646 net.cpp:148] Top shape: 24 38 (912)
I0403 14:04:54.107903 12646 net.cpp:148] Top shape: 24 38 (912)
I0403 14:04:54.107916 12646 net.cpp:156] Memory required for data: 1208432160
I0403 14:04:54.107930 12646 layer_factory.hpp:77] Creating layer inception_4e/1x1
I0403 14:04:54.107950 12646 net.cpp:91] Creating Layer inception_4e/1x1
I0403 14:04:54.107967 12646 net.cpp:425] inception_4e/1x1 <- inception_4d/output_inception_4d/output_0_split_1
I0403 14:04:54.107988 12646 net.cpp:399] inception_4e/1x1 -> inception_4e/1x1
I0403 14:04:54.109840 12646 net.cpp:141] Setting up inception_4e/1x1
I0403 14:04:54.109869 12646 net.cpp:148] Top shape: 24 256 14 14 (1204224)
I0403 14:04:54.109884 12646 net.cpp:156] Memory required for data: 1213249056
I0403 14:04:54.109902 12646 layer_factory.hpp:77] Creating layer inception_4e/relu_1x1
I0403 14:04:54.109920 12646 net.cpp:91] Creating Layer inception_4e/relu_1x1
I0403 14:04:54.109935 12646 net.cpp:425] inception_4e/relu_1x1 <- inception_4e/1x1
I0403 14:04:54.109953 12646 net.cpp:386] inception_4e/relu_1x1 -> inception_4e/1x1 (in-place)
I0403 14:04:54.110250 12646 net.cpp:141] Setting up inception_4e/relu_1x1
I0403 14:04:54.110276 12646 net.cpp:148] Top shape: 24 256 14 14 (1204224)
I0403 14:04:54.110292 12646 net.cpp:156] Memory required for data: 1218065952
I0403 14:04:54.110307 12646 layer_factory.hpp:77] Creating layer inception_4e/3x3_reduce
I0403 14:04:54.110329 12646 net.cpp:91] Creating Layer inception_4e/3x3_reduce
I0403 14:04:54.110347 12646 net.cpp:425] inception_4e/3x3_reduce <- inception_4d/output_inception_4d/output_0_split_2
I0403 14:04:54.110368 12646 net.cpp:399] inception_4e/3x3_reduce -> inception_4e/3x3_reduce
I0403 14:04:54.112491 12646 net.cpp:141] Setting up inception_4e/3x3_reduce
I0403 14:04:54.112524 12646 net.cpp:148] Top shape: 24 160 14 14 (752640)
I0403 14:04:54.112543 12646 net.cpp:156] Memory required for data: 1221076512
I0403 14:04:54.112563 12646 layer_factory.hpp:77] Creating layer inception_4e/relu_3x3_reduce
I0403 14:04:54.112582 12646 net.cpp:91] Creating Layer inception_4e/relu_3x3_reduce
I0403 14:04:54.112598 12646 net.cpp:425] inception_4e/relu_3x3_reduce <- inception_4e/3x3_reduce
I0403 14:04:54.112617 12646 net.cpp:386] inception_4e/relu_3x3_reduce -> inception_4e/3x3_reduce (in-place)
I0403 14:04:54.112804 12646 net.cpp:141] Setting up inception_4e/relu_3x3_reduce
I0403 14:04:54.112829 12646 net.cpp:148] Top shape: 24 160 14 14 (752640)
I0403 14:04:54.112843 12646 net.cpp:156] Memory required for data: 1224087072
I0403 14:04:54.112857 12646 layer_factory.hpp:77] Creating layer inception_4e/3x3
I0403 14:04:54.112879 12646 net.cpp:91] Creating Layer inception_4e/3x3
I0403 14:04:54.112896 12646 net.cpp:425] inception_4e/3x3 <- inception_4e/3x3_reduce
I0403 14:04:54.112916 12646 net.cpp:399] inception_4e/3x3 -> inception_4e/3x3
I0403 14:04:54.118037 12646 net.cpp:141] Setting up inception_4e/3x3
I0403 14:04:54.118078 12646 net.cpp:148] Top shape: 24 320 14 14 (1505280)
I0403 14:04:54.118094 12646 net.cpp:156] Memory required for data: 1230108192
I0403 14:04:54.118111 12646 layer_factory.hpp:77] Creating layer inception_4e/relu_3x3
I0403 14:04:54.118132 12646 net.cpp:91] Creating Layer inception_4e/relu_3x3
I0403 14:04:54.118149 12646 net.cpp:425] inception_4e/relu_3x3 <- inception_4e/3x3
I0403 14:04:54.118166 12646 net.cpp:386] inception_4e/relu_3x3 -> inception_4e/3x3 (in-place)
I0403 14:04:54.118468 12646 net.cpp:141] Setting up inception_4e/relu_3x3
I0403 14:04:54.118494 12646 net.cpp:148] Top shape: 24 320 14 14 (1505280)
I0403 14:04:54.118510 12646 net.cpp:156] Memory required for data: 1236129312
I0403 14:04:54.118523 12646 layer_factory.hpp:77] Creating layer inception_4e/5x5_reduce
I0403 14:04:54.118551 12646 net.cpp:91] Creating Layer inception_4e/5x5_reduce
I0403 14:04:54.118571 12646 net.cpp:425] inception_4e/5x5_reduce <- inception_4d/output_inception_4d/output_0_split_3
I0403 14:04:54.118589 12646 net.cpp:399] inception_4e/5x5_reduce -> inception_4e/5x5_reduce
I0403 14:04:54.119663 12646 net.cpp:141] Setting up inception_4e/5x5_reduce
I0403 14:04:54.119690 12646 net.cpp:148] Top shape: 24 32 14 14 (150528)
I0403 14:04:54.119705 12646 net.cpp:156] Memory required for data: 1236731424
I0403 14:04:54.119724 12646 layer_factory.hpp:77] Creating layer inception_4e/relu_5x5_reduce
I0403 14:04:54.119740 12646 net.cpp:91] Creating Layer inception_4e/relu_5x5_reduce
I0403 14:04:54.119756 12646 net.cpp:425] inception_4e/relu_5x5_reduce <- inception_4e/5x5_reduce
I0403 14:04:54.119774 12646 net.cpp:386] inception_4e/relu_5x5_reduce -> inception_4e/5x5_reduce (in-place)
I0403 14:04:54.120074 12646 net.cpp:141] Setting up inception_4e/relu_5x5_reduce
I0403 14:04:54.120100 12646 net.cpp:148] Top shape: 24 32 14 14 (150528)
I0403 14:04:54.120115 12646 net.cpp:156] Memory required for data: 1237333536
I0403 14:04:54.120128 12646 layer_factory.hpp:77] Creating layer inception_4e/5x5
I0403 14:04:54.120165 12646 net.cpp:91] Creating Layer inception_4e/5x5
I0403 14:04:54.120184 12646 net.cpp:425] inception_4e/5x5 <- inception_4e/5x5_reduce
I0403 14:04:54.120203 12646 net.cpp:399] inception_4e/5x5 -> inception_4e/5x5
I0403 14:04:54.122058 12646 net.cpp:141] Setting up inception_4e/5x5
I0403 14:04:54.122088 12646 net.cpp:148] Top shape: 24 128 14 14 (602112)
I0403 14:04:54.122105 12646 net.cpp:156] Memory required for data: 1239741984
I0403 14:04:54.122123 12646 layer_factory.hpp:77] Creating layer inception_4e/relu_5x5
I0403 14:04:54.122141 12646 net.cpp:91] Creating Layer inception_4e/relu_5x5
I0403 14:04:54.122158 12646 net.cpp:425] inception_4e/relu_5x5 <- inception_4e/5x5
I0403 14:04:54.122174 12646 net.cpp:386] inception_4e/relu_5x5 -> inception_4e/5x5 (in-place)
I0403 14:04:54.122372 12646 net.cpp:141] Setting up inception_4e/relu_5x5
I0403 14:04:54.122397 12646 net.cpp:148] Top shape: 24 128 14 14 (602112)
I0403 14:04:54.122411 12646 net.cpp:156] Memory required for data: 1242150432
I0403 14:04:54.122426 12646 layer_factory.hpp:77] Creating layer inception_4e/pool
I0403 14:04:54.122443 12646 net.cpp:91] Creating Layer inception_4e/pool
I0403 14:04:54.122458 12646 net.cpp:425] inception_4e/pool <- inception_4d/output_inception_4d/output_0_split_4
I0403 14:04:54.122478 12646 net.cpp:399] inception_4e/pool -> inception_4e/pool
I0403 14:04:54.122553 12646 net.cpp:141] Setting up inception_4e/pool
I0403 14:04:54.122578 12646 net.cpp:148] Top shape: 24 528 14 14 (2483712)
I0403 14:04:54.122593 12646 net.cpp:156] Memory required for data: 1252085280
I0403 14:04:54.122606 12646 layer_factory.hpp:77] Creating layer inception_4e/pool_proj
I0403 14:04:54.122628 12646 net.cpp:91] Creating Layer inception_4e/pool_proj
I0403 14:04:54.122645 12646 net.cpp:425] inception_4e/pool_proj <- inception_4e/pool
I0403 14:04:54.122663 12646 net.cpp:399] inception_4e/pool_proj -> inception_4e/pool_proj
I0403 14:04:54.124167 12646 net.cpp:141] Setting up inception_4e/pool_proj
I0403 14:04:54.124209 12646 net.cpp:148] Top shape: 24 128 14 14 (602112)
I0403 14:04:54.124227 12646 net.cpp:156] Memory required for data: 1254493728
I0403 14:04:54.124244 12646 layer_factory.hpp:77] Creating layer inception_4e/relu_pool_proj
I0403 14:04:54.124263 12646 net.cpp:91] Creating Layer inception_4e/relu_pool_proj
I0403 14:04:54.124277 12646 net.cpp:425] inception_4e/relu_pool_proj <- inception_4e/pool_proj
I0403 14:04:54.124296 12646 net.cpp:386] inception_4e/relu_pool_proj -> inception_4e/pool_proj (in-place)
I0403 14:04:54.124601 12646 net.cpp:141] Setting up inception_4e/relu_pool_proj
I0403 14:04:54.124631 12646 net.cpp:148] Top shape: 24 128 14 14 (602112)
I0403 14:04:54.124647 12646 net.cpp:156] Memory required for data: 1256902176
I0403 14:04:54.124661 12646 layer_factory.hpp:77] Creating layer inception_4e/output
I0403 14:04:54.124678 12646 net.cpp:91] Creating Layer inception_4e/output
I0403 14:04:54.124693 12646 net.cpp:425] inception_4e/output <- inception_4e/1x1
I0403 14:04:54.124709 12646 net.cpp:425] inception_4e/output <- inception_4e/3x3
I0403 14:04:54.124724 12646 net.cpp:425] inception_4e/output <- inception_4e/5x5
I0403 14:04:54.124739 12646 net.cpp:425] inception_4e/output <- inception_4e/pool_proj
I0403 14:04:54.124755 12646 net.cpp:399] inception_4e/output -> inception_4e/output
I0403 14:04:54.124805 12646 net.cpp:141] Setting up inception_4e/output
I0403 14:04:54.124830 12646 net.cpp:148] Top shape: 24 832 14 14 (3913728)
I0403 14:04:54.124843 12646 net.cpp:156] Memory required for data: 1272557088
I0403 14:04:54.124858 12646 layer_factory.hpp:77] Creating layer pool4/3x3_s2
I0403 14:04:54.124876 12646 net.cpp:91] Creating Layer pool4/3x3_s2
I0403 14:04:54.124892 12646 net.cpp:425] pool4/3x3_s2 <- inception_4e/output
I0403 14:04:54.124910 12646 net.cpp:399] pool4/3x3_s2 -> pool4/3x3_s2
I0403 14:04:54.124977 12646 net.cpp:141] Setting up pool4/3x3_s2
I0403 14:04:54.125001 12646 net.cpp:148] Top shape: 24 832 7 7 (978432)
I0403 14:04:54.125015 12646 net.cpp:156] Memory required for data: 1276470816
I0403 14:04:54.125030 12646 layer_factory.hpp:77] Creating layer pool4/3x3_s2_pool4/3x3_s2_0_split
I0403 14:04:54.125046 12646 net.cpp:91] Creating Layer pool4/3x3_s2_pool4/3x3_s2_0_split
I0403 14:04:54.125061 12646 net.cpp:425] pool4/3x3_s2_pool4/3x3_s2_0_split <- pool4/3x3_s2
I0403 14:04:54.125080 12646 net.cpp:399] pool4/3x3_s2_pool4/3x3_s2_0_split -> pool4/3x3_s2_pool4/3x3_s2_0_split_0
I0403 14:04:54.125102 12646 net.cpp:399] pool4/3x3_s2_pool4/3x3_s2_0_split -> pool4/3x3_s2_pool4/3x3_s2_0_split_1
I0403 14:04:54.125121 12646 net.cpp:399] pool4/3x3_s2_pool4/3x3_s2_0_split -> pool4/3x3_s2_pool4/3x3_s2_0_split_2
I0403 14:04:54.125140 12646 net.cpp:399] pool4/3x3_s2_pool4/3x3_s2_0_split -> pool4/3x3_s2_pool4/3x3_s2_0_split_3
I0403 14:04:54.125232 12646 net.cpp:141] Setting up pool4/3x3_s2_pool4/3x3_s2_0_split
I0403 14:04:54.125257 12646 net.cpp:148] Top shape: 24 832 7 7 (978432)
I0403 14:04:54.125274 12646 net.cpp:148] Top shape: 24 832 7 7 (978432)
I0403 14:04:54.125289 12646 net.cpp:148] Top shape: 24 832 7 7 (978432)
I0403 14:04:54.125304 12646 net.cpp:148] Top shape: 24 832 7 7 (978432)
I0403 14:04:54.125319 12646 net.cpp:156] Memory required for data: 1292125728
I0403 14:04:54.125331 12646 layer_factory.hpp:77] Creating layer inception_5a/1x1
I0403 14:04:54.125354 12646 net.cpp:91] Creating Layer inception_5a/1x1
I0403 14:04:54.125371 12646 net.cpp:425] inception_5a/1x1 <- pool4/3x3_s2_pool4/3x3_s2_0_split_0
I0403 14:04:54.125390 12646 net.cpp:399] inception_5a/1x1 -> inception_5a/1x1
I0403 14:04:54.128280 12646 net.cpp:141] Setting up inception_5a/1x1
I0403 14:04:54.128312 12646 net.cpp:148] Top shape: 24 256 7 7 (301056)
I0403 14:04:54.128329 12646 net.cpp:156] Memory required for data: 1293329952
I0403 14:04:54.128347 12646 layer_factory.hpp:77] Creating layer inception_5a/relu_1x1
I0403 14:04:54.128365 12646 net.cpp:91] Creating Layer inception_5a/relu_1x1
I0403 14:04:54.128381 12646 net.cpp:425] inception_5a/relu_1x1 <- inception_5a/1x1
I0403 14:04:54.128401 12646 net.cpp:386] inception_5a/relu_1x1 -> inception_5a/1x1 (in-place)
I0403 14:04:54.128717 12646 net.cpp:141] Setting up inception_5a/relu_1x1
I0403 14:04:54.128746 12646 net.cpp:148] Top shape: 24 256 7 7 (301056)
I0403 14:04:54.128762 12646 net.cpp:156] Memory required for data: 1294534176
I0403 14:04:54.128777 12646 layer_factory.hpp:77] Creating layer inception_5a/3x3_reduce
I0403 14:04:54.128798 12646 net.cpp:91] Creating Layer inception_5a/3x3_reduce
I0403 14:04:54.128815 12646 net.cpp:425] inception_5a/3x3_reduce <- pool4/3x3_s2_pool4/3x3_s2_0_split_1
I0403 14:04:54.128834 12646 net.cpp:399] inception_5a/3x3_reduce -> inception_5a/3x3_reduce
I0403 14:04:54.131371 12646 net.cpp:141] Setting up inception_5a/3x3_reduce
I0403 14:04:54.131399 12646 net.cpp:148] Top shape: 24 160 7 7 (188160)
I0403 14:04:54.131415 12646 net.cpp:156] Memory required for data: 1295286816
I0403 14:04:54.131433 12646 layer_factory.hpp:77] Creating layer inception_5a/relu_3x3_reduce
I0403 14:04:54.131453 12646 net.cpp:91] Creating Layer inception_5a/relu_3x3_reduce
I0403 14:04:54.131470 12646 net.cpp:425] inception_5a/relu_3x3_reduce <- inception_5a/3x3_reduce
I0403 14:04:54.131489 12646 net.cpp:386] inception_5a/relu_3x3_reduce -> inception_5a/3x3_reduce (in-place)
I0403 14:04:54.131688 12646 net.cpp:141] Setting up inception_5a/relu_3x3_reduce
I0403 14:04:54.131716 12646 net.cpp:148] Top shape: 24 160 7 7 (188160)
I0403 14:04:54.131731 12646 net.cpp:156] Memory required for data: 1296039456
I0403 14:04:54.131747 12646 layer_factory.hpp:77] Creating layer inception_5a/3x3
I0403 14:04:54.131769 12646 net.cpp:91] Creating Layer inception_5a/3x3
I0403 14:04:54.131786 12646 net.cpp:425] inception_5a/3x3 <- inception_5a/3x3_reduce
I0403 14:04:54.131805 12646 net.cpp:399] inception_5a/3x3 -> inception_5a/3x3
I0403 14:04:54.137008 12646 net.cpp:141] Setting up inception_5a/3x3
I0403 14:04:54.137042 12646 net.cpp:148] Top shape: 24 320 7 7 (376320)
I0403 14:04:54.137058 12646 net.cpp:156] Memory required for data: 1297544736
I0403 14:04:54.137076 12646 layer_factory.hpp:77] Creating layer inception_5a/relu_3x3
I0403 14:04:54.137095 12646 net.cpp:91] Creating Layer inception_5a/relu_3x3
I0403 14:04:54.137111 12646 net.cpp:425] inception_5a/relu_3x3 <- inception_5a/3x3
I0403 14:04:54.137130 12646 net.cpp:386] inception_5a/relu_3x3 -> inception_5a/3x3 (in-place)
I0403 14:04:54.137434 12646 net.cpp:141] Setting up inception_5a/relu_3x3
I0403 14:04:54.137462 12646 net.cpp:148] Top shape: 24 320 7 7 (376320)
I0403 14:04:54.137477 12646 net.cpp:156] Memory required for data: 1299050016
I0403 14:04:54.137493 12646 layer_factory.hpp:77] Creating layer inception_5a/5x5_reduce
I0403 14:04:54.137516 12646 net.cpp:91] Creating Layer inception_5a/5x5_reduce
I0403 14:04:54.137534 12646 net.cpp:425] inception_5a/5x5_reduce <- pool4/3x3_s2_pool4/3x3_s2_0_split_2
I0403 14:04:54.137562 12646 net.cpp:399] inception_5a/5x5_reduce -> inception_5a/5x5_reduce
I0403 14:04:54.138769 12646 net.cpp:141] Setting up inception_5a/5x5_reduce
I0403 14:04:54.138800 12646 net.cpp:148] Top shape: 24 32 7 7 (37632)
I0403 14:04:54.138818 12646 net.cpp:156] Memory required for data: 1299200544
I0403 14:04:54.138836 12646 layer_factory.hpp:77] Creating layer inception_5a/relu_5x5_reduce
I0403 14:04:54.138854 12646 net.cpp:91] Creating Layer inception_5a/relu_5x5_reduce
I0403 14:04:54.138875 12646 net.cpp:425] inception_5a/relu_5x5_reduce <- inception_5a/5x5_reduce
I0403 14:04:54.138891 12646 net.cpp:386] inception_5a/relu_5x5_reduce -> inception_5a/5x5_reduce (in-place)
I0403 14:04:54.139199 12646 net.cpp:141] Setting up inception_5a/relu_5x5_reduce
I0403 14:04:54.139225 12646 net.cpp:148] Top shape: 24 32 7 7 (37632)
I0403 14:04:54.139241 12646 net.cpp:156] Memory required for data: 1299351072
I0403 14:04:54.139256 12646 layer_factory.hpp:77] Creating layer inception_5a/5x5
I0403 14:04:54.139279 12646 net.cpp:91] Creating Layer inception_5a/5x5
I0403 14:04:54.139299 12646 net.cpp:425] inception_5a/5x5 <- inception_5a/5x5_reduce
I0403 14:04:54.139322 12646 net.cpp:399] inception_5a/5x5 -> inception_5a/5x5
I0403 14:04:54.141104 12646 net.cpp:141] Setting up inception_5a/5x5
I0403 14:04:54.141149 12646 net.cpp:148] Top shape: 24 128 7 7 (150528)
I0403 14:04:54.141165 12646 net.cpp:156] Memory required for data: 1299953184
I0403 14:04:54.141185 12646 layer_factory.hpp:77] Creating layer inception_5a/relu_5x5
I0403 14:04:54.141202 12646 net.cpp:91] Creating Layer inception_5a/relu_5x5
I0403 14:04:54.141218 12646 net.cpp:425] inception_5a/relu_5x5 <- inception_5a/5x5
I0403 14:04:54.141238 12646 net.cpp:386] inception_5a/relu_5x5 -> inception_5a/5x5 (in-place)
I0403 14:04:54.141444 12646 net.cpp:141] Setting up inception_5a/relu_5x5
I0403 14:04:54.141470 12646 net.cpp:148] Top shape: 24 128 7 7 (150528)
I0403 14:04:54.141485 12646 net.cpp:156] Memory required for data: 1300555296
I0403 14:04:54.141500 12646 layer_factory.hpp:77] Creating layer inception_5a/pool
I0403 14:04:54.141518 12646 net.cpp:91] Creating Layer inception_5a/pool
I0403 14:04:54.141541 12646 net.cpp:425] inception_5a/pool <- pool4/3x3_s2_pool4/3x3_s2_0_split_3
I0403 14:04:54.141561 12646 net.cpp:399] inception_5a/pool -> inception_5a/pool
I0403 14:04:54.141634 12646 net.cpp:141] Setting up inception_5a/pool
I0403 14:04:54.141659 12646 net.cpp:148] Top shape: 24 832 7 7 (978432)
I0403 14:04:54.141674 12646 net.cpp:156] Memory required for data: 1304469024
I0403 14:04:54.141688 12646 layer_factory.hpp:77] Creating layer inception_5a/pool_proj
I0403 14:04:54.141716 12646 net.cpp:91] Creating Layer inception_5a/pool_proj
I0403 14:04:54.141734 12646 net.cpp:425] inception_5a/pool_proj <- inception_5a/pool
I0403 14:04:54.141755 12646 net.cpp:399] inception_5a/pool_proj -> inception_5a/pool_proj
I0403 14:04:54.144103 12646 net.cpp:141] Setting up inception_5a/pool_proj
I0403 14:04:54.144134 12646 net.cpp:148] Top shape: 24 128 7 7 (150528)
I0403 14:04:54.144150 12646 net.cpp:156] Memory required for data: 1305071136
I0403 14:04:54.144170 12646 layer_factory.hpp:77] Creating layer inception_5a/relu_pool_proj
I0403 14:04:54.144191 12646 net.cpp:91] Creating Layer inception_5a/relu_pool_proj
I0403 14:04:54.144207 12646 net.cpp:425] inception_5a/relu_pool_proj <- inception_5a/pool_proj
I0403 14:04:54.144223 12646 net.cpp:386] inception_5a/relu_pool_proj -> inception_5a/pool_proj (in-place)
I0403 14:04:54.144546 12646 net.cpp:141] Setting up inception_5a/relu_pool_proj
I0403 14:04:54.144577 12646 net.cpp:148] Top shape: 24 128 7 7 (150528)
I0403 14:04:54.144593 12646 net.cpp:156] Memory required for data: 1305673248
I0403 14:04:54.144608 12646 layer_factory.hpp:77] Creating layer inception_5a/output
I0403 14:04:54.144625 12646 net.cpp:91] Creating Layer inception_5a/output
I0403 14:04:54.144641 12646 net.cpp:425] inception_5a/output <- inception_5a/1x1
I0403 14:04:54.144657 12646 net.cpp:425] inception_5a/output <- inception_5a/3x3
I0403 14:04:54.144675 12646 net.cpp:425] inception_5a/output <- inception_5a/5x5
I0403 14:04:54.144690 12646 net.cpp:425] inception_5a/output <- inception_5a/pool_proj
I0403 14:04:54.144706 12646 net.cpp:399] inception_5a/output -> inception_5a/output
I0403 14:04:54.144758 12646 net.cpp:141] Setting up inception_5a/output
I0403 14:04:54.144783 12646 net.cpp:148] Top shape: 24 832 7 7 (978432)
I0403 14:04:54.144798 12646 net.cpp:156] Memory required for data: 1309586976
I0403 14:04:54.144811 12646 layer_factory.hpp:77] Creating layer inception_5a/output_inception_5a/output_0_split
I0403 14:04:54.144829 12646 net.cpp:91] Creating Layer inception_5a/output_inception_5a/output_0_split
I0403 14:04:54.144845 12646 net.cpp:425] inception_5a/output_inception_5a/output_0_split <- inception_5a/output
I0403 14:04:54.144865 12646 net.cpp:399] inception_5a/output_inception_5a/output_0_split -> inception_5a/output_inception_5a/output_0_split_0
I0403 14:04:54.144886 12646 net.cpp:399] inception_5a/output_inception_5a/output_0_split -> inception_5a/output_inception_5a/output_0_split_1
I0403 14:04:54.144906 12646 net.cpp:399] inception_5a/output_inception_5a/output_0_split -> inception_5a/output_inception_5a/output_0_split_2
I0403 14:04:54.144927 12646 net.cpp:399] inception_5a/output_inception_5a/output_0_split -> inception_5a/output_inception_5a/output_0_split_3
I0403 14:04:54.145045 12646 net.cpp:141] Setting up inception_5a/output_inception_5a/output_0_split
I0403 14:04:54.145069 12646 net.cpp:148] Top shape: 24 832 7 7 (978432)
I0403 14:04:54.145086 12646 net.cpp:148] Top shape: 24 832 7 7 (978432)
I0403 14:04:54.145102 12646 net.cpp:148] Top shape: 24 832 7 7 (978432)
I0403 14:04:54.145117 12646 net.cpp:148] Top shape: 24 832 7 7 (978432)
I0403 14:04:54.145129 12646 net.cpp:156] Memory required for data: 1325241888
I0403 14:04:54.145144 12646 layer_factory.hpp:77] Creating layer inception_5b/1x1
I0403 14:04:54.145166 12646 net.cpp:91] Creating Layer inception_5b/1x1
I0403 14:04:54.145184 12646 net.cpp:425] inception_5b/1x1 <- inception_5a/output_inception_5a/output_0_split_0
I0403 14:04:54.145205 12646 net.cpp:399] inception_5b/1x1 -> inception_5b/1x1
I0403 14:04:54.149085 12646 net.cpp:141] Setting up inception_5b/1x1
I0403 14:04:54.149116 12646 net.cpp:148] Top shape: 24 384 7 7 (451584)
I0403 14:04:54.149132 12646 net.cpp:156] Memory required for data: 1327048224
I0403 14:04:54.149149 12646 layer_factory.hpp:77] Creating layer inception_5b/relu_1x1
I0403 14:04:54.149170 12646 net.cpp:91] Creating Layer inception_5b/relu_1x1
I0403 14:04:54.149186 12646 net.cpp:425] inception_5b/relu_1x1 <- inception_5b/1x1
I0403 14:04:54.149202 12646 net.cpp:386] inception_5b/relu_1x1 -> inception_5b/1x1 (in-place)
I0403 14:04:54.149513 12646 net.cpp:141] Setting up inception_5b/relu_1x1
I0403 14:04:54.149543 12646 net.cpp:148] Top shape: 24 384 7 7 (451584)
I0403 14:04:54.149559 12646 net.cpp:156] Memory required for data: 1328854560
I0403 14:04:54.149574 12646 layer_factory.hpp:77] Creating layer inception_5b/3x3_reduce
I0403 14:04:54.149595 12646 net.cpp:91] Creating Layer inception_5b/3x3_reduce
I0403 14:04:54.149613 12646 net.cpp:425] inception_5b/3x3_reduce <- inception_5a/output_inception_5a/output_0_split_1
I0403 14:04:54.149634 12646 net.cpp:399] inception_5b/3x3_reduce -> inception_5b/3x3_reduce
I0403 14:04:54.152307 12646 net.cpp:141] Setting up inception_5b/3x3_reduce
I0403 14:04:54.152336 12646 net.cpp:148] Top shape: 24 192 7 7 (225792)
I0403 14:04:54.152351 12646 net.cpp:156] Memory required for data: 1329757728
I0403 14:04:54.152369 12646 layer_factory.hpp:77] Creating layer inception_5b/relu_3x3_reduce
I0403 14:04:54.152390 12646 net.cpp:91] Creating Layer inception_5b/relu_3x3_reduce
I0403 14:04:54.152406 12646 net.cpp:425] inception_5b/relu_3x3_reduce <- inception_5b/3x3_reduce
I0403 14:04:54.152423 12646 net.cpp:386] inception_5b/relu_3x3_reduce -> inception_5b/3x3_reduce (in-place)
I0403 14:04:54.152621 12646 net.cpp:141] Setting up inception_5b/relu_3x3_reduce
I0403 14:04:54.152645 12646 net.cpp:148] Top shape: 24 192 7 7 (225792)
I0403 14:04:54.152660 12646 net.cpp:156] Memory required for data: 1330660896
I0403 14:04:54.152674 12646 layer_factory.hpp:77] Creating layer inception_5b/3x3
I0403 14:04:54.152696 12646 net.cpp:91] Creating Layer inception_5b/3x3
I0403 14:04:54.152714 12646 net.cpp:425] inception_5b/3x3 <- inception_5b/3x3_reduce
I0403 14:04:54.152735 12646 net.cpp:399] inception_5b/3x3 -> inception_5b/3x3
I0403 14:04:54.159451 12646 net.cpp:141] Setting up inception_5b/3x3
I0403 14:04:54.159485 12646 net.cpp:148] Top shape: 24 384 7 7 (451584)
I0403 14:04:54.159502 12646 net.cpp:156] Memory required for data: 1332467232
I0403 14:04:54.159520 12646 layer_factory.hpp:77] Creating layer inception_5b/relu_3x3
I0403 14:04:54.159541 12646 net.cpp:91] Creating Layer inception_5b/relu_3x3
I0403 14:04:54.159559 12646 net.cpp:425] inception_5b/relu_3x3 <- inception_5b/3x3
I0403 14:04:54.159579 12646 net.cpp:386] inception_5b/relu_3x3 -> inception_5b/3x3 (in-place)
I0403 14:04:54.159879 12646 net.cpp:141] Setting up inception_5b/relu_3x3
I0403 14:04:54.159907 12646 net.cpp:148] Top shape: 24 384 7 7 (451584)
I0403 14:04:54.159922 12646 net.cpp:156] Memory required for data: 1334273568
I0403 14:04:54.159937 12646 layer_factory.hpp:77] Creating layer inception_5b/5x5_reduce
I0403 14:04:54.159981 12646 net.cpp:91] Creating Layer inception_5b/5x5_reduce
I0403 14:04:54.160001 12646 net.cpp:425] inception_5b/5x5_reduce <- inception_5a/output_inception_5a/output_0_split_2
I0403 14:04:54.160019 12646 net.cpp:399] inception_5b/5x5_reduce -> inception_5b/5x5_reduce
I0403 14:04:54.161306 12646 net.cpp:141] Setting up inception_5b/5x5_reduce
I0403 14:04:54.161335 12646 net.cpp:148] Top shape: 24 48 7 7 (56448)
I0403 14:04:54.161351 12646 net.cpp:156] Memory required for data: 1334499360
I0403 14:04:54.161370 12646 layer_factory.hpp:77] Creating layer inception_5b/relu_5x5_reduce
I0403 14:04:54.161388 12646 net.cpp:91] Creating Layer inception_5b/relu_5x5_reduce
I0403 14:04:54.161404 12646 net.cpp:425] inception_5b/relu_5x5_reduce <- inception_5b/5x5_reduce
I0403 14:04:54.161422 12646 net.cpp:386] inception_5b/relu_5x5_reduce -> inception_5b/5x5_reduce (in-place)
I0403 14:04:54.161800 12646 net.cpp:141] Setting up inception_5b/relu_5x5_reduce
I0403 14:04:54.161826 12646 net.cpp:148] Top shape: 24 48 7 7 (56448)
I0403 14:04:54.161841 12646 net.cpp:156] Memory required for data: 1334725152
I0403 14:04:54.161855 12646 layer_factory.hpp:77] Creating layer inception_5b/5x5
I0403 14:04:54.161875 12646 net.cpp:91] Creating Layer inception_5b/5x5
I0403 14:04:54.161891 12646 net.cpp:425] inception_5b/5x5 <- inception_5b/5x5_reduce
I0403 14:04:54.161911 12646 net.cpp:399] inception_5b/5x5 -> inception_5b/5x5
I0403 14:04:54.163993 12646 net.cpp:141] Setting up inception_5b/5x5
I0403 14:04:54.164023 12646 net.cpp:148] Top shape: 24 128 7 7 (150528)
I0403 14:04:54.164041 12646 net.cpp:156] Memory required for data: 1335327264
I0403 14:04:54.164058 12646 layer_factory.hpp:77] Creating layer inception_5b/relu_5x5
I0403 14:04:54.164077 12646 net.cpp:91] Creating Layer inception_5b/relu_5x5
I0403 14:04:54.164093 12646 net.cpp:425] inception_5b/relu_5x5 <- inception_5b/5x5
I0403 14:04:54.164113 12646 net.cpp:386] inception_5b/relu_5x5 -> inception_5b/5x5 (in-place)
I0403 14:04:54.164309 12646 net.cpp:141] Setting up inception_5b/relu_5x5
I0403 14:04:54.164333 12646 net.cpp:148] Top shape: 24 128 7 7 (150528)
I0403 14:04:54.164348 12646 net.cpp:156] Memory required for data: 1335929376
I0403 14:04:54.164361 12646 layer_factory.hpp:77] Creating layer inception_5b/pool
I0403 14:04:54.164379 12646 net.cpp:91] Creating Layer inception_5b/pool
I0403 14:04:54.164396 12646 net.cpp:425] inception_5b/pool <- inception_5a/output_inception_5a/output_0_split_3
I0403 14:04:54.164415 12646 net.cpp:399] inception_5b/pool -> inception_5b/pool
I0403 14:04:54.164489 12646 net.cpp:141] Setting up inception_5b/pool
I0403 14:04:54.164512 12646 net.cpp:148] Top shape: 24 832 7 7 (978432)
I0403 14:04:54.164526 12646 net.cpp:156] Memory required for data: 1339843104
I0403 14:04:54.164551 12646 layer_factory.hpp:77] Creating layer inception_5b/pool_proj
I0403 14:04:54.164577 12646 net.cpp:91] Creating Layer inception_5b/pool_proj
I0403 14:04:54.164594 12646 net.cpp:425] inception_5b/pool_proj <- inception_5b/pool
I0403 14:04:54.164615 12646 net.cpp:399] inception_5b/pool_proj -> inception_5b/pool_proj
I0403 14:04:54.166934 12646 net.cpp:141] Setting up inception_5b/pool_proj
I0403 14:04:54.166965 12646 net.cpp:148] Top shape: 24 128 7 7 (150528)
I0403 14:04:54.166981 12646 net.cpp:156] Memory required for data: 1340445216
I0403 14:04:54.166999 12646 layer_factory.hpp:77] Creating layer inception_5b/relu_pool_proj
I0403 14:04:54.167017 12646 net.cpp:91] Creating Layer inception_5b/relu_pool_proj
I0403 14:04:54.167033 12646 net.cpp:425] inception_5b/relu_pool_proj <- inception_5b/pool_proj
I0403 14:04:54.167050 12646 net.cpp:386] inception_5b/relu_pool_proj -> inception_5b/pool_proj (in-place)
I0403 14:04:54.167352 12646 net.cpp:141] Setting up inception_5b/relu_pool_proj
I0403 14:04:54.167381 12646 net.cpp:148] Top shape: 24 128 7 7 (150528)
I0403 14:04:54.167397 12646 net.cpp:156] Memory required for data: 1341047328
I0403 14:04:54.167410 12646 layer_factory.hpp:77] Creating layer inception_5b/output
I0403 14:04:54.167428 12646 net.cpp:91] Creating Layer inception_5b/output
I0403 14:04:54.167459 12646 net.cpp:425] inception_5b/output <- inception_5b/1x1
I0403 14:04:54.167476 12646 net.cpp:425] inception_5b/output <- inception_5b/3x3
I0403 14:04:54.167495 12646 net.cpp:425] inception_5b/output <- inception_5b/5x5
I0403 14:04:54.167510 12646 net.cpp:425] inception_5b/output <- inception_5b/pool_proj
I0403 14:04:54.167527 12646 net.cpp:399] inception_5b/output -> inception_5b/output
I0403 14:04:54.167584 12646 net.cpp:141] Setting up inception_5b/output
I0403 14:04:54.167608 12646 net.cpp:148] Top shape: 24 1024 7 7 (1204224)
I0403 14:04:54.167623 12646 net.cpp:156] Memory required for data: 1345864224
I0403 14:04:54.167637 12646 layer_factory.hpp:77] Creating layer pool5/7x7_s1
I0403 14:04:54.167656 12646 net.cpp:91] Creating Layer pool5/7x7_s1
I0403 14:04:54.167672 12646 net.cpp:425] pool5/7x7_s1 <- inception_5b/output
I0403 14:04:54.167690 12646 net.cpp:399] pool5/7x7_s1 -> pool5/7x7_s1
I0403 14:04:54.167907 12646 net.cpp:141] Setting up pool5/7x7_s1
I0403 14:04:54.167933 12646 net.cpp:148] Top shape: 24 1024 1 1 (24576)
I0403 14:04:54.167948 12646 net.cpp:156] Memory required for data: 1345962528
I0403 14:04:54.167961 12646 layer_factory.hpp:77] Creating layer pool5/drop_7x7_s1
I0403 14:04:54.167979 12646 net.cpp:91] Creating Layer pool5/drop_7x7_s1
I0403 14:04:54.167994 12646 net.cpp:425] pool5/drop_7x7_s1 <- pool5/7x7_s1
I0403 14:04:54.168012 12646 net.cpp:386] pool5/drop_7x7_s1 -> pool5/7x7_s1 (in-place)
I0403 14:04:54.168062 12646 net.cpp:141] Setting up pool5/drop_7x7_s1
I0403 14:04:54.168086 12646 net.cpp:148] Top shape: 24 1024 1 1 (24576)
I0403 14:04:54.168099 12646 net.cpp:156] Memory required for data: 1346060832
I0403 14:04:54.168113 12646 layer_factory.hpp:77] Creating layer loss3/classifier_plantvillage
I0403 14:04:54.168134 12646 net.cpp:91] Creating Layer loss3/classifier_plantvillage
I0403 14:04:54.168151 12646 net.cpp:425] loss3/classifier_plantvillage <- pool5/7x7_s1
I0403 14:04:54.168170 12646 net.cpp:399] loss3/classifier_plantvillage -> loss3/classifier_plantvillage
I0403 14:04:54.168606 12646 net.cpp:141] Setting up loss3/classifier_plantvillage
I0403 14:04:54.168630 12646 net.cpp:148] Top shape: 24 38 (912)
I0403 14:04:54.168644 12646 net.cpp:156] Memory required for data: 1346064480
I0403 14:04:54.168661 12646 layer_factory.hpp:77] Creating layer loss3/classifier_plantvillage_loss3/classifier_plantvillage_0_split
I0403 14:04:54.168680 12646 net.cpp:91] Creating Layer loss3/classifier_plantvillage_loss3/classifier_plantvillage_0_split
I0403 14:04:54.168695 12646 net.cpp:425] loss3/classifier_plantvillage_loss3/classifier_plantvillage_0_split <- loss3/classifier_plantvillage
I0403 14:04:54.168715 12646 net.cpp:399] loss3/classifier_plantvillage_loss3/classifier_plantvillage_0_split -> loss3/classifier_plantvillage_loss3/classifier_plantvillage_0_split_0
I0403 14:04:54.168736 12646 net.cpp:399] loss3/classifier_plantvillage_loss3/classifier_plantvillage_0_split -> loss3/classifier_plantvillage_loss3/classifier_plantvillage_0_split_1
I0403 14:04:54.168757 12646 net.cpp:399] loss3/classifier_plantvillage_loss3/classifier_plantvillage_0_split -> loss3/classifier_plantvillage_loss3/classifier_plantvillage_0_split_2
I0403 14:04:54.168779 12646 net.cpp:399] loss3/classifier_plantvillage_loss3/classifier_plantvillage_0_split -> loss3/classifier_plantvillage_loss3/classifier_plantvillage_0_split_3
I0403 14:04:54.168884 12646 net.cpp:141] Setting up loss3/classifier_plantvillage_loss3/classifier_plantvillage_0_split
I0403 14:04:54.168907 12646 net.cpp:148] Top shape: 24 38 (912)
I0403 14:04:54.168922 12646 net.cpp:148] Top shape: 24 38 (912)
I0403 14:04:54.168937 12646 net.cpp:148] Top shape: 24 38 (912)
I0403 14:04:54.168952 12646 net.cpp:148] Top shape: 24 38 (912)
I0403 14:04:54.168965 12646 net.cpp:156] Memory required for data: 1346079072
I0403 14:04:54.168979 12646 layer_factory.hpp:77] Creating layer loss1/loss
I0403 14:04:54.169000 12646 net.cpp:91] Creating Layer loss1/loss
I0403 14:04:54.169018 12646 net.cpp:425] loss1/loss <- loss1/classifier_plantvillage_loss1/classifier_plantvillage_0_split_0
I0403 14:04:54.169049 12646 net.cpp:425] loss1/loss <- label_data_1_split_0
…
