…
I0403 13:56:37.527524 12276 net.cpp:313] The NetState phase (1) differed from the phase (0) specified by a rule in layer data
I0403 13:56:37.528718 12276 net.cpp:49] Initializing net from parameters: 
state {
  phase: TEST
}
layer {
  name: "data"
  type: "Data"
  top: "data"
  top: "label"
  include {
    phase: TEST
  }
  transform_param {
    mirror: false
    crop_size: 224
    mean_file: "/home/mohanty/data/final_dataset/lmdb/segmented-20-80/mean.binaryproto"
  }
  data_param {
    source: "/home/mohanty/data/final_dataset/lmdb/segmented-20-80/test_db"
    batch_size: 24
    backend: LMDB
  }
}
layer {
  name: "conv1/7x7_s2"
  type: "Convolution"
  bottom: "data"
  top: "conv1/7x7_s2"
  param {
    lr_mult: 1
    decay_mult: 1
  }
  param {
    lr_mult: 2
    decay_mult: 0
  }
  convolution_param {
    num_output: 64
    pad: 3
    kernel_size: 7
    stride: 2
    weight_filler {
      type: "xavier"
      std: 0.1
    }
    bias_filler {
      type: "constant"
      value: 0.2
    }
  }
}
layer {
  name: "conv1/relu_7x7"
  type: "ReLU"
  bottom: "conv1/7x7_s2"
  top: "conv1/7x7_s2"
}
layer {
  name: "pool1/3x3_s2"
  type: "Pooling"
  bottom: "conv1/7x7_s2"
  top: "pool1/3x3_s2"
  pooling_param {
    pool: MAX
    kernel_size: 3
    stride: 2
  }
}
layer {
  name: "pool1/norm1"
  type: "LRN"
  bottom: "pool1/3x3_s2"
  top: "pool1/norm1"
  lrn_param {
    local_size: 5
    alpha: 0.0001
    beta: 0.75
  }
}
layer {
  name: "conv2/3x3_reduce"
  type: "Convolution"
  bottom: "pool1/norm1"
  top: "conv2/3x3_reduce"
  param {
    lr_mult: 1
    decay_mult: 1
  }
  param {
    lr_mult: 2
    decay_mult: 0
  }
  convolution_param {
    num_output: 64
    kernel_size: 1
    weight_filler {
      type: "xavier"
      std: 0.1
    }
    bias_filler {
      type: "constant"
      value: 0.2
    }
  }
}
layer {
  name: "conv2/relu_3x3_reduce"
  type: "ReLU"
  bottom: "conv2/3x3_reduce"
  top: "conv2/3x3_reduce"
}
layer {
  name: "conv2/3x3"
  type: "Convolution"
  bottom: "conv2/3x3_reduce"
  top: "conv2/3x3"
  param {
    lr_mult: 1
    decay_mult: 1
  }
  param {
    lr_mult: 2
    decay_mult: 0
  }
  convolution_param {
    num_output: 192
    pad: 1
    kernel_size: 3
    weight_filler {
      type: "xavier"
      std: 0.03
    }
    bias_filler {
      type: "constant"
      value: 0.2
    }
  }
}
layer {
  name: "conv2/relu_3x3"
  type: "ReLU"
  bottom: "conv2/3x3"
  top: "conv2/3x3"
}
layer {
  name: "conv2/norm2"
  type: "LRN"
  bottom: "conv2/3x3"
  top: "conv2/norm2"
  lrn_param {
    local_size: 5
    alpha: 0.0001
    beta: 0.75
  }
}
layer {
  name: "pool2/3x3_s2"
  type: "Pooling"
  bottom: "conv2/norm2"
  top: "pool2/3x3_s2"
  pooling_param {
    pool: MAX
    kernel_size: 3
    stride: 2
  }
}
layer {
  name: "inception_3a/1x1"
  type: "Convolution"
  bottom: "pool2/3x3_s2"
  top: "inception_3a/1x1"
  param {
    lr_mult: 1
    decay_mult: 1
  }
  param {
    lr_mult: 2
    decay_mult: 0
  }
  convolution_param {
    num_output: 64
    kernel_size: 1
    weight_filler {
      type: "xavier"
      std: 0.03
    }
    bias_filler {
      type: "constant"
      value: 0.2
    }
  }
}
layer {
  name: "inception_3a/relu_1x1"
  type: "ReLU"
  bottom: "inception_3a/1x1"
  top: "inception_3a/1x1"
}
layer {
  name: "inception_3a/3x3_reduce"
  type: "Convolution"
  bottom: "pool2/3x3_s2"
  top: "inception_3a/3x3_reduce"
  param {
    lr_mult: 1
    decay_mult: 1
  }
  param {
    lr_mult: 2
    decay_mult: 0
  }
  convolution_param {
    num_output: 96
    kernel_size: 1
    weight_filler {
      type: "xavier"
      std: 0.09
    }
    bias_filler {
      type: "constant"
      value: 0.2
    }
  }
}
layer {
  name: "inception_3a/relu_3x3_reduce"
  type: "ReLU"
  bottom: "inception_3a/3x3_reduce"
  top: "inception_3a/3x3_reduce"
}
layer {
  name: "inception_3a/3x3"
  type: "Convolution"
  bottom: "inception_3a/3x3_reduce"
  top: "inception_3a/3x3"
  param {
    lr_mult: 1
    decay_mult: 1
  }
  param {
    lr_mult: 2
    decay_mult: 0
  }
  convolution_param {
    num_output: 128
    pad: 1
    kernel_size: 3
    weight_filler {
      type: "xavier"
      std: 0.03
    }
    bias_filler {
      type: "constant"
      value: 0.2
    }
  }
}
layer {
  name: "inception_3a/relu_3x3"
  type: "ReLU"
  bottom: "inception_3a/3x3"
  top: "inception_3a/3x3"
}
layer {
  name: "inception_3a/5x5_reduce"
  type: "Convolution"
  bottom: "pool2/3x3_s2"
  top: "inception_3a/5x5_reduce"
  param {
    lr_mult: 1
    decay_mult: 1
  }
  param {
    lr_mult: 2
    decay_mult: 0
  }
  convolution_param {
    num_output: 16
    kernel_size: 1
    weight_filler {
      type: "xavier"
      std: 0.2
    }
    bias_filler {
      type: "constant"
      value: 0.2
    }
  }
}
layer {
  name: "inception_3a/relu_5x5_reduce"
  type: "ReLU"
  bottom: "inception_3a/5x5_reduce"
  top: "inception_3a/5x5_reduce"
}
layer {
  name: "inception_3a/5x5"
  type: "Convolution"
  bottom: "inception_3a/5x5_reduce"
  top: "inception_3a/5x5"
  param {
    lr_mult: 1
    decay_mult: 1
  }
  param {
    lr_mult: 2
    decay_mult: 0
  }
  convolution_param {
    num_output: 32
    pad: 2
    kernel_size: 5
    weight_filler {
      type: "xavier"
      std: 0.03
    }
    bias_filler {
      type: "constant"
      value: 0.2
    }
  }
}
layer {
  name: "inception_3a/relu_5x5"
  type: "ReLU"
  bottom: "inception_3a/5x5"
  top: "inception_3a/5x5"
}
layer {
  name: "inception_3a/pool"
  type: "Pooling"
  bottom: "pool2/3x3_s2"
  top: "inception_3a/pool"
  pooling_param {
    pool: MAX
    kernel_size: 3
    stride: 1
    pad: 1
  }
}
layer {
  name: "inception_3a/pool_proj"
  type: "Convolution"
  bottom: "inception_3a/pool"
  top: "inception_3a/pool_proj"
  param {
    lr_mult: 1
    decay_mult: 1
  }
  param {
    lr_mult: 2
    decay_mult: 0
  }
  convolution_param {
    num_output: 32
    kernel_size: 1
    weight_filler {
      type: "xavier"
      std: 0.1
    }
    bias_filler {
      type: "constant"
      value: 0.2
    }
  }
}
layer {
  name: "inception_3a/relu_pool_proj"
  type: "ReLU"
  bottom: "inception_3a/pool_proj"
  top: "inception_3a/pool_proj"
}
layer {
  name: "inception_3a/output"
  type: "Concat"
  bottom: "inception_3a/1x1"
  bottom: "inception_3a/3x3"
  bottom: "inception_3a/5x5"
  bottom: "inception_3a/pool_proj"
  top: "inception_3a/output"
}
layer {
  name: "inception_3b/1x1"
  type: "Convolution"
  bottom: "inception_3a/output"
  top: "inception_3b/1x1"
  param {
    lr_mult: 1
    decay_mult: 1
  }
  param {
    lr_mult: 2
    decay_mult: 0
  }
  convolution_param {
    num_output: 128
    kernel_size: 1
    weight_filler {
      type: "xavier"
      std: 0.03
    }
    bias_filler {
      type: "constant"
      value: 0.2
    }
  }
}
layer {
  name: "inception_3b/relu_1x1"
  type: "ReLU"
  bottom: "inception_3b/1x1"
  top: "inception_3b/1x1"
}
layer {
  name: "inception_3b/3x3_reduce"
  type: "Convolution"
  bottom: "inception_3a/output"
  top: "inception_3b/3x3_reduce"
  param {
    lr_mult: 1
    decay_mult: 1
  }
  param {
    lr_mult: 2
    decay_mult: 0
  }
  convolution_param {
    num_output: 128
    kernel_size: 1
    weight_filler {
      type: "xavier"
      std: 0.09
    }
    bias_filler {
      type: "constant"
      value: 0.2
    }
  }
}
layer {
  name: "inception_3b/relu_3x3_reduce"
  type: "ReLU"
  bottom: "inception_3b/3x3_reduce"
  top: "inception_3b/3x3_reduce"
}
layer {
  name: "inception_3b/3x3"
  type: "Convolution"
  bottom: "inception_3b/3x3_reduce"
  top: "inception_3b/3x3"
  param {
    lr_mult: 1
    decay_mult: 1
  }
  param {
    lr_mult: 2
    decay_mult: 0
  }
  convolution_param {
    num_output: 192
    pad: 1
    kernel_size: 3
    weight_filler {
      type: "xavier"
      std: 0.03
    }
    bias_filler {
      type: "constant"
      value: 0.2
    }
  }
}
layer {
  name: "inception_3b/relu_3x3"
  type: "ReLU"
  bottom: "inception_3b/3x3"
  top: "inception_3b/3x3"
}
layer {
  name: "inception_3b/5x5_reduce"
  type: "Convolution"
  bottom: "inception_3a/output"
  top: "inception_3b/5x5_reduce"
  param {
    lr_mult: 1
    decay_mult: 1
  }
  param {
    lr_mult: 2
    decay_mult: 0
  }
  convolution_param {
    num_output: 32
    kernel_size: 1
    weight_filler {
      type: "xavier"
      std: 0.2
    }
    bias_filler {
      type: "constant"
      value: 0.2
    }
  }
}
layer {
  name: "inception_3b/relu_5x5_reduce"
  type: "ReLU"
  bottom: "inception_3b/5x5_reduce"
  top: "inception_3b/5x5_reduce"
}
layer {
  name: "inception_3b/5x5"
  type: "Convolution"
  bottom: "inception_3b/5x5_reduce"
  top: "inception_3b/5x5"
  param {
    lr_mult: 1
    decay_mult: 1
  }
  param {
    lr_mult: 2
    decay_mult: 0
  }
  convolution_param {
    num_output: 96
    pad: 2
    kernel_size: 5
    weight_filler {
      type: "xavier"
      std: 0.03
    }
    bias_filler {
      type: "constant"
      value: 0.2
    }
  }
}
layer {
  name: "inception_3b/relu_5x5"
  type: "ReLU"
  bottom: "inception_3b/5x5"
  top: "inception_3b/5x5"
}
layer {
  name: "inception_3b/pool"
  type: "Pooling"
  bottom: "inception_3a/output"
  top: "inception_3b/pool"
  pooling_param {
    pool: MAX
    kernel_size: 3
    stride: 1
    pad: 1
  }
}
layer {
  name: "inception_3b/pool_proj"
  type: "Convolution"
  bottom: "inception_3b/pool"
  top: "inception_3b/pool_proj"
  param {
    lr_mult: 1
    decay_mult: 1
  }
  param {
    lr_mult: 2
    decay_mult: 0
  }
  convolution_param {
    num_output: 64
    kernel_size: 1
    weight_filler {
      type: "xavier"
      std: 0.1
    }
    bias_filler {
      type: "constant"
      value: 0.2
    }
  }
}
layer {
  name: "inception_3b/relu_pool_proj"
  type: "ReLU"
  bottom: "inception_3b/pool_proj"
  top: "inception_3b/pool_proj"
}
layer {
  name: "inception_3b/output"
  type: "Concat"
  bottom: "inception_3b/1x1"
  bottom: "inception_3b/3x3"
  bottom: "inception_3b/5x5"
  bottom: "inception_3b/pool_proj"
  top: "inception_3b/output"
}
layer {
  name: "pool3/3x3_s2"
  type: "Pooling"
  bottom: "inception_3b/output"
  top: "pool3/3x3_s2"
  pooling_param {
    pool: MAX
    kernel_size: 3
    stride: 2
  }
}
layer {
  name: "inception_4a/1x1"
  type: "Convolution"
  bottom: "pool3/3x3_s2"
  top: "inception_4a/1x1"
  param {
    lr_mult: 1
    decay_mult: 1
  }
  param {
    lr_mult: 2
    decay_mult: 0
  }
  convolution_param {
    num_output: 192
    kernel_size: 1
    weight_filler {
      type: "xavier"
      std: 0.03
    }
    bias_filler {
      type: "constant"
      value: 0.2
    }
  }
}
layer {
  name: "inception_4a/relu_1x1"
  type: "ReLU"
  bottom: "inception_4a/1x1"
  top: "inception_4a/1x1"
}
layer {
  name: "inception_4a/3x3_reduce"
  type: "Convolution"
  bottom: "pool3/3x3_s2"
  top: "inception_4a/3x3_reduce"
  param {
    lr_mult: 1
    decay_mult: 1
  }
  param {
    lr_mult: 2
    decay_mult: 0
  }
  convolution_param {
    num_output: 96
    kernel_size: 1
    weight_filler {
      type: "xavier"
      std: 0.09
    }
    bias_filler {
      type: "constant"
      value: 0.2
    }
  }
}
layer {
  name: "inception_4a/relu_3x3_reduce"
  type: "ReLU"
  bottom: "inception_4a/3x3_reduce"
  top: "inception_4a/3x3_reduce"
}
layer {
  name: "inception_4a/3x3"
  type: "Convolution"
  bottom: "inception_4a/3x3_reduce"
  top: "inception_4a/3x3"
  param {
    lr_mult: 1
    decay_mult: 1
  }
  param {
    lr_mult: 2
    decay_mult: 0
  }
  convolution_param {
    num_output: 208
    pad: 1
    kernel_size: 3
    weight_filler {
      type: "xavier"
      std: 0.03
    }
    bias_filler {
      type: "constant"
      value: 0.2
    }
  }
}
layer {
  name: "inception_4a/relu_3x3"
  type: "ReLU"
  bottom: "inception_4a/3x3"
  top: "inception_4a/3x3"
}
layer {
  name: "inception_4a/5x5_reduce"
  type: "Convolution"
  bottom: "pool3/3x3_s2"
  top: "inception_4a/5x5_reduce"
  param {
    lr_mult: 1
    decay_mult: 1
  }
  param {
    lr_mult: 2
    decay_mult: 0
  }
  convolution_param {
    num_output: 16
    kernel_size: 1
    weight_filler {
      type: "xavier"
      std: 0.2
    }
    bias_filler {
      type: "constant"
      value: 0.2
    }
  }
}
layer {
  name: "inception_4a/relu_5x5_reduce"
  type: "ReLU"
  bottom: "inception_4a/5x5_reduce"
  top: "inception_4a/5x5_reduce"
}
layer {
  name: "inception_4a/5x5"
  type: "Convolution"
  bottom: "inception_4a/5x5_reduce"
  top: "inception_4a/5x5"
  param {
    lr_mult: 1
    decay_mult: 1
  }
  param {
    lr_mult: 2
    decay_mult: 0
  }
  convolution_param {
    num_output: 48
    pad: 2
    kernel_size: 5
    weight_filler {
      type: "xavier"
      std: 0.03
    }
    bias_filler {
      type: "constant"
      value: 0.2
    }
  }
}
layer {
  name: "inception_4a/relu_5x5"
  type: "ReLU"
  bottom: "inception_4a/5x5"
  top: "inception_4a/5x5"
}
layer {
  name: "inception_4a/pool"
  type: "Pooling"
  bottom: "pool3/3x3_s2"
  top: "inception_4a/pool"
  pooling_param {
    pool: MAX
    kernel_size: 3
    stride: 1
    pad: 1
  }
}
layer {
  name: "inception_4a/pool_proj"
  type: "Convolution"
  bottom: "inception_4a/pool"
  top: "inception_4a/pool_proj"
  param {
    lr_mult: 1
    decay_mult: 1
  }
  param {
    lr_mult: 2
    decay_mult: 0
  }
  convolution_param {
    num_output: 64
    kernel_size: 1
    weight_filler {
      type: "xavier"
      std: 0.1
    }
    bias_filler {
      type: "constant"
      value: 0.2
    }
  }
}
layer {
  name: "inception_4a/relu_pool_proj"
  type: "ReLU"
  bottom: "inception_4a/pool_proj"
  top: "inception_4a/pool_proj"
}
layer {
  name: "inception_4a/output"
  type: "Concat"
  bottom: "inception_4a/1x1"
  bottom: "inception_4a/3x3"
  bottom: "inception_4a/5x5"
  bottom: "inception_4a/pool_proj"
  top: "inception_4a/output"
}
layer {
  name: "loss1/ave_pool"
  type: "Pooling"
  bottom: "inception_4a/output"
  top: "loss1/ave_pool"
  pooling_param {
    pool: AVE
    kernel_size: 5
    stride: 3
  }
}
layer {
  name: "loss1/conv"
  type: "Convolution"
  bottom: "loss1/ave_pool"
  top: "loss1/conv"
  param {
    lr_mult: 1
    decay_mult: 1
  }
  param {
    lr_mult: 2
    decay_mult: 0
  }
  convolution_param {
    num_output: 128
    kernel_size: 1
    weight_filler {
      type: "xavier"
      std: 0.08
    }
    bias_filler {
      type: "constant"
      value: 0.2
    }
  }
}
layer {
  name: "loss1/relu_conv"
  type: "ReLU"
  bottom: "loss1/conv"
  top: "loss1/conv"
}
layer {
  name: "loss1/fc"
  type: "InnerProduct"
  bottom: "loss1/conv"
  top: "loss1/fc"
  param {
    lr_mult: 1
    decay_mult: 1
  }
  param {
    lr_mult: 2
    decay_mult: 0
  }
  inner_product_param {
    num_output: 1024
    weight_filler {
      type: "xavier"
      std: 0.02
    }
    bias_filler {
      type: "constant"
      value: 0.2
    }
  }
}
layer {
  name: "loss1/relu_fc"
  type: "ReLU"
  bottom: "loss1/fc"
  top: "loss1/fc"
}
layer {
  name: "loss1/drop_fc"
  type: "Dropout"
  bottom: "loss1/fc"
  top: "loss1/fc"
  dropout_param {
    dropout_ratio: 0.7
  }
}
layer {
  name: "loss1/classifier_plantvillage"
  type: "InnerProduct"
  bottom: "loss1/fc"
  top: "loss1/classifier_plantvillage"
  param {
    lr_mult: 1
    decay_mult: 1
  }
  param {
    lr_mult: 2
    decay_mult: 0
  }
  inner_product_param {
    num_output: 38
    weight_filler {
      type: "xavier"
      std: 0.0009765625
    }
    bias_filler {
      type: "constant"
      value: 0
    }
  }
}
layer {
  name: "inception_4b/1x1"
  type: "Convolution"
  bottom: "inception_4a/output"
  top: "inception_4b/1x1"
  param {
    lr_mult: 1
    decay_mult: 1
  }
  param {
    lr_mult: 2
    decay_mult: 0
  }
  convolution_param {
    num_output: 160
    kernel_size: 1
    weight_filler {
      type: "xavier"
      std: 0.03
    }
    bias_filler {
      type: "constant"
      value: 0.2
    }
  }
}
layer {
  name: "inception_4b/relu_1x1"
  type: "ReLU"
  bottom: "inception_4b/1x1"
  top: "inception_4b/1x1"
}
layer {
  name: "inception_4b/3x3_reduce"
  type: "Convolution"
  bottom: "inception_4a/output"
  top: "inception_4b/3x3_reduce"
  param {
    lr_mult: 1
    decay_mult: 1
  }
  param {
    lr_mult: 2
    decay_mult: 0
  }
  convolution_param {
    num_output: 112
    kernel_size: 1
    weight_filler {
      type: "xavier"
      std: 0.09
    }
    bias_filler {
      type: "constant"
      value: 0.2
    }
  }
}
layer {
  name: "inception_4b/relu_3x3_reduce"
  type: "ReLU"
  bottom: "inception_4b/3x3_reduce"
  top: "inception_4b/3x3_reduce"
}
layer {
  name: "inception_4b/3x3"
  type: "Convolution"
  bottom: "inception_4b/3x3_reduce"
  top: "inception_4b/3x3"
  param {
    lr_mult: 1
    decay_mult: 1
  }
  param {
    lr_mult: 2
    decay_mult: 0
  }
  convolution_param {
    num_output: 224
    pad: 1
    kernel_size: 3
    weight_filler {
      type: "xavier"
      std: 0.03
    }
    bias_filler {
      type: "constant"
      value: 0.2
    }
  }
}
layer {
  name: "inception_4b/relu_3x3"
  type: "ReLU"
  bottom: "inception_4b/3x3"
  top: "inception_4b/3x3"
}
layer {
  name: "inception_4b/5x5_reduce"
  type: "Convolution"
  bottom: "inception_4a/output"
  top: "inception_4b/5x5_reduce"
  param {
    lr_mult: 1
    decay_mult: 1
  }
  param {
    lr_mult: 2
    decay_mult: 0
  }
  convolution_param {
    num_output: 24
    kernel_size: 1
    weight_filler {
      type: "xavier"
      std: 0.2
    }
    bias_filler {
      type: "constant"
      value: 0.2
    }
  }
}
layer {
  name: "inception_4b/relu_5x5_reduce"
  type: "ReLU"
  bottom: "inception_4b/5x5_reduce"
  top: "inception_4b/5x5_reduce"
}
layer {
  name: "inception_4b/5x5"
  type: "Convolution"
  bottom: "inception_4b/5x5_reduce"
  top: "inception_4b/5x5"
  param {
    lr_mult: 1
    decay_mult: 1
  }
  param {
    lr_mult: 2
    decay_mult: 0
  }
  convolution_param {
    num_output: 64
    pad: 2
    kernel_size: 5
    weight_filler {
      type: "xavier"
      std: 0.03
    }
    bias_filler {
      type: "constant"
      value: 0.2
    }
  }
}
layer {
  name: "inception_4b/relu_5x5"
  type: "ReLU"
  bottom: "inception_4b/5x5"
  top: "inception_4b/5x5"
}
layer {
  name: "inception_4b/pool"
  type: "Pooling"
  bottom: "inception_4a/output"
  top: "inception_4b/pool"
  pooling_param {
    pool: MAX
    kernel_size: 3
    stride: 1
    pad: 1
  }
}
layer {
  name: "inception_4b/pool_proj"
  type: "Convolution"
  bottom: "inception_4b/pool"
  top: "inception_4b/pool_proj"
  param {
    lr_mult: 1
    decay_mult: 1
  }
  param {
    lr_mult: 2
    decay_mult: 0
  }
  convolution_param {
    num_output: 64
    kernel_size: 1
    weight_filler {
      type: "xavier"
      std: 0.1
    }
    bias_filler {
      type: "constant"
      value: 0.2
    }
  }
}
layer {
  name: "inception_4b/relu_pool_proj"
  type: "ReLU"
  bottom: "inception_4b/pool_proj"
  top: "inception_4b/pool_proj"
}
layer {
  name: "inception_4b/output"
  type: "Concat"
  bottom: "inception_4b/1x1"
  bottom: "inception_4b/3x3"
  bottom: "inception_4b/5x5"
  bottom: "inception_4b/pool_proj"
  top: "inception_4b/output"
}
layer {
  name: "inception_4c/1x1"
  type: "Convolution"
  bottom: "inception_4b/output"
  top: "inception_4c/1x1"
  param {
    lr_mult: 1
    decay_mult: 1
  }
  param {
    lr_mult: 2
    decay_mult: 0
  }
  convolution_param {
    num_output: 128
    kernel_size: 1
    weight_filler {
      type: "xavier"
      std: 0.03
    }
    bias_filler {
      type: "constant"
      value: 0.2
    }
  }
}
layer {
  name: "inception_4c/relu_1x1"
  type: "ReLU"
  bottom: "inception_4c/1x1"
  top: "inception_4c/1x1"
}
layer {
  name: "inception_4c/3x3_reduce"
  type: "Convolution"
  bottom: "inception_4b/output"
  top: "inception_4c/3x3_reduce"
  param {
    lr_mult: 1
    decay_mult: 1
  }
  param {
    lr_mult: 2
    decay_mult: 0
  }
  convolution_param {
    num_output: 128
    kernel_size: 1
    weight_filler {
      type: "xavier"
      std: 0.09
    }
    bias_filler {
      type: "constant"
      value: 0.2
    }
  }
}
layer {
  name: "inception_4c/relu_3x3_reduce"
  type: "ReLU"
  bottom: "inception_4c/3x3_reduce"
  top: "inception_4c/3x3_reduce"
}
layer {
  name: "inception_4c/3x3"
  type: "Convolution"
  bottom: "inception_4c/3x3_reduce"
  top: "inception_4c/3x3"
  param {
    lr_mult: 1
    decay_mult: 1
  }
  param {
    lr_mult: 2
    decay_mult: 0
  }
  convolution_param {
    num_output: 256
    pad: 1
    kernel_size: 3
    weight_filler {
      type: "xavier"
      std: 0.03
    }
    bias_filler {
      type: "constant"
      value: 0.2
    }
  }
}
layer {
  name: "inception_4c/relu_3x3"
  type: "ReLU"
  bottom: "inception_4c/3x3"
  top: "inception_4c/3x3"
}
layer {
  name: "inception_4c/5x5_reduce"
  type: "Convolution"
  bottom: "inception_4b/output"
  top: "inception_4c/5x5_reduce"
  param {
    lr_mult: 1
    decay_mult: 1
  }
  param {
    lr_mult: 2
    decay_mult: 0
  }
  convolution_param {
    num_output: 24
    kernel_size: 1
    weight_filler {
      type: "xavier"
      std: 0.2
    }
    bias_filler {
      type: "constant"
      value: 0.2
    }
  }
}
layer {
  name: "inception_4c/relu_5x5_reduce"
  type: "ReLU"
  bottom: "inception_4c/5x5_reduce"
  top: "inception_4c/5x5_reduce"
}
layer {
  name: "inception_4c/5x5"
  type: "Convolution"
  bottom: "inception_4c/5x5_reduce"
  top: "inception_4c/5x5"
  param {
    lr_mult: 1
    decay_mult: 1
  }
  param {
    lr_mult: 2
    decay_mult: 0
  }
  convolution_param {
    num_output: 64
    pad: 2
    kernel_size: 5
    weight_filler {
      type: "xavier"
      std: 0.03
    }
    bias_filler {
      type: "constant"
      value: 0.2
    }
  }
}
layer {
  name: "inception_4c/relu_5x5"
  type: "ReLU"
  bottom: "inception_4c/5x5"
  top: "inception_4c/5x5"
}
layer {
  name: "inception_4c/pool"
  type: "Pooling"
  bottom: "inception_4b/output"
  top: "inception_4c/pool"
  pooling_param {
    pool: MAX
    kernel_size: 3
    stride: 1
    pad: 1
  }
}
layer {
  name: "inception_4c/pool_proj"
  type: "Convolution"
  bottom: "inception_4c/pool"
  top: "inception_4c/pool_proj"
  param {
    lr_mult: 1
    decay_mult: 1
  }
  param {
    lr_mult: 2
    decay_mult: 0
  }
  convolution_param {
    num_output: 64
    kernel_size: 1
    weight_filler {
      type: "xavier"
      std: 0.1
    }
    bias_filler {
      type: "constant"
      value: 0.2
    }
  }
}
layer {
  name: "inception_4c/relu_pool_proj"
  type: "ReLU"
  bottom: "inception_4c/pool_proj"
  top: "inception_4c/pool_proj"
}
layer {
  name: "inception_4c/output"
  type: "Concat"
  bottom: "inception_4c/1x1"
  bottom: "inception_4c/3x3"
  bottom: "inception_4c/5x5"
  bottom: "inception_4c/pool_proj"
  top: "inception_4c/output"
}
layer {
  name: "inception_4d/1x1"
  type: "Convolution"
  bottom: "inception_4c/output"
  top: "inception_4d/1x1"
  param {
    lr_mult: 1
    decay_mult: 1
  }
  param {
    lr_mult: 2
    decay_mult: 0
  }
  convolution_param {
    num_output: 112
    kernel_size: 1
    weight_filler {
      type: "xavier"
      std: 0.03
    }
    bias_filler {
      type: "constant"
      value: 0.2
    }
  }
}
layer {
  name: "inception_4d/relu_1x1"
  type: "ReLU"
  bottom: "inception_4d/1x1"
  top: "inception_4d/1x1"
}
layer {
  name: "inception_4d/3x3_reduce"
  type: "Convolution"
  bottom: "inception_4c/output"
  top: "inception_4d/3x3_reduce"
  param {
    lr_mult: 1
    decay_mult: 1
  }
  param {
    lr_mult: 2
    decay_mult: 0
  }
  convolution_param {
    num_output: 144
    kernel_size: 1
    weight_filler {
      type: "xavier"
      std: 0.09
    }
    bias_filler {
      type: "constant"
      value: 0.2
    }
  }
}
layer {
  name: "inception_4d/relu_3x3_reduce"
  type: "ReLU"
  bottom: "inception_4d/3x3_reduce"
  top: "inception_4d/3x3_reduce"
}
layer {
  name: "inception_4d/3x3"
  type: "Convolution"
  bottom: "inception_4d/3x3_reduce"
  top: "inception_4d/3x3"
  param {
    lr_mult: 1
    decay_mult: 1
  }
  param {
    lr_mult: 2
    decay_mult: 0
  }
  convolution_param {
    num_output: 288
    pad: 1
    kernel_size: 3
    weight_filler {
      type: "xavier"
      std: 0.03
    }
    bias_filler {
      type: "constant"
      value: 0.2
    }
  }
}
layer {
  name: "inception_4d/relu_3x3"
  type: "ReLU"
  bottom: "inception_4d/3x3"
  top: "inception_4d/3x3"
}
layer {
  name: "inception_4d/5x5_reduce"
  type: "Convolution"
  bottom: "inception_4c/output"
  top: "inception_4d/5x5_reduce"
  param {
    lr_mult: 1
    decay_mult: 1
  }
  param {
    lr_mult: 2
    decay_mult: 0
  }
  convolution_param {
    num_output: 32
    kernel_size: 1
    weight_filler {
      type: "xavier"
      std: 0.2
    }
    bias_filler {
      type: "constant"
      value: 0.2
    }
  }
}
layer {
  name: "inception_4d/relu_5x5_reduce"
  type: "ReLU"
  bottom: "inception_4d/5x5_reduce"
  top: "inception_4d/5x5_reduce"
}
layer {
  name: "inception_4d/5x5"
  type: "Convolution"
  bottom: "inception_4d/5x5_reduce"
  top: "inception_4d/5x5"
  param {
    lr_mult: 1
    decay_mult: 1
  }
  param {
    lr_mult: 2
    decay_mult: 0
  }
  convolution_param {
    num_output: 64
    pad: 2
    kernel_size: 5
    weight_filler {
      type: "xavier"
      std: 0.03
    }
    bias_filler {
      type: "constant"
      value: 0.2
    }
  }
}
layer {
  name: "inception_4d/relu_5x5"
  type: "ReLU"
  bottom: "inception_4d/5x5"
  top: "inception_4d/5x5"
}
layer {
  name: "inception_4d/pool"
  type: "Pooling"
  bottom: "inception_4c/output"
  top: "inception_4d/pool"
  pooling_param {
    pool: MAX
    kernel_size: 3
    stride: 1
    pad: 1
  }
}
layer {
  name: "inception_4d/pool_proj"
  type: "Convolution"
  bottom: "inception_4d/pool"
  top: "inception_4d/pool_proj"
  param {
    lr_mult: 1
    decay_mult: 1
  }
  param {
    lr_mult: 2
    decay_mult: 0
  }
  convolution_param {
    num_output: 64
    kernel_size: 1
    weight_filler {
      type: "xavier"
      std: 0.1
    }
    bias_filler {
      type: "constant"
      value: 0.2
    }
  }
}
layer {
  name: "inception_4d/relu_pool_proj"
  type: "ReLU"
  bottom: "inception_4d/pool_proj"
  top: "inception_4d/pool_proj"
}
layer {
  name: "inception_4d/output"
  type: "Concat"
  bottom: "inception_4d/1x1"
  bottom: "inception_4d/3x3"
  bottom: "inception_4d/5x5"
  bottom: "inception_4d/pool_proj"
  top: "inception_4d/output"
}
layer {
  name: "loss2/ave_pool"
  type: "Pooling"
  bottom: "inception_4d/output"
  top: "loss2/ave_pool"
  pooling_param {
    pool: AVE
    kernel_size: 5
    stride: 3
  }
}
layer {
  name: "loss2/conv"
  type: "Convolution"
  bottom: "loss2/ave_pool"
  top: "loss2/conv"
  param {
    lr_mult: 1
    decay_mult: 1
  }
  param {
    lr_mult: 2
    decay_mult: 0
  }
  convolution_param {
    num_output: 128
    kernel_size: 1
    weight_filler {
      type: "xavier"
      std: 0.08
    }
    bias_filler {
      type: "constant"
      value: 0.2
    }
  }
}
layer {
  name: "loss2/relu_conv"
  type: "ReLU"
  bottom: "loss2/conv"
  top: "loss2/conv"
}
layer {
  name: "loss2/fc"
  type: "InnerProduct"
  bottom: "loss2/conv"
  top: "loss2/fc"
  param {
    lr_mult: 1
    decay_mult: 1
  }
  param {
    lr_mult: 2
    decay_mult: 0
  }
  inner_product_param {
    num_output: 1024
    weight_filler {
      type: "xavier"
      std: 0.02
    }
    bias_filler {
      type: "constant"
      value: 0.2
    }
  }
}
layer {
  name: "loss2/relu_fc"
  type: "ReLU"
  bottom: "loss2/fc"
  top: "loss2/fc"
}
layer {
  name: "loss2/drop_fc"
  type: "Dropout"
  bottom: "loss2/fc"
  top: "loss2/fc"
  dropout_param {
    dropout_ratio: 0.7
  }
}
layer {
  name: "loss2/classifier_plantvillage"
  type: "InnerProduct"
  bottom: "loss2/fc"
  top: "loss2/classifier_plantvillage"
  param {
    lr_mult: 1
    decay_mult: 1
  }
  param {
    lr_mult: 2
    decay_mult: 0
  }
  inner_product_param {
    num_output: 38
    weight_filler {
      type: "xavier"
      std: 0.0009765625
    }
    bias_filler {
      type: "constant"
      value: 0
    }
  }
}
layer {
  name: "inception_4e/1x1"
  type: "Convolution"
  bottom: "inception_4d/output"
  top: "inception_4e/1x1"
  param {
    lr_mult: 1
    decay_mult: 1
  }
  param {
    lr_mult: 2
    decay_mult: 0
  }
  convolution_param {
    num_output: 256
    kernel_size: 1
    weight_filler {
      type: "xavier"
      std: 0.03
    }
    bias_filler {
      type: "constant"
      value: 0.2
    }
  }
}
layer {
  name: "inception_4e/relu_1x1"
  type: "ReLU"
  bottom: "inception_4e/1x1"
  top: "inception_4e/1x1"
}
layer {
  name: "inception_4e/3x3_reduce"
  type: "Convolution"
  bottom: "inception_4d/output"
  top: "inception_4e/3x3_reduce"
  param {
    lr_mult: 1
    decay_mult: 1
  }
  param {
    lr_mult: 2
    decay_mult: 0
  }
  convolution_param {
    num_output: 160
    kernel_size: 1
    weight_filler {
      type: "xavier"
      std: 0.09
    }
    bias_filler {
      type: "constant"
      value: 0.2
    }
  }
}
layer {
  name: "inception_4e/relu_3x3_reduce"
  type: "ReLU"
  bottom: "inception_4e/3x3_reduce"
  top: "inception_4e/3x3_reduce"
}
layer {
  name: "inception_4e/3x3"
  type: "Convolution"
  bottom: "inception_4e/3x3_reduce"
  top: "inception_4e/3x3"
  param {
    lr_mult: 1
    decay_mult: 1
  }
  param {
    lr_mult: 2
    decay_mult: 0
  }
  convolution_param {
    num_output: 320
    pad: 1
    kernel_size: 3
    weight_filler {
      type: "xavier"
      std: 0.03
    }
    bias_filler {
      type: "constant"
      value: 0.2
    }
  }
}
layer {
  name: "inception_4e/relu_3x3"
  type: "ReLU"
  bottom: "inception_4e/3x3"
  top: "inception_4e/3x3"
}
layer {
  name: "inception_4e/5x5_reduce"
  type: "Convolution"
  bottom: "inception_4d/output"
  top: "inception_4e/5x5_reduce"
  param {
    lr_mult: 1
    decay_mult: 1
  }
  param {
    lr_mult: 2
    decay_mult: 0
  }
  convolution_param {
    num_output: 32
    kernel_size: 1
    weight_filler {
      type: "xavier"
      std: 0.2
    }
    bias_filler {
      type: "constant"
      value: 0.2
    }
  }
}
layer {
  name: "inception_4e/relu_5x5_reduce"
  type: "ReLU"
  bottom: "inception_4e/5x5_reduce"
  top: "inception_4e/5x5_reduce"
}
layer {
  name: "inception_4e/5x5"
  type: "Convolution"
  bottom: "inception_4e/5x5_reduce"
  top: "inception_4e/
I0403 13:56:37.529964 12276 layer_factory.hpp:77] Creating layer data
I0403 13:56:37.530591 12276 net.cpp:91] Creating Layer data
I0403 13:56:37.530633 12276 net.cpp:399] data -> data
I0403 13:56:37.530685 12276 net.cpp:399] data -> label
I0403 13:56:37.530722 12276 data_transformer.cpp:25] Loading mean file from: /home/mohanty/data/final_dataset/lmdb/segmented-20-80/mean.binaryproto
I0403 13:56:37.536355 12281 db_lmdb.cpp:38] Opened lmdb /home/mohanty/data/final_dataset/lmdb/segmented-20-80/test_db
I0403 13:56:37.543912 12276 data_layer.cpp:41] output data size: 24,3,224,224
I0403 13:56:37.570796 12276 net.cpp:141] Setting up data
I0403 13:56:37.570886 12276 net.cpp:148] Top shape: 24 3 224 224 (3612672)
I0403 13:56:37.570909 12276 net.cpp:148] Top shape: 24 (24)
I0403 13:56:37.570925 12276 net.cpp:156] Memory required for data: 14450784
I0403 13:56:37.570953 12276 layer_factory.hpp:77] Creating layer label_data_1_split
I0403 13:56:37.570981 12276 net.cpp:91] Creating Layer label_data_1_split
I0403 13:56:37.571001 12276 net.cpp:425] label_data_1_split <- label
I0403 13:56:37.571033 12276 net.cpp:399] label_data_1_split -> label_data_1_split_0
I0403 13:56:37.571063 12276 net.cpp:399] label_data_1_split -> label_data_1_split_1
I0403 13:56:37.571084 12276 net.cpp:399] label_data_1_split -> label_data_1_split_2
I0403 13:56:37.571105 12276 net.cpp:399] label_data_1_split -> label_data_1_split_3
I0403 13:56:37.571125 12276 net.cpp:399] label_data_1_split -> label_data_1_split_4
I0403 13:56:37.571146 12276 net.cpp:399] label_data_1_split -> label_data_1_split_5
I0403 13:56:37.571166 12276 net.cpp:399] label_data_1_split -> label_data_1_split_6
I0403 13:56:37.571187 12276 net.cpp:399] label_data_1_split -> label_data_1_split_7
I0403 13:56:37.571208 12276 net.cpp:399] label_data_1_split -> label_data_1_split_8
I0403 13:56:37.571228 12276 net.cpp:399] label_data_1_split -> label_data_1_split_9
I0403 13:56:37.571346 12276 net.cpp:141] Setting up label_data_1_split
I0403 13:56:37.571369 12276 net.cpp:148] Top shape: 24 (24)
I0403 13:56:37.571387 12276 net.cpp:148] Top shape: 24 (24)
I0403 13:56:37.571401 12276 net.cpp:148] Top shape: 24 (24)
I0403 13:56:37.571418 12276 net.cpp:148] Top shape: 24 (24)
I0403 13:56:37.571432 12276 net.cpp:148] Top shape: 24 (24)
I0403 13:56:37.571447 12276 net.cpp:148] Top shape: 24 (24)
I0403 13:56:37.571463 12276 net.cpp:148] Top shape: 24 (24)
I0403 13:56:37.571478 12276 net.cpp:148] Top shape: 24 (24)
I0403 13:56:37.571493 12276 net.cpp:148] Top shape: 24 (24)
I0403 13:56:37.571509 12276 net.cpp:148] Top shape: 24 (24)
I0403 13:56:37.571562 12276 net.cpp:156] Memory required for data: 14451744
I0403 13:56:37.571578 12276 layer_factory.hpp:77] Creating layer conv1/7x7_s2
I0403 13:56:37.571614 12276 net.cpp:91] Creating Layer conv1/7x7_s2
I0403 13:56:37.571633 12276 net.cpp:425] conv1/7x7_s2 <- data
I0403 13:56:37.571652 12276 net.cpp:399] conv1/7x7_s2 -> conv1/7x7_s2
I0403 13:56:37.713769 12276 net.cpp:141] Setting up conv1/7x7_s2
I0403 13:56:37.713848 12276 net.cpp:148] Top shape: 24 64 112 112 (19267584)
I0403 13:56:37.713865 12276 net.cpp:156] Memory required for data: 91522080
I0403 13:56:37.713896 12276 layer_factory.hpp:77] Creating layer conv1/relu_7x7
I0403 13:56:37.713922 12276 net.cpp:91] Creating Layer conv1/relu_7x7
I0403 13:56:37.713939 12276 net.cpp:425] conv1/relu_7x7 <- conv1/7x7_s2
I0403 13:56:37.713958 12276 net.cpp:386] conv1/relu_7x7 -> conv1/7x7_s2 (in-place)
I0403 13:56:37.714207 12276 net.cpp:141] Setting up conv1/relu_7x7
I0403 13:56:37.714233 12276 net.cpp:148] Top shape: 24 64 112 112 (19267584)
I0403 13:56:37.714248 12276 net.cpp:156] Memory required for data: 168592416
I0403 13:56:37.714263 12276 layer_factory.hpp:77] Creating layer pool1/3x3_s2
I0403 13:56:37.714287 12276 net.cpp:91] Creating Layer pool1/3x3_s2
I0403 13:56:37.714304 12276 net.cpp:425] pool1/3x3_s2 <- conv1/7x7_s2
I0403 13:56:37.714323 12276 net.cpp:399] pool1/3x3_s2 -> pool1/3x3_s2
I0403 13:56:37.714395 12276 net.cpp:141] Setting up pool1/3x3_s2
I0403 13:56:37.714419 12276 net.cpp:148] Top shape: 24 64 56 56 (4816896)
I0403 13:56:37.714434 12276 net.cpp:156] Memory required for data: 187860000
I0403 13:56:37.714448 12276 layer_factory.hpp:77] Creating layer pool1/norm1
I0403 13:56:37.714473 12276 net.cpp:91] Creating Layer pool1/norm1
I0403 13:56:37.714489 12276 net.cpp:425] pool1/norm1 <- pool1/3x3_s2
I0403 13:56:37.714506 12276 net.cpp:399] pool1/norm1 -> pool1/norm1
I0403 13:56:37.714807 12276 net.cpp:141] Setting up pool1/norm1
I0403 13:56:37.714838 12276 net.cpp:148] Top shape: 24 64 56 56 (4816896)
I0403 13:56:37.714854 12276 net.cpp:156] Memory required for data: 207127584
I0403 13:56:37.714867 12276 layer_factory.hpp:77] Creating layer conv2/3x3_reduce
I0403 13:56:37.714891 12276 net.cpp:91] Creating Layer conv2/3x3_reduce
I0403 13:56:37.714907 12276 net.cpp:425] conv2/3x3_reduce <- pool1/norm1
I0403 13:56:37.714926 12276 net.cpp:399] conv2/3x3_reduce -> conv2/3x3_reduce
I0403 13:56:37.716222 12276 net.cpp:141] Setting up conv2/3x3_reduce
I0403 13:56:37.716251 12276 net.cpp:148] Top shape: 24 64 56 56 (4816896)
I0403 13:56:37.716267 12276 net.cpp:156] Memory required for data: 226395168
I0403 13:56:37.716289 12276 layer_factory.hpp:77] Creating layer conv2/relu_3x3_reduce
I0403 13:56:37.716308 12276 net.cpp:91] Creating Layer conv2/relu_3x3_reduce
I0403 13:56:37.716325 12276 net.cpp:425] conv2/relu_3x3_reduce <- conv2/3x3_reduce
I0403 13:56:37.716341 12276 net.cpp:386] conv2/relu_3x3_reduce -> conv2/3x3_reduce (in-place)
I0403 13:56:37.716588 12276 net.cpp:141] Setting up conv2/relu_3x3_reduce
I0403 13:56:37.716616 12276 net.cpp:148] Top shape: 24 64 56 56 (4816896)
I0403 13:56:37.716632 12276 net.cpp:156] Memory required for data: 245662752
I0403 13:56:37.716646 12276 layer_factory.hpp:77] Creating layer conv2/3x3
I0403 13:56:37.716668 12276 net.cpp:91] Creating Layer conv2/3x3
I0403 13:56:37.716686 12276 net.cpp:425] conv2/3x3 <- conv2/3x3_reduce
I0403 13:56:37.716703 12276 net.cpp:399] conv2/3x3 -> conv2/3x3
I0403 13:56:37.718946 12276 net.cpp:141] Setting up conv2/3x3
I0403 13:56:37.718976 12276 net.cpp:148] Top shape: 24 192 56 56 (14450688)
I0403 13:56:37.719004 12276 net.cpp:156] Memory required for data: 303465504
I0403 13:56:37.719025 12276 layer_factory.hpp:77] Creating layer conv2/relu_3x3
I0403 13:56:37.719043 12276 net.cpp:91] Creating Layer conv2/relu_3x3
I0403 13:56:37.719059 12276 net.cpp:425] conv2/relu_3x3 <- conv2/3x3
I0403 13:56:37.719074 12276 net.cpp:386] conv2/relu_3x3 -> conv2/3x3 (in-place)
I0403 13:56:37.719230 12276 net.cpp:141] Setting up conv2/relu_3x3
I0403 13:56:37.719255 12276 net.cpp:148] Top shape: 24 192 56 56 (14450688)
I0403 13:56:37.719316 12276 net.cpp:156] Memory required for data: 361268256
I0403 13:56:37.719331 12276 layer_factory.hpp:77] Creating layer conv2/norm2
I0403 13:56:37.719350 12276 net.cpp:91] Creating Layer conv2/norm2
I0403 13:56:37.719367 12276 net.cpp:425] conv2/norm2 <- conv2/3x3
I0403 13:56:37.719393 12276 net.cpp:399] conv2/norm2 -> conv2/norm2
I0403 13:56:37.719678 12276 net.cpp:141] Setting up conv2/norm2
I0403 13:56:37.719704 12276 net.cpp:148] Top shape: 24 192 56 56 (14450688)
I0403 13:56:37.719720 12276 net.cpp:156] Memory required for data: 419071008
I0403 13:56:37.719735 12276 layer_factory.hpp:77] Creating layer pool2/3x3_s2
I0403 13:56:37.719754 12276 net.cpp:91] Creating Layer pool2/3x3_s2
I0403 13:56:37.719770 12276 net.cpp:425] pool2/3x3_s2 <- conv2/norm2
I0403 13:56:37.719787 12276 net.cpp:399] pool2/3x3_s2 -> pool2/3x3_s2
I0403 13:56:37.719835 12276 net.cpp:141] Setting up pool2/3x3_s2
I0403 13:56:37.719858 12276 net.cpp:148] Top shape: 24 192 28 28 (3612672)
I0403 13:56:37.719873 12276 net.cpp:156] Memory required for data: 433521696
I0403 13:56:37.719888 12276 layer_factory.hpp:77] Creating layer pool2/3x3_s2_pool2/3x3_s2_0_split
I0403 13:56:37.719905 12276 net.cpp:91] Creating Layer pool2/3x3_s2_pool2/3x3_s2_0_split
I0403 13:56:37.719920 12276 net.cpp:425] pool2/3x3_s2_pool2/3x3_s2_0_split <- pool2/3x3_s2
I0403 13:56:37.719936 12276 net.cpp:399] pool2/3x3_s2_pool2/3x3_s2_0_split -> pool2/3x3_s2_pool2/3x3_s2_0_split_0
I0403 13:56:37.719955 12276 net.cpp:399] pool2/3x3_s2_pool2/3x3_s2_0_split -> pool2/3x3_s2_pool2/3x3_s2_0_split_1
I0403 13:56:37.719975 12276 net.cpp:399] pool2/3x3_s2_pool2/3x3_s2_0_split -> pool2/3x3_s2_pool2/3x3_s2_0_split_2
I0403 13:56:37.719993 12276 net.cpp:399] pool2/3x3_s2_pool2/3x3_s2_0_split -> pool2/3x3_s2_pool2/3x3_s2_0_split_3
I0403 13:56:37.720055 12276 net.cpp:141] Setting up pool2/3x3_s2_pool2/3x3_s2_0_split
I0403 13:56:37.720077 12276 net.cpp:148] Top shape: 24 192 28 28 (3612672)
I0403 13:56:37.720093 12276 net.cpp:148] Top shape: 24 192 28 28 (3612672)
I0403 13:56:37.720108 12276 net.cpp:148] Top shape: 24 192 28 28 (3612672)
I0403 13:56:37.720124 12276 net.cpp:148] Top shape: 24 192 28 28 (3612672)
I0403 13:56:37.720137 12276 net.cpp:156] Memory required for data: 491324448
I0403 13:56:37.720151 12276 layer_factory.hpp:77] Creating layer inception_3a/1x1
I0403 13:56:37.720172 12276 net.cpp:91] Creating Layer inception_3a/1x1
I0403 13:56:37.720191 12276 net.cpp:425] inception_3a/1x1 <- pool2/3x3_s2_pool2/3x3_s2_0_split_0
I0403 13:56:37.720208 12276 net.cpp:399] inception_3a/1x1 -> inception_3a/1x1
I0403 13:56:37.721714 12276 net.cpp:141] Setting up inception_3a/1x1
I0403 13:56:37.721742 12276 net.cpp:148] Top shape: 24 64 28 28 (1204224)
I0403 13:56:37.721760 12276 net.cpp:156] Memory required for data: 496141344
I0403 13:56:37.721777 12276 layer_factory.hpp:77] Creating layer inception_3a/relu_1x1
I0403 13:56:37.721796 12276 net.cpp:91] Creating Layer inception_3a/relu_1x1
I0403 13:56:37.721812 12276 net.cpp:425] inception_3a/relu_1x1 <- inception_3a/1x1
I0403 13:56:37.721829 12276 net.cpp:386] inception_3a/relu_1x1 -> inception_3a/1x1 (in-place)
I0403 13:56:37.721999 12276 net.cpp:141] Setting up inception_3a/relu_1x1
I0403 13:56:37.722024 12276 net.cpp:148] Top shape: 24 64 28 28 (1204224)
I0403 13:56:37.722038 12276 net.cpp:156] Memory required for data: 500958240
I0403 13:56:37.722053 12276 layer_factory.hpp:77] Creating layer inception_3a/3x3_reduce
I0403 13:56:37.722075 12276 net.cpp:91] Creating Layer inception_3a/3x3_reduce
I0403 13:56:37.722092 12276 net.cpp:425] inception_3a/3x3_reduce <- pool2/3x3_s2_pool2/3x3_s2_0_split_1
I0403 13:56:37.722113 12276 net.cpp:399] inception_3a/3x3_reduce -> inception_3a/3x3_reduce
I0403 13:56:37.723819 12276 net.cpp:141] Setting up inception_3a/3x3_reduce
I0403 13:56:37.723848 12276 net.cpp:148] Top shape: 24 96 28 28 (1806336)
I0403 13:56:37.723865 12276 net.cpp:156] Memory required for data: 508183584
I0403 13:56:37.723886 12276 layer_factory.hpp:77] Creating layer inception_3a/relu_3x3_reduce
I0403 13:56:37.723927 12276 net.cpp:91] Creating Layer inception_3a/relu_3x3_reduce
I0403 13:56:37.723945 12276 net.cpp:425] inception_3a/relu_3x3_reduce <- inception_3a/3x3_reduce
I0403 13:56:37.723963 12276 net.cpp:386] inception_3a/relu_3x3_reduce -> inception_3a/3x3_reduce (in-place)
I0403 13:56:37.724143 12276 net.cpp:141] Setting up inception_3a/relu_3x3_reduce
I0403 13:56:37.724167 12276 net.cpp:148] Top shape: 24 96 28 28 (1806336)
I0403 13:56:37.724181 12276 net.cpp:156] Memory required for data: 515408928
I0403 13:56:37.724195 12276 layer_factory.hpp:77] Creating layer inception_3a/3x3
I0403 13:56:37.724217 12276 net.cpp:91] Creating Layer inception_3a/3x3
I0403 13:56:37.724234 12276 net.cpp:425] inception_3a/3x3 <- inception_3a/3x3_reduce
I0403 13:56:37.724256 12276 net.cpp:399] inception_3a/3x3 -> inception_3a/3x3
I0403 13:56:37.725908 12276 net.cpp:141] Setting up inception_3a/3x3
I0403 13:56:37.725937 12276 net.cpp:148] Top shape: 24 128 28 28 (2408448)
I0403 13:56:37.725955 12276 net.cpp:156] Memory required for data: 525042720
I0403 13:56:37.725975 12276 layer_factory.hpp:77] Creating layer inception_3a/relu_3x3
I0403 13:56:37.725994 12276 net.cpp:91] Creating Layer inception_3a/relu_3x3
I0403 13:56:37.726011 12276 net.cpp:425] inception_3a/relu_3x3 <- inception_3a/3x3
I0403 13:56:37.726027 12276 net.cpp:386] inception_3a/relu_3x3 -> inception_3a/3x3 (in-place)
I0403 13:56:37.726297 12276 net.cpp:141] Setting up inception_3a/relu_3x3
I0403 13:56:37.726325 12276 net.cpp:148] Top shape: 24 128 28 28 (2408448)
I0403 13:56:37.726338 12276 net.cpp:156] Memory required for data: 534676512
I0403 13:56:37.726353 12276 layer_factory.hpp:77] Creating layer inception_3a/5x5_reduce
I0403 13:56:37.726377 12276 net.cpp:91] Creating Layer inception_3a/5x5_reduce
I0403 13:56:37.726395 12276 net.cpp:425] inception_3a/5x5_reduce <- pool2/3x3_s2_pool2/3x3_s2_0_split_2
I0403 13:56:37.726415 12276 net.cpp:399] inception_3a/5x5_reduce -> inception_3a/5x5_reduce
I0403 13:56:37.727375 12276 net.cpp:141] Setting up inception_3a/5x5_reduce
I0403 13:56:37.727404 12276 net.cpp:148] Top shape: 24 16 28 28 (301056)
I0403 13:56:37.727421 12276 net.cpp:156] Memory required for data: 535880736
I0403 13:56:37.727439 12276 layer_factory.hpp:77] Creating layer inception_3a/relu_5x5_reduce
I0403 13:56:37.727461 12276 net.cpp:91] Creating Layer inception_3a/relu_5x5_reduce
I0403 13:56:37.727479 12276 net.cpp:425] inception_3a/relu_5x5_reduce <- inception_3a/5x5_reduce
I0403 13:56:37.727497 12276 net.cpp:386] inception_3a/relu_5x5_reduce -> inception_3a/5x5_reduce (in-place)
I0403 13:56:37.727793 12276 net.cpp:141] Setting up inception_3a/relu_5x5_reduce
I0403 13:56:37.727821 12276 net.cpp:148] Top shape: 24 16 28 28 (301056)
I0403 13:56:37.727838 12276 net.cpp:156] Memory required for data: 537084960
I0403 13:56:37.727851 12276 layer_factory.hpp:77] Creating layer inception_3a/5x5
I0403 13:56:37.727871 12276 net.cpp:91] Creating Layer inception_3a/5x5
I0403 13:56:37.727887 12276 net.cpp:425] inception_3a/5x5 <- inception_3a/5x5_reduce
I0403 13:56:37.727907 12276 net.cpp:399] inception_3a/5x5 -> inception_3a/5x5
I0403 13:56:37.728924 12276 net.cpp:141] Setting up inception_3a/5x5
I0403 13:56:37.728952 12276 net.cpp:148] Top shape: 24 32 28 28 (602112)
I0403 13:56:37.728967 12276 net.cpp:156] Memory required for data: 539493408
I0403 13:56:37.728986 12276 layer_factory.hpp:77] Creating layer inception_3a/relu_5x5
I0403 13:56:37.729006 12276 net.cpp:91] Creating Layer inception_3a/relu_5x5
I0403 13:56:37.729022 12276 net.cpp:425] inception_3a/relu_5x5 <- inception_3a/5x5
I0403 13:56:37.729039 12276 net.cpp:386] inception_3a/relu_5x5 -> inception_3a/5x5 (in-place)
I0403 13:56:37.729209 12276 net.cpp:141] Setting up inception_3a/relu_5x5
I0403 13:56:37.729233 12276 net.cpp:148] Top shape: 24 32 28 28 (602112)
I0403 13:56:37.729249 12276 net.cpp:156] Memory required for data: 541901856
I0403 13:56:37.729262 12276 layer_factory.hpp:77] Creating layer inception_3a/pool
I0403 13:56:37.729281 12276 net.cpp:91] Creating Layer inception_3a/pool
I0403 13:56:37.729315 12276 net.cpp:425] inception_3a/pool <- pool2/3x3_s2_pool2/3x3_s2_0_split_3
I0403 13:56:37.729334 12276 net.cpp:399] inception_3a/pool -> inception_3a/pool
I0403 13:56:37.729390 12276 net.cpp:141] Setting up inception_3a/pool
I0403 13:56:37.729414 12276 net.cpp:148] Top shape: 24 192 28 28 (3612672)
I0403 13:56:37.729429 12276 net.cpp:156] Memory required for data: 556352544
I0403 13:56:37.729444 12276 layer_factory.hpp:77] Creating layer inception_3a/pool_proj
I0403 13:56:37.729465 12276 net.cpp:91] Creating Layer inception_3a/pool_proj
I0403 13:56:37.729482 12276 net.cpp:425] inception_3a/pool_proj <- inception_3a/pool
I0403 13:56:37.729503 12276 net.cpp:399] inception_3a/pool_proj -> inception_3a/pool_proj
I0403 13:56:37.730473 12276 net.cpp:141] Setting up inception_3a/pool_proj
I0403 13:56:37.730505 12276 net.cpp:148] Top shape: 24 32 28 28 (602112)
I0403 13:56:37.730522 12276 net.cpp:156] Memory required for data: 558760992
I0403 13:56:37.730550 12276 layer_factory.hpp:77] Creating layer inception_3a/relu_pool_proj
I0403 13:56:37.730586 12276 net.cpp:91] Creating Layer inception_3a/relu_pool_proj
I0403 13:56:37.730602 12276 net.cpp:425] inception_3a/relu_pool_proj <- inception_3a/pool_proj
I0403 13:56:37.730618 12276 net.cpp:386] inception_3a/relu_pool_proj -> inception_3a/pool_proj (in-place)
I0403 13:56:37.730890 12276 net.cpp:141] Setting up inception_3a/relu_pool_proj
I0403 13:56:37.730916 12276 net.cpp:148] Top shape: 24 32 28 28 (602112)
I0403 13:56:37.730931 12276 net.cpp:156] Memory required for data: 561169440
I0403 13:56:37.730945 12276 layer_factory.hpp:77] Creating layer inception_3a/output
I0403 13:56:37.730963 12276 net.cpp:91] Creating Layer inception_3a/output
I0403 13:56:37.730978 12276 net.cpp:425] inception_3a/output <- inception_3a/1x1
I0403 13:56:37.730998 12276 net.cpp:425] inception_3a/output <- inception_3a/3x3
I0403 13:56:37.731014 12276 net.cpp:425] inception_3a/output <- inception_3a/5x5
I0403 13:56:37.731029 12276 net.cpp:425] inception_3a/output <- inception_3a/pool_proj
I0403 13:56:37.731045 12276 net.cpp:399] inception_3a/output -> inception_3a/output
I0403 13:56:37.731089 12276 net.cpp:141] Setting up inception_3a/output
I0403 13:56:37.731114 12276 net.cpp:148] Top shape: 24 256 28 28 (4816896)
I0403 13:56:37.731129 12276 net.cpp:156] Memory required for data: 580437024
I0403 13:56:37.731143 12276 layer_factory.hpp:77] Creating layer inception_3a/output_inception_3a/output_0_split
I0403 13:56:37.731160 12276 net.cpp:91] Creating Layer inception_3a/output_inception_3a/output_0_split
I0403 13:56:37.731176 12276 net.cpp:425] inception_3a/output_inception_3a/output_0_split <- inception_3a/output
I0403 13:56:37.731195 12276 net.cpp:399] inception_3a/output_inception_3a/output_0_split -> inception_3a/output_inception_3a/output_0_split_0
I0403 13:56:37.731215 12276 net.cpp:399] inception_3a/output_inception_3a/output_0_split -> inception_3a/output_inception_3a/output_0_split_1
I0403 13:56:37.731237 12276 net.cpp:399] inception_3a/output_inception_3a/output_0_split -> inception_3a/output_inception_3a/output_0_split_2
I0403 13:56:37.731257 12276 net.cpp:399] inception_3a/output_inception_3a/output_0_split -> inception_3a/output_inception_3a/output_0_split_3
I0403 13:56:37.731329 12276 net.cpp:141] Setting up inception_3a/output_inception_3a/output_0_split
I0403 13:56:37.731351 12276 net.cpp:148] Top shape: 24 256 28 28 (4816896)
I0403 13:56:37.731367 12276 net.cpp:148] Top shape: 24 256 28 28 (4816896)
I0403 13:56:37.731384 12276 net.cpp:148] Top shape: 24 256 28 28 (4816896)
I0403 13:56:37.731398 12276 net.cpp:148] Top shape: 24 256 28 28 (4816896)
I0403 13:56:37.731411 12276 net.cpp:156] Memory required for data: 657507360
I0403 13:56:37.731426 12276 layer_factory.hpp:77] Creating layer inception_3b/1x1
I0403 13:56:37.731447 12276 net.cpp:91] Creating Layer inception_3b/1x1
I0403 13:56:37.731464 12276 net.cpp:425] inception_3b/1x1 <- inception_3a/output_inception_3a/output_0_split_0
I0403 13:56:37.731485 12276 net.cpp:399] inception_3b/1x1 -> inception_3b/1x1
I0403 13:56:37.732609 12276 net.cpp:141] Setting up inception_3b/1x1
I0403 13:56:37.732650 12276 net.cpp:148] Top shape: 24 128 28 28 (2408448)
I0403 13:56:37.732667 12276 net.cpp:156] Memory required for data: 667141152
I0403 13:56:37.732686 12276 layer_factory.hpp:77] Creating layer inception_3b/relu_1x1
I0403 13:56:37.732703 12276 net.cpp:91] Creating Layer inception_3b/relu_1x1
I0403 13:56:37.732719 12276 net.cpp:425] inception_3b/relu_1x1 <- inception_3b/1x1
I0403 13:56:37.732739 12276 net.cpp:386] inception_3b/relu_1x1 -> inception_3b/1x1 (in-place)
I0403 13:56:37.732915 12276 net.cpp:141] Setting up inception_3b/relu_1x1
I0403 13:56:37.732940 12276 net.cpp:148] Top shape: 24 128 28 28 (2408448)
I0403 13:56:37.732954 12276 net.cpp:156] Memory required for data: 676774944
I0403 13:56:37.732969 12276 layer_factory.hpp:77] Creating layer inception_3b/3x3_reduce
I0403 13:56:37.732990 12276 net.cpp:91] Creating Layer inception_3b/3x3_reduce
I0403 13:56:37.733007 12276 net.cpp:425] inception_3b/3x3_reduce <- inception_3a/output_inception_3a/output_0_split_1
I0403 13:56:37.733028 12276 net.cpp:399] inception_3b/3x3_reduce -> inception_3b/3x3_reduce
I0403 13:56:37.734146 12276 net.cpp:141] Setting up inception_3b/3x3_reduce
I0403 13:56:37.734176 12276 net.cpp:148] Top shape: 24 128 28 28 (2408448)
I0403 13:56:37.734194 12276 net.cpp:156] Memory required for data: 686408736
I0403 13:56:37.734210 12276 layer_factory.hpp:77] Creating layer inception_3b/relu_3x3_reduce
I0403 13:56:37.734228 12276 net.cpp:91] Creating Layer inception_3b/relu_3x3_reduce
I0403 13:56:37.734244 12276 net.cpp:425] inception_3b/relu_3x3_reduce <- inception_3b/3x3_reduce
I0403 13:56:37.734263 12276 net.cpp:386] inception_3b/relu_3x3_reduce -> inception_3b/3x3_reduce (in-place)
I0403 13:56:37.734433 12276 net.cpp:141] Setting up inception_3b/relu_3x3_reduce
I0403 13:56:37.734457 12276 net.cpp:148] Top shape: 24 128 28 28 (2408448)
I0403 13:56:37.734472 12276 net.cpp:156] Memory required for data: 696042528
I0403 13:56:37.734486 12276 layer_factory.hpp:77] Creating layer inception_3b/3x3
I0403 13:56:37.734511 12276 net.cpp:91] Creating Layer inception_3b/3x3
I0403 13:56:37.734529 12276 net.cpp:425] inception_3b/3x3 <- inception_3b/3x3_reduce
I0403 13:56:37.734561 12276 net.cpp:399] inception_3b/3x3 -> inception_3b/3x3
I0403 13:56:37.737457 12276 net.cpp:141] Setting up inception_3b/3x3
I0403 13:56:37.737486 12276 net.cpp:148] Top shape: 24 192 28 28 (3612672)
I0403 13:56:37.737504 12276 net.cpp:156] Memory required for data: 710493216
I0403 13:56:37.737520 12276 layer_factory.hpp:77] Creating layer inception_3b/relu_3x3
I0403 13:56:37.737548 12276 net.cpp:91] Creating Layer inception_3b/relu_3x3
I0403 13:56:37.737568 12276 net.cpp:425] inception_3b/relu_3x3 <- inception_3b/3x3
I0403 13:56:37.737586 12276 net.cpp:386] inception_3b/relu_3x3 -> inception_3b/3x3 (in-place)
I0403 13:56:37.737864 12276 net.cpp:141] Setting up inception_3b/relu_3x3
I0403 13:56:37.737891 12276 net.cpp:148] Top shape: 24 192 28 28 (3612672)
I0403 13:56:37.737906 12276 net.cpp:156] Memory required for data: 724943904
I0403 13:56:37.737922 12276 layer_factory.hpp:77] Creating layer inception_3b/5x5_reduce
I0403 13:56:37.737944 12276 net.cpp:91] Creating Layer inception_3b/5x5_reduce
I0403 13:56:37.737963 12276 net.cpp:425] inception_3b/5x5_reduce <- inception_3a/output_inception_3a/output_0_split_2
I0403 13:56:37.737987 12276 net.cpp:399] inception_3b/5x5_reduce -> inception_3b/5x5_reduce
I0403 13:56:37.739004 12276 net.cpp:141] Setting up inception_3b/5x5_reduce
I0403 13:56:37.739032 12276 net.cpp:148] Top shape: 24 32 28 28 (602112)
I0403 13:56:37.739049 12276 net.cpp:156] Memory required for data: 727352352
I0403 13:56:37.739068 12276 layer_factory.hpp:77] Creating layer inception_3b/relu_5x5_reduce
I0403 13:56:37.739089 12276 net.cpp:91] Creating Layer inception_3b/relu_5x5_reduce
I0403 13:56:37.739107 12276 net.cpp:425] inception_3b/relu_5x5_reduce <- inception_3b/5x5_reduce
I0403 13:56:37.739125 12276 net.cpp:386] inception_3b/relu_5x5_reduce -> inception_3b/5x5_reduce (in-place)
I0403 13:56:37.739313 12276 net.cpp:141] Setting up inception_3b/relu_5x5_reduce
I0403 13:56:37.739339 12276 net.cpp:148] Top shape: 24 32 28 28 (602112)
I0403 13:56:37.739354 12276 net.cpp:156] Memory required for data: 729760800
I0403 13:56:37.739369 12276 layer_factory.hpp:77] Creating layer inception_3b/5x5
I0403 13:56:37.739392 12276 net.cpp:91] Creating Layer inception_3b/5x5
I0403 13:56:37.739411 12276 net.cpp:425] inception_3b/5x5 <- inception_3b/5x5_reduce
I0403 13:56:37.739430 12276 net.cpp:399] inception_3b/5x5 -> inception_3b/5x5
I0403 13:56:37.741395 12276 net.cpp:141] Setting up inception_3b/5x5
I0403 13:56:37.741427 12276 net.cpp:148] Top shape: 24 96 28 28 (1806336)
I0403 13:56:37.741446 12276 net.cpp:156] Memory required for data: 736986144
I0403 13:56:37.741464 12276 layer_factory.hpp:77] Creating layer inception_3b/relu_5x5
I0403 13:56:37.741482 12276 net.cpp:91] Creating Layer inception_3b/relu_5x5
I0403 13:56:37.741498 12276 net.cpp:425] inception_3b/relu_5x5 <- inception_3b/5x5
I0403 13:56:37.741518 12276 net.cpp:386] inception_3b/relu_5x5 -> inception_3b/5x5 (in-place)
I0403 13:56:37.741709 12276 net.cpp:141] Setting up inception_3b/relu_5x5
I0403 13:56:37.741736 12276 net.cpp:148] Top shape: 24 96 28 28 (1806336)
I0403 13:56:37.741751 12276 net.cpp:156] Memory required for data: 744211488
I0403 13:56:37.741766 12276 layer_factory.hpp:77] Creating layer inception_3b/pool
I0403 13:56:37.741786 12276 net.cpp:91] Creating Layer inception_3b/pool
I0403 13:56:37.741801 12276 net.cpp:425] inception_3b/pool <- inception_3a/output_inception_3a/output_0_split_3
I0403 13:56:37.741821 12276 net.cpp:399] inception_3b/pool -> inception_3b/pool
I0403 13:56:37.741878 12276 net.cpp:141] Setting up inception_3b/pool
I0403 13:56:37.741901 12276 net.cpp:148] Top shape: 24 256 28 28 (4816896)
I0403 13:56:37.741916 12276 net.cpp:156] Memory required for data: 763479072
I0403 13:56:37.741930 12276 layer_factory.hpp:77] Creating layer inception_3b/pool_proj
I0403 13:56:37.741955 12276 net.cpp:91] Creating Layer inception_3b/pool_proj
I0403 13:56:37.741973 12276 net.cpp:425] inception_3b/pool_proj <- inception_3b/pool
I0403 13:56:37.741992 12276 net.cpp:399] inception_3b/pool_proj -> inception_3b/pool_proj
I0403 13:56:37.743026 12276 net.cpp:141] Setting up inception_3b/pool_proj
I0403 13:56:37.743053 12276 net.cpp:148] Top shape: 24 64 28 28 (1204224)
I0403 13:56:37.743068 12276 net.cpp:156] Memory required for data: 768295968
I0403 13:56:37.743086 12276 layer_factory.hpp:77] Creating layer inception_3b/relu_pool_proj
I0403 13:56:37.743106 12276 net.cpp:91] Creating Layer inception_3b/relu_pool_proj
I0403 13:56:37.743124 12276 net.cpp:425] inception_3b/relu_pool_proj <- inception_3b/pool_proj
I0403 13:56:37.743139 12276 net.cpp:386] inception_3b/relu_pool_proj -> inception_3b/pool_proj (in-place)
I0403 13:56:37.743528 12276 net.cpp:141] Setting up inception_3b/relu_pool_proj
I0403 13:56:37.743558 12276 net.cpp:148] Top shape: 24 64 28 28 (1204224)
I0403 13:56:37.743574 12276 net.cpp:156] Memory required for data: 773112864
I0403 13:56:37.743588 12276 layer_factory.hpp:77] Creating layer inception_3b/output
I0403 13:56:37.743607 12276 net.cpp:91] Creating Layer inception_3b/output
I0403 13:56:37.743623 12276 net.cpp:425] inception_3b/output <- inception_3b/1x1
I0403 13:56:37.743640 12276 net.cpp:425] inception_3b/output <- inception_3b/3x3
I0403 13:56:37.743656 12276 net.cpp:425] inception_3b/output <- inception_3b/5x5
I0403 13:56:37.743671 12276 net.cpp:425] inception_3b/output <- inception_3b/pool_proj
I0403 13:56:37.743688 12276 net.cpp:399] inception_3b/output -> inception_3b/output
I0403 13:56:37.743732 12276 net.cpp:141] Setting up inception_3b/output
I0403 13:56:37.743755 12276 net.cpp:148] Top shape: 24 480 28 28 (9031680)
I0403 13:56:37.743769 12276 net.cpp:156] Memory required for data: 809239584
I0403 13:56:37.743784 12276 layer_factory.hpp:77] Creating layer pool3/3x3_s2
I0403 13:56:37.743803 12276 net.cpp:91] Creating Layer pool3/3x3_s2
I0403 13:56:37.743818 12276 net.cpp:425] pool3/3x3_s2 <- inception_3b/output
I0403 13:56:37.743852 12276 net.cpp:399] pool3/3x3_s2 -> pool3/3x3_s2
I0403 13:56:37.743911 12276 net.cpp:141] Setting up pool3/3x3_s2
I0403 13:56:37.743935 12276 net.cpp:148] Top shape: 24 480 14 14 (2257920)
I0403 13:56:37.743950 12276 net.cpp:156] Memory required for data: 818271264
I0403 13:56:37.743965 12276 layer_factory.hpp:77] Creating layer pool3/3x3_s2_pool3/3x3_s2_0_split
I0403 13:56:37.743981 12276 net.cpp:91] Creating Layer pool3/3x3_s2_pool3/3x3_s2_0_split
I0403 13:56:37.743996 12276 net.cpp:425] pool3/3x3_s2_pool3/3x3_s2_0_split <- pool3/3x3_s2
I0403 13:56:37.744012 12276 net.cpp:399] pool3/3x3_s2_pool3/3x3_s2_0_split -> pool3/3x3_s2_pool3/3x3_s2_0_split_0
I0403 13:56:37.744034 12276 net.cpp:399] pool3/3x3_s2_pool3/3x3_s2_0_split -> pool3/3x3_s2_pool3/3x3_s2_0_split_1
I0403 13:56:37.744055 12276 net.cpp:399] pool3/3x3_s2_pool3/3x3_s2_0_split -> pool3/3x3_s2_pool3/3x3_s2_0_split_2
I0403 13:56:37.744073 12276 net.cpp:399] pool3/3x3_s2_pool3/3x3_s2_0_split -> pool3/3x3_s2_pool3/3x3_s2_0_split_3
I0403 13:56:37.744148 12276 net.cpp:141] Setting up pool3/3x3_s2_pool3/3x3_s2_0_split
I0403 13:56:37.744171 12276 net.cpp:148] Top shape: 24 480 14 14 (2257920)
I0403 13:56:37.744187 12276 net.cpp:148] Top shape: 24 480 14 14 (2257920)
I0403 13:56:37.744201 12276 net.cpp:148] Top shape: 24 480 14 14 (2257920)
I0403 13:56:37.744216 12276 net.cpp:148] Top shape: 24 480 14 14 (2257920)
I0403 13:56:37.744230 12276 net.cpp:156] Memory required for data: 854397984
I0403 13:56:37.744243 12276 layer_factory.hpp:77] Creating layer inception_4a/1x1
I0403 13:56:37.744267 12276 net.cpp:91] Creating Layer inception_4a/1x1
I0403 13:56:37.744284 12276 net.cpp:425] inception_4a/1x1 <- pool3/3x3_s2_pool3/3x3_s2_0_split_0
I0403 13:56:37.744303 12276 net.cpp:399] inception_4a/1x1 -> inception_4a/1x1
I0403 13:56:37.745870 12276 net.cpp:141] Setting up inception_4a/1x1
I0403 13:56:37.745903 12276 net.cpp:148] Top shape: 24 192 14 14 (903168)
I0403 13:56:37.745919 12276 net.cpp:156] Memory required for data: 858010656
I0403 13:56:37.745937 12276 layer_factory.hpp:77] Creating layer inception_4a/relu_1x1
I0403 13:56:37.745956 12276 net.cpp:91] Creating Layer inception_4a/relu_1x1
I0403 13:56:37.745972 12276 net.cpp:425] inception_4a/relu_1x1 <- inception_4a/1x1
I0403 13:56:37.745992 12276 net.cpp:386] inception_4a/relu_1x1 -> inception_4a/1x1 (in-place)
I0403 13:56:37.746163 12276 net.cpp:141] Setting up inception_4a/relu_1x1
I0403 13:56:37.746187 12276 net.cpp:148] Top shape: 24 192 14 14 (903168)
I0403 13:56:37.746202 12276 net.cpp:156] Memory required for data: 861623328
I0403 13:56:37.746217 12276 layer_factory.hpp:77] Creating layer inception_4a/3x3_reduce
I0403 13:56:37.746238 12276 net.cpp:91] Creating Layer inception_4a/3x3_reduce
I0403 13:56:37.746255 12276 net.cpp:425] inception_4a/3x3_reduce <- pool3/3x3_s2_pool3/3x3_s2_0_split_1
I0403 13:56:37.746275 12276 net.cpp:399] inception_4a/3x3_reduce -> inception_4a/3x3_reduce
I0403 13:56:37.747548 12276 net.cpp:141] Setting up inception_4a/3x3_reduce
I0403 13:56:37.747581 12276 net.cpp:148] Top shape: 24 96 14 14 (451584)
I0403 13:56:37.747597 12276 net.cpp:156] Memory required for data: 863429664
I0403 13:56:37.747622 12276 layer_factory.hpp:77] Creating layer inception_4a/relu_3x3_reduce
I0403 13:56:37.747644 12276 net.cpp:91] Creating Layer inception_4a/relu_3x3_reduce
I0403 13:56:37.747663 12276 net.cpp:425] inception_4a/relu_3x3_reduce <- inception_4a/3x3_reduce
I0403 13:56:37.747679 12276 net.cpp:386] inception_4a/relu_3x3_reduce -> inception_4a/3x3_reduce (in-place)
I0403 13:56:37.747855 12276 net.cpp:141] Setting up inception_4a/relu_3x3_reduce
I0403 13:56:37.747880 12276 net.cpp:148] Top shape: 24 96 14 14 (451584)
I0403 13:56:37.747895 12276 net.cpp:156] Memory required for data: 865236000
I0403 13:56:37.747908 12276 layer_factory.hpp:77] Creating layer inception_4a/3x3
I0403 13:56:37.747931 12276 net.cpp:91] Creating Layer inception_4a/3x3
I0403 13:56:37.747948 12276 net.cpp:425] inception_4a/3x3 <- inception_4a/3x3_reduce
I0403 13:56:37.747968 12276 net.cpp:399] inception_4a/3x3 -> inception_4a/3x3
I0403 13:56:37.750629 12276 net.cpp:141] Setting up inception_4a/3x3
I0403 13:56:37.750661 12276 net.cpp:148] Top shape: 24 208 14 14 (978432)
I0403 13:56:37.750679 12276 net.cpp:156] Memory required for data: 869149728
I0403 13:56:37.750697 12276 layer_factory.hpp:77] Creating layer inception_4a/relu_3x3
I0403 13:56:37.750715 12276 net.cpp:91] Creating Layer inception_4a/relu_3x3
I0403 13:56:37.750733 12276 net.cpp:425] inception_4a/relu_3x3 <- inception_4a/3x3
I0403 13:56:37.750753 12276 net.cpp:386] inception_4a/relu_3x3 -> inception_4a/3x3 (in-place)
I0403 13:56:37.751029 12276 net.cpp:141] Setting up inception_4a/relu_3x3
I0403 13:56:37.751062 12276 net.cpp:148] Top shape: 24 208 14 14 (978432)
I0403 13:56:37.751080 12276 net.cpp:156] Memory required for data: 873063456
I0403 13:56:37.751094 12276 layer_factory.hpp:77] Creating layer inception_4a/5x5_reduce
I0403 13:56:37.751117 12276 net.cpp:91] Creating Layer inception_4a/5x5_reduce
I0403 13:56:37.751137 12276 net.cpp:425] inception_4a/5x5_reduce <- pool3/3x3_s2_pool3/3x3_s2_0_split_2
I0403 13:56:37.751159 12276 net.cpp:399] inception_4a/5x5_reduce -> inception_4a/5x5_reduce
I0403 13:56:37.752169 12276 net.cpp:141] Setting up inception_4a/5x5_reduce
I0403 13:56:37.752197 12276 net.cpp:148] Top shape: 24 16 14 14 (75264)
I0403 13:56:37.752213 12276 net.cpp:156] Memory required for data: 873364512
I0403 13:56:37.752230 12276 layer_factory.hpp:77] Creating layer inception_4a/relu_5x5_reduce
I0403 13:56:37.752250 12276 net.cpp:91] Creating Layer inception_4a/relu_5x5_reduce
I0403 13:56:37.752266 12276 net.cpp:425] inception_4a/relu_5x5_reduce <- inception_4a/5x5_reduce
I0403 13:56:37.752284 12276 net.cpp:386] inception_4a/relu_5x5_reduce -> inception_4a/5x5_reduce (in-place)
I0403 13:56:37.752459 12276 net.cpp:141] Setting up inception_4a/relu_5x5_reduce
I0403 13:56:37.752485 12276 net.cpp:148] Top shape: 24 16 14 14 (75264)
I0403 13:56:37.752498 12276 net.cpp:156] Memory required for data: 873665568
I0403 13:56:37.752512 12276 layer_factory.hpp:77] Creating layer inception_4a/5x5
I0403 13:56:37.752533 12276 net.cpp:91] Creating Layer inception_4a/5x5
I0403 13:56:37.752565 12276 net.cpp:425] inception_4a/5x5 <- inception_4a/5x5_reduce
I0403 13:56:37.752586 12276 net.cpp:399] inception_4a/5x5 -> inception_4a/5x5
I0403 13:56:37.753684 12276 net.cpp:141] Setting up inception_4a/5x5
I0403 13:56:37.753712 12276 net.cpp:148] Top shape: 24 48 14 14 (225792)
I0403 13:56:37.753727 12276 net.cpp:156] Memory required for data: 874568736
I0403 13:56:37.753744 12276 layer_factory.hpp:77] Creating layer inception_4a/relu_5x5
I0403 13:56:37.753764 12276 net.cpp:91] Creating Layer inception_4a/relu_5x5
I0403 13:56:37.753782 12276 net.cpp:425] inception_4a/relu_5x5 <- inception_4a/5x5
I0403 13:56:37.753798 12276 net.cpp:386] inception_4a/relu_5x5 -> inception_4a/5x5 (in-place)
I0403 13:56:37.753973 12276 net.cpp:141] Setting up inception_4a/relu_5x5
I0403 13:56:37.753999 12276 net.cpp:148] Top shape: 24 48 14 14 (225792)
I0403 13:56:37.754014 12276 net.cpp:156] Memory required for data: 875471904
I0403 13:56:37.754029 12276 layer_factory.hpp:77] Creating layer inception_4a/pool
I0403 13:56:37.754045 12276 net.cpp:91] Creating Layer inception_4a/pool
I0403 13:56:37.754061 12276 net.cpp:425] inception_4a/pool <- pool3/3x3_s2_pool3/3x3_s2_0_split_3
I0403 13:56:37.754081 12276 net.cpp:399] inception_4a/pool -> inception_4a/pool
I0403 13:56:37.754142 12276 net.cpp:141] Setting up inception_4a/pool
I0403 13:56:37.754165 12276 net.cpp:148] Top shape: 24 480 14 14 (2257920)
I0403 13:56:37.754180 12276 net.cpp:156] Memory required for data: 884503584
I0403 13:56:37.754194 12276 layer_factory.hpp:77] Creating layer inception_4a/pool_proj
I0403 13:56:37.754218 12276 net.cpp:91] Creating Layer inception_4a/pool_proj
I0403 13:56:37.754235 12276 net.cpp:425] inception_4a/pool_proj <- inception_4a/pool
I0403 13:56:37.754256 12276 net.cpp:399] inception_4a/pool_proj -> inception_4a/pool_proj
I0403 13:56:37.755412 12276 net.cpp:141] Setting up inception_4a/pool_proj
I0403 13:56:37.755445 12276 net.cpp:148] Top shape: 24 64 14 14 (301056)
I0403 13:56:37.755477 12276 net.cpp:156] Memory required for data: 885707808
I0403 13:56:37.755497 12276 layer_factory.hpp:77] Creating layer inception_4a/relu_pool_proj
I0403 13:56:37.755517 12276 net.cpp:91] Creating Layer inception_4a/relu_pool_proj
I0403 13:56:37.755533 12276 net.cpp:425] inception_4a/relu_pool_proj <- inception_4a/pool_proj
I0403 13:56:37.755556 12276 net.cpp:386] inception_4a/relu_pool_proj -> inception_4a/pool_proj (in-place)
I0403 13:56:37.755836 12276 net.cpp:141] Setting up inception_4a/relu_pool_proj
I0403 13:56:37.755866 12276 net.cpp:148] Top shape: 24 64 14 14 (301056)
I0403 13:56:37.755880 12276 net.cpp:156] Memory required for data: 886912032
I0403 13:56:37.755894 12276 layer_factory.hpp:77] Creating layer inception_4a/output
I0403 13:56:37.755911 12276 net.cpp:91] Creating Layer inception_4a/output
I0403 13:56:37.755925 12276 net.cpp:425] inception_4a/output <- inception_4a/1x1
I0403 13:56:37.755942 12276 net.cpp:425] inception_4a/output <- inception_4a/3x3
I0403 13:56:37.755959 12276 net.cpp:425] inception_4a/output <- inception_4a/5x5
I0403 13:56:37.755973 12276 net.cpp:425] inception_4a/output <- inception_4a/pool_proj
I0403 13:56:37.755990 12276 net.cpp:399] inception_4a/output -> inception_4a/output
I0403 13:56:37.756034 12276 net.cpp:141] Setting up inception_4a/output
I0403 13:56:37.756057 12276 net.cpp:148] Top shape: 24 512 14 14 (2408448)
I0403 13:56:37.756072 12276 net.cpp:156] Memory required for data: 896545824
I0403 13:56:37.756086 12276 layer_factory.hpp:77] Creating layer inception_4a/output_inception_4a/output_0_split
I0403 13:56:37.756105 12276 net.cpp:91] Creating Layer inception_4a/output_inception_4a/output_0_split
I0403 13:56:37.756120 12276 net.cpp:425] inception_4a/output_inception_4a/output_0_split <- inception_4a/output
I0403 13:56:37.756139 12276 net.cpp:399] inception_4a/output_inception_4a/output_0_split -> inception_4a/output_inception_4a/output_0_split_0
I0403 13:56:37.756157 12276 net.cpp:399] inception_4a/output_inception_4a/output_0_split -> inception_4a/output_inception_4a/output_0_split_1
I0403 13:56:37.756177 12276 net.cpp:399] inception_4a/output_inception_4a/output_0_split -> inception_4a/output_inception_4a/output_0_split_2
I0403 13:56:37.756197 12276 net.cpp:399] inception_4a/output_inception_4a/output_0_split -> inception_4a/output_inception_4a/output_0_split_3
I0403 13:56:37.756220 12276 net.cpp:399] inception_4a/output_inception_4a/output_0_split -> inception_4a/output_inception_4a/output_0_split_4
I0403 13:56:37.756314 12276 net.cpp:141] Setting up inception_4a/output_inception_4a/output_0_split
I0403 13:56:37.756337 12276 net.cpp:148] Top shape: 24 512 14 14 (2408448)
I0403 13:56:37.756353 12276 net.cpp:148] Top shape: 24 512 14 14 (2408448)
I0403 13:56:37.756368 12276 net.cpp:148] Top shape: 24 512 14 14 (2408448)
I0403 13:56:37.756383 12276 net.cpp:148] Top shape: 24 512 14 14 (2408448)
I0403 13:56:37.756398 12276 net.cpp:148] Top shape: 24 512 14 14 (2408448)
I0403 13:56:37.756412 12276 net.cpp:156] Memory required for data: 944714784
I0403 13:56:37.756427 12276 layer_factory.hpp:77] Creating layer loss1/ave_pool
I0403 13:56:37.756443 12276 net.cpp:91] Creating Layer loss1/ave_pool
I0403 13:56:37.756458 12276 net.cpp:425] loss1/ave_pool <- inception_4a/output_inception_4a/output_0_split_0
I0403 13:56:37.756479 12276 net.cpp:399] loss1/ave_pool -> loss1/ave_pool
I0403 13:56:37.756685 12276 net.cpp:141] Setting up loss1/ave_pool
I0403 13:56:37.756713 12276 net.cpp:148] Top shape: 24 512 4 4 (196608)
I0403 13:56:37.756728 12276 net.cpp:156] Memory required for data: 945501216
I0403 13:56:37.756742 12276 layer_factory.hpp:77] Creating layer loss1/conv
I0403 13:56:37.756764 12276 net.cpp:91] Creating Layer loss1/conv
I0403 13:56:37.756781 12276 net.cpp:425] loss1/conv <- loss1/ave_pool
I0403 13:56:37.756800 12276 net.cpp:399] loss1/conv -> loss1/conv
I0403 13:56:37.758213 12276 net.cpp:141] Setting up loss1/conv
I0403 13:56:37.758242 12276 net.cpp:148] Top shape: 24 128 4 4 (49152)
I0403 13:56:37.758272 12276 net.cpp:156] Memory required for data: 945697824
I0403 13:56:37.758291 12276 layer_factory.hpp:77] Creating layer loss1/relu_conv
I0403 13:56:37.758308 12276 net.cpp:91] Creating Layer loss1/relu_conv
I0403 13:56:37.758324 12276 net.cpp:425] loss1/relu_conv <- loss1/conv
I0403 13:56:37.758343 12276 net.cpp:386] loss1/relu_conv -> loss1/conv (in-place)
I0403 13:56:37.758627 12276 net.cpp:141] Setting up loss1/relu_conv
I0403 13:56:37.758653 12276 net.cpp:148] Top shape: 24 128 4 4 (49152)
I0403 13:56:37.758668 12276 net.cpp:156] Memory required for data: 945894432
I0403 13:56:37.758683 12276 layer_factory.hpp:77] Creating layer loss1/fc
I0403 13:56:37.758707 12276 net.cpp:91] Creating Layer loss1/fc
I0403 13:56:37.758723 12276 net.cpp:425] loss1/fc <- loss1/conv
I0403 13:56:37.758744 12276 net.cpp:399] loss1/fc -> loss1/fc
I0403 13:56:37.776473 12276 net.cpp:141] Setting up loss1/fc
I0403 13:56:37.776523 12276 net.cpp:148] Top shape: 24 1024 (24576)
I0403 13:56:37.776543 12276 net.cpp:156] Memory required for data: 945992736
I0403 13:56:37.776572 12276 layer_factory.hpp:77] Creating layer loss1/relu_fc
I0403 13:56:37.776594 12276 net.cpp:91] Creating Layer loss1/relu_fc
I0403 13:56:37.776610 12276 net.cpp:425] loss1/relu_fc <- loss1/fc
I0403 13:56:37.776628 12276 net.cpp:386] loss1/relu_fc -> loss1/fc (in-place)
I0403 13:56:37.776847 12276 net.cpp:141] Setting up loss1/relu_fc
I0403 13:56:37.776872 12276 net.cpp:148] Top shape: 24 1024 (24576)
I0403 13:56:37.776886 12276 net.cpp:156] Memory required for data: 946091040
I0403 13:56:37.776901 12276 layer_factory.hpp:77] Creating layer loss1/drop_fc
I0403 13:56:37.776929 12276 net.cpp:91] Creating Layer loss1/drop_fc
I0403 13:56:37.776947 12276 net.cpp:425] loss1/drop_fc <- loss1/fc
I0403 13:56:37.776965 12276 net.cpp:386] loss1/drop_fc -> loss1/fc (in-place)
I0403 13:56:37.777016 12276 net.cpp:141] Setting up loss1/drop_fc
I0403 13:56:37.777040 12276 net.cpp:148] Top shape: 24 1024 (24576)
I0403 13:56:37.777055 12276 net.cpp:156] Memory required for data: 946189344
I0403 13:56:37.777070 12276 layer_factory.hpp:77] Creating layer loss1/classifier_plantvillage
I0403 13:56:37.777091 12276 net.cpp:91] Creating Layer loss1/classifier_plantvillage
I0403 13:56:37.777108 12276 net.cpp:425] loss1/classifier_plantvillage <- loss1/fc
I0403 13:56:37.777127 12276 net.cpp:399] loss1/classifier_plantvillage -> loss1/classifier_plantvillage
I0403 13:56:37.778050 12276 net.cpp:141] Setting up loss1/classifier_plantvillage
I0403 13:56:37.778080 12276 net.cpp:148] Top shape: 24 38 (912)
I0403 13:56:37.778097 12276 net.cpp:156] Memory required for data: 946192992
I0403 13:56:37.778115 12276 layer_factory.hpp:77] Creating layer loss1/classifier_plantvillage_loss1/classifier_plantvillage_0_split
I0403 13:56:37.778133 12276 net.cpp:91] Creating Layer loss1/classifier_plantvillage_loss1/classifier_plantvillage_0_split
I0403 13:56:37.778149 12276 net.cpp:425] loss1/classifier_plantvillage_loss1/classifier_plantvillage_0_split <- loss1/classifier_plantvillage
I0403 13:56:37.778168 12276 net.cpp:399] loss1/classifier_plantvillage_loss1/classifier_plantvillage_0_split -> loss1/classifier_plantvillage_loss1/classifier_plantvillage_0_split_0
I0403 13:56:37.778190 12276 net.cpp:399] loss1/classifier_plantvillage_loss1/classifier_plantvillage_0_split -> loss1/classifier_plantvillage_loss1/classifier_plantvillage_0_split_1
I0403 13:56:37.778211 12276 net.cpp:399] loss1/classifier_plantvillage_loss1/classifier_plantvillage_0_split -> loss1/classifier_plantvillage_loss1/classifier_plantvillage_0_split_2
I0403 13:56:37.778277 12276 net.cpp:141] Setting up loss1/classifier_plantvillage_loss1/classifier_plantvillage_0_split
I0403 13:56:37.778301 12276 net.cpp:148] Top shape: 24 38 (912)
I0403 13:56:37.778317 12276 net.cpp:148] Top shape: 24 38 (912)
I0403 13:56:37.778331 12276 net.cpp:148] Top shape: 24 38 (912)
I0403 13:56:37.778344 12276 net.cpp:156] Memory required for data: 946203936
I0403 13:56:37.778359 12276 layer_factory.hpp:77] Creating layer inception_4b/1x1
I0403 13:56:37.778383 12276 net.cpp:91] Creating Layer inception_4b/1x1
I0403 13:56:37.778421 12276 net.cpp:425] inception_4b/1x1 <- inception_4a/output_inception_4a/output_0_split_1
I0403 13:56:37.778441 12276 net.cpp:399] inception_4b/1x1 -> inception_4b/1x1
I0403 13:56:37.780119 12276 net.cpp:141] Setting up inception_4b/1x1
I0403 13:56:37.780148 12276 net.cpp:148] Top shape: 24 160 14 14 (752640)
I0403 13:56:37.780164 12276 net.cpp:156] Memory required for data: 949214496
I0403 13:56:37.780181 12276 layer_factory.hpp:77] Creating layer inception_4b/relu_1x1
I0403 13:56:37.780199 12276 net.cpp:91] Creating Layer inception_4b/relu_1x1
I0403 13:56:37.780217 12276 net.cpp:425] inception_4b/relu_1x1 <- inception_4b/1x1
I0403 13:56:37.780235 12276 net.cpp:386] inception_4b/relu_1x1 -> inception_4b/1x1 (in-place)
I0403 13:56:37.780407 12276 net.cpp:141] Setting up inception_4b/relu_1x1
I0403 13:56:37.780432 12276 net.cpp:148] Top shape: 24 160 14 14 (752640)
I0403 13:56:37.780447 12276 net.cpp:156] Memory required for data: 952225056
I0403 13:56:37.780462 12276 layer_factory.hpp:77] Creating layer inception_4b/3x3_reduce
I0403 13:56:37.780484 12276 net.cpp:91] Creating Layer inception_4b/3x3_reduce
I0403 13:56:37.780501 12276 net.cpp:425] inception_4b/3x3_reduce <- inception_4a/output_inception_4a/output_0_split_2
I0403 13:56:37.780522 12276 net.cpp:399] inception_4b/3x3_reduce -> inception_4b/3x3_reduce
I0403 13:56:37.781878 12276 net.cpp:141] Setting up inception_4b/3x3_reduce
I0403 13:56:37.781906 12276 net.cpp:148] Top shape: 24 112 14 14 (526848)
I0403 13:56:37.781921 12276 net.cpp:156] Memory required for data: 954332448
I0403 13:56:37.781939 12276 layer_factory.hpp:77] Creating layer inception_4b/relu_3x3_reduce
I0403 13:56:37.781960 12276 net.cpp:91] Creating Layer inception_4b/relu_3x3_reduce
I0403 13:56:37.781976 12276 net.cpp:425] inception_4b/relu_3x3_reduce <- inception_4b/3x3_reduce
I0403 13:56:37.781992 12276 net.cpp:386] inception_4b/relu_3x3_reduce -> inception_4b/3x3_reduce (in-place)
I0403 13:56:37.782279 12276 net.cpp:141] Setting up inception_4b/relu_3x3_reduce
I0403 13:56:37.782305 12276 net.cpp:148] Top shape: 24 112 14 14 (526848)
I0403 13:56:37.782332 12276 net.cpp:156] Memory required for data: 956439840
I0403 13:56:37.782347 12276 layer_factory.hpp:77] Creating layer inception_4b/3x3
I0403 13:56:37.782371 12276 net.cpp:91] Creating Layer inception_4b/3x3
I0403 13:56:37.782389 12276 net.cpp:425] inception_4b/3x3 <- inception_4b/3x3_reduce
I0403 13:56:37.782412 12276 net.cpp:399] inception_4b/3x3 -> inception_4b/3x3
I0403 13:56:37.786309 12276 net.cpp:141] Setting up inception_4b/3x3
I0403 13:56:37.786345 12276 net.cpp:148] Top shape: 24 224 14 14 (1053696)
I0403 13:56:37.786362 12276 net.cpp:156] Memory required for data: 960654624
I0403 13:56:37.786381 12276 layer_factory.hpp:77] Creating layer inception_4b/relu_3x3
I0403 13:56:37.786401 12276 net.cpp:91] Creating Layer inception_4b/relu_3x3
I0403 13:56:37.786417 12276 net.cpp:425] inception_4b/relu_3x3 <- inception_4b/3x3
I0403 13:56:37.786437 12276 net.cpp:386] inception_4b/relu_3x3 -> inception_4b/3x3 (in-place)
I0403 13:56:37.786622 12276 net.cpp:141] Setting up inception_4b/relu_3x3
I0403 13:56:37.786648 12276 net.cpp:148] Top shape: 24 224 14 14 (1053696)
I0403 13:56:37.786664 12276 net.cpp:156] Memory required for data: 964869408
I0403 13:56:37.786676 12276 layer_factory.hpp:77] Creating layer inception_4b/5x5_reduce
I0403 13:56:37.786702 12276 net.cpp:91] Creating Layer inception_4b/5x5_reduce
I0403 13:56:37.786721 12276 net.cpp:425] inception_4b/5x5_reduce <- inception_4a/output_inception_4a/output_0_split_3
I0403 13:56:37.786746 12276 net.cpp:399] inception_4b/5x5_reduce -> inception_4b/5x5_reduce
I0403 13:56:37.787827 12276 net.cpp:141] Setting up inception_4b/5x5_reduce
I0403 13:56:37.787855 12276 net.cpp:148] Top shape: 24 24 14 14 (112896)
I0403 13:56:37.787871 12276 net.cpp:156] Memory required for data: 965320992
I0403 13:56:37.787891 12276 layer_factory.hpp:77] Creating layer inception_4b/relu_5x5_reduce
I0403 13:56:37.787911 12276 net.cpp:91] Creating Layer inception_4b/relu_5x5_reduce
I0403 13:56:37.787943 12276 net.cpp:425] inception_4b/relu_5x5_reduce <- inception_4b/5x5_reduce
I0403 13:56:37.787962 12276 net.cpp:386] inception_4b/relu_5x5_reduce -> inception_4b/5x5_reduce (in-place)
I0403 13:56:37.788146 12276 net.cpp:141] Setting up inception_4b/relu_5x5_reduce
I0403 13:56:37.788172 12276 net.cpp:148] Top shape: 24 24 14 14 (112896)
I0403 13:56:37.788192 12276 net.cpp:156] Memory required for data: 965772576
I0403 13:56:37.788206 12276 layer_factory.hpp:77] Creating layer inception_4b/5x5
I0403 13:56:37.788228 12276 net.cpp:91] Creating Layer inception_4b/5x5
I0403 13:56:37.788245 12276 net.cpp:425] inception_4b/5x5 <- inception_4b/5x5_reduce
I0403 13:56:37.788270 12276 net.cpp:399] inception_4b/5x5 -> inception_4b/5x5
I0403 13:56:37.789495 12276 net.cpp:141] Setting up inception_4b/5x5
I0403 13:56:37.789527 12276 net.cpp:148] Top shape: 24 64 14 14 (301056)
I0403 13:56:37.789551 12276 net.cpp:156] Memory required for data: 966976800
I0403 13:56:37.789574 12276 layer_factory.hpp:77] Creating layer inception_4b/relu_5x5
I0403 13:56:37.789593 12276 net.cpp:91] Creating Layer inception_4b/relu_5x5
I0403 13:56:37.789613 12276 net.cpp:425] inception_4b/relu_5x5 <- inception_4b/5x5
I0403 13:56:37.789630 12276 net.cpp:386] inception_4b/relu_5x5 -> inception_4b/5x5 (in-place)
I0403 13:56:37.789914 12276 net.cpp:141] Setting up inception_4b/relu_5x5
I0403 13:56:37.789942 12276 net.cpp:148] Top shape: 24 64 14 14 (301056)
I0403 13:56:37.789958 12276 net.cpp:156] Memory required for data: 968181024
I0403 13:56:37.789974 12276 layer_factory.hpp:77] Creating layer inception_4b/pool
I0403 13:56:37.789994 12276 net.cpp:91] Creating Layer inception_4b/pool
I0403 13:56:37.790010 12276 net.cpp:425] inception_4b/pool <- inception_4a/output_inception_4a/output_0_split_4
I0403 13:56:37.790031 12276 net.cpp:399] inception_4b/pool -> inception_4b/pool
I0403 13:56:37.790096 12276 net.cpp:141] Setting up inception_4b/pool
I0403 13:56:37.790127 12276 net.cpp:148] Top shape: 24 512 14 14 (2408448)
I0403 13:56:37.790144 12276 net.cpp:156] Memory required for data: 977814816
I0403 13:56:37.790160 12276 layer_factory.hpp:77] Creating layer inception_4b/pool_proj
I0403 13:56:37.790182 12276 net.cpp:91] Creating Layer inception_4b/pool_proj
I0403 13:56:37.790202 12276 net.cpp:425] inception_4b/pool_proj <- inception_4b/pool
I0403 13:56:37.790221 12276 net.cpp:399] inception_4b/pool_proj -> inception_4b/pool_proj
I0403 13:56:37.791400 12276 net.cpp:141] Setting up inception_4b/pool_proj
I0403 13:56:37.791430 12276 net.cpp:148] Top shape: 24 64 14 14 (301056)
I0403 13:56:37.791446 12276 net.cpp:156] Memory required for data: 979019040
I0403 13:56:37.791463 12276 layer_factory.hpp:77] Creating layer inception_4b/relu_pool_proj
I0403 13:56:37.791483 12276 net.cpp:91] Creating Layer inception_4b/relu_pool_proj
I0403 13:56:37.791501 12276 net.cpp:425] inception_4b/relu_pool_proj <- inception_4b/pool_proj
I0403 13:56:37.791517 12276 net.cpp:386] inception_4b/relu_pool_proj -> inception_4b/pool_proj (in-place)
I0403 13:56:37.791694 12276 net.cpp:141] Setting up inception_4b/relu_pool_proj
I0403 13:56:37.791731 12276 net.cpp:148] Top shape: 24 64 14 14 (301056)
I0403 13:56:37.791746 12276 net.cpp:156] Memory required for data: 980223264
I0403 13:56:37.791761 12276 layer_factory.hpp:77] Creating layer inception_4b/output
I0403 13:56:37.791782 12276 net.cpp:91] Creating Layer inception_4b/output
I0403 13:56:37.791798 12276 net.cpp:425] inception_4b/output <- inception_4b/1x1
I0403 13:56:37.791815 12276 net.cpp:425] inception_4b/output <- inception_4b/3x3
I0403 13:56:37.791832 12276 net.cpp:425] inception_4b/output <- inception_4b/5x5
I0403 13:56:37.791846 12276 net.cpp:425] inception_4b/output <- inception_4b/pool_proj
I0403 13:56:37.791863 12276 net.cpp:399] inception_4b/output -> inception_4b/output
I0403 13:56:37.791910 12276 net.cpp:141] Setting up inception_4b/output
I0403 13:56:37.791935 12276 net.cpp:148] Top shape: 24 512 14 14 (2408448)
I0403 13:56:37.791950 12276 net.cpp:156] Memory required for data: 989857056
I0403 13:56:37.791981 12276 layer_factory.hpp:77] Creating layer inception_4b/output_inception_4b/output_0_split
I0403 13:56:37.792001 12276 net.cpp:91] Creating Layer inception_4b/output_inception_4b/output_0_split
I0403 13:56:37.792016 12276 net.cpp:425] inception_4b/output_inception_4b/output_0_split <- inception_4b/output
I0403 13:56:37.792037 12276 net.cpp:399] inception_4b/output_inception_4b/output_0_split -> inception_4b/output_inception_4b/output_0_split_0
I0403 13:56:37.792070 12276 net.cpp:399] inception_4b/output_inception_4b/output_0_split -> inception_4b/output_inception_4b/output_0_split_1
I0403 13:56:37.792090 12276 net.cpp:399] inception_4b/output_inception_4b/output_0_split -> inception_4b/output_inception_4b/output_0_split_2
I0403 13:56:37.792111 12276 net.cpp:399] inception_4b/output_inception_4b/output_0_split -> inception_4b/output_inception_4b/output_0_split_3
I0403 13:56:37.792192 12276 net.cpp:141] Setting up inception_4b/output_inception_4b/output_0_split
I0403 13:56:37.792218 12276 net.cpp:148] Top shape: 24 512 14 14 (2408448)
I0403 13:56:37.792237 12276 net.cpp:148] Top shape: 24 512 14 14 (2408448)
I0403 13:56:37.792251 12276 net.cpp:148] Top shape: 24 512 14 14 (2408448)
I0403 13:56:37.792269 12276 net.cpp:148] Top shape: 24 512 14 14 (2408448)
I0403 13:56:37.792282 12276 net.cpp:156] Memory required for data: 1028392224
I0403 13:56:37.792297 12276 layer_factory.hpp:77] Creating layer inception_4c/1x1
I0403 13:56:37.792320 12276 net.cpp:91] Creating Layer inception_4c/1x1
I0403 13:56:37.792338 12276 net.cpp:425] inception_4c/1x1 <- inception_4b/output_inception_4b/output_0_split_0
I0403 13:56:37.792356 12276 net.cpp:399] inception_4c/1x1 -> inception_4c/1x1
I0403 13:56:37.793771 12276 net.cpp:141] Setting up inception_4c/1x1
I0403 13:56:37.793800 12276 net.cpp:148] Top shape: 24 128 14 14 (602112)
I0403 13:56:37.793817 12276 net.cpp:156] Memory required for data: 1030800672
I0403 13:56:37.793835 12276 layer_factory.hpp:77] Creating layer inception_4c/relu_1x1
I0403 13:56:37.793858 12276 net.cpp:91] Creating Layer inception_4c/relu_1x1
I0403 13:56:37.793876 12276 net.cpp:425] inception_4c/relu_1x1 <- inception_4c/1x1
I0403 13:56:37.793895 12276 net.cpp:386] inception_4c/relu_1x1 -> inception_4c/1x1 (in-place)
I0403 13:56:37.794077 12276 net.cpp:141] Setting up inception_4c/relu_1x1
I0403 13:56:37.794103 12276 net.cpp:148] Top shape: 24 128 14 14 (602112)
I0403 13:56:37.794118 12276 net.cpp:156] Memory required for data: 1033209120
I0403 13:56:37.794134 12276 layer_factory.hpp:77] Creating layer inception_4c/3x3_reduce
I0403 13:56:37.794157 12276 net.cpp:91] Creating Layer inception_4c/3x3_reduce
I0403 13:56:37.794175 12276 net.cpp:425] inception_4c/3x3_reduce <- inception_4b/output_inception_4b/output_0_split_1
I0403 13:56:37.794195 12276 net.cpp:399] inception_4c/3x3_reduce -> inception_4c/3x3_reduce
I0403 13:56:37.796852 12276 net.cpp:141] Setting up inception_4c/3x3_reduce
I0403 13:56:37.796882 12276 net.cpp:148] Top shape: 24 128 14 14 (602112)
I0403 13:56:37.796897 12276 net.cpp:156] Memory required for data: 1035617568
I0403 13:56:37.796916 12276 layer_factory.hpp:77] Creating layer inception_4c/relu_3x3_reduce
I0403 13:56:37.796934 12276 net.cpp:91] Creating Layer inception_4c/relu_3x3_reduce
I0403 13:56:37.796949 12276 net.cpp:425] inception_4c/relu_3x3_reduce <- inception_4c/3x3_reduce
I0403 13:56:37.796968 12276 net.cpp:386] inception_4c/relu_3x3_reduce -> inception_4c/3x3_reduce (in-place)
I0403 13:56:37.797261 12276 net.cpp:141] Setting up inception_4c/relu_3x3_reduce
I0403 13:56:37.797287 12276 net.cpp:148] Top shape: 24 128 14 14 (602112)
I0403 13:56:37.797302 12276 net.cpp:156] Memory required for data: 1038026016
I0403 13:56:37.797317 12276 layer_factory.hpp:77] Creating layer inception_4c/3x3
I0403 13:56:37.797343 12276 net.cpp:91] Creating Layer inception_4c/3x3
I0403 13:56:37.797361 12276 net.cpp:425] inception_4c/3x3 <- inception_4c/3x3_reduce
I0403 13:56:37.797381 12276 net.cpp:399] inception_4c/3x3 -> inception_4c/3x3
I0403 13:56:37.800988 12276 net.cpp:141] Setting up inception_4c/3x3
I0403 13:56:37.801028 12276 net.cpp:148] Top shape: 24 256 14 14 (1204224)
I0403 13:56:37.801044 12276 net.cpp:156] Memory required for data: 1042842912
I0403 13:56:37.801076 12276 layer_factory.hpp:77] Creating layer inception_4c/relu_3x3
I0403 13:56:37.801098 12276 net.cpp:91] Creating Layer inception_4c/relu_3x3
I0403 13:56:37.801115 12276 net.cpp:425] inception_4c/relu_3x3 <- inception_4c/3x3
I0403 13:56:37.801131 12276 net.cpp:386] inception_4c/relu_3x3 -> inception_4c/3x3 (in-place)
I0403 13:56:37.801304 12276 net.cpp:141] Setting up inception_4c/relu_3x3
I0403 13:56:37.801329 12276 net.cpp:148] Top shape: 24 256 14 14 (1204224)
I0403 13:56:37.801343 12276 net.cpp:156] Memory required for data: 1047659808
I0403 13:56:37.801357 12276 layer_factory.hpp:77] Creating layer inception_4c/5x5_reduce
I0403 13:56:37.801379 12276 net.cpp:91] Creating Layer inception_4c/5x5_reduce
I0403 13:56:37.801396 12276 net.cpp:425] inception_4c/5x5_reduce <- inception_4b/output_inception_4b/output_0_split_2
I0403 13:56:37.801416 12276 net.cpp:399] inception_4c/5x5_reduce -> inception_4c/5x5_reduce
I0403 13:56:37.802502 12276 net.cpp:141] Setting up inception_4c/5x5_reduce
I0403 13:56:37.802530 12276 net.cpp:148] Top shape: 24 24 14 14 (112896)
I0403 13:56:37.802549 12276 net.cpp:156] Memory required for data: 1048111392
I0403 13:56:37.802567 12276 layer_factory.hpp:77] Creating layer inception_4c/relu_5x5_reduce
I0403 13:56:37.802585 12276 net.cpp:91] Creating Layer inception_4c/relu_5x5_reduce
I0403 13:56:37.802600 12276 net.cpp:425] inception_4c/relu_5x5_reduce <- inception_4c/5x5_reduce
I0403 13:56:37.802619 12276 net.cpp:386] inception_4c/relu_5x5_reduce -> inception_4c/5x5_reduce (in-place)
I0403 13:56:37.802800 12276 net.cpp:141] Setting up inception_4c/relu_5x5_reduce
I0403 13:56:37.802824 12276 net.cpp:148] Top shape: 24 24 14 14 (112896)
I0403 13:56:37.802839 12276 net.cpp:156] Memory required for data: 1048562976
I0403 13:56:37.802852 12276 layer_factory.hpp:77] Creating layer inception_4c/5x5
I0403 13:56:37.802873 12276 net.cpp:91] Creating Layer inception_4c/5x5
I0403 13:56:37.802891 12276 net.cpp:425] inception_4c/5x5 <- inception_4c/5x5_reduce
I0403 13:56:37.802911 12276 net.cpp:399] inception_4c/5x5 -> inception_4c/5x5
I0403 13:56:37.804146 12276 net.cpp:141] Setting up inception_4c/5x5
I0403 13:56:37.804172 12276 net.cpp:148] Top shape: 24 64 14 14 (301056)
I0403 13:56:37.804188 12276 net.cpp:156] Memory required for data: 1049767200
I0403 13:56:37.804204 12276 layer_factory.hpp:77] Creating layer inception_4c/relu_5x5
I0403 13:56:37.804224 12276 net.cpp:91] Creating Layer inception_4c/relu_5x5
I0403 13:56:37.804240 12276 net.cpp:425] inception_4c/relu_5x5 <- inception_4c/5x5
I0403 13:56:37.804256 12276 net.cpp:386] inception_4c/relu_5x5 -> inception_4c/5x5 (in-place)
I0403 13:56:37.804563 12276 net.cpp:141] Setting up inception_4c/relu_5x5
I0403 13:56:37.804589 12276 net.cpp:148] Top shape: 24 64 14 14 (301056)
I0403 13:56:37.804602 12276 net.cpp:156] Memory required for data: 1050971424
I0403 13:56:37.804616 12276 layer_factory.hpp:77] Creating layer inception_4c/pool
I0403 13:56:37.804636 12276 net.cpp:91] Creating Layer inception_4c/pool
I0403 13:56:37.804653 12276 net.cpp:425] inception_4c/pool <- inception_4b/output_inception_4b/output_0_split_3
I0403 13:56:37.804671 12276 net.cpp:399] inception_4c/pool -> inception_4c/pool
I0403 13:56:37.804734 12276 net.cpp:141] Setting up inception_4c/pool
I0403 13:56:37.804759 12276 net.cpp:148] Top shape: 24 512 14 14 (2408448)
I0403 13:56:37.804772 12276 net.cpp:156] Memory required for data: 1060605216
I0403 13:56:37.804785 12276 layer_factory.hpp:77] Creating layer inception_4c/pool_proj
I0403 13:56:37.804807 12276 net.cpp:91] Creating Layer inception_4c/pool_proj
I0403 13:56:37.804824 12276 net.cpp:425] inception_4c/pool_proj <- inception_4c/pool
I0403 13:56:37.804843 12276 net.cpp:399] inception_4c/pool_proj -> inception_4c/pool_proj
I0403 13:56:37.806056 12276 net.cpp:141] Setting up inception_4c/pool_proj
I0403 13:56:37.806083 12276 net.cpp:148] Top shape: 24 64 14 14 (301056)
I0403 13:56:37.806113 12276 net.cpp:156] Memory required for data: 1061809440
I0403 13:56:37.806133 12276 layer_factory.hpp:77] Creating layer inception_4c/relu_pool_proj
I0403 13:56:37.806154 12276 net.cpp:91] Creating Layer inception_4c/relu_pool_proj
I0403 13:56:37.806171 12276 net.cpp:425] inception_4c/relu_pool_proj <- inception_4c/pool_proj
I0403 13:56:37.806188 12276 net.cpp:386] inception_4c/relu_pool_proj -> inception_4c/pool_proj (in-place)
I0403 13:56:37.806370 12276 net.cpp:141] Setting up inception_4c/relu_pool_proj
I0403 13:56:37.806394 12276 net.cpp:148] Top shape: 24 64 14 14 (301056)
I0403 13:56:37.806409 12276 net.cpp:156] Memory required for data: 1063013664
I0403 13:56:37.806423 12276 layer_factory.hpp:77] Creating layer inception_4c/output
I0403 13:56:37.806442 12276 net.cpp:91] Creating Layer inception_4c/output
I0403 13:56:37.806457 12276 net.cpp:425] inception_4c/output <- inception_4c/1x1
I0403 13:56:37.806473 12276 net.cpp:425] inception_4c/output <- inception_4c/3x3
I0403 13:56:37.806489 12276 net.cpp:425] inception_4c/output <- inception_4c/5x5
I0403 13:56:37.806504 12276 net.cpp:425] inception_4c/output <- inception_4c/pool_proj
I0403 13:56:37.806519 12276 net.cpp:399] inception_4c/output -> inception_4c/output
I0403 13:56:37.806571 12276 net.cpp:141] Setting up inception_4c/output
I0403 13:56:37.806596 12276 net.cpp:148] Top shape: 24 512 14 14 (2408448)
I0403 13:56:37.806609 12276 net.cpp:156] Memory required for data: 1072647456
I0403 13:56:37.806622 12276 layer_factory.hpp:77] Creating layer inception_4c/output_inception_4c/output_0_split
I0403 13:56:37.806639 12276 net.cpp:91] Creating Layer inception_4c/output_inception_4c/output_0_split
I0403 13:56:37.806654 12276 net.cpp:425] inception_4c/output_inception_4c/output_0_split <- inception_4c/output
I0403 13:56:37.806674 12276 net.cpp:399] inception_4c/output_inception_4c/output_0_split -> inception_4c/output_inception_4c/output_0_split_0
I0403 13:56:37.806694 12276 net.cpp:399] inception_4c/output_inception_4c/output_0_split -> inception_4c/output_inception_4c/output_0_split_1
I0403 13:56:37.806713 12276 net.cpp:399] inception_4c/output_inception_4c/output_0_split -> inception_4c/output_inception_4c/output_0_split_2
I0403 13:56:37.806732 12276 net.cpp:399] inception_4c/output_inception_4c/output_0_split -> inception_4c/output_inception_4c/output_0_split_3
I0403 13:56:37.806818 12276 net.cpp:141] Setting up inception_4c/output_inception_4c/output_0_split
I0403 13:56:37.806843 12276 net.cpp:148] Top shape: 24 512 14 14 (2408448)
I0403 13:56:37.806859 12276 net.cpp:148] Top shape: 24 512 14 14 (2408448)
I0403 13:56:37.806875 12276 net.cpp:148] Top shape: 24 512 14 14 (2408448)
I0403 13:56:37.806890 12276 net.cpp:148] Top shape: 24 512 14 14 (2408448)
I0403 13:56:37.806903 12276 net.cpp:156] Memory required for data: 1111182624
I0403 13:56:37.806916 12276 layer_factory.hpp:77] Creating layer inception_4d/1x1
I0403 13:56:37.806939 12276 net.cpp:91] Creating Layer inception_4d/1x1
I0403 13:56:37.806957 12276 net.cpp:425] inception_4d/1x1 <- inception_4c/output_inception_4c/output_0_split_0
I0403 13:56:37.806974 12276 net.cpp:399] inception_4d/1x1 -> inception_4d/1x1
I0403 13:56:37.808385 12276 net.cpp:141] Setting up inception_4d/1x1
I0403 13:56:37.808415 12276 net.cpp:148] Top shape: 24 112 14 14 (526848)
I0403 13:56:37.808432 12276 net.cpp:156] Memory required for data: 1113290016
I0403 13:56:37.808450 12276 layer_factory.hpp:77] Creating layer inception_4d/relu_1x1
I0403 13:56:37.808468 12276 net.cpp:91] Creating Layer inception_4d/relu_1x1
I0403 13:56:37.808485 12276 net.cpp:425] inception_4d/relu_1x1 <- inception_4d/1x1
I0403 13:56:37.808504 12276 net.cpp:386] inception_4d/relu_1x1 -> inception_4d/1x1 (in-place)
I0403 13:56:37.808706 12276 net.cpp:141] Setting up inception_4d/relu_1x1
I0403 13:56:37.808732 12276 net.cpp:148] Top shape: 24 112 14 14 (526848)
I0403 13:56:37.808745 12276 net.cpp:156] Memory required for data: 1115397408
I0403 13:56:37.808758 12276 layer_factory.hpp:77] Creating layer inception_4d/3x3_reduce
I0403 13:56:37.808795 12276 net.cpp:91] Creating Layer inception_4d/3x3_reduce
I0403 13:56:37.808814 12276 net.cpp:425] inception_4d/3x3_reduce <- inception_4c/output_inception_4c/output_0_split_1
I0403 13:56:37.808835 12276 net.cpp:399] inception_4d/3x3_reduce -> inception_4d/3x3_reduce
I0403 13:56:37.810320 12276 net.cpp:141] Setting up inception_4d/3x3_reduce
I0403 13:56:37.810350 12276 net.cpp:148] Top shape: 24 144 14 14 (677376)
I0403 13:56:37.810367 12276 net.cpp:156] Memory required for data: 1118106912
I0403 13:56:37.810386 12276 layer_factory.hpp:77] Creating layer inception_4d/relu_3x3_reduce
I0403 13:56:37.810403 12276 net.cpp:91] Creating Layer inception_4d/relu_3x3_reduce
I0403 13:56:37.810418 12276 net.cpp:425] inception_4d/relu_3x3_reduce <- inception_4d/3x3_reduce
I0403 13:56:37.810436 12276 net.cpp:386] inception_4d/relu_3x3_reduce -> inception_4d/3x3_reduce (in-place)
I0403 13:56:37.810739 12276 net.cpp:141] Setting up inception_4d/relu_3x3_reduce
I0403 13:56:37.810767 12276 net.cpp:148] Top shape: 24 144 14 14 (677376)
I0403 13:56:37.810783 12276 net.cpp:156] Memory required for data: 1120816416
I0403 13:56:37.810798 12276 layer_factory.hpp:77] Creating layer inception_4d/3x3
I0403 13:56:37.810818 12276 net.cpp:91] Creating Layer inception_4d/3x3
I0403 13:56:37.810834 12276 net.cpp:425] inception_4d/3x3 <- inception_4d/3x3_reduce
I0403 13:56:37.810854 12276 net.cpp:399] inception_4d/3x3 -> inception_4d/3x3
I0403 13:56:37.815146 12276 net.cpp:141] Setting up inception_4d/3x3
I0403 13:56:37.815176 12276 net.cpp:148] Top shape: 24 288 14 14 (1354752)
I0403 13:56:37.815191 12276 net.cpp:156] Memory required for data: 1126235424
I0403 13:56:37.815209 12276 layer_factory.hpp:77] Creating layer inception_4d/relu_3x3
I0403 13:56:37.815227 12276 net.cpp:91] Creating Layer inception_4d/relu_3x3
I0403 13:56:37.815243 12276 net.cpp:425] inception_4d/relu_3x3 <- inception_4d/3x3
I0403 13:56:37.815260 12276 net.cpp:386] inception_4d/relu_3x3 -> inception_4d/3x3 (in-place)
I0403 13:56:37.815438 12276 net.cpp:141] Setting up inception_4d/relu_3x3
I0403 13:56:37.815461 12276 net.cpp:148] Top shape: 24 288 14 14 (1354752)
I0403 13:56:37.815475 12276 net.cpp:156] Memory required for data: 1131654432
I0403 13:56:37.815490 12276 layer_factory.hpp:77] Creating layer inception_4d/5x5_reduce
I0403 13:56:37.815510 12276 net.cpp:91] Creating Layer inception_4d/5x5_reduce
I0403 13:56:37.815527 12276 net.cpp:425] inception_4d/5x5_reduce <- inception_4c/output_inception_4c/output_0_split_2
I0403 13:56:37.815552 12276 net.cpp:399] inception_4d/5x5_reduce -> inception_4d/5x5_reduce
I0403 13:56:37.816711 12276 net.cpp:141] Setting up inception_4d/5x5_reduce
I0403 13:56:37.816740 12276 net.cpp:148] Top shape: 24 32 14 14 (150528)
I0403 13:56:37.816756 12276 net.cpp:156] Memory required for data: 1132256544
I0403 13:56:37.816773 12276 layer_factory.hpp:77] Creating layer inception_4d/relu_5x5_reduce
I0403 13:56:37.816792 12276 net.cpp:91] Creating Layer inception_4d/relu_5x5_reduce
I0403 13:56:37.816807 12276 net.cpp:425] inception_4d/relu_5x5_reduce <- inception_4d/5x5_reduce
I0403 13:56:37.816825 12276 net.cpp:386] inception_4d/relu_5x5_reduce -> inception_4d/5x5_reduce (in-place)
I0403 13:56:37.817006 12276 net.cpp:141] Setting up inception_4d/relu_5x5_reduce
I0403 13:56:37.817030 12276 net.cpp:148] Top shape: 24 32 14 14 (150528)
I0403 13:56:37.817044 12276 net.cpp:156] Memory required for data: 1132858656
I0403 13:56:37.817059 12276 layer_factory.hpp:77] Creating layer inception_4d/5x5
I0403 13:56:37.817080 12276 net.cpp:91] Creating Layer inception_4d/5x5
I0403 13:56:37.817096 12276 net.cpp:425] inception_4d/5x5 <- inception_4d/5x5_reduce
I0403 13:56:37.817118 12276 net.cpp:399] inception_4d/5x5 -> inception_4d/5x5
I0403 13:56:37.818590 12276 net.cpp:141] Setting up inception_4d/5x5
I0403 13:56:37.818617 12276 net.cpp:148] Top shape: 24 64 14 14 (301056)
I0403 13:56:37.818632 12276 net.cpp:156] Memory required for data: 1134062880
I0403 13:56:37.818650 12276 layer_factory.hpp:77] Creating layer inception_4d/relu_5x5
I0403 13:56:37.818684 12276 net.cpp:91] Creating Layer inception_4d/relu_5x5
I0403 13:56:37.818702 12276 net.cpp:425] inception_4d/relu_5x5 <- inception_4d/5x5
I0403 13:56:37.818718 12276 net.cpp:386] inception_4d/relu_5x5 -> inception_4d/5x5 (in-place)
I0403 13:56:37.819010 12276 net.cpp:141] Setting up inception_4d/relu_5x5
I0403 13:56:37.819036 12276 net.cpp:148] Top shape: 24 64 14 14 (301056)
I0403 13:56:37.819051 12276 net.cpp:156] Memory required for data: 1135267104
I0403 13:56:37.819077 12276 layer_factory.hpp:77] Creating layer inception_4d/pool
I0403 13:56:37.819097 12276 net.cpp:91] Creating Layer inception_4d/pool
I0403 13:56:37.819115 12276 net.cpp:425] inception_4d/pool <- inception_4c/output_inception_4c/output_0_split_3
I0403 13:56:37.819133 12276 net.cpp:399] inception_4d/pool -> inception_4d/pool
I0403 13:56:37.819200 12276 net.cpp:141] Setting up inception_4d/pool
I0403 13:56:37.819224 12276 net.cpp:148] Top shape: 24 512 14 14 (2408448)
I0403 13:56:37.819238 12276 net.cpp:156] Memory required for data: 1144900896
I0403 13:56:37.819253 12276 layer_factory.hpp:77] Creating layer inception_4d/pool_proj
I0403 13:56:37.819275 12276 net.cpp:91] Creating Layer inception_4d/pool_proj
I0403 13:56:37.819293 12276 net.cpp:425] inception_4d/pool_proj <- inception_4d/pool
I0403 13:56:37.819314 12276 net.cpp:399] inception_4d/pool_proj -> inception_4d/pool_proj
I0403 13:56:37.821074 12276 net.cpp:141] Setting up inception_4d/pool_proj
I0403 13:56:37.821104 12276 net.cpp:148] Top shape: 24 64 14 14 (301056)
I0403 13:56:37.821120 12276 net.cpp:156] Memory required for data: 1146105120
I0403 13:56:37.821137 12276 layer_factory.hpp:77] Creating layer inception_4d/relu_pool_proj
I0403 13:56:37.821157 12276 net.cpp:91] Creating Layer inception_4d/relu_pool_proj
I0403 13:56:37.821174 12276 net.cpp:425] inception_4d/relu_pool_proj <- inception_4d/pool_proj
I0403 13:56:37.821193 12276 net.cpp:386] inception_4d/relu_pool_proj -> inception_4d/pool_proj (in-place)
I0403 13:56:37.821390 12276 net.cpp:141] Setting up inception_4d/relu_pool_proj
I0403 13:56:37.821414 12276 net.cpp:148] Top shape: 24 64 14 14 (301056)
I0403 13:56:37.821429 12276 net.cpp:156] Memory required for data: 1147309344
I0403 13:56:37.821444 12276 layer_factory.hpp:77] Creating layer inception_4d/output
I0403 13:56:37.821460 12276 net.cpp:91] Creating Layer inception_4d/output
I0403 13:56:37.821475 12276 net.cpp:425] inception_4d/output <- inception_4d/1x1
I0403 13:56:37.821493 12276 net.cpp:425] inception_4d/output <- inception_4d/3x3
I0403 13:56:37.821509 12276 net.cpp:425] inception_4d/output <- inception_4d/5x5
I0403 13:56:37.821526 12276 net.cpp:425] inception_4d/output <- inception_4d/pool_proj
I0403 13:56:37.821545 12276 net.cpp:399] inception_4d/output -> inception_4d/output
I0403 13:56:37.821593 12276 net.cpp:141] Setting up inception_4d/output
I0403 13:56:37.821617 12276 net.cpp:148] Top shape: 24 528 14 14 (2483712)
I0403 13:56:37.821632 12276 net.cpp:156] Memory required for data: 1157244192
I0403 13:56:37.821645 12276 layer_factory.hpp:77] Creating layer inception_4d/output_inception_4d/output_0_split
I0403 13:56:37.821662 12276 net.cpp:91] Creating Layer inception_4d/output_inception_4d/output_0_split
I0403 13:56:37.821677 12276 net.cpp:425] inception_4d/output_inception_4d/output_0_split <- inception_4d/output
I0403 13:56:37.821696 12276 net.cpp:399] inception_4d/output_inception_4d/output_0_split -> inception_4d/output_inception_4d/output_0_split_0
I0403 13:56:37.821717 12276 net.cpp:399] inception_4d/output_inception_4d/output_0_split -> inception_4d/output_inception_4d/output_0_split_1
I0403 13:56:37.821737 12276 net.cpp:399] inception_4d/output_inception_4d/output_0_split -> inception_4d/output_inception_4d/output_0_split_2
I0403 13:56:37.821755 12276 net.cpp:399] inception_4d/output_inception_4d/output_0_split -> inception_4d/output_inception_4d/output_0_split_3
I0403 13:56:37.821774 12276 net.cpp:399] inception_4d/output_inception_4d/output_0_split -> inception_4d/output_inception_4d/output_0_split_4
I0403 13:56:37.821872 12276 net.cpp:141] Setting up inception_4d/output_inception_4d/output_0_split
I0403 13:56:37.821907 12276 net.cpp:148] Top shape: 24 528 14 14 (2483712)
I0403 13:56:37.821925 12276 net.cpp:148] Top shape: 24 528 14 14 (2483712)
I0403 13:56:37.821941 12276 net.cpp:148] Top shape: 24 528 14 14 (2483712)
I0403 13:56:37.821955 12276 net.cpp:148] Top shape: 24 528 14 14 (2483712)
I0403 13:56:37.821970 12276 net.cpp:148] Top shape: 24 528 14 14 (2483712)
I0403 13:56:37.821984 12276 net.cpp:156] Memory required for data: 1206918432
I0403 13:56:37.821996 12276 layer_factory.hpp:77] Creating layer loss2/ave_pool
I0403 13:56:37.822013 12276 net.cpp:91] Creating Layer loss2/ave_pool
I0403 13:56:37.822028 12276 net.cpp:425] loss2/ave_pool <- inception_4d/output_inception_4d/output_0_split_0
I0403 13:56:37.822048 12276 net.cpp:399] loss2/ave_pool -> loss2/ave_pool
I0403 13:56:37.822355 12276 net.cpp:141] Setting up loss2/ave_pool
I0403 13:56:37.822381 12276 net.cpp:148] Top shape: 24 528 4 4 (202752)
I0403 13:56:37.822396 12276 net.cpp:156] Memory required for data: 1207729440
I0403 13:56:37.822409 12276 layer_factory.hpp:77] Creating layer loss2/conv
I0403 13:56:37.822430 12276 net.cpp:91] Creating Layer loss2/conv
I0403 13:56:37.822458 12276 net.cpp:425] loss2/conv <- loss2/ave_pool
I0403 13:56:37.822479 12276 net.cpp:399] loss2/conv -> loss2/conv
I0403 13:56:37.824383 12276 net.cpp:141] Setting up loss2/conv
I0403 13:56:37.824414 12276 net.cpp:148] Top shape: 24 128 4 4 (49152)
I0403 13:56:37.824429 12276 net.cpp:156] Memory required for data: 1207926048
I0403 13:56:37.824448 12276 layer_factory.hpp:77] Creating layer loss2/relu_conv
I0403 13:56:37.824470 12276 net.cpp:91] Creating Layer loss2/relu_conv
I0403 13:56:37.824488 12276 net.cpp:425] loss2/relu_conv <- loss2/conv
I0403 13:56:37.824506 12276 net.cpp:386] loss2/relu_conv -> loss2/conv (in-place)
I0403 13:56:37.824807 12276 net.cpp:141] Setting up loss2/relu_conv
I0403 13:56:37.824833 12276 net.cpp:148] Top shape: 24 128 4 4 (49152)
I0403 13:56:37.824847 12276 net.cpp:156] Memory required for data: 1208122656
I0403 13:56:37.824862 12276 layer_factory.hpp:77] Creating layer loss2/fc
I0403 13:56:37.824882 12276 net.cpp:91] Creating Layer loss2/fc
I0403 13:56:37.824899 12276 net.cpp:425] loss2/fc <- loss2/conv
I0403 13:56:37.824916 12276 net.cpp:399] loss2/fc -> loss2/fc
I0403 13:56:37.842479 12276 net.cpp:141] Setting up loss2/fc
I0403 13:56:37.842525 12276 net.cpp:148] Top shape: 24 1024 (24576)
I0403 13:56:37.842545 12276 net.cpp:156] Memory required for data: 1208220960
I0403 13:56:37.842571 12276 layer_factory.hpp:77] Creating layer loss2/relu_fc
I0403 13:56:37.842589 12276 net.cpp:91] Creating Layer loss2/relu_fc
I0403 13:56:37.842607 12276 net.cpp:425] loss2/relu_fc <- loss2/fc
I0403 13:56:37.842627 12276 net.cpp:386] loss2/relu_fc -> loss2/fc (in-place)
I0403 13:56:37.842958 12276 net.cpp:141] Setting up loss2/relu_fc
I0403 13:56:37.842984 12276 net.cpp:148] Top shape: 24 1024 (24576)
I0403 13:56:37.842998 12276 net.cpp:156] Memory required for data: 1208319264
I0403 13:56:37.843013 12276 layer_factory.hpp:77] Creating layer loss2/drop_fc
I0403 13:56:37.843030 12276 net.cpp:91] Creating Layer loss2/drop_fc
I0403 13:56:37.843046 12276 net.cpp:425] loss2/drop_fc <- loss2/fc
I0403 13:56:37.843065 12276 net.cpp:386] loss2/drop_fc -> loss2/fc (in-place)
I0403 13:56:37.843113 12276 net.cpp:141] Setting up loss2/drop_fc
I0403 13:56:37.843135 12276 net.cpp:148] Top shape: 24 1024 (24576)
I0403 13:56:37.843149 12276 net.cpp:156] Memory required for data: 1208417568
I0403 13:56:37.843163 12276 layer_factory.hpp:77] Creating layer loss2/classifier_plantvillage
I0403 13:56:37.843184 12276 net.cpp:91] Creating Layer loss2/classifier_plantvillage
I0403 13:56:37.843201 12276 net.cpp:425] loss2/classifier_plantvillage <- loss2/fc
I0403 13:56:37.843220 12276 net.cpp:399] loss2/classifier_plantvillage -> loss2/classifier_plantvillage
I0403 13:56:37.843657 12276 net.cpp:141] Setting up loss2/classifier_plantvillage
I0403 13:56:37.843683 12276 net.cpp:148] Top shape: 24 38 (912)
I0403 13:56:37.843720 12276 net.cpp:156] Memory required for data: 1208421216
I0403 13:56:37.843739 12276 layer_factory.hpp:77] Creating layer loss2/classifier_plantvillage_loss2/classifier_plantvillage_0_split
I0403 13:56:37.843757 12276 net.cpp:91] Creating Layer loss2/classifier_plantvillage_loss2/classifier_plantvillage_0_split
I0403 13:56:37.843772 12276 net.cpp:425] loss2/classifier_plantvillage_loss2/classifier_plantvillage_0_split <- loss2/classifier_plantvillage
I0403 13:56:37.843788 12276 net.cpp:399] loss2/classifier_plantvillage_loss2/classifier_plantvillage_0_split -> loss2/classifier_plantvillage_loss2/classifier_plantvillage_0_split_0
I0403 13:56:37.843807 12276 net.cpp:399] loss2/classifier_plantvillage_loss2/classifier_plantvillage_0_split -> loss2/classifier_plantvillage_loss2/classifier_plantvillage_0_split_1
I0403 13:56:37.843827 12276 net.cpp:399] loss2/classifier_plantvillage_loss2/classifier_plantvillage_0_split -> loss2/classifier_plantvillage_loss2/classifier_plantvillage_0_split_2
I0403 13:56:37.843902 12276 net.cpp:141] Setting up loss2/classifier_plantvillage_loss2/classifier_plantvillage_0_split
I0403 13:56:37.843924 12276 net.cpp:148] Top shape: 24 38 (912)
I0403 13:56:37.843940 12276 net.cpp:148] Top shape: 24 38 (912)
I0403 13:56:37.843955 12276 net.cpp:148] Top shape: 24 38 (912)
I0403 13:56:37.843967 12276 net.cpp:156] Memory required for data: 1208432160
I0403 13:56:37.843981 12276 layer_factory.hpp:77] Creating layer inception_4e/1x1
I0403 13:56:37.844000 12276 net.cpp:91] Creating Layer inception_4e/1x1
I0403 13:56:37.844018 12276 net.cpp:425] inception_4e/1x1 <- inception_4d/output_inception_4d/output_0_split_1
I0403 13:56:37.844038 12276 net.cpp:399] inception_4e/1x1 -> inception_4e/1x1
I0403 13:56:37.845885 12276 net.cpp:141] Setting up inception_4e/1x1
I0403 13:56:37.845913 12276 net.cpp:148] Top shape: 24 256 14 14 (1204224)
I0403 13:56:37.845929 12276 net.cpp:156] Memory required for data: 1213249056
I0403 13:56:37.845947 12276 layer_factory.hpp:77] Creating layer inception_4e/relu_1x1
I0403 13:56:37.845966 12276 net.cpp:91] Creating Layer inception_4e/relu_1x1
I0403 13:56:37.845983 12276 net.cpp:425] inception_4e/relu_1x1 <- inception_4e/1x1
I0403 13:56:37.846001 12276 net.cpp:386] inception_4e/relu_1x1 -> inception_4e/1x1 (in-place)
I0403 13:56:37.846290 12276 net.cpp:141] Setting up inception_4e/relu_1x1
I0403 13:56:37.846317 12276 net.cpp:148] Top shape: 24 256 14 14 (1204224)
I0403 13:56:37.846330 12276 net.cpp:156] Memory required for data: 1218065952
I0403 13:56:37.846344 12276 layer_factory.hpp:77] Creating layer inception_4e/3x3_reduce
I0403 13:56:37.846365 12276 net.cpp:91] Creating Layer inception_4e/3x3_reduce
I0403 13:56:37.846382 12276 net.cpp:425] inception_4e/3x3_reduce <- inception_4d/output_inception_4d/output_0_split_2
I0403 13:56:37.846403 12276 net.cpp:399] inception_4e/3x3_reduce -> inception_4e/3x3_reduce
I0403 13:56:37.848544 12276 net.cpp:141] Setting up inception_4e/3x3_reduce
I0403 13:56:37.848584 12276 net.cpp:148] Top shape: 24 160 14 14 (752640)
I0403 13:56:37.848610 12276 net.cpp:156] Memory required for data: 1221076512
I0403 13:56:37.848628 12276 layer_factory.hpp:77] Creating layer inception_4e/relu_3x3_reduce
I0403 13:56:37.848649 12276 net.cpp:91] Creating Layer inception_4e/relu_3x3_reduce
I0403 13:56:37.848669 12276 net.cpp:425] inception_4e/relu_3x3_reduce <- inception_4e/3x3_reduce
I0403 13:56:37.848685 12276 net.cpp:386] inception_4e/relu_3x3_reduce -> inception_4e/3x3_reduce (in-place)
I0403 13:56:37.848871 12276 net.cpp:141] Setting up inception_4e/relu_3x3_reduce
I0403 13:56:37.848896 12276 net.cpp:148] Top shape: 24 160 14 14 (752640)
I0403 13:56:37.848911 12276 net.cpp:156] Memory required for data: 1224087072
I0403 13:56:37.848924 12276 layer_factory.hpp:77] Creating layer inception_4e/3x3
I0403 13:56:37.848947 12276 net.cpp:91] Creating Layer inception_4e/3x3
I0403 13:56:37.848963 12276 net.cpp:425] inception_4e/3x3 <- inception_4e/3x3_reduce
I0403 13:56:37.848981 12276 net.cpp:399] inception_4e/3x3 -> inception_4e/3x3
I0403 13:56:37.853940 12276 net.cpp:141] Setting up inception_4e/3x3
I0403 13:56:37.853981 12276 net.cpp:148] Top shape: 24 320 14 14 (1505280)
I0403 13:56:37.853996 12276 net.cpp:156] Memory required for data: 1230108192
I0403 13:56:37.854012 12276 layer_factory.hpp:77] Creating layer inception_4e/relu_3x3
I0403 13:56:37.854034 12276 net.cpp:91] Creating Layer inception_4e/relu_3x3
I0403 13:56:37.854051 12276 net.cpp:425] inception_4e/relu_3x3 <- inception_4e/3x3
I0403 13:56:37.854066 12276 net.cpp:386] inception_4e/relu_3x3 -> inception_4e/3x3 (in-place)
I0403 13:56:37.854362 12276 net.cpp:141] Setting up inception_4e/relu_3x3
I0403 13:56:37.854389 12276 net.cpp:148] Top shape: 24 320 14 14 (1505280)
I0403 13:56:37.854404 12276 net.cpp:156] Memory required for data: 1236129312
I0403 13:56:37.854419 12276 layer_factory.hpp:77] Creating layer inception_4e/5x5_reduce
I0403 13:56:37.854441 12276 net.cpp:91] Creating Layer inception_4e/5x5_reduce
I0403 13:56:37.854459 12276 net.cpp:425] inception_4e/5x5_reduce <- inception_4d/output_inception_4d/output_0_split_3
I0403 13:56:37.854476 12276 net.cpp:399] inception_4e/5x5_reduce -> inception_4e/5x5_reduce
I0403 13:56:37.855548 12276 net.cpp:141] Setting up inception_4e/5x5_reduce
I0403 13:56:37.855577 12276 net.cpp:148] Top shape: 24 32 14 14 (150528)
I0403 13:56:37.855594 12276 net.cpp:156] Memory required for data: 1236731424
I0403 13:56:37.855613 12276 layer_factory.hpp:77] Creating layer inception_4e/relu_5x5_reduce
I0403 13:56:37.855634 12276 net.cpp:91] Creating Layer inception_4e/relu_5x5_reduce
I0403 13:56:37.855653 12276 net.cpp:425] inception_4e/relu_5x5_reduce <- inception_4e/5x5_reduce
I0403 13:56:37.855671 12276 net.cpp:386] inception_4e/relu_5x5_reduce -> inception_4e/5x5_reduce (in-place)
I0403 13:56:37.855975 12276 net.cpp:141] Setting up inception_4e/relu_5x5_reduce
I0403 13:56:37.856001 12276 net.cpp:148] Top shape: 24 32 14 14 (150528)
I0403 13:56:37.856016 12276 net.cpp:156] Memory required for data: 1237333536
I0403 13:56:37.856031 12276 layer_factory.hpp:77] Creating layer inception_4e/5x5
I0403 13:56:37.856068 12276 net.cpp:91] Creating Layer inception_4e/5x5
I0403 13:56:37.856089 12276 net.cpp:425] inception_4e/5x5 <- inception_4e/5x5_reduce
I0403 13:56:37.856109 12276 net.cpp:399] inception_4e/5x5 -> inception_4e/5x5
I0403 13:56:37.857934 12276 net.cpp:141] Setting up inception_4e/5x5
I0403 13:56:37.857964 12276 net.cpp:148] Top shape: 24 128 14 14 (602112)
I0403 13:56:37.857978 12276 net.cpp:156] Memory required for data: 1239741984
I0403 13:56:37.857996 12276 layer_factory.hpp:77] Creating layer inception_4e/relu_5x5
I0403 13:56:37.858014 12276 net.cpp:91] Creating Layer inception_4e/relu_5x5
I0403 13:56:37.858031 12276 net.cpp:425] inception_4e/relu_5x5 <- inception_4e/5x5
I0403 13:56:37.858052 12276 net.cpp:386] inception_4e/relu_5x5 -> inception_4e/5x5 (in-place)
I0403 13:56:37.858247 12276 net.cpp:141] Setting up inception_4e/relu_5x5
I0403 13:56:37.858275 12276 net.cpp:148] Top shape: 24 128 14 14 (602112)
I0403 13:56:37.858290 12276 net.cpp:156] Memory required for data: 1242150432
I0403 13:56:37.858304 12276 layer_factory.hpp:77] Creating layer inception_4e/pool
I0403 13:56:37.858325 12276 net.cpp:91] Creating Layer inception_4e/pool
I0403 13:56:37.858341 12276 net.cpp:425] inception_4e/pool <- inception_4d/output_inception_4d/output_0_split_4
I0403 13:56:37.858360 12276 net.cpp:399] inception_4e/pool -> inception_4e/pool
I0403 13:56:37.858429 12276 net.cpp:141] Setting up inception_4e/pool
I0403 13:56:37.858454 12276 net.cpp:148] Top shape: 24 528 14 14 (2483712)
I0403 13:56:37.858469 12276 net.cpp:156] Memory required for data: 1252085280
I0403 13:56:37.858484 12276 layer_factory.hpp:77] Creating layer inception_4e/pool_proj
I0403 13:56:37.858505 12276 net.cpp:91] Creating Layer inception_4e/pool_proj
I0403 13:56:37.858525 12276 net.cpp:425] inception_4e/pool_proj <- inception_4e/pool
I0403 13:56:37.858548 12276 net.cpp:399] inception_4e/pool_proj -> inception_4e/pool_proj
I0403 13:56:37.860034 12276 net.cpp:141] Setting up inception_4e/pool_proj
I0403 13:56:37.860075 12276 net.cpp:148] Top shape: 24 128 14 14 (602112)
I0403 13:56:37.860092 12276 net.cpp:156] Memory required for data: 1254493728
I0403 13:56:37.860111 12276 layer_factory.hpp:77] Creating layer inception_4e/relu_pool_proj
I0403 13:56:37.860131 12276 net.cpp:91] Creating Layer inception_4e/relu_pool_proj
I0403 13:56:37.860146 12276 net.cpp:425] inception_4e/relu_pool_proj <- inception_4e/pool_proj
I0403 13:56:37.860165 12276 net.cpp:386] inception_4e/relu_pool_proj -> inception_4e/pool_proj (in-place)
I0403 13:56:37.860474 12276 net.cpp:141] Setting up inception_4e/relu_pool_proj
I0403 13:56:37.860502 12276 net.cpp:148] Top shape: 24 128 14 14 (602112)
I0403 13:56:37.860517 12276 net.cpp:156] Memory required for data: 1256902176
I0403 13:56:37.860530 12276 layer_factory.hpp:77] Creating layer inception_4e/output
I0403 13:56:37.860553 12276 net.cpp:91] Creating Layer inception_4e/output
I0403 13:56:37.860574 12276 net.cpp:425] inception_4e/output <- inception_4e/1x1
I0403 13:56:37.860590 12276 net.cpp:425] inception_4e/output <- inception_4e/3x3
I0403 13:56:37.860606 12276 net.cpp:425] inception_4e/output <- inception_4e/5x5
I0403 13:56:37.860622 12276 net.cpp:425] inception_4e/output <- inception_4e/pool_proj
I0403 13:56:37.860642 12276 net.cpp:399] inception_4e/output -> inception_4e/output
I0403 13:56:37.860690 12276 net.cpp:141] Setting up inception_4e/output
I0403 13:56:37.860718 12276 net.cpp:148] Top shape: 24 832 14 14 (3913728)
I0403 13:56:37.860733 12276 net.cpp:156] Memory required for data: 1272557088
I0403 13:56:37.860749 12276 layer_factory.hpp:77] Creating layer pool4/3x3_s2
I0403 13:56:37.860766 12276 net.cpp:91] Creating Layer pool4/3x3_s2
I0403 13:56:37.860781 12276 net.cpp:425] pool4/3x3_s2 <- inception_4e/output
I0403 13:56:37.860800 12276 net.cpp:399] pool4/3x3_s2 -> pool4/3x3_s2
I0403 13:56:37.860864 12276 net.cpp:141] Setting up pool4/3x3_s2
I0403 13:56:37.860888 12276 net.cpp:148] Top shape: 24 832 7 7 (978432)
I0403 13:56:37.860903 12276 net.cpp:156] Memory required for data: 1276470816
I0403 13:56:37.860916 12276 layer_factory.hpp:77] Creating layer pool4/3x3_s2_pool4/3x3_s2_0_split
I0403 13:56:37.860934 12276 net.cpp:91] Creating Layer pool4/3x3_s2_pool4/3x3_s2_0_split
I0403 13:56:37.860949 12276 net.cpp:425] pool4/3x3_s2_pool4/3x3_s2_0_split <- pool4/3x3_s2
I0403 13:56:37.860968 12276 net.cpp:399] pool4/3x3_s2_pool4/3x3_s2_0_split -> pool4/3x3_s2_pool4/3x3_s2_0_split_0
I0403 13:56:37.860990 12276 net.cpp:399] pool4/3x3_s2_pool4/3x3_s2_0_split -> pool4/3x3_s2_pool4/3x3_s2_0_split_1
I0403 13:56:37.861009 12276 net.cpp:399] pool4/3x3_s2_pool4/3x3_s2_0_split -> pool4/3x3_s2_pool4/3x3_s2_0_split_2
I0403 13:56:37.861028 12276 net.cpp:399] pool4/3x3_s2_pool4/3x3_s2_0_split -> pool4/3x3_s2_pool4/3x3_s2_0_split_3
I0403 13:56:37.861122 12276 net.cpp:141] Setting up pool4/3x3_s2_pool4/3x3_s2_0_split
I0403 13:56:37.861147 12276 net.cpp:148] Top shape: 24 832 7 7 (978432)
I0403 13:56:37.861163 12276 net.cpp:148] Top shape: 24 832 7 7 (978432)
I0403 13:56:37.861178 12276 net.cpp:148] Top shape: 24 832 7 7 (978432)
I0403 13:56:37.861193 12276 net.cpp:148] Top shape: 24 832 7 7 (978432)
I0403 13:56:37.861207 12276 net.cpp:156] Memory required for data: 1292125728
I0403 13:56:37.861222 12276 layer_factory.hpp:77] Creating layer inception_5a/1x1
I0403 13:56:37.861243 12276 net.cpp:91] Creating Layer inception_5a/1x1
I0403 13:56:37.861263 12276 net.cpp:425] inception_5a/1x1 <- pool4/3x3_s2_pool4/3x3_s2_0_split_0
I0403 13:56:37.861284 12276 net.cpp:399] inception_5a/1x1 -> inception_5a/1x1
I0403 13:56:37.864158 12276 net.cpp:141] Setting up inception_5a/1x1
I0403 13:56:37.864188 12276 net.cpp:148] Top shape: 24 256 7 7 (301056)
I0403 13:56:37.864204 12276 net.cpp:156] Memory required for data: 1293329952
I0403 13:56:37.864223 12276 layer_factory.hpp:77] Creating layer inception_5a/relu_1x1
I0403 13:56:37.864243 12276 net.cpp:91] Creating Layer inception_5a/relu_1x1
I0403 13:56:37.864261 12276 net.cpp:425] inception_5a/relu_1x1 <- inception_5a/1x1
I0403 13:56:37.864287 12276 net.cpp:386] inception_5a/relu_1x1 -> inception_5a/1x1 (in-place)
I0403 13:56:37.864610 12276 net.cpp:141] Setting up inception_5a/relu_1x1
I0403 13:56:37.864637 12276 net.cpp:148] Top shape: 24 256 7 7 (301056)
I0403 13:56:37.864652 12276 net.cpp:156] Memory required for data: 1294534176
I0403 13:56:37.864667 12276 layer_factory.hpp:77] Creating layer inception_5a/3x3_reduce
I0403 13:56:37.864689 12276 net.cpp:91] Creating Layer inception_5a/3x3_reduce
I0403 13:56:37.864707 12276 net.cpp:425] inception_5a/3x3_reduce <- pool4/3x3_s2_pool4/3x3_s2_0_split_1
I0403 13:56:37.864727 12276 net.cpp:399] inception_5a/3x3_reduce -> inception_5a/3x3_reduce
I0403 13:56:37.867190 12276 net.cpp:141] Setting up inception_5a/3x3_reduce
I0403 13:56:37.867223 12276 net.cpp:148] Top shape: 24 160 7 7 (188160)
I0403 13:56:37.867240 12276 net.cpp:156] Memory required for data: 1295286816
I0403 13:56:37.867259 12276 layer_factory.hpp:77] Creating layer inception_5a/relu_3x3_reduce
I0403 13:56:37.867279 12276 net.cpp:91] Creating Layer inception_5a/relu_3x3_reduce
I0403 13:56:37.867295 12276 net.cpp:425] inception_5a/relu_3x3_reduce <- inception_5a/3x3_reduce
I0403 13:56:37.867313 12276 net.cpp:386] inception_5a/relu_3x3_reduce -> inception_5a/3x3_reduce (in-place)
I0403 13:56:37.867503 12276 net.cpp:141] Setting up inception_5a/relu_3x3_reduce
I0403 13:56:37.867529 12276 net.cpp:148] Top shape: 24 160 7 7 (188160)
I0403 13:56:37.867552 12276 net.cpp:156] Memory required for data: 1296039456
I0403 13:56:37.867568 12276 layer_factory.hpp:77] Creating layer inception_5a/3x3
I0403 13:56:37.867590 12276 net.cpp:91] Creating Layer inception_5a/3x3
I0403 13:56:37.867609 12276 net.cpp:425] inception_5a/3x3 <- inception_5a/3x3_reduce
I0403 13:56:37.867632 12276 net.cpp:399] inception_5a/3x3 -> inception_5a/3x3
I0403 13:56:37.872678 12276 net.cpp:141] Setting up inception_5a/3x3
I0403 13:56:37.872709 12276 net.cpp:148] Top shape: 24 320 7 7 (376320)
I0403 13:56:37.872726 12276 net.cpp:156] Memory required for data: 1297544736
I0403 13:56:37.872745 12276 layer_factory.hpp:77] Creating layer inception_5a/relu_3x3
I0403 13:56:37.872766 12276 net.cpp:91] Creating Layer inception_5a/relu_3x3
I0403 13:56:37.872783 12276 net.cpp:425] inception_5a/relu_3x3 <- inception_5a/3x3
I0403 13:56:37.872803 12276 net.cpp:386] inception_5a/relu_3x3 -> inception_5a/3x3 (in-place)
I0403 13:56:37.873118 12276 net.cpp:141] Setting up inception_5a/relu_3x3
I0403 13:56:37.873147 12276 net.cpp:148] Top shape: 24 320 7 7 (376320)
I0403 13:56:37.873163 12276 net.cpp:156] Memory required for data: 1299050016
I0403 13:56:37.873178 12276 layer_factory.hpp:77] Creating layer inception_5a/5x5_reduce
I0403 13:56:37.873201 12276 net.cpp:91] Creating Layer inception_5a/5x5_reduce
I0403 13:56:37.873220 12276 net.cpp:425] inception_5a/5x5_reduce <- pool4/3x3_s2_pool4/3x3_s2_0_split_2
I0403 13:56:37.873242 12276 net.cpp:399] inception_5a/5x5_reduce -> inception_5a/5x5_reduce
I0403 13:56:37.874433 12276 net.cpp:141] Setting up inception_5a/5x5_reduce
I0403 13:56:37.874464 12276 net.cpp:148] Top shape: 24 32 7 7 (37632)
I0403 13:56:37.874481 12276 net.cpp:156] Memory required for data: 1299200544
I0403 13:56:37.874501 12276 layer_factory.hpp:77] Creating layer inception_5a/relu_5x5_reduce
I0403 13:56:37.874519 12276 net.cpp:91] Creating Layer inception_5a/relu_5x5_reduce
I0403 13:56:37.874546 12276 net.cpp:425] inception_5a/relu_5x5_reduce <- inception_5a/5x5_reduce
I0403 13:56:37.874573 12276 net.cpp:386] inception_5a/relu_5x5_reduce -> inception_5a/5x5_reduce (in-place)
I0403 13:56:37.874883 12276 net.cpp:141] Setting up inception_5a/relu_5x5_reduce
I0403 13:56:37.874909 12276 net.cpp:148] Top shape: 24 32 7 7 (37632)
I0403 13:56:37.874924 12276 net.cpp:156] Memory required for data: 1299351072
I0403 13:56:37.874939 12276 layer_factory.hpp:77] Creating layer inception_5a/5x5
I0403 13:56:37.874963 12276 net.cpp:91] Creating Layer inception_5a/5x5
I0403 13:56:37.874980 12276 net.cpp:425] inception_5a/5x5 <- inception_5a/5x5_reduce
I0403 13:56:37.875000 12276 net.cpp:399] inception_5a/5x5 -> inception_5a/5x5
I0403 13:56:37.876744 12276 net.cpp:141] Setting up inception_5a/5x5
I0403 13:56:37.876785 12276 net.cpp:148] Top shape: 24 128 7 7 (150528)
I0403 13:56:37.876802 12276 net.cpp:156] Memory required for data: 1299953184
I0403 13:56:37.876821 12276 layer_factory.hpp:77] Creating layer inception_5a/relu_5x5
I0403 13:56:37.876839 12276 net.cpp:91] Creating Layer inception_5a/relu_5x5
I0403 13:56:37.876855 12276 net.cpp:425] inception_5a/relu_5x5 <- inception_5a/5x5
I0403 13:56:37.876874 12276 net.cpp:386] inception_5a/relu_5x5 -> inception_5a/5x5 (in-place)
I0403 13:56:37.877066 12276 net.cpp:141] Setting up inception_5a/relu_5x5
I0403 13:56:37.877094 12276 net.cpp:148] Top shape: 24 128 7 7 (150528)
I0403 13:56:37.877109 12276 net.cpp:156] Memory required for data: 1300555296
I0403 13:56:37.877123 12276 layer_factory.hpp:77] Creating layer inception_5a/pool
I0403 13:56:37.877145 12276 net.cpp:91] Creating Layer inception_5a/pool
I0403 13:56:37.877161 12276 net.cpp:425] inception_5a/pool <- pool4/3x3_s2_pool4/3x3_s2_0_split_3
I0403 13:56:37.877179 12276 net.cpp:399] inception_5a/pool -> inception_5a/pool
I0403 13:56:37.877251 12276 net.cpp:141] Setting up inception_5a/pool
I0403 13:56:37.877276 12276 net.cpp:148] Top shape: 24 832 7 7 (978432)
I0403 13:56:37.877290 12276 net.cpp:156] Memory required for data: 1304469024
I0403 13:56:37.877305 12276 layer_factory.hpp:77] Creating layer inception_5a/pool_proj
I0403 13:56:37.877327 12276 net.cpp:91] Creating Layer inception_5a/pool_proj
I0403 13:56:37.877344 12276 net.cpp:425] inception_5a/pool_proj <- inception_5a/pool
I0403 13:56:37.877364 12276 net.cpp:399] inception_5a/pool_proj -> inception_5a/pool_proj
I0403 13:56:37.879662 12276 net.cpp:141] Setting up inception_5a/pool_proj
I0403 13:56:37.879694 12276 net.cpp:148] Top shape: 24 128 7 7 (150528)
I0403 13:56:37.879712 12276 net.cpp:156] Memory required for data: 1305071136
I0403 13:56:37.879732 12276 layer_factory.hpp:77] Creating layer inception_5a/relu_pool_proj
I0403 13:56:37.879752 12276 net.cpp:91] Creating Layer inception_5a/relu_pool_proj
I0403 13:56:37.879770 12276 net.cpp:425] inception_5a/relu_pool_proj <- inception_5a/pool_proj
I0403 13:56:37.879791 12276 net.cpp:386] inception_5a/relu_pool_proj -> inception_5a/pool_proj (in-place)
I0403 13:56:37.880087 12276 net.cpp:141] Setting up inception_5a/relu_pool_proj
I0403 13:56:37.880115 12276 net.cpp:148] Top shape: 24 128 7 7 (150528)
I0403 13:56:37.880132 12276 net.cpp:156] Memory required for data: 1305673248
I0403 13:56:37.880147 12276 layer_factory.hpp:77] Creating layer inception_5a/output
I0403 13:56:37.880164 12276 net.cpp:91] Creating Layer inception_5a/output
I0403 13:56:37.880182 12276 net.cpp:425] inception_5a/output <- inception_5a/1x1
I0403 13:56:37.880198 12276 net.cpp:425] inception_5a/output <- inception_5a/3x3
I0403 13:56:37.880213 12276 net.cpp:425] inception_5a/output <- inception_5a/5x5
I0403 13:56:37.880229 12276 net.cpp:425] inception_5a/output <- inception_5a/pool_proj
I0403 13:56:37.880249 12276 net.cpp:399] inception_5a/output -> inception_5a/output
I0403 13:56:37.880300 12276 net.cpp:141] Setting up inception_5a/output
I0403 13:56:37.880323 12276 net.cpp:148] Top shape: 24 832 7 7 (978432)
I0403 13:56:37.880337 12276 net.cpp:156] Memory required for data: 1309586976
I0403 13:56:37.880352 12276 layer_factory.hpp:77] Creating layer inception_5a/output_inception_5a/output_0_split
I0403 13:56:37.880372 12276 net.cpp:91] Creating Layer inception_5a/output_inception_5a/output_0_split
I0403 13:56:37.880388 12276 net.cpp:425] inception_5a/output_inception_5a/output_0_split <- inception_5a/output
I0403 13:56:37.880404 12276 net.cpp:399] inception_5a/output_inception_5a/output_0_split -> inception_5a/output_inception_5a/output_0_split_0
I0403 13:56:37.880424 12276 net.cpp:399] inception_5a/output_inception_5a/output_0_split -> inception_5a/output_inception_5a/output_0_split_1
I0403 13:56:37.880447 12276 net.cpp:399] inception_5a/output_inception_5a/output_0_split -> inception_5a/output_inception_5a/output_0_split_2
I0403 13:56:37.880467 12276 net.cpp:399] inception_5a/output_inception_5a/output_0_split -> inception_5a/output_inception_5a/output_0_split_3
I0403 13:56:37.880594 12276 net.cpp:141] Setting up inception_5a/output_inception_5a/output_0_split
I0403 13:56:37.880627 12276 net.cpp:148] Top shape: 24 832 7 7 (978432)
I0403 13:56:37.880645 12276 net.cpp:148] Top shape: 24 832 7 7 (978432)
I0403 13:56:37.880659 12276 net.cpp:148] Top shape: 24 832 7 7 (978432)
I0403 13:56:37.880673 12276 net.cpp:148] Top shape: 24 832 7 7 (978432)
I0403 13:56:37.880686 12276 net.cpp:156] Memory required for data: 1325241888
I0403 13:56:37.880700 12276 layer_factory.hpp:77] Creating layer inception_5b/1x1
I0403 13:56:37.880722 12276 net.cpp:91] Creating Layer inception_5b/1x1
I0403 13:56:37.880739 12276 net.cpp:425] inception_5b/1x1 <- inception_5a/output_inception_5a/output_0_split_0
I0403 13:56:37.880760 12276 net.cpp:399] inception_5b/1x1 -> inception_5b/1x1
I0403 13:56:37.884600 12276 net.cpp:141] Setting up inception_5b/1x1
I0403 13:56:37.884634 12276 net.cpp:148] Top shape: 24 384 7 7 (451584)
I0403 13:56:37.884654 12276 net.cpp:156] Memory required for data: 1327048224
I0403 13:56:37.884673 12276 layer_factory.hpp:77] Creating layer inception_5b/relu_1x1
I0403 13:56:37.884692 12276 net.cpp:91] Creating Layer inception_5b/relu_1x1
I0403 13:56:37.884708 12276 net.cpp:425] inception_5b/relu_1x1 <- inception_5b/1x1
I0403 13:56:37.884728 12276 net.cpp:386] inception_5b/relu_1x1 -> inception_5b/1x1 (in-place)
I0403 13:56:37.885048 12276 net.cpp:141] Setting up inception_5b/relu_1x1
I0403 13:56:37.885078 12276 net.cpp:148] Top shape: 24 384 7 7 (451584)
I0403 13:56:37.885095 12276 net.cpp:156] Memory required for data: 1328854560
I0403 13:56:37.885110 12276 layer_factory.hpp:77] Creating layer inception_5b/3x3_reduce
I0403 13:56:37.885134 12276 net.cpp:91] Creating Layer inception_5b/3x3_reduce
I0403 13:56:37.885155 12276 net.cpp:425] inception_5b/3x3_reduce <- inception_5a/output_inception_5a/output_0_split_1
I0403 13:56:37.885174 12276 net.cpp:399] inception_5b/3x3_reduce -> inception_5b/3x3_reduce
I0403 13:56:37.887876 12276 net.cpp:141] Setting up inception_5b/3x3_reduce
I0403 13:56:37.887909 12276 net.cpp:148] Top shape: 24 192 7 7 (225792)
I0403 13:56:37.887928 12276 net.cpp:156] Memory required for data: 1329757728
I0403 13:56:37.887948 12276 layer_factory.hpp:77] Creating layer inception_5b/relu_3x3_reduce
I0403 13:56:37.887965 12276 net.cpp:91] Creating Layer inception_5b/relu_3x3_reduce
I0403 13:56:37.887981 12276 net.cpp:425] inception_5b/relu_3x3_reduce <- inception_5b/3x3_reduce
I0403 13:56:37.888002 12276 net.cpp:386] inception_5b/relu_3x3_reduce -> inception_5b/3x3_reduce (in-place)
I0403 13:56:37.888195 12276 net.cpp:141] Setting up inception_5b/relu_3x3_reduce
I0403 13:56:37.888221 12276 net.cpp:148] Top shape: 24 192 7 7 (225792)
I0403 13:56:37.888237 12276 net.cpp:156] Memory required for data: 1330660896
I0403 13:56:37.888253 12276 layer_factory.hpp:77] Creating layer inception_5b/3x3
I0403 13:56:37.888276 12276 net.cpp:91] Creating Layer inception_5b/3x3
I0403 13:56:37.888295 12276 net.cpp:425] inception_5b/3x3 <- inception_5b/3x3_reduce
I0403 13:56:37.888319 12276 net.cpp:399] inception_5b/3x3 -> inception_5b/3x3
I0403 13:56:37.895081 12276 net.cpp:141] Setting up inception_5b/3x3
I0403 13:56:37.895113 12276 net.cpp:148] Top shape: 24 384 7 7 (451584)
I0403 13:56:37.895130 12276 net.cpp:156] Memory required for data: 1332467232
I0403 13:56:37.895150 12276 layer_factory.hpp:77] Creating layer inception_5b/relu_3x3
I0403 13:56:37.895169 12276 net.cpp:91] Creating Layer inception_5b/relu_3x3
I0403 13:56:37.895185 12276 net.cpp:425] inception_5b/relu_3x3 <- inception_5b/3x3
I0403 13:56:37.895205 12276 net.cpp:386] inception_5b/relu_3x3 -> inception_5b/3x3 (in-place)
I0403 13:56:37.895505 12276 net.cpp:141] Setting up inception_5b/relu_3x3
I0403 13:56:37.895535 12276 net.cpp:148] Top shape: 24 384 7 7 (451584)
I0403 13:56:37.895558 12276 net.cpp:156] Memory required for data: 1334273568
I0403 13:56:37.895573 12276 layer_factory.hpp:77] Creating layer inception_5b/5x5_reduce
I0403 13:56:37.895617 12276 net.cpp:91] Creating Layer inception_5b/5x5_reduce
I0403 13:56:37.895637 12276 net.cpp:425] inception_5b/5x5_reduce <- inception_5a/output_inception_5a/output_0_split_2
I0403 13:56:37.895658 12276 net.cpp:399] inception_5b/5x5_reduce -> inception_5b/5x5_reduce
I0403 13:56:37.896951 12276 net.cpp:141] Setting up inception_5b/5x5_reduce
I0403 13:56:37.896981 12276 net.cpp:148] Top shape: 24 48 7 7 (56448)
I0403 13:56:37.896997 12276 net.cpp:156] Memory required for data: 1334499360
I0403 13:56:37.897017 12276 layer_factory.hpp:77] Creating layer inception_5b/relu_5x5_reduce
I0403 13:56:37.897034 12276 net.cpp:91] Creating Layer inception_5b/relu_5x5_reduce
I0403 13:56:37.897052 12276 net.cpp:425] inception_5b/relu_5x5_reduce <- inception_5b/5x5_reduce
I0403 13:56:37.897070 12276 net.cpp:386] inception_5b/relu_5x5_reduce -> inception_5b/5x5_reduce (in-place)
I0403 13:56:37.897447 12276 net.cpp:141] Setting up inception_5b/relu_5x5_reduce
I0403 13:56:37.897475 12276 net.cpp:148] Top shape: 24 48 7 7 (56448)
I0403 13:56:37.897491 12276 net.cpp:156] Memory required for data: 1334725152
I0403 13:56:37.897505 12276 layer_factory.hpp:77] Creating layer inception_5b/5x5
I0403 13:56:37.897526 12276 net.cpp:91] Creating Layer inception_5b/5x5
I0403 13:56:37.897547 12276 net.cpp:425] inception_5b/5x5 <- inception_5b/5x5_reduce
I0403 13:56:37.897567 12276 net.cpp:399] inception_5b/5x5 -> inception_5b/5x5
I0403 13:56:37.899665 12276 net.cpp:141] Setting up inception_5b/5x5
I0403 13:56:37.899693 12276 net.cpp:148] Top shape: 24 128 7 7 (150528)
I0403 13:56:37.899710 12276 net.cpp:156] Memory required for data: 1335327264
I0403 13:56:37.899730 12276 layer_factory.hpp:77] Creating layer inception_5b/relu_5x5
I0403 13:56:37.899751 12276 net.cpp:91] Creating Layer inception_5b/relu_5x5
I0403 13:56:37.899770 12276 net.cpp:425] inception_5b/relu_5x5 <- inception_5b/5x5
I0403 13:56:37.899786 12276 net.cpp:386] inception_5b/relu_5x5 -> inception_5b/5x5 (in-place)
I0403 13:56:37.899982 12276 net.cpp:141] Setting up inception_5b/relu_5x5
I0403 13:56:37.900009 12276 net.cpp:148] Top shape: 24 128 7 7 (150528)
I0403 13:56:37.900024 12276 net.cpp:156] Memory required for data: 1335929376
I0403 13:56:37.900040 12276 layer_factory.hpp:77] Creating layer inception_5b/pool
I0403 13:56:37.900060 12276 net.cpp:91] Creating Layer inception_5b/pool
I0403 13:56:37.900079 12276 net.cpp:425] inception_5b/pool <- inception_5a/output_inception_5a/output_0_split_3
I0403 13:56:37.900096 12276 net.cpp:399] inception_5b/pool -> inception_5b/pool
I0403 13:56:37.900171 12276 net.cpp:141] Setting up inception_5b/pool
I0403 13:56:37.900195 12276 net.cpp:148] Top shape: 24 832 7 7 (978432)
I0403 13:56:37.900209 12276 net.cpp:156] Memory required for data: 1339843104
I0403 13:56:37.900224 12276 layer_factory.hpp:77] Creating layer inception_5b/pool_proj
I0403 13:56:37.900245 12276 net.cpp:91] Creating Layer inception_5b/pool_proj
I0403 13:56:37.900265 12276 net.cpp:425] inception_5b/pool_proj <- inception_5b/pool
I0403 13:56:37.900285 12276 net.cpp:399] inception_5b/pool_proj -> inception_5b/pool_proj
I0403 13:56:37.902638 12276 net.cpp:141] Setting up inception_5b/pool_proj
I0403 13:56:37.902668 12276 net.cpp:148] Top shape: 24 128 7 7 (150528)
I0403 13:56:37.902686 12276 net.cpp:156] Memory required for data: 1340445216
I0403 13:56:37.902705 12276 layer_factory.hpp:77] Creating layer inception_5b/relu_pool_proj
I0403 13:56:37.902724 12276 net.cpp:91] Creating Layer inception_5b/relu_pool_proj
I0403 13:56:37.902740 12276 net.cpp:425] inception_5b/relu_pool_proj <- inception_5b/pool_proj
I0403 13:56:37.902760 12276 net.cpp:386] inception_5b/relu_pool_proj -> inception_5b/pool_proj (in-place)
I0403 13:56:37.903070 12276 net.cpp:141] Setting up inception_5b/relu_pool_proj
I0403 13:56:37.903098 12276 net.cpp:148] Top shape: 24 128 7 7 (150528)
I0403 13:56:37.903115 12276 net.cpp:156] Memory required for data: 1341047328
I0403 13:56:37.903131 12276 layer_factory.hpp:77] Creating layer inception_5b/output
I0403 13:56:37.903148 12276 net.cpp:91] Creating Layer inception_5b/output
I0403 13:56:37.903182 12276 net.cpp:425] inception_5b/output <- inception_5b/1x1
I0403 13:56:37.903199 12276 net.cpp:425] inception_5b/output <- inception_5b/3x3
I0403 13:56:37.903216 12276 net.cpp:425] inception_5b/output <- inception_5b/5x5
I0403 13:56:37.903235 12276 net.cpp:425] inception_5b/output <- inception_5b/pool_proj
I0403 13:56:37.903254 12276 net.cpp:399] inception_5b/output -> inception_5b/output
I0403 13:56:37.903308 12276 net.cpp:141] Setting up inception_5b/output
I0403 13:56:37.903337 12276 net.cpp:148] Top shape: 24 1024 7 7 (1204224)
I0403 13:56:37.903352 12276 net.cpp:156] Memory required for data: 1345864224
I0403 13:56:37.903367 12276 layer_factory.hpp:77] Creating layer pool5/7x7_s1
I0403 13:56:37.903384 12276 net.cpp:91] Creating Layer pool5/7x7_s1
I0403 13:56:37.903401 12276 net.cpp:425] pool5/7x7_s1 <- inception_5b/output
I0403 13:56:37.903420 12276 net.cpp:399] pool5/7x7_s1 -> pool5/7x7_s1
I0403 13:56:37.903645 12276 net.cpp:141] Setting up pool5/7x7_s1
I0403 13:56:37.903671 12276 net.cpp:148] Top shape: 24 1024 1 1 (24576)
I0403 13:56:37.903687 12276 net.cpp:156] Memory required for data: 1345962528
I0403 13:56:37.903700 12276 layer_factory.hpp:77] Creating layer pool5/drop_7x7_s1
I0403 13:56:37.903718 12276 net.cpp:91] Creating Layer pool5/drop_7x7_s1
I0403 13:56:37.903733 12276 net.cpp:425] pool5/drop_7x7_s1 <- pool5/7x7_s1
I0403 13:56:37.903753 12276 net.cpp:386] pool5/drop_7x7_s1 -> pool5/7x7_s1 (in-place)
I0403 13:56:37.903802 12276 net.cpp:141] Setting up pool5/drop_7x7_s1
I0403 13:56:37.903828 12276 net.cpp:148] Top shape: 24 1024 1 1 (24576)
I0403 13:56:37.903843 12276 net.cpp:156] Memory required for data: 1346060832
I0403 13:56:37.903857 12276 layer_factory.hpp:77] Creating layer loss3/classifier_plantvillage
I0403 13:56:37.903877 12276 net.cpp:91] Creating Layer loss3/classifier_plantvillage
I0403 13:56:37.903892 12276 net.cpp:425] loss3/classifier_plantvillage <- pool5/7x7_s1
I0403 13:56:37.903911 12276 net.cpp:399] loss3/classifier_plantvillage -> loss3/classifier_plantvillage
I0403 13:56:37.904340 12276 net.cpp:141] Setting up loss3/classifier_plantvillage
I0403 13:56:37.904366 12276 net.cpp:148] Top shape: 24 38 (912)
I0403 13:56:37.904379 12276 net.cpp:156] Memory required for data: 1346064480
I0403 13:56:37.904397 12276 layer_factory.hpp:77] Creating layer loss3/classifier_plantvillage_loss3/classifier_plantvillage_0_split
I0403 13:56:37.904417 12276 net.cpp:91] Creating Layer loss3/classifier_plantvillage_loss3/classifier_plantvillage_0_split
I0403 13:56:37.904434 12276 net.cpp:425] loss3/classifier_plantvillage_loss3/classifier_plantvillage_0_split <- loss3/classifier_plantvillage
I0403 13:56:37.904451 12276 net.cpp:399] loss3/classifier_plantvillage_loss3/classifier_plantvillage_0_split -> loss3/classifier_plantvillage_loss3/classifier_plantvillage_0_split_0
I0403 13:56:37.904472 12276 net.cpp:399] loss3/classifier_plantvillage_loss3/classifier_plantvillage_0_split -> loss3/classifier_plantvillage_loss3/classifier_plantvillage_0_split_1
I0403 13:56:37.904494 12276 net.cpp:399] loss3/classifier_plantvillage_loss3/classifier_plantvillage_0_split -> loss3/classifier_plantvillage_loss3/classifier_plantvillage_0_split_2
I0403 13:56:37.904513 12276 net.cpp:399] loss3/classifier_plantvillage_loss3/classifier_plantvillage_0_split -> loss3/classifier_plantvillage_loss3/classifier_plantvillage_0_split_3
I0403 13:56:37.904635 12276 net.cpp:141] Setting up loss3/classifier_plantvillage_loss3/classifier_plantvillage_0_split
I0403 13:56:37.904659 12276 net.cpp:148] Top shape: 24 38 (912)
I0403 13:56:37.904675 12276 net.cpp:148] Top shape: 24 38 (912)
I0403 13:56:37.904690 12276 net.cpp:148] Top shape: 24 38 (912)
I0403 13:56:37.904706 12276 net.cpp:148] Top shape: 24 38 (912)
I0403 13:56:37.904719 12276 net.cpp:156] Memory required for data: 1346079072
I0403 13:56:37.904733 12276 layer_factory.hpp:77] Creating layer loss1/loss
I0403 13:56:37.904754 12276 net.cpp:91] Creating Layer loss1/loss
I0403 13:56:37.904772 12276 net.cpp:425] loss1/loss <- loss1/classifier_plantvillage_loss1/classifier_plantvillage_0_split_0
I0403 13:56:37.904803 12276 net.cpp:425] loss1/loss <- label_data_1_split_0
…
