…
I0403 14:18:47.863881 13132 net.cpp:313] The NetState phase (1) differed from the phase (0) specified by a rule in layer data
I0403 14:18:47.865018 13132 net.cpp:49] Initializing net from parameters: 
state {
  phase: TEST
}
layer {
  name: "data"
  type: "Data"
  top: "data"
  top: "label"
  include {
    phase: TEST
  }
  transform_param {
    mirror: false
    crop_size: 224
    mean_file: "/home/mohanty/data/final_dataset/lmdb/segmented-20-80/mean.binaryproto"
  }
  data_param {
    source: "/home/mohanty/data/final_dataset/lmdb/segmented-20-80/test_db"
    batch_size: 24
    backend: LMDB
  }
}
layer {
  name: "conv1/7x7_s2"
  type: "Convolution"
  bottom: "data"
  top: "conv1/7x7_s2"
  param {
    lr_mult: 1
    decay_mult: 1
  }
  param {
    lr_mult: 2
    decay_mult: 0
  }
  convolution_param {
    num_output: 64
    pad: 3
    kernel_size: 7
    stride: 2
    weight_filler {
      type: "xavier"
      std: 0.1
    }
    bias_filler {
      type: "constant"
      value: 0.2
    }
  }
}
layer {
  name: "conv1/relu_7x7"
  type: "ReLU"
  bottom: "conv1/7x7_s2"
  top: "conv1/7x7_s2"
}
layer {
  name: "pool1/3x3_s2"
  type: "Pooling"
  bottom: "conv1/7x7_s2"
  top: "pool1/3x3_s2"
  pooling_param {
    pool: MAX
    kernel_size: 3
    stride: 2
  }
}
layer {
  name: "pool1/norm1"
  type: "LRN"
  bottom: "pool1/3x3_s2"
  top: "pool1/norm1"
  lrn_param {
    local_size: 5
    alpha: 0.0001
    beta: 0.75
  }
}
layer {
  name: "conv2/3x3_reduce"
  type: "Convolution"
  bottom: "pool1/norm1"
  top: "conv2/3x3_reduce"
  param {
    lr_mult: 1
    decay_mult: 1
  }
  param {
    lr_mult: 2
    decay_mult: 0
  }
  convolution_param {
    num_output: 64
    kernel_size: 1
    weight_filler {
      type: "xavier"
      std: 0.1
    }
    bias_filler {
      type: "constant"
      value: 0.2
    }
  }
}
layer {
  name: "conv2/relu_3x3_reduce"
  type: "ReLU"
  bottom: "conv2/3x3_reduce"
  top: "conv2/3x3_reduce"
}
layer {
  name: "conv2/3x3"
  type: "Convolution"
  bottom: "conv2/3x3_reduce"
  top: "conv2/3x3"
  param {
    lr_mult: 1
    decay_mult: 1
  }
  param {
    lr_mult: 2
    decay_mult: 0
  }
  convolution_param {
    num_output: 192
    pad: 1
    kernel_size: 3
    weight_filler {
      type: "xavier"
      std: 0.03
    }
    bias_filler {
      type: "constant"
      value: 0.2
    }
  }
}
layer {
  name: "conv2/relu_3x3"
  type: "ReLU"
  bottom: "conv2/3x3"
  top: "conv2/3x3"
}
layer {
  name: "conv2/norm2"
  type: "LRN"
  bottom: "conv2/3x3"
  top: "conv2/norm2"
  lrn_param {
    local_size: 5
    alpha: 0.0001
    beta: 0.75
  }
}
layer {
  name: "pool2/3x3_s2"
  type: "Pooling"
  bottom: "conv2/norm2"
  top: "pool2/3x3_s2"
  pooling_param {
    pool: MAX
    kernel_size: 3
    stride: 2
  }
}
layer {
  name: "inception_3a/1x1"
  type: "Convolution"
  bottom: "pool2/3x3_s2"
  top: "inception_3a/1x1"
  param {
    lr_mult: 1
    decay_mult: 1
  }
  param {
    lr_mult: 2
    decay_mult: 0
  }
  convolution_param {
    num_output: 64
    kernel_size: 1
    weight_filler {
      type: "xavier"
      std: 0.03
    }
    bias_filler {
      type: "constant"
      value: 0.2
    }
  }
}
layer {
  name: "inception_3a/relu_1x1"
  type: "ReLU"
  bottom: "inception_3a/1x1"
  top: "inception_3a/1x1"
}
layer {
  name: "inception_3a/3x3_reduce"
  type: "Convolution"
  bottom: "pool2/3x3_s2"
  top: "inception_3a/3x3_reduce"
  param {
    lr_mult: 1
    decay_mult: 1
  }
  param {
    lr_mult: 2
    decay_mult: 0
  }
  convolution_param {
    num_output: 96
    kernel_size: 1
    weight_filler {
      type: "xavier"
      std: 0.09
    }
    bias_filler {
      type: "constant"
      value: 0.2
    }
  }
}
layer {
  name: "inception_3a/relu_3x3_reduce"
  type: "ReLU"
  bottom: "inception_3a/3x3_reduce"
  top: "inception_3a/3x3_reduce"
}
layer {
  name: "inception_3a/3x3"
  type: "Convolution"
  bottom: "inception_3a/3x3_reduce"
  top: "inception_3a/3x3"
  param {
    lr_mult: 1
    decay_mult: 1
  }
  param {
    lr_mult: 2
    decay_mult: 0
  }
  convolution_param {
    num_output: 128
    pad: 1
    kernel_size: 3
    weight_filler {
      type: "xavier"
      std: 0.03
    }
    bias_filler {
      type: "constant"
      value: 0.2
    }
  }
}
layer {
  name: "inception_3a/relu_3x3"
  type: "ReLU"
  bottom: "inception_3a/3x3"
  top: "inception_3a/3x3"
}
layer {
  name: "inception_3a/5x5_reduce"
  type: "Convolution"
  bottom: "pool2/3x3_s2"
  top: "inception_3a/5x5_reduce"
  param {
    lr_mult: 1
    decay_mult: 1
  }
  param {
    lr_mult: 2
    decay_mult: 0
  }
  convolution_param {
    num_output: 16
    kernel_size: 1
    weight_filler {
      type: "xavier"
      std: 0.2
    }
    bias_filler {
      type: "constant"
      value: 0.2
    }
  }
}
layer {
  name: "inception_3a/relu_5x5_reduce"
  type: "ReLU"
  bottom: "inception_3a/5x5_reduce"
  top: "inception_3a/5x5_reduce"
}
layer {
  name: "inception_3a/5x5"
  type: "Convolution"
  bottom: "inception_3a/5x5_reduce"
  top: "inception_3a/5x5"
  param {
    lr_mult: 1
    decay_mult: 1
  }
  param {
    lr_mult: 2
    decay_mult: 0
  }
  convolution_param {
    num_output: 32
    pad: 2
    kernel_size: 5
    weight_filler {
      type: "xavier"
      std: 0.03
    }
    bias_filler {
      type: "constant"
      value: 0.2
    }
  }
}
layer {
  name: "inception_3a/relu_5x5"
  type: "ReLU"
  bottom: "inception_3a/5x5"
  top: "inception_3a/5x5"
}
layer {
  name: "inception_3a/pool"
  type: "Pooling"
  bottom: "pool2/3x3_s2"
  top: "inception_3a/pool"
  pooling_param {
    pool: MAX
    kernel_size: 3
    stride: 1
    pad: 1
  }
}
layer {
  name: "inception_3a/pool_proj"
  type: "Convolution"
  bottom: "inception_3a/pool"
  top: "inception_3a/pool_proj"
  param {
    lr_mult: 1
    decay_mult: 1
  }
  param {
    lr_mult: 2
    decay_mult: 0
  }
  convolution_param {
    num_output: 32
    kernel_size: 1
    weight_filler {
      type: "xavier"
      std: 0.1
    }
    bias_filler {
      type: "constant"
      value: 0.2
    }
  }
}
layer {
  name: "inception_3a/relu_pool_proj"
  type: "ReLU"
  bottom: "inception_3a/pool_proj"
  top: "inception_3a/pool_proj"
}
layer {
  name: "inception_3a/output"
  type: "Concat"
  bottom: "inception_3a/1x1"
  bottom: "inception_3a/3x3"
  bottom: "inception_3a/5x5"
  bottom: "inception_3a/pool_proj"
  top: "inception_3a/output"
}
layer {
  name: "inception_3b/1x1"
  type: "Convolution"
  bottom: "inception_3a/output"
  top: "inception_3b/1x1"
  param {
    lr_mult: 1
    decay_mult: 1
  }
  param {
    lr_mult: 2
    decay_mult: 0
  }
  convolution_param {
    num_output: 128
    kernel_size: 1
    weight_filler {
      type: "xavier"
      std: 0.03
    }
    bias_filler {
      type: "constant"
      value: 0.2
    }
  }
}
layer {
  name: "inception_3b/relu_1x1"
  type: "ReLU"
  bottom: "inception_3b/1x1"
  top: "inception_3b/1x1"
}
layer {
  name: "inception_3b/3x3_reduce"
  type: "Convolution"
  bottom: "inception_3a/output"
  top: "inception_3b/3x3_reduce"
  param {
    lr_mult: 1
    decay_mult: 1
  }
  param {
    lr_mult: 2
    decay_mult: 0
  }
  convolution_param {
    num_output: 128
    kernel_size: 1
    weight_filler {
      type: "xavier"
      std: 0.09
    }
    bias_filler {
      type: "constant"
      value: 0.2
    }
  }
}
layer {
  name: "inception_3b/relu_3x3_reduce"
  type: "ReLU"
  bottom: "inception_3b/3x3_reduce"
  top: "inception_3b/3x3_reduce"
}
layer {
  name: "inception_3b/3x3"
  type: "Convolution"
  bottom: "inception_3b/3x3_reduce"
  top: "inception_3b/3x3"
  param {
    lr_mult: 1
    decay_mult: 1
  }
  param {
    lr_mult: 2
    decay_mult: 0
  }
  convolution_param {
    num_output: 192
    pad: 1
    kernel_size: 3
    weight_filler {
      type: "xavier"
      std: 0.03
    }
    bias_filler {
      type: "constant"
      value: 0.2
    }
  }
}
layer {
  name: "inception_3b/relu_3x3"
  type: "ReLU"
  bottom: "inception_3b/3x3"
  top: "inception_3b/3x3"
}
layer {
  name: "inception_3b/5x5_reduce"
  type: "Convolution"
  bottom: "inception_3a/output"
  top: "inception_3b/5x5_reduce"
  param {
    lr_mult: 1
    decay_mult: 1
  }
  param {
    lr_mult: 2
    decay_mult: 0
  }
  convolution_param {
    num_output: 32
    kernel_size: 1
    weight_filler {
      type: "xavier"
      std: 0.2
    }
    bias_filler {
      type: "constant"
      value: 0.2
    }
  }
}
layer {
  name: "inception_3b/relu_5x5_reduce"
  type: "ReLU"
  bottom: "inception_3b/5x5_reduce"
  top: "inception_3b/5x5_reduce"
}
layer {
  name: "inception_3b/5x5"
  type: "Convolution"
  bottom: "inception_3b/5x5_reduce"
  top: "inception_3b/5x5"
  param {
    lr_mult: 1
    decay_mult: 1
  }
  param {
    lr_mult: 2
    decay_mult: 0
  }
  convolution_param {
    num_output: 96
    pad: 2
    kernel_size: 5
    weight_filler {
      type: "xavier"
      std: 0.03
    }
    bias_filler {
      type: "constant"
      value: 0.2
    }
  }
}
layer {
  name: "inception_3b/relu_5x5"
  type: "ReLU"
  bottom: "inception_3b/5x5"
  top: "inception_3b/5x5"
}
layer {
  name: "inception_3b/pool"
  type: "Pooling"
  bottom: "inception_3a/output"
  top: "inception_3b/pool"
  pooling_param {
    pool: MAX
    kernel_size: 3
    stride: 1
    pad: 1
  }
}
layer {
  name: "inception_3b/pool_proj"
  type: "Convolution"
  bottom: "inception_3b/pool"
  top: "inception_3b/pool_proj"
  param {
    lr_mult: 1
    decay_mult: 1
  }
  param {
    lr_mult: 2
    decay_mult: 0
  }
  convolution_param {
    num_output: 64
    kernel_size: 1
    weight_filler {
      type: "xavier"
      std: 0.1
    }
    bias_filler {
      type: "constant"
      value: 0.2
    }
  }
}
layer {
  name: "inception_3b/relu_pool_proj"
  type: "ReLU"
  bottom: "inception_3b/pool_proj"
  top: "inception_3b/pool_proj"
}
layer {
  name: "inception_3b/output"
  type: "Concat"
  bottom: "inception_3b/1x1"
  bottom: "inception_3b/3x3"
  bottom: "inception_3b/5x5"
  bottom: "inception_3b/pool_proj"
  top: "inception_3b/output"
}
layer {
  name: "pool3/3x3_s2"
  type: "Pooling"
  bottom: "inception_3b/output"
  top: "pool3/3x3_s2"
  pooling_param {
    pool: MAX
    kernel_size: 3
    stride: 2
  }
}
layer {
  name: "inception_4a/1x1"
  type: "Convolution"
  bottom: "pool3/3x3_s2"
  top: "inception_4a/1x1"
  param {
    lr_mult: 1
    decay_mult: 1
  }
  param {
    lr_mult: 2
    decay_mult: 0
  }
  convolution_param {
    num_output: 192
    kernel_size: 1
    weight_filler {
      type: "xavier"
      std: 0.03
    }
    bias_filler {
      type: "constant"
      value: 0.2
    }
  }
}
layer {
  name: "inception_4a/relu_1x1"
  type: "ReLU"
  bottom: "inception_4a/1x1"
  top: "inception_4a/1x1"
}
layer {
  name: "inception_4a/3x3_reduce"
  type: "Convolution"
  bottom: "pool3/3x3_s2"
  top: "inception_4a/3x3_reduce"
  param {
    lr_mult: 1
    decay_mult: 1
  }
  param {
    lr_mult: 2
    decay_mult: 0
  }
  convolution_param {
    num_output: 96
    kernel_size: 1
    weight_filler {
      type: "xavier"
      std: 0.09
    }
    bias_filler {
      type: "constant"
      value: 0.2
    }
  }
}
layer {
  name: "inception_4a/relu_3x3_reduce"
  type: "ReLU"
  bottom: "inception_4a/3x3_reduce"
  top: "inception_4a/3x3_reduce"
}
layer {
  name: "inception_4a/3x3"
  type: "Convolution"
  bottom: "inception_4a/3x3_reduce"
  top: "inception_4a/3x3"
  param {
    lr_mult: 1
    decay_mult: 1
  }
  param {
    lr_mult: 2
    decay_mult: 0
  }
  convolution_param {
    num_output: 208
    pad: 1
    kernel_size: 3
    weight_filler {
      type: "xavier"
      std: 0.03
    }
    bias_filler {
      type: "constant"
      value: 0.2
    }
  }
}
layer {
  name: "inception_4a/relu_3x3"
  type: "ReLU"
  bottom: "inception_4a/3x3"
  top: "inception_4a/3x3"
}
layer {
  name: "inception_4a/5x5_reduce"
  type: "Convolution"
  bottom: "pool3/3x3_s2"
  top: "inception_4a/5x5_reduce"
  param {
    lr_mult: 1
    decay_mult: 1
  }
  param {
    lr_mult: 2
    decay_mult: 0
  }
  convolution_param {
    num_output: 16
    kernel_size: 1
    weight_filler {
      type: "xavier"
      std: 0.2
    }
    bias_filler {
      type: "constant"
      value: 0.2
    }
  }
}
layer {
  name: "inception_4a/relu_5x5_reduce"
  type: "ReLU"
  bottom: "inception_4a/5x5_reduce"
  top: "inception_4a/5x5_reduce"
}
layer {
  name: "inception_4a/5x5"
  type: "Convolution"
  bottom: "inception_4a/5x5_reduce"
  top: "inception_4a/5x5"
  param {
    lr_mult: 1
    decay_mult: 1
  }
  param {
    lr_mult: 2
    decay_mult: 0
  }
  convolution_param {
    num_output: 48
    pad: 2
    kernel_size: 5
    weight_filler {
      type: "xavier"
      std: 0.03
    }
    bias_filler {
      type: "constant"
      value: 0.2
    }
  }
}
layer {
  name: "inception_4a/relu_5x5"
  type: "ReLU"
  bottom: "inception_4a/5x5"
  top: "inception_4a/5x5"
}
layer {
  name: "inception_4a/pool"
  type: "Pooling"
  bottom: "pool3/3x3_s2"
  top: "inception_4a/pool"
  pooling_param {
    pool: MAX
    kernel_size: 3
    stride: 1
    pad: 1
  }
}
layer {
  name: "inception_4a/pool_proj"
  type: "Convolution"
  bottom: "inception_4a/pool"
  top: "inception_4a/pool_proj"
  param {
    lr_mult: 1
    decay_mult: 1
  }
  param {
    lr_mult: 2
    decay_mult: 0
  }
  convolution_param {
    num_output: 64
    kernel_size: 1
    weight_filler {
      type: "xavier"
      std: 0.1
    }
    bias_filler {
      type: "constant"
      value: 0.2
    }
  }
}
layer {
  name: "inception_4a/relu_pool_proj"
  type: "ReLU"
  bottom: "inception_4a/pool_proj"
  top: "inception_4a/pool_proj"
}
layer {
  name: "inception_4a/output"
  type: "Concat"
  bottom: "inception_4a/1x1"
  bottom: "inception_4a/3x3"
  bottom: "inception_4a/5x5"
  bottom: "inception_4a/pool_proj"
  top: "inception_4a/output"
}
layer {
  name: "loss1/ave_pool"
  type: "Pooling"
  bottom: "inception_4a/output"
  top: "loss1/ave_pool"
  pooling_param {
    pool: AVE
    kernel_size: 5
    stride: 3
  }
}
layer {
  name: "loss1/conv"
  type: "Convolution"
  bottom: "loss1/ave_pool"
  top: "loss1/conv"
  param {
    lr_mult: 1
    decay_mult: 1
  }
  param {
    lr_mult: 2
    decay_mult: 0
  }
  convolution_param {
    num_output: 128
    kernel_size: 1
    weight_filler {
      type: "xavier"
      std: 0.08
    }
    bias_filler {
      type: "constant"
      value: 0.2
    }
  }
}
layer {
  name: "loss1/relu_conv"
  type: "ReLU"
  bottom: "loss1/conv"
  top: "loss1/conv"
}
layer {
  name: "loss1/fc"
  type: "InnerProduct"
  bottom: "loss1/conv"
  top: "loss1/fc"
  param {
    lr_mult: 1
    decay_mult: 1
  }
  param {
    lr_mult: 2
    decay_mult: 0
  }
  inner_product_param {
    num_output: 1024
    weight_filler {
      type: "xavier"
      std: 0.02
    }
    bias_filler {
      type: "constant"
      value: 0.2
    }
  }
}
layer {
  name: "loss1/relu_fc"
  type: "ReLU"
  bottom: "loss1/fc"
  top: "loss1/fc"
}
layer {
  name: "loss1/drop_fc"
  type: "Dropout"
  bottom: "loss1/fc"
  top: "loss1/fc"
  dropout_param {
    dropout_ratio: 0.7
  }
}
layer {
  name: "loss1/classifier_plantvillage"
  type: "InnerProduct"
  bottom: "loss1/fc"
  top: "loss1/classifier_plantvillage"
  param {
    lr_mult: 1
    decay_mult: 1
  }
  param {
    lr_mult: 2
    decay_mult: 0
  }
  inner_product_param {
    num_output: 38
    weight_filler {
      type: "xavier"
      std: 0.0009765625
    }
    bias_filler {
      type: "constant"
      value: 0
    }
  }
}
layer {
  name: "inception_4b/1x1"
  type: "Convolution"
  bottom: "inception_4a/output"
  top: "inception_4b/1x1"
  param {
    lr_mult: 1
    decay_mult: 1
  }
  param {
    lr_mult: 2
    decay_mult: 0
  }
  convolution_param {
    num_output: 160
    kernel_size: 1
    weight_filler {
      type: "xavier"
      std: 0.03
    }
    bias_filler {
      type: "constant"
      value: 0.2
    }
  }
}
layer {
  name: "inception_4b/relu_1x1"
  type: "ReLU"
  bottom: "inception_4b/1x1"
  top: "inception_4b/1x1"
}
layer {
  name: "inception_4b/3x3_reduce"
  type: "Convolution"
  bottom: "inception_4a/output"
  top: "inception_4b/3x3_reduce"
  param {
    lr_mult: 1
    decay_mult: 1
  }
  param {
    lr_mult: 2
    decay_mult: 0
  }
  convolution_param {
    num_output: 112
    kernel_size: 1
    weight_filler {
      type: "xavier"
      std: 0.09
    }
    bias_filler {
      type: "constant"
      value: 0.2
    }
  }
}
layer {
  name: "inception_4b/relu_3x3_reduce"
  type: "ReLU"
  bottom: "inception_4b/3x3_reduce"
  top: "inception_4b/3x3_reduce"
}
layer {
  name: "inception_4b/3x3"
  type: "Convolution"
  bottom: "inception_4b/3x3_reduce"
  top: "inception_4b/3x3"
  param {
    lr_mult: 1
    decay_mult: 1
  }
  param {
    lr_mult: 2
    decay_mult: 0
  }
  convolution_param {
    num_output: 224
    pad: 1
    kernel_size: 3
    weight_filler {
      type: "xavier"
      std: 0.03
    }
    bias_filler {
      type: "constant"
      value: 0.2
    }
  }
}
layer {
  name: "inception_4b/relu_3x3"
  type: "ReLU"
  bottom: "inception_4b/3x3"
  top: "inception_4b/3x3"
}
layer {
  name: "inception_4b/5x5_reduce"
  type: "Convolution"
  bottom: "inception_4a/output"
  top: "inception_4b/5x5_reduce"
  param {
    lr_mult: 1
    decay_mult: 1
  }
  param {
    lr_mult: 2
    decay_mult: 0
  }
  convolution_param {
    num_output: 24
    kernel_size: 1
    weight_filler {
      type: "xavier"
      std: 0.2
    }
    bias_filler {
      type: "constant"
      value: 0.2
    }
  }
}
layer {
  name: "inception_4b/relu_5x5_reduce"
  type: "ReLU"
  bottom: "inception_4b/5x5_reduce"
  top: "inception_4b/5x5_reduce"
}
layer {
  name: "inception_4b/5x5"
  type: "Convolution"
  bottom: "inception_4b/5x5_reduce"
  top: "inception_4b/5x5"
  param {
    lr_mult: 1
    decay_mult: 1
  }
  param {
    lr_mult: 2
    decay_mult: 0
  }
  convolution_param {
    num_output: 64
    pad: 2
    kernel_size: 5
    weight_filler {
      type: "xavier"
      std: 0.03
    }
    bias_filler {
      type: "constant"
      value: 0.2
    }
  }
}
layer {
  name: "inception_4b/relu_5x5"
  type: "ReLU"
  bottom: "inception_4b/5x5"
  top: "inception_4b/5x5"
}
layer {
  name: "inception_4b/pool"
  type: "Pooling"
  bottom: "inception_4a/output"
  top: "inception_4b/pool"
  pooling_param {
    pool: MAX
    kernel_size: 3
    stride: 1
    pad: 1
  }
}
layer {
  name: "inception_4b/pool_proj"
  type: "Convolution"
  bottom: "inception_4b/pool"
  top: "inception_4b/pool_proj"
  param {
    lr_mult: 1
    decay_mult: 1
  }
  param {
    lr_mult: 2
    decay_mult: 0
  }
  convolution_param {
    num_output: 64
    kernel_size: 1
    weight_filler {
      type: "xavier"
      std: 0.1
    }
    bias_filler {
      type: "constant"
      value: 0.2
    }
  }
}
layer {
  name: "inception_4b/relu_pool_proj"
  type: "ReLU"
  bottom: "inception_4b/pool_proj"
  top: "inception_4b/pool_proj"
}
layer {
  name: "inception_4b/output"
  type: "Concat"
  bottom: "inception_4b/1x1"
  bottom: "inception_4b/3x3"
  bottom: "inception_4b/5x5"
  bottom: "inception_4b/pool_proj"
  top: "inception_4b/output"
}
layer {
  name: "inception_4c/1x1"
  type: "Convolution"
  bottom: "inception_4b/output"
  top: "inception_4c/1x1"
  param {
    lr_mult: 1
    decay_mult: 1
  }
  param {
    lr_mult: 2
    decay_mult: 0
  }
  convolution_param {
    num_output: 128
    kernel_size: 1
    weight_filler {
      type: "xavier"
      std: 0.03
    }
    bias_filler {
      type: "constant"
      value: 0.2
    }
  }
}
layer {
  name: "inception_4c/relu_1x1"
  type: "ReLU"
  bottom: "inception_4c/1x1"
  top: "inception_4c/1x1"
}
layer {
  name: "inception_4c/3x3_reduce"
  type: "Convolution"
  bottom: "inception_4b/output"
  top: "inception_4c/3x3_reduce"
  param {
    lr_mult: 1
    decay_mult: 1
  }
  param {
    lr_mult: 2
    decay_mult: 0
  }
  convolution_param {
    num_output: 128
    kernel_size: 1
    weight_filler {
      type: "xavier"
      std: 0.09
    }
    bias_filler {
      type: "constant"
      value: 0.2
    }
  }
}
layer {
  name: "inception_4c/relu_3x3_reduce"
  type: "ReLU"
  bottom: "inception_4c/3x3_reduce"
  top: "inception_4c/3x3_reduce"
}
layer {
  name: "inception_4c/3x3"
  type: "Convolution"
  bottom: "inception_4c/3x3_reduce"
  top: "inception_4c/3x3"
  param {
    lr_mult: 1
    decay_mult: 1
  }
  param {
    lr_mult: 2
    decay_mult: 0
  }
  convolution_param {
    num_output: 256
    pad: 1
    kernel_size: 3
    weight_filler {
      type: "xavier"
      std: 0.03
    }
    bias_filler {
      type: "constant"
      value: 0.2
    }
  }
}
layer {
  name: "inception_4c/relu_3x3"
  type: "ReLU"
  bottom: "inception_4c/3x3"
  top: "inception_4c/3x3"
}
layer {
  name: "inception_4c/5x5_reduce"
  type: "Convolution"
  bottom: "inception_4b/output"
  top: "inception_4c/5x5_reduce"
  param {
    lr_mult: 1
    decay_mult: 1
  }
  param {
    lr_mult: 2
    decay_mult: 0
  }
  convolution_param {
    num_output: 24
    kernel_size: 1
    weight_filler {
      type: "xavier"
      std: 0.2
    }
    bias_filler {
      type: "constant"
      value: 0.2
    }
  }
}
layer {
  name: "inception_4c/relu_5x5_reduce"
  type: "ReLU"
  bottom: "inception_4c/5x5_reduce"
  top: "inception_4c/5x5_reduce"
}
layer {
  name: "inception_4c/5x5"
  type: "Convolution"
  bottom: "inception_4c/5x5_reduce"
  top: "inception_4c/5x5"
  param {
    lr_mult: 1
    decay_mult: 1
  }
  param {
    lr_mult: 2
    decay_mult: 0
  }
  convolution_param {
    num_output: 64
    pad: 2
    kernel_size: 5
    weight_filler {
      type: "xavier"
      std: 0.03
    }
    bias_filler {
      type: "constant"
      value: 0.2
    }
  }
}
layer {
  name: "inception_4c/relu_5x5"
  type: "ReLU"
  bottom: "inception_4c/5x5"
  top: "inception_4c/5x5"
}
layer {
  name: "inception_4c/pool"
  type: "Pooling"
  bottom: "inception_4b/output"
  top: "inception_4c/pool"
  pooling_param {
    pool: MAX
    kernel_size: 3
    stride: 1
    pad: 1
  }
}
layer {
  name: "inception_4c/pool_proj"
  type: "Convolution"
  bottom: "inception_4c/pool"
  top: "inception_4c/pool_proj"
  param {
    lr_mult: 1
    decay_mult: 1
  }
  param {
    lr_mult: 2
    decay_mult: 0
  }
  convolution_param {
    num_output: 64
    kernel_size: 1
    weight_filler {
      type: "xavier"
      std: 0.1
    }
    bias_filler {
      type: "constant"
      value: 0.2
    }
  }
}
layer {
  name: "inception_4c/relu_pool_proj"
  type: "ReLU"
  bottom: "inception_4c/pool_proj"
  top: "inception_4c/pool_proj"
}
layer {
  name: "inception_4c/output"
  type: "Concat"
  bottom: "inception_4c/1x1"
  bottom: "inception_4c/3x3"
  bottom: "inception_4c/5x5"
  bottom: "inception_4c/pool_proj"
  top: "inception_4c/output"
}
layer {
  name: "inception_4d/1x1"
  type: "Convolution"
  bottom: "inception_4c/output"
  top: "inception_4d/1x1"
  param {
    lr_mult: 1
    decay_mult: 1
  }
  param {
    lr_mult: 2
    decay_mult: 0
  }
  convolution_param {
    num_output: 112
    kernel_size: 1
    weight_filler {
      type: "xavier"
      std: 0.03
    }
    bias_filler {
      type: "constant"
      value: 0.2
    }
  }
}
layer {
  name: "inception_4d/relu_1x1"
  type: "ReLU"
  bottom: "inception_4d/1x1"
  top: "inception_4d/1x1"
}
layer {
  name: "inception_4d/3x3_reduce"
  type: "Convolution"
  bottom: "inception_4c/output"
  top: "inception_4d/3x3_reduce"
  param {
    lr_mult: 1
    decay_mult: 1
  }
  param {
    lr_mult: 2
    decay_mult: 0
  }
  convolution_param {
    num_output: 144
    kernel_size: 1
    weight_filler {
      type: "xavier"
      std: 0.09
    }
    bias_filler {
      type: "constant"
      value: 0.2
    }
  }
}
layer {
  name: "inception_4d/relu_3x3_reduce"
  type: "ReLU"
  bottom: "inception_4d/3x3_reduce"
  top: "inception_4d/3x3_reduce"
}
layer {
  name: "inception_4d/3x3"
  type: "Convolution"
  bottom: "inception_4d/3x3_reduce"
  top: "inception_4d/3x3"
  param {
    lr_mult: 1
    decay_mult: 1
  }
  param {
    lr_mult: 2
    decay_mult: 0
  }
  convolution_param {
    num_output: 288
    pad: 1
    kernel_size: 3
    weight_filler {
      type: "xavier"
      std: 0.03
    }
    bias_filler {
      type: "constant"
      value: 0.2
    }
  }
}
layer {
  name: "inception_4d/relu_3x3"
  type: "ReLU"
  bottom: "inception_4d/3x3"
  top: "inception_4d/3x3"
}
layer {
  name: "inception_4d/5x5_reduce"
  type: "Convolution"
  bottom: "inception_4c/output"
  top: "inception_4d/5x5_reduce"
  param {
    lr_mult: 1
    decay_mult: 1
  }
  param {
    lr_mult: 2
    decay_mult: 0
  }
  convolution_param {
    num_output: 32
    kernel_size: 1
    weight_filler {
      type: "xavier"
      std: 0.2
    }
    bias_filler {
      type: "constant"
      value: 0.2
    }
  }
}
layer {
  name: "inception_4d/relu_5x5_reduce"
  type: "ReLU"
  bottom: "inception_4d/5x5_reduce"
  top: "inception_4d/5x5_reduce"
}
layer {
  name: "inception_4d/5x5"
  type: "Convolution"
  bottom: "inception_4d/5x5_reduce"
  top: "inception_4d/5x5"
  param {
    lr_mult: 1
    decay_mult: 1
  }
  param {
    lr_mult: 2
    decay_mult: 0
  }
  convolution_param {
    num_output: 64
    pad: 2
    kernel_size: 5
    weight_filler {
      type: "xavier"
      std: 0.03
    }
    bias_filler {
      type: "constant"
      value: 0.2
    }
  }
}
layer {
  name: "inception_4d/relu_5x5"
  type: "ReLU"
  bottom: "inception_4d/5x5"
  top: "inception_4d/5x5"
}
layer {
  name: "inception_4d/pool"
  type: "Pooling"
  bottom: "inception_4c/output"
  top: "inception_4d/pool"
  pooling_param {
    pool: MAX
    kernel_size: 3
    stride: 1
    pad: 1
  }
}
layer {
  name: "inception_4d/pool_proj"
  type: "Convolution"
  bottom: "inception_4d/pool"
  top: "inception_4d/pool_proj"
  param {
    lr_mult: 1
    decay_mult: 1
  }
  param {
    lr_mult: 2
    decay_mult: 0
  }
  convolution_param {
    num_output: 64
    kernel_size: 1
    weight_filler {
      type: "xavier"
      std: 0.1
    }
    bias_filler {
      type: "constant"
      value: 0.2
    }
  }
}
layer {
  name: "inception_4d/relu_pool_proj"
  type: "ReLU"
  bottom: "inception_4d/pool_proj"
  top: "inception_4d/pool_proj"
}
layer {
  name: "inception_4d/output"
  type: "Concat"
  bottom: "inception_4d/1x1"
  bottom: "inception_4d/3x3"
  bottom: "inception_4d/5x5"
  bottom: "inception_4d/pool_proj"
  top: "inception_4d/output"
}
layer {
  name: "loss2/ave_pool"
  type: "Pooling"
  bottom: "inception_4d/output"
  top: "loss2/ave_pool"
  pooling_param {
    pool: AVE
    kernel_size: 5
    stride: 3
  }
}
layer {
  name: "loss2/conv"
  type: "Convolution"
  bottom: "loss2/ave_pool"
  top: "loss2/conv"
  param {
    lr_mult: 1
    decay_mult: 1
  }
  param {
    lr_mult: 2
    decay_mult: 0
  }
  convolution_param {
    num_output: 128
    kernel_size: 1
    weight_filler {
      type: "xavier"
      std: 0.08
    }
    bias_filler {
      type: "constant"
      value: 0.2
    }
  }
}
layer {
  name: "loss2/relu_conv"
  type: "ReLU"
  bottom: "loss2/conv"
  top: "loss2/conv"
}
layer {
  name: "loss2/fc"
  type: "InnerProduct"
  bottom: "loss2/conv"
  top: "loss2/fc"
  param {
    lr_mult: 1
    decay_mult: 1
  }
  param {
    lr_mult: 2
    decay_mult: 0
  }
  inner_product_param {
    num_output: 1024
    weight_filler {
      type: "xavier"
      std: 0.02
    }
    bias_filler {
      type: "constant"
      value: 0.2
    }
  }
}
layer {
  name: "loss2/relu_fc"
  type: "ReLU"
  bottom: "loss2/fc"
  top: "loss2/fc"
}
layer {
  name: "loss2/drop_fc"
  type: "Dropout"
  bottom: "loss2/fc"
  top: "loss2/fc"
  dropout_param {
    dropout_ratio: 0.7
  }
}
layer {
  name: "loss2/classifier_plantvillage"
  type: "InnerProduct"
  bottom: "loss2/fc"
  top: "loss2/classifier_plantvillage"
  param {
    lr_mult: 1
    decay_mult: 1
  }
  param {
    lr_mult: 2
    decay_mult: 0
  }
  inner_product_param {
    num_output: 38
    weight_filler {
      type: "xavier"
      std: 0.0009765625
    }
    bias_filler {
      type: "constant"
      value: 0
    }
  }
}
layer {
  name: "inception_4e/1x1"
  type: "Convolution"
  bottom: "inception_4d/output"
  top: "inception_4e/1x1"
  param {
    lr_mult: 1
    decay_mult: 1
  }
  param {
    lr_mult: 2
    decay_mult: 0
  }
  convolution_param {
    num_output: 256
    kernel_size: 1
    weight_filler {
      type: "xavier"
      std: 0.03
    }
    bias_filler {
      type: "constant"
      value: 0.2
    }
  }
}
layer {
  name: "inception_4e/relu_1x1"
  type: "ReLU"
  bottom: "inception_4e/1x1"
  top: "inception_4e/1x1"
}
layer {
  name: "inception_4e/3x3_reduce"
  type: "Convolution"
  bottom: "inception_4d/output"
  top: "inception_4e/3x3_reduce"
  param {
    lr_mult: 1
    decay_mult: 1
  }
  param {
    lr_mult: 2
    decay_mult: 0
  }
  convolution_param {
    num_output: 160
    kernel_size: 1
    weight_filler {
      type: "xavier"
      std: 0.09
    }
    bias_filler {
      type: "constant"
      value: 0.2
    }
  }
}
layer {
  name: "inception_4e/relu_3x3_reduce"
  type: "ReLU"
  bottom: "inception_4e/3x3_reduce"
  top: "inception_4e/3x3_reduce"
}
layer {
  name: "inception_4e/3x3"
  type: "Convolution"
  bottom: "inception_4e/3x3_reduce"
  top: "inception_4e/3x3"
  param {
    lr_mult: 1
    decay_mult: 1
  }
  param {
    lr_mult: 2
    decay_mult: 0
  }
  convolution_param {
    num_output: 320
    pad: 1
    kernel_size: 3
    weight_filler {
      type: "xavier"
      std: 0.03
    }
    bias_filler {
      type: "constant"
      value: 0.2
    }
  }
}
layer {
  name: "inception_4e/relu_3x3"
  type: "ReLU"
  bottom: "inception_4e/3x3"
  top: "inception_4e/3x3"
}
layer {
  name: "inception_4e/5x5_reduce"
  type: "Convolution"
  bottom: "inception_4d/output"
  top: "inception_4e/5x5_reduce"
  param {
    lr_mult: 1
    decay_mult: 1
  }
  param {
    lr_mult: 2
    decay_mult: 0
  }
  convolution_param {
    num_output: 32
    kernel_size: 1
    weight_filler {
      type: "xavier"
      std: 0.2
    }
    bias_filler {
      type: "constant"
      value: 0.2
    }
  }
}
layer {
  name: "inception_4e/relu_5x5_reduce"
  type: "ReLU"
  bottom: "inception_4e/5x5_reduce"
  top: "inception_4e/5x5_reduce"
}
layer {
  name: "inception_4e/5x5"
  type: "Convolution"
  bottom: "inception_4e/5x5_reduce"
  top: "inception_4e/
I0403 14:18:47.866226 13132 layer_factory.hpp:77] Creating layer data
I0403 14:18:47.866807 13132 net.cpp:91] Creating Layer data
I0403 14:18:47.866837 13132 net.cpp:399] data -> data
I0403 14:18:47.866885 13132 net.cpp:399] data -> label
I0403 14:18:47.866920 13132 data_transformer.cpp:25] Loading mean file from: /home/mohanty/data/final_dataset/lmdb/segmented-20-80/mean.binaryproto
I0403 14:18:47.869822 13136 db_lmdb.cpp:38] Opened lmdb /home/mohanty/data/final_dataset/lmdb/segmented-20-80/test_db
I0403 14:18:47.879485 13132 data_layer.cpp:41] output data size: 24,3,224,224
I0403 14:18:47.906147 13132 net.cpp:141] Setting up data
I0403 14:18:47.906236 13132 net.cpp:148] Top shape: 24 3 224 224 (3612672)
I0403 14:18:47.906258 13132 net.cpp:148] Top shape: 24 (24)
I0403 14:18:47.906273 13132 net.cpp:156] Memory required for data: 14450784
I0403 14:18:47.906302 13132 layer_factory.hpp:77] Creating layer label_data_1_split
I0403 14:18:47.906329 13132 net.cpp:91] Creating Layer label_data_1_split
I0403 14:18:47.906347 13132 net.cpp:425] label_data_1_split <- label
I0403 14:18:47.906379 13132 net.cpp:399] label_data_1_split -> label_data_1_split_0
I0403 14:18:47.906406 13132 net.cpp:399] label_data_1_split -> label_data_1_split_1
I0403 14:18:47.906427 13132 net.cpp:399] label_data_1_split -> label_data_1_split_2
I0403 14:18:47.906448 13132 net.cpp:399] label_data_1_split -> label_data_1_split_3
I0403 14:18:47.906467 13132 net.cpp:399] label_data_1_split -> label_data_1_split_4
I0403 14:18:47.906486 13132 net.cpp:399] label_data_1_split -> label_data_1_split_5
I0403 14:18:47.906505 13132 net.cpp:399] label_data_1_split -> label_data_1_split_6
I0403 14:18:47.906524 13132 net.cpp:399] label_data_1_split -> label_data_1_split_7
I0403 14:18:47.906548 13132 net.cpp:399] label_data_1_split -> label_data_1_split_8
I0403 14:18:47.906569 13132 net.cpp:399] label_data_1_split -> label_data_1_split_9
I0403 14:18:47.906687 13132 net.cpp:141] Setting up label_data_1_split
I0403 14:18:47.906711 13132 net.cpp:148] Top shape: 24 (24)
I0403 14:18:47.906728 13132 net.cpp:148] Top shape: 24 (24)
I0403 14:18:47.906745 13132 net.cpp:148] Top shape: 24 (24)
I0403 14:18:47.906760 13132 net.cpp:148] Top shape: 24 (24)
I0403 14:18:47.906775 13132 net.cpp:148] Top shape: 24 (24)
I0403 14:18:47.906790 13132 net.cpp:148] Top shape: 24 (24)
I0403 14:18:47.906805 13132 net.cpp:148] Top shape: 24 (24)
I0403 14:18:47.906821 13132 net.cpp:148] Top shape: 24 (24)
I0403 14:18:47.906836 13132 net.cpp:148] Top shape: 24 (24)
I0403 14:18:47.906850 13132 net.cpp:148] Top shape: 24 (24)
I0403 14:18:47.906898 13132 net.cpp:156] Memory required for data: 14451744
I0403 14:18:47.906915 13132 layer_factory.hpp:77] Creating layer conv1/7x7_s2
I0403 14:18:47.906946 13132 net.cpp:91] Creating Layer conv1/7x7_s2
I0403 14:18:47.906965 13132 net.cpp:425] conv1/7x7_s2 <- data
I0403 14:18:47.906983 13132 net.cpp:399] conv1/7x7_s2 -> conv1/7x7_s2
I0403 14:18:48.045617 13132 net.cpp:141] Setting up conv1/7x7_s2
I0403 14:18:48.045696 13132 net.cpp:148] Top shape: 24 64 112 112 (19267584)
I0403 14:18:48.045713 13132 net.cpp:156] Memory required for data: 91522080
I0403 14:18:48.045742 13132 layer_factory.hpp:77] Creating layer conv1/relu_7x7
I0403 14:18:48.045768 13132 net.cpp:91] Creating Layer conv1/relu_7x7
I0403 14:18:48.045785 13132 net.cpp:425] conv1/relu_7x7 <- conv1/7x7_s2
I0403 14:18:48.045805 13132 net.cpp:386] conv1/relu_7x7 -> conv1/7x7_s2 (in-place)
I0403 14:18:48.046072 13132 net.cpp:141] Setting up conv1/relu_7x7
I0403 14:18:48.046098 13132 net.cpp:148] Top shape: 24 64 112 112 (19267584)
I0403 14:18:48.046113 13132 net.cpp:156] Memory required for data: 168592416
I0403 14:18:48.046126 13132 layer_factory.hpp:77] Creating layer pool1/3x3_s2
I0403 14:18:48.046149 13132 net.cpp:91] Creating Layer pool1/3x3_s2
I0403 14:18:48.046166 13132 net.cpp:425] pool1/3x3_s2 <- conv1/7x7_s2
I0403 14:18:48.046185 13132 net.cpp:399] pool1/3x3_s2 -> pool1/3x3_s2
I0403 14:18:48.046257 13132 net.cpp:141] Setting up pool1/3x3_s2
I0403 14:18:48.046283 13132 net.cpp:148] Top shape: 24 64 56 56 (4816896)
I0403 14:18:48.046299 13132 net.cpp:156] Memory required for data: 187860000
I0403 14:18:48.046313 13132 layer_factory.hpp:77] Creating layer pool1/norm1
I0403 14:18:48.046335 13132 net.cpp:91] Creating Layer pool1/norm1
I0403 14:18:48.046351 13132 net.cpp:425] pool1/norm1 <- pool1/3x3_s2
I0403 14:18:48.046370 13132 net.cpp:399] pool1/norm1 -> pool1/norm1
I0403 14:18:48.046663 13132 net.cpp:141] Setting up pool1/norm1
I0403 14:18:48.046689 13132 net.cpp:148] Top shape: 24 64 56 56 (4816896)
I0403 14:18:48.046705 13132 net.cpp:156] Memory required for data: 207127584
I0403 14:18:48.046718 13132 layer_factory.hpp:77] Creating layer conv2/3x3_reduce
I0403 14:18:48.046742 13132 net.cpp:91] Creating Layer conv2/3x3_reduce
I0403 14:18:48.046759 13132 net.cpp:425] conv2/3x3_reduce <- pool1/norm1
I0403 14:18:48.046778 13132 net.cpp:399] conv2/3x3_reduce -> conv2/3x3_reduce
I0403 14:18:48.048115 13132 net.cpp:141] Setting up conv2/3x3_reduce
I0403 14:18:48.048142 13132 net.cpp:148] Top shape: 24 64 56 56 (4816896)
I0403 14:18:48.048157 13132 net.cpp:156] Memory required for data: 226395168
I0403 14:18:48.048177 13132 layer_factory.hpp:77] Creating layer conv2/relu_3x3_reduce
I0403 14:18:48.048197 13132 net.cpp:91] Creating Layer conv2/relu_3x3_reduce
I0403 14:18:48.048213 13132 net.cpp:425] conv2/relu_3x3_reduce <- conv2/3x3_reduce
I0403 14:18:48.048228 13132 net.cpp:386] conv2/relu_3x3_reduce -> conv2/3x3_reduce (in-place)
I0403 14:18:48.048487 13132 net.cpp:141] Setting up conv2/relu_3x3_reduce
I0403 14:18:48.048512 13132 net.cpp:148] Top shape: 24 64 56 56 (4816896)
I0403 14:18:48.048527 13132 net.cpp:156] Memory required for data: 245662752
I0403 14:18:48.048545 13132 layer_factory.hpp:77] Creating layer conv2/3x3
I0403 14:18:48.048571 13132 net.cpp:91] Creating Layer conv2/3x3
I0403 14:18:48.048588 13132 net.cpp:425] conv2/3x3 <- conv2/3x3_reduce
I0403 14:18:48.048606 13132 net.cpp:399] conv2/3x3 -> conv2/3x3
I0403 14:18:48.050808 13132 net.cpp:141] Setting up conv2/3x3
I0403 14:18:48.050839 13132 net.cpp:148] Top shape: 24 192 56 56 (14450688)
I0403 14:18:48.050855 13132 net.cpp:156] Memory required for data: 303465504
I0403 14:18:48.050875 13132 layer_factory.hpp:77] Creating layer conv2/relu_3x3
I0403 14:18:48.050892 13132 net.cpp:91] Creating Layer conv2/relu_3x3
I0403 14:18:48.050907 13132 net.cpp:425] conv2/relu_3x3 <- conv2/3x3
I0403 14:18:48.050925 13132 net.cpp:386] conv2/relu_3x3 -> conv2/3x3 (in-place)
I0403 14:18:48.051090 13132 net.cpp:141] Setting up conv2/relu_3x3
I0403 14:18:48.051115 13132 net.cpp:148] Top shape: 24 192 56 56 (14450688)
I0403 14:18:48.051162 13132 net.cpp:156] Memory required for data: 361268256
I0403 14:18:48.051177 13132 layer_factory.hpp:77] Creating layer conv2/norm2
I0403 14:18:48.051197 13132 net.cpp:91] Creating Layer conv2/norm2
I0403 14:18:48.051213 13132 net.cpp:425] conv2/norm2 <- conv2/3x3
I0403 14:18:48.051229 13132 net.cpp:399] conv2/norm2 -> conv2/norm2
I0403 14:18:48.051520 13132 net.cpp:141] Setting up conv2/norm2
I0403 14:18:48.051550 13132 net.cpp:148] Top shape: 24 192 56 56 (14450688)
I0403 14:18:48.051565 13132 net.cpp:156] Memory required for data: 419071008
I0403 14:18:48.051578 13132 layer_factory.hpp:77] Creating layer pool2/3x3_s2
I0403 14:18:48.051599 13132 net.cpp:91] Creating Layer pool2/3x3_s2
I0403 14:18:48.051615 13132 net.cpp:425] pool2/3x3_s2 <- conv2/norm2
I0403 14:18:48.051632 13132 net.cpp:399] pool2/3x3_s2 -> pool2/3x3_s2
I0403 14:18:48.051682 13132 net.cpp:141] Setting up pool2/3x3_s2
I0403 14:18:48.051704 13132 net.cpp:148] Top shape: 24 192 28 28 (3612672)
I0403 14:18:48.051717 13132 net.cpp:156] Memory required for data: 433521696
I0403 14:18:48.051731 13132 layer_factory.hpp:77] Creating layer pool2/3x3_s2_pool2/3x3_s2_0_split
I0403 14:18:48.051748 13132 net.cpp:91] Creating Layer pool2/3x3_s2_pool2/3x3_s2_0_split
I0403 14:18:48.051761 13132 net.cpp:425] pool2/3x3_s2_pool2/3x3_s2_0_split <- pool2/3x3_s2
I0403 14:18:48.051779 13132 net.cpp:399] pool2/3x3_s2_pool2/3x3_s2_0_split -> pool2/3x3_s2_pool2/3x3_s2_0_split_0
I0403 14:18:48.051798 13132 net.cpp:399] pool2/3x3_s2_pool2/3x3_s2_0_split -> pool2/3x3_s2_pool2/3x3_s2_0_split_1
I0403 14:18:48.051816 13132 net.cpp:399] pool2/3x3_s2_pool2/3x3_s2_0_split -> pool2/3x3_s2_pool2/3x3_s2_0_split_2
I0403 14:18:48.051834 13132 net.cpp:399] pool2/3x3_s2_pool2/3x3_s2_0_split -> pool2/3x3_s2_pool2/3x3_s2_0_split_3
I0403 14:18:48.051901 13132 net.cpp:141] Setting up pool2/3x3_s2_pool2/3x3_s2_0_split
I0403 14:18:48.051923 13132 net.cpp:148] Top shape: 24 192 28 28 (3612672)
I0403 14:18:48.051939 13132 net.cpp:148] Top shape: 24 192 28 28 (3612672)
I0403 14:18:48.051952 13132 net.cpp:148] Top shape: 24 192 28 28 (3612672)
I0403 14:18:48.051966 13132 net.cpp:148] Top shape: 24 192 28 28 (3612672)
I0403 14:18:48.051978 13132 net.cpp:156] Memory required for data: 491324448
I0403 14:18:48.051991 13132 layer_factory.hpp:77] Creating layer inception_3a/1x1
I0403 14:18:48.052011 13132 net.cpp:91] Creating Layer inception_3a/1x1
I0403 14:18:48.052027 13132 net.cpp:425] inception_3a/1x1 <- pool2/3x3_s2_pool2/3x3_s2_0_split_0
I0403 14:18:48.052047 13132 net.cpp:399] inception_3a/1x1 -> inception_3a/1x1
I0403 14:18:48.053503 13132 net.cpp:141] Setting up inception_3a/1x1
I0403 14:18:48.053532 13132 net.cpp:148] Top shape: 24 64 28 28 (1204224)
I0403 14:18:48.053553 13132 net.cpp:156] Memory required for data: 496141344
I0403 14:18:48.053571 13132 layer_factory.hpp:77] Creating layer inception_3a/relu_1x1
I0403 14:18:48.053588 13132 net.cpp:91] Creating Layer inception_3a/relu_1x1
I0403 14:18:48.053603 13132 net.cpp:425] inception_3a/relu_1x1 <- inception_3a/1x1
I0403 14:18:48.053619 13132 net.cpp:386] inception_3a/relu_1x1 -> inception_3a/1x1 (in-place)
I0403 14:18:48.053787 13132 net.cpp:141] Setting up inception_3a/relu_1x1
I0403 14:18:48.053814 13132 net.cpp:148] Top shape: 24 64 28 28 (1204224)
I0403 14:18:48.053828 13132 net.cpp:156] Memory required for data: 500958240
I0403 14:18:48.053843 13132 layer_factory.hpp:77] Creating layer inception_3a/3x3_reduce
I0403 14:18:48.053864 13132 net.cpp:91] Creating Layer inception_3a/3x3_reduce
I0403 14:18:48.053879 13132 net.cpp:425] inception_3a/3x3_reduce <- pool2/3x3_s2_pool2/3x3_s2_0_split_1
I0403 14:18:48.053897 13132 net.cpp:399] inception_3a/3x3_reduce -> inception_3a/3x3_reduce
I0403 14:18:48.055567 13132 net.cpp:141] Setting up inception_3a/3x3_reduce
I0403 14:18:48.055596 13132 net.cpp:148] Top shape: 24 96 28 28 (1806336)
I0403 14:18:48.055611 13132 net.cpp:156] Memory required for data: 508183584
I0403 14:18:48.055634 13132 layer_factory.hpp:77] Creating layer inception_3a/relu_3x3_reduce
I0403 14:18:48.055670 13132 net.cpp:91] Creating Layer inception_3a/relu_3x3_reduce
I0403 14:18:48.055686 13132 net.cpp:425] inception_3a/relu_3x3_reduce <- inception_3a/3x3_reduce
I0403 14:18:48.055706 13132 net.cpp:386] inception_3a/relu_3x3_reduce -> inception_3a/3x3_reduce (in-place)
I0403 14:18:48.055882 13132 net.cpp:141] Setting up inception_3a/relu_3x3_reduce
I0403 14:18:48.055907 13132 net.cpp:148] Top shape: 24 96 28 28 (1806336)
I0403 14:18:48.055922 13132 net.cpp:156] Memory required for data: 515408928
I0403 14:18:48.055935 13132 layer_factory.hpp:77] Creating layer inception_3a/3x3
I0403 14:18:48.055956 13132 net.cpp:91] Creating Layer inception_3a/3x3
I0403 14:18:48.055974 13132 net.cpp:425] inception_3a/3x3 <- inception_3a/3x3_reduce
I0403 14:18:48.055994 13132 net.cpp:399] inception_3a/3x3 -> inception_3a/3x3
I0403 14:18:48.057621 13132 net.cpp:141] Setting up inception_3a/3x3
I0403 14:18:48.057652 13132 net.cpp:148] Top shape: 24 128 28 28 (2408448)
I0403 14:18:48.057668 13132 net.cpp:156] Memory required for data: 525042720
I0403 14:18:48.057687 13132 layer_factory.hpp:77] Creating layer inception_3a/relu_3x3
I0403 14:18:48.057704 13132 net.cpp:91] Creating Layer inception_3a/relu_3x3
I0403 14:18:48.057719 13132 net.cpp:425] inception_3a/relu_3x3 <- inception_3a/3x3
I0403 14:18:48.057739 13132 net.cpp:386] inception_3a/relu_3x3 -> inception_3a/3x3 (in-place)
I0403 14:18:48.058007 13132 net.cpp:141] Setting up inception_3a/relu_3x3
I0403 14:18:48.058035 13132 net.cpp:148] Top shape: 24 128 28 28 (2408448)
I0403 14:18:48.058050 13132 net.cpp:156] Memory required for data: 534676512
I0403 14:18:48.058065 13132 layer_factory.hpp:77] Creating layer inception_3a/5x5_reduce
I0403 14:18:48.058086 13132 net.cpp:91] Creating Layer inception_3a/5x5_reduce
I0403 14:18:48.058104 13132 net.cpp:425] inception_3a/5x5_reduce <- pool2/3x3_s2_pool2/3x3_s2_0_split_2
I0403 14:18:48.058121 13132 net.cpp:399] inception_3a/5x5_reduce -> inception_3a/5x5_reduce
I0403 14:18:48.059068 13132 net.cpp:141] Setting up inception_3a/5x5_reduce
I0403 14:18:48.059095 13132 net.cpp:148] Top shape: 24 16 28 28 (301056)
I0403 14:18:48.059110 13132 net.cpp:156] Memory required for data: 535880736
I0403 14:18:48.059128 13132 layer_factory.hpp:77] Creating layer inception_3a/relu_5x5_reduce
I0403 14:18:48.059145 13132 net.cpp:91] Creating Layer inception_3a/relu_5x5_reduce
I0403 14:18:48.059160 13132 net.cpp:425] inception_3a/relu_5x5_reduce <- inception_3a/5x5_reduce
I0403 14:18:48.059180 13132 net.cpp:386] inception_3a/relu_5x5_reduce -> inception_3a/5x5_reduce (in-place)
I0403 14:18:48.059474 13132 net.cpp:141] Setting up inception_3a/relu_5x5_reduce
I0403 14:18:48.059500 13132 net.cpp:148] Top shape: 24 16 28 28 (301056)
I0403 14:18:48.059514 13132 net.cpp:156] Memory required for data: 537084960
I0403 14:18:48.059530 13132 layer_factory.hpp:77] Creating layer inception_3a/5x5
I0403 14:18:48.059556 13132 net.cpp:91] Creating Layer inception_3a/5x5
I0403 14:18:48.059573 13132 net.cpp:425] inception_3a/5x5 <- inception_3a/5x5_reduce
I0403 14:18:48.059593 13132 net.cpp:399] inception_3a/5x5 -> inception_3a/5x5
I0403 14:18:48.060600 13132 net.cpp:141] Setting up inception_3a/5x5
I0403 14:18:48.060631 13132 net.cpp:148] Top shape: 24 32 28 28 (602112)
I0403 14:18:48.060647 13132 net.cpp:156] Memory required for data: 539493408
I0403 14:18:48.060664 13132 layer_factory.hpp:77] Creating layer inception_3a/relu_5x5
I0403 14:18:48.060681 13132 net.cpp:91] Creating Layer inception_3a/relu_5x5
I0403 14:18:48.060696 13132 net.cpp:425] inception_3a/relu_5x5 <- inception_3a/5x5
I0403 14:18:48.060713 13132 net.cpp:386] inception_3a/relu_5x5 -> inception_3a/5x5 (in-place)
I0403 14:18:48.060885 13132 net.cpp:141] Setting up inception_3a/relu_5x5
I0403 14:18:48.060909 13132 net.cpp:148] Top shape: 24 32 28 28 (602112)
I0403 14:18:48.060923 13132 net.cpp:156] Memory required for data: 541901856
I0403 14:18:48.060938 13132 layer_factory.hpp:77] Creating layer inception_3a/pool
I0403 14:18:48.060956 13132 net.cpp:91] Creating Layer inception_3a/pool
I0403 14:18:48.060984 13132 net.cpp:425] inception_3a/pool <- pool2/3x3_s2_pool2/3x3_s2_0_split_3
I0403 14:18:48.061005 13132 net.cpp:399] inception_3a/pool -> inception_3a/pool
I0403 14:18:48.061061 13132 net.cpp:141] Setting up inception_3a/pool
I0403 14:18:48.061085 13132 net.cpp:148] Top shape: 24 192 28 28 (3612672)
I0403 14:18:48.061100 13132 net.cpp:156] Memory required for data: 556352544
I0403 14:18:48.061115 13132 layer_factory.hpp:77] Creating layer inception_3a/pool_proj
I0403 14:18:48.061137 13132 net.cpp:91] Creating Layer inception_3a/pool_proj
I0403 14:18:48.061154 13132 net.cpp:425] inception_3a/pool_proj <- inception_3a/pool
I0403 14:18:48.061172 13132 net.cpp:399] inception_3a/pool_proj -> inception_3a/pool_proj
I0403 14:18:48.062122 13132 net.cpp:141] Setting up inception_3a/pool_proj
I0403 14:18:48.062150 13132 net.cpp:148] Top shape: 24 32 28 28 (602112)
I0403 14:18:48.062165 13132 net.cpp:156] Memory required for data: 558760992
I0403 14:18:48.062187 13132 layer_factory.hpp:77] Creating layer inception_3a/relu_pool_proj
I0403 14:18:48.062206 13132 net.cpp:91] Creating Layer inception_3a/relu_pool_proj
I0403 14:18:48.062222 13132 net.cpp:425] inception_3a/relu_pool_proj <- inception_3a/pool_proj
I0403 14:18:48.062240 13132 net.cpp:386] inception_3a/relu_pool_proj -> inception_3a/pool_proj (in-place)
I0403 14:18:48.062517 13132 net.cpp:141] Setting up inception_3a/relu_pool_proj
I0403 14:18:48.062549 13132 net.cpp:148] Top shape: 24 32 28 28 (602112)
I0403 14:18:48.062566 13132 net.cpp:156] Memory required for data: 561169440
I0403 14:18:48.062580 13132 layer_factory.hpp:77] Creating layer inception_3a/output
I0403 14:18:48.062598 13132 net.cpp:91] Creating Layer inception_3a/output
I0403 14:18:48.062613 13132 net.cpp:425] inception_3a/output <- inception_3a/1x1
I0403 14:18:48.062628 13132 net.cpp:425] inception_3a/output <- inception_3a/3x3
I0403 14:18:48.062644 13132 net.cpp:425] inception_3a/output <- inception_3a/5x5
I0403 14:18:48.062659 13132 net.cpp:425] inception_3a/output <- inception_3a/pool_proj
I0403 14:18:48.062676 13132 net.cpp:399] inception_3a/output -> inception_3a/output
I0403 14:18:48.062721 13132 net.cpp:141] Setting up inception_3a/output
I0403 14:18:48.062744 13132 net.cpp:148] Top shape: 24 256 28 28 (4816896)
I0403 14:18:48.062758 13132 net.cpp:156] Memory required for data: 580437024
I0403 14:18:48.062772 13132 layer_factory.hpp:77] Creating layer inception_3a/output_inception_3a/output_0_split
I0403 14:18:48.062789 13132 net.cpp:91] Creating Layer inception_3a/output_inception_3a/output_0_split
I0403 14:18:48.062805 13132 net.cpp:425] inception_3a/output_inception_3a/output_0_split <- inception_3a/output
I0403 14:18:48.062821 13132 net.cpp:399] inception_3a/output_inception_3a/output_0_split -> inception_3a/output_inception_3a/output_0_split_0
I0403 14:18:48.062840 13132 net.cpp:399] inception_3a/output_inception_3a/output_0_split -> inception_3a/output_inception_3a/output_0_split_1
I0403 14:18:48.062865 13132 net.cpp:399] inception_3a/output_inception_3a/output_0_split -> inception_3a/output_inception_3a/output_0_split_2
I0403 14:18:48.062885 13132 net.cpp:399] inception_3a/output_inception_3a/output_0_split -> inception_3a/output_inception_3a/output_0_split_3
I0403 14:18:48.062960 13132 net.cpp:141] Setting up inception_3a/output_inception_3a/output_0_split
I0403 14:18:48.062983 13132 net.cpp:148] Top shape: 24 256 28 28 (4816896)
I0403 14:18:48.062999 13132 net.cpp:148] Top shape: 24 256 28 28 (4816896)
I0403 14:18:48.063014 13132 net.cpp:148] Top shape: 24 256 28 28 (4816896)
I0403 14:18:48.063027 13132 net.cpp:148] Top shape: 24 256 28 28 (4816896)
I0403 14:18:48.063040 13132 net.cpp:156] Memory required for data: 657507360
I0403 14:18:48.063055 13132 layer_factory.hpp:77] Creating layer inception_3b/1x1
I0403 14:18:48.063077 13132 net.cpp:91] Creating Layer inception_3b/1x1
I0403 14:18:48.063093 13132 net.cpp:425] inception_3b/1x1 <- inception_3a/output_inception_3a/output_0_split_0
I0403 14:18:48.063110 13132 net.cpp:399] inception_3b/1x1 -> inception_3b/1x1
I0403 14:18:48.064260 13132 net.cpp:141] Setting up inception_3b/1x1
I0403 14:18:48.064303 13132 net.cpp:148] Top shape: 24 128 28 28 (2408448)
I0403 14:18:48.064319 13132 net.cpp:156] Memory required for data: 667141152
I0403 14:18:48.064337 13132 layer_factory.hpp:77] Creating layer inception_3b/relu_1x1
I0403 14:18:48.064357 13132 net.cpp:91] Creating Layer inception_3b/relu_1x1
I0403 14:18:48.064374 13132 net.cpp:425] inception_3b/relu_1x1 <- inception_3b/1x1
I0403 14:18:48.064391 13132 net.cpp:386] inception_3b/relu_1x1 -> inception_3b/1x1 (in-place)
I0403 14:18:48.064579 13132 net.cpp:141] Setting up inception_3b/relu_1x1
I0403 14:18:48.064607 13132 net.cpp:148] Top shape: 24 128 28 28 (2408448)
I0403 14:18:48.064623 13132 net.cpp:156] Memory required for data: 676774944
I0403 14:18:48.064638 13132 layer_factory.hpp:77] Creating layer inception_3b/3x3_reduce
I0403 14:18:48.064661 13132 net.cpp:91] Creating Layer inception_3b/3x3_reduce
I0403 14:18:48.064677 13132 net.cpp:425] inception_3b/3x3_reduce <- inception_3a/output_inception_3a/output_0_split_1
I0403 14:18:48.064698 13132 net.cpp:399] inception_3b/3x3_reduce -> inception_3b/3x3_reduce
I0403 14:18:48.065848 13132 net.cpp:141] Setting up inception_3b/3x3_reduce
I0403 14:18:48.065876 13132 net.cpp:148] Top shape: 24 128 28 28 (2408448)
I0403 14:18:48.065892 13132 net.cpp:156] Memory required for data: 686408736
I0403 14:18:48.065910 13132 layer_factory.hpp:77] Creating layer inception_3b/relu_3x3_reduce
I0403 14:18:48.065932 13132 net.cpp:91] Creating Layer inception_3b/relu_3x3_reduce
I0403 14:18:48.065948 13132 net.cpp:425] inception_3b/relu_3x3_reduce <- inception_3b/3x3_reduce
I0403 14:18:48.065965 13132 net.cpp:386] inception_3b/relu_3x3_reduce -> inception_3b/3x3_reduce (in-place)
I0403 14:18:48.066139 13132 net.cpp:141] Setting up inception_3b/relu_3x3_reduce
I0403 14:18:48.066166 13132 net.cpp:148] Top shape: 24 128 28 28 (2408448)
I0403 14:18:48.066182 13132 net.cpp:156] Memory required for data: 696042528
I0403 14:18:48.066196 13132 layer_factory.hpp:77] Creating layer inception_3b/3x3
I0403 14:18:48.066220 13132 net.cpp:91] Creating Layer inception_3b/3x3
I0403 14:18:48.066238 13132 net.cpp:425] inception_3b/3x3 <- inception_3b/3x3_reduce
I0403 14:18:48.066259 13132 net.cpp:399] inception_3b/3x3 -> inception_3b/3x3
I0403 14:18:48.069222 13132 net.cpp:141] Setting up inception_3b/3x3
I0403 14:18:48.069254 13132 net.cpp:148] Top shape: 24 192 28 28 (3612672)
I0403 14:18:48.069272 13132 net.cpp:156] Memory required for data: 710493216
I0403 14:18:48.069289 13132 layer_factory.hpp:77] Creating layer inception_3b/relu_3x3
I0403 14:18:48.069308 13132 net.cpp:91] Creating Layer inception_3b/relu_3x3
I0403 14:18:48.069324 13132 net.cpp:425] inception_3b/relu_3x3 <- inception_3b/3x3
I0403 14:18:48.069340 13132 net.cpp:386] inception_3b/relu_3x3 -> inception_3b/3x3 (in-place)
I0403 14:18:48.069624 13132 net.cpp:141] Setting up inception_3b/relu_3x3
I0403 14:18:48.069653 13132 net.cpp:148] Top shape: 24 192 28 28 (3612672)
I0403 14:18:48.069669 13132 net.cpp:156] Memory required for data: 724943904
I0403 14:18:48.069684 13132 layer_factory.hpp:77] Creating layer inception_3b/5x5_reduce
I0403 14:18:48.069706 13132 net.cpp:91] Creating Layer inception_3b/5x5_reduce
I0403 14:18:48.069723 13132 net.cpp:425] inception_3b/5x5_reduce <- inception_3a/output_inception_3a/output_0_split_2
I0403 14:18:48.069742 13132 net.cpp:399] inception_3b/5x5_reduce -> inception_3b/5x5_reduce
I0403 14:18:48.070749 13132 net.cpp:141] Setting up inception_3b/5x5_reduce
I0403 14:18:48.070780 13132 net.cpp:148] Top shape: 24 32 28 28 (602112)
I0403 14:18:48.070797 13132 net.cpp:156] Memory required for data: 727352352
I0403 14:18:48.070817 13132 layer_factory.hpp:77] Creating layer inception_3b/relu_5x5_reduce
I0403 14:18:48.070835 13132 net.cpp:91] Creating Layer inception_3b/relu_5x5_reduce
I0403 14:18:48.070852 13132 net.cpp:425] inception_3b/relu_5x5_reduce <- inception_3b/5x5_reduce
I0403 14:18:48.070868 13132 net.cpp:386] inception_3b/relu_5x5_reduce -> inception_3b/5x5_reduce (in-place)
I0403 14:18:48.071065 13132 net.cpp:141] Setting up inception_3b/relu_5x5_reduce
I0403 14:18:48.071091 13132 net.cpp:148] Top shape: 24 32 28 28 (602112)
I0403 14:18:48.071106 13132 net.cpp:156] Memory required for data: 729760800
I0403 14:18:48.071120 13132 layer_factory.hpp:77] Creating layer inception_3b/5x5
I0403 14:18:48.071142 13132 net.cpp:91] Creating Layer inception_3b/5x5
I0403 14:18:48.071161 13132 net.cpp:425] inception_3b/5x5 <- inception_3b/5x5_reduce
I0403 14:18:48.071180 13132 net.cpp:399] inception_3b/5x5 -> inception_3b/5x5
I0403 14:18:48.073180 13132 net.cpp:141] Setting up inception_3b/5x5
I0403 14:18:48.073210 13132 net.cpp:148] Top shape: 24 96 28 28 (1806336)
I0403 14:18:48.073226 13132 net.cpp:156] Memory required for data: 736986144
I0403 14:18:48.073243 13132 layer_factory.hpp:77] Creating layer inception_3b/relu_5x5
I0403 14:18:48.073264 13132 net.cpp:91] Creating Layer inception_3b/relu_5x5
I0403 14:18:48.073281 13132 net.cpp:425] inception_3b/relu_5x5 <- inception_3b/5x5
I0403 14:18:48.073300 13132 net.cpp:386] inception_3b/relu_5x5 -> inception_3b/5x5 (in-place)
I0403 14:18:48.073495 13132 net.cpp:141] Setting up inception_3b/relu_5x5
I0403 14:18:48.073520 13132 net.cpp:148] Top shape: 24 96 28 28 (1806336)
I0403 14:18:48.073539 13132 net.cpp:156] Memory required for data: 744211488
I0403 14:18:48.073555 13132 layer_factory.hpp:77] Creating layer inception_3b/pool
I0403 14:18:48.073573 13132 net.cpp:91] Creating Layer inception_3b/pool
I0403 14:18:48.073590 13132 net.cpp:425] inception_3b/pool <- inception_3a/output_inception_3a/output_0_split_3
I0403 14:18:48.073607 13132 net.cpp:399] inception_3b/pool -> inception_3b/pool
I0403 14:18:48.073663 13132 net.cpp:141] Setting up inception_3b/pool
I0403 14:18:48.073686 13132 net.cpp:148] Top shape: 24 256 28 28 (4816896)
I0403 14:18:48.073700 13132 net.cpp:156] Memory required for data: 763479072
I0403 14:18:48.073714 13132 layer_factory.hpp:77] Creating layer inception_3b/pool_proj
I0403 14:18:48.073739 13132 net.cpp:91] Creating Layer inception_3b/pool_proj
I0403 14:18:48.073755 13132 net.cpp:425] inception_3b/pool_proj <- inception_3b/pool
I0403 14:18:48.073776 13132 net.cpp:399] inception_3b/pool_proj -> inception_3b/pool_proj
I0403 14:18:48.074865 13132 net.cpp:141] Setting up inception_3b/pool_proj
I0403 14:18:48.074893 13132 net.cpp:148] Top shape: 24 64 28 28 (1204224)
I0403 14:18:48.074908 13132 net.cpp:156] Memory required for data: 768295968
I0403 14:18:48.074926 13132 layer_factory.hpp:77] Creating layer inception_3b/relu_pool_proj
I0403 14:18:48.074946 13132 net.cpp:91] Creating Layer inception_3b/relu_pool_proj
I0403 14:18:48.074962 13132 net.cpp:425] inception_3b/relu_pool_proj <- inception_3b/pool_proj
I0403 14:18:48.074980 13132 net.cpp:386] inception_3b/relu_pool_proj -> inception_3b/pool_proj (in-place)
I0403 14:18:48.075383 13132 net.cpp:141] Setting up inception_3b/relu_pool_proj
I0403 14:18:48.075410 13132 net.cpp:148] Top shape: 24 64 28 28 (1204224)
I0403 14:18:48.075425 13132 net.cpp:156] Memory required for data: 773112864
I0403 14:18:48.075440 13132 layer_factory.hpp:77] Creating layer inception_3b/output
I0403 14:18:48.075459 13132 net.cpp:91] Creating Layer inception_3b/output
I0403 14:18:48.075474 13132 net.cpp:425] inception_3b/output <- inception_3b/1x1
I0403 14:18:48.075489 13132 net.cpp:425] inception_3b/output <- inception_3b/3x3
I0403 14:18:48.075505 13132 net.cpp:425] inception_3b/output <- inception_3b/5x5
I0403 14:18:48.075521 13132 net.cpp:425] inception_3b/output <- inception_3b/pool_proj
I0403 14:18:48.075543 13132 net.cpp:399] inception_3b/output -> inception_3b/output
I0403 14:18:48.075589 13132 net.cpp:141] Setting up inception_3b/output
I0403 14:18:48.075615 13132 net.cpp:148] Top shape: 24 480 28 28 (9031680)
I0403 14:18:48.075630 13132 net.cpp:156] Memory required for data: 809239584
I0403 14:18:48.075645 13132 layer_factory.hpp:77] Creating layer pool3/3x3_s2
I0403 14:18:48.075662 13132 net.cpp:91] Creating Layer pool3/3x3_s2
I0403 14:18:48.075678 13132 net.cpp:425] pool3/3x3_s2 <- inception_3b/output
I0403 14:18:48.075711 13132 net.cpp:399] pool3/3x3_s2 -> pool3/3x3_s2
I0403 14:18:48.075772 13132 net.cpp:141] Setting up pool3/3x3_s2
I0403 14:18:48.075794 13132 net.cpp:148] Top shape: 24 480 14 14 (2257920)
I0403 14:18:48.075809 13132 net.cpp:156] Memory required for data: 818271264
I0403 14:18:48.075824 13132 layer_factory.hpp:77] Creating layer pool3/3x3_s2_pool3/3x3_s2_0_split
I0403 14:18:48.075840 13132 net.cpp:91] Creating Layer pool3/3x3_s2_pool3/3x3_s2_0_split
I0403 14:18:48.075855 13132 net.cpp:425] pool3/3x3_s2_pool3/3x3_s2_0_split <- pool3/3x3_s2
I0403 14:18:48.075873 13132 net.cpp:399] pool3/3x3_s2_pool3/3x3_s2_0_split -> pool3/3x3_s2_pool3/3x3_s2_0_split_0
I0403 14:18:48.075893 13132 net.cpp:399] pool3/3x3_s2_pool3/3x3_s2_0_split -> pool3/3x3_s2_pool3/3x3_s2_0_split_1
I0403 14:18:48.075913 13132 net.cpp:399] pool3/3x3_s2_pool3/3x3_s2_0_split -> pool3/3x3_s2_pool3/3x3_s2_0_split_2
I0403 14:18:48.075935 13132 net.cpp:399] pool3/3x3_s2_pool3/3x3_s2_0_split -> pool3/3x3_s2_pool3/3x3_s2_0_split_3
I0403 14:18:48.076014 13132 net.cpp:141] Setting up pool3/3x3_s2_pool3/3x3_s2_0_split
I0403 14:18:48.076035 13132 net.cpp:148] Top shape: 24 480 14 14 (2257920)
I0403 14:18:48.076051 13132 net.cpp:148] Top shape: 24 480 14 14 (2257920)
I0403 14:18:48.076066 13132 net.cpp:148] Top shape: 24 480 14 14 (2257920)
I0403 14:18:48.076081 13132 net.cpp:148] Top shape: 24 480 14 14 (2257920)
I0403 14:18:48.076094 13132 net.cpp:156] Memory required for data: 854397984
I0403 14:18:48.076107 13132 layer_factory.hpp:77] Creating layer inception_4a/1x1
I0403 14:18:48.076129 13132 net.cpp:91] Creating Layer inception_4a/1x1
I0403 14:18:48.076146 13132 net.cpp:425] inception_4a/1x1 <- pool3/3x3_s2_pool3/3x3_s2_0_split_0
I0403 14:18:48.076167 13132 net.cpp:399] inception_4a/1x1 -> inception_4a/1x1
I0403 14:18:48.077807 13132 net.cpp:141] Setting up inception_4a/1x1
I0403 14:18:48.077836 13132 net.cpp:148] Top shape: 24 192 14 14 (903168)
I0403 14:18:48.077852 13132 net.cpp:156] Memory required for data: 858010656
I0403 14:18:48.077869 13132 layer_factory.hpp:77] Creating layer inception_4a/relu_1x1
I0403 14:18:48.077889 13132 net.cpp:91] Creating Layer inception_4a/relu_1x1
I0403 14:18:48.077906 13132 net.cpp:425] inception_4a/relu_1x1 <- inception_4a/1x1
I0403 14:18:48.077922 13132 net.cpp:386] inception_4a/relu_1x1 -> inception_4a/1x1 (in-place)
I0403 14:18:48.078101 13132 net.cpp:141] Setting up inception_4a/relu_1x1
I0403 14:18:48.078126 13132 net.cpp:148] Top shape: 24 192 14 14 (903168)
I0403 14:18:48.078141 13132 net.cpp:156] Memory required for data: 861623328
I0403 14:18:48.078156 13132 layer_factory.hpp:77] Creating layer inception_4a/3x3_reduce
I0403 14:18:48.078181 13132 net.cpp:91] Creating Layer inception_4a/3x3_reduce
I0403 14:18:48.078197 13132 net.cpp:425] inception_4a/3x3_reduce <- pool3/3x3_s2_pool3/3x3_s2_0_split_1
I0403 14:18:48.078217 13132 net.cpp:399] inception_4a/3x3_reduce -> inception_4a/3x3_reduce
I0403 14:18:48.079512 13132 net.cpp:141] Setting up inception_4a/3x3_reduce
I0403 14:18:48.079545 13132 net.cpp:148] Top shape: 24 96 14 14 (451584)
I0403 14:18:48.079561 13132 net.cpp:156] Memory required for data: 863429664
I0403 14:18:48.079586 13132 layer_factory.hpp:77] Creating layer inception_4a/relu_3x3_reduce
I0403 14:18:48.079607 13132 net.cpp:91] Creating Layer inception_4a/relu_3x3_reduce
I0403 14:18:48.079622 13132 net.cpp:425] inception_4a/relu_3x3_reduce <- inception_4a/3x3_reduce
I0403 14:18:48.079641 13132 net.cpp:386] inception_4a/relu_3x3_reduce -> inception_4a/3x3_reduce (in-place)
I0403 14:18:48.079818 13132 net.cpp:141] Setting up inception_4a/relu_3x3_reduce
I0403 14:18:48.079843 13132 net.cpp:148] Top shape: 24 96 14 14 (451584)
I0403 14:18:48.079857 13132 net.cpp:156] Memory required for data: 865236000
I0403 14:18:48.079872 13132 layer_factory.hpp:77] Creating layer inception_4a/3x3
I0403 14:18:48.079895 13132 net.cpp:91] Creating Layer inception_4a/3x3
I0403 14:18:48.079912 13132 net.cpp:425] inception_4a/3x3 <- inception_4a/3x3_reduce
I0403 14:18:48.079932 13132 net.cpp:399] inception_4a/3x3 -> inception_4a/3x3
I0403 14:18:48.082679 13132 net.cpp:141] Setting up inception_4a/3x3
I0403 14:18:48.082708 13132 net.cpp:148] Top shape: 24 208 14 14 (978432)
I0403 14:18:48.082723 13132 net.cpp:156] Memory required for data: 869149728
I0403 14:18:48.082741 13132 layer_factory.hpp:77] Creating layer inception_4a/relu_3x3
I0403 14:18:48.082762 13132 net.cpp:91] Creating Layer inception_4a/relu_3x3
I0403 14:18:48.082778 13132 net.cpp:425] inception_4a/relu_3x3 <- inception_4a/3x3
I0403 14:18:48.082803 13132 net.cpp:386] inception_4a/relu_3x3 -> inception_4a/3x3 (in-place)
I0403 14:18:48.083076 13132 net.cpp:141] Setting up inception_4a/relu_3x3
I0403 14:18:48.083101 13132 net.cpp:148] Top shape: 24 208 14 14 (978432)
I0403 14:18:48.083117 13132 net.cpp:156] Memory required for data: 873063456
I0403 14:18:48.083130 13132 layer_factory.hpp:77] Creating layer inception_4a/5x5_reduce
I0403 14:18:48.083153 13132 net.cpp:91] Creating Layer inception_4a/5x5_reduce
I0403 14:18:48.083170 13132 net.cpp:425] inception_4a/5x5_reduce <- pool3/3x3_s2_pool3/3x3_s2_0_split_2
I0403 14:18:48.083190 13132 net.cpp:399] inception_4a/5x5_reduce -> inception_4a/5x5_reduce
I0403 14:18:48.084199 13132 net.cpp:141] Setting up inception_4a/5x5_reduce
I0403 14:18:48.084229 13132 net.cpp:148] Top shape: 24 16 14 14 (75264)
I0403 14:18:48.084245 13132 net.cpp:156] Memory required for data: 873364512
I0403 14:18:48.084262 13132 layer_factory.hpp:77] Creating layer inception_4a/relu_5x5_reduce
I0403 14:18:48.084280 13132 net.cpp:91] Creating Layer inception_4a/relu_5x5_reduce
I0403 14:18:48.084297 13132 net.cpp:425] inception_4a/relu_5x5_reduce <- inception_4a/5x5_reduce
I0403 14:18:48.084313 13132 net.cpp:386] inception_4a/relu_5x5_reduce -> inception_4a/5x5_reduce (in-place)
I0403 14:18:48.084489 13132 net.cpp:141] Setting up inception_4a/relu_5x5_reduce
I0403 14:18:48.084514 13132 net.cpp:148] Top shape: 24 16 14 14 (75264)
I0403 14:18:48.084528 13132 net.cpp:156] Memory required for data: 873665568
I0403 14:18:48.084553 13132 layer_factory.hpp:77] Creating layer inception_4a/5x5
I0403 14:18:48.084578 13132 net.cpp:91] Creating Layer inception_4a/5x5
I0403 14:18:48.084595 13132 net.cpp:425] inception_4a/5x5 <- inception_4a/5x5_reduce
I0403 14:18:48.084616 13132 net.cpp:399] inception_4a/5x5 -> inception_4a/5x5
I0403 14:18:48.085688 13132 net.cpp:141] Setting up inception_4a/5x5
I0403 14:18:48.085716 13132 net.cpp:148] Top shape: 24 48 14 14 (225792)
I0403 14:18:48.085731 13132 net.cpp:156] Memory required for data: 874568736
I0403 14:18:48.085747 13132 layer_factory.hpp:77] Creating layer inception_4a/relu_5x5
I0403 14:18:48.085764 13132 net.cpp:91] Creating Layer inception_4a/relu_5x5
I0403 14:18:48.085780 13132 net.cpp:425] inception_4a/relu_5x5 <- inception_4a/5x5
I0403 14:18:48.085799 13132 net.cpp:386] inception_4a/relu_5x5 -> inception_4a/5x5 (in-place)
I0403 14:18:48.085975 13132 net.cpp:141] Setting up inception_4a/relu_5x5
I0403 14:18:48.085999 13132 net.cpp:148] Top shape: 24 48 14 14 (225792)
I0403 14:18:48.086014 13132 net.cpp:156] Memory required for data: 875471904
I0403 14:18:48.086027 13132 layer_factory.hpp:77] Creating layer inception_4a/pool
I0403 14:18:48.086046 13132 net.cpp:91] Creating Layer inception_4a/pool
I0403 14:18:48.086063 13132 net.cpp:425] inception_4a/pool <- pool3/3x3_s2_pool3/3x3_s2_0_split_3
I0403 14:18:48.086081 13132 net.cpp:399] inception_4a/pool -> inception_4a/pool
I0403 14:18:48.086140 13132 net.cpp:141] Setting up inception_4a/pool
I0403 14:18:48.086163 13132 net.cpp:148] Top shape: 24 480 14 14 (2257920)
I0403 14:18:48.086177 13132 net.cpp:156] Memory required for data: 884503584
I0403 14:18:48.086191 13132 layer_factory.hpp:77] Creating layer inception_4a/pool_proj
I0403 14:18:48.086213 13132 net.cpp:91] Creating Layer inception_4a/pool_proj
I0403 14:18:48.086230 13132 net.cpp:425] inception_4a/pool_proj <- inception_4a/pool
I0403 14:18:48.086251 13132 net.cpp:399] inception_4a/pool_proj -> inception_4a/pool_proj
I0403 14:18:48.087400 13132 net.cpp:141] Setting up inception_4a/pool_proj
I0403 14:18:48.087429 13132 net.cpp:148] Top shape: 24 64 14 14 (301056)
I0403 14:18:48.087460 13132 net.cpp:156] Memory required for data: 885707808
I0403 14:18:48.087478 13132 layer_factory.hpp:77] Creating layer inception_4a/relu_pool_proj
I0403 14:18:48.087499 13132 net.cpp:91] Creating Layer inception_4a/relu_pool_proj
I0403 14:18:48.087517 13132 net.cpp:425] inception_4a/relu_pool_proj <- inception_4a/pool_proj
I0403 14:18:48.087533 13132 net.cpp:386] inception_4a/relu_pool_proj -> inception_4a/pool_proj (in-place)
I0403 14:18:48.087815 13132 net.cpp:141] Setting up inception_4a/relu_pool_proj
I0403 14:18:48.087841 13132 net.cpp:148] Top shape: 24 64 14 14 (301056)
I0403 14:18:48.087857 13132 net.cpp:156] Memory required for data: 886912032
I0403 14:18:48.087869 13132 layer_factory.hpp:77] Creating layer inception_4a/output
I0403 14:18:48.087887 13132 net.cpp:91] Creating Layer inception_4a/output
I0403 14:18:48.087901 13132 net.cpp:425] inception_4a/output <- inception_4a/1x1
I0403 14:18:48.087918 13132 net.cpp:425] inception_4a/output <- inception_4a/3x3
I0403 14:18:48.087932 13132 net.cpp:425] inception_4a/output <- inception_4a/5x5
I0403 14:18:48.087947 13132 net.cpp:425] inception_4a/output <- inception_4a/pool_proj
I0403 14:18:48.087965 13132 net.cpp:399] inception_4a/output -> inception_4a/output
I0403 14:18:48.088008 13132 net.cpp:141] Setting up inception_4a/output
I0403 14:18:48.088034 13132 net.cpp:148] Top shape: 24 512 14 14 (2408448)
I0403 14:18:48.088047 13132 net.cpp:156] Memory required for data: 896545824
I0403 14:18:48.088062 13132 layer_factory.hpp:77] Creating layer inception_4a/output_inception_4a/output_0_split
I0403 14:18:48.088078 13132 net.cpp:91] Creating Layer inception_4a/output_inception_4a/output_0_split
I0403 14:18:48.088093 13132 net.cpp:425] inception_4a/output_inception_4a/output_0_split <- inception_4a/output
I0403 14:18:48.088112 13132 net.cpp:399] inception_4a/output_inception_4a/output_0_split -> inception_4a/output_inception_4a/output_0_split_0
I0403 14:18:48.088132 13132 net.cpp:399] inception_4a/output_inception_4a/output_0_split -> inception_4a/output_inception_4a/output_0_split_1
I0403 14:18:48.088152 13132 net.cpp:399] inception_4a/output_inception_4a/output_0_split -> inception_4a/output_inception_4a/output_0_split_2
I0403 14:18:48.088172 13132 net.cpp:399] inception_4a/output_inception_4a/output_0_split -> inception_4a/output_inception_4a/output_0_split_3
I0403 14:18:48.088191 13132 net.cpp:399] inception_4a/output_inception_4a/output_0_split -> inception_4a/output_inception_4a/output_0_split_4
I0403 14:18:48.088280 13132 net.cpp:141] Setting up inception_4a/output_inception_4a/output_0_split
I0403 14:18:48.088306 13132 net.cpp:148] Top shape: 24 512 14 14 (2408448)
I0403 14:18:48.088323 13132 net.cpp:148] Top shape: 24 512 14 14 (2408448)
I0403 14:18:48.088338 13132 net.cpp:148] Top shape: 24 512 14 14 (2408448)
I0403 14:18:48.088353 13132 net.cpp:148] Top shape: 24 512 14 14 (2408448)
I0403 14:18:48.088367 13132 net.cpp:148] Top shape: 24 512 14 14 (2408448)
I0403 14:18:48.088381 13132 net.cpp:156] Memory required for data: 944714784
I0403 14:18:48.088394 13132 layer_factory.hpp:77] Creating layer loss1/ave_pool
I0403 14:18:48.088410 13132 net.cpp:91] Creating Layer loss1/ave_pool
I0403 14:18:48.088425 13132 net.cpp:425] loss1/ave_pool <- inception_4a/output_inception_4a/output_0_split_0
I0403 14:18:48.088443 13132 net.cpp:399] loss1/ave_pool -> loss1/ave_pool
I0403 14:18:48.088654 13132 net.cpp:141] Setting up loss1/ave_pool
I0403 14:18:48.088678 13132 net.cpp:148] Top shape: 24 512 4 4 (196608)
I0403 14:18:48.088692 13132 net.cpp:156] Memory required for data: 945501216
I0403 14:18:48.088706 13132 layer_factory.hpp:77] Creating layer loss1/conv
I0403 14:18:48.088727 13132 net.cpp:91] Creating Layer loss1/conv
I0403 14:18:48.088744 13132 net.cpp:425] loss1/conv <- loss1/ave_pool
I0403 14:18:48.088764 13132 net.cpp:399] loss1/conv -> loss1/conv
I0403 14:18:48.090172 13132 net.cpp:141] Setting up loss1/conv
I0403 14:18:48.090201 13132 net.cpp:148] Top shape: 24 128 4 4 (49152)
I0403 14:18:48.090230 13132 net.cpp:156] Memory required for data: 945697824
I0403 14:18:48.090250 13132 layer_factory.hpp:77] Creating layer loss1/relu_conv
I0403 14:18:48.090266 13132 net.cpp:91] Creating Layer loss1/relu_conv
I0403 14:18:48.090281 13132 net.cpp:425] loss1/relu_conv <- loss1/conv
I0403 14:18:48.090301 13132 net.cpp:386] loss1/relu_conv -> loss1/conv (in-place)
I0403 14:18:48.090587 13132 net.cpp:141] Setting up loss1/relu_conv
I0403 14:18:48.090615 13132 net.cpp:148] Top shape: 24 128 4 4 (49152)
I0403 14:18:48.090631 13132 net.cpp:156] Memory required for data: 945894432
I0403 14:18:48.090646 13132 layer_factory.hpp:77] Creating layer loss1/fc
I0403 14:18:48.090668 13132 net.cpp:91] Creating Layer loss1/fc
I0403 14:18:48.090684 13132 net.cpp:425] loss1/fc <- loss1/conv
I0403 14:18:48.090704 13132 net.cpp:399] loss1/fc -> loss1/fc
I0403 14:18:48.108105 13132 net.cpp:141] Setting up loss1/fc
I0403 14:18:48.108146 13132 net.cpp:148] Top shape: 24 1024 (24576)
I0403 14:18:48.108162 13132 net.cpp:156] Memory required for data: 945992736
I0403 14:18:48.108180 13132 layer_factory.hpp:77] Creating layer loss1/relu_fc
I0403 14:18:48.108201 13132 net.cpp:91] Creating Layer loss1/relu_fc
I0403 14:18:48.108218 13132 net.cpp:425] loss1/relu_fc <- loss1/fc
I0403 14:18:48.108235 13132 net.cpp:386] loss1/relu_fc -> loss1/fc (in-place)
I0403 14:18:48.108423 13132 net.cpp:141] Setting up loss1/relu_fc
I0403 14:18:48.108448 13132 net.cpp:148] Top shape: 24 1024 (24576)
I0403 14:18:48.108461 13132 net.cpp:156] Memory required for data: 946091040
I0403 14:18:48.108475 13132 layer_factory.hpp:77] Creating layer loss1/drop_fc
I0403 14:18:48.108503 13132 net.cpp:91] Creating Layer loss1/drop_fc
I0403 14:18:48.108520 13132 net.cpp:425] loss1/drop_fc <- loss1/fc
I0403 14:18:48.108541 13132 net.cpp:386] loss1/drop_fc -> loss1/fc (in-place)
I0403 14:18:48.108594 13132 net.cpp:141] Setting up loss1/drop_fc
I0403 14:18:48.108618 13132 net.cpp:148] Top shape: 24 1024 (24576)
I0403 14:18:48.108631 13132 net.cpp:156] Memory required for data: 946189344
I0403 14:18:48.108645 13132 layer_factory.hpp:77] Creating layer loss1/classifier_plantvillage
I0403 14:18:48.108664 13132 net.cpp:91] Creating Layer loss1/classifier_plantvillage
I0403 14:18:48.108680 13132 net.cpp:425] loss1/classifier_plantvillage <- loss1/fc
I0403 14:18:48.108700 13132 net.cpp:399] loss1/classifier_plantvillage -> loss1/classifier_plantvillage
I0403 14:18:48.109604 13132 net.cpp:141] Setting up loss1/classifier_plantvillage
I0403 14:18:48.109634 13132 net.cpp:148] Top shape: 24 38 (912)
I0403 14:18:48.109650 13132 net.cpp:156] Memory required for data: 946192992
I0403 14:18:48.109668 13132 layer_factory.hpp:77] Creating layer loss1/classifier_plantvillage_loss1/classifier_plantvillage_0_split
I0403 14:18:48.109684 13132 net.cpp:91] Creating Layer loss1/classifier_plantvillage_loss1/classifier_plantvillage_0_split
I0403 14:18:48.109699 13132 net.cpp:425] loss1/classifier_plantvillage_loss1/classifier_plantvillage_0_split <- loss1/classifier_plantvillage
I0403 14:18:48.109716 13132 net.cpp:399] loss1/classifier_plantvillage_loss1/classifier_plantvillage_0_split -> loss1/classifier_plantvillage_loss1/classifier_plantvillage_0_split_0
I0403 14:18:48.109735 13132 net.cpp:399] loss1/classifier_plantvillage_loss1/classifier_plantvillage_0_split -> loss1/classifier_plantvillage_loss1/classifier_plantvillage_0_split_1
I0403 14:18:48.109752 13132 net.cpp:399] loss1/classifier_plantvillage_loss1/classifier_plantvillage_0_split -> loss1/classifier_plantvillage_loss1/classifier_plantvillage_0_split_2
I0403 14:18:48.109817 13132 net.cpp:141] Setting up loss1/classifier_plantvillage_loss1/classifier_plantvillage_0_split
I0403 14:18:48.109839 13132 net.cpp:148] Top shape: 24 38 (912)
I0403 14:18:48.109854 13132 net.cpp:148] Top shape: 24 38 (912)
I0403 14:18:48.109869 13132 net.cpp:148] Top shape: 24 38 (912)
I0403 14:18:48.109882 13132 net.cpp:156] Memory required for data: 946203936
I0403 14:18:48.109896 13132 layer_factory.hpp:77] Creating layer inception_4b/1x1
I0403 14:18:48.109915 13132 net.cpp:91] Creating Layer inception_4b/1x1
I0403 14:18:48.109952 13132 net.cpp:425] inception_4b/1x1 <- inception_4a/output_inception_4a/output_0_split_1
I0403 14:18:48.109973 13132 net.cpp:399] inception_4b/1x1 -> inception_4b/1x1
I0403 14:18:48.111623 13132 net.cpp:141] Setting up inception_4b/1x1
I0403 14:18:48.111652 13132 net.cpp:148] Top shape: 24 160 14 14 (752640)
I0403 14:18:48.111668 13132 net.cpp:156] Memory required for data: 949214496
I0403 14:18:48.111686 13132 layer_factory.hpp:77] Creating layer inception_4b/relu_1x1
I0403 14:18:48.111703 13132 net.cpp:91] Creating Layer inception_4b/relu_1x1
I0403 14:18:48.111719 13132 net.cpp:425] inception_4b/relu_1x1 <- inception_4b/1x1
I0403 14:18:48.111737 13132 net.cpp:386] inception_4b/relu_1x1 -> inception_4b/1x1 (in-place)
I0403 14:18:48.111915 13132 net.cpp:141] Setting up inception_4b/relu_1x1
I0403 14:18:48.111943 13132 net.cpp:148] Top shape: 24 160 14 14 (752640)
I0403 14:18:48.111958 13132 net.cpp:156] Memory required for data: 952225056
I0403 14:18:48.111971 13132 layer_factory.hpp:77] Creating layer inception_4b/3x3_reduce
I0403 14:18:48.111994 13132 net.cpp:91] Creating Layer inception_4b/3x3_reduce
I0403 14:18:48.112010 13132 net.cpp:425] inception_4b/3x3_reduce <- inception_4a/output_inception_4a/output_0_split_2
I0403 14:18:48.112032 13132 net.cpp:399] inception_4b/3x3_reduce -> inception_4b/3x3_reduce
I0403 14:18:48.113361 13132 net.cpp:141] Setting up inception_4b/3x3_reduce
I0403 14:18:48.113392 13132 net.cpp:148] Top shape: 24 112 14 14 (526848)
I0403 14:18:48.113409 13132 net.cpp:156] Memory required for data: 954332448
I0403 14:18:48.113425 13132 layer_factory.hpp:77] Creating layer inception_4b/relu_3x3_reduce
I0403 14:18:48.113445 13132 net.cpp:91] Creating Layer inception_4b/relu_3x3_reduce
I0403 14:18:48.113459 13132 net.cpp:425] inception_4b/relu_3x3_reduce <- inception_4b/3x3_reduce
I0403 14:18:48.113479 13132 net.cpp:386] inception_4b/relu_3x3_reduce -> inception_4b/3x3_reduce (in-place)
I0403 14:18:48.113759 13132 net.cpp:141] Setting up inception_4b/relu_3x3_reduce
I0403 14:18:48.113786 13132 net.cpp:148] Top shape: 24 112 14 14 (526848)
I0403 14:18:48.113802 13132 net.cpp:156] Memory required for data: 956439840
I0403 14:18:48.113817 13132 layer_factory.hpp:77] Creating layer inception_4b/3x3
I0403 14:18:48.113839 13132 net.cpp:91] Creating Layer inception_4b/3x3
I0403 14:18:48.113855 13132 net.cpp:425] inception_4b/3x3 <- inception_4b/3x3_reduce
I0403 14:18:48.113873 13132 net.cpp:399] inception_4b/3x3 -> inception_4b/3x3
I0403 14:18:48.116871 13132 net.cpp:141] Setting up inception_4b/3x3
I0403 14:18:48.116899 13132 net.cpp:148] Top shape: 24 224 14 14 (1053696)
I0403 14:18:48.116914 13132 net.cpp:156] Memory required for data: 960654624
I0403 14:18:48.116932 13132 layer_factory.hpp:77] Creating layer inception_4b/relu_3x3
I0403 14:18:48.116952 13132 net.cpp:91] Creating Layer inception_4b/relu_3x3
I0403 14:18:48.116968 13132 net.cpp:425] inception_4b/relu_3x3 <- inception_4b/3x3
I0403 14:18:48.116986 13132 net.cpp:386] inception_4b/relu_3x3 -> inception_4b/3x3 (in-place)
I0403 14:18:48.117162 13132 net.cpp:141] Setting up inception_4b/relu_3x3
I0403 14:18:48.117187 13132 net.cpp:148] Top shape: 24 224 14 14 (1053696)
I0403 14:18:48.117202 13132 net.cpp:156] Memory required for data: 964869408
I0403 14:18:48.117215 13132 layer_factory.hpp:77] Creating layer inception_4b/5x5_reduce
I0403 14:18:48.117240 13132 net.cpp:91] Creating Layer inception_4b/5x5_reduce
I0403 14:18:48.117257 13132 net.cpp:425] inception_4b/5x5_reduce <- inception_4a/output_inception_4a/output_0_split_3
I0403 14:18:48.117275 13132 net.cpp:399] inception_4b/5x5_reduce -> inception_4b/5x5_reduce
I0403 14:18:48.118348 13132 net.cpp:141] Setting up inception_4b/5x5_reduce
I0403 14:18:48.118378 13132 net.cpp:148] Top shape: 24 24 14 14 (112896)
I0403 14:18:48.118394 13132 net.cpp:156] Memory required for data: 965320992
I0403 14:18:48.118412 13132 layer_factory.hpp:77] Creating layer inception_4b/relu_5x5_reduce
I0403 14:18:48.118430 13132 net.cpp:91] Creating Layer inception_4b/relu_5x5_reduce
I0403 14:18:48.118463 13132 net.cpp:425] inception_4b/relu_5x5_reduce <- inception_4b/5x5_reduce
I0403 14:18:48.118484 13132 net.cpp:386] inception_4b/relu_5x5_reduce -> inception_4b/5x5_reduce (in-place)
I0403 14:18:48.118666 13132 net.cpp:141] Setting up inception_4b/relu_5x5_reduce
I0403 14:18:48.118691 13132 net.cpp:148] Top shape: 24 24 14 14 (112896)
I0403 14:18:48.118705 13132 net.cpp:156] Memory required for data: 965772576
I0403 14:18:48.118721 13132 layer_factory.hpp:77] Creating layer inception_4b/5x5
I0403 14:18:48.118741 13132 net.cpp:91] Creating Layer inception_4b/5x5
I0403 14:18:48.118758 13132 net.cpp:425] inception_4b/5x5 <- inception_4b/5x5_reduce
I0403 14:18:48.118778 13132 net.cpp:399] inception_4b/5x5 -> inception_4b/5x5
I0403 14:18:48.120000 13132 net.cpp:141] Setting up inception_4b/5x5
I0403 14:18:48.120029 13132 net.cpp:148] Top shape: 24 64 14 14 (301056)
I0403 14:18:48.120044 13132 net.cpp:156] Memory required for data: 966976800
I0403 14:18:48.120062 13132 layer_factory.hpp:77] Creating layer inception_4b/relu_5x5
I0403 14:18:48.120079 13132 net.cpp:91] Creating Layer inception_4b/relu_5x5
I0403 14:18:48.120095 13132 net.cpp:425] inception_4b/relu_5x5 <- inception_4b/5x5
I0403 14:18:48.120111 13132 net.cpp:386] inception_4b/relu_5x5 -> inception_4b/5x5 (in-place)
I0403 14:18:48.120404 13132 net.cpp:141] Setting up inception_4b/relu_5x5
I0403 14:18:48.120432 13132 net.cpp:148] Top shape: 24 64 14 14 (301056)
I0403 14:18:48.120448 13132 net.cpp:156] Memory required for data: 968181024
I0403 14:18:48.120462 13132 layer_factory.hpp:77] Creating layer inception_4b/pool
I0403 14:18:48.120481 13132 net.cpp:91] Creating Layer inception_4b/pool
I0403 14:18:48.120496 13132 net.cpp:425] inception_4b/pool <- inception_4a/output_inception_4a/output_0_split_4
I0403 14:18:48.120513 13132 net.cpp:399] inception_4b/pool -> inception_4b/pool
I0403 14:18:48.120581 13132 net.cpp:141] Setting up inception_4b/pool
I0403 14:18:48.120605 13132 net.cpp:148] Top shape: 24 512 14 14 (2408448)
I0403 14:18:48.120620 13132 net.cpp:156] Memory required for data: 977814816
I0403 14:18:48.120633 13132 layer_factory.hpp:77] Creating layer inception_4b/pool_proj
I0403 14:18:48.120654 13132 net.cpp:91] Creating Layer inception_4b/pool_proj
I0403 14:18:48.120671 13132 net.cpp:425] inception_4b/pool_proj <- inception_4b/pool
I0403 14:18:48.120692 13132 net.cpp:399] inception_4b/pool_proj -> inception_4b/pool_proj
I0403 14:18:48.121884 13132 net.cpp:141] Setting up inception_4b/pool_proj
I0403 14:18:48.121915 13132 net.cpp:148] Top shape: 24 64 14 14 (301056)
I0403 14:18:48.121932 13132 net.cpp:156] Memory required for data: 979019040
I0403 14:18:48.121949 13132 layer_factory.hpp:77] Creating layer inception_4b/relu_pool_proj
I0403 14:18:48.121968 13132 net.cpp:91] Creating Layer inception_4b/relu_pool_proj
I0403 14:18:48.121984 13132 net.cpp:425] inception_4b/relu_pool_proj <- inception_4b/pool_proj
I0403 14:18:48.121999 13132 net.cpp:386] inception_4b/relu_pool_proj -> inception_4b/pool_proj (in-place)
I0403 14:18:48.122176 13132 net.cpp:141] Setting up inception_4b/relu_pool_proj
I0403 14:18:48.122200 13132 net.cpp:148] Top shape: 24 64 14 14 (301056)
I0403 14:18:48.122215 13132 net.cpp:156] Memory required for data: 980223264
I0403 14:18:48.122228 13132 layer_factory.hpp:77] Creating layer inception_4b/output
I0403 14:18:48.122246 13132 net.cpp:91] Creating Layer inception_4b/output
I0403 14:18:48.122262 13132 net.cpp:425] inception_4b/output <- inception_4b/1x1
I0403 14:18:48.122278 13132 net.cpp:425] inception_4b/output <- inception_4b/3x3
I0403 14:18:48.122293 13132 net.cpp:425] inception_4b/output <- inception_4b/5x5
I0403 14:18:48.122308 13132 net.cpp:425] inception_4b/output <- inception_4b/pool_proj
I0403 14:18:48.122328 13132 net.cpp:399] inception_4b/output -> inception_4b/output
I0403 14:18:48.122371 13132 net.cpp:141] Setting up inception_4b/output
I0403 14:18:48.122396 13132 net.cpp:148] Top shape: 24 512 14 14 (2408448)
I0403 14:18:48.122411 13132 net.cpp:156] Memory required for data: 989857056
I0403 14:18:48.122440 13132 layer_factory.hpp:77] Creating layer inception_4b/output_inception_4b/output_0_split
I0403 14:18:48.122457 13132 net.cpp:91] Creating Layer inception_4b/output_inception_4b/output_0_split
I0403 14:18:48.122473 13132 net.cpp:425] inception_4b/output_inception_4b/output_0_split <- inception_4b/output
I0403 14:18:48.122491 13132 net.cpp:399] inception_4b/output_inception_4b/output_0_split -> inception_4b/output_inception_4b/output_0_split_0
I0403 14:18:48.122512 13132 net.cpp:399] inception_4b/output_inception_4b/output_0_split -> inception_4b/output_inception_4b/output_0_split_1
I0403 14:18:48.122531 13132 net.cpp:399] inception_4b/output_inception_4b/output_0_split -> inception_4b/output_inception_4b/output_0_split_2
I0403 14:18:48.122555 13132 net.cpp:399] inception_4b/output_inception_4b/output_0_split -> inception_4b/output_inception_4b/output_0_split_3
I0403 14:18:48.122638 13132 net.cpp:141] Setting up inception_4b/output_inception_4b/output_0_split
I0403 14:18:48.122661 13132 net.cpp:148] Top shape: 24 512 14 14 (2408448)
I0403 14:18:48.122676 13132 net.cpp:148] Top shape: 24 512 14 14 (2408448)
I0403 14:18:48.122691 13132 net.cpp:148] Top shape: 24 512 14 14 (2408448)
I0403 14:18:48.122706 13132 net.cpp:148] Top shape: 24 512 14 14 (2408448)
I0403 14:18:48.122720 13132 net.cpp:156] Memory required for data: 1028392224
I0403 14:18:48.122732 13132 layer_factory.hpp:77] Creating layer inception_4c/1x1
I0403 14:18:48.122755 13132 net.cpp:91] Creating Layer inception_4c/1x1
I0403 14:18:48.122771 13132 net.cpp:425] inception_4c/1x1 <- inception_4b/output_inception_4b/output_0_split_0
I0403 14:18:48.122793 13132 net.cpp:399] inception_4c/1x1 -> inception_4c/1x1
I0403 14:18:48.124214 13132 net.cpp:141] Setting up inception_4c/1x1
I0403 14:18:48.124241 13132 net.cpp:148] Top shape: 24 128 14 14 (602112)
I0403 14:18:48.124258 13132 net.cpp:156] Memory required for data: 1030800672
I0403 14:18:48.124274 13132 layer_factory.hpp:77] Creating layer inception_4c/relu_1x1
I0403 14:18:48.124294 13132 net.cpp:91] Creating Layer inception_4c/relu_1x1
I0403 14:18:48.124311 13132 net.cpp:425] inception_4c/relu_1x1 <- inception_4c/1x1
I0403 14:18:48.124328 13132 net.cpp:386] inception_4c/relu_1x1 -> inception_4c/1x1 (in-place)
I0403 14:18:48.124503 13132 net.cpp:141] Setting up inception_4c/relu_1x1
I0403 14:18:48.124527 13132 net.cpp:148] Top shape: 24 128 14 14 (602112)
I0403 14:18:48.124553 13132 net.cpp:156] Memory required for data: 1033209120
I0403 14:18:48.124570 13132 layer_factory.hpp:77] Creating layer inception_4c/3x3_reduce
I0403 14:18:48.124593 13132 net.cpp:91] Creating Layer inception_4c/3x3_reduce
I0403 14:18:48.124611 13132 net.cpp:425] inception_4c/3x3_reduce <- inception_4b/output_inception_4b/output_0_split_1
I0403 14:18:48.124629 13132 net.cpp:399] inception_4c/3x3_reduce -> inception_4c/3x3_reduce
I0403 14:18:48.126550 13132 net.cpp:141] Setting up inception_4c/3x3_reduce
I0403 14:18:48.126579 13132 net.cpp:148] Top shape: 24 128 14 14 (602112)
I0403 14:18:48.126593 13132 net.cpp:156] Memory required for data: 1035617568
I0403 14:18:48.126612 13132 layer_factory.hpp:77] Creating layer inception_4c/relu_3x3_reduce
I0403 14:18:48.126632 13132 net.cpp:91] Creating Layer inception_4c/relu_3x3_reduce
I0403 14:18:48.126649 13132 net.cpp:425] inception_4c/relu_3x3_reduce <- inception_4c/3x3_reduce
I0403 14:18:48.126667 13132 net.cpp:386] inception_4c/relu_3x3_reduce -> inception_4c/3x3_reduce (in-place)
I0403 14:18:48.126948 13132 net.cpp:141] Setting up inception_4c/relu_3x3_reduce
I0403 14:18:48.126974 13132 net.cpp:148] Top shape: 24 128 14 14 (602112)
I0403 14:18:48.126989 13132 net.cpp:156] Memory required for data: 1038026016
I0403 14:18:48.127003 13132 layer_factory.hpp:77] Creating layer inception_4c/3x3
I0403 14:18:48.127028 13132 net.cpp:91] Creating Layer inception_4c/3x3
I0403 14:18:48.127045 13132 net.cpp:425] inception_4c/3x3 <- inception_4c/3x3_reduce
I0403 14:18:48.127063 13132 net.cpp:399] inception_4c/3x3 -> inception_4c/3x3
I0403 14:18:48.130622 13132 net.cpp:141] Setting up inception_4c/3x3
I0403 14:18:48.130664 13132 net.cpp:148] Top shape: 24 256 14 14 (1204224)
I0403 14:18:48.130681 13132 net.cpp:156] Memory required for data: 1042842912
I0403 14:18:48.130712 13132 layer_factory.hpp:77] Creating layer inception_4c/relu_3x3
I0403 14:18:48.130731 13132 net.cpp:91] Creating Layer inception_4c/relu_3x3
I0403 14:18:48.130748 13132 net.cpp:425] inception_4c/relu_3x3 <- inception_4c/3x3
I0403 14:18:48.130764 13132 net.cpp:386] inception_4c/relu_3x3 -> inception_4c/3x3 (in-place)
I0403 14:18:48.130939 13132 net.cpp:141] Setting up inception_4c/relu_3x3
I0403 14:18:48.130964 13132 net.cpp:148] Top shape: 24 256 14 14 (1204224)
I0403 14:18:48.130980 13132 net.cpp:156] Memory required for data: 1047659808
I0403 14:18:48.130993 13132 layer_factory.hpp:77] Creating layer inception_4c/5x5_reduce
I0403 14:18:48.131016 13132 net.cpp:91] Creating Layer inception_4c/5x5_reduce
I0403 14:18:48.131032 13132 net.cpp:425] inception_4c/5x5_reduce <- inception_4b/output_inception_4b/output_0_split_2
I0403 14:18:48.131050 13132 net.cpp:399] inception_4c/5x5_reduce -> inception_4c/5x5_reduce
I0403 14:18:48.132099 13132 net.cpp:141] Setting up inception_4c/5x5_reduce
I0403 14:18:48.132128 13132 net.cpp:148] Top shape: 24 24 14 14 (112896)
I0403 14:18:48.132143 13132 net.cpp:156] Memory required for data: 1048111392
I0403 14:18:48.132160 13132 layer_factory.hpp:77] Creating layer inception_4c/relu_5x5_reduce
I0403 14:18:48.132177 13132 net.cpp:91] Creating Layer inception_4c/relu_5x5_reduce
I0403 14:18:48.132192 13132 net.cpp:425] inception_4c/relu_5x5_reduce <- inception_4c/5x5_reduce
I0403 14:18:48.132210 13132 net.cpp:386] inception_4c/relu_5x5_reduce -> inception_4c/5x5_reduce (in-place)
I0403 14:18:48.132390 13132 net.cpp:141] Setting up inception_4c/relu_5x5_reduce
I0403 14:18:48.132412 13132 net.cpp:148] Top shape: 24 24 14 14 (112896)
I0403 14:18:48.132426 13132 net.cpp:156] Memory required for data: 1048562976
I0403 14:18:48.132441 13132 layer_factory.hpp:77] Creating layer inception_4c/5x5
I0403 14:18:48.132462 13132 net.cpp:91] Creating Layer inception_4c/5x5
I0403 14:18:48.132477 13132 net.cpp:425] inception_4c/5x5 <- inception_4c/5x5_reduce
I0403 14:18:48.132498 13132 net.cpp:399] inception_4c/5x5 -> inception_4c/5x5
I0403 14:18:48.133697 13132 net.cpp:141] Setting up inception_4c/5x5
I0403 14:18:48.133724 13132 net.cpp:148] Top shape: 24 64 14 14 (301056)
I0403 14:18:48.133739 13132 net.cpp:156] Memory required for data: 1049767200
I0403 14:18:48.133756 13132 layer_factory.hpp:77] Creating layer inception_4c/relu_5x5
I0403 14:18:48.133774 13132 net.cpp:91] Creating Layer inception_4c/relu_5x5
I0403 14:18:48.133791 13132 net.cpp:425] inception_4c/relu_5x5 <- inception_4c/5x5
I0403 14:18:48.133808 13132 net.cpp:386] inception_4c/relu_5x5 -> inception_4c/5x5 (in-place)
I0403 14:18:48.134088 13132 net.cpp:141] Setting up inception_4c/relu_5x5
I0403 14:18:48.134112 13132 net.cpp:148] Top shape: 24 64 14 14 (301056)
I0403 14:18:48.134127 13132 net.cpp:156] Memory required for data: 1050971424
I0403 14:18:48.134141 13132 layer_factory.hpp:77] Creating layer inception_4c/pool
I0403 14:18:48.134158 13132 net.cpp:91] Creating Layer inception_4c/pool
I0403 14:18:48.134173 13132 net.cpp:425] inception_4c/pool <- inception_4b/output_inception_4b/output_0_split_3
I0403 14:18:48.134192 13132 net.cpp:399] inception_4c/pool -> inception_4c/pool
I0403 14:18:48.134254 13132 net.cpp:141] Setting up inception_4c/pool
I0403 14:18:48.134280 13132 net.cpp:148] Top shape: 24 512 14 14 (2408448)
I0403 14:18:48.134294 13132 net.cpp:156] Memory required for data: 1060605216
I0403 14:18:48.134307 13132 layer_factory.hpp:77] Creating layer inception_4c/pool_proj
I0403 14:18:48.134328 13132 net.cpp:91] Creating Layer inception_4c/pool_proj
I0403 14:18:48.134344 13132 net.cpp:425] inception_4c/pool_proj <- inception_4c/pool
I0403 14:18:48.134361 13132 net.cpp:399] inception_4c/pool_proj -> inception_4c/pool_proj
I0403 14:18:48.135561 13132 net.cpp:141] Setting up inception_4c/pool_proj
I0403 14:18:48.135591 13132 net.cpp:148] Top shape: 24 64 14 14 (301056)
I0403 14:18:48.135620 13132 net.cpp:156] Memory required for data: 1061809440
I0403 14:18:48.135639 13132 layer_factory.hpp:77] Creating layer inception_4c/relu_pool_proj
I0403 14:18:48.135655 13132 net.cpp:91] Creating Layer inception_4c/relu_pool_proj
I0403 14:18:48.135671 13132 net.cpp:425] inception_4c/relu_pool_proj <- inception_4c/pool_proj
I0403 14:18:48.135686 13132 net.cpp:386] inception_4c/relu_pool_proj -> inception_4c/pool_proj (in-place)
I0403 14:18:48.135864 13132 net.cpp:141] Setting up inception_4c/relu_pool_proj
I0403 14:18:48.135886 13132 net.cpp:148] Top shape: 24 64 14 14 (301056)
I0403 14:18:48.135900 13132 net.cpp:156] Memory required for data: 1063013664
I0403 14:18:48.135915 13132 layer_factory.hpp:77] Creating layer inception_4c/output
I0403 14:18:48.135931 13132 net.cpp:91] Creating Layer inception_4c/output
I0403 14:18:48.135944 13132 net.cpp:425] inception_4c/output <- inception_4c/1x1
I0403 14:18:48.135959 13132 net.cpp:425] inception_4c/output <- inception_4c/3x3
I0403 14:18:48.135974 13132 net.cpp:425] inception_4c/output <- inception_4c/5x5
I0403 14:18:48.135990 13132 net.cpp:425] inception_4c/output <- inception_4c/pool_proj
I0403 14:18:48.136008 13132 net.cpp:399] inception_4c/output -> inception_4c/output
I0403 14:18:48.136052 13132 net.cpp:141] Setting up inception_4c/output
I0403 14:18:48.136076 13132 net.cpp:148] Top shape: 24 512 14 14 (2408448)
I0403 14:18:48.136090 13132 net.cpp:156] Memory required for data: 1072647456
I0403 14:18:48.136104 13132 layer_factory.hpp:77] Creating layer inception_4c/output_inception_4c/output_0_split
I0403 14:18:48.136121 13132 net.cpp:91] Creating Layer inception_4c/output_inception_4c/output_0_split
I0403 14:18:48.136134 13132 net.cpp:425] inception_4c/output_inception_4c/output_0_split <- inception_4c/output
I0403 14:18:48.136150 13132 net.cpp:399] inception_4c/output_inception_4c/output_0_split -> inception_4c/output_inception_4c/output_0_split_0
I0403 14:18:48.136173 13132 net.cpp:399] inception_4c/output_inception_4c/output_0_split -> inception_4c/output_inception_4c/output_0_split_1
I0403 14:18:48.136191 13132 net.cpp:399] inception_4c/output_inception_4c/output_0_split -> inception_4c/output_inception_4c/output_0_split_2
I0403 14:18:48.136210 13132 net.cpp:399] inception_4c/output_inception_4c/output_0_split -> inception_4c/output_inception_4c/output_0_split_3
I0403 14:18:48.136291 13132 net.cpp:141] Setting up inception_4c/output_inception_4c/output_0_split
I0403 14:18:48.136313 13132 net.cpp:148] Top shape: 24 512 14 14 (2408448)
I0403 14:18:48.136328 13132 net.cpp:148] Top shape: 24 512 14 14 (2408448)
I0403 14:18:48.136343 13132 net.cpp:148] Top shape: 24 512 14 14 (2408448)
I0403 14:18:48.136356 13132 net.cpp:148] Top shape: 24 512 14 14 (2408448)
I0403 14:18:48.136368 13132 net.cpp:156] Memory required for data: 1111182624
I0403 14:18:48.136382 13132 layer_factory.hpp:77] Creating layer inception_4d/1x1
I0403 14:18:48.136404 13132 net.cpp:91] Creating Layer inception_4d/1x1
I0403 14:18:48.136420 13132 net.cpp:425] inception_4d/1x1 <- inception_4c/output_inception_4c/output_0_split_0
I0403 14:18:48.136438 13132 net.cpp:399] inception_4d/1x1 -> inception_4d/1x1
I0403 14:18:48.137783 13132 net.cpp:141] Setting up inception_4d/1x1
I0403 14:18:48.137809 13132 net.cpp:148] Top shape: 24 112 14 14 (526848)
I0403 14:18:48.137825 13132 net.cpp:156] Memory required for data: 1113290016
I0403 14:18:48.137841 13132 layer_factory.hpp:77] Creating layer inception_4d/relu_1x1
I0403 14:18:48.137861 13132 net.cpp:91] Creating Layer inception_4d/relu_1x1
I0403 14:18:48.137877 13132 net.cpp:425] inception_4d/relu_1x1 <- inception_4d/1x1
I0403 14:18:48.137893 13132 net.cpp:386] inception_4d/relu_1x1 -> inception_4d/1x1 (in-place)
I0403 14:18:48.138070 13132 net.cpp:141] Setting up inception_4d/relu_1x1
I0403 14:18:48.138097 13132 net.cpp:148] Top shape: 24 112 14 14 (526848)
I0403 14:18:48.138110 13132 net.cpp:156] Memory required for data: 1115397408
I0403 14:18:48.138124 13132 layer_factory.hpp:77] Creating layer inception_4d/3x3_reduce
I0403 14:18:48.138159 13132 net.cpp:91] Creating Layer inception_4d/3x3_reduce
I0403 14:18:48.138176 13132 net.cpp:425] inception_4d/3x3_reduce <- inception_4c/output_inception_4c/output_0_split_1
I0403 14:18:48.138195 13132 net.cpp:399] inception_4d/3x3_reduce -> inception_4d/3x3_reduce
I0403 14:18:48.139653 13132 net.cpp:141] Setting up inception_4d/3x3_reduce
I0403 14:18:48.139679 13132 net.cpp:148] Top shape: 24 144 14 14 (677376)
I0403 14:18:48.139694 13132 net.cpp:156] Memory required for data: 1118106912
I0403 14:18:48.139711 13132 layer_factory.hpp:77] Creating layer inception_4d/relu_3x3_reduce
I0403 14:18:48.139729 13132 net.cpp:91] Creating Layer inception_4d/relu_3x3_reduce
I0403 14:18:48.139744 13132 net.cpp:425] inception_4d/relu_3x3_reduce <- inception_4d/3x3_reduce
I0403 14:18:48.139762 13132 net.cpp:386] inception_4d/relu_3x3_reduce -> inception_4d/3x3_reduce (in-place)
I0403 14:18:48.140041 13132 net.cpp:141] Setting up inception_4d/relu_3x3_reduce
I0403 14:18:48.140066 13132 net.cpp:148] Top shape: 24 144 14 14 (677376)
I0403 14:18:48.140080 13132 net.cpp:156] Memory required for data: 1120816416
I0403 14:18:48.140095 13132 layer_factory.hpp:77] Creating layer inception_4d/3x3
I0403 14:18:48.140116 13132 net.cpp:91] Creating Layer inception_4d/3x3
I0403 14:18:48.140133 13132 net.cpp:425] inception_4d/3x3 <- inception_4d/3x3_reduce
I0403 14:18:48.140153 13132 net.cpp:399] inception_4d/3x3 -> inception_4d/3x3
I0403 14:18:48.144320 13132 net.cpp:141] Setting up inception_4d/3x3
I0403 14:18:48.144348 13132 net.cpp:148] Top shape: 24 288 14 14 (1354752)
I0403 14:18:48.144363 13132 net.cpp:156] Memory required for data: 1126235424
I0403 14:18:48.144382 13132 layer_factory.hpp:77] Creating layer inception_4d/relu_3x3
I0403 14:18:48.144402 13132 net.cpp:91] Creating Layer inception_4d/relu_3x3
I0403 14:18:48.144419 13132 net.cpp:425] inception_4d/relu_3x3 <- inception_4d/3x3
I0403 14:18:48.144435 13132 net.cpp:386] inception_4d/relu_3x3 -> inception_4d/3x3 (in-place)
I0403 14:18:48.144629 13132 net.cpp:141] Setting up inception_4d/relu_3x3
I0403 14:18:48.144656 13132 net.cpp:148] Top shape: 24 288 14 14 (1354752)
I0403 14:18:48.144672 13132 net.cpp:156] Memory required for data: 1131654432
I0403 14:18:48.144686 13132 layer_factory.hpp:77] Creating layer inception_4d/5x5_reduce
I0403 14:18:48.144707 13132 net.cpp:91] Creating Layer inception_4d/5x5_reduce
I0403 14:18:48.144724 13132 net.cpp:425] inception_4d/5x5_reduce <- inception_4c/output_inception_4c/output_0_split_2
I0403 14:18:48.144742 13132 net.cpp:399] inception_4d/5x5_reduce -> inception_4d/5x5_reduce
I0403 14:18:48.145882 13132 net.cpp:141] Setting up inception_4d/5x5_reduce
I0403 14:18:48.145910 13132 net.cpp:148] Top shape: 24 32 14 14 (150528)
I0403 14:18:48.145925 13132 net.cpp:156] Memory required for data: 1132256544
I0403 14:18:48.145942 13132 layer_factory.hpp:77] Creating layer inception_4d/relu_5x5_reduce
I0403 14:18:48.145966 13132 net.cpp:91] Creating Layer inception_4d/relu_5x5_reduce
I0403 14:18:48.145982 13132 net.cpp:425] inception_4d/relu_5x5_reduce <- inception_4d/5x5_reduce
I0403 14:18:48.145999 13132 net.cpp:386] inception_4d/relu_5x5_reduce -> inception_4d/5x5_reduce (in-place)
I0403 14:18:48.146183 13132 net.cpp:141] Setting up inception_4d/relu_5x5_reduce
I0403 14:18:48.146210 13132 net.cpp:148] Top shape: 24 32 14 14 (150528)
I0403 14:18:48.146225 13132 net.cpp:156] Memory required for data: 1132858656
I0403 14:18:48.146239 13132 layer_factory.hpp:77] Creating layer inception_4d/5x5
I0403 14:18:48.146262 13132 net.cpp:91] Creating Layer inception_4d/5x5
I0403 14:18:48.146278 13132 net.cpp:425] inception_4d/5x5 <- inception_4d/5x5_reduce
I0403 14:18:48.146296 13132 net.cpp:399] inception_4d/5x5 -> inception_4d/5x5
I0403 14:18:48.147819 13132 net.cpp:141] Setting up inception_4d/5x5
I0403 14:18:48.147850 13132 net.cpp:148] Top shape: 24 64 14 14 (301056)
I0403 14:18:48.147866 13132 net.cpp:156] Memory required for data: 1134062880
I0403 14:18:48.147886 13132 layer_factory.hpp:77] Creating layer inception_4d/relu_5x5
I0403 14:18:48.147918 13132 net.cpp:91] Creating Layer inception_4d/relu_5x5
I0403 14:18:48.147935 13132 net.cpp:425] inception_4d/relu_5x5 <- inception_4d/5x5
I0403 14:18:48.147955 13132 net.cpp:386] inception_4d/relu_5x5 -> inception_4d/5x5 (in-place)
I0403 14:18:48.148262 13132 net.cpp:141] Setting up inception_4d/relu_5x5
I0403 14:18:48.148290 13132 net.cpp:148] Top shape: 24 64 14 14 (301056)
I0403 14:18:48.148306 13132 net.cpp:156] Memory required for data: 1135267104
I0403 14:18:48.148321 13132 layer_factory.hpp:77] Creating layer inception_4d/pool
I0403 14:18:48.148339 13132 net.cpp:91] Creating Layer inception_4d/pool
I0403 14:18:48.148355 13132 net.cpp:425] inception_4d/pool <- inception_4c/output_inception_4c/output_0_split_3
I0403 14:18:48.148375 13132 net.cpp:399] inception_4d/pool -> inception_4d/pool
I0403 14:18:48.148442 13132 net.cpp:141] Setting up inception_4d/pool
I0403 14:18:48.148468 13132 net.cpp:148] Top shape: 24 512 14 14 (2408448)
I0403 14:18:48.148483 13132 net.cpp:156] Memory required for data: 1144900896
I0403 14:18:48.148499 13132 layer_factory.hpp:77] Creating layer inception_4d/pool_proj
I0403 14:18:48.148519 13132 net.cpp:91] Creating Layer inception_4d/pool_proj
I0403 14:18:48.148535 13132 net.cpp:425] inception_4d/pool_proj <- inception_4d/pool
I0403 14:18:48.148561 13132 net.cpp:399] inception_4d/pool_proj -> inception_4d/pool_proj
I0403 14:18:48.150380 13132 net.cpp:141] Setting up inception_4d/pool_proj
I0403 14:18:48.150410 13132 net.cpp:148] Top shape: 24 64 14 14 (301056)
I0403 14:18:48.150425 13132 net.cpp:156] Memory required for data: 1146105120
I0403 14:18:48.150444 13132 layer_factory.hpp:77] Creating layer inception_4d/relu_pool_proj
I0403 14:18:48.150465 13132 net.cpp:91] Creating Layer inception_4d/relu_pool_proj
I0403 14:18:48.150481 13132 net.cpp:425] inception_4d/relu_pool_proj <- inception_4d/pool_proj
I0403 14:18:48.150498 13132 net.cpp:386] inception_4d/relu_pool_proj -> inception_4d/pool_proj (in-place)
I0403 14:18:48.150693 13132 net.cpp:141] Setting up inception_4d/relu_pool_proj
I0403 14:18:48.150722 13132 net.cpp:148] Top shape: 24 64 14 14 (301056)
I0403 14:18:48.150738 13132 net.cpp:156] Memory required for data: 1147309344
I0403 14:18:48.150751 13132 layer_factory.hpp:77] Creating layer inception_4d/output
I0403 14:18:48.150768 13132 net.cpp:91] Creating Layer inception_4d/output
I0403 14:18:48.150784 13132 net.cpp:425] inception_4d/output <- inception_4d/1x1
I0403 14:18:48.150799 13132 net.cpp:425] inception_4d/output <- inception_4d/3x3
I0403 14:18:48.150815 13132 net.cpp:425] inception_4d/output <- inception_4d/5x5
I0403 14:18:48.150831 13132 net.cpp:425] inception_4d/output <- inception_4d/pool_proj
I0403 14:18:48.150847 13132 net.cpp:399] inception_4d/output -> inception_4d/output
I0403 14:18:48.150897 13132 net.cpp:141] Setting up inception_4d/output
I0403 14:18:48.150919 13132 net.cpp:148] Top shape: 24 528 14 14 (2483712)
I0403 14:18:48.150933 13132 net.cpp:156] Memory required for data: 1157244192
I0403 14:18:48.150949 13132 layer_factory.hpp:77] Creating layer inception_4d/output_inception_4d/output_0_split
I0403 14:18:48.150967 13132 net.cpp:91] Creating Layer inception_4d/output_inception_4d/output_0_split
I0403 14:18:48.150985 13132 net.cpp:425] inception_4d/output_inception_4d/output_0_split <- inception_4d/output
I0403 14:18:48.151001 13132 net.cpp:399] inception_4d/output_inception_4d/output_0_split -> inception_4d/output_inception_4d/output_0_split_0
I0403 14:18:48.151021 13132 net.cpp:399] inception_4d/output_inception_4d/output_0_split -> inception_4d/output_inception_4d/output_0_split_1
I0403 14:18:48.151041 13132 net.cpp:399] inception_4d/output_inception_4d/output_0_split -> inception_4d/output_inception_4d/output_0_split_2
I0403 14:18:48.151064 13132 net.cpp:399] inception_4d/output_inception_4d/output_0_split -> inception_4d/output_inception_4d/output_0_split_3
I0403 14:18:48.151085 13132 net.cpp:399] inception_4d/output_inception_4d/output_0_split -> inception_4d/output_inception_4d/output_0_split_4
I0403 14:18:48.151190 13132 net.cpp:141] Setting up inception_4d/output_inception_4d/output_0_split
I0403 14:18:48.151226 13132 net.cpp:148] Top shape: 24 528 14 14 (2483712)
I0403 14:18:48.151242 13132 net.cpp:148] Top shape: 24 528 14 14 (2483712)
I0403 14:18:48.151258 13132 net.cpp:148] Top shape: 24 528 14 14 (2483712)
I0403 14:18:48.151273 13132 net.cpp:148] Top shape: 24 528 14 14 (2483712)
I0403 14:18:48.151288 13132 net.cpp:148] Top shape: 24 528 14 14 (2483712)
I0403 14:18:48.151301 13132 net.cpp:156] Memory required for data: 1206918432
I0403 14:18:48.151315 13132 layer_factory.hpp:77] Creating layer loss2/ave_pool
I0403 14:18:48.151335 13132 net.cpp:91] Creating Layer loss2/ave_pool
I0403 14:18:48.151352 13132 net.cpp:425] loss2/ave_pool <- inception_4d/output_inception_4d/output_0_split_0
I0403 14:18:48.151371 13132 net.cpp:399] loss2/ave_pool -> loss2/ave_pool
I0403 14:18:48.151697 13132 net.cpp:141] Setting up loss2/ave_pool
I0403 14:18:48.151723 13132 net.cpp:148] Top shape: 24 528 4 4 (202752)
I0403 14:18:48.151739 13132 net.cpp:156] Memory required for data: 1207729440
I0403 14:18:48.151753 13132 layer_factory.hpp:77] Creating layer loss2/conv
I0403 14:18:48.151778 13132 net.cpp:91] Creating Layer loss2/conv
I0403 14:18:48.151798 13132 net.cpp:425] loss2/conv <- loss2/ave_pool
I0403 14:18:48.151818 13132 net.cpp:399] loss2/conv -> loss2/conv
I0403 14:18:48.153760 13132 net.cpp:141] Setting up loss2/conv
I0403 14:18:48.153789 13132 net.cpp:148] Top shape: 24 128 4 4 (49152)
I0403 14:18:48.153805 13132 net.cpp:156] Memory required for data: 1207926048
I0403 14:18:48.153825 13132 layer_factory.hpp:77] Creating layer loss2/relu_conv
I0403 14:18:48.153842 13132 net.cpp:91] Creating Layer loss2/relu_conv
I0403 14:18:48.153858 13132 net.cpp:425] loss2/relu_conv <- loss2/conv
I0403 14:18:48.153879 13132 net.cpp:386] loss2/relu_conv -> loss2/conv (in-place)
I0403 14:18:48.154171 13132 net.cpp:141] Setting up loss2/relu_conv
I0403 14:18:48.154198 13132 net.cpp:148] Top shape: 24 128 4 4 (49152)
I0403 14:18:48.154214 13132 net.cpp:156] Memory required for data: 1208122656
I0403 14:18:48.154228 13132 layer_factory.hpp:77] Creating layer loss2/fc
I0403 14:18:48.154247 13132 net.cpp:91] Creating Layer loss2/fc
I0403 14:18:48.154266 13132 net.cpp:425] loss2/fc <- loss2/conv
I0403 14:18:48.154286 13132 net.cpp:399] loss2/fc -> loss2/fc
I0403 14:18:48.172333 13132 net.cpp:141] Setting up loss2/fc
I0403 14:18:48.172387 13132 net.cpp:148] Top shape: 24 1024 (24576)
I0403 14:18:48.172404 13132 net.cpp:156] Memory required for data: 1208220960
I0403 14:18:48.172422 13132 layer_factory.hpp:77] Creating layer loss2/relu_fc
I0403 14:18:48.172441 13132 net.cpp:91] Creating Layer loss2/relu_fc
I0403 14:18:48.172458 13132 net.cpp:425] loss2/relu_fc <- loss2/fc
I0403 14:18:48.172475 13132 net.cpp:386] loss2/relu_fc -> loss2/fc (in-place)
I0403 14:18:48.172826 13132 net.cpp:141] Setting up loss2/relu_fc
I0403 14:18:48.172853 13132 net.cpp:148] Top shape: 24 1024 (24576)
I0403 14:18:48.172869 13132 net.cpp:156] Memory required for data: 1208319264
I0403 14:18:48.172884 13132 layer_factory.hpp:77] Creating layer loss2/drop_fc
I0403 14:18:48.172901 13132 net.cpp:91] Creating Layer loss2/drop_fc
I0403 14:18:48.172916 13132 net.cpp:425] loss2/drop_fc <- loss2/fc
I0403 14:18:48.172933 13132 net.cpp:386] loss2/drop_fc -> loss2/fc (in-place)
I0403 14:18:48.172984 13132 net.cpp:141] Setting up loss2/drop_fc
I0403 14:18:48.173007 13132 net.cpp:148] Top shape: 24 1024 (24576)
I0403 14:18:48.173022 13132 net.cpp:156] Memory required for data: 1208417568
I0403 14:18:48.173035 13132 layer_factory.hpp:77] Creating layer loss2/classifier_plantvillage
I0403 14:18:48.173056 13132 net.cpp:91] Creating Layer loss2/classifier_plantvillage
I0403 14:18:48.173074 13132 net.cpp:425] loss2/classifier_plantvillage <- loss2/fc
I0403 14:18:48.173090 13132 net.cpp:399] loss2/classifier_plantvillage -> loss2/classifier_plantvillage
I0403 14:18:48.173502 13132 net.cpp:141] Setting up loss2/classifier_plantvillage
I0403 14:18:48.173532 13132 net.cpp:148] Top shape: 24 38 (912)
I0403 14:18:48.173578 13132 net.cpp:156] Memory required for data: 1208421216
I0403 14:18:48.173598 13132 layer_factory.hpp:77] Creating layer loss2/classifier_plantvillage_loss2/classifier_plantvillage_0_split
I0403 14:18:48.173615 13132 net.cpp:91] Creating Layer loss2/classifier_plantvillage_loss2/classifier_plantvillage_0_split
I0403 14:18:48.173631 13132 net.cpp:425] loss2/classifier_plantvillage_loss2/classifier_plantvillage_0_split <- loss2/classifier_plantvillage
I0403 14:18:48.173650 13132 net.cpp:399] loss2/classifier_plantvillage_loss2/classifier_plantvillage_0_split -> loss2/classifier_plantvillage_loss2/classifier_plantvillage_0_split_0
I0403 14:18:48.173671 13132 net.cpp:399] loss2/classifier_plantvillage_loss2/classifier_plantvillage_0_split -> loss2/classifier_plantvillage_loss2/classifier_plantvillage_0_split_1
I0403 14:18:48.173691 13132 net.cpp:399] loss2/classifier_plantvillage_loss2/classifier_plantvillage_0_split -> loss2/classifier_plantvillage_loss2/classifier_plantvillage_0_split_2
I0403 14:18:48.173768 13132 net.cpp:141] Setting up loss2/classifier_plantvillage_loss2/classifier_plantvillage_0_split
I0403 14:18:48.173791 13132 net.cpp:148] Top shape: 24 38 (912)
I0403 14:18:48.173807 13132 net.cpp:148] Top shape: 24 38 (912)
I0403 14:18:48.173822 13132 net.cpp:148] Top shape: 24 38 (912)
I0403 14:18:48.173835 13132 net.cpp:156] Memory required for data: 1208432160
I0403 14:18:48.173851 13132 layer_factory.hpp:77] Creating layer inception_4e/1x1
I0403 14:18:48.173872 13132 net.cpp:91] Creating Layer inception_4e/1x1
I0403 14:18:48.173889 13132 net.cpp:425] inception_4e/1x1 <- inception_4d/output_inception_4d/output_0_split_1
I0403 14:18:48.173908 13132 net.cpp:399] inception_4e/1x1 -> inception_4e/1x1
I0403 14:18:48.175771 13132 net.cpp:141] Setting up inception_4e/1x1
I0403 14:18:48.175799 13132 net.cpp:148] Top shape: 24 256 14 14 (1204224)
I0403 14:18:48.175814 13132 net.cpp:156] Memory required for data: 1213249056
I0403 14:18:48.175832 13132 layer_factory.hpp:77] Creating layer inception_4e/relu_1x1
I0403 14:18:48.175849 13132 net.cpp:91] Creating Layer inception_4e/relu_1x1
I0403 14:18:48.175864 13132 net.cpp:425] inception_4e/relu_1x1 <- inception_4e/1x1
I0403 14:18:48.175884 13132 net.cpp:386] inception_4e/relu_1x1 -> inception_4e/1x1 (in-place)
I0403 14:18:48.176180 13132 net.cpp:141] Setting up inception_4e/relu_1x1
I0403 14:18:48.176206 13132 net.cpp:148] Top shape: 24 256 14 14 (1204224)
I0403 14:18:48.176221 13132 net.cpp:156] Memory required for data: 1218065952
I0403 14:18:48.176236 13132 layer_factory.hpp:77] Creating layer inception_4e/3x3_reduce
I0403 14:18:48.176257 13132 net.cpp:91] Creating Layer inception_4e/3x3_reduce
I0403 14:18:48.176275 13132 net.cpp:425] inception_4e/3x3_reduce <- inception_4d/output_inception_4d/output_0_split_2
I0403 14:18:48.176295 13132 net.cpp:399] inception_4e/3x3_reduce -> inception_4e/3x3_reduce
I0403 14:18:48.178423 13132 net.cpp:141] Setting up inception_4e/3x3_reduce
I0403 14:18:48.178453 13132 net.cpp:148] Top shape: 24 160 14 14 (752640)
I0403 14:18:48.178470 13132 net.cpp:156] Memory required for data: 1221076512
I0403 14:18:48.178488 13132 layer_factory.hpp:77] Creating layer inception_4e/relu_3x3_reduce
I0403 14:18:48.178506 13132 net.cpp:91] Creating Layer inception_4e/relu_3x3_reduce
I0403 14:18:48.178522 13132 net.cpp:425] inception_4e/relu_3x3_reduce <- inception_4e/3x3_reduce
I0403 14:18:48.178544 13132 net.cpp:386] inception_4e/relu_3x3_reduce -> inception_4e/3x3_reduce (in-place)
I0403 14:18:48.178732 13132 net.cpp:141] Setting up inception_4e/relu_3x3_reduce
I0403 14:18:48.178756 13132 net.cpp:148] Top shape: 24 160 14 14 (752640)
I0403 14:18:48.178771 13132 net.cpp:156] Memory required for data: 1224087072
I0403 14:18:48.178786 13132 layer_factory.hpp:77] Creating layer inception_4e/3x3
I0403 14:18:48.178807 13132 net.cpp:91] Creating Layer inception_4e/3x3
I0403 14:18:48.178823 13132 net.cpp:425] inception_4e/3x3 <- inception_4e/3x3_reduce
I0403 14:18:48.178843 13132 net.cpp:399] inception_4e/3x3 -> inception_4e/3x3
I0403 14:18:48.183843 13132 net.cpp:141] Setting up inception_4e/3x3
I0403 14:18:48.183884 13132 net.cpp:148] Top shape: 24 320 14 14 (1505280)
I0403 14:18:48.183900 13132 net.cpp:156] Memory required for data: 1230108192
I0403 14:18:48.183918 13132 layer_factory.hpp:77] Creating layer inception_4e/relu_3x3
I0403 14:18:48.183938 13132 net.cpp:91] Creating Layer inception_4e/relu_3x3
I0403 14:18:48.183955 13132 net.cpp:425] inception_4e/relu_3x3 <- inception_4e/3x3
I0403 14:18:48.183972 13132 net.cpp:386] inception_4e/relu_3x3 -> inception_4e/3x3 (in-place)
I0403 14:18:48.184275 13132 net.cpp:141] Setting up inception_4e/relu_3x3
I0403 14:18:48.184301 13132 net.cpp:148] Top shape: 24 320 14 14 (1505280)
I0403 14:18:48.184316 13132 net.cpp:156] Memory required for data: 1236129312
I0403 14:18:48.184330 13132 layer_factory.hpp:77] Creating layer inception_4e/5x5_reduce
I0403 14:18:48.184353 13132 net.cpp:91] Creating Layer inception_4e/5x5_reduce
I0403 14:18:48.184370 13132 net.cpp:425] inception_4e/5x5_reduce <- inception_4d/output_inception_4d/output_0_split_3
I0403 14:18:48.184391 13132 net.cpp:399] inception_4e/5x5_reduce -> inception_4e/5x5_reduce
I0403 14:18:48.185469 13132 net.cpp:141] Setting up inception_4e/5x5_reduce
I0403 14:18:48.185499 13132 net.cpp:148] Top shape: 24 32 14 14 (150528)
I0403 14:18:48.185515 13132 net.cpp:156] Memory required for data: 1236731424
I0403 14:18:48.185534 13132 layer_factory.hpp:77] Creating layer inception_4e/relu_5x5_reduce
I0403 14:18:48.185556 13132 net.cpp:91] Creating Layer inception_4e/relu_5x5_reduce
I0403 14:18:48.185571 13132 net.cpp:425] inception_4e/relu_5x5_reduce <- inception_4e/5x5_reduce
I0403 14:18:48.185590 13132 net.cpp:386] inception_4e/relu_5x5_reduce -> inception_4e/5x5_reduce (in-place)
I0403 14:18:48.185890 13132 net.cpp:141] Setting up inception_4e/relu_5x5_reduce
I0403 14:18:48.185919 13132 net.cpp:148] Top shape: 24 32 14 14 (150528)
I0403 14:18:48.185935 13132 net.cpp:156] Memory required for data: 1237333536
I0403 14:18:48.185948 13132 layer_factory.hpp:77] Creating layer inception_4e/5x5
I0403 14:18:48.185988 13132 net.cpp:91] Creating Layer inception_4e/5x5
I0403 14:18:48.186007 13132 net.cpp:425] inception_4e/5x5 <- inception_4e/5x5_reduce
I0403 14:18:48.186025 13132 net.cpp:399] inception_4e/5x5 -> inception_4e/5x5
I0403 14:18:48.187845 13132 net.cpp:141] Setting up inception_4e/5x5
I0403 14:18:48.187872 13132 net.cpp:148] Top shape: 24 128 14 14 (602112)
I0403 14:18:48.187887 13132 net.cpp:156] Memory required for data: 1239741984
I0403 14:18:48.187904 13132 layer_factory.hpp:77] Creating layer inception_4e/relu_5x5
I0403 14:18:48.187924 13132 net.cpp:91] Creating Layer inception_4e/relu_5x5
I0403 14:18:48.187940 13132 net.cpp:425] inception_4e/relu_5x5 <- inception_4e/5x5
I0403 14:18:48.187957 13132 net.cpp:386] inception_4e/relu_5x5 -> inception_4e/5x5 (in-place)
I0403 14:18:48.188163 13132 net.cpp:141] Setting up inception_4e/relu_5x5
I0403 14:18:48.188189 13132 net.cpp:148] Top shape: 24 128 14 14 (602112)
I0403 14:18:48.188202 13132 net.cpp:156] Memory required for data: 1242150432
I0403 14:18:48.188216 13132 layer_factory.hpp:77] Creating layer inception_4e/pool
I0403 14:18:48.188235 13132 net.cpp:91] Creating Layer inception_4e/pool
I0403 14:18:48.188251 13132 net.cpp:425] inception_4e/pool <- inception_4d/output_inception_4d/output_0_split_4
I0403 14:18:48.188272 13132 net.cpp:399] inception_4e/pool -> inception_4e/pool
I0403 14:18:48.188341 13132 net.cpp:141] Setting up inception_4e/pool
I0403 14:18:48.188376 13132 net.cpp:148] Top shape: 24 528 14 14 (2483712)
I0403 14:18:48.188390 13132 net.cpp:156] Memory required for data: 1252085280
I0403 14:18:48.188403 13132 layer_factory.hpp:77] Creating layer inception_4e/pool_proj
I0403 14:18:48.188426 13132 net.cpp:91] Creating Layer inception_4e/pool_proj
I0403 14:18:48.188443 13132 net.cpp:425] inception_4e/pool_proj <- inception_4e/pool
I0403 14:18:48.188460 13132 net.cpp:399] inception_4e/pool_proj -> inception_4e/pool_proj
I0403 14:18:48.189919 13132 net.cpp:141] Setting up inception_4e/pool_proj
I0403 14:18:48.189957 13132 net.cpp:148] Top shape: 24 128 14 14 (602112)
I0403 14:18:48.189972 13132 net.cpp:156] Memory required for data: 1254493728
I0403 14:18:48.189990 13132 layer_factory.hpp:77] Creating layer inception_4e/relu_pool_proj
I0403 14:18:48.190008 13132 net.cpp:91] Creating Layer inception_4e/relu_pool_proj
I0403 14:18:48.190024 13132 net.cpp:425] inception_4e/relu_pool_proj <- inception_4e/pool_proj
I0403 14:18:48.190040 13132 net.cpp:386] inception_4e/relu_pool_proj -> inception_4e/pool_proj (in-place)
I0403 14:18:48.190330 13132 net.cpp:141] Setting up inception_4e/relu_pool_proj
I0403 14:18:48.190354 13132 net.cpp:148] Top shape: 24 128 14 14 (602112)
I0403 14:18:48.190368 13132 net.cpp:156] Memory required for data: 1256902176
I0403 14:18:48.190382 13132 layer_factory.hpp:77] Creating layer inception_4e/output
I0403 14:18:48.190400 13132 net.cpp:91] Creating Layer inception_4e/output
I0403 14:18:48.190415 13132 net.cpp:425] inception_4e/output <- inception_4e/1x1
I0403 14:18:48.190430 13132 net.cpp:425] inception_4e/output <- inception_4e/3x3
I0403 14:18:48.190445 13132 net.cpp:425] inception_4e/output <- inception_4e/5x5
I0403 14:18:48.190460 13132 net.cpp:425] inception_4e/output <- inception_4e/pool_proj
I0403 14:18:48.190475 13132 net.cpp:399] inception_4e/output -> inception_4e/output
I0403 14:18:48.190524 13132 net.cpp:141] Setting up inception_4e/output
I0403 14:18:48.190551 13132 net.cpp:148] Top shape: 24 832 14 14 (3913728)
I0403 14:18:48.190565 13132 net.cpp:156] Memory required for data: 1272557088
I0403 14:18:48.190587 13132 layer_factory.hpp:77] Creating layer pool4/3x3_s2
I0403 14:18:48.190603 13132 net.cpp:91] Creating Layer pool4/3x3_s2
I0403 14:18:48.190618 13132 net.cpp:425] pool4/3x3_s2 <- inception_4e/output
I0403 14:18:48.190636 13132 net.cpp:399] pool4/3x3_s2 -> pool4/3x3_s2
I0403 14:18:48.190701 13132 net.cpp:141] Setting up pool4/3x3_s2
I0403 14:18:48.190723 13132 net.cpp:148] Top shape: 24 832 7 7 (978432)
I0403 14:18:48.190737 13132 net.cpp:156] Memory required for data: 1276470816
I0403 14:18:48.190750 13132 layer_factory.hpp:77] Creating layer pool4/3x3_s2_pool4/3x3_s2_0_split
I0403 14:18:48.190768 13132 net.cpp:91] Creating Layer pool4/3x3_s2_pool4/3x3_s2_0_split
I0403 14:18:48.190784 13132 net.cpp:425] pool4/3x3_s2_pool4/3x3_s2_0_split <- pool4/3x3_s2
I0403 14:18:48.190804 13132 net.cpp:399] pool4/3x3_s2_pool4/3x3_s2_0_split -> pool4/3x3_s2_pool4/3x3_s2_0_split_0
I0403 14:18:48.190824 13132 net.cpp:399] pool4/3x3_s2_pool4/3x3_s2_0_split -> pool4/3x3_s2_pool4/3x3_s2_0_split_1
I0403 14:18:48.190842 13132 net.cpp:399] pool4/3x3_s2_pool4/3x3_s2_0_split -> pool4/3x3_s2_pool4/3x3_s2_0_split_2
I0403 14:18:48.190860 13132 net.cpp:399] pool4/3x3_s2_pool4/3x3_s2_0_split -> pool4/3x3_s2_pool4/3x3_s2_0_split_3
I0403 14:18:48.190945 13132 net.cpp:141] Setting up pool4/3x3_s2_pool4/3x3_s2_0_split
I0403 14:18:48.190969 13132 net.cpp:148] Top shape: 24 832 7 7 (978432)
I0403 14:18:48.190985 13132 net.cpp:148] Top shape: 24 832 7 7 (978432)
I0403 14:18:48.190999 13132 net.cpp:148] Top shape: 24 832 7 7 (978432)
I0403 14:18:48.191014 13132 net.cpp:148] Top shape: 24 832 7 7 (978432)
I0403 14:18:48.191026 13132 net.cpp:156] Memory required for data: 1292125728
I0403 14:18:48.191040 13132 layer_factory.hpp:77] Creating layer inception_5a/1x1
I0403 14:18:48.191058 13132 net.cpp:91] Creating Layer inception_5a/1x1
I0403 14:18:48.191073 13132 net.cpp:425] inception_5a/1x1 <- pool4/3x3_s2_pool4/3x3_s2_0_split_0
I0403 14:18:48.191093 13132 net.cpp:399] inception_5a/1x1 -> inception_5a/1x1
I0403 14:18:48.193863 13132 net.cpp:141] Setting up inception_5a/1x1
I0403 14:18:48.193893 13132 net.cpp:148] Top shape: 24 256 7 7 (301056)
I0403 14:18:48.193909 13132 net.cpp:156] Memory required for data: 1293329952
I0403 14:18:48.193927 13132 layer_factory.hpp:77] Creating layer inception_5a/relu_1x1
I0403 14:18:48.193943 13132 net.cpp:91] Creating Layer inception_5a/relu_1x1
I0403 14:18:48.193959 13132 net.cpp:425] inception_5a/relu_1x1 <- inception_5a/1x1
I0403 14:18:48.193975 13132 net.cpp:386] inception_5a/relu_1x1 -> inception_5a/1x1 (in-place)
I0403 14:18:48.194278 13132 net.cpp:141] Setting up inception_5a/relu_1x1
I0403 14:18:48.194306 13132 net.cpp:148] Top shape: 24 256 7 7 (301056)
I0403 14:18:48.194321 13132 net.cpp:156] Memory required for data: 1294534176
I0403 14:18:48.194335 13132 layer_factory.hpp:77] Creating layer inception_5a/3x3_reduce
I0403 14:18:48.194358 13132 net.cpp:91] Creating Layer inception_5a/3x3_reduce
I0403 14:18:48.194375 13132 net.cpp:425] inception_5a/3x3_reduce <- pool4/3x3_s2_pool4/3x3_s2_0_split_1
I0403 14:18:48.194393 13132 net.cpp:399] inception_5a/3x3_reduce -> inception_5a/3x3_reduce
I0403 14:18:48.196846 13132 net.cpp:141] Setting up inception_5a/3x3_reduce
I0403 14:18:48.196874 13132 net.cpp:148] Top shape: 24 160 7 7 (188160)
I0403 14:18:48.196889 13132 net.cpp:156] Memory required for data: 1295286816
I0403 14:18:48.196907 13132 layer_factory.hpp:77] Creating layer inception_5a/relu_3x3_reduce
I0403 14:18:48.196928 13132 net.cpp:91] Creating Layer inception_5a/relu_3x3_reduce
I0403 14:18:48.196943 13132 net.cpp:425] inception_5a/relu_3x3_reduce <- inception_5a/3x3_reduce
I0403 14:18:48.196960 13132 net.cpp:386] inception_5a/relu_3x3_reduce -> inception_5a/3x3_reduce (in-place)
I0403 14:18:48.197147 13132 net.cpp:141] Setting up inception_5a/relu_3x3_reduce
I0403 14:18:48.197173 13132 net.cpp:148] Top shape: 24 160 7 7 (188160)
I0403 14:18:48.197190 13132 net.cpp:156] Memory required for data: 1296039456
I0403 14:18:48.197203 13132 layer_factory.hpp:77] Creating layer inception_5a/3x3
I0403 14:18:48.197227 13132 net.cpp:91] Creating Layer inception_5a/3x3
I0403 14:18:48.197243 13132 net.cpp:425] inception_5a/3x3 <- inception_5a/3x3_reduce
I0403 14:18:48.197260 13132 net.cpp:399] inception_5a/3x3 -> inception_5a/3x3
I0403 14:18:48.202158 13132 net.cpp:141] Setting up inception_5a/3x3
I0403 14:18:48.202188 13132 net.cpp:148] Top shape: 24 320 7 7 (376320)
I0403 14:18:48.202204 13132 net.cpp:156] Memory required for data: 1297544736
I0403 14:18:48.202221 13132 layer_factory.hpp:77] Creating layer inception_5a/relu_3x3
I0403 14:18:48.202239 13132 net.cpp:91] Creating Layer inception_5a/relu_3x3
I0403 14:18:48.202255 13132 net.cpp:425] inception_5a/relu_3x3 <- inception_5a/3x3
I0403 14:18:48.202272 13132 net.cpp:386] inception_5a/relu_3x3 -> inception_5a/3x3 (in-place)
I0403 14:18:48.202564 13132 net.cpp:141] Setting up inception_5a/relu_3x3
I0403 14:18:48.202591 13132 net.cpp:148] Top shape: 24 320 7 7 (376320)
I0403 14:18:48.202606 13132 net.cpp:156] Memory required for data: 1299050016
I0403 14:18:48.202620 13132 layer_factory.hpp:77] Creating layer inception_5a/5x5_reduce
I0403 14:18:48.202642 13132 net.cpp:91] Creating Layer inception_5a/5x5_reduce
I0403 14:18:48.202659 13132 net.cpp:425] inception_5a/5x5_reduce <- pool4/3x3_s2_pool4/3x3_s2_0_split_2
I0403 14:18:48.202677 13132 net.cpp:399] inception_5a/5x5_reduce -> inception_5a/5x5_reduce
I0403 14:18:48.203814 13132 net.cpp:141] Setting up inception_5a/5x5_reduce
I0403 14:18:48.203845 13132 net.cpp:148] Top shape: 24 32 7 7 (37632)
I0403 14:18:48.203860 13132 net.cpp:156] Memory required for data: 1299200544
I0403 14:18:48.203876 13132 layer_factory.hpp:77] Creating layer inception_5a/relu_5x5_reduce
I0403 14:18:48.203893 13132 net.cpp:91] Creating Layer inception_5a/relu_5x5_reduce
I0403 14:18:48.203908 13132 net.cpp:425] inception_5a/relu_5x5_reduce <- inception_5a/5x5_reduce
I0403 14:18:48.203927 13132 net.cpp:386] inception_5a/relu_5x5_reduce -> inception_5a/5x5_reduce (in-place)
I0403 14:18:48.204221 13132 net.cpp:141] Setting up inception_5a/relu_5x5_reduce
I0403 14:18:48.204246 13132 net.cpp:148] Top shape: 24 32 7 7 (37632)
I0403 14:18:48.204262 13132 net.cpp:156] Memory required for data: 1299351072
I0403 14:18:48.204277 13132 layer_factory.hpp:77] Creating layer inception_5a/5x5
I0403 14:18:48.204298 13132 net.cpp:91] Creating Layer inception_5a/5x5
I0403 14:18:48.204315 13132 net.cpp:425] inception_5a/5x5 <- inception_5a/5x5_reduce
I0403 14:18:48.204335 13132 net.cpp:399] inception_5a/5x5 -> inception_5a/5x5
I0403 14:18:48.206037 13132 net.cpp:141] Setting up inception_5a/5x5
I0403 14:18:48.206078 13132 net.cpp:148] Top shape: 24 128 7 7 (150528)
I0403 14:18:48.206094 13132 net.cpp:156] Memory required for data: 1299953184
I0403 14:18:48.206113 13132 layer_factory.hpp:77] Creating layer inception_5a/relu_5x5
I0403 14:18:48.206131 13132 net.cpp:91] Creating Layer inception_5a/relu_5x5
I0403 14:18:48.206147 13132 net.cpp:425] inception_5a/relu_5x5 <- inception_5a/5x5
I0403 14:18:48.206164 13132 net.cpp:386] inception_5a/relu_5x5 -> inception_5a/5x5 (in-place)
I0403 14:18:48.206356 13132 net.cpp:141] Setting up inception_5a/relu_5x5
I0403 14:18:48.206379 13132 net.cpp:148] Top shape: 24 128 7 7 (150528)
I0403 14:18:48.206393 13132 net.cpp:156] Memory required for data: 1300555296
I0403 14:18:48.206408 13132 layer_factory.hpp:77] Creating layer inception_5a/pool
I0403 14:18:48.206424 13132 net.cpp:91] Creating Layer inception_5a/pool
I0403 14:18:48.206440 13132 net.cpp:425] inception_5a/pool <- pool4/3x3_s2_pool4/3x3_s2_0_split_3
I0403 14:18:48.206459 13132 net.cpp:399] inception_5a/pool -> inception_5a/pool
I0403 14:18:48.206528 13132 net.cpp:141] Setting up inception_5a/pool
I0403 14:18:48.206555 13132 net.cpp:148] Top shape: 24 832 7 7 (978432)
I0403 14:18:48.206570 13132 net.cpp:156] Memory required for data: 1304469024
I0403 14:18:48.206584 13132 layer_factory.hpp:77] Creating layer inception_5a/pool_proj
I0403 14:18:48.206607 13132 net.cpp:91] Creating Layer inception_5a/pool_proj
I0403 14:18:48.206624 13132 net.cpp:425] inception_5a/pool_proj <- inception_5a/pool
I0403 14:18:48.206641 13132 net.cpp:399] inception_5a/pool_proj -> inception_5a/pool_proj
I0403 14:18:48.208914 13132 net.cpp:141] Setting up inception_5a/pool_proj
I0403 14:18:48.208941 13132 net.cpp:148] Top shape: 24 128 7 7 (150528)
I0403 14:18:48.208957 13132 net.cpp:156] Memory required for data: 1305071136
I0403 14:18:48.208976 13132 layer_factory.hpp:77] Creating layer inception_5a/relu_pool_proj
I0403 14:18:48.209023 13132 net.cpp:91] Creating Layer inception_5a/relu_pool_proj
I0403 14:18:48.209040 13132 net.cpp:425] inception_5a/relu_pool_proj <- inception_5a/pool_proj
I0403 14:18:48.209058 13132 net.cpp:386] inception_5a/relu_pool_proj -> inception_5a/pool_proj (in-place)
I0403 14:18:48.209369 13132 net.cpp:141] Setting up inception_5a/relu_pool_proj
I0403 14:18:48.209395 13132 net.cpp:148] Top shape: 24 128 7 7 (150528)
I0403 14:18:48.209410 13132 net.cpp:156] Memory required for data: 1305673248
I0403 14:18:48.209424 13132 layer_factory.hpp:77] Creating layer inception_5a/output
I0403 14:18:48.209444 13132 net.cpp:91] Creating Layer inception_5a/output
I0403 14:18:48.209460 13132 net.cpp:425] inception_5a/output <- inception_5a/1x1
I0403 14:18:48.209475 13132 net.cpp:425] inception_5a/output <- inception_5a/3x3
I0403 14:18:48.209491 13132 net.cpp:425] inception_5a/output <- inception_5a/5x5
I0403 14:18:48.209506 13132 net.cpp:425] inception_5a/output <- inception_5a/pool_proj
I0403 14:18:48.209522 13132 net.cpp:399] inception_5a/output -> inception_5a/output
I0403 14:18:48.209576 13132 net.cpp:141] Setting up inception_5a/output
I0403 14:18:48.209599 13132 net.cpp:148] Top shape: 24 832 7 7 (978432)
I0403 14:18:48.209614 13132 net.cpp:156] Memory required for data: 1309586976
I0403 14:18:48.209628 13132 layer_factory.hpp:77] Creating layer inception_5a/output_inception_5a/output_0_split
I0403 14:18:48.209645 13132 net.cpp:91] Creating Layer inception_5a/output_inception_5a/output_0_split
I0403 14:18:48.209659 13132 net.cpp:425] inception_5a/output_inception_5a/output_0_split <- inception_5a/output
I0403 14:18:48.209679 13132 net.cpp:399] inception_5a/output_inception_5a/output_0_split -> inception_5a/output_inception_5a/output_0_split_0
I0403 14:18:48.209698 13132 net.cpp:399] inception_5a/output_inception_5a/output_0_split -> inception_5a/output_inception_5a/output_0_split_1
I0403 14:18:48.209718 13132 net.cpp:399] inception_5a/output_inception_5a/output_0_split -> inception_5a/output_inception_5a/output_0_split_2
I0403 14:18:48.209738 13132 net.cpp:399] inception_5a/output_inception_5a/output_0_split -> inception_5a/output_inception_5a/output_0_split_3
I0403 14:18:48.209849 13132 net.cpp:141] Setting up inception_5a/output_inception_5a/output_0_split
I0403 14:18:48.209872 13132 net.cpp:148] Top shape: 24 832 7 7 (978432)
I0403 14:18:48.209888 13132 net.cpp:148] Top shape: 24 832 7 7 (978432)
I0403 14:18:48.209903 13132 net.cpp:148] Top shape: 24 832 7 7 (978432)
I0403 14:18:48.209918 13132 net.cpp:148] Top shape: 24 832 7 7 (978432)
I0403 14:18:48.209930 13132 net.cpp:156] Memory required for data: 1325241888
I0403 14:18:48.209944 13132 layer_factory.hpp:77] Creating layer inception_5b/1x1
I0403 14:18:48.209965 13132 net.cpp:91] Creating Layer inception_5b/1x1
I0403 14:18:48.209982 13132 net.cpp:425] inception_5b/1x1 <- inception_5a/output_inception_5a/output_0_split_0
I0403 14:18:48.210002 13132 net.cpp:399] inception_5b/1x1 -> inception_5b/1x1
I0403 14:18:48.213783 13132 net.cpp:141] Setting up inception_5b/1x1
I0403 14:18:48.213812 13132 net.cpp:148] Top shape: 24 384 7 7 (451584)
I0403 14:18:48.213827 13132 net.cpp:156] Memory required for data: 1327048224
I0403 14:18:48.213845 13132 layer_factory.hpp:77] Creating layer inception_5b/relu_1x1
I0403 14:18:48.213865 13132 net.cpp:91] Creating Layer inception_5b/relu_1x1
I0403 14:18:48.213882 13132 net.cpp:425] inception_5b/relu_1x1 <- inception_5b/1x1
I0403 14:18:48.213898 13132 net.cpp:386] inception_5b/relu_1x1 -> inception_5b/1x1 (in-place)
I0403 14:18:48.214207 13132 net.cpp:141] Setting up inception_5b/relu_1x1
I0403 14:18:48.214233 13132 net.cpp:148] Top shape: 24 384 7 7 (451584)
I0403 14:18:48.214248 13132 net.cpp:156] Memory required for data: 1328854560
I0403 14:18:48.214265 13132 layer_factory.hpp:77] Creating layer inception_5b/3x3_reduce
I0403 14:18:48.214287 13132 net.cpp:91] Creating Layer inception_5b/3x3_reduce
I0403 14:18:48.214304 13132 net.cpp:425] inception_5b/3x3_reduce <- inception_5a/output_inception_5a/output_0_split_1
I0403 14:18:48.214326 13132 net.cpp:399] inception_5b/3x3_reduce -> inception_5b/3x3_reduce
I0403 14:18:48.217022 13132 net.cpp:141] Setting up inception_5b/3x3_reduce
I0403 14:18:48.217052 13132 net.cpp:148] Top shape: 24 192 7 7 (225792)
I0403 14:18:48.217067 13132 net.cpp:156] Memory required for data: 1329757728
I0403 14:18:48.217085 13132 layer_factory.hpp:77] Creating layer inception_5b/relu_3x3_reduce
I0403 14:18:48.217104 13132 net.cpp:91] Creating Layer inception_5b/relu_3x3_reduce
I0403 14:18:48.217121 13132 net.cpp:425] inception_5b/relu_3x3_reduce <- inception_5b/3x3_reduce
I0403 14:18:48.217138 13132 net.cpp:386] inception_5b/relu_3x3_reduce -> inception_5b/3x3_reduce (in-place)
I0403 14:18:48.217329 13132 net.cpp:141] Setting up inception_5b/relu_3x3_reduce
I0403 14:18:48.217355 13132 net.cpp:148] Top shape: 24 192 7 7 (225792)
I0403 14:18:48.217370 13132 net.cpp:156] Memory required for data: 1330660896
I0403 14:18:48.217386 13132 layer_factory.hpp:77] Creating layer inception_5b/3x3
I0403 14:18:48.217406 13132 net.cpp:91] Creating Layer inception_5b/3x3
I0403 14:18:48.217423 13132 net.cpp:425] inception_5b/3x3 <- inception_5b/3x3_reduce
I0403 14:18:48.217442 13132 net.cpp:399] inception_5b/3x3 -> inception_5b/3x3
I0403 14:18:48.224155 13132 net.cpp:141] Setting up inception_5b/3x3
I0403 14:18:48.224182 13132 net.cpp:148] Top shape: 24 384 7 7 (451584)
I0403 14:18:48.224197 13132 net.cpp:156] Memory required for data: 1332467232
I0403 14:18:48.224215 13132 layer_factory.hpp:77] Creating layer inception_5b/relu_3x3
I0403 14:18:48.224234 13132 net.cpp:91] Creating Layer inception_5b/relu_3x3
I0403 14:18:48.224251 13132 net.cpp:425] inception_5b/relu_3x3 <- inception_5b/3x3
I0403 14:18:48.224268 13132 net.cpp:386] inception_5b/relu_3x3 -> inception_5b/3x3 (in-place)
I0403 14:18:48.224572 13132 net.cpp:141] Setting up inception_5b/relu_3x3
I0403 14:18:48.224597 13132 net.cpp:148] Top shape: 24 384 7 7 (451584)
I0403 14:18:48.224612 13132 net.cpp:156] Memory required for data: 1334273568
I0403 14:18:48.224627 13132 layer_factory.hpp:77] Creating layer inception_5b/5x5_reduce
I0403 14:18:48.224663 13132 net.cpp:91] Creating Layer inception_5b/5x5_reduce
I0403 14:18:48.224681 13132 net.cpp:425] inception_5b/5x5_reduce <- inception_5a/output_inception_5a/output_0_split_2
I0403 14:18:48.224701 13132 net.cpp:399] inception_5b/5x5_reduce -> inception_5b/5x5_reduce
I0403 14:18:48.225947 13132 net.cpp:141] Setting up inception_5b/5x5_reduce
I0403 14:18:48.225975 13132 net.cpp:148] Top shape: 24 48 7 7 (56448)
I0403 14:18:48.225989 13132 net.cpp:156] Memory required for data: 1334499360
I0403 14:18:48.226006 13132 layer_factory.hpp:77] Creating layer inception_5b/relu_5x5_reduce
I0403 14:18:48.226025 13132 net.cpp:91] Creating Layer inception_5b/relu_5x5_reduce
I0403 14:18:48.226042 13132 net.cpp:425] inception_5b/relu_5x5_reduce <- inception_5b/5x5_reduce
I0403 14:18:48.226058 13132 net.cpp:386] inception_5b/relu_5x5_reduce -> inception_5b/5x5_reduce (in-place)
I0403 14:18:48.226424 13132 net.cpp:141] Setting up inception_5b/relu_5x5_reduce
I0403 14:18:48.226450 13132 net.cpp:148] Top shape: 24 48 7 7 (56448)
I0403 14:18:48.226464 13132 net.cpp:156] Memory required for data: 1334725152
I0403 14:18:48.226478 13132 layer_factory.hpp:77] Creating layer inception_5b/5x5
I0403 14:18:48.226497 13132 net.cpp:91] Creating Layer inception_5b/5x5
I0403 14:18:48.226513 13132 net.cpp:425] inception_5b/5x5 <- inception_5b/5x5_reduce
I0403 14:18:48.226531 13132 net.cpp:399] inception_5b/5x5 -> inception_5b/5x5
I0403 14:18:48.228546 13132 net.cpp:141] Setting up inception_5b/5x5
I0403 14:18:48.228575 13132 net.cpp:148] Top shape: 24 128 7 7 (150528)
I0403 14:18:48.228590 13132 net.cpp:156] Memory required for data: 1335327264
I0403 14:18:48.228607 13132 layer_factory.hpp:77] Creating layer inception_5b/relu_5x5
I0403 14:18:48.228624 13132 net.cpp:91] Creating Layer inception_5b/relu_5x5
I0403 14:18:48.228641 13132 net.cpp:425] inception_5b/relu_5x5 <- inception_5b/5x5
I0403 14:18:48.228657 13132 net.cpp:386] inception_5b/relu_5x5 -> inception_5b/5x5 (in-place)
I0403 14:18:48.228847 13132 net.cpp:141] Setting up inception_5b/relu_5x5
I0403 14:18:48.228870 13132 net.cpp:148] Top shape: 24 128 7 7 (150528)
I0403 14:18:48.228884 13132 net.cpp:156] Memory required for data: 1335929376
I0403 14:18:48.228899 13132 layer_factory.hpp:77] Creating layer inception_5b/pool
I0403 14:18:48.228915 13132 net.cpp:91] Creating Layer inception_5b/pool
I0403 14:18:48.228930 13132 net.cpp:425] inception_5b/pool <- inception_5a/output_inception_5a/output_0_split_3
I0403 14:18:48.228950 13132 net.cpp:399] inception_5b/pool -> inception_5b/pool
I0403 14:18:48.229018 13132 net.cpp:141] Setting up inception_5b/pool
I0403 14:18:48.229043 13132 net.cpp:148] Top shape: 24 832 7 7 (978432)
I0403 14:18:48.229058 13132 net.cpp:156] Memory required for data: 1339843104
I0403 14:18:48.229071 13132 layer_factory.hpp:77] Creating layer inception_5b/pool_proj
I0403 14:18:48.229092 13132 net.cpp:91] Creating Layer inception_5b/pool_proj
I0403 14:18:48.229109 13132 net.cpp:425] inception_5b/pool_proj <- inception_5b/pool
I0403 14:18:48.229126 13132 net.cpp:399] inception_5b/pool_proj -> inception_5b/pool_proj
I0403 14:18:48.231374 13132 net.cpp:141] Setting up inception_5b/pool_proj
I0403 14:18:48.231402 13132 net.cpp:148] Top shape: 24 128 7 7 (150528)
I0403 14:18:48.231417 13132 net.cpp:156] Memory required for data: 1340445216
I0403 14:18:48.231436 13132 layer_factory.hpp:77] Creating layer inception_5b/relu_pool_proj
I0403 14:18:48.231454 13132 net.cpp:91] Creating Layer inception_5b/relu_pool_proj
I0403 14:18:48.231472 13132 net.cpp:425] inception_5b/relu_pool_proj <- inception_5b/pool_proj
I0403 14:18:48.231487 13132 net.cpp:386] inception_5b/relu_pool_proj -> inception_5b/pool_proj (in-place)
I0403 14:18:48.231784 13132 net.cpp:141] Setting up inception_5b/relu_pool_proj
I0403 14:18:48.231812 13132 net.cpp:148] Top shape: 24 128 7 7 (150528)
I0403 14:18:48.231827 13132 net.cpp:156] Memory required for data: 1341047328
I0403 14:18:48.231848 13132 layer_factory.hpp:77] Creating layer inception_5b/output
I0403 14:18:48.231866 13132 net.cpp:91] Creating Layer inception_5b/output
I0403 14:18:48.231896 13132 net.cpp:425] inception_5b/output <- inception_5b/1x1
I0403 14:18:48.231914 13132 net.cpp:425] inception_5b/output <- inception_5b/3x3
I0403 14:18:48.231928 13132 net.cpp:425] inception_5b/output <- inception_5b/5x5
I0403 14:18:48.231943 13132 net.cpp:425] inception_5b/output <- inception_5b/pool_proj
I0403 14:18:48.231959 13132 net.cpp:399] inception_5b/output -> inception_5b/output
I0403 14:18:48.232010 13132 net.cpp:141] Setting up inception_5b/output
I0403 14:18:48.232033 13132 net.cpp:148] Top shape: 24 1024 7 7 (1204224)
I0403 14:18:48.232046 13132 net.cpp:156] Memory required for data: 1345864224
I0403 14:18:48.232067 13132 layer_factory.hpp:77] Creating layer pool5/7x7_s1
I0403 14:18:48.232087 13132 net.cpp:91] Creating Layer pool5/7x7_s1
I0403 14:18:48.232110 13132 net.cpp:425] pool5/7x7_s1 <- inception_5b/output
I0403 14:18:48.232136 13132 net.cpp:399] pool5/7x7_s1 -> pool5/7x7_s1
I0403 14:18:48.232350 13132 net.cpp:141] Setting up pool5/7x7_s1
I0403 14:18:48.232378 13132 net.cpp:148] Top shape: 24 1024 1 1 (24576)
I0403 14:18:48.232393 13132 net.cpp:156] Memory required for data: 1345962528
I0403 14:18:48.232406 13132 layer_factory.hpp:77] Creating layer pool5/drop_7x7_s1
I0403 14:18:48.232435 13132 net.cpp:91] Creating Layer pool5/drop_7x7_s1
I0403 14:18:48.232450 13132 net.cpp:425] pool5/drop_7x7_s1 <- pool5/7x7_s1
I0403 14:18:48.232467 13132 net.cpp:386] pool5/drop_7x7_s1 -> pool5/7x7_s1 (in-place)
I0403 14:18:48.232519 13132 net.cpp:141] Setting up pool5/drop_7x7_s1
I0403 14:18:48.232547 13132 net.cpp:148] Top shape: 24 1024 1 1 (24576)
I0403 14:18:48.232561 13132 net.cpp:156] Memory required for data: 1346060832
I0403 14:18:48.232575 13132 layer_factory.hpp:77] Creating layer loss3/classifier_plantvillage
I0403 14:18:48.232596 13132 net.cpp:91] Creating Layer loss3/classifier_plantvillage
I0403 14:18:48.232614 13132 net.cpp:425] loss3/classifier_plantvillage <- pool5/7x7_s1
I0403 14:18:48.232630 13132 net.cpp:399] loss3/classifier_plantvillage -> loss3/classifier_plantvillage
I0403 14:18:48.233062 13132 net.cpp:141] Setting up loss3/classifier_plantvillage
I0403 14:18:48.233086 13132 net.cpp:148] Top shape: 24 38 (912)
I0403 14:18:48.233101 13132 net.cpp:156] Memory required for data: 1346064480
I0403 14:18:48.233119 13132 layer_factory.hpp:77] Creating layer loss3/classifier_plantvillage_loss3/classifier_plantvillage_0_split
I0403 14:18:48.233135 13132 net.cpp:91] Creating Layer loss3/classifier_plantvillage_loss3/classifier_plantvillage_0_split
I0403 14:18:48.233150 13132 net.cpp:425] loss3/classifier_plantvillage_loss3/classifier_plantvillage_0_split <- loss3/classifier_plantvillage
I0403 14:18:48.233173 13132 net.cpp:399] loss3/classifier_plantvillage_loss3/classifier_plantvillage_0_split -> loss3/classifier_plantvillage_loss3/classifier_plantvillage_0_split_0
I0403 14:18:48.233194 13132 net.cpp:399] loss3/classifier_plantvillage_loss3/classifier_plantvillage_0_split -> loss3/classifier_plantvillage_loss3/classifier_plantvillage_0_split_1
I0403 14:18:48.233213 13132 net.cpp:399] loss3/classifier_plantvillage_loss3/classifier_plantvillage_0_split -> loss3/classifier_plantvillage_loss3/classifier_plantvillage_0_split_2
I0403 14:18:48.233232 13132 net.cpp:399] loss3/classifier_plantvillage_loss3/classifier_plantvillage_0_split -> loss3/classifier_plantvillage_loss3/classifier_plantvillage_0_split_3
I0403 14:18:48.233331 13132 net.cpp:141] Setting up loss3/classifier_plantvillage_loss3/classifier_plantvillage_0_split
I0403 14:18:48.233355 13132 net.cpp:148] Top shape: 24 38 (912)
I0403 14:18:48.233369 13132 net.cpp:148] Top shape: 24 38 (912)
I0403 14:18:48.233384 13132 net.cpp:148] Top shape: 24 38 (912)
I0403 14:18:48.233398 13132 net.cpp:148] Top shape: 24 38 (912)
I0403 14:18:48.233412 13132 net.cpp:156] Memory required for data: 1346079072
I0403 14:18:48.233425 13132 layer_factory.hpp:77] Creating layer loss1/loss
I0403 14:18:48.233445 13132 net.cpp:91] Creating Layer loss1/loss
I0403 14:18:48.233463 13132 net.cpp:425] loss1/loss <- loss1/classifier_plantvillage_loss1/classifier_plantvillage_0_split_0
I0403 14:18:48.233492 13132 net.cpp:425] loss1/loss <- label_data_1_split_0
…
