…
I0403 13:31:41.168794 11568 net.cpp:313] The NetState phase (1) differed from the phase (0) specified by a rule in layer data
I0403 13:31:41.169967 11568 net.cpp:49] Initializing net from parameters: 
state {
  phase: TEST
}
layer {
  name: "data"
  type: "Data"
  top: "data"
  top: "label"
  include {
    phase: TEST
  }
  transform_param {
    mirror: false
    crop_size: 224
    mean_file: "/home/mohanty/data/final_dataset/lmdb/segmented-20-80/mean.binaryproto"
  }
  data_param {
    source: "/home/mohanty/data/final_dataset/lmdb/segmented-20-80/test_db"
    batch_size: 24
    backend: LMDB
  }
}
layer {
  name: "conv1/7x7_s2"
  type: "Convolution"
  bottom: "data"
  top: "conv1/7x7_s2"
  param {
    lr_mult: 1
    decay_mult: 1
  }
  param {
    lr_mult: 2
    decay_mult: 0
  }
  convolution_param {
    num_output: 64
    pad: 3
    kernel_size: 7
    stride: 2
    weight_filler {
      type: "xavier"
      std: 0.1
    }
    bias_filler {
      type: "constant"
      value: 0.2
    }
  }
}
layer {
  name: "conv1/relu_7x7"
  type: "ReLU"
  bottom: "conv1/7x7_s2"
  top: "conv1/7x7_s2"
}
layer {
  name: "pool1/3x3_s2"
  type: "Pooling"
  bottom: "conv1/7x7_s2"
  top: "pool1/3x3_s2"
  pooling_param {
    pool: MAX
    kernel_size: 3
    stride: 2
  }
}
layer {
  name: "pool1/norm1"
  type: "LRN"
  bottom: "pool1/3x3_s2"
  top: "pool1/norm1"
  lrn_param {
    local_size: 5
    alpha: 0.0001
    beta: 0.75
  }
}
layer {
  name: "conv2/3x3_reduce"
  type: "Convolution"
  bottom: "pool1/norm1"
  top: "conv2/3x3_reduce"
  param {
    lr_mult: 1
    decay_mult: 1
  }
  param {
    lr_mult: 2
    decay_mult: 0
  }
  convolution_param {
    num_output: 64
    kernel_size: 1
    weight_filler {
      type: "xavier"
      std: 0.1
    }
    bias_filler {
      type: "constant"
      value: 0.2
    }
  }
}
layer {
  name: "conv2/relu_3x3_reduce"
  type: "ReLU"
  bottom: "conv2/3x3_reduce"
  top: "conv2/3x3_reduce"
}
layer {
  name: "conv2/3x3"
  type: "Convolution"
  bottom: "conv2/3x3_reduce"
  top: "conv2/3x3"
  param {
    lr_mult: 1
    decay_mult: 1
  }
  param {
    lr_mult: 2
    decay_mult: 0
  }
  convolution_param {
    num_output: 192
    pad: 1
    kernel_size: 3
    weight_filler {
      type: "xavier"
      std: 0.03
    }
    bias_filler {
      type: "constant"
      value: 0.2
    }
  }
}
layer {
  name: "conv2/relu_3x3"
  type: "ReLU"
  bottom: "conv2/3x3"
  top: "conv2/3x3"
}
layer {
  name: "conv2/norm2"
  type: "LRN"
  bottom: "conv2/3x3"
  top: "conv2/norm2"
  lrn_param {
    local_size: 5
    alpha: 0.0001
    beta: 0.75
  }
}
layer {
  name: "pool2/3x3_s2"
  type: "Pooling"
  bottom: "conv2/norm2"
  top: "pool2/3x3_s2"
  pooling_param {
    pool: MAX
    kernel_size: 3
    stride: 2
  }
}
layer {
  name: "inception_3a/1x1"
  type: "Convolution"
  bottom: "pool2/3x3_s2"
  top: "inception_3a/1x1"
  param {
    lr_mult: 1
    decay_mult: 1
  }
  param {
    lr_mult: 2
    decay_mult: 0
  }
  convolution_param {
    num_output: 64
    kernel_size: 1
    weight_filler {
      type: "xavier"
      std: 0.03
    }
    bias_filler {
      type: "constant"
      value: 0.2
    }
  }
}
layer {
  name: "inception_3a/relu_1x1"
  type: "ReLU"
  bottom: "inception_3a/1x1"
  top: "inception_3a/1x1"
}
layer {
  name: "inception_3a/3x3_reduce"
  type: "Convolution"
  bottom: "pool2/3x3_s2"
  top: "inception_3a/3x3_reduce"
  param {
    lr_mult: 1
    decay_mult: 1
  }
  param {
    lr_mult: 2
    decay_mult: 0
  }
  convolution_param {
    num_output: 96
    kernel_size: 1
    weight_filler {
      type: "xavier"
      std: 0.09
    }
    bias_filler {
      type: "constant"
      value: 0.2
    }
  }
}
layer {
  name: "inception_3a/relu_3x3_reduce"
  type: "ReLU"
  bottom: "inception_3a/3x3_reduce"
  top: "inception_3a/3x3_reduce"
}
layer {
  name: "inception_3a/3x3"
  type: "Convolution"
  bottom: "inception_3a/3x3_reduce"
  top: "inception_3a/3x3"
  param {
    lr_mult: 1
    decay_mult: 1
  }
  param {
    lr_mult: 2
    decay_mult: 0
  }
  convolution_param {
    num_output: 128
    pad: 1
    kernel_size: 3
    weight_filler {
      type: "xavier"
      std: 0.03
    }
    bias_filler {
      type: "constant"
      value: 0.2
    }
  }
}
layer {
  name: "inception_3a/relu_3x3"
  type: "ReLU"
  bottom: "inception_3a/3x3"
  top: "inception_3a/3x3"
}
layer {
  name: "inception_3a/5x5_reduce"
  type: "Convolution"
  bottom: "pool2/3x3_s2"
  top: "inception_3a/5x5_reduce"
  param {
    lr_mult: 1
    decay_mult: 1
  }
  param {
    lr_mult: 2
    decay_mult: 0
  }
  convolution_param {
    num_output: 16
    kernel_size: 1
    weight_filler {
      type: "xavier"
      std: 0.2
    }
    bias_filler {
      type: "constant"
      value: 0.2
    }
  }
}
layer {
  name: "inception_3a/relu_5x5_reduce"
  type: "ReLU"
  bottom: "inception_3a/5x5_reduce"
  top: "inception_3a/5x5_reduce"
}
layer {
  name: "inception_3a/5x5"
  type: "Convolution"
  bottom: "inception_3a/5x5_reduce"
  top: "inception_3a/5x5"
  param {
    lr_mult: 1
    decay_mult: 1
  }
  param {
    lr_mult: 2
    decay_mult: 0
  }
  convolution_param {
    num_output: 32
    pad: 2
    kernel_size: 5
    weight_filler {
      type: "xavier"
      std: 0.03
    }
    bias_filler {
      type: "constant"
      value: 0.2
    }
  }
}
layer {
  name: "inception_3a/relu_5x5"
  type: "ReLU"
  bottom: "inception_3a/5x5"
  top: "inception_3a/5x5"
}
layer {
  name: "inception_3a/pool"
  type: "Pooling"
  bottom: "pool2/3x3_s2"
  top: "inception_3a/pool"
  pooling_param {
    pool: MAX
    kernel_size: 3
    stride: 1
    pad: 1
  }
}
layer {
  name: "inception_3a/pool_proj"
  type: "Convolution"
  bottom: "inception_3a/pool"
  top: "inception_3a/pool_proj"
  param {
    lr_mult: 1
    decay_mult: 1
  }
  param {
    lr_mult: 2
    decay_mult: 0
  }
  convolution_param {
    num_output: 32
    kernel_size: 1
    weight_filler {
      type: "xavier"
      std: 0.1
    }
    bias_filler {
      type: "constant"
      value: 0.2
    }
  }
}
layer {
  name: "inception_3a/relu_pool_proj"
  type: "ReLU"
  bottom: "inception_3a/pool_proj"
  top: "inception_3a/pool_proj"
}
layer {
  name: "inception_3a/output"
  type: "Concat"
  bottom: "inception_3a/1x1"
  bottom: "inception_3a/3x3"
  bottom: "inception_3a/5x5"
  bottom: "inception_3a/pool_proj"
  top: "inception_3a/output"
}
layer {
  name: "inception_3b/1x1"
  type: "Convolution"
  bottom: "inception_3a/output"
  top: "inception_3b/1x1"
  param {
    lr_mult: 1
    decay_mult: 1
  }
  param {
    lr_mult: 2
    decay_mult: 0
  }
  convolution_param {
    num_output: 128
    kernel_size: 1
    weight_filler {
      type: "xavier"
      std: 0.03
    }
    bias_filler {
      type: "constant"
      value: 0.2
    }
  }
}
layer {
  name: "inception_3b/relu_1x1"
  type: "ReLU"
  bottom: "inception_3b/1x1"
  top: "inception_3b/1x1"
}
layer {
  name: "inception_3b/3x3_reduce"
  type: "Convolution"
  bottom: "inception_3a/output"
  top: "inception_3b/3x3_reduce"
  param {
    lr_mult: 1
    decay_mult: 1
  }
  param {
    lr_mult: 2
    decay_mult: 0
  }
  convolution_param {
    num_output: 128
    kernel_size: 1
    weight_filler {
      type: "xavier"
      std: 0.09
    }
    bias_filler {
      type: "constant"
      value: 0.2
    }
  }
}
layer {
  name: "inception_3b/relu_3x3_reduce"
  type: "ReLU"
  bottom: "inception_3b/3x3_reduce"
  top: "inception_3b/3x3_reduce"
}
layer {
  name: "inception_3b/3x3"
  type: "Convolution"
  bottom: "inception_3b/3x3_reduce"
  top: "inception_3b/3x3"
  param {
    lr_mult: 1
    decay_mult: 1
  }
  param {
    lr_mult: 2
    decay_mult: 0
  }
  convolution_param {
    num_output: 192
    pad: 1
    kernel_size: 3
    weight_filler {
      type: "xavier"
      std: 0.03
    }
    bias_filler {
      type: "constant"
      value: 0.2
    }
  }
}
layer {
  name: "inception_3b/relu_3x3"
  type: "ReLU"
  bottom: "inception_3b/3x3"
  top: "inception_3b/3x3"
}
layer {
  name: "inception_3b/5x5_reduce"
  type: "Convolution"
  bottom: "inception_3a/output"
  top: "inception_3b/5x5_reduce"
  param {
    lr_mult: 1
    decay_mult: 1
  }
  param {
    lr_mult: 2
    decay_mult: 0
  }
  convolution_param {
    num_output: 32
    kernel_size: 1
    weight_filler {
      type: "xavier"
      std: 0.2
    }
    bias_filler {
      type: "constant"
      value: 0.2
    }
  }
}
layer {
  name: "inception_3b/relu_5x5_reduce"
  type: "ReLU"
  bottom: "inception_3b/5x5_reduce"
  top: "inception_3b/5x5_reduce"
}
layer {
  name: "inception_3b/5x5"
  type: "Convolution"
  bottom: "inception_3b/5x5_reduce"
  top: "inception_3b/5x5"
  param {
    lr_mult: 1
    decay_mult: 1
  }
  param {
    lr_mult: 2
    decay_mult: 0
  }
  convolution_param {
    num_output: 96
    pad: 2
    kernel_size: 5
    weight_filler {
      type: "xavier"
      std: 0.03
    }
    bias_filler {
      type: "constant"
      value: 0.2
    }
  }
}
layer {
  name: "inception_3b/relu_5x5"
  type: "ReLU"
  bottom: "inception_3b/5x5"
  top: "inception_3b/5x5"
}
layer {
  name: "inception_3b/pool"
  type: "Pooling"
  bottom: "inception_3a/output"
  top: "inception_3b/pool"
  pooling_param {
    pool: MAX
    kernel_size: 3
    stride: 1
    pad: 1
  }
}
layer {
  name: "inception_3b/pool_proj"
  type: "Convolution"
  bottom: "inception_3b/pool"
  top: "inception_3b/pool_proj"
  param {
    lr_mult: 1
    decay_mult: 1
  }
  param {
    lr_mult: 2
    decay_mult: 0
  }
  convolution_param {
    num_output: 64
    kernel_size: 1
    weight_filler {
      type: "xavier"
      std: 0.1
    }
    bias_filler {
      type: "constant"
      value: 0.2
    }
  }
}
layer {
  name: "inception_3b/relu_pool_proj"
  type: "ReLU"
  bottom: "inception_3b/pool_proj"
  top: "inception_3b/pool_proj"
}
layer {
  name: "inception_3b/output"
  type: "Concat"
  bottom: "inception_3b/1x1"
  bottom: "inception_3b/3x3"
  bottom: "inception_3b/5x5"
  bottom: "inception_3b/pool_proj"
  top: "inception_3b/output"
}
layer {
  name: "pool3/3x3_s2"
  type: "Pooling"
  bottom: "inception_3b/output"
  top: "pool3/3x3_s2"
  pooling_param {
    pool: MAX
    kernel_size: 3
    stride: 2
  }
}
layer {
  name: "inception_4a/1x1"
  type: "Convolution"
  bottom: "pool3/3x3_s2"
  top: "inception_4a/1x1"
  param {
    lr_mult: 1
    decay_mult: 1
  }
  param {
    lr_mult: 2
    decay_mult: 0
  }
  convolution_param {
    num_output: 192
    kernel_size: 1
    weight_filler {
      type: "xavier"
      std: 0.03
    }
    bias_filler {
      type: "constant"
      value: 0.2
    }
  }
}
layer {
  name: "inception_4a/relu_1x1"
  type: "ReLU"
  bottom: "inception_4a/1x1"
  top: "inception_4a/1x1"
}
layer {
  name: "inception_4a/3x3_reduce"
  type: "Convolution"
  bottom: "pool3/3x3_s2"
  top: "inception_4a/3x3_reduce"
  param {
    lr_mult: 1
    decay_mult: 1
  }
  param {
    lr_mult: 2
    decay_mult: 0
  }
  convolution_param {
    num_output: 96
    kernel_size: 1
    weight_filler {
      type: "xavier"
      std: 0.09
    }
    bias_filler {
      type: "constant"
      value: 0.2
    }
  }
}
layer {
  name: "inception_4a/relu_3x3_reduce"
  type: "ReLU"
  bottom: "inception_4a/3x3_reduce"
  top: "inception_4a/3x3_reduce"
}
layer {
  name: "inception_4a/3x3"
  type: "Convolution"
  bottom: "inception_4a/3x3_reduce"
  top: "inception_4a/3x3"
  param {
    lr_mult: 1
    decay_mult: 1
  }
  param {
    lr_mult: 2
    decay_mult: 0
  }
  convolution_param {
    num_output: 208
    pad: 1
    kernel_size: 3
    weight_filler {
      type: "xavier"
      std: 0.03
    }
    bias_filler {
      type: "constant"
      value: 0.2
    }
  }
}
layer {
  name: "inception_4a/relu_3x3"
  type: "ReLU"
  bottom: "inception_4a/3x3"
  top: "inception_4a/3x3"
}
layer {
  name: "inception_4a/5x5_reduce"
  type: "Convolution"
  bottom: "pool3/3x3_s2"
  top: "inception_4a/5x5_reduce"
  param {
    lr_mult: 1
    decay_mult: 1
  }
  param {
    lr_mult: 2
    decay_mult: 0
  }
  convolution_param {
    num_output: 16
    kernel_size: 1
    weight_filler {
      type: "xavier"
      std: 0.2
    }
    bias_filler {
      type: "constant"
      value: 0.2
    }
  }
}
layer {
  name: "inception_4a/relu_5x5_reduce"
  type: "ReLU"
  bottom: "inception_4a/5x5_reduce"
  top: "inception_4a/5x5_reduce"
}
layer {
  name: "inception_4a/5x5"
  type: "Convolution"
  bottom: "inception_4a/5x5_reduce"
  top: "inception_4a/5x5"
  param {
    lr_mult: 1
    decay_mult: 1
  }
  param {
    lr_mult: 2
    decay_mult: 0
  }
  convolution_param {
    num_output: 48
    pad: 2
    kernel_size: 5
    weight_filler {
      type: "xavier"
      std: 0.03
    }
    bias_filler {
      type: "constant"
      value: 0.2
    }
  }
}
layer {
  name: "inception_4a/relu_5x5"
  type: "ReLU"
  bottom: "inception_4a/5x5"
  top: "inception_4a/5x5"
}
layer {
  name: "inception_4a/pool"
  type: "Pooling"
  bottom: "pool3/3x3_s2"
  top: "inception_4a/pool"
  pooling_param {
    pool: MAX
    kernel_size: 3
    stride: 1
    pad: 1
  }
}
layer {
  name: "inception_4a/pool_proj"
  type: "Convolution"
  bottom: "inception_4a/pool"
  top: "inception_4a/pool_proj"
  param {
    lr_mult: 1
    decay_mult: 1
  }
  param {
    lr_mult: 2
    decay_mult: 0
  }
  convolution_param {
    num_output: 64
    kernel_size: 1
    weight_filler {
      type: "xavier"
      std: 0.1
    }
    bias_filler {
      type: "constant"
      value: 0.2
    }
  }
}
layer {
  name: "inception_4a/relu_pool_proj"
  type: "ReLU"
  bottom: "inception_4a/pool_proj"
  top: "inception_4a/pool_proj"
}
layer {
  name: "inception_4a/output"
  type: "Concat"
  bottom: "inception_4a/1x1"
  bottom: "inception_4a/3x3"
  bottom: "inception_4a/5x5"
  bottom: "inception_4a/pool_proj"
  top: "inception_4a/output"
}
layer {
  name: "loss1/ave_pool"
  type: "Pooling"
  bottom: "inception_4a/output"
  top: "loss1/ave_pool"
  pooling_param {
    pool: AVE
    kernel_size: 5
    stride: 3
  }
}
layer {
  name: "loss1/conv"
  type: "Convolution"
  bottom: "loss1/ave_pool"
  top: "loss1/conv"
  param {
    lr_mult: 1
    decay_mult: 1
  }
  param {
    lr_mult: 2
    decay_mult: 0
  }
  convolution_param {
    num_output: 128
    kernel_size: 1
    weight_filler {
      type: "xavier"
      std: 0.08
    }
    bias_filler {
      type: "constant"
      value: 0.2
    }
  }
}
layer {
  name: "loss1/relu_conv"
  type: "ReLU"
  bottom: "loss1/conv"
  top: "loss1/conv"
}
layer {
  name: "loss1/fc"
  type: "InnerProduct"
  bottom: "loss1/conv"
  top: "loss1/fc"
  param {
    lr_mult: 1
    decay_mult: 1
  }
  param {
    lr_mult: 2
    decay_mult: 0
  }
  inner_product_param {
    num_output: 1024
    weight_filler {
      type: "xavier"
      std: 0.02
    }
    bias_filler {
      type: "constant"
      value: 0.2
    }
  }
}
layer {
  name: "loss1/relu_fc"
  type: "ReLU"
  bottom: "loss1/fc"
  top: "loss1/fc"
}
layer {
  name: "loss1/drop_fc"
  type: "Dropout"
  bottom: "loss1/fc"
  top: "loss1/fc"
  dropout_param {
    dropout_ratio: 0.7
  }
}
layer {
  name: "loss1/classifier_plantvillage"
  type: "InnerProduct"
  bottom: "loss1/fc"
  top: "loss1/classifier_plantvillage"
  param {
    lr_mult: 1
    decay_mult: 1
  }
  param {
    lr_mult: 2
    decay_mult: 0
  }
  inner_product_param {
    num_output: 38
    weight_filler {
      type: "xavier"
      std: 0.0009765625
    }
    bias_filler {
      type: "constant"
      value: 0
    }
  }
}
layer {
  name: "inception_4b/1x1"
  type: "Convolution"
  bottom: "inception_4a/output"
  top: "inception_4b/1x1"
  param {
    lr_mult: 1
    decay_mult: 1
  }
  param {
    lr_mult: 2
    decay_mult: 0
  }
  convolution_param {
    num_output: 160
    kernel_size: 1
    weight_filler {
      type: "xavier"
      std: 0.03
    }
    bias_filler {
      type: "constant"
      value: 0.2
    }
  }
}
layer {
  name: "inception_4b/relu_1x1"
  type: "ReLU"
  bottom: "inception_4b/1x1"
  top: "inception_4b/1x1"
}
layer {
  name: "inception_4b/3x3_reduce"
  type: "Convolution"
  bottom: "inception_4a/output"
  top: "inception_4b/3x3_reduce"
  param {
    lr_mult: 1
    decay_mult: 1
  }
  param {
    lr_mult: 2
    decay_mult: 0
  }
  convolution_param {
    num_output: 112
    kernel_size: 1
    weight_filler {
      type: "xavier"
      std: 0.09
    }
    bias_filler {
      type: "constant"
      value: 0.2
    }
  }
}
layer {
  name: "inception_4b/relu_3x3_reduce"
  type: "ReLU"
  bottom: "inception_4b/3x3_reduce"
  top: "inception_4b/3x3_reduce"
}
layer {
  name: "inception_4b/3x3"
  type: "Convolution"
  bottom: "inception_4b/3x3_reduce"
  top: "inception_4b/3x3"
  param {
    lr_mult: 1
    decay_mult: 1
  }
  param {
    lr_mult: 2
    decay_mult: 0
  }
  convolution_param {
    num_output: 224
    pad: 1
    kernel_size: 3
    weight_filler {
      type: "xavier"
      std: 0.03
    }
    bias_filler {
      type: "constant"
      value: 0.2
    }
  }
}
layer {
  name: "inception_4b/relu_3x3"
  type: "ReLU"
  bottom: "inception_4b/3x3"
  top: "inception_4b/3x3"
}
layer {
  name: "inception_4b/5x5_reduce"
  type: "Convolution"
  bottom: "inception_4a/output"
  top: "inception_4b/5x5_reduce"
  param {
    lr_mult: 1
    decay_mult: 1
  }
  param {
    lr_mult: 2
    decay_mult: 0
  }
  convolution_param {
    num_output: 24
    kernel_size: 1
    weight_filler {
      type: "xavier"
      std: 0.2
    }
    bias_filler {
      type: "constant"
      value: 0.2
    }
  }
}
layer {
  name: "inception_4b/relu_5x5_reduce"
  type: "ReLU"
  bottom: "inception_4b/5x5_reduce"
  top: "inception_4b/5x5_reduce"
}
layer {
  name: "inception_4b/5x5"
  type: "Convolution"
  bottom: "inception_4b/5x5_reduce"
  top: "inception_4b/5x5"
  param {
    lr_mult: 1
    decay_mult: 1
  }
  param {
    lr_mult: 2
    decay_mult: 0
  }
  convolution_param {
    num_output: 64
    pad: 2
    kernel_size: 5
    weight_filler {
      type: "xavier"
      std: 0.03
    }
    bias_filler {
      type: "constant"
      value: 0.2
    }
  }
}
layer {
  name: "inception_4b/relu_5x5"
  type: "ReLU"
  bottom: "inception_4b/5x5"
  top: "inception_4b/5x5"
}
layer {
  name: "inception_4b/pool"
  type: "Pooling"
  bottom: "inception_4a/output"
  top: "inception_4b/pool"
  pooling_param {
    pool: MAX
    kernel_size: 3
    stride: 1
    pad: 1
  }
}
layer {
  name: "inception_4b/pool_proj"
  type: "Convolution"
  bottom: "inception_4b/pool"
  top: "inception_4b/pool_proj"
  param {
    lr_mult: 1
    decay_mult: 1
  }
  param {
    lr_mult: 2
    decay_mult: 0
  }
  convolution_param {
    num_output: 64
    kernel_size: 1
    weight_filler {
      type: "xavier"
      std: 0.1
    }
    bias_filler {
      type: "constant"
      value: 0.2
    }
  }
}
layer {
  name: "inception_4b/relu_pool_proj"
  type: "ReLU"
  bottom: "inception_4b/pool_proj"
  top: "inception_4b/pool_proj"
}
layer {
  name: "inception_4b/output"
  type: "Concat"
  bottom: "inception_4b/1x1"
  bottom: "inception_4b/3x3"
  bottom: "inception_4b/5x5"
  bottom: "inception_4b/pool_proj"
  top: "inception_4b/output"
}
layer {
  name: "inception_4c/1x1"
  type: "Convolution"
  bottom: "inception_4b/output"
  top: "inception_4c/1x1"
  param {
    lr_mult: 1
    decay_mult: 1
  }
  param {
    lr_mult: 2
    decay_mult: 0
  }
  convolution_param {
    num_output: 128
    kernel_size: 1
    weight_filler {
      type: "xavier"
      std: 0.03
    }
    bias_filler {
      type: "constant"
      value: 0.2
    }
  }
}
layer {
  name: "inception_4c/relu_1x1"
  type: "ReLU"
  bottom: "inception_4c/1x1"
  top: "inception_4c/1x1"
}
layer {
  name: "inception_4c/3x3_reduce"
  type: "Convolution"
  bottom: "inception_4b/output"
  top: "inception_4c/3x3_reduce"
  param {
    lr_mult: 1
    decay_mult: 1
  }
  param {
    lr_mult: 2
    decay_mult: 0
  }
  convolution_param {
    num_output: 128
    kernel_size: 1
    weight_filler {
      type: "xavier"
      std: 0.09
    }
    bias_filler {
      type: "constant"
      value: 0.2
    }
  }
}
layer {
  name: "inception_4c/relu_3x3_reduce"
  type: "ReLU"
  bottom: "inception_4c/3x3_reduce"
  top: "inception_4c/3x3_reduce"
}
layer {
  name: "inception_4c/3x3"
  type: "Convolution"
  bottom: "inception_4c/3x3_reduce"
  top: "inception_4c/3x3"
  param {
    lr_mult: 1
    decay_mult: 1
  }
  param {
    lr_mult: 2
    decay_mult: 0
  }
  convolution_param {
    num_output: 256
    pad: 1
    kernel_size: 3
    weight_filler {
      type: "xavier"
      std: 0.03
    }
    bias_filler {
      type: "constant"
      value: 0.2
    }
  }
}
layer {
  name: "inception_4c/relu_3x3"
  type: "ReLU"
  bottom: "inception_4c/3x3"
  top: "inception_4c/3x3"
}
layer {
  name: "inception_4c/5x5_reduce"
  type: "Convolution"
  bottom: "inception_4b/output"
  top: "inception_4c/5x5_reduce"
  param {
    lr_mult: 1
    decay_mult: 1
  }
  param {
    lr_mult: 2
    decay_mult: 0
  }
  convolution_param {
    num_output: 24
    kernel_size: 1
    weight_filler {
      type: "xavier"
      std: 0.2
    }
    bias_filler {
      type: "constant"
      value: 0.2
    }
  }
}
layer {
  name: "inception_4c/relu_5x5_reduce"
  type: "ReLU"
  bottom: "inception_4c/5x5_reduce"
  top: "inception_4c/5x5_reduce"
}
layer {
  name: "inception_4c/5x5"
  type: "Convolution"
  bottom: "inception_4c/5x5_reduce"
  top: "inception_4c/5x5"
  param {
    lr_mult: 1
    decay_mult: 1
  }
  param {
    lr_mult: 2
    decay_mult: 0
  }
  convolution_param {
    num_output: 64
    pad: 2
    kernel_size: 5
    weight_filler {
      type: "xavier"
      std: 0.03
    }
    bias_filler {
      type: "constant"
      value: 0.2
    }
  }
}
layer {
  name: "inception_4c/relu_5x5"
  type: "ReLU"
  bottom: "inception_4c/5x5"
  top: "inception_4c/5x5"
}
layer {
  name: "inception_4c/pool"
  type: "Pooling"
  bottom: "inception_4b/output"
  top: "inception_4c/pool"
  pooling_param {
    pool: MAX
    kernel_size: 3
    stride: 1
    pad: 1
  }
}
layer {
  name: "inception_4c/pool_proj"
  type: "Convolution"
  bottom: "inception_4c/pool"
  top: "inception_4c/pool_proj"
  param {
    lr_mult: 1
    decay_mult: 1
  }
  param {
    lr_mult: 2
    decay_mult: 0
  }
  convolution_param {
    num_output: 64
    kernel_size: 1
    weight_filler {
      type: "xavier"
      std: 0.1
    }
    bias_filler {
      type: "constant"
      value: 0.2
    }
  }
}
layer {
  name: "inception_4c/relu_pool_proj"
  type: "ReLU"
  bottom: "inception_4c/pool_proj"
  top: "inception_4c/pool_proj"
}
layer {
  name: "inception_4c/output"
  type: "Concat"
  bottom: "inception_4c/1x1"
  bottom: "inception_4c/3x3"
  bottom: "inception_4c/5x5"
  bottom: "inception_4c/pool_proj"
  top: "inception_4c/output"
}
layer {
  name: "inception_4d/1x1"
  type: "Convolution"
  bottom: "inception_4c/output"
  top: "inception_4d/1x1"
  param {
    lr_mult: 1
    decay_mult: 1
  }
  param {
    lr_mult: 2
    decay_mult: 0
  }
  convolution_param {
    num_output: 112
    kernel_size: 1
    weight_filler {
      type: "xavier"
      std: 0.03
    }
    bias_filler {
      type: "constant"
      value: 0.2
    }
  }
}
layer {
  name: "inception_4d/relu_1x1"
  type: "ReLU"
  bottom: "inception_4d/1x1"
  top: "inception_4d/1x1"
}
layer {
  name: "inception_4d/3x3_reduce"
  type: "Convolution"
  bottom: "inception_4c/output"
  top: "inception_4d/3x3_reduce"
  param {
    lr_mult: 1
    decay_mult: 1
  }
  param {
    lr_mult: 2
    decay_mult: 0
  }
  convolution_param {
    num_output: 144
    kernel_size: 1
    weight_filler {
      type: "xavier"
      std: 0.09
    }
    bias_filler {
      type: "constant"
      value: 0.2
    }
  }
}
layer {
  name: "inception_4d/relu_3x3_reduce"
  type: "ReLU"
  bottom: "inception_4d/3x3_reduce"
  top: "inception_4d/3x3_reduce"
}
layer {
  name: "inception_4d/3x3"
  type: "Convolution"
  bottom: "inception_4d/3x3_reduce"
  top: "inception_4d/3x3"
  param {
    lr_mult: 1
    decay_mult: 1
  }
  param {
    lr_mult: 2
    decay_mult: 0
  }
  convolution_param {
    num_output: 288
    pad: 1
    kernel_size: 3
    weight_filler {
      type: "xavier"
      std: 0.03
    }
    bias_filler {
      type: "constant"
      value: 0.2
    }
  }
}
layer {
  name: "inception_4d/relu_3x3"
  type: "ReLU"
  bottom: "inception_4d/3x3"
  top: "inception_4d/3x3"
}
layer {
  name: "inception_4d/5x5_reduce"
  type: "Convolution"
  bottom: "inception_4c/output"
  top: "inception_4d/5x5_reduce"
  param {
    lr_mult: 1
    decay_mult: 1
  }
  param {
    lr_mult: 2
    decay_mult: 0
  }
  convolution_param {
    num_output: 32
    kernel_size: 1
    weight_filler {
      type: "xavier"
      std: 0.2
    }
    bias_filler {
      type: "constant"
      value: 0.2
    }
  }
}
layer {
  name: "inception_4d/relu_5x5_reduce"
  type: "ReLU"
  bottom: "inception_4d/5x5_reduce"
  top: "inception_4d/5x5_reduce"
}
layer {
  name: "inception_4d/5x5"
  type: "Convolution"
  bottom: "inception_4d/5x5_reduce"
  top: "inception_4d/5x5"
  param {
    lr_mult: 1
    decay_mult: 1
  }
  param {
    lr_mult: 2
    decay_mult: 0
  }
  convolution_param {
    num_output: 64
    pad: 2
    kernel_size: 5
    weight_filler {
      type: "xavier"
      std: 0.03
    }
    bias_filler {
      type: "constant"
      value: 0.2
    }
  }
}
layer {
  name: "inception_4d/relu_5x5"
  type: "ReLU"
  bottom: "inception_4d/5x5"
  top: "inception_4d/5x5"
}
layer {
  name: "inception_4d/pool"
  type: "Pooling"
  bottom: "inception_4c/output"
  top: "inception_4d/pool"
  pooling_param {
    pool: MAX
    kernel_size: 3
    stride: 1
    pad: 1
  }
}
layer {
  name: "inception_4d/pool_proj"
  type: "Convolution"
  bottom: "inception_4d/pool"
  top: "inception_4d/pool_proj"
  param {
    lr_mult: 1
    decay_mult: 1
  }
  param {
    lr_mult: 2
    decay_mult: 0
  }
  convolution_param {
    num_output: 64
    kernel_size: 1
    weight_filler {
      type: "xavier"
      std: 0.1
    }
    bias_filler {
      type: "constant"
      value: 0.2
    }
  }
}
layer {
  name: "inception_4d/relu_pool_proj"
  type: "ReLU"
  bottom: "inception_4d/pool_proj"
  top: "inception_4d/pool_proj"
}
layer {
  name: "inception_4d/output"
  type: "Concat"
  bottom: "inception_4d/1x1"
  bottom: "inception_4d/3x3"
  bottom: "inception_4d/5x5"
  bottom: "inception_4d/pool_proj"
  top: "inception_4d/output"
}
layer {
  name: "loss2/ave_pool"
  type: "Pooling"
  bottom: "inception_4d/output"
  top: "loss2/ave_pool"
  pooling_param {
    pool: AVE
    kernel_size: 5
    stride: 3
  }
}
layer {
  name: "loss2/conv"
  type: "Convolution"
  bottom: "loss2/ave_pool"
  top: "loss2/conv"
  param {
    lr_mult: 1
    decay_mult: 1
  }
  param {
    lr_mult: 2
    decay_mult: 0
  }
  convolution_param {
    num_output: 128
    kernel_size: 1
    weight_filler {
      type: "xavier"
      std: 0.08
    }
    bias_filler {
      type: "constant"
      value: 0.2
    }
  }
}
layer {
  name: "loss2/relu_conv"
  type: "ReLU"
  bottom: "loss2/conv"
  top: "loss2/conv"
}
layer {
  name: "loss2/fc"
  type: "InnerProduct"
  bottom: "loss2/conv"
  top: "loss2/fc"
  param {
    lr_mult: 1
    decay_mult: 1
  }
  param {
    lr_mult: 2
    decay_mult: 0
  }
  inner_product_param {
    num_output: 1024
    weight_filler {
      type: "xavier"
      std: 0.02
    }
    bias_filler {
      type: "constant"
      value: 0.2
    }
  }
}
layer {
  name: "loss2/relu_fc"
  type: "ReLU"
  bottom: "loss2/fc"
  top: "loss2/fc"
}
layer {
  name: "loss2/drop_fc"
  type: "Dropout"
  bottom: "loss2/fc"
  top: "loss2/fc"
  dropout_param {
    dropout_ratio: 0.7
  }
}
layer {
  name: "loss2/classifier_plantvillage"
  type: "InnerProduct"
  bottom: "loss2/fc"
  top: "loss2/classifier_plantvillage"
  param {
    lr_mult: 1
    decay_mult: 1
  }
  param {
    lr_mult: 2
    decay_mult: 0
  }
  inner_product_param {
    num_output: 38
    weight_filler {
      type: "xavier"
      std: 0.0009765625
    }
    bias_filler {
      type: "constant"
      value: 0
    }
  }
}
layer {
  name: "inception_4e/1x1"
  type: "Convolution"
  bottom: "inception_4d/output"
  top: "inception_4e/1x1"
  param {
    lr_mult: 1
    decay_mult: 1
  }
  param {
    lr_mult: 2
    decay_mult: 0
  }
  convolution_param {
    num_output: 256
    kernel_size: 1
    weight_filler {
      type: "xavier"
      std: 0.03
    }
    bias_filler {
      type: "constant"
      value: 0.2
    }
  }
}
layer {
  name: "inception_4e/relu_1x1"
  type: "ReLU"
  bottom: "inception_4e/1x1"
  top: "inception_4e/1x1"
}
layer {
  name: "inception_4e/3x3_reduce"
  type: "Convolution"
  bottom: "inception_4d/output"
  top: "inception_4e/3x3_reduce"
  param {
    lr_mult: 1
    decay_mult: 1
  }
  param {
    lr_mult: 2
    decay_mult: 0
  }
  convolution_param {
    num_output: 160
    kernel_size: 1
    weight_filler {
      type: "xavier"
      std: 0.09
    }
    bias_filler {
      type: "constant"
      value: 0.2
    }
  }
}
layer {
  name: "inception_4e/relu_3x3_reduce"
  type: "ReLU"
  bottom: "inception_4e/3x3_reduce"
  top: "inception_4e/3x3_reduce"
}
layer {
  name: "inception_4e/3x3"
  type: "Convolution"
  bottom: "inception_4e/3x3_reduce"
  top: "inception_4e/3x3"
  param {
    lr_mult: 1
    decay_mult: 1
  }
  param {
    lr_mult: 2
    decay_mult: 0
  }
  convolution_param {
    num_output: 320
    pad: 1
    kernel_size: 3
    weight_filler {
      type: "xavier"
      std: 0.03
    }
    bias_filler {
      type: "constant"
      value: 0.2
    }
  }
}
layer {
  name: "inception_4e/relu_3x3"
  type: "ReLU"
  bottom: "inception_4e/3x3"
  top: "inception_4e/3x3"
}
layer {
  name: "inception_4e/5x5_reduce"
  type: "Convolution"
  bottom: "inception_4d/output"
  top: "inception_4e/5x5_reduce"
  param {
    lr_mult: 1
    decay_mult: 1
  }
  param {
    lr_mult: 2
    decay_mult: 0
  }
  convolution_param {
    num_output: 32
    kernel_size: 1
    weight_filler {
      type: "xavier"
      std: 0.2
    }
    bias_filler {
      type: "constant"
      value: 0.2
    }
  }
}
layer {
  name: "inception_4e/relu_5x5_reduce"
  type: "ReLU"
  bottom: "inception_4e/5x5_reduce"
  top: "inception_4e/5x5_reduce"
}
layer {
  name: "inception_4e/5x5"
  type: "Convolution"
  bottom: "inception_4e/5x5_reduce"
  top: "inception_4e/
I0403 13:31:41.171211 11568 layer_factory.hpp:77] Creating layer data
I0403 13:31:41.171828 11568 net.cpp:91] Creating Layer data
I0403 13:31:41.171857 11568 net.cpp:399] data -> data
I0403 13:31:41.171907 11568 net.cpp:399] data -> label
I0403 13:31:41.171947 11568 data_transformer.cpp:25] Loading mean file from: /home/mohanty/data/final_dataset/lmdb/segmented-20-80/mean.binaryproto
I0403 13:31:41.190793 11573 db_lmdb.cpp:38] Opened lmdb /home/mohanty/data/final_dataset/lmdb/segmented-20-80/test_db
I0403 13:31:41.193670 11568 data_layer.cpp:41] output data size: 24,3,224,224
I0403 13:31:41.220999 11568 net.cpp:141] Setting up data
I0403 13:31:41.221089 11568 net.cpp:148] Top shape: 24 3 224 224 (3612672)
I0403 13:31:41.221113 11568 net.cpp:148] Top shape: 24 (24)
I0403 13:31:41.221129 11568 net.cpp:156] Memory required for data: 14450784
I0403 13:31:41.221159 11568 layer_factory.hpp:77] Creating layer label_data_1_split
I0403 13:31:41.221187 11568 net.cpp:91] Creating Layer label_data_1_split
I0403 13:31:41.221205 11568 net.cpp:425] label_data_1_split <- label
I0403 13:31:41.221238 11568 net.cpp:399] label_data_1_split -> label_data_1_split_0
I0403 13:31:41.221267 11568 net.cpp:399] label_data_1_split -> label_data_1_split_1
I0403 13:31:41.221289 11568 net.cpp:399] label_data_1_split -> label_data_1_split_2
I0403 13:31:41.221312 11568 net.cpp:399] label_data_1_split -> label_data_1_split_3
I0403 13:31:41.221333 11568 net.cpp:399] label_data_1_split -> label_data_1_split_4
I0403 13:31:41.221352 11568 net.cpp:399] label_data_1_split -> label_data_1_split_5
I0403 13:31:41.221374 11568 net.cpp:399] label_data_1_split -> label_data_1_split_6
I0403 13:31:41.221395 11568 net.cpp:399] label_data_1_split -> label_data_1_split_7
I0403 13:31:41.221413 11568 net.cpp:399] label_data_1_split -> label_data_1_split_8
I0403 13:31:41.221434 11568 net.cpp:399] label_data_1_split -> label_data_1_split_9
I0403 13:31:41.221562 11568 net.cpp:141] Setting up label_data_1_split
I0403 13:31:41.221587 11568 net.cpp:148] Top shape: 24 (24)
I0403 13:31:41.221604 11568 net.cpp:148] Top shape: 24 (24)
I0403 13:31:41.221621 11568 net.cpp:148] Top shape: 24 (24)
I0403 13:31:41.221637 11568 net.cpp:148] Top shape: 24 (24)
I0403 13:31:41.221653 11568 net.cpp:148] Top shape: 24 (24)
I0403 13:31:41.221668 11568 net.cpp:148] Top shape: 24 (24)
I0403 13:31:41.221684 11568 net.cpp:148] Top shape: 24 (24)
I0403 13:31:41.221700 11568 net.cpp:148] Top shape: 24 (24)
I0403 13:31:41.221716 11568 net.cpp:148] Top shape: 24 (24)
I0403 13:31:41.221732 11568 net.cpp:148] Top shape: 24 (24)
I0403 13:31:41.221782 11568 net.cpp:156] Memory required for data: 14451744
I0403 13:31:41.221799 11568 layer_factory.hpp:77] Creating layer conv1/7x7_s2
I0403 13:31:41.221832 11568 net.cpp:91] Creating Layer conv1/7x7_s2
I0403 13:31:41.221851 11568 net.cpp:425] conv1/7x7_s2 <- data
I0403 13:31:41.221871 11568 net.cpp:399] conv1/7x7_s2 -> conv1/7x7_s2
I0403 13:31:41.374598 11568 net.cpp:141] Setting up conv1/7x7_s2
I0403 13:31:41.374663 11568 net.cpp:148] Top shape: 24 64 112 112 (19267584)
I0403 13:31:41.374681 11568 net.cpp:156] Memory required for data: 91522080
I0403 13:31:41.374713 11568 layer_factory.hpp:77] Creating layer conv1/relu_7x7
I0403 13:31:41.374742 11568 net.cpp:91] Creating Layer conv1/relu_7x7
I0403 13:31:41.374761 11568 net.cpp:425] conv1/relu_7x7 <- conv1/7x7_s2
I0403 13:31:41.374783 11568 net.cpp:386] conv1/relu_7x7 -> conv1/7x7_s2 (in-place)
I0403 13:31:41.375069 11568 net.cpp:141] Setting up conv1/relu_7x7
I0403 13:31:41.375108 11568 net.cpp:148] Top shape: 24 64 112 112 (19267584)
I0403 13:31:41.375124 11568 net.cpp:156] Memory required for data: 168592416
I0403 13:31:41.375140 11568 layer_factory.hpp:77] Creating layer pool1/3x3_s2
I0403 13:31:41.375164 11568 net.cpp:91] Creating Layer pool1/3x3_s2
I0403 13:31:41.375181 11568 net.cpp:425] pool1/3x3_s2 <- conv1/7x7_s2
I0403 13:31:41.375200 11568 net.cpp:399] pool1/3x3_s2 -> pool1/3x3_s2
I0403 13:31:41.375273 11568 net.cpp:141] Setting up pool1/3x3_s2
I0403 13:31:41.375299 11568 net.cpp:148] Top shape: 24 64 56 56 (4816896)
I0403 13:31:41.375314 11568 net.cpp:156] Memory required for data: 187860000
I0403 13:31:41.375329 11568 layer_factory.hpp:77] Creating layer pool1/norm1
I0403 13:31:41.375352 11568 net.cpp:91] Creating Layer pool1/norm1
I0403 13:31:41.375370 11568 net.cpp:425] pool1/norm1 <- pool1/3x3_s2
I0403 13:31:41.375386 11568 net.cpp:399] pool1/norm1 -> pool1/norm1
I0403 13:31:41.375685 11568 net.cpp:141] Setting up pool1/norm1
I0403 13:31:41.375713 11568 net.cpp:148] Top shape: 24 64 56 56 (4816896)
I0403 13:31:41.375728 11568 net.cpp:156] Memory required for data: 207127584
I0403 13:31:41.375743 11568 layer_factory.hpp:77] Creating layer conv2/3x3_reduce
I0403 13:31:41.375767 11568 net.cpp:91] Creating Layer conv2/3x3_reduce
I0403 13:31:41.375782 11568 net.cpp:425] conv2/3x3_reduce <- pool1/norm1
I0403 13:31:41.375800 11568 net.cpp:399] conv2/3x3_reduce -> conv2/3x3_reduce
I0403 13:31:41.377138 11568 net.cpp:141] Setting up conv2/3x3_reduce
I0403 13:31:41.377164 11568 net.cpp:148] Top shape: 24 64 56 56 (4816896)
I0403 13:31:41.377180 11568 net.cpp:156] Memory required for data: 226395168
I0403 13:31:41.377200 11568 layer_factory.hpp:77] Creating layer conv2/relu_3x3_reduce
I0403 13:31:41.377218 11568 net.cpp:91] Creating Layer conv2/relu_3x3_reduce
I0403 13:31:41.377233 11568 net.cpp:425] conv2/relu_3x3_reduce <- conv2/3x3_reduce
I0403 13:31:41.377249 11568 net.cpp:386] conv2/relu_3x3_reduce -> conv2/3x3_reduce (in-place)
I0403 13:31:41.377521 11568 net.cpp:141] Setting up conv2/relu_3x3_reduce
I0403 13:31:41.377549 11568 net.cpp:148] Top shape: 24 64 56 56 (4816896)
I0403 13:31:41.377565 11568 net.cpp:156] Memory required for data: 245662752
I0403 13:31:41.377579 11568 layer_factory.hpp:77] Creating layer conv2/3x3
I0403 13:31:41.377601 11568 net.cpp:91] Creating Layer conv2/3x3
I0403 13:31:41.377629 11568 net.cpp:425] conv2/3x3 <- conv2/3x3_reduce
I0403 13:31:41.377650 11568 net.cpp:399] conv2/3x3 -> conv2/3x3
I0403 13:31:41.379997 11568 net.cpp:141] Setting up conv2/3x3
I0403 13:31:41.380028 11568 net.cpp:148] Top shape: 24 192 56 56 (14450688)
I0403 13:31:41.380046 11568 net.cpp:156] Memory required for data: 303465504
I0403 13:31:41.380067 11568 layer_factory.hpp:77] Creating layer conv2/relu_3x3
I0403 13:31:41.380086 11568 net.cpp:91] Creating Layer conv2/relu_3x3
I0403 13:31:41.380102 11568 net.cpp:425] conv2/relu_3x3 <- conv2/3x3
I0403 13:31:41.380121 11568 net.cpp:386] conv2/relu_3x3 -> conv2/3x3 (in-place)
I0403 13:31:41.380300 11568 net.cpp:141] Setting up conv2/relu_3x3
I0403 13:31:41.380326 11568 net.cpp:148] Top shape: 24 192 56 56 (14450688)
I0403 13:31:41.380376 11568 net.cpp:156] Memory required for data: 361268256
I0403 13:31:41.380393 11568 layer_factory.hpp:77] Creating layer conv2/norm2
I0403 13:31:41.380414 11568 net.cpp:91] Creating Layer conv2/norm2
I0403 13:31:41.380430 11568 net.cpp:425] conv2/norm2 <- conv2/3x3
I0403 13:31:41.380447 11568 net.cpp:399] conv2/norm2 -> conv2/norm2
I0403 13:31:41.380764 11568 net.cpp:141] Setting up conv2/norm2
I0403 13:31:41.380794 11568 net.cpp:148] Top shape: 24 192 56 56 (14450688)
I0403 13:31:41.380810 11568 net.cpp:156] Memory required for data: 419071008
I0403 13:31:41.380825 11568 layer_factory.hpp:77] Creating layer pool2/3x3_s2
I0403 13:31:41.380842 11568 net.cpp:91] Creating Layer pool2/3x3_s2
I0403 13:31:41.380857 11568 net.cpp:425] pool2/3x3_s2 <- conv2/norm2
I0403 13:31:41.380877 11568 net.cpp:399] pool2/3x3_s2 -> pool2/3x3_s2
I0403 13:31:41.380930 11568 net.cpp:141] Setting up pool2/3x3_s2
I0403 13:31:41.380954 11568 net.cpp:148] Top shape: 24 192 28 28 (3612672)
I0403 13:31:41.380970 11568 net.cpp:156] Memory required for data: 433521696
I0403 13:31:41.380985 11568 layer_factory.hpp:77] Creating layer pool2/3x3_s2_pool2/3x3_s2_0_split
I0403 13:31:41.381005 11568 net.cpp:91] Creating Layer pool2/3x3_s2_pool2/3x3_s2_0_split
I0403 13:31:41.381021 11568 net.cpp:425] pool2/3x3_s2_pool2/3x3_s2_0_split <- pool2/3x3_s2
I0403 13:31:41.381038 11568 net.cpp:399] pool2/3x3_s2_pool2/3x3_s2_0_split -> pool2/3x3_s2_pool2/3x3_s2_0_split_0
I0403 13:31:41.381057 11568 net.cpp:399] pool2/3x3_s2_pool2/3x3_s2_0_split -> pool2/3x3_s2_pool2/3x3_s2_0_split_1
I0403 13:31:41.381077 11568 net.cpp:399] pool2/3x3_s2_pool2/3x3_s2_0_split -> pool2/3x3_s2_pool2/3x3_s2_0_split_2
I0403 13:31:41.381095 11568 net.cpp:399] pool2/3x3_s2_pool2/3x3_s2_0_split -> pool2/3x3_s2_pool2/3x3_s2_0_split_3
I0403 13:31:41.381170 11568 net.cpp:141] Setting up pool2/3x3_s2_pool2/3x3_s2_0_split
I0403 13:31:41.381193 11568 net.cpp:148] Top shape: 24 192 28 28 (3612672)
I0403 13:31:41.381211 11568 net.cpp:148] Top shape: 24 192 28 28 (3612672)
I0403 13:31:41.381225 11568 net.cpp:148] Top shape: 24 192 28 28 (3612672)
I0403 13:31:41.381240 11568 net.cpp:148] Top shape: 24 192 28 28 (3612672)
I0403 13:31:41.381253 11568 net.cpp:156] Memory required for data: 491324448
I0403 13:31:41.381268 11568 layer_factory.hpp:77] Creating layer inception_3a/1x1
I0403 13:31:41.381290 11568 net.cpp:91] Creating Layer inception_3a/1x1
I0403 13:31:41.381309 11568 net.cpp:425] inception_3a/1x1 <- pool2/3x3_s2_pool2/3x3_s2_0_split_0
I0403 13:31:41.381330 11568 net.cpp:399] inception_3a/1x1 -> inception_3a/1x1
I0403 13:31:41.382899 11568 net.cpp:141] Setting up inception_3a/1x1
I0403 13:31:41.382928 11568 net.cpp:148] Top shape: 24 64 28 28 (1204224)
I0403 13:31:41.382946 11568 net.cpp:156] Memory required for data: 496141344
I0403 13:31:41.382964 11568 layer_factory.hpp:77] Creating layer inception_3a/relu_1x1
I0403 13:31:41.382983 11568 net.cpp:91] Creating Layer inception_3a/relu_1x1
I0403 13:31:41.382999 11568 net.cpp:425] inception_3a/relu_1x1 <- inception_3a/1x1
I0403 13:31:41.383018 11568 net.cpp:386] inception_3a/relu_1x1 -> inception_3a/1x1 (in-place)
I0403 13:31:41.383195 11568 net.cpp:141] Setting up inception_3a/relu_1x1
I0403 13:31:41.383221 11568 net.cpp:148] Top shape: 24 64 28 28 (1204224)
I0403 13:31:41.383236 11568 net.cpp:156] Memory required for data: 500958240
I0403 13:31:41.383250 11568 layer_factory.hpp:77] Creating layer inception_3a/3x3_reduce
I0403 13:31:41.383273 11568 net.cpp:91] Creating Layer inception_3a/3x3_reduce
I0403 13:31:41.383292 11568 net.cpp:425] inception_3a/3x3_reduce <- pool2/3x3_s2_pool2/3x3_s2_0_split_1
I0403 13:31:41.383312 11568 net.cpp:399] inception_3a/3x3_reduce -> inception_3a/3x3_reduce
I0403 13:31:41.385079 11568 net.cpp:141] Setting up inception_3a/3x3_reduce
I0403 13:31:41.385112 11568 net.cpp:148] Top shape: 24 96 28 28 (1806336)
I0403 13:31:41.385128 11568 net.cpp:156] Memory required for data: 508183584
I0403 13:31:41.385150 11568 layer_factory.hpp:77] Creating layer inception_3a/relu_3x3_reduce
I0403 13:31:41.385190 11568 net.cpp:91] Creating Layer inception_3a/relu_3x3_reduce
I0403 13:31:41.385208 11568 net.cpp:425] inception_3a/relu_3x3_reduce <- inception_3a/3x3_reduce
I0403 13:31:41.385226 11568 net.cpp:386] inception_3a/relu_3x3_reduce -> inception_3a/3x3_reduce (in-place)
I0403 13:31:41.385409 11568 net.cpp:141] Setting up inception_3a/relu_3x3_reduce
I0403 13:31:41.385434 11568 net.cpp:148] Top shape: 24 96 28 28 (1806336)
I0403 13:31:41.385449 11568 net.cpp:156] Memory required for data: 515408928
I0403 13:31:41.385463 11568 layer_factory.hpp:77] Creating layer inception_3a/3x3
I0403 13:31:41.385489 11568 net.cpp:91] Creating Layer inception_3a/3x3
I0403 13:31:41.385514 11568 net.cpp:425] inception_3a/3x3 <- inception_3a/3x3_reduce
I0403 13:31:41.385536 11568 net.cpp:399] inception_3a/3x3 -> inception_3a/3x3
I0403 13:31:41.387208 11568 net.cpp:141] Setting up inception_3a/3x3
I0403 13:31:41.387238 11568 net.cpp:148] Top shape: 24 128 28 28 (2408448)
I0403 13:31:41.387267 11568 net.cpp:156] Memory required for data: 525042720
I0403 13:31:41.387285 11568 layer_factory.hpp:77] Creating layer inception_3a/relu_3x3
I0403 13:31:41.387305 11568 net.cpp:91] Creating Layer inception_3a/relu_3x3
I0403 13:31:41.387320 11568 net.cpp:425] inception_3a/relu_3x3 <- inception_3a/3x3
I0403 13:31:41.387341 11568 net.cpp:386] inception_3a/relu_3x3 -> inception_3a/3x3 (in-place)
I0403 13:31:41.387641 11568 net.cpp:141] Setting up inception_3a/relu_3x3
I0403 13:31:41.387668 11568 net.cpp:148] Top shape: 24 128 28 28 (2408448)
I0403 13:31:41.387684 11568 net.cpp:156] Memory required for data: 534676512
I0403 13:31:41.387698 11568 layer_factory.hpp:77] Creating layer inception_3a/5x5_reduce
I0403 13:31:41.387722 11568 net.cpp:91] Creating Layer inception_3a/5x5_reduce
I0403 13:31:41.387751 11568 net.cpp:425] inception_3a/5x5_reduce <- pool2/3x3_s2_pool2/3x3_s2_0_split_2
I0403 13:31:41.387771 11568 net.cpp:399] inception_3a/5x5_reduce -> inception_3a/5x5_reduce
I0403 13:31:41.388712 11568 net.cpp:141] Setting up inception_3a/5x5_reduce
I0403 13:31:41.388741 11568 net.cpp:148] Top shape: 24 16 28 28 (301056)
I0403 13:31:41.388756 11568 net.cpp:156] Memory required for data: 535880736
I0403 13:31:41.388773 11568 layer_factory.hpp:77] Creating layer inception_3a/relu_5x5_reduce
I0403 13:31:41.388792 11568 net.cpp:91] Creating Layer inception_3a/relu_5x5_reduce
I0403 13:31:41.388806 11568 net.cpp:425] inception_3a/relu_5x5_reduce <- inception_3a/5x5_reduce
I0403 13:31:41.388825 11568 net.cpp:386] inception_3a/relu_5x5_reduce -> inception_3a/5x5_reduce (in-place)
I0403 13:31:41.389127 11568 net.cpp:141] Setting up inception_3a/relu_5x5_reduce
I0403 13:31:41.389153 11568 net.cpp:148] Top shape: 24 16 28 28 (301056)
I0403 13:31:41.389168 11568 net.cpp:156] Memory required for data: 537084960
I0403 13:31:41.389183 11568 layer_factory.hpp:77] Creating layer inception_3a/5x5
I0403 13:31:41.389207 11568 net.cpp:91] Creating Layer inception_3a/5x5
I0403 13:31:41.389225 11568 net.cpp:425] inception_3a/5x5 <- inception_3a/5x5_reduce
I0403 13:31:41.389245 11568 net.cpp:399] inception_3a/5x5 -> inception_3a/5x5
I0403 13:31:41.390300 11568 net.cpp:141] Setting up inception_3a/5x5
I0403 13:31:41.390326 11568 net.cpp:148] Top shape: 24 32 28 28 (602112)
I0403 13:31:41.390341 11568 net.cpp:156] Memory required for data: 539493408
I0403 13:31:41.390360 11568 layer_factory.hpp:77] Creating layer inception_3a/relu_5x5
I0403 13:31:41.390378 11568 net.cpp:91] Creating Layer inception_3a/relu_5x5
I0403 13:31:41.390395 11568 net.cpp:425] inception_3a/relu_5x5 <- inception_3a/5x5
I0403 13:31:41.390414 11568 net.cpp:386] inception_3a/relu_5x5 -> inception_3a/5x5 (in-place)
I0403 13:31:41.390597 11568 net.cpp:141] Setting up inception_3a/relu_5x5
I0403 13:31:41.390624 11568 net.cpp:148] Top shape: 24 32 28 28 (602112)
I0403 13:31:41.390638 11568 net.cpp:156] Memory required for data: 541901856
I0403 13:31:41.390652 11568 layer_factory.hpp:77] Creating layer inception_3a/pool
I0403 13:31:41.390673 11568 net.cpp:91] Creating Layer inception_3a/pool
I0403 13:31:41.390704 11568 net.cpp:425] inception_3a/pool <- pool2/3x3_s2_pool2/3x3_s2_0_split_3
I0403 13:31:41.390722 11568 net.cpp:399] inception_3a/pool -> inception_3a/pool
I0403 13:31:41.390782 11568 net.cpp:141] Setting up inception_3a/pool
I0403 13:31:41.390805 11568 net.cpp:148] Top shape: 24 192 28 28 (3612672)
I0403 13:31:41.390820 11568 net.cpp:156] Memory required for data: 556352544
I0403 13:31:41.390835 11568 layer_factory.hpp:77] Creating layer inception_3a/pool_proj
I0403 13:31:41.390857 11568 net.cpp:91] Creating Layer inception_3a/pool_proj
I0403 13:31:41.390874 11568 net.cpp:425] inception_3a/pool_proj <- inception_3a/pool
I0403 13:31:41.390895 11568 net.cpp:399] inception_3a/pool_proj -> inception_3a/pool_proj
I0403 13:31:41.391882 11568 net.cpp:141] Setting up inception_3a/pool_proj
I0403 13:31:41.391913 11568 net.cpp:148] Top shape: 24 32 28 28 (602112)
I0403 13:31:41.391929 11568 net.cpp:156] Memory required for data: 558760992
I0403 13:31:41.391952 11568 layer_factory.hpp:77] Creating layer inception_3a/relu_pool_proj
I0403 13:31:41.391973 11568 net.cpp:91] Creating Layer inception_3a/relu_pool_proj
I0403 13:31:41.391991 11568 net.cpp:425] inception_3a/relu_pool_proj <- inception_3a/pool_proj
I0403 13:31:41.392009 11568 net.cpp:386] inception_3a/relu_pool_proj -> inception_3a/pool_proj (in-place)
I0403 13:31:41.392292 11568 net.cpp:141] Setting up inception_3a/relu_pool_proj
I0403 13:31:41.392318 11568 net.cpp:148] Top shape: 24 32 28 28 (602112)
I0403 13:31:41.392333 11568 net.cpp:156] Memory required for data: 561169440
I0403 13:31:41.392349 11568 layer_factory.hpp:77] Creating layer inception_3a/output
I0403 13:31:41.392366 11568 net.cpp:91] Creating Layer inception_3a/output
I0403 13:31:41.392381 11568 net.cpp:425] inception_3a/output <- inception_3a/1x1
I0403 13:31:41.392397 11568 net.cpp:425] inception_3a/output <- inception_3a/3x3
I0403 13:31:41.392413 11568 net.cpp:425] inception_3a/output <- inception_3a/5x5
I0403 13:31:41.392428 11568 net.cpp:425] inception_3a/output <- inception_3a/pool_proj
I0403 13:31:41.392448 11568 net.cpp:399] inception_3a/output -> inception_3a/output
I0403 13:31:41.395278 11568 net.cpp:141] Setting up inception_3a/output
I0403 13:31:41.395319 11568 net.cpp:148] Top shape: 24 256 28 28 (4816896)
I0403 13:31:41.395339 11568 net.cpp:156] Memory required for data: 580437024
I0403 13:31:41.395354 11568 layer_factory.hpp:77] Creating layer inception_3a/output_inception_3a/output_0_split
I0403 13:31:41.395372 11568 net.cpp:91] Creating Layer inception_3a/output_inception_3a/output_0_split
I0403 13:31:41.395390 11568 net.cpp:425] inception_3a/output_inception_3a/output_0_split <- inception_3a/output
I0403 13:31:41.395406 11568 net.cpp:399] inception_3a/output_inception_3a/output_0_split -> inception_3a/output_inception_3a/output_0_split_0
I0403 13:31:41.395428 11568 net.cpp:399] inception_3a/output_inception_3a/output_0_split -> inception_3a/output_inception_3a/output_0_split_1
I0403 13:31:41.395455 11568 net.cpp:399] inception_3a/output_inception_3a/output_0_split -> inception_3a/output_inception_3a/output_0_split_2
I0403 13:31:41.395478 11568 net.cpp:399] inception_3a/output_inception_3a/output_0_split -> inception_3a/output_inception_3a/output_0_split_3
I0403 13:31:41.395582 11568 net.cpp:141] Setting up inception_3a/output_inception_3a/output_0_split
I0403 13:31:41.395609 11568 net.cpp:148] Top shape: 24 256 28 28 (4816896)
I0403 13:31:41.395628 11568 net.cpp:148] Top shape: 24 256 28 28 (4816896)
I0403 13:31:41.395644 11568 net.cpp:148] Top shape: 24 256 28 28 (4816896)
I0403 13:31:41.395659 11568 net.cpp:148] Top shape: 24 256 28 28 (4816896)
I0403 13:31:41.395673 11568 net.cpp:156] Memory required for data: 657507360
I0403 13:31:41.395687 11568 layer_factory.hpp:77] Creating layer inception_3b/1x1
I0403 13:31:41.395711 11568 net.cpp:91] Creating Layer inception_3b/1x1
I0403 13:31:41.395728 11568 net.cpp:425] inception_3b/1x1 <- inception_3a/output_inception_3a/output_0_split_0
I0403 13:31:41.395747 11568 net.cpp:399] inception_3b/1x1 -> inception_3b/1x1
I0403 13:31:41.396936 11568 net.cpp:141] Setting up inception_3b/1x1
I0403 13:31:41.396982 11568 net.cpp:148] Top shape: 24 128 28 28 (2408448)
I0403 13:31:41.397001 11568 net.cpp:156] Memory required for data: 667141152
I0403 13:31:41.397019 11568 layer_factory.hpp:77] Creating layer inception_3b/relu_1x1
I0403 13:31:41.397037 11568 net.cpp:91] Creating Layer inception_3b/relu_1x1
I0403 13:31:41.397053 11568 net.cpp:425] inception_3b/relu_1x1 <- inception_3b/1x1
I0403 13:31:41.397073 11568 net.cpp:386] inception_3b/relu_1x1 -> inception_3b/1x1 (in-place)
I0403 13:31:41.397253 11568 net.cpp:141] Setting up inception_3b/relu_1x1
I0403 13:31:41.397279 11568 net.cpp:148] Top shape: 24 128 28 28 (2408448)
I0403 13:31:41.397295 11568 net.cpp:156] Memory required for data: 676774944
I0403 13:31:41.397310 11568 layer_factory.hpp:77] Creating layer inception_3b/3x3_reduce
I0403 13:31:41.397333 11568 net.cpp:91] Creating Layer inception_3b/3x3_reduce
I0403 13:31:41.397351 11568 net.cpp:425] inception_3b/3x3_reduce <- inception_3a/output_inception_3a/output_0_split_1
I0403 13:31:41.397372 11568 net.cpp:399] inception_3b/3x3_reduce -> inception_3b/3x3_reduce
I0403 13:31:41.398545 11568 net.cpp:141] Setting up inception_3b/3x3_reduce
I0403 13:31:41.398578 11568 net.cpp:148] Top shape: 24 128 28 28 (2408448)
I0403 13:31:41.398596 11568 net.cpp:156] Memory required for data: 686408736
I0403 13:31:41.398614 11568 layer_factory.hpp:77] Creating layer inception_3b/relu_3x3_reduce
I0403 13:31:41.398633 11568 net.cpp:91] Creating Layer inception_3b/relu_3x3_reduce
I0403 13:31:41.398648 11568 net.cpp:425] inception_3b/relu_3x3_reduce <- inception_3b/3x3_reduce
I0403 13:31:41.398664 11568 net.cpp:386] inception_3b/relu_3x3_reduce -> inception_3b/3x3_reduce (in-place)
I0403 13:31:41.398844 11568 net.cpp:141] Setting up inception_3b/relu_3x3_reduce
I0403 13:31:41.398870 11568 net.cpp:148] Top shape: 24 128 28 28 (2408448)
I0403 13:31:41.398885 11568 net.cpp:156] Memory required for data: 696042528
I0403 13:31:41.398900 11568 layer_factory.hpp:77] Creating layer inception_3b/3x3
I0403 13:31:41.398926 11568 net.cpp:91] Creating Layer inception_3b/3x3
I0403 13:31:41.398944 11568 net.cpp:425] inception_3b/3x3 <- inception_3b/3x3_reduce
I0403 13:31:41.398967 11568 net.cpp:399] inception_3b/3x3 -> inception_3b/3x3
I0403 13:31:41.401947 11568 net.cpp:141] Setting up inception_3b/3x3
I0403 13:31:41.401978 11568 net.cpp:148] Top shape: 24 192 28 28 (3612672)
I0403 13:31:41.401994 11568 net.cpp:156] Memory required for data: 710493216
I0403 13:31:41.402014 11568 layer_factory.hpp:77] Creating layer inception_3b/relu_3x3
I0403 13:31:41.402031 11568 net.cpp:91] Creating Layer inception_3b/relu_3x3
I0403 13:31:41.402048 11568 net.cpp:425] inception_3b/relu_3x3 <- inception_3b/3x3
I0403 13:31:41.402067 11568 net.cpp:386] inception_3b/relu_3x3 -> inception_3b/3x3 (in-place)
I0403 13:31:41.402354 11568 net.cpp:141] Setting up inception_3b/relu_3x3
I0403 13:31:41.402380 11568 net.cpp:148] Top shape: 24 192 28 28 (3612672)
I0403 13:31:41.402395 11568 net.cpp:156] Memory required for data: 724943904
I0403 13:31:41.402410 11568 layer_factory.hpp:77] Creating layer inception_3b/5x5_reduce
I0403 13:31:41.402434 11568 net.cpp:91] Creating Layer inception_3b/5x5_reduce
I0403 13:31:41.402452 11568 net.cpp:425] inception_3b/5x5_reduce <- inception_3a/output_inception_3a/output_0_split_2
I0403 13:31:41.402474 11568 net.cpp:399] inception_3b/5x5_reduce -> inception_3b/5x5_reduce
I0403 13:31:41.403491 11568 net.cpp:141] Setting up inception_3b/5x5_reduce
I0403 13:31:41.403523 11568 net.cpp:148] Top shape: 24 32 28 28 (602112)
I0403 13:31:41.403540 11568 net.cpp:156] Memory required for data: 727352352
I0403 13:31:41.403559 11568 layer_factory.hpp:77] Creating layer inception_3b/relu_5x5_reduce
I0403 13:31:41.403576 11568 net.cpp:91] Creating Layer inception_3b/relu_5x5_reduce
I0403 13:31:41.403592 11568 net.cpp:425] inception_3b/relu_5x5_reduce <- inception_3b/5x5_reduce
I0403 13:31:41.403614 11568 net.cpp:386] inception_3b/relu_5x5_reduce -> inception_3b/5x5_reduce (in-place)
I0403 13:31:41.403810 11568 net.cpp:141] Setting up inception_3b/relu_5x5_reduce
I0403 13:31:41.403836 11568 net.cpp:148] Top shape: 24 32 28 28 (602112)
I0403 13:31:41.403851 11568 net.cpp:156] Memory required for data: 729760800
I0403 13:31:41.403866 11568 layer_factory.hpp:77] Creating layer inception_3b/5x5
I0403 13:31:41.403888 11568 net.cpp:91] Creating Layer inception_3b/5x5
I0403 13:31:41.403906 11568 net.cpp:425] inception_3b/5x5 <- inception_3b/5x5_reduce
I0403 13:31:41.403926 11568 net.cpp:399] inception_3b/5x5 -> inception_3b/5x5
I0403 13:31:41.405941 11568 net.cpp:141] Setting up inception_3b/5x5
I0403 13:31:41.405974 11568 net.cpp:148] Top shape: 24 96 28 28 (1806336)
I0403 13:31:41.405992 11568 net.cpp:156] Memory required for data: 736986144
I0403 13:31:41.406010 11568 layer_factory.hpp:77] Creating layer inception_3b/relu_5x5
I0403 13:31:41.406028 11568 net.cpp:91] Creating Layer inception_3b/relu_5x5
I0403 13:31:41.406044 11568 net.cpp:425] inception_3b/relu_5x5 <- inception_3b/5x5
I0403 13:31:41.406061 11568 net.cpp:386] inception_3b/relu_5x5 -> inception_3b/5x5 (in-place)
I0403 13:31:41.406260 11568 net.cpp:141] Setting up inception_3b/relu_5x5
I0403 13:31:41.406286 11568 net.cpp:148] Top shape: 24 96 28 28 (1806336)
I0403 13:31:41.406302 11568 net.cpp:156] Memory required for data: 744211488
I0403 13:31:41.406317 11568 layer_factory.hpp:77] Creating layer inception_3b/pool
I0403 13:31:41.406335 11568 net.cpp:91] Creating Layer inception_3b/pool
I0403 13:31:41.406350 11568 net.cpp:425] inception_3b/pool <- inception_3a/output_inception_3a/output_0_split_3
I0403 13:31:41.406368 11568 net.cpp:399] inception_3b/pool -> inception_3b/pool
I0403 13:31:41.406425 11568 net.cpp:141] Setting up inception_3b/pool
I0403 13:31:41.406451 11568 net.cpp:148] Top shape: 24 256 28 28 (4816896)
I0403 13:31:41.406467 11568 net.cpp:156] Memory required for data: 763479072
I0403 13:31:41.406481 11568 layer_factory.hpp:77] Creating layer inception_3b/pool_proj
I0403 13:31:41.406503 11568 net.cpp:91] Creating Layer inception_3b/pool_proj
I0403 13:31:41.406527 11568 net.cpp:425] inception_3b/pool_proj <- inception_3b/pool
I0403 13:31:41.406545 11568 net.cpp:399] inception_3b/pool_proj -> inception_3b/pool_proj
I0403 13:31:41.407657 11568 net.cpp:141] Setting up inception_3b/pool_proj
I0403 13:31:41.407685 11568 net.cpp:148] Top shape: 24 64 28 28 (1204224)
I0403 13:31:41.407701 11568 net.cpp:156] Memory required for data: 768295968
I0403 13:31:41.407718 11568 layer_factory.hpp:77] Creating layer inception_3b/relu_pool_proj
I0403 13:31:41.407739 11568 net.cpp:91] Creating Layer inception_3b/relu_pool_proj
I0403 13:31:41.407757 11568 net.cpp:425] inception_3b/relu_pool_proj <- inception_3b/pool_proj
I0403 13:31:41.407773 11568 net.cpp:386] inception_3b/relu_pool_proj -> inception_3b/pool_proj (in-place)
I0403 13:31:41.408181 11568 net.cpp:141] Setting up inception_3b/relu_pool_proj
I0403 13:31:41.408208 11568 net.cpp:148] Top shape: 24 64 28 28 (1204224)
I0403 13:31:41.408224 11568 net.cpp:156] Memory required for data: 773112864
I0403 13:31:41.408239 11568 layer_factory.hpp:77] Creating layer inception_3b/output
I0403 13:31:41.408257 11568 net.cpp:91] Creating Layer inception_3b/output
I0403 13:31:41.408273 11568 net.cpp:425] inception_3b/output <- inception_3b/1x1
I0403 13:31:41.408290 11568 net.cpp:425] inception_3b/output <- inception_3b/3x3
I0403 13:31:41.408305 11568 net.cpp:425] inception_3b/output <- inception_3b/5x5
I0403 13:31:41.408321 11568 net.cpp:425] inception_3b/output <- inception_3b/pool_proj
I0403 13:31:41.408340 11568 net.cpp:399] inception_3b/output -> inception_3b/output
I0403 13:31:41.408387 11568 net.cpp:141] Setting up inception_3b/output
I0403 13:31:41.408411 11568 net.cpp:148] Top shape: 24 480 28 28 (9031680)
I0403 13:31:41.408426 11568 net.cpp:156] Memory required for data: 809239584
I0403 13:31:41.408440 11568 layer_factory.hpp:77] Creating layer pool3/3x3_s2
I0403 13:31:41.408457 11568 net.cpp:91] Creating Layer pool3/3x3_s2
I0403 13:31:41.408473 11568 net.cpp:425] pool3/3x3_s2 <- inception_3b/output
I0403 13:31:41.408514 11568 net.cpp:399] pool3/3x3_s2 -> pool3/3x3_s2
I0403 13:31:41.408576 11568 net.cpp:141] Setting up pool3/3x3_s2
I0403 13:31:41.408599 11568 net.cpp:148] Top shape: 24 480 14 14 (2257920)
I0403 13:31:41.408615 11568 net.cpp:156] Memory required for data: 818271264
I0403 13:31:41.408629 11568 layer_factory.hpp:77] Creating layer pool3/3x3_s2_pool3/3x3_s2_0_split
I0403 13:31:41.408649 11568 net.cpp:91] Creating Layer pool3/3x3_s2_pool3/3x3_s2_0_split
I0403 13:31:41.408666 11568 net.cpp:425] pool3/3x3_s2_pool3/3x3_s2_0_split <- pool3/3x3_s2
I0403 13:31:41.408682 11568 net.cpp:399] pool3/3x3_s2_pool3/3x3_s2_0_split -> pool3/3x3_s2_pool3/3x3_s2_0_split_0
I0403 13:31:41.408702 11568 net.cpp:399] pool3/3x3_s2_pool3/3x3_s2_0_split -> pool3/3x3_s2_pool3/3x3_s2_0_split_1
I0403 13:31:41.408725 11568 net.cpp:399] pool3/3x3_s2_pool3/3x3_s2_0_split -> pool3/3x3_s2_pool3/3x3_s2_0_split_2
I0403 13:31:41.408746 11568 net.cpp:399] pool3/3x3_s2_pool3/3x3_s2_0_split -> pool3/3x3_s2_pool3/3x3_s2_0_split_3
I0403 13:31:41.408826 11568 net.cpp:141] Setting up pool3/3x3_s2_pool3/3x3_s2_0_split
I0403 13:31:41.408850 11568 net.cpp:148] Top shape: 24 480 14 14 (2257920)
I0403 13:31:41.408866 11568 net.cpp:148] Top shape: 24 480 14 14 (2257920)
I0403 13:31:41.408881 11568 net.cpp:148] Top shape: 24 480 14 14 (2257920)
I0403 13:31:41.408897 11568 net.cpp:148] Top shape: 24 480 14 14 (2257920)
I0403 13:31:41.408910 11568 net.cpp:156] Memory required for data: 854397984
I0403 13:31:41.408926 11568 layer_factory.hpp:77] Creating layer inception_4a/1x1
I0403 13:31:41.408948 11568 net.cpp:91] Creating Layer inception_4a/1x1
I0403 13:31:41.408965 11568 net.cpp:425] inception_4a/1x1 <- pool3/3x3_s2_pool3/3x3_s2_0_split_0
I0403 13:31:41.408987 11568 net.cpp:399] inception_4a/1x1 -> inception_4a/1x1
I0403 13:31:41.410627 11568 net.cpp:141] Setting up inception_4a/1x1
I0403 13:31:41.410655 11568 net.cpp:148] Top shape: 24 192 14 14 (903168)
I0403 13:31:41.410670 11568 net.cpp:156] Memory required for data: 858010656
I0403 13:31:41.410687 11568 layer_factory.hpp:77] Creating layer inception_4a/relu_1x1
I0403 13:31:41.410707 11568 net.cpp:91] Creating Layer inception_4a/relu_1x1
I0403 13:31:41.410724 11568 net.cpp:425] inception_4a/relu_1x1 <- inception_4a/1x1
I0403 13:31:41.410742 11568 net.cpp:386] inception_4a/relu_1x1 -> inception_4a/1x1 (in-place)
I0403 13:31:41.410919 11568 net.cpp:141] Setting up inception_4a/relu_1x1
I0403 13:31:41.410946 11568 net.cpp:148] Top shape: 24 192 14 14 (903168)
I0403 13:31:41.410962 11568 net.cpp:156] Memory required for data: 861623328
I0403 13:31:41.410976 11568 layer_factory.hpp:77] Creating layer inception_4a/3x3_reduce
I0403 13:31:41.410998 11568 net.cpp:91] Creating Layer inception_4a/3x3_reduce
I0403 13:31:41.411015 11568 net.cpp:425] inception_4a/3x3_reduce <- pool3/3x3_s2_pool3/3x3_s2_0_split_1
I0403 13:31:41.411034 11568 net.cpp:399] inception_4a/3x3_reduce -> inception_4a/3x3_reduce
I0403 13:31:41.412328 11568 net.cpp:141] Setting up inception_4a/3x3_reduce
I0403 13:31:41.412354 11568 net.cpp:148] Top shape: 24 96 14 14 (451584)
I0403 13:31:41.412369 11568 net.cpp:156] Memory required for data: 863429664
I0403 13:31:41.412395 11568 layer_factory.hpp:77] Creating layer inception_4a/relu_3x3_reduce
I0403 13:31:41.412416 11568 net.cpp:91] Creating Layer inception_4a/relu_3x3_reduce
I0403 13:31:41.412433 11568 net.cpp:425] inception_4a/relu_3x3_reduce <- inception_4a/3x3_reduce
I0403 13:31:41.412451 11568 net.cpp:386] inception_4a/relu_3x3_reduce -> inception_4a/3x3_reduce (in-place)
I0403 13:31:41.412631 11568 net.cpp:141] Setting up inception_4a/relu_3x3_reduce
I0403 13:31:41.412655 11568 net.cpp:148] Top shape: 24 96 14 14 (451584)
I0403 13:31:41.412669 11568 net.cpp:156] Memory required for data: 865236000
I0403 13:31:41.412683 11568 layer_factory.hpp:77] Creating layer inception_4a/3x3
I0403 13:31:41.412709 11568 net.cpp:91] Creating Layer inception_4a/3x3
I0403 13:31:41.412727 11568 net.cpp:425] inception_4a/3x3 <- inception_4a/3x3_reduce
I0403 13:31:41.412746 11568 net.cpp:399] inception_4a/3x3 -> inception_4a/3x3
I0403 13:31:41.415482 11568 net.cpp:141] Setting up inception_4a/3x3
I0403 13:31:41.415515 11568 net.cpp:148] Top shape: 24 208 14 14 (978432)
I0403 13:31:41.415532 11568 net.cpp:156] Memory required for data: 869149728
I0403 13:31:41.415551 11568 layer_factory.hpp:77] Creating layer inception_4a/relu_3x3
I0403 13:31:41.415570 11568 net.cpp:91] Creating Layer inception_4a/relu_3x3
I0403 13:31:41.415585 11568 net.cpp:425] inception_4a/relu_3x3 <- inception_4a/3x3
I0403 13:31:41.415603 11568 net.cpp:386] inception_4a/relu_3x3 -> inception_4a/3x3 (in-place)
I0403 13:31:41.415880 11568 net.cpp:141] Setting up inception_4a/relu_3x3
I0403 13:31:41.415909 11568 net.cpp:148] Top shape: 24 208 14 14 (978432)
I0403 13:31:41.415925 11568 net.cpp:156] Memory required for data: 873063456
I0403 13:31:41.415938 11568 layer_factory.hpp:77] Creating layer inception_4a/5x5_reduce
I0403 13:31:41.415961 11568 net.cpp:91] Creating Layer inception_4a/5x5_reduce
I0403 13:31:41.415977 11568 net.cpp:425] inception_4a/5x5_reduce <- pool3/3x3_s2_pool3/3x3_s2_0_split_2
I0403 13:31:41.415997 11568 net.cpp:399] inception_4a/5x5_reduce -> inception_4a/5x5_reduce
I0403 13:31:41.417034 11568 net.cpp:141] Setting up inception_4a/5x5_reduce
I0403 13:31:41.417060 11568 net.cpp:148] Top shape: 24 16 14 14 (75264)
I0403 13:31:41.417076 11568 net.cpp:156] Memory required for data: 873364512
I0403 13:31:41.417094 11568 layer_factory.hpp:77] Creating layer inception_4a/relu_5x5_reduce
I0403 13:31:41.417112 11568 net.cpp:91] Creating Layer inception_4a/relu_5x5_reduce
I0403 13:31:41.417127 11568 net.cpp:425] inception_4a/relu_5x5_reduce <- inception_4a/5x5_reduce
I0403 13:31:41.417146 11568 net.cpp:386] inception_4a/relu_5x5_reduce -> inception_4a/5x5_reduce (in-place)
I0403 13:31:41.417326 11568 net.cpp:141] Setting up inception_4a/relu_5x5_reduce
I0403 13:31:41.417351 11568 net.cpp:148] Top shape: 24 16 14 14 (75264)
I0403 13:31:41.417366 11568 net.cpp:156] Memory required for data: 873665568
I0403 13:31:41.417381 11568 layer_factory.hpp:77] Creating layer inception_4a/5x5
I0403 13:31:41.417402 11568 net.cpp:91] Creating Layer inception_4a/5x5
I0403 13:31:41.417419 11568 net.cpp:425] inception_4a/5x5 <- inception_4a/5x5_reduce
I0403 13:31:41.417439 11568 net.cpp:399] inception_4a/5x5 -> inception_4a/5x5
I0403 13:31:41.418555 11568 net.cpp:141] Setting up inception_4a/5x5
I0403 13:31:41.418581 11568 net.cpp:148] Top shape: 24 48 14 14 (225792)
I0403 13:31:41.418596 11568 net.cpp:156] Memory required for data: 874568736
I0403 13:31:41.418613 11568 layer_factory.hpp:77] Creating layer inception_4a/relu_5x5
I0403 13:31:41.418633 11568 net.cpp:91] Creating Layer inception_4a/relu_5x5
I0403 13:31:41.418650 11568 net.cpp:425] inception_4a/relu_5x5 <- inception_4a/5x5
I0403 13:31:41.418666 11568 net.cpp:386] inception_4a/relu_5x5 -> inception_4a/5x5 (in-place)
I0403 13:31:41.418845 11568 net.cpp:141] Setting up inception_4a/relu_5x5
I0403 13:31:41.418872 11568 net.cpp:148] Top shape: 24 48 14 14 (225792)
I0403 13:31:41.418887 11568 net.cpp:156] Memory required for data: 875471904
I0403 13:31:41.418902 11568 layer_factory.hpp:77] Creating layer inception_4a/pool
I0403 13:31:41.418920 11568 net.cpp:91] Creating Layer inception_4a/pool
I0403 13:31:41.418934 11568 net.cpp:425] inception_4a/pool <- pool3/3x3_s2_pool3/3x3_s2_0_split_3
I0403 13:31:41.418952 11568 net.cpp:399] inception_4a/pool -> inception_4a/pool
I0403 13:31:41.419013 11568 net.cpp:141] Setting up inception_4a/pool
I0403 13:31:41.419037 11568 net.cpp:148] Top shape: 24 480 14 14 (2257920)
I0403 13:31:41.419051 11568 net.cpp:156] Memory required for data: 884503584
I0403 13:31:41.419065 11568 layer_factory.hpp:77] Creating layer inception_4a/pool_proj
I0403 13:31:41.419086 11568 net.cpp:91] Creating Layer inception_4a/pool_proj
I0403 13:31:41.419103 11568 net.cpp:425] inception_4a/pool_proj <- inception_4a/pool
I0403 13:31:41.419124 11568 net.cpp:399] inception_4a/pool_proj -> inception_4a/pool_proj
I0403 13:31:41.420290 11568 net.cpp:141] Setting up inception_4a/pool_proj
I0403 13:31:41.420318 11568 net.cpp:148] Top shape: 24 64 14 14 (301056)
I0403 13:31:41.420348 11568 net.cpp:156] Memory required for data: 885707808
I0403 13:31:41.420367 11568 layer_factory.hpp:77] Creating layer inception_4a/relu_pool_proj
I0403 13:31:41.420389 11568 net.cpp:91] Creating Layer inception_4a/relu_pool_proj
I0403 13:31:41.420408 11568 net.cpp:425] inception_4a/relu_pool_proj <- inception_4a/pool_proj
I0403 13:31:41.420424 11568 net.cpp:386] inception_4a/relu_pool_proj -> inception_4a/pool_proj (in-place)
I0403 13:31:41.420711 11568 net.cpp:141] Setting up inception_4a/relu_pool_proj
I0403 13:31:41.420737 11568 net.cpp:148] Top shape: 24 64 14 14 (301056)
I0403 13:31:41.420752 11568 net.cpp:156] Memory required for data: 886912032
I0403 13:31:41.420766 11568 layer_factory.hpp:77] Creating layer inception_4a/output
I0403 13:31:41.420785 11568 net.cpp:91] Creating Layer inception_4a/output
I0403 13:31:41.420801 11568 net.cpp:425] inception_4a/output <- inception_4a/1x1
I0403 13:31:41.420817 11568 net.cpp:425] inception_4a/output <- inception_4a/3x3
I0403 13:31:41.420832 11568 net.cpp:425] inception_4a/output <- inception_4a/5x5
I0403 13:31:41.420847 11568 net.cpp:425] inception_4a/output <- inception_4a/pool_proj
I0403 13:31:41.420863 11568 net.cpp:399] inception_4a/output -> inception_4a/output
I0403 13:31:41.420909 11568 net.cpp:141] Setting up inception_4a/output
I0403 13:31:41.420933 11568 net.cpp:148] Top shape: 24 512 14 14 (2408448)
I0403 13:31:41.420948 11568 net.cpp:156] Memory required for data: 896545824
I0403 13:31:41.420961 11568 layer_factory.hpp:77] Creating layer inception_4a/output_inception_4a/output_0_split
I0403 13:31:41.420979 11568 net.cpp:91] Creating Layer inception_4a/output_inception_4a/output_0_split
I0403 13:31:41.420992 11568 net.cpp:425] inception_4a/output_inception_4a/output_0_split <- inception_4a/output
I0403 13:31:41.421013 11568 net.cpp:399] inception_4a/output_inception_4a/output_0_split -> inception_4a/output_inception_4a/output_0_split_0
I0403 13:31:41.421035 11568 net.cpp:399] inception_4a/output_inception_4a/output_0_split -> inception_4a/output_inception_4a/output_0_split_1
I0403 13:31:41.421056 11568 net.cpp:399] inception_4a/output_inception_4a/output_0_split -> inception_4a/output_inception_4a/output_0_split_2
I0403 13:31:41.421077 11568 net.cpp:399] inception_4a/output_inception_4a/output_0_split -> inception_4a/output_inception_4a/output_0_split_3
I0403 13:31:41.421095 11568 net.cpp:399] inception_4a/output_inception_4a/output_0_split -> inception_4a/output_inception_4a/output_0_split_4
I0403 13:31:41.421191 11568 net.cpp:141] Setting up inception_4a/output_inception_4a/output_0_split
I0403 13:31:41.421214 11568 net.cpp:148] Top shape: 24 512 14 14 (2408448)
I0403 13:31:41.421231 11568 net.cpp:148] Top shape: 24 512 14 14 (2408448)
I0403 13:31:41.421247 11568 net.cpp:148] Top shape: 24 512 14 14 (2408448)
I0403 13:31:41.421262 11568 net.cpp:148] Top shape: 24 512 14 14 (2408448)
I0403 13:31:41.421277 11568 net.cpp:148] Top shape: 24 512 14 14 (2408448)
I0403 13:31:41.421293 11568 net.cpp:156] Memory required for data: 944714784
I0403 13:31:41.421306 11568 layer_factory.hpp:77] Creating layer loss1/ave_pool
I0403 13:31:41.421324 11568 net.cpp:91] Creating Layer loss1/ave_pool
I0403 13:31:41.421339 11568 net.cpp:425] loss1/ave_pool <- inception_4a/output_inception_4a/output_0_split_0
I0403 13:31:41.421358 11568 net.cpp:399] loss1/ave_pool -> loss1/ave_pool
I0403 13:31:41.421605 11568 net.cpp:141] Setting up loss1/ave_pool
I0403 13:31:41.421633 11568 net.cpp:148] Top shape: 24 512 4 4 (196608)
I0403 13:31:41.421648 11568 net.cpp:156] Memory required for data: 945501216
I0403 13:31:41.421663 11568 layer_factory.hpp:77] Creating layer loss1/conv
I0403 13:31:41.421685 11568 net.cpp:91] Creating Layer loss1/conv
I0403 13:31:41.421703 11568 net.cpp:425] loss1/conv <- loss1/ave_pool
I0403 13:31:41.421723 11568 net.cpp:399] loss1/conv -> loss1/conv
I0403 13:31:41.423194 11568 net.cpp:141] Setting up loss1/conv
I0403 13:31:41.423226 11568 net.cpp:148] Top shape: 24 128 4 4 (49152)
I0403 13:31:41.423256 11568 net.cpp:156] Memory required for data: 945697824
I0403 13:31:41.423276 11568 layer_factory.hpp:77] Creating layer loss1/relu_conv
I0403 13:31:41.423297 11568 net.cpp:91] Creating Layer loss1/relu_conv
I0403 13:31:41.423313 11568 net.cpp:425] loss1/relu_conv <- loss1/conv
I0403 13:31:41.423333 11568 net.cpp:386] loss1/relu_conv -> loss1/conv (in-place)
I0403 13:31:41.423631 11568 net.cpp:141] Setting up loss1/relu_conv
I0403 13:31:41.423660 11568 net.cpp:148] Top shape: 24 128 4 4 (49152)
I0403 13:31:41.423677 11568 net.cpp:156] Memory required for data: 945894432
I0403 13:31:41.423692 11568 layer_factory.hpp:77] Creating layer loss1/fc
I0403 13:31:41.423717 11568 net.cpp:91] Creating Layer loss1/fc
I0403 13:31:41.423734 11568 net.cpp:425] loss1/fc <- loss1/conv
I0403 13:31:41.423754 11568 net.cpp:399] loss1/fc -> loss1/fc
I0403 13:31:41.441880 11568 net.cpp:141] Setting up loss1/fc
I0403 13:31:41.441922 11568 net.cpp:148] Top shape: 24 1024 (24576)
I0403 13:31:41.441943 11568 net.cpp:156] Memory required for data: 945992736
I0403 13:31:41.441963 11568 layer_factory.hpp:77] Creating layer loss1/relu_fc
I0403 13:31:41.441982 11568 net.cpp:91] Creating Layer loss1/relu_fc
I0403 13:31:41.441999 11568 net.cpp:425] loss1/relu_fc <- loss1/fc
I0403 13:31:41.442016 11568 net.cpp:386] loss1/relu_fc -> loss1/fc (in-place)
I0403 13:31:41.442245 11568 net.cpp:141] Setting up loss1/relu_fc
I0403 13:31:41.442272 11568 net.cpp:148] Top shape: 24 1024 (24576)
I0403 13:31:41.442287 11568 net.cpp:156] Memory required for data: 946091040
I0403 13:31:41.442301 11568 layer_factory.hpp:77] Creating layer loss1/drop_fc
I0403 13:31:41.442329 11568 net.cpp:91] Creating Layer loss1/drop_fc
I0403 13:31:41.442345 11568 net.cpp:425] loss1/drop_fc <- loss1/fc
I0403 13:31:41.442363 11568 net.cpp:386] loss1/drop_fc -> loss1/fc (in-place)
I0403 13:31:41.442414 11568 net.cpp:141] Setting up loss1/drop_fc
I0403 13:31:41.442437 11568 net.cpp:148] Top shape: 24 1024 (24576)
I0403 13:31:41.442451 11568 net.cpp:156] Memory required for data: 946189344
I0403 13:31:41.442466 11568 layer_factory.hpp:77] Creating layer loss1/classifier_plantvillage
I0403 13:31:41.442487 11568 net.cpp:91] Creating Layer loss1/classifier_plantvillage
I0403 13:31:41.442503 11568 net.cpp:425] loss1/classifier_plantvillage <- loss1/fc
I0403 13:31:41.442525 11568 net.cpp:399] loss1/classifier_plantvillage -> loss1/classifier_plantvillage
I0403 13:31:41.443438 11568 net.cpp:141] Setting up loss1/classifier_plantvillage
I0403 13:31:41.443467 11568 net.cpp:148] Top shape: 24 38 (912)
I0403 13:31:41.443483 11568 net.cpp:156] Memory required for data: 946192992
I0403 13:31:41.443500 11568 layer_factory.hpp:77] Creating layer loss1/classifier_plantvillage_loss1/classifier_plantvillage_0_split
I0403 13:31:41.443522 11568 net.cpp:91] Creating Layer loss1/classifier_plantvillage_loss1/classifier_plantvillage_0_split
I0403 13:31:41.443538 11568 net.cpp:425] loss1/classifier_plantvillage_loss1/classifier_plantvillage_0_split <- loss1/classifier_plantvillage
I0403 13:31:41.443555 11568 net.cpp:399] loss1/classifier_plantvillage_loss1/classifier_plantvillage_0_split -> loss1/classifier_plantvillage_loss1/classifier_plantvillage_0_split_0
I0403 13:31:41.443574 11568 net.cpp:399] loss1/classifier_plantvillage_loss1/classifier_plantvillage_0_split -> loss1/classifier_plantvillage_loss1/classifier_plantvillage_0_split_1
I0403 13:31:41.443596 11568 net.cpp:399] loss1/classifier_plantvillage_loss1/classifier_plantvillage_0_split -> loss1/classifier_plantvillage_loss1/classifier_plantvillage_0_split_2
I0403 13:31:41.443675 11568 net.cpp:141] Setting up loss1/classifier_plantvillage_loss1/classifier_plantvillage_0_split
I0403 13:31:41.443697 11568 net.cpp:148] Top shape: 24 38 (912)
I0403 13:31:41.443713 11568 net.cpp:148] Top shape: 24 38 (912)
I0403 13:31:41.443728 11568 net.cpp:148] Top shape: 24 38 (912)
I0403 13:31:41.443742 11568 net.cpp:156] Memory required for data: 946203936
I0403 13:31:41.443756 11568 layer_factory.hpp:77] Creating layer inception_4b/1x1
I0403 13:31:41.443778 11568 net.cpp:91] Creating Layer inception_4b/1x1
I0403 13:31:41.443825 11568 net.cpp:425] inception_4b/1x1 <- inception_4a/output_inception_4a/output_0_split_1
I0403 13:31:41.443847 11568 net.cpp:399] inception_4b/1x1 -> inception_4b/1x1
I0403 13:31:41.445554 11568 net.cpp:141] Setting up inception_4b/1x1
I0403 13:31:41.445585 11568 net.cpp:148] Top shape: 24 160 14 14 (752640)
I0403 13:31:41.445600 11568 net.cpp:156] Memory required for data: 949214496
I0403 13:31:41.445629 11568 layer_factory.hpp:77] Creating layer inception_4b/relu_1x1
I0403 13:31:41.445647 11568 net.cpp:91] Creating Layer inception_4b/relu_1x1
I0403 13:31:41.445662 11568 net.cpp:425] inception_4b/relu_1x1 <- inception_4b/1x1
I0403 13:31:41.445680 11568 net.cpp:386] inception_4b/relu_1x1 -> inception_4b/1x1 (in-place)
I0403 13:31:41.445858 11568 net.cpp:141] Setting up inception_4b/relu_1x1
I0403 13:31:41.445881 11568 net.cpp:148] Top shape: 24 160 14 14 (752640)
I0403 13:31:41.445895 11568 net.cpp:156] Memory required for data: 952225056
I0403 13:31:41.445909 11568 layer_factory.hpp:77] Creating layer inception_4b/3x3_reduce
I0403 13:31:41.445930 11568 net.cpp:91] Creating Layer inception_4b/3x3_reduce
I0403 13:31:41.445947 11568 net.cpp:425] inception_4b/3x3_reduce <- inception_4a/output_inception_4a/output_0_split_2
I0403 13:31:41.445969 11568 net.cpp:399] inception_4b/3x3_reduce -> inception_4b/3x3_reduce
I0403 13:31:41.447352 11568 net.cpp:141] Setting up inception_4b/3x3_reduce
I0403 13:31:41.447378 11568 net.cpp:148] Top shape: 24 112 14 14 (526848)
I0403 13:31:41.447393 11568 net.cpp:156] Memory required for data: 954332448
I0403 13:31:41.447412 11568 layer_factory.hpp:77] Creating layer inception_4b/relu_3x3_reduce
I0403 13:31:41.447432 11568 net.cpp:91] Creating Layer inception_4b/relu_3x3_reduce
I0403 13:31:41.447448 11568 net.cpp:425] inception_4b/relu_3x3_reduce <- inception_4b/3x3_reduce
I0403 13:31:41.447463 11568 net.cpp:386] inception_4b/relu_3x3_reduce -> inception_4b/3x3_reduce (in-place)
I0403 13:31:41.447746 11568 net.cpp:141] Setting up inception_4b/relu_3x3_reduce
I0403 13:31:41.447770 11568 net.cpp:148] Top shape: 24 112 14 14 (526848)
I0403 13:31:41.447785 11568 net.cpp:156] Memory required for data: 956439840
I0403 13:31:41.447799 11568 layer_factory.hpp:77] Creating layer inception_4b/3x3
I0403 13:31:41.447821 11568 net.cpp:91] Creating Layer inception_4b/3x3
I0403 13:31:41.447839 11568 net.cpp:425] inception_4b/3x3 <- inception_4b/3x3_reduce
I0403 13:31:41.447859 11568 net.cpp:399] inception_4b/3x3 -> inception_4b/3x3
I0403 13:31:41.450814 11568 net.cpp:141] Setting up inception_4b/3x3
I0403 13:31:41.450857 11568 net.cpp:148] Top shape: 24 224 14 14 (1053696)
I0403 13:31:41.450872 11568 net.cpp:156] Memory required for data: 960654624
I0403 13:31:41.450891 11568 layer_factory.hpp:77] Creating layer inception_4b/relu_3x3
I0403 13:31:41.450911 11568 net.cpp:91] Creating Layer inception_4b/relu_3x3
I0403 13:31:41.450927 11568 net.cpp:425] inception_4b/relu_3x3 <- inception_4b/3x3
I0403 13:31:41.450942 11568 net.cpp:386] inception_4b/relu_3x3 -> inception_4b/3x3 (in-place)
I0403 13:31:41.451119 11568 net.cpp:141] Setting up inception_4b/relu_3x3
I0403 13:31:41.451145 11568 net.cpp:148] Top shape: 24 224 14 14 (1053696)
I0403 13:31:41.451160 11568 net.cpp:156] Memory required for data: 964869408
I0403 13:31:41.451174 11568 layer_factory.hpp:77] Creating layer inception_4b/5x5_reduce
I0403 13:31:41.451195 11568 net.cpp:91] Creating Layer inception_4b/5x5_reduce
I0403 13:31:41.451211 11568 net.cpp:425] inception_4b/5x5_reduce <- inception_4a/output_inception_4a/output_0_split_3
I0403 13:31:41.451230 11568 net.cpp:399] inception_4b/5x5_reduce -> inception_4b/5x5_reduce
I0403 13:31:41.452332 11568 net.cpp:141] Setting up inception_4b/5x5_reduce
I0403 13:31:41.452359 11568 net.cpp:148] Top shape: 24 24 14 14 (112896)
I0403 13:31:41.452374 11568 net.cpp:156] Memory required for data: 965320992
I0403 13:31:41.452392 11568 layer_factory.hpp:77] Creating layer inception_4b/relu_5x5_reduce
I0403 13:31:41.452409 11568 net.cpp:91] Creating Layer inception_4b/relu_5x5_reduce
I0403 13:31:41.452440 11568 net.cpp:425] inception_4b/relu_5x5_reduce <- inception_4b/5x5_reduce
I0403 13:31:41.452461 11568 net.cpp:386] inception_4b/relu_5x5_reduce -> inception_4b/5x5_reduce (in-place)
I0403 13:31:41.452661 11568 net.cpp:141] Setting up inception_4b/relu_5x5_reduce
I0403 13:31:41.452684 11568 net.cpp:148] Top shape: 24 24 14 14 (112896)
I0403 13:31:41.452699 11568 net.cpp:156] Memory required for data: 965772576
I0403 13:31:41.452713 11568 layer_factory.hpp:77] Creating layer inception_4b/5x5
I0403 13:31:41.452734 11568 net.cpp:91] Creating Layer inception_4b/5x5
I0403 13:31:41.452751 11568 net.cpp:425] inception_4b/5x5 <- inception_4b/5x5_reduce
I0403 13:31:41.452771 11568 net.cpp:399] inception_4b/5x5 -> inception_4b/5x5
I0403 13:31:41.453979 11568 net.cpp:141] Setting up inception_4b/5x5
I0403 13:31:41.454008 11568 net.cpp:148] Top shape: 24 64 14 14 (301056)
I0403 13:31:41.454023 11568 net.cpp:156] Memory required for data: 966976800
I0403 13:31:41.454041 11568 layer_factory.hpp:77] Creating layer inception_4b/relu_5x5
I0403 13:31:41.454059 11568 net.cpp:91] Creating Layer inception_4b/relu_5x5
I0403 13:31:41.454076 11568 net.cpp:425] inception_4b/relu_5x5 <- inception_4b/5x5
I0403 13:31:41.454095 11568 net.cpp:386] inception_4b/relu_5x5 -> inception_4b/5x5 (in-place)
I0403 13:31:41.454390 11568 net.cpp:141] Setting up inception_4b/relu_5x5
I0403 13:31:41.454418 11568 net.cpp:148] Top shape: 24 64 14 14 (301056)
I0403 13:31:41.454434 11568 net.cpp:156] Memory required for data: 968181024
I0403 13:31:41.454448 11568 layer_factory.hpp:77] Creating layer inception_4b/pool
I0403 13:31:41.454465 11568 net.cpp:91] Creating Layer inception_4b/pool
I0403 13:31:41.454483 11568 net.cpp:425] inception_4b/pool <- inception_4a/output_inception_4a/output_0_split_4
I0403 13:31:41.454501 11568 net.cpp:399] inception_4b/pool -> inception_4b/pool
I0403 13:31:41.454583 11568 net.cpp:141] Setting up inception_4b/pool
I0403 13:31:41.454607 11568 net.cpp:148] Top shape: 24 512 14 14 (2408448)
I0403 13:31:41.454620 11568 net.cpp:156] Memory required for data: 977814816
I0403 13:31:41.454634 11568 layer_factory.hpp:77] Creating layer inception_4b/pool_proj
I0403 13:31:41.454656 11568 net.cpp:91] Creating Layer inception_4b/pool_proj
I0403 13:31:41.454674 11568 net.cpp:425] inception_4b/pool_proj <- inception_4b/pool
I0403 13:31:41.454691 11568 net.cpp:399] inception_4b/pool_proj -> inception_4b/pool_proj
I0403 13:31:41.455914 11568 net.cpp:141] Setting up inception_4b/pool_proj
I0403 13:31:41.455940 11568 net.cpp:148] Top shape: 24 64 14 14 (301056)
I0403 13:31:41.455955 11568 net.cpp:156] Memory required for data: 979019040
I0403 13:31:41.455972 11568 layer_factory.hpp:77] Creating layer inception_4b/relu_pool_proj
I0403 13:31:41.455989 11568 net.cpp:91] Creating Layer inception_4b/relu_pool_proj
I0403 13:31:41.456006 11568 net.cpp:425] inception_4b/relu_pool_proj <- inception_4b/pool_proj
I0403 13:31:41.456024 11568 net.cpp:386] inception_4b/relu_pool_proj -> inception_4b/pool_proj (in-place)
I0403 13:31:41.456203 11568 net.cpp:141] Setting up inception_4b/relu_pool_proj
I0403 13:31:41.456228 11568 net.cpp:148] Top shape: 24 64 14 14 (301056)
I0403 13:31:41.456241 11568 net.cpp:156] Memory required for data: 980223264
I0403 13:31:41.456254 11568 layer_factory.hpp:77] Creating layer inception_4b/output
I0403 13:31:41.456274 11568 net.cpp:91] Creating Layer inception_4b/output
I0403 13:31:41.456290 11568 net.cpp:425] inception_4b/output <- inception_4b/1x1
I0403 13:31:41.456305 11568 net.cpp:425] inception_4b/output <- inception_4b/3x3
I0403 13:31:41.456320 11568 net.cpp:425] inception_4b/output <- inception_4b/5x5
I0403 13:31:41.456334 11568 net.cpp:425] inception_4b/output <- inception_4b/pool_proj
I0403 13:31:41.456351 11568 net.cpp:399] inception_4b/output -> inception_4b/output
I0403 13:31:41.456398 11568 net.cpp:141] Setting up inception_4b/output
I0403 13:31:41.456418 11568 net.cpp:148] Top shape: 24 512 14 14 (2408448)
I0403 13:31:41.456432 11568 net.cpp:156] Memory required for data: 989857056
I0403 13:31:41.456460 11568 layer_factory.hpp:77] Creating layer inception_4b/output_inception_4b/output_0_split
I0403 13:31:41.456477 11568 net.cpp:91] Creating Layer inception_4b/output_inception_4b/output_0_split
I0403 13:31:41.456492 11568 net.cpp:425] inception_4b/output_inception_4b/output_0_split <- inception_4b/output
I0403 13:31:41.456514 11568 net.cpp:399] inception_4b/output_inception_4b/output_0_split -> inception_4b/output_inception_4b/output_0_split_0
I0403 13:31:41.456535 11568 net.cpp:399] inception_4b/output_inception_4b/output_0_split -> inception_4b/output_inception_4b/output_0_split_1
I0403 13:31:41.456555 11568 net.cpp:399] inception_4b/output_inception_4b/output_0_split -> inception_4b/output_inception_4b/output_0_split_2
I0403 13:31:41.456573 11568 net.cpp:399] inception_4b/output_inception_4b/output_0_split -> inception_4b/output_inception_4b/output_0_split_3
I0403 13:31:41.456652 11568 net.cpp:141] Setting up inception_4b/output_inception_4b/output_0_split
I0403 13:31:41.456676 11568 net.cpp:148] Top shape: 24 512 14 14 (2408448)
I0403 13:31:41.456693 11568 net.cpp:148] Top shape: 24 512 14 14 (2408448)
I0403 13:31:41.456708 11568 net.cpp:148] Top shape: 24 512 14 14 (2408448)
I0403 13:31:41.456722 11568 net.cpp:148] Top shape: 24 512 14 14 (2408448)
I0403 13:31:41.456735 11568 net.cpp:156] Memory required for data: 1028392224
I0403 13:31:41.456748 11568 layer_factory.hpp:77] Creating layer inception_4c/1x1
I0403 13:31:41.456770 11568 net.cpp:91] Creating Layer inception_4c/1x1
I0403 13:31:41.456787 11568 net.cpp:425] inception_4c/1x1 <- inception_4b/output_inception_4b/output_0_split_0
I0403 13:31:41.456805 11568 net.cpp:399] inception_4c/1x1 -> inception_4c/1x1
I0403 13:31:41.458242 11568 net.cpp:141] Setting up inception_4c/1x1
I0403 13:31:41.458271 11568 net.cpp:148] Top shape: 24 128 14 14 (602112)
I0403 13:31:41.458286 11568 net.cpp:156] Memory required for data: 1030800672
I0403 13:31:41.458303 11568 layer_factory.hpp:77] Creating layer inception_4c/relu_1x1
I0403 13:31:41.458323 11568 net.cpp:91] Creating Layer inception_4c/relu_1x1
I0403 13:31:41.458338 11568 net.cpp:425] inception_4c/relu_1x1 <- inception_4c/1x1
I0403 13:31:41.458354 11568 net.cpp:386] inception_4c/relu_1x1 -> inception_4c/1x1 (in-place)
I0403 13:31:41.458541 11568 net.cpp:141] Setting up inception_4c/relu_1x1
I0403 13:31:41.458567 11568 net.cpp:148] Top shape: 24 128 14 14 (602112)
I0403 13:31:41.458582 11568 net.cpp:156] Memory required for data: 1033209120
I0403 13:31:41.458596 11568 layer_factory.hpp:77] Creating layer inception_4c/3x3_reduce
I0403 13:31:41.458617 11568 net.cpp:91] Creating Layer inception_4c/3x3_reduce
I0403 13:31:41.458636 11568 net.cpp:425] inception_4c/3x3_reduce <- inception_4b/output_inception_4b/output_0_split_1
I0403 13:31:41.458653 11568 net.cpp:399] inception_4c/3x3_reduce -> inception_4c/3x3_reduce
I0403 13:31:41.460603 11568 net.cpp:141] Setting up inception_4c/3x3_reduce
I0403 13:31:41.460635 11568 net.cpp:148] Top shape: 24 128 14 14 (602112)
I0403 13:31:41.460651 11568 net.cpp:156] Memory required for data: 1035617568
I0403 13:31:41.460669 11568 layer_factory.hpp:77] Creating layer inception_4c/relu_3x3_reduce
I0403 13:31:41.460686 11568 net.cpp:91] Creating Layer inception_4c/relu_3x3_reduce
I0403 13:31:41.460702 11568 net.cpp:425] inception_4c/relu_3x3_reduce <- inception_4c/3x3_reduce
I0403 13:31:41.460721 11568 net.cpp:386] inception_4c/relu_3x3_reduce -> inception_4c/3x3_reduce (in-place)
I0403 13:31:41.461019 11568 net.cpp:141] Setting up inception_4c/relu_3x3_reduce
I0403 13:31:41.461046 11568 net.cpp:148] Top shape: 24 128 14 14 (602112)
I0403 13:31:41.461061 11568 net.cpp:156] Memory required for data: 1038026016
I0403 13:31:41.461076 11568 layer_factory.hpp:77] Creating layer inception_4c/3x3
I0403 13:31:41.461097 11568 net.cpp:91] Creating Layer inception_4c/3x3
I0403 13:31:41.461115 11568 net.cpp:425] inception_4c/3x3 <- inception_4c/3x3_reduce
I0403 13:31:41.461133 11568 net.cpp:399] inception_4c/3x3 -> inception_4c/3x3
I0403 13:31:41.464699 11568 net.cpp:141] Setting up inception_4c/3x3
I0403 13:31:41.464740 11568 net.cpp:148] Top shape: 24 256 14 14 (1204224)
I0403 13:31:41.464756 11568 net.cpp:156] Memory required for data: 1042842912
I0403 13:31:41.464787 11568 layer_factory.hpp:77] Creating layer inception_4c/relu_3x3
I0403 13:31:41.464807 11568 net.cpp:91] Creating Layer inception_4c/relu_3x3
I0403 13:31:41.464823 11568 net.cpp:425] inception_4c/relu_3x3 <- inception_4c/3x3
I0403 13:31:41.464841 11568 net.cpp:386] inception_4c/relu_3x3 -> inception_4c/3x3 (in-place)
I0403 13:31:41.465020 11568 net.cpp:141] Setting up inception_4c/relu_3x3
I0403 13:31:41.465044 11568 net.cpp:148] Top shape: 24 256 14 14 (1204224)
I0403 13:31:41.465059 11568 net.cpp:156] Memory required for data: 1047659808
I0403 13:31:41.465072 11568 layer_factory.hpp:77] Creating layer inception_4c/5x5_reduce
I0403 13:31:41.465095 11568 net.cpp:91] Creating Layer inception_4c/5x5_reduce
I0403 13:31:41.465111 11568 net.cpp:425] inception_4c/5x5_reduce <- inception_4b/output_inception_4b/output_0_split_2
I0403 13:31:41.465132 11568 net.cpp:399] inception_4c/5x5_reduce -> inception_4c/5x5_reduce
I0403 13:31:41.466224 11568 net.cpp:141] Setting up inception_4c/5x5_reduce
I0403 13:31:41.466253 11568 net.cpp:148] Top shape: 24 24 14 14 (112896)
I0403 13:31:41.466269 11568 net.cpp:156] Memory required for data: 1048111392
I0403 13:31:41.466287 11568 layer_factory.hpp:77] Creating layer inception_4c/relu_5x5_reduce
I0403 13:31:41.466305 11568 net.cpp:91] Creating Layer inception_4c/relu_5x5_reduce
I0403 13:31:41.466318 11568 net.cpp:425] inception_4c/relu_5x5_reduce <- inception_4c/5x5_reduce
I0403 13:31:41.466337 11568 net.cpp:386] inception_4c/relu_5x5_reduce -> inception_4c/5x5_reduce (in-place)
I0403 13:31:41.466524 11568 net.cpp:141] Setting up inception_4c/relu_5x5_reduce
I0403 13:31:41.466548 11568 net.cpp:148] Top shape: 24 24 14 14 (112896)
I0403 13:31:41.466563 11568 net.cpp:156] Memory required for data: 1048562976
I0403 13:31:41.466578 11568 layer_factory.hpp:77] Creating layer inception_4c/5x5
I0403 13:31:41.466598 11568 net.cpp:91] Creating Layer inception_4c/5x5
I0403 13:31:41.466615 11568 net.cpp:425] inception_4c/5x5 <- inception_4c/5x5_reduce
I0403 13:31:41.466635 11568 net.cpp:399] inception_4c/5x5 -> inception_4c/5x5
I0403 13:31:41.467871 11568 net.cpp:141] Setting up inception_4c/5x5
I0403 13:31:41.467897 11568 net.cpp:148] Top shape: 24 64 14 14 (301056)
I0403 13:31:41.467913 11568 net.cpp:156] Memory required for data: 1049767200
I0403 13:31:41.467931 11568 layer_factory.hpp:77] Creating layer inception_4c/relu_5x5
I0403 13:31:41.467949 11568 net.cpp:91] Creating Layer inception_4c/relu_5x5
I0403 13:31:41.467965 11568 net.cpp:425] inception_4c/relu_5x5 <- inception_4c/5x5
I0403 13:31:41.467981 11568 net.cpp:386] inception_4c/relu_5x5 -> inception_4c/5x5 (in-place)
I0403 13:31:41.468262 11568 net.cpp:141] Setting up inception_4c/relu_5x5
I0403 13:31:41.468287 11568 net.cpp:148] Top shape: 24 64 14 14 (301056)
I0403 13:31:41.468302 11568 net.cpp:156] Memory required for data: 1050971424
I0403 13:31:41.468317 11568 layer_factory.hpp:77] Creating layer inception_4c/pool
I0403 13:31:41.468335 11568 net.cpp:91] Creating Layer inception_4c/pool
I0403 13:31:41.468353 11568 net.cpp:425] inception_4c/pool <- inception_4b/output_inception_4b/output_0_split_3
I0403 13:31:41.468369 11568 net.cpp:399] inception_4c/pool -> inception_4c/pool
I0403 13:31:41.468432 11568 net.cpp:141] Setting up inception_4c/pool
I0403 13:31:41.468456 11568 net.cpp:148] Top shape: 24 512 14 14 (2408448)
I0403 13:31:41.468469 11568 net.cpp:156] Memory required for data: 1060605216
I0403 13:31:41.468482 11568 layer_factory.hpp:77] Creating layer inception_4c/pool_proj
I0403 13:31:41.468503 11568 net.cpp:91] Creating Layer inception_4c/pool_proj
I0403 13:31:41.468525 11568 net.cpp:425] inception_4c/pool_proj <- inception_4c/pool
I0403 13:31:41.468545 11568 net.cpp:399] inception_4c/pool_proj -> inception_4c/pool_proj
I0403 13:31:41.469763 11568 net.cpp:141] Setting up inception_4c/pool_proj
I0403 13:31:41.469790 11568 net.cpp:148] Top shape: 24 64 14 14 (301056)
I0403 13:31:41.469818 11568 net.cpp:156] Memory required for data: 1061809440
I0403 13:31:41.469838 11568 layer_factory.hpp:77] Creating layer inception_4c/relu_pool_proj
I0403 13:31:41.469854 11568 net.cpp:91] Creating Layer inception_4c/relu_pool_proj
I0403 13:31:41.469871 11568 net.cpp:425] inception_4c/relu_pool_proj <- inception_4c/pool_proj
I0403 13:31:41.469888 11568 net.cpp:386] inception_4c/relu_pool_proj -> inception_4c/pool_proj (in-place)
I0403 13:31:41.470067 11568 net.cpp:141] Setting up inception_4c/relu_pool_proj
I0403 13:31:41.470090 11568 net.cpp:148] Top shape: 24 64 14 14 (301056)
I0403 13:31:41.470104 11568 net.cpp:156] Memory required for data: 1063013664
I0403 13:31:41.470118 11568 layer_factory.hpp:77] Creating layer inception_4c/output
I0403 13:31:41.470136 11568 net.cpp:91] Creating Layer inception_4c/output
I0403 13:31:41.470151 11568 net.cpp:425] inception_4c/output <- inception_4c/1x1
I0403 13:31:41.470167 11568 net.cpp:425] inception_4c/output <- inception_4c/3x3
I0403 13:31:41.470181 11568 net.cpp:425] inception_4c/output <- inception_4c/5x5
I0403 13:31:41.470196 11568 net.cpp:425] inception_4c/output <- inception_4c/pool_proj
I0403 13:31:41.470212 11568 net.cpp:399] inception_4c/output -> inception_4c/output
I0403 13:31:41.470257 11568 net.cpp:141] Setting up inception_4c/output
I0403 13:31:41.470280 11568 net.cpp:148] Top shape: 24 512 14 14 (2408448)
I0403 13:31:41.470295 11568 net.cpp:156] Memory required for data: 1072647456
I0403 13:31:41.470310 11568 layer_factory.hpp:77] Creating layer inception_4c/output_inception_4c/output_0_split
I0403 13:31:41.470326 11568 net.cpp:91] Creating Layer inception_4c/output_inception_4c/output_0_split
I0403 13:31:41.470341 11568 net.cpp:425] inception_4c/output_inception_4c/output_0_split <- inception_4c/output
I0403 13:31:41.470360 11568 net.cpp:399] inception_4c/output_inception_4c/output_0_split -> inception_4c/output_inception_4c/output_0_split_0
I0403 13:31:41.470381 11568 net.cpp:399] inception_4c/output_inception_4c/output_0_split -> inception_4c/output_inception_4c/output_0_split_1
I0403 13:31:41.470399 11568 net.cpp:399] inception_4c/output_inception_4c/output_0_split -> inception_4c/output_inception_4c/output_0_split_2
I0403 13:31:41.470419 11568 net.cpp:399] inception_4c/output_inception_4c/output_0_split -> inception_4c/output_inception_4c/output_0_split_3
I0403 13:31:41.470500 11568 net.cpp:141] Setting up inception_4c/output_inception_4c/output_0_split
I0403 13:31:41.470540 11568 net.cpp:148] Top shape: 24 512 14 14 (2408448)
I0403 13:31:41.470556 11568 net.cpp:148] Top shape: 24 512 14 14 (2408448)
I0403 13:31:41.470571 11568 net.cpp:148] Top shape: 24 512 14 14 (2408448)
I0403 13:31:41.470585 11568 net.cpp:148] Top shape: 24 512 14 14 (2408448)
I0403 13:31:41.470597 11568 net.cpp:156] Memory required for data: 1111182624
I0403 13:31:41.470612 11568 layer_factory.hpp:77] Creating layer inception_4d/1x1
I0403 13:31:41.470633 11568 net.cpp:91] Creating Layer inception_4d/1x1
I0403 13:31:41.470649 11568 net.cpp:425] inception_4d/1x1 <- inception_4c/output_inception_4c/output_0_split_0
I0403 13:31:41.470666 11568 net.cpp:399] inception_4d/1x1 -> inception_4d/1x1
I0403 13:31:41.472100 11568 net.cpp:141] Setting up inception_4d/1x1
I0403 13:31:41.472131 11568 net.cpp:148] Top shape: 24 112 14 14 (526848)
I0403 13:31:41.472148 11568 net.cpp:156] Memory required for data: 1113290016
I0403 13:31:41.472167 11568 layer_factory.hpp:77] Creating layer inception_4d/relu_1x1
I0403 13:31:41.472185 11568 net.cpp:91] Creating Layer inception_4d/relu_1x1
I0403 13:31:41.472201 11568 net.cpp:425] inception_4d/relu_1x1 <- inception_4d/1x1
I0403 13:31:41.472218 11568 net.cpp:386] inception_4d/relu_1x1 -> inception_4d/1x1 (in-place)
I0403 13:31:41.472410 11568 net.cpp:141] Setting up inception_4d/relu_1x1
I0403 13:31:41.472440 11568 net.cpp:148] Top shape: 24 112 14 14 (526848)
I0403 13:31:41.472455 11568 net.cpp:156] Memory required for data: 1115397408
I0403 13:31:41.472470 11568 layer_factory.hpp:77] Creating layer inception_4d/3x3_reduce
I0403 13:31:41.472512 11568 net.cpp:91] Creating Layer inception_4d/3x3_reduce
I0403 13:31:41.472532 11568 net.cpp:425] inception_4d/3x3_reduce <- inception_4c/output_inception_4c/output_0_split_1
I0403 13:31:41.472553 11568 net.cpp:399] inception_4d/3x3_reduce -> inception_4d/3x3_reduce
I0403 13:31:41.474115 11568 net.cpp:141] Setting up inception_4d/3x3_reduce
I0403 13:31:41.474144 11568 net.cpp:148] Top shape: 24 144 14 14 (677376)
I0403 13:31:41.474159 11568 net.cpp:156] Memory required for data: 1118106912
I0403 13:31:41.474179 11568 layer_factory.hpp:77] Creating layer inception_4d/relu_3x3_reduce
I0403 13:31:41.474200 11568 net.cpp:91] Creating Layer inception_4d/relu_3x3_reduce
I0403 13:31:41.474216 11568 net.cpp:425] inception_4d/relu_3x3_reduce <- inception_4d/3x3_reduce
I0403 13:31:41.474233 11568 net.cpp:386] inception_4d/relu_3x3_reduce -> inception_4d/3x3_reduce (in-place)
I0403 13:31:41.474557 11568 net.cpp:141] Setting up inception_4d/relu_3x3_reduce
I0403 13:31:41.474584 11568 net.cpp:148] Top shape: 24 144 14 14 (677376)
I0403 13:31:41.474599 11568 net.cpp:156] Memory required for data: 1120816416
I0403 13:31:41.474614 11568 layer_factory.hpp:77] Creating layer inception_4d/3x3
I0403 13:31:41.474637 11568 net.cpp:91] Creating Layer inception_4d/3x3
I0403 13:31:41.474655 11568 net.cpp:425] inception_4d/3x3 <- inception_4d/3x3_reduce
I0403 13:31:41.474676 11568 net.cpp:399] inception_4d/3x3 -> inception_4d/3x3
I0403 13:31:41.479081 11568 net.cpp:141] Setting up inception_4d/3x3
I0403 13:31:41.479111 11568 net.cpp:148] Top shape: 24 288 14 14 (1354752)
I0403 13:31:41.479128 11568 net.cpp:156] Memory required for data: 1126235424
I0403 13:31:41.479147 11568 layer_factory.hpp:77] Creating layer inception_4d/relu_3x3
I0403 13:31:41.479166 11568 net.cpp:91] Creating Layer inception_4d/relu_3x3
I0403 13:31:41.479183 11568 net.cpp:425] inception_4d/relu_3x3 <- inception_4d/3x3
I0403 13:31:41.479203 11568 net.cpp:386] inception_4d/relu_3x3 -> inception_4d/3x3 (in-place)
I0403 13:31:41.479393 11568 net.cpp:141] Setting up inception_4d/relu_3x3
I0403 13:31:41.479419 11568 net.cpp:148] Top shape: 24 288 14 14 (1354752)
I0403 13:31:41.479434 11568 net.cpp:156] Memory required for data: 1131654432
I0403 13:31:41.479449 11568 layer_factory.hpp:77] Creating layer inception_4d/5x5_reduce
I0403 13:31:41.479472 11568 net.cpp:91] Creating Layer inception_4d/5x5_reduce
I0403 13:31:41.479490 11568 net.cpp:425] inception_4d/5x5_reduce <- inception_4c/output_inception_4c/output_0_split_2
I0403 13:31:41.479516 11568 net.cpp:399] inception_4d/5x5_reduce -> inception_4d/5x5_reduce
I0403 13:31:41.480705 11568 net.cpp:141] Setting up inception_4d/5x5_reduce
I0403 13:31:41.480736 11568 net.cpp:148] Top shape: 24 32 14 14 (150528)
I0403 13:31:41.480754 11568 net.cpp:156] Memory required for data: 1132256544
I0403 13:31:41.480773 11568 layer_factory.hpp:77] Creating layer inception_4d/relu_5x5_reduce
I0403 13:31:41.480792 11568 net.cpp:91] Creating Layer inception_4d/relu_5x5_reduce
I0403 13:31:41.480808 11568 net.cpp:425] inception_4d/relu_5x5_reduce <- inception_4d/5x5_reduce
I0403 13:31:41.480825 11568 net.cpp:386] inception_4d/relu_5x5_reduce -> inception_4d/5x5_reduce (in-place)
I0403 13:31:41.481022 11568 net.cpp:141] Setting up inception_4d/relu_5x5_reduce
I0403 13:31:41.481047 11568 net.cpp:148] Top shape: 24 32 14 14 (150528)
I0403 13:31:41.481063 11568 net.cpp:156] Memory required for data: 1132858656
I0403 13:31:41.481078 11568 layer_factory.hpp:77] Creating layer inception_4d/5x5
I0403 13:31:41.481102 11568 net.cpp:91] Creating Layer inception_4d/5x5
I0403 13:31:41.481122 11568 net.cpp:425] inception_4d/5x5 <- inception_4d/5x5_reduce
I0403 13:31:41.481142 11568 net.cpp:399] inception_4d/5x5 -> inception_4d/5x5
I0403 13:31:41.482664 11568 net.cpp:141] Setting up inception_4d/5x5
I0403 13:31:41.482692 11568 net.cpp:148] Top shape: 24 64 14 14 (301056)
I0403 13:31:41.482707 11568 net.cpp:156] Memory required for data: 1134062880
I0403 13:31:41.482727 11568 layer_factory.hpp:77] Creating layer inception_4d/relu_5x5
I0403 13:31:41.482763 11568 net.cpp:91] Creating Layer inception_4d/relu_5x5
I0403 13:31:41.482781 11568 net.cpp:425] inception_4d/relu_5x5 <- inception_4d/5x5
I0403 13:31:41.482797 11568 net.cpp:386] inception_4d/relu_5x5 -> inception_4d/5x5 (in-place)
I0403 13:31:41.483104 11568 net.cpp:141] Setting up inception_4d/relu_5x5
I0403 13:31:41.483131 11568 net.cpp:148] Top shape: 24 64 14 14 (301056)
I0403 13:31:41.483147 11568 net.cpp:156] Memory required for data: 1135267104
I0403 13:31:41.483163 11568 layer_factory.hpp:77] Creating layer inception_4d/pool
I0403 13:31:41.483181 11568 net.cpp:91] Creating Layer inception_4d/pool
I0403 13:31:41.483197 11568 net.cpp:425] inception_4d/pool <- inception_4c/output_inception_4c/output_0_split_3
I0403 13:31:41.483218 11568 net.cpp:399] inception_4d/pool -> inception_4d/pool
I0403 13:31:41.483286 11568 net.cpp:141] Setting up inception_4d/pool
I0403 13:31:41.483324 11568 net.cpp:148] Top shape: 24 512 14 14 (2408448)
I0403 13:31:41.483341 11568 net.cpp:156] Memory required for data: 1144900896
I0403 13:31:41.483356 11568 layer_factory.hpp:77] Creating layer inception_4d/pool_proj
I0403 13:31:41.483378 11568 net.cpp:91] Creating Layer inception_4d/pool_proj
I0403 13:31:41.483397 11568 net.cpp:425] inception_4d/pool_proj <- inception_4d/pool
I0403 13:31:41.483417 11568 net.cpp:399] inception_4d/pool_proj -> inception_4d/pool_proj
I0403 13:31:41.485247 11568 net.cpp:141] Setting up inception_4d/pool_proj
I0403 13:31:41.485282 11568 net.cpp:148] Top shape: 24 64 14 14 (301056)
I0403 13:31:41.485299 11568 net.cpp:156] Memory required for data: 1146105120
I0403 13:31:41.485317 11568 layer_factory.hpp:77] Creating layer inception_4d/relu_pool_proj
I0403 13:31:41.485337 11568 net.cpp:91] Creating Layer inception_4d/relu_pool_proj
I0403 13:31:41.485353 11568 net.cpp:425] inception_4d/relu_pool_proj <- inception_4d/pool_proj
I0403 13:31:41.485373 11568 net.cpp:386] inception_4d/relu_pool_proj -> inception_4d/pool_proj (in-place)
I0403 13:31:41.485574 11568 net.cpp:141] Setting up inception_4d/relu_pool_proj
I0403 13:31:41.485600 11568 net.cpp:148] Top shape: 24 64 14 14 (301056)
I0403 13:31:41.485615 11568 net.cpp:156] Memory required for data: 1147309344
I0403 13:31:41.485630 11568 layer_factory.hpp:77] Creating layer inception_4d/output
I0403 13:31:41.485647 11568 net.cpp:91] Creating Layer inception_4d/output
I0403 13:31:41.485664 11568 net.cpp:425] inception_4d/output <- inception_4d/1x1
I0403 13:31:41.485680 11568 net.cpp:425] inception_4d/output <- inception_4d/3x3
I0403 13:31:41.485697 11568 net.cpp:425] inception_4d/output <- inception_4d/5x5
I0403 13:31:41.485713 11568 net.cpp:425] inception_4d/output <- inception_4d/pool_proj
I0403 13:31:41.485733 11568 net.cpp:399] inception_4d/output -> inception_4d/output
I0403 13:31:41.485782 11568 net.cpp:141] Setting up inception_4d/output
I0403 13:31:41.485810 11568 net.cpp:148] Top shape: 24 528 14 14 (2483712)
I0403 13:31:41.485826 11568 net.cpp:156] Memory required for data: 1157244192
I0403 13:31:41.485841 11568 layer_factory.hpp:77] Creating layer inception_4d/output_inception_4d/output_0_split
I0403 13:31:41.485857 11568 net.cpp:91] Creating Layer inception_4d/output_inception_4d/output_0_split
I0403 13:31:41.485873 11568 net.cpp:425] inception_4d/output_inception_4d/output_0_split <- inception_4d/output
I0403 13:31:41.485891 11568 net.cpp:399] inception_4d/output_inception_4d/output_0_split -> inception_4d/output_inception_4d/output_0_split_0
I0403 13:31:41.485913 11568 net.cpp:399] inception_4d/output_inception_4d/output_0_split -> inception_4d/output_inception_4d/output_0_split_1
I0403 13:31:41.485935 11568 net.cpp:399] inception_4d/output_inception_4d/output_0_split -> inception_4d/output_inception_4d/output_0_split_2
I0403 13:31:41.485957 11568 net.cpp:399] inception_4d/output_inception_4d/output_0_split -> inception_4d/output_inception_4d/output_0_split_3
I0403 13:31:41.485977 11568 net.cpp:399] inception_4d/output_inception_4d/output_0_split -> inception_4d/output_inception_4d/output_0_split_4
I0403 13:31:41.486084 11568 net.cpp:141] Setting up inception_4d/output_inception_4d/output_0_split
I0403 13:31:41.486122 11568 net.cpp:148] Top shape: 24 528 14 14 (2483712)
I0403 13:31:41.486140 11568 net.cpp:148] Top shape: 24 528 14 14 (2483712)
I0403 13:31:41.486160 11568 net.cpp:148] Top shape: 24 528 14 14 (2483712)
I0403 13:31:41.486176 11568 net.cpp:148] Top shape: 24 528 14 14 (2483712)
I0403 13:31:41.486191 11568 net.cpp:148] Top shape: 24 528 14 14 (2483712)
I0403 13:31:41.486205 11568 net.cpp:156] Memory required for data: 1206918432
I0403 13:31:41.486219 11568 layer_factory.hpp:77] Creating layer loss2/ave_pool
I0403 13:31:41.486238 11568 net.cpp:91] Creating Layer loss2/ave_pool
I0403 13:31:41.486254 11568 net.cpp:425] loss2/ave_pool <- inception_4d/output_inception_4d/output_0_split_0
I0403 13:31:41.486273 11568 net.cpp:399] loss2/ave_pool -> loss2/ave_pool
I0403 13:31:41.486603 11568 net.cpp:141] Setting up loss2/ave_pool
I0403 13:31:41.486634 11568 net.cpp:148] Top shape: 24 528 4 4 (202752)
I0403 13:31:41.486651 11568 net.cpp:156] Memory required for data: 1207729440
I0403 13:31:41.486666 11568 layer_factory.hpp:77] Creating layer loss2/conv
I0403 13:31:41.486690 11568 net.cpp:91] Creating Layer loss2/conv
I0403 13:31:41.486706 11568 net.cpp:425] loss2/conv <- loss2/ave_pool
I0403 13:31:41.486728 11568 net.cpp:399] loss2/conv -> loss2/conv
I0403 13:31:41.488755 11568 net.cpp:141] Setting up loss2/conv
I0403 13:31:41.488782 11568 net.cpp:148] Top shape: 24 128 4 4 (49152)
I0403 13:31:41.488797 11568 net.cpp:156] Memory required for data: 1207926048
I0403 13:31:41.488816 11568 layer_factory.hpp:77] Creating layer loss2/relu_conv
I0403 13:31:41.488833 11568 net.cpp:91] Creating Layer loss2/relu_conv
I0403 13:31:41.488849 11568 net.cpp:425] loss2/relu_conv <- loss2/conv
I0403 13:31:41.488868 11568 net.cpp:386] loss2/relu_conv -> loss2/conv (in-place)
I0403 13:31:41.489159 11568 net.cpp:141] Setting up loss2/relu_conv
I0403 13:31:41.489186 11568 net.cpp:148] Top shape: 24 128 4 4 (49152)
I0403 13:31:41.489202 11568 net.cpp:156] Memory required for data: 1208122656
I0403 13:31:41.489215 11568 layer_factory.hpp:77] Creating layer loss2/fc
I0403 13:31:41.489234 11568 net.cpp:91] Creating Layer loss2/fc
I0403 13:31:41.489301 11568 net.cpp:425] loss2/fc <- loss2/conv
I0403 13:31:41.489329 11568 net.cpp:399] loss2/fc -> loss2/fc
I0403 13:31:41.506817 11568 net.cpp:141] Setting up loss2/fc
I0403 13:31:41.506855 11568 net.cpp:148] Top shape: 24 1024 (24576)
I0403 13:31:41.506870 11568 net.cpp:156] Memory required for data: 1208220960
I0403 13:31:41.506889 11568 layer_factory.hpp:77] Creating layer loss2/relu_fc
I0403 13:31:41.506908 11568 net.cpp:91] Creating Layer loss2/relu_fc
I0403 13:31:41.506924 11568 net.cpp:425] loss2/relu_fc <- loss2/fc
I0403 13:31:41.506942 11568 net.cpp:386] loss2/relu_fc -> loss2/fc (in-place)
I0403 13:31:41.507282 11568 net.cpp:141] Setting up loss2/relu_fc
I0403 13:31:41.507311 11568 net.cpp:148] Top shape: 24 1024 (24576)
I0403 13:31:41.507328 11568 net.cpp:156] Memory required for data: 1208319264
I0403 13:31:41.507344 11568 layer_factory.hpp:77] Creating layer loss2/drop_fc
I0403 13:31:41.507361 11568 net.cpp:91] Creating Layer loss2/drop_fc
I0403 13:31:41.507377 11568 net.cpp:425] loss2/drop_fc <- loss2/fc
I0403 13:31:41.507395 11568 net.cpp:386] loss2/drop_fc -> loss2/fc (in-place)
I0403 13:31:41.507447 11568 net.cpp:141] Setting up loss2/drop_fc
I0403 13:31:41.507470 11568 net.cpp:148] Top shape: 24 1024 (24576)
I0403 13:31:41.507493 11568 net.cpp:156] Memory required for data: 1208417568
I0403 13:31:41.507511 11568 layer_factory.hpp:77] Creating layer loss2/classifier_plantvillage
I0403 13:31:41.507534 11568 net.cpp:91] Creating Layer loss2/classifier_plantvillage
I0403 13:31:41.507563 11568 net.cpp:425] loss2/classifier_plantvillage <- loss2/fc
I0403 13:31:41.507581 11568 net.cpp:399] loss2/classifier_plantvillage -> loss2/classifier_plantvillage
I0403 13:31:41.507995 11568 net.cpp:141] Setting up loss2/classifier_plantvillage
I0403 13:31:41.508019 11568 net.cpp:148] Top shape: 24 38 (912)
I0403 13:31:41.508059 11568 net.cpp:156] Memory required for data: 1208421216
I0403 13:31:41.508076 11568 layer_factory.hpp:77] Creating layer loss2/classifier_plantvillage_loss2/classifier_plantvillage_0_split
I0403 13:31:41.508095 11568 net.cpp:91] Creating Layer loss2/classifier_plantvillage_loss2/classifier_plantvillage_0_split
I0403 13:31:41.508110 11568 net.cpp:425] loss2/classifier_plantvillage_loss2/classifier_plantvillage_0_split <- loss2/classifier_plantvillage
I0403 13:31:41.508129 11568 net.cpp:399] loss2/classifier_plantvillage_loss2/classifier_plantvillage_0_split -> loss2/classifier_plantvillage_loss2/classifier_plantvillage_0_split_0
I0403 13:31:41.508149 11568 net.cpp:399] loss2/classifier_plantvillage_loss2/classifier_plantvillage_0_split -> loss2/classifier_plantvillage_loss2/classifier_plantvillage_0_split_1
I0403 13:31:41.508170 11568 net.cpp:399] loss2/classifier_plantvillage_loss2/classifier_plantvillage_0_split -> loss2/classifier_plantvillage_loss2/classifier_plantvillage_0_split_2
I0403 13:31:41.508250 11568 net.cpp:141] Setting up loss2/classifier_plantvillage_loss2/classifier_plantvillage_0_split
I0403 13:31:41.508275 11568 net.cpp:148] Top shape: 24 38 (912)
I0403 13:31:41.508290 11568 net.cpp:148] Top shape: 24 38 (912)
I0403 13:31:41.508304 11568 net.cpp:148] Top shape: 24 38 (912)
I0403 13:31:41.508317 11568 net.cpp:156] Memory required for data: 1208432160
I0403 13:31:41.508332 11568 layer_factory.hpp:77] Creating layer inception_4e/1x1
I0403 13:31:41.508353 11568 net.cpp:91] Creating Layer inception_4e/1x1
I0403 13:31:41.508371 11568 net.cpp:425] inception_4e/1x1 <- inception_4d/output_inception_4d/output_0_split_1
I0403 13:31:41.508389 11568 net.cpp:399] inception_4e/1x1 -> inception_4e/1x1
I0403 13:31:41.510268 11568 net.cpp:141] Setting up inception_4e/1x1
I0403 13:31:41.510296 11568 net.cpp:148] Top shape: 24 256 14 14 (1204224)
I0403 13:31:41.510311 11568 net.cpp:156] Memory required for data: 1213249056
I0403 13:31:41.510330 11568 layer_factory.hpp:77] Creating layer inception_4e/relu_1x1
I0403 13:31:41.510349 11568 net.cpp:91] Creating Layer inception_4e/relu_1x1
I0403 13:31:41.510366 11568 net.cpp:425] inception_4e/relu_1x1 <- inception_4e/1x1
I0403 13:31:41.510382 11568 net.cpp:386] inception_4e/relu_1x1 -> inception_4e/1x1 (in-place)
I0403 13:31:41.510685 11568 net.cpp:141] Setting up inception_4e/relu_1x1
I0403 13:31:41.510711 11568 net.cpp:148] Top shape: 24 256 14 14 (1204224)
I0403 13:31:41.510726 11568 net.cpp:156] Memory required for data: 1218065952
I0403 13:31:41.510741 11568 layer_factory.hpp:77] Creating layer inception_4e/3x3_reduce
I0403 13:31:41.510764 11568 net.cpp:91] Creating Layer inception_4e/3x3_reduce
I0403 13:31:41.510782 11568 net.cpp:425] inception_4e/3x3_reduce <- inception_4d/output_inception_4d/output_0_split_2
I0403 13:31:41.510812 11568 net.cpp:399] inception_4e/3x3_reduce -> inception_4e/3x3_reduce
I0403 13:31:41.512936 11568 net.cpp:141] Setting up inception_4e/3x3_reduce
I0403 13:31:41.512965 11568 net.cpp:148] Top shape: 24 160 14 14 (752640)
I0403 13:31:41.512981 11568 net.cpp:156] Memory required for data: 1221076512
I0403 13:31:41.513000 11568 layer_factory.hpp:77] Creating layer inception_4e/relu_3x3_reduce
I0403 13:31:41.513018 11568 net.cpp:91] Creating Layer inception_4e/relu_3x3_reduce
I0403 13:31:41.513034 11568 net.cpp:425] inception_4e/relu_3x3_reduce <- inception_4e/3x3_reduce
I0403 13:31:41.513052 11568 net.cpp:386] inception_4e/relu_3x3_reduce -> inception_4e/3x3_reduce (in-place)
I0403 13:31:41.513252 11568 net.cpp:141] Setting up inception_4e/relu_3x3_reduce
I0403 13:31:41.513278 11568 net.cpp:148] Top shape: 24 160 14 14 (752640)
I0403 13:31:41.513293 11568 net.cpp:156] Memory required for data: 1224087072
I0403 13:31:41.513309 11568 layer_factory.hpp:77] Creating layer inception_4e/3x3
I0403 13:31:41.513331 11568 net.cpp:91] Creating Layer inception_4e/3x3
I0403 13:31:41.513350 11568 net.cpp:425] inception_4e/3x3 <- inception_4e/3x3_reduce
I0403 13:31:41.513370 11568 net.cpp:399] inception_4e/3x3 -> inception_4e/3x3
I0403 13:31:41.518424 11568 net.cpp:141] Setting up inception_4e/3x3
I0403 13:31:41.518463 11568 net.cpp:148] Top shape: 24 320 14 14 (1505280)
I0403 13:31:41.518479 11568 net.cpp:156] Memory required for data: 1230108192
I0403 13:31:41.518497 11568 layer_factory.hpp:77] Creating layer inception_4e/relu_3x3
I0403 13:31:41.518529 11568 net.cpp:91] Creating Layer inception_4e/relu_3x3
I0403 13:31:41.518546 11568 net.cpp:425] inception_4e/relu_3x3 <- inception_4e/3x3
I0403 13:31:41.518563 11568 net.cpp:386] inception_4e/relu_3x3 -> inception_4e/3x3 (in-place)
I0403 13:31:41.518867 11568 net.cpp:141] Setting up inception_4e/relu_3x3
I0403 13:31:41.518896 11568 net.cpp:148] Top shape: 24 320 14 14 (1505280)
I0403 13:31:41.518913 11568 net.cpp:156] Memory required for data: 1236129312
I0403 13:31:41.518926 11568 layer_factory.hpp:77] Creating layer inception_4e/5x5_reduce
I0403 13:31:41.518950 11568 net.cpp:91] Creating Layer inception_4e/5x5_reduce
I0403 13:31:41.518968 11568 net.cpp:425] inception_4e/5x5_reduce <- inception_4d/output_inception_4d/output_0_split_3
I0403 13:31:41.518987 11568 net.cpp:399] inception_4e/5x5_reduce -> inception_4e/5x5_reduce
I0403 13:31:41.520076 11568 net.cpp:141] Setting up inception_4e/5x5_reduce
I0403 13:31:41.520104 11568 net.cpp:148] Top shape: 24 32 14 14 (150528)
I0403 13:31:41.520120 11568 net.cpp:156] Memory required for data: 1236731424
I0403 13:31:41.520138 11568 layer_factory.hpp:77] Creating layer inception_4e/relu_5x5_reduce
I0403 13:31:41.520158 11568 net.cpp:91] Creating Layer inception_4e/relu_5x5_reduce
I0403 13:31:41.520174 11568 net.cpp:425] inception_4e/relu_5x5_reduce <- inception_4e/5x5_reduce
I0403 13:31:41.520191 11568 net.cpp:386] inception_4e/relu_5x5_reduce -> inception_4e/5x5_reduce (in-place)
I0403 13:31:41.520495 11568 net.cpp:141] Setting up inception_4e/relu_5x5_reduce
I0403 13:31:41.520524 11568 net.cpp:148] Top shape: 24 32 14 14 (150528)
I0403 13:31:41.520540 11568 net.cpp:156] Memory required for data: 1237333536
I0403 13:31:41.520555 11568 layer_factory.hpp:77] Creating layer inception_4e/5x5
I0403 13:31:41.520594 11568 net.cpp:91] Creating Layer inception_4e/5x5
I0403 13:31:41.520613 11568 net.cpp:425] inception_4e/5x5 <- inception_4e/5x5_reduce
I0403 13:31:41.520633 11568 net.cpp:399] inception_4e/5x5 -> inception_4e/5x5
I0403 13:31:41.522491 11568 net.cpp:141] Setting up inception_4e/5x5
I0403 13:31:41.522537 11568 net.cpp:148] Top shape: 24 128 14 14 (602112)
I0403 13:31:41.522554 11568 net.cpp:156] Memory required for data: 1239741984
I0403 13:31:41.522572 11568 layer_factory.hpp:77] Creating layer inception_4e/relu_5x5
I0403 13:31:41.522590 11568 net.cpp:91] Creating Layer inception_4e/relu_5x5
I0403 13:31:41.522606 11568 net.cpp:425] inception_4e/relu_5x5 <- inception_4e/5x5
I0403 13:31:41.522625 11568 net.cpp:386] inception_4e/relu_5x5 -> inception_4e/5x5 (in-place)
I0403 13:31:41.522824 11568 net.cpp:141] Setting up inception_4e/relu_5x5
I0403 13:31:41.522848 11568 net.cpp:148] Top shape: 24 128 14 14 (602112)
I0403 13:31:41.522863 11568 net.cpp:156] Memory required for data: 1242150432
I0403 13:31:41.522878 11568 layer_factory.hpp:77] Creating layer inception_4e/pool
I0403 13:31:41.522897 11568 net.cpp:91] Creating Layer inception_4e/pool
I0403 13:31:41.522912 11568 net.cpp:425] inception_4e/pool <- inception_4d/output_inception_4d/output_0_split_4
I0403 13:31:41.522932 11568 net.cpp:399] inception_4e/pool -> inception_4e/pool
I0403 13:31:41.523002 11568 net.cpp:141] Setting up inception_4e/pool
I0403 13:31:41.523025 11568 net.cpp:148] Top shape: 24 528 14 14 (2483712)
I0403 13:31:41.523041 11568 net.cpp:156] Memory required for data: 1252085280
I0403 13:31:41.523054 11568 layer_factory.hpp:77] Creating layer inception_4e/pool_proj
I0403 13:31:41.523077 11568 net.cpp:91] Creating Layer inception_4e/pool_proj
I0403 13:31:41.523095 11568 net.cpp:425] inception_4e/pool_proj <- inception_4e/pool
I0403 13:31:41.523113 11568 net.cpp:399] inception_4e/pool_proj -> inception_4e/pool_proj
I0403 13:31:41.524632 11568 net.cpp:141] Setting up inception_4e/pool_proj
I0403 13:31:41.524675 11568 net.cpp:148] Top shape: 24 128 14 14 (602112)
I0403 13:31:41.524693 11568 net.cpp:156] Memory required for data: 1254493728
I0403 13:31:41.524710 11568 layer_factory.hpp:77] Creating layer inception_4e/relu_pool_proj
I0403 13:31:41.524729 11568 net.cpp:91] Creating Layer inception_4e/relu_pool_proj
I0403 13:31:41.524744 11568 net.cpp:425] inception_4e/relu_pool_proj <- inception_4e/pool_proj
I0403 13:31:41.524762 11568 net.cpp:386] inception_4e/relu_pool_proj -> inception_4e/pool_proj (in-place)
I0403 13:31:41.525054 11568 net.cpp:141] Setting up inception_4e/relu_pool_proj
I0403 13:31:41.525082 11568 net.cpp:148] Top shape: 24 128 14 14 (602112)
I0403 13:31:41.525097 11568 net.cpp:156] Memory required for data: 1256902176
I0403 13:31:41.525113 11568 layer_factory.hpp:77] Creating layer inception_4e/output
I0403 13:31:41.525131 11568 net.cpp:91] Creating Layer inception_4e/output
I0403 13:31:41.525147 11568 net.cpp:425] inception_4e/output <- inception_4e/1x1
I0403 13:31:41.525163 11568 net.cpp:425] inception_4e/output <- inception_4e/3x3
I0403 13:31:41.525178 11568 net.cpp:425] inception_4e/output <- inception_4e/5x5
I0403 13:31:41.525194 11568 net.cpp:425] inception_4e/output <- inception_4e/pool_proj
I0403 13:31:41.525210 11568 net.cpp:399] inception_4e/output -> inception_4e/output
I0403 13:31:41.525264 11568 net.cpp:141] Setting up inception_4e/output
I0403 13:31:41.525285 11568 net.cpp:148] Top shape: 24 832 14 14 (3913728)
I0403 13:31:41.525300 11568 net.cpp:156] Memory required for data: 1272557088
I0403 13:31:41.525315 11568 layer_factory.hpp:77] Creating layer pool4/3x3_s2
I0403 13:31:41.525333 11568 net.cpp:91] Creating Layer pool4/3x3_s2
I0403 13:31:41.525351 11568 net.cpp:425] pool4/3x3_s2 <- inception_4e/output
I0403 13:31:41.525368 11568 net.cpp:399] pool4/3x3_s2 -> pool4/3x3_s2
I0403 13:31:41.525439 11568 net.cpp:141] Setting up pool4/3x3_s2
I0403 13:31:41.525463 11568 net.cpp:148] Top shape: 24 832 7 7 (978432)
I0403 13:31:41.525477 11568 net.cpp:156] Memory required for data: 1276470816
I0403 13:31:41.525491 11568 layer_factory.hpp:77] Creating layer pool4/3x3_s2_pool4/3x3_s2_0_split
I0403 13:31:41.525512 11568 net.cpp:91] Creating Layer pool4/3x3_s2_pool4/3x3_s2_0_split
I0403 13:31:41.525529 11568 net.cpp:425] pool4/3x3_s2_pool4/3x3_s2_0_split <- pool4/3x3_s2
I0403 13:31:41.525549 11568 net.cpp:399] pool4/3x3_s2_pool4/3x3_s2_0_split -> pool4/3x3_s2_pool4/3x3_s2_0_split_0
I0403 13:31:41.525570 11568 net.cpp:399] pool4/3x3_s2_pool4/3x3_s2_0_split -> pool4/3x3_s2_pool4/3x3_s2_0_split_1
I0403 13:31:41.525590 11568 net.cpp:399] pool4/3x3_s2_pool4/3x3_s2_0_split -> pool4/3x3_s2_pool4/3x3_s2_0_split_2
I0403 13:31:41.525610 11568 net.cpp:399] pool4/3x3_s2_pool4/3x3_s2_0_split -> pool4/3x3_s2_pool4/3x3_s2_0_split_3
I0403 13:31:41.525699 11568 net.cpp:141] Setting up pool4/3x3_s2_pool4/3x3_s2_0_split
I0403 13:31:41.525724 11568 net.cpp:148] Top shape: 24 832 7 7 (978432)
I0403 13:31:41.525740 11568 net.cpp:148] Top shape: 24 832 7 7 (978432)
I0403 13:31:41.525755 11568 net.cpp:148] Top shape: 24 832 7 7 (978432)
I0403 13:31:41.525770 11568 net.cpp:148] Top shape: 24 832 7 7 (978432)
I0403 13:31:41.525784 11568 net.cpp:156] Memory required for data: 1292125728
I0403 13:31:41.525799 11568 layer_factory.hpp:77] Creating layer inception_5a/1x1
I0403 13:31:41.525820 11568 net.cpp:91] Creating Layer inception_5a/1x1
I0403 13:31:41.525837 11568 net.cpp:425] inception_5a/1x1 <- pool4/3x3_s2_pool4/3x3_s2_0_split_0
I0403 13:31:41.525857 11568 net.cpp:399] inception_5a/1x1 -> inception_5a/1x1
I0403 13:31:41.528847 11568 net.cpp:141] Setting up inception_5a/1x1
I0403 13:31:41.528877 11568 net.cpp:148] Top shape: 24 256 7 7 (301056)
I0403 13:31:41.528893 11568 net.cpp:156] Memory required for data: 1293329952
I0403 13:31:41.528913 11568 layer_factory.hpp:77] Creating layer inception_5a/relu_1x1
I0403 13:31:41.528931 11568 net.cpp:91] Creating Layer inception_5a/relu_1x1
I0403 13:31:41.528949 11568 net.cpp:425] inception_5a/relu_1x1 <- inception_5a/1x1
I0403 13:31:41.528969 11568 net.cpp:386] inception_5a/relu_1x1 -> inception_5a/1x1 (in-place)
I0403 13:31:41.529309 11568 net.cpp:141] Setting up inception_5a/relu_1x1
I0403 13:31:41.529336 11568 net.cpp:148] Top shape: 24 256 7 7 (301056)
I0403 13:31:41.529353 11568 net.cpp:156] Memory required for data: 1294534176
I0403 13:31:41.529368 11568 layer_factory.hpp:77] Creating layer inception_5a/3x3_reduce
I0403 13:31:41.529392 11568 net.cpp:91] Creating Layer inception_5a/3x3_reduce
I0403 13:31:41.529412 11568 net.cpp:425] inception_5a/3x3_reduce <- pool4/3x3_s2_pool4/3x3_s2_0_split_1
I0403 13:31:41.529434 11568 net.cpp:399] inception_5a/3x3_reduce -> inception_5a/3x3_reduce
I0403 13:31:41.532001 11568 net.cpp:141] Setting up inception_5a/3x3_reduce
I0403 13:31:41.532032 11568 net.cpp:148] Top shape: 24 160 7 7 (188160)
I0403 13:31:41.532047 11568 net.cpp:156] Memory required for data: 1295286816
I0403 13:31:41.532066 11568 layer_factory.hpp:77] Creating layer inception_5a/relu_3x3_reduce
I0403 13:31:41.532088 11568 net.cpp:91] Creating Layer inception_5a/relu_3x3_reduce
I0403 13:31:41.532105 11568 net.cpp:425] inception_5a/relu_3x3_reduce <- inception_5a/3x3_reduce
I0403 13:31:41.532122 11568 net.cpp:386] inception_5a/relu_3x3_reduce -> inception_5a/3x3_reduce (in-place)
I0403 13:31:41.532317 11568 net.cpp:141] Setting up inception_5a/relu_3x3_reduce
I0403 13:31:41.532343 11568 net.cpp:148] Top shape: 24 160 7 7 (188160)
I0403 13:31:41.532358 11568 net.cpp:156] Memory required for data: 1296039456
I0403 13:31:41.532373 11568 layer_factory.hpp:77] Creating layer inception_5a/3x3
I0403 13:31:41.532397 11568 net.cpp:91] Creating Layer inception_5a/3x3
I0403 13:31:41.532414 11568 net.cpp:425] inception_5a/3x3 <- inception_5a/3x3_reduce
I0403 13:31:41.532436 11568 net.cpp:399] inception_5a/3x3 -> inception_5a/3x3
I0403 13:31:41.537628 11568 net.cpp:141] Setting up inception_5a/3x3
I0403 13:31:41.537662 11568 net.cpp:148] Top shape: 24 320 7 7 (376320)
I0403 13:31:41.537679 11568 net.cpp:156] Memory required for data: 1297544736
I0403 13:31:41.537698 11568 layer_factory.hpp:77] Creating layer inception_5a/relu_3x3
I0403 13:31:41.537716 11568 net.cpp:91] Creating Layer inception_5a/relu_3x3
I0403 13:31:41.537734 11568 net.cpp:425] inception_5a/relu_3x3 <- inception_5a/3x3
I0403 13:31:41.537753 11568 net.cpp:386] inception_5a/relu_3x3 -> inception_5a/3x3 (in-place)
I0403 13:31:41.538055 11568 net.cpp:141] Setting up inception_5a/relu_3x3
I0403 13:31:41.538084 11568 net.cpp:148] Top shape: 24 320 7 7 (376320)
I0403 13:31:41.538100 11568 net.cpp:156] Memory required for data: 1299050016
I0403 13:31:41.538115 11568 layer_factory.hpp:77] Creating layer inception_5a/5x5_reduce
I0403 13:31:41.538139 11568 net.cpp:91] Creating Layer inception_5a/5x5_reduce
I0403 13:31:41.538158 11568 net.cpp:425] inception_5a/5x5_reduce <- pool4/3x3_s2_pool4/3x3_s2_0_split_2
I0403 13:31:41.538178 11568 net.cpp:399] inception_5a/5x5_reduce -> inception_5a/5x5_reduce
I0403 13:31:41.539392 11568 net.cpp:141] Setting up inception_5a/5x5_reduce
I0403 13:31:41.539422 11568 net.cpp:148] Top shape: 24 32 7 7 (37632)
I0403 13:31:41.539438 11568 net.cpp:156] Memory required for data: 1299200544
I0403 13:31:41.539456 11568 layer_factory.hpp:77] Creating layer inception_5a/relu_5x5_reduce
I0403 13:31:41.539474 11568 net.cpp:91] Creating Layer inception_5a/relu_5x5_reduce
I0403 13:31:41.539491 11568 net.cpp:425] inception_5a/relu_5x5_reduce <- inception_5a/5x5_reduce
I0403 13:31:41.539515 11568 net.cpp:386] inception_5a/relu_5x5_reduce -> inception_5a/5x5_reduce (in-place)
I0403 13:31:41.539825 11568 net.cpp:141] Setting up inception_5a/relu_5x5_reduce
I0403 13:31:41.539852 11568 net.cpp:148] Top shape: 24 32 7 7 (37632)
I0403 13:31:41.539868 11568 net.cpp:156] Memory required for data: 1299351072
I0403 13:31:41.539882 11568 layer_factory.hpp:77] Creating layer inception_5a/5x5
I0403 13:31:41.539906 11568 net.cpp:91] Creating Layer inception_5a/5x5
I0403 13:31:41.539926 11568 net.cpp:425] inception_5a/5x5 <- inception_5a/5x5_reduce
I0403 13:31:41.539947 11568 net.cpp:399] inception_5a/5x5 -> inception_5a/5x5
I0403 13:31:41.541734 11568 net.cpp:141] Setting up inception_5a/5x5
I0403 13:31:41.541779 11568 net.cpp:148] Top shape: 24 128 7 7 (150528)
I0403 13:31:41.541796 11568 net.cpp:156] Memory required for data: 1299953184
I0403 13:31:41.541815 11568 layer_factory.hpp:77] Creating layer inception_5a/relu_5x5
I0403 13:31:41.541833 11568 net.cpp:91] Creating Layer inception_5a/relu_5x5
I0403 13:31:41.541851 11568 net.cpp:425] inception_5a/relu_5x5 <- inception_5a/5x5
I0403 13:31:41.541870 11568 net.cpp:386] inception_5a/relu_5x5 -> inception_5a/5x5 (in-place)
I0403 13:31:41.542068 11568 net.cpp:141] Setting up inception_5a/relu_5x5
I0403 13:31:41.542093 11568 net.cpp:148] Top shape: 24 128 7 7 (150528)
I0403 13:31:41.542109 11568 net.cpp:156] Memory required for data: 1300555296
I0403 13:31:41.542122 11568 layer_factory.hpp:77] Creating layer inception_5a/pool
I0403 13:31:41.542140 11568 net.cpp:91] Creating Layer inception_5a/pool
I0403 13:31:41.542156 11568 net.cpp:425] inception_5a/pool <- pool4/3x3_s2_pool4/3x3_s2_0_split_3
I0403 13:31:41.542176 11568 net.cpp:399] inception_5a/pool -> inception_5a/pool
I0403 13:31:41.542251 11568 net.cpp:141] Setting up inception_5a/pool
I0403 13:31:41.542276 11568 net.cpp:148] Top shape: 24 832 7 7 (978432)
I0403 13:31:41.542290 11568 net.cpp:156] Memory required for data: 1304469024
I0403 13:31:41.542305 11568 layer_factory.hpp:77] Creating layer inception_5a/pool_proj
I0403 13:31:41.542328 11568 net.cpp:91] Creating Layer inception_5a/pool_proj
I0403 13:31:41.542346 11568 net.cpp:425] inception_5a/pool_proj <- inception_5a/pool
I0403 13:31:41.542367 11568 net.cpp:399] inception_5a/pool_proj -> inception_5a/pool_proj
I0403 13:31:41.544759 11568 net.cpp:141] Setting up inception_5a/pool_proj
I0403 13:31:41.544792 11568 net.cpp:148] Top shape: 24 128 7 7 (150528)
I0403 13:31:41.544809 11568 net.cpp:156] Memory required for data: 1305071136
I0403 13:31:41.544828 11568 layer_factory.hpp:77] Creating layer inception_5a/relu_pool_proj
I0403 13:31:41.544847 11568 net.cpp:91] Creating Layer inception_5a/relu_pool_proj
I0403 13:31:41.544863 11568 net.cpp:425] inception_5a/relu_pool_proj <- inception_5a/pool_proj
I0403 13:31:41.544881 11568 net.cpp:386] inception_5a/relu_pool_proj -> inception_5a/pool_proj (in-place)
I0403 13:31:41.545207 11568 net.cpp:141] Setting up inception_5a/relu_pool_proj
I0403 13:31:41.545239 11568 net.cpp:148] Top shape: 24 128 7 7 (150528)
I0403 13:31:41.545255 11568 net.cpp:156] Memory required for data: 1305673248
I0403 13:31:41.545269 11568 layer_factory.hpp:77] Creating layer inception_5a/output
I0403 13:31:41.545287 11568 net.cpp:91] Creating Layer inception_5a/output
I0403 13:31:41.545303 11568 net.cpp:425] inception_5a/output <- inception_5a/1x1
I0403 13:31:41.545320 11568 net.cpp:425] inception_5a/output <- inception_5a/3x3
I0403 13:31:41.545336 11568 net.cpp:425] inception_5a/output <- inception_5a/5x5
I0403 13:31:41.545351 11568 net.cpp:425] inception_5a/output <- inception_5a/pool_proj
I0403 13:31:41.545367 11568 net.cpp:399] inception_5a/output -> inception_5a/output
I0403 13:31:41.545418 11568 net.cpp:141] Setting up inception_5a/output
I0403 13:31:41.545442 11568 net.cpp:148] Top shape: 24 832 7 7 (978432)
I0403 13:31:41.545457 11568 net.cpp:156] Memory required for data: 1309586976
I0403 13:31:41.545471 11568 layer_factory.hpp:77] Creating layer inception_5a/output_inception_5a/output_0_split
I0403 13:31:41.545497 11568 net.cpp:91] Creating Layer inception_5a/output_inception_5a/output_0_split
I0403 13:31:41.545518 11568 net.cpp:425] inception_5a/output_inception_5a/output_0_split <- inception_5a/output
I0403 13:31:41.545536 11568 net.cpp:399] inception_5a/output_inception_5a/output_0_split -> inception_5a/output_inception_5a/output_0_split_0
I0403 13:31:41.545557 11568 net.cpp:399] inception_5a/output_inception_5a/output_0_split -> inception_5a/output_inception_5a/output_0_split_1
I0403 13:31:41.545577 11568 net.cpp:399] inception_5a/output_inception_5a/output_0_split -> inception_5a/output_inception_5a/output_0_split_2
I0403 13:31:41.545596 11568 net.cpp:399] inception_5a/output_inception_5a/output_0_split -> inception_5a/output_inception_5a/output_0_split_3
I0403 13:31:41.545711 11568 net.cpp:141] Setting up inception_5a/output_inception_5a/output_0_split
I0403 13:31:41.545734 11568 net.cpp:148] Top shape: 24 832 7 7 (978432)
I0403 13:31:41.545750 11568 net.cpp:148] Top shape: 24 832 7 7 (978432)
I0403 13:31:41.545765 11568 net.cpp:148] Top shape: 24 832 7 7 (978432)
I0403 13:31:41.545780 11568 net.cpp:148] Top shape: 24 832 7 7 (978432)
I0403 13:31:41.545794 11568 net.cpp:156] Memory required for data: 1325241888
I0403 13:31:41.545807 11568 layer_factory.hpp:77] Creating layer inception_5b/1x1
I0403 13:31:41.545830 11568 net.cpp:91] Creating Layer inception_5b/1x1
I0403 13:31:41.545846 11568 net.cpp:425] inception_5b/1x1 <- inception_5a/output_inception_5a/output_0_split_0
I0403 13:31:41.545867 11568 net.cpp:399] inception_5b/1x1 -> inception_5b/1x1
I0403 13:31:41.549654 11568 net.cpp:141] Setting up inception_5b/1x1
I0403 13:31:41.549685 11568 net.cpp:148] Top shape: 24 384 7 7 (451584)
I0403 13:31:41.549700 11568 net.cpp:156] Memory required for data: 1327048224
I0403 13:31:41.549718 11568 layer_factory.hpp:77] Creating layer inception_5b/relu_1x1
I0403 13:31:41.549738 11568 net.cpp:91] Creating Layer inception_5b/relu_1x1
I0403 13:31:41.549756 11568 net.cpp:425] inception_5b/relu_1x1 <- inception_5b/1x1
I0403 13:31:41.549773 11568 net.cpp:386] inception_5b/relu_1x1 -> inception_5b/1x1 (in-place)
I0403 13:31:41.550081 11568 net.cpp:141] Setting up inception_5b/relu_1x1
I0403 13:31:41.550107 11568 net.cpp:148] Top shape: 24 384 7 7 (451584)
I0403 13:31:41.550123 11568 net.cpp:156] Memory required for data: 1328854560
I0403 13:31:41.550137 11568 layer_factory.hpp:77] Creating layer inception_5b/3x3_reduce
I0403 13:31:41.550161 11568 net.cpp:91] Creating Layer inception_5b/3x3_reduce
I0403 13:31:41.550180 11568 net.cpp:425] inception_5b/3x3_reduce <- inception_5a/output_inception_5a/output_0_split_1
I0403 13:31:41.550200 11568 net.cpp:399] inception_5b/3x3_reduce -> inception_5b/3x3_reduce
I0403 13:31:41.552898 11568 net.cpp:141] Setting up inception_5b/3x3_reduce
I0403 13:31:41.552929 11568 net.cpp:148] Top shape: 24 192 7 7 (225792)
I0403 13:31:41.552947 11568 net.cpp:156] Memory required for data: 1329757728
I0403 13:31:41.552964 11568 layer_factory.hpp:77] Creating layer inception_5b/relu_3x3_reduce
I0403 13:31:41.552983 11568 net.cpp:91] Creating Layer inception_5b/relu_3x3_reduce
I0403 13:31:41.553001 11568 net.cpp:425] inception_5b/relu_3x3_reduce <- inception_5b/3x3_reduce
I0403 13:31:41.553017 11568 net.cpp:386] inception_5b/relu_3x3_reduce -> inception_5b/3x3_reduce (in-place)
I0403 13:31:41.553210 11568 net.cpp:141] Setting up inception_5b/relu_3x3_reduce
I0403 13:31:41.553236 11568 net.cpp:148] Top shape: 24 192 7 7 (225792)
I0403 13:31:41.553251 11568 net.cpp:156] Memory required for data: 1330660896
I0403 13:31:41.553264 11568 layer_factory.hpp:77] Creating layer inception_5b/3x3
I0403 13:31:41.553287 11568 net.cpp:91] Creating Layer inception_5b/3x3
I0403 13:31:41.553303 11568 net.cpp:425] inception_5b/3x3 <- inception_5b/3x3_reduce
I0403 13:31:41.553325 11568 net.cpp:399] inception_5b/3x3 -> inception_5b/3x3
I0403 13:31:41.560039 11568 net.cpp:141] Setting up inception_5b/3x3
I0403 13:31:41.560070 11568 net.cpp:148] Top shape: 24 384 7 7 (451584)
I0403 13:31:41.560087 11568 net.cpp:156] Memory required for data: 1332467232
I0403 13:31:41.560104 11568 layer_factory.hpp:77] Creating layer inception_5b/relu_3x3
I0403 13:31:41.560122 11568 net.cpp:91] Creating Layer inception_5b/relu_3x3
I0403 13:31:41.560139 11568 net.cpp:425] inception_5b/relu_3x3 <- inception_5b/3x3
I0403 13:31:41.560156 11568 net.cpp:386] inception_5b/relu_3x3 -> inception_5b/3x3 (in-place)
I0403 13:31:41.560456 11568 net.cpp:141] Setting up inception_5b/relu_3x3
I0403 13:31:41.560487 11568 net.cpp:148] Top shape: 24 384 7 7 (451584)
I0403 13:31:41.560503 11568 net.cpp:156] Memory required for data: 1334273568
I0403 13:31:41.560521 11568 layer_factory.hpp:77] Creating layer inception_5b/5x5_reduce
I0403 13:31:41.560564 11568 net.cpp:91] Creating Layer inception_5b/5x5_reduce
I0403 13:31:41.560583 11568 net.cpp:425] inception_5b/5x5_reduce <- inception_5a/output_inception_5a/output_0_split_2
I0403 13:31:41.560602 11568 net.cpp:399] inception_5b/5x5_reduce -> inception_5b/5x5_reduce
I0403 13:31:41.561879 11568 net.cpp:141] Setting up inception_5b/5x5_reduce
I0403 13:31:41.561909 11568 net.cpp:148] Top shape: 24 48 7 7 (56448)
I0403 13:31:41.561926 11568 net.cpp:156] Memory required for data: 1334499360
I0403 13:31:41.561944 11568 layer_factory.hpp:77] Creating layer inception_5b/relu_5x5_reduce
I0403 13:31:41.561962 11568 net.cpp:91] Creating Layer inception_5b/relu_5x5_reduce
I0403 13:31:41.561980 11568 net.cpp:425] inception_5b/relu_5x5_reduce <- inception_5b/5x5_reduce
I0403 13:31:41.561998 11568 net.cpp:386] inception_5b/relu_5x5_reduce -> inception_5b/5x5_reduce (in-place)
I0403 13:31:41.562371 11568 net.cpp:141] Setting up inception_5b/relu_5x5_reduce
I0403 13:31:41.562397 11568 net.cpp:148] Top shape: 24 48 7 7 (56448)
I0403 13:31:41.562413 11568 net.cpp:156] Memory required for data: 1334725152
I0403 13:31:41.562427 11568 layer_factory.hpp:77] Creating layer inception_5b/5x5
I0403 13:31:41.562448 11568 net.cpp:91] Creating Layer inception_5b/5x5
I0403 13:31:41.562464 11568 net.cpp:425] inception_5b/5x5 <- inception_5b/5x5_reduce
I0403 13:31:41.562482 11568 net.cpp:399] inception_5b/5x5 -> inception_5b/5x5
I0403 13:31:41.564589 11568 net.cpp:141] Setting up inception_5b/5x5
I0403 13:31:41.564617 11568 net.cpp:148] Top shape: 24 128 7 7 (150528)
I0403 13:31:41.564632 11568 net.cpp:156] Memory required for data: 1335327264
I0403 13:31:41.564651 11568 layer_factory.hpp:77] Creating layer inception_5b/relu_5x5
I0403 13:31:41.564668 11568 net.cpp:91] Creating Layer inception_5b/relu_5x5
I0403 13:31:41.564685 11568 net.cpp:425] inception_5b/relu_5x5 <- inception_5b/5x5
I0403 13:31:41.564704 11568 net.cpp:386] inception_5b/relu_5x5 -> inception_5b/5x5 (in-place)
I0403 13:31:41.564898 11568 net.cpp:141] Setting up inception_5b/relu_5x5
I0403 13:31:41.564924 11568 net.cpp:148] Top shape: 24 128 7 7 (150528)
I0403 13:31:41.564939 11568 net.cpp:156] Memory required for data: 1335929376
I0403 13:31:41.564954 11568 layer_factory.hpp:77] Creating layer inception_5b/pool
I0403 13:31:41.564973 11568 net.cpp:91] Creating Layer inception_5b/pool
I0403 13:31:41.564991 11568 net.cpp:425] inception_5b/pool <- inception_5a/output_inception_5a/output_0_split_3
I0403 13:31:41.565009 11568 net.cpp:399] inception_5b/pool -> inception_5b/pool
I0403 13:31:41.565083 11568 net.cpp:141] Setting up inception_5b/pool
I0403 13:31:41.565107 11568 net.cpp:148] Top shape: 24 832 7 7 (978432)
I0403 13:31:41.565122 11568 net.cpp:156] Memory required for data: 1339843104
I0403 13:31:41.565135 11568 layer_factory.hpp:77] Creating layer inception_5b/pool_proj
I0403 13:31:41.565157 11568 net.cpp:91] Creating Layer inception_5b/pool_proj
I0403 13:31:41.565176 11568 net.cpp:425] inception_5b/pool_proj <- inception_5b/pool
I0403 13:31:41.565196 11568 net.cpp:399] inception_5b/pool_proj -> inception_5b/pool_proj
I0403 13:31:41.567530 11568 net.cpp:141] Setting up inception_5b/pool_proj
I0403 13:31:41.567561 11568 net.cpp:148] Top shape: 24 128 7 7 (150528)
I0403 13:31:41.567579 11568 net.cpp:156] Memory required for data: 1340445216
I0403 13:31:41.567597 11568 layer_factory.hpp:77] Creating layer inception_5b/relu_pool_proj
I0403 13:31:41.567615 11568 net.cpp:91] Creating Layer inception_5b/relu_pool_proj
I0403 13:31:41.567631 11568 net.cpp:425] inception_5b/relu_pool_proj <- inception_5b/pool_proj
I0403 13:31:41.567651 11568 net.cpp:386] inception_5b/relu_pool_proj -> inception_5b/pool_proj (in-place)
I0403 13:31:41.567950 11568 net.cpp:141] Setting up inception_5b/relu_pool_proj
I0403 13:31:41.567978 11568 net.cpp:148] Top shape: 24 128 7 7 (150528)
I0403 13:31:41.567994 11568 net.cpp:156] Memory required for data: 1341047328
I0403 13:31:41.568009 11568 layer_factory.hpp:77] Creating layer inception_5b/output
I0403 13:31:41.568027 11568 net.cpp:91] Creating Layer inception_5b/output
I0403 13:31:41.568061 11568 net.cpp:425] inception_5b/output <- inception_5b/1x1
I0403 13:31:41.568079 11568 net.cpp:425] inception_5b/output <- inception_5b/3x3
I0403 13:31:41.568095 11568 net.cpp:425] inception_5b/output <- inception_5b/5x5
I0403 13:31:41.568110 11568 net.cpp:425] inception_5b/output <- inception_5b/pool_proj
I0403 13:31:41.568130 11568 net.cpp:399] inception_5b/output -> inception_5b/output
I0403 13:31:41.568181 11568 net.cpp:141] Setting up inception_5b/output
I0403 13:31:41.568205 11568 net.cpp:148] Top shape: 24 1024 7 7 (1204224)
I0403 13:31:41.568220 11568 net.cpp:156] Memory required for data: 1345864224
I0403 13:31:41.568234 11568 layer_factory.hpp:77] Creating layer pool5/7x7_s1
I0403 13:31:41.568254 11568 net.cpp:91] Creating Layer pool5/7x7_s1
I0403 13:31:41.568271 11568 net.cpp:425] pool5/7x7_s1 <- inception_5b/output
I0403 13:31:41.568289 11568 net.cpp:399] pool5/7x7_s1 -> pool5/7x7_s1
I0403 13:31:41.568511 11568 net.cpp:141] Setting up pool5/7x7_s1
I0403 13:31:41.568537 11568 net.cpp:148] Top shape: 24 1024 1 1 (24576)
I0403 13:31:41.568553 11568 net.cpp:156] Memory required for data: 1345962528
I0403 13:31:41.568568 11568 layer_factory.hpp:77] Creating layer pool5/drop_7x7_s1
I0403 13:31:41.568585 11568 net.cpp:91] Creating Layer pool5/drop_7x7_s1
I0403 13:31:41.568601 11568 net.cpp:425] pool5/drop_7x7_s1 <- pool5/7x7_s1
I0403 13:31:41.568620 11568 net.cpp:386] pool5/drop_7x7_s1 -> pool5/7x7_s1 (in-place)
I0403 13:31:41.568671 11568 net.cpp:141] Setting up pool5/drop_7x7_s1
I0403 13:31:41.568694 11568 net.cpp:148] Top shape: 24 1024 1 1 (24576)
I0403 13:31:41.568708 11568 net.cpp:156] Memory required for data: 1346060832
I0403 13:31:41.568723 11568 layer_factory.hpp:77] Creating layer loss3/classifier_plantvillage
I0403 13:31:41.568744 11568 net.cpp:91] Creating Layer loss3/classifier_plantvillage
I0403 13:31:41.568761 11568 net.cpp:425] loss3/classifier_plantvillage <- pool5/7x7_s1
I0403 13:31:41.568781 11568 net.cpp:399] loss3/classifier_plantvillage -> loss3/classifier_plantvillage
I0403 13:31:41.569208 11568 net.cpp:141] Setting up loss3/classifier_plantvillage
I0403 13:31:41.569232 11568 net.cpp:148] Top shape: 24 38 (912)
I0403 13:31:41.569247 11568 net.cpp:156] Memory required for data: 1346064480
I0403 13:31:41.569264 11568 layer_factory.hpp:77] Creating layer loss3/classifier_plantvillage_loss3/classifier_plantvillage_0_split
I0403 13:31:41.569285 11568 net.cpp:91] Creating Layer loss3/classifier_plantvillage_loss3/classifier_plantvillage_0_split
I0403 13:31:41.569303 11568 net.cpp:425] loss3/classifier_plantvillage_loss3/classifier_plantvillage_0_split <- loss3/classifier_plantvillage
I0403 13:31:41.569320 11568 net.cpp:399] loss3/classifier_plantvillage_loss3/classifier_plantvillage_0_split -> loss3/classifier_plantvillage_loss3/classifier_plantvillage_0_split_0
I0403 13:31:41.569339 11568 net.cpp:399] loss3/classifier_plantvillage_loss3/classifier_plantvillage_0_split -> loss3/classifier_plantvillage_loss3/classifier_plantvillage_0_split_1
I0403 13:31:41.569360 11568 net.cpp:399] loss3/classifier_plantvillage_loss3/classifier_plantvillage_0_split -> loss3/classifier_plantvillage_loss3/classifier_plantvillage_0_split_2
I0403 13:31:41.569382 11568 net.cpp:399] loss3/classifier_plantvillage_loss3/classifier_plantvillage_0_split -> loss3/classifier_plantvillage_loss3/classifier_plantvillage_0_split_3
I0403 13:31:41.569485 11568 net.cpp:141] Setting up loss3/classifier_plantvillage_loss3/classifier_plantvillage_0_split
I0403 13:31:41.569512 11568 net.cpp:148] Top shape: 24 38 (912)
I0403 13:31:41.569530 11568 net.cpp:148] Top shape: 24 38 (912)
I0403 13:31:41.569545 11568 net.cpp:148] Top shape: 24 38 (912)
I0403 13:31:41.569560 11568 net.cpp:148] Top shape: 24 38 (912)
I0403 13:31:41.569572 11568 net.cpp:156] Memory required for data: 1346079072
I0403 13:31:41.569586 11568 layer_factory.hpp:77] Creating layer loss1/loss
I0403 13:31:41.569607 11568 net.cpp:91] Creating Layer loss1/loss
I0403 13:31:41.569624 11568 net.cpp:425] loss1/loss <- loss1/classifier_plantvillage_loss1/classifier_plantvillage_0_split_0
I0403 13:31:41.569656 11568 net.cpp:425] loss1/loss <- label_data_1_split_0
…
