…
I0403 14:38:03.382344 13470 net.cpp:313] The NetState phase (1) differed from the phase (0) specified by a rule in layer data
I0403 14:38:03.383574 13470 net.cpp:49] Initializing net from parameters: 
state {
  phase: TEST
}
layer {
  name: "data"
  type: "Data"
  top: "data"
  top: "label"
  include {
    phase: TEST
  }
  transform_param {
    mirror: false
    crop_size: 224
    mean_file: "/home/mohanty/data/final_dataset/lmdb/segmented-20-80/mean.binaryproto"
  }
  data_param {
    source: "/home/mohanty/data/final_dataset/lmdb/segmented-20-80/test_db"
    batch_size: 24
    backend: LMDB
  }
}
layer {
  name: "conv1/7x7_s2"
  type: "Convolution"
  bottom: "data"
  top: "conv1/7x7_s2"
  param {
    lr_mult: 1
    decay_mult: 1
  }
  param {
    lr_mult: 2
    decay_mult: 0
  }
  convolution_param {
    num_output: 64
    pad: 3
    kernel_size: 7
    stride: 2
    weight_filler {
      type: "xavier"
      std: 0.1
    }
    bias_filler {
      type: "constant"
      value: 0.2
    }
  }
}
layer {
  name: "conv1/relu_7x7"
  type: "ReLU"
  bottom: "conv1/7x7_s2"
  top: "conv1/7x7_s2"
}
layer {
  name: "pool1/3x3_s2"
  type: "Pooling"
  bottom: "conv1/7x7_s2"
  top: "pool1/3x3_s2"
  pooling_param {
    pool: MAX
    kernel_size: 3
    stride: 2
  }
}
layer {
  name: "pool1/norm1"
  type: "LRN"
  bottom: "pool1/3x3_s2"
  top: "pool1/norm1"
  lrn_param {
    local_size: 5
    alpha: 0.0001
    beta: 0.75
  }
}
layer {
  name: "conv2/3x3_reduce"
  type: "Convolution"
  bottom: "pool1/norm1"
  top: "conv2/3x3_reduce"
  param {
    lr_mult: 1
    decay_mult: 1
  }
  param {
    lr_mult: 2
    decay_mult: 0
  }
  convolution_param {
    num_output: 64
    kernel_size: 1
    weight_filler {
      type: "xavier"
      std: 0.1
    }
    bias_filler {
      type: "constant"
      value: 0.2
    }
  }
}
layer {
  name: "conv2/relu_3x3_reduce"
  type: "ReLU"
  bottom: "conv2/3x3_reduce"
  top: "conv2/3x3_reduce"
}
layer {
  name: "conv2/3x3"
  type: "Convolution"
  bottom: "conv2/3x3_reduce"
  top: "conv2/3x3"
  param {
    lr_mult: 1
    decay_mult: 1
  }
  param {
    lr_mult: 2
    decay_mult: 0
  }
  convolution_param {
    num_output: 192
    pad: 1
    kernel_size: 3
    weight_filler {
      type: "xavier"
      std: 0.03
    }
    bias_filler {
      type: "constant"
      value: 0.2
    }
  }
}
layer {
  name: "conv2/relu_3x3"
  type: "ReLU"
  bottom: "conv2/3x3"
  top: "conv2/3x3"
}
layer {
  name: "conv2/norm2"
  type: "LRN"
  bottom: "conv2/3x3"
  top: "conv2/norm2"
  lrn_param {
    local_size: 5
    alpha: 0.0001
    beta: 0.75
  }
}
layer {
  name: "pool2/3x3_s2"
  type: "Pooling"
  bottom: "conv2/norm2"
  top: "pool2/3x3_s2"
  pooling_param {
    pool: MAX
    kernel_size: 3
    stride: 2
  }
}
layer {
  name: "inception_3a/1x1"
  type: "Convolution"
  bottom: "pool2/3x3_s2"
  top: "inception_3a/1x1"
  param {
    lr_mult: 1
    decay_mult: 1
  }
  param {
    lr_mult: 2
    decay_mult: 0
  }
  convolution_param {
    num_output: 64
    kernel_size: 1
    weight_filler {
      type: "xavier"
      std: 0.03
    }
    bias_filler {
      type: "constant"
      value: 0.2
    }
  }
}
layer {
  name: "inception_3a/relu_1x1"
  type: "ReLU"
  bottom: "inception_3a/1x1"
  top: "inception_3a/1x1"
}
layer {
  name: "inception_3a/3x3_reduce"
  type: "Convolution"
  bottom: "pool2/3x3_s2"
  top: "inception_3a/3x3_reduce"
  param {
    lr_mult: 1
    decay_mult: 1
  }
  param {
    lr_mult: 2
    decay_mult: 0
  }
  convolution_param {
    num_output: 96
    kernel_size: 1
    weight_filler {
      type: "xavier"
      std: 0.09
    }
    bias_filler {
      type: "constant"
      value: 0.2
    }
  }
}
layer {
  name: "inception_3a/relu_3x3_reduce"
  type: "ReLU"
  bottom: "inception_3a/3x3_reduce"
  top: "inception_3a/3x3_reduce"
}
layer {
  name: "inception_3a/3x3"
  type: "Convolution"
  bottom: "inception_3a/3x3_reduce"
  top: "inception_3a/3x3"
  param {
    lr_mult: 1
    decay_mult: 1
  }
  param {
    lr_mult: 2
    decay_mult: 0
  }
  convolution_param {
    num_output: 128
    pad: 1
    kernel_size: 3
    weight_filler {
      type: "xavier"
      std: 0.03
    }
    bias_filler {
      type: "constant"
      value: 0.2
    }
  }
}
layer {
  name: "inception_3a/relu_3x3"
  type: "ReLU"
  bottom: "inception_3a/3x3"
  top: "inception_3a/3x3"
}
layer {
  name: "inception_3a/5x5_reduce"
  type: "Convolution"
  bottom: "pool2/3x3_s2"
  top: "inception_3a/5x5_reduce"
  param {
    lr_mult: 1
    decay_mult: 1
  }
  param {
    lr_mult: 2
    decay_mult: 0
  }
  convolution_param {
    num_output: 16
    kernel_size: 1
    weight_filler {
      type: "xavier"
      std: 0.2
    }
    bias_filler {
      type: "constant"
      value: 0.2
    }
  }
}
layer {
  name: "inception_3a/relu_5x5_reduce"
  type: "ReLU"
  bottom: "inception_3a/5x5_reduce"
  top: "inception_3a/5x5_reduce"
}
layer {
  name: "inception_3a/5x5"
  type: "Convolution"
  bottom: "inception_3a/5x5_reduce"
  top: "inception_3a/5x5"
  param {
    lr_mult: 1
    decay_mult: 1
  }
  param {
    lr_mult: 2
    decay_mult: 0
  }
  convolution_param {
    num_output: 32
    pad: 2
    kernel_size: 5
    weight_filler {
      type: "xavier"
      std: 0.03
    }
    bias_filler {
      type: "constant"
      value: 0.2
    }
  }
}
layer {
  name: "inception_3a/relu_5x5"
  type: "ReLU"
  bottom: "inception_3a/5x5"
  top: "inception_3a/5x5"
}
layer {
  name: "inception_3a/pool"
  type: "Pooling"
  bottom: "pool2/3x3_s2"
  top: "inception_3a/pool"
  pooling_param {
    pool: MAX
    kernel_size: 3
    stride: 1
    pad: 1
  }
}
layer {
  name: "inception_3a/pool_proj"
  type: "Convolution"
  bottom: "inception_3a/pool"
  top: "inception_3a/pool_proj"
  param {
    lr_mult: 1
    decay_mult: 1
  }
  param {
    lr_mult: 2
    decay_mult: 0
  }
  convolution_param {
    num_output: 32
    kernel_size: 1
    weight_filler {
      type: "xavier"
      std: 0.1
    }
    bias_filler {
      type: "constant"
      value: 0.2
    }
  }
}
layer {
  name: "inception_3a/relu_pool_proj"
  type: "ReLU"
  bottom: "inception_3a/pool_proj"
  top: "inception_3a/pool_proj"
}
layer {
  name: "inception_3a/output"
  type: "Concat"
  bottom: "inception_3a/1x1"
  bottom: "inception_3a/3x3"
  bottom: "inception_3a/5x5"
  bottom: "inception_3a/pool_proj"
  top: "inception_3a/output"
}
layer {
  name: "inception_3b/1x1"
  type: "Convolution"
  bottom: "inception_3a/output"
  top: "inception_3b/1x1"
  param {
    lr_mult: 1
    decay_mult: 1
  }
  param {
    lr_mult: 2
    decay_mult: 0
  }
  convolution_param {
    num_output: 128
    kernel_size: 1
    weight_filler {
      type: "xavier"
      std: 0.03
    }
    bias_filler {
      type: "constant"
      value: 0.2
    }
  }
}
layer {
  name: "inception_3b/relu_1x1"
  type: "ReLU"
  bottom: "inception_3b/1x1"
  top: "inception_3b/1x1"
}
layer {
  name: "inception_3b/3x3_reduce"
  type: "Convolution"
  bottom: "inception_3a/output"
  top: "inception_3b/3x3_reduce"
  param {
    lr_mult: 1
    decay_mult: 1
  }
  param {
    lr_mult: 2
    decay_mult: 0
  }
  convolution_param {
    num_output: 128
    kernel_size: 1
    weight_filler {
      type: "xavier"
      std: 0.09
    }
    bias_filler {
      type: "constant"
      value: 0.2
    }
  }
}
layer {
  name: "inception_3b/relu_3x3_reduce"
  type: "ReLU"
  bottom: "inception_3b/3x3_reduce"
  top: "inception_3b/3x3_reduce"
}
layer {
  name: "inception_3b/3x3"
  type: "Convolution"
  bottom: "inception_3b/3x3_reduce"
  top: "inception_3b/3x3"
  param {
    lr_mult: 1
    decay_mult: 1
  }
  param {
    lr_mult: 2
    decay_mult: 0
  }
  convolution_param {
    num_output: 192
    pad: 1
    kernel_size: 3
    weight_filler {
      type: "xavier"
      std: 0.03
    }
    bias_filler {
      type: "constant"
      value: 0.2
    }
  }
}
layer {
  name: "inception_3b/relu_3x3"
  type: "ReLU"
  bottom: "inception_3b/3x3"
  top: "inception_3b/3x3"
}
layer {
  name: "inception_3b/5x5_reduce"
  type: "Convolution"
  bottom: "inception_3a/output"
  top: "inception_3b/5x5_reduce"
  param {
    lr_mult: 1
    decay_mult: 1
  }
  param {
    lr_mult: 2
    decay_mult: 0
  }
  convolution_param {
    num_output: 32
    kernel_size: 1
    weight_filler {
      type: "xavier"
      std: 0.2
    }
    bias_filler {
      type: "constant"
      value: 0.2
    }
  }
}
layer {
  name: "inception_3b/relu_5x5_reduce"
  type: "ReLU"
  bottom: "inception_3b/5x5_reduce"
  top: "inception_3b/5x5_reduce"
}
layer {
  name: "inception_3b/5x5"
  type: "Convolution"
  bottom: "inception_3b/5x5_reduce"
  top: "inception_3b/5x5"
  param {
    lr_mult: 1
    decay_mult: 1
  }
  param {
    lr_mult: 2
    decay_mult: 0
  }
  convolution_param {
    num_output: 96
    pad: 2
    kernel_size: 5
    weight_filler {
      type: "xavier"
      std: 0.03
    }
    bias_filler {
      type: "constant"
      value: 0.2
    }
  }
}
layer {
  name: "inception_3b/relu_5x5"
  type: "ReLU"
  bottom: "inception_3b/5x5"
  top: "inception_3b/5x5"
}
layer {
  name: "inception_3b/pool"
  type: "Pooling"
  bottom: "inception_3a/output"
  top: "inception_3b/pool"
  pooling_param {
    pool: MAX
    kernel_size: 3
    stride: 1
    pad: 1
  }
}
layer {
  name: "inception_3b/pool_proj"
  type: "Convolution"
  bottom: "inception_3b/pool"
  top: "inception_3b/pool_proj"
  param {
    lr_mult: 1
    decay_mult: 1
  }
  param {
    lr_mult: 2
    decay_mult: 0
  }
  convolution_param {
    num_output: 64
    kernel_size: 1
    weight_filler {
      type: "xavier"
      std: 0.1
    }
    bias_filler {
      type: "constant"
      value: 0.2
    }
  }
}
layer {
  name: "inception_3b/relu_pool_proj"
  type: "ReLU"
  bottom: "inception_3b/pool_proj"
  top: "inception_3b/pool_proj"
}
layer {
  name: "inception_3b/output"
  type: "Concat"
  bottom: "inception_3b/1x1"
  bottom: "inception_3b/3x3"
  bottom: "inception_3b/5x5"
  bottom: "inception_3b/pool_proj"
  top: "inception_3b/output"
}
layer {
  name: "pool3/3x3_s2"
  type: "Pooling"
  bottom: "inception_3b/output"
  top: "pool3/3x3_s2"
  pooling_param {
    pool: MAX
    kernel_size: 3
    stride: 2
  }
}
layer {
  name: "inception_4a/1x1"
  type: "Convolution"
  bottom: "pool3/3x3_s2"
  top: "inception_4a/1x1"
  param {
    lr_mult: 1
    decay_mult: 1
  }
  param {
    lr_mult: 2
    decay_mult: 0
  }
  convolution_param {
    num_output: 192
    kernel_size: 1
    weight_filler {
      type: "xavier"
      std: 0.03
    }
    bias_filler {
      type: "constant"
      value: 0.2
    }
  }
}
layer {
  name: "inception_4a/relu_1x1"
  type: "ReLU"
  bottom: "inception_4a/1x1"
  top: "inception_4a/1x1"
}
layer {
  name: "inception_4a/3x3_reduce"
  type: "Convolution"
  bottom: "pool3/3x3_s2"
  top: "inception_4a/3x3_reduce"
  param {
    lr_mult: 1
    decay_mult: 1
  }
  param {
    lr_mult: 2
    decay_mult: 0
  }
  convolution_param {
    num_output: 96
    kernel_size: 1
    weight_filler {
      type: "xavier"
      std: 0.09
    }
    bias_filler {
      type: "constant"
      value: 0.2
    }
  }
}
layer {
  name: "inception_4a/relu_3x3_reduce"
  type: "ReLU"
  bottom: "inception_4a/3x3_reduce"
  top: "inception_4a/3x3_reduce"
}
layer {
  name: "inception_4a/3x3"
  type: "Convolution"
  bottom: "inception_4a/3x3_reduce"
  top: "inception_4a/3x3"
  param {
    lr_mult: 1
    decay_mult: 1
  }
  param {
    lr_mult: 2
    decay_mult: 0
  }
  convolution_param {
    num_output: 208
    pad: 1
    kernel_size: 3
    weight_filler {
      type: "xavier"
      std: 0.03
    }
    bias_filler {
      type: "constant"
      value: 0.2
    }
  }
}
layer {
  name: "inception_4a/relu_3x3"
  type: "ReLU"
  bottom: "inception_4a/3x3"
  top: "inception_4a/3x3"
}
layer {
  name: "inception_4a/5x5_reduce"
  type: "Convolution"
  bottom: "pool3/3x3_s2"
  top: "inception_4a/5x5_reduce"
  param {
    lr_mult: 1
    decay_mult: 1
  }
  param {
    lr_mult: 2
    decay_mult: 0
  }
  convolution_param {
    num_output: 16
    kernel_size: 1
    weight_filler {
      type: "xavier"
      std: 0.2
    }
    bias_filler {
      type: "constant"
      value: 0.2
    }
  }
}
layer {
  name: "inception_4a/relu_5x5_reduce"
  type: "ReLU"
  bottom: "inception_4a/5x5_reduce"
  top: "inception_4a/5x5_reduce"
}
layer {
  name: "inception_4a/5x5"
  type: "Convolution"
  bottom: "inception_4a/5x5_reduce"
  top: "inception_4a/5x5"
  param {
    lr_mult: 1
    decay_mult: 1
  }
  param {
    lr_mult: 2
    decay_mult: 0
  }
  convolution_param {
    num_output: 48
    pad: 2
    kernel_size: 5
    weight_filler {
      type: "xavier"
      std: 0.03
    }
    bias_filler {
      type: "constant"
      value: 0.2
    }
  }
}
layer {
  name: "inception_4a/relu_5x5"
  type: "ReLU"
  bottom: "inception_4a/5x5"
  top: "inception_4a/5x5"
}
layer {
  name: "inception_4a/pool"
  type: "Pooling"
  bottom: "pool3/3x3_s2"
  top: "inception_4a/pool"
  pooling_param {
    pool: MAX
    kernel_size: 3
    stride: 1
    pad: 1
  }
}
layer {
  name: "inception_4a/pool_proj"
  type: "Convolution"
  bottom: "inception_4a/pool"
  top: "inception_4a/pool_proj"
  param {
    lr_mult: 1
    decay_mult: 1
  }
  param {
    lr_mult: 2
    decay_mult: 0
  }
  convolution_param {
    num_output: 64
    kernel_size: 1
    weight_filler {
      type: "xavier"
      std: 0.1
    }
    bias_filler {
      type: "constant"
      value: 0.2
    }
  }
}
layer {
  name: "inception_4a/relu_pool_proj"
  type: "ReLU"
  bottom: "inception_4a/pool_proj"
  top: "inception_4a/pool_proj"
}
layer {
  name: "inception_4a/output"
  type: "Concat"
  bottom: "inception_4a/1x1"
  bottom: "inception_4a/3x3"
  bottom: "inception_4a/5x5"
  bottom: "inception_4a/pool_proj"
  top: "inception_4a/output"
}
layer {
  name: "loss1/ave_pool"
  type: "Pooling"
  bottom: "inception_4a/output"
  top: "loss1/ave_pool"
  pooling_param {
    pool: AVE
    kernel_size: 5
    stride: 3
  }
}
layer {
  name: "loss1/conv"
  type: "Convolution"
  bottom: "loss1/ave_pool"
  top: "loss1/conv"
  param {
    lr_mult: 1
    decay_mult: 1
  }
  param {
    lr_mult: 2
    decay_mult: 0
  }
  convolution_param {
    num_output: 128
    kernel_size: 1
    weight_filler {
      type: "xavier"
      std: 0.08
    }
    bias_filler {
      type: "constant"
      value: 0.2
    }
  }
}
layer {
  name: "loss1/relu_conv"
  type: "ReLU"
  bottom: "loss1/conv"
  top: "loss1/conv"
}
layer {
  name: "loss1/fc"
  type: "InnerProduct"
  bottom: "loss1/conv"
  top: "loss1/fc"
  param {
    lr_mult: 1
    decay_mult: 1
  }
  param {
    lr_mult: 2
    decay_mult: 0
  }
  inner_product_param {
    num_output: 1024
    weight_filler {
      type: "xavier"
      std: 0.02
    }
    bias_filler {
      type: "constant"
      value: 0.2
    }
  }
}
layer {
  name: "loss1/relu_fc"
  type: "ReLU"
  bottom: "loss1/fc"
  top: "loss1/fc"
}
layer {
  name: "loss1/drop_fc"
  type: "Dropout"
  bottom: "loss1/fc"
  top: "loss1/fc"
  dropout_param {
    dropout_ratio: 0.7
  }
}
layer {
  name: "loss1/classifier_plantvillage"
  type: "InnerProduct"
  bottom: "loss1/fc"
  top: "loss1/classifier_plantvillage"
  param {
    lr_mult: 1
    decay_mult: 1
  }
  param {
    lr_mult: 2
    decay_mult: 0
  }
  inner_product_param {
    num_output: 38
    weight_filler {
      type: "xavier"
      std: 0.0009765625
    }
    bias_filler {
      type: "constant"
      value: 0
    }
  }
}
layer {
  name: "inception_4b/1x1"
  type: "Convolution"
  bottom: "inception_4a/output"
  top: "inception_4b/1x1"
  param {
    lr_mult: 1
    decay_mult: 1
  }
  param {
    lr_mult: 2
    decay_mult: 0
  }
  convolution_param {
    num_output: 160
    kernel_size: 1
    weight_filler {
      type: "xavier"
      std: 0.03
    }
    bias_filler {
      type: "constant"
      value: 0.2
    }
  }
}
layer {
  name: "inception_4b/relu_1x1"
  type: "ReLU"
  bottom: "inception_4b/1x1"
  top: "inception_4b/1x1"
}
layer {
  name: "inception_4b/3x3_reduce"
  type: "Convolution"
  bottom: "inception_4a/output"
  top: "inception_4b/3x3_reduce"
  param {
    lr_mult: 1
    decay_mult: 1
  }
  param {
    lr_mult: 2
    decay_mult: 0
  }
  convolution_param {
    num_output: 112
    kernel_size: 1
    weight_filler {
      type: "xavier"
      std: 0.09
    }
    bias_filler {
      type: "constant"
      value: 0.2
    }
  }
}
layer {
  name: "inception_4b/relu_3x3_reduce"
  type: "ReLU"
  bottom: "inception_4b/3x3_reduce"
  top: "inception_4b/3x3_reduce"
}
layer {
  name: "inception_4b/3x3"
  type: "Convolution"
  bottom: "inception_4b/3x3_reduce"
  top: "inception_4b/3x3"
  param {
    lr_mult: 1
    decay_mult: 1
  }
  param {
    lr_mult: 2
    decay_mult: 0
  }
  convolution_param {
    num_output: 224
    pad: 1
    kernel_size: 3
    weight_filler {
      type: "xavier"
      std: 0.03
    }
    bias_filler {
      type: "constant"
      value: 0.2
    }
  }
}
layer {
  name: "inception_4b/relu_3x3"
  type: "ReLU"
  bottom: "inception_4b/3x3"
  top: "inception_4b/3x3"
}
layer {
  name: "inception_4b/5x5_reduce"
  type: "Convolution"
  bottom: "inception_4a/output"
  top: "inception_4b/5x5_reduce"
  param {
    lr_mult: 1
    decay_mult: 1
  }
  param {
    lr_mult: 2
    decay_mult: 0
  }
  convolution_param {
    num_output: 24
    kernel_size: 1
    weight_filler {
      type: "xavier"
      std: 0.2
    }
    bias_filler {
      type: "constant"
      value: 0.2
    }
  }
}
layer {
  name: "inception_4b/relu_5x5_reduce"
  type: "ReLU"
  bottom: "inception_4b/5x5_reduce"
  top: "inception_4b/5x5_reduce"
}
layer {
  name: "inception_4b/5x5"
  type: "Convolution"
  bottom: "inception_4b/5x5_reduce"
  top: "inception_4b/5x5"
  param {
    lr_mult: 1
    decay_mult: 1
  }
  param {
    lr_mult: 2
    decay_mult: 0
  }
  convolution_param {
    num_output: 64
    pad: 2
    kernel_size: 5
    weight_filler {
      type: "xavier"
      std: 0.03
    }
    bias_filler {
      type: "constant"
      value: 0.2
    }
  }
}
layer {
  name: "inception_4b/relu_5x5"
  type: "ReLU"
  bottom: "inception_4b/5x5"
  top: "inception_4b/5x5"
}
layer {
  name: "inception_4b/pool"
  type: "Pooling"
  bottom: "inception_4a/output"
  top: "inception_4b/pool"
  pooling_param {
    pool: MAX
    kernel_size: 3
    stride: 1
    pad: 1
  }
}
layer {
  name: "inception_4b/pool_proj"
  type: "Convolution"
  bottom: "inception_4b/pool"
  top: "inception_4b/pool_proj"
  param {
    lr_mult: 1
    decay_mult: 1
  }
  param {
    lr_mult: 2
    decay_mult: 0
  }
  convolution_param {
    num_output: 64
    kernel_size: 1
    weight_filler {
      type: "xavier"
      std: 0.1
    }
    bias_filler {
      type: "constant"
      value: 0.2
    }
  }
}
layer {
  name: "inception_4b/relu_pool_proj"
  type: "ReLU"
  bottom: "inception_4b/pool_proj"
  top: "inception_4b/pool_proj"
}
layer {
  name: "inception_4b/output"
  type: "Concat"
  bottom: "inception_4b/1x1"
  bottom: "inception_4b/3x3"
  bottom: "inception_4b/5x5"
  bottom: "inception_4b/pool_proj"
  top: "inception_4b/output"
}
layer {
  name: "inception_4c/1x1"
  type: "Convolution"
  bottom: "inception_4b/output"
  top: "inception_4c/1x1"
  param {
    lr_mult: 1
    decay_mult: 1
  }
  param {
    lr_mult: 2
    decay_mult: 0
  }
  convolution_param {
    num_output: 128
    kernel_size: 1
    weight_filler {
      type: "xavier"
      std: 0.03
    }
    bias_filler {
      type: "constant"
      value: 0.2
    }
  }
}
layer {
  name: "inception_4c/relu_1x1"
  type: "ReLU"
  bottom: "inception_4c/1x1"
  top: "inception_4c/1x1"
}
layer {
  name: "inception_4c/3x3_reduce"
  type: "Convolution"
  bottom: "inception_4b/output"
  top: "inception_4c/3x3_reduce"
  param {
    lr_mult: 1
    decay_mult: 1
  }
  param {
    lr_mult: 2
    decay_mult: 0
  }
  convolution_param {
    num_output: 128
    kernel_size: 1
    weight_filler {
      type: "xavier"
      std: 0.09
    }
    bias_filler {
      type: "constant"
      value: 0.2
    }
  }
}
layer {
  name: "inception_4c/relu_3x3_reduce"
  type: "ReLU"
  bottom: "inception_4c/3x3_reduce"
  top: "inception_4c/3x3_reduce"
}
layer {
  name: "inception_4c/3x3"
  type: "Convolution"
  bottom: "inception_4c/3x3_reduce"
  top: "inception_4c/3x3"
  param {
    lr_mult: 1
    decay_mult: 1
  }
  param {
    lr_mult: 2
    decay_mult: 0
  }
  convolution_param {
    num_output: 256
    pad: 1
    kernel_size: 3
    weight_filler {
      type: "xavier"
      std: 0.03
    }
    bias_filler {
      type: "constant"
      value: 0.2
    }
  }
}
layer {
  name: "inception_4c/relu_3x3"
  type: "ReLU"
  bottom: "inception_4c/3x3"
  top: "inception_4c/3x3"
}
layer {
  name: "inception_4c/5x5_reduce"
  type: "Convolution"
  bottom: "inception_4b/output"
  top: "inception_4c/5x5_reduce"
  param {
    lr_mult: 1
    decay_mult: 1
  }
  param {
    lr_mult: 2
    decay_mult: 0
  }
  convolution_param {
    num_output: 24
    kernel_size: 1
    weight_filler {
      type: "xavier"
      std: 0.2
    }
    bias_filler {
      type: "constant"
      value: 0.2
    }
  }
}
layer {
  name: "inception_4c/relu_5x5_reduce"
  type: "ReLU"
  bottom: "inception_4c/5x5_reduce"
  top: "inception_4c/5x5_reduce"
}
layer {
  name: "inception_4c/5x5"
  type: "Convolution"
  bottom: "inception_4c/5x5_reduce"
  top: "inception_4c/5x5"
  param {
    lr_mult: 1
    decay_mult: 1
  }
  param {
    lr_mult: 2
    decay_mult: 0
  }
  convolution_param {
    num_output: 64
    pad: 2
    kernel_size: 5
    weight_filler {
      type: "xavier"
      std: 0.03
    }
    bias_filler {
      type: "constant"
      value: 0.2
    }
  }
}
layer {
  name: "inception_4c/relu_5x5"
  type: "ReLU"
  bottom: "inception_4c/5x5"
  top: "inception_4c/5x5"
}
layer {
  name: "inception_4c/pool"
  type: "Pooling"
  bottom: "inception_4b/output"
  top: "inception_4c/pool"
  pooling_param {
    pool: MAX
    kernel_size: 3
    stride: 1
    pad: 1
  }
}
layer {
  name: "inception_4c/pool_proj"
  type: "Convolution"
  bottom: "inception_4c/pool"
  top: "inception_4c/pool_proj"
  param {
    lr_mult: 1
    decay_mult: 1
  }
  param {
    lr_mult: 2
    decay_mult: 0
  }
  convolution_param {
    num_output: 64
    kernel_size: 1
    weight_filler {
      type: "xavier"
      std: 0.1
    }
    bias_filler {
      type: "constant"
      value: 0.2
    }
  }
}
layer {
  name: "inception_4c/relu_pool_proj"
  type: "ReLU"
  bottom: "inception_4c/pool_proj"
  top: "inception_4c/pool_proj"
}
layer {
  name: "inception_4c/output"
  type: "Concat"
  bottom: "inception_4c/1x1"
  bottom: "inception_4c/3x3"
  bottom: "inception_4c/5x5"
  bottom: "inception_4c/pool_proj"
  top: "inception_4c/output"
}
layer {
  name: "inception_4d/1x1"
  type: "Convolution"
  bottom: "inception_4c/output"
  top: "inception_4d/1x1"
  param {
    lr_mult: 1
    decay_mult: 1
  }
  param {
    lr_mult: 2
    decay_mult: 0
  }
  convolution_param {
    num_output: 112
    kernel_size: 1
    weight_filler {
      type: "xavier"
      std: 0.03
    }
    bias_filler {
      type: "constant"
      value: 0.2
    }
  }
}
layer {
  name: "inception_4d/relu_1x1"
  type: "ReLU"
  bottom: "inception_4d/1x1"
  top: "inception_4d/1x1"
}
layer {
  name: "inception_4d/3x3_reduce"
  type: "Convolution"
  bottom: "inception_4c/output"
  top: "inception_4d/3x3_reduce"
  param {
    lr_mult: 1
    decay_mult: 1
  }
  param {
    lr_mult: 2
    decay_mult: 0
  }
  convolution_param {
    num_output: 144
    kernel_size: 1
    weight_filler {
      type: "xavier"
      std: 0.09
    }
    bias_filler {
      type: "constant"
      value: 0.2
    }
  }
}
layer {
  name: "inception_4d/relu_3x3_reduce"
  type: "ReLU"
  bottom: "inception_4d/3x3_reduce"
  top: "inception_4d/3x3_reduce"
}
layer {
  name: "inception_4d/3x3"
  type: "Convolution"
  bottom: "inception_4d/3x3_reduce"
  top: "inception_4d/3x3"
  param {
    lr_mult: 1
    decay_mult: 1
  }
  param {
    lr_mult: 2
    decay_mult: 0
  }
  convolution_param {
    num_output: 288
    pad: 1
    kernel_size: 3
    weight_filler {
      type: "xavier"
      std: 0.03
    }
    bias_filler {
      type: "constant"
      value: 0.2
    }
  }
}
layer {
  name: "inception_4d/relu_3x3"
  type: "ReLU"
  bottom: "inception_4d/3x3"
  top: "inception_4d/3x3"
}
layer {
  name: "inception_4d/5x5_reduce"
  type: "Convolution"
  bottom: "inception_4c/output"
  top: "inception_4d/5x5_reduce"
  param {
    lr_mult: 1
    decay_mult: 1
  }
  param {
    lr_mult: 2
    decay_mult: 0
  }
  convolution_param {
    num_output: 32
    kernel_size: 1
    weight_filler {
      type: "xavier"
      std: 0.2
    }
    bias_filler {
      type: "constant"
      value: 0.2
    }
  }
}
layer {
  name: "inception_4d/relu_5x5_reduce"
  type: "ReLU"
  bottom: "inception_4d/5x5_reduce"
  top: "inception_4d/5x5_reduce"
}
layer {
  name: "inception_4d/5x5"
  type: "Convolution"
  bottom: "inception_4d/5x5_reduce"
  top: "inception_4d/5x5"
  param {
    lr_mult: 1
    decay_mult: 1
  }
  param {
    lr_mult: 2
    decay_mult: 0
  }
  convolution_param {
    num_output: 64
    pad: 2
    kernel_size: 5
    weight_filler {
      type: "xavier"
      std: 0.03
    }
    bias_filler {
      type: "constant"
      value: 0.2
    }
  }
}
layer {
  name: "inception_4d/relu_5x5"
  type: "ReLU"
  bottom: "inception_4d/5x5"
  top: "inception_4d/5x5"
}
layer {
  name: "inception_4d/pool"
  type: "Pooling"
  bottom: "inception_4c/output"
  top: "inception_4d/pool"
  pooling_param {
    pool: MAX
    kernel_size: 3
    stride: 1
    pad: 1
  }
}
layer {
  name: "inception_4d/pool_proj"
  type: "Convolution"
  bottom: "inception_4d/pool"
  top: "inception_4d/pool_proj"
  param {
    lr_mult: 1
    decay_mult: 1
  }
  param {
    lr_mult: 2
    decay_mult: 0
  }
  convolution_param {
    num_output: 64
    kernel_size: 1
    weight_filler {
      type: "xavier"
      std: 0.1
    }
    bias_filler {
      type: "constant"
      value: 0.2
    }
  }
}
layer {
  name: "inception_4d/relu_pool_proj"
  type: "ReLU"
  bottom: "inception_4d/pool_proj"
  top: "inception_4d/pool_proj"
}
layer {
  name: "inception_4d/output"
  type: "Concat"
  bottom: "inception_4d/1x1"
  bottom: "inception_4d/3x3"
  bottom: "inception_4d/5x5"
  bottom: "inception_4d/pool_proj"
  top: "inception_4d/output"
}
layer {
  name: "loss2/ave_pool"
  type: "Pooling"
  bottom: "inception_4d/output"
  top: "loss2/ave_pool"
  pooling_param {
    pool: AVE
    kernel_size: 5
    stride: 3
  }
}
layer {
  name: "loss2/conv"
  type: "Convolution"
  bottom: "loss2/ave_pool"
  top: "loss2/conv"
  param {
    lr_mult: 1
    decay_mult: 1
  }
  param {
    lr_mult: 2
    decay_mult: 0
  }
  convolution_param {
    num_output: 128
    kernel_size: 1
    weight_filler {
      type: "xavier"
      std: 0.08
    }
    bias_filler {
      type: "constant"
      value: 0.2
    }
  }
}
layer {
  name: "loss2/relu_conv"
  type: "ReLU"
  bottom: "loss2/conv"
  top: "loss2/conv"
}
layer {
  name: "loss2/fc"
  type: "InnerProduct"
  bottom: "loss2/conv"
  top: "loss2/fc"
  param {
    lr_mult: 1
    decay_mult: 1
  }
  param {
    lr_mult: 2
    decay_mult: 0
  }
  inner_product_param {
    num_output: 1024
    weight_filler {
      type: "xavier"
      std: 0.02
    }
    bias_filler {
      type: "constant"
      value: 0.2
    }
  }
}
layer {
  name: "loss2/relu_fc"
  type: "ReLU"
  bottom: "loss2/fc"
  top: "loss2/fc"
}
layer {
  name: "loss2/drop_fc"
  type: "Dropout"
  bottom: "loss2/fc"
  top: "loss2/fc"
  dropout_param {
    dropout_ratio: 0.7
  }
}
layer {
  name: "loss2/classifier_plantvillage"
  type: "InnerProduct"
  bottom: "loss2/fc"
  top: "loss2/classifier_plantvillage"
  param {
    lr_mult: 1
    decay_mult: 1
  }
  param {
    lr_mult: 2
    decay_mult: 0
  }
  inner_product_param {
    num_output: 38
    weight_filler {
      type: "xavier"
      std: 0.0009765625
    }
    bias_filler {
      type: "constant"
      value: 0
    }
  }
}
layer {
  name: "inception_4e/1x1"
  type: "Convolution"
  bottom: "inception_4d/output"
  top: "inception_4e/1x1"
  param {
    lr_mult: 1
    decay_mult: 1
  }
  param {
    lr_mult: 2
    decay_mult: 0
  }
  convolution_param {
    num_output: 256
    kernel_size: 1
    weight_filler {
      type: "xavier"
      std: 0.03
    }
    bias_filler {
      type: "constant"
      value: 0.2
    }
  }
}
layer {
  name: "inception_4e/relu_1x1"
  type: "ReLU"
  bottom: "inception_4e/1x1"
  top: "inception_4e/1x1"
}
layer {
  name: "inception_4e/3x3_reduce"
  type: "Convolution"
  bottom: "inception_4d/output"
  top: "inception_4e/3x3_reduce"
  param {
    lr_mult: 1
    decay_mult: 1
  }
  param {
    lr_mult: 2
    decay_mult: 0
  }
  convolution_param {
    num_output: 160
    kernel_size: 1
    weight_filler {
      type: "xavier"
      std: 0.09
    }
    bias_filler {
      type: "constant"
      value: 0.2
    }
  }
}
layer {
  name: "inception_4e/relu_3x3_reduce"
  type: "ReLU"
  bottom: "inception_4e/3x3_reduce"
  top: "inception_4e/3x3_reduce"
}
layer {
  name: "inception_4e/3x3"
  type: "Convolution"
  bottom: "inception_4e/3x3_reduce"
  top: "inception_4e/3x3"
  param {
    lr_mult: 1
    decay_mult: 1
  }
  param {
    lr_mult: 2
    decay_mult: 0
  }
  convolution_param {
    num_output: 320
    pad: 1
    kernel_size: 3
    weight_filler {
      type: "xavier"
      std: 0.03
    }
    bias_filler {
      type: "constant"
      value: 0.2
    }
  }
}
layer {
  name: "inception_4e/relu_3x3"
  type: "ReLU"
  bottom: "inception_4e/3x3"
  top: "inception_4e/3x3"
}
layer {
  name: "inception_4e/5x5_reduce"
  type: "Convolution"
  bottom: "inception_4d/output"
  top: "inception_4e/5x5_reduce"
  param {
    lr_mult: 1
    decay_mult: 1
  }
  param {
    lr_mult: 2
    decay_mult: 0
  }
  convolution_param {
    num_output: 32
    kernel_size: 1
    weight_filler {
      type: "xavier"
      std: 0.2
    }
    bias_filler {
      type: "constant"
      value: 0.2
    }
  }
}
layer {
  name: "inception_4e/relu_5x5_reduce"
  type: "ReLU"
  bottom: "inception_4e/5x5_reduce"
  top: "inception_4e/5x5_reduce"
}
layer {
  name: "inception_4e/5x5"
  type: "Convolution"
  bottom: "inception_4e/5x5_reduce"
  top: "inception_4e/
I0403 14:38:03.384860 13470 layer_factory.hpp:77] Creating layer data
I0403 14:38:03.385468 13470 net.cpp:91] Creating Layer data
I0403 14:38:03.385501 13470 net.cpp:399] data -> data
I0403 14:38:03.385557 13470 net.cpp:399] data -> label
I0403 14:38:03.385594 13470 data_transformer.cpp:25] Loading mean file from: /home/mohanty/data/final_dataset/lmdb/segmented-20-80/mean.binaryproto
I0403 14:38:03.388309 13474 db_lmdb.cpp:38] Opened lmdb /home/mohanty/data/final_dataset/lmdb/segmented-20-80/test_db
I0403 14:38:03.398452 13470 data_layer.cpp:41] output data size: 24,3,224,224
I0403 14:38:03.424459 13470 net.cpp:141] Setting up data
I0403 14:38:03.424533 13470 net.cpp:148] Top shape: 24 3 224 224 (3612672)
I0403 14:38:03.424566 13470 net.cpp:148] Top shape: 24 (24)
I0403 14:38:03.424582 13470 net.cpp:156] Memory required for data: 14450784
I0403 14:38:03.424608 13470 layer_factory.hpp:77] Creating layer label_data_1_split
I0403 14:38:03.424633 13470 net.cpp:91] Creating Layer label_data_1_split
I0403 14:38:03.424650 13470 net.cpp:425] label_data_1_split <- label
I0403 14:38:03.424681 13470 net.cpp:399] label_data_1_split -> label_data_1_split_0
I0403 14:38:03.424707 13470 net.cpp:399] label_data_1_split -> label_data_1_split_1
I0403 14:38:03.424728 13470 net.cpp:399] label_data_1_split -> label_data_1_split_2
I0403 14:38:03.424747 13470 net.cpp:399] label_data_1_split -> label_data_1_split_3
I0403 14:38:03.424767 13470 net.cpp:399] label_data_1_split -> label_data_1_split_4
I0403 14:38:03.424785 13470 net.cpp:399] label_data_1_split -> label_data_1_split_5
I0403 14:38:03.424803 13470 net.cpp:399] label_data_1_split -> label_data_1_split_6
I0403 14:38:03.424824 13470 net.cpp:399] label_data_1_split -> label_data_1_split_7
I0403 14:38:03.424842 13470 net.cpp:399] label_data_1_split -> label_data_1_split_8
I0403 14:38:03.424862 13470 net.cpp:399] label_data_1_split -> label_data_1_split_9
I0403 14:38:03.424983 13470 net.cpp:141] Setting up label_data_1_split
I0403 14:38:03.425005 13470 net.cpp:148] Top shape: 24 (24)
I0403 14:38:03.425021 13470 net.cpp:148] Top shape: 24 (24)
I0403 14:38:03.425036 13470 net.cpp:148] Top shape: 24 (24)
I0403 14:38:03.425051 13470 net.cpp:148] Top shape: 24 (24)
I0403 14:38:03.425066 13470 net.cpp:148] Top shape: 24 (24)
I0403 14:38:03.425081 13470 net.cpp:148] Top shape: 24 (24)
I0403 14:38:03.425096 13470 net.cpp:148] Top shape: 24 (24)
I0403 14:38:03.425110 13470 net.cpp:148] Top shape: 24 (24)
I0403 14:38:03.425125 13470 net.cpp:148] Top shape: 24 (24)
I0403 14:38:03.425142 13470 net.cpp:148] Top shape: 24 (24)
I0403 14:38:03.425186 13470 net.cpp:156] Memory required for data: 14451744
I0403 14:38:03.425202 13470 layer_factory.hpp:77] Creating layer conv1/7x7_s2
I0403 14:38:03.425232 13470 net.cpp:91] Creating Layer conv1/7x7_s2
I0403 14:38:03.425251 13470 net.cpp:425] conv1/7x7_s2 <- data
I0403 14:38:03.425271 13470 net.cpp:399] conv1/7x7_s2 -> conv1/7x7_s2
I0403 14:38:03.584388 13470 net.cpp:141] Setting up conv1/7x7_s2
I0403 14:38:03.584465 13470 net.cpp:148] Top shape: 24 64 112 112 (19267584)
I0403 14:38:03.584481 13470 net.cpp:156] Memory required for data: 91522080
I0403 14:38:03.584511 13470 layer_factory.hpp:77] Creating layer conv1/relu_7x7
I0403 14:38:03.584556 13470 net.cpp:91] Creating Layer conv1/relu_7x7
I0403 14:38:03.584578 13470 net.cpp:425] conv1/relu_7x7 <- conv1/7x7_s2
I0403 14:38:03.584595 13470 net.cpp:386] conv1/relu_7x7 -> conv1/7x7_s2 (in-place)
I0403 14:38:03.584868 13470 net.cpp:141] Setting up conv1/relu_7x7
I0403 14:38:03.584894 13470 net.cpp:148] Top shape: 24 64 112 112 (19267584)
I0403 14:38:03.584918 13470 net.cpp:156] Memory required for data: 168592416
I0403 14:38:03.584931 13470 layer_factory.hpp:77] Creating layer pool1/3x3_s2
I0403 14:38:03.584955 13470 net.cpp:91] Creating Layer pool1/3x3_s2
I0403 14:38:03.584971 13470 net.cpp:425] pool1/3x3_s2 <- conv1/7x7_s2
I0403 14:38:03.584990 13470 net.cpp:399] pool1/3x3_s2 -> pool1/3x3_s2
I0403 14:38:03.585062 13470 net.cpp:141] Setting up pool1/3x3_s2
I0403 14:38:03.585084 13470 net.cpp:148] Top shape: 24 64 56 56 (4816896)
I0403 14:38:03.585099 13470 net.cpp:156] Memory required for data: 187860000
I0403 14:38:03.585113 13470 layer_factory.hpp:77] Creating layer pool1/norm1
I0403 14:38:03.585137 13470 net.cpp:91] Creating Layer pool1/norm1
I0403 14:38:03.585155 13470 net.cpp:425] pool1/norm1 <- pool1/3x3_s2
I0403 14:38:03.585171 13470 net.cpp:399] pool1/norm1 -> pool1/norm1
I0403 14:38:03.585463 13470 net.cpp:141] Setting up pool1/norm1
I0403 14:38:03.585489 13470 net.cpp:148] Top shape: 24 64 56 56 (4816896)
I0403 14:38:03.585505 13470 net.cpp:156] Memory required for data: 207127584
I0403 14:38:03.585517 13470 layer_factory.hpp:77] Creating layer conv2/3x3_reduce
I0403 14:38:03.585549 13470 net.cpp:91] Creating Layer conv2/3x3_reduce
I0403 14:38:03.585566 13470 net.cpp:425] conv2/3x3_reduce <- pool1/norm1
I0403 14:38:03.585584 13470 net.cpp:399] conv2/3x3_reduce -> conv2/3x3_reduce
I0403 14:38:03.586943 13470 net.cpp:141] Setting up conv2/3x3_reduce
I0403 14:38:03.586972 13470 net.cpp:148] Top shape: 24 64 56 56 (4816896)
I0403 14:38:03.586988 13470 net.cpp:156] Memory required for data: 226395168
I0403 14:38:03.587008 13470 layer_factory.hpp:77] Creating layer conv2/relu_3x3_reduce
I0403 14:38:03.587028 13470 net.cpp:91] Creating Layer conv2/relu_3x3_reduce
I0403 14:38:03.587044 13470 net.cpp:425] conv2/relu_3x3_reduce <- conv2/3x3_reduce
I0403 14:38:03.587059 13470 net.cpp:386] conv2/relu_3x3_reduce -> conv2/3x3_reduce (in-place)
I0403 14:38:03.587316 13470 net.cpp:141] Setting up conv2/relu_3x3_reduce
I0403 14:38:03.587342 13470 net.cpp:148] Top shape: 24 64 56 56 (4816896)
I0403 14:38:03.587355 13470 net.cpp:156] Memory required for data: 245662752
I0403 14:38:03.587370 13470 layer_factory.hpp:77] Creating layer conv2/3x3
I0403 14:38:03.587393 13470 net.cpp:91] Creating Layer conv2/3x3
I0403 14:38:03.587410 13470 net.cpp:425] conv2/3x3 <- conv2/3x3_reduce
I0403 14:38:03.587431 13470 net.cpp:399] conv2/3x3 -> conv2/3x3
I0403 14:38:03.589653 13470 net.cpp:141] Setting up conv2/3x3
I0403 14:38:03.589684 13470 net.cpp:148] Top shape: 24 192 56 56 (14450688)
I0403 14:38:03.589699 13470 net.cpp:156] Memory required for data: 303465504
I0403 14:38:03.589720 13470 layer_factory.hpp:77] Creating layer conv2/relu_3x3
I0403 14:38:03.589740 13470 net.cpp:91] Creating Layer conv2/relu_3x3
I0403 14:38:03.589756 13470 net.cpp:425] conv2/relu_3x3 <- conv2/3x3
I0403 14:38:03.589772 13470 net.cpp:386] conv2/relu_3x3 -> conv2/3x3 (in-place)
I0403 14:38:03.589941 13470 net.cpp:141] Setting up conv2/relu_3x3
I0403 14:38:03.589964 13470 net.cpp:148] Top shape: 24 192 56 56 (14450688)
I0403 14:38:03.590011 13470 net.cpp:156] Memory required for data: 361268256
I0403 14:38:03.590026 13470 layer_factory.hpp:77] Creating layer conv2/norm2
I0403 14:38:03.590045 13470 net.cpp:91] Creating Layer conv2/norm2
I0403 14:38:03.590062 13470 net.cpp:425] conv2/norm2 <- conv2/3x3
I0403 14:38:03.590080 13470 net.cpp:399] conv2/norm2 -> conv2/norm2
I0403 14:38:03.590371 13470 net.cpp:141] Setting up conv2/norm2
I0403 14:38:03.590399 13470 net.cpp:148] Top shape: 24 192 56 56 (14450688)
I0403 14:38:03.590415 13470 net.cpp:156] Memory required for data: 419071008
I0403 14:38:03.590430 13470 layer_factory.hpp:77] Creating layer pool2/3x3_s2
I0403 14:38:03.590445 13470 net.cpp:91] Creating Layer pool2/3x3_s2
I0403 14:38:03.590461 13470 net.cpp:425] pool2/3x3_s2 <- conv2/norm2
I0403 14:38:03.590479 13470 net.cpp:399] pool2/3x3_s2 -> pool2/3x3_s2
I0403 14:38:03.590528 13470 net.cpp:141] Setting up pool2/3x3_s2
I0403 14:38:03.590567 13470 net.cpp:148] Top shape: 24 192 28 28 (3612672)
I0403 14:38:03.590584 13470 net.cpp:156] Memory required for data: 433521696
I0403 14:38:03.590596 13470 layer_factory.hpp:77] Creating layer pool2/3x3_s2_pool2/3x3_s2_0_split
I0403 14:38:03.590612 13470 net.cpp:91] Creating Layer pool2/3x3_s2_pool2/3x3_s2_0_split
I0403 14:38:03.590627 13470 net.cpp:425] pool2/3x3_s2_pool2/3x3_s2_0_split <- pool2/3x3_s2
I0403 14:38:03.590643 13470 net.cpp:399] pool2/3x3_s2_pool2/3x3_s2_0_split -> pool2/3x3_s2_pool2/3x3_s2_0_split_0
I0403 14:38:03.590662 13470 net.cpp:399] pool2/3x3_s2_pool2/3x3_s2_0_split -> pool2/3x3_s2_pool2/3x3_s2_0_split_1
I0403 14:38:03.590682 13470 net.cpp:399] pool2/3x3_s2_pool2/3x3_s2_0_split -> pool2/3x3_s2_pool2/3x3_s2_0_split_2
I0403 14:38:03.590703 13470 net.cpp:399] pool2/3x3_s2_pool2/3x3_s2_0_split -> pool2/3x3_s2_pool2/3x3_s2_0_split_3
I0403 14:38:03.590770 13470 net.cpp:141] Setting up pool2/3x3_s2_pool2/3x3_s2_0_split
I0403 14:38:03.590792 13470 net.cpp:148] Top shape: 24 192 28 28 (3612672)
I0403 14:38:03.590807 13470 net.cpp:148] Top shape: 24 192 28 28 (3612672)
I0403 14:38:03.590822 13470 net.cpp:148] Top shape: 24 192 28 28 (3612672)
I0403 14:38:03.590837 13470 net.cpp:148] Top shape: 24 192 28 28 (3612672)
I0403 14:38:03.590849 13470 net.cpp:156] Memory required for data: 491324448
I0403 14:38:03.590863 13470 layer_factory.hpp:77] Creating layer inception_3a/1x1
I0403 14:38:03.590884 13470 net.cpp:91] Creating Layer inception_3a/1x1
I0403 14:38:03.590900 13470 net.cpp:425] inception_3a/1x1 <- pool2/3x3_s2_pool2/3x3_s2_0_split_0
I0403 14:38:03.590919 13470 net.cpp:399] inception_3a/1x1 -> inception_3a/1x1
I0403 14:38:03.592406 13470 net.cpp:141] Setting up inception_3a/1x1
I0403 14:38:03.592443 13470 net.cpp:148] Top shape: 24 64 28 28 (1204224)
I0403 14:38:03.592458 13470 net.cpp:156] Memory required for data: 496141344
I0403 14:38:03.592476 13470 layer_factory.hpp:77] Creating layer inception_3a/relu_1x1
I0403 14:38:03.592494 13470 net.cpp:91] Creating Layer inception_3a/relu_1x1
I0403 14:38:03.592509 13470 net.cpp:425] inception_3a/relu_1x1 <- inception_3a/1x1
I0403 14:38:03.592526 13470 net.cpp:386] inception_3a/relu_1x1 -> inception_3a/1x1 (in-place)
I0403 14:38:03.592699 13470 net.cpp:141] Setting up inception_3a/relu_1x1
I0403 14:38:03.592722 13470 net.cpp:148] Top shape: 24 64 28 28 (1204224)
I0403 14:38:03.592736 13470 net.cpp:156] Memory required for data: 500958240
I0403 14:38:03.592751 13470 layer_factory.hpp:77] Creating layer inception_3a/3x3_reduce
I0403 14:38:03.592772 13470 net.cpp:91] Creating Layer inception_3a/3x3_reduce
I0403 14:38:03.592787 13470 net.cpp:425] inception_3a/3x3_reduce <- pool2/3x3_s2_pool2/3x3_s2_0_split_1
I0403 14:38:03.592808 13470 net.cpp:399] inception_3a/3x3_reduce -> inception_3a/3x3_reduce
I0403 14:38:03.594456 13470 net.cpp:141] Setting up inception_3a/3x3_reduce
I0403 14:38:03.594485 13470 net.cpp:148] Top shape: 24 96 28 28 (1806336)
I0403 14:38:03.594499 13470 net.cpp:156] Memory required for data: 508183584
I0403 14:38:03.594519 13470 layer_factory.hpp:77] Creating layer inception_3a/relu_3x3_reduce
I0403 14:38:03.594580 13470 net.cpp:91] Creating Layer inception_3a/relu_3x3_reduce
I0403 14:38:03.594599 13470 net.cpp:425] inception_3a/relu_3x3_reduce <- inception_3a/3x3_reduce
I0403 14:38:03.594619 13470 net.cpp:386] inception_3a/relu_3x3_reduce -> inception_3a/3x3_reduce (in-place)
I0403 14:38:03.594787 13470 net.cpp:141] Setting up inception_3a/relu_3x3_reduce
I0403 14:38:03.594815 13470 net.cpp:148] Top shape: 24 96 28 28 (1806336)
I0403 14:38:03.594830 13470 net.cpp:156] Memory required for data: 515408928
I0403 14:38:03.594843 13470 layer_factory.hpp:77] Creating layer inception_3a/3x3
I0403 14:38:03.594866 13470 net.cpp:91] Creating Layer inception_3a/3x3
I0403 14:38:03.594882 13470 net.cpp:425] inception_3a/3x3 <- inception_3a/3x3_reduce
I0403 14:38:03.594909 13470 net.cpp:399] inception_3a/3x3 -> inception_3a/3x3
I0403 14:38:03.596488 13470 net.cpp:141] Setting up inception_3a/3x3
I0403 14:38:03.596516 13470 net.cpp:148] Top shape: 24 128 28 28 (2408448)
I0403 14:38:03.596531 13470 net.cpp:156] Memory required for data: 525042720
I0403 14:38:03.596554 13470 layer_factory.hpp:77] Creating layer inception_3a/relu_3x3
I0403 14:38:03.596575 13470 net.cpp:91] Creating Layer inception_3a/relu_3x3
I0403 14:38:03.596590 13470 net.cpp:425] inception_3a/relu_3x3 <- inception_3a/3x3
I0403 14:38:03.596607 13470 net.cpp:386] inception_3a/relu_3x3 -> inception_3a/3x3 (in-place)
I0403 14:38:03.596875 13470 net.cpp:141] Setting up inception_3a/relu_3x3
I0403 14:38:03.596900 13470 net.cpp:148] Top shape: 24 128 28 28 (2408448)
I0403 14:38:03.596915 13470 net.cpp:156] Memory required for data: 534676512
I0403 14:38:03.596930 13470 layer_factory.hpp:77] Creating layer inception_3a/5x5_reduce
I0403 14:38:03.596951 13470 net.cpp:91] Creating Layer inception_3a/5x5_reduce
I0403 14:38:03.596966 13470 net.cpp:425] inception_3a/5x5_reduce <- pool2/3x3_s2_pool2/3x3_s2_0_split_2
I0403 14:38:03.596987 13470 net.cpp:399] inception_3a/5x5_reduce -> inception_3a/5x5_reduce
I0403 14:38:03.597913 13470 net.cpp:141] Setting up inception_3a/5x5_reduce
I0403 14:38:03.597939 13470 net.cpp:148] Top shape: 24 16 28 28 (301056)
I0403 14:38:03.597954 13470 net.cpp:156] Memory required for data: 535880736
I0403 14:38:03.597970 13470 layer_factory.hpp:77] Creating layer inception_3a/relu_5x5_reduce
I0403 14:38:03.597992 13470 net.cpp:91] Creating Layer inception_3a/relu_5x5_reduce
I0403 14:38:03.598008 13470 net.cpp:425] inception_3a/relu_5x5_reduce <- inception_3a/5x5_reduce
I0403 14:38:03.598024 13470 net.cpp:386] inception_3a/relu_5x5_reduce -> inception_3a/5x5_reduce (in-place)
I0403 14:38:03.598315 13470 net.cpp:141] Setting up inception_3a/relu_5x5_reduce
I0403 14:38:03.598340 13470 net.cpp:148] Top shape: 24 16 28 28 (301056)
I0403 14:38:03.598354 13470 net.cpp:156] Memory required for data: 537084960
I0403 14:38:03.598368 13470 layer_factory.hpp:77] Creating layer inception_3a/5x5
I0403 14:38:03.598392 13470 net.cpp:91] Creating Layer inception_3a/5x5
I0403 14:38:03.598407 13470 net.cpp:425] inception_3a/5x5 <- inception_3a/5x5_reduce
I0403 14:38:03.598425 13470 net.cpp:399] inception_3a/5x5 -> inception_3a/5x5
I0403 14:38:03.599403 13470 net.cpp:141] Setting up inception_3a/5x5
I0403 14:38:03.599431 13470 net.cpp:148] Top shape: 24 32 28 28 (602112)
I0403 14:38:03.599445 13470 net.cpp:156] Memory required for data: 539493408
I0403 14:38:03.599463 13470 layer_factory.hpp:77] Creating layer inception_3a/relu_5x5
I0403 14:38:03.599483 13470 net.cpp:91] Creating Layer inception_3a/relu_5x5
I0403 14:38:03.599499 13470 net.cpp:425] inception_3a/relu_5x5 <- inception_3a/5x5
I0403 14:38:03.599515 13470 net.cpp:386] inception_3a/relu_5x5 -> inception_3a/5x5 (in-place)
I0403 14:38:03.599681 13470 net.cpp:141] Setting up inception_3a/relu_5x5
I0403 14:38:03.599706 13470 net.cpp:148] Top shape: 24 32 28 28 (602112)
I0403 14:38:03.599720 13470 net.cpp:156] Memory required for data: 541901856
I0403 14:38:03.599733 13470 layer_factory.hpp:77] Creating layer inception_3a/pool
I0403 14:38:03.599753 13470 net.cpp:91] Creating Layer inception_3a/pool
I0403 14:38:03.599782 13470 net.cpp:425] inception_3a/pool <- pool2/3x3_s2_pool2/3x3_s2_0_split_3
I0403 14:38:03.599800 13470 net.cpp:399] inception_3a/pool -> inception_3a/pool
I0403 14:38:03.599855 13470 net.cpp:141] Setting up inception_3a/pool
I0403 14:38:03.599879 13470 net.cpp:148] Top shape: 24 192 28 28 (3612672)
I0403 14:38:03.599892 13470 net.cpp:156] Memory required for data: 556352544
I0403 14:38:03.599906 13470 layer_factory.hpp:77] Creating layer inception_3a/pool_proj
I0403 14:38:03.599926 13470 net.cpp:91] Creating Layer inception_3a/pool_proj
I0403 14:38:03.599943 13470 net.cpp:425] inception_3a/pool_proj <- inception_3a/pool
I0403 14:38:03.599964 13470 net.cpp:399] inception_3a/pool_proj -> inception_3a/pool_proj
I0403 14:38:03.600893 13470 net.cpp:141] Setting up inception_3a/pool_proj
I0403 14:38:03.600921 13470 net.cpp:148] Top shape: 24 32 28 28 (602112)
I0403 14:38:03.600936 13470 net.cpp:156] Memory required for data: 558760992
I0403 14:38:03.600957 13470 layer_factory.hpp:77] Creating layer inception_3a/relu_pool_proj
I0403 14:38:03.600980 13470 net.cpp:91] Creating Layer inception_3a/relu_pool_proj
I0403 14:38:03.600997 13470 net.cpp:425] inception_3a/relu_pool_proj <- inception_3a/pool_proj
I0403 14:38:03.601013 13470 net.cpp:386] inception_3a/relu_pool_proj -> inception_3a/pool_proj (in-place)
I0403 14:38:03.601276 13470 net.cpp:141] Setting up inception_3a/relu_pool_proj
I0403 14:38:03.601301 13470 net.cpp:148] Top shape: 24 32 28 28 (602112)
I0403 14:38:03.601315 13470 net.cpp:156] Memory required for data: 561169440
I0403 14:38:03.601330 13470 layer_factory.hpp:77] Creating layer inception_3a/output
I0403 14:38:03.601346 13470 net.cpp:91] Creating Layer inception_3a/output
I0403 14:38:03.601361 13470 net.cpp:425] inception_3a/output <- inception_3a/1x1
I0403 14:38:03.601377 13470 net.cpp:425] inception_3a/output <- inception_3a/3x3
I0403 14:38:03.601392 13470 net.cpp:425] inception_3a/output <- inception_3a/5x5
I0403 14:38:03.601407 13470 net.cpp:425] inception_3a/output <- inception_3a/pool_proj
I0403 14:38:03.601424 13470 net.cpp:399] inception_3a/output -> inception_3a/output
I0403 14:38:03.601469 13470 net.cpp:141] Setting up inception_3a/output
I0403 14:38:03.601491 13470 net.cpp:148] Top shape: 24 256 28 28 (4816896)
I0403 14:38:03.601505 13470 net.cpp:156] Memory required for data: 580437024
I0403 14:38:03.601519 13470 layer_factory.hpp:77] Creating layer inception_3a/output_inception_3a/output_0_split
I0403 14:38:03.601539 13470 net.cpp:91] Creating Layer inception_3a/output_inception_3a/output_0_split
I0403 14:38:03.601555 13470 net.cpp:425] inception_3a/output_inception_3a/output_0_split <- inception_3a/output
I0403 14:38:03.601574 13470 net.cpp:399] inception_3a/output_inception_3a/output_0_split -> inception_3a/output_inception_3a/output_0_split_0
I0403 14:38:03.601593 13470 net.cpp:399] inception_3a/output_inception_3a/output_0_split -> inception_3a/output_inception_3a/output_0_split_1
I0403 14:38:03.601614 13470 net.cpp:399] inception_3a/output_inception_3a/output_0_split -> inception_3a/output_inception_3a/output_0_split_2
I0403 14:38:03.601636 13470 net.cpp:399] inception_3a/output_inception_3a/output_0_split -> inception_3a/output_inception_3a/output_0_split_3
I0403 14:38:03.601709 13470 net.cpp:141] Setting up inception_3a/output_inception_3a/output_0_split
I0403 14:38:03.601732 13470 net.cpp:148] Top shape: 24 256 28 28 (4816896)
I0403 14:38:03.601747 13470 net.cpp:148] Top shape: 24 256 28 28 (4816896)
I0403 14:38:03.601761 13470 net.cpp:148] Top shape: 24 256 28 28 (4816896)
I0403 14:38:03.601776 13470 net.cpp:148] Top shape: 24 256 28 28 (4816896)
I0403 14:38:03.601789 13470 net.cpp:156] Memory required for data: 657507360
I0403 14:38:03.601802 13470 layer_factory.hpp:77] Creating layer inception_3b/1x1
I0403 14:38:03.601824 13470 net.cpp:91] Creating Layer inception_3b/1x1
I0403 14:38:03.601840 13470 net.cpp:425] inception_3b/1x1 <- inception_3a/output_inception_3a/output_0_split_0
I0403 14:38:03.601860 13470 net.cpp:399] inception_3b/1x1 -> inception_3b/1x1
I0403 14:38:03.602962 13470 net.cpp:141] Setting up inception_3b/1x1
I0403 14:38:03.603000 13470 net.cpp:148] Top shape: 24 128 28 28 (2408448)
I0403 14:38:03.603016 13470 net.cpp:156] Memory required for data: 667141152
I0403 14:38:03.603034 13470 layer_factory.hpp:77] Creating layer inception_3b/relu_1x1
I0403 14:38:03.603051 13470 net.cpp:91] Creating Layer inception_3b/relu_1x1
I0403 14:38:03.603065 13470 net.cpp:425] inception_3b/relu_1x1 <- inception_3b/1x1
I0403 14:38:03.603085 13470 net.cpp:386] inception_3b/relu_1x1 -> inception_3b/1x1 (in-place)
I0403 14:38:03.603250 13470 net.cpp:141] Setting up inception_3b/relu_1x1
I0403 14:38:03.603276 13470 net.cpp:148] Top shape: 24 128 28 28 (2408448)
I0403 14:38:03.603289 13470 net.cpp:156] Memory required for data: 676774944
I0403 14:38:03.603303 13470 layer_factory.hpp:77] Creating layer inception_3b/3x3_reduce
I0403 14:38:03.603323 13470 net.cpp:91] Creating Layer inception_3b/3x3_reduce
I0403 14:38:03.603339 13470 net.cpp:425] inception_3b/3x3_reduce <- inception_3a/output_inception_3a/output_0_split_1
I0403 14:38:03.603359 13470 net.cpp:399] inception_3b/3x3_reduce -> inception_3b/3x3_reduce
I0403 14:38:03.604454 13470 net.cpp:141] Setting up inception_3b/3x3_reduce
I0403 14:38:03.604481 13470 net.cpp:148] Top shape: 24 128 28 28 (2408448)
I0403 14:38:03.604496 13470 net.cpp:156] Memory required for data: 686408736
I0403 14:38:03.604514 13470 layer_factory.hpp:77] Creating layer inception_3b/relu_3x3_reduce
I0403 14:38:03.604532 13470 net.cpp:91] Creating Layer inception_3b/relu_3x3_reduce
I0403 14:38:03.604562 13470 net.cpp:425] inception_3b/relu_3x3_reduce <- inception_3b/3x3_reduce
I0403 14:38:03.604584 13470 net.cpp:386] inception_3b/relu_3x3_reduce -> inception_3b/3x3_reduce (in-place)
I0403 14:38:03.604753 13470 net.cpp:141] Setting up inception_3b/relu_3x3_reduce
I0403 14:38:03.604778 13470 net.cpp:148] Top shape: 24 128 28 28 (2408448)
I0403 14:38:03.604790 13470 net.cpp:156] Memory required for data: 696042528
I0403 14:38:03.604804 13470 layer_factory.hpp:77] Creating layer inception_3b/3x3
I0403 14:38:03.604830 13470 net.cpp:91] Creating Layer inception_3b/3x3
I0403 14:38:03.604847 13470 net.cpp:425] inception_3b/3x3 <- inception_3b/3x3_reduce
I0403 14:38:03.604864 13470 net.cpp:399] inception_3b/3x3 -> inception_3b/3x3
I0403 14:38:03.607753 13470 net.cpp:141] Setting up inception_3b/3x3
I0403 14:38:03.607781 13470 net.cpp:148] Top shape: 24 192 28 28 (3612672)
I0403 14:38:03.607797 13470 net.cpp:156] Memory required for data: 710493216
I0403 14:38:03.607815 13470 layer_factory.hpp:77] Creating layer inception_3b/relu_3x3
I0403 14:38:03.607836 13470 net.cpp:91] Creating Layer inception_3b/relu_3x3
I0403 14:38:03.607852 13470 net.cpp:425] inception_3b/relu_3x3 <- inception_3b/3x3
I0403 14:38:03.607869 13470 net.cpp:386] inception_3b/relu_3x3 -> inception_3b/3x3 (in-place)
I0403 14:38:03.608144 13470 net.cpp:141] Setting up inception_3b/relu_3x3
I0403 14:38:03.608171 13470 net.cpp:148] Top shape: 24 192 28 28 (3612672)
I0403 14:38:03.608186 13470 net.cpp:156] Memory required for data: 724943904
I0403 14:38:03.608201 13470 layer_factory.hpp:77] Creating layer inception_3b/5x5_reduce
I0403 14:38:03.608223 13470 net.cpp:91] Creating Layer inception_3b/5x5_reduce
I0403 14:38:03.608242 13470 net.cpp:425] inception_3b/5x5_reduce <- inception_3a/output_inception_3a/output_0_split_2
I0403 14:38:03.608263 13470 net.cpp:399] inception_3b/5x5_reduce -> inception_3b/5x5_reduce
I0403 14:38:03.609256 13470 net.cpp:141] Setting up inception_3b/5x5_reduce
I0403 14:38:03.609284 13470 net.cpp:148] Top shape: 24 32 28 28 (602112)
I0403 14:38:03.609300 13470 net.cpp:156] Memory required for data: 727352352
I0403 14:38:03.609318 13470 layer_factory.hpp:77] Creating layer inception_3b/relu_5x5_reduce
I0403 14:38:03.609338 13470 net.cpp:91] Creating Layer inception_3b/relu_5x5_reduce
I0403 14:38:03.609354 13470 net.cpp:425] inception_3b/relu_5x5_reduce <- inception_3b/5x5_reduce
I0403 14:38:03.609370 13470 net.cpp:386] inception_3b/relu_5x5_reduce -> inception_3b/5x5_reduce (in-place)
I0403 14:38:03.609563 13470 net.cpp:141] Setting up inception_3b/relu_5x5_reduce
I0403 14:38:03.609591 13470 net.cpp:148] Top shape: 24 32 28 28 (602112)
I0403 14:38:03.609606 13470 net.cpp:156] Memory required for data: 729760800
I0403 14:38:03.609621 13470 layer_factory.hpp:77] Creating layer inception_3b/5x5
I0403 14:38:03.609640 13470 net.cpp:91] Creating Layer inception_3b/5x5
I0403 14:38:03.609657 13470 net.cpp:425] inception_3b/5x5 <- inception_3b/5x5_reduce
I0403 14:38:03.609678 13470 net.cpp:399] inception_3b/5x5 -> inception_3b/5x5
I0403 14:38:03.611639 13470 net.cpp:141] Setting up inception_3b/5x5
I0403 14:38:03.611668 13470 net.cpp:148] Top shape: 24 96 28 28 (1806336)
I0403 14:38:03.611683 13470 net.cpp:156] Memory required for data: 736986144
I0403 14:38:03.611707 13470 layer_factory.hpp:77] Creating layer inception_3b/relu_5x5
I0403 14:38:03.611726 13470 net.cpp:91] Creating Layer inception_3b/relu_5x5
I0403 14:38:03.611742 13470 net.cpp:425] inception_3b/relu_5x5 <- inception_3b/5x5
I0403 14:38:03.611764 13470 net.cpp:386] inception_3b/relu_5x5 -> inception_3b/5x5 (in-place)
I0403 14:38:03.611950 13470 net.cpp:141] Setting up inception_3b/relu_5x5
I0403 14:38:03.611980 13470 net.cpp:148] Top shape: 24 96 28 28 (1806336)
I0403 14:38:03.612000 13470 net.cpp:156] Memory required for data: 744211488
I0403 14:38:03.612018 13470 layer_factory.hpp:77] Creating layer inception_3b/pool
I0403 14:38:03.612040 13470 net.cpp:91] Creating Layer inception_3b/pool
I0403 14:38:03.612061 13470 net.cpp:425] inception_3b/pool <- inception_3a/output_inception_3a/output_0_split_3
I0403 14:38:03.612088 13470 net.cpp:399] inception_3b/pool -> inception_3b/pool
I0403 14:38:03.612149 13470 net.cpp:141] Setting up inception_3b/pool
I0403 14:38:03.612172 13470 net.cpp:148] Top shape: 24 256 28 28 (4816896)
I0403 14:38:03.612186 13470 net.cpp:156] Memory required for data: 763479072
I0403 14:38:03.612201 13470 layer_factory.hpp:77] Creating layer inception_3b/pool_proj
I0403 14:38:03.612222 13470 net.cpp:91] Creating Layer inception_3b/pool_proj
I0403 14:38:03.612239 13470 net.cpp:425] inception_3b/pool_proj <- inception_3b/pool
I0403 14:38:03.612260 13470 net.cpp:399] inception_3b/pool_proj -> inception_3b/pool_proj
I0403 14:38:03.613360 13470 net.cpp:141] Setting up inception_3b/pool_proj
I0403 14:38:03.613391 13470 net.cpp:148] Top shape: 24 64 28 28 (1204224)
I0403 14:38:03.613409 13470 net.cpp:156] Memory required for data: 768295968
I0403 14:38:03.613426 13470 layer_factory.hpp:77] Creating layer inception_3b/relu_pool_proj
I0403 14:38:03.613445 13470 net.cpp:91] Creating Layer inception_3b/relu_pool_proj
I0403 14:38:03.613461 13470 net.cpp:425] inception_3b/relu_pool_proj <- inception_3b/pool_proj
I0403 14:38:03.613479 13470 net.cpp:386] inception_3b/relu_pool_proj -> inception_3b/pool_proj (in-place)
I0403 14:38:03.613886 13470 net.cpp:141] Setting up inception_3b/relu_pool_proj
I0403 14:38:03.613912 13470 net.cpp:148] Top shape: 24 64 28 28 (1204224)
I0403 14:38:03.613929 13470 net.cpp:156] Memory required for data: 773112864
I0403 14:38:03.613942 13470 layer_factory.hpp:77] Creating layer inception_3b/output
I0403 14:38:03.613962 13470 net.cpp:91] Creating Layer inception_3b/output
I0403 14:38:03.613979 13470 net.cpp:425] inception_3b/output <- inception_3b/1x1
I0403 14:38:03.613996 13470 net.cpp:425] inception_3b/output <- inception_3b/3x3
I0403 14:38:03.614012 13470 net.cpp:425] inception_3b/output <- inception_3b/5x5
I0403 14:38:03.614027 13470 net.cpp:425] inception_3b/output <- inception_3b/pool_proj
I0403 14:38:03.614043 13470 net.cpp:399] inception_3b/output -> inception_3b/output
I0403 14:38:03.614089 13470 net.cpp:141] Setting up inception_3b/output
I0403 14:38:03.614112 13470 net.cpp:148] Top shape: 24 480 28 28 (9031680)
I0403 14:38:03.614127 13470 net.cpp:156] Memory required for data: 809239584
I0403 14:38:03.614141 13470 layer_factory.hpp:77] Creating layer pool3/3x3_s2
I0403 14:38:03.614159 13470 net.cpp:91] Creating Layer pool3/3x3_s2
I0403 14:38:03.614174 13470 net.cpp:425] pool3/3x3_s2 <- inception_3b/output
I0403 14:38:03.614214 13470 net.cpp:399] pool3/3x3_s2 -> pool3/3x3_s2
I0403 14:38:03.614274 13470 net.cpp:141] Setting up pool3/3x3_s2
I0403 14:38:03.614298 13470 net.cpp:148] Top shape: 24 480 14 14 (2257920)
I0403 14:38:03.614313 13470 net.cpp:156] Memory required for data: 818271264
I0403 14:38:03.614327 13470 layer_factory.hpp:77] Creating layer pool3/3x3_s2_pool3/3x3_s2_0_split
I0403 14:38:03.614346 13470 net.cpp:91] Creating Layer pool3/3x3_s2_pool3/3x3_s2_0_split
I0403 14:38:03.614362 13470 net.cpp:425] pool3/3x3_s2_pool3/3x3_s2_0_split <- pool3/3x3_s2
I0403 14:38:03.614382 13470 net.cpp:399] pool3/3x3_s2_pool3/3x3_s2_0_split -> pool3/3x3_s2_pool3/3x3_s2_0_split_0
I0403 14:38:03.614401 13470 net.cpp:399] pool3/3x3_s2_pool3/3x3_s2_0_split -> pool3/3x3_s2_pool3/3x3_s2_0_split_1
I0403 14:38:03.614421 13470 net.cpp:399] pool3/3x3_s2_pool3/3x3_s2_0_split -> pool3/3x3_s2_pool3/3x3_s2_0_split_2
I0403 14:38:03.614440 13470 net.cpp:399] pool3/3x3_s2_pool3/3x3_s2_0_split -> pool3/3x3_s2_pool3/3x3_s2_0_split_3
I0403 14:38:03.614514 13470 net.cpp:141] Setting up pool3/3x3_s2_pool3/3x3_s2_0_split
I0403 14:38:03.614558 13470 net.cpp:148] Top shape: 24 480 14 14 (2257920)
I0403 14:38:03.614579 13470 net.cpp:148] Top shape: 24 480 14 14 (2257920)
I0403 14:38:03.614595 13470 net.cpp:148] Top shape: 24 480 14 14 (2257920)
I0403 14:38:03.614611 13470 net.cpp:148] Top shape: 24 480 14 14 (2257920)
I0403 14:38:03.614625 13470 net.cpp:156] Memory required for data: 854397984
I0403 14:38:03.614639 13470 layer_factory.hpp:77] Creating layer inception_4a/1x1
I0403 14:38:03.614660 13470 net.cpp:91] Creating Layer inception_4a/1x1
I0403 14:38:03.614675 13470 net.cpp:425] inception_4a/1x1 <- pool3/3x3_s2_pool3/3x3_s2_0_split_0
I0403 14:38:03.614697 13470 net.cpp:399] inception_4a/1x1 -> inception_4a/1x1
I0403 14:38:03.616291 13470 net.cpp:141] Setting up inception_4a/1x1
I0403 14:38:03.616322 13470 net.cpp:148] Top shape: 24 192 14 14 (903168)
I0403 14:38:03.616338 13470 net.cpp:156] Memory required for data: 858010656
I0403 14:38:03.616356 13470 layer_factory.hpp:77] Creating layer inception_4a/relu_1x1
I0403 14:38:03.616374 13470 net.cpp:91] Creating Layer inception_4a/relu_1x1
I0403 14:38:03.616390 13470 net.cpp:425] inception_4a/relu_1x1 <- inception_4a/1x1
I0403 14:38:03.616407 13470 net.cpp:386] inception_4a/relu_1x1 -> inception_4a/1x1 (in-place)
I0403 14:38:03.616592 13470 net.cpp:141] Setting up inception_4a/relu_1x1
I0403 14:38:03.616618 13470 net.cpp:148] Top shape: 24 192 14 14 (903168)
I0403 14:38:03.616633 13470 net.cpp:156] Memory required for data: 861623328
I0403 14:38:03.616648 13470 layer_factory.hpp:77] Creating layer inception_4a/3x3_reduce
I0403 14:38:03.616670 13470 net.cpp:91] Creating Layer inception_4a/3x3_reduce
I0403 14:38:03.616688 13470 net.cpp:425] inception_4a/3x3_reduce <- pool3/3x3_s2_pool3/3x3_s2_0_split_1
I0403 14:38:03.616709 13470 net.cpp:399] inception_4a/3x3_reduce -> inception_4a/3x3_reduce
I0403 14:38:03.618006 13470 net.cpp:141] Setting up inception_4a/3x3_reduce
I0403 14:38:03.618037 13470 net.cpp:148] Top shape: 24 96 14 14 (451584)
I0403 14:38:03.618053 13470 net.cpp:156] Memory required for data: 863429664
I0403 14:38:03.618079 13470 layer_factory.hpp:77] Creating layer inception_4a/relu_3x3_reduce
I0403 14:38:03.618099 13470 net.cpp:91] Creating Layer inception_4a/relu_3x3_reduce
I0403 14:38:03.618115 13470 net.cpp:425] inception_4a/relu_3x3_reduce <- inception_4a/3x3_reduce
I0403 14:38:03.618132 13470 net.cpp:386] inception_4a/relu_3x3_reduce -> inception_4a/3x3_reduce (in-place)
I0403 14:38:03.618310 13470 net.cpp:141] Setting up inception_4a/relu_3x3_reduce
I0403 14:38:03.618340 13470 net.cpp:148] Top shape: 24 96 14 14 (451584)
I0403 14:38:03.618357 13470 net.cpp:156] Memory required for data: 865236000
I0403 14:38:03.618371 13470 layer_factory.hpp:77] Creating layer inception_4a/3x3
I0403 14:38:03.618393 13470 net.cpp:91] Creating Layer inception_4a/3x3
I0403 14:38:03.618410 13470 net.cpp:425] inception_4a/3x3 <- inception_4a/3x3_reduce
I0403 14:38:03.618432 13470 net.cpp:399] inception_4a/3x3 -> inception_4a/3x3
I0403 14:38:03.621182 13470 net.cpp:141] Setting up inception_4a/3x3
I0403 14:38:03.621212 13470 net.cpp:148] Top shape: 24 208 14 14 (978432)
I0403 14:38:03.621227 13470 net.cpp:156] Memory required for data: 869149728
I0403 14:38:03.621247 13470 layer_factory.hpp:77] Creating layer inception_4a/relu_3x3
I0403 14:38:03.621266 13470 net.cpp:91] Creating Layer inception_4a/relu_3x3
I0403 14:38:03.621282 13470 net.cpp:425] inception_4a/relu_3x3 <- inception_4a/3x3
I0403 14:38:03.621301 13470 net.cpp:386] inception_4a/relu_3x3 -> inception_4a/3x3 (in-place)
I0403 14:38:03.621592 13470 net.cpp:141] Setting up inception_4a/relu_3x3
I0403 14:38:03.621618 13470 net.cpp:148] Top shape: 24 208 14 14 (978432)
I0403 14:38:03.621634 13470 net.cpp:156] Memory required for data: 873063456
I0403 14:38:03.621649 13470 layer_factory.hpp:77] Creating layer inception_4a/5x5_reduce
I0403 14:38:03.621672 13470 net.cpp:91] Creating Layer inception_4a/5x5_reduce
I0403 14:38:03.621690 13470 net.cpp:425] inception_4a/5x5_reduce <- pool3/3x3_s2_pool3/3x3_s2_0_split_2
I0403 14:38:03.621711 13470 net.cpp:399] inception_4a/5x5_reduce -> inception_4a/5x5_reduce
I0403 14:38:03.622758 13470 net.cpp:141] Setting up inception_4a/5x5_reduce
I0403 14:38:03.622786 13470 net.cpp:148] Top shape: 24 16 14 14 (75264)
I0403 14:38:03.622802 13470 net.cpp:156] Memory required for data: 873364512
I0403 14:38:03.622820 13470 layer_factory.hpp:77] Creating layer inception_4a/relu_5x5_reduce
I0403 14:38:03.622838 13470 net.cpp:91] Creating Layer inception_4a/relu_5x5_reduce
I0403 14:38:03.622854 13470 net.cpp:425] inception_4a/relu_5x5_reduce <- inception_4a/5x5_reduce
I0403 14:38:03.622874 13470 net.cpp:386] inception_4a/relu_5x5_reduce -> inception_4a/5x5_reduce (in-place)
I0403 14:38:03.623059 13470 net.cpp:141] Setting up inception_4a/relu_5x5_reduce
I0403 14:38:03.623083 13470 net.cpp:148] Top shape: 24 16 14 14 (75264)
I0403 14:38:03.623098 13470 net.cpp:156] Memory required for data: 873665568
I0403 14:38:03.623113 13470 layer_factory.hpp:77] Creating layer inception_4a/5x5
I0403 14:38:03.623137 13470 net.cpp:91] Creating Layer inception_4a/5x5
I0403 14:38:03.623154 13470 net.cpp:425] inception_4a/5x5 <- inception_4a/5x5_reduce
I0403 14:38:03.623175 13470 net.cpp:399] inception_4a/5x5 -> inception_4a/5x5
I0403 14:38:03.624295 13470 net.cpp:141] Setting up inception_4a/5x5
I0403 14:38:03.624323 13470 net.cpp:148] Top shape: 24 48 14 14 (225792)
I0403 14:38:03.624338 13470 net.cpp:156] Memory required for data: 874568736
I0403 14:38:03.624356 13470 layer_factory.hpp:77] Creating layer inception_4a/relu_5x5
I0403 14:38:03.624377 13470 net.cpp:91] Creating Layer inception_4a/relu_5x5
I0403 14:38:03.624397 13470 net.cpp:425] inception_4a/relu_5x5 <- inception_4a/5x5
I0403 14:38:03.624414 13470 net.cpp:386] inception_4a/relu_5x5 -> inception_4a/5x5 (in-place)
I0403 14:38:03.624603 13470 net.cpp:141] Setting up inception_4a/relu_5x5
I0403 14:38:03.624627 13470 net.cpp:148] Top shape: 24 48 14 14 (225792)
I0403 14:38:03.624642 13470 net.cpp:156] Memory required for data: 875471904
I0403 14:38:03.624656 13470 layer_factory.hpp:77] Creating layer inception_4a/pool
I0403 14:38:03.624673 13470 net.cpp:91] Creating Layer inception_4a/pool
I0403 14:38:03.624689 13470 net.cpp:425] inception_4a/pool <- pool3/3x3_s2_pool3/3x3_s2_0_split_3
I0403 14:38:03.624708 13470 net.cpp:399] inception_4a/pool -> inception_4a/pool
I0403 14:38:03.624768 13470 net.cpp:141] Setting up inception_4a/pool
I0403 14:38:03.624790 13470 net.cpp:148] Top shape: 24 480 14 14 (2257920)
I0403 14:38:03.624805 13470 net.cpp:156] Memory required for data: 884503584
I0403 14:38:03.624819 13470 layer_factory.hpp:77] Creating layer inception_4a/pool_proj
I0403 14:38:03.624846 13470 net.cpp:91] Creating Layer inception_4a/pool_proj
I0403 14:38:03.624863 13470 net.cpp:425] inception_4a/pool_proj <- inception_4a/pool
I0403 14:38:03.624881 13470 net.cpp:399] inception_4a/pool_proj -> inception_4a/pool_proj
I0403 14:38:03.626065 13470 net.cpp:141] Setting up inception_4a/pool_proj
I0403 14:38:03.626096 13470 net.cpp:148] Top shape: 24 64 14 14 (301056)
I0403 14:38:03.626127 13470 net.cpp:156] Memory required for data: 885707808
I0403 14:38:03.626147 13470 layer_factory.hpp:77] Creating layer inception_4a/relu_pool_proj
I0403 14:38:03.626163 13470 net.cpp:91] Creating Layer inception_4a/relu_pool_proj
I0403 14:38:03.626179 13470 net.cpp:425] inception_4a/relu_pool_proj <- inception_4a/pool_proj
I0403 14:38:03.626200 13470 net.cpp:386] inception_4a/relu_pool_proj -> inception_4a/pool_proj (in-place)
I0403 14:38:03.626484 13470 net.cpp:141] Setting up inception_4a/relu_pool_proj
I0403 14:38:03.626513 13470 net.cpp:148] Top shape: 24 64 14 14 (301056)
I0403 14:38:03.626528 13470 net.cpp:156] Memory required for data: 886912032
I0403 14:38:03.626549 13470 layer_factory.hpp:77] Creating layer inception_4a/output
I0403 14:38:03.626566 13470 net.cpp:91] Creating Layer inception_4a/output
I0403 14:38:03.626581 13470 net.cpp:425] inception_4a/output <- inception_4a/1x1
I0403 14:38:03.626598 13470 net.cpp:425] inception_4a/output <- inception_4a/3x3
I0403 14:38:03.626613 13470 net.cpp:425] inception_4a/output <- inception_4a/5x5
I0403 14:38:03.626629 13470 net.cpp:425] inception_4a/output <- inception_4a/pool_proj
I0403 14:38:03.626646 13470 net.cpp:399] inception_4a/output -> inception_4a/output
I0403 14:38:03.626690 13470 net.cpp:141] Setting up inception_4a/output
I0403 14:38:03.626714 13470 net.cpp:148] Top shape: 24 512 14 14 (2408448)
I0403 14:38:03.626729 13470 net.cpp:156] Memory required for data: 896545824
I0403 14:38:03.626742 13470 layer_factory.hpp:77] Creating layer inception_4a/output_inception_4a/output_0_split
I0403 14:38:03.626762 13470 net.cpp:91] Creating Layer inception_4a/output_inception_4a/output_0_split
I0403 14:38:03.626778 13470 net.cpp:425] inception_4a/output_inception_4a/output_0_split <- inception_4a/output
I0403 14:38:03.626794 13470 net.cpp:399] inception_4a/output_inception_4a/output_0_split -> inception_4a/output_inception_4a/output_0_split_0
I0403 14:38:03.626814 13470 net.cpp:399] inception_4a/output_inception_4a/output_0_split -> inception_4a/output_inception_4a/output_0_split_1
I0403 14:38:03.626834 13470 net.cpp:399] inception_4a/output_inception_4a/output_0_split -> inception_4a/output_inception_4a/output_0_split_2
I0403 14:38:03.626858 13470 net.cpp:399] inception_4a/output_inception_4a/output_0_split -> inception_4a/output_inception_4a/output_0_split_3
I0403 14:38:03.626878 13470 net.cpp:399] inception_4a/output_inception_4a/output_0_split -> inception_4a/output_inception_4a/output_0_split_4
I0403 14:38:03.626968 13470 net.cpp:141] Setting up inception_4a/output_inception_4a/output_0_split
I0403 14:38:03.626991 13470 net.cpp:148] Top shape: 24 512 14 14 (2408448)
I0403 14:38:03.627007 13470 net.cpp:148] Top shape: 24 512 14 14 (2408448)
I0403 14:38:03.627022 13470 net.cpp:148] Top shape: 24 512 14 14 (2408448)
I0403 14:38:03.627037 13470 net.cpp:148] Top shape: 24 512 14 14 (2408448)
I0403 14:38:03.627051 13470 net.cpp:148] Top shape: 24 512 14 14 (2408448)
I0403 14:38:03.627064 13470 net.cpp:156] Memory required for data: 944714784
I0403 14:38:03.627079 13470 layer_factory.hpp:77] Creating layer loss1/ave_pool
I0403 14:38:03.627095 13470 net.cpp:91] Creating Layer loss1/ave_pool
I0403 14:38:03.627110 13470 net.cpp:425] loss1/ave_pool <- inception_4a/output_inception_4a/output_0_split_0
I0403 14:38:03.627128 13470 net.cpp:399] loss1/ave_pool -> loss1/ave_pool
I0403 14:38:03.627333 13470 net.cpp:141] Setting up loss1/ave_pool
I0403 14:38:03.627360 13470 net.cpp:148] Top shape: 24 512 4 4 (196608)
I0403 14:38:03.627377 13470 net.cpp:156] Memory required for data: 945501216
I0403 14:38:03.627391 13470 layer_factory.hpp:77] Creating layer loss1/conv
I0403 14:38:03.627413 13470 net.cpp:91] Creating Layer loss1/conv
I0403 14:38:03.627429 13470 net.cpp:425] loss1/conv <- loss1/ave_pool
I0403 14:38:03.627449 13470 net.cpp:399] loss1/conv -> loss1/conv
I0403 14:38:03.628855 13470 net.cpp:141] Setting up loss1/conv
I0403 14:38:03.628883 13470 net.cpp:148] Top shape: 24 128 4 4 (49152)
I0403 14:38:03.628913 13470 net.cpp:156] Memory required for data: 945697824
I0403 14:38:03.628932 13470 layer_factory.hpp:77] Creating layer loss1/relu_conv
I0403 14:38:03.628949 13470 net.cpp:91] Creating Layer loss1/relu_conv
I0403 14:38:03.628964 13470 net.cpp:425] loss1/relu_conv <- loss1/conv
I0403 14:38:03.628984 13470 net.cpp:386] loss1/relu_conv -> loss1/conv (in-place)
I0403 14:38:03.629268 13470 net.cpp:141] Setting up loss1/relu_conv
I0403 14:38:03.629294 13470 net.cpp:148] Top shape: 24 128 4 4 (49152)
I0403 14:38:03.629309 13470 net.cpp:156] Memory required for data: 945894432
I0403 14:38:03.629324 13470 layer_factory.hpp:77] Creating layer loss1/fc
I0403 14:38:03.629348 13470 net.cpp:91] Creating Layer loss1/fc
I0403 14:38:03.629365 13470 net.cpp:425] loss1/fc <- loss1/conv
I0403 14:38:03.629386 13470 net.cpp:399] loss1/fc -> loss1/fc
I0403 14:38:03.647179 13470 net.cpp:141] Setting up loss1/fc
I0403 14:38:03.647229 13470 net.cpp:148] Top shape: 24 1024 (24576)
I0403 14:38:03.647246 13470 net.cpp:156] Memory required for data: 945992736
I0403 14:38:03.647266 13470 layer_factory.hpp:77] Creating layer loss1/relu_fc
I0403 14:38:03.647285 13470 net.cpp:91] Creating Layer loss1/relu_fc
I0403 14:38:03.647302 13470 net.cpp:425] loss1/relu_fc <- loss1/fc
I0403 14:38:03.647320 13470 net.cpp:386] loss1/relu_fc -> loss1/fc (in-place)
I0403 14:38:03.647528 13470 net.cpp:141] Setting up loss1/relu_fc
I0403 14:38:03.647557 13470 net.cpp:148] Top shape: 24 1024 (24576)
I0403 14:38:03.647572 13470 net.cpp:156] Memory required for data: 946091040
I0403 14:38:03.647586 13470 layer_factory.hpp:77] Creating layer loss1/drop_fc
I0403 14:38:03.647614 13470 net.cpp:91] Creating Layer loss1/drop_fc
I0403 14:38:03.647631 13470 net.cpp:425] loss1/drop_fc <- loss1/fc
I0403 14:38:03.647650 13470 net.cpp:386] loss1/drop_fc -> loss1/fc (in-place)
I0403 14:38:03.647702 13470 net.cpp:141] Setting up loss1/drop_fc
I0403 14:38:03.647725 13470 net.cpp:148] Top shape: 24 1024 (24576)
I0403 14:38:03.647740 13470 net.cpp:156] Memory required for data: 946189344
I0403 14:38:03.647754 13470 layer_factory.hpp:77] Creating layer loss1/classifier_plantvillage
I0403 14:38:03.647778 13470 net.cpp:91] Creating Layer loss1/classifier_plantvillage
I0403 14:38:03.647794 13470 net.cpp:425] loss1/classifier_plantvillage <- loss1/fc
I0403 14:38:03.647815 13470 net.cpp:399] loss1/classifier_plantvillage -> loss1/classifier_plantvillage
I0403 14:38:03.648758 13470 net.cpp:141] Setting up loss1/classifier_plantvillage
I0403 14:38:03.648787 13470 net.cpp:148] Top shape: 24 38 (912)
I0403 14:38:03.648802 13470 net.cpp:156] Memory required for data: 946192992
I0403 14:38:03.648819 13470 layer_factory.hpp:77] Creating layer loss1/classifier_plantvillage_loss1/classifier_plantvillage_0_split
I0403 14:38:03.648849 13470 net.cpp:91] Creating Layer loss1/classifier_plantvillage_loss1/classifier_plantvillage_0_split
I0403 14:38:03.648864 13470 net.cpp:425] loss1/classifier_plantvillage_loss1/classifier_plantvillage_0_split <- loss1/classifier_plantvillage
I0403 14:38:03.648883 13470 net.cpp:399] loss1/classifier_plantvillage_loss1/classifier_plantvillage_0_split -> loss1/classifier_plantvillage_loss1/classifier_plantvillage_0_split_0
I0403 14:38:03.648905 13470 net.cpp:399] loss1/classifier_plantvillage_loss1/classifier_plantvillage_0_split -> loss1/classifier_plantvillage_loss1/classifier_plantvillage_0_split_1
I0403 14:38:03.648924 13470 net.cpp:399] loss1/classifier_plantvillage_loss1/classifier_plantvillage_0_split -> loss1/classifier_plantvillage_loss1/classifier_plantvillage_0_split_2
I0403 14:38:03.648990 13470 net.cpp:141] Setting up loss1/classifier_plantvillage_loss1/classifier_plantvillage_0_split
I0403 14:38:03.649013 13470 net.cpp:148] Top shape: 24 38 (912)
I0403 14:38:03.649029 13470 net.cpp:148] Top shape: 24 38 (912)
I0403 14:38:03.649044 13470 net.cpp:148] Top shape: 24 38 (912)
I0403 14:38:03.649056 13470 net.cpp:156] Memory required for data: 946203936
I0403 14:38:03.649071 13470 layer_factory.hpp:77] Creating layer inception_4b/1x1
I0403 14:38:03.649093 13470 net.cpp:91] Creating Layer inception_4b/1x1
I0403 14:38:03.649134 13470 net.cpp:425] inception_4b/1x1 <- inception_4a/output_inception_4a/output_0_split_1
I0403 14:38:03.649154 13470 net.cpp:399] inception_4b/1x1 -> inception_4b/1x1
I0403 14:38:03.650833 13470 net.cpp:141] Setting up inception_4b/1x1
I0403 14:38:03.650861 13470 net.cpp:148] Top shape: 24 160 14 14 (752640)
I0403 14:38:03.650877 13470 net.cpp:156] Memory required for data: 949214496
I0403 14:38:03.650895 13470 layer_factory.hpp:77] Creating layer inception_4b/relu_1x1
I0403 14:38:03.650913 13470 net.cpp:91] Creating Layer inception_4b/relu_1x1
I0403 14:38:03.650928 13470 net.cpp:425] inception_4b/relu_1x1 <- inception_4b/1x1
I0403 14:38:03.650948 13470 net.cpp:386] inception_4b/relu_1x1 -> inception_4b/1x1 (in-place)
I0403 14:38:03.651125 13470 net.cpp:141] Setting up inception_4b/relu_1x1
I0403 14:38:03.651149 13470 net.cpp:148] Top shape: 24 160 14 14 (752640)
I0403 14:38:03.651165 13470 net.cpp:156] Memory required for data: 952225056
I0403 14:38:03.651180 13470 layer_factory.hpp:77] Creating layer inception_4b/3x3_reduce
I0403 14:38:03.651202 13470 net.cpp:91] Creating Layer inception_4b/3x3_reduce
I0403 14:38:03.651219 13470 net.cpp:425] inception_4b/3x3_reduce <- inception_4a/output_inception_4a/output_0_split_2
I0403 14:38:03.651240 13470 net.cpp:399] inception_4b/3x3_reduce -> inception_4b/3x3_reduce
I0403 14:38:03.652645 13470 net.cpp:141] Setting up inception_4b/3x3_reduce
I0403 14:38:03.652673 13470 net.cpp:148] Top shape: 24 112 14 14 (526848)
I0403 14:38:03.652689 13470 net.cpp:156] Memory required for data: 954332448
I0403 14:38:03.652709 13470 layer_factory.hpp:77] Creating layer inception_4b/relu_3x3_reduce
I0403 14:38:03.652729 13470 net.cpp:91] Creating Layer inception_4b/relu_3x3_reduce
I0403 14:38:03.652746 13470 net.cpp:425] inception_4b/relu_3x3_reduce <- inception_4b/3x3_reduce
I0403 14:38:03.652763 13470 net.cpp:386] inception_4b/relu_3x3_reduce -> inception_4b/3x3_reduce (in-place)
I0403 14:38:03.653056 13470 net.cpp:141] Setting up inception_4b/relu_3x3_reduce
I0403 14:38:03.653084 13470 net.cpp:148] Top shape: 24 112 14 14 (526848)
I0403 14:38:03.653098 13470 net.cpp:156] Memory required for data: 956439840
I0403 14:38:03.653113 13470 layer_factory.hpp:77] Creating layer inception_4b/3x3
I0403 14:38:03.653141 13470 net.cpp:91] Creating Layer inception_4b/3x3
I0403 14:38:03.653158 13470 net.cpp:425] inception_4b/3x3 <- inception_4b/3x3_reduce
I0403 14:38:03.653179 13470 net.cpp:399] inception_4b/3x3 -> inception_4b/3x3
I0403 14:38:03.656282 13470 net.cpp:141] Setting up inception_4b/3x3
I0403 14:38:03.656314 13470 net.cpp:148] Top shape: 24 224 14 14 (1053696)
I0403 14:38:03.656332 13470 net.cpp:156] Memory required for data: 960654624
I0403 14:38:03.656349 13470 layer_factory.hpp:77] Creating layer inception_4b/relu_3x3
I0403 14:38:03.656366 13470 net.cpp:91] Creating Layer inception_4b/relu_3x3
I0403 14:38:03.656381 13470 net.cpp:425] inception_4b/relu_3x3 <- inception_4b/3x3
I0403 14:38:03.656400 13470 net.cpp:386] inception_4b/relu_3x3 -> inception_4b/3x3 (in-place)
I0403 14:38:03.656589 13470 net.cpp:141] Setting up inception_4b/relu_3x3
I0403 14:38:03.656615 13470 net.cpp:148] Top shape: 24 224 14 14 (1053696)
I0403 14:38:03.656628 13470 net.cpp:156] Memory required for data: 964869408
I0403 14:38:03.656642 13470 layer_factory.hpp:77] Creating layer inception_4b/5x5_reduce
I0403 14:38:03.656666 13470 net.cpp:91] Creating Layer inception_4b/5x5_reduce
I0403 14:38:03.656683 13470 net.cpp:425] inception_4b/5x5_reduce <- inception_4a/output_inception_4a/output_0_split_3
I0403 14:38:03.656704 13470 net.cpp:399] inception_4b/5x5_reduce -> inception_4b/5x5_reduce
I0403 14:38:03.657801 13470 net.cpp:141] Setting up inception_4b/5x5_reduce
I0403 14:38:03.657829 13470 net.cpp:148] Top shape: 24 24 14 14 (112896)
I0403 14:38:03.657845 13470 net.cpp:156] Memory required for data: 965320992
I0403 14:38:03.657863 13470 layer_factory.hpp:77] Creating layer inception_4b/relu_5x5_reduce
I0403 14:38:03.657883 13470 net.cpp:91] Creating Layer inception_4b/relu_5x5_reduce
I0403 14:38:03.657914 13470 net.cpp:425] inception_4b/relu_5x5_reduce <- inception_4b/5x5_reduce
I0403 14:38:03.657933 13470 net.cpp:386] inception_4b/relu_5x5_reduce -> inception_4b/5x5_reduce (in-place)
I0403 14:38:03.658118 13470 net.cpp:141] Setting up inception_4b/relu_5x5_reduce
I0403 14:38:03.658143 13470 net.cpp:148] Top shape: 24 24 14 14 (112896)
I0403 14:38:03.658159 13470 net.cpp:156] Memory required for data: 965772576
I0403 14:38:03.658172 13470 layer_factory.hpp:77] Creating layer inception_4b/5x5
I0403 14:38:03.658196 13470 net.cpp:91] Creating Layer inception_4b/5x5
I0403 14:38:03.658213 13470 net.cpp:425] inception_4b/5x5 <- inception_4b/5x5_reduce
I0403 14:38:03.658232 13470 net.cpp:399] inception_4b/5x5 -> inception_4b/5x5
I0403 14:38:03.659454 13470 net.cpp:141] Setting up inception_4b/5x5
I0403 14:38:03.659482 13470 net.cpp:148] Top shape: 24 64 14 14 (301056)
I0403 14:38:03.659498 13470 net.cpp:156] Memory required for data: 966976800
I0403 14:38:03.659517 13470 layer_factory.hpp:77] Creating layer inception_4b/relu_5x5
I0403 14:38:03.659533 13470 net.cpp:91] Creating Layer inception_4b/relu_5x5
I0403 14:38:03.659554 13470 net.cpp:425] inception_4b/relu_5x5 <- inception_4b/5x5
I0403 14:38:03.659574 13470 net.cpp:386] inception_4b/relu_5x5 -> inception_4b/5x5 (in-place)
I0403 14:38:03.659858 13470 net.cpp:141] Setting up inception_4b/relu_5x5
I0403 14:38:03.659884 13470 net.cpp:148] Top shape: 24 64 14 14 (301056)
I0403 14:38:03.659899 13470 net.cpp:156] Memory required for data: 968181024
I0403 14:38:03.659914 13470 layer_factory.hpp:77] Creating layer inception_4b/pool
I0403 14:38:03.659932 13470 net.cpp:91] Creating Layer inception_4b/pool
I0403 14:38:03.659947 13470 net.cpp:425] inception_4b/pool <- inception_4a/output_inception_4a/output_0_split_4
I0403 14:38:03.659970 13470 net.cpp:399] inception_4b/pool -> inception_4b/pool
I0403 14:38:03.660037 13470 net.cpp:141] Setting up inception_4b/pool
I0403 14:38:03.660059 13470 net.cpp:148] Top shape: 24 512 14 14 (2408448)
I0403 14:38:03.660074 13470 net.cpp:156] Memory required for data: 977814816
I0403 14:38:03.660087 13470 layer_factory.hpp:77] Creating layer inception_4b/pool_proj
I0403 14:38:03.660111 13470 net.cpp:91] Creating Layer inception_4b/pool_proj
I0403 14:38:03.660128 13470 net.cpp:425] inception_4b/pool_proj <- inception_4b/pool
I0403 14:38:03.660146 13470 net.cpp:399] inception_4b/pool_proj -> inception_4b/pool_proj
I0403 14:38:03.661345 13470 net.cpp:141] Setting up inception_4b/pool_proj
I0403 14:38:03.661371 13470 net.cpp:148] Top shape: 24 64 14 14 (301056)
I0403 14:38:03.661387 13470 net.cpp:156] Memory required for data: 979019040
I0403 14:38:03.661406 13470 layer_factory.hpp:77] Creating layer inception_4b/relu_pool_proj
I0403 14:38:03.661424 13470 net.cpp:91] Creating Layer inception_4b/relu_pool_proj
I0403 14:38:03.661442 13470 net.cpp:425] inception_4b/relu_pool_proj <- inception_4b/pool_proj
I0403 14:38:03.661458 13470 net.cpp:386] inception_4b/relu_pool_proj -> inception_4b/pool_proj (in-place)
I0403 14:38:03.661645 13470 net.cpp:141] Setting up inception_4b/relu_pool_proj
I0403 14:38:03.661672 13470 net.cpp:148] Top shape: 24 64 14 14 (301056)
I0403 14:38:03.661689 13470 net.cpp:156] Memory required for data: 980223264
I0403 14:38:03.661702 13470 layer_factory.hpp:77] Creating layer inception_4b/output
I0403 14:38:03.661720 13470 net.cpp:91] Creating Layer inception_4b/output
I0403 14:38:03.661734 13470 net.cpp:425] inception_4b/output <- inception_4b/1x1
I0403 14:38:03.661751 13470 net.cpp:425] inception_4b/output <- inception_4b/3x3
I0403 14:38:03.661766 13470 net.cpp:425] inception_4b/output <- inception_4b/5x5
I0403 14:38:03.661780 13470 net.cpp:425] inception_4b/output <- inception_4b/pool_proj
I0403 14:38:03.661797 13470 net.cpp:399] inception_4b/output -> inception_4b/output
I0403 14:38:03.661844 13470 net.cpp:141] Setting up inception_4b/output
I0403 14:38:03.661866 13470 net.cpp:148] Top shape: 24 512 14 14 (2408448)
I0403 14:38:03.661880 13470 net.cpp:156] Memory required for data: 989857056
I0403 14:38:03.661909 13470 layer_factory.hpp:77] Creating layer inception_4b/output_inception_4b/output_0_split
I0403 14:38:03.661927 13470 net.cpp:91] Creating Layer inception_4b/output_inception_4b/output_0_split
I0403 14:38:03.661947 13470 net.cpp:425] inception_4b/output_inception_4b/output_0_split <- inception_4b/output
I0403 14:38:03.661963 13470 net.cpp:399] inception_4b/output_inception_4b/output_0_split -> inception_4b/output_inception_4b/output_0_split_0
I0403 14:38:03.661983 13470 net.cpp:399] inception_4b/output_inception_4b/output_0_split -> inception_4b/output_inception_4b/output_0_split_1
I0403 14:38:03.662003 13470 net.cpp:399] inception_4b/output_inception_4b/output_0_split -> inception_4b/output_inception_4b/output_0_split_2
I0403 14:38:03.662022 13470 net.cpp:399] inception_4b/output_inception_4b/output_0_split -> inception_4b/output_inception_4b/output_0_split_3
I0403 14:38:03.662106 13470 net.cpp:141] Setting up inception_4b/output_inception_4b/output_0_split
I0403 14:38:03.662129 13470 net.cpp:148] Top shape: 24 512 14 14 (2408448)
I0403 14:38:03.662144 13470 net.cpp:148] Top shape: 24 512 14 14 (2408448)
I0403 14:38:03.662159 13470 net.cpp:148] Top shape: 24 512 14 14 (2408448)
I0403 14:38:03.662174 13470 net.cpp:148] Top shape: 24 512 14 14 (2408448)
I0403 14:38:03.662189 13470 net.cpp:156] Memory required for data: 1028392224
I0403 14:38:03.662202 13470 layer_factory.hpp:77] Creating layer inception_4c/1x1
I0403 14:38:03.662223 13470 net.cpp:91] Creating Layer inception_4c/1x1
I0403 14:38:03.662241 13470 net.cpp:425] inception_4c/1x1 <- inception_4b/output_inception_4b/output_0_split_0
I0403 14:38:03.662262 13470 net.cpp:399] inception_4c/1x1 -> inception_4c/1x1
I0403 14:38:03.663705 13470 net.cpp:141] Setting up inception_4c/1x1
I0403 14:38:03.663736 13470 net.cpp:148] Top shape: 24 128 14 14 (602112)
I0403 14:38:03.663753 13470 net.cpp:156] Memory required for data: 1030800672
I0403 14:38:03.663771 13470 layer_factory.hpp:77] Creating layer inception_4c/relu_1x1
I0403 14:38:03.663789 13470 net.cpp:91] Creating Layer inception_4c/relu_1x1
I0403 14:38:03.663815 13470 net.cpp:425] inception_4c/relu_1x1 <- inception_4c/1x1
I0403 14:38:03.663831 13470 net.cpp:386] inception_4c/relu_1x1 -> inception_4c/1x1 (in-place)
I0403 14:38:03.664027 13470 net.cpp:141] Setting up inception_4c/relu_1x1
I0403 14:38:03.664053 13470 net.cpp:148] Top shape: 24 128 14 14 (602112)
I0403 14:38:03.664069 13470 net.cpp:156] Memory required for data: 1033209120
I0403 14:38:03.664084 13470 layer_factory.hpp:77] Creating layer inception_4c/3x3_reduce
I0403 14:38:03.664108 13470 net.cpp:91] Creating Layer inception_4c/3x3_reduce
I0403 14:38:03.664124 13470 net.cpp:425] inception_4c/3x3_reduce <- inception_4b/output_inception_4b/output_0_split_1
I0403 14:38:03.664149 13470 net.cpp:399] inception_4c/3x3_reduce -> inception_4c/3x3_reduce
I0403 14:38:03.666190 13470 net.cpp:141] Setting up inception_4c/3x3_reduce
I0403 14:38:03.666223 13470 net.cpp:148] Top shape: 24 128 14 14 (602112)
I0403 14:38:03.666239 13470 net.cpp:156] Memory required for data: 1035617568
I0403 14:38:03.666255 13470 layer_factory.hpp:77] Creating layer inception_4c/relu_3x3_reduce
I0403 14:38:03.666275 13470 net.cpp:91] Creating Layer inception_4c/relu_3x3_reduce
I0403 14:38:03.666292 13470 net.cpp:425] inception_4c/relu_3x3_reduce <- inception_4c/3x3_reduce
I0403 14:38:03.666309 13470 net.cpp:386] inception_4c/relu_3x3_reduce -> inception_4c/3x3_reduce (in-place)
I0403 14:38:03.666601 13470 net.cpp:141] Setting up inception_4c/relu_3x3_reduce
I0403 14:38:03.666627 13470 net.cpp:148] Top shape: 24 128 14 14 (602112)
I0403 14:38:03.666642 13470 net.cpp:156] Memory required for data: 1038026016
I0403 14:38:03.666657 13470 layer_factory.hpp:77] Creating layer inception_4c/3x3
I0403 14:38:03.666679 13470 net.cpp:91] Creating Layer inception_4c/3x3
I0403 14:38:03.666697 13470 net.cpp:425] inception_4c/3x3 <- inception_4c/3x3_reduce
I0403 14:38:03.666719 13470 net.cpp:399] inception_4c/3x3 -> inception_4c/3x3
I0403 14:38:03.670342 13470 net.cpp:141] Setting up inception_4c/3x3
I0403 14:38:03.670383 13470 net.cpp:148] Top shape: 24 256 14 14 (1204224)
I0403 14:38:03.670399 13470 net.cpp:156] Memory required for data: 1042842912
I0403 14:38:03.670433 13470 layer_factory.hpp:77] Creating layer inception_4c/relu_3x3
I0403 14:38:03.670455 13470 net.cpp:91] Creating Layer inception_4c/relu_3x3
I0403 14:38:03.670474 13470 net.cpp:425] inception_4c/relu_3x3 <- inception_4c/3x3
I0403 14:38:03.670490 13470 net.cpp:386] inception_4c/relu_3x3 -> inception_4c/3x3 (in-place)
I0403 14:38:03.670689 13470 net.cpp:141] Setting up inception_4c/relu_3x3
I0403 14:38:03.670713 13470 net.cpp:148] Top shape: 24 256 14 14 (1204224)
I0403 14:38:03.670727 13470 net.cpp:156] Memory required for data: 1047659808
I0403 14:38:03.670742 13470 layer_factory.hpp:77] Creating layer inception_4c/5x5_reduce
I0403 14:38:03.670763 13470 net.cpp:91] Creating Layer inception_4c/5x5_reduce
I0403 14:38:03.670780 13470 net.cpp:425] inception_4c/5x5_reduce <- inception_4b/output_inception_4b/output_0_split_2
I0403 14:38:03.670800 13470 net.cpp:399] inception_4c/5x5_reduce -> inception_4c/5x5_reduce
I0403 14:38:03.671910 13470 net.cpp:141] Setting up inception_4c/5x5_reduce
I0403 14:38:03.671937 13470 net.cpp:148] Top shape: 24 24 14 14 (112896)
I0403 14:38:03.671952 13470 net.cpp:156] Memory required for data: 1048111392
I0403 14:38:03.671970 13470 layer_factory.hpp:77] Creating layer inception_4c/relu_5x5_reduce
I0403 14:38:03.671989 13470 net.cpp:91] Creating Layer inception_4c/relu_5x5_reduce
I0403 14:38:03.672006 13470 net.cpp:425] inception_4c/relu_5x5_reduce <- inception_4c/5x5_reduce
I0403 14:38:03.672022 13470 net.cpp:386] inception_4c/relu_5x5_reduce -> inception_4c/5x5_reduce (in-place)
I0403 14:38:03.672204 13470 net.cpp:141] Setting up inception_4c/relu_5x5_reduce
I0403 14:38:03.672227 13470 net.cpp:148] Top shape: 24 24 14 14 (112896)
I0403 14:38:03.672242 13470 net.cpp:156] Memory required for data: 1048562976
I0403 14:38:03.672256 13470 layer_factory.hpp:77] Creating layer inception_4c/5x5
I0403 14:38:03.672282 13470 net.cpp:91] Creating Layer inception_4c/5x5
I0403 14:38:03.672300 13470 net.cpp:425] inception_4c/5x5 <- inception_4c/5x5_reduce
I0403 14:38:03.672317 13470 net.cpp:399] inception_4c/5x5 -> inception_4c/5x5
I0403 14:38:03.673543 13470 net.cpp:141] Setting up inception_4c/5x5
I0403 14:38:03.673573 13470 net.cpp:148] Top shape: 24 64 14 14 (301056)
I0403 14:38:03.673588 13470 net.cpp:156] Memory required for data: 1049767200
I0403 14:38:03.673606 13470 layer_factory.hpp:77] Creating layer inception_4c/relu_5x5
I0403 14:38:03.673624 13470 net.cpp:91] Creating Layer inception_4c/relu_5x5
I0403 14:38:03.673638 13470 net.cpp:425] inception_4c/relu_5x5 <- inception_4c/5x5
I0403 14:38:03.673655 13470 net.cpp:386] inception_4c/relu_5x5 -> inception_4c/5x5 (in-place)
I0403 14:38:03.673938 13470 net.cpp:141] Setting up inception_4c/relu_5x5
I0403 14:38:03.673964 13470 net.cpp:148] Top shape: 24 64 14 14 (301056)
I0403 14:38:03.673980 13470 net.cpp:156] Memory required for data: 1050971424
I0403 14:38:03.673993 13470 layer_factory.hpp:77] Creating layer inception_4c/pool
I0403 14:38:03.674010 13470 net.cpp:91] Creating Layer inception_4c/pool
I0403 14:38:03.674026 13470 net.cpp:425] inception_4c/pool <- inception_4b/output_inception_4b/output_0_split_3
I0403 14:38:03.674043 13470 net.cpp:399] inception_4c/pool -> inception_4c/pool
I0403 14:38:03.674106 13470 net.cpp:141] Setting up inception_4c/pool
I0403 14:38:03.674130 13470 net.cpp:148] Top shape: 24 512 14 14 (2408448)
I0403 14:38:03.674144 13470 net.cpp:156] Memory required for data: 1060605216
I0403 14:38:03.674157 13470 layer_factory.hpp:77] Creating layer inception_4c/pool_proj
I0403 14:38:03.674180 13470 net.cpp:91] Creating Layer inception_4c/pool_proj
I0403 14:38:03.674196 13470 net.cpp:425] inception_4c/pool_proj <- inception_4c/pool
I0403 14:38:03.674216 13470 net.cpp:399] inception_4c/pool_proj -> inception_4c/pool_proj
I0403 14:38:03.675457 13470 net.cpp:141] Setting up inception_4c/pool_proj
I0403 14:38:03.675485 13470 net.cpp:148] Top shape: 24 64 14 14 (301056)
I0403 14:38:03.675514 13470 net.cpp:156] Memory required for data: 1061809440
I0403 14:38:03.675532 13470 layer_factory.hpp:77] Creating layer inception_4c/relu_pool_proj
I0403 14:38:03.675559 13470 net.cpp:91] Creating Layer inception_4c/relu_pool_proj
I0403 14:38:03.675575 13470 net.cpp:425] inception_4c/relu_pool_proj <- inception_4c/pool_proj
I0403 14:38:03.675592 13470 net.cpp:386] inception_4c/relu_pool_proj -> inception_4c/pool_proj (in-place)
I0403 14:38:03.675770 13470 net.cpp:141] Setting up inception_4c/relu_pool_proj
I0403 14:38:03.675796 13470 net.cpp:148] Top shape: 24 64 14 14 (301056)
I0403 14:38:03.675812 13470 net.cpp:156] Memory required for data: 1063013664
I0403 14:38:03.675825 13470 layer_factory.hpp:77] Creating layer inception_4c/output
I0403 14:38:03.675843 13470 net.cpp:91] Creating Layer inception_4c/output
I0403 14:38:03.675858 13470 net.cpp:425] inception_4c/output <- inception_4c/1x1
I0403 14:38:03.675873 13470 net.cpp:425] inception_4c/output <- inception_4c/3x3
I0403 14:38:03.675887 13470 net.cpp:425] inception_4c/output <- inception_4c/5x5
I0403 14:38:03.675902 13470 net.cpp:425] inception_4c/output <- inception_4c/pool_proj
I0403 14:38:03.675918 13470 net.cpp:399] inception_4c/output -> inception_4c/output
I0403 14:38:03.675967 13470 net.cpp:141] Setting up inception_4c/output
I0403 14:38:03.675990 13470 net.cpp:148] Top shape: 24 512 14 14 (2408448)
I0403 14:38:03.676004 13470 net.cpp:156] Memory required for data: 1072647456
I0403 14:38:03.676017 13470 layer_factory.hpp:77] Creating layer inception_4c/output_inception_4c/output_0_split
I0403 14:38:03.676033 13470 net.cpp:91] Creating Layer inception_4c/output_inception_4c/output_0_split
I0403 14:38:03.676048 13470 net.cpp:425] inception_4c/output_inception_4c/output_0_split <- inception_4c/output
I0403 14:38:03.676066 13470 net.cpp:399] inception_4c/output_inception_4c/output_0_split -> inception_4c/output_inception_4c/output_0_split_0
I0403 14:38:03.676086 13470 net.cpp:399] inception_4c/output_inception_4c/output_0_split -> inception_4c/output_inception_4c/output_0_split_1
I0403 14:38:03.676105 13470 net.cpp:399] inception_4c/output_inception_4c/output_0_split -> inception_4c/output_inception_4c/output_0_split_2
I0403 14:38:03.676125 13470 net.cpp:399] inception_4c/output_inception_4c/output_0_split -> inception_4c/output_inception_4c/output_0_split_3
I0403 14:38:03.676206 13470 net.cpp:141] Setting up inception_4c/output_inception_4c/output_0_split
I0403 14:38:03.676229 13470 net.cpp:148] Top shape: 24 512 14 14 (2408448)
I0403 14:38:03.676244 13470 net.cpp:148] Top shape: 24 512 14 14 (2408448)
I0403 14:38:03.676260 13470 net.cpp:148] Top shape: 24 512 14 14 (2408448)
I0403 14:38:03.676275 13470 net.cpp:148] Top shape: 24 512 14 14 (2408448)
I0403 14:38:03.676287 13470 net.cpp:156] Memory required for data: 1111182624
I0403 14:38:03.676301 13470 layer_factory.hpp:77] Creating layer inception_4d/1x1
I0403 14:38:03.676323 13470 net.cpp:91] Creating Layer inception_4d/1x1
I0403 14:38:03.676340 13470 net.cpp:425] inception_4d/1x1 <- inception_4c/output_inception_4c/output_0_split_0
I0403 14:38:03.676360 13470 net.cpp:399] inception_4d/1x1 -> inception_4d/1x1
I0403 14:38:03.677743 13470 net.cpp:141] Setting up inception_4d/1x1
I0403 14:38:03.677772 13470 net.cpp:148] Top shape: 24 112 14 14 (526848)
I0403 14:38:03.677786 13470 net.cpp:156] Memory required for data: 1113290016
I0403 14:38:03.677804 13470 layer_factory.hpp:77] Creating layer inception_4d/relu_1x1
I0403 14:38:03.677821 13470 net.cpp:91] Creating Layer inception_4d/relu_1x1
I0403 14:38:03.677836 13470 net.cpp:425] inception_4d/relu_1x1 <- inception_4d/1x1
I0403 14:38:03.677855 13470 net.cpp:386] inception_4d/relu_1x1 -> inception_4d/1x1 (in-place)
I0403 14:38:03.678035 13470 net.cpp:141] Setting up inception_4d/relu_1x1
I0403 14:38:03.678058 13470 net.cpp:148] Top shape: 24 112 14 14 (526848)
I0403 14:38:03.678072 13470 net.cpp:156] Memory required for data: 1115397408
I0403 14:38:03.678086 13470 layer_factory.hpp:77] Creating layer inception_4d/3x3_reduce
I0403 14:38:03.678122 13470 net.cpp:91] Creating Layer inception_4d/3x3_reduce
I0403 14:38:03.678141 13470 net.cpp:425] inception_4d/3x3_reduce <- inception_4c/output_inception_4c/output_0_split_1
I0403 14:38:03.678161 13470 net.cpp:399] inception_4d/3x3_reduce -> inception_4d/3x3_reduce
I0403 14:38:03.679643 13470 net.cpp:141] Setting up inception_4d/3x3_reduce
I0403 14:38:03.679671 13470 net.cpp:148] Top shape: 24 144 14 14 (677376)
I0403 14:38:03.679685 13470 net.cpp:156] Memory required for data: 1118106912
I0403 14:38:03.679703 13470 layer_factory.hpp:77] Creating layer inception_4d/relu_3x3_reduce
I0403 14:38:03.679723 13470 net.cpp:91] Creating Layer inception_4d/relu_3x3_reduce
I0403 14:38:03.679739 13470 net.cpp:425] inception_4d/relu_3x3_reduce <- inception_4d/3x3_reduce
I0403 14:38:03.679755 13470 net.cpp:386] inception_4d/relu_3x3_reduce -> inception_4d/3x3_reduce (in-place)
I0403 14:38:03.680039 13470 net.cpp:141] Setting up inception_4d/relu_3x3_reduce
I0403 14:38:03.680065 13470 net.cpp:148] Top shape: 24 144 14 14 (677376)
I0403 14:38:03.680079 13470 net.cpp:156] Memory required for data: 1120816416
I0403 14:38:03.680094 13470 layer_factory.hpp:77] Creating layer inception_4d/3x3
I0403 14:38:03.680116 13470 net.cpp:91] Creating Layer inception_4d/3x3
I0403 14:38:03.680133 13470 net.cpp:425] inception_4d/3x3 <- inception_4d/3x3_reduce
I0403 14:38:03.680151 13470 net.cpp:399] inception_4d/3x3 -> inception_4d/3x3
I0403 14:38:03.684343 13470 net.cpp:141] Setting up inception_4d/3x3
I0403 14:38:03.684373 13470 net.cpp:148] Top shape: 24 288 14 14 (1354752)
I0403 14:38:03.684389 13470 net.cpp:156] Memory required for data: 1126235424
I0403 14:38:03.684407 13470 layer_factory.hpp:77] Creating layer inception_4d/relu_3x3
I0403 14:38:03.684424 13470 net.cpp:91] Creating Layer inception_4d/relu_3x3
I0403 14:38:03.684439 13470 net.cpp:425] inception_4d/relu_3x3 <- inception_4d/3x3
I0403 14:38:03.684461 13470 net.cpp:386] inception_4d/relu_3x3 -> inception_4d/3x3 (in-place)
I0403 14:38:03.684651 13470 net.cpp:141] Setting up inception_4d/relu_3x3
I0403 14:38:03.684676 13470 net.cpp:148] Top shape: 24 288 14 14 (1354752)
I0403 14:38:03.684691 13470 net.cpp:156] Memory required for data: 1131654432
I0403 14:38:03.684705 13470 layer_factory.hpp:77] Creating layer inception_4d/5x5_reduce
I0403 14:38:03.684726 13470 net.cpp:91] Creating Layer inception_4d/5x5_reduce
I0403 14:38:03.684743 13470 net.cpp:425] inception_4d/5x5_reduce <- inception_4c/output_inception_4c/output_0_split_2
I0403 14:38:03.684764 13470 net.cpp:399] inception_4d/5x5_reduce -> inception_4d/5x5_reduce
I0403 14:38:03.685906 13470 net.cpp:141] Setting up inception_4d/5x5_reduce
I0403 14:38:03.685933 13470 net.cpp:148] Top shape: 24 32 14 14 (150528)
I0403 14:38:03.685948 13470 net.cpp:156] Memory required for data: 1132256544
I0403 14:38:03.685966 13470 layer_factory.hpp:77] Creating layer inception_4d/relu_5x5_reduce
I0403 14:38:03.685982 13470 net.cpp:91] Creating Layer inception_4d/relu_5x5_reduce
I0403 14:38:03.685997 13470 net.cpp:425] inception_4d/relu_5x5_reduce <- inception_4d/5x5_reduce
I0403 14:38:03.686015 13470 net.cpp:386] inception_4d/relu_5x5_reduce -> inception_4d/5x5_reduce (in-place)
I0403 14:38:03.686197 13470 net.cpp:141] Setting up inception_4d/relu_5x5_reduce
I0403 14:38:03.686221 13470 net.cpp:148] Top shape: 24 32 14 14 (150528)
I0403 14:38:03.686235 13470 net.cpp:156] Memory required for data: 1132858656
I0403 14:38:03.686249 13470 layer_factory.hpp:77] Creating layer inception_4d/5x5
I0403 14:38:03.686271 13470 net.cpp:91] Creating Layer inception_4d/5x5
I0403 14:38:03.686288 13470 net.cpp:425] inception_4d/5x5 <- inception_4d/5x5_reduce
I0403 14:38:03.686308 13470 net.cpp:399] inception_4d/5x5 -> inception_4d/5x5
I0403 14:38:03.687769 13470 net.cpp:141] Setting up inception_4d/5x5
I0403 14:38:03.687795 13470 net.cpp:148] Top shape: 24 64 14 14 (301056)
I0403 14:38:03.687810 13470 net.cpp:156] Memory required for data: 1134062880
I0403 14:38:03.687829 13470 layer_factory.hpp:77] Creating layer inception_4d/relu_5x5
I0403 14:38:03.687862 13470 net.cpp:91] Creating Layer inception_4d/relu_5x5
I0403 14:38:03.687878 13470 net.cpp:425] inception_4d/relu_5x5 <- inception_4d/5x5
I0403 14:38:03.687896 13470 net.cpp:386] inception_4d/relu_5x5 -> inception_4d/5x5 (in-place)
I0403 14:38:03.688197 13470 net.cpp:141] Setting up inception_4d/relu_5x5
I0403 14:38:03.688222 13470 net.cpp:148] Top shape: 24 64 14 14 (301056)
I0403 14:38:03.688236 13470 net.cpp:156] Memory required for data: 1135267104
I0403 14:38:03.688251 13470 layer_factory.hpp:77] Creating layer inception_4d/pool
I0403 14:38:03.688271 13470 net.cpp:91] Creating Layer inception_4d/pool
I0403 14:38:03.688288 13470 net.cpp:425] inception_4d/pool <- inception_4c/output_inception_4c/output_0_split_3
I0403 14:38:03.688305 13470 net.cpp:399] inception_4d/pool -> inception_4d/pool
I0403 14:38:03.688369 13470 net.cpp:141] Setting up inception_4d/pool
I0403 14:38:03.688391 13470 net.cpp:148] Top shape: 24 512 14 14 (2408448)
I0403 14:38:03.688405 13470 net.cpp:156] Memory required for data: 1144900896
I0403 14:38:03.688418 13470 layer_factory.hpp:77] Creating layer inception_4d/pool_proj
I0403 14:38:03.688439 13470 net.cpp:91] Creating Layer inception_4d/pool_proj
I0403 14:38:03.688457 13470 net.cpp:425] inception_4d/pool_proj <- inception_4d/pool
I0403 14:38:03.688477 13470 net.cpp:399] inception_4d/pool_proj -> inception_4d/pool_proj
I0403 14:38:03.690214 13470 net.cpp:141] Setting up inception_4d/pool_proj
I0403 14:38:03.690243 13470 net.cpp:148] Top shape: 24 64 14 14 (301056)
I0403 14:38:03.690256 13470 net.cpp:156] Memory required for data: 1146105120
I0403 14:38:03.690274 13470 layer_factory.hpp:77] Creating layer inception_4d/relu_pool_proj
I0403 14:38:03.690290 13470 net.cpp:91] Creating Layer inception_4d/relu_pool_proj
I0403 14:38:03.690306 13470 net.cpp:425] inception_4d/relu_pool_proj <- inception_4d/pool_proj
I0403 14:38:03.690325 13470 net.cpp:386] inception_4d/relu_pool_proj -> inception_4d/pool_proj (in-place)
I0403 14:38:03.690505 13470 net.cpp:141] Setting up inception_4d/relu_pool_proj
I0403 14:38:03.690529 13470 net.cpp:148] Top shape: 24 64 14 14 (301056)
I0403 14:38:03.690548 13470 net.cpp:156] Memory required for data: 1147309344
I0403 14:38:03.690563 13470 layer_factory.hpp:77] Creating layer inception_4d/output
I0403 14:38:03.690579 13470 net.cpp:91] Creating Layer inception_4d/output
I0403 14:38:03.690594 13470 net.cpp:425] inception_4d/output <- inception_4d/1x1
I0403 14:38:03.690609 13470 net.cpp:425] inception_4d/output <- inception_4d/3x3
I0403 14:38:03.690624 13470 net.cpp:425] inception_4d/output <- inception_4d/5x5
I0403 14:38:03.690640 13470 net.cpp:425] inception_4d/output <- inception_4d/pool_proj
I0403 14:38:03.690659 13470 net.cpp:399] inception_4d/output -> inception_4d/output
I0403 14:38:03.690711 13470 net.cpp:141] Setting up inception_4d/output
I0403 14:38:03.690733 13470 net.cpp:148] Top shape: 24 528 14 14 (2483712)
I0403 14:38:03.690747 13470 net.cpp:156] Memory required for data: 1157244192
I0403 14:38:03.690762 13470 layer_factory.hpp:77] Creating layer inception_4d/output_inception_4d/output_0_split
I0403 14:38:03.690778 13470 net.cpp:91] Creating Layer inception_4d/output_inception_4d/output_0_split
I0403 14:38:03.690793 13470 net.cpp:425] inception_4d/output_inception_4d/output_0_split <- inception_4d/output
I0403 14:38:03.690812 13470 net.cpp:399] inception_4d/output_inception_4d/output_0_split -> inception_4d/output_inception_4d/output_0_split_0
I0403 14:38:03.690834 13470 net.cpp:399] inception_4d/output_inception_4d/output_0_split -> inception_4d/output_inception_4d/output_0_split_1
I0403 14:38:03.690852 13470 net.cpp:399] inception_4d/output_inception_4d/output_0_split -> inception_4d/output_inception_4d/output_0_split_2
I0403 14:38:03.690871 13470 net.cpp:399] inception_4d/output_inception_4d/output_0_split -> inception_4d/output_inception_4d/output_0_split_3
I0403 14:38:03.690891 13470 net.cpp:399] inception_4d/output_inception_4d/output_0_split -> inception_4d/output_inception_4d/output_0_split_4
I0403 14:38:03.690989 13470 net.cpp:141] Setting up inception_4d/output_inception_4d/output_0_split
I0403 14:38:03.691025 13470 net.cpp:148] Top shape: 24 528 14 14 (2483712)
I0403 14:38:03.691041 13470 net.cpp:148] Top shape: 24 528 14 14 (2483712)
I0403 14:38:03.691056 13470 net.cpp:148] Top shape: 24 528 14 14 (2483712)
I0403 14:38:03.691071 13470 net.cpp:148] Top shape: 24 528 14 14 (2483712)
I0403 14:38:03.691084 13470 net.cpp:148] Top shape: 24 528 14 14 (2483712)
I0403 14:38:03.691097 13470 net.cpp:156] Memory required for data: 1206918432
I0403 14:38:03.691110 13470 layer_factory.hpp:77] Creating layer loss2/ave_pool
I0403 14:38:03.691128 13470 net.cpp:91] Creating Layer loss2/ave_pool
I0403 14:38:03.691143 13470 net.cpp:425] loss2/ave_pool <- inception_4d/output_inception_4d/output_0_split_0
I0403 14:38:03.691161 13470 net.cpp:399] loss2/ave_pool -> loss2/ave_pool
I0403 14:38:03.691468 13470 net.cpp:141] Setting up loss2/ave_pool
I0403 14:38:03.691493 13470 net.cpp:148] Top shape: 24 528 4 4 (202752)
I0403 14:38:03.691509 13470 net.cpp:156] Memory required for data: 1207729440
I0403 14:38:03.691522 13470 layer_factory.hpp:77] Creating layer loss2/conv
I0403 14:38:03.691560 13470 net.cpp:91] Creating Layer loss2/conv
I0403 14:38:03.691581 13470 net.cpp:425] loss2/conv <- loss2/ave_pool
I0403 14:38:03.691607 13470 net.cpp:399] loss2/conv -> loss2/conv
I0403 14:38:03.693578 13470 net.cpp:141] Setting up loss2/conv
I0403 14:38:03.693605 13470 net.cpp:148] Top shape: 24 128 4 4 (49152)
I0403 14:38:03.693621 13470 net.cpp:156] Memory required for data: 1207926048
I0403 14:38:03.693640 13470 layer_factory.hpp:77] Creating layer loss2/relu_conv
I0403 14:38:03.693660 13470 net.cpp:91] Creating Layer loss2/relu_conv
I0403 14:38:03.693677 13470 net.cpp:425] loss2/relu_conv <- loss2/conv
I0403 14:38:03.693694 13470 net.cpp:386] loss2/relu_conv -> loss2/conv (in-place)
I0403 14:38:03.693984 13470 net.cpp:141] Setting up loss2/relu_conv
I0403 14:38:03.694011 13470 net.cpp:148] Top shape: 24 128 4 4 (49152)
I0403 14:38:03.694026 13470 net.cpp:156] Memory required for data: 1208122656
I0403 14:38:03.694041 13470 layer_factory.hpp:77] Creating layer loss2/fc
I0403 14:38:03.694062 13470 net.cpp:91] Creating Layer loss2/fc
I0403 14:38:03.694079 13470 net.cpp:425] loss2/fc <- loss2/conv
I0403 14:38:03.694099 13470 net.cpp:399] loss2/fc -> loss2/fc
I0403 14:38:03.712159 13470 net.cpp:141] Setting up loss2/fc
I0403 14:38:03.712195 13470 net.cpp:148] Top shape: 24 1024 (24576)
I0403 14:38:03.712211 13470 net.cpp:156] Memory required for data: 1208220960
I0403 14:38:03.712231 13470 layer_factory.hpp:77] Creating layer loss2/relu_fc
I0403 14:38:03.712250 13470 net.cpp:91] Creating Layer loss2/relu_fc
I0403 14:38:03.712270 13470 net.cpp:425] loss2/relu_fc <- loss2/fc
I0403 14:38:03.712290 13470 net.cpp:386] loss2/relu_fc -> loss2/fc (in-place)
I0403 14:38:03.712633 13470 net.cpp:141] Setting up loss2/relu_fc
I0403 14:38:03.712661 13470 net.cpp:148] Top shape: 24 1024 (24576)
I0403 14:38:03.712677 13470 net.cpp:156] Memory required for data: 1208319264
I0403 14:38:03.712692 13470 layer_factory.hpp:77] Creating layer loss2/drop_fc
I0403 14:38:03.712709 13470 net.cpp:91] Creating Layer loss2/drop_fc
I0403 14:38:03.712724 13470 net.cpp:425] loss2/drop_fc <- loss2/fc
I0403 14:38:03.712744 13470 net.cpp:386] loss2/drop_fc -> loss2/fc (in-place)
I0403 14:38:03.712795 13470 net.cpp:141] Setting up loss2/drop_fc
I0403 14:38:03.712821 13470 net.cpp:148] Top shape: 24 1024 (24576)
I0403 14:38:03.712836 13470 net.cpp:156] Memory required for data: 1208417568
I0403 14:38:03.712855 13470 layer_factory.hpp:77] Creating layer loss2/classifier_plantvillage
I0403 14:38:03.712885 13470 net.cpp:91] Creating Layer loss2/classifier_plantvillage
I0403 14:38:03.712900 13470 net.cpp:425] loss2/classifier_plantvillage <- loss2/fc
I0403 14:38:03.712923 13470 net.cpp:399] loss2/classifier_plantvillage -> loss2/classifier_plantvillage
I0403 14:38:03.713356 13470 net.cpp:141] Setting up loss2/classifier_plantvillage
I0403 14:38:03.713381 13470 net.cpp:148] Top shape: 24 38 (912)
I0403 14:38:03.713421 13470 net.cpp:156] Memory required for data: 1208421216
I0403 14:38:03.713441 13470 layer_factory.hpp:77] Creating layer loss2/classifier_plantvillage_loss2/classifier_plantvillage_0_split
I0403 14:38:03.713461 13470 net.cpp:91] Creating Layer loss2/classifier_plantvillage_loss2/classifier_plantvillage_0_split
I0403 14:38:03.713479 13470 net.cpp:425] loss2/classifier_plantvillage_loss2/classifier_plantvillage_0_split <- loss2/classifier_plantvillage
I0403 14:38:03.713495 13470 net.cpp:399] loss2/classifier_plantvillage_loss2/classifier_plantvillage_0_split -> loss2/classifier_plantvillage_loss2/classifier_plantvillage_0_split_0
I0403 14:38:03.713515 13470 net.cpp:399] loss2/classifier_plantvillage_loss2/classifier_plantvillage_0_split -> loss2/classifier_plantvillage_loss2/classifier_plantvillage_0_split_1
I0403 14:38:03.713543 13470 net.cpp:399] loss2/classifier_plantvillage_loss2/classifier_plantvillage_0_split -> loss2/classifier_plantvillage_loss2/classifier_plantvillage_0_split_2
I0403 14:38:03.713626 13470 net.cpp:141] Setting up loss2/classifier_plantvillage_loss2/classifier_plantvillage_0_split
I0403 14:38:03.713649 13470 net.cpp:148] Top shape: 24 38 (912)
I0403 14:38:03.713665 13470 net.cpp:148] Top shape: 24 38 (912)
I0403 14:38:03.713680 13470 net.cpp:148] Top shape: 24 38 (912)
I0403 14:38:03.713693 13470 net.cpp:156] Memory required for data: 1208432160
I0403 14:38:03.713707 13470 layer_factory.hpp:77] Creating layer inception_4e/1x1
I0403 14:38:03.713731 13470 net.cpp:91] Creating Layer inception_4e/1x1
I0403 14:38:03.713748 13470 net.cpp:425] inception_4e/1x1 <- inception_4d/output_inception_4d/output_0_split_1
I0403 14:38:03.713767 13470 net.cpp:399] inception_4e/1x1 -> inception_4e/1x1
I0403 14:38:03.715636 13470 net.cpp:141] Setting up inception_4e/1x1
I0403 14:38:03.715664 13470 net.cpp:148] Top shape: 24 256 14 14 (1204224)
I0403 14:38:03.715679 13470 net.cpp:156] Memory required for data: 1213249056
I0403 14:38:03.715698 13470 layer_factory.hpp:77] Creating layer inception_4e/relu_1x1
I0403 14:38:03.715723 13470 net.cpp:91] Creating Layer inception_4e/relu_1x1
I0403 14:38:03.715739 13470 net.cpp:425] inception_4e/relu_1x1 <- inception_4e/1x1
I0403 14:38:03.715755 13470 net.cpp:386] inception_4e/relu_1x1 -> inception_4e/1x1 (in-place)
I0403 14:38:03.716058 13470 net.cpp:141] Setting up inception_4e/relu_1x1
I0403 14:38:03.716084 13470 net.cpp:148] Top shape: 24 256 14 14 (1204224)
I0403 14:38:03.716099 13470 net.cpp:156] Memory required for data: 1218065952
I0403 14:38:03.716114 13470 layer_factory.hpp:77] Creating layer inception_4e/3x3_reduce
I0403 14:38:03.716136 13470 net.cpp:91] Creating Layer inception_4e/3x3_reduce
I0403 14:38:03.716153 13470 net.cpp:425] inception_4e/3x3_reduce <- inception_4d/output_inception_4d/output_0_split_2
I0403 14:38:03.716174 13470 net.cpp:399] inception_4e/3x3_reduce -> inception_4e/3x3_reduce
I0403 14:38:03.718415 13470 net.cpp:141] Setting up inception_4e/3x3_reduce
I0403 14:38:03.718443 13470 net.cpp:148] Top shape: 24 160 14 14 (752640)
I0403 14:38:03.718459 13470 net.cpp:156] Memory required for data: 1221076512
I0403 14:38:03.718477 13470 layer_factory.hpp:77] Creating layer inception_4e/relu_3x3_reduce
I0403 14:38:03.718497 13470 net.cpp:91] Creating Layer inception_4e/relu_3x3_reduce
I0403 14:38:03.718514 13470 net.cpp:425] inception_4e/relu_3x3_reduce <- inception_4e/3x3_reduce
I0403 14:38:03.718533 13470 net.cpp:386] inception_4e/relu_3x3_reduce -> inception_4e/3x3_reduce (in-place)
I0403 14:38:03.718730 13470 net.cpp:141] Setting up inception_4e/relu_3x3_reduce
I0403 14:38:03.718761 13470 net.cpp:148] Top shape: 24 160 14 14 (752640)
I0403 14:38:03.718777 13470 net.cpp:156] Memory required for data: 1224087072
I0403 14:38:03.718792 13470 layer_factory.hpp:77] Creating layer inception_4e/3x3
I0403 14:38:03.718814 13470 net.cpp:91] Creating Layer inception_4e/3x3
I0403 14:38:03.718832 13470 net.cpp:425] inception_4e/3x3 <- inception_4e/3x3_reduce
I0403 14:38:03.718852 13470 net.cpp:399] inception_4e/3x3 -> inception_4e/3x3
I0403 14:38:03.723896 13470 net.cpp:141] Setting up inception_4e/3x3
I0403 14:38:03.723940 13470 net.cpp:148] Top shape: 24 320 14 14 (1505280)
I0403 14:38:03.723958 13470 net.cpp:156] Memory required for data: 1230108192
I0403 14:38:03.723976 13470 layer_factory.hpp:77] Creating layer inception_4e/relu_3x3
I0403 14:38:03.723994 13470 net.cpp:91] Creating Layer inception_4e/relu_3x3
I0403 14:38:03.724009 13470 net.cpp:425] inception_4e/relu_3x3 <- inception_4e/3x3
I0403 14:38:03.724025 13470 net.cpp:386] inception_4e/relu_3x3 -> inception_4e/3x3 (in-place)
I0403 14:38:03.724333 13470 net.cpp:141] Setting up inception_4e/relu_3x3
I0403 14:38:03.724359 13470 net.cpp:148] Top shape: 24 320 14 14 (1505280)
I0403 14:38:03.724375 13470 net.cpp:156] Memory required for data: 1236129312
I0403 14:38:03.724388 13470 layer_factory.hpp:77] Creating layer inception_4e/5x5_reduce
I0403 14:38:03.724412 13470 net.cpp:91] Creating Layer inception_4e/5x5_reduce
I0403 14:38:03.724431 13470 net.cpp:425] inception_4e/5x5_reduce <- inception_4d/output_inception_4d/output_0_split_3
I0403 14:38:03.724452 13470 net.cpp:399] inception_4e/5x5_reduce -> inception_4e/5x5_reduce
I0403 14:38:03.725548 13470 net.cpp:141] Setting up inception_4e/5x5_reduce
I0403 14:38:03.725577 13470 net.cpp:148] Top shape: 24 32 14 14 (150528)
I0403 14:38:03.725592 13470 net.cpp:156] Memory required for data: 1236731424
I0403 14:38:03.725611 13470 layer_factory.hpp:77] Creating layer inception_4e/relu_5x5_reduce
I0403 14:38:03.725631 13470 net.cpp:91] Creating Layer inception_4e/relu_5x5_reduce
I0403 14:38:03.725648 13470 net.cpp:425] inception_4e/relu_5x5_reduce <- inception_4e/5x5_reduce
I0403 14:38:03.725664 13470 net.cpp:386] inception_4e/relu_5x5_reduce -> inception_4e/5x5_reduce (in-place)
I0403 14:38:03.725963 13470 net.cpp:141] Setting up inception_4e/relu_5x5_reduce
I0403 14:38:03.725989 13470 net.cpp:148] Top shape: 24 32 14 14 (150528)
I0403 14:38:03.726004 13470 net.cpp:156] Memory required for data: 1237333536
I0403 14:38:03.726019 13470 layer_factory.hpp:77] Creating layer inception_4e/5x5
I0403 14:38:03.726060 13470 net.cpp:91] Creating Layer inception_4e/5x5
I0403 14:38:03.726078 13470 net.cpp:425] inception_4e/5x5 <- inception_4e/5x5_reduce
I0403 14:38:03.726097 13470 net.cpp:399] inception_4e/5x5 -> inception_4e/5x5
I0403 14:38:03.727960 13470 net.cpp:141] Setting up inception_4e/5x5
I0403 14:38:03.727988 13470 net.cpp:148] Top shape: 24 128 14 14 (602112)
I0403 14:38:03.728004 13470 net.cpp:156] Memory required for data: 1239741984
I0403 14:38:03.728024 13470 layer_factory.hpp:77] Creating layer inception_4e/relu_5x5
I0403 14:38:03.728044 13470 net.cpp:91] Creating Layer inception_4e/relu_5x5
I0403 14:38:03.728060 13470 net.cpp:425] inception_4e/relu_5x5 <- inception_4e/5x5
I0403 14:38:03.728076 13470 net.cpp:386] inception_4e/relu_5x5 -> inception_4e/5x5 (in-place)
I0403 14:38:03.728272 13470 net.cpp:141] Setting up inception_4e/relu_5x5
I0403 14:38:03.728297 13470 net.cpp:148] Top shape: 24 128 14 14 (602112)
I0403 14:38:03.728312 13470 net.cpp:156] Memory required for data: 1242150432
I0403 14:38:03.728327 13470 layer_factory.hpp:77] Creating layer inception_4e/pool
I0403 14:38:03.728350 13470 net.cpp:91] Creating Layer inception_4e/pool
I0403 14:38:03.728368 13470 net.cpp:425] inception_4e/pool <- inception_4d/output_inception_4d/output_0_split_4
I0403 14:38:03.728384 13470 net.cpp:399] inception_4e/pool -> inception_4e/pool
I0403 14:38:03.728457 13470 net.cpp:141] Setting up inception_4e/pool
I0403 14:38:03.728480 13470 net.cpp:148] Top shape: 24 528 14 14 (2483712)
I0403 14:38:03.728495 13470 net.cpp:156] Memory required for data: 1252085280
I0403 14:38:03.728509 13470 layer_factory.hpp:77] Creating layer inception_4e/pool_proj
I0403 14:38:03.728531 13470 net.cpp:91] Creating Layer inception_4e/pool_proj
I0403 14:38:03.728561 13470 net.cpp:425] inception_4e/pool_proj <- inception_4e/pool
I0403 14:38:03.728582 13470 net.cpp:399] inception_4e/pool_proj -> inception_4e/pool_proj
I0403 14:38:03.730093 13470 net.cpp:141] Setting up inception_4e/pool_proj
I0403 14:38:03.730134 13470 net.cpp:148] Top shape: 24 128 14 14 (602112)
I0403 14:38:03.730149 13470 net.cpp:156] Memory required for data: 1254493728
I0403 14:38:03.730168 13470 layer_factory.hpp:77] Creating layer inception_4e/relu_pool_proj
I0403 14:38:03.730185 13470 net.cpp:91] Creating Layer inception_4e/relu_pool_proj
I0403 14:38:03.730201 13470 net.cpp:425] inception_4e/relu_pool_proj <- inception_4e/pool_proj
I0403 14:38:03.730221 13470 net.cpp:386] inception_4e/relu_pool_proj -> inception_4e/pool_proj (in-place)
I0403 14:38:03.730520 13470 net.cpp:141] Setting up inception_4e/relu_pool_proj
I0403 14:38:03.730550 13470 net.cpp:148] Top shape: 24 128 14 14 (602112)
I0403 14:38:03.730566 13470 net.cpp:156] Memory required for data: 1256902176
I0403 14:38:03.730581 13470 layer_factory.hpp:77] Creating layer inception_4e/output
I0403 14:38:03.730597 13470 net.cpp:91] Creating Layer inception_4e/output
I0403 14:38:03.730612 13470 net.cpp:425] inception_4e/output <- inception_4e/1x1
I0403 14:38:03.730628 13470 net.cpp:425] inception_4e/output <- inception_4e/3x3
I0403 14:38:03.730644 13470 net.cpp:425] inception_4e/output <- inception_4e/5x5
I0403 14:38:03.730660 13470 net.cpp:425] inception_4e/output <- inception_4e/pool_proj
I0403 14:38:03.730679 13470 net.cpp:399] inception_4e/output -> inception_4e/output
I0403 14:38:03.730728 13470 net.cpp:141] Setting up inception_4e/output
I0403 14:38:03.730754 13470 net.cpp:148] Top shape: 24 832 14 14 (3913728)
I0403 14:38:03.730770 13470 net.cpp:156] Memory required for data: 1272557088
I0403 14:38:03.730784 13470 layer_factory.hpp:77] Creating layer pool4/3x3_s2
I0403 14:38:03.730801 13470 net.cpp:91] Creating Layer pool4/3x3_s2
I0403 14:38:03.730816 13470 net.cpp:425] pool4/3x3_s2 <- inception_4e/output
I0403 14:38:03.730837 13470 net.cpp:399] pool4/3x3_s2 -> pool4/3x3_s2
I0403 14:38:03.730904 13470 net.cpp:141] Setting up pool4/3x3_s2
I0403 14:38:03.730928 13470 net.cpp:148] Top shape: 24 832 7 7 (978432)
I0403 14:38:03.730942 13470 net.cpp:156] Memory required for data: 1276470816
I0403 14:38:03.730957 13470 layer_factory.hpp:77] Creating layer pool4/3x3_s2_pool4/3x3_s2_0_split
I0403 14:38:03.730974 13470 net.cpp:91] Creating Layer pool4/3x3_s2_pool4/3x3_s2_0_split
I0403 14:38:03.730993 13470 net.cpp:425] pool4/3x3_s2_pool4/3x3_s2_0_split <- pool4/3x3_s2
I0403 14:38:03.731009 13470 net.cpp:399] pool4/3x3_s2_pool4/3x3_s2_0_split -> pool4/3x3_s2_pool4/3x3_s2_0_split_0
I0403 14:38:03.731029 13470 net.cpp:399] pool4/3x3_s2_pool4/3x3_s2_0_split -> pool4/3x3_s2_pool4/3x3_s2_0_split_1
I0403 14:38:03.731048 13470 net.cpp:399] pool4/3x3_s2_pool4/3x3_s2_0_split -> pool4/3x3_s2_pool4/3x3_s2_0_split_2
I0403 14:38:03.731070 13470 net.cpp:399] pool4/3x3_s2_pool4/3x3_s2_0_split -> pool4/3x3_s2_pool4/3x3_s2_0_split_3
I0403 14:38:03.731160 13470 net.cpp:141] Setting up pool4/3x3_s2_pool4/3x3_s2_0_split
I0403 14:38:03.731185 13470 net.cpp:148] Top shape: 24 832 7 7 (978432)
I0403 14:38:03.731200 13470 net.cpp:148] Top shape: 24 832 7 7 (978432)
I0403 14:38:03.731215 13470 net.cpp:148] Top shape: 24 832 7 7 (978432)
I0403 14:38:03.731230 13470 net.cpp:148] Top shape: 24 832 7 7 (978432)
I0403 14:38:03.731243 13470 net.cpp:156] Memory required for data: 1292125728
I0403 14:38:03.731257 13470 layer_factory.hpp:77] Creating layer inception_5a/1x1
I0403 14:38:03.731279 13470 net.cpp:91] Creating Layer inception_5a/1x1
I0403 14:38:03.731297 13470 net.cpp:425] inception_5a/1x1 <- pool4/3x3_s2_pool4/3x3_s2_0_split_0
I0403 14:38:03.731318 13470 net.cpp:399] inception_5a/1x1 -> inception_5a/1x1
I0403 14:38:03.734217 13470 net.cpp:141] Setting up inception_5a/1x1
I0403 14:38:03.734246 13470 net.cpp:148] Top shape: 24 256 7 7 (301056)
I0403 14:38:03.734264 13470 net.cpp:156] Memory required for data: 1293329952
I0403 14:38:03.734282 13470 layer_factory.hpp:77] Creating layer inception_5a/relu_1x1
I0403 14:38:03.734302 13470 net.cpp:91] Creating Layer inception_5a/relu_1x1
I0403 14:38:03.734318 13470 net.cpp:425] inception_5a/relu_1x1 <- inception_5a/1x1
I0403 14:38:03.734336 13470 net.cpp:386] inception_5a/relu_1x1 -> inception_5a/1x1 (in-place)
I0403 14:38:03.734678 13470 net.cpp:141] Setting up inception_5a/relu_1x1
I0403 14:38:03.734705 13470 net.cpp:148] Top shape: 24 256 7 7 (301056)
I0403 14:38:03.734721 13470 net.cpp:156] Memory required for data: 1294534176
I0403 14:38:03.734736 13470 layer_factory.hpp:77] Creating layer inception_5a/3x3_reduce
I0403 14:38:03.734760 13470 net.cpp:91] Creating Layer inception_5a/3x3_reduce
I0403 14:38:03.734777 13470 net.cpp:425] inception_5a/3x3_reduce <- pool4/3x3_s2_pool4/3x3_s2_0_split_1
I0403 14:38:03.734799 13470 net.cpp:399] inception_5a/3x3_reduce -> inception_5a/3x3_reduce
I0403 14:38:03.737303 13470 net.cpp:141] Setting up inception_5a/3x3_reduce
I0403 14:38:03.737334 13470 net.cpp:148] Top shape: 24 160 7 7 (188160)
I0403 14:38:03.737351 13470 net.cpp:156] Memory required for data: 1295286816
I0403 14:38:03.737370 13470 layer_factory.hpp:77] Creating layer inception_5a/relu_3x3_reduce
I0403 14:38:03.737387 13470 net.cpp:91] Creating Layer inception_5a/relu_3x3_reduce
I0403 14:38:03.737403 13470 net.cpp:425] inception_5a/relu_3x3_reduce <- inception_5a/3x3_reduce
I0403 14:38:03.737422 13470 net.cpp:386] inception_5a/relu_3x3_reduce -> inception_5a/3x3_reduce (in-place)
I0403 14:38:03.737619 13470 net.cpp:141] Setting up inception_5a/relu_3x3_reduce
I0403 14:38:03.737644 13470 net.cpp:148] Top shape: 24 160 7 7 (188160)
I0403 14:38:03.737659 13470 net.cpp:156] Memory required for data: 1296039456
I0403 14:38:03.737673 13470 layer_factory.hpp:77] Creating layer inception_5a/3x3
I0403 14:38:03.737695 13470 net.cpp:91] Creating Layer inception_5a/3x3
I0403 14:38:03.737712 13470 net.cpp:425] inception_5a/3x3 <- inception_5a/3x3_reduce
I0403 14:38:03.737735 13470 net.cpp:399] inception_5a/3x3 -> inception_5a/3x3
I0403 14:38:03.742805 13470 net.cpp:141] Setting up inception_5a/3x3
I0403 14:38:03.742833 13470 net.cpp:148] Top shape: 24 320 7 7 (376320)
I0403 14:38:03.742849 13470 net.cpp:156] Memory required for data: 1297544736
I0403 14:38:03.742868 13470 layer_factory.hpp:77] Creating layer inception_5a/relu_3x3
I0403 14:38:03.742888 13470 net.cpp:91] Creating Layer inception_5a/relu_3x3
I0403 14:38:03.742905 13470 net.cpp:425] inception_5a/relu_3x3 <- inception_5a/3x3
I0403 14:38:03.742923 13470 net.cpp:386] inception_5a/relu_3x3 -> inception_5a/3x3 (in-place)
I0403 14:38:03.743221 13470 net.cpp:141] Setting up inception_5a/relu_3x3
I0403 14:38:03.743247 13470 net.cpp:148] Top shape: 24 320 7 7 (376320)
I0403 14:38:03.743264 13470 net.cpp:156] Memory required for data: 1299050016
I0403 14:38:03.743278 13470 layer_factory.hpp:77] Creating layer inception_5a/5x5_reduce
I0403 14:38:03.743300 13470 net.cpp:91] Creating Layer inception_5a/5x5_reduce
I0403 14:38:03.743319 13470 net.cpp:425] inception_5a/5x5_reduce <- pool4/3x3_s2_pool4/3x3_s2_0_split_2
I0403 14:38:03.743341 13470 net.cpp:399] inception_5a/5x5_reduce -> inception_5a/5x5_reduce
I0403 14:38:03.744504 13470 net.cpp:141] Setting up inception_5a/5x5_reduce
I0403 14:38:03.744532 13470 net.cpp:148] Top shape: 24 32 7 7 (37632)
I0403 14:38:03.744561 13470 net.cpp:156] Memory required for data: 1299200544
I0403 14:38:03.744581 13470 layer_factory.hpp:77] Creating layer inception_5a/relu_5x5_reduce
I0403 14:38:03.744601 13470 net.cpp:91] Creating Layer inception_5a/relu_5x5_reduce
I0403 14:38:03.744618 13470 net.cpp:425] inception_5a/relu_5x5_reduce <- inception_5a/5x5_reduce
I0403 14:38:03.744634 13470 net.cpp:386] inception_5a/relu_5x5_reduce -> inception_5a/5x5_reduce (in-place)
I0403 14:38:03.744930 13470 net.cpp:141] Setting up inception_5a/relu_5x5_reduce
I0403 14:38:03.744956 13470 net.cpp:148] Top shape: 24 32 7 7 (37632)
I0403 14:38:03.744971 13470 net.cpp:156] Memory required for data: 1299351072
I0403 14:38:03.744984 13470 layer_factory.hpp:77] Creating layer inception_5a/5x5
I0403 14:38:03.745007 13470 net.cpp:91] Creating Layer inception_5a/5x5
I0403 14:38:03.745024 13470 net.cpp:425] inception_5a/5x5 <- inception_5a/5x5_reduce
I0403 14:38:03.745044 13470 net.cpp:399] inception_5a/5x5 -> inception_5a/5x5
I0403 14:38:03.746739 13470 net.cpp:141] Setting up inception_5a/5x5
I0403 14:38:03.746778 13470 net.cpp:148] Top shape: 24 128 7 7 (150528)
I0403 14:38:03.746794 13470 net.cpp:156] Memory required for data: 1299953184
I0403 14:38:03.746811 13470 layer_factory.hpp:77] Creating layer inception_5a/relu_5x5
I0403 14:38:03.746831 13470 net.cpp:91] Creating Layer inception_5a/relu_5x5
I0403 14:38:03.746847 13470 net.cpp:425] inception_5a/relu_5x5 <- inception_5a/5x5
I0403 14:38:03.746863 13470 net.cpp:386] inception_5a/relu_5x5 -> inception_5a/5x5 (in-place)
I0403 14:38:03.747052 13470 net.cpp:141] Setting up inception_5a/relu_5x5
I0403 14:38:03.747077 13470 net.cpp:148] Top shape: 24 128 7 7 (150528)
I0403 14:38:03.747090 13470 net.cpp:156] Memory required for data: 1300555296
I0403 14:38:03.747104 13470 layer_factory.hpp:77] Creating layer inception_5a/pool
I0403 14:38:03.747123 13470 net.cpp:91] Creating Layer inception_5a/pool
I0403 14:38:03.747139 13470 net.cpp:425] inception_5a/pool <- pool4/3x3_s2_pool4/3x3_s2_0_split_3
I0403 14:38:03.747158 13470 net.cpp:399] inception_5a/pool -> inception_5a/pool
I0403 14:38:03.747225 13470 net.cpp:141] Setting up inception_5a/pool
I0403 14:38:03.747247 13470 net.cpp:148] Top shape: 24 832 7 7 (978432)
I0403 14:38:03.747264 13470 net.cpp:156] Memory required for data: 1304469024
I0403 14:38:03.747278 13470 layer_factory.hpp:77] Creating layer inception_5a/pool_proj
I0403 14:38:03.747300 13470 net.cpp:91] Creating Layer inception_5a/pool_proj
I0403 14:38:03.747316 13470 net.cpp:425] inception_5a/pool_proj <- inception_5a/pool
I0403 14:38:03.747336 13470 net.cpp:399] inception_5a/pool_proj -> inception_5a/pool_proj
I0403 14:38:03.749688 13470 net.cpp:141] Setting up inception_5a/pool_proj
I0403 14:38:03.749719 13470 net.cpp:148] Top shape: 24 128 7 7 (150528)
I0403 14:38:03.749734 13470 net.cpp:156] Memory required for data: 1305071136
I0403 14:38:03.749753 13470 layer_factory.hpp:77] Creating layer inception_5a/relu_pool_proj
I0403 14:38:03.749771 13470 net.cpp:91] Creating Layer inception_5a/relu_pool_proj
I0403 14:38:03.749786 13470 net.cpp:425] inception_5a/relu_pool_proj <- inception_5a/pool_proj
I0403 14:38:03.749805 13470 net.cpp:386] inception_5a/relu_pool_proj -> inception_5a/pool_proj (in-place)
I0403 14:38:03.750102 13470 net.cpp:141] Setting up inception_5a/relu_pool_proj
I0403 14:38:03.750129 13470 net.cpp:148] Top shape: 24 128 7 7 (150528)
I0403 14:38:03.750144 13470 net.cpp:156] Memory required for data: 1305673248
I0403 14:38:03.750159 13470 layer_factory.hpp:77] Creating layer inception_5a/output
I0403 14:38:03.750175 13470 net.cpp:91] Creating Layer inception_5a/output
I0403 14:38:03.750190 13470 net.cpp:425] inception_5a/output <- inception_5a/1x1
I0403 14:38:03.750206 13470 net.cpp:425] inception_5a/output <- inception_5a/3x3
I0403 14:38:03.750222 13470 net.cpp:425] inception_5a/output <- inception_5a/5x5
I0403 14:38:03.750238 13470 net.cpp:425] inception_5a/output <- inception_5a/pool_proj
I0403 14:38:03.750257 13470 net.cpp:399] inception_5a/output -> inception_5a/output
I0403 14:38:03.750308 13470 net.cpp:141] Setting up inception_5a/output
I0403 14:38:03.750334 13470 net.cpp:148] Top shape: 24 832 7 7 (978432)
I0403 14:38:03.750347 13470 net.cpp:156] Memory required for data: 1309586976
I0403 14:38:03.750362 13470 layer_factory.hpp:77] Creating layer inception_5a/output_inception_5a/output_0_split
I0403 14:38:03.750378 13470 net.cpp:91] Creating Layer inception_5a/output_inception_5a/output_0_split
I0403 14:38:03.750393 13470 net.cpp:425] inception_5a/output_inception_5a/output_0_split <- inception_5a/output
I0403 14:38:03.750411 13470 net.cpp:399] inception_5a/output_inception_5a/output_0_split -> inception_5a/output_inception_5a/output_0_split_0
I0403 14:38:03.750429 13470 net.cpp:399] inception_5a/output_inception_5a/output_0_split -> inception_5a/output_inception_5a/output_0_split_1
I0403 14:38:03.750452 13470 net.cpp:399] inception_5a/output_inception_5a/output_0_split -> inception_5a/output_inception_5a/output_0_split_2
I0403 14:38:03.750474 13470 net.cpp:399] inception_5a/output_inception_5a/output_0_split -> inception_5a/output_inception_5a/output_0_split_3
I0403 14:38:03.750605 13470 net.cpp:141] Setting up inception_5a/output_inception_5a/output_0_split
I0403 14:38:03.750630 13470 net.cpp:148] Top shape: 24 832 7 7 (978432)
I0403 14:38:03.750646 13470 net.cpp:148] Top shape: 24 832 7 7 (978432)
I0403 14:38:03.750661 13470 net.cpp:148] Top shape: 24 832 7 7 (978432)
I0403 14:38:03.750675 13470 net.cpp:148] Top shape: 24 832 7 7 (978432)
I0403 14:38:03.750689 13470 net.cpp:156] Memory required for data: 1325241888
I0403 14:38:03.750704 13470 layer_factory.hpp:77] Creating layer inception_5b/1x1
I0403 14:38:03.750725 13470 net.cpp:91] Creating Layer inception_5b/1x1
I0403 14:38:03.750742 13470 net.cpp:425] inception_5b/1x1 <- inception_5a/output_inception_5a/output_0_split_0
I0403 14:38:03.750763 13470 net.cpp:399] inception_5b/1x1 -> inception_5b/1x1
I0403 14:38:03.754662 13470 net.cpp:141] Setting up inception_5b/1x1
I0403 14:38:03.754694 13470 net.cpp:148] Top shape: 24 384 7 7 (451584)
I0403 14:38:03.754711 13470 net.cpp:156] Memory required for data: 1327048224
I0403 14:38:03.754729 13470 layer_factory.hpp:77] Creating layer inception_5b/relu_1x1
I0403 14:38:03.754748 13470 net.cpp:91] Creating Layer inception_5b/relu_1x1
I0403 14:38:03.754765 13470 net.cpp:425] inception_5b/relu_1x1 <- inception_5b/1x1
I0403 14:38:03.754783 13470 net.cpp:386] inception_5b/relu_1x1 -> inception_5b/1x1 (in-place)
I0403 14:38:03.755095 13470 net.cpp:141] Setting up inception_5b/relu_1x1
I0403 14:38:03.755123 13470 net.cpp:148] Top shape: 24 384 7 7 (451584)
I0403 14:38:03.755139 13470 net.cpp:156] Memory required for data: 1328854560
I0403 14:38:03.755153 13470 layer_factory.hpp:77] Creating layer inception_5b/3x3_reduce
I0403 14:38:03.755175 13470 net.cpp:91] Creating Layer inception_5b/3x3_reduce
I0403 14:38:03.755194 13470 net.cpp:425] inception_5b/3x3_reduce <- inception_5a/output_inception_5a/output_0_split_1
I0403 14:38:03.755213 13470 net.cpp:399] inception_5b/3x3_reduce -> inception_5b/3x3_reduce
I0403 14:38:03.757908 13470 net.cpp:141] Setting up inception_5b/3x3_reduce
I0403 14:38:03.757938 13470 net.cpp:148] Top shape: 24 192 7 7 (225792)
I0403 14:38:03.757954 13470 net.cpp:156] Memory required for data: 1329757728
I0403 14:38:03.757972 13470 layer_factory.hpp:77] Creating layer inception_5b/relu_3x3_reduce
I0403 14:38:03.757989 13470 net.cpp:91] Creating Layer inception_5b/relu_3x3_reduce
I0403 14:38:03.758005 13470 net.cpp:425] inception_5b/relu_3x3_reduce <- inception_5b/3x3_reduce
I0403 14:38:03.758028 13470 net.cpp:386] inception_5b/relu_3x3_reduce -> inception_5b/3x3_reduce (in-place)
I0403 14:38:03.758219 13470 net.cpp:141] Setting up inception_5b/relu_3x3_reduce
I0403 14:38:03.758244 13470 net.cpp:148] Top shape: 24 192 7 7 (225792)
I0403 14:38:03.758260 13470 net.cpp:156] Memory required for data: 1330660896
I0403 14:38:03.758275 13470 layer_factory.hpp:77] Creating layer inception_5b/3x3
I0403 14:38:03.758296 13470 net.cpp:91] Creating Layer inception_5b/3x3
I0403 14:38:03.758314 13470 net.cpp:425] inception_5b/3x3 <- inception_5b/3x3_reduce
I0403 14:38:03.758334 13470 net.cpp:399] inception_5b/3x3 -> inception_5b/3x3
I0403 14:38:03.765177 13470 net.cpp:141] Setting up inception_5b/3x3
I0403 14:38:03.765207 13470 net.cpp:148] Top shape: 24 384 7 7 (451584)
I0403 14:38:03.765221 13470 net.cpp:156] Memory required for data: 1332467232
I0403 14:38:03.765239 13470 layer_factory.hpp:77] Creating layer inception_5b/relu_3x3
I0403 14:38:03.765257 13470 net.cpp:91] Creating Layer inception_5b/relu_3x3
I0403 14:38:03.765275 13470 net.cpp:425] inception_5b/relu_3x3 <- inception_5b/3x3
I0403 14:38:03.765293 13470 net.cpp:386] inception_5b/relu_3x3 -> inception_5b/3x3 (in-place)
I0403 14:38:03.765610 13470 net.cpp:141] Setting up inception_5b/relu_3x3
I0403 14:38:03.765636 13470 net.cpp:148] Top shape: 24 384 7 7 (451584)
I0403 14:38:03.765650 13470 net.cpp:156] Memory required for data: 1334273568
I0403 14:38:03.765664 13470 layer_factory.hpp:77] Creating layer inception_5b/5x5_reduce
I0403 14:38:03.765702 13470 net.cpp:91] Creating Layer inception_5b/5x5_reduce
I0403 14:38:03.765722 13470 net.cpp:425] inception_5b/5x5_reduce <- inception_5a/output_inception_5a/output_0_split_2
I0403 14:38:03.765743 13470 net.cpp:399] inception_5b/5x5_reduce -> inception_5b/5x5_reduce
I0403 14:38:03.767027 13470 net.cpp:141] Setting up inception_5b/5x5_reduce
I0403 14:38:03.767055 13470 net.cpp:148] Top shape: 24 48 7 7 (56448)
I0403 14:38:03.767069 13470 net.cpp:156] Memory required for data: 1334499360
I0403 14:38:03.767086 13470 layer_factory.hpp:77] Creating layer inception_5b/relu_5x5_reduce
I0403 14:38:03.767103 13470 net.cpp:91] Creating Layer inception_5b/relu_5x5_reduce
I0403 14:38:03.767118 13470 net.cpp:425] inception_5b/relu_5x5_reduce <- inception_5b/5x5_reduce
I0403 14:38:03.767138 13470 net.cpp:386] inception_5b/relu_5x5_reduce -> inception_5b/5x5_reduce (in-place)
I0403 14:38:03.767506 13470 net.cpp:141] Setting up inception_5b/relu_5x5_reduce
I0403 14:38:03.767532 13470 net.cpp:148] Top shape: 24 48 7 7 (56448)
I0403 14:38:03.767551 13470 net.cpp:156] Memory required for data: 1334725152
I0403 14:38:03.767567 13470 layer_factory.hpp:77] Creating layer inception_5b/5x5
I0403 14:38:03.767587 13470 net.cpp:91] Creating Layer inception_5b/5x5
I0403 14:38:03.767604 13470 net.cpp:425] inception_5b/5x5 <- inception_5b/5x5_reduce
I0403 14:38:03.767622 13470 net.cpp:399] inception_5b/5x5 -> inception_5b/5x5
I0403 14:38:03.769629 13470 net.cpp:141] Setting up inception_5b/5x5
I0403 14:38:03.769656 13470 net.cpp:148] Top shape: 24 128 7 7 (150528)
I0403 14:38:03.769672 13470 net.cpp:156] Memory required for data: 1335327264
I0403 14:38:03.769690 13470 layer_factory.hpp:77] Creating layer inception_5b/relu_5x5
I0403 14:38:03.769709 13470 net.cpp:91] Creating Layer inception_5b/relu_5x5
I0403 14:38:03.769726 13470 net.cpp:425] inception_5b/relu_5x5 <- inception_5b/5x5
I0403 14:38:03.769742 13470 net.cpp:386] inception_5b/relu_5x5 -> inception_5b/5x5 (in-place)
I0403 14:38:03.769933 13470 net.cpp:141] Setting up inception_5b/relu_5x5
I0403 14:38:03.769959 13470 net.cpp:148] Top shape: 24 128 7 7 (150528)
I0403 14:38:03.769975 13470 net.cpp:156] Memory required for data: 1335929376
I0403 14:38:03.769989 13470 layer_factory.hpp:77] Creating layer inception_5b/pool
I0403 14:38:03.770005 13470 net.cpp:91] Creating Layer inception_5b/pool
I0403 14:38:03.770021 13470 net.cpp:425] inception_5b/pool <- inception_5a/output_inception_5a/output_0_split_3
I0403 14:38:03.770037 13470 net.cpp:399] inception_5b/pool -> inception_5b/pool
I0403 14:38:03.770108 13470 net.cpp:141] Setting up inception_5b/pool
I0403 14:38:03.770133 13470 net.cpp:148] Top shape: 24 832 7 7 (978432)
I0403 14:38:03.770148 13470 net.cpp:156] Memory required for data: 1339843104
I0403 14:38:03.770160 13470 layer_factory.hpp:77] Creating layer inception_5b/pool_proj
I0403 14:38:03.770181 13470 net.cpp:91] Creating Layer inception_5b/pool_proj
I0403 14:38:03.770200 13470 net.cpp:425] inception_5b/pool_proj <- inception_5b/pool
I0403 14:38:03.770218 13470 net.cpp:399] inception_5b/pool_proj -> inception_5b/pool_proj
I0403 14:38:03.772490 13470 net.cpp:141] Setting up inception_5b/pool_proj
I0403 14:38:03.772518 13470 net.cpp:148] Top shape: 24 128 7 7 (150528)
I0403 14:38:03.772533 13470 net.cpp:156] Memory required for data: 1340445216
I0403 14:38:03.772557 13470 layer_factory.hpp:77] Creating layer inception_5b/relu_pool_proj
I0403 14:38:03.772578 13470 net.cpp:91] Creating Layer inception_5b/relu_pool_proj
I0403 14:38:03.772593 13470 net.cpp:425] inception_5b/relu_pool_proj <- inception_5b/pool_proj
I0403 14:38:03.772609 13470 net.cpp:386] inception_5b/relu_pool_proj -> inception_5b/pool_proj (in-place)
I0403 14:38:03.772900 13470 net.cpp:141] Setting up inception_5b/relu_pool_proj
I0403 14:38:03.772927 13470 net.cpp:148] Top shape: 24 128 7 7 (150528)
I0403 14:38:03.772940 13470 net.cpp:156] Memory required for data: 1341047328
I0403 14:38:03.772955 13470 layer_factory.hpp:77] Creating layer inception_5b/output
I0403 14:38:03.772971 13470 net.cpp:91] Creating Layer inception_5b/output
I0403 14:38:03.773000 13470 net.cpp:425] inception_5b/output <- inception_5b/1x1
I0403 14:38:03.773017 13470 net.cpp:425] inception_5b/output <- inception_5b/3x3
I0403 14:38:03.773033 13470 net.cpp:425] inception_5b/output <- inception_5b/5x5
I0403 14:38:03.773048 13470 net.cpp:425] inception_5b/output <- inception_5b/pool_proj
I0403 14:38:03.773067 13470 net.cpp:399] inception_5b/output -> inception_5b/output
I0403 14:38:03.773118 13470 net.cpp:141] Setting up inception_5b/output
I0403 14:38:03.773144 13470 net.cpp:148] Top shape: 24 1024 7 7 (1204224)
I0403 14:38:03.773159 13470 net.cpp:156] Memory required for data: 1345864224
I0403 14:38:03.773172 13470 layer_factory.hpp:77] Creating layer pool5/7x7_s1
I0403 14:38:03.773190 13470 net.cpp:91] Creating Layer pool5/7x7_s1
I0403 14:38:03.773205 13470 net.cpp:425] pool5/7x7_s1 <- inception_5b/output
I0403 14:38:03.773224 13470 net.cpp:399] pool5/7x7_s1 -> pool5/7x7_s1
I0403 14:38:03.773437 13470 net.cpp:141] Setting up pool5/7x7_s1
I0403 14:38:03.773463 13470 net.cpp:148] Top shape: 24 1024 1 1 (24576)
I0403 14:38:03.773476 13470 net.cpp:156] Memory required for data: 1345962528
I0403 14:38:03.773490 13470 layer_factory.hpp:77] Creating layer pool5/drop_7x7_s1
I0403 14:38:03.773506 13470 net.cpp:91] Creating Layer pool5/drop_7x7_s1
I0403 14:38:03.773525 13470 net.cpp:425] pool5/drop_7x7_s1 <- pool5/7x7_s1
I0403 14:38:03.773545 13470 net.cpp:386] pool5/drop_7x7_s1 -> pool5/7x7_s1 (in-place)
I0403 14:38:03.773596 13470 net.cpp:141] Setting up pool5/drop_7x7_s1
I0403 14:38:03.773619 13470 net.cpp:148] Top shape: 24 1024 1 1 (24576)
I0403 14:38:03.773634 13470 net.cpp:156] Memory required for data: 1346060832
I0403 14:38:03.773648 13470 layer_factory.hpp:77] Creating layer loss3/classifier_plantvillage
I0403 14:38:03.773666 13470 net.cpp:91] Creating Layer loss3/classifier_plantvillage
I0403 14:38:03.773680 13470 net.cpp:425] loss3/classifier_plantvillage <- pool5/7x7_s1
I0403 14:38:03.773701 13470 net.cpp:399] loss3/classifier_plantvillage -> loss3/classifier_plantvillage
I0403 14:38:03.774116 13470 net.cpp:141] Setting up loss3/classifier_plantvillage
I0403 14:38:03.774142 13470 net.cpp:148] Top shape: 24 38 (912)
I0403 14:38:03.774155 13470 net.cpp:156] Memory required for data: 1346064480
I0403 14:38:03.774173 13470 layer_factory.hpp:77] Creating layer loss3/classifier_plantvillage_loss3/classifier_plantvillage_0_split
I0403 14:38:03.774189 13470 net.cpp:91] Creating Layer loss3/classifier_plantvillage_loss3/classifier_plantvillage_0_split
I0403 14:38:03.774205 13470 net.cpp:425] loss3/classifier_plantvillage_loss3/classifier_plantvillage_0_split <- loss3/classifier_plantvillage
I0403 14:38:03.774222 13470 net.cpp:399] loss3/classifier_plantvillage_loss3/classifier_plantvillage_0_split -> loss3/classifier_plantvillage_loss3/classifier_plantvillage_0_split_0
I0403 14:38:03.774245 13470 net.cpp:399] loss3/classifier_plantvillage_loss3/classifier_plantvillage_0_split -> loss3/classifier_plantvillage_loss3/classifier_plantvillage_0_split_1
I0403 14:38:03.774266 13470 net.cpp:399] loss3/classifier_plantvillage_loss3/classifier_plantvillage_0_split -> loss3/classifier_plantvillage_loss3/classifier_plantvillage_0_split_2
I0403 14:38:03.774284 13470 net.cpp:399] loss3/classifier_plantvillage_loss3/classifier_plantvillage_0_split -> loss3/classifier_plantvillage_loss3/classifier_plantvillage_0_split_3
I0403 14:38:03.774385 13470 net.cpp:141] Setting up loss3/classifier_plantvillage_loss3/classifier_plantvillage_0_split
I0403 14:38:03.774408 13470 net.cpp:148] Top shape: 24 38 (912)
I0403 14:38:03.774423 13470 net.cpp:148] Top shape: 24 38 (912)
I0403 14:38:03.774438 13470 net.cpp:148] Top shape: 24 38 (912)
I0403 14:38:03.774452 13470 net.cpp:148] Top shape: 24 38 (912)
I0403 14:38:03.774466 13470 net.cpp:156] Memory required for data: 1346079072
I0403 14:38:03.774479 13470 layer_factory.hpp:77] Creating layer loss1/loss
I0403 14:38:03.774502 13470 net.cpp:91] Creating Layer loss1/loss
I0403 14:38:03.774518 13470 net.cpp:425] loss1/loss <- loss1/classifier_plantvillage_loss1/classifier_plantvillage_0_split_0
I0403 14:38:03.774559 13470 net.cpp:425] loss1/loss <- label_data_1_split_0
…
