…
I0403 14:40:49.309438 13525 net.cpp:313] The NetState phase (1) differed from the phase (0) specified by a rule in layer data
I0403 14:40:49.310602 13525 net.cpp:49] Initializing net from parameters: 
state {
  phase: TEST
}
layer {
  name: "data"
  type: "Data"
  top: "data"
  top: "label"
  include {
    phase: TEST
  }
  transform_param {
    mirror: false
    crop_size: 224
    mean_file: "/home/mohanty/data/final_dataset/lmdb/segmented-20-80/mean.binaryproto"
  }
  data_param {
    source: "/home/mohanty/data/final_dataset/lmdb/segmented-20-80/test_db"
    batch_size: 24
    backend: LMDB
  }
}
layer {
  name: "conv1/7x7_s2"
  type: "Convolution"
  bottom: "data"
  top: "conv1/7x7_s2"
  param {
    lr_mult: 1
    decay_mult: 1
  }
  param {
    lr_mult: 2
    decay_mult: 0
  }
  convolution_param {
    num_output: 64
    pad: 3
    kernel_size: 7
    stride: 2
    weight_filler {
      type: "xavier"
      std: 0.1
    }
    bias_filler {
      type: "constant"
      value: 0.2
    }
  }
}
layer {
  name: "conv1/relu_7x7"
  type: "ReLU"
  bottom: "conv1/7x7_s2"
  top: "conv1/7x7_s2"
}
layer {
  name: "pool1/3x3_s2"
  type: "Pooling"
  bottom: "conv1/7x7_s2"
  top: "pool1/3x3_s2"
  pooling_param {
    pool: MAX
    kernel_size: 3
    stride: 2
  }
}
layer {
  name: "pool1/norm1"
  type: "LRN"
  bottom: "pool1/3x3_s2"
  top: "pool1/norm1"
  lrn_param {
    local_size: 5
    alpha: 0.0001
    beta: 0.75
  }
}
layer {
  name: "conv2/3x3_reduce"
  type: "Convolution"
  bottom: "pool1/norm1"
  top: "conv2/3x3_reduce"
  param {
    lr_mult: 1
    decay_mult: 1
  }
  param {
    lr_mult: 2
    decay_mult: 0
  }
  convolution_param {
    num_output: 64
    kernel_size: 1
    weight_filler {
      type: "xavier"
      std: 0.1
    }
    bias_filler {
      type: "constant"
      value: 0.2
    }
  }
}
layer {
  name: "conv2/relu_3x3_reduce"
  type: "ReLU"
  bottom: "conv2/3x3_reduce"
  top: "conv2/3x3_reduce"
}
layer {
  name: "conv2/3x3"
  type: "Convolution"
  bottom: "conv2/3x3_reduce"
  top: "conv2/3x3"
  param {
    lr_mult: 1
    decay_mult: 1
  }
  param {
    lr_mult: 2
    decay_mult: 0
  }
  convolution_param {
    num_output: 192
    pad: 1
    kernel_size: 3
    weight_filler {
      type: "xavier"
      std: 0.03
    }
    bias_filler {
      type: "constant"
      value: 0.2
    }
  }
}
layer {
  name: "conv2/relu_3x3"
  type: "ReLU"
  bottom: "conv2/3x3"
  top: "conv2/3x3"
}
layer {
  name: "conv2/norm2"
  type: "LRN"
  bottom: "conv2/3x3"
  top: "conv2/norm2"
  lrn_param {
    local_size: 5
    alpha: 0.0001
    beta: 0.75
  }
}
layer {
  name: "pool2/3x3_s2"
  type: "Pooling"
  bottom: "conv2/norm2"
  top: "pool2/3x3_s2"
  pooling_param {
    pool: MAX
    kernel_size: 3
    stride: 2
  }
}
layer {
  name: "inception_3a/1x1"
  type: "Convolution"
  bottom: "pool2/3x3_s2"
  top: "inception_3a/1x1"
  param {
    lr_mult: 1
    decay_mult: 1
  }
  param {
    lr_mult: 2
    decay_mult: 0
  }
  convolution_param {
    num_output: 64
    kernel_size: 1
    weight_filler {
      type: "xavier"
      std: 0.03
    }
    bias_filler {
      type: "constant"
      value: 0.2
    }
  }
}
layer {
  name: "inception_3a/relu_1x1"
  type: "ReLU"
  bottom: "inception_3a/1x1"
  top: "inception_3a/1x1"
}
layer {
  name: "inception_3a/3x3_reduce"
  type: "Convolution"
  bottom: "pool2/3x3_s2"
  top: "inception_3a/3x3_reduce"
  param {
    lr_mult: 1
    decay_mult: 1
  }
  param {
    lr_mult: 2
    decay_mult: 0
  }
  convolution_param {
    num_output: 96
    kernel_size: 1
    weight_filler {
      type: "xavier"
      std: 0.09
    }
    bias_filler {
      type: "constant"
      value: 0.2
    }
  }
}
layer {
  name: "inception_3a/relu_3x3_reduce"
  type: "ReLU"
  bottom: "inception_3a/3x3_reduce"
  top: "inception_3a/3x3_reduce"
}
layer {
  name: "inception_3a/3x3"
  type: "Convolution"
  bottom: "inception_3a/3x3_reduce"
  top: "inception_3a/3x3"
  param {
    lr_mult: 1
    decay_mult: 1
  }
  param {
    lr_mult: 2
    decay_mult: 0
  }
  convolution_param {
    num_output: 128
    pad: 1
    kernel_size: 3
    weight_filler {
      type: "xavier"
      std: 0.03
    }
    bias_filler {
      type: "constant"
      value: 0.2
    }
  }
}
layer {
  name: "inception_3a/relu_3x3"
  type: "ReLU"
  bottom: "inception_3a/3x3"
  top: "inception_3a/3x3"
}
layer {
  name: "inception_3a/5x5_reduce"
  type: "Convolution"
  bottom: "pool2/3x3_s2"
  top: "inception_3a/5x5_reduce"
  param {
    lr_mult: 1
    decay_mult: 1
  }
  param {
    lr_mult: 2
    decay_mult: 0
  }
  convolution_param {
    num_output: 16
    kernel_size: 1
    weight_filler {
      type: "xavier"
      std: 0.2
    }
    bias_filler {
      type: "constant"
      value: 0.2
    }
  }
}
layer {
  name: "inception_3a/relu_5x5_reduce"
  type: "ReLU"
  bottom: "inception_3a/5x5_reduce"
  top: "inception_3a/5x5_reduce"
}
layer {
  name: "inception_3a/5x5"
  type: "Convolution"
  bottom: "inception_3a/5x5_reduce"
  top: "inception_3a/5x5"
  param {
    lr_mult: 1
    decay_mult: 1
  }
  param {
    lr_mult: 2
    decay_mult: 0
  }
  convolution_param {
    num_output: 32
    pad: 2
    kernel_size: 5
    weight_filler {
      type: "xavier"
      std: 0.03
    }
    bias_filler {
      type: "constant"
      value: 0.2
    }
  }
}
layer {
  name: "inception_3a/relu_5x5"
  type: "ReLU"
  bottom: "inception_3a/5x5"
  top: "inception_3a/5x5"
}
layer {
  name: "inception_3a/pool"
  type: "Pooling"
  bottom: "pool2/3x3_s2"
  top: "inception_3a/pool"
  pooling_param {
    pool: MAX
    kernel_size: 3
    stride: 1
    pad: 1
  }
}
layer {
  name: "inception_3a/pool_proj"
  type: "Convolution"
  bottom: "inception_3a/pool"
  top: "inception_3a/pool_proj"
  param {
    lr_mult: 1
    decay_mult: 1
  }
  param {
    lr_mult: 2
    decay_mult: 0
  }
  convolution_param {
    num_output: 32
    kernel_size: 1
    weight_filler {
      type: "xavier"
      std: 0.1
    }
    bias_filler {
      type: "constant"
      value: 0.2
    }
  }
}
layer {
  name: "inception_3a/relu_pool_proj"
  type: "ReLU"
  bottom: "inception_3a/pool_proj"
  top: "inception_3a/pool_proj"
}
layer {
  name: "inception_3a/output"
  type: "Concat"
  bottom: "inception_3a/1x1"
  bottom: "inception_3a/3x3"
  bottom: "inception_3a/5x5"
  bottom: "inception_3a/pool_proj"
  top: "inception_3a/output"
}
layer {
  name: "inception_3b/1x1"
  type: "Convolution"
  bottom: "inception_3a/output"
  top: "inception_3b/1x1"
  param {
    lr_mult: 1
    decay_mult: 1
  }
  param {
    lr_mult: 2
    decay_mult: 0
  }
  convolution_param {
    num_output: 128
    kernel_size: 1
    weight_filler {
      type: "xavier"
      std: 0.03
    }
    bias_filler {
      type: "constant"
      value: 0.2
    }
  }
}
layer {
  name: "inception_3b/relu_1x1"
  type: "ReLU"
  bottom: "inception_3b/1x1"
  top: "inception_3b/1x1"
}
layer {
  name: "inception_3b/3x3_reduce"
  type: "Convolution"
  bottom: "inception_3a/output"
  top: "inception_3b/3x3_reduce"
  param {
    lr_mult: 1
    decay_mult: 1
  }
  param {
    lr_mult: 2
    decay_mult: 0
  }
  convolution_param {
    num_output: 128
    kernel_size: 1
    weight_filler {
      type: "xavier"
      std: 0.09
    }
    bias_filler {
      type: "constant"
      value: 0.2
    }
  }
}
layer {
  name: "inception_3b/relu_3x3_reduce"
  type: "ReLU"
  bottom: "inception_3b/3x3_reduce"
  top: "inception_3b/3x3_reduce"
}
layer {
  name: "inception_3b/3x3"
  type: "Convolution"
  bottom: "inception_3b/3x3_reduce"
  top: "inception_3b/3x3"
  param {
    lr_mult: 1
    decay_mult: 1
  }
  param {
    lr_mult: 2
    decay_mult: 0
  }
  convolution_param {
    num_output: 192
    pad: 1
    kernel_size: 3
    weight_filler {
      type: "xavier"
      std: 0.03
    }
    bias_filler {
      type: "constant"
      value: 0.2
    }
  }
}
layer {
  name: "inception_3b/relu_3x3"
  type: "ReLU"
  bottom: "inception_3b/3x3"
  top: "inception_3b/3x3"
}
layer {
  name: "inception_3b/5x5_reduce"
  type: "Convolution"
  bottom: "inception_3a/output"
  top: "inception_3b/5x5_reduce"
  param {
    lr_mult: 1
    decay_mult: 1
  }
  param {
    lr_mult: 2
    decay_mult: 0
  }
  convolution_param {
    num_output: 32
    kernel_size: 1
    weight_filler {
      type: "xavier"
      std: 0.2
    }
    bias_filler {
      type: "constant"
      value: 0.2
    }
  }
}
layer {
  name: "inception_3b/relu_5x5_reduce"
  type: "ReLU"
  bottom: "inception_3b/5x5_reduce"
  top: "inception_3b/5x5_reduce"
}
layer {
  name: "inception_3b/5x5"
  type: "Convolution"
  bottom: "inception_3b/5x5_reduce"
  top: "inception_3b/5x5"
  param {
    lr_mult: 1
    decay_mult: 1
  }
  param {
    lr_mult: 2
    decay_mult: 0
  }
  convolution_param {
    num_output: 96
    pad: 2
    kernel_size: 5
    weight_filler {
      type: "xavier"
      std: 0.03
    }
    bias_filler {
      type: "constant"
      value: 0.2
    }
  }
}
layer {
  name: "inception_3b/relu_5x5"
  type: "ReLU"
  bottom: "inception_3b/5x5"
  top: "inception_3b/5x5"
}
layer {
  name: "inception_3b/pool"
  type: "Pooling"
  bottom: "inception_3a/output"
  top: "inception_3b/pool"
  pooling_param {
    pool: MAX
    kernel_size: 3
    stride: 1
    pad: 1
  }
}
layer {
  name: "inception_3b/pool_proj"
  type: "Convolution"
  bottom: "inception_3b/pool"
  top: "inception_3b/pool_proj"
  param {
    lr_mult: 1
    decay_mult: 1
  }
  param {
    lr_mult: 2
    decay_mult: 0
  }
  convolution_param {
    num_output: 64
    kernel_size: 1
    weight_filler {
      type: "xavier"
      std: 0.1
    }
    bias_filler {
      type: "constant"
      value: 0.2
    }
  }
}
layer {
  name: "inception_3b/relu_pool_proj"
  type: "ReLU"
  bottom: "inception_3b/pool_proj"
  top: "inception_3b/pool_proj"
}
layer {
  name: "inception_3b/output"
  type: "Concat"
  bottom: "inception_3b/1x1"
  bottom: "inception_3b/3x3"
  bottom: "inception_3b/5x5"
  bottom: "inception_3b/pool_proj"
  top: "inception_3b/output"
}
layer {
  name: "pool3/3x3_s2"
  type: "Pooling"
  bottom: "inception_3b/output"
  top: "pool3/3x3_s2"
  pooling_param {
    pool: MAX
    kernel_size: 3
    stride: 2
  }
}
layer {
  name: "inception_4a/1x1"
  type: "Convolution"
  bottom: "pool3/3x3_s2"
  top: "inception_4a/1x1"
  param {
    lr_mult: 1
    decay_mult: 1
  }
  param {
    lr_mult: 2
    decay_mult: 0
  }
  convolution_param {
    num_output: 192
    kernel_size: 1
    weight_filler {
      type: "xavier"
      std: 0.03
    }
    bias_filler {
      type: "constant"
      value: 0.2
    }
  }
}
layer {
  name: "inception_4a/relu_1x1"
  type: "ReLU"
  bottom: "inception_4a/1x1"
  top: "inception_4a/1x1"
}
layer {
  name: "inception_4a/3x3_reduce"
  type: "Convolution"
  bottom: "pool3/3x3_s2"
  top: "inception_4a/3x3_reduce"
  param {
    lr_mult: 1
    decay_mult: 1
  }
  param {
    lr_mult: 2
    decay_mult: 0
  }
  convolution_param {
    num_output: 96
    kernel_size: 1
    weight_filler {
      type: "xavier"
      std: 0.09
    }
    bias_filler {
      type: "constant"
      value: 0.2
    }
  }
}
layer {
  name: "inception_4a/relu_3x3_reduce"
  type: "ReLU"
  bottom: "inception_4a/3x3_reduce"
  top: "inception_4a/3x3_reduce"
}
layer {
  name: "inception_4a/3x3"
  type: "Convolution"
  bottom: "inception_4a/3x3_reduce"
  top: "inception_4a/3x3"
  param {
    lr_mult: 1
    decay_mult: 1
  }
  param {
    lr_mult: 2
    decay_mult: 0
  }
  convolution_param {
    num_output: 208
    pad: 1
    kernel_size: 3
    weight_filler {
      type: "xavier"
      std: 0.03
    }
    bias_filler {
      type: "constant"
      value: 0.2
    }
  }
}
layer {
  name: "inception_4a/relu_3x3"
  type: "ReLU"
  bottom: "inception_4a/3x3"
  top: "inception_4a/3x3"
}
layer {
  name: "inception_4a/5x5_reduce"
  type: "Convolution"
  bottom: "pool3/3x3_s2"
  top: "inception_4a/5x5_reduce"
  param {
    lr_mult: 1
    decay_mult: 1
  }
  param {
    lr_mult: 2
    decay_mult: 0
  }
  convolution_param {
    num_output: 16
    kernel_size: 1
    weight_filler {
      type: "xavier"
      std: 0.2
    }
    bias_filler {
      type: "constant"
      value: 0.2
    }
  }
}
layer {
  name: "inception_4a/relu_5x5_reduce"
  type: "ReLU"
  bottom: "inception_4a/5x5_reduce"
  top: "inception_4a/5x5_reduce"
}
layer {
  name: "inception_4a/5x5"
  type: "Convolution"
  bottom: "inception_4a/5x5_reduce"
  top: "inception_4a/5x5"
  param {
    lr_mult: 1
    decay_mult: 1
  }
  param {
    lr_mult: 2
    decay_mult: 0
  }
  convolution_param {
    num_output: 48
    pad: 2
    kernel_size: 5
    weight_filler {
      type: "xavier"
      std: 0.03
    }
    bias_filler {
      type: "constant"
      value: 0.2
    }
  }
}
layer {
  name: "inception_4a/relu_5x5"
  type: "ReLU"
  bottom: "inception_4a/5x5"
  top: "inception_4a/5x5"
}
layer {
  name: "inception_4a/pool"
  type: "Pooling"
  bottom: "pool3/3x3_s2"
  top: "inception_4a/pool"
  pooling_param {
    pool: MAX
    kernel_size: 3
    stride: 1
    pad: 1
  }
}
layer {
  name: "inception_4a/pool_proj"
  type: "Convolution"
  bottom: "inception_4a/pool"
  top: "inception_4a/pool_proj"
  param {
    lr_mult: 1
    decay_mult: 1
  }
  param {
    lr_mult: 2
    decay_mult: 0
  }
  convolution_param {
    num_output: 64
    kernel_size: 1
    weight_filler {
      type: "xavier"
      std: 0.1
    }
    bias_filler {
      type: "constant"
      value: 0.2
    }
  }
}
layer {
  name: "inception_4a/relu_pool_proj"
  type: "ReLU"
  bottom: "inception_4a/pool_proj"
  top: "inception_4a/pool_proj"
}
layer {
  name: "inception_4a/output"
  type: "Concat"
  bottom: "inception_4a/1x1"
  bottom: "inception_4a/3x3"
  bottom: "inception_4a/5x5"
  bottom: "inception_4a/pool_proj"
  top: "inception_4a/output"
}
layer {
  name: "loss1/ave_pool"
  type: "Pooling"
  bottom: "inception_4a/output"
  top: "loss1/ave_pool"
  pooling_param {
    pool: AVE
    kernel_size: 5
    stride: 3
  }
}
layer {
  name: "loss1/conv"
  type: "Convolution"
  bottom: "loss1/ave_pool"
  top: "loss1/conv"
  param {
    lr_mult: 1
    decay_mult: 1
  }
  param {
    lr_mult: 2
    decay_mult: 0
  }
  convolution_param {
    num_output: 128
    kernel_size: 1
    weight_filler {
      type: "xavier"
      std: 0.08
    }
    bias_filler {
      type: "constant"
      value: 0.2
    }
  }
}
layer {
  name: "loss1/relu_conv"
  type: "ReLU"
  bottom: "loss1/conv"
  top: "loss1/conv"
}
layer {
  name: "loss1/fc"
  type: "InnerProduct"
  bottom: "loss1/conv"
  top: "loss1/fc"
  param {
    lr_mult: 1
    decay_mult: 1
  }
  param {
    lr_mult: 2
    decay_mult: 0
  }
  inner_product_param {
    num_output: 1024
    weight_filler {
      type: "xavier"
      std: 0.02
    }
    bias_filler {
      type: "constant"
      value: 0.2
    }
  }
}
layer {
  name: "loss1/relu_fc"
  type: "ReLU"
  bottom: "loss1/fc"
  top: "loss1/fc"
}
layer {
  name: "loss1/drop_fc"
  type: "Dropout"
  bottom: "loss1/fc"
  top: "loss1/fc"
  dropout_param {
    dropout_ratio: 0.7
  }
}
layer {
  name: "loss1/classifier_plantvillage"
  type: "InnerProduct"
  bottom: "loss1/fc"
  top: "loss1/classifier_plantvillage"
  param {
    lr_mult: 1
    decay_mult: 1
  }
  param {
    lr_mult: 2
    decay_mult: 0
  }
  inner_product_param {
    num_output: 38
    weight_filler {
      type: "xavier"
      std: 0.0009765625
    }
    bias_filler {
      type: "constant"
      value: 0
    }
  }
}
layer {
  name: "inception_4b/1x1"
  type: "Convolution"
  bottom: "inception_4a/output"
  top: "inception_4b/1x1"
  param {
    lr_mult: 1
    decay_mult: 1
  }
  param {
    lr_mult: 2
    decay_mult: 0
  }
  convolution_param {
    num_output: 160
    kernel_size: 1
    weight_filler {
      type: "xavier"
      std: 0.03
    }
    bias_filler {
      type: "constant"
      value: 0.2
    }
  }
}
layer {
  name: "inception_4b/relu_1x1"
  type: "ReLU"
  bottom: "inception_4b/1x1"
  top: "inception_4b/1x1"
}
layer {
  name: "inception_4b/3x3_reduce"
  type: "Convolution"
  bottom: "inception_4a/output"
  top: "inception_4b/3x3_reduce"
  param {
    lr_mult: 1
    decay_mult: 1
  }
  param {
    lr_mult: 2
    decay_mult: 0
  }
  convolution_param {
    num_output: 112
    kernel_size: 1
    weight_filler {
      type: "xavier"
      std: 0.09
    }
    bias_filler {
      type: "constant"
      value: 0.2
    }
  }
}
layer {
  name: "inception_4b/relu_3x3_reduce"
  type: "ReLU"
  bottom: "inception_4b/3x3_reduce"
  top: "inception_4b/3x3_reduce"
}
layer {
  name: "inception_4b/3x3"
  type: "Convolution"
  bottom: "inception_4b/3x3_reduce"
  top: "inception_4b/3x3"
  param {
    lr_mult: 1
    decay_mult: 1
  }
  param {
    lr_mult: 2
    decay_mult: 0
  }
  convolution_param {
    num_output: 224
    pad: 1
    kernel_size: 3
    weight_filler {
      type: "xavier"
      std: 0.03
    }
    bias_filler {
      type: "constant"
      value: 0.2
    }
  }
}
layer {
  name: "inception_4b/relu_3x3"
  type: "ReLU"
  bottom: "inception_4b/3x3"
  top: "inception_4b/3x3"
}
layer {
  name: "inception_4b/5x5_reduce"
  type: "Convolution"
  bottom: "inception_4a/output"
  top: "inception_4b/5x5_reduce"
  param {
    lr_mult: 1
    decay_mult: 1
  }
  param {
    lr_mult: 2
    decay_mult: 0
  }
  convolution_param {
    num_output: 24
    kernel_size: 1
    weight_filler {
      type: "xavier"
      std: 0.2
    }
    bias_filler {
      type: "constant"
      value: 0.2
    }
  }
}
layer {
  name: "inception_4b/relu_5x5_reduce"
  type: "ReLU"
  bottom: "inception_4b/5x5_reduce"
  top: "inception_4b/5x5_reduce"
}
layer {
  name: "inception_4b/5x5"
  type: "Convolution"
  bottom: "inception_4b/5x5_reduce"
  top: "inception_4b/5x5"
  param {
    lr_mult: 1
    decay_mult: 1
  }
  param {
    lr_mult: 2
    decay_mult: 0
  }
  convolution_param {
    num_output: 64
    pad: 2
    kernel_size: 5
    weight_filler {
      type: "xavier"
      std: 0.03
    }
    bias_filler {
      type: "constant"
      value: 0.2
    }
  }
}
layer {
  name: "inception_4b/relu_5x5"
  type: "ReLU"
  bottom: "inception_4b/5x5"
  top: "inception_4b/5x5"
}
layer {
  name: "inception_4b/pool"
  type: "Pooling"
  bottom: "inception_4a/output"
  top: "inception_4b/pool"
  pooling_param {
    pool: MAX
    kernel_size: 3
    stride: 1
    pad: 1
  }
}
layer {
  name: "inception_4b/pool_proj"
  type: "Convolution"
  bottom: "inception_4b/pool"
  top: "inception_4b/pool_proj"
  param {
    lr_mult: 1
    decay_mult: 1
  }
  param {
    lr_mult: 2
    decay_mult: 0
  }
  convolution_param {
    num_output: 64
    kernel_size: 1
    weight_filler {
      type: "xavier"
      std: 0.1
    }
    bias_filler {
      type: "constant"
      value: 0.2
    }
  }
}
layer {
  name: "inception_4b/relu_pool_proj"
  type: "ReLU"
  bottom: "inception_4b/pool_proj"
  top: "inception_4b/pool_proj"
}
layer {
  name: "inception_4b/output"
  type: "Concat"
  bottom: "inception_4b/1x1"
  bottom: "inception_4b/3x3"
  bottom: "inception_4b/5x5"
  bottom: "inception_4b/pool_proj"
  top: "inception_4b/output"
}
layer {
  name: "inception_4c/1x1"
  type: "Convolution"
  bottom: "inception_4b/output"
  top: "inception_4c/1x1"
  param {
    lr_mult: 1
    decay_mult: 1
  }
  param {
    lr_mult: 2
    decay_mult: 0
  }
  convolution_param {
    num_output: 128
    kernel_size: 1
    weight_filler {
      type: "xavier"
      std: 0.03
    }
    bias_filler {
      type: "constant"
      value: 0.2
    }
  }
}
layer {
  name: "inception_4c/relu_1x1"
  type: "ReLU"
  bottom: "inception_4c/1x1"
  top: "inception_4c/1x1"
}
layer {
  name: "inception_4c/3x3_reduce"
  type: "Convolution"
  bottom: "inception_4b/output"
  top: "inception_4c/3x3_reduce"
  param {
    lr_mult: 1
    decay_mult: 1
  }
  param {
    lr_mult: 2
    decay_mult: 0
  }
  convolution_param {
    num_output: 128
    kernel_size: 1
    weight_filler {
      type: "xavier"
      std: 0.09
    }
    bias_filler {
      type: "constant"
      value: 0.2
    }
  }
}
layer {
  name: "inception_4c/relu_3x3_reduce"
  type: "ReLU"
  bottom: "inception_4c/3x3_reduce"
  top: "inception_4c/3x3_reduce"
}
layer {
  name: "inception_4c/3x3"
  type: "Convolution"
  bottom: "inception_4c/3x3_reduce"
  top: "inception_4c/3x3"
  param {
    lr_mult: 1
    decay_mult: 1
  }
  param {
    lr_mult: 2
    decay_mult: 0
  }
  convolution_param {
    num_output: 256
    pad: 1
    kernel_size: 3
    weight_filler {
      type: "xavier"
      std: 0.03
    }
    bias_filler {
      type: "constant"
      value: 0.2
    }
  }
}
layer {
  name: "inception_4c/relu_3x3"
  type: "ReLU"
  bottom: "inception_4c/3x3"
  top: "inception_4c/3x3"
}
layer {
  name: "inception_4c/5x5_reduce"
  type: "Convolution"
  bottom: "inception_4b/output"
  top: "inception_4c/5x5_reduce"
  param {
    lr_mult: 1
    decay_mult: 1
  }
  param {
    lr_mult: 2
    decay_mult: 0
  }
  convolution_param {
    num_output: 24
    kernel_size: 1
    weight_filler {
      type: "xavier"
      std: 0.2
    }
    bias_filler {
      type: "constant"
      value: 0.2
    }
  }
}
layer {
  name: "inception_4c/relu_5x5_reduce"
  type: "ReLU"
  bottom: "inception_4c/5x5_reduce"
  top: "inception_4c/5x5_reduce"
}
layer {
  name: "inception_4c/5x5"
  type: "Convolution"
  bottom: "inception_4c/5x5_reduce"
  top: "inception_4c/5x5"
  param {
    lr_mult: 1
    decay_mult: 1
  }
  param {
    lr_mult: 2
    decay_mult: 0
  }
  convolution_param {
    num_output: 64
    pad: 2
    kernel_size: 5
    weight_filler {
      type: "xavier"
      std: 0.03
    }
    bias_filler {
      type: "constant"
      value: 0.2
    }
  }
}
layer {
  name: "inception_4c/relu_5x5"
  type: "ReLU"
  bottom: "inception_4c/5x5"
  top: "inception_4c/5x5"
}
layer {
  name: "inception_4c/pool"
  type: "Pooling"
  bottom: "inception_4b/output"
  top: "inception_4c/pool"
  pooling_param {
    pool: MAX
    kernel_size: 3
    stride: 1
    pad: 1
  }
}
layer {
  name: "inception_4c/pool_proj"
  type: "Convolution"
  bottom: "inception_4c/pool"
  top: "inception_4c/pool_proj"
  param {
    lr_mult: 1
    decay_mult: 1
  }
  param {
    lr_mult: 2
    decay_mult: 0
  }
  convolution_param {
    num_output: 64
    kernel_size: 1
    weight_filler {
      type: "xavier"
      std: 0.1
    }
    bias_filler {
      type: "constant"
      value: 0.2
    }
  }
}
layer {
  name: "inception_4c/relu_pool_proj"
  type: "ReLU"
  bottom: "inception_4c/pool_proj"
  top: "inception_4c/pool_proj"
}
layer {
  name: "inception_4c/output"
  type: "Concat"
  bottom: "inception_4c/1x1"
  bottom: "inception_4c/3x3"
  bottom: "inception_4c/5x5"
  bottom: "inception_4c/pool_proj"
  top: "inception_4c/output"
}
layer {
  name: "inception_4d/1x1"
  type: "Convolution"
  bottom: "inception_4c/output"
  top: "inception_4d/1x1"
  param {
    lr_mult: 1
    decay_mult: 1
  }
  param {
    lr_mult: 2
    decay_mult: 0
  }
  convolution_param {
    num_output: 112
    kernel_size: 1
    weight_filler {
      type: "xavier"
      std: 0.03
    }
    bias_filler {
      type: "constant"
      value: 0.2
    }
  }
}
layer {
  name: "inception_4d/relu_1x1"
  type: "ReLU"
  bottom: "inception_4d/1x1"
  top: "inception_4d/1x1"
}
layer {
  name: "inception_4d/3x3_reduce"
  type: "Convolution"
  bottom: "inception_4c/output"
  top: "inception_4d/3x3_reduce"
  param {
    lr_mult: 1
    decay_mult: 1
  }
  param {
    lr_mult: 2
    decay_mult: 0
  }
  convolution_param {
    num_output: 144
    kernel_size: 1
    weight_filler {
      type: "xavier"
      std: 0.09
    }
    bias_filler {
      type: "constant"
      value: 0.2
    }
  }
}
layer {
  name: "inception_4d/relu_3x3_reduce"
  type: "ReLU"
  bottom: "inception_4d/3x3_reduce"
  top: "inception_4d/3x3_reduce"
}
layer {
  name: "inception_4d/3x3"
  type: "Convolution"
  bottom: "inception_4d/3x3_reduce"
  top: "inception_4d/3x3"
  param {
    lr_mult: 1
    decay_mult: 1
  }
  param {
    lr_mult: 2
    decay_mult: 0
  }
  convolution_param {
    num_output: 288
    pad: 1
    kernel_size: 3
    weight_filler {
      type: "xavier"
      std: 0.03
    }
    bias_filler {
      type: "constant"
      value: 0.2
    }
  }
}
layer {
  name: "inception_4d/relu_3x3"
  type: "ReLU"
  bottom: "inception_4d/3x3"
  top: "inception_4d/3x3"
}
layer {
  name: "inception_4d/5x5_reduce"
  type: "Convolution"
  bottom: "inception_4c/output"
  top: "inception_4d/5x5_reduce"
  param {
    lr_mult: 1
    decay_mult: 1
  }
  param {
    lr_mult: 2
    decay_mult: 0
  }
  convolution_param {
    num_output: 32
    kernel_size: 1
    weight_filler {
      type: "xavier"
      std: 0.2
    }
    bias_filler {
      type: "constant"
      value: 0.2
    }
  }
}
layer {
  name: "inception_4d/relu_5x5_reduce"
  type: "ReLU"
  bottom: "inception_4d/5x5_reduce"
  top: "inception_4d/5x5_reduce"
}
layer {
  name: "inception_4d/5x5"
  type: "Convolution"
  bottom: "inception_4d/5x5_reduce"
  top: "inception_4d/5x5"
  param {
    lr_mult: 1
    decay_mult: 1
  }
  param {
    lr_mult: 2
    decay_mult: 0
  }
  convolution_param {
    num_output: 64
    pad: 2
    kernel_size: 5
    weight_filler {
      type: "xavier"
      std: 0.03
    }
    bias_filler {
      type: "constant"
      value: 0.2
    }
  }
}
layer {
  name: "inception_4d/relu_5x5"
  type: "ReLU"
  bottom: "inception_4d/5x5"
  top: "inception_4d/5x5"
}
layer {
  name: "inception_4d/pool"
  type: "Pooling"
  bottom: "inception_4c/output"
  top: "inception_4d/pool"
  pooling_param {
    pool: MAX
    kernel_size: 3
    stride: 1
    pad: 1
  }
}
layer {
  name: "inception_4d/pool_proj"
  type: "Convolution"
  bottom: "inception_4d/pool"
  top: "inception_4d/pool_proj"
  param {
    lr_mult: 1
    decay_mult: 1
  }
  param {
    lr_mult: 2
    decay_mult: 0
  }
  convolution_param {
    num_output: 64
    kernel_size: 1
    weight_filler {
      type: "xavier"
      std: 0.1
    }
    bias_filler {
      type: "constant"
      value: 0.2
    }
  }
}
layer {
  name: "inception_4d/relu_pool_proj"
  type: "ReLU"
  bottom: "inception_4d/pool_proj"
  top: "inception_4d/pool_proj"
}
layer {
  name: "inception_4d/output"
  type: "Concat"
  bottom: "inception_4d/1x1"
  bottom: "inception_4d/3x3"
  bottom: "inception_4d/5x5"
  bottom: "inception_4d/pool_proj"
  top: "inception_4d/output"
}
layer {
  name: "loss2/ave_pool"
  type: "Pooling"
  bottom: "inception_4d/output"
  top: "loss2/ave_pool"
  pooling_param {
    pool: AVE
    kernel_size: 5
    stride: 3
  }
}
layer {
  name: "loss2/conv"
  type: "Convolution"
  bottom: "loss2/ave_pool"
  top: "loss2/conv"
  param {
    lr_mult: 1
    decay_mult: 1
  }
  param {
    lr_mult: 2
    decay_mult: 0
  }
  convolution_param {
    num_output: 128
    kernel_size: 1
    weight_filler {
      type: "xavier"
      std: 0.08
    }
    bias_filler {
      type: "constant"
      value: 0.2
    }
  }
}
layer {
  name: "loss2/relu_conv"
  type: "ReLU"
  bottom: "loss2/conv"
  top: "loss2/conv"
}
layer {
  name: "loss2/fc"
  type: "InnerProduct"
  bottom: "loss2/conv"
  top: "loss2/fc"
  param {
    lr_mult: 1
    decay_mult: 1
  }
  param {
    lr_mult: 2
    decay_mult: 0
  }
  inner_product_param {
    num_output: 1024
    weight_filler {
      type: "xavier"
      std: 0.02
    }
    bias_filler {
      type: "constant"
      value: 0.2
    }
  }
}
layer {
  name: "loss2/relu_fc"
  type: "ReLU"
  bottom: "loss2/fc"
  top: "loss2/fc"
}
layer {
  name: "loss2/drop_fc"
  type: "Dropout"
  bottom: "loss2/fc"
  top: "loss2/fc"
  dropout_param {
    dropout_ratio: 0.7
  }
}
layer {
  name: "loss2/classifier_plantvillage"
  type: "InnerProduct"
  bottom: "loss2/fc"
  top: "loss2/classifier_plantvillage"
  param {
    lr_mult: 1
    decay_mult: 1
  }
  param {
    lr_mult: 2
    decay_mult: 0
  }
  inner_product_param {
    num_output: 38
    weight_filler {
      type: "xavier"
      std: 0.0009765625
    }
    bias_filler {
      type: "constant"
      value: 0
    }
  }
}
layer {
  name: "inception_4e/1x1"
  type: "Convolution"
  bottom: "inception_4d/output"
  top: "inception_4e/1x1"
  param {
    lr_mult: 1
    decay_mult: 1
  }
  param {
    lr_mult: 2
    decay_mult: 0
  }
  convolution_param {
    num_output: 256
    kernel_size: 1
    weight_filler {
      type: "xavier"
      std: 0.03
    }
    bias_filler {
      type: "constant"
      value: 0.2
    }
  }
}
layer {
  name: "inception_4e/relu_1x1"
  type: "ReLU"
  bottom: "inception_4e/1x1"
  top: "inception_4e/1x1"
}
layer {
  name: "inception_4e/3x3_reduce"
  type: "Convolution"
  bottom: "inception_4d/output"
  top: "inception_4e/3x3_reduce"
  param {
    lr_mult: 1
    decay_mult: 1
  }
  param {
    lr_mult: 2
    decay_mult: 0
  }
  convolution_param {
    num_output: 160
    kernel_size: 1
    weight_filler {
      type: "xavier"
      std: 0.09
    }
    bias_filler {
      type: "constant"
      value: 0.2
    }
  }
}
layer {
  name: "inception_4e/relu_3x3_reduce"
  type: "ReLU"
  bottom: "inception_4e/3x3_reduce"
  top: "inception_4e/3x3_reduce"
}
layer {
  name: "inception_4e/3x3"
  type: "Convolution"
  bottom: "inception_4e/3x3_reduce"
  top: "inception_4e/3x3"
  param {
    lr_mult: 1
    decay_mult: 1
  }
  param {
    lr_mult: 2
    decay_mult: 0
  }
  convolution_param {
    num_output: 320
    pad: 1
    kernel_size: 3
    weight_filler {
      type: "xavier"
      std: 0.03
    }
    bias_filler {
      type: "constant"
      value: 0.2
    }
  }
}
layer {
  name: "inception_4e/relu_3x3"
  type: "ReLU"
  bottom: "inception_4e/3x3"
  top: "inception_4e/3x3"
}
layer {
  name: "inception_4e/5x5_reduce"
  type: "Convolution"
  bottom: "inception_4d/output"
  top: "inception_4e/5x5_reduce"
  param {
    lr_mult: 1
    decay_mult: 1
  }
  param {
    lr_mult: 2
    decay_mult: 0
  }
  convolution_param {
    num_output: 32
    kernel_size: 1
    weight_filler {
      type: "xavier"
      std: 0.2
    }
    bias_filler {
      type: "constant"
      value: 0.2
    }
  }
}
layer {
  name: "inception_4e/relu_5x5_reduce"
  type: "ReLU"
  bottom: "inception_4e/5x5_reduce"
  top: "inception_4e/5x5_reduce"
}
layer {
  name: "inception_4e/5x5"
  type: "Convolution"
  bottom: "inception_4e/5x5_reduce"
  top: "inception_4e/
I0403 14:40:49.311934 13525 layer_factory.hpp:77] Creating layer data
I0403 14:40:49.312557 13525 net.cpp:91] Creating Layer data
I0403 14:40:49.312589 13525 net.cpp:399] data -> data
I0403 14:40:49.312645 13525 net.cpp:399] data -> label
I0403 14:40:49.312690 13525 data_transformer.cpp:25] Loading mean file from: /home/mohanty/data/final_dataset/lmdb/segmented-20-80/mean.binaryproto
I0403 14:40:49.315227 13529 db_lmdb.cpp:38] Opened lmdb /home/mohanty/data/final_dataset/lmdb/segmented-20-80/test_db
I0403 14:40:49.329007 13525 data_layer.cpp:41] output data size: 24,3,224,224
I0403 14:40:49.356637 13525 net.cpp:141] Setting up data
I0403 14:40:49.356726 13525 net.cpp:148] Top shape: 24 3 224 224 (3612672)
I0403 14:40:49.356750 13525 net.cpp:148] Top shape: 24 (24)
I0403 14:40:49.356765 13525 net.cpp:156] Memory required for data: 14450784
I0403 14:40:49.356793 13525 layer_factory.hpp:77] Creating layer label_data_1_split
I0403 14:40:49.356819 13525 net.cpp:91] Creating Layer label_data_1_split
I0403 14:40:49.356837 13525 net.cpp:425] label_data_1_split <- label
I0403 14:40:49.356871 13525 net.cpp:399] label_data_1_split -> label_data_1_split_0
I0403 14:40:49.356899 13525 net.cpp:399] label_data_1_split -> label_data_1_split_1
I0403 14:40:49.356920 13525 net.cpp:399] label_data_1_split -> label_data_1_split_2
I0403 14:40:49.356943 13525 net.cpp:399] label_data_1_split -> label_data_1_split_3
I0403 14:40:49.356963 13525 net.cpp:399] label_data_1_split -> label_data_1_split_4
I0403 14:40:49.356983 13525 net.cpp:399] label_data_1_split -> label_data_1_split_5
I0403 14:40:49.357002 13525 net.cpp:399] label_data_1_split -> label_data_1_split_6
I0403 14:40:49.357023 13525 net.cpp:399] label_data_1_split -> label_data_1_split_7
I0403 14:40:49.357043 13525 net.cpp:399] label_data_1_split -> label_data_1_split_8
I0403 14:40:49.357064 13525 net.cpp:399] label_data_1_split -> label_data_1_split_9
I0403 14:40:49.357185 13525 net.cpp:141] Setting up label_data_1_split
I0403 14:40:49.357209 13525 net.cpp:148] Top shape: 24 (24)
I0403 14:40:49.357226 13525 net.cpp:148] Top shape: 24 (24)
I0403 14:40:49.357242 13525 net.cpp:148] Top shape: 24 (24)
I0403 14:40:49.357259 13525 net.cpp:148] Top shape: 24 (24)
I0403 14:40:49.357275 13525 net.cpp:148] Top shape: 24 (24)
I0403 14:40:49.357290 13525 net.cpp:148] Top shape: 24 (24)
I0403 14:40:49.357306 13525 net.cpp:148] Top shape: 24 (24)
I0403 14:40:49.357321 13525 net.cpp:148] Top shape: 24 (24)
I0403 14:40:49.357336 13525 net.cpp:148] Top shape: 24 (24)
I0403 14:40:49.357352 13525 net.cpp:148] Top shape: 24 (24)
I0403 14:40:49.357400 13525 net.cpp:156] Memory required for data: 14451744
I0403 14:40:49.357416 13525 layer_factory.hpp:77] Creating layer conv1/7x7_s2
I0403 14:40:49.357448 13525 net.cpp:91] Creating Layer conv1/7x7_s2
I0403 14:40:49.357467 13525 net.cpp:425] conv1/7x7_s2 <- data
I0403 14:40:49.357487 13525 net.cpp:399] conv1/7x7_s2 -> conv1/7x7_s2
I0403 14:40:49.493335 13525 net.cpp:141] Setting up conv1/7x7_s2
I0403 14:40:49.493376 13525 net.cpp:148] Top shape: 24 64 112 112 (19267584)
I0403 14:40:49.493393 13525 net.cpp:156] Memory required for data: 91522080
I0403 14:40:49.493425 13525 layer_factory.hpp:77] Creating layer conv1/relu_7x7
I0403 14:40:49.493451 13525 net.cpp:91] Creating Layer conv1/relu_7x7
I0403 14:40:49.493470 13525 net.cpp:425] conv1/relu_7x7 <- conv1/7x7_s2
I0403 14:40:49.493489 13525 net.cpp:386] conv1/relu_7x7 -> conv1/7x7_s2 (in-place)
I0403 14:40:49.493767 13525 net.cpp:141] Setting up conv1/relu_7x7
I0403 14:40:49.493796 13525 net.cpp:148] Top shape: 24 64 112 112 (19267584)
I0403 14:40:49.493811 13525 net.cpp:156] Memory required for data: 168592416
I0403 14:40:49.493826 13525 layer_factory.hpp:77] Creating layer pool1/3x3_s2
I0403 14:40:49.493850 13525 net.cpp:91] Creating Layer pool1/3x3_s2
I0403 14:40:49.493867 13525 net.cpp:425] pool1/3x3_s2 <- conv1/7x7_s2
I0403 14:40:49.493885 13525 net.cpp:399] pool1/3x3_s2 -> pool1/3x3_s2
I0403 14:40:49.493960 13525 net.cpp:141] Setting up pool1/3x3_s2
I0403 14:40:49.493984 13525 net.cpp:148] Top shape: 24 64 56 56 (4816896)
I0403 14:40:49.493999 13525 net.cpp:156] Memory required for data: 187860000
I0403 14:40:49.494012 13525 layer_factory.hpp:77] Creating layer pool1/norm1
I0403 14:40:49.494038 13525 net.cpp:91] Creating Layer pool1/norm1
I0403 14:40:49.494055 13525 net.cpp:425] pool1/norm1 <- pool1/3x3_s2
I0403 14:40:49.494074 13525 net.cpp:399] pool1/norm1 -> pool1/norm1
I0403 14:40:49.494369 13525 net.cpp:141] Setting up pool1/norm1
I0403 14:40:49.494397 13525 net.cpp:148] Top shape: 24 64 56 56 (4816896)
I0403 14:40:49.494413 13525 net.cpp:156] Memory required for data: 207127584
I0403 14:40:49.494428 13525 layer_factory.hpp:77] Creating layer conv2/3x3_reduce
I0403 14:40:49.494458 13525 net.cpp:91] Creating Layer conv2/3x3_reduce
I0403 14:40:49.494475 13525 net.cpp:425] conv2/3x3_reduce <- pool1/norm1
I0403 14:40:49.494493 13525 net.cpp:399] conv2/3x3_reduce -> conv2/3x3_reduce
I0403 14:40:49.495895 13525 net.cpp:141] Setting up conv2/3x3_reduce
I0403 14:40:49.495924 13525 net.cpp:148] Top shape: 24 64 56 56 (4816896)
I0403 14:40:49.495939 13525 net.cpp:156] Memory required for data: 226395168
I0403 14:40:49.495959 13525 layer_factory.hpp:77] Creating layer conv2/relu_3x3_reduce
I0403 14:40:49.495980 13525 net.cpp:91] Creating Layer conv2/relu_3x3_reduce
I0403 14:40:49.495996 13525 net.cpp:425] conv2/relu_3x3_reduce <- conv2/3x3_reduce
I0403 14:40:49.496012 13525 net.cpp:386] conv2/relu_3x3_reduce -> conv2/3x3_reduce (in-place)
I0403 14:40:49.496279 13525 net.cpp:141] Setting up conv2/relu_3x3_reduce
I0403 14:40:49.496305 13525 net.cpp:148] Top shape: 24 64 56 56 (4816896)
I0403 14:40:49.496320 13525 net.cpp:156] Memory required for data: 245662752
I0403 14:40:49.496335 13525 layer_factory.hpp:77] Creating layer conv2/3x3
I0403 14:40:49.496358 13525 net.cpp:91] Creating Layer conv2/3x3
I0403 14:40:49.496377 13525 net.cpp:425] conv2/3x3 <- conv2/3x3_reduce
I0403 14:40:49.496398 13525 net.cpp:399] conv2/3x3 -> conv2/3x3
I0403 14:40:49.498752 13525 net.cpp:141] Setting up conv2/3x3
I0403 14:40:49.498783 13525 net.cpp:148] Top shape: 24 192 56 56 (14450688)
I0403 14:40:49.498800 13525 net.cpp:156] Memory required for data: 303465504
I0403 14:40:49.498823 13525 layer_factory.hpp:77] Creating layer conv2/relu_3x3
I0403 14:40:49.498843 13525 net.cpp:91] Creating Layer conv2/relu_3x3
I0403 14:40:49.498858 13525 net.cpp:425] conv2/relu_3x3 <- conv2/3x3
I0403 14:40:49.498875 13525 net.cpp:386] conv2/relu_3x3 -> conv2/3x3 (in-place)
I0403 14:40:49.499054 13525 net.cpp:141] Setting up conv2/relu_3x3
I0403 14:40:49.499083 13525 net.cpp:148] Top shape: 24 192 56 56 (14450688)
I0403 14:40:49.499136 13525 net.cpp:156] Memory required for data: 361268256
I0403 14:40:49.499152 13525 layer_factory.hpp:77] Creating layer conv2/norm2
I0403 14:40:49.499171 13525 net.cpp:91] Creating Layer conv2/norm2
I0403 14:40:49.499186 13525 net.cpp:425] conv2/norm2 <- conv2/3x3
I0403 14:40:49.499207 13525 net.cpp:399] conv2/norm2 -> conv2/norm2
I0403 14:40:49.499514 13525 net.cpp:141] Setting up conv2/norm2
I0403 14:40:49.499546 13525 net.cpp:148] Top shape: 24 192 56 56 (14450688)
I0403 14:40:49.499562 13525 net.cpp:156] Memory required for data: 419071008
I0403 14:40:49.499578 13525 layer_factory.hpp:77] Creating layer pool2/3x3_s2
I0403 14:40:49.499595 13525 net.cpp:91] Creating Layer pool2/3x3_s2
I0403 14:40:49.499611 13525 net.cpp:425] pool2/3x3_s2 <- conv2/norm2
I0403 14:40:49.499631 13525 net.cpp:399] pool2/3x3_s2 -> pool2/3x3_s2
I0403 14:40:49.499685 13525 net.cpp:141] Setting up pool2/3x3_s2
I0403 14:40:49.499711 13525 net.cpp:148] Top shape: 24 192 28 28 (3612672)
I0403 14:40:49.499725 13525 net.cpp:156] Memory required for data: 433521696
I0403 14:40:49.499740 13525 layer_factory.hpp:77] Creating layer pool2/3x3_s2_pool2/3x3_s2_0_split
I0403 14:40:49.499758 13525 net.cpp:91] Creating Layer pool2/3x3_s2_pool2/3x3_s2_0_split
I0403 14:40:49.499773 13525 net.cpp:425] pool2/3x3_s2_pool2/3x3_s2_0_split <- pool2/3x3_s2
I0403 14:40:49.499790 13525 net.cpp:399] pool2/3x3_s2_pool2/3x3_s2_0_split -> pool2/3x3_s2_pool2/3x3_s2_0_split_0
I0403 14:40:49.499812 13525 net.cpp:399] pool2/3x3_s2_pool2/3x3_s2_0_split -> pool2/3x3_s2_pool2/3x3_s2_0_split_1
I0403 14:40:49.499833 13525 net.cpp:399] pool2/3x3_s2_pool2/3x3_s2_0_split -> pool2/3x3_s2_pool2/3x3_s2_0_split_2
I0403 14:40:49.499852 13525 net.cpp:399] pool2/3x3_s2_pool2/3x3_s2_0_split -> pool2/3x3_s2_pool2/3x3_s2_0_split_3
I0403 14:40:49.499929 13525 net.cpp:141] Setting up pool2/3x3_s2_pool2/3x3_s2_0_split
I0403 14:40:49.499953 13525 net.cpp:148] Top shape: 24 192 28 28 (3612672)
I0403 14:40:49.499969 13525 net.cpp:148] Top shape: 24 192 28 28 (3612672)
I0403 14:40:49.499984 13525 net.cpp:148] Top shape: 24 192 28 28 (3612672)
I0403 14:40:49.500000 13525 net.cpp:148] Top shape: 24 192 28 28 (3612672)
I0403 14:40:49.500013 13525 net.cpp:156] Memory required for data: 491324448
I0403 14:40:49.500028 13525 layer_factory.hpp:77] Creating layer inception_3a/1x1
I0403 14:40:49.500052 13525 net.cpp:91] Creating Layer inception_3a/1x1
I0403 14:40:49.500071 13525 net.cpp:425] inception_3a/1x1 <- pool2/3x3_s2_pool2/3x3_s2_0_split_0
I0403 14:40:49.500088 13525 net.cpp:399] inception_3a/1x1 -> inception_3a/1x1
I0403 14:40:49.501637 13525 net.cpp:141] Setting up inception_3a/1x1
I0403 14:40:49.501667 13525 net.cpp:148] Top shape: 24 64 28 28 (1204224)
I0403 14:40:49.501683 13525 net.cpp:156] Memory required for data: 496141344
I0403 14:40:49.501701 13525 layer_factory.hpp:77] Creating layer inception_3a/relu_1x1
I0403 14:40:49.501721 13525 net.cpp:91] Creating Layer inception_3a/relu_1x1
I0403 14:40:49.501739 13525 net.cpp:425] inception_3a/relu_1x1 <- inception_3a/1x1
I0403 14:40:49.501757 13525 net.cpp:386] inception_3a/relu_1x1 -> inception_3a/1x1 (in-place)
I0403 14:40:49.501934 13525 net.cpp:141] Setting up inception_3a/relu_1x1
I0403 14:40:49.501958 13525 net.cpp:148] Top shape: 24 64 28 28 (1204224)
I0403 14:40:49.501977 13525 net.cpp:156] Memory required for data: 500958240
I0403 14:40:49.501991 13525 layer_factory.hpp:77] Creating layer inception_3a/3x3_reduce
I0403 14:40:49.502012 13525 net.cpp:91] Creating Layer inception_3a/3x3_reduce
I0403 14:40:49.502029 13525 net.cpp:425] inception_3a/3x3_reduce <- pool2/3x3_s2_pool2/3x3_s2_0_split_1
I0403 14:40:49.502050 13525 net.cpp:399] inception_3a/3x3_reduce -> inception_3a/3x3_reduce
I0403 14:40:49.503773 13525 net.cpp:141] Setting up inception_3a/3x3_reduce
I0403 14:40:49.503803 13525 net.cpp:148] Top shape: 24 96 28 28 (1806336)
I0403 14:40:49.503818 13525 net.cpp:156] Memory required for data: 508183584
I0403 14:40:49.503842 13525 layer_factory.hpp:77] Creating layer inception_3a/relu_3x3_reduce
I0403 14:40:49.503878 13525 net.cpp:91] Creating Layer inception_3a/relu_3x3_reduce
I0403 14:40:49.503896 13525 net.cpp:425] inception_3a/relu_3x3_reduce <- inception_3a/3x3_reduce
I0403 14:40:49.503914 13525 net.cpp:386] inception_3a/relu_3x3_reduce -> inception_3a/3x3_reduce (in-place)
I0403 14:40:49.504101 13525 net.cpp:141] Setting up inception_3a/relu_3x3_reduce
I0403 14:40:49.504127 13525 net.cpp:148] Top shape: 24 96 28 28 (1806336)
I0403 14:40:49.504142 13525 net.cpp:156] Memory required for data: 515408928
I0403 14:40:49.504156 13525 layer_factory.hpp:77] Creating layer inception_3a/3x3
I0403 14:40:49.504180 13525 net.cpp:91] Creating Layer inception_3a/3x3
I0403 14:40:49.504199 13525 net.cpp:425] inception_3a/3x3 <- inception_3a/3x3_reduce
I0403 14:40:49.504220 13525 net.cpp:399] inception_3a/3x3 -> inception_3a/3x3
I0403 14:40:49.505913 13525 net.cpp:141] Setting up inception_3a/3x3
I0403 14:40:49.505941 13525 net.cpp:148] Top shape: 24 128 28 28 (2408448)
I0403 14:40:49.505957 13525 net.cpp:156] Memory required for data: 525042720
I0403 14:40:49.505975 13525 layer_factory.hpp:77] Creating layer inception_3a/relu_3x3
I0403 14:40:49.505996 13525 net.cpp:91] Creating Layer inception_3a/relu_3x3
I0403 14:40:49.506013 13525 net.cpp:425] inception_3a/relu_3x3 <- inception_3a/3x3
I0403 14:40:49.506031 13525 net.cpp:386] inception_3a/relu_3x3 -> inception_3a/3x3 (in-place)
I0403 14:40:49.506307 13525 net.cpp:141] Setting up inception_3a/relu_3x3
I0403 14:40:49.506335 13525 net.cpp:148] Top shape: 24 128 28 28 (2408448)
I0403 14:40:49.506350 13525 net.cpp:156] Memory required for data: 534676512
I0403 14:40:49.506364 13525 layer_factory.hpp:77] Creating layer inception_3a/5x5_reduce
I0403 14:40:49.506387 13525 net.cpp:91] Creating Layer inception_3a/5x5_reduce
I0403 14:40:49.506405 13525 net.cpp:425] inception_3a/5x5_reduce <- pool2/3x3_s2_pool2/3x3_s2_0_split_2
I0403 14:40:49.506427 13525 net.cpp:399] inception_3a/5x5_reduce -> inception_3a/5x5_reduce
I0403 14:40:49.507406 13525 net.cpp:141] Setting up inception_3a/5x5_reduce
I0403 14:40:49.507434 13525 net.cpp:148] Top shape: 24 16 28 28 (301056)
I0403 14:40:49.507450 13525 net.cpp:156] Memory required for data: 535880736
I0403 14:40:49.507468 13525 layer_factory.hpp:77] Creating layer inception_3a/relu_5x5_reduce
I0403 14:40:49.507489 13525 net.cpp:91] Creating Layer inception_3a/relu_5x5_reduce
I0403 14:40:49.507506 13525 net.cpp:425] inception_3a/relu_5x5_reduce <- inception_3a/5x5_reduce
I0403 14:40:49.507524 13525 net.cpp:386] inception_3a/relu_5x5_reduce -> inception_3a/5x5_reduce (in-place)
I0403 14:40:49.507827 13525 net.cpp:141] Setting up inception_3a/relu_5x5_reduce
I0403 14:40:49.507856 13525 net.cpp:148] Top shape: 24 16 28 28 (301056)
I0403 14:40:49.507872 13525 net.cpp:156] Memory required for data: 537084960
I0403 14:40:49.507887 13525 layer_factory.hpp:77] Creating layer inception_3a/5x5
I0403 14:40:49.507910 13525 net.cpp:91] Creating Layer inception_3a/5x5
I0403 14:40:49.507928 13525 net.cpp:425] inception_3a/5x5 <- inception_3a/5x5_reduce
I0403 14:40:49.507946 13525 net.cpp:399] inception_3a/5x5 -> inception_3a/5x5
I0403 14:40:49.508977 13525 net.cpp:141] Setting up inception_3a/5x5
I0403 14:40:49.509006 13525 net.cpp:148] Top shape: 24 32 28 28 (602112)
I0403 14:40:49.509021 13525 net.cpp:156] Memory required for data: 539493408
I0403 14:40:49.509039 13525 layer_factory.hpp:77] Creating layer inception_3a/relu_5x5
I0403 14:40:49.509060 13525 net.cpp:91] Creating Layer inception_3a/relu_5x5
I0403 14:40:49.509078 13525 net.cpp:425] inception_3a/relu_5x5 <- inception_3a/5x5
I0403 14:40:49.509094 13525 net.cpp:386] inception_3a/relu_5x5 -> inception_3a/5x5 (in-place)
I0403 14:40:49.509268 13525 net.cpp:141] Setting up inception_3a/relu_5x5
I0403 14:40:49.509294 13525 net.cpp:148] Top shape: 24 32 28 28 (602112)
I0403 14:40:49.509310 13525 net.cpp:156] Memory required for data: 541901856
I0403 14:40:49.509325 13525 layer_factory.hpp:77] Creating layer inception_3a/pool
I0403 14:40:49.509342 13525 net.cpp:91] Creating Layer inception_3a/pool
I0403 14:40:49.509373 13525 net.cpp:425] inception_3a/pool <- pool2/3x3_s2_pool2/3x3_s2_0_split_3
I0403 14:40:49.509392 13525 net.cpp:399] inception_3a/pool -> inception_3a/pool
I0403 14:40:49.509450 13525 net.cpp:141] Setting up inception_3a/pool
I0403 14:40:49.509474 13525 net.cpp:148] Top shape: 24 192 28 28 (3612672)
I0403 14:40:49.509488 13525 net.cpp:156] Memory required for data: 556352544
I0403 14:40:49.509503 13525 layer_factory.hpp:77] Creating layer inception_3a/pool_proj
I0403 14:40:49.509526 13525 net.cpp:91] Creating Layer inception_3a/pool_proj
I0403 14:40:49.509548 13525 net.cpp:425] inception_3a/pool_proj <- inception_3a/pool
I0403 14:40:49.509575 13525 net.cpp:399] inception_3a/pool_proj -> inception_3a/pool_proj
I0403 14:40:49.510570 13525 net.cpp:141] Setting up inception_3a/pool_proj
I0403 14:40:49.510598 13525 net.cpp:148] Top shape: 24 32 28 28 (602112)
I0403 14:40:49.510613 13525 net.cpp:156] Memory required for data: 558760992
I0403 14:40:49.510635 13525 layer_factory.hpp:77] Creating layer inception_3a/relu_pool_proj
I0403 14:40:49.510658 13525 net.cpp:91] Creating Layer inception_3a/relu_pool_proj
I0403 14:40:49.510674 13525 net.cpp:425] inception_3a/relu_pool_proj <- inception_3a/pool_proj
I0403 14:40:49.510691 13525 net.cpp:386] inception_3a/relu_pool_proj -> inception_3a/pool_proj (in-place)
I0403 14:40:49.510969 13525 net.cpp:141] Setting up inception_3a/relu_pool_proj
I0403 14:40:49.510995 13525 net.cpp:148] Top shape: 24 32 28 28 (602112)
I0403 14:40:49.511010 13525 net.cpp:156] Memory required for data: 561169440
I0403 14:40:49.511025 13525 layer_factory.hpp:77] Creating layer inception_3a/output
I0403 14:40:49.511045 13525 net.cpp:91] Creating Layer inception_3a/output
I0403 14:40:49.511062 13525 net.cpp:425] inception_3a/output <- inception_3a/1x1
I0403 14:40:49.511080 13525 net.cpp:425] inception_3a/output <- inception_3a/3x3
I0403 14:40:49.511095 13525 net.cpp:425] inception_3a/output <- inception_3a/5x5
I0403 14:40:49.511111 13525 net.cpp:425] inception_3a/output <- inception_3a/pool_proj
I0403 14:40:49.511126 13525 net.cpp:399] inception_3a/output -> inception_3a/output
I0403 14:40:49.511174 13525 net.cpp:141] Setting up inception_3a/output
I0403 14:40:49.511198 13525 net.cpp:148] Top shape: 24 256 28 28 (4816896)
I0403 14:40:49.511212 13525 net.cpp:156] Memory required for data: 580437024
I0403 14:40:49.511227 13525 layer_factory.hpp:77] Creating layer inception_3a/output_inception_3a/output_0_split
I0403 14:40:49.511245 13525 net.cpp:91] Creating Layer inception_3a/output_inception_3a/output_0_split
I0403 14:40:49.511261 13525 net.cpp:425] inception_3a/output_inception_3a/output_0_split <- inception_3a/output
I0403 14:40:49.511281 13525 net.cpp:399] inception_3a/output_inception_3a/output_0_split -> inception_3a/output_inception_3a/output_0_split_0
I0403 14:40:49.511301 13525 net.cpp:399] inception_3a/output_inception_3a/output_0_split -> inception_3a/output_inception_3a/output_0_split_1
I0403 14:40:49.511327 13525 net.cpp:399] inception_3a/output_inception_3a/output_0_split -> inception_3a/output_inception_3a/output_0_split_2
I0403 14:40:49.511348 13525 net.cpp:399] inception_3a/output_inception_3a/output_0_split -> inception_3a/output_inception_3a/output_0_split_3
I0403 14:40:49.511425 13525 net.cpp:141] Setting up inception_3a/output_inception_3a/output_0_split
I0403 14:40:49.511447 13525 net.cpp:148] Top shape: 24 256 28 28 (4816896)
I0403 14:40:49.511463 13525 net.cpp:148] Top shape: 24 256 28 28 (4816896)
I0403 14:40:49.511479 13525 net.cpp:148] Top shape: 24 256 28 28 (4816896)
I0403 14:40:49.511494 13525 net.cpp:148] Top shape: 24 256 28 28 (4816896)
I0403 14:40:49.511508 13525 net.cpp:156] Memory required for data: 657507360
I0403 14:40:49.511523 13525 layer_factory.hpp:77] Creating layer inception_3b/1x1
I0403 14:40:49.511550 13525 net.cpp:91] Creating Layer inception_3b/1x1
I0403 14:40:49.511569 13525 net.cpp:425] inception_3b/1x1 <- inception_3a/output_inception_3a/output_0_split_0
I0403 14:40:49.511590 13525 net.cpp:399] inception_3b/1x1 -> inception_3b/1x1
I0403 14:40:49.512758 13525 net.cpp:141] Setting up inception_3b/1x1
I0403 14:40:49.512799 13525 net.cpp:148] Top shape: 24 128 28 28 (2408448)
I0403 14:40:49.512815 13525 net.cpp:156] Memory required for data: 667141152
I0403 14:40:49.512833 13525 layer_factory.hpp:77] Creating layer inception_3b/relu_1x1
I0403 14:40:49.512856 13525 net.cpp:91] Creating Layer inception_3b/relu_1x1
I0403 14:40:49.512873 13525 net.cpp:425] inception_3b/relu_1x1 <- inception_3b/1x1
I0403 14:40:49.512890 13525 net.cpp:386] inception_3b/relu_1x1 -> inception_3b/1x1 (in-place)
I0403 14:40:49.513067 13525 net.cpp:141] Setting up inception_3b/relu_1x1
I0403 14:40:49.513092 13525 net.cpp:148] Top shape: 24 128 28 28 (2408448)
I0403 14:40:49.513106 13525 net.cpp:156] Memory required for data: 676774944
I0403 14:40:49.513121 13525 layer_factory.hpp:77] Creating layer inception_3b/3x3_reduce
I0403 14:40:49.513147 13525 net.cpp:91] Creating Layer inception_3b/3x3_reduce
I0403 14:40:49.513167 13525 net.cpp:425] inception_3b/3x3_reduce <- inception_3a/output_inception_3a/output_0_split_1
I0403 14:40:49.513186 13525 net.cpp:399] inception_3b/3x3_reduce -> inception_3b/3x3_reduce
I0403 14:40:49.514351 13525 net.cpp:141] Setting up inception_3b/3x3_reduce
I0403 14:40:49.514379 13525 net.cpp:148] Top shape: 24 128 28 28 (2408448)
I0403 14:40:49.514395 13525 net.cpp:156] Memory required for data: 686408736
I0403 14:40:49.514413 13525 layer_factory.hpp:77] Creating layer inception_3b/relu_3x3_reduce
I0403 14:40:49.514431 13525 net.cpp:91] Creating Layer inception_3b/relu_3x3_reduce
I0403 14:40:49.514447 13525 net.cpp:425] inception_3b/relu_3x3_reduce <- inception_3b/3x3_reduce
I0403 14:40:49.514467 13525 net.cpp:386] inception_3b/relu_3x3_reduce -> inception_3b/3x3_reduce (in-place)
I0403 14:40:49.514652 13525 net.cpp:141] Setting up inception_3b/relu_3x3_reduce
I0403 14:40:49.514678 13525 net.cpp:148] Top shape: 24 128 28 28 (2408448)
I0403 14:40:49.514693 13525 net.cpp:156] Memory required for data: 696042528
I0403 14:40:49.514708 13525 layer_factory.hpp:77] Creating layer inception_3b/3x3
I0403 14:40:49.514735 13525 net.cpp:91] Creating Layer inception_3b/3x3
I0403 14:40:49.514755 13525 net.cpp:425] inception_3b/3x3 <- inception_3b/3x3_reduce
I0403 14:40:49.514776 13525 net.cpp:399] inception_3b/3x3 -> inception_3b/3x3
I0403 14:40:49.517757 13525 net.cpp:141] Setting up inception_3b/3x3
I0403 14:40:49.517786 13525 net.cpp:148] Top shape: 24 192 28 28 (3612672)
I0403 14:40:49.517802 13525 net.cpp:156] Memory required for data: 710493216
I0403 14:40:49.517819 13525 layer_factory.hpp:77] Creating layer inception_3b/relu_3x3
I0403 14:40:49.517840 13525 net.cpp:91] Creating Layer inception_3b/relu_3x3
I0403 14:40:49.517856 13525 net.cpp:425] inception_3b/relu_3x3 <- inception_3b/3x3
I0403 14:40:49.517874 13525 net.cpp:386] inception_3b/relu_3x3 -> inception_3b/3x3 (in-place)
I0403 14:40:49.518149 13525 net.cpp:141] Setting up inception_3b/relu_3x3
I0403 14:40:49.518175 13525 net.cpp:148] Top shape: 24 192 28 28 (3612672)
I0403 14:40:49.518189 13525 net.cpp:156] Memory required for data: 724943904
I0403 14:40:49.518203 13525 layer_factory.hpp:77] Creating layer inception_3b/5x5_reduce
I0403 14:40:49.518226 13525 net.cpp:91] Creating Layer inception_3b/5x5_reduce
I0403 14:40:49.518244 13525 net.cpp:425] inception_3b/5x5_reduce <- inception_3a/output_inception_3a/output_0_split_2
I0403 14:40:49.518266 13525 net.cpp:399] inception_3b/5x5_reduce -> inception_3b/5x5_reduce
I0403 14:40:49.519248 13525 net.cpp:141] Setting up inception_3b/5x5_reduce
I0403 14:40:49.519275 13525 net.cpp:148] Top shape: 24 32 28 28 (602112)
I0403 14:40:49.519291 13525 net.cpp:156] Memory required for data: 727352352
I0403 14:40:49.519309 13525 layer_factory.hpp:77] Creating layer inception_3b/relu_5x5_reduce
I0403 14:40:49.519328 13525 net.cpp:91] Creating Layer inception_3b/relu_5x5_reduce
I0403 14:40:49.519345 13525 net.cpp:425] inception_3b/relu_5x5_reduce <- inception_3b/5x5_reduce
I0403 14:40:49.519362 13525 net.cpp:386] inception_3b/relu_5x5_reduce -> inception_3b/5x5_reduce (in-place)
I0403 14:40:49.519554 13525 net.cpp:141] Setting up inception_3b/relu_5x5_reduce
I0403 14:40:49.519582 13525 net.cpp:148] Top shape: 24 32 28 28 (602112)
I0403 14:40:49.519596 13525 net.cpp:156] Memory required for data: 729760800
I0403 14:40:49.519610 13525 layer_factory.hpp:77] Creating layer inception_3b/5x5
I0403 14:40:49.519634 13525 net.cpp:91] Creating Layer inception_3b/5x5
I0403 14:40:49.519650 13525 net.cpp:425] inception_3b/5x5 <- inception_3b/5x5_reduce
I0403 14:40:49.519668 13525 net.cpp:399] inception_3b/5x5 -> inception_3b/5x5
I0403 14:40:49.521636 13525 net.cpp:141] Setting up inception_3b/5x5
I0403 14:40:49.521664 13525 net.cpp:148] Top shape: 24 96 28 28 (1806336)
I0403 14:40:49.521679 13525 net.cpp:156] Memory required for data: 736986144
I0403 14:40:49.521697 13525 layer_factory.hpp:77] Creating layer inception_3b/relu_5x5
I0403 14:40:49.521716 13525 net.cpp:91] Creating Layer inception_3b/relu_5x5
I0403 14:40:49.521731 13525 net.cpp:425] inception_3b/relu_5x5 <- inception_3b/5x5
I0403 14:40:49.521751 13525 net.cpp:386] inception_3b/relu_5x5 -> inception_3b/5x5 (in-place)
I0403 14:40:49.521939 13525 net.cpp:141] Setting up inception_3b/relu_5x5
I0403 14:40:49.521963 13525 net.cpp:148] Top shape: 24 96 28 28 (1806336)
I0403 14:40:49.521978 13525 net.cpp:156] Memory required for data: 744211488
I0403 14:40:49.521992 13525 layer_factory.hpp:77] Creating layer inception_3b/pool
I0403 14:40:49.522009 13525 net.cpp:91] Creating Layer inception_3b/pool
I0403 14:40:49.522025 13525 net.cpp:425] inception_3b/pool <- inception_3a/output_inception_3a/output_0_split_3
I0403 14:40:49.522042 13525 net.cpp:399] inception_3b/pool -> inception_3b/pool
I0403 14:40:49.522097 13525 net.cpp:141] Setting up inception_3b/pool
I0403 14:40:49.522119 13525 net.cpp:148] Top shape: 24 256 28 28 (4816896)
I0403 14:40:49.522133 13525 net.cpp:156] Memory required for data: 763479072
I0403 14:40:49.522148 13525 layer_factory.hpp:77] Creating layer inception_3b/pool_proj
I0403 14:40:49.522171 13525 net.cpp:91] Creating Layer inception_3b/pool_proj
I0403 14:40:49.522187 13525 net.cpp:425] inception_3b/pool_proj <- inception_3b/pool
I0403 14:40:49.522208 13525 net.cpp:399] inception_3b/pool_proj -> inception_3b/pool_proj
I0403 14:40:49.523247 13525 net.cpp:141] Setting up inception_3b/pool_proj
I0403 14:40:49.523278 13525 net.cpp:148] Top shape: 24 64 28 28 (1204224)
I0403 14:40:49.523294 13525 net.cpp:156] Memory required for data: 768295968
I0403 14:40:49.523313 13525 layer_factory.hpp:77] Creating layer inception_3b/relu_pool_proj
I0403 14:40:49.523329 13525 net.cpp:91] Creating Layer inception_3b/relu_pool_proj
I0403 14:40:49.523345 13525 net.cpp:425] inception_3b/relu_pool_proj <- inception_3b/pool_proj
I0403 14:40:49.523361 13525 net.cpp:386] inception_3b/relu_pool_proj -> inception_3b/pool_proj (in-place)
I0403 14:40:49.523761 13525 net.cpp:141] Setting up inception_3b/relu_pool_proj
I0403 14:40:49.523787 13525 net.cpp:148] Top shape: 24 64 28 28 (1204224)
I0403 14:40:49.523800 13525 net.cpp:156] Memory required for data: 773112864
I0403 14:40:49.523814 13525 layer_factory.hpp:77] Creating layer inception_3b/output
I0403 14:40:49.523834 13525 net.cpp:91] Creating Layer inception_3b/output
I0403 14:40:49.523851 13525 net.cpp:425] inception_3b/output <- inception_3b/1x1
I0403 14:40:49.523869 13525 net.cpp:425] inception_3b/output <- inception_3b/3x3
I0403 14:40:49.523883 13525 net.cpp:425] inception_3b/output <- inception_3b/5x5
I0403 14:40:49.523900 13525 net.cpp:425] inception_3b/output <- inception_3b/pool_proj
I0403 14:40:49.523915 13525 net.cpp:399] inception_3b/output -> inception_3b/output
I0403 14:40:49.523958 13525 net.cpp:141] Setting up inception_3b/output
I0403 14:40:49.523982 13525 net.cpp:148] Top shape: 24 480 28 28 (9031680)
I0403 14:40:49.523995 13525 net.cpp:156] Memory required for data: 809239584
I0403 14:40:49.524009 13525 layer_factory.hpp:77] Creating layer pool3/3x3_s2
I0403 14:40:49.524026 13525 net.cpp:91] Creating Layer pool3/3x3_s2
I0403 14:40:49.524040 13525 net.cpp:425] pool3/3x3_s2 <- inception_3b/output
I0403 14:40:49.524075 13525 net.cpp:399] pool3/3x3_s2 -> pool3/3x3_s2
I0403 14:40:49.524135 13525 net.cpp:141] Setting up pool3/3x3_s2
I0403 14:40:49.524158 13525 net.cpp:148] Top shape: 24 480 14 14 (2257920)
I0403 14:40:49.524173 13525 net.cpp:156] Memory required for data: 818271264
I0403 14:40:49.524186 13525 layer_factory.hpp:77] Creating layer pool3/3x3_s2_pool3/3x3_s2_0_split
I0403 14:40:49.524202 13525 net.cpp:91] Creating Layer pool3/3x3_s2_pool3/3x3_s2_0_split
I0403 14:40:49.524216 13525 net.cpp:425] pool3/3x3_s2_pool3/3x3_s2_0_split <- pool3/3x3_s2
I0403 14:40:49.524235 13525 net.cpp:399] pool3/3x3_s2_pool3/3x3_s2_0_split -> pool3/3x3_s2_pool3/3x3_s2_0_split_0
I0403 14:40:49.524255 13525 net.cpp:399] pool3/3x3_s2_pool3/3x3_s2_0_split -> pool3/3x3_s2_pool3/3x3_s2_0_split_1
I0403 14:40:49.524273 13525 net.cpp:399] pool3/3x3_s2_pool3/3x3_s2_0_split -> pool3/3x3_s2_pool3/3x3_s2_0_split_2
I0403 14:40:49.524291 13525 net.cpp:399] pool3/3x3_s2_pool3/3x3_s2_0_split -> pool3/3x3_s2_pool3/3x3_s2_0_split_3
I0403 14:40:49.524364 13525 net.cpp:141] Setting up pool3/3x3_s2_pool3/3x3_s2_0_split
I0403 14:40:49.524389 13525 net.cpp:148] Top shape: 24 480 14 14 (2257920)
I0403 14:40:49.524406 13525 net.cpp:148] Top shape: 24 480 14 14 (2257920)
I0403 14:40:49.524421 13525 net.cpp:148] Top shape: 24 480 14 14 (2257920)
I0403 14:40:49.524436 13525 net.cpp:148] Top shape: 24 480 14 14 (2257920)
I0403 14:40:49.524449 13525 net.cpp:156] Memory required for data: 854397984
I0403 14:40:49.524463 13525 layer_factory.hpp:77] Creating layer inception_4a/1x1
I0403 14:40:49.524485 13525 net.cpp:91] Creating Layer inception_4a/1x1
I0403 14:40:49.524502 13525 net.cpp:425] inception_4a/1x1 <- pool3/3x3_s2_pool3/3x3_s2_0_split_0
I0403 14:40:49.524520 13525 net.cpp:399] inception_4a/1x1 -> inception_4a/1x1
I0403 14:40:49.526119 13525 net.cpp:141] Setting up inception_4a/1x1
I0403 14:40:49.526147 13525 net.cpp:148] Top shape: 24 192 14 14 (903168)
I0403 14:40:49.526162 13525 net.cpp:156] Memory required for data: 858010656
I0403 14:40:49.526180 13525 layer_factory.hpp:77] Creating layer inception_4a/relu_1x1
I0403 14:40:49.526197 13525 net.cpp:91] Creating Layer inception_4a/relu_1x1
I0403 14:40:49.526212 13525 net.cpp:425] inception_4a/relu_1x1 <- inception_4a/1x1
I0403 14:40:49.526231 13525 net.cpp:386] inception_4a/relu_1x1 -> inception_4a/1x1 (in-place)
I0403 14:40:49.526406 13525 net.cpp:141] Setting up inception_4a/relu_1x1
I0403 14:40:49.526429 13525 net.cpp:148] Top shape: 24 192 14 14 (903168)
I0403 14:40:49.526444 13525 net.cpp:156] Memory required for data: 861623328
I0403 14:40:49.526458 13525 layer_factory.hpp:77] Creating layer inception_4a/3x3_reduce
I0403 14:40:49.526480 13525 net.cpp:91] Creating Layer inception_4a/3x3_reduce
I0403 14:40:49.526497 13525 net.cpp:425] inception_4a/3x3_reduce <- pool3/3x3_s2_pool3/3x3_s2_0_split_1
I0403 14:40:49.526518 13525 net.cpp:399] inception_4a/3x3_reduce -> inception_4a/3x3_reduce
I0403 14:40:49.527796 13525 net.cpp:141] Setting up inception_4a/3x3_reduce
I0403 14:40:49.527825 13525 net.cpp:148] Top shape: 24 96 14 14 (451584)
I0403 14:40:49.527842 13525 net.cpp:156] Memory required for data: 863429664
I0403 14:40:49.527865 13525 layer_factory.hpp:77] Creating layer inception_4a/relu_3x3_reduce
I0403 14:40:49.527885 13525 net.cpp:91] Creating Layer inception_4a/relu_3x3_reduce
I0403 14:40:49.527901 13525 net.cpp:425] inception_4a/relu_3x3_reduce <- inception_4a/3x3_reduce
I0403 14:40:49.527917 13525 net.cpp:386] inception_4a/relu_3x3_reduce -> inception_4a/3x3_reduce (in-place)
I0403 14:40:49.528091 13525 net.cpp:141] Setting up inception_4a/relu_3x3_reduce
I0403 14:40:49.528115 13525 net.cpp:148] Top shape: 24 96 14 14 (451584)
I0403 14:40:49.528131 13525 net.cpp:156] Memory required for data: 865236000
I0403 14:40:49.528144 13525 layer_factory.hpp:77] Creating layer inception_4a/3x3
I0403 14:40:49.528167 13525 net.cpp:91] Creating Layer inception_4a/3x3
I0403 14:40:49.528185 13525 net.cpp:425] inception_4a/3x3 <- inception_4a/3x3_reduce
I0403 14:40:49.528206 13525 net.cpp:399] inception_4a/3x3 -> inception_4a/3x3
I0403 14:40:49.530958 13525 net.cpp:141] Setting up inception_4a/3x3
I0403 14:40:49.530987 13525 net.cpp:148] Top shape: 24 208 14 14 (978432)
I0403 14:40:49.531003 13525 net.cpp:156] Memory required for data: 869149728
I0403 14:40:49.531021 13525 layer_factory.hpp:77] Creating layer inception_4a/relu_3x3
I0403 14:40:49.531039 13525 net.cpp:91] Creating Layer inception_4a/relu_3x3
I0403 14:40:49.531056 13525 net.cpp:425] inception_4a/relu_3x3 <- inception_4a/3x3
I0403 14:40:49.531075 13525 net.cpp:386] inception_4a/relu_3x3 -> inception_4a/3x3 (in-place)
I0403 14:40:49.531359 13525 net.cpp:141] Setting up inception_4a/relu_3x3
I0403 14:40:49.531386 13525 net.cpp:148] Top shape: 24 208 14 14 (978432)
I0403 14:40:49.531401 13525 net.cpp:156] Memory required for data: 873063456
I0403 14:40:49.531416 13525 layer_factory.hpp:77] Creating layer inception_4a/5x5_reduce
I0403 14:40:49.531440 13525 net.cpp:91] Creating Layer inception_4a/5x5_reduce
I0403 14:40:49.531456 13525 net.cpp:425] inception_4a/5x5_reduce <- pool3/3x3_s2_pool3/3x3_s2_0_split_2
I0403 14:40:49.531478 13525 net.cpp:399] inception_4a/5x5_reduce -> inception_4a/5x5_reduce
I0403 14:40:49.532519 13525 net.cpp:141] Setting up inception_4a/5x5_reduce
I0403 14:40:49.532552 13525 net.cpp:148] Top shape: 24 16 14 14 (75264)
I0403 14:40:49.532569 13525 net.cpp:156] Memory required for data: 873364512
I0403 14:40:49.532588 13525 layer_factory.hpp:77] Creating layer inception_4a/relu_5x5_reduce
I0403 14:40:49.532608 13525 net.cpp:91] Creating Layer inception_4a/relu_5x5_reduce
I0403 14:40:49.532624 13525 net.cpp:425] inception_4a/relu_5x5_reduce <- inception_4a/5x5_reduce
I0403 14:40:49.532641 13525 net.cpp:386] inception_4a/relu_5x5_reduce -> inception_4a/5x5_reduce (in-place)
I0403 14:40:49.532829 13525 net.cpp:141] Setting up inception_4a/relu_5x5_reduce
I0403 14:40:49.532857 13525 net.cpp:148] Top shape: 24 16 14 14 (75264)
I0403 14:40:49.532872 13525 net.cpp:156] Memory required for data: 873665568
I0403 14:40:49.532886 13525 layer_factory.hpp:77] Creating layer inception_4a/5x5
I0403 14:40:49.532908 13525 net.cpp:91] Creating Layer inception_4a/5x5
I0403 14:40:49.532925 13525 net.cpp:425] inception_4a/5x5 <- inception_4a/5x5_reduce
I0403 14:40:49.532944 13525 net.cpp:399] inception_4a/5x5 -> inception_4a/5x5
I0403 14:40:49.534019 13525 net.cpp:141] Setting up inception_4a/5x5
I0403 14:40:49.534045 13525 net.cpp:148] Top shape: 24 48 14 14 (225792)
I0403 14:40:49.534060 13525 net.cpp:156] Memory required for data: 874568736
I0403 14:40:49.534081 13525 layer_factory.hpp:77] Creating layer inception_4a/relu_5x5
I0403 14:40:49.534099 13525 net.cpp:91] Creating Layer inception_4a/relu_5x5
I0403 14:40:49.534116 13525 net.cpp:425] inception_4a/relu_5x5 <- inception_4a/5x5
I0403 14:40:49.534132 13525 net.cpp:386] inception_4a/relu_5x5 -> inception_4a/5x5 (in-place)
I0403 14:40:49.534306 13525 net.cpp:141] Setting up inception_4a/relu_5x5
I0403 14:40:49.534330 13525 net.cpp:148] Top shape: 24 48 14 14 (225792)
I0403 14:40:49.534344 13525 net.cpp:156] Memory required for data: 875471904
I0403 14:40:49.534358 13525 layer_factory.hpp:77] Creating layer inception_4a/pool
I0403 14:40:49.534375 13525 net.cpp:91] Creating Layer inception_4a/pool
I0403 14:40:49.534390 13525 net.cpp:425] inception_4a/pool <- pool3/3x3_s2_pool3/3x3_s2_0_split_3
I0403 14:40:49.534409 13525 net.cpp:399] inception_4a/pool -> inception_4a/pool
I0403 14:40:49.534471 13525 net.cpp:141] Setting up inception_4a/pool
I0403 14:40:49.534493 13525 net.cpp:148] Top shape: 24 480 14 14 (2257920)
I0403 14:40:49.534507 13525 net.cpp:156] Memory required for data: 884503584
I0403 14:40:49.534521 13525 layer_factory.hpp:77] Creating layer inception_4a/pool_proj
I0403 14:40:49.534555 13525 net.cpp:91] Creating Layer inception_4a/pool_proj
I0403 14:40:49.534575 13525 net.cpp:425] inception_4a/pool_proj <- inception_4a/pool
I0403 14:40:49.534593 13525 net.cpp:399] inception_4a/pool_proj -> inception_4a/pool_proj
I0403 14:40:49.535753 13525 net.cpp:141] Setting up inception_4a/pool_proj
I0403 14:40:49.535786 13525 net.cpp:148] Top shape: 24 64 14 14 (301056)
I0403 14:40:49.535816 13525 net.cpp:156] Memory required for data: 885707808
I0403 14:40:49.535835 13525 layer_factory.hpp:77] Creating layer inception_4a/relu_pool_proj
I0403 14:40:49.535853 13525 net.cpp:91] Creating Layer inception_4a/relu_pool_proj
I0403 14:40:49.535868 13525 net.cpp:425] inception_4a/relu_pool_proj <- inception_4a/pool_proj
I0403 14:40:49.535889 13525 net.cpp:386] inception_4a/relu_pool_proj -> inception_4a/pool_proj (in-place)
I0403 14:40:49.536167 13525 net.cpp:141] Setting up inception_4a/relu_pool_proj
I0403 14:40:49.536195 13525 net.cpp:148] Top shape: 24 64 14 14 (301056)
I0403 14:40:49.536211 13525 net.cpp:156] Memory required for data: 886912032
I0403 14:40:49.536226 13525 layer_factory.hpp:77] Creating layer inception_4a/output
I0403 14:40:49.536242 13525 net.cpp:91] Creating Layer inception_4a/output
I0403 14:40:49.536257 13525 net.cpp:425] inception_4a/output <- inception_4a/1x1
I0403 14:40:49.536273 13525 net.cpp:425] inception_4a/output <- inception_4a/3x3
I0403 14:40:49.536288 13525 net.cpp:425] inception_4a/output <- inception_4a/5x5
I0403 14:40:49.536303 13525 net.cpp:425] inception_4a/output <- inception_4a/pool_proj
I0403 14:40:49.536322 13525 net.cpp:399] inception_4a/output -> inception_4a/output
I0403 14:40:49.536365 13525 net.cpp:141] Setting up inception_4a/output
I0403 14:40:49.536388 13525 net.cpp:148] Top shape: 24 512 14 14 (2408448)
I0403 14:40:49.536402 13525 net.cpp:156] Memory required for data: 896545824
I0403 14:40:49.536417 13525 layer_factory.hpp:77] Creating layer inception_4a/output_inception_4a/output_0_split
I0403 14:40:49.536437 13525 net.cpp:91] Creating Layer inception_4a/output_inception_4a/output_0_split
I0403 14:40:49.536453 13525 net.cpp:425] inception_4a/output_inception_4a/output_0_split <- inception_4a/output
I0403 14:40:49.536469 13525 net.cpp:399] inception_4a/output_inception_4a/output_0_split -> inception_4a/output_inception_4a/output_0_split_0
I0403 14:40:49.536489 13525 net.cpp:399] inception_4a/output_inception_4a/output_0_split -> inception_4a/output_inception_4a/output_0_split_1
I0403 14:40:49.536512 13525 net.cpp:399] inception_4a/output_inception_4a/output_0_split -> inception_4a/output_inception_4a/output_0_split_2
I0403 14:40:49.536532 13525 net.cpp:399] inception_4a/output_inception_4a/output_0_split -> inception_4a/output_inception_4a/output_0_split_3
I0403 14:40:49.536558 13525 net.cpp:399] inception_4a/output_inception_4a/output_0_split -> inception_4a/output_inception_4a/output_0_split_4
I0403 14:40:49.536649 13525 net.cpp:141] Setting up inception_4a/output_inception_4a/output_0_split
I0403 14:40:49.536674 13525 net.cpp:148] Top shape: 24 512 14 14 (2408448)
I0403 14:40:49.536689 13525 net.cpp:148] Top shape: 24 512 14 14 (2408448)
I0403 14:40:49.536705 13525 net.cpp:148] Top shape: 24 512 14 14 (2408448)
I0403 14:40:49.536720 13525 net.cpp:148] Top shape: 24 512 14 14 (2408448)
I0403 14:40:49.536736 13525 net.cpp:148] Top shape: 24 512 14 14 (2408448)
I0403 14:40:49.536749 13525 net.cpp:156] Memory required for data: 944714784
I0403 14:40:49.536762 13525 layer_factory.hpp:77] Creating layer loss1/ave_pool
I0403 14:40:49.536782 13525 net.cpp:91] Creating Layer loss1/ave_pool
I0403 14:40:49.536799 13525 net.cpp:425] loss1/ave_pool <- inception_4a/output_inception_4a/output_0_split_0
I0403 14:40:49.536818 13525 net.cpp:399] loss1/ave_pool -> loss1/ave_pool
I0403 14:40:49.537019 13525 net.cpp:141] Setting up loss1/ave_pool
I0403 14:40:49.537046 13525 net.cpp:148] Top shape: 24 512 4 4 (196608)
I0403 14:40:49.537062 13525 net.cpp:156] Memory required for data: 945501216
I0403 14:40:49.537077 13525 layer_factory.hpp:77] Creating layer loss1/conv
I0403 14:40:49.537101 13525 net.cpp:91] Creating Layer loss1/conv
I0403 14:40:49.537118 13525 net.cpp:425] loss1/conv <- loss1/ave_pool
I0403 14:40:49.537137 13525 net.cpp:399] loss1/conv -> loss1/conv
I0403 14:40:49.538534 13525 net.cpp:141] Setting up loss1/conv
I0403 14:40:49.538565 13525 net.cpp:148] Top shape: 24 128 4 4 (49152)
I0403 14:40:49.538595 13525 net.cpp:156] Memory required for data: 945697824
I0403 14:40:49.538615 13525 layer_factory.hpp:77] Creating layer loss1/relu_conv
I0403 14:40:49.538636 13525 net.cpp:91] Creating Layer loss1/relu_conv
I0403 14:40:49.538653 13525 net.cpp:425] loss1/relu_conv <- loss1/conv
I0403 14:40:49.538671 13525 net.cpp:386] loss1/relu_conv -> loss1/conv (in-place)
I0403 14:40:49.538949 13525 net.cpp:141] Setting up loss1/relu_conv
I0403 14:40:49.538975 13525 net.cpp:148] Top shape: 24 128 4 4 (49152)
I0403 14:40:49.538988 13525 net.cpp:156] Memory required for data: 945894432
I0403 14:40:49.539003 13525 layer_factory.hpp:77] Creating layer loss1/fc
I0403 14:40:49.539028 13525 net.cpp:91] Creating Layer loss1/fc
I0403 14:40:49.539046 13525 net.cpp:425] loss1/fc <- loss1/conv
I0403 14:40:49.539063 13525 net.cpp:399] loss1/fc -> loss1/fc
I0403 14:40:49.556581 13525 net.cpp:141] Setting up loss1/fc
I0403 14:40:49.556617 13525 net.cpp:148] Top shape: 24 1024 (24576)
I0403 14:40:49.556632 13525 net.cpp:156] Memory required for data: 945992736
I0403 14:40:49.556649 13525 layer_factory.hpp:77] Creating layer loss1/relu_fc
I0403 14:40:49.556668 13525 net.cpp:91] Creating Layer loss1/relu_fc
I0403 14:40:49.556681 13525 net.cpp:425] loss1/relu_fc <- loss1/fc
I0403 14:40:49.556700 13525 net.cpp:386] loss1/relu_fc -> loss1/fc (in-place)
I0403 14:40:49.556879 13525 net.cpp:141] Setting up loss1/relu_fc
I0403 14:40:49.556903 13525 net.cpp:148] Top shape: 24 1024 (24576)
I0403 14:40:49.556917 13525 net.cpp:156] Memory required for data: 946091040
I0403 14:40:49.556931 13525 layer_factory.hpp:77] Creating layer loss1/drop_fc
I0403 14:40:49.556958 13525 net.cpp:91] Creating Layer loss1/drop_fc
I0403 14:40:49.556974 13525 net.cpp:425] loss1/drop_fc <- loss1/fc
I0403 14:40:49.556993 13525 net.cpp:386] loss1/drop_fc -> loss1/fc (in-place)
I0403 14:40:49.557044 13525 net.cpp:141] Setting up loss1/drop_fc
I0403 14:40:49.557068 13525 net.cpp:148] Top shape: 24 1024 (24576)
I0403 14:40:49.557082 13525 net.cpp:156] Memory required for data: 946189344
I0403 14:40:49.557097 13525 layer_factory.hpp:77] Creating layer loss1/classifier_plantvillage
I0403 14:40:49.557114 13525 net.cpp:91] Creating Layer loss1/classifier_plantvillage
I0403 14:40:49.557129 13525 net.cpp:425] loss1/classifier_plantvillage <- loss1/fc
I0403 14:40:49.557149 13525 net.cpp:399] loss1/classifier_plantvillage -> loss1/classifier_plantvillage
I0403 14:40:49.558043 13525 net.cpp:141] Setting up loss1/classifier_plantvillage
I0403 14:40:49.558071 13525 net.cpp:148] Top shape: 24 38 (912)
I0403 14:40:49.558087 13525 net.cpp:156] Memory required for data: 946192992
I0403 14:40:49.558104 13525 layer_factory.hpp:77] Creating layer loss1/classifier_plantvillage_loss1/classifier_plantvillage_0_split
I0403 14:40:49.558121 13525 net.cpp:91] Creating Layer loss1/classifier_plantvillage_loss1/classifier_plantvillage_0_split
I0403 14:40:49.558137 13525 net.cpp:425] loss1/classifier_plantvillage_loss1/classifier_plantvillage_0_split <- loss1/classifier_plantvillage
I0403 14:40:49.558156 13525 net.cpp:399] loss1/classifier_plantvillage_loss1/classifier_plantvillage_0_split -> loss1/classifier_plantvillage_loss1/classifier_plantvillage_0_split_0
I0403 14:40:49.558176 13525 net.cpp:399] loss1/classifier_plantvillage_loss1/classifier_plantvillage_0_split -> loss1/classifier_plantvillage_loss1/classifier_plantvillage_0_split_1
I0403 14:40:49.558197 13525 net.cpp:399] loss1/classifier_plantvillage_loss1/classifier_plantvillage_0_split -> loss1/classifier_plantvillage_loss1/classifier_plantvillage_0_split_2
I0403 14:40:49.558262 13525 net.cpp:141] Setting up loss1/classifier_plantvillage_loss1/classifier_plantvillage_0_split
I0403 14:40:49.558284 13525 net.cpp:148] Top shape: 24 38 (912)
I0403 14:40:49.558300 13525 net.cpp:148] Top shape: 24 38 (912)
I0403 14:40:49.558315 13525 net.cpp:148] Top shape: 24 38 (912)
I0403 14:40:49.558327 13525 net.cpp:156] Memory required for data: 946203936
I0403 14:40:49.558341 13525 layer_factory.hpp:77] Creating layer inception_4b/1x1
I0403 14:40:49.558362 13525 net.cpp:91] Creating Layer inception_4b/1x1
I0403 14:40:49.558395 13525 net.cpp:425] inception_4b/1x1 <- inception_4a/output_inception_4a/output_0_split_1
I0403 14:40:49.558415 13525 net.cpp:399] inception_4b/1x1 -> inception_4b/1x1
I0403 14:40:49.560015 13525 net.cpp:141] Setting up inception_4b/1x1
I0403 14:40:49.560042 13525 net.cpp:148] Top shape: 24 160 14 14 (752640)
I0403 14:40:49.560058 13525 net.cpp:156] Memory required for data: 949214496
I0403 14:40:49.560075 13525 layer_factory.hpp:77] Creating layer inception_4b/relu_1x1
I0403 14:40:49.560096 13525 net.cpp:91] Creating Layer inception_4b/relu_1x1
I0403 14:40:49.560113 13525 net.cpp:425] inception_4b/relu_1x1 <- inception_4b/1x1
I0403 14:40:49.560130 13525 net.cpp:386] inception_4b/relu_1x1 -> inception_4b/1x1 (in-place)
I0403 14:40:49.560300 13525 net.cpp:141] Setting up inception_4b/relu_1x1
I0403 14:40:49.560327 13525 net.cpp:148] Top shape: 24 160 14 14 (752640)
I0403 14:40:49.560343 13525 net.cpp:156] Memory required for data: 952225056
I0403 14:40:49.560358 13525 layer_factory.hpp:77] Creating layer inception_4b/3x3_reduce
I0403 14:40:49.560379 13525 net.cpp:91] Creating Layer inception_4b/3x3_reduce
I0403 14:40:49.560396 13525 net.cpp:425] inception_4b/3x3_reduce <- inception_4a/output_inception_4a/output_0_split_2
I0403 14:40:49.560415 13525 net.cpp:399] inception_4b/3x3_reduce -> inception_4b/3x3_reduce
I0403 14:40:49.561722 13525 net.cpp:141] Setting up inception_4b/3x3_reduce
I0403 14:40:49.561749 13525 net.cpp:148] Top shape: 24 112 14 14 (526848)
I0403 14:40:49.561769 13525 net.cpp:156] Memory required for data: 954332448
I0403 14:40:49.561786 13525 layer_factory.hpp:77] Creating layer inception_4b/relu_3x3_reduce
I0403 14:40:49.561803 13525 net.cpp:91] Creating Layer inception_4b/relu_3x3_reduce
I0403 14:40:49.561818 13525 net.cpp:425] inception_4b/relu_3x3_reduce <- inception_4b/3x3_reduce
I0403 14:40:49.561835 13525 net.cpp:386] inception_4b/relu_3x3_reduce -> inception_4b/3x3_reduce (in-place)
I0403 14:40:49.562108 13525 net.cpp:141] Setting up inception_4b/relu_3x3_reduce
I0403 14:40:49.562134 13525 net.cpp:148] Top shape: 24 112 14 14 (526848)
I0403 14:40:49.562151 13525 net.cpp:156] Memory required for data: 956439840
I0403 14:40:49.562166 13525 layer_factory.hpp:77] Creating layer inception_4b/3x3
I0403 14:40:49.562186 13525 net.cpp:91] Creating Layer inception_4b/3x3
I0403 14:40:49.562201 13525 net.cpp:425] inception_4b/3x3 <- inception_4b/3x3_reduce
I0403 14:40:49.562222 13525 net.cpp:399] inception_4b/3x3 -> inception_4b/3x3
I0403 14:40:49.565114 13525 net.cpp:141] Setting up inception_4b/3x3
I0403 14:40:49.565142 13525 net.cpp:148] Top shape: 24 224 14 14 (1053696)
I0403 14:40:49.565157 13525 net.cpp:156] Memory required for data: 960654624
I0403 14:40:49.565174 13525 layer_factory.hpp:77] Creating layer inception_4b/relu_3x3
I0403 14:40:49.565192 13525 net.cpp:91] Creating Layer inception_4b/relu_3x3
I0403 14:40:49.565209 13525 net.cpp:425] inception_4b/relu_3x3 <- inception_4b/3x3
I0403 14:40:49.565228 13525 net.cpp:386] inception_4b/relu_3x3 -> inception_4b/3x3 (in-place)
I0403 14:40:49.565402 13525 net.cpp:141] Setting up inception_4b/relu_3x3
I0403 14:40:49.565425 13525 net.cpp:148] Top shape: 24 224 14 14 (1053696)
I0403 14:40:49.565440 13525 net.cpp:156] Memory required for data: 964869408
I0403 14:40:49.565454 13525 layer_factory.hpp:77] Creating layer inception_4b/5x5_reduce
I0403 14:40:49.565475 13525 net.cpp:91] Creating Layer inception_4b/5x5_reduce
I0403 14:40:49.565491 13525 net.cpp:425] inception_4b/5x5_reduce <- inception_4a/output_inception_4a/output_0_split_3
I0403 14:40:49.565512 13525 net.cpp:399] inception_4b/5x5_reduce -> inception_4b/5x5_reduce
I0403 14:40:49.566561 13525 net.cpp:141] Setting up inception_4b/5x5_reduce
I0403 14:40:49.566589 13525 net.cpp:148] Top shape: 24 24 14 14 (112896)
I0403 14:40:49.566606 13525 net.cpp:156] Memory required for data: 965320992
I0403 14:40:49.566622 13525 layer_factory.hpp:77] Creating layer inception_4b/relu_5x5_reduce
I0403 14:40:49.566643 13525 net.cpp:91] Creating Layer inception_4b/relu_5x5_reduce
I0403 14:40:49.566674 13525 net.cpp:425] inception_4b/relu_5x5_reduce <- inception_4b/5x5_reduce
I0403 14:40:49.566692 13525 net.cpp:386] inception_4b/relu_5x5_reduce -> inception_4b/5x5_reduce (in-place)
I0403 14:40:49.566869 13525 net.cpp:141] Setting up inception_4b/relu_5x5_reduce
I0403 14:40:49.566895 13525 net.cpp:148] Top shape: 24 24 14 14 (112896)
I0403 14:40:49.566910 13525 net.cpp:156] Memory required for data: 965772576
I0403 14:40:49.566925 13525 layer_factory.hpp:77] Creating layer inception_4b/5x5
I0403 14:40:49.566946 13525 net.cpp:91] Creating Layer inception_4b/5x5
I0403 14:40:49.566962 13525 net.cpp:425] inception_4b/5x5 <- inception_4b/5x5_reduce
I0403 14:40:49.566980 13525 net.cpp:399] inception_4b/5x5 -> inception_4b/5x5
I0403 14:40:49.568214 13525 net.cpp:141] Setting up inception_4b/5x5
I0403 14:40:49.568241 13525 net.cpp:148] Top shape: 24 64 14 14 (301056)
I0403 14:40:49.568256 13525 net.cpp:156] Memory required for data: 966976800
I0403 14:40:49.568274 13525 layer_factory.hpp:77] Creating layer inception_4b/relu_5x5
I0403 14:40:49.568294 13525 net.cpp:91] Creating Layer inception_4b/relu_5x5
I0403 14:40:49.568310 13525 net.cpp:425] inception_4b/relu_5x5 <- inception_4b/5x5
I0403 14:40:49.568326 13525 net.cpp:386] inception_4b/relu_5x5 -> inception_4b/5x5 (in-place)
I0403 14:40:49.568603 13525 net.cpp:141] Setting up inception_4b/relu_5x5
I0403 14:40:49.568630 13525 net.cpp:148] Top shape: 24 64 14 14 (301056)
I0403 14:40:49.568645 13525 net.cpp:156] Memory required for data: 968181024
I0403 14:40:49.568660 13525 layer_factory.hpp:77] Creating layer inception_4b/pool
I0403 14:40:49.568676 13525 net.cpp:91] Creating Layer inception_4b/pool
I0403 14:40:49.568691 13525 net.cpp:425] inception_4b/pool <- inception_4a/output_inception_4a/output_0_split_4
I0403 14:40:49.568713 13525 net.cpp:399] inception_4b/pool -> inception_4b/pool
I0403 14:40:49.568778 13525 net.cpp:141] Setting up inception_4b/pool
I0403 14:40:49.568800 13525 net.cpp:148] Top shape: 24 512 14 14 (2408448)
I0403 14:40:49.568814 13525 net.cpp:156] Memory required for data: 977814816
I0403 14:40:49.568828 13525 layer_factory.hpp:77] Creating layer inception_4b/pool_proj
I0403 14:40:49.568850 13525 net.cpp:91] Creating Layer inception_4b/pool_proj
I0403 14:40:49.568866 13525 net.cpp:425] inception_4b/pool_proj <- inception_4b/pool
I0403 14:40:49.568886 13525 net.cpp:399] inception_4b/pool_proj -> inception_4b/pool_proj
I0403 14:40:49.570041 13525 net.cpp:141] Setting up inception_4b/pool_proj
I0403 14:40:49.570068 13525 net.cpp:148] Top shape: 24 64 14 14 (301056)
I0403 14:40:49.570085 13525 net.cpp:156] Memory required for data: 979019040
I0403 14:40:49.570102 13525 layer_factory.hpp:77] Creating layer inception_4b/relu_pool_proj
I0403 14:40:49.570122 13525 net.cpp:91] Creating Layer inception_4b/relu_pool_proj
I0403 14:40:49.570137 13525 net.cpp:425] inception_4b/relu_pool_proj <- inception_4b/pool_proj
I0403 14:40:49.570154 13525 net.cpp:386] inception_4b/relu_pool_proj -> inception_4b/pool_proj (in-place)
I0403 14:40:49.570325 13525 net.cpp:141] Setting up inception_4b/relu_pool_proj
I0403 14:40:49.570351 13525 net.cpp:148] Top shape: 24 64 14 14 (301056)
I0403 14:40:49.570366 13525 net.cpp:156] Memory required for data: 980223264
I0403 14:40:49.570380 13525 layer_factory.hpp:77] Creating layer inception_4b/output
I0403 14:40:49.570397 13525 net.cpp:91] Creating Layer inception_4b/output
I0403 14:40:49.570412 13525 net.cpp:425] inception_4b/output <- inception_4b/1x1
I0403 14:40:49.570427 13525 net.cpp:425] inception_4b/output <- inception_4b/3x3
I0403 14:40:49.570442 13525 net.cpp:425] inception_4b/output <- inception_4b/5x5
I0403 14:40:49.570456 13525 net.cpp:425] inception_4b/output <- inception_4b/pool_proj
I0403 14:40:49.570472 13525 net.cpp:399] inception_4b/output -> inception_4b/output
I0403 14:40:49.570518 13525 net.cpp:141] Setting up inception_4b/output
I0403 14:40:49.570544 13525 net.cpp:148] Top shape: 24 512 14 14 (2408448)
I0403 14:40:49.570559 13525 net.cpp:156] Memory required for data: 989857056
I0403 14:40:49.570586 13525 layer_factory.hpp:77] Creating layer inception_4b/output_inception_4b/output_0_split
I0403 14:40:49.570606 13525 net.cpp:91] Creating Layer inception_4b/output_inception_4b/output_0_split
I0403 14:40:49.570621 13525 net.cpp:425] inception_4b/output_inception_4b/output_0_split <- inception_4b/output
I0403 14:40:49.570637 13525 net.cpp:399] inception_4b/output_inception_4b/output_0_split -> inception_4b/output_inception_4b/output_0_split_0
I0403 14:40:49.570657 13525 net.cpp:399] inception_4b/output_inception_4b/output_0_split -> inception_4b/output_inception_4b/output_0_split_1
I0403 14:40:49.570675 13525 net.cpp:399] inception_4b/output_inception_4b/output_0_split -> inception_4b/output_inception_4b/output_0_split_2
I0403 14:40:49.570694 13525 net.cpp:399] inception_4b/output_inception_4b/output_0_split -> inception_4b/output_inception_4b/output_0_split_3
I0403 14:40:49.570775 13525 net.cpp:141] Setting up inception_4b/output_inception_4b/output_0_split
I0403 14:40:49.570797 13525 net.cpp:148] Top shape: 24 512 14 14 (2408448)
I0403 14:40:49.570812 13525 net.cpp:148] Top shape: 24 512 14 14 (2408448)
I0403 14:40:49.570827 13525 net.cpp:148] Top shape: 24 512 14 14 (2408448)
I0403 14:40:49.570842 13525 net.cpp:148] Top shape: 24 512 14 14 (2408448)
I0403 14:40:49.570854 13525 net.cpp:156] Memory required for data: 1028392224
I0403 14:40:49.570868 13525 layer_factory.hpp:77] Creating layer inception_4c/1x1
I0403 14:40:49.570891 13525 net.cpp:91] Creating Layer inception_4c/1x1
I0403 14:40:49.570907 13525 net.cpp:425] inception_4c/1x1 <- inception_4b/output_inception_4b/output_0_split_0
I0403 14:40:49.570927 13525 net.cpp:399] inception_4c/1x1 -> inception_4c/1x1
I0403 14:40:49.572332 13525 net.cpp:141] Setting up inception_4c/1x1
I0403 14:40:49.572362 13525 net.cpp:148] Top shape: 24 128 14 14 (602112)
I0403 14:40:49.572379 13525 net.cpp:156] Memory required for data: 1030800672
I0403 14:40:49.572397 13525 layer_factory.hpp:77] Creating layer inception_4c/relu_1x1
I0403 14:40:49.572414 13525 net.cpp:91] Creating Layer inception_4c/relu_1x1
I0403 14:40:49.572430 13525 net.cpp:425] inception_4c/relu_1x1 <- inception_4c/1x1
I0403 14:40:49.572449 13525 net.cpp:386] inception_4c/relu_1x1 -> inception_4c/1x1 (in-place)
I0403 14:40:49.572648 13525 net.cpp:141] Setting up inception_4c/relu_1x1
I0403 14:40:49.572671 13525 net.cpp:148] Top shape: 24 128 14 14 (602112)
I0403 14:40:49.572685 13525 net.cpp:156] Memory required for data: 1033209120
I0403 14:40:49.572698 13525 layer_factory.hpp:77] Creating layer inception_4c/3x3_reduce
I0403 14:40:49.572721 13525 net.cpp:91] Creating Layer inception_4c/3x3_reduce
I0403 14:40:49.572737 13525 net.cpp:425] inception_4c/3x3_reduce <- inception_4b/output_inception_4b/output_0_split_1
I0403 14:40:49.572759 13525 net.cpp:399] inception_4c/3x3_reduce -> inception_4c/3x3_reduce
I0403 14:40:49.574684 13525 net.cpp:141] Setting up inception_4c/3x3_reduce
I0403 14:40:49.574712 13525 net.cpp:148] Top shape: 24 128 14 14 (602112)
I0403 14:40:49.574728 13525 net.cpp:156] Memory required for data: 1035617568
I0403 14:40:49.574744 13525 layer_factory.hpp:77] Creating layer inception_4c/relu_3x3_reduce
I0403 14:40:49.574764 13525 net.cpp:91] Creating Layer inception_4c/relu_3x3_reduce
I0403 14:40:49.574780 13525 net.cpp:425] inception_4c/relu_3x3_reduce <- inception_4c/3x3_reduce
I0403 14:40:49.574796 13525 net.cpp:386] inception_4c/relu_3x3_reduce -> inception_4c/3x3_reduce (in-place)
I0403 14:40:49.575070 13525 net.cpp:141] Setting up inception_4c/relu_3x3_reduce
I0403 14:40:49.575095 13525 net.cpp:148] Top shape: 24 128 14 14 (602112)
I0403 14:40:49.575109 13525 net.cpp:156] Memory required for data: 1038026016
I0403 14:40:49.575124 13525 layer_factory.hpp:77] Creating layer inception_4c/3x3
I0403 14:40:49.575145 13525 net.cpp:91] Creating Layer inception_4c/3x3
I0403 14:40:49.575161 13525 net.cpp:425] inception_4c/3x3 <- inception_4c/3x3_reduce
I0403 14:40:49.575181 13525 net.cpp:399] inception_4c/3x3 -> inception_4c/3x3
I0403 14:40:49.578688 13525 net.cpp:141] Setting up inception_4c/3x3
I0403 14:40:49.578740 13525 net.cpp:148] Top shape: 24 256 14 14 (1204224)
I0403 14:40:49.578758 13525 net.cpp:156] Memory required for data: 1042842912
I0403 14:40:49.578788 13525 layer_factory.hpp:77] Creating layer inception_4c/relu_3x3
I0403 14:40:49.578812 13525 net.cpp:91] Creating Layer inception_4c/relu_3x3
I0403 14:40:49.578830 13525 net.cpp:425] inception_4c/relu_3x3 <- inception_4c/3x3
I0403 14:40:49.578846 13525 net.cpp:386] inception_4c/relu_3x3 -> inception_4c/3x3 (in-place)
I0403 14:40:49.579025 13525 net.cpp:141] Setting up inception_4c/relu_3x3
I0403 14:40:49.579051 13525 net.cpp:148] Top shape: 24 256 14 14 (1204224)
I0403 14:40:49.579066 13525 net.cpp:156] Memory required for data: 1047659808
I0403 14:40:49.579079 13525 layer_factory.hpp:77] Creating layer inception_4c/5x5_reduce
I0403 14:40:49.579102 13525 net.cpp:91] Creating Layer inception_4c/5x5_reduce
I0403 14:40:49.579119 13525 net.cpp:425] inception_4c/5x5_reduce <- inception_4b/output_inception_4b/output_0_split_2
I0403 14:40:49.579140 13525 net.cpp:399] inception_4c/5x5_reduce -> inception_4c/5x5_reduce
I0403 14:40:49.580260 13525 net.cpp:141] Setting up inception_4c/5x5_reduce
I0403 14:40:49.580289 13525 net.cpp:148] Top shape: 24 24 14 14 (112896)
I0403 14:40:49.580305 13525 net.cpp:156] Memory required for data: 1048111392
I0403 14:40:49.580323 13525 layer_factory.hpp:77] Creating layer inception_4c/relu_5x5_reduce
I0403 14:40:49.580344 13525 net.cpp:91] Creating Layer inception_4c/relu_5x5_reduce
I0403 14:40:49.580361 13525 net.cpp:425] inception_4c/relu_5x5_reduce <- inception_4c/5x5_reduce
I0403 14:40:49.580379 13525 net.cpp:386] inception_4c/relu_5x5_reduce -> inception_4c/5x5_reduce (in-place)
I0403 14:40:49.580574 13525 net.cpp:141] Setting up inception_4c/relu_5x5_reduce
I0403 14:40:49.580601 13525 net.cpp:148] Top shape: 24 24 14 14 (112896)
I0403 14:40:49.580617 13525 net.cpp:156] Memory required for data: 1048562976
I0403 14:40:49.580632 13525 layer_factory.hpp:77] Creating layer inception_4c/5x5
I0403 14:40:49.580654 13525 net.cpp:91] Creating Layer inception_4c/5x5
I0403 14:40:49.580672 13525 net.cpp:425] inception_4c/5x5 <- inception_4c/5x5_reduce
I0403 14:40:49.580690 13525 net.cpp:399] inception_4c/5x5 -> inception_4c/5x5
I0403 14:40:49.581969 13525 net.cpp:141] Setting up inception_4c/5x5
I0403 14:40:49.582000 13525 net.cpp:148] Top shape: 24 64 14 14 (301056)
I0403 14:40:49.582017 13525 net.cpp:156] Memory required for data: 1049767200
I0403 14:40:49.582036 13525 layer_factory.hpp:77] Creating layer inception_4c/relu_5x5
I0403 14:40:49.582056 13525 net.cpp:91] Creating Layer inception_4c/relu_5x5
I0403 14:40:49.582072 13525 net.cpp:425] inception_4c/relu_5x5 <- inception_4c/5x5
I0403 14:40:49.582089 13525 net.cpp:386] inception_4c/relu_5x5 -> inception_4c/5x5 (in-place)
I0403 14:40:49.582386 13525 net.cpp:141] Setting up inception_4c/relu_5x5
I0403 14:40:49.582415 13525 net.cpp:148] Top shape: 24 64 14 14 (301056)
I0403 14:40:49.582432 13525 net.cpp:156] Memory required for data: 1050971424
I0403 14:40:49.582447 13525 layer_factory.hpp:77] Creating layer inception_4c/pool
I0403 14:40:49.582464 13525 net.cpp:91] Creating Layer inception_4c/pool
I0403 14:40:49.582480 13525 net.cpp:425] inception_4c/pool <- inception_4b/output_inception_4b/output_0_split_3
I0403 14:40:49.582499 13525 net.cpp:399] inception_4c/pool -> inception_4c/pool
I0403 14:40:49.582571 13525 net.cpp:141] Setting up inception_4c/pool
I0403 14:40:49.582597 13525 net.cpp:148] Top shape: 24 512 14 14 (2408448)
I0403 14:40:49.582612 13525 net.cpp:156] Memory required for data: 1060605216
I0403 14:40:49.582625 13525 layer_factory.hpp:77] Creating layer inception_4c/pool_proj
I0403 14:40:49.582648 13525 net.cpp:91] Creating Layer inception_4c/pool_proj
I0403 14:40:49.582665 13525 net.cpp:425] inception_4c/pool_proj <- inception_4c/pool
I0403 14:40:49.582687 13525 net.cpp:399] inception_4c/pool_proj -> inception_4c/pool_proj
I0403 14:40:49.583947 13525 net.cpp:141] Setting up inception_4c/pool_proj
I0403 14:40:49.583976 13525 net.cpp:148] Top shape: 24 64 14 14 (301056)
I0403 14:40:49.584007 13525 net.cpp:156] Memory required for data: 1061809440
I0403 14:40:49.584028 13525 layer_factory.hpp:77] Creating layer inception_4c/relu_pool_proj
I0403 14:40:49.584048 13525 net.cpp:91] Creating Layer inception_4c/relu_pool_proj
I0403 14:40:49.584066 13525 net.cpp:425] inception_4c/relu_pool_proj <- inception_4c/pool_proj
I0403 14:40:49.584084 13525 net.cpp:386] inception_4c/relu_pool_proj -> inception_4c/pool_proj (in-place)
I0403 14:40:49.584272 13525 net.cpp:141] Setting up inception_4c/relu_pool_proj
I0403 14:40:49.584300 13525 net.cpp:148] Top shape: 24 64 14 14 (301056)
I0403 14:40:49.584316 13525 net.cpp:156] Memory required for data: 1063013664
I0403 14:40:49.584329 13525 layer_factory.hpp:77] Creating layer inception_4c/output
I0403 14:40:49.584347 13525 net.cpp:91] Creating Layer inception_4c/output
I0403 14:40:49.584362 13525 net.cpp:425] inception_4c/output <- inception_4c/1x1
I0403 14:40:49.584378 13525 net.cpp:425] inception_4c/output <- inception_4c/3x3
I0403 14:40:49.584393 13525 net.cpp:425] inception_4c/output <- inception_4c/5x5
I0403 14:40:49.584408 13525 net.cpp:425] inception_4c/output <- inception_4c/pool_proj
I0403 14:40:49.584425 13525 net.cpp:399] inception_4c/output -> inception_4c/output
I0403 14:40:49.584475 13525 net.cpp:141] Setting up inception_4c/output
I0403 14:40:49.584497 13525 net.cpp:148] Top shape: 24 512 14 14 (2408448)
I0403 14:40:49.584512 13525 net.cpp:156] Memory required for data: 1072647456
I0403 14:40:49.584527 13525 layer_factory.hpp:77] Creating layer inception_4c/output_inception_4c/output_0_split
I0403 14:40:49.584558 13525 net.cpp:91] Creating Layer inception_4c/output_inception_4c/output_0_split
I0403 14:40:49.584576 13525 net.cpp:425] inception_4c/output_inception_4c/output_0_split <- inception_4c/output
I0403 14:40:49.584594 13525 net.cpp:399] inception_4c/output_inception_4c/output_0_split -> inception_4c/output_inception_4c/output_0_split_0
I0403 14:40:49.584614 13525 net.cpp:399] inception_4c/output_inception_4c/output_0_split -> inception_4c/output_inception_4c/output_0_split_1
I0403 14:40:49.584635 13525 net.cpp:399] inception_4c/output_inception_4c/output_0_split -> inception_4c/output_inception_4c/output_0_split_2
I0403 14:40:49.584655 13525 net.cpp:399] inception_4c/output_inception_4c/output_0_split -> inception_4c/output_inception_4c/output_0_split_3
I0403 14:40:49.584743 13525 net.cpp:141] Setting up inception_4c/output_inception_4c/output_0_split
I0403 14:40:49.584766 13525 net.cpp:148] Top shape: 24 512 14 14 (2408448)
I0403 14:40:49.584782 13525 net.cpp:148] Top shape: 24 512 14 14 (2408448)
I0403 14:40:49.584797 13525 net.cpp:148] Top shape: 24 512 14 14 (2408448)
I0403 14:40:49.584813 13525 net.cpp:148] Top shape: 24 512 14 14 (2408448)
I0403 14:40:49.584826 13525 net.cpp:156] Memory required for data: 1111182624
I0403 14:40:49.584841 13525 layer_factory.hpp:77] Creating layer inception_4d/1x1
I0403 14:40:49.584863 13525 net.cpp:91] Creating Layer inception_4d/1x1
I0403 14:40:49.584882 13525 net.cpp:425] inception_4d/1x1 <- inception_4c/output_inception_4c/output_0_split_0
I0403 14:40:49.584903 13525 net.cpp:399] inception_4d/1x1 -> inception_4d/1x1
I0403 14:40:49.586339 13525 net.cpp:141] Setting up inception_4d/1x1
I0403 14:40:49.586367 13525 net.cpp:148] Top shape: 24 112 14 14 (526848)
I0403 14:40:49.586382 13525 net.cpp:156] Memory required for data: 1113290016
I0403 14:40:49.586400 13525 layer_factory.hpp:77] Creating layer inception_4d/relu_1x1
I0403 14:40:49.586418 13525 net.cpp:91] Creating Layer inception_4d/relu_1x1
I0403 14:40:49.586436 13525 net.cpp:425] inception_4d/relu_1x1 <- inception_4d/1x1
I0403 14:40:49.586454 13525 net.cpp:386] inception_4d/relu_1x1 -> inception_4d/1x1 (in-place)
I0403 14:40:49.586649 13525 net.cpp:141] Setting up inception_4d/relu_1x1
I0403 14:40:49.586674 13525 net.cpp:148] Top shape: 24 112 14 14 (526848)
I0403 14:40:49.586689 13525 net.cpp:156] Memory required for data: 1115397408
I0403 14:40:49.586704 13525 layer_factory.hpp:77] Creating layer inception_4d/3x3_reduce
I0403 14:40:49.586742 13525 net.cpp:91] Creating Layer inception_4d/3x3_reduce
I0403 14:40:49.586761 13525 net.cpp:425] inception_4d/3x3_reduce <- inception_4c/output_inception_4c/output_0_split_1
I0403 14:40:49.586782 13525 net.cpp:399] inception_4d/3x3_reduce -> inception_4d/3x3_reduce
I0403 14:40:49.588351 13525 net.cpp:141] Setting up inception_4d/3x3_reduce
I0403 14:40:49.588379 13525 net.cpp:148] Top shape: 24 144 14 14 (677376)
I0403 14:40:49.588397 13525 net.cpp:156] Memory required for data: 1118106912
I0403 14:40:49.588415 13525 layer_factory.hpp:77] Creating layer inception_4d/relu_3x3_reduce
I0403 14:40:49.588433 13525 net.cpp:91] Creating Layer inception_4d/relu_3x3_reduce
I0403 14:40:49.588449 13525 net.cpp:425] inception_4d/relu_3x3_reduce <- inception_4d/3x3_reduce
I0403 14:40:49.588469 13525 net.cpp:386] inception_4d/relu_3x3_reduce -> inception_4d/3x3_reduce (in-place)
I0403 14:40:49.588775 13525 net.cpp:141] Setting up inception_4d/relu_3x3_reduce
I0403 14:40:49.588804 13525 net.cpp:148] Top shape: 24 144 14 14 (677376)
I0403 14:40:49.588820 13525 net.cpp:156] Memory required for data: 1120816416
I0403 14:40:49.588835 13525 layer_factory.hpp:77] Creating layer inception_4d/3x3
I0403 14:40:49.588858 13525 net.cpp:91] Creating Layer inception_4d/3x3
I0403 14:40:49.588876 13525 net.cpp:425] inception_4d/3x3 <- inception_4d/3x3_reduce
I0403 14:40:49.588896 13525 net.cpp:399] inception_4d/3x3 -> inception_4d/3x3
I0403 14:40:49.593303 13525 net.cpp:141] Setting up inception_4d/3x3
I0403 14:40:49.593333 13525 net.cpp:148] Top shape: 24 288 14 14 (1354752)
I0403 14:40:49.593348 13525 net.cpp:156] Memory required for data: 1126235424
I0403 14:40:49.593366 13525 layer_factory.hpp:77] Creating layer inception_4d/relu_3x3
I0403 14:40:49.593386 13525 net.cpp:91] Creating Layer inception_4d/relu_3x3
I0403 14:40:49.593403 13525 net.cpp:425] inception_4d/relu_3x3 <- inception_4d/3x3
I0403 14:40:49.593420 13525 net.cpp:386] inception_4d/relu_3x3 -> inception_4d/3x3 (in-place)
I0403 14:40:49.593616 13525 net.cpp:141] Setting up inception_4d/relu_3x3
I0403 14:40:49.593641 13525 net.cpp:148] Top shape: 24 288 14 14 (1354752)
I0403 14:40:49.593655 13525 net.cpp:156] Memory required for data: 1131654432
I0403 14:40:49.593670 13525 layer_factory.hpp:77] Creating layer inception_4d/5x5_reduce
I0403 14:40:49.593693 13525 net.cpp:91] Creating Layer inception_4d/5x5_reduce
I0403 14:40:49.593711 13525 net.cpp:425] inception_4d/5x5_reduce <- inception_4c/output_inception_4c/output_0_split_2
I0403 14:40:49.593734 13525 net.cpp:399] inception_4d/5x5_reduce -> inception_4d/5x5_reduce
I0403 14:40:49.594933 13525 net.cpp:141] Setting up inception_4d/5x5_reduce
I0403 14:40:49.594961 13525 net.cpp:148] Top shape: 24 32 14 14 (150528)
I0403 14:40:49.594977 13525 net.cpp:156] Memory required for data: 1132256544
I0403 14:40:49.594995 13525 layer_factory.hpp:77] Creating layer inception_4d/relu_5x5_reduce
I0403 14:40:49.595013 13525 net.cpp:91] Creating Layer inception_4d/relu_5x5_reduce
I0403 14:40:49.595029 13525 net.cpp:425] inception_4d/relu_5x5_reduce <- inception_4d/5x5_reduce
I0403 14:40:49.595049 13525 net.cpp:386] inception_4d/relu_5x5_reduce -> inception_4d/5x5_reduce (in-place)
I0403 14:40:49.595244 13525 net.cpp:141] Setting up inception_4d/relu_5x5_reduce
I0403 14:40:49.595271 13525 net.cpp:148] Top shape: 24 32 14 14 (150528)
I0403 14:40:49.595286 13525 net.cpp:156] Memory required for data: 1132858656
I0403 14:40:49.595301 13525 layer_factory.hpp:77] Creating layer inception_4d/5x5
I0403 14:40:49.595324 13525 net.cpp:91] Creating Layer inception_4d/5x5
I0403 14:40:49.595342 13525 net.cpp:425] inception_4d/5x5 <- inception_4d/5x5_reduce
I0403 14:40:49.595363 13525 net.cpp:399] inception_4d/5x5 -> inception_4d/5x5
I0403 14:40:49.596922 13525 net.cpp:141] Setting up inception_4d/5x5
I0403 14:40:49.596951 13525 net.cpp:148] Top shape: 24 64 14 14 (301056)
I0403 14:40:49.596974 13525 net.cpp:156] Memory required for data: 1134062880
I0403 14:40:49.596994 13525 layer_factory.hpp:77] Creating layer inception_4d/relu_5x5
I0403 14:40:49.597029 13525 net.cpp:91] Creating Layer inception_4d/relu_5x5
I0403 14:40:49.597048 13525 net.cpp:425] inception_4d/relu_5x5 <- inception_4d/5x5
I0403 14:40:49.597065 13525 net.cpp:386] inception_4d/relu_5x5 -> inception_4d/5x5 (in-place)
I0403 14:40:49.597391 13525 net.cpp:141] Setting up inception_4d/relu_5x5
I0403 14:40:49.597417 13525 net.cpp:148] Top shape: 24 64 14 14 (301056)
I0403 14:40:49.597436 13525 net.cpp:156] Memory required for data: 1135267104
I0403 14:40:49.597451 13525 layer_factory.hpp:77] Creating layer inception_4d/pool
I0403 14:40:49.597470 13525 net.cpp:91] Creating Layer inception_4d/pool
I0403 14:40:49.597486 13525 net.cpp:425] inception_4d/pool <- inception_4c/output_inception_4c/output_0_split_3
I0403 14:40:49.597504 13525 net.cpp:399] inception_4d/pool -> inception_4d/pool
I0403 14:40:49.597579 13525 net.cpp:141] Setting up inception_4d/pool
I0403 14:40:49.597604 13525 net.cpp:148] Top shape: 24 512 14 14 (2408448)
I0403 14:40:49.597618 13525 net.cpp:156] Memory required for data: 1144900896
I0403 14:40:49.597633 13525 layer_factory.hpp:77] Creating layer inception_4d/pool_proj
I0403 14:40:49.597656 13525 net.cpp:91] Creating Layer inception_4d/pool_proj
I0403 14:40:49.597673 13525 net.cpp:425] inception_4d/pool_proj <- inception_4d/pool
I0403 14:40:49.597694 13525 net.cpp:399] inception_4d/pool_proj -> inception_4d/pool_proj
I0403 14:40:49.599520 13525 net.cpp:141] Setting up inception_4d/pool_proj
I0403 14:40:49.599553 13525 net.cpp:148] Top shape: 24 64 14 14 (301056)
I0403 14:40:49.599570 13525 net.cpp:156] Memory required for data: 1146105120
I0403 14:40:49.599587 13525 layer_factory.hpp:77] Creating layer inception_4d/relu_pool_proj
I0403 14:40:49.599607 13525 net.cpp:91] Creating Layer inception_4d/relu_pool_proj
I0403 14:40:49.599624 13525 net.cpp:425] inception_4d/relu_pool_proj <- inception_4d/pool_proj
I0403 14:40:49.599642 13525 net.cpp:386] inception_4d/relu_pool_proj -> inception_4d/pool_proj (in-place)
I0403 14:40:49.599828 13525 net.cpp:141] Setting up inception_4d/relu_pool_proj
I0403 14:40:49.599853 13525 net.cpp:148] Top shape: 24 64 14 14 (301056)
I0403 14:40:49.599866 13525 net.cpp:156] Memory required for data: 1147309344
I0403 14:40:49.599880 13525 layer_factory.hpp:77] Creating layer inception_4d/output
I0403 14:40:49.599900 13525 net.cpp:91] Creating Layer inception_4d/output
I0403 14:40:49.599916 13525 net.cpp:425] inception_4d/output <- inception_4d/1x1
I0403 14:40:49.599931 13525 net.cpp:425] inception_4d/output <- inception_4d/3x3
I0403 14:40:49.599947 13525 net.cpp:425] inception_4d/output <- inception_4d/5x5
I0403 14:40:49.599962 13525 net.cpp:425] inception_4d/output <- inception_4d/pool_proj
I0403 14:40:49.599978 13525 net.cpp:399] inception_4d/output -> inception_4d/output
I0403 14:40:49.600028 13525 net.cpp:141] Setting up inception_4d/output
I0403 14:40:49.600050 13525 net.cpp:148] Top shape: 24 528 14 14 (2483712)
I0403 14:40:49.600064 13525 net.cpp:156] Memory required for data: 1157244192
I0403 14:40:49.600078 13525 layer_factory.hpp:77] Creating layer inception_4d/output_inception_4d/output_0_split
I0403 14:40:49.600096 13525 net.cpp:91] Creating Layer inception_4d/output_inception_4d/output_0_split
I0403 14:40:49.600111 13525 net.cpp:425] inception_4d/output_inception_4d/output_0_split <- inception_4d/output
I0403 14:40:49.600131 13525 net.cpp:399] inception_4d/output_inception_4d/output_0_split -> inception_4d/output_inception_4d/output_0_split_0
I0403 14:40:49.600152 13525 net.cpp:399] inception_4d/output_inception_4d/output_0_split -> inception_4d/output_inception_4d/output_0_split_1
I0403 14:40:49.600172 13525 net.cpp:399] inception_4d/output_inception_4d/output_0_split -> inception_4d/output_inception_4d/output_0_split_2
I0403 14:40:49.600193 13525 net.cpp:399] inception_4d/output_inception_4d/output_0_split -> inception_4d/output_inception_4d/output_0_split_3
I0403 14:40:49.600211 13525 net.cpp:399] inception_4d/output_inception_4d/output_0_split -> inception_4d/output_inception_4d/output_0_split_4
I0403 14:40:49.600317 13525 net.cpp:141] Setting up inception_4d/output_inception_4d/output_0_split
I0403 14:40:49.600353 13525 net.cpp:148] Top shape: 24 528 14 14 (2483712)
I0403 14:40:49.600369 13525 net.cpp:148] Top shape: 24 528 14 14 (2483712)
I0403 14:40:49.600384 13525 net.cpp:148] Top shape: 24 528 14 14 (2483712)
I0403 14:40:49.600399 13525 net.cpp:148] Top shape: 24 528 14 14 (2483712)
I0403 14:40:49.600414 13525 net.cpp:148] Top shape: 24 528 14 14 (2483712)
I0403 14:40:49.600426 13525 net.cpp:156] Memory required for data: 1206918432
I0403 14:40:49.600440 13525 layer_factory.hpp:77] Creating layer loss2/ave_pool
I0403 14:40:49.600457 13525 net.cpp:91] Creating Layer loss2/ave_pool
I0403 14:40:49.600472 13525 net.cpp:425] loss2/ave_pool <- inception_4d/output_inception_4d/output_0_split_0
I0403 14:40:49.600492 13525 net.cpp:399] loss2/ave_pool -> loss2/ave_pool
I0403 14:40:49.600816 13525 net.cpp:141] Setting up loss2/ave_pool
I0403 14:40:49.600842 13525 net.cpp:148] Top shape: 24 528 4 4 (202752)
I0403 14:40:49.600857 13525 net.cpp:156] Memory required for data: 1207729440
I0403 14:40:49.600872 13525 layer_factory.hpp:77] Creating layer loss2/conv
I0403 14:40:49.600893 13525 net.cpp:91] Creating Layer loss2/conv
I0403 14:40:49.600911 13525 net.cpp:425] loss2/conv <- loss2/ave_pool
I0403 14:40:49.600931 13525 net.cpp:399] loss2/conv -> loss2/conv
I0403 14:40:49.602856 13525 net.cpp:141] Setting up loss2/conv
I0403 14:40:49.602885 13525 net.cpp:148] Top shape: 24 128 4 4 (49152)
I0403 14:40:49.602900 13525 net.cpp:156] Memory required for data: 1207926048
I0403 14:40:49.602918 13525 layer_factory.hpp:77] Creating layer loss2/relu_conv
I0403 14:40:49.602942 13525 net.cpp:91] Creating Layer loss2/relu_conv
I0403 14:40:49.602959 13525 net.cpp:425] loss2/relu_conv <- loss2/conv
I0403 14:40:49.602977 13525 net.cpp:386] loss2/relu_conv -> loss2/conv (in-place)
I0403 14:40:49.603267 13525 net.cpp:141] Setting up loss2/relu_conv
I0403 14:40:49.603293 13525 net.cpp:148] Top shape: 24 128 4 4 (49152)
I0403 14:40:49.603307 13525 net.cpp:156] Memory required for data: 1208122656
I0403 14:40:49.603322 13525 layer_factory.hpp:77] Creating layer loss2/fc
I0403 14:40:49.603343 13525 net.cpp:91] Creating Layer loss2/fc
I0403 14:40:49.603360 13525 net.cpp:425] loss2/fc <- loss2/conv
I0403 14:40:49.603380 13525 net.cpp:399] loss2/fc -> loss2/fc
I0403 14:40:49.621105 13525 net.cpp:141] Setting up loss2/fc
I0403 14:40:49.621152 13525 net.cpp:148] Top shape: 24 1024 (24576)
I0403 14:40:49.621168 13525 net.cpp:156] Memory required for data: 1208220960
I0403 14:40:49.621187 13525 layer_factory.hpp:77] Creating layer loss2/relu_fc
I0403 14:40:49.621206 13525 net.cpp:91] Creating Layer loss2/relu_fc
I0403 14:40:49.621222 13525 net.cpp:425] loss2/relu_fc <- loss2/fc
I0403 14:40:49.621243 13525 net.cpp:386] loss2/relu_fc -> loss2/fc (in-place)
I0403 14:40:49.621575 13525 net.cpp:141] Setting up loss2/relu_fc
I0403 14:40:49.621613 13525 net.cpp:148] Top shape: 24 1024 (24576)
I0403 14:40:49.621626 13525 net.cpp:156] Memory required for data: 1208319264
I0403 14:40:49.621640 13525 layer_factory.hpp:77] Creating layer loss2/drop_fc
I0403 14:40:49.621657 13525 net.cpp:91] Creating Layer loss2/drop_fc
I0403 14:40:49.621672 13525 net.cpp:425] loss2/drop_fc <- loss2/fc
I0403 14:40:49.621691 13525 net.cpp:386] loss2/drop_fc -> loss2/fc (in-place)
I0403 14:40:49.621742 13525 net.cpp:141] Setting up loss2/drop_fc
I0403 14:40:49.621764 13525 net.cpp:148] Top shape: 24 1024 (24576)
I0403 14:40:49.621778 13525 net.cpp:156] Memory required for data: 1208417568
I0403 14:40:49.621793 13525 layer_factory.hpp:77] Creating layer loss2/classifier_plantvillage
I0403 14:40:49.621810 13525 net.cpp:91] Creating Layer loss2/classifier_plantvillage
I0403 14:40:49.621825 13525 net.cpp:425] loss2/classifier_plantvillage <- loss2/fc
I0403 14:40:49.621846 13525 net.cpp:399] loss2/classifier_plantvillage -> loss2/classifier_plantvillage
I0403 14:40:49.622247 13525 net.cpp:141] Setting up loss2/classifier_plantvillage
I0403 14:40:49.622273 13525 net.cpp:148] Top shape: 24 38 (912)
I0403 14:40:49.622315 13525 net.cpp:156] Memory required for data: 1208421216
I0403 14:40:49.622334 13525 layer_factory.hpp:77] Creating layer loss2/classifier_plantvillage_loss2/classifier_plantvillage_0_split
I0403 14:40:49.622354 13525 net.cpp:91] Creating Layer loss2/classifier_plantvillage_loss2/classifier_plantvillage_0_split
I0403 14:40:49.622370 13525 net.cpp:425] loss2/classifier_plantvillage_loss2/classifier_plantvillage_0_split <- loss2/classifier_plantvillage
I0403 14:40:49.622386 13525 net.cpp:399] loss2/classifier_plantvillage_loss2/classifier_plantvillage_0_split -> loss2/classifier_plantvillage_loss2/classifier_plantvillage_0_split_0
I0403 14:40:49.622408 13525 net.cpp:399] loss2/classifier_plantvillage_loss2/classifier_plantvillage_0_split -> loss2/classifier_plantvillage_loss2/classifier_plantvillage_0_split_1
I0403 14:40:49.622428 13525 net.cpp:399] loss2/classifier_plantvillage_loss2/classifier_plantvillage_0_split -> loss2/classifier_plantvillage_loss2/classifier_plantvillage_0_split_2
I0403 14:40:49.622503 13525 net.cpp:141] Setting up loss2/classifier_plantvillage_loss2/classifier_plantvillage_0_split
I0403 14:40:49.622525 13525 net.cpp:148] Top shape: 24 38 (912)
I0403 14:40:49.622545 13525 net.cpp:148] Top shape: 24 38 (912)
I0403 14:40:49.622560 13525 net.cpp:148] Top shape: 24 38 (912)
I0403 14:40:49.622573 13525 net.cpp:156] Memory required for data: 1208432160
I0403 14:40:49.622587 13525 layer_factory.hpp:77] Creating layer inception_4e/1x1
I0403 14:40:49.622609 13525 net.cpp:91] Creating Layer inception_4e/1x1
I0403 14:40:49.622627 13525 net.cpp:425] inception_4e/1x1 <- inception_4d/output_inception_4d/output_0_split_1
I0403 14:40:49.622645 13525 net.cpp:399] inception_4e/1x1 -> inception_4e/1x1
I0403 14:40:49.624446 13525 net.cpp:141] Setting up inception_4e/1x1
I0403 14:40:49.624475 13525 net.cpp:148] Top shape: 24 256 14 14 (1204224)
I0403 14:40:49.624490 13525 net.cpp:156] Memory required for data: 1213249056
I0403 14:40:49.624508 13525 layer_factory.hpp:77] Creating layer inception_4e/relu_1x1
I0403 14:40:49.624524 13525 net.cpp:91] Creating Layer inception_4e/relu_1x1
I0403 14:40:49.624550 13525 net.cpp:425] inception_4e/relu_1x1 <- inception_4e/1x1
I0403 14:40:49.624570 13525 net.cpp:386] inception_4e/relu_1x1 -> inception_4e/1x1 (in-place)
I0403 14:40:49.624860 13525 net.cpp:141] Setting up inception_4e/relu_1x1
I0403 14:40:49.624887 13525 net.cpp:148] Top shape: 24 256 14 14 (1204224)
I0403 14:40:49.624902 13525 net.cpp:156] Memory required for data: 1218065952
I0403 14:40:49.624917 13525 layer_factory.hpp:77] Creating layer inception_4e/3x3_reduce
I0403 14:40:49.624938 13525 net.cpp:91] Creating Layer inception_4e/3x3_reduce
I0403 14:40:49.624954 13525 net.cpp:425] inception_4e/3x3_reduce <- inception_4d/output_inception_4d/output_0_split_2
I0403 14:40:49.624972 13525 net.cpp:399] inception_4e/3x3_reduce -> inception_4e/3x3_reduce
I0403 14:40:49.627068 13525 net.cpp:141] Setting up inception_4e/3x3_reduce
I0403 14:40:49.627095 13525 net.cpp:148] Top shape: 24 160 14 14 (752640)
I0403 14:40:49.627110 13525 net.cpp:156] Memory required for data: 1221076512
I0403 14:40:49.627127 13525 layer_factory.hpp:77] Creating layer inception_4e/relu_3x3_reduce
I0403 14:40:49.627147 13525 net.cpp:91] Creating Layer inception_4e/relu_3x3_reduce
I0403 14:40:49.627163 13525 net.cpp:425] inception_4e/relu_3x3_reduce <- inception_4e/3x3_reduce
I0403 14:40:49.627179 13525 net.cpp:386] inception_4e/relu_3x3_reduce -> inception_4e/3x3_reduce (in-place)
I0403 14:40:49.627362 13525 net.cpp:141] Setting up inception_4e/relu_3x3_reduce
I0403 14:40:49.627389 13525 net.cpp:148] Top shape: 24 160 14 14 (752640)
I0403 14:40:49.627403 13525 net.cpp:156] Memory required for data: 1224087072
I0403 14:40:49.627418 13525 layer_factory.hpp:77] Creating layer inception_4e/3x3
I0403 14:40:49.627439 13525 net.cpp:91] Creating Layer inception_4e/3x3
I0403 14:40:49.627455 13525 net.cpp:425] inception_4e/3x3 <- inception_4e/3x3_reduce
I0403 14:40:49.627473 13525 net.cpp:399] inception_4e/3x3 -> inception_4e/3x3
I0403 14:40:49.632479 13525 net.cpp:141] Setting up inception_4e/3x3
I0403 14:40:49.632520 13525 net.cpp:148] Top shape: 24 320 14 14 (1505280)
I0403 14:40:49.632540 13525 net.cpp:156] Memory required for data: 1230108192
I0403 14:40:49.632560 13525 layer_factory.hpp:77] Creating layer inception_4e/relu_3x3
I0403 14:40:49.632577 13525 net.cpp:91] Creating Layer inception_4e/relu_3x3
I0403 14:40:49.632592 13525 net.cpp:425] inception_4e/relu_3x3 <- inception_4e/3x3
I0403 14:40:49.632611 13525 net.cpp:386] inception_4e/relu_3x3 -> inception_4e/3x3 (in-place)
I0403 14:40:49.632912 13525 net.cpp:141] Setting up inception_4e/relu_3x3
I0403 14:40:49.632937 13525 net.cpp:148] Top shape: 24 320 14 14 (1505280)
I0403 14:40:49.632952 13525 net.cpp:156] Memory required for data: 1236129312
I0403 14:40:49.632966 13525 layer_factory.hpp:77] Creating layer inception_4e/5x5_reduce
I0403 14:40:49.632989 13525 net.cpp:91] Creating Layer inception_4e/5x5_reduce
I0403 14:40:49.633007 13525 net.cpp:425] inception_4e/5x5_reduce <- inception_4d/output_inception_4d/output_0_split_3
I0403 14:40:49.633028 13525 net.cpp:399] inception_4e/5x5_reduce -> inception_4e/5x5_reduce
I0403 14:40:49.634116 13525 net.cpp:141] Setting up inception_4e/5x5_reduce
I0403 14:40:49.634145 13525 net.cpp:148] Top shape: 24 32 14 14 (150528)
I0403 14:40:49.634162 13525 net.cpp:156] Memory required for data: 1236731424
I0403 14:40:49.634181 13525 layer_factory.hpp:77] Creating layer inception_4e/relu_5x5_reduce
I0403 14:40:49.634198 13525 net.cpp:91] Creating Layer inception_4e/relu_5x5_reduce
I0403 14:40:49.634213 13525 net.cpp:425] inception_4e/relu_5x5_reduce <- inception_4e/5x5_reduce
I0403 14:40:49.634230 13525 net.cpp:386] inception_4e/relu_5x5_reduce -> inception_4e/5x5_reduce (in-place)
I0403 14:40:49.634531 13525 net.cpp:141] Setting up inception_4e/relu_5x5_reduce
I0403 14:40:49.634567 13525 net.cpp:148] Top shape: 24 32 14 14 (150528)
I0403 14:40:49.634587 13525 net.cpp:156] Memory required for data: 1237333536
I0403 14:40:49.634601 13525 layer_factory.hpp:77] Creating layer inception_4e/5x5
I0403 14:40:49.634639 13525 net.cpp:91] Creating Layer inception_4e/5x5
I0403 14:40:49.634660 13525 net.cpp:425] inception_4e/5x5 <- inception_4e/5x5_reduce
I0403 14:40:49.634680 13525 net.cpp:399] inception_4e/5x5 -> inception_4e/5x5
I0403 14:40:49.636528 13525 net.cpp:141] Setting up inception_4e/5x5
I0403 14:40:49.636559 13525 net.cpp:148] Top shape: 24 128 14 14 (602112)
I0403 14:40:49.636575 13525 net.cpp:156] Memory required for data: 1239741984
I0403 14:40:49.636593 13525 layer_factory.hpp:77] Creating layer inception_4e/relu_5x5
I0403 14:40:49.636613 13525 net.cpp:91] Creating Layer inception_4e/relu_5x5
I0403 14:40:49.636631 13525 net.cpp:425] inception_4e/relu_5x5 <- inception_4e/5x5
I0403 14:40:49.636647 13525 net.cpp:386] inception_4e/relu_5x5 -> inception_4e/5x5 (in-place)
I0403 14:40:49.636849 13525 net.cpp:141] Setting up inception_4e/relu_5x5
I0403 14:40:49.636874 13525 net.cpp:148] Top shape: 24 128 14 14 (602112)
I0403 14:40:49.636888 13525 net.cpp:156] Memory required for data: 1242150432
I0403 14:40:49.636903 13525 layer_factory.hpp:77] Creating layer inception_4e/pool
I0403 14:40:49.636924 13525 net.cpp:91] Creating Layer inception_4e/pool
I0403 14:40:49.636940 13525 net.cpp:425] inception_4e/pool <- inception_4d/output_inception_4d/output_0_split_4
I0403 14:40:49.636957 13525 net.cpp:399] inception_4e/pool -> inception_4e/pool
I0403 14:40:49.637029 13525 net.cpp:141] Setting up inception_4e/pool
I0403 14:40:49.637053 13525 net.cpp:148] Top shape: 24 528 14 14 (2483712)
I0403 14:40:49.637068 13525 net.cpp:156] Memory required for data: 1252085280
I0403 14:40:49.637081 13525 layer_factory.hpp:77] Creating layer inception_4e/pool_proj
I0403 14:40:49.637104 13525 net.cpp:91] Creating Layer inception_4e/pool_proj
I0403 14:40:49.637120 13525 net.cpp:425] inception_4e/pool_proj <- inception_4e/pool
I0403 14:40:49.637140 13525 net.cpp:399] inception_4e/pool_proj -> inception_4e/pool_proj
I0403 14:40:49.638662 13525 net.cpp:141] Setting up inception_4e/pool_proj
I0403 14:40:49.638701 13525 net.cpp:148] Top shape: 24 128 14 14 (602112)
I0403 14:40:49.638717 13525 net.cpp:156] Memory required for data: 1254493728
I0403 14:40:49.638736 13525 layer_factory.hpp:77] Creating layer inception_4e/relu_pool_proj
I0403 14:40:49.638756 13525 net.cpp:91] Creating Layer inception_4e/relu_pool_proj
I0403 14:40:49.638773 13525 net.cpp:425] inception_4e/relu_pool_proj <- inception_4e/pool_proj
I0403 14:40:49.638790 13525 net.cpp:386] inception_4e/relu_pool_proj -> inception_4e/pool_proj (in-place)
I0403 14:40:49.639082 13525 net.cpp:141] Setting up inception_4e/relu_pool_proj
I0403 14:40:49.639108 13525 net.cpp:148] Top shape: 24 128 14 14 (602112)
I0403 14:40:49.639122 13525 net.cpp:156] Memory required for data: 1256902176
I0403 14:40:49.639137 13525 layer_factory.hpp:77] Creating layer inception_4e/output
I0403 14:40:49.639154 13525 net.cpp:91] Creating Layer inception_4e/output
I0403 14:40:49.639170 13525 net.cpp:425] inception_4e/output <- inception_4e/1x1
I0403 14:40:49.639186 13525 net.cpp:425] inception_4e/output <- inception_4e/3x3
I0403 14:40:49.639202 13525 net.cpp:425] inception_4e/output <- inception_4e/5x5
I0403 14:40:49.639217 13525 net.cpp:425] inception_4e/output <- inception_4e/pool_proj
I0403 14:40:49.639236 13525 net.cpp:399] inception_4e/output -> inception_4e/output
I0403 14:40:49.639286 13525 net.cpp:141] Setting up inception_4e/output
I0403 14:40:49.639312 13525 net.cpp:148] Top shape: 24 832 14 14 (3913728)
I0403 14:40:49.639328 13525 net.cpp:156] Memory required for data: 1272557088
I0403 14:40:49.639341 13525 layer_factory.hpp:77] Creating layer pool4/3x3_s2
I0403 14:40:49.639358 13525 net.cpp:91] Creating Layer pool4/3x3_s2
I0403 14:40:49.639374 13525 net.cpp:425] pool4/3x3_s2 <- inception_4e/output
I0403 14:40:49.639395 13525 net.cpp:399] pool4/3x3_s2 -> pool4/3x3_s2
I0403 14:40:49.639461 13525 net.cpp:141] Setting up pool4/3x3_s2
I0403 14:40:49.639485 13525 net.cpp:148] Top shape: 24 832 7 7 (978432)
I0403 14:40:49.639499 13525 net.cpp:156] Memory required for data: 1276470816
I0403 14:40:49.639513 13525 layer_factory.hpp:77] Creating layer pool4/3x3_s2_pool4/3x3_s2_0_split
I0403 14:40:49.639533 13525 net.cpp:91] Creating Layer pool4/3x3_s2_pool4/3x3_s2_0_split
I0403 14:40:49.639554 13525 net.cpp:425] pool4/3x3_s2_pool4/3x3_s2_0_split <- pool4/3x3_s2
I0403 14:40:49.639571 13525 net.cpp:399] pool4/3x3_s2_pool4/3x3_s2_0_split -> pool4/3x3_s2_pool4/3x3_s2_0_split_0
I0403 14:40:49.639590 13525 net.cpp:399] pool4/3x3_s2_pool4/3x3_s2_0_split -> pool4/3x3_s2_pool4/3x3_s2_0_split_1
I0403 14:40:49.639611 13525 net.cpp:399] pool4/3x3_s2_pool4/3x3_s2_0_split -> pool4/3x3_s2_pool4/3x3_s2_0_split_2
I0403 14:40:49.639632 13525 net.cpp:399] pool4/3x3_s2_pool4/3x3_s2_0_split -> pool4/3x3_s2_pool4/3x3_s2_0_split_3
I0403 14:40:49.639725 13525 net.cpp:141] Setting up pool4/3x3_s2_pool4/3x3_s2_0_split
I0403 14:40:49.639749 13525 net.cpp:148] Top shape: 24 832 7 7 (978432)
I0403 14:40:49.639763 13525 net.cpp:148] Top shape: 24 832 7 7 (978432)
I0403 14:40:49.639778 13525 net.cpp:148] Top shape: 24 832 7 7 (978432)
I0403 14:40:49.639793 13525 net.cpp:148] Top shape: 24 832 7 7 (978432)
I0403 14:40:49.639806 13525 net.cpp:156] Memory required for data: 1292125728
I0403 14:40:49.639819 13525 layer_factory.hpp:77] Creating layer inception_5a/1x1
I0403 14:40:49.639842 13525 net.cpp:91] Creating Layer inception_5a/1x1
I0403 14:40:49.639859 13525 net.cpp:425] inception_5a/1x1 <- pool4/3x3_s2_pool4/3x3_s2_0_split_0
I0403 14:40:49.639884 13525 net.cpp:399] inception_5a/1x1 -> inception_5a/1x1
I0403 14:40:49.642761 13525 net.cpp:141] Setting up inception_5a/1x1
I0403 14:40:49.642789 13525 net.cpp:148] Top shape: 24 256 7 7 (301056)
I0403 14:40:49.642805 13525 net.cpp:156] Memory required for data: 1293329952
I0403 14:40:49.642823 13525 layer_factory.hpp:77] Creating layer inception_5a/relu_1x1
I0403 14:40:49.642843 13525 net.cpp:91] Creating Layer inception_5a/relu_1x1
I0403 14:40:49.642860 13525 net.cpp:425] inception_5a/relu_1x1 <- inception_5a/1x1
I0403 14:40:49.642877 13525 net.cpp:386] inception_5a/relu_1x1 -> inception_5a/1x1 (in-place)
I0403 14:40:49.643190 13525 net.cpp:141] Setting up inception_5a/relu_1x1
I0403 14:40:49.643216 13525 net.cpp:148] Top shape: 24 256 7 7 (301056)
I0403 14:40:49.643230 13525 net.cpp:156] Memory required for data: 1294534176
I0403 14:40:49.643245 13525 layer_factory.hpp:77] Creating layer inception_5a/3x3_reduce
I0403 14:40:49.643270 13525 net.cpp:91] Creating Layer inception_5a/3x3_reduce
I0403 14:40:49.643287 13525 net.cpp:425] inception_5a/3x3_reduce <- pool4/3x3_s2_pool4/3x3_s2_0_split_1
I0403 14:40:49.643309 13525 net.cpp:399] inception_5a/3x3_reduce -> inception_5a/3x3_reduce
I0403 14:40:49.645804 13525 net.cpp:141] Setting up inception_5a/3x3_reduce
I0403 14:40:49.645833 13525 net.cpp:148] Top shape: 24 160 7 7 (188160)
I0403 14:40:49.645849 13525 net.cpp:156] Memory required for data: 1295286816
I0403 14:40:49.645867 13525 layer_factory.hpp:77] Creating layer inception_5a/relu_3x3_reduce
I0403 14:40:49.645884 13525 net.cpp:91] Creating Layer inception_5a/relu_3x3_reduce
I0403 14:40:49.645900 13525 net.cpp:425] inception_5a/relu_3x3_reduce <- inception_5a/3x3_reduce
I0403 14:40:49.645920 13525 net.cpp:386] inception_5a/relu_3x3_reduce -> inception_5a/3x3_reduce (in-place)
I0403 14:40:49.646106 13525 net.cpp:141] Setting up inception_5a/relu_3x3_reduce
I0403 14:40:49.646131 13525 net.cpp:148] Top shape: 24 160 7 7 (188160)
I0403 14:40:49.646145 13525 net.cpp:156] Memory required for data: 1296039456
I0403 14:40:49.646159 13525 layer_factory.hpp:77] Creating layer inception_5a/3x3
I0403 14:40:49.646181 13525 net.cpp:91] Creating Layer inception_5a/3x3
I0403 14:40:49.646199 13525 net.cpp:425] inception_5a/3x3 <- inception_5a/3x3_reduce
I0403 14:40:49.646220 13525 net.cpp:399] inception_5a/3x3 -> inception_5a/3x3
I0403 14:40:49.651311 13525 net.cpp:141] Setting up inception_5a/3x3
I0403 14:40:49.651343 13525 net.cpp:148] Top shape: 24 320 7 7 (376320)
I0403 14:40:49.651358 13525 net.cpp:156] Memory required for data: 1297544736
I0403 14:40:49.651376 13525 layer_factory.hpp:77] Creating layer inception_5a/relu_3x3
I0403 14:40:49.651396 13525 net.cpp:91] Creating Layer inception_5a/relu_3x3
I0403 14:40:49.651412 13525 net.cpp:425] inception_5a/relu_3x3 <- inception_5a/3x3
I0403 14:40:49.651428 13525 net.cpp:386] inception_5a/relu_3x3 -> inception_5a/3x3 (in-place)
I0403 14:40:49.651728 13525 net.cpp:141] Setting up inception_5a/relu_3x3
I0403 14:40:49.651753 13525 net.cpp:148] Top shape: 24 320 7 7 (376320)
I0403 14:40:49.651768 13525 net.cpp:156] Memory required for data: 1299050016
I0403 14:40:49.651782 13525 layer_factory.hpp:77] Creating layer inception_5a/5x5_reduce
I0403 14:40:49.651804 13525 net.cpp:91] Creating Layer inception_5a/5x5_reduce
I0403 14:40:49.651821 13525 net.cpp:425] inception_5a/5x5_reduce <- pool4/3x3_s2_pool4/3x3_s2_0_split_2
I0403 14:40:49.651842 13525 net.cpp:399] inception_5a/5x5_reduce -> inception_5a/5x5_reduce
I0403 14:40:49.652993 13525 net.cpp:141] Setting up inception_5a/5x5_reduce
I0403 14:40:49.653020 13525 net.cpp:148] Top shape: 24 32 7 7 (37632)
I0403 14:40:49.653035 13525 net.cpp:156] Memory required for data: 1299200544
I0403 14:40:49.653053 13525 layer_factory.hpp:77] Creating layer inception_5a/relu_5x5_reduce
I0403 14:40:49.653072 13525 net.cpp:91] Creating Layer inception_5a/relu_5x5_reduce
I0403 14:40:49.653090 13525 net.cpp:425] inception_5a/relu_5x5_reduce <- inception_5a/5x5_reduce
I0403 14:40:49.653105 13525 net.cpp:386] inception_5a/relu_5x5_reduce -> inception_5a/5x5_reduce (in-place)
I0403 14:40:49.653399 13525 net.cpp:141] Setting up inception_5a/relu_5x5_reduce
I0403 14:40:49.653424 13525 net.cpp:148] Top shape: 24 32 7 7 (37632)
I0403 14:40:49.653439 13525 net.cpp:156] Memory required for data: 1299351072
I0403 14:40:49.653453 13525 layer_factory.hpp:77] Creating layer inception_5a/5x5
I0403 14:40:49.653476 13525 net.cpp:91] Creating Layer inception_5a/5x5
I0403 14:40:49.653494 13525 net.cpp:425] inception_5a/5x5 <- inception_5a/5x5_reduce
I0403 14:40:49.653512 13525 net.cpp:399] inception_5a/5x5 -> inception_5a/5x5
I0403 14:40:49.655207 13525 net.cpp:141] Setting up inception_5a/5x5
I0403 14:40:49.655246 13525 net.cpp:148] Top shape: 24 128 7 7 (150528)
I0403 14:40:49.655264 13525 net.cpp:156] Memory required for data: 1299953184
I0403 14:40:49.655282 13525 layer_factory.hpp:77] Creating layer inception_5a/relu_5x5
I0403 14:40:49.655302 13525 net.cpp:91] Creating Layer inception_5a/relu_5x5
I0403 14:40:49.655319 13525 net.cpp:425] inception_5a/relu_5x5 <- inception_5a/5x5
I0403 14:40:49.655335 13525 net.cpp:386] inception_5a/relu_5x5 -> inception_5a/5x5 (in-place)
I0403 14:40:49.655526 13525 net.cpp:141] Setting up inception_5a/relu_5x5
I0403 14:40:49.655553 13525 net.cpp:148] Top shape: 24 128 7 7 (150528)
I0403 14:40:49.655568 13525 net.cpp:156] Memory required for data: 1300555296
I0403 14:40:49.655582 13525 layer_factory.hpp:77] Creating layer inception_5a/pool
I0403 14:40:49.655601 13525 net.cpp:91] Creating Layer inception_5a/pool
I0403 14:40:49.655629 13525 net.cpp:425] inception_5a/pool <- pool4/3x3_s2_pool4/3x3_s2_0_split_3
I0403 14:40:49.655650 13525 net.cpp:399] inception_5a/pool -> inception_5a/pool
I0403 14:40:49.655719 13525 net.cpp:141] Setting up inception_5a/pool
I0403 14:40:49.655743 13525 net.cpp:148] Top shape: 24 832 7 7 (978432)
I0403 14:40:49.655757 13525 net.cpp:156] Memory required for data: 1304469024
I0403 14:40:49.655771 13525 layer_factory.hpp:77] Creating layer inception_5a/pool_proj
I0403 14:40:49.655793 13525 net.cpp:91] Creating Layer inception_5a/pool_proj
I0403 14:40:49.655810 13525 net.cpp:425] inception_5a/pool_proj <- inception_5a/pool
I0403 14:40:49.655832 13525 net.cpp:399] inception_5a/pool_proj -> inception_5a/pool_proj
I0403 14:40:49.658088 13525 net.cpp:141] Setting up inception_5a/pool_proj
I0403 14:40:49.658118 13525 net.cpp:148] Top shape: 24 128 7 7 (150528)
I0403 14:40:49.658133 13525 net.cpp:156] Memory required for data: 1305071136
I0403 14:40:49.658149 13525 layer_factory.hpp:77] Creating layer inception_5a/relu_pool_proj
I0403 14:40:49.658166 13525 net.cpp:91] Creating Layer inception_5a/relu_pool_proj
I0403 14:40:49.658181 13525 net.cpp:425] inception_5a/relu_pool_proj <- inception_5a/pool_proj
I0403 14:40:49.658200 13525 net.cpp:386] inception_5a/relu_pool_proj -> inception_5a/pool_proj (in-place)
I0403 14:40:49.658488 13525 net.cpp:141] Setting up inception_5a/relu_pool_proj
I0403 14:40:49.658514 13525 net.cpp:148] Top shape: 24 128 7 7 (150528)
I0403 14:40:49.658527 13525 net.cpp:156] Memory required for data: 1305673248
I0403 14:40:49.658546 13525 layer_factory.hpp:77] Creating layer inception_5a/output
I0403 14:40:49.658565 13525 net.cpp:91] Creating Layer inception_5a/output
I0403 14:40:49.658578 13525 net.cpp:425] inception_5a/output <- inception_5a/1x1
I0403 14:40:49.658594 13525 net.cpp:425] inception_5a/output <- inception_5a/3x3
I0403 14:40:49.658609 13525 net.cpp:425] inception_5a/output <- inception_5a/5x5
I0403 14:40:49.658625 13525 net.cpp:425] inception_5a/output <- inception_5a/pool_proj
I0403 14:40:49.658648 13525 net.cpp:399] inception_5a/output -> inception_5a/output
I0403 14:40:49.658695 13525 net.cpp:141] Setting up inception_5a/output
I0403 14:40:49.658721 13525 net.cpp:148] Top shape: 24 832 7 7 (978432)
I0403 14:40:49.658735 13525 net.cpp:156] Memory required for data: 1309586976
I0403 14:40:49.658749 13525 layer_factory.hpp:77] Creating layer inception_5a/output_inception_5a/output_0_split
I0403 14:40:49.658766 13525 net.cpp:91] Creating Layer inception_5a/output_inception_5a/output_0_split
I0403 14:40:49.658781 13525 net.cpp:425] inception_5a/output_inception_5a/output_0_split <- inception_5a/output
I0403 14:40:49.658795 13525 net.cpp:399] inception_5a/output_inception_5a/output_0_split -> inception_5a/output_inception_5a/output_0_split_0
I0403 14:40:49.658818 13525 net.cpp:399] inception_5a/output_inception_5a/output_0_split -> inception_5a/output_inception_5a/output_0_split_1
I0403 14:40:49.658838 13525 net.cpp:399] inception_5a/output_inception_5a/output_0_split -> inception_5a/output_inception_5a/output_0_split_2
I0403 14:40:49.658857 13525 net.cpp:399] inception_5a/output_inception_5a/output_0_split -> inception_5a/output_inception_5a/output_0_split_3
I0403 14:40:49.658967 13525 net.cpp:141] Setting up inception_5a/output_inception_5a/output_0_split
I0403 14:40:49.658990 13525 net.cpp:148] Top shape: 24 832 7 7 (978432)
I0403 14:40:49.659005 13525 net.cpp:148] Top shape: 24 832 7 7 (978432)
I0403 14:40:49.659019 13525 net.cpp:148] Top shape: 24 832 7 7 (978432)
I0403 14:40:49.659034 13525 net.cpp:148] Top shape: 24 832 7 7 (978432)
I0403 14:40:49.659046 13525 net.cpp:156] Memory required for data: 1325241888
I0403 14:40:49.659060 13525 layer_factory.hpp:77] Creating layer inception_5b/1x1
I0403 14:40:49.659082 13525 net.cpp:91] Creating Layer inception_5b/1x1
I0403 14:40:49.659099 13525 net.cpp:425] inception_5b/1x1 <- inception_5a/output_inception_5a/output_0_split_0
I0403 14:40:49.659118 13525 net.cpp:399] inception_5b/1x1 -> inception_5b/1x1
I0403 14:40:49.662837 13525 net.cpp:141] Setting up inception_5b/1x1
I0403 14:40:49.662866 13525 net.cpp:148] Top shape: 24 384 7 7 (451584)
I0403 14:40:49.662881 13525 net.cpp:156] Memory required for data: 1327048224
I0403 14:40:49.662899 13525 layer_factory.hpp:77] Creating layer inception_5b/relu_1x1
I0403 14:40:49.662915 13525 net.cpp:91] Creating Layer inception_5b/relu_1x1
I0403 14:40:49.662930 13525 net.cpp:425] inception_5b/relu_1x1 <- inception_5b/1x1
I0403 14:40:49.662950 13525 net.cpp:386] inception_5b/relu_1x1 -> inception_5b/1x1 (in-place)
I0403 14:40:49.663252 13525 net.cpp:141] Setting up inception_5b/relu_1x1
I0403 14:40:49.663277 13525 net.cpp:148] Top shape: 24 384 7 7 (451584)
I0403 14:40:49.663291 13525 net.cpp:156] Memory required for data: 1328854560
I0403 14:40:49.663305 13525 layer_factory.hpp:77] Creating layer inception_5b/3x3_reduce
I0403 14:40:49.663327 13525 net.cpp:91] Creating Layer inception_5b/3x3_reduce
I0403 14:40:49.663344 13525 net.cpp:425] inception_5b/3x3_reduce <- inception_5a/output_inception_5a/output_0_split_1
I0403 14:40:49.663367 13525 net.cpp:399] inception_5b/3x3_reduce -> inception_5b/3x3_reduce
I0403 14:40:49.665993 13525 net.cpp:141] Setting up inception_5b/3x3_reduce
I0403 14:40:49.666021 13525 net.cpp:148] Top shape: 24 192 7 7 (225792)
I0403 14:40:49.666038 13525 net.cpp:156] Memory required for data: 1329757728
I0403 14:40:49.666054 13525 layer_factory.hpp:77] Creating layer inception_5b/relu_3x3_reduce
I0403 14:40:49.666071 13525 net.cpp:91] Creating Layer inception_5b/relu_3x3_reduce
I0403 14:40:49.666087 13525 net.cpp:425] inception_5b/relu_3x3_reduce <- inception_5b/3x3_reduce
I0403 14:40:49.666105 13525 net.cpp:386] inception_5b/relu_3x3_reduce -> inception_5b/3x3_reduce (in-place)
I0403 14:40:49.666292 13525 net.cpp:141] Setting up inception_5b/relu_3x3_reduce
I0403 14:40:49.666316 13525 net.cpp:148] Top shape: 24 192 7 7 (225792)
I0403 14:40:49.666331 13525 net.cpp:156] Memory required for data: 1330660896
I0403 14:40:49.666344 13525 layer_factory.hpp:77] Creating layer inception_5b/3x3
I0403 14:40:49.666368 13525 net.cpp:91] Creating Layer inception_5b/3x3
I0403 14:40:49.666388 13525 net.cpp:425] inception_5b/3x3 <- inception_5b/3x3_reduce
I0403 14:40:49.666409 13525 net.cpp:399] inception_5b/3x3 -> inception_5b/3x3
I0403 14:40:49.673152 13525 net.cpp:141] Setting up inception_5b/3x3
I0403 14:40:49.673180 13525 net.cpp:148] Top shape: 24 384 7 7 (451584)
I0403 14:40:49.673195 13525 net.cpp:156] Memory required for data: 1332467232
I0403 14:40:49.673213 13525 layer_factory.hpp:77] Creating layer inception_5b/relu_3x3
I0403 14:40:49.673233 13525 net.cpp:91] Creating Layer inception_5b/relu_3x3
I0403 14:40:49.673249 13525 net.cpp:425] inception_5b/relu_3x3 <- inception_5b/3x3
I0403 14:40:49.673269 13525 net.cpp:386] inception_5b/relu_3x3 -> inception_5b/3x3 (in-place)
I0403 14:40:49.673575 13525 net.cpp:141] Setting up inception_5b/relu_3x3
I0403 14:40:49.673601 13525 net.cpp:148] Top shape: 24 384 7 7 (451584)
I0403 14:40:49.673616 13525 net.cpp:156] Memory required for data: 1334273568
I0403 14:40:49.673631 13525 layer_factory.hpp:77] Creating layer inception_5b/5x5_reduce
I0403 14:40:49.673669 13525 net.cpp:91] Creating Layer inception_5b/5x5_reduce
I0403 14:40:49.673688 13525 net.cpp:425] inception_5b/5x5_reduce <- inception_5a/output_inception_5a/output_0_split_2
I0403 14:40:49.673712 13525 net.cpp:399] inception_5b/5x5_reduce -> inception_5b/5x5_reduce
I0403 14:40:49.675001 13525 net.cpp:141] Setting up inception_5b/5x5_reduce
I0403 14:40:49.675029 13525 net.cpp:148] Top shape: 24 48 7 7 (56448)
I0403 14:40:49.675045 13525 net.cpp:156] Memory required for data: 1334499360
I0403 14:40:49.675062 13525 layer_factory.hpp:77] Creating layer inception_5b/relu_5x5_reduce
I0403 14:40:49.675086 13525 net.cpp:91] Creating Layer inception_5b/relu_5x5_reduce
I0403 14:40:49.675102 13525 net.cpp:425] inception_5b/relu_5x5_reduce <- inception_5b/5x5_reduce
I0403 14:40:49.675119 13525 net.cpp:386] inception_5b/relu_5x5_reduce -> inception_5b/5x5_reduce (in-place)
I0403 14:40:49.675495 13525 net.cpp:141] Setting up inception_5b/relu_5x5_reduce
I0403 14:40:49.675521 13525 net.cpp:148] Top shape: 24 48 7 7 (56448)
I0403 14:40:49.675540 13525 net.cpp:156] Memory required for data: 1334725152
I0403 14:40:49.675557 13525 layer_factory.hpp:77] Creating layer inception_5b/5x5
I0403 14:40:49.675577 13525 net.cpp:91] Creating Layer inception_5b/5x5
I0403 14:40:49.675595 13525 net.cpp:425] inception_5b/5x5 <- inception_5b/5x5_reduce
I0403 14:40:49.675613 13525 net.cpp:399] inception_5b/5x5 -> inception_5b/5x5
I0403 14:40:49.677729 13525 net.cpp:141] Setting up inception_5b/5x5
I0403 14:40:49.677757 13525 net.cpp:148] Top shape: 24 128 7 7 (150528)
I0403 14:40:49.677772 13525 net.cpp:156] Memory required for data: 1335327264
I0403 14:40:49.677790 13525 layer_factory.hpp:77] Creating layer inception_5b/relu_5x5
I0403 14:40:49.677811 13525 net.cpp:91] Creating Layer inception_5b/relu_5x5
I0403 14:40:49.677829 13525 net.cpp:425] inception_5b/relu_5x5 <- inception_5b/5x5
I0403 14:40:49.677846 13525 net.cpp:386] inception_5b/relu_5x5 -> inception_5b/5x5 (in-place)
I0403 14:40:49.678045 13525 net.cpp:141] Setting up inception_5b/relu_5x5
I0403 14:40:49.678071 13525 net.cpp:148] Top shape: 24 128 7 7 (150528)
I0403 14:40:49.678087 13525 net.cpp:156] Memory required for data: 1335929376
I0403 14:40:49.678102 13525 layer_factory.hpp:77] Creating layer inception_5b/pool
I0403 14:40:49.678118 13525 net.cpp:91] Creating Layer inception_5b/pool
I0403 14:40:49.678134 13525 net.cpp:425] inception_5b/pool <- inception_5a/output_inception_5a/output_0_split_3
I0403 14:40:49.678151 13525 net.cpp:399] inception_5b/pool -> inception_5b/pool
I0403 14:40:49.678225 13525 net.cpp:141] Setting up inception_5b/pool
I0403 14:40:49.678249 13525 net.cpp:148] Top shape: 24 832 7 7 (978432)
I0403 14:40:49.678266 13525 net.cpp:156] Memory required for data: 1339843104
I0403 14:40:49.678278 13525 layer_factory.hpp:77] Creating layer inception_5b/pool_proj
I0403 14:40:49.678300 13525 net.cpp:91] Creating Layer inception_5b/pool_proj
I0403 14:40:49.678318 13525 net.cpp:425] inception_5b/pool_proj <- inception_5b/pool
I0403 14:40:49.678339 13525 net.cpp:399] inception_5b/pool_proj -> inception_5b/pool_proj
I0403 14:40:49.680680 13525 net.cpp:141] Setting up inception_5b/pool_proj
I0403 14:40:49.680708 13525 net.cpp:148] Top shape: 24 128 7 7 (150528)
I0403 14:40:49.680723 13525 net.cpp:156] Memory required for data: 1340445216
I0403 14:40:49.680742 13525 layer_factory.hpp:77] Creating layer inception_5b/relu_pool_proj
I0403 14:40:49.680763 13525 net.cpp:91] Creating Layer inception_5b/relu_pool_proj
I0403 14:40:49.680779 13525 net.cpp:425] inception_5b/relu_pool_proj <- inception_5b/pool_proj
I0403 14:40:49.680797 13525 net.cpp:386] inception_5b/relu_pool_proj -> inception_5b/pool_proj (in-place)
I0403 14:40:49.681095 13525 net.cpp:141] Setting up inception_5b/relu_pool_proj
I0403 14:40:49.681121 13525 net.cpp:148] Top shape: 24 128 7 7 (150528)
I0403 14:40:49.681136 13525 net.cpp:156] Memory required for data: 1341047328
I0403 14:40:49.681150 13525 layer_factory.hpp:77] Creating layer inception_5b/output
I0403 14:40:49.681167 13525 net.cpp:91] Creating Layer inception_5b/output
I0403 14:40:49.681197 13525 net.cpp:425] inception_5b/output <- inception_5b/1x1
I0403 14:40:49.681221 13525 net.cpp:425] inception_5b/output <- inception_5b/3x3
I0403 14:40:49.681237 13525 net.cpp:425] inception_5b/output <- inception_5b/5x5
I0403 14:40:49.681252 13525 net.cpp:425] inception_5b/output <- inception_5b/pool_proj
I0403 14:40:49.681272 13525 net.cpp:399] inception_5b/output -> inception_5b/output
I0403 14:40:49.681323 13525 net.cpp:141] Setting up inception_5b/output
I0403 14:40:49.681347 13525 net.cpp:148] Top shape: 24 1024 7 7 (1204224)
I0403 14:40:49.681362 13525 net.cpp:156] Memory required for data: 1345864224
I0403 14:40:49.681377 13525 layer_factory.hpp:77] Creating layer pool5/7x7_s1
I0403 14:40:49.681396 13525 net.cpp:91] Creating Layer pool5/7x7_s1
I0403 14:40:49.681411 13525 net.cpp:425] pool5/7x7_s1 <- inception_5b/output
I0403 14:40:49.681430 13525 net.cpp:399] pool5/7x7_s1 -> pool5/7x7_s1
I0403 14:40:49.681653 13525 net.cpp:141] Setting up pool5/7x7_s1
I0403 14:40:49.681679 13525 net.cpp:148] Top shape: 24 1024 1 1 (24576)
I0403 14:40:49.681692 13525 net.cpp:156] Memory required for data: 1345962528
I0403 14:40:49.681707 13525 layer_factory.hpp:77] Creating layer pool5/drop_7x7_s1
I0403 14:40:49.681726 13525 net.cpp:91] Creating Layer pool5/drop_7x7_s1
I0403 14:40:49.681743 13525 net.cpp:425] pool5/drop_7x7_s1 <- pool5/7x7_s1
I0403 14:40:49.681761 13525 net.cpp:386] pool5/drop_7x7_s1 -> pool5/7x7_s1 (in-place)
I0403 14:40:49.681813 13525 net.cpp:141] Setting up pool5/drop_7x7_s1
I0403 14:40:49.681835 13525 net.cpp:148] Top shape: 24 1024 1 1 (24576)
I0403 14:40:49.681849 13525 net.cpp:156] Memory required for data: 1346060832
I0403 14:40:49.681864 13525 layer_factory.hpp:77] Creating layer loss3/classifier_plantvillage
I0403 14:40:49.681882 13525 net.cpp:91] Creating Layer loss3/classifier_plantvillage
I0403 14:40:49.681897 13525 net.cpp:425] loss3/classifier_plantvillage <- pool5/7x7_s1
I0403 14:40:49.681918 13525 net.cpp:399] loss3/classifier_plantvillage -> loss3/classifier_plantvillage
I0403 14:40:49.682348 13525 net.cpp:141] Setting up loss3/classifier_plantvillage
I0403 14:40:49.682371 13525 net.cpp:148] Top shape: 24 38 (912)
I0403 14:40:49.682385 13525 net.cpp:156] Memory required for data: 1346064480
I0403 14:40:49.682404 13525 layer_factory.hpp:77] Creating layer loss3/classifier_plantvillage_loss3/classifier_plantvillage_0_split
I0403 14:40:49.682422 13525 net.cpp:91] Creating Layer loss3/classifier_plantvillage_loss3/classifier_plantvillage_0_split
I0403 14:40:49.682437 13525 net.cpp:425] loss3/classifier_plantvillage_loss3/classifier_plantvillage_0_split <- loss3/classifier_plantvillage
I0403 14:40:49.682458 13525 net.cpp:399] loss3/classifier_plantvillage_loss3/classifier_plantvillage_0_split -> loss3/classifier_plantvillage_loss3/classifier_plantvillage_0_split_0
I0403 14:40:49.682478 13525 net.cpp:399] loss3/classifier_plantvillage_loss3/classifier_plantvillage_0_split -> loss3/classifier_plantvillage_loss3/classifier_plantvillage_0_split_1
I0403 14:40:49.682498 13525 net.cpp:399] loss3/classifier_plantvillage_loss3/classifier_plantvillage_0_split -> loss3/classifier_plantvillage_loss3/classifier_plantvillage_0_split_2
I0403 14:40:49.682518 13525 net.cpp:399] loss3/classifier_plantvillage_loss3/classifier_plantvillage_0_split -> loss3/classifier_plantvillage_loss3/classifier_plantvillage_0_split_3
I0403 14:40:49.682642 13525 net.cpp:141] Setting up loss3/classifier_plantvillage_loss3/classifier_plantvillage_0_split
I0403 14:40:49.682667 13525 net.cpp:148] Top shape: 24 38 (912)
I0403 14:40:49.682682 13525 net.cpp:148] Top shape: 24 38 (912)
I0403 14:40:49.682698 13525 net.cpp:148] Top shape: 24 38 (912)
I0403 14:40:49.682713 13525 net.cpp:148] Top shape: 24 38 (912)
I0403 14:40:49.682726 13525 net.cpp:156] Memory required for data: 1346079072
I0403 14:40:49.682740 13525 layer_factory.hpp:77] Creating layer loss1/loss
I0403 14:40:49.682765 13525 net.cpp:91] Creating Layer loss1/loss
I0403 14:40:49.682785 13525 net.cpp:425] loss1/loss <- loss1/classifier_plantvillage_loss1/classifier_plantvillage_0_split_0
I0403 14:40:49.682816 13525 net.cpp:425] loss1/loss <- label_data_1_split_0
…
