…
I0403 13:42:48.862967 11957 net.cpp:313] The NetState phase (1) differed from the phase (0) specified by a rule in layer data
I0403 13:42:48.864100 11957 net.cpp:49] Initializing net from parameters: 
state {
  phase: TEST
}
layer {
  name: "data"
  type: "Data"
  top: "data"
  top: "label"
  include {
    phase: TEST
  }
  transform_param {
    mirror: false
    crop_size: 224
    mean_file: "/home/mohanty/data/final_dataset/lmdb/segmented-20-80/mean.binaryproto"
  }
  data_param {
    source: "/home/mohanty/data/final_dataset/lmdb/segmented-20-80/test_db"
    batch_size: 24
    backend: LMDB
  }
}
layer {
  name: "conv1/7x7_s2"
  type: "Convolution"
  bottom: "data"
  top: "conv1/7x7_s2"
  param {
    lr_mult: 1
    decay_mult: 1
  }
  param {
    lr_mult: 2
    decay_mult: 0
  }
  convolution_param {
    num_output: 64
    pad: 3
    kernel_size: 7
    stride: 2
    weight_filler {
      type: "xavier"
      std: 0.1
    }
    bias_filler {
      type: "constant"
      value: 0.2
    }
  }
}
layer {
  name: "conv1/relu_7x7"
  type: "ReLU"
  bottom: "conv1/7x7_s2"
  top: "conv1/7x7_s2"
}
layer {
  name: "pool1/3x3_s2"
  type: "Pooling"
  bottom: "conv1/7x7_s2"
  top: "pool1/3x3_s2"
  pooling_param {
    pool: MAX
    kernel_size: 3
    stride: 2
  }
}
layer {
  name: "pool1/norm1"
  type: "LRN"
  bottom: "pool1/3x3_s2"
  top: "pool1/norm1"
  lrn_param {
    local_size: 5
    alpha: 0.0001
    beta: 0.75
  }
}
layer {
  name: "conv2/3x3_reduce"
  type: "Convolution"
  bottom: "pool1/norm1"
  top: "conv2/3x3_reduce"
  param {
    lr_mult: 1
    decay_mult: 1
  }
  param {
    lr_mult: 2
    decay_mult: 0
  }
  convolution_param {
    num_output: 64
    kernel_size: 1
    weight_filler {
      type: "xavier"
      std: 0.1
    }
    bias_filler {
      type: "constant"
      value: 0.2
    }
  }
}
layer {
  name: "conv2/relu_3x3_reduce"
  type: "ReLU"
  bottom: "conv2/3x3_reduce"
  top: "conv2/3x3_reduce"
}
layer {
  name: "conv2/3x3"
  type: "Convolution"
  bottom: "conv2/3x3_reduce"
  top: "conv2/3x3"
  param {
    lr_mult: 1
    decay_mult: 1
  }
  param {
    lr_mult: 2
    decay_mult: 0
  }
  convolution_param {
    num_output: 192
    pad: 1
    kernel_size: 3
    weight_filler {
      type: "xavier"
      std: 0.03
    }
    bias_filler {
      type: "constant"
      value: 0.2
    }
  }
}
layer {
  name: "conv2/relu_3x3"
  type: "ReLU"
  bottom: "conv2/3x3"
  top: "conv2/3x3"
}
layer {
  name: "conv2/norm2"
  type: "LRN"
  bottom: "conv2/3x3"
  top: "conv2/norm2"
  lrn_param {
    local_size: 5
    alpha: 0.0001
    beta: 0.75
  }
}
layer {
  name: "pool2/3x3_s2"
  type: "Pooling"
  bottom: "conv2/norm2"
  top: "pool2/3x3_s2"
  pooling_param {
    pool: MAX
    kernel_size: 3
    stride: 2
  }
}
layer {
  name: "inception_3a/1x1"
  type: "Convolution"
  bottom: "pool2/3x3_s2"
  top: "inception_3a/1x1"
  param {
    lr_mult: 1
    decay_mult: 1
  }
  param {
    lr_mult: 2
    decay_mult: 0
  }
  convolution_param {
    num_output: 64
    kernel_size: 1
    weight_filler {
      type: "xavier"
      std: 0.03
    }
    bias_filler {
      type: "constant"
      value: 0.2
    }
  }
}
layer {
  name: "inception_3a/relu_1x1"
  type: "ReLU"
  bottom: "inception_3a/1x1"
  top: "inception_3a/1x1"
}
layer {
  name: "inception_3a/3x3_reduce"
  type: "Convolution"
  bottom: "pool2/3x3_s2"
  top: "inception_3a/3x3_reduce"
  param {
    lr_mult: 1
    decay_mult: 1
  }
  param {
    lr_mult: 2
    decay_mult: 0
  }
  convolution_param {
    num_output: 96
    kernel_size: 1
    weight_filler {
      type: "xavier"
      std: 0.09
    }
    bias_filler {
      type: "constant"
      value: 0.2
    }
  }
}
layer {
  name: "inception_3a/relu_3x3_reduce"
  type: "ReLU"
  bottom: "inception_3a/3x3_reduce"
  top: "inception_3a/3x3_reduce"
}
layer {
  name: "inception_3a/3x3"
  type: "Convolution"
  bottom: "inception_3a/3x3_reduce"
  top: "inception_3a/3x3"
  param {
    lr_mult: 1
    decay_mult: 1
  }
  param {
    lr_mult: 2
    decay_mult: 0
  }
  convolution_param {
    num_output: 128
    pad: 1
    kernel_size: 3
    weight_filler {
      type: "xavier"
      std: 0.03
    }
    bias_filler {
      type: "constant"
      value: 0.2
    }
  }
}
layer {
  name: "inception_3a/relu_3x3"
  type: "ReLU"
  bottom: "inception_3a/3x3"
  top: "inception_3a/3x3"
}
layer {
  name: "inception_3a/5x5_reduce"
  type: "Convolution"
  bottom: "pool2/3x3_s2"
  top: "inception_3a/5x5_reduce"
  param {
    lr_mult: 1
    decay_mult: 1
  }
  param {
    lr_mult: 2
    decay_mult: 0
  }
  convolution_param {
    num_output: 16
    kernel_size: 1
    weight_filler {
      type: "xavier"
      std: 0.2
    }
    bias_filler {
      type: "constant"
      value: 0.2
    }
  }
}
layer {
  name: "inception_3a/relu_5x5_reduce"
  type: "ReLU"
  bottom: "inception_3a/5x5_reduce"
  top: "inception_3a/5x5_reduce"
}
layer {
  name: "inception_3a/5x5"
  type: "Convolution"
  bottom: "inception_3a/5x5_reduce"
  top: "inception_3a/5x5"
  param {
    lr_mult: 1
    decay_mult: 1
  }
  param {
    lr_mult: 2
    decay_mult: 0
  }
  convolution_param {
    num_output: 32
    pad: 2
    kernel_size: 5
    weight_filler {
      type: "xavier"
      std: 0.03
    }
    bias_filler {
      type: "constant"
      value: 0.2
    }
  }
}
layer {
  name: "inception_3a/relu_5x5"
  type: "ReLU"
  bottom: "inception_3a/5x5"
  top: "inception_3a/5x5"
}
layer {
  name: "inception_3a/pool"
  type: "Pooling"
  bottom: "pool2/3x3_s2"
  top: "inception_3a/pool"
  pooling_param {
    pool: MAX
    kernel_size: 3
    stride: 1
    pad: 1
  }
}
layer {
  name: "inception_3a/pool_proj"
  type: "Convolution"
  bottom: "inception_3a/pool"
  top: "inception_3a/pool_proj"
  param {
    lr_mult: 1
    decay_mult: 1
  }
  param {
    lr_mult: 2
    decay_mult: 0
  }
  convolution_param {
    num_output: 32
    kernel_size: 1
    weight_filler {
      type: "xavier"
      std: 0.1
    }
    bias_filler {
      type: "constant"
      value: 0.2
    }
  }
}
layer {
  name: "inception_3a/relu_pool_proj"
  type: "ReLU"
  bottom: "inception_3a/pool_proj"
  top: "inception_3a/pool_proj"
}
layer {
  name: "inception_3a/output"
  type: "Concat"
  bottom: "inception_3a/1x1"
  bottom: "inception_3a/3x3"
  bottom: "inception_3a/5x5"
  bottom: "inception_3a/pool_proj"
  top: "inception_3a/output"
}
layer {
  name: "inception_3b/1x1"
  type: "Convolution"
  bottom: "inception_3a/output"
  top: "inception_3b/1x1"
  param {
    lr_mult: 1
    decay_mult: 1
  }
  param {
    lr_mult: 2
    decay_mult: 0
  }
  convolution_param {
    num_output: 128
    kernel_size: 1
    weight_filler {
      type: "xavier"
      std: 0.03
    }
    bias_filler {
      type: "constant"
      value: 0.2
    }
  }
}
layer {
  name: "inception_3b/relu_1x1"
  type: "ReLU"
  bottom: "inception_3b/1x1"
  top: "inception_3b/1x1"
}
layer {
  name: "inception_3b/3x3_reduce"
  type: "Convolution"
  bottom: "inception_3a/output"
  top: "inception_3b/3x3_reduce"
  param {
    lr_mult: 1
    decay_mult: 1
  }
  param {
    lr_mult: 2
    decay_mult: 0
  }
  convolution_param {
    num_output: 128
    kernel_size: 1
    weight_filler {
      type: "xavier"
      std: 0.09
    }
    bias_filler {
      type: "constant"
      value: 0.2
    }
  }
}
layer {
  name: "inception_3b/relu_3x3_reduce"
  type: "ReLU"
  bottom: "inception_3b/3x3_reduce"
  top: "inception_3b/3x3_reduce"
}
layer {
  name: "inception_3b/3x3"
  type: "Convolution"
  bottom: "inception_3b/3x3_reduce"
  top: "inception_3b/3x3"
  param {
    lr_mult: 1
    decay_mult: 1
  }
  param {
    lr_mult: 2
    decay_mult: 0
  }
  convolution_param {
    num_output: 192
    pad: 1
    kernel_size: 3
    weight_filler {
      type: "xavier"
      std: 0.03
    }
    bias_filler {
      type: "constant"
      value: 0.2
    }
  }
}
layer {
  name: "inception_3b/relu_3x3"
  type: "ReLU"
  bottom: "inception_3b/3x3"
  top: "inception_3b/3x3"
}
layer {
  name: "inception_3b/5x5_reduce"
  type: "Convolution"
  bottom: "inception_3a/output"
  top: "inception_3b/5x5_reduce"
  param {
    lr_mult: 1
    decay_mult: 1
  }
  param {
    lr_mult: 2
    decay_mult: 0
  }
  convolution_param {
    num_output: 32
    kernel_size: 1
    weight_filler {
      type: "xavier"
      std: 0.2
    }
    bias_filler {
      type: "constant"
      value: 0.2
    }
  }
}
layer {
  name: "inception_3b/relu_5x5_reduce"
  type: "ReLU"
  bottom: "inception_3b/5x5_reduce"
  top: "inception_3b/5x5_reduce"
}
layer {
  name: "inception_3b/5x5"
  type: "Convolution"
  bottom: "inception_3b/5x5_reduce"
  top: "inception_3b/5x5"
  param {
    lr_mult: 1
    decay_mult: 1
  }
  param {
    lr_mult: 2
    decay_mult: 0
  }
  convolution_param {
    num_output: 96
    pad: 2
    kernel_size: 5
    weight_filler {
      type: "xavier"
      std: 0.03
    }
    bias_filler {
      type: "constant"
      value: 0.2
    }
  }
}
layer {
  name: "inception_3b/relu_5x5"
  type: "ReLU"
  bottom: "inception_3b/5x5"
  top: "inception_3b/5x5"
}
layer {
  name: "inception_3b/pool"
  type: "Pooling"
  bottom: "inception_3a/output"
  top: "inception_3b/pool"
  pooling_param {
    pool: MAX
    kernel_size: 3
    stride: 1
    pad: 1
  }
}
layer {
  name: "inception_3b/pool_proj"
  type: "Convolution"
  bottom: "inception_3b/pool"
  top: "inception_3b/pool_proj"
  param {
    lr_mult: 1
    decay_mult: 1
  }
  param {
    lr_mult: 2
    decay_mult: 0
  }
  convolution_param {
    num_output: 64
    kernel_size: 1
    weight_filler {
      type: "xavier"
      std: 0.1
    }
    bias_filler {
      type: "constant"
      value: 0.2
    }
  }
}
layer {
  name: "inception_3b/relu_pool_proj"
  type: "ReLU"
  bottom: "inception_3b/pool_proj"
  top: "inception_3b/pool_proj"
}
layer {
  name: "inception_3b/output"
  type: "Concat"
  bottom: "inception_3b/1x1"
  bottom: "inception_3b/3x3"
  bottom: "inception_3b/5x5"
  bottom: "inception_3b/pool_proj"
  top: "inception_3b/output"
}
layer {
  name: "pool3/3x3_s2"
  type: "Pooling"
  bottom: "inception_3b/output"
  top: "pool3/3x3_s2"
  pooling_param {
    pool: MAX
    kernel_size: 3
    stride: 2
  }
}
layer {
  name: "inception_4a/1x1"
  type: "Convolution"
  bottom: "pool3/3x3_s2"
  top: "inception_4a/1x1"
  param {
    lr_mult: 1
    decay_mult: 1
  }
  param {
    lr_mult: 2
    decay_mult: 0
  }
  convolution_param {
    num_output: 192
    kernel_size: 1
    weight_filler {
      type: "xavier"
      std: 0.03
    }
    bias_filler {
      type: "constant"
      value: 0.2
    }
  }
}
layer {
  name: "inception_4a/relu_1x1"
  type: "ReLU"
  bottom: "inception_4a/1x1"
  top: "inception_4a/1x1"
}
layer {
  name: "inception_4a/3x3_reduce"
  type: "Convolution"
  bottom: "pool3/3x3_s2"
  top: "inception_4a/3x3_reduce"
  param {
    lr_mult: 1
    decay_mult: 1
  }
  param {
    lr_mult: 2
    decay_mult: 0
  }
  convolution_param {
    num_output: 96
    kernel_size: 1
    weight_filler {
      type: "xavier"
      std: 0.09
    }
    bias_filler {
      type: "constant"
      value: 0.2
    }
  }
}
layer {
  name: "inception_4a/relu_3x3_reduce"
  type: "ReLU"
  bottom: "inception_4a/3x3_reduce"
  top: "inception_4a/3x3_reduce"
}
layer {
  name: "inception_4a/3x3"
  type: "Convolution"
  bottom: "inception_4a/3x3_reduce"
  top: "inception_4a/3x3"
  param {
    lr_mult: 1
    decay_mult: 1
  }
  param {
    lr_mult: 2
    decay_mult: 0
  }
  convolution_param {
    num_output: 208
    pad: 1
    kernel_size: 3
    weight_filler {
      type: "xavier"
      std: 0.03
    }
    bias_filler {
      type: "constant"
      value: 0.2
    }
  }
}
layer {
  name: "inception_4a/relu_3x3"
  type: "ReLU"
  bottom: "inception_4a/3x3"
  top: "inception_4a/3x3"
}
layer {
  name: "inception_4a/5x5_reduce"
  type: "Convolution"
  bottom: "pool3/3x3_s2"
  top: "inception_4a/5x5_reduce"
  param {
    lr_mult: 1
    decay_mult: 1
  }
  param {
    lr_mult: 2
    decay_mult: 0
  }
  convolution_param {
    num_output: 16
    kernel_size: 1
    weight_filler {
      type: "xavier"
      std: 0.2
    }
    bias_filler {
      type: "constant"
      value: 0.2
    }
  }
}
layer {
  name: "inception_4a/relu_5x5_reduce"
  type: "ReLU"
  bottom: "inception_4a/5x5_reduce"
  top: "inception_4a/5x5_reduce"
}
layer {
  name: "inception_4a/5x5"
  type: "Convolution"
  bottom: "inception_4a/5x5_reduce"
  top: "inception_4a/5x5"
  param {
    lr_mult: 1
    decay_mult: 1
  }
  param {
    lr_mult: 2
    decay_mult: 0
  }
  convolution_param {
    num_output: 48
    pad: 2
    kernel_size: 5
    weight_filler {
      type: "xavier"
      std: 0.03
    }
    bias_filler {
      type: "constant"
      value: 0.2
    }
  }
}
layer {
  name: "inception_4a/relu_5x5"
  type: "ReLU"
  bottom: "inception_4a/5x5"
  top: "inception_4a/5x5"
}
layer {
  name: "inception_4a/pool"
  type: "Pooling"
  bottom: "pool3/3x3_s2"
  top: "inception_4a/pool"
  pooling_param {
    pool: MAX
    kernel_size: 3
    stride: 1
    pad: 1
  }
}
layer {
  name: "inception_4a/pool_proj"
  type: "Convolution"
  bottom: "inception_4a/pool"
  top: "inception_4a/pool_proj"
  param {
    lr_mult: 1
    decay_mult: 1
  }
  param {
    lr_mult: 2
    decay_mult: 0
  }
  convolution_param {
    num_output: 64
    kernel_size: 1
    weight_filler {
      type: "xavier"
      std: 0.1
    }
    bias_filler {
      type: "constant"
      value: 0.2
    }
  }
}
layer {
  name: "inception_4a/relu_pool_proj"
  type: "ReLU"
  bottom: "inception_4a/pool_proj"
  top: "inception_4a/pool_proj"
}
layer {
  name: "inception_4a/output"
  type: "Concat"
  bottom: "inception_4a/1x1"
  bottom: "inception_4a/3x3"
  bottom: "inception_4a/5x5"
  bottom: "inception_4a/pool_proj"
  top: "inception_4a/output"
}
layer {
  name: "loss1/ave_pool"
  type: "Pooling"
  bottom: "inception_4a/output"
  top: "loss1/ave_pool"
  pooling_param {
    pool: AVE
    kernel_size: 5
    stride: 3
  }
}
layer {
  name: "loss1/conv"
  type: "Convolution"
  bottom: "loss1/ave_pool"
  top: "loss1/conv"
  param {
    lr_mult: 1
    decay_mult: 1
  }
  param {
    lr_mult: 2
    decay_mult: 0
  }
  convolution_param {
    num_output: 128
    kernel_size: 1
    weight_filler {
      type: "xavier"
      std: 0.08
    }
    bias_filler {
      type: "constant"
      value: 0.2
    }
  }
}
layer {
  name: "loss1/relu_conv"
  type: "ReLU"
  bottom: "loss1/conv"
  top: "loss1/conv"
}
layer {
  name: "loss1/fc"
  type: "InnerProduct"
  bottom: "loss1/conv"
  top: "loss1/fc"
  param {
    lr_mult: 1
    decay_mult: 1
  }
  param {
    lr_mult: 2
    decay_mult: 0
  }
  inner_product_param {
    num_output: 1024
    weight_filler {
      type: "xavier"
      std: 0.02
    }
    bias_filler {
      type: "constant"
      value: 0.2
    }
  }
}
layer {
  name: "loss1/relu_fc"
  type: "ReLU"
  bottom: "loss1/fc"
  top: "loss1/fc"
}
layer {
  name: "loss1/drop_fc"
  type: "Dropout"
  bottom: "loss1/fc"
  top: "loss1/fc"
  dropout_param {
    dropout_ratio: 0.7
  }
}
layer {
  name: "loss1/classifier_plantvillage"
  type: "InnerProduct"
  bottom: "loss1/fc"
  top: "loss1/classifier_plantvillage"
  param {
    lr_mult: 1
    decay_mult: 1
  }
  param {
    lr_mult: 2
    decay_mult: 0
  }
  inner_product_param {
    num_output: 38
    weight_filler {
      type: "xavier"
      std: 0.0009765625
    }
    bias_filler {
      type: "constant"
      value: 0
    }
  }
}
layer {
  name: "inception_4b/1x1"
  type: "Convolution"
  bottom: "inception_4a/output"
  top: "inception_4b/1x1"
  param {
    lr_mult: 1
    decay_mult: 1
  }
  param {
    lr_mult: 2
    decay_mult: 0
  }
  convolution_param {
    num_output: 160
    kernel_size: 1
    weight_filler {
      type: "xavier"
      std: 0.03
    }
    bias_filler {
      type: "constant"
      value: 0.2
    }
  }
}
layer {
  name: "inception_4b/relu_1x1"
  type: "ReLU"
  bottom: "inception_4b/1x1"
  top: "inception_4b/1x1"
}
layer {
  name: "inception_4b/3x3_reduce"
  type: "Convolution"
  bottom: "inception_4a/output"
  top: "inception_4b/3x3_reduce"
  param {
    lr_mult: 1
    decay_mult: 1
  }
  param {
    lr_mult: 2
    decay_mult: 0
  }
  convolution_param {
    num_output: 112
    kernel_size: 1
    weight_filler {
      type: "xavier"
      std: 0.09
    }
    bias_filler {
      type: "constant"
      value: 0.2
    }
  }
}
layer {
  name: "inception_4b/relu_3x3_reduce"
  type: "ReLU"
  bottom: "inception_4b/3x3_reduce"
  top: "inception_4b/3x3_reduce"
}
layer {
  name: "inception_4b/3x3"
  type: "Convolution"
  bottom: "inception_4b/3x3_reduce"
  top: "inception_4b/3x3"
  param {
    lr_mult: 1
    decay_mult: 1
  }
  param {
    lr_mult: 2
    decay_mult: 0
  }
  convolution_param {
    num_output: 224
    pad: 1
    kernel_size: 3
    weight_filler {
      type: "xavier"
      std: 0.03
    }
    bias_filler {
      type: "constant"
      value: 0.2
    }
  }
}
layer {
  name: "inception_4b/relu_3x3"
  type: "ReLU"
  bottom: "inception_4b/3x3"
  top: "inception_4b/3x3"
}
layer {
  name: "inception_4b/5x5_reduce"
  type: "Convolution"
  bottom: "inception_4a/output"
  top: "inception_4b/5x5_reduce"
  param {
    lr_mult: 1
    decay_mult: 1
  }
  param {
    lr_mult: 2
    decay_mult: 0
  }
  convolution_param {
    num_output: 24
    kernel_size: 1
    weight_filler {
      type: "xavier"
      std: 0.2
    }
    bias_filler {
      type: "constant"
      value: 0.2
    }
  }
}
layer {
  name: "inception_4b/relu_5x5_reduce"
  type: "ReLU"
  bottom: "inception_4b/5x5_reduce"
  top: "inception_4b/5x5_reduce"
}
layer {
  name: "inception_4b/5x5"
  type: "Convolution"
  bottom: "inception_4b/5x5_reduce"
  top: "inception_4b/5x5"
  param {
    lr_mult: 1
    decay_mult: 1
  }
  param {
    lr_mult: 2
    decay_mult: 0
  }
  convolution_param {
    num_output: 64
    pad: 2
    kernel_size: 5
    weight_filler {
      type: "xavier"
      std: 0.03
    }
    bias_filler {
      type: "constant"
      value: 0.2
    }
  }
}
layer {
  name: "inception_4b/relu_5x5"
  type: "ReLU"
  bottom: "inception_4b/5x5"
  top: "inception_4b/5x5"
}
layer {
  name: "inception_4b/pool"
  type: "Pooling"
  bottom: "inception_4a/output"
  top: "inception_4b/pool"
  pooling_param {
    pool: MAX
    kernel_size: 3
    stride: 1
    pad: 1
  }
}
layer {
  name: "inception_4b/pool_proj"
  type: "Convolution"
  bottom: "inception_4b/pool"
  top: "inception_4b/pool_proj"
  param {
    lr_mult: 1
    decay_mult: 1
  }
  param {
    lr_mult: 2
    decay_mult: 0
  }
  convolution_param {
    num_output: 64
    kernel_size: 1
    weight_filler {
      type: "xavier"
      std: 0.1
    }
    bias_filler {
      type: "constant"
      value: 0.2
    }
  }
}
layer {
  name: "inception_4b/relu_pool_proj"
  type: "ReLU"
  bottom: "inception_4b/pool_proj"
  top: "inception_4b/pool_proj"
}
layer {
  name: "inception_4b/output"
  type: "Concat"
  bottom: "inception_4b/1x1"
  bottom: "inception_4b/3x3"
  bottom: "inception_4b/5x5"
  bottom: "inception_4b/pool_proj"
  top: "inception_4b/output"
}
layer {
  name: "inception_4c/1x1"
  type: "Convolution"
  bottom: "inception_4b/output"
  top: "inception_4c/1x1"
  param {
    lr_mult: 1
    decay_mult: 1
  }
  param {
    lr_mult: 2
    decay_mult: 0
  }
  convolution_param {
    num_output: 128
    kernel_size: 1
    weight_filler {
      type: "xavier"
      std: 0.03
    }
    bias_filler {
      type: "constant"
      value: 0.2
    }
  }
}
layer {
  name: "inception_4c/relu_1x1"
  type: "ReLU"
  bottom: "inception_4c/1x1"
  top: "inception_4c/1x1"
}
layer {
  name: "inception_4c/3x3_reduce"
  type: "Convolution"
  bottom: "inception_4b/output"
  top: "inception_4c/3x3_reduce"
  param {
    lr_mult: 1
    decay_mult: 1
  }
  param {
    lr_mult: 2
    decay_mult: 0
  }
  convolution_param {
    num_output: 128
    kernel_size: 1
    weight_filler {
      type: "xavier"
      std: 0.09
    }
    bias_filler {
      type: "constant"
      value: 0.2
    }
  }
}
layer {
  name: "inception_4c/relu_3x3_reduce"
  type: "ReLU"
  bottom: "inception_4c/3x3_reduce"
  top: "inception_4c/3x3_reduce"
}
layer {
  name: "inception_4c/3x3"
  type: "Convolution"
  bottom: "inception_4c/3x3_reduce"
  top: "inception_4c/3x3"
  param {
    lr_mult: 1
    decay_mult: 1
  }
  param {
    lr_mult: 2
    decay_mult: 0
  }
  convolution_param {
    num_output: 256
    pad: 1
    kernel_size: 3
    weight_filler {
      type: "xavier"
      std: 0.03
    }
    bias_filler {
      type: "constant"
      value: 0.2
    }
  }
}
layer {
  name: "inception_4c/relu_3x3"
  type: "ReLU"
  bottom: "inception_4c/3x3"
  top: "inception_4c/3x3"
}
layer {
  name: "inception_4c/5x5_reduce"
  type: "Convolution"
  bottom: "inception_4b/output"
  top: "inception_4c/5x5_reduce"
  param {
    lr_mult: 1
    decay_mult: 1
  }
  param {
    lr_mult: 2
    decay_mult: 0
  }
  convolution_param {
    num_output: 24
    kernel_size: 1
    weight_filler {
      type: "xavier"
      std: 0.2
    }
    bias_filler {
      type: "constant"
      value: 0.2
    }
  }
}
layer {
  name: "inception_4c/relu_5x5_reduce"
  type: "ReLU"
  bottom: "inception_4c/5x5_reduce"
  top: "inception_4c/5x5_reduce"
}
layer {
  name: "inception_4c/5x5"
  type: "Convolution"
  bottom: "inception_4c/5x5_reduce"
  top: "inception_4c/5x5"
  param {
    lr_mult: 1
    decay_mult: 1
  }
  param {
    lr_mult: 2
    decay_mult: 0
  }
  convolution_param {
    num_output: 64
    pad: 2
    kernel_size: 5
    weight_filler {
      type: "xavier"
      std: 0.03
    }
    bias_filler {
      type: "constant"
      value: 0.2
    }
  }
}
layer {
  name: "inception_4c/relu_5x5"
  type: "ReLU"
  bottom: "inception_4c/5x5"
  top: "inception_4c/5x5"
}
layer {
  name: "inception_4c/pool"
  type: "Pooling"
  bottom: "inception_4b/output"
  top: "inception_4c/pool"
  pooling_param {
    pool: MAX
    kernel_size: 3
    stride: 1
    pad: 1
  }
}
layer {
  name: "inception_4c/pool_proj"
  type: "Convolution"
  bottom: "inception_4c/pool"
  top: "inception_4c/pool_proj"
  param {
    lr_mult: 1
    decay_mult: 1
  }
  param {
    lr_mult: 2
    decay_mult: 0
  }
  convolution_param {
    num_output: 64
    kernel_size: 1
    weight_filler {
      type: "xavier"
      std: 0.1
    }
    bias_filler {
      type: "constant"
      value: 0.2
    }
  }
}
layer {
  name: "inception_4c/relu_pool_proj"
  type: "ReLU"
  bottom: "inception_4c/pool_proj"
  top: "inception_4c/pool_proj"
}
layer {
  name: "inception_4c/output"
  type: "Concat"
  bottom: "inception_4c/1x1"
  bottom: "inception_4c/3x3"
  bottom: "inception_4c/5x5"
  bottom: "inception_4c/pool_proj"
  top: "inception_4c/output"
}
layer {
  name: "inception_4d/1x1"
  type: "Convolution"
  bottom: "inception_4c/output"
  top: "inception_4d/1x1"
  param {
    lr_mult: 1
    decay_mult: 1
  }
  param {
    lr_mult: 2
    decay_mult: 0
  }
  convolution_param {
    num_output: 112
    kernel_size: 1
    weight_filler {
      type: "xavier"
      std: 0.03
    }
    bias_filler {
      type: "constant"
      value: 0.2
    }
  }
}
layer {
  name: "inception_4d/relu_1x1"
  type: "ReLU"
  bottom: "inception_4d/1x1"
  top: "inception_4d/1x1"
}
layer {
  name: "inception_4d/3x3_reduce"
  type: "Convolution"
  bottom: "inception_4c/output"
  top: "inception_4d/3x3_reduce"
  param {
    lr_mult: 1
    decay_mult: 1
  }
  param {
    lr_mult: 2
    decay_mult: 0
  }
  convolution_param {
    num_output: 144
    kernel_size: 1
    weight_filler {
      type: "xavier"
      std: 0.09
    }
    bias_filler {
      type: "constant"
      value: 0.2
    }
  }
}
layer {
  name: "inception_4d/relu_3x3_reduce"
  type: "ReLU"
  bottom: "inception_4d/3x3_reduce"
  top: "inception_4d/3x3_reduce"
}
layer {
  name: "inception_4d/3x3"
  type: "Convolution"
  bottom: "inception_4d/3x3_reduce"
  top: "inception_4d/3x3"
  param {
    lr_mult: 1
    decay_mult: 1
  }
  param {
    lr_mult: 2
    decay_mult: 0
  }
  convolution_param {
    num_output: 288
    pad: 1
    kernel_size: 3
    weight_filler {
      type: "xavier"
      std: 0.03
    }
    bias_filler {
      type: "constant"
      value: 0.2
    }
  }
}
layer {
  name: "inception_4d/relu_3x3"
  type: "ReLU"
  bottom: "inception_4d/3x3"
  top: "inception_4d/3x3"
}
layer {
  name: "inception_4d/5x5_reduce"
  type: "Convolution"
  bottom: "inception_4c/output"
  top: "inception_4d/5x5_reduce"
  param {
    lr_mult: 1
    decay_mult: 1
  }
  param {
    lr_mult: 2
    decay_mult: 0
  }
  convolution_param {
    num_output: 32
    kernel_size: 1
    weight_filler {
      type: "xavier"
      std: 0.2
    }
    bias_filler {
      type: "constant"
      value: 0.2
    }
  }
}
layer {
  name: "inception_4d/relu_5x5_reduce"
  type: "ReLU"
  bottom: "inception_4d/5x5_reduce"
  top: "inception_4d/5x5_reduce"
}
layer {
  name: "inception_4d/5x5"
  type: "Convolution"
  bottom: "inception_4d/5x5_reduce"
  top: "inception_4d/5x5"
  param {
    lr_mult: 1
    decay_mult: 1
  }
  param {
    lr_mult: 2
    decay_mult: 0
  }
  convolution_param {
    num_output: 64
    pad: 2
    kernel_size: 5
    weight_filler {
      type: "xavier"
      std: 0.03
    }
    bias_filler {
      type: "constant"
      value: 0.2
    }
  }
}
layer {
  name: "inception_4d/relu_5x5"
  type: "ReLU"
  bottom: "inception_4d/5x5"
  top: "inception_4d/5x5"
}
layer {
  name: "inception_4d/pool"
  type: "Pooling"
  bottom: "inception_4c/output"
  top: "inception_4d/pool"
  pooling_param {
    pool: MAX
    kernel_size: 3
    stride: 1
    pad: 1
  }
}
layer {
  name: "inception_4d/pool_proj"
  type: "Convolution"
  bottom: "inception_4d/pool"
  top: "inception_4d/pool_proj"
  param {
    lr_mult: 1
    decay_mult: 1
  }
  param {
    lr_mult: 2
    decay_mult: 0
  }
  convolution_param {
    num_output: 64
    kernel_size: 1
    weight_filler {
      type: "xavier"
      std: 0.1
    }
    bias_filler {
      type: "constant"
      value: 0.2
    }
  }
}
layer {
  name: "inception_4d/relu_pool_proj"
  type: "ReLU"
  bottom: "inception_4d/pool_proj"
  top: "inception_4d/pool_proj"
}
layer {
  name: "inception_4d/output"
  type: "Concat"
  bottom: "inception_4d/1x1"
  bottom: "inception_4d/3x3"
  bottom: "inception_4d/5x5"
  bottom: "inception_4d/pool_proj"
  top: "inception_4d/output"
}
layer {
  name: "loss2/ave_pool"
  type: "Pooling"
  bottom: "inception_4d/output"
  top: "loss2/ave_pool"
  pooling_param {
    pool: AVE
    kernel_size: 5
    stride: 3
  }
}
layer {
  name: "loss2/conv"
  type: "Convolution"
  bottom: "loss2/ave_pool"
  top: "loss2/conv"
  param {
    lr_mult: 1
    decay_mult: 1
  }
  param {
    lr_mult: 2
    decay_mult: 0
  }
  convolution_param {
    num_output: 128
    kernel_size: 1
    weight_filler {
      type: "xavier"
      std: 0.08
    }
    bias_filler {
      type: "constant"
      value: 0.2
    }
  }
}
layer {
  name: "loss2/relu_conv"
  type: "ReLU"
  bottom: "loss2/conv"
  top: "loss2/conv"
}
layer {
  name: "loss2/fc"
  type: "InnerProduct"
  bottom: "loss2/conv"
  top: "loss2/fc"
  param {
    lr_mult: 1
    decay_mult: 1
  }
  param {
    lr_mult: 2
    decay_mult: 0
  }
  inner_product_param {
    num_output: 1024
    weight_filler {
      type: "xavier"
      std: 0.02
    }
    bias_filler {
      type: "constant"
      value: 0.2
    }
  }
}
layer {
  name: "loss2/relu_fc"
  type: "ReLU"
  bottom: "loss2/fc"
  top: "loss2/fc"
}
layer {
  name: "loss2/drop_fc"
  type: "Dropout"
  bottom: "loss2/fc"
  top: "loss2/fc"
  dropout_param {
    dropout_ratio: 0.7
  }
}
layer {
  name: "loss2/classifier_plantvillage"
  type: "InnerProduct"
  bottom: "loss2/fc"
  top: "loss2/classifier_plantvillage"
  param {
    lr_mult: 1
    decay_mult: 1
  }
  param {
    lr_mult: 2
    decay_mult: 0
  }
  inner_product_param {
    num_output: 38
    weight_filler {
      type: "xavier"
      std: 0.0009765625
    }
    bias_filler {
      type: "constant"
      value: 0
    }
  }
}
layer {
  name: "inception_4e/1x1"
  type: "Convolution"
  bottom: "inception_4d/output"
  top: "inception_4e/1x1"
  param {
    lr_mult: 1
    decay_mult: 1
  }
  param {
    lr_mult: 2
    decay_mult: 0
  }
  convolution_param {
    num_output: 256
    kernel_size: 1
    weight_filler {
      type: "xavier"
      std: 0.03
    }
    bias_filler {
      type: "constant"
      value: 0.2
    }
  }
}
layer {
  name: "inception_4e/relu_1x1"
  type: "ReLU"
  bottom: "inception_4e/1x1"
  top: "inception_4e/1x1"
}
layer {
  name: "inception_4e/3x3_reduce"
  type: "Convolution"
  bottom: "inception_4d/output"
  top: "inception_4e/3x3_reduce"
  param {
    lr_mult: 1
    decay_mult: 1
  }
  param {
    lr_mult: 2
    decay_mult: 0
  }
  convolution_param {
    num_output: 160
    kernel_size: 1
    weight_filler {
      type: "xavier"
      std: 0.09
    }
    bias_filler {
      type: "constant"
      value: 0.2
    }
  }
}
layer {
  name: "inception_4e/relu_3x3_reduce"
  type: "ReLU"
  bottom: "inception_4e/3x3_reduce"
  top: "inception_4e/3x3_reduce"
}
layer {
  name: "inception_4e/3x3"
  type: "Convolution"
  bottom: "inception_4e/3x3_reduce"
  top: "inception_4e/3x3"
  param {
    lr_mult: 1
    decay_mult: 1
  }
  param {
    lr_mult: 2
    decay_mult: 0
  }
  convolution_param {
    num_output: 320
    pad: 1
    kernel_size: 3
    weight_filler {
      type: "xavier"
      std: 0.03
    }
    bias_filler {
      type: "constant"
      value: 0.2
    }
  }
}
layer {
  name: "inception_4e/relu_3x3"
  type: "ReLU"
  bottom: "inception_4e/3x3"
  top: "inception_4e/3x3"
}
layer {
  name: "inception_4e/5x5_reduce"
  type: "Convolution"
  bottom: "inception_4d/output"
  top: "inception_4e/5x5_reduce"
  param {
    lr_mult: 1
    decay_mult: 1
  }
  param {
    lr_mult: 2
    decay_mult: 0
  }
  convolution_param {
    num_output: 32
    kernel_size: 1
    weight_filler {
      type: "xavier"
      std: 0.2
    }
    bias_filler {
      type: "constant"
      value: 0.2
    }
  }
}
layer {
  name: "inception_4e/relu_5x5_reduce"
  type: "ReLU"
  bottom: "inception_4e/5x5_reduce"
  top: "inception_4e/5x5_reduce"
}
layer {
  name: "inception_4e/5x5"
  type: "Convolution"
  bottom: "inception_4e/5x5_reduce"
  top: "inception_4e/
I0403 13:42:48.865375 11957 layer_factory.hpp:77] Creating layer data
I0403 13:42:48.865978 11957 net.cpp:91] Creating Layer data
I0403 13:42:48.866010 11957 net.cpp:399] data -> data
I0403 13:42:48.866068 11957 net.cpp:399] data -> label
I0403 13:42:48.866107 11957 data_transformer.cpp:25] Loading mean file from: /home/mohanty/data/final_dataset/lmdb/segmented-20-80/mean.binaryproto
I0403 13:42:48.870651 11961 db_lmdb.cpp:38] Opened lmdb /home/mohanty/data/final_dataset/lmdb/segmented-20-80/test_db
I0403 13:42:48.879482 11957 data_layer.cpp:41] output data size: 24,3,224,224
I0403 13:42:48.907274 11957 net.cpp:141] Setting up data
I0403 13:42:48.907363 11957 net.cpp:148] Top shape: 24 3 224 224 (3612672)
I0403 13:42:48.907388 11957 net.cpp:148] Top shape: 24 (24)
I0403 13:42:48.907405 11957 net.cpp:156] Memory required for data: 14450784
I0403 13:42:48.907436 11957 layer_factory.hpp:77] Creating layer label_data_1_split
I0403 13:42:48.907464 11957 net.cpp:91] Creating Layer label_data_1_split
I0403 13:42:48.907483 11957 net.cpp:425] label_data_1_split <- label
I0403 13:42:48.907518 11957 net.cpp:399] label_data_1_split -> label_data_1_split_0
I0403 13:42:48.907555 11957 net.cpp:399] label_data_1_split -> label_data_1_split_1
I0403 13:42:48.907582 11957 net.cpp:399] label_data_1_split -> label_data_1_split_2
I0403 13:42:48.907606 11957 net.cpp:399] label_data_1_split -> label_data_1_split_3
I0403 13:42:48.907629 11957 net.cpp:399] label_data_1_split -> label_data_1_split_4
I0403 13:42:48.907649 11957 net.cpp:399] label_data_1_split -> label_data_1_split_5
I0403 13:42:48.907670 11957 net.cpp:399] label_data_1_split -> label_data_1_split_6
I0403 13:42:48.907692 11957 net.cpp:399] label_data_1_split -> label_data_1_split_7
I0403 13:42:48.907714 11957 net.cpp:399] label_data_1_split -> label_data_1_split_8
I0403 13:42:48.907737 11957 net.cpp:399] label_data_1_split -> label_data_1_split_9
I0403 13:42:48.907857 11957 net.cpp:141] Setting up label_data_1_split
I0403 13:42:48.907882 11957 net.cpp:148] Top shape: 24 (24)
I0403 13:42:48.907901 11957 net.cpp:148] Top shape: 24 (24)
I0403 13:42:48.907917 11957 net.cpp:148] Top shape: 24 (24)
I0403 13:42:48.907932 11957 net.cpp:148] Top shape: 24 (24)
I0403 13:42:48.907950 11957 net.cpp:148] Top shape: 24 (24)
I0403 13:42:48.907966 11957 net.cpp:148] Top shape: 24 (24)
I0403 13:42:48.907982 11957 net.cpp:148] Top shape: 24 (24)
I0403 13:42:48.907999 11957 net.cpp:148] Top shape: 24 (24)
I0403 13:42:48.908015 11957 net.cpp:148] Top shape: 24 (24)
I0403 13:42:48.908030 11957 net.cpp:148] Top shape: 24 (24)
I0403 13:42:48.908077 11957 net.cpp:156] Memory required for data: 14451744
I0403 13:42:48.908093 11957 layer_factory.hpp:77] Creating layer conv1/7x7_s2
I0403 13:42:48.908128 11957 net.cpp:91] Creating Layer conv1/7x7_s2
I0403 13:42:48.908146 11957 net.cpp:425] conv1/7x7_s2 <- data
I0403 13:42:48.908167 11957 net.cpp:399] conv1/7x7_s2 -> conv1/7x7_s2
I0403 13:42:49.049803 11957 net.cpp:141] Setting up conv1/7x7_s2
I0403 13:42:49.049878 11957 net.cpp:148] Top shape: 24 64 112 112 (19267584)
I0403 13:42:49.049896 11957 net.cpp:156] Memory required for data: 91522080
I0403 13:42:49.049926 11957 layer_factory.hpp:77] Creating layer conv1/relu_7x7
I0403 13:42:49.049953 11957 net.cpp:91] Creating Layer conv1/relu_7x7
I0403 13:42:49.049971 11957 net.cpp:425] conv1/relu_7x7 <- conv1/7x7_s2
I0403 13:42:49.049990 11957 net.cpp:386] conv1/relu_7x7 -> conv1/7x7_s2 (in-place)
I0403 13:42:49.050242 11957 net.cpp:141] Setting up conv1/relu_7x7
I0403 13:42:49.050269 11957 net.cpp:148] Top shape: 24 64 112 112 (19267584)
I0403 13:42:49.050284 11957 net.cpp:156] Memory required for data: 168592416
I0403 13:42:49.050299 11957 layer_factory.hpp:77] Creating layer pool1/3x3_s2
I0403 13:42:49.050324 11957 net.cpp:91] Creating Layer pool1/3x3_s2
I0403 13:42:49.050341 11957 net.cpp:425] pool1/3x3_s2 <- conv1/7x7_s2
I0403 13:42:49.050360 11957 net.cpp:399] pool1/3x3_s2 -> pool1/3x3_s2
I0403 13:42:49.050432 11957 net.cpp:141] Setting up pool1/3x3_s2
I0403 13:42:49.050457 11957 net.cpp:148] Top shape: 24 64 56 56 (4816896)
I0403 13:42:49.050472 11957 net.cpp:156] Memory required for data: 187860000
I0403 13:42:49.050487 11957 layer_factory.hpp:77] Creating layer pool1/norm1
I0403 13:42:49.050511 11957 net.cpp:91] Creating Layer pool1/norm1
I0403 13:42:49.050529 11957 net.cpp:425] pool1/norm1 <- pool1/3x3_s2
I0403 13:42:49.050552 11957 net.cpp:399] pool1/norm1 -> pool1/norm1
I0403 13:42:49.050832 11957 net.cpp:141] Setting up pool1/norm1
I0403 13:42:49.050871 11957 net.cpp:148] Top shape: 24 64 56 56 (4816896)
I0403 13:42:49.050889 11957 net.cpp:156] Memory required for data: 207127584
I0403 13:42:49.050904 11957 layer_factory.hpp:77] Creating layer conv2/3x3_reduce
I0403 13:42:49.050927 11957 net.cpp:91] Creating Layer conv2/3x3_reduce
I0403 13:42:49.050945 11957 net.cpp:425] conv2/3x3_reduce <- pool1/norm1
I0403 13:42:49.050963 11957 net.cpp:399] conv2/3x3_reduce -> conv2/3x3_reduce
I0403 13:42:49.052248 11957 net.cpp:141] Setting up conv2/3x3_reduce
I0403 13:42:49.052278 11957 net.cpp:148] Top shape: 24 64 56 56 (4816896)
I0403 13:42:49.052297 11957 net.cpp:156] Memory required for data: 226395168
I0403 13:42:49.052320 11957 layer_factory.hpp:77] Creating layer conv2/relu_3x3_reduce
I0403 13:42:49.052338 11957 net.cpp:91] Creating Layer conv2/relu_3x3_reduce
I0403 13:42:49.052355 11957 net.cpp:425] conv2/relu_3x3_reduce <- conv2/3x3_reduce
I0403 13:42:49.052372 11957 net.cpp:386] conv2/relu_3x3_reduce -> conv2/3x3_reduce (in-place)
I0403 13:42:49.052647 11957 net.cpp:141] Setting up conv2/relu_3x3_reduce
I0403 13:42:49.052677 11957 net.cpp:148] Top shape: 24 64 56 56 (4816896)
I0403 13:42:49.052695 11957 net.cpp:156] Memory required for data: 245662752
I0403 13:42:49.052711 11957 layer_factory.hpp:77] Creating layer conv2/3x3
I0403 13:42:49.052736 11957 net.cpp:91] Creating Layer conv2/3x3
I0403 13:42:49.052755 11957 net.cpp:425] conv2/3x3 <- conv2/3x3_reduce
I0403 13:42:49.052778 11957 net.cpp:399] conv2/3x3 -> conv2/3x3
I0403 13:42:49.055019 11957 net.cpp:141] Setting up conv2/3x3
I0403 13:42:49.055052 11957 net.cpp:148] Top shape: 24 192 56 56 (14450688)
I0403 13:42:49.055069 11957 net.cpp:156] Memory required for data: 303465504
I0403 13:42:49.055091 11957 layer_factory.hpp:77] Creating layer conv2/relu_3x3
I0403 13:42:49.055111 11957 net.cpp:91] Creating Layer conv2/relu_3x3
I0403 13:42:49.055126 11957 net.cpp:425] conv2/relu_3x3 <- conv2/3x3
I0403 13:42:49.055145 11957 net.cpp:386] conv2/relu_3x3 -> conv2/3x3 (in-place)
I0403 13:42:49.055312 11957 net.cpp:141] Setting up conv2/relu_3x3
I0403 13:42:49.055337 11957 net.cpp:148] Top shape: 24 192 56 56 (14450688)
I0403 13:42:49.055384 11957 net.cpp:156] Memory required for data: 361268256
I0403 13:42:49.055400 11957 layer_factory.hpp:77] Creating layer conv2/norm2
I0403 13:42:49.055420 11957 net.cpp:91] Creating Layer conv2/norm2
I0403 13:42:49.055438 11957 net.cpp:425] conv2/norm2 <- conv2/3x3
I0403 13:42:49.055455 11957 net.cpp:399] conv2/norm2 -> conv2/norm2
I0403 13:42:49.055755 11957 net.cpp:141] Setting up conv2/norm2
I0403 13:42:49.055785 11957 net.cpp:148] Top shape: 24 192 56 56 (14450688)
I0403 13:42:49.055804 11957 net.cpp:156] Memory required for data: 419071008
I0403 13:42:49.055819 11957 layer_factory.hpp:77] Creating layer pool2/3x3_s2
I0403 13:42:49.055836 11957 net.cpp:91] Creating Layer pool2/3x3_s2
I0403 13:42:49.055851 11957 net.cpp:425] pool2/3x3_s2 <- conv2/norm2
I0403 13:42:49.055869 11957 net.cpp:399] pool2/3x3_s2 -> pool2/3x3_s2
I0403 13:42:49.055920 11957 net.cpp:141] Setting up pool2/3x3_s2
I0403 13:42:49.055945 11957 net.cpp:148] Top shape: 24 192 28 28 (3612672)
I0403 13:42:49.055961 11957 net.cpp:156] Memory required for data: 433521696
I0403 13:42:49.055976 11957 layer_factory.hpp:77] Creating layer pool2/3x3_s2_pool2/3x3_s2_0_split
I0403 13:42:49.055994 11957 net.cpp:91] Creating Layer pool2/3x3_s2_pool2/3x3_s2_0_split
I0403 13:42:49.056008 11957 net.cpp:425] pool2/3x3_s2_pool2/3x3_s2_0_split <- pool2/3x3_s2
I0403 13:42:49.056028 11957 net.cpp:399] pool2/3x3_s2_pool2/3x3_s2_0_split -> pool2/3x3_s2_pool2/3x3_s2_0_split_0
I0403 13:42:49.056051 11957 net.cpp:399] pool2/3x3_s2_pool2/3x3_s2_0_split -> pool2/3x3_s2_pool2/3x3_s2_0_split_1
I0403 13:42:49.056071 11957 net.cpp:399] pool2/3x3_s2_pool2/3x3_s2_0_split -> pool2/3x3_s2_pool2/3x3_s2_0_split_2
I0403 13:42:49.056093 11957 net.cpp:399] pool2/3x3_s2_pool2/3x3_s2_0_split -> pool2/3x3_s2_pool2/3x3_s2_0_split_3
I0403 13:42:49.056169 11957 net.cpp:141] Setting up pool2/3x3_s2_pool2/3x3_s2_0_split
I0403 13:42:49.056193 11957 net.cpp:148] Top shape: 24 192 28 28 (3612672)
I0403 13:42:49.056210 11957 net.cpp:148] Top shape: 24 192 28 28 (3612672)
I0403 13:42:49.056224 11957 net.cpp:148] Top shape: 24 192 28 28 (3612672)
I0403 13:42:49.056241 11957 net.cpp:148] Top shape: 24 192 28 28 (3612672)
I0403 13:42:49.056253 11957 net.cpp:156] Memory required for data: 491324448
I0403 13:42:49.056267 11957 layer_factory.hpp:77] Creating layer inception_3a/1x1
I0403 13:42:49.056289 11957 net.cpp:91] Creating Layer inception_3a/1x1
I0403 13:42:49.056306 11957 net.cpp:425] inception_3a/1x1 <- pool2/3x3_s2_pool2/3x3_s2_0_split_0
I0403 13:42:49.056329 11957 net.cpp:399] inception_3a/1x1 -> inception_3a/1x1
I0403 13:42:49.057862 11957 net.cpp:141] Setting up inception_3a/1x1
I0403 13:42:49.057893 11957 net.cpp:148] Top shape: 24 64 28 28 (1204224)
I0403 13:42:49.057910 11957 net.cpp:156] Memory required for data: 496141344
I0403 13:42:49.057929 11957 layer_factory.hpp:77] Creating layer inception_3a/relu_1x1
I0403 13:42:49.057947 11957 net.cpp:91] Creating Layer inception_3a/relu_1x1
I0403 13:42:49.057963 11957 net.cpp:425] inception_3a/relu_1x1 <- inception_3a/1x1
I0403 13:42:49.057983 11957 net.cpp:386] inception_3a/relu_1x1 -> inception_3a/1x1 (in-place)
I0403 13:42:49.058152 11957 net.cpp:141] Setting up inception_3a/relu_1x1
I0403 13:42:49.058177 11957 net.cpp:148] Top shape: 24 64 28 28 (1204224)
I0403 13:42:49.058192 11957 net.cpp:156] Memory required for data: 500958240
I0403 13:42:49.058207 11957 layer_factory.hpp:77] Creating layer inception_3a/3x3_reduce
I0403 13:42:49.058228 11957 net.cpp:91] Creating Layer inception_3a/3x3_reduce
I0403 13:42:49.058246 11957 net.cpp:425] inception_3a/3x3_reduce <- pool2/3x3_s2_pool2/3x3_s2_0_split_1
I0403 13:42:49.058267 11957 net.cpp:399] inception_3a/3x3_reduce -> inception_3a/3x3_reduce
I0403 13:42:49.059931 11957 net.cpp:141] Setting up inception_3a/3x3_reduce
I0403 13:42:49.059962 11957 net.cpp:148] Top shape: 24 96 28 28 (1806336)
I0403 13:42:49.059980 11957 net.cpp:156] Memory required for data: 508183584
I0403 13:42:49.060003 11957 layer_factory.hpp:77] Creating layer inception_3a/relu_3x3_reduce
I0403 13:42:49.060039 11957 net.cpp:91] Creating Layer inception_3a/relu_3x3_reduce
I0403 13:42:49.060058 11957 net.cpp:425] inception_3a/relu_3x3_reduce <- inception_3a/3x3_reduce
I0403 13:42:49.060078 11957 net.cpp:386] inception_3a/relu_3x3_reduce -> inception_3a/3x3_reduce (in-place)
I0403 13:42:49.060256 11957 net.cpp:141] Setting up inception_3a/relu_3x3_reduce
I0403 13:42:49.060284 11957 net.cpp:148] Top shape: 24 96 28 28 (1806336)
I0403 13:42:49.060300 11957 net.cpp:156] Memory required for data: 515408928
I0403 13:42:49.060315 11957 layer_factory.hpp:77] Creating layer inception_3a/3x3
I0403 13:42:49.060335 11957 net.cpp:91] Creating Layer inception_3a/3x3
I0403 13:42:49.060353 11957 net.cpp:425] inception_3a/3x3 <- inception_3a/3x3_reduce
I0403 13:42:49.060372 11957 net.cpp:399] inception_3a/3x3 -> inception_3a/3x3
I0403 13:42:49.061995 11957 net.cpp:141] Setting up inception_3a/3x3
I0403 13:42:49.062028 11957 net.cpp:148] Top shape: 24 128 28 28 (2408448)
I0403 13:42:49.062046 11957 net.cpp:156] Memory required for data: 525042720
I0403 13:42:49.062063 11957 layer_factory.hpp:77] Creating layer inception_3a/relu_3x3
I0403 13:42:49.062082 11957 net.cpp:91] Creating Layer inception_3a/relu_3x3
I0403 13:42:49.062098 11957 net.cpp:425] inception_3a/relu_3x3 <- inception_3a/3x3
I0403 13:42:49.062117 11957 net.cpp:386] inception_3a/relu_3x3 -> inception_3a/3x3 (in-place)
I0403 13:42:49.062386 11957 net.cpp:141] Setting up inception_3a/relu_3x3
I0403 13:42:49.062413 11957 net.cpp:148] Top shape: 24 128 28 28 (2408448)
I0403 13:42:49.062429 11957 net.cpp:156] Memory required for data: 534676512
I0403 13:42:49.062444 11957 layer_factory.hpp:77] Creating layer inception_3a/5x5_reduce
I0403 13:42:49.062466 11957 net.cpp:91] Creating Layer inception_3a/5x5_reduce
I0403 13:42:49.062484 11957 net.cpp:425] inception_3a/5x5_reduce <- pool2/3x3_s2_pool2/3x3_s2_0_split_2
I0403 13:42:49.062505 11957 net.cpp:399] inception_3a/5x5_reduce -> inception_3a/5x5_reduce
I0403 13:42:49.063444 11957 net.cpp:141] Setting up inception_3a/5x5_reduce
I0403 13:42:49.063473 11957 net.cpp:148] Top shape: 24 16 28 28 (301056)
I0403 13:42:49.063490 11957 net.cpp:156] Memory required for data: 535880736
I0403 13:42:49.063508 11957 layer_factory.hpp:77] Creating layer inception_3a/relu_5x5_reduce
I0403 13:42:49.063529 11957 net.cpp:91] Creating Layer inception_3a/relu_5x5_reduce
I0403 13:42:49.063550 11957 net.cpp:425] inception_3a/relu_5x5_reduce <- inception_3a/5x5_reduce
I0403 13:42:49.063568 11957 net.cpp:386] inception_3a/relu_5x5_reduce -> inception_3a/5x5_reduce (in-place)
I0403 13:42:49.063858 11957 net.cpp:141] Setting up inception_3a/relu_5x5_reduce
I0403 13:42:49.063884 11957 net.cpp:148] Top shape: 24 16 28 28 (301056)
I0403 13:42:49.063897 11957 net.cpp:156] Memory required for data: 537084960
I0403 13:42:49.063912 11957 layer_factory.hpp:77] Creating layer inception_3a/5x5
I0403 13:42:49.063935 11957 net.cpp:91] Creating Layer inception_3a/5x5
I0403 13:42:49.063951 11957 net.cpp:425] inception_3a/5x5 <- inception_3a/5x5_reduce
I0403 13:42:49.063972 11957 net.cpp:399] inception_3a/5x5 -> inception_3a/5x5
I0403 13:42:49.064976 11957 net.cpp:141] Setting up inception_3a/5x5
I0403 13:42:49.065007 11957 net.cpp:148] Top shape: 24 32 28 28 (602112)
I0403 13:42:49.065026 11957 net.cpp:156] Memory required for data: 539493408
I0403 13:42:49.065044 11957 layer_factory.hpp:77] Creating layer inception_3a/relu_5x5
I0403 13:42:49.065063 11957 net.cpp:91] Creating Layer inception_3a/relu_5x5
I0403 13:42:49.065079 11957 net.cpp:425] inception_3a/relu_5x5 <- inception_3a/5x5
I0403 13:42:49.065099 11957 net.cpp:386] inception_3a/relu_5x5 -> inception_3a/5x5 (in-place)
I0403 13:42:49.065268 11957 net.cpp:141] Setting up inception_3a/relu_5x5
I0403 13:42:49.065294 11957 net.cpp:148] Top shape: 24 32 28 28 (602112)
I0403 13:42:49.065310 11957 net.cpp:156] Memory required for data: 541901856
I0403 13:42:49.065325 11957 layer_factory.hpp:77] Creating layer inception_3a/pool
I0403 13:42:49.065341 11957 net.cpp:91] Creating Layer inception_3a/pool
I0403 13:42:49.065371 11957 net.cpp:425] inception_3a/pool <- pool2/3x3_s2_pool2/3x3_s2_0_split_3
I0403 13:42:49.065393 11957 net.cpp:399] inception_3a/pool -> inception_3a/pool
I0403 13:42:49.065450 11957 net.cpp:141] Setting up inception_3a/pool
I0403 13:42:49.065474 11957 net.cpp:148] Top shape: 24 192 28 28 (3612672)
I0403 13:42:49.065490 11957 net.cpp:156] Memory required for data: 556352544
I0403 13:42:49.065503 11957 layer_factory.hpp:77] Creating layer inception_3a/pool_proj
I0403 13:42:49.065529 11957 net.cpp:91] Creating Layer inception_3a/pool_proj
I0403 13:42:49.065552 11957 net.cpp:425] inception_3a/pool_proj <- inception_3a/pool
I0403 13:42:49.065572 11957 net.cpp:399] inception_3a/pool_proj -> inception_3a/pool_proj
I0403 13:42:49.066516 11957 net.cpp:141] Setting up inception_3a/pool_proj
I0403 13:42:49.066550 11957 net.cpp:148] Top shape: 24 32 28 28 (602112)
I0403 13:42:49.066568 11957 net.cpp:156] Memory required for data: 558760992
I0403 13:42:49.066592 11957 layer_factory.hpp:77] Creating layer inception_3a/relu_pool_proj
I0403 13:42:49.066617 11957 net.cpp:91] Creating Layer inception_3a/relu_pool_proj
I0403 13:42:49.066635 11957 net.cpp:425] inception_3a/relu_pool_proj <- inception_3a/pool_proj
I0403 13:42:49.066653 11957 net.cpp:386] inception_3a/relu_pool_proj -> inception_3a/pool_proj (in-place)
I0403 13:42:49.066923 11957 net.cpp:141] Setting up inception_3a/relu_pool_proj
I0403 13:42:49.066952 11957 net.cpp:148] Top shape: 24 32 28 28 (602112)
I0403 13:42:49.066970 11957 net.cpp:156] Memory required for data: 561169440
I0403 13:42:49.066987 11957 layer_factory.hpp:77] Creating layer inception_3a/output
I0403 13:42:49.067004 11957 net.cpp:91] Creating Layer inception_3a/output
I0403 13:42:49.067020 11957 net.cpp:425] inception_3a/output <- inception_3a/1x1
I0403 13:42:49.067039 11957 net.cpp:425] inception_3a/output <- inception_3a/3x3
I0403 13:42:49.067054 11957 net.cpp:425] inception_3a/output <- inception_3a/5x5
I0403 13:42:49.067071 11957 net.cpp:425] inception_3a/output <- inception_3a/pool_proj
I0403 13:42:49.067090 11957 net.cpp:399] inception_3a/output -> inception_3a/output
I0403 13:42:49.067137 11957 net.cpp:141] Setting up inception_3a/output
I0403 13:42:49.067160 11957 net.cpp:148] Top shape: 24 256 28 28 (4816896)
I0403 13:42:49.067175 11957 net.cpp:156] Memory required for data: 580437024
I0403 13:42:49.067191 11957 layer_factory.hpp:77] Creating layer inception_3a/output_inception_3a/output_0_split
I0403 13:42:49.067212 11957 net.cpp:91] Creating Layer inception_3a/output_inception_3a/output_0_split
I0403 13:42:49.067229 11957 net.cpp:425] inception_3a/output_inception_3a/output_0_split <- inception_3a/output
I0403 13:42:49.067246 11957 net.cpp:399] inception_3a/output_inception_3a/output_0_split -> inception_3a/output_inception_3a/output_0_split_0
I0403 13:42:49.067268 11957 net.cpp:399] inception_3a/output_inception_3a/output_0_split -> inception_3a/output_inception_3a/output_0_split_1
I0403 13:42:49.067292 11957 net.cpp:399] inception_3a/output_inception_3a/output_0_split -> inception_3a/output_inception_3a/output_0_split_2
I0403 13:42:49.067313 11957 net.cpp:399] inception_3a/output_inception_3a/output_0_split -> inception_3a/output_inception_3a/output_0_split_3
I0403 13:42:49.067386 11957 net.cpp:141] Setting up inception_3a/output_inception_3a/output_0_split
I0403 13:42:49.067411 11957 net.cpp:148] Top shape: 24 256 28 28 (4816896)
I0403 13:42:49.067430 11957 net.cpp:148] Top shape: 24 256 28 28 (4816896)
I0403 13:42:49.067445 11957 net.cpp:148] Top shape: 24 256 28 28 (4816896)
I0403 13:42:49.067461 11957 net.cpp:148] Top shape: 24 256 28 28 (4816896)
I0403 13:42:49.067474 11957 net.cpp:156] Memory required for data: 657507360
I0403 13:42:49.067488 11957 layer_factory.hpp:77] Creating layer inception_3b/1x1
I0403 13:42:49.067510 11957 net.cpp:91] Creating Layer inception_3b/1x1
I0403 13:42:49.067528 11957 net.cpp:425] inception_3b/1x1 <- inception_3a/output_inception_3a/output_0_split_0
I0403 13:42:49.067562 11957 net.cpp:399] inception_3b/1x1 -> inception_3b/1x1
I0403 13:42:49.068718 11957 net.cpp:141] Setting up inception_3b/1x1
I0403 13:42:49.068763 11957 net.cpp:148] Top shape: 24 128 28 28 (2408448)
I0403 13:42:49.068780 11957 net.cpp:156] Memory required for data: 667141152
I0403 13:42:49.068799 11957 layer_factory.hpp:77] Creating layer inception_3b/relu_1x1
I0403 13:42:49.068817 11957 net.cpp:91] Creating Layer inception_3b/relu_1x1
I0403 13:42:49.068845 11957 net.cpp:425] inception_3b/relu_1x1 <- inception_3b/1x1
I0403 13:42:49.068863 11957 net.cpp:386] inception_3b/relu_1x1 -> inception_3b/1x1 (in-place)
I0403 13:42:49.069041 11957 net.cpp:141] Setting up inception_3b/relu_1x1
I0403 13:42:49.069066 11957 net.cpp:148] Top shape: 24 128 28 28 (2408448)
I0403 13:42:49.069080 11957 net.cpp:156] Memory required for data: 676774944
I0403 13:42:49.069095 11957 layer_factory.hpp:77] Creating layer inception_3b/3x3_reduce
I0403 13:42:49.069118 11957 net.cpp:91] Creating Layer inception_3b/3x3_reduce
I0403 13:42:49.069135 11957 net.cpp:425] inception_3b/3x3_reduce <- inception_3a/output_inception_3a/output_0_split_1
I0403 13:42:49.069156 11957 net.cpp:399] inception_3b/3x3_reduce -> inception_3b/3x3_reduce
I0403 13:42:49.070281 11957 net.cpp:141] Setting up inception_3b/3x3_reduce
I0403 13:42:49.070310 11957 net.cpp:148] Top shape: 24 128 28 28 (2408448)
I0403 13:42:49.070328 11957 net.cpp:156] Memory required for data: 686408736
I0403 13:42:49.070346 11957 layer_factory.hpp:77] Creating layer inception_3b/relu_3x3_reduce
I0403 13:42:49.070369 11957 net.cpp:91] Creating Layer inception_3b/relu_3x3_reduce
I0403 13:42:49.070386 11957 net.cpp:425] inception_3b/relu_3x3_reduce <- inception_3b/3x3_reduce
I0403 13:42:49.070405 11957 net.cpp:386] inception_3b/relu_3x3_reduce -> inception_3b/3x3_reduce (in-place)
I0403 13:42:49.070582 11957 net.cpp:141] Setting up inception_3b/relu_3x3_reduce
I0403 13:42:49.070610 11957 net.cpp:148] Top shape: 24 128 28 28 (2408448)
I0403 13:42:49.070624 11957 net.cpp:156] Memory required for data: 696042528
I0403 13:42:49.070638 11957 layer_factory.hpp:77] Creating layer inception_3b/3x3
I0403 13:42:49.070664 11957 net.cpp:91] Creating Layer inception_3b/3x3
I0403 13:42:49.070683 11957 net.cpp:425] inception_3b/3x3 <- inception_3b/3x3_reduce
I0403 13:42:49.070701 11957 net.cpp:399] inception_3b/3x3 -> inception_3b/3x3
I0403 13:42:49.073581 11957 net.cpp:141] Setting up inception_3b/3x3
I0403 13:42:49.073613 11957 net.cpp:148] Top shape: 24 192 28 28 (3612672)
I0403 13:42:49.073632 11957 net.cpp:156] Memory required for data: 710493216
I0403 13:42:49.073652 11957 layer_factory.hpp:77] Creating layer inception_3b/relu_3x3
I0403 13:42:49.073670 11957 net.cpp:91] Creating Layer inception_3b/relu_3x3
I0403 13:42:49.073688 11957 net.cpp:425] inception_3b/relu_3x3 <- inception_3b/3x3
I0403 13:42:49.073709 11957 net.cpp:386] inception_3b/relu_3x3 -> inception_3b/3x3 (in-place)
I0403 13:42:49.073988 11957 net.cpp:141] Setting up inception_3b/relu_3x3
I0403 13:42:49.074017 11957 net.cpp:148] Top shape: 24 192 28 28 (3612672)
I0403 13:42:49.074033 11957 net.cpp:156] Memory required for data: 724943904
I0403 13:42:49.074048 11957 layer_factory.hpp:77] Creating layer inception_3b/5x5_reduce
I0403 13:42:49.074070 11957 net.cpp:91] Creating Layer inception_3b/5x5_reduce
I0403 13:42:49.074089 11957 net.cpp:425] inception_3b/5x5_reduce <- inception_3a/output_inception_3a/output_0_split_2
I0403 13:42:49.074110 11957 net.cpp:399] inception_3b/5x5_reduce -> inception_3b/5x5_reduce
I0403 13:42:49.075121 11957 net.cpp:141] Setting up inception_3b/5x5_reduce
I0403 13:42:49.075151 11957 net.cpp:148] Top shape: 24 32 28 28 (602112)
I0403 13:42:49.075168 11957 net.cpp:156] Memory required for data: 727352352
I0403 13:42:49.075186 11957 layer_factory.hpp:77] Creating layer inception_3b/relu_5x5_reduce
I0403 13:42:49.075206 11957 net.cpp:91] Creating Layer inception_3b/relu_5x5_reduce
I0403 13:42:49.075223 11957 net.cpp:425] inception_3b/relu_5x5_reduce <- inception_3b/5x5_reduce
I0403 13:42:49.075242 11957 net.cpp:386] inception_3b/relu_5x5_reduce -> inception_3b/5x5_reduce (in-place)
I0403 13:42:49.075433 11957 net.cpp:141] Setting up inception_3b/relu_5x5_reduce
I0403 13:42:49.075459 11957 net.cpp:148] Top shape: 24 32 28 28 (602112)
I0403 13:42:49.075474 11957 net.cpp:156] Memory required for data: 729760800
I0403 13:42:49.075490 11957 layer_factory.hpp:77] Creating layer inception_3b/5x5
I0403 13:42:49.075513 11957 net.cpp:91] Creating Layer inception_3b/5x5
I0403 13:42:49.075531 11957 net.cpp:425] inception_3b/5x5 <- inception_3b/5x5_reduce
I0403 13:42:49.075557 11957 net.cpp:399] inception_3b/5x5 -> inception_3b/5x5
I0403 13:42:49.077572 11957 net.cpp:141] Setting up inception_3b/5x5
I0403 13:42:49.077601 11957 net.cpp:148] Top shape: 24 96 28 28 (1806336)
I0403 13:42:49.077620 11957 net.cpp:156] Memory required for data: 736986144
I0403 13:42:49.077637 11957 layer_factory.hpp:77] Creating layer inception_3b/relu_5x5
I0403 13:42:49.077659 11957 net.cpp:91] Creating Layer inception_3b/relu_5x5
I0403 13:42:49.077678 11957 net.cpp:425] inception_3b/relu_5x5 <- inception_3b/5x5
I0403 13:42:49.077697 11957 net.cpp:386] inception_3b/relu_5x5 -> inception_3b/5x5 (in-place)
I0403 13:42:49.077885 11957 net.cpp:141] Setting up inception_3b/relu_5x5
I0403 13:42:49.077910 11957 net.cpp:148] Top shape: 24 96 28 28 (1806336)
I0403 13:42:49.077925 11957 net.cpp:156] Memory required for data: 744211488
I0403 13:42:49.077939 11957 layer_factory.hpp:77] Creating layer inception_3b/pool
I0403 13:42:49.077957 11957 net.cpp:91] Creating Layer inception_3b/pool
I0403 13:42:49.077972 11957 net.cpp:425] inception_3b/pool <- inception_3a/output_inception_3a/output_0_split_3
I0403 13:42:49.077992 11957 net.cpp:399] inception_3b/pool -> inception_3b/pool
I0403 13:42:49.078048 11957 net.cpp:141] Setting up inception_3b/pool
I0403 13:42:49.078071 11957 net.cpp:148] Top shape: 24 256 28 28 (4816896)
I0403 13:42:49.078085 11957 net.cpp:156] Memory required for data: 763479072
I0403 13:42:49.078100 11957 layer_factory.hpp:77] Creating layer inception_3b/pool_proj
I0403 13:42:49.078124 11957 net.cpp:91] Creating Layer inception_3b/pool_proj
I0403 13:42:49.078141 11957 net.cpp:425] inception_3b/pool_proj <- inception_3b/pool
I0403 13:42:49.078161 11957 net.cpp:399] inception_3b/pool_proj -> inception_3b/pool_proj
I0403 13:42:49.079211 11957 net.cpp:141] Setting up inception_3b/pool_proj
I0403 13:42:49.079241 11957 net.cpp:148] Top shape: 24 64 28 28 (1204224)
I0403 13:42:49.079257 11957 net.cpp:156] Memory required for data: 768295968
I0403 13:42:49.079277 11957 layer_factory.hpp:77] Creating layer inception_3b/relu_pool_proj
I0403 13:42:49.079300 11957 net.cpp:91] Creating Layer inception_3b/relu_pool_proj
I0403 13:42:49.079319 11957 net.cpp:425] inception_3b/relu_pool_proj <- inception_3b/pool_proj
I0403 13:42:49.079337 11957 net.cpp:386] inception_3b/relu_pool_proj -> inception_3b/pool_proj (in-place)
I0403 13:42:49.079756 11957 net.cpp:141] Setting up inception_3b/relu_pool_proj
I0403 13:42:49.079784 11957 net.cpp:148] Top shape: 24 64 28 28 (1204224)
I0403 13:42:49.079800 11957 net.cpp:156] Memory required for data: 773112864
I0403 13:42:49.079816 11957 layer_factory.hpp:77] Creating layer inception_3b/output
I0403 13:42:49.079848 11957 net.cpp:91] Creating Layer inception_3b/output
I0403 13:42:49.079864 11957 net.cpp:425] inception_3b/output <- inception_3b/1x1
I0403 13:42:49.079882 11957 net.cpp:425] inception_3b/output <- inception_3b/3x3
I0403 13:42:49.079898 11957 net.cpp:425] inception_3b/output <- inception_3b/5x5
I0403 13:42:49.079913 11957 net.cpp:425] inception_3b/output <- inception_3b/pool_proj
I0403 13:42:49.079932 11957 net.cpp:399] inception_3b/output -> inception_3b/output
I0403 13:42:49.079977 11957 net.cpp:141] Setting up inception_3b/output
I0403 13:42:49.080003 11957 net.cpp:148] Top shape: 24 480 28 28 (9031680)
I0403 13:42:49.080018 11957 net.cpp:156] Memory required for data: 809239584
I0403 13:42:49.080034 11957 layer_factory.hpp:77] Creating layer pool3/3x3_s2
I0403 13:42:49.080050 11957 net.cpp:91] Creating Layer pool3/3x3_s2
I0403 13:42:49.080066 11957 net.cpp:425] pool3/3x3_s2 <- inception_3b/output
I0403 13:42:49.080101 11957 net.cpp:399] pool3/3x3_s2 -> pool3/3x3_s2
I0403 13:42:49.080160 11957 net.cpp:141] Setting up pool3/3x3_s2
I0403 13:42:49.080184 11957 net.cpp:148] Top shape: 24 480 14 14 (2257920)
I0403 13:42:49.080199 11957 net.cpp:156] Memory required for data: 818271264
I0403 13:42:49.080214 11957 layer_factory.hpp:77] Creating layer pool3/3x3_s2_pool3/3x3_s2_0_split
I0403 13:42:49.080232 11957 net.cpp:91] Creating Layer pool3/3x3_s2_pool3/3x3_s2_0_split
I0403 13:42:49.080248 11957 net.cpp:425] pool3/3x3_s2_pool3/3x3_s2_0_split <- pool3/3x3_s2
I0403 13:42:49.080265 11957 net.cpp:399] pool3/3x3_s2_pool3/3x3_s2_0_split -> pool3/3x3_s2_pool3/3x3_s2_0_split_0
I0403 13:42:49.080286 11957 net.cpp:399] pool3/3x3_s2_pool3/3x3_s2_0_split -> pool3/3x3_s2_pool3/3x3_s2_0_split_1
I0403 13:42:49.080305 11957 net.cpp:399] pool3/3x3_s2_pool3/3x3_s2_0_split -> pool3/3x3_s2_pool3/3x3_s2_0_split_2
I0403 13:42:49.080328 11957 net.cpp:399] pool3/3x3_s2_pool3/3x3_s2_0_split -> pool3/3x3_s2_pool3/3x3_s2_0_split_3
I0403 13:42:49.080405 11957 net.cpp:141] Setting up pool3/3x3_s2_pool3/3x3_s2_0_split
I0403 13:42:49.080430 11957 net.cpp:148] Top shape: 24 480 14 14 (2257920)
I0403 13:42:49.080446 11957 net.cpp:148] Top shape: 24 480 14 14 (2257920)
I0403 13:42:49.080461 11957 net.cpp:148] Top shape: 24 480 14 14 (2257920)
I0403 13:42:49.080476 11957 net.cpp:148] Top shape: 24 480 14 14 (2257920)
I0403 13:42:49.080490 11957 net.cpp:156] Memory required for data: 854397984
I0403 13:42:49.080504 11957 layer_factory.hpp:77] Creating layer inception_4a/1x1
I0403 13:42:49.080526 11957 net.cpp:91] Creating Layer inception_4a/1x1
I0403 13:42:49.080549 11957 net.cpp:425] inception_4a/1x1 <- pool3/3x3_s2_pool3/3x3_s2_0_split_0
I0403 13:42:49.080571 11957 net.cpp:399] inception_4a/1x1 -> inception_4a/1x1
I0403 13:42:49.082123 11957 net.cpp:141] Setting up inception_4a/1x1
I0403 13:42:49.082151 11957 net.cpp:148] Top shape: 24 192 14 14 (903168)
I0403 13:42:49.082168 11957 net.cpp:156] Memory required for data: 858010656
I0403 13:42:49.082188 11957 layer_factory.hpp:77] Creating layer inception_4a/relu_1x1
I0403 13:42:49.082208 11957 net.cpp:91] Creating Layer inception_4a/relu_1x1
I0403 13:42:49.082224 11957 net.cpp:425] inception_4a/relu_1x1 <- inception_4a/1x1
I0403 13:42:49.082242 11957 net.cpp:386] inception_4a/relu_1x1 -> inception_4a/1x1 (in-place)
I0403 13:42:49.082417 11957 net.cpp:141] Setting up inception_4a/relu_1x1
I0403 13:42:49.082445 11957 net.cpp:148] Top shape: 24 192 14 14 (903168)
I0403 13:42:49.082461 11957 net.cpp:156] Memory required for data: 861623328
I0403 13:42:49.082476 11957 layer_factory.hpp:77] Creating layer inception_4a/3x3_reduce
I0403 13:42:49.082499 11957 net.cpp:91] Creating Layer inception_4a/3x3_reduce
I0403 13:42:49.082515 11957 net.cpp:425] inception_4a/3x3_reduce <- pool3/3x3_s2_pool3/3x3_s2_0_split_1
I0403 13:42:49.082535 11957 net.cpp:399] inception_4a/3x3_reduce -> inception_4a/3x3_reduce
I0403 13:42:49.083804 11957 net.cpp:141] Setting up inception_4a/3x3_reduce
I0403 13:42:49.083833 11957 net.cpp:148] Top shape: 24 96 14 14 (451584)
I0403 13:42:49.083849 11957 net.cpp:156] Memory required for data: 863429664
I0403 13:42:49.083876 11957 layer_factory.hpp:77] Creating layer inception_4a/relu_3x3_reduce
I0403 13:42:49.083897 11957 net.cpp:91] Creating Layer inception_4a/relu_3x3_reduce
I0403 13:42:49.083914 11957 net.cpp:425] inception_4a/relu_3x3_reduce <- inception_4a/3x3_reduce
I0403 13:42:49.083935 11957 net.cpp:386] inception_4a/relu_3x3_reduce -> inception_4a/3x3_reduce (in-place)
I0403 13:42:49.084115 11957 net.cpp:141] Setting up inception_4a/relu_3x3_reduce
I0403 13:42:49.084142 11957 net.cpp:148] Top shape: 24 96 14 14 (451584)
I0403 13:42:49.084161 11957 net.cpp:156] Memory required for data: 865236000
I0403 13:42:49.084177 11957 layer_factory.hpp:77] Creating layer inception_4a/3x3
I0403 13:42:49.084197 11957 net.cpp:91] Creating Layer inception_4a/3x3
I0403 13:42:49.084214 11957 net.cpp:425] inception_4a/3x3 <- inception_4a/3x3_reduce
I0403 13:42:49.084238 11957 net.cpp:399] inception_4a/3x3 -> inception_4a/3x3
I0403 13:42:49.086951 11957 net.cpp:141] Setting up inception_4a/3x3
I0403 13:42:49.086984 11957 net.cpp:148] Top shape: 24 208 14 14 (978432)
I0403 13:42:49.087004 11957 net.cpp:156] Memory required for data: 869149728
I0403 13:42:49.087023 11957 layer_factory.hpp:77] Creating layer inception_4a/relu_3x3
I0403 13:42:49.087044 11957 net.cpp:91] Creating Layer inception_4a/relu_3x3
I0403 13:42:49.087062 11957 net.cpp:425] inception_4a/relu_3x3 <- inception_4a/3x3
I0403 13:42:49.087082 11957 net.cpp:386] inception_4a/relu_3x3 -> inception_4a/3x3 (in-place)
I0403 13:42:49.087359 11957 net.cpp:141] Setting up inception_4a/relu_3x3
I0403 13:42:49.087388 11957 net.cpp:148] Top shape: 24 208 14 14 (978432)
I0403 13:42:49.087404 11957 net.cpp:156] Memory required for data: 873063456
I0403 13:42:49.087419 11957 layer_factory.hpp:77] Creating layer inception_4a/5x5_reduce
I0403 13:42:49.087441 11957 net.cpp:91] Creating Layer inception_4a/5x5_reduce
I0403 13:42:49.087460 11957 net.cpp:425] inception_4a/5x5_reduce <- pool3/3x3_s2_pool3/3x3_s2_0_split_2
I0403 13:42:49.087478 11957 net.cpp:399] inception_4a/5x5_reduce -> inception_4a/5x5_reduce
I0403 13:42:49.088569 11957 net.cpp:141] Setting up inception_4a/5x5_reduce
I0403 13:42:49.088601 11957 net.cpp:148] Top shape: 24 16 14 14 (75264)
I0403 13:42:49.088619 11957 net.cpp:156] Memory required for data: 873364512
I0403 13:42:49.088639 11957 layer_factory.hpp:77] Creating layer inception_4a/relu_5x5_reduce
I0403 13:42:49.088659 11957 net.cpp:91] Creating Layer inception_4a/relu_5x5_reduce
I0403 13:42:49.088675 11957 net.cpp:425] inception_4a/relu_5x5_reduce <- inception_4a/5x5_reduce
I0403 13:42:49.088696 11957 net.cpp:386] inception_4a/relu_5x5_reduce -> inception_4a/5x5_reduce (in-place)
I0403 13:42:49.088873 11957 net.cpp:141] Setting up inception_4a/relu_5x5_reduce
I0403 13:42:49.088898 11957 net.cpp:148] Top shape: 24 16 14 14 (75264)
I0403 13:42:49.088912 11957 net.cpp:156] Memory required for data: 873665568
I0403 13:42:49.088927 11957 layer_factory.hpp:77] Creating layer inception_4a/5x5
I0403 13:42:49.088949 11957 net.cpp:91] Creating Layer inception_4a/5x5
I0403 13:42:49.088966 11957 net.cpp:425] inception_4a/5x5 <- inception_4a/5x5_reduce
I0403 13:42:49.088989 11957 net.cpp:399] inception_4a/5x5 -> inception_4a/5x5
I0403 13:42:49.090075 11957 net.cpp:141] Setting up inception_4a/5x5
I0403 13:42:49.090104 11957 net.cpp:148] Top shape: 24 48 14 14 (225792)
I0403 13:42:49.090122 11957 net.cpp:156] Memory required for data: 874568736
I0403 13:42:49.090142 11957 layer_factory.hpp:77] Creating layer inception_4a/relu_5x5
I0403 13:42:49.090162 11957 net.cpp:91] Creating Layer inception_4a/relu_5x5
I0403 13:42:49.090181 11957 net.cpp:425] inception_4a/relu_5x5 <- inception_4a/5x5
I0403 13:42:49.090199 11957 net.cpp:386] inception_4a/relu_5x5 -> inception_4a/5x5 (in-place)
I0403 13:42:49.090374 11957 net.cpp:141] Setting up inception_4a/relu_5x5
I0403 13:42:49.090400 11957 net.cpp:148] Top shape: 24 48 14 14 (225792)
I0403 13:42:49.090416 11957 net.cpp:156] Memory required for data: 875471904
I0403 13:42:49.090431 11957 layer_factory.hpp:77] Creating layer inception_4a/pool
I0403 13:42:49.090454 11957 net.cpp:91] Creating Layer inception_4a/pool
I0403 13:42:49.090471 11957 net.cpp:425] inception_4a/pool <- pool3/3x3_s2_pool3/3x3_s2_0_split_3
I0403 13:42:49.090489 11957 net.cpp:399] inception_4a/pool -> inception_4a/pool
I0403 13:42:49.090555 11957 net.cpp:141] Setting up inception_4a/pool
I0403 13:42:49.090579 11957 net.cpp:148] Top shape: 24 480 14 14 (2257920)
I0403 13:42:49.090595 11957 net.cpp:156] Memory required for data: 884503584
I0403 13:42:49.090608 11957 layer_factory.hpp:77] Creating layer inception_4a/pool_proj
I0403 13:42:49.090631 11957 net.cpp:91] Creating Layer inception_4a/pool_proj
I0403 13:42:49.090649 11957 net.cpp:425] inception_4a/pool_proj <- inception_4a/pool
I0403 13:42:49.090670 11957 net.cpp:399] inception_4a/pool_proj -> inception_4a/pool_proj
I0403 13:42:49.091840 11957 net.cpp:141] Setting up inception_4a/pool_proj
I0403 13:42:49.091868 11957 net.cpp:148] Top shape: 24 64 14 14 (301056)
I0403 13:42:49.091904 11957 net.cpp:156] Memory required for data: 885707808
I0403 13:42:49.091925 11957 layer_factory.hpp:77] Creating layer inception_4a/relu_pool_proj
I0403 13:42:49.091948 11957 net.cpp:91] Creating Layer inception_4a/relu_pool_proj
I0403 13:42:49.091969 11957 net.cpp:425] inception_4a/relu_pool_proj <- inception_4a/pool_proj
I0403 13:42:49.091987 11957 net.cpp:386] inception_4a/relu_pool_proj -> inception_4a/pool_proj (in-place)
I0403 13:42:49.092268 11957 net.cpp:141] Setting up inception_4a/relu_pool_proj
I0403 13:42:49.092298 11957 net.cpp:148] Top shape: 24 64 14 14 (301056)
I0403 13:42:49.092314 11957 net.cpp:156] Memory required for data: 886912032
I0403 13:42:49.092329 11957 layer_factory.hpp:77] Creating layer inception_4a/output
I0403 13:42:49.092350 11957 net.cpp:91] Creating Layer inception_4a/output
I0403 13:42:49.092366 11957 net.cpp:425] inception_4a/output <- inception_4a/1x1
I0403 13:42:49.092383 11957 net.cpp:425] inception_4a/output <- inception_4a/3x3
I0403 13:42:49.092399 11957 net.cpp:425] inception_4a/output <- inception_4a/5x5
I0403 13:42:49.092416 11957 net.cpp:425] inception_4a/output <- inception_4a/pool_proj
I0403 13:42:49.092432 11957 net.cpp:399] inception_4a/output -> inception_4a/output
I0403 13:42:49.092478 11957 net.cpp:141] Setting up inception_4a/output
I0403 13:42:49.092500 11957 net.cpp:148] Top shape: 24 512 14 14 (2408448)
I0403 13:42:49.092515 11957 net.cpp:156] Memory required for data: 896545824
I0403 13:42:49.092530 11957 layer_factory.hpp:77] Creating layer inception_4a/output_inception_4a/output_0_split
I0403 13:42:49.092553 11957 net.cpp:91] Creating Layer inception_4a/output_inception_4a/output_0_split
I0403 13:42:49.092571 11957 net.cpp:425] inception_4a/output_inception_4a/output_0_split <- inception_4a/output
I0403 13:42:49.092591 11957 net.cpp:399] inception_4a/output_inception_4a/output_0_split -> inception_4a/output_inception_4a/output_0_split_0
I0403 13:42:49.092612 11957 net.cpp:399] inception_4a/output_inception_4a/output_0_split -> inception_4a/output_inception_4a/output_0_split_1
I0403 13:42:49.092634 11957 net.cpp:399] inception_4a/output_inception_4a/output_0_split -> inception_4a/output_inception_4a/output_0_split_2
I0403 13:42:49.092655 11957 net.cpp:399] inception_4a/output_inception_4a/output_0_split -> inception_4a/output_inception_4a/output_0_split_3
I0403 13:42:49.092675 11957 net.cpp:399] inception_4a/output_inception_4a/output_0_split -> inception_4a/output_inception_4a/output_0_split_4
I0403 13:42:49.092767 11957 net.cpp:141] Setting up inception_4a/output_inception_4a/output_0_split
I0403 13:42:49.092792 11957 net.cpp:148] Top shape: 24 512 14 14 (2408448)
I0403 13:42:49.092810 11957 net.cpp:148] Top shape: 24 512 14 14 (2408448)
I0403 13:42:49.092826 11957 net.cpp:148] Top shape: 24 512 14 14 (2408448)
I0403 13:42:49.092841 11957 net.cpp:148] Top shape: 24 512 14 14 (2408448)
I0403 13:42:49.092856 11957 net.cpp:148] Top shape: 24 512 14 14 (2408448)
I0403 13:42:49.092870 11957 net.cpp:156] Memory required for data: 944714784
I0403 13:42:49.092885 11957 layer_factory.hpp:77] Creating layer loss1/ave_pool
I0403 13:42:49.092902 11957 net.cpp:91] Creating Layer loss1/ave_pool
I0403 13:42:49.092917 11957 net.cpp:425] loss1/ave_pool <- inception_4a/output_inception_4a/output_0_split_0
I0403 13:42:49.092937 11957 net.cpp:399] loss1/ave_pool -> loss1/ave_pool
I0403 13:42:49.093147 11957 net.cpp:141] Setting up loss1/ave_pool
I0403 13:42:49.093173 11957 net.cpp:148] Top shape: 24 512 4 4 (196608)
I0403 13:42:49.093188 11957 net.cpp:156] Memory required for data: 945501216
I0403 13:42:49.093202 11957 layer_factory.hpp:77] Creating layer loss1/conv
I0403 13:42:49.093225 11957 net.cpp:91] Creating Layer loss1/conv
I0403 13:42:49.093240 11957 net.cpp:425] loss1/conv <- loss1/ave_pool
I0403 13:42:49.093262 11957 net.cpp:399] loss1/conv -> loss1/conv
I0403 13:42:49.094683 11957 net.cpp:141] Setting up loss1/conv
I0403 13:42:49.094717 11957 net.cpp:148] Top shape: 24 128 4 4 (49152)
I0403 13:42:49.094748 11957 net.cpp:156] Memory required for data: 945697824
I0403 13:42:49.094769 11957 layer_factory.hpp:77] Creating layer loss1/relu_conv
I0403 13:42:49.094789 11957 net.cpp:91] Creating Layer loss1/relu_conv
I0403 13:42:49.094805 11957 net.cpp:425] loss1/relu_conv <- loss1/conv
I0403 13:42:49.094830 11957 net.cpp:386] loss1/relu_conv -> loss1/conv (in-place)
I0403 13:42:49.095110 11957 net.cpp:141] Setting up loss1/relu_conv
I0403 13:42:49.095139 11957 net.cpp:148] Top shape: 24 128 4 4 (49152)
I0403 13:42:49.095155 11957 net.cpp:156] Memory required for data: 945894432
I0403 13:42:49.095170 11957 layer_factory.hpp:77] Creating layer loss1/fc
I0403 13:42:49.095193 11957 net.cpp:91] Creating Layer loss1/fc
I0403 13:42:49.095211 11957 net.cpp:425] loss1/fc <- loss1/conv
I0403 13:42:49.095233 11957 net.cpp:399] loss1/fc -> loss1/fc
I0403 13:42:49.113098 11957 net.cpp:141] Setting up loss1/fc
I0403 13:42:49.113148 11957 net.cpp:148] Top shape: 24 1024 (24576)
I0403 13:42:49.113165 11957 net.cpp:156] Memory required for data: 945992736
I0403 13:42:49.113185 11957 layer_factory.hpp:77] Creating layer loss1/relu_fc
I0403 13:42:49.113207 11957 net.cpp:91] Creating Layer loss1/relu_fc
I0403 13:42:49.113226 11957 net.cpp:425] loss1/relu_fc <- loss1/fc
I0403 13:42:49.113245 11957 net.cpp:386] loss1/relu_fc -> loss1/fc (in-place)
I0403 13:42:49.113447 11957 net.cpp:141] Setting up loss1/relu_fc
I0403 13:42:49.113474 11957 net.cpp:148] Top shape: 24 1024 (24576)
I0403 13:42:49.113490 11957 net.cpp:156] Memory required for data: 946091040
I0403 13:42:49.113505 11957 layer_factory.hpp:77] Creating layer loss1/drop_fc
I0403 13:42:49.113534 11957 net.cpp:91] Creating Layer loss1/drop_fc
I0403 13:42:49.113556 11957 net.cpp:425] loss1/drop_fc <- loss1/fc
I0403 13:42:49.113574 11957 net.cpp:386] loss1/drop_fc -> loss1/fc (in-place)
I0403 13:42:49.113628 11957 net.cpp:141] Setting up loss1/drop_fc
I0403 13:42:49.113651 11957 net.cpp:148] Top shape: 24 1024 (24576)
I0403 13:42:49.113665 11957 net.cpp:156] Memory required for data: 946189344
I0403 13:42:49.113682 11957 layer_factory.hpp:77] Creating layer loss1/classifier_plantvillage
I0403 13:42:49.113699 11957 net.cpp:91] Creating Layer loss1/classifier_plantvillage
I0403 13:42:49.113715 11957 net.cpp:425] loss1/classifier_plantvillage <- loss1/fc
I0403 13:42:49.113736 11957 net.cpp:399] loss1/classifier_plantvillage -> loss1/classifier_plantvillage
I0403 13:42:49.114666 11957 net.cpp:141] Setting up loss1/classifier_plantvillage
I0403 13:42:49.114694 11957 net.cpp:148] Top shape: 24 38 (912)
I0403 13:42:49.114709 11957 net.cpp:156] Memory required for data: 946192992
I0403 13:42:49.114728 11957 layer_factory.hpp:77] Creating layer loss1/classifier_plantvillage_loss1/classifier_plantvillage_0_split
I0403 13:42:49.114748 11957 net.cpp:91] Creating Layer loss1/classifier_plantvillage_loss1/classifier_plantvillage_0_split
I0403 13:42:49.114764 11957 net.cpp:425] loss1/classifier_plantvillage_loss1/classifier_plantvillage_0_split <- loss1/classifier_plantvillage
I0403 13:42:49.114783 11957 net.cpp:399] loss1/classifier_plantvillage_loss1/classifier_plantvillage_0_split -> loss1/classifier_plantvillage_loss1/classifier_plantvillage_0_split_0
I0403 13:42:49.114802 11957 net.cpp:399] loss1/classifier_plantvillage_loss1/classifier_plantvillage_0_split -> loss1/classifier_plantvillage_loss1/classifier_plantvillage_0_split_1
I0403 13:42:49.114827 11957 net.cpp:399] loss1/classifier_plantvillage_loss1/classifier_plantvillage_0_split -> loss1/classifier_plantvillage_loss1/classifier_plantvillage_0_split_2
I0403 13:42:49.114894 11957 net.cpp:141] Setting up loss1/classifier_plantvillage_loss1/classifier_plantvillage_0_split
I0403 13:42:49.114917 11957 net.cpp:148] Top shape: 24 38 (912)
I0403 13:42:49.114934 11957 net.cpp:148] Top shape: 24 38 (912)
I0403 13:42:49.114949 11957 net.cpp:148] Top shape: 24 38 (912)
I0403 13:42:49.114962 11957 net.cpp:156] Memory required for data: 946203936
I0403 13:42:49.114976 11957 layer_factory.hpp:77] Creating layer inception_4b/1x1
I0403 13:42:49.115000 11957 net.cpp:91] Creating Layer inception_4b/1x1
I0403 13:42:49.115038 11957 net.cpp:425] inception_4b/1x1 <- inception_4a/output_inception_4a/output_0_split_1
I0403 13:42:49.115058 11957 net.cpp:399] inception_4b/1x1 -> inception_4b/1x1
I0403 13:42:49.116775 11957 net.cpp:141] Setting up inception_4b/1x1
I0403 13:42:49.116807 11957 net.cpp:148] Top shape: 24 160 14 14 (752640)
I0403 13:42:49.116825 11957 net.cpp:156] Memory required for data: 949214496
I0403 13:42:49.116858 11957 layer_factory.hpp:77] Creating layer inception_4b/relu_1x1
I0403 13:42:49.116878 11957 net.cpp:91] Creating Layer inception_4b/relu_1x1
I0403 13:42:49.116894 11957 net.cpp:425] inception_4b/relu_1x1 <- inception_4b/1x1
I0403 13:42:49.116915 11957 net.cpp:386] inception_4b/relu_1x1 -> inception_4b/1x1 (in-place)
I0403 13:42:49.117097 11957 net.cpp:141] Setting up inception_4b/relu_1x1
I0403 13:42:49.117125 11957 net.cpp:148] Top shape: 24 160 14 14 (752640)
I0403 13:42:49.117139 11957 net.cpp:156] Memory required for data: 952225056
I0403 13:42:49.117153 11957 layer_factory.hpp:77] Creating layer inception_4b/3x3_reduce
I0403 13:42:49.117178 11957 net.cpp:91] Creating Layer inception_4b/3x3_reduce
I0403 13:42:49.117197 11957 net.cpp:425] inception_4b/3x3_reduce <- inception_4a/output_inception_4a/output_0_split_2
I0403 13:42:49.117220 11957 net.cpp:399] inception_4b/3x3_reduce -> inception_4b/3x3_reduce
I0403 13:42:49.118584 11957 net.cpp:141] Setting up inception_4b/3x3_reduce
I0403 13:42:49.118613 11957 net.cpp:148] Top shape: 24 112 14 14 (526848)
I0403 13:42:49.118630 11957 net.cpp:156] Memory required for data: 954332448
I0403 13:42:49.118649 11957 layer_factory.hpp:77] Creating layer inception_4b/relu_3x3_reduce
I0403 13:42:49.118669 11957 net.cpp:91] Creating Layer inception_4b/relu_3x3_reduce
I0403 13:42:49.118685 11957 net.cpp:425] inception_4b/relu_3x3_reduce <- inception_4b/3x3_reduce
I0403 13:42:49.118705 11957 net.cpp:386] inception_4b/relu_3x3_reduce -> inception_4b/3x3_reduce (in-place)
I0403 13:42:49.119004 11957 net.cpp:141] Setting up inception_4b/relu_3x3_reduce
I0403 13:42:49.119031 11957 net.cpp:148] Top shape: 24 112 14 14 (526848)
I0403 13:42:49.119046 11957 net.cpp:156] Memory required for data: 956439840
I0403 13:42:49.119061 11957 layer_factory.hpp:77] Creating layer inception_4b/3x3
I0403 13:42:49.119083 11957 net.cpp:91] Creating Layer inception_4b/3x3
I0403 13:42:49.119102 11957 net.cpp:425] inception_4b/3x3 <- inception_4b/3x3_reduce
I0403 13:42:49.119123 11957 net.cpp:399] inception_4b/3x3 -> inception_4b/3x3
I0403 13:42:49.122098 11957 net.cpp:141] Setting up inception_4b/3x3
I0403 13:42:49.122128 11957 net.cpp:148] Top shape: 24 224 14 14 (1053696)
I0403 13:42:49.122145 11957 net.cpp:156] Memory required for data: 960654624
I0403 13:42:49.122166 11957 layer_factory.hpp:77] Creating layer inception_4b/relu_3x3
I0403 13:42:49.122187 11957 net.cpp:91] Creating Layer inception_4b/relu_3x3
I0403 13:42:49.122205 11957 net.cpp:425] inception_4b/relu_3x3 <- inception_4b/3x3
I0403 13:42:49.122223 11957 net.cpp:386] inception_4b/relu_3x3 -> inception_4b/3x3 (in-place)
I0403 13:42:49.122406 11957 net.cpp:141] Setting up inception_4b/relu_3x3
I0403 13:42:49.122434 11957 net.cpp:148] Top shape: 24 224 14 14 (1053696)
I0403 13:42:49.122449 11957 net.cpp:156] Memory required for data: 964869408
I0403 13:42:49.122465 11957 layer_factory.hpp:77] Creating layer inception_4b/5x5_reduce
I0403 13:42:49.122488 11957 net.cpp:91] Creating Layer inception_4b/5x5_reduce
I0403 13:42:49.122508 11957 net.cpp:425] inception_4b/5x5_reduce <- inception_4a/output_inception_4a/output_0_split_3
I0403 13:42:49.122527 11957 net.cpp:399] inception_4b/5x5_reduce -> inception_4b/5x5_reduce
I0403 13:42:49.123628 11957 net.cpp:141] Setting up inception_4b/5x5_reduce
I0403 13:42:49.123657 11957 net.cpp:148] Top shape: 24 24 14 14 (112896)
I0403 13:42:49.123685 11957 net.cpp:156] Memory required for data: 965320992
I0403 13:42:49.123706 11957 layer_factory.hpp:77] Creating layer inception_4b/relu_5x5_reduce
I0403 13:42:49.123728 11957 net.cpp:91] Creating Layer inception_4b/relu_5x5_reduce
I0403 13:42:49.123761 11957 net.cpp:425] inception_4b/relu_5x5_reduce <- inception_4b/5x5_reduce
I0403 13:42:49.123785 11957 net.cpp:386] inception_4b/relu_5x5_reduce -> inception_4b/5x5_reduce (in-place)
I0403 13:42:49.123975 11957 net.cpp:141] Setting up inception_4b/relu_5x5_reduce
I0403 13:42:49.124001 11957 net.cpp:148] Top shape: 24 24 14 14 (112896)
I0403 13:42:49.124017 11957 net.cpp:156] Memory required for data: 965772576
I0403 13:42:49.124032 11957 layer_factory.hpp:77] Creating layer inception_4b/5x5
I0403 13:42:49.124054 11957 net.cpp:91] Creating Layer inception_4b/5x5
I0403 13:42:49.124073 11957 net.cpp:425] inception_4b/5x5 <- inception_4b/5x5_reduce
I0403 13:42:49.124094 11957 net.cpp:399] inception_4b/5x5 -> inception_4b/5x5
I0403 13:42:49.125344 11957 net.cpp:141] Setting up inception_4b/5x5
I0403 13:42:49.125375 11957 net.cpp:148] Top shape: 24 64 14 14 (301056)
I0403 13:42:49.125393 11957 net.cpp:156] Memory required for data: 966976800
I0403 13:42:49.125412 11957 layer_factory.hpp:77] Creating layer inception_4b/relu_5x5
I0403 13:42:49.125430 11957 net.cpp:91] Creating Layer inception_4b/relu_5x5
I0403 13:42:49.125447 11957 net.cpp:425] inception_4b/relu_5x5 <- inception_4b/5x5
I0403 13:42:49.125466 11957 net.cpp:386] inception_4b/relu_5x5 -> inception_4b/5x5 (in-place)
I0403 13:42:49.125758 11957 net.cpp:141] Setting up inception_4b/relu_5x5
I0403 13:42:49.125787 11957 net.cpp:148] Top shape: 24 64 14 14 (301056)
I0403 13:42:49.125804 11957 net.cpp:156] Memory required for data: 968181024
I0403 13:42:49.125819 11957 layer_factory.hpp:77] Creating layer inception_4b/pool
I0403 13:42:49.125838 11957 net.cpp:91] Creating Layer inception_4b/pool
I0403 13:42:49.125855 11957 net.cpp:425] inception_4b/pool <- inception_4a/output_inception_4a/output_0_split_4
I0403 13:42:49.125877 11957 net.cpp:399] inception_4b/pool -> inception_4b/pool
I0403 13:42:49.125942 11957 net.cpp:141] Setting up inception_4b/pool
I0403 13:42:49.125967 11957 net.cpp:148] Top shape: 24 512 14 14 (2408448)
I0403 13:42:49.125982 11957 net.cpp:156] Memory required for data: 977814816
I0403 13:42:49.125996 11957 layer_factory.hpp:77] Creating layer inception_4b/pool_proj
I0403 13:42:49.126019 11957 net.cpp:91] Creating Layer inception_4b/pool_proj
I0403 13:42:49.126035 11957 net.cpp:425] inception_4b/pool_proj <- inception_4b/pool
I0403 13:42:49.126056 11957 net.cpp:399] inception_4b/pool_proj -> inception_4b/pool_proj
I0403 13:42:49.127276 11957 net.cpp:141] Setting up inception_4b/pool_proj
I0403 13:42:49.127310 11957 net.cpp:148] Top shape: 24 64 14 14 (301056)
I0403 13:42:49.127328 11957 net.cpp:156] Memory required for data: 979019040
I0403 13:42:49.127348 11957 layer_factory.hpp:77] Creating layer inception_4b/relu_pool_proj
I0403 13:42:49.127368 11957 net.cpp:91] Creating Layer inception_4b/relu_pool_proj
I0403 13:42:49.127385 11957 net.cpp:425] inception_4b/relu_pool_proj <- inception_4b/pool_proj
I0403 13:42:49.127406 11957 net.cpp:386] inception_4b/relu_pool_proj -> inception_4b/pool_proj (in-place)
I0403 13:42:49.127591 11957 net.cpp:141] Setting up inception_4b/relu_pool_proj
I0403 13:42:49.127619 11957 net.cpp:148] Top shape: 24 64 14 14 (301056)
I0403 13:42:49.127636 11957 net.cpp:156] Memory required for data: 980223264
I0403 13:42:49.127651 11957 layer_factory.hpp:77] Creating layer inception_4b/output
I0403 13:42:49.127670 11957 net.cpp:91] Creating Layer inception_4b/output
I0403 13:42:49.127686 11957 net.cpp:425] inception_4b/output <- inception_4b/1x1
I0403 13:42:49.127702 11957 net.cpp:425] inception_4b/output <- inception_4b/3x3
I0403 13:42:49.127719 11957 net.cpp:425] inception_4b/output <- inception_4b/5x5
I0403 13:42:49.127737 11957 net.cpp:425] inception_4b/output <- inception_4b/pool_proj
I0403 13:42:49.127758 11957 net.cpp:399] inception_4b/output -> inception_4b/output
I0403 13:42:49.127807 11957 net.cpp:141] Setting up inception_4b/output
I0403 13:42:49.127832 11957 net.cpp:148] Top shape: 24 512 14 14 (2408448)
I0403 13:42:49.127849 11957 net.cpp:156] Memory required for data: 989857056
I0403 13:42:49.127879 11957 layer_factory.hpp:77] Creating layer inception_4b/output_inception_4b/output_0_split
I0403 13:42:49.127897 11957 net.cpp:91] Creating Layer inception_4b/output_inception_4b/output_0_split
I0403 13:42:49.127913 11957 net.cpp:425] inception_4b/output_inception_4b/output_0_split <- inception_4b/output
I0403 13:42:49.127933 11957 net.cpp:399] inception_4b/output_inception_4b/output_0_split -> inception_4b/output_inception_4b/output_0_split_0
I0403 13:42:49.127954 11957 net.cpp:399] inception_4b/output_inception_4b/output_0_split -> inception_4b/output_inception_4b/output_0_split_1
I0403 13:42:49.127976 11957 net.cpp:399] inception_4b/output_inception_4b/output_0_split -> inception_4b/output_inception_4b/output_0_split_2
I0403 13:42:49.127997 11957 net.cpp:399] inception_4b/output_inception_4b/output_0_split -> inception_4b/output_inception_4b/output_0_split_3
I0403 13:42:49.128082 11957 net.cpp:141] Setting up inception_4b/output_inception_4b/output_0_split
I0403 13:42:49.128106 11957 net.cpp:148] Top shape: 24 512 14 14 (2408448)
I0403 13:42:49.128123 11957 net.cpp:148] Top shape: 24 512 14 14 (2408448)
I0403 13:42:49.128139 11957 net.cpp:148] Top shape: 24 512 14 14 (2408448)
I0403 13:42:49.128154 11957 net.cpp:148] Top shape: 24 512 14 14 (2408448)
I0403 13:42:49.128167 11957 net.cpp:156] Memory required for data: 1028392224
I0403 13:42:49.128182 11957 layer_factory.hpp:77] Creating layer inception_4c/1x1
I0403 13:42:49.128206 11957 net.cpp:91] Creating Layer inception_4c/1x1
I0403 13:42:49.128223 11957 net.cpp:425] inception_4c/1x1 <- inception_4b/output_inception_4b/output_0_split_0
I0403 13:42:49.128243 11957 net.cpp:399] inception_4c/1x1 -> inception_4c/1x1
I0403 13:42:49.129680 11957 net.cpp:141] Setting up inception_4c/1x1
I0403 13:42:49.129709 11957 net.cpp:148] Top shape: 24 128 14 14 (602112)
I0403 13:42:49.129726 11957 net.cpp:156] Memory required for data: 1030800672
I0403 13:42:49.129745 11957 layer_factory.hpp:77] Creating layer inception_4c/relu_1x1
I0403 13:42:49.129765 11957 net.cpp:91] Creating Layer inception_4c/relu_1x1
I0403 13:42:49.129784 11957 net.cpp:425] inception_4c/relu_1x1 <- inception_4c/1x1
I0403 13:42:49.129803 11957 net.cpp:386] inception_4c/relu_1x1 -> inception_4c/1x1 (in-place)
I0403 13:42:49.129989 11957 net.cpp:141] Setting up inception_4c/relu_1x1
I0403 13:42:49.130018 11957 net.cpp:148] Top shape: 24 128 14 14 (602112)
I0403 13:42:49.130035 11957 net.cpp:156] Memory required for data: 1033209120
I0403 13:42:49.130050 11957 layer_factory.hpp:77] Creating layer inception_4c/3x3_reduce
I0403 13:42:49.130072 11957 net.cpp:91] Creating Layer inception_4c/3x3_reduce
I0403 13:42:49.130090 11957 net.cpp:425] inception_4c/3x3_reduce <- inception_4b/output_inception_4b/output_0_split_1
I0403 13:42:49.130110 11957 net.cpp:399] inception_4c/3x3_reduce -> inception_4c/3x3_reduce
I0403 13:42:49.132102 11957 net.cpp:141] Setting up inception_4c/3x3_reduce
I0403 13:42:49.132135 11957 net.cpp:148] Top shape: 24 128 14 14 (602112)
I0403 13:42:49.132153 11957 net.cpp:156] Memory required for data: 1035617568
I0403 13:42:49.132172 11957 layer_factory.hpp:77] Creating layer inception_4c/relu_3x3_reduce
I0403 13:42:49.132190 11957 net.cpp:91] Creating Layer inception_4c/relu_3x3_reduce
I0403 13:42:49.132206 11957 net.cpp:425] inception_4c/relu_3x3_reduce <- inception_4c/3x3_reduce
I0403 13:42:49.132223 11957 net.cpp:386] inception_4c/relu_3x3_reduce -> inception_4c/3x3_reduce (in-place)
I0403 13:42:49.132514 11957 net.cpp:141] Setting up inception_4c/relu_3x3_reduce
I0403 13:42:49.132546 11957 net.cpp:148] Top shape: 24 128 14 14 (602112)
I0403 13:42:49.132563 11957 net.cpp:156] Memory required for data: 1038026016
I0403 13:42:49.132580 11957 layer_factory.hpp:77] Creating layer inception_4c/3x3
I0403 13:42:49.132602 11957 net.cpp:91] Creating Layer inception_4c/3x3
I0403 13:42:49.132621 11957 net.cpp:425] inception_4c/3x3 <- inception_4c/3x3_reduce
I0403 13:42:49.132639 11957 net.cpp:399] inception_4c/3x3 -> inception_4c/3x3
I0403 13:42:49.136270 11957 net.cpp:141] Setting up inception_4c/3x3
I0403 13:42:49.136314 11957 net.cpp:148] Top shape: 24 256 14 14 (1204224)
I0403 13:42:49.136334 11957 net.cpp:156] Memory required for data: 1042842912
I0403 13:42:49.136368 11957 layer_factory.hpp:77] Creating layer inception_4c/relu_3x3
I0403 13:42:49.136389 11957 net.cpp:91] Creating Layer inception_4c/relu_3x3
I0403 13:42:49.136407 11957 net.cpp:425] inception_4c/relu_3x3 <- inception_4c/3x3
I0403 13:42:49.136427 11957 net.cpp:386] inception_4c/relu_3x3 -> inception_4c/3x3 (in-place)
I0403 13:42:49.136617 11957 net.cpp:141] Setting up inception_4c/relu_3x3
I0403 13:42:49.136646 11957 net.cpp:148] Top shape: 24 256 14 14 (1204224)
I0403 13:42:49.136661 11957 net.cpp:156] Memory required for data: 1047659808
I0403 13:42:49.136677 11957 layer_factory.hpp:77] Creating layer inception_4c/5x5_reduce
I0403 13:42:49.136700 11957 net.cpp:91] Creating Layer inception_4c/5x5_reduce
I0403 13:42:49.136719 11957 net.cpp:425] inception_4c/5x5_reduce <- inception_4b/output_inception_4b/output_0_split_2
I0403 13:42:49.136741 11957 net.cpp:399] inception_4c/5x5_reduce -> inception_4c/5x5_reduce
I0403 13:42:49.137832 11957 net.cpp:141] Setting up inception_4c/5x5_reduce
I0403 13:42:49.137861 11957 net.cpp:148] Top shape: 24 24 14 14 (112896)
I0403 13:42:49.137879 11957 net.cpp:156] Memory required for data: 1048111392
I0403 13:42:49.137900 11957 layer_factory.hpp:77] Creating layer inception_4c/relu_5x5_reduce
I0403 13:42:49.137919 11957 net.cpp:91] Creating Layer inception_4c/relu_5x5_reduce
I0403 13:42:49.137935 11957 net.cpp:425] inception_4c/relu_5x5_reduce <- inception_4c/5x5_reduce
I0403 13:42:49.137955 11957 net.cpp:386] inception_4c/relu_5x5_reduce -> inception_4c/5x5_reduce (in-place)
I0403 13:42:49.138145 11957 net.cpp:141] Setting up inception_4c/relu_5x5_reduce
I0403 13:42:49.138173 11957 net.cpp:148] Top shape: 24 24 14 14 (112896)
I0403 13:42:49.138190 11957 net.cpp:156] Memory required for data: 1048562976
I0403 13:42:49.138205 11957 layer_factory.hpp:77] Creating layer inception_4c/5x5
I0403 13:42:49.138226 11957 net.cpp:91] Creating Layer inception_4c/5x5
I0403 13:42:49.138247 11957 net.cpp:425] inception_4c/5x5 <- inception_4c/5x5_reduce
I0403 13:42:49.138272 11957 net.cpp:399] inception_4c/5x5 -> inception_4c/5x5
I0403 13:42:49.139518 11957 net.cpp:141] Setting up inception_4c/5x5
I0403 13:42:49.139552 11957 net.cpp:148] Top shape: 24 64 14 14 (301056)
I0403 13:42:49.139571 11957 net.cpp:156] Memory required for data: 1049767200
I0403 13:42:49.139590 11957 layer_factory.hpp:77] Creating layer inception_4c/relu_5x5
I0403 13:42:49.139613 11957 net.cpp:91] Creating Layer inception_4c/relu_5x5
I0403 13:42:49.139632 11957 net.cpp:425] inception_4c/relu_5x5 <- inception_4c/5x5
I0403 13:42:49.139650 11957 net.cpp:386] inception_4c/relu_5x5 -> inception_4c/5x5 (in-place)
I0403 13:42:49.139940 11957 net.cpp:141] Setting up inception_4c/relu_5x5
I0403 13:42:49.139968 11957 net.cpp:148] Top shape: 24 64 14 14 (301056)
I0403 13:42:49.139984 11957 net.cpp:156] Memory required for data: 1050971424
I0403 13:42:49.139999 11957 layer_factory.hpp:77] Creating layer inception_4c/pool
I0403 13:42:49.140017 11957 net.cpp:91] Creating Layer inception_4c/pool
I0403 13:42:49.140033 11957 net.cpp:425] inception_4c/pool <- inception_4b/output_inception_4b/output_0_split_3
I0403 13:42:49.140054 11957 net.cpp:399] inception_4c/pool -> inception_4c/pool
I0403 13:42:49.140123 11957 net.cpp:141] Setting up inception_4c/pool
I0403 13:42:49.140147 11957 net.cpp:148] Top shape: 24 512 14 14 (2408448)
I0403 13:42:49.140163 11957 net.cpp:156] Memory required for data: 1060605216
I0403 13:42:49.140177 11957 layer_factory.hpp:77] Creating layer inception_4c/pool_proj
I0403 13:42:49.140199 11957 net.cpp:91] Creating Layer inception_4c/pool_proj
I0403 13:42:49.140218 11957 net.cpp:425] inception_4c/pool_proj <- inception_4c/pool
I0403 13:42:49.140239 11957 net.cpp:399] inception_4c/pool_proj -> inception_4c/pool_proj
I0403 13:42:49.141455 11957 net.cpp:141] Setting up inception_4c/pool_proj
I0403 13:42:49.141489 11957 net.cpp:148] Top shape: 24 64 14 14 (301056)
I0403 13:42:49.141520 11957 net.cpp:156] Memory required for data: 1061809440
I0403 13:42:49.141561 11957 layer_factory.hpp:77] Creating layer inception_4c/relu_pool_proj
I0403 13:42:49.141585 11957 net.cpp:91] Creating Layer inception_4c/relu_pool_proj
I0403 13:42:49.141603 11957 net.cpp:425] inception_4c/relu_pool_proj <- inception_4c/pool_proj
I0403 13:42:49.141625 11957 net.cpp:386] inception_4c/relu_pool_proj -> inception_4c/pool_proj (in-place)
I0403 13:42:49.141829 11957 net.cpp:141] Setting up inception_4c/relu_pool_proj
I0403 13:42:49.141870 11957 net.cpp:148] Top shape: 24 64 14 14 (301056)
I0403 13:42:49.141885 11957 net.cpp:156] Memory required for data: 1063013664
I0403 13:42:49.141899 11957 layer_factory.hpp:77] Creating layer inception_4c/output
I0403 13:42:49.141917 11957 net.cpp:91] Creating Layer inception_4c/output
I0403 13:42:49.141932 11957 net.cpp:425] inception_4c/output <- inception_4c/1x1
I0403 13:42:49.141949 11957 net.cpp:425] inception_4c/output <- inception_4c/3x3
I0403 13:42:49.141965 11957 net.cpp:425] inception_4c/output <- inception_4c/5x5
I0403 13:42:49.141980 11957 net.cpp:425] inception_4c/output <- inception_4c/pool_proj
I0403 13:42:49.141999 11957 net.cpp:399] inception_4c/output -> inception_4c/output
I0403 13:42:49.142048 11957 net.cpp:141] Setting up inception_4c/output
I0403 13:42:49.142071 11957 net.cpp:148] Top shape: 24 512 14 14 (2408448)
I0403 13:42:49.142086 11957 net.cpp:156] Memory required for data: 1072647456
I0403 13:42:49.142101 11957 layer_factory.hpp:77] Creating layer inception_4c/output_inception_4c/output_0_split
I0403 13:42:49.142117 11957 net.cpp:91] Creating Layer inception_4c/output_inception_4c/output_0_split
I0403 13:42:49.142132 11957 net.cpp:425] inception_4c/output_inception_4c/output_0_split <- inception_4c/output
I0403 13:42:49.142153 11957 net.cpp:399] inception_4c/output_inception_4c/output_0_split -> inception_4c/output_inception_4c/output_0_split_0
I0403 13:42:49.142174 11957 net.cpp:399] inception_4c/output_inception_4c/output_0_split -> inception_4c/output_inception_4c/output_0_split_1
I0403 13:42:49.142194 11957 net.cpp:399] inception_4c/output_inception_4c/output_0_split -> inception_4c/output_inception_4c/output_0_split_2
I0403 13:42:49.142216 11957 net.cpp:399] inception_4c/output_inception_4c/output_0_split -> inception_4c/output_inception_4c/output_0_split_3
I0403 13:42:49.142303 11957 net.cpp:141] Setting up inception_4c/output_inception_4c/output_0_split
I0403 13:42:49.142328 11957 net.cpp:148] Top shape: 24 512 14 14 (2408448)
I0403 13:42:49.142344 11957 net.cpp:148] Top shape: 24 512 14 14 (2408448)
I0403 13:42:49.142359 11957 net.cpp:148] Top shape: 24 512 14 14 (2408448)
I0403 13:42:49.142374 11957 net.cpp:148] Top shape: 24 512 14 14 (2408448)
I0403 13:42:49.142388 11957 net.cpp:156] Memory required for data: 1111182624
I0403 13:42:49.142403 11957 layer_factory.hpp:77] Creating layer inception_4d/1x1
I0403 13:42:49.142426 11957 net.cpp:91] Creating Layer inception_4d/1x1
I0403 13:42:49.142444 11957 net.cpp:425] inception_4d/1x1 <- inception_4c/output_inception_4c/output_0_split_0
I0403 13:42:49.142463 11957 net.cpp:399] inception_4d/1x1 -> inception_4d/1x1
I0403 13:42:49.143842 11957 net.cpp:141] Setting up inception_4d/1x1
I0403 13:42:49.143888 11957 net.cpp:148] Top shape: 24 112 14 14 (526848)
I0403 13:42:49.143904 11957 net.cpp:156] Memory required for data: 1113290016
I0403 13:42:49.143923 11957 layer_factory.hpp:77] Creating layer inception_4d/relu_1x1
I0403 13:42:49.143944 11957 net.cpp:91] Creating Layer inception_4d/relu_1x1
I0403 13:42:49.143961 11957 net.cpp:425] inception_4d/relu_1x1 <- inception_4d/1x1
I0403 13:42:49.143980 11957 net.cpp:386] inception_4d/relu_1x1 -> inception_4d/1x1 (in-place)
I0403 13:42:49.144181 11957 net.cpp:141] Setting up inception_4d/relu_1x1
I0403 13:42:49.144207 11957 net.cpp:148] Top shape: 24 112 14 14 (526848)
I0403 13:42:49.144220 11957 net.cpp:156] Memory required for data: 1115397408
I0403 13:42:49.144235 11957 layer_factory.hpp:77] Creating layer inception_4d/3x3_reduce
I0403 13:42:49.144271 11957 net.cpp:91] Creating Layer inception_4d/3x3_reduce
I0403 13:42:49.144291 11957 net.cpp:425] inception_4d/3x3_reduce <- inception_4c/output_inception_4c/output_0_split_1
I0403 13:42:49.144312 11957 net.cpp:399] inception_4d/3x3_reduce -> inception_4d/3x3_reduce
I0403 13:42:49.145891 11957 net.cpp:141] Setting up inception_4d/3x3_reduce
I0403 13:42:49.145921 11957 net.cpp:148] Top shape: 24 144 14 14 (677376)
I0403 13:42:49.145939 11957 net.cpp:156] Memory required for data: 1118106912
I0403 13:42:49.145968 11957 layer_factory.hpp:77] Creating layer inception_4d/relu_3x3_reduce
I0403 13:42:49.145989 11957 net.cpp:91] Creating Layer inception_4d/relu_3x3_reduce
I0403 13:42:49.146008 11957 net.cpp:425] inception_4d/relu_3x3_reduce <- inception_4d/3x3_reduce
I0403 13:42:49.146026 11957 net.cpp:386] inception_4d/relu_3x3_reduce -> inception_4d/3x3_reduce (in-place)
I0403 13:42:49.146343 11957 net.cpp:141] Setting up inception_4d/relu_3x3_reduce
I0403 13:42:49.146369 11957 net.cpp:148] Top shape: 24 144 14 14 (677376)
I0403 13:42:49.146384 11957 net.cpp:156] Memory required for data: 1120816416
I0403 13:42:49.146400 11957 layer_factory.hpp:77] Creating layer inception_4d/3x3
I0403 13:42:49.146422 11957 net.cpp:91] Creating Layer inception_4d/3x3
I0403 13:42:49.146440 11957 net.cpp:425] inception_4d/3x3 <- inception_4d/3x3_reduce
I0403 13:42:49.146461 11957 net.cpp:399] inception_4d/3x3 -> inception_4d/3x3
I0403 13:42:49.150817 11957 net.cpp:141] Setting up inception_4d/3x3
I0403 13:42:49.150863 11957 net.cpp:148] Top shape: 24 288 14 14 (1354752)
I0403 13:42:49.150879 11957 net.cpp:156] Memory required for data: 1126235424
I0403 13:42:49.150898 11957 layer_factory.hpp:77] Creating layer inception_4d/relu_3x3
I0403 13:42:49.150918 11957 net.cpp:91] Creating Layer inception_4d/relu_3x3
I0403 13:42:49.150934 11957 net.cpp:425] inception_4d/relu_3x3 <- inception_4d/3x3
I0403 13:42:49.150952 11957 net.cpp:386] inception_4d/relu_3x3 -> inception_4d/3x3 (in-place)
I0403 13:42:49.151136 11957 net.cpp:141] Setting up inception_4d/relu_3x3
I0403 13:42:49.151166 11957 net.cpp:148] Top shape: 24 288 14 14 (1354752)
I0403 13:42:49.151183 11957 net.cpp:156] Memory required for data: 1131654432
I0403 13:42:49.151198 11957 layer_factory.hpp:77] Creating layer inception_4d/5x5_reduce
I0403 13:42:49.151219 11957 net.cpp:91] Creating Layer inception_4d/5x5_reduce
I0403 13:42:49.151237 11957 net.cpp:425] inception_4d/5x5_reduce <- inception_4c/output_inception_4c/output_0_split_2
I0403 13:42:49.151260 11957 net.cpp:399] inception_4d/5x5_reduce -> inception_4d/5x5_reduce
I0403 13:42:49.152412 11957 net.cpp:141] Setting up inception_4d/5x5_reduce
I0403 13:42:49.152441 11957 net.cpp:148] Top shape: 24 32 14 14 (150528)
I0403 13:42:49.152457 11957 net.cpp:156] Memory required for data: 1132256544
I0403 13:42:49.152477 11957 layer_factory.hpp:77] Creating layer inception_4d/relu_5x5_reduce
I0403 13:42:49.152497 11957 net.cpp:91] Creating Layer inception_4d/relu_5x5_reduce
I0403 13:42:49.152514 11957 net.cpp:425] inception_4d/relu_5x5_reduce <- inception_4d/5x5_reduce
I0403 13:42:49.152534 11957 net.cpp:386] inception_4d/relu_5x5_reduce -> inception_4d/5x5_reduce (in-place)
I0403 13:42:49.152727 11957 net.cpp:141] Setting up inception_4d/relu_5x5_reduce
I0403 13:42:49.152752 11957 net.cpp:148] Top shape: 24 32 14 14 (150528)
I0403 13:42:49.152766 11957 net.cpp:156] Memory required for data: 1132858656
I0403 13:42:49.152781 11957 layer_factory.hpp:77] Creating layer inception_4d/5x5
I0403 13:42:49.152803 11957 net.cpp:91] Creating Layer inception_4d/5x5
I0403 13:42:49.152820 11957 net.cpp:425] inception_4d/5x5 <- inception_4d/5x5_reduce
I0403 13:42:49.152842 11957 net.cpp:399] inception_4d/5x5 -> inception_4d/5x5
I0403 13:42:49.154325 11957 net.cpp:141] Setting up inception_4d/5x5
I0403 13:42:49.154352 11957 net.cpp:148] Top shape: 24 64 14 14 (301056)
I0403 13:42:49.154368 11957 net.cpp:156] Memory required for data: 1134062880
I0403 13:42:49.154386 11957 layer_factory.hpp:77] Creating layer inception_4d/relu_5x5
I0403 13:42:49.154420 11957 net.cpp:91] Creating Layer inception_4d/relu_5x5
I0403 13:42:49.154438 11957 net.cpp:425] inception_4d/relu_5x5 <- inception_4d/5x5
I0403 13:42:49.154458 11957 net.cpp:386] inception_4d/relu_5x5 -> inception_4d/5x5 (in-place)
I0403 13:42:49.154762 11957 net.cpp:141] Setting up inception_4d/relu_5x5
I0403 13:42:49.154788 11957 net.cpp:148] Top shape: 24 64 14 14 (301056)
I0403 13:42:49.154803 11957 net.cpp:156] Memory required for data: 1135267104
I0403 13:42:49.154817 11957 layer_factory.hpp:77] Creating layer inception_4d/pool
I0403 13:42:49.154835 11957 net.cpp:91] Creating Layer inception_4d/pool
I0403 13:42:49.154851 11957 net.cpp:425] inception_4d/pool <- inception_4c/output_inception_4c/output_0_split_3
I0403 13:42:49.154872 11957 net.cpp:399] inception_4d/pool -> inception_4d/pool
I0403 13:42:49.154939 11957 net.cpp:141] Setting up inception_4d/pool
I0403 13:42:49.154963 11957 net.cpp:148] Top shape: 24 512 14 14 (2408448)
I0403 13:42:49.154978 11957 net.cpp:156] Memory required for data: 1144900896
I0403 13:42:49.154992 11957 layer_factory.hpp:77] Creating layer inception_4d/pool_proj
I0403 13:42:49.155015 11957 net.cpp:91] Creating Layer inception_4d/pool_proj
I0403 13:42:49.155033 11957 net.cpp:425] inception_4d/pool_proj <- inception_4d/pool
I0403 13:42:49.155052 11957 net.cpp:399] inception_4d/pool_proj -> inception_4d/pool_proj
I0403 13:42:49.156863 11957 net.cpp:141] Setting up inception_4d/pool_proj
I0403 13:42:49.156894 11957 net.cpp:148] Top shape: 24 64 14 14 (301056)
I0403 13:42:49.156911 11957 net.cpp:156] Memory required for data: 1146105120
I0403 13:42:49.156930 11957 layer_factory.hpp:77] Creating layer inception_4d/relu_pool_proj
I0403 13:42:49.156949 11957 net.cpp:91] Creating Layer inception_4d/relu_pool_proj
I0403 13:42:49.156965 11957 net.cpp:425] inception_4d/relu_pool_proj <- inception_4d/pool_proj
I0403 13:42:49.156981 11957 net.cpp:386] inception_4d/relu_pool_proj -> inception_4d/pool_proj (in-place)
I0403 13:42:49.157171 11957 net.cpp:141] Setting up inception_4d/relu_pool_proj
I0403 13:42:49.157196 11957 net.cpp:148] Top shape: 24 64 14 14 (301056)
I0403 13:42:49.157210 11957 net.cpp:156] Memory required for data: 1147309344
I0403 13:42:49.157224 11957 layer_factory.hpp:77] Creating layer inception_4d/output
I0403 13:42:49.157241 11957 net.cpp:91] Creating Layer inception_4d/output
I0403 13:42:49.157258 11957 net.cpp:425] inception_4d/output <- inception_4d/1x1
I0403 13:42:49.157274 11957 net.cpp:425] inception_4d/output <- inception_4d/3x3
I0403 13:42:49.157289 11957 net.cpp:425] inception_4d/output <- inception_4d/5x5
I0403 13:42:49.157305 11957 net.cpp:425] inception_4d/output <- inception_4d/pool_proj
I0403 13:42:49.157325 11957 net.cpp:399] inception_4d/output -> inception_4d/output
I0403 13:42:49.157373 11957 net.cpp:141] Setting up inception_4d/output
I0403 13:42:49.157397 11957 net.cpp:148] Top shape: 24 528 14 14 (2483712)
I0403 13:42:49.157412 11957 net.cpp:156] Memory required for data: 1157244192
I0403 13:42:49.157425 11957 layer_factory.hpp:77] Creating layer inception_4d/output_inception_4d/output_0_split
I0403 13:42:49.157445 11957 net.cpp:91] Creating Layer inception_4d/output_inception_4d/output_0_split
I0403 13:42:49.157462 11957 net.cpp:425] inception_4d/output_inception_4d/output_0_split <- inception_4d/output
I0403 13:42:49.157482 11957 net.cpp:399] inception_4d/output_inception_4d/output_0_split -> inception_4d/output_inception_4d/output_0_split_0
I0403 13:42:49.157505 11957 net.cpp:399] inception_4d/output_inception_4d/output_0_split -> inception_4d/output_inception_4d/output_0_split_1
I0403 13:42:49.157526 11957 net.cpp:399] inception_4d/output_inception_4d/output_0_split -> inception_4d/output_inception_4d/output_0_split_2
I0403 13:42:49.157553 11957 net.cpp:399] inception_4d/output_inception_4d/output_0_split -> inception_4d/output_inception_4d/output_0_split_3
I0403 13:42:49.157575 11957 net.cpp:399] inception_4d/output_inception_4d/output_0_split -> inception_4d/output_inception_4d/output_0_split_4
I0403 13:42:49.157677 11957 net.cpp:141] Setting up inception_4d/output_inception_4d/output_0_split
I0403 13:42:49.157713 11957 net.cpp:148] Top shape: 24 528 14 14 (2483712)
I0403 13:42:49.157730 11957 net.cpp:148] Top shape: 24 528 14 14 (2483712)
I0403 13:42:49.157745 11957 net.cpp:148] Top shape: 24 528 14 14 (2483712)
I0403 13:42:49.157760 11957 net.cpp:148] Top shape: 24 528 14 14 (2483712)
I0403 13:42:49.157775 11957 net.cpp:148] Top shape: 24 528 14 14 (2483712)
I0403 13:42:49.157789 11957 net.cpp:156] Memory required for data: 1206918432
I0403 13:42:49.157804 11957 layer_factory.hpp:77] Creating layer loss2/ave_pool
I0403 13:42:49.157824 11957 net.cpp:91] Creating Layer loss2/ave_pool
I0403 13:42:49.157840 11957 net.cpp:425] loss2/ave_pool <- inception_4d/output_inception_4d/output_0_split_0
I0403 13:42:49.157858 11957 net.cpp:399] loss2/ave_pool -> loss2/ave_pool
I0403 13:42:49.158169 11957 net.cpp:141] Setting up loss2/ave_pool
I0403 13:42:49.158198 11957 net.cpp:148] Top shape: 24 528 4 4 (202752)
I0403 13:42:49.158215 11957 net.cpp:156] Memory required for data: 1207729440
I0403 13:42:49.158228 11957 layer_factory.hpp:77] Creating layer loss2/conv
I0403 13:42:49.158251 11957 net.cpp:91] Creating Layer loss2/conv
I0403 13:42:49.158268 11957 net.cpp:425] loss2/conv <- loss2/ave_pool
I0403 13:42:49.158288 11957 net.cpp:399] loss2/conv -> loss2/conv
I0403 13:42:49.160234 11957 net.cpp:141] Setting up loss2/conv
I0403 13:42:49.160264 11957 net.cpp:148] Top shape: 24 128 4 4 (49152)
I0403 13:42:49.160280 11957 net.cpp:156] Memory required for data: 1207926048
I0403 13:42:49.160298 11957 layer_factory.hpp:77] Creating layer loss2/relu_conv
I0403 13:42:49.160318 11957 net.cpp:91] Creating Layer loss2/relu_conv
I0403 13:42:49.160336 11957 net.cpp:425] loss2/relu_conv <- loss2/conv
I0403 13:42:49.160353 11957 net.cpp:386] loss2/relu_conv -> loss2/conv (in-place)
I0403 13:42:49.160650 11957 net.cpp:141] Setting up loss2/relu_conv
I0403 13:42:49.160676 11957 net.cpp:148] Top shape: 24 128 4 4 (49152)
I0403 13:42:49.160691 11957 net.cpp:156] Memory required for data: 1208122656
I0403 13:42:49.160706 11957 layer_factory.hpp:77] Creating layer loss2/fc
I0403 13:42:49.160728 11957 net.cpp:91] Creating Layer loss2/fc
I0403 13:42:49.160748 11957 net.cpp:425] loss2/fc <- loss2/conv
I0403 13:42:49.160765 11957 net.cpp:399] loss2/fc -> loss2/fc
I0403 13:42:49.178612 11957 net.cpp:141] Setting up loss2/fc
I0403 13:42:49.178648 11957 net.cpp:148] Top shape: 24 1024 (24576)
I0403 13:42:49.178664 11957 net.cpp:156] Memory required for data: 1208220960
I0403 13:42:49.178683 11957 layer_factory.hpp:77] Creating layer loss2/relu_fc
I0403 13:42:49.178706 11957 net.cpp:91] Creating Layer loss2/relu_fc
I0403 13:42:49.178726 11957 net.cpp:425] loss2/relu_fc <- loss2/fc
I0403 13:42:49.178746 11957 net.cpp:386] loss2/relu_fc -> loss2/fc (in-place)
I0403 13:42:49.179074 11957 net.cpp:141] Setting up loss2/relu_fc
I0403 13:42:49.179100 11957 net.cpp:148] Top shape: 24 1024 (24576)
I0403 13:42:49.179116 11957 net.cpp:156] Memory required for data: 1208319264
I0403 13:42:49.179131 11957 layer_factory.hpp:77] Creating layer loss2/drop_fc
I0403 13:42:49.179149 11957 net.cpp:91] Creating Layer loss2/drop_fc
I0403 13:42:49.179164 11957 net.cpp:425] loss2/drop_fc <- loss2/fc
I0403 13:42:49.179184 11957 net.cpp:386] loss2/drop_fc -> loss2/fc (in-place)
I0403 13:42:49.179234 11957 net.cpp:141] Setting up loss2/drop_fc
I0403 13:42:49.179256 11957 net.cpp:148] Top shape: 24 1024 (24576)
I0403 13:42:49.179271 11957 net.cpp:156] Memory required for data: 1208417568
I0403 13:42:49.179286 11957 layer_factory.hpp:77] Creating layer loss2/classifier_plantvillage
I0403 13:42:49.179307 11957 net.cpp:91] Creating Layer loss2/classifier_plantvillage
I0403 13:42:49.179324 11957 net.cpp:425] loss2/classifier_plantvillage <- loss2/fc
I0403 13:42:49.179344 11957 net.cpp:399] loss2/classifier_plantvillage -> loss2/classifier_plantvillage
I0403 13:42:49.179766 11957 net.cpp:141] Setting up loss2/classifier_plantvillage
I0403 13:42:49.179791 11957 net.cpp:148] Top shape: 24 38 (912)
I0403 13:42:49.179827 11957 net.cpp:156] Memory required for data: 1208421216
I0403 13:42:49.179847 11957 layer_factory.hpp:77] Creating layer loss2/classifier_plantvillage_loss2/classifier_plantvillage_0_split
I0403 13:42:49.179878 11957 net.cpp:91] Creating Layer loss2/classifier_plantvillage_loss2/classifier_plantvillage_0_split
I0403 13:42:49.179898 11957 net.cpp:425] loss2/classifier_plantvillage_loss2/classifier_plantvillage_0_split <- loss2/classifier_plantvillage
I0403 13:42:49.179915 11957 net.cpp:399] loss2/classifier_plantvillage_loss2/classifier_plantvillage_0_split -> loss2/classifier_plantvillage_loss2/classifier_plantvillage_0_split_0
I0403 13:42:49.179934 11957 net.cpp:399] loss2/classifier_plantvillage_loss2/classifier_plantvillage_0_split -> loss2/classifier_plantvillage_loss2/classifier_plantvillage_0_split_1
I0403 13:42:49.179955 11957 net.cpp:399] loss2/classifier_plantvillage_loss2/classifier_plantvillage_0_split -> loss2/classifier_plantvillage_loss2/classifier_plantvillage_0_split_2
I0403 13:42:49.180032 11957 net.cpp:141] Setting up loss2/classifier_plantvillage_loss2/classifier_plantvillage_0_split
I0403 13:42:49.180054 11957 net.cpp:148] Top shape: 24 38 (912)
I0403 13:42:49.180070 11957 net.cpp:148] Top shape: 24 38 (912)
I0403 13:42:49.180084 11957 net.cpp:148] Top shape: 24 38 (912)
I0403 13:42:49.180097 11957 net.cpp:156] Memory required for data: 1208432160
I0403 13:42:49.180110 11957 layer_factory.hpp:77] Creating layer inception_4e/1x1
I0403 13:42:49.180130 11957 net.cpp:91] Creating Layer inception_4e/1x1
I0403 13:42:49.180147 11957 net.cpp:425] inception_4e/1x1 <- inception_4d/output_inception_4d/output_0_split_1
I0403 13:42:49.180168 11957 net.cpp:399] inception_4e/1x1 -> inception_4e/1x1
I0403 13:42:49.182068 11957 net.cpp:141] Setting up inception_4e/1x1
I0403 13:42:49.182096 11957 net.cpp:148] Top shape: 24 256 14 14 (1204224)
I0403 13:42:49.182111 11957 net.cpp:156] Memory required for data: 1213249056
I0403 13:42:49.182128 11957 layer_factory.hpp:77] Creating layer inception_4e/relu_1x1
I0403 13:42:49.182148 11957 net.cpp:91] Creating Layer inception_4e/relu_1x1
I0403 13:42:49.182165 11957 net.cpp:425] inception_4e/relu_1x1 <- inception_4e/1x1
I0403 13:42:49.182183 11957 net.cpp:386] inception_4e/relu_1x1 -> inception_4e/1x1 (in-place)
I0403 13:42:49.182471 11957 net.cpp:141] Setting up inception_4e/relu_1x1
I0403 13:42:49.182497 11957 net.cpp:148] Top shape: 24 256 14 14 (1204224)
I0403 13:42:49.182512 11957 net.cpp:156] Memory required for data: 1218065952
I0403 13:42:49.182526 11957 layer_factory.hpp:77] Creating layer inception_4e/3x3_reduce
I0403 13:42:49.182553 11957 net.cpp:91] Creating Layer inception_4e/3x3_reduce
I0403 13:42:49.182570 11957 net.cpp:425] inception_4e/3x3_reduce <- inception_4d/output_inception_4d/output_0_split_2
I0403 13:42:49.182591 11957 net.cpp:399] inception_4e/3x3_reduce -> inception_4e/3x3_reduce
I0403 13:42:49.184775 11957 net.cpp:141] Setting up inception_4e/3x3_reduce
I0403 13:42:49.184805 11957 net.cpp:148] Top shape: 24 160 14 14 (752640)
I0403 13:42:49.184834 11957 net.cpp:156] Memory required for data: 1221076512
I0403 13:42:49.184854 11957 layer_factory.hpp:77] Creating layer inception_4e/relu_3x3_reduce
I0403 13:42:49.184887 11957 net.cpp:91] Creating Layer inception_4e/relu_3x3_reduce
I0403 13:42:49.184903 11957 net.cpp:425] inception_4e/relu_3x3_reduce <- inception_4e/3x3_reduce
I0403 13:42:49.184923 11957 net.cpp:386] inception_4e/relu_3x3_reduce -> inception_4e/3x3_reduce (in-place)
I0403 13:42:49.185111 11957 net.cpp:141] Setting up inception_4e/relu_3x3_reduce
I0403 13:42:49.185135 11957 net.cpp:148] Top shape: 24 160 14 14 (752640)
I0403 13:42:49.185149 11957 net.cpp:156] Memory required for data: 1224087072
I0403 13:42:49.185175 11957 layer_factory.hpp:77] Creating layer inception_4e/3x3
I0403 13:42:49.185197 11957 net.cpp:91] Creating Layer inception_4e/3x3
I0403 13:42:49.185214 11957 net.cpp:425] inception_4e/3x3 <- inception_4e/3x3_reduce
I0403 13:42:49.185235 11957 net.cpp:399] inception_4e/3x3 -> inception_4e/3x3
I0403 13:42:49.190256 11957 net.cpp:141] Setting up inception_4e/3x3
I0403 13:42:49.190299 11957 net.cpp:148] Top shape: 24 320 14 14 (1505280)
I0403 13:42:49.190316 11957 net.cpp:156] Memory required for data: 1230108192
I0403 13:42:49.190335 11957 layer_factory.hpp:77] Creating layer inception_4e/relu_3x3
I0403 13:42:49.190356 11957 net.cpp:91] Creating Layer inception_4e/relu_3x3
I0403 13:42:49.190374 11957 net.cpp:425] inception_4e/relu_3x3 <- inception_4e/3x3
I0403 13:42:49.190392 11957 net.cpp:386] inception_4e/relu_3x3 -> inception_4e/3x3 (in-place)
I0403 13:42:49.190719 11957 net.cpp:141] Setting up inception_4e/relu_3x3
I0403 13:42:49.190745 11957 net.cpp:148] Top shape: 24 320 14 14 (1505280)
I0403 13:42:49.190760 11957 net.cpp:156] Memory required for data: 1236129312
I0403 13:42:49.190775 11957 layer_factory.hpp:77] Creating layer inception_4e/5x5_reduce
I0403 13:42:49.190799 11957 net.cpp:91] Creating Layer inception_4e/5x5_reduce
I0403 13:42:49.190817 11957 net.cpp:425] inception_4e/5x5_reduce <- inception_4d/output_inception_4d/output_0_split_3
I0403 13:42:49.190837 11957 net.cpp:399] inception_4e/5x5_reduce -> inception_4e/5x5_reduce
I0403 13:42:49.191911 11957 net.cpp:141] Setting up inception_4e/5x5_reduce
I0403 13:42:49.191938 11957 net.cpp:148] Top shape: 24 32 14 14 (150528)
I0403 13:42:49.191954 11957 net.cpp:156] Memory required for data: 1236731424
I0403 13:42:49.191972 11957 layer_factory.hpp:77] Creating layer inception_4e/relu_5x5_reduce
I0403 13:42:49.191990 11957 net.cpp:91] Creating Layer inception_4e/relu_5x5_reduce
I0403 13:42:49.192006 11957 net.cpp:425] inception_4e/relu_5x5_reduce <- inception_4e/5x5_reduce
I0403 13:42:49.192026 11957 net.cpp:386] inception_4e/relu_5x5_reduce -> inception_4e/5x5_reduce (in-place)
I0403 13:42:49.192337 11957 net.cpp:141] Setting up inception_4e/relu_5x5_reduce
I0403 13:42:49.192363 11957 net.cpp:148] Top shape: 24 32 14 14 (150528)
I0403 13:42:49.192376 11957 net.cpp:156] Memory required for data: 1237333536
I0403 13:42:49.192391 11957 layer_factory.hpp:77] Creating layer inception_4e/5x5
I0403 13:42:49.192430 11957 net.cpp:91] Creating Layer inception_4e/5x5
I0403 13:42:49.192447 11957 net.cpp:425] inception_4e/5x5 <- inception_4e/5x5_reduce
I0403 13:42:49.192466 11957 net.cpp:399] inception_4e/5x5 -> inception_4e/5x5
I0403 13:42:49.194350 11957 net.cpp:141] Setting up inception_4e/5x5
I0403 13:42:49.194380 11957 net.cpp:148] Top shape: 24 128 14 14 (602112)
I0403 13:42:49.194396 11957 net.cpp:156] Memory required for data: 1239741984
I0403 13:42:49.194414 11957 layer_factory.hpp:77] Creating layer inception_4e/relu_5x5
I0403 13:42:49.194432 11957 net.cpp:91] Creating Layer inception_4e/relu_5x5
I0403 13:42:49.194447 11957 net.cpp:425] inception_4e/relu_5x5 <- inception_4e/5x5
I0403 13:42:49.194468 11957 net.cpp:386] inception_4e/relu_5x5 -> inception_4e/5x5 (in-place)
I0403 13:42:49.194675 11957 net.cpp:141] Setting up inception_4e/relu_5x5
I0403 13:42:49.194700 11957 net.cpp:148] Top shape: 24 128 14 14 (602112)
I0403 13:42:49.194715 11957 net.cpp:156] Memory required for data: 1242150432
I0403 13:42:49.194730 11957 layer_factory.hpp:77] Creating layer inception_4e/pool
I0403 13:42:49.194747 11957 net.cpp:91] Creating Layer inception_4e/pool
I0403 13:42:49.194762 11957 net.cpp:425] inception_4e/pool <- inception_4d/output_inception_4d/output_0_split_4
I0403 13:42:49.194783 11957 net.cpp:399] inception_4e/pool -> inception_4e/pool
I0403 13:42:49.194854 11957 net.cpp:141] Setting up inception_4e/pool
I0403 13:42:49.194877 11957 net.cpp:148] Top shape: 24 528 14 14 (2483712)
I0403 13:42:49.194891 11957 net.cpp:156] Memory required for data: 1252085280
I0403 13:42:49.194905 11957 layer_factory.hpp:77] Creating layer inception_4e/pool_proj
I0403 13:42:49.194926 11957 net.cpp:91] Creating Layer inception_4e/pool_proj
I0403 13:42:49.194943 11957 net.cpp:425] inception_4e/pool_proj <- inception_4e/pool
I0403 13:42:49.194963 11957 net.cpp:399] inception_4e/pool_proj -> inception_4e/pool_proj
I0403 13:42:49.196460 11957 net.cpp:141] Setting up inception_4e/pool_proj
I0403 13:42:49.196502 11957 net.cpp:148] Top shape: 24 128 14 14 (602112)
I0403 13:42:49.196519 11957 net.cpp:156] Memory required for data: 1254493728
I0403 13:42:49.196542 11957 layer_factory.hpp:77] Creating layer inception_4e/relu_pool_proj
I0403 13:42:49.196575 11957 net.cpp:91] Creating Layer inception_4e/relu_pool_proj
I0403 13:42:49.196593 11957 net.cpp:425] inception_4e/relu_pool_proj <- inception_4e/pool_proj
I0403 13:42:49.196609 11957 net.cpp:386] inception_4e/relu_pool_proj -> inception_4e/pool_proj (in-place)
I0403 13:42:49.196928 11957 net.cpp:141] Setting up inception_4e/relu_pool_proj
I0403 13:42:49.196956 11957 net.cpp:148] Top shape: 24 128 14 14 (602112)
I0403 13:42:49.196974 11957 net.cpp:156] Memory required for data: 1256902176
I0403 13:42:49.196987 11957 layer_factory.hpp:77] Creating layer inception_4e/output
I0403 13:42:49.197005 11957 net.cpp:91] Creating Layer inception_4e/output
I0403 13:42:49.197021 11957 net.cpp:425] inception_4e/output <- inception_4e/1x1
I0403 13:42:49.197049 11957 net.cpp:425] inception_4e/output <- inception_4e/3x3
I0403 13:42:49.197065 11957 net.cpp:425] inception_4e/output <- inception_4e/5x5
I0403 13:42:49.197080 11957 net.cpp:425] inception_4e/output <- inception_4e/pool_proj
I0403 13:42:49.197098 11957 net.cpp:399] inception_4e/output -> inception_4e/output
I0403 13:42:49.197147 11957 net.cpp:141] Setting up inception_4e/output
I0403 13:42:49.197170 11957 net.cpp:148] Top shape: 24 832 14 14 (3913728)
I0403 13:42:49.197185 11957 net.cpp:156] Memory required for data: 1272557088
I0403 13:42:49.197199 11957 layer_factory.hpp:77] Creating layer pool4/3x3_s2
I0403 13:42:49.197218 11957 net.cpp:91] Creating Layer pool4/3x3_s2
I0403 13:42:49.197233 11957 net.cpp:425] pool4/3x3_s2 <- inception_4e/output
I0403 13:42:49.197252 11957 net.cpp:399] pool4/3x3_s2 -> pool4/3x3_s2
I0403 13:42:49.197319 11957 net.cpp:141] Setting up pool4/3x3_s2
I0403 13:42:49.197341 11957 net.cpp:148] Top shape: 24 832 7 7 (978432)
I0403 13:42:49.197355 11957 net.cpp:156] Memory required for data: 1276470816
I0403 13:42:49.197371 11957 layer_factory.hpp:77] Creating layer pool4/3x3_s2_pool4/3x3_s2_0_split
I0403 13:42:49.197386 11957 net.cpp:91] Creating Layer pool4/3x3_s2_pool4/3x3_s2_0_split
I0403 13:42:49.197402 11957 net.cpp:425] pool4/3x3_s2_pool4/3x3_s2_0_split <- pool4/3x3_s2
I0403 13:42:49.197420 11957 net.cpp:399] pool4/3x3_s2_pool4/3x3_s2_0_split -> pool4/3x3_s2_pool4/3x3_s2_0_split_0
I0403 13:42:49.197440 11957 net.cpp:399] pool4/3x3_s2_pool4/3x3_s2_0_split -> pool4/3x3_s2_pool4/3x3_s2_0_split_1
I0403 13:42:49.197461 11957 net.cpp:399] pool4/3x3_s2_pool4/3x3_s2_0_split -> pool4/3x3_s2_pool4/3x3_s2_0_split_2
I0403 13:42:49.197480 11957 net.cpp:399] pool4/3x3_s2_pool4/3x3_s2_0_split -> pool4/3x3_s2_pool4/3x3_s2_0_split_3
I0403 13:42:49.197576 11957 net.cpp:141] Setting up pool4/3x3_s2_pool4/3x3_s2_0_split
I0403 13:42:49.197602 11957 net.cpp:148] Top shape: 24 832 7 7 (978432)
I0403 13:42:49.197619 11957 net.cpp:148] Top shape: 24 832 7 7 (978432)
I0403 13:42:49.197634 11957 net.cpp:148] Top shape: 24 832 7 7 (978432)
I0403 13:42:49.197649 11957 net.cpp:148] Top shape: 24 832 7 7 (978432)
I0403 13:42:49.197664 11957 net.cpp:156] Memory required for data: 1292125728
I0403 13:42:49.197677 11957 layer_factory.hpp:77] Creating layer inception_5a/1x1
I0403 13:42:49.197698 11957 net.cpp:91] Creating Layer inception_5a/1x1
I0403 13:42:49.197715 11957 net.cpp:425] inception_5a/1x1 <- pool4/3x3_s2_pool4/3x3_s2_0_split_0
I0403 13:42:49.197734 11957 net.cpp:399] inception_5a/1x1 -> inception_5a/1x1
I0403 13:42:49.200619 11957 net.cpp:141] Setting up inception_5a/1x1
I0403 13:42:49.200654 11957 net.cpp:148] Top shape: 24 256 7 7 (301056)
I0403 13:42:49.200671 11957 net.cpp:156] Memory required for data: 1293329952
I0403 13:42:49.200691 11957 layer_factory.hpp:77] Creating layer inception_5a/relu_1x1
I0403 13:42:49.200711 11957 net.cpp:91] Creating Layer inception_5a/relu_1x1
I0403 13:42:49.200728 11957 net.cpp:425] inception_5a/relu_1x1 <- inception_5a/1x1
I0403 13:42:49.200748 11957 net.cpp:386] inception_5a/relu_1x1 -> inception_5a/1x1 (in-place)
I0403 13:42:49.201076 11957 net.cpp:141] Setting up inception_5a/relu_1x1
I0403 13:42:49.201104 11957 net.cpp:148] Top shape: 24 256 7 7 (301056)
I0403 13:42:49.201119 11957 net.cpp:156] Memory required for data: 1294534176
I0403 13:42:49.201134 11957 layer_factory.hpp:77] Creating layer inception_5a/3x3_reduce
I0403 13:42:49.201158 11957 net.cpp:91] Creating Layer inception_5a/3x3_reduce
I0403 13:42:49.201175 11957 net.cpp:425] inception_5a/3x3_reduce <- pool4/3x3_s2_pool4/3x3_s2_0_split_1
I0403 13:42:49.201195 11957 net.cpp:399] inception_5a/3x3_reduce -> inception_5a/3x3_reduce
I0403 13:42:49.203670 11957 net.cpp:141] Setting up inception_5a/3x3_reduce
I0403 13:42:49.203699 11957 net.cpp:148] Top shape: 24 160 7 7 (188160)
I0403 13:42:49.203716 11957 net.cpp:156] Memory required for data: 1295286816
I0403 13:42:49.203735 11957 layer_factory.hpp:77] Creating layer inception_5a/relu_3x3_reduce
I0403 13:42:49.203760 11957 net.cpp:91] Creating Layer inception_5a/relu_3x3_reduce
I0403 13:42:49.203778 11957 net.cpp:425] inception_5a/relu_3x3_reduce <- inception_5a/3x3_reduce
I0403 13:42:49.203797 11957 net.cpp:386] inception_5a/relu_3x3_reduce -> inception_5a/3x3_reduce (in-place)
I0403 13:42:49.203989 11957 net.cpp:141] Setting up inception_5a/relu_3x3_reduce
I0403 13:42:49.204015 11957 net.cpp:148] Top shape: 24 160 7 7 (188160)
I0403 13:42:49.204030 11957 net.cpp:156] Memory required for data: 1296039456
I0403 13:42:49.204044 11957 layer_factory.hpp:77] Creating layer inception_5a/3x3
I0403 13:42:49.204067 11957 net.cpp:91] Creating Layer inception_5a/3x3
I0403 13:42:49.204085 11957 net.cpp:425] inception_5a/3x3 <- inception_5a/3x3_reduce
I0403 13:42:49.204105 11957 net.cpp:399] inception_5a/3x3 -> inception_5a/3x3
I0403 13:42:49.209290 11957 net.cpp:141] Setting up inception_5a/3x3
I0403 13:42:49.209321 11957 net.cpp:148] Top shape: 24 320 7 7 (376320)
I0403 13:42:49.209337 11957 net.cpp:156] Memory required for data: 1297544736
I0403 13:42:49.209355 11957 layer_factory.hpp:77] Creating layer inception_5a/relu_3x3
I0403 13:42:49.209373 11957 net.cpp:91] Creating Layer inception_5a/relu_3x3
I0403 13:42:49.209390 11957 net.cpp:425] inception_5a/relu_3x3 <- inception_5a/3x3
I0403 13:42:49.209413 11957 net.cpp:386] inception_5a/relu_3x3 -> inception_5a/3x3 (in-place)
I0403 13:42:49.209717 11957 net.cpp:141] Setting up inception_5a/relu_3x3
I0403 13:42:49.209743 11957 net.cpp:148] Top shape: 24 320 7 7 (376320)
I0403 13:42:49.209758 11957 net.cpp:156] Memory required for data: 1299050016
I0403 13:42:49.209772 11957 layer_factory.hpp:77] Creating layer inception_5a/5x5_reduce
I0403 13:42:49.209795 11957 net.cpp:91] Creating Layer inception_5a/5x5_reduce
I0403 13:42:49.209815 11957 net.cpp:425] inception_5a/5x5_reduce <- pool4/3x3_s2_pool4/3x3_s2_0_split_2
I0403 13:42:49.209837 11957 net.cpp:399] inception_5a/5x5_reduce -> inception_5a/5x5_reduce
I0403 13:42:49.211019 11957 net.cpp:141] Setting up inception_5a/5x5_reduce
I0403 13:42:49.211051 11957 net.cpp:148] Top shape: 24 32 7 7 (37632)
I0403 13:42:49.211069 11957 net.cpp:156] Memory required for data: 1299200544
I0403 13:42:49.211089 11957 layer_factory.hpp:77] Creating layer inception_5a/relu_5x5_reduce
I0403 13:42:49.211110 11957 net.cpp:91] Creating Layer inception_5a/relu_5x5_reduce
I0403 13:42:49.211129 11957 net.cpp:425] inception_5a/relu_5x5_reduce <- inception_5a/5x5_reduce
I0403 13:42:49.211146 11957 net.cpp:386] inception_5a/relu_5x5_reduce -> inception_5a/5x5_reduce (in-place)
I0403 13:42:49.211450 11957 net.cpp:141] Setting up inception_5a/relu_5x5_reduce
I0403 13:42:49.211477 11957 net.cpp:148] Top shape: 24 32 7 7 (37632)
I0403 13:42:49.211491 11957 net.cpp:156] Memory required for data: 1299351072
I0403 13:42:49.211506 11957 layer_factory.hpp:77] Creating layer inception_5a/5x5
I0403 13:42:49.211529 11957 net.cpp:91] Creating Layer inception_5a/5x5
I0403 13:42:49.211550 11957 net.cpp:425] inception_5a/5x5 <- inception_5a/5x5_reduce
I0403 13:42:49.211573 11957 net.cpp:399] inception_5a/5x5 -> inception_5a/5x5
I0403 13:42:49.213335 11957 net.cpp:141] Setting up inception_5a/5x5
I0403 13:42:49.213376 11957 net.cpp:148] Top shape: 24 128 7 7 (150528)
I0403 13:42:49.213392 11957 net.cpp:156] Memory required for data: 1299953184
I0403 13:42:49.213410 11957 layer_factory.hpp:77] Creating layer inception_5a/relu_5x5
I0403 13:42:49.213428 11957 net.cpp:91] Creating Layer inception_5a/relu_5x5
I0403 13:42:49.213445 11957 net.cpp:425] inception_5a/relu_5x5 <- inception_5a/5x5
I0403 13:42:49.213465 11957 net.cpp:386] inception_5a/relu_5x5 -> inception_5a/5x5 (in-place)
I0403 13:42:49.213681 11957 net.cpp:141] Setting up inception_5a/relu_5x5
I0403 13:42:49.213708 11957 net.cpp:148] Top shape: 24 128 7 7 (150528)
I0403 13:42:49.213723 11957 net.cpp:156] Memory required for data: 1300555296
I0403 13:42:49.213738 11957 layer_factory.hpp:77] Creating layer inception_5a/pool
I0403 13:42:49.213757 11957 net.cpp:91] Creating Layer inception_5a/pool
I0403 13:42:49.213776 11957 net.cpp:425] inception_5a/pool <- pool4/3x3_s2_pool4/3x3_s2_0_split_3
I0403 13:42:49.213795 11957 net.cpp:399] inception_5a/pool -> inception_5a/pool
I0403 13:42:49.213881 11957 net.cpp:141] Setting up inception_5a/pool
I0403 13:42:49.213904 11957 net.cpp:148] Top shape: 24 832 7 7 (978432)
I0403 13:42:49.213918 11957 net.cpp:156] Memory required for data: 1304469024
I0403 13:42:49.213933 11957 layer_factory.hpp:77] Creating layer inception_5a/pool_proj
I0403 13:42:49.213955 11957 net.cpp:91] Creating Layer inception_5a/pool_proj
I0403 13:42:49.213973 11957 net.cpp:425] inception_5a/pool_proj <- inception_5a/pool
I0403 13:42:49.213994 11957 net.cpp:399] inception_5a/pool_proj -> inception_5a/pool_proj
I0403 13:42:49.216296 11957 net.cpp:141] Setting up inception_5a/pool_proj
I0403 13:42:49.216328 11957 net.cpp:148] Top shape: 24 128 7 7 (150528)
I0403 13:42:49.216346 11957 net.cpp:156] Memory required for data: 1305071136
I0403 13:42:49.216366 11957 layer_factory.hpp:77] Creating layer inception_5a/relu_pool_proj
I0403 13:42:49.216384 11957 net.cpp:91] Creating Layer inception_5a/relu_pool_proj
I0403 13:42:49.216401 11957 net.cpp:425] inception_5a/relu_pool_proj <- inception_5a/pool_proj
I0403 13:42:49.216420 11957 net.cpp:386] inception_5a/relu_pool_proj -> inception_5a/pool_proj (in-place)
I0403 13:42:49.216738 11957 net.cpp:141] Setting up inception_5a/relu_pool_proj
I0403 13:42:49.216770 11957 net.cpp:148] Top shape: 24 128 7 7 (150528)
I0403 13:42:49.216787 11957 net.cpp:156] Memory required for data: 1305673248
I0403 13:42:49.216802 11957 layer_factory.hpp:77] Creating layer inception_5a/output
I0403 13:42:49.216820 11957 net.cpp:91] Creating Layer inception_5a/output
I0403 13:42:49.216848 11957 net.cpp:425] inception_5a/output <- inception_5a/1x1
I0403 13:42:49.216864 11957 net.cpp:425] inception_5a/output <- inception_5a/3x3
I0403 13:42:49.216881 11957 net.cpp:425] inception_5a/output <- inception_5a/5x5
I0403 13:42:49.216897 11957 net.cpp:425] inception_5a/output <- inception_5a/pool_proj
I0403 13:42:49.216914 11957 net.cpp:399] inception_5a/output -> inception_5a/output
I0403 13:42:49.216967 11957 net.cpp:141] Setting up inception_5a/output
I0403 13:42:49.216991 11957 net.cpp:148] Top shape: 24 832 7 7 (978432)
I0403 13:42:49.217005 11957 net.cpp:156] Memory required for data: 1309586976
I0403 13:42:49.217020 11957 layer_factory.hpp:77] Creating layer inception_5a/output_inception_5a/output_0_split
I0403 13:42:49.217037 11957 net.cpp:91] Creating Layer inception_5a/output_inception_5a/output_0_split
I0403 13:42:49.217052 11957 net.cpp:425] inception_5a/output_inception_5a/output_0_split <- inception_5a/output
I0403 13:42:49.217072 11957 net.cpp:399] inception_5a/output_inception_5a/output_0_split -> inception_5a/output_inception_5a/output_0_split_0
I0403 13:42:49.217093 11957 net.cpp:399] inception_5a/output_inception_5a/output_0_split -> inception_5a/output_inception_5a/output_0_split_1
I0403 13:42:49.217115 11957 net.cpp:399] inception_5a/output_inception_5a/output_0_split -> inception_5a/output_inception_5a/output_0_split_2
I0403 13:42:49.217139 11957 net.cpp:399] inception_5a/output_inception_5a/output_0_split -> inception_5a/output_inception_5a/output_0_split_3
I0403 13:42:49.217252 11957 net.cpp:141] Setting up inception_5a/output_inception_5a/output_0_split
I0403 13:42:49.217278 11957 net.cpp:148] Top shape: 24 832 7 7 (978432)
I0403 13:42:49.217293 11957 net.cpp:148] Top shape: 24 832 7 7 (978432)
I0403 13:42:49.217308 11957 net.cpp:148] Top shape: 24 832 7 7 (978432)
I0403 13:42:49.217324 11957 net.cpp:148] Top shape: 24 832 7 7 (978432)
I0403 13:42:49.217336 11957 net.cpp:156] Memory required for data: 1325241888
I0403 13:42:49.217350 11957 layer_factory.hpp:77] Creating layer inception_5b/1x1
I0403 13:42:49.217372 11957 net.cpp:91] Creating Layer inception_5b/1x1
I0403 13:42:49.217391 11957 net.cpp:425] inception_5b/1x1 <- inception_5a/output_inception_5a/output_0_split_0
I0403 13:42:49.217411 11957 net.cpp:399] inception_5b/1x1 -> inception_5b/1x1
I0403 13:42:49.221209 11957 net.cpp:141] Setting up inception_5b/1x1
I0403 13:42:49.221240 11957 net.cpp:148] Top shape: 24 384 7 7 (451584)
I0403 13:42:49.221256 11957 net.cpp:156] Memory required for data: 1327048224
I0403 13:42:49.221274 11957 layer_factory.hpp:77] Creating layer inception_5b/relu_1x1
I0403 13:42:49.221308 11957 net.cpp:91] Creating Layer inception_5b/relu_1x1
I0403 13:42:49.221323 11957 net.cpp:425] inception_5b/relu_1x1 <- inception_5b/1x1
I0403 13:42:49.221340 11957 net.cpp:386] inception_5b/relu_1x1 -> inception_5b/1x1 (in-place)
I0403 13:42:49.221647 11957 net.cpp:141] Setting up inception_5b/relu_1x1
I0403 13:42:49.221673 11957 net.cpp:148] Top shape: 24 384 7 7 (451584)
I0403 13:42:49.221688 11957 net.cpp:156] Memory required for data: 1328854560
I0403 13:42:49.221704 11957 layer_factory.hpp:77] Creating layer inception_5b/3x3_reduce
I0403 13:42:49.221724 11957 net.cpp:91] Creating Layer inception_5b/3x3_reduce
I0403 13:42:49.221742 11957 net.cpp:425] inception_5b/3x3_reduce <- inception_5a/output_inception_5a/output_0_split_1
I0403 13:42:49.221763 11957 net.cpp:399] inception_5b/3x3_reduce -> inception_5b/3x3_reduce
I0403 13:42:49.224419 11957 net.cpp:141] Setting up inception_5b/3x3_reduce
I0403 13:42:49.224448 11957 net.cpp:148] Top shape: 24 192 7 7 (225792)
I0403 13:42:49.224463 11957 net.cpp:156] Memory required for data: 1329757728
I0403 13:42:49.224483 11957 layer_factory.hpp:77] Creating layer inception_5b/relu_3x3_reduce
I0403 13:42:49.224515 11957 net.cpp:91] Creating Layer inception_5b/relu_3x3_reduce
I0403 13:42:49.224534 11957 net.cpp:425] inception_5b/relu_3x3_reduce <- inception_5b/3x3_reduce
I0403 13:42:49.224577 11957 net.cpp:386] inception_5b/relu_3x3_reduce -> inception_5b/3x3_reduce (in-place)
I0403 13:42:49.224777 11957 net.cpp:141] Setting up inception_5b/relu_3x3_reduce
I0403 13:42:49.224804 11957 net.cpp:148] Top shape: 24 192 7 7 (225792)
I0403 13:42:49.224819 11957 net.cpp:156] Memory required for data: 1330660896
I0403 13:42:49.224845 11957 layer_factory.hpp:77] Creating layer inception_5b/3x3
I0403 13:42:49.224869 11957 net.cpp:91] Creating Layer inception_5b/3x3
I0403 13:42:49.224886 11957 net.cpp:425] inception_5b/3x3 <- inception_5b/3x3_reduce
I0403 13:42:49.224908 11957 net.cpp:399] inception_5b/3x3 -> inception_5b/3x3
I0403 13:42:49.231669 11957 net.cpp:141] Setting up inception_5b/3x3
I0403 13:42:49.231703 11957 net.cpp:148] Top shape: 24 384 7 7 (451584)
I0403 13:42:49.231719 11957 net.cpp:156] Memory required for data: 1332467232
I0403 13:42:49.231739 11957 layer_factory.hpp:77] Creating layer inception_5b/relu_3x3
I0403 13:42:49.231758 11957 net.cpp:91] Creating Layer inception_5b/relu_3x3
I0403 13:42:49.231776 11957 net.cpp:425] inception_5b/relu_3x3 <- inception_5b/3x3
I0403 13:42:49.231796 11957 net.cpp:386] inception_5b/relu_3x3 -> inception_5b/3x3 (in-place)
I0403 13:42:49.232087 11957 net.cpp:141] Setting up inception_5b/relu_3x3
I0403 13:42:49.232116 11957 net.cpp:148] Top shape: 24 384 7 7 (451584)
I0403 13:42:49.232132 11957 net.cpp:156] Memory required for data: 1334273568
I0403 13:42:49.232148 11957 layer_factory.hpp:77] Creating layer inception_5b/5x5_reduce
I0403 13:42:49.232190 11957 net.cpp:91] Creating Layer inception_5b/5x5_reduce
I0403 13:42:49.232211 11957 net.cpp:425] inception_5b/5x5_reduce <- inception_5a/output_inception_5a/output_0_split_2
I0403 13:42:49.232230 11957 net.cpp:399] inception_5b/5x5_reduce -> inception_5b/5x5_reduce
I0403 13:42:49.233510 11957 net.cpp:141] Setting up inception_5b/5x5_reduce
I0403 13:42:49.233546 11957 net.cpp:148] Top shape: 24 48 7 7 (56448)
I0403 13:42:49.233566 11957 net.cpp:156] Memory required for data: 1334499360
I0403 13:42:49.233585 11957 layer_factory.hpp:77] Creating layer inception_5b/relu_5x5_reduce
I0403 13:42:49.233604 11957 net.cpp:91] Creating Layer inception_5b/relu_5x5_reduce
I0403 13:42:49.233621 11957 net.cpp:425] inception_5b/relu_5x5_reduce <- inception_5b/5x5_reduce
I0403 13:42:49.233639 11957 net.cpp:386] inception_5b/relu_5x5_reduce -> inception_5b/5x5_reduce (in-place)
I0403 13:42:49.234012 11957 net.cpp:141] Setting up inception_5b/relu_5x5_reduce
I0403 13:42:49.234040 11957 net.cpp:148] Top shape: 24 48 7 7 (56448)
I0403 13:42:49.234055 11957 net.cpp:156] Memory required for data: 1334725152
I0403 13:42:49.234071 11957 layer_factory.hpp:77] Creating layer inception_5b/5x5
I0403 13:42:49.234091 11957 net.cpp:91] Creating Layer inception_5b/5x5
I0403 13:42:49.234108 11957 net.cpp:425] inception_5b/5x5 <- inception_5b/5x5_reduce
I0403 13:42:49.234128 11957 net.cpp:399] inception_5b/5x5 -> inception_5b/5x5
I0403 13:42:49.236156 11957 net.cpp:141] Setting up inception_5b/5x5
I0403 13:42:49.236187 11957 net.cpp:148] Top shape: 24 128 7 7 (150528)
I0403 13:42:49.236204 11957 net.cpp:156] Memory required for data: 1335327264
I0403 13:42:49.236225 11957 layer_factory.hpp:77] Creating layer inception_5b/relu_5x5
I0403 13:42:49.236244 11957 net.cpp:91] Creating Layer inception_5b/relu_5x5
I0403 13:42:49.236263 11957 net.cpp:425] inception_5b/relu_5x5 <- inception_5b/5x5
I0403 13:42:49.236284 11957 net.cpp:386] inception_5b/relu_5x5 -> inception_5b/5x5 (in-place)
I0403 13:42:49.236480 11957 net.cpp:141] Setting up inception_5b/relu_5x5
I0403 13:42:49.236506 11957 net.cpp:148] Top shape: 24 128 7 7 (150528)
I0403 13:42:49.236521 11957 net.cpp:156] Memory required for data: 1335929376
I0403 13:42:49.236541 11957 layer_factory.hpp:77] Creating layer inception_5b/pool
I0403 13:42:49.236575 11957 net.cpp:91] Creating Layer inception_5b/pool
I0403 13:42:49.236593 11957 net.cpp:425] inception_5b/pool <- inception_5a/output_inception_5a/output_0_split_3
I0403 13:42:49.236615 11957 net.cpp:399] inception_5b/pool -> inception_5b/pool
I0403 13:42:49.236695 11957 net.cpp:141] Setting up inception_5b/pool
I0403 13:42:49.236721 11957 net.cpp:148] Top shape: 24 832 7 7 (978432)
I0403 13:42:49.236737 11957 net.cpp:156] Memory required for data: 1339843104
I0403 13:42:49.236750 11957 layer_factory.hpp:77] Creating layer inception_5b/pool_proj
I0403 13:42:49.236773 11957 net.cpp:91] Creating Layer inception_5b/pool_proj
I0403 13:42:49.236793 11957 net.cpp:425] inception_5b/pool_proj <- inception_5b/pool
I0403 13:42:49.236815 11957 net.cpp:399] inception_5b/pool_proj -> inception_5b/pool_proj
I0403 13:42:49.239217 11957 net.cpp:141] Setting up inception_5b/pool_proj
I0403 13:42:49.239251 11957 net.cpp:148] Top shape: 24 128 7 7 (150528)
I0403 13:42:49.239269 11957 net.cpp:156] Memory required for data: 1340445216
I0403 13:42:49.239287 11957 layer_factory.hpp:77] Creating layer inception_5b/relu_pool_proj
I0403 13:42:49.239305 11957 net.cpp:91] Creating Layer inception_5b/relu_pool_proj
I0403 13:42:49.239322 11957 net.cpp:425] inception_5b/relu_pool_proj <- inception_5b/pool_proj
I0403 13:42:49.239341 11957 net.cpp:386] inception_5b/relu_pool_proj -> inception_5b/pool_proj (in-place)
I0403 13:42:49.239665 11957 net.cpp:141] Setting up inception_5b/relu_pool_proj
I0403 13:42:49.239694 11957 net.cpp:148] Top shape: 24 128 7 7 (150528)
I0403 13:42:49.239711 11957 net.cpp:156] Memory required for data: 1341047328
I0403 13:42:49.239727 11957 layer_factory.hpp:77] Creating layer inception_5b/output
I0403 13:42:49.239745 11957 net.cpp:91] Creating Layer inception_5b/output
I0403 13:42:49.239778 11957 net.cpp:425] inception_5b/output <- inception_5b/1x1
I0403 13:42:49.239797 11957 net.cpp:425] inception_5b/output <- inception_5b/3x3
I0403 13:42:49.239814 11957 net.cpp:425] inception_5b/output <- inception_5b/5x5
I0403 13:42:49.239830 11957 net.cpp:425] inception_5b/output <- inception_5b/pool_proj
I0403 13:42:49.239861 11957 net.cpp:399] inception_5b/output -> inception_5b/output
I0403 13:42:49.239914 11957 net.cpp:141] Setting up inception_5b/output
I0403 13:42:49.239938 11957 net.cpp:148] Top shape: 24 1024 7 7 (1204224)
I0403 13:42:49.239954 11957 net.cpp:156] Memory required for data: 1345864224
I0403 13:42:49.239969 11957 layer_factory.hpp:77] Creating layer pool5/7x7_s1
I0403 13:42:49.239987 11957 net.cpp:91] Creating Layer pool5/7x7_s1
I0403 13:42:49.240005 11957 net.cpp:425] pool5/7x7_s1 <- inception_5b/output
I0403 13:42:49.240025 11957 net.cpp:399] pool5/7x7_s1 -> pool5/7x7_s1
I0403 13:42:49.240242 11957 net.cpp:141] Setting up pool5/7x7_s1
I0403 13:42:49.240268 11957 net.cpp:148] Top shape: 24 1024 1 1 (24576)
I0403 13:42:49.240283 11957 net.cpp:156] Memory required for data: 1345962528
I0403 13:42:49.240298 11957 layer_factory.hpp:77] Creating layer pool5/drop_7x7_s1
I0403 13:42:49.240316 11957 net.cpp:91] Creating Layer pool5/drop_7x7_s1
I0403 13:42:49.240332 11957 net.cpp:425] pool5/drop_7x7_s1 <- pool5/7x7_s1
I0403 13:42:49.240351 11957 net.cpp:386] pool5/drop_7x7_s1 -> pool5/7x7_s1 (in-place)
I0403 13:42:49.240403 11957 net.cpp:141] Setting up pool5/drop_7x7_s1
I0403 13:42:49.240427 11957 net.cpp:148] Top shape: 24 1024 1 1 (24576)
I0403 13:42:49.240440 11957 net.cpp:156] Memory required for data: 1346060832
I0403 13:42:49.240454 11957 layer_factory.hpp:77] Creating layer loss3/classifier_plantvillage
I0403 13:42:49.240476 11957 net.cpp:91] Creating Layer loss3/classifier_plantvillage
I0403 13:42:49.240494 11957 net.cpp:425] loss3/classifier_plantvillage <- pool5/7x7_s1
I0403 13:42:49.240514 11957 net.cpp:399] loss3/classifier_plantvillage -> loss3/classifier_plantvillage
I0403 13:42:49.240983 11957 net.cpp:141] Setting up loss3/classifier_plantvillage
I0403 13:42:49.241008 11957 net.cpp:148] Top shape: 24 38 (912)
I0403 13:42:49.241022 11957 net.cpp:156] Memory required for data: 1346064480
I0403 13:42:49.241039 11957 layer_factory.hpp:77] Creating layer loss3/classifier_plantvillage_loss3/classifier_plantvillage_0_split
I0403 13:42:49.241057 11957 net.cpp:91] Creating Layer loss3/classifier_plantvillage_loss3/classifier_plantvillage_0_split
I0403 13:42:49.241075 11957 net.cpp:425] loss3/classifier_plantvillage_loss3/classifier_plantvillage_0_split <- loss3/classifier_plantvillage
I0403 13:42:49.241096 11957 net.cpp:399] loss3/classifier_plantvillage_loss3/classifier_plantvillage_0_split -> loss3/classifier_plantvillage_loss3/classifier_plantvillage_0_split_0
I0403 13:42:49.241117 11957 net.cpp:399] loss3/classifier_plantvillage_loss3/classifier_plantvillage_0_split -> loss3/classifier_plantvillage_loss3/classifier_plantvillage_0_split_1
I0403 13:42:49.241138 11957 net.cpp:399] loss3/classifier_plantvillage_loss3/classifier_plantvillage_0_split -> loss3/classifier_plantvillage_loss3/classifier_plantvillage_0_split_2
I0403 13:42:49.241163 11957 net.cpp:399] loss3/classifier_plantvillage_loss3/classifier_plantvillage_0_split -> loss3/classifier_plantvillage_loss3/classifier_plantvillage_0_split_3
I0403 13:42:49.241267 11957 net.cpp:141] Setting up loss3/classifier_plantvillage_loss3/classifier_plantvillage_0_split
I0403 13:42:49.241292 11957 net.cpp:148] Top shape: 24 38 (912)
I0403 13:42:49.241308 11957 net.cpp:148] Top shape: 24 38 (912)
I0403 13:42:49.241324 11957 net.cpp:148] Top shape: 24 38 (912)
I0403 13:42:49.241339 11957 net.cpp:148] Top shape: 24 38 (912)
I0403 13:42:49.241353 11957 net.cpp:156] Memory required for data: 1346079072
I0403 13:42:49.241367 11957 layer_factory.hpp:77] Creating layer loss1/loss
I0403 13:42:49.241389 11957 net.cpp:91] Creating Layer loss1/loss
I0403 13:42:49.241406 11957 net.cpp:425] loss1/loss <- loss1/classifier_plantvillage_loss1/classifier_plantvillage_0_split_0
I0403 13:42:49.241438 11957 net.cpp:425] loss1/loss <- label_data_1_split_0
…
