…
I0403 14:51:55.610961 13712 net.cpp:313] The NetState phase (1) differed from the phase (0) specified by a rule in layer data
I0403 14:51:55.612208 13712 net.cpp:49] Initializing net from parameters: 
state {
  phase: TEST
}
layer {
  name: "data"
  type: "Data"
  top: "data"
  top: "label"
  include {
    phase: TEST
  }
  transform_param {
    mirror: false
    crop_size: 224
    mean_file: "/home/mohanty/data/final_dataset/lmdb/segmented-20-80/mean.binaryproto"
  }
  data_param {
    source: "/home/mohanty/data/final_dataset/lmdb/segmented-20-80/test_db"
    batch_size: 24
    backend: LMDB
  }
}
layer {
  name: "conv1/7x7_s2"
  type: "Convolution"
  bottom: "data"
  top: "conv1/7x7_s2"
  param {
    lr_mult: 1
    decay_mult: 1
  }
  param {
    lr_mult: 2
    decay_mult: 0
  }
  convolution_param {
    num_output: 64
    pad: 3
    kernel_size: 7
    stride: 2
    weight_filler {
      type: "xavier"
      std: 0.1
    }
    bias_filler {
      type: "constant"
      value: 0.2
    }
  }
}
layer {
  name: "conv1/relu_7x7"
  type: "ReLU"
  bottom: "conv1/7x7_s2"
  top: "conv1/7x7_s2"
}
layer {
  name: "pool1/3x3_s2"
  type: "Pooling"
  bottom: "conv1/7x7_s2"
  top: "pool1/3x3_s2"
  pooling_param {
    pool: MAX
    kernel_size: 3
    stride: 2
  }
}
layer {
  name: "pool1/norm1"
  type: "LRN"
  bottom: "pool1/3x3_s2"
  top: "pool1/norm1"
  lrn_param {
    local_size: 5
    alpha: 0.0001
    beta: 0.75
  }
}
layer {
  name: "conv2/3x3_reduce"
  type: "Convolution"
  bottom: "pool1/norm1"
  top: "conv2/3x3_reduce"
  param {
    lr_mult: 1
    decay_mult: 1
  }
  param {
    lr_mult: 2
    decay_mult: 0
  }
  convolution_param {
    num_output: 64
    kernel_size: 1
    weight_filler {
      type: "xavier"
      std: 0.1
    }
    bias_filler {
      type: "constant"
      value: 0.2
    }
  }
}
layer {
  name: "conv2/relu_3x3_reduce"
  type: "ReLU"
  bottom: "conv2/3x3_reduce"
  top: "conv2/3x3_reduce"
}
layer {
  name: "conv2/3x3"
  type: "Convolution"
  bottom: "conv2/3x3_reduce"
  top: "conv2/3x3"
  param {
    lr_mult: 1
    decay_mult: 1
  }
  param {
    lr_mult: 2
    decay_mult: 0
  }
  convolution_param {
    num_output: 192
    pad: 1
    kernel_size: 3
    weight_filler {
      type: "xavier"
      std: 0.03
    }
    bias_filler {
      type: "constant"
      value: 0.2
    }
  }
}
layer {
  name: "conv2/relu_3x3"
  type: "ReLU"
  bottom: "conv2/3x3"
  top: "conv2/3x3"
}
layer {
  name: "conv2/norm2"
  type: "LRN"
  bottom: "conv2/3x3"
  top: "conv2/norm2"
  lrn_param {
    local_size: 5
    alpha: 0.0001
    beta: 0.75
  }
}
layer {
  name: "pool2/3x3_s2"
  type: "Pooling"
  bottom: "conv2/norm2"
  top: "pool2/3x3_s2"
  pooling_param {
    pool: MAX
    kernel_size: 3
    stride: 2
  }
}
layer {
  name: "inception_3a/1x1"
  type: "Convolution"
  bottom: "pool2/3x3_s2"
  top: "inception_3a/1x1"
  param {
    lr_mult: 1
    decay_mult: 1
  }
  param {
    lr_mult: 2
    decay_mult: 0
  }
  convolution_param {
    num_output: 64
    kernel_size: 1
    weight_filler {
      type: "xavier"
      std: 0.03
    }
    bias_filler {
      type: "constant"
      value: 0.2
    }
  }
}
layer {
  name: "inception_3a/relu_1x1"
  type: "ReLU"
  bottom: "inception_3a/1x1"
  top: "inception_3a/1x1"
}
layer {
  name: "inception_3a/3x3_reduce"
  type: "Convolution"
  bottom: "pool2/3x3_s2"
  top: "inception_3a/3x3_reduce"
  param {
    lr_mult: 1
    decay_mult: 1
  }
  param {
    lr_mult: 2
    decay_mult: 0
  }
  convolution_param {
    num_output: 96
    kernel_size: 1
    weight_filler {
      type: "xavier"
      std: 0.09
    }
    bias_filler {
      type: "constant"
      value: 0.2
    }
  }
}
layer {
  name: "inception_3a/relu_3x3_reduce"
  type: "ReLU"
  bottom: "inception_3a/3x3_reduce"
  top: "inception_3a/3x3_reduce"
}
layer {
  name: "inception_3a/3x3"
  type: "Convolution"
  bottom: "inception_3a/3x3_reduce"
  top: "inception_3a/3x3"
  param {
    lr_mult: 1
    decay_mult: 1
  }
  param {
    lr_mult: 2
    decay_mult: 0
  }
  convolution_param {
    num_output: 128
    pad: 1
    kernel_size: 3
    weight_filler {
      type: "xavier"
      std: 0.03
    }
    bias_filler {
      type: "constant"
      value: 0.2
    }
  }
}
layer {
  name: "inception_3a/relu_3x3"
  type: "ReLU"
  bottom: "inception_3a/3x3"
  top: "inception_3a/3x3"
}
layer {
  name: "inception_3a/5x5_reduce"
  type: "Convolution"
  bottom: "pool2/3x3_s2"
  top: "inception_3a/5x5_reduce"
  param {
    lr_mult: 1
    decay_mult: 1
  }
  param {
    lr_mult: 2
    decay_mult: 0
  }
  convolution_param {
    num_output: 16
    kernel_size: 1
    weight_filler {
      type: "xavier"
      std: 0.2
    }
    bias_filler {
      type: "constant"
      value: 0.2
    }
  }
}
layer {
  name: "inception_3a/relu_5x5_reduce"
  type: "ReLU"
  bottom: "inception_3a/5x5_reduce"
  top: "inception_3a/5x5_reduce"
}
layer {
  name: "inception_3a/5x5"
  type: "Convolution"
  bottom: "inception_3a/5x5_reduce"
  top: "inception_3a/5x5"
  param {
    lr_mult: 1
    decay_mult: 1
  }
  param {
    lr_mult: 2
    decay_mult: 0
  }
  convolution_param {
    num_output: 32
    pad: 2
    kernel_size: 5
    weight_filler {
      type: "xavier"
      std: 0.03
    }
    bias_filler {
      type: "constant"
      value: 0.2
    }
  }
}
layer {
  name: "inception_3a/relu_5x5"
  type: "ReLU"
  bottom: "inception_3a/5x5"
  top: "inception_3a/5x5"
}
layer {
  name: "inception_3a/pool"
  type: "Pooling"
  bottom: "pool2/3x3_s2"
  top: "inception_3a/pool"
  pooling_param {
    pool: MAX
    kernel_size: 3
    stride: 1
    pad: 1
  }
}
layer {
  name: "inception_3a/pool_proj"
  type: "Convolution"
  bottom: "inception_3a/pool"
  top: "inception_3a/pool_proj"
  param {
    lr_mult: 1
    decay_mult: 1
  }
  param {
    lr_mult: 2
    decay_mult: 0
  }
  convolution_param {
    num_output: 32
    kernel_size: 1
    weight_filler {
      type: "xavier"
      std: 0.1
    }
    bias_filler {
      type: "constant"
      value: 0.2
    }
  }
}
layer {
  name: "inception_3a/relu_pool_proj"
  type: "ReLU"
  bottom: "inception_3a/pool_proj"
  top: "inception_3a/pool_proj"
}
layer {
  name: "inception_3a/output"
  type: "Concat"
  bottom: "inception_3a/1x1"
  bottom: "inception_3a/3x3"
  bottom: "inception_3a/5x5"
  bottom: "inception_3a/pool_proj"
  top: "inception_3a/output"
}
layer {
  name: "inception_3b/1x1"
  type: "Convolution"
  bottom: "inception_3a/output"
  top: "inception_3b/1x1"
  param {
    lr_mult: 1
    decay_mult: 1
  }
  param {
    lr_mult: 2
    decay_mult: 0
  }
  convolution_param {
    num_output: 128
    kernel_size: 1
    weight_filler {
      type: "xavier"
      std: 0.03
    }
    bias_filler {
      type: "constant"
      value: 0.2
    }
  }
}
layer {
  name: "inception_3b/relu_1x1"
  type: "ReLU"
  bottom: "inception_3b/1x1"
  top: "inception_3b/1x1"
}
layer {
  name: "inception_3b/3x3_reduce"
  type: "Convolution"
  bottom: "inception_3a/output"
  top: "inception_3b/3x3_reduce"
  param {
    lr_mult: 1
    decay_mult: 1
  }
  param {
    lr_mult: 2
    decay_mult: 0
  }
  convolution_param {
    num_output: 128
    kernel_size: 1
    weight_filler {
      type: "xavier"
      std: 0.09
    }
    bias_filler {
      type: "constant"
      value: 0.2
    }
  }
}
layer {
  name: "inception_3b/relu_3x3_reduce"
  type: "ReLU"
  bottom: "inception_3b/3x3_reduce"
  top: "inception_3b/3x3_reduce"
}
layer {
  name: "inception_3b/3x3"
  type: "Convolution"
  bottom: "inception_3b/3x3_reduce"
  top: "inception_3b/3x3"
  param {
    lr_mult: 1
    decay_mult: 1
  }
  param {
    lr_mult: 2
    decay_mult: 0
  }
  convolution_param {
    num_output: 192
    pad: 1
    kernel_size: 3
    weight_filler {
      type: "xavier"
      std: 0.03
    }
    bias_filler {
      type: "constant"
      value: 0.2
    }
  }
}
layer {
  name: "inception_3b/relu_3x3"
  type: "ReLU"
  bottom: "inception_3b/3x3"
  top: "inception_3b/3x3"
}
layer {
  name: "inception_3b/5x5_reduce"
  type: "Convolution"
  bottom: "inception_3a/output"
  top: "inception_3b/5x5_reduce"
  param {
    lr_mult: 1
    decay_mult: 1
  }
  param {
    lr_mult: 2
    decay_mult: 0
  }
  convolution_param {
    num_output: 32
    kernel_size: 1
    weight_filler {
      type: "xavier"
      std: 0.2
    }
    bias_filler {
      type: "constant"
      value: 0.2
    }
  }
}
layer {
  name: "inception_3b/relu_5x5_reduce"
  type: "ReLU"
  bottom: "inception_3b/5x5_reduce"
  top: "inception_3b/5x5_reduce"
}
layer {
  name: "inception_3b/5x5"
  type: "Convolution"
  bottom: "inception_3b/5x5_reduce"
  top: "inception_3b/5x5"
  param {
    lr_mult: 1
    decay_mult: 1
  }
  param {
    lr_mult: 2
    decay_mult: 0
  }
  convolution_param {
    num_output: 96
    pad: 2
    kernel_size: 5
    weight_filler {
      type: "xavier"
      std: 0.03
    }
    bias_filler {
      type: "constant"
      value: 0.2
    }
  }
}
layer {
  name: "inception_3b/relu_5x5"
  type: "ReLU"
  bottom: "inception_3b/5x5"
  top: "inception_3b/5x5"
}
layer {
  name: "inception_3b/pool"
  type: "Pooling"
  bottom: "inception_3a/output"
  top: "inception_3b/pool"
  pooling_param {
    pool: MAX
    kernel_size: 3
    stride: 1
    pad: 1
  }
}
layer {
  name: "inception_3b/pool_proj"
  type: "Convolution"
  bottom: "inception_3b/pool"
  top: "inception_3b/pool_proj"
  param {
    lr_mult: 1
    decay_mult: 1
  }
  param {
    lr_mult: 2
    decay_mult: 0
  }
  convolution_param {
    num_output: 64
    kernel_size: 1
    weight_filler {
      type: "xavier"
      std: 0.1
    }
    bias_filler {
      type: "constant"
      value: 0.2
    }
  }
}
layer {
  name: "inception_3b/relu_pool_proj"
  type: "ReLU"
  bottom: "inception_3b/pool_proj"
  top: "inception_3b/pool_proj"
}
layer {
  name: "inception_3b/output"
  type: "Concat"
  bottom: "inception_3b/1x1"
  bottom: "inception_3b/3x3"
  bottom: "inception_3b/5x5"
  bottom: "inception_3b/pool_proj"
  top: "inception_3b/output"
}
layer {
  name: "pool3/3x3_s2"
  type: "Pooling"
  bottom: "inception_3b/output"
  top: "pool3/3x3_s2"
  pooling_param {
    pool: MAX
    kernel_size: 3
    stride: 2
  }
}
layer {
  name: "inception_4a/1x1"
  type: "Convolution"
  bottom: "pool3/3x3_s2"
  top: "inception_4a/1x1"
  param {
    lr_mult: 1
    decay_mult: 1
  }
  param {
    lr_mult: 2
    decay_mult: 0
  }
  convolution_param {
    num_output: 192
    kernel_size: 1
    weight_filler {
      type: "xavier"
      std: 0.03
    }
    bias_filler {
      type: "constant"
      value: 0.2
    }
  }
}
layer {
  name: "inception_4a/relu_1x1"
  type: "ReLU"
  bottom: "inception_4a/1x1"
  top: "inception_4a/1x1"
}
layer {
  name: "inception_4a/3x3_reduce"
  type: "Convolution"
  bottom: "pool3/3x3_s2"
  top: "inception_4a/3x3_reduce"
  param {
    lr_mult: 1
    decay_mult: 1
  }
  param {
    lr_mult: 2
    decay_mult: 0
  }
  convolution_param {
    num_output: 96
    kernel_size: 1
    weight_filler {
      type: "xavier"
      std: 0.09
    }
    bias_filler {
      type: "constant"
      value: 0.2
    }
  }
}
layer {
  name: "inception_4a/relu_3x3_reduce"
  type: "ReLU"
  bottom: "inception_4a/3x3_reduce"
  top: "inception_4a/3x3_reduce"
}
layer {
  name: "inception_4a/3x3"
  type: "Convolution"
  bottom: "inception_4a/3x3_reduce"
  top: "inception_4a/3x3"
  param {
    lr_mult: 1
    decay_mult: 1
  }
  param {
    lr_mult: 2
    decay_mult: 0
  }
  convolution_param {
    num_output: 208
    pad: 1
    kernel_size: 3
    weight_filler {
      type: "xavier"
      std: 0.03
    }
    bias_filler {
      type: "constant"
      value: 0.2
    }
  }
}
layer {
  name: "inception_4a/relu_3x3"
  type: "ReLU"
  bottom: "inception_4a/3x3"
  top: "inception_4a/3x3"
}
layer {
  name: "inception_4a/5x5_reduce"
  type: "Convolution"
  bottom: "pool3/3x3_s2"
  top: "inception_4a/5x5_reduce"
  param {
    lr_mult: 1
    decay_mult: 1
  }
  param {
    lr_mult: 2
    decay_mult: 0
  }
  convolution_param {
    num_output: 16
    kernel_size: 1
    weight_filler {
      type: "xavier"
      std: 0.2
    }
    bias_filler {
      type: "constant"
      value: 0.2
    }
  }
}
layer {
  name: "inception_4a/relu_5x5_reduce"
  type: "ReLU"
  bottom: "inception_4a/5x5_reduce"
  top: "inception_4a/5x5_reduce"
}
layer {
  name: "inception_4a/5x5"
  type: "Convolution"
  bottom: "inception_4a/5x5_reduce"
  top: "inception_4a/5x5"
  param {
    lr_mult: 1
    decay_mult: 1
  }
  param {
    lr_mult: 2
    decay_mult: 0
  }
  convolution_param {
    num_output: 48
    pad: 2
    kernel_size: 5
    weight_filler {
      type: "xavier"
      std: 0.03
    }
    bias_filler {
      type: "constant"
      value: 0.2
    }
  }
}
layer {
  name: "inception_4a/relu_5x5"
  type: "ReLU"
  bottom: "inception_4a/5x5"
  top: "inception_4a/5x5"
}
layer {
  name: "inception_4a/pool"
  type: "Pooling"
  bottom: "pool3/3x3_s2"
  top: "inception_4a/pool"
  pooling_param {
    pool: MAX
    kernel_size: 3
    stride: 1
    pad: 1
  }
}
layer {
  name: "inception_4a/pool_proj"
  type: "Convolution"
  bottom: "inception_4a/pool"
  top: "inception_4a/pool_proj"
  param {
    lr_mult: 1
    decay_mult: 1
  }
  param {
    lr_mult: 2
    decay_mult: 0
  }
  convolution_param {
    num_output: 64
    kernel_size: 1
    weight_filler {
      type: "xavier"
      std: 0.1
    }
    bias_filler {
      type: "constant"
      value: 0.2
    }
  }
}
layer {
  name: "inception_4a/relu_pool_proj"
  type: "ReLU"
  bottom: "inception_4a/pool_proj"
  top: "inception_4a/pool_proj"
}
layer {
  name: "inception_4a/output"
  type: "Concat"
  bottom: "inception_4a/1x1"
  bottom: "inception_4a/3x3"
  bottom: "inception_4a/5x5"
  bottom: "inception_4a/pool_proj"
  top: "inception_4a/output"
}
layer {
  name: "loss1/ave_pool"
  type: "Pooling"
  bottom: "inception_4a/output"
  top: "loss1/ave_pool"
  pooling_param {
    pool: AVE
    kernel_size: 5
    stride: 3
  }
}
layer {
  name: "loss1/conv"
  type: "Convolution"
  bottom: "loss1/ave_pool"
  top: "loss1/conv"
  param {
    lr_mult: 1
    decay_mult: 1
  }
  param {
    lr_mult: 2
    decay_mult: 0
  }
  convolution_param {
    num_output: 128
    kernel_size: 1
    weight_filler {
      type: "xavier"
      std: 0.08
    }
    bias_filler {
      type: "constant"
      value: 0.2
    }
  }
}
layer {
  name: "loss1/relu_conv"
  type: "ReLU"
  bottom: "loss1/conv"
  top: "loss1/conv"
}
layer {
  name: "loss1/fc"
  type: "InnerProduct"
  bottom: "loss1/conv"
  top: "loss1/fc"
  param {
    lr_mult: 1
    decay_mult: 1
  }
  param {
    lr_mult: 2
    decay_mult: 0
  }
  inner_product_param {
    num_output: 1024
    weight_filler {
      type: "xavier"
      std: 0.02
    }
    bias_filler {
      type: "constant"
      value: 0.2
    }
  }
}
layer {
  name: "loss1/relu_fc"
  type: "ReLU"
  bottom: "loss1/fc"
  top: "loss1/fc"
}
layer {
  name: "loss1/drop_fc"
  type: "Dropout"
  bottom: "loss1/fc"
  top: "loss1/fc"
  dropout_param {
    dropout_ratio: 0.7
  }
}
layer {
  name: "loss1/classifier_plantvillage"
  type: "InnerProduct"
  bottom: "loss1/fc"
  top: "loss1/classifier_plantvillage"
  param {
    lr_mult: 1
    decay_mult: 1
  }
  param {
    lr_mult: 2
    decay_mult: 0
  }
  inner_product_param {
    num_output: 38
    weight_filler {
      type: "xavier"
      std: 0.0009765625
    }
    bias_filler {
      type: "constant"
      value: 0
    }
  }
}
layer {
  name: "inception_4b/1x1"
  type: "Convolution"
  bottom: "inception_4a/output"
  top: "inception_4b/1x1"
  param {
    lr_mult: 1
    decay_mult: 1
  }
  param {
    lr_mult: 2
    decay_mult: 0
  }
  convolution_param {
    num_output: 160
    kernel_size: 1
    weight_filler {
      type: "xavier"
      std: 0.03
    }
    bias_filler {
      type: "constant"
      value: 0.2
    }
  }
}
layer {
  name: "inception_4b/relu_1x1"
  type: "ReLU"
  bottom: "inception_4b/1x1"
  top: "inception_4b/1x1"
}
layer {
  name: "inception_4b/3x3_reduce"
  type: "Convolution"
  bottom: "inception_4a/output"
  top: "inception_4b/3x3_reduce"
  param {
    lr_mult: 1
    decay_mult: 1
  }
  param {
    lr_mult: 2
    decay_mult: 0
  }
  convolution_param {
    num_output: 112
    kernel_size: 1
    weight_filler {
      type: "xavier"
      std: 0.09
    }
    bias_filler {
      type: "constant"
      value: 0.2
    }
  }
}
layer {
  name: "inception_4b/relu_3x3_reduce"
  type: "ReLU"
  bottom: "inception_4b/3x3_reduce"
  top: "inception_4b/3x3_reduce"
}
layer {
  name: "inception_4b/3x3"
  type: "Convolution"
  bottom: "inception_4b/3x3_reduce"
  top: "inception_4b/3x3"
  param {
    lr_mult: 1
    decay_mult: 1
  }
  param {
    lr_mult: 2
    decay_mult: 0
  }
  convolution_param {
    num_output: 224
    pad: 1
    kernel_size: 3
    weight_filler {
      type: "xavier"
      std: 0.03
    }
    bias_filler {
      type: "constant"
      value: 0.2
    }
  }
}
layer {
  name: "inception_4b/relu_3x3"
  type: "ReLU"
  bottom: "inception_4b/3x3"
  top: "inception_4b/3x3"
}
layer {
  name: "inception_4b/5x5_reduce"
  type: "Convolution"
  bottom: "inception_4a/output"
  top: "inception_4b/5x5_reduce"
  param {
    lr_mult: 1
    decay_mult: 1
  }
  param {
    lr_mult: 2
    decay_mult: 0
  }
  convolution_param {
    num_output: 24
    kernel_size: 1
    weight_filler {
      type: "xavier"
      std: 0.2
    }
    bias_filler {
      type: "constant"
      value: 0.2
    }
  }
}
layer {
  name: "inception_4b/relu_5x5_reduce"
  type: "ReLU"
  bottom: "inception_4b/5x5_reduce"
  top: "inception_4b/5x5_reduce"
}
layer {
  name: "inception_4b/5x5"
  type: "Convolution"
  bottom: "inception_4b/5x5_reduce"
  top: "inception_4b/5x5"
  param {
    lr_mult: 1
    decay_mult: 1
  }
  param {
    lr_mult: 2
    decay_mult: 0
  }
  convolution_param {
    num_output: 64
    pad: 2
    kernel_size: 5
    weight_filler {
      type: "xavier"
      std: 0.03
    }
    bias_filler {
      type: "constant"
      value: 0.2
    }
  }
}
layer {
  name: "inception_4b/relu_5x5"
  type: "ReLU"
  bottom: "inception_4b/5x5"
  top: "inception_4b/5x5"
}
layer {
  name: "inception_4b/pool"
  type: "Pooling"
  bottom: "inception_4a/output"
  top: "inception_4b/pool"
  pooling_param {
    pool: MAX
    kernel_size: 3
    stride: 1
    pad: 1
  }
}
layer {
  name: "inception_4b/pool_proj"
  type: "Convolution"
  bottom: "inception_4b/pool"
  top: "inception_4b/pool_proj"
  param {
    lr_mult: 1
    decay_mult: 1
  }
  param {
    lr_mult: 2
    decay_mult: 0
  }
  convolution_param {
    num_output: 64
    kernel_size: 1
    weight_filler {
      type: "xavier"
      std: 0.1
    }
    bias_filler {
      type: "constant"
      value: 0.2
    }
  }
}
layer {
  name: "inception_4b/relu_pool_proj"
  type: "ReLU"
  bottom: "inception_4b/pool_proj"
  top: "inception_4b/pool_proj"
}
layer {
  name: "inception_4b/output"
  type: "Concat"
  bottom: "inception_4b/1x1"
  bottom: "inception_4b/3x3"
  bottom: "inception_4b/5x5"
  bottom: "inception_4b/pool_proj"
  top: "inception_4b/output"
}
layer {
  name: "inception_4c/1x1"
  type: "Convolution"
  bottom: "inception_4b/output"
  top: "inception_4c/1x1"
  param {
    lr_mult: 1
    decay_mult: 1
  }
  param {
    lr_mult: 2
    decay_mult: 0
  }
  convolution_param {
    num_output: 128
    kernel_size: 1
    weight_filler {
      type: "xavier"
      std: 0.03
    }
    bias_filler {
      type: "constant"
      value: 0.2
    }
  }
}
layer {
  name: "inception_4c/relu_1x1"
  type: "ReLU"
  bottom: "inception_4c/1x1"
  top: "inception_4c/1x1"
}
layer {
  name: "inception_4c/3x3_reduce"
  type: "Convolution"
  bottom: "inception_4b/output"
  top: "inception_4c/3x3_reduce"
  param {
    lr_mult: 1
    decay_mult: 1
  }
  param {
    lr_mult: 2
    decay_mult: 0
  }
  convolution_param {
    num_output: 128
    kernel_size: 1
    weight_filler {
      type: "xavier"
      std: 0.09
    }
    bias_filler {
      type: "constant"
      value: 0.2
    }
  }
}
layer {
  name: "inception_4c/relu_3x3_reduce"
  type: "ReLU"
  bottom: "inception_4c/3x3_reduce"
  top: "inception_4c/3x3_reduce"
}
layer {
  name: "inception_4c/3x3"
  type: "Convolution"
  bottom: "inception_4c/3x3_reduce"
  top: "inception_4c/3x3"
  param {
    lr_mult: 1
    decay_mult: 1
  }
  param {
    lr_mult: 2
    decay_mult: 0
  }
  convolution_param {
    num_output: 256
    pad: 1
    kernel_size: 3
    weight_filler {
      type: "xavier"
      std: 0.03
    }
    bias_filler {
      type: "constant"
      value: 0.2
    }
  }
}
layer {
  name: "inception_4c/relu_3x3"
  type: "ReLU"
  bottom: "inception_4c/3x3"
  top: "inception_4c/3x3"
}
layer {
  name: "inception_4c/5x5_reduce"
  type: "Convolution"
  bottom: "inception_4b/output"
  top: "inception_4c/5x5_reduce"
  param {
    lr_mult: 1
    decay_mult: 1
  }
  param {
    lr_mult: 2
    decay_mult: 0
  }
  convolution_param {
    num_output: 24
    kernel_size: 1
    weight_filler {
      type: "xavier"
      std: 0.2
    }
    bias_filler {
      type: "constant"
      value: 0.2
    }
  }
}
layer {
  name: "inception_4c/relu_5x5_reduce"
  type: "ReLU"
  bottom: "inception_4c/5x5_reduce"
  top: "inception_4c/5x5_reduce"
}
layer {
  name: "inception_4c/5x5"
  type: "Convolution"
  bottom: "inception_4c/5x5_reduce"
  top: "inception_4c/5x5"
  param {
    lr_mult: 1
    decay_mult: 1
  }
  param {
    lr_mult: 2
    decay_mult: 0
  }
  convolution_param {
    num_output: 64
    pad: 2
    kernel_size: 5
    weight_filler {
      type: "xavier"
      std: 0.03
    }
    bias_filler {
      type: "constant"
      value: 0.2
    }
  }
}
layer {
  name: "inception_4c/relu_5x5"
  type: "ReLU"
  bottom: "inception_4c/5x5"
  top: "inception_4c/5x5"
}
layer {
  name: "inception_4c/pool"
  type: "Pooling"
  bottom: "inception_4b/output"
  top: "inception_4c/pool"
  pooling_param {
    pool: MAX
    kernel_size: 3
    stride: 1
    pad: 1
  }
}
layer {
  name: "inception_4c/pool_proj"
  type: "Convolution"
  bottom: "inception_4c/pool"
  top: "inception_4c/pool_proj"
  param {
    lr_mult: 1
    decay_mult: 1
  }
  param {
    lr_mult: 2
    decay_mult: 0
  }
  convolution_param {
    num_output: 64
    kernel_size: 1
    weight_filler {
      type: "xavier"
      std: 0.1
    }
    bias_filler {
      type: "constant"
      value: 0.2
    }
  }
}
layer {
  name: "inception_4c/relu_pool_proj"
  type: "ReLU"
  bottom: "inception_4c/pool_proj"
  top: "inception_4c/pool_proj"
}
layer {
  name: "inception_4c/output"
  type: "Concat"
  bottom: "inception_4c/1x1"
  bottom: "inception_4c/3x3"
  bottom: "inception_4c/5x5"
  bottom: "inception_4c/pool_proj"
  top: "inception_4c/output"
}
layer {
  name: "inception_4d/1x1"
  type: "Convolution"
  bottom: "inception_4c/output"
  top: "inception_4d/1x1"
  param {
    lr_mult: 1
    decay_mult: 1
  }
  param {
    lr_mult: 2
    decay_mult: 0
  }
  convolution_param {
    num_output: 112
    kernel_size: 1
    weight_filler {
      type: "xavier"
      std: 0.03
    }
    bias_filler {
      type: "constant"
      value: 0.2
    }
  }
}
layer {
  name: "inception_4d/relu_1x1"
  type: "ReLU"
  bottom: "inception_4d/1x1"
  top: "inception_4d/1x1"
}
layer {
  name: "inception_4d/3x3_reduce"
  type: "Convolution"
  bottom: "inception_4c/output"
  top: "inception_4d/3x3_reduce"
  param {
    lr_mult: 1
    decay_mult: 1
  }
  param {
    lr_mult: 2
    decay_mult: 0
  }
  convolution_param {
    num_output: 144
    kernel_size: 1
    weight_filler {
      type: "xavier"
      std: 0.09
    }
    bias_filler {
      type: "constant"
      value: 0.2
    }
  }
}
layer {
  name: "inception_4d/relu_3x3_reduce"
  type: "ReLU"
  bottom: "inception_4d/3x3_reduce"
  top: "inception_4d/3x3_reduce"
}
layer {
  name: "inception_4d/3x3"
  type: "Convolution"
  bottom: "inception_4d/3x3_reduce"
  top: "inception_4d/3x3"
  param {
    lr_mult: 1
    decay_mult: 1
  }
  param {
    lr_mult: 2
    decay_mult: 0
  }
  convolution_param {
    num_output: 288
    pad: 1
    kernel_size: 3
    weight_filler {
      type: "xavier"
      std: 0.03
    }
    bias_filler {
      type: "constant"
      value: 0.2
    }
  }
}
layer {
  name: "inception_4d/relu_3x3"
  type: "ReLU"
  bottom: "inception_4d/3x3"
  top: "inception_4d/3x3"
}
layer {
  name: "inception_4d/5x5_reduce"
  type: "Convolution"
  bottom: "inception_4c/output"
  top: "inception_4d/5x5_reduce"
  param {
    lr_mult: 1
    decay_mult: 1
  }
  param {
    lr_mult: 2
    decay_mult: 0
  }
  convolution_param {
    num_output: 32
    kernel_size: 1
    weight_filler {
      type: "xavier"
      std: 0.2
    }
    bias_filler {
      type: "constant"
      value: 0.2
    }
  }
}
layer {
  name: "inception_4d/relu_5x5_reduce"
  type: "ReLU"
  bottom: "inception_4d/5x5_reduce"
  top: "inception_4d/5x5_reduce"
}
layer {
  name: "inception_4d/5x5"
  type: "Convolution"
  bottom: "inception_4d/5x5_reduce"
  top: "inception_4d/5x5"
  param {
    lr_mult: 1
    decay_mult: 1
  }
  param {
    lr_mult: 2
    decay_mult: 0
  }
  convolution_param {
    num_output: 64
    pad: 2
    kernel_size: 5
    weight_filler {
      type: "xavier"
      std: 0.03
    }
    bias_filler {
      type: "constant"
      value: 0.2
    }
  }
}
layer {
  name: "inception_4d/relu_5x5"
  type: "ReLU"
  bottom: "inception_4d/5x5"
  top: "inception_4d/5x5"
}
layer {
  name: "inception_4d/pool"
  type: "Pooling"
  bottom: "inception_4c/output"
  top: "inception_4d/pool"
  pooling_param {
    pool: MAX
    kernel_size: 3
    stride: 1
    pad: 1
  }
}
layer {
  name: "inception_4d/pool_proj"
  type: "Convolution"
  bottom: "inception_4d/pool"
  top: "inception_4d/pool_proj"
  param {
    lr_mult: 1
    decay_mult: 1
  }
  param {
    lr_mult: 2
    decay_mult: 0
  }
  convolution_param {
    num_output: 64
    kernel_size: 1
    weight_filler {
      type: "xavier"
      std: 0.1
    }
    bias_filler {
      type: "constant"
      value: 0.2
    }
  }
}
layer {
  name: "inception_4d/relu_pool_proj"
  type: "ReLU"
  bottom: "inception_4d/pool_proj"
  top: "inception_4d/pool_proj"
}
layer {
  name: "inception_4d/output"
  type: "Concat"
  bottom: "inception_4d/1x1"
  bottom: "inception_4d/3x3"
  bottom: "inception_4d/5x5"
  bottom: "inception_4d/pool_proj"
  top: "inception_4d/output"
}
layer {
  name: "loss2/ave_pool"
  type: "Pooling"
  bottom: "inception_4d/output"
  top: "loss2/ave_pool"
  pooling_param {
    pool: AVE
    kernel_size: 5
    stride: 3
  }
}
layer {
  name: "loss2/conv"
  type: "Convolution"
  bottom: "loss2/ave_pool"
  top: "loss2/conv"
  param {
    lr_mult: 1
    decay_mult: 1
  }
  param {
    lr_mult: 2
    decay_mult: 0
  }
  convolution_param {
    num_output: 128
    kernel_size: 1
    weight_filler {
      type: "xavier"
      std: 0.08
    }
    bias_filler {
      type: "constant"
      value: 0.2
    }
  }
}
layer {
  name: "loss2/relu_conv"
  type: "ReLU"
  bottom: "loss2/conv"
  top: "loss2/conv"
}
layer {
  name: "loss2/fc"
  type: "InnerProduct"
  bottom: "loss2/conv"
  top: "loss2/fc"
  param {
    lr_mult: 1
    decay_mult: 1
  }
  param {
    lr_mult: 2
    decay_mult: 0
  }
  inner_product_param {
    num_output: 1024
    weight_filler {
      type: "xavier"
      std: 0.02
    }
    bias_filler {
      type: "constant"
      value: 0.2
    }
  }
}
layer {
  name: "loss2/relu_fc"
  type: "ReLU"
  bottom: "loss2/fc"
  top: "loss2/fc"
}
layer {
  name: "loss2/drop_fc"
  type: "Dropout"
  bottom: "loss2/fc"
  top: "loss2/fc"
  dropout_param {
    dropout_ratio: 0.7
  }
}
layer {
  name: "loss2/classifier_plantvillage"
  type: "InnerProduct"
  bottom: "loss2/fc"
  top: "loss2/classifier_plantvillage"
  param {
    lr_mult: 1
    decay_mult: 1
  }
  param {
    lr_mult: 2
    decay_mult: 0
  }
  inner_product_param {
    num_output: 38
    weight_filler {
      type: "xavier"
      std: 0.0009765625
    }
    bias_filler {
      type: "constant"
      value: 0
    }
  }
}
layer {
  name: "inception_4e/1x1"
  type: "Convolution"
  bottom: "inception_4d/output"
  top: "inception_4e/1x1"
  param {
    lr_mult: 1
    decay_mult: 1
  }
  param {
    lr_mult: 2
    decay_mult: 0
  }
  convolution_param {
    num_output: 256
    kernel_size: 1
    weight_filler {
      type: "xavier"
      std: 0.03
    }
    bias_filler {
      type: "constant"
      value: 0.2
    }
  }
}
layer {
  name: "inception_4e/relu_1x1"
  type: "ReLU"
  bottom: "inception_4e/1x1"
  top: "inception_4e/1x1"
}
layer {
  name: "inception_4e/3x3_reduce"
  type: "Convolution"
  bottom: "inception_4d/output"
  top: "inception_4e/3x3_reduce"
  param {
    lr_mult: 1
    decay_mult: 1
  }
  param {
    lr_mult: 2
    decay_mult: 0
  }
  convolution_param {
    num_output: 160
    kernel_size: 1
    weight_filler {
      type: "xavier"
      std: 0.09
    }
    bias_filler {
      type: "constant"
      value: 0.2
    }
  }
}
layer {
  name: "inception_4e/relu_3x3_reduce"
  type: "ReLU"
  bottom: "inception_4e/3x3_reduce"
  top: "inception_4e/3x3_reduce"
}
layer {
  name: "inception_4e/3x3"
  type: "Convolution"
  bottom: "inception_4e/3x3_reduce"
  top: "inception_4e/3x3"
  param {
    lr_mult: 1
    decay_mult: 1
  }
  param {
    lr_mult: 2
    decay_mult: 0
  }
  convolution_param {
    num_output: 320
    pad: 1
    kernel_size: 3
    weight_filler {
      type: "xavier"
      std: 0.03
    }
    bias_filler {
      type: "constant"
      value: 0.2
    }
  }
}
layer {
  name: "inception_4e/relu_3x3"
  type: "ReLU"
  bottom: "inception_4e/3x3"
  top: "inception_4e/3x3"
}
layer {
  name: "inception_4e/5x5_reduce"
  type: "Convolution"
  bottom: "inception_4d/output"
  top: "inception_4e/5x5_reduce"
  param {
    lr_mult: 1
    decay_mult: 1
  }
  param {
    lr_mult: 2
    decay_mult: 0
  }
  convolution_param {
    num_output: 32
    kernel_size: 1
    weight_filler {
      type: "xavier"
      std: 0.2
    }
    bias_filler {
      type: "constant"
      value: 0.2
    }
  }
}
layer {
  name: "inception_4e/relu_5x5_reduce"
  type: "ReLU"
  bottom: "inception_4e/5x5_reduce"
  top: "inception_4e/5x5_reduce"
}
layer {
  name: "inception_4e/5x5"
  type: "Convolution"
  bottom: "inception_4e/5x5_reduce"
  top: "inception_4e/
I0403 14:51:55.613489 13712 layer_factory.hpp:77] Creating layer data
I0403 14:51:55.614114 13712 net.cpp:91] Creating Layer data
I0403 14:51:55.614143 13712 net.cpp:399] data -> data
I0403 14:51:55.614192 13712 net.cpp:399] data -> label
I0403 14:51:55.614230 13712 data_transformer.cpp:25] Loading mean file from: /home/mohanty/data/final_dataset/lmdb/segmented-20-80/mean.binaryproto
I0403 14:51:55.615412 13716 db_lmdb.cpp:38] Opened lmdb /home/mohanty/data/final_dataset/lmdb/segmented-20-80/test_db
I0403 14:51:55.627315 13712 data_layer.cpp:41] output data size: 24,3,224,224
I0403 14:51:55.654316 13712 net.cpp:141] Setting up data
I0403 14:51:55.654372 13712 net.cpp:148] Top shape: 24 3 224 224 (3612672)
I0403 14:51:55.654394 13712 net.cpp:148] Top shape: 24 (24)
I0403 14:51:55.654410 13712 net.cpp:156] Memory required for data: 14450784
I0403 14:51:55.654436 13712 layer_factory.hpp:77] Creating layer label_data_1_split
I0403 14:51:55.654464 13712 net.cpp:91] Creating Layer label_data_1_split
I0403 14:51:55.654481 13712 net.cpp:425] label_data_1_split <- label
I0403 14:51:55.654531 13712 net.cpp:399] label_data_1_split -> label_data_1_split_0
I0403 14:51:55.654561 13712 net.cpp:399] label_data_1_split -> label_data_1_split_1
I0403 14:51:55.654584 13712 net.cpp:399] label_data_1_split -> label_data_1_split_2
I0403 14:51:55.654605 13712 net.cpp:399] label_data_1_split -> label_data_1_split_3
I0403 14:51:55.654625 13712 net.cpp:399] label_data_1_split -> label_data_1_split_4
I0403 14:51:55.654645 13712 net.cpp:399] label_data_1_split -> label_data_1_split_5
I0403 14:51:55.654665 13712 net.cpp:399] label_data_1_split -> label_data_1_split_6
I0403 14:51:55.654685 13712 net.cpp:399] label_data_1_split -> label_data_1_split_7
I0403 14:51:55.654705 13712 net.cpp:399] label_data_1_split -> label_data_1_split_8
I0403 14:51:55.654726 13712 net.cpp:399] label_data_1_split -> label_data_1_split_9
I0403 14:51:55.654842 13712 net.cpp:141] Setting up label_data_1_split
I0403 14:51:55.654866 13712 net.cpp:148] Top shape: 24 (24)
I0403 14:51:55.654883 13712 net.cpp:148] Top shape: 24 (24)
I0403 14:51:55.654899 13712 net.cpp:148] Top shape: 24 (24)
I0403 14:51:55.654916 13712 net.cpp:148] Top shape: 24 (24)
I0403 14:51:55.654930 13712 net.cpp:148] Top shape: 24 (24)
I0403 14:51:55.654945 13712 net.cpp:148] Top shape: 24 (24)
I0403 14:51:55.654960 13712 net.cpp:148] Top shape: 24 (24)
I0403 14:51:55.654976 13712 net.cpp:148] Top shape: 24 (24)
I0403 14:51:55.654991 13712 net.cpp:148] Top shape: 24 (24)
I0403 14:51:55.655006 13712 net.cpp:148] Top shape: 24 (24)
I0403 14:51:55.655053 13712 net.cpp:156] Memory required for data: 14451744
I0403 14:51:55.655069 13712 layer_factory.hpp:77] Creating layer conv1/7x7_s2
I0403 14:51:55.655100 13712 net.cpp:91] Creating Layer conv1/7x7_s2
I0403 14:51:55.655119 13712 net.cpp:425] conv1/7x7_s2 <- data
I0403 14:51:55.655138 13712 net.cpp:399] conv1/7x7_s2 -> conv1/7x7_s2
I0403 14:51:55.794450 13712 net.cpp:141] Setting up conv1/7x7_s2
I0403 14:51:55.794534 13712 net.cpp:148] Top shape: 24 64 112 112 (19267584)
I0403 14:51:55.794553 13712 net.cpp:156] Memory required for data: 91522080
I0403 14:51:55.794582 13712 layer_factory.hpp:77] Creating layer conv1/relu_7x7
I0403 14:51:55.794608 13712 net.cpp:91] Creating Layer conv1/relu_7x7
I0403 14:51:55.794625 13712 net.cpp:425] conv1/relu_7x7 <- conv1/7x7_s2
I0403 14:51:55.794642 13712 net.cpp:386] conv1/relu_7x7 -> conv1/7x7_s2 (in-place)
I0403 14:51:55.794888 13712 net.cpp:141] Setting up conv1/relu_7x7
I0403 14:51:55.794912 13712 net.cpp:148] Top shape: 24 64 112 112 (19267584)
I0403 14:51:55.794926 13712 net.cpp:156] Memory required for data: 168592416
I0403 14:51:55.794940 13712 layer_factory.hpp:77] Creating layer pool1/3x3_s2
I0403 14:51:55.794963 13712 net.cpp:91] Creating Layer pool1/3x3_s2
I0403 14:51:55.794980 13712 net.cpp:425] pool1/3x3_s2 <- conv1/7x7_s2
I0403 14:51:55.794996 13712 net.cpp:399] pool1/3x3_s2 -> pool1/3x3_s2
I0403 14:51:55.795065 13712 net.cpp:141] Setting up pool1/3x3_s2
I0403 14:51:55.795089 13712 net.cpp:148] Top shape: 24 64 56 56 (4816896)
I0403 14:51:55.795102 13712 net.cpp:156] Memory required for data: 187860000
I0403 14:51:55.795116 13712 layer_factory.hpp:77] Creating layer pool1/norm1
I0403 14:51:55.795138 13712 net.cpp:91] Creating Layer pool1/norm1
I0403 14:51:55.795153 13712 net.cpp:425] pool1/norm1 <- pool1/3x3_s2
I0403 14:51:55.795171 13712 net.cpp:399] pool1/norm1 -> pool1/norm1
I0403 14:51:55.795442 13712 net.cpp:141] Setting up pool1/norm1
I0403 14:51:55.795469 13712 net.cpp:148] Top shape: 24 64 56 56 (4816896)
I0403 14:51:55.795482 13712 net.cpp:156] Memory required for data: 207127584
I0403 14:51:55.795496 13712 layer_factory.hpp:77] Creating layer conv2/3x3_reduce
I0403 14:51:55.795524 13712 net.cpp:91] Creating Layer conv2/3x3_reduce
I0403 14:51:55.795542 13712 net.cpp:425] conv2/3x3_reduce <- pool1/norm1
I0403 14:51:55.795559 13712 net.cpp:399] conv2/3x3_reduce -> conv2/3x3_reduce
I0403 14:51:55.796844 13712 net.cpp:141] Setting up conv2/3x3_reduce
I0403 14:51:55.796871 13712 net.cpp:148] Top shape: 24 64 56 56 (4816896)
I0403 14:51:55.796886 13712 net.cpp:156] Memory required for data: 226395168
I0403 14:51:55.796905 13712 layer_factory.hpp:77] Creating layer conv2/relu_3x3_reduce
I0403 14:51:55.796923 13712 net.cpp:91] Creating Layer conv2/relu_3x3_reduce
I0403 14:51:55.796937 13712 net.cpp:425] conv2/relu_3x3_reduce <- conv2/3x3_reduce
I0403 14:51:55.796953 13712 net.cpp:386] conv2/relu_3x3_reduce -> conv2/3x3_reduce (in-place)
I0403 14:51:55.797193 13712 net.cpp:141] Setting up conv2/relu_3x3_reduce
I0403 14:51:55.797217 13712 net.cpp:148] Top shape: 24 64 56 56 (4816896)
I0403 14:51:55.797231 13712 net.cpp:156] Memory required for data: 245662752
I0403 14:51:55.797245 13712 layer_factory.hpp:77] Creating layer conv2/3x3
I0403 14:51:55.797267 13712 net.cpp:91] Creating Layer conv2/3x3
I0403 14:51:55.797282 13712 net.cpp:425] conv2/3x3 <- conv2/3x3_reduce
I0403 14:51:55.797299 13712 net.cpp:399] conv2/3x3 -> conv2/3x3
I0403 14:51:55.799419 13712 net.cpp:141] Setting up conv2/3x3
I0403 14:51:55.799448 13712 net.cpp:148] Top shape: 24 192 56 56 (14450688)
I0403 14:51:55.799463 13712 net.cpp:156] Memory required for data: 303465504
I0403 14:51:55.799484 13712 layer_factory.hpp:77] Creating layer conv2/relu_3x3
I0403 14:51:55.799501 13712 net.cpp:91] Creating Layer conv2/relu_3x3
I0403 14:51:55.799520 13712 net.cpp:425] conv2/relu_3x3 <- conv2/3x3
I0403 14:51:55.799536 13712 net.cpp:386] conv2/relu_3x3 -> conv2/3x3 (in-place)
I0403 14:51:55.799691 13712 net.cpp:141] Setting up conv2/relu_3x3
I0403 14:51:55.799715 13712 net.cpp:148] Top shape: 24 192 56 56 (14450688)
I0403 14:51:55.799763 13712 net.cpp:156] Memory required for data: 361268256
I0403 14:51:55.799778 13712 layer_factory.hpp:77] Creating layer conv2/norm2
I0403 14:51:55.799795 13712 net.cpp:91] Creating Layer conv2/norm2
I0403 14:51:55.799811 13712 net.cpp:425] conv2/norm2 <- conv2/3x3
I0403 14:51:55.799828 13712 net.cpp:399] conv2/norm2 -> conv2/norm2
I0403 14:51:55.800101 13712 net.cpp:141] Setting up conv2/norm2
I0403 14:51:55.800127 13712 net.cpp:148] Top shape: 24 192 56 56 (14450688)
I0403 14:51:55.800140 13712 net.cpp:156] Memory required for data: 419071008
I0403 14:51:55.800153 13712 layer_factory.hpp:77] Creating layer pool2/3x3_s2
I0403 14:51:55.800169 13712 net.cpp:91] Creating Layer pool2/3x3_s2
I0403 14:51:55.800184 13712 net.cpp:425] pool2/3x3_s2 <- conv2/norm2
I0403 14:51:55.800200 13712 net.cpp:399] pool2/3x3_s2 -> pool2/3x3_s2
I0403 14:51:55.800246 13712 net.cpp:141] Setting up pool2/3x3_s2
I0403 14:51:55.800269 13712 net.cpp:148] Top shape: 24 192 28 28 (3612672)
I0403 14:51:55.800284 13712 net.cpp:156] Memory required for data: 433521696
I0403 14:51:55.800298 13712 layer_factory.hpp:77] Creating layer pool2/3x3_s2_pool2/3x3_s2_0_split
I0403 14:51:55.800314 13712 net.cpp:91] Creating Layer pool2/3x3_s2_pool2/3x3_s2_0_split
I0403 14:51:55.800328 13712 net.cpp:425] pool2/3x3_s2_pool2/3x3_s2_0_split <- pool2/3x3_s2
I0403 14:51:55.800343 13712 net.cpp:399] pool2/3x3_s2_pool2/3x3_s2_0_split -> pool2/3x3_s2_pool2/3x3_s2_0_split_0
I0403 14:51:55.800361 13712 net.cpp:399] pool2/3x3_s2_pool2/3x3_s2_0_split -> pool2/3x3_s2_pool2/3x3_s2_0_split_1
I0403 14:51:55.800379 13712 net.cpp:399] pool2/3x3_s2_pool2/3x3_s2_0_split -> pool2/3x3_s2_pool2/3x3_s2_0_split_2
I0403 14:51:55.800397 13712 net.cpp:399] pool2/3x3_s2_pool2/3x3_s2_0_split -> pool2/3x3_s2_pool2/3x3_s2_0_split_3
I0403 14:51:55.800457 13712 net.cpp:141] Setting up pool2/3x3_s2_pool2/3x3_s2_0_split
I0403 14:51:55.800478 13712 net.cpp:148] Top shape: 24 192 28 28 (3612672)
I0403 14:51:55.800493 13712 net.cpp:148] Top shape: 24 192 28 28 (3612672)
I0403 14:51:55.800513 13712 net.cpp:148] Top shape: 24 192 28 28 (3612672)
I0403 14:51:55.800532 13712 net.cpp:148] Top shape: 24 192 28 28 (3612672)
I0403 14:51:55.800545 13712 net.cpp:156] Memory required for data: 491324448
I0403 14:51:55.800559 13712 layer_factory.hpp:77] Creating layer inception_3a/1x1
I0403 14:51:55.800578 13712 net.cpp:91] Creating Layer inception_3a/1x1
I0403 14:51:55.800593 13712 net.cpp:425] inception_3a/1x1 <- pool2/3x3_s2_pool2/3x3_s2_0_split_0
I0403 14:51:55.800611 13712 net.cpp:399] inception_3a/1x1 -> inception_3a/1x1
I0403 14:51:55.802083 13712 net.cpp:141] Setting up inception_3a/1x1
I0403 14:51:55.802112 13712 net.cpp:148] Top shape: 24 64 28 28 (1204224)
I0403 14:51:55.802127 13712 net.cpp:156] Memory required for data: 496141344
I0403 14:51:55.802145 13712 layer_factory.hpp:77] Creating layer inception_3a/relu_1x1
I0403 14:51:55.802165 13712 net.cpp:91] Creating Layer inception_3a/relu_1x1
I0403 14:51:55.802181 13712 net.cpp:425] inception_3a/relu_1x1 <- inception_3a/1x1
I0403 14:51:55.802196 13712 net.cpp:386] inception_3a/relu_1x1 -> inception_3a/1x1 (in-place)
I0403 14:51:55.802371 13712 net.cpp:141] Setting up inception_3a/relu_1x1
I0403 14:51:55.802395 13712 net.cpp:148] Top shape: 24 64 28 28 (1204224)
I0403 14:51:55.802409 13712 net.cpp:156] Memory required for data: 500958240
I0403 14:51:55.802423 13712 layer_factory.hpp:77] Creating layer inception_3a/3x3_reduce
I0403 14:51:55.802448 13712 net.cpp:91] Creating Layer inception_3a/3x3_reduce
I0403 14:51:55.802464 13712 net.cpp:425] inception_3a/3x3_reduce <- pool2/3x3_s2_pool2/3x3_s2_0_split_1
I0403 14:51:55.802481 13712 net.cpp:399] inception_3a/3x3_reduce -> inception_3a/3x3_reduce
I0403 14:51:55.804162 13712 net.cpp:141] Setting up inception_3a/3x3_reduce
I0403 14:51:55.804190 13712 net.cpp:148] Top shape: 24 96 28 28 (1806336)
I0403 14:51:55.804205 13712 net.cpp:156] Memory required for data: 508183584
I0403 14:51:55.804225 13712 layer_factory.hpp:77] Creating layer inception_3a/relu_3x3_reduce
I0403 14:51:55.804262 13712 net.cpp:91] Creating Layer inception_3a/relu_3x3_reduce
I0403 14:51:55.804280 13712 net.cpp:425] inception_3a/relu_3x3_reduce <- inception_3a/3x3_reduce
I0403 14:51:55.804298 13712 net.cpp:386] inception_3a/relu_3x3_reduce -> inception_3a/3x3_reduce (in-place)
I0403 14:51:55.804478 13712 net.cpp:141] Setting up inception_3a/relu_3x3_reduce
I0403 14:51:55.804502 13712 net.cpp:148] Top shape: 24 96 28 28 (1806336)
I0403 14:51:55.804532 13712 net.cpp:156] Memory required for data: 515408928
I0403 14:51:55.804546 13712 layer_factory.hpp:77] Creating layer inception_3a/3x3
I0403 14:51:55.804569 13712 net.cpp:91] Creating Layer inception_3a/3x3
I0403 14:51:55.804586 13712 net.cpp:425] inception_3a/3x3 <- inception_3a/3x3_reduce
I0403 14:51:55.804607 13712 net.cpp:399] inception_3a/3x3 -> inception_3a/3x3
I0403 14:51:55.806237 13712 net.cpp:141] Setting up inception_3a/3x3
I0403 14:51:55.806267 13712 net.cpp:148] Top shape: 24 128 28 28 (2408448)
I0403 14:51:55.806282 13712 net.cpp:156] Memory required for data: 525042720
I0403 14:51:55.806299 13712 layer_factory.hpp:77] Creating layer inception_3a/relu_3x3
I0403 14:51:55.806318 13712 net.cpp:91] Creating Layer inception_3a/relu_3x3
I0403 14:51:55.806335 13712 net.cpp:425] inception_3a/relu_3x3 <- inception_3a/3x3
I0403 14:51:55.806351 13712 net.cpp:386] inception_3a/relu_3x3 -> inception_3a/3x3 (in-place)
I0403 14:51:55.806632 13712 net.cpp:141] Setting up inception_3a/relu_3x3
I0403 14:51:55.806658 13712 net.cpp:148] Top shape: 24 128 28 28 (2408448)
I0403 14:51:55.806673 13712 net.cpp:156] Memory required for data: 534676512
I0403 14:51:55.806686 13712 layer_factory.hpp:77] Creating layer inception_3a/5x5_reduce
I0403 14:51:55.806709 13712 net.cpp:91] Creating Layer inception_3a/5x5_reduce
I0403 14:51:55.806725 13712 net.cpp:425] inception_3a/5x5_reduce <- pool2/3x3_s2_pool2/3x3_s2_0_split_2
I0403 14:51:55.806746 13712 net.cpp:399] inception_3a/5x5_reduce -> inception_3a/5x5_reduce
I0403 14:51:55.807700 13712 net.cpp:141] Setting up inception_3a/5x5_reduce
I0403 14:51:55.807729 13712 net.cpp:148] Top shape: 24 16 28 28 (301056)
I0403 14:51:55.807746 13712 net.cpp:156] Memory required for data: 535880736
I0403 14:51:55.807763 13712 layer_factory.hpp:77] Creating layer inception_3a/relu_5x5_reduce
I0403 14:51:55.807781 13712 net.cpp:91] Creating Layer inception_3a/relu_5x5_reduce
I0403 14:51:55.807796 13712 net.cpp:425] inception_3a/relu_5x5_reduce <- inception_3a/5x5_reduce
I0403 14:51:55.807812 13712 net.cpp:386] inception_3a/relu_5x5_reduce -> inception_3a/5x5_reduce (in-place)
I0403 14:51:55.808112 13712 net.cpp:141] Setting up inception_3a/relu_5x5_reduce
I0403 14:51:55.808137 13712 net.cpp:148] Top shape: 24 16 28 28 (301056)
I0403 14:51:55.808152 13712 net.cpp:156] Memory required for data: 537084960
I0403 14:51:55.808166 13712 layer_factory.hpp:77] Creating layer inception_3a/5x5
I0403 14:51:55.808187 13712 net.cpp:91] Creating Layer inception_3a/5x5
I0403 14:51:55.808204 13712 net.cpp:425] inception_3a/5x5 <- inception_3a/5x5_reduce
I0403 14:51:55.808224 13712 net.cpp:399] inception_3a/5x5 -> inception_3a/5x5
I0403 14:51:55.809242 13712 net.cpp:141] Setting up inception_3a/5x5
I0403 14:51:55.809269 13712 net.cpp:148] Top shape: 24 32 28 28 (602112)
I0403 14:51:55.809284 13712 net.cpp:156] Memory required for data: 539493408
I0403 14:51:55.809301 13712 layer_factory.hpp:77] Creating layer inception_3a/relu_5x5
I0403 14:51:55.809320 13712 net.cpp:91] Creating Layer inception_3a/relu_5x5
I0403 14:51:55.809337 13712 net.cpp:425] inception_3a/relu_5x5 <- inception_3a/5x5
I0403 14:51:55.809355 13712 net.cpp:386] inception_3a/relu_5x5 -> inception_3a/5x5 (in-place)
I0403 14:51:55.809531 13712 net.cpp:141] Setting up inception_3a/relu_5x5
I0403 14:51:55.809558 13712 net.cpp:148] Top shape: 24 32 28 28 (602112)
I0403 14:51:55.809573 13712 net.cpp:156] Memory required for data: 541901856
I0403 14:51:55.809587 13712 layer_factory.hpp:77] Creating layer inception_3a/pool
I0403 14:51:55.809604 13712 net.cpp:91] Creating Layer inception_3a/pool
I0403 14:51:55.809633 13712 net.cpp:425] inception_3a/pool <- pool2/3x3_s2_pool2/3x3_s2_0_split_3
I0403 14:51:55.809655 13712 net.cpp:399] inception_3a/pool -> inception_3a/pool
I0403 14:51:55.809711 13712 net.cpp:141] Setting up inception_3a/pool
I0403 14:51:55.809734 13712 net.cpp:148] Top shape: 24 192 28 28 (3612672)
I0403 14:51:55.809747 13712 net.cpp:156] Memory required for data: 556352544
I0403 14:51:55.809762 13712 layer_factory.hpp:77] Creating layer inception_3a/pool_proj
I0403 14:51:55.809782 13712 net.cpp:91] Creating Layer inception_3a/pool_proj
I0403 14:51:55.809799 13712 net.cpp:425] inception_3a/pool_proj <- inception_3a/pool
I0403 14:51:55.809819 13712 net.cpp:399] inception_3a/pool_proj -> inception_3a/pool_proj
I0403 14:51:55.810775 13712 net.cpp:141] Setting up inception_3a/pool_proj
I0403 14:51:55.810802 13712 net.cpp:148] Top shape: 24 32 28 28 (602112)
I0403 14:51:55.810817 13712 net.cpp:156] Memory required for data: 558760992
I0403 14:51:55.810839 13712 layer_factory.hpp:77] Creating layer inception_3a/relu_pool_proj
I0403 14:51:55.810859 13712 net.cpp:91] Creating Layer inception_3a/relu_pool_proj
I0403 14:51:55.810874 13712 net.cpp:425] inception_3a/relu_pool_proj <- inception_3a/pool_proj
I0403 14:51:55.810890 13712 net.cpp:386] inception_3a/relu_pool_proj -> inception_3a/pool_proj (in-place)
I0403 14:51:55.811162 13712 net.cpp:141] Setting up inception_3a/relu_pool_proj
I0403 14:51:55.811188 13712 net.cpp:148] Top shape: 24 32 28 28 (602112)
I0403 14:51:55.811203 13712 net.cpp:156] Memory required for data: 561169440
I0403 14:51:55.811218 13712 layer_factory.hpp:77] Creating layer inception_3a/output
I0403 14:51:55.811238 13712 net.cpp:91] Creating Layer inception_3a/output
I0403 14:51:55.811254 13712 net.cpp:425] inception_3a/output <- inception_3a/1x1
I0403 14:51:55.811269 13712 net.cpp:425] inception_3a/output <- inception_3a/3x3
I0403 14:51:55.811285 13712 net.cpp:425] inception_3a/output <- inception_3a/5x5
I0403 14:51:55.811300 13712 net.cpp:425] inception_3a/output <- inception_3a/pool_proj
I0403 14:51:55.811316 13712 net.cpp:399] inception_3a/output -> inception_3a/output
I0403 14:51:55.811360 13712 net.cpp:141] Setting up inception_3a/output
I0403 14:51:55.811383 13712 net.cpp:148] Top shape: 24 256 28 28 (4816896)
I0403 14:51:55.811396 13712 net.cpp:156] Memory required for data: 580437024
I0403 14:51:55.811409 13712 layer_factory.hpp:77] Creating layer inception_3a/output_inception_3a/output_0_split
I0403 14:51:55.811425 13712 net.cpp:91] Creating Layer inception_3a/output_inception_3a/output_0_split
I0403 14:51:55.811439 13712 net.cpp:425] inception_3a/output_inception_3a/output_0_split <- inception_3a/output
I0403 14:51:55.811458 13712 net.cpp:399] inception_3a/output_inception_3a/output_0_split -> inception_3a/output_inception_3a/output_0_split_0
I0403 14:51:55.811478 13712 net.cpp:399] inception_3a/output_inception_3a/output_0_split -> inception_3a/output_inception_3a/output_0_split_1
I0403 14:51:55.811508 13712 net.cpp:399] inception_3a/output_inception_3a/output_0_split -> inception_3a/output_inception_3a/output_0_split_2
I0403 14:51:55.811532 13712 net.cpp:399] inception_3a/output_inception_3a/output_0_split -> inception_3a/output_inception_3a/output_0_split_3
I0403 14:51:55.811604 13712 net.cpp:141] Setting up inception_3a/output_inception_3a/output_0_split
I0403 14:51:55.811626 13712 net.cpp:148] Top shape: 24 256 28 28 (4816896)
I0403 14:51:55.811643 13712 net.cpp:148] Top shape: 24 256 28 28 (4816896)
I0403 14:51:55.811658 13712 net.cpp:148] Top shape: 24 256 28 28 (4816896)
I0403 14:51:55.811672 13712 net.cpp:148] Top shape: 24 256 28 28 (4816896)
I0403 14:51:55.811686 13712 net.cpp:156] Memory required for data: 657507360
I0403 14:51:55.811698 13712 layer_factory.hpp:77] Creating layer inception_3b/1x1
I0403 14:51:55.811719 13712 net.cpp:91] Creating Layer inception_3b/1x1
I0403 14:51:55.811736 13712 net.cpp:425] inception_3b/1x1 <- inception_3a/output_inception_3a/output_0_split_0
I0403 14:51:55.811756 13712 net.cpp:399] inception_3b/1x1 -> inception_3b/1x1
I0403 14:51:55.812882 13712 net.cpp:141] Setting up inception_3b/1x1
I0403 14:51:55.812922 13712 net.cpp:148] Top shape: 24 128 28 28 (2408448)
I0403 14:51:55.812937 13712 net.cpp:156] Memory required for data: 667141152
I0403 14:51:55.812954 13712 layer_factory.hpp:77] Creating layer inception_3b/relu_1x1
I0403 14:51:55.812974 13712 net.cpp:91] Creating Layer inception_3b/relu_1x1
I0403 14:51:55.812990 13712 net.cpp:425] inception_3b/relu_1x1 <- inception_3b/1x1
I0403 14:51:55.813006 13712 net.cpp:386] inception_3b/relu_1x1 -> inception_3b/1x1 (in-place)
I0403 14:51:55.813176 13712 net.cpp:141] Setting up inception_3b/relu_1x1
I0403 14:51:55.813200 13712 net.cpp:148] Top shape: 24 128 28 28 (2408448)
I0403 14:51:55.813217 13712 net.cpp:156] Memory required for data: 676774944
I0403 14:51:55.813232 13712 layer_factory.hpp:77] Creating layer inception_3b/3x3_reduce
I0403 14:51:55.813251 13712 net.cpp:91] Creating Layer inception_3b/3x3_reduce
I0403 14:51:55.813268 13712 net.cpp:425] inception_3b/3x3_reduce <- inception_3a/output_inception_3a/output_0_split_1
I0403 14:51:55.813288 13712 net.cpp:399] inception_3b/3x3_reduce -> inception_3b/3x3_reduce
I0403 14:51:55.814414 13712 net.cpp:141] Setting up inception_3b/3x3_reduce
I0403 14:51:55.814441 13712 net.cpp:148] Top shape: 24 128 28 28 (2408448)
I0403 14:51:55.814456 13712 net.cpp:156] Memory required for data: 686408736
I0403 14:51:55.814474 13712 layer_factory.hpp:77] Creating layer inception_3b/relu_3x3_reduce
I0403 14:51:55.814493 13712 net.cpp:91] Creating Layer inception_3b/relu_3x3_reduce
I0403 14:51:55.814519 13712 net.cpp:425] inception_3b/relu_3x3_reduce <- inception_3b/3x3_reduce
I0403 14:51:55.814539 13712 net.cpp:386] inception_3b/relu_3x3_reduce -> inception_3b/3x3_reduce (in-place)
I0403 14:51:55.814713 13712 net.cpp:141] Setting up inception_3b/relu_3x3_reduce
I0403 14:51:55.814738 13712 net.cpp:148] Top shape: 24 128 28 28 (2408448)
I0403 14:51:55.814751 13712 net.cpp:156] Memory required for data: 696042528
I0403 14:51:55.814765 13712 layer_factory.hpp:77] Creating layer inception_3b/3x3
I0403 14:51:55.814790 13712 net.cpp:91] Creating Layer inception_3b/3x3
I0403 14:51:55.814807 13712 net.cpp:425] inception_3b/3x3 <- inception_3b/3x3_reduce
I0403 14:51:55.814826 13712 net.cpp:399] inception_3b/3x3 -> inception_3b/3x3
I0403 14:51:55.817698 13712 net.cpp:141] Setting up inception_3b/3x3
I0403 14:51:55.817725 13712 net.cpp:148] Top shape: 24 192 28 28 (3612672)
I0403 14:51:55.817740 13712 net.cpp:156] Memory required for data: 710493216
I0403 14:51:55.817759 13712 layer_factory.hpp:77] Creating layer inception_3b/relu_3x3
I0403 14:51:55.817777 13712 net.cpp:91] Creating Layer inception_3b/relu_3x3
I0403 14:51:55.817793 13712 net.cpp:425] inception_3b/relu_3x3 <- inception_3b/3x3
I0403 14:51:55.817811 13712 net.cpp:386] inception_3b/relu_3x3 -> inception_3b/3x3 (in-place)
I0403 14:51:55.818084 13712 net.cpp:141] Setting up inception_3b/relu_3x3
I0403 14:51:55.818110 13712 net.cpp:148] Top shape: 24 192 28 28 (3612672)
I0403 14:51:55.818125 13712 net.cpp:156] Memory required for data: 724943904
I0403 14:51:55.818138 13712 layer_factory.hpp:77] Creating layer inception_3b/5x5_reduce
I0403 14:51:55.818159 13712 net.cpp:91] Creating Layer inception_3b/5x5_reduce
I0403 14:51:55.818177 13712 net.cpp:425] inception_3b/5x5_reduce <- inception_3a/output_inception_3a/output_0_split_2
I0403 14:51:55.818198 13712 net.cpp:399] inception_3b/5x5_reduce -> inception_3b/5x5_reduce
I0403 14:51:55.819185 13712 net.cpp:141] Setting up inception_3b/5x5_reduce
I0403 14:51:55.819212 13712 net.cpp:148] Top shape: 24 32 28 28 (602112)
I0403 14:51:55.819227 13712 net.cpp:156] Memory required for data: 727352352
I0403 14:51:55.819244 13712 layer_factory.hpp:77] Creating layer inception_3b/relu_5x5_reduce
I0403 14:51:55.819265 13712 net.cpp:91] Creating Layer inception_3b/relu_5x5_reduce
I0403 14:51:55.819281 13712 net.cpp:425] inception_3b/relu_5x5_reduce <- inception_3b/5x5_reduce
I0403 14:51:55.819298 13712 net.cpp:386] inception_3b/relu_5x5_reduce -> inception_3b/5x5_reduce (in-place)
I0403 14:51:55.819492 13712 net.cpp:141] Setting up inception_3b/relu_5x5_reduce
I0403 14:51:55.819532 13712 net.cpp:148] Top shape: 24 32 28 28 (602112)
I0403 14:51:55.819548 13712 net.cpp:156] Memory required for data: 729760800
I0403 14:51:55.819563 13712 layer_factory.hpp:77] Creating layer inception_3b/5x5
I0403 14:51:55.819586 13712 net.cpp:91] Creating Layer inception_3b/5x5
I0403 14:51:55.819602 13712 net.cpp:425] inception_3b/5x5 <- inception_3b/5x5_reduce
I0403 14:51:55.819620 13712 net.cpp:399] inception_3b/5x5 -> inception_3b/5x5
I0403 14:51:55.821557 13712 net.cpp:141] Setting up inception_3b/5x5
I0403 14:51:55.821585 13712 net.cpp:148] Top shape: 24 96 28 28 (1806336)
I0403 14:51:55.821600 13712 net.cpp:156] Memory required for data: 736986144
I0403 14:51:55.821617 13712 layer_factory.hpp:77] Creating layer inception_3b/relu_5x5
I0403 14:51:55.821636 13712 net.cpp:91] Creating Layer inception_3b/relu_5x5
I0403 14:51:55.821651 13712 net.cpp:425] inception_3b/relu_5x5 <- inception_3b/5x5
I0403 14:51:55.821667 13712 net.cpp:386] inception_3b/relu_5x5 -> inception_3b/5x5 (in-place)
I0403 14:51:55.821856 13712 net.cpp:141] Setting up inception_3b/relu_5x5
I0403 14:51:55.821880 13712 net.cpp:148] Top shape: 24 96 28 28 (1806336)
I0403 14:51:55.821895 13712 net.cpp:156] Memory required for data: 744211488
I0403 14:51:55.821909 13712 layer_factory.hpp:77] Creating layer inception_3b/pool
I0403 14:51:55.821926 13712 net.cpp:91] Creating Layer inception_3b/pool
I0403 14:51:55.821941 13712 net.cpp:425] inception_3b/pool <- inception_3a/output_inception_3a/output_0_split_3
I0403 14:51:55.821957 13712 net.cpp:399] inception_3b/pool -> inception_3b/pool
I0403 14:51:55.822011 13712 net.cpp:141] Setting up inception_3b/pool
I0403 14:51:55.822033 13712 net.cpp:148] Top shape: 24 256 28 28 (4816896)
I0403 14:51:55.822047 13712 net.cpp:156] Memory required for data: 763479072
I0403 14:51:55.822060 13712 layer_factory.hpp:77] Creating layer inception_3b/pool_proj
I0403 14:51:55.822080 13712 net.cpp:91] Creating Layer inception_3b/pool_proj
I0403 14:51:55.822098 13712 net.cpp:425] inception_3b/pool_proj <- inception_3b/pool
I0403 14:51:55.822116 13712 net.cpp:399] inception_3b/pool_proj -> inception_3b/pool_proj
I0403 14:51:55.823140 13712 net.cpp:141] Setting up inception_3b/pool_proj
I0403 14:51:55.823168 13712 net.cpp:148] Top shape: 24 64 28 28 (1204224)
I0403 14:51:55.823184 13712 net.cpp:156] Memory required for data: 768295968
I0403 14:51:55.823200 13712 layer_factory.hpp:77] Creating layer inception_3b/relu_pool_proj
I0403 14:51:55.823217 13712 net.cpp:91] Creating Layer inception_3b/relu_pool_proj
I0403 14:51:55.823232 13712 net.cpp:425] inception_3b/relu_pool_proj <- inception_3b/pool_proj
I0403 14:51:55.823251 13712 net.cpp:386] inception_3b/relu_pool_proj -> inception_3b/pool_proj (in-place)
I0403 14:51:55.823652 13712 net.cpp:141] Setting up inception_3b/relu_pool_proj
I0403 14:51:55.823678 13712 net.cpp:148] Top shape: 24 64 28 28 (1204224)
I0403 14:51:55.823694 13712 net.cpp:156] Memory required for data: 773112864
I0403 14:51:55.823709 13712 layer_factory.hpp:77] Creating layer inception_3b/output
I0403 14:51:55.823724 13712 net.cpp:91] Creating Layer inception_3b/output
I0403 14:51:55.823740 13712 net.cpp:425] inception_3b/output <- inception_3b/1x1
I0403 14:51:55.823755 13712 net.cpp:425] inception_3b/output <- inception_3b/3x3
I0403 14:51:55.823770 13712 net.cpp:425] inception_3b/output <- inception_3b/5x5
I0403 14:51:55.823783 13712 net.cpp:425] inception_3b/output <- inception_3b/pool_proj
I0403 14:51:55.823799 13712 net.cpp:399] inception_3b/output -> inception_3b/output
I0403 14:51:55.823842 13712 net.cpp:141] Setting up inception_3b/output
I0403 14:51:55.823863 13712 net.cpp:148] Top shape: 24 480 28 28 (9031680)
I0403 14:51:55.823878 13712 net.cpp:156] Memory required for data: 809239584
I0403 14:51:55.823891 13712 layer_factory.hpp:77] Creating layer pool3/3x3_s2
I0403 14:51:55.823909 13712 net.cpp:91] Creating Layer pool3/3x3_s2
I0403 14:51:55.823925 13712 net.cpp:425] pool3/3x3_s2 <- inception_3b/output
I0403 14:51:55.823956 13712 net.cpp:399] pool3/3x3_s2 -> pool3/3x3_s2
I0403 14:51:55.824013 13712 net.cpp:141] Setting up pool3/3x3_s2
I0403 14:51:55.824035 13712 net.cpp:148] Top shape: 24 480 14 14 (2257920)
I0403 14:51:55.824048 13712 net.cpp:156] Memory required for data: 818271264
I0403 14:51:55.824062 13712 layer_factory.hpp:77] Creating layer pool3/3x3_s2_pool3/3x3_s2_0_split
I0403 14:51:55.824077 13712 net.cpp:91] Creating Layer pool3/3x3_s2_pool3/3x3_s2_0_split
I0403 14:51:55.824092 13712 net.cpp:425] pool3/3x3_s2_pool3/3x3_s2_0_split <- pool3/3x3_s2
I0403 14:51:55.824110 13712 net.cpp:399] pool3/3x3_s2_pool3/3x3_s2_0_split -> pool3/3x3_s2_pool3/3x3_s2_0_split_0
I0403 14:51:55.824129 13712 net.cpp:399] pool3/3x3_s2_pool3/3x3_s2_0_split -> pool3/3x3_s2_pool3/3x3_s2_0_split_1
I0403 14:51:55.824148 13712 net.cpp:399] pool3/3x3_s2_pool3/3x3_s2_0_split -> pool3/3x3_s2_pool3/3x3_s2_0_split_2
I0403 14:51:55.824167 13712 net.cpp:399] pool3/3x3_s2_pool3/3x3_s2_0_split -> pool3/3x3_s2_pool3/3x3_s2_0_split_3
I0403 14:51:55.824239 13712 net.cpp:141] Setting up pool3/3x3_s2_pool3/3x3_s2_0_split
I0403 14:51:55.824272 13712 net.cpp:148] Top shape: 24 480 14 14 (2257920)
I0403 14:51:55.824288 13712 net.cpp:148] Top shape: 24 480 14 14 (2257920)
I0403 14:51:55.824303 13712 net.cpp:148] Top shape: 24 480 14 14 (2257920)
I0403 14:51:55.824316 13712 net.cpp:148] Top shape: 24 480 14 14 (2257920)
I0403 14:51:55.824329 13712 net.cpp:156] Memory required for data: 854397984
I0403 14:51:55.824342 13712 layer_factory.hpp:77] Creating layer inception_4a/1x1
I0403 14:51:55.824363 13712 net.cpp:91] Creating Layer inception_4a/1x1
I0403 14:51:55.824379 13712 net.cpp:425] inception_4a/1x1 <- pool3/3x3_s2_pool3/3x3_s2_0_split_0
I0403 14:51:55.824396 13712 net.cpp:399] inception_4a/1x1 -> inception_4a/1x1
I0403 14:51:55.825943 13712 net.cpp:141] Setting up inception_4a/1x1
I0403 14:51:55.825973 13712 net.cpp:148] Top shape: 24 192 14 14 (903168)
I0403 14:51:55.825989 13712 net.cpp:156] Memory required for data: 858010656
I0403 14:51:55.826006 13712 layer_factory.hpp:77] Creating layer inception_4a/relu_1x1
I0403 14:51:55.826023 13712 net.cpp:91] Creating Layer inception_4a/relu_1x1
I0403 14:51:55.826040 13712 net.cpp:425] inception_4a/relu_1x1 <- inception_4a/1x1
I0403 14:51:55.826058 13712 net.cpp:386] inception_4a/relu_1x1 -> inception_4a/1x1 (in-place)
I0403 14:51:55.826236 13712 net.cpp:141] Setting up inception_4a/relu_1x1
I0403 14:51:55.826262 13712 net.cpp:148] Top shape: 24 192 14 14 (903168)
I0403 14:51:55.826277 13712 net.cpp:156] Memory required for data: 861623328
I0403 14:51:55.826292 13712 layer_factory.hpp:77] Creating layer inception_4a/3x3_reduce
I0403 14:51:55.826313 13712 net.cpp:91] Creating Layer inception_4a/3x3_reduce
I0403 14:51:55.826329 13712 net.cpp:425] inception_4a/3x3_reduce <- pool3/3x3_s2_pool3/3x3_s2_0_split_1
I0403 14:51:55.826350 13712 net.cpp:399] inception_4a/3x3_reduce -> inception_4a/3x3_reduce
I0403 14:51:55.827615 13712 net.cpp:141] Setting up inception_4a/3x3_reduce
I0403 14:51:55.827641 13712 net.cpp:148] Top shape: 24 96 14 14 (451584)
I0403 14:51:55.827657 13712 net.cpp:156] Memory required for data: 863429664
I0403 14:51:55.827682 13712 layer_factory.hpp:77] Creating layer inception_4a/relu_3x3_reduce
I0403 14:51:55.827700 13712 net.cpp:91] Creating Layer inception_4a/relu_3x3_reduce
I0403 14:51:55.827715 13712 net.cpp:425] inception_4a/relu_3x3_reduce <- inception_4a/3x3_reduce
I0403 14:51:55.827734 13712 net.cpp:386] inception_4a/relu_3x3_reduce -> inception_4a/3x3_reduce (in-place)
I0403 14:51:55.827910 13712 net.cpp:141] Setting up inception_4a/relu_3x3_reduce
I0403 14:51:55.827934 13712 net.cpp:148] Top shape: 24 96 14 14 (451584)
I0403 14:51:55.827950 13712 net.cpp:156] Memory required for data: 865236000
I0403 14:51:55.827963 13712 layer_factory.hpp:77] Creating layer inception_4a/3x3
I0403 14:51:55.827985 13712 net.cpp:91] Creating Layer inception_4a/3x3
I0403 14:51:55.828001 13712 net.cpp:425] inception_4a/3x3 <- inception_4a/3x3_reduce
I0403 14:51:55.828022 13712 net.cpp:399] inception_4a/3x3 -> inception_4a/3x3
I0403 14:51:55.830687 13712 net.cpp:141] Setting up inception_4a/3x3
I0403 14:51:55.830714 13712 net.cpp:148] Top shape: 24 208 14 14 (978432)
I0403 14:51:55.830729 13712 net.cpp:156] Memory required for data: 869149728
I0403 14:51:55.830747 13712 layer_factory.hpp:77] Creating layer inception_4a/relu_3x3
I0403 14:51:55.830766 13712 net.cpp:91] Creating Layer inception_4a/relu_3x3
I0403 14:51:55.830782 13712 net.cpp:425] inception_4a/relu_3x3 <- inception_4a/3x3
I0403 14:51:55.830799 13712 net.cpp:386] inception_4a/relu_3x3 -> inception_4a/3x3 (in-place)
I0403 14:51:55.831074 13712 net.cpp:141] Setting up inception_4a/relu_3x3
I0403 14:51:55.831100 13712 net.cpp:148] Top shape: 24 208 14 14 (978432)
I0403 14:51:55.831116 13712 net.cpp:156] Memory required for data: 873063456
I0403 14:51:55.831131 13712 layer_factory.hpp:77] Creating layer inception_4a/5x5_reduce
I0403 14:51:55.831154 13712 net.cpp:91] Creating Layer inception_4a/5x5_reduce
I0403 14:51:55.831172 13712 net.cpp:425] inception_4a/5x5_reduce <- pool3/3x3_s2_pool3/3x3_s2_0_split_2
I0403 14:51:55.831193 13712 net.cpp:399] inception_4a/5x5_reduce -> inception_4a/5x5_reduce
I0403 14:51:55.832247 13712 net.cpp:141] Setting up inception_4a/5x5_reduce
I0403 14:51:55.832276 13712 net.cpp:148] Top shape: 24 16 14 14 (75264)
I0403 14:51:55.832291 13712 net.cpp:156] Memory required for data: 873364512
I0403 14:51:55.832309 13712 layer_factory.hpp:77] Creating layer inception_4a/relu_5x5_reduce
I0403 14:51:55.832329 13712 net.cpp:91] Creating Layer inception_4a/relu_5x5_reduce
I0403 14:51:55.832347 13712 net.cpp:425] inception_4a/relu_5x5_reduce <- inception_4a/5x5_reduce
I0403 14:51:55.832363 13712 net.cpp:386] inception_4a/relu_5x5_reduce -> inception_4a/5x5_reduce (in-place)
I0403 14:51:55.832561 13712 net.cpp:141] Setting up inception_4a/relu_5x5_reduce
I0403 14:51:55.832588 13712 net.cpp:148] Top shape: 24 16 14 14 (75264)
I0403 14:51:55.832604 13712 net.cpp:156] Memory required for data: 873665568
I0403 14:51:55.832620 13712 layer_factory.hpp:77] Creating layer inception_4a/5x5
I0403 14:51:55.832643 13712 net.cpp:91] Creating Layer inception_4a/5x5
I0403 14:51:55.832659 13712 net.cpp:425] inception_4a/5x5 <- inception_4a/5x5_reduce
I0403 14:51:55.832679 13712 net.cpp:399] inception_4a/5x5 -> inception_4a/5x5
I0403 14:51:55.833784 13712 net.cpp:141] Setting up inception_4a/5x5
I0403 14:51:55.833817 13712 net.cpp:148] Top shape: 24 48 14 14 (225792)
I0403 14:51:55.833834 13712 net.cpp:156] Memory required for data: 874568736
I0403 14:51:55.833854 13712 layer_factory.hpp:77] Creating layer inception_4a/relu_5x5
I0403 14:51:55.833873 13712 net.cpp:91] Creating Layer inception_4a/relu_5x5
I0403 14:51:55.833889 13712 net.cpp:425] inception_4a/relu_5x5 <- inception_4a/5x5
I0403 14:51:55.833906 13712 net.cpp:386] inception_4a/relu_5x5 -> inception_4a/5x5 (in-place)
I0403 14:51:55.834091 13712 net.cpp:141] Setting up inception_4a/relu_5x5
I0403 14:51:55.834116 13712 net.cpp:148] Top shape: 24 48 14 14 (225792)
I0403 14:51:55.834131 13712 net.cpp:156] Memory required for data: 875471904
I0403 14:51:55.834147 13712 layer_factory.hpp:77] Creating layer inception_4a/pool
I0403 14:51:55.834166 13712 net.cpp:91] Creating Layer inception_4a/pool
I0403 14:51:55.834180 13712 net.cpp:425] inception_4a/pool <- pool3/3x3_s2_pool3/3x3_s2_0_split_3
I0403 14:51:55.834200 13712 net.cpp:399] inception_4a/pool -> inception_4a/pool
I0403 14:51:55.834262 13712 net.cpp:141] Setting up inception_4a/pool
I0403 14:51:55.834288 13712 net.cpp:148] Top shape: 24 480 14 14 (2257920)
I0403 14:51:55.834303 13712 net.cpp:156] Memory required for data: 884503584
I0403 14:51:55.834318 13712 layer_factory.hpp:77] Creating layer inception_4a/pool_proj
I0403 14:51:55.834339 13712 net.cpp:91] Creating Layer inception_4a/pool_proj
I0403 14:51:55.834357 13712 net.cpp:425] inception_4a/pool_proj <- inception_4a/pool
I0403 14:51:55.834375 13712 net.cpp:399] inception_4a/pool_proj -> inception_4a/pool_proj
I0403 14:51:55.835572 13712 net.cpp:141] Setting up inception_4a/pool_proj
I0403 14:51:55.835602 13712 net.cpp:148] Top shape: 24 64 14 14 (301056)
I0403 14:51:55.835635 13712 net.cpp:156] Memory required for data: 885707808
I0403 14:51:55.835655 13712 layer_factory.hpp:77] Creating layer inception_4a/relu_pool_proj
I0403 14:51:55.835672 13712 net.cpp:91] Creating Layer inception_4a/relu_pool_proj
I0403 14:51:55.835687 13712 net.cpp:425] inception_4a/relu_pool_proj <- inception_4a/pool_proj
I0403 14:51:55.835708 13712 net.cpp:386] inception_4a/relu_pool_proj -> inception_4a/pool_proj (in-place)
I0403 14:51:55.835999 13712 net.cpp:141] Setting up inception_4a/relu_pool_proj
I0403 14:51:55.836024 13712 net.cpp:148] Top shape: 24 64 14 14 (301056)
I0403 14:51:55.836040 13712 net.cpp:156] Memory required for data: 886912032
I0403 14:51:55.836056 13712 layer_factory.hpp:77] Creating layer inception_4a/output
I0403 14:51:55.836074 13712 net.cpp:91] Creating Layer inception_4a/output
I0403 14:51:55.836091 13712 net.cpp:425] inception_4a/output <- inception_4a/1x1
I0403 14:51:55.836107 13712 net.cpp:425] inception_4a/output <- inception_4a/3x3
I0403 14:51:55.836123 13712 net.cpp:425] inception_4a/output <- inception_4a/5x5
I0403 14:51:55.836139 13712 net.cpp:425] inception_4a/output <- inception_4a/pool_proj
I0403 14:51:55.836158 13712 net.cpp:399] inception_4a/output -> inception_4a/output
I0403 14:51:55.836204 13712 net.cpp:141] Setting up inception_4a/output
I0403 14:51:55.836230 13712 net.cpp:148] Top shape: 24 512 14 14 (2408448)
I0403 14:51:55.836244 13712 net.cpp:156] Memory required for data: 896545824
I0403 14:51:55.836261 13712 layer_factory.hpp:77] Creating layer inception_4a/output_inception_4a/output_0_split
I0403 14:51:55.836278 13712 net.cpp:91] Creating Layer inception_4a/output_inception_4a/output_0_split
I0403 14:51:55.836294 13712 net.cpp:425] inception_4a/output_inception_4a/output_0_split <- inception_4a/output
I0403 14:51:55.836311 13712 net.cpp:399] inception_4a/output_inception_4a/output_0_split -> inception_4a/output_inception_4a/output_0_split_0
I0403 14:51:55.836331 13712 net.cpp:399] inception_4a/output_inception_4a/output_0_split -> inception_4a/output_inception_4a/output_0_split_1
I0403 14:51:55.836354 13712 net.cpp:399] inception_4a/output_inception_4a/output_0_split -> inception_4a/output_inception_4a/output_0_split_2
I0403 14:51:55.836376 13712 net.cpp:399] inception_4a/output_inception_4a/output_0_split -> inception_4a/output_inception_4a/output_0_split_3
I0403 14:51:55.836396 13712 net.cpp:399] inception_4a/output_inception_4a/output_0_split -> inception_4a/output_inception_4a/output_0_split_4
I0403 14:51:55.836491 13712 net.cpp:141] Setting up inception_4a/output_inception_4a/output_0_split
I0403 14:51:55.836527 13712 net.cpp:148] Top shape: 24 512 14 14 (2408448)
I0403 14:51:55.836544 13712 net.cpp:148] Top shape: 24 512 14 14 (2408448)
I0403 14:51:55.836560 13712 net.cpp:148] Top shape: 24 512 14 14 (2408448)
I0403 14:51:55.836575 13712 net.cpp:148] Top shape: 24 512 14 14 (2408448)
I0403 14:51:55.836591 13712 net.cpp:148] Top shape: 24 512 14 14 (2408448)
I0403 14:51:55.836604 13712 net.cpp:156] Memory required for data: 944714784
I0403 14:51:55.836618 13712 layer_factory.hpp:77] Creating layer loss1/ave_pool
I0403 14:51:55.836638 13712 net.cpp:91] Creating Layer loss1/ave_pool
I0403 14:51:55.836655 13712 net.cpp:425] loss1/ave_pool <- inception_4a/output_inception_4a/output_0_split_0
I0403 14:51:55.836673 13712 net.cpp:399] loss1/ave_pool -> loss1/ave_pool
I0403 14:51:55.836889 13712 net.cpp:141] Setting up loss1/ave_pool
I0403 14:51:55.836915 13712 net.cpp:148] Top shape: 24 512 4 4 (196608)
I0403 14:51:55.836930 13712 net.cpp:156] Memory required for data: 945501216
I0403 14:51:55.836944 13712 layer_factory.hpp:77] Creating layer loss1/conv
I0403 14:51:55.836966 13712 net.cpp:91] Creating Layer loss1/conv
I0403 14:51:55.836983 13712 net.cpp:425] loss1/conv <- loss1/ave_pool
I0403 14:51:55.837005 13712 net.cpp:399] loss1/conv -> loss1/conv
I0403 14:51:55.838451 13712 net.cpp:141] Setting up loss1/conv
I0403 14:51:55.838480 13712 net.cpp:148] Top shape: 24 128 4 4 (49152)
I0403 14:51:55.838515 13712 net.cpp:156] Memory required for data: 945697824
I0403 14:51:55.838536 13712 layer_factory.hpp:77] Creating layer loss1/relu_conv
I0403 14:51:55.838557 13712 net.cpp:91] Creating Layer loss1/relu_conv
I0403 14:51:55.838575 13712 net.cpp:425] loss1/relu_conv <- loss1/conv
I0403 14:51:55.838593 13712 net.cpp:386] loss1/relu_conv -> loss1/conv (in-place)
I0403 14:51:55.838884 13712 net.cpp:141] Setting up loss1/relu_conv
I0403 14:51:55.838910 13712 net.cpp:148] Top shape: 24 128 4 4 (49152)
I0403 14:51:55.838927 13712 net.cpp:156] Memory required for data: 945894432
I0403 14:51:55.838942 13712 layer_factory.hpp:77] Creating layer loss1/fc
I0403 14:51:55.838968 13712 net.cpp:91] Creating Layer loss1/fc
I0403 14:51:55.838987 13712 net.cpp:425] loss1/fc <- loss1/conv
I0403 14:51:55.839005 13712 net.cpp:399] loss1/fc -> loss1/fc
I0403 14:51:55.857089 13712 net.cpp:141] Setting up loss1/fc
I0403 14:51:55.857136 13712 net.cpp:148] Top shape: 24 1024 (24576)
I0403 14:51:55.857151 13712 net.cpp:156] Memory required for data: 945992736
I0403 14:51:55.857170 13712 layer_factory.hpp:77] Creating layer loss1/relu_fc
I0403 14:51:55.857189 13712 net.cpp:91] Creating Layer loss1/relu_fc
I0403 14:51:55.857206 13712 net.cpp:425] loss1/relu_fc <- loss1/fc
I0403 14:51:55.857229 13712 net.cpp:386] loss1/relu_fc -> loss1/fc (in-place)
I0403 14:51:55.857440 13712 net.cpp:141] Setting up loss1/relu_fc
I0403 14:51:55.857465 13712 net.cpp:148] Top shape: 24 1024 (24576)
I0403 14:51:55.857480 13712 net.cpp:156] Memory required for data: 946091040
I0403 14:51:55.857493 13712 layer_factory.hpp:77] Creating layer loss1/drop_fc
I0403 14:51:55.857527 13712 net.cpp:91] Creating Layer loss1/drop_fc
I0403 14:51:55.857544 13712 net.cpp:425] loss1/drop_fc <- loss1/fc
I0403 14:51:55.857561 13712 net.cpp:386] loss1/drop_fc -> loss1/fc (in-place)
I0403 14:51:55.857612 13712 net.cpp:141] Setting up loss1/drop_fc
I0403 14:51:55.857638 13712 net.cpp:148] Top shape: 24 1024 (24576)
I0403 14:51:55.857652 13712 net.cpp:156] Memory required for data: 946189344
I0403 14:51:55.857667 13712 layer_factory.hpp:77] Creating layer loss1/classifier_plantvillage
I0403 14:51:55.857686 13712 net.cpp:91] Creating Layer loss1/classifier_plantvillage
I0403 14:51:55.857699 13712 net.cpp:425] loss1/classifier_plantvillage <- loss1/fc
I0403 14:51:55.857719 13712 net.cpp:399] loss1/classifier_plantvillage -> loss1/classifier_plantvillage
I0403 14:51:55.858644 13712 net.cpp:141] Setting up loss1/classifier_plantvillage
I0403 14:51:55.858671 13712 net.cpp:148] Top shape: 24 38 (912)
I0403 14:51:55.858686 13712 net.cpp:156] Memory required for data: 946192992
I0403 14:51:55.858705 13712 layer_factory.hpp:77] Creating layer loss1/classifier_plantvillage_loss1/classifier_plantvillage_0_split
I0403 14:51:55.858722 13712 net.cpp:91] Creating Layer loss1/classifier_plantvillage_loss1/classifier_plantvillage_0_split
I0403 14:51:55.858741 13712 net.cpp:425] loss1/classifier_plantvillage_loss1/classifier_plantvillage_0_split <- loss1/classifier_plantvillage
I0403 14:51:55.858758 13712 net.cpp:399] loss1/classifier_plantvillage_loss1/classifier_plantvillage_0_split -> loss1/classifier_plantvillage_loss1/classifier_plantvillage_0_split_0
I0403 14:51:55.858778 13712 net.cpp:399] loss1/classifier_plantvillage_loss1/classifier_plantvillage_0_split -> loss1/classifier_plantvillage_loss1/classifier_plantvillage_0_split_1
I0403 14:51:55.858798 13712 net.cpp:399] loss1/classifier_plantvillage_loss1/classifier_plantvillage_0_split -> loss1/classifier_plantvillage_loss1/classifier_plantvillage_0_split_2
I0403 14:51:55.858862 13712 net.cpp:141] Setting up loss1/classifier_plantvillage_loss1/classifier_plantvillage_0_split
I0403 14:51:55.858887 13712 net.cpp:148] Top shape: 24 38 (912)
I0403 14:51:55.858906 13712 net.cpp:148] Top shape: 24 38 (912)
I0403 14:51:55.858922 13712 net.cpp:148] Top shape: 24 38 (912)
I0403 14:51:55.858935 13712 net.cpp:156] Memory required for data: 946203936
I0403 14:51:55.858949 13712 layer_factory.hpp:77] Creating layer inception_4b/1x1
I0403 14:51:55.858969 13712 net.cpp:91] Creating Layer inception_4b/1x1
I0403 14:51:55.859011 13712 net.cpp:425] inception_4b/1x1 <- inception_4a/output_inception_4a/output_0_split_1
I0403 14:51:55.859031 13712 net.cpp:399] inception_4b/1x1 -> inception_4b/1x1
I0403 14:51:55.860703 13712 net.cpp:141] Setting up inception_4b/1x1
I0403 14:51:55.860730 13712 net.cpp:148] Top shape: 24 160 14 14 (752640)
I0403 14:51:55.860746 13712 net.cpp:156] Memory required for data: 949214496
I0403 14:51:55.860764 13712 layer_factory.hpp:77] Creating layer inception_4b/relu_1x1
I0403 14:51:55.860785 13712 net.cpp:91] Creating Layer inception_4b/relu_1x1
I0403 14:51:55.860803 13712 net.cpp:425] inception_4b/relu_1x1 <- inception_4b/1x1
I0403 14:51:55.860823 13712 net.cpp:386] inception_4b/relu_1x1 -> inception_4b/1x1 (in-place)
I0403 14:51:55.861004 13712 net.cpp:141] Setting up inception_4b/relu_1x1
I0403 14:51:55.861030 13712 net.cpp:148] Top shape: 24 160 14 14 (752640)
I0403 14:51:55.861047 13712 net.cpp:156] Memory required for data: 952225056
I0403 14:51:55.861062 13712 layer_factory.hpp:77] Creating layer inception_4b/3x3_reduce
I0403 14:51:55.861081 13712 net.cpp:91] Creating Layer inception_4b/3x3_reduce
I0403 14:51:55.861099 13712 net.cpp:425] inception_4b/3x3_reduce <- inception_4a/output_inception_4a/output_0_split_2
I0403 14:51:55.861119 13712 net.cpp:399] inception_4b/3x3_reduce -> inception_4b/3x3_reduce
I0403 14:51:55.862458 13712 net.cpp:141] Setting up inception_4b/3x3_reduce
I0403 14:51:55.862485 13712 net.cpp:148] Top shape: 24 112 14 14 (526848)
I0403 14:51:55.862500 13712 net.cpp:156] Memory required for data: 954332448
I0403 14:51:55.862522 13712 layer_factory.hpp:77] Creating layer inception_4b/relu_3x3_reduce
I0403 14:51:55.862546 13712 net.cpp:91] Creating Layer inception_4b/relu_3x3_reduce
I0403 14:51:55.862563 13712 net.cpp:425] inception_4b/relu_3x3_reduce <- inception_4b/3x3_reduce
I0403 14:51:55.862581 13712 net.cpp:386] inception_4b/relu_3x3_reduce -> inception_4b/3x3_reduce (in-place)
I0403 14:51:55.862860 13712 net.cpp:141] Setting up inception_4b/relu_3x3_reduce
I0403 14:51:55.862889 13712 net.cpp:148] Top shape: 24 112 14 14 (526848)
I0403 14:51:55.862903 13712 net.cpp:156] Memory required for data: 956439840
I0403 14:51:55.862917 13712 layer_factory.hpp:77] Creating layer inception_4b/3x3
I0403 14:51:55.862941 13712 net.cpp:91] Creating Layer inception_4b/3x3
I0403 14:51:55.862957 13712 net.cpp:425] inception_4b/3x3 <- inception_4b/3x3_reduce
I0403 14:51:55.862975 13712 net.cpp:399] inception_4b/3x3 -> inception_4b/3x3
I0403 14:51:55.865957 13712 net.cpp:141] Setting up inception_4b/3x3
I0403 14:51:55.865986 13712 net.cpp:148] Top shape: 24 224 14 14 (1053696)
I0403 14:51:55.866003 13712 net.cpp:156] Memory required for data: 960654624
I0403 14:51:55.866020 13712 layer_factory.hpp:77] Creating layer inception_4b/relu_3x3
I0403 14:51:55.866039 13712 net.cpp:91] Creating Layer inception_4b/relu_3x3
I0403 14:51:55.866055 13712 net.cpp:425] inception_4b/relu_3x3 <- inception_4b/3x3
I0403 14:51:55.866073 13712 net.cpp:386] inception_4b/relu_3x3 -> inception_4b/3x3 (in-place)
I0403 14:51:55.866255 13712 net.cpp:141] Setting up inception_4b/relu_3x3
I0403 14:51:55.866281 13712 net.cpp:148] Top shape: 24 224 14 14 (1053696)
I0403 14:51:55.866296 13712 net.cpp:156] Memory required for data: 964869408
I0403 14:51:55.866309 13712 layer_factory.hpp:77] Creating layer inception_4b/5x5_reduce
I0403 14:51:55.866329 13712 net.cpp:91] Creating Layer inception_4b/5x5_reduce
I0403 14:51:55.866348 13712 net.cpp:425] inception_4b/5x5_reduce <- inception_4a/output_inception_4a/output_0_split_3
I0403 14:51:55.866369 13712 net.cpp:399] inception_4b/5x5_reduce -> inception_4b/5x5_reduce
I0403 14:51:55.867457 13712 net.cpp:141] Setting up inception_4b/5x5_reduce
I0403 14:51:55.867486 13712 net.cpp:148] Top shape: 24 24 14 14 (112896)
I0403 14:51:55.867501 13712 net.cpp:156] Memory required for data: 965320992
I0403 14:51:55.867522 13712 layer_factory.hpp:77] Creating layer inception_4b/relu_5x5_reduce
I0403 14:51:55.867543 13712 net.cpp:91] Creating Layer inception_4b/relu_5x5_reduce
I0403 14:51:55.867575 13712 net.cpp:425] inception_4b/relu_5x5_reduce <- inception_4b/5x5_reduce
I0403 14:51:55.867594 13712 net.cpp:386] inception_4b/relu_5x5_reduce -> inception_4b/5x5_reduce (in-place)
I0403 14:51:55.867777 13712 net.cpp:141] Setting up inception_4b/relu_5x5_reduce
I0403 14:51:55.867805 13712 net.cpp:148] Top shape: 24 24 14 14 (112896)
I0403 14:51:55.867820 13712 net.cpp:156] Memory required for data: 965772576
I0403 14:51:55.867835 13712 layer_factory.hpp:77] Creating layer inception_4b/5x5
I0403 14:51:55.867857 13712 net.cpp:91] Creating Layer inception_4b/5x5
I0403 14:51:55.867874 13712 net.cpp:425] inception_4b/5x5 <- inception_4b/5x5_reduce
I0403 14:51:55.867895 13712 net.cpp:399] inception_4b/5x5 -> inception_4b/5x5
I0403 14:51:55.869132 13712 net.cpp:141] Setting up inception_4b/5x5
I0403 14:51:55.869160 13712 net.cpp:148] Top shape: 24 64 14 14 (301056)
I0403 14:51:55.869176 13712 net.cpp:156] Memory required for data: 966976800
I0403 14:51:55.869194 13712 layer_factory.hpp:77] Creating layer inception_4b/relu_5x5
I0403 14:51:55.869216 13712 net.cpp:91] Creating Layer inception_4b/relu_5x5
I0403 14:51:55.869237 13712 net.cpp:425] inception_4b/relu_5x5 <- inception_4b/5x5
I0403 14:51:55.869254 13712 net.cpp:386] inception_4b/relu_5x5 -> inception_4b/5x5 (in-place)
I0403 14:51:55.869557 13712 net.cpp:141] Setting up inception_4b/relu_5x5
I0403 14:51:55.869585 13712 net.cpp:148] Top shape: 24 64 14 14 (301056)
I0403 14:51:55.869599 13712 net.cpp:156] Memory required for data: 968181024
I0403 14:51:55.869613 13712 layer_factory.hpp:77] Creating layer inception_4b/pool
I0403 14:51:55.869632 13712 net.cpp:91] Creating Layer inception_4b/pool
I0403 14:51:55.869649 13712 net.cpp:425] inception_4b/pool <- inception_4a/output_inception_4a/output_0_split_4
I0403 14:51:55.869665 13712 net.cpp:399] inception_4b/pool -> inception_4b/pool
I0403 14:51:55.869729 13712 net.cpp:141] Setting up inception_4b/pool
I0403 14:51:55.869751 13712 net.cpp:148] Top shape: 24 512 14 14 (2408448)
I0403 14:51:55.869765 13712 net.cpp:156] Memory required for data: 977814816
I0403 14:51:55.869778 13712 layer_factory.hpp:77] Creating layer inception_4b/pool_proj
I0403 14:51:55.869798 13712 net.cpp:91] Creating Layer inception_4b/pool_proj
I0403 14:51:55.869815 13712 net.cpp:425] inception_4b/pool_proj <- inception_4b/pool
I0403 14:51:55.869837 13712 net.cpp:399] inception_4b/pool_proj -> inception_4b/pool_proj
I0403 14:51:55.870991 13712 net.cpp:141] Setting up inception_4b/pool_proj
I0403 14:51:55.871018 13712 net.cpp:148] Top shape: 24 64 14 14 (301056)
I0403 14:51:55.871032 13712 net.cpp:156] Memory required for data: 979019040
I0403 14:51:55.871050 13712 layer_factory.hpp:77] Creating layer inception_4b/relu_pool_proj
I0403 14:51:55.871070 13712 net.cpp:91] Creating Layer inception_4b/relu_pool_proj
I0403 14:51:55.871086 13712 net.cpp:425] inception_4b/relu_pool_proj <- inception_4b/pool_proj
I0403 14:51:55.871104 13712 net.cpp:386] inception_4b/relu_pool_proj -> inception_4b/pool_proj (in-place)
I0403 14:51:55.871289 13712 net.cpp:141] Setting up inception_4b/relu_pool_proj
I0403 14:51:55.871315 13712 net.cpp:148] Top shape: 24 64 14 14 (301056)
I0403 14:51:55.871330 13712 net.cpp:156] Memory required for data: 980223264
I0403 14:51:55.871345 13712 layer_factory.hpp:77] Creating layer inception_4b/output
I0403 14:51:55.871362 13712 net.cpp:91] Creating Layer inception_4b/output
I0403 14:51:55.871376 13712 net.cpp:425] inception_4b/output <- inception_4b/1x1
I0403 14:51:55.871392 13712 net.cpp:425] inception_4b/output <- inception_4b/3x3
I0403 14:51:55.871408 13712 net.cpp:425] inception_4b/output <- inception_4b/5x5
I0403 14:51:55.871423 13712 net.cpp:425] inception_4b/output <- inception_4b/pool_proj
I0403 14:51:55.871441 13712 net.cpp:399] inception_4b/output -> inception_4b/output
I0403 14:51:55.871486 13712 net.cpp:141] Setting up inception_4b/output
I0403 14:51:55.871512 13712 net.cpp:148] Top shape: 24 512 14 14 (2408448)
I0403 14:51:55.871528 13712 net.cpp:156] Memory required for data: 989857056
I0403 14:51:55.871568 13712 layer_factory.hpp:77] Creating layer inception_4b/output_inception_4b/output_0_split
I0403 14:51:55.871587 13712 net.cpp:91] Creating Layer inception_4b/output_inception_4b/output_0_split
I0403 14:51:55.871603 13712 net.cpp:425] inception_4b/output_inception_4b/output_0_split <- inception_4b/output
I0403 14:51:55.871618 13712 net.cpp:399] inception_4b/output_inception_4b/output_0_split -> inception_4b/output_inception_4b/output_0_split_0
I0403 14:51:55.871637 13712 net.cpp:399] inception_4b/output_inception_4b/output_0_split -> inception_4b/output_inception_4b/output_0_split_1
I0403 14:51:55.871657 13712 net.cpp:399] inception_4b/output_inception_4b/output_0_split -> inception_4b/output_inception_4b/output_0_split_2
I0403 14:51:55.871680 13712 net.cpp:399] inception_4b/output_inception_4b/output_0_split -> inception_4b/output_inception_4b/output_0_split_3
I0403 14:51:55.871762 13712 net.cpp:141] Setting up inception_4b/output_inception_4b/output_0_split
I0403 14:51:55.871784 13712 net.cpp:148] Top shape: 24 512 14 14 (2408448)
I0403 14:51:55.871799 13712 net.cpp:148] Top shape: 24 512 14 14 (2408448)
I0403 14:51:55.871814 13712 net.cpp:148] Top shape: 24 512 14 14 (2408448)
I0403 14:51:55.871829 13712 net.cpp:148] Top shape: 24 512 14 14 (2408448)
I0403 14:51:55.871841 13712 net.cpp:156] Memory required for data: 1028392224
I0403 14:51:55.871855 13712 layer_factory.hpp:77] Creating layer inception_4c/1x1
I0403 14:51:55.871876 13712 net.cpp:91] Creating Layer inception_4c/1x1
I0403 14:51:55.871891 13712 net.cpp:425] inception_4c/1x1 <- inception_4b/output_inception_4b/output_0_split_0
I0403 14:51:55.871912 13712 net.cpp:399] inception_4c/1x1 -> inception_4c/1x1
I0403 14:51:55.873287 13712 net.cpp:141] Setting up inception_4c/1x1
I0403 14:51:55.873317 13712 net.cpp:148] Top shape: 24 128 14 14 (602112)
I0403 14:51:55.873332 13712 net.cpp:156] Memory required for data: 1030800672
I0403 14:51:55.873349 13712 layer_factory.hpp:77] Creating layer inception_4c/relu_1x1
I0403 14:51:55.873366 13712 net.cpp:91] Creating Layer inception_4c/relu_1x1
I0403 14:51:55.873381 13712 net.cpp:425] inception_4c/relu_1x1 <- inception_4c/1x1
I0403 14:51:55.873399 13712 net.cpp:386] inception_4c/relu_1x1 -> inception_4c/1x1 (in-place)
I0403 14:51:55.873579 13712 net.cpp:141] Setting up inception_4c/relu_1x1
I0403 14:51:55.873603 13712 net.cpp:148] Top shape: 24 128 14 14 (602112)
I0403 14:51:55.873617 13712 net.cpp:156] Memory required for data: 1033209120
I0403 14:51:55.873631 13712 layer_factory.hpp:77] Creating layer inception_4c/3x3_reduce
I0403 14:51:55.873651 13712 net.cpp:91] Creating Layer inception_4c/3x3_reduce
I0403 14:51:55.873668 13712 net.cpp:425] inception_4c/3x3_reduce <- inception_4b/output_inception_4b/output_0_split_1
I0403 14:51:55.873689 13712 net.cpp:399] inception_4c/3x3_reduce -> inception_4c/3x3_reduce
I0403 14:51:55.875581 13712 net.cpp:141] Setting up inception_4c/3x3_reduce
I0403 14:51:55.875608 13712 net.cpp:148] Top shape: 24 128 14 14 (602112)
I0403 14:51:55.875623 13712 net.cpp:156] Memory required for data: 1035617568
I0403 14:51:55.875641 13712 layer_factory.hpp:77] Creating layer inception_4c/relu_3x3_reduce
I0403 14:51:55.875659 13712 net.cpp:91] Creating Layer inception_4c/relu_3x3_reduce
I0403 14:51:55.875675 13712 net.cpp:425] inception_4c/relu_3x3_reduce <- inception_4c/3x3_reduce
I0403 14:51:55.875692 13712 net.cpp:386] inception_4c/relu_3x3_reduce -> inception_4c/3x3_reduce (in-place)
I0403 14:51:55.875969 13712 net.cpp:141] Setting up inception_4c/relu_3x3_reduce
I0403 14:51:55.875994 13712 net.cpp:148] Top shape: 24 128 14 14 (602112)
I0403 14:51:55.876008 13712 net.cpp:156] Memory required for data: 1038026016
I0403 14:51:55.876022 13712 layer_factory.hpp:77] Creating layer inception_4c/3x3
I0403 14:51:55.876044 13712 net.cpp:91] Creating Layer inception_4c/3x3
I0403 14:51:55.876060 13712 net.cpp:425] inception_4c/3x3 <- inception_4c/3x3_reduce
I0403 14:51:55.876080 13712 net.cpp:399] inception_4c/3x3 -> inception_4c/3x3
I0403 14:51:55.879655 13712 net.cpp:141] Setting up inception_4c/3x3
I0403 14:51:55.879695 13712 net.cpp:148] Top shape: 24 256 14 14 (1204224)
I0403 14:51:55.879711 13712 net.cpp:156] Memory required for data: 1042842912
I0403 14:51:55.879741 13712 layer_factory.hpp:77] Creating layer inception_4c/relu_3x3
I0403 14:51:55.879763 13712 net.cpp:91] Creating Layer inception_4c/relu_3x3
I0403 14:51:55.879779 13712 net.cpp:425] inception_4c/relu_3x3 <- inception_4c/3x3
I0403 14:51:55.879796 13712 net.cpp:386] inception_4c/relu_3x3 -> inception_4c/3x3 (in-place)
I0403 14:51:55.879973 13712 net.cpp:141] Setting up inception_4c/relu_3x3
I0403 14:51:55.879997 13712 net.cpp:148] Top shape: 24 256 14 14 (1204224)
I0403 14:51:55.880010 13712 net.cpp:156] Memory required for data: 1047659808
I0403 14:51:55.880024 13712 layer_factory.hpp:77] Creating layer inception_4c/5x5_reduce
I0403 14:51:55.880048 13712 net.cpp:91] Creating Layer inception_4c/5x5_reduce
I0403 14:51:55.880064 13712 net.cpp:425] inception_4c/5x5_reduce <- inception_4b/output_inception_4b/output_0_split_2
I0403 14:51:55.880082 13712 net.cpp:399] inception_4c/5x5_reduce -> inception_4c/5x5_reduce
I0403 14:51:55.881142 13712 net.cpp:141] Setting up inception_4c/5x5_reduce
I0403 14:51:55.881170 13712 net.cpp:148] Top shape: 24 24 14 14 (112896)
I0403 14:51:55.881183 13712 net.cpp:156] Memory required for data: 1048111392
I0403 14:51:55.881202 13712 layer_factory.hpp:77] Creating layer inception_4c/relu_5x5_reduce
I0403 14:51:55.881222 13712 net.cpp:91] Creating Layer inception_4c/relu_5x5_reduce
I0403 14:51:55.881237 13712 net.cpp:425] inception_4c/relu_5x5_reduce <- inception_4c/5x5_reduce
I0403 14:51:55.881253 13712 net.cpp:386] inception_4c/relu_5x5_reduce -> inception_4c/5x5_reduce (in-place)
I0403 14:51:55.881429 13712 net.cpp:141] Setting up inception_4c/relu_5x5_reduce
I0403 14:51:55.881455 13712 net.cpp:148] Top shape: 24 24 14 14 (112896)
I0403 14:51:55.881470 13712 net.cpp:156] Memory required for data: 1048562976
I0403 14:51:55.881484 13712 layer_factory.hpp:77] Creating layer inception_4c/5x5
I0403 14:51:55.881510 13712 net.cpp:91] Creating Layer inception_4c/5x5
I0403 14:51:55.881541 13712 net.cpp:425] inception_4c/5x5 <- inception_4c/5x5_reduce
I0403 14:51:55.881559 13712 net.cpp:399] inception_4c/5x5 -> inception_4c/5x5
I0403 14:51:55.882802 13712 net.cpp:141] Setting up inception_4c/5x5
I0403 14:51:55.882830 13712 net.cpp:148] Top shape: 24 64 14 14 (301056)
I0403 14:51:55.882846 13712 net.cpp:156] Memory required for data: 1049767200
I0403 14:51:55.882864 13712 layer_factory.hpp:77] Creating layer inception_4c/relu_5x5
I0403 14:51:55.882881 13712 net.cpp:91] Creating Layer inception_4c/relu_5x5
I0403 14:51:55.882896 13712 net.cpp:425] inception_4c/relu_5x5 <- inception_4c/5x5
I0403 14:51:55.882915 13712 net.cpp:386] inception_4c/relu_5x5 -> inception_4c/5x5 (in-place)
I0403 14:51:55.883201 13712 net.cpp:141] Setting up inception_4c/relu_5x5
I0403 14:51:55.883229 13712 net.cpp:148] Top shape: 24 64 14 14 (301056)
I0403 14:51:55.883244 13712 net.cpp:156] Memory required for data: 1050971424
I0403 14:51:55.883260 13712 layer_factory.hpp:77] Creating layer inception_4c/pool
I0403 14:51:55.883277 13712 net.cpp:91] Creating Layer inception_4c/pool
I0403 14:51:55.883293 13712 net.cpp:425] inception_4c/pool <- inception_4b/output_inception_4b/output_0_split_3
I0403 14:51:55.883312 13712 net.cpp:399] inception_4c/pool -> inception_4c/pool
I0403 14:51:55.883376 13712 net.cpp:141] Setting up inception_4c/pool
I0403 14:51:55.883400 13712 net.cpp:148] Top shape: 24 512 14 14 (2408448)
I0403 14:51:55.883414 13712 net.cpp:156] Memory required for data: 1060605216
I0403 14:51:55.883427 13712 layer_factory.hpp:77] Creating layer inception_4c/pool_proj
I0403 14:51:55.883448 13712 net.cpp:91] Creating Layer inception_4c/pool_proj
I0403 14:51:55.883466 13712 net.cpp:425] inception_4c/pool_proj <- inception_4c/pool
I0403 14:51:55.883486 13712 net.cpp:399] inception_4c/pool_proj -> inception_4c/pool_proj
I0403 14:51:55.884732 13712 net.cpp:141] Setting up inception_4c/pool_proj
I0403 14:51:55.884760 13712 net.cpp:148] Top shape: 24 64 14 14 (301056)
I0403 14:51:55.884789 13712 net.cpp:156] Memory required for data: 1061809440
I0403 14:51:55.884809 13712 layer_factory.hpp:77] Creating layer inception_4c/relu_pool_proj
I0403 14:51:55.884829 13712 net.cpp:91] Creating Layer inception_4c/relu_pool_proj
I0403 14:51:55.884846 13712 net.cpp:425] inception_4c/relu_pool_proj <- inception_4c/pool_proj
I0403 14:51:55.884862 13712 net.cpp:386] inception_4c/relu_pool_proj -> inception_4c/pool_proj (in-place)
I0403 14:51:55.885045 13712 net.cpp:141] Setting up inception_4c/relu_pool_proj
I0403 14:51:55.885071 13712 net.cpp:148] Top shape: 24 64 14 14 (301056)
I0403 14:51:55.885085 13712 net.cpp:156] Memory required for data: 1063013664
I0403 14:51:55.885099 13712 layer_factory.hpp:77] Creating layer inception_4c/output
I0403 14:51:55.885115 13712 net.cpp:91] Creating Layer inception_4c/output
I0403 14:51:55.885130 13712 net.cpp:425] inception_4c/output <- inception_4c/1x1
I0403 14:51:55.885146 13712 net.cpp:425] inception_4c/output <- inception_4c/3x3
I0403 14:51:55.885161 13712 net.cpp:425] inception_4c/output <- inception_4c/5x5
I0403 14:51:55.885176 13712 net.cpp:425] inception_4c/output <- inception_4c/pool_proj
I0403 14:51:55.885192 13712 net.cpp:399] inception_4c/output -> inception_4c/output
I0403 14:51:55.885241 13712 net.cpp:141] Setting up inception_4c/output
I0403 14:51:55.885264 13712 net.cpp:148] Top shape: 24 512 14 14 (2408448)
I0403 14:51:55.885278 13712 net.cpp:156] Memory required for data: 1072647456
I0403 14:51:55.885291 13712 layer_factory.hpp:77] Creating layer inception_4c/output_inception_4c/output_0_split
I0403 14:51:55.885310 13712 net.cpp:91] Creating Layer inception_4c/output_inception_4c/output_0_split
I0403 14:51:55.885325 13712 net.cpp:425] inception_4c/output_inception_4c/output_0_split <- inception_4c/output
I0403 14:51:55.885342 13712 net.cpp:399] inception_4c/output_inception_4c/output_0_split -> inception_4c/output_inception_4c/output_0_split_0
I0403 14:51:55.885361 13712 net.cpp:399] inception_4c/output_inception_4c/output_0_split -> inception_4c/output_inception_4c/output_0_split_1
I0403 14:51:55.885380 13712 net.cpp:399] inception_4c/output_inception_4c/output_0_split -> inception_4c/output_inception_4c/output_0_split_2
I0403 14:51:55.885403 13712 net.cpp:399] inception_4c/output_inception_4c/output_0_split -> inception_4c/output_inception_4c/output_0_split_3
I0403 14:51:55.885490 13712 net.cpp:141] Setting up inception_4c/output_inception_4c/output_0_split
I0403 14:51:55.885517 13712 net.cpp:148] Top shape: 24 512 14 14 (2408448)
I0403 14:51:55.885534 13712 net.cpp:148] Top shape: 24 512 14 14 (2408448)
I0403 14:51:55.885548 13712 net.cpp:148] Top shape: 24 512 14 14 (2408448)
I0403 14:51:55.885563 13712 net.cpp:148] Top shape: 24 512 14 14 (2408448)
I0403 14:51:55.885576 13712 net.cpp:156] Memory required for data: 1111182624
I0403 14:51:55.885589 13712 layer_factory.hpp:77] Creating layer inception_4d/1x1
I0403 14:51:55.885610 13712 net.cpp:91] Creating Layer inception_4d/1x1
I0403 14:51:55.885627 13712 net.cpp:425] inception_4d/1x1 <- inception_4c/output_inception_4c/output_0_split_0
I0403 14:51:55.885648 13712 net.cpp:399] inception_4d/1x1 -> inception_4d/1x1
I0403 14:51:55.887022 13712 net.cpp:141] Setting up inception_4d/1x1
I0403 14:51:55.887048 13712 net.cpp:148] Top shape: 24 112 14 14 (526848)
I0403 14:51:55.887063 13712 net.cpp:156] Memory required for data: 1113290016
I0403 14:51:55.887080 13712 layer_factory.hpp:77] Creating layer inception_4d/relu_1x1
I0403 14:51:55.887099 13712 net.cpp:91] Creating Layer inception_4d/relu_1x1
I0403 14:51:55.887116 13712 net.cpp:425] inception_4d/relu_1x1 <- inception_4d/1x1
I0403 14:51:55.887133 13712 net.cpp:386] inception_4d/relu_1x1 -> inception_4d/1x1 (in-place)
I0403 14:51:55.887316 13712 net.cpp:141] Setting up inception_4d/relu_1x1
I0403 14:51:55.887341 13712 net.cpp:148] Top shape: 24 112 14 14 (526848)
I0403 14:51:55.887354 13712 net.cpp:156] Memory required for data: 1115397408
I0403 14:51:55.887368 13712 layer_factory.hpp:77] Creating layer inception_4d/3x3_reduce
I0403 14:51:55.887403 13712 net.cpp:91] Creating Layer inception_4d/3x3_reduce
I0403 14:51:55.887421 13712 net.cpp:425] inception_4d/3x3_reduce <- inception_4c/output_inception_4c/output_0_split_1
I0403 14:51:55.887442 13712 net.cpp:399] inception_4d/3x3_reduce -> inception_4d/3x3_reduce
I0403 14:51:55.888953 13712 net.cpp:141] Setting up inception_4d/3x3_reduce
I0403 14:51:55.888983 13712 net.cpp:148] Top shape: 24 144 14 14 (677376)
I0403 14:51:55.888998 13712 net.cpp:156] Memory required for data: 1118106912
I0403 14:51:55.889015 13712 layer_factory.hpp:77] Creating layer inception_4d/relu_3x3_reduce
I0403 14:51:55.889032 13712 net.cpp:91] Creating Layer inception_4d/relu_3x3_reduce
I0403 14:51:55.889047 13712 net.cpp:425] inception_4d/relu_3x3_reduce <- inception_4d/3x3_reduce
I0403 14:51:55.889066 13712 net.cpp:386] inception_4d/relu_3x3_reduce -> inception_4d/3x3_reduce (in-place)
I0403 14:51:55.889353 13712 net.cpp:141] Setting up inception_4d/relu_3x3_reduce
I0403 14:51:55.889380 13712 net.cpp:148] Top shape: 24 144 14 14 (677376)
I0403 14:51:55.889395 13712 net.cpp:156] Memory required for data: 1120816416
I0403 14:51:55.889410 13712 layer_factory.hpp:77] Creating layer inception_4d/3x3
I0403 14:51:55.889431 13712 net.cpp:91] Creating Layer inception_4d/3x3
I0403 14:51:55.889448 13712 net.cpp:425] inception_4d/3x3 <- inception_4d/3x3_reduce
I0403 14:51:55.889469 13712 net.cpp:399] inception_4d/3x3 -> inception_4d/3x3
I0403 14:51:55.893911 13712 net.cpp:141] Setting up inception_4d/3x3
I0403 14:51:55.893940 13712 net.cpp:148] Top shape: 24 288 14 14 (1354752)
I0403 14:51:55.893955 13712 net.cpp:156] Memory required for data: 1126235424
I0403 14:51:55.893973 13712 layer_factory.hpp:77] Creating layer inception_4d/relu_3x3
I0403 14:51:55.893991 13712 net.cpp:91] Creating Layer inception_4d/relu_3x3
I0403 14:51:55.894006 13712 net.cpp:425] inception_4d/relu_3x3 <- inception_4d/3x3
I0403 14:51:55.894026 13712 net.cpp:386] inception_4d/relu_3x3 -> inception_4d/3x3 (in-place)
I0403 14:51:55.894208 13712 net.cpp:141] Setting up inception_4d/relu_3x3
I0403 14:51:55.894232 13712 net.cpp:148] Top shape: 24 288 14 14 (1354752)
I0403 14:51:55.894248 13712 net.cpp:156] Memory required for data: 1131654432
I0403 14:51:55.894263 13712 layer_factory.hpp:77] Creating layer inception_4d/5x5_reduce
I0403 14:51:55.894284 13712 net.cpp:91] Creating Layer inception_4d/5x5_reduce
I0403 14:51:55.894300 13712 net.cpp:425] inception_4d/5x5_reduce <- inception_4c/output_inception_4c/output_0_split_2
I0403 14:51:55.894321 13712 net.cpp:399] inception_4d/5x5_reduce -> inception_4d/5x5_reduce
I0403 14:51:55.895473 13712 net.cpp:141] Setting up inception_4d/5x5_reduce
I0403 14:51:55.895501 13712 net.cpp:148] Top shape: 24 32 14 14 (150528)
I0403 14:51:55.895521 13712 net.cpp:156] Memory required for data: 1132256544
I0403 14:51:55.895539 13712 layer_factory.hpp:77] Creating layer inception_4d/relu_5x5_reduce
I0403 14:51:55.895558 13712 net.cpp:91] Creating Layer inception_4d/relu_5x5_reduce
I0403 14:51:55.895576 13712 net.cpp:425] inception_4d/relu_5x5_reduce <- inception_4d/5x5_reduce
I0403 14:51:55.895591 13712 net.cpp:386] inception_4d/relu_5x5_reduce -> inception_4d/5x5_reduce (in-place)
I0403 14:51:55.895776 13712 net.cpp:141] Setting up inception_4d/relu_5x5_reduce
I0403 14:51:55.895802 13712 net.cpp:148] Top shape: 24 32 14 14 (150528)
I0403 14:51:55.895815 13712 net.cpp:156] Memory required for data: 1132858656
I0403 14:51:55.895828 13712 layer_factory.hpp:77] Creating layer inception_4d/5x5
I0403 14:51:55.895849 13712 net.cpp:91] Creating Layer inception_4d/5x5
I0403 14:51:55.895869 13712 net.cpp:425] inception_4d/5x5 <- inception_4d/5x5_reduce
I0403 14:51:55.895887 13712 net.cpp:399] inception_4d/5x5 -> inception_4d/5x5
I0403 14:51:55.897366 13712 net.cpp:141] Setting up inception_4d/5x5
I0403 14:51:55.897392 13712 net.cpp:148] Top shape: 24 64 14 14 (301056)
I0403 14:51:55.897408 13712 net.cpp:156] Memory required for data: 1134062880
I0403 14:51:55.897424 13712 layer_factory.hpp:77] Creating layer inception_4d/relu_5x5
I0403 14:51:55.897459 13712 net.cpp:91] Creating Layer inception_4d/relu_5x5
I0403 14:51:55.897477 13712 net.cpp:425] inception_4d/relu_5x5 <- inception_4d/5x5
I0403 14:51:55.897495 13712 net.cpp:386] inception_4d/relu_5x5 -> inception_4d/5x5 (in-place)
I0403 14:51:55.897802 13712 net.cpp:141] Setting up inception_4d/relu_5x5
I0403 14:51:55.897830 13712 net.cpp:148] Top shape: 24 64 14 14 (301056)
I0403 14:51:55.897843 13712 net.cpp:156] Memory required for data: 1135267104
I0403 14:51:55.897857 13712 layer_factory.hpp:77] Creating layer inception_4d/pool
I0403 14:51:55.897876 13712 net.cpp:91] Creating Layer inception_4d/pool
I0403 14:51:55.897892 13712 net.cpp:425] inception_4d/pool <- inception_4c/output_inception_4c/output_0_split_3
I0403 14:51:55.897910 13712 net.cpp:399] inception_4d/pool -> inception_4d/pool
I0403 14:51:55.897979 13712 net.cpp:141] Setting up inception_4d/pool
I0403 14:51:55.898001 13712 net.cpp:148] Top shape: 24 512 14 14 (2408448)
I0403 14:51:55.898015 13712 net.cpp:156] Memory required for data: 1144900896
I0403 14:51:55.898030 13712 layer_factory.hpp:77] Creating layer inception_4d/pool_proj
I0403 14:51:55.898049 13712 net.cpp:91] Creating Layer inception_4d/pool_proj
I0403 14:51:55.898067 13712 net.cpp:425] inception_4d/pool_proj <- inception_4d/pool
I0403 14:51:55.898087 13712 net.cpp:399] inception_4d/pool_proj -> inception_4d/pool_proj
I0403 14:51:55.899857 13712 net.cpp:141] Setting up inception_4d/pool_proj
I0403 14:51:55.899883 13712 net.cpp:148] Top shape: 24 64 14 14 (301056)
I0403 14:51:55.899899 13712 net.cpp:156] Memory required for data: 1146105120
I0403 14:51:55.899915 13712 layer_factory.hpp:77] Creating layer inception_4d/relu_pool_proj
I0403 14:51:55.899932 13712 net.cpp:91] Creating Layer inception_4d/relu_pool_proj
I0403 14:51:55.899947 13712 net.cpp:425] inception_4d/relu_pool_proj <- inception_4d/pool_proj
I0403 14:51:55.899966 13712 net.cpp:386] inception_4d/relu_pool_proj -> inception_4d/pool_proj (in-place)
I0403 14:51:55.900143 13712 net.cpp:141] Setting up inception_4d/relu_pool_proj
I0403 14:51:55.900167 13712 net.cpp:148] Top shape: 24 64 14 14 (301056)
I0403 14:51:55.900180 13712 net.cpp:156] Memory required for data: 1147309344
I0403 14:51:55.900194 13712 layer_factory.hpp:77] Creating layer inception_4d/output
I0403 14:51:55.900213 13712 net.cpp:91] Creating Layer inception_4d/output
I0403 14:51:55.900228 13712 net.cpp:425] inception_4d/output <- inception_4d/1x1
I0403 14:51:55.900243 13712 net.cpp:425] inception_4d/output <- inception_4d/3x3
I0403 14:51:55.900259 13712 net.cpp:425] inception_4d/output <- inception_4d/5x5
I0403 14:51:55.900274 13712 net.cpp:425] inception_4d/output <- inception_4d/pool_proj
I0403 14:51:55.900290 13712 net.cpp:399] inception_4d/output -> inception_4d/output
I0403 14:51:55.900337 13712 net.cpp:141] Setting up inception_4d/output
I0403 14:51:55.900359 13712 net.cpp:148] Top shape: 24 528 14 14 (2483712)
I0403 14:51:55.900373 13712 net.cpp:156] Memory required for data: 1157244192
I0403 14:51:55.900387 13712 layer_factory.hpp:77] Creating layer inception_4d/output_inception_4d/output_0_split
I0403 14:51:55.900403 13712 net.cpp:91] Creating Layer inception_4d/output_inception_4d/output_0_split
I0403 14:51:55.900418 13712 net.cpp:425] inception_4d/output_inception_4d/output_0_split <- inception_4d/output
I0403 14:51:55.900436 13712 net.cpp:399] inception_4d/output_inception_4d/output_0_split -> inception_4d/output_inception_4d/output_0_split_0
I0403 14:51:55.900457 13712 net.cpp:399] inception_4d/output_inception_4d/output_0_split -> inception_4d/output_inception_4d/output_0_split_1
I0403 14:51:55.900476 13712 net.cpp:399] inception_4d/output_inception_4d/output_0_split -> inception_4d/output_inception_4d/output_0_split_2
I0403 14:51:55.900496 13712 net.cpp:399] inception_4d/output_inception_4d/output_0_split -> inception_4d/output_inception_4d/output_0_split_3
I0403 14:51:55.900521 13712 net.cpp:399] inception_4d/output_inception_4d/output_0_split -> inception_4d/output_inception_4d/output_0_split_4
I0403 14:51:55.900621 13712 net.cpp:141] Setting up inception_4d/output_inception_4d/output_0_split
I0403 14:51:55.900655 13712 net.cpp:148] Top shape: 24 528 14 14 (2483712)
I0403 14:51:55.900671 13712 net.cpp:148] Top shape: 24 528 14 14 (2483712)
I0403 14:51:55.900686 13712 net.cpp:148] Top shape: 24 528 14 14 (2483712)
I0403 14:51:55.900701 13712 net.cpp:148] Top shape: 24 528 14 14 (2483712)
I0403 14:51:55.900714 13712 net.cpp:148] Top shape: 24 528 14 14 (2483712)
I0403 14:51:55.900727 13712 net.cpp:156] Memory required for data: 1206918432
I0403 14:51:55.900740 13712 layer_factory.hpp:77] Creating layer loss2/ave_pool
I0403 14:51:55.900756 13712 net.cpp:91] Creating Layer loss2/ave_pool
I0403 14:51:55.900770 13712 net.cpp:425] loss2/ave_pool <- inception_4d/output_inception_4d/output_0_split_0
I0403 14:51:55.900790 13712 net.cpp:399] loss2/ave_pool -> loss2/ave_pool
I0403 14:51:55.901099 13712 net.cpp:141] Setting up loss2/ave_pool
I0403 14:51:55.901124 13712 net.cpp:148] Top shape: 24 528 4 4 (202752)
I0403 14:51:55.901139 13712 net.cpp:156] Memory required for data: 1207729440
I0403 14:51:55.901152 13712 layer_factory.hpp:77] Creating layer loss2/conv
I0403 14:51:55.901173 13712 net.cpp:91] Creating Layer loss2/conv
I0403 14:51:55.901190 13712 net.cpp:425] loss2/conv <- loss2/ave_pool
I0403 14:51:55.901209 13712 net.cpp:399] loss2/conv -> loss2/conv
I0403 14:51:55.903043 13712 net.cpp:141] Setting up loss2/conv
I0403 14:51:55.903074 13712 net.cpp:148] Top shape: 24 128 4 4 (49152)
I0403 14:51:55.903090 13712 net.cpp:156] Memory required for data: 1207926048
I0403 14:51:55.903106 13712 layer_factory.hpp:77] Creating layer loss2/relu_conv
I0403 14:51:55.903122 13712 net.cpp:91] Creating Layer loss2/relu_conv
I0403 14:51:55.903138 13712 net.cpp:425] loss2/relu_conv <- loss2/conv
I0403 14:51:55.903154 13712 net.cpp:386] loss2/relu_conv -> loss2/conv (in-place)
I0403 14:51:55.903431 13712 net.cpp:141] Setting up loss2/relu_conv
I0403 14:51:55.903458 13712 net.cpp:148] Top shape: 24 128 4 4 (49152)
I0403 14:51:55.903475 13712 net.cpp:156] Memory required for data: 1208122656
I0403 14:51:55.903487 13712 layer_factory.hpp:77] Creating layer loss2/fc
I0403 14:51:55.903508 13712 net.cpp:91] Creating Layer loss2/fc
I0403 14:51:55.903527 13712 net.cpp:425] loss2/fc <- loss2/conv
I0403 14:51:55.903547 13712 net.cpp:399] loss2/fc -> loss2/fc
I0403 14:51:55.920940 13712 net.cpp:141] Setting up loss2/fc
I0403 14:51:55.920972 13712 net.cpp:148] Top shape: 24 1024 (24576)
I0403 14:51:55.920986 13712 net.cpp:156] Memory required for data: 1208220960
I0403 14:51:55.921005 13712 layer_factory.hpp:77] Creating layer loss2/relu_fc
I0403 14:51:55.921025 13712 net.cpp:91] Creating Layer loss2/relu_fc
I0403 14:51:55.921042 13712 net.cpp:425] loss2/relu_fc <- loss2/fc
I0403 14:51:55.921059 13712 net.cpp:386] loss2/relu_fc -> loss2/fc (in-place)
I0403 14:51:55.921368 13712 net.cpp:141] Setting up loss2/relu_fc
I0403 14:51:55.921394 13712 net.cpp:148] Top shape: 24 1024 (24576)
I0403 14:51:55.921408 13712 net.cpp:156] Memory required for data: 1208319264
I0403 14:51:55.921423 13712 layer_factory.hpp:77] Creating layer loss2/drop_fc
I0403 14:51:55.921443 13712 net.cpp:91] Creating Layer loss2/drop_fc
I0403 14:51:55.921459 13712 net.cpp:425] loss2/drop_fc <- loss2/fc
I0403 14:51:55.921476 13712 net.cpp:386] loss2/drop_fc -> loss2/fc (in-place)
I0403 14:51:55.921528 13712 net.cpp:141] Setting up loss2/drop_fc
I0403 14:51:55.921553 13712 net.cpp:148] Top shape: 24 1024 (24576)
I0403 14:51:55.921568 13712 net.cpp:156] Memory required for data: 1208417568
I0403 14:51:55.921582 13712 layer_factory.hpp:77] Creating layer loss2/classifier_plantvillage
I0403 14:51:55.921599 13712 net.cpp:91] Creating Layer loss2/classifier_plantvillage
I0403 14:51:55.921615 13712 net.cpp:425] loss2/classifier_plantvillage <- loss2/fc
I0403 14:51:55.921635 13712 net.cpp:399] loss2/classifier_plantvillage -> loss2/classifier_plantvillage
I0403 14:51:55.922041 13712 net.cpp:141] Setting up loss2/classifier_plantvillage
I0403 14:51:55.922066 13712 net.cpp:148] Top shape: 24 38 (912)
I0403 14:51:55.922099 13712 net.cpp:156] Memory required for data: 1208421216
I0403 14:51:55.922117 13712 layer_factory.hpp:77] Creating layer loss2/classifier_plantvillage_loss2/classifier_plantvillage_0_split
I0403 14:51:55.922135 13712 net.cpp:91] Creating Layer loss2/classifier_plantvillage_loss2/classifier_plantvillage_0_split
I0403 14:51:55.922152 13712 net.cpp:425] loss2/classifier_plantvillage_loss2/classifier_plantvillage_0_split <- loss2/classifier_plantvillage
I0403 14:51:55.922168 13712 net.cpp:399] loss2/classifier_plantvillage_loss2/classifier_plantvillage_0_split -> loss2/classifier_plantvillage_loss2/classifier_plantvillage_0_split_0
I0403 14:51:55.922190 13712 net.cpp:399] loss2/classifier_plantvillage_loss2/classifier_plantvillage_0_split -> loss2/classifier_plantvillage_loss2/classifier_plantvillage_0_split_1
I0403 14:51:55.922212 13712 net.cpp:399] loss2/classifier_plantvillage_loss2/classifier_plantvillage_0_split -> loss2/classifier_plantvillage_loss2/classifier_plantvillage_0_split_2
I0403 14:51:55.922289 13712 net.cpp:141] Setting up loss2/classifier_plantvillage_loss2/classifier_plantvillage_0_split
I0403 14:51:55.922312 13712 net.cpp:148] Top shape: 24 38 (912)
I0403 14:51:55.922327 13712 net.cpp:148] Top shape: 24 38 (912)
I0403 14:51:55.922343 13712 net.cpp:148] Top shape: 24 38 (912)
I0403 14:51:55.922355 13712 net.cpp:156] Memory required for data: 1208432160
I0403 14:51:55.922369 13712 layer_factory.hpp:77] Creating layer inception_4e/1x1
I0403 14:51:55.922390 13712 net.cpp:91] Creating Layer inception_4e/1x1
I0403 14:51:55.922408 13712 net.cpp:425] inception_4e/1x1 <- inception_4d/output_inception_4d/output_0_split_1
I0403 14:51:55.922428 13712 net.cpp:399] inception_4e/1x1 -> inception_4e/1x1
I0403 14:51:55.924263 13712 net.cpp:141] Setting up inception_4e/1x1
I0403 14:51:55.924293 13712 net.cpp:148] Top shape: 24 256 14 14 (1204224)
I0403 14:51:55.924309 13712 net.cpp:156] Memory required for data: 1213249056
I0403 14:51:55.924327 13712 layer_factory.hpp:77] Creating layer inception_4e/relu_1x1
I0403 14:51:55.924345 13712 net.cpp:91] Creating Layer inception_4e/relu_1x1
I0403 14:51:55.924360 13712 net.cpp:425] inception_4e/relu_1x1 <- inception_4e/1x1
I0403 14:51:55.924378 13712 net.cpp:386] inception_4e/relu_1x1 -> inception_4e/1x1 (in-place)
I0403 14:51:55.924690 13712 net.cpp:141] Setting up inception_4e/relu_1x1
I0403 14:51:55.924718 13712 net.cpp:148] Top shape: 24 256 14 14 (1204224)
I0403 14:51:55.924733 13712 net.cpp:156] Memory required for data: 1218065952
I0403 14:51:55.924748 13712 layer_factory.hpp:77] Creating layer inception_4e/3x3_reduce
I0403 14:51:55.924770 13712 net.cpp:91] Creating Layer inception_4e/3x3_reduce
I0403 14:51:55.924787 13712 net.cpp:425] inception_4e/3x3_reduce <- inception_4d/output_inception_4d/output_0_split_2
I0403 14:51:55.924805 13712 net.cpp:399] inception_4e/3x3_reduce -> inception_4e/3x3_reduce
I0403 14:51:55.926940 13712 net.cpp:141] Setting up inception_4e/3x3_reduce
I0403 14:51:55.926969 13712 net.cpp:148] Top shape: 24 160 14 14 (752640)
I0403 14:51:55.926983 13712 net.cpp:156] Memory required for data: 1221076512
I0403 14:51:55.927000 13712 layer_factory.hpp:77] Creating layer inception_4e/relu_3x3_reduce
I0403 14:51:55.927021 13712 net.cpp:91] Creating Layer inception_4e/relu_3x3_reduce
I0403 14:51:55.927037 13712 net.cpp:425] inception_4e/relu_3x3_reduce <- inception_4e/3x3_reduce
I0403 14:51:55.927054 13712 net.cpp:386] inception_4e/relu_3x3_reduce -> inception_4e/3x3_reduce (in-place)
I0403 14:51:55.927242 13712 net.cpp:141] Setting up inception_4e/relu_3x3_reduce
I0403 14:51:55.927268 13712 net.cpp:148] Top shape: 24 160 14 14 (752640)
I0403 14:51:55.927284 13712 net.cpp:156] Memory required for data: 1224087072
I0403 14:51:55.927299 13712 layer_factory.hpp:77] Creating layer inception_4e/3x3
I0403 14:51:55.927321 13712 net.cpp:91] Creating Layer inception_4e/3x3
I0403 14:51:55.927338 13712 net.cpp:425] inception_4e/3x3 <- inception_4e/3x3_reduce
I0403 14:51:55.927356 13712 net.cpp:399] inception_4e/3x3 -> inception_4e/3x3
I0403 14:51:55.932562 13712 net.cpp:141] Setting up inception_4e/3x3
I0403 14:51:55.932626 13712 net.cpp:148] Top shape: 24 320 14 14 (1505280)
I0403 14:51:55.932646 13712 net.cpp:156] Memory required for data: 1230108192
I0403 14:51:55.932665 13712 layer_factory.hpp:77] Creating layer inception_4e/relu_3x3
I0403 14:51:55.932684 13712 net.cpp:91] Creating Layer inception_4e/relu_3x3
I0403 14:51:55.932700 13712 net.cpp:425] inception_4e/relu_3x3 <- inception_4e/3x3
I0403 14:51:55.932723 13712 net.cpp:386] inception_4e/relu_3x3 -> inception_4e/3x3 (in-place)
I0403 14:51:55.933058 13712 net.cpp:141] Setting up inception_4e/relu_3x3
I0403 14:51:55.933085 13712 net.cpp:148] Top shape: 24 320 14 14 (1505280)
I0403 14:51:55.933100 13712 net.cpp:156] Memory required for data: 1236129312
I0403 14:51:55.933115 13712 layer_factory.hpp:77] Creating layer inception_4e/5x5_reduce
I0403 14:51:55.933138 13712 net.cpp:91] Creating Layer inception_4e/5x5_reduce
I0403 14:51:55.933156 13712 net.cpp:425] inception_4e/5x5_reduce <- inception_4d/output_inception_4d/output_0_split_3
I0403 14:51:55.933176 13712 net.cpp:399] inception_4e/5x5_reduce -> inception_4e/5x5_reduce
I0403 14:51:55.934301 13712 net.cpp:141] Setting up inception_4e/5x5_reduce
I0403 14:51:55.934330 13712 net.cpp:148] Top shape: 24 32 14 14 (150528)
I0403 14:51:55.934346 13712 net.cpp:156] Memory required for data: 1236731424
I0403 14:51:55.934365 13712 layer_factory.hpp:77] Creating layer inception_4e/relu_5x5_reduce
I0403 14:51:55.934387 13712 net.cpp:91] Creating Layer inception_4e/relu_5x5_reduce
I0403 14:51:55.934404 13712 net.cpp:425] inception_4e/relu_5x5_reduce <- inception_4e/5x5_reduce
I0403 14:51:55.934422 13712 net.cpp:386] inception_4e/relu_5x5_reduce -> inception_4e/5x5_reduce (in-place)
I0403 14:51:55.934746 13712 net.cpp:141] Setting up inception_4e/relu_5x5_reduce
I0403 14:51:55.934773 13712 net.cpp:148] Top shape: 24 32 14 14 (150528)
I0403 14:51:55.934788 13712 net.cpp:156] Memory required for data: 1237333536
I0403 14:51:55.934803 13712 layer_factory.hpp:77] Creating layer inception_4e/5x5
I0403 14:51:55.934844 13712 net.cpp:91] Creating Layer inception_4e/5x5
I0403 14:51:55.934862 13712 net.cpp:425] inception_4e/5x5 <- inception_4e/5x5_reduce
I0403 14:51:55.934882 13712 net.cpp:399] inception_4e/5x5 -> inception_4e/5x5
I0403 14:51:55.936882 13712 net.cpp:141] Setting up inception_4e/5x5
I0403 14:51:55.936910 13712 net.cpp:148] Top shape: 24 128 14 14 (602112)
I0403 14:51:55.936926 13712 net.cpp:156] Memory required for data: 1239741984
I0403 14:51:55.936946 13712 layer_factory.hpp:77] Creating layer inception_4e/relu_5x5
I0403 14:51:55.936967 13712 net.cpp:91] Creating Layer inception_4e/relu_5x5
I0403 14:51:55.936985 13712 net.cpp:425] inception_4e/relu_5x5 <- inception_4e/5x5
I0403 14:51:55.937002 13712 net.cpp:386] inception_4e/relu_5x5 -> inception_4e/5x5 (in-place)
I0403 14:51:55.937211 13712 net.cpp:141] Setting up inception_4e/relu_5x5
I0403 14:51:55.937239 13712 net.cpp:148] Top shape: 24 128 14 14 (602112)
I0403 14:51:55.937254 13712 net.cpp:156] Memory required for data: 1242150432
I0403 14:51:55.937269 13712 layer_factory.hpp:77] Creating layer inception_4e/pool
I0403 14:51:55.937288 13712 net.cpp:91] Creating Layer inception_4e/pool
I0403 14:51:55.937304 13712 net.cpp:425] inception_4e/pool <- inception_4d/output_inception_4d/output_0_split_4
I0403 14:51:55.937322 13712 net.cpp:399] inception_4e/pool -> inception_4e/pool
I0403 14:51:55.937398 13712 net.cpp:141] Setting up inception_4e/pool
I0403 14:51:55.937423 13712 net.cpp:148] Top shape: 24 528 14 14 (2483712)
I0403 14:51:55.937438 13712 net.cpp:156] Memory required for data: 1252085280
I0403 14:51:55.937453 13712 layer_factory.hpp:77] Creating layer inception_4e/pool_proj
I0403 14:51:55.937475 13712 net.cpp:91] Creating Layer inception_4e/pool_proj
I0403 14:51:55.937494 13712 net.cpp:425] inception_4e/pool_proj <- inception_4e/pool
I0403 14:51:55.937515 13712 net.cpp:399] inception_4e/pool_proj -> inception_4e/pool_proj
I0403 14:51:55.939141 13712 net.cpp:141] Setting up inception_4e/pool_proj
I0403 14:51:55.939187 13712 net.cpp:148] Top shape: 24 128 14 14 (602112)
I0403 14:51:55.939203 13712 net.cpp:156] Memory required for data: 1254493728
I0403 14:51:55.939223 13712 layer_factory.hpp:77] Creating layer inception_4e/relu_pool_proj
I0403 14:51:55.939242 13712 net.cpp:91] Creating Layer inception_4e/relu_pool_proj
I0403 14:51:55.939260 13712 net.cpp:425] inception_4e/relu_pool_proj <- inception_4e/pool_proj
I0403 14:51:55.939277 13712 net.cpp:386] inception_4e/relu_pool_proj -> inception_4e/pool_proj (in-place)
I0403 14:51:55.939599 13712 net.cpp:141] Setting up inception_4e/relu_pool_proj
I0403 14:51:55.939625 13712 net.cpp:148] Top shape: 24 128 14 14 (602112)
I0403 14:51:55.939640 13712 net.cpp:156] Memory required for data: 1256902176
I0403 14:51:55.939656 13712 layer_factory.hpp:77] Creating layer inception_4e/output
I0403 14:51:55.939673 13712 net.cpp:91] Creating Layer inception_4e/output
I0403 14:51:55.939689 13712 net.cpp:425] inception_4e/output <- inception_4e/1x1
I0403 14:51:55.939707 13712 net.cpp:425] inception_4e/output <- inception_4e/3x3
I0403 14:51:55.939723 13712 net.cpp:425] inception_4e/output <- inception_4e/5x5
I0403 14:51:55.939738 13712 net.cpp:425] inception_4e/output <- inception_4e/pool_proj
I0403 14:51:55.939759 13712 net.cpp:399] inception_4e/output -> inception_4e/output
I0403 14:51:55.939815 13712 net.cpp:141] Setting up inception_4e/output
I0403 14:51:55.939838 13712 net.cpp:148] Top shape: 24 832 14 14 (3913728)
I0403 14:51:55.939853 13712 net.cpp:156] Memory required for data: 1272557088
I0403 14:51:55.939868 13712 layer_factory.hpp:77] Creating layer pool4/3x3_s2
I0403 14:51:55.939887 13712 net.cpp:91] Creating Layer pool4/3x3_s2
I0403 14:51:55.939903 13712 net.cpp:425] pool4/3x3_s2 <- inception_4e/output
I0403 14:51:55.939924 13712 net.cpp:399] pool4/3x3_s2 -> pool4/3x3_s2
I0403 14:51:55.939995 13712 net.cpp:141] Setting up pool4/3x3_s2
I0403 14:51:55.940019 13712 net.cpp:148] Top shape: 24 832 7 7 (978432)
I0403 14:51:55.940034 13712 net.cpp:156] Memory required for data: 1276470816
I0403 14:51:55.940049 13712 layer_factory.hpp:77] Creating layer pool4/3x3_s2_pool4/3x3_s2_0_split
I0403 14:51:55.940068 13712 net.cpp:91] Creating Layer pool4/3x3_s2_pool4/3x3_s2_0_split
I0403 14:51:55.940085 13712 net.cpp:425] pool4/3x3_s2_pool4/3x3_s2_0_split <- pool4/3x3_s2
I0403 14:51:55.940104 13712 net.cpp:399] pool4/3x3_s2_pool4/3x3_s2_0_split -> pool4/3x3_s2_pool4/3x3_s2_0_split_0
I0403 14:51:55.940124 13712 net.cpp:399] pool4/3x3_s2_pool4/3x3_s2_0_split -> pool4/3x3_s2_pool4/3x3_s2_0_split_1
I0403 14:51:55.940148 13712 net.cpp:399] pool4/3x3_s2_pool4/3x3_s2_0_split -> pool4/3x3_s2_pool4/3x3_s2_0_split_2
I0403 14:51:55.940171 13712 net.cpp:399] pool4/3x3_s2_pool4/3x3_s2_0_split -> pool4/3x3_s2_pool4/3x3_s2_0_split_3
I0403 14:51:55.940265 13712 net.cpp:141] Setting up pool4/3x3_s2_pool4/3x3_s2_0_split
I0403 14:51:55.940290 13712 net.cpp:148] Top shape: 24 832 7 7 (978432)
I0403 14:51:55.940306 13712 net.cpp:148] Top shape: 24 832 7 7 (978432)
I0403 14:51:55.940322 13712 net.cpp:148] Top shape: 24 832 7 7 (978432)
I0403 14:51:55.940338 13712 net.cpp:148] Top shape: 24 832 7 7 (978432)
I0403 14:51:55.940352 13712 net.cpp:156] Memory required for data: 1292125728
I0403 14:51:55.940366 13712 layer_factory.hpp:77] Creating layer inception_5a/1x1
I0403 14:51:55.940389 13712 net.cpp:91] Creating Layer inception_5a/1x1
I0403 14:51:55.940407 13712 net.cpp:425] inception_5a/1x1 <- pool4/3x3_s2_pool4/3x3_s2_0_split_0
I0403 14:51:55.940429 13712 net.cpp:399] inception_5a/1x1 -> inception_5a/1x1
I0403 14:51:55.943500 13712 net.cpp:141] Setting up inception_5a/1x1
I0403 14:51:55.943531 13712 net.cpp:148] Top shape: 24 256 7 7 (301056)
I0403 14:51:55.943552 13712 net.cpp:156] Memory required for data: 1293329952
I0403 14:51:55.943572 13712 layer_factory.hpp:77] Creating layer inception_5a/relu_1x1
I0403 14:51:55.943593 13712 net.cpp:91] Creating Layer inception_5a/relu_1x1
I0403 14:51:55.943611 13712 net.cpp:425] inception_5a/relu_1x1 <- inception_5a/1x1
I0403 14:51:55.943629 13712 net.cpp:386] inception_5a/relu_1x1 -> inception_5a/1x1 (in-place)
I0403 14:51:55.943970 13712 net.cpp:141] Setting up inception_5a/relu_1x1
I0403 14:51:55.943997 13712 net.cpp:148] Top shape: 24 256 7 7 (301056)
I0403 14:51:55.944013 13712 net.cpp:156] Memory required for data: 1294534176
I0403 14:51:55.944028 13712 layer_factory.hpp:77] Creating layer inception_5a/3x3_reduce
I0403 14:51:55.944051 13712 net.cpp:91] Creating Layer inception_5a/3x3_reduce
I0403 14:51:55.944070 13712 net.cpp:425] inception_5a/3x3_reduce <- pool4/3x3_s2_pool4/3x3_s2_0_split_1
I0403 14:51:55.944092 13712 net.cpp:399] inception_5a/3x3_reduce -> inception_5a/3x3_reduce
I0403 14:51:55.946745 13712 net.cpp:141] Setting up inception_5a/3x3_reduce
I0403 14:51:55.946776 13712 net.cpp:148] Top shape: 24 160 7 7 (188160)
I0403 14:51:55.946794 13712 net.cpp:156] Memory required for data: 1295286816
I0403 14:51:55.946812 13712 layer_factory.hpp:77] Creating layer inception_5a/relu_3x3_reduce
I0403 14:51:55.946831 13712 net.cpp:91] Creating Layer inception_5a/relu_3x3_reduce
I0403 14:51:55.946847 13712 net.cpp:425] inception_5a/relu_3x3_reduce <- inception_5a/3x3_reduce
I0403 14:51:55.946868 13712 net.cpp:386] inception_5a/relu_3x3_reduce -> inception_5a/3x3_reduce (in-place)
I0403 14:51:55.947070 13712 net.cpp:141] Setting up inception_5a/relu_3x3_reduce
I0403 14:51:55.947096 13712 net.cpp:148] Top shape: 24 160 7 7 (188160)
I0403 14:51:55.947113 13712 net.cpp:156] Memory required for data: 1296039456
I0403 14:51:55.947127 13712 layer_factory.hpp:77] Creating layer inception_5a/3x3
I0403 14:51:55.947150 13712 net.cpp:91] Creating Layer inception_5a/3x3
I0403 14:51:55.947168 13712 net.cpp:425] inception_5a/3x3 <- inception_5a/3x3_reduce
I0403 14:51:55.947191 13712 net.cpp:399] inception_5a/3x3 -> inception_5a/3x3
I0403 14:51:55.952555 13712 net.cpp:141] Setting up inception_5a/3x3
I0403 14:51:55.952586 13712 net.cpp:148] Top shape: 24 320 7 7 (376320)
I0403 14:51:55.952602 13712 net.cpp:156] Memory required for data: 1297544736
I0403 14:51:55.952621 13712 layer_factory.hpp:77] Creating layer inception_5a/relu_3x3
I0403 14:51:55.952642 13712 net.cpp:91] Creating Layer inception_5a/relu_3x3
I0403 14:51:55.952659 13712 net.cpp:425] inception_5a/relu_3x3 <- inception_5a/3x3
I0403 14:51:55.952677 13712 net.cpp:386] inception_5a/relu_3x3 -> inception_5a/3x3 (in-place)
I0403 14:51:55.953001 13712 net.cpp:141] Setting up inception_5a/relu_3x3
I0403 14:51:55.953029 13712 net.cpp:148] Top shape: 24 320 7 7 (376320)
I0403 14:51:55.953044 13712 net.cpp:156] Memory required for data: 1299050016
I0403 14:51:55.953059 13712 layer_factory.hpp:77] Creating layer inception_5a/5x5_reduce
I0403 14:51:55.953083 13712 net.cpp:91] Creating Layer inception_5a/5x5_reduce
I0403 14:51:55.953101 13712 net.cpp:425] inception_5a/5x5_reduce <- pool4/3x3_s2_pool4/3x3_s2_0_split_2
I0403 14:51:55.953125 13712 net.cpp:399] inception_5a/5x5_reduce -> inception_5a/5x5_reduce
I0403 14:51:55.954406 13712 net.cpp:141] Setting up inception_5a/5x5_reduce
I0403 14:51:55.954437 13712 net.cpp:148] Top shape: 24 32 7 7 (37632)
I0403 14:51:55.954454 13712 net.cpp:156] Memory required for data: 1299200544
I0403 14:51:55.954473 13712 layer_factory.hpp:77] Creating layer inception_5a/relu_5x5_reduce
I0403 14:51:55.954490 13712 net.cpp:91] Creating Layer inception_5a/relu_5x5_reduce
I0403 14:51:55.954506 13712 net.cpp:425] inception_5a/relu_5x5_reduce <- inception_5a/5x5_reduce
I0403 14:51:55.954524 13712 net.cpp:386] inception_5a/relu_5x5_reduce -> inception_5a/5x5_reduce (in-place)
I0403 14:51:55.954854 13712 net.cpp:141] Setting up inception_5a/relu_5x5_reduce
I0403 14:51:55.954882 13712 net.cpp:148] Top shape: 24 32 7 7 (37632)
I0403 14:51:55.954898 13712 net.cpp:156] Memory required for data: 1299351072
I0403 14:51:55.954915 13712 layer_factory.hpp:77] Creating layer inception_5a/5x5
I0403 14:51:55.954936 13712 net.cpp:91] Creating Layer inception_5a/5x5
I0403 14:51:55.954954 13712 net.cpp:425] inception_5a/5x5 <- inception_5a/5x5_reduce
I0403 14:51:55.954974 13712 net.cpp:399] inception_5a/5x5 -> inception_5a/5x5
I0403 14:51:55.956774 13712 net.cpp:141] Setting up inception_5a/5x5
I0403 14:51:55.956817 13712 net.cpp:148] Top shape: 24 128 7 7 (150528)
I0403 14:51:55.956835 13712 net.cpp:156] Memory required for data: 1299953184
I0403 14:51:55.956852 13712 layer_factory.hpp:77] Creating layer inception_5a/relu_5x5
I0403 14:51:55.956879 13712 net.cpp:91] Creating Layer inception_5a/relu_5x5
I0403 14:51:55.956899 13712 net.cpp:425] inception_5a/relu_5x5 <- inception_5a/5x5
I0403 14:51:55.956917 13712 net.cpp:386] inception_5a/relu_5x5 -> inception_5a/5x5 (in-place)
I0403 14:51:55.957113 13712 net.cpp:141] Setting up inception_5a/relu_5x5
I0403 14:51:55.957141 13712 net.cpp:148] Top shape: 24 128 7 7 (150528)
I0403 14:51:55.957157 13712 net.cpp:156] Memory required for data: 1300555296
I0403 14:51:55.957171 13712 layer_factory.hpp:77] Creating layer inception_5a/pool
I0403 14:51:55.957190 13712 net.cpp:91] Creating Layer inception_5a/pool
I0403 14:51:55.957206 13712 net.cpp:425] inception_5a/pool <- pool4/3x3_s2_pool4/3x3_s2_0_split_3
I0403 14:51:55.957223 13712 net.cpp:399] inception_5a/pool -> inception_5a/pool
I0403 14:51:55.957298 13712 net.cpp:141] Setting up inception_5a/pool
I0403 14:51:55.957322 13712 net.cpp:148] Top shape: 24 832 7 7 (978432)
I0403 14:51:55.957336 13712 net.cpp:156] Memory required for data: 1304469024
I0403 14:51:55.957350 13712 layer_factory.hpp:77] Creating layer inception_5a/pool_proj
I0403 14:51:55.957372 13712 net.cpp:91] Creating Layer inception_5a/pool_proj
I0403 14:51:55.957391 13712 net.cpp:425] inception_5a/pool_proj <- inception_5a/pool
I0403 14:51:55.957414 13712 net.cpp:399] inception_5a/pool_proj -> inception_5a/pool_proj
I0403 14:51:55.959784 13712 net.cpp:141] Setting up inception_5a/pool_proj
I0403 14:51:55.959812 13712 net.cpp:148] Top shape: 24 128 7 7 (150528)
I0403 14:51:55.959827 13712 net.cpp:156] Memory required for data: 1305071136
I0403 14:51:55.959846 13712 layer_factory.hpp:77] Creating layer inception_5a/relu_pool_proj
I0403 14:51:55.959866 13712 net.cpp:91] Creating Layer inception_5a/relu_pool_proj
I0403 14:51:55.959882 13712 net.cpp:425] inception_5a/relu_pool_proj <- inception_5a/pool_proj
I0403 14:51:55.959898 13712 net.cpp:386] inception_5a/relu_pool_proj -> inception_5a/pool_proj (in-place)
I0403 14:51:55.960201 13712 net.cpp:141] Setting up inception_5a/relu_pool_proj
I0403 14:51:55.960227 13712 net.cpp:148] Top shape: 24 128 7 7 (150528)
I0403 14:51:55.960242 13712 net.cpp:156] Memory required for data: 1305673248
I0403 14:51:55.960255 13712 layer_factory.hpp:77] Creating layer inception_5a/output
I0403 14:51:55.960271 13712 net.cpp:91] Creating Layer inception_5a/output
I0403 14:51:55.960288 13712 net.cpp:425] inception_5a/output <- inception_5a/1x1
I0403 14:51:55.960305 13712 net.cpp:425] inception_5a/output <- inception_5a/3x3
I0403 14:51:55.960324 13712 net.cpp:425] inception_5a/output <- inception_5a/5x5
I0403 14:51:55.960340 13712 net.cpp:425] inception_5a/output <- inception_5a/pool_proj
I0403 14:51:55.960355 13712 net.cpp:399] inception_5a/output -> inception_5a/output
I0403 14:51:55.960404 13712 net.cpp:141] Setting up inception_5a/output
I0403 14:51:55.960429 13712 net.cpp:148] Top shape: 24 832 7 7 (978432)
I0403 14:51:55.960444 13712 net.cpp:156] Memory required for data: 1309586976
I0403 14:51:55.960459 13712 layer_factory.hpp:77] Creating layer inception_5a/output_inception_5a/output_0_split
I0403 14:51:55.960475 13712 net.cpp:91] Creating Layer inception_5a/output_inception_5a/output_0_split
I0403 14:51:55.960490 13712 net.cpp:425] inception_5a/output_inception_5a/output_0_split <- inception_5a/output
I0403 14:51:55.960510 13712 net.cpp:399] inception_5a/output_inception_5a/output_0_split -> inception_5a/output_inception_5a/output_0_split_0
I0403 14:51:55.960530 13712 net.cpp:399] inception_5a/output_inception_5a/output_0_split -> inception_5a/output_inception_5a/output_0_split_1
I0403 14:51:55.960556 13712 net.cpp:399] inception_5a/output_inception_5a/output_0_split -> inception_5a/output_inception_5a/output_0_split_2
I0403 14:51:55.960577 13712 net.cpp:399] inception_5a/output_inception_5a/output_0_split -> inception_5a/output_inception_5a/output_0_split_3
I0403 14:51:55.960688 13712 net.cpp:141] Setting up inception_5a/output_inception_5a/output_0_split
I0403 14:51:55.960714 13712 net.cpp:148] Top shape: 24 832 7 7 (978432)
I0403 14:51:55.960731 13712 net.cpp:148] Top shape: 24 832 7 7 (978432)
I0403 14:51:55.960746 13712 net.cpp:148] Top shape: 24 832 7 7 (978432)
I0403 14:51:55.960760 13712 net.cpp:148] Top shape: 24 832 7 7 (978432)
I0403 14:51:55.960773 13712 net.cpp:156] Memory required for data: 1325241888
I0403 14:51:55.960788 13712 layer_factory.hpp:77] Creating layer inception_5b/1x1
I0403 14:51:55.960808 13712 net.cpp:91] Creating Layer inception_5b/1x1
I0403 14:51:55.960825 13712 net.cpp:425] inception_5b/1x1 <- inception_5a/output_inception_5a/output_0_split_0
I0403 14:51:55.960844 13712 net.cpp:399] inception_5b/1x1 -> inception_5b/1x1
I0403 14:51:55.964661 13712 net.cpp:141] Setting up inception_5b/1x1
I0403 14:51:55.964690 13712 net.cpp:148] Top shape: 24 384 7 7 (451584)
I0403 14:51:55.964706 13712 net.cpp:156] Memory required for data: 1327048224
I0403 14:51:55.964725 13712 layer_factory.hpp:77] Creating layer inception_5b/relu_1x1
I0403 14:51:55.964741 13712 net.cpp:91] Creating Layer inception_5b/relu_1x1
I0403 14:51:55.964756 13712 net.cpp:425] inception_5b/relu_1x1 <- inception_5b/1x1
I0403 14:51:55.964776 13712 net.cpp:386] inception_5b/relu_1x1 -> inception_5b/1x1 (in-place)
I0403 14:51:55.965086 13712 net.cpp:141] Setting up inception_5b/relu_1x1
I0403 14:51:55.965112 13712 net.cpp:148] Top shape: 24 384 7 7 (451584)
I0403 14:51:55.965126 13712 net.cpp:156] Memory required for data: 1328854560
I0403 14:51:55.965142 13712 layer_factory.hpp:77] Creating layer inception_5b/3x3_reduce
I0403 14:51:55.965162 13712 net.cpp:91] Creating Layer inception_5b/3x3_reduce
I0403 14:51:55.965180 13712 net.cpp:425] inception_5b/3x3_reduce <- inception_5a/output_inception_5a/output_0_split_1
I0403 14:51:55.965203 13712 net.cpp:399] inception_5b/3x3_reduce -> inception_5b/3x3_reduce
I0403 14:51:55.967967 13712 net.cpp:141] Setting up inception_5b/3x3_reduce
I0403 14:51:55.967995 13712 net.cpp:148] Top shape: 24 192 7 7 (225792)
I0403 14:51:55.968010 13712 net.cpp:156] Memory required for data: 1329757728
I0403 14:51:55.968029 13712 layer_factory.hpp:77] Creating layer inception_5b/relu_3x3_reduce
I0403 14:51:55.968049 13712 net.cpp:91] Creating Layer inception_5b/relu_3x3_reduce
I0403 14:51:55.968065 13712 net.cpp:425] inception_5b/relu_3x3_reduce <- inception_5b/3x3_reduce
I0403 14:51:55.968082 13712 net.cpp:386] inception_5b/relu_3x3_reduce -> inception_5b/3x3_reduce (in-place)
I0403 14:51:55.968276 13712 net.cpp:141] Setting up inception_5b/relu_3x3_reduce
I0403 14:51:55.968302 13712 net.cpp:148] Top shape: 24 192 7 7 (225792)
I0403 14:51:55.968315 13712 net.cpp:156] Memory required for data: 1330660896
I0403 14:51:55.968329 13712 layer_factory.hpp:77] Creating layer inception_5b/3x3
I0403 14:51:55.968351 13712 net.cpp:91] Creating Layer inception_5b/3x3
I0403 14:51:55.968371 13712 net.cpp:425] inception_5b/3x3 <- inception_5b/3x3_reduce
I0403 14:51:55.968390 13712 net.cpp:399] inception_5b/3x3 -> inception_5b/3x3
I0403 14:51:55.975204 13712 net.cpp:141] Setting up inception_5b/3x3
I0403 14:51:55.975234 13712 net.cpp:148] Top shape: 24 384 7 7 (451584)
I0403 14:51:55.975249 13712 net.cpp:156] Memory required for data: 1332467232
I0403 14:51:55.975268 13712 layer_factory.hpp:77] Creating layer inception_5b/relu_3x3
I0403 14:51:55.975288 13712 net.cpp:91] Creating Layer inception_5b/relu_3x3
I0403 14:51:55.975304 13712 net.cpp:425] inception_5b/relu_3x3 <- inception_5b/3x3
I0403 14:51:55.975322 13712 net.cpp:386] inception_5b/relu_3x3 -> inception_5b/3x3 (in-place)
I0403 14:51:55.975626 13712 net.cpp:141] Setting up inception_5b/relu_3x3
I0403 14:51:55.975652 13712 net.cpp:148] Top shape: 24 384 7 7 (451584)
I0403 14:51:55.975666 13712 net.cpp:156] Memory required for data: 1334273568
I0403 14:51:55.975682 13712 layer_factory.hpp:77] Creating layer inception_5b/5x5_reduce
I0403 14:51:55.975718 13712 net.cpp:91] Creating Layer inception_5b/5x5_reduce
I0403 14:51:55.975738 13712 net.cpp:425] inception_5b/5x5_reduce <- inception_5a/output_inception_5a/output_0_split_2
I0403 14:51:55.975759 13712 net.cpp:399] inception_5b/5x5_reduce -> inception_5b/5x5_reduce
I0403 14:51:55.977056 13712 net.cpp:141] Setting up inception_5b/5x5_reduce
I0403 14:51:55.977083 13712 net.cpp:148] Top shape: 24 48 7 7 (56448)
I0403 14:51:55.977097 13712 net.cpp:156] Memory required for data: 1334499360
I0403 14:51:55.977115 13712 layer_factory.hpp:77] Creating layer inception_5b/relu_5x5_reduce
I0403 14:51:55.977135 13712 net.cpp:91] Creating Layer inception_5b/relu_5x5_reduce
I0403 14:51:55.977151 13712 net.cpp:425] inception_5b/relu_5x5_reduce <- inception_5b/5x5_reduce
I0403 14:51:55.977169 13712 net.cpp:386] inception_5b/relu_5x5_reduce -> inception_5b/5x5_reduce (in-place)
I0403 14:51:55.977551 13712 net.cpp:141] Setting up inception_5b/relu_5x5_reduce
I0403 14:51:55.977577 13712 net.cpp:148] Top shape: 24 48 7 7 (56448)
I0403 14:51:55.977592 13712 net.cpp:156] Memory required for data: 1334725152
I0403 14:51:55.977607 13712 layer_factory.hpp:77] Creating layer inception_5b/5x5
I0403 14:51:55.977627 13712 net.cpp:91] Creating Layer inception_5b/5x5
I0403 14:51:55.977643 13712 net.cpp:425] inception_5b/5x5 <- inception_5b/5x5_reduce
I0403 14:51:55.977661 13712 net.cpp:399] inception_5b/5x5 -> inception_5b/5x5
I0403 14:51:55.979728 13712 net.cpp:141] Setting up inception_5b/5x5
I0403 14:51:55.979755 13712 net.cpp:148] Top shape: 24 128 7 7 (150528)
I0403 14:51:55.979770 13712 net.cpp:156] Memory required for data: 1335327264
I0403 14:51:55.979787 13712 layer_factory.hpp:77] Creating layer inception_5b/relu_5x5
I0403 14:51:55.979807 13712 net.cpp:91] Creating Layer inception_5b/relu_5x5
I0403 14:51:55.979825 13712 net.cpp:425] inception_5b/relu_5x5 <- inception_5b/5x5
I0403 14:51:55.979841 13712 net.cpp:386] inception_5b/relu_5x5 -> inception_5b/5x5 (in-place)
I0403 14:51:55.980038 13712 net.cpp:141] Setting up inception_5b/relu_5x5
I0403 14:51:55.980064 13712 net.cpp:148] Top shape: 24 128 7 7 (150528)
I0403 14:51:55.980080 13712 net.cpp:156] Memory required for data: 1335929376
I0403 14:51:55.980094 13712 layer_factory.hpp:77] Creating layer inception_5b/pool
I0403 14:51:55.980111 13712 net.cpp:91] Creating Layer inception_5b/pool
I0403 14:51:55.980128 13712 net.cpp:425] inception_5b/pool <- inception_5a/output_inception_5a/output_0_split_3
I0403 14:51:55.980147 13712 net.cpp:399] inception_5b/pool -> inception_5b/pool
I0403 14:51:55.980219 13712 net.cpp:141] Setting up inception_5b/pool
I0403 14:51:55.980242 13712 net.cpp:148] Top shape: 24 832 7 7 (978432)
I0403 14:51:55.980257 13712 net.cpp:156] Memory required for data: 1339843104
I0403 14:51:55.980271 13712 layer_factory.hpp:77] Creating layer inception_5b/pool_proj
I0403 14:51:55.980293 13712 net.cpp:91] Creating Layer inception_5b/pool_proj
I0403 14:51:55.980309 13712 net.cpp:425] inception_5b/pool_proj <- inception_5b/pool
I0403 14:51:55.980332 13712 net.cpp:399] inception_5b/pool_proj -> inception_5b/pool_proj
I0403 14:51:55.982672 13712 net.cpp:141] Setting up inception_5b/pool_proj
I0403 14:51:55.982702 13712 net.cpp:148] Top shape: 24 128 7 7 (150528)
I0403 14:51:55.982717 13712 net.cpp:156] Memory required for data: 1340445216
I0403 14:51:55.982734 13712 layer_factory.hpp:77] Creating layer inception_5b/relu_pool_proj
I0403 14:51:55.982753 13712 net.cpp:91] Creating Layer inception_5b/relu_pool_proj
I0403 14:51:55.982771 13712 net.cpp:425] inception_5b/relu_pool_proj <- inception_5b/pool_proj
I0403 14:51:55.982789 13712 net.cpp:386] inception_5b/relu_pool_proj -> inception_5b/pool_proj (in-place)
I0403 14:51:55.983091 13712 net.cpp:141] Setting up inception_5b/relu_pool_proj
I0403 14:51:55.983117 13712 net.cpp:148] Top shape: 24 128 7 7 (150528)
I0403 14:51:55.983132 13712 net.cpp:156] Memory required for data: 1341047328
I0403 14:51:55.983146 13712 layer_factory.hpp:77] Creating layer inception_5b/output
I0403 14:51:55.983163 13712 net.cpp:91] Creating Layer inception_5b/output
I0403 14:51:55.983193 13712 net.cpp:425] inception_5b/output <- inception_5b/1x1
I0403 14:51:55.983211 13712 net.cpp:425] inception_5b/output <- inception_5b/3x3
I0403 14:51:55.983227 13712 net.cpp:425] inception_5b/output <- inception_5b/5x5
I0403 14:51:55.983242 13712 net.cpp:425] inception_5b/output <- inception_5b/pool_proj
I0403 14:51:55.983260 13712 net.cpp:399] inception_5b/output -> inception_5b/output
I0403 14:51:55.983315 13712 net.cpp:141] Setting up inception_5b/output
I0403 14:51:55.983338 13712 net.cpp:148] Top shape: 24 1024 7 7 (1204224)
I0403 14:51:55.983352 13712 net.cpp:156] Memory required for data: 1345864224
I0403 14:51:55.983366 13712 layer_factory.hpp:77] Creating layer pool5/7x7_s1
I0403 14:51:55.983383 13712 net.cpp:91] Creating Layer pool5/7x7_s1
I0403 14:51:55.983398 13712 net.cpp:425] pool5/7x7_s1 <- inception_5b/output
I0403 14:51:55.983417 13712 net.cpp:399] pool5/7x7_s1 -> pool5/7x7_s1
I0403 14:51:55.983640 13712 net.cpp:141] Setting up pool5/7x7_s1
I0403 14:51:55.983665 13712 net.cpp:148] Top shape: 24 1024 1 1 (24576)
I0403 14:51:55.983680 13712 net.cpp:156] Memory required for data: 1345962528
I0403 14:51:55.983695 13712 layer_factory.hpp:77] Creating layer pool5/drop_7x7_s1
I0403 14:51:55.983716 13712 net.cpp:91] Creating Layer pool5/drop_7x7_s1
I0403 14:51:55.983733 13712 net.cpp:425] pool5/drop_7x7_s1 <- pool5/7x7_s1
I0403 14:51:55.983750 13712 net.cpp:386] pool5/drop_7x7_s1 -> pool5/7x7_s1 (in-place)
I0403 14:51:55.983801 13712 net.cpp:141] Setting up pool5/drop_7x7_s1
I0403 14:51:55.983826 13712 net.cpp:148] Top shape: 24 1024 1 1 (24576)
I0403 14:51:55.983840 13712 net.cpp:156] Memory required for data: 1346060832
I0403 14:51:55.983855 13712 layer_factory.hpp:77] Creating layer loss3/classifier_plantvillage
I0403 14:51:55.983872 13712 net.cpp:91] Creating Layer loss3/classifier_plantvillage
I0403 14:51:55.983888 13712 net.cpp:425] loss3/classifier_plantvillage <- pool5/7x7_s1
I0403 14:51:55.983909 13712 net.cpp:399] loss3/classifier_plantvillage -> loss3/classifier_plantvillage
I0403 14:51:55.984343 13712 net.cpp:141] Setting up loss3/classifier_plantvillage
I0403 14:51:55.984367 13712 net.cpp:148] Top shape: 24 38 (912)
I0403 14:51:55.984381 13712 net.cpp:156] Memory required for data: 1346064480
I0403 14:51:55.984400 13712 layer_factory.hpp:77] Creating layer loss3/classifier_plantvillage_loss3/classifier_plantvillage_0_split
I0403 14:51:55.984416 13712 net.cpp:91] Creating Layer loss3/classifier_plantvillage_loss3/classifier_plantvillage_0_split
I0403 14:51:55.984431 13712 net.cpp:425] loss3/classifier_plantvillage_loss3/classifier_plantvillage_0_split <- loss3/classifier_plantvillage
I0403 14:51:55.984450 13712 net.cpp:399] loss3/classifier_plantvillage_loss3/classifier_plantvillage_0_split -> loss3/classifier_plantvillage_loss3/classifier_plantvillage_0_split_0
I0403 14:51:55.984472 13712 net.cpp:399] loss3/classifier_plantvillage_loss3/classifier_plantvillage_0_split -> loss3/classifier_plantvillage_loss3/classifier_plantvillage_0_split_1
I0403 14:51:55.984490 13712 net.cpp:399] loss3/classifier_plantvillage_loss3/classifier_plantvillage_0_split -> loss3/classifier_plantvillage_loss3/classifier_plantvillage_0_split_2
I0403 14:51:55.984510 13712 net.cpp:399] loss3/classifier_plantvillage_loss3/classifier_plantvillage_0_split -> loss3/classifier_plantvillage_loss3/classifier_plantvillage_0_split_3
I0403 14:51:55.984638 13712 net.cpp:141] Setting up loss3/classifier_plantvillage_loss3/classifier_plantvillage_0_split
I0403 14:51:55.984663 13712 net.cpp:148] Top shape: 24 38 (912)
I0403 14:51:55.984680 13712 net.cpp:148] Top shape: 24 38 (912)
I0403 14:51:55.984695 13712 net.cpp:148] Top shape: 24 38 (912)
I0403 14:51:55.984709 13712 net.cpp:148] Top shape: 24 38 (912)
I0403 14:51:55.984722 13712 net.cpp:156] Memory required for data: 1346079072
I0403 14:51:55.984736 13712 layer_factory.hpp:77] Creating layer loss1/loss
I0403 14:51:55.984758 13712 net.cpp:91] Creating Layer loss1/loss
I0403 14:51:55.984776 13712 net.cpp:425] loss1/loss <- loss1/classifier_plantvillage_loss1/classifier_plantvillage_0_split_0
I0403 14:51:55.984807 13712 net.cpp:425] loss1/loss <- label_data_1_split_0
…
