…
I0403 13:45:33.886888 12021 net.cpp:313] The NetState phase (1) differed from the phase (0) specified by a rule in layer data
I0403 13:45:33.888037 12021 net.cpp:49] Initializing net from parameters: 
state {
  phase: TEST
}
layer {
  name: "data"
  type: "Data"
  top: "data"
  top: "label"
  include {
    phase: TEST
  }
  transform_param {
    mirror: false
    crop_size: 224
    mean_file: "/home/mohanty/data/final_dataset/lmdb/segmented-20-80/mean.binaryproto"
  }
  data_param {
    source: "/home/mohanty/data/final_dataset/lmdb/segmented-20-80/test_db"
    batch_size: 24
    backend: LMDB
  }
}
layer {
  name: "conv1/7x7_s2"
  type: "Convolution"
  bottom: "data"
  top: "conv1/7x7_s2"
  param {
    lr_mult: 1
    decay_mult: 1
  }
  param {
    lr_mult: 2
    decay_mult: 0
  }
  convolution_param {
    num_output: 64
    pad: 3
    kernel_size: 7
    stride: 2
    weight_filler {
      type: "xavier"
      std: 0.1
    }
    bias_filler {
      type: "constant"
      value: 0.2
    }
  }
}
layer {
  name: "conv1/relu_7x7"
  type: "ReLU"
  bottom: "conv1/7x7_s2"
  top: "conv1/7x7_s2"
}
layer {
  name: "pool1/3x3_s2"
  type: "Pooling"
  bottom: "conv1/7x7_s2"
  top: "pool1/3x3_s2"
  pooling_param {
    pool: MAX
    kernel_size: 3
    stride: 2
  }
}
layer {
  name: "pool1/norm1"
  type: "LRN"
  bottom: "pool1/3x3_s2"
  top: "pool1/norm1"
  lrn_param {
    local_size: 5
    alpha: 0.0001
    beta: 0.75
  }
}
layer {
  name: "conv2/3x3_reduce"
  type: "Convolution"
  bottom: "pool1/norm1"
  top: "conv2/3x3_reduce"
  param {
    lr_mult: 1
    decay_mult: 1
  }
  param {
    lr_mult: 2
    decay_mult: 0
  }
  convolution_param {
    num_output: 64
    kernel_size: 1
    weight_filler {
      type: "xavier"
      std: 0.1
    }
    bias_filler {
      type: "constant"
      value: 0.2
    }
  }
}
layer {
  name: "conv2/relu_3x3_reduce"
  type: "ReLU"
  bottom: "conv2/3x3_reduce"
  top: "conv2/3x3_reduce"
}
layer {
  name: "conv2/3x3"
  type: "Convolution"
  bottom: "conv2/3x3_reduce"
  top: "conv2/3x3"
  param {
    lr_mult: 1
    decay_mult: 1
  }
  param {
    lr_mult: 2
    decay_mult: 0
  }
  convolution_param {
    num_output: 192
    pad: 1
    kernel_size: 3
    weight_filler {
      type: "xavier"
      std: 0.03
    }
    bias_filler {
      type: "constant"
      value: 0.2
    }
  }
}
layer {
  name: "conv2/relu_3x3"
  type: "ReLU"
  bottom: "conv2/3x3"
  top: "conv2/3x3"
}
layer {
  name: "conv2/norm2"
  type: "LRN"
  bottom: "conv2/3x3"
  top: "conv2/norm2"
  lrn_param {
    local_size: 5
    alpha: 0.0001
    beta: 0.75
  }
}
layer {
  name: "pool2/3x3_s2"
  type: "Pooling"
  bottom: "conv2/norm2"
  top: "pool2/3x3_s2"
  pooling_param {
    pool: MAX
    kernel_size: 3
    stride: 2
  }
}
layer {
  name: "inception_3a/1x1"
  type: "Convolution"
  bottom: "pool2/3x3_s2"
  top: "inception_3a/1x1"
  param {
    lr_mult: 1
    decay_mult: 1
  }
  param {
    lr_mult: 2
    decay_mult: 0
  }
  convolution_param {
    num_output: 64
    kernel_size: 1
    weight_filler {
      type: "xavier"
      std: 0.03
    }
    bias_filler {
      type: "constant"
      value: 0.2
    }
  }
}
layer {
  name: "inception_3a/relu_1x1"
  type: "ReLU"
  bottom: "inception_3a/1x1"
  top: "inception_3a/1x1"
}
layer {
  name: "inception_3a/3x3_reduce"
  type: "Convolution"
  bottom: "pool2/3x3_s2"
  top: "inception_3a/3x3_reduce"
  param {
    lr_mult: 1
    decay_mult: 1
  }
  param {
    lr_mult: 2
    decay_mult: 0
  }
  convolution_param {
    num_output: 96
    kernel_size: 1
    weight_filler {
      type: "xavier"
      std: 0.09
    }
    bias_filler {
      type: "constant"
      value: 0.2
    }
  }
}
layer {
  name: "inception_3a/relu_3x3_reduce"
  type: "ReLU"
  bottom: "inception_3a/3x3_reduce"
  top: "inception_3a/3x3_reduce"
}
layer {
  name: "inception_3a/3x3"
  type: "Convolution"
  bottom: "inception_3a/3x3_reduce"
  top: "inception_3a/3x3"
  param {
    lr_mult: 1
    decay_mult: 1
  }
  param {
    lr_mult: 2
    decay_mult: 0
  }
  convolution_param {
    num_output: 128
    pad: 1
    kernel_size: 3
    weight_filler {
      type: "xavier"
      std: 0.03
    }
    bias_filler {
      type: "constant"
      value: 0.2
    }
  }
}
layer {
  name: "inception_3a/relu_3x3"
  type: "ReLU"
  bottom: "inception_3a/3x3"
  top: "inception_3a/3x3"
}
layer {
  name: "inception_3a/5x5_reduce"
  type: "Convolution"
  bottom: "pool2/3x3_s2"
  top: "inception_3a/5x5_reduce"
  param {
    lr_mult: 1
    decay_mult: 1
  }
  param {
    lr_mult: 2
    decay_mult: 0
  }
  convolution_param {
    num_output: 16
    kernel_size: 1
    weight_filler {
      type: "xavier"
      std: 0.2
    }
    bias_filler {
      type: "constant"
      value: 0.2
    }
  }
}
layer {
  name: "inception_3a/relu_5x5_reduce"
  type: "ReLU"
  bottom: "inception_3a/5x5_reduce"
  top: "inception_3a/5x5_reduce"
}
layer {
  name: "inception_3a/5x5"
  type: "Convolution"
  bottom: "inception_3a/5x5_reduce"
  top: "inception_3a/5x5"
  param {
    lr_mult: 1
    decay_mult: 1
  }
  param {
    lr_mult: 2
    decay_mult: 0
  }
  convolution_param {
    num_output: 32
    pad: 2
    kernel_size: 5
    weight_filler {
      type: "xavier"
      std: 0.03
    }
    bias_filler {
      type: "constant"
      value: 0.2
    }
  }
}
layer {
  name: "inception_3a/relu_5x5"
  type: "ReLU"
  bottom: "inception_3a/5x5"
  top: "inception_3a/5x5"
}
layer {
  name: "inception_3a/pool"
  type: "Pooling"
  bottom: "pool2/3x3_s2"
  top: "inception_3a/pool"
  pooling_param {
    pool: MAX
    kernel_size: 3
    stride: 1
    pad: 1
  }
}
layer {
  name: "inception_3a/pool_proj"
  type: "Convolution"
  bottom: "inception_3a/pool"
  top: "inception_3a/pool_proj"
  param {
    lr_mult: 1
    decay_mult: 1
  }
  param {
    lr_mult: 2
    decay_mult: 0
  }
  convolution_param {
    num_output: 32
    kernel_size: 1
    weight_filler {
      type: "xavier"
      std: 0.1
    }
    bias_filler {
      type: "constant"
      value: 0.2
    }
  }
}
layer {
  name: "inception_3a/relu_pool_proj"
  type: "ReLU"
  bottom: "inception_3a/pool_proj"
  top: "inception_3a/pool_proj"
}
layer {
  name: "inception_3a/output"
  type: "Concat"
  bottom: "inception_3a/1x1"
  bottom: "inception_3a/3x3"
  bottom: "inception_3a/5x5"
  bottom: "inception_3a/pool_proj"
  top: "inception_3a/output"
}
layer {
  name: "inception_3b/1x1"
  type: "Convolution"
  bottom: "inception_3a/output"
  top: "inception_3b/1x1"
  param {
    lr_mult: 1
    decay_mult: 1
  }
  param {
    lr_mult: 2
    decay_mult: 0
  }
  convolution_param {
    num_output: 128
    kernel_size: 1
    weight_filler {
      type: "xavier"
      std: 0.03
    }
    bias_filler {
      type: "constant"
      value: 0.2
    }
  }
}
layer {
  name: "inception_3b/relu_1x1"
  type: "ReLU"
  bottom: "inception_3b/1x1"
  top: "inception_3b/1x1"
}
layer {
  name: "inception_3b/3x3_reduce"
  type: "Convolution"
  bottom: "inception_3a/output"
  top: "inception_3b/3x3_reduce"
  param {
    lr_mult: 1
    decay_mult: 1
  }
  param {
    lr_mult: 2
    decay_mult: 0
  }
  convolution_param {
    num_output: 128
    kernel_size: 1
    weight_filler {
      type: "xavier"
      std: 0.09
    }
    bias_filler {
      type: "constant"
      value: 0.2
    }
  }
}
layer {
  name: "inception_3b/relu_3x3_reduce"
  type: "ReLU"
  bottom: "inception_3b/3x3_reduce"
  top: "inception_3b/3x3_reduce"
}
layer {
  name: "inception_3b/3x3"
  type: "Convolution"
  bottom: "inception_3b/3x3_reduce"
  top: "inception_3b/3x3"
  param {
    lr_mult: 1
    decay_mult: 1
  }
  param {
    lr_mult: 2
    decay_mult: 0
  }
  convolution_param {
    num_output: 192
    pad: 1
    kernel_size: 3
    weight_filler {
      type: "xavier"
      std: 0.03
    }
    bias_filler {
      type: "constant"
      value: 0.2
    }
  }
}
layer {
  name: "inception_3b/relu_3x3"
  type: "ReLU"
  bottom: "inception_3b/3x3"
  top: "inception_3b/3x3"
}
layer {
  name: "inception_3b/5x5_reduce"
  type: "Convolution"
  bottom: "inception_3a/output"
  top: "inception_3b/5x5_reduce"
  param {
    lr_mult: 1
    decay_mult: 1
  }
  param {
    lr_mult: 2
    decay_mult: 0
  }
  convolution_param {
    num_output: 32
    kernel_size: 1
    weight_filler {
      type: "xavier"
      std: 0.2
    }
    bias_filler {
      type: "constant"
      value: 0.2
    }
  }
}
layer {
  name: "inception_3b/relu_5x5_reduce"
  type: "ReLU"
  bottom: "inception_3b/5x5_reduce"
  top: "inception_3b/5x5_reduce"
}
layer {
  name: "inception_3b/5x5"
  type: "Convolution"
  bottom: "inception_3b/5x5_reduce"
  top: "inception_3b/5x5"
  param {
    lr_mult: 1
    decay_mult: 1
  }
  param {
    lr_mult: 2
    decay_mult: 0
  }
  convolution_param {
    num_output: 96
    pad: 2
    kernel_size: 5
    weight_filler {
      type: "xavier"
      std: 0.03
    }
    bias_filler {
      type: "constant"
      value: 0.2
    }
  }
}
layer {
  name: "inception_3b/relu_5x5"
  type: "ReLU"
  bottom: "inception_3b/5x5"
  top: "inception_3b/5x5"
}
layer {
  name: "inception_3b/pool"
  type: "Pooling"
  bottom: "inception_3a/output"
  top: "inception_3b/pool"
  pooling_param {
    pool: MAX
    kernel_size: 3
    stride: 1
    pad: 1
  }
}
layer {
  name: "inception_3b/pool_proj"
  type: "Convolution"
  bottom: "inception_3b/pool"
  top: "inception_3b/pool_proj"
  param {
    lr_mult: 1
    decay_mult: 1
  }
  param {
    lr_mult: 2
    decay_mult: 0
  }
  convolution_param {
    num_output: 64
    kernel_size: 1
    weight_filler {
      type: "xavier"
      std: 0.1
    }
    bias_filler {
      type: "constant"
      value: 0.2
    }
  }
}
layer {
  name: "inception_3b/relu_pool_proj"
  type: "ReLU"
  bottom: "inception_3b/pool_proj"
  top: "inception_3b/pool_proj"
}
layer {
  name: "inception_3b/output"
  type: "Concat"
  bottom: "inception_3b/1x1"
  bottom: "inception_3b/3x3"
  bottom: "inception_3b/5x5"
  bottom: "inception_3b/pool_proj"
  top: "inception_3b/output"
}
layer {
  name: "pool3/3x3_s2"
  type: "Pooling"
  bottom: "inception_3b/output"
  top: "pool3/3x3_s2"
  pooling_param {
    pool: MAX
    kernel_size: 3
    stride: 2
  }
}
layer {
  name: "inception_4a/1x1"
  type: "Convolution"
  bottom: "pool3/3x3_s2"
  top: "inception_4a/1x1"
  param {
    lr_mult: 1
    decay_mult: 1
  }
  param {
    lr_mult: 2
    decay_mult: 0
  }
  convolution_param {
    num_output: 192
    kernel_size: 1
    weight_filler {
      type: "xavier"
      std: 0.03
    }
    bias_filler {
      type: "constant"
      value: 0.2
    }
  }
}
layer {
  name: "inception_4a/relu_1x1"
  type: "ReLU"
  bottom: "inception_4a/1x1"
  top: "inception_4a/1x1"
}
layer {
  name: "inception_4a/3x3_reduce"
  type: "Convolution"
  bottom: "pool3/3x3_s2"
  top: "inception_4a/3x3_reduce"
  param {
    lr_mult: 1
    decay_mult: 1
  }
  param {
    lr_mult: 2
    decay_mult: 0
  }
  convolution_param {
    num_output: 96
    kernel_size: 1
    weight_filler {
      type: "xavier"
      std: 0.09
    }
    bias_filler {
      type: "constant"
      value: 0.2
    }
  }
}
layer {
  name: "inception_4a/relu_3x3_reduce"
  type: "ReLU"
  bottom: "inception_4a/3x3_reduce"
  top: "inception_4a/3x3_reduce"
}
layer {
  name: "inception_4a/3x3"
  type: "Convolution"
  bottom: "inception_4a/3x3_reduce"
  top: "inception_4a/3x3"
  param {
    lr_mult: 1
    decay_mult: 1
  }
  param {
    lr_mult: 2
    decay_mult: 0
  }
  convolution_param {
    num_output: 208
    pad: 1
    kernel_size: 3
    weight_filler {
      type: "xavier"
      std: 0.03
    }
    bias_filler {
      type: "constant"
      value: 0.2
    }
  }
}
layer {
  name: "inception_4a/relu_3x3"
  type: "ReLU"
  bottom: "inception_4a/3x3"
  top: "inception_4a/3x3"
}
layer {
  name: "inception_4a/5x5_reduce"
  type: "Convolution"
  bottom: "pool3/3x3_s2"
  top: "inception_4a/5x5_reduce"
  param {
    lr_mult: 1
    decay_mult: 1
  }
  param {
    lr_mult: 2
    decay_mult: 0
  }
  convolution_param {
    num_output: 16
    kernel_size: 1
    weight_filler {
      type: "xavier"
      std: 0.2
    }
    bias_filler {
      type: "constant"
      value: 0.2
    }
  }
}
layer {
  name: "inception_4a/relu_5x5_reduce"
  type: "ReLU"
  bottom: "inception_4a/5x5_reduce"
  top: "inception_4a/5x5_reduce"
}
layer {
  name: "inception_4a/5x5"
  type: "Convolution"
  bottom: "inception_4a/5x5_reduce"
  top: "inception_4a/5x5"
  param {
    lr_mult: 1
    decay_mult: 1
  }
  param {
    lr_mult: 2
    decay_mult: 0
  }
  convolution_param {
    num_output: 48
    pad: 2
    kernel_size: 5
    weight_filler {
      type: "xavier"
      std: 0.03
    }
    bias_filler {
      type: "constant"
      value: 0.2
    }
  }
}
layer {
  name: "inception_4a/relu_5x5"
  type: "ReLU"
  bottom: "inception_4a/5x5"
  top: "inception_4a/5x5"
}
layer {
  name: "inception_4a/pool"
  type: "Pooling"
  bottom: "pool3/3x3_s2"
  top: "inception_4a/pool"
  pooling_param {
    pool: MAX
    kernel_size: 3
    stride: 1
    pad: 1
  }
}
layer {
  name: "inception_4a/pool_proj"
  type: "Convolution"
  bottom: "inception_4a/pool"
  top: "inception_4a/pool_proj"
  param {
    lr_mult: 1
    decay_mult: 1
  }
  param {
    lr_mult: 2
    decay_mult: 0
  }
  convolution_param {
    num_output: 64
    kernel_size: 1
    weight_filler {
      type: "xavier"
      std: 0.1
    }
    bias_filler {
      type: "constant"
      value: 0.2
    }
  }
}
layer {
  name: "inception_4a/relu_pool_proj"
  type: "ReLU"
  bottom: "inception_4a/pool_proj"
  top: "inception_4a/pool_proj"
}
layer {
  name: "inception_4a/output"
  type: "Concat"
  bottom: "inception_4a/1x1"
  bottom: "inception_4a/3x3"
  bottom: "inception_4a/5x5"
  bottom: "inception_4a/pool_proj"
  top: "inception_4a/output"
}
layer {
  name: "loss1/ave_pool"
  type: "Pooling"
  bottom: "inception_4a/output"
  top: "loss1/ave_pool"
  pooling_param {
    pool: AVE
    kernel_size: 5
    stride: 3
  }
}
layer {
  name: "loss1/conv"
  type: "Convolution"
  bottom: "loss1/ave_pool"
  top: "loss1/conv"
  param {
    lr_mult: 1
    decay_mult: 1
  }
  param {
    lr_mult: 2
    decay_mult: 0
  }
  convolution_param {
    num_output: 128
    kernel_size: 1
    weight_filler {
      type: "xavier"
      std: 0.08
    }
    bias_filler {
      type: "constant"
      value: 0.2
    }
  }
}
layer {
  name: "loss1/relu_conv"
  type: "ReLU"
  bottom: "loss1/conv"
  top: "loss1/conv"
}
layer {
  name: "loss1/fc"
  type: "InnerProduct"
  bottom: "loss1/conv"
  top: "loss1/fc"
  param {
    lr_mult: 1
    decay_mult: 1
  }
  param {
    lr_mult: 2
    decay_mult: 0
  }
  inner_product_param {
    num_output: 1024
    weight_filler {
      type: "xavier"
      std: 0.02
    }
    bias_filler {
      type: "constant"
      value: 0.2
    }
  }
}
layer {
  name: "loss1/relu_fc"
  type: "ReLU"
  bottom: "loss1/fc"
  top: "loss1/fc"
}
layer {
  name: "loss1/drop_fc"
  type: "Dropout"
  bottom: "loss1/fc"
  top: "loss1/fc"
  dropout_param {
    dropout_ratio: 0.7
  }
}
layer {
  name: "loss1/classifier_plantvillage"
  type: "InnerProduct"
  bottom: "loss1/fc"
  top: "loss1/classifier_plantvillage"
  param {
    lr_mult: 1
    decay_mult: 1
  }
  param {
    lr_mult: 2
    decay_mult: 0
  }
  inner_product_param {
    num_output: 38
    weight_filler {
      type: "xavier"
      std: 0.0009765625
    }
    bias_filler {
      type: "constant"
      value: 0
    }
  }
}
layer {
  name: "inception_4b/1x1"
  type: "Convolution"
  bottom: "inception_4a/output"
  top: "inception_4b/1x1"
  param {
    lr_mult: 1
    decay_mult: 1
  }
  param {
    lr_mult: 2
    decay_mult: 0
  }
  convolution_param {
    num_output: 160
    kernel_size: 1
    weight_filler {
      type: "xavier"
      std: 0.03
    }
    bias_filler {
      type: "constant"
      value: 0.2
    }
  }
}
layer {
  name: "inception_4b/relu_1x1"
  type: "ReLU"
  bottom: "inception_4b/1x1"
  top: "inception_4b/1x1"
}
layer {
  name: "inception_4b/3x3_reduce"
  type: "Convolution"
  bottom: "inception_4a/output"
  top: "inception_4b/3x3_reduce"
  param {
    lr_mult: 1
    decay_mult: 1
  }
  param {
    lr_mult: 2
    decay_mult: 0
  }
  convolution_param {
    num_output: 112
    kernel_size: 1
    weight_filler {
      type: "xavier"
      std: 0.09
    }
    bias_filler {
      type: "constant"
      value: 0.2
    }
  }
}
layer {
  name: "inception_4b/relu_3x3_reduce"
  type: "ReLU"
  bottom: "inception_4b/3x3_reduce"
  top: "inception_4b/3x3_reduce"
}
layer {
  name: "inception_4b/3x3"
  type: "Convolution"
  bottom: "inception_4b/3x3_reduce"
  top: "inception_4b/3x3"
  param {
    lr_mult: 1
    decay_mult: 1
  }
  param {
    lr_mult: 2
    decay_mult: 0
  }
  convolution_param {
    num_output: 224
    pad: 1
    kernel_size: 3
    weight_filler {
      type: "xavier"
      std: 0.03
    }
    bias_filler {
      type: "constant"
      value: 0.2
    }
  }
}
layer {
  name: "inception_4b/relu_3x3"
  type: "ReLU"
  bottom: "inception_4b/3x3"
  top: "inception_4b/3x3"
}
layer {
  name: "inception_4b/5x5_reduce"
  type: "Convolution"
  bottom: "inception_4a/output"
  top: "inception_4b/5x5_reduce"
  param {
    lr_mult: 1
    decay_mult: 1
  }
  param {
    lr_mult: 2
    decay_mult: 0
  }
  convolution_param {
    num_output: 24
    kernel_size: 1
    weight_filler {
      type: "xavier"
      std: 0.2
    }
    bias_filler {
      type: "constant"
      value: 0.2
    }
  }
}
layer {
  name: "inception_4b/relu_5x5_reduce"
  type: "ReLU"
  bottom: "inception_4b/5x5_reduce"
  top: "inception_4b/5x5_reduce"
}
layer {
  name: "inception_4b/5x5"
  type: "Convolution"
  bottom: "inception_4b/5x5_reduce"
  top: "inception_4b/5x5"
  param {
    lr_mult: 1
    decay_mult: 1
  }
  param {
    lr_mult: 2
    decay_mult: 0
  }
  convolution_param {
    num_output: 64
    pad: 2
    kernel_size: 5
    weight_filler {
      type: "xavier"
      std: 0.03
    }
    bias_filler {
      type: "constant"
      value: 0.2
    }
  }
}
layer {
  name: "inception_4b/relu_5x5"
  type: "ReLU"
  bottom: "inception_4b/5x5"
  top: "inception_4b/5x5"
}
layer {
  name: "inception_4b/pool"
  type: "Pooling"
  bottom: "inception_4a/output"
  top: "inception_4b/pool"
  pooling_param {
    pool: MAX
    kernel_size: 3
    stride: 1
    pad: 1
  }
}
layer {
  name: "inception_4b/pool_proj"
  type: "Convolution"
  bottom: "inception_4b/pool"
  top: "inception_4b/pool_proj"
  param {
    lr_mult: 1
    decay_mult: 1
  }
  param {
    lr_mult: 2
    decay_mult: 0
  }
  convolution_param {
    num_output: 64
    kernel_size: 1
    weight_filler {
      type: "xavier"
      std: 0.1
    }
    bias_filler {
      type: "constant"
      value: 0.2
    }
  }
}
layer {
  name: "inception_4b/relu_pool_proj"
  type: "ReLU"
  bottom: "inception_4b/pool_proj"
  top: "inception_4b/pool_proj"
}
layer {
  name: "inception_4b/output"
  type: "Concat"
  bottom: "inception_4b/1x1"
  bottom: "inception_4b/3x3"
  bottom: "inception_4b/5x5"
  bottom: "inception_4b/pool_proj"
  top: "inception_4b/output"
}
layer {
  name: "inception_4c/1x1"
  type: "Convolution"
  bottom: "inception_4b/output"
  top: "inception_4c/1x1"
  param {
    lr_mult: 1
    decay_mult: 1
  }
  param {
    lr_mult: 2
    decay_mult: 0
  }
  convolution_param {
    num_output: 128
    kernel_size: 1
    weight_filler {
      type: "xavier"
      std: 0.03
    }
    bias_filler {
      type: "constant"
      value: 0.2
    }
  }
}
layer {
  name: "inception_4c/relu_1x1"
  type: "ReLU"
  bottom: "inception_4c/1x1"
  top: "inception_4c/1x1"
}
layer {
  name: "inception_4c/3x3_reduce"
  type: "Convolution"
  bottom: "inception_4b/output"
  top: "inception_4c/3x3_reduce"
  param {
    lr_mult: 1
    decay_mult: 1
  }
  param {
    lr_mult: 2
    decay_mult: 0
  }
  convolution_param {
    num_output: 128
    kernel_size: 1
    weight_filler {
      type: "xavier"
      std: 0.09
    }
    bias_filler {
      type: "constant"
      value: 0.2
    }
  }
}
layer {
  name: "inception_4c/relu_3x3_reduce"
  type: "ReLU"
  bottom: "inception_4c/3x3_reduce"
  top: "inception_4c/3x3_reduce"
}
layer {
  name: "inception_4c/3x3"
  type: "Convolution"
  bottom: "inception_4c/3x3_reduce"
  top: "inception_4c/3x3"
  param {
    lr_mult: 1
    decay_mult: 1
  }
  param {
    lr_mult: 2
    decay_mult: 0
  }
  convolution_param {
    num_output: 256
    pad: 1
    kernel_size: 3
    weight_filler {
      type: "xavier"
      std: 0.03
    }
    bias_filler {
      type: "constant"
      value: 0.2
    }
  }
}
layer {
  name: "inception_4c/relu_3x3"
  type: "ReLU"
  bottom: "inception_4c/3x3"
  top: "inception_4c/3x3"
}
layer {
  name: "inception_4c/5x5_reduce"
  type: "Convolution"
  bottom: "inception_4b/output"
  top: "inception_4c/5x5_reduce"
  param {
    lr_mult: 1
    decay_mult: 1
  }
  param {
    lr_mult: 2
    decay_mult: 0
  }
  convolution_param {
    num_output: 24
    kernel_size: 1
    weight_filler {
      type: "xavier"
      std: 0.2
    }
    bias_filler {
      type: "constant"
      value: 0.2
    }
  }
}
layer {
  name: "inception_4c/relu_5x5_reduce"
  type: "ReLU"
  bottom: "inception_4c/5x5_reduce"
  top: "inception_4c/5x5_reduce"
}
layer {
  name: "inception_4c/5x5"
  type: "Convolution"
  bottom: "inception_4c/5x5_reduce"
  top: "inception_4c/5x5"
  param {
    lr_mult: 1
    decay_mult: 1
  }
  param {
    lr_mult: 2
    decay_mult: 0
  }
  convolution_param {
    num_output: 64
    pad: 2
    kernel_size: 5
    weight_filler {
      type: "xavier"
      std: 0.03
    }
    bias_filler {
      type: "constant"
      value: 0.2
    }
  }
}
layer {
  name: "inception_4c/relu_5x5"
  type: "ReLU"
  bottom: "inception_4c/5x5"
  top: "inception_4c/5x5"
}
layer {
  name: "inception_4c/pool"
  type: "Pooling"
  bottom: "inception_4b/output"
  top: "inception_4c/pool"
  pooling_param {
    pool: MAX
    kernel_size: 3
    stride: 1
    pad: 1
  }
}
layer {
  name: "inception_4c/pool_proj"
  type: "Convolution"
  bottom: "inception_4c/pool"
  top: "inception_4c/pool_proj"
  param {
    lr_mult: 1
    decay_mult: 1
  }
  param {
    lr_mult: 2
    decay_mult: 0
  }
  convolution_param {
    num_output: 64
    kernel_size: 1
    weight_filler {
      type: "xavier"
      std: 0.1
    }
    bias_filler {
      type: "constant"
      value: 0.2
    }
  }
}
layer {
  name: "inception_4c/relu_pool_proj"
  type: "ReLU"
  bottom: "inception_4c/pool_proj"
  top: "inception_4c/pool_proj"
}
layer {
  name: "inception_4c/output"
  type: "Concat"
  bottom: "inception_4c/1x1"
  bottom: "inception_4c/3x3"
  bottom: "inception_4c/5x5"
  bottom: "inception_4c/pool_proj"
  top: "inception_4c/output"
}
layer {
  name: "inception_4d/1x1"
  type: "Convolution"
  bottom: "inception_4c/output"
  top: "inception_4d/1x1"
  param {
    lr_mult: 1
    decay_mult: 1
  }
  param {
    lr_mult: 2
    decay_mult: 0
  }
  convolution_param {
    num_output: 112
    kernel_size: 1
    weight_filler {
      type: "xavier"
      std: 0.03
    }
    bias_filler {
      type: "constant"
      value: 0.2
    }
  }
}
layer {
  name: "inception_4d/relu_1x1"
  type: "ReLU"
  bottom: "inception_4d/1x1"
  top: "inception_4d/1x1"
}
layer {
  name: "inception_4d/3x3_reduce"
  type: "Convolution"
  bottom: "inception_4c/output"
  top: "inception_4d/3x3_reduce"
  param {
    lr_mult: 1
    decay_mult: 1
  }
  param {
    lr_mult: 2
    decay_mult: 0
  }
  convolution_param {
    num_output: 144
    kernel_size: 1
    weight_filler {
      type: "xavier"
      std: 0.09
    }
    bias_filler {
      type: "constant"
      value: 0.2
    }
  }
}
layer {
  name: "inception_4d/relu_3x3_reduce"
  type: "ReLU"
  bottom: "inception_4d/3x3_reduce"
  top: "inception_4d/3x3_reduce"
}
layer {
  name: "inception_4d/3x3"
  type: "Convolution"
  bottom: "inception_4d/3x3_reduce"
  top: "inception_4d/3x3"
  param {
    lr_mult: 1
    decay_mult: 1
  }
  param {
    lr_mult: 2
    decay_mult: 0
  }
  convolution_param {
    num_output: 288
    pad: 1
    kernel_size: 3
    weight_filler {
      type: "xavier"
      std: 0.03
    }
    bias_filler {
      type: "constant"
      value: 0.2
    }
  }
}
layer {
  name: "inception_4d/relu_3x3"
  type: "ReLU"
  bottom: "inception_4d/3x3"
  top: "inception_4d/3x3"
}
layer {
  name: "inception_4d/5x5_reduce"
  type: "Convolution"
  bottom: "inception_4c/output"
  top: "inception_4d/5x5_reduce"
  param {
    lr_mult: 1
    decay_mult: 1
  }
  param {
    lr_mult: 2
    decay_mult: 0
  }
  convolution_param {
    num_output: 32
    kernel_size: 1
    weight_filler {
      type: "xavier"
      std: 0.2
    }
    bias_filler {
      type: "constant"
      value: 0.2
    }
  }
}
layer {
  name: "inception_4d/relu_5x5_reduce"
  type: "ReLU"
  bottom: "inception_4d/5x5_reduce"
  top: "inception_4d/5x5_reduce"
}
layer {
  name: "inception_4d/5x5"
  type: "Convolution"
  bottom: "inception_4d/5x5_reduce"
  top: "inception_4d/5x5"
  param {
    lr_mult: 1
    decay_mult: 1
  }
  param {
    lr_mult: 2
    decay_mult: 0
  }
  convolution_param {
    num_output: 64
    pad: 2
    kernel_size: 5
    weight_filler {
      type: "xavier"
      std: 0.03
    }
    bias_filler {
      type: "constant"
      value: 0.2
    }
  }
}
layer {
  name: "inception_4d/relu_5x5"
  type: "ReLU"
  bottom: "inception_4d/5x5"
  top: "inception_4d/5x5"
}
layer {
  name: "inception_4d/pool"
  type: "Pooling"
  bottom: "inception_4c/output"
  top: "inception_4d/pool"
  pooling_param {
    pool: MAX
    kernel_size: 3
    stride: 1
    pad: 1
  }
}
layer {
  name: "inception_4d/pool_proj"
  type: "Convolution"
  bottom: "inception_4d/pool"
  top: "inception_4d/pool_proj"
  param {
    lr_mult: 1
    decay_mult: 1
  }
  param {
    lr_mult: 2
    decay_mult: 0
  }
  convolution_param {
    num_output: 64
    kernel_size: 1
    weight_filler {
      type: "xavier"
      std: 0.1
    }
    bias_filler {
      type: "constant"
      value: 0.2
    }
  }
}
layer {
  name: "inception_4d/relu_pool_proj"
  type: "ReLU"
  bottom: "inception_4d/pool_proj"
  top: "inception_4d/pool_proj"
}
layer {
  name: "inception_4d/output"
  type: "Concat"
  bottom: "inception_4d/1x1"
  bottom: "inception_4d/3x3"
  bottom: "inception_4d/5x5"
  bottom: "inception_4d/pool_proj"
  top: "inception_4d/output"
}
layer {
  name: "loss2/ave_pool"
  type: "Pooling"
  bottom: "inception_4d/output"
  top: "loss2/ave_pool"
  pooling_param {
    pool: AVE
    kernel_size: 5
    stride: 3
  }
}
layer {
  name: "loss2/conv"
  type: "Convolution"
  bottom: "loss2/ave_pool"
  top: "loss2/conv"
  param {
    lr_mult: 1
    decay_mult: 1
  }
  param {
    lr_mult: 2
    decay_mult: 0
  }
  convolution_param {
    num_output: 128
    kernel_size: 1
    weight_filler {
      type: "xavier"
      std: 0.08
    }
    bias_filler {
      type: "constant"
      value: 0.2
    }
  }
}
layer {
  name: "loss2/relu_conv"
  type: "ReLU"
  bottom: "loss2/conv"
  top: "loss2/conv"
}
layer {
  name: "loss2/fc"
  type: "InnerProduct"
  bottom: "loss2/conv"
  top: "loss2/fc"
  param {
    lr_mult: 1
    decay_mult: 1
  }
  param {
    lr_mult: 2
    decay_mult: 0
  }
  inner_product_param {
    num_output: 1024
    weight_filler {
      type: "xavier"
      std: 0.02
    }
    bias_filler {
      type: "constant"
      value: 0.2
    }
  }
}
layer {
  name: "loss2/relu_fc"
  type: "ReLU"
  bottom: "loss2/fc"
  top: "loss2/fc"
}
layer {
  name: "loss2/drop_fc"
  type: "Dropout"
  bottom: "loss2/fc"
  top: "loss2/fc"
  dropout_param {
    dropout_ratio: 0.7
  }
}
layer {
  name: "loss2/classifier_plantvillage"
  type: "InnerProduct"
  bottom: "loss2/fc"
  top: "loss2/classifier_plantvillage"
  param {
    lr_mult: 1
    decay_mult: 1
  }
  param {
    lr_mult: 2
    decay_mult: 0
  }
  inner_product_param {
    num_output: 38
    weight_filler {
      type: "xavier"
      std: 0.0009765625
    }
    bias_filler {
      type: "constant"
      value: 0
    }
  }
}
layer {
  name: "inception_4e/1x1"
  type: "Convolution"
  bottom: "inception_4d/output"
  top: "inception_4e/1x1"
  param {
    lr_mult: 1
    decay_mult: 1
  }
  param {
    lr_mult: 2
    decay_mult: 0
  }
  convolution_param {
    num_output: 256
    kernel_size: 1
    weight_filler {
      type: "xavier"
      std: 0.03
    }
    bias_filler {
      type: "constant"
      value: 0.2
    }
  }
}
layer {
  name: "inception_4e/relu_1x1"
  type: "ReLU"
  bottom: "inception_4e/1x1"
  top: "inception_4e/1x1"
}
layer {
  name: "inception_4e/3x3_reduce"
  type: "Convolution"
  bottom: "inception_4d/output"
  top: "inception_4e/3x3_reduce"
  param {
    lr_mult: 1
    decay_mult: 1
  }
  param {
    lr_mult: 2
    decay_mult: 0
  }
  convolution_param {
    num_output: 160
    kernel_size: 1
    weight_filler {
      type: "xavier"
      std: 0.09
    }
    bias_filler {
      type: "constant"
      value: 0.2
    }
  }
}
layer {
  name: "inception_4e/relu_3x3_reduce"
  type: "ReLU"
  bottom: "inception_4e/3x3_reduce"
  top: "inception_4e/3x3_reduce"
}
layer {
  name: "inception_4e/3x3"
  type: "Convolution"
  bottom: "inception_4e/3x3_reduce"
  top: "inception_4e/3x3"
  param {
    lr_mult: 1
    decay_mult: 1
  }
  param {
    lr_mult: 2
    decay_mult: 0
  }
  convolution_param {
    num_output: 320
    pad: 1
    kernel_size: 3
    weight_filler {
      type: "xavier"
      std: 0.03
    }
    bias_filler {
      type: "constant"
      value: 0.2
    }
  }
}
layer {
  name: "inception_4e/relu_3x3"
  type: "ReLU"
  bottom: "inception_4e/3x3"
  top: "inception_4e/3x3"
}
layer {
  name: "inception_4e/5x5_reduce"
  type: "Convolution"
  bottom: "inception_4d/output"
  top: "inception_4e/5x5_reduce"
  param {
    lr_mult: 1
    decay_mult: 1
  }
  param {
    lr_mult: 2
    decay_mult: 0
  }
  convolution_param {
    num_output: 32
    kernel_size: 1
    weight_filler {
      type: "xavier"
      std: 0.2
    }
    bias_filler {
      type: "constant"
      value: 0.2
    }
  }
}
layer {
  name: "inception_4e/relu_5x5_reduce"
  type: "ReLU"
  bottom: "inception_4e/5x5_reduce"
  top: "inception_4e/5x5_reduce"
}
layer {
  name: "inception_4e/5x5"
  type: "Convolution"
  bottom: "inception_4e/5x5_reduce"
  top: "inception_4e/
I0403 13:45:33.889309 12021 layer_factory.hpp:77] Creating layer data
I0403 13:45:33.889924 12021 net.cpp:91] Creating Layer data
I0403 13:45:33.889955 12021 net.cpp:399] data -> data
I0403 13:45:33.890004 12021 net.cpp:399] data -> label
I0403 13:45:33.890039 12021 data_transformer.cpp:25] Loading mean file from: /home/mohanty/data/final_dataset/lmdb/segmented-20-80/mean.binaryproto
I0403 13:45:33.894773 12024 db_lmdb.cpp:38] Opened lmdb /home/mohanty/data/final_dataset/lmdb/segmented-20-80/test_db
I0403 13:45:33.903488 12021 data_layer.cpp:41] output data size: 24,3,224,224
I0403 13:45:33.930804 12021 net.cpp:141] Setting up data
I0403 13:45:33.930893 12021 net.cpp:148] Top shape: 24 3 224 224 (3612672)
I0403 13:45:33.930917 12021 net.cpp:148] Top shape: 24 (24)
I0403 13:45:33.930932 12021 net.cpp:156] Memory required for data: 14450784
I0403 13:45:33.930960 12021 layer_factory.hpp:77] Creating layer label_data_1_split
I0403 13:45:33.930989 12021 net.cpp:91] Creating Layer label_data_1_split
I0403 13:45:33.931007 12021 net.cpp:425] label_data_1_split <- label
I0403 13:45:33.931041 12021 net.cpp:399] label_data_1_split -> label_data_1_split_0
I0403 13:45:33.931069 12021 net.cpp:399] label_data_1_split -> label_data_1_split_1
I0403 13:45:33.931092 12021 net.cpp:399] label_data_1_split -> label_data_1_split_2
I0403 13:45:33.931113 12021 net.cpp:399] label_data_1_split -> label_data_1_split_3
I0403 13:45:33.931133 12021 net.cpp:399] label_data_1_split -> label_data_1_split_4
I0403 13:45:33.931154 12021 net.cpp:399] label_data_1_split -> label_data_1_split_5
I0403 13:45:33.931174 12021 net.cpp:399] label_data_1_split -> label_data_1_split_6
I0403 13:45:33.931195 12021 net.cpp:399] label_data_1_split -> label_data_1_split_7
I0403 13:45:33.931216 12021 net.cpp:399] label_data_1_split -> label_data_1_split_8
I0403 13:45:33.931236 12021 net.cpp:399] label_data_1_split -> label_data_1_split_9
I0403 13:45:33.931356 12021 net.cpp:141] Setting up label_data_1_split
I0403 13:45:33.931380 12021 net.cpp:148] Top shape: 24 (24)
I0403 13:45:33.931407 12021 net.cpp:148] Top shape: 24 (24)
I0403 13:45:33.931423 12021 net.cpp:148] Top shape: 24 (24)
I0403 13:45:33.931438 12021 net.cpp:148] Top shape: 24 (24)
I0403 13:45:33.931454 12021 net.cpp:148] Top shape: 24 (24)
I0403 13:45:33.931470 12021 net.cpp:148] Top shape: 24 (24)
I0403 13:45:33.931486 12021 net.cpp:148] Top shape: 24 (24)
I0403 13:45:33.931504 12021 net.cpp:148] Top shape: 24 (24)
I0403 13:45:33.931519 12021 net.cpp:148] Top shape: 24 (24)
I0403 13:45:33.931540 12021 net.cpp:148] Top shape: 24 (24)
I0403 13:45:33.931591 12021 net.cpp:156] Memory required for data: 14451744
I0403 13:45:33.931607 12021 layer_factory.hpp:77] Creating layer conv1/7x7_s2
I0403 13:45:33.931641 12021 net.cpp:91] Creating Layer conv1/7x7_s2
I0403 13:45:33.931660 12021 net.cpp:425] conv1/7x7_s2 <- data
I0403 13:45:33.931680 12021 net.cpp:399] conv1/7x7_s2 -> conv1/7x7_s2
I0403 13:45:34.074973 12021 net.cpp:141] Setting up conv1/7x7_s2
I0403 13:45:34.075062 12021 net.cpp:148] Top shape: 24 64 112 112 (19267584)
I0403 13:45:34.075078 12021 net.cpp:156] Memory required for data: 91522080
I0403 13:45:34.075108 12021 layer_factory.hpp:77] Creating layer conv1/relu_7x7
I0403 13:45:34.075134 12021 net.cpp:91] Creating Layer conv1/relu_7x7
I0403 13:45:34.075151 12021 net.cpp:425] conv1/relu_7x7 <- conv1/7x7_s2
I0403 13:45:34.075170 12021 net.cpp:386] conv1/relu_7x7 -> conv1/7x7_s2 (in-place)
I0403 13:45:34.075417 12021 net.cpp:141] Setting up conv1/relu_7x7
I0403 13:45:34.075443 12021 net.cpp:148] Top shape: 24 64 112 112 (19267584)
I0403 13:45:34.075459 12021 net.cpp:156] Memory required for data: 168592416
I0403 13:45:34.075474 12021 layer_factory.hpp:77] Creating layer pool1/3x3_s2
I0403 13:45:34.075497 12021 net.cpp:91] Creating Layer pool1/3x3_s2
I0403 13:45:34.075515 12021 net.cpp:425] pool1/3x3_s2 <- conv1/7x7_s2
I0403 13:45:34.075531 12021 net.cpp:399] pool1/3x3_s2 -> pool1/3x3_s2
I0403 13:45:34.075606 12021 net.cpp:141] Setting up pool1/3x3_s2
I0403 13:45:34.075630 12021 net.cpp:148] Top shape: 24 64 56 56 (4816896)
I0403 13:45:34.075644 12021 net.cpp:156] Memory required for data: 187860000
I0403 13:45:34.075659 12021 layer_factory.hpp:77] Creating layer pool1/norm1
I0403 13:45:34.075682 12021 net.cpp:91] Creating Layer pool1/norm1
I0403 13:45:34.075700 12021 net.cpp:425] pool1/norm1 <- pool1/3x3_s2
I0403 13:45:34.075716 12021 net.cpp:399] pool1/norm1 -> pool1/norm1
I0403 13:45:34.075986 12021 net.cpp:141] Setting up pool1/norm1
I0403 13:45:34.076012 12021 net.cpp:148] Top shape: 24 64 56 56 (4816896)
I0403 13:45:34.076027 12021 net.cpp:156] Memory required for data: 207127584
I0403 13:45:34.076042 12021 layer_factory.hpp:77] Creating layer conv2/3x3_reduce
I0403 13:45:34.076066 12021 net.cpp:91] Creating Layer conv2/3x3_reduce
I0403 13:45:34.076081 12021 net.cpp:425] conv2/3x3_reduce <- pool1/norm1
I0403 13:45:34.076099 12021 net.cpp:399] conv2/3x3_reduce -> conv2/3x3_reduce
I0403 13:45:34.077394 12021 net.cpp:141] Setting up conv2/3x3_reduce
I0403 13:45:34.077422 12021 net.cpp:148] Top shape: 24 64 56 56 (4816896)
I0403 13:45:34.077438 12021 net.cpp:156] Memory required for data: 226395168
I0403 13:45:34.077460 12021 layer_factory.hpp:77] Creating layer conv2/relu_3x3_reduce
I0403 13:45:34.077477 12021 net.cpp:91] Creating Layer conv2/relu_3x3_reduce
I0403 13:45:34.077492 12021 net.cpp:425] conv2/relu_3x3_reduce <- conv2/3x3_reduce
I0403 13:45:34.077508 12021 net.cpp:386] conv2/relu_3x3_reduce -> conv2/3x3_reduce (in-place)
I0403 13:45:34.077752 12021 net.cpp:141] Setting up conv2/relu_3x3_reduce
I0403 13:45:34.077777 12021 net.cpp:148] Top shape: 24 64 56 56 (4816896)
I0403 13:45:34.077792 12021 net.cpp:156] Memory required for data: 245662752
I0403 13:45:34.077806 12021 layer_factory.hpp:77] Creating layer conv2/3x3
I0403 13:45:34.077827 12021 net.cpp:91] Creating Layer conv2/3x3
I0403 13:45:34.077842 12021 net.cpp:425] conv2/3x3 <- conv2/3x3_reduce
I0403 13:45:34.077859 12021 net.cpp:399] conv2/3x3 -> conv2/3x3
I0403 13:45:34.080049 12021 net.cpp:141] Setting up conv2/3x3
I0403 13:45:34.080078 12021 net.cpp:148] Top shape: 24 192 56 56 (14450688)
I0403 13:45:34.080095 12021 net.cpp:156] Memory required for data: 303465504
I0403 13:45:34.080127 12021 layer_factory.hpp:77] Creating layer conv2/relu_3x3
I0403 13:45:34.080147 12021 net.cpp:91] Creating Layer conv2/relu_3x3
I0403 13:45:34.080163 12021 net.cpp:425] conv2/relu_3x3 <- conv2/3x3
I0403 13:45:34.080178 12021 net.cpp:386] conv2/relu_3x3 -> conv2/3x3 (in-place)
I0403 13:45:34.080332 12021 net.cpp:141] Setting up conv2/relu_3x3
I0403 13:45:34.080355 12021 net.cpp:148] Top shape: 24 192 56 56 (14450688)
I0403 13:45:34.080406 12021 net.cpp:156] Memory required for data: 361268256
I0403 13:45:34.080422 12021 layer_factory.hpp:77] Creating layer conv2/norm2
I0403 13:45:34.080440 12021 net.cpp:91] Creating Layer conv2/norm2
I0403 13:45:34.080456 12021 net.cpp:425] conv2/norm2 <- conv2/3x3
I0403 13:45:34.080472 12021 net.cpp:399] conv2/norm2 -> conv2/norm2
I0403 13:45:34.080754 12021 net.cpp:141] Setting up conv2/norm2
I0403 13:45:34.080780 12021 net.cpp:148] Top shape: 24 192 56 56 (14450688)
I0403 13:45:34.080795 12021 net.cpp:156] Memory required for data: 419071008
I0403 13:45:34.080809 12021 layer_factory.hpp:77] Creating layer pool2/3x3_s2
I0403 13:45:34.080826 12021 net.cpp:91] Creating Layer pool2/3x3_s2
I0403 13:45:34.080842 12021 net.cpp:425] pool2/3x3_s2 <- conv2/norm2
I0403 13:45:34.080857 12021 net.cpp:399] pool2/3x3_s2 -> pool2/3x3_s2
I0403 13:45:34.080904 12021 net.cpp:141] Setting up pool2/3x3_s2
I0403 13:45:34.080926 12021 net.cpp:148] Top shape: 24 192 28 28 (3612672)
I0403 13:45:34.080940 12021 net.cpp:156] Memory required for data: 433521696
I0403 13:45:34.080955 12021 layer_factory.hpp:77] Creating layer pool2/3x3_s2_pool2/3x3_s2_0_split
I0403 13:45:34.080971 12021 net.cpp:91] Creating Layer pool2/3x3_s2_pool2/3x3_s2_0_split
I0403 13:45:34.080984 12021 net.cpp:425] pool2/3x3_s2_pool2/3x3_s2_0_split <- pool2/3x3_s2
I0403 13:45:34.081001 12021 net.cpp:399] pool2/3x3_s2_pool2/3x3_s2_0_split -> pool2/3x3_s2_pool2/3x3_s2_0_split_0
I0403 13:45:34.081019 12021 net.cpp:399] pool2/3x3_s2_pool2/3x3_s2_0_split -> pool2/3x3_s2_pool2/3x3_s2_0_split_1
I0403 13:45:34.081037 12021 net.cpp:399] pool2/3x3_s2_pool2/3x3_s2_0_split -> pool2/3x3_s2_pool2/3x3_s2_0_split_2
I0403 13:45:34.081056 12021 net.cpp:399] pool2/3x3_s2_pool2/3x3_s2_0_split -> pool2/3x3_s2_pool2/3x3_s2_0_split_3
I0403 13:45:34.081117 12021 net.cpp:141] Setting up pool2/3x3_s2_pool2/3x3_s2_0_split
I0403 13:45:34.081138 12021 net.cpp:148] Top shape: 24 192 28 28 (3612672)
I0403 13:45:34.081153 12021 net.cpp:148] Top shape: 24 192 28 28 (3612672)
I0403 13:45:34.081168 12021 net.cpp:148] Top shape: 24 192 28 28 (3612672)
I0403 13:45:34.081183 12021 net.cpp:148] Top shape: 24 192 28 28 (3612672)
I0403 13:45:34.081197 12021 net.cpp:156] Memory required for data: 491324448
I0403 13:45:34.081210 12021 layer_factory.hpp:77] Creating layer inception_3a/1x1
I0403 13:45:34.081229 12021 net.cpp:91] Creating Layer inception_3a/1x1
I0403 13:45:34.081245 12021 net.cpp:425] inception_3a/1x1 <- pool2/3x3_s2_pool2/3x3_s2_0_split_0
I0403 13:45:34.081264 12021 net.cpp:399] inception_3a/1x1 -> inception_3a/1x1
I0403 13:45:34.082731 12021 net.cpp:141] Setting up inception_3a/1x1
I0403 13:45:34.082759 12021 net.cpp:148] Top shape: 24 64 28 28 (1204224)
I0403 13:45:34.082775 12021 net.cpp:156] Memory required for data: 496141344
I0403 13:45:34.082793 12021 layer_factory.hpp:77] Creating layer inception_3a/relu_1x1
I0403 13:45:34.082810 12021 net.cpp:91] Creating Layer inception_3a/relu_1x1
I0403 13:45:34.082826 12021 net.cpp:425] inception_3a/relu_1x1 <- inception_3a/1x1
I0403 13:45:34.082844 12021 net.cpp:386] inception_3a/relu_1x1 -> inception_3a/1x1 (in-place)
I0403 13:45:34.083009 12021 net.cpp:141] Setting up inception_3a/relu_1x1
I0403 13:45:34.083032 12021 net.cpp:148] Top shape: 24 64 28 28 (1204224)
I0403 13:45:34.083047 12021 net.cpp:156] Memory required for data: 500958240
I0403 13:45:34.083061 12021 layer_factory.hpp:77] Creating layer inception_3a/3x3_reduce
I0403 13:45:34.083082 12021 net.cpp:91] Creating Layer inception_3a/3x3_reduce
I0403 13:45:34.083098 12021 net.cpp:425] inception_3a/3x3_reduce <- pool2/3x3_s2_pool2/3x3_s2_0_split_1
I0403 13:45:34.083118 12021 net.cpp:399] inception_3a/3x3_reduce -> inception_3a/3x3_reduce
I0403 13:45:34.084781 12021 net.cpp:141] Setting up inception_3a/3x3_reduce
I0403 13:45:34.084810 12021 net.cpp:148] Top shape: 24 96 28 28 (1806336)
I0403 13:45:34.084825 12021 net.cpp:156] Memory required for data: 508183584
I0403 13:45:34.084846 12021 layer_factory.hpp:77] Creating layer inception_3a/relu_3x3_reduce
I0403 13:45:34.084882 12021 net.cpp:91] Creating Layer inception_3a/relu_3x3_reduce
I0403 13:45:34.084900 12021 net.cpp:425] inception_3a/relu_3x3_reduce <- inception_3a/3x3_reduce
I0403 13:45:34.084916 12021 net.cpp:386] inception_3a/relu_3x3_reduce -> inception_3a/3x3_reduce (in-place)
I0403 13:45:34.085106 12021 net.cpp:141] Setting up inception_3a/relu_3x3_reduce
I0403 13:45:34.085134 12021 net.cpp:148] Top shape: 24 96 28 28 (1806336)
I0403 13:45:34.085150 12021 net.cpp:156] Memory required for data: 515408928
I0403 13:45:34.085165 12021 layer_factory.hpp:77] Creating layer inception_3a/3x3
I0403 13:45:34.085186 12021 net.cpp:91] Creating Layer inception_3a/3x3
I0403 13:45:34.085203 12021 net.cpp:425] inception_3a/3x3 <- inception_3a/3x3_reduce
I0403 13:45:34.085222 12021 net.cpp:399] inception_3a/3x3 -> inception_3a/3x3
I0403 13:45:34.086843 12021 net.cpp:141] Setting up inception_3a/3x3
I0403 13:45:34.086870 12021 net.cpp:148] Top shape: 24 128 28 28 (2408448)
I0403 13:45:34.086885 12021 net.cpp:156] Memory required for data: 525042720
I0403 13:45:34.086904 12021 layer_factory.hpp:77] Creating layer inception_3a/relu_3x3
I0403 13:45:34.086925 12021 net.cpp:91] Creating Layer inception_3a/relu_3x3
I0403 13:45:34.086942 12021 net.cpp:425] inception_3a/relu_3x3 <- inception_3a/3x3
I0403 13:45:34.086959 12021 net.cpp:386] inception_3a/relu_3x3 -> inception_3a/3x3 (in-place)
I0403 13:45:34.087234 12021 net.cpp:141] Setting up inception_3a/relu_3x3
I0403 13:45:34.087260 12021 net.cpp:148] Top shape: 24 128 28 28 (2408448)
I0403 13:45:34.087275 12021 net.cpp:156] Memory required for data: 534676512
I0403 13:45:34.087290 12021 layer_factory.hpp:77] Creating layer inception_3a/5x5_reduce
I0403 13:45:34.087311 12021 net.cpp:91] Creating Layer inception_3a/5x5_reduce
I0403 13:45:34.087327 12021 net.cpp:425] inception_3a/5x5_reduce <- pool2/3x3_s2_pool2/3x3_s2_0_split_2
I0403 13:45:34.087347 12021 net.cpp:399] inception_3a/5x5_reduce -> inception_3a/5x5_reduce
I0403 13:45:34.088277 12021 net.cpp:141] Setting up inception_3a/5x5_reduce
I0403 13:45:34.088317 12021 net.cpp:148] Top shape: 24 16 28 28 (301056)
I0403 13:45:34.088332 12021 net.cpp:156] Memory required for data: 535880736
I0403 13:45:34.088351 12021 layer_factory.hpp:77] Creating layer inception_3a/relu_5x5_reduce
I0403 13:45:34.088372 12021 net.cpp:91] Creating Layer inception_3a/relu_5x5_reduce
I0403 13:45:34.088389 12021 net.cpp:425] inception_3a/relu_5x5_reduce <- inception_3a/5x5_reduce
I0403 13:45:34.088407 12021 net.cpp:386] inception_3a/relu_5x5_reduce -> inception_3a/5x5_reduce (in-place)
I0403 13:45:34.088733 12021 net.cpp:141] Setting up inception_3a/relu_5x5_reduce
I0403 13:45:34.088758 12021 net.cpp:148] Top shape: 24 16 28 28 (301056)
I0403 13:45:34.088773 12021 net.cpp:156] Memory required for data: 537084960
I0403 13:45:34.088788 12021 layer_factory.hpp:77] Creating layer inception_3a/5x5
I0403 13:45:34.088811 12021 net.cpp:91] Creating Layer inception_3a/5x5
I0403 13:45:34.088827 12021 net.cpp:425] inception_3a/5x5 <- inception_3a/5x5_reduce
I0403 13:45:34.088846 12021 net.cpp:399] inception_3a/5x5 -> inception_3a/5x5
I0403 13:45:34.089812 12021 net.cpp:141] Setting up inception_3a/5x5
I0403 13:45:34.089838 12021 net.cpp:148] Top shape: 24 32 28 28 (602112)
I0403 13:45:34.089853 12021 net.cpp:156] Memory required for data: 539493408
I0403 13:45:34.089870 12021 layer_factory.hpp:77] Creating layer inception_3a/relu_5x5
I0403 13:45:34.089887 12021 net.cpp:91] Creating Layer inception_3a/relu_5x5
I0403 13:45:34.089903 12021 net.cpp:425] inception_3a/relu_5x5 <- inception_3a/5x5
I0403 13:45:34.089922 12021 net.cpp:386] inception_3a/relu_5x5 -> inception_3a/5x5 (in-place)
I0403 13:45:34.090085 12021 net.cpp:141] Setting up inception_3a/relu_5x5
I0403 13:45:34.090109 12021 net.cpp:148] Top shape: 24 32 28 28 (602112)
I0403 13:45:34.090123 12021 net.cpp:156] Memory required for data: 541901856
I0403 13:45:34.090137 12021 layer_factory.hpp:77] Creating layer inception_3a/pool
I0403 13:45:34.090155 12021 net.cpp:91] Creating Layer inception_3a/pool
I0403 13:45:34.090185 12021 net.cpp:425] inception_3a/pool <- pool2/3x3_s2_pool2/3x3_s2_0_split_3
I0403 13:45:34.090204 12021 net.cpp:399] inception_3a/pool -> inception_3a/pool
I0403 13:45:34.090260 12021 net.cpp:141] Setting up inception_3a/pool
I0403 13:45:34.090281 12021 net.cpp:148] Top shape: 24 192 28 28 (3612672)
I0403 13:45:34.090296 12021 net.cpp:156] Memory required for data: 556352544
I0403 13:45:34.090311 12021 layer_factory.hpp:77] Creating layer inception_3a/pool_proj
I0403 13:45:34.090332 12021 net.cpp:91] Creating Layer inception_3a/pool_proj
I0403 13:45:34.090348 12021 net.cpp:425] inception_3a/pool_proj <- inception_3a/pool
I0403 13:45:34.090368 12021 net.cpp:399] inception_3a/pool_proj -> inception_3a/pool_proj
I0403 13:45:34.091290 12021 net.cpp:141] Setting up inception_3a/pool_proj
I0403 13:45:34.091320 12021 net.cpp:148] Top shape: 24 32 28 28 (602112)
I0403 13:45:34.091334 12021 net.cpp:156] Memory required for data: 558760992
I0403 13:45:34.091356 12021 layer_factory.hpp:77] Creating layer inception_3a/relu_pool_proj
I0403 13:45:34.091377 12021 net.cpp:91] Creating Layer inception_3a/relu_pool_proj
I0403 13:45:34.091393 12021 net.cpp:425] inception_3a/relu_pool_proj <- inception_3a/pool_proj
I0403 13:45:34.091409 12021 net.cpp:386] inception_3a/relu_pool_proj -> inception_3a/pool_proj (in-place)
I0403 13:45:34.091680 12021 net.cpp:141] Setting up inception_3a/relu_pool_proj
I0403 13:45:34.091704 12021 net.cpp:148] Top shape: 24 32 28 28 (602112)
I0403 13:45:34.091719 12021 net.cpp:156] Memory required for data: 561169440
I0403 13:45:34.091733 12021 layer_factory.hpp:77] Creating layer inception_3a/output
I0403 13:45:34.091752 12021 net.cpp:91] Creating Layer inception_3a/output
I0403 13:45:34.091765 12021 net.cpp:425] inception_3a/output <- inception_3a/1x1
I0403 13:45:34.091784 12021 net.cpp:425] inception_3a/output <- inception_3a/3x3
I0403 13:45:34.091799 12021 net.cpp:425] inception_3a/output <- inception_3a/5x5
I0403 13:45:34.091814 12021 net.cpp:425] inception_3a/output <- inception_3a/pool_proj
I0403 13:45:34.091832 12021 net.cpp:399] inception_3a/output -> inception_3a/output
I0403 13:45:34.091879 12021 net.cpp:141] Setting up inception_3a/output
I0403 13:45:34.091902 12021 net.cpp:148] Top shape: 24 256 28 28 (4816896)
I0403 13:45:34.091915 12021 net.cpp:156] Memory required for data: 580437024
I0403 13:45:34.091929 12021 layer_factory.hpp:77] Creating layer inception_3a/output_inception_3a/output_0_split
I0403 13:45:34.091946 12021 net.cpp:91] Creating Layer inception_3a/output_inception_3a/output_0_split
I0403 13:45:34.091960 12021 net.cpp:425] inception_3a/output_inception_3a/output_0_split <- inception_3a/output
I0403 13:45:34.091979 12021 net.cpp:399] inception_3a/output_inception_3a/output_0_split -> inception_3a/output_inception_3a/output_0_split_0
I0403 13:45:34.091998 12021 net.cpp:399] inception_3a/output_inception_3a/output_0_split -> inception_3a/output_inception_3a/output_0_split_1
I0403 13:45:34.092020 12021 net.cpp:399] inception_3a/output_inception_3a/output_0_split -> inception_3a/output_inception_3a/output_0_split_2
I0403 13:45:34.092039 12021 net.cpp:399] inception_3a/output_inception_3a/output_0_split -> inception_3a/output_inception_3a/output_0_split_3
I0403 13:45:34.092113 12021 net.cpp:141] Setting up inception_3a/output_inception_3a/output_0_split
I0403 13:45:34.092134 12021 net.cpp:148] Top shape: 24 256 28 28 (4816896)
I0403 13:45:34.092150 12021 net.cpp:148] Top shape: 24 256 28 28 (4816896)
I0403 13:45:34.092165 12021 net.cpp:148] Top shape: 24 256 28 28 (4816896)
I0403 13:45:34.092180 12021 net.cpp:148] Top shape: 24 256 28 28 (4816896)
I0403 13:45:34.092192 12021 net.cpp:156] Memory required for data: 657507360
I0403 13:45:34.092206 12021 layer_factory.hpp:77] Creating layer inception_3b/1x1
I0403 13:45:34.092227 12021 net.cpp:91] Creating Layer inception_3b/1x1
I0403 13:45:34.092252 12021 net.cpp:425] inception_3b/1x1 <- inception_3a/output_inception_3a/output_0_split_0
I0403 13:45:34.092273 12021 net.cpp:399] inception_3b/1x1 -> inception_3b/1x1
I0403 13:45:34.093432 12021 net.cpp:141] Setting up inception_3b/1x1
I0403 13:45:34.093480 12021 net.cpp:148] Top shape: 24 128 28 28 (2408448)
I0403 13:45:34.093497 12021 net.cpp:156] Memory required for data: 667141152
I0403 13:45:34.093515 12021 layer_factory.hpp:77] Creating layer inception_3b/relu_1x1
I0403 13:45:34.093534 12021 net.cpp:91] Creating Layer inception_3b/relu_1x1
I0403 13:45:34.093554 12021 net.cpp:425] inception_3b/relu_1x1 <- inception_3b/1x1
I0403 13:45:34.093576 12021 net.cpp:386] inception_3b/relu_1x1 -> inception_3b/1x1 (in-place)
I0403 13:45:34.093746 12021 net.cpp:141] Setting up inception_3b/relu_1x1
I0403 13:45:34.093771 12021 net.cpp:148] Top shape: 24 128 28 28 (2408448)
I0403 13:45:34.093786 12021 net.cpp:156] Memory required for data: 676774944
I0403 13:45:34.093801 12021 layer_factory.hpp:77] Creating layer inception_3b/3x3_reduce
I0403 13:45:34.093822 12021 net.cpp:91] Creating Layer inception_3b/3x3_reduce
I0403 13:45:34.093839 12021 net.cpp:425] inception_3b/3x3_reduce <- inception_3a/output_inception_3a/output_0_split_1
I0403 13:45:34.093859 12021 net.cpp:399] inception_3b/3x3_reduce -> inception_3b/3x3_reduce
I0403 13:45:34.095028 12021 net.cpp:141] Setting up inception_3b/3x3_reduce
I0403 13:45:34.095057 12021 net.cpp:148] Top shape: 24 128 28 28 (2408448)
I0403 13:45:34.095073 12021 net.cpp:156] Memory required for data: 686408736
I0403 13:45:34.095093 12021 layer_factory.hpp:77] Creating layer inception_3b/relu_3x3_reduce
I0403 13:45:34.095113 12021 net.cpp:91] Creating Layer inception_3b/relu_3x3_reduce
I0403 13:45:34.095129 12021 net.cpp:425] inception_3b/relu_3x3_reduce <- inception_3b/3x3_reduce
I0403 13:45:34.095149 12021 net.cpp:386] inception_3b/relu_3x3_reduce -> inception_3b/3x3_reduce (in-place)
I0403 13:45:34.095324 12021 net.cpp:141] Setting up inception_3b/relu_3x3_reduce
I0403 13:45:34.095350 12021 net.cpp:148] Top shape: 24 128 28 28 (2408448)
I0403 13:45:34.095366 12021 net.cpp:156] Memory required for data: 696042528
I0403 13:45:34.095381 12021 layer_factory.hpp:77] Creating layer inception_3b/3x3
I0403 13:45:34.095407 12021 net.cpp:91] Creating Layer inception_3b/3x3
I0403 13:45:34.095425 12021 net.cpp:425] inception_3b/3x3 <- inception_3b/3x3_reduce
I0403 13:45:34.095444 12021 net.cpp:399] inception_3b/3x3 -> inception_3b/3x3
I0403 13:45:34.098415 12021 net.cpp:141] Setting up inception_3b/3x3
I0403 13:45:34.098445 12021 net.cpp:148] Top shape: 24 192 28 28 (3612672)
I0403 13:45:34.098462 12021 net.cpp:156] Memory required for data: 710493216
I0403 13:45:34.098481 12021 layer_factory.hpp:77] Creating layer inception_3b/relu_3x3
I0403 13:45:34.098502 12021 net.cpp:91] Creating Layer inception_3b/relu_3x3
I0403 13:45:34.098520 12021 net.cpp:425] inception_3b/relu_3x3 <- inception_3b/3x3
I0403 13:45:34.098542 12021 net.cpp:386] inception_3b/relu_3x3 -> inception_3b/3x3 (in-place)
I0403 13:45:34.098824 12021 net.cpp:141] Setting up inception_3b/relu_3x3
I0403 13:45:34.098850 12021 net.cpp:148] Top shape: 24 192 28 28 (3612672)
I0403 13:45:34.098866 12021 net.cpp:156] Memory required for data: 724943904
I0403 13:45:34.098882 12021 layer_factory.hpp:77] Creating layer inception_3b/5x5_reduce
I0403 13:45:34.098906 12021 net.cpp:91] Creating Layer inception_3b/5x5_reduce
I0403 13:45:34.098923 12021 net.cpp:425] inception_3b/5x5_reduce <- inception_3a/output_inception_3a/output_0_split_2
I0403 13:45:34.098944 12021 net.cpp:399] inception_3b/5x5_reduce -> inception_3b/5x5_reduce
I0403 13:45:34.099953 12021 net.cpp:141] Setting up inception_3b/5x5_reduce
I0403 13:45:34.099982 12021 net.cpp:148] Top shape: 24 32 28 28 (602112)
I0403 13:45:34.099997 12021 net.cpp:156] Memory required for data: 727352352
I0403 13:45:34.100016 12021 layer_factory.hpp:77] Creating layer inception_3b/relu_5x5_reduce
I0403 13:45:34.100038 12021 net.cpp:91] Creating Layer inception_3b/relu_5x5_reduce
I0403 13:45:34.100054 12021 net.cpp:425] inception_3b/relu_5x5_reduce <- inception_3b/5x5_reduce
I0403 13:45:34.100072 12021 net.cpp:386] inception_3b/relu_5x5_reduce -> inception_3b/5x5_reduce (in-place)
I0403 13:45:34.100265 12021 net.cpp:141] Setting up inception_3b/relu_5x5_reduce
I0403 13:45:34.100291 12021 net.cpp:148] Top shape: 24 32 28 28 (602112)
I0403 13:45:34.100308 12021 net.cpp:156] Memory required for data: 729760800
I0403 13:45:34.100324 12021 layer_factory.hpp:77] Creating layer inception_3b/5x5
I0403 13:45:34.100344 12021 net.cpp:91] Creating Layer inception_3b/5x5
I0403 13:45:34.100361 12021 net.cpp:425] inception_3b/5x5 <- inception_3b/5x5_reduce
I0403 13:45:34.100381 12021 net.cpp:399] inception_3b/5x5 -> inception_3b/5x5
I0403 13:45:34.102385 12021 net.cpp:141] Setting up inception_3b/5x5
I0403 13:45:34.102416 12021 net.cpp:148] Top shape: 24 96 28 28 (1806336)
I0403 13:45:34.102432 12021 net.cpp:156] Memory required for data: 736986144
I0403 13:45:34.102452 12021 layer_factory.hpp:77] Creating layer inception_3b/relu_5x5
I0403 13:45:34.102469 12021 net.cpp:91] Creating Layer inception_3b/relu_5x5
I0403 13:45:34.102484 12021 net.cpp:425] inception_3b/relu_5x5 <- inception_3b/5x5
I0403 13:45:34.102505 12021 net.cpp:386] inception_3b/relu_5x5 -> inception_3b/5x5 (in-place)
I0403 13:45:34.102705 12021 net.cpp:141] Setting up inception_3b/relu_5x5
I0403 13:45:34.102730 12021 net.cpp:148] Top shape: 24 96 28 28 (1806336)
I0403 13:45:34.102746 12021 net.cpp:156] Memory required for data: 744211488
I0403 13:45:34.102761 12021 layer_factory.hpp:77] Creating layer inception_3b/pool
I0403 13:45:34.102778 12021 net.cpp:91] Creating Layer inception_3b/pool
I0403 13:45:34.102795 12021 net.cpp:425] inception_3b/pool <- inception_3a/output_inception_3a/output_0_split_3
I0403 13:45:34.102815 12021 net.cpp:399] inception_3b/pool -> inception_3b/pool
I0403 13:45:34.102874 12021 net.cpp:141] Setting up inception_3b/pool
I0403 13:45:34.102898 12021 net.cpp:148] Top shape: 24 256 28 28 (4816896)
I0403 13:45:34.102913 12021 net.cpp:156] Memory required for data: 763479072
I0403 13:45:34.102927 12021 layer_factory.hpp:77] Creating layer inception_3b/pool_proj
I0403 13:45:34.102951 12021 net.cpp:91] Creating Layer inception_3b/pool_proj
I0403 13:45:34.102967 12021 net.cpp:425] inception_3b/pool_proj <- inception_3b/pool
I0403 13:45:34.102988 12021 net.cpp:399] inception_3b/pool_proj -> inception_3b/pool_proj
I0403 13:45:34.104058 12021 net.cpp:141] Setting up inception_3b/pool_proj
I0403 13:45:34.104089 12021 net.cpp:148] Top shape: 24 64 28 28 (1204224)
I0403 13:45:34.104105 12021 net.cpp:156] Memory required for data: 768295968
I0403 13:45:34.104125 12021 layer_factory.hpp:77] Creating layer inception_3b/relu_pool_proj
I0403 13:45:34.104143 12021 net.cpp:91] Creating Layer inception_3b/relu_pool_proj
I0403 13:45:34.104161 12021 net.cpp:425] inception_3b/relu_pool_proj <- inception_3b/pool_proj
I0403 13:45:34.104177 12021 net.cpp:386] inception_3b/relu_pool_proj -> inception_3b/pool_proj (in-place)
I0403 13:45:34.104590 12021 net.cpp:141] Setting up inception_3b/relu_pool_proj
I0403 13:45:34.104619 12021 net.cpp:148] Top shape: 24 64 28 28 (1204224)
I0403 13:45:34.104635 12021 net.cpp:156] Memory required for data: 773112864
I0403 13:45:34.104650 12021 layer_factory.hpp:77] Creating layer inception_3b/output
I0403 13:45:34.104670 12021 net.cpp:91] Creating Layer inception_3b/output
I0403 13:45:34.104686 12021 net.cpp:425] inception_3b/output <- inception_3b/1x1
I0403 13:45:34.104703 12021 net.cpp:425] inception_3b/output <- inception_3b/3x3
I0403 13:45:34.104720 12021 net.cpp:425] inception_3b/output <- inception_3b/5x5
I0403 13:45:34.104737 12021 net.cpp:425] inception_3b/output <- inception_3b/pool_proj
I0403 13:45:34.104754 12021 net.cpp:399] inception_3b/output -> inception_3b/output
I0403 13:45:34.104800 12021 net.cpp:141] Setting up inception_3b/output
I0403 13:45:34.104823 12021 net.cpp:148] Top shape: 24 480 28 28 (9031680)
I0403 13:45:34.104838 12021 net.cpp:156] Memory required for data: 809239584
I0403 13:45:34.104853 12021 layer_factory.hpp:77] Creating layer pool3/3x3_s2
I0403 13:45:34.104871 12021 net.cpp:91] Creating Layer pool3/3x3_s2
I0403 13:45:34.104887 12021 net.cpp:425] pool3/3x3_s2 <- inception_3b/output
I0403 13:45:34.104921 12021 net.cpp:399] pool3/3x3_s2 -> pool3/3x3_s2
I0403 13:45:34.104981 12021 net.cpp:141] Setting up pool3/3x3_s2
I0403 13:45:34.105005 12021 net.cpp:148] Top shape: 24 480 14 14 (2257920)
I0403 13:45:34.105020 12021 net.cpp:156] Memory required for data: 818271264
I0403 13:45:34.105034 12021 layer_factory.hpp:77] Creating layer pool3/3x3_s2_pool3/3x3_s2_0_split
I0403 13:45:34.105054 12021 net.cpp:91] Creating Layer pool3/3x3_s2_pool3/3x3_s2_0_split
I0403 13:45:34.105070 12021 net.cpp:425] pool3/3x3_s2_pool3/3x3_s2_0_split <- pool3/3x3_s2
I0403 13:45:34.105090 12021 net.cpp:399] pool3/3x3_s2_pool3/3x3_s2_0_split -> pool3/3x3_s2_pool3/3x3_s2_0_split_0
I0403 13:45:34.105111 12021 net.cpp:399] pool3/3x3_s2_pool3/3x3_s2_0_split -> pool3/3x3_s2_pool3/3x3_s2_0_split_1
I0403 13:45:34.105130 12021 net.cpp:399] pool3/3x3_s2_pool3/3x3_s2_0_split -> pool3/3x3_s2_pool3/3x3_s2_0_split_2
I0403 13:45:34.105150 12021 net.cpp:399] pool3/3x3_s2_pool3/3x3_s2_0_split -> pool3/3x3_s2_pool3/3x3_s2_0_split_3
I0403 13:45:34.105226 12021 net.cpp:141] Setting up pool3/3x3_s2_pool3/3x3_s2_0_split
I0403 13:45:34.105253 12021 net.cpp:148] Top shape: 24 480 14 14 (2257920)
I0403 13:45:34.105271 12021 net.cpp:148] Top shape: 24 480 14 14 (2257920)
I0403 13:45:34.105288 12021 net.cpp:148] Top shape: 24 480 14 14 (2257920)
I0403 13:45:34.105303 12021 net.cpp:148] Top shape: 24 480 14 14 (2257920)
I0403 13:45:34.105316 12021 net.cpp:156] Memory required for data: 854397984
I0403 13:45:34.105330 12021 layer_factory.hpp:77] Creating layer inception_4a/1x1
I0403 13:45:34.105350 12021 net.cpp:91] Creating Layer inception_4a/1x1
I0403 13:45:34.105367 12021 net.cpp:425] inception_4a/1x1 <- pool3/3x3_s2_pool3/3x3_s2_0_split_0
I0403 13:45:34.105388 12021 net.cpp:399] inception_4a/1x1 -> inception_4a/1x1
I0403 13:45:34.106995 12021 net.cpp:141] Setting up inception_4a/1x1
I0403 13:45:34.107026 12021 net.cpp:148] Top shape: 24 192 14 14 (903168)
I0403 13:45:34.107044 12021 net.cpp:156] Memory required for data: 858010656
I0403 13:45:34.107062 12021 layer_factory.hpp:77] Creating layer inception_4a/relu_1x1
I0403 13:45:34.107081 12021 net.cpp:91] Creating Layer inception_4a/relu_1x1
I0403 13:45:34.107097 12021 net.cpp:425] inception_4a/relu_1x1 <- inception_4a/1x1
I0403 13:45:34.107115 12021 net.cpp:386] inception_4a/relu_1x1 -> inception_4a/1x1 (in-place)
I0403 13:45:34.107293 12021 net.cpp:141] Setting up inception_4a/relu_1x1
I0403 13:45:34.107318 12021 net.cpp:148] Top shape: 24 192 14 14 (903168)
I0403 13:45:34.107333 12021 net.cpp:156] Memory required for data: 861623328
I0403 13:45:34.107348 12021 layer_factory.hpp:77] Creating layer inception_4a/3x3_reduce
I0403 13:45:34.107370 12021 net.cpp:91] Creating Layer inception_4a/3x3_reduce
I0403 13:45:34.107388 12021 net.cpp:425] inception_4a/3x3_reduce <- pool3/3x3_s2_pool3/3x3_s2_0_split_1
I0403 13:45:34.107409 12021 net.cpp:399] inception_4a/3x3_reduce -> inception_4a/3x3_reduce
I0403 13:45:34.108716 12021 net.cpp:141] Setting up inception_4a/3x3_reduce
I0403 13:45:34.108747 12021 net.cpp:148] Top shape: 24 96 14 14 (451584)
I0403 13:45:34.108764 12021 net.cpp:156] Memory required for data: 863429664
I0403 13:45:34.108790 12021 layer_factory.hpp:77] Creating layer inception_4a/relu_3x3_reduce
I0403 13:45:34.108810 12021 net.cpp:91] Creating Layer inception_4a/relu_3x3_reduce
I0403 13:45:34.108826 12021 net.cpp:425] inception_4a/relu_3x3_reduce <- inception_4a/3x3_reduce
I0403 13:45:34.108844 12021 net.cpp:386] inception_4a/relu_3x3_reduce -> inception_4a/3x3_reduce (in-place)
I0403 13:45:34.109021 12021 net.cpp:141] Setting up inception_4a/relu_3x3_reduce
I0403 13:45:34.109048 12021 net.cpp:148] Top shape: 24 96 14 14 (451584)
I0403 13:45:34.109064 12021 net.cpp:156] Memory required for data: 865236000
I0403 13:45:34.109079 12021 layer_factory.hpp:77] Creating layer inception_4a/3x3
I0403 13:45:34.109102 12021 net.cpp:91] Creating Layer inception_4a/3x3
I0403 13:45:34.109119 12021 net.cpp:425] inception_4a/3x3 <- inception_4a/3x3_reduce
I0403 13:45:34.109139 12021 net.cpp:399] inception_4a/3x3 -> inception_4a/3x3
I0403 13:45:34.111920 12021 net.cpp:141] Setting up inception_4a/3x3
I0403 13:45:34.111948 12021 net.cpp:148] Top shape: 24 208 14 14 (978432)
I0403 13:45:34.111963 12021 net.cpp:156] Memory required for data: 869149728
I0403 13:45:34.111982 12021 layer_factory.hpp:77] Creating layer inception_4a/relu_3x3
I0403 13:45:34.112000 12021 net.cpp:91] Creating Layer inception_4a/relu_3x3
I0403 13:45:34.112015 12021 net.cpp:425] inception_4a/relu_3x3 <- inception_4a/3x3
I0403 13:45:34.112035 12021 net.cpp:386] inception_4a/relu_3x3 -> inception_4a/3x3 (in-place)
I0403 13:45:34.112316 12021 net.cpp:141] Setting up inception_4a/relu_3x3
I0403 13:45:34.112342 12021 net.cpp:148] Top shape: 24 208 14 14 (978432)
I0403 13:45:34.112357 12021 net.cpp:156] Memory required for data: 873063456
I0403 13:45:34.112372 12021 layer_factory.hpp:77] Creating layer inception_4a/5x5_reduce
I0403 13:45:34.112395 12021 net.cpp:91] Creating Layer inception_4a/5x5_reduce
I0403 13:45:34.112412 12021 net.cpp:425] inception_4a/5x5_reduce <- pool3/3x3_s2_pool3/3x3_s2_0_split_2
I0403 13:45:34.112434 12021 net.cpp:399] inception_4a/5x5_reduce -> inception_4a/5x5_reduce
I0403 13:45:34.113454 12021 net.cpp:141] Setting up inception_4a/5x5_reduce
I0403 13:45:34.113482 12021 net.cpp:148] Top shape: 24 16 14 14 (75264)
I0403 13:45:34.113497 12021 net.cpp:156] Memory required for data: 873364512
I0403 13:45:34.113515 12021 layer_factory.hpp:77] Creating layer inception_4a/relu_5x5_reduce
I0403 13:45:34.113533 12021 net.cpp:91] Creating Layer inception_4a/relu_5x5_reduce
I0403 13:45:34.113554 12021 net.cpp:425] inception_4a/relu_5x5_reduce <- inception_4a/5x5_reduce
I0403 13:45:34.113574 12021 net.cpp:386] inception_4a/relu_5x5_reduce -> inception_4a/5x5_reduce (in-place)
I0403 13:45:34.113749 12021 net.cpp:141] Setting up inception_4a/relu_5x5_reduce
I0403 13:45:34.113775 12021 net.cpp:148] Top shape: 24 16 14 14 (75264)
I0403 13:45:34.113790 12021 net.cpp:156] Memory required for data: 873665568
I0403 13:45:34.113803 12021 layer_factory.hpp:77] Creating layer inception_4a/5x5
I0403 13:45:34.113827 12021 net.cpp:91] Creating Layer inception_4a/5x5
I0403 13:45:34.113844 12021 net.cpp:425] inception_4a/5x5 <- inception_4a/5x5_reduce
I0403 13:45:34.113865 12021 net.cpp:399] inception_4a/5x5 -> inception_4a/5x5
I0403 13:45:34.114956 12021 net.cpp:141] Setting up inception_4a/5x5
I0403 13:45:34.114984 12021 net.cpp:148] Top shape: 24 48 14 14 (225792)
I0403 13:45:34.115000 12021 net.cpp:156] Memory required for data: 874568736
I0403 13:45:34.115018 12021 layer_factory.hpp:77] Creating layer inception_4a/relu_5x5
I0403 13:45:34.115038 12021 net.cpp:91] Creating Layer inception_4a/relu_5x5
I0403 13:45:34.115056 12021 net.cpp:425] inception_4a/relu_5x5 <- inception_4a/5x5
I0403 13:45:34.115072 12021 net.cpp:386] inception_4a/relu_5x5 -> inception_4a/5x5 (in-place)
I0403 13:45:34.115247 12021 net.cpp:141] Setting up inception_4a/relu_5x5
I0403 13:45:34.115274 12021 net.cpp:148] Top shape: 24 48 14 14 (225792)
I0403 13:45:34.115289 12021 net.cpp:156] Memory required for data: 875471904
I0403 13:45:34.115304 12021 layer_factory.hpp:77] Creating layer inception_4a/pool
I0403 13:45:34.115321 12021 net.cpp:91] Creating Layer inception_4a/pool
I0403 13:45:34.115337 12021 net.cpp:425] inception_4a/pool <- pool3/3x3_s2_pool3/3x3_s2_0_split_3
I0403 13:45:34.115357 12021 net.cpp:399] inception_4a/pool -> inception_4a/pool
I0403 13:45:34.115419 12021 net.cpp:141] Setting up inception_4a/pool
I0403 13:45:34.115442 12021 net.cpp:148] Top shape: 24 480 14 14 (2257920)
I0403 13:45:34.115456 12021 net.cpp:156] Memory required for data: 884503584
I0403 13:45:34.115470 12021 layer_factory.hpp:77] Creating layer inception_4a/pool_proj
I0403 13:45:34.115492 12021 net.cpp:91] Creating Layer inception_4a/pool_proj
I0403 13:45:34.115510 12021 net.cpp:425] inception_4a/pool_proj <- inception_4a/pool
I0403 13:45:34.115528 12021 net.cpp:399] inception_4a/pool_proj -> inception_4a/pool_proj
I0403 13:45:34.116689 12021 net.cpp:141] Setting up inception_4a/pool_proj
I0403 13:45:34.116720 12021 net.cpp:148] Top shape: 24 64 14 14 (301056)
I0403 13:45:34.116752 12021 net.cpp:156] Memory required for data: 885707808
I0403 13:45:34.116771 12021 layer_factory.hpp:77] Creating layer inception_4a/relu_pool_proj
I0403 13:45:34.116789 12021 net.cpp:91] Creating Layer inception_4a/relu_pool_proj
I0403 13:45:34.116804 12021 net.cpp:425] inception_4a/relu_pool_proj <- inception_4a/pool_proj
I0403 13:45:34.116824 12021 net.cpp:386] inception_4a/relu_pool_proj -> inception_4a/pool_proj (in-place)
I0403 13:45:34.117100 12021 net.cpp:141] Setting up inception_4a/relu_pool_proj
I0403 13:45:34.117131 12021 net.cpp:148] Top shape: 24 64 14 14 (301056)
I0403 13:45:34.117147 12021 net.cpp:156] Memory required for data: 886912032
I0403 13:45:34.117162 12021 layer_factory.hpp:77] Creating layer inception_4a/output
I0403 13:45:34.117179 12021 net.cpp:91] Creating Layer inception_4a/output
I0403 13:45:34.117194 12021 net.cpp:425] inception_4a/output <- inception_4a/1x1
I0403 13:45:34.117210 12021 net.cpp:425] inception_4a/output <- inception_4a/3x3
I0403 13:45:34.117226 12021 net.cpp:425] inception_4a/output <- inception_4a/5x5
I0403 13:45:34.117241 12021 net.cpp:425] inception_4a/output <- inception_4a/pool_proj
I0403 13:45:34.117257 12021 net.cpp:399] inception_4a/output -> inception_4a/output
I0403 13:45:34.117303 12021 net.cpp:141] Setting up inception_4a/output
I0403 13:45:34.117326 12021 net.cpp:148] Top shape: 24 512 14 14 (2408448)
I0403 13:45:34.117341 12021 net.cpp:156] Memory required for data: 896545824
I0403 13:45:34.117355 12021 layer_factory.hpp:77] Creating layer inception_4a/output_inception_4a/output_0_split
I0403 13:45:34.117372 12021 net.cpp:91] Creating Layer inception_4a/output_inception_4a/output_0_split
I0403 13:45:34.117388 12021 net.cpp:425] inception_4a/output_inception_4a/output_0_split <- inception_4a/output
I0403 13:45:34.117408 12021 net.cpp:399] inception_4a/output_inception_4a/output_0_split -> inception_4a/output_inception_4a/output_0_split_0
I0403 13:45:34.117429 12021 net.cpp:399] inception_4a/output_inception_4a/output_0_split -> inception_4a/output_inception_4a/output_0_split_1
I0403 13:45:34.117449 12021 net.cpp:399] inception_4a/output_inception_4a/output_0_split -> inception_4a/output_inception_4a/output_0_split_2
I0403 13:45:34.117472 12021 net.cpp:399] inception_4a/output_inception_4a/output_0_split -> inception_4a/output_inception_4a/output_0_split_3
I0403 13:45:34.117492 12021 net.cpp:399] inception_4a/output_inception_4a/output_0_split -> inception_4a/output_inception_4a/output_0_split_4
I0403 13:45:34.117588 12021 net.cpp:141] Setting up inception_4a/output_inception_4a/output_0_split
I0403 13:45:34.117611 12021 net.cpp:148] Top shape: 24 512 14 14 (2408448)
I0403 13:45:34.117627 12021 net.cpp:148] Top shape: 24 512 14 14 (2408448)
I0403 13:45:34.117643 12021 net.cpp:148] Top shape: 24 512 14 14 (2408448)
I0403 13:45:34.117658 12021 net.cpp:148] Top shape: 24 512 14 14 (2408448)
I0403 13:45:34.117673 12021 net.cpp:148] Top shape: 24 512 14 14 (2408448)
I0403 13:45:34.117686 12021 net.cpp:156] Memory required for data: 944714784
I0403 13:45:34.117700 12021 layer_factory.hpp:77] Creating layer loss1/ave_pool
I0403 13:45:34.117718 12021 net.cpp:91] Creating Layer loss1/ave_pool
I0403 13:45:34.117733 12021 net.cpp:425] loss1/ave_pool <- inception_4a/output_inception_4a/output_0_split_0
I0403 13:45:34.117753 12021 net.cpp:399] loss1/ave_pool -> loss1/ave_pool
I0403 13:45:34.117955 12021 net.cpp:141] Setting up loss1/ave_pool
I0403 13:45:34.117983 12021 net.cpp:148] Top shape: 24 512 4 4 (196608)
I0403 13:45:34.118000 12021 net.cpp:156] Memory required for data: 945501216
I0403 13:45:34.118013 12021 layer_factory.hpp:77] Creating layer loss1/conv
I0403 13:45:34.118036 12021 net.cpp:91] Creating Layer loss1/conv
I0403 13:45:34.118052 12021 net.cpp:425] loss1/conv <- loss1/ave_pool
I0403 13:45:34.118070 12021 net.cpp:399] loss1/conv -> loss1/conv
I0403 13:45:34.119469 12021 net.cpp:141] Setting up loss1/conv
I0403 13:45:34.119498 12021 net.cpp:148] Top shape: 24 128 4 4 (49152)
I0403 13:45:34.119526 12021 net.cpp:156] Memory required for data: 945697824
I0403 13:45:34.119551 12021 layer_factory.hpp:77] Creating layer loss1/relu_conv
I0403 13:45:34.119571 12021 net.cpp:91] Creating Layer loss1/relu_conv
I0403 13:45:34.119586 12021 net.cpp:425] loss1/relu_conv <- loss1/conv
I0403 13:45:34.119606 12021 net.cpp:386] loss1/relu_conv -> loss1/conv (in-place)
I0403 13:45:34.119884 12021 net.cpp:141] Setting up loss1/relu_conv
I0403 13:45:34.119910 12021 net.cpp:148] Top shape: 24 128 4 4 (49152)
I0403 13:45:34.119925 12021 net.cpp:156] Memory required for data: 945894432
I0403 13:45:34.119940 12021 layer_factory.hpp:77] Creating layer loss1/fc
I0403 13:45:34.119963 12021 net.cpp:91] Creating Layer loss1/fc
I0403 13:45:34.119981 12021 net.cpp:425] loss1/fc <- loss1/conv
I0403 13:45:34.120000 12021 net.cpp:399] loss1/fc -> loss1/fc
I0403 13:45:34.137670 12021 net.cpp:141] Setting up loss1/fc
I0403 13:45:34.137717 12021 net.cpp:148] Top shape: 24 1024 (24576)
I0403 13:45:34.137732 12021 net.cpp:156] Memory required for data: 945992736
I0403 13:45:34.137751 12021 layer_factory.hpp:77] Creating layer loss1/relu_fc
I0403 13:45:34.137771 12021 net.cpp:91] Creating Layer loss1/relu_fc
I0403 13:45:34.137787 12021 net.cpp:425] loss1/relu_fc <- loss1/fc
I0403 13:45:34.137804 12021 net.cpp:386] loss1/relu_fc -> loss1/fc (in-place)
I0403 13:45:34.138005 12021 net.cpp:141] Setting up loss1/relu_fc
I0403 13:45:34.138031 12021 net.cpp:148] Top shape: 24 1024 (24576)
I0403 13:45:34.138046 12021 net.cpp:156] Memory required for data: 946091040
I0403 13:45:34.138059 12021 layer_factory.hpp:77] Creating layer loss1/drop_fc
I0403 13:45:34.138087 12021 net.cpp:91] Creating Layer loss1/drop_fc
I0403 13:45:34.138103 12021 net.cpp:425] loss1/drop_fc <- loss1/fc
I0403 13:45:34.138123 12021 net.cpp:386] loss1/drop_fc -> loss1/fc (in-place)
I0403 13:45:34.138175 12021 net.cpp:141] Setting up loss1/drop_fc
I0403 13:45:34.138198 12021 net.cpp:148] Top shape: 24 1024 (24576)
I0403 13:45:34.138212 12021 net.cpp:156] Memory required for data: 946189344
I0403 13:45:34.138227 12021 layer_factory.hpp:77] Creating layer loss1/classifier_plantvillage
I0403 13:45:34.138249 12021 net.cpp:91] Creating Layer loss1/classifier_plantvillage
I0403 13:45:34.138268 12021 net.cpp:425] loss1/classifier_plantvillage <- loss1/fc
I0403 13:45:34.138285 12021 net.cpp:399] loss1/classifier_plantvillage -> loss1/classifier_plantvillage
I0403 13:45:34.139277 12021 net.cpp:141] Setting up loss1/classifier_plantvillage
I0403 13:45:34.139307 12021 net.cpp:148] Top shape: 24 38 (912)
I0403 13:45:34.139323 12021 net.cpp:156] Memory required for data: 946192992
I0403 13:45:34.139341 12021 layer_factory.hpp:77] Creating layer loss1/classifier_plantvillage_loss1/classifier_plantvillage_0_split
I0403 13:45:34.139360 12021 net.cpp:91] Creating Layer loss1/classifier_plantvillage_loss1/classifier_plantvillage_0_split
I0403 13:45:34.139376 12021 net.cpp:425] loss1/classifier_plantvillage_loss1/classifier_plantvillage_0_split <- loss1/classifier_plantvillage
I0403 13:45:34.139396 12021 net.cpp:399] loss1/classifier_plantvillage_loss1/classifier_plantvillage_0_split -> loss1/classifier_plantvillage_loss1/classifier_plantvillage_0_split_0
I0403 13:45:34.139417 12021 net.cpp:399] loss1/classifier_plantvillage_loss1/classifier_plantvillage_0_split -> loss1/classifier_plantvillage_loss1/classifier_plantvillage_0_split_1
I0403 13:45:34.139437 12021 net.cpp:399] loss1/classifier_plantvillage_loss1/classifier_plantvillage_0_split -> loss1/classifier_plantvillage_loss1/classifier_plantvillage_0_split_2
I0403 13:45:34.139504 12021 net.cpp:141] Setting up loss1/classifier_plantvillage_loss1/classifier_plantvillage_0_split
I0403 13:45:34.139528 12021 net.cpp:148] Top shape: 24 38 (912)
I0403 13:45:34.139549 12021 net.cpp:148] Top shape: 24 38 (912)
I0403 13:45:34.139564 12021 net.cpp:148] Top shape: 24 38 (912)
I0403 13:45:34.139578 12021 net.cpp:156] Memory required for data: 946203936
I0403 13:45:34.139592 12021 layer_factory.hpp:77] Creating layer inception_4b/1x1
I0403 13:45:34.139614 12021 net.cpp:91] Creating Layer inception_4b/1x1
I0403 13:45:34.139662 12021 net.cpp:425] inception_4b/1x1 <- inception_4a/output_inception_4a/output_0_split_1
I0403 13:45:34.139685 12021 net.cpp:399] inception_4b/1x1 -> inception_4b/1x1
I0403 13:45:34.141422 12021 net.cpp:141] Setting up inception_4b/1x1
I0403 13:45:34.141453 12021 net.cpp:148] Top shape: 24 160 14 14 (752640)
I0403 13:45:34.141469 12021 net.cpp:156] Memory required for data: 949214496
I0403 13:45:34.141486 12021 layer_factory.hpp:77] Creating layer inception_4b/relu_1x1
I0403 13:45:34.141506 12021 net.cpp:91] Creating Layer inception_4b/relu_1x1
I0403 13:45:34.141522 12021 net.cpp:425] inception_4b/relu_1x1 <- inception_4b/1x1
I0403 13:45:34.141546 12021 net.cpp:386] inception_4b/relu_1x1 -> inception_4b/1x1 (in-place)
I0403 13:45:34.141731 12021 net.cpp:141] Setting up inception_4b/relu_1x1
I0403 13:45:34.141757 12021 net.cpp:148] Top shape: 24 160 14 14 (752640)
I0403 13:45:34.141772 12021 net.cpp:156] Memory required for data: 952225056
I0403 13:45:34.141787 12021 layer_factory.hpp:77] Creating layer inception_4b/3x3_reduce
I0403 13:45:34.141808 12021 net.cpp:91] Creating Layer inception_4b/3x3_reduce
I0403 13:45:34.141826 12021 net.cpp:425] inception_4b/3x3_reduce <- inception_4a/output_inception_4a/output_0_split_2
I0403 13:45:34.141849 12021 net.cpp:399] inception_4b/3x3_reduce -> inception_4b/3x3_reduce
I0403 13:45:34.143244 12021 net.cpp:141] Setting up inception_4b/3x3_reduce
I0403 13:45:34.143275 12021 net.cpp:148] Top shape: 24 112 14 14 (526848)
I0403 13:45:34.143290 12021 net.cpp:156] Memory required for data: 954332448
I0403 13:45:34.143308 12021 layer_factory.hpp:77] Creating layer inception_4b/relu_3x3_reduce
I0403 13:45:34.143332 12021 net.cpp:91] Creating Layer inception_4b/relu_3x3_reduce
I0403 13:45:34.143348 12021 net.cpp:425] inception_4b/relu_3x3_reduce <- inception_4b/3x3_reduce
I0403 13:45:34.143367 12021 net.cpp:386] inception_4b/relu_3x3_reduce -> inception_4b/3x3_reduce (in-place)
I0403 13:45:34.143661 12021 net.cpp:141] Setting up inception_4b/relu_3x3_reduce
I0403 13:45:34.143689 12021 net.cpp:148] Top shape: 24 112 14 14 (526848)
I0403 13:45:34.143705 12021 net.cpp:156] Memory required for data: 956439840
I0403 13:45:34.143720 12021 layer_factory.hpp:77] Creating layer inception_4b/3x3
I0403 13:45:34.143743 12021 net.cpp:91] Creating Layer inception_4b/3x3
I0403 13:45:34.143760 12021 net.cpp:425] inception_4b/3x3 <- inception_4b/3x3_reduce
I0403 13:45:34.143781 12021 net.cpp:399] inception_4b/3x3 -> inception_4b/3x3
I0403 13:45:34.146853 12021 net.cpp:141] Setting up inception_4b/3x3
I0403 13:45:34.146886 12021 net.cpp:148] Top shape: 24 224 14 14 (1053696)
I0403 13:45:34.146903 12021 net.cpp:156] Memory required for data: 960654624
I0403 13:45:34.146922 12021 layer_factory.hpp:77] Creating layer inception_4b/relu_3x3
I0403 13:45:34.146940 12021 net.cpp:91] Creating Layer inception_4b/relu_3x3
I0403 13:45:34.146956 12021 net.cpp:425] inception_4b/relu_3x3 <- inception_4b/3x3
I0403 13:45:34.146975 12021 net.cpp:386] inception_4b/relu_3x3 -> inception_4b/3x3 (in-place)
I0403 13:45:34.147158 12021 net.cpp:141] Setting up inception_4b/relu_3x3
I0403 13:45:34.147183 12021 net.cpp:148] Top shape: 24 224 14 14 (1053696)
I0403 13:45:34.147199 12021 net.cpp:156] Memory required for data: 964869408
I0403 13:45:34.147214 12021 layer_factory.hpp:77] Creating layer inception_4b/5x5_reduce
I0403 13:45:34.147238 12021 net.cpp:91] Creating Layer inception_4b/5x5_reduce
I0403 13:45:34.147255 12021 net.cpp:425] inception_4b/5x5_reduce <- inception_4a/output_inception_4a/output_0_split_3
I0403 13:45:34.147277 12021 net.cpp:399] inception_4b/5x5_reduce -> inception_4b/5x5_reduce
I0403 13:45:34.148386 12021 net.cpp:141] Setting up inception_4b/5x5_reduce
I0403 13:45:34.148414 12021 net.cpp:148] Top shape: 24 24 14 14 (112896)
I0403 13:45:34.148429 12021 net.cpp:156] Memory required for data: 965320992
I0403 13:45:34.148449 12021 layer_factory.hpp:77] Creating layer inception_4b/relu_5x5_reduce
I0403 13:45:34.148470 12021 net.cpp:91] Creating Layer inception_4b/relu_5x5_reduce
I0403 13:45:34.148502 12021 net.cpp:425] inception_4b/relu_5x5_reduce <- inception_4b/5x5_reduce
I0403 13:45:34.148521 12021 net.cpp:386] inception_4b/relu_5x5_reduce -> inception_4b/5x5_reduce (in-place)
I0403 13:45:34.148715 12021 net.cpp:141] Setting up inception_4b/relu_5x5_reduce
I0403 13:45:34.148741 12021 net.cpp:148] Top shape: 24 24 14 14 (112896)
I0403 13:45:34.148756 12021 net.cpp:156] Memory required for data: 965772576
I0403 13:45:34.148772 12021 layer_factory.hpp:77] Creating layer inception_4b/5x5
I0403 13:45:34.148795 12021 net.cpp:91] Creating Layer inception_4b/5x5
I0403 13:45:34.148813 12021 net.cpp:425] inception_4b/5x5 <- inception_4b/5x5_reduce
I0403 13:45:34.148831 12021 net.cpp:399] inception_4b/5x5 -> inception_4b/5x5
I0403 13:45:34.150090 12021 net.cpp:141] Setting up inception_4b/5x5
I0403 13:45:34.150120 12021 net.cpp:148] Top shape: 24 64 14 14 (301056)
I0403 13:45:34.150135 12021 net.cpp:156] Memory required for data: 966976800
I0403 13:45:34.150154 12021 layer_factory.hpp:77] Creating layer inception_4b/relu_5x5
I0403 13:45:34.150173 12021 net.cpp:91] Creating Layer inception_4b/relu_5x5
I0403 13:45:34.150189 12021 net.cpp:425] inception_4b/relu_5x5 <- inception_4b/5x5
I0403 13:45:34.150209 12021 net.cpp:386] inception_4b/relu_5x5 -> inception_4b/5x5 (in-place)
I0403 13:45:34.150501 12021 net.cpp:141] Setting up inception_4b/relu_5x5
I0403 13:45:34.150527 12021 net.cpp:148] Top shape: 24 64 14 14 (301056)
I0403 13:45:34.150547 12021 net.cpp:156] Memory required for data: 968181024
I0403 13:45:34.150564 12021 layer_factory.hpp:77] Creating layer inception_4b/pool
I0403 13:45:34.150583 12021 net.cpp:91] Creating Layer inception_4b/pool
I0403 13:45:34.150599 12021 net.cpp:425] inception_4b/pool <- inception_4a/output_inception_4a/output_0_split_4
I0403 13:45:34.150619 12021 net.cpp:399] inception_4b/pool -> inception_4b/pool
I0403 13:45:34.150686 12021 net.cpp:141] Setting up inception_4b/pool
I0403 13:45:34.150709 12021 net.cpp:148] Top shape: 24 512 14 14 (2408448)
I0403 13:45:34.150724 12021 net.cpp:156] Memory required for data: 977814816
I0403 13:45:34.150739 12021 layer_factory.hpp:77] Creating layer inception_4b/pool_proj
I0403 13:45:34.150764 12021 net.cpp:91] Creating Layer inception_4b/pool_proj
I0403 13:45:34.150782 12021 net.cpp:425] inception_4b/pool_proj <- inception_4b/pool
I0403 13:45:34.150800 12021 net.cpp:399] inception_4b/pool_proj -> inception_4b/pool_proj
I0403 13:45:34.152037 12021 net.cpp:141] Setting up inception_4b/pool_proj
I0403 13:45:34.152065 12021 net.cpp:148] Top shape: 24 64 14 14 (301056)
I0403 13:45:34.152081 12021 net.cpp:156] Memory required for data: 979019040
I0403 13:45:34.152099 12021 layer_factory.hpp:77] Creating layer inception_4b/relu_pool_proj
I0403 13:45:34.152122 12021 net.cpp:91] Creating Layer inception_4b/relu_pool_proj
I0403 13:45:34.152137 12021 net.cpp:425] inception_4b/relu_pool_proj <- inception_4b/pool_proj
I0403 13:45:34.152155 12021 net.cpp:386] inception_4b/relu_pool_proj -> inception_4b/pool_proj (in-place)
I0403 13:45:34.152338 12021 net.cpp:141] Setting up inception_4b/relu_pool_proj
I0403 13:45:34.152365 12021 net.cpp:148] Top shape: 24 64 14 14 (301056)
I0403 13:45:34.152381 12021 net.cpp:156] Memory required for data: 980223264
I0403 13:45:34.152396 12021 layer_factory.hpp:77] Creating layer inception_4b/output
I0403 13:45:34.152415 12021 net.cpp:91] Creating Layer inception_4b/output
I0403 13:45:34.152431 12021 net.cpp:425] inception_4b/output <- inception_4b/1x1
I0403 13:45:34.152447 12021 net.cpp:425] inception_4b/output <- inception_4b/3x3
I0403 13:45:34.152463 12021 net.cpp:425] inception_4b/output <- inception_4b/5x5
I0403 13:45:34.152479 12021 net.cpp:425] inception_4b/output <- inception_4b/pool_proj
I0403 13:45:34.152497 12021 net.cpp:399] inception_4b/output -> inception_4b/output
I0403 13:45:34.152552 12021 net.cpp:141] Setting up inception_4b/output
I0403 13:45:34.152576 12021 net.cpp:148] Top shape: 24 512 14 14 (2408448)
I0403 13:45:34.152590 12021 net.cpp:156] Memory required for data: 989857056
I0403 13:45:34.152621 12021 layer_factory.hpp:77] Creating layer inception_4b/output_inception_4b/output_0_split
I0403 13:45:34.152639 12021 net.cpp:91] Creating Layer inception_4b/output_inception_4b/output_0_split
I0403 13:45:34.152655 12021 net.cpp:425] inception_4b/output_inception_4b/output_0_split <- inception_4b/output
I0403 13:45:34.152676 12021 net.cpp:399] inception_4b/output_inception_4b/output_0_split -> inception_4b/output_inception_4b/output_0_split_0
I0403 13:45:34.152698 12021 net.cpp:399] inception_4b/output_inception_4b/output_0_split -> inception_4b/output_inception_4b/output_0_split_1
I0403 13:45:34.152719 12021 net.cpp:399] inception_4b/output_inception_4b/output_0_split -> inception_4b/output_inception_4b/output_0_split_2
I0403 13:45:34.152739 12021 net.cpp:399] inception_4b/output_inception_4b/output_0_split -> inception_4b/output_inception_4b/output_0_split_3
I0403 13:45:34.152823 12021 net.cpp:141] Setting up inception_4b/output_inception_4b/output_0_split
I0403 13:45:34.152848 12021 net.cpp:148] Top shape: 24 512 14 14 (2408448)
I0403 13:45:34.152863 12021 net.cpp:148] Top shape: 24 512 14 14 (2408448)
I0403 13:45:34.152879 12021 net.cpp:148] Top shape: 24 512 14 14 (2408448)
I0403 13:45:34.152894 12021 net.cpp:148] Top shape: 24 512 14 14 (2408448)
I0403 13:45:34.152909 12021 net.cpp:156] Memory required for data: 1028392224
I0403 13:45:34.152923 12021 layer_factory.hpp:77] Creating layer inception_4c/1x1
I0403 13:45:34.152945 12021 net.cpp:91] Creating Layer inception_4c/1x1
I0403 13:45:34.152963 12021 net.cpp:425] inception_4c/1x1 <- inception_4b/output_inception_4b/output_0_split_0
I0403 13:45:34.152984 12021 net.cpp:399] inception_4c/1x1 -> inception_4c/1x1
I0403 13:45:34.154458 12021 net.cpp:141] Setting up inception_4c/1x1
I0403 13:45:34.154489 12021 net.cpp:148] Top shape: 24 128 14 14 (602112)
I0403 13:45:34.154506 12021 net.cpp:156] Memory required for data: 1030800672
I0403 13:45:34.154525 12021 layer_factory.hpp:77] Creating layer inception_4c/relu_1x1
I0403 13:45:34.154556 12021 net.cpp:91] Creating Layer inception_4c/relu_1x1
I0403 13:45:34.154575 12021 net.cpp:425] inception_4c/relu_1x1 <- inception_4c/1x1
I0403 13:45:34.154593 12021 net.cpp:386] inception_4c/relu_1x1 -> inception_4c/1x1 (in-place)
I0403 13:45:34.154778 12021 net.cpp:141] Setting up inception_4c/relu_1x1
I0403 13:45:34.154806 12021 net.cpp:148] Top shape: 24 128 14 14 (602112)
I0403 13:45:34.154822 12021 net.cpp:156] Memory required for data: 1033209120
I0403 13:45:34.154839 12021 layer_factory.hpp:77] Creating layer inception_4c/3x3_reduce
I0403 13:45:34.154861 12021 net.cpp:91] Creating Layer inception_4c/3x3_reduce
I0403 13:45:34.154878 12021 net.cpp:425] inception_4c/3x3_reduce <- inception_4b/output_inception_4b/output_0_split_1
I0403 13:45:34.154901 12021 net.cpp:399] inception_4c/3x3_reduce -> inception_4c/3x3_reduce
I0403 13:45:34.156914 12021 net.cpp:141] Setting up inception_4c/3x3_reduce
I0403 13:45:34.156944 12021 net.cpp:148] Top shape: 24 128 14 14 (602112)
I0403 13:45:34.156960 12021 net.cpp:156] Memory required for data: 1035617568
I0403 13:45:34.156980 12021 layer_factory.hpp:77] Creating layer inception_4c/relu_3x3_reduce
I0403 13:45:34.156997 12021 net.cpp:91] Creating Layer inception_4c/relu_3x3_reduce
I0403 13:45:34.157017 12021 net.cpp:425] inception_4c/relu_3x3_reduce <- inception_4c/3x3_reduce
I0403 13:45:34.157035 12021 net.cpp:386] inception_4c/relu_3x3_reduce -> inception_4c/3x3_reduce (in-place)
I0403 13:45:34.157330 12021 net.cpp:141] Setting up inception_4c/relu_3x3_reduce
I0403 13:45:34.157356 12021 net.cpp:148] Top shape: 24 128 14 14 (602112)
I0403 13:45:34.157371 12021 net.cpp:156] Memory required for data: 1038026016
I0403 13:45:34.157387 12021 layer_factory.hpp:77] Creating layer inception_4c/3x3
I0403 13:45:34.157409 12021 net.cpp:91] Creating Layer inception_4c/3x3
I0403 13:45:34.157428 12021 net.cpp:425] inception_4c/3x3 <- inception_4c/3x3_reduce
I0403 13:45:34.157449 12021 net.cpp:399] inception_4c/3x3 -> inception_4c/3x3
I0403 13:45:34.161124 12021 net.cpp:141] Setting up inception_4c/3x3
I0403 13:45:34.161167 12021 net.cpp:148] Top shape: 24 256 14 14 (1204224)
I0403 13:45:34.161185 12021 net.cpp:156] Memory required for data: 1042842912
I0403 13:45:34.161218 12021 layer_factory.hpp:77] Creating layer inception_4c/relu_3x3
I0403 13:45:34.161242 12021 net.cpp:91] Creating Layer inception_4c/relu_3x3
I0403 13:45:34.161259 12021 net.cpp:425] inception_4c/relu_3x3 <- inception_4c/3x3
I0403 13:45:34.161278 12021 net.cpp:386] inception_4c/relu_3x3 -> inception_4c/3x3 (in-place)
I0403 13:45:34.161471 12021 net.cpp:141] Setting up inception_4c/relu_3x3
I0403 13:45:34.161495 12021 net.cpp:148] Top shape: 24 256 14 14 (1204224)
I0403 13:45:34.161510 12021 net.cpp:156] Memory required for data: 1047659808
I0403 13:45:34.161525 12021 layer_factory.hpp:77] Creating layer inception_4c/5x5_reduce
I0403 13:45:34.161551 12021 net.cpp:91] Creating Layer inception_4c/5x5_reduce
I0403 13:45:34.161569 12021 net.cpp:425] inception_4c/5x5_reduce <- inception_4b/output_inception_4b/output_0_split_2
I0403 13:45:34.161591 12021 net.cpp:399] inception_4c/5x5_reduce -> inception_4c/5x5_reduce
I0403 13:45:34.162672 12021 net.cpp:141] Setting up inception_4c/5x5_reduce
I0403 13:45:34.162700 12021 net.cpp:148] Top shape: 24 24 14 14 (112896)
I0403 13:45:34.162715 12021 net.cpp:156] Memory required for data: 1048111392
I0403 13:45:34.162734 12021 layer_factory.hpp:77] Creating layer inception_4c/relu_5x5_reduce
I0403 13:45:34.162755 12021 net.cpp:91] Creating Layer inception_4c/relu_5x5_reduce
I0403 13:45:34.162770 12021 net.cpp:425] inception_4c/relu_5x5_reduce <- inception_4c/5x5_reduce
I0403 13:45:34.162788 12021 net.cpp:386] inception_4c/relu_5x5_reduce -> inception_4c/5x5_reduce (in-place)
I0403 13:45:34.162967 12021 net.cpp:141] Setting up inception_4c/relu_5x5_reduce
I0403 13:45:34.162992 12021 net.cpp:148] Top shape: 24 24 14 14 (112896)
I0403 13:45:34.163005 12021 net.cpp:156] Memory required for data: 1048562976
I0403 13:45:34.163020 12021 layer_factory.hpp:77] Creating layer inception_4c/5x5
I0403 13:45:34.163043 12021 net.cpp:91] Creating Layer inception_4c/5x5
I0403 13:45:34.163060 12021 net.cpp:425] inception_4c/5x5 <- inception_4c/5x5_reduce
I0403 13:45:34.163079 12021 net.cpp:399] inception_4c/5x5 -> inception_4c/5x5
I0403 13:45:34.164304 12021 net.cpp:141] Setting up inception_4c/5x5
I0403 13:45:34.164331 12021 net.cpp:148] Top shape: 24 64 14 14 (301056)
I0403 13:45:34.164350 12021 net.cpp:156] Memory required for data: 1049767200
I0403 13:45:34.164367 12021 layer_factory.hpp:77] Creating layer inception_4c/relu_5x5
I0403 13:45:34.164386 12021 net.cpp:91] Creating Layer inception_4c/relu_5x5
I0403 13:45:34.164400 12021 net.cpp:425] inception_4c/relu_5x5 <- inception_4c/5x5
I0403 13:45:34.164417 12021 net.cpp:386] inception_4c/relu_5x5 -> inception_4c/5x5 (in-place)
I0403 13:45:34.164717 12021 net.cpp:141] Setting up inception_4c/relu_5x5
I0403 13:45:34.164744 12021 net.cpp:148] Top shape: 24 64 14 14 (301056)
I0403 13:45:34.164762 12021 net.cpp:156] Memory required for data: 1050971424
I0403 13:45:34.164777 12021 layer_factory.hpp:77] Creating layer inception_4c/pool
I0403 13:45:34.164795 12021 net.cpp:91] Creating Layer inception_4c/pool
I0403 13:45:34.164810 12021 net.cpp:425] inception_4c/pool <- inception_4b/output_inception_4b/output_0_split_3
I0403 13:45:34.164829 12021 net.cpp:399] inception_4c/pool -> inception_4c/pool
I0403 13:45:34.164894 12021 net.cpp:141] Setting up inception_4c/pool
I0403 13:45:34.164917 12021 net.cpp:148] Top shape: 24 512 14 14 (2408448)
I0403 13:45:34.164932 12021 net.cpp:156] Memory required for data: 1060605216
I0403 13:45:34.164945 12021 layer_factory.hpp:77] Creating layer inception_4c/pool_proj
I0403 13:45:34.164968 12021 net.cpp:91] Creating Layer inception_4c/pool_proj
I0403 13:45:34.164984 12021 net.cpp:425] inception_4c/pool_proj <- inception_4c/pool
I0403 13:45:34.165004 12021 net.cpp:399] inception_4c/pool_proj -> inception_4c/pool_proj
I0403 13:45:34.166220 12021 net.cpp:141] Setting up inception_4c/pool_proj
I0403 13:45:34.166249 12021 net.cpp:148] Top shape: 24 64 14 14 (301056)
I0403 13:45:34.166278 12021 net.cpp:156] Memory required for data: 1061809440
I0403 13:45:34.166297 12021 layer_factory.hpp:77] Creating layer inception_4c/relu_pool_proj
I0403 13:45:34.166319 12021 net.cpp:91] Creating Layer inception_4c/relu_pool_proj
I0403 13:45:34.166337 12021 net.cpp:425] inception_4c/relu_pool_proj <- inception_4c/pool_proj
I0403 13:45:34.166354 12021 net.cpp:386] inception_4c/relu_pool_proj -> inception_4c/pool_proj (in-place)
I0403 13:45:34.166535 12021 net.cpp:141] Setting up inception_4c/relu_pool_proj
I0403 13:45:34.166563 12021 net.cpp:148] Top shape: 24 64 14 14 (301056)
I0403 13:45:34.166579 12021 net.cpp:156] Memory required for data: 1063013664
I0403 13:45:34.166592 12021 layer_factory.hpp:77] Creating layer inception_4c/output
I0403 13:45:34.166612 12021 net.cpp:91] Creating Layer inception_4c/output
I0403 13:45:34.166628 12021 net.cpp:425] inception_4c/output <- inception_4c/1x1
I0403 13:45:34.166645 12021 net.cpp:425] inception_4c/output <- inception_4c/3x3
I0403 13:45:34.166661 12021 net.cpp:425] inception_4c/output <- inception_4c/5x5
I0403 13:45:34.166676 12021 net.cpp:425] inception_4c/output <- inception_4c/pool_proj
I0403 13:45:34.166692 12021 net.cpp:399] inception_4c/output -> inception_4c/output
I0403 13:45:34.166739 12021 net.cpp:141] Setting up inception_4c/output
I0403 13:45:34.166762 12021 net.cpp:148] Top shape: 24 512 14 14 (2408448)
I0403 13:45:34.166777 12021 net.cpp:156] Memory required for data: 1072647456
I0403 13:45:34.166791 12021 layer_factory.hpp:77] Creating layer inception_4c/output_inception_4c/output_0_split
I0403 13:45:34.166808 12021 net.cpp:91] Creating Layer inception_4c/output_inception_4c/output_0_split
I0403 13:45:34.166823 12021 net.cpp:425] inception_4c/output_inception_4c/output_0_split <- inception_4c/output
I0403 13:45:34.166842 12021 net.cpp:399] inception_4c/output_inception_4c/output_0_split -> inception_4c/output_inception_4c/output_0_split_0
I0403 13:45:34.166863 12021 net.cpp:399] inception_4c/output_inception_4c/output_0_split -> inception_4c/output_inception_4c/output_0_split_1
I0403 13:45:34.166883 12021 net.cpp:399] inception_4c/output_inception_4c/output_0_split -> inception_4c/output_inception_4c/output_0_split_2
I0403 13:45:34.166903 12021 net.cpp:399] inception_4c/output_inception_4c/output_0_split -> inception_4c/output_inception_4c/output_0_split_3
I0403 13:45:34.166986 12021 net.cpp:141] Setting up inception_4c/output_inception_4c/output_0_split
I0403 13:45:34.167009 12021 net.cpp:148] Top shape: 24 512 14 14 (2408448)
I0403 13:45:34.167026 12021 net.cpp:148] Top shape: 24 512 14 14 (2408448)
I0403 13:45:34.167040 12021 net.cpp:148] Top shape: 24 512 14 14 (2408448)
I0403 13:45:34.167055 12021 net.cpp:148] Top shape: 24 512 14 14 (2408448)
I0403 13:45:34.167068 12021 net.cpp:156] Memory required for data: 1111182624
I0403 13:45:34.167083 12021 layer_factory.hpp:77] Creating layer inception_4d/1x1
I0403 13:45:34.167105 12021 net.cpp:91] Creating Layer inception_4d/1x1
I0403 13:45:34.167122 12021 net.cpp:425] inception_4d/1x1 <- inception_4c/output_inception_4c/output_0_split_0
I0403 13:45:34.167145 12021 net.cpp:399] inception_4d/1x1 -> inception_4d/1x1
I0403 13:45:34.168525 12021 net.cpp:141] Setting up inception_4d/1x1
I0403 13:45:34.168558 12021 net.cpp:148] Top shape: 24 112 14 14 (526848)
I0403 13:45:34.168576 12021 net.cpp:156] Memory required for data: 1113290016
I0403 13:45:34.168593 12021 layer_factory.hpp:77] Creating layer inception_4d/relu_1x1
I0403 13:45:34.168611 12021 net.cpp:91] Creating Layer inception_4d/relu_1x1
I0403 13:45:34.168627 12021 net.cpp:425] inception_4d/relu_1x1 <- inception_4d/1x1
I0403 13:45:34.168645 12021 net.cpp:386] inception_4d/relu_1x1 -> inception_4d/1x1 (in-place)
I0403 13:45:34.168828 12021 net.cpp:141] Setting up inception_4d/relu_1x1
I0403 13:45:34.168853 12021 net.cpp:148] Top shape: 24 112 14 14 (526848)
I0403 13:45:34.168869 12021 net.cpp:156] Memory required for data: 1115397408
I0403 13:45:34.168882 12021 layer_factory.hpp:77] Creating layer inception_4d/3x3_reduce
I0403 13:45:34.168920 12021 net.cpp:91] Creating Layer inception_4d/3x3_reduce
I0403 13:45:34.168937 12021 net.cpp:425] inception_4d/3x3_reduce <- inception_4c/output_inception_4c/output_0_split_1
I0403 13:45:34.168957 12021 net.cpp:399] inception_4d/3x3_reduce -> inception_4d/3x3_reduce
I0403 13:45:34.170490 12021 net.cpp:141] Setting up inception_4d/3x3_reduce
I0403 13:45:34.170519 12021 net.cpp:148] Top shape: 24 144 14 14 (677376)
I0403 13:45:34.170534 12021 net.cpp:156] Memory required for data: 1118106912
I0403 13:45:34.170569 12021 layer_factory.hpp:77] Creating layer inception_4d/relu_3x3_reduce
I0403 13:45:34.170591 12021 net.cpp:91] Creating Layer inception_4d/relu_3x3_reduce
I0403 13:45:34.170608 12021 net.cpp:425] inception_4d/relu_3x3_reduce <- inception_4d/3x3_reduce
I0403 13:45:34.170624 12021 net.cpp:386] inception_4d/relu_3x3_reduce -> inception_4d/3x3_reduce (in-place)
I0403 13:45:34.170915 12021 net.cpp:141] Setting up inception_4d/relu_3x3_reduce
I0403 13:45:34.170943 12021 net.cpp:148] Top shape: 24 144 14 14 (677376)
I0403 13:45:34.170958 12021 net.cpp:156] Memory required for data: 1120816416
I0403 13:45:34.170972 12021 layer_factory.hpp:77] Creating layer inception_4d/3x3
I0403 13:45:34.170995 12021 net.cpp:91] Creating Layer inception_4d/3x3
I0403 13:45:34.171012 12021 net.cpp:425] inception_4d/3x3 <- inception_4d/3x3_reduce
I0403 13:45:34.171030 12021 net.cpp:399] inception_4d/3x3 -> inception_4d/3x3
I0403 13:45:34.175330 12021 net.cpp:141] Setting up inception_4d/3x3
I0403 13:45:34.175364 12021 net.cpp:148] Top shape: 24 288 14 14 (1354752)
I0403 13:45:34.175379 12021 net.cpp:156] Memory required for data: 1126235424
I0403 13:45:34.175400 12021 layer_factory.hpp:77] Creating layer inception_4d/relu_3x3
I0403 13:45:34.175417 12021 net.cpp:91] Creating Layer inception_4d/relu_3x3
I0403 13:45:34.175434 12021 net.cpp:425] inception_4d/relu_3x3 <- inception_4d/3x3
I0403 13:45:34.175453 12021 net.cpp:386] inception_4d/relu_3x3 -> inception_4d/3x3 (in-place)
I0403 13:45:34.175657 12021 net.cpp:141] Setting up inception_4d/relu_3x3
I0403 13:45:34.175681 12021 net.cpp:148] Top shape: 24 288 14 14 (1354752)
I0403 13:45:34.175696 12021 net.cpp:156] Memory required for data: 1131654432
I0403 13:45:34.175711 12021 layer_factory.hpp:77] Creating layer inception_4d/5x5_reduce
I0403 13:45:34.175734 12021 net.cpp:91] Creating Layer inception_4d/5x5_reduce
I0403 13:45:34.175750 12021 net.cpp:425] inception_4d/5x5_reduce <- inception_4c/output_inception_4c/output_0_split_2
I0403 13:45:34.175771 12021 net.cpp:399] inception_4d/5x5_reduce -> inception_4d/5x5_reduce
I0403 13:45:34.176920 12021 net.cpp:141] Setting up inception_4d/5x5_reduce
I0403 13:45:34.176949 12021 net.cpp:148] Top shape: 24 32 14 14 (150528)
I0403 13:45:34.176964 12021 net.cpp:156] Memory required for data: 1132256544
I0403 13:45:34.176982 12021 layer_factory.hpp:77] Creating layer inception_4d/relu_5x5_reduce
I0403 13:45:34.177001 12021 net.cpp:91] Creating Layer inception_4d/relu_5x5_reduce
I0403 13:45:34.177018 12021 net.cpp:425] inception_4d/relu_5x5_reduce <- inception_4d/5x5_reduce
I0403 13:45:34.177037 12021 net.cpp:386] inception_4d/relu_5x5_reduce -> inception_4d/5x5_reduce (in-place)
I0403 13:45:34.177225 12021 net.cpp:141] Setting up inception_4d/relu_5x5_reduce
I0403 13:45:34.177249 12021 net.cpp:148] Top shape: 24 32 14 14 (150528)
I0403 13:45:34.177265 12021 net.cpp:156] Memory required for data: 1132858656
I0403 13:45:34.177280 12021 layer_factory.hpp:77] Creating layer inception_4d/5x5
I0403 13:45:34.177301 12021 net.cpp:91] Creating Layer inception_4d/5x5
I0403 13:45:34.177319 12021 net.cpp:425] inception_4d/5x5 <- inception_4d/5x5_reduce
I0403 13:45:34.177338 12021 net.cpp:399] inception_4d/5x5 -> inception_4d/5x5
I0403 13:45:34.178918 12021 net.cpp:141] Setting up inception_4d/5x5
I0403 13:45:34.178947 12021 net.cpp:148] Top shape: 24 64 14 14 (301056)
I0403 13:45:34.178963 12021 net.cpp:156] Memory required for data: 1134062880
I0403 13:45:34.178983 12021 layer_factory.hpp:77] Creating layer inception_4d/relu_5x5
I0403 13:45:34.179020 12021 net.cpp:91] Creating Layer inception_4d/relu_5x5
I0403 13:45:34.179039 12021 net.cpp:425] inception_4d/relu_5x5 <- inception_4d/5x5
I0403 13:45:34.179056 12021 net.cpp:386] inception_4d/relu_5x5 -> inception_4d/5x5 (in-place)
I0403 13:45:34.179364 12021 net.cpp:141] Setting up inception_4d/relu_5x5
I0403 13:45:34.179391 12021 net.cpp:148] Top shape: 24 64 14 14 (301056)
I0403 13:45:34.179406 12021 net.cpp:156] Memory required for data: 1135267104
I0403 13:45:34.179422 12021 layer_factory.hpp:77] Creating layer inception_4d/pool
I0403 13:45:34.179446 12021 net.cpp:91] Creating Layer inception_4d/pool
I0403 13:45:34.179464 12021 net.cpp:425] inception_4d/pool <- inception_4c/output_inception_4c/output_0_split_3
I0403 13:45:34.179482 12021 net.cpp:399] inception_4d/pool -> inception_4d/pool
I0403 13:45:34.179556 12021 net.cpp:141] Setting up inception_4d/pool
I0403 13:45:34.179580 12021 net.cpp:148] Top shape: 24 512 14 14 (2408448)
I0403 13:45:34.179595 12021 net.cpp:156] Memory required for data: 1144900896
I0403 13:45:34.179610 12021 layer_factory.hpp:77] Creating layer inception_4d/pool_proj
I0403 13:45:34.179632 12021 net.cpp:91] Creating Layer inception_4d/pool_proj
I0403 13:45:34.179651 12021 net.cpp:425] inception_4d/pool_proj <- inception_4d/pool
I0403 13:45:34.179672 12021 net.cpp:399] inception_4d/pool_proj -> inception_4d/pool_proj
I0403 13:45:34.181488 12021 net.cpp:141] Setting up inception_4d/pool_proj
I0403 13:45:34.181519 12021 net.cpp:148] Top shape: 24 64 14 14 (301056)
I0403 13:45:34.181540 12021 net.cpp:156] Memory required for data: 1146105120
I0403 13:45:34.181562 12021 layer_factory.hpp:77] Creating layer inception_4d/relu_pool_proj
I0403 13:45:34.181581 12021 net.cpp:91] Creating Layer inception_4d/relu_pool_proj
I0403 13:45:34.181598 12021 net.cpp:425] inception_4d/relu_pool_proj <- inception_4d/pool_proj
I0403 13:45:34.181618 12021 net.cpp:386] inception_4d/relu_pool_proj -> inception_4d/pool_proj (in-place)
I0403 13:45:34.181810 12021 net.cpp:141] Setting up inception_4d/relu_pool_proj
I0403 13:45:34.181835 12021 net.cpp:148] Top shape: 24 64 14 14 (301056)
I0403 13:45:34.181850 12021 net.cpp:156] Memory required for data: 1147309344
I0403 13:45:34.181866 12021 layer_factory.hpp:77] Creating layer inception_4d/output
I0403 13:45:34.181884 12021 net.cpp:91] Creating Layer inception_4d/output
I0403 13:45:34.181900 12021 net.cpp:425] inception_4d/output <- inception_4d/1x1
I0403 13:45:34.181916 12021 net.cpp:425] inception_4d/output <- inception_4d/3x3
I0403 13:45:34.181932 12021 net.cpp:425] inception_4d/output <- inception_4d/5x5
I0403 13:45:34.181948 12021 net.cpp:425] inception_4d/output <- inception_4d/pool_proj
I0403 13:45:34.181967 12021 net.cpp:399] inception_4d/output -> inception_4d/output
I0403 13:45:34.182020 12021 net.cpp:141] Setting up inception_4d/output
I0403 13:45:34.182044 12021 net.cpp:148] Top shape: 24 528 14 14 (2483712)
I0403 13:45:34.182059 12021 net.cpp:156] Memory required for data: 1157244192
I0403 13:45:34.182072 12021 layer_factory.hpp:77] Creating layer inception_4d/output_inception_4d/output_0_split
I0403 13:45:34.182090 12021 net.cpp:91] Creating Layer inception_4d/output_inception_4d/output_0_split
I0403 13:45:34.182106 12021 net.cpp:425] inception_4d/output_inception_4d/output_0_split <- inception_4d/output
I0403 13:45:34.182126 12021 net.cpp:399] inception_4d/output_inception_4d/output_0_split -> inception_4d/output_inception_4d/output_0_split_0
I0403 13:45:34.182149 12021 net.cpp:399] inception_4d/output_inception_4d/output_0_split -> inception_4d/output_inception_4d/output_0_split_1
I0403 13:45:34.182169 12021 net.cpp:399] inception_4d/output_inception_4d/output_0_split -> inception_4d/output_inception_4d/output_0_split_2
I0403 13:45:34.182190 12021 net.cpp:399] inception_4d/output_inception_4d/output_0_split -> inception_4d/output_inception_4d/output_0_split_3
I0403 13:45:34.182209 12021 net.cpp:399] inception_4d/output_inception_4d/output_0_split -> inception_4d/output_inception_4d/output_0_split_4
I0403 13:45:34.182314 12021 net.cpp:141] Setting up inception_4d/output_inception_4d/output_0_split
I0403 13:45:34.182356 12021 net.cpp:148] Top shape: 24 528 14 14 (2483712)
I0403 13:45:34.182374 12021 net.cpp:148] Top shape: 24 528 14 14 (2483712)
I0403 13:45:34.182390 12021 net.cpp:148] Top shape: 24 528 14 14 (2483712)
I0403 13:45:34.182406 12021 net.cpp:148] Top shape: 24 528 14 14 (2483712)
I0403 13:45:34.182422 12021 net.cpp:148] Top shape: 24 528 14 14 (2483712)
I0403 13:45:34.182435 12021 net.cpp:156] Memory required for data: 1206918432
I0403 13:45:34.182451 12021 layer_factory.hpp:77] Creating layer loss2/ave_pool
I0403 13:45:34.182468 12021 net.cpp:91] Creating Layer loss2/ave_pool
I0403 13:45:34.182484 12021 net.cpp:425] loss2/ave_pool <- inception_4d/output_inception_4d/output_0_split_0
I0403 13:45:34.182505 12021 net.cpp:399] loss2/ave_pool -> loss2/ave_pool
I0403 13:45:34.182833 12021 net.cpp:141] Setting up loss2/ave_pool
I0403 13:45:34.182860 12021 net.cpp:148] Top shape: 24 528 4 4 (202752)
I0403 13:45:34.182876 12021 net.cpp:156] Memory required for data: 1207729440
I0403 13:45:34.182891 12021 layer_factory.hpp:77] Creating layer loss2/conv
I0403 13:45:34.182914 12021 net.cpp:91] Creating Layer loss2/conv
I0403 13:45:34.182932 12021 net.cpp:425] loss2/conv <- loss2/ave_pool
I0403 13:45:34.182955 12021 net.cpp:399] loss2/conv -> loss2/conv
I0403 13:45:34.184924 12021 net.cpp:141] Setting up loss2/conv
I0403 13:45:34.184954 12021 net.cpp:148] Top shape: 24 128 4 4 (49152)
I0403 13:45:34.184970 12021 net.cpp:156] Memory required for data: 1207926048
I0403 13:45:34.184990 12021 layer_factory.hpp:77] Creating layer loss2/relu_conv
I0403 13:45:34.185011 12021 net.cpp:91] Creating Layer loss2/relu_conv
I0403 13:45:34.185029 12021 net.cpp:425] loss2/relu_conv <- loss2/conv
I0403 13:45:34.185046 12021 net.cpp:386] loss2/relu_conv -> loss2/conv (in-place)
I0403 13:45:34.185344 12021 net.cpp:141] Setting up loss2/relu_conv
I0403 13:45:34.185371 12021 net.cpp:148] Top shape: 24 128 4 4 (49152)
I0403 13:45:34.185387 12021 net.cpp:156] Memory required for data: 1208122656
I0403 13:45:34.185402 12021 layer_factory.hpp:77] Creating layer loss2/fc
I0403 13:45:34.185425 12021 net.cpp:91] Creating Layer loss2/fc
I0403 13:45:34.185442 12021 net.cpp:425] loss2/fc <- loss2/conv
I0403 13:45:34.185467 12021 net.cpp:399] loss2/fc -> loss2/fc
I0403 13:45:34.203522 12021 net.cpp:141] Setting up loss2/fc
I0403 13:45:34.203559 12021 net.cpp:148] Top shape: 24 1024 (24576)
I0403 13:45:34.203575 12021 net.cpp:156] Memory required for data: 1208220960
I0403 13:45:34.203594 12021 layer_factory.hpp:77] Creating layer loss2/relu_fc
I0403 13:45:34.203614 12021 net.cpp:91] Creating Layer loss2/relu_fc
I0403 13:45:34.203631 12021 net.cpp:425] loss2/relu_fc <- loss2/fc
I0403 13:45:34.203652 12021 net.cpp:386] loss2/relu_fc -> loss2/fc (in-place)
I0403 13:45:34.204011 12021 net.cpp:141] Setting up loss2/relu_fc
I0403 13:45:34.204048 12021 net.cpp:148] Top shape: 24 1024 (24576)
I0403 13:45:34.204063 12021 net.cpp:156] Memory required for data: 1208319264
I0403 13:45:34.204078 12021 layer_factory.hpp:77] Creating layer loss2/drop_fc
I0403 13:45:34.204097 12021 net.cpp:91] Creating Layer loss2/drop_fc
I0403 13:45:34.204112 12021 net.cpp:425] loss2/drop_fc <- loss2/fc
I0403 13:45:34.204131 12021 net.cpp:386] loss2/drop_fc -> loss2/fc (in-place)
I0403 13:45:34.204180 12021 net.cpp:141] Setting up loss2/drop_fc
I0403 13:45:34.204205 12021 net.cpp:148] Top shape: 24 1024 (24576)
I0403 13:45:34.204219 12021 net.cpp:156] Memory required for data: 1208417568
I0403 13:45:34.204234 12021 layer_factory.hpp:77] Creating layer loss2/classifier_plantvillage
I0403 13:45:34.204252 12021 net.cpp:91] Creating Layer loss2/classifier_plantvillage
I0403 13:45:34.204269 12021 net.cpp:425] loss2/classifier_plantvillage <- loss2/fc
I0403 13:45:34.204290 12021 net.cpp:399] loss2/classifier_plantvillage -> loss2/classifier_plantvillage
I0403 13:45:34.204706 12021 net.cpp:141] Setting up loss2/classifier_plantvillage
I0403 13:45:34.204731 12021 net.cpp:148] Top shape: 24 38 (912)
I0403 13:45:34.204766 12021 net.cpp:156] Memory required for data: 1208421216
I0403 13:45:34.204784 12021 layer_factory.hpp:77] Creating layer loss2/classifier_plantvillage_loss2/classifier_plantvillage_0_split
I0403 13:45:34.204805 12021 net.cpp:91] Creating Layer loss2/classifier_plantvillage_loss2/classifier_plantvillage_0_split
I0403 13:45:34.204823 12021 net.cpp:425] loss2/classifier_plantvillage_loss2/classifier_plantvillage_0_split <- loss2/classifier_plantvillage
I0403 13:45:34.204839 12021 net.cpp:399] loss2/classifier_plantvillage_loss2/classifier_plantvillage_0_split -> loss2/classifier_plantvillage_loss2/classifier_plantvillage_0_split_0
I0403 13:45:34.204859 12021 net.cpp:399] loss2/classifier_plantvillage_loss2/classifier_plantvillage_0_split -> loss2/classifier_plantvillage_loss2/classifier_plantvillage_0_split_1
I0403 13:45:34.204881 12021 net.cpp:399] loss2/classifier_plantvillage_loss2/classifier_plantvillage_0_split -> loss2/classifier_plantvillage_loss2/classifier_plantvillage_0_split_2
I0403 13:45:34.204957 12021 net.cpp:141] Setting up loss2/classifier_plantvillage_loss2/classifier_plantvillage_0_split
I0403 13:45:34.204978 12021 net.cpp:148] Top shape: 24 38 (912)
I0403 13:45:34.204994 12021 net.cpp:148] Top shape: 24 38 (912)
I0403 13:45:34.205009 12021 net.cpp:148] Top shape: 24 38 (912)
I0403 13:45:34.205023 12021 net.cpp:156] Memory required for data: 1208432160
I0403 13:45:34.205035 12021 layer_factory.hpp:77] Creating layer inception_4e/1x1
I0403 13:45:34.205059 12021 net.cpp:91] Creating Layer inception_4e/1x1
I0403 13:45:34.205075 12021 net.cpp:425] inception_4e/1x1 <- inception_4d/output_inception_4d/output_0_split_1
I0403 13:45:34.205095 12021 net.cpp:399] inception_4e/1x1 -> inception_4e/1x1
I0403 13:45:34.206959 12021 net.cpp:141] Setting up inception_4e/1x1
I0403 13:45:34.206987 12021 net.cpp:148] Top shape: 24 256 14 14 (1204224)
I0403 13:45:34.207003 12021 net.cpp:156] Memory required for data: 1213249056
I0403 13:45:34.207022 12021 layer_factory.hpp:77] Creating layer inception_4e/relu_1x1
I0403 13:45:34.207042 12021 net.cpp:91] Creating Layer inception_4e/relu_1x1
I0403 13:45:34.207059 12021 net.cpp:425] inception_4e/relu_1x1 <- inception_4e/1x1
I0403 13:45:34.207077 12021 net.cpp:386] inception_4e/relu_1x1 -> inception_4e/1x1 (in-place)
I0403 13:45:34.207377 12021 net.cpp:141] Setting up inception_4e/relu_1x1
I0403 13:45:34.207403 12021 net.cpp:148] Top shape: 24 256 14 14 (1204224)
I0403 13:45:34.207418 12021 net.cpp:156] Memory required for data: 1218065952
I0403 13:45:34.207434 12021 layer_factory.hpp:77] Creating layer inception_4e/3x3_reduce
I0403 13:45:34.207456 12021 net.cpp:91] Creating Layer inception_4e/3x3_reduce
I0403 13:45:34.207473 12021 net.cpp:425] inception_4e/3x3_reduce <- inception_4d/output_inception_4d/output_0_split_2
I0403 13:45:34.207494 12021 net.cpp:399] inception_4e/3x3_reduce -> inception_4e/3x3_reduce
I0403 13:45:34.209643 12021 net.cpp:141] Setting up inception_4e/3x3_reduce
I0403 13:45:34.209673 12021 net.cpp:148] Top shape: 24 160 14 14 (752640)
I0403 13:45:34.209689 12021 net.cpp:156] Memory required for data: 1221076512
I0403 13:45:34.209708 12021 layer_factory.hpp:77] Creating layer inception_4e/relu_3x3_reduce
I0403 13:45:34.209729 12021 net.cpp:91] Creating Layer inception_4e/relu_3x3_reduce
I0403 13:45:34.209746 12021 net.cpp:425] inception_4e/relu_3x3_reduce <- inception_4e/3x3_reduce
I0403 13:45:34.209764 12021 net.cpp:386] inception_4e/relu_3x3_reduce -> inception_4e/3x3_reduce (in-place)
I0403 13:45:34.209961 12021 net.cpp:141] Setting up inception_4e/relu_3x3_reduce
I0403 13:45:34.209988 12021 net.cpp:148] Top shape: 24 160 14 14 (752640)
I0403 13:45:34.210003 12021 net.cpp:156] Memory required for data: 1224087072
I0403 13:45:34.210018 12021 layer_factory.hpp:77] Creating layer inception_4e/3x3
I0403 13:45:34.210041 12021 net.cpp:91] Creating Layer inception_4e/3x3
I0403 13:45:34.210058 12021 net.cpp:425] inception_4e/3x3 <- inception_4e/3x3_reduce
I0403 13:45:34.210078 12021 net.cpp:399] inception_4e/3x3 -> inception_4e/3x3
I0403 13:45:34.215098 12021 net.cpp:141] Setting up inception_4e/3x3
I0403 13:45:34.215142 12021 net.cpp:148] Top shape: 24 320 14 14 (1505280)
I0403 13:45:34.215159 12021 net.cpp:156] Memory required for data: 1230108192
I0403 13:45:34.215178 12021 layer_factory.hpp:77] Creating layer inception_4e/relu_3x3
I0403 13:45:34.215195 12021 net.cpp:91] Creating Layer inception_4e/relu_3x3
I0403 13:45:34.215211 12021 net.cpp:425] inception_4e/relu_3x3 <- inception_4e/3x3
I0403 13:45:34.215230 12021 net.cpp:386] inception_4e/relu_3x3 -> inception_4e/3x3 (in-place)
I0403 13:45:34.215543 12021 net.cpp:141] Setting up inception_4e/relu_3x3
I0403 13:45:34.215569 12021 net.cpp:148] Top shape: 24 320 14 14 (1505280)
I0403 13:45:34.215584 12021 net.cpp:156] Memory required for data: 1236129312
I0403 13:45:34.215598 12021 layer_factory.hpp:77] Creating layer inception_4e/5x5_reduce
I0403 13:45:34.215622 12021 net.cpp:91] Creating Layer inception_4e/5x5_reduce
I0403 13:45:34.215641 12021 net.cpp:425] inception_4e/5x5_reduce <- inception_4d/output_inception_4d/output_0_split_3
I0403 13:45:34.215661 12021 net.cpp:399] inception_4e/5x5_reduce -> inception_4e/5x5_reduce
I0403 13:45:34.216740 12021 net.cpp:141] Setting up inception_4e/5x5_reduce
I0403 13:45:34.216768 12021 net.cpp:148] Top shape: 24 32 14 14 (150528)
I0403 13:45:34.216784 12021 net.cpp:156] Memory required for data: 1236731424
I0403 13:45:34.216802 12021 layer_factory.hpp:77] Creating layer inception_4e/relu_5x5_reduce
I0403 13:45:34.216826 12021 net.cpp:91] Creating Layer inception_4e/relu_5x5_reduce
I0403 13:45:34.216842 12021 net.cpp:425] inception_4e/relu_5x5_reduce <- inception_4e/5x5_reduce
I0403 13:45:34.216861 12021 net.cpp:386] inception_4e/relu_5x5_reduce -> inception_4e/5x5_reduce (in-place)
I0403 13:45:34.217162 12021 net.cpp:141] Setting up inception_4e/relu_5x5_reduce
I0403 13:45:34.217190 12021 net.cpp:148] Top shape: 24 32 14 14 (150528)
I0403 13:45:34.217205 12021 net.cpp:156] Memory required for data: 1237333536
I0403 13:45:34.217219 12021 layer_factory.hpp:77] Creating layer inception_4e/5x5
I0403 13:45:34.217259 12021 net.cpp:91] Creating Layer inception_4e/5x5
I0403 13:45:34.217278 12021 net.cpp:425] inception_4e/5x5 <- inception_4e/5x5_reduce
I0403 13:45:34.217298 12021 net.cpp:399] inception_4e/5x5 -> inception_4e/5x5
I0403 13:45:34.219154 12021 net.cpp:141] Setting up inception_4e/5x5
I0403 13:45:34.219182 12021 net.cpp:148] Top shape: 24 128 14 14 (602112)
I0403 13:45:34.219197 12021 net.cpp:156] Memory required for data: 1239741984
I0403 13:45:34.219215 12021 layer_factory.hpp:77] Creating layer inception_4e/relu_5x5
I0403 13:45:34.219234 12021 net.cpp:91] Creating Layer inception_4e/relu_5x5
I0403 13:45:34.219251 12021 net.cpp:425] inception_4e/relu_5x5 <- inception_4e/5x5
I0403 13:45:34.219269 12021 net.cpp:386] inception_4e/relu_5x5 -> inception_4e/5x5 (in-place)
I0403 13:45:34.219458 12021 net.cpp:141] Setting up inception_4e/relu_5x5
I0403 13:45:34.219482 12021 net.cpp:148] Top shape: 24 128 14 14 (602112)
I0403 13:45:34.219496 12021 net.cpp:156] Memory required for data: 1242150432
I0403 13:45:34.219511 12021 layer_factory.hpp:77] Creating layer inception_4e/pool
I0403 13:45:34.219530 12021 net.cpp:91] Creating Layer inception_4e/pool
I0403 13:45:34.219552 12021 net.cpp:425] inception_4e/pool <- inception_4d/output_inception_4d/output_0_split_4
I0403 13:45:34.219569 12021 net.cpp:399] inception_4e/pool -> inception_4e/pool
I0403 13:45:34.219640 12021 net.cpp:141] Setting up inception_4e/pool
I0403 13:45:34.219662 12021 net.cpp:148] Top shape: 24 528 14 14 (2483712)
I0403 13:45:34.219676 12021 net.cpp:156] Memory required for data: 1252085280
I0403 13:45:34.219691 12021 layer_factory.hpp:77] Creating layer inception_4e/pool_proj
I0403 13:45:34.219712 12021 net.cpp:91] Creating Layer inception_4e/pool_proj
I0403 13:45:34.219728 12021 net.cpp:425] inception_4e/pool_proj <- inception_4e/pool
I0403 13:45:34.219748 12021 net.cpp:399] inception_4e/pool_proj -> inception_4e/pool_proj
I0403 13:45:34.221242 12021 net.cpp:141] Setting up inception_4e/pool_proj
I0403 13:45:34.221282 12021 net.cpp:148] Top shape: 24 128 14 14 (602112)
I0403 13:45:34.221297 12021 net.cpp:156] Memory required for data: 1254493728
I0403 13:45:34.221317 12021 layer_factory.hpp:77] Creating layer inception_4e/relu_pool_proj
I0403 13:45:34.221334 12021 net.cpp:91] Creating Layer inception_4e/relu_pool_proj
I0403 13:45:34.221350 12021 net.cpp:425] inception_4e/relu_pool_proj <- inception_4e/pool_proj
I0403 13:45:34.221370 12021 net.cpp:386] inception_4e/relu_pool_proj -> inception_4e/pool_proj (in-place)
I0403 13:45:34.221665 12021 net.cpp:141] Setting up inception_4e/relu_pool_proj
I0403 13:45:34.221691 12021 net.cpp:148] Top shape: 24 128 14 14 (602112)
I0403 13:45:34.221706 12021 net.cpp:156] Memory required for data: 1256902176
I0403 13:45:34.221721 12021 layer_factory.hpp:77] Creating layer inception_4e/output
I0403 13:45:34.221738 12021 net.cpp:91] Creating Layer inception_4e/output
I0403 13:45:34.221755 12021 net.cpp:425] inception_4e/output <- inception_4e/1x1
I0403 13:45:34.221771 12021 net.cpp:425] inception_4e/output <- inception_4e/3x3
I0403 13:45:34.221787 12021 net.cpp:425] inception_4e/output <- inception_4e/5x5
I0403 13:45:34.221803 12021 net.cpp:425] inception_4e/output <- inception_4e/pool_proj
I0403 13:45:34.221822 12021 net.cpp:399] inception_4e/output -> inception_4e/output
I0403 13:45:34.221873 12021 net.cpp:141] Setting up inception_4e/output
I0403 13:45:34.221895 12021 net.cpp:148] Top shape: 24 832 14 14 (3913728)
I0403 13:45:34.221909 12021 net.cpp:156] Memory required for data: 1272557088
I0403 13:45:34.221925 12021 layer_factory.hpp:77] Creating layer pool4/3x3_s2
I0403 13:45:34.221945 12021 net.cpp:91] Creating Layer pool4/3x3_s2
I0403 13:45:34.221961 12021 net.cpp:425] pool4/3x3_s2 <- inception_4e/output
I0403 13:45:34.221978 12021 net.cpp:399] pool4/3x3_s2 -> pool4/3x3_s2
I0403 13:45:34.222046 12021 net.cpp:141] Setting up pool4/3x3_s2
I0403 13:45:34.222069 12021 net.cpp:148] Top shape: 24 832 7 7 (978432)
I0403 13:45:34.222085 12021 net.cpp:156] Memory required for data: 1276470816
I0403 13:45:34.222100 12021 layer_factory.hpp:77] Creating layer pool4/3x3_s2_pool4/3x3_s2_0_split
I0403 13:45:34.222120 12021 net.cpp:91] Creating Layer pool4/3x3_s2_pool4/3x3_s2_0_split
I0403 13:45:34.222136 12021 net.cpp:425] pool4/3x3_s2_pool4/3x3_s2_0_split <- pool4/3x3_s2
I0403 13:45:34.222152 12021 net.cpp:399] pool4/3x3_s2_pool4/3x3_s2_0_split -> pool4/3x3_s2_pool4/3x3_s2_0_split_0
I0403 13:45:34.222172 12021 net.cpp:399] pool4/3x3_s2_pool4/3x3_s2_0_split -> pool4/3x3_s2_pool4/3x3_s2_0_split_1
I0403 13:45:34.222192 12021 net.cpp:399] pool4/3x3_s2_pool4/3x3_s2_0_split -> pool4/3x3_s2_pool4/3x3_s2_0_split_2
I0403 13:45:34.222211 12021 net.cpp:399] pool4/3x3_s2_pool4/3x3_s2_0_split -> pool4/3x3_s2_pool4/3x3_s2_0_split_3
I0403 13:45:34.222301 12021 net.cpp:141] Setting up pool4/3x3_s2_pool4/3x3_s2_0_split
I0403 13:45:34.222323 12021 net.cpp:148] Top shape: 24 832 7 7 (978432)
I0403 13:45:34.222342 12021 net.cpp:148] Top shape: 24 832 7 7 (978432)
I0403 13:45:34.222358 12021 net.cpp:148] Top shape: 24 832 7 7 (978432)
I0403 13:45:34.222373 12021 net.cpp:148] Top shape: 24 832 7 7 (978432)
I0403 13:45:34.222386 12021 net.cpp:156] Memory required for data: 1292125728
I0403 13:45:34.222401 12021 layer_factory.hpp:77] Creating layer inception_5a/1x1
I0403 13:45:34.222422 12021 net.cpp:91] Creating Layer inception_5a/1x1
I0403 13:45:34.222440 12021 net.cpp:425] inception_5a/1x1 <- pool4/3x3_s2_pool4/3x3_s2_0_split_0
I0403 13:45:34.222460 12021 net.cpp:399] inception_5a/1x1 -> inception_5a/1x1
I0403 13:45:34.225323 12021 net.cpp:141] Setting up inception_5a/1x1
I0403 13:45:34.225354 12021 net.cpp:148] Top shape: 24 256 7 7 (301056)
I0403 13:45:34.225369 12021 net.cpp:156] Memory required for data: 1293329952
I0403 13:45:34.225388 12021 layer_factory.hpp:77] Creating layer inception_5a/relu_1x1
I0403 13:45:34.225409 12021 net.cpp:91] Creating Layer inception_5a/relu_1x1
I0403 13:45:34.225425 12021 net.cpp:425] inception_5a/relu_1x1 <- inception_5a/1x1
I0403 13:45:34.225442 12021 net.cpp:386] inception_5a/relu_1x1 -> inception_5a/1x1 (in-place)
I0403 13:45:34.225761 12021 net.cpp:141] Setting up inception_5a/relu_1x1
I0403 13:45:34.225786 12021 net.cpp:148] Top shape: 24 256 7 7 (301056)
I0403 13:45:34.225805 12021 net.cpp:156] Memory required for data: 1294534176
I0403 13:45:34.225818 12021 layer_factory.hpp:77] Creating layer inception_5a/3x3_reduce
I0403 13:45:34.225841 12021 net.cpp:91] Creating Layer inception_5a/3x3_reduce
I0403 13:45:34.225859 12021 net.cpp:425] inception_5a/3x3_reduce <- pool4/3x3_s2_pool4/3x3_s2_0_split_1
I0403 13:45:34.225880 12021 net.cpp:399] inception_5a/3x3_reduce -> inception_5a/3x3_reduce
I0403 13:45:34.228322 12021 net.cpp:141] Setting up inception_5a/3x3_reduce
I0403 13:45:34.228353 12021 net.cpp:148] Top shape: 24 160 7 7 (188160)
I0403 13:45:34.228369 12021 net.cpp:156] Memory required for data: 1295286816
I0403 13:45:34.228387 12021 layer_factory.hpp:77] Creating layer inception_5a/relu_3x3_reduce
I0403 13:45:34.228405 12021 net.cpp:91] Creating Layer inception_5a/relu_3x3_reduce
I0403 13:45:34.228421 12021 net.cpp:425] inception_5a/relu_3x3_reduce <- inception_5a/3x3_reduce
I0403 13:45:34.228440 12021 net.cpp:386] inception_5a/relu_3x3_reduce -> inception_5a/3x3_reduce (in-place)
I0403 13:45:34.228631 12021 net.cpp:141] Setting up inception_5a/relu_3x3_reduce
I0403 13:45:34.228655 12021 net.cpp:148] Top shape: 24 160 7 7 (188160)
I0403 13:45:34.228670 12021 net.cpp:156] Memory required for data: 1296039456
I0403 13:45:34.228685 12021 layer_factory.hpp:77] Creating layer inception_5a/3x3
I0403 13:45:34.228708 12021 net.cpp:91] Creating Layer inception_5a/3x3
I0403 13:45:34.228724 12021 net.cpp:425] inception_5a/3x3 <- inception_5a/3x3_reduce
I0403 13:45:34.228749 12021 net.cpp:399] inception_5a/3x3 -> inception_5a/3x3
I0403 13:45:34.233798 12021 net.cpp:141] Setting up inception_5a/3x3
I0403 13:45:34.233826 12021 net.cpp:148] Top shape: 24 320 7 7 (376320)
I0403 13:45:34.233842 12021 net.cpp:156] Memory required for data: 1297544736
I0403 13:45:34.233860 12021 layer_factory.hpp:77] Creating layer inception_5a/relu_3x3
I0403 13:45:34.233881 12021 net.cpp:91] Creating Layer inception_5a/relu_3x3
I0403 13:45:34.233898 12021 net.cpp:425] inception_5a/relu_3x3 <- inception_5a/3x3
I0403 13:45:34.233916 12021 net.cpp:386] inception_5a/relu_3x3 -> inception_5a/3x3 (in-place)
I0403 13:45:34.234220 12021 net.cpp:141] Setting up inception_5a/relu_3x3
I0403 13:45:34.234246 12021 net.cpp:148] Top shape: 24 320 7 7 (376320)
I0403 13:45:34.234261 12021 net.cpp:156] Memory required for data: 1299050016
I0403 13:45:34.234275 12021 layer_factory.hpp:77] Creating layer inception_5a/5x5_reduce
I0403 13:45:34.234299 12021 net.cpp:91] Creating Layer inception_5a/5x5_reduce
I0403 13:45:34.234315 12021 net.cpp:425] inception_5a/5x5_reduce <- pool4/3x3_s2_pool4/3x3_s2_0_split_2
I0403 13:45:34.234340 12021 net.cpp:399] inception_5a/5x5_reduce -> inception_5a/5x5_reduce
I0403 13:45:34.235512 12021 net.cpp:141] Setting up inception_5a/5x5_reduce
I0403 13:45:34.235546 12021 net.cpp:148] Top shape: 24 32 7 7 (37632)
I0403 13:45:34.235576 12021 net.cpp:156] Memory required for data: 1299200544
I0403 13:45:34.235595 12021 layer_factory.hpp:77] Creating layer inception_5a/relu_5x5_reduce
I0403 13:45:34.235615 12021 net.cpp:91] Creating Layer inception_5a/relu_5x5_reduce
I0403 13:45:34.235632 12021 net.cpp:425] inception_5a/relu_5x5_reduce <- inception_5a/5x5_reduce
I0403 13:45:34.235649 12021 net.cpp:386] inception_5a/relu_5x5_reduce -> inception_5a/5x5_reduce (in-place)
I0403 13:45:34.235949 12021 net.cpp:141] Setting up inception_5a/relu_5x5_reduce
I0403 13:45:34.235976 12021 net.cpp:148] Top shape: 24 32 7 7 (37632)
I0403 13:45:34.235991 12021 net.cpp:156] Memory required for data: 1299351072
I0403 13:45:34.236006 12021 layer_factory.hpp:77] Creating layer inception_5a/5x5
I0403 13:45:34.236028 12021 net.cpp:91] Creating Layer inception_5a/5x5
I0403 13:45:34.236045 12021 net.cpp:425] inception_5a/5x5 <- inception_5a/5x5_reduce
I0403 13:45:34.236066 12021 net.cpp:399] inception_5a/5x5 -> inception_5a/5x5
I0403 13:45:34.237850 12021 net.cpp:141] Setting up inception_5a/5x5
I0403 13:45:34.237891 12021 net.cpp:148] Top shape: 24 128 7 7 (150528)
I0403 13:45:34.237908 12021 net.cpp:156] Memory required for data: 1299953184
I0403 13:45:34.237927 12021 layer_factory.hpp:77] Creating layer inception_5a/relu_5x5
I0403 13:45:34.237948 12021 net.cpp:91] Creating Layer inception_5a/relu_5x5
I0403 13:45:34.237967 12021 net.cpp:425] inception_5a/relu_5x5 <- inception_5a/5x5
I0403 13:45:34.237983 12021 net.cpp:386] inception_5a/relu_5x5 -> inception_5a/5x5 (in-place)
I0403 13:45:34.238180 12021 net.cpp:141] Setting up inception_5a/relu_5x5
I0403 13:45:34.238205 12021 net.cpp:148] Top shape: 24 128 7 7 (150528)
I0403 13:45:34.238220 12021 net.cpp:156] Memory required for data: 1300555296
I0403 13:45:34.238234 12021 layer_factory.hpp:77] Creating layer inception_5a/pool
I0403 13:45:34.238255 12021 net.cpp:91] Creating Layer inception_5a/pool
I0403 13:45:34.238273 12021 net.cpp:425] inception_5a/pool <- pool4/3x3_s2_pool4/3x3_s2_0_split_3
I0403 13:45:34.238292 12021 net.cpp:399] inception_5a/pool -> inception_5a/pool
I0403 13:45:34.238366 12021 net.cpp:141] Setting up inception_5a/pool
I0403 13:45:34.238390 12021 net.cpp:148] Top shape: 24 832 7 7 (978432)
I0403 13:45:34.238405 12021 net.cpp:156] Memory required for data: 1304469024
I0403 13:45:34.238420 12021 layer_factory.hpp:77] Creating layer inception_5a/pool_proj
I0403 13:45:34.238445 12021 net.cpp:91] Creating Layer inception_5a/pool_proj
I0403 13:45:34.238463 12021 net.cpp:425] inception_5a/pool_proj <- inception_5a/pool
I0403 13:45:34.238483 12021 net.cpp:399] inception_5a/pool_proj -> inception_5a/pool_proj
I0403 13:45:34.240859 12021 net.cpp:141] Setting up inception_5a/pool_proj
I0403 13:45:34.240890 12021 net.cpp:148] Top shape: 24 128 7 7 (150528)
I0403 13:45:34.240906 12021 net.cpp:156] Memory required for data: 1305071136
I0403 13:45:34.240924 12021 layer_factory.hpp:77] Creating layer inception_5a/relu_pool_proj
I0403 13:45:34.240942 12021 net.cpp:91] Creating Layer inception_5a/relu_pool_proj
I0403 13:45:34.240959 12021 net.cpp:425] inception_5a/relu_pool_proj <- inception_5a/pool_proj
I0403 13:45:34.240979 12021 net.cpp:386] inception_5a/relu_pool_proj -> inception_5a/pool_proj (in-place)
I0403 13:45:34.241283 12021 net.cpp:141] Setting up inception_5a/relu_pool_proj
I0403 13:45:34.241309 12021 net.cpp:148] Top shape: 24 128 7 7 (150528)
I0403 13:45:34.241336 12021 net.cpp:156] Memory required for data: 1305673248
I0403 13:45:34.241351 12021 layer_factory.hpp:77] Creating layer inception_5a/output
I0403 13:45:34.241369 12021 net.cpp:91] Creating Layer inception_5a/output
I0403 13:45:34.241385 12021 net.cpp:425] inception_5a/output <- inception_5a/1x1
I0403 13:45:34.241402 12021 net.cpp:425] inception_5a/output <- inception_5a/3x3
I0403 13:45:34.241418 12021 net.cpp:425] inception_5a/output <- inception_5a/5x5
I0403 13:45:34.241433 12021 net.cpp:425] inception_5a/output <- inception_5a/pool_proj
I0403 13:45:34.241452 12021 net.cpp:399] inception_5a/output -> inception_5a/output
I0403 13:45:34.241503 12021 net.cpp:141] Setting up inception_5a/output
I0403 13:45:34.241528 12021 net.cpp:148] Top shape: 24 832 7 7 (978432)
I0403 13:45:34.241549 12021 net.cpp:156] Memory required for data: 1309586976
I0403 13:45:34.241565 12021 layer_factory.hpp:77] Creating layer inception_5a/output_inception_5a/output_0_split
I0403 13:45:34.241582 12021 net.cpp:91] Creating Layer inception_5a/output_inception_5a/output_0_split
I0403 13:45:34.241597 12021 net.cpp:425] inception_5a/output_inception_5a/output_0_split <- inception_5a/output
I0403 13:45:34.241614 12021 net.cpp:399] inception_5a/output_inception_5a/output_0_split -> inception_5a/output_inception_5a/output_0_split_0
I0403 13:45:34.241634 12021 net.cpp:399] inception_5a/output_inception_5a/output_0_split -> inception_5a/output_inception_5a/output_0_split_1
I0403 13:45:34.241657 12021 net.cpp:399] inception_5a/output_inception_5a/output_0_split -> inception_5a/output_inception_5a/output_0_split_2
I0403 13:45:34.241678 12021 net.cpp:399] inception_5a/output_inception_5a/output_0_split -> inception_5a/output_inception_5a/output_0_split_3
I0403 13:45:34.241792 12021 net.cpp:141] Setting up inception_5a/output_inception_5a/output_0_split
I0403 13:45:34.241816 12021 net.cpp:148] Top shape: 24 832 7 7 (978432)
I0403 13:45:34.241832 12021 net.cpp:148] Top shape: 24 832 7 7 (978432)
I0403 13:45:34.241847 12021 net.cpp:148] Top shape: 24 832 7 7 (978432)
I0403 13:45:34.241863 12021 net.cpp:148] Top shape: 24 832 7 7 (978432)
I0403 13:45:34.241876 12021 net.cpp:156] Memory required for data: 1325241888
I0403 13:45:34.241891 12021 layer_factory.hpp:77] Creating layer inception_5b/1x1
I0403 13:45:34.241914 12021 net.cpp:91] Creating Layer inception_5b/1x1
I0403 13:45:34.241930 12021 net.cpp:425] inception_5b/1x1 <- inception_5a/output_inception_5a/output_0_split_0
I0403 13:45:34.241951 12021 net.cpp:399] inception_5b/1x1 -> inception_5b/1x1
I0403 13:45:34.245820 12021 net.cpp:141] Setting up inception_5b/1x1
I0403 13:45:34.245851 12021 net.cpp:148] Top shape: 24 384 7 7 (451584)
I0403 13:45:34.245868 12021 net.cpp:156] Memory required for data: 1327048224
I0403 13:45:34.245887 12021 layer_factory.hpp:77] Creating layer inception_5b/relu_1x1
I0403 13:45:34.245906 12021 net.cpp:91] Creating Layer inception_5b/relu_1x1
I0403 13:45:34.245923 12021 net.cpp:425] inception_5b/relu_1x1 <- inception_5b/1x1
I0403 13:45:34.245942 12021 net.cpp:386] inception_5b/relu_1x1 -> inception_5b/1x1 (in-place)
I0403 13:45:34.246264 12021 net.cpp:141] Setting up inception_5b/relu_1x1
I0403 13:45:34.246294 12021 net.cpp:148] Top shape: 24 384 7 7 (451584)
I0403 13:45:34.246310 12021 net.cpp:156] Memory required for data: 1328854560
I0403 13:45:34.246325 12021 layer_factory.hpp:77] Creating layer inception_5b/3x3_reduce
I0403 13:45:34.246348 12021 net.cpp:91] Creating Layer inception_5b/3x3_reduce
I0403 13:45:34.246367 12021 net.cpp:425] inception_5b/3x3_reduce <- inception_5a/output_inception_5a/output_0_split_1
I0403 13:45:34.246387 12021 net.cpp:399] inception_5b/3x3_reduce -> inception_5b/3x3_reduce
I0403 13:45:34.249162 12021 net.cpp:141] Setting up inception_5b/3x3_reduce
I0403 13:45:34.249192 12021 net.cpp:148] Top shape: 24 192 7 7 (225792)
I0403 13:45:34.249209 12021 net.cpp:156] Memory required for data: 1329757728
I0403 13:45:34.249229 12021 layer_factory.hpp:77] Creating layer inception_5b/relu_3x3_reduce
I0403 13:45:34.249248 12021 net.cpp:91] Creating Layer inception_5b/relu_3x3_reduce
I0403 13:45:34.249267 12021 net.cpp:425] inception_5b/relu_3x3_reduce <- inception_5b/3x3_reduce
I0403 13:45:34.249287 12021 net.cpp:386] inception_5b/relu_3x3_reduce -> inception_5b/3x3_reduce (in-place)
I0403 13:45:34.249483 12021 net.cpp:141] Setting up inception_5b/relu_3x3_reduce
I0403 13:45:34.249511 12021 net.cpp:148] Top shape: 24 192 7 7 (225792)
I0403 13:45:34.249526 12021 net.cpp:156] Memory required for data: 1330660896
I0403 13:45:34.249544 12021 layer_factory.hpp:77] Creating layer inception_5b/3x3
I0403 13:45:34.249569 12021 net.cpp:91] Creating Layer inception_5b/3x3
I0403 13:45:34.249588 12021 net.cpp:425] inception_5b/3x3 <- inception_5b/3x3_reduce
I0403 13:45:34.249608 12021 net.cpp:399] inception_5b/3x3 -> inception_5b/3x3
I0403 13:45:34.256463 12021 net.cpp:141] Setting up inception_5b/3x3
I0403 13:45:34.256492 12021 net.cpp:148] Top shape: 24 384 7 7 (451584)
I0403 13:45:34.256508 12021 net.cpp:156] Memory required for data: 1332467232
I0403 13:45:34.256526 12021 layer_factory.hpp:77] Creating layer inception_5b/relu_3x3
I0403 13:45:34.256548 12021 net.cpp:91] Creating Layer inception_5b/relu_3x3
I0403 13:45:34.256566 12021 net.cpp:425] inception_5b/relu_3x3 <- inception_5b/3x3
I0403 13:45:34.256584 12021 net.cpp:386] inception_5b/relu_3x3 -> inception_5b/3x3 (in-place)
I0403 13:45:34.256888 12021 net.cpp:141] Setting up inception_5b/relu_3x3
I0403 13:45:34.256916 12021 net.cpp:148] Top shape: 24 384 7 7 (451584)
I0403 13:45:34.256929 12021 net.cpp:156] Memory required for data: 1334273568
I0403 13:45:34.256944 12021 layer_factory.hpp:77] Creating layer inception_5b/5x5_reduce
I0403 13:45:34.256983 12021 net.cpp:91] Creating Layer inception_5b/5x5_reduce
I0403 13:45:34.257002 12021 net.cpp:425] inception_5b/5x5_reduce <- inception_5a/output_inception_5a/output_0_split_2
I0403 13:45:34.257025 12021 net.cpp:399] inception_5b/5x5_reduce -> inception_5b/5x5_reduce
I0403 13:45:34.258270 12021 net.cpp:141] Setting up inception_5b/5x5_reduce
I0403 13:45:34.258297 12021 net.cpp:148] Top shape: 24 48 7 7 (56448)
I0403 13:45:34.258312 12021 net.cpp:156] Memory required for data: 1334499360
I0403 13:45:34.258330 12021 layer_factory.hpp:77] Creating layer inception_5b/relu_5x5_reduce
I0403 13:45:34.258347 12021 net.cpp:91] Creating Layer inception_5b/relu_5x5_reduce
I0403 13:45:34.258363 12021 net.cpp:425] inception_5b/relu_5x5_reduce <- inception_5b/5x5_reduce
I0403 13:45:34.258383 12021 net.cpp:386] inception_5b/relu_5x5_reduce -> inception_5b/5x5_reduce (in-place)
I0403 13:45:34.258766 12021 net.cpp:141] Setting up inception_5b/relu_5x5_reduce
I0403 13:45:34.258792 12021 net.cpp:148] Top shape: 24 48 7 7 (56448)
I0403 13:45:34.258808 12021 net.cpp:156] Memory required for data: 1334725152
I0403 13:45:34.258823 12021 layer_factory.hpp:77] Creating layer inception_5b/5x5
I0403 13:45:34.258843 12021 net.cpp:91] Creating Layer inception_5b/5x5
I0403 13:45:34.258860 12021 net.cpp:425] inception_5b/5x5 <- inception_5b/5x5_reduce
I0403 13:45:34.258879 12021 net.cpp:399] inception_5b/5x5 -> inception_5b/5x5
I0403 13:45:34.260951 12021 net.cpp:141] Setting up inception_5b/5x5
I0403 13:45:34.260977 12021 net.cpp:148] Top shape: 24 128 7 7 (150528)
I0403 13:45:34.260993 12021 net.cpp:156] Memory required for data: 1335327264
I0403 13:45:34.261010 12021 layer_factory.hpp:77] Creating layer inception_5b/relu_5x5
I0403 13:45:34.261029 12021 net.cpp:91] Creating Layer inception_5b/relu_5x5
I0403 13:45:34.261046 12021 net.cpp:425] inception_5b/relu_5x5 <- inception_5b/5x5
I0403 13:45:34.261062 12021 net.cpp:386] inception_5b/relu_5x5 -> inception_5b/5x5 (in-place)
I0403 13:45:34.261250 12021 net.cpp:141] Setting up inception_5b/relu_5x5
I0403 13:45:34.261272 12021 net.cpp:148] Top shape: 24 128 7 7 (150528)
I0403 13:45:34.261289 12021 net.cpp:156] Memory required for data: 1335929376
I0403 13:45:34.261304 12021 layer_factory.hpp:77] Creating layer inception_5b/pool
I0403 13:45:34.261322 12021 net.cpp:91] Creating Layer inception_5b/pool
I0403 13:45:34.261337 12021 net.cpp:425] inception_5b/pool <- inception_5a/output_inception_5a/output_0_split_3
I0403 13:45:34.261355 12021 net.cpp:399] inception_5b/pool -> inception_5b/pool
I0403 13:45:34.261426 12021 net.cpp:141] Setting up inception_5b/pool
I0403 13:45:34.261448 12021 net.cpp:148] Top shape: 24 832 7 7 (978432)
I0403 13:45:34.261462 12021 net.cpp:156] Memory required for data: 1339843104
I0403 13:45:34.261476 12021 layer_factory.hpp:77] Creating layer inception_5b/pool_proj
I0403 13:45:34.261497 12021 net.cpp:91] Creating Layer inception_5b/pool_proj
I0403 13:45:34.261513 12021 net.cpp:425] inception_5b/pool_proj <- inception_5b/pool
I0403 13:45:34.261539 12021 net.cpp:399] inception_5b/pool_proj -> inception_5b/pool_proj
I0403 13:45:34.263885 12021 net.cpp:141] Setting up inception_5b/pool_proj
I0403 13:45:34.263914 12021 net.cpp:148] Top shape: 24 128 7 7 (150528)
I0403 13:45:34.263929 12021 net.cpp:156] Memory required for data: 1340445216
I0403 13:45:34.263948 12021 layer_factory.hpp:77] Creating layer inception_5b/relu_pool_proj
I0403 13:45:34.263967 12021 net.cpp:91] Creating Layer inception_5b/relu_pool_proj
I0403 13:45:34.263985 12021 net.cpp:425] inception_5b/relu_pool_proj <- inception_5b/pool_proj
I0403 13:45:34.264014 12021 net.cpp:386] inception_5b/relu_pool_proj -> inception_5b/pool_proj (in-place)
I0403 13:45:34.264307 12021 net.cpp:141] Setting up inception_5b/relu_pool_proj
I0403 13:45:34.264333 12021 net.cpp:148] Top shape: 24 128 7 7 (150528)
I0403 13:45:34.264348 12021 net.cpp:156] Memory required for data: 1341047328
I0403 13:45:34.264363 12021 layer_factory.hpp:77] Creating layer inception_5b/output
I0403 13:45:34.264379 12021 net.cpp:91] Creating Layer inception_5b/output
I0403 13:45:34.264410 12021 net.cpp:425] inception_5b/output <- inception_5b/1x1
I0403 13:45:34.264428 12021 net.cpp:425] inception_5b/output <- inception_5b/3x3
I0403 13:45:34.264444 12021 net.cpp:425] inception_5b/output <- inception_5b/5x5
I0403 13:45:34.264459 12021 net.cpp:425] inception_5b/output <- inception_5b/pool_proj
I0403 13:45:34.264478 12021 net.cpp:399] inception_5b/output -> inception_5b/output
I0403 13:45:34.264529 12021 net.cpp:141] Setting up inception_5b/output
I0403 13:45:34.264565 12021 net.cpp:148] Top shape: 24 1024 7 7 (1204224)
I0403 13:45:34.264582 12021 net.cpp:156] Memory required for data: 1345864224
I0403 13:45:34.264596 12021 layer_factory.hpp:77] Creating layer pool5/7x7_s1
I0403 13:45:34.264613 12021 net.cpp:91] Creating Layer pool5/7x7_s1
I0403 13:45:34.264628 12021 net.cpp:425] pool5/7x7_s1 <- inception_5b/output
I0403 13:45:34.264649 12021 net.cpp:399] pool5/7x7_s1 -> pool5/7x7_s1
I0403 13:45:34.264858 12021 net.cpp:141] Setting up pool5/7x7_s1
I0403 13:45:34.264883 12021 net.cpp:148] Top shape: 24 1024 1 1 (24576)
I0403 13:45:34.264897 12021 net.cpp:156] Memory required for data: 1345962528
I0403 13:45:34.264912 12021 layer_factory.hpp:77] Creating layer pool5/drop_7x7_s1
I0403 13:45:34.264930 12021 net.cpp:91] Creating Layer pool5/drop_7x7_s1
I0403 13:45:34.264945 12021 net.cpp:425] pool5/drop_7x7_s1 <- pool5/7x7_s1
I0403 13:45:34.264967 12021 net.cpp:386] pool5/drop_7x7_s1 -> pool5/7x7_s1 (in-place)
I0403 13:45:34.265017 12021 net.cpp:141] Setting up pool5/drop_7x7_s1
I0403 13:45:34.265041 12021 net.cpp:148] Top shape: 24 1024 1 1 (24576)
I0403 13:45:34.265056 12021 net.cpp:156] Memory required for data: 1346060832
I0403 13:45:34.265071 12021 layer_factory.hpp:77] Creating layer loss3/classifier_plantvillage
I0403 13:45:34.265089 12021 net.cpp:91] Creating Layer loss3/classifier_plantvillage
I0403 13:45:34.265105 12021 net.cpp:425] loss3/classifier_plantvillage <- pool5/7x7_s1
I0403 13:45:34.265125 12021 net.cpp:399] loss3/classifier_plantvillage -> loss3/classifier_plantvillage
I0403 13:45:34.265561 12021 net.cpp:141] Setting up loss3/classifier_plantvillage
I0403 13:45:34.265588 12021 net.cpp:148] Top shape: 24 38 (912)
I0403 13:45:34.265604 12021 net.cpp:156] Memory required for data: 1346064480
I0403 13:45:34.265622 12021 layer_factory.hpp:77] Creating layer loss3/classifier_plantvillage_loss3/classifier_plantvillage_0_split
I0403 13:45:34.265640 12021 net.cpp:91] Creating Layer loss3/classifier_plantvillage_loss3/classifier_plantvillage_0_split
I0403 13:45:34.265655 12021 net.cpp:425] loss3/classifier_plantvillage_loss3/classifier_plantvillage_0_split <- loss3/classifier_plantvillage
I0403 13:45:34.265672 12021 net.cpp:399] loss3/classifier_plantvillage_loss3/classifier_plantvillage_0_split -> loss3/classifier_plantvillage_loss3/classifier_plantvillage_0_split_0
I0403 13:45:34.265692 12021 net.cpp:399] loss3/classifier_plantvillage_loss3/classifier_plantvillage_0_split -> loss3/classifier_plantvillage_loss3/classifier_plantvillage_0_split_1
I0403 13:45:34.265727 12021 net.cpp:399] loss3/classifier_plantvillage_loss3/classifier_plantvillage_0_split -> loss3/classifier_plantvillage_loss3/classifier_plantvillage_0_split_2
I0403 13:45:34.265748 12021 net.cpp:399] loss3/classifier_plantvillage_loss3/classifier_plantvillage_0_split -> loss3/classifier_plantvillage_loss3/classifier_plantvillage_0_split_3
I0403 13:45:34.265847 12021 net.cpp:141] Setting up loss3/classifier_plantvillage_loss3/classifier_plantvillage_0_split
I0403 13:45:34.265869 12021 net.cpp:148] Top shape: 24 38 (912)
I0403 13:45:34.265885 12021 net.cpp:148] Top shape: 24 38 (912)
I0403 13:45:34.265899 12021 net.cpp:148] Top shape: 24 38 (912)
I0403 13:45:34.265914 12021 net.cpp:148] Top shape: 24 38 (912)
I0403 13:45:34.265928 12021 net.cpp:156] Memory required for data: 1346079072
I0403 13:45:34.265941 12021 layer_factory.hpp:77] Creating layer loss1/loss
I0403 13:45:34.265964 12021 net.cpp:91] Creating Layer loss1/loss
I0403 13:45:34.265981 12021 net.cpp:425] loss1/loss <- loss1/classifier_plantvillage_loss1/classifier_plantvillage_0_split_0
I0403 13:45:34.266011 12021 net.cpp:425] loss1/loss <- label_data_1_split_0
…
