…
I0403 14:29:51.210024 13336 net.cpp:313] The NetState phase (1) differed from the phase (0) specified by a rule in layer data
I0403 14:29:51.211115 13336 net.cpp:49] Initializing net from parameters: 
state {
  phase: TEST
}
layer {
  name: "data"
  type: "Data"
  top: "data"
  top: "label"
  include {
    phase: TEST
  }
  transform_param {
    mirror: false
    crop_size: 224
    mean_file: "/home/mohanty/data/final_dataset/lmdb/segmented-20-80/mean.binaryproto"
  }
  data_param {
    source: "/home/mohanty/data/final_dataset/lmdb/segmented-20-80/test_db"
    batch_size: 24
    backend: LMDB
  }
}
layer {
  name: "conv1/7x7_s2"
  type: "Convolution"
  bottom: "data"
  top: "conv1/7x7_s2"
  param {
    lr_mult: 1
    decay_mult: 1
  }
  param {
    lr_mult: 2
    decay_mult: 0
  }
  convolution_param {
    num_output: 64
    pad: 3
    kernel_size: 7
    stride: 2
    weight_filler {
      type: "xavier"
      std: 0.1
    }
    bias_filler {
      type: "constant"
      value: 0.2
    }
  }
}
layer {
  name: "conv1/relu_7x7"
  type: "ReLU"
  bottom: "conv1/7x7_s2"
  top: "conv1/7x7_s2"
}
layer {
  name: "pool1/3x3_s2"
  type: "Pooling"
  bottom: "conv1/7x7_s2"
  top: "pool1/3x3_s2"
  pooling_param {
    pool: MAX
    kernel_size: 3
    stride: 2
  }
}
layer {
  name: "pool1/norm1"
  type: "LRN"
  bottom: "pool1/3x3_s2"
  top: "pool1/norm1"
  lrn_param {
    local_size: 5
    alpha: 0.0001
    beta: 0.75
  }
}
layer {
  name: "conv2/3x3_reduce"
  type: "Convolution"
  bottom: "pool1/norm1"
  top: "conv2/3x3_reduce"
  param {
    lr_mult: 1
    decay_mult: 1
  }
  param {
    lr_mult: 2
    decay_mult: 0
  }
  convolution_param {
    num_output: 64
    kernel_size: 1
    weight_filler {
      type: "xavier"
      std: 0.1
    }
    bias_filler {
      type: "constant"
      value: 0.2
    }
  }
}
layer {
  name: "conv2/relu_3x3_reduce"
  type: "ReLU"
  bottom: "conv2/3x3_reduce"
  top: "conv2/3x3_reduce"
}
layer {
  name: "conv2/3x3"
  type: "Convolution"
  bottom: "conv2/3x3_reduce"
  top: "conv2/3x3"
  param {
    lr_mult: 1
    decay_mult: 1
  }
  param {
    lr_mult: 2
    decay_mult: 0
  }
  convolution_param {
    num_output: 192
    pad: 1
    kernel_size: 3
    weight_filler {
      type: "xavier"
      std: 0.03
    }
    bias_filler {
      type: "constant"
      value: 0.2
    }
  }
}
layer {
  name: "conv2/relu_3x3"
  type: "ReLU"
  bottom: "conv2/3x3"
  top: "conv2/3x3"
}
layer {
  name: "conv2/norm2"
  type: "LRN"
  bottom: "conv2/3x3"
  top: "conv2/norm2"
  lrn_param {
    local_size: 5
    alpha: 0.0001
    beta: 0.75
  }
}
layer {
  name: "pool2/3x3_s2"
  type: "Pooling"
  bottom: "conv2/norm2"
  top: "pool2/3x3_s2"
  pooling_param {
    pool: MAX
    kernel_size: 3
    stride: 2
  }
}
layer {
  name: "inception_3a/1x1"
  type: "Convolution"
  bottom: "pool2/3x3_s2"
  top: "inception_3a/1x1"
  param {
    lr_mult: 1
    decay_mult: 1
  }
  param {
    lr_mult: 2
    decay_mult: 0
  }
  convolution_param {
    num_output: 64
    kernel_size: 1
    weight_filler {
      type: "xavier"
      std: 0.03
    }
    bias_filler {
      type: "constant"
      value: 0.2
    }
  }
}
layer {
  name: "inception_3a/relu_1x1"
  type: "ReLU"
  bottom: "inception_3a/1x1"
  top: "inception_3a/1x1"
}
layer {
  name: "inception_3a/3x3_reduce"
  type: "Convolution"
  bottom: "pool2/3x3_s2"
  top: "inception_3a/3x3_reduce"
  param {
    lr_mult: 1
    decay_mult: 1
  }
  param {
    lr_mult: 2
    decay_mult: 0
  }
  convolution_param {
    num_output: 96
    kernel_size: 1
    weight_filler {
      type: "xavier"
      std: 0.09
    }
    bias_filler {
      type: "constant"
      value: 0.2
    }
  }
}
layer {
  name: "inception_3a/relu_3x3_reduce"
  type: "ReLU"
  bottom: "inception_3a/3x3_reduce"
  top: "inception_3a/3x3_reduce"
}
layer {
  name: "inception_3a/3x3"
  type: "Convolution"
  bottom: "inception_3a/3x3_reduce"
  top: "inception_3a/3x3"
  param {
    lr_mult: 1
    decay_mult: 1
  }
  param {
    lr_mult: 2
    decay_mult: 0
  }
  convolution_param {
    num_output: 128
    pad: 1
    kernel_size: 3
    weight_filler {
      type: "xavier"
      std: 0.03
    }
    bias_filler {
      type: "constant"
      value: 0.2
    }
  }
}
layer {
  name: "inception_3a/relu_3x3"
  type: "ReLU"
  bottom: "inception_3a/3x3"
  top: "inception_3a/3x3"
}
layer {
  name: "inception_3a/5x5_reduce"
  type: "Convolution"
  bottom: "pool2/3x3_s2"
  top: "inception_3a/5x5_reduce"
  param {
    lr_mult: 1
    decay_mult: 1
  }
  param {
    lr_mult: 2
    decay_mult: 0
  }
  convolution_param {
    num_output: 16
    kernel_size: 1
    weight_filler {
      type: "xavier"
      std: 0.2
    }
    bias_filler {
      type: "constant"
      value: 0.2
    }
  }
}
layer {
  name: "inception_3a/relu_5x5_reduce"
  type: "ReLU"
  bottom: "inception_3a/5x5_reduce"
  top: "inception_3a/5x5_reduce"
}
layer {
  name: "inception_3a/5x5"
  type: "Convolution"
  bottom: "inception_3a/5x5_reduce"
  top: "inception_3a/5x5"
  param {
    lr_mult: 1
    decay_mult: 1
  }
  param {
    lr_mult: 2
    decay_mult: 0
  }
  convolution_param {
    num_output: 32
    pad: 2
    kernel_size: 5
    weight_filler {
      type: "xavier"
      std: 0.03
    }
    bias_filler {
      type: "constant"
      value: 0.2
    }
  }
}
layer {
  name: "inception_3a/relu_5x5"
  type: "ReLU"
  bottom: "inception_3a/5x5"
  top: "inception_3a/5x5"
}
layer {
  name: "inception_3a/pool"
  type: "Pooling"
  bottom: "pool2/3x3_s2"
  top: "inception_3a/pool"
  pooling_param {
    pool: MAX
    kernel_size: 3
    stride: 1
    pad: 1
  }
}
layer {
  name: "inception_3a/pool_proj"
  type: "Convolution"
  bottom: "inception_3a/pool"
  top: "inception_3a/pool_proj"
  param {
    lr_mult: 1
    decay_mult: 1
  }
  param {
    lr_mult: 2
    decay_mult: 0
  }
  convolution_param {
    num_output: 32
    kernel_size: 1
    weight_filler {
      type: "xavier"
      std: 0.1
    }
    bias_filler {
      type: "constant"
      value: 0.2
    }
  }
}
layer {
  name: "inception_3a/relu_pool_proj"
  type: "ReLU"
  bottom: "inception_3a/pool_proj"
  top: "inception_3a/pool_proj"
}
layer {
  name: "inception_3a/output"
  type: "Concat"
  bottom: "inception_3a/1x1"
  bottom: "inception_3a/3x3"
  bottom: "inception_3a/5x5"
  bottom: "inception_3a/pool_proj"
  top: "inception_3a/output"
}
layer {
  name: "inception_3b/1x1"
  type: "Convolution"
  bottom: "inception_3a/output"
  top: "inception_3b/1x1"
  param {
    lr_mult: 1
    decay_mult: 1
  }
  param {
    lr_mult: 2
    decay_mult: 0
  }
  convolution_param {
    num_output: 128
    kernel_size: 1
    weight_filler {
      type: "xavier"
      std: 0.03
    }
    bias_filler {
      type: "constant"
      value: 0.2
    }
  }
}
layer {
  name: "inception_3b/relu_1x1"
  type: "ReLU"
  bottom: "inception_3b/1x1"
  top: "inception_3b/1x1"
}
layer {
  name: "inception_3b/3x3_reduce"
  type: "Convolution"
  bottom: "inception_3a/output"
  top: "inception_3b/3x3_reduce"
  param {
    lr_mult: 1
    decay_mult: 1
  }
  param {
    lr_mult: 2
    decay_mult: 0
  }
  convolution_param {
    num_output: 128
    kernel_size: 1
    weight_filler {
      type: "xavier"
      std: 0.09
    }
    bias_filler {
      type: "constant"
      value: 0.2
    }
  }
}
layer {
  name: "inception_3b/relu_3x3_reduce"
  type: "ReLU"
  bottom: "inception_3b/3x3_reduce"
  top: "inception_3b/3x3_reduce"
}
layer {
  name: "inception_3b/3x3"
  type: "Convolution"
  bottom: "inception_3b/3x3_reduce"
  top: "inception_3b/3x3"
  param {
    lr_mult: 1
    decay_mult: 1
  }
  param {
    lr_mult: 2
    decay_mult: 0
  }
  convolution_param {
    num_output: 192
    pad: 1
    kernel_size: 3
    weight_filler {
      type: "xavier"
      std: 0.03
    }
    bias_filler {
      type: "constant"
      value: 0.2
    }
  }
}
layer {
  name: "inception_3b/relu_3x3"
  type: "ReLU"
  bottom: "inception_3b/3x3"
  top: "inception_3b/3x3"
}
layer {
  name: "inception_3b/5x5_reduce"
  type: "Convolution"
  bottom: "inception_3a/output"
  top: "inception_3b/5x5_reduce"
  param {
    lr_mult: 1
    decay_mult: 1
  }
  param {
    lr_mult: 2
    decay_mult: 0
  }
  convolution_param {
    num_output: 32
    kernel_size: 1
    weight_filler {
      type: "xavier"
      std: 0.2
    }
    bias_filler {
      type: "constant"
      value: 0.2
    }
  }
}
layer {
  name: "inception_3b/relu_5x5_reduce"
  type: "ReLU"
  bottom: "inception_3b/5x5_reduce"
  top: "inception_3b/5x5_reduce"
}
layer {
  name: "inception_3b/5x5"
  type: "Convolution"
  bottom: "inception_3b/5x5_reduce"
  top: "inception_3b/5x5"
  param {
    lr_mult: 1
    decay_mult: 1
  }
  param {
    lr_mult: 2
    decay_mult: 0
  }
  convolution_param {
    num_output: 96
    pad: 2
    kernel_size: 5
    weight_filler {
      type: "xavier"
      std: 0.03
    }
    bias_filler {
      type: "constant"
      value: 0.2
    }
  }
}
layer {
  name: "inception_3b/relu_5x5"
  type: "ReLU"
  bottom: "inception_3b/5x5"
  top: "inception_3b/5x5"
}
layer {
  name: "inception_3b/pool"
  type: "Pooling"
  bottom: "inception_3a/output"
  top: "inception_3b/pool"
  pooling_param {
    pool: MAX
    kernel_size: 3
    stride: 1
    pad: 1
  }
}
layer {
  name: "inception_3b/pool_proj"
  type: "Convolution"
  bottom: "inception_3b/pool"
  top: "inception_3b/pool_proj"
  param {
    lr_mult: 1
    decay_mult: 1
  }
  param {
    lr_mult: 2
    decay_mult: 0
  }
  convolution_param {
    num_output: 64
    kernel_size: 1
    weight_filler {
      type: "xavier"
      std: 0.1
    }
    bias_filler {
      type: "constant"
      value: 0.2
    }
  }
}
layer {
  name: "inception_3b/relu_pool_proj"
  type: "ReLU"
  bottom: "inception_3b/pool_proj"
  top: "inception_3b/pool_proj"
}
layer {
  name: "inception_3b/output"
  type: "Concat"
  bottom: "inception_3b/1x1"
  bottom: "inception_3b/3x3"
  bottom: "inception_3b/5x5"
  bottom: "inception_3b/pool_proj"
  top: "inception_3b/output"
}
layer {
  name: "pool3/3x3_s2"
  type: "Pooling"
  bottom: "inception_3b/output"
  top: "pool3/3x3_s2"
  pooling_param {
    pool: MAX
    kernel_size: 3
    stride: 2
  }
}
layer {
  name: "inception_4a/1x1"
  type: "Convolution"
  bottom: "pool3/3x3_s2"
  top: "inception_4a/1x1"
  param {
    lr_mult: 1
    decay_mult: 1
  }
  param {
    lr_mult: 2
    decay_mult: 0
  }
  convolution_param {
    num_output: 192
    kernel_size: 1
    weight_filler {
      type: "xavier"
      std: 0.03
    }
    bias_filler {
      type: "constant"
      value: 0.2
    }
  }
}
layer {
  name: "inception_4a/relu_1x1"
  type: "ReLU"
  bottom: "inception_4a/1x1"
  top: "inception_4a/1x1"
}
layer {
  name: "inception_4a/3x3_reduce"
  type: "Convolution"
  bottom: "pool3/3x3_s2"
  top: "inception_4a/3x3_reduce"
  param {
    lr_mult: 1
    decay_mult: 1
  }
  param {
    lr_mult: 2
    decay_mult: 0
  }
  convolution_param {
    num_output: 96
    kernel_size: 1
    weight_filler {
      type: "xavier"
      std: 0.09
    }
    bias_filler {
      type: "constant"
      value: 0.2
    }
  }
}
layer {
  name: "inception_4a/relu_3x3_reduce"
  type: "ReLU"
  bottom: "inception_4a/3x3_reduce"
  top: "inception_4a/3x3_reduce"
}
layer {
  name: "inception_4a/3x3"
  type: "Convolution"
  bottom: "inception_4a/3x3_reduce"
  top: "inception_4a/3x3"
  param {
    lr_mult: 1
    decay_mult: 1
  }
  param {
    lr_mult: 2
    decay_mult: 0
  }
  convolution_param {
    num_output: 208
    pad: 1
    kernel_size: 3
    weight_filler {
      type: "xavier"
      std: 0.03
    }
    bias_filler {
      type: "constant"
      value: 0.2
    }
  }
}
layer {
  name: "inception_4a/relu_3x3"
  type: "ReLU"
  bottom: "inception_4a/3x3"
  top: "inception_4a/3x3"
}
layer {
  name: "inception_4a/5x5_reduce"
  type: "Convolution"
  bottom: "pool3/3x3_s2"
  top: "inception_4a/5x5_reduce"
  param {
    lr_mult: 1
    decay_mult: 1
  }
  param {
    lr_mult: 2
    decay_mult: 0
  }
  convolution_param {
    num_output: 16
    kernel_size: 1
    weight_filler {
      type: "xavier"
      std: 0.2
    }
    bias_filler {
      type: "constant"
      value: 0.2
    }
  }
}
layer {
  name: "inception_4a/relu_5x5_reduce"
  type: "ReLU"
  bottom: "inception_4a/5x5_reduce"
  top: "inception_4a/5x5_reduce"
}
layer {
  name: "inception_4a/5x5"
  type: "Convolution"
  bottom: "inception_4a/5x5_reduce"
  top: "inception_4a/5x5"
  param {
    lr_mult: 1
    decay_mult: 1
  }
  param {
    lr_mult: 2
    decay_mult: 0
  }
  convolution_param {
    num_output: 48
    pad: 2
    kernel_size: 5
    weight_filler {
      type: "xavier"
      std: 0.03
    }
    bias_filler {
      type: "constant"
      value: 0.2
    }
  }
}
layer {
  name: "inception_4a/relu_5x5"
  type: "ReLU"
  bottom: "inception_4a/5x5"
  top: "inception_4a/5x5"
}
layer {
  name: "inception_4a/pool"
  type: "Pooling"
  bottom: "pool3/3x3_s2"
  top: "inception_4a/pool"
  pooling_param {
    pool: MAX
    kernel_size: 3
    stride: 1
    pad: 1
  }
}
layer {
  name: "inception_4a/pool_proj"
  type: "Convolution"
  bottom: "inception_4a/pool"
  top: "inception_4a/pool_proj"
  param {
    lr_mult: 1
    decay_mult: 1
  }
  param {
    lr_mult: 2
    decay_mult: 0
  }
  convolution_param {
    num_output: 64
    kernel_size: 1
    weight_filler {
      type: "xavier"
      std: 0.1
    }
    bias_filler {
      type: "constant"
      value: 0.2
    }
  }
}
layer {
  name: "inception_4a/relu_pool_proj"
  type: "ReLU"
  bottom: "inception_4a/pool_proj"
  top: "inception_4a/pool_proj"
}
layer {
  name: "inception_4a/output"
  type: "Concat"
  bottom: "inception_4a/1x1"
  bottom: "inception_4a/3x3"
  bottom: "inception_4a/5x5"
  bottom: "inception_4a/pool_proj"
  top: "inception_4a/output"
}
layer {
  name: "loss1/ave_pool"
  type: "Pooling"
  bottom: "inception_4a/output"
  top: "loss1/ave_pool"
  pooling_param {
    pool: AVE
    kernel_size: 5
    stride: 3
  }
}
layer {
  name: "loss1/conv"
  type: "Convolution"
  bottom: "loss1/ave_pool"
  top: "loss1/conv"
  param {
    lr_mult: 1
    decay_mult: 1
  }
  param {
    lr_mult: 2
    decay_mult: 0
  }
  convolution_param {
    num_output: 128
    kernel_size: 1
    weight_filler {
      type: "xavier"
      std: 0.08
    }
    bias_filler {
      type: "constant"
      value: 0.2
    }
  }
}
layer {
  name: "loss1/relu_conv"
  type: "ReLU"
  bottom: "loss1/conv"
  top: "loss1/conv"
}
layer {
  name: "loss1/fc"
  type: "InnerProduct"
  bottom: "loss1/conv"
  top: "loss1/fc"
  param {
    lr_mult: 1
    decay_mult: 1
  }
  param {
    lr_mult: 2
    decay_mult: 0
  }
  inner_product_param {
    num_output: 1024
    weight_filler {
      type: "xavier"
      std: 0.02
    }
    bias_filler {
      type: "constant"
      value: 0.2
    }
  }
}
layer {
  name: "loss1/relu_fc"
  type: "ReLU"
  bottom: "loss1/fc"
  top: "loss1/fc"
}
layer {
  name: "loss1/drop_fc"
  type: "Dropout"
  bottom: "loss1/fc"
  top: "loss1/fc"
  dropout_param {
    dropout_ratio: 0.7
  }
}
layer {
  name: "loss1/classifier_plantvillage"
  type: "InnerProduct"
  bottom: "loss1/fc"
  top: "loss1/classifier_plantvillage"
  param {
    lr_mult: 1
    decay_mult: 1
  }
  param {
    lr_mult: 2
    decay_mult: 0
  }
  inner_product_param {
    num_output: 38
    weight_filler {
      type: "xavier"
      std: 0.0009765625
    }
    bias_filler {
      type: "constant"
      value: 0
    }
  }
}
layer {
  name: "inception_4b/1x1"
  type: "Convolution"
  bottom: "inception_4a/output"
  top: "inception_4b/1x1"
  param {
    lr_mult: 1
    decay_mult: 1
  }
  param {
    lr_mult: 2
    decay_mult: 0
  }
  convolution_param {
    num_output: 160
    kernel_size: 1
    weight_filler {
      type: "xavier"
      std: 0.03
    }
    bias_filler {
      type: "constant"
      value: 0.2
    }
  }
}
layer {
  name: "inception_4b/relu_1x1"
  type: "ReLU"
  bottom: "inception_4b/1x1"
  top: "inception_4b/1x1"
}
layer {
  name: "inception_4b/3x3_reduce"
  type: "Convolution"
  bottom: "inception_4a/output"
  top: "inception_4b/3x3_reduce"
  param {
    lr_mult: 1
    decay_mult: 1
  }
  param {
    lr_mult: 2
    decay_mult: 0
  }
  convolution_param {
    num_output: 112
    kernel_size: 1
    weight_filler {
      type: "xavier"
      std: 0.09
    }
    bias_filler {
      type: "constant"
      value: 0.2
    }
  }
}
layer {
  name: "inception_4b/relu_3x3_reduce"
  type: "ReLU"
  bottom: "inception_4b/3x3_reduce"
  top: "inception_4b/3x3_reduce"
}
layer {
  name: "inception_4b/3x3"
  type: "Convolution"
  bottom: "inception_4b/3x3_reduce"
  top: "inception_4b/3x3"
  param {
    lr_mult: 1
    decay_mult: 1
  }
  param {
    lr_mult: 2
    decay_mult: 0
  }
  convolution_param {
    num_output: 224
    pad: 1
    kernel_size: 3
    weight_filler {
      type: "xavier"
      std: 0.03
    }
    bias_filler {
      type: "constant"
      value: 0.2
    }
  }
}
layer {
  name: "inception_4b/relu_3x3"
  type: "ReLU"
  bottom: "inception_4b/3x3"
  top: "inception_4b/3x3"
}
layer {
  name: "inception_4b/5x5_reduce"
  type: "Convolution"
  bottom: "inception_4a/output"
  top: "inception_4b/5x5_reduce"
  param {
    lr_mult: 1
    decay_mult: 1
  }
  param {
    lr_mult: 2
    decay_mult: 0
  }
  convolution_param {
    num_output: 24
    kernel_size: 1
    weight_filler {
      type: "xavier"
      std: 0.2
    }
    bias_filler {
      type: "constant"
      value: 0.2
    }
  }
}
layer {
  name: "inception_4b/relu_5x5_reduce"
  type: "ReLU"
  bottom: "inception_4b/5x5_reduce"
  top: "inception_4b/5x5_reduce"
}
layer {
  name: "inception_4b/5x5"
  type: "Convolution"
  bottom: "inception_4b/5x5_reduce"
  top: "inception_4b/5x5"
  param {
    lr_mult: 1
    decay_mult: 1
  }
  param {
    lr_mult: 2
    decay_mult: 0
  }
  convolution_param {
    num_output: 64
    pad: 2
    kernel_size: 5
    weight_filler {
      type: "xavier"
      std: 0.03
    }
    bias_filler {
      type: "constant"
      value: 0.2
    }
  }
}
layer {
  name: "inception_4b/relu_5x5"
  type: "ReLU"
  bottom: "inception_4b/5x5"
  top: "inception_4b/5x5"
}
layer {
  name: "inception_4b/pool"
  type: "Pooling"
  bottom: "inception_4a/output"
  top: "inception_4b/pool"
  pooling_param {
    pool: MAX
    kernel_size: 3
    stride: 1
    pad: 1
  }
}
layer {
  name: "inception_4b/pool_proj"
  type: "Convolution"
  bottom: "inception_4b/pool"
  top: "inception_4b/pool_proj"
  param {
    lr_mult: 1
    decay_mult: 1
  }
  param {
    lr_mult: 2
    decay_mult: 0
  }
  convolution_param {
    num_output: 64
    kernel_size: 1
    weight_filler {
      type: "xavier"
      std: 0.1
    }
    bias_filler {
      type: "constant"
      value: 0.2
    }
  }
}
layer {
  name: "inception_4b/relu_pool_proj"
  type: "ReLU"
  bottom: "inception_4b/pool_proj"
  top: "inception_4b/pool_proj"
}
layer {
  name: "inception_4b/output"
  type: "Concat"
  bottom: "inception_4b/1x1"
  bottom: "inception_4b/3x3"
  bottom: "inception_4b/5x5"
  bottom: "inception_4b/pool_proj"
  top: "inception_4b/output"
}
layer {
  name: "inception_4c/1x1"
  type: "Convolution"
  bottom: "inception_4b/output"
  top: "inception_4c/1x1"
  param {
    lr_mult: 1
    decay_mult: 1
  }
  param {
    lr_mult: 2
    decay_mult: 0
  }
  convolution_param {
    num_output: 128
    kernel_size: 1
    weight_filler {
      type: "xavier"
      std: 0.03
    }
    bias_filler {
      type: "constant"
      value: 0.2
    }
  }
}
layer {
  name: "inception_4c/relu_1x1"
  type: "ReLU"
  bottom: "inception_4c/1x1"
  top: "inception_4c/1x1"
}
layer {
  name: "inception_4c/3x3_reduce"
  type: "Convolution"
  bottom: "inception_4b/output"
  top: "inception_4c/3x3_reduce"
  param {
    lr_mult: 1
    decay_mult: 1
  }
  param {
    lr_mult: 2
    decay_mult: 0
  }
  convolution_param {
    num_output: 128
    kernel_size: 1
    weight_filler {
      type: "xavier"
      std: 0.09
    }
    bias_filler {
      type: "constant"
      value: 0.2
    }
  }
}
layer {
  name: "inception_4c/relu_3x3_reduce"
  type: "ReLU"
  bottom: "inception_4c/3x3_reduce"
  top: "inception_4c/3x3_reduce"
}
layer {
  name: "inception_4c/3x3"
  type: "Convolution"
  bottom: "inception_4c/3x3_reduce"
  top: "inception_4c/3x3"
  param {
    lr_mult: 1
    decay_mult: 1
  }
  param {
    lr_mult: 2
    decay_mult: 0
  }
  convolution_param {
    num_output: 256
    pad: 1
    kernel_size: 3
    weight_filler {
      type: "xavier"
      std: 0.03
    }
    bias_filler {
      type: "constant"
      value: 0.2
    }
  }
}
layer {
  name: "inception_4c/relu_3x3"
  type: "ReLU"
  bottom: "inception_4c/3x3"
  top: "inception_4c/3x3"
}
layer {
  name: "inception_4c/5x5_reduce"
  type: "Convolution"
  bottom: "inception_4b/output"
  top: "inception_4c/5x5_reduce"
  param {
    lr_mult: 1
    decay_mult: 1
  }
  param {
    lr_mult: 2
    decay_mult: 0
  }
  convolution_param {
    num_output: 24
    kernel_size: 1
    weight_filler {
      type: "xavier"
      std: 0.2
    }
    bias_filler {
      type: "constant"
      value: 0.2
    }
  }
}
layer {
  name: "inception_4c/relu_5x5_reduce"
  type: "ReLU"
  bottom: "inception_4c/5x5_reduce"
  top: "inception_4c/5x5_reduce"
}
layer {
  name: "inception_4c/5x5"
  type: "Convolution"
  bottom: "inception_4c/5x5_reduce"
  top: "inception_4c/5x5"
  param {
    lr_mult: 1
    decay_mult: 1
  }
  param {
    lr_mult: 2
    decay_mult: 0
  }
  convolution_param {
    num_output: 64
    pad: 2
    kernel_size: 5
    weight_filler {
      type: "xavier"
      std: 0.03
    }
    bias_filler {
      type: "constant"
      value: 0.2
    }
  }
}
layer {
  name: "inception_4c/relu_5x5"
  type: "ReLU"
  bottom: "inception_4c/5x5"
  top: "inception_4c/5x5"
}
layer {
  name: "inception_4c/pool"
  type: "Pooling"
  bottom: "inception_4b/output"
  top: "inception_4c/pool"
  pooling_param {
    pool: MAX
    kernel_size: 3
    stride: 1
    pad: 1
  }
}
layer {
  name: "inception_4c/pool_proj"
  type: "Convolution"
  bottom: "inception_4c/pool"
  top: "inception_4c/pool_proj"
  param {
    lr_mult: 1
    decay_mult: 1
  }
  param {
    lr_mult: 2
    decay_mult: 0
  }
  convolution_param {
    num_output: 64
    kernel_size: 1
    weight_filler {
      type: "xavier"
      std: 0.1
    }
    bias_filler {
      type: "constant"
      value: 0.2
    }
  }
}
layer {
  name: "inception_4c/relu_pool_proj"
  type: "ReLU"
  bottom: "inception_4c/pool_proj"
  top: "inception_4c/pool_proj"
}
layer {
  name: "inception_4c/output"
  type: "Concat"
  bottom: "inception_4c/1x1"
  bottom: "inception_4c/3x3"
  bottom: "inception_4c/5x5"
  bottom: "inception_4c/pool_proj"
  top: "inception_4c/output"
}
layer {
  name: "inception_4d/1x1"
  type: "Convolution"
  bottom: "inception_4c/output"
  top: "inception_4d/1x1"
  param {
    lr_mult: 1
    decay_mult: 1
  }
  param {
    lr_mult: 2
    decay_mult: 0
  }
  convolution_param {
    num_output: 112
    kernel_size: 1
    weight_filler {
      type: "xavier"
      std: 0.03
    }
    bias_filler {
      type: "constant"
      value: 0.2
    }
  }
}
layer {
  name: "inception_4d/relu_1x1"
  type: "ReLU"
  bottom: "inception_4d/1x1"
  top: "inception_4d/1x1"
}
layer {
  name: "inception_4d/3x3_reduce"
  type: "Convolution"
  bottom: "inception_4c/output"
  top: "inception_4d/3x3_reduce"
  param {
    lr_mult: 1
    decay_mult: 1
  }
  param {
    lr_mult: 2
    decay_mult: 0
  }
  convolution_param {
    num_output: 144
    kernel_size: 1
    weight_filler {
      type: "xavier"
      std: 0.09
    }
    bias_filler {
      type: "constant"
      value: 0.2
    }
  }
}
layer {
  name: "inception_4d/relu_3x3_reduce"
  type: "ReLU"
  bottom: "inception_4d/3x3_reduce"
  top: "inception_4d/3x3_reduce"
}
layer {
  name: "inception_4d/3x3"
  type: "Convolution"
  bottom: "inception_4d/3x3_reduce"
  top: "inception_4d/3x3"
  param {
    lr_mult: 1
    decay_mult: 1
  }
  param {
    lr_mult: 2
    decay_mult: 0
  }
  convolution_param {
    num_output: 288
    pad: 1
    kernel_size: 3
    weight_filler {
      type: "xavier"
      std: 0.03
    }
    bias_filler {
      type: "constant"
      value: 0.2
    }
  }
}
layer {
  name: "inception_4d/relu_3x3"
  type: "ReLU"
  bottom: "inception_4d/3x3"
  top: "inception_4d/3x3"
}
layer {
  name: "inception_4d/5x5_reduce"
  type: "Convolution"
  bottom: "inception_4c/output"
  top: "inception_4d/5x5_reduce"
  param {
    lr_mult: 1
    decay_mult: 1
  }
  param {
    lr_mult: 2
    decay_mult: 0
  }
  convolution_param {
    num_output: 32
    kernel_size: 1
    weight_filler {
      type: "xavier"
      std: 0.2
    }
    bias_filler {
      type: "constant"
      value: 0.2
    }
  }
}
layer {
  name: "inception_4d/relu_5x5_reduce"
  type: "ReLU"
  bottom: "inception_4d/5x5_reduce"
  top: "inception_4d/5x5_reduce"
}
layer {
  name: "inception_4d/5x5"
  type: "Convolution"
  bottom: "inception_4d/5x5_reduce"
  top: "inception_4d/5x5"
  param {
    lr_mult: 1
    decay_mult: 1
  }
  param {
    lr_mult: 2
    decay_mult: 0
  }
  convolution_param {
    num_output: 64
    pad: 2
    kernel_size: 5
    weight_filler {
      type: "xavier"
      std: 0.03
    }
    bias_filler {
      type: "constant"
      value: 0.2
    }
  }
}
layer {
  name: "inception_4d/relu_5x5"
  type: "ReLU"
  bottom: "inception_4d/5x5"
  top: "inception_4d/5x5"
}
layer {
  name: "inception_4d/pool"
  type: "Pooling"
  bottom: "inception_4c/output"
  top: "inception_4d/pool"
  pooling_param {
    pool: MAX
    kernel_size: 3
    stride: 1
    pad: 1
  }
}
layer {
  name: "inception_4d/pool_proj"
  type: "Convolution"
  bottom: "inception_4d/pool"
  top: "inception_4d/pool_proj"
  param {
    lr_mult: 1
    decay_mult: 1
  }
  param {
    lr_mult: 2
    decay_mult: 0
  }
  convolution_param {
    num_output: 64
    kernel_size: 1
    weight_filler {
      type: "xavier"
      std: 0.1
    }
    bias_filler {
      type: "constant"
      value: 0.2
    }
  }
}
layer {
  name: "inception_4d/relu_pool_proj"
  type: "ReLU"
  bottom: "inception_4d/pool_proj"
  top: "inception_4d/pool_proj"
}
layer {
  name: "inception_4d/output"
  type: "Concat"
  bottom: "inception_4d/1x1"
  bottom: "inception_4d/3x3"
  bottom: "inception_4d/5x5"
  bottom: "inception_4d/pool_proj"
  top: "inception_4d/output"
}
layer {
  name: "loss2/ave_pool"
  type: "Pooling"
  bottom: "inception_4d/output"
  top: "loss2/ave_pool"
  pooling_param {
    pool: AVE
    kernel_size: 5
    stride: 3
  }
}
layer {
  name: "loss2/conv"
  type: "Convolution"
  bottom: "loss2/ave_pool"
  top: "loss2/conv"
  param {
    lr_mult: 1
    decay_mult: 1
  }
  param {
    lr_mult: 2
    decay_mult: 0
  }
  convolution_param {
    num_output: 128
    kernel_size: 1
    weight_filler {
      type: "xavier"
      std: 0.08
    }
    bias_filler {
      type: "constant"
      value: 0.2
    }
  }
}
layer {
  name: "loss2/relu_conv"
  type: "ReLU"
  bottom: "loss2/conv"
  top: "loss2/conv"
}
layer {
  name: "loss2/fc"
  type: "InnerProduct"
  bottom: "loss2/conv"
  top: "loss2/fc"
  param {
    lr_mult: 1
    decay_mult: 1
  }
  param {
    lr_mult: 2
    decay_mult: 0
  }
  inner_product_param {
    num_output: 1024
    weight_filler {
      type: "xavier"
      std: 0.02
    }
    bias_filler {
      type: "constant"
      value: 0.2
    }
  }
}
layer {
  name: "loss2/relu_fc"
  type: "ReLU"
  bottom: "loss2/fc"
  top: "loss2/fc"
}
layer {
  name: "loss2/drop_fc"
  type: "Dropout"
  bottom: "loss2/fc"
  top: "loss2/fc"
  dropout_param {
    dropout_ratio: 0.7
  }
}
layer {
  name: "loss2/classifier_plantvillage"
  type: "InnerProduct"
  bottom: "loss2/fc"
  top: "loss2/classifier_plantvillage"
  param {
    lr_mult: 1
    decay_mult: 1
  }
  param {
    lr_mult: 2
    decay_mult: 0
  }
  inner_product_param {
    num_output: 38
    weight_filler {
      type: "xavier"
      std: 0.0009765625
    }
    bias_filler {
      type: "constant"
      value: 0
    }
  }
}
layer {
  name: "inception_4e/1x1"
  type: "Convolution"
  bottom: "inception_4d/output"
  top: "inception_4e/1x1"
  param {
    lr_mult: 1
    decay_mult: 1
  }
  param {
    lr_mult: 2
    decay_mult: 0
  }
  convolution_param {
    num_output: 256
    kernel_size: 1
    weight_filler {
      type: "xavier"
      std: 0.03
    }
    bias_filler {
      type: "constant"
      value: 0.2
    }
  }
}
layer {
  name: "inception_4e/relu_1x1"
  type: "ReLU"
  bottom: "inception_4e/1x1"
  top: "inception_4e/1x1"
}
layer {
  name: "inception_4e/3x3_reduce"
  type: "Convolution"
  bottom: "inception_4d/output"
  top: "inception_4e/3x3_reduce"
  param {
    lr_mult: 1
    decay_mult: 1
  }
  param {
    lr_mult: 2
    decay_mult: 0
  }
  convolution_param {
    num_output: 160
    kernel_size: 1
    weight_filler {
      type: "xavier"
      std: 0.09
    }
    bias_filler {
      type: "constant"
      value: 0.2
    }
  }
}
layer {
  name: "inception_4e/relu_3x3_reduce"
  type: "ReLU"
  bottom: "inception_4e/3x3_reduce"
  top: "inception_4e/3x3_reduce"
}
layer {
  name: "inception_4e/3x3"
  type: "Convolution"
  bottom: "inception_4e/3x3_reduce"
  top: "inception_4e/3x3"
  param {
    lr_mult: 1
    decay_mult: 1
  }
  param {
    lr_mult: 2
    decay_mult: 0
  }
  convolution_param {
    num_output: 320
    pad: 1
    kernel_size: 3
    weight_filler {
      type: "xavier"
      std: 0.03
    }
    bias_filler {
      type: "constant"
      value: 0.2
    }
  }
}
layer {
  name: "inception_4e/relu_3x3"
  type: "ReLU"
  bottom: "inception_4e/3x3"
  top: "inception_4e/3x3"
}
layer {
  name: "inception_4e/5x5_reduce"
  type: "Convolution"
  bottom: "inception_4d/output"
  top: "inception_4e/5x5_reduce"
  param {
    lr_mult: 1
    decay_mult: 1
  }
  param {
    lr_mult: 2
    decay_mult: 0
  }
  convolution_param {
    num_output: 32
    kernel_size: 1
    weight_filler {
      type: "xavier"
      std: 0.2
    }
    bias_filler {
      type: "constant"
      value: 0.2
    }
  }
}
layer {
  name: "inception_4e/relu_5x5_reduce"
  type: "ReLU"
  bottom: "inception_4e/5x5_reduce"
  top: "inception_4e/5x5_reduce"
}
layer {
  name: "inception_4e/5x5"
  type: "Convolution"
  bottom: "inception_4e/5x5_reduce"
  top: "inception_4e/
I0403 14:29:51.212501 13336 layer_factory.hpp:77] Creating layer data
I0403 14:29:51.213099 13336 net.cpp:91] Creating Layer data
I0403 14:29:51.213143 13336 net.cpp:399] data -> data
I0403 14:29:51.213191 13336 net.cpp:399] data -> label
I0403 14:29:51.213227 13336 data_transformer.cpp:25] Loading mean file from: /home/mohanty/data/final_dataset/lmdb/segmented-20-80/mean.binaryproto
I0403 14:29:51.216143 13339 db_lmdb.cpp:38] Opened lmdb /home/mohanty/data/final_dataset/lmdb/segmented-20-80/test_db
I0403 14:29:51.225839 13336 data_layer.cpp:41] output data size: 24,3,224,224
I0403 14:29:51.252959 13336 net.cpp:141] Setting up data
I0403 14:29:51.253046 13336 net.cpp:148] Top shape: 24 3 224 224 (3612672)
I0403 14:29:51.253070 13336 net.cpp:148] Top shape: 24 (24)
I0403 14:29:51.253084 13336 net.cpp:156] Memory required for data: 14450784
I0403 14:29:51.253111 13336 layer_factory.hpp:77] Creating layer label_data_1_split
I0403 14:29:51.253139 13336 net.cpp:91] Creating Layer label_data_1_split
I0403 14:29:51.253155 13336 net.cpp:425] label_data_1_split <- label
I0403 14:29:51.253187 13336 net.cpp:399] label_data_1_split -> label_data_1_split_0
I0403 14:29:51.253216 13336 net.cpp:399] label_data_1_split -> label_data_1_split_1
I0403 14:29:51.253237 13336 net.cpp:399] label_data_1_split -> label_data_1_split_2
I0403 14:29:51.253257 13336 net.cpp:399] label_data_1_split -> label_data_1_split_3
I0403 14:29:51.253276 13336 net.cpp:399] label_data_1_split -> label_data_1_split_4
I0403 14:29:51.253296 13336 net.cpp:399] label_data_1_split -> label_data_1_split_5
I0403 14:29:51.253315 13336 net.cpp:399] label_data_1_split -> label_data_1_split_6
I0403 14:29:51.253335 13336 net.cpp:399] label_data_1_split -> label_data_1_split_7
I0403 14:29:51.253355 13336 net.cpp:399] label_data_1_split -> label_data_1_split_8
I0403 14:29:51.253376 13336 net.cpp:399] label_data_1_split -> label_data_1_split_9
I0403 14:29:51.253490 13336 net.cpp:141] Setting up label_data_1_split
I0403 14:29:51.253515 13336 net.cpp:148] Top shape: 24 (24)
I0403 14:29:51.253531 13336 net.cpp:148] Top shape: 24 (24)
I0403 14:29:51.253562 13336 net.cpp:148] Top shape: 24 (24)
I0403 14:29:51.253578 13336 net.cpp:148] Top shape: 24 (24)
I0403 14:29:51.253594 13336 net.cpp:148] Top shape: 24 (24)
I0403 14:29:51.253609 13336 net.cpp:148] Top shape: 24 (24)
I0403 14:29:51.253625 13336 net.cpp:148] Top shape: 24 (24)
I0403 14:29:51.253640 13336 net.cpp:148] Top shape: 24 (24)
I0403 14:29:51.253655 13336 net.cpp:148] Top shape: 24 (24)
I0403 14:29:51.253672 13336 net.cpp:148] Top shape: 24 (24)
I0403 14:29:51.253726 13336 net.cpp:156] Memory required for data: 14451744
I0403 14:29:51.253741 13336 layer_factory.hpp:77] Creating layer conv1/7x7_s2
I0403 14:29:51.253773 13336 net.cpp:91] Creating Layer conv1/7x7_s2
I0403 14:29:51.253792 13336 net.cpp:425] conv1/7x7_s2 <- data
I0403 14:29:51.253810 13336 net.cpp:399] conv1/7x7_s2 -> conv1/7x7_s2
I0403 14:29:51.393919 13336 net.cpp:141] Setting up conv1/7x7_s2
I0403 14:29:51.393996 13336 net.cpp:148] Top shape: 24 64 112 112 (19267584)
I0403 14:29:51.394011 13336 net.cpp:156] Memory required for data: 91522080
I0403 14:29:51.394042 13336 layer_factory.hpp:77] Creating layer conv1/relu_7x7
I0403 14:29:51.394067 13336 net.cpp:91] Creating Layer conv1/relu_7x7
I0403 14:29:51.394083 13336 net.cpp:425] conv1/relu_7x7 <- conv1/7x7_s2
I0403 14:29:51.394103 13336 net.cpp:386] conv1/relu_7x7 -> conv1/7x7_s2 (in-place)
I0403 14:29:51.394345 13336 net.cpp:141] Setting up conv1/relu_7x7
I0403 14:29:51.394371 13336 net.cpp:148] Top shape: 24 64 112 112 (19267584)
I0403 14:29:51.394386 13336 net.cpp:156] Memory required for data: 168592416
I0403 14:29:51.394399 13336 layer_factory.hpp:77] Creating layer pool1/3x3_s2
I0403 14:29:51.394423 13336 net.cpp:91] Creating Layer pool1/3x3_s2
I0403 14:29:51.394439 13336 net.cpp:425] pool1/3x3_s2 <- conv1/7x7_s2
I0403 14:29:51.394456 13336 net.cpp:399] pool1/3x3_s2 -> pool1/3x3_s2
I0403 14:29:51.394526 13336 net.cpp:141] Setting up pool1/3x3_s2
I0403 14:29:51.394559 13336 net.cpp:148] Top shape: 24 64 56 56 (4816896)
I0403 14:29:51.394575 13336 net.cpp:156] Memory required for data: 187860000
I0403 14:29:51.394589 13336 layer_factory.hpp:77] Creating layer pool1/norm1
I0403 14:29:51.394611 13336 net.cpp:91] Creating Layer pool1/norm1
I0403 14:29:51.394629 13336 net.cpp:425] pool1/norm1 <- pool1/3x3_s2
I0403 14:29:51.394644 13336 net.cpp:399] pool1/norm1 -> pool1/norm1
I0403 14:29:51.394915 13336 net.cpp:141] Setting up pool1/norm1
I0403 14:29:51.394942 13336 net.cpp:148] Top shape: 24 64 56 56 (4816896)
I0403 14:29:51.394956 13336 net.cpp:156] Memory required for data: 207127584
I0403 14:29:51.394970 13336 layer_factory.hpp:77] Creating layer conv2/3x3_reduce
I0403 14:29:51.394994 13336 net.cpp:91] Creating Layer conv2/3x3_reduce
I0403 14:29:51.395009 13336 net.cpp:425] conv2/3x3_reduce <- pool1/norm1
I0403 14:29:51.395026 13336 net.cpp:399] conv2/3x3_reduce -> conv2/3x3_reduce
I0403 14:29:51.396291 13336 net.cpp:141] Setting up conv2/3x3_reduce
I0403 14:29:51.396322 13336 net.cpp:148] Top shape: 24 64 56 56 (4816896)
I0403 14:29:51.396337 13336 net.cpp:156] Memory required for data: 226395168
I0403 14:29:51.396358 13336 layer_factory.hpp:77] Creating layer conv2/relu_3x3_reduce
I0403 14:29:51.396376 13336 net.cpp:91] Creating Layer conv2/relu_3x3_reduce
I0403 14:29:51.396394 13336 net.cpp:425] conv2/relu_3x3_reduce <- conv2/3x3_reduce
I0403 14:29:51.396409 13336 net.cpp:386] conv2/relu_3x3_reduce -> conv2/3x3_reduce (in-place)
I0403 14:29:51.396651 13336 net.cpp:141] Setting up conv2/relu_3x3_reduce
I0403 14:29:51.396675 13336 net.cpp:148] Top shape: 24 64 56 56 (4816896)
I0403 14:29:51.396690 13336 net.cpp:156] Memory required for data: 245662752
I0403 14:29:51.396704 13336 layer_factory.hpp:77] Creating layer conv2/3x3
I0403 14:29:51.396724 13336 net.cpp:91] Creating Layer conv2/3x3
I0403 14:29:51.396740 13336 net.cpp:425] conv2/3x3 <- conv2/3x3_reduce
I0403 14:29:51.396757 13336 net.cpp:399] conv2/3x3 -> conv2/3x3
I0403 14:29:51.398918 13336 net.cpp:141] Setting up conv2/3x3
I0403 14:29:51.398947 13336 net.cpp:148] Top shape: 24 192 56 56 (14450688)
I0403 14:29:51.398962 13336 net.cpp:156] Memory required for data: 303465504
I0403 14:29:51.398982 13336 layer_factory.hpp:77] Creating layer conv2/relu_3x3
I0403 14:29:51.398999 13336 net.cpp:91] Creating Layer conv2/relu_3x3
I0403 14:29:51.399014 13336 net.cpp:425] conv2/relu_3x3 <- conv2/3x3
I0403 14:29:51.399029 13336 net.cpp:386] conv2/relu_3x3 -> conv2/3x3 (in-place)
I0403 14:29:51.399178 13336 net.cpp:141] Setting up conv2/relu_3x3
I0403 14:29:51.399202 13336 net.cpp:148] Top shape: 24 192 56 56 (14450688)
I0403 14:29:51.399255 13336 net.cpp:156] Memory required for data: 361268256
I0403 14:29:51.399269 13336 layer_factory.hpp:77] Creating layer conv2/norm2
I0403 14:29:51.399287 13336 net.cpp:91] Creating Layer conv2/norm2
I0403 14:29:51.399302 13336 net.cpp:425] conv2/norm2 <- conv2/3x3
I0403 14:29:51.399318 13336 net.cpp:399] conv2/norm2 -> conv2/norm2
I0403 14:29:51.399593 13336 net.cpp:141] Setting up conv2/norm2
I0403 14:29:51.399619 13336 net.cpp:148] Top shape: 24 192 56 56 (14450688)
I0403 14:29:51.399634 13336 net.cpp:156] Memory required for data: 419071008
I0403 14:29:51.399648 13336 layer_factory.hpp:77] Creating layer pool2/3x3_s2
I0403 14:29:51.399664 13336 net.cpp:91] Creating Layer pool2/3x3_s2
I0403 14:29:51.399678 13336 net.cpp:425] pool2/3x3_s2 <- conv2/norm2
I0403 14:29:51.399694 13336 net.cpp:399] pool2/3x3_s2 -> pool2/3x3_s2
I0403 14:29:51.399740 13336 net.cpp:141] Setting up pool2/3x3_s2
I0403 14:29:51.399762 13336 net.cpp:148] Top shape: 24 192 28 28 (3612672)
I0403 14:29:51.399776 13336 net.cpp:156] Memory required for data: 433521696
I0403 14:29:51.399791 13336 layer_factory.hpp:77] Creating layer pool2/3x3_s2_pool2/3x3_s2_0_split
I0403 14:29:51.399807 13336 net.cpp:91] Creating Layer pool2/3x3_s2_pool2/3x3_s2_0_split
I0403 14:29:51.399821 13336 net.cpp:425] pool2/3x3_s2_pool2/3x3_s2_0_split <- pool2/3x3_s2
I0403 14:29:51.399837 13336 net.cpp:399] pool2/3x3_s2_pool2/3x3_s2_0_split -> pool2/3x3_s2_pool2/3x3_s2_0_split_0
I0403 14:29:51.399855 13336 net.cpp:399] pool2/3x3_s2_pool2/3x3_s2_0_split -> pool2/3x3_s2_pool2/3x3_s2_0_split_1
I0403 14:29:51.399873 13336 net.cpp:399] pool2/3x3_s2_pool2/3x3_s2_0_split -> pool2/3x3_s2_pool2/3x3_s2_0_split_2
I0403 14:29:51.399893 13336 net.cpp:399] pool2/3x3_s2_pool2/3x3_s2_0_split -> pool2/3x3_s2_pool2/3x3_s2_0_split_3
I0403 14:29:51.399951 13336 net.cpp:141] Setting up pool2/3x3_s2_pool2/3x3_s2_0_split
I0403 14:29:51.399972 13336 net.cpp:148] Top shape: 24 192 28 28 (3612672)
I0403 14:29:51.399988 13336 net.cpp:148] Top shape: 24 192 28 28 (3612672)
I0403 14:29:51.400003 13336 net.cpp:148] Top shape: 24 192 28 28 (3612672)
I0403 14:29:51.400018 13336 net.cpp:148] Top shape: 24 192 28 28 (3612672)
I0403 14:29:51.400032 13336 net.cpp:156] Memory required for data: 491324448
I0403 14:29:51.400044 13336 layer_factory.hpp:77] Creating layer inception_3a/1x1
I0403 14:29:51.400063 13336 net.cpp:91] Creating Layer inception_3a/1x1
I0403 14:29:51.400079 13336 net.cpp:425] inception_3a/1x1 <- pool2/3x3_s2_pool2/3x3_s2_0_split_0
I0403 14:29:51.400095 13336 net.cpp:399] inception_3a/1x1 -> inception_3a/1x1
I0403 14:29:51.401526 13336 net.cpp:141] Setting up inception_3a/1x1
I0403 14:29:51.401558 13336 net.cpp:148] Top shape: 24 64 28 28 (1204224)
I0403 14:29:51.401574 13336 net.cpp:156] Memory required for data: 496141344
I0403 14:29:51.401592 13336 layer_factory.hpp:77] Creating layer inception_3a/relu_1x1
I0403 14:29:51.401612 13336 net.cpp:91] Creating Layer inception_3a/relu_1x1
I0403 14:29:51.401628 13336 net.cpp:425] inception_3a/relu_1x1 <- inception_3a/1x1
I0403 14:29:51.401643 13336 net.cpp:386] inception_3a/relu_1x1 -> inception_3a/1x1 (in-place)
I0403 14:29:51.401808 13336 net.cpp:141] Setting up inception_3a/relu_1x1
I0403 14:29:51.401832 13336 net.cpp:148] Top shape: 24 64 28 28 (1204224)
I0403 14:29:51.401846 13336 net.cpp:156] Memory required for data: 500958240
I0403 14:29:51.401860 13336 layer_factory.hpp:77] Creating layer inception_3a/3x3_reduce
I0403 14:29:51.401881 13336 net.cpp:91] Creating Layer inception_3a/3x3_reduce
I0403 14:29:51.401900 13336 net.cpp:425] inception_3a/3x3_reduce <- pool2/3x3_s2_pool2/3x3_s2_0_split_1
I0403 14:29:51.401917 13336 net.cpp:399] inception_3a/3x3_reduce -> inception_3a/3x3_reduce
I0403 14:29:51.403566 13336 net.cpp:141] Setting up inception_3a/3x3_reduce
I0403 14:29:51.403602 13336 net.cpp:148] Top shape: 24 96 28 28 (1806336)
I0403 14:29:51.403617 13336 net.cpp:156] Memory required for data: 508183584
I0403 14:29:51.403638 13336 layer_factory.hpp:77] Creating layer inception_3a/relu_3x3_reduce
I0403 14:29:51.403673 13336 net.cpp:91] Creating Layer inception_3a/relu_3x3_reduce
I0403 14:29:51.403692 13336 net.cpp:425] inception_3a/relu_3x3_reduce <- inception_3a/3x3_reduce
I0403 14:29:51.403707 13336 net.cpp:386] inception_3a/relu_3x3_reduce -> inception_3a/3x3_reduce (in-place)
I0403 14:29:51.403883 13336 net.cpp:141] Setting up inception_3a/relu_3x3_reduce
I0403 14:29:51.403908 13336 net.cpp:148] Top shape: 24 96 28 28 (1806336)
I0403 14:29:51.403921 13336 net.cpp:156] Memory required for data: 515408928
I0403 14:29:51.403935 13336 layer_factory.hpp:77] Creating layer inception_3a/3x3
I0403 14:29:51.403956 13336 net.cpp:91] Creating Layer inception_3a/3x3
I0403 14:29:51.403972 13336 net.cpp:425] inception_3a/3x3 <- inception_3a/3x3_reduce
I0403 14:29:51.403992 13336 net.cpp:399] inception_3a/3x3 -> inception_3a/3x3
I0403 14:29:51.405587 13336 net.cpp:141] Setting up inception_3a/3x3
I0403 14:29:51.405616 13336 net.cpp:148] Top shape: 24 128 28 28 (2408448)
I0403 14:29:51.405632 13336 net.cpp:156] Memory required for data: 525042720
I0403 14:29:51.405648 13336 layer_factory.hpp:77] Creating layer inception_3a/relu_3x3
I0403 14:29:51.405668 13336 net.cpp:91] Creating Layer inception_3a/relu_3x3
I0403 14:29:51.405684 13336 net.cpp:425] inception_3a/relu_3x3 <- inception_3a/3x3
I0403 14:29:51.405701 13336 net.cpp:386] inception_3a/relu_3x3 -> inception_3a/3x3 (in-place)
I0403 14:29:51.405972 13336 net.cpp:141] Setting up inception_3a/relu_3x3
I0403 14:29:51.405998 13336 net.cpp:148] Top shape: 24 128 28 28 (2408448)
I0403 14:29:51.406013 13336 net.cpp:156] Memory required for data: 534676512
I0403 14:29:51.406026 13336 layer_factory.hpp:77] Creating layer inception_3a/5x5_reduce
I0403 14:29:51.406049 13336 net.cpp:91] Creating Layer inception_3a/5x5_reduce
I0403 14:29:51.406066 13336 net.cpp:425] inception_3a/5x5_reduce <- pool2/3x3_s2_pool2/3x3_s2_0_split_2
I0403 14:29:51.406087 13336 net.cpp:399] inception_3a/5x5_reduce -> inception_3a/5x5_reduce
I0403 14:29:51.407023 13336 net.cpp:141] Setting up inception_3a/5x5_reduce
I0403 14:29:51.407052 13336 net.cpp:148] Top shape: 24 16 28 28 (301056)
I0403 14:29:51.407066 13336 net.cpp:156] Memory required for data: 535880736
I0403 14:29:51.407083 13336 layer_factory.hpp:77] Creating layer inception_3a/relu_5x5_reduce
I0403 14:29:51.407104 13336 net.cpp:91] Creating Layer inception_3a/relu_5x5_reduce
I0403 14:29:51.407119 13336 net.cpp:425] inception_3a/relu_5x5_reduce <- inception_3a/5x5_reduce
I0403 14:29:51.407136 13336 net.cpp:386] inception_3a/relu_5x5_reduce -> inception_3a/5x5_reduce (in-place)
I0403 14:29:51.407429 13336 net.cpp:141] Setting up inception_3a/relu_5x5_reduce
I0403 14:29:51.407457 13336 net.cpp:148] Top shape: 24 16 28 28 (301056)
I0403 14:29:51.407474 13336 net.cpp:156] Memory required for data: 537084960
I0403 14:29:51.407488 13336 layer_factory.hpp:77] Creating layer inception_3a/5x5
I0403 14:29:51.407510 13336 net.cpp:91] Creating Layer inception_3a/5x5
I0403 14:29:51.407526 13336 net.cpp:425] inception_3a/5x5 <- inception_3a/5x5_reduce
I0403 14:29:51.407551 13336 net.cpp:399] inception_3a/5x5 -> inception_3a/5x5
I0403 14:29:51.408546 13336 net.cpp:141] Setting up inception_3a/5x5
I0403 14:29:51.408576 13336 net.cpp:148] Top shape: 24 32 28 28 (602112)
I0403 14:29:51.408592 13336 net.cpp:156] Memory required for data: 539493408
I0403 14:29:51.408612 13336 layer_factory.hpp:77] Creating layer inception_3a/relu_5x5
I0403 14:29:51.408632 13336 net.cpp:91] Creating Layer inception_3a/relu_5x5
I0403 14:29:51.408649 13336 net.cpp:425] inception_3a/relu_5x5 <- inception_3a/5x5
I0403 14:29:51.408668 13336 net.cpp:386] inception_3a/relu_5x5 -> inception_3a/5x5 (in-place)
I0403 14:29:51.408834 13336 net.cpp:141] Setting up inception_3a/relu_5x5
I0403 14:29:51.408859 13336 net.cpp:148] Top shape: 24 32 28 28 (602112)
I0403 14:29:51.408874 13336 net.cpp:156] Memory required for data: 541901856
I0403 14:29:51.408887 13336 layer_factory.hpp:77] Creating layer inception_3a/pool
I0403 14:29:51.408907 13336 net.cpp:91] Creating Layer inception_3a/pool
I0403 14:29:51.408937 13336 net.cpp:425] inception_3a/pool <- pool2/3x3_s2_pool2/3x3_s2_0_split_3
I0403 14:29:51.408957 13336 net.cpp:399] inception_3a/pool -> inception_3a/pool
I0403 14:29:51.409011 13336 net.cpp:141] Setting up inception_3a/pool
I0403 14:29:51.409034 13336 net.cpp:148] Top shape: 24 192 28 28 (3612672)
I0403 14:29:51.409049 13336 net.cpp:156] Memory required for data: 556352544
I0403 14:29:51.409062 13336 layer_factory.hpp:77] Creating layer inception_3a/pool_proj
I0403 14:29:51.409083 13336 net.cpp:91] Creating Layer inception_3a/pool_proj
I0403 14:29:51.409101 13336 net.cpp:425] inception_3a/pool_proj <- inception_3a/pool
I0403 14:29:51.409121 13336 net.cpp:399] inception_3a/pool_proj -> inception_3a/pool_proj
I0403 14:29:51.410061 13336 net.cpp:141] Setting up inception_3a/pool_proj
I0403 14:29:51.410091 13336 net.cpp:148] Top shape: 24 32 28 28 (602112)
I0403 14:29:51.410107 13336 net.cpp:156] Memory required for data: 558760992
I0403 14:29:51.410128 13336 layer_factory.hpp:77] Creating layer inception_3a/relu_pool_proj
I0403 14:29:51.410150 13336 net.cpp:91] Creating Layer inception_3a/relu_pool_proj
I0403 14:29:51.410166 13336 net.cpp:425] inception_3a/relu_pool_proj <- inception_3a/pool_proj
I0403 14:29:51.410183 13336 net.cpp:386] inception_3a/relu_pool_proj -> inception_3a/pool_proj (in-place)
I0403 14:29:51.410454 13336 net.cpp:141] Setting up inception_3a/relu_pool_proj
I0403 14:29:51.410480 13336 net.cpp:148] Top shape: 24 32 28 28 (602112)
I0403 14:29:51.410495 13336 net.cpp:156] Memory required for data: 561169440
I0403 14:29:51.410509 13336 layer_factory.hpp:77] Creating layer inception_3a/output
I0403 14:29:51.410529 13336 net.cpp:91] Creating Layer inception_3a/output
I0403 14:29:51.410550 13336 net.cpp:425] inception_3a/output <- inception_3a/1x1
I0403 14:29:51.410567 13336 net.cpp:425] inception_3a/output <- inception_3a/3x3
I0403 14:29:51.410583 13336 net.cpp:425] inception_3a/output <- inception_3a/5x5
I0403 14:29:51.410598 13336 net.cpp:425] inception_3a/output <- inception_3a/pool_proj
I0403 14:29:51.410614 13336 net.cpp:399] inception_3a/output -> inception_3a/output
I0403 14:29:51.410660 13336 net.cpp:141] Setting up inception_3a/output
I0403 14:29:51.410681 13336 net.cpp:148] Top shape: 24 256 28 28 (4816896)
I0403 14:29:51.410696 13336 net.cpp:156] Memory required for data: 580437024
I0403 14:29:51.410709 13336 layer_factory.hpp:77] Creating layer inception_3a/output_inception_3a/output_0_split
I0403 14:29:51.410727 13336 net.cpp:91] Creating Layer inception_3a/output_inception_3a/output_0_split
I0403 14:29:51.410740 13336 net.cpp:425] inception_3a/output_inception_3a/output_0_split <- inception_3a/output
I0403 14:29:51.410759 13336 net.cpp:399] inception_3a/output_inception_3a/output_0_split -> inception_3a/output_inception_3a/output_0_split_0
I0403 14:29:51.410779 13336 net.cpp:399] inception_3a/output_inception_3a/output_0_split -> inception_3a/output_inception_3a/output_0_split_1
I0403 14:29:51.410800 13336 net.cpp:399] inception_3a/output_inception_3a/output_0_split -> inception_3a/output_inception_3a/output_0_split_2
I0403 14:29:51.410820 13336 net.cpp:399] inception_3a/output_inception_3a/output_0_split -> inception_3a/output_inception_3a/output_0_split_3
I0403 14:29:51.410892 13336 net.cpp:141] Setting up inception_3a/output_inception_3a/output_0_split
I0403 14:29:51.410913 13336 net.cpp:148] Top shape: 24 256 28 28 (4816896)
I0403 14:29:51.410929 13336 net.cpp:148] Top shape: 24 256 28 28 (4816896)
I0403 14:29:51.410945 13336 net.cpp:148] Top shape: 24 256 28 28 (4816896)
I0403 14:29:51.410961 13336 net.cpp:148] Top shape: 24 256 28 28 (4816896)
I0403 14:29:51.410974 13336 net.cpp:156] Memory required for data: 657507360
I0403 14:29:51.410989 13336 layer_factory.hpp:77] Creating layer inception_3b/1x1
I0403 14:29:51.411010 13336 net.cpp:91] Creating Layer inception_3b/1x1
I0403 14:29:51.411027 13336 net.cpp:425] inception_3b/1x1 <- inception_3a/output_inception_3a/output_0_split_0
I0403 14:29:51.411047 13336 net.cpp:399] inception_3b/1x1 -> inception_3b/1x1
I0403 14:29:51.412168 13336 net.cpp:141] Setting up inception_3b/1x1
I0403 14:29:51.412209 13336 net.cpp:148] Top shape: 24 128 28 28 (2408448)
I0403 14:29:51.412226 13336 net.cpp:156] Memory required for data: 667141152
I0403 14:29:51.412246 13336 layer_factory.hpp:77] Creating layer inception_3b/relu_1x1
I0403 14:29:51.412264 13336 net.cpp:91] Creating Layer inception_3b/relu_1x1
I0403 14:29:51.412281 13336 net.cpp:425] inception_3b/relu_1x1 <- inception_3b/1x1
I0403 14:29:51.412300 13336 net.cpp:386] inception_3b/relu_1x1 -> inception_3b/1x1 (in-place)
I0403 14:29:51.412469 13336 net.cpp:141] Setting up inception_3b/relu_1x1
I0403 14:29:51.412494 13336 net.cpp:148] Top shape: 24 128 28 28 (2408448)
I0403 14:29:51.412509 13336 net.cpp:156] Memory required for data: 676774944
I0403 14:29:51.412523 13336 layer_factory.hpp:77] Creating layer inception_3b/3x3_reduce
I0403 14:29:51.412561 13336 net.cpp:91] Creating Layer inception_3b/3x3_reduce
I0403 14:29:51.412580 13336 net.cpp:425] inception_3b/3x3_reduce <- inception_3a/output_inception_3a/output_0_split_1
I0403 14:29:51.412601 13336 net.cpp:399] inception_3b/3x3_reduce -> inception_3b/3x3_reduce
I0403 14:29:51.413735 13336 net.cpp:141] Setting up inception_3b/3x3_reduce
I0403 14:29:51.413763 13336 net.cpp:148] Top shape: 24 128 28 28 (2408448)
I0403 14:29:51.413779 13336 net.cpp:156] Memory required for data: 686408736
I0403 14:29:51.413796 13336 layer_factory.hpp:77] Creating layer inception_3b/relu_3x3_reduce
I0403 14:29:51.413815 13336 net.cpp:91] Creating Layer inception_3b/relu_3x3_reduce
I0403 14:29:51.413830 13336 net.cpp:425] inception_3b/relu_3x3_reduce <- inception_3b/3x3_reduce
I0403 14:29:51.413848 13336 net.cpp:386] inception_3b/relu_3x3_reduce -> inception_3b/3x3_reduce (in-place)
I0403 14:29:51.414019 13336 net.cpp:141] Setting up inception_3b/relu_3x3_reduce
I0403 14:29:51.414044 13336 net.cpp:148] Top shape: 24 128 28 28 (2408448)
I0403 14:29:51.414058 13336 net.cpp:156] Memory required for data: 696042528
I0403 14:29:51.414072 13336 layer_factory.hpp:77] Creating layer inception_3b/3x3
I0403 14:29:51.414098 13336 net.cpp:91] Creating Layer inception_3b/3x3
I0403 14:29:51.414115 13336 net.cpp:425] inception_3b/3x3 <- inception_3b/3x3_reduce
I0403 14:29:51.414134 13336 net.cpp:399] inception_3b/3x3 -> inception_3b/3x3
I0403 14:29:51.417049 13336 net.cpp:141] Setting up inception_3b/3x3
I0403 14:29:51.417079 13336 net.cpp:148] Top shape: 24 192 28 28 (3612672)
I0403 14:29:51.417096 13336 net.cpp:156] Memory required for data: 710493216
I0403 14:29:51.417115 13336 layer_factory.hpp:77] Creating layer inception_3b/relu_3x3
I0403 14:29:51.417136 13336 net.cpp:91] Creating Layer inception_3b/relu_3x3
I0403 14:29:51.417153 13336 net.cpp:425] inception_3b/relu_3x3 <- inception_3b/3x3
I0403 14:29:51.417171 13336 net.cpp:386] inception_3b/relu_3x3 -> inception_3b/3x3 (in-place)
I0403 14:29:51.417444 13336 net.cpp:141] Setting up inception_3b/relu_3x3
I0403 14:29:51.417470 13336 net.cpp:148] Top shape: 24 192 28 28 (3612672)
I0403 14:29:51.417485 13336 net.cpp:156] Memory required for data: 724943904
I0403 14:29:51.417500 13336 layer_factory.hpp:77] Creating layer inception_3b/5x5_reduce
I0403 14:29:51.417522 13336 net.cpp:91] Creating Layer inception_3b/5x5_reduce
I0403 14:29:51.417544 13336 net.cpp:425] inception_3b/5x5_reduce <- inception_3a/output_inception_3a/output_0_split_2
I0403 14:29:51.417568 13336 net.cpp:399] inception_3b/5x5_reduce -> inception_3b/5x5_reduce
I0403 14:29:51.418548 13336 net.cpp:141] Setting up inception_3b/5x5_reduce
I0403 14:29:51.418577 13336 net.cpp:148] Top shape: 24 32 28 28 (602112)
I0403 14:29:51.418593 13336 net.cpp:156] Memory required for data: 727352352
I0403 14:29:51.418612 13336 layer_factory.hpp:77] Creating layer inception_3b/relu_5x5_reduce
I0403 14:29:51.418637 13336 net.cpp:91] Creating Layer inception_3b/relu_5x5_reduce
I0403 14:29:51.418655 13336 net.cpp:425] inception_3b/relu_5x5_reduce <- inception_3b/5x5_reduce
I0403 14:29:51.418673 13336 net.cpp:386] inception_3b/relu_5x5_reduce -> inception_3b/5x5_reduce (in-place)
I0403 14:29:51.418865 13336 net.cpp:141] Setting up inception_3b/relu_5x5_reduce
I0403 14:29:51.418891 13336 net.cpp:148] Top shape: 24 32 28 28 (602112)
I0403 14:29:51.418907 13336 net.cpp:156] Memory required for data: 729760800
I0403 14:29:51.418922 13336 layer_factory.hpp:77] Creating layer inception_3b/5x5
I0403 14:29:51.418947 13336 net.cpp:91] Creating Layer inception_3b/5x5
I0403 14:29:51.418964 13336 net.cpp:425] inception_3b/5x5 <- inception_3b/5x5_reduce
I0403 14:29:51.418983 13336 net.cpp:399] inception_3b/5x5 -> inception_3b/5x5
I0403 14:29:51.420943 13336 net.cpp:141] Setting up inception_3b/5x5
I0403 14:29:51.420974 13336 net.cpp:148] Top shape: 24 96 28 28 (1806336)
I0403 14:29:51.420992 13336 net.cpp:156] Memory required for data: 736986144
I0403 14:29:51.421010 13336 layer_factory.hpp:77] Creating layer inception_3b/relu_5x5
I0403 14:29:51.421028 13336 net.cpp:91] Creating Layer inception_3b/relu_5x5
I0403 14:29:51.421046 13336 net.cpp:425] inception_3b/relu_5x5 <- inception_3b/5x5
I0403 14:29:51.421064 13336 net.cpp:386] inception_3b/relu_5x5 -> inception_3b/5x5 (in-place)
I0403 14:29:51.421255 13336 net.cpp:141] Setting up inception_3b/relu_5x5
I0403 14:29:51.421282 13336 net.cpp:148] Top shape: 24 96 28 28 (1806336)
I0403 14:29:51.421306 13336 net.cpp:156] Memory required for data: 744211488
I0403 14:29:51.421320 13336 layer_factory.hpp:77] Creating layer inception_3b/pool
I0403 14:29:51.421339 13336 net.cpp:91] Creating Layer inception_3b/pool
I0403 14:29:51.421353 13336 net.cpp:425] inception_3b/pool <- inception_3a/output_inception_3a/output_0_split_3
I0403 14:29:51.421370 13336 net.cpp:399] inception_3b/pool -> inception_3b/pool
I0403 14:29:51.421427 13336 net.cpp:141] Setting up inception_3b/pool
I0403 14:29:51.421450 13336 net.cpp:148] Top shape: 24 256 28 28 (4816896)
I0403 14:29:51.421464 13336 net.cpp:156] Memory required for data: 763479072
I0403 14:29:51.421478 13336 layer_factory.hpp:77] Creating layer inception_3b/pool_proj
I0403 14:29:51.421499 13336 net.cpp:91] Creating Layer inception_3b/pool_proj
I0403 14:29:51.421516 13336 net.cpp:425] inception_3b/pool_proj <- inception_3b/pool
I0403 14:29:51.421540 13336 net.cpp:399] inception_3b/pool_proj -> inception_3b/pool_proj
I0403 14:29:51.422622 13336 net.cpp:141] Setting up inception_3b/pool_proj
I0403 14:29:51.422651 13336 net.cpp:148] Top shape: 24 64 28 28 (1204224)
I0403 14:29:51.422667 13336 net.cpp:156] Memory required for data: 768295968
I0403 14:29:51.422686 13336 layer_factory.hpp:77] Creating layer inception_3b/relu_pool_proj
I0403 14:29:51.422706 13336 net.cpp:91] Creating Layer inception_3b/relu_pool_proj
I0403 14:29:51.422724 13336 net.cpp:425] inception_3b/relu_pool_proj <- inception_3b/pool_proj
I0403 14:29:51.422740 13336 net.cpp:386] inception_3b/relu_pool_proj -> inception_3b/pool_proj (in-place)
I0403 14:29:51.423133 13336 net.cpp:141] Setting up inception_3b/relu_pool_proj
I0403 14:29:51.423161 13336 net.cpp:148] Top shape: 24 64 28 28 (1204224)
I0403 14:29:51.423179 13336 net.cpp:156] Memory required for data: 773112864
I0403 14:29:51.423194 13336 layer_factory.hpp:77] Creating layer inception_3b/output
I0403 14:29:51.423213 13336 net.cpp:91] Creating Layer inception_3b/output
I0403 14:29:51.423228 13336 net.cpp:425] inception_3b/output <- inception_3b/1x1
I0403 14:29:51.423244 13336 net.cpp:425] inception_3b/output <- inception_3b/3x3
I0403 14:29:51.423259 13336 net.cpp:425] inception_3b/output <- inception_3b/5x5
I0403 14:29:51.423275 13336 net.cpp:425] inception_3b/output <- inception_3b/pool_proj
I0403 14:29:51.423295 13336 net.cpp:399] inception_3b/output -> inception_3b/output
I0403 14:29:51.423338 13336 net.cpp:141] Setting up inception_3b/output
I0403 14:29:51.423362 13336 net.cpp:148] Top shape: 24 480 28 28 (9031680)
I0403 14:29:51.423377 13336 net.cpp:156] Memory required for data: 809239584
I0403 14:29:51.423389 13336 layer_factory.hpp:77] Creating layer pool3/3x3_s2
I0403 14:29:51.423406 13336 net.cpp:91] Creating Layer pool3/3x3_s2
I0403 14:29:51.423425 13336 net.cpp:425] pool3/3x3_s2 <- inception_3b/output
I0403 14:29:51.423457 13336 net.cpp:399] pool3/3x3_s2 -> pool3/3x3_s2
I0403 14:29:51.423516 13336 net.cpp:141] Setting up pool3/3x3_s2
I0403 14:29:51.423542 13336 net.cpp:148] Top shape: 24 480 14 14 (2257920)
I0403 14:29:51.423558 13336 net.cpp:156] Memory required for data: 818271264
I0403 14:29:51.423573 13336 layer_factory.hpp:77] Creating layer pool3/3x3_s2_pool3/3x3_s2_0_split
I0403 14:29:51.423590 13336 net.cpp:91] Creating Layer pool3/3x3_s2_pool3/3x3_s2_0_split
I0403 14:29:51.423605 13336 net.cpp:425] pool3/3x3_s2_pool3/3x3_s2_0_split <- pool3/3x3_s2
I0403 14:29:51.423624 13336 net.cpp:399] pool3/3x3_s2_pool3/3x3_s2_0_split -> pool3/3x3_s2_pool3/3x3_s2_0_split_0
I0403 14:29:51.423643 13336 net.cpp:399] pool3/3x3_s2_pool3/3x3_s2_0_split -> pool3/3x3_s2_pool3/3x3_s2_0_split_1
I0403 14:29:51.423662 13336 net.cpp:399] pool3/3x3_s2_pool3/3x3_s2_0_split -> pool3/3x3_s2_pool3/3x3_s2_0_split_2
I0403 14:29:51.423681 13336 net.cpp:399] pool3/3x3_s2_pool3/3x3_s2_0_split -> pool3/3x3_s2_pool3/3x3_s2_0_split_3
I0403 14:29:51.423755 13336 net.cpp:141] Setting up pool3/3x3_s2_pool3/3x3_s2_0_split
I0403 14:29:51.423779 13336 net.cpp:148] Top shape: 24 480 14 14 (2257920)
I0403 14:29:51.423794 13336 net.cpp:148] Top shape: 24 480 14 14 (2257920)
I0403 14:29:51.423809 13336 net.cpp:148] Top shape: 24 480 14 14 (2257920)
I0403 14:29:51.423825 13336 net.cpp:148] Top shape: 24 480 14 14 (2257920)
I0403 14:29:51.423837 13336 net.cpp:156] Memory required for data: 854397984
I0403 14:29:51.423851 13336 layer_factory.hpp:77] Creating layer inception_4a/1x1
I0403 14:29:51.423877 13336 net.cpp:91] Creating Layer inception_4a/1x1
I0403 14:29:51.423895 13336 net.cpp:425] inception_4a/1x1 <- pool3/3x3_s2_pool3/3x3_s2_0_split_0
I0403 14:29:51.423914 13336 net.cpp:399] inception_4a/1x1 -> inception_4a/1x1
I0403 14:29:51.425464 13336 net.cpp:141] Setting up inception_4a/1x1
I0403 14:29:51.425495 13336 net.cpp:148] Top shape: 24 192 14 14 (903168)
I0403 14:29:51.425515 13336 net.cpp:156] Memory required for data: 858010656
I0403 14:29:51.425534 13336 layer_factory.hpp:77] Creating layer inception_4a/relu_1x1
I0403 14:29:51.425559 13336 net.cpp:91] Creating Layer inception_4a/relu_1x1
I0403 14:29:51.425575 13336 net.cpp:425] inception_4a/relu_1x1 <- inception_4a/1x1
I0403 14:29:51.425595 13336 net.cpp:386] inception_4a/relu_1x1 -> inception_4a/1x1 (in-place)
I0403 14:29:51.425770 13336 net.cpp:141] Setting up inception_4a/relu_1x1
I0403 14:29:51.425797 13336 net.cpp:148] Top shape: 24 192 14 14 (903168)
I0403 14:29:51.425813 13336 net.cpp:156] Memory required for data: 861623328
I0403 14:29:51.425828 13336 layer_factory.hpp:77] Creating layer inception_4a/3x3_reduce
I0403 14:29:51.425851 13336 net.cpp:91] Creating Layer inception_4a/3x3_reduce
I0403 14:29:51.425868 13336 net.cpp:425] inception_4a/3x3_reduce <- pool3/3x3_s2_pool3/3x3_s2_0_split_1
I0403 14:29:51.425890 13336 net.cpp:399] inception_4a/3x3_reduce -> inception_4a/3x3_reduce
I0403 14:29:51.427148 13336 net.cpp:141] Setting up inception_4a/3x3_reduce
I0403 14:29:51.427180 13336 net.cpp:148] Top shape: 24 96 14 14 (451584)
I0403 14:29:51.427198 13336 net.cpp:156] Memory required for data: 863429664
I0403 14:29:51.427222 13336 layer_factory.hpp:77] Creating layer inception_4a/relu_3x3_reduce
I0403 14:29:51.427242 13336 net.cpp:91] Creating Layer inception_4a/relu_3x3_reduce
I0403 14:29:51.427258 13336 net.cpp:425] inception_4a/relu_3x3_reduce <- inception_4a/3x3_reduce
I0403 14:29:51.427275 13336 net.cpp:386] inception_4a/relu_3x3_reduce -> inception_4a/3x3_reduce (in-place)
I0403 14:29:51.427451 13336 net.cpp:141] Setting up inception_4a/relu_3x3_reduce
I0403 14:29:51.427475 13336 net.cpp:148] Top shape: 24 96 14 14 (451584)
I0403 14:29:51.427489 13336 net.cpp:156] Memory required for data: 865236000
I0403 14:29:51.427503 13336 layer_factory.hpp:77] Creating layer inception_4a/3x3
I0403 14:29:51.427525 13336 net.cpp:91] Creating Layer inception_4a/3x3
I0403 14:29:51.427547 13336 net.cpp:425] inception_4a/3x3 <- inception_4a/3x3_reduce
I0403 14:29:51.427569 13336 net.cpp:399] inception_4a/3x3 -> inception_4a/3x3
I0403 14:29:51.430235 13336 net.cpp:141] Setting up inception_4a/3x3
I0403 14:29:51.430265 13336 net.cpp:148] Top shape: 24 208 14 14 (978432)
I0403 14:29:51.430282 13336 net.cpp:156] Memory required for data: 869149728
I0403 14:29:51.430302 13336 layer_factory.hpp:77] Creating layer inception_4a/relu_3x3
I0403 14:29:51.430320 13336 net.cpp:91] Creating Layer inception_4a/relu_3x3
I0403 14:29:51.430340 13336 net.cpp:425] inception_4a/relu_3x3 <- inception_4a/3x3
I0403 14:29:51.430357 13336 net.cpp:386] inception_4a/relu_3x3 -> inception_4a/3x3 (in-place)
I0403 14:29:51.430639 13336 net.cpp:141] Setting up inception_4a/relu_3x3
I0403 14:29:51.430665 13336 net.cpp:148] Top shape: 24 208 14 14 (978432)
I0403 14:29:51.430680 13336 net.cpp:156] Memory required for data: 873063456
I0403 14:29:51.430696 13336 layer_factory.hpp:77] Creating layer inception_4a/5x5_reduce
I0403 14:29:51.430719 13336 net.cpp:91] Creating Layer inception_4a/5x5_reduce
I0403 14:29:51.430737 13336 net.cpp:425] inception_4a/5x5_reduce <- pool3/3x3_s2_pool3/3x3_s2_0_split_2
I0403 14:29:51.430758 13336 net.cpp:399] inception_4a/5x5_reduce -> inception_4a/5x5_reduce
I0403 14:29:51.431816 13336 net.cpp:141] Setting up inception_4a/5x5_reduce
I0403 14:29:51.431845 13336 net.cpp:148] Top shape: 24 16 14 14 (75264)
I0403 14:29:51.431862 13336 net.cpp:156] Memory required for data: 873364512
I0403 14:29:51.431881 13336 layer_factory.hpp:77] Creating layer inception_4a/relu_5x5_reduce
I0403 14:29:51.431902 13336 net.cpp:91] Creating Layer inception_4a/relu_5x5_reduce
I0403 14:29:51.431920 13336 net.cpp:425] inception_4a/relu_5x5_reduce <- inception_4a/5x5_reduce
I0403 14:29:51.431937 13336 net.cpp:386] inception_4a/relu_5x5_reduce -> inception_4a/5x5_reduce (in-place)
I0403 14:29:51.432113 13336 net.cpp:141] Setting up inception_4a/relu_5x5_reduce
I0403 14:29:51.432139 13336 net.cpp:148] Top shape: 24 16 14 14 (75264)
I0403 14:29:51.432154 13336 net.cpp:156] Memory required for data: 873665568
I0403 14:29:51.432170 13336 layer_factory.hpp:77] Creating layer inception_4a/5x5
I0403 14:29:51.432199 13336 net.cpp:91] Creating Layer inception_4a/5x5
I0403 14:29:51.432217 13336 net.cpp:425] inception_4a/5x5 <- inception_4a/5x5_reduce
I0403 14:29:51.432235 13336 net.cpp:399] inception_4a/5x5 -> inception_4a/5x5
I0403 14:29:51.433315 13336 net.cpp:141] Setting up inception_4a/5x5
I0403 14:29:51.433342 13336 net.cpp:148] Top shape: 24 48 14 14 (225792)
I0403 14:29:51.433362 13336 net.cpp:156] Memory required for data: 874568736
I0403 14:29:51.433382 13336 layer_factory.hpp:77] Creating layer inception_4a/relu_5x5
I0403 14:29:51.433399 13336 net.cpp:91] Creating Layer inception_4a/relu_5x5
I0403 14:29:51.433414 13336 net.cpp:425] inception_4a/relu_5x5 <- inception_4a/5x5
I0403 14:29:51.433431 13336 net.cpp:386] inception_4a/relu_5x5 -> inception_4a/5x5 (in-place)
I0403 14:29:51.433611 13336 net.cpp:141] Setting up inception_4a/relu_5x5
I0403 14:29:51.433642 13336 net.cpp:148] Top shape: 24 48 14 14 (225792)
I0403 14:29:51.433660 13336 net.cpp:156] Memory required for data: 875471904
I0403 14:29:51.433675 13336 layer_factory.hpp:77] Creating layer inception_4a/pool
I0403 14:29:51.433693 13336 net.cpp:91] Creating Layer inception_4a/pool
I0403 14:29:51.433708 13336 net.cpp:425] inception_4a/pool <- pool3/3x3_s2_pool3/3x3_s2_0_split_3
I0403 14:29:51.433728 13336 net.cpp:399] inception_4a/pool -> inception_4a/pool
I0403 14:29:51.433789 13336 net.cpp:141] Setting up inception_4a/pool
I0403 14:29:51.433815 13336 net.cpp:148] Top shape: 24 480 14 14 (2257920)
I0403 14:29:51.433830 13336 net.cpp:156] Memory required for data: 884503584
I0403 14:29:51.433843 13336 layer_factory.hpp:77] Creating layer inception_4a/pool_proj
I0403 14:29:51.433862 13336 net.cpp:91] Creating Layer inception_4a/pool_proj
I0403 14:29:51.433878 13336 net.cpp:425] inception_4a/pool_proj <- inception_4a/pool
I0403 14:29:51.433897 13336 net.cpp:399] inception_4a/pool_proj -> inception_4a/pool_proj
I0403 14:29:51.435055 13336 net.cpp:141] Setting up inception_4a/pool_proj
I0403 14:29:51.435088 13336 net.cpp:148] Top shape: 24 64 14 14 (301056)
I0403 14:29:51.435120 13336 net.cpp:156] Memory required for data: 885707808
I0403 14:29:51.435140 13336 layer_factory.hpp:77] Creating layer inception_4a/relu_pool_proj
I0403 14:29:51.435158 13336 net.cpp:91] Creating Layer inception_4a/relu_pool_proj
I0403 14:29:51.435174 13336 net.cpp:425] inception_4a/relu_pool_proj <- inception_4a/pool_proj
I0403 14:29:51.435192 13336 net.cpp:386] inception_4a/relu_pool_proj -> inception_4a/pool_proj (in-place)
I0403 14:29:51.435469 13336 net.cpp:141] Setting up inception_4a/relu_pool_proj
I0403 14:29:51.435500 13336 net.cpp:148] Top shape: 24 64 14 14 (301056)
I0403 14:29:51.435518 13336 net.cpp:156] Memory required for data: 886912032
I0403 14:29:51.435534 13336 layer_factory.hpp:77] Creating layer inception_4a/output
I0403 14:29:51.435556 13336 net.cpp:91] Creating Layer inception_4a/output
I0403 14:29:51.435572 13336 net.cpp:425] inception_4a/output <- inception_4a/1x1
I0403 14:29:51.435588 13336 net.cpp:425] inception_4a/output <- inception_4a/3x3
I0403 14:29:51.435603 13336 net.cpp:425] inception_4a/output <- inception_4a/5x5
I0403 14:29:51.435619 13336 net.cpp:425] inception_4a/output <- inception_4a/pool_proj
I0403 14:29:51.435634 13336 net.cpp:399] inception_4a/output -> inception_4a/output
I0403 14:29:51.435683 13336 net.cpp:141] Setting up inception_4a/output
I0403 14:29:51.435705 13336 net.cpp:148] Top shape: 24 512 14 14 (2408448)
I0403 14:29:51.435719 13336 net.cpp:156] Memory required for data: 896545824
I0403 14:29:51.435734 13336 layer_factory.hpp:77] Creating layer inception_4a/output_inception_4a/output_0_split
I0403 14:29:51.435753 13336 net.cpp:91] Creating Layer inception_4a/output_inception_4a/output_0_split
I0403 14:29:51.435770 13336 net.cpp:425] inception_4a/output_inception_4a/output_0_split <- inception_4a/output
I0403 14:29:51.435786 13336 net.cpp:399] inception_4a/output_inception_4a/output_0_split -> inception_4a/output_inception_4a/output_0_split_0
I0403 14:29:51.435806 13336 net.cpp:399] inception_4a/output_inception_4a/output_0_split -> inception_4a/output_inception_4a/output_0_split_1
I0403 14:29:51.435827 13336 net.cpp:399] inception_4a/output_inception_4a/output_0_split -> inception_4a/output_inception_4a/output_0_split_2
I0403 14:29:51.435848 13336 net.cpp:399] inception_4a/output_inception_4a/output_0_split -> inception_4a/output_inception_4a/output_0_split_3
I0403 14:29:51.435870 13336 net.cpp:399] inception_4a/output_inception_4a/output_0_split -> inception_4a/output_inception_4a/output_0_split_4
I0403 14:29:51.435959 13336 net.cpp:141] Setting up inception_4a/output_inception_4a/output_0_split
I0403 14:29:51.435981 13336 net.cpp:148] Top shape: 24 512 14 14 (2408448)
I0403 14:29:51.435998 13336 net.cpp:148] Top shape: 24 512 14 14 (2408448)
I0403 14:29:51.436013 13336 net.cpp:148] Top shape: 24 512 14 14 (2408448)
I0403 14:29:51.436028 13336 net.cpp:148] Top shape: 24 512 14 14 (2408448)
I0403 14:29:51.436043 13336 net.cpp:148] Top shape: 24 512 14 14 (2408448)
I0403 14:29:51.436056 13336 net.cpp:156] Memory required for data: 944714784
I0403 14:29:51.436070 13336 layer_factory.hpp:77] Creating layer loss1/ave_pool
I0403 14:29:51.436089 13336 net.cpp:91] Creating Layer loss1/ave_pool
I0403 14:29:51.436106 13336 net.cpp:425] loss1/ave_pool <- inception_4a/output_inception_4a/output_0_split_0
I0403 14:29:51.436123 13336 net.cpp:399] loss1/ave_pool -> loss1/ave_pool
I0403 14:29:51.436324 13336 net.cpp:141] Setting up loss1/ave_pool
I0403 14:29:51.436352 13336 net.cpp:148] Top shape: 24 512 4 4 (196608)
I0403 14:29:51.436369 13336 net.cpp:156] Memory required for data: 945501216
I0403 14:29:51.436383 13336 layer_factory.hpp:77] Creating layer loss1/conv
I0403 14:29:51.436404 13336 net.cpp:91] Creating Layer loss1/conv
I0403 14:29:51.436422 13336 net.cpp:425] loss1/conv <- loss1/ave_pool
I0403 14:29:51.436440 13336 net.cpp:399] loss1/conv -> loss1/conv
I0403 14:29:51.437862 13336 net.cpp:141] Setting up loss1/conv
I0403 14:29:51.437892 13336 net.cpp:148] Top shape: 24 128 4 4 (49152)
I0403 14:29:51.437923 13336 net.cpp:156] Memory required for data: 945697824
I0403 14:29:51.437943 13336 layer_factory.hpp:77] Creating layer loss1/relu_conv
I0403 14:29:51.437963 13336 net.cpp:91] Creating Layer loss1/relu_conv
I0403 14:29:51.437979 13336 net.cpp:425] loss1/relu_conv <- loss1/conv
I0403 14:29:51.437996 13336 net.cpp:386] loss1/relu_conv -> loss1/conv (in-place)
I0403 14:29:51.438276 13336 net.cpp:141] Setting up loss1/relu_conv
I0403 14:29:51.438302 13336 net.cpp:148] Top shape: 24 128 4 4 (49152)
I0403 14:29:51.438318 13336 net.cpp:156] Memory required for data: 945894432
I0403 14:29:51.438330 13336 layer_factory.hpp:77] Creating layer loss1/fc
I0403 14:29:51.438355 13336 net.cpp:91] Creating Layer loss1/fc
I0403 14:29:51.438374 13336 net.cpp:425] loss1/fc <- loss1/conv
I0403 14:29:51.438391 13336 net.cpp:399] loss1/fc -> loss1/fc
I0403 14:29:51.455870 13336 net.cpp:141] Setting up loss1/fc
I0403 14:29:51.455909 13336 net.cpp:148] Top shape: 24 1024 (24576)
I0403 14:29:51.455925 13336 net.cpp:156] Memory required for data: 945992736
I0403 14:29:51.455945 13336 layer_factory.hpp:77] Creating layer loss1/relu_fc
I0403 14:29:51.455965 13336 net.cpp:91] Creating Layer loss1/relu_fc
I0403 14:29:51.455981 13336 net.cpp:425] loss1/relu_fc <- loss1/fc
I0403 14:29:51.455999 13336 net.cpp:386] loss1/relu_fc -> loss1/fc (in-place)
I0403 14:29:51.456181 13336 net.cpp:141] Setting up loss1/relu_fc
I0403 14:29:51.456204 13336 net.cpp:148] Top shape: 24 1024 (24576)
I0403 14:29:51.456219 13336 net.cpp:156] Memory required for data: 946091040
I0403 14:29:51.456233 13336 layer_factory.hpp:77] Creating layer loss1/drop_fc
I0403 14:29:51.456259 13336 net.cpp:91] Creating Layer loss1/drop_fc
I0403 14:29:51.456276 13336 net.cpp:425] loss1/drop_fc <- loss1/fc
I0403 14:29:51.456296 13336 net.cpp:386] loss1/drop_fc -> loss1/fc (in-place)
I0403 14:29:51.456344 13336 net.cpp:141] Setting up loss1/drop_fc
I0403 14:29:51.456367 13336 net.cpp:148] Top shape: 24 1024 (24576)
I0403 14:29:51.456382 13336 net.cpp:156] Memory required for data: 946189344
I0403 14:29:51.456396 13336 layer_factory.hpp:77] Creating layer loss1/classifier_plantvillage
I0403 14:29:51.456416 13336 net.cpp:91] Creating Layer loss1/classifier_plantvillage
I0403 14:29:51.456434 13336 net.cpp:425] loss1/classifier_plantvillage <- loss1/fc
I0403 14:29:51.456452 13336 net.cpp:399] loss1/classifier_plantvillage -> loss1/classifier_plantvillage
I0403 14:29:51.457358 13336 net.cpp:141] Setting up loss1/classifier_plantvillage
I0403 14:29:51.457389 13336 net.cpp:148] Top shape: 24 38 (912)
I0403 14:29:51.457407 13336 net.cpp:156] Memory required for data: 946192992
I0403 14:29:51.457427 13336 layer_factory.hpp:77] Creating layer loss1/classifier_plantvillage_loss1/classifier_plantvillage_0_split
I0403 14:29:51.457444 13336 net.cpp:91] Creating Layer loss1/classifier_plantvillage_loss1/classifier_plantvillage_0_split
I0403 14:29:51.457460 13336 net.cpp:425] loss1/classifier_plantvillage_loss1/classifier_plantvillage_0_split <- loss1/classifier_plantvillage
I0403 14:29:51.457481 13336 net.cpp:399] loss1/classifier_plantvillage_loss1/classifier_plantvillage_0_split -> loss1/classifier_plantvillage_loss1/classifier_plantvillage_0_split_0
I0403 14:29:51.457515 13336 net.cpp:399] loss1/classifier_plantvillage_loss1/classifier_plantvillage_0_split -> loss1/classifier_plantvillage_loss1/classifier_plantvillage_0_split_1
I0403 14:29:51.457540 13336 net.cpp:399] loss1/classifier_plantvillage_loss1/classifier_plantvillage_0_split -> loss1/classifier_plantvillage_loss1/classifier_plantvillage_0_split_2
I0403 14:29:51.457610 13336 net.cpp:141] Setting up loss1/classifier_plantvillage_loss1/classifier_plantvillage_0_split
I0403 14:29:51.457635 13336 net.cpp:148] Top shape: 24 38 (912)
I0403 14:29:51.457653 13336 net.cpp:148] Top shape: 24 38 (912)
I0403 14:29:51.457669 13336 net.cpp:148] Top shape: 24 38 (912)
I0403 14:29:51.457684 13336 net.cpp:156] Memory required for data: 946203936
I0403 14:29:51.457698 13336 layer_factory.hpp:77] Creating layer inception_4b/1x1
I0403 14:29:51.457726 13336 net.cpp:91] Creating Layer inception_4b/1x1
I0403 14:29:51.457767 13336 net.cpp:425] inception_4b/1x1 <- inception_4a/output_inception_4a/output_0_split_1
I0403 14:29:51.457789 13336 net.cpp:399] inception_4b/1x1 -> inception_4b/1x1
I0403 14:29:51.459449 13336 net.cpp:141] Setting up inception_4b/1x1
I0403 14:29:51.459477 13336 net.cpp:148] Top shape: 24 160 14 14 (752640)
I0403 14:29:51.459494 13336 net.cpp:156] Memory required for data: 949214496
I0403 14:29:51.459512 13336 layer_factory.hpp:77] Creating layer inception_4b/relu_1x1
I0403 14:29:51.459532 13336 net.cpp:91] Creating Layer inception_4b/relu_1x1
I0403 14:29:51.459555 13336 net.cpp:425] inception_4b/relu_1x1 <- inception_4b/1x1
I0403 14:29:51.459573 13336 net.cpp:386] inception_4b/relu_1x1 -> inception_4b/1x1 (in-place)
I0403 14:29:51.459748 13336 net.cpp:141] Setting up inception_4b/relu_1x1
I0403 14:29:51.459771 13336 net.cpp:148] Top shape: 24 160 14 14 (752640)
I0403 14:29:51.459786 13336 net.cpp:156] Memory required for data: 952225056
I0403 14:29:51.459800 13336 layer_factory.hpp:77] Creating layer inception_4b/3x3_reduce
I0403 14:29:51.459820 13336 net.cpp:91] Creating Layer inception_4b/3x3_reduce
I0403 14:29:51.459838 13336 net.cpp:425] inception_4b/3x3_reduce <- inception_4a/output_inception_4a/output_0_split_2
I0403 14:29:51.459856 13336 net.cpp:399] inception_4b/3x3_reduce -> inception_4b/3x3_reduce
I0403 14:29:51.461186 13336 net.cpp:141] Setting up inception_4b/3x3_reduce
I0403 14:29:51.461213 13336 net.cpp:148] Top shape: 24 112 14 14 (526848)
I0403 14:29:51.461230 13336 net.cpp:156] Memory required for data: 954332448
I0403 14:29:51.461246 13336 layer_factory.hpp:77] Creating layer inception_4b/relu_3x3_reduce
I0403 14:29:51.461266 13336 net.cpp:91] Creating Layer inception_4b/relu_3x3_reduce
I0403 14:29:51.461282 13336 net.cpp:425] inception_4b/relu_3x3_reduce <- inception_4b/3x3_reduce
I0403 14:29:51.461302 13336 net.cpp:386] inception_4b/relu_3x3_reduce -> inception_4b/3x3_reduce (in-place)
I0403 14:29:51.461591 13336 net.cpp:141] Setting up inception_4b/relu_3x3_reduce
I0403 14:29:51.461616 13336 net.cpp:148] Top shape: 24 112 14 14 (526848)
I0403 14:29:51.461630 13336 net.cpp:156] Memory required for data: 956439840
I0403 14:29:51.461643 13336 layer_factory.hpp:77] Creating layer inception_4b/3x3
I0403 14:29:51.461665 13336 net.cpp:91] Creating Layer inception_4b/3x3
I0403 14:29:51.461683 13336 net.cpp:425] inception_4b/3x3 <- inception_4b/3x3_reduce
I0403 14:29:51.461702 13336 net.cpp:399] inception_4b/3x3 -> inception_4b/3x3
I0403 14:29:51.464609 13336 net.cpp:141] Setting up inception_4b/3x3
I0403 14:29:51.464642 13336 net.cpp:148] Top shape: 24 224 14 14 (1053696)
I0403 14:29:51.464658 13336 net.cpp:156] Memory required for data: 960654624
I0403 14:29:51.464676 13336 layer_factory.hpp:77] Creating layer inception_4b/relu_3x3
I0403 14:29:51.464695 13336 net.cpp:91] Creating Layer inception_4b/relu_3x3
I0403 14:29:51.464712 13336 net.cpp:425] inception_4b/relu_3x3 <- inception_4b/3x3
I0403 14:29:51.464731 13336 net.cpp:386] inception_4b/relu_3x3 -> inception_4b/3x3 (in-place)
I0403 14:29:51.464905 13336 net.cpp:141] Setting up inception_4b/relu_3x3
I0403 14:29:51.464929 13336 net.cpp:148] Top shape: 24 224 14 14 (1053696)
I0403 14:29:51.464943 13336 net.cpp:156] Memory required for data: 964869408
I0403 14:29:51.464957 13336 layer_factory.hpp:77] Creating layer inception_4b/5x5_reduce
I0403 14:29:51.464978 13336 net.cpp:91] Creating Layer inception_4b/5x5_reduce
I0403 14:29:51.464995 13336 net.cpp:425] inception_4b/5x5_reduce <- inception_4a/output_inception_4a/output_0_split_3
I0403 14:29:51.465018 13336 net.cpp:399] inception_4b/5x5_reduce -> inception_4b/5x5_reduce
I0403 14:29:51.466066 13336 net.cpp:141] Setting up inception_4b/5x5_reduce
I0403 14:29:51.466094 13336 net.cpp:148] Top shape: 24 24 14 14 (112896)
I0403 14:29:51.466109 13336 net.cpp:156] Memory required for data: 965320992
I0403 14:29:51.466125 13336 layer_factory.hpp:77] Creating layer inception_4b/relu_5x5_reduce
I0403 14:29:51.466145 13336 net.cpp:91] Creating Layer inception_4b/relu_5x5_reduce
I0403 14:29:51.466174 13336 net.cpp:425] inception_4b/relu_5x5_reduce <- inception_4b/5x5_reduce
I0403 14:29:51.466193 13336 net.cpp:386] inception_4b/relu_5x5_reduce -> inception_4b/5x5_reduce (in-place)
I0403 14:29:51.466370 13336 net.cpp:141] Setting up inception_4b/relu_5x5_reduce
I0403 14:29:51.466398 13336 net.cpp:148] Top shape: 24 24 14 14 (112896)
I0403 14:29:51.466413 13336 net.cpp:156] Memory required for data: 965772576
I0403 14:29:51.466428 13336 layer_factory.hpp:77] Creating layer inception_4b/5x5
I0403 14:29:51.466449 13336 net.cpp:91] Creating Layer inception_4b/5x5
I0403 14:29:51.466465 13336 net.cpp:425] inception_4b/5x5 <- inception_4b/5x5_reduce
I0403 14:29:51.466482 13336 net.cpp:399] inception_4b/5x5 -> inception_4b/5x5
I0403 14:29:51.467677 13336 net.cpp:141] Setting up inception_4b/5x5
I0403 14:29:51.467705 13336 net.cpp:148] Top shape: 24 64 14 14 (301056)
I0403 14:29:51.467722 13336 net.cpp:156] Memory required for data: 966976800
I0403 14:29:51.467741 13336 layer_factory.hpp:77] Creating layer inception_4b/relu_5x5
I0403 14:29:51.467761 13336 net.cpp:91] Creating Layer inception_4b/relu_5x5
I0403 14:29:51.467777 13336 net.cpp:425] inception_4b/relu_5x5 <- inception_4b/5x5
I0403 14:29:51.467793 13336 net.cpp:386] inception_4b/relu_5x5 -> inception_4b/5x5 (in-place)
I0403 14:29:51.468070 13336 net.cpp:141] Setting up inception_4b/relu_5x5
I0403 14:29:51.468096 13336 net.cpp:148] Top shape: 24 64 14 14 (301056)
I0403 14:29:51.468111 13336 net.cpp:156] Memory required for data: 968181024
I0403 14:29:51.468124 13336 layer_factory.hpp:77] Creating layer inception_4b/pool
I0403 14:29:51.468142 13336 net.cpp:91] Creating Layer inception_4b/pool
I0403 14:29:51.468158 13336 net.cpp:425] inception_4b/pool <- inception_4a/output_inception_4a/output_0_split_4
I0403 14:29:51.468178 13336 net.cpp:399] inception_4b/pool -> inception_4b/pool
I0403 14:29:51.468240 13336 net.cpp:141] Setting up inception_4b/pool
I0403 14:29:51.468261 13336 net.cpp:148] Top shape: 24 512 14 14 (2408448)
I0403 14:29:51.468276 13336 net.cpp:156] Memory required for data: 977814816
I0403 14:29:51.468289 13336 layer_factory.hpp:77] Creating layer inception_4b/pool_proj
I0403 14:29:51.468310 13336 net.cpp:91] Creating Layer inception_4b/pool_proj
I0403 14:29:51.468327 13336 net.cpp:425] inception_4b/pool_proj <- inception_4b/pool
I0403 14:29:51.468345 13336 net.cpp:399] inception_4b/pool_proj -> inception_4b/pool_proj
I0403 14:29:51.469507 13336 net.cpp:141] Setting up inception_4b/pool_proj
I0403 14:29:51.469535 13336 net.cpp:148] Top shape: 24 64 14 14 (301056)
I0403 14:29:51.469566 13336 net.cpp:156] Memory required for data: 979019040
I0403 14:29:51.469585 13336 layer_factory.hpp:77] Creating layer inception_4b/relu_pool_proj
I0403 14:29:51.469607 13336 net.cpp:91] Creating Layer inception_4b/relu_pool_proj
I0403 14:29:51.469624 13336 net.cpp:425] inception_4b/relu_pool_proj <- inception_4b/pool_proj
I0403 14:29:51.469642 13336 net.cpp:386] inception_4b/relu_pool_proj -> inception_4b/pool_proj (in-place)
I0403 14:29:51.469817 13336 net.cpp:141] Setting up inception_4b/relu_pool_proj
I0403 14:29:51.469852 13336 net.cpp:148] Top shape: 24 64 14 14 (301056)
I0403 14:29:51.469867 13336 net.cpp:156] Memory required for data: 980223264
I0403 14:29:51.469880 13336 layer_factory.hpp:77] Creating layer inception_4b/output
I0403 14:29:51.469902 13336 net.cpp:91] Creating Layer inception_4b/output
I0403 14:29:51.469916 13336 net.cpp:425] inception_4b/output <- inception_4b/1x1
I0403 14:29:51.469933 13336 net.cpp:425] inception_4b/output <- inception_4b/3x3
I0403 14:29:51.469947 13336 net.cpp:425] inception_4b/output <- inception_4b/5x5
I0403 14:29:51.469962 13336 net.cpp:425] inception_4b/output <- inception_4b/pool_proj
I0403 14:29:51.469977 13336 net.cpp:399] inception_4b/output -> inception_4b/output
I0403 14:29:51.470024 13336 net.cpp:141] Setting up inception_4b/output
I0403 14:29:51.470046 13336 net.cpp:148] Top shape: 24 512 14 14 (2408448)
I0403 14:29:51.470062 13336 net.cpp:156] Memory required for data: 989857056
I0403 14:29:51.470088 13336 layer_factory.hpp:77] Creating layer inception_4b/output_inception_4b/output_0_split
I0403 14:29:51.470105 13336 net.cpp:91] Creating Layer inception_4b/output_inception_4b/output_0_split
I0403 14:29:51.470119 13336 net.cpp:425] inception_4b/output_inception_4b/output_0_split <- inception_4b/output
I0403 14:29:51.470139 13336 net.cpp:399] inception_4b/output_inception_4b/output_0_split -> inception_4b/output_inception_4b/output_0_split_0
I0403 14:29:51.470158 13336 net.cpp:399] inception_4b/output_inception_4b/output_0_split -> inception_4b/output_inception_4b/output_0_split_1
I0403 14:29:51.470177 13336 net.cpp:399] inception_4b/output_inception_4b/output_0_split -> inception_4b/output_inception_4b/output_0_split_2
I0403 14:29:51.470196 13336 net.cpp:399] inception_4b/output_inception_4b/output_0_split -> inception_4b/output_inception_4b/output_0_split_3
I0403 14:29:51.470279 13336 net.cpp:141] Setting up inception_4b/output_inception_4b/output_0_split
I0403 14:29:51.470304 13336 net.cpp:148] Top shape: 24 512 14 14 (2408448)
I0403 14:29:51.470319 13336 net.cpp:148] Top shape: 24 512 14 14 (2408448)
I0403 14:29:51.470334 13336 net.cpp:148] Top shape: 24 512 14 14 (2408448)
I0403 14:29:51.470347 13336 net.cpp:148] Top shape: 24 512 14 14 (2408448)
I0403 14:29:51.470360 13336 net.cpp:156] Memory required for data: 1028392224
I0403 14:29:51.470374 13336 layer_factory.hpp:77] Creating layer inception_4c/1x1
I0403 14:29:51.470396 13336 net.cpp:91] Creating Layer inception_4c/1x1
I0403 14:29:51.470412 13336 net.cpp:425] inception_4c/1x1 <- inception_4b/output_inception_4b/output_0_split_0
I0403 14:29:51.470432 13336 net.cpp:399] inception_4c/1x1 -> inception_4c/1x1
I0403 14:29:51.471819 13336 net.cpp:141] Setting up inception_4c/1x1
I0403 14:29:51.471848 13336 net.cpp:148] Top shape: 24 128 14 14 (602112)
I0403 14:29:51.471863 13336 net.cpp:156] Memory required for data: 1030800672
I0403 14:29:51.471884 13336 layer_factory.hpp:77] Creating layer inception_4c/relu_1x1
I0403 14:29:51.471902 13336 net.cpp:91] Creating Layer inception_4c/relu_1x1
I0403 14:29:51.471917 13336 net.cpp:425] inception_4c/relu_1x1 <- inception_4c/1x1
I0403 14:29:51.471933 13336 net.cpp:386] inception_4c/relu_1x1 -> inception_4c/1x1 (in-place)
I0403 14:29:51.472110 13336 net.cpp:141] Setting up inception_4c/relu_1x1
I0403 14:29:51.472133 13336 net.cpp:148] Top shape: 24 128 14 14 (602112)
I0403 14:29:51.472148 13336 net.cpp:156] Memory required for data: 1033209120
I0403 14:29:51.472162 13336 layer_factory.hpp:77] Creating layer inception_4c/3x3_reduce
I0403 14:29:51.472182 13336 net.cpp:91] Creating Layer inception_4c/3x3_reduce
I0403 14:29:51.472199 13336 net.cpp:425] inception_4c/3x3_reduce <- inception_4b/output_inception_4b/output_0_split_1
I0403 14:29:51.472219 13336 net.cpp:399] inception_4c/3x3_reduce -> inception_4c/3x3_reduce
I0403 14:29:51.474107 13336 net.cpp:141] Setting up inception_4c/3x3_reduce
I0403 14:29:51.474135 13336 net.cpp:148] Top shape: 24 128 14 14 (602112)
I0403 14:29:51.474150 13336 net.cpp:156] Memory required for data: 1035617568
I0403 14:29:51.474169 13336 layer_factory.hpp:77] Creating layer inception_4c/relu_3x3_reduce
I0403 14:29:51.474186 13336 net.cpp:91] Creating Layer inception_4c/relu_3x3_reduce
I0403 14:29:51.474202 13336 net.cpp:425] inception_4c/relu_3x3_reduce <- inception_4c/3x3_reduce
I0403 14:29:51.474221 13336 net.cpp:386] inception_4c/relu_3x3_reduce -> inception_4c/3x3_reduce (in-place)
I0403 14:29:51.474504 13336 net.cpp:141] Setting up inception_4c/relu_3x3_reduce
I0403 14:29:51.474530 13336 net.cpp:148] Top shape: 24 128 14 14 (602112)
I0403 14:29:51.474556 13336 net.cpp:156] Memory required for data: 1038026016
I0403 14:29:51.474572 13336 layer_factory.hpp:77] Creating layer inception_4c/3x3
I0403 14:29:51.474596 13336 net.cpp:91] Creating Layer inception_4c/3x3
I0403 14:29:51.474611 13336 net.cpp:425] inception_4c/3x3 <- inception_4c/3x3_reduce
I0403 14:29:51.474632 13336 net.cpp:399] inception_4c/3x3 -> inception_4c/3x3
I0403 14:29:51.478178 13336 net.cpp:141] Setting up inception_4c/3x3
I0403 14:29:51.478222 13336 net.cpp:148] Top shape: 24 256 14 14 (1204224)
I0403 14:29:51.478240 13336 net.cpp:156] Memory required for data: 1042842912
I0403 14:29:51.478271 13336 layer_factory.hpp:77] Creating layer inception_4c/relu_3x3
I0403 14:29:51.478291 13336 net.cpp:91] Creating Layer inception_4c/relu_3x3
I0403 14:29:51.478308 13336 net.cpp:425] inception_4c/relu_3x3 <- inception_4c/3x3
I0403 14:29:51.478324 13336 net.cpp:386] inception_4c/relu_3x3 -> inception_4c/3x3 (in-place)
I0403 14:29:51.478500 13336 net.cpp:141] Setting up inception_4c/relu_3x3
I0403 14:29:51.478524 13336 net.cpp:148] Top shape: 24 256 14 14 (1204224)
I0403 14:29:51.478543 13336 net.cpp:156] Memory required for data: 1047659808
I0403 14:29:51.478569 13336 layer_factory.hpp:77] Creating layer inception_4c/5x5_reduce
I0403 14:29:51.478590 13336 net.cpp:91] Creating Layer inception_4c/5x5_reduce
I0403 14:29:51.478607 13336 net.cpp:425] inception_4c/5x5_reduce <- inception_4b/output_inception_4b/output_0_split_2
I0403 14:29:51.478628 13336 net.cpp:399] inception_4c/5x5_reduce -> inception_4c/5x5_reduce
I0403 14:29:51.479744 13336 net.cpp:141] Setting up inception_4c/5x5_reduce
I0403 14:29:51.479771 13336 net.cpp:148] Top shape: 24 24 14 14 (112896)
I0403 14:29:51.479787 13336 net.cpp:156] Memory required for data: 1048111392
I0403 14:29:51.479805 13336 layer_factory.hpp:77] Creating layer inception_4c/relu_5x5_reduce
I0403 14:29:51.479825 13336 net.cpp:91] Creating Layer inception_4c/relu_5x5_reduce
I0403 14:29:51.479840 13336 net.cpp:425] inception_4c/relu_5x5_reduce <- inception_4c/5x5_reduce
I0403 14:29:51.479858 13336 net.cpp:386] inception_4c/relu_5x5_reduce -> inception_4c/5x5_reduce (in-place)
I0403 14:29:51.480047 13336 net.cpp:141] Setting up inception_4c/relu_5x5_reduce
I0403 14:29:51.480073 13336 net.cpp:148] Top shape: 24 24 14 14 (112896)
I0403 14:29:51.480089 13336 net.cpp:156] Memory required for data: 1048562976
I0403 14:29:51.480103 13336 layer_factory.hpp:77] Creating layer inception_4c/5x5
I0403 14:29:51.480121 13336 net.cpp:91] Creating Layer inception_4c/5x5
I0403 14:29:51.480137 13336 net.cpp:425] inception_4c/5x5 <- inception_4c/5x5_reduce
I0403 14:29:51.480157 13336 net.cpp:399] inception_4c/5x5 -> inception_4c/5x5
I0403 14:29:51.481364 13336 net.cpp:141] Setting up inception_4c/5x5
I0403 14:29:51.481391 13336 net.cpp:148] Top shape: 24 64 14 14 (301056)
I0403 14:29:51.481406 13336 net.cpp:156] Memory required for data: 1049767200
I0403 14:29:51.481422 13336 layer_factory.hpp:77] Creating layer inception_4c/relu_5x5
I0403 14:29:51.481442 13336 net.cpp:91] Creating Layer inception_4c/relu_5x5
I0403 14:29:51.481458 13336 net.cpp:425] inception_4c/relu_5x5 <- inception_4c/5x5
I0403 14:29:51.481474 13336 net.cpp:386] inception_4c/relu_5x5 -> inception_4c/5x5 (in-place)
I0403 14:29:51.481760 13336 net.cpp:141] Setting up inception_4c/relu_5x5
I0403 14:29:51.481786 13336 net.cpp:148] Top shape: 24 64 14 14 (301056)
I0403 14:29:51.481799 13336 net.cpp:156] Memory required for data: 1050971424
I0403 14:29:51.481813 13336 layer_factory.hpp:77] Creating layer inception_4c/pool
I0403 14:29:51.481832 13336 net.cpp:91] Creating Layer inception_4c/pool
I0403 14:29:51.481849 13336 net.cpp:425] inception_4c/pool <- inception_4b/output_inception_4b/output_0_split_3
I0403 14:29:51.481866 13336 net.cpp:399] inception_4c/pool -> inception_4c/pool
I0403 14:29:51.481930 13336 net.cpp:141] Setting up inception_4c/pool
I0403 14:29:51.481953 13336 net.cpp:148] Top shape: 24 512 14 14 (2408448)
I0403 14:29:51.481967 13336 net.cpp:156] Memory required for data: 1060605216
I0403 14:29:51.481981 13336 layer_factory.hpp:77] Creating layer inception_4c/pool_proj
I0403 14:29:51.482002 13336 net.cpp:91] Creating Layer inception_4c/pool_proj
I0403 14:29:51.482019 13336 net.cpp:425] inception_4c/pool_proj <- inception_4c/pool
I0403 14:29:51.482039 13336 net.cpp:399] inception_4c/pool_proj -> inception_4c/pool_proj
I0403 14:29:51.483218 13336 net.cpp:141] Setting up inception_4c/pool_proj
I0403 14:29:51.483247 13336 net.cpp:148] Top shape: 24 64 14 14 (301056)
I0403 14:29:51.483276 13336 net.cpp:156] Memory required for data: 1061809440
I0403 14:29:51.483299 13336 layer_factory.hpp:77] Creating layer inception_4c/relu_pool_proj
I0403 14:29:51.483320 13336 net.cpp:91] Creating Layer inception_4c/relu_pool_proj
I0403 14:29:51.483340 13336 net.cpp:425] inception_4c/relu_pool_proj <- inception_4c/pool_proj
I0403 14:29:51.483355 13336 net.cpp:386] inception_4c/relu_pool_proj -> inception_4c/pool_proj (in-place)
I0403 14:29:51.483531 13336 net.cpp:141] Setting up inception_4c/relu_pool_proj
I0403 14:29:51.483561 13336 net.cpp:148] Top shape: 24 64 14 14 (301056)
I0403 14:29:51.483575 13336 net.cpp:156] Memory required for data: 1063013664
I0403 14:29:51.483589 13336 layer_factory.hpp:77] Creating layer inception_4c/output
I0403 14:29:51.483608 13336 net.cpp:91] Creating Layer inception_4c/output
I0403 14:29:51.483623 13336 net.cpp:425] inception_4c/output <- inception_4c/1x1
I0403 14:29:51.483639 13336 net.cpp:425] inception_4c/output <- inception_4c/3x3
I0403 14:29:51.483654 13336 net.cpp:425] inception_4c/output <- inception_4c/5x5
I0403 14:29:51.483669 13336 net.cpp:425] inception_4c/output <- inception_4c/pool_proj
I0403 14:29:51.483685 13336 net.cpp:399] inception_4c/output -> inception_4c/output
I0403 14:29:51.483731 13336 net.cpp:141] Setting up inception_4c/output
I0403 14:29:51.483753 13336 net.cpp:148] Top shape: 24 512 14 14 (2408448)
I0403 14:29:51.483767 13336 net.cpp:156] Memory required for data: 1072647456
I0403 14:29:51.483780 13336 layer_factory.hpp:77] Creating layer inception_4c/output_inception_4c/output_0_split
I0403 14:29:51.483796 13336 net.cpp:91] Creating Layer inception_4c/output_inception_4c/output_0_split
I0403 14:29:51.483811 13336 net.cpp:425] inception_4c/output_inception_4c/output_0_split <- inception_4c/output
I0403 14:29:51.483829 13336 net.cpp:399] inception_4c/output_inception_4c/output_0_split -> inception_4c/output_inception_4c/output_0_split_0
I0403 14:29:51.483850 13336 net.cpp:399] inception_4c/output_inception_4c/output_0_split -> inception_4c/output_inception_4c/output_0_split_1
I0403 14:29:51.483870 13336 net.cpp:399] inception_4c/output_inception_4c/output_0_split -> inception_4c/output_inception_4c/output_0_split_2
I0403 14:29:51.483887 13336 net.cpp:399] inception_4c/output_inception_4c/output_0_split -> inception_4c/output_inception_4c/output_0_split_3
I0403 14:29:51.483971 13336 net.cpp:141] Setting up inception_4c/output_inception_4c/output_0_split
I0403 14:29:51.483995 13336 net.cpp:148] Top shape: 24 512 14 14 (2408448)
I0403 14:29:51.484011 13336 net.cpp:148] Top shape: 24 512 14 14 (2408448)
I0403 14:29:51.484026 13336 net.cpp:148] Top shape: 24 512 14 14 (2408448)
I0403 14:29:51.484041 13336 net.cpp:148] Top shape: 24 512 14 14 (2408448)
I0403 14:29:51.484055 13336 net.cpp:156] Memory required for data: 1111182624
I0403 14:29:51.484067 13336 layer_factory.hpp:77] Creating layer inception_4d/1x1
I0403 14:29:51.484091 13336 net.cpp:91] Creating Layer inception_4d/1x1
I0403 14:29:51.484107 13336 net.cpp:425] inception_4d/1x1 <- inception_4c/output_inception_4c/output_0_split_0
I0403 14:29:51.484127 13336 net.cpp:399] inception_4d/1x1 -> inception_4d/1x1
I0403 14:29:51.485468 13336 net.cpp:141] Setting up inception_4d/1x1
I0403 14:29:51.485498 13336 net.cpp:148] Top shape: 24 112 14 14 (526848)
I0403 14:29:51.485517 13336 net.cpp:156] Memory required for data: 1113290016
I0403 14:29:51.485533 13336 layer_factory.hpp:77] Creating layer inception_4d/relu_1x1
I0403 14:29:51.485568 13336 net.cpp:91] Creating Layer inception_4d/relu_1x1
I0403 14:29:51.485584 13336 net.cpp:425] inception_4d/relu_1x1 <- inception_4d/1x1
I0403 14:29:51.485602 13336 net.cpp:386] inception_4d/relu_1x1 -> inception_4d/1x1 (in-place)
I0403 14:29:51.485780 13336 net.cpp:141] Setting up inception_4d/relu_1x1
I0403 14:29:51.485805 13336 net.cpp:148] Top shape: 24 112 14 14 (526848)
I0403 14:29:51.485818 13336 net.cpp:156] Memory required for data: 1115397408
I0403 14:29:51.485832 13336 layer_factory.hpp:77] Creating layer inception_4d/3x3_reduce
I0403 14:29:51.485873 13336 net.cpp:91] Creating Layer inception_4d/3x3_reduce
I0403 14:29:51.485893 13336 net.cpp:425] inception_4d/3x3_reduce <- inception_4c/output_inception_4c/output_0_split_1
I0403 14:29:51.485913 13336 net.cpp:399] inception_4d/3x3_reduce -> inception_4d/3x3_reduce
I0403 14:29:51.487378 13336 net.cpp:141] Setting up inception_4d/3x3_reduce
I0403 14:29:51.487408 13336 net.cpp:148] Top shape: 24 144 14 14 (677376)
I0403 14:29:51.487426 13336 net.cpp:156] Memory required for data: 1118106912
I0403 14:29:51.487443 13336 layer_factory.hpp:77] Creating layer inception_4d/relu_3x3_reduce
I0403 14:29:51.487462 13336 net.cpp:91] Creating Layer inception_4d/relu_3x3_reduce
I0403 14:29:51.487478 13336 net.cpp:425] inception_4d/relu_3x3_reduce <- inception_4d/3x3_reduce
I0403 14:29:51.487493 13336 net.cpp:386] inception_4d/relu_3x3_reduce -> inception_4d/3x3_reduce (in-place)
I0403 14:29:51.487779 13336 net.cpp:141] Setting up inception_4d/relu_3x3_reduce
I0403 14:29:51.487807 13336 net.cpp:148] Top shape: 24 144 14 14 (677376)
I0403 14:29:51.487823 13336 net.cpp:156] Memory required for data: 1120816416
I0403 14:29:51.487838 13336 layer_factory.hpp:77] Creating layer inception_4d/3x3
I0403 14:29:51.487857 13336 net.cpp:91] Creating Layer inception_4d/3x3
I0403 14:29:51.487874 13336 net.cpp:425] inception_4d/3x3 <- inception_4d/3x3_reduce
I0403 14:29:51.487892 13336 net.cpp:399] inception_4d/3x3 -> inception_4d/3x3
I0403 14:29:51.492043 13336 net.cpp:141] Setting up inception_4d/3x3
I0403 14:29:51.492071 13336 net.cpp:148] Top shape: 24 288 14 14 (1354752)
I0403 14:29:51.492087 13336 net.cpp:156] Memory required for data: 1126235424
I0403 14:29:51.492105 13336 layer_factory.hpp:77] Creating layer inception_4d/relu_3x3
I0403 14:29:51.492122 13336 net.cpp:91] Creating Layer inception_4d/relu_3x3
I0403 14:29:51.492137 13336 net.cpp:425] inception_4d/relu_3x3 <- inception_4d/3x3
I0403 14:29:51.492156 13336 net.cpp:386] inception_4d/relu_3x3 -> inception_4d/3x3 (in-place)
I0403 14:29:51.492336 13336 net.cpp:141] Setting up inception_4d/relu_3x3
I0403 14:29:51.492360 13336 net.cpp:148] Top shape: 24 288 14 14 (1354752)
I0403 14:29:51.492374 13336 net.cpp:156] Memory required for data: 1131654432
I0403 14:29:51.492388 13336 layer_factory.hpp:77] Creating layer inception_4d/5x5_reduce
I0403 14:29:51.492409 13336 net.cpp:91] Creating Layer inception_4d/5x5_reduce
I0403 14:29:51.492425 13336 net.cpp:425] inception_4d/5x5_reduce <- inception_4c/output_inception_4c/output_0_split_2
I0403 14:29:51.492445 13336 net.cpp:399] inception_4d/5x5_reduce -> inception_4d/5x5_reduce
I0403 14:29:51.493568 13336 net.cpp:141] Setting up inception_4d/5x5_reduce
I0403 14:29:51.493602 13336 net.cpp:148] Top shape: 24 32 14 14 (150528)
I0403 14:29:51.493618 13336 net.cpp:156] Memory required for data: 1132256544
I0403 14:29:51.493635 13336 layer_factory.hpp:77] Creating layer inception_4d/relu_5x5_reduce
I0403 14:29:51.493652 13336 net.cpp:91] Creating Layer inception_4d/relu_5x5_reduce
I0403 14:29:51.493667 13336 net.cpp:425] inception_4d/relu_5x5_reduce <- inception_4d/5x5_reduce
I0403 14:29:51.493686 13336 net.cpp:386] inception_4d/relu_5x5_reduce -> inception_4d/5x5_reduce (in-place)
I0403 14:29:51.493882 13336 net.cpp:141] Setting up inception_4d/relu_5x5_reduce
I0403 14:29:51.493907 13336 net.cpp:148] Top shape: 24 32 14 14 (150528)
I0403 14:29:51.493921 13336 net.cpp:156] Memory required for data: 1132858656
I0403 14:29:51.493937 13336 layer_factory.hpp:77] Creating layer inception_4d/5x5
I0403 14:29:51.493958 13336 net.cpp:91] Creating Layer inception_4d/5x5
I0403 14:29:51.493975 13336 net.cpp:425] inception_4d/5x5 <- inception_4d/5x5_reduce
I0403 14:29:51.493996 13336 net.cpp:399] inception_4d/5x5 -> inception_4d/5x5
I0403 14:29:51.495476 13336 net.cpp:141] Setting up inception_4d/5x5
I0403 14:29:51.495504 13336 net.cpp:148] Top shape: 24 64 14 14 (301056)
I0403 14:29:51.495520 13336 net.cpp:156] Memory required for data: 1134062880
I0403 14:29:51.495543 13336 layer_factory.hpp:77] Creating layer inception_4d/relu_5x5
I0403 14:29:51.495579 13336 net.cpp:91] Creating Layer inception_4d/relu_5x5
I0403 14:29:51.495596 13336 net.cpp:425] inception_4d/relu_5x5 <- inception_4d/5x5
I0403 14:29:51.495614 13336 net.cpp:386] inception_4d/relu_5x5 -> inception_4d/5x5 (in-place)
I0403 14:29:51.495914 13336 net.cpp:141] Setting up inception_4d/relu_5x5
I0403 14:29:51.495940 13336 net.cpp:148] Top shape: 24 64 14 14 (301056)
I0403 14:29:51.495955 13336 net.cpp:156] Memory required for data: 1135267104
I0403 14:29:51.495970 13336 layer_factory.hpp:77] Creating layer inception_4d/pool
I0403 14:29:51.495992 13336 net.cpp:91] Creating Layer inception_4d/pool
I0403 14:29:51.496011 13336 net.cpp:425] inception_4d/pool <- inception_4c/output_inception_4c/output_0_split_3
I0403 14:29:51.496027 13336 net.cpp:399] inception_4d/pool -> inception_4d/pool
I0403 14:29:51.496095 13336 net.cpp:141] Setting up inception_4d/pool
I0403 14:29:51.496119 13336 net.cpp:148] Top shape: 24 512 14 14 (2408448)
I0403 14:29:51.496134 13336 net.cpp:156] Memory required for data: 1144900896
I0403 14:29:51.496147 13336 layer_factory.hpp:77] Creating layer inception_4d/pool_proj
I0403 14:29:51.496170 13336 net.cpp:91] Creating Layer inception_4d/pool_proj
I0403 14:29:51.496186 13336 net.cpp:425] inception_4d/pool_proj <- inception_4d/pool
I0403 14:29:51.496206 13336 net.cpp:399] inception_4d/pool_proj -> inception_4d/pool_proj
I0403 14:29:51.498023 13336 net.cpp:141] Setting up inception_4d/pool_proj
I0403 14:29:51.498052 13336 net.cpp:148] Top shape: 24 64 14 14 (301056)
I0403 14:29:51.498067 13336 net.cpp:156] Memory required for data: 1146105120
I0403 14:29:51.498086 13336 layer_factory.hpp:77] Creating layer inception_4d/relu_pool_proj
I0403 14:29:51.498105 13336 net.cpp:91] Creating Layer inception_4d/relu_pool_proj
I0403 14:29:51.498121 13336 net.cpp:425] inception_4d/relu_pool_proj <- inception_4d/pool_proj
I0403 14:29:51.498141 13336 net.cpp:386] inception_4d/relu_pool_proj -> inception_4d/pool_proj (in-place)
I0403 14:29:51.498325 13336 net.cpp:141] Setting up inception_4d/relu_pool_proj
I0403 14:29:51.498350 13336 net.cpp:148] Top shape: 24 64 14 14 (301056)
I0403 14:29:51.498365 13336 net.cpp:156] Memory required for data: 1147309344
I0403 14:29:51.498379 13336 layer_factory.hpp:77] Creating layer inception_4d/output
I0403 14:29:51.498400 13336 net.cpp:91] Creating Layer inception_4d/output
I0403 14:29:51.498416 13336 net.cpp:425] inception_4d/output <- inception_4d/1x1
I0403 14:29:51.498433 13336 net.cpp:425] inception_4d/output <- inception_4d/3x3
I0403 14:29:51.498448 13336 net.cpp:425] inception_4d/output <- inception_4d/5x5
I0403 14:29:51.498463 13336 net.cpp:425] inception_4d/output <- inception_4d/pool_proj
I0403 14:29:51.498479 13336 net.cpp:399] inception_4d/output -> inception_4d/output
I0403 14:29:51.498528 13336 net.cpp:141] Setting up inception_4d/output
I0403 14:29:51.498555 13336 net.cpp:148] Top shape: 24 528 14 14 (2483712)
I0403 14:29:51.498570 13336 net.cpp:156] Memory required for data: 1157244192
I0403 14:29:51.498584 13336 layer_factory.hpp:77] Creating layer inception_4d/output_inception_4d/output_0_split
I0403 14:29:51.498601 13336 net.cpp:91] Creating Layer inception_4d/output_inception_4d/output_0_split
I0403 14:29:51.498616 13336 net.cpp:425] inception_4d/output_inception_4d/output_0_split <- inception_4d/output
I0403 14:29:51.498636 13336 net.cpp:399] inception_4d/output_inception_4d/output_0_split -> inception_4d/output_inception_4d/output_0_split_0
I0403 14:29:51.498657 13336 net.cpp:399] inception_4d/output_inception_4d/output_0_split -> inception_4d/output_inception_4d/output_0_split_1
I0403 14:29:51.498677 13336 net.cpp:399] inception_4d/output_inception_4d/output_0_split -> inception_4d/output_inception_4d/output_0_split_2
I0403 14:29:51.498698 13336 net.cpp:399] inception_4d/output_inception_4d/output_0_split -> inception_4d/output_inception_4d/output_0_split_3
I0403 14:29:51.498718 13336 net.cpp:399] inception_4d/output_inception_4d/output_0_split -> inception_4d/output_inception_4d/output_0_split_4
I0403 14:29:51.498819 13336 net.cpp:141] Setting up inception_4d/output_inception_4d/output_0_split
I0403 14:29:51.498855 13336 net.cpp:148] Top shape: 24 528 14 14 (2483712)
I0403 14:29:51.498875 13336 net.cpp:148] Top shape: 24 528 14 14 (2483712)
I0403 14:29:51.498891 13336 net.cpp:148] Top shape: 24 528 14 14 (2483712)
I0403 14:29:51.498906 13336 net.cpp:148] Top shape: 24 528 14 14 (2483712)
I0403 14:29:51.498921 13336 net.cpp:148] Top shape: 24 528 14 14 (2483712)
I0403 14:29:51.498934 13336 net.cpp:156] Memory required for data: 1206918432
I0403 14:29:51.498947 13336 layer_factory.hpp:77] Creating layer loss2/ave_pool
I0403 14:29:51.498965 13336 net.cpp:91] Creating Layer loss2/ave_pool
I0403 14:29:51.498980 13336 net.cpp:425] loss2/ave_pool <- inception_4d/output_inception_4d/output_0_split_0
I0403 14:29:51.499001 13336 net.cpp:399] loss2/ave_pool -> loss2/ave_pool
I0403 14:29:51.499315 13336 net.cpp:141] Setting up loss2/ave_pool
I0403 14:29:51.499341 13336 net.cpp:148] Top shape: 24 528 4 4 (202752)
I0403 14:29:51.499356 13336 net.cpp:156] Memory required for data: 1207729440
I0403 14:29:51.499369 13336 layer_factory.hpp:77] Creating layer loss2/conv
I0403 14:29:51.499392 13336 net.cpp:91] Creating Layer loss2/conv
I0403 14:29:51.499408 13336 net.cpp:425] loss2/conv <- loss2/ave_pool
I0403 14:29:51.499429 13336 net.cpp:399] loss2/conv -> loss2/conv
I0403 14:29:51.501327 13336 net.cpp:141] Setting up loss2/conv
I0403 14:29:51.501356 13336 net.cpp:148] Top shape: 24 128 4 4 (49152)
I0403 14:29:51.501373 13336 net.cpp:156] Memory required for data: 1207926048
I0403 14:29:51.501390 13336 layer_factory.hpp:77] Creating layer loss2/relu_conv
I0403 14:29:51.501411 13336 net.cpp:91] Creating Layer loss2/relu_conv
I0403 14:29:51.501428 13336 net.cpp:425] loss2/relu_conv <- loss2/conv
I0403 14:29:51.501446 13336 net.cpp:386] loss2/relu_conv -> loss2/conv (in-place)
I0403 14:29:51.501744 13336 net.cpp:141] Setting up loss2/relu_conv
I0403 14:29:51.501771 13336 net.cpp:148] Top shape: 24 128 4 4 (49152)
I0403 14:29:51.501786 13336 net.cpp:156] Memory required for data: 1208122656
I0403 14:29:51.501801 13336 layer_factory.hpp:77] Creating layer loss2/fc
I0403 14:29:51.501821 13336 net.cpp:91] Creating Layer loss2/fc
I0403 14:29:51.501839 13336 net.cpp:425] loss2/fc <- loss2/conv
I0403 14:29:51.501862 13336 net.cpp:399] loss2/fc -> loss2/fc
I0403 14:29:51.519639 13336 net.cpp:141] Setting up loss2/fc
I0403 14:29:51.519691 13336 net.cpp:148] Top shape: 24 1024 (24576)
I0403 14:29:51.519708 13336 net.cpp:156] Memory required for data: 1208220960
I0403 14:29:51.519731 13336 layer_factory.hpp:77] Creating layer loss2/relu_fc
I0403 14:29:51.519750 13336 net.cpp:91] Creating Layer loss2/relu_fc
I0403 14:29:51.519768 13336 net.cpp:425] loss2/relu_fc <- loss2/fc
I0403 14:29:51.519788 13336 net.cpp:386] loss2/relu_fc -> loss2/fc (in-place)
I0403 14:29:51.520138 13336 net.cpp:141] Setting up loss2/relu_fc
I0403 14:29:51.520164 13336 net.cpp:148] Top shape: 24 1024 (24576)
I0403 14:29:51.520180 13336 net.cpp:156] Memory required for data: 1208319264
I0403 14:29:51.520195 13336 layer_factory.hpp:77] Creating layer loss2/drop_fc
I0403 14:29:51.520215 13336 net.cpp:91] Creating Layer loss2/drop_fc
I0403 14:29:51.520231 13336 net.cpp:425] loss2/drop_fc <- loss2/fc
I0403 14:29:51.520249 13336 net.cpp:386] loss2/drop_fc -> loss2/fc (in-place)
I0403 14:29:51.520300 13336 net.cpp:141] Setting up loss2/drop_fc
I0403 14:29:51.520328 13336 net.cpp:148] Top shape: 24 1024 (24576)
I0403 14:29:51.520345 13336 net.cpp:156] Memory required for data: 1208417568
I0403 14:29:51.520361 13336 layer_factory.hpp:77] Creating layer loss2/classifier_plantvillage
I0403 14:29:51.520380 13336 net.cpp:91] Creating Layer loss2/classifier_plantvillage
I0403 14:29:51.520395 13336 net.cpp:425] loss2/classifier_plantvillage <- loss2/fc
I0403 14:29:51.520416 13336 net.cpp:399] loss2/classifier_plantvillage -> loss2/classifier_plantvillage
I0403 14:29:51.520830 13336 net.cpp:141] Setting up loss2/classifier_plantvillage
I0403 14:29:51.520858 13336 net.cpp:148] Top shape: 24 38 (912)
I0403 14:29:51.520910 13336 net.cpp:156] Memory required for data: 1208421216
I0403 14:29:51.520928 13336 layer_factory.hpp:77] Creating layer loss2/classifier_plantvillage_loss2/classifier_plantvillage_0_split
I0403 14:29:51.520947 13336 net.cpp:91] Creating Layer loss2/classifier_plantvillage_loss2/classifier_plantvillage_0_split
I0403 14:29:51.520963 13336 net.cpp:425] loss2/classifier_plantvillage_loss2/classifier_plantvillage_0_split <- loss2/classifier_plantvillage
I0403 14:29:51.520982 13336 net.cpp:399] loss2/classifier_plantvillage_loss2/classifier_plantvillage_0_split -> loss2/classifier_plantvillage_loss2/classifier_plantvillage_0_split_0
I0403 14:29:51.521001 13336 net.cpp:399] loss2/classifier_plantvillage_loss2/classifier_plantvillage_0_split -> loss2/classifier_plantvillage_loss2/classifier_plantvillage_0_split_1
I0403 14:29:51.521024 13336 net.cpp:399] loss2/classifier_plantvillage_loss2/classifier_plantvillage_0_split -> loss2/classifier_plantvillage_loss2/classifier_plantvillage_0_split_2
I0403 14:29:51.521106 13336 net.cpp:141] Setting up loss2/classifier_plantvillage_loss2/classifier_plantvillage_0_split
I0403 14:29:51.521131 13336 net.cpp:148] Top shape: 24 38 (912)
I0403 14:29:51.521147 13336 net.cpp:148] Top shape: 24 38 (912)
I0403 14:29:51.521162 13336 net.cpp:148] Top shape: 24 38 (912)
I0403 14:29:51.521175 13336 net.cpp:156] Memory required for data: 1208432160
I0403 14:29:51.521190 13336 layer_factory.hpp:77] Creating layer inception_4e/1x1
I0403 14:29:51.521211 13336 net.cpp:91] Creating Layer inception_4e/1x1
I0403 14:29:51.521229 13336 net.cpp:425] inception_4e/1x1 <- inception_4d/output_inception_4d/output_0_split_1
I0403 14:29:51.521250 13336 net.cpp:399] inception_4e/1x1 -> inception_4e/1x1
I0403 14:29:51.523180 13336 net.cpp:141] Setting up inception_4e/1x1
I0403 14:29:51.523210 13336 net.cpp:148] Top shape: 24 256 14 14 (1204224)
I0403 14:29:51.523226 13336 net.cpp:156] Memory required for data: 1213249056
I0403 14:29:51.523246 13336 layer_factory.hpp:77] Creating layer inception_4e/relu_1x1
I0403 14:29:51.523265 13336 net.cpp:91] Creating Layer inception_4e/relu_1x1
I0403 14:29:51.523284 13336 net.cpp:425] inception_4e/relu_1x1 <- inception_4e/1x1
I0403 14:29:51.523303 13336 net.cpp:386] inception_4e/relu_1x1 -> inception_4e/1x1 (in-place)
I0403 14:29:51.523623 13336 net.cpp:141] Setting up inception_4e/relu_1x1
I0403 14:29:51.523651 13336 net.cpp:148] Top shape: 24 256 14 14 (1204224)
I0403 14:29:51.523668 13336 net.cpp:156] Memory required for data: 1218065952
I0403 14:29:51.523684 13336 layer_factory.hpp:77] Creating layer inception_4e/3x3_reduce
I0403 14:29:51.523708 13336 net.cpp:91] Creating Layer inception_4e/3x3_reduce
I0403 14:29:51.523726 13336 net.cpp:425] inception_4e/3x3_reduce <- inception_4d/output_inception_4d/output_0_split_2
I0403 14:29:51.523746 13336 net.cpp:399] inception_4e/3x3_reduce -> inception_4e/3x3_reduce
I0403 14:29:51.525957 13336 net.cpp:141] Setting up inception_4e/3x3_reduce
I0403 14:29:51.525988 13336 net.cpp:148] Top shape: 24 160 14 14 (752640)
I0403 14:29:51.526005 13336 net.cpp:156] Memory required for data: 1221076512
I0403 14:29:51.526024 13336 layer_factory.hpp:77] Creating layer inception_4e/relu_3x3_reduce
I0403 14:29:51.526046 13336 net.cpp:91] Creating Layer inception_4e/relu_3x3_reduce
I0403 14:29:51.526064 13336 net.cpp:425] inception_4e/relu_3x3_reduce <- inception_4e/3x3_reduce
I0403 14:29:51.526082 13336 net.cpp:386] inception_4e/relu_3x3_reduce -> inception_4e/3x3_reduce (in-place)
I0403 14:29:51.526273 13336 net.cpp:141] Setting up inception_4e/relu_3x3_reduce
I0403 14:29:51.526303 13336 net.cpp:148] Top shape: 24 160 14 14 (752640)
I0403 14:29:51.526317 13336 net.cpp:156] Memory required for data: 1224087072
I0403 14:29:51.526332 13336 layer_factory.hpp:77] Creating layer inception_4e/3x3
I0403 14:29:51.526355 13336 net.cpp:91] Creating Layer inception_4e/3x3
I0403 14:29:51.526372 13336 net.cpp:425] inception_4e/3x3 <- inception_4e/3x3_reduce
I0403 14:29:51.526391 13336 net.cpp:399] inception_4e/3x3 -> inception_4e/3x3
I0403 14:29:51.531594 13336 net.cpp:141] Setting up inception_4e/3x3
I0403 14:29:51.531641 13336 net.cpp:148] Top shape: 24 320 14 14 (1505280)
I0403 14:29:51.531659 13336 net.cpp:156] Memory required for data: 1230108192
I0403 14:29:51.531679 13336 layer_factory.hpp:77] Creating layer inception_4e/relu_3x3
I0403 14:29:51.531697 13336 net.cpp:91] Creating Layer inception_4e/relu_3x3
I0403 14:29:51.531713 13336 net.cpp:425] inception_4e/relu_3x3 <- inception_4e/3x3
I0403 14:29:51.531730 13336 net.cpp:386] inception_4e/relu_3x3 -> inception_4e/3x3 (in-place)
I0403 14:29:51.532030 13336 net.cpp:141] Setting up inception_4e/relu_3x3
I0403 14:29:51.532059 13336 net.cpp:148] Top shape: 24 320 14 14 (1505280)
I0403 14:29:51.532075 13336 net.cpp:156] Memory required for data: 1236129312
I0403 14:29:51.532090 13336 layer_factory.hpp:77] Creating layer inception_4e/5x5_reduce
I0403 14:29:51.532114 13336 net.cpp:91] Creating Layer inception_4e/5x5_reduce
I0403 14:29:51.532130 13336 net.cpp:425] inception_4e/5x5_reduce <- inception_4d/output_inception_4d/output_0_split_3
I0403 14:29:51.532150 13336 net.cpp:399] inception_4e/5x5_reduce -> inception_4e/5x5_reduce
I0403 14:29:51.533226 13336 net.cpp:141] Setting up inception_4e/5x5_reduce
I0403 14:29:51.533254 13336 net.cpp:148] Top shape: 24 32 14 14 (150528)
I0403 14:29:51.533270 13336 net.cpp:156] Memory required for data: 1236731424
I0403 14:29:51.533289 13336 layer_factory.hpp:77] Creating layer inception_4e/relu_5x5_reduce
I0403 14:29:51.533313 13336 net.cpp:91] Creating Layer inception_4e/relu_5x5_reduce
I0403 14:29:51.533332 13336 net.cpp:425] inception_4e/relu_5x5_reduce <- inception_4e/5x5_reduce
I0403 14:29:51.533349 13336 net.cpp:386] inception_4e/relu_5x5_reduce -> inception_4e/5x5_reduce (in-place)
I0403 14:29:51.533653 13336 net.cpp:141] Setting up inception_4e/relu_5x5_reduce
I0403 14:29:51.533680 13336 net.cpp:148] Top shape: 24 32 14 14 (150528)
I0403 14:29:51.533696 13336 net.cpp:156] Memory required for data: 1237333536
I0403 14:29:51.533711 13336 layer_factory.hpp:77] Creating layer inception_4e/5x5
I0403 14:29:51.533751 13336 net.cpp:91] Creating Layer inception_4e/5x5
I0403 14:29:51.533771 13336 net.cpp:425] inception_4e/5x5 <- inception_4e/5x5_reduce
I0403 14:29:51.533793 13336 net.cpp:399] inception_4e/5x5 -> inception_4e/5x5
I0403 14:29:51.535712 13336 net.cpp:141] Setting up inception_4e/5x5
I0403 14:29:51.535742 13336 net.cpp:148] Top shape: 24 128 14 14 (602112)
I0403 14:29:51.535759 13336 net.cpp:156] Memory required for data: 1239741984
I0403 14:29:51.535779 13336 layer_factory.hpp:77] Creating layer inception_4e/relu_5x5
I0403 14:29:51.535796 13336 net.cpp:91] Creating Layer inception_4e/relu_5x5
I0403 14:29:51.535811 13336 net.cpp:425] inception_4e/relu_5x5 <- inception_4e/5x5
I0403 14:29:51.535830 13336 net.cpp:386] inception_4e/relu_5x5 -> inception_4e/5x5 (in-place)
I0403 14:29:51.536028 13336 net.cpp:141] Setting up inception_4e/relu_5x5
I0403 14:29:51.536054 13336 net.cpp:148] Top shape: 24 128 14 14 (602112)
I0403 14:29:51.536069 13336 net.cpp:156] Memory required for data: 1242150432
I0403 14:29:51.536084 13336 layer_factory.hpp:77] Creating layer inception_4e/pool
I0403 14:29:51.536105 13336 net.cpp:91] Creating Layer inception_4e/pool
I0403 14:29:51.536123 13336 net.cpp:425] inception_4e/pool <- inception_4d/output_inception_4d/output_0_split_4
I0403 14:29:51.536139 13336 net.cpp:399] inception_4e/pool -> inception_4e/pool
I0403 14:29:51.536211 13336 net.cpp:141] Setting up inception_4e/pool
I0403 14:29:51.536233 13336 net.cpp:148] Top shape: 24 528 14 14 (2483712)
I0403 14:29:51.536248 13336 net.cpp:156] Memory required for data: 1252085280
I0403 14:29:51.536262 13336 layer_factory.hpp:77] Creating layer inception_4e/pool_proj
I0403 14:29:51.536295 13336 net.cpp:91] Creating Layer inception_4e/pool_proj
I0403 14:29:51.536310 13336 net.cpp:425] inception_4e/pool_proj <- inception_4e/pool
I0403 14:29:51.536330 13336 net.cpp:399] inception_4e/pool_proj -> inception_4e/pool_proj
I0403 14:29:51.537804 13336 net.cpp:141] Setting up inception_4e/pool_proj
I0403 14:29:51.537847 13336 net.cpp:148] Top shape: 24 128 14 14 (602112)
I0403 14:29:51.537863 13336 net.cpp:156] Memory required for data: 1254493728
I0403 14:29:51.537880 13336 layer_factory.hpp:77] Creating layer inception_4e/relu_pool_proj
I0403 14:29:51.537897 13336 net.cpp:91] Creating Layer inception_4e/relu_pool_proj
I0403 14:29:51.537912 13336 net.cpp:425] inception_4e/relu_pool_proj <- inception_4e/pool_proj
I0403 14:29:51.537931 13336 net.cpp:386] inception_4e/relu_pool_proj -> inception_4e/pool_proj (in-place)
I0403 14:29:51.538223 13336 net.cpp:141] Setting up inception_4e/relu_pool_proj
I0403 14:29:51.538249 13336 net.cpp:148] Top shape: 24 128 14 14 (602112)
I0403 14:29:51.538262 13336 net.cpp:156] Memory required for data: 1256902176
I0403 14:29:51.538276 13336 layer_factory.hpp:77] Creating layer inception_4e/output
I0403 14:29:51.538295 13336 net.cpp:91] Creating Layer inception_4e/output
I0403 14:29:51.538310 13336 net.cpp:425] inception_4e/output <- inception_4e/1x1
I0403 14:29:51.538326 13336 net.cpp:425] inception_4e/output <- inception_4e/3x3
I0403 14:29:51.538341 13336 net.cpp:425] inception_4e/output <- inception_4e/5x5
I0403 14:29:51.538357 13336 net.cpp:425] inception_4e/output <- inception_4e/pool_proj
I0403 14:29:51.538374 13336 net.cpp:399] inception_4e/output -> inception_4e/output
I0403 14:29:51.538422 13336 net.cpp:141] Setting up inception_4e/output
I0403 14:29:51.538447 13336 net.cpp:148] Top shape: 24 832 14 14 (3913728)
I0403 14:29:51.538462 13336 net.cpp:156] Memory required for data: 1272557088
I0403 14:29:51.538476 13336 layer_factory.hpp:77] Creating layer pool4/3x3_s2
I0403 14:29:51.538492 13336 net.cpp:91] Creating Layer pool4/3x3_s2
I0403 14:29:51.538508 13336 net.cpp:425] pool4/3x3_s2 <- inception_4e/output
I0403 14:29:51.538524 13336 net.cpp:399] pool4/3x3_s2 -> pool4/3x3_s2
I0403 14:29:51.538595 13336 net.cpp:141] Setting up pool4/3x3_s2
I0403 14:29:51.538619 13336 net.cpp:148] Top shape: 24 832 7 7 (978432)
I0403 14:29:51.538632 13336 net.cpp:156] Memory required for data: 1276470816
I0403 14:29:51.538646 13336 layer_factory.hpp:77] Creating layer pool4/3x3_s2_pool4/3x3_s2_0_split
I0403 14:29:51.538662 13336 net.cpp:91] Creating Layer pool4/3x3_s2_pool4/3x3_s2_0_split
I0403 14:29:51.538676 13336 net.cpp:425] pool4/3x3_s2_pool4/3x3_s2_0_split <- pool4/3x3_s2
I0403 14:29:51.538694 13336 net.cpp:399] pool4/3x3_s2_pool4/3x3_s2_0_split -> pool4/3x3_s2_pool4/3x3_s2_0_split_0
I0403 14:29:51.538714 13336 net.cpp:399] pool4/3x3_s2_pool4/3x3_s2_0_split -> pool4/3x3_s2_pool4/3x3_s2_0_split_1
I0403 14:29:51.538733 13336 net.cpp:399] pool4/3x3_s2_pool4/3x3_s2_0_split -> pool4/3x3_s2_pool4/3x3_s2_0_split_2
I0403 14:29:51.538754 13336 net.cpp:399] pool4/3x3_s2_pool4/3x3_s2_0_split -> pool4/3x3_s2_pool4/3x3_s2_0_split_3
I0403 14:29:51.538843 13336 net.cpp:141] Setting up pool4/3x3_s2_pool4/3x3_s2_0_split
I0403 14:29:51.538866 13336 net.cpp:148] Top shape: 24 832 7 7 (978432)
I0403 14:29:51.538882 13336 net.cpp:148] Top shape: 24 832 7 7 (978432)
I0403 14:29:51.538897 13336 net.cpp:148] Top shape: 24 832 7 7 (978432)
I0403 14:29:51.538910 13336 net.cpp:148] Top shape: 24 832 7 7 (978432)
I0403 14:29:51.538923 13336 net.cpp:156] Memory required for data: 1292125728
I0403 14:29:51.538938 13336 layer_factory.hpp:77] Creating layer inception_5a/1x1
I0403 14:29:51.538959 13336 net.cpp:91] Creating Layer inception_5a/1x1
I0403 14:29:51.538975 13336 net.cpp:425] inception_5a/1x1 <- pool4/3x3_s2_pool4/3x3_s2_0_split_0
I0403 14:29:51.538995 13336 net.cpp:399] inception_5a/1x1 -> inception_5a/1x1
I0403 14:29:51.541786 13336 net.cpp:141] Setting up inception_5a/1x1
I0403 14:29:51.541815 13336 net.cpp:148] Top shape: 24 256 7 7 (301056)
I0403 14:29:51.541831 13336 net.cpp:156] Memory required for data: 1293329952
I0403 14:29:51.541857 13336 layer_factory.hpp:77] Creating layer inception_5a/relu_1x1
I0403 14:29:51.541877 13336 net.cpp:91] Creating Layer inception_5a/relu_1x1
I0403 14:29:51.541893 13336 net.cpp:425] inception_5a/relu_1x1 <- inception_5a/1x1
I0403 14:29:51.541910 13336 net.cpp:386] inception_5a/relu_1x1 -> inception_5a/1x1 (in-place)
I0403 14:29:51.542217 13336 net.cpp:141] Setting up inception_5a/relu_1x1
I0403 14:29:51.542243 13336 net.cpp:148] Top shape: 24 256 7 7 (301056)
I0403 14:29:51.542258 13336 net.cpp:156] Memory required for data: 1294534176
I0403 14:29:51.542271 13336 layer_factory.hpp:77] Creating layer inception_5a/3x3_reduce
I0403 14:29:51.542292 13336 net.cpp:91] Creating Layer inception_5a/3x3_reduce
I0403 14:29:51.542310 13336 net.cpp:425] inception_5a/3x3_reduce <- pool4/3x3_s2_pool4/3x3_s2_0_split_1
I0403 14:29:51.542330 13336 net.cpp:399] inception_5a/3x3_reduce -> inception_5a/3x3_reduce
I0403 14:29:51.544757 13336 net.cpp:141] Setting up inception_5a/3x3_reduce
I0403 14:29:51.544788 13336 net.cpp:148] Top shape: 24 160 7 7 (188160)
I0403 14:29:51.544805 13336 net.cpp:156] Memory required for data: 1295286816
I0403 14:29:51.544822 13336 layer_factory.hpp:77] Creating layer inception_5a/relu_3x3_reduce
I0403 14:29:51.544841 13336 net.cpp:91] Creating Layer inception_5a/relu_3x3_reduce
I0403 14:29:51.544855 13336 net.cpp:425] inception_5a/relu_3x3_reduce <- inception_5a/3x3_reduce
I0403 14:29:51.544874 13336 net.cpp:386] inception_5a/relu_3x3_reduce -> inception_5a/3x3_reduce (in-place)
I0403 14:29:51.545059 13336 net.cpp:141] Setting up inception_5a/relu_3x3_reduce
I0403 14:29:51.545083 13336 net.cpp:148] Top shape: 24 160 7 7 (188160)
I0403 14:29:51.545097 13336 net.cpp:156] Memory required for data: 1296039456
I0403 14:29:51.545110 13336 layer_factory.hpp:77] Creating layer inception_5a/3x3
I0403 14:29:51.545132 13336 net.cpp:91] Creating Layer inception_5a/3x3
I0403 14:29:51.545150 13336 net.cpp:425] inception_5a/3x3 <- inception_5a/3x3_reduce
I0403 14:29:51.545171 13336 net.cpp:399] inception_5a/3x3 -> inception_5a/3x3
I0403 14:29:51.550154 13336 net.cpp:141] Setting up inception_5a/3x3
I0403 14:29:51.550184 13336 net.cpp:148] Top shape: 24 320 7 7 (376320)
I0403 14:29:51.550199 13336 net.cpp:156] Memory required for data: 1297544736
I0403 14:29:51.550217 13336 layer_factory.hpp:77] Creating layer inception_5a/relu_3x3
I0403 14:29:51.550238 13336 net.cpp:91] Creating Layer inception_5a/relu_3x3
I0403 14:29:51.550256 13336 net.cpp:425] inception_5a/relu_3x3 <- inception_5a/3x3
I0403 14:29:51.550273 13336 net.cpp:386] inception_5a/relu_3x3 -> inception_5a/3x3 (in-place)
I0403 14:29:51.550565 13336 net.cpp:141] Setting up inception_5a/relu_3x3
I0403 14:29:51.550591 13336 net.cpp:148] Top shape: 24 320 7 7 (376320)
I0403 14:29:51.550606 13336 net.cpp:156] Memory required for data: 1299050016
I0403 14:29:51.550621 13336 layer_factory.hpp:77] Creating layer inception_5a/5x5_reduce
I0403 14:29:51.550642 13336 net.cpp:91] Creating Layer inception_5a/5x5_reduce
I0403 14:29:51.550657 13336 net.cpp:425] inception_5a/5x5_reduce <- pool4/3x3_s2_pool4/3x3_s2_0_split_2
I0403 14:29:51.550678 13336 net.cpp:399] inception_5a/5x5_reduce -> inception_5a/5x5_reduce
I0403 14:29:51.551831 13336 net.cpp:141] Setting up inception_5a/5x5_reduce
I0403 14:29:51.551862 13336 net.cpp:148] Top shape: 24 32 7 7 (37632)
I0403 14:29:51.551879 13336 net.cpp:156] Memory required for data: 1299200544
I0403 14:29:51.551898 13336 layer_factory.hpp:77] Creating layer inception_5a/relu_5x5_reduce
I0403 14:29:51.551914 13336 net.cpp:91] Creating Layer inception_5a/relu_5x5_reduce
I0403 14:29:51.551929 13336 net.cpp:425] inception_5a/relu_5x5_reduce <- inception_5a/5x5_reduce
I0403 14:29:51.551945 13336 net.cpp:386] inception_5a/relu_5x5_reduce -> inception_5a/5x5_reduce (in-place)
I0403 14:29:51.552238 13336 net.cpp:141] Setting up inception_5a/relu_5x5_reduce
I0403 14:29:51.552263 13336 net.cpp:148] Top shape: 24 32 7 7 (37632)
I0403 14:29:51.552278 13336 net.cpp:156] Memory required for data: 1299351072
I0403 14:29:51.552294 13336 layer_factory.hpp:77] Creating layer inception_5a/5x5
I0403 14:29:51.552315 13336 net.cpp:91] Creating Layer inception_5a/5x5
I0403 14:29:51.552332 13336 net.cpp:425] inception_5a/5x5 <- inception_5a/5x5_reduce
I0403 14:29:51.552352 13336 net.cpp:399] inception_5a/5x5 -> inception_5a/5x5
I0403 14:29:51.554044 13336 net.cpp:141] Setting up inception_5a/5x5
I0403 14:29:51.554082 13336 net.cpp:148] Top shape: 24 128 7 7 (150528)
I0403 14:29:51.554100 13336 net.cpp:156] Memory required for data: 1299953184
I0403 14:29:51.554117 13336 layer_factory.hpp:77] Creating layer inception_5a/relu_5x5
I0403 14:29:51.554137 13336 net.cpp:91] Creating Layer inception_5a/relu_5x5
I0403 14:29:51.554155 13336 net.cpp:425] inception_5a/relu_5x5 <- inception_5a/5x5
I0403 14:29:51.554172 13336 net.cpp:386] inception_5a/relu_5x5 -> inception_5a/5x5 (in-place)
I0403 14:29:51.554358 13336 net.cpp:141] Setting up inception_5a/relu_5x5
I0403 14:29:51.554381 13336 net.cpp:148] Top shape: 24 128 7 7 (150528)
I0403 14:29:51.554395 13336 net.cpp:156] Memory required for data: 1300555296
I0403 14:29:51.554409 13336 layer_factory.hpp:77] Creating layer inception_5a/pool
I0403 14:29:51.554428 13336 net.cpp:91] Creating Layer inception_5a/pool
I0403 14:29:51.554445 13336 net.cpp:425] inception_5a/pool <- pool4/3x3_s2_pool4/3x3_s2_0_split_3
I0403 14:29:51.554462 13336 net.cpp:399] inception_5a/pool -> inception_5a/pool
I0403 14:29:51.554532 13336 net.cpp:141] Setting up inception_5a/pool
I0403 14:29:51.554563 13336 net.cpp:148] Top shape: 24 832 7 7 (978432)
I0403 14:29:51.554579 13336 net.cpp:156] Memory required for data: 1304469024
I0403 14:29:51.554592 13336 layer_factory.hpp:77] Creating layer inception_5a/pool_proj
I0403 14:29:51.554613 13336 net.cpp:91] Creating Layer inception_5a/pool_proj
I0403 14:29:51.554630 13336 net.cpp:425] inception_5a/pool_proj <- inception_5a/pool
I0403 14:29:51.554653 13336 net.cpp:399] inception_5a/pool_proj -> inception_5a/pool_proj
I0403 14:29:51.556915 13336 net.cpp:141] Setting up inception_5a/pool_proj
I0403 14:29:51.556946 13336 net.cpp:148] Top shape: 24 128 7 7 (150528)
I0403 14:29:51.556960 13336 net.cpp:156] Memory required for data: 1305071136
I0403 14:29:51.556977 13336 layer_factory.hpp:77] Creating layer inception_5a/relu_pool_proj
I0403 14:29:51.556993 13336 net.cpp:91] Creating Layer inception_5a/relu_pool_proj
I0403 14:29:51.557009 13336 net.cpp:425] inception_5a/relu_pool_proj <- inception_5a/pool_proj
I0403 14:29:51.557029 13336 net.cpp:386] inception_5a/relu_pool_proj -> inception_5a/pool_proj (in-place)
I0403 14:29:51.557315 13336 net.cpp:141] Setting up inception_5a/relu_pool_proj
I0403 14:29:51.557342 13336 net.cpp:148] Top shape: 24 128 7 7 (150528)
I0403 14:29:51.557355 13336 net.cpp:156] Memory required for data: 1305673248
I0403 14:29:51.557368 13336 layer_factory.hpp:77] Creating layer inception_5a/output
I0403 14:29:51.557385 13336 net.cpp:91] Creating Layer inception_5a/output
I0403 14:29:51.557400 13336 net.cpp:425] inception_5a/output <- inception_5a/1x1
I0403 14:29:51.557416 13336 net.cpp:425] inception_5a/output <- inception_5a/3x3
I0403 14:29:51.557431 13336 net.cpp:425] inception_5a/output <- inception_5a/5x5
I0403 14:29:51.557446 13336 net.cpp:425] inception_5a/output <- inception_5a/pool_proj
I0403 14:29:51.557464 13336 net.cpp:399] inception_5a/output -> inception_5a/output
I0403 14:29:51.557512 13336 net.cpp:141] Setting up inception_5a/output
I0403 14:29:51.557543 13336 net.cpp:148] Top shape: 24 832 7 7 (978432)
I0403 14:29:51.557559 13336 net.cpp:156] Memory required for data: 1309586976
I0403 14:29:51.557572 13336 layer_factory.hpp:77] Creating layer inception_5a/output_inception_5a/output_0_split
I0403 14:29:51.557588 13336 net.cpp:91] Creating Layer inception_5a/output_inception_5a/output_0_split
I0403 14:29:51.557603 13336 net.cpp:425] inception_5a/output_inception_5a/output_0_split <- inception_5a/output
I0403 14:29:51.557631 13336 net.cpp:399] inception_5a/output_inception_5a/output_0_split -> inception_5a/output_inception_5a/output_0_split_0
I0403 14:29:51.557656 13336 net.cpp:399] inception_5a/output_inception_5a/output_0_split -> inception_5a/output_inception_5a/output_0_split_1
I0403 14:29:51.557677 13336 net.cpp:399] inception_5a/output_inception_5a/output_0_split -> inception_5a/output_inception_5a/output_0_split_2
I0403 14:29:51.557696 13336 net.cpp:399] inception_5a/output_inception_5a/output_0_split -> inception_5a/output_inception_5a/output_0_split_3
I0403 14:29:51.557806 13336 net.cpp:141] Setting up inception_5a/output_inception_5a/output_0_split
I0403 14:29:51.557831 13336 net.cpp:148] Top shape: 24 832 7 7 (978432)
I0403 14:29:51.557847 13336 net.cpp:148] Top shape: 24 832 7 7 (978432)
I0403 14:29:51.557862 13336 net.cpp:148] Top shape: 24 832 7 7 (978432)
I0403 14:29:51.557876 13336 net.cpp:148] Top shape: 24 832 7 7 (978432)
I0403 14:29:51.557889 13336 net.cpp:156] Memory required for data: 1325241888
I0403 14:29:51.557904 13336 layer_factory.hpp:77] Creating layer inception_5b/1x1
I0403 14:29:51.557925 13336 net.cpp:91] Creating Layer inception_5b/1x1
I0403 14:29:51.557953 13336 net.cpp:425] inception_5b/1x1 <- inception_5a/output_inception_5a/output_0_split_0
I0403 14:29:51.557973 13336 net.cpp:399] inception_5b/1x1 -> inception_5b/1x1
I0403 14:29:51.561657 13336 net.cpp:141] Setting up inception_5b/1x1
I0403 14:29:51.561687 13336 net.cpp:148] Top shape: 24 384 7 7 (451584)
I0403 14:29:51.561702 13336 net.cpp:156] Memory required for data: 1327048224
I0403 14:29:51.561720 13336 layer_factory.hpp:77] Creating layer inception_5b/relu_1x1
I0403 14:29:51.561738 13336 net.cpp:91] Creating Layer inception_5b/relu_1x1
I0403 14:29:51.561754 13336 net.cpp:425] inception_5b/relu_1x1 <- inception_5b/1x1
I0403 14:29:51.561774 13336 net.cpp:386] inception_5b/relu_1x1 -> inception_5b/1x1 (in-place)
I0403 14:29:51.562074 13336 net.cpp:141] Setting up inception_5b/relu_1x1
I0403 14:29:51.562099 13336 net.cpp:148] Top shape: 24 384 7 7 (451584)
I0403 14:29:51.562114 13336 net.cpp:156] Memory required for data: 1328854560
I0403 14:29:51.562129 13336 layer_factory.hpp:77] Creating layer inception_5b/3x3_reduce
I0403 14:29:51.562150 13336 net.cpp:91] Creating Layer inception_5b/3x3_reduce
I0403 14:29:51.562166 13336 net.cpp:425] inception_5b/3x3_reduce <- inception_5a/output_inception_5a/output_0_split_1
I0403 14:29:51.562188 13336 net.cpp:399] inception_5b/3x3_reduce -> inception_5b/3x3_reduce
I0403 14:29:51.564797 13336 net.cpp:141] Setting up inception_5b/3x3_reduce
I0403 14:29:51.564831 13336 net.cpp:148] Top shape: 24 192 7 7 (225792)
I0403 14:29:51.564846 13336 net.cpp:156] Memory required for data: 1329757728
I0403 14:29:51.564864 13336 layer_factory.hpp:77] Creating layer inception_5b/relu_3x3_reduce
I0403 14:29:51.564882 13336 net.cpp:91] Creating Layer inception_5b/relu_3x3_reduce
I0403 14:29:51.564898 13336 net.cpp:425] inception_5b/relu_3x3_reduce <- inception_5b/3x3_reduce
I0403 14:29:51.564918 13336 net.cpp:386] inception_5b/relu_3x3_reduce -> inception_5b/3x3_reduce (in-place)
I0403 14:29:51.565105 13336 net.cpp:141] Setting up inception_5b/relu_3x3_reduce
I0403 14:29:51.565129 13336 net.cpp:148] Top shape: 24 192 7 7 (225792)
I0403 14:29:51.565145 13336 net.cpp:156] Memory required for data: 1330660896
I0403 14:29:51.565157 13336 layer_factory.hpp:77] Creating layer inception_5b/3x3
I0403 14:29:51.565178 13336 net.cpp:91] Creating Layer inception_5b/3x3
I0403 14:29:51.565196 13336 net.cpp:425] inception_5b/3x3 <- inception_5b/3x3_reduce
I0403 14:29:51.565217 13336 net.cpp:399] inception_5b/3x3 -> inception_5b/3x3
I0403 14:29:51.571785 13336 net.cpp:141] Setting up inception_5b/3x3
I0403 14:29:51.571815 13336 net.cpp:148] Top shape: 24 384 7 7 (451584)
I0403 14:29:51.571830 13336 net.cpp:156] Memory required for data: 1332467232
I0403 14:29:51.571848 13336 layer_factory.hpp:77] Creating layer inception_5b/relu_3x3
I0403 14:29:51.571866 13336 net.cpp:91] Creating Layer inception_5b/relu_3x3
I0403 14:29:51.571914 13336 net.cpp:425] inception_5b/relu_3x3 <- inception_5b/3x3
I0403 14:29:51.571931 13336 net.cpp:386] inception_5b/relu_3x3 -> inception_5b/3x3 (in-place)
I0403 14:29:51.572240 13336 net.cpp:141] Setting up inception_5b/relu_3x3
I0403 14:29:51.572265 13336 net.cpp:148] Top shape: 24 384 7 7 (451584)
I0403 14:29:51.572279 13336 net.cpp:156] Memory required for data: 1334273568
I0403 14:29:51.572296 13336 layer_factory.hpp:77] Creating layer inception_5b/5x5_reduce
I0403 14:29:51.572331 13336 net.cpp:91] Creating Layer inception_5b/5x5_reduce
I0403 14:29:51.572350 13336 net.cpp:425] inception_5b/5x5_reduce <- inception_5a/output_inception_5a/output_0_split_2
I0403 14:29:51.572371 13336 net.cpp:399] inception_5b/5x5_reduce -> inception_5b/5x5_reduce
I0403 14:29:51.573634 13336 net.cpp:141] Setting up inception_5b/5x5_reduce
I0403 14:29:51.573662 13336 net.cpp:148] Top shape: 24 48 7 7 (56448)
I0403 14:29:51.573678 13336 net.cpp:156] Memory required for data: 1334499360
I0403 14:29:51.573695 13336 layer_factory.hpp:77] Creating layer inception_5b/relu_5x5_reduce
I0403 14:29:51.573714 13336 net.cpp:91] Creating Layer inception_5b/relu_5x5_reduce
I0403 14:29:51.573729 13336 net.cpp:425] inception_5b/relu_5x5_reduce <- inception_5b/5x5_reduce
I0403 14:29:51.573747 13336 net.cpp:386] inception_5b/relu_5x5_reduce -> inception_5b/5x5_reduce (in-place)
I0403 14:29:51.574126 13336 net.cpp:141] Setting up inception_5b/relu_5x5_reduce
I0403 14:29:51.574164 13336 net.cpp:148] Top shape: 24 48 7 7 (56448)
I0403 14:29:51.574178 13336 net.cpp:156] Memory required for data: 1334725152
I0403 14:29:51.574193 13336 layer_factory.hpp:77] Creating layer inception_5b/5x5
I0403 14:29:51.574213 13336 net.cpp:91] Creating Layer inception_5b/5x5
I0403 14:29:51.574229 13336 net.cpp:425] inception_5b/5x5 <- inception_5b/5x5_reduce
I0403 14:29:51.574246 13336 net.cpp:399] inception_5b/5x5 -> inception_5b/5x5
I0403 14:29:51.576267 13336 net.cpp:141] Setting up inception_5b/5x5
I0403 14:29:51.576297 13336 net.cpp:148] Top shape: 24 128 7 7 (150528)
I0403 14:29:51.576310 13336 net.cpp:156] Memory required for data: 1335327264
I0403 14:29:51.576328 13336 layer_factory.hpp:77] Creating layer inception_5b/relu_5x5
I0403 14:29:51.576346 13336 net.cpp:91] Creating Layer inception_5b/relu_5x5
I0403 14:29:51.576364 13336 net.cpp:425] inception_5b/relu_5x5 <- inception_5b/5x5
I0403 14:29:51.576380 13336 net.cpp:386] inception_5b/relu_5x5 -> inception_5b/5x5 (in-place)
I0403 14:29:51.576575 13336 net.cpp:141] Setting up inception_5b/relu_5x5
I0403 14:29:51.576599 13336 net.cpp:148] Top shape: 24 128 7 7 (150528)
I0403 14:29:51.576612 13336 net.cpp:156] Memory required for data: 1335929376
I0403 14:29:51.576627 13336 layer_factory.hpp:77] Creating layer inception_5b/pool
I0403 14:29:51.576644 13336 net.cpp:91] Creating Layer inception_5b/pool
I0403 14:29:51.576661 13336 net.cpp:425] inception_5b/pool <- inception_5a/output_inception_5a/output_0_split_3
I0403 14:29:51.576678 13336 net.cpp:399] inception_5b/pool -> inception_5b/pool
I0403 14:29:51.576748 13336 net.cpp:141] Setting up inception_5b/pool
I0403 14:29:51.576771 13336 net.cpp:148] Top shape: 24 832 7 7 (978432)
I0403 14:29:51.576786 13336 net.cpp:156] Memory required for data: 1339843104
I0403 14:29:51.576798 13336 layer_factory.hpp:77] Creating layer inception_5b/pool_proj
I0403 14:29:51.576819 13336 net.cpp:91] Creating Layer inception_5b/pool_proj
I0403 14:29:51.576838 13336 net.cpp:425] inception_5b/pool_proj <- inception_5b/pool
I0403 14:29:51.576858 13336 net.cpp:399] inception_5b/pool_proj -> inception_5b/pool_proj
I0403 14:29:51.579128 13336 net.cpp:141] Setting up inception_5b/pool_proj
I0403 14:29:51.579157 13336 net.cpp:148] Top shape: 24 128 7 7 (150528)
I0403 14:29:51.579174 13336 net.cpp:156] Memory required for data: 1340445216
I0403 14:29:51.579190 13336 layer_factory.hpp:77] Creating layer inception_5b/relu_pool_proj
I0403 14:29:51.579208 13336 net.cpp:91] Creating Layer inception_5b/relu_pool_proj
I0403 14:29:51.579223 13336 net.cpp:425] inception_5b/relu_pool_proj <- inception_5b/pool_proj
I0403 14:29:51.579241 13336 net.cpp:386] inception_5b/relu_pool_proj -> inception_5b/pool_proj (in-place)
I0403 14:29:51.579535 13336 net.cpp:141] Setting up inception_5b/relu_pool_proj
I0403 14:29:51.579565 13336 net.cpp:148] Top shape: 24 128 7 7 (150528)
I0403 14:29:51.579579 13336 net.cpp:156] Memory required for data: 1341047328
I0403 14:29:51.579593 13336 layer_factory.hpp:77] Creating layer inception_5b/output
I0403 14:29:51.579609 13336 net.cpp:91] Creating Layer inception_5b/output
I0403 14:29:51.579638 13336 net.cpp:425] inception_5b/output <- inception_5b/1x1
I0403 14:29:51.579656 13336 net.cpp:425] inception_5b/output <- inception_5b/3x3
I0403 14:29:51.579673 13336 net.cpp:425] inception_5b/output <- inception_5b/5x5
I0403 14:29:51.579687 13336 net.cpp:425] inception_5b/output <- inception_5b/pool_proj
I0403 14:29:51.579705 13336 net.cpp:399] inception_5b/output -> inception_5b/output
I0403 14:29:51.579756 13336 net.cpp:141] Setting up inception_5b/output
I0403 14:29:51.579782 13336 net.cpp:148] Top shape: 24 1024 7 7 (1204224)
I0403 14:29:51.579797 13336 net.cpp:156] Memory required for data: 1345864224
I0403 14:29:51.579809 13336 layer_factory.hpp:77] Creating layer pool5/7x7_s1
I0403 14:29:51.579826 13336 net.cpp:91] Creating Layer pool5/7x7_s1
I0403 14:29:51.579840 13336 net.cpp:425] pool5/7x7_s1 <- inception_5b/output
I0403 14:29:51.579859 13336 net.cpp:399] pool5/7x7_s1 -> pool5/7x7_s1
I0403 14:29:51.580070 13336 net.cpp:141] Setting up pool5/7x7_s1
I0403 14:29:51.580096 13336 net.cpp:148] Top shape: 24 1024 1 1 (24576)
I0403 14:29:51.580109 13336 net.cpp:156] Memory required for data: 1345962528
I0403 14:29:51.580122 13336 layer_factory.hpp:77] Creating layer pool5/drop_7x7_s1
I0403 14:29:51.580138 13336 net.cpp:91] Creating Layer pool5/drop_7x7_s1
I0403 14:29:51.580154 13336 net.cpp:425] pool5/drop_7x7_s1 <- pool5/7x7_s1
I0403 14:29:51.580175 13336 net.cpp:386] pool5/drop_7x7_s1 -> pool5/7x7_s1 (in-place)
I0403 14:29:51.580225 13336 net.cpp:141] Setting up pool5/drop_7x7_s1
I0403 14:29:51.580248 13336 net.cpp:148] Top shape: 24 1024 1 1 (24576)
I0403 14:29:51.580262 13336 net.cpp:156] Memory required for data: 1346060832
I0403 14:29:51.580276 13336 layer_factory.hpp:77] Creating layer loss3/classifier_plantvillage
I0403 14:29:51.580293 13336 net.cpp:91] Creating Layer loss3/classifier_plantvillage
I0403 14:29:51.580308 13336 net.cpp:425] loss3/classifier_plantvillage <- pool5/7x7_s1
I0403 14:29:51.580328 13336 net.cpp:399] loss3/classifier_plantvillage -> loss3/classifier_plantvillage
I0403 14:29:51.580749 13336 net.cpp:141] Setting up loss3/classifier_plantvillage
I0403 14:29:51.580775 13336 net.cpp:148] Top shape: 24 38 (912)
I0403 14:29:51.580787 13336 net.cpp:156] Memory required for data: 1346064480
I0403 14:29:51.580804 13336 layer_factory.hpp:77] Creating layer loss3/classifier_plantvillage_loss3/classifier_plantvillage_0_split
I0403 14:29:51.580826 13336 net.cpp:91] Creating Layer loss3/classifier_plantvillage_loss3/classifier_plantvillage_0_split
I0403 14:29:51.580842 13336 net.cpp:425] loss3/classifier_plantvillage_loss3/classifier_plantvillage_0_split <- loss3/classifier_plantvillage
I0403 14:29:51.580859 13336 net.cpp:399] loss3/classifier_plantvillage_loss3/classifier_plantvillage_0_split -> loss3/classifier_plantvillage_loss3/classifier_plantvillage_0_split_0
I0403 14:29:51.580880 13336 net.cpp:399] loss3/classifier_plantvillage_loss3/classifier_plantvillage_0_split -> loss3/classifier_plantvillage_loss3/classifier_plantvillage_0_split_1
I0403 14:29:51.580900 13336 net.cpp:399] loss3/classifier_plantvillage_loss3/classifier_plantvillage_0_split -> loss3/classifier_plantvillage_loss3/classifier_plantvillage_0_split_2
I0403 14:29:51.580919 13336 net.cpp:399] loss3/classifier_plantvillage_loss3/classifier_plantvillage_0_split -> loss3/classifier_plantvillage_loss3/classifier_plantvillage_0_split_3
I0403 14:29:51.581017 13336 net.cpp:141] Setting up loss3/classifier_plantvillage_loss3/classifier_plantvillage_0_split
I0403 14:29:51.581040 13336 net.cpp:148] Top shape: 24 38 (912)
I0403 14:29:51.581055 13336 net.cpp:148] Top shape: 24 38 (912)
I0403 14:29:51.581068 13336 net.cpp:148] Top shape: 24 38 (912)
I0403 14:29:51.581084 13336 net.cpp:148] Top shape: 24 38 (912)
I0403 14:29:51.581096 13336 net.cpp:156] Memory required for data: 1346079072
I0403 14:29:51.581110 13336 layer_factory.hpp:77] Creating layer loss1/loss
I0403 14:29:51.581130 13336 net.cpp:91] Creating Layer loss1/loss
I0403 14:29:51.581147 13336 net.cpp:425] loss1/loss <- loss1/classifier_plantvillage_loss1/classifier_plantvillage_0_split_0
I0403 14:29:51.581177 13336 net.cpp:425] loss1/loss <- label_data_1_split_0
…
