…
I0403 14:07:41.973121 12760 net.cpp:313] The NetState phase (1) differed from the phase (0) specified by a rule in layer data
I0403 14:07:41.974225 12760 net.cpp:49] Initializing net from parameters: 
state {
  phase: TEST
}
layer {
  name: "data"
  type: "Data"
  top: "data"
  top: "label"
  include {
    phase: TEST
  }
  transform_param {
    mirror: false
    crop_size: 224
    mean_file: "/home/mohanty/data/final_dataset/lmdb/segmented-20-80/mean.binaryproto"
  }
  data_param {
    source: "/home/mohanty/data/final_dataset/lmdb/segmented-20-80/test_db"
    batch_size: 24
    backend: LMDB
  }
}
layer {
  name: "conv1/7x7_s2"
  type: "Convolution"
  bottom: "data"
  top: "conv1/7x7_s2"
  param {
    lr_mult: 1
    decay_mult: 1
  }
  param {
    lr_mult: 2
    decay_mult: 0
  }
  convolution_param {
    num_output: 64
    pad: 3
    kernel_size: 7
    stride: 2
    weight_filler {
      type: "xavier"
      std: 0.1
    }
    bias_filler {
      type: "constant"
      value: 0.2
    }
  }
}
layer {
  name: "conv1/relu_7x7"
  type: "ReLU"
  bottom: "conv1/7x7_s2"
  top: "conv1/7x7_s2"
}
layer {
  name: "pool1/3x3_s2"
  type: "Pooling"
  bottom: "conv1/7x7_s2"
  top: "pool1/3x3_s2"
  pooling_param {
    pool: MAX
    kernel_size: 3
    stride: 2
  }
}
layer {
  name: "pool1/norm1"
  type: "LRN"
  bottom: "pool1/3x3_s2"
  top: "pool1/norm1"
  lrn_param {
    local_size: 5
    alpha: 0.0001
    beta: 0.75
  }
}
layer {
  name: "conv2/3x3_reduce"
  type: "Convolution"
  bottom: "pool1/norm1"
  top: "conv2/3x3_reduce"
  param {
    lr_mult: 1
    decay_mult: 1
  }
  param {
    lr_mult: 2
    decay_mult: 0
  }
  convolution_param {
    num_output: 64
    kernel_size: 1
    weight_filler {
      type: "xavier"
      std: 0.1
    }
    bias_filler {
      type: "constant"
      value: 0.2
    }
  }
}
layer {
  name: "conv2/relu_3x3_reduce"
  type: "ReLU"
  bottom: "conv2/3x3_reduce"
  top: "conv2/3x3_reduce"
}
layer {
  name: "conv2/3x3"
  type: "Convolution"
  bottom: "conv2/3x3_reduce"
  top: "conv2/3x3"
  param {
    lr_mult: 1
    decay_mult: 1
  }
  param {
    lr_mult: 2
    decay_mult: 0
  }
  convolution_param {
    num_output: 192
    pad: 1
    kernel_size: 3
    weight_filler {
      type: "xavier"
      std: 0.03
    }
    bias_filler {
      type: "constant"
      value: 0.2
    }
  }
}
layer {
  name: "conv2/relu_3x3"
  type: "ReLU"
  bottom: "conv2/3x3"
  top: "conv2/3x3"
}
layer {
  name: "conv2/norm2"
  type: "LRN"
  bottom: "conv2/3x3"
  top: "conv2/norm2"
  lrn_param {
    local_size: 5
    alpha: 0.0001
    beta: 0.75
  }
}
layer {
  name: "pool2/3x3_s2"
  type: "Pooling"
  bottom: "conv2/norm2"
  top: "pool2/3x3_s2"
  pooling_param {
    pool: MAX
    kernel_size: 3
    stride: 2
  }
}
layer {
  name: "inception_3a/1x1"
  type: "Convolution"
  bottom: "pool2/3x3_s2"
  top: "inception_3a/1x1"
  param {
    lr_mult: 1
    decay_mult: 1
  }
  param {
    lr_mult: 2
    decay_mult: 0
  }
  convolution_param {
    num_output: 64
    kernel_size: 1
    weight_filler {
      type: "xavier"
      std: 0.03
    }
    bias_filler {
      type: "constant"
      value: 0.2
    }
  }
}
layer {
  name: "inception_3a/relu_1x1"
  type: "ReLU"
  bottom: "inception_3a/1x1"
  top: "inception_3a/1x1"
}
layer {
  name: "inception_3a/3x3_reduce"
  type: "Convolution"
  bottom: "pool2/3x3_s2"
  top: "inception_3a/3x3_reduce"
  param {
    lr_mult: 1
    decay_mult: 1
  }
  param {
    lr_mult: 2
    decay_mult: 0
  }
  convolution_param {
    num_output: 96
    kernel_size: 1
    weight_filler {
      type: "xavier"
      std: 0.09
    }
    bias_filler {
      type: "constant"
      value: 0.2
    }
  }
}
layer {
  name: "inception_3a/relu_3x3_reduce"
  type: "ReLU"
  bottom: "inception_3a/3x3_reduce"
  top: "inception_3a/3x3_reduce"
}
layer {
  name: "inception_3a/3x3"
  type: "Convolution"
  bottom: "inception_3a/3x3_reduce"
  top: "inception_3a/3x3"
  param {
    lr_mult: 1
    decay_mult: 1
  }
  param {
    lr_mult: 2
    decay_mult: 0
  }
  convolution_param {
    num_output: 128
    pad: 1
    kernel_size: 3
    weight_filler {
      type: "xavier"
      std: 0.03
    }
    bias_filler {
      type: "constant"
      value: 0.2
    }
  }
}
layer {
  name: "inception_3a/relu_3x3"
  type: "ReLU"
  bottom: "inception_3a/3x3"
  top: "inception_3a/3x3"
}
layer {
  name: "inception_3a/5x5_reduce"
  type: "Convolution"
  bottom: "pool2/3x3_s2"
  top: "inception_3a/5x5_reduce"
  param {
    lr_mult: 1
    decay_mult: 1
  }
  param {
    lr_mult: 2
    decay_mult: 0
  }
  convolution_param {
    num_output: 16
    kernel_size: 1
    weight_filler {
      type: "xavier"
      std: 0.2
    }
    bias_filler {
      type: "constant"
      value: 0.2
    }
  }
}
layer {
  name: "inception_3a/relu_5x5_reduce"
  type: "ReLU"
  bottom: "inception_3a/5x5_reduce"
  top: "inception_3a/5x5_reduce"
}
layer {
  name: "inception_3a/5x5"
  type: "Convolution"
  bottom: "inception_3a/5x5_reduce"
  top: "inception_3a/5x5"
  param {
    lr_mult: 1
    decay_mult: 1
  }
  param {
    lr_mult: 2
    decay_mult: 0
  }
  convolution_param {
    num_output: 32
    pad: 2
    kernel_size: 5
    weight_filler {
      type: "xavier"
      std: 0.03
    }
    bias_filler {
      type: "constant"
      value: 0.2
    }
  }
}
layer {
  name: "inception_3a/relu_5x5"
  type: "ReLU"
  bottom: "inception_3a/5x5"
  top: "inception_3a/5x5"
}
layer {
  name: "inception_3a/pool"
  type: "Pooling"
  bottom: "pool2/3x3_s2"
  top: "inception_3a/pool"
  pooling_param {
    pool: MAX
    kernel_size: 3
    stride: 1
    pad: 1
  }
}
layer {
  name: "inception_3a/pool_proj"
  type: "Convolution"
  bottom: "inception_3a/pool"
  top: "inception_3a/pool_proj"
  param {
    lr_mult: 1
    decay_mult: 1
  }
  param {
    lr_mult: 2
    decay_mult: 0
  }
  convolution_param {
    num_output: 32
    kernel_size: 1
    weight_filler {
      type: "xavier"
      std: 0.1
    }
    bias_filler {
      type: "constant"
      value: 0.2
    }
  }
}
layer {
  name: "inception_3a/relu_pool_proj"
  type: "ReLU"
  bottom: "inception_3a/pool_proj"
  top: "inception_3a/pool_proj"
}
layer {
  name: "inception_3a/output"
  type: "Concat"
  bottom: "inception_3a/1x1"
  bottom: "inception_3a/3x3"
  bottom: "inception_3a/5x5"
  bottom: "inception_3a/pool_proj"
  top: "inception_3a/output"
}
layer {
  name: "inception_3b/1x1"
  type: "Convolution"
  bottom: "inception_3a/output"
  top: "inception_3b/1x1"
  param {
    lr_mult: 1
    decay_mult: 1
  }
  param {
    lr_mult: 2
    decay_mult: 0
  }
  convolution_param {
    num_output: 128
    kernel_size: 1
    weight_filler {
      type: "xavier"
      std: 0.03
    }
    bias_filler {
      type: "constant"
      value: 0.2
    }
  }
}
layer {
  name: "inception_3b/relu_1x1"
  type: "ReLU"
  bottom: "inception_3b/1x1"
  top: "inception_3b/1x1"
}
layer {
  name: "inception_3b/3x3_reduce"
  type: "Convolution"
  bottom: "inception_3a/output"
  top: "inception_3b/3x3_reduce"
  param {
    lr_mult: 1
    decay_mult: 1
  }
  param {
    lr_mult: 2
    decay_mult: 0
  }
  convolution_param {
    num_output: 128
    kernel_size: 1
    weight_filler {
      type: "xavier"
      std: 0.09
    }
    bias_filler {
      type: "constant"
      value: 0.2
    }
  }
}
layer {
  name: "inception_3b/relu_3x3_reduce"
  type: "ReLU"
  bottom: "inception_3b/3x3_reduce"
  top: "inception_3b/3x3_reduce"
}
layer {
  name: "inception_3b/3x3"
  type: "Convolution"
  bottom: "inception_3b/3x3_reduce"
  top: "inception_3b/3x3"
  param {
    lr_mult: 1
    decay_mult: 1
  }
  param {
    lr_mult: 2
    decay_mult: 0
  }
  convolution_param {
    num_output: 192
    pad: 1
    kernel_size: 3
    weight_filler {
      type: "xavier"
      std: 0.03
    }
    bias_filler {
      type: "constant"
      value: 0.2
    }
  }
}
layer {
  name: "inception_3b/relu_3x3"
  type: "ReLU"
  bottom: "inception_3b/3x3"
  top: "inception_3b/3x3"
}
layer {
  name: "inception_3b/5x5_reduce"
  type: "Convolution"
  bottom: "inception_3a/output"
  top: "inception_3b/5x5_reduce"
  param {
    lr_mult: 1
    decay_mult: 1
  }
  param {
    lr_mult: 2
    decay_mult: 0
  }
  convolution_param {
    num_output: 32
    kernel_size: 1
    weight_filler {
      type: "xavier"
      std: 0.2
    }
    bias_filler {
      type: "constant"
      value: 0.2
    }
  }
}
layer {
  name: "inception_3b/relu_5x5_reduce"
  type: "ReLU"
  bottom: "inception_3b/5x5_reduce"
  top: "inception_3b/5x5_reduce"
}
layer {
  name: "inception_3b/5x5"
  type: "Convolution"
  bottom: "inception_3b/5x5_reduce"
  top: "inception_3b/5x5"
  param {
    lr_mult: 1
    decay_mult: 1
  }
  param {
    lr_mult: 2
    decay_mult: 0
  }
  convolution_param {
    num_output: 96
    pad: 2
    kernel_size: 5
    weight_filler {
      type: "xavier"
      std: 0.03
    }
    bias_filler {
      type: "constant"
      value: 0.2
    }
  }
}
layer {
  name: "inception_3b/relu_5x5"
  type: "ReLU"
  bottom: "inception_3b/5x5"
  top: "inception_3b/5x5"
}
layer {
  name: "inception_3b/pool"
  type: "Pooling"
  bottom: "inception_3a/output"
  top: "inception_3b/pool"
  pooling_param {
    pool: MAX
    kernel_size: 3
    stride: 1
    pad: 1
  }
}
layer {
  name: "inception_3b/pool_proj"
  type: "Convolution"
  bottom: "inception_3b/pool"
  top: "inception_3b/pool_proj"
  param {
    lr_mult: 1
    decay_mult: 1
  }
  param {
    lr_mult: 2
    decay_mult: 0
  }
  convolution_param {
    num_output: 64
    kernel_size: 1
    weight_filler {
      type: "xavier"
      std: 0.1
    }
    bias_filler {
      type: "constant"
      value: 0.2
    }
  }
}
layer {
  name: "inception_3b/relu_pool_proj"
  type: "ReLU"
  bottom: "inception_3b/pool_proj"
  top: "inception_3b/pool_proj"
}
layer {
  name: "inception_3b/output"
  type: "Concat"
  bottom: "inception_3b/1x1"
  bottom: "inception_3b/3x3"
  bottom: "inception_3b/5x5"
  bottom: "inception_3b/pool_proj"
  top: "inception_3b/output"
}
layer {
  name: "pool3/3x3_s2"
  type: "Pooling"
  bottom: "inception_3b/output"
  top: "pool3/3x3_s2"
  pooling_param {
    pool: MAX
    kernel_size: 3
    stride: 2
  }
}
layer {
  name: "inception_4a/1x1"
  type: "Convolution"
  bottom: "pool3/3x3_s2"
  top: "inception_4a/1x1"
  param {
    lr_mult: 1
    decay_mult: 1
  }
  param {
    lr_mult: 2
    decay_mult: 0
  }
  convolution_param {
    num_output: 192
    kernel_size: 1
    weight_filler {
      type: "xavier"
      std: 0.03
    }
    bias_filler {
      type: "constant"
      value: 0.2
    }
  }
}
layer {
  name: "inception_4a/relu_1x1"
  type: "ReLU"
  bottom: "inception_4a/1x1"
  top: "inception_4a/1x1"
}
layer {
  name: "inception_4a/3x3_reduce"
  type: "Convolution"
  bottom: "pool3/3x3_s2"
  top: "inception_4a/3x3_reduce"
  param {
    lr_mult: 1
    decay_mult: 1
  }
  param {
    lr_mult: 2
    decay_mult: 0
  }
  convolution_param {
    num_output: 96
    kernel_size: 1
    weight_filler {
      type: "xavier"
      std: 0.09
    }
    bias_filler {
      type: "constant"
      value: 0.2
    }
  }
}
layer {
  name: "inception_4a/relu_3x3_reduce"
  type: "ReLU"
  bottom: "inception_4a/3x3_reduce"
  top: "inception_4a/3x3_reduce"
}
layer {
  name: "inception_4a/3x3"
  type: "Convolution"
  bottom: "inception_4a/3x3_reduce"
  top: "inception_4a/3x3"
  param {
    lr_mult: 1
    decay_mult: 1
  }
  param {
    lr_mult: 2
    decay_mult: 0
  }
  convolution_param {
    num_output: 208
    pad: 1
    kernel_size: 3
    weight_filler {
      type: "xavier"
      std: 0.03
    }
    bias_filler {
      type: "constant"
      value: 0.2
    }
  }
}
layer {
  name: "inception_4a/relu_3x3"
  type: "ReLU"
  bottom: "inception_4a/3x3"
  top: "inception_4a/3x3"
}
layer {
  name: "inception_4a/5x5_reduce"
  type: "Convolution"
  bottom: "pool3/3x3_s2"
  top: "inception_4a/5x5_reduce"
  param {
    lr_mult: 1
    decay_mult: 1
  }
  param {
    lr_mult: 2
    decay_mult: 0
  }
  convolution_param {
    num_output: 16
    kernel_size: 1
    weight_filler {
      type: "xavier"
      std: 0.2
    }
    bias_filler {
      type: "constant"
      value: 0.2
    }
  }
}
layer {
  name: "inception_4a/relu_5x5_reduce"
  type: "ReLU"
  bottom: "inception_4a/5x5_reduce"
  top: "inception_4a/5x5_reduce"
}
layer {
  name: "inception_4a/5x5"
  type: "Convolution"
  bottom: "inception_4a/5x5_reduce"
  top: "inception_4a/5x5"
  param {
    lr_mult: 1
    decay_mult: 1
  }
  param {
    lr_mult: 2
    decay_mult: 0
  }
  convolution_param {
    num_output: 48
    pad: 2
    kernel_size: 5
    weight_filler {
      type: "xavier"
      std: 0.03
    }
    bias_filler {
      type: "constant"
      value: 0.2
    }
  }
}
layer {
  name: "inception_4a/relu_5x5"
  type: "ReLU"
  bottom: "inception_4a/5x5"
  top: "inception_4a/5x5"
}
layer {
  name: "inception_4a/pool"
  type: "Pooling"
  bottom: "pool3/3x3_s2"
  top: "inception_4a/pool"
  pooling_param {
    pool: MAX
    kernel_size: 3
    stride: 1
    pad: 1
  }
}
layer {
  name: "inception_4a/pool_proj"
  type: "Convolution"
  bottom: "inception_4a/pool"
  top: "inception_4a/pool_proj"
  param {
    lr_mult: 1
    decay_mult: 1
  }
  param {
    lr_mult: 2
    decay_mult: 0
  }
  convolution_param {
    num_output: 64
    kernel_size: 1
    weight_filler {
      type: "xavier"
      std: 0.1
    }
    bias_filler {
      type: "constant"
      value: 0.2
    }
  }
}
layer {
  name: "inception_4a/relu_pool_proj"
  type: "ReLU"
  bottom: "inception_4a/pool_proj"
  top: "inception_4a/pool_proj"
}
layer {
  name: "inception_4a/output"
  type: "Concat"
  bottom: "inception_4a/1x1"
  bottom: "inception_4a/3x3"
  bottom: "inception_4a/5x5"
  bottom: "inception_4a/pool_proj"
  top: "inception_4a/output"
}
layer {
  name: "loss1/ave_pool"
  type: "Pooling"
  bottom: "inception_4a/output"
  top: "loss1/ave_pool"
  pooling_param {
    pool: AVE
    kernel_size: 5
    stride: 3
  }
}
layer {
  name: "loss1/conv"
  type: "Convolution"
  bottom: "loss1/ave_pool"
  top: "loss1/conv"
  param {
    lr_mult: 1
    decay_mult: 1
  }
  param {
    lr_mult: 2
    decay_mult: 0
  }
  convolution_param {
    num_output: 128
    kernel_size: 1
    weight_filler {
      type: "xavier"
      std: 0.08
    }
    bias_filler {
      type: "constant"
      value: 0.2
    }
  }
}
layer {
  name: "loss1/relu_conv"
  type: "ReLU"
  bottom: "loss1/conv"
  top: "loss1/conv"
}
layer {
  name: "loss1/fc"
  type: "InnerProduct"
  bottom: "loss1/conv"
  top: "loss1/fc"
  param {
    lr_mult: 1
    decay_mult: 1
  }
  param {
    lr_mult: 2
    decay_mult: 0
  }
  inner_product_param {
    num_output: 1024
    weight_filler {
      type: "xavier"
      std: 0.02
    }
    bias_filler {
      type: "constant"
      value: 0.2
    }
  }
}
layer {
  name: "loss1/relu_fc"
  type: "ReLU"
  bottom: "loss1/fc"
  top: "loss1/fc"
}
layer {
  name: "loss1/drop_fc"
  type: "Dropout"
  bottom: "loss1/fc"
  top: "loss1/fc"
  dropout_param {
    dropout_ratio: 0.7
  }
}
layer {
  name: "loss1/classifier_plantvillage"
  type: "InnerProduct"
  bottom: "loss1/fc"
  top: "loss1/classifier_plantvillage"
  param {
    lr_mult: 1
    decay_mult: 1
  }
  param {
    lr_mult: 2
    decay_mult: 0
  }
  inner_product_param {
    num_output: 38
    weight_filler {
      type: "xavier"
      std: 0.0009765625
    }
    bias_filler {
      type: "constant"
      value: 0
    }
  }
}
layer {
  name: "inception_4b/1x1"
  type: "Convolution"
  bottom: "inception_4a/output"
  top: "inception_4b/1x1"
  param {
    lr_mult: 1
    decay_mult: 1
  }
  param {
    lr_mult: 2
    decay_mult: 0
  }
  convolution_param {
    num_output: 160
    kernel_size: 1
    weight_filler {
      type: "xavier"
      std: 0.03
    }
    bias_filler {
      type: "constant"
      value: 0.2
    }
  }
}
layer {
  name: "inception_4b/relu_1x1"
  type: "ReLU"
  bottom: "inception_4b/1x1"
  top: "inception_4b/1x1"
}
layer {
  name: "inception_4b/3x3_reduce"
  type: "Convolution"
  bottom: "inception_4a/output"
  top: "inception_4b/3x3_reduce"
  param {
    lr_mult: 1
    decay_mult: 1
  }
  param {
    lr_mult: 2
    decay_mult: 0
  }
  convolution_param {
    num_output: 112
    kernel_size: 1
    weight_filler {
      type: "xavier"
      std: 0.09
    }
    bias_filler {
      type: "constant"
      value: 0.2
    }
  }
}
layer {
  name: "inception_4b/relu_3x3_reduce"
  type: "ReLU"
  bottom: "inception_4b/3x3_reduce"
  top: "inception_4b/3x3_reduce"
}
layer {
  name: "inception_4b/3x3"
  type: "Convolution"
  bottom: "inception_4b/3x3_reduce"
  top: "inception_4b/3x3"
  param {
    lr_mult: 1
    decay_mult: 1
  }
  param {
    lr_mult: 2
    decay_mult: 0
  }
  convolution_param {
    num_output: 224
    pad: 1
    kernel_size: 3
    weight_filler {
      type: "xavier"
      std: 0.03
    }
    bias_filler {
      type: "constant"
      value: 0.2
    }
  }
}
layer {
  name: "inception_4b/relu_3x3"
  type: "ReLU"
  bottom: "inception_4b/3x3"
  top: "inception_4b/3x3"
}
layer {
  name: "inception_4b/5x5_reduce"
  type: "Convolution"
  bottom: "inception_4a/output"
  top: "inception_4b/5x5_reduce"
  param {
    lr_mult: 1
    decay_mult: 1
  }
  param {
    lr_mult: 2
    decay_mult: 0
  }
  convolution_param {
    num_output: 24
    kernel_size: 1
    weight_filler {
      type: "xavier"
      std: 0.2
    }
    bias_filler {
      type: "constant"
      value: 0.2
    }
  }
}
layer {
  name: "inception_4b/relu_5x5_reduce"
  type: "ReLU"
  bottom: "inception_4b/5x5_reduce"
  top: "inception_4b/5x5_reduce"
}
layer {
  name: "inception_4b/5x5"
  type: "Convolution"
  bottom: "inception_4b/5x5_reduce"
  top: "inception_4b/5x5"
  param {
    lr_mult: 1
    decay_mult: 1
  }
  param {
    lr_mult: 2
    decay_mult: 0
  }
  convolution_param {
    num_output: 64
    pad: 2
    kernel_size: 5
    weight_filler {
      type: "xavier"
      std: 0.03
    }
    bias_filler {
      type: "constant"
      value: 0.2
    }
  }
}
layer {
  name: "inception_4b/relu_5x5"
  type: "ReLU"
  bottom: "inception_4b/5x5"
  top: "inception_4b/5x5"
}
layer {
  name: "inception_4b/pool"
  type: "Pooling"
  bottom: "inception_4a/output"
  top: "inception_4b/pool"
  pooling_param {
    pool: MAX
    kernel_size: 3
    stride: 1
    pad: 1
  }
}
layer {
  name: "inception_4b/pool_proj"
  type: "Convolution"
  bottom: "inception_4b/pool"
  top: "inception_4b/pool_proj"
  param {
    lr_mult: 1
    decay_mult: 1
  }
  param {
    lr_mult: 2
    decay_mult: 0
  }
  convolution_param {
    num_output: 64
    kernel_size: 1
    weight_filler {
      type: "xavier"
      std: 0.1
    }
    bias_filler {
      type: "constant"
      value: 0.2
    }
  }
}
layer {
  name: "inception_4b/relu_pool_proj"
  type: "ReLU"
  bottom: "inception_4b/pool_proj"
  top: "inception_4b/pool_proj"
}
layer {
  name: "inception_4b/output"
  type: "Concat"
  bottom: "inception_4b/1x1"
  bottom: "inception_4b/3x3"
  bottom: "inception_4b/5x5"
  bottom: "inception_4b/pool_proj"
  top: "inception_4b/output"
}
layer {
  name: "inception_4c/1x1"
  type: "Convolution"
  bottom: "inception_4b/output"
  top: "inception_4c/1x1"
  param {
    lr_mult: 1
    decay_mult: 1
  }
  param {
    lr_mult: 2
    decay_mult: 0
  }
  convolution_param {
    num_output: 128
    kernel_size: 1
    weight_filler {
      type: "xavier"
      std: 0.03
    }
    bias_filler {
      type: "constant"
      value: 0.2
    }
  }
}
layer {
  name: "inception_4c/relu_1x1"
  type: "ReLU"
  bottom: "inception_4c/1x1"
  top: "inception_4c/1x1"
}
layer {
  name: "inception_4c/3x3_reduce"
  type: "Convolution"
  bottom: "inception_4b/output"
  top: "inception_4c/3x3_reduce"
  param {
    lr_mult: 1
    decay_mult: 1
  }
  param {
    lr_mult: 2
    decay_mult: 0
  }
  convolution_param {
    num_output: 128
    kernel_size: 1
    weight_filler {
      type: "xavier"
      std: 0.09
    }
    bias_filler {
      type: "constant"
      value: 0.2
    }
  }
}
layer {
  name: "inception_4c/relu_3x3_reduce"
  type: "ReLU"
  bottom: "inception_4c/3x3_reduce"
  top: "inception_4c/3x3_reduce"
}
layer {
  name: "inception_4c/3x3"
  type: "Convolution"
  bottom: "inception_4c/3x3_reduce"
  top: "inception_4c/3x3"
  param {
    lr_mult: 1
    decay_mult: 1
  }
  param {
    lr_mult: 2
    decay_mult: 0
  }
  convolution_param {
    num_output: 256
    pad: 1
    kernel_size: 3
    weight_filler {
      type: "xavier"
      std: 0.03
    }
    bias_filler {
      type: "constant"
      value: 0.2
    }
  }
}
layer {
  name: "inception_4c/relu_3x3"
  type: "ReLU"
  bottom: "inception_4c/3x3"
  top: "inception_4c/3x3"
}
layer {
  name: "inception_4c/5x5_reduce"
  type: "Convolution"
  bottom: "inception_4b/output"
  top: "inception_4c/5x5_reduce"
  param {
    lr_mult: 1
    decay_mult: 1
  }
  param {
    lr_mult: 2
    decay_mult: 0
  }
  convolution_param {
    num_output: 24
    kernel_size: 1
    weight_filler {
      type: "xavier"
      std: 0.2
    }
    bias_filler {
      type: "constant"
      value: 0.2
    }
  }
}
layer {
  name: "inception_4c/relu_5x5_reduce"
  type: "ReLU"
  bottom: "inception_4c/5x5_reduce"
  top: "inception_4c/5x5_reduce"
}
layer {
  name: "inception_4c/5x5"
  type: "Convolution"
  bottom: "inception_4c/5x5_reduce"
  top: "inception_4c/5x5"
  param {
    lr_mult: 1
    decay_mult: 1
  }
  param {
    lr_mult: 2
    decay_mult: 0
  }
  convolution_param {
    num_output: 64
    pad: 2
    kernel_size: 5
    weight_filler {
      type: "xavier"
      std: 0.03
    }
    bias_filler {
      type: "constant"
      value: 0.2
    }
  }
}
layer {
  name: "inception_4c/relu_5x5"
  type: "ReLU"
  bottom: "inception_4c/5x5"
  top: "inception_4c/5x5"
}
layer {
  name: "inception_4c/pool"
  type: "Pooling"
  bottom: "inception_4b/output"
  top: "inception_4c/pool"
  pooling_param {
    pool: MAX
    kernel_size: 3
    stride: 1
    pad: 1
  }
}
layer {
  name: "inception_4c/pool_proj"
  type: "Convolution"
  bottom: "inception_4c/pool"
  top: "inception_4c/pool_proj"
  param {
    lr_mult: 1
    decay_mult: 1
  }
  param {
    lr_mult: 2
    decay_mult: 0
  }
  convolution_param {
    num_output: 64
    kernel_size: 1
    weight_filler {
      type: "xavier"
      std: 0.1
    }
    bias_filler {
      type: "constant"
      value: 0.2
    }
  }
}
layer {
  name: "inception_4c/relu_pool_proj"
  type: "ReLU"
  bottom: "inception_4c/pool_proj"
  top: "inception_4c/pool_proj"
}
layer {
  name: "inception_4c/output"
  type: "Concat"
  bottom: "inception_4c/1x1"
  bottom: "inception_4c/3x3"
  bottom: "inception_4c/5x5"
  bottom: "inception_4c/pool_proj"
  top: "inception_4c/output"
}
layer {
  name: "inception_4d/1x1"
  type: "Convolution"
  bottom: "inception_4c/output"
  top: "inception_4d/1x1"
  param {
    lr_mult: 1
    decay_mult: 1
  }
  param {
    lr_mult: 2
    decay_mult: 0
  }
  convolution_param {
    num_output: 112
    kernel_size: 1
    weight_filler {
      type: "xavier"
      std: 0.03
    }
    bias_filler {
      type: "constant"
      value: 0.2
    }
  }
}
layer {
  name: "inception_4d/relu_1x1"
  type: "ReLU"
  bottom: "inception_4d/1x1"
  top: "inception_4d/1x1"
}
layer {
  name: "inception_4d/3x3_reduce"
  type: "Convolution"
  bottom: "inception_4c/output"
  top: "inception_4d/3x3_reduce"
  param {
    lr_mult: 1
    decay_mult: 1
  }
  param {
    lr_mult: 2
    decay_mult: 0
  }
  convolution_param {
    num_output: 144
    kernel_size: 1
    weight_filler {
      type: "xavier"
      std: 0.09
    }
    bias_filler {
      type: "constant"
      value: 0.2
    }
  }
}
layer {
  name: "inception_4d/relu_3x3_reduce"
  type: "ReLU"
  bottom: "inception_4d/3x3_reduce"
  top: "inception_4d/3x3_reduce"
}
layer {
  name: "inception_4d/3x3"
  type: "Convolution"
  bottom: "inception_4d/3x3_reduce"
  top: "inception_4d/3x3"
  param {
    lr_mult: 1
    decay_mult: 1
  }
  param {
    lr_mult: 2
    decay_mult: 0
  }
  convolution_param {
    num_output: 288
    pad: 1
    kernel_size: 3
    weight_filler {
      type: "xavier"
      std: 0.03
    }
    bias_filler {
      type: "constant"
      value: 0.2
    }
  }
}
layer {
  name: "inception_4d/relu_3x3"
  type: "ReLU"
  bottom: "inception_4d/3x3"
  top: "inception_4d/3x3"
}
layer {
  name: "inception_4d/5x5_reduce"
  type: "Convolution"
  bottom: "inception_4c/output"
  top: "inception_4d/5x5_reduce"
  param {
    lr_mult: 1
    decay_mult: 1
  }
  param {
    lr_mult: 2
    decay_mult: 0
  }
  convolution_param {
    num_output: 32
    kernel_size: 1
    weight_filler {
      type: "xavier"
      std: 0.2
    }
    bias_filler {
      type: "constant"
      value: 0.2
    }
  }
}
layer {
  name: "inception_4d/relu_5x5_reduce"
  type: "ReLU"
  bottom: "inception_4d/5x5_reduce"
  top: "inception_4d/5x5_reduce"
}
layer {
  name: "inception_4d/5x5"
  type: "Convolution"
  bottom: "inception_4d/5x5_reduce"
  top: "inception_4d/5x5"
  param {
    lr_mult: 1
    decay_mult: 1
  }
  param {
    lr_mult: 2
    decay_mult: 0
  }
  convolution_param {
    num_output: 64
    pad: 2
    kernel_size: 5
    weight_filler {
      type: "xavier"
      std: 0.03
    }
    bias_filler {
      type: "constant"
      value: 0.2
    }
  }
}
layer {
  name: "inception_4d/relu_5x5"
  type: "ReLU"
  bottom: "inception_4d/5x5"
  top: "inception_4d/5x5"
}
layer {
  name: "inception_4d/pool"
  type: "Pooling"
  bottom: "inception_4c/output"
  top: "inception_4d/pool"
  pooling_param {
    pool: MAX
    kernel_size: 3
    stride: 1
    pad: 1
  }
}
layer {
  name: "inception_4d/pool_proj"
  type: "Convolution"
  bottom: "inception_4d/pool"
  top: "inception_4d/pool_proj"
  param {
    lr_mult: 1
    decay_mult: 1
  }
  param {
    lr_mult: 2
    decay_mult: 0
  }
  convolution_param {
    num_output: 64
    kernel_size: 1
    weight_filler {
      type: "xavier"
      std: 0.1
    }
    bias_filler {
      type: "constant"
      value: 0.2
    }
  }
}
layer {
  name: "inception_4d/relu_pool_proj"
  type: "ReLU"
  bottom: "inception_4d/pool_proj"
  top: "inception_4d/pool_proj"
}
layer {
  name: "inception_4d/output"
  type: "Concat"
  bottom: "inception_4d/1x1"
  bottom: "inception_4d/3x3"
  bottom: "inception_4d/5x5"
  bottom: "inception_4d/pool_proj"
  top: "inception_4d/output"
}
layer {
  name: "loss2/ave_pool"
  type: "Pooling"
  bottom: "inception_4d/output"
  top: "loss2/ave_pool"
  pooling_param {
    pool: AVE
    kernel_size: 5
    stride: 3
  }
}
layer {
  name: "loss2/conv"
  type: "Convolution"
  bottom: "loss2/ave_pool"
  top: "loss2/conv"
  param {
    lr_mult: 1
    decay_mult: 1
  }
  param {
    lr_mult: 2
    decay_mult: 0
  }
  convolution_param {
    num_output: 128
    kernel_size: 1
    weight_filler {
      type: "xavier"
      std: 0.08
    }
    bias_filler {
      type: "constant"
      value: 0.2
    }
  }
}
layer {
  name: "loss2/relu_conv"
  type: "ReLU"
  bottom: "loss2/conv"
  top: "loss2/conv"
}
layer {
  name: "loss2/fc"
  type: "InnerProduct"
  bottom: "loss2/conv"
  top: "loss2/fc"
  param {
    lr_mult: 1
    decay_mult: 1
  }
  param {
    lr_mult: 2
    decay_mult: 0
  }
  inner_product_param {
    num_output: 1024
    weight_filler {
      type: "xavier"
      std: 0.02
    }
    bias_filler {
      type: "constant"
      value: 0.2
    }
  }
}
layer {
  name: "loss2/relu_fc"
  type: "ReLU"
  bottom: "loss2/fc"
  top: "loss2/fc"
}
layer {
  name: "loss2/drop_fc"
  type: "Dropout"
  bottom: "loss2/fc"
  top: "loss2/fc"
  dropout_param {
    dropout_ratio: 0.7
  }
}
layer {
  name: "loss2/classifier_plantvillage"
  type: "InnerProduct"
  bottom: "loss2/fc"
  top: "loss2/classifier_plantvillage"
  param {
    lr_mult: 1
    decay_mult: 1
  }
  param {
    lr_mult: 2
    decay_mult: 0
  }
  inner_product_param {
    num_output: 38
    weight_filler {
      type: "xavier"
      std: 0.0009765625
    }
    bias_filler {
      type: "constant"
      value: 0
    }
  }
}
layer {
  name: "inception_4e/1x1"
  type: "Convolution"
  bottom: "inception_4d/output"
  top: "inception_4e/1x1"
  param {
    lr_mult: 1
    decay_mult: 1
  }
  param {
    lr_mult: 2
    decay_mult: 0
  }
  convolution_param {
    num_output: 256
    kernel_size: 1
    weight_filler {
      type: "xavier"
      std: 0.03
    }
    bias_filler {
      type: "constant"
      value: 0.2
    }
  }
}
layer {
  name: "inception_4e/relu_1x1"
  type: "ReLU"
  bottom: "inception_4e/1x1"
  top: "inception_4e/1x1"
}
layer {
  name: "inception_4e/3x3_reduce"
  type: "Convolution"
  bottom: "inception_4d/output"
  top: "inception_4e/3x3_reduce"
  param {
    lr_mult: 1
    decay_mult: 1
  }
  param {
    lr_mult: 2
    decay_mult: 0
  }
  convolution_param {
    num_output: 160
    kernel_size: 1
    weight_filler {
      type: "xavier"
      std: 0.09
    }
    bias_filler {
      type: "constant"
      value: 0.2
    }
  }
}
layer {
  name: "inception_4e/relu_3x3_reduce"
  type: "ReLU"
  bottom: "inception_4e/3x3_reduce"
  top: "inception_4e/3x3_reduce"
}
layer {
  name: "inception_4e/3x3"
  type: "Convolution"
  bottom: "inception_4e/3x3_reduce"
  top: "inception_4e/3x3"
  param {
    lr_mult: 1
    decay_mult: 1
  }
  param {
    lr_mult: 2
    decay_mult: 0
  }
  convolution_param {
    num_output: 320
    pad: 1
    kernel_size: 3
    weight_filler {
      type: "xavier"
      std: 0.03
    }
    bias_filler {
      type: "constant"
      value: 0.2
    }
  }
}
layer {
  name: "inception_4e/relu_3x3"
  type: "ReLU"
  bottom: "inception_4e/3x3"
  top: "inception_4e/3x3"
}
layer {
  name: "inception_4e/5x5_reduce"
  type: "Convolution"
  bottom: "inception_4d/output"
  top: "inception_4e/5x5_reduce"
  param {
    lr_mult: 1
    decay_mult: 1
  }
  param {
    lr_mult: 2
    decay_mult: 0
  }
  convolution_param {
    num_output: 32
    kernel_size: 1
    weight_filler {
      type: "xavier"
      std: 0.2
    }
    bias_filler {
      type: "constant"
      value: 0.2
    }
  }
}
layer {
  name: "inception_4e/relu_5x5_reduce"
  type: "ReLU"
  bottom: "inception_4e/5x5_reduce"
  top: "inception_4e/5x5_reduce"
}
layer {
  name: "inception_4e/5x5"
  type: "Convolution"
  bottom: "inception_4e/5x5_reduce"
  top: "inception_4e/
I0403 14:07:41.975481 12760 layer_factory.hpp:77] Creating layer data
I0403 14:07:41.976088 12760 net.cpp:91] Creating Layer data
I0403 14:07:41.976117 12760 net.cpp:399] data -> data
I0403 14:07:41.976167 12760 net.cpp:399] data -> label
I0403 14:07:41.976203 12760 data_transformer.cpp:25] Loading mean file from: /home/mohanty/data/final_dataset/lmdb/segmented-20-80/mean.binaryproto
I0403 14:07:41.981685 12763 db_lmdb.cpp:38] Opened lmdb /home/mohanty/data/final_dataset/lmdb/segmented-20-80/test_db
I0403 14:07:41.989626 12760 data_layer.cpp:41] output data size: 24,3,224,224
I0403 14:07:42.016317 12760 net.cpp:141] Setting up data
I0403 14:07:42.016399 12760 net.cpp:148] Top shape: 24 3 224 224 (3612672)
I0403 14:07:42.016422 12760 net.cpp:148] Top shape: 24 (24)
I0403 14:07:42.016438 12760 net.cpp:156] Memory required for data: 14450784
I0403 14:07:42.016469 12760 layer_factory.hpp:77] Creating layer label_data_1_split
I0403 14:07:42.016495 12760 net.cpp:91] Creating Layer label_data_1_split
I0403 14:07:42.016515 12760 net.cpp:425] label_data_1_split <- label
I0403 14:07:42.016563 12760 net.cpp:399] label_data_1_split -> label_data_1_split_0
I0403 14:07:42.016594 12760 net.cpp:399] label_data_1_split -> label_data_1_split_1
I0403 14:07:42.016618 12760 net.cpp:399] label_data_1_split -> label_data_1_split_2
I0403 14:07:42.016641 12760 net.cpp:399] label_data_1_split -> label_data_1_split_3
I0403 14:07:42.016664 12760 net.cpp:399] label_data_1_split -> label_data_1_split_4
I0403 14:07:42.016685 12760 net.cpp:399] label_data_1_split -> label_data_1_split_5
I0403 14:07:42.016707 12760 net.cpp:399] label_data_1_split -> label_data_1_split_6
I0403 14:07:42.016729 12760 net.cpp:399] label_data_1_split -> label_data_1_split_7
I0403 14:07:42.016752 12760 net.cpp:399] label_data_1_split -> label_data_1_split_8
I0403 14:07:42.016773 12760 net.cpp:399] label_data_1_split -> label_data_1_split_9
I0403 14:07:42.016907 12760 net.cpp:141] Setting up label_data_1_split
I0403 14:07:42.016933 12760 net.cpp:148] Top shape: 24 (24)
I0403 14:07:42.016952 12760 net.cpp:148] Top shape: 24 (24)
I0403 14:07:42.016968 12760 net.cpp:148] Top shape: 24 (24)
I0403 14:07:42.016985 12760 net.cpp:148] Top shape: 24 (24)
I0403 14:07:42.017002 12760 net.cpp:148] Top shape: 24 (24)
I0403 14:07:42.017019 12760 net.cpp:148] Top shape: 24 (24)
I0403 14:07:42.017036 12760 net.cpp:148] Top shape: 24 (24)
I0403 14:07:42.017053 12760 net.cpp:148] Top shape: 24 (24)
I0403 14:07:42.017071 12760 net.cpp:148] Top shape: 24 (24)
I0403 14:07:42.017087 12760 net.cpp:148] Top shape: 24 (24)
I0403 14:07:42.017134 12760 net.cpp:156] Memory required for data: 14451744
I0403 14:07:42.017153 12760 layer_factory.hpp:77] Creating layer conv1/7x7_s2
I0403 14:07:42.017185 12760 net.cpp:91] Creating Layer conv1/7x7_s2
I0403 14:07:42.017204 12760 net.cpp:425] conv1/7x7_s2 <- data
I0403 14:07:42.017225 12760 net.cpp:399] conv1/7x7_s2 -> conv1/7x7_s2
I0403 14:07:42.153139 12760 net.cpp:141] Setting up conv1/7x7_s2
I0403 14:07:42.153199 12760 net.cpp:148] Top shape: 24 64 112 112 (19267584)
I0403 14:07:42.153216 12760 net.cpp:156] Memory required for data: 91522080
I0403 14:07:42.153249 12760 layer_factory.hpp:77] Creating layer conv1/relu_7x7
I0403 14:07:42.153277 12760 net.cpp:91] Creating Layer conv1/relu_7x7
I0403 14:07:42.153296 12760 net.cpp:425] conv1/relu_7x7 <- conv1/7x7_s2
I0403 14:07:42.153316 12760 net.cpp:386] conv1/relu_7x7 -> conv1/7x7_s2 (in-place)
I0403 14:07:42.153585 12760 net.cpp:141] Setting up conv1/relu_7x7
I0403 14:07:42.153614 12760 net.cpp:148] Top shape: 24 64 112 112 (19267584)
I0403 14:07:42.153630 12760 net.cpp:156] Memory required for data: 168592416
I0403 14:07:42.153647 12760 layer_factory.hpp:77] Creating layer pool1/3x3_s2
I0403 14:07:42.153672 12760 net.cpp:91] Creating Layer pool1/3x3_s2
I0403 14:07:42.153690 12760 net.cpp:425] pool1/3x3_s2 <- conv1/7x7_s2
I0403 14:07:42.153710 12760 net.cpp:399] pool1/3x3_s2 -> pool1/3x3_s2
I0403 14:07:42.153784 12760 net.cpp:141] Setting up pool1/3x3_s2
I0403 14:07:42.153808 12760 net.cpp:148] Top shape: 24 64 56 56 (4816896)
I0403 14:07:42.153825 12760 net.cpp:156] Memory required for data: 187860000
I0403 14:07:42.153841 12760 layer_factory.hpp:77] Creating layer pool1/norm1
I0403 14:07:42.153867 12760 net.cpp:91] Creating Layer pool1/norm1
I0403 14:07:42.153885 12760 net.cpp:425] pool1/norm1 <- pool1/3x3_s2
I0403 14:07:42.153903 12760 net.cpp:399] pool1/norm1 -> pool1/norm1
I0403 14:07:42.154186 12760 net.cpp:141] Setting up pool1/norm1
I0403 14:07:42.154212 12760 net.cpp:148] Top shape: 24 64 56 56 (4816896)
I0403 14:07:42.154229 12760 net.cpp:156] Memory required for data: 207127584
I0403 14:07:42.154245 12760 layer_factory.hpp:77] Creating layer conv2/3x3_reduce
I0403 14:07:42.154284 12760 net.cpp:91] Creating Layer conv2/3x3_reduce
I0403 14:07:42.154301 12760 net.cpp:425] conv2/3x3_reduce <- pool1/norm1
I0403 14:07:42.154321 12760 net.cpp:399] conv2/3x3_reduce -> conv2/3x3_reduce
I0403 14:07:42.155668 12760 net.cpp:141] Setting up conv2/3x3_reduce
I0403 14:07:42.155696 12760 net.cpp:148] Top shape: 24 64 56 56 (4816896)
I0403 14:07:42.155714 12760 net.cpp:156] Memory required for data: 226395168
I0403 14:07:42.155736 12760 layer_factory.hpp:77] Creating layer conv2/relu_3x3_reduce
I0403 14:07:42.155760 12760 net.cpp:91] Creating Layer conv2/relu_3x3_reduce
I0403 14:07:42.155776 12760 net.cpp:425] conv2/relu_3x3_reduce <- conv2/3x3_reduce
I0403 14:07:42.155794 12760 net.cpp:386] conv2/relu_3x3_reduce -> conv2/3x3_reduce (in-place)
I0403 14:07:42.156069 12760 net.cpp:141] Setting up conv2/relu_3x3_reduce
I0403 14:07:42.156096 12760 net.cpp:148] Top shape: 24 64 56 56 (4816896)
I0403 14:07:42.156111 12760 net.cpp:156] Memory required for data: 245662752
I0403 14:07:42.156127 12760 layer_factory.hpp:77] Creating layer conv2/3x3
I0403 14:07:42.156152 12760 net.cpp:91] Creating Layer conv2/3x3
I0403 14:07:42.156172 12760 net.cpp:425] conv2/3x3 <- conv2/3x3_reduce
I0403 14:07:42.156195 12760 net.cpp:399] conv2/3x3 -> conv2/3x3
I0403 14:07:42.158522 12760 net.cpp:141] Setting up conv2/3x3
I0403 14:07:42.158570 12760 net.cpp:148] Top shape: 24 192 56 56 (14450688)
I0403 14:07:42.158587 12760 net.cpp:156] Memory required for data: 303465504
I0403 14:07:42.158609 12760 layer_factory.hpp:77] Creating layer conv2/relu_3x3
I0403 14:07:42.158632 12760 net.cpp:91] Creating Layer conv2/relu_3x3
I0403 14:07:42.158649 12760 net.cpp:425] conv2/relu_3x3 <- conv2/3x3
I0403 14:07:42.158668 12760 net.cpp:386] conv2/relu_3x3 -> conv2/3x3 (in-place)
I0403 14:07:42.158843 12760 net.cpp:141] Setting up conv2/relu_3x3
I0403 14:07:42.158870 12760 net.cpp:148] Top shape: 24 192 56 56 (14450688)
I0403 14:07:42.158921 12760 net.cpp:156] Memory required for data: 361268256
I0403 14:07:42.158938 12760 layer_factory.hpp:77] Creating layer conv2/norm2
I0403 14:07:42.158957 12760 net.cpp:91] Creating Layer conv2/norm2
I0403 14:07:42.158975 12760 net.cpp:425] conv2/norm2 <- conv2/3x3
I0403 14:07:42.158995 12760 net.cpp:399] conv2/norm2 -> conv2/norm2
I0403 14:07:42.159304 12760 net.cpp:141] Setting up conv2/norm2
I0403 14:07:42.159332 12760 net.cpp:148] Top shape: 24 192 56 56 (14450688)
I0403 14:07:42.159348 12760 net.cpp:156] Memory required for data: 419071008
I0403 14:07:42.159363 12760 layer_factory.hpp:77] Creating layer pool2/3x3_s2
I0403 14:07:42.159381 12760 net.cpp:91] Creating Layer pool2/3x3_s2
I0403 14:07:42.159399 12760 net.cpp:425] pool2/3x3_s2 <- conv2/norm2
I0403 14:07:42.159418 12760 net.cpp:399] pool2/3x3_s2 -> pool2/3x3_s2
I0403 14:07:42.159472 12760 net.cpp:141] Setting up pool2/3x3_s2
I0403 14:07:42.159497 12760 net.cpp:148] Top shape: 24 192 28 28 (3612672)
I0403 14:07:42.159512 12760 net.cpp:156] Memory required for data: 433521696
I0403 14:07:42.159528 12760 layer_factory.hpp:77] Creating layer pool2/3x3_s2_pool2/3x3_s2_0_split
I0403 14:07:42.159554 12760 net.cpp:91] Creating Layer pool2/3x3_s2_pool2/3x3_s2_0_split
I0403 14:07:42.159570 12760 net.cpp:425] pool2/3x3_s2_pool2/3x3_s2_0_split <- pool2/3x3_s2
I0403 14:07:42.159591 12760 net.cpp:399] pool2/3x3_s2_pool2/3x3_s2_0_split -> pool2/3x3_s2_pool2/3x3_s2_0_split_0
I0403 14:07:42.159615 12760 net.cpp:399] pool2/3x3_s2_pool2/3x3_s2_0_split -> pool2/3x3_s2_pool2/3x3_s2_0_split_1
I0403 14:07:42.159634 12760 net.cpp:399] pool2/3x3_s2_pool2/3x3_s2_0_split -> pool2/3x3_s2_pool2/3x3_s2_0_split_2
I0403 14:07:42.159654 12760 net.cpp:399] pool2/3x3_s2_pool2/3x3_s2_0_split -> pool2/3x3_s2_pool2/3x3_s2_0_split_3
I0403 14:07:42.159725 12760 net.cpp:141] Setting up pool2/3x3_s2_pool2/3x3_s2_0_split
I0403 14:07:42.159749 12760 net.cpp:148] Top shape: 24 192 28 28 (3612672)
I0403 14:07:42.159770 12760 net.cpp:148] Top shape: 24 192 28 28 (3612672)
I0403 14:07:42.159786 12760 net.cpp:148] Top shape: 24 192 28 28 (3612672)
I0403 14:07:42.159802 12760 net.cpp:148] Top shape: 24 192 28 28 (3612672)
I0403 14:07:42.159817 12760 net.cpp:156] Memory required for data: 491324448
I0403 14:07:42.159833 12760 layer_factory.hpp:77] Creating layer inception_3a/1x1
I0403 14:07:42.159854 12760 net.cpp:91] Creating Layer inception_3a/1x1
I0403 14:07:42.159871 12760 net.cpp:425] inception_3a/1x1 <- pool2/3x3_s2_pool2/3x3_s2_0_split_0
I0403 14:07:42.159893 12760 net.cpp:399] inception_3a/1x1 -> inception_3a/1x1
I0403 14:07:42.161408 12760 net.cpp:141] Setting up inception_3a/1x1
I0403 14:07:42.161439 12760 net.cpp:148] Top shape: 24 64 28 28 (1204224)
I0403 14:07:42.161456 12760 net.cpp:156] Memory required for data: 496141344
I0403 14:07:42.161478 12760 layer_factory.hpp:77] Creating layer inception_3a/relu_1x1
I0403 14:07:42.161499 12760 net.cpp:91] Creating Layer inception_3a/relu_1x1
I0403 14:07:42.161517 12760 net.cpp:425] inception_3a/relu_1x1 <- inception_3a/1x1
I0403 14:07:42.161540 12760 net.cpp:386] inception_3a/relu_1x1 -> inception_3a/1x1 (in-place)
I0403 14:07:42.161732 12760 net.cpp:141] Setting up inception_3a/relu_1x1
I0403 14:07:42.161757 12760 net.cpp:148] Top shape: 24 64 28 28 (1204224)
I0403 14:07:42.161772 12760 net.cpp:156] Memory required for data: 500958240
I0403 14:07:42.161788 12760 layer_factory.hpp:77] Creating layer inception_3a/3x3_reduce
I0403 14:07:42.161813 12760 net.cpp:91] Creating Layer inception_3a/3x3_reduce
I0403 14:07:42.161831 12760 net.cpp:425] inception_3a/3x3_reduce <- pool2/3x3_s2_pool2/3x3_s2_0_split_1
I0403 14:07:42.161850 12760 net.cpp:399] inception_3a/3x3_reduce -> inception_3a/3x3_reduce
I0403 14:07:42.163569 12760 net.cpp:141] Setting up inception_3a/3x3_reduce
I0403 14:07:42.163599 12760 net.cpp:148] Top shape: 24 96 28 28 (1806336)
I0403 14:07:42.163615 12760 net.cpp:156] Memory required for data: 508183584
I0403 14:07:42.163638 12760 layer_factory.hpp:77] Creating layer inception_3a/relu_3x3_reduce
I0403 14:07:42.163677 12760 net.cpp:91] Creating Layer inception_3a/relu_3x3_reduce
I0403 14:07:42.163697 12760 net.cpp:425] inception_3a/relu_3x3_reduce <- inception_3a/3x3_reduce
I0403 14:07:42.163715 12760 net.cpp:386] inception_3a/relu_3x3_reduce -> inception_3a/3x3_reduce (in-place)
I0403 14:07:42.163895 12760 net.cpp:141] Setting up inception_3a/relu_3x3_reduce
I0403 14:07:42.163921 12760 net.cpp:148] Top shape: 24 96 28 28 (1806336)
I0403 14:07:42.163938 12760 net.cpp:156] Memory required for data: 515408928
I0403 14:07:42.163952 12760 layer_factory.hpp:77] Creating layer inception_3a/3x3
I0403 14:07:42.163975 12760 net.cpp:91] Creating Layer inception_3a/3x3
I0403 14:07:42.163993 12760 net.cpp:425] inception_3a/3x3 <- inception_3a/3x3_reduce
I0403 14:07:42.164016 12760 net.cpp:399] inception_3a/3x3 -> inception_3a/3x3
I0403 14:07:42.165647 12760 net.cpp:141] Setting up inception_3a/3x3
I0403 14:07:42.165676 12760 net.cpp:148] Top shape: 24 128 28 28 (2408448)
I0403 14:07:42.165693 12760 net.cpp:156] Memory required for data: 525042720
I0403 14:07:42.165711 12760 layer_factory.hpp:77] Creating layer inception_3a/relu_3x3
I0403 14:07:42.165734 12760 net.cpp:91] Creating Layer inception_3a/relu_3x3
I0403 14:07:42.165750 12760 net.cpp:425] inception_3a/relu_3x3 <- inception_3a/3x3
I0403 14:07:42.165769 12760 net.cpp:386] inception_3a/relu_3x3 -> inception_3a/3x3 (in-place)
I0403 14:07:42.166044 12760 net.cpp:141] Setting up inception_3a/relu_3x3
I0403 14:07:42.166070 12760 net.cpp:148] Top shape: 24 128 28 28 (2408448)
I0403 14:07:42.166087 12760 net.cpp:156] Memory required for data: 534676512
I0403 14:07:42.166103 12760 layer_factory.hpp:77] Creating layer inception_3a/5x5_reduce
I0403 14:07:42.166126 12760 net.cpp:91] Creating Layer inception_3a/5x5_reduce
I0403 14:07:42.166144 12760 net.cpp:425] inception_3a/5x5_reduce <- pool2/3x3_s2_pool2/3x3_s2_0_split_2
I0403 14:07:42.166167 12760 net.cpp:399] inception_3a/5x5_reduce -> inception_3a/5x5_reduce
I0403 14:07:42.167155 12760 net.cpp:141] Setting up inception_3a/5x5_reduce
I0403 14:07:42.167184 12760 net.cpp:148] Top shape: 24 16 28 28 (301056)
I0403 14:07:42.167202 12760 net.cpp:156] Memory required for data: 535880736
I0403 14:07:42.167222 12760 layer_factory.hpp:77] Creating layer inception_3a/relu_5x5_reduce
I0403 14:07:42.167239 12760 net.cpp:91] Creating Layer inception_3a/relu_5x5_reduce
I0403 14:07:42.167258 12760 net.cpp:425] inception_3a/relu_5x5_reduce <- inception_3a/5x5_reduce
I0403 14:07:42.167275 12760 net.cpp:386] inception_3a/relu_5x5_reduce -> inception_3a/5x5_reduce (in-place)
I0403 14:07:42.167577 12760 net.cpp:141] Setting up inception_3a/relu_5x5_reduce
I0403 14:07:42.167604 12760 net.cpp:148] Top shape: 24 16 28 28 (301056)
I0403 14:07:42.167621 12760 net.cpp:156] Memory required for data: 537084960
I0403 14:07:42.167637 12760 layer_factory.hpp:77] Creating layer inception_3a/5x5
I0403 14:07:42.167660 12760 net.cpp:91] Creating Layer inception_3a/5x5
I0403 14:07:42.167678 12760 net.cpp:425] inception_3a/5x5 <- inception_3a/5x5_reduce
I0403 14:07:42.167698 12760 net.cpp:399] inception_3a/5x5 -> inception_3a/5x5
I0403 14:07:42.168735 12760 net.cpp:141] Setting up inception_3a/5x5
I0403 14:07:42.168763 12760 net.cpp:148] Top shape: 24 32 28 28 (602112)
I0403 14:07:42.168779 12760 net.cpp:156] Memory required for data: 539493408
I0403 14:07:42.168798 12760 layer_factory.hpp:77] Creating layer inception_3a/relu_5x5
I0403 14:07:42.168820 12760 net.cpp:91] Creating Layer inception_3a/relu_5x5
I0403 14:07:42.168838 12760 net.cpp:425] inception_3a/relu_5x5 <- inception_3a/5x5
I0403 14:07:42.168856 12760 net.cpp:386] inception_3a/relu_5x5 -> inception_3a/5x5 (in-place)
I0403 14:07:42.169031 12760 net.cpp:141] Setting up inception_3a/relu_5x5
I0403 14:07:42.169056 12760 net.cpp:148] Top shape: 24 32 28 28 (602112)
I0403 14:07:42.169072 12760 net.cpp:156] Memory required for data: 541901856
I0403 14:07:42.169087 12760 layer_factory.hpp:77] Creating layer inception_3a/pool
I0403 14:07:42.169108 12760 net.cpp:91] Creating Layer inception_3a/pool
I0403 14:07:42.169139 12760 net.cpp:425] inception_3a/pool <- pool2/3x3_s2_pool2/3x3_s2_0_split_3
I0403 14:07:42.169162 12760 net.cpp:399] inception_3a/pool -> inception_3a/pool
I0403 14:07:42.169220 12760 net.cpp:141] Setting up inception_3a/pool
I0403 14:07:42.169245 12760 net.cpp:148] Top shape: 24 192 28 28 (3612672)
I0403 14:07:42.169260 12760 net.cpp:156] Memory required for data: 556352544
I0403 14:07:42.169275 12760 layer_factory.hpp:77] Creating layer inception_3a/pool_proj
I0403 14:07:42.169298 12760 net.cpp:91] Creating Layer inception_3a/pool_proj
I0403 14:07:42.169315 12760 net.cpp:425] inception_3a/pool_proj <- inception_3a/pool
I0403 14:07:42.169338 12760 net.cpp:399] inception_3a/pool_proj -> inception_3a/pool_proj
I0403 14:07:42.170300 12760 net.cpp:141] Setting up inception_3a/pool_proj
I0403 14:07:42.170327 12760 net.cpp:148] Top shape: 24 32 28 28 (602112)
I0403 14:07:42.170344 12760 net.cpp:156] Memory required for data: 558760992
I0403 14:07:42.170369 12760 layer_factory.hpp:77] Creating layer inception_3a/relu_pool_proj
I0403 14:07:42.170402 12760 net.cpp:91] Creating Layer inception_3a/relu_pool_proj
I0403 14:07:42.170418 12760 net.cpp:425] inception_3a/relu_pool_proj <- inception_3a/pool_proj
I0403 14:07:42.170435 12760 net.cpp:386] inception_3a/relu_pool_proj -> inception_3a/pool_proj (in-place)
I0403 14:07:42.170712 12760 net.cpp:141] Setting up inception_3a/relu_pool_proj
I0403 14:07:42.170742 12760 net.cpp:148] Top shape: 24 32 28 28 (602112)
I0403 14:07:42.170758 12760 net.cpp:156] Memory required for data: 561169440
I0403 14:07:42.170773 12760 layer_factory.hpp:77] Creating layer inception_3a/output
I0403 14:07:42.170794 12760 net.cpp:91] Creating Layer inception_3a/output
I0403 14:07:42.170810 12760 net.cpp:425] inception_3a/output <- inception_3a/1x1
I0403 14:07:42.170826 12760 net.cpp:425] inception_3a/output <- inception_3a/3x3
I0403 14:07:42.170843 12760 net.cpp:425] inception_3a/output <- inception_3a/5x5
I0403 14:07:42.170860 12760 net.cpp:425] inception_3a/output <- inception_3a/pool_proj
I0403 14:07:42.170876 12760 net.cpp:399] inception_3a/output -> inception_3a/output
I0403 14:07:42.170924 12760 net.cpp:141] Setting up inception_3a/output
I0403 14:07:42.170948 12760 net.cpp:148] Top shape: 24 256 28 28 (4816896)
I0403 14:07:42.170963 12760 net.cpp:156] Memory required for data: 580437024
I0403 14:07:42.170979 12760 layer_factory.hpp:77] Creating layer inception_3a/output_inception_3a/output_0_split
I0403 14:07:42.170995 12760 net.cpp:91] Creating Layer inception_3a/output_inception_3a/output_0_split
I0403 14:07:42.171011 12760 net.cpp:425] inception_3a/output_inception_3a/output_0_split <- inception_3a/output
I0403 14:07:42.171030 12760 net.cpp:399] inception_3a/output_inception_3a/output_0_split -> inception_3a/output_inception_3a/output_0_split_0
I0403 14:07:42.171051 12760 net.cpp:399] inception_3a/output_inception_3a/output_0_split -> inception_3a/output_inception_3a/output_0_split_1
I0403 14:07:42.171074 12760 net.cpp:399] inception_3a/output_inception_3a/output_0_split -> inception_3a/output_inception_3a/output_0_split_2
I0403 14:07:42.171097 12760 net.cpp:399] inception_3a/output_inception_3a/output_0_split -> inception_3a/output_inception_3a/output_0_split_3
I0403 14:07:42.171170 12760 net.cpp:141] Setting up inception_3a/output_inception_3a/output_0_split
I0403 14:07:42.171193 12760 net.cpp:148] Top shape: 24 256 28 28 (4816896)
I0403 14:07:42.171211 12760 net.cpp:148] Top shape: 24 256 28 28 (4816896)
I0403 14:07:42.171227 12760 net.cpp:148] Top shape: 24 256 28 28 (4816896)
I0403 14:07:42.171243 12760 net.cpp:148] Top shape: 24 256 28 28 (4816896)
I0403 14:07:42.171257 12760 net.cpp:156] Memory required for data: 657507360
I0403 14:07:42.171284 12760 layer_factory.hpp:77] Creating layer inception_3b/1x1
I0403 14:07:42.171308 12760 net.cpp:91] Creating Layer inception_3b/1x1
I0403 14:07:42.171325 12760 net.cpp:425] inception_3b/1x1 <- inception_3a/output_inception_3a/output_0_split_0
I0403 14:07:42.171346 12760 net.cpp:399] inception_3b/1x1 -> inception_3b/1x1
I0403 14:07:42.172464 12760 net.cpp:141] Setting up inception_3b/1x1
I0403 14:07:42.172503 12760 net.cpp:148] Top shape: 24 128 28 28 (2408448)
I0403 14:07:42.172519 12760 net.cpp:156] Memory required for data: 667141152
I0403 14:07:42.172541 12760 layer_factory.hpp:77] Creating layer inception_3b/relu_1x1
I0403 14:07:42.172561 12760 net.cpp:91] Creating Layer inception_3b/relu_1x1
I0403 14:07:42.172577 12760 net.cpp:425] inception_3b/relu_1x1 <- inception_3b/1x1
I0403 14:07:42.172600 12760 net.cpp:386] inception_3b/relu_1x1 -> inception_3b/1x1 (in-place)
I0403 14:07:42.172772 12760 net.cpp:141] Setting up inception_3b/relu_1x1
I0403 14:07:42.172797 12760 net.cpp:148] Top shape: 24 128 28 28 (2408448)
I0403 14:07:42.172813 12760 net.cpp:156] Memory required for data: 676774944
I0403 14:07:42.172828 12760 layer_factory.hpp:77] Creating layer inception_3b/3x3_reduce
I0403 14:07:42.172852 12760 net.cpp:91] Creating Layer inception_3b/3x3_reduce
I0403 14:07:42.172868 12760 net.cpp:425] inception_3b/3x3_reduce <- inception_3a/output_inception_3a/output_0_split_1
I0403 14:07:42.172890 12760 net.cpp:399] inception_3b/3x3_reduce -> inception_3b/3x3_reduce
I0403 14:07:42.173995 12760 net.cpp:141] Setting up inception_3b/3x3_reduce
I0403 14:07:42.174022 12760 net.cpp:148] Top shape: 24 128 28 28 (2408448)
I0403 14:07:42.174038 12760 net.cpp:156] Memory required for data: 686408736
I0403 14:07:42.174057 12760 layer_factory.hpp:77] Creating layer inception_3b/relu_3x3_reduce
I0403 14:07:42.174078 12760 net.cpp:91] Creating Layer inception_3b/relu_3x3_reduce
I0403 14:07:42.174095 12760 net.cpp:425] inception_3b/relu_3x3_reduce <- inception_3b/3x3_reduce
I0403 14:07:42.174113 12760 net.cpp:386] inception_3b/relu_3x3_reduce -> inception_3b/3x3_reduce (in-place)
I0403 14:07:42.174279 12760 net.cpp:141] Setting up inception_3b/relu_3x3_reduce
I0403 14:07:42.174304 12760 net.cpp:148] Top shape: 24 128 28 28 (2408448)
I0403 14:07:42.174319 12760 net.cpp:156] Memory required for data: 696042528
I0403 14:07:42.174335 12760 layer_factory.hpp:77] Creating layer inception_3b/3x3
I0403 14:07:42.174360 12760 net.cpp:91] Creating Layer inception_3b/3x3
I0403 14:07:42.174377 12760 net.cpp:425] inception_3b/3x3 <- inception_3b/3x3_reduce
I0403 14:07:42.174396 12760 net.cpp:399] inception_3b/3x3 -> inception_3b/3x3
I0403 14:07:42.177256 12760 net.cpp:141] Setting up inception_3b/3x3
I0403 14:07:42.177285 12760 net.cpp:148] Top shape: 24 192 28 28 (3612672)
I0403 14:07:42.177301 12760 net.cpp:156] Memory required for data: 710493216
I0403 14:07:42.177330 12760 layer_factory.hpp:77] Creating layer inception_3b/relu_3x3
I0403 14:07:42.177352 12760 net.cpp:91] Creating Layer inception_3b/relu_3x3
I0403 14:07:42.177381 12760 net.cpp:425] inception_3b/relu_3x3 <- inception_3b/3x3
I0403 14:07:42.177399 12760 net.cpp:386] inception_3b/relu_3x3 -> inception_3b/3x3 (in-place)
I0403 14:07:42.177670 12760 net.cpp:141] Setting up inception_3b/relu_3x3
I0403 14:07:42.177696 12760 net.cpp:148] Top shape: 24 192 28 28 (3612672)
I0403 14:07:42.177711 12760 net.cpp:156] Memory required for data: 724943904
I0403 14:07:42.177726 12760 layer_factory.hpp:77] Creating layer inception_3b/5x5_reduce
I0403 14:07:42.177749 12760 net.cpp:91] Creating Layer inception_3b/5x5_reduce
I0403 14:07:42.177767 12760 net.cpp:425] inception_3b/5x5_reduce <- inception_3a/output_inception_3a/output_0_split_2
I0403 14:07:42.177789 12760 net.cpp:399] inception_3b/5x5_reduce -> inception_3b/5x5_reduce
I0403 14:07:42.178742 12760 net.cpp:141] Setting up inception_3b/5x5_reduce
I0403 14:07:42.178769 12760 net.cpp:148] Top shape: 24 32 28 28 (602112)
I0403 14:07:42.178786 12760 net.cpp:156] Memory required for data: 727352352
I0403 14:07:42.178803 12760 layer_factory.hpp:77] Creating layer inception_3b/relu_5x5_reduce
I0403 14:07:42.178824 12760 net.cpp:91] Creating Layer inception_3b/relu_5x5_reduce
I0403 14:07:42.178841 12760 net.cpp:425] inception_3b/relu_5x5_reduce <- inception_3b/5x5_reduce
I0403 14:07:42.178859 12760 net.cpp:386] inception_3b/relu_5x5_reduce -> inception_3b/5x5_reduce (in-place)
I0403 14:07:42.179045 12760 net.cpp:141] Setting up inception_3b/relu_5x5_reduce
I0403 14:07:42.179071 12760 net.cpp:148] Top shape: 24 32 28 28 (602112)
I0403 14:07:42.179088 12760 net.cpp:156] Memory required for data: 729760800
I0403 14:07:42.179103 12760 layer_factory.hpp:77] Creating layer inception_3b/5x5
I0403 14:07:42.179126 12760 net.cpp:91] Creating Layer inception_3b/5x5
I0403 14:07:42.179144 12760 net.cpp:425] inception_3b/5x5 <- inception_3b/5x5_reduce
I0403 14:07:42.179163 12760 net.cpp:399] inception_3b/5x5 -> inception_3b/5x5
I0403 14:07:42.181093 12760 net.cpp:141] Setting up inception_3b/5x5
I0403 14:07:42.181121 12760 net.cpp:148] Top shape: 24 96 28 28 (1806336)
I0403 14:07:42.181138 12760 net.cpp:156] Memory required for data: 736986144
I0403 14:07:42.181156 12760 layer_factory.hpp:77] Creating layer inception_3b/relu_5x5
I0403 14:07:42.181177 12760 net.cpp:91] Creating Layer inception_3b/relu_5x5
I0403 14:07:42.181195 12760 net.cpp:425] inception_3b/relu_5x5 <- inception_3b/5x5
I0403 14:07:42.181212 12760 net.cpp:386] inception_3b/relu_5x5 -> inception_3b/5x5 (in-place)
I0403 14:07:42.181411 12760 net.cpp:141] Setting up inception_3b/relu_5x5
I0403 14:07:42.181437 12760 net.cpp:148] Top shape: 24 96 28 28 (1806336)
I0403 14:07:42.181452 12760 net.cpp:156] Memory required for data: 744211488
I0403 14:07:42.181468 12760 layer_factory.hpp:77] Creating layer inception_3b/pool
I0403 14:07:42.181486 12760 net.cpp:91] Creating Layer inception_3b/pool
I0403 14:07:42.181502 12760 net.cpp:425] inception_3b/pool <- inception_3a/output_inception_3a/output_0_split_3
I0403 14:07:42.181521 12760 net.cpp:399] inception_3b/pool -> inception_3b/pool
I0403 14:07:42.181596 12760 net.cpp:141] Setting up inception_3b/pool
I0403 14:07:42.181619 12760 net.cpp:148] Top shape: 24 256 28 28 (4816896)
I0403 14:07:42.181634 12760 net.cpp:156] Memory required for data: 763479072
I0403 14:07:42.181650 12760 layer_factory.hpp:77] Creating layer inception_3b/pool_proj
I0403 14:07:42.181673 12760 net.cpp:91] Creating Layer inception_3b/pool_proj
I0403 14:07:42.181690 12760 net.cpp:425] inception_3b/pool_proj <- inception_3b/pool
I0403 14:07:42.181711 12760 net.cpp:399] inception_3b/pool_proj -> inception_3b/pool_proj
I0403 14:07:42.182729 12760 net.cpp:141] Setting up inception_3b/pool_proj
I0403 14:07:42.182760 12760 net.cpp:148] Top shape: 24 64 28 28 (1204224)
I0403 14:07:42.182778 12760 net.cpp:156] Memory required for data: 768295968
I0403 14:07:42.182796 12760 layer_factory.hpp:77] Creating layer inception_3b/relu_pool_proj
I0403 14:07:42.182814 12760 net.cpp:91] Creating Layer inception_3b/relu_pool_proj
I0403 14:07:42.182831 12760 net.cpp:425] inception_3b/relu_pool_proj <- inception_3b/pool_proj
I0403 14:07:42.182850 12760 net.cpp:386] inception_3b/relu_pool_proj -> inception_3b/pool_proj (in-place)
I0403 14:07:42.183233 12760 net.cpp:141] Setting up inception_3b/relu_pool_proj
I0403 14:07:42.183260 12760 net.cpp:148] Top shape: 24 64 28 28 (1204224)
I0403 14:07:42.183277 12760 net.cpp:156] Memory required for data: 773112864
I0403 14:07:42.183293 12760 layer_factory.hpp:77] Creating layer inception_3b/output
I0403 14:07:42.183310 12760 net.cpp:91] Creating Layer inception_3b/output
I0403 14:07:42.183326 12760 net.cpp:425] inception_3b/output <- inception_3b/1x1
I0403 14:07:42.183343 12760 net.cpp:425] inception_3b/output <- inception_3b/3x3
I0403 14:07:42.183360 12760 net.cpp:425] inception_3b/output <- inception_3b/5x5
I0403 14:07:42.183377 12760 net.cpp:425] inception_3b/output <- inception_3b/pool_proj
I0403 14:07:42.183393 12760 net.cpp:399] inception_3b/output -> inception_3b/output
I0403 14:07:42.183439 12760 net.cpp:141] Setting up inception_3b/output
I0403 14:07:42.183461 12760 net.cpp:148] Top shape: 24 480 28 28 (9031680)
I0403 14:07:42.183476 12760 net.cpp:156] Memory required for data: 809239584
I0403 14:07:42.183490 12760 layer_factory.hpp:77] Creating layer pool3/3x3_s2
I0403 14:07:42.183511 12760 net.cpp:91] Creating Layer pool3/3x3_s2
I0403 14:07:42.183527 12760 net.cpp:425] pool3/3x3_s2 <- inception_3b/output
I0403 14:07:42.183567 12760 net.cpp:399] pool3/3x3_s2 -> pool3/3x3_s2
I0403 14:07:42.183625 12760 net.cpp:141] Setting up pool3/3x3_s2
I0403 14:07:42.183648 12760 net.cpp:148] Top shape: 24 480 14 14 (2257920)
I0403 14:07:42.183663 12760 net.cpp:156] Memory required for data: 818271264
I0403 14:07:42.183678 12760 layer_factory.hpp:77] Creating layer pool3/3x3_s2_pool3/3x3_s2_0_split
I0403 14:07:42.183696 12760 net.cpp:91] Creating Layer pool3/3x3_s2_pool3/3x3_s2_0_split
I0403 14:07:42.183711 12760 net.cpp:425] pool3/3x3_s2_pool3/3x3_s2_0_split <- pool3/3x3_s2
I0403 14:07:42.183730 12760 net.cpp:399] pool3/3x3_s2_pool3/3x3_s2_0_split -> pool3/3x3_s2_pool3/3x3_s2_0_split_0
I0403 14:07:42.183751 12760 net.cpp:399] pool3/3x3_s2_pool3/3x3_s2_0_split -> pool3/3x3_s2_pool3/3x3_s2_0_split_1
I0403 14:07:42.183771 12760 net.cpp:399] pool3/3x3_s2_pool3/3x3_s2_0_split -> pool3/3x3_s2_pool3/3x3_s2_0_split_2
I0403 14:07:42.183791 12760 net.cpp:399] pool3/3x3_s2_pool3/3x3_s2_0_split -> pool3/3x3_s2_pool3/3x3_s2_0_split_3
I0403 14:07:42.183866 12760 net.cpp:141] Setting up pool3/3x3_s2_pool3/3x3_s2_0_split
I0403 14:07:42.183890 12760 net.cpp:148] Top shape: 24 480 14 14 (2257920)
I0403 14:07:42.183908 12760 net.cpp:148] Top shape: 24 480 14 14 (2257920)
I0403 14:07:42.183924 12760 net.cpp:148] Top shape: 24 480 14 14 (2257920)
I0403 14:07:42.183940 12760 net.cpp:148] Top shape: 24 480 14 14 (2257920)
I0403 14:07:42.183954 12760 net.cpp:156] Memory required for data: 854397984
I0403 14:07:42.183969 12760 layer_factory.hpp:77] Creating layer inception_4a/1x1
I0403 14:07:42.183992 12760 net.cpp:91] Creating Layer inception_4a/1x1
I0403 14:07:42.184010 12760 net.cpp:425] inception_4a/1x1 <- pool3/3x3_s2_pool3/3x3_s2_0_split_0
I0403 14:07:42.184028 12760 net.cpp:399] inception_4a/1x1 -> inception_4a/1x1
I0403 14:07:42.185601 12760 net.cpp:141] Setting up inception_4a/1x1
I0403 14:07:42.185631 12760 net.cpp:148] Top shape: 24 192 14 14 (903168)
I0403 14:07:42.185649 12760 net.cpp:156] Memory required for data: 858010656
I0403 14:07:42.185668 12760 layer_factory.hpp:77] Creating layer inception_4a/relu_1x1
I0403 14:07:42.185688 12760 net.cpp:91] Creating Layer inception_4a/relu_1x1
I0403 14:07:42.185704 12760 net.cpp:425] inception_4a/relu_1x1 <- inception_4a/1x1
I0403 14:07:42.185725 12760 net.cpp:386] inception_4a/relu_1x1 -> inception_4a/1x1 (in-place)
I0403 14:07:42.185900 12760 net.cpp:141] Setting up inception_4a/relu_1x1
I0403 14:07:42.185926 12760 net.cpp:148] Top shape: 24 192 14 14 (903168)
I0403 14:07:42.185942 12760 net.cpp:156] Memory required for data: 861623328
I0403 14:07:42.185958 12760 layer_factory.hpp:77] Creating layer inception_4a/3x3_reduce
I0403 14:07:42.185981 12760 net.cpp:91] Creating Layer inception_4a/3x3_reduce
I0403 14:07:42.185999 12760 net.cpp:425] inception_4a/3x3_reduce <- pool3/3x3_s2_pool3/3x3_s2_0_split_1
I0403 14:07:42.186022 12760 net.cpp:399] inception_4a/3x3_reduce -> inception_4a/3x3_reduce
I0403 14:07:42.187324 12760 net.cpp:141] Setting up inception_4a/3x3_reduce
I0403 14:07:42.187351 12760 net.cpp:148] Top shape: 24 96 14 14 (451584)
I0403 14:07:42.187368 12760 net.cpp:156] Memory required for data: 863429664
I0403 14:07:42.187391 12760 layer_factory.hpp:77] Creating layer inception_4a/relu_3x3_reduce
I0403 14:07:42.187413 12760 net.cpp:91] Creating Layer inception_4a/relu_3x3_reduce
I0403 14:07:42.187432 12760 net.cpp:425] inception_4a/relu_3x3_reduce <- inception_4a/3x3_reduce
I0403 14:07:42.187450 12760 net.cpp:386] inception_4a/relu_3x3_reduce -> inception_4a/3x3_reduce (in-place)
I0403 14:07:42.187633 12760 net.cpp:141] Setting up inception_4a/relu_3x3_reduce
I0403 14:07:42.187659 12760 net.cpp:148] Top shape: 24 96 14 14 (451584)
I0403 14:07:42.187674 12760 net.cpp:156] Memory required for data: 865236000
I0403 14:07:42.187690 12760 layer_factory.hpp:77] Creating layer inception_4a/3x3
I0403 14:07:42.187713 12760 net.cpp:91] Creating Layer inception_4a/3x3
I0403 14:07:42.187732 12760 net.cpp:425] inception_4a/3x3 <- inception_4a/3x3_reduce
I0403 14:07:42.187754 12760 net.cpp:399] inception_4a/3x3 -> inception_4a/3x3
I0403 14:07:42.190435 12760 net.cpp:141] Setting up inception_4a/3x3
I0403 14:07:42.190464 12760 net.cpp:148] Top shape: 24 208 14 14 (978432)
I0403 14:07:42.190480 12760 net.cpp:156] Memory required for data: 869149728
I0403 14:07:42.190500 12760 layer_factory.hpp:77] Creating layer inception_4a/relu_3x3
I0403 14:07:42.190521 12760 net.cpp:91] Creating Layer inception_4a/relu_3x3
I0403 14:07:42.190541 12760 net.cpp:425] inception_4a/relu_3x3 <- inception_4a/3x3
I0403 14:07:42.190562 12760 net.cpp:386] inception_4a/relu_3x3 -> inception_4a/3x3 (in-place)
I0403 14:07:42.190842 12760 net.cpp:141] Setting up inception_4a/relu_3x3
I0403 14:07:42.190870 12760 net.cpp:148] Top shape: 24 208 14 14 (978432)
I0403 14:07:42.190886 12760 net.cpp:156] Memory required for data: 873063456
I0403 14:07:42.190901 12760 layer_factory.hpp:77] Creating layer inception_4a/5x5_reduce
I0403 14:07:42.190925 12760 net.cpp:91] Creating Layer inception_4a/5x5_reduce
I0403 14:07:42.190943 12760 net.cpp:425] inception_4a/5x5_reduce <- pool3/3x3_s2_pool3/3x3_s2_0_split_2
I0403 14:07:42.190966 12760 net.cpp:399] inception_4a/5x5_reduce -> inception_4a/5x5_reduce
I0403 14:07:42.192006 12760 net.cpp:141] Setting up inception_4a/5x5_reduce
I0403 14:07:42.192034 12760 net.cpp:148] Top shape: 24 16 14 14 (75264)
I0403 14:07:42.192050 12760 net.cpp:156] Memory required for data: 873364512
I0403 14:07:42.192070 12760 layer_factory.hpp:77] Creating layer inception_4a/relu_5x5_reduce
I0403 14:07:42.192091 12760 net.cpp:91] Creating Layer inception_4a/relu_5x5_reduce
I0403 14:07:42.192109 12760 net.cpp:425] inception_4a/relu_5x5_reduce <- inception_4a/5x5_reduce
I0403 14:07:42.192127 12760 net.cpp:386] inception_4a/relu_5x5_reduce -> inception_4a/5x5_reduce (in-place)
I0403 14:07:42.192307 12760 net.cpp:141] Setting up inception_4a/relu_5x5_reduce
I0403 14:07:42.192333 12760 net.cpp:148] Top shape: 24 16 14 14 (75264)
I0403 14:07:42.192349 12760 net.cpp:156] Memory required for data: 873665568
I0403 14:07:42.192364 12760 layer_factory.hpp:77] Creating layer inception_4a/5x5
I0403 14:07:42.192389 12760 net.cpp:91] Creating Layer inception_4a/5x5
I0403 14:07:42.192407 12760 net.cpp:425] inception_4a/5x5 <- inception_4a/5x5_reduce
I0403 14:07:42.192426 12760 net.cpp:399] inception_4a/5x5 -> inception_4a/5x5
I0403 14:07:42.193505 12760 net.cpp:141] Setting up inception_4a/5x5
I0403 14:07:42.193533 12760 net.cpp:148] Top shape: 24 48 14 14 (225792)
I0403 14:07:42.193555 12760 net.cpp:156] Memory required for data: 874568736
I0403 14:07:42.193575 12760 layer_factory.hpp:77] Creating layer inception_4a/relu_5x5
I0403 14:07:42.193594 12760 net.cpp:91] Creating Layer inception_4a/relu_5x5
I0403 14:07:42.193613 12760 net.cpp:425] inception_4a/relu_5x5 <- inception_4a/5x5
I0403 14:07:42.193630 12760 net.cpp:386] inception_4a/relu_5x5 -> inception_4a/5x5 (in-place)
I0403 14:07:42.193812 12760 net.cpp:141] Setting up inception_4a/relu_5x5
I0403 14:07:42.193837 12760 net.cpp:148] Top shape: 24 48 14 14 (225792)
I0403 14:07:42.193853 12760 net.cpp:156] Memory required for data: 875471904
I0403 14:07:42.193868 12760 layer_factory.hpp:77] Creating layer inception_4a/pool
I0403 14:07:42.193887 12760 net.cpp:91] Creating Layer inception_4a/pool
I0403 14:07:42.193904 12760 net.cpp:425] inception_4a/pool <- pool3/3x3_s2_pool3/3x3_s2_0_split_3
I0403 14:07:42.193925 12760 net.cpp:399] inception_4a/pool -> inception_4a/pool
I0403 14:07:42.193987 12760 net.cpp:141] Setting up inception_4a/pool
I0403 14:07:42.194015 12760 net.cpp:148] Top shape: 24 480 14 14 (2257920)
I0403 14:07:42.194031 12760 net.cpp:156] Memory required for data: 884503584
I0403 14:07:42.194046 12760 layer_factory.hpp:77] Creating layer inception_4a/pool_proj
I0403 14:07:42.194069 12760 net.cpp:91] Creating Layer inception_4a/pool_proj
I0403 14:07:42.194087 12760 net.cpp:425] inception_4a/pool_proj <- inception_4a/pool
I0403 14:07:42.194108 12760 net.cpp:399] inception_4a/pool_proj -> inception_4a/pool_proj
I0403 14:07:42.195300 12760 net.cpp:141] Setting up inception_4a/pool_proj
I0403 14:07:42.195333 12760 net.cpp:148] Top shape: 24 64 14 14 (301056)
I0403 14:07:42.195363 12760 net.cpp:156] Memory required for data: 885707808
I0403 14:07:42.195384 12760 layer_factory.hpp:77] Creating layer inception_4a/relu_pool_proj
I0403 14:07:42.195404 12760 net.cpp:91] Creating Layer inception_4a/relu_pool_proj
I0403 14:07:42.195420 12760 net.cpp:425] inception_4a/relu_pool_proj <- inception_4a/pool_proj
I0403 14:07:42.195441 12760 net.cpp:386] inception_4a/relu_pool_proj -> inception_4a/pool_proj (in-place)
I0403 14:07:42.195729 12760 net.cpp:141] Setting up inception_4a/relu_pool_proj
I0403 14:07:42.195756 12760 net.cpp:148] Top shape: 24 64 14 14 (301056)
I0403 14:07:42.195773 12760 net.cpp:156] Memory required for data: 886912032
I0403 14:07:42.195788 12760 layer_factory.hpp:77] Creating layer inception_4a/output
I0403 14:07:42.195806 12760 net.cpp:91] Creating Layer inception_4a/output
I0403 14:07:42.195823 12760 net.cpp:425] inception_4a/output <- inception_4a/1x1
I0403 14:07:42.195840 12760 net.cpp:425] inception_4a/output <- inception_4a/3x3
I0403 14:07:42.195858 12760 net.cpp:425] inception_4a/output <- inception_4a/5x5
I0403 14:07:42.195875 12760 net.cpp:425] inception_4a/output <- inception_4a/pool_proj
I0403 14:07:42.195894 12760 net.cpp:399] inception_4a/output -> inception_4a/output
I0403 14:07:42.195940 12760 net.cpp:141] Setting up inception_4a/output
I0403 14:07:42.195966 12760 net.cpp:148] Top shape: 24 512 14 14 (2408448)
I0403 14:07:42.195981 12760 net.cpp:156] Memory required for data: 896545824
I0403 14:07:42.195996 12760 layer_factory.hpp:77] Creating layer inception_4a/output_inception_4a/output_0_split
I0403 14:07:42.196017 12760 net.cpp:91] Creating Layer inception_4a/output_inception_4a/output_0_split
I0403 14:07:42.196033 12760 net.cpp:425] inception_4a/output_inception_4a/output_0_split <- inception_4a/output
I0403 14:07:42.196051 12760 net.cpp:399] inception_4a/output_inception_4a/output_0_split -> inception_4a/output_inception_4a/output_0_split_0
I0403 14:07:42.196074 12760 net.cpp:399] inception_4a/output_inception_4a/output_0_split -> inception_4a/output_inception_4a/output_0_split_1
I0403 14:07:42.196096 12760 net.cpp:399] inception_4a/output_inception_4a/output_0_split -> inception_4a/output_inception_4a/output_0_split_2
I0403 14:07:42.196120 12760 net.cpp:399] inception_4a/output_inception_4a/output_0_split -> inception_4a/output_inception_4a/output_0_split_3
I0403 14:07:42.196141 12760 net.cpp:399] inception_4a/output_inception_4a/output_0_split -> inception_4a/output_inception_4a/output_0_split_4
I0403 14:07:42.196233 12760 net.cpp:141] Setting up inception_4a/output_inception_4a/output_0_split
I0403 14:07:42.196257 12760 net.cpp:148] Top shape: 24 512 14 14 (2408448)
I0403 14:07:42.196287 12760 net.cpp:148] Top shape: 24 512 14 14 (2408448)
I0403 14:07:42.196305 12760 net.cpp:148] Top shape: 24 512 14 14 (2408448)
I0403 14:07:42.196322 12760 net.cpp:148] Top shape: 24 512 14 14 (2408448)
I0403 14:07:42.196339 12760 net.cpp:148] Top shape: 24 512 14 14 (2408448)
I0403 14:07:42.196354 12760 net.cpp:156] Memory required for data: 944714784
I0403 14:07:42.196370 12760 layer_factory.hpp:77] Creating layer loss1/ave_pool
I0403 14:07:42.196391 12760 net.cpp:91] Creating Layer loss1/ave_pool
I0403 14:07:42.196409 12760 net.cpp:425] loss1/ave_pool <- inception_4a/output_inception_4a/output_0_split_0
I0403 14:07:42.196429 12760 net.cpp:399] loss1/ave_pool -> loss1/ave_pool
I0403 14:07:42.196657 12760 net.cpp:141] Setting up loss1/ave_pool
I0403 14:07:42.196684 12760 net.cpp:148] Top shape: 24 512 4 4 (196608)
I0403 14:07:42.196701 12760 net.cpp:156] Memory required for data: 945501216
I0403 14:07:42.196715 12760 layer_factory.hpp:77] Creating layer loss1/conv
I0403 14:07:42.196738 12760 net.cpp:91] Creating Layer loss1/conv
I0403 14:07:42.196756 12760 net.cpp:425] loss1/conv <- loss1/ave_pool
I0403 14:07:42.196779 12760 net.cpp:399] loss1/conv -> loss1/conv
I0403 14:07:42.198184 12760 net.cpp:141] Setting up loss1/conv
I0403 14:07:42.198211 12760 net.cpp:148] Top shape: 24 128 4 4 (49152)
I0403 14:07:42.198241 12760 net.cpp:156] Memory required for data: 945697824
I0403 14:07:42.198262 12760 layer_factory.hpp:77] Creating layer loss1/relu_conv
I0403 14:07:42.198284 12760 net.cpp:91] Creating Layer loss1/relu_conv
I0403 14:07:42.198302 12760 net.cpp:425] loss1/relu_conv <- loss1/conv
I0403 14:07:42.198320 12760 net.cpp:386] loss1/relu_conv -> loss1/conv (in-place)
I0403 14:07:42.198607 12760 net.cpp:141] Setting up loss1/relu_conv
I0403 14:07:42.198634 12760 net.cpp:148] Top shape: 24 128 4 4 (49152)
I0403 14:07:42.198650 12760 net.cpp:156] Memory required for data: 945894432
I0403 14:07:42.198667 12760 layer_factory.hpp:77] Creating layer loss1/fc
I0403 14:07:42.198693 12760 net.cpp:91] Creating Layer loss1/fc
I0403 14:07:42.198712 12760 net.cpp:425] loss1/fc <- loss1/conv
I0403 14:07:42.198731 12760 net.cpp:399] loss1/fc -> loss1/fc
I0403 14:07:42.216116 12760 net.cpp:141] Setting up loss1/fc
I0403 14:07:42.216151 12760 net.cpp:148] Top shape: 24 1024 (24576)
I0403 14:07:42.216168 12760 net.cpp:156] Memory required for data: 945992736
I0403 14:07:42.216187 12760 layer_factory.hpp:77] Creating layer loss1/relu_fc
I0403 14:07:42.216207 12760 net.cpp:91] Creating Layer loss1/relu_fc
I0403 14:07:42.216223 12760 net.cpp:425] loss1/relu_fc <- loss1/fc
I0403 14:07:42.216244 12760 net.cpp:386] loss1/relu_fc -> loss1/fc (in-place)
I0403 14:07:42.216431 12760 net.cpp:141] Setting up loss1/relu_fc
I0403 14:07:42.216455 12760 net.cpp:148] Top shape: 24 1024 (24576)
I0403 14:07:42.216471 12760 net.cpp:156] Memory required for data: 946091040
I0403 14:07:42.216486 12760 layer_factory.hpp:77] Creating layer loss1/drop_fc
I0403 14:07:42.216517 12760 net.cpp:91] Creating Layer loss1/drop_fc
I0403 14:07:42.216538 12760 net.cpp:425] loss1/drop_fc <- loss1/fc
I0403 14:07:42.216558 12760 net.cpp:386] loss1/drop_fc -> loss1/fc (in-place)
I0403 14:07:42.216609 12760 net.cpp:141] Setting up loss1/drop_fc
I0403 14:07:42.216632 12760 net.cpp:148] Top shape: 24 1024 (24576)
I0403 14:07:42.216647 12760 net.cpp:156] Memory required for data: 946189344
I0403 14:07:42.216662 12760 layer_factory.hpp:77] Creating layer loss1/classifier_plantvillage
I0403 14:07:42.216684 12760 net.cpp:91] Creating Layer loss1/classifier_plantvillage
I0403 14:07:42.216701 12760 net.cpp:425] loss1/classifier_plantvillage <- loss1/fc
I0403 14:07:42.216722 12760 net.cpp:399] loss1/classifier_plantvillage -> loss1/classifier_plantvillage
I0403 14:07:42.217634 12760 net.cpp:141] Setting up loss1/classifier_plantvillage
I0403 14:07:42.217661 12760 net.cpp:148] Top shape: 24 38 (912)
I0403 14:07:42.217677 12760 net.cpp:156] Memory required for data: 946192992
I0403 14:07:42.217695 12760 layer_factory.hpp:77] Creating layer loss1/classifier_plantvillage_loss1/classifier_plantvillage_0_split
I0403 14:07:42.217715 12760 net.cpp:91] Creating Layer loss1/classifier_plantvillage_loss1/classifier_plantvillage_0_split
I0403 14:07:42.217730 12760 net.cpp:425] loss1/classifier_plantvillage_loss1/classifier_plantvillage_0_split <- loss1/classifier_plantvillage
I0403 14:07:42.217751 12760 net.cpp:399] loss1/classifier_plantvillage_loss1/classifier_plantvillage_0_split -> loss1/classifier_plantvillage_loss1/classifier_plantvillage_0_split_0
I0403 14:07:42.217772 12760 net.cpp:399] loss1/classifier_plantvillage_loss1/classifier_plantvillage_0_split -> loss1/classifier_plantvillage_loss1/classifier_plantvillage_0_split_1
I0403 14:07:42.217793 12760 net.cpp:399] loss1/classifier_plantvillage_loss1/classifier_plantvillage_0_split -> loss1/classifier_plantvillage_loss1/classifier_plantvillage_0_split_2
I0403 14:07:42.217859 12760 net.cpp:141] Setting up loss1/classifier_plantvillage_loss1/classifier_plantvillage_0_split
I0403 14:07:42.217883 12760 net.cpp:148] Top shape: 24 38 (912)
I0403 14:07:42.217901 12760 net.cpp:148] Top shape: 24 38 (912)
I0403 14:07:42.217917 12760 net.cpp:148] Top shape: 24 38 (912)
I0403 14:07:42.217931 12760 net.cpp:156] Memory required for data: 946203936
I0403 14:07:42.217947 12760 layer_factory.hpp:77] Creating layer inception_4b/1x1
I0403 14:07:42.217967 12760 net.cpp:91] Creating Layer inception_4b/1x1
I0403 14:07:42.218001 12760 net.cpp:425] inception_4b/1x1 <- inception_4a/output_inception_4a/output_0_split_1
I0403 14:07:42.218021 12760 net.cpp:399] inception_4b/1x1 -> inception_4b/1x1
I0403 14:07:42.219666 12760 net.cpp:141] Setting up inception_4b/1x1
I0403 14:07:42.219694 12760 net.cpp:148] Top shape: 24 160 14 14 (752640)
I0403 14:07:42.219710 12760 net.cpp:156] Memory required for data: 949214496
I0403 14:07:42.219729 12760 layer_factory.hpp:77] Creating layer inception_4b/relu_1x1
I0403 14:07:42.219750 12760 net.cpp:91] Creating Layer inception_4b/relu_1x1
I0403 14:07:42.219769 12760 net.cpp:425] inception_4b/relu_1x1 <- inception_4b/1x1
I0403 14:07:42.219785 12760 net.cpp:386] inception_4b/relu_1x1 -> inception_4b/1x1 (in-place)
I0403 14:07:42.219961 12760 net.cpp:141] Setting up inception_4b/relu_1x1
I0403 14:07:42.219985 12760 net.cpp:148] Top shape: 24 160 14 14 (752640)
I0403 14:07:42.220000 12760 net.cpp:156] Memory required for data: 952225056
I0403 14:07:42.220016 12760 layer_factory.hpp:77] Creating layer inception_4b/3x3_reduce
I0403 14:07:42.220052 12760 net.cpp:91] Creating Layer inception_4b/3x3_reduce
I0403 14:07:42.220070 12760 net.cpp:425] inception_4b/3x3_reduce <- inception_4a/output_inception_4a/output_0_split_2
I0403 14:07:42.220090 12760 net.cpp:399] inception_4b/3x3_reduce -> inception_4b/3x3_reduce
I0403 14:07:42.221403 12760 net.cpp:141] Setting up inception_4b/3x3_reduce
I0403 14:07:42.221431 12760 net.cpp:148] Top shape: 24 112 14 14 (526848)
I0403 14:07:42.221446 12760 net.cpp:156] Memory required for data: 954332448
I0403 14:07:42.221465 12760 layer_factory.hpp:77] Creating layer inception_4b/relu_3x3_reduce
I0403 14:07:42.221487 12760 net.cpp:91] Creating Layer inception_4b/relu_3x3_reduce
I0403 14:07:42.221504 12760 net.cpp:425] inception_4b/relu_3x3_reduce <- inception_4b/3x3_reduce
I0403 14:07:42.221523 12760 net.cpp:386] inception_4b/relu_3x3_reduce -> inception_4b/3x3_reduce (in-place)
I0403 14:07:42.221798 12760 net.cpp:141] Setting up inception_4b/relu_3x3_reduce
I0403 14:07:42.221824 12760 net.cpp:148] Top shape: 24 112 14 14 (526848)
I0403 14:07:42.221840 12760 net.cpp:156] Memory required for data: 956439840
I0403 14:07:42.221855 12760 layer_factory.hpp:77] Creating layer inception_4b/3x3
I0403 14:07:42.221879 12760 net.cpp:91] Creating Layer inception_4b/3x3
I0403 14:07:42.221897 12760 net.cpp:425] inception_4b/3x3 <- inception_4b/3x3_reduce
I0403 14:07:42.221916 12760 net.cpp:399] inception_4b/3x3 -> inception_4b/3x3
I0403 14:07:42.224860 12760 net.cpp:141] Setting up inception_4b/3x3
I0403 14:07:42.224891 12760 net.cpp:148] Top shape: 24 224 14 14 (1053696)
I0403 14:07:42.224908 12760 net.cpp:156] Memory required for data: 960654624
I0403 14:07:42.224927 12760 layer_factory.hpp:77] Creating layer inception_4b/relu_3x3
I0403 14:07:42.224946 12760 net.cpp:91] Creating Layer inception_4b/relu_3x3
I0403 14:07:42.224962 12760 net.cpp:425] inception_4b/relu_3x3 <- inception_4b/3x3
I0403 14:07:42.224982 12760 net.cpp:386] inception_4b/relu_3x3 -> inception_4b/3x3 (in-place)
I0403 14:07:42.225159 12760 net.cpp:141] Setting up inception_4b/relu_3x3
I0403 14:07:42.225184 12760 net.cpp:148] Top shape: 24 224 14 14 (1053696)
I0403 14:07:42.225199 12760 net.cpp:156] Memory required for data: 964869408
I0403 14:07:42.225215 12760 layer_factory.hpp:77] Creating layer inception_4b/5x5_reduce
I0403 14:07:42.225237 12760 net.cpp:91] Creating Layer inception_4b/5x5_reduce
I0403 14:07:42.225256 12760 net.cpp:425] inception_4b/5x5_reduce <- inception_4a/output_inception_4a/output_0_split_3
I0403 14:07:42.225280 12760 net.cpp:399] inception_4b/5x5_reduce -> inception_4b/5x5_reduce
I0403 14:07:42.226325 12760 net.cpp:141] Setting up inception_4b/5x5_reduce
I0403 14:07:42.226352 12760 net.cpp:148] Top shape: 24 24 14 14 (112896)
I0403 14:07:42.226368 12760 net.cpp:156] Memory required for data: 965320992
I0403 14:07:42.226387 12760 layer_factory.hpp:77] Creating layer inception_4b/relu_5x5_reduce
I0403 14:07:42.226408 12760 net.cpp:91] Creating Layer inception_4b/relu_5x5_reduce
I0403 14:07:42.226440 12760 net.cpp:425] inception_4b/relu_5x5_reduce <- inception_4b/5x5_reduce
I0403 14:07:42.226459 12760 net.cpp:386] inception_4b/relu_5x5_reduce -> inception_4b/5x5_reduce (in-place)
I0403 14:07:42.226641 12760 net.cpp:141] Setting up inception_4b/relu_5x5_reduce
I0403 14:07:42.226668 12760 net.cpp:148] Top shape: 24 24 14 14 (112896)
I0403 14:07:42.226685 12760 net.cpp:156] Memory required for data: 965772576
I0403 14:07:42.226701 12760 layer_factory.hpp:77] Creating layer inception_4b/5x5
I0403 14:07:42.226722 12760 net.cpp:91] Creating Layer inception_4b/5x5
I0403 14:07:42.226742 12760 net.cpp:425] inception_4b/5x5 <- inception_4b/5x5_reduce
I0403 14:07:42.226760 12760 net.cpp:399] inception_4b/5x5 -> inception_4b/5x5
I0403 14:07:42.227978 12760 net.cpp:141] Setting up inception_4b/5x5
I0403 14:07:42.228005 12760 net.cpp:148] Top shape: 24 64 14 14 (301056)
I0403 14:07:42.228021 12760 net.cpp:156] Memory required for data: 966976800
I0403 14:07:42.228040 12760 layer_factory.hpp:77] Creating layer inception_4b/relu_5x5
I0403 14:07:42.228061 12760 net.cpp:91] Creating Layer inception_4b/relu_5x5
I0403 14:07:42.228078 12760 net.cpp:425] inception_4b/relu_5x5 <- inception_4b/5x5
I0403 14:07:42.228096 12760 net.cpp:386] inception_4b/relu_5x5 -> inception_4b/5x5 (in-place)
I0403 14:07:42.228376 12760 net.cpp:141] Setting up inception_4b/relu_5x5
I0403 14:07:42.228401 12760 net.cpp:148] Top shape: 24 64 14 14 (301056)
I0403 14:07:42.228416 12760 net.cpp:156] Memory required for data: 968181024
I0403 14:07:42.228432 12760 layer_factory.hpp:77] Creating layer inception_4b/pool
I0403 14:07:42.228453 12760 net.cpp:91] Creating Layer inception_4b/pool
I0403 14:07:42.228471 12760 net.cpp:425] inception_4b/pool <- inception_4a/output_inception_4a/output_0_split_4
I0403 14:07:42.228488 12760 net.cpp:399] inception_4b/pool -> inception_4b/pool
I0403 14:07:42.228555 12760 net.cpp:141] Setting up inception_4b/pool
I0403 14:07:42.228579 12760 net.cpp:148] Top shape: 24 512 14 14 (2408448)
I0403 14:07:42.228595 12760 net.cpp:156] Memory required for data: 977814816
I0403 14:07:42.228611 12760 layer_factory.hpp:77] Creating layer inception_4b/pool_proj
I0403 14:07:42.228633 12760 net.cpp:91] Creating Layer inception_4b/pool_proj
I0403 14:07:42.228652 12760 net.cpp:425] inception_4b/pool_proj <- inception_4b/pool
I0403 14:07:42.228672 12760 net.cpp:399] inception_4b/pool_proj -> inception_4b/pool_proj
I0403 14:07:42.229867 12760 net.cpp:141] Setting up inception_4b/pool_proj
I0403 14:07:42.229894 12760 net.cpp:148] Top shape: 24 64 14 14 (301056)
I0403 14:07:42.229910 12760 net.cpp:156] Memory required for data: 979019040
I0403 14:07:42.229929 12760 layer_factory.hpp:77] Creating layer inception_4b/relu_pool_proj
I0403 14:07:42.229950 12760 net.cpp:91] Creating Layer inception_4b/relu_pool_proj
I0403 14:07:42.229969 12760 net.cpp:425] inception_4b/relu_pool_proj <- inception_4b/pool_proj
I0403 14:07:42.229986 12760 net.cpp:386] inception_4b/relu_pool_proj -> inception_4b/pool_proj (in-place)
I0403 14:07:42.230165 12760 net.cpp:141] Setting up inception_4b/relu_pool_proj
I0403 14:07:42.230192 12760 net.cpp:148] Top shape: 24 64 14 14 (301056)
I0403 14:07:42.230208 12760 net.cpp:156] Memory required for data: 980223264
I0403 14:07:42.230224 12760 layer_factory.hpp:77] Creating layer inception_4b/output
I0403 14:07:42.230242 12760 net.cpp:91] Creating Layer inception_4b/output
I0403 14:07:42.230258 12760 net.cpp:425] inception_4b/output <- inception_4b/1x1
I0403 14:07:42.230275 12760 net.cpp:425] inception_4b/output <- inception_4b/3x3
I0403 14:07:42.230293 12760 net.cpp:425] inception_4b/output <- inception_4b/5x5
I0403 14:07:42.230310 12760 net.cpp:425] inception_4b/output <- inception_4b/pool_proj
I0403 14:07:42.230329 12760 net.cpp:399] inception_4b/output -> inception_4b/output
I0403 14:07:42.230375 12760 net.cpp:141] Setting up inception_4b/output
I0403 14:07:42.230397 12760 net.cpp:148] Top shape: 24 512 14 14 (2408448)
I0403 14:07:42.230412 12760 net.cpp:156] Memory required for data: 989857056
I0403 14:07:42.230442 12760 layer_factory.hpp:77] Creating layer inception_4b/output_inception_4b/output_0_split
I0403 14:07:42.230463 12760 net.cpp:91] Creating Layer inception_4b/output_inception_4b/output_0_split
I0403 14:07:42.230480 12760 net.cpp:425] inception_4b/output_inception_4b/output_0_split <- inception_4b/output
I0403 14:07:42.230499 12760 net.cpp:399] inception_4b/output_inception_4b/output_0_split -> inception_4b/output_inception_4b/output_0_split_0
I0403 14:07:42.230518 12760 net.cpp:399] inception_4b/output_inception_4b/output_0_split -> inception_4b/output_inception_4b/output_0_split_1
I0403 14:07:42.230542 12760 net.cpp:399] inception_4b/output_inception_4b/output_0_split -> inception_4b/output_inception_4b/output_0_split_2
I0403 14:07:42.230568 12760 net.cpp:399] inception_4b/output_inception_4b/output_0_split -> inception_4b/output_inception_4b/output_0_split_3
I0403 14:07:42.230651 12760 net.cpp:141] Setting up inception_4b/output_inception_4b/output_0_split
I0403 14:07:42.230674 12760 net.cpp:148] Top shape: 24 512 14 14 (2408448)
I0403 14:07:42.230691 12760 net.cpp:148] Top shape: 24 512 14 14 (2408448)
I0403 14:07:42.230707 12760 net.cpp:148] Top shape: 24 512 14 14 (2408448)
I0403 14:07:42.230725 12760 net.cpp:148] Top shape: 24 512 14 14 (2408448)
I0403 14:07:42.230738 12760 net.cpp:156] Memory required for data: 1028392224
I0403 14:07:42.230753 12760 layer_factory.hpp:77] Creating layer inception_4c/1x1
I0403 14:07:42.230775 12760 net.cpp:91] Creating Layer inception_4c/1x1
I0403 14:07:42.230793 12760 net.cpp:425] inception_4c/1x1 <- inception_4b/output_inception_4b/output_0_split_0
I0403 14:07:42.230814 12760 net.cpp:399] inception_4c/1x1 -> inception_4c/1x1
I0403 14:07:42.232255 12760 net.cpp:141] Setting up inception_4c/1x1
I0403 14:07:42.232286 12760 net.cpp:148] Top shape: 24 128 14 14 (602112)
I0403 14:07:42.232305 12760 net.cpp:156] Memory required for data: 1030800672
I0403 14:07:42.232324 12760 layer_factory.hpp:77] Creating layer inception_4c/relu_1x1
I0403 14:07:42.232343 12760 net.cpp:91] Creating Layer inception_4c/relu_1x1
I0403 14:07:42.232360 12760 net.cpp:425] inception_4c/relu_1x1 <- inception_4c/1x1
I0403 14:07:42.232381 12760 net.cpp:386] inception_4c/relu_1x1 -> inception_4c/1x1 (in-place)
I0403 14:07:42.232566 12760 net.cpp:141] Setting up inception_4c/relu_1x1
I0403 14:07:42.232594 12760 net.cpp:148] Top shape: 24 128 14 14 (602112)
I0403 14:07:42.232611 12760 net.cpp:156] Memory required for data: 1033209120
I0403 14:07:42.232627 12760 layer_factory.hpp:77] Creating layer inception_4c/3x3_reduce
I0403 14:07:42.232650 12760 net.cpp:91] Creating Layer inception_4c/3x3_reduce
I0403 14:07:42.232668 12760 net.cpp:425] inception_4c/3x3_reduce <- inception_4b/output_inception_4b/output_0_split_1
I0403 14:07:42.232691 12760 net.cpp:399] inception_4c/3x3_reduce -> inception_4c/3x3_reduce
I0403 14:07:42.234683 12760 net.cpp:141] Setting up inception_4c/3x3_reduce
I0403 14:07:42.234711 12760 net.cpp:148] Top shape: 24 128 14 14 (602112)
I0403 14:07:42.234727 12760 net.cpp:156] Memory required for data: 1035617568
I0403 14:07:42.234747 12760 layer_factory.hpp:77] Creating layer inception_4c/relu_3x3_reduce
I0403 14:07:42.234769 12760 net.cpp:91] Creating Layer inception_4c/relu_3x3_reduce
I0403 14:07:42.234787 12760 net.cpp:425] inception_4c/relu_3x3_reduce <- inception_4c/3x3_reduce
I0403 14:07:42.234805 12760 net.cpp:386] inception_4c/relu_3x3_reduce -> inception_4c/3x3_reduce (in-place)
I0403 14:07:42.235098 12760 net.cpp:141] Setting up inception_4c/relu_3x3_reduce
I0403 14:07:42.235126 12760 net.cpp:148] Top shape: 24 128 14 14 (602112)
I0403 14:07:42.235141 12760 net.cpp:156] Memory required for data: 1038026016
I0403 14:07:42.235157 12760 layer_factory.hpp:77] Creating layer inception_4c/3x3
I0403 14:07:42.235180 12760 net.cpp:91] Creating Layer inception_4c/3x3
I0403 14:07:42.235199 12760 net.cpp:425] inception_4c/3x3 <- inception_4c/3x3_reduce
I0403 14:07:42.235222 12760 net.cpp:399] inception_4c/3x3 -> inception_4c/3x3
I0403 14:07:42.238924 12760 net.cpp:141] Setting up inception_4c/3x3
I0403 14:07:42.238965 12760 net.cpp:148] Top shape: 24 256 14 14 (1204224)
I0403 14:07:42.238982 12760 net.cpp:156] Memory required for data: 1042842912
I0403 14:07:42.239015 12760 layer_factory.hpp:77] Creating layer inception_4c/relu_3x3
I0403 14:07:42.239038 12760 net.cpp:91] Creating Layer inception_4c/relu_3x3
I0403 14:07:42.239056 12760 net.cpp:425] inception_4c/relu_3x3 <- inception_4c/3x3
I0403 14:07:42.239075 12760 net.cpp:386] inception_4c/relu_3x3 -> inception_4c/3x3 (in-place)
I0403 14:07:42.239259 12760 net.cpp:141] Setting up inception_4c/relu_3x3
I0403 14:07:42.239300 12760 net.cpp:148] Top shape: 24 256 14 14 (1204224)
I0403 14:07:42.239315 12760 net.cpp:156] Memory required for data: 1047659808
I0403 14:07:42.239331 12760 layer_factory.hpp:77] Creating layer inception_4c/5x5_reduce
I0403 14:07:42.239356 12760 net.cpp:91] Creating Layer inception_4c/5x5_reduce
I0403 14:07:42.239379 12760 net.cpp:425] inception_4c/5x5_reduce <- inception_4b/output_inception_4b/output_0_split_2
I0403 14:07:42.239400 12760 net.cpp:399] inception_4c/5x5_reduce -> inception_4c/5x5_reduce
I0403 14:07:42.240566 12760 net.cpp:141] Setting up inception_4c/5x5_reduce
I0403 14:07:42.240595 12760 net.cpp:148] Top shape: 24 24 14 14 (112896)
I0403 14:07:42.240613 12760 net.cpp:156] Memory required for data: 1048111392
I0403 14:07:42.240633 12760 layer_factory.hpp:77] Creating layer inception_4c/relu_5x5_reduce
I0403 14:07:42.240656 12760 net.cpp:91] Creating Layer inception_4c/relu_5x5_reduce
I0403 14:07:42.240675 12760 net.cpp:425] inception_4c/relu_5x5_reduce <- inception_4c/5x5_reduce
I0403 14:07:42.240694 12760 net.cpp:386] inception_4c/relu_5x5_reduce -> inception_4c/5x5_reduce (in-place)
I0403 14:07:42.240895 12760 net.cpp:141] Setting up inception_4c/relu_5x5_reduce
I0403 14:07:42.240921 12760 net.cpp:148] Top shape: 24 24 14 14 (112896)
I0403 14:07:42.240937 12760 net.cpp:156] Memory required for data: 1048562976
I0403 14:07:42.240953 12760 layer_factory.hpp:77] Creating layer inception_4c/5x5
I0403 14:07:42.240977 12760 net.cpp:91] Creating Layer inception_4c/5x5
I0403 14:07:42.240995 12760 net.cpp:425] inception_4c/5x5 <- inception_4c/5x5_reduce
I0403 14:07:42.241015 12760 net.cpp:399] inception_4c/5x5 -> inception_4c/5x5
I0403 14:07:42.242296 12760 net.cpp:141] Setting up inception_4c/5x5
I0403 14:07:42.242326 12760 net.cpp:148] Top shape: 24 64 14 14 (301056)
I0403 14:07:42.242343 12760 net.cpp:156] Memory required for data: 1049767200
I0403 14:07:42.242363 12760 layer_factory.hpp:77] Creating layer inception_4c/relu_5x5
I0403 14:07:42.242383 12760 net.cpp:91] Creating Layer inception_4c/relu_5x5
I0403 14:07:42.242399 12760 net.cpp:425] inception_4c/relu_5x5 <- inception_4c/5x5
I0403 14:07:42.242420 12760 net.cpp:386] inception_4c/relu_5x5 -> inception_4c/5x5 (in-place)
I0403 14:07:42.242734 12760 net.cpp:141] Setting up inception_4c/relu_5x5
I0403 14:07:42.242763 12760 net.cpp:148] Top shape: 24 64 14 14 (301056)
I0403 14:07:42.242794 12760 net.cpp:156] Memory required for data: 1050971424
I0403 14:07:42.242810 12760 layer_factory.hpp:77] Creating layer inception_4c/pool
I0403 14:07:42.242828 12760 net.cpp:91] Creating Layer inception_4c/pool
I0403 14:07:42.242846 12760 net.cpp:425] inception_4c/pool <- inception_4b/output_inception_4b/output_0_split_3
I0403 14:07:42.242866 12760 net.cpp:399] inception_4c/pool -> inception_4c/pool
I0403 14:07:42.242933 12760 net.cpp:141] Setting up inception_4c/pool
I0403 14:07:42.242957 12760 net.cpp:148] Top shape: 24 512 14 14 (2408448)
I0403 14:07:42.242974 12760 net.cpp:156] Memory required for data: 1060605216
I0403 14:07:42.242988 12760 layer_factory.hpp:77] Creating layer inception_4c/pool_proj
I0403 14:07:42.243011 12760 net.cpp:91] Creating Layer inception_4c/pool_proj
I0403 14:07:42.243029 12760 net.cpp:425] inception_4c/pool_proj <- inception_4c/pool
I0403 14:07:42.243053 12760 net.cpp:399] inception_4c/pool_proj -> inception_4c/pool_proj
I0403 14:07:42.244315 12760 net.cpp:141] Setting up inception_4c/pool_proj
I0403 14:07:42.244343 12760 net.cpp:148] Top shape: 24 64 14 14 (301056)
I0403 14:07:42.244375 12760 net.cpp:156] Memory required for data: 1061809440
I0403 14:07:42.244396 12760 layer_factory.hpp:77] Creating layer inception_4c/relu_pool_proj
I0403 14:07:42.244421 12760 net.cpp:91] Creating Layer inception_4c/relu_pool_proj
I0403 14:07:42.244439 12760 net.cpp:425] inception_4c/relu_pool_proj <- inception_4c/pool_proj
I0403 14:07:42.244458 12760 net.cpp:386] inception_4c/relu_pool_proj -> inception_4c/pool_proj (in-place)
I0403 14:07:42.244688 12760 net.cpp:141] Setting up inception_4c/relu_pool_proj
I0403 14:07:42.244717 12760 net.cpp:148] Top shape: 24 64 14 14 (301056)
I0403 14:07:42.244735 12760 net.cpp:156] Memory required for data: 1063013664
I0403 14:07:42.244751 12760 layer_factory.hpp:77] Creating layer inception_4c/output
I0403 14:07:42.244770 12760 net.cpp:91] Creating Layer inception_4c/output
I0403 14:07:42.244799 12760 net.cpp:425] inception_4c/output <- inception_4c/1x1
I0403 14:07:42.244817 12760 net.cpp:425] inception_4c/output <- inception_4c/3x3
I0403 14:07:42.244833 12760 net.cpp:425] inception_4c/output <- inception_4c/5x5
I0403 14:07:42.244850 12760 net.cpp:425] inception_4c/output <- inception_4c/pool_proj
I0403 14:07:42.244868 12760 net.cpp:399] inception_4c/output -> inception_4c/output
I0403 14:07:42.244918 12760 net.cpp:141] Setting up inception_4c/output
I0403 14:07:42.244942 12760 net.cpp:148] Top shape: 24 512 14 14 (2408448)
I0403 14:07:42.244958 12760 net.cpp:156] Memory required for data: 1072647456
I0403 14:07:42.244973 12760 layer_factory.hpp:77] Creating layer inception_4c/output_inception_4c/output_0_split
I0403 14:07:42.244992 12760 net.cpp:91] Creating Layer inception_4c/output_inception_4c/output_0_split
I0403 14:07:42.245007 12760 net.cpp:425] inception_4c/output_inception_4c/output_0_split <- inception_4c/output
I0403 14:07:42.245028 12760 net.cpp:399] inception_4c/output_inception_4c/output_0_split -> inception_4c/output_inception_4c/output_0_split_0
I0403 14:07:42.245051 12760 net.cpp:399] inception_4c/output_inception_4c/output_0_split -> inception_4c/output_inception_4c/output_0_split_1
I0403 14:07:42.245074 12760 net.cpp:399] inception_4c/output_inception_4c/output_0_split -> inception_4c/output_inception_4c/output_0_split_2
I0403 14:07:42.245097 12760 net.cpp:399] inception_4c/output_inception_4c/output_0_split -> inception_4c/output_inception_4c/output_0_split_3
I0403 14:07:42.245185 12760 net.cpp:141] Setting up inception_4c/output_inception_4c/output_0_split
I0403 14:07:42.245209 12760 net.cpp:148] Top shape: 24 512 14 14 (2408448)
I0403 14:07:42.245226 12760 net.cpp:148] Top shape: 24 512 14 14 (2408448)
I0403 14:07:42.245244 12760 net.cpp:148] Top shape: 24 512 14 14 (2408448)
I0403 14:07:42.245260 12760 net.cpp:148] Top shape: 24 512 14 14 (2408448)
I0403 14:07:42.245275 12760 net.cpp:156] Memory required for data: 1111182624
I0403 14:07:42.245290 12760 layer_factory.hpp:77] Creating layer inception_4d/1x1
I0403 14:07:42.245313 12760 net.cpp:91] Creating Layer inception_4d/1x1
I0403 14:07:42.245332 12760 net.cpp:425] inception_4d/1x1 <- inception_4c/output_inception_4c/output_0_split_0
I0403 14:07:42.245353 12760 net.cpp:399] inception_4d/1x1 -> inception_4d/1x1
I0403 14:07:42.246739 12760 net.cpp:141] Setting up inception_4d/1x1
I0403 14:07:42.246767 12760 net.cpp:148] Top shape: 24 112 14 14 (526848)
I0403 14:07:42.246783 12760 net.cpp:156] Memory required for data: 1113290016
I0403 14:07:42.246803 12760 layer_factory.hpp:77] Creating layer inception_4d/relu_1x1
I0403 14:07:42.246821 12760 net.cpp:91] Creating Layer inception_4d/relu_1x1
I0403 14:07:42.246842 12760 net.cpp:425] inception_4d/relu_1x1 <- inception_4d/1x1
I0403 14:07:42.246860 12760 net.cpp:386] inception_4d/relu_1x1 -> inception_4d/1x1 (in-place)
I0403 14:07:42.247046 12760 net.cpp:141] Setting up inception_4d/relu_1x1
I0403 14:07:42.247071 12760 net.cpp:148] Top shape: 24 112 14 14 (526848)
I0403 14:07:42.247087 12760 net.cpp:156] Memory required for data: 1115397408
I0403 14:07:42.247102 12760 layer_factory.hpp:77] Creating layer inception_4d/3x3_reduce
I0403 14:07:42.247139 12760 net.cpp:91] Creating Layer inception_4d/3x3_reduce
I0403 14:07:42.247159 12760 net.cpp:425] inception_4d/3x3_reduce <- inception_4c/output_inception_4c/output_0_split_1
I0403 14:07:42.247184 12760 net.cpp:399] inception_4d/3x3_reduce -> inception_4d/3x3_reduce
I0403 14:07:42.248703 12760 net.cpp:141] Setting up inception_4d/3x3_reduce
I0403 14:07:42.248733 12760 net.cpp:148] Top shape: 24 144 14 14 (677376)
I0403 14:07:42.248749 12760 net.cpp:156] Memory required for data: 1118106912
I0403 14:07:42.248769 12760 layer_factory.hpp:77] Creating layer inception_4d/relu_3x3_reduce
I0403 14:07:42.248788 12760 net.cpp:91] Creating Layer inception_4d/relu_3x3_reduce
I0403 14:07:42.248805 12760 net.cpp:425] inception_4d/relu_3x3_reduce <- inception_4d/3x3_reduce
I0403 14:07:42.248826 12760 net.cpp:386] inception_4d/relu_3x3_reduce -> inception_4d/3x3_reduce (in-place)
I0403 14:07:42.249119 12760 net.cpp:141] Setting up inception_4d/relu_3x3_reduce
I0403 14:07:42.249147 12760 net.cpp:148] Top shape: 24 144 14 14 (677376)
I0403 14:07:42.249166 12760 net.cpp:156] Memory required for data: 1120816416
I0403 14:07:42.249181 12760 layer_factory.hpp:77] Creating layer inception_4d/3x3
I0403 14:07:42.249204 12760 net.cpp:91] Creating Layer inception_4d/3x3
I0403 14:07:42.249223 12760 net.cpp:425] inception_4d/3x3 <- inception_4d/3x3_reduce
I0403 14:07:42.249245 12760 net.cpp:399] inception_4d/3x3 -> inception_4d/3x3
I0403 14:07:42.253475 12760 net.cpp:141] Setting up inception_4d/3x3
I0403 14:07:42.253504 12760 net.cpp:148] Top shape: 24 288 14 14 (1354752)
I0403 14:07:42.253520 12760 net.cpp:156] Memory required for data: 1126235424
I0403 14:07:42.253542 12760 layer_factory.hpp:77] Creating layer inception_4d/relu_3x3
I0403 14:07:42.253561 12760 net.cpp:91] Creating Layer inception_4d/relu_3x3
I0403 14:07:42.253578 12760 net.cpp:425] inception_4d/relu_3x3 <- inception_4d/3x3
I0403 14:07:42.253599 12760 net.cpp:386] inception_4d/relu_3x3 -> inception_4d/3x3 (in-place)
I0403 14:07:42.253778 12760 net.cpp:141] Setting up inception_4d/relu_3x3
I0403 14:07:42.253803 12760 net.cpp:148] Top shape: 24 288 14 14 (1354752)
I0403 14:07:42.253818 12760 net.cpp:156] Memory required for data: 1131654432
I0403 14:07:42.253834 12760 layer_factory.hpp:77] Creating layer inception_4d/5x5_reduce
I0403 14:07:42.253856 12760 net.cpp:91] Creating Layer inception_4d/5x5_reduce
I0403 14:07:42.253875 12760 net.cpp:425] inception_4d/5x5_reduce <- inception_4c/output_inception_4c/output_0_split_2
I0403 14:07:42.253895 12760 net.cpp:399] inception_4d/5x5_reduce -> inception_4d/5x5_reduce
I0403 14:07:42.255059 12760 net.cpp:141] Setting up inception_4d/5x5_reduce
I0403 14:07:42.255087 12760 net.cpp:148] Top shape: 24 32 14 14 (150528)
I0403 14:07:42.255102 12760 net.cpp:156] Memory required for data: 1132256544
I0403 14:07:42.255121 12760 layer_factory.hpp:77] Creating layer inception_4d/relu_5x5_reduce
I0403 14:07:42.255141 12760 net.cpp:91] Creating Layer inception_4d/relu_5x5_reduce
I0403 14:07:42.255159 12760 net.cpp:425] inception_4d/relu_5x5_reduce <- inception_4d/5x5_reduce
I0403 14:07:42.255177 12760 net.cpp:386] inception_4d/relu_5x5_reduce -> inception_4d/5x5_reduce (in-place)
I0403 14:07:42.255364 12760 net.cpp:141] Setting up inception_4d/relu_5x5_reduce
I0403 14:07:42.255389 12760 net.cpp:148] Top shape: 24 32 14 14 (150528)
I0403 14:07:42.255405 12760 net.cpp:156] Memory required for data: 1132858656
I0403 14:07:42.255421 12760 layer_factory.hpp:77] Creating layer inception_4d/5x5
I0403 14:07:42.255445 12760 net.cpp:91] Creating Layer inception_4d/5x5
I0403 14:07:42.255462 12760 net.cpp:425] inception_4d/5x5 <- inception_4d/5x5_reduce
I0403 14:07:42.255484 12760 net.cpp:399] inception_4d/5x5 -> inception_4d/5x5
I0403 14:07:42.256959 12760 net.cpp:141] Setting up inception_4d/5x5
I0403 14:07:42.256988 12760 net.cpp:148] Top shape: 24 64 14 14 (301056)
I0403 14:07:42.257004 12760 net.cpp:156] Memory required for data: 1134062880
I0403 14:07:42.257024 12760 layer_factory.hpp:77] Creating layer inception_4d/relu_5x5
I0403 14:07:42.257058 12760 net.cpp:91] Creating Layer inception_4d/relu_5x5
I0403 14:07:42.257077 12760 net.cpp:425] inception_4d/relu_5x5 <- inception_4d/5x5
I0403 14:07:42.257096 12760 net.cpp:386] inception_4d/relu_5x5 -> inception_4d/5x5 (in-place)
I0403 14:07:42.257390 12760 net.cpp:141] Setting up inception_4d/relu_5x5
I0403 14:07:42.257416 12760 net.cpp:148] Top shape: 24 64 14 14 (301056)
I0403 14:07:42.257432 12760 net.cpp:156] Memory required for data: 1135267104
I0403 14:07:42.257447 12760 layer_factory.hpp:77] Creating layer inception_4d/pool
I0403 14:07:42.257467 12760 net.cpp:91] Creating Layer inception_4d/pool
I0403 14:07:42.257485 12760 net.cpp:425] inception_4d/pool <- inception_4c/output_inception_4c/output_0_split_3
I0403 14:07:42.257505 12760 net.cpp:399] inception_4d/pool -> inception_4d/pool
I0403 14:07:42.257576 12760 net.cpp:141] Setting up inception_4d/pool
I0403 14:07:42.257601 12760 net.cpp:148] Top shape: 24 512 14 14 (2408448)
I0403 14:07:42.257616 12760 net.cpp:156] Memory required for data: 1144900896
I0403 14:07:42.257632 12760 layer_factory.hpp:77] Creating layer inception_4d/pool_proj
I0403 14:07:42.257654 12760 net.cpp:91] Creating Layer inception_4d/pool_proj
I0403 14:07:42.257671 12760 net.cpp:425] inception_4d/pool_proj <- inception_4d/pool
I0403 14:07:42.257693 12760 net.cpp:399] inception_4d/pool_proj -> inception_4d/pool_proj
I0403 14:07:42.259443 12760 net.cpp:141] Setting up inception_4d/pool_proj
I0403 14:07:42.259471 12760 net.cpp:148] Top shape: 24 64 14 14 (301056)
I0403 14:07:42.259487 12760 net.cpp:156] Memory required for data: 1146105120
I0403 14:07:42.259506 12760 layer_factory.hpp:77] Creating layer inception_4d/relu_pool_proj
I0403 14:07:42.259524 12760 net.cpp:91] Creating Layer inception_4d/relu_pool_proj
I0403 14:07:42.259546 12760 net.cpp:425] inception_4d/relu_pool_proj <- inception_4d/pool_proj
I0403 14:07:42.259568 12760 net.cpp:386] inception_4d/relu_pool_proj -> inception_4d/pool_proj (in-place)
I0403 14:07:42.259752 12760 net.cpp:141] Setting up inception_4d/relu_pool_proj
I0403 14:07:42.259776 12760 net.cpp:148] Top shape: 24 64 14 14 (301056)
I0403 14:07:42.259793 12760 net.cpp:156] Memory required for data: 1147309344
I0403 14:07:42.259807 12760 layer_factory.hpp:77] Creating layer inception_4d/output
I0403 14:07:42.259827 12760 net.cpp:91] Creating Layer inception_4d/output
I0403 14:07:42.259845 12760 net.cpp:425] inception_4d/output <- inception_4d/1x1
I0403 14:07:42.259861 12760 net.cpp:425] inception_4d/output <- inception_4d/3x3
I0403 14:07:42.259877 12760 net.cpp:425] inception_4d/output <- inception_4d/5x5
I0403 14:07:42.259893 12760 net.cpp:425] inception_4d/output <- inception_4d/pool_proj
I0403 14:07:42.259910 12760 net.cpp:399] inception_4d/output -> inception_4d/output
I0403 14:07:42.259958 12760 net.cpp:141] Setting up inception_4d/output
I0403 14:07:42.259982 12760 net.cpp:148] Top shape: 24 528 14 14 (2483712)
I0403 14:07:42.259999 12760 net.cpp:156] Memory required for data: 1157244192
I0403 14:07:42.260013 12760 layer_factory.hpp:77] Creating layer inception_4d/output_inception_4d/output_0_split
I0403 14:07:42.260031 12760 net.cpp:91] Creating Layer inception_4d/output_inception_4d/output_0_split
I0403 14:07:42.260047 12760 net.cpp:425] inception_4d/output_inception_4d/output_0_split <- inception_4d/output
I0403 14:07:42.260067 12760 net.cpp:399] inception_4d/output_inception_4d/output_0_split -> inception_4d/output_inception_4d/output_0_split_0
I0403 14:07:42.260089 12760 net.cpp:399] inception_4d/output_inception_4d/output_0_split -> inception_4d/output_inception_4d/output_0_split_1
I0403 14:07:42.260110 12760 net.cpp:399] inception_4d/output_inception_4d/output_0_split -> inception_4d/output_inception_4d/output_0_split_2
I0403 14:07:42.260131 12760 net.cpp:399] inception_4d/output_inception_4d/output_0_split -> inception_4d/output_inception_4d/output_0_split_3
I0403 14:07:42.260152 12760 net.cpp:399] inception_4d/output_inception_4d/output_0_split -> inception_4d/output_inception_4d/output_0_split_4
I0403 14:07:42.260256 12760 net.cpp:141] Setting up inception_4d/output_inception_4d/output_0_split
I0403 14:07:42.260304 12760 net.cpp:148] Top shape: 24 528 14 14 (2483712)
I0403 14:07:42.260324 12760 net.cpp:148] Top shape: 24 528 14 14 (2483712)
I0403 14:07:42.260340 12760 net.cpp:148] Top shape: 24 528 14 14 (2483712)
I0403 14:07:42.260356 12760 net.cpp:148] Top shape: 24 528 14 14 (2483712)
I0403 14:07:42.260373 12760 net.cpp:148] Top shape: 24 528 14 14 (2483712)
I0403 14:07:42.260387 12760 net.cpp:156] Memory required for data: 1206918432
I0403 14:07:42.260403 12760 layer_factory.hpp:77] Creating layer loss2/ave_pool
I0403 14:07:42.260421 12760 net.cpp:91] Creating Layer loss2/ave_pool
I0403 14:07:42.260438 12760 net.cpp:425] loss2/ave_pool <- inception_4d/output_inception_4d/output_0_split_0
I0403 14:07:42.260460 12760 net.cpp:399] loss2/ave_pool -> loss2/ave_pool
I0403 14:07:42.260787 12760 net.cpp:141] Setting up loss2/ave_pool
I0403 14:07:42.260812 12760 net.cpp:148] Top shape: 24 528 4 4 (202752)
I0403 14:07:42.260828 12760 net.cpp:156] Memory required for data: 1207729440
I0403 14:07:42.260844 12760 layer_factory.hpp:77] Creating layer loss2/conv
I0403 14:07:42.260866 12760 net.cpp:91] Creating Layer loss2/conv
I0403 14:07:42.260885 12760 net.cpp:425] loss2/conv <- loss2/ave_pool
I0403 14:07:42.260906 12760 net.cpp:399] loss2/conv -> loss2/conv
I0403 14:07:42.262768 12760 net.cpp:141] Setting up loss2/conv
I0403 14:07:42.262797 12760 net.cpp:148] Top shape: 24 128 4 4 (49152)
I0403 14:07:42.262815 12760 net.cpp:156] Memory required for data: 1207926048
I0403 14:07:42.262835 12760 layer_factory.hpp:77] Creating layer loss2/relu_conv
I0403 14:07:42.262852 12760 net.cpp:91] Creating Layer loss2/relu_conv
I0403 14:07:42.262869 12760 net.cpp:425] loss2/relu_conv <- loss2/conv
I0403 14:07:42.262888 12760 net.cpp:386] loss2/relu_conv -> loss2/conv (in-place)
I0403 14:07:42.263171 12760 net.cpp:141] Setting up loss2/relu_conv
I0403 14:07:42.263200 12760 net.cpp:148] Top shape: 24 128 4 4 (49152)
I0403 14:07:42.263216 12760 net.cpp:156] Memory required for data: 1208122656
I0403 14:07:42.263231 12760 layer_factory.hpp:77] Creating layer loss2/fc
I0403 14:07:42.263250 12760 net.cpp:91] Creating Layer loss2/fc
I0403 14:07:42.263279 12760 net.cpp:425] loss2/fc <- loss2/conv
I0403 14:07:42.263303 12760 net.cpp:399] loss2/fc -> loss2/fc
I0403 14:07:42.280546 12760 net.cpp:141] Setting up loss2/fc
I0403 14:07:42.280580 12760 net.cpp:148] Top shape: 24 1024 (24576)
I0403 14:07:42.280596 12760 net.cpp:156] Memory required for data: 1208220960
I0403 14:07:42.280616 12760 layer_factory.hpp:77] Creating layer loss2/relu_fc
I0403 14:07:42.280637 12760 net.cpp:91] Creating Layer loss2/relu_fc
I0403 14:07:42.280654 12760 net.cpp:425] loss2/relu_fc <- loss2/fc
I0403 14:07:42.280673 12760 net.cpp:386] loss2/relu_fc -> loss2/fc (in-place)
I0403 14:07:42.280977 12760 net.cpp:141] Setting up loss2/relu_fc
I0403 14:07:42.281002 12760 net.cpp:148] Top shape: 24 1024 (24576)
I0403 14:07:42.281018 12760 net.cpp:156] Memory required for data: 1208319264
I0403 14:07:42.281033 12760 layer_factory.hpp:77] Creating layer loss2/drop_fc
I0403 14:07:42.281054 12760 net.cpp:91] Creating Layer loss2/drop_fc
I0403 14:07:42.281072 12760 net.cpp:425] loss2/drop_fc <- loss2/fc
I0403 14:07:42.281090 12760 net.cpp:386] loss2/drop_fc -> loss2/fc (in-place)
I0403 14:07:42.281139 12760 net.cpp:141] Setting up loss2/drop_fc
I0403 14:07:42.281165 12760 net.cpp:148] Top shape: 24 1024 (24576)
I0403 14:07:42.281182 12760 net.cpp:156] Memory required for data: 1208417568
I0403 14:07:42.281198 12760 layer_factory.hpp:77] Creating layer loss2/classifier_plantvillage
I0403 14:07:42.281215 12760 net.cpp:91] Creating Layer loss2/classifier_plantvillage
I0403 14:07:42.281232 12760 net.cpp:425] loss2/classifier_plantvillage <- loss2/fc
I0403 14:07:42.281254 12760 net.cpp:399] loss2/classifier_plantvillage -> loss2/classifier_plantvillage
I0403 14:07:42.281651 12760 net.cpp:141] Setting up loss2/classifier_plantvillage
I0403 14:07:42.281677 12760 net.cpp:148] Top shape: 24 38 (912)
I0403 14:07:42.281708 12760 net.cpp:156] Memory required for data: 1208421216
I0403 14:07:42.281728 12760 layer_factory.hpp:77] Creating layer loss2/classifier_plantvillage_loss2/classifier_plantvillage_0_split
I0403 14:07:42.281747 12760 net.cpp:91] Creating Layer loss2/classifier_plantvillage_loss2/classifier_plantvillage_0_split
I0403 14:07:42.281764 12760 net.cpp:425] loss2/classifier_plantvillage_loss2/classifier_plantvillage_0_split <- loss2/classifier_plantvillage
I0403 14:07:42.281783 12760 net.cpp:399] loss2/classifier_plantvillage_loss2/classifier_plantvillage_0_split -> loss2/classifier_plantvillage_loss2/classifier_plantvillage_0_split_0
I0403 14:07:42.281806 12760 net.cpp:399] loss2/classifier_plantvillage_loss2/classifier_plantvillage_0_split -> loss2/classifier_plantvillage_loss2/classifier_plantvillage_0_split_1
I0403 14:07:42.281828 12760 net.cpp:399] loss2/classifier_plantvillage_loss2/classifier_plantvillage_0_split -> loss2/classifier_plantvillage_loss2/classifier_plantvillage_0_split_2
I0403 14:07:42.281905 12760 net.cpp:141] Setting up loss2/classifier_plantvillage_loss2/classifier_plantvillage_0_split
I0403 14:07:42.281929 12760 net.cpp:148] Top shape: 24 38 (912)
I0403 14:07:42.281946 12760 net.cpp:148] Top shape: 24 38 (912)
I0403 14:07:42.281962 12760 net.cpp:148] Top shape: 24 38 (912)
I0403 14:07:42.281976 12760 net.cpp:156] Memory required for data: 1208432160
I0403 14:07:42.281992 12760 layer_factory.hpp:77] Creating layer inception_4e/1x1
I0403 14:07:42.282016 12760 net.cpp:91] Creating Layer inception_4e/1x1
I0403 14:07:42.282033 12760 net.cpp:425] inception_4e/1x1 <- inception_4d/output_inception_4d/output_0_split_1
I0403 14:07:42.282055 12760 net.cpp:399] inception_4e/1x1 -> inception_4e/1x1
I0403 14:07:42.283869 12760 net.cpp:141] Setting up inception_4e/1x1
I0403 14:07:42.283896 12760 net.cpp:148] Top shape: 24 256 14 14 (1204224)
I0403 14:07:42.283915 12760 net.cpp:156] Memory required for data: 1213249056
I0403 14:07:42.283932 12760 layer_factory.hpp:77] Creating layer inception_4e/relu_1x1
I0403 14:07:42.283951 12760 net.cpp:91] Creating Layer inception_4e/relu_1x1
I0403 14:07:42.283967 12760 net.cpp:425] inception_4e/relu_1x1 <- inception_4e/1x1
I0403 14:07:42.283987 12760 net.cpp:386] inception_4e/relu_1x1 -> inception_4e/1x1 (in-place)
I0403 14:07:42.284288 12760 net.cpp:141] Setting up inception_4e/relu_1x1
I0403 14:07:42.284319 12760 net.cpp:148] Top shape: 24 256 14 14 (1204224)
I0403 14:07:42.284337 12760 net.cpp:156] Memory required for data: 1218065952
I0403 14:07:42.284353 12760 layer_factory.hpp:77] Creating layer inception_4e/3x3_reduce
I0403 14:07:42.284376 12760 net.cpp:91] Creating Layer inception_4e/3x3_reduce
I0403 14:07:42.284395 12760 net.cpp:425] inception_4e/3x3_reduce <- inception_4d/output_inception_4d/output_0_split_2
I0403 14:07:42.284415 12760 net.cpp:399] inception_4e/3x3_reduce -> inception_4e/3x3_reduce
I0403 14:07:42.286517 12760 net.cpp:141] Setting up inception_4e/3x3_reduce
I0403 14:07:42.286563 12760 net.cpp:148] Top shape: 24 160 14 14 (752640)
I0403 14:07:42.286581 12760 net.cpp:156] Memory required for data: 1221076512
I0403 14:07:42.286608 12760 layer_factory.hpp:77] Creating layer inception_4e/relu_3x3_reduce
I0403 14:07:42.286630 12760 net.cpp:91] Creating Layer inception_4e/relu_3x3_reduce
I0403 14:07:42.286649 12760 net.cpp:425] inception_4e/relu_3x3_reduce <- inception_4e/3x3_reduce
I0403 14:07:42.286667 12760 net.cpp:386] inception_4e/relu_3x3_reduce -> inception_4e/3x3_reduce (in-place)
I0403 14:07:42.286857 12760 net.cpp:141] Setting up inception_4e/relu_3x3_reduce
I0403 14:07:42.286895 12760 net.cpp:148] Top shape: 24 160 14 14 (752640)
I0403 14:07:42.286911 12760 net.cpp:156] Memory required for data: 1224087072
I0403 14:07:42.286928 12760 layer_factory.hpp:77] Creating layer inception_4e/3x3
I0403 14:07:42.286952 12760 net.cpp:91] Creating Layer inception_4e/3x3
I0403 14:07:42.286970 12760 net.cpp:425] inception_4e/3x3 <- inception_4e/3x3_reduce
I0403 14:07:42.286989 12760 net.cpp:399] inception_4e/3x3 -> inception_4e/3x3
I0403 14:07:42.292021 12760 net.cpp:141] Setting up inception_4e/3x3
I0403 14:07:42.292064 12760 net.cpp:148] Top shape: 24 320 14 14 (1505280)
I0403 14:07:42.292083 12760 net.cpp:156] Memory required for data: 1230108192
I0403 14:07:42.292103 12760 layer_factory.hpp:77] Creating layer inception_4e/relu_3x3
I0403 14:07:42.292122 12760 net.cpp:91] Creating Layer inception_4e/relu_3x3
I0403 14:07:42.292140 12760 net.cpp:425] inception_4e/relu_3x3 <- inception_4e/3x3
I0403 14:07:42.292160 12760 net.cpp:386] inception_4e/relu_3x3 -> inception_4e/3x3 (in-place)
I0403 14:07:42.292464 12760 net.cpp:141] Setting up inception_4e/relu_3x3
I0403 14:07:42.292491 12760 net.cpp:148] Top shape: 24 320 14 14 (1505280)
I0403 14:07:42.292507 12760 net.cpp:156] Memory required for data: 1236129312
I0403 14:07:42.292523 12760 layer_factory.hpp:77] Creating layer inception_4e/5x5_reduce
I0403 14:07:42.292551 12760 net.cpp:91] Creating Layer inception_4e/5x5_reduce
I0403 14:07:42.292572 12760 net.cpp:425] inception_4e/5x5_reduce <- inception_4d/output_inception_4d/output_0_split_3
I0403 14:07:42.292603 12760 net.cpp:399] inception_4e/5x5_reduce -> inception_4e/5x5_reduce
I0403 14:07:42.293725 12760 net.cpp:141] Setting up inception_4e/5x5_reduce
I0403 14:07:42.293753 12760 net.cpp:148] Top shape: 24 32 14 14 (150528)
I0403 14:07:42.293769 12760 net.cpp:156] Memory required for data: 1236731424
I0403 14:07:42.293789 12760 layer_factory.hpp:77] Creating layer inception_4e/relu_5x5_reduce
I0403 14:07:42.293810 12760 net.cpp:91] Creating Layer inception_4e/relu_5x5_reduce
I0403 14:07:42.293829 12760 net.cpp:425] inception_4e/relu_5x5_reduce <- inception_4e/5x5_reduce
I0403 14:07:42.293848 12760 net.cpp:386] inception_4e/relu_5x5_reduce -> inception_4e/5x5_reduce (in-place)
I0403 14:07:42.294154 12760 net.cpp:141] Setting up inception_4e/relu_5x5_reduce
I0403 14:07:42.294180 12760 net.cpp:148] Top shape: 24 32 14 14 (150528)
I0403 14:07:42.294196 12760 net.cpp:156] Memory required for data: 1237333536
I0403 14:07:42.294212 12760 layer_factory.hpp:77] Creating layer inception_4e/5x5
I0403 14:07:42.294252 12760 net.cpp:91] Creating Layer inception_4e/5x5
I0403 14:07:42.294272 12760 net.cpp:425] inception_4e/5x5 <- inception_4e/5x5_reduce
I0403 14:07:42.294292 12760 net.cpp:399] inception_4e/5x5 -> inception_4e/5x5
I0403 14:07:42.296175 12760 net.cpp:141] Setting up inception_4e/5x5
I0403 14:07:42.296202 12760 net.cpp:148] Top shape: 24 128 14 14 (602112)
I0403 14:07:42.296219 12760 net.cpp:156] Memory required for data: 1239741984
I0403 14:07:42.296239 12760 layer_factory.hpp:77] Creating layer inception_4e/relu_5x5
I0403 14:07:42.296262 12760 net.cpp:91] Creating Layer inception_4e/relu_5x5
I0403 14:07:42.296279 12760 net.cpp:425] inception_4e/relu_5x5 <- inception_4e/5x5
I0403 14:07:42.296298 12760 net.cpp:386] inception_4e/relu_5x5 -> inception_4e/5x5 (in-place)
I0403 14:07:42.296499 12760 net.cpp:141] Setting up inception_4e/relu_5x5
I0403 14:07:42.296526 12760 net.cpp:148] Top shape: 24 128 14 14 (602112)
I0403 14:07:42.296548 12760 net.cpp:156] Memory required for data: 1242150432
I0403 14:07:42.296566 12760 layer_factory.hpp:77] Creating layer inception_4e/pool
I0403 14:07:42.296584 12760 net.cpp:91] Creating Layer inception_4e/pool
I0403 14:07:42.296602 12760 net.cpp:425] inception_4e/pool <- inception_4d/output_inception_4d/output_0_split_4
I0403 14:07:42.296620 12760 net.cpp:399] inception_4e/pool -> inception_4e/pool
I0403 14:07:42.296692 12760 net.cpp:141] Setting up inception_4e/pool
I0403 14:07:42.296717 12760 net.cpp:148] Top shape: 24 528 14 14 (2483712)
I0403 14:07:42.296733 12760 net.cpp:156] Memory required for data: 1252085280
I0403 14:07:42.296748 12760 layer_factory.hpp:77] Creating layer inception_4e/pool_proj
I0403 14:07:42.296772 12760 net.cpp:91] Creating Layer inception_4e/pool_proj
I0403 14:07:42.296789 12760 net.cpp:425] inception_4e/pool_proj <- inception_4e/pool
I0403 14:07:42.296811 12760 net.cpp:399] inception_4e/pool_proj -> inception_4e/pool_proj
I0403 14:07:42.298326 12760 net.cpp:141] Setting up inception_4e/pool_proj
I0403 14:07:42.298365 12760 net.cpp:148] Top shape: 24 128 14 14 (602112)
I0403 14:07:42.298382 12760 net.cpp:156] Memory required for data: 1254493728
I0403 14:07:42.298403 12760 layer_factory.hpp:77] Creating layer inception_4e/relu_pool_proj
I0403 14:07:42.298424 12760 net.cpp:91] Creating Layer inception_4e/relu_pool_proj
I0403 14:07:42.298444 12760 net.cpp:425] inception_4e/relu_pool_proj <- inception_4e/pool_proj
I0403 14:07:42.298461 12760 net.cpp:386] inception_4e/relu_pool_proj -> inception_4e/pool_proj (in-place)
I0403 14:07:42.298763 12760 net.cpp:141] Setting up inception_4e/relu_pool_proj
I0403 14:07:42.298790 12760 net.cpp:148] Top shape: 24 128 14 14 (602112)
I0403 14:07:42.298807 12760 net.cpp:156] Memory required for data: 1256902176
I0403 14:07:42.298822 12760 layer_factory.hpp:77] Creating layer inception_4e/output
I0403 14:07:42.298841 12760 net.cpp:91] Creating Layer inception_4e/output
I0403 14:07:42.298858 12760 net.cpp:425] inception_4e/output <- inception_4e/1x1
I0403 14:07:42.298877 12760 net.cpp:425] inception_4e/output <- inception_4e/3x3
I0403 14:07:42.298893 12760 net.cpp:425] inception_4e/output <- inception_4e/5x5
I0403 14:07:42.298910 12760 net.cpp:425] inception_4e/output <- inception_4e/pool_proj
I0403 14:07:42.298930 12760 net.cpp:399] inception_4e/output -> inception_4e/output
I0403 14:07:42.298982 12760 net.cpp:141] Setting up inception_4e/output
I0403 14:07:42.299010 12760 net.cpp:148] Top shape: 24 832 14 14 (3913728)
I0403 14:07:42.299026 12760 net.cpp:156] Memory required for data: 1272557088
I0403 14:07:42.299041 12760 layer_factory.hpp:77] Creating layer pool4/3x3_s2
I0403 14:07:42.299060 12760 net.cpp:91] Creating Layer pool4/3x3_s2
I0403 14:07:42.299077 12760 net.cpp:425] pool4/3x3_s2 <- inception_4e/output
I0403 14:07:42.299100 12760 net.cpp:399] pool4/3x3_s2 -> pool4/3x3_s2
I0403 14:07:42.299171 12760 net.cpp:141] Setting up pool4/3x3_s2
I0403 14:07:42.299196 12760 net.cpp:148] Top shape: 24 832 7 7 (978432)
I0403 14:07:42.299212 12760 net.cpp:156] Memory required for data: 1276470816
I0403 14:07:42.299227 12760 layer_factory.hpp:77] Creating layer pool4/3x3_s2_pool4/3x3_s2_0_split
I0403 14:07:42.299247 12760 net.cpp:91] Creating Layer pool4/3x3_s2_pool4/3x3_s2_0_split
I0403 14:07:42.299264 12760 net.cpp:425] pool4/3x3_s2_pool4/3x3_s2_0_split <- pool4/3x3_s2
I0403 14:07:42.299283 12760 net.cpp:399] pool4/3x3_s2_pool4/3x3_s2_0_split -> pool4/3x3_s2_pool4/3x3_s2_0_split_0
I0403 14:07:42.299304 12760 net.cpp:399] pool4/3x3_s2_pool4/3x3_s2_0_split -> pool4/3x3_s2_pool4/3x3_s2_0_split_1
I0403 14:07:42.299329 12760 net.cpp:399] pool4/3x3_s2_pool4/3x3_s2_0_split -> pool4/3x3_s2_pool4/3x3_s2_0_split_2
I0403 14:07:42.299350 12760 net.cpp:399] pool4/3x3_s2_pool4/3x3_s2_0_split -> pool4/3x3_s2_pool4/3x3_s2_0_split_3
I0403 14:07:42.299443 12760 net.cpp:141] Setting up pool4/3x3_s2_pool4/3x3_s2_0_split
I0403 14:07:42.299466 12760 net.cpp:148] Top shape: 24 832 7 7 (978432)
I0403 14:07:42.299484 12760 net.cpp:148] Top shape: 24 832 7 7 (978432)
I0403 14:07:42.299501 12760 net.cpp:148] Top shape: 24 832 7 7 (978432)
I0403 14:07:42.299517 12760 net.cpp:148] Top shape: 24 832 7 7 (978432)
I0403 14:07:42.299532 12760 net.cpp:156] Memory required for data: 1292125728
I0403 14:07:42.299552 12760 layer_factory.hpp:77] Creating layer inception_5a/1x1
I0403 14:07:42.299577 12760 net.cpp:91] Creating Layer inception_5a/1x1
I0403 14:07:42.299595 12760 net.cpp:425] inception_5a/1x1 <- pool4/3x3_s2_pool4/3x3_s2_0_split_0
I0403 14:07:42.299618 12760 net.cpp:399] inception_5a/1x1 -> inception_5a/1x1
I0403 14:07:42.302705 12760 net.cpp:141] Setting up inception_5a/1x1
I0403 14:07:42.302737 12760 net.cpp:148] Top shape: 24 256 7 7 (301056)
I0403 14:07:42.302755 12760 net.cpp:156] Memory required for data: 1293329952
I0403 14:07:42.302775 12760 layer_factory.hpp:77] Creating layer inception_5a/relu_1x1
I0403 14:07:42.302798 12760 net.cpp:91] Creating Layer inception_5a/relu_1x1
I0403 14:07:42.302815 12760 net.cpp:425] inception_5a/relu_1x1 <- inception_5a/1x1
I0403 14:07:42.302834 12760 net.cpp:386] inception_5a/relu_1x1 -> inception_5a/1x1 (in-place)
I0403 14:07:42.303160 12760 net.cpp:141] Setting up inception_5a/relu_1x1
I0403 14:07:42.303187 12760 net.cpp:148] Top shape: 24 256 7 7 (301056)
I0403 14:07:42.303203 12760 net.cpp:156] Memory required for data: 1294534176
I0403 14:07:42.303220 12760 layer_factory.hpp:77] Creating layer inception_5a/3x3_reduce
I0403 14:07:42.303243 12760 net.cpp:91] Creating Layer inception_5a/3x3_reduce
I0403 14:07:42.303262 12760 net.cpp:425] inception_5a/3x3_reduce <- pool4/3x3_s2_pool4/3x3_s2_0_split_1
I0403 14:07:42.303287 12760 net.cpp:399] inception_5a/3x3_reduce -> inception_5a/3x3_reduce
I0403 14:07:42.305759 12760 net.cpp:141] Setting up inception_5a/3x3_reduce
I0403 14:07:42.305789 12760 net.cpp:148] Top shape: 24 160 7 7 (188160)
I0403 14:07:42.305805 12760 net.cpp:156] Memory required for data: 1295286816
I0403 14:07:42.305825 12760 layer_factory.hpp:77] Creating layer inception_5a/relu_3x3_reduce
I0403 14:07:42.305845 12760 net.cpp:91] Creating Layer inception_5a/relu_3x3_reduce
I0403 14:07:42.305861 12760 net.cpp:425] inception_5a/relu_3x3_reduce <- inception_5a/3x3_reduce
I0403 14:07:42.305881 12760 net.cpp:386] inception_5a/relu_3x3_reduce -> inception_5a/3x3_reduce (in-place)
I0403 14:07:42.306068 12760 net.cpp:141] Setting up inception_5a/relu_3x3_reduce
I0403 14:07:42.306093 12760 net.cpp:148] Top shape: 24 160 7 7 (188160)
I0403 14:07:42.306108 12760 net.cpp:156] Memory required for data: 1296039456
I0403 14:07:42.306123 12760 layer_factory.hpp:77] Creating layer inception_5a/3x3
I0403 14:07:42.306146 12760 net.cpp:91] Creating Layer inception_5a/3x3
I0403 14:07:42.306164 12760 net.cpp:425] inception_5a/3x3 <- inception_5a/3x3_reduce
I0403 14:07:42.306186 12760 net.cpp:399] inception_5a/3x3 -> inception_5a/3x3
I0403 14:07:42.311203 12760 net.cpp:141] Setting up inception_5a/3x3
I0403 14:07:42.311233 12760 net.cpp:148] Top shape: 24 320 7 7 (376320)
I0403 14:07:42.311249 12760 net.cpp:156] Memory required for data: 1297544736
I0403 14:07:42.311269 12760 layer_factory.hpp:77] Creating layer inception_5a/relu_3x3
I0403 14:07:42.311291 12760 net.cpp:91] Creating Layer inception_5a/relu_3x3
I0403 14:07:42.311310 12760 net.cpp:425] inception_5a/relu_3x3 <- inception_5a/3x3
I0403 14:07:42.311328 12760 net.cpp:386] inception_5a/relu_3x3 -> inception_5a/3x3 (in-place)
I0403 14:07:42.311625 12760 net.cpp:141] Setting up inception_5a/relu_3x3
I0403 14:07:42.311650 12760 net.cpp:148] Top shape: 24 320 7 7 (376320)
I0403 14:07:42.311666 12760 net.cpp:156] Memory required for data: 1299050016
I0403 14:07:42.311682 12760 layer_factory.hpp:77] Creating layer inception_5a/5x5_reduce
I0403 14:07:42.311704 12760 net.cpp:91] Creating Layer inception_5a/5x5_reduce
I0403 14:07:42.311723 12760 net.cpp:425] inception_5a/5x5_reduce <- pool4/3x3_s2_pool4/3x3_s2_0_split_2
I0403 14:07:42.311746 12760 net.cpp:399] inception_5a/5x5_reduce -> inception_5a/5x5_reduce
I0403 14:07:42.312907 12760 net.cpp:141] Setting up inception_5a/5x5_reduce
I0403 14:07:42.312938 12760 net.cpp:148] Top shape: 24 32 7 7 (37632)
I0403 14:07:42.312955 12760 net.cpp:156] Memory required for data: 1299200544
I0403 14:07:42.312974 12760 layer_factory.hpp:77] Creating layer inception_5a/relu_5x5_reduce
I0403 14:07:42.312993 12760 net.cpp:91] Creating Layer inception_5a/relu_5x5_reduce
I0403 14:07:42.313009 12760 net.cpp:425] inception_5a/relu_5x5_reduce <- inception_5a/5x5_reduce
I0403 14:07:42.313026 12760 net.cpp:386] inception_5a/relu_5x5_reduce -> inception_5a/5x5_reduce (in-place)
I0403 14:07:42.313324 12760 net.cpp:141] Setting up inception_5a/relu_5x5_reduce
I0403 14:07:42.313352 12760 net.cpp:148] Top shape: 24 32 7 7 (37632)
I0403 14:07:42.313369 12760 net.cpp:156] Memory required for data: 1299351072
I0403 14:07:42.313385 12760 layer_factory.hpp:77] Creating layer inception_5a/5x5
I0403 14:07:42.313407 12760 net.cpp:91] Creating Layer inception_5a/5x5
I0403 14:07:42.313426 12760 net.cpp:425] inception_5a/5x5 <- inception_5a/5x5_reduce
I0403 14:07:42.313446 12760 net.cpp:399] inception_5a/5x5 -> inception_5a/5x5
I0403 14:07:42.315137 12760 net.cpp:141] Setting up inception_5a/5x5
I0403 14:07:42.315178 12760 net.cpp:148] Top shape: 24 128 7 7 (150528)
I0403 14:07:42.315196 12760 net.cpp:156] Memory required for data: 1299953184
I0403 14:07:42.315214 12760 layer_factory.hpp:77] Creating layer inception_5a/relu_5x5
I0403 14:07:42.315235 12760 net.cpp:91] Creating Layer inception_5a/relu_5x5
I0403 14:07:42.315253 12760 net.cpp:425] inception_5a/relu_5x5 <- inception_5a/5x5
I0403 14:07:42.315284 12760 net.cpp:386] inception_5a/relu_5x5 -> inception_5a/5x5 (in-place)
I0403 14:07:42.315480 12760 net.cpp:141] Setting up inception_5a/relu_5x5
I0403 14:07:42.315520 12760 net.cpp:148] Top shape: 24 128 7 7 (150528)
I0403 14:07:42.315538 12760 net.cpp:156] Memory required for data: 1300555296
I0403 14:07:42.315567 12760 layer_factory.hpp:77] Creating layer inception_5a/pool
I0403 14:07:42.315584 12760 net.cpp:91] Creating Layer inception_5a/pool
I0403 14:07:42.315601 12760 net.cpp:425] inception_5a/pool <- pool4/3x3_s2_pool4/3x3_s2_0_split_3
I0403 14:07:42.315619 12760 net.cpp:399] inception_5a/pool -> inception_5a/pool
I0403 14:07:42.315691 12760 net.cpp:141] Setting up inception_5a/pool
I0403 14:07:42.315716 12760 net.cpp:148] Top shape: 24 832 7 7 (978432)
I0403 14:07:42.315732 12760 net.cpp:156] Memory required for data: 1304469024
I0403 14:07:42.315747 12760 layer_factory.hpp:77] Creating layer inception_5a/pool_proj
I0403 14:07:42.315769 12760 net.cpp:91] Creating Layer inception_5a/pool_proj
I0403 14:07:42.315788 12760 net.cpp:425] inception_5a/pool_proj <- inception_5a/pool
I0403 14:07:42.315809 12760 net.cpp:399] inception_5a/pool_proj -> inception_5a/pool_proj
I0403 14:07:42.318084 12760 net.cpp:141] Setting up inception_5a/pool_proj
I0403 14:07:42.318111 12760 net.cpp:148] Top shape: 24 128 7 7 (150528)
I0403 14:07:42.318127 12760 net.cpp:156] Memory required for data: 1305071136
I0403 14:07:42.318146 12760 layer_factory.hpp:77] Creating layer inception_5a/relu_pool_proj
I0403 14:07:42.318167 12760 net.cpp:91] Creating Layer inception_5a/relu_pool_proj
I0403 14:07:42.318186 12760 net.cpp:425] inception_5a/relu_pool_proj <- inception_5a/pool_proj
I0403 14:07:42.318203 12760 net.cpp:386] inception_5a/relu_pool_proj -> inception_5a/pool_proj (in-place)
I0403 14:07:42.318521 12760 net.cpp:141] Setting up inception_5a/relu_pool_proj
I0403 14:07:42.318547 12760 net.cpp:148] Top shape: 24 128 7 7 (150528)
I0403 14:07:42.318575 12760 net.cpp:156] Memory required for data: 1305673248
I0403 14:07:42.318590 12760 layer_factory.hpp:77] Creating layer inception_5a/output
I0403 14:07:42.318608 12760 net.cpp:91] Creating Layer inception_5a/output
I0403 14:07:42.318624 12760 net.cpp:425] inception_5a/output <- inception_5a/1x1
I0403 14:07:42.318641 12760 net.cpp:425] inception_5a/output <- inception_5a/3x3
I0403 14:07:42.318662 12760 net.cpp:425] inception_5a/output <- inception_5a/5x5
I0403 14:07:42.318680 12760 net.cpp:425] inception_5a/output <- inception_5a/pool_proj
I0403 14:07:42.318696 12760 net.cpp:399] inception_5a/output -> inception_5a/output
I0403 14:07:42.318745 12760 net.cpp:141] Setting up inception_5a/output
I0403 14:07:42.318771 12760 net.cpp:148] Top shape: 24 832 7 7 (978432)
I0403 14:07:42.318788 12760 net.cpp:156] Memory required for data: 1309586976
I0403 14:07:42.318802 12760 layer_factory.hpp:77] Creating layer inception_5a/output_inception_5a/output_0_split
I0403 14:07:42.318819 12760 net.cpp:91] Creating Layer inception_5a/output_inception_5a/output_0_split
I0403 14:07:42.318835 12760 net.cpp:425] inception_5a/output_inception_5a/output_0_split <- inception_5a/output
I0403 14:07:42.318857 12760 net.cpp:399] inception_5a/output_inception_5a/output_0_split -> inception_5a/output_inception_5a/output_0_split_0
I0403 14:07:42.318878 12760 net.cpp:399] inception_5a/output_inception_5a/output_0_split -> inception_5a/output_inception_5a/output_0_split_1
I0403 14:07:42.318899 12760 net.cpp:399] inception_5a/output_inception_5a/output_0_split -> inception_5a/output_inception_5a/output_0_split_2
I0403 14:07:42.318920 12760 net.cpp:399] inception_5a/output_inception_5a/output_0_split -> inception_5a/output_inception_5a/output_0_split_3
I0403 14:07:42.319031 12760 net.cpp:141] Setting up inception_5a/output_inception_5a/output_0_split
I0403 14:07:42.319056 12760 net.cpp:148] Top shape: 24 832 7 7 (978432)
I0403 14:07:42.319073 12760 net.cpp:148] Top shape: 24 832 7 7 (978432)
I0403 14:07:42.319090 12760 net.cpp:148] Top shape: 24 832 7 7 (978432)
I0403 14:07:42.319106 12760 net.cpp:148] Top shape: 24 832 7 7 (978432)
I0403 14:07:42.319120 12760 net.cpp:156] Memory required for data: 1325241888
I0403 14:07:42.319134 12760 layer_factory.hpp:77] Creating layer inception_5b/1x1
I0403 14:07:42.319154 12760 net.cpp:91] Creating Layer inception_5b/1x1
I0403 14:07:42.319172 12760 net.cpp:425] inception_5b/1x1 <- inception_5a/output_inception_5a/output_0_split_0
I0403 14:07:42.319193 12760 net.cpp:399] inception_5b/1x1 -> inception_5b/1x1
I0403 14:07:42.322943 12760 net.cpp:141] Setting up inception_5b/1x1
I0403 14:07:42.322973 12760 net.cpp:148] Top shape: 24 384 7 7 (451584)
I0403 14:07:42.322988 12760 net.cpp:156] Memory required for data: 1327048224
I0403 14:07:42.323007 12760 layer_factory.hpp:77] Creating layer inception_5b/relu_1x1
I0403 14:07:42.323025 12760 net.cpp:91] Creating Layer inception_5b/relu_1x1
I0403 14:07:42.323043 12760 net.cpp:425] inception_5b/relu_1x1 <- inception_5b/1x1
I0403 14:07:42.323063 12760 net.cpp:386] inception_5b/relu_1x1 -> inception_5b/1x1 (in-place)
I0403 14:07:42.323375 12760 net.cpp:141] Setting up inception_5b/relu_1x1
I0403 14:07:42.323408 12760 net.cpp:148] Top shape: 24 384 7 7 (451584)
I0403 14:07:42.323423 12760 net.cpp:156] Memory required for data: 1328854560
I0403 14:07:42.323439 12760 layer_factory.hpp:77] Creating layer inception_5b/3x3_reduce
I0403 14:07:42.323462 12760 net.cpp:91] Creating Layer inception_5b/3x3_reduce
I0403 14:07:42.323480 12760 net.cpp:425] inception_5b/3x3_reduce <- inception_5a/output_inception_5a/output_0_split_1
I0403 14:07:42.323503 12760 net.cpp:399] inception_5b/3x3_reduce -> inception_5b/3x3_reduce
I0403 14:07:42.326179 12760 net.cpp:141] Setting up inception_5b/3x3_reduce
I0403 14:07:42.326208 12760 net.cpp:148] Top shape: 24 192 7 7 (225792)
I0403 14:07:42.326225 12760 net.cpp:156] Memory required for data: 1329757728
I0403 14:07:42.326243 12760 layer_factory.hpp:77] Creating layer inception_5b/relu_3x3_reduce
I0403 14:07:42.326264 12760 net.cpp:91] Creating Layer inception_5b/relu_3x3_reduce
I0403 14:07:42.326282 12760 net.cpp:425] inception_5b/relu_3x3_reduce <- inception_5b/3x3_reduce
I0403 14:07:42.326299 12760 net.cpp:386] inception_5b/relu_3x3_reduce -> inception_5b/3x3_reduce (in-place)
I0403 14:07:42.326493 12760 net.cpp:141] Setting up inception_5b/relu_3x3_reduce
I0403 14:07:42.326524 12760 net.cpp:148] Top shape: 24 192 7 7 (225792)
I0403 14:07:42.326539 12760 net.cpp:156] Memory required for data: 1330660896
I0403 14:07:42.326555 12760 layer_factory.hpp:77] Creating layer inception_5b/3x3
I0403 14:07:42.326576 12760 net.cpp:91] Creating Layer inception_5b/3x3
I0403 14:07:42.326594 12760 net.cpp:425] inception_5b/3x3 <- inception_5b/3x3_reduce
I0403 14:07:42.326619 12760 net.cpp:399] inception_5b/3x3 -> inception_5b/3x3
I0403 14:07:42.333186 12760 net.cpp:141] Setting up inception_5b/3x3
I0403 14:07:42.333214 12760 net.cpp:148] Top shape: 24 384 7 7 (451584)
I0403 14:07:42.333230 12760 net.cpp:156] Memory required for data: 1332467232
I0403 14:07:42.333250 12760 layer_factory.hpp:77] Creating layer inception_5b/relu_3x3
I0403 14:07:42.333271 12760 net.cpp:91] Creating Layer inception_5b/relu_3x3
I0403 14:07:42.333287 12760 net.cpp:425] inception_5b/relu_3x3 <- inception_5b/3x3
I0403 14:07:42.333307 12760 net.cpp:386] inception_5b/relu_3x3 -> inception_5b/3x3 (in-place)
I0403 14:07:42.333606 12760 net.cpp:141] Setting up inception_5b/relu_3x3
I0403 14:07:42.333631 12760 net.cpp:148] Top shape: 24 384 7 7 (451584)
I0403 14:07:42.333647 12760 net.cpp:156] Memory required for data: 1334273568
I0403 14:07:42.333663 12760 layer_factory.hpp:77] Creating layer inception_5b/5x5_reduce
I0403 14:07:42.333701 12760 net.cpp:91] Creating Layer inception_5b/5x5_reduce
I0403 14:07:42.333720 12760 net.cpp:425] inception_5b/5x5_reduce <- inception_5a/output_inception_5a/output_0_split_2
I0403 14:07:42.333744 12760 net.cpp:399] inception_5b/5x5_reduce -> inception_5b/5x5_reduce
I0403 14:07:42.335005 12760 net.cpp:141] Setting up inception_5b/5x5_reduce
I0403 14:07:42.335031 12760 net.cpp:148] Top shape: 24 48 7 7 (56448)
I0403 14:07:42.335047 12760 net.cpp:156] Memory required for data: 1334499360
I0403 14:07:42.335067 12760 layer_factory.hpp:77] Creating layer inception_5b/relu_5x5_reduce
I0403 14:07:42.335089 12760 net.cpp:91] Creating Layer inception_5b/relu_5x5_reduce
I0403 14:07:42.335108 12760 net.cpp:425] inception_5b/relu_5x5_reduce <- inception_5b/5x5_reduce
I0403 14:07:42.335125 12760 net.cpp:386] inception_5b/relu_5x5_reduce -> inception_5b/5x5_reduce (in-place)
I0403 14:07:42.335525 12760 net.cpp:141] Setting up inception_5b/relu_5x5_reduce
I0403 14:07:42.335564 12760 net.cpp:148] Top shape: 24 48 7 7 (56448)
I0403 14:07:42.335580 12760 net.cpp:156] Memory required for data: 1334725152
I0403 14:07:42.335595 12760 layer_factory.hpp:77] Creating layer inception_5b/5x5
I0403 14:07:42.335615 12760 net.cpp:91] Creating Layer inception_5b/5x5
I0403 14:07:42.335633 12760 net.cpp:425] inception_5b/5x5 <- inception_5b/5x5_reduce
I0403 14:07:42.335652 12760 net.cpp:399] inception_5b/5x5 -> inception_5b/5x5
I0403 14:07:42.337674 12760 net.cpp:141] Setting up inception_5b/5x5
I0403 14:07:42.337702 12760 net.cpp:148] Top shape: 24 128 7 7 (150528)
I0403 14:07:42.337718 12760 net.cpp:156] Memory required for data: 1335327264
I0403 14:07:42.337738 12760 layer_factory.hpp:77] Creating layer inception_5b/relu_5x5
I0403 14:07:42.337757 12760 net.cpp:91] Creating Layer inception_5b/relu_5x5
I0403 14:07:42.337776 12760 net.cpp:425] inception_5b/relu_5x5 <- inception_5b/5x5
I0403 14:07:42.337793 12760 net.cpp:386] inception_5b/relu_5x5 -> inception_5b/5x5 (in-place)
I0403 14:07:42.337990 12760 net.cpp:141] Setting up inception_5b/relu_5x5
I0403 14:07:42.338016 12760 net.cpp:148] Top shape: 24 128 7 7 (150528)
I0403 14:07:42.338032 12760 net.cpp:156] Memory required for data: 1335929376
I0403 14:07:42.338047 12760 layer_factory.hpp:77] Creating layer inception_5b/pool
I0403 14:07:42.338065 12760 net.cpp:91] Creating Layer inception_5b/pool
I0403 14:07:42.338081 12760 net.cpp:425] inception_5b/pool <- inception_5a/output_inception_5a/output_0_split_3
I0403 14:07:42.338104 12760 net.cpp:399] inception_5b/pool -> inception_5b/pool
I0403 14:07:42.338176 12760 net.cpp:141] Setting up inception_5b/pool
I0403 14:07:42.338198 12760 net.cpp:148] Top shape: 24 832 7 7 (978432)
I0403 14:07:42.338214 12760 net.cpp:156] Memory required for data: 1339843104
I0403 14:07:42.338229 12760 layer_factory.hpp:77] Creating layer inception_5b/pool_proj
I0403 14:07:42.338253 12760 net.cpp:91] Creating Layer inception_5b/pool_proj
I0403 14:07:42.338269 12760 net.cpp:425] inception_5b/pool_proj <- inception_5b/pool
I0403 14:07:42.338291 12760 net.cpp:399] inception_5b/pool_proj -> inception_5b/pool_proj
I0403 14:07:42.340610 12760 net.cpp:141] Setting up inception_5b/pool_proj
I0403 14:07:42.340641 12760 net.cpp:148] Top shape: 24 128 7 7 (150528)
I0403 14:07:42.340656 12760 net.cpp:156] Memory required for data: 1340445216
I0403 14:07:42.340677 12760 layer_factory.hpp:77] Creating layer inception_5b/relu_pool_proj
I0403 14:07:42.340698 12760 net.cpp:91] Creating Layer inception_5b/relu_pool_proj
I0403 14:07:42.340716 12760 net.cpp:425] inception_5b/relu_pool_proj <- inception_5b/pool_proj
I0403 14:07:42.340734 12760 net.cpp:386] inception_5b/relu_pool_proj -> inception_5b/pool_proj (in-place)
I0403 14:07:42.341049 12760 net.cpp:141] Setting up inception_5b/relu_pool_proj
I0403 14:07:42.341075 12760 net.cpp:148] Top shape: 24 128 7 7 (150528)
I0403 14:07:42.341090 12760 net.cpp:156] Memory required for data: 1341047328
I0403 14:07:42.341105 12760 layer_factory.hpp:77] Creating layer inception_5b/output
I0403 14:07:42.341123 12760 net.cpp:91] Creating Layer inception_5b/output
I0403 14:07:42.341156 12760 net.cpp:425] inception_5b/output <- inception_5b/1x1
I0403 14:07:42.341173 12760 net.cpp:425] inception_5b/output <- inception_5b/3x3
I0403 14:07:42.341192 12760 net.cpp:425] inception_5b/output <- inception_5b/5x5
I0403 14:07:42.341208 12760 net.cpp:425] inception_5b/output <- inception_5b/pool_proj
I0403 14:07:42.341228 12760 net.cpp:399] inception_5b/output -> inception_5b/output
I0403 14:07:42.341282 12760 net.cpp:141] Setting up inception_5b/output
I0403 14:07:42.341306 12760 net.cpp:148] Top shape: 24 1024 7 7 (1204224)
I0403 14:07:42.341322 12760 net.cpp:156] Memory required for data: 1345864224
I0403 14:07:42.341337 12760 layer_factory.hpp:77] Creating layer pool5/7x7_s1
I0403 14:07:42.341354 12760 net.cpp:91] Creating Layer pool5/7x7_s1
I0403 14:07:42.341370 12760 net.cpp:425] pool5/7x7_s1 <- inception_5b/output
I0403 14:07:42.341392 12760 net.cpp:399] pool5/7x7_s1 -> pool5/7x7_s1
I0403 14:07:42.341610 12760 net.cpp:141] Setting up pool5/7x7_s1
I0403 14:07:42.341635 12760 net.cpp:148] Top shape: 24 1024 1 1 (24576)
I0403 14:07:42.341650 12760 net.cpp:156] Memory required for data: 1345962528
I0403 14:07:42.341666 12760 layer_factory.hpp:77] Creating layer pool5/drop_7x7_s1
I0403 14:07:42.341686 12760 net.cpp:91] Creating Layer pool5/drop_7x7_s1
I0403 14:07:42.341703 12760 net.cpp:425] pool5/drop_7x7_s1 <- pool5/7x7_s1
I0403 14:07:42.341720 12760 net.cpp:386] pool5/drop_7x7_s1 -> pool5/7x7_s1 (in-place)
I0403 14:07:42.341773 12760 net.cpp:141] Setting up pool5/drop_7x7_s1
I0403 14:07:42.341796 12760 net.cpp:148] Top shape: 24 1024 1 1 (24576)
I0403 14:07:42.341811 12760 net.cpp:156] Memory required for data: 1346060832
I0403 14:07:42.341826 12760 layer_factory.hpp:77] Creating layer loss3/classifier_plantvillage
I0403 14:07:42.341846 12760 net.cpp:91] Creating Layer loss3/classifier_plantvillage
I0403 14:07:42.341863 12760 net.cpp:425] loss3/classifier_plantvillage <- pool5/7x7_s1
I0403 14:07:42.341884 12760 net.cpp:399] loss3/classifier_plantvillage -> loss3/classifier_plantvillage
I0403 14:07:42.342303 12760 net.cpp:141] Setting up loss3/classifier_plantvillage
I0403 14:07:42.342329 12760 net.cpp:148] Top shape: 24 38 (912)
I0403 14:07:42.342344 12760 net.cpp:156] Memory required for data: 1346064480
I0403 14:07:42.342362 12760 layer_factory.hpp:77] Creating layer loss3/classifier_plantvillage_loss3/classifier_plantvillage_0_split
I0403 14:07:42.342381 12760 net.cpp:91] Creating Layer loss3/classifier_plantvillage_loss3/classifier_plantvillage_0_split
I0403 14:07:42.342396 12760 net.cpp:425] loss3/classifier_plantvillage_loss3/classifier_plantvillage_0_split <- loss3/classifier_plantvillage
I0403 14:07:42.342417 12760 net.cpp:399] loss3/classifier_plantvillage_loss3/classifier_plantvillage_0_split -> loss3/classifier_plantvillage_loss3/classifier_plantvillage_0_split_0
I0403 14:07:42.342437 12760 net.cpp:399] loss3/classifier_plantvillage_loss3/classifier_plantvillage_0_split -> loss3/classifier_plantvillage_loss3/classifier_plantvillage_0_split_1
I0403 14:07:42.342459 12760 net.cpp:399] loss3/classifier_plantvillage_loss3/classifier_plantvillage_0_split -> loss3/classifier_plantvillage_loss3/classifier_plantvillage_0_split_2
I0403 14:07:42.342479 12760 net.cpp:399] loss3/classifier_plantvillage_loss3/classifier_plantvillage_0_split -> loss3/classifier_plantvillage_loss3/classifier_plantvillage_0_split_3
I0403 14:07:42.342604 12760 net.cpp:141] Setting up loss3/classifier_plantvillage_loss3/classifier_plantvillage_0_split
I0403 14:07:42.342629 12760 net.cpp:148] Top shape: 24 38 (912)
I0403 14:07:42.342646 12760 net.cpp:148] Top shape: 24 38 (912)
I0403 14:07:42.342663 12760 net.cpp:148] Top shape: 24 38 (912)
I0403 14:07:42.342679 12760 net.cpp:148] Top shape: 24 38 (912)
I0403 14:07:42.342694 12760 net.cpp:156] Memory required for data: 1346079072
I0403 14:07:42.342710 12760 layer_factory.hpp:77] Creating layer loss1/loss
I0403 14:07:42.342732 12760 net.cpp:91] Creating Layer loss1/loss
I0403 14:07:42.342751 12760 net.cpp:425] loss1/loss <- loss1/classifier_plantvillage_loss1/classifier_plantvillage_0_split_0
I0403 14:07:42.342783 12760 net.cpp:425] loss1/loss <- label_data_1_split_0
…
