…
I0403 13:51:05.855048 12154 net.cpp:313] The NetState phase (1) differed from the phase (0) specified by a rule in layer data
I0403 13:51:05.856171 12154 net.cpp:49] Initializing net from parameters: 
state {
  phase: TEST
}
layer {
  name: "data"
  type: "Data"
  top: "data"
  top: "label"
  include {
    phase: TEST
  }
  transform_param {
    mirror: false
    crop_size: 224
    mean_file: "/home/mohanty/data/final_dataset/lmdb/segmented-20-80/mean.binaryproto"
  }
  data_param {
    source: "/home/mohanty/data/final_dataset/lmdb/segmented-20-80/test_db"
    batch_size: 24
    backend: LMDB
  }
}
layer {
  name: "conv1/7x7_s2"
  type: "Convolution"
  bottom: "data"
  top: "conv1/7x7_s2"
  param {
    lr_mult: 1
    decay_mult: 1
  }
  param {
    lr_mult: 2
    decay_mult: 0
  }
  convolution_param {
    num_output: 64
    pad: 3
    kernel_size: 7
    stride: 2
    weight_filler {
      type: "xavier"
      std: 0.1
    }
    bias_filler {
      type: "constant"
      value: 0.2
    }
  }
}
layer {
  name: "conv1/relu_7x7"
  type: "ReLU"
  bottom: "conv1/7x7_s2"
  top: "conv1/7x7_s2"
}
layer {
  name: "pool1/3x3_s2"
  type: "Pooling"
  bottom: "conv1/7x7_s2"
  top: "pool1/3x3_s2"
  pooling_param {
    pool: MAX
    kernel_size: 3
    stride: 2
  }
}
layer {
  name: "pool1/norm1"
  type: "LRN"
  bottom: "pool1/3x3_s2"
  top: "pool1/norm1"
  lrn_param {
    local_size: 5
    alpha: 0.0001
    beta: 0.75
  }
}
layer {
  name: "conv2/3x3_reduce"
  type: "Convolution"
  bottom: "pool1/norm1"
  top: "conv2/3x3_reduce"
  param {
    lr_mult: 1
    decay_mult: 1
  }
  param {
    lr_mult: 2
    decay_mult: 0
  }
  convolution_param {
    num_output: 64
    kernel_size: 1
    weight_filler {
      type: "xavier"
      std: 0.1
    }
    bias_filler {
      type: "constant"
      value: 0.2
    }
  }
}
layer {
  name: "conv2/relu_3x3_reduce"
  type: "ReLU"
  bottom: "conv2/3x3_reduce"
  top: "conv2/3x3_reduce"
}
layer {
  name: "conv2/3x3"
  type: "Convolution"
  bottom: "conv2/3x3_reduce"
  top: "conv2/3x3"
  param {
    lr_mult: 1
    decay_mult: 1
  }
  param {
    lr_mult: 2
    decay_mult: 0
  }
  convolution_param {
    num_output: 192
    pad: 1
    kernel_size: 3
    weight_filler {
      type: "xavier"
      std: 0.03
    }
    bias_filler {
      type: "constant"
      value: 0.2
    }
  }
}
layer {
  name: "conv2/relu_3x3"
  type: "ReLU"
  bottom: "conv2/3x3"
  top: "conv2/3x3"
}
layer {
  name: "conv2/norm2"
  type: "LRN"
  bottom: "conv2/3x3"
  top: "conv2/norm2"
  lrn_param {
    local_size: 5
    alpha: 0.0001
    beta: 0.75
  }
}
layer {
  name: "pool2/3x3_s2"
  type: "Pooling"
  bottom: "conv2/norm2"
  top: "pool2/3x3_s2"
  pooling_param {
    pool: MAX
    kernel_size: 3
    stride: 2
  }
}
layer {
  name: "inception_3a/1x1"
  type: "Convolution"
  bottom: "pool2/3x3_s2"
  top: "inception_3a/1x1"
  param {
    lr_mult: 1
    decay_mult: 1
  }
  param {
    lr_mult: 2
    decay_mult: 0
  }
  convolution_param {
    num_output: 64
    kernel_size: 1
    weight_filler {
      type: "xavier"
      std: 0.03
    }
    bias_filler {
      type: "constant"
      value: 0.2
    }
  }
}
layer {
  name: "inception_3a/relu_1x1"
  type: "ReLU"
  bottom: "inception_3a/1x1"
  top: "inception_3a/1x1"
}
layer {
  name: "inception_3a/3x3_reduce"
  type: "Convolution"
  bottom: "pool2/3x3_s2"
  top: "inception_3a/3x3_reduce"
  param {
    lr_mult: 1
    decay_mult: 1
  }
  param {
    lr_mult: 2
    decay_mult: 0
  }
  convolution_param {
    num_output: 96
    kernel_size: 1
    weight_filler {
      type: "xavier"
      std: 0.09
    }
    bias_filler {
      type: "constant"
      value: 0.2
    }
  }
}
layer {
  name: "inception_3a/relu_3x3_reduce"
  type: "ReLU"
  bottom: "inception_3a/3x3_reduce"
  top: "inception_3a/3x3_reduce"
}
layer {
  name: "inception_3a/3x3"
  type: "Convolution"
  bottom: "inception_3a/3x3_reduce"
  top: "inception_3a/3x3"
  param {
    lr_mult: 1
    decay_mult: 1
  }
  param {
    lr_mult: 2
    decay_mult: 0
  }
  convolution_param {
    num_output: 128
    pad: 1
    kernel_size: 3
    weight_filler {
      type: "xavier"
      std: 0.03
    }
    bias_filler {
      type: "constant"
      value: 0.2
    }
  }
}
layer {
  name: "inception_3a/relu_3x3"
  type: "ReLU"
  bottom: "inception_3a/3x3"
  top: "inception_3a/3x3"
}
layer {
  name: "inception_3a/5x5_reduce"
  type: "Convolution"
  bottom: "pool2/3x3_s2"
  top: "inception_3a/5x5_reduce"
  param {
    lr_mult: 1
    decay_mult: 1
  }
  param {
    lr_mult: 2
    decay_mult: 0
  }
  convolution_param {
    num_output: 16
    kernel_size: 1
    weight_filler {
      type: "xavier"
      std: 0.2
    }
    bias_filler {
      type: "constant"
      value: 0.2
    }
  }
}
layer {
  name: "inception_3a/relu_5x5_reduce"
  type: "ReLU"
  bottom: "inception_3a/5x5_reduce"
  top: "inception_3a/5x5_reduce"
}
layer {
  name: "inception_3a/5x5"
  type: "Convolution"
  bottom: "inception_3a/5x5_reduce"
  top: "inception_3a/5x5"
  param {
    lr_mult: 1
    decay_mult: 1
  }
  param {
    lr_mult: 2
    decay_mult: 0
  }
  convolution_param {
    num_output: 32
    pad: 2
    kernel_size: 5
    weight_filler {
      type: "xavier"
      std: 0.03
    }
    bias_filler {
      type: "constant"
      value: 0.2
    }
  }
}
layer {
  name: "inception_3a/relu_5x5"
  type: "ReLU"
  bottom: "inception_3a/5x5"
  top: "inception_3a/5x5"
}
layer {
  name: "inception_3a/pool"
  type: "Pooling"
  bottom: "pool2/3x3_s2"
  top: "inception_3a/pool"
  pooling_param {
    pool: MAX
    kernel_size: 3
    stride: 1
    pad: 1
  }
}
layer {
  name: "inception_3a/pool_proj"
  type: "Convolution"
  bottom: "inception_3a/pool"
  top: "inception_3a/pool_proj"
  param {
    lr_mult: 1
    decay_mult: 1
  }
  param {
    lr_mult: 2
    decay_mult: 0
  }
  convolution_param {
    num_output: 32
    kernel_size: 1
    weight_filler {
      type: "xavier"
      std: 0.1
    }
    bias_filler {
      type: "constant"
      value: 0.2
    }
  }
}
layer {
  name: "inception_3a/relu_pool_proj"
  type: "ReLU"
  bottom: "inception_3a/pool_proj"
  top: "inception_3a/pool_proj"
}
layer {
  name: "inception_3a/output"
  type: "Concat"
  bottom: "inception_3a/1x1"
  bottom: "inception_3a/3x3"
  bottom: "inception_3a/5x5"
  bottom: "inception_3a/pool_proj"
  top: "inception_3a/output"
}
layer {
  name: "inception_3b/1x1"
  type: "Convolution"
  bottom: "inception_3a/output"
  top: "inception_3b/1x1"
  param {
    lr_mult: 1
    decay_mult: 1
  }
  param {
    lr_mult: 2
    decay_mult: 0
  }
  convolution_param {
    num_output: 128
    kernel_size: 1
    weight_filler {
      type: "xavier"
      std: 0.03
    }
    bias_filler {
      type: "constant"
      value: 0.2
    }
  }
}
layer {
  name: "inception_3b/relu_1x1"
  type: "ReLU"
  bottom: "inception_3b/1x1"
  top: "inception_3b/1x1"
}
layer {
  name: "inception_3b/3x3_reduce"
  type: "Convolution"
  bottom: "inception_3a/output"
  top: "inception_3b/3x3_reduce"
  param {
    lr_mult: 1
    decay_mult: 1
  }
  param {
    lr_mult: 2
    decay_mult: 0
  }
  convolution_param {
    num_output: 128
    kernel_size: 1
    weight_filler {
      type: "xavier"
      std: 0.09
    }
    bias_filler {
      type: "constant"
      value: 0.2
    }
  }
}
layer {
  name: "inception_3b/relu_3x3_reduce"
  type: "ReLU"
  bottom: "inception_3b/3x3_reduce"
  top: "inception_3b/3x3_reduce"
}
layer {
  name: "inception_3b/3x3"
  type: "Convolution"
  bottom: "inception_3b/3x3_reduce"
  top: "inception_3b/3x3"
  param {
    lr_mult: 1
    decay_mult: 1
  }
  param {
    lr_mult: 2
    decay_mult: 0
  }
  convolution_param {
    num_output: 192
    pad: 1
    kernel_size: 3
    weight_filler {
      type: "xavier"
      std: 0.03
    }
    bias_filler {
      type: "constant"
      value: 0.2
    }
  }
}
layer {
  name: "inception_3b/relu_3x3"
  type: "ReLU"
  bottom: "inception_3b/3x3"
  top: "inception_3b/3x3"
}
layer {
  name: "inception_3b/5x5_reduce"
  type: "Convolution"
  bottom: "inception_3a/output"
  top: "inception_3b/5x5_reduce"
  param {
    lr_mult: 1
    decay_mult: 1
  }
  param {
    lr_mult: 2
    decay_mult: 0
  }
  convolution_param {
    num_output: 32
    kernel_size: 1
    weight_filler {
      type: "xavier"
      std: 0.2
    }
    bias_filler {
      type: "constant"
      value: 0.2
    }
  }
}
layer {
  name: "inception_3b/relu_5x5_reduce"
  type: "ReLU"
  bottom: "inception_3b/5x5_reduce"
  top: "inception_3b/5x5_reduce"
}
layer {
  name: "inception_3b/5x5"
  type: "Convolution"
  bottom: "inception_3b/5x5_reduce"
  top: "inception_3b/5x5"
  param {
    lr_mult: 1
    decay_mult: 1
  }
  param {
    lr_mult: 2
    decay_mult: 0
  }
  convolution_param {
    num_output: 96
    pad: 2
    kernel_size: 5
    weight_filler {
      type: "xavier"
      std: 0.03
    }
    bias_filler {
      type: "constant"
      value: 0.2
    }
  }
}
layer {
  name: "inception_3b/relu_5x5"
  type: "ReLU"
  bottom: "inception_3b/5x5"
  top: "inception_3b/5x5"
}
layer {
  name: "inception_3b/pool"
  type: "Pooling"
  bottom: "inception_3a/output"
  top: "inception_3b/pool"
  pooling_param {
    pool: MAX
    kernel_size: 3
    stride: 1
    pad: 1
  }
}
layer {
  name: "inception_3b/pool_proj"
  type: "Convolution"
  bottom: "inception_3b/pool"
  top: "inception_3b/pool_proj"
  param {
    lr_mult: 1
    decay_mult: 1
  }
  param {
    lr_mult: 2
    decay_mult: 0
  }
  convolution_param {
    num_output: 64
    kernel_size: 1
    weight_filler {
      type: "xavier"
      std: 0.1
    }
    bias_filler {
      type: "constant"
      value: 0.2
    }
  }
}
layer {
  name: "inception_3b/relu_pool_proj"
  type: "ReLU"
  bottom: "inception_3b/pool_proj"
  top: "inception_3b/pool_proj"
}
layer {
  name: "inception_3b/output"
  type: "Concat"
  bottom: "inception_3b/1x1"
  bottom: "inception_3b/3x3"
  bottom: "inception_3b/5x5"
  bottom: "inception_3b/pool_proj"
  top: "inception_3b/output"
}
layer {
  name: "pool3/3x3_s2"
  type: "Pooling"
  bottom: "inception_3b/output"
  top: "pool3/3x3_s2"
  pooling_param {
    pool: MAX
    kernel_size: 3
    stride: 2
  }
}
layer {
  name: "inception_4a/1x1"
  type: "Convolution"
  bottom: "pool3/3x3_s2"
  top: "inception_4a/1x1"
  param {
    lr_mult: 1
    decay_mult: 1
  }
  param {
    lr_mult: 2
    decay_mult: 0
  }
  convolution_param {
    num_output: 192
    kernel_size: 1
    weight_filler {
      type: "xavier"
      std: 0.03
    }
    bias_filler {
      type: "constant"
      value: 0.2
    }
  }
}
layer {
  name: "inception_4a/relu_1x1"
  type: "ReLU"
  bottom: "inception_4a/1x1"
  top: "inception_4a/1x1"
}
layer {
  name: "inception_4a/3x3_reduce"
  type: "Convolution"
  bottom: "pool3/3x3_s2"
  top: "inception_4a/3x3_reduce"
  param {
    lr_mult: 1
    decay_mult: 1
  }
  param {
    lr_mult: 2
    decay_mult: 0
  }
  convolution_param {
    num_output: 96
    kernel_size: 1
    weight_filler {
      type: "xavier"
      std: 0.09
    }
    bias_filler {
      type: "constant"
      value: 0.2
    }
  }
}
layer {
  name: "inception_4a/relu_3x3_reduce"
  type: "ReLU"
  bottom: "inception_4a/3x3_reduce"
  top: "inception_4a/3x3_reduce"
}
layer {
  name: "inception_4a/3x3"
  type: "Convolution"
  bottom: "inception_4a/3x3_reduce"
  top: "inception_4a/3x3"
  param {
    lr_mult: 1
    decay_mult: 1
  }
  param {
    lr_mult: 2
    decay_mult: 0
  }
  convolution_param {
    num_output: 208
    pad: 1
    kernel_size: 3
    weight_filler {
      type: "xavier"
      std: 0.03
    }
    bias_filler {
      type: "constant"
      value: 0.2
    }
  }
}
layer {
  name: "inception_4a/relu_3x3"
  type: "ReLU"
  bottom: "inception_4a/3x3"
  top: "inception_4a/3x3"
}
layer {
  name: "inception_4a/5x5_reduce"
  type: "Convolution"
  bottom: "pool3/3x3_s2"
  top: "inception_4a/5x5_reduce"
  param {
    lr_mult: 1
    decay_mult: 1
  }
  param {
    lr_mult: 2
    decay_mult: 0
  }
  convolution_param {
    num_output: 16
    kernel_size: 1
    weight_filler {
      type: "xavier"
      std: 0.2
    }
    bias_filler {
      type: "constant"
      value: 0.2
    }
  }
}
layer {
  name: "inception_4a/relu_5x5_reduce"
  type: "ReLU"
  bottom: "inception_4a/5x5_reduce"
  top: "inception_4a/5x5_reduce"
}
layer {
  name: "inception_4a/5x5"
  type: "Convolution"
  bottom: "inception_4a/5x5_reduce"
  top: "inception_4a/5x5"
  param {
    lr_mult: 1
    decay_mult: 1
  }
  param {
    lr_mult: 2
    decay_mult: 0
  }
  convolution_param {
    num_output: 48
    pad: 2
    kernel_size: 5
    weight_filler {
      type: "xavier"
      std: 0.03
    }
    bias_filler {
      type: "constant"
      value: 0.2
    }
  }
}
layer {
  name: "inception_4a/relu_5x5"
  type: "ReLU"
  bottom: "inception_4a/5x5"
  top: "inception_4a/5x5"
}
layer {
  name: "inception_4a/pool"
  type: "Pooling"
  bottom: "pool3/3x3_s2"
  top: "inception_4a/pool"
  pooling_param {
    pool: MAX
    kernel_size: 3
    stride: 1
    pad: 1
  }
}
layer {
  name: "inception_4a/pool_proj"
  type: "Convolution"
  bottom: "inception_4a/pool"
  top: "inception_4a/pool_proj"
  param {
    lr_mult: 1
    decay_mult: 1
  }
  param {
    lr_mult: 2
    decay_mult: 0
  }
  convolution_param {
    num_output: 64
    kernel_size: 1
    weight_filler {
      type: "xavier"
      std: 0.1
    }
    bias_filler {
      type: "constant"
      value: 0.2
    }
  }
}
layer {
  name: "inception_4a/relu_pool_proj"
  type: "ReLU"
  bottom: "inception_4a/pool_proj"
  top: "inception_4a/pool_proj"
}
layer {
  name: "inception_4a/output"
  type: "Concat"
  bottom: "inception_4a/1x1"
  bottom: "inception_4a/3x3"
  bottom: "inception_4a/5x5"
  bottom: "inception_4a/pool_proj"
  top: "inception_4a/output"
}
layer {
  name: "loss1/ave_pool"
  type: "Pooling"
  bottom: "inception_4a/output"
  top: "loss1/ave_pool"
  pooling_param {
    pool: AVE
    kernel_size: 5
    stride: 3
  }
}
layer {
  name: "loss1/conv"
  type: "Convolution"
  bottom: "loss1/ave_pool"
  top: "loss1/conv"
  param {
    lr_mult: 1
    decay_mult: 1
  }
  param {
    lr_mult: 2
    decay_mult: 0
  }
  convolution_param {
    num_output: 128
    kernel_size: 1
    weight_filler {
      type: "xavier"
      std: 0.08
    }
    bias_filler {
      type: "constant"
      value: 0.2
    }
  }
}
layer {
  name: "loss1/relu_conv"
  type: "ReLU"
  bottom: "loss1/conv"
  top: "loss1/conv"
}
layer {
  name: "loss1/fc"
  type: "InnerProduct"
  bottom: "loss1/conv"
  top: "loss1/fc"
  param {
    lr_mult: 1
    decay_mult: 1
  }
  param {
    lr_mult: 2
    decay_mult: 0
  }
  inner_product_param {
    num_output: 1024
    weight_filler {
      type: "xavier"
      std: 0.02
    }
    bias_filler {
      type: "constant"
      value: 0.2
    }
  }
}
layer {
  name: "loss1/relu_fc"
  type: "ReLU"
  bottom: "loss1/fc"
  top: "loss1/fc"
}
layer {
  name: "loss1/drop_fc"
  type: "Dropout"
  bottom: "loss1/fc"
  top: "loss1/fc"
  dropout_param {
    dropout_ratio: 0.7
  }
}
layer {
  name: "loss1/classifier_plantvillage"
  type: "InnerProduct"
  bottom: "loss1/fc"
  top: "loss1/classifier_plantvillage"
  param {
    lr_mult: 1
    decay_mult: 1
  }
  param {
    lr_mult: 2
    decay_mult: 0
  }
  inner_product_param {
    num_output: 38
    weight_filler {
      type: "xavier"
      std: 0.0009765625
    }
    bias_filler {
      type: "constant"
      value: 0
    }
  }
}
layer {
  name: "inception_4b/1x1"
  type: "Convolution"
  bottom: "inception_4a/output"
  top: "inception_4b/1x1"
  param {
    lr_mult: 1
    decay_mult: 1
  }
  param {
    lr_mult: 2
    decay_mult: 0
  }
  convolution_param {
    num_output: 160
    kernel_size: 1
    weight_filler {
      type: "xavier"
      std: 0.03
    }
    bias_filler {
      type: "constant"
      value: 0.2
    }
  }
}
layer {
  name: "inception_4b/relu_1x1"
  type: "ReLU"
  bottom: "inception_4b/1x1"
  top: "inception_4b/1x1"
}
layer {
  name: "inception_4b/3x3_reduce"
  type: "Convolution"
  bottom: "inception_4a/output"
  top: "inception_4b/3x3_reduce"
  param {
    lr_mult: 1
    decay_mult: 1
  }
  param {
    lr_mult: 2
    decay_mult: 0
  }
  convolution_param {
    num_output: 112
    kernel_size: 1
    weight_filler {
      type: "xavier"
      std: 0.09
    }
    bias_filler {
      type: "constant"
      value: 0.2
    }
  }
}
layer {
  name: "inception_4b/relu_3x3_reduce"
  type: "ReLU"
  bottom: "inception_4b/3x3_reduce"
  top: "inception_4b/3x3_reduce"
}
layer {
  name: "inception_4b/3x3"
  type: "Convolution"
  bottom: "inception_4b/3x3_reduce"
  top: "inception_4b/3x3"
  param {
    lr_mult: 1
    decay_mult: 1
  }
  param {
    lr_mult: 2
    decay_mult: 0
  }
  convolution_param {
    num_output: 224
    pad: 1
    kernel_size: 3
    weight_filler {
      type: "xavier"
      std: 0.03
    }
    bias_filler {
      type: "constant"
      value: 0.2
    }
  }
}
layer {
  name: "inception_4b/relu_3x3"
  type: "ReLU"
  bottom: "inception_4b/3x3"
  top: "inception_4b/3x3"
}
layer {
  name: "inception_4b/5x5_reduce"
  type: "Convolution"
  bottom: "inception_4a/output"
  top: "inception_4b/5x5_reduce"
  param {
    lr_mult: 1
    decay_mult: 1
  }
  param {
    lr_mult: 2
    decay_mult: 0
  }
  convolution_param {
    num_output: 24
    kernel_size: 1
    weight_filler {
      type: "xavier"
      std: 0.2
    }
    bias_filler {
      type: "constant"
      value: 0.2
    }
  }
}
layer {
  name: "inception_4b/relu_5x5_reduce"
  type: "ReLU"
  bottom: "inception_4b/5x5_reduce"
  top: "inception_4b/5x5_reduce"
}
layer {
  name: "inception_4b/5x5"
  type: "Convolution"
  bottom: "inception_4b/5x5_reduce"
  top: "inception_4b/5x5"
  param {
    lr_mult: 1
    decay_mult: 1
  }
  param {
    lr_mult: 2
    decay_mult: 0
  }
  convolution_param {
    num_output: 64
    pad: 2
    kernel_size: 5
    weight_filler {
      type: "xavier"
      std: 0.03
    }
    bias_filler {
      type: "constant"
      value: 0.2
    }
  }
}
layer {
  name: "inception_4b/relu_5x5"
  type: "ReLU"
  bottom: "inception_4b/5x5"
  top: "inception_4b/5x5"
}
layer {
  name: "inception_4b/pool"
  type: "Pooling"
  bottom: "inception_4a/output"
  top: "inception_4b/pool"
  pooling_param {
    pool: MAX
    kernel_size: 3
    stride: 1
    pad: 1
  }
}
layer {
  name: "inception_4b/pool_proj"
  type: "Convolution"
  bottom: "inception_4b/pool"
  top: "inception_4b/pool_proj"
  param {
    lr_mult: 1
    decay_mult: 1
  }
  param {
    lr_mult: 2
    decay_mult: 0
  }
  convolution_param {
    num_output: 64
    kernel_size: 1
    weight_filler {
      type: "xavier"
      std: 0.1
    }
    bias_filler {
      type: "constant"
      value: 0.2
    }
  }
}
layer {
  name: "inception_4b/relu_pool_proj"
  type: "ReLU"
  bottom: "inception_4b/pool_proj"
  top: "inception_4b/pool_proj"
}
layer {
  name: "inception_4b/output"
  type: "Concat"
  bottom: "inception_4b/1x1"
  bottom: "inception_4b/3x3"
  bottom: "inception_4b/5x5"
  bottom: "inception_4b/pool_proj"
  top: "inception_4b/output"
}
layer {
  name: "inception_4c/1x1"
  type: "Convolution"
  bottom: "inception_4b/output"
  top: "inception_4c/1x1"
  param {
    lr_mult: 1
    decay_mult: 1
  }
  param {
    lr_mult: 2
    decay_mult: 0
  }
  convolution_param {
    num_output: 128
    kernel_size: 1
    weight_filler {
      type: "xavier"
      std: 0.03
    }
    bias_filler {
      type: "constant"
      value: 0.2
    }
  }
}
layer {
  name: "inception_4c/relu_1x1"
  type: "ReLU"
  bottom: "inception_4c/1x1"
  top: "inception_4c/1x1"
}
layer {
  name: "inception_4c/3x3_reduce"
  type: "Convolution"
  bottom: "inception_4b/output"
  top: "inception_4c/3x3_reduce"
  param {
    lr_mult: 1
    decay_mult: 1
  }
  param {
    lr_mult: 2
    decay_mult: 0
  }
  convolution_param {
    num_output: 128
    kernel_size: 1
    weight_filler {
      type: "xavier"
      std: 0.09
    }
    bias_filler {
      type: "constant"
      value: 0.2
    }
  }
}
layer {
  name: "inception_4c/relu_3x3_reduce"
  type: "ReLU"
  bottom: "inception_4c/3x3_reduce"
  top: "inception_4c/3x3_reduce"
}
layer {
  name: "inception_4c/3x3"
  type: "Convolution"
  bottom: "inception_4c/3x3_reduce"
  top: "inception_4c/3x3"
  param {
    lr_mult: 1
    decay_mult: 1
  }
  param {
    lr_mult: 2
    decay_mult: 0
  }
  convolution_param {
    num_output: 256
    pad: 1
    kernel_size: 3
    weight_filler {
      type: "xavier"
      std: 0.03
    }
    bias_filler {
      type: "constant"
      value: 0.2
    }
  }
}
layer {
  name: "inception_4c/relu_3x3"
  type: "ReLU"
  bottom: "inception_4c/3x3"
  top: "inception_4c/3x3"
}
layer {
  name: "inception_4c/5x5_reduce"
  type: "Convolution"
  bottom: "inception_4b/output"
  top: "inception_4c/5x5_reduce"
  param {
    lr_mult: 1
    decay_mult: 1
  }
  param {
    lr_mult: 2
    decay_mult: 0
  }
  convolution_param {
    num_output: 24
    kernel_size: 1
    weight_filler {
      type: "xavier"
      std: 0.2
    }
    bias_filler {
      type: "constant"
      value: 0.2
    }
  }
}
layer {
  name: "inception_4c/relu_5x5_reduce"
  type: "ReLU"
  bottom: "inception_4c/5x5_reduce"
  top: "inception_4c/5x5_reduce"
}
layer {
  name: "inception_4c/5x5"
  type: "Convolution"
  bottom: "inception_4c/5x5_reduce"
  top: "inception_4c/5x5"
  param {
    lr_mult: 1
    decay_mult: 1
  }
  param {
    lr_mult: 2
    decay_mult: 0
  }
  convolution_param {
    num_output: 64
    pad: 2
    kernel_size: 5
    weight_filler {
      type: "xavier"
      std: 0.03
    }
    bias_filler {
      type: "constant"
      value: 0.2
    }
  }
}
layer {
  name: "inception_4c/relu_5x5"
  type: "ReLU"
  bottom: "inception_4c/5x5"
  top: "inception_4c/5x5"
}
layer {
  name: "inception_4c/pool"
  type: "Pooling"
  bottom: "inception_4b/output"
  top: "inception_4c/pool"
  pooling_param {
    pool: MAX
    kernel_size: 3
    stride: 1
    pad: 1
  }
}
layer {
  name: "inception_4c/pool_proj"
  type: "Convolution"
  bottom: "inception_4c/pool"
  top: "inception_4c/pool_proj"
  param {
    lr_mult: 1
    decay_mult: 1
  }
  param {
    lr_mult: 2
    decay_mult: 0
  }
  convolution_param {
    num_output: 64
    kernel_size: 1
    weight_filler {
      type: "xavier"
      std: 0.1
    }
    bias_filler {
      type: "constant"
      value: 0.2
    }
  }
}
layer {
  name: "inception_4c/relu_pool_proj"
  type: "ReLU"
  bottom: "inception_4c/pool_proj"
  top: "inception_4c/pool_proj"
}
layer {
  name: "inception_4c/output"
  type: "Concat"
  bottom: "inception_4c/1x1"
  bottom: "inception_4c/3x3"
  bottom: "inception_4c/5x5"
  bottom: "inception_4c/pool_proj"
  top: "inception_4c/output"
}
layer {
  name: "inception_4d/1x1"
  type: "Convolution"
  bottom: "inception_4c/output"
  top: "inception_4d/1x1"
  param {
    lr_mult: 1
    decay_mult: 1
  }
  param {
    lr_mult: 2
    decay_mult: 0
  }
  convolution_param {
    num_output: 112
    kernel_size: 1
    weight_filler {
      type: "xavier"
      std: 0.03
    }
    bias_filler {
      type: "constant"
      value: 0.2
    }
  }
}
layer {
  name: "inception_4d/relu_1x1"
  type: "ReLU"
  bottom: "inception_4d/1x1"
  top: "inception_4d/1x1"
}
layer {
  name: "inception_4d/3x3_reduce"
  type: "Convolution"
  bottom: "inception_4c/output"
  top: "inception_4d/3x3_reduce"
  param {
    lr_mult: 1
    decay_mult: 1
  }
  param {
    lr_mult: 2
    decay_mult: 0
  }
  convolution_param {
    num_output: 144
    kernel_size: 1
    weight_filler {
      type: "xavier"
      std: 0.09
    }
    bias_filler {
      type: "constant"
      value: 0.2
    }
  }
}
layer {
  name: "inception_4d/relu_3x3_reduce"
  type: "ReLU"
  bottom: "inception_4d/3x3_reduce"
  top: "inception_4d/3x3_reduce"
}
layer {
  name: "inception_4d/3x3"
  type: "Convolution"
  bottom: "inception_4d/3x3_reduce"
  top: "inception_4d/3x3"
  param {
    lr_mult: 1
    decay_mult: 1
  }
  param {
    lr_mult: 2
    decay_mult: 0
  }
  convolution_param {
    num_output: 288
    pad: 1
    kernel_size: 3
    weight_filler {
      type: "xavier"
      std: 0.03
    }
    bias_filler {
      type: "constant"
      value: 0.2
    }
  }
}
layer {
  name: "inception_4d/relu_3x3"
  type: "ReLU"
  bottom: "inception_4d/3x3"
  top: "inception_4d/3x3"
}
layer {
  name: "inception_4d/5x5_reduce"
  type: "Convolution"
  bottom: "inception_4c/output"
  top: "inception_4d/5x5_reduce"
  param {
    lr_mult: 1
    decay_mult: 1
  }
  param {
    lr_mult: 2
    decay_mult: 0
  }
  convolution_param {
    num_output: 32
    kernel_size: 1
    weight_filler {
      type: "xavier"
      std: 0.2
    }
    bias_filler {
      type: "constant"
      value: 0.2
    }
  }
}
layer {
  name: "inception_4d/relu_5x5_reduce"
  type: "ReLU"
  bottom: "inception_4d/5x5_reduce"
  top: "inception_4d/5x5_reduce"
}
layer {
  name: "inception_4d/5x5"
  type: "Convolution"
  bottom: "inception_4d/5x5_reduce"
  top: "inception_4d/5x5"
  param {
    lr_mult: 1
    decay_mult: 1
  }
  param {
    lr_mult: 2
    decay_mult: 0
  }
  convolution_param {
    num_output: 64
    pad: 2
    kernel_size: 5
    weight_filler {
      type: "xavier"
      std: 0.03
    }
    bias_filler {
      type: "constant"
      value: 0.2
    }
  }
}
layer {
  name: "inception_4d/relu_5x5"
  type: "ReLU"
  bottom: "inception_4d/5x5"
  top: "inception_4d/5x5"
}
layer {
  name: "inception_4d/pool"
  type: "Pooling"
  bottom: "inception_4c/output"
  top: "inception_4d/pool"
  pooling_param {
    pool: MAX
    kernel_size: 3
    stride: 1
    pad: 1
  }
}
layer {
  name: "inception_4d/pool_proj"
  type: "Convolution"
  bottom: "inception_4d/pool"
  top: "inception_4d/pool_proj"
  param {
    lr_mult: 1
    decay_mult: 1
  }
  param {
    lr_mult: 2
    decay_mult: 0
  }
  convolution_param {
    num_output: 64
    kernel_size: 1
    weight_filler {
      type: "xavier"
      std: 0.1
    }
    bias_filler {
      type: "constant"
      value: 0.2
    }
  }
}
layer {
  name: "inception_4d/relu_pool_proj"
  type: "ReLU"
  bottom: "inception_4d/pool_proj"
  top: "inception_4d/pool_proj"
}
layer {
  name: "inception_4d/output"
  type: "Concat"
  bottom: "inception_4d/1x1"
  bottom: "inception_4d/3x3"
  bottom: "inception_4d/5x5"
  bottom: "inception_4d/pool_proj"
  top: "inception_4d/output"
}
layer {
  name: "loss2/ave_pool"
  type: "Pooling"
  bottom: "inception_4d/output"
  top: "loss2/ave_pool"
  pooling_param {
    pool: AVE
    kernel_size: 5
    stride: 3
  }
}
layer {
  name: "loss2/conv"
  type: "Convolution"
  bottom: "loss2/ave_pool"
  top: "loss2/conv"
  param {
    lr_mult: 1
    decay_mult: 1
  }
  param {
    lr_mult: 2
    decay_mult: 0
  }
  convolution_param {
    num_output: 128
    kernel_size: 1
    weight_filler {
      type: "xavier"
      std: 0.08
    }
    bias_filler {
      type: "constant"
      value: 0.2
    }
  }
}
layer {
  name: "loss2/relu_conv"
  type: "ReLU"
  bottom: "loss2/conv"
  top: "loss2/conv"
}
layer {
  name: "loss2/fc"
  type: "InnerProduct"
  bottom: "loss2/conv"
  top: "loss2/fc"
  param {
    lr_mult: 1
    decay_mult: 1
  }
  param {
    lr_mult: 2
    decay_mult: 0
  }
  inner_product_param {
    num_output: 1024
    weight_filler {
      type: "xavier"
      std: 0.02
    }
    bias_filler {
      type: "constant"
      value: 0.2
    }
  }
}
layer {
  name: "loss2/relu_fc"
  type: "ReLU"
  bottom: "loss2/fc"
  top: "loss2/fc"
}
layer {
  name: "loss2/drop_fc"
  type: "Dropout"
  bottom: "loss2/fc"
  top: "loss2/fc"
  dropout_param {
    dropout_ratio: 0.7
  }
}
layer {
  name: "loss2/classifier_plantvillage"
  type: "InnerProduct"
  bottom: "loss2/fc"
  top: "loss2/classifier_plantvillage"
  param {
    lr_mult: 1
    decay_mult: 1
  }
  param {
    lr_mult: 2
    decay_mult: 0
  }
  inner_product_param {
    num_output: 38
    weight_filler {
      type: "xavier"
      std: 0.0009765625
    }
    bias_filler {
      type: "constant"
      value: 0
    }
  }
}
layer {
  name: "inception_4e/1x1"
  type: "Convolution"
  bottom: "inception_4d/output"
  top: "inception_4e/1x1"
  param {
    lr_mult: 1
    decay_mult: 1
  }
  param {
    lr_mult: 2
    decay_mult: 0
  }
  convolution_param {
    num_output: 256
    kernel_size: 1
    weight_filler {
      type: "xavier"
      std: 0.03
    }
    bias_filler {
      type: "constant"
      value: 0.2
    }
  }
}
layer {
  name: "inception_4e/relu_1x1"
  type: "ReLU"
  bottom: "inception_4e/1x1"
  top: "inception_4e/1x1"
}
layer {
  name: "inception_4e/3x3_reduce"
  type: "Convolution"
  bottom: "inception_4d/output"
  top: "inception_4e/3x3_reduce"
  param {
    lr_mult: 1
    decay_mult: 1
  }
  param {
    lr_mult: 2
    decay_mult: 0
  }
  convolution_param {
    num_output: 160
    kernel_size: 1
    weight_filler {
      type: "xavier"
      std: 0.09
    }
    bias_filler {
      type: "constant"
      value: 0.2
    }
  }
}
layer {
  name: "inception_4e/relu_3x3_reduce"
  type: "ReLU"
  bottom: "inception_4e/3x3_reduce"
  top: "inception_4e/3x3_reduce"
}
layer {
  name: "inception_4e/3x3"
  type: "Convolution"
  bottom: "inception_4e/3x3_reduce"
  top: "inception_4e/3x3"
  param {
    lr_mult: 1
    decay_mult: 1
  }
  param {
    lr_mult: 2
    decay_mult: 0
  }
  convolution_param {
    num_output: 320
    pad: 1
    kernel_size: 3
    weight_filler {
      type: "xavier"
      std: 0.03
    }
    bias_filler {
      type: "constant"
      value: 0.2
    }
  }
}
layer {
  name: "inception_4e/relu_3x3"
  type: "ReLU"
  bottom: "inception_4e/3x3"
  top: "inception_4e/3x3"
}
layer {
  name: "inception_4e/5x5_reduce"
  type: "Convolution"
  bottom: "inception_4d/output"
  top: "inception_4e/5x5_reduce"
  param {
    lr_mult: 1
    decay_mult: 1
  }
  param {
    lr_mult: 2
    decay_mult: 0
  }
  convolution_param {
    num_output: 32
    kernel_size: 1
    weight_filler {
      type: "xavier"
      std: 0.2
    }
    bias_filler {
      type: "constant"
      value: 0.2
    }
  }
}
layer {
  name: "inception_4e/relu_5x5_reduce"
  type: "ReLU"
  bottom: "inception_4e/5x5_reduce"
  top: "inception_4e/5x5_reduce"
}
layer {
  name: "inception_4e/5x5"
  type: "Convolution"
  bottom: "inception_4e/5x5_reduce"
  top: "inception_4e/
I0403 13:51:05.857462 12154 layer_factory.hpp:77] Creating layer data
I0403 13:51:05.858064 12154 net.cpp:91] Creating Layer data
I0403 13:51:05.858096 12154 net.cpp:399] data -> data
I0403 13:51:05.858147 12154 net.cpp:399] data -> label
I0403 13:51:05.858182 12154 data_transformer.cpp:25] Loading mean file from: /home/mohanty/data/final_dataset/lmdb/segmented-20-80/mean.binaryproto
I0403 13:51:05.863628 12157 db_lmdb.cpp:38] Opened lmdb /home/mohanty/data/final_dataset/lmdb/segmented-20-80/test_db
I0403 13:51:05.871767 12154 data_layer.cpp:41] output data size: 24,3,224,224
I0403 13:51:05.899024 12154 net.cpp:141] Setting up data
I0403 13:51:05.899112 12154 net.cpp:148] Top shape: 24 3 224 224 (3612672)
I0403 13:51:05.899134 12154 net.cpp:148] Top shape: 24 (24)
I0403 13:51:05.899150 12154 net.cpp:156] Memory required for data: 14450784
I0403 13:51:05.899178 12154 layer_factory.hpp:77] Creating layer label_data_1_split
I0403 13:51:05.899204 12154 net.cpp:91] Creating Layer label_data_1_split
I0403 13:51:05.899224 12154 net.cpp:425] label_data_1_split <- label
I0403 13:51:05.899257 12154 net.cpp:399] label_data_1_split -> label_data_1_split_0
I0403 13:51:05.899286 12154 net.cpp:399] label_data_1_split -> label_data_1_split_1
I0403 13:51:05.899307 12154 net.cpp:399] label_data_1_split -> label_data_1_split_2
I0403 13:51:05.899327 12154 net.cpp:399] label_data_1_split -> label_data_1_split_3
I0403 13:51:05.899348 12154 net.cpp:399] label_data_1_split -> label_data_1_split_4
I0403 13:51:05.899369 12154 net.cpp:399] label_data_1_split -> label_data_1_split_5
I0403 13:51:05.899389 12154 net.cpp:399] label_data_1_split -> label_data_1_split_6
I0403 13:51:05.899408 12154 net.cpp:399] label_data_1_split -> label_data_1_split_7
I0403 13:51:05.899428 12154 net.cpp:399] label_data_1_split -> label_data_1_split_8
I0403 13:51:05.899449 12154 net.cpp:399] label_data_1_split -> label_data_1_split_9
I0403 13:51:05.899570 12154 net.cpp:141] Setting up label_data_1_split
I0403 13:51:05.899595 12154 net.cpp:148] Top shape: 24 (24)
I0403 13:51:05.899612 12154 net.cpp:148] Top shape: 24 (24)
I0403 13:51:05.899629 12154 net.cpp:148] Top shape: 24 (24)
I0403 13:51:05.899644 12154 net.cpp:148] Top shape: 24 (24)
I0403 13:51:05.899660 12154 net.cpp:148] Top shape: 24 (24)
I0403 13:51:05.899675 12154 net.cpp:148] Top shape: 24 (24)
I0403 13:51:05.899691 12154 net.cpp:148] Top shape: 24 (24)
I0403 13:51:05.899708 12154 net.cpp:148] Top shape: 24 (24)
I0403 13:51:05.899724 12154 net.cpp:148] Top shape: 24 (24)
I0403 13:51:05.899739 12154 net.cpp:148] Top shape: 24 (24)
I0403 13:51:05.899787 12154 net.cpp:156] Memory required for data: 14451744
I0403 13:51:05.899804 12154 layer_factory.hpp:77] Creating layer conv1/7x7_s2
I0403 13:51:05.899837 12154 net.cpp:91] Creating Layer conv1/7x7_s2
I0403 13:51:05.899855 12154 net.cpp:425] conv1/7x7_s2 <- data
I0403 13:51:05.899874 12154 net.cpp:399] conv1/7x7_s2 -> conv1/7x7_s2
I0403 13:51:06.036808 12154 net.cpp:141] Setting up conv1/7x7_s2
I0403 13:51:06.036887 12154 net.cpp:148] Top shape: 24 64 112 112 (19267584)
I0403 13:51:06.036905 12154 net.cpp:156] Memory required for data: 91522080
I0403 13:51:06.036936 12154 layer_factory.hpp:77] Creating layer conv1/relu_7x7
I0403 13:51:06.036962 12154 net.cpp:91] Creating Layer conv1/relu_7x7
I0403 13:51:06.036980 12154 net.cpp:425] conv1/relu_7x7 <- conv1/7x7_s2
I0403 13:51:06.036999 12154 net.cpp:386] conv1/relu_7x7 -> conv1/7x7_s2 (in-place)
I0403 13:51:06.037253 12154 net.cpp:141] Setting up conv1/relu_7x7
I0403 13:51:06.037281 12154 net.cpp:148] Top shape: 24 64 112 112 (19267584)
I0403 13:51:06.037297 12154 net.cpp:156] Memory required for data: 168592416
I0403 13:51:06.037312 12154 layer_factory.hpp:77] Creating layer pool1/3x3_s2
I0403 13:51:06.037336 12154 net.cpp:91] Creating Layer pool1/3x3_s2
I0403 13:51:06.037353 12154 net.cpp:425] pool1/3x3_s2 <- conv1/7x7_s2
I0403 13:51:06.037372 12154 net.cpp:399] pool1/3x3_s2 -> pool1/3x3_s2
I0403 13:51:06.037443 12154 net.cpp:141] Setting up pool1/3x3_s2
I0403 13:51:06.037467 12154 net.cpp:148] Top shape: 24 64 56 56 (4816896)
I0403 13:51:06.037482 12154 net.cpp:156] Memory required for data: 187860000
I0403 13:51:06.037497 12154 layer_factory.hpp:77] Creating layer pool1/norm1
I0403 13:51:06.037526 12154 net.cpp:91] Creating Layer pool1/norm1
I0403 13:51:06.037544 12154 net.cpp:425] pool1/norm1 <- pool1/3x3_s2
I0403 13:51:06.037561 12154 net.cpp:399] pool1/norm1 -> pool1/norm1
I0403 13:51:06.037845 12154 net.cpp:141] Setting up pool1/norm1
I0403 13:51:06.037871 12154 net.cpp:148] Top shape: 24 64 56 56 (4816896)
I0403 13:51:06.037888 12154 net.cpp:156] Memory required for data: 207127584
I0403 13:51:06.037902 12154 layer_factory.hpp:77] Creating layer conv2/3x3_reduce
I0403 13:51:06.037926 12154 net.cpp:91] Creating Layer conv2/3x3_reduce
I0403 13:51:06.037943 12154 net.cpp:425] conv2/3x3_reduce <- pool1/norm1
I0403 13:51:06.037961 12154 net.cpp:399] conv2/3x3_reduce -> conv2/3x3_reduce
I0403 13:51:06.039257 12154 net.cpp:141] Setting up conv2/3x3_reduce
I0403 13:51:06.039286 12154 net.cpp:148] Top shape: 24 64 56 56 (4816896)
I0403 13:51:06.039309 12154 net.cpp:156] Memory required for data: 226395168
I0403 13:51:06.039330 12154 layer_factory.hpp:77] Creating layer conv2/relu_3x3_reduce
I0403 13:51:06.039348 12154 net.cpp:91] Creating Layer conv2/relu_3x3_reduce
I0403 13:51:06.039363 12154 net.cpp:425] conv2/relu_3x3_reduce <- conv2/3x3_reduce
I0403 13:51:06.039381 12154 net.cpp:386] conv2/relu_3x3_reduce -> conv2/3x3_reduce (in-place)
I0403 13:51:06.039630 12154 net.cpp:141] Setting up conv2/relu_3x3_reduce
I0403 13:51:06.039657 12154 net.cpp:148] Top shape: 24 64 56 56 (4816896)
I0403 13:51:06.039672 12154 net.cpp:156] Memory required for data: 245662752
I0403 13:51:06.039687 12154 layer_factory.hpp:77] Creating layer conv2/3x3
I0403 13:51:06.039708 12154 net.cpp:91] Creating Layer conv2/3x3
I0403 13:51:06.039726 12154 net.cpp:425] conv2/3x3 <- conv2/3x3_reduce
I0403 13:51:06.039743 12154 net.cpp:399] conv2/3x3 -> conv2/3x3
I0403 13:51:06.041918 12154 net.cpp:141] Setting up conv2/3x3
I0403 13:51:06.041949 12154 net.cpp:148] Top shape: 24 192 56 56 (14450688)
I0403 13:51:06.041966 12154 net.cpp:156] Memory required for data: 303465504
I0403 13:51:06.041987 12154 layer_factory.hpp:77] Creating layer conv2/relu_3x3
I0403 13:51:06.042006 12154 net.cpp:91] Creating Layer conv2/relu_3x3
I0403 13:51:06.042021 12154 net.cpp:425] conv2/relu_3x3 <- conv2/3x3
I0403 13:51:06.042038 12154 net.cpp:386] conv2/relu_3x3 -> conv2/3x3 (in-place)
I0403 13:51:06.042196 12154 net.cpp:141] Setting up conv2/relu_3x3
I0403 13:51:06.042219 12154 net.cpp:148] Top shape: 24 192 56 56 (14450688)
I0403 13:51:06.042268 12154 net.cpp:156] Memory required for data: 361268256
I0403 13:51:06.042284 12154 layer_factory.hpp:77] Creating layer conv2/norm2
I0403 13:51:06.042302 12154 net.cpp:91] Creating Layer conv2/norm2
I0403 13:51:06.042317 12154 net.cpp:425] conv2/norm2 <- conv2/3x3
I0403 13:51:06.042335 12154 net.cpp:399] conv2/norm2 -> conv2/norm2
I0403 13:51:06.042619 12154 net.cpp:141] Setting up conv2/norm2
I0403 13:51:06.042646 12154 net.cpp:148] Top shape: 24 192 56 56 (14450688)
I0403 13:51:06.042662 12154 net.cpp:156] Memory required for data: 419071008
I0403 13:51:06.042676 12154 layer_factory.hpp:77] Creating layer pool2/3x3_s2
I0403 13:51:06.042695 12154 net.cpp:91] Creating Layer pool2/3x3_s2
I0403 13:51:06.042709 12154 net.cpp:425] pool2/3x3_s2 <- conv2/norm2
I0403 13:51:06.042726 12154 net.cpp:399] pool2/3x3_s2 -> pool2/3x3_s2
I0403 13:51:06.042774 12154 net.cpp:141] Setting up pool2/3x3_s2
I0403 13:51:06.042796 12154 net.cpp:148] Top shape: 24 192 28 28 (3612672)
I0403 13:51:06.042812 12154 net.cpp:156] Memory required for data: 433521696
I0403 13:51:06.042826 12154 layer_factory.hpp:77] Creating layer pool2/3x3_s2_pool2/3x3_s2_0_split
I0403 13:51:06.042843 12154 net.cpp:91] Creating Layer pool2/3x3_s2_pool2/3x3_s2_0_split
I0403 13:51:06.042858 12154 net.cpp:425] pool2/3x3_s2_pool2/3x3_s2_0_split <- pool2/3x3_s2
I0403 13:51:06.042876 12154 net.cpp:399] pool2/3x3_s2_pool2/3x3_s2_0_split -> pool2/3x3_s2_pool2/3x3_s2_0_split_0
I0403 13:51:06.042896 12154 net.cpp:399] pool2/3x3_s2_pool2/3x3_s2_0_split -> pool2/3x3_s2_pool2/3x3_s2_0_split_1
I0403 13:51:06.042915 12154 net.cpp:399] pool2/3x3_s2_pool2/3x3_s2_0_split -> pool2/3x3_s2_pool2/3x3_s2_0_split_2
I0403 13:51:06.042933 12154 net.cpp:399] pool2/3x3_s2_pool2/3x3_s2_0_split -> pool2/3x3_s2_pool2/3x3_s2_0_split_3
I0403 13:51:06.042995 12154 net.cpp:141] Setting up pool2/3x3_s2_pool2/3x3_s2_0_split
I0403 13:51:06.043017 12154 net.cpp:148] Top shape: 24 192 28 28 (3612672)
I0403 13:51:06.043035 12154 net.cpp:148] Top shape: 24 192 28 28 (3612672)
I0403 13:51:06.043051 12154 net.cpp:148] Top shape: 24 192 28 28 (3612672)
I0403 13:51:06.043066 12154 net.cpp:148] Top shape: 24 192 28 28 (3612672)
I0403 13:51:06.043079 12154 net.cpp:156] Memory required for data: 491324448
I0403 13:51:06.043093 12154 layer_factory.hpp:77] Creating layer inception_3a/1x1
I0403 13:51:06.043113 12154 net.cpp:91] Creating Layer inception_3a/1x1
I0403 13:51:06.043129 12154 net.cpp:425] inception_3a/1x1 <- pool2/3x3_s2_pool2/3x3_s2_0_split_0
I0403 13:51:06.043148 12154 net.cpp:399] inception_3a/1x1 -> inception_3a/1x1
I0403 13:51:06.044597 12154 net.cpp:141] Setting up inception_3a/1x1
I0403 13:51:06.044628 12154 net.cpp:148] Top shape: 24 64 28 28 (1204224)
I0403 13:51:06.044646 12154 net.cpp:156] Memory required for data: 496141344
I0403 13:51:06.044666 12154 layer_factory.hpp:77] Creating layer inception_3a/relu_1x1
I0403 13:51:06.044683 12154 net.cpp:91] Creating Layer inception_3a/relu_1x1
I0403 13:51:06.044699 12154 net.cpp:425] inception_3a/relu_1x1 <- inception_3a/1x1
I0403 13:51:06.044718 12154 net.cpp:386] inception_3a/relu_1x1 -> inception_3a/1x1 (in-place)
I0403 13:51:06.044889 12154 net.cpp:141] Setting up inception_3a/relu_1x1
I0403 13:51:06.044915 12154 net.cpp:148] Top shape: 24 64 28 28 (1204224)
I0403 13:51:06.044929 12154 net.cpp:156] Memory required for data: 500958240
I0403 13:51:06.044945 12154 layer_factory.hpp:77] Creating layer inception_3a/3x3_reduce
I0403 13:51:06.044966 12154 net.cpp:91] Creating Layer inception_3a/3x3_reduce
I0403 13:51:06.044983 12154 net.cpp:425] inception_3a/3x3_reduce <- pool2/3x3_s2_pool2/3x3_s2_0_split_1
I0403 13:51:06.045003 12154 net.cpp:399] inception_3a/3x3_reduce -> inception_3a/3x3_reduce
I0403 13:51:06.046741 12154 net.cpp:141] Setting up inception_3a/3x3_reduce
I0403 13:51:06.046771 12154 net.cpp:148] Top shape: 24 96 28 28 (1806336)
I0403 13:51:06.046787 12154 net.cpp:156] Memory required for data: 508183584
I0403 13:51:06.046808 12154 layer_factory.hpp:77] Creating layer inception_3a/relu_3x3_reduce
I0403 13:51:06.046846 12154 net.cpp:91] Creating Layer inception_3a/relu_3x3_reduce
I0403 13:51:06.046865 12154 net.cpp:425] inception_3a/relu_3x3_reduce <- inception_3a/3x3_reduce
I0403 13:51:06.046882 12154 net.cpp:386] inception_3a/relu_3x3_reduce -> inception_3a/3x3_reduce (in-place)
I0403 13:51:06.047063 12154 net.cpp:141] Setting up inception_3a/relu_3x3_reduce
I0403 13:51:06.047091 12154 net.cpp:148] Top shape: 24 96 28 28 (1806336)
I0403 13:51:06.047107 12154 net.cpp:156] Memory required for data: 515408928
I0403 13:51:06.047122 12154 layer_factory.hpp:77] Creating layer inception_3a/3x3
I0403 13:51:06.047144 12154 net.cpp:91] Creating Layer inception_3a/3x3
I0403 13:51:06.047163 12154 net.cpp:425] inception_3a/3x3 <- inception_3a/3x3_reduce
I0403 13:51:06.047181 12154 net.cpp:399] inception_3a/3x3 -> inception_3a/3x3
I0403 13:51:06.048862 12154 net.cpp:141] Setting up inception_3a/3x3
I0403 13:51:06.048892 12154 net.cpp:148] Top shape: 24 128 28 28 (2408448)
I0403 13:51:06.048908 12154 net.cpp:156] Memory required for data: 525042720
I0403 13:51:06.048928 12154 layer_factory.hpp:77] Creating layer inception_3a/relu_3x3
I0403 13:51:06.048949 12154 net.cpp:91] Creating Layer inception_3a/relu_3x3
I0403 13:51:06.048965 12154 net.cpp:425] inception_3a/relu_3x3 <- inception_3a/3x3
I0403 13:51:06.048982 12154 net.cpp:386] inception_3a/relu_3x3 -> inception_3a/3x3 (in-place)
I0403 13:51:06.049268 12154 net.cpp:141] Setting up inception_3a/relu_3x3
I0403 13:51:06.049296 12154 net.cpp:148] Top shape: 24 128 28 28 (2408448)
I0403 13:51:06.049311 12154 net.cpp:156] Memory required for data: 534676512
I0403 13:51:06.049326 12154 layer_factory.hpp:77] Creating layer inception_3a/5x5_reduce
I0403 13:51:06.049352 12154 net.cpp:91] Creating Layer inception_3a/5x5_reduce
I0403 13:51:06.049371 12154 net.cpp:425] inception_3a/5x5_reduce <- pool2/3x3_s2_pool2/3x3_s2_0_split_2
I0403 13:51:06.049391 12154 net.cpp:399] inception_3a/5x5_reduce -> inception_3a/5x5_reduce
I0403 13:51:06.050364 12154 net.cpp:141] Setting up inception_3a/5x5_reduce
I0403 13:51:06.050391 12154 net.cpp:148] Top shape: 24 16 28 28 (301056)
I0403 13:51:06.050408 12154 net.cpp:156] Memory required for data: 535880736
I0403 13:51:06.050426 12154 layer_factory.hpp:77] Creating layer inception_3a/relu_5x5_reduce
I0403 13:51:06.050448 12154 net.cpp:91] Creating Layer inception_3a/relu_5x5_reduce
I0403 13:51:06.050465 12154 net.cpp:425] inception_3a/relu_5x5_reduce <- inception_3a/5x5_reduce
I0403 13:51:06.050483 12154 net.cpp:386] inception_3a/relu_5x5_reduce -> inception_3a/5x5_reduce (in-place)
I0403 13:51:06.050787 12154 net.cpp:141] Setting up inception_3a/relu_5x5_reduce
I0403 13:51:06.050814 12154 net.cpp:148] Top shape: 24 16 28 28 (301056)
I0403 13:51:06.050829 12154 net.cpp:156] Memory required for data: 537084960
I0403 13:51:06.050845 12154 layer_factory.hpp:77] Creating layer inception_3a/5x5
I0403 13:51:06.050868 12154 net.cpp:91] Creating Layer inception_3a/5x5
I0403 13:51:06.050886 12154 net.cpp:425] inception_3a/5x5 <- inception_3a/5x5_reduce
I0403 13:51:06.050907 12154 net.cpp:399] inception_3a/5x5 -> inception_3a/5x5
I0403 13:51:06.051936 12154 net.cpp:141] Setting up inception_3a/5x5
I0403 13:51:06.051965 12154 net.cpp:148] Top shape: 24 32 28 28 (602112)
I0403 13:51:06.051981 12154 net.cpp:156] Memory required for data: 539493408
I0403 13:51:06.052000 12154 layer_factory.hpp:77] Creating layer inception_3a/relu_5x5
I0403 13:51:06.052019 12154 net.cpp:91] Creating Layer inception_3a/relu_5x5
I0403 13:51:06.052036 12154 net.cpp:425] inception_3a/relu_5x5 <- inception_3a/5x5
I0403 13:51:06.052055 12154 net.cpp:386] inception_3a/relu_5x5 -> inception_3a/5x5 (in-place)
I0403 13:51:06.052228 12154 net.cpp:141] Setting up inception_3a/relu_5x5
I0403 13:51:06.052254 12154 net.cpp:148] Top shape: 24 32 28 28 (602112)
I0403 13:51:06.052271 12154 net.cpp:156] Memory required for data: 541901856
I0403 13:51:06.052286 12154 layer_factory.hpp:77] Creating layer inception_3a/pool
I0403 13:51:06.052306 12154 net.cpp:91] Creating Layer inception_3a/pool
I0403 13:51:06.052336 12154 net.cpp:425] inception_3a/pool <- pool2/3x3_s2_pool2/3x3_s2_0_split_3
I0403 13:51:06.052356 12154 net.cpp:399] inception_3a/pool -> inception_3a/pool
I0403 13:51:06.052418 12154 net.cpp:141] Setting up inception_3a/pool
I0403 13:51:06.052443 12154 net.cpp:148] Top shape: 24 192 28 28 (3612672)
I0403 13:51:06.052459 12154 net.cpp:156] Memory required for data: 556352544
I0403 13:51:06.052474 12154 layer_factory.hpp:77] Creating layer inception_3a/pool_proj
I0403 13:51:06.052495 12154 net.cpp:91] Creating Layer inception_3a/pool_proj
I0403 13:51:06.052518 12154 net.cpp:425] inception_3a/pool_proj <- inception_3a/pool
I0403 13:51:06.052549 12154 net.cpp:399] inception_3a/pool_proj -> inception_3a/pool_proj
I0403 13:51:06.053526 12154 net.cpp:141] Setting up inception_3a/pool_proj
I0403 13:51:06.053557 12154 net.cpp:148] Top shape: 24 32 28 28 (602112)
I0403 13:51:06.053575 12154 net.cpp:156] Memory required for data: 558760992
I0403 13:51:06.053596 12154 layer_factory.hpp:77] Creating layer inception_3a/relu_pool_proj
I0403 13:51:06.053617 12154 net.cpp:91] Creating Layer inception_3a/relu_pool_proj
I0403 13:51:06.053634 12154 net.cpp:425] inception_3a/relu_pool_proj <- inception_3a/pool_proj
I0403 13:51:06.053652 12154 net.cpp:386] inception_3a/relu_pool_proj -> inception_3a/pool_proj (in-place)
I0403 13:51:06.053933 12154 net.cpp:141] Setting up inception_3a/relu_pool_proj
I0403 13:51:06.053961 12154 net.cpp:148] Top shape: 24 32 28 28 (602112)
I0403 13:51:06.053977 12154 net.cpp:156] Memory required for data: 561169440
I0403 13:51:06.053992 12154 layer_factory.hpp:77] Creating layer inception_3a/output
I0403 13:51:06.054011 12154 net.cpp:91] Creating Layer inception_3a/output
I0403 13:51:06.054026 12154 net.cpp:425] inception_3a/output <- inception_3a/1x1
I0403 13:51:06.054044 12154 net.cpp:425] inception_3a/output <- inception_3a/3x3
I0403 13:51:06.054059 12154 net.cpp:425] inception_3a/output <- inception_3a/5x5
I0403 13:51:06.054075 12154 net.cpp:425] inception_3a/output <- inception_3a/pool_proj
I0403 13:51:06.054095 12154 net.cpp:399] inception_3a/output -> inception_3a/output
I0403 13:51:06.054141 12154 net.cpp:141] Setting up inception_3a/output
I0403 13:51:06.054168 12154 net.cpp:148] Top shape: 24 256 28 28 (4816896)
I0403 13:51:06.054184 12154 net.cpp:156] Memory required for data: 580437024
I0403 13:51:06.054199 12154 layer_factory.hpp:77] Creating layer inception_3a/output_inception_3a/output_0_split
I0403 13:51:06.054217 12154 net.cpp:91] Creating Layer inception_3a/output_inception_3a/output_0_split
I0403 13:51:06.054232 12154 net.cpp:425] inception_3a/output_inception_3a/output_0_split <- inception_3a/output
I0403 13:51:06.054252 12154 net.cpp:399] inception_3a/output_inception_3a/output_0_split -> inception_3a/output_inception_3a/output_0_split_0
I0403 13:51:06.054272 12154 net.cpp:399] inception_3a/output_inception_3a/output_0_split -> inception_3a/output_inception_3a/output_0_split_1
I0403 13:51:06.054294 12154 net.cpp:399] inception_3a/output_inception_3a/output_0_split -> inception_3a/output_inception_3a/output_0_split_2
I0403 13:51:06.054316 12154 net.cpp:399] inception_3a/output_inception_3a/output_0_split -> inception_3a/output_inception_3a/output_0_split_3
I0403 13:51:06.054390 12154 net.cpp:141] Setting up inception_3a/output_inception_3a/output_0_split
I0403 13:51:06.054414 12154 net.cpp:148] Top shape: 24 256 28 28 (4816896)
I0403 13:51:06.054431 12154 net.cpp:148] Top shape: 24 256 28 28 (4816896)
I0403 13:51:06.054447 12154 net.cpp:148] Top shape: 24 256 28 28 (4816896)
I0403 13:51:06.054463 12154 net.cpp:148] Top shape: 24 256 28 28 (4816896)
I0403 13:51:06.054477 12154 net.cpp:156] Memory required for data: 657507360
I0403 13:51:06.054491 12154 layer_factory.hpp:77] Creating layer inception_3b/1x1
I0403 13:51:06.054524 12154 net.cpp:91] Creating Layer inception_3b/1x1
I0403 13:51:06.054545 12154 net.cpp:425] inception_3b/1x1 <- inception_3a/output_inception_3a/output_0_split_0
I0403 13:51:06.054568 12154 net.cpp:399] inception_3b/1x1 -> inception_3b/1x1
I0403 13:51:06.055721 12154 net.cpp:141] Setting up inception_3b/1x1
I0403 13:51:06.055763 12154 net.cpp:148] Top shape: 24 128 28 28 (2408448)
I0403 13:51:06.055781 12154 net.cpp:156] Memory required for data: 667141152
I0403 13:51:06.055800 12154 layer_factory.hpp:77] Creating layer inception_3b/relu_1x1
I0403 13:51:06.055819 12154 net.cpp:91] Creating Layer inception_3b/relu_1x1
I0403 13:51:06.055836 12154 net.cpp:425] inception_3b/relu_1x1 <- inception_3b/1x1
I0403 13:51:06.055858 12154 net.cpp:386] inception_3b/relu_1x1 -> inception_3b/1x1 (in-place)
I0403 13:51:06.056037 12154 net.cpp:141] Setting up inception_3b/relu_1x1
I0403 13:51:06.056063 12154 net.cpp:148] Top shape: 24 128 28 28 (2408448)
I0403 13:51:06.056078 12154 net.cpp:156] Memory required for data: 676774944
I0403 13:51:06.056093 12154 layer_factory.hpp:77] Creating layer inception_3b/3x3_reduce
I0403 13:51:06.056116 12154 net.cpp:91] Creating Layer inception_3b/3x3_reduce
I0403 13:51:06.056133 12154 net.cpp:425] inception_3b/3x3_reduce <- inception_3a/output_inception_3a/output_0_split_1
I0403 13:51:06.056155 12154 net.cpp:399] inception_3b/3x3_reduce -> inception_3b/3x3_reduce
I0403 13:51:06.057308 12154 net.cpp:141] Setting up inception_3b/3x3_reduce
I0403 13:51:06.057339 12154 net.cpp:148] Top shape: 24 128 28 28 (2408448)
I0403 13:51:06.057356 12154 net.cpp:156] Memory required for data: 686408736
I0403 13:51:06.057375 12154 layer_factory.hpp:77] Creating layer inception_3b/relu_3x3_reduce
I0403 13:51:06.057394 12154 net.cpp:91] Creating Layer inception_3b/relu_3x3_reduce
I0403 13:51:06.057410 12154 net.cpp:425] inception_3b/relu_3x3_reduce <- inception_3b/3x3_reduce
I0403 13:51:06.057430 12154 net.cpp:386] inception_3b/relu_3x3_reduce -> inception_3b/3x3_reduce (in-place)
I0403 13:51:06.057610 12154 net.cpp:141] Setting up inception_3b/relu_3x3_reduce
I0403 13:51:06.057636 12154 net.cpp:148] Top shape: 24 128 28 28 (2408448)
I0403 13:51:06.057652 12154 net.cpp:156] Memory required for data: 696042528
I0403 13:51:06.057667 12154 layer_factory.hpp:77] Creating layer inception_3b/3x3
I0403 13:51:06.057693 12154 net.cpp:91] Creating Layer inception_3b/3x3
I0403 13:51:06.057713 12154 net.cpp:425] inception_3b/3x3 <- inception_3b/3x3_reduce
I0403 13:51:06.057732 12154 net.cpp:399] inception_3b/3x3 -> inception_3b/3x3
I0403 13:51:06.060686 12154 net.cpp:141] Setting up inception_3b/3x3
I0403 13:51:06.060716 12154 net.cpp:148] Top shape: 24 192 28 28 (3612672)
I0403 13:51:06.060732 12154 net.cpp:156] Memory required for data: 710493216
I0403 13:51:06.060750 12154 layer_factory.hpp:77] Creating layer inception_3b/relu_3x3
I0403 13:51:06.060775 12154 net.cpp:91] Creating Layer inception_3b/relu_3x3
I0403 13:51:06.060792 12154 net.cpp:425] inception_3b/relu_3x3 <- inception_3b/3x3
I0403 13:51:06.060811 12154 net.cpp:386] inception_3b/relu_3x3 -> inception_3b/3x3 (in-place)
I0403 13:51:06.061095 12154 net.cpp:141] Setting up inception_3b/relu_3x3
I0403 13:51:06.061122 12154 net.cpp:148] Top shape: 24 192 28 28 (3612672)
I0403 13:51:06.061138 12154 net.cpp:156] Memory required for data: 724943904
I0403 13:51:06.061153 12154 layer_factory.hpp:77] Creating layer inception_3b/5x5_reduce
I0403 13:51:06.061177 12154 net.cpp:91] Creating Layer inception_3b/5x5_reduce
I0403 13:51:06.061195 12154 net.cpp:425] inception_3b/5x5_reduce <- inception_3a/output_inception_3a/output_0_split_2
I0403 13:51:06.061218 12154 net.cpp:399] inception_3b/5x5_reduce -> inception_3b/5x5_reduce
I0403 13:51:06.062229 12154 net.cpp:141] Setting up inception_3b/5x5_reduce
I0403 13:51:06.062258 12154 net.cpp:148] Top shape: 24 32 28 28 (602112)
I0403 13:51:06.062273 12154 net.cpp:156] Memory required for data: 727352352
I0403 13:51:06.062293 12154 layer_factory.hpp:77] Creating layer inception_3b/relu_5x5_reduce
I0403 13:51:06.062310 12154 net.cpp:91] Creating Layer inception_3b/relu_5x5_reduce
I0403 13:51:06.062330 12154 net.cpp:425] inception_3b/relu_5x5_reduce <- inception_3b/5x5_reduce
I0403 13:51:06.062348 12154 net.cpp:386] inception_3b/relu_5x5_reduce -> inception_3b/5x5_reduce (in-place)
I0403 13:51:06.062546 12154 net.cpp:141] Setting up inception_3b/relu_5x5_reduce
I0403 13:51:06.062572 12154 net.cpp:148] Top shape: 24 32 28 28 (602112)
I0403 13:51:06.062588 12154 net.cpp:156] Memory required for data: 729760800
I0403 13:51:06.062602 12154 layer_factory.hpp:77] Creating layer inception_3b/5x5
I0403 13:51:06.062625 12154 net.cpp:91] Creating Layer inception_3b/5x5
I0403 13:51:06.062644 12154 net.cpp:425] inception_3b/5x5 <- inception_3b/5x5_reduce
I0403 13:51:06.062664 12154 net.cpp:399] inception_3b/5x5 -> inception_3b/5x5
I0403 13:51:06.064690 12154 net.cpp:141] Setting up inception_3b/5x5
I0403 13:51:06.064721 12154 net.cpp:148] Top shape: 24 96 28 28 (1806336)
I0403 13:51:06.064738 12154 net.cpp:156] Memory required for data: 736986144
I0403 13:51:06.064756 12154 layer_factory.hpp:77] Creating layer inception_3b/relu_5x5
I0403 13:51:06.064774 12154 net.cpp:91] Creating Layer inception_3b/relu_5x5
I0403 13:51:06.064790 12154 net.cpp:425] inception_3b/relu_5x5 <- inception_3b/5x5
I0403 13:51:06.064810 12154 net.cpp:386] inception_3b/relu_5x5 -> inception_3b/5x5 (in-place)
I0403 13:51:06.064996 12154 net.cpp:141] Setting up inception_3b/relu_5x5
I0403 13:51:06.065021 12154 net.cpp:148] Top shape: 24 96 28 28 (1806336)
I0403 13:51:06.065037 12154 net.cpp:156] Memory required for data: 744211488
I0403 13:51:06.065050 12154 layer_factory.hpp:77] Creating layer inception_3b/pool
I0403 13:51:06.065068 12154 net.cpp:91] Creating Layer inception_3b/pool
I0403 13:51:06.065083 12154 net.cpp:425] inception_3b/pool <- inception_3a/output_inception_3a/output_0_split_3
I0403 13:51:06.065101 12154 net.cpp:399] inception_3b/pool -> inception_3b/pool
I0403 13:51:06.065156 12154 net.cpp:141] Setting up inception_3b/pool
I0403 13:51:06.065179 12154 net.cpp:148] Top shape: 24 256 28 28 (4816896)
I0403 13:51:06.065194 12154 net.cpp:156] Memory required for data: 763479072
I0403 13:51:06.065208 12154 layer_factory.hpp:77] Creating layer inception_3b/pool_proj
I0403 13:51:06.065232 12154 net.cpp:91] Creating Layer inception_3b/pool_proj
I0403 13:51:06.065249 12154 net.cpp:425] inception_3b/pool_proj <- inception_3b/pool
I0403 13:51:06.065268 12154 net.cpp:399] inception_3b/pool_proj -> inception_3b/pool_proj
I0403 13:51:06.066304 12154 net.cpp:141] Setting up inception_3b/pool_proj
I0403 13:51:06.066332 12154 net.cpp:148] Top shape: 24 64 28 28 (1204224)
I0403 13:51:06.066349 12154 net.cpp:156] Memory required for data: 768295968
I0403 13:51:06.066366 12154 layer_factory.hpp:77] Creating layer inception_3b/relu_pool_proj
I0403 13:51:06.066386 12154 net.cpp:91] Creating Layer inception_3b/relu_pool_proj
I0403 13:51:06.066403 12154 net.cpp:425] inception_3b/relu_pool_proj <- inception_3b/pool_proj
I0403 13:51:06.066421 12154 net.cpp:386] inception_3b/relu_pool_proj -> inception_3b/pool_proj (in-place)
I0403 13:51:06.066818 12154 net.cpp:141] Setting up inception_3b/relu_pool_proj
I0403 13:51:06.066844 12154 net.cpp:148] Top shape: 24 64 28 28 (1204224)
I0403 13:51:06.066859 12154 net.cpp:156] Memory required for data: 773112864
I0403 13:51:06.066874 12154 layer_factory.hpp:77] Creating layer inception_3b/output
I0403 13:51:06.066893 12154 net.cpp:91] Creating Layer inception_3b/output
I0403 13:51:06.066910 12154 net.cpp:425] inception_3b/output <- inception_3b/1x1
I0403 13:51:06.066926 12154 net.cpp:425] inception_3b/output <- inception_3b/3x3
I0403 13:51:06.066942 12154 net.cpp:425] inception_3b/output <- inception_3b/5x5
I0403 13:51:06.066957 12154 net.cpp:425] inception_3b/output <- inception_3b/pool_proj
I0403 13:51:06.066973 12154 net.cpp:399] inception_3b/output -> inception_3b/output
I0403 13:51:06.067018 12154 net.cpp:141] Setting up inception_3b/output
I0403 13:51:06.067040 12154 net.cpp:148] Top shape: 24 480 28 28 (9031680)
I0403 13:51:06.067054 12154 net.cpp:156] Memory required for data: 809239584
I0403 13:51:06.067070 12154 layer_factory.hpp:77] Creating layer pool3/3x3_s2
I0403 13:51:06.067086 12154 net.cpp:91] Creating Layer pool3/3x3_s2
I0403 13:51:06.067101 12154 net.cpp:425] pool3/3x3_s2 <- inception_3b/output
I0403 13:51:06.067137 12154 net.cpp:399] pool3/3x3_s2 -> pool3/3x3_s2
I0403 13:51:06.067194 12154 net.cpp:141] Setting up pool3/3x3_s2
I0403 13:51:06.067220 12154 net.cpp:148] Top shape: 24 480 14 14 (2257920)
I0403 13:51:06.067236 12154 net.cpp:156] Memory required for data: 818271264
I0403 13:51:06.067263 12154 layer_factory.hpp:77] Creating layer pool3/3x3_s2_pool3/3x3_s2_0_split
I0403 13:51:06.067282 12154 net.cpp:91] Creating Layer pool3/3x3_s2_pool3/3x3_s2_0_split
I0403 13:51:06.067297 12154 net.cpp:425] pool3/3x3_s2_pool3/3x3_s2_0_split <- pool3/3x3_s2
I0403 13:51:06.067314 12154 net.cpp:399] pool3/3x3_s2_pool3/3x3_s2_0_split -> pool3/3x3_s2_pool3/3x3_s2_0_split_0
I0403 13:51:06.067333 12154 net.cpp:399] pool3/3x3_s2_pool3/3x3_s2_0_split -> pool3/3x3_s2_pool3/3x3_s2_0_split_1
I0403 13:51:06.067356 12154 net.cpp:399] pool3/3x3_s2_pool3/3x3_s2_0_split -> pool3/3x3_s2_pool3/3x3_s2_0_split_2
I0403 13:51:06.067378 12154 net.cpp:399] pool3/3x3_s2_pool3/3x3_s2_0_split -> pool3/3x3_s2_pool3/3x3_s2_0_split_3
I0403 13:51:06.067456 12154 net.cpp:141] Setting up pool3/3x3_s2_pool3/3x3_s2_0_split
I0403 13:51:06.067479 12154 net.cpp:148] Top shape: 24 480 14 14 (2257920)
I0403 13:51:06.067495 12154 net.cpp:148] Top shape: 24 480 14 14 (2257920)
I0403 13:51:06.067517 12154 net.cpp:148] Top shape: 24 480 14 14 (2257920)
I0403 13:51:06.067534 12154 net.cpp:148] Top shape: 24 480 14 14 (2257920)
I0403 13:51:06.067548 12154 net.cpp:156] Memory required for data: 854397984
I0403 13:51:06.067575 12154 layer_factory.hpp:77] Creating layer inception_4a/1x1
I0403 13:51:06.067596 12154 net.cpp:91] Creating Layer inception_4a/1x1
I0403 13:51:06.067615 12154 net.cpp:425] inception_4a/1x1 <- pool3/3x3_s2_pool3/3x3_s2_0_split_0
I0403 13:51:06.067647 12154 net.cpp:399] inception_4a/1x1 -> inception_4a/1x1
I0403 13:51:06.069247 12154 net.cpp:141] Setting up inception_4a/1x1
I0403 13:51:06.069275 12154 net.cpp:148] Top shape: 24 192 14 14 (903168)
I0403 13:51:06.069293 12154 net.cpp:156] Memory required for data: 858010656
I0403 13:51:06.069311 12154 layer_factory.hpp:77] Creating layer inception_4a/relu_1x1
I0403 13:51:06.069332 12154 net.cpp:91] Creating Layer inception_4a/relu_1x1
I0403 13:51:06.069349 12154 net.cpp:425] inception_4a/relu_1x1 <- inception_4a/1x1
I0403 13:51:06.069365 12154 net.cpp:386] inception_4a/relu_1x1 -> inception_4a/1x1 (in-place)
I0403 13:51:06.069543 12154 net.cpp:141] Setting up inception_4a/relu_1x1
I0403 13:51:06.069568 12154 net.cpp:148] Top shape: 24 192 14 14 (903168)
I0403 13:51:06.069583 12154 net.cpp:156] Memory required for data: 861623328
I0403 13:51:06.069597 12154 layer_factory.hpp:77] Creating layer inception_4a/3x3_reduce
I0403 13:51:06.069619 12154 net.cpp:91] Creating Layer inception_4a/3x3_reduce
I0403 13:51:06.069636 12154 net.cpp:425] inception_4a/3x3_reduce <- pool3/3x3_s2_pool3/3x3_s2_0_split_1
I0403 13:51:06.069658 12154 net.cpp:399] inception_4a/3x3_reduce -> inception_4a/3x3_reduce
I0403 13:51:06.070919 12154 net.cpp:141] Setting up inception_4a/3x3_reduce
I0403 13:51:06.070946 12154 net.cpp:148] Top shape: 24 96 14 14 (451584)
I0403 13:51:06.070966 12154 net.cpp:156] Memory required for data: 863429664
I0403 13:51:06.070988 12154 layer_factory.hpp:77] Creating layer inception_4a/relu_3x3_reduce
I0403 13:51:06.071010 12154 net.cpp:91] Creating Layer inception_4a/relu_3x3_reduce
I0403 13:51:06.071027 12154 net.cpp:425] inception_4a/relu_3x3_reduce <- inception_4a/3x3_reduce
I0403 13:51:06.071044 12154 net.cpp:386] inception_4a/relu_3x3_reduce -> inception_4a/3x3_reduce (in-place)
I0403 13:51:06.071219 12154 net.cpp:141] Setting up inception_4a/relu_3x3_reduce
I0403 13:51:06.071247 12154 net.cpp:148] Top shape: 24 96 14 14 (451584)
I0403 13:51:06.071262 12154 net.cpp:156] Memory required for data: 865236000
I0403 13:51:06.071277 12154 layer_factory.hpp:77] Creating layer inception_4a/3x3
I0403 13:51:06.071308 12154 net.cpp:91] Creating Layer inception_4a/3x3
I0403 13:51:06.071326 12154 net.cpp:425] inception_4a/3x3 <- inception_4a/3x3_reduce
I0403 13:51:06.071346 12154 net.cpp:399] inception_4a/3x3 -> inception_4a/3x3
I0403 13:51:06.073997 12154 net.cpp:141] Setting up inception_4a/3x3
I0403 13:51:06.074031 12154 net.cpp:148] Top shape: 24 208 14 14 (978432)
I0403 13:51:06.074048 12154 net.cpp:156] Memory required for data: 869149728
I0403 13:51:06.074066 12154 layer_factory.hpp:77] Creating layer inception_4a/relu_3x3
I0403 13:51:06.074084 12154 net.cpp:91] Creating Layer inception_4a/relu_3x3
I0403 13:51:06.074100 12154 net.cpp:425] inception_4a/relu_3x3 <- inception_4a/3x3
I0403 13:51:06.074120 12154 net.cpp:386] inception_4a/relu_3x3 -> inception_4a/3x3 (in-place)
I0403 13:51:06.074391 12154 net.cpp:141] Setting up inception_4a/relu_3x3
I0403 13:51:06.074419 12154 net.cpp:148] Top shape: 24 208 14 14 (978432)
I0403 13:51:06.074435 12154 net.cpp:156] Memory required for data: 873063456
I0403 13:51:06.074450 12154 layer_factory.hpp:77] Creating layer inception_4a/5x5_reduce
I0403 13:51:06.074476 12154 net.cpp:91] Creating Layer inception_4a/5x5_reduce
I0403 13:51:06.074493 12154 net.cpp:425] inception_4a/5x5_reduce <- pool3/3x3_s2_pool3/3x3_s2_0_split_2
I0403 13:51:06.074523 12154 net.cpp:399] inception_4a/5x5_reduce -> inception_4a/5x5_reduce
I0403 13:51:06.075525 12154 net.cpp:141] Setting up inception_4a/5x5_reduce
I0403 13:51:06.075552 12154 net.cpp:148] Top shape: 24 16 14 14 (75264)
I0403 13:51:06.075567 12154 net.cpp:156] Memory required for data: 873364512
I0403 13:51:06.075585 12154 layer_factory.hpp:77] Creating layer inception_4a/relu_5x5_reduce
I0403 13:51:06.075603 12154 net.cpp:91] Creating Layer inception_4a/relu_5x5_reduce
I0403 13:51:06.075619 12154 net.cpp:425] inception_4a/relu_5x5_reduce <- inception_4a/5x5_reduce
I0403 13:51:06.075639 12154 net.cpp:386] inception_4a/relu_5x5_reduce -> inception_4a/5x5_reduce (in-place)
I0403 13:51:06.075812 12154 net.cpp:141] Setting up inception_4a/relu_5x5_reduce
I0403 13:51:06.075837 12154 net.cpp:148] Top shape: 24 16 14 14 (75264)
I0403 13:51:06.075851 12154 net.cpp:156] Memory required for data: 873665568
I0403 13:51:06.075866 12154 layer_factory.hpp:77] Creating layer inception_4a/5x5
I0403 13:51:06.075887 12154 net.cpp:91] Creating Layer inception_4a/5x5
I0403 13:51:06.075904 12154 net.cpp:425] inception_4a/5x5 <- inception_4a/5x5_reduce
I0403 13:51:06.075925 12154 net.cpp:399] inception_4a/5x5 -> inception_4a/5x5
I0403 13:51:06.076997 12154 net.cpp:141] Setting up inception_4a/5x5
I0403 13:51:06.077024 12154 net.cpp:148] Top shape: 24 48 14 14 (225792)
I0403 13:51:06.077040 12154 net.cpp:156] Memory required for data: 874568736
I0403 13:51:06.077059 12154 layer_factory.hpp:77] Creating layer inception_4a/relu_5x5
I0403 13:51:06.077077 12154 net.cpp:91] Creating Layer inception_4a/relu_5x5
I0403 13:51:06.077095 12154 net.cpp:425] inception_4a/relu_5x5 <- inception_4a/5x5
I0403 13:51:06.077111 12154 net.cpp:386] inception_4a/relu_5x5 -> inception_4a/5x5 (in-place)
I0403 13:51:06.077283 12154 net.cpp:141] Setting up inception_4a/relu_5x5
I0403 13:51:06.077312 12154 net.cpp:148] Top shape: 24 48 14 14 (225792)
I0403 13:51:06.077328 12154 net.cpp:156] Memory required for data: 875471904
I0403 13:51:06.077342 12154 layer_factory.hpp:77] Creating layer inception_4a/pool
I0403 13:51:06.077361 12154 net.cpp:91] Creating Layer inception_4a/pool
I0403 13:51:06.077378 12154 net.cpp:425] inception_4a/pool <- pool3/3x3_s2_pool3/3x3_s2_0_split_3
I0403 13:51:06.077397 12154 net.cpp:399] inception_4a/pool -> inception_4a/pool
I0403 13:51:06.077456 12154 net.cpp:141] Setting up inception_4a/pool
I0403 13:51:06.077481 12154 net.cpp:148] Top shape: 24 480 14 14 (2257920)
I0403 13:51:06.077496 12154 net.cpp:156] Memory required for data: 884503584
I0403 13:51:06.077513 12154 layer_factory.hpp:77] Creating layer inception_4a/pool_proj
I0403 13:51:06.077538 12154 net.cpp:91] Creating Layer inception_4a/pool_proj
I0403 13:51:06.077554 12154 net.cpp:425] inception_4a/pool_proj <- inception_4a/pool
I0403 13:51:06.077576 12154 net.cpp:399] inception_4a/pool_proj -> inception_4a/pool_proj
I0403 13:51:06.078763 12154 net.cpp:141] Setting up inception_4a/pool_proj
I0403 13:51:06.078793 12154 net.cpp:148] Top shape: 24 64 14 14 (301056)
I0403 13:51:06.078826 12154 net.cpp:156] Memory required for data: 885707808
I0403 13:51:06.078855 12154 layer_factory.hpp:77] Creating layer inception_4a/relu_pool_proj
I0403 13:51:06.078873 12154 net.cpp:91] Creating Layer inception_4a/relu_pool_proj
I0403 13:51:06.078889 12154 net.cpp:425] inception_4a/relu_pool_proj <- inception_4a/pool_proj
I0403 13:51:06.078907 12154 net.cpp:386] inception_4a/relu_pool_proj -> inception_4a/pool_proj (in-place)
I0403 13:51:06.079195 12154 net.cpp:141] Setting up inception_4a/relu_pool_proj
I0403 13:51:06.079222 12154 net.cpp:148] Top shape: 24 64 14 14 (301056)
I0403 13:51:06.079241 12154 net.cpp:156] Memory required for data: 886912032
I0403 13:51:06.079255 12154 layer_factory.hpp:77] Creating layer inception_4a/output
I0403 13:51:06.079273 12154 net.cpp:91] Creating Layer inception_4a/output
I0403 13:51:06.079289 12154 net.cpp:425] inception_4a/output <- inception_4a/1x1
I0403 13:51:06.079305 12154 net.cpp:425] inception_4a/output <- inception_4a/3x3
I0403 13:51:06.079322 12154 net.cpp:425] inception_4a/output <- inception_4a/5x5
I0403 13:51:06.079339 12154 net.cpp:425] inception_4a/output <- inception_4a/pool_proj
I0403 13:51:06.079355 12154 net.cpp:399] inception_4a/output -> inception_4a/output
I0403 13:51:06.079401 12154 net.cpp:141] Setting up inception_4a/output
I0403 13:51:06.079427 12154 net.cpp:148] Top shape: 24 512 14 14 (2408448)
I0403 13:51:06.079440 12154 net.cpp:156] Memory required for data: 896545824
I0403 13:51:06.079455 12154 layer_factory.hpp:77] Creating layer inception_4a/output_inception_4a/output_0_split
I0403 13:51:06.079473 12154 net.cpp:91] Creating Layer inception_4a/output_inception_4a/output_0_split
I0403 13:51:06.079491 12154 net.cpp:425] inception_4a/output_inception_4a/output_0_split <- inception_4a/output
I0403 13:51:06.079514 12154 net.cpp:399] inception_4a/output_inception_4a/output_0_split -> inception_4a/output_inception_4a/output_0_split_0
I0403 13:51:06.079536 12154 net.cpp:399] inception_4a/output_inception_4a/output_0_split -> inception_4a/output_inception_4a/output_0_split_1
I0403 13:51:06.079557 12154 net.cpp:399] inception_4a/output_inception_4a/output_0_split -> inception_4a/output_inception_4a/output_0_split_2
I0403 13:51:06.079577 12154 net.cpp:399] inception_4a/output_inception_4a/output_0_split -> inception_4a/output_inception_4a/output_0_split_3
I0403 13:51:06.079598 12154 net.cpp:399] inception_4a/output_inception_4a/output_0_split -> inception_4a/output_inception_4a/output_0_split_4
I0403 13:51:06.079694 12154 net.cpp:141] Setting up inception_4a/output_inception_4a/output_0_split
I0403 13:51:06.079717 12154 net.cpp:148] Top shape: 24 512 14 14 (2408448)
I0403 13:51:06.079735 12154 net.cpp:148] Top shape: 24 512 14 14 (2408448)
I0403 13:51:06.079751 12154 net.cpp:148] Top shape: 24 512 14 14 (2408448)
I0403 13:51:06.079766 12154 net.cpp:148] Top shape: 24 512 14 14 (2408448)
I0403 13:51:06.079782 12154 net.cpp:148] Top shape: 24 512 14 14 (2408448)
I0403 13:51:06.079797 12154 net.cpp:156] Memory required for data: 944714784
I0403 13:51:06.079810 12154 layer_factory.hpp:77] Creating layer loss1/ave_pool
I0403 13:51:06.079828 12154 net.cpp:91] Creating Layer loss1/ave_pool
I0403 13:51:06.079844 12154 net.cpp:425] loss1/ave_pool <- inception_4a/output_inception_4a/output_0_split_0
I0403 13:51:06.079865 12154 net.cpp:399] loss1/ave_pool -> loss1/ave_pool
I0403 13:51:06.080077 12154 net.cpp:141] Setting up loss1/ave_pool
I0403 13:51:06.080106 12154 net.cpp:148] Top shape: 24 512 4 4 (196608)
I0403 13:51:06.080122 12154 net.cpp:156] Memory required for data: 945501216
I0403 13:51:06.080137 12154 layer_factory.hpp:77] Creating layer loss1/conv
I0403 13:51:06.080157 12154 net.cpp:91] Creating Layer loss1/conv
I0403 13:51:06.080174 12154 net.cpp:425] loss1/conv <- loss1/ave_pool
I0403 13:51:06.080195 12154 net.cpp:399] loss1/conv -> loss1/conv
I0403 13:51:06.081641 12154 net.cpp:141] Setting up loss1/conv
I0403 13:51:06.081675 12154 net.cpp:148] Top shape: 24 128 4 4 (49152)
I0403 13:51:06.081704 12154 net.cpp:156] Memory required for data: 945697824
I0403 13:51:06.081724 12154 layer_factory.hpp:77] Creating layer loss1/relu_conv
I0403 13:51:06.081743 12154 net.cpp:91] Creating Layer loss1/relu_conv
I0403 13:51:06.081758 12154 net.cpp:425] loss1/relu_conv <- loss1/conv
I0403 13:51:06.081779 12154 net.cpp:386] loss1/relu_conv -> loss1/conv (in-place)
I0403 13:51:06.082062 12154 net.cpp:141] Setting up loss1/relu_conv
I0403 13:51:06.082090 12154 net.cpp:148] Top shape: 24 128 4 4 (49152)
I0403 13:51:06.082106 12154 net.cpp:156] Memory required for data: 945894432
I0403 13:51:06.082121 12154 layer_factory.hpp:77] Creating layer loss1/fc
I0403 13:51:06.082145 12154 net.cpp:91] Creating Layer loss1/fc
I0403 13:51:06.082164 12154 net.cpp:425] loss1/fc <- loss1/conv
I0403 13:51:06.082185 12154 net.cpp:399] loss1/fc -> loss1/fc
I0403 13:51:06.100328 12154 net.cpp:141] Setting up loss1/fc
I0403 13:51:06.100379 12154 net.cpp:148] Top shape: 24 1024 (24576)
I0403 13:51:06.100395 12154 net.cpp:156] Memory required for data: 945992736
I0403 13:51:06.100415 12154 layer_factory.hpp:77] Creating layer loss1/relu_fc
I0403 13:51:06.100437 12154 net.cpp:91] Creating Layer loss1/relu_fc
I0403 13:51:06.100455 12154 net.cpp:425] loss1/relu_fc <- loss1/fc
I0403 13:51:06.100473 12154 net.cpp:386] loss1/relu_fc -> loss1/fc (in-place)
I0403 13:51:06.100688 12154 net.cpp:141] Setting up loss1/relu_fc
I0403 13:51:06.100713 12154 net.cpp:148] Top shape: 24 1024 (24576)
I0403 13:51:06.100728 12154 net.cpp:156] Memory required for data: 946091040
I0403 13:51:06.100742 12154 layer_factory.hpp:77] Creating layer loss1/drop_fc
I0403 13:51:06.100770 12154 net.cpp:91] Creating Layer loss1/drop_fc
I0403 13:51:06.100787 12154 net.cpp:425] loss1/drop_fc <- loss1/fc
I0403 13:51:06.100806 12154 net.cpp:386] loss1/drop_fc -> loss1/fc (in-place)
I0403 13:51:06.100858 12154 net.cpp:141] Setting up loss1/drop_fc
I0403 13:51:06.100880 12154 net.cpp:148] Top shape: 24 1024 (24576)
I0403 13:51:06.100895 12154 net.cpp:156] Memory required for data: 946189344
I0403 13:51:06.100910 12154 layer_factory.hpp:77] Creating layer loss1/classifier_plantvillage
I0403 13:51:06.100932 12154 net.cpp:91] Creating Layer loss1/classifier_plantvillage
I0403 13:51:06.100950 12154 net.cpp:425] loss1/classifier_plantvillage <- loss1/fc
I0403 13:51:06.100966 12154 net.cpp:399] loss1/classifier_plantvillage -> loss1/classifier_plantvillage
I0403 13:51:06.101910 12154 net.cpp:141] Setting up loss1/classifier_plantvillage
I0403 13:51:06.101941 12154 net.cpp:148] Top shape: 24 38 (912)
I0403 13:51:06.101958 12154 net.cpp:156] Memory required for data: 946192992
I0403 13:51:06.101975 12154 layer_factory.hpp:77] Creating layer loss1/classifier_plantvillage_loss1/classifier_plantvillage_0_split
I0403 13:51:06.101994 12154 net.cpp:91] Creating Layer loss1/classifier_plantvillage_loss1/classifier_plantvillage_0_split
I0403 13:51:06.102010 12154 net.cpp:425] loss1/classifier_plantvillage_loss1/classifier_plantvillage_0_split <- loss1/classifier_plantvillage
I0403 13:51:06.102027 12154 net.cpp:399] loss1/classifier_plantvillage_loss1/classifier_plantvillage_0_split -> loss1/classifier_plantvillage_loss1/classifier_plantvillage_0_split_0
I0403 13:51:06.102049 12154 net.cpp:399] loss1/classifier_plantvillage_loss1/classifier_plantvillage_0_split -> loss1/classifier_plantvillage_loss1/classifier_plantvillage_0_split_1
I0403 13:51:06.102071 12154 net.cpp:399] loss1/classifier_plantvillage_loss1/classifier_plantvillage_0_split -> loss1/classifier_plantvillage_loss1/classifier_plantvillage_0_split_2
I0403 13:51:06.102135 12154 net.cpp:141] Setting up loss1/classifier_plantvillage_loss1/classifier_plantvillage_0_split
I0403 13:51:06.102159 12154 net.cpp:148] Top shape: 24 38 (912)
I0403 13:51:06.102175 12154 net.cpp:148] Top shape: 24 38 (912)
I0403 13:51:06.102190 12154 net.cpp:148] Top shape: 24 38 (912)
I0403 13:51:06.102205 12154 net.cpp:156] Memory required for data: 946203936
I0403 13:51:06.102218 12154 layer_factory.hpp:77] Creating layer inception_4b/1x1
I0403 13:51:06.102242 12154 net.cpp:91] Creating Layer inception_4b/1x1
I0403 13:51:06.102284 12154 net.cpp:425] inception_4b/1x1 <- inception_4a/output_inception_4a/output_0_split_1
I0403 13:51:06.102304 12154 net.cpp:399] inception_4b/1x1 -> inception_4b/1x1
I0403 13:51:06.103982 12154 net.cpp:141] Setting up inception_4b/1x1
I0403 13:51:06.104014 12154 net.cpp:148] Top shape: 24 160 14 14 (752640)
I0403 13:51:06.104032 12154 net.cpp:156] Memory required for data: 949214496
I0403 13:51:06.104049 12154 layer_factory.hpp:77] Creating layer inception_4b/relu_1x1
I0403 13:51:06.104068 12154 net.cpp:91] Creating Layer inception_4b/relu_1x1
I0403 13:51:06.104084 12154 net.cpp:425] inception_4b/relu_1x1 <- inception_4b/1x1
I0403 13:51:06.104104 12154 net.cpp:386] inception_4b/relu_1x1 -> inception_4b/1x1 (in-place)
I0403 13:51:06.104279 12154 net.cpp:141] Setting up inception_4b/relu_1x1
I0403 13:51:06.104305 12154 net.cpp:148] Top shape: 24 160 14 14 (752640)
I0403 13:51:06.104320 12154 net.cpp:156] Memory required for data: 952225056
I0403 13:51:06.104334 12154 layer_factory.hpp:77] Creating layer inception_4b/3x3_reduce
I0403 13:51:06.104357 12154 net.cpp:91] Creating Layer inception_4b/3x3_reduce
I0403 13:51:06.104375 12154 net.cpp:425] inception_4b/3x3_reduce <- inception_4a/output_inception_4a/output_0_split_2
I0403 13:51:06.104398 12154 net.cpp:399] inception_4b/3x3_reduce -> inception_4b/3x3_reduce
I0403 13:51:06.105751 12154 net.cpp:141] Setting up inception_4b/3x3_reduce
I0403 13:51:06.105777 12154 net.cpp:148] Top shape: 24 112 14 14 (526848)
I0403 13:51:06.105794 12154 net.cpp:156] Memory required for data: 954332448
I0403 13:51:06.105813 12154 layer_factory.hpp:77] Creating layer inception_4b/relu_3x3_reduce
I0403 13:51:06.105832 12154 net.cpp:91] Creating Layer inception_4b/relu_3x3_reduce
I0403 13:51:06.105849 12154 net.cpp:425] inception_4b/relu_3x3_reduce <- inception_4b/3x3_reduce
I0403 13:51:06.105866 12154 net.cpp:386] inception_4b/relu_3x3_reduce -> inception_4b/3x3_reduce (in-place)
I0403 13:51:06.106147 12154 net.cpp:141] Setting up inception_4b/relu_3x3_reduce
I0403 13:51:06.106173 12154 net.cpp:148] Top shape: 24 112 14 14 (526848)
I0403 13:51:06.106189 12154 net.cpp:156] Memory required for data: 956439840
I0403 13:51:06.106204 12154 layer_factory.hpp:77] Creating layer inception_4b/3x3
I0403 13:51:06.106226 12154 net.cpp:91] Creating Layer inception_4b/3x3
I0403 13:51:06.106245 12154 net.cpp:425] inception_4b/3x3 <- inception_4b/3x3_reduce
I0403 13:51:06.106264 12154 net.cpp:399] inception_4b/3x3 -> inception_4b/3x3
I0403 13:51:06.109246 12154 net.cpp:141] Setting up inception_4b/3x3
I0403 13:51:06.109274 12154 net.cpp:148] Top shape: 24 224 14 14 (1053696)
I0403 13:51:06.109292 12154 net.cpp:156] Memory required for data: 960654624
I0403 13:51:06.109309 12154 layer_factory.hpp:77] Creating layer inception_4b/relu_3x3
I0403 13:51:06.109329 12154 net.cpp:91] Creating Layer inception_4b/relu_3x3
I0403 13:51:06.109346 12154 net.cpp:425] inception_4b/relu_3x3 <- inception_4b/3x3
I0403 13:51:06.109364 12154 net.cpp:386] inception_4b/relu_3x3 -> inception_4b/3x3 (in-place)
I0403 13:51:06.109549 12154 net.cpp:141] Setting up inception_4b/relu_3x3
I0403 13:51:06.109575 12154 net.cpp:148] Top shape: 24 224 14 14 (1053696)
I0403 13:51:06.109589 12154 net.cpp:156] Memory required for data: 964869408
I0403 13:51:06.109604 12154 layer_factory.hpp:77] Creating layer inception_4b/5x5_reduce
I0403 13:51:06.109627 12154 net.cpp:91] Creating Layer inception_4b/5x5_reduce
I0403 13:51:06.109644 12154 net.cpp:425] inception_4b/5x5_reduce <- inception_4a/output_inception_4a/output_0_split_3
I0403 13:51:06.109668 12154 net.cpp:399] inception_4b/5x5_reduce -> inception_4b/5x5_reduce
I0403 13:51:06.110746 12154 net.cpp:141] Setting up inception_4b/5x5_reduce
I0403 13:51:06.110774 12154 net.cpp:148] Top shape: 24 24 14 14 (112896)
I0403 13:51:06.110790 12154 net.cpp:156] Memory required for data: 965320992
I0403 13:51:06.110807 12154 layer_factory.hpp:77] Creating layer inception_4b/relu_5x5_reduce
I0403 13:51:06.110826 12154 net.cpp:91] Creating Layer inception_4b/relu_5x5_reduce
I0403 13:51:06.110857 12154 net.cpp:425] inception_4b/relu_5x5_reduce <- inception_4b/5x5_reduce
I0403 13:51:06.110877 12154 net.cpp:386] inception_4b/relu_5x5_reduce -> inception_4b/5x5_reduce (in-place)
I0403 13:51:06.111060 12154 net.cpp:141] Setting up inception_4b/relu_5x5_reduce
I0403 13:51:06.111085 12154 net.cpp:148] Top shape: 24 24 14 14 (112896)
I0403 13:51:06.111100 12154 net.cpp:156] Memory required for data: 965772576
I0403 13:51:06.111114 12154 layer_factory.hpp:77] Creating layer inception_4b/5x5
I0403 13:51:06.111136 12154 net.cpp:91] Creating Layer inception_4b/5x5
I0403 13:51:06.111153 12154 net.cpp:425] inception_4b/5x5 <- inception_4b/5x5_reduce
I0403 13:51:06.111174 12154 net.cpp:399] inception_4b/5x5 -> inception_4b/5x5
I0403 13:51:06.112392 12154 net.cpp:141] Setting up inception_4b/5x5
I0403 13:51:06.112422 12154 net.cpp:148] Top shape: 24 64 14 14 (301056)
I0403 13:51:06.112438 12154 net.cpp:156] Memory required for data: 966976800
I0403 13:51:06.112457 12154 layer_factory.hpp:77] Creating layer inception_4b/relu_5x5
I0403 13:51:06.112474 12154 net.cpp:91] Creating Layer inception_4b/relu_5x5
I0403 13:51:06.112490 12154 net.cpp:425] inception_4b/relu_5x5 <- inception_4b/5x5
I0403 13:51:06.112514 12154 net.cpp:386] inception_4b/relu_5x5 -> inception_4b/5x5 (in-place)
I0403 13:51:06.112795 12154 net.cpp:141] Setting up inception_4b/relu_5x5
I0403 13:51:06.112823 12154 net.cpp:148] Top shape: 24 64 14 14 (301056)
I0403 13:51:06.112839 12154 net.cpp:156] Memory required for data: 968181024
I0403 13:51:06.112854 12154 layer_factory.hpp:77] Creating layer inception_4b/pool
I0403 13:51:06.112871 12154 net.cpp:91] Creating Layer inception_4b/pool
I0403 13:51:06.112887 12154 net.cpp:425] inception_4b/pool <- inception_4a/output_inception_4a/output_0_split_4
I0403 13:51:06.112907 12154 net.cpp:399] inception_4b/pool -> inception_4b/pool
I0403 13:51:06.112972 12154 net.cpp:141] Setting up inception_4b/pool
I0403 13:51:06.112998 12154 net.cpp:148] Top shape: 24 512 14 14 (2408448)
I0403 13:51:06.113013 12154 net.cpp:156] Memory required for data: 977814816
I0403 13:51:06.113028 12154 layer_factory.hpp:77] Creating layer inception_4b/pool_proj
I0403 13:51:06.113051 12154 net.cpp:91] Creating Layer inception_4b/pool_proj
I0403 13:51:06.113068 12154 net.cpp:425] inception_4b/pool_proj <- inception_4b/pool
I0403 13:51:06.113087 12154 net.cpp:399] inception_4b/pool_proj -> inception_4b/pool_proj
I0403 13:51:06.114279 12154 net.cpp:141] Setting up inception_4b/pool_proj
I0403 13:51:06.114307 12154 net.cpp:148] Top shape: 24 64 14 14 (301056)
I0403 13:51:06.114323 12154 net.cpp:156] Memory required for data: 979019040
I0403 13:51:06.114341 12154 layer_factory.hpp:77] Creating layer inception_4b/relu_pool_proj
I0403 13:51:06.114362 12154 net.cpp:91] Creating Layer inception_4b/relu_pool_proj
I0403 13:51:06.114378 12154 net.cpp:425] inception_4b/relu_pool_proj <- inception_4b/pool_proj
I0403 13:51:06.114395 12154 net.cpp:386] inception_4b/relu_pool_proj -> inception_4b/pool_proj (in-place)
I0403 13:51:06.114583 12154 net.cpp:141] Setting up inception_4b/relu_pool_proj
I0403 13:51:06.114609 12154 net.cpp:148] Top shape: 24 64 14 14 (301056)
I0403 13:51:06.114624 12154 net.cpp:156] Memory required for data: 980223264
I0403 13:51:06.114639 12154 layer_factory.hpp:77] Creating layer inception_4b/output
I0403 13:51:06.114657 12154 net.cpp:91] Creating Layer inception_4b/output
I0403 13:51:06.114675 12154 net.cpp:425] inception_4b/output <- inception_4b/1x1
I0403 13:51:06.114691 12154 net.cpp:425] inception_4b/output <- inception_4b/3x3
I0403 13:51:06.114706 12154 net.cpp:425] inception_4b/output <- inception_4b/5x5
I0403 13:51:06.114722 12154 net.cpp:425] inception_4b/output <- inception_4b/pool_proj
I0403 13:51:06.114738 12154 net.cpp:399] inception_4b/output -> inception_4b/output
I0403 13:51:06.114785 12154 net.cpp:141] Setting up inception_4b/output
I0403 13:51:06.114809 12154 net.cpp:148] Top shape: 24 512 14 14 (2408448)
I0403 13:51:06.114825 12154 net.cpp:156] Memory required for data: 989857056
I0403 13:51:06.114853 12154 layer_factory.hpp:77] Creating layer inception_4b/output_inception_4b/output_0_split
I0403 13:51:06.114871 12154 net.cpp:91] Creating Layer inception_4b/output_inception_4b/output_0_split
I0403 13:51:06.114886 12154 net.cpp:425] inception_4b/output_inception_4b/output_0_split <- inception_4b/output
I0403 13:51:06.114907 12154 net.cpp:399] inception_4b/output_inception_4b/output_0_split -> inception_4b/output_inception_4b/output_0_split_0
I0403 13:51:06.114926 12154 net.cpp:399] inception_4b/output_inception_4b/output_0_split -> inception_4b/output_inception_4b/output_0_split_1
I0403 13:51:06.114948 12154 net.cpp:399] inception_4b/output_inception_4b/output_0_split -> inception_4b/output_inception_4b/output_0_split_2
I0403 13:51:06.114969 12154 net.cpp:399] inception_4b/output_inception_4b/output_0_split -> inception_4b/output_inception_4b/output_0_split_3
I0403 13:51:06.115052 12154 net.cpp:141] Setting up inception_4b/output_inception_4b/output_0_split
I0403 13:51:06.115078 12154 net.cpp:148] Top shape: 24 512 14 14 (2408448)
I0403 13:51:06.115094 12154 net.cpp:148] Top shape: 24 512 14 14 (2408448)
I0403 13:51:06.115109 12154 net.cpp:148] Top shape: 24 512 14 14 (2408448)
I0403 13:51:06.115125 12154 net.cpp:148] Top shape: 24 512 14 14 (2408448)
I0403 13:51:06.115139 12154 net.cpp:156] Memory required for data: 1028392224
I0403 13:51:06.115154 12154 layer_factory.hpp:77] Creating layer inception_4c/1x1
I0403 13:51:06.115175 12154 net.cpp:91] Creating Layer inception_4c/1x1
I0403 13:51:06.115192 12154 net.cpp:425] inception_4c/1x1 <- inception_4b/output_inception_4b/output_0_split_0
I0403 13:51:06.115211 12154 net.cpp:399] inception_4c/1x1 -> inception_4c/1x1
I0403 13:51:06.116669 12154 net.cpp:141] Setting up inception_4c/1x1
I0403 13:51:06.116698 12154 net.cpp:148] Top shape: 24 128 14 14 (602112)
I0403 13:51:06.116714 12154 net.cpp:156] Memory required for data: 1030800672
I0403 13:51:06.116731 12154 layer_factory.hpp:77] Creating layer inception_4c/relu_1x1
I0403 13:51:06.116752 12154 net.cpp:91] Creating Layer inception_4c/relu_1x1
I0403 13:51:06.116770 12154 net.cpp:425] inception_4c/relu_1x1 <- inception_4c/1x1
I0403 13:51:06.116786 12154 net.cpp:386] inception_4c/relu_1x1 -> inception_4c/1x1 (in-place)
I0403 13:51:06.116966 12154 net.cpp:141] Setting up inception_4c/relu_1x1
I0403 13:51:06.116993 12154 net.cpp:148] Top shape: 24 128 14 14 (602112)
I0403 13:51:06.117009 12154 net.cpp:156] Memory required for data: 1033209120
I0403 13:51:06.117024 12154 layer_factory.hpp:77] Creating layer inception_4c/3x3_reduce
I0403 13:51:06.117045 12154 net.cpp:91] Creating Layer inception_4c/3x3_reduce
I0403 13:51:06.117063 12154 net.cpp:425] inception_4c/3x3_reduce <- inception_4b/output_inception_4b/output_0_split_1
I0403 13:51:06.117085 12154 net.cpp:399] inception_4c/3x3_reduce -> inception_4c/3x3_reduce
I0403 13:51:06.119011 12154 net.cpp:141] Setting up inception_4c/3x3_reduce
I0403 13:51:06.119040 12154 net.cpp:148] Top shape: 24 128 14 14 (602112)
I0403 13:51:06.119056 12154 net.cpp:156] Memory required for data: 1035617568
I0403 13:51:06.119074 12154 layer_factory.hpp:77] Creating layer inception_4c/relu_3x3_reduce
I0403 13:51:06.119091 12154 net.cpp:91] Creating Layer inception_4c/relu_3x3_reduce
I0403 13:51:06.119107 12154 net.cpp:425] inception_4c/relu_3x3_reduce <- inception_4c/3x3_reduce
I0403 13:51:06.119127 12154 net.cpp:386] inception_4c/relu_3x3_reduce -> inception_4c/3x3_reduce (in-place)
I0403 13:51:06.119412 12154 net.cpp:141] Setting up inception_4c/relu_3x3_reduce
I0403 13:51:06.119438 12154 net.cpp:148] Top shape: 24 128 14 14 (602112)
I0403 13:51:06.119453 12154 net.cpp:156] Memory required for data: 1038026016
I0403 13:51:06.119468 12154 layer_factory.hpp:77] Creating layer inception_4c/3x3
I0403 13:51:06.119491 12154 net.cpp:91] Creating Layer inception_4c/3x3
I0403 13:51:06.119513 12154 net.cpp:425] inception_4c/3x3 <- inception_4c/3x3_reduce
I0403 13:51:06.119539 12154 net.cpp:399] inception_4c/3x3 -> inception_4c/3x3
I0403 13:51:06.123157 12154 net.cpp:141] Setting up inception_4c/3x3
I0403 13:51:06.123198 12154 net.cpp:148] Top shape: 24 256 14 14 (1204224)
I0403 13:51:06.123215 12154 net.cpp:156] Memory required for data: 1042842912
I0403 13:51:06.123247 12154 layer_factory.hpp:77] Creating layer inception_4c/relu_3x3
I0403 13:51:06.123268 12154 net.cpp:91] Creating Layer inception_4c/relu_3x3
I0403 13:51:06.123288 12154 net.cpp:425] inception_4c/relu_3x3 <- inception_4c/3x3
I0403 13:51:06.123306 12154 net.cpp:386] inception_4c/relu_3x3 -> inception_4c/3x3 (in-place)
I0403 13:51:06.123483 12154 net.cpp:141] Setting up inception_4c/relu_3x3
I0403 13:51:06.123512 12154 net.cpp:148] Top shape: 24 256 14 14 (1204224)
I0403 13:51:06.123528 12154 net.cpp:156] Memory required for data: 1047659808
I0403 13:51:06.123543 12154 layer_factory.hpp:77] Creating layer inception_4c/5x5_reduce
I0403 13:51:06.123566 12154 net.cpp:91] Creating Layer inception_4c/5x5_reduce
I0403 13:51:06.123584 12154 net.cpp:425] inception_4c/5x5_reduce <- inception_4b/output_inception_4b/output_0_split_2
I0403 13:51:06.123605 12154 net.cpp:399] inception_4c/5x5_reduce -> inception_4c/5x5_reduce
I0403 13:51:06.124701 12154 net.cpp:141] Setting up inception_4c/5x5_reduce
I0403 13:51:06.124728 12154 net.cpp:148] Top shape: 24 24 14 14 (112896)
I0403 13:51:06.124744 12154 net.cpp:156] Memory required for data: 1048111392
I0403 13:51:06.124763 12154 layer_factory.hpp:77] Creating layer inception_4c/relu_5x5_reduce
I0403 13:51:06.124780 12154 net.cpp:91] Creating Layer inception_4c/relu_5x5_reduce
I0403 13:51:06.124796 12154 net.cpp:425] inception_4c/relu_5x5_reduce <- inception_4c/5x5_reduce
I0403 13:51:06.124815 12154 net.cpp:386] inception_4c/relu_5x5_reduce -> inception_4c/5x5_reduce (in-place)
I0403 13:51:06.125000 12154 net.cpp:141] Setting up inception_4c/relu_5x5_reduce
I0403 13:51:06.125025 12154 net.cpp:148] Top shape: 24 24 14 14 (112896)
I0403 13:51:06.125039 12154 net.cpp:156] Memory required for data: 1048562976
I0403 13:51:06.125054 12154 layer_factory.hpp:77] Creating layer inception_4c/5x5
I0403 13:51:06.125077 12154 net.cpp:91] Creating Layer inception_4c/5x5
I0403 13:51:06.125094 12154 net.cpp:425] inception_4c/5x5 <- inception_4c/5x5_reduce
I0403 13:51:06.125114 12154 net.cpp:399] inception_4c/5x5 -> inception_4c/5x5
I0403 13:51:06.126354 12154 net.cpp:141] Setting up inception_4c/5x5
I0403 13:51:06.126382 12154 net.cpp:148] Top shape: 24 64 14 14 (301056)
I0403 13:51:06.126397 12154 net.cpp:156] Memory required for data: 1049767200
I0403 13:51:06.126415 12154 layer_factory.hpp:77] Creating layer inception_4c/relu_5x5
I0403 13:51:06.126435 12154 net.cpp:91] Creating Layer inception_4c/relu_5x5
I0403 13:51:06.126452 12154 net.cpp:425] inception_4c/relu_5x5 <- inception_4c/5x5
I0403 13:51:06.126469 12154 net.cpp:386] inception_4c/relu_5x5 -> inception_4c/5x5 (in-place)
I0403 13:51:06.126762 12154 net.cpp:141] Setting up inception_4c/relu_5x5
I0403 13:51:06.126788 12154 net.cpp:148] Top shape: 24 64 14 14 (301056)
I0403 13:51:06.126803 12154 net.cpp:156] Memory required for data: 1050971424
I0403 13:51:06.126818 12154 layer_factory.hpp:77] Creating layer inception_4c/pool
I0403 13:51:06.126838 12154 net.cpp:91] Creating Layer inception_4c/pool
I0403 13:51:06.126855 12154 net.cpp:425] inception_4c/pool <- inception_4b/output_inception_4b/output_0_split_3
I0403 13:51:06.126873 12154 net.cpp:399] inception_4c/pool -> inception_4c/pool
I0403 13:51:06.126940 12154 net.cpp:141] Setting up inception_4c/pool
I0403 13:51:06.126963 12154 net.cpp:148] Top shape: 24 512 14 14 (2408448)
I0403 13:51:06.126977 12154 net.cpp:156] Memory required for data: 1060605216
I0403 13:51:06.126992 12154 layer_factory.hpp:77] Creating layer inception_4c/pool_proj
I0403 13:51:06.127017 12154 net.cpp:91] Creating Layer inception_4c/pool_proj
I0403 13:51:06.127034 12154 net.cpp:425] inception_4c/pool_proj <- inception_4c/pool
I0403 13:51:06.127054 12154 net.cpp:399] inception_4c/pool_proj -> inception_4c/pool_proj
I0403 13:51:06.128319 12154 net.cpp:141] Setting up inception_4c/pool_proj
I0403 13:51:06.128347 12154 net.cpp:148] Top shape: 24 64 14 14 (301056)
I0403 13:51:06.128377 12154 net.cpp:156] Memory required for data: 1061809440
I0403 13:51:06.128397 12154 layer_factory.hpp:77] Creating layer inception_4c/relu_pool_proj
I0403 13:51:06.128417 12154 net.cpp:91] Creating Layer inception_4c/relu_pool_proj
I0403 13:51:06.128437 12154 net.cpp:425] inception_4c/relu_pool_proj <- inception_4c/pool_proj
I0403 13:51:06.128454 12154 net.cpp:386] inception_4c/relu_pool_proj -> inception_4c/pool_proj (in-place)
I0403 13:51:06.128648 12154 net.cpp:141] Setting up inception_4c/relu_pool_proj
I0403 13:51:06.128674 12154 net.cpp:148] Top shape: 24 64 14 14 (301056)
I0403 13:51:06.128690 12154 net.cpp:156] Memory required for data: 1063013664
I0403 13:51:06.128705 12154 layer_factory.hpp:77] Creating layer inception_4c/output
I0403 13:51:06.128726 12154 net.cpp:91] Creating Layer inception_4c/output
I0403 13:51:06.128743 12154 net.cpp:425] inception_4c/output <- inception_4c/1x1
I0403 13:51:06.128761 12154 net.cpp:425] inception_4c/output <- inception_4c/3x3
I0403 13:51:06.128777 12154 net.cpp:425] inception_4c/output <- inception_4c/5x5
I0403 13:51:06.128793 12154 net.cpp:425] inception_4c/output <- inception_4c/pool_proj
I0403 13:51:06.128810 12154 net.cpp:399] inception_4c/output -> inception_4c/output
I0403 13:51:06.128859 12154 net.cpp:141] Setting up inception_4c/output
I0403 13:51:06.128883 12154 net.cpp:148] Top shape: 24 512 14 14 (2408448)
I0403 13:51:06.128898 12154 net.cpp:156] Memory required for data: 1072647456
I0403 13:51:06.128912 12154 layer_factory.hpp:77] Creating layer inception_4c/output_inception_4c/output_0_split
I0403 13:51:06.128931 12154 net.cpp:91] Creating Layer inception_4c/output_inception_4c/output_0_split
I0403 13:51:06.128947 12154 net.cpp:425] inception_4c/output_inception_4c/output_0_split <- inception_4c/output
I0403 13:51:06.128967 12154 net.cpp:399] inception_4c/output_inception_4c/output_0_split -> inception_4c/output_inception_4c/output_0_split_0
I0403 13:51:06.128988 12154 net.cpp:399] inception_4c/output_inception_4c/output_0_split -> inception_4c/output_inception_4c/output_0_split_1
I0403 13:51:06.129009 12154 net.cpp:399] inception_4c/output_inception_4c/output_0_split -> inception_4c/output_inception_4c/output_0_split_2
I0403 13:51:06.129029 12154 net.cpp:399] inception_4c/output_inception_4c/output_0_split -> inception_4c/output_inception_4c/output_0_split_3
I0403 13:51:06.129119 12154 net.cpp:141] Setting up inception_4c/output_inception_4c/output_0_split
I0403 13:51:06.129145 12154 net.cpp:148] Top shape: 24 512 14 14 (2408448)
I0403 13:51:06.129163 12154 net.cpp:148] Top shape: 24 512 14 14 (2408448)
I0403 13:51:06.129179 12154 net.cpp:148] Top shape: 24 512 14 14 (2408448)
I0403 13:51:06.129195 12154 net.cpp:148] Top shape: 24 512 14 14 (2408448)
I0403 13:51:06.129209 12154 net.cpp:156] Memory required for data: 1111182624
I0403 13:51:06.129223 12154 layer_factory.hpp:77] Creating layer inception_4d/1x1
I0403 13:51:06.129245 12154 net.cpp:91] Creating Layer inception_4d/1x1
I0403 13:51:06.129263 12154 net.cpp:425] inception_4d/1x1 <- inception_4c/output_inception_4c/output_0_split_0
I0403 13:51:06.129282 12154 net.cpp:399] inception_4d/1x1 -> inception_4d/1x1
I0403 13:51:06.130704 12154 net.cpp:141] Setting up inception_4d/1x1
I0403 13:51:06.130736 12154 net.cpp:148] Top shape: 24 112 14 14 (526848)
I0403 13:51:06.130753 12154 net.cpp:156] Memory required for data: 1113290016
I0403 13:51:06.130771 12154 layer_factory.hpp:77] Creating layer inception_4d/relu_1x1
I0403 13:51:06.130790 12154 net.cpp:91] Creating Layer inception_4d/relu_1x1
I0403 13:51:06.130806 12154 net.cpp:425] inception_4d/relu_1x1 <- inception_4d/1x1
I0403 13:51:06.130826 12154 net.cpp:386] inception_4d/relu_1x1 -> inception_4d/1x1 (in-place)
I0403 13:51:06.131016 12154 net.cpp:141] Setting up inception_4d/relu_1x1
I0403 13:51:06.131041 12154 net.cpp:148] Top shape: 24 112 14 14 (526848)
I0403 13:51:06.131057 12154 net.cpp:156] Memory required for data: 1115397408
I0403 13:51:06.131072 12154 layer_factory.hpp:77] Creating layer inception_4d/3x3_reduce
I0403 13:51:06.131108 12154 net.cpp:91] Creating Layer inception_4d/3x3_reduce
I0403 13:51:06.131126 12154 net.cpp:425] inception_4d/3x3_reduce <- inception_4c/output_inception_4c/output_0_split_1
I0403 13:51:06.131150 12154 net.cpp:399] inception_4d/3x3_reduce -> inception_4d/3x3_reduce
I0403 13:51:06.132702 12154 net.cpp:141] Setting up inception_4d/3x3_reduce
I0403 13:51:06.132731 12154 net.cpp:148] Top shape: 24 144 14 14 (677376)
I0403 13:51:06.132747 12154 net.cpp:156] Memory required for data: 1118106912
I0403 13:51:06.132766 12154 layer_factory.hpp:77] Creating layer inception_4d/relu_3x3_reduce
I0403 13:51:06.132786 12154 net.cpp:91] Creating Layer inception_4d/relu_3x3_reduce
I0403 13:51:06.132804 12154 net.cpp:425] inception_4d/relu_3x3_reduce <- inception_4d/3x3_reduce
I0403 13:51:06.132822 12154 net.cpp:386] inception_4d/relu_3x3_reduce -> inception_4d/3x3_reduce (in-place)
I0403 13:51:06.133119 12154 net.cpp:141] Setting up inception_4d/relu_3x3_reduce
I0403 13:51:06.133147 12154 net.cpp:148] Top shape: 24 144 14 14 (677376)
I0403 13:51:06.133162 12154 net.cpp:156] Memory required for data: 1120816416
I0403 13:51:06.133177 12154 layer_factory.hpp:77] Creating layer inception_4d/3x3
I0403 13:51:06.133199 12154 net.cpp:91] Creating Layer inception_4d/3x3
I0403 13:51:06.133218 12154 net.cpp:425] inception_4d/3x3 <- inception_4d/3x3_reduce
I0403 13:51:06.133239 12154 net.cpp:399] inception_4d/3x3 -> inception_4d/3x3
I0403 13:51:06.137636 12154 net.cpp:141] Setting up inception_4d/3x3
I0403 13:51:06.137670 12154 net.cpp:148] Top shape: 24 288 14 14 (1354752)
I0403 13:51:06.137689 12154 net.cpp:156] Memory required for data: 1126235424
I0403 13:51:06.137708 12154 layer_factory.hpp:77] Creating layer inception_4d/relu_3x3
I0403 13:51:06.137727 12154 net.cpp:91] Creating Layer inception_4d/relu_3x3
I0403 13:51:06.137742 12154 net.cpp:425] inception_4d/relu_3x3 <- inception_4d/3x3
I0403 13:51:06.137763 12154 net.cpp:386] inception_4d/relu_3x3 -> inception_4d/3x3 (in-place)
I0403 13:51:06.137951 12154 net.cpp:141] Setting up inception_4d/relu_3x3
I0403 13:51:06.137977 12154 net.cpp:148] Top shape: 24 288 14 14 (1354752)
I0403 13:51:06.137994 12154 net.cpp:156] Memory required for data: 1131654432
I0403 13:51:06.138008 12154 layer_factory.hpp:77] Creating layer inception_4d/5x5_reduce
I0403 13:51:06.138031 12154 net.cpp:91] Creating Layer inception_4d/5x5_reduce
I0403 13:51:06.138048 12154 net.cpp:425] inception_4d/5x5_reduce <- inception_4c/output_inception_4c/output_0_split_2
I0403 13:51:06.138072 12154 net.cpp:399] inception_4d/5x5_reduce -> inception_4d/5x5_reduce
I0403 13:51:06.139441 12154 net.cpp:141] Setting up inception_4d/5x5_reduce
I0403 13:51:06.139472 12154 net.cpp:148] Top shape: 24 32 14 14 (150528)
I0403 13:51:06.139490 12154 net.cpp:156] Memory required for data: 1132256544
I0403 13:51:06.139513 12154 layer_factory.hpp:77] Creating layer inception_4d/relu_5x5_reduce
I0403 13:51:06.139536 12154 net.cpp:91] Creating Layer inception_4d/relu_5x5_reduce
I0403 13:51:06.139554 12154 net.cpp:425] inception_4d/relu_5x5_reduce <- inception_4d/5x5_reduce
I0403 13:51:06.139572 12154 net.cpp:386] inception_4d/relu_5x5_reduce -> inception_4d/5x5_reduce (in-place)
I0403 13:51:06.139766 12154 net.cpp:141] Setting up inception_4d/relu_5x5_reduce
I0403 13:51:06.139792 12154 net.cpp:148] Top shape: 24 32 14 14 (150528)
I0403 13:51:06.139806 12154 net.cpp:156] Memory required for data: 1132858656
I0403 13:51:06.139822 12154 layer_factory.hpp:77] Creating layer inception_4d/5x5
I0403 13:51:06.139844 12154 net.cpp:91] Creating Layer inception_4d/5x5
I0403 13:51:06.139863 12154 net.cpp:425] inception_4d/5x5 <- inception_4d/5x5_reduce
I0403 13:51:06.139884 12154 net.cpp:399] inception_4d/5x5 -> inception_4d/5x5
I0403 13:51:06.141443 12154 net.cpp:141] Setting up inception_4d/5x5
I0403 13:51:06.141471 12154 net.cpp:148] Top shape: 24 64 14 14 (301056)
I0403 13:51:06.141487 12154 net.cpp:156] Memory required for data: 1134062880
I0403 13:51:06.141510 12154 layer_factory.hpp:77] Creating layer inception_4d/relu_5x5
I0403 13:51:06.141547 12154 net.cpp:91] Creating Layer inception_4d/relu_5x5
I0403 13:51:06.141566 12154 net.cpp:425] inception_4d/relu_5x5 <- inception_4d/5x5
I0403 13:51:06.141583 12154 net.cpp:386] inception_4d/relu_5x5 -> inception_4d/5x5 (in-place)
I0403 13:51:06.141892 12154 net.cpp:141] Setting up inception_4d/relu_5x5
I0403 13:51:06.141919 12154 net.cpp:148] Top shape: 24 64 14 14 (301056)
I0403 13:51:06.141935 12154 net.cpp:156] Memory required for data: 1135267104
I0403 13:51:06.141950 12154 layer_factory.hpp:77] Creating layer inception_4d/pool
I0403 13:51:06.141968 12154 net.cpp:91] Creating Layer inception_4d/pool
I0403 13:51:06.141984 12154 net.cpp:425] inception_4d/pool <- inception_4c/output_inception_4c/output_0_split_3
I0403 13:51:06.142004 12154 net.cpp:399] inception_4d/pool -> inception_4d/pool
I0403 13:51:06.142074 12154 net.cpp:141] Setting up inception_4d/pool
I0403 13:51:06.142099 12154 net.cpp:148] Top shape: 24 512 14 14 (2408448)
I0403 13:51:06.142115 12154 net.cpp:156] Memory required for data: 1144900896
I0403 13:51:06.142129 12154 layer_factory.hpp:77] Creating layer inception_4d/pool_proj
I0403 13:51:06.142154 12154 net.cpp:91] Creating Layer inception_4d/pool_proj
I0403 13:51:06.142173 12154 net.cpp:425] inception_4d/pool_proj <- inception_4d/pool
I0403 13:51:06.142194 12154 net.cpp:399] inception_4d/pool_proj -> inception_4d/pool_proj
I0403 13:51:06.143999 12154 net.cpp:141] Setting up inception_4d/pool_proj
I0403 13:51:06.144032 12154 net.cpp:148] Top shape: 24 64 14 14 (301056)
I0403 13:51:06.144048 12154 net.cpp:156] Memory required for data: 1146105120
I0403 13:51:06.144068 12154 layer_factory.hpp:77] Creating layer inception_4d/relu_pool_proj
I0403 13:51:06.144086 12154 net.cpp:91] Creating Layer inception_4d/relu_pool_proj
I0403 13:51:06.144103 12154 net.cpp:425] inception_4d/relu_pool_proj <- inception_4d/pool_proj
I0403 13:51:06.144122 12154 net.cpp:386] inception_4d/relu_pool_proj -> inception_4d/pool_proj (in-place)
I0403 13:51:06.144315 12154 net.cpp:141] Setting up inception_4d/relu_pool_proj
I0403 13:51:06.144341 12154 net.cpp:148] Top shape: 24 64 14 14 (301056)
I0403 13:51:06.144357 12154 net.cpp:156] Memory required for data: 1147309344
I0403 13:51:06.144372 12154 layer_factory.hpp:77] Creating layer inception_4d/output
I0403 13:51:06.144389 12154 net.cpp:91] Creating Layer inception_4d/output
I0403 13:51:06.144405 12154 net.cpp:425] inception_4d/output <- inception_4d/1x1
I0403 13:51:06.144423 12154 net.cpp:425] inception_4d/output <- inception_4d/3x3
I0403 13:51:06.144438 12154 net.cpp:425] inception_4d/output <- inception_4d/5x5
I0403 13:51:06.144455 12154 net.cpp:425] inception_4d/output <- inception_4d/pool_proj
I0403 13:51:06.144474 12154 net.cpp:399] inception_4d/output -> inception_4d/output
I0403 13:51:06.144533 12154 net.cpp:141] Setting up inception_4d/output
I0403 13:51:06.144561 12154 net.cpp:148] Top shape: 24 528 14 14 (2483712)
I0403 13:51:06.144577 12154 net.cpp:156] Memory required for data: 1157244192
I0403 13:51:06.144593 12154 layer_factory.hpp:77] Creating layer inception_4d/output_inception_4d/output_0_split
I0403 13:51:06.144610 12154 net.cpp:91] Creating Layer inception_4d/output_inception_4d/output_0_split
I0403 13:51:06.144626 12154 net.cpp:425] inception_4d/output_inception_4d/output_0_split <- inception_4d/output
I0403 13:51:06.144646 12154 net.cpp:399] inception_4d/output_inception_4d/output_0_split -> inception_4d/output_inception_4d/output_0_split_0
I0403 13:51:06.144668 12154 net.cpp:399] inception_4d/output_inception_4d/output_0_split -> inception_4d/output_inception_4d/output_0_split_1
I0403 13:51:06.144690 12154 net.cpp:399] inception_4d/output_inception_4d/output_0_split -> inception_4d/output_inception_4d/output_0_split_2
I0403 13:51:06.144711 12154 net.cpp:399] inception_4d/output_inception_4d/output_0_split -> inception_4d/output_inception_4d/output_0_split_3
I0403 13:51:06.144731 12154 net.cpp:399] inception_4d/output_inception_4d/output_0_split -> inception_4d/output_inception_4d/output_0_split_4
I0403 13:51:06.144835 12154 net.cpp:141] Setting up inception_4d/output_inception_4d/output_0_split
I0403 13:51:06.144872 12154 net.cpp:148] Top shape: 24 528 14 14 (2483712)
I0403 13:51:06.144889 12154 net.cpp:148] Top shape: 24 528 14 14 (2483712)
I0403 13:51:06.144906 12154 net.cpp:148] Top shape: 24 528 14 14 (2483712)
I0403 13:51:06.144922 12154 net.cpp:148] Top shape: 24 528 14 14 (2483712)
I0403 13:51:06.144937 12154 net.cpp:148] Top shape: 24 528 14 14 (2483712)
I0403 13:51:06.144951 12154 net.cpp:156] Memory required for data: 1206918432
I0403 13:51:06.144965 12154 layer_factory.hpp:77] Creating layer loss2/ave_pool
I0403 13:51:06.144986 12154 net.cpp:91] Creating Layer loss2/ave_pool
I0403 13:51:06.145004 12154 net.cpp:425] loss2/ave_pool <- inception_4d/output_inception_4d/output_0_split_0
I0403 13:51:06.145025 12154 net.cpp:399] loss2/ave_pool -> loss2/ave_pool
I0403 13:51:06.145344 12154 net.cpp:141] Setting up loss2/ave_pool
I0403 13:51:06.145372 12154 net.cpp:148] Top shape: 24 528 4 4 (202752)
I0403 13:51:06.145388 12154 net.cpp:156] Memory required for data: 1207729440
I0403 13:51:06.145403 12154 layer_factory.hpp:77] Creating layer loss2/conv
I0403 13:51:06.145426 12154 net.cpp:91] Creating Layer loss2/conv
I0403 13:51:06.145444 12154 net.cpp:425] loss2/conv <- loss2/ave_pool
I0403 13:51:06.145465 12154 net.cpp:399] loss2/conv -> loss2/conv
I0403 13:51:06.147394 12154 net.cpp:141] Setting up loss2/conv
I0403 13:51:06.147423 12154 net.cpp:148] Top shape: 24 128 4 4 (49152)
I0403 13:51:06.147439 12154 net.cpp:156] Memory required for data: 1207926048
I0403 13:51:06.147456 12154 layer_factory.hpp:77] Creating layer loss2/relu_conv
I0403 13:51:06.147477 12154 net.cpp:91] Creating Layer loss2/relu_conv
I0403 13:51:06.147495 12154 net.cpp:425] loss2/relu_conv <- loss2/conv
I0403 13:51:06.147516 12154 net.cpp:386] loss2/relu_conv -> loss2/conv (in-place)
I0403 13:51:06.147802 12154 net.cpp:141] Setting up loss2/relu_conv
I0403 13:51:06.147830 12154 net.cpp:148] Top shape: 24 128 4 4 (49152)
I0403 13:51:06.147846 12154 net.cpp:156] Memory required for data: 1208122656
I0403 13:51:06.147861 12154 layer_factory.hpp:77] Creating layer loss2/fc
I0403 13:51:06.147882 12154 net.cpp:91] Creating Layer loss2/fc
I0403 13:51:06.147907 12154 net.cpp:425] loss2/fc <- loss2/conv
I0403 13:51:06.147925 12154 net.cpp:399] loss2/fc -> loss2/fc
I0403 13:51:06.165391 12154 net.cpp:141] Setting up loss2/fc
I0403 13:51:06.165438 12154 net.cpp:148] Top shape: 24 1024 (24576)
I0403 13:51:06.165453 12154 net.cpp:156] Memory required for data: 1208220960
I0403 13:51:06.165472 12154 layer_factory.hpp:77] Creating layer loss2/relu_fc
I0403 13:51:06.165490 12154 net.cpp:91] Creating Layer loss2/relu_fc
I0403 13:51:06.165510 12154 net.cpp:425] loss2/relu_fc <- loss2/fc
I0403 13:51:06.165530 12154 net.cpp:386] loss2/relu_fc -> loss2/fc (in-place)
I0403 13:51:06.165858 12154 net.cpp:141] Setting up loss2/relu_fc
I0403 13:51:06.165897 12154 net.cpp:148] Top shape: 24 1024 (24576)
I0403 13:51:06.165915 12154 net.cpp:156] Memory required for data: 1208319264
I0403 13:51:06.165931 12154 layer_factory.hpp:77] Creating layer loss2/drop_fc
I0403 13:51:06.165951 12154 net.cpp:91] Creating Layer loss2/drop_fc
I0403 13:51:06.165966 12154 net.cpp:425] loss2/drop_fc <- loss2/fc
I0403 13:51:06.165987 12154 net.cpp:386] loss2/drop_fc -> loss2/fc (in-place)
I0403 13:51:06.166036 12154 net.cpp:141] Setting up loss2/drop_fc
I0403 13:51:06.166059 12154 net.cpp:148] Top shape: 24 1024 (24576)
I0403 13:51:06.166074 12154 net.cpp:156] Memory required for data: 1208417568
I0403 13:51:06.166088 12154 layer_factory.hpp:77] Creating layer loss2/classifier_plantvillage
I0403 13:51:06.166110 12154 net.cpp:91] Creating Layer loss2/classifier_plantvillage
I0403 13:51:06.166126 12154 net.cpp:425] loss2/classifier_plantvillage <- loss2/fc
I0403 13:51:06.166146 12154 net.cpp:399] loss2/classifier_plantvillage -> loss2/classifier_plantvillage
I0403 13:51:06.166568 12154 net.cpp:141] Setting up loss2/classifier_plantvillage
I0403 13:51:06.166592 12154 net.cpp:148] Top shape: 24 38 (912)
I0403 13:51:06.166633 12154 net.cpp:156] Memory required for data: 1208421216
I0403 13:51:06.166652 12154 layer_factory.hpp:77] Creating layer loss2/classifier_plantvillage_loss2/classifier_plantvillage_0_split
I0403 13:51:06.166672 12154 net.cpp:91] Creating Layer loss2/classifier_plantvillage_loss2/classifier_plantvillage_0_split
I0403 13:51:06.166688 12154 net.cpp:425] loss2/classifier_plantvillage_loss2/classifier_plantvillage_0_split <- loss2/classifier_plantvillage
I0403 13:51:06.166705 12154 net.cpp:399] loss2/classifier_plantvillage_loss2/classifier_plantvillage_0_split -> loss2/classifier_plantvillage_loss2/classifier_plantvillage_0_split_0
I0403 13:51:06.166725 12154 net.cpp:399] loss2/classifier_plantvillage_loss2/classifier_plantvillage_0_split -> loss2/classifier_plantvillage_loss2/classifier_plantvillage_0_split_1
I0403 13:51:06.166745 12154 net.cpp:399] loss2/classifier_plantvillage_loss2/classifier_plantvillage_0_split -> loss2/classifier_plantvillage_loss2/classifier_plantvillage_0_split_2
I0403 13:51:06.166822 12154 net.cpp:141] Setting up loss2/classifier_plantvillage_loss2/classifier_plantvillage_0_split
I0403 13:51:06.166846 12154 net.cpp:148] Top shape: 24 38 (912)
I0403 13:51:06.166860 12154 net.cpp:148] Top shape: 24 38 (912)
I0403 13:51:06.166875 12154 net.cpp:148] Top shape: 24 38 (912)
I0403 13:51:06.166889 12154 net.cpp:156] Memory required for data: 1208432160
I0403 13:51:06.166903 12154 layer_factory.hpp:77] Creating layer inception_4e/1x1
I0403 13:51:06.166923 12154 net.cpp:91] Creating Layer inception_4e/1x1
I0403 13:51:06.166940 12154 net.cpp:425] inception_4e/1x1 <- inception_4d/output_inception_4d/output_0_split_1
I0403 13:51:06.166960 12154 net.cpp:399] inception_4e/1x1 -> inception_4e/1x1
I0403 13:51:06.168807 12154 net.cpp:141] Setting up inception_4e/1x1
I0403 13:51:06.168834 12154 net.cpp:148] Top shape: 24 256 14 14 (1204224)
I0403 13:51:06.168849 12154 net.cpp:156] Memory required for data: 1213249056
I0403 13:51:06.168867 12154 layer_factory.hpp:77] Creating layer inception_4e/relu_1x1
I0403 13:51:06.168886 12154 net.cpp:91] Creating Layer inception_4e/relu_1x1
I0403 13:51:06.168903 12154 net.cpp:425] inception_4e/relu_1x1 <- inception_4e/1x1
I0403 13:51:06.168920 12154 net.cpp:386] inception_4e/relu_1x1 -> inception_4e/1x1 (in-place)
I0403 13:51:06.169225 12154 net.cpp:141] Setting up inception_4e/relu_1x1
I0403 13:51:06.169252 12154 net.cpp:148] Top shape: 24 256 14 14 (1204224)
I0403 13:51:06.169270 12154 net.cpp:156] Memory required for data: 1218065952
I0403 13:51:06.169286 12154 layer_factory.hpp:77] Creating layer inception_4e/3x3_reduce
I0403 13:51:06.169307 12154 net.cpp:91] Creating Layer inception_4e/3x3_reduce
I0403 13:51:06.169324 12154 net.cpp:425] inception_4e/3x3_reduce <- inception_4d/output_inception_4d/output_0_split_2
I0403 13:51:06.169348 12154 net.cpp:399] inception_4e/3x3_reduce -> inception_4e/3x3_reduce
I0403 13:51:06.171476 12154 net.cpp:141] Setting up inception_4e/3x3_reduce
I0403 13:51:06.171507 12154 net.cpp:148] Top shape: 24 160 14 14 (752640)
I0403 13:51:06.171525 12154 net.cpp:156] Memory required for data: 1221076512
I0403 13:51:06.171542 12154 layer_factory.hpp:77] Creating layer inception_4e/relu_3x3_reduce
I0403 13:51:06.171562 12154 net.cpp:91] Creating Layer inception_4e/relu_3x3_reduce
I0403 13:51:06.171578 12154 net.cpp:425] inception_4e/relu_3x3_reduce <- inception_4e/3x3_reduce
I0403 13:51:06.171596 12154 net.cpp:386] inception_4e/relu_3x3_reduce -> inception_4e/3x3_reduce (in-place)
I0403 13:51:06.171778 12154 net.cpp:141] Setting up inception_4e/relu_3x3_reduce
I0403 13:51:06.171802 12154 net.cpp:148] Top shape: 24 160 14 14 (752640)
I0403 13:51:06.171818 12154 net.cpp:156] Memory required for data: 1224087072
I0403 13:51:06.171831 12154 layer_factory.hpp:77] Creating layer inception_4e/3x3
I0403 13:51:06.171852 12154 net.cpp:91] Creating Layer inception_4e/3x3
I0403 13:51:06.171871 12154 net.cpp:425] inception_4e/3x3 <- inception_4e/3x3_reduce
I0403 13:51:06.171890 12154 net.cpp:399] inception_4e/3x3 -> inception_4e/3x3
I0403 13:51:06.177222 12154 net.cpp:141] Setting up inception_4e/3x3
I0403 13:51:06.177263 12154 net.cpp:148] Top shape: 24 320 14 14 (1505280)
I0403 13:51:06.177279 12154 net.cpp:156] Memory required for data: 1230108192
I0403 13:51:06.177299 12154 layer_factory.hpp:77] Creating layer inception_4e/relu_3x3
I0403 13:51:06.177319 12154 net.cpp:91] Creating Layer inception_4e/relu_3x3
I0403 13:51:06.177341 12154 net.cpp:425] inception_4e/relu_3x3 <- inception_4e/3x3
I0403 13:51:06.177357 12154 net.cpp:386] inception_4e/relu_3x3 -> inception_4e/3x3 (in-place)
I0403 13:51:06.177690 12154 net.cpp:141] Setting up inception_4e/relu_3x3
I0403 13:51:06.177719 12154 net.cpp:148] Top shape: 24 320 14 14 (1505280)
I0403 13:51:06.177736 12154 net.cpp:156] Memory required for data: 1236129312
I0403 13:51:06.177752 12154 layer_factory.hpp:77] Creating layer inception_4e/5x5_reduce
I0403 13:51:06.177777 12154 net.cpp:91] Creating Layer inception_4e/5x5_reduce
I0403 13:51:06.177794 12154 net.cpp:425] inception_4e/5x5_reduce <- inception_4d/output_inception_4d/output_0_split_3
I0403 13:51:06.177825 12154 net.cpp:399] inception_4e/5x5_reduce -> inception_4e/5x5_reduce
I0403 13:51:06.178974 12154 net.cpp:141] Setting up inception_4e/5x5_reduce
I0403 13:51:06.179002 12154 net.cpp:148] Top shape: 24 32 14 14 (150528)
I0403 13:51:06.179018 12154 net.cpp:156] Memory required for data: 1236731424
I0403 13:51:06.179034 12154 layer_factory.hpp:77] Creating layer inception_4e/relu_5x5_reduce
I0403 13:51:06.179054 12154 net.cpp:91] Creating Layer inception_4e/relu_5x5_reduce
I0403 13:51:06.179070 12154 net.cpp:425] inception_4e/relu_5x5_reduce <- inception_4e/5x5_reduce
I0403 13:51:06.179087 12154 net.cpp:386] inception_4e/relu_5x5_reduce -> inception_4e/5x5_reduce (in-place)
I0403 13:51:06.179378 12154 net.cpp:141] Setting up inception_4e/relu_5x5_reduce
I0403 13:51:06.179404 12154 net.cpp:148] Top shape: 24 32 14 14 (150528)
I0403 13:51:06.179419 12154 net.cpp:156] Memory required for data: 1237333536
I0403 13:51:06.179433 12154 layer_factory.hpp:77] Creating layer inception_4e/5x5
I0403 13:51:06.179469 12154 net.cpp:91] Creating Layer inception_4e/5x5
I0403 13:51:06.179488 12154 net.cpp:425] inception_4e/5x5 <- inception_4e/5x5_reduce
I0403 13:51:06.179510 12154 net.cpp:399] inception_4e/5x5 -> inception_4e/5x5
I0403 13:51:06.181457 12154 net.cpp:141] Setting up inception_4e/5x5
I0403 13:51:06.181483 12154 net.cpp:148] Top shape: 24 128 14 14 (602112)
I0403 13:51:06.181499 12154 net.cpp:156] Memory required for data: 1239741984
I0403 13:51:06.181534 12154 layer_factory.hpp:77] Creating layer inception_4e/relu_5x5
I0403 13:51:06.181552 12154 net.cpp:91] Creating Layer inception_4e/relu_5x5
I0403 13:51:06.181568 12154 net.cpp:425] inception_4e/relu_5x5 <- inception_4e/5x5
I0403 13:51:06.181599 12154 net.cpp:386] inception_4e/relu_5x5 -> inception_4e/5x5 (in-place)
I0403 13:51:06.181818 12154 net.cpp:141] Setting up inception_4e/relu_5x5
I0403 13:51:06.181844 12154 net.cpp:148] Top shape: 24 128 14 14 (602112)
I0403 13:51:06.181859 12154 net.cpp:156] Memory required for data: 1242150432
I0403 13:51:06.181874 12154 layer_factory.hpp:77] Creating layer inception_4e/pool
I0403 13:51:06.181895 12154 net.cpp:91] Creating Layer inception_4e/pool
I0403 13:51:06.181911 12154 net.cpp:425] inception_4e/pool <- inception_4d/output_inception_4d/output_0_split_4
I0403 13:51:06.181928 12154 net.cpp:399] inception_4e/pool -> inception_4e/pool
I0403 13:51:06.181998 12154 net.cpp:141] Setting up inception_4e/pool
I0403 13:51:06.182023 12154 net.cpp:148] Top shape: 24 528 14 14 (2483712)
I0403 13:51:06.182037 12154 net.cpp:156] Memory required for data: 1252085280
I0403 13:51:06.182051 12154 layer_factory.hpp:77] Creating layer inception_4e/pool_proj
I0403 13:51:06.182075 12154 net.cpp:91] Creating Layer inception_4e/pool_proj
I0403 13:51:06.182091 12154 net.cpp:425] inception_4e/pool_proj <- inception_4e/pool
I0403 13:51:06.182112 12154 net.cpp:399] inception_4e/pool_proj -> inception_4e/pool_proj
I0403 13:51:06.183748 12154 net.cpp:141] Setting up inception_4e/pool_proj
I0403 13:51:06.183791 12154 net.cpp:148] Top shape: 24 128 14 14 (602112)
I0403 13:51:06.183809 12154 net.cpp:156] Memory required for data: 1254493728
I0403 13:51:06.183841 12154 layer_factory.hpp:77] Creating layer inception_4e/relu_pool_proj
I0403 13:51:06.183858 12154 net.cpp:91] Creating Layer inception_4e/relu_pool_proj
I0403 13:51:06.183874 12154 net.cpp:425] inception_4e/relu_pool_proj <- inception_4e/pool_proj
I0403 13:51:06.183904 12154 net.cpp:386] inception_4e/relu_pool_proj -> inception_4e/pool_proj (in-place)
I0403 13:51:06.184204 12154 net.cpp:141] Setting up inception_4e/relu_pool_proj
I0403 13:51:06.184232 12154 net.cpp:148] Top shape: 24 128 14 14 (602112)
I0403 13:51:06.184247 12154 net.cpp:156] Memory required for data: 1256902176
I0403 13:51:06.184262 12154 layer_factory.hpp:77] Creating layer inception_4e/output
I0403 13:51:06.184279 12154 net.cpp:91] Creating Layer inception_4e/output
I0403 13:51:06.184296 12154 net.cpp:425] inception_4e/output <- inception_4e/1x1
I0403 13:51:06.184312 12154 net.cpp:425] inception_4e/output <- inception_4e/3x3
I0403 13:51:06.184329 12154 net.cpp:425] inception_4e/output <- inception_4e/5x5
I0403 13:51:06.184345 12154 net.cpp:425] inception_4e/output <- inception_4e/pool_proj
I0403 13:51:06.184361 12154 net.cpp:399] inception_4e/output -> inception_4e/output
I0403 13:51:06.184413 12154 net.cpp:141] Setting up inception_4e/output
I0403 13:51:06.184437 12154 net.cpp:148] Top shape: 24 832 14 14 (3913728)
I0403 13:51:06.184453 12154 net.cpp:156] Memory required for data: 1272557088
I0403 13:51:06.184466 12154 layer_factory.hpp:77] Creating layer pool4/3x3_s2
I0403 13:51:06.184486 12154 net.cpp:91] Creating Layer pool4/3x3_s2
I0403 13:51:06.184504 12154 net.cpp:425] pool4/3x3_s2 <- inception_4e/output
I0403 13:51:06.184546 12154 net.cpp:399] pool4/3x3_s2 -> pool4/3x3_s2
I0403 13:51:06.184633 12154 net.cpp:141] Setting up pool4/3x3_s2
I0403 13:51:06.184659 12154 net.cpp:148] Top shape: 24 832 7 7 (978432)
I0403 13:51:06.184674 12154 net.cpp:156] Memory required for data: 1276470816
I0403 13:51:06.184689 12154 layer_factory.hpp:77] Creating layer pool4/3x3_s2_pool4/3x3_s2_0_split
I0403 13:51:06.184707 12154 net.cpp:91] Creating Layer pool4/3x3_s2_pool4/3x3_s2_0_split
I0403 13:51:06.184723 12154 net.cpp:425] pool4/3x3_s2_pool4/3x3_s2_0_split <- pool4/3x3_s2
I0403 13:51:06.184744 12154 net.cpp:399] pool4/3x3_s2_pool4/3x3_s2_0_split -> pool4/3x3_s2_pool4/3x3_s2_0_split_0
I0403 13:51:06.184767 12154 net.cpp:399] pool4/3x3_s2_pool4/3x3_s2_0_split -> pool4/3x3_s2_pool4/3x3_s2_0_split_1
I0403 13:51:06.184787 12154 net.cpp:399] pool4/3x3_s2_pool4/3x3_s2_0_split -> pool4/3x3_s2_pool4/3x3_s2_0_split_2
I0403 13:51:06.184808 12154 net.cpp:399] pool4/3x3_s2_pool4/3x3_s2_0_split -> pool4/3x3_s2_pool4/3x3_s2_0_split_3
I0403 13:51:06.184926 12154 net.cpp:141] Setting up pool4/3x3_s2_pool4/3x3_s2_0_split
I0403 13:51:06.184953 12154 net.cpp:148] Top shape: 24 832 7 7 (978432)
I0403 13:51:06.184972 12154 net.cpp:148] Top shape: 24 832 7 7 (978432)
I0403 13:51:06.184986 12154 net.cpp:148] Top shape: 24 832 7 7 (978432)
I0403 13:51:06.185001 12154 net.cpp:148] Top shape: 24 832 7 7 (978432)
I0403 13:51:06.185015 12154 net.cpp:156] Memory required for data: 1292125728
I0403 13:51:06.185030 12154 layer_factory.hpp:77] Creating layer inception_5a/1x1
I0403 13:51:06.185065 12154 net.cpp:91] Creating Layer inception_5a/1x1
I0403 13:51:06.185081 12154 net.cpp:425] inception_5a/1x1 <- pool4/3x3_s2_pool4/3x3_s2_0_split_0
I0403 13:51:06.185104 12154 net.cpp:399] inception_5a/1x1 -> inception_5a/1x1
I0403 13:51:06.188211 12154 net.cpp:141] Setting up inception_5a/1x1
I0403 13:51:06.188241 12154 net.cpp:148] Top shape: 24 256 7 7 (301056)
I0403 13:51:06.188257 12154 net.cpp:156] Memory required for data: 1293329952
I0403 13:51:06.188276 12154 layer_factory.hpp:77] Creating layer inception_5a/relu_1x1
I0403 13:51:06.188297 12154 net.cpp:91] Creating Layer inception_5a/relu_1x1
I0403 13:51:06.188314 12154 net.cpp:425] inception_5a/relu_1x1 <- inception_5a/1x1
I0403 13:51:06.188331 12154 net.cpp:386] inception_5a/relu_1x1 -> inception_5a/1x1 (in-place)
I0403 13:51:06.188679 12154 net.cpp:141] Setting up inception_5a/relu_1x1
I0403 13:51:06.188707 12154 net.cpp:148] Top shape: 24 256 7 7 (301056)
I0403 13:51:06.188724 12154 net.cpp:156] Memory required for data: 1294534176
I0403 13:51:06.188741 12154 layer_factory.hpp:77] Creating layer inception_5a/3x3_reduce
I0403 13:51:06.188766 12154 net.cpp:91] Creating Layer inception_5a/3x3_reduce
I0403 13:51:06.188784 12154 net.cpp:425] inception_5a/3x3_reduce <- pool4/3x3_s2_pool4/3x3_s2_0_split_1
I0403 13:51:06.188807 12154 net.cpp:399] inception_5a/3x3_reduce -> inception_5a/3x3_reduce
I0403 13:51:06.191437 12154 net.cpp:141] Setting up inception_5a/3x3_reduce
I0403 13:51:06.191468 12154 net.cpp:148] Top shape: 24 160 7 7 (188160)
I0403 13:51:06.191485 12154 net.cpp:156] Memory required for data: 1295286816
I0403 13:51:06.191504 12154 layer_factory.hpp:77] Creating layer inception_5a/relu_3x3_reduce
I0403 13:51:06.191540 12154 net.cpp:91] Creating Layer inception_5a/relu_3x3_reduce
I0403 13:51:06.191556 12154 net.cpp:425] inception_5a/relu_3x3_reduce <- inception_5a/3x3_reduce
I0403 13:51:06.191575 12154 net.cpp:386] inception_5a/relu_3x3_reduce -> inception_5a/3x3_reduce (in-place)
I0403 13:51:06.191787 12154 net.cpp:141] Setting up inception_5a/relu_3x3_reduce
I0403 13:51:06.191825 12154 net.cpp:148] Top shape: 24 160 7 7 (188160)
I0403 13:51:06.191841 12154 net.cpp:156] Memory required for data: 1296039456
I0403 13:51:06.191856 12154 layer_factory.hpp:77] Creating layer inception_5a/3x3
I0403 13:51:06.191890 12154 net.cpp:91] Creating Layer inception_5a/3x3
I0403 13:51:06.191907 12154 net.cpp:425] inception_5a/3x3 <- inception_5a/3x3_reduce
I0403 13:51:06.191928 12154 net.cpp:399] inception_5a/3x3 -> inception_5a/3x3
I0403 13:51:06.197394 12154 net.cpp:141] Setting up inception_5a/3x3
I0403 13:51:06.197424 12154 net.cpp:148] Top shape: 24 320 7 7 (376320)
I0403 13:51:06.197439 12154 net.cpp:156] Memory required for data: 1297544736
I0403 13:51:06.197458 12154 layer_factory.hpp:77] Creating layer inception_5a/relu_3x3
I0403 13:51:06.197476 12154 net.cpp:91] Creating Layer inception_5a/relu_3x3
I0403 13:51:06.197492 12154 net.cpp:425] inception_5a/relu_3x3 <- inception_5a/3x3
I0403 13:51:06.197516 12154 net.cpp:386] inception_5a/relu_3x3 -> inception_5a/3x3 (in-place)
I0403 13:51:06.197818 12154 net.cpp:141] Setting up inception_5a/relu_3x3
I0403 13:51:06.197845 12154 net.cpp:148] Top shape: 24 320 7 7 (376320)
I0403 13:51:06.197860 12154 net.cpp:156] Memory required for data: 1299050016
I0403 13:51:06.197875 12154 layer_factory.hpp:77] Creating layer inception_5a/5x5_reduce
I0403 13:51:06.197897 12154 net.cpp:91] Creating Layer inception_5a/5x5_reduce
I0403 13:51:06.197914 12154 net.cpp:425] inception_5a/5x5_reduce <- pool4/3x3_s2_pool4/3x3_s2_0_split_2
I0403 13:51:06.197935 12154 net.cpp:399] inception_5a/5x5_reduce -> inception_5a/5x5_reduce
I0403 13:51:06.199151 12154 net.cpp:141] Setting up inception_5a/5x5_reduce
I0403 13:51:06.199178 12154 net.cpp:148] Top shape: 24 32 7 7 (37632)
I0403 13:51:06.199194 12154 net.cpp:156] Memory required for data: 1299200544
I0403 13:51:06.199213 12154 layer_factory.hpp:77] Creating layer inception_5a/relu_5x5_reduce
I0403 13:51:06.199232 12154 net.cpp:91] Creating Layer inception_5a/relu_5x5_reduce
I0403 13:51:06.199250 12154 net.cpp:425] inception_5a/relu_5x5_reduce <- inception_5a/5x5_reduce
I0403 13:51:06.199268 12154 net.cpp:386] inception_5a/relu_5x5_reduce -> inception_5a/5x5_reduce (in-place)
I0403 13:51:06.199575 12154 net.cpp:141] Setting up inception_5a/relu_5x5_reduce
I0403 13:51:06.199602 12154 net.cpp:148] Top shape: 24 32 7 7 (37632)
I0403 13:51:06.199617 12154 net.cpp:156] Memory required for data: 1299351072
I0403 13:51:06.199632 12154 layer_factory.hpp:77] Creating layer inception_5a/5x5
I0403 13:51:06.199654 12154 net.cpp:91] Creating Layer inception_5a/5x5
I0403 13:51:06.199672 12154 net.cpp:425] inception_5a/5x5 <- inception_5a/5x5_reduce
I0403 13:51:06.199693 12154 net.cpp:399] inception_5a/5x5 -> inception_5a/5x5
I0403 13:51:06.201467 12154 net.cpp:141] Setting up inception_5a/5x5
I0403 13:51:06.201514 12154 net.cpp:148] Top shape: 24 128 7 7 (150528)
I0403 13:51:06.201542 12154 net.cpp:156] Memory required for data: 1299953184
I0403 13:51:06.201561 12154 layer_factory.hpp:77] Creating layer inception_5a/relu_5x5
I0403 13:51:06.201581 12154 net.cpp:91] Creating Layer inception_5a/relu_5x5
I0403 13:51:06.201597 12154 net.cpp:425] inception_5a/relu_5x5 <- inception_5a/5x5
I0403 13:51:06.201617 12154 net.cpp:386] inception_5a/relu_5x5 -> inception_5a/5x5 (in-place)
I0403 13:51:06.201819 12154 net.cpp:141] Setting up inception_5a/relu_5x5
I0403 13:51:06.201845 12154 net.cpp:148] Top shape: 24 128 7 7 (150528)
I0403 13:51:06.201861 12154 net.cpp:156] Memory required for data: 1300555296
I0403 13:51:06.201876 12154 layer_factory.hpp:77] Creating layer inception_5a/pool
I0403 13:51:06.201897 12154 net.cpp:91] Creating Layer inception_5a/pool
I0403 13:51:06.201915 12154 net.cpp:425] inception_5a/pool <- pool4/3x3_s2_pool4/3x3_s2_0_split_3
I0403 13:51:06.201933 12154 net.cpp:399] inception_5a/pool -> inception_5a/pool
I0403 13:51:06.202018 12154 net.cpp:141] Setting up inception_5a/pool
I0403 13:51:06.202041 12154 net.cpp:148] Top shape: 24 832 7 7 (978432)
I0403 13:51:06.202055 12154 net.cpp:156] Memory required for data: 1304469024
I0403 13:51:06.202070 12154 layer_factory.hpp:77] Creating layer inception_5a/pool_proj
I0403 13:51:06.202092 12154 net.cpp:91] Creating Layer inception_5a/pool_proj
I0403 13:51:06.202111 12154 net.cpp:425] inception_5a/pool_proj <- inception_5a/pool
I0403 13:51:06.202131 12154 net.cpp:399] inception_5a/pool_proj -> inception_5a/pool_proj
I0403 13:51:06.204432 12154 net.cpp:141] Setting up inception_5a/pool_proj
I0403 13:51:06.204463 12154 net.cpp:148] Top shape: 24 128 7 7 (150528)
I0403 13:51:06.204479 12154 net.cpp:156] Memory required for data: 1305071136
I0403 13:51:06.204499 12154 layer_factory.hpp:77] Creating layer inception_5a/relu_pool_proj
I0403 13:51:06.204529 12154 net.cpp:91] Creating Layer inception_5a/relu_pool_proj
I0403 13:51:06.204546 12154 net.cpp:425] inception_5a/relu_pool_proj <- inception_5a/pool_proj
I0403 13:51:06.204566 12154 net.cpp:386] inception_5a/relu_pool_proj -> inception_5a/pool_proj (in-place)
I0403 13:51:06.204871 12154 net.cpp:141] Setting up inception_5a/relu_pool_proj
I0403 13:51:06.204900 12154 net.cpp:148] Top shape: 24 128 7 7 (150528)
I0403 13:51:06.204916 12154 net.cpp:156] Memory required for data: 1305673248
I0403 13:51:06.204931 12154 layer_factory.hpp:77] Creating layer inception_5a/output
I0403 13:51:06.204947 12154 net.cpp:91] Creating Layer inception_5a/output
I0403 13:51:06.204962 12154 net.cpp:425] inception_5a/output <- inception_5a/1x1
I0403 13:51:06.204979 12154 net.cpp:425] inception_5a/output <- inception_5a/3x3
I0403 13:51:06.204995 12154 net.cpp:425] inception_5a/output <- inception_5a/5x5
I0403 13:51:06.205011 12154 net.cpp:425] inception_5a/output <- inception_5a/pool_proj
I0403 13:51:06.205030 12154 net.cpp:399] inception_5a/output -> inception_5a/output
I0403 13:51:06.205080 12154 net.cpp:141] Setting up inception_5a/output
I0403 13:51:06.205104 12154 net.cpp:148] Top shape: 24 832 7 7 (978432)
I0403 13:51:06.205119 12154 net.cpp:156] Memory required for data: 1309586976
I0403 13:51:06.205133 12154 layer_factory.hpp:77] Creating layer inception_5a/output_inception_5a/output_0_split
I0403 13:51:06.205154 12154 net.cpp:91] Creating Layer inception_5a/output_inception_5a/output_0_split
I0403 13:51:06.205171 12154 net.cpp:425] inception_5a/output_inception_5a/output_0_split <- inception_5a/output
I0403 13:51:06.205188 12154 net.cpp:399] inception_5a/output_inception_5a/output_0_split -> inception_5a/output_inception_5a/output_0_split_0
I0403 13:51:06.205209 12154 net.cpp:399] inception_5a/output_inception_5a/output_0_split -> inception_5a/output_inception_5a/output_0_split_1
I0403 13:51:06.205231 12154 net.cpp:399] inception_5a/output_inception_5a/output_0_split -> inception_5a/output_inception_5a/output_0_split_2
I0403 13:51:06.205252 12154 net.cpp:399] inception_5a/output_inception_5a/output_0_split -> inception_5a/output_inception_5a/output_0_split_3
I0403 13:51:06.205363 12154 net.cpp:141] Setting up inception_5a/output_inception_5a/output_0_split
I0403 13:51:06.205387 12154 net.cpp:148] Top shape: 24 832 7 7 (978432)
I0403 13:51:06.205404 12154 net.cpp:148] Top shape: 24 832 7 7 (978432)
I0403 13:51:06.205420 12154 net.cpp:148] Top shape: 24 832 7 7 (978432)
I0403 13:51:06.205435 12154 net.cpp:148] Top shape: 24 832 7 7 (978432)
I0403 13:51:06.205448 12154 net.cpp:156] Memory required for data: 1325241888
I0403 13:51:06.205462 12154 layer_factory.hpp:77] Creating layer inception_5b/1x1
I0403 13:51:06.205485 12154 net.cpp:91] Creating Layer inception_5b/1x1
I0403 13:51:06.205502 12154 net.cpp:425] inception_5b/1x1 <- inception_5a/output_inception_5a/output_0_split_0
I0403 13:51:06.205528 12154 net.cpp:399] inception_5b/1x1 -> inception_5b/1x1
I0403 13:51:06.209303 12154 net.cpp:141] Setting up inception_5b/1x1
I0403 13:51:06.209337 12154 net.cpp:148] Top shape: 24 384 7 7 (451584)
I0403 13:51:06.209354 12154 net.cpp:156] Memory required for data: 1327048224
I0403 13:51:06.209372 12154 layer_factory.hpp:77] Creating layer inception_5b/relu_1x1
I0403 13:51:06.209390 12154 net.cpp:91] Creating Layer inception_5b/relu_1x1
I0403 13:51:06.209406 12154 net.cpp:425] inception_5b/relu_1x1 <- inception_5b/1x1
I0403 13:51:06.209424 12154 net.cpp:386] inception_5b/relu_1x1 -> inception_5b/1x1 (in-place)
I0403 13:51:06.209759 12154 net.cpp:141] Setting up inception_5b/relu_1x1
I0403 13:51:06.209787 12154 net.cpp:148] Top shape: 24 384 7 7 (451584)
I0403 13:51:06.209803 12154 net.cpp:156] Memory required for data: 1328854560
I0403 13:51:06.209818 12154 layer_factory.hpp:77] Creating layer inception_5b/3x3_reduce
I0403 13:51:06.209841 12154 net.cpp:91] Creating Layer inception_5b/3x3_reduce
I0403 13:51:06.209858 12154 net.cpp:425] inception_5b/3x3_reduce <- inception_5a/output_inception_5a/output_0_split_1
I0403 13:51:06.209878 12154 net.cpp:399] inception_5b/3x3_reduce -> inception_5b/3x3_reduce
I0403 13:51:06.212541 12154 net.cpp:141] Setting up inception_5b/3x3_reduce
I0403 13:51:06.212571 12154 net.cpp:148] Top shape: 24 192 7 7 (225792)
I0403 13:51:06.212587 12154 net.cpp:156] Memory required for data: 1329757728
I0403 13:51:06.212604 12154 layer_factory.hpp:77] Creating layer inception_5b/relu_3x3_reduce
I0403 13:51:06.212621 12154 net.cpp:91] Creating Layer inception_5b/relu_3x3_reduce
I0403 13:51:06.212637 12154 net.cpp:425] inception_5b/relu_3x3_reduce <- inception_5b/3x3_reduce
I0403 13:51:06.212656 12154 net.cpp:386] inception_5b/relu_3x3_reduce -> inception_5b/3x3_reduce (in-place)
I0403 13:51:06.212842 12154 net.cpp:141] Setting up inception_5b/relu_3x3_reduce
I0403 13:51:06.212867 12154 net.cpp:148] Top shape: 24 192 7 7 (225792)
I0403 13:51:06.212882 12154 net.cpp:156] Memory required for data: 1330660896
I0403 13:51:06.212895 12154 layer_factory.hpp:77] Creating layer inception_5b/3x3
I0403 13:51:06.212918 12154 net.cpp:91] Creating Layer inception_5b/3x3
I0403 13:51:06.212934 12154 net.cpp:425] inception_5b/3x3 <- inception_5b/3x3_reduce
I0403 13:51:06.212955 12154 net.cpp:399] inception_5b/3x3 -> inception_5b/3x3
I0403 13:51:06.219666 12154 net.cpp:141] Setting up inception_5b/3x3
I0403 13:51:06.219697 12154 net.cpp:148] Top shape: 24 384 7 7 (451584)
I0403 13:51:06.219713 12154 net.cpp:156] Memory required for data: 1332467232
I0403 13:51:06.219732 12154 layer_factory.hpp:77] Creating layer inception_5b/relu_3x3
I0403 13:51:06.219750 12154 net.cpp:91] Creating Layer inception_5b/relu_3x3
I0403 13:51:06.219768 12154 net.cpp:425] inception_5b/relu_3x3 <- inception_5b/3x3
I0403 13:51:06.219786 12154 net.cpp:386] inception_5b/relu_3x3 -> inception_5b/3x3 (in-place)
I0403 13:51:06.220091 12154 net.cpp:141] Setting up inception_5b/relu_3x3
I0403 13:51:06.220119 12154 net.cpp:148] Top shape: 24 384 7 7 (451584)
I0403 13:51:06.220135 12154 net.cpp:156] Memory required for data: 1334273568
I0403 13:51:06.220150 12154 layer_factory.hpp:77] Creating layer inception_5b/5x5_reduce
I0403 13:51:06.220190 12154 net.cpp:91] Creating Layer inception_5b/5x5_reduce
I0403 13:51:06.220207 12154 net.cpp:425] inception_5b/5x5_reduce <- inception_5a/output_inception_5a/output_0_split_2
I0403 13:51:06.220226 12154 net.cpp:399] inception_5b/5x5_reduce -> inception_5b/5x5_reduce
I0403 13:51:06.221510 12154 net.cpp:141] Setting up inception_5b/5x5_reduce
I0403 13:51:06.221539 12154 net.cpp:148] Top shape: 24 48 7 7 (56448)
I0403 13:51:06.221555 12154 net.cpp:156] Memory required for data: 1334499360
I0403 13:51:06.221573 12154 layer_factory.hpp:77] Creating layer inception_5b/relu_5x5_reduce
I0403 13:51:06.221590 12154 net.cpp:91] Creating Layer inception_5b/relu_5x5_reduce
I0403 13:51:06.221606 12154 net.cpp:425] inception_5b/relu_5x5_reduce <- inception_5b/5x5_reduce
I0403 13:51:06.221637 12154 net.cpp:386] inception_5b/relu_5x5_reduce -> inception_5b/5x5_reduce (in-place)
I0403 13:51:06.222021 12154 net.cpp:141] Setting up inception_5b/relu_5x5_reduce
I0403 13:51:06.222048 12154 net.cpp:148] Top shape: 24 48 7 7 (56448)
I0403 13:51:06.222062 12154 net.cpp:156] Memory required for data: 1334725152
I0403 13:51:06.222077 12154 layer_factory.hpp:77] Creating layer inception_5b/5x5
I0403 13:51:06.222096 12154 net.cpp:91] Creating Layer inception_5b/5x5
I0403 13:51:06.222113 12154 net.cpp:425] inception_5b/5x5 <- inception_5b/5x5_reduce
I0403 13:51:06.222131 12154 net.cpp:399] inception_5b/5x5 -> inception_5b/5x5
I0403 13:51:06.224267 12154 net.cpp:141] Setting up inception_5b/5x5
I0403 13:51:06.224297 12154 net.cpp:148] Top shape: 24 128 7 7 (150528)
I0403 13:51:06.224313 12154 net.cpp:156] Memory required for data: 1335327264
I0403 13:51:06.224330 12154 layer_factory.hpp:77] Creating layer inception_5b/relu_5x5
I0403 13:51:06.224350 12154 net.cpp:91] Creating Layer inception_5b/relu_5x5
I0403 13:51:06.224367 12154 net.cpp:425] inception_5b/relu_5x5 <- inception_5b/5x5
I0403 13:51:06.224385 12154 net.cpp:386] inception_5b/relu_5x5 -> inception_5b/5x5 (in-place)
I0403 13:51:06.224593 12154 net.cpp:141] Setting up inception_5b/relu_5x5
I0403 13:51:06.224630 12154 net.cpp:148] Top shape: 24 128 7 7 (150528)
I0403 13:51:06.224647 12154 net.cpp:156] Memory required for data: 1335929376
I0403 13:51:06.224660 12154 layer_factory.hpp:77] Creating layer inception_5b/pool
I0403 13:51:06.224681 12154 net.cpp:91] Creating Layer inception_5b/pool
I0403 13:51:06.224699 12154 net.cpp:425] inception_5b/pool <- inception_5a/output_inception_5a/output_0_split_3
I0403 13:51:06.224717 12154 net.cpp:399] inception_5b/pool -> inception_5b/pool
I0403 13:51:06.224793 12154 net.cpp:141] Setting up inception_5b/pool
I0403 13:51:06.224818 12154 net.cpp:148] Top shape: 24 832 7 7 (978432)
I0403 13:51:06.224833 12154 net.cpp:156] Memory required for data: 1339843104
I0403 13:51:06.224848 12154 layer_factory.hpp:77] Creating layer inception_5b/pool_proj
I0403 13:51:06.224870 12154 net.cpp:91] Creating Layer inception_5b/pool_proj
I0403 13:51:06.224889 12154 net.cpp:425] inception_5b/pool_proj <- inception_5b/pool
I0403 13:51:06.224921 12154 net.cpp:399] inception_5b/pool_proj -> inception_5b/pool_proj
I0403 13:51:06.227310 12154 net.cpp:141] Setting up inception_5b/pool_proj
I0403 13:51:06.227339 12154 net.cpp:148] Top shape: 24 128 7 7 (150528)
I0403 13:51:06.227355 12154 net.cpp:156] Memory required for data: 1340445216
I0403 13:51:06.227372 12154 layer_factory.hpp:77] Creating layer inception_5b/relu_pool_proj
I0403 13:51:06.227391 12154 net.cpp:91] Creating Layer inception_5b/relu_pool_proj
I0403 13:51:06.227406 12154 net.cpp:425] inception_5b/relu_pool_proj <- inception_5b/pool_proj
I0403 13:51:06.227427 12154 net.cpp:386] inception_5b/relu_pool_proj -> inception_5b/pool_proj (in-place)
I0403 13:51:06.227742 12154 net.cpp:141] Setting up inception_5b/relu_pool_proj
I0403 13:51:06.227769 12154 net.cpp:148] Top shape: 24 128 7 7 (150528)
I0403 13:51:06.227785 12154 net.cpp:156] Memory required for data: 1341047328
I0403 13:51:06.227800 12154 layer_factory.hpp:77] Creating layer inception_5b/output
I0403 13:51:06.227818 12154 net.cpp:91] Creating Layer inception_5b/output
I0403 13:51:06.227850 12154 net.cpp:425] inception_5b/output <- inception_5b/1x1
I0403 13:51:06.227869 12154 net.cpp:425] inception_5b/output <- inception_5b/3x3
I0403 13:51:06.227885 12154 net.cpp:425] inception_5b/output <- inception_5b/5x5
I0403 13:51:06.227901 12154 net.cpp:425] inception_5b/output <- inception_5b/pool_proj
I0403 13:51:06.227921 12154 net.cpp:399] inception_5b/output -> inception_5b/output
I0403 13:51:06.227972 12154 net.cpp:141] Setting up inception_5b/output
I0403 13:51:06.227998 12154 net.cpp:148] Top shape: 24 1024 7 7 (1204224)
I0403 13:51:06.228015 12154 net.cpp:156] Memory required for data: 1345864224
I0403 13:51:06.228029 12154 layer_factory.hpp:77] Creating layer pool5/7x7_s1
I0403 13:51:06.228047 12154 net.cpp:91] Creating Layer pool5/7x7_s1
I0403 13:51:06.228062 12154 net.cpp:425] pool5/7x7_s1 <- inception_5b/output
I0403 13:51:06.228080 12154 net.cpp:399] pool5/7x7_s1 -> pool5/7x7_s1
I0403 13:51:06.228301 12154 net.cpp:141] Setting up pool5/7x7_s1
I0403 13:51:06.228327 12154 net.cpp:148] Top shape: 24 1024 1 1 (24576)
I0403 13:51:06.228341 12154 net.cpp:156] Memory required for data: 1345962528
I0403 13:51:06.228355 12154 layer_factory.hpp:77] Creating layer pool5/drop_7x7_s1
I0403 13:51:06.228374 12154 net.cpp:91] Creating Layer pool5/drop_7x7_s1
I0403 13:51:06.228389 12154 net.cpp:425] pool5/drop_7x7_s1 <- pool5/7x7_s1
I0403 13:51:06.228407 12154 net.cpp:386] pool5/drop_7x7_s1 -> pool5/7x7_s1 (in-place)
I0403 13:51:06.228458 12154 net.cpp:141] Setting up pool5/drop_7x7_s1
I0403 13:51:06.228483 12154 net.cpp:148] Top shape: 24 1024 1 1 (24576)
I0403 13:51:06.228498 12154 net.cpp:156] Memory required for data: 1346060832
I0403 13:51:06.228518 12154 layer_factory.hpp:77] Creating layer loss3/classifier_plantvillage
I0403 13:51:06.228538 12154 net.cpp:91] Creating Layer loss3/classifier_plantvillage
I0403 13:51:06.228554 12154 net.cpp:425] loss3/classifier_plantvillage <- pool5/7x7_s1
I0403 13:51:06.228575 12154 net.cpp:399] loss3/classifier_plantvillage -> loss3/classifier_plantvillage
I0403 13:51:06.229006 12154 net.cpp:141] Setting up loss3/classifier_plantvillage
I0403 13:51:06.229030 12154 net.cpp:148] Top shape: 24 38 (912)
I0403 13:51:06.229045 12154 net.cpp:156] Memory required for data: 1346064480
I0403 13:51:06.229063 12154 layer_factory.hpp:77] Creating layer loss3/classifier_plantvillage_loss3/classifier_plantvillage_0_split
I0403 13:51:06.229084 12154 net.cpp:91] Creating Layer loss3/classifier_plantvillage_loss3/classifier_plantvillage_0_split
I0403 13:51:06.229101 12154 net.cpp:425] loss3/classifier_plantvillage_loss3/classifier_plantvillage_0_split <- loss3/classifier_plantvillage
I0403 13:51:06.229118 12154 net.cpp:399] loss3/classifier_plantvillage_loss3/classifier_plantvillage_0_split -> loss3/classifier_plantvillage_loss3/classifier_plantvillage_0_split_0
I0403 13:51:06.229138 12154 net.cpp:399] loss3/classifier_plantvillage_loss3/classifier_plantvillage_0_split -> loss3/classifier_plantvillage_loss3/classifier_plantvillage_0_split_1
I0403 13:51:06.229161 12154 net.cpp:399] loss3/classifier_plantvillage_loss3/classifier_plantvillage_0_split -> loss3/classifier_plantvillage_loss3/classifier_plantvillage_0_split_2
I0403 13:51:06.229182 12154 net.cpp:399] loss3/classifier_plantvillage_loss3/classifier_plantvillage_0_split -> loss3/classifier_plantvillage_loss3/classifier_plantvillage_0_split_3
I0403 13:51:06.229284 12154 net.cpp:141] Setting up loss3/classifier_plantvillage_loss3/classifier_plantvillage_0_split
I0403 13:51:06.229306 12154 net.cpp:148] Top shape: 24 38 (912)
I0403 13:51:06.229322 12154 net.cpp:148] Top shape: 24 38 (912)
I0403 13:51:06.229337 12154 net.cpp:148] Top shape: 24 38 (912)
I0403 13:51:06.229353 12154 net.cpp:148] Top shape: 24 38 (912)
I0403 13:51:06.229367 12154 net.cpp:156] Memory required for data: 1346079072
I0403 13:51:06.229382 12154 layer_factory.hpp:77] Creating layer loss1/loss
I0403 13:51:06.229403 12154 net.cpp:91] Creating Layer loss1/loss
I0403 13:51:06.229419 12154 net.cpp:425] loss1/loss <- loss1/classifier_plantvillage_loss1/classifier_plantvillage_0_split_0
I0403 13:51:06.229449 12154 net.cpp:425] loss1/loss <- label_data_1_split_0
…
