…
I0403 14:27:05.687960 13286 net.cpp:313] The NetState phase (1) differed from the phase (0) specified by a rule in layer data
I0403 14:27:05.689066 13286 net.cpp:49] Initializing net from parameters: 
state {
  phase: TEST
}
layer {
  name: "data"
  type: "Data"
  top: "data"
  top: "label"
  include {
    phase: TEST
  }
  transform_param {
    mirror: false
    crop_size: 224
    mean_file: "/home/mohanty/data/final_dataset/lmdb/segmented-20-80/mean.binaryproto"
  }
  data_param {
    source: "/home/mohanty/data/final_dataset/lmdb/segmented-20-80/test_db"
    batch_size: 24
    backend: LMDB
  }
}
layer {
  name: "conv1/7x7_s2"
  type: "Convolution"
  bottom: "data"
  top: "conv1/7x7_s2"
  param {
    lr_mult: 1
    decay_mult: 1
  }
  param {
    lr_mult: 2
    decay_mult: 0
  }
  convolution_param {
    num_output: 64
    pad: 3
    kernel_size: 7
    stride: 2
    weight_filler {
      type: "xavier"
      std: 0.1
    }
    bias_filler {
      type: "constant"
      value: 0.2
    }
  }
}
layer {
  name: "conv1/relu_7x7"
  type: "ReLU"
  bottom: "conv1/7x7_s2"
  top: "conv1/7x7_s2"
}
layer {
  name: "pool1/3x3_s2"
  type: "Pooling"
  bottom: "conv1/7x7_s2"
  top: "pool1/3x3_s2"
  pooling_param {
    pool: MAX
    kernel_size: 3
    stride: 2
  }
}
layer {
  name: "pool1/norm1"
  type: "LRN"
  bottom: "pool1/3x3_s2"
  top: "pool1/norm1"
  lrn_param {
    local_size: 5
    alpha: 0.0001
    beta: 0.75
  }
}
layer {
  name: "conv2/3x3_reduce"
  type: "Convolution"
  bottom: "pool1/norm1"
  top: "conv2/3x3_reduce"
  param {
    lr_mult: 1
    decay_mult: 1
  }
  param {
    lr_mult: 2
    decay_mult: 0
  }
  convolution_param {
    num_output: 64
    kernel_size: 1
    weight_filler {
      type: "xavier"
      std: 0.1
    }
    bias_filler {
      type: "constant"
      value: 0.2
    }
  }
}
layer {
  name: "conv2/relu_3x3_reduce"
  type: "ReLU"
  bottom: "conv2/3x3_reduce"
  top: "conv2/3x3_reduce"
}
layer {
  name: "conv2/3x3"
  type: "Convolution"
  bottom: "conv2/3x3_reduce"
  top: "conv2/3x3"
  param {
    lr_mult: 1
    decay_mult: 1
  }
  param {
    lr_mult: 2
    decay_mult: 0
  }
  convolution_param {
    num_output: 192
    pad: 1
    kernel_size: 3
    weight_filler {
      type: "xavier"
      std: 0.03
    }
    bias_filler {
      type: "constant"
      value: 0.2
    }
  }
}
layer {
  name: "conv2/relu_3x3"
  type: "ReLU"
  bottom: "conv2/3x3"
  top: "conv2/3x3"
}
layer {
  name: "conv2/norm2"
  type: "LRN"
  bottom: "conv2/3x3"
  top: "conv2/norm2"
  lrn_param {
    local_size: 5
    alpha: 0.0001
    beta: 0.75
  }
}
layer {
  name: "pool2/3x3_s2"
  type: "Pooling"
  bottom: "conv2/norm2"
  top: "pool2/3x3_s2"
  pooling_param {
    pool: MAX
    kernel_size: 3
    stride: 2
  }
}
layer {
  name: "inception_3a/1x1"
  type: "Convolution"
  bottom: "pool2/3x3_s2"
  top: "inception_3a/1x1"
  param {
    lr_mult: 1
    decay_mult: 1
  }
  param {
    lr_mult: 2
    decay_mult: 0
  }
  convolution_param {
    num_output: 64
    kernel_size: 1
    weight_filler {
      type: "xavier"
      std: 0.03
    }
    bias_filler {
      type: "constant"
      value: 0.2
    }
  }
}
layer {
  name: "inception_3a/relu_1x1"
  type: "ReLU"
  bottom: "inception_3a/1x1"
  top: "inception_3a/1x1"
}
layer {
  name: "inception_3a/3x3_reduce"
  type: "Convolution"
  bottom: "pool2/3x3_s2"
  top: "inception_3a/3x3_reduce"
  param {
    lr_mult: 1
    decay_mult: 1
  }
  param {
    lr_mult: 2
    decay_mult: 0
  }
  convolution_param {
    num_output: 96
    kernel_size: 1
    weight_filler {
      type: "xavier"
      std: 0.09
    }
    bias_filler {
      type: "constant"
      value: 0.2
    }
  }
}
layer {
  name: "inception_3a/relu_3x3_reduce"
  type: "ReLU"
  bottom: "inception_3a/3x3_reduce"
  top: "inception_3a/3x3_reduce"
}
layer {
  name: "inception_3a/3x3"
  type: "Convolution"
  bottom: "inception_3a/3x3_reduce"
  top: "inception_3a/3x3"
  param {
    lr_mult: 1
    decay_mult: 1
  }
  param {
    lr_mult: 2
    decay_mult: 0
  }
  convolution_param {
    num_output: 128
    pad: 1
    kernel_size: 3
    weight_filler {
      type: "xavier"
      std: 0.03
    }
    bias_filler {
      type: "constant"
      value: 0.2
    }
  }
}
layer {
  name: "inception_3a/relu_3x3"
  type: "ReLU"
  bottom: "inception_3a/3x3"
  top: "inception_3a/3x3"
}
layer {
  name: "inception_3a/5x5_reduce"
  type: "Convolution"
  bottom: "pool2/3x3_s2"
  top: "inception_3a/5x5_reduce"
  param {
    lr_mult: 1
    decay_mult: 1
  }
  param {
    lr_mult: 2
    decay_mult: 0
  }
  convolution_param {
    num_output: 16
    kernel_size: 1
    weight_filler {
      type: "xavier"
      std: 0.2
    }
    bias_filler {
      type: "constant"
      value: 0.2
    }
  }
}
layer {
  name: "inception_3a/relu_5x5_reduce"
  type: "ReLU"
  bottom: "inception_3a/5x5_reduce"
  top: "inception_3a/5x5_reduce"
}
layer {
  name: "inception_3a/5x5"
  type: "Convolution"
  bottom: "inception_3a/5x5_reduce"
  top: "inception_3a/5x5"
  param {
    lr_mult: 1
    decay_mult: 1
  }
  param {
    lr_mult: 2
    decay_mult: 0
  }
  convolution_param {
    num_output: 32
    pad: 2
    kernel_size: 5
    weight_filler {
      type: "xavier"
      std: 0.03
    }
    bias_filler {
      type: "constant"
      value: 0.2
    }
  }
}
layer {
  name: "inception_3a/relu_5x5"
  type: "ReLU"
  bottom: "inception_3a/5x5"
  top: "inception_3a/5x5"
}
layer {
  name: "inception_3a/pool"
  type: "Pooling"
  bottom: "pool2/3x3_s2"
  top: "inception_3a/pool"
  pooling_param {
    pool: MAX
    kernel_size: 3
    stride: 1
    pad: 1
  }
}
layer {
  name: "inception_3a/pool_proj"
  type: "Convolution"
  bottom: "inception_3a/pool"
  top: "inception_3a/pool_proj"
  param {
    lr_mult: 1
    decay_mult: 1
  }
  param {
    lr_mult: 2
    decay_mult: 0
  }
  convolution_param {
    num_output: 32
    kernel_size: 1
    weight_filler {
      type: "xavier"
      std: 0.1
    }
    bias_filler {
      type: "constant"
      value: 0.2
    }
  }
}
layer {
  name: "inception_3a/relu_pool_proj"
  type: "ReLU"
  bottom: "inception_3a/pool_proj"
  top: "inception_3a/pool_proj"
}
layer {
  name: "inception_3a/output"
  type: "Concat"
  bottom: "inception_3a/1x1"
  bottom: "inception_3a/3x3"
  bottom: "inception_3a/5x5"
  bottom: "inception_3a/pool_proj"
  top: "inception_3a/output"
}
layer {
  name: "inception_3b/1x1"
  type: "Convolution"
  bottom: "inception_3a/output"
  top: "inception_3b/1x1"
  param {
    lr_mult: 1
    decay_mult: 1
  }
  param {
    lr_mult: 2
    decay_mult: 0
  }
  convolution_param {
    num_output: 128
    kernel_size: 1
    weight_filler {
      type: "xavier"
      std: 0.03
    }
    bias_filler {
      type: "constant"
      value: 0.2
    }
  }
}
layer {
  name: "inception_3b/relu_1x1"
  type: "ReLU"
  bottom: "inception_3b/1x1"
  top: "inception_3b/1x1"
}
layer {
  name: "inception_3b/3x3_reduce"
  type: "Convolution"
  bottom: "inception_3a/output"
  top: "inception_3b/3x3_reduce"
  param {
    lr_mult: 1
    decay_mult: 1
  }
  param {
    lr_mult: 2
    decay_mult: 0
  }
  convolution_param {
    num_output: 128
    kernel_size: 1
    weight_filler {
      type: "xavier"
      std: 0.09
    }
    bias_filler {
      type: "constant"
      value: 0.2
    }
  }
}
layer {
  name: "inception_3b/relu_3x3_reduce"
  type: "ReLU"
  bottom: "inception_3b/3x3_reduce"
  top: "inception_3b/3x3_reduce"
}
layer {
  name: "inception_3b/3x3"
  type: "Convolution"
  bottom: "inception_3b/3x3_reduce"
  top: "inception_3b/3x3"
  param {
    lr_mult: 1
    decay_mult: 1
  }
  param {
    lr_mult: 2
    decay_mult: 0
  }
  convolution_param {
    num_output: 192
    pad: 1
    kernel_size: 3
    weight_filler {
      type: "xavier"
      std: 0.03
    }
    bias_filler {
      type: "constant"
      value: 0.2
    }
  }
}
layer {
  name: "inception_3b/relu_3x3"
  type: "ReLU"
  bottom: "inception_3b/3x3"
  top: "inception_3b/3x3"
}
layer {
  name: "inception_3b/5x5_reduce"
  type: "Convolution"
  bottom: "inception_3a/output"
  top: "inception_3b/5x5_reduce"
  param {
    lr_mult: 1
    decay_mult: 1
  }
  param {
    lr_mult: 2
    decay_mult: 0
  }
  convolution_param {
    num_output: 32
    kernel_size: 1
    weight_filler {
      type: "xavier"
      std: 0.2
    }
    bias_filler {
      type: "constant"
      value: 0.2
    }
  }
}
layer {
  name: "inception_3b/relu_5x5_reduce"
  type: "ReLU"
  bottom: "inception_3b/5x5_reduce"
  top: "inception_3b/5x5_reduce"
}
layer {
  name: "inception_3b/5x5"
  type: "Convolution"
  bottom: "inception_3b/5x5_reduce"
  top: "inception_3b/5x5"
  param {
    lr_mult: 1
    decay_mult: 1
  }
  param {
    lr_mult: 2
    decay_mult: 0
  }
  convolution_param {
    num_output: 96
    pad: 2
    kernel_size: 5
    weight_filler {
      type: "xavier"
      std: 0.03
    }
    bias_filler {
      type: "constant"
      value: 0.2
    }
  }
}
layer {
  name: "inception_3b/relu_5x5"
  type: "ReLU"
  bottom: "inception_3b/5x5"
  top: "inception_3b/5x5"
}
layer {
  name: "inception_3b/pool"
  type: "Pooling"
  bottom: "inception_3a/output"
  top: "inception_3b/pool"
  pooling_param {
    pool: MAX
    kernel_size: 3
    stride: 1
    pad: 1
  }
}
layer {
  name: "inception_3b/pool_proj"
  type: "Convolution"
  bottom: "inception_3b/pool"
  top: "inception_3b/pool_proj"
  param {
    lr_mult: 1
    decay_mult: 1
  }
  param {
    lr_mult: 2
    decay_mult: 0
  }
  convolution_param {
    num_output: 64
    kernel_size: 1
    weight_filler {
      type: "xavier"
      std: 0.1
    }
    bias_filler {
      type: "constant"
      value: 0.2
    }
  }
}
layer {
  name: "inception_3b/relu_pool_proj"
  type: "ReLU"
  bottom: "inception_3b/pool_proj"
  top: "inception_3b/pool_proj"
}
layer {
  name: "inception_3b/output"
  type: "Concat"
  bottom: "inception_3b/1x1"
  bottom: "inception_3b/3x3"
  bottom: "inception_3b/5x5"
  bottom: "inception_3b/pool_proj"
  top: "inception_3b/output"
}
layer {
  name: "pool3/3x3_s2"
  type: "Pooling"
  bottom: "inception_3b/output"
  top: "pool3/3x3_s2"
  pooling_param {
    pool: MAX
    kernel_size: 3
    stride: 2
  }
}
layer {
  name: "inception_4a/1x1"
  type: "Convolution"
  bottom: "pool3/3x3_s2"
  top: "inception_4a/1x1"
  param {
    lr_mult: 1
    decay_mult: 1
  }
  param {
    lr_mult: 2
    decay_mult: 0
  }
  convolution_param {
    num_output: 192
    kernel_size: 1
    weight_filler {
      type: "xavier"
      std: 0.03
    }
    bias_filler {
      type: "constant"
      value: 0.2
    }
  }
}
layer {
  name: "inception_4a/relu_1x1"
  type: "ReLU"
  bottom: "inception_4a/1x1"
  top: "inception_4a/1x1"
}
layer {
  name: "inception_4a/3x3_reduce"
  type: "Convolution"
  bottom: "pool3/3x3_s2"
  top: "inception_4a/3x3_reduce"
  param {
    lr_mult: 1
    decay_mult: 1
  }
  param {
    lr_mult: 2
    decay_mult: 0
  }
  convolution_param {
    num_output: 96
    kernel_size: 1
    weight_filler {
      type: "xavier"
      std: 0.09
    }
    bias_filler {
      type: "constant"
      value: 0.2
    }
  }
}
layer {
  name: "inception_4a/relu_3x3_reduce"
  type: "ReLU"
  bottom: "inception_4a/3x3_reduce"
  top: "inception_4a/3x3_reduce"
}
layer {
  name: "inception_4a/3x3"
  type: "Convolution"
  bottom: "inception_4a/3x3_reduce"
  top: "inception_4a/3x3"
  param {
    lr_mult: 1
    decay_mult: 1
  }
  param {
    lr_mult: 2
    decay_mult: 0
  }
  convolution_param {
    num_output: 208
    pad: 1
    kernel_size: 3
    weight_filler {
      type: "xavier"
      std: 0.03
    }
    bias_filler {
      type: "constant"
      value: 0.2
    }
  }
}
layer {
  name: "inception_4a/relu_3x3"
  type: "ReLU"
  bottom: "inception_4a/3x3"
  top: "inception_4a/3x3"
}
layer {
  name: "inception_4a/5x5_reduce"
  type: "Convolution"
  bottom: "pool3/3x3_s2"
  top: "inception_4a/5x5_reduce"
  param {
    lr_mult: 1
    decay_mult: 1
  }
  param {
    lr_mult: 2
    decay_mult: 0
  }
  convolution_param {
    num_output: 16
    kernel_size: 1
    weight_filler {
      type: "xavier"
      std: 0.2
    }
    bias_filler {
      type: "constant"
      value: 0.2
    }
  }
}
layer {
  name: "inception_4a/relu_5x5_reduce"
  type: "ReLU"
  bottom: "inception_4a/5x5_reduce"
  top: "inception_4a/5x5_reduce"
}
layer {
  name: "inception_4a/5x5"
  type: "Convolution"
  bottom: "inception_4a/5x5_reduce"
  top: "inception_4a/5x5"
  param {
    lr_mult: 1
    decay_mult: 1
  }
  param {
    lr_mult: 2
    decay_mult: 0
  }
  convolution_param {
    num_output: 48
    pad: 2
    kernel_size: 5
    weight_filler {
      type: "xavier"
      std: 0.03
    }
    bias_filler {
      type: "constant"
      value: 0.2
    }
  }
}
layer {
  name: "inception_4a/relu_5x5"
  type: "ReLU"
  bottom: "inception_4a/5x5"
  top: "inception_4a/5x5"
}
layer {
  name: "inception_4a/pool"
  type: "Pooling"
  bottom: "pool3/3x3_s2"
  top: "inception_4a/pool"
  pooling_param {
    pool: MAX
    kernel_size: 3
    stride: 1
    pad: 1
  }
}
layer {
  name: "inception_4a/pool_proj"
  type: "Convolution"
  bottom: "inception_4a/pool"
  top: "inception_4a/pool_proj"
  param {
    lr_mult: 1
    decay_mult: 1
  }
  param {
    lr_mult: 2
    decay_mult: 0
  }
  convolution_param {
    num_output: 64
    kernel_size: 1
    weight_filler {
      type: "xavier"
      std: 0.1
    }
    bias_filler {
      type: "constant"
      value: 0.2
    }
  }
}
layer {
  name: "inception_4a/relu_pool_proj"
  type: "ReLU"
  bottom: "inception_4a/pool_proj"
  top: "inception_4a/pool_proj"
}
layer {
  name: "inception_4a/output"
  type: "Concat"
  bottom: "inception_4a/1x1"
  bottom: "inception_4a/3x3"
  bottom: "inception_4a/5x5"
  bottom: "inception_4a/pool_proj"
  top: "inception_4a/output"
}
layer {
  name: "loss1/ave_pool"
  type: "Pooling"
  bottom: "inception_4a/output"
  top: "loss1/ave_pool"
  pooling_param {
    pool: AVE
    kernel_size: 5
    stride: 3
  }
}
layer {
  name: "loss1/conv"
  type: "Convolution"
  bottom: "loss1/ave_pool"
  top: "loss1/conv"
  param {
    lr_mult: 1
    decay_mult: 1
  }
  param {
    lr_mult: 2
    decay_mult: 0
  }
  convolution_param {
    num_output: 128
    kernel_size: 1
    weight_filler {
      type: "xavier"
      std: 0.08
    }
    bias_filler {
      type: "constant"
      value: 0.2
    }
  }
}
layer {
  name: "loss1/relu_conv"
  type: "ReLU"
  bottom: "loss1/conv"
  top: "loss1/conv"
}
layer {
  name: "loss1/fc"
  type: "InnerProduct"
  bottom: "loss1/conv"
  top: "loss1/fc"
  param {
    lr_mult: 1
    decay_mult: 1
  }
  param {
    lr_mult: 2
    decay_mult: 0
  }
  inner_product_param {
    num_output: 1024
    weight_filler {
      type: "xavier"
      std: 0.02
    }
    bias_filler {
      type: "constant"
      value: 0.2
    }
  }
}
layer {
  name: "loss1/relu_fc"
  type: "ReLU"
  bottom: "loss1/fc"
  top: "loss1/fc"
}
layer {
  name: "loss1/drop_fc"
  type: "Dropout"
  bottom: "loss1/fc"
  top: "loss1/fc"
  dropout_param {
    dropout_ratio: 0.7
  }
}
layer {
  name: "loss1/classifier_plantvillage"
  type: "InnerProduct"
  bottom: "loss1/fc"
  top: "loss1/classifier_plantvillage"
  param {
    lr_mult: 1
    decay_mult: 1
  }
  param {
    lr_mult: 2
    decay_mult: 0
  }
  inner_product_param {
    num_output: 38
    weight_filler {
      type: "xavier"
      std: 0.0009765625
    }
    bias_filler {
      type: "constant"
      value: 0
    }
  }
}
layer {
  name: "inception_4b/1x1"
  type: "Convolution"
  bottom: "inception_4a/output"
  top: "inception_4b/1x1"
  param {
    lr_mult: 1
    decay_mult: 1
  }
  param {
    lr_mult: 2
    decay_mult: 0
  }
  convolution_param {
    num_output: 160
    kernel_size: 1
    weight_filler {
      type: "xavier"
      std: 0.03
    }
    bias_filler {
      type: "constant"
      value: 0.2
    }
  }
}
layer {
  name: "inception_4b/relu_1x1"
  type: "ReLU"
  bottom: "inception_4b/1x1"
  top: "inception_4b/1x1"
}
layer {
  name: "inception_4b/3x3_reduce"
  type: "Convolution"
  bottom: "inception_4a/output"
  top: "inception_4b/3x3_reduce"
  param {
    lr_mult: 1
    decay_mult: 1
  }
  param {
    lr_mult: 2
    decay_mult: 0
  }
  convolution_param {
    num_output: 112
    kernel_size: 1
    weight_filler {
      type: "xavier"
      std: 0.09
    }
    bias_filler {
      type: "constant"
      value: 0.2
    }
  }
}
layer {
  name: "inception_4b/relu_3x3_reduce"
  type: "ReLU"
  bottom: "inception_4b/3x3_reduce"
  top: "inception_4b/3x3_reduce"
}
layer {
  name: "inception_4b/3x3"
  type: "Convolution"
  bottom: "inception_4b/3x3_reduce"
  top: "inception_4b/3x3"
  param {
    lr_mult: 1
    decay_mult: 1
  }
  param {
    lr_mult: 2
    decay_mult: 0
  }
  convolution_param {
    num_output: 224
    pad: 1
    kernel_size: 3
    weight_filler {
      type: "xavier"
      std: 0.03
    }
    bias_filler {
      type: "constant"
      value: 0.2
    }
  }
}
layer {
  name: "inception_4b/relu_3x3"
  type: "ReLU"
  bottom: "inception_4b/3x3"
  top: "inception_4b/3x3"
}
layer {
  name: "inception_4b/5x5_reduce"
  type: "Convolution"
  bottom: "inception_4a/output"
  top: "inception_4b/5x5_reduce"
  param {
    lr_mult: 1
    decay_mult: 1
  }
  param {
    lr_mult: 2
    decay_mult: 0
  }
  convolution_param {
    num_output: 24
    kernel_size: 1
    weight_filler {
      type: "xavier"
      std: 0.2
    }
    bias_filler {
      type: "constant"
      value: 0.2
    }
  }
}
layer {
  name: "inception_4b/relu_5x5_reduce"
  type: "ReLU"
  bottom: "inception_4b/5x5_reduce"
  top: "inception_4b/5x5_reduce"
}
layer {
  name: "inception_4b/5x5"
  type: "Convolution"
  bottom: "inception_4b/5x5_reduce"
  top: "inception_4b/5x5"
  param {
    lr_mult: 1
    decay_mult: 1
  }
  param {
    lr_mult: 2
    decay_mult: 0
  }
  convolution_param {
    num_output: 64
    pad: 2
    kernel_size: 5
    weight_filler {
      type: "xavier"
      std: 0.03
    }
    bias_filler {
      type: "constant"
      value: 0.2
    }
  }
}
layer {
  name: "inception_4b/relu_5x5"
  type: "ReLU"
  bottom: "inception_4b/5x5"
  top: "inception_4b/5x5"
}
layer {
  name: "inception_4b/pool"
  type: "Pooling"
  bottom: "inception_4a/output"
  top: "inception_4b/pool"
  pooling_param {
    pool: MAX
    kernel_size: 3
    stride: 1
    pad: 1
  }
}
layer {
  name: "inception_4b/pool_proj"
  type: "Convolution"
  bottom: "inception_4b/pool"
  top: "inception_4b/pool_proj"
  param {
    lr_mult: 1
    decay_mult: 1
  }
  param {
    lr_mult: 2
    decay_mult: 0
  }
  convolution_param {
    num_output: 64
    kernel_size: 1
    weight_filler {
      type: "xavier"
      std: 0.1
    }
    bias_filler {
      type: "constant"
      value: 0.2
    }
  }
}
layer {
  name: "inception_4b/relu_pool_proj"
  type: "ReLU"
  bottom: "inception_4b/pool_proj"
  top: "inception_4b/pool_proj"
}
layer {
  name: "inception_4b/output"
  type: "Concat"
  bottom: "inception_4b/1x1"
  bottom: "inception_4b/3x3"
  bottom: "inception_4b/5x5"
  bottom: "inception_4b/pool_proj"
  top: "inception_4b/output"
}
layer {
  name: "inception_4c/1x1"
  type: "Convolution"
  bottom: "inception_4b/output"
  top: "inception_4c/1x1"
  param {
    lr_mult: 1
    decay_mult: 1
  }
  param {
    lr_mult: 2
    decay_mult: 0
  }
  convolution_param {
    num_output: 128
    kernel_size: 1
    weight_filler {
      type: "xavier"
      std: 0.03
    }
    bias_filler {
      type: "constant"
      value: 0.2
    }
  }
}
layer {
  name: "inception_4c/relu_1x1"
  type: "ReLU"
  bottom: "inception_4c/1x1"
  top: "inception_4c/1x1"
}
layer {
  name: "inception_4c/3x3_reduce"
  type: "Convolution"
  bottom: "inception_4b/output"
  top: "inception_4c/3x3_reduce"
  param {
    lr_mult: 1
    decay_mult: 1
  }
  param {
    lr_mult: 2
    decay_mult: 0
  }
  convolution_param {
    num_output: 128
    kernel_size: 1
    weight_filler {
      type: "xavier"
      std: 0.09
    }
    bias_filler {
      type: "constant"
      value: 0.2
    }
  }
}
layer {
  name: "inception_4c/relu_3x3_reduce"
  type: "ReLU"
  bottom: "inception_4c/3x3_reduce"
  top: "inception_4c/3x3_reduce"
}
layer {
  name: "inception_4c/3x3"
  type: "Convolution"
  bottom: "inception_4c/3x3_reduce"
  top: "inception_4c/3x3"
  param {
    lr_mult: 1
    decay_mult: 1
  }
  param {
    lr_mult: 2
    decay_mult: 0
  }
  convolution_param {
    num_output: 256
    pad: 1
    kernel_size: 3
    weight_filler {
      type: "xavier"
      std: 0.03
    }
    bias_filler {
      type: "constant"
      value: 0.2
    }
  }
}
layer {
  name: "inception_4c/relu_3x3"
  type: "ReLU"
  bottom: "inception_4c/3x3"
  top: "inception_4c/3x3"
}
layer {
  name: "inception_4c/5x5_reduce"
  type: "Convolution"
  bottom: "inception_4b/output"
  top: "inception_4c/5x5_reduce"
  param {
    lr_mult: 1
    decay_mult: 1
  }
  param {
    lr_mult: 2
    decay_mult: 0
  }
  convolution_param {
    num_output: 24
    kernel_size: 1
    weight_filler {
      type: "xavier"
      std: 0.2
    }
    bias_filler {
      type: "constant"
      value: 0.2
    }
  }
}
layer {
  name: "inception_4c/relu_5x5_reduce"
  type: "ReLU"
  bottom: "inception_4c/5x5_reduce"
  top: "inception_4c/5x5_reduce"
}
layer {
  name: "inception_4c/5x5"
  type: "Convolution"
  bottom: "inception_4c/5x5_reduce"
  top: "inception_4c/5x5"
  param {
    lr_mult: 1
    decay_mult: 1
  }
  param {
    lr_mult: 2
    decay_mult: 0
  }
  convolution_param {
    num_output: 64
    pad: 2
    kernel_size: 5
    weight_filler {
      type: "xavier"
      std: 0.03
    }
    bias_filler {
      type: "constant"
      value: 0.2
    }
  }
}
layer {
  name: "inception_4c/relu_5x5"
  type: "ReLU"
  bottom: "inception_4c/5x5"
  top: "inception_4c/5x5"
}
layer {
  name: "inception_4c/pool"
  type: "Pooling"
  bottom: "inception_4b/output"
  top: "inception_4c/pool"
  pooling_param {
    pool: MAX
    kernel_size: 3
    stride: 1
    pad: 1
  }
}
layer {
  name: "inception_4c/pool_proj"
  type: "Convolution"
  bottom: "inception_4c/pool"
  top: "inception_4c/pool_proj"
  param {
    lr_mult: 1
    decay_mult: 1
  }
  param {
    lr_mult: 2
    decay_mult: 0
  }
  convolution_param {
    num_output: 64
    kernel_size: 1
    weight_filler {
      type: "xavier"
      std: 0.1
    }
    bias_filler {
      type: "constant"
      value: 0.2
    }
  }
}
layer {
  name: "inception_4c/relu_pool_proj"
  type: "ReLU"
  bottom: "inception_4c/pool_proj"
  top: "inception_4c/pool_proj"
}
layer {
  name: "inception_4c/output"
  type: "Concat"
  bottom: "inception_4c/1x1"
  bottom: "inception_4c/3x3"
  bottom: "inception_4c/5x5"
  bottom: "inception_4c/pool_proj"
  top: "inception_4c/output"
}
layer {
  name: "inception_4d/1x1"
  type: "Convolution"
  bottom: "inception_4c/output"
  top: "inception_4d/1x1"
  param {
    lr_mult: 1
    decay_mult: 1
  }
  param {
    lr_mult: 2
    decay_mult: 0
  }
  convolution_param {
    num_output: 112
    kernel_size: 1
    weight_filler {
      type: "xavier"
      std: 0.03
    }
    bias_filler {
      type: "constant"
      value: 0.2
    }
  }
}
layer {
  name: "inception_4d/relu_1x1"
  type: "ReLU"
  bottom: "inception_4d/1x1"
  top: "inception_4d/1x1"
}
layer {
  name: "inception_4d/3x3_reduce"
  type: "Convolution"
  bottom: "inception_4c/output"
  top: "inception_4d/3x3_reduce"
  param {
    lr_mult: 1
    decay_mult: 1
  }
  param {
    lr_mult: 2
    decay_mult: 0
  }
  convolution_param {
    num_output: 144
    kernel_size: 1
    weight_filler {
      type: "xavier"
      std: 0.09
    }
    bias_filler {
      type: "constant"
      value: 0.2
    }
  }
}
layer {
  name: "inception_4d/relu_3x3_reduce"
  type: "ReLU"
  bottom: "inception_4d/3x3_reduce"
  top: "inception_4d/3x3_reduce"
}
layer {
  name: "inception_4d/3x3"
  type: "Convolution"
  bottom: "inception_4d/3x3_reduce"
  top: "inception_4d/3x3"
  param {
    lr_mult: 1
    decay_mult: 1
  }
  param {
    lr_mult: 2
    decay_mult: 0
  }
  convolution_param {
    num_output: 288
    pad: 1
    kernel_size: 3
    weight_filler {
      type: "xavier"
      std: 0.03
    }
    bias_filler {
      type: "constant"
      value: 0.2
    }
  }
}
layer {
  name: "inception_4d/relu_3x3"
  type: "ReLU"
  bottom: "inception_4d/3x3"
  top: "inception_4d/3x3"
}
layer {
  name: "inception_4d/5x5_reduce"
  type: "Convolution"
  bottom: "inception_4c/output"
  top: "inception_4d/5x5_reduce"
  param {
    lr_mult: 1
    decay_mult: 1
  }
  param {
    lr_mult: 2
    decay_mult: 0
  }
  convolution_param {
    num_output: 32
    kernel_size: 1
    weight_filler {
      type: "xavier"
      std: 0.2
    }
    bias_filler {
      type: "constant"
      value: 0.2
    }
  }
}
layer {
  name: "inception_4d/relu_5x5_reduce"
  type: "ReLU"
  bottom: "inception_4d/5x5_reduce"
  top: "inception_4d/5x5_reduce"
}
layer {
  name: "inception_4d/5x5"
  type: "Convolution"
  bottom: "inception_4d/5x5_reduce"
  top: "inception_4d/5x5"
  param {
    lr_mult: 1
    decay_mult: 1
  }
  param {
    lr_mult: 2
    decay_mult: 0
  }
  convolution_param {
    num_output: 64
    pad: 2
    kernel_size: 5
    weight_filler {
      type: "xavier"
      std: 0.03
    }
    bias_filler {
      type: "constant"
      value: 0.2
    }
  }
}
layer {
  name: "inception_4d/relu_5x5"
  type: "ReLU"
  bottom: "inception_4d/5x5"
  top: "inception_4d/5x5"
}
layer {
  name: "inception_4d/pool"
  type: "Pooling"
  bottom: "inception_4c/output"
  top: "inception_4d/pool"
  pooling_param {
    pool: MAX
    kernel_size: 3
    stride: 1
    pad: 1
  }
}
layer {
  name: "inception_4d/pool_proj"
  type: "Convolution"
  bottom: "inception_4d/pool"
  top: "inception_4d/pool_proj"
  param {
    lr_mult: 1
    decay_mult: 1
  }
  param {
    lr_mult: 2
    decay_mult: 0
  }
  convolution_param {
    num_output: 64
    kernel_size: 1
    weight_filler {
      type: "xavier"
      std: 0.1
    }
    bias_filler {
      type: "constant"
      value: 0.2
    }
  }
}
layer {
  name: "inception_4d/relu_pool_proj"
  type: "ReLU"
  bottom: "inception_4d/pool_proj"
  top: "inception_4d/pool_proj"
}
layer {
  name: "inception_4d/output"
  type: "Concat"
  bottom: "inception_4d/1x1"
  bottom: "inception_4d/3x3"
  bottom: "inception_4d/5x5"
  bottom: "inception_4d/pool_proj"
  top: "inception_4d/output"
}
layer {
  name: "loss2/ave_pool"
  type: "Pooling"
  bottom: "inception_4d/output"
  top: "loss2/ave_pool"
  pooling_param {
    pool: AVE
    kernel_size: 5
    stride: 3
  }
}
layer {
  name: "loss2/conv"
  type: "Convolution"
  bottom: "loss2/ave_pool"
  top: "loss2/conv"
  param {
    lr_mult: 1
    decay_mult: 1
  }
  param {
    lr_mult: 2
    decay_mult: 0
  }
  convolution_param {
    num_output: 128
    kernel_size: 1
    weight_filler {
      type: "xavier"
      std: 0.08
    }
    bias_filler {
      type: "constant"
      value: 0.2
    }
  }
}
layer {
  name: "loss2/relu_conv"
  type: "ReLU"
  bottom: "loss2/conv"
  top: "loss2/conv"
}
layer {
  name: "loss2/fc"
  type: "InnerProduct"
  bottom: "loss2/conv"
  top: "loss2/fc"
  param {
    lr_mult: 1
    decay_mult: 1
  }
  param {
    lr_mult: 2
    decay_mult: 0
  }
  inner_product_param {
    num_output: 1024
    weight_filler {
      type: "xavier"
      std: 0.02
    }
    bias_filler {
      type: "constant"
      value: 0.2
    }
  }
}
layer {
  name: "loss2/relu_fc"
  type: "ReLU"
  bottom: "loss2/fc"
  top: "loss2/fc"
}
layer {
  name: "loss2/drop_fc"
  type: "Dropout"
  bottom: "loss2/fc"
  top: "loss2/fc"
  dropout_param {
    dropout_ratio: 0.7
  }
}
layer {
  name: "loss2/classifier_plantvillage"
  type: "InnerProduct"
  bottom: "loss2/fc"
  top: "loss2/classifier_plantvillage"
  param {
    lr_mult: 1
    decay_mult: 1
  }
  param {
    lr_mult: 2
    decay_mult: 0
  }
  inner_product_param {
    num_output: 38
    weight_filler {
      type: "xavier"
      std: 0.0009765625
    }
    bias_filler {
      type: "constant"
      value: 0
    }
  }
}
layer {
  name: "inception_4e/1x1"
  type: "Convolution"
  bottom: "inception_4d/output"
  top: "inception_4e/1x1"
  param {
    lr_mult: 1
    decay_mult: 1
  }
  param {
    lr_mult: 2
    decay_mult: 0
  }
  convolution_param {
    num_output: 256
    kernel_size: 1
    weight_filler {
      type: "xavier"
      std: 0.03
    }
    bias_filler {
      type: "constant"
      value: 0.2
    }
  }
}
layer {
  name: "inception_4e/relu_1x1"
  type: "ReLU"
  bottom: "inception_4e/1x1"
  top: "inception_4e/1x1"
}
layer {
  name: "inception_4e/3x3_reduce"
  type: "Convolution"
  bottom: "inception_4d/output"
  top: "inception_4e/3x3_reduce"
  param {
    lr_mult: 1
    decay_mult: 1
  }
  param {
    lr_mult: 2
    decay_mult: 0
  }
  convolution_param {
    num_output: 160
    kernel_size: 1
    weight_filler {
      type: "xavier"
      std: 0.09
    }
    bias_filler {
      type: "constant"
      value: 0.2
    }
  }
}
layer {
  name: "inception_4e/relu_3x3_reduce"
  type: "ReLU"
  bottom: "inception_4e/3x3_reduce"
  top: "inception_4e/3x3_reduce"
}
layer {
  name: "inception_4e/3x3"
  type: "Convolution"
  bottom: "inception_4e/3x3_reduce"
  top: "inception_4e/3x3"
  param {
    lr_mult: 1
    decay_mult: 1
  }
  param {
    lr_mult: 2
    decay_mult: 0
  }
  convolution_param {
    num_output: 320
    pad: 1
    kernel_size: 3
    weight_filler {
      type: "xavier"
      std: 0.03
    }
    bias_filler {
      type: "constant"
      value: 0.2
    }
  }
}
layer {
  name: "inception_4e/relu_3x3"
  type: "ReLU"
  bottom: "inception_4e/3x3"
  top: "inception_4e/3x3"
}
layer {
  name: "inception_4e/5x5_reduce"
  type: "Convolution"
  bottom: "inception_4d/output"
  top: "inception_4e/5x5_reduce"
  param {
    lr_mult: 1
    decay_mult: 1
  }
  param {
    lr_mult: 2
    decay_mult: 0
  }
  convolution_param {
    num_output: 32
    kernel_size: 1
    weight_filler {
      type: "xavier"
      std: 0.2
    }
    bias_filler {
      type: "constant"
      value: 0.2
    }
  }
}
layer {
  name: "inception_4e/relu_5x5_reduce"
  type: "ReLU"
  bottom: "inception_4e/5x5_reduce"
  top: "inception_4e/5x5_reduce"
}
layer {
  name: "inception_4e/5x5"
  type: "Convolution"
  bottom: "inception_4e/5x5_reduce"
  top: "inception_4e/
I0403 14:27:05.690378 13286 layer_factory.hpp:77] Creating layer data
I0403 14:27:05.690989 13286 net.cpp:91] Creating Layer data
I0403 14:27:05.691021 13286 net.cpp:399] data -> data
I0403 14:27:05.691073 13286 net.cpp:399] data -> label
I0403 14:27:05.691109 13286 data_transformer.cpp:25] Loading mean file from: /home/mohanty/data/final_dataset/lmdb/segmented-20-80/mean.binaryproto
I0403 14:27:05.693749 13289 db_lmdb.cpp:38] Opened lmdb /home/mohanty/data/final_dataset/lmdb/segmented-20-80/test_db
I0403 14:27:05.704185 13286 data_layer.cpp:41] output data size: 24,3,224,224
I0403 14:27:05.730861 13286 net.cpp:141] Setting up data
I0403 14:27:05.730944 13286 net.cpp:148] Top shape: 24 3 224 224 (3612672)
I0403 14:27:05.730967 13286 net.cpp:148] Top shape: 24 (24)
I0403 14:27:05.730981 13286 net.cpp:156] Memory required for data: 14450784
I0403 14:27:05.731009 13286 layer_factory.hpp:77] Creating layer label_data_1_split
I0403 14:27:05.731034 13286 net.cpp:91] Creating Layer label_data_1_split
I0403 14:27:05.731052 13286 net.cpp:425] label_data_1_split <- label
I0403 14:27:05.731084 13286 net.cpp:399] label_data_1_split -> label_data_1_split_0
I0403 14:27:05.731112 13286 net.cpp:399] label_data_1_split -> label_data_1_split_1
I0403 14:27:05.731132 13286 net.cpp:399] label_data_1_split -> label_data_1_split_2
I0403 14:27:05.731153 13286 net.cpp:399] label_data_1_split -> label_data_1_split_3
I0403 14:27:05.731171 13286 net.cpp:399] label_data_1_split -> label_data_1_split_4
I0403 14:27:05.731190 13286 net.cpp:399] label_data_1_split -> label_data_1_split_5
I0403 14:27:05.731209 13286 net.cpp:399] label_data_1_split -> label_data_1_split_6
I0403 14:27:05.731228 13286 net.cpp:399] label_data_1_split -> label_data_1_split_7
I0403 14:27:05.731247 13286 net.cpp:399] label_data_1_split -> label_data_1_split_8
I0403 14:27:05.731269 13286 net.cpp:399] label_data_1_split -> label_data_1_split_9
I0403 14:27:05.731382 13286 net.cpp:141] Setting up label_data_1_split
I0403 14:27:05.731405 13286 net.cpp:148] Top shape: 24 (24)
I0403 14:27:05.731421 13286 net.cpp:148] Top shape: 24 (24)
I0403 14:27:05.731437 13286 net.cpp:148] Top shape: 24 (24)
I0403 14:27:05.731452 13286 net.cpp:148] Top shape: 24 (24)
I0403 14:27:05.731467 13286 net.cpp:148] Top shape: 24 (24)
I0403 14:27:05.731482 13286 net.cpp:148] Top shape: 24 (24)
I0403 14:27:05.731497 13286 net.cpp:148] Top shape: 24 (24)
I0403 14:27:05.731511 13286 net.cpp:148] Top shape: 24 (24)
I0403 14:27:05.731525 13286 net.cpp:148] Top shape: 24 (24)
I0403 14:27:05.731546 13286 net.cpp:148] Top shape: 24 (24)
I0403 14:27:05.731595 13286 net.cpp:156] Memory required for data: 14451744
I0403 14:27:05.731611 13286 layer_factory.hpp:77] Creating layer conv1/7x7_s2
I0403 14:27:05.731642 13286 net.cpp:91] Creating Layer conv1/7x7_s2
I0403 14:27:05.731659 13286 net.cpp:425] conv1/7x7_s2 <- data
I0403 14:27:05.731678 13286 net.cpp:399] conv1/7x7_s2 -> conv1/7x7_s2
I0403 14:27:05.869163 13286 net.cpp:141] Setting up conv1/7x7_s2
I0403 14:27:05.869242 13286 net.cpp:148] Top shape: 24 64 112 112 (19267584)
I0403 14:27:05.869262 13286 net.cpp:156] Memory required for data: 91522080
I0403 14:27:05.869293 13286 layer_factory.hpp:77] Creating layer conv1/relu_7x7
I0403 14:27:05.869320 13286 net.cpp:91] Creating Layer conv1/relu_7x7
I0403 14:27:05.869338 13286 net.cpp:425] conv1/relu_7x7 <- conv1/7x7_s2
I0403 14:27:05.869360 13286 net.cpp:386] conv1/relu_7x7 -> conv1/7x7_s2 (in-place)
I0403 14:27:05.869647 13286 net.cpp:141] Setting up conv1/relu_7x7
I0403 14:27:05.869674 13286 net.cpp:148] Top shape: 24 64 112 112 (19267584)
I0403 14:27:05.869690 13286 net.cpp:156] Memory required for data: 168592416
I0403 14:27:05.869705 13286 layer_factory.hpp:77] Creating layer pool1/3x3_s2
I0403 14:27:05.869732 13286 net.cpp:91] Creating Layer pool1/3x3_s2
I0403 14:27:05.869751 13286 net.cpp:425] pool1/3x3_s2 <- conv1/7x7_s2
I0403 14:27:05.869771 13286 net.cpp:399] pool1/3x3_s2 -> pool1/3x3_s2
I0403 14:27:05.869849 13286 net.cpp:141] Setting up pool1/3x3_s2
I0403 14:27:05.869874 13286 net.cpp:148] Top shape: 24 64 56 56 (4816896)
I0403 14:27:05.869890 13286 net.cpp:156] Memory required for data: 187860000
I0403 14:27:05.869905 13286 layer_factory.hpp:77] Creating layer pool1/norm1
I0403 14:27:05.869932 13286 net.cpp:91] Creating Layer pool1/norm1
I0403 14:27:05.869951 13286 net.cpp:425] pool1/norm1 <- pool1/3x3_s2
I0403 14:27:05.869969 13286 net.cpp:399] pool1/norm1 -> pool1/norm1
I0403 14:27:05.870322 13286 net.cpp:141] Setting up pool1/norm1
I0403 14:27:05.870350 13286 net.cpp:148] Top shape: 24 64 56 56 (4816896)
I0403 14:27:05.870367 13286 net.cpp:156] Memory required for data: 207127584
I0403 14:27:05.870381 13286 layer_factory.hpp:77] Creating layer conv2/3x3_reduce
I0403 14:27:05.870407 13286 net.cpp:91] Creating Layer conv2/3x3_reduce
I0403 14:27:05.870425 13286 net.cpp:425] conv2/3x3_reduce <- pool1/norm1
I0403 14:27:05.870446 13286 net.cpp:399] conv2/3x3_reduce -> conv2/3x3_reduce
I0403 14:27:05.871974 13286 net.cpp:141] Setting up conv2/3x3_reduce
I0403 14:27:05.872005 13286 net.cpp:148] Top shape: 24 64 56 56 (4816896)
I0403 14:27:05.872022 13286 net.cpp:156] Memory required for data: 226395168
I0403 14:27:05.872043 13286 layer_factory.hpp:77] Creating layer conv2/relu_3x3_reduce
I0403 14:27:05.872062 13286 net.cpp:91] Creating Layer conv2/relu_3x3_reduce
I0403 14:27:05.872079 13286 net.cpp:425] conv2/relu_3x3_reduce <- conv2/3x3_reduce
I0403 14:27:05.872099 13286 net.cpp:386] conv2/relu_3x3_reduce -> conv2/3x3_reduce (in-place)
I0403 14:27:05.872390 13286 net.cpp:141] Setting up conv2/relu_3x3_reduce
I0403 14:27:05.872418 13286 net.cpp:148] Top shape: 24 64 56 56 (4816896)
I0403 14:27:05.872433 13286 net.cpp:156] Memory required for data: 245662752
I0403 14:27:05.872449 13286 layer_factory.hpp:77] Creating layer conv2/3x3
I0403 14:27:05.872473 13286 net.cpp:91] Creating Layer conv2/3x3
I0403 14:27:05.872493 13286 net.cpp:425] conv2/3x3 <- conv2/3x3_reduce
I0403 14:27:05.872514 13286 net.cpp:399] conv2/3x3 -> conv2/3x3
I0403 14:27:05.874945 13286 net.cpp:141] Setting up conv2/3x3
I0403 14:27:05.874976 13286 net.cpp:148] Top shape: 24 192 56 56 (14450688)
I0403 14:27:05.874994 13286 net.cpp:156] Memory required for data: 303465504
I0403 14:27:05.875015 13286 layer_factory.hpp:77] Creating layer conv2/relu_3x3
I0403 14:27:05.875035 13286 net.cpp:91] Creating Layer conv2/relu_3x3
I0403 14:27:05.875051 13286 net.cpp:425] conv2/relu_3x3 <- conv2/3x3
I0403 14:27:05.875069 13286 net.cpp:386] conv2/relu_3x3 -> conv2/3x3 (in-place)
I0403 14:27:05.875247 13286 net.cpp:141] Setting up conv2/relu_3x3
I0403 14:27:05.875273 13286 net.cpp:148] Top shape: 24 192 56 56 (14450688)
I0403 14:27:05.875326 13286 net.cpp:156] Memory required for data: 361268256
I0403 14:27:05.875342 13286 layer_factory.hpp:77] Creating layer conv2/norm2
I0403 14:27:05.875363 13286 net.cpp:91] Creating Layer conv2/norm2
I0403 14:27:05.875380 13286 net.cpp:425] conv2/norm2 <- conv2/3x3
I0403 14:27:05.875396 13286 net.cpp:399] conv2/norm2 -> conv2/norm2
I0403 14:27:05.875712 13286 net.cpp:141] Setting up conv2/norm2
I0403 14:27:05.875742 13286 net.cpp:148] Top shape: 24 192 56 56 (14450688)
I0403 14:27:05.875758 13286 net.cpp:156] Memory required for data: 419071008
I0403 14:27:05.875774 13286 layer_factory.hpp:77] Creating layer pool2/3x3_s2
I0403 14:27:05.875792 13286 net.cpp:91] Creating Layer pool2/3x3_s2
I0403 14:27:05.875808 13286 net.cpp:425] pool2/3x3_s2 <- conv2/norm2
I0403 14:27:05.875824 13286 net.cpp:399] pool2/3x3_s2 -> pool2/3x3_s2
I0403 14:27:05.875879 13286 net.cpp:141] Setting up pool2/3x3_s2
I0403 14:27:05.875901 13286 net.cpp:148] Top shape: 24 192 28 28 (3612672)
I0403 14:27:05.875916 13286 net.cpp:156] Memory required for data: 433521696
I0403 14:27:05.875931 13286 layer_factory.hpp:77] Creating layer pool2/3x3_s2_pool2/3x3_s2_0_split
I0403 14:27:05.875949 13286 net.cpp:91] Creating Layer pool2/3x3_s2_pool2/3x3_s2_0_split
I0403 14:27:05.875965 13286 net.cpp:425] pool2/3x3_s2_pool2/3x3_s2_0_split <- pool2/3x3_s2
I0403 14:27:05.875983 13286 net.cpp:399] pool2/3x3_s2_pool2/3x3_s2_0_split -> pool2/3x3_s2_pool2/3x3_s2_0_split_0
I0403 14:27:05.876001 13286 net.cpp:399] pool2/3x3_s2_pool2/3x3_s2_0_split -> pool2/3x3_s2_pool2/3x3_s2_0_split_1
I0403 14:27:05.876021 13286 net.cpp:399] pool2/3x3_s2_pool2/3x3_s2_0_split -> pool2/3x3_s2_pool2/3x3_s2_0_split_2
I0403 14:27:05.876044 13286 net.cpp:399] pool2/3x3_s2_pool2/3x3_s2_0_split -> pool2/3x3_s2_pool2/3x3_s2_0_split_3
I0403 14:27:05.876116 13286 net.cpp:141] Setting up pool2/3x3_s2_pool2/3x3_s2_0_split
I0403 14:27:05.876139 13286 net.cpp:148] Top shape: 24 192 28 28 (3612672)
I0403 14:27:05.876155 13286 net.cpp:148] Top shape: 24 192 28 28 (3612672)
I0403 14:27:05.876170 13286 net.cpp:148] Top shape: 24 192 28 28 (3612672)
I0403 14:27:05.876186 13286 net.cpp:148] Top shape: 24 192 28 28 (3612672)
I0403 14:27:05.876200 13286 net.cpp:156] Memory required for data: 491324448
I0403 14:27:05.876214 13286 layer_factory.hpp:77] Creating layer inception_3a/1x1
I0403 14:27:05.876235 13286 net.cpp:91] Creating Layer inception_3a/1x1
I0403 14:27:05.876253 13286 net.cpp:425] inception_3a/1x1 <- pool2/3x3_s2_pool2/3x3_s2_0_split_0
I0403 14:27:05.876276 13286 net.cpp:399] inception_3a/1x1 -> inception_3a/1x1
I0403 14:27:05.877852 13286 net.cpp:141] Setting up inception_3a/1x1
I0403 14:27:05.877884 13286 net.cpp:148] Top shape: 24 64 28 28 (1204224)
I0403 14:27:05.877902 13286 net.cpp:156] Memory required for data: 496141344
I0403 14:27:05.877919 13286 layer_factory.hpp:77] Creating layer inception_3a/relu_1x1
I0403 14:27:05.877938 13286 net.cpp:91] Creating Layer inception_3a/relu_1x1
I0403 14:27:05.877954 13286 net.cpp:425] inception_3a/relu_1x1 <- inception_3a/1x1
I0403 14:27:05.877974 13286 net.cpp:386] inception_3a/relu_1x1 -> inception_3a/1x1 (in-place)
I0403 14:27:05.878152 13286 net.cpp:141] Setting up inception_3a/relu_1x1
I0403 14:27:05.878177 13286 net.cpp:148] Top shape: 24 64 28 28 (1204224)
I0403 14:27:05.878192 13286 net.cpp:156] Memory required for data: 500958240
I0403 14:27:05.878207 13286 layer_factory.hpp:77] Creating layer inception_3a/3x3_reduce
I0403 14:27:05.878229 13286 net.cpp:91] Creating Layer inception_3a/3x3_reduce
I0403 14:27:05.878247 13286 net.cpp:425] inception_3a/3x3_reduce <- pool2/3x3_s2_pool2/3x3_s2_0_split_1
I0403 14:27:05.878271 13286 net.cpp:399] inception_3a/3x3_reduce -> inception_3a/3x3_reduce
I0403 14:27:05.879997 13286 net.cpp:141] Setting up inception_3a/3x3_reduce
I0403 14:27:05.880026 13286 net.cpp:148] Top shape: 24 96 28 28 (1806336)
I0403 14:27:05.880043 13286 net.cpp:156] Memory required for data: 508183584
I0403 14:27:05.880064 13286 layer_factory.hpp:77] Creating layer inception_3a/relu_3x3_reduce
I0403 14:27:05.880103 13286 net.cpp:91] Creating Layer inception_3a/relu_3x3_reduce
I0403 14:27:05.880121 13286 net.cpp:425] inception_3a/relu_3x3_reduce <- inception_3a/3x3_reduce
I0403 14:27:05.880138 13286 net.cpp:386] inception_3a/relu_3x3_reduce -> inception_3a/3x3_reduce (in-place)
I0403 14:27:05.880321 13286 net.cpp:141] Setting up inception_3a/relu_3x3_reduce
I0403 14:27:05.880349 13286 net.cpp:148] Top shape: 24 96 28 28 (1806336)
I0403 14:27:05.880364 13286 net.cpp:156] Memory required for data: 515408928
I0403 14:27:05.880379 13286 layer_factory.hpp:77] Creating layer inception_3a/3x3
I0403 14:27:05.880401 13286 net.cpp:91] Creating Layer inception_3a/3x3
I0403 14:27:05.880419 13286 net.cpp:425] inception_3a/3x3 <- inception_3a/3x3_reduce
I0403 14:27:05.880436 13286 net.cpp:399] inception_3a/3x3 -> inception_3a/3x3
I0403 14:27:05.882131 13286 net.cpp:141] Setting up inception_3a/3x3
I0403 14:27:05.882160 13286 net.cpp:148] Top shape: 24 128 28 28 (2408448)
I0403 14:27:05.882175 13286 net.cpp:156] Memory required for data: 525042720
I0403 14:27:05.882194 13286 layer_factory.hpp:77] Creating layer inception_3a/relu_3x3
I0403 14:27:05.882215 13286 net.cpp:91] Creating Layer inception_3a/relu_3x3
I0403 14:27:05.882232 13286 net.cpp:425] inception_3a/relu_3x3 <- inception_3a/3x3
I0403 14:27:05.882249 13286 net.cpp:386] inception_3a/relu_3x3 -> inception_3a/3x3 (in-place)
I0403 14:27:05.882529 13286 net.cpp:141] Setting up inception_3a/relu_3x3
I0403 14:27:05.882560 13286 net.cpp:148] Top shape: 24 128 28 28 (2408448)
I0403 14:27:05.882575 13286 net.cpp:156] Memory required for data: 534676512
I0403 14:27:05.882591 13286 layer_factory.hpp:77] Creating layer inception_3a/5x5_reduce
I0403 14:27:05.882613 13286 net.cpp:91] Creating Layer inception_3a/5x5_reduce
I0403 14:27:05.882632 13286 net.cpp:425] inception_3a/5x5_reduce <- pool2/3x3_s2_pool2/3x3_s2_0_split_2
I0403 14:27:05.882652 13286 net.cpp:399] inception_3a/5x5_reduce -> inception_3a/5x5_reduce
I0403 14:27:05.883630 13286 net.cpp:141] Setting up inception_3a/5x5_reduce
I0403 14:27:05.883657 13286 net.cpp:148] Top shape: 24 16 28 28 (301056)
I0403 14:27:05.883673 13286 net.cpp:156] Memory required for data: 535880736
I0403 14:27:05.883692 13286 layer_factory.hpp:77] Creating layer inception_3a/relu_5x5_reduce
I0403 14:27:05.883713 13286 net.cpp:91] Creating Layer inception_3a/relu_5x5_reduce
I0403 14:27:05.883729 13286 net.cpp:425] inception_3a/relu_5x5_reduce <- inception_3a/5x5_reduce
I0403 14:27:05.883747 13286 net.cpp:386] inception_3a/relu_5x5_reduce -> inception_3a/5x5_reduce (in-place)
I0403 14:27:05.884053 13286 net.cpp:141] Setting up inception_3a/relu_5x5_reduce
I0403 14:27:05.884080 13286 net.cpp:148] Top shape: 24 16 28 28 (301056)
I0403 14:27:05.884095 13286 net.cpp:156] Memory required for data: 537084960
I0403 14:27:05.884110 13286 layer_factory.hpp:77] Creating layer inception_3a/5x5
I0403 14:27:05.884135 13286 net.cpp:91] Creating Layer inception_3a/5x5
I0403 14:27:05.884153 13286 net.cpp:425] inception_3a/5x5 <- inception_3a/5x5_reduce
I0403 14:27:05.884174 13286 net.cpp:399] inception_3a/5x5 -> inception_3a/5x5
I0403 14:27:05.885216 13286 net.cpp:141] Setting up inception_3a/5x5
I0403 14:27:05.885246 13286 net.cpp:148] Top shape: 24 32 28 28 (602112)
I0403 14:27:05.885265 13286 net.cpp:156] Memory required for data: 539493408
I0403 14:27:05.885283 13286 layer_factory.hpp:77] Creating layer inception_3a/relu_5x5
I0403 14:27:05.885303 13286 net.cpp:91] Creating Layer inception_3a/relu_5x5
I0403 14:27:05.885319 13286 net.cpp:425] inception_3a/relu_5x5 <- inception_3a/5x5
I0403 14:27:05.885339 13286 net.cpp:386] inception_3a/relu_5x5 -> inception_3a/5x5 (in-place)
I0403 14:27:05.885516 13286 net.cpp:141] Setting up inception_3a/relu_5x5
I0403 14:27:05.885545 13286 net.cpp:148] Top shape: 24 32 28 28 (602112)
I0403 14:27:05.885562 13286 net.cpp:156] Memory required for data: 541901856
I0403 14:27:05.885576 13286 layer_factory.hpp:77] Creating layer inception_3a/pool
I0403 14:27:05.885597 13286 net.cpp:91] Creating Layer inception_3a/pool
I0403 14:27:05.885628 13286 net.cpp:425] inception_3a/pool <- pool2/3x3_s2_pool2/3x3_s2_0_split_3
I0403 14:27:05.885648 13286 net.cpp:399] inception_3a/pool -> inception_3a/pool
I0403 14:27:05.885707 13286 net.cpp:141] Setting up inception_3a/pool
I0403 14:27:05.885730 13286 net.cpp:148] Top shape: 24 192 28 28 (3612672)
I0403 14:27:05.885746 13286 net.cpp:156] Memory required for data: 556352544
I0403 14:27:05.885761 13286 layer_factory.hpp:77] Creating layer inception_3a/pool_proj
I0403 14:27:05.885783 13286 net.cpp:91] Creating Layer inception_3a/pool_proj
I0403 14:27:05.885802 13286 net.cpp:425] inception_3a/pool_proj <- inception_3a/pool
I0403 14:27:05.885824 13286 net.cpp:399] inception_3a/pool_proj -> inception_3a/pool_proj
I0403 14:27:05.886824 13286 net.cpp:141] Setting up inception_3a/pool_proj
I0403 14:27:05.886853 13286 net.cpp:148] Top shape: 24 32 28 28 (602112)
I0403 14:27:05.886869 13286 net.cpp:156] Memory required for data: 558760992
I0403 14:27:05.886893 13286 layer_factory.hpp:77] Creating layer inception_3a/relu_pool_proj
I0403 14:27:05.886915 13286 net.cpp:91] Creating Layer inception_3a/relu_pool_proj
I0403 14:27:05.886932 13286 net.cpp:425] inception_3a/relu_pool_proj <- inception_3a/pool_proj
I0403 14:27:05.886950 13286 net.cpp:386] inception_3a/relu_pool_proj -> inception_3a/pool_proj (in-place)
I0403 14:27:05.887229 13286 net.cpp:141] Setting up inception_3a/relu_pool_proj
I0403 14:27:05.887256 13286 net.cpp:148] Top shape: 24 32 28 28 (602112)
I0403 14:27:05.887271 13286 net.cpp:156] Memory required for data: 561169440
I0403 14:27:05.887286 13286 layer_factory.hpp:77] Creating layer inception_3a/output
I0403 14:27:05.887305 13286 net.cpp:91] Creating Layer inception_3a/output
I0403 14:27:05.887320 13286 net.cpp:425] inception_3a/output <- inception_3a/1x1
I0403 14:27:05.887336 13286 net.cpp:425] inception_3a/output <- inception_3a/3x3
I0403 14:27:05.887352 13286 net.cpp:425] inception_3a/output <- inception_3a/5x5
I0403 14:27:05.887368 13286 net.cpp:425] inception_3a/output <- inception_3a/pool_proj
I0403 14:27:05.887388 13286 net.cpp:399] inception_3a/output -> inception_3a/output
I0403 14:27:05.887434 13286 net.cpp:141] Setting up inception_3a/output
I0403 14:27:05.887461 13286 net.cpp:148] Top shape: 24 256 28 28 (4816896)
I0403 14:27:05.887476 13286 net.cpp:156] Memory required for data: 580437024
I0403 14:27:05.887491 13286 layer_factory.hpp:77] Creating layer inception_3a/output_inception_3a/output_0_split
I0403 14:27:05.887508 13286 net.cpp:91] Creating Layer inception_3a/output_inception_3a/output_0_split
I0403 14:27:05.887523 13286 net.cpp:425] inception_3a/output_inception_3a/output_0_split <- inception_3a/output
I0403 14:27:05.887552 13286 net.cpp:399] inception_3a/output_inception_3a/output_0_split -> inception_3a/output_inception_3a/output_0_split_0
I0403 14:27:05.887574 13286 net.cpp:399] inception_3a/output_inception_3a/output_0_split -> inception_3a/output_inception_3a/output_0_split_1
I0403 14:27:05.887598 13286 net.cpp:399] inception_3a/output_inception_3a/output_0_split -> inception_3a/output_inception_3a/output_0_split_2
I0403 14:27:05.887617 13286 net.cpp:399] inception_3a/output_inception_3a/output_0_split -> inception_3a/output_inception_3a/output_0_split_3
I0403 14:27:05.887693 13286 net.cpp:141] Setting up inception_3a/output_inception_3a/output_0_split
I0403 14:27:05.887718 13286 net.cpp:148] Top shape: 24 256 28 28 (4816896)
I0403 14:27:05.887735 13286 net.cpp:148] Top shape: 24 256 28 28 (4816896)
I0403 14:27:05.887753 13286 net.cpp:148] Top shape: 24 256 28 28 (4816896)
I0403 14:27:05.887768 13286 net.cpp:148] Top shape: 24 256 28 28 (4816896)
I0403 14:27:05.887783 13286 net.cpp:156] Memory required for data: 657507360
I0403 14:27:05.887796 13286 layer_factory.hpp:77] Creating layer inception_3b/1x1
I0403 14:27:05.887819 13286 net.cpp:91] Creating Layer inception_3b/1x1
I0403 14:27:05.887836 13286 net.cpp:425] inception_3b/1x1 <- inception_3a/output_inception_3a/output_0_split_0
I0403 14:27:05.887856 13286 net.cpp:399] inception_3b/1x1 -> inception_3b/1x1
I0403 14:27:05.889014 13286 net.cpp:141] Setting up inception_3b/1x1
I0403 14:27:05.889055 13286 net.cpp:148] Top shape: 24 128 28 28 (2408448)
I0403 14:27:05.889072 13286 net.cpp:156] Memory required for data: 667141152
I0403 14:27:05.889089 13286 layer_factory.hpp:77] Creating layer inception_3b/relu_1x1
I0403 14:27:05.889107 13286 net.cpp:91] Creating Layer inception_3b/relu_1x1
I0403 14:27:05.889122 13286 net.cpp:425] inception_3b/relu_1x1 <- inception_3b/1x1
I0403 14:27:05.889142 13286 net.cpp:386] inception_3b/relu_1x1 -> inception_3b/1x1 (in-place)
I0403 14:27:05.889317 13286 net.cpp:141] Setting up inception_3b/relu_1x1
I0403 14:27:05.889341 13286 net.cpp:148] Top shape: 24 128 28 28 (2408448)
I0403 14:27:05.889355 13286 net.cpp:156] Memory required for data: 676774944
I0403 14:27:05.889369 13286 layer_factory.hpp:77] Creating layer inception_3b/3x3_reduce
I0403 14:27:05.889391 13286 net.cpp:91] Creating Layer inception_3b/3x3_reduce
I0403 14:27:05.889408 13286 net.cpp:425] inception_3b/3x3_reduce <- inception_3a/output_inception_3a/output_0_split_1
I0403 14:27:05.889428 13286 net.cpp:399] inception_3b/3x3_reduce -> inception_3b/3x3_reduce
I0403 14:27:05.890558 13286 net.cpp:141] Setting up inception_3b/3x3_reduce
I0403 14:27:05.890588 13286 net.cpp:148] Top shape: 24 128 28 28 (2408448)
I0403 14:27:05.890604 13286 net.cpp:156] Memory required for data: 686408736
I0403 14:27:05.890621 13286 layer_factory.hpp:77] Creating layer inception_3b/relu_3x3_reduce
I0403 14:27:05.890638 13286 net.cpp:91] Creating Layer inception_3b/relu_3x3_reduce
I0403 14:27:05.890655 13286 net.cpp:425] inception_3b/relu_3x3_reduce <- inception_3b/3x3_reduce
I0403 14:27:05.890674 13286 net.cpp:386] inception_3b/relu_3x3_reduce -> inception_3b/3x3_reduce (in-place)
I0403 14:27:05.890843 13286 net.cpp:141] Setting up inception_3b/relu_3x3_reduce
I0403 14:27:05.890868 13286 net.cpp:148] Top shape: 24 128 28 28 (2408448)
I0403 14:27:05.890882 13286 net.cpp:156] Memory required for data: 696042528
I0403 14:27:05.890897 13286 layer_factory.hpp:77] Creating layer inception_3b/3x3
I0403 14:27:05.890921 13286 net.cpp:91] Creating Layer inception_3b/3x3
I0403 14:27:05.890939 13286 net.cpp:425] inception_3b/3x3 <- inception_3b/3x3_reduce
I0403 14:27:05.890957 13286 net.cpp:399] inception_3b/3x3 -> inception_3b/3x3
I0403 14:27:05.893818 13286 net.cpp:141] Setting up inception_3b/3x3
I0403 14:27:05.893846 13286 net.cpp:148] Top shape: 24 192 28 28 (3612672)
I0403 14:27:05.893862 13286 net.cpp:156] Memory required for data: 710493216
I0403 14:27:05.893878 13286 layer_factory.hpp:77] Creating layer inception_3b/relu_3x3
I0403 14:27:05.893898 13286 net.cpp:91] Creating Layer inception_3b/relu_3x3
I0403 14:27:05.893914 13286 net.cpp:425] inception_3b/relu_3x3 <- inception_3b/3x3
I0403 14:27:05.893930 13286 net.cpp:386] inception_3b/relu_3x3 -> inception_3b/3x3 (in-place)
I0403 14:27:05.894196 13286 net.cpp:141] Setting up inception_3b/relu_3x3
I0403 14:27:05.894222 13286 net.cpp:148] Top shape: 24 192 28 28 (3612672)
I0403 14:27:05.894235 13286 net.cpp:156] Memory required for data: 724943904
I0403 14:27:05.894249 13286 layer_factory.hpp:77] Creating layer inception_3b/5x5_reduce
I0403 14:27:05.894274 13286 net.cpp:91] Creating Layer inception_3b/5x5_reduce
I0403 14:27:05.894291 13286 net.cpp:425] inception_3b/5x5_reduce <- inception_3a/output_inception_3a/output_0_split_2
I0403 14:27:05.894311 13286 net.cpp:399] inception_3b/5x5_reduce -> inception_3b/5x5_reduce
I0403 14:27:05.895272 13286 net.cpp:141] Setting up inception_3b/5x5_reduce
I0403 14:27:05.895299 13286 net.cpp:148] Top shape: 24 32 28 28 (602112)
I0403 14:27:05.895314 13286 net.cpp:156] Memory required for data: 727352352
I0403 14:27:05.895331 13286 layer_factory.hpp:77] Creating layer inception_3b/relu_5x5_reduce
I0403 14:27:05.895349 13286 net.cpp:91] Creating Layer inception_3b/relu_5x5_reduce
I0403 14:27:05.895364 13286 net.cpp:425] inception_3b/relu_5x5_reduce <- inception_3b/5x5_reduce
I0403 14:27:05.895382 13286 net.cpp:386] inception_3b/relu_5x5_reduce -> inception_3b/5x5_reduce (in-place)
I0403 14:27:05.895576 13286 net.cpp:141] Setting up inception_3b/relu_5x5_reduce
I0403 14:27:05.895599 13286 net.cpp:148] Top shape: 24 32 28 28 (602112)
I0403 14:27:05.895613 13286 net.cpp:156] Memory required for data: 729760800
I0403 14:27:05.895627 13286 layer_factory.hpp:77] Creating layer inception_3b/5x5
I0403 14:27:05.895648 13286 net.cpp:91] Creating Layer inception_3b/5x5
I0403 14:27:05.895664 13286 net.cpp:425] inception_3b/5x5 <- inception_3b/5x5_reduce
I0403 14:27:05.895684 13286 net.cpp:399] inception_3b/5x5 -> inception_3b/5x5
I0403 14:27:05.897649 13286 net.cpp:141] Setting up inception_3b/5x5
I0403 14:27:05.897680 13286 net.cpp:148] Top shape: 24 96 28 28 (1806336)
I0403 14:27:05.897696 13286 net.cpp:156] Memory required for data: 736986144
I0403 14:27:05.897714 13286 layer_factory.hpp:77] Creating layer inception_3b/relu_5x5
I0403 14:27:05.897743 13286 net.cpp:91] Creating Layer inception_3b/relu_5x5
I0403 14:27:05.897759 13286 net.cpp:425] inception_3b/relu_5x5 <- inception_3b/5x5
I0403 14:27:05.897778 13286 net.cpp:386] inception_3b/relu_5x5 -> inception_3b/5x5 (in-place)
I0403 14:27:05.897965 13286 net.cpp:141] Setting up inception_3b/relu_5x5
I0403 14:27:05.897989 13286 net.cpp:148] Top shape: 24 96 28 28 (1806336)
I0403 14:27:05.898002 13286 net.cpp:156] Memory required for data: 744211488
I0403 14:27:05.898016 13286 layer_factory.hpp:77] Creating layer inception_3b/pool
I0403 14:27:05.898032 13286 net.cpp:91] Creating Layer inception_3b/pool
I0403 14:27:05.898047 13286 net.cpp:425] inception_3b/pool <- inception_3a/output_inception_3a/output_0_split_3
I0403 14:27:05.898064 13286 net.cpp:399] inception_3b/pool -> inception_3b/pool
I0403 14:27:05.898118 13286 net.cpp:141] Setting up inception_3b/pool
I0403 14:27:05.898139 13286 net.cpp:148] Top shape: 24 256 28 28 (4816896)
I0403 14:27:05.898154 13286 net.cpp:156] Memory required for data: 763479072
I0403 14:27:05.898167 13286 layer_factory.hpp:77] Creating layer inception_3b/pool_proj
I0403 14:27:05.898190 13286 net.cpp:91] Creating Layer inception_3b/pool_proj
I0403 14:27:05.898206 13286 net.cpp:425] inception_3b/pool_proj <- inception_3b/pool
I0403 14:27:05.898224 13286 net.cpp:399] inception_3b/pool_proj -> inception_3b/pool_proj
I0403 14:27:05.899242 13286 net.cpp:141] Setting up inception_3b/pool_proj
I0403 14:27:05.899271 13286 net.cpp:148] Top shape: 24 64 28 28 (1204224)
I0403 14:27:05.899286 13286 net.cpp:156] Memory required for data: 768295968
I0403 14:27:05.899303 13286 layer_factory.hpp:77] Creating layer inception_3b/relu_pool_proj
I0403 14:27:05.899322 13286 net.cpp:91] Creating Layer inception_3b/relu_pool_proj
I0403 14:27:05.899338 13286 net.cpp:425] inception_3b/relu_pool_proj <- inception_3b/pool_proj
I0403 14:27:05.899355 13286 net.cpp:386] inception_3b/relu_pool_proj -> inception_3b/pool_proj (in-place)
I0403 14:27:05.899741 13286 net.cpp:141] Setting up inception_3b/relu_pool_proj
I0403 14:27:05.899766 13286 net.cpp:148] Top shape: 24 64 28 28 (1204224)
I0403 14:27:05.899780 13286 net.cpp:156] Memory required for data: 773112864
I0403 14:27:05.899794 13286 layer_factory.hpp:77] Creating layer inception_3b/output
I0403 14:27:05.899813 13286 net.cpp:91] Creating Layer inception_3b/output
I0403 14:27:05.899829 13286 net.cpp:425] inception_3b/output <- inception_3b/1x1
I0403 14:27:05.899845 13286 net.cpp:425] inception_3b/output <- inception_3b/3x3
I0403 14:27:05.899860 13286 net.cpp:425] inception_3b/output <- inception_3b/5x5
I0403 14:27:05.899874 13286 net.cpp:425] inception_3b/output <- inception_3b/pool_proj
I0403 14:27:05.899890 13286 net.cpp:399] inception_3b/output -> inception_3b/output
I0403 14:27:05.899931 13286 net.cpp:141] Setting up inception_3b/output
I0403 14:27:05.899955 13286 net.cpp:148] Top shape: 24 480 28 28 (9031680)
I0403 14:27:05.899969 13286 net.cpp:156] Memory required for data: 809239584
I0403 14:27:05.899983 13286 layer_factory.hpp:77] Creating layer pool3/3x3_s2
I0403 14:27:05.900001 13286 net.cpp:91] Creating Layer pool3/3x3_s2
I0403 14:27:05.900014 13286 net.cpp:425] pool3/3x3_s2 <- inception_3b/output
I0403 14:27:05.900048 13286 net.cpp:399] pool3/3x3_s2 -> pool3/3x3_s2
I0403 14:27:05.900104 13286 net.cpp:141] Setting up pool3/3x3_s2
I0403 14:27:05.900128 13286 net.cpp:148] Top shape: 24 480 14 14 (2257920)
I0403 14:27:05.900142 13286 net.cpp:156] Memory required for data: 818271264
I0403 14:27:05.900156 13286 layer_factory.hpp:77] Creating layer pool3/3x3_s2_pool3/3x3_s2_0_split
I0403 14:27:05.900171 13286 net.cpp:91] Creating Layer pool3/3x3_s2_pool3/3x3_s2_0_split
I0403 14:27:05.900185 13286 net.cpp:425] pool3/3x3_s2_pool3/3x3_s2_0_split <- pool3/3x3_s2
I0403 14:27:05.900202 13286 net.cpp:399] pool3/3x3_s2_pool3/3x3_s2_0_split -> pool3/3x3_s2_pool3/3x3_s2_0_split_0
I0403 14:27:05.900219 13286 net.cpp:399] pool3/3x3_s2_pool3/3x3_s2_0_split -> pool3/3x3_s2_pool3/3x3_s2_0_split_1
I0403 14:27:05.900239 13286 net.cpp:399] pool3/3x3_s2_pool3/3x3_s2_0_split -> pool3/3x3_s2_pool3/3x3_s2_0_split_2
I0403 14:27:05.900259 13286 net.cpp:399] pool3/3x3_s2_pool3/3x3_s2_0_split -> pool3/3x3_s2_pool3/3x3_s2_0_split_3
I0403 14:27:05.900332 13286 net.cpp:141] Setting up pool3/3x3_s2_pool3/3x3_s2_0_split
I0403 14:27:05.900354 13286 net.cpp:148] Top shape: 24 480 14 14 (2257920)
I0403 14:27:05.900370 13286 net.cpp:148] Top shape: 24 480 14 14 (2257920)
I0403 14:27:05.900385 13286 net.cpp:148] Top shape: 24 480 14 14 (2257920)
I0403 14:27:05.900399 13286 net.cpp:148] Top shape: 24 480 14 14 (2257920)
I0403 14:27:05.900413 13286 net.cpp:156] Memory required for data: 854397984
I0403 14:27:05.900426 13286 layer_factory.hpp:77] Creating layer inception_4a/1x1
I0403 14:27:05.900447 13286 net.cpp:91] Creating Layer inception_4a/1x1
I0403 14:27:05.900465 13286 net.cpp:425] inception_4a/1x1 <- pool3/3x3_s2_pool3/3x3_s2_0_split_0
I0403 14:27:05.900485 13286 net.cpp:399] inception_4a/1x1 -> inception_4a/1x1
I0403 14:27:05.902007 13286 net.cpp:141] Setting up inception_4a/1x1
I0403 14:27:05.902034 13286 net.cpp:148] Top shape: 24 192 14 14 (903168)
I0403 14:27:05.902048 13286 net.cpp:156] Memory required for data: 858010656
I0403 14:27:05.902065 13286 layer_factory.hpp:77] Creating layer inception_4a/relu_1x1
I0403 14:27:05.902084 13286 net.cpp:91] Creating Layer inception_4a/relu_1x1
I0403 14:27:05.902099 13286 net.cpp:425] inception_4a/relu_1x1 <- inception_4a/1x1
I0403 14:27:05.902117 13286 net.cpp:386] inception_4a/relu_1x1 -> inception_4a/1x1 (in-place)
I0403 14:27:05.902289 13286 net.cpp:141] Setting up inception_4a/relu_1x1
I0403 14:27:05.902313 13286 net.cpp:148] Top shape: 24 192 14 14 (903168)
I0403 14:27:05.902328 13286 net.cpp:156] Memory required for data: 861623328
I0403 14:27:05.902341 13286 layer_factory.hpp:77] Creating layer inception_4a/3x3_reduce
I0403 14:27:05.902364 13286 net.cpp:91] Creating Layer inception_4a/3x3_reduce
I0403 14:27:05.902379 13286 net.cpp:425] inception_4a/3x3_reduce <- pool3/3x3_s2_pool3/3x3_s2_0_split_1
I0403 14:27:05.902400 13286 net.cpp:399] inception_4a/3x3_reduce -> inception_4a/3x3_reduce
I0403 14:27:05.903694 13286 net.cpp:141] Setting up inception_4a/3x3_reduce
I0403 14:27:05.903723 13286 net.cpp:148] Top shape: 24 96 14 14 (451584)
I0403 14:27:05.903738 13286 net.cpp:156] Memory required for data: 863429664
I0403 14:27:05.903761 13286 layer_factory.hpp:77] Creating layer inception_4a/relu_3x3_reduce
I0403 14:27:05.903782 13286 net.cpp:91] Creating Layer inception_4a/relu_3x3_reduce
I0403 14:27:05.903800 13286 net.cpp:425] inception_4a/relu_3x3_reduce <- inception_4a/3x3_reduce
I0403 14:27:05.903816 13286 net.cpp:386] inception_4a/relu_3x3_reduce -> inception_4a/3x3_reduce (in-place)
I0403 14:27:05.903990 13286 net.cpp:141] Setting up inception_4a/relu_3x3_reduce
I0403 14:27:05.904016 13286 net.cpp:148] Top shape: 24 96 14 14 (451584)
I0403 14:27:05.904031 13286 net.cpp:156] Memory required for data: 865236000
I0403 14:27:05.904047 13286 layer_factory.hpp:77] Creating layer inception_4a/3x3
I0403 14:27:05.904068 13286 net.cpp:91] Creating Layer inception_4a/3x3
I0403 14:27:05.904085 13286 net.cpp:425] inception_4a/3x3 <- inception_4a/3x3_reduce
I0403 14:27:05.904104 13286 net.cpp:399] inception_4a/3x3 -> inception_4a/3x3
I0403 14:27:05.906802 13286 net.cpp:141] Setting up inception_4a/3x3
I0403 14:27:05.906832 13286 net.cpp:148] Top shape: 24 208 14 14 (978432)
I0403 14:27:05.906848 13286 net.cpp:156] Memory required for data: 869149728
I0403 14:27:05.906867 13286 layer_factory.hpp:77] Creating layer inception_4a/relu_3x3
I0403 14:27:05.906884 13286 net.cpp:91] Creating Layer inception_4a/relu_3x3
I0403 14:27:05.906900 13286 net.cpp:425] inception_4a/relu_3x3 <- inception_4a/3x3
I0403 14:27:05.906919 13286 net.cpp:386] inception_4a/relu_3x3 -> inception_4a/3x3 (in-place)
I0403 14:27:05.907196 13286 net.cpp:141] Setting up inception_4a/relu_3x3
I0403 14:27:05.907223 13286 net.cpp:148] Top shape: 24 208 14 14 (978432)
I0403 14:27:05.907239 13286 net.cpp:156] Memory required for data: 873063456
I0403 14:27:05.907253 13286 layer_factory.hpp:77] Creating layer inception_4a/5x5_reduce
I0403 14:27:05.907277 13286 net.cpp:91] Creating Layer inception_4a/5x5_reduce
I0403 14:27:05.907295 13286 net.cpp:425] inception_4a/5x5_reduce <- pool3/3x3_s2_pool3/3x3_s2_0_split_2
I0403 14:27:05.907313 13286 net.cpp:399] inception_4a/5x5_reduce -> inception_4a/5x5_reduce
I0403 14:27:05.908327 13286 net.cpp:141] Setting up inception_4a/5x5_reduce
I0403 14:27:05.908356 13286 net.cpp:148] Top shape: 24 16 14 14 (75264)
I0403 14:27:05.908372 13286 net.cpp:156] Memory required for data: 873364512
I0403 14:27:05.908390 13286 layer_factory.hpp:77] Creating layer inception_4a/relu_5x5_reduce
I0403 14:27:05.908407 13286 net.cpp:91] Creating Layer inception_4a/relu_5x5_reduce
I0403 14:27:05.908423 13286 net.cpp:425] inception_4a/relu_5x5_reduce <- inception_4a/5x5_reduce
I0403 14:27:05.908442 13286 net.cpp:386] inception_4a/relu_5x5_reduce -> inception_4a/5x5_reduce (in-place)
I0403 14:27:05.908623 13286 net.cpp:141] Setting up inception_4a/relu_5x5_reduce
I0403 14:27:05.908648 13286 net.cpp:148] Top shape: 24 16 14 14 (75264)
I0403 14:27:05.908663 13286 net.cpp:156] Memory required for data: 873665568
I0403 14:27:05.908677 13286 layer_factory.hpp:77] Creating layer inception_4a/5x5
I0403 14:27:05.908699 13286 net.cpp:91] Creating Layer inception_4a/5x5
I0403 14:27:05.908715 13286 net.cpp:425] inception_4a/5x5 <- inception_4a/5x5_reduce
I0403 14:27:05.908735 13286 net.cpp:399] inception_4a/5x5 -> inception_4a/5x5
I0403 14:27:05.909822 13286 net.cpp:141] Setting up inception_4a/5x5
I0403 14:27:05.909848 13286 net.cpp:148] Top shape: 24 48 14 14 (225792)
I0403 14:27:05.909864 13286 net.cpp:156] Memory required for data: 874568736
I0403 14:27:05.909881 13286 layer_factory.hpp:77] Creating layer inception_4a/relu_5x5
I0403 14:27:05.909905 13286 net.cpp:91] Creating Layer inception_4a/relu_5x5
I0403 14:27:05.909922 13286 net.cpp:425] inception_4a/relu_5x5 <- inception_4a/5x5
I0403 14:27:05.909940 13286 net.cpp:386] inception_4a/relu_5x5 -> inception_4a/5x5 (in-place)
I0403 14:27:05.910115 13286 net.cpp:141] Setting up inception_4a/relu_5x5
I0403 14:27:05.910140 13286 net.cpp:148] Top shape: 24 48 14 14 (225792)
I0403 14:27:05.910153 13286 net.cpp:156] Memory required for data: 875471904
I0403 14:27:05.910166 13286 layer_factory.hpp:77] Creating layer inception_4a/pool
I0403 14:27:05.910187 13286 net.cpp:91] Creating Layer inception_4a/pool
I0403 14:27:05.910202 13286 net.cpp:425] inception_4a/pool <- pool3/3x3_s2_pool3/3x3_s2_0_split_3
I0403 14:27:05.910221 13286 net.cpp:399] inception_4a/pool -> inception_4a/pool
I0403 14:27:05.910282 13286 net.cpp:141] Setting up inception_4a/pool
I0403 14:27:05.910305 13286 net.cpp:148] Top shape: 24 480 14 14 (2257920)
I0403 14:27:05.910320 13286 net.cpp:156] Memory required for data: 884503584
I0403 14:27:05.910334 13286 layer_factory.hpp:77] Creating layer inception_4a/pool_proj
I0403 14:27:05.910356 13286 net.cpp:91] Creating Layer inception_4a/pool_proj
I0403 14:27:05.910372 13286 net.cpp:425] inception_4a/pool_proj <- inception_4a/pool
I0403 14:27:05.910392 13286 net.cpp:399] inception_4a/pool_proj -> inception_4a/pool_proj
I0403 14:27:05.911566 13286 net.cpp:141] Setting up inception_4a/pool_proj
I0403 14:27:05.911593 13286 net.cpp:148] Top shape: 24 64 14 14 (301056)
I0403 14:27:05.911623 13286 net.cpp:156] Memory required for data: 885707808
I0403 14:27:05.911643 13286 layer_factory.hpp:77] Creating layer inception_4a/relu_pool_proj
I0403 14:27:05.911695 13286 net.cpp:91] Creating Layer inception_4a/relu_pool_proj
I0403 14:27:05.911711 13286 net.cpp:425] inception_4a/relu_pool_proj <- inception_4a/pool_proj
I0403 14:27:05.911728 13286 net.cpp:386] inception_4a/relu_pool_proj -> inception_4a/pool_proj (in-place)
I0403 14:27:05.912029 13286 net.cpp:141] Setting up inception_4a/relu_pool_proj
I0403 14:27:05.912055 13286 net.cpp:148] Top shape: 24 64 14 14 (301056)
I0403 14:27:05.912070 13286 net.cpp:156] Memory required for data: 886912032
I0403 14:27:05.912083 13286 layer_factory.hpp:77] Creating layer inception_4a/output
I0403 14:27:05.912103 13286 net.cpp:91] Creating Layer inception_4a/output
I0403 14:27:05.912118 13286 net.cpp:425] inception_4a/output <- inception_4a/1x1
I0403 14:27:05.912135 13286 net.cpp:425] inception_4a/output <- inception_4a/3x3
I0403 14:27:05.912150 13286 net.cpp:425] inception_4a/output <- inception_4a/5x5
I0403 14:27:05.912165 13286 net.cpp:425] inception_4a/output <- inception_4a/pool_proj
I0403 14:27:05.912181 13286 net.cpp:399] inception_4a/output -> inception_4a/output
I0403 14:27:05.912227 13286 net.cpp:141] Setting up inception_4a/output
I0403 14:27:05.912250 13286 net.cpp:148] Top shape: 24 512 14 14 (2408448)
I0403 14:27:05.912266 13286 net.cpp:156] Memory required for data: 896545824
I0403 14:27:05.912281 13286 layer_factory.hpp:77] Creating layer inception_4a/output_inception_4a/output_0_split
I0403 14:27:05.912297 13286 net.cpp:91] Creating Layer inception_4a/output_inception_4a/output_0_split
I0403 14:27:05.912312 13286 net.cpp:425] inception_4a/output_inception_4a/output_0_split <- inception_4a/output
I0403 14:27:05.912333 13286 net.cpp:399] inception_4a/output_inception_4a/output_0_split -> inception_4a/output_inception_4a/output_0_split_0
I0403 14:27:05.912353 13286 net.cpp:399] inception_4a/output_inception_4a/output_0_split -> inception_4a/output_inception_4a/output_0_split_1
I0403 14:27:05.912372 13286 net.cpp:399] inception_4a/output_inception_4a/output_0_split -> inception_4a/output_inception_4a/output_0_split_2
I0403 14:27:05.912392 13286 net.cpp:399] inception_4a/output_inception_4a/output_0_split -> inception_4a/output_inception_4a/output_0_split_3
I0403 14:27:05.912410 13286 net.cpp:399] inception_4a/output_inception_4a/output_0_split -> inception_4a/output_inception_4a/output_0_split_4
I0403 14:27:05.912508 13286 net.cpp:141] Setting up inception_4a/output_inception_4a/output_0_split
I0403 14:27:05.912531 13286 net.cpp:148] Top shape: 24 512 14 14 (2408448)
I0403 14:27:05.912552 13286 net.cpp:148] Top shape: 24 512 14 14 (2408448)
I0403 14:27:05.912569 13286 net.cpp:148] Top shape: 24 512 14 14 (2408448)
I0403 14:27:05.912583 13286 net.cpp:148] Top shape: 24 512 14 14 (2408448)
I0403 14:27:05.912598 13286 net.cpp:148] Top shape: 24 512 14 14 (2408448)
I0403 14:27:05.912611 13286 net.cpp:156] Memory required for data: 944714784
I0403 14:27:05.912626 13286 layer_factory.hpp:77] Creating layer loss1/ave_pool
I0403 14:27:05.912642 13286 net.cpp:91] Creating Layer loss1/ave_pool
I0403 14:27:05.912658 13286 net.cpp:425] loss1/ave_pool <- inception_4a/output_inception_4a/output_0_split_0
I0403 14:27:05.912678 13286 net.cpp:399] loss1/ave_pool -> loss1/ave_pool
I0403 14:27:05.912883 13286 net.cpp:141] Setting up loss1/ave_pool
I0403 14:27:05.912909 13286 net.cpp:148] Top shape: 24 512 4 4 (196608)
I0403 14:27:05.912926 13286 net.cpp:156] Memory required for data: 945501216
I0403 14:27:05.912941 13286 layer_factory.hpp:77] Creating layer loss1/conv
I0403 14:27:05.912961 13286 net.cpp:91] Creating Layer loss1/conv
I0403 14:27:05.912977 13286 net.cpp:425] loss1/conv <- loss1/ave_pool
I0403 14:27:05.912997 13286 net.cpp:399] loss1/conv -> loss1/conv
I0403 14:27:05.914402 13286 net.cpp:141] Setting up loss1/conv
I0403 14:27:05.914432 13286 net.cpp:148] Top shape: 24 128 4 4 (49152)
I0403 14:27:05.914461 13286 net.cpp:156] Memory required for data: 945697824
I0403 14:27:05.914480 13286 layer_factory.hpp:77] Creating layer loss1/relu_conv
I0403 14:27:05.914497 13286 net.cpp:91] Creating Layer loss1/relu_conv
I0403 14:27:05.914513 13286 net.cpp:425] loss1/relu_conv <- loss1/conv
I0403 14:27:05.914531 13286 net.cpp:386] loss1/relu_conv -> loss1/conv (in-place)
I0403 14:27:05.914824 13286 net.cpp:141] Setting up loss1/relu_conv
I0403 14:27:05.914851 13286 net.cpp:148] Top shape: 24 128 4 4 (49152)
I0403 14:27:05.914867 13286 net.cpp:156] Memory required for data: 945894432
I0403 14:27:05.914881 13286 layer_factory.hpp:77] Creating layer loss1/fc
I0403 14:27:05.914904 13286 net.cpp:91] Creating Layer loss1/fc
I0403 14:27:05.914921 13286 net.cpp:425] loss1/fc <- loss1/conv
I0403 14:27:05.914942 13286 net.cpp:399] loss1/fc -> loss1/fc
I0403 14:27:05.932371 13286 net.cpp:141] Setting up loss1/fc
I0403 14:27:05.932400 13286 net.cpp:148] Top shape: 24 1024 (24576)
I0403 14:27:05.932415 13286 net.cpp:156] Memory required for data: 945992736
I0403 14:27:05.932433 13286 layer_factory.hpp:77] Creating layer loss1/relu_fc
I0403 14:27:05.932456 13286 net.cpp:91] Creating Layer loss1/relu_fc
I0403 14:27:05.932472 13286 net.cpp:425] loss1/relu_fc <- loss1/fc
I0403 14:27:05.932488 13286 net.cpp:386] loss1/relu_fc -> loss1/fc (in-place)
I0403 14:27:05.932687 13286 net.cpp:141] Setting up loss1/relu_fc
I0403 14:27:05.932713 13286 net.cpp:148] Top shape: 24 1024 (24576)
I0403 14:27:05.932726 13286 net.cpp:156] Memory required for data: 946091040
I0403 14:27:05.932740 13286 layer_factory.hpp:77] Creating layer loss1/drop_fc
I0403 14:27:05.932766 13286 net.cpp:91] Creating Layer loss1/drop_fc
I0403 14:27:05.932785 13286 net.cpp:425] loss1/drop_fc <- loss1/fc
I0403 14:27:05.932803 13286 net.cpp:386] loss1/drop_fc -> loss1/fc (in-place)
I0403 14:27:05.932854 13286 net.cpp:141] Setting up loss1/drop_fc
I0403 14:27:05.932878 13286 net.cpp:148] Top shape: 24 1024 (24576)
I0403 14:27:05.932891 13286 net.cpp:156] Memory required for data: 946189344
I0403 14:27:05.932905 13286 layer_factory.hpp:77] Creating layer loss1/classifier_plantvillage
I0403 14:27:05.932927 13286 net.cpp:91] Creating Layer loss1/classifier_plantvillage
I0403 14:27:05.932945 13286 net.cpp:425] loss1/classifier_plantvillage <- loss1/fc
I0403 14:27:05.932962 13286 net.cpp:399] loss1/classifier_plantvillage -> loss1/classifier_plantvillage
I0403 14:27:05.933902 13286 net.cpp:141] Setting up loss1/classifier_plantvillage
I0403 14:27:05.933930 13286 net.cpp:148] Top shape: 24 38 (912)
I0403 14:27:05.933946 13286 net.cpp:156] Memory required for data: 946192992
I0403 14:27:05.933964 13286 layer_factory.hpp:77] Creating layer loss1/classifier_plantvillage_loss1/classifier_plantvillage_0_split
I0403 14:27:05.933985 13286 net.cpp:91] Creating Layer loss1/classifier_plantvillage_loss1/classifier_plantvillage_0_split
I0403 14:27:05.934002 13286 net.cpp:425] loss1/classifier_plantvillage_loss1/classifier_plantvillage_0_split <- loss1/classifier_plantvillage
I0403 14:27:05.934021 13286 net.cpp:399] loss1/classifier_plantvillage_loss1/classifier_plantvillage_0_split -> loss1/classifier_plantvillage_loss1/classifier_plantvillage_0_split_0
I0403 14:27:05.934044 13286 net.cpp:399] loss1/classifier_plantvillage_loss1/classifier_plantvillage_0_split -> loss1/classifier_plantvillage_loss1/classifier_plantvillage_0_split_1
I0403 14:27:05.934065 13286 net.cpp:399] loss1/classifier_plantvillage_loss1/classifier_plantvillage_0_split -> loss1/classifier_plantvillage_loss1/classifier_plantvillage_0_split_2
I0403 14:27:05.934134 13286 net.cpp:141] Setting up loss1/classifier_plantvillage_loss1/classifier_plantvillage_0_split
I0403 14:27:05.934156 13286 net.cpp:148] Top shape: 24 38 (912)
I0403 14:27:05.934185 13286 net.cpp:148] Top shape: 24 38 (912)
I0403 14:27:05.934201 13286 net.cpp:148] Top shape: 24 38 (912)
I0403 14:27:05.934214 13286 net.cpp:156] Memory required for data: 946203936
I0403 14:27:05.934228 13286 layer_factory.hpp:77] Creating layer inception_4b/1x1
I0403 14:27:05.934250 13286 net.cpp:91] Creating Layer inception_4b/1x1
I0403 14:27:05.934283 13286 net.cpp:425] inception_4b/1x1 <- inception_4a/output_inception_4a/output_0_split_1
I0403 14:27:05.934303 13286 net.cpp:399] inception_4b/1x1 -> inception_4b/1x1
I0403 14:27:05.935963 13286 net.cpp:141] Setting up inception_4b/1x1
I0403 14:27:05.935995 13286 net.cpp:148] Top shape: 24 160 14 14 (752640)
I0403 14:27:05.936012 13286 net.cpp:156] Memory required for data: 949214496
I0403 14:27:05.936030 13286 layer_factory.hpp:77] Creating layer inception_4b/relu_1x1
I0403 14:27:05.936048 13286 net.cpp:91] Creating Layer inception_4b/relu_1x1
I0403 14:27:05.936064 13286 net.cpp:425] inception_4b/relu_1x1 <- inception_4b/1x1
I0403 14:27:05.936081 13286 net.cpp:386] inception_4b/relu_1x1 -> inception_4b/1x1 (in-place)
I0403 14:27:05.936265 13286 net.cpp:141] Setting up inception_4b/relu_1x1
I0403 14:27:05.936290 13286 net.cpp:148] Top shape: 24 160 14 14 (752640)
I0403 14:27:05.936305 13286 net.cpp:156] Memory required for data: 952225056
I0403 14:27:05.936318 13286 layer_factory.hpp:77] Creating layer inception_4b/3x3_reduce
I0403 14:27:05.936339 13286 net.cpp:91] Creating Layer inception_4b/3x3_reduce
I0403 14:27:05.936357 13286 net.cpp:425] inception_4b/3x3_reduce <- inception_4a/output_inception_4a/output_0_split_2
I0403 14:27:05.936378 13286 net.cpp:399] inception_4b/3x3_reduce -> inception_4b/3x3_reduce
I0403 14:27:05.937738 13286 net.cpp:141] Setting up inception_4b/3x3_reduce
I0403 14:27:05.937767 13286 net.cpp:148] Top shape: 24 112 14 14 (526848)
I0403 14:27:05.937782 13286 net.cpp:156] Memory required for data: 954332448
I0403 14:27:05.937799 13286 layer_factory.hpp:77] Creating layer inception_4b/relu_3x3_reduce
I0403 14:27:05.937819 13286 net.cpp:91] Creating Layer inception_4b/relu_3x3_reduce
I0403 14:27:05.937834 13286 net.cpp:425] inception_4b/relu_3x3_reduce <- inception_4b/3x3_reduce
I0403 14:27:05.937851 13286 net.cpp:386] inception_4b/relu_3x3_reduce -> inception_4b/3x3_reduce (in-place)
I0403 14:27:05.938135 13286 net.cpp:141] Setting up inception_4b/relu_3x3_reduce
I0403 14:27:05.938161 13286 net.cpp:148] Top shape: 24 112 14 14 (526848)
I0403 14:27:05.938176 13286 net.cpp:156] Memory required for data: 956439840
I0403 14:27:05.938191 13286 layer_factory.hpp:77] Creating layer inception_4b/3x3
I0403 14:27:05.938212 13286 net.cpp:91] Creating Layer inception_4b/3x3
I0403 14:27:05.938230 13286 net.cpp:425] inception_4b/3x3 <- inception_4b/3x3_reduce
I0403 14:27:05.938251 13286 net.cpp:399] inception_4b/3x3 -> inception_4b/3x3
I0403 14:27:05.941247 13286 net.cpp:141] Setting up inception_4b/3x3
I0403 14:27:05.941277 13286 net.cpp:148] Top shape: 24 224 14 14 (1053696)
I0403 14:27:05.941293 13286 net.cpp:156] Memory required for data: 960654624
I0403 14:27:05.941311 13286 layer_factory.hpp:77] Creating layer inception_4b/relu_3x3
I0403 14:27:05.941331 13286 net.cpp:91] Creating Layer inception_4b/relu_3x3
I0403 14:27:05.941349 13286 net.cpp:425] inception_4b/relu_3x3 <- inception_4b/3x3
I0403 14:27:05.941365 13286 net.cpp:386] inception_4b/relu_3x3 -> inception_4b/3x3 (in-place)
I0403 14:27:05.941553 13286 net.cpp:141] Setting up inception_4b/relu_3x3
I0403 14:27:05.941578 13286 net.cpp:148] Top shape: 24 224 14 14 (1053696)
I0403 14:27:05.941592 13286 net.cpp:156] Memory required for data: 964869408
I0403 14:27:05.941607 13286 layer_factory.hpp:77] Creating layer inception_4b/5x5_reduce
I0403 14:27:05.941629 13286 net.cpp:91] Creating Layer inception_4b/5x5_reduce
I0403 14:27:05.941645 13286 net.cpp:425] inception_4b/5x5_reduce <- inception_4a/output_inception_4a/output_0_split_3
I0403 14:27:05.941668 13286 net.cpp:399] inception_4b/5x5_reduce -> inception_4b/5x5_reduce
I0403 14:27:05.942759 13286 net.cpp:141] Setting up inception_4b/5x5_reduce
I0403 14:27:05.942786 13286 net.cpp:148] Top shape: 24 24 14 14 (112896)
I0403 14:27:05.942802 13286 net.cpp:156] Memory required for data: 965320992
I0403 14:27:05.942821 13286 layer_factory.hpp:77] Creating layer inception_4b/relu_5x5_reduce
I0403 14:27:05.942838 13286 net.cpp:91] Creating Layer inception_4b/relu_5x5_reduce
I0403 14:27:05.942870 13286 net.cpp:425] inception_4b/relu_5x5_reduce <- inception_4b/5x5_reduce
I0403 14:27:05.942890 13286 net.cpp:386] inception_4b/relu_5x5_reduce -> inception_4b/5x5_reduce (in-place)
I0403 14:27:05.943073 13286 net.cpp:141] Setting up inception_4b/relu_5x5_reduce
I0403 14:27:05.943097 13286 net.cpp:148] Top shape: 24 24 14 14 (112896)
I0403 14:27:05.943111 13286 net.cpp:156] Memory required for data: 965772576
I0403 14:27:05.943126 13286 layer_factory.hpp:77] Creating layer inception_4b/5x5
I0403 14:27:05.943147 13286 net.cpp:91] Creating Layer inception_4b/5x5
I0403 14:27:05.943164 13286 net.cpp:425] inception_4b/5x5 <- inception_4b/5x5_reduce
I0403 14:27:05.943184 13286 net.cpp:399] inception_4b/5x5 -> inception_4b/5x5
I0403 14:27:05.944418 13286 net.cpp:141] Setting up inception_4b/5x5
I0403 14:27:05.944453 13286 net.cpp:148] Top shape: 24 64 14 14 (301056)
I0403 14:27:05.944468 13286 net.cpp:156] Memory required for data: 966976800
I0403 14:27:05.944486 13286 layer_factory.hpp:77] Creating layer inception_4b/relu_5x5
I0403 14:27:05.944504 13286 net.cpp:91] Creating Layer inception_4b/relu_5x5
I0403 14:27:05.944520 13286 net.cpp:425] inception_4b/relu_5x5 <- inception_4b/5x5
I0403 14:27:05.944548 13286 net.cpp:386] inception_4b/relu_5x5 -> inception_4b/5x5 (in-place)
I0403 14:27:05.944838 13286 net.cpp:141] Setting up inception_4b/relu_5x5
I0403 14:27:05.944867 13286 net.cpp:148] Top shape: 24 64 14 14 (301056)
I0403 14:27:05.944885 13286 net.cpp:156] Memory required for data: 968181024
I0403 14:27:05.944900 13286 layer_factory.hpp:77] Creating layer inception_4b/pool
I0403 14:27:05.944916 13286 net.cpp:91] Creating Layer inception_4b/pool
I0403 14:27:05.944932 13286 net.cpp:425] inception_4b/pool <- inception_4a/output_inception_4a/output_0_split_4
I0403 14:27:05.944952 13286 net.cpp:399] inception_4b/pool -> inception_4b/pool
I0403 14:27:05.945015 13286 net.cpp:141] Setting up inception_4b/pool
I0403 14:27:05.945041 13286 net.cpp:148] Top shape: 24 512 14 14 (2408448)
I0403 14:27:05.945056 13286 net.cpp:156] Memory required for data: 977814816
I0403 14:27:05.945071 13286 layer_factory.hpp:77] Creating layer inception_4b/pool_proj
I0403 14:27:05.945092 13286 net.cpp:91] Creating Layer inception_4b/pool_proj
I0403 14:27:05.945111 13286 net.cpp:425] inception_4b/pool_proj <- inception_4b/pool
I0403 14:27:05.945128 13286 net.cpp:399] inception_4b/pool_proj -> inception_4b/pool_proj
I0403 14:27:05.946338 13286 net.cpp:141] Setting up inception_4b/pool_proj
I0403 14:27:05.946365 13286 net.cpp:148] Top shape: 24 64 14 14 (301056)
I0403 14:27:05.946380 13286 net.cpp:156] Memory required for data: 979019040
I0403 14:27:05.946398 13286 layer_factory.hpp:77] Creating layer inception_4b/relu_pool_proj
I0403 14:27:05.946419 13286 net.cpp:91] Creating Layer inception_4b/relu_pool_proj
I0403 14:27:05.946435 13286 net.cpp:425] inception_4b/relu_pool_proj <- inception_4b/pool_proj
I0403 14:27:05.946452 13286 net.cpp:386] inception_4b/relu_pool_proj -> inception_4b/pool_proj (in-place)
I0403 14:27:05.946636 13286 net.cpp:141] Setting up inception_4b/relu_pool_proj
I0403 14:27:05.946661 13286 net.cpp:148] Top shape: 24 64 14 14 (301056)
I0403 14:27:05.946676 13286 net.cpp:156] Memory required for data: 980223264
I0403 14:27:05.946691 13286 layer_factory.hpp:77] Creating layer inception_4b/output
I0403 14:27:05.946709 13286 net.cpp:91] Creating Layer inception_4b/output
I0403 14:27:05.946725 13286 net.cpp:425] inception_4b/output <- inception_4b/1x1
I0403 14:27:05.946741 13286 net.cpp:425] inception_4b/output <- inception_4b/3x3
I0403 14:27:05.946758 13286 net.cpp:425] inception_4b/output <- inception_4b/5x5
I0403 14:27:05.946773 13286 net.cpp:425] inception_4b/output <- inception_4b/pool_proj
I0403 14:27:05.946789 13286 net.cpp:399] inception_4b/output -> inception_4b/output
I0403 14:27:05.946835 13286 net.cpp:141] Setting up inception_4b/output
I0403 14:27:05.946858 13286 net.cpp:148] Top shape: 24 512 14 14 (2408448)
I0403 14:27:05.946872 13286 net.cpp:156] Memory required for data: 989857056
I0403 14:27:05.946902 13286 layer_factory.hpp:77] Creating layer inception_4b/output_inception_4b/output_0_split
I0403 14:27:05.946919 13286 net.cpp:91] Creating Layer inception_4b/output_inception_4b/output_0_split
I0403 14:27:05.946935 13286 net.cpp:425] inception_4b/output_inception_4b/output_0_split <- inception_4b/output
I0403 14:27:05.946954 13286 net.cpp:399] inception_4b/output_inception_4b/output_0_split -> inception_4b/output_inception_4b/output_0_split_0
I0403 14:27:05.946975 13286 net.cpp:399] inception_4b/output_inception_4b/output_0_split -> inception_4b/output_inception_4b/output_0_split_1
I0403 14:27:05.946995 13286 net.cpp:399] inception_4b/output_inception_4b/output_0_split -> inception_4b/output_inception_4b/output_0_split_2
I0403 14:27:05.947015 13286 net.cpp:399] inception_4b/output_inception_4b/output_0_split -> inception_4b/output_inception_4b/output_0_split_3
I0403 14:27:05.947103 13286 net.cpp:141] Setting up inception_4b/output_inception_4b/output_0_split
I0403 14:27:05.947127 13286 net.cpp:148] Top shape: 24 512 14 14 (2408448)
I0403 14:27:05.947144 13286 net.cpp:148] Top shape: 24 512 14 14 (2408448)
I0403 14:27:05.947160 13286 net.cpp:148] Top shape: 24 512 14 14 (2408448)
I0403 14:27:05.947175 13286 net.cpp:148] Top shape: 24 512 14 14 (2408448)
I0403 14:27:05.947188 13286 net.cpp:156] Memory required for data: 1028392224
I0403 14:27:05.947202 13286 layer_factory.hpp:77] Creating layer inception_4c/1x1
I0403 14:27:05.947224 13286 net.cpp:91] Creating Layer inception_4c/1x1
I0403 14:27:05.947242 13286 net.cpp:425] inception_4c/1x1 <- inception_4b/output_inception_4b/output_0_split_0
I0403 14:27:05.947259 13286 net.cpp:399] inception_4c/1x1 -> inception_4c/1x1
I0403 14:27:05.948720 13286 net.cpp:141] Setting up inception_4c/1x1
I0403 14:27:05.948747 13286 net.cpp:148] Top shape: 24 128 14 14 (602112)
I0403 14:27:05.948763 13286 net.cpp:156] Memory required for data: 1030800672
I0403 14:27:05.948781 13286 layer_factory.hpp:77] Creating layer inception_4c/relu_1x1
I0403 14:27:05.948801 13286 net.cpp:91] Creating Layer inception_4c/relu_1x1
I0403 14:27:05.948819 13286 net.cpp:425] inception_4c/relu_1x1 <- inception_4c/1x1
I0403 14:27:05.948837 13286 net.cpp:386] inception_4c/relu_1x1 -> inception_4c/1x1 (in-place)
I0403 14:27:05.949014 13286 net.cpp:141] Setting up inception_4c/relu_1x1
I0403 14:27:05.949040 13286 net.cpp:148] Top shape: 24 128 14 14 (602112)
I0403 14:27:05.949057 13286 net.cpp:156] Memory required for data: 1033209120
I0403 14:27:05.949071 13286 layer_factory.hpp:77] Creating layer inception_4c/3x3_reduce
I0403 14:27:05.949093 13286 net.cpp:91] Creating Layer inception_4c/3x3_reduce
I0403 14:27:05.949110 13286 net.cpp:425] inception_4c/3x3_reduce <- inception_4b/output_inception_4b/output_0_split_1
I0403 14:27:05.949128 13286 net.cpp:399] inception_4c/3x3_reduce -> inception_4c/3x3_reduce
I0403 14:27:05.951179 13286 net.cpp:141] Setting up inception_4c/3x3_reduce
I0403 14:27:05.951208 13286 net.cpp:148] Top shape: 24 128 14 14 (602112)
I0403 14:27:05.951225 13286 net.cpp:156] Memory required for data: 1035617568
I0403 14:27:05.951242 13286 layer_factory.hpp:77] Creating layer inception_4c/relu_3x3_reduce
I0403 14:27:05.951262 13286 net.cpp:91] Creating Layer inception_4c/relu_3x3_reduce
I0403 14:27:05.951279 13286 net.cpp:425] inception_4c/relu_3x3_reduce <- inception_4c/3x3_reduce
I0403 14:27:05.951299 13286 net.cpp:386] inception_4c/relu_3x3_reduce -> inception_4c/3x3_reduce (in-place)
I0403 14:27:05.951597 13286 net.cpp:141] Setting up inception_4c/relu_3x3_reduce
I0403 14:27:05.951624 13286 net.cpp:148] Top shape: 24 128 14 14 (602112)
I0403 14:27:05.951640 13286 net.cpp:156] Memory required for data: 1038026016
I0403 14:27:05.951655 13286 layer_factory.hpp:77] Creating layer inception_4c/3x3
I0403 14:27:05.951679 13286 net.cpp:91] Creating Layer inception_4c/3x3
I0403 14:27:05.951697 13286 net.cpp:425] inception_4c/3x3 <- inception_4c/3x3_reduce
I0403 14:27:05.951719 13286 net.cpp:399] inception_4c/3x3 -> inception_4c/3x3
I0403 14:27:05.955469 13286 net.cpp:141] Setting up inception_4c/3x3
I0403 14:27:05.955513 13286 net.cpp:148] Top shape: 24 256 14 14 (1204224)
I0403 14:27:05.955529 13286 net.cpp:156] Memory required for data: 1042842912
I0403 14:27:05.955567 13286 layer_factory.hpp:77] Creating layer inception_4c/relu_3x3
I0403 14:27:05.955588 13286 net.cpp:91] Creating Layer inception_4c/relu_3x3
I0403 14:27:05.955608 13286 net.cpp:425] inception_4c/relu_3x3 <- inception_4c/3x3
I0403 14:27:05.955626 13286 net.cpp:386] inception_4c/relu_3x3 -> inception_4c/3x3 (in-place)
I0403 14:27:05.955814 13286 net.cpp:141] Setting up inception_4c/relu_3x3
I0403 14:27:05.955840 13286 net.cpp:148] Top shape: 24 256 14 14 (1204224)
I0403 14:27:05.955855 13286 net.cpp:156] Memory required for data: 1047659808
I0403 14:27:05.955870 13286 layer_factory.hpp:77] Creating layer inception_4c/5x5_reduce
I0403 14:27:05.955893 13286 net.cpp:91] Creating Layer inception_4c/5x5_reduce
I0403 14:27:05.955911 13286 net.cpp:425] inception_4c/5x5_reduce <- inception_4b/output_inception_4b/output_0_split_2
I0403 14:27:05.955934 13286 net.cpp:399] inception_4c/5x5_reduce -> inception_4c/5x5_reduce
I0403 14:27:05.957067 13286 net.cpp:141] Setting up inception_4c/5x5_reduce
I0403 14:27:05.957095 13286 net.cpp:148] Top shape: 24 24 14 14 (112896)
I0403 14:27:05.957111 13286 net.cpp:156] Memory required for data: 1048111392
I0403 14:27:05.957129 13286 layer_factory.hpp:77] Creating layer inception_4c/relu_5x5_reduce
I0403 14:27:05.957147 13286 net.cpp:91] Creating Layer inception_4c/relu_5x5_reduce
I0403 14:27:05.957165 13286 net.cpp:425] inception_4c/relu_5x5_reduce <- inception_4c/5x5_reduce
I0403 14:27:05.957183 13286 net.cpp:386] inception_4c/relu_5x5_reduce -> inception_4c/5x5_reduce (in-place)
I0403 14:27:05.957373 13286 net.cpp:141] Setting up inception_4c/relu_5x5_reduce
I0403 14:27:05.957398 13286 net.cpp:148] Top shape: 24 24 14 14 (112896)
I0403 14:27:05.957413 13286 net.cpp:156] Memory required for data: 1048562976
I0403 14:27:05.957428 13286 layer_factory.hpp:77] Creating layer inception_4c/5x5
I0403 14:27:05.957450 13286 net.cpp:91] Creating Layer inception_4c/5x5
I0403 14:27:05.957468 13286 net.cpp:425] inception_4c/5x5 <- inception_4c/5x5_reduce
I0403 14:27:05.957489 13286 net.cpp:399] inception_4c/5x5 -> inception_4c/5x5
I0403 14:27:05.958793 13286 net.cpp:141] Setting up inception_4c/5x5
I0403 14:27:05.958822 13286 net.cpp:148] Top shape: 24 64 14 14 (301056)
I0403 14:27:05.958837 13286 net.cpp:156] Memory required for data: 1049767200
I0403 14:27:05.958855 13286 layer_factory.hpp:77] Creating layer inception_4c/relu_5x5
I0403 14:27:05.958876 13286 net.cpp:91] Creating Layer inception_4c/relu_5x5
I0403 14:27:05.958894 13286 net.cpp:425] inception_4c/relu_5x5 <- inception_4c/5x5
I0403 14:27:05.958909 13286 net.cpp:386] inception_4c/relu_5x5 -> inception_4c/5x5 (in-place)
I0403 14:27:05.959209 13286 net.cpp:141] Setting up inception_4c/relu_5x5
I0403 14:27:05.959236 13286 net.cpp:148] Top shape: 24 64 14 14 (301056)
I0403 14:27:05.959251 13286 net.cpp:156] Memory required for data: 1050971424
I0403 14:27:05.959267 13286 layer_factory.hpp:77] Creating layer inception_4c/pool
I0403 14:27:05.959288 13286 net.cpp:91] Creating Layer inception_4c/pool
I0403 14:27:05.959306 13286 net.cpp:425] inception_4c/pool <- inception_4b/output_inception_4b/output_0_split_3
I0403 14:27:05.959324 13286 net.cpp:399] inception_4c/pool -> inception_4c/pool
I0403 14:27:05.959393 13286 net.cpp:141] Setting up inception_4c/pool
I0403 14:27:05.959419 13286 net.cpp:148] Top shape: 24 512 14 14 (2408448)
I0403 14:27:05.959434 13286 net.cpp:156] Memory required for data: 1060605216
I0403 14:27:05.959447 13286 layer_factory.hpp:77] Creating layer inception_4c/pool_proj
I0403 14:27:05.959471 13286 net.cpp:91] Creating Layer inception_4c/pool_proj
I0403 14:27:05.959489 13286 net.cpp:425] inception_4c/pool_proj <- inception_4c/pool
I0403 14:27:05.959511 13286 net.cpp:399] inception_4c/pool_proj -> inception_4c/pool_proj
I0403 14:27:05.960786 13286 net.cpp:141] Setting up inception_4c/pool_proj
I0403 14:27:05.960815 13286 net.cpp:148] Top shape: 24 64 14 14 (301056)
I0403 14:27:05.960845 13286 net.cpp:156] Memory required for data: 1061809440
I0403 14:27:05.960865 13286 layer_factory.hpp:77] Creating layer inception_4c/relu_pool_proj
I0403 14:27:05.960885 13286 net.cpp:91] Creating Layer inception_4c/relu_pool_proj
I0403 14:27:05.960904 13286 net.cpp:425] inception_4c/relu_pool_proj <- inception_4c/pool_proj
I0403 14:27:05.960922 13286 net.cpp:386] inception_4c/relu_pool_proj -> inception_4c/pool_proj (in-place)
I0403 14:27:05.961109 13286 net.cpp:141] Setting up inception_4c/relu_pool_proj
I0403 14:27:05.961135 13286 net.cpp:148] Top shape: 24 64 14 14 (301056)
I0403 14:27:05.961149 13286 net.cpp:156] Memory required for data: 1063013664
I0403 14:27:05.961164 13286 layer_factory.hpp:77] Creating layer inception_4c/output
I0403 14:27:05.961184 13286 net.cpp:91] Creating Layer inception_4c/output
I0403 14:27:05.961200 13286 net.cpp:425] inception_4c/output <- inception_4c/1x1
I0403 14:27:05.961217 13286 net.cpp:425] inception_4c/output <- inception_4c/3x3
I0403 14:27:05.961232 13286 net.cpp:425] inception_4c/output <- inception_4c/5x5
I0403 14:27:05.961248 13286 net.cpp:425] inception_4c/output <- inception_4c/pool_proj
I0403 14:27:05.961267 13286 net.cpp:399] inception_4c/output -> inception_4c/output
I0403 14:27:05.961316 13286 net.cpp:141] Setting up inception_4c/output
I0403 14:27:05.961340 13286 net.cpp:148] Top shape: 24 512 14 14 (2408448)
I0403 14:27:05.961354 13286 net.cpp:156] Memory required for data: 1072647456
I0403 14:27:05.961369 13286 layer_factory.hpp:77] Creating layer inception_4c/output_inception_4c/output_0_split
I0403 14:27:05.961386 13286 net.cpp:91] Creating Layer inception_4c/output_inception_4c/output_0_split
I0403 14:27:05.961401 13286 net.cpp:425] inception_4c/output_inception_4c/output_0_split <- inception_4c/output
I0403 14:27:05.961421 13286 net.cpp:399] inception_4c/output_inception_4c/output_0_split -> inception_4c/output_inception_4c/output_0_split_0
I0403 14:27:05.961441 13286 net.cpp:399] inception_4c/output_inception_4c/output_0_split -> inception_4c/output_inception_4c/output_0_split_1
I0403 14:27:05.961462 13286 net.cpp:399] inception_4c/output_inception_4c/output_0_split -> inception_4c/output_inception_4c/output_0_split_2
I0403 14:27:05.961482 13286 net.cpp:399] inception_4c/output_inception_4c/output_0_split -> inception_4c/output_inception_4c/output_0_split_3
I0403 14:27:05.961578 13286 net.cpp:141] Setting up inception_4c/output_inception_4c/output_0_split
I0403 14:27:05.961604 13286 net.cpp:148] Top shape: 24 512 14 14 (2408448)
I0403 14:27:05.961622 13286 net.cpp:148] Top shape: 24 512 14 14 (2408448)
I0403 14:27:05.961637 13286 net.cpp:148] Top shape: 24 512 14 14 (2408448)
I0403 14:27:05.961653 13286 net.cpp:148] Top shape: 24 512 14 14 (2408448)
I0403 14:27:05.961668 13286 net.cpp:156] Memory required for data: 1111182624
I0403 14:27:05.961681 13286 layer_factory.hpp:77] Creating layer inception_4d/1x1
I0403 14:27:05.961704 13286 net.cpp:91] Creating Layer inception_4d/1x1
I0403 14:27:05.961722 13286 net.cpp:425] inception_4d/1x1 <- inception_4c/output_inception_4c/output_0_split_0
I0403 14:27:05.961740 13286 net.cpp:399] inception_4d/1x1 -> inception_4d/1x1
I0403 14:27:05.963181 13286 net.cpp:141] Setting up inception_4d/1x1
I0403 14:27:05.963210 13286 net.cpp:148] Top shape: 24 112 14 14 (526848)
I0403 14:27:05.963227 13286 net.cpp:156] Memory required for data: 1113290016
I0403 14:27:05.963246 13286 layer_factory.hpp:77] Creating layer inception_4d/relu_1x1
I0403 14:27:05.963268 13286 net.cpp:91] Creating Layer inception_4d/relu_1x1
I0403 14:27:05.963284 13286 net.cpp:425] inception_4d/relu_1x1 <- inception_4d/1x1
I0403 14:27:05.963304 13286 net.cpp:386] inception_4d/relu_1x1 -> inception_4d/1x1 (in-place)
I0403 14:27:05.963498 13286 net.cpp:141] Setting up inception_4d/relu_1x1
I0403 14:27:05.963524 13286 net.cpp:148] Top shape: 24 112 14 14 (526848)
I0403 14:27:05.963543 13286 net.cpp:156] Memory required for data: 1115397408
I0403 14:27:05.963559 13286 layer_factory.hpp:77] Creating layer inception_4d/3x3_reduce
I0403 14:27:05.963598 13286 net.cpp:91] Creating Layer inception_4d/3x3_reduce
I0403 14:27:05.963618 13286 net.cpp:425] inception_4d/3x3_reduce <- inception_4c/output_inception_4c/output_0_split_1
I0403 14:27:05.963639 13286 net.cpp:399] inception_4d/3x3_reduce -> inception_4d/3x3_reduce
I0403 14:27:05.965224 13286 net.cpp:141] Setting up inception_4d/3x3_reduce
I0403 14:27:05.965252 13286 net.cpp:148] Top shape: 24 144 14 14 (677376)
I0403 14:27:05.965268 13286 net.cpp:156] Memory required for data: 1118106912
I0403 14:27:05.965287 13286 layer_factory.hpp:77] Creating layer inception_4d/relu_3x3_reduce
I0403 14:27:05.965308 13286 net.cpp:91] Creating Layer inception_4d/relu_3x3_reduce
I0403 14:27:05.965324 13286 net.cpp:425] inception_4d/relu_3x3_reduce <- inception_4d/3x3_reduce
I0403 14:27:05.965342 13286 net.cpp:386] inception_4d/relu_3x3_reduce -> inception_4d/3x3_reduce (in-place)
I0403 14:27:05.965644 13286 net.cpp:141] Setting up inception_4d/relu_3x3_reduce
I0403 14:27:05.965672 13286 net.cpp:148] Top shape: 24 144 14 14 (677376)
I0403 14:27:05.965687 13286 net.cpp:156] Memory required for data: 1120816416
I0403 14:27:05.965701 13286 layer_factory.hpp:77] Creating layer inception_4d/3x3
I0403 14:27:05.965724 13286 net.cpp:91] Creating Layer inception_4d/3x3
I0403 14:27:05.965741 13286 net.cpp:425] inception_4d/3x3 <- inception_4d/3x3_reduce
I0403 14:27:05.965762 13286 net.cpp:399] inception_4d/3x3 -> inception_4d/3x3
I0403 14:27:05.970157 13286 net.cpp:141] Setting up inception_4d/3x3
I0403 14:27:05.970188 13286 net.cpp:148] Top shape: 24 288 14 14 (1354752)
I0403 14:27:05.970204 13286 net.cpp:156] Memory required for data: 1126235424
I0403 14:27:05.970222 13286 layer_factory.hpp:77] Creating layer inception_4d/relu_3x3
I0403 14:27:05.970239 13286 net.cpp:91] Creating Layer inception_4d/relu_3x3
I0403 14:27:05.970255 13286 net.cpp:425] inception_4d/relu_3x3 <- inception_4d/3x3
I0403 14:27:05.970276 13286 net.cpp:386] inception_4d/relu_3x3 -> inception_4d/3x3 (in-place)
I0403 14:27:05.970460 13286 net.cpp:141] Setting up inception_4d/relu_3x3
I0403 14:27:05.970486 13286 net.cpp:148] Top shape: 24 288 14 14 (1354752)
I0403 14:27:05.970500 13286 net.cpp:156] Memory required for data: 1131654432
I0403 14:27:05.970515 13286 layer_factory.hpp:77] Creating layer inception_4d/5x5_reduce
I0403 14:27:05.970540 13286 net.cpp:91] Creating Layer inception_4d/5x5_reduce
I0403 14:27:05.970558 13286 net.cpp:425] inception_4d/5x5_reduce <- inception_4c/output_inception_4c/output_0_split_2
I0403 14:27:05.970580 13286 net.cpp:399] inception_4d/5x5_reduce -> inception_4d/5x5_reduce
I0403 14:27:05.971745 13286 net.cpp:141] Setting up inception_4d/5x5_reduce
I0403 14:27:05.971776 13286 net.cpp:148] Top shape: 24 32 14 14 (150528)
I0403 14:27:05.971791 13286 net.cpp:156] Memory required for data: 1132256544
I0403 14:27:05.971810 13286 layer_factory.hpp:77] Creating layer inception_4d/relu_5x5_reduce
I0403 14:27:05.971828 13286 net.cpp:91] Creating Layer inception_4d/relu_5x5_reduce
I0403 14:27:05.971844 13286 net.cpp:425] inception_4d/relu_5x5_reduce <- inception_4d/5x5_reduce
I0403 14:27:05.971863 13286 net.cpp:386] inception_4d/relu_5x5_reduce -> inception_4d/5x5_reduce (in-place)
I0403 14:27:05.972054 13286 net.cpp:141] Setting up inception_4d/relu_5x5_reduce
I0403 14:27:05.972079 13286 net.cpp:148] Top shape: 24 32 14 14 (150528)
I0403 14:27:05.972092 13286 net.cpp:156] Memory required for data: 1132858656
I0403 14:27:05.972107 13286 layer_factory.hpp:77] Creating layer inception_4d/5x5
I0403 14:27:05.972128 13286 net.cpp:91] Creating Layer inception_4d/5x5
I0403 14:27:05.972146 13286 net.cpp:425] inception_4d/5x5 <- inception_4d/5x5_reduce
I0403 14:27:05.972167 13286 net.cpp:399] inception_4d/5x5 -> inception_4d/5x5
I0403 14:27:05.973671 13286 net.cpp:141] Setting up inception_4d/5x5
I0403 14:27:05.973698 13286 net.cpp:148] Top shape: 24 64 14 14 (301056)
I0403 14:27:05.973713 13286 net.cpp:156] Memory required for data: 1134062880
I0403 14:27:05.973732 13286 layer_factory.hpp:77] Creating layer inception_4d/relu_5x5
I0403 14:27:05.973769 13286 net.cpp:91] Creating Layer inception_4d/relu_5x5
I0403 14:27:05.973790 13286 net.cpp:425] inception_4d/relu_5x5 <- inception_4d/5x5
I0403 14:27:05.973808 13286 net.cpp:386] inception_4d/relu_5x5 -> inception_4d/5x5 (in-place)
I0403 14:27:05.974109 13286 net.cpp:141] Setting up inception_4d/relu_5x5
I0403 14:27:05.974135 13286 net.cpp:148] Top shape: 24 64 14 14 (301056)
I0403 14:27:05.974150 13286 net.cpp:156] Memory required for data: 1135267104
I0403 14:27:05.974164 13286 layer_factory.hpp:77] Creating layer inception_4d/pool
I0403 14:27:05.974182 13286 net.cpp:91] Creating Layer inception_4d/pool
I0403 14:27:05.974198 13286 net.cpp:425] inception_4d/pool <- inception_4c/output_inception_4c/output_0_split_3
I0403 14:27:05.974217 13286 net.cpp:399] inception_4d/pool -> inception_4d/pool
I0403 14:27:05.974285 13286 net.cpp:141] Setting up inception_4d/pool
I0403 14:27:05.974308 13286 net.cpp:148] Top shape: 24 512 14 14 (2408448)
I0403 14:27:05.974323 13286 net.cpp:156] Memory required for data: 1144900896
I0403 14:27:05.974336 13286 layer_factory.hpp:77] Creating layer inception_4d/pool_proj
I0403 14:27:05.974359 13286 net.cpp:91] Creating Layer inception_4d/pool_proj
I0403 14:27:05.974377 13286 net.cpp:425] inception_4d/pool_proj <- inception_4d/pool
I0403 14:27:05.974397 13286 net.cpp:399] inception_4d/pool_proj -> inception_4d/pool_proj
I0403 14:27:05.976204 13286 net.cpp:141] Setting up inception_4d/pool_proj
I0403 14:27:05.976234 13286 net.cpp:148] Top shape: 24 64 14 14 (301056)
I0403 14:27:05.976250 13286 net.cpp:156] Memory required for data: 1146105120
I0403 14:27:05.976270 13286 layer_factory.hpp:77] Creating layer inception_4d/relu_pool_proj
I0403 14:27:05.976289 13286 net.cpp:91] Creating Layer inception_4d/relu_pool_proj
I0403 14:27:05.976303 13286 net.cpp:425] inception_4d/relu_pool_proj <- inception_4d/pool_proj
I0403 14:27:05.976322 13286 net.cpp:386] inception_4d/relu_pool_proj -> inception_4d/pool_proj (in-place)
I0403 14:27:05.976505 13286 net.cpp:141] Setting up inception_4d/relu_pool_proj
I0403 14:27:05.976529 13286 net.cpp:148] Top shape: 24 64 14 14 (301056)
I0403 14:27:05.976548 13286 net.cpp:156] Memory required for data: 1147309344
I0403 14:27:05.976563 13286 layer_factory.hpp:77] Creating layer inception_4d/output
I0403 14:27:05.976579 13286 net.cpp:91] Creating Layer inception_4d/output
I0403 14:27:05.976594 13286 net.cpp:425] inception_4d/output <- inception_4d/1x1
I0403 14:27:05.976609 13286 net.cpp:425] inception_4d/output <- inception_4d/3x3
I0403 14:27:05.976624 13286 net.cpp:425] inception_4d/output <- inception_4d/5x5
I0403 14:27:05.976639 13286 net.cpp:425] inception_4d/output <- inception_4d/pool_proj
I0403 14:27:05.976657 13286 net.cpp:399] inception_4d/output -> inception_4d/output
I0403 14:27:05.976703 13286 net.cpp:141] Setting up inception_4d/output
I0403 14:27:05.976727 13286 net.cpp:148] Top shape: 24 528 14 14 (2483712)
I0403 14:27:05.976742 13286 net.cpp:156] Memory required for data: 1157244192
I0403 14:27:05.976757 13286 layer_factory.hpp:77] Creating layer inception_4d/output_inception_4d/output_0_split
I0403 14:27:05.976773 13286 net.cpp:91] Creating Layer inception_4d/output_inception_4d/output_0_split
I0403 14:27:05.976786 13286 net.cpp:425] inception_4d/output_inception_4d/output_0_split <- inception_4d/output
I0403 14:27:05.976805 13286 net.cpp:399] inception_4d/output_inception_4d/output_0_split -> inception_4d/output_inception_4d/output_0_split_0
I0403 14:27:05.976825 13286 net.cpp:399] inception_4d/output_inception_4d/output_0_split -> inception_4d/output_inception_4d/output_0_split_1
I0403 14:27:05.976845 13286 net.cpp:399] inception_4d/output_inception_4d/output_0_split -> inception_4d/output_inception_4d/output_0_split_2
I0403 14:27:05.976864 13286 net.cpp:399] inception_4d/output_inception_4d/output_0_split -> inception_4d/output_inception_4d/output_0_split_3
I0403 14:27:05.976884 13286 net.cpp:399] inception_4d/output_inception_4d/output_0_split -> inception_4d/output_inception_4d/output_0_split_4
I0403 14:27:05.976984 13286 net.cpp:141] Setting up inception_4d/output_inception_4d/output_0_split
I0403 14:27:05.977020 13286 net.cpp:148] Top shape: 24 528 14 14 (2483712)
I0403 14:27:05.977035 13286 net.cpp:148] Top shape: 24 528 14 14 (2483712)
I0403 14:27:05.977051 13286 net.cpp:148] Top shape: 24 528 14 14 (2483712)
I0403 14:27:05.977066 13286 net.cpp:148] Top shape: 24 528 14 14 (2483712)
I0403 14:27:05.977079 13286 net.cpp:148] Top shape: 24 528 14 14 (2483712)
I0403 14:27:05.977093 13286 net.cpp:156] Memory required for data: 1206918432
I0403 14:27:05.977108 13286 layer_factory.hpp:77] Creating layer loss2/ave_pool
I0403 14:27:05.977125 13286 net.cpp:91] Creating Layer loss2/ave_pool
I0403 14:27:05.977143 13286 net.cpp:425] loss2/ave_pool <- inception_4d/output_inception_4d/output_0_split_0
I0403 14:27:05.977161 13286 net.cpp:399] loss2/ave_pool -> loss2/ave_pool
I0403 14:27:05.977478 13286 net.cpp:141] Setting up loss2/ave_pool
I0403 14:27:05.977505 13286 net.cpp:148] Top shape: 24 528 4 4 (202752)
I0403 14:27:05.977520 13286 net.cpp:156] Memory required for data: 1207729440
I0403 14:27:05.977535 13286 layer_factory.hpp:77] Creating layer loss2/conv
I0403 14:27:05.977560 13286 net.cpp:91] Creating Layer loss2/conv
I0403 14:27:05.977578 13286 net.cpp:425] loss2/conv <- loss2/ave_pool
I0403 14:27:05.977598 13286 net.cpp:399] loss2/conv -> loss2/conv
I0403 14:27:05.979509 13286 net.cpp:141] Setting up loss2/conv
I0403 14:27:05.979540 13286 net.cpp:148] Top shape: 24 128 4 4 (49152)
I0403 14:27:05.979557 13286 net.cpp:156] Memory required for data: 1207926048
I0403 14:27:05.979574 13286 layer_factory.hpp:77] Creating layer loss2/relu_conv
I0403 14:27:05.979594 13286 net.cpp:91] Creating Layer loss2/relu_conv
I0403 14:27:05.979610 13286 net.cpp:425] loss2/relu_conv <- loss2/conv
I0403 14:27:05.979627 13286 net.cpp:386] loss2/relu_conv -> loss2/conv (in-place)
I0403 14:27:05.979909 13286 net.cpp:141] Setting up loss2/relu_conv
I0403 14:27:05.979934 13286 net.cpp:148] Top shape: 24 128 4 4 (49152)
I0403 14:27:05.979949 13286 net.cpp:156] Memory required for data: 1208122656
I0403 14:27:05.979964 13286 layer_factory.hpp:77] Creating layer loss2/fc
I0403 14:27:05.979984 13286 net.cpp:91] Creating Layer loss2/fc
I0403 14:27:05.980001 13286 net.cpp:425] loss2/fc <- loss2/conv
I0403 14:27:05.980020 13286 net.cpp:399] loss2/fc -> loss2/fc
I0403 14:27:05.997298 13286 net.cpp:141] Setting up loss2/fc
I0403 14:27:05.997329 13286 net.cpp:148] Top shape: 24 1024 (24576)
I0403 14:27:05.997344 13286 net.cpp:156] Memory required for data: 1208220960
I0403 14:27:05.997360 13286 layer_factory.hpp:77] Creating layer loss2/relu_fc
I0403 14:27:05.997378 13286 net.cpp:91] Creating Layer loss2/relu_fc
I0403 14:27:05.997395 13286 net.cpp:425] loss2/relu_fc <- loss2/fc
I0403 14:27:05.997413 13286 net.cpp:386] loss2/relu_fc -> loss2/fc (in-place)
I0403 14:27:05.997706 13286 net.cpp:141] Setting up loss2/relu_fc
I0403 14:27:05.997733 13286 net.cpp:148] Top shape: 24 1024 (24576)
I0403 14:27:05.997748 13286 net.cpp:156] Memory required for data: 1208319264
I0403 14:27:05.997762 13286 layer_factory.hpp:77] Creating layer loss2/drop_fc
I0403 14:27:05.997779 13286 net.cpp:91] Creating Layer loss2/drop_fc
I0403 14:27:05.997795 13286 net.cpp:425] loss2/drop_fc <- loss2/fc
I0403 14:27:05.997815 13286 net.cpp:386] loss2/drop_fc -> loss2/fc (in-place)
I0403 14:27:05.997864 13286 net.cpp:141] Setting up loss2/drop_fc
I0403 14:27:05.997885 13286 net.cpp:148] Top shape: 24 1024 (24576)
I0403 14:27:05.997900 13286 net.cpp:156] Memory required for data: 1208417568
I0403 14:27:05.997912 13286 layer_factory.hpp:77] Creating layer loss2/classifier_plantvillage
I0403 14:27:05.997932 13286 net.cpp:91] Creating Layer loss2/classifier_plantvillage
I0403 14:27:05.997948 13286 net.cpp:425] loss2/classifier_plantvillage <- loss2/fc
I0403 14:27:05.997968 13286 net.cpp:399] loss2/classifier_plantvillage -> loss2/classifier_plantvillage
I0403 14:27:05.998363 13286 net.cpp:141] Setting up loss2/classifier_plantvillage
I0403 14:27:05.998386 13286 net.cpp:148] Top shape: 24 38 (912)
I0403 14:27:05.998416 13286 net.cpp:156] Memory required for data: 1208421216
I0403 14:27:05.998435 13286 layer_factory.hpp:77] Creating layer loss2/classifier_plantvillage_loss2/classifier_plantvillage_0_split
I0403 14:27:05.998456 13286 net.cpp:91] Creating Layer loss2/classifier_plantvillage_loss2/classifier_plantvillage_0_split
I0403 14:27:05.998471 13286 net.cpp:425] loss2/classifier_plantvillage_loss2/classifier_plantvillage_0_split <- loss2/classifier_plantvillage
I0403 14:27:05.998487 13286 net.cpp:399] loss2/classifier_plantvillage_loss2/classifier_plantvillage_0_split -> loss2/classifier_plantvillage_loss2/classifier_plantvillage_0_split_0
I0403 14:27:05.998507 13286 net.cpp:399] loss2/classifier_plantvillage_loss2/classifier_plantvillage_0_split -> loss2/classifier_plantvillage_loss2/classifier_plantvillage_0_split_1
I0403 14:27:05.998527 13286 net.cpp:399] loss2/classifier_plantvillage_loss2/classifier_plantvillage_0_split -> loss2/classifier_plantvillage_loss2/classifier_plantvillage_0_split_2
I0403 14:27:05.998608 13286 net.cpp:141] Setting up loss2/classifier_plantvillage_loss2/classifier_plantvillage_0_split
I0403 14:27:05.998631 13286 net.cpp:148] Top shape: 24 38 (912)
I0403 14:27:05.998646 13286 net.cpp:148] Top shape: 24 38 (912)
I0403 14:27:05.998661 13286 net.cpp:148] Top shape: 24 38 (912)
I0403 14:27:05.998673 13286 net.cpp:156] Memory required for data: 1208432160
I0403 14:27:05.998687 13286 layer_factory.hpp:77] Creating layer inception_4e/1x1
I0403 14:27:05.998706 13286 net.cpp:91] Creating Layer inception_4e/1x1
I0403 14:27:05.998723 13286 net.cpp:425] inception_4e/1x1 <- inception_4d/output_inception_4d/output_0_split_1
I0403 14:27:05.998744 13286 net.cpp:399] inception_4e/1x1 -> inception_4e/1x1
I0403 14:27:06.000511 13286 net.cpp:141] Setting up inception_4e/1x1
I0403 14:27:06.000541 13286 net.cpp:148] Top shape: 24 256 14 14 (1204224)
I0403 14:27:06.000558 13286 net.cpp:156] Memory required for data: 1213249056
I0403 14:27:06.000576 13286 layer_factory.hpp:77] Creating layer inception_4e/relu_1x1
I0403 14:27:06.000597 13286 net.cpp:91] Creating Layer inception_4e/relu_1x1
I0403 14:27:06.000613 13286 net.cpp:425] inception_4e/relu_1x1 <- inception_4e/1x1
I0403 14:27:06.000628 13286 net.cpp:386] inception_4e/relu_1x1 -> inception_4e/1x1 (in-place)
I0403 14:27:06.000916 13286 net.cpp:141] Setting up inception_4e/relu_1x1
I0403 14:27:06.000941 13286 net.cpp:148] Top shape: 24 256 14 14 (1204224)
I0403 14:27:06.000957 13286 net.cpp:156] Memory required for data: 1218065952
I0403 14:27:06.000972 13286 layer_factory.hpp:77] Creating layer inception_4e/3x3_reduce
I0403 14:27:06.000993 13286 net.cpp:91] Creating Layer inception_4e/3x3_reduce
I0403 14:27:06.001010 13286 net.cpp:425] inception_4e/3x3_reduce <- inception_4d/output_inception_4d/output_0_split_2
I0403 14:27:06.001030 13286 net.cpp:399] inception_4e/3x3_reduce -> inception_4e/3x3_reduce
I0403 14:27:06.003118 13286 net.cpp:141] Setting up inception_4e/3x3_reduce
I0403 14:27:06.003144 13286 net.cpp:148] Top shape: 24 160 14 14 (752640)
I0403 14:27:06.003160 13286 net.cpp:156] Memory required for data: 1221076512
I0403 14:27:06.003177 13286 layer_factory.hpp:77] Creating layer inception_4e/relu_3x3_reduce
I0403 14:27:06.003197 13286 net.cpp:91] Creating Layer inception_4e/relu_3x3_reduce
I0403 14:27:06.003213 13286 net.cpp:425] inception_4e/relu_3x3_reduce <- inception_4e/3x3_reduce
I0403 14:27:06.003231 13286 net.cpp:386] inception_4e/relu_3x3_reduce -> inception_4e/3x3_reduce (in-place)
I0403 14:27:06.003409 13286 net.cpp:141] Setting up inception_4e/relu_3x3_reduce
I0403 14:27:06.003433 13286 net.cpp:148] Top shape: 24 160 14 14 (752640)
I0403 14:27:06.003448 13286 net.cpp:156] Memory required for data: 1224087072
I0403 14:27:06.003461 13286 layer_factory.hpp:77] Creating layer inception_4e/3x3
I0403 14:27:06.003482 13286 net.cpp:91] Creating Layer inception_4e/3x3
I0403 14:27:06.003500 13286 net.cpp:425] inception_4e/3x3 <- inception_4e/3x3_reduce
I0403 14:27:06.003518 13286 net.cpp:399] inception_4e/3x3 -> inception_4e/3x3
I0403 14:27:06.008577 13286 net.cpp:141] Setting up inception_4e/3x3
I0403 14:27:06.008618 13286 net.cpp:148] Top shape: 24 320 14 14 (1505280)
I0403 14:27:06.008635 13286 net.cpp:156] Memory required for data: 1230108192
I0403 14:27:06.008652 13286 layer_factory.hpp:77] Creating layer inception_4e/relu_3x3
I0403 14:27:06.008673 13286 net.cpp:91] Creating Layer inception_4e/relu_3x3
I0403 14:27:06.008690 13286 net.cpp:425] inception_4e/relu_3x3 <- inception_4e/3x3
I0403 14:27:06.008708 13286 net.cpp:386] inception_4e/relu_3x3 -> inception_4e/3x3 (in-place)
I0403 14:27:06.009011 13286 net.cpp:141] Setting up inception_4e/relu_3x3
I0403 14:27:06.009039 13286 net.cpp:148] Top shape: 24 320 14 14 (1505280)
I0403 14:27:06.009054 13286 net.cpp:156] Memory required for data: 1236129312
I0403 14:27:06.009069 13286 layer_factory.hpp:77] Creating layer inception_4e/5x5_reduce
I0403 14:27:06.009093 13286 net.cpp:91] Creating Layer inception_4e/5x5_reduce
I0403 14:27:06.009109 13286 net.cpp:425] inception_4e/5x5_reduce <- inception_4d/output_inception_4d/output_0_split_3
I0403 14:27:06.009129 13286 net.cpp:399] inception_4e/5x5_reduce -> inception_4e/5x5_reduce
I0403 14:27:06.010216 13286 net.cpp:141] Setting up inception_4e/5x5_reduce
I0403 14:27:06.010244 13286 net.cpp:148] Top shape: 24 32 14 14 (150528)
I0403 14:27:06.010262 13286 net.cpp:156] Memory required for data: 1236731424
I0403 14:27:06.010279 13286 layer_factory.hpp:77] Creating layer inception_4e/relu_5x5_reduce
I0403 14:27:06.010299 13286 net.cpp:91] Creating Layer inception_4e/relu_5x5_reduce
I0403 14:27:06.010316 13286 net.cpp:425] inception_4e/relu_5x5_reduce <- inception_4e/5x5_reduce
I0403 14:27:06.010334 13286 net.cpp:386] inception_4e/relu_5x5_reduce -> inception_4e/5x5_reduce (in-place)
I0403 14:27:06.010658 13286 net.cpp:141] Setting up inception_4e/relu_5x5_reduce
I0403 14:27:06.010684 13286 net.cpp:148] Top shape: 24 32 14 14 (150528)
I0403 14:27:06.010699 13286 net.cpp:156] Memory required for data: 1237333536
I0403 14:27:06.010715 13286 layer_factory.hpp:77] Creating layer inception_4e/5x5
I0403 14:27:06.010753 13286 net.cpp:91] Creating Layer inception_4e/5x5
I0403 14:27:06.010773 13286 net.cpp:425] inception_4e/5x5 <- inception_4e/5x5_reduce
I0403 14:27:06.010793 13286 net.cpp:399] inception_4e/5x5 -> inception_4e/5x5
I0403 14:27:06.012672 13286 net.cpp:141] Setting up inception_4e/5x5
I0403 14:27:06.012701 13286 net.cpp:148] Top shape: 24 128 14 14 (602112)
I0403 14:27:06.012715 13286 net.cpp:156] Memory required for data: 1239741984
I0403 14:27:06.012734 13286 layer_factory.hpp:77] Creating layer inception_4e/relu_5x5
I0403 14:27:06.012753 13286 net.cpp:91] Creating Layer inception_4e/relu_5x5
I0403 14:27:06.012768 13286 net.cpp:425] inception_4e/relu_5x5 <- inception_4e/5x5
I0403 14:27:06.012787 13286 net.cpp:386] inception_4e/relu_5x5 -> inception_4e/5x5 (in-place)
I0403 14:27:06.012985 13286 net.cpp:141] Setting up inception_4e/relu_5x5
I0403 14:27:06.013010 13286 net.cpp:148] Top shape: 24 128 14 14 (602112)
I0403 14:27:06.013025 13286 net.cpp:156] Memory required for data: 1242150432
I0403 14:27:06.013038 13286 layer_factory.hpp:77] Creating layer inception_4e/pool
I0403 14:27:06.013058 13286 net.cpp:91] Creating Layer inception_4e/pool
I0403 14:27:06.013075 13286 net.cpp:425] inception_4e/pool <- inception_4d/output_inception_4d/output_0_split_4
I0403 14:27:06.013092 13286 net.cpp:399] inception_4e/pool -> inception_4e/pool
I0403 14:27:06.013162 13286 net.cpp:141] Setting up inception_4e/pool
I0403 14:27:06.013186 13286 net.cpp:148] Top shape: 24 528 14 14 (2483712)
I0403 14:27:06.013201 13286 net.cpp:156] Memory required for data: 1252085280
I0403 14:27:06.013216 13286 layer_factory.hpp:77] Creating layer inception_4e/pool_proj
I0403 14:27:06.013237 13286 net.cpp:91] Creating Layer inception_4e/pool_proj
I0403 14:27:06.013254 13286 net.cpp:425] inception_4e/pool_proj <- inception_4e/pool
I0403 14:27:06.013276 13286 net.cpp:399] inception_4e/pool_proj -> inception_4e/pool_proj
I0403 14:27:06.014802 13286 net.cpp:141] Setting up inception_4e/pool_proj
I0403 14:27:06.014843 13286 net.cpp:148] Top shape: 24 128 14 14 (602112)
I0403 14:27:06.014859 13286 net.cpp:156] Memory required for data: 1254493728
I0403 14:27:06.014878 13286 layer_factory.hpp:77] Creating layer inception_4e/relu_pool_proj
I0403 14:27:06.014895 13286 net.cpp:91] Creating Layer inception_4e/relu_pool_proj
I0403 14:27:06.014911 13286 net.cpp:425] inception_4e/relu_pool_proj <- inception_4e/pool_proj
I0403 14:27:06.014930 13286 net.cpp:386] inception_4e/relu_pool_proj -> inception_4e/pool_proj (in-place)
I0403 14:27:06.015228 13286 net.cpp:141] Setting up inception_4e/relu_pool_proj
I0403 14:27:06.015255 13286 net.cpp:148] Top shape: 24 128 14 14 (602112)
I0403 14:27:06.015271 13286 net.cpp:156] Memory required for data: 1256902176
I0403 14:27:06.015286 13286 layer_factory.hpp:77] Creating layer inception_4e/output
I0403 14:27:06.015303 13286 net.cpp:91] Creating Layer inception_4e/output
I0403 14:27:06.015319 13286 net.cpp:425] inception_4e/output <- inception_4e/1x1
I0403 14:27:06.015334 13286 net.cpp:425] inception_4e/output <- inception_4e/3x3
I0403 14:27:06.015350 13286 net.cpp:425] inception_4e/output <- inception_4e/5x5
I0403 14:27:06.015367 13286 net.cpp:425] inception_4e/output <- inception_4e/pool_proj
I0403 14:27:06.015383 13286 net.cpp:399] inception_4e/output -> inception_4e/output
I0403 14:27:06.015432 13286 net.cpp:141] Setting up inception_4e/output
I0403 14:27:06.015455 13286 net.cpp:148] Top shape: 24 832 14 14 (3913728)
I0403 14:27:06.015470 13286 net.cpp:156] Memory required for data: 1272557088
I0403 14:27:06.015483 13286 layer_factory.hpp:77] Creating layer pool4/3x3_s2
I0403 14:27:06.015503 13286 net.cpp:91] Creating Layer pool4/3x3_s2
I0403 14:27:06.015519 13286 net.cpp:425] pool4/3x3_s2 <- inception_4e/output
I0403 14:27:06.015540 13286 net.cpp:399] pool4/3x3_s2 -> pool4/3x3_s2
I0403 14:27:06.015610 13286 net.cpp:141] Setting up pool4/3x3_s2
I0403 14:27:06.015635 13286 net.cpp:148] Top shape: 24 832 7 7 (978432)
I0403 14:27:06.015648 13286 net.cpp:156] Memory required for data: 1276470816
I0403 14:27:06.015662 13286 layer_factory.hpp:77] Creating layer pool4/3x3_s2_pool4/3x3_s2_0_split
I0403 14:27:06.015679 13286 net.cpp:91] Creating Layer pool4/3x3_s2_pool4/3x3_s2_0_split
I0403 14:27:06.015693 13286 net.cpp:425] pool4/3x3_s2_pool4/3x3_s2_0_split <- pool4/3x3_s2
I0403 14:27:06.015712 13286 net.cpp:399] pool4/3x3_s2_pool4/3x3_s2_0_split -> pool4/3x3_s2_pool4/3x3_s2_0_split_0
I0403 14:27:06.015733 13286 net.cpp:399] pool4/3x3_s2_pool4/3x3_s2_0_split -> pool4/3x3_s2_pool4/3x3_s2_0_split_1
I0403 14:27:06.015753 13286 net.cpp:399] pool4/3x3_s2_pool4/3x3_s2_0_split -> pool4/3x3_s2_pool4/3x3_s2_0_split_2
I0403 14:27:06.015772 13286 net.cpp:399] pool4/3x3_s2_pool4/3x3_s2_0_split -> pool4/3x3_s2_pool4/3x3_s2_0_split_3
I0403 14:27:06.015864 13286 net.cpp:141] Setting up pool4/3x3_s2_pool4/3x3_s2_0_split
I0403 14:27:06.015889 13286 net.cpp:148] Top shape: 24 832 7 7 (978432)
I0403 14:27:06.015907 13286 net.cpp:148] Top shape: 24 832 7 7 (978432)
I0403 14:27:06.015921 13286 net.cpp:148] Top shape: 24 832 7 7 (978432)
I0403 14:27:06.015936 13286 net.cpp:148] Top shape: 24 832 7 7 (978432)
I0403 14:27:06.015950 13286 net.cpp:156] Memory required for data: 1292125728
I0403 14:27:06.015964 13286 layer_factory.hpp:77] Creating layer inception_5a/1x1
I0403 14:27:06.015986 13286 net.cpp:91] Creating Layer inception_5a/1x1
I0403 14:27:06.016003 13286 net.cpp:425] inception_5a/1x1 <- pool4/3x3_s2_pool4/3x3_s2_0_split_0
I0403 14:27:06.016023 13286 net.cpp:399] inception_5a/1x1 -> inception_5a/1x1
I0403 14:27:06.018903 13286 net.cpp:141] Setting up inception_5a/1x1
I0403 14:27:06.018932 13286 net.cpp:148] Top shape: 24 256 7 7 (301056)
I0403 14:27:06.018947 13286 net.cpp:156] Memory required for data: 1293329952
I0403 14:27:06.018965 13286 layer_factory.hpp:77] Creating layer inception_5a/relu_1x1
I0403 14:27:06.018985 13286 net.cpp:91] Creating Layer inception_5a/relu_1x1
I0403 14:27:06.019002 13286 net.cpp:425] inception_5a/relu_1x1 <- inception_5a/1x1
I0403 14:27:06.019018 13286 net.cpp:386] inception_5a/relu_1x1 -> inception_5a/1x1 (in-place)
I0403 14:27:06.019335 13286 net.cpp:141] Setting up inception_5a/relu_1x1
I0403 14:27:06.019362 13286 net.cpp:148] Top shape: 24 256 7 7 (301056)
I0403 14:27:06.019377 13286 net.cpp:156] Memory required for data: 1294534176
I0403 14:27:06.019392 13286 layer_factory.hpp:77] Creating layer inception_5a/3x3_reduce
I0403 14:27:06.019413 13286 net.cpp:91] Creating Layer inception_5a/3x3_reduce
I0403 14:27:06.019431 13286 net.cpp:425] inception_5a/3x3_reduce <- pool4/3x3_s2_pool4/3x3_s2_0_split_1
I0403 14:27:06.019453 13286 net.cpp:399] inception_5a/3x3_reduce -> inception_5a/3x3_reduce
I0403 14:27:06.022001 13286 net.cpp:141] Setting up inception_5a/3x3_reduce
I0403 14:27:06.022032 13286 net.cpp:148] Top shape: 24 160 7 7 (188160)
I0403 14:27:06.022048 13286 net.cpp:156] Memory required for data: 1295286816
I0403 14:27:06.022066 13286 layer_factory.hpp:77] Creating layer inception_5a/relu_3x3_reduce
I0403 14:27:06.022084 13286 net.cpp:91] Creating Layer inception_5a/relu_3x3_reduce
I0403 14:27:06.022100 13286 net.cpp:425] inception_5a/relu_3x3_reduce <- inception_5a/3x3_reduce
I0403 14:27:06.022119 13286 net.cpp:386] inception_5a/relu_3x3_reduce -> inception_5a/3x3_reduce (in-place)
I0403 14:27:06.022308 13286 net.cpp:141] Setting up inception_5a/relu_3x3_reduce
I0403 14:27:06.022333 13286 net.cpp:148] Top shape: 24 160 7 7 (188160)
I0403 14:27:06.022347 13286 net.cpp:156] Memory required for data: 1296039456
I0403 14:27:06.022362 13286 layer_factory.hpp:77] Creating layer inception_5a/3x3
I0403 14:27:06.022384 13286 net.cpp:91] Creating Layer inception_5a/3x3
I0403 14:27:06.022402 13286 net.cpp:425] inception_5a/3x3 <- inception_5a/3x3_reduce
I0403 14:27:06.022423 13286 net.cpp:399] inception_5a/3x3 -> inception_5a/3x3
I0403 14:27:06.027578 13286 net.cpp:141] Setting up inception_5a/3x3
I0403 14:27:06.027609 13286 net.cpp:148] Top shape: 24 320 7 7 (376320)
I0403 14:27:06.027626 13286 net.cpp:156] Memory required for data: 1297544736
I0403 14:27:06.027643 13286 layer_factory.hpp:77] Creating layer inception_5a/relu_3x3
I0403 14:27:06.027662 13286 net.cpp:91] Creating Layer inception_5a/relu_3x3
I0403 14:27:06.027678 13286 net.cpp:425] inception_5a/relu_3x3 <- inception_5a/3x3
I0403 14:27:06.027696 13286 net.cpp:386] inception_5a/relu_3x3 -> inception_5a/3x3 (in-place)
I0403 14:27:06.027995 13286 net.cpp:141] Setting up inception_5a/relu_3x3
I0403 14:27:06.028022 13286 net.cpp:148] Top shape: 24 320 7 7 (376320)
I0403 14:27:06.028036 13286 net.cpp:156] Memory required for data: 1299050016
I0403 14:27:06.028051 13286 layer_factory.hpp:77] Creating layer inception_5a/5x5_reduce
I0403 14:27:06.028074 13286 net.cpp:91] Creating Layer inception_5a/5x5_reduce
I0403 14:27:06.028091 13286 net.cpp:425] inception_5a/5x5_reduce <- pool4/3x3_s2_pool4/3x3_s2_0_split_2
I0403 14:27:06.028112 13286 net.cpp:399] inception_5a/5x5_reduce -> inception_5a/5x5_reduce
I0403 14:27:06.029297 13286 net.cpp:141] Setting up inception_5a/5x5_reduce
I0403 14:27:06.029325 13286 net.cpp:148] Top shape: 24 32 7 7 (37632)
I0403 14:27:06.029341 13286 net.cpp:156] Memory required for data: 1299200544
I0403 14:27:06.029358 13286 layer_factory.hpp:77] Creating layer inception_5a/relu_5x5_reduce
I0403 14:27:06.029378 13286 net.cpp:91] Creating Layer inception_5a/relu_5x5_reduce
I0403 14:27:06.029395 13286 net.cpp:425] inception_5a/relu_5x5_reduce <- inception_5a/5x5_reduce
I0403 14:27:06.029412 13286 net.cpp:386] inception_5a/relu_5x5_reduce -> inception_5a/5x5_reduce (in-place)
I0403 14:27:06.029719 13286 net.cpp:141] Setting up inception_5a/relu_5x5_reduce
I0403 14:27:06.029745 13286 net.cpp:148] Top shape: 24 32 7 7 (37632)
I0403 14:27:06.029762 13286 net.cpp:156] Memory required for data: 1299351072
I0403 14:27:06.029777 13286 layer_factory.hpp:77] Creating layer inception_5a/5x5
I0403 14:27:06.029798 13286 net.cpp:91] Creating Layer inception_5a/5x5
I0403 14:27:06.029816 13286 net.cpp:425] inception_5a/5x5 <- inception_5a/5x5_reduce
I0403 14:27:06.029836 13286 net.cpp:399] inception_5a/5x5 -> inception_5a/5x5
I0403 14:27:06.031581 13286 net.cpp:141] Setting up inception_5a/5x5
I0403 14:27:06.031622 13286 net.cpp:148] Top shape: 24 128 7 7 (150528)
I0403 14:27:06.031638 13286 net.cpp:156] Memory required for data: 1299953184
I0403 14:27:06.031657 13286 layer_factory.hpp:77] Creating layer inception_5a/relu_5x5
I0403 14:27:06.031675 13286 net.cpp:91] Creating Layer inception_5a/relu_5x5
I0403 14:27:06.031692 13286 net.cpp:425] inception_5a/relu_5x5 <- inception_5a/5x5
I0403 14:27:06.031710 13286 net.cpp:386] inception_5a/relu_5x5 -> inception_5a/5x5 (in-place)
I0403 14:27:06.031904 13286 net.cpp:141] Setting up inception_5a/relu_5x5
I0403 14:27:06.031929 13286 net.cpp:148] Top shape: 24 128 7 7 (150528)
I0403 14:27:06.031944 13286 net.cpp:156] Memory required for data: 1300555296
I0403 14:27:06.031958 13286 layer_factory.hpp:77] Creating layer inception_5a/pool
I0403 14:27:06.031977 13286 net.cpp:91] Creating Layer inception_5a/pool
I0403 14:27:06.031994 13286 net.cpp:425] inception_5a/pool <- pool4/3x3_s2_pool4/3x3_s2_0_split_3
I0403 14:27:06.032011 13286 net.cpp:399] inception_5a/pool -> inception_5a/pool
I0403 14:27:06.032083 13286 net.cpp:141] Setting up inception_5a/pool
I0403 14:27:06.032106 13286 net.cpp:148] Top shape: 24 832 7 7 (978432)
I0403 14:27:06.032120 13286 net.cpp:156] Memory required for data: 1304469024
I0403 14:27:06.032135 13286 layer_factory.hpp:77] Creating layer inception_5a/pool_proj
I0403 14:27:06.032156 13286 net.cpp:91] Creating Layer inception_5a/pool_proj
I0403 14:27:06.032173 13286 net.cpp:425] inception_5a/pool_proj <- inception_5a/pool
I0403 14:27:06.032193 13286 net.cpp:399] inception_5a/pool_proj -> inception_5a/pool_proj
I0403 14:27:06.034607 13286 net.cpp:141] Setting up inception_5a/pool_proj
I0403 14:27:06.034641 13286 net.cpp:148] Top shape: 24 128 7 7 (150528)
I0403 14:27:06.034657 13286 net.cpp:156] Memory required for data: 1305071136
I0403 14:27:06.034677 13286 layer_factory.hpp:77] Creating layer inception_5a/relu_pool_proj
I0403 14:27:06.034695 13286 net.cpp:91] Creating Layer inception_5a/relu_pool_proj
I0403 14:27:06.034710 13286 net.cpp:425] inception_5a/relu_pool_proj <- inception_5a/pool_proj
I0403 14:27:06.034730 13286 net.cpp:386] inception_5a/relu_pool_proj -> inception_5a/pool_proj (in-place)
I0403 14:27:06.035027 13286 net.cpp:141] Setting up inception_5a/relu_pool_proj
I0403 14:27:06.035055 13286 net.cpp:148] Top shape: 24 128 7 7 (150528)
I0403 14:27:06.035071 13286 net.cpp:156] Memory required for data: 1305673248
I0403 14:27:06.035086 13286 layer_factory.hpp:77] Creating layer inception_5a/output
I0403 14:27:06.035104 13286 net.cpp:91] Creating Layer inception_5a/output
I0403 14:27:06.035118 13286 net.cpp:425] inception_5a/output <- inception_5a/1x1
I0403 14:27:06.035135 13286 net.cpp:425] inception_5a/output <- inception_5a/3x3
I0403 14:27:06.035151 13286 net.cpp:425] inception_5a/output <- inception_5a/5x5
I0403 14:27:06.035166 13286 net.cpp:425] inception_5a/output <- inception_5a/pool_proj
I0403 14:27:06.035186 13286 net.cpp:399] inception_5a/output -> inception_5a/output
I0403 14:27:06.035235 13286 net.cpp:141] Setting up inception_5a/output
I0403 14:27:06.035259 13286 net.cpp:148] Top shape: 24 832 7 7 (978432)
I0403 14:27:06.035272 13286 net.cpp:156] Memory required for data: 1309586976
I0403 14:27:06.035286 13286 layer_factory.hpp:77] Creating layer inception_5a/output_inception_5a/output_0_split
I0403 14:27:06.035308 13286 net.cpp:91] Creating Layer inception_5a/output_inception_5a/output_0_split
I0403 14:27:06.035326 13286 net.cpp:425] inception_5a/output_inception_5a/output_0_split <- inception_5a/output
I0403 14:27:06.035342 13286 net.cpp:399] inception_5a/output_inception_5a/output_0_split -> inception_5a/output_inception_5a/output_0_split_0
I0403 14:27:06.035362 13286 net.cpp:399] inception_5a/output_inception_5a/output_0_split -> inception_5a/output_inception_5a/output_0_split_1
I0403 14:27:06.035384 13286 net.cpp:399] inception_5a/output_inception_5a/output_0_split -> inception_5a/output_inception_5a/output_0_split_2
I0403 14:27:06.035405 13286 net.cpp:399] inception_5a/output_inception_5a/output_0_split -> inception_5a/output_inception_5a/output_0_split_3
I0403 14:27:06.035517 13286 net.cpp:141] Setting up inception_5a/output_inception_5a/output_0_split
I0403 14:27:06.035544 13286 net.cpp:148] Top shape: 24 832 7 7 (978432)
I0403 14:27:06.035562 13286 net.cpp:148] Top shape: 24 832 7 7 (978432)
I0403 14:27:06.035576 13286 net.cpp:148] Top shape: 24 832 7 7 (978432)
I0403 14:27:06.035591 13286 net.cpp:148] Top shape: 24 832 7 7 (978432)
I0403 14:27:06.035604 13286 net.cpp:156] Memory required for data: 1325241888
I0403 14:27:06.035619 13286 layer_factory.hpp:77] Creating layer inception_5b/1x1
I0403 14:27:06.035640 13286 net.cpp:91] Creating Layer inception_5b/1x1
I0403 14:27:06.035660 13286 net.cpp:425] inception_5b/1x1 <- inception_5a/output_inception_5a/output_0_split_0
I0403 14:27:06.035679 13286 net.cpp:399] inception_5b/1x1 -> inception_5b/1x1
I0403 14:27:06.040244 13286 net.cpp:141] Setting up inception_5b/1x1
I0403 14:27:06.040277 13286 net.cpp:148] Top shape: 24 384 7 7 (451584)
I0403 14:27:06.040294 13286 net.cpp:156] Memory required for data: 1327048224
I0403 14:27:06.040313 13286 layer_factory.hpp:77] Creating layer inception_5b/relu_1x1
I0403 14:27:06.040330 13286 net.cpp:91] Creating Layer inception_5b/relu_1x1
I0403 14:27:06.040346 13286 net.cpp:425] inception_5b/relu_1x1 <- inception_5b/1x1
I0403 14:27:06.040364 13286 net.cpp:386] inception_5b/relu_1x1 -> inception_5b/1x1 (in-place)
I0403 14:27:06.040684 13286 net.cpp:141] Setting up inception_5b/relu_1x1
I0403 14:27:06.040714 13286 net.cpp:148] Top shape: 24 384 7 7 (451584)
I0403 14:27:06.040729 13286 net.cpp:156] Memory required for data: 1328854560
I0403 14:27:06.040743 13286 layer_factory.hpp:77] Creating layer inception_5b/3x3_reduce
I0403 14:27:06.040766 13286 net.cpp:91] Creating Layer inception_5b/3x3_reduce
I0403 14:27:06.040783 13286 net.cpp:425] inception_5b/3x3_reduce <- inception_5a/output_inception_5a/output_0_split_1
I0403 14:27:06.040802 13286 net.cpp:399] inception_5b/3x3_reduce -> inception_5b/3x3_reduce
I0403 14:27:06.043516 13286 net.cpp:141] Setting up inception_5b/3x3_reduce
I0403 14:27:06.043552 13286 net.cpp:148] Top shape: 24 192 7 7 (225792)
I0403 14:27:06.043570 13286 net.cpp:156] Memory required for data: 1329757728
I0403 14:27:06.043587 13286 layer_factory.hpp:77] Creating layer inception_5b/relu_3x3_reduce
I0403 14:27:06.043606 13286 net.cpp:91] Creating Layer inception_5b/relu_3x3_reduce
I0403 14:27:06.043622 13286 net.cpp:425] inception_5b/relu_3x3_reduce <- inception_5b/3x3_reduce
I0403 14:27:06.043642 13286 net.cpp:386] inception_5b/relu_3x3_reduce -> inception_5b/3x3_reduce (in-place)
I0403 14:27:06.043833 13286 net.cpp:141] Setting up inception_5b/relu_3x3_reduce
I0403 14:27:06.043858 13286 net.cpp:148] Top shape: 24 192 7 7 (225792)
I0403 14:27:06.043871 13286 net.cpp:156] Memory required for data: 1330660896
I0403 14:27:06.043885 13286 layer_factory.hpp:77] Creating layer inception_5b/3x3
I0403 14:27:06.043907 13286 net.cpp:91] Creating Layer inception_5b/3x3
I0403 14:27:06.043925 13286 net.cpp:425] inception_5b/3x3 <- inception_5b/3x3_reduce
I0403 14:27:06.043946 13286 net.cpp:399] inception_5b/3x3 -> inception_5b/3x3
I0403 14:27:06.050737 13286 net.cpp:141] Setting up inception_5b/3x3
I0403 14:27:06.050768 13286 net.cpp:148] Top shape: 24 384 7 7 (451584)
I0403 14:27:06.050786 13286 net.cpp:156] Memory required for data: 1332467232
I0403 14:27:06.050803 13286 layer_factory.hpp:77] Creating layer inception_5b/relu_3x3
I0403 14:27:06.050822 13286 net.cpp:91] Creating Layer inception_5b/relu_3x3
I0403 14:27:06.050837 13286 net.cpp:425] inception_5b/relu_3x3 <- inception_5b/3x3
I0403 14:27:06.050860 13286 net.cpp:386] inception_5b/relu_3x3 -> inception_5b/3x3 (in-place)
I0403 14:27:06.051159 13286 net.cpp:141] Setting up inception_5b/relu_3x3
I0403 14:27:06.051188 13286 net.cpp:148] Top shape: 24 384 7 7 (451584)
I0403 14:27:06.051204 13286 net.cpp:156] Memory required for data: 1334273568
I0403 14:27:06.051218 13286 layer_factory.hpp:77] Creating layer inception_5b/5x5_reduce
I0403 14:27:06.051259 13286 net.cpp:91] Creating Layer inception_5b/5x5_reduce
I0403 14:27:06.051278 13286 net.cpp:425] inception_5b/5x5_reduce <- inception_5a/output_inception_5a/output_0_split_2
I0403 14:27:06.051300 13286 net.cpp:399] inception_5b/5x5_reduce -> inception_5b/5x5_reduce
I0403 14:27:06.052610 13286 net.cpp:141] Setting up inception_5b/5x5_reduce
I0403 14:27:06.052639 13286 net.cpp:148] Top shape: 24 48 7 7 (56448)
I0403 14:27:06.052655 13286 net.cpp:156] Memory required for data: 1334499360
I0403 14:27:06.052672 13286 layer_factory.hpp:77] Creating layer inception_5b/relu_5x5_reduce
I0403 14:27:06.052690 13286 net.cpp:91] Creating Layer inception_5b/relu_5x5_reduce
I0403 14:27:06.052706 13286 net.cpp:425] inception_5b/relu_5x5_reduce <- inception_5b/5x5_reduce
I0403 14:27:06.052726 13286 net.cpp:386] inception_5b/relu_5x5_reduce -> inception_5b/5x5_reduce (in-place)
I0403 14:27:06.053112 13286 net.cpp:141] Setting up inception_5b/relu_5x5_reduce
I0403 14:27:06.053138 13286 net.cpp:148] Top shape: 24 48 7 7 (56448)
I0403 14:27:06.053153 13286 net.cpp:156] Memory required for data: 1334725152
I0403 14:27:06.053167 13286 layer_factory.hpp:77] Creating layer inception_5b/5x5
I0403 14:27:06.053187 13286 net.cpp:91] Creating Layer inception_5b/5x5
I0403 14:27:06.053205 13286 net.cpp:425] inception_5b/5x5 <- inception_5b/5x5_reduce
I0403 14:27:06.053222 13286 net.cpp:399] inception_5b/5x5 -> inception_5b/5x5
I0403 14:27:06.055342 13286 net.cpp:141] Setting up inception_5b/5x5
I0403 14:27:06.055371 13286 net.cpp:148] Top shape: 24 128 7 7 (150528)
I0403 14:27:06.055387 13286 net.cpp:156] Memory required for data: 1335327264
I0403 14:27:06.055403 13286 layer_factory.hpp:77] Creating layer inception_5b/relu_5x5
I0403 14:27:06.055424 13286 net.cpp:91] Creating Layer inception_5b/relu_5x5
I0403 14:27:06.055440 13286 net.cpp:425] inception_5b/relu_5x5 <- inception_5b/5x5
I0403 14:27:06.055457 13286 net.cpp:386] inception_5b/relu_5x5 -> inception_5b/5x5 (in-place)
I0403 14:27:06.055658 13286 net.cpp:141] Setting up inception_5b/relu_5x5
I0403 14:27:06.055683 13286 net.cpp:148] Top shape: 24 128 7 7 (150528)
I0403 14:27:06.055697 13286 net.cpp:156] Memory required for data: 1335929376
I0403 14:27:06.055712 13286 layer_factory.hpp:77] Creating layer inception_5b/pool
I0403 14:27:06.055732 13286 net.cpp:91] Creating Layer inception_5b/pool
I0403 14:27:06.055749 13286 net.cpp:425] inception_5b/pool <- inception_5a/output_inception_5a/output_0_split_3
I0403 14:27:06.055766 13286 net.cpp:399] inception_5b/pool -> inception_5b/pool
I0403 14:27:06.055841 13286 net.cpp:141] Setting up inception_5b/pool
I0403 14:27:06.055867 13286 net.cpp:148] Top shape: 24 832 7 7 (978432)
I0403 14:27:06.055881 13286 net.cpp:156] Memory required for data: 1339843104
I0403 14:27:06.055896 13286 layer_factory.hpp:77] Creating layer inception_5b/pool_proj
I0403 14:27:06.055917 13286 net.cpp:91] Creating Layer inception_5b/pool_proj
I0403 14:27:06.055934 13286 net.cpp:425] inception_5b/pool_proj <- inception_5b/pool
I0403 14:27:06.055954 13286 net.cpp:399] inception_5b/pool_proj -> inception_5b/pool_proj
I0403 14:27:06.058378 13286 net.cpp:141] Setting up inception_5b/pool_proj
I0403 14:27:06.058408 13286 net.cpp:148] Top shape: 24 128 7 7 (150528)
I0403 14:27:06.058425 13286 net.cpp:156] Memory required for data: 1340445216
I0403 14:27:06.058444 13286 layer_factory.hpp:77] Creating layer inception_5b/relu_pool_proj
I0403 14:27:06.058461 13286 net.cpp:91] Creating Layer inception_5b/relu_pool_proj
I0403 14:27:06.058477 13286 net.cpp:425] inception_5b/relu_pool_proj <- inception_5b/pool_proj
I0403 14:27:06.058497 13286 net.cpp:386] inception_5b/relu_pool_proj -> inception_5b/pool_proj (in-place)
I0403 14:27:06.058814 13286 net.cpp:141] Setting up inception_5b/relu_pool_proj
I0403 14:27:06.058840 13286 net.cpp:148] Top shape: 24 128 7 7 (150528)
I0403 14:27:06.058856 13286 net.cpp:156] Memory required for data: 1341047328
I0403 14:27:06.058871 13286 layer_factory.hpp:77] Creating layer inception_5b/output
I0403 14:27:06.058887 13286 net.cpp:91] Creating Layer inception_5b/output
I0403 14:27:06.058920 13286 net.cpp:425] inception_5b/output <- inception_5b/1x1
I0403 14:27:06.058938 13286 net.cpp:425] inception_5b/output <- inception_5b/3x3
I0403 14:27:06.058956 13286 net.cpp:425] inception_5b/output <- inception_5b/5x5
I0403 14:27:06.058972 13286 net.cpp:425] inception_5b/output <- inception_5b/pool_proj
I0403 14:27:06.058992 13286 net.cpp:399] inception_5b/output -> inception_5b/output
I0403 14:27:06.059046 13286 net.cpp:141] Setting up inception_5b/output
I0403 14:27:06.059072 13286 net.cpp:148] Top shape: 24 1024 7 7 (1204224)
I0403 14:27:06.059087 13286 net.cpp:156] Memory required for data: 1345864224
I0403 14:27:06.059101 13286 layer_factory.hpp:77] Creating layer pool5/7x7_s1
I0403 14:27:06.059119 13286 net.cpp:91] Creating Layer pool5/7x7_s1
I0403 14:27:06.059135 13286 net.cpp:425] pool5/7x7_s1 <- inception_5b/output
I0403 14:27:06.059152 13286 net.cpp:399] pool5/7x7_s1 -> pool5/7x7_s1
I0403 14:27:06.059379 13286 net.cpp:141] Setting up pool5/7x7_s1
I0403 14:27:06.059406 13286 net.cpp:148] Top shape: 24 1024 1 1 (24576)
I0403 14:27:06.059420 13286 net.cpp:156] Memory required for data: 1345962528
I0403 14:27:06.059435 13286 layer_factory.hpp:77] Creating layer pool5/drop_7x7_s1
I0403 14:27:06.059453 13286 net.cpp:91] Creating Layer pool5/drop_7x7_s1
I0403 14:27:06.059470 13286 net.cpp:425] pool5/drop_7x7_s1 <- pool5/7x7_s1
I0403 14:27:06.059489 13286 net.cpp:386] pool5/drop_7x7_s1 -> pool5/7x7_s1 (in-place)
I0403 14:27:06.059545 13286 net.cpp:141] Setting up pool5/drop_7x7_s1
I0403 14:27:06.059572 13286 net.cpp:148] Top shape: 24 1024 1 1 (24576)
I0403 14:27:06.059587 13286 net.cpp:156] Memory required for data: 1346060832
I0403 14:27:06.059602 13286 layer_factory.hpp:77] Creating layer loss3/classifier_plantvillage
I0403 14:27:06.059623 13286 net.cpp:91] Creating Layer loss3/classifier_plantvillage
I0403 14:27:06.059638 13286 net.cpp:425] loss3/classifier_plantvillage <- pool5/7x7_s1
I0403 14:27:06.059659 13286 net.cpp:399] loss3/classifier_plantvillage -> loss3/classifier_plantvillage
I0403 14:27:06.060106 13286 net.cpp:141] Setting up loss3/classifier_plantvillage
I0403 14:27:06.060132 13286 net.cpp:148] Top shape: 24 38 (912)
I0403 14:27:06.060145 13286 net.cpp:156] Memory required for data: 1346064480
I0403 14:27:06.060164 13286 layer_factory.hpp:77] Creating layer loss3/classifier_plantvillage_loss3/classifier_plantvillage_0_split
I0403 14:27:06.060186 13286 net.cpp:91] Creating Layer loss3/classifier_plantvillage_loss3/classifier_plantvillage_0_split
I0403 14:27:06.060204 13286 net.cpp:425] loss3/classifier_plantvillage_loss3/classifier_plantvillage_0_split <- loss3/classifier_plantvillage
I0403 14:27:06.060221 13286 net.cpp:399] loss3/classifier_plantvillage_loss3/classifier_plantvillage_0_split -> loss3/classifier_plantvillage_loss3/classifier_plantvillage_0_split_0
I0403 14:27:06.060241 13286 net.cpp:399] loss3/classifier_plantvillage_loss3/classifier_plantvillage_0_split -> loss3/classifier_plantvillage_loss3/classifier_plantvillage_0_split_1
I0403 14:27:06.060266 13286 net.cpp:399] loss3/classifier_plantvillage_loss3/classifier_plantvillage_0_split -> loss3/classifier_plantvillage_loss3/classifier_plantvillage_0_split_2
I0403 14:27:06.060286 13286 net.cpp:399] loss3/classifier_plantvillage_loss3/classifier_plantvillage_0_split -> loss3/classifier_plantvillage_loss3/classifier_plantvillage_0_split_3
I0403 14:27:06.060392 13286 net.cpp:141] Setting up loss3/classifier_plantvillage_loss3/classifier_plantvillage_0_split
I0403 14:27:06.060416 13286 net.cpp:148] Top shape: 24 38 (912)
I0403 14:27:06.060432 13286 net.cpp:148] Top shape: 24 38 (912)
I0403 14:27:06.060447 13286 net.cpp:148] Top shape: 24 38 (912)
I0403 14:27:06.060462 13286 net.cpp:148] Top shape: 24 38 (912)
I0403 14:27:06.060477 13286 net.cpp:156] Memory required for data: 1346079072
I0403 14:27:06.060492 13286 layer_factory.hpp:77] Creating layer loss1/loss
I0403 14:27:06.060513 13286 net.cpp:91] Creating Layer loss1/loss
I0403 14:27:06.060529 13286 net.cpp:425] loss1/loss <- loss1/classifier_plantvillage_loss1/classifier_plantvillage_0_split_0
I0403 14:27:06.060565 13286 net.cpp:425] loss1/loss <- label_data_1_split_0
…
