…
I0403 14:13:15.611091 12932 net.cpp:313] The NetState phase (1) differed from the phase (0) specified by a rule in layer data
I0403 14:13:15.612246 12932 net.cpp:49] Initializing net from parameters: 
state {
  phase: TEST
}
layer {
  name: "data"
  type: "Data"
  top: "data"
  top: "label"
  include {
    phase: TEST
  }
  transform_param {
    mirror: false
    crop_size: 224
    mean_file: "/home/mohanty/data/final_dataset/lmdb/segmented-20-80/mean.binaryproto"
  }
  data_param {
    source: "/home/mohanty/data/final_dataset/lmdb/segmented-20-80/test_db"
    batch_size: 24
    backend: LMDB
  }
}
layer {
  name: "conv1/7x7_s2"
  type: "Convolution"
  bottom: "data"
  top: "conv1/7x7_s2"
  param {
    lr_mult: 1
    decay_mult: 1
  }
  param {
    lr_mult: 2
    decay_mult: 0
  }
  convolution_param {
    num_output: 64
    pad: 3
    kernel_size: 7
    stride: 2
    weight_filler {
      type: "xavier"
      std: 0.1
    }
    bias_filler {
      type: "constant"
      value: 0.2
    }
  }
}
layer {
  name: "conv1/relu_7x7"
  type: "ReLU"
  bottom: "conv1/7x7_s2"
  top: "conv1/7x7_s2"
}
layer {
  name: "pool1/3x3_s2"
  type: "Pooling"
  bottom: "conv1/7x7_s2"
  top: "pool1/3x3_s2"
  pooling_param {
    pool: MAX
    kernel_size: 3
    stride: 2
  }
}
layer {
  name: "pool1/norm1"
  type: "LRN"
  bottom: "pool1/3x3_s2"
  top: "pool1/norm1"
  lrn_param {
    local_size: 5
    alpha: 0.0001
    beta: 0.75
  }
}
layer {
  name: "conv2/3x3_reduce"
  type: "Convolution"
  bottom: "pool1/norm1"
  top: "conv2/3x3_reduce"
  param {
    lr_mult: 1
    decay_mult: 1
  }
  param {
    lr_mult: 2
    decay_mult: 0
  }
  convolution_param {
    num_output: 64
    kernel_size: 1
    weight_filler {
      type: "xavier"
      std: 0.1
    }
    bias_filler {
      type: "constant"
      value: 0.2
    }
  }
}
layer {
  name: "conv2/relu_3x3_reduce"
  type: "ReLU"
  bottom: "conv2/3x3_reduce"
  top: "conv2/3x3_reduce"
}
layer {
  name: "conv2/3x3"
  type: "Convolution"
  bottom: "conv2/3x3_reduce"
  top: "conv2/3x3"
  param {
    lr_mult: 1
    decay_mult: 1
  }
  param {
    lr_mult: 2
    decay_mult: 0
  }
  convolution_param {
    num_output: 192
    pad: 1
    kernel_size: 3
    weight_filler {
      type: "xavier"
      std: 0.03
    }
    bias_filler {
      type: "constant"
      value: 0.2
    }
  }
}
layer {
  name: "conv2/relu_3x3"
  type: "ReLU"
  bottom: "conv2/3x3"
  top: "conv2/3x3"
}
layer {
  name: "conv2/norm2"
  type: "LRN"
  bottom: "conv2/3x3"
  top: "conv2/norm2"
  lrn_param {
    local_size: 5
    alpha: 0.0001
    beta: 0.75
  }
}
layer {
  name: "pool2/3x3_s2"
  type: "Pooling"
  bottom: "conv2/norm2"
  top: "pool2/3x3_s2"
  pooling_param {
    pool: MAX
    kernel_size: 3
    stride: 2
  }
}
layer {
  name: "inception_3a/1x1"
  type: "Convolution"
  bottom: "pool2/3x3_s2"
  top: "inception_3a/1x1"
  param {
    lr_mult: 1
    decay_mult: 1
  }
  param {
    lr_mult: 2
    decay_mult: 0
  }
  convolution_param {
    num_output: 64
    kernel_size: 1
    weight_filler {
      type: "xavier"
      std: 0.03
    }
    bias_filler {
      type: "constant"
      value: 0.2
    }
  }
}
layer {
  name: "inception_3a/relu_1x1"
  type: "ReLU"
  bottom: "inception_3a/1x1"
  top: "inception_3a/1x1"
}
layer {
  name: "inception_3a/3x3_reduce"
  type: "Convolution"
  bottom: "pool2/3x3_s2"
  top: "inception_3a/3x3_reduce"
  param {
    lr_mult: 1
    decay_mult: 1
  }
  param {
    lr_mult: 2
    decay_mult: 0
  }
  convolution_param {
    num_output: 96
    kernel_size: 1
    weight_filler {
      type: "xavier"
      std: 0.09
    }
    bias_filler {
      type: "constant"
      value: 0.2
    }
  }
}
layer {
  name: "inception_3a/relu_3x3_reduce"
  type: "ReLU"
  bottom: "inception_3a/3x3_reduce"
  top: "inception_3a/3x3_reduce"
}
layer {
  name: "inception_3a/3x3"
  type: "Convolution"
  bottom: "inception_3a/3x3_reduce"
  top: "inception_3a/3x3"
  param {
    lr_mult: 1
    decay_mult: 1
  }
  param {
    lr_mult: 2
    decay_mult: 0
  }
  convolution_param {
    num_output: 128
    pad: 1
    kernel_size: 3
    weight_filler {
      type: "xavier"
      std: 0.03
    }
    bias_filler {
      type: "constant"
      value: 0.2
    }
  }
}
layer {
  name: "inception_3a/relu_3x3"
  type: "ReLU"
  bottom: "inception_3a/3x3"
  top: "inception_3a/3x3"
}
layer {
  name: "inception_3a/5x5_reduce"
  type: "Convolution"
  bottom: "pool2/3x3_s2"
  top: "inception_3a/5x5_reduce"
  param {
    lr_mult: 1
    decay_mult: 1
  }
  param {
    lr_mult: 2
    decay_mult: 0
  }
  convolution_param {
    num_output: 16
    kernel_size: 1
    weight_filler {
      type: "xavier"
      std: 0.2
    }
    bias_filler {
      type: "constant"
      value: 0.2
    }
  }
}
layer {
  name: "inception_3a/relu_5x5_reduce"
  type: "ReLU"
  bottom: "inception_3a/5x5_reduce"
  top: "inception_3a/5x5_reduce"
}
layer {
  name: "inception_3a/5x5"
  type: "Convolution"
  bottom: "inception_3a/5x5_reduce"
  top: "inception_3a/5x5"
  param {
    lr_mult: 1
    decay_mult: 1
  }
  param {
    lr_mult: 2
    decay_mult: 0
  }
  convolution_param {
    num_output: 32
    pad: 2
    kernel_size: 5
    weight_filler {
      type: "xavier"
      std: 0.03
    }
    bias_filler {
      type: "constant"
      value: 0.2
    }
  }
}
layer {
  name: "inception_3a/relu_5x5"
  type: "ReLU"
  bottom: "inception_3a/5x5"
  top: "inception_3a/5x5"
}
layer {
  name: "inception_3a/pool"
  type: "Pooling"
  bottom: "pool2/3x3_s2"
  top: "inception_3a/pool"
  pooling_param {
    pool: MAX
    kernel_size: 3
    stride: 1
    pad: 1
  }
}
layer {
  name: "inception_3a/pool_proj"
  type: "Convolution"
  bottom: "inception_3a/pool"
  top: "inception_3a/pool_proj"
  param {
    lr_mult: 1
    decay_mult: 1
  }
  param {
    lr_mult: 2
    decay_mult: 0
  }
  convolution_param {
    num_output: 32
    kernel_size: 1
    weight_filler {
      type: "xavier"
      std: 0.1
    }
    bias_filler {
      type: "constant"
      value: 0.2
    }
  }
}
layer {
  name: "inception_3a/relu_pool_proj"
  type: "ReLU"
  bottom: "inception_3a/pool_proj"
  top: "inception_3a/pool_proj"
}
layer {
  name: "inception_3a/output"
  type: "Concat"
  bottom: "inception_3a/1x1"
  bottom: "inception_3a/3x3"
  bottom: "inception_3a/5x5"
  bottom: "inception_3a/pool_proj"
  top: "inception_3a/output"
}
layer {
  name: "inception_3b/1x1"
  type: "Convolution"
  bottom: "inception_3a/output"
  top: "inception_3b/1x1"
  param {
    lr_mult: 1
    decay_mult: 1
  }
  param {
    lr_mult: 2
    decay_mult: 0
  }
  convolution_param {
    num_output: 128
    kernel_size: 1
    weight_filler {
      type: "xavier"
      std: 0.03
    }
    bias_filler {
      type: "constant"
      value: 0.2
    }
  }
}
layer {
  name: "inception_3b/relu_1x1"
  type: "ReLU"
  bottom: "inception_3b/1x1"
  top: "inception_3b/1x1"
}
layer {
  name: "inception_3b/3x3_reduce"
  type: "Convolution"
  bottom: "inception_3a/output"
  top: "inception_3b/3x3_reduce"
  param {
    lr_mult: 1
    decay_mult: 1
  }
  param {
    lr_mult: 2
    decay_mult: 0
  }
  convolution_param {
    num_output: 128
    kernel_size: 1
    weight_filler {
      type: "xavier"
      std: 0.09
    }
    bias_filler {
      type: "constant"
      value: 0.2
    }
  }
}
layer {
  name: "inception_3b/relu_3x3_reduce"
  type: "ReLU"
  bottom: "inception_3b/3x3_reduce"
  top: "inception_3b/3x3_reduce"
}
layer {
  name: "inception_3b/3x3"
  type: "Convolution"
  bottom: "inception_3b/3x3_reduce"
  top: "inception_3b/3x3"
  param {
    lr_mult: 1
    decay_mult: 1
  }
  param {
    lr_mult: 2
    decay_mult: 0
  }
  convolution_param {
    num_output: 192
    pad: 1
    kernel_size: 3
    weight_filler {
      type: "xavier"
      std: 0.03
    }
    bias_filler {
      type: "constant"
      value: 0.2
    }
  }
}
layer {
  name: "inception_3b/relu_3x3"
  type: "ReLU"
  bottom: "inception_3b/3x3"
  top: "inception_3b/3x3"
}
layer {
  name: "inception_3b/5x5_reduce"
  type: "Convolution"
  bottom: "inception_3a/output"
  top: "inception_3b/5x5_reduce"
  param {
    lr_mult: 1
    decay_mult: 1
  }
  param {
    lr_mult: 2
    decay_mult: 0
  }
  convolution_param {
    num_output: 32
    kernel_size: 1
    weight_filler {
      type: "xavier"
      std: 0.2
    }
    bias_filler {
      type: "constant"
      value: 0.2
    }
  }
}
layer {
  name: "inception_3b/relu_5x5_reduce"
  type: "ReLU"
  bottom: "inception_3b/5x5_reduce"
  top: "inception_3b/5x5_reduce"
}
layer {
  name: "inception_3b/5x5"
  type: "Convolution"
  bottom: "inception_3b/5x5_reduce"
  top: "inception_3b/5x5"
  param {
    lr_mult: 1
    decay_mult: 1
  }
  param {
    lr_mult: 2
    decay_mult: 0
  }
  convolution_param {
    num_output: 96
    pad: 2
    kernel_size: 5
    weight_filler {
      type: "xavier"
      std: 0.03
    }
    bias_filler {
      type: "constant"
      value: 0.2
    }
  }
}
layer {
  name: "inception_3b/relu_5x5"
  type: "ReLU"
  bottom: "inception_3b/5x5"
  top: "inception_3b/5x5"
}
layer {
  name: "inception_3b/pool"
  type: "Pooling"
  bottom: "inception_3a/output"
  top: "inception_3b/pool"
  pooling_param {
    pool: MAX
    kernel_size: 3
    stride: 1
    pad: 1
  }
}
layer {
  name: "inception_3b/pool_proj"
  type: "Convolution"
  bottom: "inception_3b/pool"
  top: "inception_3b/pool_proj"
  param {
    lr_mult: 1
    decay_mult: 1
  }
  param {
    lr_mult: 2
    decay_mult: 0
  }
  convolution_param {
    num_output: 64
    kernel_size: 1
    weight_filler {
      type: "xavier"
      std: 0.1
    }
    bias_filler {
      type: "constant"
      value: 0.2
    }
  }
}
layer {
  name: "inception_3b/relu_pool_proj"
  type: "ReLU"
  bottom: "inception_3b/pool_proj"
  top: "inception_3b/pool_proj"
}
layer {
  name: "inception_3b/output"
  type: "Concat"
  bottom: "inception_3b/1x1"
  bottom: "inception_3b/3x3"
  bottom: "inception_3b/5x5"
  bottom: "inception_3b/pool_proj"
  top: "inception_3b/output"
}
layer {
  name: "pool3/3x3_s2"
  type: "Pooling"
  bottom: "inception_3b/output"
  top: "pool3/3x3_s2"
  pooling_param {
    pool: MAX
    kernel_size: 3
    stride: 2
  }
}
layer {
  name: "inception_4a/1x1"
  type: "Convolution"
  bottom: "pool3/3x3_s2"
  top: "inception_4a/1x1"
  param {
    lr_mult: 1
    decay_mult: 1
  }
  param {
    lr_mult: 2
    decay_mult: 0
  }
  convolution_param {
    num_output: 192
    kernel_size: 1
    weight_filler {
      type: "xavier"
      std: 0.03
    }
    bias_filler {
      type: "constant"
      value: 0.2
    }
  }
}
layer {
  name: "inception_4a/relu_1x1"
  type: "ReLU"
  bottom: "inception_4a/1x1"
  top: "inception_4a/1x1"
}
layer {
  name: "inception_4a/3x3_reduce"
  type: "Convolution"
  bottom: "pool3/3x3_s2"
  top: "inception_4a/3x3_reduce"
  param {
    lr_mult: 1
    decay_mult: 1
  }
  param {
    lr_mult: 2
    decay_mult: 0
  }
  convolution_param {
    num_output: 96
    kernel_size: 1
    weight_filler {
      type: "xavier"
      std: 0.09
    }
    bias_filler {
      type: "constant"
      value: 0.2
    }
  }
}
layer {
  name: "inception_4a/relu_3x3_reduce"
  type: "ReLU"
  bottom: "inception_4a/3x3_reduce"
  top: "inception_4a/3x3_reduce"
}
layer {
  name: "inception_4a/3x3"
  type: "Convolution"
  bottom: "inception_4a/3x3_reduce"
  top: "inception_4a/3x3"
  param {
    lr_mult: 1
    decay_mult: 1
  }
  param {
    lr_mult: 2
    decay_mult: 0
  }
  convolution_param {
    num_output: 208
    pad: 1
    kernel_size: 3
    weight_filler {
      type: "xavier"
      std: 0.03
    }
    bias_filler {
      type: "constant"
      value: 0.2
    }
  }
}
layer {
  name: "inception_4a/relu_3x3"
  type: "ReLU"
  bottom: "inception_4a/3x3"
  top: "inception_4a/3x3"
}
layer {
  name: "inception_4a/5x5_reduce"
  type: "Convolution"
  bottom: "pool3/3x3_s2"
  top: "inception_4a/5x5_reduce"
  param {
    lr_mult: 1
    decay_mult: 1
  }
  param {
    lr_mult: 2
    decay_mult: 0
  }
  convolution_param {
    num_output: 16
    kernel_size: 1
    weight_filler {
      type: "xavier"
      std: 0.2
    }
    bias_filler {
      type: "constant"
      value: 0.2
    }
  }
}
layer {
  name: "inception_4a/relu_5x5_reduce"
  type: "ReLU"
  bottom: "inception_4a/5x5_reduce"
  top: "inception_4a/5x5_reduce"
}
layer {
  name: "inception_4a/5x5"
  type: "Convolution"
  bottom: "inception_4a/5x5_reduce"
  top: "inception_4a/5x5"
  param {
    lr_mult: 1
    decay_mult: 1
  }
  param {
    lr_mult: 2
    decay_mult: 0
  }
  convolution_param {
    num_output: 48
    pad: 2
    kernel_size: 5
    weight_filler {
      type: "xavier"
      std: 0.03
    }
    bias_filler {
      type: "constant"
      value: 0.2
    }
  }
}
layer {
  name: "inception_4a/relu_5x5"
  type: "ReLU"
  bottom: "inception_4a/5x5"
  top: "inception_4a/5x5"
}
layer {
  name: "inception_4a/pool"
  type: "Pooling"
  bottom: "pool3/3x3_s2"
  top: "inception_4a/pool"
  pooling_param {
    pool: MAX
    kernel_size: 3
    stride: 1
    pad: 1
  }
}
layer {
  name: "inception_4a/pool_proj"
  type: "Convolution"
  bottom: "inception_4a/pool"
  top: "inception_4a/pool_proj"
  param {
    lr_mult: 1
    decay_mult: 1
  }
  param {
    lr_mult: 2
    decay_mult: 0
  }
  convolution_param {
    num_output: 64
    kernel_size: 1
    weight_filler {
      type: "xavier"
      std: 0.1
    }
    bias_filler {
      type: "constant"
      value: 0.2
    }
  }
}
layer {
  name: "inception_4a/relu_pool_proj"
  type: "ReLU"
  bottom: "inception_4a/pool_proj"
  top: "inception_4a/pool_proj"
}
layer {
  name: "inception_4a/output"
  type: "Concat"
  bottom: "inception_4a/1x1"
  bottom: "inception_4a/3x3"
  bottom: "inception_4a/5x5"
  bottom: "inception_4a/pool_proj"
  top: "inception_4a/output"
}
layer {
  name: "loss1/ave_pool"
  type: "Pooling"
  bottom: "inception_4a/output"
  top: "loss1/ave_pool"
  pooling_param {
    pool: AVE
    kernel_size: 5
    stride: 3
  }
}
layer {
  name: "loss1/conv"
  type: "Convolution"
  bottom: "loss1/ave_pool"
  top: "loss1/conv"
  param {
    lr_mult: 1
    decay_mult: 1
  }
  param {
    lr_mult: 2
    decay_mult: 0
  }
  convolution_param {
    num_output: 128
    kernel_size: 1
    weight_filler {
      type: "xavier"
      std: 0.08
    }
    bias_filler {
      type: "constant"
      value: 0.2
    }
  }
}
layer {
  name: "loss1/relu_conv"
  type: "ReLU"
  bottom: "loss1/conv"
  top: "loss1/conv"
}
layer {
  name: "loss1/fc"
  type: "InnerProduct"
  bottom: "loss1/conv"
  top: "loss1/fc"
  param {
    lr_mult: 1
    decay_mult: 1
  }
  param {
    lr_mult: 2
    decay_mult: 0
  }
  inner_product_param {
    num_output: 1024
    weight_filler {
      type: "xavier"
      std: 0.02
    }
    bias_filler {
      type: "constant"
      value: 0.2
    }
  }
}
layer {
  name: "loss1/relu_fc"
  type: "ReLU"
  bottom: "loss1/fc"
  top: "loss1/fc"
}
layer {
  name: "loss1/drop_fc"
  type: "Dropout"
  bottom: "loss1/fc"
  top: "loss1/fc"
  dropout_param {
    dropout_ratio: 0.7
  }
}
layer {
  name: "loss1/classifier_plantvillage"
  type: "InnerProduct"
  bottom: "loss1/fc"
  top: "loss1/classifier_plantvillage"
  param {
    lr_mult: 1
    decay_mult: 1
  }
  param {
    lr_mult: 2
    decay_mult: 0
  }
  inner_product_param {
    num_output: 38
    weight_filler {
      type: "xavier"
      std: 0.0009765625
    }
    bias_filler {
      type: "constant"
      value: 0
    }
  }
}
layer {
  name: "inception_4b/1x1"
  type: "Convolution"
  bottom: "inception_4a/output"
  top: "inception_4b/1x1"
  param {
    lr_mult: 1
    decay_mult: 1
  }
  param {
    lr_mult: 2
    decay_mult: 0
  }
  convolution_param {
    num_output: 160
    kernel_size: 1
    weight_filler {
      type: "xavier"
      std: 0.03
    }
    bias_filler {
      type: "constant"
      value: 0.2
    }
  }
}
layer {
  name: "inception_4b/relu_1x1"
  type: "ReLU"
  bottom: "inception_4b/1x1"
  top: "inception_4b/1x1"
}
layer {
  name: "inception_4b/3x3_reduce"
  type: "Convolution"
  bottom: "inception_4a/output"
  top: "inception_4b/3x3_reduce"
  param {
    lr_mult: 1
    decay_mult: 1
  }
  param {
    lr_mult: 2
    decay_mult: 0
  }
  convolution_param {
    num_output: 112
    kernel_size: 1
    weight_filler {
      type: "xavier"
      std: 0.09
    }
    bias_filler {
      type: "constant"
      value: 0.2
    }
  }
}
layer {
  name: "inception_4b/relu_3x3_reduce"
  type: "ReLU"
  bottom: "inception_4b/3x3_reduce"
  top: "inception_4b/3x3_reduce"
}
layer {
  name: "inception_4b/3x3"
  type: "Convolution"
  bottom: "inception_4b/3x3_reduce"
  top: "inception_4b/3x3"
  param {
    lr_mult: 1
    decay_mult: 1
  }
  param {
    lr_mult: 2
    decay_mult: 0
  }
  convolution_param {
    num_output: 224
    pad: 1
    kernel_size: 3
    weight_filler {
      type: "xavier"
      std: 0.03
    }
    bias_filler {
      type: "constant"
      value: 0.2
    }
  }
}
layer {
  name: "inception_4b/relu_3x3"
  type: "ReLU"
  bottom: "inception_4b/3x3"
  top: "inception_4b/3x3"
}
layer {
  name: "inception_4b/5x5_reduce"
  type: "Convolution"
  bottom: "inception_4a/output"
  top: "inception_4b/5x5_reduce"
  param {
    lr_mult: 1
    decay_mult: 1
  }
  param {
    lr_mult: 2
    decay_mult: 0
  }
  convolution_param {
    num_output: 24
    kernel_size: 1
    weight_filler {
      type: "xavier"
      std: 0.2
    }
    bias_filler {
      type: "constant"
      value: 0.2
    }
  }
}
layer {
  name: "inception_4b/relu_5x5_reduce"
  type: "ReLU"
  bottom: "inception_4b/5x5_reduce"
  top: "inception_4b/5x5_reduce"
}
layer {
  name: "inception_4b/5x5"
  type: "Convolution"
  bottom: "inception_4b/5x5_reduce"
  top: "inception_4b/5x5"
  param {
    lr_mult: 1
    decay_mult: 1
  }
  param {
    lr_mult: 2
    decay_mult: 0
  }
  convolution_param {
    num_output: 64
    pad: 2
    kernel_size: 5
    weight_filler {
      type: "xavier"
      std: 0.03
    }
    bias_filler {
      type: "constant"
      value: 0.2
    }
  }
}
layer {
  name: "inception_4b/relu_5x5"
  type: "ReLU"
  bottom: "inception_4b/5x5"
  top: "inception_4b/5x5"
}
layer {
  name: "inception_4b/pool"
  type: "Pooling"
  bottom: "inception_4a/output"
  top: "inception_4b/pool"
  pooling_param {
    pool: MAX
    kernel_size: 3
    stride: 1
    pad: 1
  }
}
layer {
  name: "inception_4b/pool_proj"
  type: "Convolution"
  bottom: "inception_4b/pool"
  top: "inception_4b/pool_proj"
  param {
    lr_mult: 1
    decay_mult: 1
  }
  param {
    lr_mult: 2
    decay_mult: 0
  }
  convolution_param {
    num_output: 64
    kernel_size: 1
    weight_filler {
      type: "xavier"
      std: 0.1
    }
    bias_filler {
      type: "constant"
      value: 0.2
    }
  }
}
layer {
  name: "inception_4b/relu_pool_proj"
  type: "ReLU"
  bottom: "inception_4b/pool_proj"
  top: "inception_4b/pool_proj"
}
layer {
  name: "inception_4b/output"
  type: "Concat"
  bottom: "inception_4b/1x1"
  bottom: "inception_4b/3x3"
  bottom: "inception_4b/5x5"
  bottom: "inception_4b/pool_proj"
  top: "inception_4b/output"
}
layer {
  name: "inception_4c/1x1"
  type: "Convolution"
  bottom: "inception_4b/output"
  top: "inception_4c/1x1"
  param {
    lr_mult: 1
    decay_mult: 1
  }
  param {
    lr_mult: 2
    decay_mult: 0
  }
  convolution_param {
    num_output: 128
    kernel_size: 1
    weight_filler {
      type: "xavier"
      std: 0.03
    }
    bias_filler {
      type: "constant"
      value: 0.2
    }
  }
}
layer {
  name: "inception_4c/relu_1x1"
  type: "ReLU"
  bottom: "inception_4c/1x1"
  top: "inception_4c/1x1"
}
layer {
  name: "inception_4c/3x3_reduce"
  type: "Convolution"
  bottom: "inception_4b/output"
  top: "inception_4c/3x3_reduce"
  param {
    lr_mult: 1
    decay_mult: 1
  }
  param {
    lr_mult: 2
    decay_mult: 0
  }
  convolution_param {
    num_output: 128
    kernel_size: 1
    weight_filler {
      type: "xavier"
      std: 0.09
    }
    bias_filler {
      type: "constant"
      value: 0.2
    }
  }
}
layer {
  name: "inception_4c/relu_3x3_reduce"
  type: "ReLU"
  bottom: "inception_4c/3x3_reduce"
  top: "inception_4c/3x3_reduce"
}
layer {
  name: "inception_4c/3x3"
  type: "Convolution"
  bottom: "inception_4c/3x3_reduce"
  top: "inception_4c/3x3"
  param {
    lr_mult: 1
    decay_mult: 1
  }
  param {
    lr_mult: 2
    decay_mult: 0
  }
  convolution_param {
    num_output: 256
    pad: 1
    kernel_size: 3
    weight_filler {
      type: "xavier"
      std: 0.03
    }
    bias_filler {
      type: "constant"
      value: 0.2
    }
  }
}
layer {
  name: "inception_4c/relu_3x3"
  type: "ReLU"
  bottom: "inception_4c/3x3"
  top: "inception_4c/3x3"
}
layer {
  name: "inception_4c/5x5_reduce"
  type: "Convolution"
  bottom: "inception_4b/output"
  top: "inception_4c/5x5_reduce"
  param {
    lr_mult: 1
    decay_mult: 1
  }
  param {
    lr_mult: 2
    decay_mult: 0
  }
  convolution_param {
    num_output: 24
    kernel_size: 1
    weight_filler {
      type: "xavier"
      std: 0.2
    }
    bias_filler {
      type: "constant"
      value: 0.2
    }
  }
}
layer {
  name: "inception_4c/relu_5x5_reduce"
  type: "ReLU"
  bottom: "inception_4c/5x5_reduce"
  top: "inception_4c/5x5_reduce"
}
layer {
  name: "inception_4c/5x5"
  type: "Convolution"
  bottom: "inception_4c/5x5_reduce"
  top: "inception_4c/5x5"
  param {
    lr_mult: 1
    decay_mult: 1
  }
  param {
    lr_mult: 2
    decay_mult: 0
  }
  convolution_param {
    num_output: 64
    pad: 2
    kernel_size: 5
    weight_filler {
      type: "xavier"
      std: 0.03
    }
    bias_filler {
      type: "constant"
      value: 0.2
    }
  }
}
layer {
  name: "inception_4c/relu_5x5"
  type: "ReLU"
  bottom: "inception_4c/5x5"
  top: "inception_4c/5x5"
}
layer {
  name: "inception_4c/pool"
  type: "Pooling"
  bottom: "inception_4b/output"
  top: "inception_4c/pool"
  pooling_param {
    pool: MAX
    kernel_size: 3
    stride: 1
    pad: 1
  }
}
layer {
  name: "inception_4c/pool_proj"
  type: "Convolution"
  bottom: "inception_4c/pool"
  top: "inception_4c/pool_proj"
  param {
    lr_mult: 1
    decay_mult: 1
  }
  param {
    lr_mult: 2
    decay_mult: 0
  }
  convolution_param {
    num_output: 64
    kernel_size: 1
    weight_filler {
      type: "xavier"
      std: 0.1
    }
    bias_filler {
      type: "constant"
      value: 0.2
    }
  }
}
layer {
  name: "inception_4c/relu_pool_proj"
  type: "ReLU"
  bottom: "inception_4c/pool_proj"
  top: "inception_4c/pool_proj"
}
layer {
  name: "inception_4c/output"
  type: "Concat"
  bottom: "inception_4c/1x1"
  bottom: "inception_4c/3x3"
  bottom: "inception_4c/5x5"
  bottom: "inception_4c/pool_proj"
  top: "inception_4c/output"
}
layer {
  name: "inception_4d/1x1"
  type: "Convolution"
  bottom: "inception_4c/output"
  top: "inception_4d/1x1"
  param {
    lr_mult: 1
    decay_mult: 1
  }
  param {
    lr_mult: 2
    decay_mult: 0
  }
  convolution_param {
    num_output: 112
    kernel_size: 1
    weight_filler {
      type: "xavier"
      std: 0.03
    }
    bias_filler {
      type: "constant"
      value: 0.2
    }
  }
}
layer {
  name: "inception_4d/relu_1x1"
  type: "ReLU"
  bottom: "inception_4d/1x1"
  top: "inception_4d/1x1"
}
layer {
  name: "inception_4d/3x3_reduce"
  type: "Convolution"
  bottom: "inception_4c/output"
  top: "inception_4d/3x3_reduce"
  param {
    lr_mult: 1
    decay_mult: 1
  }
  param {
    lr_mult: 2
    decay_mult: 0
  }
  convolution_param {
    num_output: 144
    kernel_size: 1
    weight_filler {
      type: "xavier"
      std: 0.09
    }
    bias_filler {
      type: "constant"
      value: 0.2
    }
  }
}
layer {
  name: "inception_4d/relu_3x3_reduce"
  type: "ReLU"
  bottom: "inception_4d/3x3_reduce"
  top: "inception_4d/3x3_reduce"
}
layer {
  name: "inception_4d/3x3"
  type: "Convolution"
  bottom: "inception_4d/3x3_reduce"
  top: "inception_4d/3x3"
  param {
    lr_mult: 1
    decay_mult: 1
  }
  param {
    lr_mult: 2
    decay_mult: 0
  }
  convolution_param {
    num_output: 288
    pad: 1
    kernel_size: 3
    weight_filler {
      type: "xavier"
      std: 0.03
    }
    bias_filler {
      type: "constant"
      value: 0.2
    }
  }
}
layer {
  name: "inception_4d/relu_3x3"
  type: "ReLU"
  bottom: "inception_4d/3x3"
  top: "inception_4d/3x3"
}
layer {
  name: "inception_4d/5x5_reduce"
  type: "Convolution"
  bottom: "inception_4c/output"
  top: "inception_4d/5x5_reduce"
  param {
    lr_mult: 1
    decay_mult: 1
  }
  param {
    lr_mult: 2
    decay_mult: 0
  }
  convolution_param {
    num_output: 32
    kernel_size: 1
    weight_filler {
      type: "xavier"
      std: 0.2
    }
    bias_filler {
      type: "constant"
      value: 0.2
    }
  }
}
layer {
  name: "inception_4d/relu_5x5_reduce"
  type: "ReLU"
  bottom: "inception_4d/5x5_reduce"
  top: "inception_4d/5x5_reduce"
}
layer {
  name: "inception_4d/5x5"
  type: "Convolution"
  bottom: "inception_4d/5x5_reduce"
  top: "inception_4d/5x5"
  param {
    lr_mult: 1
    decay_mult: 1
  }
  param {
    lr_mult: 2
    decay_mult: 0
  }
  convolution_param {
    num_output: 64
    pad: 2
    kernel_size: 5
    weight_filler {
      type: "xavier"
      std: 0.03
    }
    bias_filler {
      type: "constant"
      value: 0.2
    }
  }
}
layer {
  name: "inception_4d/relu_5x5"
  type: "ReLU"
  bottom: "inception_4d/5x5"
  top: "inception_4d/5x5"
}
layer {
  name: "inception_4d/pool"
  type: "Pooling"
  bottom: "inception_4c/output"
  top: "inception_4d/pool"
  pooling_param {
    pool: MAX
    kernel_size: 3
    stride: 1
    pad: 1
  }
}
layer {
  name: "inception_4d/pool_proj"
  type: "Convolution"
  bottom: "inception_4d/pool"
  top: "inception_4d/pool_proj"
  param {
    lr_mult: 1
    decay_mult: 1
  }
  param {
    lr_mult: 2
    decay_mult: 0
  }
  convolution_param {
    num_output: 64
    kernel_size: 1
    weight_filler {
      type: "xavier"
      std: 0.1
    }
    bias_filler {
      type: "constant"
      value: 0.2
    }
  }
}
layer {
  name: "inception_4d/relu_pool_proj"
  type: "ReLU"
  bottom: "inception_4d/pool_proj"
  top: "inception_4d/pool_proj"
}
layer {
  name: "inception_4d/output"
  type: "Concat"
  bottom: "inception_4d/1x1"
  bottom: "inception_4d/3x3"
  bottom: "inception_4d/5x5"
  bottom: "inception_4d/pool_proj"
  top: "inception_4d/output"
}
layer {
  name: "loss2/ave_pool"
  type: "Pooling"
  bottom: "inception_4d/output"
  top: "loss2/ave_pool"
  pooling_param {
    pool: AVE
    kernel_size: 5
    stride: 3
  }
}
layer {
  name: "loss2/conv"
  type: "Convolution"
  bottom: "loss2/ave_pool"
  top: "loss2/conv"
  param {
    lr_mult: 1
    decay_mult: 1
  }
  param {
    lr_mult: 2
    decay_mult: 0
  }
  convolution_param {
    num_output: 128
    kernel_size: 1
    weight_filler {
      type: "xavier"
      std: 0.08
    }
    bias_filler {
      type: "constant"
      value: 0.2
    }
  }
}
layer {
  name: "loss2/relu_conv"
  type: "ReLU"
  bottom: "loss2/conv"
  top: "loss2/conv"
}
layer {
  name: "loss2/fc"
  type: "InnerProduct"
  bottom: "loss2/conv"
  top: "loss2/fc"
  param {
    lr_mult: 1
    decay_mult: 1
  }
  param {
    lr_mult: 2
    decay_mult: 0
  }
  inner_product_param {
    num_output: 1024
    weight_filler {
      type: "xavier"
      std: 0.02
    }
    bias_filler {
      type: "constant"
      value: 0.2
    }
  }
}
layer {
  name: "loss2/relu_fc"
  type: "ReLU"
  bottom: "loss2/fc"
  top: "loss2/fc"
}
layer {
  name: "loss2/drop_fc"
  type: "Dropout"
  bottom: "loss2/fc"
  top: "loss2/fc"
  dropout_param {
    dropout_ratio: 0.7
  }
}
layer {
  name: "loss2/classifier_plantvillage"
  type: "InnerProduct"
  bottom: "loss2/fc"
  top: "loss2/classifier_plantvillage"
  param {
    lr_mult: 1
    decay_mult: 1
  }
  param {
    lr_mult: 2
    decay_mult: 0
  }
  inner_product_param {
    num_output: 38
    weight_filler {
      type: "xavier"
      std: 0.0009765625
    }
    bias_filler {
      type: "constant"
      value: 0
    }
  }
}
layer {
  name: "inception_4e/1x1"
  type: "Convolution"
  bottom: "inception_4d/output"
  top: "inception_4e/1x1"
  param {
    lr_mult: 1
    decay_mult: 1
  }
  param {
    lr_mult: 2
    decay_mult: 0
  }
  convolution_param {
    num_output: 256
    kernel_size: 1
    weight_filler {
      type: "xavier"
      std: 0.03
    }
    bias_filler {
      type: "constant"
      value: 0.2
    }
  }
}
layer {
  name: "inception_4e/relu_1x1"
  type: "ReLU"
  bottom: "inception_4e/1x1"
  top: "inception_4e/1x1"
}
layer {
  name: "inception_4e/3x3_reduce"
  type: "Convolution"
  bottom: "inception_4d/output"
  top: "inception_4e/3x3_reduce"
  param {
    lr_mult: 1
    decay_mult: 1
  }
  param {
    lr_mult: 2
    decay_mult: 0
  }
  convolution_param {
    num_output: 160
    kernel_size: 1
    weight_filler {
      type: "xavier"
      std: 0.09
    }
    bias_filler {
      type: "constant"
      value: 0.2
    }
  }
}
layer {
  name: "inception_4e/relu_3x3_reduce"
  type: "ReLU"
  bottom: "inception_4e/3x3_reduce"
  top: "inception_4e/3x3_reduce"
}
layer {
  name: "inception_4e/3x3"
  type: "Convolution"
  bottom: "inception_4e/3x3_reduce"
  top: "inception_4e/3x3"
  param {
    lr_mult: 1
    decay_mult: 1
  }
  param {
    lr_mult: 2
    decay_mult: 0
  }
  convolution_param {
    num_output: 320
    pad: 1
    kernel_size: 3
    weight_filler {
      type: "xavier"
      std: 0.03
    }
    bias_filler {
      type: "constant"
      value: 0.2
    }
  }
}
layer {
  name: "inception_4e/relu_3x3"
  type: "ReLU"
  bottom: "inception_4e/3x3"
  top: "inception_4e/3x3"
}
layer {
  name: "inception_4e/5x5_reduce"
  type: "Convolution"
  bottom: "inception_4d/output"
  top: "inception_4e/5x5_reduce"
  param {
    lr_mult: 1
    decay_mult: 1
  }
  param {
    lr_mult: 2
    decay_mult: 0
  }
  convolution_param {
    num_output: 32
    kernel_size: 1
    weight_filler {
      type: "xavier"
      std: 0.2
    }
    bias_filler {
      type: "constant"
      value: 0.2
    }
  }
}
layer {
  name: "inception_4e/relu_5x5_reduce"
  type: "ReLU"
  bottom: "inception_4e/5x5_reduce"
  top: "inception_4e/5x5_reduce"
}
layer {
  name: "inception_4e/5x5"
  type: "Convolution"
  bottom: "inception_4e/5x5_reduce"
  top: "inception_4e/
I0403 14:13:15.613533 12932 layer_factory.hpp:77] Creating layer data
I0403 14:13:15.614153 12932 net.cpp:91] Creating Layer data
I0403 14:13:15.614186 12932 net.cpp:399] data -> data
I0403 14:13:15.614238 12932 net.cpp:399] data -> label
I0403 14:13:15.614277 12932 data_transformer.cpp:25] Loading mean file from: /home/mohanty/data/final_dataset/lmdb/segmented-20-80/mean.binaryproto
I0403 14:13:15.617349 12936 db_lmdb.cpp:38] Opened lmdb /home/mohanty/data/final_dataset/lmdb/segmented-20-80/test_db
I0403 14:13:15.627490 12932 data_layer.cpp:41] output data size: 24,3,224,224
I0403 14:13:15.654798 12932 net.cpp:141] Setting up data
I0403 14:13:15.654891 12932 net.cpp:148] Top shape: 24 3 224 224 (3612672)
I0403 14:13:15.654914 12932 net.cpp:148] Top shape: 24 (24)
I0403 14:13:15.654930 12932 net.cpp:156] Memory required for data: 14450784
I0403 14:13:15.654959 12932 layer_factory.hpp:77] Creating layer label_data_1_split
I0403 14:13:15.654986 12932 net.cpp:91] Creating Layer label_data_1_split
I0403 14:13:15.655005 12932 net.cpp:425] label_data_1_split <- label
I0403 14:13:15.655040 12932 net.cpp:399] label_data_1_split -> label_data_1_split_0
I0403 14:13:15.655067 12932 net.cpp:399] label_data_1_split -> label_data_1_split_1
I0403 14:13:15.655088 12932 net.cpp:399] label_data_1_split -> label_data_1_split_2
I0403 14:13:15.655110 12932 net.cpp:399] label_data_1_split -> label_data_1_split_3
I0403 14:13:15.655129 12932 net.cpp:399] label_data_1_split -> label_data_1_split_4
I0403 14:13:15.655149 12932 net.cpp:399] label_data_1_split -> label_data_1_split_5
I0403 14:13:15.655169 12932 net.cpp:399] label_data_1_split -> label_data_1_split_6
I0403 14:13:15.655189 12932 net.cpp:399] label_data_1_split -> label_data_1_split_7
I0403 14:13:15.655210 12932 net.cpp:399] label_data_1_split -> label_data_1_split_8
I0403 14:13:15.655230 12932 net.cpp:399] label_data_1_split -> label_data_1_split_9
I0403 14:13:15.655351 12932 net.cpp:141] Setting up label_data_1_split
I0403 14:13:15.655375 12932 net.cpp:148] Top shape: 24 (24)
I0403 14:13:15.655392 12932 net.cpp:148] Top shape: 24 (24)
I0403 14:13:15.655410 12932 net.cpp:148] Top shape: 24 (24)
I0403 14:13:15.655426 12932 net.cpp:148] Top shape: 24 (24)
I0403 14:13:15.655441 12932 net.cpp:148] Top shape: 24 (24)
I0403 14:13:15.655457 12932 net.cpp:148] Top shape: 24 (24)
I0403 14:13:15.655473 12932 net.cpp:148] Top shape: 24 (24)
I0403 14:13:15.655490 12932 net.cpp:148] Top shape: 24 (24)
I0403 14:13:15.655510 12932 net.cpp:148] Top shape: 24 (24)
I0403 14:13:15.655529 12932 net.cpp:148] Top shape: 24 (24)
I0403 14:13:15.655578 12932 net.cpp:156] Memory required for data: 14451744
I0403 14:13:15.655594 12932 layer_factory.hpp:77] Creating layer conv1/7x7_s2
I0403 14:13:15.655627 12932 net.cpp:91] Creating Layer conv1/7x7_s2
I0403 14:13:15.655647 12932 net.cpp:425] conv1/7x7_s2 <- data
I0403 14:13:15.655668 12932 net.cpp:399] conv1/7x7_s2 -> conv1/7x7_s2
I0403 14:13:15.793192 12932 net.cpp:141] Setting up conv1/7x7_s2
I0403 14:13:15.793256 12932 net.cpp:148] Top shape: 24 64 112 112 (19267584)
I0403 14:13:15.793274 12932 net.cpp:156] Memory required for data: 91522080
I0403 14:13:15.793316 12932 layer_factory.hpp:77] Creating layer conv1/relu_7x7
I0403 14:13:15.793345 12932 net.cpp:91] Creating Layer conv1/relu_7x7
I0403 14:13:15.793365 12932 net.cpp:425] conv1/relu_7x7 <- conv1/7x7_s2
I0403 14:13:15.793385 12932 net.cpp:386] conv1/relu_7x7 -> conv1/7x7_s2 (in-place)
I0403 14:13:15.793658 12932 net.cpp:141] Setting up conv1/relu_7x7
I0403 14:13:15.793686 12932 net.cpp:148] Top shape: 24 64 112 112 (19267584)
I0403 14:13:15.793702 12932 net.cpp:156] Memory required for data: 168592416
I0403 14:13:15.793717 12932 layer_factory.hpp:77] Creating layer pool1/3x3_s2
I0403 14:13:15.793743 12932 net.cpp:91] Creating Layer pool1/3x3_s2
I0403 14:13:15.793761 12932 net.cpp:425] pool1/3x3_s2 <- conv1/7x7_s2
I0403 14:13:15.793779 12932 net.cpp:399] pool1/3x3_s2 -> pool1/3x3_s2
I0403 14:13:15.793855 12932 net.cpp:141] Setting up pool1/3x3_s2
I0403 14:13:15.793880 12932 net.cpp:148] Top shape: 24 64 56 56 (4816896)
I0403 14:13:15.793895 12932 net.cpp:156] Memory required for data: 187860000
I0403 14:13:15.793910 12932 layer_factory.hpp:77] Creating layer pool1/norm1
I0403 14:13:15.793934 12932 net.cpp:91] Creating Layer pool1/norm1
I0403 14:13:15.793952 12932 net.cpp:425] pool1/norm1 <- pool1/3x3_s2
I0403 14:13:15.793970 12932 net.cpp:399] pool1/norm1 -> pool1/norm1
I0403 14:13:15.794277 12932 net.cpp:141] Setting up pool1/norm1
I0403 14:13:15.794304 12932 net.cpp:148] Top shape: 24 64 56 56 (4816896)
I0403 14:13:15.794319 12932 net.cpp:156] Memory required for data: 207127584
I0403 14:13:15.794334 12932 layer_factory.hpp:77] Creating layer conv2/3x3_reduce
I0403 14:13:15.794359 12932 net.cpp:91] Creating Layer conv2/3x3_reduce
I0403 14:13:15.794376 12932 net.cpp:425] conv2/3x3_reduce <- pool1/norm1
I0403 14:13:15.794394 12932 net.cpp:399] conv2/3x3_reduce -> conv2/3x3_reduce
I0403 14:13:15.795832 12932 net.cpp:141] Setting up conv2/3x3_reduce
I0403 14:13:15.795862 12932 net.cpp:148] Top shape: 24 64 56 56 (4816896)
I0403 14:13:15.795877 12932 net.cpp:156] Memory required for data: 226395168
I0403 14:13:15.795898 12932 layer_factory.hpp:77] Creating layer conv2/relu_3x3_reduce
I0403 14:13:15.795919 12932 net.cpp:91] Creating Layer conv2/relu_3x3_reduce
I0403 14:13:15.795935 12932 net.cpp:425] conv2/relu_3x3_reduce <- conv2/3x3_reduce
I0403 14:13:15.795953 12932 net.cpp:386] conv2/relu_3x3_reduce -> conv2/3x3_reduce (in-place)
I0403 14:13:15.796216 12932 net.cpp:141] Setting up conv2/relu_3x3_reduce
I0403 14:13:15.796241 12932 net.cpp:148] Top shape: 24 64 56 56 (4816896)
I0403 14:13:15.796257 12932 net.cpp:156] Memory required for data: 245662752
I0403 14:13:15.796270 12932 layer_factory.hpp:77] Creating layer conv2/3x3
I0403 14:13:15.796295 12932 net.cpp:91] Creating Layer conv2/3x3
I0403 14:13:15.796314 12932 net.cpp:425] conv2/3x3 <- conv2/3x3_reduce
I0403 14:13:15.796334 12932 net.cpp:399] conv2/3x3 -> conv2/3x3
I0403 14:13:15.798605 12932 net.cpp:141] Setting up conv2/3x3
I0403 14:13:15.798635 12932 net.cpp:148] Top shape: 24 192 56 56 (14450688)
I0403 14:13:15.798650 12932 net.cpp:156] Memory required for data: 303465504
I0403 14:13:15.798671 12932 layer_factory.hpp:77] Creating layer conv2/relu_3x3
I0403 14:13:15.798692 12932 net.cpp:91] Creating Layer conv2/relu_3x3
I0403 14:13:15.798708 12932 net.cpp:425] conv2/relu_3x3 <- conv2/3x3
I0403 14:13:15.798725 12932 net.cpp:386] conv2/relu_3x3 -> conv2/3x3 (in-place)
I0403 14:13:15.798904 12932 net.cpp:141] Setting up conv2/relu_3x3
I0403 14:13:15.798928 12932 net.cpp:148] Top shape: 24 192 56 56 (14450688)
I0403 14:13:15.798975 12932 net.cpp:156] Memory required for data: 361268256
I0403 14:13:15.798991 12932 layer_factory.hpp:77] Creating layer conv2/norm2
I0403 14:13:15.799010 12932 net.cpp:91] Creating Layer conv2/norm2
I0403 14:13:15.799026 12932 net.cpp:425] conv2/norm2 <- conv2/3x3
I0403 14:13:15.799044 12932 net.cpp:399] conv2/norm2 -> conv2/norm2
I0403 14:13:15.799340 12932 net.cpp:141] Setting up conv2/norm2
I0403 14:13:15.799365 12932 net.cpp:148] Top shape: 24 192 56 56 (14450688)
I0403 14:13:15.799379 12932 net.cpp:156] Memory required for data: 419071008
I0403 14:13:15.799393 12932 layer_factory.hpp:77] Creating layer pool2/3x3_s2
I0403 14:13:15.799410 12932 net.cpp:91] Creating Layer pool2/3x3_s2
I0403 14:13:15.799425 12932 net.cpp:425] pool2/3x3_s2 <- conv2/norm2
I0403 14:13:15.799445 12932 net.cpp:399] pool2/3x3_s2 -> pool2/3x3_s2
I0403 14:13:15.799499 12932 net.cpp:141] Setting up pool2/3x3_s2
I0403 14:13:15.799527 12932 net.cpp:148] Top shape: 24 192 28 28 (3612672)
I0403 14:13:15.799543 12932 net.cpp:156] Memory required for data: 433521696
I0403 14:13:15.799557 12932 layer_factory.hpp:77] Creating layer pool2/3x3_s2_pool2/3x3_s2_0_split
I0403 14:13:15.799574 12932 net.cpp:91] Creating Layer pool2/3x3_s2_pool2/3x3_s2_0_split
I0403 14:13:15.799588 12932 net.cpp:425] pool2/3x3_s2_pool2/3x3_s2_0_split <- pool2/3x3_s2
I0403 14:13:15.799604 12932 net.cpp:399] pool2/3x3_s2_pool2/3x3_s2_0_split -> pool2/3x3_s2_pool2/3x3_s2_0_split_0
I0403 14:13:15.799623 12932 net.cpp:399] pool2/3x3_s2_pool2/3x3_s2_0_split -> pool2/3x3_s2_pool2/3x3_s2_0_split_1
I0403 14:13:15.799644 12932 net.cpp:399] pool2/3x3_s2_pool2/3x3_s2_0_split -> pool2/3x3_s2_pool2/3x3_s2_0_split_2
I0403 14:13:15.799664 12932 net.cpp:399] pool2/3x3_s2_pool2/3x3_s2_0_split -> pool2/3x3_s2_pool2/3x3_s2_0_split_3
I0403 14:13:15.799732 12932 net.cpp:141] Setting up pool2/3x3_s2_pool2/3x3_s2_0_split
I0403 14:13:15.799753 12932 net.cpp:148] Top shape: 24 192 28 28 (3612672)
I0403 14:13:15.799768 12932 net.cpp:148] Top shape: 24 192 28 28 (3612672)
I0403 14:13:15.799782 12932 net.cpp:148] Top shape: 24 192 28 28 (3612672)
I0403 14:13:15.799798 12932 net.cpp:148] Top shape: 24 192 28 28 (3612672)
I0403 14:13:15.799810 12932 net.cpp:156] Memory required for data: 491324448
I0403 14:13:15.799824 12932 layer_factory.hpp:77] Creating layer inception_3a/1x1
I0403 14:13:15.799845 12932 net.cpp:91] Creating Layer inception_3a/1x1
I0403 14:13:15.799862 12932 net.cpp:425] inception_3a/1x1 <- pool2/3x3_s2_pool2/3x3_s2_0_split_0
I0403 14:13:15.799881 12932 net.cpp:399] inception_3a/1x1 -> inception_3a/1x1
I0403 14:13:15.801384 12932 net.cpp:141] Setting up inception_3a/1x1
I0403 14:13:15.801414 12932 net.cpp:148] Top shape: 24 64 28 28 (1204224)
I0403 14:13:15.801427 12932 net.cpp:156] Memory required for data: 496141344
I0403 14:13:15.801445 12932 layer_factory.hpp:77] Creating layer inception_3a/relu_1x1
I0403 14:13:15.801462 12932 net.cpp:91] Creating Layer inception_3a/relu_1x1
I0403 14:13:15.801476 12932 net.cpp:425] inception_3a/relu_1x1 <- inception_3a/1x1
I0403 14:13:15.801496 12932 net.cpp:386] inception_3a/relu_1x1 -> inception_3a/1x1 (in-place)
I0403 14:13:15.801667 12932 net.cpp:141] Setting up inception_3a/relu_1x1
I0403 14:13:15.801692 12932 net.cpp:148] Top shape: 24 64 28 28 (1204224)
I0403 14:13:15.801707 12932 net.cpp:156] Memory required for data: 500958240
I0403 14:13:15.801720 12932 layer_factory.hpp:77] Creating layer inception_3a/3x3_reduce
I0403 14:13:15.801743 12932 net.cpp:91] Creating Layer inception_3a/3x3_reduce
I0403 14:13:15.801759 12932 net.cpp:425] inception_3a/3x3_reduce <- pool2/3x3_s2_pool2/3x3_s2_0_split_1
I0403 14:13:15.801779 12932 net.cpp:399] inception_3a/3x3_reduce -> inception_3a/3x3_reduce
I0403 14:13:15.803411 12932 net.cpp:141] Setting up inception_3a/3x3_reduce
I0403 14:13:15.803439 12932 net.cpp:148] Top shape: 24 96 28 28 (1806336)
I0403 14:13:15.803453 12932 net.cpp:156] Memory required for data: 508183584
I0403 14:13:15.803474 12932 layer_factory.hpp:77] Creating layer inception_3a/relu_3x3_reduce
I0403 14:13:15.803514 12932 net.cpp:91] Creating Layer inception_3a/relu_3x3_reduce
I0403 14:13:15.803532 12932 net.cpp:425] inception_3a/relu_3x3_reduce <- inception_3a/3x3_reduce
I0403 14:13:15.803550 12932 net.cpp:386] inception_3a/relu_3x3_reduce -> inception_3a/3x3_reduce (in-place)
I0403 14:13:15.803721 12932 net.cpp:141] Setting up inception_3a/relu_3x3_reduce
I0403 14:13:15.803746 12932 net.cpp:148] Top shape: 24 96 28 28 (1806336)
I0403 14:13:15.803761 12932 net.cpp:156] Memory required for data: 515408928
I0403 14:13:15.803776 12932 layer_factory.hpp:77] Creating layer inception_3a/3x3
I0403 14:13:15.803798 12932 net.cpp:91] Creating Layer inception_3a/3x3
I0403 14:13:15.803814 12932 net.cpp:425] inception_3a/3x3 <- inception_3a/3x3_reduce
I0403 14:13:15.803834 12932 net.cpp:399] inception_3a/3x3 -> inception_3a/3x3
I0403 14:13:15.805415 12932 net.cpp:141] Setting up inception_3a/3x3
I0403 14:13:15.805444 12932 net.cpp:148] Top shape: 24 128 28 28 (2408448)
I0403 14:13:15.805459 12932 net.cpp:156] Memory required for data: 525042720
I0403 14:13:15.805475 12932 layer_factory.hpp:77] Creating layer inception_3a/relu_3x3
I0403 14:13:15.805496 12932 net.cpp:91] Creating Layer inception_3a/relu_3x3
I0403 14:13:15.805518 12932 net.cpp:425] inception_3a/relu_3x3 <- inception_3a/3x3
I0403 14:13:15.805536 12932 net.cpp:386] inception_3a/relu_3x3 -> inception_3a/3x3 (in-place)
I0403 14:13:15.805802 12932 net.cpp:141] Setting up inception_3a/relu_3x3
I0403 14:13:15.805826 12932 net.cpp:148] Top shape: 24 128 28 28 (2408448)
I0403 14:13:15.805840 12932 net.cpp:156] Memory required for data: 534676512
I0403 14:13:15.805855 12932 layer_factory.hpp:77] Creating layer inception_3a/5x5_reduce
I0403 14:13:15.805876 12932 net.cpp:91] Creating Layer inception_3a/5x5_reduce
I0403 14:13:15.805893 12932 net.cpp:425] inception_3a/5x5_reduce <- pool2/3x3_s2_pool2/3x3_s2_0_split_2
I0403 14:13:15.805912 12932 net.cpp:399] inception_3a/5x5_reduce -> inception_3a/5x5_reduce
I0403 14:13:15.806859 12932 net.cpp:141] Setting up inception_3a/5x5_reduce
I0403 14:13:15.806886 12932 net.cpp:148] Top shape: 24 16 28 28 (301056)
I0403 14:13:15.806902 12932 net.cpp:156] Memory required for data: 535880736
I0403 14:13:15.806920 12932 layer_factory.hpp:77] Creating layer inception_3a/relu_5x5_reduce
I0403 14:13:15.806939 12932 net.cpp:91] Creating Layer inception_3a/relu_5x5_reduce
I0403 14:13:15.806956 12932 net.cpp:425] inception_3a/relu_5x5_reduce <- inception_3a/5x5_reduce
I0403 14:13:15.806972 12932 net.cpp:386] inception_3a/relu_5x5_reduce -> inception_3a/5x5_reduce (in-place)
I0403 14:13:15.807261 12932 net.cpp:141] Setting up inception_3a/relu_5x5_reduce
I0403 14:13:15.807289 12932 net.cpp:148] Top shape: 24 16 28 28 (301056)
I0403 14:13:15.807306 12932 net.cpp:156] Memory required for data: 537084960
I0403 14:13:15.807320 12932 layer_factory.hpp:77] Creating layer inception_3a/5x5
I0403 14:13:15.807343 12932 net.cpp:91] Creating Layer inception_3a/5x5
I0403 14:13:15.807359 12932 net.cpp:425] inception_3a/5x5 <- inception_3a/5x5_reduce
I0403 14:13:15.807377 12932 net.cpp:399] inception_3a/5x5 -> inception_3a/5x5
I0403 14:13:15.808377 12932 net.cpp:141] Setting up inception_3a/5x5
I0403 14:13:15.808403 12932 net.cpp:148] Top shape: 24 32 28 28 (602112)
I0403 14:13:15.808419 12932 net.cpp:156] Memory required for data: 539493408
I0403 14:13:15.808436 12932 layer_factory.hpp:77] Creating layer inception_3a/relu_5x5
I0403 14:13:15.808456 12932 net.cpp:91] Creating Layer inception_3a/relu_5x5
I0403 14:13:15.808473 12932 net.cpp:425] inception_3a/relu_5x5 <- inception_3a/5x5
I0403 14:13:15.808491 12932 net.cpp:386] inception_3a/relu_5x5 -> inception_3a/5x5 (in-place)
I0403 14:13:15.808665 12932 net.cpp:141] Setting up inception_3a/relu_5x5
I0403 14:13:15.808691 12932 net.cpp:148] Top shape: 24 32 28 28 (602112)
I0403 14:13:15.808708 12932 net.cpp:156] Memory required for data: 541901856
I0403 14:13:15.808722 12932 layer_factory.hpp:77] Creating layer inception_3a/pool
I0403 14:13:15.808740 12932 net.cpp:91] Creating Layer inception_3a/pool
I0403 14:13:15.808769 12932 net.cpp:425] inception_3a/pool <- pool2/3x3_s2_pool2/3x3_s2_0_split_3
I0403 14:13:15.808789 12932 net.cpp:399] inception_3a/pool -> inception_3a/pool
I0403 14:13:15.808845 12932 net.cpp:141] Setting up inception_3a/pool
I0403 14:13:15.808868 12932 net.cpp:148] Top shape: 24 192 28 28 (3612672)
I0403 14:13:15.808881 12932 net.cpp:156] Memory required for data: 556352544
I0403 14:13:15.808895 12932 layer_factory.hpp:77] Creating layer inception_3a/pool_proj
I0403 14:13:15.808917 12932 net.cpp:91] Creating Layer inception_3a/pool_proj
I0403 14:13:15.808934 12932 net.cpp:425] inception_3a/pool_proj <- inception_3a/pool
I0403 14:13:15.808955 12932 net.cpp:399] inception_3a/pool_proj -> inception_3a/pool_proj
I0403 14:13:15.809903 12932 net.cpp:141] Setting up inception_3a/pool_proj
I0403 14:13:15.809931 12932 net.cpp:148] Top shape: 24 32 28 28 (602112)
I0403 14:13:15.809945 12932 net.cpp:156] Memory required for data: 558760992
I0403 14:13:15.809967 12932 layer_factory.hpp:77] Creating layer inception_3a/relu_pool_proj
I0403 14:13:15.809988 12932 net.cpp:91] Creating Layer inception_3a/relu_pool_proj
I0403 14:13:15.810004 12932 net.cpp:425] inception_3a/relu_pool_proj <- inception_3a/pool_proj
I0403 14:13:15.810021 12932 net.cpp:386] inception_3a/relu_pool_proj -> inception_3a/pool_proj (in-place)
I0403 14:13:15.810292 12932 net.cpp:141] Setting up inception_3a/relu_pool_proj
I0403 14:13:15.810317 12932 net.cpp:148] Top shape: 24 32 28 28 (602112)
I0403 14:13:15.810333 12932 net.cpp:156] Memory required for data: 561169440
I0403 14:13:15.810348 12932 layer_factory.hpp:77] Creating layer inception_3a/output
I0403 14:13:15.810364 12932 net.cpp:91] Creating Layer inception_3a/output
I0403 14:13:15.810379 12932 net.cpp:425] inception_3a/output <- inception_3a/1x1
I0403 14:13:15.810395 12932 net.cpp:425] inception_3a/output <- inception_3a/3x3
I0403 14:13:15.810410 12932 net.cpp:425] inception_3a/output <- inception_3a/5x5
I0403 14:13:15.810425 12932 net.cpp:425] inception_3a/output <- inception_3a/pool_proj
I0403 14:13:15.810444 12932 net.cpp:399] inception_3a/output -> inception_3a/output
I0403 14:13:15.810492 12932 net.cpp:141] Setting up inception_3a/output
I0403 14:13:15.810518 12932 net.cpp:148] Top shape: 24 256 28 28 (4816896)
I0403 14:13:15.810534 12932 net.cpp:156] Memory required for data: 580437024
I0403 14:13:15.810549 12932 layer_factory.hpp:77] Creating layer inception_3a/output_inception_3a/output_0_split
I0403 14:13:15.810565 12932 net.cpp:91] Creating Layer inception_3a/output_inception_3a/output_0_split
I0403 14:13:15.810580 12932 net.cpp:425] inception_3a/output_inception_3a/output_0_split <- inception_3a/output
I0403 14:13:15.810600 12932 net.cpp:399] inception_3a/output_inception_3a/output_0_split -> inception_3a/output_inception_3a/output_0_split_0
I0403 14:13:15.810622 12932 net.cpp:399] inception_3a/output_inception_3a/output_0_split -> inception_3a/output_inception_3a/output_0_split_1
I0403 14:13:15.810643 12932 net.cpp:399] inception_3a/output_inception_3a/output_0_split -> inception_3a/output_inception_3a/output_0_split_2
I0403 14:13:15.810667 12932 net.cpp:399] inception_3a/output_inception_3a/output_0_split -> inception_3a/output_inception_3a/output_0_split_3
I0403 14:13:15.810740 12932 net.cpp:141] Setting up inception_3a/output_inception_3a/output_0_split
I0403 14:13:15.810762 12932 net.cpp:148] Top shape: 24 256 28 28 (4816896)
I0403 14:13:15.810778 12932 net.cpp:148] Top shape: 24 256 28 28 (4816896)
I0403 14:13:15.810793 12932 net.cpp:148] Top shape: 24 256 28 28 (4816896)
I0403 14:13:15.810807 12932 net.cpp:148] Top shape: 24 256 28 28 (4816896)
I0403 14:13:15.810820 12932 net.cpp:156] Memory required for data: 657507360
I0403 14:13:15.810834 12932 layer_factory.hpp:77] Creating layer inception_3b/1x1
I0403 14:13:15.810855 12932 net.cpp:91] Creating Layer inception_3b/1x1
I0403 14:13:15.810873 12932 net.cpp:425] inception_3b/1x1 <- inception_3a/output_inception_3a/output_0_split_0
I0403 14:13:15.810892 12932 net.cpp:399] inception_3b/1x1 -> inception_3b/1x1
I0403 14:13:15.812011 12932 net.cpp:141] Setting up inception_3b/1x1
I0403 14:13:15.812050 12932 net.cpp:148] Top shape: 24 128 28 28 (2408448)
I0403 14:13:15.812067 12932 net.cpp:156] Memory required for data: 667141152
I0403 14:13:15.812084 12932 layer_factory.hpp:77] Creating layer inception_3b/relu_1x1
I0403 14:13:15.812103 12932 net.cpp:91] Creating Layer inception_3b/relu_1x1
I0403 14:13:15.812119 12932 net.cpp:425] inception_3b/relu_1x1 <- inception_3b/1x1
I0403 14:13:15.812139 12932 net.cpp:386] inception_3b/relu_1x1 -> inception_3b/1x1 (in-place)
I0403 14:13:15.812311 12932 net.cpp:141] Setting up inception_3b/relu_1x1
I0403 14:13:15.812335 12932 net.cpp:148] Top shape: 24 128 28 28 (2408448)
I0403 14:13:15.812350 12932 net.cpp:156] Memory required for data: 676774944
I0403 14:13:15.812363 12932 layer_factory.hpp:77] Creating layer inception_3b/3x3_reduce
I0403 14:13:15.812386 12932 net.cpp:91] Creating Layer inception_3b/3x3_reduce
I0403 14:13:15.812402 12932 net.cpp:425] inception_3b/3x3_reduce <- inception_3a/output_inception_3a/output_0_split_1
I0403 14:13:15.812422 12932 net.cpp:399] inception_3b/3x3_reduce -> inception_3b/3x3_reduce
I0403 14:13:15.813575 12932 net.cpp:141] Setting up inception_3b/3x3_reduce
I0403 14:13:15.813603 12932 net.cpp:148] Top shape: 24 128 28 28 (2408448)
I0403 14:13:15.813618 12932 net.cpp:156] Memory required for data: 686408736
I0403 14:13:15.813637 12932 layer_factory.hpp:77] Creating layer inception_3b/relu_3x3_reduce
I0403 14:13:15.813655 12932 net.cpp:91] Creating Layer inception_3b/relu_3x3_reduce
I0403 14:13:15.813671 12932 net.cpp:425] inception_3b/relu_3x3_reduce <- inception_3b/3x3_reduce
I0403 14:13:15.813691 12932 net.cpp:386] inception_3b/relu_3x3_reduce -> inception_3b/3x3_reduce (in-place)
I0403 14:13:15.813868 12932 net.cpp:141] Setting up inception_3b/relu_3x3_reduce
I0403 14:13:15.813892 12932 net.cpp:148] Top shape: 24 128 28 28 (2408448)
I0403 14:13:15.813910 12932 net.cpp:156] Memory required for data: 696042528
I0403 14:13:15.813925 12932 layer_factory.hpp:77] Creating layer inception_3b/3x3
I0403 14:13:15.813951 12932 net.cpp:91] Creating Layer inception_3b/3x3
I0403 14:13:15.813968 12932 net.cpp:425] inception_3b/3x3 <- inception_3b/3x3_reduce
I0403 14:13:15.813987 12932 net.cpp:399] inception_3b/3x3 -> inception_3b/3x3
I0403 14:13:15.817009 12932 net.cpp:141] Setting up inception_3b/3x3
I0403 14:13:15.817039 12932 net.cpp:148] Top shape: 24 192 28 28 (3612672)
I0403 14:13:15.817055 12932 net.cpp:156] Memory required for data: 710493216
I0403 14:13:15.817073 12932 layer_factory.hpp:77] Creating layer inception_3b/relu_3x3
I0403 14:13:15.817093 12932 net.cpp:91] Creating Layer inception_3b/relu_3x3
I0403 14:13:15.817111 12932 net.cpp:425] inception_3b/relu_3x3 <- inception_3b/3x3
I0403 14:13:15.817128 12932 net.cpp:386] inception_3b/relu_3x3 -> inception_3b/3x3 (in-place)
I0403 14:13:15.817409 12932 net.cpp:141] Setting up inception_3b/relu_3x3
I0403 14:13:15.817435 12932 net.cpp:148] Top shape: 24 192 28 28 (3612672)
I0403 14:13:15.817451 12932 net.cpp:156] Memory required for data: 724943904
I0403 14:13:15.817464 12932 layer_factory.hpp:77] Creating layer inception_3b/5x5_reduce
I0403 14:13:15.817488 12932 net.cpp:91] Creating Layer inception_3b/5x5_reduce
I0403 14:13:15.817512 12932 net.cpp:425] inception_3b/5x5_reduce <- inception_3a/output_inception_3a/output_0_split_2
I0403 14:13:15.817534 12932 net.cpp:399] inception_3b/5x5_reduce -> inception_3b/5x5_reduce
I0403 14:13:15.818544 12932 net.cpp:141] Setting up inception_3b/5x5_reduce
I0403 14:13:15.818573 12932 net.cpp:148] Top shape: 24 32 28 28 (602112)
I0403 14:13:15.818588 12932 net.cpp:156] Memory required for data: 727352352
I0403 14:13:15.818606 12932 layer_factory.hpp:77] Creating layer inception_3b/relu_5x5_reduce
I0403 14:13:15.818627 12932 net.cpp:91] Creating Layer inception_3b/relu_5x5_reduce
I0403 14:13:15.818645 12932 net.cpp:425] inception_3b/relu_5x5_reduce <- inception_3b/5x5_reduce
I0403 14:13:15.818661 12932 net.cpp:386] inception_3b/relu_5x5_reduce -> inception_3b/5x5_reduce (in-place)
I0403 14:13:15.818852 12932 net.cpp:141] Setting up inception_3b/relu_5x5_reduce
I0403 14:13:15.818881 12932 net.cpp:148] Top shape: 24 32 28 28 (602112)
I0403 14:13:15.818897 12932 net.cpp:156] Memory required for data: 729760800
I0403 14:13:15.818910 12932 layer_factory.hpp:77] Creating layer inception_3b/5x5
I0403 14:13:15.818930 12932 net.cpp:91] Creating Layer inception_3b/5x5
I0403 14:13:15.818948 12932 net.cpp:425] inception_3b/5x5 <- inception_3b/5x5_reduce
I0403 14:13:15.818969 12932 net.cpp:399] inception_3b/5x5 -> inception_3b/5x5
I0403 14:13:15.820982 12932 net.cpp:141] Setting up inception_3b/5x5
I0403 14:13:15.821012 12932 net.cpp:148] Top shape: 24 96 28 28 (1806336)
I0403 14:13:15.821027 12932 net.cpp:156] Memory required for data: 736986144
I0403 14:13:15.821045 12932 layer_factory.hpp:77] Creating layer inception_3b/relu_5x5
I0403 14:13:15.821063 12932 net.cpp:91] Creating Layer inception_3b/relu_5x5
I0403 14:13:15.821079 12932 net.cpp:425] inception_3b/relu_5x5 <- inception_3b/5x5
I0403 14:13:15.821099 12932 net.cpp:386] inception_3b/relu_5x5 -> inception_3b/5x5 (in-place)
I0403 14:13:15.821295 12932 net.cpp:141] Setting up inception_3b/relu_5x5
I0403 14:13:15.821319 12932 net.cpp:148] Top shape: 24 96 28 28 (1806336)
I0403 14:13:15.821333 12932 net.cpp:156] Memory required for data: 744211488
I0403 14:13:15.821353 12932 layer_factory.hpp:77] Creating layer inception_3b/pool
I0403 14:13:15.821372 12932 net.cpp:91] Creating Layer inception_3b/pool
I0403 14:13:15.821388 12932 net.cpp:425] inception_3b/pool <- inception_3a/output_inception_3a/output_0_split_3
I0403 14:13:15.821405 12932 net.cpp:399] inception_3b/pool -> inception_3b/pool
I0403 14:13:15.821461 12932 net.cpp:141] Setting up inception_3b/pool
I0403 14:13:15.821485 12932 net.cpp:148] Top shape: 24 256 28 28 (4816896)
I0403 14:13:15.821499 12932 net.cpp:156] Memory required for data: 763479072
I0403 14:13:15.821519 12932 layer_factory.hpp:77] Creating layer inception_3b/pool_proj
I0403 14:13:15.821542 12932 net.cpp:91] Creating Layer inception_3b/pool_proj
I0403 14:13:15.821560 12932 net.cpp:425] inception_3b/pool_proj <- inception_3b/pool
I0403 14:13:15.821581 12932 net.cpp:399] inception_3b/pool_proj -> inception_3b/pool_proj
I0403 14:13:15.822676 12932 net.cpp:141] Setting up inception_3b/pool_proj
I0403 14:13:15.822706 12932 net.cpp:148] Top shape: 24 64 28 28 (1204224)
I0403 14:13:15.822723 12932 net.cpp:156] Memory required for data: 768295968
I0403 14:13:15.822742 12932 layer_factory.hpp:77] Creating layer inception_3b/relu_pool_proj
I0403 14:13:15.822760 12932 net.cpp:91] Creating Layer inception_3b/relu_pool_proj
I0403 14:13:15.822777 12932 net.cpp:425] inception_3b/relu_pool_proj <- inception_3b/pool_proj
I0403 14:13:15.822793 12932 net.cpp:386] inception_3b/relu_pool_proj -> inception_3b/pool_proj (in-place)
I0403 14:13:15.823194 12932 net.cpp:141] Setting up inception_3b/relu_pool_proj
I0403 14:13:15.823220 12932 net.cpp:148] Top shape: 24 64 28 28 (1204224)
I0403 14:13:15.823235 12932 net.cpp:156] Memory required for data: 773112864
I0403 14:13:15.823251 12932 layer_factory.hpp:77] Creating layer inception_3b/output
I0403 14:13:15.823272 12932 net.cpp:91] Creating Layer inception_3b/output
I0403 14:13:15.823289 12932 net.cpp:425] inception_3b/output <- inception_3b/1x1
I0403 14:13:15.823305 12932 net.cpp:425] inception_3b/output <- inception_3b/3x3
I0403 14:13:15.823321 12932 net.cpp:425] inception_3b/output <- inception_3b/5x5
I0403 14:13:15.823338 12932 net.cpp:425] inception_3b/output <- inception_3b/pool_proj
I0403 14:13:15.823354 12932 net.cpp:399] inception_3b/output -> inception_3b/output
I0403 14:13:15.823400 12932 net.cpp:141] Setting up inception_3b/output
I0403 14:13:15.823422 12932 net.cpp:148] Top shape: 24 480 28 28 (9031680)
I0403 14:13:15.823436 12932 net.cpp:156] Memory required for data: 809239584
I0403 14:13:15.823451 12932 layer_factory.hpp:77] Creating layer pool3/3x3_s2
I0403 14:13:15.823468 12932 net.cpp:91] Creating Layer pool3/3x3_s2
I0403 14:13:15.823483 12932 net.cpp:425] pool3/3x3_s2 <- inception_3b/output
I0403 14:13:15.823524 12932 net.cpp:399] pool3/3x3_s2 -> pool3/3x3_s2
I0403 14:13:15.823585 12932 net.cpp:141] Setting up pool3/3x3_s2
I0403 14:13:15.823608 12932 net.cpp:148] Top shape: 24 480 14 14 (2257920)
I0403 14:13:15.823623 12932 net.cpp:156] Memory required for data: 818271264
I0403 14:13:15.823638 12932 layer_factory.hpp:77] Creating layer pool3/3x3_s2_pool3/3x3_s2_0_split
I0403 14:13:15.823657 12932 net.cpp:91] Creating Layer pool3/3x3_s2_pool3/3x3_s2_0_split
I0403 14:13:15.823673 12932 net.cpp:425] pool3/3x3_s2_pool3/3x3_s2_0_split <- pool3/3x3_s2
I0403 14:13:15.823693 12932 net.cpp:399] pool3/3x3_s2_pool3/3x3_s2_0_split -> pool3/3x3_s2_pool3/3x3_s2_0_split_0
I0403 14:13:15.823712 12932 net.cpp:399] pool3/3x3_s2_pool3/3x3_s2_0_split -> pool3/3x3_s2_pool3/3x3_s2_0_split_1
I0403 14:13:15.823732 12932 net.cpp:399] pool3/3x3_s2_pool3/3x3_s2_0_split -> pool3/3x3_s2_pool3/3x3_s2_0_split_2
I0403 14:13:15.823751 12932 net.cpp:399] pool3/3x3_s2_pool3/3x3_s2_0_split -> pool3/3x3_s2_pool3/3x3_s2_0_split_3
I0403 14:13:15.823827 12932 net.cpp:141] Setting up pool3/3x3_s2_pool3/3x3_s2_0_split
I0403 14:13:15.823851 12932 net.cpp:148] Top shape: 24 480 14 14 (2257920)
I0403 14:13:15.823868 12932 net.cpp:148] Top shape: 24 480 14 14 (2257920)
I0403 14:13:15.823884 12932 net.cpp:148] Top shape: 24 480 14 14 (2257920)
I0403 14:13:15.823899 12932 net.cpp:148] Top shape: 24 480 14 14 (2257920)
I0403 14:13:15.823914 12932 net.cpp:156] Memory required for data: 854397984
I0403 14:13:15.823927 12932 layer_factory.hpp:77] Creating layer inception_4a/1x1
I0403 14:13:15.823951 12932 net.cpp:91] Creating Layer inception_4a/1x1
I0403 14:13:15.823968 12932 net.cpp:425] inception_4a/1x1 <- pool3/3x3_s2_pool3/3x3_s2_0_split_0
I0403 14:13:15.823987 12932 net.cpp:399] inception_4a/1x1 -> inception_4a/1x1
I0403 14:13:15.825592 12932 net.cpp:141] Setting up inception_4a/1x1
I0403 14:13:15.825623 12932 net.cpp:148] Top shape: 24 192 14 14 (903168)
I0403 14:13:15.825639 12932 net.cpp:156] Memory required for data: 858010656
I0403 14:13:15.825657 12932 layer_factory.hpp:77] Creating layer inception_4a/relu_1x1
I0403 14:13:15.825675 12932 net.cpp:91] Creating Layer inception_4a/relu_1x1
I0403 14:13:15.825690 12932 net.cpp:425] inception_4a/relu_1x1 <- inception_4a/1x1
I0403 14:13:15.825707 12932 net.cpp:386] inception_4a/relu_1x1 -> inception_4a/1x1 (in-place)
I0403 14:13:15.825888 12932 net.cpp:141] Setting up inception_4a/relu_1x1
I0403 14:13:15.825914 12932 net.cpp:148] Top shape: 24 192 14 14 (903168)
I0403 14:13:15.825929 12932 net.cpp:156] Memory required for data: 861623328
I0403 14:13:15.825943 12932 layer_factory.hpp:77] Creating layer inception_4a/3x3_reduce
I0403 14:13:15.825966 12932 net.cpp:91] Creating Layer inception_4a/3x3_reduce
I0403 14:13:15.825984 12932 net.cpp:425] inception_4a/3x3_reduce <- pool3/3x3_s2_pool3/3x3_s2_0_split_1
I0403 14:13:15.826004 12932 net.cpp:399] inception_4a/3x3_reduce -> inception_4a/3x3_reduce
I0403 14:13:15.827308 12932 net.cpp:141] Setting up inception_4a/3x3_reduce
I0403 14:13:15.827338 12932 net.cpp:148] Top shape: 24 96 14 14 (451584)
I0403 14:13:15.827355 12932 net.cpp:156] Memory required for data: 863429664
I0403 14:13:15.827381 12932 layer_factory.hpp:77] Creating layer inception_4a/relu_3x3_reduce
I0403 14:13:15.827401 12932 net.cpp:91] Creating Layer inception_4a/relu_3x3_reduce
I0403 14:13:15.827417 12932 net.cpp:425] inception_4a/relu_3x3_reduce <- inception_4a/3x3_reduce
I0403 14:13:15.827435 12932 net.cpp:386] inception_4a/relu_3x3_reduce -> inception_4a/3x3_reduce (in-place)
I0403 14:13:15.827616 12932 net.cpp:141] Setting up inception_4a/relu_3x3_reduce
I0403 14:13:15.827644 12932 net.cpp:148] Top shape: 24 96 14 14 (451584)
I0403 14:13:15.827659 12932 net.cpp:156] Memory required for data: 865236000
I0403 14:13:15.827674 12932 layer_factory.hpp:77] Creating layer inception_4a/3x3
I0403 14:13:15.827697 12932 net.cpp:91] Creating Layer inception_4a/3x3
I0403 14:13:15.827714 12932 net.cpp:425] inception_4a/3x3 <- inception_4a/3x3_reduce
I0403 14:13:15.827734 12932 net.cpp:399] inception_4a/3x3 -> inception_4a/3x3
I0403 14:13:15.830471 12932 net.cpp:141] Setting up inception_4a/3x3
I0403 14:13:15.830499 12932 net.cpp:148] Top shape: 24 208 14 14 (978432)
I0403 14:13:15.830521 12932 net.cpp:156] Memory required for data: 869149728
I0403 14:13:15.830540 12932 layer_factory.hpp:77] Creating layer inception_4a/relu_3x3
I0403 14:13:15.830559 12932 net.cpp:91] Creating Layer inception_4a/relu_3x3
I0403 14:13:15.830574 12932 net.cpp:425] inception_4a/relu_3x3 <- inception_4a/3x3
I0403 14:13:15.830595 12932 net.cpp:386] inception_4a/relu_3x3 -> inception_4a/3x3 (in-place)
I0403 14:13:15.830884 12932 net.cpp:141] Setting up inception_4a/relu_3x3
I0403 14:13:15.830911 12932 net.cpp:148] Top shape: 24 208 14 14 (978432)
I0403 14:13:15.830926 12932 net.cpp:156] Memory required for data: 873063456
I0403 14:13:15.830941 12932 layer_factory.hpp:77] Creating layer inception_4a/5x5_reduce
I0403 14:13:15.830965 12932 net.cpp:91] Creating Layer inception_4a/5x5_reduce
I0403 14:13:15.830981 12932 net.cpp:425] inception_4a/5x5_reduce <- pool3/3x3_s2_pool3/3x3_s2_0_split_2
I0403 14:13:15.831003 12932 net.cpp:399] inception_4a/5x5_reduce -> inception_4a/5x5_reduce
I0403 14:13:15.832043 12932 net.cpp:141] Setting up inception_4a/5x5_reduce
I0403 14:13:15.832072 12932 net.cpp:148] Top shape: 24 16 14 14 (75264)
I0403 14:13:15.832088 12932 net.cpp:156] Memory required for data: 873364512
I0403 14:13:15.832118 12932 layer_factory.hpp:77] Creating layer inception_4a/relu_5x5_reduce
I0403 14:13:15.832140 12932 net.cpp:91] Creating Layer inception_4a/relu_5x5_reduce
I0403 14:13:15.832159 12932 net.cpp:425] inception_4a/relu_5x5_reduce <- inception_4a/5x5_reduce
I0403 14:13:15.832176 12932 net.cpp:386] inception_4a/relu_5x5_reduce -> inception_4a/5x5_reduce (in-place)
I0403 14:13:15.832365 12932 net.cpp:141] Setting up inception_4a/relu_5x5_reduce
I0403 14:13:15.832401 12932 net.cpp:148] Top shape: 24 16 14 14 (75264)
I0403 14:13:15.832443 12932 net.cpp:156] Memory required for data: 873665568
I0403 14:13:15.832460 12932 layer_factory.hpp:77] Creating layer inception_4a/5x5
I0403 14:13:15.832481 12932 net.cpp:91] Creating Layer inception_4a/5x5
I0403 14:13:15.832499 12932 net.cpp:425] inception_4a/5x5 <- inception_4a/5x5_reduce
I0403 14:13:15.832526 12932 net.cpp:399] inception_4a/5x5 -> inception_4a/5x5
I0403 14:13:15.833621 12932 net.cpp:141] Setting up inception_4a/5x5
I0403 14:13:15.833648 12932 net.cpp:148] Top shape: 24 48 14 14 (225792)
I0403 14:13:15.833663 12932 net.cpp:156] Memory required for data: 874568736
I0403 14:13:15.833681 12932 layer_factory.hpp:77] Creating layer inception_4a/relu_5x5
I0403 14:13:15.833701 12932 net.cpp:91] Creating Layer inception_4a/relu_5x5
I0403 14:13:15.833719 12932 net.cpp:425] inception_4a/relu_5x5 <- inception_4a/5x5
I0403 14:13:15.833735 12932 net.cpp:386] inception_4a/relu_5x5 -> inception_4a/5x5 (in-place)
I0403 14:13:15.833910 12932 net.cpp:141] Setting up inception_4a/relu_5x5
I0403 14:13:15.833935 12932 net.cpp:148] Top shape: 24 48 14 14 (225792)
I0403 14:13:15.833950 12932 net.cpp:156] Memory required for data: 875471904
I0403 14:13:15.833966 12932 layer_factory.hpp:77] Creating layer inception_4a/pool
I0403 14:13:15.833981 12932 net.cpp:91] Creating Layer inception_4a/pool
I0403 14:13:15.833997 12932 net.cpp:425] inception_4a/pool <- pool3/3x3_s2_pool3/3x3_s2_0_split_3
I0403 14:13:15.834018 12932 net.cpp:399] inception_4a/pool -> inception_4a/pool
I0403 14:13:15.834077 12932 net.cpp:141] Setting up inception_4a/pool
I0403 14:13:15.834100 12932 net.cpp:148] Top shape: 24 480 14 14 (2257920)
I0403 14:13:15.834115 12932 net.cpp:156] Memory required for data: 884503584
I0403 14:13:15.834127 12932 layer_factory.hpp:77] Creating layer inception_4a/pool_proj
I0403 14:13:15.834151 12932 net.cpp:91] Creating Layer inception_4a/pool_proj
I0403 14:13:15.834168 12932 net.cpp:425] inception_4a/pool_proj <- inception_4a/pool
I0403 14:13:15.834185 12932 net.cpp:399] inception_4a/pool_proj -> inception_4a/pool_proj
I0403 14:13:15.835352 12932 net.cpp:141] Setting up inception_4a/pool_proj
I0403 14:13:15.835383 12932 net.cpp:148] Top shape: 24 64 14 14 (301056)
I0403 14:13:15.835413 12932 net.cpp:156] Memory required for data: 885707808
I0403 14:13:15.835433 12932 layer_factory.hpp:77] Creating layer inception_4a/relu_pool_proj
I0403 14:13:15.835450 12932 net.cpp:91] Creating Layer inception_4a/relu_pool_proj
I0403 14:13:15.835466 12932 net.cpp:425] inception_4a/relu_pool_proj <- inception_4a/pool_proj
I0403 14:13:15.835487 12932 net.cpp:386] inception_4a/relu_pool_proj -> inception_4a/pool_proj (in-place)
I0403 14:13:15.835770 12932 net.cpp:141] Setting up inception_4a/relu_pool_proj
I0403 14:13:15.835798 12932 net.cpp:148] Top shape: 24 64 14 14 (301056)
I0403 14:13:15.835814 12932 net.cpp:156] Memory required for data: 886912032
I0403 14:13:15.835829 12932 layer_factory.hpp:77] Creating layer inception_4a/output
I0403 14:13:15.835846 12932 net.cpp:91] Creating Layer inception_4a/output
I0403 14:13:15.835860 12932 net.cpp:425] inception_4a/output <- inception_4a/1x1
I0403 14:13:15.835876 12932 net.cpp:425] inception_4a/output <- inception_4a/3x3
I0403 14:13:15.835892 12932 net.cpp:425] inception_4a/output <- inception_4a/5x5
I0403 14:13:15.835907 12932 net.cpp:425] inception_4a/output <- inception_4a/pool_proj
I0403 14:13:15.835923 12932 net.cpp:399] inception_4a/output -> inception_4a/output
I0403 14:13:15.835969 12932 net.cpp:141] Setting up inception_4a/output
I0403 14:13:15.835991 12932 net.cpp:148] Top shape: 24 512 14 14 (2408448)
I0403 14:13:15.836005 12932 net.cpp:156] Memory required for data: 896545824
I0403 14:13:15.836019 12932 layer_factory.hpp:77] Creating layer inception_4a/output_inception_4a/output_0_split
I0403 14:13:15.836038 12932 net.cpp:91] Creating Layer inception_4a/output_inception_4a/output_0_split
I0403 14:13:15.836055 12932 net.cpp:425] inception_4a/output_inception_4a/output_0_split <- inception_4a/output
I0403 14:13:15.836071 12932 net.cpp:399] inception_4a/output_inception_4a/output_0_split -> inception_4a/output_inception_4a/output_0_split_0
I0403 14:13:15.836091 12932 net.cpp:399] inception_4a/output_inception_4a/output_0_split -> inception_4a/output_inception_4a/output_0_split_1
I0403 14:13:15.836113 12932 net.cpp:399] inception_4a/output_inception_4a/output_0_split -> inception_4a/output_inception_4a/output_0_split_2
I0403 14:13:15.836133 12932 net.cpp:399] inception_4a/output_inception_4a/output_0_split -> inception_4a/output_inception_4a/output_0_split_3
I0403 14:13:15.836153 12932 net.cpp:399] inception_4a/output_inception_4a/output_0_split -> inception_4a/output_inception_4a/output_0_split_4
I0403 14:13:15.836242 12932 net.cpp:141] Setting up inception_4a/output_inception_4a/output_0_split
I0403 14:13:15.836266 12932 net.cpp:148] Top shape: 24 512 14 14 (2408448)
I0403 14:13:15.836282 12932 net.cpp:148] Top shape: 24 512 14 14 (2408448)
I0403 14:13:15.836297 12932 net.cpp:148] Top shape: 24 512 14 14 (2408448)
I0403 14:13:15.836311 12932 net.cpp:148] Top shape: 24 512 14 14 (2408448)
I0403 14:13:15.836326 12932 net.cpp:148] Top shape: 24 512 14 14 (2408448)
I0403 14:13:15.836339 12932 net.cpp:156] Memory required for data: 944714784
I0403 14:13:15.836354 12932 layer_factory.hpp:77] Creating layer loss1/ave_pool
I0403 14:13:15.836370 12932 net.cpp:91] Creating Layer loss1/ave_pool
I0403 14:13:15.836385 12932 net.cpp:425] loss1/ave_pool <- inception_4a/output_inception_4a/output_0_split_0
I0403 14:13:15.836405 12932 net.cpp:399] loss1/ave_pool -> loss1/ave_pool
I0403 14:13:15.836617 12932 net.cpp:141] Setting up loss1/ave_pool
I0403 14:13:15.836645 12932 net.cpp:148] Top shape: 24 512 4 4 (196608)
I0403 14:13:15.836661 12932 net.cpp:156] Memory required for data: 945501216
I0403 14:13:15.836675 12932 layer_factory.hpp:77] Creating layer loss1/conv
I0403 14:13:15.836697 12932 net.cpp:91] Creating Layer loss1/conv
I0403 14:13:15.836714 12932 net.cpp:425] loss1/conv <- loss1/ave_pool
I0403 14:13:15.836732 12932 net.cpp:399] loss1/conv -> loss1/conv
I0403 14:13:15.838143 12932 net.cpp:141] Setting up loss1/conv
I0403 14:13:15.838171 12932 net.cpp:148] Top shape: 24 128 4 4 (49152)
I0403 14:13:15.838201 12932 net.cpp:156] Memory required for data: 945697824
I0403 14:13:15.838219 12932 layer_factory.hpp:77] Creating layer loss1/relu_conv
I0403 14:13:15.838238 12932 net.cpp:91] Creating Layer loss1/relu_conv
I0403 14:13:15.838253 12932 net.cpp:425] loss1/relu_conv <- loss1/conv
I0403 14:13:15.838274 12932 net.cpp:386] loss1/relu_conv -> loss1/conv (in-place)
I0403 14:13:15.838559 12932 net.cpp:141] Setting up loss1/relu_conv
I0403 14:13:15.838585 12932 net.cpp:148] Top shape: 24 128 4 4 (49152)
I0403 14:13:15.838600 12932 net.cpp:156] Memory required for data: 945894432
I0403 14:13:15.838614 12932 layer_factory.hpp:77] Creating layer loss1/fc
I0403 14:13:15.838636 12932 net.cpp:91] Creating Layer loss1/fc
I0403 14:13:15.838654 12932 net.cpp:425] loss1/fc <- loss1/conv
I0403 14:13:15.838675 12932 net.cpp:399] loss1/fc -> loss1/fc
I0403 14:13:15.856397 12932 net.cpp:141] Setting up loss1/fc
I0403 14:13:15.856451 12932 net.cpp:148] Top shape: 24 1024 (24576)
I0403 14:13:15.856467 12932 net.cpp:156] Memory required for data: 945992736
I0403 14:13:15.856487 12932 layer_factory.hpp:77] Creating layer loss1/relu_fc
I0403 14:13:15.856509 12932 net.cpp:91] Creating Layer loss1/relu_fc
I0403 14:13:15.856528 12932 net.cpp:425] loss1/relu_fc <- loss1/fc
I0403 14:13:15.856546 12932 net.cpp:386] loss1/relu_fc -> loss1/fc (in-place)
I0403 14:13:15.856755 12932 net.cpp:141] Setting up loss1/relu_fc
I0403 14:13:15.856781 12932 net.cpp:148] Top shape: 24 1024 (24576)
I0403 14:13:15.856796 12932 net.cpp:156] Memory required for data: 946091040
I0403 14:13:15.856809 12932 layer_factory.hpp:77] Creating layer loss1/drop_fc
I0403 14:13:15.856837 12932 net.cpp:91] Creating Layer loss1/drop_fc
I0403 14:13:15.856854 12932 net.cpp:425] loss1/drop_fc <- loss1/fc
I0403 14:13:15.856874 12932 net.cpp:386] loss1/drop_fc -> loss1/fc (in-place)
I0403 14:13:15.856926 12932 net.cpp:141] Setting up loss1/drop_fc
I0403 14:13:15.856948 12932 net.cpp:148] Top shape: 24 1024 (24576)
I0403 14:13:15.856962 12932 net.cpp:156] Memory required for data: 946189344
I0403 14:13:15.856977 12932 layer_factory.hpp:77] Creating layer loss1/classifier_plantvillage
I0403 14:13:15.857002 12932 net.cpp:91] Creating Layer loss1/classifier_plantvillage
I0403 14:13:15.857019 12932 net.cpp:425] loss1/classifier_plantvillage <- loss1/fc
I0403 14:13:15.857039 12932 net.cpp:399] loss1/classifier_plantvillage -> loss1/classifier_plantvillage
I0403 14:13:15.857966 12932 net.cpp:141] Setting up loss1/classifier_plantvillage
I0403 14:13:15.857995 12932 net.cpp:148] Top shape: 24 38 (912)
I0403 14:13:15.858009 12932 net.cpp:156] Memory required for data: 946192992
I0403 14:13:15.858027 12932 layer_factory.hpp:77] Creating layer loss1/classifier_plantvillage_loss1/classifier_plantvillage_0_split
I0403 14:13:15.858047 12932 net.cpp:91] Creating Layer loss1/classifier_plantvillage_loss1/classifier_plantvillage_0_split
I0403 14:13:15.858062 12932 net.cpp:425] loss1/classifier_plantvillage_loss1/classifier_plantvillage_0_split <- loss1/classifier_plantvillage
I0403 14:13:15.858081 12932 net.cpp:399] loss1/classifier_plantvillage_loss1/classifier_plantvillage_0_split -> loss1/classifier_plantvillage_loss1/classifier_plantvillage_0_split_0
I0403 14:13:15.858103 12932 net.cpp:399] loss1/classifier_plantvillage_loss1/classifier_plantvillage_0_split -> loss1/classifier_plantvillage_loss1/classifier_plantvillage_0_split_1
I0403 14:13:15.858122 12932 net.cpp:399] loss1/classifier_plantvillage_loss1/classifier_plantvillage_0_split -> loss1/classifier_plantvillage_loss1/classifier_plantvillage_0_split_2
I0403 14:13:15.858187 12932 net.cpp:141] Setting up loss1/classifier_plantvillage_loss1/classifier_plantvillage_0_split
I0403 14:13:15.858209 12932 net.cpp:148] Top shape: 24 38 (912)
I0403 14:13:15.858227 12932 net.cpp:148] Top shape: 24 38 (912)
I0403 14:13:15.858242 12932 net.cpp:148] Top shape: 24 38 (912)
I0403 14:13:15.858254 12932 net.cpp:156] Memory required for data: 946203936
I0403 14:13:15.858270 12932 layer_factory.hpp:77] Creating layer inception_4b/1x1
I0403 14:13:15.858294 12932 net.cpp:91] Creating Layer inception_4b/1x1
I0403 14:13:15.858335 12932 net.cpp:425] inception_4b/1x1 <- inception_4a/output_inception_4a/output_0_split_1
I0403 14:13:15.858355 12932 net.cpp:399] inception_4b/1x1 -> inception_4b/1x1
I0403 14:13:15.860046 12932 net.cpp:141] Setting up inception_4b/1x1
I0403 14:13:15.860074 12932 net.cpp:148] Top shape: 24 160 14 14 (752640)
I0403 14:13:15.860090 12932 net.cpp:156] Memory required for data: 949214496
I0403 14:13:15.860108 12932 layer_factory.hpp:77] Creating layer inception_4b/relu_1x1
I0403 14:13:15.860126 12932 net.cpp:91] Creating Layer inception_4b/relu_1x1
I0403 14:13:15.860141 12932 net.cpp:425] inception_4b/relu_1x1 <- inception_4b/1x1
I0403 14:13:15.860162 12932 net.cpp:386] inception_4b/relu_1x1 -> inception_4b/1x1 (in-place)
I0403 14:13:15.860340 12932 net.cpp:141] Setting up inception_4b/relu_1x1
I0403 14:13:15.860365 12932 net.cpp:148] Top shape: 24 160 14 14 (752640)
I0403 14:13:15.860379 12932 net.cpp:156] Memory required for data: 952225056
I0403 14:13:15.860394 12932 layer_factory.hpp:77] Creating layer inception_4b/3x3_reduce
I0403 14:13:15.860415 12932 net.cpp:91] Creating Layer inception_4b/3x3_reduce
I0403 14:13:15.860432 12932 net.cpp:425] inception_4b/3x3_reduce <- inception_4a/output_inception_4a/output_0_split_2
I0403 14:13:15.860455 12932 net.cpp:399] inception_4b/3x3_reduce -> inception_4b/3x3_reduce
I0403 14:13:15.861888 12932 net.cpp:141] Setting up inception_4b/3x3_reduce
I0403 14:13:15.861917 12932 net.cpp:148] Top shape: 24 112 14 14 (526848)
I0403 14:13:15.861932 12932 net.cpp:156] Memory required for data: 954332448
I0403 14:13:15.861951 12932 layer_factory.hpp:77] Creating layer inception_4b/relu_3x3_reduce
I0403 14:13:15.861971 12932 net.cpp:91] Creating Layer inception_4b/relu_3x3_reduce
I0403 14:13:15.861987 12932 net.cpp:425] inception_4b/relu_3x3_reduce <- inception_4b/3x3_reduce
I0403 14:13:15.862005 12932 net.cpp:386] inception_4b/relu_3x3_reduce -> inception_4b/3x3_reduce (in-place)
I0403 14:13:15.862298 12932 net.cpp:141] Setting up inception_4b/relu_3x3_reduce
I0403 14:13:15.862324 12932 net.cpp:148] Top shape: 24 112 14 14 (526848)
I0403 14:13:15.862340 12932 net.cpp:156] Memory required for data: 956439840
I0403 14:13:15.862355 12932 layer_factory.hpp:77] Creating layer inception_4b/3x3
I0403 14:13:15.862377 12932 net.cpp:91] Creating Layer inception_4b/3x3
I0403 14:13:15.862396 12932 net.cpp:425] inception_4b/3x3 <- inception_4b/3x3_reduce
I0403 14:13:15.862416 12932 net.cpp:399] inception_4b/3x3 -> inception_4b/3x3
I0403 14:13:15.865494 12932 net.cpp:141] Setting up inception_4b/3x3
I0403 14:13:15.865530 12932 net.cpp:148] Top shape: 24 224 14 14 (1053696)
I0403 14:13:15.865547 12932 net.cpp:156] Memory required for data: 960654624
I0403 14:13:15.865566 12932 layer_factory.hpp:77] Creating layer inception_4b/relu_3x3
I0403 14:13:15.865584 12932 net.cpp:91] Creating Layer inception_4b/relu_3x3
I0403 14:13:15.865600 12932 net.cpp:425] inception_4b/relu_3x3 <- inception_4b/3x3
I0403 14:13:15.865620 12932 net.cpp:386] inception_4b/relu_3x3 -> inception_4b/3x3 (in-place)
I0403 14:13:15.865813 12932 net.cpp:141] Setting up inception_4b/relu_3x3
I0403 14:13:15.865839 12932 net.cpp:148] Top shape: 24 224 14 14 (1053696)
I0403 14:13:15.865854 12932 net.cpp:156] Memory required for data: 964869408
I0403 14:13:15.865867 12932 layer_factory.hpp:77] Creating layer inception_4b/5x5_reduce
I0403 14:13:15.865891 12932 net.cpp:91] Creating Layer inception_4b/5x5_reduce
I0403 14:13:15.865909 12932 net.cpp:425] inception_4b/5x5_reduce <- inception_4a/output_inception_4a/output_0_split_3
I0403 14:13:15.865931 12932 net.cpp:399] inception_4b/5x5_reduce -> inception_4b/5x5_reduce
I0403 14:13:15.867053 12932 net.cpp:141] Setting up inception_4b/5x5_reduce
I0403 14:13:15.867081 12932 net.cpp:148] Top shape: 24 24 14 14 (112896)
I0403 14:13:15.867097 12932 net.cpp:156] Memory required for data: 965320992
I0403 14:13:15.867115 12932 layer_factory.hpp:77] Creating layer inception_4b/relu_5x5_reduce
I0403 14:13:15.867137 12932 net.cpp:91] Creating Layer inception_4b/relu_5x5_reduce
I0403 14:13:15.867169 12932 net.cpp:425] inception_4b/relu_5x5_reduce <- inception_4b/5x5_reduce
I0403 14:13:15.867188 12932 net.cpp:386] inception_4b/relu_5x5_reduce -> inception_4b/5x5_reduce (in-place)
I0403 14:13:15.867378 12932 net.cpp:141] Setting up inception_4b/relu_5x5_reduce
I0403 14:13:15.867403 12932 net.cpp:148] Top shape: 24 24 14 14 (112896)
I0403 14:13:15.867419 12932 net.cpp:156] Memory required for data: 965772576
I0403 14:13:15.867432 12932 layer_factory.hpp:77] Creating layer inception_4b/5x5
I0403 14:13:15.867456 12932 net.cpp:91] Creating Layer inception_4b/5x5
I0403 14:13:15.867475 12932 net.cpp:425] inception_4b/5x5 <- inception_4b/5x5_reduce
I0403 14:13:15.867493 12932 net.cpp:399] inception_4b/5x5 -> inception_4b/5x5
I0403 14:13:15.868762 12932 net.cpp:141] Setting up inception_4b/5x5
I0403 14:13:15.868789 12932 net.cpp:148] Top shape: 24 64 14 14 (301056)
I0403 14:13:15.868805 12932 net.cpp:156] Memory required for data: 966976800
I0403 14:13:15.868824 12932 layer_factory.hpp:77] Creating layer inception_4b/relu_5x5
I0403 14:13:15.868842 12932 net.cpp:91] Creating Layer inception_4b/relu_5x5
I0403 14:13:15.868859 12932 net.cpp:425] inception_4b/relu_5x5 <- inception_4b/5x5
I0403 14:13:15.868877 12932 net.cpp:386] inception_4b/relu_5x5 -> inception_4b/5x5 (in-place)
I0403 14:13:15.869171 12932 net.cpp:141] Setting up inception_4b/relu_5x5
I0403 14:13:15.869199 12932 net.cpp:148] Top shape: 24 64 14 14 (301056)
I0403 14:13:15.869213 12932 net.cpp:156] Memory required for data: 968181024
I0403 14:13:15.869228 12932 layer_factory.hpp:77] Creating layer inception_4b/pool
I0403 14:13:15.869247 12932 net.cpp:91] Creating Layer inception_4b/pool
I0403 14:13:15.869266 12932 net.cpp:425] inception_4b/pool <- inception_4a/output_inception_4a/output_0_split_4
I0403 14:13:15.869287 12932 net.cpp:399] inception_4b/pool -> inception_4b/pool
I0403 14:13:15.869354 12932 net.cpp:141] Setting up inception_4b/pool
I0403 14:13:15.869379 12932 net.cpp:148] Top shape: 24 512 14 14 (2408448)
I0403 14:13:15.869392 12932 net.cpp:156] Memory required for data: 977814816
I0403 14:13:15.869406 12932 layer_factory.hpp:77] Creating layer inception_4b/pool_proj
I0403 14:13:15.869431 12932 net.cpp:91] Creating Layer inception_4b/pool_proj
I0403 14:13:15.869448 12932 net.cpp:425] inception_4b/pool_proj <- inception_4b/pool
I0403 14:13:15.869467 12932 net.cpp:399] inception_4b/pool_proj -> inception_4b/pool_proj
I0403 14:13:15.870715 12932 net.cpp:141] Setting up inception_4b/pool_proj
I0403 14:13:15.870743 12932 net.cpp:148] Top shape: 24 64 14 14 (301056)
I0403 14:13:15.870762 12932 net.cpp:156] Memory required for data: 979019040
I0403 14:13:15.870780 12932 layer_factory.hpp:77] Creating layer inception_4b/relu_pool_proj
I0403 14:13:15.870800 12932 net.cpp:91] Creating Layer inception_4b/relu_pool_proj
I0403 14:13:15.870818 12932 net.cpp:425] inception_4b/relu_pool_proj <- inception_4b/pool_proj
I0403 14:13:15.870836 12932 net.cpp:386] inception_4b/relu_pool_proj -> inception_4b/pool_proj (in-place)
I0403 14:13:15.871021 12932 net.cpp:141] Setting up inception_4b/relu_pool_proj
I0403 14:13:15.871048 12932 net.cpp:148] Top shape: 24 64 14 14 (301056)
I0403 14:13:15.871064 12932 net.cpp:156] Memory required for data: 980223264
I0403 14:13:15.871079 12932 layer_factory.hpp:77] Creating layer inception_4b/output
I0403 14:13:15.871096 12932 net.cpp:91] Creating Layer inception_4b/output
I0403 14:13:15.871111 12932 net.cpp:425] inception_4b/output <- inception_4b/1x1
I0403 14:13:15.871129 12932 net.cpp:425] inception_4b/output <- inception_4b/3x3
I0403 14:13:15.871145 12932 net.cpp:425] inception_4b/output <- inception_4b/5x5
I0403 14:13:15.871160 12932 net.cpp:425] inception_4b/output <- inception_4b/pool_proj
I0403 14:13:15.871176 12932 net.cpp:399] inception_4b/output -> inception_4b/output
I0403 14:13:15.871224 12932 net.cpp:141] Setting up inception_4b/output
I0403 14:13:15.871248 12932 net.cpp:148] Top shape: 24 512 14 14 (2408448)
I0403 14:13:15.871264 12932 net.cpp:156] Memory required for data: 989857056
I0403 14:13:15.871294 12932 layer_factory.hpp:77] Creating layer inception_4b/output_inception_4b/output_0_split
I0403 14:13:15.871312 12932 net.cpp:91] Creating Layer inception_4b/output_inception_4b/output_0_split
I0403 14:13:15.871331 12932 net.cpp:425] inception_4b/output_inception_4b/output_0_split <- inception_4b/output
I0403 14:13:15.871350 12932 net.cpp:399] inception_4b/output_inception_4b/output_0_split -> inception_4b/output_inception_4b/output_0_split_0
I0403 14:13:15.871369 12932 net.cpp:399] inception_4b/output_inception_4b/output_0_split -> inception_4b/output_inception_4b/output_0_split_1
I0403 14:13:15.871389 12932 net.cpp:399] inception_4b/output_inception_4b/output_0_split -> inception_4b/output_inception_4b/output_0_split_2
I0403 14:13:15.871409 12932 net.cpp:399] inception_4b/output_inception_4b/output_0_split -> inception_4b/output_inception_4b/output_0_split_3
I0403 14:13:15.871495 12932 net.cpp:141] Setting up inception_4b/output_inception_4b/output_0_split
I0403 14:13:15.871523 12932 net.cpp:148] Top shape: 24 512 14 14 (2408448)
I0403 14:13:15.871541 12932 net.cpp:148] Top shape: 24 512 14 14 (2408448)
I0403 14:13:15.871557 12932 net.cpp:148] Top shape: 24 512 14 14 (2408448)
I0403 14:13:15.871572 12932 net.cpp:148] Top shape: 24 512 14 14 (2408448)
I0403 14:13:15.871585 12932 net.cpp:156] Memory required for data: 1028392224
I0403 14:13:15.871600 12932 layer_factory.hpp:77] Creating layer inception_4c/1x1
I0403 14:13:15.871623 12932 net.cpp:91] Creating Layer inception_4c/1x1
I0403 14:13:15.871640 12932 net.cpp:425] inception_4c/1x1 <- inception_4b/output_inception_4b/output_0_split_0
I0403 14:13:15.871661 12932 net.cpp:399] inception_4c/1x1 -> inception_4c/1x1
I0403 14:13:15.873147 12932 net.cpp:141] Setting up inception_4c/1x1
I0403 14:13:15.873178 12932 net.cpp:148] Top shape: 24 128 14 14 (602112)
I0403 14:13:15.873194 12932 net.cpp:156] Memory required for data: 1030800672
I0403 14:13:15.873214 12932 layer_factory.hpp:77] Creating layer inception_4c/relu_1x1
I0403 14:13:15.873231 12932 net.cpp:91] Creating Layer inception_4c/relu_1x1
I0403 14:13:15.873247 12932 net.cpp:425] inception_4c/relu_1x1 <- inception_4c/1x1
I0403 14:13:15.873266 12932 net.cpp:386] inception_4c/relu_1x1 -> inception_4c/1x1 (in-place)
I0403 14:13:15.873455 12932 net.cpp:141] Setting up inception_4c/relu_1x1
I0403 14:13:15.873479 12932 net.cpp:148] Top shape: 24 128 14 14 (602112)
I0403 14:13:15.873494 12932 net.cpp:156] Memory required for data: 1033209120
I0403 14:13:15.873513 12932 layer_factory.hpp:77] Creating layer inception_4c/3x3_reduce
I0403 14:13:15.873538 12932 net.cpp:91] Creating Layer inception_4c/3x3_reduce
I0403 14:13:15.873556 12932 net.cpp:425] inception_4c/3x3_reduce <- inception_4b/output_inception_4b/output_0_split_1
I0403 14:13:15.873577 12932 net.cpp:399] inception_4c/3x3_reduce -> inception_4c/3x3_reduce
I0403 14:13:15.875604 12932 net.cpp:141] Setting up inception_4c/3x3_reduce
I0403 14:13:15.875634 12932 net.cpp:148] Top shape: 24 128 14 14 (602112)
I0403 14:13:15.875650 12932 net.cpp:156] Memory required for data: 1035617568
I0403 14:13:15.875669 12932 layer_factory.hpp:77] Creating layer inception_4c/relu_3x3_reduce
I0403 14:13:15.875689 12932 net.cpp:91] Creating Layer inception_4c/relu_3x3_reduce
I0403 14:13:15.875706 12932 net.cpp:425] inception_4c/relu_3x3_reduce <- inception_4c/3x3_reduce
I0403 14:13:15.875725 12932 net.cpp:386] inception_4c/relu_3x3_reduce -> inception_4c/3x3_reduce (in-place)
I0403 14:13:15.876022 12932 net.cpp:141] Setting up inception_4c/relu_3x3_reduce
I0403 14:13:15.876049 12932 net.cpp:148] Top shape: 24 128 14 14 (602112)
I0403 14:13:15.876065 12932 net.cpp:156] Memory required for data: 1038026016
I0403 14:13:15.876078 12932 layer_factory.hpp:77] Creating layer inception_4c/3x3
I0403 14:13:15.876101 12932 net.cpp:91] Creating Layer inception_4c/3x3
I0403 14:13:15.876119 12932 net.cpp:425] inception_4c/3x3 <- inception_4c/3x3_reduce
I0403 14:13:15.876142 12932 net.cpp:399] inception_4c/3x3 -> inception_4c/3x3
I0403 14:13:15.879859 12932 net.cpp:141] Setting up inception_4c/3x3
I0403 14:13:15.879901 12932 net.cpp:148] Top shape: 24 256 14 14 (1204224)
I0403 14:13:15.879919 12932 net.cpp:156] Memory required for data: 1042842912
I0403 14:13:15.879952 12932 layer_factory.hpp:77] Creating layer inception_4c/relu_3x3
I0403 14:13:15.879976 12932 net.cpp:91] Creating Layer inception_4c/relu_3x3
I0403 14:13:15.879992 12932 net.cpp:425] inception_4c/relu_3x3 <- inception_4c/3x3
I0403 14:13:15.880010 12932 net.cpp:386] inception_4c/relu_3x3 -> inception_4c/3x3 (in-place)
I0403 14:13:15.880197 12932 net.cpp:141] Setting up inception_4c/relu_3x3
I0403 14:13:15.880223 12932 net.cpp:148] Top shape: 24 256 14 14 (1204224)
I0403 14:13:15.880237 12932 net.cpp:156] Memory required for data: 1047659808
I0403 14:13:15.880252 12932 layer_factory.hpp:77] Creating layer inception_4c/5x5_reduce
I0403 14:13:15.880288 12932 net.cpp:91] Creating Layer inception_4c/5x5_reduce
I0403 14:13:15.880307 12932 net.cpp:425] inception_4c/5x5_reduce <- inception_4b/output_inception_4b/output_0_split_2
I0403 14:13:15.880328 12932 net.cpp:399] inception_4c/5x5_reduce -> inception_4c/5x5_reduce
I0403 14:13:15.881490 12932 net.cpp:141] Setting up inception_4c/5x5_reduce
I0403 14:13:15.881525 12932 net.cpp:148] Top shape: 24 24 14 14 (112896)
I0403 14:13:15.881541 12932 net.cpp:156] Memory required for data: 1048111392
I0403 14:13:15.881558 12932 layer_factory.hpp:77] Creating layer inception_4c/relu_5x5_reduce
I0403 14:13:15.881577 12932 net.cpp:91] Creating Layer inception_4c/relu_5x5_reduce
I0403 14:13:15.881594 12932 net.cpp:425] inception_4c/relu_5x5_reduce <- inception_4c/5x5_reduce
I0403 14:13:15.881611 12932 net.cpp:386] inception_4c/relu_5x5_reduce -> inception_4c/5x5_reduce (in-place)
I0403 14:13:15.881795 12932 net.cpp:141] Setting up inception_4c/relu_5x5_reduce
I0403 14:13:15.881820 12932 net.cpp:148] Top shape: 24 24 14 14 (112896)
I0403 14:13:15.881834 12932 net.cpp:156] Memory required for data: 1048562976
I0403 14:13:15.881850 12932 layer_factory.hpp:77] Creating layer inception_4c/5x5
I0403 14:13:15.881872 12932 net.cpp:91] Creating Layer inception_4c/5x5
I0403 14:13:15.881889 12932 net.cpp:425] inception_4c/5x5 <- inception_4c/5x5_reduce
I0403 14:13:15.881907 12932 net.cpp:399] inception_4c/5x5 -> inception_4c/5x5
I0403 14:13:15.883143 12932 net.cpp:141] Setting up inception_4c/5x5
I0403 14:13:15.883173 12932 net.cpp:148] Top shape: 24 64 14 14 (301056)
I0403 14:13:15.883189 12932 net.cpp:156] Memory required for data: 1049767200
I0403 14:13:15.883208 12932 layer_factory.hpp:77] Creating layer inception_4c/relu_5x5
I0403 14:13:15.883226 12932 net.cpp:91] Creating Layer inception_4c/relu_5x5
I0403 14:13:15.883242 12932 net.cpp:425] inception_4c/relu_5x5 <- inception_4c/5x5
I0403 14:13:15.883260 12932 net.cpp:386] inception_4c/relu_5x5 -> inception_4c/5x5 (in-place)
I0403 14:13:15.883549 12932 net.cpp:141] Setting up inception_4c/relu_5x5
I0403 14:13:15.883579 12932 net.cpp:148] Top shape: 24 64 14 14 (301056)
I0403 14:13:15.883594 12932 net.cpp:156] Memory required for data: 1050971424
I0403 14:13:15.883610 12932 layer_factory.hpp:77] Creating layer inception_4c/pool
I0403 14:13:15.883626 12932 net.cpp:91] Creating Layer inception_4c/pool
I0403 14:13:15.883642 12932 net.cpp:425] inception_4c/pool <- inception_4b/output_inception_4b/output_0_split_3
I0403 14:13:15.883661 12932 net.cpp:399] inception_4c/pool -> inception_4c/pool
I0403 14:13:15.883726 12932 net.cpp:141] Setting up inception_4c/pool
I0403 14:13:15.883750 12932 net.cpp:148] Top shape: 24 512 14 14 (2408448)
I0403 14:13:15.883764 12932 net.cpp:156] Memory required for data: 1060605216
I0403 14:13:15.883779 12932 layer_factory.hpp:77] Creating layer inception_4c/pool_proj
I0403 14:13:15.883800 12932 net.cpp:91] Creating Layer inception_4c/pool_proj
I0403 14:13:15.883816 12932 net.cpp:425] inception_4c/pool_proj <- inception_4c/pool
I0403 14:13:15.883836 12932 net.cpp:399] inception_4c/pool_proj -> inception_4c/pool_proj
I0403 14:13:15.885064 12932 net.cpp:141] Setting up inception_4c/pool_proj
I0403 14:13:15.885092 12932 net.cpp:148] Top shape: 24 64 14 14 (301056)
I0403 14:13:15.885125 12932 net.cpp:156] Memory required for data: 1061809440
I0403 14:13:15.885144 12932 layer_factory.hpp:77] Creating layer inception_4c/relu_pool_proj
I0403 14:13:15.885165 12932 net.cpp:91] Creating Layer inception_4c/relu_pool_proj
I0403 14:13:15.885181 12932 net.cpp:425] inception_4c/relu_pool_proj <- inception_4c/pool_proj
I0403 14:13:15.885198 12932 net.cpp:386] inception_4c/relu_pool_proj -> inception_4c/pool_proj (in-place)
I0403 14:13:15.885380 12932 net.cpp:141] Setting up inception_4c/relu_pool_proj
I0403 14:13:15.885406 12932 net.cpp:148] Top shape: 24 64 14 14 (301056)
I0403 14:13:15.885421 12932 net.cpp:156] Memory required for data: 1063013664
I0403 14:13:15.885435 12932 layer_factory.hpp:77] Creating layer inception_4c/output
I0403 14:13:15.885452 12932 net.cpp:91] Creating Layer inception_4c/output
I0403 14:13:15.885468 12932 net.cpp:425] inception_4c/output <- inception_4c/1x1
I0403 14:13:15.885483 12932 net.cpp:425] inception_4c/output <- inception_4c/3x3
I0403 14:13:15.885499 12932 net.cpp:425] inception_4c/output <- inception_4c/5x5
I0403 14:13:15.885519 12932 net.cpp:425] inception_4c/output <- inception_4c/pool_proj
I0403 14:13:15.885537 12932 net.cpp:399] inception_4c/output -> inception_4c/output
I0403 14:13:15.885584 12932 net.cpp:141] Setting up inception_4c/output
I0403 14:13:15.885607 12932 net.cpp:148] Top shape: 24 512 14 14 (2408448)
I0403 14:13:15.885622 12932 net.cpp:156] Memory required for data: 1072647456
I0403 14:13:15.885635 12932 layer_factory.hpp:77] Creating layer inception_4c/output_inception_4c/output_0_split
I0403 14:13:15.885651 12932 net.cpp:91] Creating Layer inception_4c/output_inception_4c/output_0_split
I0403 14:13:15.885666 12932 net.cpp:425] inception_4c/output_inception_4c/output_0_split <- inception_4c/output
I0403 14:13:15.885686 12932 net.cpp:399] inception_4c/output_inception_4c/output_0_split -> inception_4c/output_inception_4c/output_0_split_0
I0403 14:13:15.885705 12932 net.cpp:399] inception_4c/output_inception_4c/output_0_split -> inception_4c/output_inception_4c/output_0_split_1
I0403 14:13:15.885725 12932 net.cpp:399] inception_4c/output_inception_4c/output_0_split -> inception_4c/output_inception_4c/output_0_split_2
I0403 14:13:15.885746 12932 net.cpp:399] inception_4c/output_inception_4c/output_0_split -> inception_4c/output_inception_4c/output_0_split_3
I0403 14:13:15.885831 12932 net.cpp:141] Setting up inception_4c/output_inception_4c/output_0_split
I0403 14:13:15.885854 12932 net.cpp:148] Top shape: 24 512 14 14 (2408448)
I0403 14:13:15.885869 12932 net.cpp:148] Top shape: 24 512 14 14 (2408448)
I0403 14:13:15.885885 12932 net.cpp:148] Top shape: 24 512 14 14 (2408448)
I0403 14:13:15.885900 12932 net.cpp:148] Top shape: 24 512 14 14 (2408448)
I0403 14:13:15.885915 12932 net.cpp:156] Memory required for data: 1111182624
I0403 14:13:15.885928 12932 layer_factory.hpp:77] Creating layer inception_4d/1x1
I0403 14:13:15.885952 12932 net.cpp:91] Creating Layer inception_4d/1x1
I0403 14:13:15.885970 12932 net.cpp:425] inception_4d/1x1 <- inception_4c/output_inception_4c/output_0_split_0
I0403 14:13:15.885990 12932 net.cpp:399] inception_4d/1x1 -> inception_4d/1x1
I0403 14:13:15.887378 12932 net.cpp:141] Setting up inception_4d/1x1
I0403 14:13:15.887405 12932 net.cpp:148] Top shape: 24 112 14 14 (526848)
I0403 14:13:15.887421 12932 net.cpp:156] Memory required for data: 1113290016
I0403 14:13:15.887439 12932 layer_factory.hpp:77] Creating layer inception_4d/relu_1x1
I0403 14:13:15.887456 12932 net.cpp:91] Creating Layer inception_4d/relu_1x1
I0403 14:13:15.887471 12932 net.cpp:425] inception_4d/relu_1x1 <- inception_4d/1x1
I0403 14:13:15.887490 12932 net.cpp:386] inception_4d/relu_1x1 -> inception_4d/1x1 (in-place)
I0403 14:13:15.887677 12932 net.cpp:141] Setting up inception_4d/relu_1x1
I0403 14:13:15.887702 12932 net.cpp:148] Top shape: 24 112 14 14 (526848)
I0403 14:13:15.887717 12932 net.cpp:156] Memory required for data: 1115397408
I0403 14:13:15.887730 12932 layer_factory.hpp:77] Creating layer inception_4d/3x3_reduce
I0403 14:13:15.887768 12932 net.cpp:91] Creating Layer inception_4d/3x3_reduce
I0403 14:13:15.887786 12932 net.cpp:425] inception_4d/3x3_reduce <- inception_4c/output_inception_4c/output_0_split_1
I0403 14:13:15.887807 12932 net.cpp:399] inception_4d/3x3_reduce -> inception_4d/3x3_reduce
I0403 14:13:15.889334 12932 net.cpp:141] Setting up inception_4d/3x3_reduce
I0403 14:13:15.889361 12932 net.cpp:148] Top shape: 24 144 14 14 (677376)
I0403 14:13:15.889377 12932 net.cpp:156] Memory required for data: 1118106912
I0403 14:13:15.889399 12932 layer_factory.hpp:77] Creating layer inception_4d/relu_3x3_reduce
I0403 14:13:15.889417 12932 net.cpp:91] Creating Layer inception_4d/relu_3x3_reduce
I0403 14:13:15.889433 12932 net.cpp:425] inception_4d/relu_3x3_reduce <- inception_4d/3x3_reduce
I0403 14:13:15.889449 12932 net.cpp:386] inception_4d/relu_3x3_reduce -> inception_4d/3x3_reduce (in-place)
I0403 14:13:15.889746 12932 net.cpp:141] Setting up inception_4d/relu_3x3_reduce
I0403 14:13:15.889775 12932 net.cpp:148] Top shape: 24 144 14 14 (677376)
I0403 14:13:15.889791 12932 net.cpp:156] Memory required for data: 1120816416
I0403 14:13:15.889806 12932 layer_factory.hpp:77] Creating layer inception_4d/3x3
I0403 14:13:15.889827 12932 net.cpp:91] Creating Layer inception_4d/3x3
I0403 14:13:15.889844 12932 net.cpp:425] inception_4d/3x3 <- inception_4d/3x3_reduce
I0403 14:13:15.889863 12932 net.cpp:399] inception_4d/3x3 -> inception_4d/3x3
I0403 14:13:15.894141 12932 net.cpp:141] Setting up inception_4d/3x3
I0403 14:13:15.894170 12932 net.cpp:148] Top shape: 24 288 14 14 (1354752)
I0403 14:13:15.894186 12932 net.cpp:156] Memory required for data: 1126235424
I0403 14:13:15.894203 12932 layer_factory.hpp:77] Creating layer inception_4d/relu_3x3
I0403 14:13:15.894222 12932 net.cpp:91] Creating Layer inception_4d/relu_3x3
I0403 14:13:15.894237 12932 net.cpp:425] inception_4d/relu_3x3 <- inception_4d/3x3
I0403 14:13:15.894256 12932 net.cpp:386] inception_4d/relu_3x3 -> inception_4d/3x3 (in-place)
I0403 14:13:15.894440 12932 net.cpp:141] Setting up inception_4d/relu_3x3
I0403 14:13:15.894464 12932 net.cpp:148] Top shape: 24 288 14 14 (1354752)
I0403 14:13:15.894479 12932 net.cpp:156] Memory required for data: 1131654432
I0403 14:13:15.894492 12932 layer_factory.hpp:77] Creating layer inception_4d/5x5_reduce
I0403 14:13:15.894526 12932 net.cpp:91] Creating Layer inception_4d/5x5_reduce
I0403 14:13:15.894546 12932 net.cpp:425] inception_4d/5x5_reduce <- inception_4c/output_inception_4c/output_0_split_2
I0403 14:13:15.894567 12932 net.cpp:399] inception_4d/5x5_reduce -> inception_4d/5x5_reduce
I0403 14:13:15.895722 12932 net.cpp:141] Setting up inception_4d/5x5_reduce
I0403 14:13:15.895750 12932 net.cpp:148] Top shape: 24 32 14 14 (150528)
I0403 14:13:15.895766 12932 net.cpp:156] Memory required for data: 1132256544
I0403 14:13:15.895783 12932 layer_factory.hpp:77] Creating layer inception_4d/relu_5x5_reduce
I0403 14:13:15.895802 12932 net.cpp:91] Creating Layer inception_4d/relu_5x5_reduce
I0403 14:13:15.895817 12932 net.cpp:425] inception_4d/relu_5x5_reduce <- inception_4d/5x5_reduce
I0403 14:13:15.895836 12932 net.cpp:386] inception_4d/relu_5x5_reduce -> inception_4d/5x5_reduce (in-place)
I0403 14:13:15.896025 12932 net.cpp:141] Setting up inception_4d/relu_5x5_reduce
I0403 14:13:15.896050 12932 net.cpp:148] Top shape: 24 32 14 14 (150528)
I0403 14:13:15.896064 12932 net.cpp:156] Memory required for data: 1132858656
I0403 14:13:15.896078 12932 layer_factory.hpp:77] Creating layer inception_4d/5x5
I0403 14:13:15.896100 12932 net.cpp:91] Creating Layer inception_4d/5x5
I0403 14:13:15.896117 12932 net.cpp:425] inception_4d/5x5 <- inception_4d/5x5_reduce
I0403 14:13:15.896137 12932 net.cpp:399] inception_4d/5x5 -> inception_4d/5x5
I0403 14:13:15.897614 12932 net.cpp:141] Setting up inception_4d/5x5
I0403 14:13:15.897642 12932 net.cpp:148] Top shape: 24 64 14 14 (301056)
I0403 14:13:15.897657 12932 net.cpp:156] Memory required for data: 1134062880
I0403 14:13:15.897675 12932 layer_factory.hpp:77] Creating layer inception_4d/relu_5x5
I0403 14:13:15.897711 12932 net.cpp:91] Creating Layer inception_4d/relu_5x5
I0403 14:13:15.897728 12932 net.cpp:425] inception_4d/relu_5x5 <- inception_4d/5x5
I0403 14:13:15.897745 12932 net.cpp:386] inception_4d/relu_5x5 -> inception_4d/5x5 (in-place)
I0403 14:13:15.898046 12932 net.cpp:141] Setting up inception_4d/relu_5x5
I0403 14:13:15.898072 12932 net.cpp:148] Top shape: 24 64 14 14 (301056)
I0403 14:13:15.898087 12932 net.cpp:156] Memory required for data: 1135267104
I0403 14:13:15.898100 12932 layer_factory.hpp:77] Creating layer inception_4d/pool
I0403 14:13:15.898119 12932 net.cpp:91] Creating Layer inception_4d/pool
I0403 14:13:15.898136 12932 net.cpp:425] inception_4d/pool <- inception_4c/output_inception_4c/output_0_split_3
I0403 14:13:15.898154 12932 net.cpp:399] inception_4d/pool -> inception_4d/pool
I0403 14:13:15.898221 12932 net.cpp:141] Setting up inception_4d/pool
I0403 14:13:15.898244 12932 net.cpp:148] Top shape: 24 512 14 14 (2408448)
I0403 14:13:15.898262 12932 net.cpp:156] Memory required for data: 1144900896
I0403 14:13:15.898275 12932 layer_factory.hpp:77] Creating layer inception_4d/pool_proj
I0403 14:13:15.898296 12932 net.cpp:91] Creating Layer inception_4d/pool_proj
I0403 14:13:15.898313 12932 net.cpp:425] inception_4d/pool_proj <- inception_4d/pool
I0403 14:13:15.898334 12932 net.cpp:399] inception_4d/pool_proj -> inception_4d/pool_proj
I0403 14:13:15.900102 12932 net.cpp:141] Setting up inception_4d/pool_proj
I0403 14:13:15.900131 12932 net.cpp:148] Top shape: 24 64 14 14 (301056)
I0403 14:13:15.900146 12932 net.cpp:156] Memory required for data: 1146105120
I0403 14:13:15.900164 12932 layer_factory.hpp:77] Creating layer inception_4d/relu_pool_proj
I0403 14:13:15.900183 12932 net.cpp:91] Creating Layer inception_4d/relu_pool_proj
I0403 14:13:15.900200 12932 net.cpp:425] inception_4d/relu_pool_proj <- inception_4d/pool_proj
I0403 14:13:15.900219 12932 net.cpp:386] inception_4d/relu_pool_proj -> inception_4d/pool_proj (in-place)
I0403 14:13:15.900404 12932 net.cpp:141] Setting up inception_4d/relu_pool_proj
I0403 14:13:15.900429 12932 net.cpp:148] Top shape: 24 64 14 14 (301056)
I0403 14:13:15.900444 12932 net.cpp:156] Memory required for data: 1147309344
I0403 14:13:15.900457 12932 layer_factory.hpp:77] Creating layer inception_4d/output
I0403 14:13:15.900475 12932 net.cpp:91] Creating Layer inception_4d/output
I0403 14:13:15.900490 12932 net.cpp:425] inception_4d/output <- inception_4d/1x1
I0403 14:13:15.900527 12932 net.cpp:425] inception_4d/output <- inception_4d/3x3
I0403 14:13:15.900547 12932 net.cpp:425] inception_4d/output <- inception_4d/5x5
I0403 14:13:15.900564 12932 net.cpp:425] inception_4d/output <- inception_4d/pool_proj
I0403 14:13:15.900593 12932 net.cpp:399] inception_4d/output -> inception_4d/output
I0403 14:13:15.900645 12932 net.cpp:141] Setting up inception_4d/output
I0403 14:13:15.900670 12932 net.cpp:148] Top shape: 24 528 14 14 (2483712)
I0403 14:13:15.900686 12932 net.cpp:156] Memory required for data: 1157244192
I0403 14:13:15.900701 12932 layer_factory.hpp:77] Creating layer inception_4d/output_inception_4d/output_0_split
I0403 14:13:15.900718 12932 net.cpp:91] Creating Layer inception_4d/output_inception_4d/output_0_split
I0403 14:13:15.900734 12932 net.cpp:425] inception_4d/output_inception_4d/output_0_split <- inception_4d/output
I0403 14:13:15.900756 12932 net.cpp:399] inception_4d/output_inception_4d/output_0_split -> inception_4d/output_inception_4d/output_0_split_0
I0403 14:13:15.900779 12932 net.cpp:399] inception_4d/output_inception_4d/output_0_split -> inception_4d/output_inception_4d/output_0_split_1
I0403 14:13:15.900800 12932 net.cpp:399] inception_4d/output_inception_4d/output_0_split -> inception_4d/output_inception_4d/output_0_split_2
I0403 14:13:15.900821 12932 net.cpp:399] inception_4d/output_inception_4d/output_0_split -> inception_4d/output_inception_4d/output_0_split_3
I0403 14:13:15.900841 12932 net.cpp:399] inception_4d/output_inception_4d/output_0_split -> inception_4d/output_inception_4d/output_0_split_4
I0403 14:13:15.900959 12932 net.cpp:141] Setting up inception_4d/output_inception_4d/output_0_split
I0403 14:13:15.900996 12932 net.cpp:148] Top shape: 24 528 14 14 (2483712)
I0403 14:13:15.901013 12932 net.cpp:148] Top shape: 24 528 14 14 (2483712)
I0403 14:13:15.901029 12932 net.cpp:148] Top shape: 24 528 14 14 (2483712)
I0403 14:13:15.901044 12932 net.cpp:148] Top shape: 24 528 14 14 (2483712)
I0403 14:13:15.901059 12932 net.cpp:148] Top shape: 24 528 14 14 (2483712)
I0403 14:13:15.901073 12932 net.cpp:156] Memory required for data: 1206918432
I0403 14:13:15.901087 12932 layer_factory.hpp:77] Creating layer loss2/ave_pool
I0403 14:13:15.901105 12932 net.cpp:91] Creating Layer loss2/ave_pool
I0403 14:13:15.901121 12932 net.cpp:425] loss2/ave_pool <- inception_4d/output_inception_4d/output_0_split_0
I0403 14:13:15.901142 12932 net.cpp:399] loss2/ave_pool -> loss2/ave_pool
I0403 14:13:15.901464 12932 net.cpp:141] Setting up loss2/ave_pool
I0403 14:13:15.901491 12932 net.cpp:148] Top shape: 24 528 4 4 (202752)
I0403 14:13:15.901511 12932 net.cpp:156] Memory required for data: 1207729440
I0403 14:13:15.901528 12932 layer_factory.hpp:77] Creating layer loss2/conv
I0403 14:13:15.901552 12932 net.cpp:91] Creating Layer loss2/conv
I0403 14:13:15.901571 12932 net.cpp:425] loss2/conv <- loss2/ave_pool
I0403 14:13:15.901592 12932 net.cpp:399] loss2/conv -> loss2/conv
I0403 14:13:15.903547 12932 net.cpp:141] Setting up loss2/conv
I0403 14:13:15.903578 12932 net.cpp:148] Top shape: 24 128 4 4 (49152)
I0403 14:13:15.903594 12932 net.cpp:156] Memory required for data: 1207926048
I0403 14:13:15.903612 12932 layer_factory.hpp:77] Creating layer loss2/relu_conv
I0403 14:13:15.903633 12932 net.cpp:91] Creating Layer loss2/relu_conv
I0403 14:13:15.903652 12932 net.cpp:425] loss2/relu_conv <- loss2/conv
I0403 14:13:15.903671 12932 net.cpp:386] loss2/relu_conv -> loss2/conv (in-place)
I0403 14:13:15.903970 12932 net.cpp:141] Setting up loss2/relu_conv
I0403 14:13:15.903996 12932 net.cpp:148] Top shape: 24 128 4 4 (49152)
I0403 14:13:15.904012 12932 net.cpp:156] Memory required for data: 1208122656
I0403 14:13:15.904027 12932 layer_factory.hpp:77] Creating layer loss2/fc
I0403 14:13:15.904048 12932 net.cpp:91] Creating Layer loss2/fc
I0403 14:13:15.904067 12932 net.cpp:425] loss2/fc <- loss2/conv
I0403 14:13:15.904088 12932 net.cpp:399] loss2/fc -> loss2/fc
I0403 14:13:15.922201 12932 net.cpp:141] Setting up loss2/fc
I0403 14:13:15.922237 12932 net.cpp:148] Top shape: 24 1024 (24576)
I0403 14:13:15.922253 12932 net.cpp:156] Memory required for data: 1208220960
I0403 14:13:15.922273 12932 layer_factory.hpp:77] Creating layer loss2/relu_fc
I0403 14:13:15.922292 12932 net.cpp:91] Creating Layer loss2/relu_fc
I0403 14:13:15.922312 12932 net.cpp:425] loss2/relu_fc <- loss2/fc
I0403 14:13:15.922333 12932 net.cpp:386] loss2/relu_fc -> loss2/fc (in-place)
I0403 14:13:15.922691 12932 net.cpp:141] Setting up loss2/relu_fc
I0403 14:13:15.922716 12932 net.cpp:148] Top shape: 24 1024 (24576)
I0403 14:13:15.922731 12932 net.cpp:156] Memory required for data: 1208319264
I0403 14:13:15.922745 12932 layer_factory.hpp:77] Creating layer loss2/drop_fc
I0403 14:13:15.922763 12932 net.cpp:91] Creating Layer loss2/drop_fc
I0403 14:13:15.922778 12932 net.cpp:425] loss2/drop_fc <- loss2/fc
I0403 14:13:15.922796 12932 net.cpp:386] loss2/drop_fc -> loss2/fc (in-place)
I0403 14:13:15.922845 12932 net.cpp:141] Setting up loss2/drop_fc
I0403 14:13:15.922871 12932 net.cpp:148] Top shape: 24 1024 (24576)
I0403 14:13:15.922886 12932 net.cpp:156] Memory required for data: 1208417568
I0403 14:13:15.922901 12932 layer_factory.hpp:77] Creating layer loss2/classifier_plantvillage
I0403 14:13:15.922919 12932 net.cpp:91] Creating Layer loss2/classifier_plantvillage
I0403 14:13:15.922935 12932 net.cpp:425] loss2/classifier_plantvillage <- loss2/fc
I0403 14:13:15.922955 12932 net.cpp:399] loss2/classifier_plantvillage -> loss2/classifier_plantvillage
I0403 14:13:15.923357 12932 net.cpp:141] Setting up loss2/classifier_plantvillage
I0403 14:13:15.923382 12932 net.cpp:148] Top shape: 24 38 (912)
I0403 14:13:15.923416 12932 net.cpp:156] Memory required for data: 1208421216
I0403 14:13:15.923434 12932 layer_factory.hpp:77] Creating layer loss2/classifier_plantvillage_loss2/classifier_plantvillage_0_split
I0403 14:13:15.923455 12932 net.cpp:91] Creating Layer loss2/classifier_plantvillage_loss2/classifier_plantvillage_0_split
I0403 14:13:15.923471 12932 net.cpp:425] loss2/classifier_plantvillage_loss2/classifier_plantvillage_0_split <- loss2/classifier_plantvillage
I0403 14:13:15.923488 12932 net.cpp:399] loss2/classifier_plantvillage_loss2/classifier_plantvillage_0_split -> loss2/classifier_plantvillage_loss2/classifier_plantvillage_0_split_0
I0403 14:13:15.923514 12932 net.cpp:399] loss2/classifier_plantvillage_loss2/classifier_plantvillage_0_split -> loss2/classifier_plantvillage_loss2/classifier_plantvillage_0_split_1
I0403 14:13:15.923537 12932 net.cpp:399] loss2/classifier_plantvillage_loss2/classifier_plantvillage_0_split -> loss2/classifier_plantvillage_loss2/classifier_plantvillage_0_split_2
I0403 14:13:15.923614 12932 net.cpp:141] Setting up loss2/classifier_plantvillage_loss2/classifier_plantvillage_0_split
I0403 14:13:15.923636 12932 net.cpp:148] Top shape: 24 38 (912)
I0403 14:13:15.923652 12932 net.cpp:148] Top shape: 24 38 (912)
I0403 14:13:15.923666 12932 net.cpp:148] Top shape: 24 38 (912)
I0403 14:13:15.923678 12932 net.cpp:156] Memory required for data: 1208432160
I0403 14:13:15.923691 12932 layer_factory.hpp:77] Creating layer inception_4e/1x1
I0403 14:13:15.923715 12932 net.cpp:91] Creating Layer inception_4e/1x1
I0403 14:13:15.923733 12932 net.cpp:425] inception_4e/1x1 <- inception_4d/output_inception_4d/output_0_split_1
I0403 14:13:15.923751 12932 net.cpp:399] inception_4e/1x1 -> inception_4e/1x1
I0403 14:13:15.925613 12932 net.cpp:141] Setting up inception_4e/1x1
I0403 14:13:15.925642 12932 net.cpp:148] Top shape: 24 256 14 14 (1204224)
I0403 14:13:15.925662 12932 net.cpp:156] Memory required for data: 1213249056
I0403 14:13:15.925680 12932 layer_factory.hpp:77] Creating layer inception_4e/relu_1x1
I0403 14:13:15.925698 12932 net.cpp:91] Creating Layer inception_4e/relu_1x1
I0403 14:13:15.925714 12932 net.cpp:425] inception_4e/relu_1x1 <- inception_4e/1x1
I0403 14:13:15.925730 12932 net.cpp:386] inception_4e/relu_1x1 -> inception_4e/1x1 (in-place)
I0403 14:13:15.926038 12932 net.cpp:141] Setting up inception_4e/relu_1x1
I0403 14:13:15.926061 12932 net.cpp:148] Top shape: 24 256 14 14 (1204224)
I0403 14:13:15.926080 12932 net.cpp:156] Memory required for data: 1218065952
I0403 14:13:15.926095 12932 layer_factory.hpp:77] Creating layer inception_4e/3x3_reduce
I0403 14:13:15.926113 12932 net.cpp:91] Creating Layer inception_4e/3x3_reduce
I0403 14:13:15.926129 12932 net.cpp:425] inception_4e/3x3_reduce <- inception_4d/output_inception_4d/output_0_split_2
I0403 14:13:15.926149 12932 net.cpp:399] inception_4e/3x3_reduce -> inception_4e/3x3_reduce
I0403 14:13:15.928272 12932 net.cpp:141] Setting up inception_4e/3x3_reduce
I0403 14:13:15.928300 12932 net.cpp:148] Top shape: 24 160 14 14 (752640)
I0403 14:13:15.928315 12932 net.cpp:156] Memory required for data: 1221076512
I0403 14:13:15.928333 12932 layer_factory.hpp:77] Creating layer inception_4e/relu_3x3_reduce
I0403 14:13:15.928352 12932 net.cpp:91] Creating Layer inception_4e/relu_3x3_reduce
I0403 14:13:15.928369 12932 net.cpp:425] inception_4e/relu_3x3_reduce <- inception_4e/3x3_reduce
I0403 14:13:15.928385 12932 net.cpp:386] inception_4e/relu_3x3_reduce -> inception_4e/3x3_reduce (in-place)
I0403 14:13:15.928570 12932 net.cpp:141] Setting up inception_4e/relu_3x3_reduce
I0403 14:13:15.928596 12932 net.cpp:148] Top shape: 24 160 14 14 (752640)
I0403 14:13:15.928611 12932 net.cpp:156] Memory required for data: 1224087072
I0403 14:13:15.928638 12932 layer_factory.hpp:77] Creating layer inception_4e/3x3
I0403 14:13:15.928661 12932 net.cpp:91] Creating Layer inception_4e/3x3
I0403 14:13:15.928678 12932 net.cpp:425] inception_4e/3x3 <- inception_4e/3x3_reduce
I0403 14:13:15.928696 12932 net.cpp:399] inception_4e/3x3 -> inception_4e/3x3
I0403 14:13:15.933688 12932 net.cpp:141] Setting up inception_4e/3x3
I0403 14:13:15.933732 12932 net.cpp:148] Top shape: 24 320 14 14 (1505280)
I0403 14:13:15.933749 12932 net.cpp:156] Memory required for data: 1230108192
I0403 14:13:15.933768 12932 layer_factory.hpp:77] Creating layer inception_4e/relu_3x3
I0403 14:13:15.933785 12932 net.cpp:91] Creating Layer inception_4e/relu_3x3
I0403 14:13:15.933801 12932 net.cpp:425] inception_4e/relu_3x3 <- inception_4e/3x3
I0403 14:13:15.933818 12932 net.cpp:386] inception_4e/relu_3x3 -> inception_4e/3x3 (in-place)
I0403 14:13:15.934134 12932 net.cpp:141] Setting up inception_4e/relu_3x3
I0403 14:13:15.934159 12932 net.cpp:148] Top shape: 24 320 14 14 (1505280)
I0403 14:13:15.934173 12932 net.cpp:156] Memory required for data: 1236129312
I0403 14:13:15.934188 12932 layer_factory.hpp:77] Creating layer inception_4e/5x5_reduce
I0403 14:13:15.934211 12932 net.cpp:91] Creating Layer inception_4e/5x5_reduce
I0403 14:13:15.934228 12932 net.cpp:425] inception_4e/5x5_reduce <- inception_4d/output_inception_4d/output_0_split_3
I0403 14:13:15.934249 12932 net.cpp:399] inception_4e/5x5_reduce -> inception_4e/5x5_reduce
I0403 14:13:15.935328 12932 net.cpp:141] Setting up inception_4e/5x5_reduce
I0403 14:13:15.935356 12932 net.cpp:148] Top shape: 24 32 14 14 (150528)
I0403 14:13:15.935371 12932 net.cpp:156] Memory required for data: 1236731424
I0403 14:13:15.935389 12932 layer_factory.hpp:77] Creating layer inception_4e/relu_5x5_reduce
I0403 14:13:15.935410 12932 net.cpp:91] Creating Layer inception_4e/relu_5x5_reduce
I0403 14:13:15.935425 12932 net.cpp:425] inception_4e/relu_5x5_reduce <- inception_4e/5x5_reduce
I0403 14:13:15.935442 12932 net.cpp:386] inception_4e/relu_5x5_reduce -> inception_4e/5x5_reduce (in-place)
I0403 14:13:15.935750 12932 net.cpp:141] Setting up inception_4e/relu_5x5_reduce
I0403 14:13:15.935776 12932 net.cpp:148] Top shape: 24 32 14 14 (150528)
I0403 14:13:15.935791 12932 net.cpp:156] Memory required for data: 1237333536
I0403 14:13:15.935804 12932 layer_factory.hpp:77] Creating layer inception_4e/5x5
I0403 14:13:15.935844 12932 net.cpp:91] Creating Layer inception_4e/5x5
I0403 14:13:15.935863 12932 net.cpp:425] inception_4e/5x5 <- inception_4e/5x5_reduce
I0403 14:13:15.935883 12932 net.cpp:399] inception_4e/5x5 -> inception_4e/5x5
I0403 14:13:15.937750 12932 net.cpp:141] Setting up inception_4e/5x5
I0403 14:13:15.937778 12932 net.cpp:148] Top shape: 24 128 14 14 (602112)
I0403 14:13:15.937794 12932 net.cpp:156] Memory required for data: 1239741984
I0403 14:13:15.937813 12932 layer_factory.hpp:77] Creating layer inception_4e/relu_5x5
I0403 14:13:15.937834 12932 net.cpp:91] Creating Layer inception_4e/relu_5x5
I0403 14:13:15.937850 12932 net.cpp:425] inception_4e/relu_5x5 <- inception_4e/5x5
I0403 14:13:15.937866 12932 net.cpp:386] inception_4e/relu_5x5 -> inception_4e/5x5 (in-place)
I0403 14:13:15.938060 12932 net.cpp:141] Setting up inception_4e/relu_5x5
I0403 14:13:15.938086 12932 net.cpp:148] Top shape: 24 128 14 14 (602112)
I0403 14:13:15.938099 12932 net.cpp:156] Memory required for data: 1242150432
I0403 14:13:15.938113 12932 layer_factory.hpp:77] Creating layer inception_4e/pool
I0403 14:13:15.938134 12932 net.cpp:91] Creating Layer inception_4e/pool
I0403 14:13:15.938151 12932 net.cpp:425] inception_4e/pool <- inception_4d/output_inception_4d/output_0_split_4
I0403 14:13:15.938169 12932 net.cpp:399] inception_4e/pool -> inception_4e/pool
I0403 14:13:15.938241 12932 net.cpp:141] Setting up inception_4e/pool
I0403 14:13:15.938264 12932 net.cpp:148] Top shape: 24 528 14 14 (2483712)
I0403 14:13:15.938278 12932 net.cpp:156] Memory required for data: 1252085280
I0403 14:13:15.938292 12932 layer_factory.hpp:77] Creating layer inception_4e/pool_proj
I0403 14:13:15.938314 12932 net.cpp:91] Creating Layer inception_4e/pool_proj
I0403 14:13:15.938331 12932 net.cpp:425] inception_4e/pool_proj <- inception_4e/pool
I0403 14:13:15.938351 12932 net.cpp:399] inception_4e/pool_proj -> inception_4e/pool_proj
I0403 14:13:15.939846 12932 net.cpp:141] Setting up inception_4e/pool_proj
I0403 14:13:15.939883 12932 net.cpp:148] Top shape: 24 128 14 14 (602112)
I0403 14:13:15.939899 12932 net.cpp:156] Memory required for data: 1254493728
I0403 14:13:15.939918 12932 layer_factory.hpp:77] Creating layer inception_4e/relu_pool_proj
I0403 14:13:15.939934 12932 net.cpp:91] Creating Layer inception_4e/relu_pool_proj
I0403 14:13:15.939954 12932 net.cpp:425] inception_4e/relu_pool_proj <- inception_4e/pool_proj
I0403 14:13:15.939970 12932 net.cpp:386] inception_4e/relu_pool_proj -> inception_4e/pool_proj (in-place)
I0403 14:13:15.940268 12932 net.cpp:141] Setting up inception_4e/relu_pool_proj
I0403 14:13:15.940294 12932 net.cpp:148] Top shape: 24 128 14 14 (602112)
I0403 14:13:15.940310 12932 net.cpp:156] Memory required for data: 1256902176
I0403 14:13:15.940323 12932 layer_factory.hpp:77] Creating layer inception_4e/output
I0403 14:13:15.940340 12932 net.cpp:91] Creating Layer inception_4e/output
I0403 14:13:15.940356 12932 net.cpp:425] inception_4e/output <- inception_4e/1x1
I0403 14:13:15.940371 12932 net.cpp:425] inception_4e/output <- inception_4e/3x3
I0403 14:13:15.940387 12932 net.cpp:425] inception_4e/output <- inception_4e/5x5
I0403 14:13:15.940402 12932 net.cpp:425] inception_4e/output <- inception_4e/pool_proj
I0403 14:13:15.940421 12932 net.cpp:399] inception_4e/output -> inception_4e/output
I0403 14:13:15.940470 12932 net.cpp:141] Setting up inception_4e/output
I0403 14:13:15.940495 12932 net.cpp:148] Top shape: 24 832 14 14 (3913728)
I0403 14:13:15.940515 12932 net.cpp:156] Memory required for data: 1272557088
I0403 14:13:15.940531 12932 layer_factory.hpp:77] Creating layer pool4/3x3_s2
I0403 14:13:15.940547 12932 net.cpp:91] Creating Layer pool4/3x3_s2
I0403 14:13:15.940563 12932 net.cpp:425] pool4/3x3_s2 <- inception_4e/output
I0403 14:13:15.940584 12932 net.cpp:399] pool4/3x3_s2 -> pool4/3x3_s2
I0403 14:13:15.940650 12932 net.cpp:141] Setting up pool4/3x3_s2
I0403 14:13:15.940673 12932 net.cpp:148] Top shape: 24 832 7 7 (978432)
I0403 14:13:15.940688 12932 net.cpp:156] Memory required for data: 1276470816
I0403 14:13:15.940702 12932 layer_factory.hpp:77] Creating layer pool4/3x3_s2_pool4/3x3_s2_0_split
I0403 14:13:15.940722 12932 net.cpp:91] Creating Layer pool4/3x3_s2_pool4/3x3_s2_0_split
I0403 14:13:15.940738 12932 net.cpp:425] pool4/3x3_s2_pool4/3x3_s2_0_split <- pool4/3x3_s2
I0403 14:13:15.940755 12932 net.cpp:399] pool4/3x3_s2_pool4/3x3_s2_0_split -> pool4/3x3_s2_pool4/3x3_s2_0_split_0
I0403 14:13:15.940774 12932 net.cpp:399] pool4/3x3_s2_pool4/3x3_s2_0_split -> pool4/3x3_s2_pool4/3x3_s2_0_split_1
I0403 14:13:15.940794 12932 net.cpp:399] pool4/3x3_s2_pool4/3x3_s2_0_split -> pool4/3x3_s2_pool4/3x3_s2_0_split_2
I0403 14:13:15.940814 12932 net.cpp:399] pool4/3x3_s2_pool4/3x3_s2_0_split -> pool4/3x3_s2_pool4/3x3_s2_0_split_3
I0403 14:13:15.940906 12932 net.cpp:141] Setting up pool4/3x3_s2_pool4/3x3_s2_0_split
I0403 14:13:15.940927 12932 net.cpp:148] Top shape: 24 832 7 7 (978432)
I0403 14:13:15.940943 12932 net.cpp:148] Top shape: 24 832 7 7 (978432)
I0403 14:13:15.940958 12932 net.cpp:148] Top shape: 24 832 7 7 (978432)
I0403 14:13:15.940973 12932 net.cpp:148] Top shape: 24 832 7 7 (978432)
I0403 14:13:15.940986 12932 net.cpp:156] Memory required for data: 1292125728
I0403 14:13:15.940999 12932 layer_factory.hpp:77] Creating layer inception_5a/1x1
I0403 14:13:15.941021 12932 net.cpp:91] Creating Layer inception_5a/1x1
I0403 14:13:15.941040 12932 net.cpp:425] inception_5a/1x1 <- pool4/3x3_s2_pool4/3x3_s2_0_split_0
I0403 14:13:15.941061 12932 net.cpp:399] inception_5a/1x1 -> inception_5a/1x1
I0403 14:13:15.943925 12932 net.cpp:141] Setting up inception_5a/1x1
I0403 14:13:15.943954 12932 net.cpp:148] Top shape: 24 256 7 7 (301056)
I0403 14:13:15.943969 12932 net.cpp:156] Memory required for data: 1293329952
I0403 14:13:15.943987 12932 layer_factory.hpp:77] Creating layer inception_5a/relu_1x1
I0403 14:13:15.944007 12932 net.cpp:91] Creating Layer inception_5a/relu_1x1
I0403 14:13:15.944025 12932 net.cpp:425] inception_5a/relu_1x1 <- inception_5a/1x1
I0403 14:13:15.944042 12932 net.cpp:386] inception_5a/relu_1x1 -> inception_5a/1x1 (in-place)
I0403 14:13:15.944355 12932 net.cpp:141] Setting up inception_5a/relu_1x1
I0403 14:13:15.944381 12932 net.cpp:148] Top shape: 24 256 7 7 (301056)
I0403 14:13:15.944396 12932 net.cpp:156] Memory required for data: 1294534176
I0403 14:13:15.944412 12932 layer_factory.hpp:77] Creating layer inception_5a/3x3_reduce
I0403 14:13:15.944434 12932 net.cpp:91] Creating Layer inception_5a/3x3_reduce
I0403 14:13:15.944453 12932 net.cpp:425] inception_5a/3x3_reduce <- pool4/3x3_s2_pool4/3x3_s2_0_split_1
I0403 14:13:15.944473 12932 net.cpp:399] inception_5a/3x3_reduce -> inception_5a/3x3_reduce
I0403 14:13:15.947191 12932 net.cpp:141] Setting up inception_5a/3x3_reduce
I0403 14:13:15.947223 12932 net.cpp:148] Top shape: 24 160 7 7 (188160)
I0403 14:13:15.947240 12932 net.cpp:156] Memory required for data: 1295286816
I0403 14:13:15.947258 12932 layer_factory.hpp:77] Creating layer inception_5a/relu_3x3_reduce
I0403 14:13:15.947276 12932 net.cpp:91] Creating Layer inception_5a/relu_3x3_reduce
I0403 14:13:15.947293 12932 net.cpp:425] inception_5a/relu_3x3_reduce <- inception_5a/3x3_reduce
I0403 14:13:15.947312 12932 net.cpp:386] inception_5a/relu_3x3_reduce -> inception_5a/3x3_reduce (in-place)
I0403 14:13:15.947502 12932 net.cpp:141] Setting up inception_5a/relu_3x3_reduce
I0403 14:13:15.947531 12932 net.cpp:148] Top shape: 24 160 7 7 (188160)
I0403 14:13:15.947546 12932 net.cpp:156] Memory required for data: 1296039456
I0403 14:13:15.947561 12932 layer_factory.hpp:77] Creating layer inception_5a/3x3
I0403 14:13:15.947582 12932 net.cpp:91] Creating Layer inception_5a/3x3
I0403 14:13:15.947600 12932 net.cpp:425] inception_5a/3x3 <- inception_5a/3x3_reduce
I0403 14:13:15.947621 12932 net.cpp:399] inception_5a/3x3 -> inception_5a/3x3
I0403 14:13:15.952680 12932 net.cpp:141] Setting up inception_5a/3x3
I0403 14:13:15.952709 12932 net.cpp:148] Top shape: 24 320 7 7 (376320)
I0403 14:13:15.952724 12932 net.cpp:156] Memory required for data: 1297544736
I0403 14:13:15.952741 12932 layer_factory.hpp:77] Creating layer inception_5a/relu_3x3
I0403 14:13:15.952761 12932 net.cpp:91] Creating Layer inception_5a/relu_3x3
I0403 14:13:15.952778 12932 net.cpp:425] inception_5a/relu_3x3 <- inception_5a/3x3
I0403 14:13:15.952795 12932 net.cpp:386] inception_5a/relu_3x3 -> inception_5a/3x3 (in-place)
I0403 14:13:15.953083 12932 net.cpp:141] Setting up inception_5a/relu_3x3
I0403 14:13:15.953109 12932 net.cpp:148] Top shape: 24 320 7 7 (376320)
I0403 14:13:15.953124 12932 net.cpp:156] Memory required for data: 1299050016
I0403 14:13:15.953137 12932 layer_factory.hpp:77] Creating layer inception_5a/5x5_reduce
I0403 14:13:15.953160 12932 net.cpp:91] Creating Layer inception_5a/5x5_reduce
I0403 14:13:15.953176 12932 net.cpp:425] inception_5a/5x5_reduce <- pool4/3x3_s2_pool4/3x3_s2_0_split_2
I0403 14:13:15.953197 12932 net.cpp:399] inception_5a/5x5_reduce -> inception_5a/5x5_reduce
I0403 14:13:15.954380 12932 net.cpp:141] Setting up inception_5a/5x5_reduce
I0403 14:13:15.954408 12932 net.cpp:148] Top shape: 24 32 7 7 (37632)
I0403 14:13:15.954423 12932 net.cpp:156] Memory required for data: 1299200544
I0403 14:13:15.954440 12932 layer_factory.hpp:77] Creating layer inception_5a/relu_5x5_reduce
I0403 14:13:15.954459 12932 net.cpp:91] Creating Layer inception_5a/relu_5x5_reduce
I0403 14:13:15.954476 12932 net.cpp:425] inception_5a/relu_5x5_reduce <- inception_5a/5x5_reduce
I0403 14:13:15.954493 12932 net.cpp:386] inception_5a/relu_5x5_reduce -> inception_5a/5x5_reduce (in-place)
I0403 14:13:15.954798 12932 net.cpp:141] Setting up inception_5a/relu_5x5_reduce
I0403 14:13:15.954824 12932 net.cpp:148] Top shape: 24 32 7 7 (37632)
I0403 14:13:15.954839 12932 net.cpp:156] Memory required for data: 1299351072
I0403 14:13:15.954854 12932 layer_factory.hpp:77] Creating layer inception_5a/5x5
I0403 14:13:15.954874 12932 net.cpp:91] Creating Layer inception_5a/5x5
I0403 14:13:15.954891 12932 net.cpp:425] inception_5a/5x5 <- inception_5a/5x5_reduce
I0403 14:13:15.954912 12932 net.cpp:399] inception_5a/5x5 -> inception_5a/5x5
I0403 14:13:15.956641 12932 net.cpp:141] Setting up inception_5a/5x5
I0403 14:13:15.956681 12932 net.cpp:148] Top shape: 24 128 7 7 (150528)
I0403 14:13:15.956696 12932 net.cpp:156] Memory required for data: 1299953184
I0403 14:13:15.956714 12932 layer_factory.hpp:77] Creating layer inception_5a/relu_5x5
I0403 14:13:15.956734 12932 net.cpp:91] Creating Layer inception_5a/relu_5x5
I0403 14:13:15.956750 12932 net.cpp:425] inception_5a/relu_5x5 <- inception_5a/5x5
I0403 14:13:15.956768 12932 net.cpp:386] inception_5a/relu_5x5 -> inception_5a/5x5 (in-place)
I0403 14:13:15.956951 12932 net.cpp:141] Setting up inception_5a/relu_5x5
I0403 14:13:15.956975 12932 net.cpp:148] Top shape: 24 128 7 7 (150528)
I0403 14:13:15.956990 12932 net.cpp:156] Memory required for data: 1300555296
I0403 14:13:15.957003 12932 layer_factory.hpp:77] Creating layer inception_5a/pool
I0403 14:13:15.957034 12932 net.cpp:91] Creating Layer inception_5a/pool
I0403 14:13:15.957051 12932 net.cpp:425] inception_5a/pool <- pool4/3x3_s2_pool4/3x3_s2_0_split_3
I0403 14:13:15.957070 12932 net.cpp:399] inception_5a/pool -> inception_5a/pool
I0403 14:13:15.957142 12932 net.cpp:141] Setting up inception_5a/pool
I0403 14:13:15.957165 12932 net.cpp:148] Top shape: 24 832 7 7 (978432)
I0403 14:13:15.957180 12932 net.cpp:156] Memory required for data: 1304469024
I0403 14:13:15.957193 12932 layer_factory.hpp:77] Creating layer inception_5a/pool_proj
I0403 14:13:15.957216 12932 net.cpp:91] Creating Layer inception_5a/pool_proj
I0403 14:13:15.957232 12932 net.cpp:425] inception_5a/pool_proj <- inception_5a/pool
I0403 14:13:15.957253 12932 net.cpp:399] inception_5a/pool_proj -> inception_5a/pool_proj
I0403 14:13:15.959638 12932 net.cpp:141] Setting up inception_5a/pool_proj
I0403 14:13:15.959668 12932 net.cpp:148] Top shape: 24 128 7 7 (150528)
I0403 14:13:15.959686 12932 net.cpp:156] Memory required for data: 1305071136
I0403 14:13:15.959703 12932 layer_factory.hpp:77] Creating layer inception_5a/relu_pool_proj
I0403 14:13:15.959722 12932 net.cpp:91] Creating Layer inception_5a/relu_pool_proj
I0403 14:13:15.959739 12932 net.cpp:425] inception_5a/relu_pool_proj <- inception_5a/pool_proj
I0403 14:13:15.959759 12932 net.cpp:386] inception_5a/relu_pool_proj -> inception_5a/pool_proj (in-place)
I0403 14:13:15.960067 12932 net.cpp:141] Setting up inception_5a/relu_pool_proj
I0403 14:13:15.960094 12932 net.cpp:148] Top shape: 24 128 7 7 (150528)
I0403 14:13:15.960109 12932 net.cpp:156] Memory required for data: 1305673248
I0403 14:13:15.960124 12932 layer_factory.hpp:77] Creating layer inception_5a/output
I0403 14:13:15.960142 12932 net.cpp:91] Creating Layer inception_5a/output
I0403 14:13:15.960157 12932 net.cpp:425] inception_5a/output <- inception_5a/1x1
I0403 14:13:15.960175 12932 net.cpp:425] inception_5a/output <- inception_5a/3x3
I0403 14:13:15.960191 12932 net.cpp:425] inception_5a/output <- inception_5a/5x5
I0403 14:13:15.960206 12932 net.cpp:425] inception_5a/output <- inception_5a/pool_proj
I0403 14:13:15.960225 12932 net.cpp:399] inception_5a/output -> inception_5a/output
I0403 14:13:15.960278 12932 net.cpp:141] Setting up inception_5a/output
I0403 14:13:15.960304 12932 net.cpp:148] Top shape: 24 832 7 7 (978432)
I0403 14:13:15.960319 12932 net.cpp:156] Memory required for data: 1309586976
I0403 14:13:15.960335 12932 layer_factory.hpp:77] Creating layer inception_5a/output_inception_5a/output_0_split
I0403 14:13:15.960351 12932 net.cpp:91] Creating Layer inception_5a/output_inception_5a/output_0_split
I0403 14:13:15.960366 12932 net.cpp:425] inception_5a/output_inception_5a/output_0_split <- inception_5a/output
I0403 14:13:15.960384 12932 net.cpp:399] inception_5a/output_inception_5a/output_0_split -> inception_5a/output_inception_5a/output_0_split_0
I0403 14:13:15.960404 12932 net.cpp:399] inception_5a/output_inception_5a/output_0_split -> inception_5a/output_inception_5a/output_0_split_1
I0403 14:13:15.960427 12932 net.cpp:399] inception_5a/output_inception_5a/output_0_split -> inception_5a/output_inception_5a/output_0_split_2
I0403 14:13:15.960449 12932 net.cpp:399] inception_5a/output_inception_5a/output_0_split -> inception_5a/output_inception_5a/output_0_split_3
I0403 14:13:15.960572 12932 net.cpp:141] Setting up inception_5a/output_inception_5a/output_0_split
I0403 14:13:15.960597 12932 net.cpp:148] Top shape: 24 832 7 7 (978432)
I0403 14:13:15.960613 12932 net.cpp:148] Top shape: 24 832 7 7 (978432)
I0403 14:13:15.960629 12932 net.cpp:148] Top shape: 24 832 7 7 (978432)
I0403 14:13:15.960644 12932 net.cpp:148] Top shape: 24 832 7 7 (978432)
I0403 14:13:15.960659 12932 net.cpp:156] Memory required for data: 1325241888
I0403 14:13:15.960674 12932 layer_factory.hpp:77] Creating layer inception_5b/1x1
I0403 14:13:15.960695 12932 net.cpp:91] Creating Layer inception_5b/1x1
I0403 14:13:15.960713 12932 net.cpp:425] inception_5b/1x1 <- inception_5a/output_inception_5a/output_0_split_0
I0403 14:13:15.960736 12932 net.cpp:399] inception_5b/1x1 -> inception_5b/1x1
I0403 14:13:15.964651 12932 net.cpp:141] Setting up inception_5b/1x1
I0403 14:13:15.964684 12932 net.cpp:148] Top shape: 24 384 7 7 (451584)
I0403 14:13:15.964700 12932 net.cpp:156] Memory required for data: 1327048224
I0403 14:13:15.964718 12932 layer_factory.hpp:77] Creating layer inception_5b/relu_1x1
I0403 14:13:15.964736 12932 net.cpp:91] Creating Layer inception_5b/relu_1x1
I0403 14:13:15.964753 12932 net.cpp:425] inception_5b/relu_1x1 <- inception_5b/1x1
I0403 14:13:15.964772 12932 net.cpp:386] inception_5b/relu_1x1 -> inception_5b/1x1 (in-place)
I0403 14:13:15.965081 12932 net.cpp:141] Setting up inception_5b/relu_1x1
I0403 14:13:15.965109 12932 net.cpp:148] Top shape: 24 384 7 7 (451584)
I0403 14:13:15.965126 12932 net.cpp:156] Memory required for data: 1328854560
I0403 14:13:15.965142 12932 layer_factory.hpp:77] Creating layer inception_5b/3x3_reduce
I0403 14:13:15.965164 12932 net.cpp:91] Creating Layer inception_5b/3x3_reduce
I0403 14:13:15.965183 12932 net.cpp:425] inception_5b/3x3_reduce <- inception_5a/output_inception_5a/output_0_split_1
I0403 14:13:15.965201 12932 net.cpp:399] inception_5b/3x3_reduce -> inception_5b/3x3_reduce
I0403 14:13:15.968008 12932 net.cpp:141] Setting up inception_5b/3x3_reduce
I0403 14:13:15.968037 12932 net.cpp:148] Top shape: 24 192 7 7 (225792)
I0403 14:13:15.968053 12932 net.cpp:156] Memory required for data: 1329757728
I0403 14:13:15.968071 12932 layer_factory.hpp:77] Creating layer inception_5b/relu_3x3_reduce
I0403 14:13:15.968089 12932 net.cpp:91] Creating Layer inception_5b/relu_3x3_reduce
I0403 14:13:15.968106 12932 net.cpp:425] inception_5b/relu_3x3_reduce <- inception_5b/3x3_reduce
I0403 14:13:15.968125 12932 net.cpp:386] inception_5b/relu_3x3_reduce -> inception_5b/3x3_reduce (in-place)
I0403 14:13:15.968317 12932 net.cpp:141] Setting up inception_5b/relu_3x3_reduce
I0403 14:13:15.968343 12932 net.cpp:148] Top shape: 24 192 7 7 (225792)
I0403 14:13:15.968356 12932 net.cpp:156] Memory required for data: 1330660896
I0403 14:13:15.968371 12932 layer_factory.hpp:77] Creating layer inception_5b/3x3
I0403 14:13:15.968392 12932 net.cpp:91] Creating Layer inception_5b/3x3
I0403 14:13:15.968410 12932 net.cpp:425] inception_5b/3x3 <- inception_5b/3x3_reduce
I0403 14:13:15.968430 12932 net.cpp:399] inception_5b/3x3 -> inception_5b/3x3
I0403 14:13:15.975394 12932 net.cpp:141] Setting up inception_5b/3x3
I0403 14:13:15.975422 12932 net.cpp:148] Top shape: 24 384 7 7 (451584)
I0403 14:13:15.975438 12932 net.cpp:156] Memory required for data: 1332467232
I0403 14:13:15.975456 12932 layer_factory.hpp:77] Creating layer inception_5b/relu_3x3
I0403 14:13:15.975473 12932 net.cpp:91] Creating Layer inception_5b/relu_3x3
I0403 14:13:15.975491 12932 net.cpp:425] inception_5b/relu_3x3 <- inception_5b/3x3
I0403 14:13:15.975514 12932 net.cpp:386] inception_5b/relu_3x3 -> inception_5b/3x3 (in-place)
I0403 14:13:15.975819 12932 net.cpp:141] Setting up inception_5b/relu_3x3
I0403 14:13:15.975846 12932 net.cpp:148] Top shape: 24 384 7 7 (451584)
I0403 14:13:15.975860 12932 net.cpp:156] Memory required for data: 1334273568
I0403 14:13:15.975874 12932 layer_factory.hpp:77] Creating layer inception_5b/5x5_reduce
I0403 14:13:15.975917 12932 net.cpp:91] Creating Layer inception_5b/5x5_reduce
I0403 14:13:15.975936 12932 net.cpp:425] inception_5b/5x5_reduce <- inception_5a/output_inception_5a/output_0_split_2
I0403 14:13:15.975960 12932 net.cpp:399] inception_5b/5x5_reduce -> inception_5b/5x5_reduce
I0403 14:13:15.977342 12932 net.cpp:141] Setting up inception_5b/5x5_reduce
I0403 14:13:15.977370 12932 net.cpp:148] Top shape: 24 48 7 7 (56448)
I0403 14:13:15.977385 12932 net.cpp:156] Memory required for data: 1334499360
I0403 14:13:15.977403 12932 layer_factory.hpp:77] Creating layer inception_5b/relu_5x5_reduce
I0403 14:13:15.977421 12932 net.cpp:91] Creating Layer inception_5b/relu_5x5_reduce
I0403 14:13:15.977439 12932 net.cpp:425] inception_5b/relu_5x5_reduce <- inception_5b/5x5_reduce
I0403 14:13:15.977457 12932 net.cpp:386] inception_5b/relu_5x5_reduce -> inception_5b/5x5_reduce (in-place)
I0403 14:13:15.977828 12932 net.cpp:141] Setting up inception_5b/relu_5x5_reduce
I0403 14:13:15.977852 12932 net.cpp:148] Top shape: 24 48 7 7 (56448)
I0403 14:13:15.977867 12932 net.cpp:156] Memory required for data: 1334725152
I0403 14:13:15.977881 12932 layer_factory.hpp:77] Creating layer inception_5b/5x5
I0403 14:13:15.977902 12932 net.cpp:91] Creating Layer inception_5b/5x5
I0403 14:13:15.977918 12932 net.cpp:425] inception_5b/5x5 <- inception_5b/5x5_reduce
I0403 14:13:15.977936 12932 net.cpp:399] inception_5b/5x5 -> inception_5b/5x5
I0403 14:13:15.980026 12932 net.cpp:141] Setting up inception_5b/5x5
I0403 14:13:15.980054 12932 net.cpp:148] Top shape: 24 128 7 7 (150528)
I0403 14:13:15.980082 12932 net.cpp:156] Memory required for data: 1335327264
I0403 14:13:15.980098 12932 layer_factory.hpp:77] Creating layer inception_5b/relu_5x5
I0403 14:13:15.980118 12932 net.cpp:91] Creating Layer inception_5b/relu_5x5
I0403 14:13:15.980134 12932 net.cpp:425] inception_5b/relu_5x5 <- inception_5b/5x5
I0403 14:13:15.980151 12932 net.cpp:386] inception_5b/relu_5x5 -> inception_5b/5x5 (in-place)
I0403 14:13:15.980341 12932 net.cpp:141] Setting up inception_5b/relu_5x5
I0403 14:13:15.980367 12932 net.cpp:148] Top shape: 24 128 7 7 (150528)
I0403 14:13:15.980381 12932 net.cpp:156] Memory required for data: 1335929376
I0403 14:13:15.980396 12932 layer_factory.hpp:77] Creating layer inception_5b/pool
I0403 14:13:15.980412 12932 net.cpp:91] Creating Layer inception_5b/pool
I0403 14:13:15.980427 12932 net.cpp:425] inception_5b/pool <- inception_5a/output_inception_5a/output_0_split_3
I0403 14:13:15.980444 12932 net.cpp:399] inception_5b/pool -> inception_5b/pool
I0403 14:13:15.980522 12932 net.cpp:141] Setting up inception_5b/pool
I0403 14:13:15.980545 12932 net.cpp:148] Top shape: 24 832 7 7 (978432)
I0403 14:13:15.980559 12932 net.cpp:156] Memory required for data: 1339843104
I0403 14:13:15.980573 12932 layer_factory.hpp:77] Creating layer inception_5b/pool_proj
I0403 14:13:15.980594 12932 net.cpp:91] Creating Layer inception_5b/pool_proj
I0403 14:13:15.980612 12932 net.cpp:425] inception_5b/pool_proj <- inception_5b/pool
I0403 14:13:15.980631 12932 net.cpp:399] inception_5b/pool_proj -> inception_5b/pool_proj
I0403 14:13:15.982944 12932 net.cpp:141] Setting up inception_5b/pool_proj
I0403 14:13:15.982974 12932 net.cpp:148] Top shape: 24 128 7 7 (150528)
I0403 14:13:15.982988 12932 net.cpp:156] Memory required for data: 1340445216
I0403 14:13:15.983006 12932 layer_factory.hpp:77] Creating layer inception_5b/relu_pool_proj
I0403 14:13:15.983026 12932 net.cpp:91] Creating Layer inception_5b/relu_pool_proj
I0403 14:13:15.983042 12932 net.cpp:425] inception_5b/relu_pool_proj <- inception_5b/pool_proj
I0403 14:13:15.983059 12932 net.cpp:386] inception_5b/relu_pool_proj -> inception_5b/pool_proj (in-place)
I0403 14:13:15.983352 12932 net.cpp:141] Setting up inception_5b/relu_pool_proj
I0403 14:13:15.983377 12932 net.cpp:148] Top shape: 24 128 7 7 (150528)
I0403 14:13:15.983392 12932 net.cpp:156] Memory required for data: 1341047328
I0403 14:13:15.983407 12932 layer_factory.hpp:77] Creating layer inception_5b/output
I0403 14:13:15.983423 12932 net.cpp:91] Creating Layer inception_5b/output
I0403 14:13:15.983453 12932 net.cpp:425] inception_5b/output <- inception_5b/1x1
I0403 14:13:15.983470 12932 net.cpp:425] inception_5b/output <- inception_5b/3x3
I0403 14:13:15.983485 12932 net.cpp:425] inception_5b/output <- inception_5b/5x5
I0403 14:13:15.983500 12932 net.cpp:425] inception_5b/output <- inception_5b/pool_proj
I0403 14:13:15.983525 12932 net.cpp:399] inception_5b/output -> inception_5b/output
I0403 14:13:15.983577 12932 net.cpp:141] Setting up inception_5b/output
I0403 14:13:15.983603 12932 net.cpp:148] Top shape: 24 1024 7 7 (1204224)
I0403 14:13:15.983618 12932 net.cpp:156] Memory required for data: 1345864224
I0403 14:13:15.983631 12932 layer_factory.hpp:77] Creating layer pool5/7x7_s1
I0403 14:13:15.983647 12932 net.cpp:91] Creating Layer pool5/7x7_s1
I0403 14:13:15.983664 12932 net.cpp:425] pool5/7x7_s1 <- inception_5b/output
I0403 14:13:15.983685 12932 net.cpp:399] pool5/7x7_s1 -> pool5/7x7_s1
I0403 14:13:15.983893 12932 net.cpp:141] Setting up pool5/7x7_s1
I0403 14:13:15.983918 12932 net.cpp:148] Top shape: 24 1024 1 1 (24576)
I0403 14:13:15.983932 12932 net.cpp:156] Memory required for data: 1345962528
I0403 14:13:15.983945 12932 layer_factory.hpp:77] Creating layer pool5/drop_7x7_s1
I0403 14:13:15.983964 12932 net.cpp:91] Creating Layer pool5/drop_7x7_s1
I0403 14:13:15.983980 12932 net.cpp:425] pool5/drop_7x7_s1 <- pool5/7x7_s1
I0403 14:13:15.983996 12932 net.cpp:386] pool5/drop_7x7_s1 -> pool5/7x7_s1 (in-place)
I0403 14:13:15.984045 12932 net.cpp:141] Setting up pool5/drop_7x7_s1
I0403 14:13:15.984068 12932 net.cpp:148] Top shape: 24 1024 1 1 (24576)
I0403 14:13:15.984082 12932 net.cpp:156] Memory required for data: 1346060832
I0403 14:13:15.984097 12932 layer_factory.hpp:77] Creating layer loss3/classifier_plantvillage
I0403 14:13:15.984114 12932 net.cpp:91] Creating Layer loss3/classifier_plantvillage
I0403 14:13:15.984129 12932 net.cpp:425] loss3/classifier_plantvillage <- pool5/7x7_s1
I0403 14:13:15.984150 12932 net.cpp:399] loss3/classifier_plantvillage -> loss3/classifier_plantvillage
I0403 14:13:15.984583 12932 net.cpp:141] Setting up loss3/classifier_plantvillage
I0403 14:13:15.984609 12932 net.cpp:148] Top shape: 24 38 (912)
I0403 14:13:15.984623 12932 net.cpp:156] Memory required for data: 1346064480
I0403 14:13:15.984640 12932 layer_factory.hpp:77] Creating layer loss3/classifier_plantvillage_loss3/classifier_plantvillage_0_split
I0403 14:13:15.984658 12932 net.cpp:91] Creating Layer loss3/classifier_plantvillage_loss3/classifier_plantvillage_0_split
I0403 14:13:15.984673 12932 net.cpp:425] loss3/classifier_plantvillage_loss3/classifier_plantvillage_0_split <- loss3/classifier_plantvillage
I0403 14:13:15.984690 12932 net.cpp:399] loss3/classifier_plantvillage_loss3/classifier_plantvillage_0_split -> loss3/classifier_plantvillage_loss3/classifier_plantvillage_0_split_0
I0403 14:13:15.984712 12932 net.cpp:399] loss3/classifier_plantvillage_loss3/classifier_plantvillage_0_split -> loss3/classifier_plantvillage_loss3/classifier_plantvillage_0_split_1
I0403 14:13:15.984733 12932 net.cpp:399] loss3/classifier_plantvillage_loss3/classifier_plantvillage_0_split -> loss3/classifier_plantvillage_loss3/classifier_plantvillage_0_split_2
I0403 14:13:15.984753 12932 net.cpp:399] loss3/classifier_plantvillage_loss3/classifier_plantvillage_0_split -> loss3/classifier_plantvillage_loss3/classifier_plantvillage_0_split_3
I0403 14:13:15.984856 12932 net.cpp:141] Setting up loss3/classifier_plantvillage_loss3/classifier_plantvillage_0_split
I0403 14:13:15.984879 12932 net.cpp:148] Top shape: 24 38 (912)
I0403 14:13:15.984894 12932 net.cpp:148] Top shape: 24 38 (912)
I0403 14:13:15.984910 12932 net.cpp:148] Top shape: 24 38 (912)
I0403 14:13:15.984923 12932 net.cpp:148] Top shape: 24 38 (912)
I0403 14:13:15.984936 12932 net.cpp:156] Memory required for data: 1346079072
I0403 14:13:15.984951 12932 layer_factory.hpp:77] Creating layer loss1/loss
I0403 14:13:15.984972 12932 net.cpp:91] Creating Layer loss1/loss
I0403 14:13:15.984989 12932 net.cpp:425] loss1/loss <- loss1/classifier_plantvillage_loss1/classifier_plantvillage_0_split_0
I0403 14:13:15.985019 12932 net.cpp:425] loss1/loss <- label_data_1_split_0
…
