…
I0403 14:54:41.187489 13763 net.cpp:313] The NetState phase (1) differed from the phase (0) specified by a rule in layer data
I0403 14:54:41.188701 13763 net.cpp:49] Initializing net from parameters: 
state {
  phase: TEST
}
layer {
  name: "data"
  type: "Data"
  top: "data"
  top: "label"
  include {
    phase: TEST
  }
  transform_param {
    mirror: false
    crop_size: 224
    mean_file: "/home/mohanty/data/final_dataset/lmdb/segmented-20-80/mean.binaryproto"
  }
  data_param {
    source: "/home/mohanty/data/final_dataset/lmdb/segmented-20-80/test_db"
    batch_size: 24
    backend: LMDB
  }
}
layer {
  name: "conv1/7x7_s2"
  type: "Convolution"
  bottom: "data"
  top: "conv1/7x7_s2"
  param {
    lr_mult: 1
    decay_mult: 1
  }
  param {
    lr_mult: 2
    decay_mult: 0
  }
  convolution_param {
    num_output: 64
    pad: 3
    kernel_size: 7
    stride: 2
    weight_filler {
      type: "xavier"
      std: 0.1
    }
    bias_filler {
      type: "constant"
      value: 0.2
    }
  }
}
layer {
  name: "conv1/relu_7x7"
  type: "ReLU"
  bottom: "conv1/7x7_s2"
  top: "conv1/7x7_s2"
}
layer {
  name: "pool1/3x3_s2"
  type: "Pooling"
  bottom: "conv1/7x7_s2"
  top: "pool1/3x3_s2"
  pooling_param {
    pool: MAX
    kernel_size: 3
    stride: 2
  }
}
layer {
  name: "pool1/norm1"
  type: "LRN"
  bottom: "pool1/3x3_s2"
  top: "pool1/norm1"
  lrn_param {
    local_size: 5
    alpha: 0.0001
    beta: 0.75
  }
}
layer {
  name: "conv2/3x3_reduce"
  type: "Convolution"
  bottom: "pool1/norm1"
  top: "conv2/3x3_reduce"
  param {
    lr_mult: 1
    decay_mult: 1
  }
  param {
    lr_mult: 2
    decay_mult: 0
  }
  convolution_param {
    num_output: 64
    kernel_size: 1
    weight_filler {
      type: "xavier"
      std: 0.1
    }
    bias_filler {
      type: "constant"
      value: 0.2
    }
  }
}
layer {
  name: "conv2/relu_3x3_reduce"
  type: "ReLU"
  bottom: "conv2/3x3_reduce"
  top: "conv2/3x3_reduce"
}
layer {
  name: "conv2/3x3"
  type: "Convolution"
  bottom: "conv2/3x3_reduce"
  top: "conv2/3x3"
  param {
    lr_mult: 1
    decay_mult: 1
  }
  param {
    lr_mult: 2
    decay_mult: 0
  }
  convolution_param {
    num_output: 192
    pad: 1
    kernel_size: 3
    weight_filler {
      type: "xavier"
      std: 0.03
    }
    bias_filler {
      type: "constant"
      value: 0.2
    }
  }
}
layer {
  name: "conv2/relu_3x3"
  type: "ReLU"
  bottom: "conv2/3x3"
  top: "conv2/3x3"
}
layer {
  name: "conv2/norm2"
  type: "LRN"
  bottom: "conv2/3x3"
  top: "conv2/norm2"
  lrn_param {
    local_size: 5
    alpha: 0.0001
    beta: 0.75
  }
}
layer {
  name: "pool2/3x3_s2"
  type: "Pooling"
  bottom: "conv2/norm2"
  top: "pool2/3x3_s2"
  pooling_param {
    pool: MAX
    kernel_size: 3
    stride: 2
  }
}
layer {
  name: "inception_3a/1x1"
  type: "Convolution"
  bottom: "pool2/3x3_s2"
  top: "inception_3a/1x1"
  param {
    lr_mult: 1
    decay_mult: 1
  }
  param {
    lr_mult: 2
    decay_mult: 0
  }
  convolution_param {
    num_output: 64
    kernel_size: 1
    weight_filler {
      type: "xavier"
      std: 0.03
    }
    bias_filler {
      type: "constant"
      value: 0.2
    }
  }
}
layer {
  name: "inception_3a/relu_1x1"
  type: "ReLU"
  bottom: "inception_3a/1x1"
  top: "inception_3a/1x1"
}
layer {
  name: "inception_3a/3x3_reduce"
  type: "Convolution"
  bottom: "pool2/3x3_s2"
  top: "inception_3a/3x3_reduce"
  param {
    lr_mult: 1
    decay_mult: 1
  }
  param {
    lr_mult: 2
    decay_mult: 0
  }
  convolution_param {
    num_output: 96
    kernel_size: 1
    weight_filler {
      type: "xavier"
      std: 0.09
    }
    bias_filler {
      type: "constant"
      value: 0.2
    }
  }
}
layer {
  name: "inception_3a/relu_3x3_reduce"
  type: "ReLU"
  bottom: "inception_3a/3x3_reduce"
  top: "inception_3a/3x3_reduce"
}
layer {
  name: "inception_3a/3x3"
  type: "Convolution"
  bottom: "inception_3a/3x3_reduce"
  top: "inception_3a/3x3"
  param {
    lr_mult: 1
    decay_mult: 1
  }
  param {
    lr_mult: 2
    decay_mult: 0
  }
  convolution_param {
    num_output: 128
    pad: 1
    kernel_size: 3
    weight_filler {
      type: "xavier"
      std: 0.03
    }
    bias_filler {
      type: "constant"
      value: 0.2
    }
  }
}
layer {
  name: "inception_3a/relu_3x3"
  type: "ReLU"
  bottom: "inception_3a/3x3"
  top: "inception_3a/3x3"
}
layer {
  name: "inception_3a/5x5_reduce"
  type: "Convolution"
  bottom: "pool2/3x3_s2"
  top: "inception_3a/5x5_reduce"
  param {
    lr_mult: 1
    decay_mult: 1
  }
  param {
    lr_mult: 2
    decay_mult: 0
  }
  convolution_param {
    num_output: 16
    kernel_size: 1
    weight_filler {
      type: "xavier"
      std: 0.2
    }
    bias_filler {
      type: "constant"
      value: 0.2
    }
  }
}
layer {
  name: "inception_3a/relu_5x5_reduce"
  type: "ReLU"
  bottom: "inception_3a/5x5_reduce"
  top: "inception_3a/5x5_reduce"
}
layer {
  name: "inception_3a/5x5"
  type: "Convolution"
  bottom: "inception_3a/5x5_reduce"
  top: "inception_3a/5x5"
  param {
    lr_mult: 1
    decay_mult: 1
  }
  param {
    lr_mult: 2
    decay_mult: 0
  }
  convolution_param {
    num_output: 32
    pad: 2
    kernel_size: 5
    weight_filler {
      type: "xavier"
      std: 0.03
    }
    bias_filler {
      type: "constant"
      value: 0.2
    }
  }
}
layer {
  name: "inception_3a/relu_5x5"
  type: "ReLU"
  bottom: "inception_3a/5x5"
  top: "inception_3a/5x5"
}
layer {
  name: "inception_3a/pool"
  type: "Pooling"
  bottom: "pool2/3x3_s2"
  top: "inception_3a/pool"
  pooling_param {
    pool: MAX
    kernel_size: 3
    stride: 1
    pad: 1
  }
}
layer {
  name: "inception_3a/pool_proj"
  type: "Convolution"
  bottom: "inception_3a/pool"
  top: "inception_3a/pool_proj"
  param {
    lr_mult: 1
    decay_mult: 1
  }
  param {
    lr_mult: 2
    decay_mult: 0
  }
  convolution_param {
    num_output: 32
    kernel_size: 1
    weight_filler {
      type: "xavier"
      std: 0.1
    }
    bias_filler {
      type: "constant"
      value: 0.2
    }
  }
}
layer {
  name: "inception_3a/relu_pool_proj"
  type: "ReLU"
  bottom: "inception_3a/pool_proj"
  top: "inception_3a/pool_proj"
}
layer {
  name: "inception_3a/output"
  type: "Concat"
  bottom: "inception_3a/1x1"
  bottom: "inception_3a/3x3"
  bottom: "inception_3a/5x5"
  bottom: "inception_3a/pool_proj"
  top: "inception_3a/output"
}
layer {
  name: "inception_3b/1x1"
  type: "Convolution"
  bottom: "inception_3a/output"
  top: "inception_3b/1x1"
  param {
    lr_mult: 1
    decay_mult: 1
  }
  param {
    lr_mult: 2
    decay_mult: 0
  }
  convolution_param {
    num_output: 128
    kernel_size: 1
    weight_filler {
      type: "xavier"
      std: 0.03
    }
    bias_filler {
      type: "constant"
      value: 0.2
    }
  }
}
layer {
  name: "inception_3b/relu_1x1"
  type: "ReLU"
  bottom: "inception_3b/1x1"
  top: "inception_3b/1x1"
}
layer {
  name: "inception_3b/3x3_reduce"
  type: "Convolution"
  bottom: "inception_3a/output"
  top: "inception_3b/3x3_reduce"
  param {
    lr_mult: 1
    decay_mult: 1
  }
  param {
    lr_mult: 2
    decay_mult: 0
  }
  convolution_param {
    num_output: 128
    kernel_size: 1
    weight_filler {
      type: "xavier"
      std: 0.09
    }
    bias_filler {
      type: "constant"
      value: 0.2
    }
  }
}
layer {
  name: "inception_3b/relu_3x3_reduce"
  type: "ReLU"
  bottom: "inception_3b/3x3_reduce"
  top: "inception_3b/3x3_reduce"
}
layer {
  name: "inception_3b/3x3"
  type: "Convolution"
  bottom: "inception_3b/3x3_reduce"
  top: "inception_3b/3x3"
  param {
    lr_mult: 1
    decay_mult: 1
  }
  param {
    lr_mult: 2
    decay_mult: 0
  }
  convolution_param {
    num_output: 192
    pad: 1
    kernel_size: 3
    weight_filler {
      type: "xavier"
      std: 0.03
    }
    bias_filler {
      type: "constant"
      value: 0.2
    }
  }
}
layer {
  name: "inception_3b/relu_3x3"
  type: "ReLU"
  bottom: "inception_3b/3x3"
  top: "inception_3b/3x3"
}
layer {
  name: "inception_3b/5x5_reduce"
  type: "Convolution"
  bottom: "inception_3a/output"
  top: "inception_3b/5x5_reduce"
  param {
    lr_mult: 1
    decay_mult: 1
  }
  param {
    lr_mult: 2
    decay_mult: 0
  }
  convolution_param {
    num_output: 32
    kernel_size: 1
    weight_filler {
      type: "xavier"
      std: 0.2
    }
    bias_filler {
      type: "constant"
      value: 0.2
    }
  }
}
layer {
  name: "inception_3b/relu_5x5_reduce"
  type: "ReLU"
  bottom: "inception_3b/5x5_reduce"
  top: "inception_3b/5x5_reduce"
}
layer {
  name: "inception_3b/5x5"
  type: "Convolution"
  bottom: "inception_3b/5x5_reduce"
  top: "inception_3b/5x5"
  param {
    lr_mult: 1
    decay_mult: 1
  }
  param {
    lr_mult: 2
    decay_mult: 0
  }
  convolution_param {
    num_output: 96
    pad: 2
    kernel_size: 5
    weight_filler {
      type: "xavier"
      std: 0.03
    }
    bias_filler {
      type: "constant"
      value: 0.2
    }
  }
}
layer {
  name: "inception_3b/relu_5x5"
  type: "ReLU"
  bottom: "inception_3b/5x5"
  top: "inception_3b/5x5"
}
layer {
  name: "inception_3b/pool"
  type: "Pooling"
  bottom: "inception_3a/output"
  top: "inception_3b/pool"
  pooling_param {
    pool: MAX
    kernel_size: 3
    stride: 1
    pad: 1
  }
}
layer {
  name: "inception_3b/pool_proj"
  type: "Convolution"
  bottom: "inception_3b/pool"
  top: "inception_3b/pool_proj"
  param {
    lr_mult: 1
    decay_mult: 1
  }
  param {
    lr_mult: 2
    decay_mult: 0
  }
  convolution_param {
    num_output: 64
    kernel_size: 1
    weight_filler {
      type: "xavier"
      std: 0.1
    }
    bias_filler {
      type: "constant"
      value: 0.2
    }
  }
}
layer {
  name: "inception_3b/relu_pool_proj"
  type: "ReLU"
  bottom: "inception_3b/pool_proj"
  top: "inception_3b/pool_proj"
}
layer {
  name: "inception_3b/output"
  type: "Concat"
  bottom: "inception_3b/1x1"
  bottom: "inception_3b/3x3"
  bottom: "inception_3b/5x5"
  bottom: "inception_3b/pool_proj"
  top: "inception_3b/output"
}
layer {
  name: "pool3/3x3_s2"
  type: "Pooling"
  bottom: "inception_3b/output"
  top: "pool3/3x3_s2"
  pooling_param {
    pool: MAX
    kernel_size: 3
    stride: 2
  }
}
layer {
  name: "inception_4a/1x1"
  type: "Convolution"
  bottom: "pool3/3x3_s2"
  top: "inception_4a/1x1"
  param {
    lr_mult: 1
    decay_mult: 1
  }
  param {
    lr_mult: 2
    decay_mult: 0
  }
  convolution_param {
    num_output: 192
    kernel_size: 1
    weight_filler {
      type: "xavier"
      std: 0.03
    }
    bias_filler {
      type: "constant"
      value: 0.2
    }
  }
}
layer {
  name: "inception_4a/relu_1x1"
  type: "ReLU"
  bottom: "inception_4a/1x1"
  top: "inception_4a/1x1"
}
layer {
  name: "inception_4a/3x3_reduce"
  type: "Convolution"
  bottom: "pool3/3x3_s2"
  top: "inception_4a/3x3_reduce"
  param {
    lr_mult: 1
    decay_mult: 1
  }
  param {
    lr_mult: 2
    decay_mult: 0
  }
  convolution_param {
    num_output: 96
    kernel_size: 1
    weight_filler {
      type: "xavier"
      std: 0.09
    }
    bias_filler {
      type: "constant"
      value: 0.2
    }
  }
}
layer {
  name: "inception_4a/relu_3x3_reduce"
  type: "ReLU"
  bottom: "inception_4a/3x3_reduce"
  top: "inception_4a/3x3_reduce"
}
layer {
  name: "inception_4a/3x3"
  type: "Convolution"
  bottom: "inception_4a/3x3_reduce"
  top: "inception_4a/3x3"
  param {
    lr_mult: 1
    decay_mult: 1
  }
  param {
    lr_mult: 2
    decay_mult: 0
  }
  convolution_param {
    num_output: 208
    pad: 1
    kernel_size: 3
    weight_filler {
      type: "xavier"
      std: 0.03
    }
    bias_filler {
      type: "constant"
      value: 0.2
    }
  }
}
layer {
  name: "inception_4a/relu_3x3"
  type: "ReLU"
  bottom: "inception_4a/3x3"
  top: "inception_4a/3x3"
}
layer {
  name: "inception_4a/5x5_reduce"
  type: "Convolution"
  bottom: "pool3/3x3_s2"
  top: "inception_4a/5x5_reduce"
  param {
    lr_mult: 1
    decay_mult: 1
  }
  param {
    lr_mult: 2
    decay_mult: 0
  }
  convolution_param {
    num_output: 16
    kernel_size: 1
    weight_filler {
      type: "xavier"
      std: 0.2
    }
    bias_filler {
      type: "constant"
      value: 0.2
    }
  }
}
layer {
  name: "inception_4a/relu_5x5_reduce"
  type: "ReLU"
  bottom: "inception_4a/5x5_reduce"
  top: "inception_4a/5x5_reduce"
}
layer {
  name: "inception_4a/5x5"
  type: "Convolution"
  bottom: "inception_4a/5x5_reduce"
  top: "inception_4a/5x5"
  param {
    lr_mult: 1
    decay_mult: 1
  }
  param {
    lr_mult: 2
    decay_mult: 0
  }
  convolution_param {
    num_output: 48
    pad: 2
    kernel_size: 5
    weight_filler {
      type: "xavier"
      std: 0.03
    }
    bias_filler {
      type: "constant"
      value: 0.2
    }
  }
}
layer {
  name: "inception_4a/relu_5x5"
  type: "ReLU"
  bottom: "inception_4a/5x5"
  top: "inception_4a/5x5"
}
layer {
  name: "inception_4a/pool"
  type: "Pooling"
  bottom: "pool3/3x3_s2"
  top: "inception_4a/pool"
  pooling_param {
    pool: MAX
    kernel_size: 3
    stride: 1
    pad: 1
  }
}
layer {
  name: "inception_4a/pool_proj"
  type: "Convolution"
  bottom: "inception_4a/pool"
  top: "inception_4a/pool_proj"
  param {
    lr_mult: 1
    decay_mult: 1
  }
  param {
    lr_mult: 2
    decay_mult: 0
  }
  convolution_param {
    num_output: 64
    kernel_size: 1
    weight_filler {
      type: "xavier"
      std: 0.1
    }
    bias_filler {
      type: "constant"
      value: 0.2
    }
  }
}
layer {
  name: "inception_4a/relu_pool_proj"
  type: "ReLU"
  bottom: "inception_4a/pool_proj"
  top: "inception_4a/pool_proj"
}
layer {
  name: "inception_4a/output"
  type: "Concat"
  bottom: "inception_4a/1x1"
  bottom: "inception_4a/3x3"
  bottom: "inception_4a/5x5"
  bottom: "inception_4a/pool_proj"
  top: "inception_4a/output"
}
layer {
  name: "loss1/ave_pool"
  type: "Pooling"
  bottom: "inception_4a/output"
  top: "loss1/ave_pool"
  pooling_param {
    pool: AVE
    kernel_size: 5
    stride: 3
  }
}
layer {
  name: "loss1/conv"
  type: "Convolution"
  bottom: "loss1/ave_pool"
  top: "loss1/conv"
  param {
    lr_mult: 1
    decay_mult: 1
  }
  param {
    lr_mult: 2
    decay_mult: 0
  }
  convolution_param {
    num_output: 128
    kernel_size: 1
    weight_filler {
      type: "xavier"
      std: 0.08
    }
    bias_filler {
      type: "constant"
      value: 0.2
    }
  }
}
layer {
  name: "loss1/relu_conv"
  type: "ReLU"
  bottom: "loss1/conv"
  top: "loss1/conv"
}
layer {
  name: "loss1/fc"
  type: "InnerProduct"
  bottom: "loss1/conv"
  top: "loss1/fc"
  param {
    lr_mult: 1
    decay_mult: 1
  }
  param {
    lr_mult: 2
    decay_mult: 0
  }
  inner_product_param {
    num_output: 1024
    weight_filler {
      type: "xavier"
      std: 0.02
    }
    bias_filler {
      type: "constant"
      value: 0.2
    }
  }
}
layer {
  name: "loss1/relu_fc"
  type: "ReLU"
  bottom: "loss1/fc"
  top: "loss1/fc"
}
layer {
  name: "loss1/drop_fc"
  type: "Dropout"
  bottom: "loss1/fc"
  top: "loss1/fc"
  dropout_param {
    dropout_ratio: 0.7
  }
}
layer {
  name: "loss1/classifier_plantvillage"
  type: "InnerProduct"
  bottom: "loss1/fc"
  top: "loss1/classifier_plantvillage"
  param {
    lr_mult: 1
    decay_mult: 1
  }
  param {
    lr_mult: 2
    decay_mult: 0
  }
  inner_product_param {
    num_output: 38
    weight_filler {
      type: "xavier"
      std: 0.0009765625
    }
    bias_filler {
      type: "constant"
      value: 0
    }
  }
}
layer {
  name: "inception_4b/1x1"
  type: "Convolution"
  bottom: "inception_4a/output"
  top: "inception_4b/1x1"
  param {
    lr_mult: 1
    decay_mult: 1
  }
  param {
    lr_mult: 2
    decay_mult: 0
  }
  convolution_param {
    num_output: 160
    kernel_size: 1
    weight_filler {
      type: "xavier"
      std: 0.03
    }
    bias_filler {
      type: "constant"
      value: 0.2
    }
  }
}
layer {
  name: "inception_4b/relu_1x1"
  type: "ReLU"
  bottom: "inception_4b/1x1"
  top: "inception_4b/1x1"
}
layer {
  name: "inception_4b/3x3_reduce"
  type: "Convolution"
  bottom: "inception_4a/output"
  top: "inception_4b/3x3_reduce"
  param {
    lr_mult: 1
    decay_mult: 1
  }
  param {
    lr_mult: 2
    decay_mult: 0
  }
  convolution_param {
    num_output: 112
    kernel_size: 1
    weight_filler {
      type: "xavier"
      std: 0.09
    }
    bias_filler {
      type: "constant"
      value: 0.2
    }
  }
}
layer {
  name: "inception_4b/relu_3x3_reduce"
  type: "ReLU"
  bottom: "inception_4b/3x3_reduce"
  top: "inception_4b/3x3_reduce"
}
layer {
  name: "inception_4b/3x3"
  type: "Convolution"
  bottom: "inception_4b/3x3_reduce"
  top: "inception_4b/3x3"
  param {
    lr_mult: 1
    decay_mult: 1
  }
  param {
    lr_mult: 2
    decay_mult: 0
  }
  convolution_param {
    num_output: 224
    pad: 1
    kernel_size: 3
    weight_filler {
      type: "xavier"
      std: 0.03
    }
    bias_filler {
      type: "constant"
      value: 0.2
    }
  }
}
layer {
  name: "inception_4b/relu_3x3"
  type: "ReLU"
  bottom: "inception_4b/3x3"
  top: "inception_4b/3x3"
}
layer {
  name: "inception_4b/5x5_reduce"
  type: "Convolution"
  bottom: "inception_4a/output"
  top: "inception_4b/5x5_reduce"
  param {
    lr_mult: 1
    decay_mult: 1
  }
  param {
    lr_mult: 2
    decay_mult: 0
  }
  convolution_param {
    num_output: 24
    kernel_size: 1
    weight_filler {
      type: "xavier"
      std: 0.2
    }
    bias_filler {
      type: "constant"
      value: 0.2
    }
  }
}
layer {
  name: "inception_4b/relu_5x5_reduce"
  type: "ReLU"
  bottom: "inception_4b/5x5_reduce"
  top: "inception_4b/5x5_reduce"
}
layer {
  name: "inception_4b/5x5"
  type: "Convolution"
  bottom: "inception_4b/5x5_reduce"
  top: "inception_4b/5x5"
  param {
    lr_mult: 1
    decay_mult: 1
  }
  param {
    lr_mult: 2
    decay_mult: 0
  }
  convolution_param {
    num_output: 64
    pad: 2
    kernel_size: 5
    weight_filler {
      type: "xavier"
      std: 0.03
    }
    bias_filler {
      type: "constant"
      value: 0.2
    }
  }
}
layer {
  name: "inception_4b/relu_5x5"
  type: "ReLU"
  bottom: "inception_4b/5x5"
  top: "inception_4b/5x5"
}
layer {
  name: "inception_4b/pool"
  type: "Pooling"
  bottom: "inception_4a/output"
  top: "inception_4b/pool"
  pooling_param {
    pool: MAX
    kernel_size: 3
    stride: 1
    pad: 1
  }
}
layer {
  name: "inception_4b/pool_proj"
  type: "Convolution"
  bottom: "inception_4b/pool"
  top: "inception_4b/pool_proj"
  param {
    lr_mult: 1
    decay_mult: 1
  }
  param {
    lr_mult: 2
    decay_mult: 0
  }
  convolution_param {
    num_output: 64
    kernel_size: 1
    weight_filler {
      type: "xavier"
      std: 0.1
    }
    bias_filler {
      type: "constant"
      value: 0.2
    }
  }
}
layer {
  name: "inception_4b/relu_pool_proj"
  type: "ReLU"
  bottom: "inception_4b/pool_proj"
  top: "inception_4b/pool_proj"
}
layer {
  name: "inception_4b/output"
  type: "Concat"
  bottom: "inception_4b/1x1"
  bottom: "inception_4b/3x3"
  bottom: "inception_4b/5x5"
  bottom: "inception_4b/pool_proj"
  top: "inception_4b/output"
}
layer {
  name: "inception_4c/1x1"
  type: "Convolution"
  bottom: "inception_4b/output"
  top: "inception_4c/1x1"
  param {
    lr_mult: 1
    decay_mult: 1
  }
  param {
    lr_mult: 2
    decay_mult: 0
  }
  convolution_param {
    num_output: 128
    kernel_size: 1
    weight_filler {
      type: "xavier"
      std: 0.03
    }
    bias_filler {
      type: "constant"
      value: 0.2
    }
  }
}
layer {
  name: "inception_4c/relu_1x1"
  type: "ReLU"
  bottom: "inception_4c/1x1"
  top: "inception_4c/1x1"
}
layer {
  name: "inception_4c/3x3_reduce"
  type: "Convolution"
  bottom: "inception_4b/output"
  top: "inception_4c/3x3_reduce"
  param {
    lr_mult: 1
    decay_mult: 1
  }
  param {
    lr_mult: 2
    decay_mult: 0
  }
  convolution_param {
    num_output: 128
    kernel_size: 1
    weight_filler {
      type: "xavier"
      std: 0.09
    }
    bias_filler {
      type: "constant"
      value: 0.2
    }
  }
}
layer {
  name: "inception_4c/relu_3x3_reduce"
  type: "ReLU"
  bottom: "inception_4c/3x3_reduce"
  top: "inception_4c/3x3_reduce"
}
layer {
  name: "inception_4c/3x3"
  type: "Convolution"
  bottom: "inception_4c/3x3_reduce"
  top: "inception_4c/3x3"
  param {
    lr_mult: 1
    decay_mult: 1
  }
  param {
    lr_mult: 2
    decay_mult: 0
  }
  convolution_param {
    num_output: 256
    pad: 1
    kernel_size: 3
    weight_filler {
      type: "xavier"
      std: 0.03
    }
    bias_filler {
      type: "constant"
      value: 0.2
    }
  }
}
layer {
  name: "inception_4c/relu_3x3"
  type: "ReLU"
  bottom: "inception_4c/3x3"
  top: "inception_4c/3x3"
}
layer {
  name: "inception_4c/5x5_reduce"
  type: "Convolution"
  bottom: "inception_4b/output"
  top: "inception_4c/5x5_reduce"
  param {
    lr_mult: 1
    decay_mult: 1
  }
  param {
    lr_mult: 2
    decay_mult: 0
  }
  convolution_param {
    num_output: 24
    kernel_size: 1
    weight_filler {
      type: "xavier"
      std: 0.2
    }
    bias_filler {
      type: "constant"
      value: 0.2
    }
  }
}
layer {
  name: "inception_4c/relu_5x5_reduce"
  type: "ReLU"
  bottom: "inception_4c/5x5_reduce"
  top: "inception_4c/5x5_reduce"
}
layer {
  name: "inception_4c/5x5"
  type: "Convolution"
  bottom: "inception_4c/5x5_reduce"
  top: "inception_4c/5x5"
  param {
    lr_mult: 1
    decay_mult: 1
  }
  param {
    lr_mult: 2
    decay_mult: 0
  }
  convolution_param {
    num_output: 64
    pad: 2
    kernel_size: 5
    weight_filler {
      type: "xavier"
      std: 0.03
    }
    bias_filler {
      type: "constant"
      value: 0.2
    }
  }
}
layer {
  name: "inception_4c/relu_5x5"
  type: "ReLU"
  bottom: "inception_4c/5x5"
  top: "inception_4c/5x5"
}
layer {
  name: "inception_4c/pool"
  type: "Pooling"
  bottom: "inception_4b/output"
  top: "inception_4c/pool"
  pooling_param {
    pool: MAX
    kernel_size: 3
    stride: 1
    pad: 1
  }
}
layer {
  name: "inception_4c/pool_proj"
  type: "Convolution"
  bottom: "inception_4c/pool"
  top: "inception_4c/pool_proj"
  param {
    lr_mult: 1
    decay_mult: 1
  }
  param {
    lr_mult: 2
    decay_mult: 0
  }
  convolution_param {
    num_output: 64
    kernel_size: 1
    weight_filler {
      type: "xavier"
      std: 0.1
    }
    bias_filler {
      type: "constant"
      value: 0.2
    }
  }
}
layer {
  name: "inception_4c/relu_pool_proj"
  type: "ReLU"
  bottom: "inception_4c/pool_proj"
  top: "inception_4c/pool_proj"
}
layer {
  name: "inception_4c/output"
  type: "Concat"
  bottom: "inception_4c/1x1"
  bottom: "inception_4c/3x3"
  bottom: "inception_4c/5x5"
  bottom: "inception_4c/pool_proj"
  top: "inception_4c/output"
}
layer {
  name: "inception_4d/1x1"
  type: "Convolution"
  bottom: "inception_4c/output"
  top: "inception_4d/1x1"
  param {
    lr_mult: 1
    decay_mult: 1
  }
  param {
    lr_mult: 2
    decay_mult: 0
  }
  convolution_param {
    num_output: 112
    kernel_size: 1
    weight_filler {
      type: "xavier"
      std: 0.03
    }
    bias_filler {
      type: "constant"
      value: 0.2
    }
  }
}
layer {
  name: "inception_4d/relu_1x1"
  type: "ReLU"
  bottom: "inception_4d/1x1"
  top: "inception_4d/1x1"
}
layer {
  name: "inception_4d/3x3_reduce"
  type: "Convolution"
  bottom: "inception_4c/output"
  top: "inception_4d/3x3_reduce"
  param {
    lr_mult: 1
    decay_mult: 1
  }
  param {
    lr_mult: 2
    decay_mult: 0
  }
  convolution_param {
    num_output: 144
    kernel_size: 1
    weight_filler {
      type: "xavier"
      std: 0.09
    }
    bias_filler {
      type: "constant"
      value: 0.2
    }
  }
}
layer {
  name: "inception_4d/relu_3x3_reduce"
  type: "ReLU"
  bottom: "inception_4d/3x3_reduce"
  top: "inception_4d/3x3_reduce"
}
layer {
  name: "inception_4d/3x3"
  type: "Convolution"
  bottom: "inception_4d/3x3_reduce"
  top: "inception_4d/3x3"
  param {
    lr_mult: 1
    decay_mult: 1
  }
  param {
    lr_mult: 2
    decay_mult: 0
  }
  convolution_param {
    num_output: 288
    pad: 1
    kernel_size: 3
    weight_filler {
      type: "xavier"
      std: 0.03
    }
    bias_filler {
      type: "constant"
      value: 0.2
    }
  }
}
layer {
  name: "inception_4d/relu_3x3"
  type: "ReLU"
  bottom: "inception_4d/3x3"
  top: "inception_4d/3x3"
}
layer {
  name: "inception_4d/5x5_reduce"
  type: "Convolution"
  bottom: "inception_4c/output"
  top: "inception_4d/5x5_reduce"
  param {
    lr_mult: 1
    decay_mult: 1
  }
  param {
    lr_mult: 2
    decay_mult: 0
  }
  convolution_param {
    num_output: 32
    kernel_size: 1
    weight_filler {
      type: "xavier"
      std: 0.2
    }
    bias_filler {
      type: "constant"
      value: 0.2
    }
  }
}
layer {
  name: "inception_4d/relu_5x5_reduce"
  type: "ReLU"
  bottom: "inception_4d/5x5_reduce"
  top: "inception_4d/5x5_reduce"
}
layer {
  name: "inception_4d/5x5"
  type: "Convolution"
  bottom: "inception_4d/5x5_reduce"
  top: "inception_4d/5x5"
  param {
    lr_mult: 1
    decay_mult: 1
  }
  param {
    lr_mult: 2
    decay_mult: 0
  }
  convolution_param {
    num_output: 64
    pad: 2
    kernel_size: 5
    weight_filler {
      type: "xavier"
      std: 0.03
    }
    bias_filler {
      type: "constant"
      value: 0.2
    }
  }
}
layer {
  name: "inception_4d/relu_5x5"
  type: "ReLU"
  bottom: "inception_4d/5x5"
  top: "inception_4d/5x5"
}
layer {
  name: "inception_4d/pool"
  type: "Pooling"
  bottom: "inception_4c/output"
  top: "inception_4d/pool"
  pooling_param {
    pool: MAX
    kernel_size: 3
    stride: 1
    pad: 1
  }
}
layer {
  name: "inception_4d/pool_proj"
  type: "Convolution"
  bottom: "inception_4d/pool"
  top: "inception_4d/pool_proj"
  param {
    lr_mult: 1
    decay_mult: 1
  }
  param {
    lr_mult: 2
    decay_mult: 0
  }
  convolution_param {
    num_output: 64
    kernel_size: 1
    weight_filler {
      type: "xavier"
      std: 0.1
    }
    bias_filler {
      type: "constant"
      value: 0.2
    }
  }
}
layer {
  name: "inception_4d/relu_pool_proj"
  type: "ReLU"
  bottom: "inception_4d/pool_proj"
  top: "inception_4d/pool_proj"
}
layer {
  name: "inception_4d/output"
  type: "Concat"
  bottom: "inception_4d/1x1"
  bottom: "inception_4d/3x3"
  bottom: "inception_4d/5x5"
  bottom: "inception_4d/pool_proj"
  top: "inception_4d/output"
}
layer {
  name: "loss2/ave_pool"
  type: "Pooling"
  bottom: "inception_4d/output"
  top: "loss2/ave_pool"
  pooling_param {
    pool: AVE
    kernel_size: 5
    stride: 3
  }
}
layer {
  name: "loss2/conv"
  type: "Convolution"
  bottom: "loss2/ave_pool"
  top: "loss2/conv"
  param {
    lr_mult: 1
    decay_mult: 1
  }
  param {
    lr_mult: 2
    decay_mult: 0
  }
  convolution_param {
    num_output: 128
    kernel_size: 1
    weight_filler {
      type: "xavier"
      std: 0.08
    }
    bias_filler {
      type: "constant"
      value: 0.2
    }
  }
}
layer {
  name: "loss2/relu_conv"
  type: "ReLU"
  bottom: "loss2/conv"
  top: "loss2/conv"
}
layer {
  name: "loss2/fc"
  type: "InnerProduct"
  bottom: "loss2/conv"
  top: "loss2/fc"
  param {
    lr_mult: 1
    decay_mult: 1
  }
  param {
    lr_mult: 2
    decay_mult: 0
  }
  inner_product_param {
    num_output: 1024
    weight_filler {
      type: "xavier"
      std: 0.02
    }
    bias_filler {
      type: "constant"
      value: 0.2
    }
  }
}
layer {
  name: "loss2/relu_fc"
  type: "ReLU"
  bottom: "loss2/fc"
  top: "loss2/fc"
}
layer {
  name: "loss2/drop_fc"
  type: "Dropout"
  bottom: "loss2/fc"
  top: "loss2/fc"
  dropout_param {
    dropout_ratio: 0.7
  }
}
layer {
  name: "loss2/classifier_plantvillage"
  type: "InnerProduct"
  bottom: "loss2/fc"
  top: "loss2/classifier_plantvillage"
  param {
    lr_mult: 1
    decay_mult: 1
  }
  param {
    lr_mult: 2
    decay_mult: 0
  }
  inner_product_param {
    num_output: 38
    weight_filler {
      type: "xavier"
      std: 0.0009765625
    }
    bias_filler {
      type: "constant"
      value: 0
    }
  }
}
layer {
  name: "inception_4e/1x1"
  type: "Convolution"
  bottom: "inception_4d/output"
  top: "inception_4e/1x1"
  param {
    lr_mult: 1
    decay_mult: 1
  }
  param {
    lr_mult: 2
    decay_mult: 0
  }
  convolution_param {
    num_output: 256
    kernel_size: 1
    weight_filler {
      type: "xavier"
      std: 0.03
    }
    bias_filler {
      type: "constant"
      value: 0.2
    }
  }
}
layer {
  name: "inception_4e/relu_1x1"
  type: "ReLU"
  bottom: "inception_4e/1x1"
  top: "inception_4e/1x1"
}
layer {
  name: "inception_4e/3x3_reduce"
  type: "Convolution"
  bottom: "inception_4d/output"
  top: "inception_4e/3x3_reduce"
  param {
    lr_mult: 1
    decay_mult: 1
  }
  param {
    lr_mult: 2
    decay_mult: 0
  }
  convolution_param {
    num_output: 160
    kernel_size: 1
    weight_filler {
      type: "xavier"
      std: 0.09
    }
    bias_filler {
      type: "constant"
      value: 0.2
    }
  }
}
layer {
  name: "inception_4e/relu_3x3_reduce"
  type: "ReLU"
  bottom: "inception_4e/3x3_reduce"
  top: "inception_4e/3x3_reduce"
}
layer {
  name: "inception_4e/3x3"
  type: "Convolution"
  bottom: "inception_4e/3x3_reduce"
  top: "inception_4e/3x3"
  param {
    lr_mult: 1
    decay_mult: 1
  }
  param {
    lr_mult: 2
    decay_mult: 0
  }
  convolution_param {
    num_output: 320
    pad: 1
    kernel_size: 3
    weight_filler {
      type: "xavier"
      std: 0.03
    }
    bias_filler {
      type: "constant"
      value: 0.2
    }
  }
}
layer {
  name: "inception_4e/relu_3x3"
  type: "ReLU"
  bottom: "inception_4e/3x3"
  top: "inception_4e/3x3"
}
layer {
  name: "inception_4e/5x5_reduce"
  type: "Convolution"
  bottom: "inception_4d/output"
  top: "inception_4e/5x5_reduce"
  param {
    lr_mult: 1
    decay_mult: 1
  }
  param {
    lr_mult: 2
    decay_mult: 0
  }
  convolution_param {
    num_output: 32
    kernel_size: 1
    weight_filler {
      type: "xavier"
      std: 0.2
    }
    bias_filler {
      type: "constant"
      value: 0.2
    }
  }
}
layer {
  name: "inception_4e/relu_5x5_reduce"
  type: "ReLU"
  bottom: "inception_4e/5x5_reduce"
  top: "inception_4e/5x5_reduce"
}
layer {
  name: "inception_4e/5x5"
  type: "Convolution"
  bottom: "inception_4e/5x5_reduce"
  top: "inception_4e/
I0403 14:54:41.190062 13763 layer_factory.hpp:77] Creating layer data
I0403 14:54:41.190757 13763 net.cpp:91] Creating Layer data
I0403 14:54:41.190788 13763 net.cpp:399] data -> data
I0403 14:54:41.190872 13763 net.cpp:399] data -> label
I0403 14:54:41.190922 13763 data_transformer.cpp:25] Loading mean file from: /home/mohanty/data/final_dataset/lmdb/segmented-20-80/mean.binaryproto
I0403 14:54:41.192056 13768 db_lmdb.cpp:38] Opened lmdb /home/mohanty/data/final_dataset/lmdb/segmented-20-80/test_db
I0403 14:54:41.207131 13763 data_layer.cpp:41] output data size: 24,3,224,224
I0403 14:54:41.233613 13763 net.cpp:141] Setting up data
I0403 14:54:41.233698 13763 net.cpp:148] Top shape: 24 3 224 224 (3612672)
I0403 14:54:41.233719 13763 net.cpp:148] Top shape: 24 (24)
I0403 14:54:41.233734 13763 net.cpp:156] Memory required for data: 14450784
I0403 14:54:41.233762 13763 layer_factory.hpp:77] Creating layer label_data_1_split
I0403 14:54:41.233788 13763 net.cpp:91] Creating Layer label_data_1_split
I0403 14:54:41.233804 13763 net.cpp:425] label_data_1_split <- label
I0403 14:54:41.233836 13763 net.cpp:399] label_data_1_split -> label_data_1_split_0
I0403 14:54:41.233863 13763 net.cpp:399] label_data_1_split -> label_data_1_split_1
I0403 14:54:41.233886 13763 net.cpp:399] label_data_1_split -> label_data_1_split_2
I0403 14:54:41.233906 13763 net.cpp:399] label_data_1_split -> label_data_1_split_3
I0403 14:54:41.233925 13763 net.cpp:399] label_data_1_split -> label_data_1_split_4
I0403 14:54:41.233945 13763 net.cpp:399] label_data_1_split -> label_data_1_split_5
I0403 14:54:41.233964 13763 net.cpp:399] label_data_1_split -> label_data_1_split_6
I0403 14:54:41.233984 13763 net.cpp:399] label_data_1_split -> label_data_1_split_7
I0403 14:54:41.234004 13763 net.cpp:399] label_data_1_split -> label_data_1_split_8
I0403 14:54:41.234025 13763 net.cpp:399] label_data_1_split -> label_data_1_split_9
I0403 14:54:41.234138 13763 net.cpp:141] Setting up label_data_1_split
I0403 14:54:41.234163 13763 net.cpp:148] Top shape: 24 (24)
I0403 14:54:41.234179 13763 net.cpp:148] Top shape: 24 (24)
I0403 14:54:41.234194 13763 net.cpp:148] Top shape: 24 (24)
I0403 14:54:41.234210 13763 net.cpp:148] Top shape: 24 (24)
I0403 14:54:41.234223 13763 net.cpp:148] Top shape: 24 (24)
I0403 14:54:41.234238 13763 net.cpp:148] Top shape: 24 (24)
I0403 14:54:41.234253 13763 net.cpp:148] Top shape: 24 (24)
I0403 14:54:41.234280 13763 net.cpp:148] Top shape: 24 (24)
I0403 14:54:41.234295 13763 net.cpp:148] Top shape: 24 (24)
I0403 14:54:41.234313 13763 net.cpp:148] Top shape: 24 (24)
I0403 14:54:41.234359 13763 net.cpp:156] Memory required for data: 14451744
I0403 14:54:41.234375 13763 layer_factory.hpp:77] Creating layer conv1/7x7_s2
I0403 14:54:41.234433 13763 net.cpp:91] Creating Layer conv1/7x7_s2
I0403 14:54:41.234453 13763 net.cpp:425] conv1/7x7_s2 <- data
I0403 14:54:41.234473 13763 net.cpp:399] conv1/7x7_s2 -> conv1/7x7_s2
I0403 14:54:41.374963 13763 net.cpp:141] Setting up conv1/7x7_s2
I0403 14:54:41.375027 13763 net.cpp:148] Top shape: 24 64 112 112 (19267584)
I0403 14:54:41.375044 13763 net.cpp:156] Memory required for data: 91522080
I0403 14:54:41.375073 13763 layer_factory.hpp:77] Creating layer conv1/relu_7x7
I0403 14:54:41.375100 13763 net.cpp:91] Creating Layer conv1/relu_7x7
I0403 14:54:41.375118 13763 net.cpp:425] conv1/relu_7x7 <- conv1/7x7_s2
I0403 14:54:41.375138 13763 net.cpp:386] conv1/relu_7x7 -> conv1/7x7_s2 (in-place)
I0403 14:54:41.375391 13763 net.cpp:141] Setting up conv1/relu_7x7
I0403 14:54:41.375417 13763 net.cpp:148] Top shape: 24 64 112 112 (19267584)
I0403 14:54:41.375433 13763 net.cpp:156] Memory required for data: 168592416
I0403 14:54:41.375447 13763 layer_factory.hpp:77] Creating layer pool1/3x3_s2
I0403 14:54:41.375485 13763 net.cpp:91] Creating Layer pool1/3x3_s2
I0403 14:54:41.375505 13763 net.cpp:425] pool1/3x3_s2 <- conv1/7x7_s2
I0403 14:54:41.375524 13763 net.cpp:399] pool1/3x3_s2 -> pool1/3x3_s2
I0403 14:54:41.375599 13763 net.cpp:141] Setting up pool1/3x3_s2
I0403 14:54:41.375624 13763 net.cpp:148] Top shape: 24 64 56 56 (4816896)
I0403 14:54:41.375638 13763 net.cpp:156] Memory required for data: 187860000
I0403 14:54:41.375653 13763 layer_factory.hpp:77] Creating layer pool1/norm1
I0403 14:54:41.375690 13763 net.cpp:91] Creating Layer pool1/norm1
I0403 14:54:41.375710 13763 net.cpp:425] pool1/norm1 <- pool1/3x3_s2
I0403 14:54:41.375727 13763 net.cpp:399] pool1/norm1 -> pool1/norm1
I0403 14:54:41.376021 13763 net.cpp:141] Setting up pool1/norm1
I0403 14:54:41.376049 13763 net.cpp:148] Top shape: 24 64 56 56 (4816896)
I0403 14:54:41.376063 13763 net.cpp:156] Memory required for data: 207127584
I0403 14:54:41.376078 13763 layer_factory.hpp:77] Creating layer conv2/3x3_reduce
I0403 14:54:41.376103 13763 net.cpp:91] Creating Layer conv2/3x3_reduce
I0403 14:54:41.376119 13763 net.cpp:425] conv2/3x3_reduce <- pool1/norm1
I0403 14:54:41.376137 13763 net.cpp:399] conv2/3x3_reduce -> conv2/3x3_reduce
I0403 14:54:41.377496 13763 net.cpp:141] Setting up conv2/3x3_reduce
I0403 14:54:41.377531 13763 net.cpp:148] Top shape: 24 64 56 56 (4816896)
I0403 14:54:41.377552 13763 net.cpp:156] Memory required for data: 226395168
I0403 14:54:41.377576 13763 layer_factory.hpp:77] Creating layer conv2/relu_3x3_reduce
I0403 14:54:41.377595 13763 net.cpp:91] Creating Layer conv2/relu_3x3_reduce
I0403 14:54:41.377611 13763 net.cpp:425] conv2/relu_3x3_reduce <- conv2/3x3_reduce
I0403 14:54:41.377629 13763 net.cpp:386] conv2/relu_3x3_reduce -> conv2/3x3_reduce (in-place)
I0403 14:54:41.377900 13763 net.cpp:141] Setting up conv2/relu_3x3_reduce
I0403 14:54:41.377931 13763 net.cpp:148] Top shape: 24 64 56 56 (4816896)
I0403 14:54:41.377949 13763 net.cpp:156] Memory required for data: 245662752
I0403 14:54:41.377964 13763 layer_factory.hpp:77] Creating layer conv2/3x3
I0403 14:54:41.377988 13763 net.cpp:91] Creating Layer conv2/3x3
I0403 14:54:41.378006 13763 net.cpp:425] conv2/3x3 <- conv2/3x3_reduce
I0403 14:54:41.378026 13763 net.cpp:399] conv2/3x3 -> conv2/3x3
I0403 14:54:41.380349 13763 net.cpp:141] Setting up conv2/3x3
I0403 14:54:41.380383 13763 net.cpp:148] Top shape: 24 192 56 56 (14450688)
I0403 14:54:41.380401 13763 net.cpp:156] Memory required for data: 303465504
I0403 14:54:41.380422 13763 layer_factory.hpp:77] Creating layer conv2/relu_3x3
I0403 14:54:41.380441 13763 net.cpp:91] Creating Layer conv2/relu_3x3
I0403 14:54:41.380458 13763 net.cpp:425] conv2/relu_3x3 <- conv2/3x3
I0403 14:54:41.380475 13763 net.cpp:386] conv2/relu_3x3 -> conv2/3x3 (in-place)
I0403 14:54:41.380659 13763 net.cpp:141] Setting up conv2/relu_3x3
I0403 14:54:41.380686 13763 net.cpp:148] Top shape: 24 192 56 56 (14450688)
I0403 14:54:41.380731 13763 net.cpp:156] Memory required for data: 361268256
I0403 14:54:41.380748 13763 layer_factory.hpp:77] Creating layer conv2/norm2
I0403 14:54:41.380769 13763 net.cpp:91] Creating Layer conv2/norm2
I0403 14:54:41.380786 13763 net.cpp:425] conv2/norm2 <- conv2/3x3
I0403 14:54:41.380805 13763 net.cpp:399] conv2/norm2 -> conv2/norm2
I0403 14:54:41.381108 13763 net.cpp:141] Setting up conv2/norm2
I0403 14:54:41.381135 13763 net.cpp:148] Top shape: 24 192 56 56 (14450688)
I0403 14:54:41.381151 13763 net.cpp:156] Memory required for data: 419071008
I0403 14:54:41.381165 13763 layer_factory.hpp:77] Creating layer pool2/3x3_s2
I0403 14:54:41.381186 13763 net.cpp:91] Creating Layer pool2/3x3_s2
I0403 14:54:41.381202 13763 net.cpp:425] pool2/3x3_s2 <- conv2/norm2
I0403 14:54:41.381220 13763 net.cpp:399] pool2/3x3_s2 -> pool2/3x3_s2
I0403 14:54:41.381273 13763 net.cpp:141] Setting up pool2/3x3_s2
I0403 14:54:41.381296 13763 net.cpp:148] Top shape: 24 192 28 28 (3612672)
I0403 14:54:41.381311 13763 net.cpp:156] Memory required for data: 433521696
I0403 14:54:41.381325 13763 layer_factory.hpp:77] Creating layer pool2/3x3_s2_pool2/3x3_s2_0_split
I0403 14:54:41.381343 13763 net.cpp:91] Creating Layer pool2/3x3_s2_pool2/3x3_s2_0_split
I0403 14:54:41.381357 13763 net.cpp:425] pool2/3x3_s2_pool2/3x3_s2_0_split <- pool2/3x3_s2
I0403 14:54:41.381377 13763 net.cpp:399] pool2/3x3_s2_pool2/3x3_s2_0_split -> pool2/3x3_s2_pool2/3x3_s2_0_split_0
I0403 14:54:41.381398 13763 net.cpp:399] pool2/3x3_s2_pool2/3x3_s2_0_split -> pool2/3x3_s2_pool2/3x3_s2_0_split_1
I0403 14:54:41.381418 13763 net.cpp:399] pool2/3x3_s2_pool2/3x3_s2_0_split -> pool2/3x3_s2_pool2/3x3_s2_0_split_2
I0403 14:54:41.381438 13763 net.cpp:399] pool2/3x3_s2_pool2/3x3_s2_0_split -> pool2/3x3_s2_pool2/3x3_s2_0_split_3
I0403 14:54:41.381510 13763 net.cpp:141] Setting up pool2/3x3_s2_pool2/3x3_s2_0_split
I0403 14:54:41.381534 13763 net.cpp:148] Top shape: 24 192 28 28 (3612672)
I0403 14:54:41.381557 13763 net.cpp:148] Top shape: 24 192 28 28 (3612672)
I0403 14:54:41.381575 13763 net.cpp:148] Top shape: 24 192 28 28 (3612672)
I0403 14:54:41.381592 13763 net.cpp:148] Top shape: 24 192 28 28 (3612672)
I0403 14:54:41.381605 13763 net.cpp:156] Memory required for data: 491324448
I0403 14:54:41.381619 13763 layer_factory.hpp:77] Creating layer inception_3a/1x1
I0403 14:54:41.381642 13763 net.cpp:91] Creating Layer inception_3a/1x1
I0403 14:54:41.381659 13763 net.cpp:425] inception_3a/1x1 <- pool2/3x3_s2_pool2/3x3_s2_0_split_0
I0403 14:54:41.381678 13763 net.cpp:399] inception_3a/1x1 -> inception_3a/1x1
I0403 14:54:41.383206 13763 net.cpp:141] Setting up inception_3a/1x1
I0403 14:54:41.383235 13763 net.cpp:148] Top shape: 24 64 28 28 (1204224)
I0403 14:54:41.383252 13763 net.cpp:156] Memory required for data: 496141344
I0403 14:54:41.383275 13763 layer_factory.hpp:77] Creating layer inception_3a/relu_1x1
I0403 14:54:41.383296 13763 net.cpp:91] Creating Layer inception_3a/relu_1x1
I0403 14:54:41.383311 13763 net.cpp:425] inception_3a/relu_1x1 <- inception_3a/1x1
I0403 14:54:41.383329 13763 net.cpp:386] inception_3a/relu_1x1 -> inception_3a/1x1 (in-place)
I0403 14:54:41.383502 13763 net.cpp:141] Setting up inception_3a/relu_1x1
I0403 14:54:41.383527 13763 net.cpp:148] Top shape: 24 64 28 28 (1204224)
I0403 14:54:41.383546 13763 net.cpp:156] Memory required for data: 500958240
I0403 14:54:41.383561 13763 layer_factory.hpp:77] Creating layer inception_3a/3x3_reduce
I0403 14:54:41.383584 13763 net.cpp:91] Creating Layer inception_3a/3x3_reduce
I0403 14:54:41.383600 13763 net.cpp:425] inception_3a/3x3_reduce <- pool2/3x3_s2_pool2/3x3_s2_0_split_1
I0403 14:54:41.383622 13763 net.cpp:399] inception_3a/3x3_reduce -> inception_3a/3x3_reduce
I0403 14:54:41.385293 13763 net.cpp:141] Setting up inception_3a/3x3_reduce
I0403 14:54:41.385326 13763 net.cpp:148] Top shape: 24 96 28 28 (1806336)
I0403 14:54:41.385344 13763 net.cpp:156] Memory required for data: 508183584
I0403 14:54:41.385367 13763 layer_factory.hpp:77] Creating layer inception_3a/relu_3x3_reduce
I0403 14:54:41.385403 13763 net.cpp:91] Creating Layer inception_3a/relu_3x3_reduce
I0403 14:54:41.385421 13763 net.cpp:425] inception_3a/relu_3x3_reduce <- inception_3a/3x3_reduce
I0403 14:54:41.385439 13763 net.cpp:386] inception_3a/relu_3x3_reduce -> inception_3a/3x3_reduce (in-place)
I0403 14:54:41.385624 13763 net.cpp:141] Setting up inception_3a/relu_3x3_reduce
I0403 14:54:41.385650 13763 net.cpp:148] Top shape: 24 96 28 28 (1806336)
I0403 14:54:41.385664 13763 net.cpp:156] Memory required for data: 515408928
I0403 14:54:41.385679 13763 layer_factory.hpp:77] Creating layer inception_3a/3x3
I0403 14:54:41.385702 13763 net.cpp:91] Creating Layer inception_3a/3x3
I0403 14:54:41.385720 13763 net.cpp:425] inception_3a/3x3 <- inception_3a/3x3_reduce
I0403 14:54:41.385741 13763 net.cpp:399] inception_3a/3x3 -> inception_3a/3x3
I0403 14:54:41.387372 13763 net.cpp:141] Setting up inception_3a/3x3
I0403 14:54:41.387404 13763 net.cpp:148] Top shape: 24 128 28 28 (2408448)
I0403 14:54:41.387423 13763 net.cpp:156] Memory required for data: 525042720
I0403 14:54:41.387442 13763 layer_factory.hpp:77] Creating layer inception_3a/relu_3x3
I0403 14:54:41.387461 13763 net.cpp:91] Creating Layer inception_3a/relu_3x3
I0403 14:54:41.387477 13763 net.cpp:425] inception_3a/relu_3x3 <- inception_3a/3x3
I0403 14:54:41.387496 13763 net.cpp:386] inception_3a/relu_3x3 -> inception_3a/3x3 (in-place)
I0403 14:54:41.387769 13763 net.cpp:141] Setting up inception_3a/relu_3x3
I0403 14:54:41.387799 13763 net.cpp:148] Top shape: 24 128 28 28 (2408448)
I0403 14:54:41.387815 13763 net.cpp:156] Memory required for data: 534676512
I0403 14:54:41.387830 13763 layer_factory.hpp:77] Creating layer inception_3a/5x5_reduce
I0403 14:54:41.387852 13763 net.cpp:91] Creating Layer inception_3a/5x5_reduce
I0403 14:54:41.387869 13763 net.cpp:425] inception_3a/5x5_reduce <- pool2/3x3_s2_pool2/3x3_s2_0_split_2
I0403 14:54:41.387888 13763 net.cpp:399] inception_3a/5x5_reduce -> inception_3a/5x5_reduce
I0403 14:54:41.388839 13763 net.cpp:141] Setting up inception_3a/5x5_reduce
I0403 14:54:41.388870 13763 net.cpp:148] Top shape: 24 16 28 28 (301056)
I0403 14:54:41.388888 13763 net.cpp:156] Memory required for data: 535880736
I0403 14:54:41.388907 13763 layer_factory.hpp:77] Creating layer inception_3a/relu_5x5_reduce
I0403 14:54:41.388926 13763 net.cpp:91] Creating Layer inception_3a/relu_5x5_reduce
I0403 14:54:41.388942 13763 net.cpp:425] inception_3a/relu_5x5_reduce <- inception_3a/5x5_reduce
I0403 14:54:41.388963 13763 net.cpp:386] inception_3a/relu_5x5_reduce -> inception_3a/5x5_reduce (in-place)
I0403 14:54:41.389264 13763 net.cpp:141] Setting up inception_3a/relu_5x5_reduce
I0403 14:54:41.389292 13763 net.cpp:148] Top shape: 24 16 28 28 (301056)
I0403 14:54:41.389319 13763 net.cpp:156] Memory required for data: 537084960
I0403 14:54:41.389334 13763 layer_factory.hpp:77] Creating layer inception_3a/5x5
I0403 14:54:41.389358 13763 net.cpp:91] Creating Layer inception_3a/5x5
I0403 14:54:41.389375 13763 net.cpp:425] inception_3a/5x5 <- inception_3a/5x5_reduce
I0403 14:54:41.389396 13763 net.cpp:399] inception_3a/5x5 -> inception_3a/5x5
I0403 14:54:41.390416 13763 net.cpp:141] Setting up inception_3a/5x5
I0403 14:54:41.390445 13763 net.cpp:148] Top shape: 24 32 28 28 (602112)
I0403 14:54:41.390462 13763 net.cpp:156] Memory required for data: 539493408
I0403 14:54:41.390483 13763 layer_factory.hpp:77] Creating layer inception_3a/relu_5x5
I0403 14:54:41.390503 13763 net.cpp:91] Creating Layer inception_3a/relu_5x5
I0403 14:54:41.390519 13763 net.cpp:425] inception_3a/relu_5x5 <- inception_3a/5x5
I0403 14:54:41.390540 13763 net.cpp:386] inception_3a/relu_5x5 -> inception_3a/5x5 (in-place)
I0403 14:54:41.390714 13763 net.cpp:141] Setting up inception_3a/relu_5x5
I0403 14:54:41.390738 13763 net.cpp:148] Top shape: 24 32 28 28 (602112)
I0403 14:54:41.390753 13763 net.cpp:156] Memory required for data: 541901856
I0403 14:54:41.390768 13763 layer_factory.hpp:77] Creating layer inception_3a/pool
I0403 14:54:41.390785 13763 net.cpp:91] Creating Layer inception_3a/pool
I0403 14:54:41.390815 13763 net.cpp:425] inception_3a/pool <- pool2/3x3_s2_pool2/3x3_s2_0_split_3
I0403 14:54:41.390836 13763 net.cpp:399] inception_3a/pool -> inception_3a/pool
I0403 14:54:41.390893 13763 net.cpp:141] Setting up inception_3a/pool
I0403 14:54:41.390916 13763 net.cpp:148] Top shape: 24 192 28 28 (3612672)
I0403 14:54:41.390931 13763 net.cpp:156] Memory required for data: 556352544
I0403 14:54:41.390945 13763 layer_factory.hpp:77] Creating layer inception_3a/pool_proj
I0403 14:54:41.390969 13763 net.cpp:91] Creating Layer inception_3a/pool_proj
I0403 14:54:41.390987 13763 net.cpp:425] inception_3a/pool_proj <- inception_3a/pool
I0403 14:54:41.391005 13763 net.cpp:399] inception_3a/pool_proj -> inception_3a/pool_proj
I0403 14:54:41.391958 13763 net.cpp:141] Setting up inception_3a/pool_proj
I0403 14:54:41.391988 13763 net.cpp:148] Top shape: 24 32 28 28 (602112)
I0403 14:54:41.392005 13763 net.cpp:156] Memory required for data: 558760992
I0403 14:54:41.392030 13763 layer_factory.hpp:77] Creating layer inception_3a/relu_pool_proj
I0403 14:54:41.392052 13763 net.cpp:91] Creating Layer inception_3a/relu_pool_proj
I0403 14:54:41.392071 13763 net.cpp:425] inception_3a/relu_pool_proj <- inception_3a/pool_proj
I0403 14:54:41.392091 13763 net.cpp:386] inception_3a/relu_pool_proj -> inception_3a/pool_proj (in-place)
I0403 14:54:41.392365 13763 net.cpp:141] Setting up inception_3a/relu_pool_proj
I0403 14:54:41.392396 13763 net.cpp:148] Top shape: 24 32 28 28 (602112)
I0403 14:54:41.392413 13763 net.cpp:156] Memory required for data: 561169440
I0403 14:54:41.392428 13763 layer_factory.hpp:77] Creating layer inception_3a/output
I0403 14:54:41.392446 13763 net.cpp:91] Creating Layer inception_3a/output
I0403 14:54:41.392462 13763 net.cpp:425] inception_3a/output <- inception_3a/1x1
I0403 14:54:41.392477 13763 net.cpp:425] inception_3a/output <- inception_3a/3x3
I0403 14:54:41.392493 13763 net.cpp:425] inception_3a/output <- inception_3a/5x5
I0403 14:54:41.392508 13763 net.cpp:425] inception_3a/output <- inception_3a/pool_proj
I0403 14:54:41.392527 13763 net.cpp:399] inception_3a/output -> inception_3a/output
I0403 14:54:41.392578 13763 net.cpp:141] Setting up inception_3a/output
I0403 14:54:41.392602 13763 net.cpp:148] Top shape: 24 256 28 28 (4816896)
I0403 14:54:41.392616 13763 net.cpp:156] Memory required for data: 580437024
I0403 14:54:41.392630 13763 layer_factory.hpp:77] Creating layer inception_3a/output_inception_3a/output_0_split
I0403 14:54:41.392650 13763 net.cpp:91] Creating Layer inception_3a/output_inception_3a/output_0_split
I0403 14:54:41.392666 13763 net.cpp:425] inception_3a/output_inception_3a/output_0_split <- inception_3a/output
I0403 14:54:41.392683 13763 net.cpp:399] inception_3a/output_inception_3a/output_0_split -> inception_3a/output_inception_3a/output_0_split_0
I0403 14:54:41.392704 13763 net.cpp:399] inception_3a/output_inception_3a/output_0_split -> inception_3a/output_inception_3a/output_0_split_1
I0403 14:54:41.392727 13763 net.cpp:399] inception_3a/output_inception_3a/output_0_split -> inception_3a/output_inception_3a/output_0_split_2
I0403 14:54:41.392750 13763 net.cpp:399] inception_3a/output_inception_3a/output_0_split -> inception_3a/output_inception_3a/output_0_split_3
I0403 14:54:41.392822 13763 net.cpp:141] Setting up inception_3a/output_inception_3a/output_0_split
I0403 14:54:41.392845 13763 net.cpp:148] Top shape: 24 256 28 28 (4816896)
I0403 14:54:41.392866 13763 net.cpp:148] Top shape: 24 256 28 28 (4816896)
I0403 14:54:41.392882 13763 net.cpp:148] Top shape: 24 256 28 28 (4816896)
I0403 14:54:41.392897 13763 net.cpp:148] Top shape: 24 256 28 28 (4816896)
I0403 14:54:41.392911 13763 net.cpp:156] Memory required for data: 657507360
I0403 14:54:41.392925 13763 layer_factory.hpp:77] Creating layer inception_3b/1x1
I0403 14:54:41.392947 13763 net.cpp:91] Creating Layer inception_3b/1x1
I0403 14:54:41.392966 13763 net.cpp:425] inception_3b/1x1 <- inception_3a/output_inception_3a/output_0_split_0
I0403 14:54:41.392983 13763 net.cpp:399] inception_3b/1x1 -> inception_3b/1x1
I0403 14:54:41.394104 13763 net.cpp:141] Setting up inception_3b/1x1
I0403 14:54:41.394145 13763 net.cpp:148] Top shape: 24 128 28 28 (2408448)
I0403 14:54:41.394160 13763 net.cpp:156] Memory required for data: 667141152
I0403 14:54:41.394178 13763 layer_factory.hpp:77] Creating layer inception_3b/relu_1x1
I0403 14:54:41.394198 13763 net.cpp:91] Creating Layer inception_3b/relu_1x1
I0403 14:54:41.394215 13763 net.cpp:425] inception_3b/relu_1x1 <- inception_3b/1x1
I0403 14:54:41.394233 13763 net.cpp:386] inception_3b/relu_1x1 -> inception_3b/1x1 (in-place)
I0403 14:54:41.394405 13763 net.cpp:141] Setting up inception_3b/relu_1x1
I0403 14:54:41.394433 13763 net.cpp:148] Top shape: 24 128 28 28 (2408448)
I0403 14:54:41.394448 13763 net.cpp:156] Memory required for data: 676774944
I0403 14:54:41.394464 13763 layer_factory.hpp:77] Creating layer inception_3b/3x3_reduce
I0403 14:54:41.394485 13763 net.cpp:91] Creating Layer inception_3b/3x3_reduce
I0403 14:54:41.394503 13763 net.cpp:425] inception_3b/3x3_reduce <- inception_3a/output_inception_3a/output_0_split_1
I0403 14:54:41.394521 13763 net.cpp:399] inception_3b/3x3_reduce -> inception_3b/3x3_reduce
I0403 14:54:41.395664 13763 net.cpp:141] Setting up inception_3b/3x3_reduce
I0403 14:54:41.395694 13763 net.cpp:148] Top shape: 24 128 28 28 (2408448)
I0403 14:54:41.395710 13763 net.cpp:156] Memory required for data: 686408736
I0403 14:54:41.395730 13763 layer_factory.hpp:77] Creating layer inception_3b/relu_3x3_reduce
I0403 14:54:41.395750 13763 net.cpp:91] Creating Layer inception_3b/relu_3x3_reduce
I0403 14:54:41.395767 13763 net.cpp:425] inception_3b/relu_3x3_reduce <- inception_3b/3x3_reduce
I0403 14:54:41.395784 13763 net.cpp:386] inception_3b/relu_3x3_reduce -> inception_3b/3x3_reduce (in-place)
I0403 14:54:41.395963 13763 net.cpp:141] Setting up inception_3b/relu_3x3_reduce
I0403 14:54:41.395992 13763 net.cpp:148] Top shape: 24 128 28 28 (2408448)
I0403 14:54:41.396008 13763 net.cpp:156] Memory required for data: 696042528
I0403 14:54:41.396021 13763 layer_factory.hpp:77] Creating layer inception_3b/3x3
I0403 14:54:41.396045 13763 net.cpp:91] Creating Layer inception_3b/3x3
I0403 14:54:41.396062 13763 net.cpp:425] inception_3b/3x3 <- inception_3b/3x3_reduce
I0403 14:54:41.396082 13763 net.cpp:399] inception_3b/3x3 -> inception_3b/3x3
I0403 14:54:41.398919 13763 net.cpp:141] Setting up inception_3b/3x3
I0403 14:54:41.398952 13763 net.cpp:148] Top shape: 24 192 28 28 (3612672)
I0403 14:54:41.398969 13763 net.cpp:156] Memory required for data: 710493216
I0403 14:54:41.398988 13763 layer_factory.hpp:77] Creating layer inception_3b/relu_3x3
I0403 14:54:41.399008 13763 net.cpp:91] Creating Layer inception_3b/relu_3x3
I0403 14:54:41.399024 13763 net.cpp:425] inception_3b/relu_3x3 <- inception_3b/3x3
I0403 14:54:41.399042 13763 net.cpp:386] inception_3b/relu_3x3 -> inception_3b/3x3 (in-place)
I0403 14:54:41.399308 13763 net.cpp:141] Setting up inception_3b/relu_3x3
I0403 14:54:41.399336 13763 net.cpp:148] Top shape: 24 192 28 28 (3612672)
I0403 14:54:41.399353 13763 net.cpp:156] Memory required for data: 724943904
I0403 14:54:41.399368 13763 layer_factory.hpp:77] Creating layer inception_3b/5x5_reduce
I0403 14:54:41.399390 13763 net.cpp:91] Creating Layer inception_3b/5x5_reduce
I0403 14:54:41.399407 13763 net.cpp:425] inception_3b/5x5_reduce <- inception_3a/output_inception_3a/output_0_split_2
I0403 14:54:41.399426 13763 net.cpp:399] inception_3b/5x5_reduce -> inception_3b/5x5_reduce
I0403 14:54:41.400388 13763 net.cpp:141] Setting up inception_3b/5x5_reduce
I0403 14:54:41.400418 13763 net.cpp:148] Top shape: 24 32 28 28 (602112)
I0403 14:54:41.400434 13763 net.cpp:156] Memory required for data: 727352352
I0403 14:54:41.400451 13763 layer_factory.hpp:77] Creating layer inception_3b/relu_5x5_reduce
I0403 14:54:41.400470 13763 net.cpp:91] Creating Layer inception_3b/relu_5x5_reduce
I0403 14:54:41.400485 13763 net.cpp:425] inception_3b/relu_5x5_reduce <- inception_3b/5x5_reduce
I0403 14:54:41.400503 13763 net.cpp:386] inception_3b/relu_5x5_reduce -> inception_3b/5x5_reduce (in-place)
I0403 14:54:41.400691 13763 net.cpp:141] Setting up inception_3b/relu_5x5_reduce
I0403 14:54:41.400715 13763 net.cpp:148] Top shape: 24 32 28 28 (602112)
I0403 14:54:41.400729 13763 net.cpp:156] Memory required for data: 729760800
I0403 14:54:41.400743 13763 layer_factory.hpp:77] Creating layer inception_3b/5x5
I0403 14:54:41.400764 13763 net.cpp:91] Creating Layer inception_3b/5x5
I0403 14:54:41.400782 13763 net.cpp:425] inception_3b/5x5 <- inception_3b/5x5_reduce
I0403 14:54:41.400802 13763 net.cpp:399] inception_3b/5x5 -> inception_3b/5x5
I0403 14:54:41.402711 13763 net.cpp:141] Setting up inception_3b/5x5
I0403 14:54:41.402740 13763 net.cpp:148] Top shape: 24 96 28 28 (1806336)
I0403 14:54:41.402757 13763 net.cpp:156] Memory required for data: 736986144
I0403 14:54:41.402775 13763 layer_factory.hpp:77] Creating layer inception_3b/relu_5x5
I0403 14:54:41.402794 13763 net.cpp:91] Creating Layer inception_3b/relu_5x5
I0403 14:54:41.402812 13763 net.cpp:425] inception_3b/relu_5x5 <- inception_3b/5x5
I0403 14:54:41.402830 13763 net.cpp:386] inception_3b/relu_5x5 -> inception_3b/5x5 (in-place)
I0403 14:54:41.403014 13763 net.cpp:141] Setting up inception_3b/relu_5x5
I0403 14:54:41.403039 13763 net.cpp:148] Top shape: 24 96 28 28 (1806336)
I0403 14:54:41.403053 13763 net.cpp:156] Memory required for data: 744211488
I0403 14:54:41.403067 13763 layer_factory.hpp:77] Creating layer inception_3b/pool
I0403 14:54:41.403084 13763 net.cpp:91] Creating Layer inception_3b/pool
I0403 14:54:41.403100 13763 net.cpp:425] inception_3b/pool <- inception_3a/output_inception_3a/output_0_split_3
I0403 14:54:41.403117 13763 net.cpp:399] inception_3b/pool -> inception_3b/pool
I0403 14:54:41.403170 13763 net.cpp:141] Setting up inception_3b/pool
I0403 14:54:41.403193 13763 net.cpp:148] Top shape: 24 256 28 28 (4816896)
I0403 14:54:41.403208 13763 net.cpp:156] Memory required for data: 763479072
I0403 14:54:41.403221 13763 layer_factory.hpp:77] Creating layer inception_3b/pool_proj
I0403 14:54:41.403244 13763 net.cpp:91] Creating Layer inception_3b/pool_proj
I0403 14:54:41.403262 13763 net.cpp:425] inception_3b/pool_proj <- inception_3b/pool
I0403 14:54:41.403283 13763 net.cpp:399] inception_3b/pool_proj -> inception_3b/pool_proj
I0403 14:54:41.404319 13763 net.cpp:141] Setting up inception_3b/pool_proj
I0403 14:54:41.404347 13763 net.cpp:148] Top shape: 24 64 28 28 (1204224)
I0403 14:54:41.404363 13763 net.cpp:156] Memory required for data: 768295968
I0403 14:54:41.404381 13763 layer_factory.hpp:77] Creating layer inception_3b/relu_pool_proj
I0403 14:54:41.404398 13763 net.cpp:91] Creating Layer inception_3b/relu_pool_proj
I0403 14:54:41.404415 13763 net.cpp:425] inception_3b/relu_pool_proj <- inception_3b/pool_proj
I0403 14:54:41.404434 13763 net.cpp:386] inception_3b/relu_pool_proj -> inception_3b/pool_proj (in-place)
I0403 14:54:41.404842 13763 net.cpp:141] Setting up inception_3b/relu_pool_proj
I0403 14:54:41.404870 13763 net.cpp:148] Top shape: 24 64 28 28 (1204224)
I0403 14:54:41.404886 13763 net.cpp:156] Memory required for data: 773112864
I0403 14:54:41.404902 13763 layer_factory.hpp:77] Creating layer inception_3b/output
I0403 14:54:41.404920 13763 net.cpp:91] Creating Layer inception_3b/output
I0403 14:54:41.404937 13763 net.cpp:425] inception_3b/output <- inception_3b/1x1
I0403 14:54:41.404953 13763 net.cpp:425] inception_3b/output <- inception_3b/3x3
I0403 14:54:41.404969 13763 net.cpp:425] inception_3b/output <- inception_3b/5x5
I0403 14:54:41.404985 13763 net.cpp:425] inception_3b/output <- inception_3b/pool_proj
I0403 14:54:41.405005 13763 net.cpp:399] inception_3b/output -> inception_3b/output
I0403 14:54:41.405050 13763 net.cpp:141] Setting up inception_3b/output
I0403 14:54:41.405076 13763 net.cpp:148] Top shape: 24 480 28 28 (9031680)
I0403 14:54:41.405091 13763 net.cpp:156] Memory required for data: 809239584
I0403 14:54:41.405105 13763 layer_factory.hpp:77] Creating layer pool3/3x3_s2
I0403 14:54:41.405125 13763 net.cpp:91] Creating Layer pool3/3x3_s2
I0403 14:54:41.405143 13763 net.cpp:425] pool3/3x3_s2 <- inception_3b/output
I0403 14:54:41.405177 13763 net.cpp:399] pool3/3x3_s2 -> pool3/3x3_s2
I0403 14:54:41.405239 13763 net.cpp:141] Setting up pool3/3x3_s2
I0403 14:54:41.405267 13763 net.cpp:148] Top shape: 24 480 14 14 (2257920)
I0403 14:54:41.405282 13763 net.cpp:156] Memory required for data: 818271264
I0403 14:54:41.405308 13763 layer_factory.hpp:77] Creating layer pool3/3x3_s2_pool3/3x3_s2_0_split
I0403 14:54:41.405328 13763 net.cpp:91] Creating Layer pool3/3x3_s2_pool3/3x3_s2_0_split
I0403 14:54:41.405345 13763 net.cpp:425] pool3/3x3_s2_pool3/3x3_s2_0_split <- pool3/3x3_s2
I0403 14:54:41.405364 13763 net.cpp:399] pool3/3x3_s2_pool3/3x3_s2_0_split -> pool3/3x3_s2_pool3/3x3_s2_0_split_0
I0403 14:54:41.405385 13763 net.cpp:399] pool3/3x3_s2_pool3/3x3_s2_0_split -> pool3/3x3_s2_pool3/3x3_s2_0_split_1
I0403 14:54:41.405406 13763 net.cpp:399] pool3/3x3_s2_pool3/3x3_s2_0_split -> pool3/3x3_s2_pool3/3x3_s2_0_split_2
I0403 14:54:41.405426 13763 net.cpp:399] pool3/3x3_s2_pool3/3x3_s2_0_split -> pool3/3x3_s2_pool3/3x3_s2_0_split_3
I0403 14:54:41.405509 13763 net.cpp:141] Setting up pool3/3x3_s2_pool3/3x3_s2_0_split
I0403 14:54:41.405539 13763 net.cpp:148] Top shape: 24 480 14 14 (2257920)
I0403 14:54:41.405560 13763 net.cpp:148] Top shape: 24 480 14 14 (2257920)
I0403 14:54:41.405577 13763 net.cpp:148] Top shape: 24 480 14 14 (2257920)
I0403 14:54:41.405604 13763 net.cpp:148] Top shape: 24 480 14 14 (2257920)
I0403 14:54:41.405617 13763 net.cpp:156] Memory required for data: 854397984
I0403 14:54:41.405633 13763 layer_factory.hpp:77] Creating layer inception_4a/1x1
I0403 14:54:41.405657 13763 net.cpp:91] Creating Layer inception_4a/1x1
I0403 14:54:41.405674 13763 net.cpp:425] inception_4a/1x1 <- pool3/3x3_s2_pool3/3x3_s2_0_split_0
I0403 14:54:41.405697 13763 net.cpp:399] inception_4a/1x1 -> inception_4a/1x1
I0403 14:54:41.407224 13763 net.cpp:141] Setting up inception_4a/1x1
I0403 14:54:41.407253 13763 net.cpp:148] Top shape: 24 192 14 14 (903168)
I0403 14:54:41.407269 13763 net.cpp:156] Memory required for data: 858010656
I0403 14:54:41.407287 13763 layer_factory.hpp:77] Creating layer inception_4a/relu_1x1
I0403 14:54:41.407306 13763 net.cpp:91] Creating Layer inception_4a/relu_1x1
I0403 14:54:41.407323 13763 net.cpp:425] inception_4a/relu_1x1 <- inception_4a/1x1
I0403 14:54:41.407341 13763 net.cpp:386] inception_4a/relu_1x1 -> inception_4a/1x1 (in-place)
I0403 14:54:41.407510 13763 net.cpp:141] Setting up inception_4a/relu_1x1
I0403 14:54:41.407538 13763 net.cpp:148] Top shape: 24 192 14 14 (903168)
I0403 14:54:41.407555 13763 net.cpp:156] Memory required for data: 861623328
I0403 14:54:41.407569 13763 layer_factory.hpp:77] Creating layer inception_4a/3x3_reduce
I0403 14:54:41.407589 13763 net.cpp:91] Creating Layer inception_4a/3x3_reduce
I0403 14:54:41.407604 13763 net.cpp:425] inception_4a/3x3_reduce <- pool3/3x3_s2_pool3/3x3_s2_0_split_1
I0403 14:54:41.407625 13763 net.cpp:399] inception_4a/3x3_reduce -> inception_4a/3x3_reduce
I0403 14:54:41.408857 13763 net.cpp:141] Setting up inception_4a/3x3_reduce
I0403 14:54:41.408886 13763 net.cpp:148] Top shape: 24 96 14 14 (451584)
I0403 14:54:41.408902 13763 net.cpp:156] Memory required for data: 863429664
I0403 14:54:41.408926 13763 layer_factory.hpp:77] Creating layer inception_4a/relu_3x3_reduce
I0403 14:54:41.408946 13763 net.cpp:91] Creating Layer inception_4a/relu_3x3_reduce
I0403 14:54:41.408962 13763 net.cpp:425] inception_4a/relu_3x3_reduce <- inception_4a/3x3_reduce
I0403 14:54:41.408979 13763 net.cpp:386] inception_4a/relu_3x3_reduce -> inception_4a/3x3_reduce (in-place)
I0403 14:54:41.409144 13763 net.cpp:141] Setting up inception_4a/relu_3x3_reduce
I0403 14:54:41.409168 13763 net.cpp:148] Top shape: 24 96 14 14 (451584)
I0403 14:54:41.409183 13763 net.cpp:156] Memory required for data: 865236000
I0403 14:54:41.409196 13763 layer_factory.hpp:77] Creating layer inception_4a/3x3
I0403 14:54:41.409219 13763 net.cpp:91] Creating Layer inception_4a/3x3
I0403 14:54:41.409235 13763 net.cpp:425] inception_4a/3x3 <- inception_4a/3x3_reduce
I0403 14:54:41.409255 13763 net.cpp:399] inception_4a/3x3 -> inception_4a/3x3
I0403 14:54:41.411886 13763 net.cpp:141] Setting up inception_4a/3x3
I0403 14:54:41.411916 13763 net.cpp:148] Top shape: 24 208 14 14 (978432)
I0403 14:54:41.411932 13763 net.cpp:156] Memory required for data: 869149728
I0403 14:54:41.411950 13763 layer_factory.hpp:77] Creating layer inception_4a/relu_3x3
I0403 14:54:41.411972 13763 net.cpp:91] Creating Layer inception_4a/relu_3x3
I0403 14:54:41.411989 13763 net.cpp:425] inception_4a/relu_3x3 <- inception_4a/3x3
I0403 14:54:41.412008 13763 net.cpp:386] inception_4a/relu_3x3 -> inception_4a/3x3 (in-place)
I0403 14:54:41.412282 13763 net.cpp:141] Setting up inception_4a/relu_3x3
I0403 14:54:41.412308 13763 net.cpp:148] Top shape: 24 208 14 14 (978432)
I0403 14:54:41.412324 13763 net.cpp:156] Memory required for data: 873063456
I0403 14:54:41.412338 13763 layer_factory.hpp:77] Creating layer inception_4a/5x5_reduce
I0403 14:54:41.412363 13763 net.cpp:91] Creating Layer inception_4a/5x5_reduce
I0403 14:54:41.412380 13763 net.cpp:425] inception_4a/5x5_reduce <- pool3/3x3_s2_pool3/3x3_s2_0_split_2
I0403 14:54:41.412398 13763 net.cpp:399] inception_4a/5x5_reduce -> inception_4a/5x5_reduce
I0403 14:54:41.413383 13763 net.cpp:141] Setting up inception_4a/5x5_reduce
I0403 14:54:41.413409 13763 net.cpp:148] Top shape: 24 16 14 14 (75264)
I0403 14:54:41.413425 13763 net.cpp:156] Memory required for data: 873364512
I0403 14:54:41.413442 13763 layer_factory.hpp:77] Creating layer inception_4a/relu_5x5_reduce
I0403 14:54:41.413462 13763 net.cpp:91] Creating Layer inception_4a/relu_5x5_reduce
I0403 14:54:41.413480 13763 net.cpp:425] inception_4a/relu_5x5_reduce <- inception_4a/5x5_reduce
I0403 14:54:41.413496 13763 net.cpp:386] inception_4a/relu_5x5_reduce -> inception_4a/5x5_reduce (in-place)
I0403 14:54:41.413673 13763 net.cpp:141] Setting up inception_4a/relu_5x5_reduce
I0403 14:54:41.413697 13763 net.cpp:148] Top shape: 24 16 14 14 (75264)
I0403 14:54:41.413712 13763 net.cpp:156] Memory required for data: 873665568
I0403 14:54:41.413725 13763 layer_factory.hpp:77] Creating layer inception_4a/5x5
I0403 14:54:41.413748 13763 net.cpp:91] Creating Layer inception_4a/5x5
I0403 14:54:41.413764 13763 net.cpp:425] inception_4a/5x5 <- inception_4a/5x5_reduce
I0403 14:54:41.413784 13763 net.cpp:399] inception_4a/5x5 -> inception_4a/5x5
I0403 14:54:41.414844 13763 net.cpp:141] Setting up inception_4a/5x5
I0403 14:54:41.414872 13763 net.cpp:148] Top shape: 24 48 14 14 (225792)
I0403 14:54:41.414886 13763 net.cpp:156] Memory required for data: 874568736
I0403 14:54:41.414904 13763 layer_factory.hpp:77] Creating layer inception_4a/relu_5x5
I0403 14:54:41.414921 13763 net.cpp:91] Creating Layer inception_4a/relu_5x5
I0403 14:54:41.414937 13763 net.cpp:425] inception_4a/relu_5x5 <- inception_4a/5x5
I0403 14:54:41.414957 13763 net.cpp:386] inception_4a/relu_5x5 -> inception_4a/5x5 (in-place)
I0403 14:54:41.415127 13763 net.cpp:141] Setting up inception_4a/relu_5x5
I0403 14:54:41.415151 13763 net.cpp:148] Top shape: 24 48 14 14 (225792)
I0403 14:54:41.415165 13763 net.cpp:156] Memory required for data: 875471904
I0403 14:54:41.415179 13763 layer_factory.hpp:77] Creating layer inception_4a/pool
I0403 14:54:41.415199 13763 net.cpp:91] Creating Layer inception_4a/pool
I0403 14:54:41.415215 13763 net.cpp:425] inception_4a/pool <- pool3/3x3_s2_pool3/3x3_s2_0_split_3
I0403 14:54:41.415232 13763 net.cpp:399] inception_4a/pool -> inception_4a/pool
I0403 14:54:41.415292 13763 net.cpp:141] Setting up inception_4a/pool
I0403 14:54:41.415324 13763 net.cpp:148] Top shape: 24 480 14 14 (2257920)
I0403 14:54:41.415338 13763 net.cpp:156] Memory required for data: 884503584
I0403 14:54:41.415352 13763 layer_factory.hpp:77] Creating layer inception_4a/pool_proj
I0403 14:54:41.415374 13763 net.cpp:91] Creating Layer inception_4a/pool_proj
I0403 14:54:41.415390 13763 net.cpp:425] inception_4a/pool_proj <- inception_4a/pool
I0403 14:54:41.415411 13763 net.cpp:399] inception_4a/pool_proj -> inception_4a/pool_proj
I0403 14:54:41.416524 13763 net.cpp:141] Setting up inception_4a/pool_proj
I0403 14:54:41.416558 13763 net.cpp:148] Top shape: 24 64 14 14 (301056)
I0403 14:54:41.416592 13763 net.cpp:156] Memory required for data: 885707808
I0403 14:54:41.416611 13763 layer_factory.hpp:77] Creating layer inception_4a/relu_pool_proj
I0403 14:54:41.416632 13763 net.cpp:91] Creating Layer inception_4a/relu_pool_proj
I0403 14:54:41.416648 13763 net.cpp:425] inception_4a/relu_pool_proj <- inception_4a/pool_proj
I0403 14:54:41.416666 13763 net.cpp:386] inception_4a/relu_pool_proj -> inception_4a/pool_proj (in-place)
I0403 14:54:41.416937 13763 net.cpp:141] Setting up inception_4a/relu_pool_proj
I0403 14:54:41.416963 13763 net.cpp:148] Top shape: 24 64 14 14 (301056)
I0403 14:54:41.416978 13763 net.cpp:156] Memory required for data: 886912032
I0403 14:54:41.416992 13763 layer_factory.hpp:77] Creating layer inception_4a/output
I0403 14:54:41.417008 13763 net.cpp:91] Creating Layer inception_4a/output
I0403 14:54:41.417023 13763 net.cpp:425] inception_4a/output <- inception_4a/1x1
I0403 14:54:41.417039 13763 net.cpp:425] inception_4a/output <- inception_4a/3x3
I0403 14:54:41.417058 13763 net.cpp:425] inception_4a/output <- inception_4a/5x5
I0403 14:54:41.417074 13763 net.cpp:425] inception_4a/output <- inception_4a/pool_proj
I0403 14:54:41.417090 13763 net.cpp:399] inception_4a/output -> inception_4a/output
I0403 14:54:41.417132 13763 net.cpp:141] Setting up inception_4a/output
I0403 14:54:41.417157 13763 net.cpp:148] Top shape: 24 512 14 14 (2408448)
I0403 14:54:41.417172 13763 net.cpp:156] Memory required for data: 896545824
I0403 14:54:41.417186 13763 layer_factory.hpp:77] Creating layer inception_4a/output_inception_4a/output_0_split
I0403 14:54:41.417203 13763 net.cpp:91] Creating Layer inception_4a/output_inception_4a/output_0_split
I0403 14:54:41.417218 13763 net.cpp:425] inception_4a/output_inception_4a/output_0_split <- inception_4a/output
I0403 14:54:41.417237 13763 net.cpp:399] inception_4a/output_inception_4a/output_0_split -> inception_4a/output_inception_4a/output_0_split_0
I0403 14:54:41.417258 13763 net.cpp:399] inception_4a/output_inception_4a/output_0_split -> inception_4a/output_inception_4a/output_0_split_1
I0403 14:54:41.417278 13763 net.cpp:399] inception_4a/output_inception_4a/output_0_split -> inception_4a/output_inception_4a/output_0_split_2
I0403 14:54:41.417297 13763 net.cpp:399] inception_4a/output_inception_4a/output_0_split -> inception_4a/output_inception_4a/output_0_split_3
I0403 14:54:41.417316 13763 net.cpp:399] inception_4a/output_inception_4a/output_0_split -> inception_4a/output_inception_4a/output_0_split_4
I0403 14:54:41.417405 13763 net.cpp:141] Setting up inception_4a/output_inception_4a/output_0_split
I0403 14:54:41.417428 13763 net.cpp:148] Top shape: 24 512 14 14 (2408448)
I0403 14:54:41.417446 13763 net.cpp:148] Top shape: 24 512 14 14 (2408448)
I0403 14:54:41.417462 13763 net.cpp:148] Top shape: 24 512 14 14 (2408448)
I0403 14:54:41.417479 13763 net.cpp:148] Top shape: 24 512 14 14 (2408448)
I0403 14:54:41.417492 13763 net.cpp:148] Top shape: 24 512 14 14 (2408448)
I0403 14:54:41.417505 13763 net.cpp:156] Memory required for data: 944714784
I0403 14:54:41.417520 13763 layer_factory.hpp:77] Creating layer loss1/ave_pool
I0403 14:54:41.417541 13763 net.cpp:91] Creating Layer loss1/ave_pool
I0403 14:54:41.417557 13763 net.cpp:425] loss1/ave_pool <- inception_4a/output_inception_4a/output_0_split_0
I0403 14:54:41.417577 13763 net.cpp:399] loss1/ave_pool -> loss1/ave_pool
I0403 14:54:41.417770 13763 net.cpp:141] Setting up loss1/ave_pool
I0403 14:54:41.417795 13763 net.cpp:148] Top shape: 24 512 4 4 (196608)
I0403 14:54:41.417810 13763 net.cpp:156] Memory required for data: 945501216
I0403 14:54:41.417824 13763 layer_factory.hpp:77] Creating layer loss1/conv
I0403 14:54:41.417845 13763 net.cpp:91] Creating Layer loss1/conv
I0403 14:54:41.417861 13763 net.cpp:425] loss1/conv <- loss1/ave_pool
I0403 14:54:41.417881 13763 net.cpp:399] loss1/conv -> loss1/conv
I0403 14:54:41.419239 13763 net.cpp:141] Setting up loss1/conv
I0403 14:54:41.419270 13763 net.cpp:148] Top shape: 24 128 4 4 (49152)
I0403 14:54:41.419298 13763 net.cpp:156] Memory required for data: 945697824
I0403 14:54:41.419317 13763 layer_factory.hpp:77] Creating layer loss1/relu_conv
I0403 14:54:41.419337 13763 net.cpp:91] Creating Layer loss1/relu_conv
I0403 14:54:41.419353 13763 net.cpp:425] loss1/relu_conv <- loss1/conv
I0403 14:54:41.419369 13763 net.cpp:386] loss1/relu_conv -> loss1/conv (in-place)
I0403 14:54:41.419641 13763 net.cpp:141] Setting up loss1/relu_conv
I0403 14:54:41.419667 13763 net.cpp:148] Top shape: 24 128 4 4 (49152)
I0403 14:54:41.419682 13763 net.cpp:156] Memory required for data: 945894432
I0403 14:54:41.419695 13763 layer_factory.hpp:77] Creating layer loss1/fc
I0403 14:54:41.419740 13763 net.cpp:91] Creating Layer loss1/fc
I0403 14:54:41.419759 13763 net.cpp:425] loss1/fc <- loss1/conv
I0403 14:54:41.419782 13763 net.cpp:399] loss1/fc -> loss1/fc
I0403 14:54:41.436949 13763 net.cpp:141] Setting up loss1/fc
I0403 14:54:41.436982 13763 net.cpp:148] Top shape: 24 1024 (24576)
I0403 14:54:41.437000 13763 net.cpp:156] Memory required for data: 945992736
I0403 14:54:41.437016 13763 layer_factory.hpp:77] Creating layer loss1/relu_fc
I0403 14:54:41.437036 13763 net.cpp:91] Creating Layer loss1/relu_fc
I0403 14:54:41.437052 13763 net.cpp:425] loss1/relu_fc <- loss1/fc
I0403 14:54:41.437072 13763 net.cpp:386] loss1/relu_fc -> loss1/fc (in-place)
I0403 14:54:41.437249 13763 net.cpp:141] Setting up loss1/relu_fc
I0403 14:54:41.437278 13763 net.cpp:148] Top shape: 24 1024 (24576)
I0403 14:54:41.437305 13763 net.cpp:156] Memory required for data: 946091040
I0403 14:54:41.437321 13763 layer_factory.hpp:77] Creating layer loss1/drop_fc
I0403 14:54:41.437347 13763 net.cpp:91] Creating Layer loss1/drop_fc
I0403 14:54:41.437364 13763 net.cpp:425] loss1/drop_fc <- loss1/fc
I0403 14:54:41.437382 13763 net.cpp:386] loss1/drop_fc -> loss1/fc (in-place)
I0403 14:54:41.437435 13763 net.cpp:141] Setting up loss1/drop_fc
I0403 14:54:41.437458 13763 net.cpp:148] Top shape: 24 1024 (24576)
I0403 14:54:41.437472 13763 net.cpp:156] Memory required for data: 946189344
I0403 14:54:41.437487 13763 layer_factory.hpp:77] Creating layer loss1/classifier_plantvillage
I0403 14:54:41.437505 13763 net.cpp:91] Creating Layer loss1/classifier_plantvillage
I0403 14:54:41.437521 13763 net.cpp:425] loss1/classifier_plantvillage <- loss1/fc
I0403 14:54:41.437546 13763 net.cpp:399] loss1/classifier_plantvillage -> loss1/classifier_plantvillage
I0403 14:54:41.438436 13763 net.cpp:141] Setting up loss1/classifier_plantvillage
I0403 14:54:41.438464 13763 net.cpp:148] Top shape: 24 38 (912)
I0403 14:54:41.438479 13763 net.cpp:156] Memory required for data: 946192992
I0403 14:54:41.438496 13763 layer_factory.hpp:77] Creating layer loss1/classifier_plantvillage_loss1/classifier_plantvillage_0_split
I0403 14:54:41.438516 13763 net.cpp:91] Creating Layer loss1/classifier_plantvillage_loss1/classifier_plantvillage_0_split
I0403 14:54:41.438532 13763 net.cpp:425] loss1/classifier_plantvillage_loss1/classifier_plantvillage_0_split <- loss1/classifier_plantvillage
I0403 14:54:41.438554 13763 net.cpp:399] loss1/classifier_plantvillage_loss1/classifier_plantvillage_0_split -> loss1/classifier_plantvillage_loss1/classifier_plantvillage_0_split_0
I0403 14:54:41.438575 13763 net.cpp:399] loss1/classifier_plantvillage_loss1/classifier_plantvillage_0_split -> loss1/classifier_plantvillage_loss1/classifier_plantvillage_0_split_1
I0403 14:54:41.438594 13763 net.cpp:399] loss1/classifier_plantvillage_loss1/classifier_plantvillage_0_split -> loss1/classifier_plantvillage_loss1/classifier_plantvillage_0_split_2
I0403 14:54:41.438664 13763 net.cpp:141] Setting up loss1/classifier_plantvillage_loss1/classifier_plantvillage_0_split
I0403 14:54:41.438686 13763 net.cpp:148] Top shape: 24 38 (912)
I0403 14:54:41.438704 13763 net.cpp:148] Top shape: 24 38 (912)
I0403 14:54:41.438717 13763 net.cpp:148] Top shape: 24 38 (912)
I0403 14:54:41.438730 13763 net.cpp:156] Memory required for data: 946203936
I0403 14:54:41.438743 13763 layer_factory.hpp:77] Creating layer inception_4b/1x1
I0403 14:54:41.438766 13763 net.cpp:91] Creating Layer inception_4b/1x1
I0403 14:54:41.438796 13763 net.cpp:425] inception_4b/1x1 <- inception_4a/output_inception_4a/output_0_split_1
I0403 14:54:41.438817 13763 net.cpp:399] inception_4b/1x1 -> inception_4b/1x1
I0403 14:54:41.440404 13763 net.cpp:141] Setting up inception_4b/1x1
I0403 14:54:41.440433 13763 net.cpp:148] Top shape: 24 160 14 14 (752640)
I0403 14:54:41.440448 13763 net.cpp:156] Memory required for data: 949214496
I0403 14:54:41.440466 13763 layer_factory.hpp:77] Creating layer inception_4b/relu_1x1
I0403 14:54:41.440486 13763 net.cpp:91] Creating Layer inception_4b/relu_1x1
I0403 14:54:41.440502 13763 net.cpp:425] inception_4b/relu_1x1 <- inception_4b/1x1
I0403 14:54:41.440523 13763 net.cpp:386] inception_4b/relu_1x1 -> inception_4b/1x1 (in-place)
I0403 14:54:41.440703 13763 net.cpp:141] Setting up inception_4b/relu_1x1
I0403 14:54:41.440729 13763 net.cpp:148] Top shape: 24 160 14 14 (752640)
I0403 14:54:41.440743 13763 net.cpp:156] Memory required for data: 952225056
I0403 14:54:41.440757 13763 layer_factory.hpp:77] Creating layer inception_4b/3x3_reduce
I0403 14:54:41.440778 13763 net.cpp:91] Creating Layer inception_4b/3x3_reduce
I0403 14:54:41.440795 13763 net.cpp:425] inception_4b/3x3_reduce <- inception_4a/output_inception_4a/output_0_split_2
I0403 14:54:41.440816 13763 net.cpp:399] inception_4b/3x3_reduce -> inception_4b/3x3_reduce
I0403 14:54:41.442170 13763 net.cpp:141] Setting up inception_4b/3x3_reduce
I0403 14:54:41.442200 13763 net.cpp:148] Top shape: 24 112 14 14 (526848)
I0403 14:54:41.442216 13763 net.cpp:156] Memory required for data: 954332448
I0403 14:54:41.442236 13763 layer_factory.hpp:77] Creating layer inception_4b/relu_3x3_reduce
I0403 14:54:41.442255 13763 net.cpp:91] Creating Layer inception_4b/relu_3x3_reduce
I0403 14:54:41.442271 13763 net.cpp:425] inception_4b/relu_3x3_reduce <- inception_4b/3x3_reduce
I0403 14:54:41.442291 13763 net.cpp:386] inception_4b/relu_3x3_reduce -> inception_4b/3x3_reduce (in-place)
I0403 14:54:41.442625 13763 net.cpp:141] Setting up inception_4b/relu_3x3_reduce
I0403 14:54:41.442652 13763 net.cpp:148] Top shape: 24 112 14 14 (526848)
I0403 14:54:41.442667 13763 net.cpp:156] Memory required for data: 956439840
I0403 14:54:41.442682 13763 layer_factory.hpp:77] Creating layer inception_4b/3x3
I0403 14:54:41.442703 13763 net.cpp:91] Creating Layer inception_4b/3x3
I0403 14:54:41.442721 13763 net.cpp:425] inception_4b/3x3 <- inception_4b/3x3_reduce
I0403 14:54:41.442742 13763 net.cpp:399] inception_4b/3x3 -> inception_4b/3x3
I0403 14:54:41.445761 13763 net.cpp:141] Setting up inception_4b/3x3
I0403 14:54:41.445792 13763 net.cpp:148] Top shape: 24 224 14 14 (1053696)
I0403 14:54:41.445809 13763 net.cpp:156] Memory required for data: 960654624
I0403 14:54:41.445828 13763 layer_factory.hpp:77] Creating layer inception_4b/relu_3x3
I0403 14:54:41.445849 13763 net.cpp:91] Creating Layer inception_4b/relu_3x3
I0403 14:54:41.445868 13763 net.cpp:425] inception_4b/relu_3x3 <- inception_4b/3x3
I0403 14:54:41.445885 13763 net.cpp:386] inception_4b/relu_3x3 -> inception_4b/3x3 (in-place)
I0403 14:54:41.446063 13763 net.cpp:141] Setting up inception_4b/relu_3x3
I0403 14:54:41.446090 13763 net.cpp:148] Top shape: 24 224 14 14 (1053696)
I0403 14:54:41.446105 13763 net.cpp:156] Memory required for data: 964869408
I0403 14:54:41.446120 13763 layer_factory.hpp:77] Creating layer inception_4b/5x5_reduce
I0403 14:54:41.446143 13763 net.cpp:91] Creating Layer inception_4b/5x5_reduce
I0403 14:54:41.446161 13763 net.cpp:425] inception_4b/5x5_reduce <- inception_4a/output_inception_4a/output_0_split_3
I0403 14:54:41.446179 13763 net.cpp:399] inception_4b/5x5_reduce -> inception_4b/5x5_reduce
I0403 14:54:41.447255 13763 net.cpp:141] Setting up inception_4b/5x5_reduce
I0403 14:54:41.447288 13763 net.cpp:148] Top shape: 24 24 14 14 (112896)
I0403 14:54:41.447304 13763 net.cpp:156] Memory required for data: 965320992
I0403 14:54:41.447324 13763 layer_factory.hpp:77] Creating layer inception_4b/relu_5x5_reduce
I0403 14:54:41.447345 13763 net.cpp:91] Creating Layer inception_4b/relu_5x5_reduce
I0403 14:54:41.447376 13763 net.cpp:425] inception_4b/relu_5x5_reduce <- inception_4b/5x5_reduce
I0403 14:54:41.447396 13763 net.cpp:386] inception_4b/relu_5x5_reduce -> inception_4b/5x5_reduce (in-place)
I0403 14:54:41.447582 13763 net.cpp:141] Setting up inception_4b/relu_5x5_reduce
I0403 14:54:41.447608 13763 net.cpp:148] Top shape: 24 24 14 14 (112896)
I0403 14:54:41.447623 13763 net.cpp:156] Memory required for data: 965772576
I0403 14:54:41.447638 13763 layer_factory.hpp:77] Creating layer inception_4b/5x5
I0403 14:54:41.447659 13763 net.cpp:91] Creating Layer inception_4b/5x5
I0403 14:54:41.447676 13763 net.cpp:425] inception_4b/5x5 <- inception_4b/5x5_reduce
I0403 14:54:41.447697 13763 net.cpp:399] inception_4b/5x5 -> inception_4b/5x5
I0403 14:54:41.448914 13763 net.cpp:141] Setting up inception_4b/5x5
I0403 14:54:41.448943 13763 net.cpp:148] Top shape: 24 64 14 14 (301056)
I0403 14:54:41.448959 13763 net.cpp:156] Memory required for data: 966976800
I0403 14:54:41.448977 13763 layer_factory.hpp:77] Creating layer inception_4b/relu_5x5
I0403 14:54:41.448998 13763 net.cpp:91] Creating Layer inception_4b/relu_5x5
I0403 14:54:41.449018 13763 net.cpp:425] inception_4b/relu_5x5 <- inception_4b/5x5
I0403 14:54:41.449045 13763 net.cpp:386] inception_4b/relu_5x5 -> inception_4b/5x5 (in-place)
I0403 14:54:41.449333 13763 net.cpp:141] Setting up inception_4b/relu_5x5
I0403 14:54:41.449359 13763 net.cpp:148] Top shape: 24 64 14 14 (301056)
I0403 14:54:41.449374 13763 net.cpp:156] Memory required for data: 968181024
I0403 14:54:41.449389 13763 layer_factory.hpp:77] Creating layer inception_4b/pool
I0403 14:54:41.449412 13763 net.cpp:91] Creating Layer inception_4b/pool
I0403 14:54:41.449430 13763 net.cpp:425] inception_4b/pool <- inception_4a/output_inception_4a/output_0_split_4
I0403 14:54:41.449448 13763 net.cpp:399] inception_4b/pool -> inception_4b/pool
I0403 14:54:41.449514 13763 net.cpp:141] Setting up inception_4b/pool
I0403 14:54:41.449545 13763 net.cpp:148] Top shape: 24 512 14 14 (2408448)
I0403 14:54:41.449561 13763 net.cpp:156] Memory required for data: 977814816
I0403 14:54:41.449576 13763 layer_factory.hpp:77] Creating layer inception_4b/pool_proj
I0403 14:54:41.449599 13763 net.cpp:91] Creating Layer inception_4b/pool_proj
I0403 14:54:41.449615 13763 net.cpp:425] inception_4b/pool_proj <- inception_4b/pool
I0403 14:54:41.449636 13763 net.cpp:399] inception_4b/pool_proj -> inception_4b/pool_proj
I0403 14:54:41.450841 13763 net.cpp:141] Setting up inception_4b/pool_proj
I0403 14:54:41.450873 13763 net.cpp:148] Top shape: 24 64 14 14 (301056)
I0403 14:54:41.450891 13763 net.cpp:156] Memory required for data: 979019040
I0403 14:54:41.450909 13763 layer_factory.hpp:77] Creating layer inception_4b/relu_pool_proj
I0403 14:54:41.450927 13763 net.cpp:91] Creating Layer inception_4b/relu_pool_proj
I0403 14:54:41.450943 13763 net.cpp:425] inception_4b/relu_pool_proj <- inception_4b/pool_proj
I0403 14:54:41.450963 13763 net.cpp:386] inception_4b/relu_pool_proj -> inception_4b/pool_proj (in-place)
I0403 14:54:41.451143 13763 net.cpp:141] Setting up inception_4b/relu_pool_proj
I0403 14:54:41.451169 13763 net.cpp:148] Top shape: 24 64 14 14 (301056)
I0403 14:54:41.451182 13763 net.cpp:156] Memory required for data: 980223264
I0403 14:54:41.451197 13763 layer_factory.hpp:77] Creating layer inception_4b/output
I0403 14:54:41.451215 13763 net.cpp:91] Creating Layer inception_4b/output
I0403 14:54:41.451231 13763 net.cpp:425] inception_4b/output <- inception_4b/1x1
I0403 14:54:41.451246 13763 net.cpp:425] inception_4b/output <- inception_4b/3x3
I0403 14:54:41.451264 13763 net.cpp:425] inception_4b/output <- inception_4b/5x5
I0403 14:54:41.451280 13763 net.cpp:425] inception_4b/output <- inception_4b/pool_proj
I0403 14:54:41.451309 13763 net.cpp:399] inception_4b/output -> inception_4b/output
I0403 14:54:41.451354 13763 net.cpp:141] Setting up inception_4b/output
I0403 14:54:41.451380 13763 net.cpp:148] Top shape: 24 512 14 14 (2408448)
I0403 14:54:41.451396 13763 net.cpp:156] Memory required for data: 989857056
I0403 14:54:41.451424 13763 layer_factory.hpp:77] Creating layer inception_4b/output_inception_4b/output_0_split
I0403 14:54:41.451443 13763 net.cpp:91] Creating Layer inception_4b/output_inception_4b/output_0_split
I0403 14:54:41.451458 13763 net.cpp:425] inception_4b/output_inception_4b/output_0_split <- inception_4b/output
I0403 14:54:41.451475 13763 net.cpp:399] inception_4b/output_inception_4b/output_0_split -> inception_4b/output_inception_4b/output_0_split_0
I0403 14:54:41.451498 13763 net.cpp:399] inception_4b/output_inception_4b/output_0_split -> inception_4b/output_inception_4b/output_0_split_1
I0403 14:54:41.451519 13763 net.cpp:399] inception_4b/output_inception_4b/output_0_split -> inception_4b/output_inception_4b/output_0_split_2
I0403 14:54:41.451545 13763 net.cpp:399] inception_4b/output_inception_4b/output_0_split -> inception_4b/output_inception_4b/output_0_split_3
I0403 14:54:41.451637 13763 net.cpp:141] Setting up inception_4b/output_inception_4b/output_0_split
I0403 14:54:41.451659 13763 net.cpp:148] Top shape: 24 512 14 14 (2408448)
I0403 14:54:41.451676 13763 net.cpp:148] Top shape: 24 512 14 14 (2408448)
I0403 14:54:41.451691 13763 net.cpp:148] Top shape: 24 512 14 14 (2408448)
I0403 14:54:41.451707 13763 net.cpp:148] Top shape: 24 512 14 14 (2408448)
I0403 14:54:41.451720 13763 net.cpp:156] Memory required for data: 1028392224
I0403 14:54:41.451735 13763 layer_factory.hpp:77] Creating layer inception_4c/1x1
I0403 14:54:41.451757 13763 net.cpp:91] Creating Layer inception_4c/1x1
I0403 14:54:41.451776 13763 net.cpp:425] inception_4c/1x1 <- inception_4b/output_inception_4b/output_0_split_0
I0403 14:54:41.451795 13763 net.cpp:399] inception_4c/1x1 -> inception_4c/1x1
I0403 14:54:41.453235 13763 net.cpp:141] Setting up inception_4c/1x1
I0403 14:54:41.453266 13763 net.cpp:148] Top shape: 24 128 14 14 (602112)
I0403 14:54:41.453284 13763 net.cpp:156] Memory required for data: 1030800672
I0403 14:54:41.453315 13763 layer_factory.hpp:77] Creating layer inception_4c/relu_1x1
I0403 14:54:41.453333 13763 net.cpp:91] Creating Layer inception_4c/relu_1x1
I0403 14:54:41.453351 13763 net.cpp:425] inception_4c/relu_1x1 <- inception_4c/1x1
I0403 14:54:41.453371 13763 net.cpp:386] inception_4c/relu_1x1 -> inception_4c/1x1 (in-place)
I0403 14:54:41.453560 13763 net.cpp:141] Setting up inception_4c/relu_1x1
I0403 14:54:41.453598 13763 net.cpp:148] Top shape: 24 128 14 14 (602112)
I0403 14:54:41.453613 13763 net.cpp:156] Memory required for data: 1033209120
I0403 14:54:41.453626 13763 layer_factory.hpp:77] Creating layer inception_4c/3x3_reduce
I0403 14:54:41.453649 13763 net.cpp:91] Creating Layer inception_4c/3x3_reduce
I0403 14:54:41.453666 13763 net.cpp:425] inception_4c/3x3_reduce <- inception_4b/output_inception_4b/output_0_split_1
I0403 14:54:41.453690 13763 net.cpp:399] inception_4c/3x3_reduce -> inception_4c/3x3_reduce
I0403 14:54:41.455668 13763 net.cpp:141] Setting up inception_4c/3x3_reduce
I0403 14:54:41.455703 13763 net.cpp:148] Top shape: 24 128 14 14 (602112)
I0403 14:54:41.455720 13763 net.cpp:156] Memory required for data: 1035617568
I0403 14:54:41.455739 13763 layer_factory.hpp:77] Creating layer inception_4c/relu_3x3_reduce
I0403 14:54:41.455757 13763 net.cpp:91] Creating Layer inception_4c/relu_3x3_reduce
I0403 14:54:41.455775 13763 net.cpp:425] inception_4c/relu_3x3_reduce <- inception_4c/3x3_reduce
I0403 14:54:41.455792 13763 net.cpp:386] inception_4c/relu_3x3_reduce -> inception_4c/3x3_reduce (in-place)
I0403 14:54:41.456082 13763 net.cpp:141] Setting up inception_4c/relu_3x3_reduce
I0403 14:54:41.456113 13763 net.cpp:148] Top shape: 24 128 14 14 (602112)
I0403 14:54:41.456130 13763 net.cpp:156] Memory required for data: 1038026016
I0403 14:54:41.456145 13763 layer_factory.hpp:77] Creating layer inception_4c/3x3
I0403 14:54:41.456164 13763 net.cpp:91] Creating Layer inception_4c/3x3
I0403 14:54:41.456181 13763 net.cpp:425] inception_4c/3x3 <- inception_4c/3x3_reduce
I0403 14:54:41.456202 13763 net.cpp:399] inception_4c/3x3 -> inception_4c/3x3
I0403 14:54:41.459827 13763 net.cpp:141] Setting up inception_4c/3x3
I0403 14:54:41.459872 13763 net.cpp:148] Top shape: 24 256 14 14 (1204224)
I0403 14:54:41.459890 13763 net.cpp:156] Memory required for data: 1042842912
I0403 14:54:41.459923 13763 layer_factory.hpp:77] Creating layer inception_4c/relu_3x3
I0403 14:54:41.459945 13763 net.cpp:91] Creating Layer inception_4c/relu_3x3
I0403 14:54:41.459964 13763 net.cpp:425] inception_4c/relu_3x3 <- inception_4c/3x3
I0403 14:54:41.459983 13763 net.cpp:386] inception_4c/relu_3x3 -> inception_4c/3x3 (in-place)
I0403 14:54:41.460160 13763 net.cpp:141] Setting up inception_4c/relu_3x3
I0403 14:54:41.460188 13763 net.cpp:148] Top shape: 24 256 14 14 (1204224)
I0403 14:54:41.460204 13763 net.cpp:156] Memory required for data: 1047659808
I0403 14:54:41.460218 13763 layer_factory.hpp:77] Creating layer inception_4c/5x5_reduce
I0403 14:54:41.460242 13763 net.cpp:91] Creating Layer inception_4c/5x5_reduce
I0403 14:54:41.460259 13763 net.cpp:425] inception_4c/5x5_reduce <- inception_4b/output_inception_4b/output_0_split_2
I0403 14:54:41.460278 13763 net.cpp:399] inception_4c/5x5_reduce -> inception_4c/5x5_reduce
I0403 14:54:41.461369 13763 net.cpp:141] Setting up inception_4c/5x5_reduce
I0403 14:54:41.461401 13763 net.cpp:148] Top shape: 24 24 14 14 (112896)
I0403 14:54:41.461418 13763 net.cpp:156] Memory required for data: 1048111392
I0403 14:54:41.461436 13763 layer_factory.hpp:77] Creating layer inception_4c/relu_5x5_reduce
I0403 14:54:41.461457 13763 net.cpp:91] Creating Layer inception_4c/relu_5x5_reduce
I0403 14:54:41.461473 13763 net.cpp:425] inception_4c/relu_5x5_reduce <- inception_4c/5x5_reduce
I0403 14:54:41.461491 13763 net.cpp:386] inception_4c/relu_5x5_reduce -> inception_4c/5x5_reduce (in-place)
I0403 14:54:41.461684 13763 net.cpp:141] Setting up inception_4c/relu_5x5_reduce
I0403 14:54:41.461711 13763 net.cpp:148] Top shape: 24 24 14 14 (112896)
I0403 14:54:41.461726 13763 net.cpp:156] Memory required for data: 1048562976
I0403 14:54:41.461742 13763 layer_factory.hpp:77] Creating layer inception_4c/5x5
I0403 14:54:41.461763 13763 net.cpp:91] Creating Layer inception_4c/5x5
I0403 14:54:41.461781 13763 net.cpp:425] inception_4c/5x5 <- inception_4c/5x5_reduce
I0403 14:54:41.461802 13763 net.cpp:399] inception_4c/5x5 -> inception_4c/5x5
I0403 14:54:41.463047 13763 net.cpp:141] Setting up inception_4c/5x5
I0403 14:54:41.463076 13763 net.cpp:148] Top shape: 24 64 14 14 (301056)
I0403 14:54:41.463093 13763 net.cpp:156] Memory required for data: 1049767200
I0403 14:54:41.463111 13763 layer_factory.hpp:77] Creating layer inception_4c/relu_5x5
I0403 14:54:41.463129 13763 net.cpp:91] Creating Layer inception_4c/relu_5x5
I0403 14:54:41.463146 13763 net.cpp:425] inception_4c/relu_5x5 <- inception_4c/5x5
I0403 14:54:41.463165 13763 net.cpp:386] inception_4c/relu_5x5 -> inception_4c/5x5 (in-place)
I0403 14:54:41.463454 13763 net.cpp:141] Setting up inception_4c/relu_5x5
I0403 14:54:41.463480 13763 net.cpp:148] Top shape: 24 64 14 14 (301056)
I0403 14:54:41.463495 13763 net.cpp:156] Memory required for data: 1050971424
I0403 14:54:41.463510 13763 layer_factory.hpp:77] Creating layer inception_4c/pool
I0403 14:54:41.463527 13763 net.cpp:91] Creating Layer inception_4c/pool
I0403 14:54:41.463548 13763 net.cpp:425] inception_4c/pool <- inception_4b/output_inception_4b/output_0_split_3
I0403 14:54:41.463569 13763 net.cpp:399] inception_4c/pool -> inception_4c/pool
I0403 14:54:41.463635 13763 net.cpp:141] Setting up inception_4c/pool
I0403 14:54:41.463660 13763 net.cpp:148] Top shape: 24 512 14 14 (2408448)
I0403 14:54:41.463675 13763 net.cpp:156] Memory required for data: 1060605216
I0403 14:54:41.463688 13763 layer_factory.hpp:77] Creating layer inception_4c/pool_proj
I0403 14:54:41.463712 13763 net.cpp:91] Creating Layer inception_4c/pool_proj
I0403 14:54:41.463729 13763 net.cpp:425] inception_4c/pool_proj <- inception_4c/pool
I0403 14:54:41.463747 13763 net.cpp:399] inception_4c/pool_proj -> inception_4c/pool_proj
I0403 14:54:41.464997 13763 net.cpp:141] Setting up inception_4c/pool_proj
I0403 14:54:41.465029 13763 net.cpp:148] Top shape: 24 64 14 14 (301056)
I0403 14:54:41.465060 13763 net.cpp:156] Memory required for data: 1061809440
I0403 14:54:41.465081 13763 layer_factory.hpp:77] Creating layer inception_4c/relu_pool_proj
I0403 14:54:41.465101 13763 net.cpp:91] Creating Layer inception_4c/relu_pool_proj
I0403 14:54:41.465118 13763 net.cpp:425] inception_4c/relu_pool_proj <- inception_4c/pool_proj
I0403 14:54:41.465139 13763 net.cpp:386] inception_4c/relu_pool_proj -> inception_4c/pool_proj (in-place)
I0403 14:54:41.465322 13763 net.cpp:141] Setting up inception_4c/relu_pool_proj
I0403 14:54:41.465347 13763 net.cpp:148] Top shape: 24 64 14 14 (301056)
I0403 14:54:41.465361 13763 net.cpp:156] Memory required for data: 1063013664
I0403 14:54:41.465376 13763 layer_factory.hpp:77] Creating layer inception_4c/output
I0403 14:54:41.465394 13763 net.cpp:91] Creating Layer inception_4c/output
I0403 14:54:41.465409 13763 net.cpp:425] inception_4c/output <- inception_4c/1x1
I0403 14:54:41.465425 13763 net.cpp:425] inception_4c/output <- inception_4c/3x3
I0403 14:54:41.465440 13763 net.cpp:425] inception_4c/output <- inception_4c/5x5
I0403 14:54:41.465456 13763 net.cpp:425] inception_4c/output <- inception_4c/pool_proj
I0403 14:54:41.465476 13763 net.cpp:399] inception_4c/output -> inception_4c/output
I0403 14:54:41.465528 13763 net.cpp:141] Setting up inception_4c/output
I0403 14:54:41.465559 13763 net.cpp:148] Top shape: 24 512 14 14 (2408448)
I0403 14:54:41.465574 13763 net.cpp:156] Memory required for data: 1072647456
I0403 14:54:41.465589 13763 layer_factory.hpp:77] Creating layer inception_4c/output_inception_4c/output_0_split
I0403 14:54:41.465605 13763 net.cpp:91] Creating Layer inception_4c/output_inception_4c/output_0_split
I0403 14:54:41.465620 13763 net.cpp:425] inception_4c/output_inception_4c/output_0_split <- inception_4c/output
I0403 14:54:41.465637 13763 net.cpp:399] inception_4c/output_inception_4c/output_0_split -> inception_4c/output_inception_4c/output_0_split_0
I0403 14:54:41.465658 13763 net.cpp:399] inception_4c/output_inception_4c/output_0_split -> inception_4c/output_inception_4c/output_0_split_1
I0403 14:54:41.465680 13763 net.cpp:399] inception_4c/output_inception_4c/output_0_split -> inception_4c/output_inception_4c/output_0_split_2
I0403 14:54:41.465703 13763 net.cpp:399] inception_4c/output_inception_4c/output_0_split -> inception_4c/output_inception_4c/output_0_split_3
I0403 14:54:41.465795 13763 net.cpp:141] Setting up inception_4c/output_inception_4c/output_0_split
I0403 14:54:41.465818 13763 net.cpp:148] Top shape: 24 512 14 14 (2408448)
I0403 14:54:41.465836 13763 net.cpp:148] Top shape: 24 512 14 14 (2408448)
I0403 14:54:41.465852 13763 net.cpp:148] Top shape: 24 512 14 14 (2408448)
I0403 14:54:41.465867 13763 net.cpp:148] Top shape: 24 512 14 14 (2408448)
I0403 14:54:41.465880 13763 net.cpp:156] Memory required for data: 1111182624
I0403 14:54:41.465893 13763 layer_factory.hpp:77] Creating layer inception_4d/1x1
I0403 14:54:41.465915 13763 net.cpp:91] Creating Layer inception_4d/1x1
I0403 14:54:41.465934 13763 net.cpp:425] inception_4d/1x1 <- inception_4c/output_inception_4c/output_0_split_0
I0403 14:54:41.465955 13763 net.cpp:399] inception_4d/1x1 -> inception_4d/1x1
I0403 14:54:41.467340 13763 net.cpp:141] Setting up inception_4d/1x1
I0403 14:54:41.467370 13763 net.cpp:148] Top shape: 24 112 14 14 (526848)
I0403 14:54:41.467387 13763 net.cpp:156] Memory required for data: 1113290016
I0403 14:54:41.467406 13763 layer_factory.hpp:77] Creating layer inception_4d/relu_1x1
I0403 14:54:41.467427 13763 net.cpp:91] Creating Layer inception_4d/relu_1x1
I0403 14:54:41.467444 13763 net.cpp:425] inception_4d/relu_1x1 <- inception_4d/1x1
I0403 14:54:41.467463 13763 net.cpp:386] inception_4d/relu_1x1 -> inception_4d/1x1 (in-place)
I0403 14:54:41.467650 13763 net.cpp:141] Setting up inception_4d/relu_1x1
I0403 14:54:41.467680 13763 net.cpp:148] Top shape: 24 112 14 14 (526848)
I0403 14:54:41.467696 13763 net.cpp:156] Memory required for data: 1115397408
I0403 14:54:41.467712 13763 layer_factory.hpp:77] Creating layer inception_4d/3x3_reduce
I0403 14:54:41.467751 13763 net.cpp:91] Creating Layer inception_4d/3x3_reduce
I0403 14:54:41.467772 13763 net.cpp:425] inception_4d/3x3_reduce <- inception_4c/output_inception_4c/output_0_split_1
I0403 14:54:41.467792 13763 net.cpp:399] inception_4d/3x3_reduce -> inception_4d/3x3_reduce
I0403 14:54:41.469323 13763 net.cpp:141] Setting up inception_4d/3x3_reduce
I0403 14:54:41.469353 13763 net.cpp:148] Top shape: 24 144 14 14 (677376)
I0403 14:54:41.469372 13763 net.cpp:156] Memory required for data: 1118106912
I0403 14:54:41.469390 13763 layer_factory.hpp:77] Creating layer inception_4d/relu_3x3_reduce
I0403 14:54:41.469413 13763 net.cpp:91] Creating Layer inception_4d/relu_3x3_reduce
I0403 14:54:41.469429 13763 net.cpp:425] inception_4d/relu_3x3_reduce <- inception_4d/3x3_reduce
I0403 14:54:41.469447 13763 net.cpp:386] inception_4d/relu_3x3_reduce -> inception_4d/3x3_reduce (in-place)
I0403 14:54:41.469756 13763 net.cpp:141] Setting up inception_4d/relu_3x3_reduce
I0403 14:54:41.469784 13763 net.cpp:148] Top shape: 24 144 14 14 (677376)
I0403 14:54:41.469800 13763 net.cpp:156] Memory required for data: 1120816416
I0403 14:54:41.469815 13763 layer_factory.hpp:77] Creating layer inception_4d/3x3
I0403 14:54:41.469838 13763 net.cpp:91] Creating Layer inception_4d/3x3
I0403 14:54:41.469856 13763 net.cpp:425] inception_4d/3x3 <- inception_4d/3x3_reduce
I0403 14:54:41.469878 13763 net.cpp:399] inception_4d/3x3 -> inception_4d/3x3
I0403 14:54:41.474165 13763 net.cpp:141] Setting up inception_4d/3x3
I0403 14:54:41.474196 13763 net.cpp:148] Top shape: 24 288 14 14 (1354752)
I0403 14:54:41.474213 13763 net.cpp:156] Memory required for data: 1126235424
I0403 14:54:41.474232 13763 layer_factory.hpp:77] Creating layer inception_4d/relu_3x3
I0403 14:54:41.474253 13763 net.cpp:91] Creating Layer inception_4d/relu_3x3
I0403 14:54:41.474272 13763 net.cpp:425] inception_4d/relu_3x3 <- inception_4d/3x3
I0403 14:54:41.474290 13763 net.cpp:386] inception_4d/relu_3x3 -> inception_4d/3x3 (in-place)
I0403 14:54:41.474496 13763 net.cpp:141] Setting up inception_4d/relu_3x3
I0403 14:54:41.474525 13763 net.cpp:148] Top shape: 24 288 14 14 (1354752)
I0403 14:54:41.474553 13763 net.cpp:156] Memory required for data: 1131654432
I0403 14:54:41.474571 13763 layer_factory.hpp:77] Creating layer inception_4d/5x5_reduce
I0403 14:54:41.474606 13763 net.cpp:91] Creating Layer inception_4d/5x5_reduce
I0403 14:54:41.474623 13763 net.cpp:425] inception_4d/5x5_reduce <- inception_4c/output_inception_4c/output_0_split_2
I0403 14:54:41.474642 13763 net.cpp:399] inception_4d/5x5_reduce -> inception_4d/5x5_reduce
I0403 14:54:41.475793 13763 net.cpp:141] Setting up inception_4d/5x5_reduce
I0403 14:54:41.475822 13763 net.cpp:148] Top shape: 24 32 14 14 (150528)
I0403 14:54:41.475838 13763 net.cpp:156] Memory required for data: 1132256544
I0403 14:54:41.475857 13763 layer_factory.hpp:77] Creating layer inception_4d/relu_5x5_reduce
I0403 14:54:41.475878 13763 net.cpp:91] Creating Layer inception_4d/relu_5x5_reduce
I0403 14:54:41.475894 13763 net.cpp:425] inception_4d/relu_5x5_reduce <- inception_4d/5x5_reduce
I0403 14:54:41.475913 13763 net.cpp:386] inception_4d/relu_5x5_reduce -> inception_4d/5x5_reduce (in-place)
I0403 14:54:41.476095 13763 net.cpp:141] Setting up inception_4d/relu_5x5_reduce
I0403 14:54:41.476124 13763 net.cpp:148] Top shape: 24 32 14 14 (150528)
I0403 14:54:41.476138 13763 net.cpp:156] Memory required for data: 1132858656
I0403 14:54:41.476153 13763 layer_factory.hpp:77] Creating layer inception_4d/5x5
I0403 14:54:41.476174 13763 net.cpp:91] Creating Layer inception_4d/5x5
I0403 14:54:41.476191 13763 net.cpp:425] inception_4d/5x5 <- inception_4d/5x5_reduce
I0403 14:54:41.476210 13763 net.cpp:399] inception_4d/5x5 -> inception_4d/5x5
I0403 14:54:41.477733 13763 net.cpp:141] Setting up inception_4d/5x5
I0403 14:54:41.477762 13763 net.cpp:148] Top shape: 24 64 14 14 (301056)
I0403 14:54:41.477779 13763 net.cpp:156] Memory required for data: 1134062880
I0403 14:54:41.477799 13763 layer_factory.hpp:77] Creating layer inception_4d/relu_5x5
I0403 14:54:41.477833 13763 net.cpp:91] Creating Layer inception_4d/relu_5x5
I0403 14:54:41.477851 13763 net.cpp:425] inception_4d/relu_5x5 <- inception_4d/5x5
I0403 14:54:41.477872 13763 net.cpp:386] inception_4d/relu_5x5 -> inception_4d/5x5 (in-place)
I0403 14:54:41.478179 13763 net.cpp:141] Setting up inception_4d/relu_5x5
I0403 14:54:41.478207 13763 net.cpp:148] Top shape: 24 64 14 14 (301056)
I0403 14:54:41.478224 13763 net.cpp:156] Memory required for data: 1135267104
I0403 14:54:41.478240 13763 layer_factory.hpp:77] Creating layer inception_4d/pool
I0403 14:54:41.478258 13763 net.cpp:91] Creating Layer inception_4d/pool
I0403 14:54:41.478276 13763 net.cpp:425] inception_4d/pool <- inception_4c/output_inception_4c/output_0_split_3
I0403 14:54:41.478296 13763 net.cpp:399] inception_4d/pool -> inception_4d/pool
I0403 14:54:41.478364 13763 net.cpp:141] Setting up inception_4d/pool
I0403 14:54:41.478389 13763 net.cpp:148] Top shape: 24 512 14 14 (2408448)
I0403 14:54:41.478402 13763 net.cpp:156] Memory required for data: 1144900896
I0403 14:54:41.478416 13763 layer_factory.hpp:77] Creating layer inception_4d/pool_proj
I0403 14:54:41.478440 13763 net.cpp:91] Creating Layer inception_4d/pool_proj
I0403 14:54:41.478458 13763 net.cpp:425] inception_4d/pool_proj <- inception_4d/pool
I0403 14:54:41.478477 13763 net.cpp:399] inception_4d/pool_proj -> inception_4d/pool_proj
I0403 14:54:41.480249 13763 net.cpp:141] Setting up inception_4d/pool_proj
I0403 14:54:41.480283 13763 net.cpp:148] Top shape: 24 64 14 14 (301056)
I0403 14:54:41.480300 13763 net.cpp:156] Memory required for data: 1146105120
I0403 14:54:41.480320 13763 layer_factory.hpp:77] Creating layer inception_4d/relu_pool_proj
I0403 14:54:41.480340 13763 net.cpp:91] Creating Layer inception_4d/relu_pool_proj
I0403 14:54:41.480358 13763 net.cpp:425] inception_4d/relu_pool_proj <- inception_4d/pool_proj
I0403 14:54:41.480376 13763 net.cpp:386] inception_4d/relu_pool_proj -> inception_4d/pool_proj (in-place)
I0403 14:54:41.480566 13763 net.cpp:141] Setting up inception_4d/relu_pool_proj
I0403 14:54:41.480597 13763 net.cpp:148] Top shape: 24 64 14 14 (301056)
I0403 14:54:41.480613 13763 net.cpp:156] Memory required for data: 1147309344
I0403 14:54:41.480629 13763 layer_factory.hpp:77] Creating layer inception_4d/output
I0403 14:54:41.480648 13763 net.cpp:91] Creating Layer inception_4d/output
I0403 14:54:41.480664 13763 net.cpp:425] inception_4d/output <- inception_4d/1x1
I0403 14:54:41.480680 13763 net.cpp:425] inception_4d/output <- inception_4d/3x3
I0403 14:54:41.480697 13763 net.cpp:425] inception_4d/output <- inception_4d/5x5
I0403 14:54:41.480713 13763 net.cpp:425] inception_4d/output <- inception_4d/pool_proj
I0403 14:54:41.480734 13763 net.cpp:399] inception_4d/output -> inception_4d/output
I0403 14:54:41.480782 13763 net.cpp:141] Setting up inception_4d/output
I0403 14:54:41.480808 13763 net.cpp:148] Top shape: 24 528 14 14 (2483712)
I0403 14:54:41.480823 13763 net.cpp:156] Memory required for data: 1157244192
I0403 14:54:41.480837 13763 layer_factory.hpp:77] Creating layer inception_4d/output_inception_4d/output_0_split
I0403 14:54:41.480857 13763 net.cpp:91] Creating Layer inception_4d/output_inception_4d/output_0_split
I0403 14:54:41.480876 13763 net.cpp:425] inception_4d/output_inception_4d/output_0_split <- inception_4d/output
I0403 14:54:41.480895 13763 net.cpp:399] inception_4d/output_inception_4d/output_0_split -> inception_4d/output_inception_4d/output_0_split_0
I0403 14:54:41.480916 13763 net.cpp:399] inception_4d/output_inception_4d/output_0_split -> inception_4d/output_inception_4d/output_0_split_1
I0403 14:54:41.480943 13763 net.cpp:399] inception_4d/output_inception_4d/output_0_split -> inception_4d/output_inception_4d/output_0_split_2
I0403 14:54:41.480965 13763 net.cpp:399] inception_4d/output_inception_4d/output_0_split -> inception_4d/output_inception_4d/output_0_split_3
I0403 14:54:41.480986 13763 net.cpp:399] inception_4d/output_inception_4d/output_0_split -> inception_4d/output_inception_4d/output_0_split_4
I0403 14:54:41.481091 13763 net.cpp:141] Setting up inception_4d/output_inception_4d/output_0_split
I0403 14:54:41.481127 13763 net.cpp:148] Top shape: 24 528 14 14 (2483712)
I0403 14:54:41.481144 13763 net.cpp:148] Top shape: 24 528 14 14 (2483712)
I0403 14:54:41.481160 13763 net.cpp:148] Top shape: 24 528 14 14 (2483712)
I0403 14:54:41.481175 13763 net.cpp:148] Top shape: 24 528 14 14 (2483712)
I0403 14:54:41.481191 13763 net.cpp:148] Top shape: 24 528 14 14 (2483712)
I0403 14:54:41.481204 13763 net.cpp:156] Memory required for data: 1206918432
I0403 14:54:41.481218 13763 layer_factory.hpp:77] Creating layer loss2/ave_pool
I0403 14:54:41.481238 13763 net.cpp:91] Creating Layer loss2/ave_pool
I0403 14:54:41.481256 13763 net.cpp:425] loss2/ave_pool <- inception_4d/output_inception_4d/output_0_split_0
I0403 14:54:41.481274 13763 net.cpp:399] loss2/ave_pool -> loss2/ave_pool
I0403 14:54:41.481595 13763 net.cpp:141] Setting up loss2/ave_pool
I0403 14:54:41.481631 13763 net.cpp:148] Top shape: 24 528 4 4 (202752)
I0403 14:54:41.481647 13763 net.cpp:156] Memory required for data: 1207729440
I0403 14:54:41.481662 13763 layer_factory.hpp:77] Creating layer loss2/conv
I0403 14:54:41.481684 13763 net.cpp:91] Creating Layer loss2/conv
I0403 14:54:41.481703 13763 net.cpp:425] loss2/conv <- loss2/ave_pool
I0403 14:54:41.481724 13763 net.cpp:399] loss2/conv -> loss2/conv
I0403 14:54:41.483644 13763 net.cpp:141] Setting up loss2/conv
I0403 14:54:41.483675 13763 net.cpp:148] Top shape: 24 128 4 4 (49152)
I0403 14:54:41.483693 13763 net.cpp:156] Memory required for data: 1207926048
I0403 14:54:41.483711 13763 layer_factory.hpp:77] Creating layer loss2/relu_conv
I0403 14:54:41.483729 13763 net.cpp:91] Creating Layer loss2/relu_conv
I0403 14:54:41.483746 13763 net.cpp:425] loss2/relu_conv <- loss2/conv
I0403 14:54:41.483764 13763 net.cpp:386] loss2/relu_conv -> loss2/conv (in-place)
I0403 14:54:41.484045 13763 net.cpp:141] Setting up loss2/relu_conv
I0403 14:54:41.484076 13763 net.cpp:148] Top shape: 24 128 4 4 (49152)
I0403 14:54:41.484091 13763 net.cpp:156] Memory required for data: 1208122656
I0403 14:54:41.484105 13763 layer_factory.hpp:77] Creating layer loss2/fc
I0403 14:54:41.484124 13763 net.cpp:91] Creating Layer loss2/fc
I0403 14:54:41.484139 13763 net.cpp:425] loss2/fc <- loss2/conv
I0403 14:54:41.484160 13763 net.cpp:399] loss2/fc -> loss2/fc
I0403 14:54:41.501492 13763 net.cpp:141] Setting up loss2/fc
I0403 14:54:41.501526 13763 net.cpp:148] Top shape: 24 1024 (24576)
I0403 14:54:41.501546 13763 net.cpp:156] Memory required for data: 1208220960
I0403 14:54:41.501565 13763 layer_factory.hpp:77] Creating layer loss2/relu_fc
I0403 14:54:41.501598 13763 net.cpp:91] Creating Layer loss2/relu_fc
I0403 14:54:41.501616 13763 net.cpp:425] loss2/relu_fc <- loss2/fc
I0403 14:54:41.501632 13763 net.cpp:386] loss2/relu_fc -> loss2/fc (in-place)
I0403 14:54:41.501929 13763 net.cpp:141] Setting up loss2/relu_fc
I0403 14:54:41.501955 13763 net.cpp:148] Top shape: 24 1024 (24576)
I0403 14:54:41.501971 13763 net.cpp:156] Memory required for data: 1208319264
I0403 14:54:41.501984 13763 layer_factory.hpp:77] Creating layer loss2/drop_fc
I0403 14:54:41.502004 13763 net.cpp:91] Creating Layer loss2/drop_fc
I0403 14:54:41.502020 13763 net.cpp:425] loss2/drop_fc <- loss2/fc
I0403 14:54:41.502038 13763 net.cpp:386] loss2/drop_fc -> loss2/fc (in-place)
I0403 14:54:41.502086 13763 net.cpp:141] Setting up loss2/drop_fc
I0403 14:54:41.502110 13763 net.cpp:148] Top shape: 24 1024 (24576)
I0403 14:54:41.502123 13763 net.cpp:156] Memory required for data: 1208417568
I0403 14:54:41.502137 13763 layer_factory.hpp:77] Creating layer loss2/classifier_plantvillage
I0403 14:54:41.502158 13763 net.cpp:91] Creating Layer loss2/classifier_plantvillage
I0403 14:54:41.502174 13763 net.cpp:425] loss2/classifier_plantvillage <- loss2/fc
I0403 14:54:41.502192 13763 net.cpp:399] loss2/classifier_plantvillage -> loss2/classifier_plantvillage
I0403 14:54:41.502591 13763 net.cpp:141] Setting up loss2/classifier_plantvillage
I0403 14:54:41.502615 13763 net.cpp:148] Top shape: 24 38 (912)
I0403 14:54:41.502647 13763 net.cpp:156] Memory required for data: 1208421216
I0403 14:54:41.502666 13763 layer_factory.hpp:77] Creating layer loss2/classifier_plantvillage_loss2/classifier_plantvillage_0_split
I0403 14:54:41.502683 13763 net.cpp:91] Creating Layer loss2/classifier_plantvillage_loss2/classifier_plantvillage_0_split
I0403 14:54:41.502698 13763 net.cpp:425] loss2/classifier_plantvillage_loss2/classifier_plantvillage_0_split <- loss2/classifier_plantvillage
I0403 14:54:41.502717 13763 net.cpp:399] loss2/classifier_plantvillage_loss2/classifier_plantvillage_0_split -> loss2/classifier_plantvillage_loss2/classifier_plantvillage_0_split_0
I0403 14:54:41.502738 13763 net.cpp:399] loss2/classifier_plantvillage_loss2/classifier_plantvillage_0_split -> loss2/classifier_plantvillage_loss2/classifier_plantvillage_0_split_1
I0403 14:54:41.502758 13763 net.cpp:399] loss2/classifier_plantvillage_loss2/classifier_plantvillage_0_split -> loss2/classifier_plantvillage_loss2/classifier_plantvillage_0_split_2
I0403 14:54:41.502832 13763 net.cpp:141] Setting up loss2/classifier_plantvillage_loss2/classifier_plantvillage_0_split
I0403 14:54:41.502857 13763 net.cpp:148] Top shape: 24 38 (912)
I0403 14:54:41.502874 13763 net.cpp:148] Top shape: 24 38 (912)
I0403 14:54:41.502888 13763 net.cpp:148] Top shape: 24 38 (912)
I0403 14:54:41.502902 13763 net.cpp:156] Memory required for data: 1208432160
I0403 14:54:41.502915 13763 layer_factory.hpp:77] Creating layer inception_4e/1x1
I0403 14:54:41.502935 13763 net.cpp:91] Creating Layer inception_4e/1x1
I0403 14:54:41.502951 13763 net.cpp:425] inception_4e/1x1 <- inception_4d/output_inception_4d/output_0_split_1
I0403 14:54:41.502969 13763 net.cpp:399] inception_4e/1x1 -> inception_4e/1x1
I0403 14:54:41.504763 13763 net.cpp:141] Setting up inception_4e/1x1
I0403 14:54:41.504792 13763 net.cpp:148] Top shape: 24 256 14 14 (1204224)
I0403 14:54:41.504808 13763 net.cpp:156] Memory required for data: 1213249056
I0403 14:54:41.504827 13763 layer_factory.hpp:77] Creating layer inception_4e/relu_1x1
I0403 14:54:41.504845 13763 net.cpp:91] Creating Layer inception_4e/relu_1x1
I0403 14:54:41.504861 13763 net.cpp:425] inception_4e/relu_1x1 <- inception_4e/1x1
I0403 14:54:41.504880 13763 net.cpp:386] inception_4e/relu_1x1 -> inception_4e/1x1 (in-place)
I0403 14:54:41.505177 13763 net.cpp:141] Setting up inception_4e/relu_1x1
I0403 14:54:41.505204 13763 net.cpp:148] Top shape: 24 256 14 14 (1204224)
I0403 14:54:41.505220 13763 net.cpp:156] Memory required for data: 1218065952
I0403 14:54:41.505235 13763 layer_factory.hpp:77] Creating layer inception_4e/3x3_reduce
I0403 14:54:41.505257 13763 net.cpp:91] Creating Layer inception_4e/3x3_reduce
I0403 14:54:41.505275 13763 net.cpp:425] inception_4e/3x3_reduce <- inception_4d/output_inception_4d/output_0_split_2
I0403 14:54:41.505297 13763 net.cpp:399] inception_4e/3x3_reduce -> inception_4e/3x3_reduce
I0403 14:54:41.507407 13763 net.cpp:141] Setting up inception_4e/3x3_reduce
I0403 14:54:41.507438 13763 net.cpp:148] Top shape: 24 160 14 14 (752640)
I0403 14:54:41.507457 13763 net.cpp:156] Memory required for data: 1221076512
I0403 14:54:41.507475 13763 layer_factory.hpp:77] Creating layer inception_4e/relu_3x3_reduce
I0403 14:54:41.507493 13763 net.cpp:91] Creating Layer inception_4e/relu_3x3_reduce
I0403 14:54:41.507510 13763 net.cpp:425] inception_4e/relu_3x3_reduce <- inception_4e/3x3_reduce
I0403 14:54:41.507529 13763 net.cpp:386] inception_4e/relu_3x3_reduce -> inception_4e/3x3_reduce (in-place)
I0403 14:54:41.507715 13763 net.cpp:141] Setting up inception_4e/relu_3x3_reduce
I0403 14:54:41.507740 13763 net.cpp:148] Top shape: 24 160 14 14 (752640)
I0403 14:54:41.507755 13763 net.cpp:156] Memory required for data: 1224087072
I0403 14:54:41.507768 13763 layer_factory.hpp:77] Creating layer inception_4e/3x3
I0403 14:54:41.507791 13763 net.cpp:91] Creating Layer inception_4e/3x3
I0403 14:54:41.507807 13763 net.cpp:425] inception_4e/3x3 <- inception_4e/3x3_reduce
I0403 14:54:41.507828 13763 net.cpp:399] inception_4e/3x3 -> inception_4e/3x3
I0403 14:54:41.512709 13763 net.cpp:141] Setting up inception_4e/3x3
I0403 14:54:41.512750 13763 net.cpp:148] Top shape: 24 320 14 14 (1505280)
I0403 14:54:41.512768 13763 net.cpp:156] Memory required for data: 1230108192
I0403 14:54:41.512785 13763 layer_factory.hpp:77] Creating layer inception_4e/relu_3x3
I0403 14:54:41.512806 13763 net.cpp:91] Creating Layer inception_4e/relu_3x3
I0403 14:54:41.512825 13763 net.cpp:425] inception_4e/relu_3x3 <- inception_4e/3x3
I0403 14:54:41.512842 13763 net.cpp:386] inception_4e/relu_3x3 -> inception_4e/3x3 (in-place)
I0403 14:54:41.513139 13763 net.cpp:141] Setting up inception_4e/relu_3x3
I0403 14:54:41.513165 13763 net.cpp:148] Top shape: 24 320 14 14 (1505280)
I0403 14:54:41.513180 13763 net.cpp:156] Memory required for data: 1236129312
I0403 14:54:41.513195 13763 layer_factory.hpp:77] Creating layer inception_4e/5x5_reduce
I0403 14:54:41.513217 13763 net.cpp:91] Creating Layer inception_4e/5x5_reduce
I0403 14:54:41.513234 13763 net.cpp:425] inception_4e/5x5_reduce <- inception_4d/output_inception_4d/output_0_split_3
I0403 14:54:41.513257 13763 net.cpp:399] inception_4e/5x5_reduce -> inception_4e/5x5_reduce
I0403 14:54:41.514312 13763 net.cpp:141] Setting up inception_4e/5x5_reduce
I0403 14:54:41.514340 13763 net.cpp:148] Top shape: 24 32 14 14 (150528)
I0403 14:54:41.514355 13763 net.cpp:156] Memory required for data: 1236731424
I0403 14:54:41.514372 13763 layer_factory.hpp:77] Creating layer inception_4e/relu_5x5_reduce
I0403 14:54:41.514389 13763 net.cpp:91] Creating Layer inception_4e/relu_5x5_reduce
I0403 14:54:41.514405 13763 net.cpp:425] inception_4e/relu_5x5_reduce <- inception_4e/5x5_reduce
I0403 14:54:41.514423 13763 net.cpp:386] inception_4e/relu_5x5_reduce -> inception_4e/5x5_reduce (in-place)
I0403 14:54:41.514724 13763 net.cpp:141] Setting up inception_4e/relu_5x5_reduce
I0403 14:54:41.514750 13763 net.cpp:148] Top shape: 24 32 14 14 (150528)
I0403 14:54:41.514765 13763 net.cpp:156] Memory required for data: 1237333536
I0403 14:54:41.514780 13763 layer_factory.hpp:77] Creating layer inception_4e/5x5
I0403 14:54:41.514817 13763 net.cpp:91] Creating Layer inception_4e/5x5
I0403 14:54:41.514835 13763 net.cpp:425] inception_4e/5x5 <- inception_4e/5x5_reduce
I0403 14:54:41.514854 13763 net.cpp:399] inception_4e/5x5 -> inception_4e/5x5
I0403 14:54:41.516679 13763 net.cpp:141] Setting up inception_4e/5x5
I0403 14:54:41.516710 13763 net.cpp:148] Top shape: 24 128 14 14 (602112)
I0403 14:54:41.516727 13763 net.cpp:156] Memory required for data: 1239741984
I0403 14:54:41.516746 13763 layer_factory.hpp:77] Creating layer inception_4e/relu_5x5
I0403 14:54:41.516764 13763 net.cpp:91] Creating Layer inception_4e/relu_5x5
I0403 14:54:41.516780 13763 net.cpp:425] inception_4e/relu_5x5 <- inception_4e/5x5
I0403 14:54:41.516798 13763 net.cpp:386] inception_4e/relu_5x5 -> inception_4e/5x5 (in-place)
I0403 14:54:41.516991 13763 net.cpp:141] Setting up inception_4e/relu_5x5
I0403 14:54:41.517019 13763 net.cpp:148] Top shape: 24 128 14 14 (602112)
I0403 14:54:41.517032 13763 net.cpp:156] Memory required for data: 1242150432
I0403 14:54:41.517046 13763 layer_factory.hpp:77] Creating layer inception_4e/pool
I0403 14:54:41.517063 13763 net.cpp:91] Creating Layer inception_4e/pool
I0403 14:54:41.517078 13763 net.cpp:425] inception_4e/pool <- inception_4d/output_inception_4d/output_0_split_4
I0403 14:54:41.517097 13763 net.cpp:399] inception_4e/pool -> inception_4e/pool
I0403 14:54:41.517165 13763 net.cpp:141] Setting up inception_4e/pool
I0403 14:54:41.517191 13763 net.cpp:148] Top shape: 24 528 14 14 (2483712)
I0403 14:54:41.517205 13763 net.cpp:156] Memory required for data: 1252085280
I0403 14:54:41.517220 13763 layer_factory.hpp:77] Creating layer inception_4e/pool_proj
I0403 14:54:41.517241 13763 net.cpp:91] Creating Layer inception_4e/pool_proj
I0403 14:54:41.517257 13763 net.cpp:425] inception_4e/pool_proj <- inception_4e/pool
I0403 14:54:41.517276 13763 net.cpp:399] inception_4e/pool_proj -> inception_4e/pool_proj
I0403 14:54:41.518790 13763 net.cpp:141] Setting up inception_4e/pool_proj
I0403 14:54:41.518829 13763 net.cpp:148] Top shape: 24 128 14 14 (602112)
I0403 14:54:41.518847 13763 net.cpp:156] Memory required for data: 1254493728
I0403 14:54:41.518865 13763 layer_factory.hpp:77] Creating layer inception_4e/relu_pool_proj
I0403 14:54:41.518887 13763 net.cpp:91] Creating Layer inception_4e/relu_pool_proj
I0403 14:54:41.518905 13763 net.cpp:425] inception_4e/relu_pool_proj <- inception_4e/pool_proj
I0403 14:54:41.518923 13763 net.cpp:386] inception_4e/relu_pool_proj -> inception_4e/pool_proj (in-place)
I0403 14:54:41.519217 13763 net.cpp:141] Setting up inception_4e/relu_pool_proj
I0403 14:54:41.519243 13763 net.cpp:148] Top shape: 24 128 14 14 (602112)
I0403 14:54:41.519263 13763 net.cpp:156] Memory required for data: 1256902176
I0403 14:54:41.519276 13763 layer_factory.hpp:77] Creating layer inception_4e/output
I0403 14:54:41.519296 13763 net.cpp:91] Creating Layer inception_4e/output
I0403 14:54:41.519312 13763 net.cpp:425] inception_4e/output <- inception_4e/1x1
I0403 14:54:41.519330 13763 net.cpp:425] inception_4e/output <- inception_4e/3x3
I0403 14:54:41.519346 13763 net.cpp:425] inception_4e/output <- inception_4e/5x5
I0403 14:54:41.519361 13763 net.cpp:425] inception_4e/output <- inception_4e/pool_proj
I0403 14:54:41.519378 13763 net.cpp:399] inception_4e/output -> inception_4e/output
I0403 14:54:41.519428 13763 net.cpp:141] Setting up inception_4e/output
I0403 14:54:41.519451 13763 net.cpp:148] Top shape: 24 832 14 14 (3913728)
I0403 14:54:41.519465 13763 net.cpp:156] Memory required for data: 1272557088
I0403 14:54:41.519479 13763 layer_factory.hpp:77] Creating layer pool4/3x3_s2
I0403 14:54:41.519496 13763 net.cpp:91] Creating Layer pool4/3x3_s2
I0403 14:54:41.519515 13763 net.cpp:425] pool4/3x3_s2 <- inception_4e/output
I0403 14:54:41.519531 13763 net.cpp:399] pool4/3x3_s2 -> pool4/3x3_s2
I0403 14:54:41.519603 13763 net.cpp:141] Setting up pool4/3x3_s2
I0403 14:54:41.519628 13763 net.cpp:148] Top shape: 24 832 7 7 (978432)
I0403 14:54:41.519640 13763 net.cpp:156] Memory required for data: 1276470816
I0403 14:54:41.519654 13763 layer_factory.hpp:77] Creating layer pool4/3x3_s2_pool4/3x3_s2_0_split
I0403 14:54:41.519671 13763 net.cpp:91] Creating Layer pool4/3x3_s2_pool4/3x3_s2_0_split
I0403 14:54:41.519686 13763 net.cpp:425] pool4/3x3_s2_pool4/3x3_s2_0_split <- pool4/3x3_s2
I0403 14:54:41.519706 13763 net.cpp:399] pool4/3x3_s2_pool4/3x3_s2_0_split -> pool4/3x3_s2_pool4/3x3_s2_0_split_0
I0403 14:54:41.519726 13763 net.cpp:399] pool4/3x3_s2_pool4/3x3_s2_0_split -> pool4/3x3_s2_pool4/3x3_s2_0_split_1
I0403 14:54:41.519745 13763 net.cpp:399] pool4/3x3_s2_pool4/3x3_s2_0_split -> pool4/3x3_s2_pool4/3x3_s2_0_split_2
I0403 14:54:41.519765 13763 net.cpp:399] pool4/3x3_s2_pool4/3x3_s2_0_split -> pool4/3x3_s2_pool4/3x3_s2_0_split_3
I0403 14:54:41.519855 13763 net.cpp:141] Setting up pool4/3x3_s2_pool4/3x3_s2_0_split
I0403 14:54:41.519877 13763 net.cpp:148] Top shape: 24 832 7 7 (978432)
I0403 14:54:41.519892 13763 net.cpp:148] Top shape: 24 832 7 7 (978432)
I0403 14:54:41.519907 13763 net.cpp:148] Top shape: 24 832 7 7 (978432)
I0403 14:54:41.519922 13763 net.cpp:148] Top shape: 24 832 7 7 (978432)
I0403 14:54:41.519935 13763 net.cpp:156] Memory required for data: 1292125728
I0403 14:54:41.519948 13763 layer_factory.hpp:77] Creating layer inception_5a/1x1
I0403 14:54:41.519971 13763 net.cpp:91] Creating Layer inception_5a/1x1
I0403 14:54:41.519989 13763 net.cpp:425] inception_5a/1x1 <- pool4/3x3_s2_pool4/3x3_s2_0_split_0
I0403 14:54:41.520007 13763 net.cpp:399] inception_5a/1x1 -> inception_5a/1x1
I0403 14:54:41.522825 13763 net.cpp:141] Setting up inception_5a/1x1
I0403 14:54:41.522856 13763 net.cpp:148] Top shape: 24 256 7 7 (301056)
I0403 14:54:41.522874 13763 net.cpp:156] Memory required for data: 1293329952
I0403 14:54:41.522892 13763 layer_factory.hpp:77] Creating layer inception_5a/relu_1x1
I0403 14:54:41.522912 13763 net.cpp:91] Creating Layer inception_5a/relu_1x1
I0403 14:54:41.522927 13763 net.cpp:425] inception_5a/relu_1x1 <- inception_5a/1x1
I0403 14:54:41.522948 13763 net.cpp:386] inception_5a/relu_1x1 -> inception_5a/1x1 (in-place)
I0403 14:54:41.523255 13763 net.cpp:141] Setting up inception_5a/relu_1x1
I0403 14:54:41.523283 13763 net.cpp:148] Top shape: 24 256 7 7 (301056)
I0403 14:54:41.523298 13763 net.cpp:156] Memory required for data: 1294534176
I0403 14:54:41.523313 13763 layer_factory.hpp:77] Creating layer inception_5a/3x3_reduce
I0403 14:54:41.523334 13763 net.cpp:91] Creating Layer inception_5a/3x3_reduce
I0403 14:54:41.523352 13763 net.cpp:425] inception_5a/3x3_reduce <- pool4/3x3_s2_pool4/3x3_s2_0_split_1
I0403 14:54:41.523370 13763 net.cpp:399] inception_5a/3x3_reduce -> inception_5a/3x3_reduce
I0403 14:54:41.525785 13763 net.cpp:141] Setting up inception_5a/3x3_reduce
I0403 14:54:41.525815 13763 net.cpp:148] Top shape: 24 160 7 7 (188160)
I0403 14:54:41.525830 13763 net.cpp:156] Memory required for data: 1295286816
I0403 14:54:41.525848 13763 layer_factory.hpp:77] Creating layer inception_5a/relu_3x3_reduce
I0403 14:54:41.525867 13763 net.cpp:91] Creating Layer inception_5a/relu_3x3_reduce
I0403 14:54:41.525884 13763 net.cpp:425] inception_5a/relu_3x3_reduce <- inception_5a/3x3_reduce
I0403 14:54:41.525902 13763 net.cpp:386] inception_5a/relu_3x3_reduce -> inception_5a/3x3_reduce (in-place)
I0403 14:54:41.526084 13763 net.cpp:141] Setting up inception_5a/relu_3x3_reduce
I0403 14:54:41.526113 13763 net.cpp:148] Top shape: 24 160 7 7 (188160)
I0403 14:54:41.526129 13763 net.cpp:156] Memory required for data: 1296039456
I0403 14:54:41.526142 13763 layer_factory.hpp:77] Creating layer inception_5a/3x3
I0403 14:54:41.526165 13763 net.cpp:91] Creating Layer inception_5a/3x3
I0403 14:54:41.526182 13763 net.cpp:425] inception_5a/3x3 <- inception_5a/3x3_reduce
I0403 14:54:41.526201 13763 net.cpp:399] inception_5a/3x3 -> inception_5a/3x3
I0403 14:54:41.531159 13763 net.cpp:141] Setting up inception_5a/3x3
I0403 14:54:41.531193 13763 net.cpp:148] Top shape: 24 320 7 7 (376320)
I0403 14:54:41.531209 13763 net.cpp:156] Memory required for data: 1297544736
I0403 14:54:41.531227 13763 layer_factory.hpp:77] Creating layer inception_5a/relu_3x3
I0403 14:54:41.531245 13763 net.cpp:91] Creating Layer inception_5a/relu_3x3
I0403 14:54:41.531261 13763 net.cpp:425] inception_5a/relu_3x3 <- inception_5a/3x3
I0403 14:54:41.531278 13763 net.cpp:386] inception_5a/relu_3x3 -> inception_5a/3x3 (in-place)
I0403 14:54:41.531584 13763 net.cpp:141] Setting up inception_5a/relu_3x3
I0403 14:54:41.531613 13763 net.cpp:148] Top shape: 24 320 7 7 (376320)
I0403 14:54:41.531630 13763 net.cpp:156] Memory required for data: 1299050016
I0403 14:54:41.531644 13763 layer_factory.hpp:77] Creating layer inception_5a/5x5_reduce
I0403 14:54:41.531669 13763 net.cpp:91] Creating Layer inception_5a/5x5_reduce
I0403 14:54:41.531687 13763 net.cpp:425] inception_5a/5x5_reduce <- pool4/3x3_s2_pool4/3x3_s2_0_split_2
I0403 14:54:41.531707 13763 net.cpp:399] inception_5a/5x5_reduce -> inception_5a/5x5_reduce
I0403 14:54:41.532892 13763 net.cpp:141] Setting up inception_5a/5x5_reduce
I0403 14:54:41.532924 13763 net.cpp:148] Top shape: 24 32 7 7 (37632)
I0403 14:54:41.532941 13763 net.cpp:156] Memory required for data: 1299200544
I0403 14:54:41.532960 13763 layer_factory.hpp:77] Creating layer inception_5a/relu_5x5_reduce
I0403 14:54:41.532979 13763 net.cpp:91] Creating Layer inception_5a/relu_5x5_reduce
I0403 14:54:41.532996 13763 net.cpp:425] inception_5a/relu_5x5_reduce <- inception_5a/5x5_reduce
I0403 14:54:41.533015 13763 net.cpp:386] inception_5a/relu_5x5_reduce -> inception_5a/5x5_reduce (in-place)
I0403 14:54:41.533331 13763 net.cpp:141] Setting up inception_5a/relu_5x5_reduce
I0403 14:54:41.533362 13763 net.cpp:148] Top shape: 24 32 7 7 (37632)
I0403 14:54:41.533380 13763 net.cpp:156] Memory required for data: 1299351072
I0403 14:54:41.533396 13763 layer_factory.hpp:77] Creating layer inception_5a/5x5
I0403 14:54:41.533421 13763 net.cpp:91] Creating Layer inception_5a/5x5
I0403 14:54:41.533439 13763 net.cpp:425] inception_5a/5x5 <- inception_5a/5x5_reduce
I0403 14:54:41.533462 13763 net.cpp:399] inception_5a/5x5 -> inception_5a/5x5
I0403 14:54:41.535219 13763 net.cpp:141] Setting up inception_5a/5x5
I0403 14:54:41.535264 13763 net.cpp:148] Top shape: 24 128 7 7 (150528)
I0403 14:54:41.535280 13763 net.cpp:156] Memory required for data: 1299953184
I0403 14:54:41.535300 13763 layer_factory.hpp:77] Creating layer inception_5a/relu_5x5
I0403 14:54:41.535316 13763 net.cpp:91] Creating Layer inception_5a/relu_5x5
I0403 14:54:41.535332 13763 net.cpp:425] inception_5a/relu_5x5 <- inception_5a/5x5
I0403 14:54:41.535349 13763 net.cpp:386] inception_5a/relu_5x5 -> inception_5a/5x5 (in-place)
I0403 14:54:41.535547 13763 net.cpp:141] Setting up inception_5a/relu_5x5
I0403 14:54:41.535573 13763 net.cpp:148] Top shape: 24 128 7 7 (150528)
I0403 14:54:41.535588 13763 net.cpp:156] Memory required for data: 1300555296
I0403 14:54:41.535603 13763 layer_factory.hpp:77] Creating layer inception_5a/pool
I0403 14:54:41.535620 13763 net.cpp:91] Creating Layer inception_5a/pool
I0403 14:54:41.535635 13763 net.cpp:425] inception_5a/pool <- pool4/3x3_s2_pool4/3x3_s2_0_split_3
I0403 14:54:41.535656 13763 net.cpp:399] inception_5a/pool -> inception_5a/pool
I0403 14:54:41.535729 13763 net.cpp:141] Setting up inception_5a/pool
I0403 14:54:41.535755 13763 net.cpp:148] Top shape: 24 832 7 7 (978432)
I0403 14:54:41.535771 13763 net.cpp:156] Memory required for data: 1304469024
I0403 14:54:41.535785 13763 layer_factory.hpp:77] Creating layer inception_5a/pool_proj
I0403 14:54:41.535807 13763 net.cpp:91] Creating Layer inception_5a/pool_proj
I0403 14:54:41.535825 13763 net.cpp:425] inception_5a/pool_proj <- inception_5a/pool
I0403 14:54:41.535843 13763 net.cpp:399] inception_5a/pool_proj -> inception_5a/pool_proj
I0403 14:54:41.538141 13763 net.cpp:141] Setting up inception_5a/pool_proj
I0403 14:54:41.538172 13763 net.cpp:148] Top shape: 24 128 7 7 (150528)
I0403 14:54:41.538188 13763 net.cpp:156] Memory required for data: 1305071136
I0403 14:54:41.538208 13763 layer_factory.hpp:77] Creating layer inception_5a/relu_pool_proj
I0403 14:54:41.538228 13763 net.cpp:91] Creating Layer inception_5a/relu_pool_proj
I0403 14:54:41.538246 13763 net.cpp:425] inception_5a/relu_pool_proj <- inception_5a/pool_proj
I0403 14:54:41.538266 13763 net.cpp:386] inception_5a/relu_pool_proj -> inception_5a/pool_proj (in-place)
I0403 14:54:41.538604 13763 net.cpp:141] Setting up inception_5a/relu_pool_proj
I0403 14:54:41.538633 13763 net.cpp:148] Top shape: 24 128 7 7 (150528)
I0403 14:54:41.538660 13763 net.cpp:156] Memory required for data: 1305673248
I0403 14:54:41.538676 13763 layer_factory.hpp:77] Creating layer inception_5a/output
I0403 14:54:41.538696 13763 net.cpp:91] Creating Layer inception_5a/output
I0403 14:54:41.538712 13763 net.cpp:425] inception_5a/output <- inception_5a/1x1
I0403 14:54:41.538730 13763 net.cpp:425] inception_5a/output <- inception_5a/3x3
I0403 14:54:41.538748 13763 net.cpp:425] inception_5a/output <- inception_5a/5x5
I0403 14:54:41.538765 13763 net.cpp:425] inception_5a/output <- inception_5a/pool_proj
I0403 14:54:41.538784 13763 net.cpp:399] inception_5a/output -> inception_5a/output
I0403 14:54:41.538836 13763 net.cpp:141] Setting up inception_5a/output
I0403 14:54:41.538859 13763 net.cpp:148] Top shape: 24 832 7 7 (978432)
I0403 14:54:41.538874 13763 net.cpp:156] Memory required for data: 1309586976
I0403 14:54:41.538888 13763 layer_factory.hpp:77] Creating layer inception_5a/output_inception_5a/output_0_split
I0403 14:54:41.538905 13763 net.cpp:91] Creating Layer inception_5a/output_inception_5a/output_0_split
I0403 14:54:41.538921 13763 net.cpp:425] inception_5a/output_inception_5a/output_0_split <- inception_5a/output
I0403 14:54:41.538949 13763 net.cpp:399] inception_5a/output_inception_5a/output_0_split -> inception_5a/output_inception_5a/output_0_split_0
I0403 14:54:41.538969 13763 net.cpp:399] inception_5a/output_inception_5a/output_0_split -> inception_5a/output_inception_5a/output_0_split_1
I0403 14:54:41.538991 13763 net.cpp:399] inception_5a/output_inception_5a/output_0_split -> inception_5a/output_inception_5a/output_0_split_2
I0403 14:54:41.539012 13763 net.cpp:399] inception_5a/output_inception_5a/output_0_split -> inception_5a/output_inception_5a/output_0_split_3
I0403 14:54:41.539127 13763 net.cpp:141] Setting up inception_5a/output_inception_5a/output_0_split
I0403 14:54:41.539154 13763 net.cpp:148] Top shape: 24 832 7 7 (978432)
I0403 14:54:41.539171 13763 net.cpp:148] Top shape: 24 832 7 7 (978432)
I0403 14:54:41.539186 13763 net.cpp:148] Top shape: 24 832 7 7 (978432)
I0403 14:54:41.539202 13763 net.cpp:148] Top shape: 24 832 7 7 (978432)
I0403 14:54:41.539216 13763 net.cpp:156] Memory required for data: 1325241888
I0403 14:54:41.539229 13763 layer_factory.hpp:77] Creating layer inception_5b/1x1
I0403 14:54:41.539252 13763 net.cpp:91] Creating Layer inception_5b/1x1
I0403 14:54:41.539271 13763 net.cpp:425] inception_5b/1x1 <- inception_5a/output_inception_5a/output_0_split_0
I0403 14:54:41.539290 13763 net.cpp:399] inception_5b/1x1 -> inception_5b/1x1
I0403 14:54:41.543083 13763 net.cpp:141] Setting up inception_5b/1x1
I0403 14:54:41.543115 13763 net.cpp:148] Top shape: 24 384 7 7 (451584)
I0403 14:54:41.543131 13763 net.cpp:156] Memory required for data: 1327048224
I0403 14:54:41.543150 13763 layer_factory.hpp:77] Creating layer inception_5b/relu_1x1
I0403 14:54:41.543171 13763 net.cpp:91] Creating Layer inception_5b/relu_1x1
I0403 14:54:41.543190 13763 net.cpp:425] inception_5b/relu_1x1 <- inception_5b/1x1
I0403 14:54:41.543207 13763 net.cpp:386] inception_5b/relu_1x1 -> inception_5b/1x1 (in-place)
I0403 14:54:41.543515 13763 net.cpp:141] Setting up inception_5b/relu_1x1
I0403 14:54:41.543548 13763 net.cpp:148] Top shape: 24 384 7 7 (451584)
I0403 14:54:41.543566 13763 net.cpp:156] Memory required for data: 1328854560
I0403 14:54:41.543581 13763 layer_factory.hpp:77] Creating layer inception_5b/3x3_reduce
I0403 14:54:41.543604 13763 net.cpp:91] Creating Layer inception_5b/3x3_reduce
I0403 14:54:41.543623 13763 net.cpp:425] inception_5b/3x3_reduce <- inception_5a/output_inception_5a/output_0_split_1
I0403 14:54:41.543645 13763 net.cpp:399] inception_5b/3x3_reduce -> inception_5b/3x3_reduce
I0403 14:54:41.546391 13763 net.cpp:141] Setting up inception_5b/3x3_reduce
I0403 14:54:41.546422 13763 net.cpp:148] Top shape: 24 192 7 7 (225792)
I0403 14:54:41.546440 13763 net.cpp:156] Memory required for data: 1329757728
I0403 14:54:41.546460 13763 layer_factory.hpp:77] Creating layer inception_5b/relu_3x3_reduce
I0403 14:54:41.546483 13763 net.cpp:91] Creating Layer inception_5b/relu_3x3_reduce
I0403 14:54:41.546501 13763 net.cpp:425] inception_5b/relu_3x3_reduce <- inception_5b/3x3_reduce
I0403 14:54:41.546520 13763 net.cpp:386] inception_5b/relu_3x3_reduce -> inception_5b/3x3_reduce (in-place)
I0403 14:54:41.546721 13763 net.cpp:141] Setting up inception_5b/relu_3x3_reduce
I0403 14:54:41.546749 13763 net.cpp:148] Top shape: 24 192 7 7 (225792)
I0403 14:54:41.546766 13763 net.cpp:156] Memory required for data: 1330660896
I0403 14:54:41.546780 13763 layer_factory.hpp:77] Creating layer inception_5b/3x3
I0403 14:54:41.546802 13763 net.cpp:91] Creating Layer inception_5b/3x3
I0403 14:54:41.546820 13763 net.cpp:425] inception_5b/3x3 <- inception_5b/3x3_reduce
I0403 14:54:41.546839 13763 net.cpp:399] inception_5b/3x3 -> inception_5b/3x3
I0403 14:54:41.553620 13763 net.cpp:141] Setting up inception_5b/3x3
I0403 14:54:41.553653 13763 net.cpp:148] Top shape: 24 384 7 7 (451584)
I0403 14:54:41.553668 13763 net.cpp:156] Memory required for data: 1332467232
I0403 14:54:41.553688 13763 layer_factory.hpp:77] Creating layer inception_5b/relu_3x3
I0403 14:54:41.553709 13763 net.cpp:91] Creating Layer inception_5b/relu_3x3
I0403 14:54:41.553727 13763 net.cpp:425] inception_5b/relu_3x3 <- inception_5b/3x3
I0403 14:54:41.553746 13763 net.cpp:386] inception_5b/relu_3x3 -> inception_5b/3x3 (in-place)
I0403 14:54:41.554049 13763 net.cpp:141] Setting up inception_5b/relu_3x3
I0403 14:54:41.554077 13763 net.cpp:148] Top shape: 24 384 7 7 (451584)
I0403 14:54:41.554093 13763 net.cpp:156] Memory required for data: 1334273568
I0403 14:54:41.554108 13763 layer_factory.hpp:77] Creating layer inception_5b/5x5_reduce
I0403 14:54:41.554150 13763 net.cpp:91] Creating Layer inception_5b/5x5_reduce
I0403 14:54:41.554172 13763 net.cpp:425] inception_5b/5x5_reduce <- inception_5a/output_inception_5a/output_0_split_2
I0403 14:54:41.554193 13763 net.cpp:399] inception_5b/5x5_reduce -> inception_5b/5x5_reduce
I0403 14:54:41.555488 13763 net.cpp:141] Setting up inception_5b/5x5_reduce
I0403 14:54:41.555518 13763 net.cpp:148] Top shape: 24 48 7 7 (56448)
I0403 14:54:41.555534 13763 net.cpp:156] Memory required for data: 1334499360
I0403 14:54:41.555557 13763 layer_factory.hpp:77] Creating layer inception_5b/relu_5x5_reduce
I0403 14:54:41.555582 13763 net.cpp:91] Creating Layer inception_5b/relu_5x5_reduce
I0403 14:54:41.555598 13763 net.cpp:425] inception_5b/relu_5x5_reduce <- inception_5b/5x5_reduce
I0403 14:54:41.555616 13763 net.cpp:386] inception_5b/relu_5x5_reduce -> inception_5b/5x5_reduce (in-place)
I0403 14:54:41.555994 13763 net.cpp:141] Setting up inception_5b/relu_5x5_reduce
I0403 14:54:41.556025 13763 net.cpp:148] Top shape: 24 48 7 7 (56448)
I0403 14:54:41.556041 13763 net.cpp:156] Memory required for data: 1334725152
I0403 14:54:41.556056 13763 layer_factory.hpp:77] Creating layer inception_5b/5x5
I0403 14:54:41.556077 13763 net.cpp:91] Creating Layer inception_5b/5x5
I0403 14:54:41.556093 13763 net.cpp:425] inception_5b/5x5 <- inception_5b/5x5_reduce
I0403 14:54:41.556113 13763 net.cpp:399] inception_5b/5x5 -> inception_5b/5x5
I0403 14:54:41.558208 13763 net.cpp:141] Setting up inception_5b/5x5
I0403 14:54:41.558240 13763 net.cpp:148] Top shape: 24 128 7 7 (150528)
I0403 14:54:41.558261 13763 net.cpp:156] Memory required for data: 1335327264
I0403 14:54:41.558279 13763 layer_factory.hpp:77] Creating layer inception_5b/relu_5x5
I0403 14:54:41.558297 13763 net.cpp:91] Creating Layer inception_5b/relu_5x5
I0403 14:54:41.558315 13763 net.cpp:425] inception_5b/relu_5x5 <- inception_5b/5x5
I0403 14:54:41.558337 13763 net.cpp:386] inception_5b/relu_5x5 -> inception_5b/5x5 (in-place)
I0403 14:54:41.558542 13763 net.cpp:141] Setting up inception_5b/relu_5x5
I0403 14:54:41.558567 13763 net.cpp:148] Top shape: 24 128 7 7 (150528)
I0403 14:54:41.558581 13763 net.cpp:156] Memory required for data: 1335929376
I0403 14:54:41.558595 13763 layer_factory.hpp:77] Creating layer inception_5b/pool
I0403 14:54:41.558614 13763 net.cpp:91] Creating Layer inception_5b/pool
I0403 14:54:41.558629 13763 net.cpp:425] inception_5b/pool <- inception_5a/output_inception_5a/output_0_split_3
I0403 14:54:41.558650 13763 net.cpp:399] inception_5b/pool -> inception_5b/pool
I0403 14:54:41.558724 13763 net.cpp:141] Setting up inception_5b/pool
I0403 14:54:41.558748 13763 net.cpp:148] Top shape: 24 832 7 7 (978432)
I0403 14:54:41.558763 13763 net.cpp:156] Memory required for data: 1339843104
I0403 14:54:41.558776 13763 layer_factory.hpp:77] Creating layer inception_5b/pool_proj
I0403 14:54:41.558802 13763 net.cpp:91] Creating Layer inception_5b/pool_proj
I0403 14:54:41.558820 13763 net.cpp:425] inception_5b/pool_proj <- inception_5b/pool
I0403 14:54:41.558842 13763 net.cpp:399] inception_5b/pool_proj -> inception_5b/pool_proj
I0403 14:54:41.561168 13763 net.cpp:141] Setting up inception_5b/pool_proj
I0403 14:54:41.561202 13763 net.cpp:148] Top shape: 24 128 7 7 (150528)
I0403 14:54:41.561220 13763 net.cpp:156] Memory required for data: 1340445216
I0403 14:54:41.561239 13763 layer_factory.hpp:77] Creating layer inception_5b/relu_pool_proj
I0403 14:54:41.561257 13763 net.cpp:91] Creating Layer inception_5b/relu_pool_proj
I0403 14:54:41.561275 13763 net.cpp:425] inception_5b/relu_pool_proj <- inception_5b/pool_proj
I0403 14:54:41.561292 13763 net.cpp:386] inception_5b/relu_pool_proj -> inception_5b/pool_proj (in-place)
I0403 14:54:41.561599 13763 net.cpp:141] Setting up inception_5b/relu_pool_proj
I0403 14:54:41.561630 13763 net.cpp:148] Top shape: 24 128 7 7 (150528)
I0403 14:54:41.561647 13763 net.cpp:156] Memory required for data: 1341047328
I0403 14:54:41.561663 13763 layer_factory.hpp:77] Creating layer inception_5b/output
I0403 14:54:41.561681 13763 net.cpp:91] Creating Layer inception_5b/output
I0403 14:54:41.561712 13763 net.cpp:425] inception_5b/output <- inception_5b/1x1
I0403 14:54:41.561729 13763 net.cpp:425] inception_5b/output <- inception_5b/3x3
I0403 14:54:41.561746 13763 net.cpp:425] inception_5b/output <- inception_5b/5x5
I0403 14:54:41.561763 13763 net.cpp:425] inception_5b/output <- inception_5b/pool_proj
I0403 14:54:41.561780 13763 net.cpp:399] inception_5b/output -> inception_5b/output
I0403 14:54:41.561835 13763 net.cpp:141] Setting up inception_5b/output
I0403 14:54:41.561858 13763 net.cpp:148] Top shape: 24 1024 7 7 (1204224)
I0403 14:54:41.561873 13763 net.cpp:156] Memory required for data: 1345864224
I0403 14:54:41.561888 13763 layer_factory.hpp:77] Creating layer pool5/7x7_s1
I0403 14:54:41.561908 13763 net.cpp:91] Creating Layer pool5/7x7_s1
I0403 14:54:41.561924 13763 net.cpp:425] pool5/7x7_s1 <- inception_5b/output
I0403 14:54:41.561944 13763 net.cpp:399] pool5/7x7_s1 -> pool5/7x7_s1
I0403 14:54:41.562165 13763 net.cpp:141] Setting up pool5/7x7_s1
I0403 14:54:41.562192 13763 net.cpp:148] Top shape: 24 1024 1 1 (24576)
I0403 14:54:41.562208 13763 net.cpp:156] Memory required for data: 1345962528
I0403 14:54:41.562223 13763 layer_factory.hpp:77] Creating layer pool5/drop_7x7_s1
I0403 14:54:41.562242 13763 net.cpp:91] Creating Layer pool5/drop_7x7_s1
I0403 14:54:41.562258 13763 net.cpp:425] pool5/drop_7x7_s1 <- pool5/7x7_s1
I0403 14:54:41.562274 13763 net.cpp:386] pool5/drop_7x7_s1 -> pool5/7x7_s1 (in-place)
I0403 14:54:41.562326 13763 net.cpp:141] Setting up pool5/drop_7x7_s1
I0403 14:54:41.562350 13763 net.cpp:148] Top shape: 24 1024 1 1 (24576)
I0403 14:54:41.562364 13763 net.cpp:156] Memory required for data: 1346060832
I0403 14:54:41.562379 13763 layer_factory.hpp:77] Creating layer loss3/classifier_plantvillage
I0403 14:54:41.562400 13763 net.cpp:91] Creating Layer loss3/classifier_plantvillage
I0403 14:54:41.562417 13763 net.cpp:425] loss3/classifier_plantvillage <- pool5/7x7_s1
I0403 14:54:41.562435 13763 net.cpp:399] loss3/classifier_plantvillage -> loss3/classifier_plantvillage
I0403 14:54:41.562870 13763 net.cpp:141] Setting up loss3/classifier_plantvillage
I0403 14:54:41.562894 13763 net.cpp:148] Top shape: 24 38 (912)
I0403 14:54:41.562909 13763 net.cpp:156] Memory required for data: 1346064480
I0403 14:54:41.562927 13763 layer_factory.hpp:77] Creating layer loss3/classifier_plantvillage_loss3/classifier_plantvillage_0_split
I0403 14:54:41.562945 13763 net.cpp:91] Creating Layer loss3/classifier_plantvillage_loss3/classifier_plantvillage_0_split
I0403 14:54:41.562961 13763 net.cpp:425] loss3/classifier_plantvillage_loss3/classifier_plantvillage_0_split <- loss3/classifier_plantvillage
I0403 14:54:41.562981 13763 net.cpp:399] loss3/classifier_plantvillage_loss3/classifier_plantvillage_0_split -> loss3/classifier_plantvillage_loss3/classifier_plantvillage_0_split_0
I0403 14:54:41.563004 13763 net.cpp:399] loss3/classifier_plantvillage_loss3/classifier_plantvillage_0_split -> loss3/classifier_plantvillage_loss3/classifier_plantvillage_0_split_1
I0403 14:54:41.563024 13763 net.cpp:399] loss3/classifier_plantvillage_loss3/classifier_plantvillage_0_split -> loss3/classifier_plantvillage_loss3/classifier_plantvillage_0_split_2
I0403 14:54:41.563045 13763 net.cpp:399] loss3/classifier_plantvillage_loss3/classifier_plantvillage_0_split -> loss3/classifier_plantvillage_loss3/classifier_plantvillage_0_split_3
I0403 14:54:41.563149 13763 net.cpp:141] Setting up loss3/classifier_plantvillage_loss3/classifier_plantvillage_0_split
I0403 14:54:41.563174 13763 net.cpp:148] Top shape: 24 38 (912)
I0403 14:54:41.563189 13763 net.cpp:148] Top shape: 24 38 (912)
I0403 14:54:41.563204 13763 net.cpp:148] Top shape: 24 38 (912)
I0403 14:54:41.563218 13763 net.cpp:148] Top shape: 24 38 (912)
I0403 14:54:41.563232 13763 net.cpp:156] Memory required for data: 1346079072
I0403 14:54:41.563247 13763 layer_factory.hpp:77] Creating layer loss1/loss
I0403 14:54:41.563294 13763 net.cpp:91] Creating Layer loss1/loss
I0403 14:54:41.563314 13763 net.cpp:425] loss1/loss <- loss1/classifier_plantvillage_loss1/classifier_plantvillage_0_split_0
I0403 14:54:41.563344 13763 net.cpp:425] loss1/loss <- label_data_1_split_0
…
