…
I0403 14:10:27.837736 12849 net.cpp:313] The NetState phase (1) differed from the phase (0) specified by a rule in layer data
I0403 14:10:27.838881 12849 net.cpp:49] Initializing net from parameters: 
state {
  phase: TEST
}
layer {
  name: "data"
  type: "Data"
  top: "data"
  top: "label"
  include {
    phase: TEST
  }
  transform_param {
    mirror: false
    crop_size: 224
    mean_file: "/home/mohanty/data/final_dataset/lmdb/segmented-20-80/mean.binaryproto"
  }
  data_param {
    source: "/home/mohanty/data/final_dataset/lmdb/segmented-20-80/test_db"
    batch_size: 24
    backend: LMDB
  }
}
layer {
  name: "conv1/7x7_s2"
  type: "Convolution"
  bottom: "data"
  top: "conv1/7x7_s2"
  param {
    lr_mult: 1
    decay_mult: 1
  }
  param {
    lr_mult: 2
    decay_mult: 0
  }
  convolution_param {
    num_output: 64
    pad: 3
    kernel_size: 7
    stride: 2
    weight_filler {
      type: "xavier"
      std: 0.1
    }
    bias_filler {
      type: "constant"
      value: 0.2
    }
  }
}
layer {
  name: "conv1/relu_7x7"
  type: "ReLU"
  bottom: "conv1/7x7_s2"
  top: "conv1/7x7_s2"
}
layer {
  name: "pool1/3x3_s2"
  type: "Pooling"
  bottom: "conv1/7x7_s2"
  top: "pool1/3x3_s2"
  pooling_param {
    pool: MAX
    kernel_size: 3
    stride: 2
  }
}
layer {
  name: "pool1/norm1"
  type: "LRN"
  bottom: "pool1/3x3_s2"
  top: "pool1/norm1"
  lrn_param {
    local_size: 5
    alpha: 0.0001
    beta: 0.75
  }
}
layer {
  name: "conv2/3x3_reduce"
  type: "Convolution"
  bottom: "pool1/norm1"
  top: "conv2/3x3_reduce"
  param {
    lr_mult: 1
    decay_mult: 1
  }
  param {
    lr_mult: 2
    decay_mult: 0
  }
  convolution_param {
    num_output: 64
    kernel_size: 1
    weight_filler {
      type: "xavier"
      std: 0.1
    }
    bias_filler {
      type: "constant"
      value: 0.2
    }
  }
}
layer {
  name: "conv2/relu_3x3_reduce"
  type: "ReLU"
  bottom: "conv2/3x3_reduce"
  top: "conv2/3x3_reduce"
}
layer {
  name: "conv2/3x3"
  type: "Convolution"
  bottom: "conv2/3x3_reduce"
  top: "conv2/3x3"
  param {
    lr_mult: 1
    decay_mult: 1
  }
  param {
    lr_mult: 2
    decay_mult: 0
  }
  convolution_param {
    num_output: 192
    pad: 1
    kernel_size: 3
    weight_filler {
      type: "xavier"
      std: 0.03
    }
    bias_filler {
      type: "constant"
      value: 0.2
    }
  }
}
layer {
  name: "conv2/relu_3x3"
  type: "ReLU"
  bottom: "conv2/3x3"
  top: "conv2/3x3"
}
layer {
  name: "conv2/norm2"
  type: "LRN"
  bottom: "conv2/3x3"
  top: "conv2/norm2"
  lrn_param {
    local_size: 5
    alpha: 0.0001
    beta: 0.75
  }
}
layer {
  name: "pool2/3x3_s2"
  type: "Pooling"
  bottom: "conv2/norm2"
  top: "pool2/3x3_s2"
  pooling_param {
    pool: MAX
    kernel_size: 3
    stride: 2
  }
}
layer {
  name: "inception_3a/1x1"
  type: "Convolution"
  bottom: "pool2/3x3_s2"
  top: "inception_3a/1x1"
  param {
    lr_mult: 1
    decay_mult: 1
  }
  param {
    lr_mult: 2
    decay_mult: 0
  }
  convolution_param {
    num_output: 64
    kernel_size: 1
    weight_filler {
      type: "xavier"
      std: 0.03
    }
    bias_filler {
      type: "constant"
      value: 0.2
    }
  }
}
layer {
  name: "inception_3a/relu_1x1"
  type: "ReLU"
  bottom: "inception_3a/1x1"
  top: "inception_3a/1x1"
}
layer {
  name: "inception_3a/3x3_reduce"
  type: "Convolution"
  bottom: "pool2/3x3_s2"
  top: "inception_3a/3x3_reduce"
  param {
    lr_mult: 1
    decay_mult: 1
  }
  param {
    lr_mult: 2
    decay_mult: 0
  }
  convolution_param {
    num_output: 96
    kernel_size: 1
    weight_filler {
      type: "xavier"
      std: 0.09
    }
    bias_filler {
      type: "constant"
      value: 0.2
    }
  }
}
layer {
  name: "inception_3a/relu_3x3_reduce"
  type: "ReLU"
  bottom: "inception_3a/3x3_reduce"
  top: "inception_3a/3x3_reduce"
}
layer {
  name: "inception_3a/3x3"
  type: "Convolution"
  bottom: "inception_3a/3x3_reduce"
  top: "inception_3a/3x3"
  param {
    lr_mult: 1
    decay_mult: 1
  }
  param {
    lr_mult: 2
    decay_mult: 0
  }
  convolution_param {
    num_output: 128
    pad: 1
    kernel_size: 3
    weight_filler {
      type: "xavier"
      std: 0.03
    }
    bias_filler {
      type: "constant"
      value: 0.2
    }
  }
}
layer {
  name: "inception_3a/relu_3x3"
  type: "ReLU"
  bottom: "inception_3a/3x3"
  top: "inception_3a/3x3"
}
layer {
  name: "inception_3a/5x5_reduce"
  type: "Convolution"
  bottom: "pool2/3x3_s2"
  top: "inception_3a/5x5_reduce"
  param {
    lr_mult: 1
    decay_mult: 1
  }
  param {
    lr_mult: 2
    decay_mult: 0
  }
  convolution_param {
    num_output: 16
    kernel_size: 1
    weight_filler {
      type: "xavier"
      std: 0.2
    }
    bias_filler {
      type: "constant"
      value: 0.2
    }
  }
}
layer {
  name: "inception_3a/relu_5x5_reduce"
  type: "ReLU"
  bottom: "inception_3a/5x5_reduce"
  top: "inception_3a/5x5_reduce"
}
layer {
  name: "inception_3a/5x5"
  type: "Convolution"
  bottom: "inception_3a/5x5_reduce"
  top: "inception_3a/5x5"
  param {
    lr_mult: 1
    decay_mult: 1
  }
  param {
    lr_mult: 2
    decay_mult: 0
  }
  convolution_param {
    num_output: 32
    pad: 2
    kernel_size: 5
    weight_filler {
      type: "xavier"
      std: 0.03
    }
    bias_filler {
      type: "constant"
      value: 0.2
    }
  }
}
layer {
  name: "inception_3a/relu_5x5"
  type: "ReLU"
  bottom: "inception_3a/5x5"
  top: "inception_3a/5x5"
}
layer {
  name: "inception_3a/pool"
  type: "Pooling"
  bottom: "pool2/3x3_s2"
  top: "inception_3a/pool"
  pooling_param {
    pool: MAX
    kernel_size: 3
    stride: 1
    pad: 1
  }
}
layer {
  name: "inception_3a/pool_proj"
  type: "Convolution"
  bottom: "inception_3a/pool"
  top: "inception_3a/pool_proj"
  param {
    lr_mult: 1
    decay_mult: 1
  }
  param {
    lr_mult: 2
    decay_mult: 0
  }
  convolution_param {
    num_output: 32
    kernel_size: 1
    weight_filler {
      type: "xavier"
      std: 0.1
    }
    bias_filler {
      type: "constant"
      value: 0.2
    }
  }
}
layer {
  name: "inception_3a/relu_pool_proj"
  type: "ReLU"
  bottom: "inception_3a/pool_proj"
  top: "inception_3a/pool_proj"
}
layer {
  name: "inception_3a/output"
  type: "Concat"
  bottom: "inception_3a/1x1"
  bottom: "inception_3a/3x3"
  bottom: "inception_3a/5x5"
  bottom: "inception_3a/pool_proj"
  top: "inception_3a/output"
}
layer {
  name: "inception_3b/1x1"
  type: "Convolution"
  bottom: "inception_3a/output"
  top: "inception_3b/1x1"
  param {
    lr_mult: 1
    decay_mult: 1
  }
  param {
    lr_mult: 2
    decay_mult: 0
  }
  convolution_param {
    num_output: 128
    kernel_size: 1
    weight_filler {
      type: "xavier"
      std: 0.03
    }
    bias_filler {
      type: "constant"
      value: 0.2
    }
  }
}
layer {
  name: "inception_3b/relu_1x1"
  type: "ReLU"
  bottom: "inception_3b/1x1"
  top: "inception_3b/1x1"
}
layer {
  name: "inception_3b/3x3_reduce"
  type: "Convolution"
  bottom: "inception_3a/output"
  top: "inception_3b/3x3_reduce"
  param {
    lr_mult: 1
    decay_mult: 1
  }
  param {
    lr_mult: 2
    decay_mult: 0
  }
  convolution_param {
    num_output: 128
    kernel_size: 1
    weight_filler {
      type: "xavier"
      std: 0.09
    }
    bias_filler {
      type: "constant"
      value: 0.2
    }
  }
}
layer {
  name: "inception_3b/relu_3x3_reduce"
  type: "ReLU"
  bottom: "inception_3b/3x3_reduce"
  top: "inception_3b/3x3_reduce"
}
layer {
  name: "inception_3b/3x3"
  type: "Convolution"
  bottom: "inception_3b/3x3_reduce"
  top: "inception_3b/3x3"
  param {
    lr_mult: 1
    decay_mult: 1
  }
  param {
    lr_mult: 2
    decay_mult: 0
  }
  convolution_param {
    num_output: 192
    pad: 1
    kernel_size: 3
    weight_filler {
      type: "xavier"
      std: 0.03
    }
    bias_filler {
      type: "constant"
      value: 0.2
    }
  }
}
layer {
  name: "inception_3b/relu_3x3"
  type: "ReLU"
  bottom: "inception_3b/3x3"
  top: "inception_3b/3x3"
}
layer {
  name: "inception_3b/5x5_reduce"
  type: "Convolution"
  bottom: "inception_3a/output"
  top: "inception_3b/5x5_reduce"
  param {
    lr_mult: 1
    decay_mult: 1
  }
  param {
    lr_mult: 2
    decay_mult: 0
  }
  convolution_param {
    num_output: 32
    kernel_size: 1
    weight_filler {
      type: "xavier"
      std: 0.2
    }
    bias_filler {
      type: "constant"
      value: 0.2
    }
  }
}
layer {
  name: "inception_3b/relu_5x5_reduce"
  type: "ReLU"
  bottom: "inception_3b/5x5_reduce"
  top: "inception_3b/5x5_reduce"
}
layer {
  name: "inception_3b/5x5"
  type: "Convolution"
  bottom: "inception_3b/5x5_reduce"
  top: "inception_3b/5x5"
  param {
    lr_mult: 1
    decay_mult: 1
  }
  param {
    lr_mult: 2
    decay_mult: 0
  }
  convolution_param {
    num_output: 96
    pad: 2
    kernel_size: 5
    weight_filler {
      type: "xavier"
      std: 0.03
    }
    bias_filler {
      type: "constant"
      value: 0.2
    }
  }
}
layer {
  name: "inception_3b/relu_5x5"
  type: "ReLU"
  bottom: "inception_3b/5x5"
  top: "inception_3b/5x5"
}
layer {
  name: "inception_3b/pool"
  type: "Pooling"
  bottom: "inception_3a/output"
  top: "inception_3b/pool"
  pooling_param {
    pool: MAX
    kernel_size: 3
    stride: 1
    pad: 1
  }
}
layer {
  name: "inception_3b/pool_proj"
  type: "Convolution"
  bottom: "inception_3b/pool"
  top: "inception_3b/pool_proj"
  param {
    lr_mult: 1
    decay_mult: 1
  }
  param {
    lr_mult: 2
    decay_mult: 0
  }
  convolution_param {
    num_output: 64
    kernel_size: 1
    weight_filler {
      type: "xavier"
      std: 0.1
    }
    bias_filler {
      type: "constant"
      value: 0.2
    }
  }
}
layer {
  name: "inception_3b/relu_pool_proj"
  type: "ReLU"
  bottom: "inception_3b/pool_proj"
  top: "inception_3b/pool_proj"
}
layer {
  name: "inception_3b/output"
  type: "Concat"
  bottom: "inception_3b/1x1"
  bottom: "inception_3b/3x3"
  bottom: "inception_3b/5x5"
  bottom: "inception_3b/pool_proj"
  top: "inception_3b/output"
}
layer {
  name: "pool3/3x3_s2"
  type: "Pooling"
  bottom: "inception_3b/output"
  top: "pool3/3x3_s2"
  pooling_param {
    pool: MAX
    kernel_size: 3
    stride: 2
  }
}
layer {
  name: "inception_4a/1x1"
  type: "Convolution"
  bottom: "pool3/3x3_s2"
  top: "inception_4a/1x1"
  param {
    lr_mult: 1
    decay_mult: 1
  }
  param {
    lr_mult: 2
    decay_mult: 0
  }
  convolution_param {
    num_output: 192
    kernel_size: 1
    weight_filler {
      type: "xavier"
      std: 0.03
    }
    bias_filler {
      type: "constant"
      value: 0.2
    }
  }
}
layer {
  name: "inception_4a/relu_1x1"
  type: "ReLU"
  bottom: "inception_4a/1x1"
  top: "inception_4a/1x1"
}
layer {
  name: "inception_4a/3x3_reduce"
  type: "Convolution"
  bottom: "pool3/3x3_s2"
  top: "inception_4a/3x3_reduce"
  param {
    lr_mult: 1
    decay_mult: 1
  }
  param {
    lr_mult: 2
    decay_mult: 0
  }
  convolution_param {
    num_output: 96
    kernel_size: 1
    weight_filler {
      type: "xavier"
      std: 0.09
    }
    bias_filler {
      type: "constant"
      value: 0.2
    }
  }
}
layer {
  name: "inception_4a/relu_3x3_reduce"
  type: "ReLU"
  bottom: "inception_4a/3x3_reduce"
  top: "inception_4a/3x3_reduce"
}
layer {
  name: "inception_4a/3x3"
  type: "Convolution"
  bottom: "inception_4a/3x3_reduce"
  top: "inception_4a/3x3"
  param {
    lr_mult: 1
    decay_mult: 1
  }
  param {
    lr_mult: 2
    decay_mult: 0
  }
  convolution_param {
    num_output: 208
    pad: 1
    kernel_size: 3
    weight_filler {
      type: "xavier"
      std: 0.03
    }
    bias_filler {
      type: "constant"
      value: 0.2
    }
  }
}
layer {
  name: "inception_4a/relu_3x3"
  type: "ReLU"
  bottom: "inception_4a/3x3"
  top: "inception_4a/3x3"
}
layer {
  name: "inception_4a/5x5_reduce"
  type: "Convolution"
  bottom: "pool3/3x3_s2"
  top: "inception_4a/5x5_reduce"
  param {
    lr_mult: 1
    decay_mult: 1
  }
  param {
    lr_mult: 2
    decay_mult: 0
  }
  convolution_param {
    num_output: 16
    kernel_size: 1
    weight_filler {
      type: "xavier"
      std: 0.2
    }
    bias_filler {
      type: "constant"
      value: 0.2
    }
  }
}
layer {
  name: "inception_4a/relu_5x5_reduce"
  type: "ReLU"
  bottom: "inception_4a/5x5_reduce"
  top: "inception_4a/5x5_reduce"
}
layer {
  name: "inception_4a/5x5"
  type: "Convolution"
  bottom: "inception_4a/5x5_reduce"
  top: "inception_4a/5x5"
  param {
    lr_mult: 1
    decay_mult: 1
  }
  param {
    lr_mult: 2
    decay_mult: 0
  }
  convolution_param {
    num_output: 48
    pad: 2
    kernel_size: 5
    weight_filler {
      type: "xavier"
      std: 0.03
    }
    bias_filler {
      type: "constant"
      value: 0.2
    }
  }
}
layer {
  name: "inception_4a/relu_5x5"
  type: "ReLU"
  bottom: "inception_4a/5x5"
  top: "inception_4a/5x5"
}
layer {
  name: "inception_4a/pool"
  type: "Pooling"
  bottom: "pool3/3x3_s2"
  top: "inception_4a/pool"
  pooling_param {
    pool: MAX
    kernel_size: 3
    stride: 1
    pad: 1
  }
}
layer {
  name: "inception_4a/pool_proj"
  type: "Convolution"
  bottom: "inception_4a/pool"
  top: "inception_4a/pool_proj"
  param {
    lr_mult: 1
    decay_mult: 1
  }
  param {
    lr_mult: 2
    decay_mult: 0
  }
  convolution_param {
    num_output: 64
    kernel_size: 1
    weight_filler {
      type: "xavier"
      std: 0.1
    }
    bias_filler {
      type: "constant"
      value: 0.2
    }
  }
}
layer {
  name: "inception_4a/relu_pool_proj"
  type: "ReLU"
  bottom: "inception_4a/pool_proj"
  top: "inception_4a/pool_proj"
}
layer {
  name: "inception_4a/output"
  type: "Concat"
  bottom: "inception_4a/1x1"
  bottom: "inception_4a/3x3"
  bottom: "inception_4a/5x5"
  bottom: "inception_4a/pool_proj"
  top: "inception_4a/output"
}
layer {
  name: "loss1/ave_pool"
  type: "Pooling"
  bottom: "inception_4a/output"
  top: "loss1/ave_pool"
  pooling_param {
    pool: AVE
    kernel_size: 5
    stride: 3
  }
}
layer {
  name: "loss1/conv"
  type: "Convolution"
  bottom: "loss1/ave_pool"
  top: "loss1/conv"
  param {
    lr_mult: 1
    decay_mult: 1
  }
  param {
    lr_mult: 2
    decay_mult: 0
  }
  convolution_param {
    num_output: 128
    kernel_size: 1
    weight_filler {
      type: "xavier"
      std: 0.08
    }
    bias_filler {
      type: "constant"
      value: 0.2
    }
  }
}
layer {
  name: "loss1/relu_conv"
  type: "ReLU"
  bottom: "loss1/conv"
  top: "loss1/conv"
}
layer {
  name: "loss1/fc"
  type: "InnerProduct"
  bottom: "loss1/conv"
  top: "loss1/fc"
  param {
    lr_mult: 1
    decay_mult: 1
  }
  param {
    lr_mult: 2
    decay_mult: 0
  }
  inner_product_param {
    num_output: 1024
    weight_filler {
      type: "xavier"
      std: 0.02
    }
    bias_filler {
      type: "constant"
      value: 0.2
    }
  }
}
layer {
  name: "loss1/relu_fc"
  type: "ReLU"
  bottom: "loss1/fc"
  top: "loss1/fc"
}
layer {
  name: "loss1/drop_fc"
  type: "Dropout"
  bottom: "loss1/fc"
  top: "loss1/fc"
  dropout_param {
    dropout_ratio: 0.7
  }
}
layer {
  name: "loss1/classifier_plantvillage"
  type: "InnerProduct"
  bottom: "loss1/fc"
  top: "loss1/classifier_plantvillage"
  param {
    lr_mult: 1
    decay_mult: 1
  }
  param {
    lr_mult: 2
    decay_mult: 0
  }
  inner_product_param {
    num_output: 38
    weight_filler {
      type: "xavier"
      std: 0.0009765625
    }
    bias_filler {
      type: "constant"
      value: 0
    }
  }
}
layer {
  name: "inception_4b/1x1"
  type: "Convolution"
  bottom: "inception_4a/output"
  top: "inception_4b/1x1"
  param {
    lr_mult: 1
    decay_mult: 1
  }
  param {
    lr_mult: 2
    decay_mult: 0
  }
  convolution_param {
    num_output: 160
    kernel_size: 1
    weight_filler {
      type: "xavier"
      std: 0.03
    }
    bias_filler {
      type: "constant"
      value: 0.2
    }
  }
}
layer {
  name: "inception_4b/relu_1x1"
  type: "ReLU"
  bottom: "inception_4b/1x1"
  top: "inception_4b/1x1"
}
layer {
  name: "inception_4b/3x3_reduce"
  type: "Convolution"
  bottom: "inception_4a/output"
  top: "inception_4b/3x3_reduce"
  param {
    lr_mult: 1
    decay_mult: 1
  }
  param {
    lr_mult: 2
    decay_mult: 0
  }
  convolution_param {
    num_output: 112
    kernel_size: 1
    weight_filler {
      type: "xavier"
      std: 0.09
    }
    bias_filler {
      type: "constant"
      value: 0.2
    }
  }
}
layer {
  name: "inception_4b/relu_3x3_reduce"
  type: "ReLU"
  bottom: "inception_4b/3x3_reduce"
  top: "inception_4b/3x3_reduce"
}
layer {
  name: "inception_4b/3x3"
  type: "Convolution"
  bottom: "inception_4b/3x3_reduce"
  top: "inception_4b/3x3"
  param {
    lr_mult: 1
    decay_mult: 1
  }
  param {
    lr_mult: 2
    decay_mult: 0
  }
  convolution_param {
    num_output: 224
    pad: 1
    kernel_size: 3
    weight_filler {
      type: "xavier"
      std: 0.03
    }
    bias_filler {
      type: "constant"
      value: 0.2
    }
  }
}
layer {
  name: "inception_4b/relu_3x3"
  type: "ReLU"
  bottom: "inception_4b/3x3"
  top: "inception_4b/3x3"
}
layer {
  name: "inception_4b/5x5_reduce"
  type: "Convolution"
  bottom: "inception_4a/output"
  top: "inception_4b/5x5_reduce"
  param {
    lr_mult: 1
    decay_mult: 1
  }
  param {
    lr_mult: 2
    decay_mult: 0
  }
  convolution_param {
    num_output: 24
    kernel_size: 1
    weight_filler {
      type: "xavier"
      std: 0.2
    }
    bias_filler {
      type: "constant"
      value: 0.2
    }
  }
}
layer {
  name: "inception_4b/relu_5x5_reduce"
  type: "ReLU"
  bottom: "inception_4b/5x5_reduce"
  top: "inception_4b/5x5_reduce"
}
layer {
  name: "inception_4b/5x5"
  type: "Convolution"
  bottom: "inception_4b/5x5_reduce"
  top: "inception_4b/5x5"
  param {
    lr_mult: 1
    decay_mult: 1
  }
  param {
    lr_mult: 2
    decay_mult: 0
  }
  convolution_param {
    num_output: 64
    pad: 2
    kernel_size: 5
    weight_filler {
      type: "xavier"
      std: 0.03
    }
    bias_filler {
      type: "constant"
      value: 0.2
    }
  }
}
layer {
  name: "inception_4b/relu_5x5"
  type: "ReLU"
  bottom: "inception_4b/5x5"
  top: "inception_4b/5x5"
}
layer {
  name: "inception_4b/pool"
  type: "Pooling"
  bottom: "inception_4a/output"
  top: "inception_4b/pool"
  pooling_param {
    pool: MAX
    kernel_size: 3
    stride: 1
    pad: 1
  }
}
layer {
  name: "inception_4b/pool_proj"
  type: "Convolution"
  bottom: "inception_4b/pool"
  top: "inception_4b/pool_proj"
  param {
    lr_mult: 1
    decay_mult: 1
  }
  param {
    lr_mult: 2
    decay_mult: 0
  }
  convolution_param {
    num_output: 64
    kernel_size: 1
    weight_filler {
      type: "xavier"
      std: 0.1
    }
    bias_filler {
      type: "constant"
      value: 0.2
    }
  }
}
layer {
  name: "inception_4b/relu_pool_proj"
  type: "ReLU"
  bottom: "inception_4b/pool_proj"
  top: "inception_4b/pool_proj"
}
layer {
  name: "inception_4b/output"
  type: "Concat"
  bottom: "inception_4b/1x1"
  bottom: "inception_4b/3x3"
  bottom: "inception_4b/5x5"
  bottom: "inception_4b/pool_proj"
  top: "inception_4b/output"
}
layer {
  name: "inception_4c/1x1"
  type: "Convolution"
  bottom: "inception_4b/output"
  top: "inception_4c/1x1"
  param {
    lr_mult: 1
    decay_mult: 1
  }
  param {
    lr_mult: 2
    decay_mult: 0
  }
  convolution_param {
    num_output: 128
    kernel_size: 1
    weight_filler {
      type: "xavier"
      std: 0.03
    }
    bias_filler {
      type: "constant"
      value: 0.2
    }
  }
}
layer {
  name: "inception_4c/relu_1x1"
  type: "ReLU"
  bottom: "inception_4c/1x1"
  top: "inception_4c/1x1"
}
layer {
  name: "inception_4c/3x3_reduce"
  type: "Convolution"
  bottom: "inception_4b/output"
  top: "inception_4c/3x3_reduce"
  param {
    lr_mult: 1
    decay_mult: 1
  }
  param {
    lr_mult: 2
    decay_mult: 0
  }
  convolution_param {
    num_output: 128
    kernel_size: 1
    weight_filler {
      type: "xavier"
      std: 0.09
    }
    bias_filler {
      type: "constant"
      value: 0.2
    }
  }
}
layer {
  name: "inception_4c/relu_3x3_reduce"
  type: "ReLU"
  bottom: "inception_4c/3x3_reduce"
  top: "inception_4c/3x3_reduce"
}
layer {
  name: "inception_4c/3x3"
  type: "Convolution"
  bottom: "inception_4c/3x3_reduce"
  top: "inception_4c/3x3"
  param {
    lr_mult: 1
    decay_mult: 1
  }
  param {
    lr_mult: 2
    decay_mult: 0
  }
  convolution_param {
    num_output: 256
    pad: 1
    kernel_size: 3
    weight_filler {
      type: "xavier"
      std: 0.03
    }
    bias_filler {
      type: "constant"
      value: 0.2
    }
  }
}
layer {
  name: "inception_4c/relu_3x3"
  type: "ReLU"
  bottom: "inception_4c/3x3"
  top: "inception_4c/3x3"
}
layer {
  name: "inception_4c/5x5_reduce"
  type: "Convolution"
  bottom: "inception_4b/output"
  top: "inception_4c/5x5_reduce"
  param {
    lr_mult: 1
    decay_mult: 1
  }
  param {
    lr_mult: 2
    decay_mult: 0
  }
  convolution_param {
    num_output: 24
    kernel_size: 1
    weight_filler {
      type: "xavier"
      std: 0.2
    }
    bias_filler {
      type: "constant"
      value: 0.2
    }
  }
}
layer {
  name: "inception_4c/relu_5x5_reduce"
  type: "ReLU"
  bottom: "inception_4c/5x5_reduce"
  top: "inception_4c/5x5_reduce"
}
layer {
  name: "inception_4c/5x5"
  type: "Convolution"
  bottom: "inception_4c/5x5_reduce"
  top: "inception_4c/5x5"
  param {
    lr_mult: 1
    decay_mult: 1
  }
  param {
    lr_mult: 2
    decay_mult: 0
  }
  convolution_param {
    num_output: 64
    pad: 2
    kernel_size: 5
    weight_filler {
      type: "xavier"
      std: 0.03
    }
    bias_filler {
      type: "constant"
      value: 0.2
    }
  }
}
layer {
  name: "inception_4c/relu_5x5"
  type: "ReLU"
  bottom: "inception_4c/5x5"
  top: "inception_4c/5x5"
}
layer {
  name: "inception_4c/pool"
  type: "Pooling"
  bottom: "inception_4b/output"
  top: "inception_4c/pool"
  pooling_param {
    pool: MAX
    kernel_size: 3
    stride: 1
    pad: 1
  }
}
layer {
  name: "inception_4c/pool_proj"
  type: "Convolution"
  bottom: "inception_4c/pool"
  top: "inception_4c/pool_proj"
  param {
    lr_mult: 1
    decay_mult: 1
  }
  param {
    lr_mult: 2
    decay_mult: 0
  }
  convolution_param {
    num_output: 64
    kernel_size: 1
    weight_filler {
      type: "xavier"
      std: 0.1
    }
    bias_filler {
      type: "constant"
      value: 0.2
    }
  }
}
layer {
  name: "inception_4c/relu_pool_proj"
  type: "ReLU"
  bottom: "inception_4c/pool_proj"
  top: "inception_4c/pool_proj"
}
layer {
  name: "inception_4c/output"
  type: "Concat"
  bottom: "inception_4c/1x1"
  bottom: "inception_4c/3x3"
  bottom: "inception_4c/5x5"
  bottom: "inception_4c/pool_proj"
  top: "inception_4c/output"
}
layer {
  name: "inception_4d/1x1"
  type: "Convolution"
  bottom: "inception_4c/output"
  top: "inception_4d/1x1"
  param {
    lr_mult: 1
    decay_mult: 1
  }
  param {
    lr_mult: 2
    decay_mult: 0
  }
  convolution_param {
    num_output: 112
    kernel_size: 1
    weight_filler {
      type: "xavier"
      std: 0.03
    }
    bias_filler {
      type: "constant"
      value: 0.2
    }
  }
}
layer {
  name: "inception_4d/relu_1x1"
  type: "ReLU"
  bottom: "inception_4d/1x1"
  top: "inception_4d/1x1"
}
layer {
  name: "inception_4d/3x3_reduce"
  type: "Convolution"
  bottom: "inception_4c/output"
  top: "inception_4d/3x3_reduce"
  param {
    lr_mult: 1
    decay_mult: 1
  }
  param {
    lr_mult: 2
    decay_mult: 0
  }
  convolution_param {
    num_output: 144
    kernel_size: 1
    weight_filler {
      type: "xavier"
      std: 0.09
    }
    bias_filler {
      type: "constant"
      value: 0.2
    }
  }
}
layer {
  name: "inception_4d/relu_3x3_reduce"
  type: "ReLU"
  bottom: "inception_4d/3x3_reduce"
  top: "inception_4d/3x3_reduce"
}
layer {
  name: "inception_4d/3x3"
  type: "Convolution"
  bottom: "inception_4d/3x3_reduce"
  top: "inception_4d/3x3"
  param {
    lr_mult: 1
    decay_mult: 1
  }
  param {
    lr_mult: 2
    decay_mult: 0
  }
  convolution_param {
    num_output: 288
    pad: 1
    kernel_size: 3
    weight_filler {
      type: "xavier"
      std: 0.03
    }
    bias_filler {
      type: "constant"
      value: 0.2
    }
  }
}
layer {
  name: "inception_4d/relu_3x3"
  type: "ReLU"
  bottom: "inception_4d/3x3"
  top: "inception_4d/3x3"
}
layer {
  name: "inception_4d/5x5_reduce"
  type: "Convolution"
  bottom: "inception_4c/output"
  top: "inception_4d/5x5_reduce"
  param {
    lr_mult: 1
    decay_mult: 1
  }
  param {
    lr_mult: 2
    decay_mult: 0
  }
  convolution_param {
    num_output: 32
    kernel_size: 1
    weight_filler {
      type: "xavier"
      std: 0.2
    }
    bias_filler {
      type: "constant"
      value: 0.2
    }
  }
}
layer {
  name: "inception_4d/relu_5x5_reduce"
  type: "ReLU"
  bottom: "inception_4d/5x5_reduce"
  top: "inception_4d/5x5_reduce"
}
layer {
  name: "inception_4d/5x5"
  type: "Convolution"
  bottom: "inception_4d/5x5_reduce"
  top: "inception_4d/5x5"
  param {
    lr_mult: 1
    decay_mult: 1
  }
  param {
    lr_mult: 2
    decay_mult: 0
  }
  convolution_param {
    num_output: 64
    pad: 2
    kernel_size: 5
    weight_filler {
      type: "xavier"
      std: 0.03
    }
    bias_filler {
      type: "constant"
      value: 0.2
    }
  }
}
layer {
  name: "inception_4d/relu_5x5"
  type: "ReLU"
  bottom: "inception_4d/5x5"
  top: "inception_4d/5x5"
}
layer {
  name: "inception_4d/pool"
  type: "Pooling"
  bottom: "inception_4c/output"
  top: "inception_4d/pool"
  pooling_param {
    pool: MAX
    kernel_size: 3
    stride: 1
    pad: 1
  }
}
layer {
  name: "inception_4d/pool_proj"
  type: "Convolution"
  bottom: "inception_4d/pool"
  top: "inception_4d/pool_proj"
  param {
    lr_mult: 1
    decay_mult: 1
  }
  param {
    lr_mult: 2
    decay_mult: 0
  }
  convolution_param {
    num_output: 64
    kernel_size: 1
    weight_filler {
      type: "xavier"
      std: 0.1
    }
    bias_filler {
      type: "constant"
      value: 0.2
    }
  }
}
layer {
  name: "inception_4d/relu_pool_proj"
  type: "ReLU"
  bottom: "inception_4d/pool_proj"
  top: "inception_4d/pool_proj"
}
layer {
  name: "inception_4d/output"
  type: "Concat"
  bottom: "inception_4d/1x1"
  bottom: "inception_4d/3x3"
  bottom: "inception_4d/5x5"
  bottom: "inception_4d/pool_proj"
  top: "inception_4d/output"
}
layer {
  name: "loss2/ave_pool"
  type: "Pooling"
  bottom: "inception_4d/output"
  top: "loss2/ave_pool"
  pooling_param {
    pool: AVE
    kernel_size: 5
    stride: 3
  }
}
layer {
  name: "loss2/conv"
  type: "Convolution"
  bottom: "loss2/ave_pool"
  top: "loss2/conv"
  param {
    lr_mult: 1
    decay_mult: 1
  }
  param {
    lr_mult: 2
    decay_mult: 0
  }
  convolution_param {
    num_output: 128
    kernel_size: 1
    weight_filler {
      type: "xavier"
      std: 0.08
    }
    bias_filler {
      type: "constant"
      value: 0.2
    }
  }
}
layer {
  name: "loss2/relu_conv"
  type: "ReLU"
  bottom: "loss2/conv"
  top: "loss2/conv"
}
layer {
  name: "loss2/fc"
  type: "InnerProduct"
  bottom: "loss2/conv"
  top: "loss2/fc"
  param {
    lr_mult: 1
    decay_mult: 1
  }
  param {
    lr_mult: 2
    decay_mult: 0
  }
  inner_product_param {
    num_output: 1024
    weight_filler {
      type: "xavier"
      std: 0.02
    }
    bias_filler {
      type: "constant"
      value: 0.2
    }
  }
}
layer {
  name: "loss2/relu_fc"
  type: "ReLU"
  bottom: "loss2/fc"
  top: "loss2/fc"
}
layer {
  name: "loss2/drop_fc"
  type: "Dropout"
  bottom: "loss2/fc"
  top: "loss2/fc"
  dropout_param {
    dropout_ratio: 0.7
  }
}
layer {
  name: "loss2/classifier_plantvillage"
  type: "InnerProduct"
  bottom: "loss2/fc"
  top: "loss2/classifier_plantvillage"
  param {
    lr_mult: 1
    decay_mult: 1
  }
  param {
    lr_mult: 2
    decay_mult: 0
  }
  inner_product_param {
    num_output: 38
    weight_filler {
      type: "xavier"
      std: 0.0009765625
    }
    bias_filler {
      type: "constant"
      value: 0
    }
  }
}
layer {
  name: "inception_4e/1x1"
  type: "Convolution"
  bottom: "inception_4d/output"
  top: "inception_4e/1x1"
  param {
    lr_mult: 1
    decay_mult: 1
  }
  param {
    lr_mult: 2
    decay_mult: 0
  }
  convolution_param {
    num_output: 256
    kernel_size: 1
    weight_filler {
      type: "xavier"
      std: 0.03
    }
    bias_filler {
      type: "constant"
      value: 0.2
    }
  }
}
layer {
  name: "inception_4e/relu_1x1"
  type: "ReLU"
  bottom: "inception_4e/1x1"
  top: "inception_4e/1x1"
}
layer {
  name: "inception_4e/3x3_reduce"
  type: "Convolution"
  bottom: "inception_4d/output"
  top: "inception_4e/3x3_reduce"
  param {
    lr_mult: 1
    decay_mult: 1
  }
  param {
    lr_mult: 2
    decay_mult: 0
  }
  convolution_param {
    num_output: 160
    kernel_size: 1
    weight_filler {
      type: "xavier"
      std: 0.09
    }
    bias_filler {
      type: "constant"
      value: 0.2
    }
  }
}
layer {
  name: "inception_4e/relu_3x3_reduce"
  type: "ReLU"
  bottom: "inception_4e/3x3_reduce"
  top: "inception_4e/3x3_reduce"
}
layer {
  name: "inception_4e/3x3"
  type: "Convolution"
  bottom: "inception_4e/3x3_reduce"
  top: "inception_4e/3x3"
  param {
    lr_mult: 1
    decay_mult: 1
  }
  param {
    lr_mult: 2
    decay_mult: 0
  }
  convolution_param {
    num_output: 320
    pad: 1
    kernel_size: 3
    weight_filler {
      type: "xavier"
      std: 0.03
    }
    bias_filler {
      type: "constant"
      value: 0.2
    }
  }
}
layer {
  name: "inception_4e/relu_3x3"
  type: "ReLU"
  bottom: "inception_4e/3x3"
  top: "inception_4e/3x3"
}
layer {
  name: "inception_4e/5x5_reduce"
  type: "Convolution"
  bottom: "inception_4d/output"
  top: "inception_4e/5x5_reduce"
  param {
    lr_mult: 1
    decay_mult: 1
  }
  param {
    lr_mult: 2
    decay_mult: 0
  }
  convolution_param {
    num_output: 32
    kernel_size: 1
    weight_filler {
      type: "xavier"
      std: 0.2
    }
    bias_filler {
      type: "constant"
      value: 0.2
    }
  }
}
layer {
  name: "inception_4e/relu_5x5_reduce"
  type: "ReLU"
  bottom: "inception_4e/5x5_reduce"
  top: "inception_4e/5x5_reduce"
}
layer {
  name: "inception_4e/5x5"
  type: "Convolution"
  bottom: "inception_4e/5x5_reduce"
  top: "inception_4e/
I0403 14:10:27.840142 12849 layer_factory.hpp:77] Creating layer data
I0403 14:10:27.840761 12849 net.cpp:91] Creating Layer data
I0403 14:10:27.840793 12849 net.cpp:399] data -> data
I0403 14:10:27.840845 12849 net.cpp:399] data -> label
I0403 14:10:27.840883 12849 data_transformer.cpp:25] Loading mean file from: /home/mohanty/data/final_dataset/lmdb/segmented-20-80/mean.binaryproto
I0403 14:10:27.844135 12853 db_lmdb.cpp:38] Opened lmdb /home/mohanty/data/final_dataset/lmdb/segmented-20-80/test_db
I0403 14:10:27.853821 12849 data_layer.cpp:41] output data size: 24,3,224,224
I0403 14:10:27.880483 12849 net.cpp:141] Setting up data
I0403 14:10:27.880576 12849 net.cpp:148] Top shape: 24 3 224 224 (3612672)
I0403 14:10:27.880599 12849 net.cpp:148] Top shape: 24 (24)
I0403 14:10:27.880614 12849 net.cpp:156] Memory required for data: 14450784
I0403 14:10:27.880641 12849 layer_factory.hpp:77] Creating layer label_data_1_split
I0403 14:10:27.880667 12849 net.cpp:91] Creating Layer label_data_1_split
I0403 14:10:27.880686 12849 net.cpp:425] label_data_1_split <- label
I0403 14:10:27.880718 12849 net.cpp:399] label_data_1_split -> label_data_1_split_0
I0403 14:10:27.880746 12849 net.cpp:399] label_data_1_split -> label_data_1_split_1
I0403 14:10:27.880769 12849 net.cpp:399] label_data_1_split -> label_data_1_split_2
I0403 14:10:27.880789 12849 net.cpp:399] label_data_1_split -> label_data_1_split_3
I0403 14:10:27.880810 12849 net.cpp:399] label_data_1_split -> label_data_1_split_4
I0403 14:10:27.880828 12849 net.cpp:399] label_data_1_split -> label_data_1_split_5
I0403 14:10:27.880847 12849 net.cpp:399] label_data_1_split -> label_data_1_split_6
I0403 14:10:27.880868 12849 net.cpp:399] label_data_1_split -> label_data_1_split_7
I0403 14:10:27.880887 12849 net.cpp:399] label_data_1_split -> label_data_1_split_8
I0403 14:10:27.880908 12849 net.cpp:399] label_data_1_split -> label_data_1_split_9
I0403 14:10:27.881026 12849 net.cpp:141] Setting up label_data_1_split
I0403 14:10:27.881048 12849 net.cpp:148] Top shape: 24 (24)
I0403 14:10:27.881065 12849 net.cpp:148] Top shape: 24 (24)
I0403 14:10:27.881080 12849 net.cpp:148] Top shape: 24 (24)
I0403 14:10:27.881095 12849 net.cpp:148] Top shape: 24 (24)
I0403 14:10:27.881110 12849 net.cpp:148] Top shape: 24 (24)
I0403 14:10:27.881125 12849 net.cpp:148] Top shape: 24 (24)
I0403 14:10:27.881140 12849 net.cpp:148] Top shape: 24 (24)
I0403 14:10:27.881155 12849 net.cpp:148] Top shape: 24 (24)
I0403 14:10:27.881170 12849 net.cpp:148] Top shape: 24 (24)
I0403 14:10:27.881186 12849 net.cpp:148] Top shape: 24 (24)
I0403 14:10:27.881237 12849 net.cpp:156] Memory required for data: 14451744
I0403 14:10:27.881254 12849 layer_factory.hpp:77] Creating layer conv1/7x7_s2
I0403 14:10:27.881285 12849 net.cpp:91] Creating Layer conv1/7x7_s2
I0403 14:10:27.881304 12849 net.cpp:425] conv1/7x7_s2 <- data
I0403 14:10:27.881324 12849 net.cpp:399] conv1/7x7_s2 -> conv1/7x7_s2
I0403 14:10:28.018999 12849 net.cpp:141] Setting up conv1/7x7_s2
I0403 14:10:28.019075 12849 net.cpp:148] Top shape: 24 64 112 112 (19267584)
I0403 14:10:28.019091 12849 net.cpp:156] Memory required for data: 91522080
I0403 14:10:28.019120 12849 layer_factory.hpp:77] Creating layer conv1/relu_7x7
I0403 14:10:28.019147 12849 net.cpp:91] Creating Layer conv1/relu_7x7
I0403 14:10:28.019165 12849 net.cpp:425] conv1/relu_7x7 <- conv1/7x7_s2
I0403 14:10:28.019183 12849 net.cpp:386] conv1/relu_7x7 -> conv1/7x7_s2 (in-place)
I0403 14:10:28.019446 12849 net.cpp:141] Setting up conv1/relu_7x7
I0403 14:10:28.019472 12849 net.cpp:148] Top shape: 24 64 112 112 (19267584)
I0403 14:10:28.019487 12849 net.cpp:156] Memory required for data: 168592416
I0403 14:10:28.019502 12849 layer_factory.hpp:77] Creating layer pool1/3x3_s2
I0403 14:10:28.019526 12849 net.cpp:91] Creating Layer pool1/3x3_s2
I0403 14:10:28.019546 12849 net.cpp:425] pool1/3x3_s2 <- conv1/7x7_s2
I0403 14:10:28.019565 12849 net.cpp:399] pool1/3x3_s2 -> pool1/3x3_s2
I0403 14:10:28.019649 12849 net.cpp:141] Setting up pool1/3x3_s2
I0403 14:10:28.019671 12849 net.cpp:148] Top shape: 24 64 56 56 (4816896)
I0403 14:10:28.019685 12849 net.cpp:156] Memory required for data: 187860000
I0403 14:10:28.019700 12849 layer_factory.hpp:77] Creating layer pool1/norm1
I0403 14:10:28.019721 12849 net.cpp:91] Creating Layer pool1/norm1
I0403 14:10:28.019737 12849 net.cpp:425] pool1/norm1 <- pool1/3x3_s2
I0403 14:10:28.019754 12849 net.cpp:399] pool1/norm1 -> pool1/norm1
I0403 14:10:28.020027 12849 net.cpp:141] Setting up pool1/norm1
I0403 14:10:28.020053 12849 net.cpp:148] Top shape: 24 64 56 56 (4816896)
I0403 14:10:28.020067 12849 net.cpp:156] Memory required for data: 207127584
I0403 14:10:28.020082 12849 layer_factory.hpp:77] Creating layer conv2/3x3_reduce
I0403 14:10:28.020104 12849 net.cpp:91] Creating Layer conv2/3x3_reduce
I0403 14:10:28.020120 12849 net.cpp:425] conv2/3x3_reduce <- pool1/norm1
I0403 14:10:28.020138 12849 net.cpp:399] conv2/3x3_reduce -> conv2/3x3_reduce
I0403 14:10:28.021443 12849 net.cpp:141] Setting up conv2/3x3_reduce
I0403 14:10:28.021471 12849 net.cpp:148] Top shape: 24 64 56 56 (4816896)
I0403 14:10:28.021486 12849 net.cpp:156] Memory required for data: 226395168
I0403 14:10:28.021507 12849 layer_factory.hpp:77] Creating layer conv2/relu_3x3_reduce
I0403 14:10:28.021524 12849 net.cpp:91] Creating Layer conv2/relu_3x3_reduce
I0403 14:10:28.021543 12849 net.cpp:425] conv2/relu_3x3_reduce <- conv2/3x3_reduce
I0403 14:10:28.021561 12849 net.cpp:386] conv2/relu_3x3_reduce -> conv2/3x3_reduce (in-place)
I0403 14:10:28.021806 12849 net.cpp:141] Setting up conv2/relu_3x3_reduce
I0403 14:10:28.021831 12849 net.cpp:148] Top shape: 24 64 56 56 (4816896)
I0403 14:10:28.021845 12849 net.cpp:156] Memory required for data: 245662752
I0403 14:10:28.021859 12849 layer_factory.hpp:77] Creating layer conv2/3x3
I0403 14:10:28.021880 12849 net.cpp:91] Creating Layer conv2/3x3
I0403 14:10:28.021895 12849 net.cpp:425] conv2/3x3 <- conv2/3x3_reduce
I0403 14:10:28.021914 12849 net.cpp:399] conv2/3x3 -> conv2/3x3
I0403 14:10:28.024161 12849 net.cpp:141] Setting up conv2/3x3
I0403 14:10:28.024193 12849 net.cpp:148] Top shape: 24 192 56 56 (14450688)
I0403 14:10:28.024209 12849 net.cpp:156] Memory required for data: 303465504
I0403 14:10:28.024230 12849 layer_factory.hpp:77] Creating layer conv2/relu_3x3
I0403 14:10:28.024247 12849 net.cpp:91] Creating Layer conv2/relu_3x3
I0403 14:10:28.024265 12849 net.cpp:425] conv2/relu_3x3 <- conv2/3x3
I0403 14:10:28.024282 12849 net.cpp:386] conv2/relu_3x3 -> conv2/3x3 (in-place)
I0403 14:10:28.024451 12849 net.cpp:141] Setting up conv2/relu_3x3
I0403 14:10:28.024476 12849 net.cpp:148] Top shape: 24 192 56 56 (14450688)
I0403 14:10:28.024516 12849 net.cpp:156] Memory required for data: 361268256
I0403 14:10:28.024531 12849 layer_factory.hpp:77] Creating layer conv2/norm2
I0403 14:10:28.024575 12849 net.cpp:91] Creating Layer conv2/norm2
I0403 14:10:28.024595 12849 net.cpp:425] conv2/norm2 <- conv2/3x3
I0403 14:10:28.024613 12849 net.cpp:399] conv2/norm2 -> conv2/norm2
I0403 14:10:28.024935 12849 net.cpp:141] Setting up conv2/norm2
I0403 14:10:28.024960 12849 net.cpp:148] Top shape: 24 192 56 56 (14450688)
I0403 14:10:28.024974 12849 net.cpp:156] Memory required for data: 419071008
I0403 14:10:28.024987 12849 layer_factory.hpp:77] Creating layer pool2/3x3_s2
I0403 14:10:28.025007 12849 net.cpp:91] Creating Layer pool2/3x3_s2
I0403 14:10:28.025022 12849 net.cpp:425] pool2/3x3_s2 <- conv2/norm2
I0403 14:10:28.025038 12849 net.cpp:399] pool2/3x3_s2 -> pool2/3x3_s2
I0403 14:10:28.025090 12849 net.cpp:141] Setting up pool2/3x3_s2
I0403 14:10:28.025111 12849 net.cpp:148] Top shape: 24 192 28 28 (3612672)
I0403 14:10:28.025125 12849 net.cpp:156] Memory required for data: 433521696
I0403 14:10:28.025138 12849 layer_factory.hpp:77] Creating layer pool2/3x3_s2_pool2/3x3_s2_0_split
I0403 14:10:28.025156 12849 net.cpp:91] Creating Layer pool2/3x3_s2_pool2/3x3_s2_0_split
I0403 14:10:28.025169 12849 net.cpp:425] pool2/3x3_s2_pool2/3x3_s2_0_split <- pool2/3x3_s2
I0403 14:10:28.025192 12849 net.cpp:399] pool2/3x3_s2_pool2/3x3_s2_0_split -> pool2/3x3_s2_pool2/3x3_s2_0_split_0
I0403 14:10:28.025212 12849 net.cpp:399] pool2/3x3_s2_pool2/3x3_s2_0_split -> pool2/3x3_s2_pool2/3x3_s2_0_split_1
I0403 14:10:28.025230 12849 net.cpp:399] pool2/3x3_s2_pool2/3x3_s2_0_split -> pool2/3x3_s2_pool2/3x3_s2_0_split_2
I0403 14:10:28.025249 12849 net.cpp:399] pool2/3x3_s2_pool2/3x3_s2_0_split -> pool2/3x3_s2_pool2/3x3_s2_0_split_3
I0403 14:10:28.025318 12849 net.cpp:141] Setting up pool2/3x3_s2_pool2/3x3_s2_0_split
I0403 14:10:28.025341 12849 net.cpp:148] Top shape: 24 192 28 28 (3612672)
I0403 14:10:28.025355 12849 net.cpp:148] Top shape: 24 192 28 28 (3612672)
I0403 14:10:28.025369 12849 net.cpp:148] Top shape: 24 192 28 28 (3612672)
I0403 14:10:28.025383 12849 net.cpp:148] Top shape: 24 192 28 28 (3612672)
I0403 14:10:28.025396 12849 net.cpp:156] Memory required for data: 491324448
I0403 14:10:28.025410 12849 layer_factory.hpp:77] Creating layer inception_3a/1x1
I0403 14:10:28.025430 12849 net.cpp:91] Creating Layer inception_3a/1x1
I0403 14:10:28.025446 12849 net.cpp:425] inception_3a/1x1 <- pool2/3x3_s2_pool2/3x3_s2_0_split_0
I0403 14:10:28.025466 12849 net.cpp:399] inception_3a/1x1 -> inception_3a/1x1
I0403 14:10:28.026983 12849 net.cpp:141] Setting up inception_3a/1x1
I0403 14:10:28.027014 12849 net.cpp:148] Top shape: 24 64 28 28 (1204224)
I0403 14:10:28.027029 12849 net.cpp:156] Memory required for data: 496141344
I0403 14:10:28.027047 12849 layer_factory.hpp:77] Creating layer inception_3a/relu_1x1
I0403 14:10:28.027065 12849 net.cpp:91] Creating Layer inception_3a/relu_1x1
I0403 14:10:28.027081 12849 net.cpp:425] inception_3a/relu_1x1 <- inception_3a/1x1
I0403 14:10:28.027096 12849 net.cpp:386] inception_3a/relu_1x1 -> inception_3a/1x1 (in-place)
I0403 14:10:28.027266 12849 net.cpp:141] Setting up inception_3a/relu_1x1
I0403 14:10:28.027292 12849 net.cpp:148] Top shape: 24 64 28 28 (1204224)
I0403 14:10:28.027307 12849 net.cpp:156] Memory required for data: 500958240
I0403 14:10:28.027320 12849 layer_factory.hpp:77] Creating layer inception_3a/3x3_reduce
I0403 14:10:28.027340 12849 net.cpp:91] Creating Layer inception_3a/3x3_reduce
I0403 14:10:28.027357 12849 net.cpp:425] inception_3a/3x3_reduce <- pool2/3x3_s2_pool2/3x3_s2_0_split_1
I0403 14:10:28.027376 12849 net.cpp:399] inception_3a/3x3_reduce -> inception_3a/3x3_reduce
I0403 14:10:28.029060 12849 net.cpp:141] Setting up inception_3a/3x3_reduce
I0403 14:10:28.029089 12849 net.cpp:148] Top shape: 24 96 28 28 (1806336)
I0403 14:10:28.029104 12849 net.cpp:156] Memory required for data: 508183584
I0403 14:10:28.029127 12849 layer_factory.hpp:77] Creating layer inception_3a/relu_3x3_reduce
I0403 14:10:28.029161 12849 net.cpp:91] Creating Layer inception_3a/relu_3x3_reduce
I0403 14:10:28.029177 12849 net.cpp:425] inception_3a/relu_3x3_reduce <- inception_3a/3x3_reduce
I0403 14:10:28.029196 12849 net.cpp:386] inception_3a/relu_3x3_reduce -> inception_3a/3x3_reduce (in-place)
I0403 14:10:28.029368 12849 net.cpp:141] Setting up inception_3a/relu_3x3_reduce
I0403 14:10:28.029392 12849 net.cpp:148] Top shape: 24 96 28 28 (1806336)
I0403 14:10:28.029407 12849 net.cpp:156] Memory required for data: 515408928
I0403 14:10:28.029419 12849 layer_factory.hpp:77] Creating layer inception_3a/3x3
I0403 14:10:28.029440 12849 net.cpp:91] Creating Layer inception_3a/3x3
I0403 14:10:28.029458 12849 net.cpp:425] inception_3a/3x3 <- inception_3a/3x3_reduce
I0403 14:10:28.029476 12849 net.cpp:399] inception_3a/3x3 -> inception_3a/3x3
I0403 14:10:28.031097 12849 net.cpp:141] Setting up inception_3a/3x3
I0403 14:10:28.031126 12849 net.cpp:148] Top shape: 24 128 28 28 (2408448)
I0403 14:10:28.031142 12849 net.cpp:156] Memory required for data: 525042720
I0403 14:10:28.031159 12849 layer_factory.hpp:77] Creating layer inception_3a/relu_3x3
I0403 14:10:28.031177 12849 net.cpp:91] Creating Layer inception_3a/relu_3x3
I0403 14:10:28.031191 12849 net.cpp:425] inception_3a/relu_3x3 <- inception_3a/3x3
I0403 14:10:28.031209 12849 net.cpp:386] inception_3a/relu_3x3 -> inception_3a/3x3 (in-place)
I0403 14:10:28.031487 12849 net.cpp:141] Setting up inception_3a/relu_3x3
I0403 14:10:28.031515 12849 net.cpp:148] Top shape: 24 128 28 28 (2408448)
I0403 14:10:28.031530 12849 net.cpp:156] Memory required for data: 534676512
I0403 14:10:28.031548 12849 layer_factory.hpp:77] Creating layer inception_3a/5x5_reduce
I0403 14:10:28.031570 12849 net.cpp:91] Creating Layer inception_3a/5x5_reduce
I0403 14:10:28.031595 12849 net.cpp:425] inception_3a/5x5_reduce <- pool2/3x3_s2_pool2/3x3_s2_0_split_2
I0403 14:10:28.031616 12849 net.cpp:399] inception_3a/5x5_reduce -> inception_3a/5x5_reduce
I0403 14:10:28.032557 12849 net.cpp:141] Setting up inception_3a/5x5_reduce
I0403 14:10:28.032583 12849 net.cpp:148] Top shape: 24 16 28 28 (301056)
I0403 14:10:28.032598 12849 net.cpp:156] Memory required for data: 535880736
I0403 14:10:28.032615 12849 layer_factory.hpp:77] Creating layer inception_3a/relu_5x5_reduce
I0403 14:10:28.032632 12849 net.cpp:91] Creating Layer inception_3a/relu_5x5_reduce
I0403 14:10:28.032647 12849 net.cpp:425] inception_3a/relu_5x5_reduce <- inception_3a/5x5_reduce
I0403 14:10:28.032665 12849 net.cpp:386] inception_3a/relu_5x5_reduce -> inception_3a/5x5_reduce (in-place)
I0403 14:10:28.032950 12849 net.cpp:141] Setting up inception_3a/relu_5x5_reduce
I0403 14:10:28.032989 12849 net.cpp:148] Top shape: 24 16 28 28 (301056)
I0403 14:10:28.033004 12849 net.cpp:156] Memory required for data: 537084960
I0403 14:10:28.033017 12849 layer_factory.hpp:77] Creating layer inception_3a/5x5
I0403 14:10:28.033040 12849 net.cpp:91] Creating Layer inception_3a/5x5
I0403 14:10:28.033056 12849 net.cpp:425] inception_3a/5x5 <- inception_3a/5x5_reduce
I0403 14:10:28.033077 12849 net.cpp:399] inception_3a/5x5 -> inception_3a/5x5
I0403 14:10:28.034070 12849 net.cpp:141] Setting up inception_3a/5x5
I0403 14:10:28.034102 12849 net.cpp:148] Top shape: 24 32 28 28 (602112)
I0403 14:10:28.034119 12849 net.cpp:156] Memory required for data: 539493408
I0403 14:10:28.034137 12849 layer_factory.hpp:77] Creating layer inception_3a/relu_5x5
I0403 14:10:28.034153 12849 net.cpp:91] Creating Layer inception_3a/relu_5x5
I0403 14:10:28.034168 12849 net.cpp:425] inception_3a/relu_5x5 <- inception_3a/5x5
I0403 14:10:28.034184 12849 net.cpp:386] inception_3a/relu_5x5 -> inception_3a/5x5 (in-place)
I0403 14:10:28.034358 12849 net.cpp:141] Setting up inception_3a/relu_5x5
I0403 14:10:28.034381 12849 net.cpp:148] Top shape: 24 32 28 28 (602112)
I0403 14:10:28.034395 12849 net.cpp:156] Memory required for data: 541901856
I0403 14:10:28.034409 12849 layer_factory.hpp:77] Creating layer inception_3a/pool
I0403 14:10:28.034426 12849 net.cpp:91] Creating Layer inception_3a/pool
I0403 14:10:28.034454 12849 net.cpp:425] inception_3a/pool <- pool2/3x3_s2_pool2/3x3_s2_0_split_3
I0403 14:10:28.034474 12849 net.cpp:399] inception_3a/pool -> inception_3a/pool
I0403 14:10:28.034530 12849 net.cpp:141] Setting up inception_3a/pool
I0403 14:10:28.034565 12849 net.cpp:148] Top shape: 24 192 28 28 (3612672)
I0403 14:10:28.034580 12849 net.cpp:156] Memory required for data: 556352544
I0403 14:10:28.034600 12849 layer_factory.hpp:77] Creating layer inception_3a/pool_proj
I0403 14:10:28.034621 12849 net.cpp:91] Creating Layer inception_3a/pool_proj
I0403 14:10:28.034649 12849 net.cpp:425] inception_3a/pool_proj <- inception_3a/pool
I0403 14:10:28.034667 12849 net.cpp:399] inception_3a/pool_proj -> inception_3a/pool_proj
I0403 14:10:28.035611 12849 net.cpp:141] Setting up inception_3a/pool_proj
I0403 14:10:28.035639 12849 net.cpp:148] Top shape: 24 32 28 28 (602112)
I0403 14:10:28.035653 12849 net.cpp:156] Memory required for data: 558760992
I0403 14:10:28.035676 12849 layer_factory.hpp:77] Creating layer inception_3a/relu_pool_proj
I0403 14:10:28.035696 12849 net.cpp:91] Creating Layer inception_3a/relu_pool_proj
I0403 14:10:28.035711 12849 net.cpp:425] inception_3a/relu_pool_proj <- inception_3a/pool_proj
I0403 14:10:28.035728 12849 net.cpp:386] inception_3a/relu_pool_proj -> inception_3a/pool_proj (in-place)
I0403 14:10:28.035991 12849 net.cpp:141] Setting up inception_3a/relu_pool_proj
I0403 14:10:28.036020 12849 net.cpp:148] Top shape: 24 32 28 28 (602112)
I0403 14:10:28.036034 12849 net.cpp:156] Memory required for data: 561169440
I0403 14:10:28.036048 12849 layer_factory.hpp:77] Creating layer inception_3a/output
I0403 14:10:28.036064 12849 net.cpp:91] Creating Layer inception_3a/output
I0403 14:10:28.036079 12849 net.cpp:425] inception_3a/output <- inception_3a/1x1
I0403 14:10:28.036094 12849 net.cpp:425] inception_3a/output <- inception_3a/3x3
I0403 14:10:28.036109 12849 net.cpp:425] inception_3a/output <- inception_3a/5x5
I0403 14:10:28.036123 12849 net.cpp:425] inception_3a/output <- inception_3a/pool_proj
I0403 14:10:28.036139 12849 net.cpp:399] inception_3a/output -> inception_3a/output
I0403 14:10:28.036185 12849 net.cpp:141] Setting up inception_3a/output
I0403 14:10:28.036207 12849 net.cpp:148] Top shape: 24 256 28 28 (4816896)
I0403 14:10:28.036221 12849 net.cpp:156] Memory required for data: 580437024
I0403 14:10:28.036234 12849 layer_factory.hpp:77] Creating layer inception_3a/output_inception_3a/output_0_split
I0403 14:10:28.036252 12849 net.cpp:91] Creating Layer inception_3a/output_inception_3a/output_0_split
I0403 14:10:28.036268 12849 net.cpp:425] inception_3a/output_inception_3a/output_0_split <- inception_3a/output
I0403 14:10:28.036285 12849 net.cpp:399] inception_3a/output_inception_3a/output_0_split -> inception_3a/output_inception_3a/output_0_split_0
I0403 14:10:28.036315 12849 net.cpp:399] inception_3a/output_inception_3a/output_0_split -> inception_3a/output_inception_3a/output_0_split_1
I0403 14:10:28.036342 12849 net.cpp:399] inception_3a/output_inception_3a/output_0_split -> inception_3a/output_inception_3a/output_0_split_2
I0403 14:10:28.036365 12849 net.cpp:399] inception_3a/output_inception_3a/output_0_split -> inception_3a/output_inception_3a/output_0_split_3
I0403 14:10:28.036442 12849 net.cpp:141] Setting up inception_3a/output_inception_3a/output_0_split
I0403 14:10:28.036464 12849 net.cpp:148] Top shape: 24 256 28 28 (4816896)
I0403 14:10:28.036480 12849 net.cpp:148] Top shape: 24 256 28 28 (4816896)
I0403 14:10:28.036495 12849 net.cpp:148] Top shape: 24 256 28 28 (4816896)
I0403 14:10:28.036510 12849 net.cpp:148] Top shape: 24 256 28 28 (4816896)
I0403 14:10:28.036525 12849 net.cpp:156] Memory required for data: 657507360
I0403 14:10:28.036541 12849 layer_factory.hpp:77] Creating layer inception_3b/1x1
I0403 14:10:28.036566 12849 net.cpp:91] Creating Layer inception_3b/1x1
I0403 14:10:28.036583 12849 net.cpp:425] inception_3b/1x1 <- inception_3a/output_inception_3a/output_0_split_0
I0403 14:10:28.036602 12849 net.cpp:399] inception_3b/1x1 -> inception_3b/1x1
I0403 14:10:28.037708 12849 net.cpp:141] Setting up inception_3b/1x1
I0403 14:10:28.037745 12849 net.cpp:148] Top shape: 24 128 28 28 (2408448)
I0403 14:10:28.037761 12849 net.cpp:156] Memory required for data: 667141152
I0403 14:10:28.037778 12849 layer_factory.hpp:77] Creating layer inception_3b/relu_1x1
I0403 14:10:28.037798 12849 net.cpp:91] Creating Layer inception_3b/relu_1x1
I0403 14:10:28.037814 12849 net.cpp:425] inception_3b/relu_1x1 <- inception_3b/1x1
I0403 14:10:28.037830 12849 net.cpp:386] inception_3b/relu_1x1 -> inception_3b/1x1 (in-place)
I0403 14:10:28.037997 12849 net.cpp:141] Setting up inception_3b/relu_1x1
I0403 14:10:28.038020 12849 net.cpp:148] Top shape: 24 128 28 28 (2408448)
I0403 14:10:28.038035 12849 net.cpp:156] Memory required for data: 676774944
I0403 14:10:28.038048 12849 layer_factory.hpp:77] Creating layer inception_3b/3x3_reduce
I0403 14:10:28.038070 12849 net.cpp:91] Creating Layer inception_3b/3x3_reduce
I0403 14:10:28.038100 12849 net.cpp:425] inception_3b/3x3_reduce <- inception_3a/output_inception_3a/output_0_split_1
I0403 14:10:28.038121 12849 net.cpp:399] inception_3b/3x3_reduce -> inception_3b/3x3_reduce
I0403 14:10:28.039243 12849 net.cpp:141] Setting up inception_3b/3x3_reduce
I0403 14:10:28.039271 12849 net.cpp:148] Top shape: 24 128 28 28 (2408448)
I0403 14:10:28.039286 12849 net.cpp:156] Memory required for data: 686408736
I0403 14:10:28.039304 12849 layer_factory.hpp:77] Creating layer inception_3b/relu_3x3_reduce
I0403 14:10:28.039325 12849 net.cpp:91] Creating Layer inception_3b/relu_3x3_reduce
I0403 14:10:28.039340 12849 net.cpp:425] inception_3b/relu_3x3_reduce <- inception_3b/3x3_reduce
I0403 14:10:28.039356 12849 net.cpp:386] inception_3b/relu_3x3_reduce -> inception_3b/3x3_reduce (in-place)
I0403 14:10:28.039520 12849 net.cpp:141] Setting up inception_3b/relu_3x3_reduce
I0403 14:10:28.039551 12849 net.cpp:148] Top shape: 24 128 28 28 (2408448)
I0403 14:10:28.039566 12849 net.cpp:156] Memory required for data: 696042528
I0403 14:10:28.039579 12849 layer_factory.hpp:77] Creating layer inception_3b/3x3
I0403 14:10:28.039602 12849 net.cpp:91] Creating Layer inception_3b/3x3
I0403 14:10:28.039620 12849 net.cpp:425] inception_3b/3x3 <- inception_3b/3x3_reduce
I0403 14:10:28.039640 12849 net.cpp:399] inception_3b/3x3 -> inception_3b/3x3
I0403 14:10:28.042523 12849 net.cpp:141] Setting up inception_3b/3x3
I0403 14:10:28.042557 12849 net.cpp:148] Top shape: 24 192 28 28 (3612672)
I0403 14:10:28.042572 12849 net.cpp:156] Memory required for data: 710493216
I0403 14:10:28.042590 12849 layer_factory.hpp:77] Creating layer inception_3b/relu_3x3
I0403 14:10:28.042608 12849 net.cpp:91] Creating Layer inception_3b/relu_3x3
I0403 14:10:28.042623 12849 net.cpp:425] inception_3b/relu_3x3 <- inception_3b/3x3
I0403 14:10:28.042641 12849 net.cpp:386] inception_3b/relu_3x3 -> inception_3b/3x3 (in-place)
I0403 14:10:28.042906 12849 net.cpp:141] Setting up inception_3b/relu_3x3
I0403 14:10:28.042934 12849 net.cpp:148] Top shape: 24 192 28 28 (3612672)
I0403 14:10:28.042949 12849 net.cpp:156] Memory required for data: 724943904
I0403 14:10:28.042963 12849 layer_factory.hpp:77] Creating layer inception_3b/5x5_reduce
I0403 14:10:28.042984 12849 net.cpp:91] Creating Layer inception_3b/5x5_reduce
I0403 14:10:28.043001 12849 net.cpp:425] inception_3b/5x5_reduce <- inception_3a/output_inception_3a/output_0_split_2
I0403 14:10:28.043022 12849 net.cpp:399] inception_3b/5x5_reduce -> inception_3b/5x5_reduce
I0403 14:10:28.044044 12849 net.cpp:141] Setting up inception_3b/5x5_reduce
I0403 14:10:28.044073 12849 net.cpp:148] Top shape: 24 32 28 28 (602112)
I0403 14:10:28.044090 12849 net.cpp:156] Memory required for data: 727352352
I0403 14:10:28.044106 12849 layer_factory.hpp:77] Creating layer inception_3b/relu_5x5_reduce
I0403 14:10:28.044124 12849 net.cpp:91] Creating Layer inception_3b/relu_5x5_reduce
I0403 14:10:28.044140 12849 net.cpp:425] inception_3b/relu_5x5_reduce <- inception_3b/5x5_reduce
I0403 14:10:28.044157 12849 net.cpp:386] inception_3b/relu_5x5_reduce -> inception_3b/5x5_reduce (in-place)
I0403 14:10:28.044349 12849 net.cpp:141] Setting up inception_3b/relu_5x5_reduce
I0403 14:10:28.044373 12849 net.cpp:148] Top shape: 24 32 28 28 (602112)
I0403 14:10:28.044389 12849 net.cpp:156] Memory required for data: 729760800
I0403 14:10:28.044402 12849 layer_factory.hpp:77] Creating layer inception_3b/5x5
I0403 14:10:28.044425 12849 net.cpp:91] Creating Layer inception_3b/5x5
I0403 14:10:28.044441 12849 net.cpp:425] inception_3b/5x5 <- inception_3b/5x5_reduce
I0403 14:10:28.044461 12849 net.cpp:399] inception_3b/5x5 -> inception_3b/5x5
I0403 14:10:28.046403 12849 net.cpp:141] Setting up inception_3b/5x5
I0403 14:10:28.046432 12849 net.cpp:148] Top shape: 24 96 28 28 (1806336)
I0403 14:10:28.046447 12849 net.cpp:156] Memory required for data: 736986144
I0403 14:10:28.046464 12849 layer_factory.hpp:77] Creating layer inception_3b/relu_5x5
I0403 14:10:28.046483 12849 net.cpp:91] Creating Layer inception_3b/relu_5x5
I0403 14:10:28.046500 12849 net.cpp:425] inception_3b/relu_5x5 <- inception_3b/5x5
I0403 14:10:28.046516 12849 net.cpp:386] inception_3b/relu_5x5 -> inception_3b/5x5 (in-place)
I0403 14:10:28.046717 12849 net.cpp:141] Setting up inception_3b/relu_5x5
I0403 14:10:28.046741 12849 net.cpp:148] Top shape: 24 96 28 28 (1806336)
I0403 14:10:28.046756 12849 net.cpp:156] Memory required for data: 744211488
I0403 14:10:28.046772 12849 layer_factory.hpp:77] Creating layer inception_3b/pool
I0403 14:10:28.046789 12849 net.cpp:91] Creating Layer inception_3b/pool
I0403 14:10:28.046804 12849 net.cpp:425] inception_3b/pool <- inception_3a/output_inception_3a/output_0_split_3
I0403 14:10:28.046821 12849 net.cpp:399] inception_3b/pool -> inception_3b/pool
I0403 14:10:28.046876 12849 net.cpp:141] Setting up inception_3b/pool
I0403 14:10:28.046900 12849 net.cpp:148] Top shape: 24 256 28 28 (4816896)
I0403 14:10:28.046913 12849 net.cpp:156] Memory required for data: 763479072
I0403 14:10:28.046926 12849 layer_factory.hpp:77] Creating layer inception_3b/pool_proj
I0403 14:10:28.046950 12849 net.cpp:91] Creating Layer inception_3b/pool_proj
I0403 14:10:28.046967 12849 net.cpp:425] inception_3b/pool_proj <- inception_3b/pool
I0403 14:10:28.046999 12849 net.cpp:399] inception_3b/pool_proj -> inception_3b/pool_proj
I0403 14:10:28.048056 12849 net.cpp:141] Setting up inception_3b/pool_proj
I0403 14:10:28.048084 12849 net.cpp:148] Top shape: 24 64 28 28 (1204224)
I0403 14:10:28.048099 12849 net.cpp:156] Memory required for data: 768295968
I0403 14:10:28.048116 12849 layer_factory.hpp:77] Creating layer inception_3b/relu_pool_proj
I0403 14:10:28.048136 12849 net.cpp:91] Creating Layer inception_3b/relu_pool_proj
I0403 14:10:28.048152 12849 net.cpp:425] inception_3b/relu_pool_proj <- inception_3b/pool_proj
I0403 14:10:28.048169 12849 net.cpp:386] inception_3b/relu_pool_proj -> inception_3b/pool_proj (in-place)
I0403 14:10:28.048574 12849 net.cpp:141] Setting up inception_3b/relu_pool_proj
I0403 14:10:28.048600 12849 net.cpp:148] Top shape: 24 64 28 28 (1204224)
I0403 14:10:28.048616 12849 net.cpp:156] Memory required for data: 773112864
I0403 14:10:28.048630 12849 layer_factory.hpp:77] Creating layer inception_3b/output
I0403 14:10:28.048647 12849 net.cpp:91] Creating Layer inception_3b/output
I0403 14:10:28.048662 12849 net.cpp:425] inception_3b/output <- inception_3b/1x1
I0403 14:10:28.048678 12849 net.cpp:425] inception_3b/output <- inception_3b/3x3
I0403 14:10:28.048694 12849 net.cpp:425] inception_3b/output <- inception_3b/5x5
I0403 14:10:28.048709 12849 net.cpp:425] inception_3b/output <- inception_3b/pool_proj
I0403 14:10:28.048728 12849 net.cpp:399] inception_3b/output -> inception_3b/output
I0403 14:10:28.048773 12849 net.cpp:141] Setting up inception_3b/output
I0403 14:10:28.048797 12849 net.cpp:148] Top shape: 24 480 28 28 (9031680)
I0403 14:10:28.048812 12849 net.cpp:156] Memory required for data: 809239584
I0403 14:10:28.048826 12849 layer_factory.hpp:77] Creating layer pool3/3x3_s2
I0403 14:10:28.048843 12849 net.cpp:91] Creating Layer pool3/3x3_s2
I0403 14:10:28.048858 12849 net.cpp:425] pool3/3x3_s2 <- inception_3b/output
I0403 14:10:28.048892 12849 net.cpp:399] pool3/3x3_s2 -> pool3/3x3_s2
I0403 14:10:28.048951 12849 net.cpp:141] Setting up pool3/3x3_s2
I0403 14:10:28.048974 12849 net.cpp:148] Top shape: 24 480 14 14 (2257920)
I0403 14:10:28.048988 12849 net.cpp:156] Memory required for data: 818271264
I0403 14:10:28.049002 12849 layer_factory.hpp:77] Creating layer pool3/3x3_s2_pool3/3x3_s2_0_split
I0403 14:10:28.049018 12849 net.cpp:91] Creating Layer pool3/3x3_s2_pool3/3x3_s2_0_split
I0403 14:10:28.049032 12849 net.cpp:425] pool3/3x3_s2_pool3/3x3_s2_0_split <- pool3/3x3_s2
I0403 14:10:28.049052 12849 net.cpp:399] pool3/3x3_s2_pool3/3x3_s2_0_split -> pool3/3x3_s2_pool3/3x3_s2_0_split_0
I0403 14:10:28.049070 12849 net.cpp:399] pool3/3x3_s2_pool3/3x3_s2_0_split -> pool3/3x3_s2_pool3/3x3_s2_0_split_1
I0403 14:10:28.049090 12849 net.cpp:399] pool3/3x3_s2_pool3/3x3_s2_0_split -> pool3/3x3_s2_pool3/3x3_s2_0_split_2
I0403 14:10:28.049111 12849 net.cpp:399] pool3/3x3_s2_pool3/3x3_s2_0_split -> pool3/3x3_s2_pool3/3x3_s2_0_split_3
I0403 14:10:28.049188 12849 net.cpp:141] Setting up pool3/3x3_s2_pool3/3x3_s2_0_split
I0403 14:10:28.049211 12849 net.cpp:148] Top shape: 24 480 14 14 (2257920)
I0403 14:10:28.049227 12849 net.cpp:148] Top shape: 24 480 14 14 (2257920)
I0403 14:10:28.049242 12849 net.cpp:148] Top shape: 24 480 14 14 (2257920)
I0403 14:10:28.049257 12849 net.cpp:148] Top shape: 24 480 14 14 (2257920)
I0403 14:10:28.049270 12849 net.cpp:156] Memory required for data: 854397984
I0403 14:10:28.049283 12849 layer_factory.hpp:77] Creating layer inception_4a/1x1
I0403 14:10:28.049305 12849 net.cpp:91] Creating Layer inception_4a/1x1
I0403 14:10:28.049322 12849 net.cpp:425] inception_4a/1x1 <- pool3/3x3_s2_pool3/3x3_s2_0_split_0
I0403 14:10:28.049343 12849 net.cpp:399] inception_4a/1x1 -> inception_4a/1x1
I0403 14:10:28.050904 12849 net.cpp:141] Setting up inception_4a/1x1
I0403 14:10:28.050930 12849 net.cpp:148] Top shape: 24 192 14 14 (903168)
I0403 14:10:28.050946 12849 net.cpp:156] Memory required for data: 858010656
I0403 14:10:28.050964 12849 layer_factory.hpp:77] Creating layer inception_4a/relu_1x1
I0403 14:10:28.050984 12849 net.cpp:91] Creating Layer inception_4a/relu_1x1
I0403 14:10:28.051000 12849 net.cpp:425] inception_4a/relu_1x1 <- inception_4a/1x1
I0403 14:10:28.051017 12849 net.cpp:386] inception_4a/relu_1x1 -> inception_4a/1x1 (in-place)
I0403 14:10:28.051192 12849 net.cpp:141] Setting up inception_4a/relu_1x1
I0403 14:10:28.051216 12849 net.cpp:148] Top shape: 24 192 14 14 (903168)
I0403 14:10:28.051230 12849 net.cpp:156] Memory required for data: 861623328
I0403 14:10:28.051244 12849 layer_factory.hpp:77] Creating layer inception_4a/3x3_reduce
I0403 14:10:28.051270 12849 net.cpp:91] Creating Layer inception_4a/3x3_reduce
I0403 14:10:28.051286 12849 net.cpp:425] inception_4a/3x3_reduce <- pool3/3x3_s2_pool3/3x3_s2_0_split_1
I0403 14:10:28.051306 12849 net.cpp:399] inception_4a/3x3_reduce -> inception_4a/3x3_reduce
I0403 14:10:28.052582 12849 net.cpp:141] Setting up inception_4a/3x3_reduce
I0403 14:10:28.052608 12849 net.cpp:148] Top shape: 24 96 14 14 (451584)
I0403 14:10:28.052624 12849 net.cpp:156] Memory required for data: 863429664
I0403 14:10:28.052649 12849 layer_factory.hpp:77] Creating layer inception_4a/relu_3x3_reduce
I0403 14:10:28.052669 12849 net.cpp:91] Creating Layer inception_4a/relu_3x3_reduce
I0403 14:10:28.052685 12849 net.cpp:425] inception_4a/relu_3x3_reduce <- inception_4a/3x3_reduce
I0403 14:10:28.052703 12849 net.cpp:386] inception_4a/relu_3x3_reduce -> inception_4a/3x3_reduce (in-place)
I0403 14:10:28.052880 12849 net.cpp:141] Setting up inception_4a/relu_3x3_reduce
I0403 14:10:28.052903 12849 net.cpp:148] Top shape: 24 96 14 14 (451584)
I0403 14:10:28.052917 12849 net.cpp:156] Memory required for data: 865236000
I0403 14:10:28.052932 12849 layer_factory.hpp:77] Creating layer inception_4a/3x3
I0403 14:10:28.052953 12849 net.cpp:91] Creating Layer inception_4a/3x3
I0403 14:10:28.052971 12849 net.cpp:425] inception_4a/3x3 <- inception_4a/3x3_reduce
I0403 14:10:28.052990 12849 net.cpp:399] inception_4a/3x3 -> inception_4a/3x3
I0403 14:10:28.055665 12849 net.cpp:141] Setting up inception_4a/3x3
I0403 14:10:28.055693 12849 net.cpp:148] Top shape: 24 208 14 14 (978432)
I0403 14:10:28.055712 12849 net.cpp:156] Memory required for data: 869149728
I0403 14:10:28.055730 12849 layer_factory.hpp:77] Creating layer inception_4a/relu_3x3
I0403 14:10:28.055748 12849 net.cpp:91] Creating Layer inception_4a/relu_3x3
I0403 14:10:28.055764 12849 net.cpp:425] inception_4a/relu_3x3 <- inception_4a/3x3
I0403 14:10:28.055780 12849 net.cpp:386] inception_4a/relu_3x3 -> inception_4a/3x3 (in-place)
I0403 14:10:28.056056 12849 net.cpp:141] Setting up inception_4a/relu_3x3
I0403 14:10:28.056084 12849 net.cpp:148] Top shape: 24 208 14 14 (978432)
I0403 14:10:28.056100 12849 net.cpp:156] Memory required for data: 873063456
I0403 14:10:28.056114 12849 layer_factory.hpp:77] Creating layer inception_4a/5x5_reduce
I0403 14:10:28.056134 12849 net.cpp:91] Creating Layer inception_4a/5x5_reduce
I0403 14:10:28.056150 12849 net.cpp:425] inception_4a/5x5_reduce <- pool3/3x3_s2_pool3/3x3_s2_0_split_2
I0403 14:10:28.056171 12849 net.cpp:399] inception_4a/5x5_reduce -> inception_4a/5x5_reduce
I0403 14:10:28.057193 12849 net.cpp:141] Setting up inception_4a/5x5_reduce
I0403 14:10:28.057222 12849 net.cpp:148] Top shape: 24 16 14 14 (75264)
I0403 14:10:28.057240 12849 net.cpp:156] Memory required for data: 873364512
I0403 14:10:28.057256 12849 layer_factory.hpp:77] Creating layer inception_4a/relu_5x5_reduce
I0403 14:10:28.057274 12849 net.cpp:91] Creating Layer inception_4a/relu_5x5_reduce
I0403 14:10:28.057291 12849 net.cpp:425] inception_4a/relu_5x5_reduce <- inception_4a/5x5_reduce
I0403 14:10:28.057307 12849 net.cpp:386] inception_4a/relu_5x5_reduce -> inception_4a/5x5_reduce (in-place)
I0403 14:10:28.057483 12849 net.cpp:141] Setting up inception_4a/relu_5x5_reduce
I0403 14:10:28.057507 12849 net.cpp:148] Top shape: 24 16 14 14 (75264)
I0403 14:10:28.057521 12849 net.cpp:156] Memory required for data: 873665568
I0403 14:10:28.057538 12849 layer_factory.hpp:77] Creating layer inception_4a/5x5
I0403 14:10:28.057562 12849 net.cpp:91] Creating Layer inception_4a/5x5
I0403 14:10:28.057580 12849 net.cpp:425] inception_4a/5x5 <- inception_4a/5x5_reduce
I0403 14:10:28.057600 12849 net.cpp:399] inception_4a/5x5 -> inception_4a/5x5
I0403 14:10:28.058684 12849 net.cpp:141] Setting up inception_4a/5x5
I0403 14:10:28.058712 12849 net.cpp:148] Top shape: 24 48 14 14 (225792)
I0403 14:10:28.058727 12849 net.cpp:156] Memory required for data: 874568736
I0403 14:10:28.058744 12849 layer_factory.hpp:77] Creating layer inception_4a/relu_5x5
I0403 14:10:28.058761 12849 net.cpp:91] Creating Layer inception_4a/relu_5x5
I0403 14:10:28.058778 12849 net.cpp:425] inception_4a/relu_5x5 <- inception_4a/5x5
I0403 14:10:28.058796 12849 net.cpp:386] inception_4a/relu_5x5 -> inception_4a/5x5 (in-place)
I0403 14:10:28.058974 12849 net.cpp:141] Setting up inception_4a/relu_5x5
I0403 14:10:28.058998 12849 net.cpp:148] Top shape: 24 48 14 14 (225792)
I0403 14:10:28.059012 12849 net.cpp:156] Memory required for data: 875471904
I0403 14:10:28.059026 12849 layer_factory.hpp:77] Creating layer inception_4a/pool
I0403 14:10:28.059046 12849 net.cpp:91] Creating Layer inception_4a/pool
I0403 14:10:28.059062 12849 net.cpp:425] inception_4a/pool <- pool3/3x3_s2_pool3/3x3_s2_0_split_3
I0403 14:10:28.059078 12849 net.cpp:399] inception_4a/pool -> inception_4a/pool
I0403 14:10:28.059141 12849 net.cpp:141] Setting up inception_4a/pool
I0403 14:10:28.059165 12849 net.cpp:148] Top shape: 24 480 14 14 (2257920)
I0403 14:10:28.059180 12849 net.cpp:156] Memory required for data: 884503584
I0403 14:10:28.059193 12849 layer_factory.hpp:77] Creating layer inception_4a/pool_proj
I0403 14:10:28.059214 12849 net.cpp:91] Creating Layer inception_4a/pool_proj
I0403 14:10:28.059232 12849 net.cpp:425] inception_4a/pool_proj <- inception_4a/pool
I0403 14:10:28.059252 12849 net.cpp:399] inception_4a/pool_proj -> inception_4a/pool_proj
I0403 14:10:28.060540 12849 net.cpp:141] Setting up inception_4a/pool_proj
I0403 14:10:28.060569 12849 net.cpp:148] Top shape: 24 64 14 14 (301056)
I0403 14:10:28.060598 12849 net.cpp:156] Memory required for data: 885707808
I0403 14:10:28.060618 12849 layer_factory.hpp:77] Creating layer inception_4a/relu_pool_proj
I0403 14:10:28.060638 12849 net.cpp:91] Creating Layer inception_4a/relu_pool_proj
I0403 14:10:28.060655 12849 net.cpp:425] inception_4a/relu_pool_proj <- inception_4a/pool_proj
I0403 14:10:28.060672 12849 net.cpp:386] inception_4a/relu_pool_proj -> inception_4a/pool_proj (in-place)
I0403 14:10:28.060953 12849 net.cpp:141] Setting up inception_4a/relu_pool_proj
I0403 14:10:28.060978 12849 net.cpp:148] Top shape: 24 64 14 14 (301056)
I0403 14:10:28.060993 12849 net.cpp:156] Memory required for data: 886912032
I0403 14:10:28.061008 12849 layer_factory.hpp:77] Creating layer inception_4a/output
I0403 14:10:28.061025 12849 net.cpp:91] Creating Layer inception_4a/output
I0403 14:10:28.061040 12849 net.cpp:425] inception_4a/output <- inception_4a/1x1
I0403 14:10:28.061056 12849 net.cpp:425] inception_4a/output <- inception_4a/3x3
I0403 14:10:28.061071 12849 net.cpp:425] inception_4a/output <- inception_4a/5x5
I0403 14:10:28.061087 12849 net.cpp:425] inception_4a/output <- inception_4a/pool_proj
I0403 14:10:28.061105 12849 net.cpp:399] inception_4a/output -> inception_4a/output
I0403 14:10:28.061152 12849 net.cpp:141] Setting up inception_4a/output
I0403 14:10:28.061174 12849 net.cpp:148] Top shape: 24 512 14 14 (2408448)
I0403 14:10:28.061189 12849 net.cpp:156] Memory required for data: 896545824
I0403 14:10:28.061203 12849 layer_factory.hpp:77] Creating layer inception_4a/output_inception_4a/output_0_split
I0403 14:10:28.061219 12849 net.cpp:91] Creating Layer inception_4a/output_inception_4a/output_0_split
I0403 14:10:28.061234 12849 net.cpp:425] inception_4a/output_inception_4a/output_0_split <- inception_4a/output
I0403 14:10:28.061254 12849 net.cpp:399] inception_4a/output_inception_4a/output_0_split -> inception_4a/output_inception_4a/output_0_split_0
I0403 14:10:28.061275 12849 net.cpp:399] inception_4a/output_inception_4a/output_0_split -> inception_4a/output_inception_4a/output_0_split_1
I0403 14:10:28.061295 12849 net.cpp:399] inception_4a/output_inception_4a/output_0_split -> inception_4a/output_inception_4a/output_0_split_2
I0403 14:10:28.061316 12849 net.cpp:399] inception_4a/output_inception_4a/output_0_split -> inception_4a/output_inception_4a/output_0_split_3
I0403 14:10:28.061336 12849 net.cpp:399] inception_4a/output_inception_4a/output_0_split -> inception_4a/output_inception_4a/output_0_split_4
I0403 14:10:28.061427 12849 net.cpp:141] Setting up inception_4a/output_inception_4a/output_0_split
I0403 14:10:28.061452 12849 net.cpp:148] Top shape: 24 512 14 14 (2408448)
I0403 14:10:28.061468 12849 net.cpp:148] Top shape: 24 512 14 14 (2408448)
I0403 14:10:28.061483 12849 net.cpp:148] Top shape: 24 512 14 14 (2408448)
I0403 14:10:28.061498 12849 net.cpp:148] Top shape: 24 512 14 14 (2408448)
I0403 14:10:28.061513 12849 net.cpp:148] Top shape: 24 512 14 14 (2408448)
I0403 14:10:28.061527 12849 net.cpp:156] Memory required for data: 944714784
I0403 14:10:28.061545 12849 layer_factory.hpp:77] Creating layer loss1/ave_pool
I0403 14:10:28.061563 12849 net.cpp:91] Creating Layer loss1/ave_pool
I0403 14:10:28.061578 12849 net.cpp:425] loss1/ave_pool <- inception_4a/output_inception_4a/output_0_split_0
I0403 14:10:28.061600 12849 net.cpp:399] loss1/ave_pool -> loss1/ave_pool
I0403 14:10:28.061805 12849 net.cpp:141] Setting up loss1/ave_pool
I0403 14:10:28.061830 12849 net.cpp:148] Top shape: 24 512 4 4 (196608)
I0403 14:10:28.061844 12849 net.cpp:156] Memory required for data: 945501216
I0403 14:10:28.061858 12849 layer_factory.hpp:77] Creating layer loss1/conv
I0403 14:10:28.061879 12849 net.cpp:91] Creating Layer loss1/conv
I0403 14:10:28.061897 12849 net.cpp:425] loss1/conv <- loss1/ave_pool
I0403 14:10:28.061918 12849 net.cpp:399] loss1/conv -> loss1/conv
I0403 14:10:28.063357 12849 net.cpp:141] Setting up loss1/conv
I0403 14:10:28.063388 12849 net.cpp:148] Top shape: 24 128 4 4 (49152)
I0403 14:10:28.063417 12849 net.cpp:156] Memory required for data: 945697824
I0403 14:10:28.063437 12849 layer_factory.hpp:77] Creating layer loss1/relu_conv
I0403 14:10:28.063455 12849 net.cpp:91] Creating Layer loss1/relu_conv
I0403 14:10:28.063472 12849 net.cpp:425] loss1/relu_conv <- loss1/conv
I0403 14:10:28.063488 12849 net.cpp:386] loss1/relu_conv -> loss1/conv (in-place)
I0403 14:10:28.063781 12849 net.cpp:141] Setting up loss1/relu_conv
I0403 14:10:28.063810 12849 net.cpp:148] Top shape: 24 128 4 4 (49152)
I0403 14:10:28.063825 12849 net.cpp:156] Memory required for data: 945894432
I0403 14:10:28.063841 12849 layer_factory.hpp:77] Creating layer loss1/fc
I0403 14:10:28.063864 12849 net.cpp:91] Creating Layer loss1/fc
I0403 14:10:28.063882 12849 net.cpp:425] loss1/fc <- loss1/conv
I0403 14:10:28.063904 12849 net.cpp:399] loss1/fc -> loss1/fc
I0403 14:10:28.081854 12849 net.cpp:141] Setting up loss1/fc
I0403 14:10:28.081908 12849 net.cpp:148] Top shape: 24 1024 (24576)
I0403 14:10:28.081924 12849 net.cpp:156] Memory required for data: 945992736
I0403 14:10:28.081943 12849 layer_factory.hpp:77] Creating layer loss1/relu_fc
I0403 14:10:28.081969 12849 net.cpp:91] Creating Layer loss1/relu_fc
I0403 14:10:28.081985 12849 net.cpp:425] loss1/relu_fc <- loss1/fc
I0403 14:10:28.082003 12849 net.cpp:386] loss1/relu_fc -> loss1/fc (in-place)
I0403 14:10:28.082216 12849 net.cpp:141] Setting up loss1/relu_fc
I0403 14:10:28.082239 12849 net.cpp:148] Top shape: 24 1024 (24576)
I0403 14:10:28.082253 12849 net.cpp:156] Memory required for data: 946091040
I0403 14:10:28.082269 12849 layer_factory.hpp:77] Creating layer loss1/drop_fc
I0403 14:10:28.082298 12849 net.cpp:91] Creating Layer loss1/drop_fc
I0403 14:10:28.082314 12849 net.cpp:425] loss1/drop_fc <- loss1/fc
I0403 14:10:28.082331 12849 net.cpp:386] loss1/drop_fc -> loss1/fc (in-place)
I0403 14:10:28.082384 12849 net.cpp:141] Setting up loss1/drop_fc
I0403 14:10:28.082407 12849 net.cpp:148] Top shape: 24 1024 (24576)
I0403 14:10:28.082422 12849 net.cpp:156] Memory required for data: 946189344
I0403 14:10:28.082435 12849 layer_factory.hpp:77] Creating layer loss1/classifier_plantvillage
I0403 14:10:28.082454 12849 net.cpp:91] Creating Layer loss1/classifier_plantvillage
I0403 14:10:28.082469 12849 net.cpp:425] loss1/classifier_plantvillage <- loss1/fc
I0403 14:10:28.082490 12849 net.cpp:399] loss1/classifier_plantvillage -> loss1/classifier_plantvillage
I0403 14:10:28.083411 12849 net.cpp:141] Setting up loss1/classifier_plantvillage
I0403 14:10:28.083441 12849 net.cpp:148] Top shape: 24 38 (912)
I0403 14:10:28.083457 12849 net.cpp:156] Memory required for data: 946192992
I0403 14:10:28.083474 12849 layer_factory.hpp:77] Creating layer loss1/classifier_plantvillage_loss1/classifier_plantvillage_0_split
I0403 14:10:28.083492 12849 net.cpp:91] Creating Layer loss1/classifier_plantvillage_loss1/classifier_plantvillage_0_split
I0403 14:10:28.083508 12849 net.cpp:425] loss1/classifier_plantvillage_loss1/classifier_plantvillage_0_split <- loss1/classifier_plantvillage
I0403 14:10:28.083524 12849 net.cpp:399] loss1/classifier_plantvillage_loss1/classifier_plantvillage_0_split -> loss1/classifier_plantvillage_loss1/classifier_plantvillage_0_split_0
I0403 14:10:28.083549 12849 net.cpp:399] loss1/classifier_plantvillage_loss1/classifier_plantvillage_0_split -> loss1/classifier_plantvillage_loss1/classifier_plantvillage_0_split_1
I0403 14:10:28.083570 12849 net.cpp:399] loss1/classifier_plantvillage_loss1/classifier_plantvillage_0_split -> loss1/classifier_plantvillage_loss1/classifier_plantvillage_0_split_2
I0403 14:10:28.083638 12849 net.cpp:141] Setting up loss1/classifier_plantvillage_loss1/classifier_plantvillage_0_split
I0403 14:10:28.083662 12849 net.cpp:148] Top shape: 24 38 (912)
I0403 14:10:28.083676 12849 net.cpp:148] Top shape: 24 38 (912)
I0403 14:10:28.083691 12849 net.cpp:148] Top shape: 24 38 (912)
I0403 14:10:28.083704 12849 net.cpp:156] Memory required for data: 946203936
I0403 14:10:28.083719 12849 layer_factory.hpp:77] Creating layer inception_4b/1x1
I0403 14:10:28.083739 12849 net.cpp:91] Creating Layer inception_4b/1x1
I0403 14:10:28.083776 12849 net.cpp:425] inception_4b/1x1 <- inception_4a/output_inception_4a/output_0_split_1
I0403 14:10:28.083798 12849 net.cpp:399] inception_4b/1x1 -> inception_4b/1x1
I0403 14:10:28.085496 12849 net.cpp:141] Setting up inception_4b/1x1
I0403 14:10:28.085526 12849 net.cpp:148] Top shape: 24 160 14 14 (752640)
I0403 14:10:28.085547 12849 net.cpp:156] Memory required for data: 949214496
I0403 14:10:28.085566 12849 layer_factory.hpp:77] Creating layer inception_4b/relu_1x1
I0403 14:10:28.085584 12849 net.cpp:91] Creating Layer inception_4b/relu_1x1
I0403 14:10:28.085600 12849 net.cpp:425] inception_4b/relu_1x1 <- inception_4b/1x1
I0403 14:10:28.085618 12849 net.cpp:386] inception_4b/relu_1x1 -> inception_4b/1x1 (in-place)
I0403 14:10:28.085798 12849 net.cpp:141] Setting up inception_4b/relu_1x1
I0403 14:10:28.085822 12849 net.cpp:148] Top shape: 24 160 14 14 (752640)
I0403 14:10:28.085836 12849 net.cpp:156] Memory required for data: 952225056
I0403 14:10:28.085850 12849 layer_factory.hpp:77] Creating layer inception_4b/3x3_reduce
I0403 14:10:28.085871 12849 net.cpp:91] Creating Layer inception_4b/3x3_reduce
I0403 14:10:28.085888 12849 net.cpp:425] inception_4b/3x3_reduce <- inception_4a/output_inception_4a/output_0_split_2
I0403 14:10:28.085911 12849 net.cpp:399] inception_4b/3x3_reduce -> inception_4b/3x3_reduce
I0403 14:10:28.087265 12849 net.cpp:141] Setting up inception_4b/3x3_reduce
I0403 14:10:28.087294 12849 net.cpp:148] Top shape: 24 112 14 14 (526848)
I0403 14:10:28.087311 12849 net.cpp:156] Memory required for data: 954332448
I0403 14:10:28.087328 12849 layer_factory.hpp:77] Creating layer inception_4b/relu_3x3_reduce
I0403 14:10:28.087345 12849 net.cpp:91] Creating Layer inception_4b/relu_3x3_reduce
I0403 14:10:28.087360 12849 net.cpp:425] inception_4b/relu_3x3_reduce <- inception_4b/3x3_reduce
I0403 14:10:28.087379 12849 net.cpp:386] inception_4b/relu_3x3_reduce -> inception_4b/3x3_reduce (in-place)
I0403 14:10:28.087666 12849 net.cpp:141] Setting up inception_4b/relu_3x3_reduce
I0403 14:10:28.087693 12849 net.cpp:148] Top shape: 24 112 14 14 (526848)
I0403 14:10:28.087709 12849 net.cpp:156] Memory required for data: 956439840
I0403 14:10:28.087724 12849 layer_factory.hpp:77] Creating layer inception_4b/3x3
I0403 14:10:28.087746 12849 net.cpp:91] Creating Layer inception_4b/3x3
I0403 14:10:28.087764 12849 net.cpp:425] inception_4b/3x3 <- inception_4b/3x3_reduce
I0403 14:10:28.087784 12849 net.cpp:399] inception_4b/3x3 -> inception_4b/3x3
I0403 14:10:28.090781 12849 net.cpp:141] Setting up inception_4b/3x3
I0403 14:10:28.090809 12849 net.cpp:148] Top shape: 24 224 14 14 (1053696)
I0403 14:10:28.090826 12849 net.cpp:156] Memory required for data: 960654624
I0403 14:10:28.090843 12849 layer_factory.hpp:77] Creating layer inception_4b/relu_3x3
I0403 14:10:28.090863 12849 net.cpp:91] Creating Layer inception_4b/relu_3x3
I0403 14:10:28.090880 12849 net.cpp:425] inception_4b/relu_3x3 <- inception_4b/3x3
I0403 14:10:28.090898 12849 net.cpp:386] inception_4b/relu_3x3 -> inception_4b/3x3 (in-place)
I0403 14:10:28.091075 12849 net.cpp:141] Setting up inception_4b/relu_3x3
I0403 14:10:28.091101 12849 net.cpp:148] Top shape: 24 224 14 14 (1053696)
I0403 14:10:28.091117 12849 net.cpp:156] Memory required for data: 964869408
I0403 14:10:28.091131 12849 layer_factory.hpp:77] Creating layer inception_4b/5x5_reduce
I0403 14:10:28.091152 12849 net.cpp:91] Creating Layer inception_4b/5x5_reduce
I0403 14:10:28.091169 12849 net.cpp:425] inception_4b/5x5_reduce <- inception_4a/output_inception_4a/output_0_split_3
I0403 14:10:28.091187 12849 net.cpp:399] inception_4b/5x5_reduce -> inception_4b/5x5_reduce
I0403 14:10:28.092262 12849 net.cpp:141] Setting up inception_4b/5x5_reduce
I0403 14:10:28.092291 12849 net.cpp:148] Top shape: 24 24 14 14 (112896)
I0403 14:10:28.092308 12849 net.cpp:156] Memory required for data: 965320992
I0403 14:10:28.092325 12849 layer_factory.hpp:77] Creating layer inception_4b/relu_5x5_reduce
I0403 14:10:28.092344 12849 net.cpp:91] Creating Layer inception_4b/relu_5x5_reduce
I0403 14:10:28.092375 12849 net.cpp:425] inception_4b/relu_5x5_reduce <- inception_4b/5x5_reduce
I0403 14:10:28.092394 12849 net.cpp:386] inception_4b/relu_5x5_reduce -> inception_4b/5x5_reduce (in-place)
I0403 14:10:28.092581 12849 net.cpp:141] Setting up inception_4b/relu_5x5_reduce
I0403 14:10:28.092605 12849 net.cpp:148] Top shape: 24 24 14 14 (112896)
I0403 14:10:28.092619 12849 net.cpp:156] Memory required for data: 965772576
I0403 14:10:28.092633 12849 layer_factory.hpp:77] Creating layer inception_4b/5x5
I0403 14:10:28.092655 12849 net.cpp:91] Creating Layer inception_4b/5x5
I0403 14:10:28.092672 12849 net.cpp:425] inception_4b/5x5 <- inception_4b/5x5_reduce
I0403 14:10:28.092692 12849 net.cpp:399] inception_4b/5x5 -> inception_4b/5x5
I0403 14:10:28.093914 12849 net.cpp:141] Setting up inception_4b/5x5
I0403 14:10:28.093942 12849 net.cpp:148] Top shape: 24 64 14 14 (301056)
I0403 14:10:28.093958 12849 net.cpp:156] Memory required for data: 966976800
I0403 14:10:28.093976 12849 layer_factory.hpp:77] Creating layer inception_4b/relu_5x5
I0403 14:10:28.093994 12849 net.cpp:91] Creating Layer inception_4b/relu_5x5
I0403 14:10:28.094010 12849 net.cpp:425] inception_4b/relu_5x5 <- inception_4b/5x5
I0403 14:10:28.094027 12849 net.cpp:386] inception_4b/relu_5x5 -> inception_4b/5x5 (in-place)
I0403 14:10:28.094310 12849 net.cpp:141] Setting up inception_4b/relu_5x5
I0403 14:10:28.094338 12849 net.cpp:148] Top shape: 24 64 14 14 (301056)
I0403 14:10:28.094354 12849 net.cpp:156] Memory required for data: 968181024
I0403 14:10:28.094369 12849 layer_factory.hpp:77] Creating layer inception_4b/pool
I0403 14:10:28.094388 12849 net.cpp:91] Creating Layer inception_4b/pool
I0403 14:10:28.094403 12849 net.cpp:425] inception_4b/pool <- inception_4a/output_inception_4a/output_0_split_4
I0403 14:10:28.094420 12849 net.cpp:399] inception_4b/pool -> inception_4b/pool
I0403 14:10:28.094485 12849 net.cpp:141] Setting up inception_4b/pool
I0403 14:10:28.094508 12849 net.cpp:148] Top shape: 24 512 14 14 (2408448)
I0403 14:10:28.094522 12849 net.cpp:156] Memory required for data: 977814816
I0403 14:10:28.094545 12849 layer_factory.hpp:77] Creating layer inception_4b/pool_proj
I0403 14:10:28.094571 12849 net.cpp:91] Creating Layer inception_4b/pool_proj
I0403 14:10:28.094588 12849 net.cpp:425] inception_4b/pool_proj <- inception_4b/pool
I0403 14:10:28.094609 12849 net.cpp:399] inception_4b/pool_proj -> inception_4b/pool_proj
I0403 14:10:28.095844 12849 net.cpp:141] Setting up inception_4b/pool_proj
I0403 14:10:28.095876 12849 net.cpp:148] Top shape: 24 64 14 14 (301056)
I0403 14:10:28.095904 12849 net.cpp:156] Memory required for data: 979019040
I0403 14:10:28.095922 12849 layer_factory.hpp:77] Creating layer inception_4b/relu_pool_proj
I0403 14:10:28.095940 12849 net.cpp:91] Creating Layer inception_4b/relu_pool_proj
I0403 14:10:28.095957 12849 net.cpp:425] inception_4b/relu_pool_proj <- inception_4b/pool_proj
I0403 14:10:28.095976 12849 net.cpp:386] inception_4b/relu_pool_proj -> inception_4b/pool_proj (in-place)
I0403 14:10:28.096163 12849 net.cpp:141] Setting up inception_4b/relu_pool_proj
I0403 14:10:28.096189 12849 net.cpp:148] Top shape: 24 64 14 14 (301056)
I0403 14:10:28.096202 12849 net.cpp:156] Memory required for data: 980223264
I0403 14:10:28.096217 12849 layer_factory.hpp:77] Creating layer inception_4b/output
I0403 14:10:28.096235 12849 net.cpp:91] Creating Layer inception_4b/output
I0403 14:10:28.096251 12849 net.cpp:425] inception_4b/output <- inception_4b/1x1
I0403 14:10:28.096268 12849 net.cpp:425] inception_4b/output <- inception_4b/3x3
I0403 14:10:28.096283 12849 net.cpp:425] inception_4b/output <- inception_4b/5x5
I0403 14:10:28.096299 12849 net.cpp:425] inception_4b/output <- inception_4b/pool_proj
I0403 14:10:28.096318 12849 net.cpp:399] inception_4b/output -> inception_4b/output
I0403 14:10:28.096365 12849 net.cpp:141] Setting up inception_4b/output
I0403 14:10:28.096390 12849 net.cpp:148] Top shape: 24 512 14 14 (2408448)
I0403 14:10:28.096405 12849 net.cpp:156] Memory required for data: 989857056
I0403 14:10:28.096436 12849 layer_factory.hpp:77] Creating layer inception_4b/output_inception_4b/output_0_split
I0403 14:10:28.096453 12849 net.cpp:91] Creating Layer inception_4b/output_inception_4b/output_0_split
I0403 14:10:28.096468 12849 net.cpp:425] inception_4b/output_inception_4b/output_0_split <- inception_4b/output
I0403 14:10:28.096489 12849 net.cpp:399] inception_4b/output_inception_4b/output_0_split -> inception_4b/output_inception_4b/output_0_split_0
I0403 14:10:28.096510 12849 net.cpp:399] inception_4b/output_inception_4b/output_0_split -> inception_4b/output_inception_4b/output_0_split_1
I0403 14:10:28.096530 12849 net.cpp:399] inception_4b/output_inception_4b/output_0_split -> inception_4b/output_inception_4b/output_0_split_2
I0403 14:10:28.096556 12849 net.cpp:399] inception_4b/output_inception_4b/output_0_split -> inception_4b/output_inception_4b/output_0_split_3
I0403 14:10:28.096642 12849 net.cpp:141] Setting up inception_4b/output_inception_4b/output_0_split
I0403 14:10:28.096667 12849 net.cpp:148] Top shape: 24 512 14 14 (2408448)
I0403 14:10:28.096686 12849 net.cpp:148] Top shape: 24 512 14 14 (2408448)
I0403 14:10:28.096703 12849 net.cpp:148] Top shape: 24 512 14 14 (2408448)
I0403 14:10:28.096717 12849 net.cpp:148] Top shape: 24 512 14 14 (2408448)
I0403 14:10:28.096731 12849 net.cpp:156] Memory required for data: 1028392224
I0403 14:10:28.096745 12849 layer_factory.hpp:77] Creating layer inception_4c/1x1
I0403 14:10:28.096765 12849 net.cpp:91] Creating Layer inception_4c/1x1
I0403 14:10:28.096781 12849 net.cpp:425] inception_4c/1x1 <- inception_4b/output_inception_4b/output_0_split_0
I0403 14:10:28.096803 12849 net.cpp:399] inception_4c/1x1 -> inception_4c/1x1
I0403 14:10:28.098278 12849 net.cpp:141] Setting up inception_4c/1x1
I0403 14:10:28.098306 12849 net.cpp:148] Top shape: 24 128 14 14 (602112)
I0403 14:10:28.098322 12849 net.cpp:156] Memory required for data: 1030800672
I0403 14:10:28.098340 12849 layer_factory.hpp:77] Creating layer inception_4c/relu_1x1
I0403 14:10:28.098362 12849 net.cpp:91] Creating Layer inception_4c/relu_1x1
I0403 14:10:28.098381 12849 net.cpp:425] inception_4c/relu_1x1 <- inception_4c/1x1
I0403 14:10:28.098397 12849 net.cpp:386] inception_4c/relu_1x1 -> inception_4c/1x1 (in-place)
I0403 14:10:28.098587 12849 net.cpp:141] Setting up inception_4c/relu_1x1
I0403 14:10:28.098613 12849 net.cpp:148] Top shape: 24 128 14 14 (602112)
I0403 14:10:28.098628 12849 net.cpp:156] Memory required for data: 1033209120
I0403 14:10:28.098642 12849 layer_factory.hpp:77] Creating layer inception_4c/3x3_reduce
I0403 14:10:28.098665 12849 net.cpp:91] Creating Layer inception_4c/3x3_reduce
I0403 14:10:28.098683 12849 net.cpp:425] inception_4c/3x3_reduce <- inception_4b/output_inception_4b/output_0_split_1
I0403 14:10:28.098701 12849 net.cpp:399] inception_4c/3x3_reduce -> inception_4c/3x3_reduce
I0403 14:10:28.100702 12849 net.cpp:141] Setting up inception_4c/3x3_reduce
I0403 14:10:28.100730 12849 net.cpp:148] Top shape: 24 128 14 14 (602112)
I0403 14:10:28.100746 12849 net.cpp:156] Memory required for data: 1035617568
I0403 14:10:28.100764 12849 layer_factory.hpp:77] Creating layer inception_4c/relu_3x3_reduce
I0403 14:10:28.100785 12849 net.cpp:91] Creating Layer inception_4c/relu_3x3_reduce
I0403 14:10:28.100802 12849 net.cpp:425] inception_4c/relu_3x3_reduce <- inception_4c/3x3_reduce
I0403 14:10:28.100821 12849 net.cpp:386] inception_4c/relu_3x3_reduce -> inception_4c/3x3_reduce (in-place)
I0403 14:10:28.101120 12849 net.cpp:141] Setting up inception_4c/relu_3x3_reduce
I0403 14:10:28.101147 12849 net.cpp:148] Top shape: 24 128 14 14 (602112)
I0403 14:10:28.101162 12849 net.cpp:156] Memory required for data: 1038026016
I0403 14:10:28.101176 12849 layer_factory.hpp:77] Creating layer inception_4c/3x3
I0403 14:10:28.101202 12849 net.cpp:91] Creating Layer inception_4c/3x3
I0403 14:10:28.101219 12849 net.cpp:425] inception_4c/3x3 <- inception_4c/3x3_reduce
I0403 14:10:28.101238 12849 net.cpp:399] inception_4c/3x3 -> inception_4c/3x3
I0403 14:10:28.104955 12849 net.cpp:141] Setting up inception_4c/3x3
I0403 14:10:28.105000 12849 net.cpp:148] Top shape: 24 256 14 14 (1204224)
I0403 14:10:28.105020 12849 net.cpp:156] Memory required for data: 1042842912
I0403 14:10:28.105051 12849 layer_factory.hpp:77] Creating layer inception_4c/relu_3x3
I0403 14:10:28.105073 12849 net.cpp:91] Creating Layer inception_4c/relu_3x3
I0403 14:10:28.105089 12849 net.cpp:425] inception_4c/relu_3x3 <- inception_4c/3x3
I0403 14:10:28.105106 12849 net.cpp:386] inception_4c/relu_3x3 -> inception_4c/3x3 (in-place)
I0403 14:10:28.105298 12849 net.cpp:141] Setting up inception_4c/relu_3x3
I0403 14:10:28.105324 12849 net.cpp:148] Top shape: 24 256 14 14 (1204224)
I0403 14:10:28.105340 12849 net.cpp:156] Memory required for data: 1047659808
I0403 14:10:28.105355 12849 layer_factory.hpp:77] Creating layer inception_4c/5x5_reduce
I0403 14:10:28.105377 12849 net.cpp:91] Creating Layer inception_4c/5x5_reduce
I0403 14:10:28.105396 12849 net.cpp:425] inception_4c/5x5_reduce <- inception_4b/output_inception_4b/output_0_split_2
I0403 14:10:28.105414 12849 net.cpp:399] inception_4c/5x5_reduce -> inception_4c/5x5_reduce
I0403 14:10:28.106534 12849 net.cpp:141] Setting up inception_4c/5x5_reduce
I0403 14:10:28.106569 12849 net.cpp:148] Top shape: 24 24 14 14 (112896)
I0403 14:10:28.106585 12849 net.cpp:156] Memory required for data: 1048111392
I0403 14:10:28.106602 12849 layer_factory.hpp:77] Creating layer inception_4c/relu_5x5_reduce
I0403 14:10:28.106621 12849 net.cpp:91] Creating Layer inception_4c/relu_5x5_reduce
I0403 14:10:28.106637 12849 net.cpp:425] inception_4c/relu_5x5_reduce <- inception_4c/5x5_reduce
I0403 14:10:28.106657 12849 net.cpp:386] inception_4c/relu_5x5_reduce -> inception_4c/5x5_reduce (in-place)
I0403 14:10:28.106847 12849 net.cpp:141] Setting up inception_4c/relu_5x5_reduce
I0403 14:10:28.106871 12849 net.cpp:148] Top shape: 24 24 14 14 (112896)
I0403 14:10:28.106886 12849 net.cpp:156] Memory required for data: 1048562976
I0403 14:10:28.106900 12849 layer_factory.hpp:77] Creating layer inception_4c/5x5
I0403 14:10:28.106922 12849 net.cpp:91] Creating Layer inception_4c/5x5
I0403 14:10:28.106940 12849 net.cpp:425] inception_4c/5x5 <- inception_4c/5x5_reduce
I0403 14:10:28.106962 12849 net.cpp:399] inception_4c/5x5 -> inception_4c/5x5
I0403 14:10:28.108243 12849 net.cpp:141] Setting up inception_4c/5x5
I0403 14:10:28.108273 12849 net.cpp:148] Top shape: 24 64 14 14 (301056)
I0403 14:10:28.108289 12849 net.cpp:156] Memory required for data: 1049767200
I0403 14:10:28.108307 12849 layer_factory.hpp:77] Creating layer inception_4c/relu_5x5
I0403 14:10:28.108327 12849 net.cpp:91] Creating Layer inception_4c/relu_5x5
I0403 14:10:28.108345 12849 net.cpp:425] inception_4c/relu_5x5 <- inception_4c/5x5
I0403 14:10:28.108362 12849 net.cpp:386] inception_4c/relu_5x5 -> inception_4c/5x5 (in-place)
I0403 14:10:28.108665 12849 net.cpp:141] Setting up inception_4c/relu_5x5
I0403 14:10:28.108692 12849 net.cpp:148] Top shape: 24 64 14 14 (301056)
I0403 14:10:28.108707 12849 net.cpp:156] Memory required for data: 1050971424
I0403 14:10:28.108722 12849 layer_factory.hpp:77] Creating layer inception_4c/pool
I0403 14:10:28.108741 12849 net.cpp:91] Creating Layer inception_4c/pool
I0403 14:10:28.108757 12849 net.cpp:425] inception_4c/pool <- inception_4b/output_inception_4b/output_0_split_3
I0403 14:10:28.108777 12849 net.cpp:399] inception_4c/pool -> inception_4c/pool
I0403 14:10:28.108845 12849 net.cpp:141] Setting up inception_4c/pool
I0403 14:10:28.108871 12849 net.cpp:148] Top shape: 24 512 14 14 (2408448)
I0403 14:10:28.108886 12849 net.cpp:156] Memory required for data: 1060605216
I0403 14:10:28.108901 12849 layer_factory.hpp:77] Creating layer inception_4c/pool_proj
I0403 14:10:28.108922 12849 net.cpp:91] Creating Layer inception_4c/pool_proj
I0403 14:10:28.108940 12849 net.cpp:425] inception_4c/pool_proj <- inception_4c/pool
I0403 14:10:28.108961 12849 net.cpp:399] inception_4c/pool_proj -> inception_4c/pool_proj
I0403 14:10:28.110216 12849 net.cpp:141] Setting up inception_4c/pool_proj
I0403 14:10:28.110249 12849 net.cpp:148] Top shape: 24 64 14 14 (301056)
I0403 14:10:28.110278 12849 net.cpp:156] Memory required for data: 1061809440
I0403 14:10:28.110298 12849 layer_factory.hpp:77] Creating layer inception_4c/relu_pool_proj
I0403 14:10:28.110316 12849 net.cpp:91] Creating Layer inception_4c/relu_pool_proj
I0403 14:10:28.110332 12849 net.cpp:425] inception_4c/relu_pool_proj <- inception_4c/pool_proj
I0403 14:10:28.110349 12849 net.cpp:386] inception_4c/relu_pool_proj -> inception_4c/pool_proj (in-place)
I0403 14:10:28.110543 12849 net.cpp:141] Setting up inception_4c/relu_pool_proj
I0403 14:10:28.110568 12849 net.cpp:148] Top shape: 24 64 14 14 (301056)
I0403 14:10:28.110582 12849 net.cpp:156] Memory required for data: 1063013664
I0403 14:10:28.110597 12849 layer_factory.hpp:77] Creating layer inception_4c/output
I0403 14:10:28.110615 12849 net.cpp:91] Creating Layer inception_4c/output
I0403 14:10:28.110630 12849 net.cpp:425] inception_4c/output <- inception_4c/1x1
I0403 14:10:28.110646 12849 net.cpp:425] inception_4c/output <- inception_4c/3x3
I0403 14:10:28.110661 12849 net.cpp:425] inception_4c/output <- inception_4c/5x5
I0403 14:10:28.110677 12849 net.cpp:425] inception_4c/output <- inception_4c/pool_proj
I0403 14:10:28.110695 12849 net.cpp:399] inception_4c/output -> inception_4c/output
I0403 14:10:28.110743 12849 net.cpp:141] Setting up inception_4c/output
I0403 14:10:28.110769 12849 net.cpp:148] Top shape: 24 512 14 14 (2408448)
I0403 14:10:28.110785 12849 net.cpp:156] Memory required for data: 1072647456
I0403 14:10:28.110800 12849 layer_factory.hpp:77] Creating layer inception_4c/output_inception_4c/output_0_split
I0403 14:10:28.110816 12849 net.cpp:91] Creating Layer inception_4c/output_inception_4c/output_0_split
I0403 14:10:28.110831 12849 net.cpp:425] inception_4c/output_inception_4c/output_0_split <- inception_4c/output
I0403 14:10:28.110851 12849 net.cpp:399] inception_4c/output_inception_4c/output_0_split -> inception_4c/output_inception_4c/output_0_split_0
I0403 14:10:28.110872 12849 net.cpp:399] inception_4c/output_inception_4c/output_0_split -> inception_4c/output_inception_4c/output_0_split_1
I0403 14:10:28.110893 12849 net.cpp:399] inception_4c/output_inception_4c/output_0_split -> inception_4c/output_inception_4c/output_0_split_2
I0403 14:10:28.110914 12849 net.cpp:399] inception_4c/output_inception_4c/output_0_split -> inception_4c/output_inception_4c/output_0_split_3
I0403 14:10:28.111001 12849 net.cpp:141] Setting up inception_4c/output_inception_4c/output_0_split
I0403 14:10:28.111023 12849 net.cpp:148] Top shape: 24 512 14 14 (2408448)
I0403 14:10:28.111039 12849 net.cpp:148] Top shape: 24 512 14 14 (2408448)
I0403 14:10:28.111055 12849 net.cpp:148] Top shape: 24 512 14 14 (2408448)
I0403 14:10:28.111070 12849 net.cpp:148] Top shape: 24 512 14 14 (2408448)
I0403 14:10:28.111083 12849 net.cpp:156] Memory required for data: 1111182624
I0403 14:10:28.111098 12849 layer_factory.hpp:77] Creating layer inception_4d/1x1
I0403 14:10:28.111119 12849 net.cpp:91] Creating Layer inception_4d/1x1
I0403 14:10:28.111136 12849 net.cpp:425] inception_4d/1x1 <- inception_4c/output_inception_4c/output_0_split_0
I0403 14:10:28.111156 12849 net.cpp:399] inception_4d/1x1 -> inception_4d/1x1
I0403 14:10:28.112591 12849 net.cpp:141] Setting up inception_4d/1x1
I0403 14:10:28.112618 12849 net.cpp:148] Top shape: 24 112 14 14 (526848)
I0403 14:10:28.112634 12849 net.cpp:156] Memory required for data: 1113290016
I0403 14:10:28.112653 12849 layer_factory.hpp:77] Creating layer inception_4d/relu_1x1
I0403 14:10:28.112673 12849 net.cpp:91] Creating Layer inception_4d/relu_1x1
I0403 14:10:28.112690 12849 net.cpp:425] inception_4d/relu_1x1 <- inception_4d/1x1
I0403 14:10:28.112709 12849 net.cpp:386] inception_4d/relu_1x1 -> inception_4d/1x1 (in-place)
I0403 14:10:28.112900 12849 net.cpp:141] Setting up inception_4d/relu_1x1
I0403 14:10:28.112926 12849 net.cpp:148] Top shape: 24 112 14 14 (526848)
I0403 14:10:28.112943 12849 net.cpp:156] Memory required for data: 1115397408
I0403 14:10:28.112958 12849 layer_factory.hpp:77] Creating layer inception_4d/3x3_reduce
I0403 14:10:28.112994 12849 net.cpp:91] Creating Layer inception_4d/3x3_reduce
I0403 14:10:28.113013 12849 net.cpp:425] inception_4d/3x3_reduce <- inception_4c/output_inception_4c/output_0_split_1
I0403 14:10:28.113034 12849 net.cpp:399] inception_4d/3x3_reduce -> inception_4d/3x3_reduce
I0403 14:10:28.114619 12849 net.cpp:141] Setting up inception_4d/3x3_reduce
I0403 14:10:28.114660 12849 net.cpp:148] Top shape: 24 144 14 14 (677376)
I0403 14:10:28.114676 12849 net.cpp:156] Memory required for data: 1118106912
I0403 14:10:28.114694 12849 layer_factory.hpp:77] Creating layer inception_4d/relu_3x3_reduce
I0403 14:10:28.114714 12849 net.cpp:91] Creating Layer inception_4d/relu_3x3_reduce
I0403 14:10:28.114730 12849 net.cpp:425] inception_4d/relu_3x3_reduce <- inception_4d/3x3_reduce
I0403 14:10:28.114750 12849 net.cpp:386] inception_4d/relu_3x3_reduce -> inception_4d/3x3_reduce (in-place)
I0403 14:10:28.115094 12849 net.cpp:141] Setting up inception_4d/relu_3x3_reduce
I0403 14:10:28.115120 12849 net.cpp:148] Top shape: 24 144 14 14 (677376)
I0403 14:10:28.115136 12849 net.cpp:156] Memory required for data: 1120816416
I0403 14:10:28.115150 12849 layer_factory.hpp:77] Creating layer inception_4d/3x3
I0403 14:10:28.115172 12849 net.cpp:91] Creating Layer inception_4d/3x3
I0403 14:10:28.115191 12849 net.cpp:425] inception_4d/3x3 <- inception_4d/3x3_reduce
I0403 14:10:28.115212 12849 net.cpp:399] inception_4d/3x3 -> inception_4d/3x3
I0403 14:10:28.119493 12849 net.cpp:141] Setting up inception_4d/3x3
I0403 14:10:28.119520 12849 net.cpp:148] Top shape: 24 288 14 14 (1354752)
I0403 14:10:28.119540 12849 net.cpp:156] Memory required for data: 1126235424
I0403 14:10:28.119560 12849 layer_factory.hpp:77] Creating layer inception_4d/relu_3x3
I0403 14:10:28.119580 12849 net.cpp:91] Creating Layer inception_4d/relu_3x3
I0403 14:10:28.119598 12849 net.cpp:425] inception_4d/relu_3x3 <- inception_4d/3x3
I0403 14:10:28.119616 12849 net.cpp:386] inception_4d/relu_3x3 -> inception_4d/3x3 (in-place)
I0403 14:10:28.119797 12849 net.cpp:141] Setting up inception_4d/relu_3x3
I0403 14:10:28.119823 12849 net.cpp:148] Top shape: 24 288 14 14 (1354752)
I0403 14:10:28.119837 12849 net.cpp:156] Memory required for data: 1131654432
I0403 14:10:28.119853 12849 layer_factory.hpp:77] Creating layer inception_4d/5x5_reduce
I0403 14:10:28.119874 12849 net.cpp:91] Creating Layer inception_4d/5x5_reduce
I0403 14:10:28.119890 12849 net.cpp:425] inception_4d/5x5_reduce <- inception_4c/output_inception_4c/output_0_split_2
I0403 14:10:28.119911 12849 net.cpp:399] inception_4d/5x5_reduce -> inception_4d/5x5_reduce
I0403 14:10:28.121063 12849 net.cpp:141] Setting up inception_4d/5x5_reduce
I0403 14:10:28.121090 12849 net.cpp:148] Top shape: 24 32 14 14 (150528)
I0403 14:10:28.121105 12849 net.cpp:156] Memory required for data: 1132256544
I0403 14:10:28.121124 12849 layer_factory.hpp:77] Creating layer inception_4d/relu_5x5_reduce
I0403 14:10:28.121145 12849 net.cpp:91] Creating Layer inception_4d/relu_5x5_reduce
I0403 14:10:28.121162 12849 net.cpp:425] inception_4d/relu_5x5_reduce <- inception_4d/5x5_reduce
I0403 14:10:28.121178 12849 net.cpp:386] inception_4d/relu_5x5_reduce -> inception_4d/5x5_reduce (in-place)
I0403 14:10:28.121368 12849 net.cpp:141] Setting up inception_4d/relu_5x5_reduce
I0403 14:10:28.121394 12849 net.cpp:148] Top shape: 24 32 14 14 (150528)
I0403 14:10:28.121409 12849 net.cpp:156] Memory required for data: 1132858656
I0403 14:10:28.121423 12849 layer_factory.hpp:77] Creating layer inception_4d/5x5
I0403 14:10:28.121445 12849 net.cpp:91] Creating Layer inception_4d/5x5
I0403 14:10:28.121462 12849 net.cpp:425] inception_4d/5x5 <- inception_4d/5x5_reduce
I0403 14:10:28.121480 12849 net.cpp:399] inception_4d/5x5 -> inception_4d/5x5
I0403 14:10:28.122969 12849 net.cpp:141] Setting up inception_4d/5x5
I0403 14:10:28.122999 12849 net.cpp:148] Top shape: 24 64 14 14 (301056)
I0403 14:10:28.123015 12849 net.cpp:156] Memory required for data: 1134062880
I0403 14:10:28.123034 12849 layer_factory.hpp:77] Creating layer inception_4d/relu_5x5
I0403 14:10:28.123067 12849 net.cpp:91] Creating Layer inception_4d/relu_5x5
I0403 14:10:28.123085 12849 net.cpp:425] inception_4d/relu_5x5 <- inception_4d/5x5
I0403 14:10:28.123105 12849 net.cpp:386] inception_4d/relu_5x5 -> inception_4d/5x5 (in-place)
I0403 14:10:28.123404 12849 net.cpp:141] Setting up inception_4d/relu_5x5
I0403 14:10:28.123431 12849 net.cpp:148] Top shape: 24 64 14 14 (301056)
I0403 14:10:28.123447 12849 net.cpp:156] Memory required for data: 1135267104
I0403 14:10:28.123461 12849 layer_factory.hpp:77] Creating layer inception_4d/pool
I0403 14:10:28.123478 12849 net.cpp:91] Creating Layer inception_4d/pool
I0403 14:10:28.123494 12849 net.cpp:425] inception_4d/pool <- inception_4c/output_inception_4c/output_0_split_3
I0403 14:10:28.123514 12849 net.cpp:399] inception_4d/pool -> inception_4d/pool
I0403 14:10:28.123594 12849 net.cpp:141] Setting up inception_4d/pool
I0403 14:10:28.123620 12849 net.cpp:148] Top shape: 24 512 14 14 (2408448)
I0403 14:10:28.123636 12849 net.cpp:156] Memory required for data: 1144900896
I0403 14:10:28.123651 12849 layer_factory.hpp:77] Creating layer inception_4d/pool_proj
I0403 14:10:28.123672 12849 net.cpp:91] Creating Layer inception_4d/pool_proj
I0403 14:10:28.123689 12849 net.cpp:425] inception_4d/pool_proj <- inception_4d/pool
I0403 14:10:28.123708 12849 net.cpp:399] inception_4d/pool_proj -> inception_4d/pool_proj
I0403 14:10:28.125468 12849 net.cpp:141] Setting up inception_4d/pool_proj
I0403 14:10:28.125497 12849 net.cpp:148] Top shape: 24 64 14 14 (301056)
I0403 14:10:28.125512 12849 net.cpp:156] Memory required for data: 1146105120
I0403 14:10:28.125530 12849 layer_factory.hpp:77] Creating layer inception_4d/relu_pool_proj
I0403 14:10:28.125555 12849 net.cpp:91] Creating Layer inception_4d/relu_pool_proj
I0403 14:10:28.125571 12849 net.cpp:425] inception_4d/relu_pool_proj <- inception_4d/pool_proj
I0403 14:10:28.125588 12849 net.cpp:386] inception_4d/relu_pool_proj -> inception_4d/pool_proj (in-place)
I0403 14:10:28.125771 12849 net.cpp:141] Setting up inception_4d/relu_pool_proj
I0403 14:10:28.125797 12849 net.cpp:148] Top shape: 24 64 14 14 (301056)
I0403 14:10:28.125810 12849 net.cpp:156] Memory required for data: 1147309344
I0403 14:10:28.125825 12849 layer_factory.hpp:77] Creating layer inception_4d/output
I0403 14:10:28.125841 12849 net.cpp:91] Creating Layer inception_4d/output
I0403 14:10:28.125856 12849 net.cpp:425] inception_4d/output <- inception_4d/1x1
I0403 14:10:28.125872 12849 net.cpp:425] inception_4d/output <- inception_4d/3x3
I0403 14:10:28.125887 12849 net.cpp:425] inception_4d/output <- inception_4d/5x5
I0403 14:10:28.125902 12849 net.cpp:425] inception_4d/output <- inception_4d/pool_proj
I0403 14:10:28.125918 12849 net.cpp:399] inception_4d/output -> inception_4d/output
I0403 14:10:28.125967 12849 net.cpp:141] Setting up inception_4d/output
I0403 14:10:28.125989 12849 net.cpp:148] Top shape: 24 528 14 14 (2483712)
I0403 14:10:28.126004 12849 net.cpp:156] Memory required for data: 1157244192
I0403 14:10:28.126018 12849 layer_factory.hpp:77] Creating layer inception_4d/output_inception_4d/output_0_split
I0403 14:10:28.126036 12849 net.cpp:91] Creating Layer inception_4d/output_inception_4d/output_0_split
I0403 14:10:28.126054 12849 net.cpp:425] inception_4d/output_inception_4d/output_0_split <- inception_4d/output
I0403 14:10:28.126070 12849 net.cpp:399] inception_4d/output_inception_4d/output_0_split -> inception_4d/output_inception_4d/output_0_split_0
I0403 14:10:28.126090 12849 net.cpp:399] inception_4d/output_inception_4d/output_0_split -> inception_4d/output_inception_4d/output_0_split_1
I0403 14:10:28.126111 12849 net.cpp:399] inception_4d/output_inception_4d/output_0_split -> inception_4d/output_inception_4d/output_0_split_2
I0403 14:10:28.126133 12849 net.cpp:399] inception_4d/output_inception_4d/output_0_split -> inception_4d/output_inception_4d/output_0_split_3
I0403 14:10:28.126152 12849 net.cpp:399] inception_4d/output_inception_4d/output_0_split -> inception_4d/output_inception_4d/output_0_split_4
I0403 14:10:28.126256 12849 net.cpp:141] Setting up inception_4d/output_inception_4d/output_0_split
I0403 14:10:28.126291 12849 net.cpp:148] Top shape: 24 528 14 14 (2483712)
I0403 14:10:28.126312 12849 net.cpp:148] Top shape: 24 528 14 14 (2483712)
I0403 14:10:28.126327 12849 net.cpp:148] Top shape: 24 528 14 14 (2483712)
I0403 14:10:28.126343 12849 net.cpp:148] Top shape: 24 528 14 14 (2483712)
I0403 14:10:28.126358 12849 net.cpp:148] Top shape: 24 528 14 14 (2483712)
I0403 14:10:28.126370 12849 net.cpp:156] Memory required for data: 1206918432
I0403 14:10:28.126384 12849 layer_factory.hpp:77] Creating layer loss2/ave_pool
I0403 14:10:28.126404 12849 net.cpp:91] Creating Layer loss2/ave_pool
I0403 14:10:28.126420 12849 net.cpp:425] loss2/ave_pool <- inception_4d/output_inception_4d/output_0_split_0
I0403 14:10:28.126437 12849 net.cpp:399] loss2/ave_pool -> loss2/ave_pool
I0403 14:10:28.126752 12849 net.cpp:141] Setting up loss2/ave_pool
I0403 14:10:28.126780 12849 net.cpp:148] Top shape: 24 528 4 4 (202752)
I0403 14:10:28.126794 12849 net.cpp:156] Memory required for data: 1207729440
I0403 14:10:28.126808 12849 layer_factory.hpp:77] Creating layer loss2/conv
I0403 14:10:28.126833 12849 net.cpp:91] Creating Layer loss2/conv
I0403 14:10:28.126852 12849 net.cpp:425] loss2/conv <- loss2/ave_pool
I0403 14:10:28.126869 12849 net.cpp:399] loss2/conv -> loss2/conv
I0403 14:10:28.128782 12849 net.cpp:141] Setting up loss2/conv
I0403 14:10:28.128811 12849 net.cpp:148] Top shape: 24 128 4 4 (49152)
I0403 14:10:28.128826 12849 net.cpp:156] Memory required for data: 1207926048
I0403 14:10:28.128844 12849 layer_factory.hpp:77] Creating layer loss2/relu_conv
I0403 14:10:28.128862 12849 net.cpp:91] Creating Layer loss2/relu_conv
I0403 14:10:28.128878 12849 net.cpp:425] loss2/relu_conv <- loss2/conv
I0403 14:10:28.128897 12849 net.cpp:386] loss2/relu_conv -> loss2/conv (in-place)
I0403 14:10:28.129184 12849 net.cpp:141] Setting up loss2/relu_conv
I0403 14:10:28.129210 12849 net.cpp:148] Top shape: 24 128 4 4 (49152)
I0403 14:10:28.129225 12849 net.cpp:156] Memory required for data: 1208122656
I0403 14:10:28.129240 12849 layer_factory.hpp:77] Creating layer loss2/fc
I0403 14:10:28.129258 12849 net.cpp:91] Creating Layer loss2/fc
I0403 14:10:28.129274 12849 net.cpp:425] loss2/fc <- loss2/conv
I0403 14:10:28.129294 12849 net.cpp:399] loss2/fc -> loss2/fc
I0403 14:10:28.147404 12849 net.cpp:141] Setting up loss2/fc
I0403 14:10:28.147459 12849 net.cpp:148] Top shape: 24 1024 (24576)
I0403 14:10:28.147477 12849 net.cpp:156] Memory required for data: 1208220960
I0403 14:10:28.147496 12849 layer_factory.hpp:77] Creating layer loss2/relu_fc
I0403 14:10:28.147516 12849 net.cpp:91] Creating Layer loss2/relu_fc
I0403 14:10:28.147532 12849 net.cpp:425] loss2/relu_fc <- loss2/fc
I0403 14:10:28.147555 12849 net.cpp:386] loss2/relu_fc -> loss2/fc (in-place)
I0403 14:10:28.147907 12849 net.cpp:141] Setting up loss2/relu_fc
I0403 14:10:28.147935 12849 net.cpp:148] Top shape: 24 1024 (24576)
I0403 14:10:28.147950 12849 net.cpp:156] Memory required for data: 1208319264
I0403 14:10:28.147964 12849 layer_factory.hpp:77] Creating layer loss2/drop_fc
I0403 14:10:28.147982 12849 net.cpp:91] Creating Layer loss2/drop_fc
I0403 14:10:28.147999 12849 net.cpp:425] loss2/drop_fc <- loss2/fc
I0403 14:10:28.148015 12849 net.cpp:386] loss2/drop_fc -> loss2/fc (in-place)
I0403 14:10:28.148068 12849 net.cpp:141] Setting up loss2/drop_fc
I0403 14:10:28.148090 12849 net.cpp:148] Top shape: 24 1024 (24576)
I0403 14:10:28.148105 12849 net.cpp:156] Memory required for data: 1208417568
I0403 14:10:28.148119 12849 layer_factory.hpp:77] Creating layer loss2/classifier_plantvillage
I0403 14:10:28.148140 12849 net.cpp:91] Creating Layer loss2/classifier_plantvillage
I0403 14:10:28.148157 12849 net.cpp:425] loss2/classifier_plantvillage <- loss2/fc
I0403 14:10:28.148175 12849 net.cpp:399] loss2/classifier_plantvillage -> loss2/classifier_plantvillage
I0403 14:10:28.148591 12849 net.cpp:141] Setting up loss2/classifier_plantvillage
I0403 14:10:28.148617 12849 net.cpp:148] Top shape: 24 38 (912)
I0403 14:10:28.148659 12849 net.cpp:156] Memory required for data: 1208421216
I0403 14:10:28.148679 12849 layer_factory.hpp:77] Creating layer loss2/classifier_plantvillage_loss2/classifier_plantvillage_0_split
I0403 14:10:28.148696 12849 net.cpp:91] Creating Layer loss2/classifier_plantvillage_loss2/classifier_plantvillage_0_split
I0403 14:10:28.148712 12849 net.cpp:425] loss2/classifier_plantvillage_loss2/classifier_plantvillage_0_split <- loss2/classifier_plantvillage
I0403 14:10:28.148732 12849 net.cpp:399] loss2/classifier_plantvillage_loss2/classifier_plantvillage_0_split -> loss2/classifier_plantvillage_loss2/classifier_plantvillage_0_split_0
I0403 14:10:28.148754 12849 net.cpp:399] loss2/classifier_plantvillage_loss2/classifier_plantvillage_0_split -> loss2/classifier_plantvillage_loss2/classifier_plantvillage_0_split_1
I0403 14:10:28.148787 12849 net.cpp:399] loss2/classifier_plantvillage_loss2/classifier_plantvillage_0_split -> loss2/classifier_plantvillage_loss2/classifier_plantvillage_0_split_2
I0403 14:10:28.148865 12849 net.cpp:141] Setting up loss2/classifier_plantvillage_loss2/classifier_plantvillage_0_split
I0403 14:10:28.148891 12849 net.cpp:148] Top shape: 24 38 (912)
I0403 14:10:28.148907 12849 net.cpp:148] Top shape: 24 38 (912)
I0403 14:10:28.148923 12849 net.cpp:148] Top shape: 24 38 (912)
I0403 14:10:28.148936 12849 net.cpp:156] Memory required for data: 1208432160
I0403 14:10:28.148952 12849 layer_factory.hpp:77] Creating layer inception_4e/1x1
I0403 14:10:28.148974 12849 net.cpp:91] Creating Layer inception_4e/1x1
I0403 14:10:28.148993 12849 net.cpp:425] inception_4e/1x1 <- inception_4d/output_inception_4d/output_0_split_1
I0403 14:10:28.149013 12849 net.cpp:399] inception_4e/1x1 -> inception_4e/1x1
I0403 14:10:28.150900 12849 net.cpp:141] Setting up inception_4e/1x1
I0403 14:10:28.150928 12849 net.cpp:148] Top shape: 24 256 14 14 (1204224)
I0403 14:10:28.150943 12849 net.cpp:156] Memory required for data: 1213249056
I0403 14:10:28.150961 12849 layer_factory.hpp:77] Creating layer inception_4e/relu_1x1
I0403 14:10:28.150979 12849 net.cpp:91] Creating Layer inception_4e/relu_1x1
I0403 14:10:28.150996 12849 net.cpp:425] inception_4e/relu_1x1 <- inception_4e/1x1
I0403 14:10:28.151013 12849 net.cpp:386] inception_4e/relu_1x1 -> inception_4e/1x1 (in-place)
I0403 14:10:28.151306 12849 net.cpp:141] Setting up inception_4e/relu_1x1
I0403 14:10:28.151331 12849 net.cpp:148] Top shape: 24 256 14 14 (1204224)
I0403 14:10:28.151347 12849 net.cpp:156] Memory required for data: 1218065952
I0403 14:10:28.151361 12849 layer_factory.hpp:77] Creating layer inception_4e/3x3_reduce
I0403 14:10:28.151383 12849 net.cpp:91] Creating Layer inception_4e/3x3_reduce
I0403 14:10:28.151399 12849 net.cpp:425] inception_4e/3x3_reduce <- inception_4d/output_inception_4d/output_0_split_2
I0403 14:10:28.151420 12849 net.cpp:399] inception_4e/3x3_reduce -> inception_4e/3x3_reduce
I0403 14:10:28.153556 12849 net.cpp:141] Setting up inception_4e/3x3_reduce
I0403 14:10:28.153587 12849 net.cpp:148] Top shape: 24 160 14 14 (752640)
I0403 14:10:28.153604 12849 net.cpp:156] Memory required for data: 1221076512
I0403 14:10:28.153621 12849 layer_factory.hpp:77] Creating layer inception_4e/relu_3x3_reduce
I0403 14:10:28.153640 12849 net.cpp:91] Creating Layer inception_4e/relu_3x3_reduce
I0403 14:10:28.153656 12849 net.cpp:425] inception_4e/relu_3x3_reduce <- inception_4e/3x3_reduce
I0403 14:10:28.153676 12849 net.cpp:386] inception_4e/relu_3x3_reduce -> inception_4e/3x3_reduce (in-place)
I0403 14:10:28.153861 12849 net.cpp:141] Setting up inception_4e/relu_3x3_reduce
I0403 14:10:28.153884 12849 net.cpp:148] Top shape: 24 160 14 14 (752640)
I0403 14:10:28.153899 12849 net.cpp:156] Memory required for data: 1224087072
I0403 14:10:28.153913 12849 layer_factory.hpp:77] Creating layer inception_4e/3x3
I0403 14:10:28.153934 12849 net.cpp:91] Creating Layer inception_4e/3x3
I0403 14:10:28.153951 12849 net.cpp:425] inception_4e/3x3 <- inception_4e/3x3_reduce
I0403 14:10:28.153972 12849 net.cpp:399] inception_4e/3x3 -> inception_4e/3x3
I0403 14:10:28.158987 12849 net.cpp:141] Setting up inception_4e/3x3
I0403 14:10:28.159029 12849 net.cpp:148] Top shape: 24 320 14 14 (1505280)
I0403 14:10:28.159045 12849 net.cpp:156] Memory required for data: 1230108192
I0403 14:10:28.159065 12849 layer_factory.hpp:77] Creating layer inception_4e/relu_3x3
I0403 14:10:28.159085 12849 net.cpp:91] Creating Layer inception_4e/relu_3x3
I0403 14:10:28.159102 12849 net.cpp:425] inception_4e/relu_3x3 <- inception_4e/3x3
I0403 14:10:28.159119 12849 net.cpp:386] inception_4e/relu_3x3 -> inception_4e/3x3 (in-place)
I0403 14:10:28.159422 12849 net.cpp:141] Setting up inception_4e/relu_3x3
I0403 14:10:28.159448 12849 net.cpp:148] Top shape: 24 320 14 14 (1505280)
I0403 14:10:28.159463 12849 net.cpp:156] Memory required for data: 1236129312
I0403 14:10:28.159477 12849 layer_factory.hpp:77] Creating layer inception_4e/5x5_reduce
I0403 14:10:28.159499 12849 net.cpp:91] Creating Layer inception_4e/5x5_reduce
I0403 14:10:28.159517 12849 net.cpp:425] inception_4e/5x5_reduce <- inception_4d/output_inception_4d/output_0_split_3
I0403 14:10:28.159540 12849 net.cpp:399] inception_4e/5x5_reduce -> inception_4e/5x5_reduce
I0403 14:10:28.160626 12849 net.cpp:141] Setting up inception_4e/5x5_reduce
I0403 14:10:28.160655 12849 net.cpp:148] Top shape: 24 32 14 14 (150528)
I0403 14:10:28.160672 12849 net.cpp:156] Memory required for data: 1236731424
I0403 14:10:28.160691 12849 layer_factory.hpp:77] Creating layer inception_4e/relu_5x5_reduce
I0403 14:10:28.160708 12849 net.cpp:91] Creating Layer inception_4e/relu_5x5_reduce
I0403 14:10:28.160723 12849 net.cpp:425] inception_4e/relu_5x5_reduce <- inception_4e/5x5_reduce
I0403 14:10:28.160742 12849 net.cpp:386] inception_4e/relu_5x5_reduce -> inception_4e/5x5_reduce (in-place)
I0403 14:10:28.161042 12849 net.cpp:141] Setting up inception_4e/relu_5x5_reduce
I0403 14:10:28.161069 12849 net.cpp:148] Top shape: 24 32 14 14 (150528)
I0403 14:10:28.161087 12849 net.cpp:156] Memory required for data: 1237333536
I0403 14:10:28.161100 12849 layer_factory.hpp:77] Creating layer inception_4e/5x5
I0403 14:10:28.161141 12849 net.cpp:91] Creating Layer inception_4e/5x5
I0403 14:10:28.161159 12849 net.cpp:425] inception_4e/5x5 <- inception_4e/5x5_reduce
I0403 14:10:28.161178 12849 net.cpp:399] inception_4e/5x5 -> inception_4e/5x5
I0403 14:10:28.163038 12849 net.cpp:141] Setting up inception_4e/5x5
I0403 14:10:28.163066 12849 net.cpp:148] Top shape: 24 128 14 14 (602112)
I0403 14:10:28.163081 12849 net.cpp:156] Memory required for data: 1239741984
I0403 14:10:28.163100 12849 layer_factory.hpp:77] Creating layer inception_4e/relu_5x5
I0403 14:10:28.163120 12849 net.cpp:91] Creating Layer inception_4e/relu_5x5
I0403 14:10:28.163138 12849 net.cpp:425] inception_4e/relu_5x5 <- inception_4e/5x5
I0403 14:10:28.163156 12849 net.cpp:386] inception_4e/relu_5x5 -> inception_4e/5x5 (in-place)
I0403 14:10:28.163352 12849 net.cpp:141] Setting up inception_4e/relu_5x5
I0403 14:10:28.163377 12849 net.cpp:148] Top shape: 24 128 14 14 (602112)
I0403 14:10:28.163391 12849 net.cpp:156] Memory required for data: 1242150432
I0403 14:10:28.163405 12849 layer_factory.hpp:77] Creating layer inception_4e/pool
I0403 14:10:28.163422 12849 net.cpp:91] Creating Layer inception_4e/pool
I0403 14:10:28.163439 12849 net.cpp:425] inception_4e/pool <- inception_4d/output_inception_4d/output_0_split_4
I0403 14:10:28.163460 12849 net.cpp:399] inception_4e/pool -> inception_4e/pool
I0403 14:10:28.163533 12849 net.cpp:141] Setting up inception_4e/pool
I0403 14:10:28.163561 12849 net.cpp:148] Top shape: 24 528 14 14 (2483712)
I0403 14:10:28.163576 12849 net.cpp:156] Memory required for data: 1252085280
I0403 14:10:28.163589 12849 layer_factory.hpp:77] Creating layer inception_4e/pool_proj
I0403 14:10:28.163612 12849 net.cpp:91] Creating Layer inception_4e/pool_proj
I0403 14:10:28.163630 12849 net.cpp:425] inception_4e/pool_proj <- inception_4e/pool
I0403 14:10:28.163647 12849 net.cpp:399] inception_4e/pool_proj -> inception_4e/pool_proj
I0403 14:10:28.165158 12849 net.cpp:141] Setting up inception_4e/pool_proj
I0403 14:10:28.165199 12849 net.cpp:148] Top shape: 24 128 14 14 (602112)
I0403 14:10:28.165215 12849 net.cpp:156] Memory required for data: 1254493728
I0403 14:10:28.165233 12849 layer_factory.hpp:77] Creating layer inception_4e/relu_pool_proj
I0403 14:10:28.165253 12849 net.cpp:91] Creating Layer inception_4e/relu_pool_proj
I0403 14:10:28.165271 12849 net.cpp:425] inception_4e/relu_pool_proj <- inception_4e/pool_proj
I0403 14:10:28.165287 12849 net.cpp:386] inception_4e/relu_pool_proj -> inception_4e/pool_proj (in-place)
I0403 14:10:28.165585 12849 net.cpp:141] Setting up inception_4e/relu_pool_proj
I0403 14:10:28.165611 12849 net.cpp:148] Top shape: 24 128 14 14 (602112)
I0403 14:10:28.165626 12849 net.cpp:156] Memory required for data: 1256902176
I0403 14:10:28.165639 12849 layer_factory.hpp:77] Creating layer inception_4e/output
I0403 14:10:28.165659 12849 net.cpp:91] Creating Layer inception_4e/output
I0403 14:10:28.165675 12849 net.cpp:425] inception_4e/output <- inception_4e/1x1
I0403 14:10:28.165691 12849 net.cpp:425] inception_4e/output <- inception_4e/3x3
I0403 14:10:28.165706 12849 net.cpp:425] inception_4e/output <- inception_4e/5x5
I0403 14:10:28.165722 12849 net.cpp:425] inception_4e/output <- inception_4e/pool_proj
I0403 14:10:28.165738 12849 net.cpp:399] inception_4e/output -> inception_4e/output
I0403 14:10:28.165791 12849 net.cpp:141] Setting up inception_4e/output
I0403 14:10:28.165813 12849 net.cpp:148] Top shape: 24 832 14 14 (3913728)
I0403 14:10:28.165827 12849 net.cpp:156] Memory required for data: 1272557088
I0403 14:10:28.165841 12849 layer_factory.hpp:77] Creating layer pool4/3x3_s2
I0403 14:10:28.165858 12849 net.cpp:91] Creating Layer pool4/3x3_s2
I0403 14:10:28.165874 12849 net.cpp:425] pool4/3x3_s2 <- inception_4e/output
I0403 14:10:28.165892 12849 net.cpp:399] pool4/3x3_s2 -> pool4/3x3_s2
I0403 14:10:28.165959 12849 net.cpp:141] Setting up pool4/3x3_s2
I0403 14:10:28.165982 12849 net.cpp:148] Top shape: 24 832 7 7 (978432)
I0403 14:10:28.165997 12849 net.cpp:156] Memory required for data: 1276470816
I0403 14:10:28.166010 12849 layer_factory.hpp:77] Creating layer pool4/3x3_s2_pool4/3x3_s2_0_split
I0403 14:10:28.166031 12849 net.cpp:91] Creating Layer pool4/3x3_s2_pool4/3x3_s2_0_split
I0403 14:10:28.166048 12849 net.cpp:425] pool4/3x3_s2_pool4/3x3_s2_0_split <- pool4/3x3_s2
I0403 14:10:28.166066 12849 net.cpp:399] pool4/3x3_s2_pool4/3x3_s2_0_split -> pool4/3x3_s2_pool4/3x3_s2_0_split_0
I0403 14:10:28.166086 12849 net.cpp:399] pool4/3x3_s2_pool4/3x3_s2_0_split -> pool4/3x3_s2_pool4/3x3_s2_0_split_1
I0403 14:10:28.166106 12849 net.cpp:399] pool4/3x3_s2_pool4/3x3_s2_0_split -> pool4/3x3_s2_pool4/3x3_s2_0_split_2
I0403 14:10:28.166126 12849 net.cpp:399] pool4/3x3_s2_pool4/3x3_s2_0_split -> pool4/3x3_s2_pool4/3x3_s2_0_split_3
I0403 14:10:28.166219 12849 net.cpp:141] Setting up pool4/3x3_s2_pool4/3x3_s2_0_split
I0403 14:10:28.166245 12849 net.cpp:148] Top shape: 24 832 7 7 (978432)
I0403 14:10:28.166265 12849 net.cpp:148] Top shape: 24 832 7 7 (978432)
I0403 14:10:28.166280 12849 net.cpp:148] Top shape: 24 832 7 7 (978432)
I0403 14:10:28.166296 12849 net.cpp:148] Top shape: 24 832 7 7 (978432)
I0403 14:10:28.166311 12849 net.cpp:156] Memory required for data: 1292125728
I0403 14:10:28.166326 12849 layer_factory.hpp:77] Creating layer inception_5a/1x1
I0403 14:10:28.166353 12849 net.cpp:91] Creating Layer inception_5a/1x1
I0403 14:10:28.166371 12849 net.cpp:425] inception_5a/1x1 <- pool4/3x3_s2_pool4/3x3_s2_0_split_0
I0403 14:10:28.166393 12849 net.cpp:399] inception_5a/1x1 -> inception_5a/1x1
I0403 14:10:28.169332 12849 net.cpp:141] Setting up inception_5a/1x1
I0403 14:10:28.169361 12849 net.cpp:148] Top shape: 24 256 7 7 (301056)
I0403 14:10:28.169376 12849 net.cpp:156] Memory required for data: 1293329952
I0403 14:10:28.169394 12849 layer_factory.hpp:77] Creating layer inception_5a/relu_1x1
I0403 14:10:28.169410 12849 net.cpp:91] Creating Layer inception_5a/relu_1x1
I0403 14:10:28.169426 12849 net.cpp:425] inception_5a/relu_1x1 <- inception_5a/1x1
I0403 14:10:28.169445 12849 net.cpp:386] inception_5a/relu_1x1 -> inception_5a/1x1 (in-place)
I0403 14:10:28.169752 12849 net.cpp:141] Setting up inception_5a/relu_1x1
I0403 14:10:28.169780 12849 net.cpp:148] Top shape: 24 256 7 7 (301056)
I0403 14:10:28.169795 12849 net.cpp:156] Memory required for data: 1294534176
I0403 14:10:28.169809 12849 layer_factory.hpp:77] Creating layer inception_5a/3x3_reduce
I0403 14:10:28.169832 12849 net.cpp:91] Creating Layer inception_5a/3x3_reduce
I0403 14:10:28.169849 12849 net.cpp:425] inception_5a/3x3_reduce <- pool4/3x3_s2_pool4/3x3_s2_0_split_1
I0403 14:10:28.169868 12849 net.cpp:399] inception_5a/3x3_reduce -> inception_5a/3x3_reduce
I0403 14:10:28.172297 12849 net.cpp:141] Setting up inception_5a/3x3_reduce
I0403 14:10:28.172327 12849 net.cpp:148] Top shape: 24 160 7 7 (188160)
I0403 14:10:28.172341 12849 net.cpp:156] Memory required for data: 1295286816
I0403 14:10:28.172358 12849 layer_factory.hpp:77] Creating layer inception_5a/relu_3x3_reduce
I0403 14:10:28.172391 12849 net.cpp:91] Creating Layer inception_5a/relu_3x3_reduce
I0403 14:10:28.172408 12849 net.cpp:425] inception_5a/relu_3x3_reduce <- inception_5a/3x3_reduce
I0403 14:10:28.172426 12849 net.cpp:386] inception_5a/relu_3x3_reduce -> inception_5a/3x3_reduce (in-place)
I0403 14:10:28.172616 12849 net.cpp:141] Setting up inception_5a/relu_3x3_reduce
I0403 14:10:28.172642 12849 net.cpp:148] Top shape: 24 160 7 7 (188160)
I0403 14:10:28.172657 12849 net.cpp:156] Memory required for data: 1296039456
I0403 14:10:28.172672 12849 layer_factory.hpp:77] Creating layer inception_5a/3x3
I0403 14:10:28.172695 12849 net.cpp:91] Creating Layer inception_5a/3x3
I0403 14:10:28.172724 12849 net.cpp:425] inception_5a/3x3 <- inception_5a/3x3_reduce
I0403 14:10:28.172742 12849 net.cpp:399] inception_5a/3x3 -> inception_5a/3x3
I0403 14:10:28.177742 12849 net.cpp:141] Setting up inception_5a/3x3
I0403 14:10:28.177774 12849 net.cpp:148] Top shape: 24 320 7 7 (376320)
I0403 14:10:28.177790 12849 net.cpp:156] Memory required for data: 1297544736
I0403 14:10:28.177809 12849 layer_factory.hpp:77] Creating layer inception_5a/relu_3x3
I0403 14:10:28.177827 12849 net.cpp:91] Creating Layer inception_5a/relu_3x3
I0403 14:10:28.177844 12849 net.cpp:425] inception_5a/relu_3x3 <- inception_5a/3x3
I0403 14:10:28.177863 12849 net.cpp:386] inception_5a/relu_3x3 -> inception_5a/3x3 (in-place)
I0403 14:10:28.178158 12849 net.cpp:141] Setting up inception_5a/relu_3x3
I0403 14:10:28.178186 12849 net.cpp:148] Top shape: 24 320 7 7 (376320)
I0403 14:10:28.178202 12849 net.cpp:156] Memory required for data: 1299050016
I0403 14:10:28.178217 12849 layer_factory.hpp:77] Creating layer inception_5a/5x5_reduce
I0403 14:10:28.178239 12849 net.cpp:91] Creating Layer inception_5a/5x5_reduce
I0403 14:10:28.178257 12849 net.cpp:425] inception_5a/5x5_reduce <- pool4/3x3_s2_pool4/3x3_s2_0_split_2
I0403 14:10:28.178277 12849 net.cpp:399] inception_5a/5x5_reduce -> inception_5a/5x5_reduce
I0403 14:10:28.179451 12849 net.cpp:141] Setting up inception_5a/5x5_reduce
I0403 14:10:28.179482 12849 net.cpp:148] Top shape: 24 32 7 7 (37632)
I0403 14:10:28.179498 12849 net.cpp:156] Memory required for data: 1299200544
I0403 14:10:28.179517 12849 layer_factory.hpp:77] Creating layer inception_5a/relu_5x5_reduce
I0403 14:10:28.179534 12849 net.cpp:91] Creating Layer inception_5a/relu_5x5_reduce
I0403 14:10:28.179554 12849 net.cpp:425] inception_5a/relu_5x5_reduce <- inception_5a/5x5_reduce
I0403 14:10:28.179574 12849 net.cpp:386] inception_5a/relu_5x5_reduce -> inception_5a/5x5_reduce (in-place)
I0403 14:10:28.179875 12849 net.cpp:141] Setting up inception_5a/relu_5x5_reduce
I0403 14:10:28.179900 12849 net.cpp:148] Top shape: 24 32 7 7 (37632)
I0403 14:10:28.179915 12849 net.cpp:156] Memory required for data: 1299351072
I0403 14:10:28.179929 12849 layer_factory.hpp:77] Creating layer inception_5a/5x5
I0403 14:10:28.179951 12849 net.cpp:91] Creating Layer inception_5a/5x5
I0403 14:10:28.179968 12849 net.cpp:425] inception_5a/5x5 <- inception_5a/5x5_reduce
I0403 14:10:28.179989 12849 net.cpp:399] inception_5a/5x5 -> inception_5a/5x5
I0403 14:10:28.181715 12849 net.cpp:141] Setting up inception_5a/5x5
I0403 14:10:28.181756 12849 net.cpp:148] Top shape: 24 128 7 7 (150528)
I0403 14:10:28.181771 12849 net.cpp:156] Memory required for data: 1299953184
I0403 14:10:28.181788 12849 layer_factory.hpp:77] Creating layer inception_5a/relu_5x5
I0403 14:10:28.181807 12849 net.cpp:91] Creating Layer inception_5a/relu_5x5
I0403 14:10:28.181831 12849 net.cpp:425] inception_5a/relu_5x5 <- inception_5a/5x5
I0403 14:10:28.181850 12849 net.cpp:386] inception_5a/relu_5x5 -> inception_5a/5x5 (in-place)
I0403 14:10:28.182037 12849 net.cpp:141] Setting up inception_5a/relu_5x5
I0403 14:10:28.182061 12849 net.cpp:148] Top shape: 24 128 7 7 (150528)
I0403 14:10:28.182075 12849 net.cpp:156] Memory required for data: 1300555296
I0403 14:10:28.182090 12849 layer_factory.hpp:77] Creating layer inception_5a/pool
I0403 14:10:28.182106 12849 net.cpp:91] Creating Layer inception_5a/pool
I0403 14:10:28.182121 12849 net.cpp:425] inception_5a/pool <- pool4/3x3_s2_pool4/3x3_s2_0_split_3
I0403 14:10:28.182140 12849 net.cpp:399] inception_5a/pool -> inception_5a/pool
I0403 14:10:28.182210 12849 net.cpp:141] Setting up inception_5a/pool
I0403 14:10:28.182234 12849 net.cpp:148] Top shape: 24 832 7 7 (978432)
I0403 14:10:28.182247 12849 net.cpp:156] Memory required for data: 1304469024
I0403 14:10:28.182262 12849 layer_factory.hpp:77] Creating layer inception_5a/pool_proj
I0403 14:10:28.182286 12849 net.cpp:91] Creating Layer inception_5a/pool_proj
I0403 14:10:28.182308 12849 net.cpp:425] inception_5a/pool_proj <- inception_5a/pool
I0403 14:10:28.182327 12849 net.cpp:399] inception_5a/pool_proj -> inception_5a/pool_proj
I0403 14:10:28.184633 12849 net.cpp:141] Setting up inception_5a/pool_proj
I0403 14:10:28.184662 12849 net.cpp:148] Top shape: 24 128 7 7 (150528)
I0403 14:10:28.184680 12849 net.cpp:156] Memory required for data: 1305071136
I0403 14:10:28.184698 12849 layer_factory.hpp:77] Creating layer inception_5a/relu_pool_proj
I0403 14:10:28.184716 12849 net.cpp:91] Creating Layer inception_5a/relu_pool_proj
I0403 14:10:28.184732 12849 net.cpp:425] inception_5a/relu_pool_proj <- inception_5a/pool_proj
I0403 14:10:28.184751 12849 net.cpp:386] inception_5a/relu_pool_proj -> inception_5a/pool_proj (in-place)
I0403 14:10:28.185045 12849 net.cpp:141] Setting up inception_5a/relu_pool_proj
I0403 14:10:28.185070 12849 net.cpp:148] Top shape: 24 128 7 7 (150528)
I0403 14:10:28.185087 12849 net.cpp:156] Memory required for data: 1305673248
I0403 14:10:28.185102 12849 layer_factory.hpp:77] Creating layer inception_5a/output
I0403 14:10:28.185119 12849 net.cpp:91] Creating Layer inception_5a/output
I0403 14:10:28.185134 12849 net.cpp:425] inception_5a/output <- inception_5a/1x1
I0403 14:10:28.185150 12849 net.cpp:425] inception_5a/output <- inception_5a/3x3
I0403 14:10:28.185166 12849 net.cpp:425] inception_5a/output <- inception_5a/5x5
I0403 14:10:28.185183 12849 net.cpp:425] inception_5a/output <- inception_5a/pool_proj
I0403 14:10:28.185199 12849 net.cpp:399] inception_5a/output -> inception_5a/output
I0403 14:10:28.185250 12849 net.cpp:141] Setting up inception_5a/output
I0403 14:10:28.185274 12849 net.cpp:148] Top shape: 24 832 7 7 (978432)
I0403 14:10:28.185289 12849 net.cpp:156] Memory required for data: 1309586976
I0403 14:10:28.185304 12849 layer_factory.hpp:77] Creating layer inception_5a/output_inception_5a/output_0_split
I0403 14:10:28.185320 12849 net.cpp:91] Creating Layer inception_5a/output_inception_5a/output_0_split
I0403 14:10:28.185335 12849 net.cpp:425] inception_5a/output_inception_5a/output_0_split <- inception_5a/output
I0403 14:10:28.185354 12849 net.cpp:399] inception_5a/output_inception_5a/output_0_split -> inception_5a/output_inception_5a/output_0_split_0
I0403 14:10:28.185375 12849 net.cpp:399] inception_5a/output_inception_5a/output_0_split -> inception_5a/output_inception_5a/output_0_split_1
I0403 14:10:28.185395 12849 net.cpp:399] inception_5a/output_inception_5a/output_0_split -> inception_5a/output_inception_5a/output_0_split_2
I0403 14:10:28.185415 12849 net.cpp:399] inception_5a/output_inception_5a/output_0_split -> inception_5a/output_inception_5a/output_0_split_3
I0403 14:10:28.185528 12849 net.cpp:141] Setting up inception_5a/output_inception_5a/output_0_split
I0403 14:10:28.185555 12849 net.cpp:148] Top shape: 24 832 7 7 (978432)
I0403 14:10:28.185572 12849 net.cpp:148] Top shape: 24 832 7 7 (978432)
I0403 14:10:28.185587 12849 net.cpp:148] Top shape: 24 832 7 7 (978432)
I0403 14:10:28.185601 12849 net.cpp:148] Top shape: 24 832 7 7 (978432)
I0403 14:10:28.185614 12849 net.cpp:156] Memory required for data: 1325241888
I0403 14:10:28.185628 12849 layer_factory.hpp:77] Creating layer inception_5b/1x1
I0403 14:10:28.185650 12849 net.cpp:91] Creating Layer inception_5b/1x1
I0403 14:10:28.185667 12849 net.cpp:425] inception_5b/1x1 <- inception_5a/output_inception_5a/output_0_split_0
I0403 14:10:28.185688 12849 net.cpp:399] inception_5b/1x1 -> inception_5b/1x1
I0403 14:10:28.189452 12849 net.cpp:141] Setting up inception_5b/1x1
I0403 14:10:28.189494 12849 net.cpp:148] Top shape: 24 384 7 7 (451584)
I0403 14:10:28.189510 12849 net.cpp:156] Memory required for data: 1327048224
I0403 14:10:28.189528 12849 layer_factory.hpp:77] Creating layer inception_5b/relu_1x1
I0403 14:10:28.189553 12849 net.cpp:91] Creating Layer inception_5b/relu_1x1
I0403 14:10:28.189571 12849 net.cpp:425] inception_5b/relu_1x1 <- inception_5b/1x1
I0403 14:10:28.189589 12849 net.cpp:386] inception_5b/relu_1x1 -> inception_5b/1x1 (in-place)
I0403 14:10:28.189911 12849 net.cpp:141] Setting up inception_5b/relu_1x1
I0403 14:10:28.189936 12849 net.cpp:148] Top shape: 24 384 7 7 (451584)
I0403 14:10:28.189950 12849 net.cpp:156] Memory required for data: 1328854560
I0403 14:10:28.189965 12849 layer_factory.hpp:77] Creating layer inception_5b/3x3_reduce
I0403 14:10:28.189985 12849 net.cpp:91] Creating Layer inception_5b/3x3_reduce
I0403 14:10:28.190002 12849 net.cpp:425] inception_5b/3x3_reduce <- inception_5a/output_inception_5a/output_0_split_1
I0403 14:10:28.190024 12849 net.cpp:399] inception_5b/3x3_reduce -> inception_5b/3x3_reduce
I0403 14:10:28.192718 12849 net.cpp:141] Setting up inception_5b/3x3_reduce
I0403 14:10:28.192749 12849 net.cpp:148] Top shape: 24 192 7 7 (225792)
I0403 14:10:28.192764 12849 net.cpp:156] Memory required for data: 1329757728
I0403 14:10:28.192781 12849 layer_factory.hpp:77] Creating layer inception_5b/relu_3x3_reduce
I0403 14:10:28.192801 12849 net.cpp:91] Creating Layer inception_5b/relu_3x3_reduce
I0403 14:10:28.192817 12849 net.cpp:425] inception_5b/relu_3x3_reduce <- inception_5b/3x3_reduce
I0403 14:10:28.192834 12849 net.cpp:386] inception_5b/relu_3x3_reduce -> inception_5b/3x3_reduce (in-place)
I0403 14:10:28.193037 12849 net.cpp:141] Setting up inception_5b/relu_3x3_reduce
I0403 14:10:28.193063 12849 net.cpp:148] Top shape: 24 192 7 7 (225792)
I0403 14:10:28.193078 12849 net.cpp:156] Memory required for data: 1330660896
I0403 14:10:28.193092 12849 layer_factory.hpp:77] Creating layer inception_5b/3x3
I0403 14:10:28.193114 12849 net.cpp:91] Creating Layer inception_5b/3x3
I0403 14:10:28.193130 12849 net.cpp:425] inception_5b/3x3 <- inception_5b/3x3_reduce
I0403 14:10:28.193148 12849 net.cpp:399] inception_5b/3x3 -> inception_5b/3x3
I0403 14:10:28.199858 12849 net.cpp:141] Setting up inception_5b/3x3
I0403 14:10:28.199887 12849 net.cpp:148] Top shape: 24 384 7 7 (451584)
I0403 14:10:28.199905 12849 net.cpp:156] Memory required for data: 1332467232
I0403 14:10:28.199923 12849 layer_factory.hpp:77] Creating layer inception_5b/relu_3x3
I0403 14:10:28.199941 12849 net.cpp:91] Creating Layer inception_5b/relu_3x3
I0403 14:10:28.199956 12849 net.cpp:425] inception_5b/relu_3x3 <- inception_5b/3x3
I0403 14:10:28.199972 12849 net.cpp:386] inception_5b/relu_3x3 -> inception_5b/3x3 (in-place)
I0403 14:10:28.200284 12849 net.cpp:141] Setting up inception_5b/relu_3x3
I0403 14:10:28.200325 12849 net.cpp:148] Top shape: 24 384 7 7 (451584)
I0403 14:10:28.200340 12849 net.cpp:156] Memory required for data: 1334273568
I0403 14:10:28.200355 12849 layer_factory.hpp:77] Creating layer inception_5b/5x5_reduce
I0403 14:10:28.200393 12849 net.cpp:91] Creating Layer inception_5b/5x5_reduce
I0403 14:10:28.200410 12849 net.cpp:425] inception_5b/5x5_reduce <- inception_5a/output_inception_5a/output_0_split_2
I0403 14:10:28.200430 12849 net.cpp:399] inception_5b/5x5_reduce -> inception_5b/5x5_reduce
I0403 14:10:28.201678 12849 net.cpp:141] Setting up inception_5b/5x5_reduce
I0403 14:10:28.201716 12849 net.cpp:148] Top shape: 24 48 7 7 (56448)
I0403 14:10:28.201732 12849 net.cpp:156] Memory required for data: 1334499360
I0403 14:10:28.201751 12849 layer_factory.hpp:77] Creating layer inception_5b/relu_5x5_reduce
I0403 14:10:28.201772 12849 net.cpp:91] Creating Layer inception_5b/relu_5x5_reduce
I0403 14:10:28.201789 12849 net.cpp:425] inception_5b/relu_5x5_reduce <- inception_5b/5x5_reduce
I0403 14:10:28.201807 12849 net.cpp:386] inception_5b/relu_5x5_reduce -> inception_5b/5x5_reduce (in-place)
I0403 14:10:28.202188 12849 net.cpp:141] Setting up inception_5b/relu_5x5_reduce
I0403 14:10:28.202213 12849 net.cpp:148] Top shape: 24 48 7 7 (56448)
I0403 14:10:28.202227 12849 net.cpp:156] Memory required for data: 1334725152
I0403 14:10:28.202241 12849 layer_factory.hpp:77] Creating layer inception_5b/5x5
I0403 14:10:28.202260 12849 net.cpp:91] Creating Layer inception_5b/5x5
I0403 14:10:28.202277 12849 net.cpp:425] inception_5b/5x5 <- inception_5b/5x5_reduce
I0403 14:10:28.202296 12849 net.cpp:399] inception_5b/5x5 -> inception_5b/5x5
I0403 14:10:28.204357 12849 net.cpp:141] Setting up inception_5b/5x5
I0403 14:10:28.204386 12849 net.cpp:148] Top shape: 24 128 7 7 (150528)
I0403 14:10:28.204402 12849 net.cpp:156] Memory required for data: 1335327264
I0403 14:10:28.204419 12849 layer_factory.hpp:77] Creating layer inception_5b/relu_5x5
I0403 14:10:28.204437 12849 net.cpp:91] Creating Layer inception_5b/relu_5x5
I0403 14:10:28.204452 12849 net.cpp:425] inception_5b/relu_5x5 <- inception_5b/5x5
I0403 14:10:28.204468 12849 net.cpp:386] inception_5b/relu_5x5 -> inception_5b/5x5 (in-place)
I0403 14:10:28.204669 12849 net.cpp:141] Setting up inception_5b/relu_5x5
I0403 14:10:28.204694 12849 net.cpp:148] Top shape: 24 128 7 7 (150528)
I0403 14:10:28.204707 12849 net.cpp:156] Memory required for data: 1335929376
I0403 14:10:28.204721 12849 layer_factory.hpp:77] Creating layer inception_5b/pool
I0403 14:10:28.204738 12849 net.cpp:91] Creating Layer inception_5b/pool
I0403 14:10:28.204754 12849 net.cpp:425] inception_5b/pool <- inception_5a/output_inception_5a/output_0_split_3
I0403 14:10:28.204773 12849 net.cpp:399] inception_5b/pool -> inception_5b/pool
I0403 14:10:28.204844 12849 net.cpp:141] Setting up inception_5b/pool
I0403 14:10:28.204869 12849 net.cpp:148] Top shape: 24 832 7 7 (978432)
I0403 14:10:28.204884 12849 net.cpp:156] Memory required for data: 1339843104
I0403 14:10:28.204896 12849 layer_factory.hpp:77] Creating layer inception_5b/pool_proj
I0403 14:10:28.204917 12849 net.cpp:91] Creating Layer inception_5b/pool_proj
I0403 14:10:28.204936 12849 net.cpp:425] inception_5b/pool_proj <- inception_5b/pool
I0403 14:10:28.204953 12849 net.cpp:399] inception_5b/pool_proj -> inception_5b/pool_proj
I0403 14:10:28.207286 12849 net.cpp:141] Setting up inception_5b/pool_proj
I0403 14:10:28.207315 12849 net.cpp:148] Top shape: 24 128 7 7 (150528)
I0403 14:10:28.207330 12849 net.cpp:156] Memory required for data: 1340445216
I0403 14:10:28.207348 12849 layer_factory.hpp:77] Creating layer inception_5b/relu_pool_proj
I0403 14:10:28.207367 12849 net.cpp:91] Creating Layer inception_5b/relu_pool_proj
I0403 14:10:28.207384 12849 net.cpp:425] inception_5b/relu_pool_proj <- inception_5b/pool_proj
I0403 14:10:28.207401 12849 net.cpp:386] inception_5b/relu_pool_proj -> inception_5b/pool_proj (in-place)
I0403 14:10:28.207701 12849 net.cpp:141] Setting up inception_5b/relu_pool_proj
I0403 14:10:28.207726 12849 net.cpp:148] Top shape: 24 128 7 7 (150528)
I0403 14:10:28.207741 12849 net.cpp:156] Memory required for data: 1341047328
I0403 14:10:28.207756 12849 layer_factory.hpp:77] Creating layer inception_5b/output
I0403 14:10:28.207774 12849 net.cpp:91] Creating Layer inception_5b/output
I0403 14:10:28.207804 12849 net.cpp:425] inception_5b/output <- inception_5b/1x1
I0403 14:10:28.207821 12849 net.cpp:425] inception_5b/output <- inception_5b/3x3
I0403 14:10:28.207837 12849 net.cpp:425] inception_5b/output <- inception_5b/5x5
I0403 14:10:28.207852 12849 net.cpp:425] inception_5b/output <- inception_5b/pool_proj
I0403 14:10:28.207870 12849 net.cpp:399] inception_5b/output -> inception_5b/output
I0403 14:10:28.207921 12849 net.cpp:141] Setting up inception_5b/output
I0403 14:10:28.207943 12849 net.cpp:148] Top shape: 24 1024 7 7 (1204224)
I0403 14:10:28.207957 12849 net.cpp:156] Memory required for data: 1345864224
I0403 14:10:28.207972 12849 layer_factory.hpp:77] Creating layer pool5/7x7_s1
I0403 14:10:28.207988 12849 net.cpp:91] Creating Layer pool5/7x7_s1
I0403 14:10:28.208003 12849 net.cpp:425] pool5/7x7_s1 <- inception_5b/output
I0403 14:10:28.208022 12849 net.cpp:399] pool5/7x7_s1 -> pool5/7x7_s1
I0403 14:10:28.208235 12849 net.cpp:141] Setting up pool5/7x7_s1
I0403 14:10:28.208261 12849 net.cpp:148] Top shape: 24 1024 1 1 (24576)
I0403 14:10:28.208276 12849 net.cpp:156] Memory required for data: 1345962528
I0403 14:10:28.208290 12849 layer_factory.hpp:77] Creating layer pool5/drop_7x7_s1
I0403 14:10:28.208308 12849 net.cpp:91] Creating Layer pool5/drop_7x7_s1
I0403 14:10:28.208323 12849 net.cpp:425] pool5/drop_7x7_s1 <- pool5/7x7_s1
I0403 14:10:28.208340 12849 net.cpp:386] pool5/drop_7x7_s1 -> pool5/7x7_s1 (in-place)
I0403 14:10:28.208389 12849 net.cpp:141] Setting up pool5/drop_7x7_s1
I0403 14:10:28.208411 12849 net.cpp:148] Top shape: 24 1024 1 1 (24576)
I0403 14:10:28.208425 12849 net.cpp:156] Memory required for data: 1346060832
I0403 14:10:28.208438 12849 layer_factory.hpp:77] Creating layer loss3/classifier_plantvillage
I0403 14:10:28.208458 12849 net.cpp:91] Creating Layer loss3/classifier_plantvillage
I0403 14:10:28.208475 12849 net.cpp:425] loss3/classifier_plantvillage <- pool5/7x7_s1
I0403 14:10:28.208494 12849 net.cpp:399] loss3/classifier_plantvillage -> loss3/classifier_plantvillage
I0403 14:10:28.208946 12849 net.cpp:141] Setting up loss3/classifier_plantvillage
I0403 14:10:28.208971 12849 net.cpp:148] Top shape: 24 38 (912)
I0403 14:10:28.208984 12849 net.cpp:156] Memory required for data: 1346064480
I0403 14:10:28.209002 12849 layer_factory.hpp:77] Creating layer loss3/classifier_plantvillage_loss3/classifier_plantvillage_0_split
I0403 14:10:28.209019 12849 net.cpp:91] Creating Layer loss3/classifier_plantvillage_loss3/classifier_plantvillage_0_split
I0403 14:10:28.209043 12849 net.cpp:425] loss3/classifier_plantvillage_loss3/classifier_plantvillage_0_split <- loss3/classifier_plantvillage
I0403 14:10:28.209059 12849 net.cpp:399] loss3/classifier_plantvillage_loss3/classifier_plantvillage_0_split -> loss3/classifier_plantvillage_loss3/classifier_plantvillage_0_split_0
I0403 14:10:28.209079 12849 net.cpp:399] loss3/classifier_plantvillage_loss3/classifier_plantvillage_0_split -> loss3/classifier_plantvillage_loss3/classifier_plantvillage_0_split_1
I0403 14:10:28.209098 12849 net.cpp:399] loss3/classifier_plantvillage_loss3/classifier_plantvillage_0_split -> loss3/classifier_plantvillage_loss3/classifier_plantvillage_0_split_2
I0403 14:10:28.209117 12849 net.cpp:399] loss3/classifier_plantvillage_loss3/classifier_plantvillage_0_split -> loss3/classifier_plantvillage_loss3/classifier_plantvillage_0_split_3
I0403 14:10:28.209216 12849 net.cpp:141] Setting up loss3/classifier_plantvillage_loss3/classifier_plantvillage_0_split
I0403 14:10:28.209239 12849 net.cpp:148] Top shape: 24 38 (912)
I0403 14:10:28.209254 12849 net.cpp:148] Top shape: 24 38 (912)
I0403 14:10:28.209269 12849 net.cpp:148] Top shape: 24 38 (912)
I0403 14:10:28.209282 12849 net.cpp:148] Top shape: 24 38 (912)
I0403 14:10:28.209295 12849 net.cpp:156] Memory required for data: 1346079072
I0403 14:10:28.209311 12849 layer_factory.hpp:77] Creating layer loss1/loss
I0403 14:10:28.209331 12849 net.cpp:91] Creating Layer loss1/loss
I0403 14:10:28.209347 12849 net.cpp:425] loss1/loss <- loss1/classifier_plantvillage_loss1/classifier_plantvillage_0_split_0
I0403 14:10:28.209378 12849 net.cpp:425] loss1/loss <- label_data_1_split_0
…
