…
I0403 14:49:10.260622 13660 net.cpp:313] The NetState phase (1) differed from the phase (0) specified by a rule in layer data
I0403 14:49:10.261745 13660 net.cpp:49] Initializing net from parameters: 
state {
  phase: TEST
}
layer {
  name: "data"
  type: "Data"
  top: "data"
  top: "label"
  include {
    phase: TEST
  }
  transform_param {
    mirror: false
    crop_size: 224
    mean_file: "/home/mohanty/data/final_dataset/lmdb/segmented-20-80/mean.binaryproto"
  }
  data_param {
    source: "/home/mohanty/data/final_dataset/lmdb/segmented-20-80/test_db"
    batch_size: 24
    backend: LMDB
  }
}
layer {
  name: "conv1/7x7_s2"
  type: "Convolution"
  bottom: "data"
  top: "conv1/7x7_s2"
  param {
    lr_mult: 1
    decay_mult: 1
  }
  param {
    lr_mult: 2
    decay_mult: 0
  }
  convolution_param {
    num_output: 64
    pad: 3
    kernel_size: 7
    stride: 2
    weight_filler {
      type: "xavier"
      std: 0.1
    }
    bias_filler {
      type: "constant"
      value: 0.2
    }
  }
}
layer {
  name: "conv1/relu_7x7"
  type: "ReLU"
  bottom: "conv1/7x7_s2"
  top: "conv1/7x7_s2"
}
layer {
  name: "pool1/3x3_s2"
  type: "Pooling"
  bottom: "conv1/7x7_s2"
  top: "pool1/3x3_s2"
  pooling_param {
    pool: MAX
    kernel_size: 3
    stride: 2
  }
}
layer {
  name: "pool1/norm1"
  type: "LRN"
  bottom: "pool1/3x3_s2"
  top: "pool1/norm1"
  lrn_param {
    local_size: 5
    alpha: 0.0001
    beta: 0.75
  }
}
layer {
  name: "conv2/3x3_reduce"
  type: "Convolution"
  bottom: "pool1/norm1"
  top: "conv2/3x3_reduce"
  param {
    lr_mult: 1
    decay_mult: 1
  }
  param {
    lr_mult: 2
    decay_mult: 0
  }
  convolution_param {
    num_output: 64
    kernel_size: 1
    weight_filler {
      type: "xavier"
      std: 0.1
    }
    bias_filler {
      type: "constant"
      value: 0.2
    }
  }
}
layer {
  name: "conv2/relu_3x3_reduce"
  type: "ReLU"
  bottom: "conv2/3x3_reduce"
  top: "conv2/3x3_reduce"
}
layer {
  name: "conv2/3x3"
  type: "Convolution"
  bottom: "conv2/3x3_reduce"
  top: "conv2/3x3"
  param {
    lr_mult: 1
    decay_mult: 1
  }
  param {
    lr_mult: 2
    decay_mult: 0
  }
  convolution_param {
    num_output: 192
    pad: 1
    kernel_size: 3
    weight_filler {
      type: "xavier"
      std: 0.03
    }
    bias_filler {
      type: "constant"
      value: 0.2
    }
  }
}
layer {
  name: "conv2/relu_3x3"
  type: "ReLU"
  bottom: "conv2/3x3"
  top: "conv2/3x3"
}
layer {
  name: "conv2/norm2"
  type: "LRN"
  bottom: "conv2/3x3"
  top: "conv2/norm2"
  lrn_param {
    local_size: 5
    alpha: 0.0001
    beta: 0.75
  }
}
layer {
  name: "pool2/3x3_s2"
  type: "Pooling"
  bottom: "conv2/norm2"
  top: "pool2/3x3_s2"
  pooling_param {
    pool: MAX
    kernel_size: 3
    stride: 2
  }
}
layer {
  name: "inception_3a/1x1"
  type: "Convolution"
  bottom: "pool2/3x3_s2"
  top: "inception_3a/1x1"
  param {
    lr_mult: 1
    decay_mult: 1
  }
  param {
    lr_mult: 2
    decay_mult: 0
  }
  convolution_param {
    num_output: 64
    kernel_size: 1
    weight_filler {
      type: "xavier"
      std: 0.03
    }
    bias_filler {
      type: "constant"
      value: 0.2
    }
  }
}
layer {
  name: "inception_3a/relu_1x1"
  type: "ReLU"
  bottom: "inception_3a/1x1"
  top: "inception_3a/1x1"
}
layer {
  name: "inception_3a/3x3_reduce"
  type: "Convolution"
  bottom: "pool2/3x3_s2"
  top: "inception_3a/3x3_reduce"
  param {
    lr_mult: 1
    decay_mult: 1
  }
  param {
    lr_mult: 2
    decay_mult: 0
  }
  convolution_param {
    num_output: 96
    kernel_size: 1
    weight_filler {
      type: "xavier"
      std: 0.09
    }
    bias_filler {
      type: "constant"
      value: 0.2
    }
  }
}
layer {
  name: "inception_3a/relu_3x3_reduce"
  type: "ReLU"
  bottom: "inception_3a/3x3_reduce"
  top: "inception_3a/3x3_reduce"
}
layer {
  name: "inception_3a/3x3"
  type: "Convolution"
  bottom: "inception_3a/3x3_reduce"
  top: "inception_3a/3x3"
  param {
    lr_mult: 1
    decay_mult: 1
  }
  param {
    lr_mult: 2
    decay_mult: 0
  }
  convolution_param {
    num_output: 128
    pad: 1
    kernel_size: 3
    weight_filler {
      type: "xavier"
      std: 0.03
    }
    bias_filler {
      type: "constant"
      value: 0.2
    }
  }
}
layer {
  name: "inception_3a/relu_3x3"
  type: "ReLU"
  bottom: "inception_3a/3x3"
  top: "inception_3a/3x3"
}
layer {
  name: "inception_3a/5x5_reduce"
  type: "Convolution"
  bottom: "pool2/3x3_s2"
  top: "inception_3a/5x5_reduce"
  param {
    lr_mult: 1
    decay_mult: 1
  }
  param {
    lr_mult: 2
    decay_mult: 0
  }
  convolution_param {
    num_output: 16
    kernel_size: 1
    weight_filler {
      type: "xavier"
      std: 0.2
    }
    bias_filler {
      type: "constant"
      value: 0.2
    }
  }
}
layer {
  name: "inception_3a/relu_5x5_reduce"
  type: "ReLU"
  bottom: "inception_3a/5x5_reduce"
  top: "inception_3a/5x5_reduce"
}
layer {
  name: "inception_3a/5x5"
  type: "Convolution"
  bottom: "inception_3a/5x5_reduce"
  top: "inception_3a/5x5"
  param {
    lr_mult: 1
    decay_mult: 1
  }
  param {
    lr_mult: 2
    decay_mult: 0
  }
  convolution_param {
    num_output: 32
    pad: 2
    kernel_size: 5
    weight_filler {
      type: "xavier"
      std: 0.03
    }
    bias_filler {
      type: "constant"
      value: 0.2
    }
  }
}
layer {
  name: "inception_3a/relu_5x5"
  type: "ReLU"
  bottom: "inception_3a/5x5"
  top: "inception_3a/5x5"
}
layer {
  name: "inception_3a/pool"
  type: "Pooling"
  bottom: "pool2/3x3_s2"
  top: "inception_3a/pool"
  pooling_param {
    pool: MAX
    kernel_size: 3
    stride: 1
    pad: 1
  }
}
layer {
  name: "inception_3a/pool_proj"
  type: "Convolution"
  bottom: "inception_3a/pool"
  top: "inception_3a/pool_proj"
  param {
    lr_mult: 1
    decay_mult: 1
  }
  param {
    lr_mult: 2
    decay_mult: 0
  }
  convolution_param {
    num_output: 32
    kernel_size: 1
    weight_filler {
      type: "xavier"
      std: 0.1
    }
    bias_filler {
      type: "constant"
      value: 0.2
    }
  }
}
layer {
  name: "inception_3a/relu_pool_proj"
  type: "ReLU"
  bottom: "inception_3a/pool_proj"
  top: "inception_3a/pool_proj"
}
layer {
  name: "inception_3a/output"
  type: "Concat"
  bottom: "inception_3a/1x1"
  bottom: "inception_3a/3x3"
  bottom: "inception_3a/5x5"
  bottom: "inception_3a/pool_proj"
  top: "inception_3a/output"
}
layer {
  name: "inception_3b/1x1"
  type: "Convolution"
  bottom: "inception_3a/output"
  top: "inception_3b/1x1"
  param {
    lr_mult: 1
    decay_mult: 1
  }
  param {
    lr_mult: 2
    decay_mult: 0
  }
  convolution_param {
    num_output: 128
    kernel_size: 1
    weight_filler {
      type: "xavier"
      std: 0.03
    }
    bias_filler {
      type: "constant"
      value: 0.2
    }
  }
}
layer {
  name: "inception_3b/relu_1x1"
  type: "ReLU"
  bottom: "inception_3b/1x1"
  top: "inception_3b/1x1"
}
layer {
  name: "inception_3b/3x3_reduce"
  type: "Convolution"
  bottom: "inception_3a/output"
  top: "inception_3b/3x3_reduce"
  param {
    lr_mult: 1
    decay_mult: 1
  }
  param {
    lr_mult: 2
    decay_mult: 0
  }
  convolution_param {
    num_output: 128
    kernel_size: 1
    weight_filler {
      type: "xavier"
      std: 0.09
    }
    bias_filler {
      type: "constant"
      value: 0.2
    }
  }
}
layer {
  name: "inception_3b/relu_3x3_reduce"
  type: "ReLU"
  bottom: "inception_3b/3x3_reduce"
  top: "inception_3b/3x3_reduce"
}
layer {
  name: "inception_3b/3x3"
  type: "Convolution"
  bottom: "inception_3b/3x3_reduce"
  top: "inception_3b/3x3"
  param {
    lr_mult: 1
    decay_mult: 1
  }
  param {
    lr_mult: 2
    decay_mult: 0
  }
  convolution_param {
    num_output: 192
    pad: 1
    kernel_size: 3
    weight_filler {
      type: "xavier"
      std: 0.03
    }
    bias_filler {
      type: "constant"
      value: 0.2
    }
  }
}
layer {
  name: "inception_3b/relu_3x3"
  type: "ReLU"
  bottom: "inception_3b/3x3"
  top: "inception_3b/3x3"
}
layer {
  name: "inception_3b/5x5_reduce"
  type: "Convolution"
  bottom: "inception_3a/output"
  top: "inception_3b/5x5_reduce"
  param {
    lr_mult: 1
    decay_mult: 1
  }
  param {
    lr_mult: 2
    decay_mult: 0
  }
  convolution_param {
    num_output: 32
    kernel_size: 1
    weight_filler {
      type: "xavier"
      std: 0.2
    }
    bias_filler {
      type: "constant"
      value: 0.2
    }
  }
}
layer {
  name: "inception_3b/relu_5x5_reduce"
  type: "ReLU"
  bottom: "inception_3b/5x5_reduce"
  top: "inception_3b/5x5_reduce"
}
layer {
  name: "inception_3b/5x5"
  type: "Convolution"
  bottom: "inception_3b/5x5_reduce"
  top: "inception_3b/5x5"
  param {
    lr_mult: 1
    decay_mult: 1
  }
  param {
    lr_mult: 2
    decay_mult: 0
  }
  convolution_param {
    num_output: 96
    pad: 2
    kernel_size: 5
    weight_filler {
      type: "xavier"
      std: 0.03
    }
    bias_filler {
      type: "constant"
      value: 0.2
    }
  }
}
layer {
  name: "inception_3b/relu_5x5"
  type: "ReLU"
  bottom: "inception_3b/5x5"
  top: "inception_3b/5x5"
}
layer {
  name: "inception_3b/pool"
  type: "Pooling"
  bottom: "inception_3a/output"
  top: "inception_3b/pool"
  pooling_param {
    pool: MAX
    kernel_size: 3
    stride: 1
    pad: 1
  }
}
layer {
  name: "inception_3b/pool_proj"
  type: "Convolution"
  bottom: "inception_3b/pool"
  top: "inception_3b/pool_proj"
  param {
    lr_mult: 1
    decay_mult: 1
  }
  param {
    lr_mult: 2
    decay_mult: 0
  }
  convolution_param {
    num_output: 64
    kernel_size: 1
    weight_filler {
      type: "xavier"
      std: 0.1
    }
    bias_filler {
      type: "constant"
      value: 0.2
    }
  }
}
layer {
  name: "inception_3b/relu_pool_proj"
  type: "ReLU"
  bottom: "inception_3b/pool_proj"
  top: "inception_3b/pool_proj"
}
layer {
  name: "inception_3b/output"
  type: "Concat"
  bottom: "inception_3b/1x1"
  bottom: "inception_3b/3x3"
  bottom: "inception_3b/5x5"
  bottom: "inception_3b/pool_proj"
  top: "inception_3b/output"
}
layer {
  name: "pool3/3x3_s2"
  type: "Pooling"
  bottom: "inception_3b/output"
  top: "pool3/3x3_s2"
  pooling_param {
    pool: MAX
    kernel_size: 3
    stride: 2
  }
}
layer {
  name: "inception_4a/1x1"
  type: "Convolution"
  bottom: "pool3/3x3_s2"
  top: "inception_4a/1x1"
  param {
    lr_mult: 1
    decay_mult: 1
  }
  param {
    lr_mult: 2
    decay_mult: 0
  }
  convolution_param {
    num_output: 192
    kernel_size: 1
    weight_filler {
      type: "xavier"
      std: 0.03
    }
    bias_filler {
      type: "constant"
      value: 0.2
    }
  }
}
layer {
  name: "inception_4a/relu_1x1"
  type: "ReLU"
  bottom: "inception_4a/1x1"
  top: "inception_4a/1x1"
}
layer {
  name: "inception_4a/3x3_reduce"
  type: "Convolution"
  bottom: "pool3/3x3_s2"
  top: "inception_4a/3x3_reduce"
  param {
    lr_mult: 1
    decay_mult: 1
  }
  param {
    lr_mult: 2
    decay_mult: 0
  }
  convolution_param {
    num_output: 96
    kernel_size: 1
    weight_filler {
      type: "xavier"
      std: 0.09
    }
    bias_filler {
      type: "constant"
      value: 0.2
    }
  }
}
layer {
  name: "inception_4a/relu_3x3_reduce"
  type: "ReLU"
  bottom: "inception_4a/3x3_reduce"
  top: "inception_4a/3x3_reduce"
}
layer {
  name: "inception_4a/3x3"
  type: "Convolution"
  bottom: "inception_4a/3x3_reduce"
  top: "inception_4a/3x3"
  param {
    lr_mult: 1
    decay_mult: 1
  }
  param {
    lr_mult: 2
    decay_mult: 0
  }
  convolution_param {
    num_output: 208
    pad: 1
    kernel_size: 3
    weight_filler {
      type: "xavier"
      std: 0.03
    }
    bias_filler {
      type: "constant"
      value: 0.2
    }
  }
}
layer {
  name: "inception_4a/relu_3x3"
  type: "ReLU"
  bottom: "inception_4a/3x3"
  top: "inception_4a/3x3"
}
layer {
  name: "inception_4a/5x5_reduce"
  type: "Convolution"
  bottom: "pool3/3x3_s2"
  top: "inception_4a/5x5_reduce"
  param {
    lr_mult: 1
    decay_mult: 1
  }
  param {
    lr_mult: 2
    decay_mult: 0
  }
  convolution_param {
    num_output: 16
    kernel_size: 1
    weight_filler {
      type: "xavier"
      std: 0.2
    }
    bias_filler {
      type: "constant"
      value: 0.2
    }
  }
}
layer {
  name: "inception_4a/relu_5x5_reduce"
  type: "ReLU"
  bottom: "inception_4a/5x5_reduce"
  top: "inception_4a/5x5_reduce"
}
layer {
  name: "inception_4a/5x5"
  type: "Convolution"
  bottom: "inception_4a/5x5_reduce"
  top: "inception_4a/5x5"
  param {
    lr_mult: 1
    decay_mult: 1
  }
  param {
    lr_mult: 2
    decay_mult: 0
  }
  convolution_param {
    num_output: 48
    pad: 2
    kernel_size: 5
    weight_filler {
      type: "xavier"
      std: 0.03
    }
    bias_filler {
      type: "constant"
      value: 0.2
    }
  }
}
layer {
  name: "inception_4a/relu_5x5"
  type: "ReLU"
  bottom: "inception_4a/5x5"
  top: "inception_4a/5x5"
}
layer {
  name: "inception_4a/pool"
  type: "Pooling"
  bottom: "pool3/3x3_s2"
  top: "inception_4a/pool"
  pooling_param {
    pool: MAX
    kernel_size: 3
    stride: 1
    pad: 1
  }
}
layer {
  name: "inception_4a/pool_proj"
  type: "Convolution"
  bottom: "inception_4a/pool"
  top: "inception_4a/pool_proj"
  param {
    lr_mult: 1
    decay_mult: 1
  }
  param {
    lr_mult: 2
    decay_mult: 0
  }
  convolution_param {
    num_output: 64
    kernel_size: 1
    weight_filler {
      type: "xavier"
      std: 0.1
    }
    bias_filler {
      type: "constant"
      value: 0.2
    }
  }
}
layer {
  name: "inception_4a/relu_pool_proj"
  type: "ReLU"
  bottom: "inception_4a/pool_proj"
  top: "inception_4a/pool_proj"
}
layer {
  name: "inception_4a/output"
  type: "Concat"
  bottom: "inception_4a/1x1"
  bottom: "inception_4a/3x3"
  bottom: "inception_4a/5x5"
  bottom: "inception_4a/pool_proj"
  top: "inception_4a/output"
}
layer {
  name: "loss1/ave_pool"
  type: "Pooling"
  bottom: "inception_4a/output"
  top: "loss1/ave_pool"
  pooling_param {
    pool: AVE
    kernel_size: 5
    stride: 3
  }
}
layer {
  name: "loss1/conv"
  type: "Convolution"
  bottom: "loss1/ave_pool"
  top: "loss1/conv"
  param {
    lr_mult: 1
    decay_mult: 1
  }
  param {
    lr_mult: 2
    decay_mult: 0
  }
  convolution_param {
    num_output: 128
    kernel_size: 1
    weight_filler {
      type: "xavier"
      std: 0.08
    }
    bias_filler {
      type: "constant"
      value: 0.2
    }
  }
}
layer {
  name: "loss1/relu_conv"
  type: "ReLU"
  bottom: "loss1/conv"
  top: "loss1/conv"
}
layer {
  name: "loss1/fc"
  type: "InnerProduct"
  bottom: "loss1/conv"
  top: "loss1/fc"
  param {
    lr_mult: 1
    decay_mult: 1
  }
  param {
    lr_mult: 2
    decay_mult: 0
  }
  inner_product_param {
    num_output: 1024
    weight_filler {
      type: "xavier"
      std: 0.02
    }
    bias_filler {
      type: "constant"
      value: 0.2
    }
  }
}
layer {
  name: "loss1/relu_fc"
  type: "ReLU"
  bottom: "loss1/fc"
  top: "loss1/fc"
}
layer {
  name: "loss1/drop_fc"
  type: "Dropout"
  bottom: "loss1/fc"
  top: "loss1/fc"
  dropout_param {
    dropout_ratio: 0.7
  }
}
layer {
  name: "loss1/classifier_plantvillage"
  type: "InnerProduct"
  bottom: "loss1/fc"
  top: "loss1/classifier_plantvillage"
  param {
    lr_mult: 1
    decay_mult: 1
  }
  param {
    lr_mult: 2
    decay_mult: 0
  }
  inner_product_param {
    num_output: 38
    weight_filler {
      type: "xavier"
      std: 0.0009765625
    }
    bias_filler {
      type: "constant"
      value: 0
    }
  }
}
layer {
  name: "inception_4b/1x1"
  type: "Convolution"
  bottom: "inception_4a/output"
  top: "inception_4b/1x1"
  param {
    lr_mult: 1
    decay_mult: 1
  }
  param {
    lr_mult: 2
    decay_mult: 0
  }
  convolution_param {
    num_output: 160
    kernel_size: 1
    weight_filler {
      type: "xavier"
      std: 0.03
    }
    bias_filler {
      type: "constant"
      value: 0.2
    }
  }
}
layer {
  name: "inception_4b/relu_1x1"
  type: "ReLU"
  bottom: "inception_4b/1x1"
  top: "inception_4b/1x1"
}
layer {
  name: "inception_4b/3x3_reduce"
  type: "Convolution"
  bottom: "inception_4a/output"
  top: "inception_4b/3x3_reduce"
  param {
    lr_mult: 1
    decay_mult: 1
  }
  param {
    lr_mult: 2
    decay_mult: 0
  }
  convolution_param {
    num_output: 112
    kernel_size: 1
    weight_filler {
      type: "xavier"
      std: 0.09
    }
    bias_filler {
      type: "constant"
      value: 0.2
    }
  }
}
layer {
  name: "inception_4b/relu_3x3_reduce"
  type: "ReLU"
  bottom: "inception_4b/3x3_reduce"
  top: "inception_4b/3x3_reduce"
}
layer {
  name: "inception_4b/3x3"
  type: "Convolution"
  bottom: "inception_4b/3x3_reduce"
  top: "inception_4b/3x3"
  param {
    lr_mult: 1
    decay_mult: 1
  }
  param {
    lr_mult: 2
    decay_mult: 0
  }
  convolution_param {
    num_output: 224
    pad: 1
    kernel_size: 3
    weight_filler {
      type: "xavier"
      std: 0.03
    }
    bias_filler {
      type: "constant"
      value: 0.2
    }
  }
}
layer {
  name: "inception_4b/relu_3x3"
  type: "ReLU"
  bottom: "inception_4b/3x3"
  top: "inception_4b/3x3"
}
layer {
  name: "inception_4b/5x5_reduce"
  type: "Convolution"
  bottom: "inception_4a/output"
  top: "inception_4b/5x5_reduce"
  param {
    lr_mult: 1
    decay_mult: 1
  }
  param {
    lr_mult: 2
    decay_mult: 0
  }
  convolution_param {
    num_output: 24
    kernel_size: 1
    weight_filler {
      type: "xavier"
      std: 0.2
    }
    bias_filler {
      type: "constant"
      value: 0.2
    }
  }
}
layer {
  name: "inception_4b/relu_5x5_reduce"
  type: "ReLU"
  bottom: "inception_4b/5x5_reduce"
  top: "inception_4b/5x5_reduce"
}
layer {
  name: "inception_4b/5x5"
  type: "Convolution"
  bottom: "inception_4b/5x5_reduce"
  top: "inception_4b/5x5"
  param {
    lr_mult: 1
    decay_mult: 1
  }
  param {
    lr_mult: 2
    decay_mult: 0
  }
  convolution_param {
    num_output: 64
    pad: 2
    kernel_size: 5
    weight_filler {
      type: "xavier"
      std: 0.03
    }
    bias_filler {
      type: "constant"
      value: 0.2
    }
  }
}
layer {
  name: "inception_4b/relu_5x5"
  type: "ReLU"
  bottom: "inception_4b/5x5"
  top: "inception_4b/5x5"
}
layer {
  name: "inception_4b/pool"
  type: "Pooling"
  bottom: "inception_4a/output"
  top: "inception_4b/pool"
  pooling_param {
    pool: MAX
    kernel_size: 3
    stride: 1
    pad: 1
  }
}
layer {
  name: "inception_4b/pool_proj"
  type: "Convolution"
  bottom: "inception_4b/pool"
  top: "inception_4b/pool_proj"
  param {
    lr_mult: 1
    decay_mult: 1
  }
  param {
    lr_mult: 2
    decay_mult: 0
  }
  convolution_param {
    num_output: 64
    kernel_size: 1
    weight_filler {
      type: "xavier"
      std: 0.1
    }
    bias_filler {
      type: "constant"
      value: 0.2
    }
  }
}
layer {
  name: "inception_4b/relu_pool_proj"
  type: "ReLU"
  bottom: "inception_4b/pool_proj"
  top: "inception_4b/pool_proj"
}
layer {
  name: "inception_4b/output"
  type: "Concat"
  bottom: "inception_4b/1x1"
  bottom: "inception_4b/3x3"
  bottom: "inception_4b/5x5"
  bottom: "inception_4b/pool_proj"
  top: "inception_4b/output"
}
layer {
  name: "inception_4c/1x1"
  type: "Convolution"
  bottom: "inception_4b/output"
  top: "inception_4c/1x1"
  param {
    lr_mult: 1
    decay_mult: 1
  }
  param {
    lr_mult: 2
    decay_mult: 0
  }
  convolution_param {
    num_output: 128
    kernel_size: 1
    weight_filler {
      type: "xavier"
      std: 0.03
    }
    bias_filler {
      type: "constant"
      value: 0.2
    }
  }
}
layer {
  name: "inception_4c/relu_1x1"
  type: "ReLU"
  bottom: "inception_4c/1x1"
  top: "inception_4c/1x1"
}
layer {
  name: "inception_4c/3x3_reduce"
  type: "Convolution"
  bottom: "inception_4b/output"
  top: "inception_4c/3x3_reduce"
  param {
    lr_mult: 1
    decay_mult: 1
  }
  param {
    lr_mult: 2
    decay_mult: 0
  }
  convolution_param {
    num_output: 128
    kernel_size: 1
    weight_filler {
      type: "xavier"
      std: 0.09
    }
    bias_filler {
      type: "constant"
      value: 0.2
    }
  }
}
layer {
  name: "inception_4c/relu_3x3_reduce"
  type: "ReLU"
  bottom: "inception_4c/3x3_reduce"
  top: "inception_4c/3x3_reduce"
}
layer {
  name: "inception_4c/3x3"
  type: "Convolution"
  bottom: "inception_4c/3x3_reduce"
  top: "inception_4c/3x3"
  param {
    lr_mult: 1
    decay_mult: 1
  }
  param {
    lr_mult: 2
    decay_mult: 0
  }
  convolution_param {
    num_output: 256
    pad: 1
    kernel_size: 3
    weight_filler {
      type: "xavier"
      std: 0.03
    }
    bias_filler {
      type: "constant"
      value: 0.2
    }
  }
}
layer {
  name: "inception_4c/relu_3x3"
  type: "ReLU"
  bottom: "inception_4c/3x3"
  top: "inception_4c/3x3"
}
layer {
  name: "inception_4c/5x5_reduce"
  type: "Convolution"
  bottom: "inception_4b/output"
  top: "inception_4c/5x5_reduce"
  param {
    lr_mult: 1
    decay_mult: 1
  }
  param {
    lr_mult: 2
    decay_mult: 0
  }
  convolution_param {
    num_output: 24
    kernel_size: 1
    weight_filler {
      type: "xavier"
      std: 0.2
    }
    bias_filler {
      type: "constant"
      value: 0.2
    }
  }
}
layer {
  name: "inception_4c/relu_5x5_reduce"
  type: "ReLU"
  bottom: "inception_4c/5x5_reduce"
  top: "inception_4c/5x5_reduce"
}
layer {
  name: "inception_4c/5x5"
  type: "Convolution"
  bottom: "inception_4c/5x5_reduce"
  top: "inception_4c/5x5"
  param {
    lr_mult: 1
    decay_mult: 1
  }
  param {
    lr_mult: 2
    decay_mult: 0
  }
  convolution_param {
    num_output: 64
    pad: 2
    kernel_size: 5
    weight_filler {
      type: "xavier"
      std: 0.03
    }
    bias_filler {
      type: "constant"
      value: 0.2
    }
  }
}
layer {
  name: "inception_4c/relu_5x5"
  type: "ReLU"
  bottom: "inception_4c/5x5"
  top: "inception_4c/5x5"
}
layer {
  name: "inception_4c/pool"
  type: "Pooling"
  bottom: "inception_4b/output"
  top: "inception_4c/pool"
  pooling_param {
    pool: MAX
    kernel_size: 3
    stride: 1
    pad: 1
  }
}
layer {
  name: "inception_4c/pool_proj"
  type: "Convolution"
  bottom: "inception_4c/pool"
  top: "inception_4c/pool_proj"
  param {
    lr_mult: 1
    decay_mult: 1
  }
  param {
    lr_mult: 2
    decay_mult: 0
  }
  convolution_param {
    num_output: 64
    kernel_size: 1
    weight_filler {
      type: "xavier"
      std: 0.1
    }
    bias_filler {
      type: "constant"
      value: 0.2
    }
  }
}
layer {
  name: "inception_4c/relu_pool_proj"
  type: "ReLU"
  bottom: "inception_4c/pool_proj"
  top: "inception_4c/pool_proj"
}
layer {
  name: "inception_4c/output"
  type: "Concat"
  bottom: "inception_4c/1x1"
  bottom: "inception_4c/3x3"
  bottom: "inception_4c/5x5"
  bottom: "inception_4c/pool_proj"
  top: "inception_4c/output"
}
layer {
  name: "inception_4d/1x1"
  type: "Convolution"
  bottom: "inception_4c/output"
  top: "inception_4d/1x1"
  param {
    lr_mult: 1
    decay_mult: 1
  }
  param {
    lr_mult: 2
    decay_mult: 0
  }
  convolution_param {
    num_output: 112
    kernel_size: 1
    weight_filler {
      type: "xavier"
      std: 0.03
    }
    bias_filler {
      type: "constant"
      value: 0.2
    }
  }
}
layer {
  name: "inception_4d/relu_1x1"
  type: "ReLU"
  bottom: "inception_4d/1x1"
  top: "inception_4d/1x1"
}
layer {
  name: "inception_4d/3x3_reduce"
  type: "Convolution"
  bottom: "inception_4c/output"
  top: "inception_4d/3x3_reduce"
  param {
    lr_mult: 1
    decay_mult: 1
  }
  param {
    lr_mult: 2
    decay_mult: 0
  }
  convolution_param {
    num_output: 144
    kernel_size: 1
    weight_filler {
      type: "xavier"
      std: 0.09
    }
    bias_filler {
      type: "constant"
      value: 0.2
    }
  }
}
layer {
  name: "inception_4d/relu_3x3_reduce"
  type: "ReLU"
  bottom: "inception_4d/3x3_reduce"
  top: "inception_4d/3x3_reduce"
}
layer {
  name: "inception_4d/3x3"
  type: "Convolution"
  bottom: "inception_4d/3x3_reduce"
  top: "inception_4d/3x3"
  param {
    lr_mult: 1
    decay_mult: 1
  }
  param {
    lr_mult: 2
    decay_mult: 0
  }
  convolution_param {
    num_output: 288
    pad: 1
    kernel_size: 3
    weight_filler {
      type: "xavier"
      std: 0.03
    }
    bias_filler {
      type: "constant"
      value: 0.2
    }
  }
}
layer {
  name: "inception_4d/relu_3x3"
  type: "ReLU"
  bottom: "inception_4d/3x3"
  top: "inception_4d/3x3"
}
layer {
  name: "inception_4d/5x5_reduce"
  type: "Convolution"
  bottom: "inception_4c/output"
  top: "inception_4d/5x5_reduce"
  param {
    lr_mult: 1
    decay_mult: 1
  }
  param {
    lr_mult: 2
    decay_mult: 0
  }
  convolution_param {
    num_output: 32
    kernel_size: 1
    weight_filler {
      type: "xavier"
      std: 0.2
    }
    bias_filler {
      type: "constant"
      value: 0.2
    }
  }
}
layer {
  name: "inception_4d/relu_5x5_reduce"
  type: "ReLU"
  bottom: "inception_4d/5x5_reduce"
  top: "inception_4d/5x5_reduce"
}
layer {
  name: "inception_4d/5x5"
  type: "Convolution"
  bottom: "inception_4d/5x5_reduce"
  top: "inception_4d/5x5"
  param {
    lr_mult: 1
    decay_mult: 1
  }
  param {
    lr_mult: 2
    decay_mult: 0
  }
  convolution_param {
    num_output: 64
    pad: 2
    kernel_size: 5
    weight_filler {
      type: "xavier"
      std: 0.03
    }
    bias_filler {
      type: "constant"
      value: 0.2
    }
  }
}
layer {
  name: "inception_4d/relu_5x5"
  type: "ReLU"
  bottom: "inception_4d/5x5"
  top: "inception_4d/5x5"
}
layer {
  name: "inception_4d/pool"
  type: "Pooling"
  bottom: "inception_4c/output"
  top: "inception_4d/pool"
  pooling_param {
    pool: MAX
    kernel_size: 3
    stride: 1
    pad: 1
  }
}
layer {
  name: "inception_4d/pool_proj"
  type: "Convolution"
  bottom: "inception_4d/pool"
  top: "inception_4d/pool_proj"
  param {
    lr_mult: 1
    decay_mult: 1
  }
  param {
    lr_mult: 2
    decay_mult: 0
  }
  convolution_param {
    num_output: 64
    kernel_size: 1
    weight_filler {
      type: "xavier"
      std: 0.1
    }
    bias_filler {
      type: "constant"
      value: 0.2
    }
  }
}
layer {
  name: "inception_4d/relu_pool_proj"
  type: "ReLU"
  bottom: "inception_4d/pool_proj"
  top: "inception_4d/pool_proj"
}
layer {
  name: "inception_4d/output"
  type: "Concat"
  bottom: "inception_4d/1x1"
  bottom: "inception_4d/3x3"
  bottom: "inception_4d/5x5"
  bottom: "inception_4d/pool_proj"
  top: "inception_4d/output"
}
layer {
  name: "loss2/ave_pool"
  type: "Pooling"
  bottom: "inception_4d/output"
  top: "loss2/ave_pool"
  pooling_param {
    pool: AVE
    kernel_size: 5
    stride: 3
  }
}
layer {
  name: "loss2/conv"
  type: "Convolution"
  bottom: "loss2/ave_pool"
  top: "loss2/conv"
  param {
    lr_mult: 1
    decay_mult: 1
  }
  param {
    lr_mult: 2
    decay_mult: 0
  }
  convolution_param {
    num_output: 128
    kernel_size: 1
    weight_filler {
      type: "xavier"
      std: 0.08
    }
    bias_filler {
      type: "constant"
      value: 0.2
    }
  }
}
layer {
  name: "loss2/relu_conv"
  type: "ReLU"
  bottom: "loss2/conv"
  top: "loss2/conv"
}
layer {
  name: "loss2/fc"
  type: "InnerProduct"
  bottom: "loss2/conv"
  top: "loss2/fc"
  param {
    lr_mult: 1
    decay_mult: 1
  }
  param {
    lr_mult: 2
    decay_mult: 0
  }
  inner_product_param {
    num_output: 1024
    weight_filler {
      type: "xavier"
      std: 0.02
    }
    bias_filler {
      type: "constant"
      value: 0.2
    }
  }
}
layer {
  name: "loss2/relu_fc"
  type: "ReLU"
  bottom: "loss2/fc"
  top: "loss2/fc"
}
layer {
  name: "loss2/drop_fc"
  type: "Dropout"
  bottom: "loss2/fc"
  top: "loss2/fc"
  dropout_param {
    dropout_ratio: 0.7
  }
}
layer {
  name: "loss2/classifier_plantvillage"
  type: "InnerProduct"
  bottom: "loss2/fc"
  top: "loss2/classifier_plantvillage"
  param {
    lr_mult: 1
    decay_mult: 1
  }
  param {
    lr_mult: 2
    decay_mult: 0
  }
  inner_product_param {
    num_output: 38
    weight_filler {
      type: "xavier"
      std: 0.0009765625
    }
    bias_filler {
      type: "constant"
      value: 0
    }
  }
}
layer {
  name: "inception_4e/1x1"
  type: "Convolution"
  bottom: "inception_4d/output"
  top: "inception_4e/1x1"
  param {
    lr_mult: 1
    decay_mult: 1
  }
  param {
    lr_mult: 2
    decay_mult: 0
  }
  convolution_param {
    num_output: 256
    kernel_size: 1
    weight_filler {
      type: "xavier"
      std: 0.03
    }
    bias_filler {
      type: "constant"
      value: 0.2
    }
  }
}
layer {
  name: "inception_4e/relu_1x1"
  type: "ReLU"
  bottom: "inception_4e/1x1"
  top: "inception_4e/1x1"
}
layer {
  name: "inception_4e/3x3_reduce"
  type: "Convolution"
  bottom: "inception_4d/output"
  top: "inception_4e/3x3_reduce"
  param {
    lr_mult: 1
    decay_mult: 1
  }
  param {
    lr_mult: 2
    decay_mult: 0
  }
  convolution_param {
    num_output: 160
    kernel_size: 1
    weight_filler {
      type: "xavier"
      std: 0.09
    }
    bias_filler {
      type: "constant"
      value: 0.2
    }
  }
}
layer {
  name: "inception_4e/relu_3x3_reduce"
  type: "ReLU"
  bottom: "inception_4e/3x3_reduce"
  top: "inception_4e/3x3_reduce"
}
layer {
  name: "inception_4e/3x3"
  type: "Convolution"
  bottom: "inception_4e/3x3_reduce"
  top: "inception_4e/3x3"
  param {
    lr_mult: 1
    decay_mult: 1
  }
  param {
    lr_mult: 2
    decay_mult: 0
  }
  convolution_param {
    num_output: 320
    pad: 1
    kernel_size: 3
    weight_filler {
      type: "xavier"
      std: 0.03
    }
    bias_filler {
      type: "constant"
      value: 0.2
    }
  }
}
layer {
  name: "inception_4e/relu_3x3"
  type: "ReLU"
  bottom: "inception_4e/3x3"
  top: "inception_4e/3x3"
}
layer {
  name: "inception_4e/5x5_reduce"
  type: "Convolution"
  bottom: "inception_4d/output"
  top: "inception_4e/5x5_reduce"
  param {
    lr_mult: 1
    decay_mult: 1
  }
  param {
    lr_mult: 2
    decay_mult: 0
  }
  convolution_param {
    num_output: 32
    kernel_size: 1
    weight_filler {
      type: "xavier"
      std: 0.2
    }
    bias_filler {
      type: "constant"
      value: 0.2
    }
  }
}
layer {
  name: "inception_4e/relu_5x5_reduce"
  type: "ReLU"
  bottom: "inception_4e/5x5_reduce"
  top: "inception_4e/5x5_reduce"
}
layer {
  name: "inception_4e/5x5"
  type: "Convolution"
  bottom: "inception_4e/5x5_reduce"
  top: "inception_4e/
I0403 14:49:10.262948 13660 layer_factory.hpp:77] Creating layer data
I0403 14:49:10.263542 13660 net.cpp:91] Creating Layer data
I0403 14:49:10.263572 13660 net.cpp:399] data -> data
I0403 14:49:10.263618 13660 net.cpp:399] data -> label
I0403 14:49:10.263655 13660 data_transformer.cpp:25] Loading mean file from: /home/mohanty/data/final_dataset/lmdb/segmented-20-80/mean.binaryproto
I0403 14:49:10.288242 13667 db_lmdb.cpp:38] Opened lmdb /home/mohanty/data/final_dataset/lmdb/segmented-20-80/test_db
I0403 14:49:10.290220 13660 data_layer.cpp:41] output data size: 24,3,224,224
I0403 14:49:10.317745 13660 net.cpp:141] Setting up data
I0403 14:49:10.317803 13660 net.cpp:148] Top shape: 24 3 224 224 (3612672)
I0403 14:49:10.317826 13660 net.cpp:148] Top shape: 24 (24)
I0403 14:49:10.317841 13660 net.cpp:156] Memory required for data: 14450784
I0403 14:49:10.317867 13660 layer_factory.hpp:77] Creating layer label_data_1_split
I0403 14:49:10.317890 13660 net.cpp:91] Creating Layer label_data_1_split
I0403 14:49:10.317908 13660 net.cpp:425] label_data_1_split <- label
I0403 14:49:10.317937 13660 net.cpp:399] label_data_1_split -> label_data_1_split_0
I0403 14:49:10.317962 13660 net.cpp:399] label_data_1_split -> label_data_1_split_1
I0403 14:49:10.317983 13660 net.cpp:399] label_data_1_split -> label_data_1_split_2
I0403 14:49:10.318003 13660 net.cpp:399] label_data_1_split -> label_data_1_split_3
I0403 14:49:10.318022 13660 net.cpp:399] label_data_1_split -> label_data_1_split_4
I0403 14:49:10.318042 13660 net.cpp:399] label_data_1_split -> label_data_1_split_5
I0403 14:49:10.318059 13660 net.cpp:399] label_data_1_split -> label_data_1_split_6
I0403 14:49:10.318078 13660 net.cpp:399] label_data_1_split -> label_data_1_split_7
I0403 14:49:10.318099 13660 net.cpp:399] label_data_1_split -> label_data_1_split_8
I0403 14:49:10.318117 13660 net.cpp:399] label_data_1_split -> label_data_1_split_9
I0403 14:49:10.318230 13660 net.cpp:141] Setting up label_data_1_split
I0403 14:49:10.318253 13660 net.cpp:148] Top shape: 24 (24)
I0403 14:49:10.318272 13660 net.cpp:148] Top shape: 24 (24)
I0403 14:49:10.318286 13660 net.cpp:148] Top shape: 24 (24)
I0403 14:49:10.318301 13660 net.cpp:148] Top shape: 24 (24)
I0403 14:49:10.318316 13660 net.cpp:148] Top shape: 24 (24)
I0403 14:49:10.318332 13660 net.cpp:148] Top shape: 24 (24)
I0403 14:49:10.318347 13660 net.cpp:148] Top shape: 24 (24)
I0403 14:49:10.318362 13660 net.cpp:148] Top shape: 24 (24)
I0403 14:49:10.318377 13660 net.cpp:148] Top shape: 24 (24)
I0403 14:49:10.318392 13660 net.cpp:148] Top shape: 24 (24)
I0403 14:49:10.318424 13660 net.cpp:156] Memory required for data: 14451744
I0403 14:49:10.318440 13660 layer_factory.hpp:77] Creating layer conv1/7x7_s2
I0403 14:49:10.318470 13660 net.cpp:91] Creating Layer conv1/7x7_s2
I0403 14:49:10.318487 13660 net.cpp:425] conv1/7x7_s2 <- data
I0403 14:49:10.318512 13660 net.cpp:399] conv1/7x7_s2 -> conv1/7x7_s2
I0403 14:49:10.452430 13660 net.cpp:141] Setting up conv1/7x7_s2
I0403 14:49:10.452496 13660 net.cpp:148] Top shape: 24 64 112 112 (19267584)
I0403 14:49:10.452519 13660 net.cpp:156] Memory required for data: 91522080
I0403 14:49:10.452551 13660 layer_factory.hpp:77] Creating layer conv1/relu_7x7
I0403 14:49:10.452579 13660 net.cpp:91] Creating Layer conv1/relu_7x7
I0403 14:49:10.452596 13660 net.cpp:425] conv1/relu_7x7 <- conv1/7x7_s2
I0403 14:49:10.452615 13660 net.cpp:386] conv1/relu_7x7 -> conv1/7x7_s2 (in-place)
I0403 14:49:10.452858 13660 net.cpp:141] Setting up conv1/relu_7x7
I0403 14:49:10.452891 13660 net.cpp:148] Top shape: 24 64 112 112 (19267584)
I0403 14:49:10.452906 13660 net.cpp:156] Memory required for data: 168592416
I0403 14:49:10.452922 13660 layer_factory.hpp:77] Creating layer pool1/3x3_s2
I0403 14:49:10.452947 13660 net.cpp:91] Creating Layer pool1/3x3_s2
I0403 14:49:10.452967 13660 net.cpp:425] pool1/3x3_s2 <- conv1/7x7_s2
I0403 14:49:10.452986 13660 net.cpp:399] pool1/3x3_s2 -> pool1/3x3_s2
I0403 14:49:10.453061 13660 net.cpp:141] Setting up pool1/3x3_s2
I0403 14:49:10.453085 13660 net.cpp:148] Top shape: 24 64 56 56 (4816896)
I0403 14:49:10.453100 13660 net.cpp:156] Memory required for data: 187860000
I0403 14:49:10.453116 13660 layer_factory.hpp:77] Creating layer pool1/norm1
I0403 14:49:10.453140 13660 net.cpp:91] Creating Layer pool1/norm1
I0403 14:49:10.453157 13660 net.cpp:425] pool1/norm1 <- pool1/3x3_s2
I0403 14:49:10.453174 13660 net.cpp:399] pool1/norm1 -> pool1/norm1
I0403 14:49:10.453452 13660 net.cpp:141] Setting up pool1/norm1
I0403 14:49:10.453480 13660 net.cpp:148] Top shape: 24 64 56 56 (4816896)
I0403 14:49:10.453495 13660 net.cpp:156] Memory required for data: 207127584
I0403 14:49:10.453516 13660 layer_factory.hpp:77] Creating layer conv2/3x3_reduce
I0403 14:49:10.453543 13660 net.cpp:91] Creating Layer conv2/3x3_reduce
I0403 14:49:10.453560 13660 net.cpp:425] conv2/3x3_reduce <- pool1/norm1
I0403 14:49:10.453583 13660 net.cpp:399] conv2/3x3_reduce -> conv2/3x3_reduce
I0403 14:49:10.454890 13660 net.cpp:141] Setting up conv2/3x3_reduce
I0403 14:49:10.454931 13660 net.cpp:148] Top shape: 24 64 56 56 (4816896)
I0403 14:49:10.454946 13660 net.cpp:156] Memory required for data: 226395168
I0403 14:49:10.454967 13660 layer_factory.hpp:77] Creating layer conv2/relu_3x3_reduce
I0403 14:49:10.454984 13660 net.cpp:91] Creating Layer conv2/relu_3x3_reduce
I0403 14:49:10.455000 13660 net.cpp:425] conv2/relu_3x3_reduce <- conv2/3x3_reduce
I0403 14:49:10.455019 13660 net.cpp:386] conv2/relu_3x3_reduce -> conv2/3x3_reduce (in-place)
I0403 14:49:10.455260 13660 net.cpp:141] Setting up conv2/relu_3x3_reduce
I0403 14:49:10.455284 13660 net.cpp:148] Top shape: 24 64 56 56 (4816896)
I0403 14:49:10.455303 13660 net.cpp:156] Memory required for data: 245662752
I0403 14:49:10.455320 13660 layer_factory.hpp:77] Creating layer conv2/3x3
I0403 14:49:10.455343 13660 net.cpp:91] Creating Layer conv2/3x3
I0403 14:49:10.455359 13660 net.cpp:425] conv2/3x3 <- conv2/3x3_reduce
I0403 14:49:10.455377 13660 net.cpp:399] conv2/3x3 -> conv2/3x3
I0403 14:49:10.457525 13660 net.cpp:141] Setting up conv2/3x3
I0403 14:49:10.457556 13660 net.cpp:148] Top shape: 24 192 56 56 (14450688)
I0403 14:49:10.457572 13660 net.cpp:156] Memory required for data: 303465504
I0403 14:49:10.457592 13660 layer_factory.hpp:77] Creating layer conv2/relu_3x3
I0403 14:49:10.457612 13660 net.cpp:91] Creating Layer conv2/relu_3x3
I0403 14:49:10.457629 13660 net.cpp:425] conv2/relu_3x3 <- conv2/3x3
I0403 14:49:10.457650 13660 net.cpp:386] conv2/relu_3x3 -> conv2/3x3 (in-place)
I0403 14:49:10.457820 13660 net.cpp:141] Setting up conv2/relu_3x3
I0403 14:49:10.457845 13660 net.cpp:148] Top shape: 24 192 56 56 (14450688)
I0403 14:49:10.457895 13660 net.cpp:156] Memory required for data: 361268256
I0403 14:49:10.457911 13660 layer_factory.hpp:77] Creating layer conv2/norm2
I0403 14:49:10.457928 13660 net.cpp:91] Creating Layer conv2/norm2
I0403 14:49:10.457947 13660 net.cpp:425] conv2/norm2 <- conv2/3x3
I0403 14:49:10.457969 13660 net.cpp:399] conv2/norm2 -> conv2/norm2
I0403 14:49:10.458267 13660 net.cpp:141] Setting up conv2/norm2
I0403 14:49:10.458297 13660 net.cpp:148] Top shape: 24 192 56 56 (14450688)
I0403 14:49:10.458312 13660 net.cpp:156] Memory required for data: 419071008
I0403 14:49:10.458326 13660 layer_factory.hpp:77] Creating layer pool2/3x3_s2
I0403 14:49:10.458345 13660 net.cpp:91] Creating Layer pool2/3x3_s2
I0403 14:49:10.458362 13660 net.cpp:425] pool2/3x3_s2 <- conv2/norm2
I0403 14:49:10.458381 13660 net.cpp:399] pool2/3x3_s2 -> pool2/3x3_s2
I0403 14:49:10.458432 13660 net.cpp:141] Setting up pool2/3x3_s2
I0403 14:49:10.458456 13660 net.cpp:148] Top shape: 24 192 28 28 (3612672)
I0403 14:49:10.458472 13660 net.cpp:156] Memory required for data: 433521696
I0403 14:49:10.458487 13660 layer_factory.hpp:77] Creating layer pool2/3x3_s2_pool2/3x3_s2_0_split
I0403 14:49:10.458509 13660 net.cpp:91] Creating Layer pool2/3x3_s2_pool2/3x3_s2_0_split
I0403 14:49:10.458528 13660 net.cpp:425] pool2/3x3_s2_pool2/3x3_s2_0_split <- pool2/3x3_s2
I0403 14:49:10.458547 13660 net.cpp:399] pool2/3x3_s2_pool2/3x3_s2_0_split -> pool2/3x3_s2_pool2/3x3_s2_0_split_0
I0403 14:49:10.458570 13660 net.cpp:399] pool2/3x3_s2_pool2/3x3_s2_0_split -> pool2/3x3_s2_pool2/3x3_s2_0_split_1
I0403 14:49:10.458590 13660 net.cpp:399] pool2/3x3_s2_pool2/3x3_s2_0_split -> pool2/3x3_s2_pool2/3x3_s2_0_split_2
I0403 14:49:10.458608 13660 net.cpp:399] pool2/3x3_s2_pool2/3x3_s2_0_split -> pool2/3x3_s2_pool2/3x3_s2_0_split_3
I0403 14:49:10.458676 13660 net.cpp:141] Setting up pool2/3x3_s2_pool2/3x3_s2_0_split
I0403 14:49:10.458700 13660 net.cpp:148] Top shape: 24 192 28 28 (3612672)
I0403 14:49:10.458719 13660 net.cpp:148] Top shape: 24 192 28 28 (3612672)
I0403 14:49:10.458734 13660 net.cpp:148] Top shape: 24 192 28 28 (3612672)
I0403 14:49:10.458750 13660 net.cpp:148] Top shape: 24 192 28 28 (3612672)
I0403 14:49:10.458765 13660 net.cpp:156] Memory required for data: 491324448
I0403 14:49:10.458781 13660 layer_factory.hpp:77] Creating layer inception_3a/1x1
I0403 14:49:10.458804 13660 net.cpp:91] Creating Layer inception_3a/1x1
I0403 14:49:10.458822 13660 net.cpp:425] inception_3a/1x1 <- pool2/3x3_s2_pool2/3x3_s2_0_split_0
I0403 14:49:10.458842 13660 net.cpp:399] inception_3a/1x1 -> inception_3a/1x1
I0403 14:49:10.460350 13660 net.cpp:141] Setting up inception_3a/1x1
I0403 14:49:10.460379 13660 net.cpp:148] Top shape: 24 64 28 28 (1204224)
I0403 14:49:10.460396 13660 net.cpp:156] Memory required for data: 496141344
I0403 14:49:10.460414 13660 layer_factory.hpp:77] Creating layer inception_3a/relu_1x1
I0403 14:49:10.460436 13660 net.cpp:91] Creating Layer inception_3a/relu_1x1
I0403 14:49:10.460453 13660 net.cpp:425] inception_3a/relu_1x1 <- inception_3a/1x1
I0403 14:49:10.460469 13660 net.cpp:386] inception_3a/relu_1x1 -> inception_3a/1x1 (in-place)
I0403 14:49:10.460640 13660 net.cpp:141] Setting up inception_3a/relu_1x1
I0403 14:49:10.460667 13660 net.cpp:148] Top shape: 24 64 28 28 (1204224)
I0403 14:49:10.460683 13660 net.cpp:156] Memory required for data: 500958240
I0403 14:49:10.460698 13660 layer_factory.hpp:77] Creating layer inception_3a/3x3_reduce
I0403 14:49:10.460723 13660 net.cpp:91] Creating Layer inception_3a/3x3_reduce
I0403 14:49:10.460741 13660 net.cpp:425] inception_3a/3x3_reduce <- pool2/3x3_s2_pool2/3x3_s2_0_split_1
I0403 14:49:10.460762 13660 net.cpp:399] inception_3a/3x3_reduce -> inception_3a/3x3_reduce
I0403 14:49:10.462391 13660 net.cpp:141] Setting up inception_3a/3x3_reduce
I0403 14:49:10.462419 13660 net.cpp:148] Top shape: 24 96 28 28 (1806336)
I0403 14:49:10.462435 13660 net.cpp:156] Memory required for data: 508183584
I0403 14:49:10.462455 13660 layer_factory.hpp:77] Creating layer inception_3a/relu_3x3_reduce
I0403 14:49:10.462492 13660 net.cpp:91] Creating Layer inception_3a/relu_3x3_reduce
I0403 14:49:10.462514 13660 net.cpp:425] inception_3a/relu_3x3_reduce <- inception_3a/3x3_reduce
I0403 14:49:10.462534 13660 net.cpp:386] inception_3a/relu_3x3_reduce -> inception_3a/3x3_reduce (in-place)
I0403 14:49:10.462708 13660 net.cpp:141] Setting up inception_3a/relu_3x3_reduce
I0403 14:49:10.462733 13660 net.cpp:148] Top shape: 24 96 28 28 (1806336)
I0403 14:49:10.462746 13660 net.cpp:156] Memory required for data: 515408928
I0403 14:49:10.462759 13660 layer_factory.hpp:77] Creating layer inception_3a/3x3
I0403 14:49:10.462782 13660 net.cpp:91] Creating Layer inception_3a/3x3
I0403 14:49:10.462800 13660 net.cpp:425] inception_3a/3x3 <- inception_3a/3x3_reduce
I0403 14:49:10.462822 13660 net.cpp:399] inception_3a/3x3 -> inception_3a/3x3
I0403 14:49:10.464404 13660 net.cpp:141] Setting up inception_3a/3x3
I0403 14:49:10.464434 13660 net.cpp:148] Top shape: 24 128 28 28 (2408448)
I0403 14:49:10.464452 13660 net.cpp:156] Memory required for data: 525042720
I0403 14:49:10.464471 13660 layer_factory.hpp:77] Creating layer inception_3a/relu_3x3
I0403 14:49:10.464491 13660 net.cpp:91] Creating Layer inception_3a/relu_3x3
I0403 14:49:10.464520 13660 net.cpp:425] inception_3a/relu_3x3 <- inception_3a/3x3
I0403 14:49:10.464541 13660 net.cpp:386] inception_3a/relu_3x3 -> inception_3a/3x3 (in-place)
I0403 14:49:10.464807 13660 net.cpp:141] Setting up inception_3a/relu_3x3
I0403 14:49:10.464836 13660 net.cpp:148] Top shape: 24 128 28 28 (2408448)
I0403 14:49:10.464851 13660 net.cpp:156] Memory required for data: 534676512
I0403 14:49:10.464867 13660 layer_factory.hpp:77] Creating layer inception_3a/5x5_reduce
I0403 14:49:10.464890 13660 net.cpp:91] Creating Layer inception_3a/5x5_reduce
I0403 14:49:10.464910 13660 net.cpp:425] inception_3a/5x5_reduce <- pool2/3x3_s2_pool2/3x3_s2_0_split_2
I0403 14:49:10.464928 13660 net.cpp:399] inception_3a/5x5_reduce -> inception_3a/5x5_reduce
I0403 14:49:10.465847 13660 net.cpp:141] Setting up inception_3a/5x5_reduce
I0403 14:49:10.465875 13660 net.cpp:148] Top shape: 24 16 28 28 (301056)
I0403 14:49:10.465891 13660 net.cpp:156] Memory required for data: 535880736
I0403 14:49:10.465909 13660 layer_factory.hpp:77] Creating layer inception_3a/relu_5x5_reduce
I0403 14:49:10.465926 13660 net.cpp:91] Creating Layer inception_3a/relu_5x5_reduce
I0403 14:49:10.465941 13660 net.cpp:425] inception_3a/relu_5x5_reduce <- inception_3a/5x5_reduce
I0403 14:49:10.465961 13660 net.cpp:386] inception_3a/relu_5x5_reduce -> inception_3a/5x5_reduce (in-place)
I0403 14:49:10.466248 13660 net.cpp:141] Setting up inception_3a/relu_5x5_reduce
I0403 14:49:10.466272 13660 net.cpp:148] Top shape: 24 16 28 28 (301056)
I0403 14:49:10.466287 13660 net.cpp:156] Memory required for data: 537084960
I0403 14:49:10.466301 13660 layer_factory.hpp:77] Creating layer inception_3a/5x5
I0403 14:49:10.466323 13660 net.cpp:91] Creating Layer inception_3a/5x5
I0403 14:49:10.466342 13660 net.cpp:425] inception_3a/5x5 <- inception_3a/5x5_reduce
I0403 14:49:10.466364 13660 net.cpp:399] inception_3a/5x5 -> inception_3a/5x5
I0403 14:49:10.467334 13660 net.cpp:141] Setting up inception_3a/5x5
I0403 14:49:10.467362 13660 net.cpp:148] Top shape: 24 32 28 28 (602112)
I0403 14:49:10.467381 13660 net.cpp:156] Memory required for data: 539493408
I0403 14:49:10.467399 13660 layer_factory.hpp:77] Creating layer inception_3a/relu_5x5
I0403 14:49:10.467417 13660 net.cpp:91] Creating Layer inception_3a/relu_5x5
I0403 14:49:10.467434 13660 net.cpp:425] inception_3a/relu_5x5 <- inception_3a/5x5
I0403 14:49:10.467453 13660 net.cpp:386] inception_3a/relu_5x5 -> inception_3a/5x5 (in-place)
I0403 14:49:10.467624 13660 net.cpp:141] Setting up inception_3a/relu_5x5
I0403 14:49:10.467651 13660 net.cpp:148] Top shape: 24 32 28 28 (602112)
I0403 14:49:10.467665 13660 net.cpp:156] Memory required for data: 541901856
I0403 14:49:10.467679 13660 layer_factory.hpp:77] Creating layer inception_3a/pool
I0403 14:49:10.467697 13660 net.cpp:91] Creating Layer inception_3a/pool
I0403 14:49:10.467727 13660 net.cpp:425] inception_3a/pool <- pool2/3x3_s2_pool2/3x3_s2_0_split_3
I0403 14:49:10.467747 13660 net.cpp:399] inception_3a/pool -> inception_3a/pool
I0403 14:49:10.467803 13660 net.cpp:141] Setting up inception_3a/pool
I0403 14:49:10.467828 13660 net.cpp:148] Top shape: 24 192 28 28 (3612672)
I0403 14:49:10.467844 13660 net.cpp:156] Memory required for data: 556352544
I0403 14:49:10.467856 13660 layer_factory.hpp:77] Creating layer inception_3a/pool_proj
I0403 14:49:10.467875 13660 net.cpp:91] Creating Layer inception_3a/pool_proj
I0403 14:49:10.467891 13660 net.cpp:425] inception_3a/pool_proj <- inception_3a/pool
I0403 14:49:10.467912 13660 net.cpp:399] inception_3a/pool_proj -> inception_3a/pool_proj
I0403 14:49:10.468847 13660 net.cpp:141] Setting up inception_3a/pool_proj
I0403 14:49:10.468874 13660 net.cpp:148] Top shape: 24 32 28 28 (602112)
I0403 14:49:10.468889 13660 net.cpp:156] Memory required for data: 558760992
I0403 14:49:10.468914 13660 layer_factory.hpp:77] Creating layer inception_3a/relu_pool_proj
I0403 14:49:10.468935 13660 net.cpp:91] Creating Layer inception_3a/relu_pool_proj
I0403 14:49:10.468951 13660 net.cpp:425] inception_3a/relu_pool_proj <- inception_3a/pool_proj
I0403 14:49:10.468971 13660 net.cpp:386] inception_3a/relu_pool_proj -> inception_3a/pool_proj (in-place)
I0403 14:49:10.469240 13660 net.cpp:141] Setting up inception_3a/relu_pool_proj
I0403 14:49:10.469269 13660 net.cpp:148] Top shape: 24 32 28 28 (602112)
I0403 14:49:10.469285 13660 net.cpp:156] Memory required for data: 561169440
I0403 14:49:10.469301 13660 layer_factory.hpp:77] Creating layer inception_3a/output
I0403 14:49:10.469321 13660 net.cpp:91] Creating Layer inception_3a/output
I0403 14:49:10.469336 13660 net.cpp:425] inception_3a/output <- inception_3a/1x1
I0403 14:49:10.469352 13660 net.cpp:425] inception_3a/output <- inception_3a/3x3
I0403 14:49:10.469369 13660 net.cpp:425] inception_3a/output <- inception_3a/5x5
I0403 14:49:10.469388 13660 net.cpp:425] inception_3a/output <- inception_3a/pool_proj
I0403 14:49:10.469408 13660 net.cpp:399] inception_3a/output -> inception_3a/output
I0403 14:49:10.469457 13660 net.cpp:141] Setting up inception_3a/output
I0403 14:49:10.469481 13660 net.cpp:148] Top shape: 24 256 28 28 (4816896)
I0403 14:49:10.469497 13660 net.cpp:156] Memory required for data: 580437024
I0403 14:49:10.469518 13660 layer_factory.hpp:77] Creating layer inception_3a/output_inception_3a/output_0_split
I0403 14:49:10.469540 13660 net.cpp:91] Creating Layer inception_3a/output_inception_3a/output_0_split
I0403 14:49:10.469559 13660 net.cpp:425] inception_3a/output_inception_3a/output_0_split <- inception_3a/output
I0403 14:49:10.469575 13660 net.cpp:399] inception_3a/output_inception_3a/output_0_split -> inception_3a/output_inception_3a/output_0_split_0
I0403 14:49:10.469596 13660 net.cpp:399] inception_3a/output_inception_3a/output_0_split -> inception_3a/output_inception_3a/output_0_split_1
I0403 14:49:10.469621 13660 net.cpp:399] inception_3a/output_inception_3a/output_0_split -> inception_3a/output_inception_3a/output_0_split_2
I0403 14:49:10.469643 13660 net.cpp:399] inception_3a/output_inception_3a/output_0_split -> inception_3a/output_inception_3a/output_0_split_3
I0403 14:49:10.469717 13660 net.cpp:141] Setting up inception_3a/output_inception_3a/output_0_split
I0403 14:49:10.469740 13660 net.cpp:148] Top shape: 24 256 28 28 (4816896)
I0403 14:49:10.469758 13660 net.cpp:148] Top shape: 24 256 28 28 (4816896)
I0403 14:49:10.469774 13660 net.cpp:148] Top shape: 24 256 28 28 (4816896)
I0403 14:49:10.469790 13660 net.cpp:148] Top shape: 24 256 28 28 (4816896)
I0403 14:49:10.469804 13660 net.cpp:156] Memory required for data: 657507360
I0403 14:49:10.469817 13660 layer_factory.hpp:77] Creating layer inception_3b/1x1
I0403 14:49:10.469841 13660 net.cpp:91] Creating Layer inception_3b/1x1
I0403 14:49:10.469861 13660 net.cpp:425] inception_3b/1x1 <- inception_3a/output_inception_3a/output_0_split_0
I0403 14:49:10.469880 13660 net.cpp:399] inception_3b/1x1 -> inception_3b/1x1
I0403 14:49:10.470986 13660 net.cpp:141] Setting up inception_3b/1x1
I0403 14:49:10.471027 13660 net.cpp:148] Top shape: 24 128 28 28 (2408448)
I0403 14:49:10.471045 13660 net.cpp:156] Memory required for data: 667141152
I0403 14:49:10.471061 13660 layer_factory.hpp:77] Creating layer inception_3b/relu_1x1
I0403 14:49:10.471084 13660 net.cpp:91] Creating Layer inception_3b/relu_1x1
I0403 14:49:10.471101 13660 net.cpp:425] inception_3b/relu_1x1 <- inception_3b/1x1
I0403 14:49:10.471117 13660 net.cpp:386] inception_3b/relu_1x1 -> inception_3b/1x1 (in-place)
I0403 14:49:10.471283 13660 net.cpp:141] Setting up inception_3b/relu_1x1
I0403 14:49:10.471309 13660 net.cpp:148] Top shape: 24 128 28 28 (2408448)
I0403 14:49:10.471324 13660 net.cpp:156] Memory required for data: 676774944
I0403 14:49:10.471338 13660 layer_factory.hpp:77] Creating layer inception_3b/3x3_reduce
I0403 14:49:10.471360 13660 net.cpp:91] Creating Layer inception_3b/3x3_reduce
I0403 14:49:10.471377 13660 net.cpp:425] inception_3b/3x3_reduce <- inception_3a/output_inception_3a/output_0_split_1
I0403 14:49:10.471395 13660 net.cpp:399] inception_3b/3x3_reduce -> inception_3b/3x3_reduce
I0403 14:49:10.472498 13660 net.cpp:141] Setting up inception_3b/3x3_reduce
I0403 14:49:10.472529 13660 net.cpp:148] Top shape: 24 128 28 28 (2408448)
I0403 14:49:10.472546 13660 net.cpp:156] Memory required for data: 686408736
I0403 14:49:10.472564 13660 layer_factory.hpp:77] Creating layer inception_3b/relu_3x3_reduce
I0403 14:49:10.472585 13660 net.cpp:91] Creating Layer inception_3b/relu_3x3_reduce
I0403 14:49:10.472604 13660 net.cpp:425] inception_3b/relu_3x3_reduce <- inception_3b/3x3_reduce
I0403 14:49:10.472623 13660 net.cpp:386] inception_3b/relu_3x3_reduce -> inception_3b/3x3_reduce (in-place)
I0403 14:49:10.472786 13660 net.cpp:141] Setting up inception_3b/relu_3x3_reduce
I0403 14:49:10.472812 13660 net.cpp:148] Top shape: 24 128 28 28 (2408448)
I0403 14:49:10.472828 13660 net.cpp:156] Memory required for data: 696042528
I0403 14:49:10.472844 13660 layer_factory.hpp:77] Creating layer inception_3b/3x3
I0403 14:49:10.472870 13660 net.cpp:91] Creating Layer inception_3b/3x3
I0403 14:49:10.472889 13660 net.cpp:425] inception_3b/3x3 <- inception_3b/3x3_reduce
I0403 14:49:10.472911 13660 net.cpp:399] inception_3b/3x3 -> inception_3b/3x3
I0403 14:49:10.475817 13660 net.cpp:141] Setting up inception_3b/3x3
I0403 14:49:10.475849 13660 net.cpp:148] Top shape: 24 192 28 28 (3612672)
I0403 14:49:10.475864 13660 net.cpp:156] Memory required for data: 710493216
I0403 14:49:10.475884 13660 layer_factory.hpp:77] Creating layer inception_3b/relu_3x3
I0403 14:49:10.475904 13660 net.cpp:91] Creating Layer inception_3b/relu_3x3
I0403 14:49:10.475919 13660 net.cpp:425] inception_3b/relu_3x3 <- inception_3b/3x3
I0403 14:49:10.475936 13660 net.cpp:386] inception_3b/relu_3x3 -> inception_3b/3x3 (in-place)
I0403 14:49:10.476204 13660 net.cpp:141] Setting up inception_3b/relu_3x3
I0403 14:49:10.476232 13660 net.cpp:148] Top shape: 24 192 28 28 (3612672)
I0403 14:49:10.476246 13660 net.cpp:156] Memory required for data: 724943904
I0403 14:49:10.476263 13660 layer_factory.hpp:77] Creating layer inception_3b/5x5_reduce
I0403 14:49:10.476286 13660 net.cpp:91] Creating Layer inception_3b/5x5_reduce
I0403 14:49:10.476305 13660 net.cpp:425] inception_3b/5x5_reduce <- inception_3a/output_inception_3a/output_0_split_2
I0403 14:49:10.476323 13660 net.cpp:399] inception_3b/5x5_reduce -> inception_3b/5x5_reduce
I0403 14:49:10.477278 13660 net.cpp:141] Setting up inception_3b/5x5_reduce
I0403 14:49:10.477309 13660 net.cpp:148] Top shape: 24 32 28 28 (602112)
I0403 14:49:10.477327 13660 net.cpp:156] Memory required for data: 727352352
I0403 14:49:10.477346 13660 layer_factory.hpp:77] Creating layer inception_3b/relu_5x5_reduce
I0403 14:49:10.477365 13660 net.cpp:91] Creating Layer inception_3b/relu_5x5_reduce
I0403 14:49:10.477380 13660 net.cpp:425] inception_3b/relu_5x5_reduce <- inception_3b/5x5_reduce
I0403 14:49:10.477397 13660 net.cpp:386] inception_3b/relu_5x5_reduce -> inception_3b/5x5_reduce (in-place)
I0403 14:49:10.477588 13660 net.cpp:141] Setting up inception_3b/relu_5x5_reduce
I0403 14:49:10.477617 13660 net.cpp:148] Top shape: 24 32 28 28 (602112)
I0403 14:49:10.477632 13660 net.cpp:156] Memory required for data: 729760800
I0403 14:49:10.477648 13660 layer_factory.hpp:77] Creating layer inception_3b/5x5
I0403 14:49:10.477670 13660 net.cpp:91] Creating Layer inception_3b/5x5
I0403 14:49:10.477689 13660 net.cpp:425] inception_3b/5x5 <- inception_3b/5x5_reduce
I0403 14:49:10.477708 13660 net.cpp:399] inception_3b/5x5 -> inception_3b/5x5
I0403 14:49:10.479724 13660 net.cpp:141] Setting up inception_3b/5x5
I0403 14:49:10.479794 13660 net.cpp:148] Top shape: 24 96 28 28 (1806336)
I0403 14:49:10.479812 13660 net.cpp:156] Memory required for data: 736986144
I0403 14:49:10.479832 13660 layer_factory.hpp:77] Creating layer inception_3b/relu_5x5
I0403 14:49:10.479857 13660 net.cpp:91] Creating Layer inception_3b/relu_5x5
I0403 14:49:10.479876 13660 net.cpp:425] inception_3b/relu_5x5 <- inception_3b/5x5
I0403 14:49:10.479897 13660 net.cpp:386] inception_3b/relu_5x5 -> inception_3b/5x5 (in-place)
I0403 14:49:10.480087 13660 net.cpp:141] Setting up inception_3b/relu_5x5
I0403 14:49:10.480113 13660 net.cpp:148] Top shape: 24 96 28 28 (1806336)
I0403 14:49:10.480129 13660 net.cpp:156] Memory required for data: 744211488
I0403 14:49:10.480146 13660 layer_factory.hpp:77] Creating layer inception_3b/pool
I0403 14:49:10.480165 13660 net.cpp:91] Creating Layer inception_3b/pool
I0403 14:49:10.480183 13660 net.cpp:425] inception_3b/pool <- inception_3a/output_inception_3a/output_0_split_3
I0403 14:49:10.480201 13660 net.cpp:399] inception_3b/pool -> inception_3b/pool
I0403 14:49:10.480258 13660 net.cpp:141] Setting up inception_3b/pool
I0403 14:49:10.480283 13660 net.cpp:148] Top shape: 24 256 28 28 (4816896)
I0403 14:49:10.480300 13660 net.cpp:156] Memory required for data: 763479072
I0403 14:49:10.480314 13660 layer_factory.hpp:77] Creating layer inception_3b/pool_proj
I0403 14:49:10.480341 13660 net.cpp:91] Creating Layer inception_3b/pool_proj
I0403 14:49:10.480360 13660 net.cpp:425] inception_3b/pool_proj <- inception_3b/pool
I0403 14:49:10.480381 13660 net.cpp:399] inception_3b/pool_proj -> inception_3b/pool_proj
I0403 14:49:10.481441 13660 net.cpp:141] Setting up inception_3b/pool_proj
I0403 14:49:10.481474 13660 net.cpp:148] Top shape: 24 64 28 28 (1204224)
I0403 14:49:10.481492 13660 net.cpp:156] Memory required for data: 768295968
I0403 14:49:10.481514 13660 layer_factory.hpp:77] Creating layer inception_3b/relu_pool_proj
I0403 14:49:10.481537 13660 net.cpp:91] Creating Layer inception_3b/relu_pool_proj
I0403 14:49:10.481554 13660 net.cpp:425] inception_3b/relu_pool_proj <- inception_3b/pool_proj
I0403 14:49:10.481575 13660 net.cpp:386] inception_3b/relu_pool_proj -> inception_3b/pool_proj (in-place)
I0403 14:49:10.481971 13660 net.cpp:141] Setting up inception_3b/relu_pool_proj
I0403 14:49:10.481998 13660 net.cpp:148] Top shape: 24 64 28 28 (1204224)
I0403 14:49:10.482014 13660 net.cpp:156] Memory required for data: 773112864
I0403 14:49:10.482028 13660 layer_factory.hpp:77] Creating layer inception_3b/output
I0403 14:49:10.482048 13660 net.cpp:91] Creating Layer inception_3b/output
I0403 14:49:10.482065 13660 net.cpp:425] inception_3b/output <- inception_3b/1x1
I0403 14:49:10.482082 13660 net.cpp:425] inception_3b/output <- inception_3b/3x3
I0403 14:49:10.482100 13660 net.cpp:425] inception_3b/output <- inception_3b/5x5
I0403 14:49:10.482115 13660 net.cpp:425] inception_3b/output <- inception_3b/pool_proj
I0403 14:49:10.482134 13660 net.cpp:399] inception_3b/output -> inception_3b/output
I0403 14:49:10.482179 13660 net.cpp:141] Setting up inception_3b/output
I0403 14:49:10.482203 13660 net.cpp:148] Top shape: 24 480 28 28 (9031680)
I0403 14:49:10.482223 13660 net.cpp:156] Memory required for data: 809239584
I0403 14:49:10.482239 13660 layer_factory.hpp:77] Creating layer pool3/3x3_s2
I0403 14:49:10.482257 13660 net.cpp:91] Creating Layer pool3/3x3_s2
I0403 14:49:10.482275 13660 net.cpp:425] pool3/3x3_s2 <- inception_3b/output
I0403 14:49:10.482331 13660 net.cpp:399] pool3/3x3_s2 -> pool3/3x3_s2
I0403 14:49:10.482393 13660 net.cpp:141] Setting up pool3/3x3_s2
I0403 14:49:10.482419 13660 net.cpp:148] Top shape: 24 480 14 14 (2257920)
I0403 14:49:10.482434 13660 net.cpp:156] Memory required for data: 818271264
I0403 14:49:10.482447 13660 layer_factory.hpp:77] Creating layer pool3/3x3_s2_pool3/3x3_s2_0_split
I0403 14:49:10.482465 13660 net.cpp:91] Creating Layer pool3/3x3_s2_pool3/3x3_s2_0_split
I0403 14:49:10.482481 13660 net.cpp:425] pool3/3x3_s2_pool3/3x3_s2_0_split <- pool3/3x3_s2
I0403 14:49:10.482501 13660 net.cpp:399] pool3/3x3_s2_pool3/3x3_s2_0_split -> pool3/3x3_s2_pool3/3x3_s2_0_split_0
I0403 14:49:10.482527 13660 net.cpp:399] pool3/3x3_s2_pool3/3x3_s2_0_split -> pool3/3x3_s2_pool3/3x3_s2_0_split_1
I0403 14:49:10.482550 13660 net.cpp:399] pool3/3x3_s2_pool3/3x3_s2_0_split -> pool3/3x3_s2_pool3/3x3_s2_0_split_2
I0403 14:49:10.482570 13660 net.cpp:399] pool3/3x3_s2_pool3/3x3_s2_0_split -> pool3/3x3_s2_pool3/3x3_s2_0_split_3
I0403 14:49:10.482645 13660 net.cpp:141] Setting up pool3/3x3_s2_pool3/3x3_s2_0_split
I0403 14:49:10.482671 13660 net.cpp:148] Top shape: 24 480 14 14 (2257920)
I0403 14:49:10.482689 13660 net.cpp:148] Top shape: 24 480 14 14 (2257920)
I0403 14:49:10.482704 13660 net.cpp:148] Top shape: 24 480 14 14 (2257920)
I0403 14:49:10.482719 13660 net.cpp:148] Top shape: 24 480 14 14 (2257920)
I0403 14:49:10.482734 13660 net.cpp:156] Memory required for data: 854397984
I0403 14:49:10.482748 13660 layer_factory.hpp:77] Creating layer inception_4a/1x1
I0403 14:49:10.482774 13660 net.cpp:91] Creating Layer inception_4a/1x1
I0403 14:49:10.482794 13660 net.cpp:425] inception_4a/1x1 <- pool3/3x3_s2_pool3/3x3_s2_0_split_0
I0403 14:49:10.482815 13660 net.cpp:399] inception_4a/1x1 -> inception_4a/1x1
I0403 14:49:10.484482 13660 net.cpp:141] Setting up inception_4a/1x1
I0403 14:49:10.484549 13660 net.cpp:148] Top shape: 24 192 14 14 (903168)
I0403 14:49:10.484568 13660 net.cpp:156] Memory required for data: 858010656
I0403 14:49:10.484589 13660 layer_factory.hpp:77] Creating layer inception_4a/relu_1x1
I0403 14:49:10.484611 13660 net.cpp:91] Creating Layer inception_4a/relu_1x1
I0403 14:49:10.484629 13660 net.cpp:425] inception_4a/relu_1x1 <- inception_4a/1x1
I0403 14:49:10.484647 13660 net.cpp:386] inception_4a/relu_1x1 -> inception_4a/1x1 (in-place)
I0403 14:49:10.484832 13660 net.cpp:141] Setting up inception_4a/relu_1x1
I0403 14:49:10.484858 13660 net.cpp:148] Top shape: 24 192 14 14 (903168)
I0403 14:49:10.484871 13660 net.cpp:156] Memory required for data: 861623328
I0403 14:49:10.484885 13660 layer_factory.hpp:77] Creating layer inception_4a/3x3_reduce
I0403 14:49:10.484910 13660 net.cpp:91] Creating Layer inception_4a/3x3_reduce
I0403 14:49:10.484928 13660 net.cpp:425] inception_4a/3x3_reduce <- pool3/3x3_s2_pool3/3x3_s2_0_split_1
I0403 14:49:10.484963 13660 net.cpp:399] inception_4a/3x3_reduce -> inception_4a/3x3_reduce
I0403 14:49:10.486217 13660 net.cpp:141] Setting up inception_4a/3x3_reduce
I0403 14:49:10.486244 13660 net.cpp:148] Top shape: 24 96 14 14 (451584)
I0403 14:49:10.486258 13660 net.cpp:156] Memory required for data: 863429664
I0403 14:49:10.486285 13660 layer_factory.hpp:77] Creating layer inception_4a/relu_3x3_reduce
I0403 14:49:10.486306 13660 net.cpp:91] Creating Layer inception_4a/relu_3x3_reduce
I0403 14:49:10.486322 13660 net.cpp:425] inception_4a/relu_3x3_reduce <- inception_4a/3x3_reduce
I0403 14:49:10.486341 13660 net.cpp:386] inception_4a/relu_3x3_reduce -> inception_4a/3x3_reduce (in-place)
I0403 14:49:10.486515 13660 net.cpp:141] Setting up inception_4a/relu_3x3_reduce
I0403 14:49:10.486539 13660 net.cpp:148] Top shape: 24 96 14 14 (451584)
I0403 14:49:10.486553 13660 net.cpp:156] Memory required for data: 865236000
I0403 14:49:10.486567 13660 layer_factory.hpp:77] Creating layer inception_4a/3x3
I0403 14:49:10.486588 13660 net.cpp:91] Creating Layer inception_4a/3x3
I0403 14:49:10.486605 13660 net.cpp:425] inception_4a/3x3 <- inception_4a/3x3_reduce
I0403 14:49:10.486626 13660 net.cpp:399] inception_4a/3x3 -> inception_4a/3x3
I0403 14:49:10.489392 13660 net.cpp:141] Setting up inception_4a/3x3
I0403 14:49:10.489423 13660 net.cpp:148] Top shape: 24 208 14 14 (978432)
I0403 14:49:10.489439 13660 net.cpp:156] Memory required for data: 869149728
I0403 14:49:10.489456 13660 layer_factory.hpp:77] Creating layer inception_4a/relu_3x3
I0403 14:49:10.489476 13660 net.cpp:91] Creating Layer inception_4a/relu_3x3
I0403 14:49:10.489493 13660 net.cpp:425] inception_4a/relu_3x3 <- inception_4a/3x3
I0403 14:49:10.489516 13660 net.cpp:386] inception_4a/relu_3x3 -> inception_4a/3x3 (in-place)
I0403 14:49:10.489792 13660 net.cpp:141] Setting up inception_4a/relu_3x3
I0403 14:49:10.489820 13660 net.cpp:148] Top shape: 24 208 14 14 (978432)
I0403 14:49:10.489833 13660 net.cpp:156] Memory required for data: 873063456
I0403 14:49:10.489848 13660 layer_factory.hpp:77] Creating layer inception_4a/5x5_reduce
I0403 14:49:10.489871 13660 net.cpp:91] Creating Layer inception_4a/5x5_reduce
I0403 14:49:10.489887 13660 net.cpp:425] inception_4a/5x5_reduce <- pool3/3x3_s2_pool3/3x3_s2_0_split_2
I0403 14:49:10.489908 13660 net.cpp:399] inception_4a/5x5_reduce -> inception_4a/5x5_reduce
I0403 14:49:10.490944 13660 net.cpp:141] Setting up inception_4a/5x5_reduce
I0403 14:49:10.490972 13660 net.cpp:148] Top shape: 24 16 14 14 (75264)
I0403 14:49:10.490990 13660 net.cpp:156] Memory required for data: 873364512
I0403 14:49:10.491008 13660 layer_factory.hpp:77] Creating layer inception_4a/relu_5x5_reduce
I0403 14:49:10.491026 13660 net.cpp:91] Creating Layer inception_4a/relu_5x5_reduce
I0403 14:49:10.491042 13660 net.cpp:425] inception_4a/relu_5x5_reduce <- inception_4a/5x5_reduce
I0403 14:49:10.491058 13660 net.cpp:386] inception_4a/relu_5x5_reduce -> inception_4a/5x5_reduce (in-place)
I0403 14:49:10.491235 13660 net.cpp:141] Setting up inception_4a/relu_5x5_reduce
I0403 14:49:10.491262 13660 net.cpp:148] Top shape: 24 16 14 14 (75264)
I0403 14:49:10.491278 13660 net.cpp:156] Memory required for data: 873665568
I0403 14:49:10.491293 13660 layer_factory.hpp:77] Creating layer inception_4a/5x5
I0403 14:49:10.491317 13660 net.cpp:91] Creating Layer inception_4a/5x5
I0403 14:49:10.491333 13660 net.cpp:425] inception_4a/5x5 <- inception_4a/5x5_reduce
I0403 14:49:10.491353 13660 net.cpp:399] inception_4a/5x5 -> inception_4a/5x5
I0403 14:49:10.492451 13660 net.cpp:141] Setting up inception_4a/5x5
I0403 14:49:10.492478 13660 net.cpp:148] Top shape: 24 48 14 14 (225792)
I0403 14:49:10.492494 13660 net.cpp:156] Memory required for data: 874568736
I0403 14:49:10.492516 13660 layer_factory.hpp:77] Creating layer inception_4a/relu_5x5
I0403 14:49:10.492545 13660 net.cpp:91] Creating Layer inception_4a/relu_5x5
I0403 14:49:10.492560 13660 net.cpp:425] inception_4a/relu_5x5 <- inception_4a/5x5
I0403 14:49:10.492579 13660 net.cpp:386] inception_4a/relu_5x5 -> inception_4a/5x5 (in-place)
I0403 14:49:10.492758 13660 net.cpp:141] Setting up inception_4a/relu_5x5
I0403 14:49:10.492782 13660 net.cpp:148] Top shape: 24 48 14 14 (225792)
I0403 14:49:10.492796 13660 net.cpp:156] Memory required for data: 875471904
I0403 14:49:10.492810 13660 layer_factory.hpp:77] Creating layer inception_4a/pool
I0403 14:49:10.492831 13660 net.cpp:91] Creating Layer inception_4a/pool
I0403 14:49:10.492847 13660 net.cpp:425] inception_4a/pool <- pool3/3x3_s2_pool3/3x3_s2_0_split_3
I0403 14:49:10.492866 13660 net.cpp:399] inception_4a/pool -> inception_4a/pool
I0403 14:49:10.492928 13660 net.cpp:141] Setting up inception_4a/pool
I0403 14:49:10.492951 13660 net.cpp:148] Top shape: 24 480 14 14 (2257920)
I0403 14:49:10.492965 13660 net.cpp:156] Memory required for data: 884503584
I0403 14:49:10.492980 13660 layer_factory.hpp:77] Creating layer inception_4a/pool_proj
I0403 14:49:10.493001 13660 net.cpp:91] Creating Layer inception_4a/pool_proj
I0403 14:49:10.493019 13660 net.cpp:425] inception_4a/pool_proj <- inception_4a/pool
I0403 14:49:10.493041 13660 net.cpp:399] inception_4a/pool_proj -> inception_4a/pool_proj
I0403 14:49:10.494271 13660 net.cpp:141] Setting up inception_4a/pool_proj
I0403 14:49:10.494300 13660 net.cpp:148] Top shape: 24 64 14 14 (301056)
I0403 14:49:10.494333 13660 net.cpp:156] Memory required for data: 885707808
I0403 14:49:10.494352 13660 layer_factory.hpp:77] Creating layer inception_4a/relu_pool_proj
I0403 14:49:10.494370 13660 net.cpp:91] Creating Layer inception_4a/relu_pool_proj
I0403 14:49:10.494386 13660 net.cpp:425] inception_4a/relu_pool_proj <- inception_4a/pool_proj
I0403 14:49:10.494406 13660 net.cpp:386] inception_4a/relu_pool_proj -> inception_4a/pool_proj (in-place)
I0403 14:49:10.494699 13660 net.cpp:141] Setting up inception_4a/relu_pool_proj
I0403 14:49:10.494725 13660 net.cpp:148] Top shape: 24 64 14 14 (301056)
I0403 14:49:10.494740 13660 net.cpp:156] Memory required for data: 886912032
I0403 14:49:10.494755 13660 layer_factory.hpp:77] Creating layer inception_4a/output
I0403 14:49:10.494772 13660 net.cpp:91] Creating Layer inception_4a/output
I0403 14:49:10.494788 13660 net.cpp:425] inception_4a/output <- inception_4a/1x1
I0403 14:49:10.494803 13660 net.cpp:425] inception_4a/output <- inception_4a/3x3
I0403 14:49:10.494819 13660 net.cpp:425] inception_4a/output <- inception_4a/5x5
I0403 14:49:10.494835 13660 net.cpp:425] inception_4a/output <- inception_4a/pool_proj
I0403 14:49:10.494855 13660 net.cpp:399] inception_4a/output -> inception_4a/output
I0403 14:49:10.494900 13660 net.cpp:141] Setting up inception_4a/output
I0403 14:49:10.494926 13660 net.cpp:148] Top shape: 24 512 14 14 (2408448)
I0403 14:49:10.494942 13660 net.cpp:156] Memory required for data: 896545824
I0403 14:49:10.494957 13660 layer_factory.hpp:77] Creating layer inception_4a/output_inception_4a/output_0_split
I0403 14:49:10.494976 13660 net.cpp:91] Creating Layer inception_4a/output_inception_4a/output_0_split
I0403 14:49:10.494990 13660 net.cpp:425] inception_4a/output_inception_4a/output_0_split <- inception_4a/output
I0403 14:49:10.495008 13660 net.cpp:399] inception_4a/output_inception_4a/output_0_split -> inception_4a/output_inception_4a/output_0_split_0
I0403 14:49:10.495030 13660 net.cpp:399] inception_4a/output_inception_4a/output_0_split -> inception_4a/output_inception_4a/output_0_split_1
I0403 14:49:10.495053 13660 net.cpp:399] inception_4a/output_inception_4a/output_0_split -> inception_4a/output_inception_4a/output_0_split_2
I0403 14:49:10.495072 13660 net.cpp:399] inception_4a/output_inception_4a/output_0_split -> inception_4a/output_inception_4a/output_0_split_3
I0403 14:49:10.495092 13660 net.cpp:399] inception_4a/output_inception_4a/output_0_split -> inception_4a/output_inception_4a/output_0_split_4
I0403 14:49:10.495183 13660 net.cpp:141] Setting up inception_4a/output_inception_4a/output_0_split
I0403 14:49:10.495208 13660 net.cpp:148] Top shape: 24 512 14 14 (2408448)
I0403 14:49:10.495225 13660 net.cpp:148] Top shape: 24 512 14 14 (2408448)
I0403 14:49:10.495241 13660 net.cpp:148] Top shape: 24 512 14 14 (2408448)
I0403 14:49:10.495255 13660 net.cpp:148] Top shape: 24 512 14 14 (2408448)
I0403 14:49:10.495270 13660 net.cpp:148] Top shape: 24 512 14 14 (2408448)
I0403 14:49:10.495283 13660 net.cpp:156] Memory required for data: 944714784
I0403 14:49:10.495298 13660 layer_factory.hpp:77] Creating layer loss1/ave_pool
I0403 14:49:10.495316 13660 net.cpp:91] Creating Layer loss1/ave_pool
I0403 14:49:10.495332 13660 net.cpp:425] loss1/ave_pool <- inception_4a/output_inception_4a/output_0_split_0
I0403 14:49:10.495349 13660 net.cpp:399] loss1/ave_pool -> loss1/ave_pool
I0403 14:49:10.495559 13660 net.cpp:141] Setting up loss1/ave_pool
I0403 14:49:10.495585 13660 net.cpp:148] Top shape: 24 512 4 4 (196608)
I0403 14:49:10.495600 13660 net.cpp:156] Memory required for data: 945501216
I0403 14:49:10.495615 13660 layer_factory.hpp:77] Creating layer loss1/conv
I0403 14:49:10.495637 13660 net.cpp:91] Creating Layer loss1/conv
I0403 14:49:10.495654 13660 net.cpp:425] loss1/conv <- loss1/ave_pool
I0403 14:49:10.495676 13660 net.cpp:399] loss1/conv -> loss1/conv
I0403 14:49:10.497074 13660 net.cpp:141] Setting up loss1/conv
I0403 14:49:10.497103 13660 net.cpp:148] Top shape: 24 128 4 4 (49152)
I0403 14:49:10.497134 13660 net.cpp:156] Memory required for data: 945697824
I0403 14:49:10.497154 13660 layer_factory.hpp:77] Creating layer loss1/relu_conv
I0403 14:49:10.497174 13660 net.cpp:91] Creating Layer loss1/relu_conv
I0403 14:49:10.497191 13660 net.cpp:425] loss1/relu_conv <- loss1/conv
I0403 14:49:10.497207 13660 net.cpp:386] loss1/relu_conv -> loss1/conv (in-place)
I0403 14:49:10.497488 13660 net.cpp:141] Setting up loss1/relu_conv
I0403 14:49:10.497517 13660 net.cpp:148] Top shape: 24 128 4 4 (49152)
I0403 14:49:10.497534 13660 net.cpp:156] Memory required for data: 945894432
I0403 14:49:10.497548 13660 layer_factory.hpp:77] Creating layer loss1/fc
I0403 14:49:10.497573 13660 net.cpp:91] Creating Layer loss1/fc
I0403 14:49:10.497591 13660 net.cpp:425] loss1/fc <- loss1/conv
I0403 14:49:10.497609 13660 net.cpp:399] loss1/fc -> loss1/fc
I0403 14:49:10.515200 13660 net.cpp:141] Setting up loss1/fc
I0403 14:49:10.515252 13660 net.cpp:148] Top shape: 24 1024 (24576)
I0403 14:49:10.515269 13660 net.cpp:156] Memory required for data: 945992736
I0403 14:49:10.515287 13660 layer_factory.hpp:77] Creating layer loss1/relu_fc
I0403 14:49:10.515316 13660 net.cpp:91] Creating Layer loss1/relu_fc
I0403 14:49:10.515332 13660 net.cpp:425] loss1/relu_fc <- loss1/fc
I0403 14:49:10.515352 13660 net.cpp:386] loss1/relu_fc -> loss1/fc (in-place)
I0403 14:49:10.515564 13660 net.cpp:141] Setting up loss1/relu_fc
I0403 14:49:10.515599 13660 net.cpp:148] Top shape: 24 1024 (24576)
I0403 14:49:10.515614 13660 net.cpp:156] Memory required for data: 946091040
I0403 14:49:10.515629 13660 layer_factory.hpp:77] Creating layer loss1/drop_fc
I0403 14:49:10.515658 13660 net.cpp:91] Creating Layer loss1/drop_fc
I0403 14:49:10.515676 13660 net.cpp:425] loss1/drop_fc <- loss1/fc
I0403 14:49:10.515693 13660 net.cpp:386] loss1/drop_fc -> loss1/fc (in-place)
I0403 14:49:10.515744 13660 net.cpp:141] Setting up loss1/drop_fc
I0403 14:49:10.515771 13660 net.cpp:148] Top shape: 24 1024 (24576)
I0403 14:49:10.515786 13660 net.cpp:156] Memory required for data: 946189344
I0403 14:49:10.515802 13660 layer_factory.hpp:77] Creating layer loss1/classifier_plantvillage
I0403 14:49:10.515821 13660 net.cpp:91] Creating Layer loss1/classifier_plantvillage
I0403 14:49:10.515836 13660 net.cpp:425] loss1/classifier_plantvillage <- loss1/fc
I0403 14:49:10.515856 13660 net.cpp:399] loss1/classifier_plantvillage -> loss1/classifier_plantvillage
I0403 14:49:10.516793 13660 net.cpp:141] Setting up loss1/classifier_plantvillage
I0403 14:49:10.516820 13660 net.cpp:148] Top shape: 24 38 (912)
I0403 14:49:10.516835 13660 net.cpp:156] Memory required for data: 946192992
I0403 14:49:10.516854 13660 layer_factory.hpp:77] Creating layer loss1/classifier_plantvillage_loss1/classifier_plantvillage_0_split
I0403 14:49:10.516875 13660 net.cpp:91] Creating Layer loss1/classifier_plantvillage_loss1/classifier_plantvillage_0_split
I0403 14:49:10.516892 13660 net.cpp:425] loss1/classifier_plantvillage_loss1/classifier_plantvillage_0_split <- loss1/classifier_plantvillage
I0403 14:49:10.516911 13660 net.cpp:399] loss1/classifier_plantvillage_loss1/classifier_plantvillage_0_split -> loss1/classifier_plantvillage_loss1/classifier_plantvillage_0_split_0
I0403 14:49:10.516930 13660 net.cpp:399] loss1/classifier_plantvillage_loss1/classifier_plantvillage_0_split -> loss1/classifier_plantvillage_loss1/classifier_plantvillage_0_split_1
I0403 14:49:10.516950 13660 net.cpp:399] loss1/classifier_plantvillage_loss1/classifier_plantvillage_0_split -> loss1/classifier_plantvillage_loss1/classifier_plantvillage_0_split_2
I0403 14:49:10.517017 13660 net.cpp:141] Setting up loss1/classifier_plantvillage_loss1/classifier_plantvillage_0_split
I0403 14:49:10.517040 13660 net.cpp:148] Top shape: 24 38 (912)
I0403 14:49:10.517056 13660 net.cpp:148] Top shape: 24 38 (912)
I0403 14:49:10.517072 13660 net.cpp:148] Top shape: 24 38 (912)
I0403 14:49:10.517086 13660 net.cpp:156] Memory required for data: 946203936
I0403 14:49:10.517101 13660 layer_factory.hpp:77] Creating layer inception_4b/1x1
I0403 14:49:10.517120 13660 net.cpp:91] Creating Layer inception_4b/1x1
I0403 14:49:10.517163 13660 net.cpp:425] inception_4b/1x1 <- inception_4a/output_inception_4a/output_0_split_1
I0403 14:49:10.517184 13660 net.cpp:399] inception_4b/1x1 -> inception_4b/1x1
I0403 14:49:10.518849 13660 net.cpp:141] Setting up inception_4b/1x1
I0403 14:49:10.518878 13660 net.cpp:148] Top shape: 24 160 14 14 (752640)
I0403 14:49:10.518895 13660 net.cpp:156] Memory required for data: 949214496
I0403 14:49:10.518915 13660 layer_factory.hpp:77] Creating layer inception_4b/relu_1x1
I0403 14:49:10.518936 13660 net.cpp:91] Creating Layer inception_4b/relu_1x1
I0403 14:49:10.518954 13660 net.cpp:425] inception_4b/relu_1x1 <- inception_4b/1x1
I0403 14:49:10.518970 13660 net.cpp:386] inception_4b/relu_1x1 -> inception_4b/1x1 (in-place)
I0403 14:49:10.519145 13660 net.cpp:141] Setting up inception_4b/relu_1x1
I0403 14:49:10.519176 13660 net.cpp:148] Top shape: 24 160 14 14 (752640)
I0403 14:49:10.519191 13660 net.cpp:156] Memory required for data: 952225056
I0403 14:49:10.519207 13660 layer_factory.hpp:77] Creating layer inception_4b/3x3_reduce
I0403 14:49:10.519229 13660 net.cpp:91] Creating Layer inception_4b/3x3_reduce
I0403 14:49:10.519248 13660 net.cpp:425] inception_4b/3x3_reduce <- inception_4a/output_inception_4a/output_0_split_2
I0403 14:49:10.519266 13660 net.cpp:399] inception_4b/3x3_reduce -> inception_4b/3x3_reduce
I0403 14:49:10.520700 13660 net.cpp:141] Setting up inception_4b/3x3_reduce
I0403 14:49:10.520732 13660 net.cpp:148] Top shape: 24 112 14 14 (526848)
I0403 14:49:10.520752 13660 net.cpp:156] Memory required for data: 954332448
I0403 14:49:10.520772 13660 layer_factory.hpp:77] Creating layer inception_4b/relu_3x3_reduce
I0403 14:49:10.520790 13660 net.cpp:91] Creating Layer inception_4b/relu_3x3_reduce
I0403 14:49:10.520807 13660 net.cpp:425] inception_4b/relu_3x3_reduce <- inception_4b/3x3_reduce
I0403 14:49:10.520825 13660 net.cpp:386] inception_4b/relu_3x3_reduce -> inception_4b/3x3_reduce (in-place)
I0403 14:49:10.521106 13660 net.cpp:141] Setting up inception_4b/relu_3x3_reduce
I0403 14:49:10.521133 13660 net.cpp:148] Top shape: 24 112 14 14 (526848)
I0403 14:49:10.521149 13660 net.cpp:156] Memory required for data: 956439840
I0403 14:49:10.521164 13660 layer_factory.hpp:77] Creating layer inception_4b/3x3
I0403 14:49:10.521186 13660 net.cpp:91] Creating Layer inception_4b/3x3
I0403 14:49:10.521204 13660 net.cpp:425] inception_4b/3x3 <- inception_4b/3x3_reduce
I0403 14:49:10.521224 13660 net.cpp:399] inception_4b/3x3 -> inception_4b/3x3
I0403 14:49:10.524261 13660 net.cpp:141] Setting up inception_4b/3x3
I0403 14:49:10.524291 13660 net.cpp:148] Top shape: 24 224 14 14 (1053696)
I0403 14:49:10.524307 13660 net.cpp:156] Memory required for data: 960654624
I0403 14:49:10.524327 13660 layer_factory.hpp:77] Creating layer inception_4b/relu_3x3
I0403 14:49:10.524346 13660 net.cpp:91] Creating Layer inception_4b/relu_3x3
I0403 14:49:10.524363 13660 net.cpp:425] inception_4b/relu_3x3 <- inception_4b/3x3
I0403 14:49:10.524380 13660 net.cpp:386] inception_4b/relu_3x3 -> inception_4b/3x3 (in-place)
I0403 14:49:10.524570 13660 net.cpp:141] Setting up inception_4b/relu_3x3
I0403 14:49:10.524595 13660 net.cpp:148] Top shape: 24 224 14 14 (1053696)
I0403 14:49:10.524610 13660 net.cpp:156] Memory required for data: 964869408
I0403 14:49:10.524624 13660 layer_factory.hpp:77] Creating layer inception_4b/5x5_reduce
I0403 14:49:10.524649 13660 net.cpp:91] Creating Layer inception_4b/5x5_reduce
I0403 14:49:10.524667 13660 net.cpp:425] inception_4b/5x5_reduce <- inception_4a/output_inception_4a/output_0_split_3
I0403 14:49:10.524685 13660 net.cpp:399] inception_4b/5x5_reduce -> inception_4b/5x5_reduce
I0403 14:49:10.525764 13660 net.cpp:141] Setting up inception_4b/5x5_reduce
I0403 14:49:10.525794 13660 net.cpp:148] Top shape: 24 24 14 14 (112896)
I0403 14:49:10.525810 13660 net.cpp:156] Memory required for data: 965320992
I0403 14:49:10.525830 13660 layer_factory.hpp:77] Creating layer inception_4b/relu_5x5_reduce
I0403 14:49:10.525851 13660 net.cpp:91] Creating Layer inception_4b/relu_5x5_reduce
I0403 14:49:10.525892 13660 net.cpp:425] inception_4b/relu_5x5_reduce <- inception_4b/5x5_reduce
I0403 14:49:10.525910 13660 net.cpp:386] inception_4b/relu_5x5_reduce -> inception_4b/5x5_reduce (in-place)
I0403 14:49:10.526093 13660 net.cpp:141] Setting up inception_4b/relu_5x5_reduce
I0403 14:49:10.526118 13660 net.cpp:148] Top shape: 24 24 14 14 (112896)
I0403 14:49:10.526132 13660 net.cpp:156] Memory required for data: 965772576
I0403 14:49:10.526146 13660 layer_factory.hpp:77] Creating layer inception_4b/5x5
I0403 14:49:10.526168 13660 net.cpp:91] Creating Layer inception_4b/5x5
I0403 14:49:10.526186 13660 net.cpp:425] inception_4b/5x5 <- inception_4b/5x5_reduce
I0403 14:49:10.526206 13660 net.cpp:399] inception_4b/5x5 -> inception_4b/5x5
I0403 14:49:10.527422 13660 net.cpp:141] Setting up inception_4b/5x5
I0403 14:49:10.527451 13660 net.cpp:148] Top shape: 24 64 14 14 (301056)
I0403 14:49:10.527467 13660 net.cpp:156] Memory required for data: 966976800
I0403 14:49:10.527485 13660 layer_factory.hpp:77] Creating layer inception_4b/relu_5x5
I0403 14:49:10.527509 13660 net.cpp:91] Creating Layer inception_4b/relu_5x5
I0403 14:49:10.527529 13660 net.cpp:425] inception_4b/relu_5x5 <- inception_4b/5x5
I0403 14:49:10.527545 13660 net.cpp:386] inception_4b/relu_5x5 -> inception_4b/5x5 (in-place)
I0403 14:49:10.527829 13660 net.cpp:141] Setting up inception_4b/relu_5x5
I0403 14:49:10.527856 13660 net.cpp:148] Top shape: 24 64 14 14 (301056)
I0403 14:49:10.527873 13660 net.cpp:156] Memory required for data: 968181024
I0403 14:49:10.527887 13660 layer_factory.hpp:77] Creating layer inception_4b/pool
I0403 14:49:10.527909 13660 net.cpp:91] Creating Layer inception_4b/pool
I0403 14:49:10.527925 13660 net.cpp:425] inception_4b/pool <- inception_4a/output_inception_4a/output_0_split_4
I0403 14:49:10.527943 13660 net.cpp:399] inception_4b/pool -> inception_4b/pool
I0403 14:49:10.528009 13660 net.cpp:141] Setting up inception_4b/pool
I0403 14:49:10.528033 13660 net.cpp:148] Top shape: 24 512 14 14 (2408448)
I0403 14:49:10.528048 13660 net.cpp:156] Memory required for data: 977814816
I0403 14:49:10.528062 13660 layer_factory.hpp:77] Creating layer inception_4b/pool_proj
I0403 14:49:10.528084 13660 net.cpp:91] Creating Layer inception_4b/pool_proj
I0403 14:49:10.528101 13660 net.cpp:425] inception_4b/pool_proj <- inception_4b/pool
I0403 14:49:10.528121 13660 net.cpp:399] inception_4b/pool_proj -> inception_4b/pool_proj
I0403 14:49:10.529314 13660 net.cpp:141] Setting up inception_4b/pool_proj
I0403 14:49:10.529343 13660 net.cpp:148] Top shape: 24 64 14 14 (301056)
I0403 14:49:10.529359 13660 net.cpp:156] Memory required for data: 979019040
I0403 14:49:10.529377 13660 layer_factory.hpp:77] Creating layer inception_4b/relu_pool_proj
I0403 14:49:10.529394 13660 net.cpp:91] Creating Layer inception_4b/relu_pool_proj
I0403 14:49:10.529410 13660 net.cpp:425] inception_4b/relu_pool_proj <- inception_4b/pool_proj
I0403 14:49:10.529427 13660 net.cpp:386] inception_4b/relu_pool_proj -> inception_4b/pool_proj (in-place)
I0403 14:49:10.529605 13660 net.cpp:141] Setting up inception_4b/relu_pool_proj
I0403 14:49:10.529630 13660 net.cpp:148] Top shape: 24 64 14 14 (301056)
I0403 14:49:10.529644 13660 net.cpp:156] Memory required for data: 980223264
I0403 14:49:10.529659 13660 layer_factory.hpp:77] Creating layer inception_4b/output
I0403 14:49:10.529676 13660 net.cpp:91] Creating Layer inception_4b/output
I0403 14:49:10.529690 13660 net.cpp:425] inception_4b/output <- inception_4b/1x1
I0403 14:49:10.529706 13660 net.cpp:425] inception_4b/output <- inception_4b/3x3
I0403 14:49:10.529721 13660 net.cpp:425] inception_4b/output <- inception_4b/5x5
I0403 14:49:10.529737 13660 net.cpp:425] inception_4b/output <- inception_4b/pool_proj
I0403 14:49:10.529755 13660 net.cpp:399] inception_4b/output -> inception_4b/output
I0403 14:49:10.529799 13660 net.cpp:141] Setting up inception_4b/output
I0403 14:49:10.529822 13660 net.cpp:148] Top shape: 24 512 14 14 (2408448)
I0403 14:49:10.529836 13660 net.cpp:156] Memory required for data: 989857056
I0403 14:49:10.529865 13660 layer_factory.hpp:77] Creating layer inception_4b/output_inception_4b/output_0_split
I0403 14:49:10.529886 13660 net.cpp:91] Creating Layer inception_4b/output_inception_4b/output_0_split
I0403 14:49:10.529901 13660 net.cpp:425] inception_4b/output_inception_4b/output_0_split <- inception_4b/output
I0403 14:49:10.529917 13660 net.cpp:399] inception_4b/output_inception_4b/output_0_split -> inception_4b/output_inception_4b/output_0_split_0
I0403 14:49:10.529938 13660 net.cpp:399] inception_4b/output_inception_4b/output_0_split -> inception_4b/output_inception_4b/output_0_split_1
I0403 14:49:10.529959 13660 net.cpp:399] inception_4b/output_inception_4b/output_0_split -> inception_4b/output_inception_4b/output_0_split_2
I0403 14:49:10.529979 13660 net.cpp:399] inception_4b/output_inception_4b/output_0_split -> inception_4b/output_inception_4b/output_0_split_3
I0403 14:49:10.530060 13660 net.cpp:141] Setting up inception_4b/output_inception_4b/output_0_split
I0403 14:49:10.530082 13660 net.cpp:148] Top shape: 24 512 14 14 (2408448)
I0403 14:49:10.530098 13660 net.cpp:148] Top shape: 24 512 14 14 (2408448)
I0403 14:49:10.530113 13660 net.cpp:148] Top shape: 24 512 14 14 (2408448)
I0403 14:49:10.530128 13660 net.cpp:148] Top shape: 24 512 14 14 (2408448)
I0403 14:49:10.530140 13660 net.cpp:156] Memory required for data: 1028392224
I0403 14:49:10.530154 13660 layer_factory.hpp:77] Creating layer inception_4c/1x1
I0403 14:49:10.530175 13660 net.cpp:91] Creating Layer inception_4c/1x1
I0403 14:49:10.530192 13660 net.cpp:425] inception_4c/1x1 <- inception_4b/output_inception_4b/output_0_split_0
I0403 14:49:10.530211 13660 net.cpp:399] inception_4c/1x1 -> inception_4c/1x1
I0403 14:49:10.531652 13660 net.cpp:141] Setting up inception_4c/1x1
I0403 14:49:10.531682 13660 net.cpp:148] Top shape: 24 128 14 14 (602112)
I0403 14:49:10.531698 13660 net.cpp:156] Memory required for data: 1030800672
I0403 14:49:10.531718 13660 layer_factory.hpp:77] Creating layer inception_4c/relu_1x1
I0403 14:49:10.531738 13660 net.cpp:91] Creating Layer inception_4c/relu_1x1
I0403 14:49:10.531754 13660 net.cpp:425] inception_4c/relu_1x1 <- inception_4c/1x1
I0403 14:49:10.531774 13660 net.cpp:386] inception_4c/relu_1x1 -> inception_4c/1x1 (in-place)
I0403 14:49:10.531955 13660 net.cpp:141] Setting up inception_4c/relu_1x1
I0403 14:49:10.531980 13660 net.cpp:148] Top shape: 24 128 14 14 (602112)
I0403 14:49:10.531994 13660 net.cpp:156] Memory required for data: 1033209120
I0403 14:49:10.532009 13660 layer_factory.hpp:77] Creating layer inception_4c/3x3_reduce
I0403 14:49:10.532032 13660 net.cpp:91] Creating Layer inception_4c/3x3_reduce
I0403 14:49:10.532049 13660 net.cpp:425] inception_4c/3x3_reduce <- inception_4b/output_inception_4b/output_0_split_1
I0403 14:49:10.532069 13660 net.cpp:399] inception_4c/3x3_reduce -> inception_4c/3x3_reduce
I0403 14:49:10.533985 13660 net.cpp:141] Setting up inception_4c/3x3_reduce
I0403 14:49:10.534013 13660 net.cpp:148] Top shape: 24 128 14 14 (602112)
I0403 14:49:10.534029 13660 net.cpp:156] Memory required for data: 1035617568
I0403 14:49:10.534046 13660 layer_factory.hpp:77] Creating layer inception_4c/relu_3x3_reduce
I0403 14:49:10.534066 13660 net.cpp:91] Creating Layer inception_4c/relu_3x3_reduce
I0403 14:49:10.534083 13660 net.cpp:425] inception_4c/relu_3x3_reduce <- inception_4c/3x3_reduce
I0403 14:49:10.534099 13660 net.cpp:386] inception_4c/relu_3x3_reduce -> inception_4c/3x3_reduce (in-place)
I0403 14:49:10.534379 13660 net.cpp:141] Setting up inception_4c/relu_3x3_reduce
I0403 14:49:10.534404 13660 net.cpp:148] Top shape: 24 128 14 14 (602112)
I0403 14:49:10.534418 13660 net.cpp:156] Memory required for data: 1038026016
I0403 14:49:10.534433 13660 layer_factory.hpp:77] Creating layer inception_4c/3x3
I0403 14:49:10.534454 13660 net.cpp:91] Creating Layer inception_4c/3x3
I0403 14:49:10.534471 13660 net.cpp:425] inception_4c/3x3 <- inception_4c/3x3_reduce
I0403 14:49:10.534493 13660 net.cpp:399] inception_4c/3x3 -> inception_4c/3x3
I0403 14:49:10.537997 13660 net.cpp:141] Setting up inception_4c/3x3
I0403 14:49:10.538039 13660 net.cpp:148] Top shape: 24 256 14 14 (1204224)
I0403 14:49:10.538056 13660 net.cpp:156] Memory required for data: 1042842912
I0403 14:49:10.538089 13660 layer_factory.hpp:77] Creating layer inception_4c/relu_3x3
I0403 14:49:10.538110 13660 net.cpp:91] Creating Layer inception_4c/relu_3x3
I0403 14:49:10.538125 13660 net.cpp:425] inception_4c/relu_3x3 <- inception_4c/3x3
I0403 14:49:10.538141 13660 net.cpp:386] inception_4c/relu_3x3 -> inception_4c/3x3 (in-place)
I0403 14:49:10.538318 13660 net.cpp:141] Setting up inception_4c/relu_3x3
I0403 14:49:10.538343 13660 net.cpp:148] Top shape: 24 256 14 14 (1204224)
I0403 14:49:10.538357 13660 net.cpp:156] Memory required for data: 1047659808
I0403 14:49:10.538372 13660 layer_factory.hpp:77] Creating layer inception_4c/5x5_reduce
I0403 14:49:10.538398 13660 net.cpp:91] Creating Layer inception_4c/5x5_reduce
I0403 14:49:10.538415 13660 net.cpp:425] inception_4c/5x5_reduce <- inception_4b/output_inception_4b/output_0_split_2
I0403 14:49:10.538434 13660 net.cpp:399] inception_4c/5x5_reduce -> inception_4c/5x5_reduce
I0403 14:49:10.539490 13660 net.cpp:141] Setting up inception_4c/5x5_reduce
I0403 14:49:10.539521 13660 net.cpp:148] Top shape: 24 24 14 14 (112896)
I0403 14:49:10.539537 13660 net.cpp:156] Memory required for data: 1048111392
I0403 14:49:10.539556 13660 layer_factory.hpp:77] Creating layer inception_4c/relu_5x5_reduce
I0403 14:49:10.539574 13660 net.cpp:91] Creating Layer inception_4c/relu_5x5_reduce
I0403 14:49:10.539592 13660 net.cpp:425] inception_4c/relu_5x5_reduce <- inception_4c/5x5_reduce
I0403 14:49:10.539608 13660 net.cpp:386] inception_4c/relu_5x5_reduce -> inception_4c/5x5_reduce (in-place)
I0403 14:49:10.539784 13660 net.cpp:141] Setting up inception_4c/relu_5x5_reduce
I0403 14:49:10.539808 13660 net.cpp:148] Top shape: 24 24 14 14 (112896)
I0403 14:49:10.539824 13660 net.cpp:156] Memory required for data: 1048562976
I0403 14:49:10.539837 13660 layer_factory.hpp:77] Creating layer inception_4c/5x5
I0403 14:49:10.539858 13660 net.cpp:91] Creating Layer inception_4c/5x5
I0403 14:49:10.539876 13660 net.cpp:425] inception_4c/5x5 <- inception_4c/5x5_reduce
I0403 14:49:10.539897 13660 net.cpp:399] inception_4c/5x5 -> inception_4c/5x5
I0403 14:49:10.541102 13660 net.cpp:141] Setting up inception_4c/5x5
I0403 14:49:10.541132 13660 net.cpp:148] Top shape: 24 64 14 14 (301056)
I0403 14:49:10.541148 13660 net.cpp:156] Memory required for data: 1049767200
I0403 14:49:10.541167 13660 layer_factory.hpp:77] Creating layer inception_4c/relu_5x5
I0403 14:49:10.541183 13660 net.cpp:91] Creating Layer inception_4c/relu_5x5
I0403 14:49:10.541199 13660 net.cpp:425] inception_4c/relu_5x5 <- inception_4c/5x5
I0403 14:49:10.541218 13660 net.cpp:386] inception_4c/relu_5x5 -> inception_4c/5x5 (in-place)
I0403 14:49:10.541493 13660 net.cpp:141] Setting up inception_4c/relu_5x5
I0403 14:49:10.541524 13660 net.cpp:148] Top shape: 24 64 14 14 (301056)
I0403 14:49:10.541541 13660 net.cpp:156] Memory required for data: 1050971424
I0403 14:49:10.541555 13660 layer_factory.hpp:77] Creating layer inception_4c/pool
I0403 14:49:10.541573 13660 net.cpp:91] Creating Layer inception_4c/pool
I0403 14:49:10.541589 13660 net.cpp:425] inception_4c/pool <- inception_4b/output_inception_4b/output_0_split_3
I0403 14:49:10.541607 13660 net.cpp:399] inception_4c/pool -> inception_4c/pool
I0403 14:49:10.541671 13660 net.cpp:141] Setting up inception_4c/pool
I0403 14:49:10.541698 13660 net.cpp:148] Top shape: 24 512 14 14 (2408448)
I0403 14:49:10.541713 13660 net.cpp:156] Memory required for data: 1060605216
I0403 14:49:10.541728 13660 layer_factory.hpp:77] Creating layer inception_4c/pool_proj
I0403 14:49:10.541749 13660 net.cpp:91] Creating Layer inception_4c/pool_proj
I0403 14:49:10.541766 13660 net.cpp:425] inception_4c/pool_proj <- inception_4c/pool
I0403 14:49:10.541784 13660 net.cpp:399] inception_4c/pool_proj -> inception_4c/pool_proj
I0403 14:49:10.542964 13660 net.cpp:141] Setting up inception_4c/pool_proj
I0403 14:49:10.542995 13660 net.cpp:148] Top shape: 24 64 14 14 (301056)
I0403 14:49:10.543023 13660 net.cpp:156] Memory required for data: 1061809440
I0403 14:49:10.543042 13660 layer_factory.hpp:77] Creating layer inception_4c/relu_pool_proj
I0403 14:49:10.543061 13660 net.cpp:91] Creating Layer inception_4c/relu_pool_proj
I0403 14:49:10.543076 13660 net.cpp:425] inception_4c/relu_pool_proj <- inception_4c/pool_proj
I0403 14:49:10.543092 13660 net.cpp:386] inception_4c/relu_pool_proj -> inception_4c/pool_proj (in-place)
I0403 14:49:10.543267 13660 net.cpp:141] Setting up inception_4c/relu_pool_proj
I0403 14:49:10.543293 13660 net.cpp:148] Top shape: 24 64 14 14 (301056)
I0403 14:49:10.543309 13660 net.cpp:156] Memory required for data: 1063013664
I0403 14:49:10.543323 13660 layer_factory.hpp:77] Creating layer inception_4c/output
I0403 14:49:10.543339 13660 net.cpp:91] Creating Layer inception_4c/output
I0403 14:49:10.543354 13660 net.cpp:425] inception_4c/output <- inception_4c/1x1
I0403 14:49:10.543370 13660 net.cpp:425] inception_4c/output <- inception_4c/3x3
I0403 14:49:10.543385 13660 net.cpp:425] inception_4c/output <- inception_4c/5x5
I0403 14:49:10.543401 13660 net.cpp:425] inception_4c/output <- inception_4c/pool_proj
I0403 14:49:10.543418 13660 net.cpp:399] inception_4c/output -> inception_4c/output
I0403 14:49:10.543474 13660 net.cpp:141] Setting up inception_4c/output
I0403 14:49:10.543496 13660 net.cpp:148] Top shape: 24 512 14 14 (2408448)
I0403 14:49:10.543516 13660 net.cpp:156] Memory required for data: 1072647456
I0403 14:49:10.543531 13660 layer_factory.hpp:77] Creating layer inception_4c/output_inception_4c/output_0_split
I0403 14:49:10.543550 13660 net.cpp:91] Creating Layer inception_4c/output_inception_4c/output_0_split
I0403 14:49:10.543565 13660 net.cpp:425] inception_4c/output_inception_4c/output_0_split <- inception_4c/output
I0403 14:49:10.543582 13660 net.cpp:399] inception_4c/output_inception_4c/output_0_split -> inception_4c/output_inception_4c/output_0_split_0
I0403 14:49:10.543601 13660 net.cpp:399] inception_4c/output_inception_4c/output_0_split -> inception_4c/output_inception_4c/output_0_split_1
I0403 14:49:10.543623 13660 net.cpp:399] inception_4c/output_inception_4c/output_0_split -> inception_4c/output_inception_4c/output_0_split_2
I0403 14:49:10.543643 13660 net.cpp:399] inception_4c/output_inception_4c/output_0_split -> inception_4c/output_inception_4c/output_0_split_3
I0403 14:49:10.543735 13660 net.cpp:141] Setting up inception_4c/output_inception_4c/output_0_split
I0403 14:49:10.543758 13660 net.cpp:148] Top shape: 24 512 14 14 (2408448)
I0403 14:49:10.543773 13660 net.cpp:148] Top shape: 24 512 14 14 (2408448)
I0403 14:49:10.543788 13660 net.cpp:148] Top shape: 24 512 14 14 (2408448)
I0403 14:49:10.543802 13660 net.cpp:148] Top shape: 24 512 14 14 (2408448)
I0403 14:49:10.543815 13660 net.cpp:156] Memory required for data: 1111182624
I0403 14:49:10.543829 13660 layer_factory.hpp:77] Creating layer inception_4d/1x1
I0403 14:49:10.543850 13660 net.cpp:91] Creating Layer inception_4d/1x1
I0403 14:49:10.543866 13660 net.cpp:425] inception_4d/1x1 <- inception_4c/output_inception_4c/output_0_split_0
I0403 14:49:10.543886 13660 net.cpp:399] inception_4d/1x1 -> inception_4d/1x1
I0403 14:49:10.545240 13660 net.cpp:141] Setting up inception_4d/1x1
I0403 14:49:10.545269 13660 net.cpp:148] Top shape: 24 112 14 14 (526848)
I0403 14:49:10.545284 13660 net.cpp:156] Memory required for data: 1113290016
I0403 14:49:10.545310 13660 layer_factory.hpp:77] Creating layer inception_4d/relu_1x1
I0403 14:49:10.545330 13660 net.cpp:91] Creating Layer inception_4d/relu_1x1
I0403 14:49:10.545346 13660 net.cpp:425] inception_4d/relu_1x1 <- inception_4d/1x1
I0403 14:49:10.545362 13660 net.cpp:386] inception_4d/relu_1x1 -> inception_4d/1x1 (in-place)
I0403 14:49:10.545545 13660 net.cpp:141] Setting up inception_4d/relu_1x1
I0403 14:49:10.545569 13660 net.cpp:148] Top shape: 24 112 14 14 (526848)
I0403 14:49:10.545583 13660 net.cpp:156] Memory required for data: 1115397408
I0403 14:49:10.545606 13660 layer_factory.hpp:77] Creating layer inception_4d/3x3_reduce
I0403 14:49:10.545645 13660 net.cpp:91] Creating Layer inception_4d/3x3_reduce
I0403 14:49:10.545665 13660 net.cpp:425] inception_4d/3x3_reduce <- inception_4c/output_inception_4c/output_0_split_1
I0403 14:49:10.545682 13660 net.cpp:399] inception_4d/3x3_reduce -> inception_4d/3x3_reduce
I0403 14:49:10.547153 13660 net.cpp:141] Setting up inception_4d/3x3_reduce
I0403 14:49:10.547181 13660 net.cpp:148] Top shape: 24 144 14 14 (677376)
I0403 14:49:10.547197 13660 net.cpp:156] Memory required for data: 1118106912
I0403 14:49:10.547214 13660 layer_factory.hpp:77] Creating layer inception_4d/relu_3x3_reduce
I0403 14:49:10.547233 13660 net.cpp:91] Creating Layer inception_4d/relu_3x3_reduce
I0403 14:49:10.547250 13660 net.cpp:425] inception_4d/relu_3x3_reduce <- inception_4d/3x3_reduce
I0403 14:49:10.547271 13660 net.cpp:386] inception_4d/relu_3x3_reduce -> inception_4d/3x3_reduce (in-place)
I0403 14:49:10.547560 13660 net.cpp:141] Setting up inception_4d/relu_3x3_reduce
I0403 14:49:10.547587 13660 net.cpp:148] Top shape: 24 144 14 14 (677376)
I0403 14:49:10.547602 13660 net.cpp:156] Memory required for data: 1120816416
I0403 14:49:10.547618 13660 layer_factory.hpp:77] Creating layer inception_4d/3x3
I0403 14:49:10.547641 13660 net.cpp:91] Creating Layer inception_4d/3x3
I0403 14:49:10.547658 13660 net.cpp:425] inception_4d/3x3 <- inception_4d/3x3_reduce
I0403 14:49:10.547679 13660 net.cpp:399] inception_4d/3x3 -> inception_4d/3x3
I0403 14:49:10.551813 13660 net.cpp:141] Setting up inception_4d/3x3
I0403 14:49:10.551842 13660 net.cpp:148] Top shape: 24 288 14 14 (1354752)
I0403 14:49:10.551857 13660 net.cpp:156] Memory required for data: 1126235424
I0403 14:49:10.551875 13660 layer_factory.hpp:77] Creating layer inception_4d/relu_3x3
I0403 14:49:10.551894 13660 net.cpp:91] Creating Layer inception_4d/relu_3x3
I0403 14:49:10.551910 13660 net.cpp:425] inception_4d/relu_3x3 <- inception_4d/3x3
I0403 14:49:10.551928 13660 net.cpp:386] inception_4d/relu_3x3 -> inception_4d/3x3 (in-place)
I0403 14:49:10.552101 13660 net.cpp:141] Setting up inception_4d/relu_3x3
I0403 14:49:10.552127 13660 net.cpp:148] Top shape: 24 288 14 14 (1354752)
I0403 14:49:10.552142 13660 net.cpp:156] Memory required for data: 1131654432
I0403 14:49:10.552156 13660 layer_factory.hpp:77] Creating layer inception_4d/5x5_reduce
I0403 14:49:10.552177 13660 net.cpp:91] Creating Layer inception_4d/5x5_reduce
I0403 14:49:10.552194 13660 net.cpp:425] inception_4d/5x5_reduce <- inception_4c/output_inception_4c/output_0_split_2
I0403 14:49:10.552212 13660 net.cpp:399] inception_4d/5x5_reduce -> inception_4d/5x5_reduce
I0403 14:49:10.553406 13660 net.cpp:141] Setting up inception_4d/5x5_reduce
I0403 14:49:10.553432 13660 net.cpp:148] Top shape: 24 32 14 14 (150528)
I0403 14:49:10.553447 13660 net.cpp:156] Memory required for data: 1132256544
I0403 14:49:10.553465 13660 layer_factory.hpp:77] Creating layer inception_4d/relu_5x5_reduce
I0403 14:49:10.553484 13660 net.cpp:91] Creating Layer inception_4d/relu_5x5_reduce
I0403 14:49:10.553501 13660 net.cpp:425] inception_4d/relu_5x5_reduce <- inception_4d/5x5_reduce
I0403 14:49:10.553524 13660 net.cpp:386] inception_4d/relu_5x5_reduce -> inception_4d/5x5_reduce (in-place)
I0403 14:49:10.553705 13660 net.cpp:141] Setting up inception_4d/relu_5x5_reduce
I0403 14:49:10.553730 13660 net.cpp:148] Top shape: 24 32 14 14 (150528)
I0403 14:49:10.553745 13660 net.cpp:156] Memory required for data: 1132858656
I0403 14:49:10.553758 13660 layer_factory.hpp:77] Creating layer inception_4d/5x5
I0403 14:49:10.553781 13660 net.cpp:91] Creating Layer inception_4d/5x5
I0403 14:49:10.553798 13660 net.cpp:425] inception_4d/5x5 <- inception_4d/5x5_reduce
I0403 14:49:10.553815 13660 net.cpp:399] inception_4d/5x5 -> inception_4d/5x5
I0403 14:49:10.555400 13660 net.cpp:141] Setting up inception_4d/5x5
I0403 14:49:10.555431 13660 net.cpp:148] Top shape: 24 64 14 14 (301056)
I0403 14:49:10.555447 13660 net.cpp:156] Memory required for data: 1134062880
I0403 14:49:10.555465 13660 layer_factory.hpp:77] Creating layer inception_4d/relu_5x5
I0403 14:49:10.555497 13660 net.cpp:91] Creating Layer inception_4d/relu_5x5
I0403 14:49:10.555518 13660 net.cpp:425] inception_4d/relu_5x5 <- inception_4d/5x5
I0403 14:49:10.555538 13660 net.cpp:386] inception_4d/relu_5x5 -> inception_4d/5x5 (in-place)
I0403 14:49:10.555830 13660 net.cpp:141] Setting up inception_4d/relu_5x5
I0403 14:49:10.555857 13660 net.cpp:148] Top shape: 24 64 14 14 (301056)
I0403 14:49:10.555872 13660 net.cpp:156] Memory required for data: 1135267104
I0403 14:49:10.555886 13660 layer_factory.hpp:77] Creating layer inception_4d/pool
I0403 14:49:10.555903 13660 net.cpp:91] Creating Layer inception_4d/pool
I0403 14:49:10.555919 13660 net.cpp:425] inception_4d/pool <- inception_4c/output_inception_4c/output_0_split_3
I0403 14:49:10.555938 13660 net.cpp:399] inception_4d/pool -> inception_4d/pool
I0403 14:49:10.556002 13660 net.cpp:141] Setting up inception_4d/pool
I0403 14:49:10.556025 13660 net.cpp:148] Top shape: 24 512 14 14 (2408448)
I0403 14:49:10.556040 13660 net.cpp:156] Memory required for data: 1144900896
I0403 14:49:10.556053 13660 layer_factory.hpp:77] Creating layer inception_4d/pool_proj
I0403 14:49:10.556074 13660 net.cpp:91] Creating Layer inception_4d/pool_proj
I0403 14:49:10.556092 13660 net.cpp:425] inception_4d/pool_proj <- inception_4d/pool
I0403 14:49:10.556112 13660 net.cpp:399] inception_4d/pool_proj -> inception_4d/pool_proj
I0403 14:49:10.557883 13660 net.cpp:141] Setting up inception_4d/pool_proj
I0403 14:49:10.557911 13660 net.cpp:148] Top shape: 24 64 14 14 (301056)
I0403 14:49:10.557926 13660 net.cpp:156] Memory required for data: 1146105120
I0403 14:49:10.557945 13660 layer_factory.hpp:77] Creating layer inception_4d/relu_pool_proj
I0403 14:49:10.557963 13660 net.cpp:91] Creating Layer inception_4d/relu_pool_proj
I0403 14:49:10.557981 13660 net.cpp:425] inception_4d/relu_pool_proj <- inception_4d/pool_proj
I0403 14:49:10.557997 13660 net.cpp:386] inception_4d/relu_pool_proj -> inception_4d/pool_proj (in-place)
I0403 14:49:10.558173 13660 net.cpp:141] Setting up inception_4d/relu_pool_proj
I0403 14:49:10.558199 13660 net.cpp:148] Top shape: 24 64 14 14 (301056)
I0403 14:49:10.558214 13660 net.cpp:156] Memory required for data: 1147309344
I0403 14:49:10.558228 13660 layer_factory.hpp:77] Creating layer inception_4d/output
I0403 14:49:10.558244 13660 net.cpp:91] Creating Layer inception_4d/output
I0403 14:49:10.558260 13660 net.cpp:425] inception_4d/output <- inception_4d/1x1
I0403 14:49:10.558275 13660 net.cpp:425] inception_4d/output <- inception_4d/3x3
I0403 14:49:10.558290 13660 net.cpp:425] inception_4d/output <- inception_4d/5x5
I0403 14:49:10.558305 13660 net.cpp:425] inception_4d/output <- inception_4d/pool_proj
I0403 14:49:10.558320 13660 net.cpp:399] inception_4d/output -> inception_4d/output
I0403 14:49:10.558367 13660 net.cpp:141] Setting up inception_4d/output
I0403 14:49:10.558390 13660 net.cpp:148] Top shape: 24 528 14 14 (2483712)
I0403 14:49:10.558403 13660 net.cpp:156] Memory required for data: 1157244192
I0403 14:49:10.558416 13660 layer_factory.hpp:77] Creating layer inception_4d/output_inception_4d/output_0_split
I0403 14:49:10.558436 13660 net.cpp:91] Creating Layer inception_4d/output_inception_4d/output_0_split
I0403 14:49:10.558451 13660 net.cpp:425] inception_4d/output_inception_4d/output_0_split <- inception_4d/output
I0403 14:49:10.558468 13660 net.cpp:399] inception_4d/output_inception_4d/output_0_split -> inception_4d/output_inception_4d/output_0_split_0
I0403 14:49:10.558487 13660 net.cpp:399] inception_4d/output_inception_4d/output_0_split -> inception_4d/output_inception_4d/output_0_split_1
I0403 14:49:10.558511 13660 net.cpp:399] inception_4d/output_inception_4d/output_0_split -> inception_4d/output_inception_4d/output_0_split_2
I0403 14:49:10.558536 13660 net.cpp:399] inception_4d/output_inception_4d/output_0_split -> inception_4d/output_inception_4d/output_0_split_3
I0403 14:49:10.558555 13660 net.cpp:399] inception_4d/output_inception_4d/output_0_split -> inception_4d/output_inception_4d/output_0_split_4
I0403 14:49:10.558658 13660 net.cpp:141] Setting up inception_4d/output_inception_4d/output_0_split
I0403 14:49:10.558692 13660 net.cpp:148] Top shape: 24 528 14 14 (2483712)
I0403 14:49:10.558708 13660 net.cpp:148] Top shape: 24 528 14 14 (2483712)
I0403 14:49:10.558724 13660 net.cpp:148] Top shape: 24 528 14 14 (2483712)
I0403 14:49:10.558738 13660 net.cpp:148] Top shape: 24 528 14 14 (2483712)
I0403 14:49:10.558753 13660 net.cpp:148] Top shape: 24 528 14 14 (2483712)
I0403 14:49:10.558765 13660 net.cpp:156] Memory required for data: 1206918432
I0403 14:49:10.558779 13660 layer_factory.hpp:77] Creating layer loss2/ave_pool
I0403 14:49:10.558799 13660 net.cpp:91] Creating Layer loss2/ave_pool
I0403 14:49:10.558815 13660 net.cpp:425] loss2/ave_pool <- inception_4d/output_inception_4d/output_0_split_0
I0403 14:49:10.558831 13660 net.cpp:399] loss2/ave_pool -> loss2/ave_pool
I0403 14:49:10.559134 13660 net.cpp:141] Setting up loss2/ave_pool
I0403 14:49:10.559159 13660 net.cpp:148] Top shape: 24 528 4 4 (202752)
I0403 14:49:10.559173 13660 net.cpp:156] Memory required for data: 1207729440
I0403 14:49:10.559187 13660 layer_factory.hpp:77] Creating layer loss2/conv
I0403 14:49:10.559209 13660 net.cpp:91] Creating Layer loss2/conv
I0403 14:49:10.559226 13660 net.cpp:425] loss2/conv <- loss2/ave_pool
I0403 14:49:10.559247 13660 net.cpp:399] loss2/conv -> loss2/conv
I0403 14:49:10.561174 13660 net.cpp:141] Setting up loss2/conv
I0403 14:49:10.561204 13660 net.cpp:148] Top shape: 24 128 4 4 (49152)
I0403 14:49:10.561220 13660 net.cpp:156] Memory required for data: 1207926048
I0403 14:49:10.561239 13660 layer_factory.hpp:77] Creating layer loss2/relu_conv
I0403 14:49:10.561256 13660 net.cpp:91] Creating Layer loss2/relu_conv
I0403 14:49:10.561271 13660 net.cpp:425] loss2/relu_conv <- loss2/conv
I0403 14:49:10.561290 13660 net.cpp:386] loss2/relu_conv -> loss2/conv (in-place)
I0403 14:49:10.561615 13660 net.cpp:141] Setting up loss2/relu_conv
I0403 14:49:10.561643 13660 net.cpp:148] Top shape: 24 128 4 4 (49152)
I0403 14:49:10.561658 13660 net.cpp:156] Memory required for data: 1208122656
I0403 14:49:10.561673 13660 layer_factory.hpp:77] Creating layer loss2/fc
I0403 14:49:10.561691 13660 net.cpp:91] Creating Layer loss2/fc
I0403 14:49:10.561707 13660 net.cpp:425] loss2/fc <- loss2/conv
I0403 14:49:10.561728 13660 net.cpp:399] loss2/fc -> loss2/fc
I0403 14:49:10.578873 13660 net.cpp:141] Setting up loss2/fc
I0403 14:49:10.578909 13660 net.cpp:148] Top shape: 24 1024 (24576)
I0403 14:49:10.578927 13660 net.cpp:156] Memory required for data: 1208220960
I0403 14:49:10.578944 13660 layer_factory.hpp:77] Creating layer loss2/relu_fc
I0403 14:49:10.578963 13660 net.cpp:91] Creating Layer loss2/relu_fc
I0403 14:49:10.578979 13660 net.cpp:425] loss2/relu_fc <- loss2/fc
I0403 14:49:10.578996 13660 net.cpp:386] loss2/relu_fc -> loss2/fc (in-place)
I0403 14:49:10.579295 13660 net.cpp:141] Setting up loss2/relu_fc
I0403 14:49:10.579324 13660 net.cpp:148] Top shape: 24 1024 (24576)
I0403 14:49:10.579337 13660 net.cpp:156] Memory required for data: 1208319264
I0403 14:49:10.579351 13660 layer_factory.hpp:77] Creating layer loss2/drop_fc
I0403 14:49:10.579370 13660 net.cpp:91] Creating Layer loss2/drop_fc
I0403 14:49:10.579387 13660 net.cpp:425] loss2/drop_fc <- loss2/fc
I0403 14:49:10.579404 13660 net.cpp:386] loss2/drop_fc -> loss2/fc (in-place)
I0403 14:49:10.579453 13660 net.cpp:141] Setting up loss2/drop_fc
I0403 14:49:10.579476 13660 net.cpp:148] Top shape: 24 1024 (24576)
I0403 14:49:10.579490 13660 net.cpp:156] Memory required for data: 1208417568
I0403 14:49:10.579507 13660 layer_factory.hpp:77] Creating layer loss2/classifier_plantvillage
I0403 14:49:10.579530 13660 net.cpp:91] Creating Layer loss2/classifier_plantvillage
I0403 14:49:10.579547 13660 net.cpp:425] loss2/classifier_plantvillage <- loss2/fc
I0403 14:49:10.579566 13660 net.cpp:399] loss2/classifier_plantvillage -> loss2/classifier_plantvillage
I0403 14:49:10.579991 13660 net.cpp:141] Setting up loss2/classifier_plantvillage
I0403 14:49:10.580015 13660 net.cpp:148] Top shape: 24 38 (912)
I0403 14:49:10.580046 13660 net.cpp:156] Memory required for data: 1208421216
I0403 14:49:10.580065 13660 layer_factory.hpp:77] Creating layer loss2/classifier_plantvillage_loss2/classifier_plantvillage_0_split
I0403 14:49:10.580083 13660 net.cpp:91] Creating Layer loss2/classifier_plantvillage_loss2/classifier_plantvillage_0_split
I0403 14:49:10.580099 13660 net.cpp:425] loss2/classifier_plantvillage_loss2/classifier_plantvillage_0_split <- loss2/classifier_plantvillage
I0403 14:49:10.580119 13660 net.cpp:399] loss2/classifier_plantvillage_loss2/classifier_plantvillage_0_split -> loss2/classifier_plantvillage_loss2/classifier_plantvillage_0_split_0
I0403 14:49:10.580140 13660 net.cpp:399] loss2/classifier_plantvillage_loss2/classifier_plantvillage_0_split -> loss2/classifier_plantvillage_loss2/classifier_plantvillage_0_split_1
I0403 14:49:10.580159 13660 net.cpp:399] loss2/classifier_plantvillage_loss2/classifier_plantvillage_0_split -> loss2/classifier_plantvillage_loss2/classifier_plantvillage_0_split_2
I0403 14:49:10.580235 13660 net.cpp:141] Setting up loss2/classifier_plantvillage_loss2/classifier_plantvillage_0_split
I0403 14:49:10.580260 13660 net.cpp:148] Top shape: 24 38 (912)
I0403 14:49:10.580276 13660 net.cpp:148] Top shape: 24 38 (912)
I0403 14:49:10.580292 13660 net.cpp:148] Top shape: 24 38 (912)
I0403 14:49:10.580307 13660 net.cpp:156] Memory required for data: 1208432160
I0403 14:49:10.580320 13660 layer_factory.hpp:77] Creating layer inception_4e/1x1
I0403 14:49:10.580341 13660 net.cpp:91] Creating Layer inception_4e/1x1
I0403 14:49:10.580358 13660 net.cpp:425] inception_4e/1x1 <- inception_4d/output_inception_4d/output_0_split_1
I0403 14:49:10.580377 13660 net.cpp:399] inception_4e/1x1 -> inception_4e/1x1
I0403 14:49:10.582185 13660 net.cpp:141] Setting up inception_4e/1x1
I0403 14:49:10.582216 13660 net.cpp:148] Top shape: 24 256 14 14 (1204224)
I0403 14:49:10.582234 13660 net.cpp:156] Memory required for data: 1213249056
I0403 14:49:10.582252 13660 layer_factory.hpp:77] Creating layer inception_4e/relu_1x1
I0403 14:49:10.582273 13660 net.cpp:91] Creating Layer inception_4e/relu_1x1
I0403 14:49:10.582289 13660 net.cpp:425] inception_4e/relu_1x1 <- inception_4e/1x1
I0403 14:49:10.582309 13660 net.cpp:386] inception_4e/relu_1x1 -> inception_4e/1x1 (in-place)
I0403 14:49:10.582598 13660 net.cpp:141] Setting up inception_4e/relu_1x1
I0403 14:49:10.582625 13660 net.cpp:148] Top shape: 24 256 14 14 (1204224)
I0403 14:49:10.582641 13660 net.cpp:156] Memory required for data: 1218065952
I0403 14:49:10.582656 13660 layer_factory.hpp:77] Creating layer inception_4e/3x3_reduce
I0403 14:49:10.582679 13660 net.cpp:91] Creating Layer inception_4e/3x3_reduce
I0403 14:49:10.582695 13660 net.cpp:425] inception_4e/3x3_reduce <- inception_4d/output_inception_4d/output_0_split_2
I0403 14:49:10.582713 13660 net.cpp:399] inception_4e/3x3_reduce -> inception_4e/3x3_reduce
I0403 14:49:10.584777 13660 net.cpp:141] Setting up inception_4e/3x3_reduce
I0403 14:49:10.584808 13660 net.cpp:148] Top shape: 24 160 14 14 (752640)
I0403 14:49:10.584825 13660 net.cpp:156] Memory required for data: 1221076512
I0403 14:49:10.585089 13660 layer_factory.hpp:77] Creating layer inception_4e/relu_3x3_reduce
I0403 14:49:10.585115 13660 net.cpp:91] Creating Layer inception_4e/relu_3x3_reduce
I0403 14:49:10.585161 13660 net.cpp:425] inception_4e/relu_3x3_reduce <- inception_4e/3x3_reduce
I0403 14:49:10.585180 13660 net.cpp:386] inception_4e/relu_3x3_reduce -> inception_4e/3x3_reduce (in-place)
I0403 14:49:10.585366 13660 net.cpp:141] Setting up inception_4e/relu_3x3_reduce
I0403 14:49:10.585391 13660 net.cpp:148] Top shape: 24 160 14 14 (752640)
I0403 14:49:10.585404 13660 net.cpp:156] Memory required for data: 1224087072
I0403 14:49:10.585418 13660 layer_factory.hpp:77] Creating layer inception_4e/3x3
I0403 14:49:10.585440 13660 net.cpp:91] Creating Layer inception_4e/3x3
I0403 14:49:10.585458 13660 net.cpp:425] inception_4e/3x3 <- inception_4e/3x3_reduce
I0403 14:49:10.585479 13660 net.cpp:399] inception_4e/3x3 -> inception_4e/3x3
I0403 14:49:10.590351 13660 net.cpp:141] Setting up inception_4e/3x3
I0403 14:49:10.590392 13660 net.cpp:148] Top shape: 24 320 14 14 (1505280)
I0403 14:49:10.590409 13660 net.cpp:156] Memory required for data: 1230108192
I0403 14:49:10.590428 13660 layer_factory.hpp:77] Creating layer inception_4e/relu_3x3
I0403 14:49:10.590446 13660 net.cpp:91] Creating Layer inception_4e/relu_3x3
I0403 14:49:10.590466 13660 net.cpp:425] inception_4e/relu_3x3 <- inception_4e/3x3
I0403 14:49:10.590482 13660 net.cpp:386] inception_4e/relu_3x3 -> inception_4e/3x3 (in-place)
I0403 14:49:10.590777 13660 net.cpp:141] Setting up inception_4e/relu_3x3
I0403 14:49:10.590803 13660 net.cpp:148] Top shape: 24 320 14 14 (1505280)
I0403 14:49:10.590817 13660 net.cpp:156] Memory required for data: 1236129312
I0403 14:49:10.590831 13660 layer_factory.hpp:77] Creating layer inception_4e/5x5_reduce
I0403 14:49:10.590853 13660 net.cpp:91] Creating Layer inception_4e/5x5_reduce
I0403 14:49:10.590872 13660 net.cpp:425] inception_4e/5x5_reduce <- inception_4d/output_inception_4d/output_0_split_3
I0403 14:49:10.590893 13660 net.cpp:399] inception_4e/5x5_reduce -> inception_4e/5x5_reduce
I0403 14:49:10.592031 13660 net.cpp:141] Setting up inception_4e/5x5_reduce
I0403 14:49:10.592061 13660 net.cpp:148] Top shape: 24 32 14 14 (150528)
I0403 14:49:10.592075 13660 net.cpp:156] Memory required for data: 1236731424
I0403 14:49:10.592093 13660 layer_factory.hpp:77] Creating layer inception_4e/relu_5x5_reduce
I0403 14:49:10.592110 13660 net.cpp:91] Creating Layer inception_4e/relu_5x5_reduce
I0403 14:49:10.592125 13660 net.cpp:425] inception_4e/relu_5x5_reduce <- inception_4e/5x5_reduce
I0403 14:49:10.592144 13660 net.cpp:386] inception_4e/relu_5x5_reduce -> inception_4e/5x5_reduce (in-place)
I0403 14:49:10.592478 13660 net.cpp:141] Setting up inception_4e/relu_5x5_reduce
I0403 14:49:10.592509 13660 net.cpp:148] Top shape: 24 32 14 14 (150528)
I0403 14:49:10.592526 13660 net.cpp:156] Memory required for data: 1237333536
I0403 14:49:10.592541 13660 layer_factory.hpp:77] Creating layer inception_4e/5x5
I0403 14:49:10.592581 13660 net.cpp:91] Creating Layer inception_4e/5x5
I0403 14:49:10.592602 13660 net.cpp:425] inception_4e/5x5 <- inception_4e/5x5_reduce
I0403 14:49:10.592619 13660 net.cpp:399] inception_4e/5x5 -> inception_4e/5x5
I0403 14:49:10.594409 13660 net.cpp:141] Setting up inception_4e/5x5
I0403 14:49:10.594436 13660 net.cpp:148] Top shape: 24 128 14 14 (602112)
I0403 14:49:10.594451 13660 net.cpp:156] Memory required for data: 1239741984
I0403 14:49:10.594470 13660 layer_factory.hpp:77] Creating layer inception_4e/relu_5x5
I0403 14:49:10.594491 13660 net.cpp:91] Creating Layer inception_4e/relu_5x5
I0403 14:49:10.594516 13660 net.cpp:425] inception_4e/relu_5x5 <- inception_4e/5x5
I0403 14:49:10.594535 13660 net.cpp:386] inception_4e/relu_5x5 -> inception_4e/5x5 (in-place)
I0403 14:49:10.594724 13660 net.cpp:141] Setting up inception_4e/relu_5x5
I0403 14:49:10.594750 13660 net.cpp:148] Top shape: 24 128 14 14 (602112)
I0403 14:49:10.594766 13660 net.cpp:156] Memory required for data: 1242150432
I0403 14:49:10.594780 13660 layer_factory.hpp:77] Creating layer inception_4e/pool
I0403 14:49:10.594797 13660 net.cpp:91] Creating Layer inception_4e/pool
I0403 14:49:10.594813 13660 net.cpp:425] inception_4e/pool <- inception_4d/output_inception_4d/output_0_split_4
I0403 14:49:10.594831 13660 net.cpp:399] inception_4e/pool -> inception_4e/pool
I0403 14:49:10.594899 13660 net.cpp:141] Setting up inception_4e/pool
I0403 14:49:10.594923 13660 net.cpp:148] Top shape: 24 528 14 14 (2483712)
I0403 14:49:10.594938 13660 net.cpp:156] Memory required for data: 1252085280
I0403 14:49:10.594951 13660 layer_factory.hpp:77] Creating layer inception_4e/pool_proj
I0403 14:49:10.594974 13660 net.cpp:91] Creating Layer inception_4e/pool_proj
I0403 14:49:10.594991 13660 net.cpp:425] inception_4e/pool_proj <- inception_4e/pool
I0403 14:49:10.595008 13660 net.cpp:399] inception_4e/pool_proj -> inception_4e/pool_proj
I0403 14:49:10.596501 13660 net.cpp:141] Setting up inception_4e/pool_proj
I0403 14:49:10.596544 13660 net.cpp:148] Top shape: 24 128 14 14 (602112)
I0403 14:49:10.596559 13660 net.cpp:156] Memory required for data: 1254493728
I0403 14:49:10.596583 13660 layer_factory.hpp:77] Creating layer inception_4e/relu_pool_proj
I0403 14:49:10.596613 13660 net.cpp:91] Creating Layer inception_4e/relu_pool_proj
I0403 14:49:10.596637 13660 net.cpp:425] inception_4e/relu_pool_proj <- inception_4e/pool_proj
I0403 14:49:10.596659 13660 net.cpp:386] inception_4e/relu_pool_proj -> inception_4e/pool_proj (in-place)
I0403 14:49:10.596952 13660 net.cpp:141] Setting up inception_4e/relu_pool_proj
I0403 14:49:10.596990 13660 net.cpp:148] Top shape: 24 128 14 14 (602112)
I0403 14:49:10.597005 13660 net.cpp:156] Memory required for data: 1256902176
I0403 14:49:10.597020 13660 layer_factory.hpp:77] Creating layer inception_4e/output
I0403 14:49:10.597040 13660 net.cpp:91] Creating Layer inception_4e/output
I0403 14:49:10.597056 13660 net.cpp:425] inception_4e/output <- inception_4e/1x1
I0403 14:49:10.597072 13660 net.cpp:425] inception_4e/output <- inception_4e/3x3
I0403 14:49:10.597089 13660 net.cpp:425] inception_4e/output <- inception_4e/5x5
I0403 14:49:10.597103 13660 net.cpp:425] inception_4e/output <- inception_4e/pool_proj
I0403 14:49:10.597121 13660 net.cpp:399] inception_4e/output -> inception_4e/output
I0403 14:49:10.597173 13660 net.cpp:141] Setting up inception_4e/output
I0403 14:49:10.597198 13660 net.cpp:148] Top shape: 24 832 14 14 (3913728)
I0403 14:49:10.597213 13660 net.cpp:156] Memory required for data: 1272557088
I0403 14:49:10.597226 13660 layer_factory.hpp:77] Creating layer pool4/3x3_s2
I0403 14:49:10.597242 13660 net.cpp:91] Creating Layer pool4/3x3_s2
I0403 14:49:10.597259 13660 net.cpp:425] pool4/3x3_s2 <- inception_4e/output
I0403 14:49:10.597278 13660 net.cpp:399] pool4/3x3_s2 -> pool4/3x3_s2
I0403 14:49:10.597347 13660 net.cpp:141] Setting up pool4/3x3_s2
I0403 14:49:10.597370 13660 net.cpp:148] Top shape: 24 832 7 7 (978432)
I0403 14:49:10.597384 13660 net.cpp:156] Memory required for data: 1276470816
I0403 14:49:10.597398 13660 layer_factory.hpp:77] Creating layer pool4/3x3_s2_pool4/3x3_s2_0_split
I0403 14:49:10.597419 13660 net.cpp:91] Creating Layer pool4/3x3_s2_pool4/3x3_s2_0_split
I0403 14:49:10.597435 13660 net.cpp:425] pool4/3x3_s2_pool4/3x3_s2_0_split <- pool4/3x3_s2
I0403 14:49:10.597455 13660 net.cpp:399] pool4/3x3_s2_pool4/3x3_s2_0_split -> pool4/3x3_s2_pool4/3x3_s2_0_split_0
I0403 14:49:10.597475 13660 net.cpp:399] pool4/3x3_s2_pool4/3x3_s2_0_split -> pool4/3x3_s2_pool4/3x3_s2_0_split_1
I0403 14:49:10.597494 13660 net.cpp:399] pool4/3x3_s2_pool4/3x3_s2_0_split -> pool4/3x3_s2_pool4/3x3_s2_0_split_2
I0403 14:49:10.597519 13660 net.cpp:399] pool4/3x3_s2_pool4/3x3_s2_0_split -> pool4/3x3_s2_pool4/3x3_s2_0_split_3
I0403 14:49:10.597611 13660 net.cpp:141] Setting up pool4/3x3_s2_pool4/3x3_s2_0_split
I0403 14:49:10.597635 13660 net.cpp:148] Top shape: 24 832 7 7 (978432)
I0403 14:49:10.597651 13660 net.cpp:148] Top shape: 24 832 7 7 (978432)
I0403 14:49:10.597666 13660 net.cpp:148] Top shape: 24 832 7 7 (978432)
I0403 14:49:10.597681 13660 net.cpp:148] Top shape: 24 832 7 7 (978432)
I0403 14:49:10.597694 13660 net.cpp:156] Memory required for data: 1292125728
I0403 14:49:10.597708 13660 layer_factory.hpp:77] Creating layer inception_5a/1x1
I0403 14:49:10.597730 13660 net.cpp:91] Creating Layer inception_5a/1x1
I0403 14:49:10.597748 13660 net.cpp:425] inception_5a/1x1 <- pool4/3x3_s2_pool4/3x3_s2_0_split_0
I0403 14:49:10.597767 13660 net.cpp:399] inception_5a/1x1 -> inception_5a/1x1
I0403 14:49:10.600627 13660 net.cpp:141] Setting up inception_5a/1x1
I0403 14:49:10.600659 13660 net.cpp:148] Top shape: 24 256 7 7 (301056)
I0403 14:49:10.600677 13660 net.cpp:156] Memory required for data: 1293329952
I0403 14:49:10.600697 13660 layer_factory.hpp:77] Creating layer inception_5a/relu_1x1
I0403 14:49:10.600715 13660 net.cpp:91] Creating Layer inception_5a/relu_1x1
I0403 14:49:10.600733 13660 net.cpp:425] inception_5a/relu_1x1 <- inception_5a/1x1
I0403 14:49:10.600751 13660 net.cpp:386] inception_5a/relu_1x1 -> inception_5a/1x1 (in-place)
I0403 14:49:10.601068 13660 net.cpp:141] Setting up inception_5a/relu_1x1
I0403 14:49:10.601096 13660 net.cpp:148] Top shape: 24 256 7 7 (301056)
I0403 14:49:10.601111 13660 net.cpp:156] Memory required for data: 1294534176
I0403 14:49:10.601126 13660 layer_factory.hpp:77] Creating layer inception_5a/3x3_reduce
I0403 14:49:10.601150 13660 net.cpp:91] Creating Layer inception_5a/3x3_reduce
I0403 14:49:10.601167 13660 net.cpp:425] inception_5a/3x3_reduce <- pool4/3x3_s2_pool4/3x3_s2_0_split_1
I0403 14:49:10.601186 13660 net.cpp:399] inception_5a/3x3_reduce -> inception_5a/3x3_reduce
I0403 14:49:10.603653 13660 net.cpp:141] Setting up inception_5a/3x3_reduce
I0403 14:49:10.603684 13660 net.cpp:148] Top shape: 24 160 7 7 (188160)
I0403 14:49:10.603703 13660 net.cpp:156] Memory required for data: 1295286816
I0403 14:49:10.603720 13660 layer_factory.hpp:77] Creating layer inception_5a/relu_3x3_reduce
I0403 14:49:10.603740 13660 net.cpp:91] Creating Layer inception_5a/relu_3x3_reduce
I0403 14:49:10.603757 13660 net.cpp:425] inception_5a/relu_3x3_reduce <- inception_5a/3x3_reduce
I0403 14:49:10.603775 13660 net.cpp:386] inception_5a/relu_3x3_reduce -> inception_5a/3x3_reduce (in-place)
I0403 14:49:10.603961 13660 net.cpp:141] Setting up inception_5a/relu_3x3_reduce
I0403 14:49:10.603986 13660 net.cpp:148] Top shape: 24 160 7 7 (188160)
I0403 14:49:10.604004 13660 net.cpp:156] Memory required for data: 1296039456
I0403 14:49:10.604019 13660 layer_factory.hpp:77] Creating layer inception_5a/3x3
I0403 14:49:10.604038 13660 net.cpp:91] Creating Layer inception_5a/3x3
I0403 14:49:10.604055 13660 net.cpp:425] inception_5a/3x3 <- inception_5a/3x3_reduce
I0403 14:49:10.604077 13660 net.cpp:399] inception_5a/3x3 -> inception_5a/3x3
I0403 14:49:10.609124 13660 net.cpp:141] Setting up inception_5a/3x3
I0403 14:49:10.609155 13660 net.cpp:148] Top shape: 24 320 7 7 (376320)
I0403 14:49:10.609171 13660 net.cpp:156] Memory required for data: 1297544736
I0403 14:49:10.609189 13660 layer_factory.hpp:77] Creating layer inception_5a/relu_3x3
I0403 14:49:10.609210 13660 net.cpp:91] Creating Layer inception_5a/relu_3x3
I0403 14:49:10.609226 13660 net.cpp:425] inception_5a/relu_3x3 <- inception_5a/3x3
I0403 14:49:10.609243 13660 net.cpp:386] inception_5a/relu_3x3 -> inception_5a/3x3 (in-place)
I0403 14:49:10.609550 13660 net.cpp:141] Setting up inception_5a/relu_3x3
I0403 14:49:10.609577 13660 net.cpp:148] Top shape: 24 320 7 7 (376320)
I0403 14:49:10.609602 13660 net.cpp:156] Memory required for data: 1299050016
I0403 14:49:10.609617 13660 layer_factory.hpp:77] Creating layer inception_5a/5x5_reduce
I0403 14:49:10.609642 13660 net.cpp:91] Creating Layer inception_5a/5x5_reduce
I0403 14:49:10.609660 13660 net.cpp:425] inception_5a/5x5_reduce <- pool4/3x3_s2_pool4/3x3_s2_0_split_2
I0403 14:49:10.609679 13660 net.cpp:399] inception_5a/5x5_reduce -> inception_5a/5x5_reduce
I0403 14:49:10.610851 13660 net.cpp:141] Setting up inception_5a/5x5_reduce
I0403 14:49:10.610882 13660 net.cpp:148] Top shape: 24 32 7 7 (37632)
I0403 14:49:10.610899 13660 net.cpp:156] Memory required for data: 1299200544
I0403 14:49:10.610918 13660 layer_factory.hpp:77] Creating layer inception_5a/relu_5x5_reduce
I0403 14:49:10.610937 13660 net.cpp:91] Creating Layer inception_5a/relu_5x5_reduce
I0403 14:49:10.610954 13660 net.cpp:425] inception_5a/relu_5x5_reduce <- inception_5a/5x5_reduce
I0403 14:49:10.610970 13660 net.cpp:386] inception_5a/relu_5x5_reduce -> inception_5a/5x5_reduce (in-place)
I0403 14:49:10.611270 13660 net.cpp:141] Setting up inception_5a/relu_5x5_reduce
I0403 14:49:10.611304 13660 net.cpp:148] Top shape: 24 32 7 7 (37632)
I0403 14:49:10.611320 13660 net.cpp:156] Memory required for data: 1299351072
I0403 14:49:10.611335 13660 layer_factory.hpp:77] Creating layer inception_5a/5x5
I0403 14:49:10.611359 13660 net.cpp:91] Creating Layer inception_5a/5x5
I0403 14:49:10.611378 13660 net.cpp:425] inception_5a/5x5 <- inception_5a/5x5_reduce
I0403 14:49:10.611398 13660 net.cpp:399] inception_5a/5x5 -> inception_5a/5x5
I0403 14:49:10.613128 13660 net.cpp:141] Setting up inception_5a/5x5
I0403 14:49:10.613170 13660 net.cpp:148] Top shape: 24 128 7 7 (150528)
I0403 14:49:10.613188 13660 net.cpp:156] Memory required for data: 1299953184
I0403 14:49:10.613207 13660 layer_factory.hpp:77] Creating layer inception_5a/relu_5x5
I0403 14:49:10.613229 13660 net.cpp:91] Creating Layer inception_5a/relu_5x5
I0403 14:49:10.613247 13660 net.cpp:425] inception_5a/relu_5x5 <- inception_5a/5x5
I0403 14:49:10.613265 13660 net.cpp:386] inception_5a/relu_5x5 -> inception_5a/5x5 (in-place)
I0403 14:49:10.613458 13660 net.cpp:141] Setting up inception_5a/relu_5x5
I0403 14:49:10.613486 13660 net.cpp:148] Top shape: 24 128 7 7 (150528)
I0403 14:49:10.613500 13660 net.cpp:156] Memory required for data: 1300555296
I0403 14:49:10.613522 13660 layer_factory.hpp:77] Creating layer inception_5a/pool
I0403 14:49:10.613541 13660 net.cpp:91] Creating Layer inception_5a/pool
I0403 14:49:10.613559 13660 net.cpp:425] inception_5a/pool <- pool4/3x3_s2_pool4/3x3_s2_0_split_3
I0403 14:49:10.613579 13660 net.cpp:399] inception_5a/pool -> inception_5a/pool
I0403 14:49:10.613651 13660 net.cpp:141] Setting up inception_5a/pool
I0403 14:49:10.613677 13660 net.cpp:148] Top shape: 24 832 7 7 (978432)
I0403 14:49:10.613692 13660 net.cpp:156] Memory required for data: 1304469024
I0403 14:49:10.613708 13660 layer_factory.hpp:77] Creating layer inception_5a/pool_proj
I0403 14:49:10.613731 13660 net.cpp:91] Creating Layer inception_5a/pool_proj
I0403 14:49:10.613749 13660 net.cpp:425] inception_5a/pool_proj <- inception_5a/pool
I0403 14:49:10.613770 13660 net.cpp:399] inception_5a/pool_proj -> inception_5a/pool_proj
I0403 14:49:10.616096 13660 net.cpp:141] Setting up inception_5a/pool_proj
I0403 14:49:10.616125 13660 net.cpp:148] Top shape: 24 128 7 7 (150528)
I0403 14:49:10.616142 13660 net.cpp:156] Memory required for data: 1305071136
I0403 14:49:10.616161 13660 layer_factory.hpp:77] Creating layer inception_5a/relu_pool_proj
I0403 14:49:10.616184 13660 net.cpp:91] Creating Layer inception_5a/relu_pool_proj
I0403 14:49:10.616204 13660 net.cpp:425] inception_5a/relu_pool_proj <- inception_5a/pool_proj
I0403 14:49:10.616222 13660 net.cpp:386] inception_5a/relu_pool_proj -> inception_5a/pool_proj (in-place)
I0403 14:49:10.616521 13660 net.cpp:141] Setting up inception_5a/relu_pool_proj
I0403 14:49:10.616549 13660 net.cpp:148] Top shape: 24 128 7 7 (150528)
I0403 14:49:10.616566 13660 net.cpp:156] Memory required for data: 1305673248
I0403 14:49:10.616583 13660 layer_factory.hpp:77] Creating layer inception_5a/output
I0403 14:49:10.616603 13660 net.cpp:91] Creating Layer inception_5a/output
I0403 14:49:10.616621 13660 net.cpp:425] inception_5a/output <- inception_5a/1x1
I0403 14:49:10.616641 13660 net.cpp:425] inception_5a/output <- inception_5a/3x3
I0403 14:49:10.616657 13660 net.cpp:425] inception_5a/output <- inception_5a/5x5
I0403 14:49:10.616673 13660 net.cpp:425] inception_5a/output <- inception_5a/pool_proj
I0403 14:49:10.616691 13660 net.cpp:399] inception_5a/output -> inception_5a/output
I0403 14:49:10.616744 13660 net.cpp:141] Setting up inception_5a/output
I0403 14:49:10.616767 13660 net.cpp:148] Top shape: 24 832 7 7 (978432)
I0403 14:49:10.616782 13660 net.cpp:156] Memory required for data: 1309586976
I0403 14:49:10.616797 13660 layer_factory.hpp:77] Creating layer inception_5a/output_inception_5a/output_0_split
I0403 14:49:10.616816 13660 net.cpp:91] Creating Layer inception_5a/output_inception_5a/output_0_split
I0403 14:49:10.616830 13660 net.cpp:425] inception_5a/output_inception_5a/output_0_split <- inception_5a/output
I0403 14:49:10.616850 13660 net.cpp:399] inception_5a/output_inception_5a/output_0_split -> inception_5a/output_inception_5a/output_0_split_0
I0403 14:49:10.616871 13660 net.cpp:399] inception_5a/output_inception_5a/output_0_split -> inception_5a/output_inception_5a/output_0_split_1
I0403 14:49:10.616891 13660 net.cpp:399] inception_5a/output_inception_5a/output_0_split -> inception_5a/output_inception_5a/output_0_split_2
I0403 14:49:10.616914 13660 net.cpp:399] inception_5a/output_inception_5a/output_0_split -> inception_5a/output_inception_5a/output_0_split_3
I0403 14:49:10.617025 13660 net.cpp:141] Setting up inception_5a/output_inception_5a/output_0_split
I0403 14:49:10.617053 13660 net.cpp:148] Top shape: 24 832 7 7 (978432)
I0403 14:49:10.617069 13660 net.cpp:148] Top shape: 24 832 7 7 (978432)
I0403 14:49:10.617085 13660 net.cpp:148] Top shape: 24 832 7 7 (978432)
I0403 14:49:10.617100 13660 net.cpp:148] Top shape: 24 832 7 7 (978432)
I0403 14:49:10.617113 13660 net.cpp:156] Memory required for data: 1325241888
I0403 14:49:10.617127 13660 layer_factory.hpp:77] Creating layer inception_5b/1x1
I0403 14:49:10.617148 13660 net.cpp:91] Creating Layer inception_5b/1x1
I0403 14:49:10.617166 13660 net.cpp:425] inception_5b/1x1 <- inception_5a/output_inception_5a/output_0_split_0
I0403 14:49:10.617185 13660 net.cpp:399] inception_5b/1x1 -> inception_5b/1x1
I0403 14:49:10.621002 13660 net.cpp:141] Setting up inception_5b/1x1
I0403 14:49:10.621034 13660 net.cpp:148] Top shape: 24 384 7 7 (451584)
I0403 14:49:10.621052 13660 net.cpp:156] Memory required for data: 1327048224
I0403 14:49:10.621070 13660 layer_factory.hpp:77] Creating layer inception_5b/relu_1x1
I0403 14:49:10.621091 13660 net.cpp:91] Creating Layer inception_5b/relu_1x1
I0403 14:49:10.621110 13660 net.cpp:425] inception_5b/relu_1x1 <- inception_5b/1x1
I0403 14:49:10.621127 13660 net.cpp:386] inception_5b/relu_1x1 -> inception_5b/1x1 (in-place)
I0403 14:49:10.621436 13660 net.cpp:141] Setting up inception_5b/relu_1x1
I0403 14:49:10.621464 13660 net.cpp:148] Top shape: 24 384 7 7 (451584)
I0403 14:49:10.621479 13660 net.cpp:156] Memory required for data: 1328854560
I0403 14:49:10.621495 13660 layer_factory.hpp:77] Creating layer inception_5b/3x3_reduce
I0403 14:49:10.621526 13660 net.cpp:91] Creating Layer inception_5b/3x3_reduce
I0403 14:49:10.621547 13660 net.cpp:425] inception_5b/3x3_reduce <- inception_5a/output_inception_5a/output_0_split_1
I0403 14:49:10.621570 13660 net.cpp:399] inception_5b/3x3_reduce -> inception_5b/3x3_reduce
I0403 14:49:10.624235 13660 net.cpp:141] Setting up inception_5b/3x3_reduce
I0403 14:49:10.624266 13660 net.cpp:148] Top shape: 24 192 7 7 (225792)
I0403 14:49:10.624282 13660 net.cpp:156] Memory required for data: 1329757728
I0403 14:49:10.624303 13660 layer_factory.hpp:77] Creating layer inception_5b/relu_3x3_reduce
I0403 14:49:10.624325 13660 net.cpp:91] Creating Layer inception_5b/relu_3x3_reduce
I0403 14:49:10.624343 13660 net.cpp:425] inception_5b/relu_3x3_reduce <- inception_5b/3x3_reduce
I0403 14:49:10.624362 13660 net.cpp:386] inception_5b/relu_3x3_reduce -> inception_5b/3x3_reduce (in-place)
I0403 14:49:10.624567 13660 net.cpp:141] Setting up inception_5b/relu_3x3_reduce
I0403 14:49:10.624593 13660 net.cpp:148] Top shape: 24 192 7 7 (225792)
I0403 14:49:10.624606 13660 net.cpp:156] Memory required for data: 1330660896
I0403 14:49:10.624620 13660 layer_factory.hpp:77] Creating layer inception_5b/3x3
I0403 14:49:10.624644 13660 net.cpp:91] Creating Layer inception_5b/3x3
I0403 14:49:10.624661 13660 net.cpp:425] inception_5b/3x3 <- inception_5b/3x3_reduce
I0403 14:49:10.624680 13660 net.cpp:399] inception_5b/3x3 -> inception_5b/3x3
I0403 14:49:10.631381 13660 net.cpp:141] Setting up inception_5b/3x3
I0403 14:49:10.631412 13660 net.cpp:148] Top shape: 24 384 7 7 (451584)
I0403 14:49:10.631428 13660 net.cpp:156] Memory required for data: 1332467232
I0403 14:49:10.631448 13660 layer_factory.hpp:77] Creating layer inception_5b/relu_3x3
I0403 14:49:10.631469 13660 net.cpp:91] Creating Layer inception_5b/relu_3x3
I0403 14:49:10.631487 13660 net.cpp:425] inception_5b/relu_3x3 <- inception_5b/3x3
I0403 14:49:10.631508 13660 net.cpp:386] inception_5b/relu_3x3 -> inception_5b/3x3 (in-place)
I0403 14:49:10.631813 13660 net.cpp:141] Setting up inception_5b/relu_3x3
I0403 14:49:10.631839 13660 net.cpp:148] Top shape: 24 384 7 7 (451584)
I0403 14:49:10.631855 13660 net.cpp:156] Memory required for data: 1334273568
I0403 14:49:10.631871 13660 layer_factory.hpp:77] Creating layer inception_5b/5x5_reduce
I0403 14:49:10.631911 13660 net.cpp:91] Creating Layer inception_5b/5x5_reduce
I0403 14:49:10.631933 13660 net.cpp:425] inception_5b/5x5_reduce <- inception_5a/output_inception_5a/output_0_split_2
I0403 14:49:10.631955 13660 net.cpp:399] inception_5b/5x5_reduce -> inception_5b/5x5_reduce
I0403 14:49:10.633231 13660 net.cpp:141] Setting up inception_5b/5x5_reduce
I0403 14:49:10.633261 13660 net.cpp:148] Top shape: 24 48 7 7 (56448)
I0403 14:49:10.633277 13660 net.cpp:156] Memory required for data: 1334499360
I0403 14:49:10.633298 13660 layer_factory.hpp:77] Creating layer inception_5b/relu_5x5_reduce
I0403 14:49:10.633319 13660 net.cpp:91] Creating Layer inception_5b/relu_5x5_reduce
I0403 14:49:10.633337 13660 net.cpp:425] inception_5b/relu_5x5_reduce <- inception_5b/5x5_reduce
I0403 14:49:10.633354 13660 net.cpp:386] inception_5b/relu_5x5_reduce -> inception_5b/5x5_reduce (in-place)
I0403 14:49:10.633733 13660 net.cpp:141] Setting up inception_5b/relu_5x5_reduce
I0403 14:49:10.633761 13660 net.cpp:148] Top shape: 24 48 7 7 (56448)
I0403 14:49:10.633777 13660 net.cpp:156] Memory required for data: 1334725152
I0403 14:49:10.633792 13660 layer_factory.hpp:77] Creating layer inception_5b/5x5
I0403 14:49:10.633815 13660 net.cpp:91] Creating Layer inception_5b/5x5
I0403 14:49:10.633832 13660 net.cpp:425] inception_5b/5x5 <- inception_5b/5x5_reduce
I0403 14:49:10.633852 13660 net.cpp:399] inception_5b/5x5 -> inception_5b/5x5
I0403 14:49:10.635983 13660 net.cpp:141] Setting up inception_5b/5x5
I0403 14:49:10.636015 13660 net.cpp:148] Top shape: 24 128 7 7 (150528)
I0403 14:49:10.636042 13660 net.cpp:156] Memory required for data: 1335327264
I0403 14:49:10.636060 13660 layer_factory.hpp:77] Creating layer inception_5b/relu_5x5
I0403 14:49:10.636080 13660 net.cpp:91] Creating Layer inception_5b/relu_5x5
I0403 14:49:10.636096 13660 net.cpp:425] inception_5b/relu_5x5 <- inception_5b/5x5
I0403 14:49:10.636114 13660 net.cpp:386] inception_5b/relu_5x5 -> inception_5b/5x5 (in-place)
I0403 14:49:10.636317 13660 net.cpp:141] Setting up inception_5b/relu_5x5
I0403 14:49:10.636343 13660 net.cpp:148] Top shape: 24 128 7 7 (150528)
I0403 14:49:10.636359 13660 net.cpp:156] Memory required for data: 1335929376
I0403 14:49:10.636373 13660 layer_factory.hpp:77] Creating layer inception_5b/pool
I0403 14:49:10.636391 13660 net.cpp:91] Creating Layer inception_5b/pool
I0403 14:49:10.636407 13660 net.cpp:425] inception_5b/pool <- inception_5a/output_inception_5a/output_0_split_3
I0403 14:49:10.636426 13660 net.cpp:399] inception_5b/pool -> inception_5b/pool
I0403 14:49:10.636499 13660 net.cpp:141] Setting up inception_5b/pool
I0403 14:49:10.636529 13660 net.cpp:148] Top shape: 24 832 7 7 (978432)
I0403 14:49:10.636545 13660 net.cpp:156] Memory required for data: 1339843104
I0403 14:49:10.636560 13660 layer_factory.hpp:77] Creating layer inception_5b/pool_proj
I0403 14:49:10.636581 13660 net.cpp:91] Creating Layer inception_5b/pool_proj
I0403 14:49:10.636600 13660 net.cpp:425] inception_5b/pool_proj <- inception_5b/pool
I0403 14:49:10.636617 13660 net.cpp:399] inception_5b/pool_proj -> inception_5b/pool_proj
I0403 14:49:10.638936 13660 net.cpp:141] Setting up inception_5b/pool_proj
I0403 14:49:10.638967 13660 net.cpp:148] Top shape: 24 128 7 7 (150528)
I0403 14:49:10.638983 13660 net.cpp:156] Memory required for data: 1340445216
I0403 14:49:10.639000 13660 layer_factory.hpp:77] Creating layer inception_5b/relu_pool_proj
I0403 14:49:10.639024 13660 net.cpp:91] Creating Layer inception_5b/relu_pool_proj
I0403 14:49:10.639042 13660 net.cpp:425] inception_5b/relu_pool_proj <- inception_5b/pool_proj
I0403 14:49:10.639061 13660 net.cpp:386] inception_5b/relu_pool_proj -> inception_5b/pool_proj (in-place)
I0403 14:49:10.639365 13660 net.cpp:141] Setting up inception_5b/relu_pool_proj
I0403 14:49:10.639391 13660 net.cpp:148] Top shape: 24 128 7 7 (150528)
I0403 14:49:10.639407 13660 net.cpp:156] Memory required for data: 1341047328
I0403 14:49:10.639420 13660 layer_factory.hpp:77] Creating layer inception_5b/output
I0403 14:49:10.639439 13660 net.cpp:91] Creating Layer inception_5b/output
I0403 14:49:10.639470 13660 net.cpp:425] inception_5b/output <- inception_5b/1x1
I0403 14:49:10.639487 13660 net.cpp:425] inception_5b/output <- inception_5b/3x3
I0403 14:49:10.639503 13660 net.cpp:425] inception_5b/output <- inception_5b/5x5
I0403 14:49:10.639523 13660 net.cpp:425] inception_5b/output <- inception_5b/pool_proj
I0403 14:49:10.639539 13660 net.cpp:399] inception_5b/output -> inception_5b/output
I0403 14:49:10.639592 13660 net.cpp:141] Setting up inception_5b/output
I0403 14:49:10.639616 13660 net.cpp:148] Top shape: 24 1024 7 7 (1204224)
I0403 14:49:10.639629 13660 net.cpp:156] Memory required for data: 1345864224
I0403 14:49:10.639643 13660 layer_factory.hpp:77] Creating layer pool5/7x7_s1
I0403 14:49:10.639659 13660 net.cpp:91] Creating Layer pool5/7x7_s1
I0403 14:49:10.639674 13660 net.cpp:425] pool5/7x7_s1 <- inception_5b/output
I0403 14:49:10.639694 13660 net.cpp:399] pool5/7x7_s1 -> pool5/7x7_s1
I0403 14:49:10.639904 13660 net.cpp:141] Setting up pool5/7x7_s1
I0403 14:49:10.639928 13660 net.cpp:148] Top shape: 24 1024 1 1 (24576)
I0403 14:49:10.639942 13660 net.cpp:156] Memory required for data: 1345962528
I0403 14:49:10.639956 13660 layer_factory.hpp:77] Creating layer pool5/drop_7x7_s1
I0403 14:49:10.639976 13660 net.cpp:91] Creating Layer pool5/drop_7x7_s1
I0403 14:49:10.639992 13660 net.cpp:425] pool5/drop_7x7_s1 <- pool5/7x7_s1
I0403 14:49:10.640008 13660 net.cpp:386] pool5/drop_7x7_s1 -> pool5/7x7_s1 (in-place)
I0403 14:49:10.640059 13660 net.cpp:141] Setting up pool5/drop_7x7_s1
I0403 14:49:10.640082 13660 net.cpp:148] Top shape: 24 1024 1 1 (24576)
I0403 14:49:10.640095 13660 net.cpp:156] Memory required for data: 1346060832
I0403 14:49:10.640110 13660 layer_factory.hpp:77] Creating layer loss3/classifier_plantvillage
I0403 14:49:10.640130 13660 net.cpp:91] Creating Layer loss3/classifier_plantvillage
I0403 14:49:10.640146 13660 net.cpp:425] loss3/classifier_plantvillage <- pool5/7x7_s1
I0403 14:49:10.640163 13660 net.cpp:399] loss3/classifier_plantvillage -> loss3/classifier_plantvillage
I0403 14:49:10.640588 13660 net.cpp:141] Setting up loss3/classifier_plantvillage
I0403 14:49:10.640611 13660 net.cpp:148] Top shape: 24 38 (912)
I0403 14:49:10.640625 13660 net.cpp:156] Memory required for data: 1346064480
I0403 14:49:10.640642 13660 layer_factory.hpp:77] Creating layer loss3/classifier_plantvillage_loss3/classifier_plantvillage_0_split
I0403 14:49:10.640661 13660 net.cpp:91] Creating Layer loss3/classifier_plantvillage_loss3/classifier_plantvillage_0_split
I0403 14:49:10.640676 13660 net.cpp:425] loss3/classifier_plantvillage_loss3/classifier_plantvillage_0_split <- loss3/classifier_plantvillage
I0403 14:49:10.640696 13660 net.cpp:399] loss3/classifier_plantvillage_loss3/classifier_plantvillage_0_split -> loss3/classifier_plantvillage_loss3/classifier_plantvillage_0_split_0
I0403 14:49:10.640715 13660 net.cpp:399] loss3/classifier_plantvillage_loss3/classifier_plantvillage_0_split -> loss3/classifier_plantvillage_loss3/classifier_plantvillage_0_split_1
I0403 14:49:10.640734 13660 net.cpp:399] loss3/classifier_plantvillage_loss3/classifier_plantvillage_0_split -> loss3/classifier_plantvillage_loss3/classifier_plantvillage_0_split_2
I0403 14:49:10.640753 13660 net.cpp:399] loss3/classifier_plantvillage_loss3/classifier_plantvillage_0_split -> loss3/classifier_plantvillage_loss3/classifier_plantvillage_0_split_3
I0403 14:49:10.640851 13660 net.cpp:141] Setting up loss3/classifier_plantvillage_loss3/classifier_plantvillage_0_split
I0403 14:49:10.640873 13660 net.cpp:148] Top shape: 24 38 (912)
I0403 14:49:10.640889 13660 net.cpp:148] Top shape: 24 38 (912)
I0403 14:49:10.640904 13660 net.cpp:148] Top shape: 24 38 (912)
I0403 14:49:10.640918 13660 net.cpp:148] Top shape: 24 38 (912)
I0403 14:49:10.640931 13660 net.cpp:156] Memory required for data: 1346079072
I0403 14:49:10.640944 13660 layer_factory.hpp:77] Creating layer loss1/loss
I0403 14:49:10.640964 13660 net.cpp:91] Creating Layer loss1/loss
I0403 14:49:10.640981 13660 net.cpp:425] loss1/loss <- loss1/classifier_plantvillage_loss1/classifier_plantvillage_0_split_0
I0403 14:49:10.641013 13660 net.cpp:425] loss1/loss <- label_data_1_split_0
…
