…
I0403 14:24:19.798410 13236 net.cpp:313] The NetState phase (1) differed from the phase (0) specified by a rule in layer data
I0403 14:24:19.799573 13236 net.cpp:49] Initializing net from parameters: 
state {
  phase: TEST
}
layer {
  name: "data"
  type: "Data"
  top: "data"
  top: "label"
  include {
    phase: TEST
  }
  transform_param {
    mirror: false
    crop_size: 224
    mean_file: "/home/mohanty/data/final_dataset/lmdb/segmented-20-80/mean.binaryproto"
  }
  data_param {
    source: "/home/mohanty/data/final_dataset/lmdb/segmented-20-80/test_db"
    batch_size: 24
    backend: LMDB
  }
}
layer {
  name: "conv1/7x7_s2"
  type: "Convolution"
  bottom: "data"
  top: "conv1/7x7_s2"
  param {
    lr_mult: 1
    decay_mult: 1
  }
  param {
    lr_mult: 2
    decay_mult: 0
  }
  convolution_param {
    num_output: 64
    pad: 3
    kernel_size: 7
    stride: 2
    weight_filler {
      type: "xavier"
      std: 0.1
    }
    bias_filler {
      type: "constant"
      value: 0.2
    }
  }
}
layer {
  name: "conv1/relu_7x7"
  type: "ReLU"
  bottom: "conv1/7x7_s2"
  top: "conv1/7x7_s2"
}
layer {
  name: "pool1/3x3_s2"
  type: "Pooling"
  bottom: "conv1/7x7_s2"
  top: "pool1/3x3_s2"
  pooling_param {
    pool: MAX
    kernel_size: 3
    stride: 2
  }
}
layer {
  name: "pool1/norm1"
  type: "LRN"
  bottom: "pool1/3x3_s2"
  top: "pool1/norm1"
  lrn_param {
    local_size: 5
    alpha: 0.0001
    beta: 0.75
  }
}
layer {
  name: "conv2/3x3_reduce"
  type: "Convolution"
  bottom: "pool1/norm1"
  top: "conv2/3x3_reduce"
  param {
    lr_mult: 1
    decay_mult: 1
  }
  param {
    lr_mult: 2
    decay_mult: 0
  }
  convolution_param {
    num_output: 64
    kernel_size: 1
    weight_filler {
      type: "xavier"
      std: 0.1
    }
    bias_filler {
      type: "constant"
      value: 0.2
    }
  }
}
layer {
  name: "conv2/relu_3x3_reduce"
  type: "ReLU"
  bottom: "conv2/3x3_reduce"
  top: "conv2/3x3_reduce"
}
layer {
  name: "conv2/3x3"
  type: "Convolution"
  bottom: "conv2/3x3_reduce"
  top: "conv2/3x3"
  param {
    lr_mult: 1
    decay_mult: 1
  }
  param {
    lr_mult: 2
    decay_mult: 0
  }
  convolution_param {
    num_output: 192
    pad: 1
    kernel_size: 3
    weight_filler {
      type: "xavier"
      std: 0.03
    }
    bias_filler {
      type: "constant"
      value: 0.2
    }
  }
}
layer {
  name: "conv2/relu_3x3"
  type: "ReLU"
  bottom: "conv2/3x3"
  top: "conv2/3x3"
}
layer {
  name: "conv2/norm2"
  type: "LRN"
  bottom: "conv2/3x3"
  top: "conv2/norm2"
  lrn_param {
    local_size: 5
    alpha: 0.0001
    beta: 0.75
  }
}
layer {
  name: "pool2/3x3_s2"
  type: "Pooling"
  bottom: "conv2/norm2"
  top: "pool2/3x3_s2"
  pooling_param {
    pool: MAX
    kernel_size: 3
    stride: 2
  }
}
layer {
  name: "inception_3a/1x1"
  type: "Convolution"
  bottom: "pool2/3x3_s2"
  top: "inception_3a/1x1"
  param {
    lr_mult: 1
    decay_mult: 1
  }
  param {
    lr_mult: 2
    decay_mult: 0
  }
  convolution_param {
    num_output: 64
    kernel_size: 1
    weight_filler {
      type: "xavier"
      std: 0.03
    }
    bias_filler {
      type: "constant"
      value: 0.2
    }
  }
}
layer {
  name: "inception_3a/relu_1x1"
  type: "ReLU"
  bottom: "inception_3a/1x1"
  top: "inception_3a/1x1"
}
layer {
  name: "inception_3a/3x3_reduce"
  type: "Convolution"
  bottom: "pool2/3x3_s2"
  top: "inception_3a/3x3_reduce"
  param {
    lr_mult: 1
    decay_mult: 1
  }
  param {
    lr_mult: 2
    decay_mult: 0
  }
  convolution_param {
    num_output: 96
    kernel_size: 1
    weight_filler {
      type: "xavier"
      std: 0.09
    }
    bias_filler {
      type: "constant"
      value: 0.2
    }
  }
}
layer {
  name: "inception_3a/relu_3x3_reduce"
  type: "ReLU"
  bottom: "inception_3a/3x3_reduce"
  top: "inception_3a/3x3_reduce"
}
layer {
  name: "inception_3a/3x3"
  type: "Convolution"
  bottom: "inception_3a/3x3_reduce"
  top: "inception_3a/3x3"
  param {
    lr_mult: 1
    decay_mult: 1
  }
  param {
    lr_mult: 2
    decay_mult: 0
  }
  convolution_param {
    num_output: 128
    pad: 1
    kernel_size: 3
    weight_filler {
      type: "xavier"
      std: 0.03
    }
    bias_filler {
      type: "constant"
      value: 0.2
    }
  }
}
layer {
  name: "inception_3a/relu_3x3"
  type: "ReLU"
  bottom: "inception_3a/3x3"
  top: "inception_3a/3x3"
}
layer {
  name: "inception_3a/5x5_reduce"
  type: "Convolution"
  bottom: "pool2/3x3_s2"
  top: "inception_3a/5x5_reduce"
  param {
    lr_mult: 1
    decay_mult: 1
  }
  param {
    lr_mult: 2
    decay_mult: 0
  }
  convolution_param {
    num_output: 16
    kernel_size: 1
    weight_filler {
      type: "xavier"
      std: 0.2
    }
    bias_filler {
      type: "constant"
      value: 0.2
    }
  }
}
layer {
  name: "inception_3a/relu_5x5_reduce"
  type: "ReLU"
  bottom: "inception_3a/5x5_reduce"
  top: "inception_3a/5x5_reduce"
}
layer {
  name: "inception_3a/5x5"
  type: "Convolution"
  bottom: "inception_3a/5x5_reduce"
  top: "inception_3a/5x5"
  param {
    lr_mult: 1
    decay_mult: 1
  }
  param {
    lr_mult: 2
    decay_mult: 0
  }
  convolution_param {
    num_output: 32
    pad: 2
    kernel_size: 5
    weight_filler {
      type: "xavier"
      std: 0.03
    }
    bias_filler {
      type: "constant"
      value: 0.2
    }
  }
}
layer {
  name: "inception_3a/relu_5x5"
  type: "ReLU"
  bottom: "inception_3a/5x5"
  top: "inception_3a/5x5"
}
layer {
  name: "inception_3a/pool"
  type: "Pooling"
  bottom: "pool2/3x3_s2"
  top: "inception_3a/pool"
  pooling_param {
    pool: MAX
    kernel_size: 3
    stride: 1
    pad: 1
  }
}
layer {
  name: "inception_3a/pool_proj"
  type: "Convolution"
  bottom: "inception_3a/pool"
  top: "inception_3a/pool_proj"
  param {
    lr_mult: 1
    decay_mult: 1
  }
  param {
    lr_mult: 2
    decay_mult: 0
  }
  convolution_param {
    num_output: 32
    kernel_size: 1
    weight_filler {
      type: "xavier"
      std: 0.1
    }
    bias_filler {
      type: "constant"
      value: 0.2
    }
  }
}
layer {
  name: "inception_3a/relu_pool_proj"
  type: "ReLU"
  bottom: "inception_3a/pool_proj"
  top: "inception_3a/pool_proj"
}
layer {
  name: "inception_3a/output"
  type: "Concat"
  bottom: "inception_3a/1x1"
  bottom: "inception_3a/3x3"
  bottom: "inception_3a/5x5"
  bottom: "inception_3a/pool_proj"
  top: "inception_3a/output"
}
layer {
  name: "inception_3b/1x1"
  type: "Convolution"
  bottom: "inception_3a/output"
  top: "inception_3b/1x1"
  param {
    lr_mult: 1
    decay_mult: 1
  }
  param {
    lr_mult: 2
    decay_mult: 0
  }
  convolution_param {
    num_output: 128
    kernel_size: 1
    weight_filler {
      type: "xavier"
      std: 0.03
    }
    bias_filler {
      type: "constant"
      value: 0.2
    }
  }
}
layer {
  name: "inception_3b/relu_1x1"
  type: "ReLU"
  bottom: "inception_3b/1x1"
  top: "inception_3b/1x1"
}
layer {
  name: "inception_3b/3x3_reduce"
  type: "Convolution"
  bottom: "inception_3a/output"
  top: "inception_3b/3x3_reduce"
  param {
    lr_mult: 1
    decay_mult: 1
  }
  param {
    lr_mult: 2
    decay_mult: 0
  }
  convolution_param {
    num_output: 128
    kernel_size: 1
    weight_filler {
      type: "xavier"
      std: 0.09
    }
    bias_filler {
      type: "constant"
      value: 0.2
    }
  }
}
layer {
  name: "inception_3b/relu_3x3_reduce"
  type: "ReLU"
  bottom: "inception_3b/3x3_reduce"
  top: "inception_3b/3x3_reduce"
}
layer {
  name: "inception_3b/3x3"
  type: "Convolution"
  bottom: "inception_3b/3x3_reduce"
  top: "inception_3b/3x3"
  param {
    lr_mult: 1
    decay_mult: 1
  }
  param {
    lr_mult: 2
    decay_mult: 0
  }
  convolution_param {
    num_output: 192
    pad: 1
    kernel_size: 3
    weight_filler {
      type: "xavier"
      std: 0.03
    }
    bias_filler {
      type: "constant"
      value: 0.2
    }
  }
}
layer {
  name: "inception_3b/relu_3x3"
  type: "ReLU"
  bottom: "inception_3b/3x3"
  top: "inception_3b/3x3"
}
layer {
  name: "inception_3b/5x5_reduce"
  type: "Convolution"
  bottom: "inception_3a/output"
  top: "inception_3b/5x5_reduce"
  param {
    lr_mult: 1
    decay_mult: 1
  }
  param {
    lr_mult: 2
    decay_mult: 0
  }
  convolution_param {
    num_output: 32
    kernel_size: 1
    weight_filler {
      type: "xavier"
      std: 0.2
    }
    bias_filler {
      type: "constant"
      value: 0.2
    }
  }
}
layer {
  name: "inception_3b/relu_5x5_reduce"
  type: "ReLU"
  bottom: "inception_3b/5x5_reduce"
  top: "inception_3b/5x5_reduce"
}
layer {
  name: "inception_3b/5x5"
  type: "Convolution"
  bottom: "inception_3b/5x5_reduce"
  top: "inception_3b/5x5"
  param {
    lr_mult: 1
    decay_mult: 1
  }
  param {
    lr_mult: 2
    decay_mult: 0
  }
  convolution_param {
    num_output: 96
    pad: 2
    kernel_size: 5
    weight_filler {
      type: "xavier"
      std: 0.03
    }
    bias_filler {
      type: "constant"
      value: 0.2
    }
  }
}
layer {
  name: "inception_3b/relu_5x5"
  type: "ReLU"
  bottom: "inception_3b/5x5"
  top: "inception_3b/5x5"
}
layer {
  name: "inception_3b/pool"
  type: "Pooling"
  bottom: "inception_3a/output"
  top: "inception_3b/pool"
  pooling_param {
    pool: MAX
    kernel_size: 3
    stride: 1
    pad: 1
  }
}
layer {
  name: "inception_3b/pool_proj"
  type: "Convolution"
  bottom: "inception_3b/pool"
  top: "inception_3b/pool_proj"
  param {
    lr_mult: 1
    decay_mult: 1
  }
  param {
    lr_mult: 2
    decay_mult: 0
  }
  convolution_param {
    num_output: 64
    kernel_size: 1
    weight_filler {
      type: "xavier"
      std: 0.1
    }
    bias_filler {
      type: "constant"
      value: 0.2
    }
  }
}
layer {
  name: "inception_3b/relu_pool_proj"
  type: "ReLU"
  bottom: "inception_3b/pool_proj"
  top: "inception_3b/pool_proj"
}
layer {
  name: "inception_3b/output"
  type: "Concat"
  bottom: "inception_3b/1x1"
  bottom: "inception_3b/3x3"
  bottom: "inception_3b/5x5"
  bottom: "inception_3b/pool_proj"
  top: "inception_3b/output"
}
layer {
  name: "pool3/3x3_s2"
  type: "Pooling"
  bottom: "inception_3b/output"
  top: "pool3/3x3_s2"
  pooling_param {
    pool: MAX
    kernel_size: 3
    stride: 2
  }
}
layer {
  name: "inception_4a/1x1"
  type: "Convolution"
  bottom: "pool3/3x3_s2"
  top: "inception_4a/1x1"
  param {
    lr_mult: 1
    decay_mult: 1
  }
  param {
    lr_mult: 2
    decay_mult: 0
  }
  convolution_param {
    num_output: 192
    kernel_size: 1
    weight_filler {
      type: "xavier"
      std: 0.03
    }
    bias_filler {
      type: "constant"
      value: 0.2
    }
  }
}
layer {
  name: "inception_4a/relu_1x1"
  type: "ReLU"
  bottom: "inception_4a/1x1"
  top: "inception_4a/1x1"
}
layer {
  name: "inception_4a/3x3_reduce"
  type: "Convolution"
  bottom: "pool3/3x3_s2"
  top: "inception_4a/3x3_reduce"
  param {
    lr_mult: 1
    decay_mult: 1
  }
  param {
    lr_mult: 2
    decay_mult: 0
  }
  convolution_param {
    num_output: 96
    kernel_size: 1
    weight_filler {
      type: "xavier"
      std: 0.09
    }
    bias_filler {
      type: "constant"
      value: 0.2
    }
  }
}
layer {
  name: "inception_4a/relu_3x3_reduce"
  type: "ReLU"
  bottom: "inception_4a/3x3_reduce"
  top: "inception_4a/3x3_reduce"
}
layer {
  name: "inception_4a/3x3"
  type: "Convolution"
  bottom: "inception_4a/3x3_reduce"
  top: "inception_4a/3x3"
  param {
    lr_mult: 1
    decay_mult: 1
  }
  param {
    lr_mult: 2
    decay_mult: 0
  }
  convolution_param {
    num_output: 208
    pad: 1
    kernel_size: 3
    weight_filler {
      type: "xavier"
      std: 0.03
    }
    bias_filler {
      type: "constant"
      value: 0.2
    }
  }
}
layer {
  name: "inception_4a/relu_3x3"
  type: "ReLU"
  bottom: "inception_4a/3x3"
  top: "inception_4a/3x3"
}
layer {
  name: "inception_4a/5x5_reduce"
  type: "Convolution"
  bottom: "pool3/3x3_s2"
  top: "inception_4a/5x5_reduce"
  param {
    lr_mult: 1
    decay_mult: 1
  }
  param {
    lr_mult: 2
    decay_mult: 0
  }
  convolution_param {
    num_output: 16
    kernel_size: 1
    weight_filler {
      type: "xavier"
      std: 0.2
    }
    bias_filler {
      type: "constant"
      value: 0.2
    }
  }
}
layer {
  name: "inception_4a/relu_5x5_reduce"
  type: "ReLU"
  bottom: "inception_4a/5x5_reduce"
  top: "inception_4a/5x5_reduce"
}
layer {
  name: "inception_4a/5x5"
  type: "Convolution"
  bottom: "inception_4a/5x5_reduce"
  top: "inception_4a/5x5"
  param {
    lr_mult: 1
    decay_mult: 1
  }
  param {
    lr_mult: 2
    decay_mult: 0
  }
  convolution_param {
    num_output: 48
    pad: 2
    kernel_size: 5
    weight_filler {
      type: "xavier"
      std: 0.03
    }
    bias_filler {
      type: "constant"
      value: 0.2
    }
  }
}
layer {
  name: "inception_4a/relu_5x5"
  type: "ReLU"
  bottom: "inception_4a/5x5"
  top: "inception_4a/5x5"
}
layer {
  name: "inception_4a/pool"
  type: "Pooling"
  bottom: "pool3/3x3_s2"
  top: "inception_4a/pool"
  pooling_param {
    pool: MAX
    kernel_size: 3
    stride: 1
    pad: 1
  }
}
layer {
  name: "inception_4a/pool_proj"
  type: "Convolution"
  bottom: "inception_4a/pool"
  top: "inception_4a/pool_proj"
  param {
    lr_mult: 1
    decay_mult: 1
  }
  param {
    lr_mult: 2
    decay_mult: 0
  }
  convolution_param {
    num_output: 64
    kernel_size: 1
    weight_filler {
      type: "xavier"
      std: 0.1
    }
    bias_filler {
      type: "constant"
      value: 0.2
    }
  }
}
layer {
  name: "inception_4a/relu_pool_proj"
  type: "ReLU"
  bottom: "inception_4a/pool_proj"
  top: "inception_4a/pool_proj"
}
layer {
  name: "inception_4a/output"
  type: "Concat"
  bottom: "inception_4a/1x1"
  bottom: "inception_4a/3x3"
  bottom: "inception_4a/5x5"
  bottom: "inception_4a/pool_proj"
  top: "inception_4a/output"
}
layer {
  name: "loss1/ave_pool"
  type: "Pooling"
  bottom: "inception_4a/output"
  top: "loss1/ave_pool"
  pooling_param {
    pool: AVE
    kernel_size: 5
    stride: 3
  }
}
layer {
  name: "loss1/conv"
  type: "Convolution"
  bottom: "loss1/ave_pool"
  top: "loss1/conv"
  param {
    lr_mult: 1
    decay_mult: 1
  }
  param {
    lr_mult: 2
    decay_mult: 0
  }
  convolution_param {
    num_output: 128
    kernel_size: 1
    weight_filler {
      type: "xavier"
      std: 0.08
    }
    bias_filler {
      type: "constant"
      value: 0.2
    }
  }
}
layer {
  name: "loss1/relu_conv"
  type: "ReLU"
  bottom: "loss1/conv"
  top: "loss1/conv"
}
layer {
  name: "loss1/fc"
  type: "InnerProduct"
  bottom: "loss1/conv"
  top: "loss1/fc"
  param {
    lr_mult: 1
    decay_mult: 1
  }
  param {
    lr_mult: 2
    decay_mult: 0
  }
  inner_product_param {
    num_output: 1024
    weight_filler {
      type: "xavier"
      std: 0.02
    }
    bias_filler {
      type: "constant"
      value: 0.2
    }
  }
}
layer {
  name: "loss1/relu_fc"
  type: "ReLU"
  bottom: "loss1/fc"
  top: "loss1/fc"
}
layer {
  name: "loss1/drop_fc"
  type: "Dropout"
  bottom: "loss1/fc"
  top: "loss1/fc"
  dropout_param {
    dropout_ratio: 0.7
  }
}
layer {
  name: "loss1/classifier_plantvillage"
  type: "InnerProduct"
  bottom: "loss1/fc"
  top: "loss1/classifier_plantvillage"
  param {
    lr_mult: 1
    decay_mult: 1
  }
  param {
    lr_mult: 2
    decay_mult: 0
  }
  inner_product_param {
    num_output: 38
    weight_filler {
      type: "xavier"
      std: 0.0009765625
    }
    bias_filler {
      type: "constant"
      value: 0
    }
  }
}
layer {
  name: "inception_4b/1x1"
  type: "Convolution"
  bottom: "inception_4a/output"
  top: "inception_4b/1x1"
  param {
    lr_mult: 1
    decay_mult: 1
  }
  param {
    lr_mult: 2
    decay_mult: 0
  }
  convolution_param {
    num_output: 160
    kernel_size: 1
    weight_filler {
      type: "xavier"
      std: 0.03
    }
    bias_filler {
      type: "constant"
      value: 0.2
    }
  }
}
layer {
  name: "inception_4b/relu_1x1"
  type: "ReLU"
  bottom: "inception_4b/1x1"
  top: "inception_4b/1x1"
}
layer {
  name: "inception_4b/3x3_reduce"
  type: "Convolution"
  bottom: "inception_4a/output"
  top: "inception_4b/3x3_reduce"
  param {
    lr_mult: 1
    decay_mult: 1
  }
  param {
    lr_mult: 2
    decay_mult: 0
  }
  convolution_param {
    num_output: 112
    kernel_size: 1
    weight_filler {
      type: "xavier"
      std: 0.09
    }
    bias_filler {
      type: "constant"
      value: 0.2
    }
  }
}
layer {
  name: "inception_4b/relu_3x3_reduce"
  type: "ReLU"
  bottom: "inception_4b/3x3_reduce"
  top: "inception_4b/3x3_reduce"
}
layer {
  name: "inception_4b/3x3"
  type: "Convolution"
  bottom: "inception_4b/3x3_reduce"
  top: "inception_4b/3x3"
  param {
    lr_mult: 1
    decay_mult: 1
  }
  param {
    lr_mult: 2
    decay_mult: 0
  }
  convolution_param {
    num_output: 224
    pad: 1
    kernel_size: 3
    weight_filler {
      type: "xavier"
      std: 0.03
    }
    bias_filler {
      type: "constant"
      value: 0.2
    }
  }
}
layer {
  name: "inception_4b/relu_3x3"
  type: "ReLU"
  bottom: "inception_4b/3x3"
  top: "inception_4b/3x3"
}
layer {
  name: "inception_4b/5x5_reduce"
  type: "Convolution"
  bottom: "inception_4a/output"
  top: "inception_4b/5x5_reduce"
  param {
    lr_mult: 1
    decay_mult: 1
  }
  param {
    lr_mult: 2
    decay_mult: 0
  }
  convolution_param {
    num_output: 24
    kernel_size: 1
    weight_filler {
      type: "xavier"
      std: 0.2
    }
    bias_filler {
      type: "constant"
      value: 0.2
    }
  }
}
layer {
  name: "inception_4b/relu_5x5_reduce"
  type: "ReLU"
  bottom: "inception_4b/5x5_reduce"
  top: "inception_4b/5x5_reduce"
}
layer {
  name: "inception_4b/5x5"
  type: "Convolution"
  bottom: "inception_4b/5x5_reduce"
  top: "inception_4b/5x5"
  param {
    lr_mult: 1
    decay_mult: 1
  }
  param {
    lr_mult: 2
    decay_mult: 0
  }
  convolution_param {
    num_output: 64
    pad: 2
    kernel_size: 5
    weight_filler {
      type: "xavier"
      std: 0.03
    }
    bias_filler {
      type: "constant"
      value: 0.2
    }
  }
}
layer {
  name: "inception_4b/relu_5x5"
  type: "ReLU"
  bottom: "inception_4b/5x5"
  top: "inception_4b/5x5"
}
layer {
  name: "inception_4b/pool"
  type: "Pooling"
  bottom: "inception_4a/output"
  top: "inception_4b/pool"
  pooling_param {
    pool: MAX
    kernel_size: 3
    stride: 1
    pad: 1
  }
}
layer {
  name: "inception_4b/pool_proj"
  type: "Convolution"
  bottom: "inception_4b/pool"
  top: "inception_4b/pool_proj"
  param {
    lr_mult: 1
    decay_mult: 1
  }
  param {
    lr_mult: 2
    decay_mult: 0
  }
  convolution_param {
    num_output: 64
    kernel_size: 1
    weight_filler {
      type: "xavier"
      std: 0.1
    }
    bias_filler {
      type: "constant"
      value: 0.2
    }
  }
}
layer {
  name: "inception_4b/relu_pool_proj"
  type: "ReLU"
  bottom: "inception_4b/pool_proj"
  top: "inception_4b/pool_proj"
}
layer {
  name: "inception_4b/output"
  type: "Concat"
  bottom: "inception_4b/1x1"
  bottom: "inception_4b/3x3"
  bottom: "inception_4b/5x5"
  bottom: "inception_4b/pool_proj"
  top: "inception_4b/output"
}
layer {
  name: "inception_4c/1x1"
  type: "Convolution"
  bottom: "inception_4b/output"
  top: "inception_4c/1x1"
  param {
    lr_mult: 1
    decay_mult: 1
  }
  param {
    lr_mult: 2
    decay_mult: 0
  }
  convolution_param {
    num_output: 128
    kernel_size: 1
    weight_filler {
      type: "xavier"
      std: 0.03
    }
    bias_filler {
      type: "constant"
      value: 0.2
    }
  }
}
layer {
  name: "inception_4c/relu_1x1"
  type: "ReLU"
  bottom: "inception_4c/1x1"
  top: "inception_4c/1x1"
}
layer {
  name: "inception_4c/3x3_reduce"
  type: "Convolution"
  bottom: "inception_4b/output"
  top: "inception_4c/3x3_reduce"
  param {
    lr_mult: 1
    decay_mult: 1
  }
  param {
    lr_mult: 2
    decay_mult: 0
  }
  convolution_param {
    num_output: 128
    kernel_size: 1
    weight_filler {
      type: "xavier"
      std: 0.09
    }
    bias_filler {
      type: "constant"
      value: 0.2
    }
  }
}
layer {
  name: "inception_4c/relu_3x3_reduce"
  type: "ReLU"
  bottom: "inception_4c/3x3_reduce"
  top: "inception_4c/3x3_reduce"
}
layer {
  name: "inception_4c/3x3"
  type: "Convolution"
  bottom: "inception_4c/3x3_reduce"
  top: "inception_4c/3x3"
  param {
    lr_mult: 1
    decay_mult: 1
  }
  param {
    lr_mult: 2
    decay_mult: 0
  }
  convolution_param {
    num_output: 256
    pad: 1
    kernel_size: 3
    weight_filler {
      type: "xavier"
      std: 0.03
    }
    bias_filler {
      type: "constant"
      value: 0.2
    }
  }
}
layer {
  name: "inception_4c/relu_3x3"
  type: "ReLU"
  bottom: "inception_4c/3x3"
  top: "inception_4c/3x3"
}
layer {
  name: "inception_4c/5x5_reduce"
  type: "Convolution"
  bottom: "inception_4b/output"
  top: "inception_4c/5x5_reduce"
  param {
    lr_mult: 1
    decay_mult: 1
  }
  param {
    lr_mult: 2
    decay_mult: 0
  }
  convolution_param {
    num_output: 24
    kernel_size: 1
    weight_filler {
      type: "xavier"
      std: 0.2
    }
    bias_filler {
      type: "constant"
      value: 0.2
    }
  }
}
layer {
  name: "inception_4c/relu_5x5_reduce"
  type: "ReLU"
  bottom: "inception_4c/5x5_reduce"
  top: "inception_4c/5x5_reduce"
}
layer {
  name: "inception_4c/5x5"
  type: "Convolution"
  bottom: "inception_4c/5x5_reduce"
  top: "inception_4c/5x5"
  param {
    lr_mult: 1
    decay_mult: 1
  }
  param {
    lr_mult: 2
    decay_mult: 0
  }
  convolution_param {
    num_output: 64
    pad: 2
    kernel_size: 5
    weight_filler {
      type: "xavier"
      std: 0.03
    }
    bias_filler {
      type: "constant"
      value: 0.2
    }
  }
}
layer {
  name: "inception_4c/relu_5x5"
  type: "ReLU"
  bottom: "inception_4c/5x5"
  top: "inception_4c/5x5"
}
layer {
  name: "inception_4c/pool"
  type: "Pooling"
  bottom: "inception_4b/output"
  top: "inception_4c/pool"
  pooling_param {
    pool: MAX
    kernel_size: 3
    stride: 1
    pad: 1
  }
}
layer {
  name: "inception_4c/pool_proj"
  type: "Convolution"
  bottom: "inception_4c/pool"
  top: "inception_4c/pool_proj"
  param {
    lr_mult: 1
    decay_mult: 1
  }
  param {
    lr_mult: 2
    decay_mult: 0
  }
  convolution_param {
    num_output: 64
    kernel_size: 1
    weight_filler {
      type: "xavier"
      std: 0.1
    }
    bias_filler {
      type: "constant"
      value: 0.2
    }
  }
}
layer {
  name: "inception_4c/relu_pool_proj"
  type: "ReLU"
  bottom: "inception_4c/pool_proj"
  top: "inception_4c/pool_proj"
}
layer {
  name: "inception_4c/output"
  type: "Concat"
  bottom: "inception_4c/1x1"
  bottom: "inception_4c/3x3"
  bottom: "inception_4c/5x5"
  bottom: "inception_4c/pool_proj"
  top: "inception_4c/output"
}
layer {
  name: "inception_4d/1x1"
  type: "Convolution"
  bottom: "inception_4c/output"
  top: "inception_4d/1x1"
  param {
    lr_mult: 1
    decay_mult: 1
  }
  param {
    lr_mult: 2
    decay_mult: 0
  }
  convolution_param {
    num_output: 112
    kernel_size: 1
    weight_filler {
      type: "xavier"
      std: 0.03
    }
    bias_filler {
      type: "constant"
      value: 0.2
    }
  }
}
layer {
  name: "inception_4d/relu_1x1"
  type: "ReLU"
  bottom: "inception_4d/1x1"
  top: "inception_4d/1x1"
}
layer {
  name: "inception_4d/3x3_reduce"
  type: "Convolution"
  bottom: "inception_4c/output"
  top: "inception_4d/3x3_reduce"
  param {
    lr_mult: 1
    decay_mult: 1
  }
  param {
    lr_mult: 2
    decay_mult: 0
  }
  convolution_param {
    num_output: 144
    kernel_size: 1
    weight_filler {
      type: "xavier"
      std: 0.09
    }
    bias_filler {
      type: "constant"
      value: 0.2
    }
  }
}
layer {
  name: "inception_4d/relu_3x3_reduce"
  type: "ReLU"
  bottom: "inception_4d/3x3_reduce"
  top: "inception_4d/3x3_reduce"
}
layer {
  name: "inception_4d/3x3"
  type: "Convolution"
  bottom: "inception_4d/3x3_reduce"
  top: "inception_4d/3x3"
  param {
    lr_mult: 1
    decay_mult: 1
  }
  param {
    lr_mult: 2
    decay_mult: 0
  }
  convolution_param {
    num_output: 288
    pad: 1
    kernel_size: 3
    weight_filler {
      type: "xavier"
      std: 0.03
    }
    bias_filler {
      type: "constant"
      value: 0.2
    }
  }
}
layer {
  name: "inception_4d/relu_3x3"
  type: "ReLU"
  bottom: "inception_4d/3x3"
  top: "inception_4d/3x3"
}
layer {
  name: "inception_4d/5x5_reduce"
  type: "Convolution"
  bottom: "inception_4c/output"
  top: "inception_4d/5x5_reduce"
  param {
    lr_mult: 1
    decay_mult: 1
  }
  param {
    lr_mult: 2
    decay_mult: 0
  }
  convolution_param {
    num_output: 32
    kernel_size: 1
    weight_filler {
      type: "xavier"
      std: 0.2
    }
    bias_filler {
      type: "constant"
      value: 0.2
    }
  }
}
layer {
  name: "inception_4d/relu_5x5_reduce"
  type: "ReLU"
  bottom: "inception_4d/5x5_reduce"
  top: "inception_4d/5x5_reduce"
}
layer {
  name: "inception_4d/5x5"
  type: "Convolution"
  bottom: "inception_4d/5x5_reduce"
  top: "inception_4d/5x5"
  param {
    lr_mult: 1
    decay_mult: 1
  }
  param {
    lr_mult: 2
    decay_mult: 0
  }
  convolution_param {
    num_output: 64
    pad: 2
    kernel_size: 5
    weight_filler {
      type: "xavier"
      std: 0.03
    }
    bias_filler {
      type: "constant"
      value: 0.2
    }
  }
}
layer {
  name: "inception_4d/relu_5x5"
  type: "ReLU"
  bottom: "inception_4d/5x5"
  top: "inception_4d/5x5"
}
layer {
  name: "inception_4d/pool"
  type: "Pooling"
  bottom: "inception_4c/output"
  top: "inception_4d/pool"
  pooling_param {
    pool: MAX
    kernel_size: 3
    stride: 1
    pad: 1
  }
}
layer {
  name: "inception_4d/pool_proj"
  type: "Convolution"
  bottom: "inception_4d/pool"
  top: "inception_4d/pool_proj"
  param {
    lr_mult: 1
    decay_mult: 1
  }
  param {
    lr_mult: 2
    decay_mult: 0
  }
  convolution_param {
    num_output: 64
    kernel_size: 1
    weight_filler {
      type: "xavier"
      std: 0.1
    }
    bias_filler {
      type: "constant"
      value: 0.2
    }
  }
}
layer {
  name: "inception_4d/relu_pool_proj"
  type: "ReLU"
  bottom: "inception_4d/pool_proj"
  top: "inception_4d/pool_proj"
}
layer {
  name: "inception_4d/output"
  type: "Concat"
  bottom: "inception_4d/1x1"
  bottom: "inception_4d/3x3"
  bottom: "inception_4d/5x5"
  bottom: "inception_4d/pool_proj"
  top: "inception_4d/output"
}
layer {
  name: "loss2/ave_pool"
  type: "Pooling"
  bottom: "inception_4d/output"
  top: "loss2/ave_pool"
  pooling_param {
    pool: AVE
    kernel_size: 5
    stride: 3
  }
}
layer {
  name: "loss2/conv"
  type: "Convolution"
  bottom: "loss2/ave_pool"
  top: "loss2/conv"
  param {
    lr_mult: 1
    decay_mult: 1
  }
  param {
    lr_mult: 2
    decay_mult: 0
  }
  convolution_param {
    num_output: 128
    kernel_size: 1
    weight_filler {
      type: "xavier"
      std: 0.08
    }
    bias_filler {
      type: "constant"
      value: 0.2
    }
  }
}
layer {
  name: "loss2/relu_conv"
  type: "ReLU"
  bottom: "loss2/conv"
  top: "loss2/conv"
}
layer {
  name: "loss2/fc"
  type: "InnerProduct"
  bottom: "loss2/conv"
  top: "loss2/fc"
  param {
    lr_mult: 1
    decay_mult: 1
  }
  param {
    lr_mult: 2
    decay_mult: 0
  }
  inner_product_param {
    num_output: 1024
    weight_filler {
      type: "xavier"
      std: 0.02
    }
    bias_filler {
      type: "constant"
      value: 0.2
    }
  }
}
layer {
  name: "loss2/relu_fc"
  type: "ReLU"
  bottom: "loss2/fc"
  top: "loss2/fc"
}
layer {
  name: "loss2/drop_fc"
  type: "Dropout"
  bottom: "loss2/fc"
  top: "loss2/fc"
  dropout_param {
    dropout_ratio: 0.7
  }
}
layer {
  name: "loss2/classifier_plantvillage"
  type: "InnerProduct"
  bottom: "loss2/fc"
  top: "loss2/classifier_plantvillage"
  param {
    lr_mult: 1
    decay_mult: 1
  }
  param {
    lr_mult: 2
    decay_mult: 0
  }
  inner_product_param {
    num_output: 38
    weight_filler {
      type: "xavier"
      std: 0.0009765625
    }
    bias_filler {
      type: "constant"
      value: 0
    }
  }
}
layer {
  name: "inception_4e/1x1"
  type: "Convolution"
  bottom: "inception_4d/output"
  top: "inception_4e/1x1"
  param {
    lr_mult: 1
    decay_mult: 1
  }
  param {
    lr_mult: 2
    decay_mult: 0
  }
  convolution_param {
    num_output: 256
    kernel_size: 1
    weight_filler {
      type: "xavier"
      std: 0.03
    }
    bias_filler {
      type: "constant"
      value: 0.2
    }
  }
}
layer {
  name: "inception_4e/relu_1x1"
  type: "ReLU"
  bottom: "inception_4e/1x1"
  top: "inception_4e/1x1"
}
layer {
  name: "inception_4e/3x3_reduce"
  type: "Convolution"
  bottom: "inception_4d/output"
  top: "inception_4e/3x3_reduce"
  param {
    lr_mult: 1
    decay_mult: 1
  }
  param {
    lr_mult: 2
    decay_mult: 0
  }
  convolution_param {
    num_output: 160
    kernel_size: 1
    weight_filler {
      type: "xavier"
      std: 0.09
    }
    bias_filler {
      type: "constant"
      value: 0.2
    }
  }
}
layer {
  name: "inception_4e/relu_3x3_reduce"
  type: "ReLU"
  bottom: "inception_4e/3x3_reduce"
  top: "inception_4e/3x3_reduce"
}
layer {
  name: "inception_4e/3x3"
  type: "Convolution"
  bottom: "inception_4e/3x3_reduce"
  top: "inception_4e/3x3"
  param {
    lr_mult: 1
    decay_mult: 1
  }
  param {
    lr_mult: 2
    decay_mult: 0
  }
  convolution_param {
    num_output: 320
    pad: 1
    kernel_size: 3
    weight_filler {
      type: "xavier"
      std: 0.03
    }
    bias_filler {
      type: "constant"
      value: 0.2
    }
  }
}
layer {
  name: "inception_4e/relu_3x3"
  type: "ReLU"
  bottom: "inception_4e/3x3"
  top: "inception_4e/3x3"
}
layer {
  name: "inception_4e/5x5_reduce"
  type: "Convolution"
  bottom: "inception_4d/output"
  top: "inception_4e/5x5_reduce"
  param {
    lr_mult: 1
    decay_mult: 1
  }
  param {
    lr_mult: 2
    decay_mult: 0
  }
  convolution_param {
    num_output: 32
    kernel_size: 1
    weight_filler {
      type: "xavier"
      std: 0.2
    }
    bias_filler {
      type: "constant"
      value: 0.2
    }
  }
}
layer {
  name: "inception_4e/relu_5x5_reduce"
  type: "ReLU"
  bottom: "inception_4e/5x5_reduce"
  top: "inception_4e/5x5_reduce"
}
layer {
  name: "inception_4e/5x5"
  type: "Convolution"
  bottom: "inception_4e/5x5_reduce"
  top: "inception_4e/
I0403 14:24:19.800984 13236 layer_factory.hpp:77] Creating layer data
I0403 14:24:19.801606 13236 net.cpp:91] Creating Layer data
I0403 14:24:19.801641 13236 net.cpp:399] data -> data
I0403 14:24:19.801693 13236 net.cpp:399] data -> label
I0403 14:24:19.801730 13236 data_transformer.cpp:25] Loading mean file from: /home/mohanty/data/final_dataset/lmdb/segmented-20-80/mean.binaryproto
I0403 14:24:19.804764 13239 db_lmdb.cpp:38] Opened lmdb /home/mohanty/data/final_dataset/lmdb/segmented-20-80/test_db
I0403 14:24:19.815071 13236 data_layer.cpp:41] output data size: 24,3,224,224
I0403 14:24:19.842468 13236 net.cpp:141] Setting up data
I0403 14:24:19.842561 13236 net.cpp:148] Top shape: 24 3 224 224 (3612672)
I0403 14:24:19.842583 13236 net.cpp:148] Top shape: 24 (24)
I0403 14:24:19.842599 13236 net.cpp:156] Memory required for data: 14450784
I0403 14:24:19.842628 13236 layer_factory.hpp:77] Creating layer label_data_1_split
I0403 14:24:19.842655 13236 net.cpp:91] Creating Layer label_data_1_split
I0403 14:24:19.842674 13236 net.cpp:425] label_data_1_split <- label
I0403 14:24:19.842708 13236 net.cpp:399] label_data_1_split -> label_data_1_split_0
I0403 14:24:19.842736 13236 net.cpp:399] label_data_1_split -> label_data_1_split_1
I0403 14:24:19.842759 13236 net.cpp:399] label_data_1_split -> label_data_1_split_2
I0403 14:24:19.842782 13236 net.cpp:399] label_data_1_split -> label_data_1_split_3
I0403 14:24:19.842803 13236 net.cpp:399] label_data_1_split -> label_data_1_split_4
I0403 14:24:19.842823 13236 net.cpp:399] label_data_1_split -> label_data_1_split_5
I0403 14:24:19.842844 13236 net.cpp:399] label_data_1_split -> label_data_1_split_6
I0403 14:24:19.842865 13236 net.cpp:399] label_data_1_split -> label_data_1_split_7
I0403 14:24:19.842886 13236 net.cpp:399] label_data_1_split -> label_data_1_split_8
I0403 14:24:19.842907 13236 net.cpp:399] label_data_1_split -> label_data_1_split_9
I0403 14:24:19.843021 13236 net.cpp:141] Setting up label_data_1_split
I0403 14:24:19.843047 13236 net.cpp:148] Top shape: 24 (24)
I0403 14:24:19.843065 13236 net.cpp:148] Top shape: 24 (24)
I0403 14:24:19.843080 13236 net.cpp:148] Top shape: 24 (24)
I0403 14:24:19.843096 13236 net.cpp:148] Top shape: 24 (24)
I0403 14:24:19.843111 13236 net.cpp:148] Top shape: 24 (24)
I0403 14:24:19.843125 13236 net.cpp:148] Top shape: 24 (24)
I0403 14:24:19.843140 13236 net.cpp:148] Top shape: 24 (24)
I0403 14:24:19.843160 13236 net.cpp:148] Top shape: 24 (24)
I0403 14:24:19.843174 13236 net.cpp:148] Top shape: 24 (24)
I0403 14:24:19.843191 13236 net.cpp:148] Top shape: 24 (24)
I0403 14:24:19.843243 13236 net.cpp:156] Memory required for data: 14451744
I0403 14:24:19.843261 13236 layer_factory.hpp:77] Creating layer conv1/7x7_s2
I0403 14:24:19.843293 13236 net.cpp:91] Creating Layer conv1/7x7_s2
I0403 14:24:19.843310 13236 net.cpp:425] conv1/7x7_s2 <- data
I0403 14:24:19.843330 13236 net.cpp:399] conv1/7x7_s2 -> conv1/7x7_s2
I0403 14:24:19.982779 13236 net.cpp:141] Setting up conv1/7x7_s2
I0403 14:24:19.982844 13236 net.cpp:148] Top shape: 24 64 112 112 (19267584)
I0403 14:24:19.982862 13236 net.cpp:156] Memory required for data: 91522080
I0403 14:24:19.982892 13236 layer_factory.hpp:77] Creating layer conv1/relu_7x7
I0403 14:24:19.982919 13236 net.cpp:91] Creating Layer conv1/relu_7x7
I0403 14:24:19.982938 13236 net.cpp:425] conv1/relu_7x7 <- conv1/7x7_s2
I0403 14:24:19.982955 13236 net.cpp:386] conv1/relu_7x7 -> conv1/7x7_s2 (in-place)
I0403 14:24:19.983207 13236 net.cpp:141] Setting up conv1/relu_7x7
I0403 14:24:19.983234 13236 net.cpp:148] Top shape: 24 64 112 112 (19267584)
I0403 14:24:19.983250 13236 net.cpp:156] Memory required for data: 168592416
I0403 14:24:19.983266 13236 layer_factory.hpp:77] Creating layer pool1/3x3_s2
I0403 14:24:19.983291 13236 net.cpp:91] Creating Layer pool1/3x3_s2
I0403 14:24:19.983309 13236 net.cpp:425] pool1/3x3_s2 <- conv1/7x7_s2
I0403 14:24:19.983326 13236 net.cpp:399] pool1/3x3_s2 -> pool1/3x3_s2
I0403 14:24:19.983398 13236 net.cpp:141] Setting up pool1/3x3_s2
I0403 14:24:19.983422 13236 net.cpp:148] Top shape: 24 64 56 56 (4816896)
I0403 14:24:19.983438 13236 net.cpp:156] Memory required for data: 187860000
I0403 14:24:19.983451 13236 layer_factory.hpp:77] Creating layer pool1/norm1
I0403 14:24:19.983475 13236 net.cpp:91] Creating Layer pool1/norm1
I0403 14:24:19.983491 13236 net.cpp:425] pool1/norm1 <- pool1/3x3_s2
I0403 14:24:19.983512 13236 net.cpp:399] pool1/norm1 -> pool1/norm1
I0403 14:24:19.983794 13236 net.cpp:141] Setting up pool1/norm1
I0403 14:24:19.983821 13236 net.cpp:148] Top shape: 24 64 56 56 (4816896)
I0403 14:24:19.983836 13236 net.cpp:156] Memory required for data: 207127584
I0403 14:24:19.983851 13236 layer_factory.hpp:77] Creating layer conv2/3x3_reduce
I0403 14:24:19.983875 13236 net.cpp:91] Creating Layer conv2/3x3_reduce
I0403 14:24:19.983891 13236 net.cpp:425] conv2/3x3_reduce <- pool1/norm1
I0403 14:24:19.983911 13236 net.cpp:399] conv2/3x3_reduce -> conv2/3x3_reduce
I0403 14:24:19.985240 13236 net.cpp:141] Setting up conv2/3x3_reduce
I0403 14:24:19.985272 13236 net.cpp:148] Top shape: 24 64 56 56 (4816896)
I0403 14:24:19.985288 13236 net.cpp:156] Memory required for data: 226395168
I0403 14:24:19.985309 13236 layer_factory.hpp:77] Creating layer conv2/relu_3x3_reduce
I0403 14:24:19.985329 13236 net.cpp:91] Creating Layer conv2/relu_3x3_reduce
I0403 14:24:19.985345 13236 net.cpp:425] conv2/relu_3x3_reduce <- conv2/3x3_reduce
I0403 14:24:19.985363 13236 net.cpp:386] conv2/relu_3x3_reduce -> conv2/3x3_reduce (in-place)
I0403 14:24:19.985620 13236 net.cpp:141] Setting up conv2/relu_3x3_reduce
I0403 14:24:19.985651 13236 net.cpp:148] Top shape: 24 64 56 56 (4816896)
I0403 14:24:19.985669 13236 net.cpp:156] Memory required for data: 245662752
I0403 14:24:19.985685 13236 layer_factory.hpp:77] Creating layer conv2/3x3
I0403 14:24:19.985708 13236 net.cpp:91] Creating Layer conv2/3x3
I0403 14:24:19.985728 13236 net.cpp:425] conv2/3x3 <- conv2/3x3_reduce
I0403 14:24:19.985745 13236 net.cpp:399] conv2/3x3 -> conv2/3x3
I0403 14:24:19.988034 13236 net.cpp:141] Setting up conv2/3x3
I0403 14:24:19.988068 13236 net.cpp:148] Top shape: 24 192 56 56 (14450688)
I0403 14:24:19.988087 13236 net.cpp:156] Memory required for data: 303465504
I0403 14:24:19.988109 13236 layer_factory.hpp:77] Creating layer conv2/relu_3x3
I0403 14:24:19.988128 13236 net.cpp:91] Creating Layer conv2/relu_3x3
I0403 14:24:19.988144 13236 net.cpp:425] conv2/relu_3x3 <- conv2/3x3
I0403 14:24:19.988164 13236 net.cpp:386] conv2/relu_3x3 -> conv2/3x3 (in-place)
I0403 14:24:19.988340 13236 net.cpp:141] Setting up conv2/relu_3x3
I0403 14:24:19.988368 13236 net.cpp:148] Top shape: 24 192 56 56 (14450688)
I0403 14:24:19.988420 13236 net.cpp:156] Memory required for data: 361268256
I0403 14:24:19.988436 13236 layer_factory.hpp:77] Creating layer conv2/norm2
I0403 14:24:19.988457 13236 net.cpp:91] Creating Layer conv2/norm2
I0403 14:24:19.988474 13236 net.cpp:425] conv2/norm2 <- conv2/3x3
I0403 14:24:19.988492 13236 net.cpp:399] conv2/norm2 -> conv2/norm2
I0403 14:24:19.988800 13236 net.cpp:141] Setting up conv2/norm2
I0403 14:24:19.988834 13236 net.cpp:148] Top shape: 24 192 56 56 (14450688)
I0403 14:24:19.988849 13236 net.cpp:156] Memory required for data: 419071008
I0403 14:24:19.988864 13236 layer_factory.hpp:77] Creating layer pool2/3x3_s2
I0403 14:24:19.988884 13236 net.cpp:91] Creating Layer pool2/3x3_s2
I0403 14:24:19.988900 13236 net.cpp:425] pool2/3x3_s2 <- conv2/norm2
I0403 14:24:19.988917 13236 net.cpp:399] pool2/3x3_s2 -> pool2/3x3_s2
I0403 14:24:19.988970 13236 net.cpp:141] Setting up pool2/3x3_s2
I0403 14:24:19.988993 13236 net.cpp:148] Top shape: 24 192 28 28 (3612672)
I0403 14:24:19.989007 13236 net.cpp:156] Memory required for data: 433521696
I0403 14:24:19.989020 13236 layer_factory.hpp:77] Creating layer pool2/3x3_s2_pool2/3x3_s2_0_split
I0403 14:24:19.989038 13236 net.cpp:91] Creating Layer pool2/3x3_s2_pool2/3x3_s2_0_split
I0403 14:24:19.989056 13236 net.cpp:425] pool2/3x3_s2_pool2/3x3_s2_0_split <- pool2/3x3_s2
I0403 14:24:19.989073 13236 net.cpp:399] pool2/3x3_s2_pool2/3x3_s2_0_split -> pool2/3x3_s2_pool2/3x3_s2_0_split_0
I0403 14:24:19.989092 13236 net.cpp:399] pool2/3x3_s2_pool2/3x3_s2_0_split -> pool2/3x3_s2_pool2/3x3_s2_0_split_1
I0403 14:24:19.989111 13236 net.cpp:399] pool2/3x3_s2_pool2/3x3_s2_0_split -> pool2/3x3_s2_pool2/3x3_s2_0_split_2
I0403 14:24:19.989130 13236 net.cpp:399] pool2/3x3_s2_pool2/3x3_s2_0_split -> pool2/3x3_s2_pool2/3x3_s2_0_split_3
I0403 14:24:19.989199 13236 net.cpp:141] Setting up pool2/3x3_s2_pool2/3x3_s2_0_split
I0403 14:24:19.989223 13236 net.cpp:148] Top shape: 24 192 28 28 (3612672)
I0403 14:24:19.989238 13236 net.cpp:148] Top shape: 24 192 28 28 (3612672)
I0403 14:24:19.989253 13236 net.cpp:148] Top shape: 24 192 28 28 (3612672)
I0403 14:24:19.989269 13236 net.cpp:148] Top shape: 24 192 28 28 (3612672)
I0403 14:24:19.989282 13236 net.cpp:156] Memory required for data: 491324448
I0403 14:24:19.989296 13236 layer_factory.hpp:77] Creating layer inception_3a/1x1
I0403 14:24:19.989317 13236 net.cpp:91] Creating Layer inception_3a/1x1
I0403 14:24:19.989334 13236 net.cpp:425] inception_3a/1x1 <- pool2/3x3_s2_pool2/3x3_s2_0_split_0
I0403 14:24:19.989356 13236 net.cpp:399] inception_3a/1x1 -> inception_3a/1x1
I0403 14:24:19.990876 13236 net.cpp:141] Setting up inception_3a/1x1
I0403 14:24:19.990911 13236 net.cpp:148] Top shape: 24 64 28 28 (1204224)
I0403 14:24:19.990927 13236 net.cpp:156] Memory required for data: 496141344
I0403 14:24:19.990947 13236 layer_factory.hpp:77] Creating layer inception_3a/relu_1x1
I0403 14:24:19.990964 13236 net.cpp:91] Creating Layer inception_3a/relu_1x1
I0403 14:24:19.990979 13236 net.cpp:425] inception_3a/relu_1x1 <- inception_3a/1x1
I0403 14:24:19.990996 13236 net.cpp:386] inception_3a/relu_1x1 -> inception_3a/1x1 (in-place)
I0403 14:24:19.991169 13236 net.cpp:141] Setting up inception_3a/relu_1x1
I0403 14:24:19.991194 13236 net.cpp:148] Top shape: 24 64 28 28 (1204224)
I0403 14:24:19.991209 13236 net.cpp:156] Memory required for data: 500958240
I0403 14:24:19.991222 13236 layer_factory.hpp:77] Creating layer inception_3a/3x3_reduce
I0403 14:24:19.991245 13236 net.cpp:91] Creating Layer inception_3a/3x3_reduce
I0403 14:24:19.991262 13236 net.cpp:425] inception_3a/3x3_reduce <- pool2/3x3_s2_pool2/3x3_s2_0_split_1
I0403 14:24:19.991286 13236 net.cpp:399] inception_3a/3x3_reduce -> inception_3a/3x3_reduce
I0403 14:24:19.992975 13236 net.cpp:141] Setting up inception_3a/3x3_reduce
I0403 14:24:19.993007 13236 net.cpp:148] Top shape: 24 96 28 28 (1806336)
I0403 14:24:19.993026 13236 net.cpp:156] Memory required for data: 508183584
I0403 14:24:19.993047 13236 layer_factory.hpp:77] Creating layer inception_3a/relu_3x3_reduce
I0403 14:24:19.993084 13236 net.cpp:91] Creating Layer inception_3a/relu_3x3_reduce
I0403 14:24:19.993106 13236 net.cpp:425] inception_3a/relu_3x3_reduce <- inception_3a/3x3_reduce
I0403 14:24:19.993124 13236 net.cpp:386] inception_3a/relu_3x3_reduce -> inception_3a/3x3_reduce (in-place)
I0403 14:24:19.993302 13236 net.cpp:141] Setting up inception_3a/relu_3x3_reduce
I0403 14:24:19.993327 13236 net.cpp:148] Top shape: 24 96 28 28 (1806336)
I0403 14:24:19.993342 13236 net.cpp:156] Memory required for data: 515408928
I0403 14:24:19.993356 13236 layer_factory.hpp:77] Creating layer inception_3a/3x3
I0403 14:24:19.993379 13236 net.cpp:91] Creating Layer inception_3a/3x3
I0403 14:24:19.993397 13236 net.cpp:425] inception_3a/3x3 <- inception_3a/3x3_reduce
I0403 14:24:19.993415 13236 net.cpp:399] inception_3a/3x3 -> inception_3a/3x3
I0403 14:24:19.995059 13236 net.cpp:141] Setting up inception_3a/3x3
I0403 14:24:19.995087 13236 net.cpp:148] Top shape: 24 128 28 28 (2408448)
I0403 14:24:19.995103 13236 net.cpp:156] Memory required for data: 525042720
I0403 14:24:19.995122 13236 layer_factory.hpp:77] Creating layer inception_3a/relu_3x3
I0403 14:24:19.995141 13236 net.cpp:91] Creating Layer inception_3a/relu_3x3
I0403 14:24:19.995158 13236 net.cpp:425] inception_3a/relu_3x3 <- inception_3a/3x3
I0403 14:24:19.995178 13236 net.cpp:386] inception_3a/relu_3x3 -> inception_3a/3x3 (in-place)
I0403 14:24:19.995456 13236 net.cpp:141] Setting up inception_3a/relu_3x3
I0403 14:24:19.995484 13236 net.cpp:148] Top shape: 24 128 28 28 (2408448)
I0403 14:24:19.995501 13236 net.cpp:156] Memory required for data: 534676512
I0403 14:24:19.995529 13236 layer_factory.hpp:77] Creating layer inception_3a/5x5_reduce
I0403 14:24:19.995554 13236 net.cpp:91] Creating Layer inception_3a/5x5_reduce
I0403 14:24:19.995573 13236 net.cpp:425] inception_3a/5x5_reduce <- pool2/3x3_s2_pool2/3x3_s2_0_split_2
I0403 14:24:19.995594 13236 net.cpp:399] inception_3a/5x5_reduce -> inception_3a/5x5_reduce
I0403 14:24:19.996551 13236 net.cpp:141] Setting up inception_3a/5x5_reduce
I0403 14:24:19.996578 13236 net.cpp:148] Top shape: 24 16 28 28 (301056)
I0403 14:24:19.996594 13236 net.cpp:156] Memory required for data: 535880736
I0403 14:24:19.996613 13236 layer_factory.hpp:77] Creating layer inception_3a/relu_5x5_reduce
I0403 14:24:19.996633 13236 net.cpp:91] Creating Layer inception_3a/relu_5x5_reduce
I0403 14:24:19.996649 13236 net.cpp:425] inception_3a/relu_5x5_reduce <- inception_3a/5x5_reduce
I0403 14:24:19.996670 13236 net.cpp:386] inception_3a/relu_5x5_reduce -> inception_3a/5x5_reduce (in-place)
I0403 14:24:19.996973 13236 net.cpp:141] Setting up inception_3a/relu_5x5_reduce
I0403 14:24:19.996999 13236 net.cpp:148] Top shape: 24 16 28 28 (301056)
I0403 14:24:19.997014 13236 net.cpp:156] Memory required for data: 537084960
I0403 14:24:19.997028 13236 layer_factory.hpp:77] Creating layer inception_3a/5x5
I0403 14:24:19.997051 13236 net.cpp:91] Creating Layer inception_3a/5x5
I0403 14:24:19.997067 13236 net.cpp:425] inception_3a/5x5 <- inception_3a/5x5_reduce
I0403 14:24:19.997088 13236 net.cpp:399] inception_3a/5x5 -> inception_3a/5x5
I0403 14:24:19.998100 13236 net.cpp:141] Setting up inception_3a/5x5
I0403 14:24:19.998131 13236 net.cpp:148] Top shape: 24 32 28 28 (602112)
I0403 14:24:19.998152 13236 net.cpp:156] Memory required for data: 539493408
I0403 14:24:19.998170 13236 layer_factory.hpp:77] Creating layer inception_3a/relu_5x5
I0403 14:24:19.998188 13236 net.cpp:91] Creating Layer inception_3a/relu_5x5
I0403 14:24:19.998204 13236 net.cpp:425] inception_3a/relu_5x5 <- inception_3a/5x5
I0403 14:24:19.998224 13236 net.cpp:386] inception_3a/relu_5x5 -> inception_3a/5x5 (in-place)
I0403 14:24:19.998394 13236 net.cpp:141] Setting up inception_3a/relu_5x5
I0403 14:24:19.998419 13236 net.cpp:148] Top shape: 24 32 28 28 (602112)
I0403 14:24:19.998432 13236 net.cpp:156] Memory required for data: 541901856
I0403 14:24:19.998447 13236 layer_factory.hpp:77] Creating layer inception_3a/pool
I0403 14:24:19.998464 13236 net.cpp:91] Creating Layer inception_3a/pool
I0403 14:24:19.998493 13236 net.cpp:425] inception_3a/pool <- pool2/3x3_s2_pool2/3x3_s2_0_split_3
I0403 14:24:19.998519 13236 net.cpp:399] inception_3a/pool -> inception_3a/pool
I0403 14:24:19.998579 13236 net.cpp:141] Setting up inception_3a/pool
I0403 14:24:19.998602 13236 net.cpp:148] Top shape: 24 192 28 28 (3612672)
I0403 14:24:19.998616 13236 net.cpp:156] Memory required for data: 556352544
I0403 14:24:19.998631 13236 layer_factory.hpp:77] Creating layer inception_3a/pool_proj
I0403 14:24:19.998652 13236 net.cpp:91] Creating Layer inception_3a/pool_proj
I0403 14:24:19.998669 13236 net.cpp:425] inception_3a/pool_proj <- inception_3a/pool
I0403 14:24:19.998692 13236 net.cpp:399] inception_3a/pool_proj -> inception_3a/pool_proj
I0403 14:24:19.999639 13236 net.cpp:141] Setting up inception_3a/pool_proj
I0403 14:24:19.999668 13236 net.cpp:148] Top shape: 24 32 28 28 (602112)
I0403 14:24:19.999685 13236 net.cpp:156] Memory required for data: 558760992
I0403 14:24:19.999707 13236 layer_factory.hpp:77] Creating layer inception_3a/relu_pool_proj
I0403 14:24:19.999728 13236 net.cpp:91] Creating Layer inception_3a/relu_pool_proj
I0403 14:24:19.999744 13236 net.cpp:425] inception_3a/relu_pool_proj <- inception_3a/pool_proj
I0403 14:24:19.999764 13236 net.cpp:386] inception_3a/relu_pool_proj -> inception_3a/pool_proj (in-place)
I0403 14:24:20.000039 13236 net.cpp:141] Setting up inception_3a/relu_pool_proj
I0403 14:24:20.000068 13236 net.cpp:148] Top shape: 24 32 28 28 (602112)
I0403 14:24:20.000083 13236 net.cpp:156] Memory required for data: 561169440
I0403 14:24:20.000099 13236 layer_factory.hpp:77] Creating layer inception_3a/output
I0403 14:24:20.000118 13236 net.cpp:91] Creating Layer inception_3a/output
I0403 14:24:20.000133 13236 net.cpp:425] inception_3a/output <- inception_3a/1x1
I0403 14:24:20.000150 13236 net.cpp:425] inception_3a/output <- inception_3a/3x3
I0403 14:24:20.000167 13236 net.cpp:425] inception_3a/output <- inception_3a/5x5
I0403 14:24:20.000183 13236 net.cpp:425] inception_3a/output <- inception_3a/pool_proj
I0403 14:24:20.000202 13236 net.cpp:399] inception_3a/output -> inception_3a/output
I0403 14:24:20.000248 13236 net.cpp:141] Setting up inception_3a/output
I0403 14:24:20.000277 13236 net.cpp:148] Top shape: 24 256 28 28 (4816896)
I0403 14:24:20.000293 13236 net.cpp:156] Memory required for data: 580437024
I0403 14:24:20.000306 13236 layer_factory.hpp:77] Creating layer inception_3a/output_inception_3a/output_0_split
I0403 14:24:20.000324 13236 net.cpp:91] Creating Layer inception_3a/output_inception_3a/output_0_split
I0403 14:24:20.000339 13236 net.cpp:425] inception_3a/output_inception_3a/output_0_split <- inception_3a/output
I0403 14:24:20.000355 13236 net.cpp:399] inception_3a/output_inception_3a/output_0_split -> inception_3a/output_inception_3a/output_0_split_0
I0403 14:24:20.000375 13236 net.cpp:399] inception_3a/output_inception_3a/output_0_split -> inception_3a/output_inception_3a/output_0_split_1
I0403 14:24:20.000398 13236 net.cpp:399] inception_3a/output_inception_3a/output_0_split -> inception_3a/output_inception_3a/output_0_split_2
I0403 14:24:20.000421 13236 net.cpp:399] inception_3a/output_inception_3a/output_0_split -> inception_3a/output_inception_3a/output_0_split_3
I0403 14:24:20.000494 13236 net.cpp:141] Setting up inception_3a/output_inception_3a/output_0_split
I0403 14:24:20.000535 13236 net.cpp:148] Top shape: 24 256 28 28 (4816896)
I0403 14:24:20.000552 13236 net.cpp:148] Top shape: 24 256 28 28 (4816896)
I0403 14:24:20.000568 13236 net.cpp:148] Top shape: 24 256 28 28 (4816896)
I0403 14:24:20.000583 13236 net.cpp:148] Top shape: 24 256 28 28 (4816896)
I0403 14:24:20.000597 13236 net.cpp:156] Memory required for data: 657507360
I0403 14:24:20.000610 13236 layer_factory.hpp:77] Creating layer inception_3b/1x1
I0403 14:24:20.000633 13236 net.cpp:91] Creating Layer inception_3b/1x1
I0403 14:24:20.000649 13236 net.cpp:425] inception_3b/1x1 <- inception_3a/output_inception_3a/output_0_split_0
I0403 14:24:20.000669 13236 net.cpp:399] inception_3b/1x1 -> inception_3b/1x1
I0403 14:24:20.001821 13236 net.cpp:141] Setting up inception_3b/1x1
I0403 14:24:20.001863 13236 net.cpp:148] Top shape: 24 128 28 28 (2408448)
I0403 14:24:20.001879 13236 net.cpp:156] Memory required for data: 667141152
I0403 14:24:20.001899 13236 layer_factory.hpp:77] Creating layer inception_3b/relu_1x1
I0403 14:24:20.001919 13236 net.cpp:91] Creating Layer inception_3b/relu_1x1
I0403 14:24:20.001936 13236 net.cpp:425] inception_3b/relu_1x1 <- inception_3b/1x1
I0403 14:24:20.001955 13236 net.cpp:386] inception_3b/relu_1x1 -> inception_3b/1x1 (in-place)
I0403 14:24:20.002126 13236 net.cpp:141] Setting up inception_3b/relu_1x1
I0403 14:24:20.002151 13236 net.cpp:148] Top shape: 24 128 28 28 (2408448)
I0403 14:24:20.002166 13236 net.cpp:156] Memory required for data: 676774944
I0403 14:24:20.002180 13236 layer_factory.hpp:77] Creating layer inception_3b/3x3_reduce
I0403 14:24:20.002203 13236 net.cpp:91] Creating Layer inception_3b/3x3_reduce
I0403 14:24:20.002220 13236 net.cpp:425] inception_3b/3x3_reduce <- inception_3a/output_inception_3a/output_0_split_1
I0403 14:24:20.002243 13236 net.cpp:399] inception_3b/3x3_reduce -> inception_3b/3x3_reduce
I0403 14:24:20.003360 13236 net.cpp:141] Setting up inception_3b/3x3_reduce
I0403 14:24:20.003392 13236 net.cpp:148] Top shape: 24 128 28 28 (2408448)
I0403 14:24:20.003410 13236 net.cpp:156] Memory required for data: 686408736
I0403 14:24:20.003429 13236 layer_factory.hpp:77] Creating layer inception_3b/relu_3x3_reduce
I0403 14:24:20.003448 13236 net.cpp:91] Creating Layer inception_3b/relu_3x3_reduce
I0403 14:24:20.003463 13236 net.cpp:425] inception_3b/relu_3x3_reduce <- inception_3b/3x3_reduce
I0403 14:24:20.003480 13236 net.cpp:386] inception_3b/relu_3x3_reduce -> inception_3b/3x3_reduce (in-place)
I0403 14:24:20.003654 13236 net.cpp:141] Setting up inception_3b/relu_3x3_reduce
I0403 14:24:20.003681 13236 net.cpp:148] Top shape: 24 128 28 28 (2408448)
I0403 14:24:20.003696 13236 net.cpp:156] Memory required for data: 696042528
I0403 14:24:20.003711 13236 layer_factory.hpp:77] Creating layer inception_3b/3x3
I0403 14:24:20.003736 13236 net.cpp:91] Creating Layer inception_3b/3x3
I0403 14:24:20.003752 13236 net.cpp:425] inception_3b/3x3 <- inception_3b/3x3_reduce
I0403 14:24:20.003773 13236 net.cpp:399] inception_3b/3x3 -> inception_3b/3x3
I0403 14:24:20.006664 13236 net.cpp:141] Setting up inception_3b/3x3
I0403 14:24:20.006695 13236 net.cpp:148] Top shape: 24 192 28 28 (3612672)
I0403 14:24:20.006711 13236 net.cpp:156] Memory required for data: 710493216
I0403 14:24:20.006731 13236 layer_factory.hpp:77] Creating layer inception_3b/relu_3x3
I0403 14:24:20.006748 13236 net.cpp:91] Creating Layer inception_3b/relu_3x3
I0403 14:24:20.006765 13236 net.cpp:425] inception_3b/relu_3x3 <- inception_3b/3x3
I0403 14:24:20.006785 13236 net.cpp:386] inception_3b/relu_3x3 -> inception_3b/3x3 (in-place)
I0403 14:24:20.007064 13236 net.cpp:141] Setting up inception_3b/relu_3x3
I0403 14:24:20.007092 13236 net.cpp:148] Top shape: 24 192 28 28 (3612672)
I0403 14:24:20.007108 13236 net.cpp:156] Memory required for data: 724943904
I0403 14:24:20.007124 13236 layer_factory.hpp:77] Creating layer inception_3b/5x5_reduce
I0403 14:24:20.007146 13236 net.cpp:91] Creating Layer inception_3b/5x5_reduce
I0403 14:24:20.007165 13236 net.cpp:425] inception_3b/5x5_reduce <- inception_3a/output_inception_3a/output_0_split_2
I0403 14:24:20.007187 13236 net.cpp:399] inception_3b/5x5_reduce -> inception_3b/5x5_reduce
I0403 14:24:20.008179 13236 net.cpp:141] Setting up inception_3b/5x5_reduce
I0403 14:24:20.008210 13236 net.cpp:148] Top shape: 24 32 28 28 (602112)
I0403 14:24:20.008226 13236 net.cpp:156] Memory required for data: 727352352
I0403 14:24:20.008245 13236 layer_factory.hpp:77] Creating layer inception_3b/relu_5x5_reduce
I0403 14:24:20.008265 13236 net.cpp:91] Creating Layer inception_3b/relu_5x5_reduce
I0403 14:24:20.008281 13236 net.cpp:425] inception_3b/relu_5x5_reduce <- inception_3b/5x5_reduce
I0403 14:24:20.008304 13236 net.cpp:386] inception_3b/relu_5x5_reduce -> inception_3b/5x5_reduce (in-place)
I0403 14:24:20.008494 13236 net.cpp:141] Setting up inception_3b/relu_5x5_reduce
I0403 14:24:20.008533 13236 net.cpp:148] Top shape: 24 32 28 28 (602112)
I0403 14:24:20.008549 13236 net.cpp:156] Memory required for data: 729760800
I0403 14:24:20.008564 13236 layer_factory.hpp:77] Creating layer inception_3b/5x5
I0403 14:24:20.008585 13236 net.cpp:91] Creating Layer inception_3b/5x5
I0403 14:24:20.008602 13236 net.cpp:425] inception_3b/5x5 <- inception_3b/5x5_reduce
I0403 14:24:20.008623 13236 net.cpp:399] inception_3b/5x5 -> inception_3b/5x5
I0403 14:24:20.010592 13236 net.cpp:141] Setting up inception_3b/5x5
I0403 14:24:20.010622 13236 net.cpp:148] Top shape: 24 96 28 28 (1806336)
I0403 14:24:20.010642 13236 net.cpp:156] Memory required for data: 736986144
I0403 14:24:20.010660 13236 layer_factory.hpp:77] Creating layer inception_3b/relu_5x5
I0403 14:24:20.010679 13236 net.cpp:91] Creating Layer inception_3b/relu_5x5
I0403 14:24:20.010694 13236 net.cpp:425] inception_3b/relu_5x5 <- inception_3b/5x5
I0403 14:24:20.010712 13236 net.cpp:386] inception_3b/relu_5x5 -> inception_3b/5x5 (in-place)
I0403 14:24:20.010905 13236 net.cpp:141] Setting up inception_3b/relu_5x5
I0403 14:24:20.010931 13236 net.cpp:148] Top shape: 24 96 28 28 (1806336)
I0403 14:24:20.010947 13236 net.cpp:156] Memory required for data: 744211488
I0403 14:24:20.010962 13236 layer_factory.hpp:77] Creating layer inception_3b/pool
I0403 14:24:20.010980 13236 net.cpp:91] Creating Layer inception_3b/pool
I0403 14:24:20.010996 13236 net.cpp:425] inception_3b/pool <- inception_3a/output_inception_3a/output_0_split_3
I0403 14:24:20.011014 13236 net.cpp:399] inception_3b/pool -> inception_3b/pool
I0403 14:24:20.011070 13236 net.cpp:141] Setting up inception_3b/pool
I0403 14:24:20.011097 13236 net.cpp:148] Top shape: 24 256 28 28 (4816896)
I0403 14:24:20.011113 13236 net.cpp:156] Memory required for data: 763479072
I0403 14:24:20.011127 13236 layer_factory.hpp:77] Creating layer inception_3b/pool_proj
I0403 14:24:20.011147 13236 net.cpp:91] Creating Layer inception_3b/pool_proj
I0403 14:24:20.011164 13236 net.cpp:425] inception_3b/pool_proj <- inception_3b/pool
I0403 14:24:20.011186 13236 net.cpp:399] inception_3b/pool_proj -> inception_3b/pool_proj
I0403 14:24:20.012243 13236 net.cpp:141] Setting up inception_3b/pool_proj
I0403 14:24:20.012274 13236 net.cpp:148] Top shape: 24 64 28 28 (1204224)
I0403 14:24:20.012290 13236 net.cpp:156] Memory required for data: 768295968
I0403 14:24:20.012310 13236 layer_factory.hpp:77] Creating layer inception_3b/relu_pool_proj
I0403 14:24:20.012329 13236 net.cpp:91] Creating Layer inception_3b/relu_pool_proj
I0403 14:24:20.012347 13236 net.cpp:425] inception_3b/relu_pool_proj <- inception_3b/pool_proj
I0403 14:24:20.012365 13236 net.cpp:386] inception_3b/relu_pool_proj -> inception_3b/pool_proj (in-place)
I0403 14:24:20.012771 13236 net.cpp:141] Setting up inception_3b/relu_pool_proj
I0403 14:24:20.012799 13236 net.cpp:148] Top shape: 24 64 28 28 (1204224)
I0403 14:24:20.012820 13236 net.cpp:156] Memory required for data: 773112864
I0403 14:24:20.012833 13236 layer_factory.hpp:77] Creating layer inception_3b/output
I0403 14:24:20.012850 13236 net.cpp:91] Creating Layer inception_3b/output
I0403 14:24:20.012866 13236 net.cpp:425] inception_3b/output <- inception_3b/1x1
I0403 14:24:20.012882 13236 net.cpp:425] inception_3b/output <- inception_3b/3x3
I0403 14:24:20.012898 13236 net.cpp:425] inception_3b/output <- inception_3b/5x5
I0403 14:24:20.012913 13236 net.cpp:425] inception_3b/output <- inception_3b/pool_proj
I0403 14:24:20.012933 13236 net.cpp:399] inception_3b/output -> inception_3b/output
I0403 14:24:20.012976 13236 net.cpp:141] Setting up inception_3b/output
I0403 14:24:20.013002 13236 net.cpp:148] Top shape: 24 480 28 28 (9031680)
I0403 14:24:20.013017 13236 net.cpp:156] Memory required for data: 809239584
I0403 14:24:20.013032 13236 layer_factory.hpp:77] Creating layer pool3/3x3_s2
I0403 14:24:20.013048 13236 net.cpp:91] Creating Layer pool3/3x3_s2
I0403 14:24:20.013064 13236 net.cpp:425] pool3/3x3_s2 <- inception_3b/output
I0403 14:24:20.013099 13236 net.cpp:399] pool3/3x3_s2 -> pool3/3x3_s2
I0403 14:24:20.013159 13236 net.cpp:141] Setting up pool3/3x3_s2
I0403 14:24:20.013181 13236 net.cpp:148] Top shape: 24 480 14 14 (2257920)
I0403 14:24:20.013195 13236 net.cpp:156] Memory required for data: 818271264
I0403 14:24:20.013209 13236 layer_factory.hpp:77] Creating layer pool3/3x3_s2_pool3/3x3_s2_0_split
I0403 14:24:20.013231 13236 net.cpp:91] Creating Layer pool3/3x3_s2_pool3/3x3_s2_0_split
I0403 14:24:20.013247 13236 net.cpp:425] pool3/3x3_s2_pool3/3x3_s2_0_split <- pool3/3x3_s2
I0403 14:24:20.013265 13236 net.cpp:399] pool3/3x3_s2_pool3/3x3_s2_0_split -> pool3/3x3_s2_pool3/3x3_s2_0_split_0
I0403 14:24:20.013285 13236 net.cpp:399] pool3/3x3_s2_pool3/3x3_s2_0_split -> pool3/3x3_s2_pool3/3x3_s2_0_split_1
I0403 14:24:20.013308 13236 net.cpp:399] pool3/3x3_s2_pool3/3x3_s2_0_split -> pool3/3x3_s2_pool3/3x3_s2_0_split_2
I0403 14:24:20.013327 13236 net.cpp:399] pool3/3x3_s2_pool3/3x3_s2_0_split -> pool3/3x3_s2_pool3/3x3_s2_0_split_3
I0403 14:24:20.013403 13236 net.cpp:141] Setting up pool3/3x3_s2_pool3/3x3_s2_0_split
I0403 14:24:20.013427 13236 net.cpp:148] Top shape: 24 480 14 14 (2257920)
I0403 14:24:20.013442 13236 net.cpp:148] Top shape: 24 480 14 14 (2257920)
I0403 14:24:20.013458 13236 net.cpp:148] Top shape: 24 480 14 14 (2257920)
I0403 14:24:20.013473 13236 net.cpp:148] Top shape: 24 480 14 14 (2257920)
I0403 14:24:20.013485 13236 net.cpp:156] Memory required for data: 854397984
I0403 14:24:20.013499 13236 layer_factory.hpp:77] Creating layer inception_4a/1x1
I0403 14:24:20.013528 13236 net.cpp:91] Creating Layer inception_4a/1x1
I0403 14:24:20.013546 13236 net.cpp:425] inception_4a/1x1 <- pool3/3x3_s2_pool3/3x3_s2_0_split_0
I0403 14:24:20.013567 13236 net.cpp:399] inception_4a/1x1 -> inception_4a/1x1
I0403 14:24:20.015105 13236 net.cpp:141] Setting up inception_4a/1x1
I0403 14:24:20.015133 13236 net.cpp:148] Top shape: 24 192 14 14 (903168)
I0403 14:24:20.015148 13236 net.cpp:156] Memory required for data: 858010656
I0403 14:24:20.015167 13236 layer_factory.hpp:77] Creating layer inception_4a/relu_1x1
I0403 14:24:20.015190 13236 net.cpp:91] Creating Layer inception_4a/relu_1x1
I0403 14:24:20.015207 13236 net.cpp:425] inception_4a/relu_1x1 <- inception_4a/1x1
I0403 14:24:20.015223 13236 net.cpp:386] inception_4a/relu_1x1 -> inception_4a/1x1 (in-place)
I0403 14:24:20.015391 13236 net.cpp:141] Setting up inception_4a/relu_1x1
I0403 14:24:20.015419 13236 net.cpp:148] Top shape: 24 192 14 14 (903168)
I0403 14:24:20.015434 13236 net.cpp:156] Memory required for data: 861623328
I0403 14:24:20.015449 13236 layer_factory.hpp:77] Creating layer inception_4a/3x3_reduce
I0403 14:24:20.015470 13236 net.cpp:91] Creating Layer inception_4a/3x3_reduce
I0403 14:24:20.015486 13236 net.cpp:425] inception_4a/3x3_reduce <- pool3/3x3_s2_pool3/3x3_s2_0_split_1
I0403 14:24:20.015503 13236 net.cpp:399] inception_4a/3x3_reduce -> inception_4a/3x3_reduce
I0403 14:24:20.016768 13236 net.cpp:141] Setting up inception_4a/3x3_reduce
I0403 14:24:20.016795 13236 net.cpp:148] Top shape: 24 96 14 14 (451584)
I0403 14:24:20.016819 13236 net.cpp:156] Memory required for data: 863429664
I0403 14:24:20.016842 13236 layer_factory.hpp:77] Creating layer inception_4a/relu_3x3_reduce
I0403 14:24:20.016863 13236 net.cpp:91] Creating Layer inception_4a/relu_3x3_reduce
I0403 14:24:20.016880 13236 net.cpp:425] inception_4a/relu_3x3_reduce <- inception_4a/3x3_reduce
I0403 14:24:20.016897 13236 net.cpp:386] inception_4a/relu_3x3_reduce -> inception_4a/3x3_reduce (in-place)
I0403 14:24:20.017060 13236 net.cpp:141] Setting up inception_4a/relu_3x3_reduce
I0403 14:24:20.017083 13236 net.cpp:148] Top shape: 24 96 14 14 (451584)
I0403 14:24:20.017097 13236 net.cpp:156] Memory required for data: 865236000
I0403 14:24:20.017112 13236 layer_factory.hpp:77] Creating layer inception_4a/3x3
I0403 14:24:20.017134 13236 net.cpp:91] Creating Layer inception_4a/3x3
I0403 14:24:20.017150 13236 net.cpp:425] inception_4a/3x3 <- inception_4a/3x3_reduce
I0403 14:24:20.017168 13236 net.cpp:399] inception_4a/3x3 -> inception_4a/3x3
I0403 14:24:20.019747 13236 net.cpp:141] Setting up inception_4a/3x3
I0403 14:24:20.019779 13236 net.cpp:148] Top shape: 24 208 14 14 (978432)
I0403 14:24:20.019794 13236 net.cpp:156] Memory required for data: 869149728
I0403 14:24:20.019814 13236 layer_factory.hpp:77] Creating layer inception_4a/relu_3x3
I0403 14:24:20.019830 13236 net.cpp:91] Creating Layer inception_4a/relu_3x3
I0403 14:24:20.019845 13236 net.cpp:425] inception_4a/relu_3x3 <- inception_4a/3x3
I0403 14:24:20.019861 13236 net.cpp:386] inception_4a/relu_3x3 -> inception_4a/3x3 (in-place)
I0403 14:24:20.020128 13236 net.cpp:141] Setting up inception_4a/relu_3x3
I0403 14:24:20.020154 13236 net.cpp:148] Top shape: 24 208 14 14 (978432)
I0403 14:24:20.020170 13236 net.cpp:156] Memory required for data: 873063456
I0403 14:24:20.020184 13236 layer_factory.hpp:77] Creating layer inception_4a/5x5_reduce
I0403 14:24:20.020205 13236 net.cpp:91] Creating Layer inception_4a/5x5_reduce
I0403 14:24:20.020221 13236 net.cpp:425] inception_4a/5x5_reduce <- pool3/3x3_s2_pool3/3x3_s2_0_split_2
I0403 14:24:20.020241 13236 net.cpp:399] inception_4a/5x5_reduce -> inception_4a/5x5_reduce
I0403 14:24:20.021224 13236 net.cpp:141] Setting up inception_4a/5x5_reduce
I0403 14:24:20.021253 13236 net.cpp:148] Top shape: 24 16 14 14 (75264)
I0403 14:24:20.021270 13236 net.cpp:156] Memory required for data: 873364512
I0403 14:24:20.021287 13236 layer_factory.hpp:77] Creating layer inception_4a/relu_5x5_reduce
I0403 14:24:20.021304 13236 net.cpp:91] Creating Layer inception_4a/relu_5x5_reduce
I0403 14:24:20.021319 13236 net.cpp:425] inception_4a/relu_5x5_reduce <- inception_4a/5x5_reduce
I0403 14:24:20.021338 13236 net.cpp:386] inception_4a/relu_5x5_reduce -> inception_4a/5x5_reduce (in-place)
I0403 14:24:20.021512 13236 net.cpp:141] Setting up inception_4a/relu_5x5_reduce
I0403 14:24:20.021535 13236 net.cpp:148] Top shape: 24 16 14 14 (75264)
I0403 14:24:20.021549 13236 net.cpp:156] Memory required for data: 873665568
I0403 14:24:20.021564 13236 layer_factory.hpp:77] Creating layer inception_4a/5x5
I0403 14:24:20.021587 13236 net.cpp:91] Creating Layer inception_4a/5x5
I0403 14:24:20.021603 13236 net.cpp:425] inception_4a/5x5 <- inception_4a/5x5_reduce
I0403 14:24:20.021623 13236 net.cpp:399] inception_4a/5x5 -> inception_4a/5x5
I0403 14:24:20.022660 13236 net.cpp:141] Setting up inception_4a/5x5
I0403 14:24:20.022686 13236 net.cpp:148] Top shape: 24 48 14 14 (225792)
I0403 14:24:20.022701 13236 net.cpp:156] Memory required for data: 874568736
I0403 14:24:20.022719 13236 layer_factory.hpp:77] Creating layer inception_4a/relu_5x5
I0403 14:24:20.022737 13236 net.cpp:91] Creating Layer inception_4a/relu_5x5
I0403 14:24:20.022752 13236 net.cpp:425] inception_4a/relu_5x5 <- inception_4a/5x5
I0403 14:24:20.022770 13236 net.cpp:386] inception_4a/relu_5x5 -> inception_4a/5x5 (in-place)
I0403 14:24:20.022939 13236 net.cpp:141] Setting up inception_4a/relu_5x5
I0403 14:24:20.022964 13236 net.cpp:148] Top shape: 24 48 14 14 (225792)
I0403 14:24:20.022990 13236 net.cpp:156] Memory required for data: 875471904
I0403 14:24:20.023005 13236 layer_factory.hpp:77] Creating layer inception_4a/pool
I0403 14:24:20.023025 13236 net.cpp:91] Creating Layer inception_4a/pool
I0403 14:24:20.023041 13236 net.cpp:425] inception_4a/pool <- pool3/3x3_s2_pool3/3x3_s2_0_split_3
I0403 14:24:20.023058 13236 net.cpp:399] inception_4a/pool -> inception_4a/pool
I0403 14:24:20.023119 13236 net.cpp:141] Setting up inception_4a/pool
I0403 14:24:20.023144 13236 net.cpp:148] Top shape: 24 480 14 14 (2257920)
I0403 14:24:20.023157 13236 net.cpp:156] Memory required for data: 884503584
I0403 14:24:20.023171 13236 layer_factory.hpp:77] Creating layer inception_4a/pool_proj
I0403 14:24:20.023192 13236 net.cpp:91] Creating Layer inception_4a/pool_proj
I0403 14:24:20.023210 13236 net.cpp:425] inception_4a/pool_proj <- inception_4a/pool
I0403 14:24:20.023229 13236 net.cpp:399] inception_4a/pool_proj -> inception_4a/pool_proj
I0403 14:24:20.024385 13236 net.cpp:141] Setting up inception_4a/pool_proj
I0403 14:24:20.024415 13236 net.cpp:148] Top shape: 24 64 14 14 (301056)
I0403 14:24:20.024447 13236 net.cpp:156] Memory required for data: 885707808
I0403 14:24:20.024468 13236 layer_factory.hpp:77] Creating layer inception_4a/relu_pool_proj
I0403 14:24:20.024489 13236 net.cpp:91] Creating Layer inception_4a/relu_pool_proj
I0403 14:24:20.024518 13236 net.cpp:425] inception_4a/relu_pool_proj <- inception_4a/pool_proj
I0403 14:24:20.024541 13236 net.cpp:386] inception_4a/relu_pool_proj -> inception_4a/pool_proj (in-place)
I0403 14:24:20.024840 13236 net.cpp:141] Setting up inception_4a/relu_pool_proj
I0403 14:24:20.024866 13236 net.cpp:148] Top shape: 24 64 14 14 (301056)
I0403 14:24:20.024880 13236 net.cpp:156] Memory required for data: 886912032
I0403 14:24:20.024895 13236 layer_factory.hpp:77] Creating layer inception_4a/output
I0403 14:24:20.024911 13236 net.cpp:91] Creating Layer inception_4a/output
I0403 14:24:20.024926 13236 net.cpp:425] inception_4a/output <- inception_4a/1x1
I0403 14:24:20.024942 13236 net.cpp:425] inception_4a/output <- inception_4a/3x3
I0403 14:24:20.024958 13236 net.cpp:425] inception_4a/output <- inception_4a/5x5
I0403 14:24:20.024973 13236 net.cpp:425] inception_4a/output <- inception_4a/pool_proj
I0403 14:24:20.024992 13236 net.cpp:399] inception_4a/output -> inception_4a/output
I0403 14:24:20.025048 13236 net.cpp:141] Setting up inception_4a/output
I0403 14:24:20.025070 13236 net.cpp:148] Top shape: 24 512 14 14 (2408448)
I0403 14:24:20.025084 13236 net.cpp:156] Memory required for data: 896545824
I0403 14:24:20.025099 13236 layer_factory.hpp:77] Creating layer inception_4a/output_inception_4a/output_0_split
I0403 14:24:20.025115 13236 net.cpp:91] Creating Layer inception_4a/output_inception_4a/output_0_split
I0403 14:24:20.025130 13236 net.cpp:425] inception_4a/output_inception_4a/output_0_split <- inception_4a/output
I0403 14:24:20.025148 13236 net.cpp:399] inception_4a/output_inception_4a/output_0_split -> inception_4a/output_inception_4a/output_0_split_0
I0403 14:24:20.025169 13236 net.cpp:399] inception_4a/output_inception_4a/output_0_split -> inception_4a/output_inception_4a/output_0_split_1
I0403 14:24:20.025189 13236 net.cpp:399] inception_4a/output_inception_4a/output_0_split -> inception_4a/output_inception_4a/output_0_split_2
I0403 14:24:20.025210 13236 net.cpp:399] inception_4a/output_inception_4a/output_0_split -> inception_4a/output_inception_4a/output_0_split_3
I0403 14:24:20.025229 13236 net.cpp:399] inception_4a/output_inception_4a/output_0_split -> inception_4a/output_inception_4a/output_0_split_4
I0403 14:24:20.025318 13236 net.cpp:141] Setting up inception_4a/output_inception_4a/output_0_split
I0403 14:24:20.025342 13236 net.cpp:148] Top shape: 24 512 14 14 (2408448)
I0403 14:24:20.025357 13236 net.cpp:148] Top shape: 24 512 14 14 (2408448)
I0403 14:24:20.025372 13236 net.cpp:148] Top shape: 24 512 14 14 (2408448)
I0403 14:24:20.025388 13236 net.cpp:148] Top shape: 24 512 14 14 (2408448)
I0403 14:24:20.025401 13236 net.cpp:148] Top shape: 24 512 14 14 (2408448)
I0403 14:24:20.025414 13236 net.cpp:156] Memory required for data: 944714784
I0403 14:24:20.025429 13236 layer_factory.hpp:77] Creating layer loss1/ave_pool
I0403 14:24:20.025445 13236 net.cpp:91] Creating Layer loss1/ave_pool
I0403 14:24:20.025460 13236 net.cpp:425] loss1/ave_pool <- inception_4a/output_inception_4a/output_0_split_0
I0403 14:24:20.025480 13236 net.cpp:399] loss1/ave_pool -> loss1/ave_pool
I0403 14:24:20.025678 13236 net.cpp:141] Setting up loss1/ave_pool
I0403 14:24:20.025703 13236 net.cpp:148] Top shape: 24 512 4 4 (196608)
I0403 14:24:20.025717 13236 net.cpp:156] Memory required for data: 945501216
I0403 14:24:20.025732 13236 layer_factory.hpp:77] Creating layer loss1/conv
I0403 14:24:20.025753 13236 net.cpp:91] Creating Layer loss1/conv
I0403 14:24:20.025769 13236 net.cpp:425] loss1/conv <- loss1/ave_pool
I0403 14:24:20.025789 13236 net.cpp:399] loss1/conv -> loss1/conv
I0403 14:24:20.027231 13236 net.cpp:141] Setting up loss1/conv
I0403 14:24:20.027261 13236 net.cpp:148] Top shape: 24 128 4 4 (49152)
I0403 14:24:20.027290 13236 net.cpp:156] Memory required for data: 945697824
I0403 14:24:20.027309 13236 layer_factory.hpp:77] Creating layer loss1/relu_conv
I0403 14:24:20.027328 13236 net.cpp:91] Creating Layer loss1/relu_conv
I0403 14:24:20.027343 13236 net.cpp:425] loss1/relu_conv <- loss1/conv
I0403 14:24:20.027359 13236 net.cpp:386] loss1/relu_conv -> loss1/conv (in-place)
I0403 14:24:20.027638 13236 net.cpp:141] Setting up loss1/relu_conv
I0403 14:24:20.027667 13236 net.cpp:148] Top shape: 24 128 4 4 (49152)
I0403 14:24:20.027681 13236 net.cpp:156] Memory required for data: 945894432
I0403 14:24:20.027695 13236 layer_factory.hpp:77] Creating layer loss1/fc
I0403 14:24:20.027719 13236 net.cpp:91] Creating Layer loss1/fc
I0403 14:24:20.027735 13236 net.cpp:425] loss1/fc <- loss1/conv
I0403 14:24:20.027755 13236 net.cpp:399] loss1/fc -> loss1/fc
I0403 14:24:20.045277 13236 net.cpp:141] Setting up loss1/fc
I0403 14:24:20.045310 13236 net.cpp:148] Top shape: 24 1024 (24576)
I0403 14:24:20.045326 13236 net.cpp:156] Memory required for data: 945992736
I0403 14:24:20.045343 13236 layer_factory.hpp:77] Creating layer loss1/relu_fc
I0403 14:24:20.045363 13236 net.cpp:91] Creating Layer loss1/relu_fc
I0403 14:24:20.045380 13236 net.cpp:425] loss1/relu_fc <- loss1/fc
I0403 14:24:20.045398 13236 net.cpp:386] loss1/relu_fc -> loss1/fc (in-place)
I0403 14:24:20.045586 13236 net.cpp:141] Setting up loss1/relu_fc
I0403 14:24:20.045615 13236 net.cpp:148] Top shape: 24 1024 (24576)
I0403 14:24:20.045631 13236 net.cpp:156] Memory required for data: 946091040
I0403 14:24:20.045645 13236 layer_factory.hpp:77] Creating layer loss1/drop_fc
I0403 14:24:20.045671 13236 net.cpp:91] Creating Layer loss1/drop_fc
I0403 14:24:20.045689 13236 net.cpp:425] loss1/drop_fc <- loss1/fc
I0403 14:24:20.045707 13236 net.cpp:386] loss1/drop_fc -> loss1/fc (in-place)
I0403 14:24:20.045758 13236 net.cpp:141] Setting up loss1/drop_fc
I0403 14:24:20.045783 13236 net.cpp:148] Top shape: 24 1024 (24576)
I0403 14:24:20.045796 13236 net.cpp:156] Memory required for data: 946189344
I0403 14:24:20.045811 13236 layer_factory.hpp:77] Creating layer loss1/classifier_plantvillage
I0403 14:24:20.045832 13236 net.cpp:91] Creating Layer loss1/classifier_plantvillage
I0403 14:24:20.045848 13236 net.cpp:425] loss1/classifier_plantvillage <- loss1/fc
I0403 14:24:20.045866 13236 net.cpp:399] loss1/classifier_plantvillage -> loss1/classifier_plantvillage
I0403 14:24:20.046747 13236 net.cpp:141] Setting up loss1/classifier_plantvillage
I0403 14:24:20.046777 13236 net.cpp:148] Top shape: 24 38 (912)
I0403 14:24:20.046792 13236 net.cpp:156] Memory required for data: 946192992
I0403 14:24:20.046809 13236 layer_factory.hpp:77] Creating layer loss1/classifier_plantvillage_loss1/classifier_plantvillage_0_split
I0403 14:24:20.046826 13236 net.cpp:91] Creating Layer loss1/classifier_plantvillage_loss1/classifier_plantvillage_0_split
I0403 14:24:20.046841 13236 net.cpp:425] loss1/classifier_plantvillage_loss1/classifier_plantvillage_0_split <- loss1/classifier_plantvillage
I0403 14:24:20.046859 13236 net.cpp:399] loss1/classifier_plantvillage_loss1/classifier_plantvillage_0_split -> loss1/classifier_plantvillage_loss1/classifier_plantvillage_0_split_0
I0403 14:24:20.046877 13236 net.cpp:399] loss1/classifier_plantvillage_loss1/classifier_plantvillage_0_split -> loss1/classifier_plantvillage_loss1/classifier_plantvillage_0_split_1
I0403 14:24:20.046896 13236 net.cpp:399] loss1/classifier_plantvillage_loss1/classifier_plantvillage_0_split -> loss1/classifier_plantvillage_loss1/classifier_plantvillage_0_split_2
I0403 14:24:20.046960 13236 net.cpp:141] Setting up loss1/classifier_plantvillage_loss1/classifier_plantvillage_0_split
I0403 14:24:20.046983 13236 net.cpp:148] Top shape: 24 38 (912)
I0403 14:24:20.046998 13236 net.cpp:148] Top shape: 24 38 (912)
I0403 14:24:20.047013 13236 net.cpp:148] Top shape: 24 38 (912)
I0403 14:24:20.047025 13236 net.cpp:156] Memory required for data: 946203936
I0403 14:24:20.047039 13236 layer_factory.hpp:77] Creating layer inception_4b/1x1
I0403 14:24:20.047058 13236 net.cpp:91] Creating Layer inception_4b/1x1
I0403 14:24:20.047091 13236 net.cpp:425] inception_4b/1x1 <- inception_4a/output_inception_4a/output_0_split_1
I0403 14:24:20.047112 13236 net.cpp:399] inception_4b/1x1 -> inception_4b/1x1
I0403 14:24:20.048712 13236 net.cpp:141] Setting up inception_4b/1x1
I0403 14:24:20.048743 13236 net.cpp:148] Top shape: 24 160 14 14 (752640)
I0403 14:24:20.048760 13236 net.cpp:156] Memory required for data: 949214496
I0403 14:24:20.048779 13236 layer_factory.hpp:77] Creating layer inception_4b/relu_1x1
I0403 14:24:20.048797 13236 net.cpp:91] Creating Layer inception_4b/relu_1x1
I0403 14:24:20.048812 13236 net.cpp:425] inception_4b/relu_1x1 <- inception_4b/1x1
I0403 14:24:20.048828 13236 net.cpp:386] inception_4b/relu_1x1 -> inception_4b/1x1 (in-place)
I0403 14:24:20.049000 13236 net.cpp:141] Setting up inception_4b/relu_1x1
I0403 14:24:20.049024 13236 net.cpp:148] Top shape: 24 160 14 14 (752640)
I0403 14:24:20.049038 13236 net.cpp:156] Memory required for data: 952225056
I0403 14:24:20.049052 13236 layer_factory.hpp:77] Creating layer inception_4b/3x3_reduce
I0403 14:24:20.049073 13236 net.cpp:91] Creating Layer inception_4b/3x3_reduce
I0403 14:24:20.049089 13236 net.cpp:425] inception_4b/3x3_reduce <- inception_4a/output_inception_4a/output_0_split_2
I0403 14:24:20.049110 13236 net.cpp:399] inception_4b/3x3_reduce -> inception_4b/3x3_reduce
I0403 14:24:20.050410 13236 net.cpp:141] Setting up inception_4b/3x3_reduce
I0403 14:24:20.050439 13236 net.cpp:148] Top shape: 24 112 14 14 (526848)
I0403 14:24:20.050456 13236 net.cpp:156] Memory required for data: 954332448
I0403 14:24:20.050473 13236 layer_factory.hpp:77] Creating layer inception_4b/relu_3x3_reduce
I0403 14:24:20.050490 13236 net.cpp:91] Creating Layer inception_4b/relu_3x3_reduce
I0403 14:24:20.050514 13236 net.cpp:425] inception_4b/relu_3x3_reduce <- inception_4b/3x3_reduce
I0403 14:24:20.050532 13236 net.cpp:386] inception_4b/relu_3x3_reduce -> inception_4b/3x3_reduce (in-place)
I0403 14:24:20.050807 13236 net.cpp:141] Setting up inception_4b/relu_3x3_reduce
I0403 14:24:20.050834 13236 net.cpp:148] Top shape: 24 112 14 14 (526848)
I0403 14:24:20.050850 13236 net.cpp:156] Memory required for data: 956439840
I0403 14:24:20.050864 13236 layer_factory.hpp:77] Creating layer inception_4b/3x3
I0403 14:24:20.050886 13236 net.cpp:91] Creating Layer inception_4b/3x3
I0403 14:24:20.050904 13236 net.cpp:425] inception_4b/3x3 <- inception_4b/3x3_reduce
I0403 14:24:20.050926 13236 net.cpp:399] inception_4b/3x3 -> inception_4b/3x3
I0403 14:24:20.053817 13236 net.cpp:141] Setting up inception_4b/3x3
I0403 14:24:20.053845 13236 net.cpp:148] Top shape: 24 224 14 14 (1053696)
I0403 14:24:20.053861 13236 net.cpp:156] Memory required for data: 960654624
I0403 14:24:20.053879 13236 layer_factory.hpp:77] Creating layer inception_4b/relu_3x3
I0403 14:24:20.053900 13236 net.cpp:91] Creating Layer inception_4b/relu_3x3
I0403 14:24:20.053915 13236 net.cpp:425] inception_4b/relu_3x3 <- inception_4b/3x3
I0403 14:24:20.053932 13236 net.cpp:386] inception_4b/relu_3x3 -> inception_4b/3x3 (in-place)
I0403 14:24:20.054105 13236 net.cpp:141] Setting up inception_4b/relu_3x3
I0403 14:24:20.054132 13236 net.cpp:148] Top shape: 24 224 14 14 (1053696)
I0403 14:24:20.054147 13236 net.cpp:156] Memory required for data: 964869408
I0403 14:24:20.054162 13236 layer_factory.hpp:77] Creating layer inception_4b/5x5_reduce
I0403 14:24:20.054183 13236 net.cpp:91] Creating Layer inception_4b/5x5_reduce
I0403 14:24:20.054199 13236 net.cpp:425] inception_4b/5x5_reduce <- inception_4a/output_inception_4a/output_0_split_3
I0403 14:24:20.054217 13236 net.cpp:399] inception_4b/5x5_reduce -> inception_4b/5x5_reduce
I0403 14:24:20.055277 13236 net.cpp:141] Setting up inception_4b/5x5_reduce
I0403 14:24:20.055307 13236 net.cpp:148] Top shape: 24 24 14 14 (112896)
I0403 14:24:20.055325 13236 net.cpp:156] Memory required for data: 965320992
I0403 14:24:20.055343 13236 layer_factory.hpp:77] Creating layer inception_4b/relu_5x5_reduce
I0403 14:24:20.055361 13236 net.cpp:91] Creating Layer inception_4b/relu_5x5_reduce
I0403 14:24:20.055390 13236 net.cpp:425] inception_4b/relu_5x5_reduce <- inception_4b/5x5_reduce
I0403 14:24:20.055411 13236 net.cpp:386] inception_4b/relu_5x5_reduce -> inception_4b/5x5_reduce (in-place)
I0403 14:24:20.055619 13236 net.cpp:141] Setting up inception_4b/relu_5x5_reduce
I0403 14:24:20.055645 13236 net.cpp:148] Top shape: 24 24 14 14 (112896)
I0403 14:24:20.055660 13236 net.cpp:156] Memory required for data: 965772576
I0403 14:24:20.055675 13236 layer_factory.hpp:77] Creating layer inception_4b/5x5
I0403 14:24:20.055698 13236 net.cpp:91] Creating Layer inception_4b/5x5
I0403 14:24:20.055716 13236 net.cpp:425] inception_4b/5x5 <- inception_4b/5x5_reduce
I0403 14:24:20.055737 13236 net.cpp:399] inception_4b/5x5 -> inception_4b/5x5
I0403 14:24:20.056946 13236 net.cpp:141] Setting up inception_4b/5x5
I0403 14:24:20.056977 13236 net.cpp:148] Top shape: 24 64 14 14 (301056)
I0403 14:24:20.056994 13236 net.cpp:156] Memory required for data: 966976800
I0403 14:24:20.057011 13236 layer_factory.hpp:77] Creating layer inception_4b/relu_5x5
I0403 14:24:20.057029 13236 net.cpp:91] Creating Layer inception_4b/relu_5x5
I0403 14:24:20.057045 13236 net.cpp:425] inception_4b/relu_5x5 <- inception_4b/5x5
I0403 14:24:20.057062 13236 net.cpp:386] inception_4b/relu_5x5 -> inception_4b/5x5 (in-place)
I0403 14:24:20.057338 13236 net.cpp:141] Setting up inception_4b/relu_5x5
I0403 14:24:20.057366 13236 net.cpp:148] Top shape: 24 64 14 14 (301056)
I0403 14:24:20.057382 13236 net.cpp:156] Memory required for data: 968181024
I0403 14:24:20.057396 13236 layer_factory.hpp:77] Creating layer inception_4b/pool
I0403 14:24:20.057413 13236 net.cpp:91] Creating Layer inception_4b/pool
I0403 14:24:20.057428 13236 net.cpp:425] inception_4b/pool <- inception_4a/output_inception_4a/output_0_split_4
I0403 14:24:20.057449 13236 net.cpp:399] inception_4b/pool -> inception_4b/pool
I0403 14:24:20.057514 13236 net.cpp:141] Setting up inception_4b/pool
I0403 14:24:20.057538 13236 net.cpp:148] Top shape: 24 512 14 14 (2408448)
I0403 14:24:20.057551 13236 net.cpp:156] Memory required for data: 977814816
I0403 14:24:20.057565 13236 layer_factory.hpp:77] Creating layer inception_4b/pool_proj
I0403 14:24:20.057585 13236 net.cpp:91] Creating Layer inception_4b/pool_proj
I0403 14:24:20.057605 13236 net.cpp:425] inception_4b/pool_proj <- inception_4b/pool
I0403 14:24:20.057624 13236 net.cpp:399] inception_4b/pool_proj -> inception_4b/pool_proj
I0403 14:24:20.058784 13236 net.cpp:141] Setting up inception_4b/pool_proj
I0403 14:24:20.058811 13236 net.cpp:148] Top shape: 24 64 14 14 (301056)
I0403 14:24:20.058826 13236 net.cpp:156] Memory required for data: 979019040
I0403 14:24:20.058845 13236 layer_factory.hpp:77] Creating layer inception_4b/relu_pool_proj
I0403 14:24:20.058867 13236 net.cpp:91] Creating Layer inception_4b/relu_pool_proj
I0403 14:24:20.058882 13236 net.cpp:425] inception_4b/relu_pool_proj <- inception_4b/pool_proj
I0403 14:24:20.058902 13236 net.cpp:386] inception_4b/relu_pool_proj -> inception_4b/pool_proj (in-place)
I0403 14:24:20.059075 13236 net.cpp:141] Setting up inception_4b/relu_pool_proj
I0403 14:24:20.059099 13236 net.cpp:148] Top shape: 24 64 14 14 (301056)
I0403 14:24:20.059114 13236 net.cpp:156] Memory required for data: 980223264
I0403 14:24:20.059128 13236 layer_factory.hpp:77] Creating layer inception_4b/output
I0403 14:24:20.059144 13236 net.cpp:91] Creating Layer inception_4b/output
I0403 14:24:20.059160 13236 net.cpp:425] inception_4b/output <- inception_4b/1x1
I0403 14:24:20.059180 13236 net.cpp:425] inception_4b/output <- inception_4b/3x3
I0403 14:24:20.059195 13236 net.cpp:425] inception_4b/output <- inception_4b/5x5
I0403 14:24:20.059211 13236 net.cpp:425] inception_4b/output <- inception_4b/pool_proj
I0403 14:24:20.059227 13236 net.cpp:399] inception_4b/output -> inception_4b/output
I0403 14:24:20.059270 13236 net.cpp:141] Setting up inception_4b/output
I0403 14:24:20.059301 13236 net.cpp:148] Top shape: 24 512 14 14 (2408448)
I0403 14:24:20.059324 13236 net.cpp:156] Memory required for data: 989857056
I0403 14:24:20.059356 13236 layer_factory.hpp:77] Creating layer inception_4b/output_inception_4b/output_0_split
I0403 14:24:20.059381 13236 net.cpp:91] Creating Layer inception_4b/output_inception_4b/output_0_split
I0403 14:24:20.059402 13236 net.cpp:425] inception_4b/output_inception_4b/output_0_split <- inception_4b/output
I0403 14:24:20.059427 13236 net.cpp:399] inception_4b/output_inception_4b/output_0_split -> inception_4b/output_inception_4b/output_0_split_0
I0403 14:24:20.059453 13236 net.cpp:399] inception_4b/output_inception_4b/output_0_split -> inception_4b/output_inception_4b/output_0_split_1
I0403 14:24:20.059475 13236 net.cpp:399] inception_4b/output_inception_4b/output_0_split -> inception_4b/output_inception_4b/output_0_split_2
I0403 14:24:20.059494 13236 net.cpp:399] inception_4b/output_inception_4b/output_0_split -> inception_4b/output_inception_4b/output_0_split_3
I0403 14:24:20.059578 13236 net.cpp:141] Setting up inception_4b/output_inception_4b/output_0_split
I0403 14:24:20.059603 13236 net.cpp:148] Top shape: 24 512 14 14 (2408448)
I0403 14:24:20.059619 13236 net.cpp:148] Top shape: 24 512 14 14 (2408448)
I0403 14:24:20.059634 13236 net.cpp:148] Top shape: 24 512 14 14 (2408448)
I0403 14:24:20.059648 13236 net.cpp:148] Top shape: 24 512 14 14 (2408448)
I0403 14:24:20.059661 13236 net.cpp:156] Memory required for data: 1028392224
I0403 14:24:20.059687 13236 layer_factory.hpp:77] Creating layer inception_4c/1x1
I0403 14:24:20.059710 13236 net.cpp:91] Creating Layer inception_4c/1x1
I0403 14:24:20.059727 13236 net.cpp:425] inception_4c/1x1 <- inception_4b/output_inception_4b/output_0_split_0
I0403 14:24:20.059746 13236 net.cpp:399] inception_4c/1x1 -> inception_4c/1x1
I0403 14:24:20.061182 13236 net.cpp:141] Setting up inception_4c/1x1
I0403 14:24:20.061209 13236 net.cpp:148] Top shape: 24 128 14 14 (602112)
I0403 14:24:20.061224 13236 net.cpp:156] Memory required for data: 1030800672
I0403 14:24:20.061242 13236 layer_factory.hpp:77] Creating layer inception_4c/relu_1x1
I0403 14:24:20.061264 13236 net.cpp:91] Creating Layer inception_4c/relu_1x1
I0403 14:24:20.061281 13236 net.cpp:425] inception_4c/relu_1x1 <- inception_4c/1x1
I0403 14:24:20.061298 13236 net.cpp:386] inception_4c/relu_1x1 -> inception_4c/1x1 (in-place)
I0403 14:24:20.061475 13236 net.cpp:141] Setting up inception_4c/relu_1x1
I0403 14:24:20.061501 13236 net.cpp:148] Top shape: 24 128 14 14 (602112)
I0403 14:24:20.061520 13236 net.cpp:156] Memory required for data: 1033209120
I0403 14:24:20.061535 13236 layer_factory.hpp:77] Creating layer inception_4c/3x3_reduce
I0403 14:24:20.061559 13236 net.cpp:91] Creating Layer inception_4c/3x3_reduce
I0403 14:24:20.061576 13236 net.cpp:425] inception_4c/3x3_reduce <- inception_4b/output_inception_4b/output_0_split_1
I0403 14:24:20.061595 13236 net.cpp:399] inception_4c/3x3_reduce -> inception_4c/3x3_reduce
I0403 14:24:20.063530 13236 net.cpp:141] Setting up inception_4c/3x3_reduce
I0403 14:24:20.063563 13236 net.cpp:148] Top shape: 24 128 14 14 (602112)
I0403 14:24:20.063582 13236 net.cpp:156] Memory required for data: 1035617568
I0403 14:24:20.063602 13236 layer_factory.hpp:77] Creating layer inception_4c/relu_3x3_reduce
I0403 14:24:20.063621 13236 net.cpp:91] Creating Layer inception_4c/relu_3x3_reduce
I0403 14:24:20.063637 13236 net.cpp:425] inception_4c/relu_3x3_reduce <- inception_4c/3x3_reduce
I0403 14:24:20.063658 13236 net.cpp:386] inception_4c/relu_3x3_reduce -> inception_4c/3x3_reduce (in-place)
I0403 14:24:20.063940 13236 net.cpp:141] Setting up inception_4c/relu_3x3_reduce
I0403 14:24:20.063968 13236 net.cpp:148] Top shape: 24 128 14 14 (602112)
I0403 14:24:20.063985 13236 net.cpp:156] Memory required for data: 1038026016
I0403 14:24:20.064000 13236 layer_factory.hpp:77] Creating layer inception_4c/3x3
I0403 14:24:20.064023 13236 net.cpp:91] Creating Layer inception_4c/3x3
I0403 14:24:20.064041 13236 net.cpp:425] inception_4c/3x3 <- inception_4c/3x3_reduce
I0403 14:24:20.064059 13236 net.cpp:399] inception_4c/3x3 -> inception_4c/3x3
I0403 14:24:20.067689 13236 net.cpp:141] Setting up inception_4c/3x3
I0403 14:24:20.067739 13236 net.cpp:148] Top shape: 24 256 14 14 (1204224)
I0403 14:24:20.067755 13236 net.cpp:156] Memory required for data: 1042842912
I0403 14:24:20.067786 13236 layer_factory.hpp:77] Creating layer inception_4c/relu_3x3
I0403 14:24:20.067809 13236 net.cpp:91] Creating Layer inception_4c/relu_3x3
I0403 14:24:20.067824 13236 net.cpp:425] inception_4c/relu_3x3 <- inception_4c/3x3
I0403 14:24:20.067844 13236 net.cpp:386] inception_4c/relu_3x3 -> inception_4c/3x3 (in-place)
I0403 14:24:20.068022 13236 net.cpp:141] Setting up inception_4c/relu_3x3
I0403 14:24:20.068049 13236 net.cpp:148] Top shape: 24 256 14 14 (1204224)
I0403 14:24:20.068064 13236 net.cpp:156] Memory required for data: 1047659808
I0403 14:24:20.068079 13236 layer_factory.hpp:77] Creating layer inception_4c/5x5_reduce
I0403 14:24:20.068101 13236 net.cpp:91] Creating Layer inception_4c/5x5_reduce
I0403 14:24:20.068120 13236 net.cpp:425] inception_4c/5x5_reduce <- inception_4b/output_inception_4b/output_0_split_2
I0403 14:24:20.068140 13236 net.cpp:399] inception_4c/5x5_reduce -> inception_4c/5x5_reduce
I0403 14:24:20.069229 13236 net.cpp:141] Setting up inception_4c/5x5_reduce
I0403 14:24:20.069260 13236 net.cpp:148] Top shape: 24 24 14 14 (112896)
I0403 14:24:20.069278 13236 net.cpp:156] Memory required for data: 1048111392
I0403 14:24:20.069295 13236 layer_factory.hpp:77] Creating layer inception_4c/relu_5x5_reduce
I0403 14:24:20.069314 13236 net.cpp:91] Creating Layer inception_4c/relu_5x5_reduce
I0403 14:24:20.069330 13236 net.cpp:425] inception_4c/relu_5x5_reduce <- inception_4c/5x5_reduce
I0403 14:24:20.069350 13236 net.cpp:386] inception_4c/relu_5x5_reduce -> inception_4c/5x5_reduce (in-place)
I0403 14:24:20.069536 13236 net.cpp:141] Setting up inception_4c/relu_5x5_reduce
I0403 14:24:20.069562 13236 net.cpp:148] Top shape: 24 24 14 14 (112896)
I0403 14:24:20.069577 13236 net.cpp:156] Memory required for data: 1048562976
I0403 14:24:20.069591 13236 layer_factory.hpp:77] Creating layer inception_4c/5x5
I0403 14:24:20.069612 13236 net.cpp:91] Creating Layer inception_4c/5x5
I0403 14:24:20.069629 13236 net.cpp:425] inception_4c/5x5 <- inception_4c/5x5_reduce
I0403 14:24:20.069650 13236 net.cpp:399] inception_4c/5x5 -> inception_4c/5x5
I0403 14:24:20.070893 13236 net.cpp:141] Setting up inception_4c/5x5
I0403 14:24:20.070921 13236 net.cpp:148] Top shape: 24 64 14 14 (301056)
I0403 14:24:20.070937 13236 net.cpp:156] Memory required for data: 1049767200
I0403 14:24:20.070956 13236 layer_factory.hpp:77] Creating layer inception_4c/relu_5x5
I0403 14:24:20.070976 13236 net.cpp:91] Creating Layer inception_4c/relu_5x5
I0403 14:24:20.070994 13236 net.cpp:425] inception_4c/relu_5x5 <- inception_4c/5x5
I0403 14:24:20.071012 13236 net.cpp:386] inception_4c/relu_5x5 -> inception_4c/5x5 (in-place)
I0403 14:24:20.071305 13236 net.cpp:141] Setting up inception_4c/relu_5x5
I0403 14:24:20.071333 13236 net.cpp:148] Top shape: 24 64 14 14 (301056)
I0403 14:24:20.071348 13236 net.cpp:156] Memory required for data: 1050971424
I0403 14:24:20.071364 13236 layer_factory.hpp:77] Creating layer inception_4c/pool
I0403 14:24:20.071384 13236 net.cpp:91] Creating Layer inception_4c/pool
I0403 14:24:20.071401 13236 net.cpp:425] inception_4c/pool <- inception_4b/output_inception_4b/output_0_split_3
I0403 14:24:20.071419 13236 net.cpp:399] inception_4c/pool -> inception_4c/pool
I0403 14:24:20.071486 13236 net.cpp:141] Setting up inception_4c/pool
I0403 14:24:20.071516 13236 net.cpp:148] Top shape: 24 512 14 14 (2408448)
I0403 14:24:20.071534 13236 net.cpp:156] Memory required for data: 1060605216
I0403 14:24:20.071549 13236 layer_factory.hpp:77] Creating layer inception_4c/pool_proj
I0403 14:24:20.071573 13236 net.cpp:91] Creating Layer inception_4c/pool_proj
I0403 14:24:20.071591 13236 net.cpp:425] inception_4c/pool_proj <- inception_4c/pool
I0403 14:24:20.071614 13236 net.cpp:399] inception_4c/pool_proj -> inception_4c/pool_proj
I0403 14:24:20.072881 13236 net.cpp:141] Setting up inception_4c/pool_proj
I0403 14:24:20.072912 13236 net.cpp:148] Top shape: 24 64 14 14 (301056)
I0403 14:24:20.072942 13236 net.cpp:156] Memory required for data: 1061809440
I0403 14:24:20.072962 13236 layer_factory.hpp:77] Creating layer inception_4c/relu_pool_proj
I0403 14:24:20.072980 13236 net.cpp:91] Creating Layer inception_4c/relu_pool_proj
I0403 14:24:20.072996 13236 net.cpp:425] inception_4c/relu_pool_proj <- inception_4c/pool_proj
I0403 14:24:20.073016 13236 net.cpp:386] inception_4c/relu_pool_proj -> inception_4c/pool_proj (in-place)
I0403 14:24:20.073199 13236 net.cpp:141] Setting up inception_4c/relu_pool_proj
I0403 14:24:20.073225 13236 net.cpp:148] Top shape: 24 64 14 14 (301056)
I0403 14:24:20.073240 13236 net.cpp:156] Memory required for data: 1063013664
I0403 14:24:20.073253 13236 layer_factory.hpp:77] Creating layer inception_4c/output
I0403 14:24:20.073271 13236 net.cpp:91] Creating Layer inception_4c/output
I0403 14:24:20.073285 13236 net.cpp:425] inception_4c/output <- inception_4c/1x1
I0403 14:24:20.073312 13236 net.cpp:425] inception_4c/output <- inception_4c/3x3
I0403 14:24:20.073330 13236 net.cpp:425] inception_4c/output <- inception_4c/5x5
I0403 14:24:20.073346 13236 net.cpp:425] inception_4c/output <- inception_4c/pool_proj
I0403 14:24:20.073364 13236 net.cpp:399] inception_4c/output -> inception_4c/output
I0403 14:24:20.073408 13236 net.cpp:141] Setting up inception_4c/output
I0403 14:24:20.073434 13236 net.cpp:148] Top shape: 24 512 14 14 (2408448)
I0403 14:24:20.073449 13236 net.cpp:156] Memory required for data: 1072647456
I0403 14:24:20.073463 13236 layer_factory.hpp:77] Creating layer inception_4c/output_inception_4c/output_0_split
I0403 14:24:20.073480 13236 net.cpp:91] Creating Layer inception_4c/output_inception_4c/output_0_split
I0403 14:24:20.073495 13236 net.cpp:425] inception_4c/output_inception_4c/output_0_split <- inception_4c/output
I0403 14:24:20.073520 13236 net.cpp:399] inception_4c/output_inception_4c/output_0_split -> inception_4c/output_inception_4c/output_0_split_0
I0403 14:24:20.073542 13236 net.cpp:399] inception_4c/output_inception_4c/output_0_split -> inception_4c/output_inception_4c/output_0_split_1
I0403 14:24:20.073561 13236 net.cpp:399] inception_4c/output_inception_4c/output_0_split -> inception_4c/output_inception_4c/output_0_split_2
I0403 14:24:20.073582 13236 net.cpp:399] inception_4c/output_inception_4c/output_0_split -> inception_4c/output_inception_4c/output_0_split_3
I0403 14:24:20.073667 13236 net.cpp:141] Setting up inception_4c/output_inception_4c/output_0_split
I0403 14:24:20.073693 13236 net.cpp:148] Top shape: 24 512 14 14 (2408448)
I0403 14:24:20.073710 13236 net.cpp:148] Top shape: 24 512 14 14 (2408448)
I0403 14:24:20.073725 13236 net.cpp:148] Top shape: 24 512 14 14 (2408448)
I0403 14:24:20.073740 13236 net.cpp:148] Top shape: 24 512 14 14 (2408448)
I0403 14:24:20.073753 13236 net.cpp:156] Memory required for data: 1111182624
I0403 14:24:20.073768 13236 layer_factory.hpp:77] Creating layer inception_4d/1x1
I0403 14:24:20.073787 13236 net.cpp:91] Creating Layer inception_4d/1x1
I0403 14:24:20.073802 13236 net.cpp:425] inception_4d/1x1 <- inception_4c/output_inception_4c/output_0_split_0
I0403 14:24:20.073823 13236 net.cpp:399] inception_4d/1x1 -> inception_4d/1x1
I0403 14:24:20.075295 13236 net.cpp:141] Setting up inception_4d/1x1
I0403 14:24:20.075325 13236 net.cpp:148] Top shape: 24 112 14 14 (526848)
I0403 14:24:20.075341 13236 net.cpp:156] Memory required for data: 1113290016
I0403 14:24:20.075359 13236 layer_factory.hpp:77] Creating layer inception_4d/relu_1x1
I0403 14:24:20.075384 13236 net.cpp:91] Creating Layer inception_4d/relu_1x1
I0403 14:24:20.075402 13236 net.cpp:425] inception_4d/relu_1x1 <- inception_4d/1x1
I0403 14:24:20.075418 13236 net.cpp:386] inception_4d/relu_1x1 -> inception_4d/1x1 (in-place)
I0403 14:24:20.075608 13236 net.cpp:141] Setting up inception_4d/relu_1x1
I0403 14:24:20.075635 13236 net.cpp:148] Top shape: 24 112 14 14 (526848)
I0403 14:24:20.075650 13236 net.cpp:156] Memory required for data: 1115397408
I0403 14:24:20.075665 13236 layer_factory.hpp:77] Creating layer inception_4d/3x3_reduce
I0403 14:24:20.075701 13236 net.cpp:91] Creating Layer inception_4d/3x3_reduce
I0403 14:24:20.075719 13236 net.cpp:425] inception_4d/3x3_reduce <- inception_4c/output_inception_4c/output_0_split_1
I0403 14:24:20.075739 13236 net.cpp:399] inception_4d/3x3_reduce -> inception_4d/3x3_reduce
I0403 14:24:20.077250 13236 net.cpp:141] Setting up inception_4d/3x3_reduce
I0403 14:24:20.077280 13236 net.cpp:148] Top shape: 24 144 14 14 (677376)
I0403 14:24:20.077296 13236 net.cpp:156] Memory required for data: 1118106912
I0403 14:24:20.077314 13236 layer_factory.hpp:77] Creating layer inception_4d/relu_3x3_reduce
I0403 14:24:20.077335 13236 net.cpp:91] Creating Layer inception_4d/relu_3x3_reduce
I0403 14:24:20.077353 13236 net.cpp:425] inception_4d/relu_3x3_reduce <- inception_4d/3x3_reduce
I0403 14:24:20.077370 13236 net.cpp:386] inception_4d/relu_3x3_reduce -> inception_4d/3x3_reduce (in-place)
I0403 14:24:20.077662 13236 net.cpp:141] Setting up inception_4d/relu_3x3_reduce
I0403 14:24:20.077689 13236 net.cpp:148] Top shape: 24 144 14 14 (677376)
I0403 14:24:20.077705 13236 net.cpp:156] Memory required for data: 1120816416
I0403 14:24:20.077719 13236 layer_factory.hpp:77] Creating layer inception_4d/3x3
I0403 14:24:20.077744 13236 net.cpp:91] Creating Layer inception_4d/3x3
I0403 14:24:20.077761 13236 net.cpp:425] inception_4d/3x3 <- inception_4d/3x3_reduce
I0403 14:24:20.077785 13236 net.cpp:399] inception_4d/3x3 -> inception_4d/3x3
I0403 14:24:20.082072 13236 net.cpp:141] Setting up inception_4d/3x3
I0403 14:24:20.082101 13236 net.cpp:148] Top shape: 24 288 14 14 (1354752)
I0403 14:24:20.082118 13236 net.cpp:156] Memory required for data: 1126235424
I0403 14:24:20.082135 13236 layer_factory.hpp:77] Creating layer inception_4d/relu_3x3
I0403 14:24:20.082156 13236 net.cpp:91] Creating Layer inception_4d/relu_3x3
I0403 14:24:20.082172 13236 net.cpp:425] inception_4d/relu_3x3 <- inception_4d/3x3
I0403 14:24:20.082190 13236 net.cpp:386] inception_4d/relu_3x3 -> inception_4d/3x3 (in-place)
I0403 14:24:20.082373 13236 net.cpp:141] Setting up inception_4d/relu_3x3
I0403 14:24:20.082398 13236 net.cpp:148] Top shape: 24 288 14 14 (1354752)
I0403 14:24:20.082413 13236 net.cpp:156] Memory required for data: 1131654432
I0403 14:24:20.082427 13236 layer_factory.hpp:77] Creating layer inception_4d/5x5_reduce
I0403 14:24:20.082449 13236 net.cpp:91] Creating Layer inception_4d/5x5_reduce
I0403 14:24:20.082468 13236 net.cpp:425] inception_4d/5x5_reduce <- inception_4c/output_inception_4c/output_0_split_2
I0403 14:24:20.082489 13236 net.cpp:399] inception_4d/5x5_reduce -> inception_4d/5x5_reduce
I0403 14:24:20.083642 13236 net.cpp:141] Setting up inception_4d/5x5_reduce
I0403 14:24:20.083673 13236 net.cpp:148] Top shape: 24 32 14 14 (150528)
I0403 14:24:20.083690 13236 net.cpp:156] Memory required for data: 1132256544
I0403 14:24:20.083709 13236 layer_factory.hpp:77] Creating layer inception_4d/relu_5x5_reduce
I0403 14:24:20.083727 13236 net.cpp:91] Creating Layer inception_4d/relu_5x5_reduce
I0403 14:24:20.083745 13236 net.cpp:425] inception_4d/relu_5x5_reduce <- inception_4d/5x5_reduce
I0403 14:24:20.083760 13236 net.cpp:386] inception_4d/relu_5x5_reduce -> inception_4d/5x5_reduce (in-place)
I0403 14:24:20.083950 13236 net.cpp:141] Setting up inception_4d/relu_5x5_reduce
I0403 14:24:20.083978 13236 net.cpp:148] Top shape: 24 32 14 14 (150528)
I0403 14:24:20.083994 13236 net.cpp:156] Memory required for data: 1132858656
I0403 14:24:20.084010 13236 layer_factory.hpp:77] Creating layer inception_4d/5x5
I0403 14:24:20.084033 13236 net.cpp:91] Creating Layer inception_4d/5x5
I0403 14:24:20.084049 13236 net.cpp:425] inception_4d/5x5 <- inception_4d/5x5_reduce
I0403 14:24:20.084069 13236 net.cpp:399] inception_4d/5x5 -> inception_4d/5x5
I0403 14:24:20.085575 13236 net.cpp:141] Setting up inception_4d/5x5
I0403 14:24:20.085604 13236 net.cpp:148] Top shape: 24 64 14 14 (301056)
I0403 14:24:20.085620 13236 net.cpp:156] Memory required for data: 1134062880
I0403 14:24:20.085640 13236 layer_factory.hpp:77] Creating layer inception_4d/relu_5x5
I0403 14:24:20.085674 13236 net.cpp:91] Creating Layer inception_4d/relu_5x5
I0403 14:24:20.085697 13236 net.cpp:425] inception_4d/relu_5x5 <- inception_4d/5x5
I0403 14:24:20.085716 13236 net.cpp:386] inception_4d/relu_5x5 -> inception_4d/5x5 (in-place)
I0403 14:24:20.086017 13236 net.cpp:141] Setting up inception_4d/relu_5x5
I0403 14:24:20.086045 13236 net.cpp:148] Top shape: 24 64 14 14 (301056)
I0403 14:24:20.086061 13236 net.cpp:156] Memory required for data: 1135267104
I0403 14:24:20.086076 13236 layer_factory.hpp:77] Creating layer inception_4d/pool
I0403 14:24:20.086094 13236 net.cpp:91] Creating Layer inception_4d/pool
I0403 14:24:20.086110 13236 net.cpp:425] inception_4d/pool <- inception_4c/output_inception_4c/output_0_split_3
I0403 14:24:20.086134 13236 net.cpp:399] inception_4d/pool -> inception_4d/pool
I0403 14:24:20.086200 13236 net.cpp:141] Setting up inception_4d/pool
I0403 14:24:20.086227 13236 net.cpp:148] Top shape: 24 512 14 14 (2408448)
I0403 14:24:20.086242 13236 net.cpp:156] Memory required for data: 1144900896
I0403 14:24:20.086257 13236 layer_factory.hpp:77] Creating layer inception_4d/pool_proj
I0403 14:24:20.086278 13236 net.cpp:91] Creating Layer inception_4d/pool_proj
I0403 14:24:20.086297 13236 net.cpp:425] inception_4d/pool_proj <- inception_4d/pool
I0403 14:24:20.086314 13236 net.cpp:399] inception_4d/pool_proj -> inception_4d/pool_proj
I0403 14:24:20.088102 13236 net.cpp:141] Setting up inception_4d/pool_proj
I0403 14:24:20.088132 13236 net.cpp:148] Top shape: 24 64 14 14 (301056)
I0403 14:24:20.088150 13236 net.cpp:156] Memory required for data: 1146105120
I0403 14:24:20.088167 13236 layer_factory.hpp:77] Creating layer inception_4d/relu_pool_proj
I0403 14:24:20.088189 13236 net.cpp:91] Creating Layer inception_4d/relu_pool_proj
I0403 14:24:20.088207 13236 net.cpp:425] inception_4d/relu_pool_proj <- inception_4d/pool_proj
I0403 14:24:20.088224 13236 net.cpp:386] inception_4d/relu_pool_proj -> inception_4d/pool_proj (in-place)
I0403 14:24:20.088410 13236 net.cpp:141] Setting up inception_4d/relu_pool_proj
I0403 14:24:20.088436 13236 net.cpp:148] Top shape: 24 64 14 14 (301056)
I0403 14:24:20.088451 13236 net.cpp:156] Memory required for data: 1147309344
I0403 14:24:20.088466 13236 layer_factory.hpp:77] Creating layer inception_4d/output
I0403 14:24:20.088484 13236 net.cpp:91] Creating Layer inception_4d/output
I0403 14:24:20.088500 13236 net.cpp:425] inception_4d/output <- inception_4d/1x1
I0403 14:24:20.088524 13236 net.cpp:425] inception_4d/output <- inception_4d/3x3
I0403 14:24:20.088541 13236 net.cpp:425] inception_4d/output <- inception_4d/5x5
I0403 14:24:20.088557 13236 net.cpp:425] inception_4d/output <- inception_4d/pool_proj
I0403 14:24:20.088585 13236 net.cpp:399] inception_4d/output -> inception_4d/output
I0403 14:24:20.088634 13236 net.cpp:141] Setting up inception_4d/output
I0403 14:24:20.088661 13236 net.cpp:148] Top shape: 24 528 14 14 (2483712)
I0403 14:24:20.088677 13236 net.cpp:156] Memory required for data: 1157244192
I0403 14:24:20.088692 13236 layer_factory.hpp:77] Creating layer inception_4d/output_inception_4d/output_0_split
I0403 14:24:20.088711 13236 net.cpp:91] Creating Layer inception_4d/output_inception_4d/output_0_split
I0403 14:24:20.088726 13236 net.cpp:425] inception_4d/output_inception_4d/output_0_split <- inception_4d/output
I0403 14:24:20.088744 13236 net.cpp:399] inception_4d/output_inception_4d/output_0_split -> inception_4d/output_inception_4d/output_0_split_0
I0403 14:24:20.088767 13236 net.cpp:399] inception_4d/output_inception_4d/output_0_split -> inception_4d/output_inception_4d/output_0_split_1
I0403 14:24:20.088788 13236 net.cpp:399] inception_4d/output_inception_4d/output_0_split -> inception_4d/output_inception_4d/output_0_split_2
I0403 14:24:20.088809 13236 net.cpp:399] inception_4d/output_inception_4d/output_0_split -> inception_4d/output_inception_4d/output_0_split_3
I0403 14:24:20.088827 13236 net.cpp:399] inception_4d/output_inception_4d/output_0_split -> inception_4d/output_inception_4d/output_0_split_4
I0403 14:24:20.088934 13236 net.cpp:141] Setting up inception_4d/output_inception_4d/output_0_split
I0403 14:24:20.088971 13236 net.cpp:148] Top shape: 24 528 14 14 (2483712)
I0403 14:24:20.088987 13236 net.cpp:148] Top shape: 24 528 14 14 (2483712)
I0403 14:24:20.089004 13236 net.cpp:148] Top shape: 24 528 14 14 (2483712)
I0403 14:24:20.089018 13236 net.cpp:148] Top shape: 24 528 14 14 (2483712)
I0403 14:24:20.089032 13236 net.cpp:148] Top shape: 24 528 14 14 (2483712)
I0403 14:24:20.089046 13236 net.cpp:156] Memory required for data: 1206918432
I0403 14:24:20.089059 13236 layer_factory.hpp:77] Creating layer loss2/ave_pool
I0403 14:24:20.089079 13236 net.cpp:91] Creating Layer loss2/ave_pool
I0403 14:24:20.089097 13236 net.cpp:425] loss2/ave_pool <- inception_4d/output_inception_4d/output_0_split_0
I0403 14:24:20.089114 13236 net.cpp:399] loss2/ave_pool -> loss2/ave_pool
I0403 14:24:20.089429 13236 net.cpp:141] Setting up loss2/ave_pool
I0403 14:24:20.089457 13236 net.cpp:148] Top shape: 24 528 4 4 (202752)
I0403 14:24:20.089471 13236 net.cpp:156] Memory required for data: 1207729440
I0403 14:24:20.089485 13236 layer_factory.hpp:77] Creating layer loss2/conv
I0403 14:24:20.089517 13236 net.cpp:91] Creating Layer loss2/conv
I0403 14:24:20.089540 13236 net.cpp:425] loss2/conv <- loss2/ave_pool
I0403 14:24:20.089571 13236 net.cpp:399] loss2/conv -> loss2/conv
I0403 14:24:20.091490 13236 net.cpp:141] Setting up loss2/conv
I0403 14:24:20.091526 13236 net.cpp:148] Top shape: 24 128 4 4 (49152)
I0403 14:24:20.091544 13236 net.cpp:156] Memory required for data: 1207926048
I0403 14:24:20.091563 13236 layer_factory.hpp:77] Creating layer loss2/relu_conv
I0403 14:24:20.091583 13236 net.cpp:91] Creating Layer loss2/relu_conv
I0403 14:24:20.091599 13236 net.cpp:425] loss2/relu_conv <- loss2/conv
I0403 14:24:20.091619 13236 net.cpp:386] loss2/relu_conv -> loss2/conv (in-place)
I0403 14:24:20.091907 13236 net.cpp:141] Setting up loss2/relu_conv
I0403 14:24:20.091934 13236 net.cpp:148] Top shape: 24 128 4 4 (49152)
I0403 14:24:20.091949 13236 net.cpp:156] Memory required for data: 1208122656
I0403 14:24:20.091964 13236 layer_factory.hpp:77] Creating layer loss2/fc
I0403 14:24:20.091982 13236 net.cpp:91] Creating Layer loss2/fc
I0403 14:24:20.091998 13236 net.cpp:425] loss2/fc <- loss2/conv
I0403 14:24:20.092020 13236 net.cpp:399] loss2/fc -> loss2/fc
I0403 14:24:20.109577 13236 net.cpp:141] Setting up loss2/fc
I0403 14:24:20.109618 13236 net.cpp:148] Top shape: 24 1024 (24576)
I0403 14:24:20.109633 13236 net.cpp:156] Memory required for data: 1208220960
I0403 14:24:20.109650 13236 layer_factory.hpp:77] Creating layer loss2/relu_fc
I0403 14:24:20.109668 13236 net.cpp:91] Creating Layer loss2/relu_fc
I0403 14:24:20.109684 13236 net.cpp:425] loss2/relu_fc <- loss2/fc
I0403 14:24:20.109701 13236 net.cpp:386] loss2/relu_fc -> loss2/fc (in-place)
I0403 14:24:20.110010 13236 net.cpp:141] Setting up loss2/relu_fc
I0403 14:24:20.110038 13236 net.cpp:148] Top shape: 24 1024 (24576)
I0403 14:24:20.110054 13236 net.cpp:156] Memory required for data: 1208319264
I0403 14:24:20.110069 13236 layer_factory.hpp:77] Creating layer loss2/drop_fc
I0403 14:24:20.110086 13236 net.cpp:91] Creating Layer loss2/drop_fc
I0403 14:24:20.110101 13236 net.cpp:425] loss2/drop_fc <- loss2/fc
I0403 14:24:20.110118 13236 net.cpp:386] loss2/drop_fc -> loss2/fc (in-place)
I0403 14:24:20.110168 13236 net.cpp:141] Setting up loss2/drop_fc
I0403 14:24:20.110190 13236 net.cpp:148] Top shape: 24 1024 (24576)
I0403 14:24:20.110204 13236 net.cpp:156] Memory required for data: 1208417568
I0403 14:24:20.110219 13236 layer_factory.hpp:77] Creating layer loss2/classifier_plantvillage
I0403 14:24:20.110237 13236 net.cpp:91] Creating Layer loss2/classifier_plantvillage
I0403 14:24:20.110254 13236 net.cpp:425] loss2/classifier_plantvillage <- loss2/fc
I0403 14:24:20.110270 13236 net.cpp:399] loss2/classifier_plantvillage -> loss2/classifier_plantvillage
I0403 14:24:20.110676 13236 net.cpp:141] Setting up loss2/classifier_plantvillage
I0403 14:24:20.110699 13236 net.cpp:148] Top shape: 24 38 (912)
I0403 14:24:20.110730 13236 net.cpp:156] Memory required for data: 1208421216
I0403 14:24:20.110749 13236 layer_factory.hpp:77] Creating layer loss2/classifier_plantvillage_loss2/classifier_plantvillage_0_split
I0403 14:24:20.110766 13236 net.cpp:91] Creating Layer loss2/classifier_plantvillage_loss2/classifier_plantvillage_0_split
I0403 14:24:20.110781 13236 net.cpp:425] loss2/classifier_plantvillage_loss2/classifier_plantvillage_0_split <- loss2/classifier_plantvillage
I0403 14:24:20.110800 13236 net.cpp:399] loss2/classifier_plantvillage_loss2/classifier_plantvillage_0_split -> loss2/classifier_plantvillage_loss2/classifier_plantvillage_0_split_0
I0403 14:24:20.110821 13236 net.cpp:399] loss2/classifier_plantvillage_loss2/classifier_plantvillage_0_split -> loss2/classifier_plantvillage_loss2/classifier_plantvillage_0_split_1
I0403 14:24:20.110841 13236 net.cpp:399] loss2/classifier_plantvillage_loss2/classifier_plantvillage_0_split -> loss2/classifier_plantvillage_loss2/classifier_plantvillage_0_split_2
I0403 14:24:20.110918 13236 net.cpp:141] Setting up loss2/classifier_plantvillage_loss2/classifier_plantvillage_0_split
I0403 14:24:20.110941 13236 net.cpp:148] Top shape: 24 38 (912)
I0403 14:24:20.110956 13236 net.cpp:148] Top shape: 24 38 (912)
I0403 14:24:20.110970 13236 net.cpp:148] Top shape: 24 38 (912)
I0403 14:24:20.110983 13236 net.cpp:156] Memory required for data: 1208432160
I0403 14:24:20.110997 13236 layer_factory.hpp:77] Creating layer inception_4e/1x1
I0403 14:24:20.111019 13236 net.cpp:91] Creating Layer inception_4e/1x1
I0403 14:24:20.111037 13236 net.cpp:425] inception_4e/1x1 <- inception_4d/output_inception_4d/output_0_split_1
I0403 14:24:20.111053 13236 net.cpp:399] inception_4e/1x1 -> inception_4e/1x1
I0403 14:24:20.113034 13236 net.cpp:141] Setting up inception_4e/1x1
I0403 14:24:20.113065 13236 net.cpp:148] Top shape: 24 256 14 14 (1204224)
I0403 14:24:20.113080 13236 net.cpp:156] Memory required for data: 1213249056
I0403 14:24:20.113100 13236 layer_factory.hpp:77] Creating layer inception_4e/relu_1x1
I0403 14:24:20.113119 13236 net.cpp:91] Creating Layer inception_4e/relu_1x1
I0403 14:24:20.113138 13236 net.cpp:425] inception_4e/relu_1x1 <- inception_4e/1x1
I0403 14:24:20.113155 13236 net.cpp:386] inception_4e/relu_1x1 -> inception_4e/1x1 (in-place)
I0403 14:24:20.113467 13236 net.cpp:141] Setting up inception_4e/relu_1x1
I0403 14:24:20.113492 13236 net.cpp:148] Top shape: 24 256 14 14 (1204224)
I0403 14:24:20.113512 13236 net.cpp:156] Memory required for data: 1218065952
I0403 14:24:20.113528 13236 layer_factory.hpp:77] Creating layer inception_4e/3x3_reduce
I0403 14:24:20.113549 13236 net.cpp:91] Creating Layer inception_4e/3x3_reduce
I0403 14:24:20.113566 13236 net.cpp:425] inception_4e/3x3_reduce <- inception_4d/output_inception_4d/output_0_split_2
I0403 14:24:20.113591 13236 net.cpp:399] inception_4e/3x3_reduce -> inception_4e/3x3_reduce
I0403 14:24:20.115685 13236 net.cpp:141] Setting up inception_4e/3x3_reduce
I0403 14:24:20.115713 13236 net.cpp:148] Top shape: 24 160 14 14 (752640)
I0403 14:24:20.115730 13236 net.cpp:156] Memory required for data: 1221076512
I0403 14:24:20.115747 13236 layer_factory.hpp:77] Creating layer inception_4e/relu_3x3_reduce
I0403 14:24:20.115767 13236 net.cpp:91] Creating Layer inception_4e/relu_3x3_reduce
I0403 14:24:20.115782 13236 net.cpp:425] inception_4e/relu_3x3_reduce <- inception_4e/3x3_reduce
I0403 14:24:20.115803 13236 net.cpp:386] inception_4e/relu_3x3_reduce -> inception_4e/3x3_reduce (in-place)
I0403 14:24:20.115983 13236 net.cpp:141] Setting up inception_4e/relu_3x3_reduce
I0403 14:24:20.116008 13236 net.cpp:148] Top shape: 24 160 14 14 (752640)
I0403 14:24:20.116022 13236 net.cpp:156] Memory required for data: 1224087072
I0403 14:24:20.116035 13236 layer_factory.hpp:77] Creating layer inception_4e/3x3
I0403 14:24:20.116056 13236 net.cpp:91] Creating Layer inception_4e/3x3
I0403 14:24:20.116073 13236 net.cpp:425] inception_4e/3x3 <- inception_4e/3x3_reduce
I0403 14:24:20.116093 13236 net.cpp:399] inception_4e/3x3 -> inception_4e/3x3
I0403 14:24:20.121013 13236 net.cpp:141] Setting up inception_4e/3x3
I0403 14:24:20.121055 13236 net.cpp:148] Top shape: 24 320 14 14 (1505280)
I0403 14:24:20.121071 13236 net.cpp:156] Memory required for data: 1230108192
I0403 14:24:20.121088 13236 layer_factory.hpp:77] Creating layer inception_4e/relu_3x3
I0403 14:24:20.121109 13236 net.cpp:91] Creating Layer inception_4e/relu_3x3
I0403 14:24:20.121124 13236 net.cpp:425] inception_4e/relu_3x3 <- inception_4e/3x3
I0403 14:24:20.121141 13236 net.cpp:386] inception_4e/relu_3x3 -> inception_4e/3x3 (in-place)
I0403 14:24:20.121433 13236 net.cpp:141] Setting up inception_4e/relu_3x3
I0403 14:24:20.121459 13236 net.cpp:148] Top shape: 24 320 14 14 (1505280)
I0403 14:24:20.121476 13236 net.cpp:156] Memory required for data: 1236129312
I0403 14:24:20.121490 13236 layer_factory.hpp:77] Creating layer inception_4e/5x5_reduce
I0403 14:24:20.121515 13236 net.cpp:91] Creating Layer inception_4e/5x5_reduce
I0403 14:24:20.121532 13236 net.cpp:425] inception_4e/5x5_reduce <- inception_4d/output_inception_4d/output_0_split_3
I0403 14:24:20.121554 13236 net.cpp:399] inception_4e/5x5_reduce -> inception_4e/5x5_reduce
I0403 14:24:20.122607 13236 net.cpp:141] Setting up inception_4e/5x5_reduce
I0403 14:24:20.122635 13236 net.cpp:148] Top shape: 24 32 14 14 (150528)
I0403 14:24:20.122650 13236 net.cpp:156] Memory required for data: 1236731424
I0403 14:24:20.122669 13236 layer_factory.hpp:77] Creating layer inception_4e/relu_5x5_reduce
I0403 14:24:20.122686 13236 net.cpp:91] Creating Layer inception_4e/relu_5x5_reduce
I0403 14:24:20.122701 13236 net.cpp:425] inception_4e/relu_5x5_reduce <- inception_4e/5x5_reduce
I0403 14:24:20.122723 13236 net.cpp:386] inception_4e/relu_5x5_reduce -> inception_4e/5x5_reduce (in-place)
I0403 14:24:20.123014 13236 net.cpp:141] Setting up inception_4e/relu_5x5_reduce
I0403 14:24:20.123039 13236 net.cpp:148] Top shape: 24 32 14 14 (150528)
I0403 14:24:20.123055 13236 net.cpp:156] Memory required for data: 1237333536
I0403 14:24:20.123070 13236 layer_factory.hpp:77] Creating layer inception_4e/5x5
I0403 14:24:20.123106 13236 net.cpp:91] Creating Layer inception_4e/5x5
I0403 14:24:20.123126 13236 net.cpp:425] inception_4e/5x5 <- inception_4e/5x5_reduce
I0403 14:24:20.123144 13236 net.cpp:399] inception_4e/5x5 -> inception_4e/5x5
I0403 14:24:20.124976 13236 net.cpp:141] Setting up inception_4e/5x5
I0403 14:24:20.125006 13236 net.cpp:148] Top shape: 24 128 14 14 (602112)
I0403 14:24:20.125022 13236 net.cpp:156] Memory required for data: 1239741984
I0403 14:24:20.125041 13236 layer_factory.hpp:77] Creating layer inception_4e/relu_5x5
I0403 14:24:20.125058 13236 net.cpp:91] Creating Layer inception_4e/relu_5x5
I0403 14:24:20.125073 13236 net.cpp:425] inception_4e/relu_5x5 <- inception_4e/5x5
I0403 14:24:20.125092 13236 net.cpp:386] inception_4e/relu_5x5 -> inception_4e/5x5 (in-place)
I0403 14:24:20.125282 13236 net.cpp:141] Setting up inception_4e/relu_5x5
I0403 14:24:20.125306 13236 net.cpp:148] Top shape: 24 128 14 14 (602112)
I0403 14:24:20.125320 13236 net.cpp:156] Memory required for data: 1242150432
I0403 14:24:20.125334 13236 layer_factory.hpp:77] Creating layer inception_4e/pool
I0403 14:24:20.125351 13236 net.cpp:91] Creating Layer inception_4e/pool
I0403 14:24:20.125367 13236 net.cpp:425] inception_4e/pool <- inception_4d/output_inception_4d/output_0_split_4
I0403 14:24:20.125386 13236 net.cpp:399] inception_4e/pool -> inception_4e/pool
I0403 14:24:20.125455 13236 net.cpp:141] Setting up inception_4e/pool
I0403 14:24:20.125478 13236 net.cpp:148] Top shape: 24 528 14 14 (2483712)
I0403 14:24:20.125493 13236 net.cpp:156] Memory required for data: 1252085280
I0403 14:24:20.125511 13236 layer_factory.hpp:77] Creating layer inception_4e/pool_proj
I0403 14:24:20.125535 13236 net.cpp:91] Creating Layer inception_4e/pool_proj
I0403 14:24:20.125553 13236 net.cpp:425] inception_4e/pool_proj <- inception_4e/pool
I0403 14:24:20.125571 13236 net.cpp:399] inception_4e/pool_proj -> inception_4e/pool_proj
I0403 14:24:20.127034 13236 net.cpp:141] Setting up inception_4e/pool_proj
I0403 14:24:20.127074 13236 net.cpp:148] Top shape: 24 128 14 14 (602112)
I0403 14:24:20.127090 13236 net.cpp:156] Memory required for data: 1254493728
I0403 14:24:20.127115 13236 layer_factory.hpp:77] Creating layer inception_4e/relu_pool_proj
I0403 14:24:20.127133 13236 net.cpp:91] Creating Layer inception_4e/relu_pool_proj
I0403 14:24:20.127151 13236 net.cpp:425] inception_4e/relu_pool_proj <- inception_4e/pool_proj
I0403 14:24:20.127167 13236 net.cpp:386] inception_4e/relu_pool_proj -> inception_4e/pool_proj (in-place)
I0403 14:24:20.127456 13236 net.cpp:141] Setting up inception_4e/relu_pool_proj
I0403 14:24:20.127481 13236 net.cpp:148] Top shape: 24 128 14 14 (602112)
I0403 14:24:20.127496 13236 net.cpp:156] Memory required for data: 1256902176
I0403 14:24:20.127516 13236 layer_factory.hpp:77] Creating layer inception_4e/output
I0403 14:24:20.127537 13236 net.cpp:91] Creating Layer inception_4e/output
I0403 14:24:20.127553 13236 net.cpp:425] inception_4e/output <- inception_4e/1x1
I0403 14:24:20.127569 13236 net.cpp:425] inception_4e/output <- inception_4e/3x3
I0403 14:24:20.127584 13236 net.cpp:425] inception_4e/output <- inception_4e/5x5
I0403 14:24:20.127599 13236 net.cpp:425] inception_4e/output <- inception_4e/pool_proj
I0403 14:24:20.127615 13236 net.cpp:399] inception_4e/output -> inception_4e/output
I0403 14:24:20.127665 13236 net.cpp:141] Setting up inception_4e/output
I0403 14:24:20.127688 13236 net.cpp:148] Top shape: 24 832 14 14 (3913728)
I0403 14:24:20.127702 13236 net.cpp:156] Memory required for data: 1272557088
I0403 14:24:20.127717 13236 layer_factory.hpp:77] Creating layer pool4/3x3_s2
I0403 14:24:20.127735 13236 net.cpp:91] Creating Layer pool4/3x3_s2
I0403 14:24:20.127751 13236 net.cpp:425] pool4/3x3_s2 <- inception_4e/output
I0403 14:24:20.127768 13236 net.cpp:399] pool4/3x3_s2 -> pool4/3x3_s2
I0403 14:24:20.127836 13236 net.cpp:141] Setting up pool4/3x3_s2
I0403 14:24:20.127859 13236 net.cpp:148] Top shape: 24 832 7 7 (978432)
I0403 14:24:20.127872 13236 net.cpp:156] Memory required for data: 1276470816
I0403 14:24:20.127887 13236 layer_factory.hpp:77] Creating layer pool4/3x3_s2_pool4/3x3_s2_0_split
I0403 14:24:20.127902 13236 net.cpp:91] Creating Layer pool4/3x3_s2_pool4/3x3_s2_0_split
I0403 14:24:20.127918 13236 net.cpp:425] pool4/3x3_s2_pool4/3x3_s2_0_split <- pool4/3x3_s2
I0403 14:24:20.127935 13236 net.cpp:399] pool4/3x3_s2_pool4/3x3_s2_0_split -> pool4/3x3_s2_pool4/3x3_s2_0_split_0
I0403 14:24:20.127956 13236 net.cpp:399] pool4/3x3_s2_pool4/3x3_s2_0_split -> pool4/3x3_s2_pool4/3x3_s2_0_split_1
I0403 14:24:20.127976 13236 net.cpp:399] pool4/3x3_s2_pool4/3x3_s2_0_split -> pool4/3x3_s2_pool4/3x3_s2_0_split_2
I0403 14:24:20.127995 13236 net.cpp:399] pool4/3x3_s2_pool4/3x3_s2_0_split -> pool4/3x3_s2_pool4/3x3_s2_0_split_3
I0403 14:24:20.128082 13236 net.cpp:141] Setting up pool4/3x3_s2_pool4/3x3_s2_0_split
I0403 14:24:20.128106 13236 net.cpp:148] Top shape: 24 832 7 7 (978432)
I0403 14:24:20.128123 13236 net.cpp:148] Top shape: 24 832 7 7 (978432)
I0403 14:24:20.128137 13236 net.cpp:148] Top shape: 24 832 7 7 (978432)
I0403 14:24:20.128151 13236 net.cpp:148] Top shape: 24 832 7 7 (978432)
I0403 14:24:20.128165 13236 net.cpp:156] Memory required for data: 1292125728
I0403 14:24:20.128178 13236 layer_factory.hpp:77] Creating layer inception_5a/1x1
I0403 14:24:20.128198 13236 net.cpp:91] Creating Layer inception_5a/1x1
I0403 14:24:20.128216 13236 net.cpp:425] inception_5a/1x1 <- pool4/3x3_s2_pool4/3x3_s2_0_split_0
I0403 14:24:20.128233 13236 net.cpp:399] inception_5a/1x1 -> inception_5a/1x1
I0403 14:24:20.131048 13236 net.cpp:141] Setting up inception_5a/1x1
I0403 14:24:20.131078 13236 net.cpp:148] Top shape: 24 256 7 7 (301056)
I0403 14:24:20.131094 13236 net.cpp:156] Memory required for data: 1293329952
I0403 14:24:20.131111 13236 layer_factory.hpp:77] Creating layer inception_5a/relu_1x1
I0403 14:24:20.131129 13236 net.cpp:91] Creating Layer inception_5a/relu_1x1
I0403 14:24:20.131145 13236 net.cpp:425] inception_5a/relu_1x1 <- inception_5a/1x1
I0403 14:24:20.131165 13236 net.cpp:386] inception_5a/relu_1x1 -> inception_5a/1x1 (in-place)
I0403 14:24:20.131471 13236 net.cpp:141] Setting up inception_5a/relu_1x1
I0403 14:24:20.131497 13236 net.cpp:148] Top shape: 24 256 7 7 (301056)
I0403 14:24:20.131517 13236 net.cpp:156] Memory required for data: 1294534176
I0403 14:24:20.131532 13236 layer_factory.hpp:77] Creating layer inception_5a/3x3_reduce
I0403 14:24:20.131554 13236 net.cpp:91] Creating Layer inception_5a/3x3_reduce
I0403 14:24:20.131572 13236 net.cpp:425] inception_5a/3x3_reduce <- pool4/3x3_s2_pool4/3x3_s2_0_split_1
I0403 14:24:20.131592 13236 net.cpp:399] inception_5a/3x3_reduce -> inception_5a/3x3_reduce
I0403 14:24:20.133997 13236 net.cpp:141] Setting up inception_5a/3x3_reduce
I0403 14:24:20.134027 13236 net.cpp:148] Top shape: 24 160 7 7 (188160)
I0403 14:24:20.134042 13236 net.cpp:156] Memory required for data: 1295286816
I0403 14:24:20.134060 13236 layer_factory.hpp:77] Creating layer inception_5a/relu_3x3_reduce
I0403 14:24:20.134081 13236 net.cpp:91] Creating Layer inception_5a/relu_3x3_reduce
I0403 14:24:20.134098 13236 net.cpp:425] inception_5a/relu_3x3_reduce <- inception_5a/3x3_reduce
I0403 14:24:20.134114 13236 net.cpp:386] inception_5a/relu_3x3_reduce -> inception_5a/3x3_reduce (in-place)
I0403 14:24:20.134294 13236 net.cpp:141] Setting up inception_5a/relu_3x3_reduce
I0403 14:24:20.134321 13236 net.cpp:148] Top shape: 24 160 7 7 (188160)
I0403 14:24:20.134336 13236 net.cpp:156] Memory required for data: 1296039456
I0403 14:24:20.134351 13236 layer_factory.hpp:77] Creating layer inception_5a/3x3
I0403 14:24:20.134371 13236 net.cpp:91] Creating Layer inception_5a/3x3
I0403 14:24:20.134388 13236 net.cpp:425] inception_5a/3x3 <- inception_5a/3x3_reduce
I0403 14:24:20.134408 13236 net.cpp:399] inception_5a/3x3 -> inception_5a/3x3
I0403 14:24:20.139358 13236 net.cpp:141] Setting up inception_5a/3x3
I0403 14:24:20.139390 13236 net.cpp:148] Top shape: 24 320 7 7 (376320)
I0403 14:24:20.139407 13236 net.cpp:156] Memory required for data: 1297544736
I0403 14:24:20.139426 13236 layer_factory.hpp:77] Creating layer inception_5a/relu_3x3
I0403 14:24:20.139443 13236 net.cpp:91] Creating Layer inception_5a/relu_3x3
I0403 14:24:20.139459 13236 net.cpp:425] inception_5a/relu_3x3 <- inception_5a/3x3
I0403 14:24:20.139478 13236 net.cpp:386] inception_5a/relu_3x3 -> inception_5a/3x3 (in-place)
I0403 14:24:20.139770 13236 net.cpp:141] Setting up inception_5a/relu_3x3
I0403 14:24:20.139796 13236 net.cpp:148] Top shape: 24 320 7 7 (376320)
I0403 14:24:20.139812 13236 net.cpp:156] Memory required for data: 1299050016
I0403 14:24:20.139827 13236 layer_factory.hpp:77] Creating layer inception_5a/5x5_reduce
I0403 14:24:20.139850 13236 net.cpp:91] Creating Layer inception_5a/5x5_reduce
I0403 14:24:20.139868 13236 net.cpp:425] inception_5a/5x5_reduce <- pool4/3x3_s2_pool4/3x3_s2_0_split_2
I0403 14:24:20.139885 13236 net.cpp:399] inception_5a/5x5_reduce -> inception_5a/5x5_reduce
I0403 14:24:20.141050 13236 net.cpp:141] Setting up inception_5a/5x5_reduce
I0403 14:24:20.141082 13236 net.cpp:148] Top shape: 24 32 7 7 (37632)
I0403 14:24:20.141098 13236 net.cpp:156] Memory required for data: 1299200544
I0403 14:24:20.141118 13236 layer_factory.hpp:77] Creating layer inception_5a/relu_5x5_reduce
I0403 14:24:20.141134 13236 net.cpp:91] Creating Layer inception_5a/relu_5x5_reduce
I0403 14:24:20.141150 13236 net.cpp:425] inception_5a/relu_5x5_reduce <- inception_5a/5x5_reduce
I0403 14:24:20.141170 13236 net.cpp:386] inception_5a/relu_5x5_reduce -> inception_5a/5x5_reduce (in-place)
I0403 14:24:20.141464 13236 net.cpp:141] Setting up inception_5a/relu_5x5_reduce
I0403 14:24:20.141490 13236 net.cpp:148] Top shape: 24 32 7 7 (37632)
I0403 14:24:20.141510 13236 net.cpp:156] Memory required for data: 1299351072
I0403 14:24:20.141526 13236 layer_factory.hpp:77] Creating layer inception_5a/5x5
I0403 14:24:20.141547 13236 net.cpp:91] Creating Layer inception_5a/5x5
I0403 14:24:20.141564 13236 net.cpp:425] inception_5a/5x5 <- inception_5a/5x5_reduce
I0403 14:24:20.141584 13236 net.cpp:399] inception_5a/5x5 -> inception_5a/5x5
I0403 14:24:20.143263 13236 net.cpp:141] Setting up inception_5a/5x5
I0403 14:24:20.143306 13236 net.cpp:148] Top shape: 24 128 7 7 (150528)
I0403 14:24:20.143323 13236 net.cpp:156] Memory required for data: 1299953184
I0403 14:24:20.143342 13236 layer_factory.hpp:77] Creating layer inception_5a/relu_5x5
I0403 14:24:20.143359 13236 net.cpp:91] Creating Layer inception_5a/relu_5x5
I0403 14:24:20.143374 13236 net.cpp:425] inception_5a/relu_5x5 <- inception_5a/5x5
I0403 14:24:20.143393 13236 net.cpp:386] inception_5a/relu_5x5 -> inception_5a/5x5 (in-place)
I0403 14:24:20.143584 13236 net.cpp:141] Setting up inception_5a/relu_5x5
I0403 14:24:20.143609 13236 net.cpp:148] Top shape: 24 128 7 7 (150528)
I0403 14:24:20.143622 13236 net.cpp:156] Memory required for data: 1300555296
I0403 14:24:20.143635 13236 layer_factory.hpp:77] Creating layer inception_5a/pool
I0403 14:24:20.143652 13236 net.cpp:91] Creating Layer inception_5a/pool
I0403 14:24:20.143667 13236 net.cpp:425] inception_5a/pool <- pool4/3x3_s2_pool4/3x3_s2_0_split_3
I0403 14:24:20.143688 13236 net.cpp:399] inception_5a/pool -> inception_5a/pool
I0403 14:24:20.143757 13236 net.cpp:141] Setting up inception_5a/pool
I0403 14:24:20.143780 13236 net.cpp:148] Top shape: 24 832 7 7 (978432)
I0403 14:24:20.143795 13236 net.cpp:156] Memory required for data: 1304469024
I0403 14:24:20.143807 13236 layer_factory.hpp:77] Creating layer inception_5a/pool_proj
I0403 14:24:20.143831 13236 net.cpp:91] Creating Layer inception_5a/pool_proj
I0403 14:24:20.143847 13236 net.cpp:425] inception_5a/pool_proj <- inception_5a/pool
I0403 14:24:20.143865 13236 net.cpp:399] inception_5a/pool_proj -> inception_5a/pool_proj
I0403 14:24:20.146119 13236 net.cpp:141] Setting up inception_5a/pool_proj
I0403 14:24:20.146150 13236 net.cpp:148] Top shape: 24 128 7 7 (150528)
I0403 14:24:20.146167 13236 net.cpp:156] Memory required for data: 1305071136
I0403 14:24:20.146185 13236 layer_factory.hpp:77] Creating layer inception_5a/relu_pool_proj
I0403 14:24:20.146203 13236 net.cpp:91] Creating Layer inception_5a/relu_pool_proj
I0403 14:24:20.146220 13236 net.cpp:425] inception_5a/relu_pool_proj <- inception_5a/pool_proj
I0403 14:24:20.146237 13236 net.cpp:386] inception_5a/relu_pool_proj -> inception_5a/pool_proj (in-place)
I0403 14:24:20.146535 13236 net.cpp:141] Setting up inception_5a/relu_pool_proj
I0403 14:24:20.146564 13236 net.cpp:148] Top shape: 24 128 7 7 (150528)
I0403 14:24:20.146579 13236 net.cpp:156] Memory required for data: 1305673248
I0403 14:24:20.146594 13236 layer_factory.hpp:77] Creating layer inception_5a/output
I0403 14:24:20.146610 13236 net.cpp:91] Creating Layer inception_5a/output
I0403 14:24:20.146625 13236 net.cpp:425] inception_5a/output <- inception_5a/1x1
I0403 14:24:20.146639 13236 net.cpp:425] inception_5a/output <- inception_5a/3x3
I0403 14:24:20.146656 13236 net.cpp:425] inception_5a/output <- inception_5a/5x5
I0403 14:24:20.146670 13236 net.cpp:425] inception_5a/output <- inception_5a/pool_proj
I0403 14:24:20.146687 13236 net.cpp:399] inception_5a/output -> inception_5a/output
I0403 14:24:20.146736 13236 net.cpp:141] Setting up inception_5a/output
I0403 14:24:20.146759 13236 net.cpp:148] Top shape: 24 832 7 7 (978432)
I0403 14:24:20.146773 13236 net.cpp:156] Memory required for data: 1309586976
I0403 14:24:20.146786 13236 layer_factory.hpp:77] Creating layer inception_5a/output_inception_5a/output_0_split
I0403 14:24:20.146805 13236 net.cpp:91] Creating Layer inception_5a/output_inception_5a/output_0_split
I0403 14:24:20.146819 13236 net.cpp:425] inception_5a/output_inception_5a/output_0_split <- inception_5a/output
I0403 14:24:20.146836 13236 net.cpp:399] inception_5a/output_inception_5a/output_0_split -> inception_5a/output_inception_5a/output_0_split_0
I0403 14:24:20.146855 13236 net.cpp:399] inception_5a/output_inception_5a/output_0_split -> inception_5a/output_inception_5a/output_0_split_1
I0403 14:24:20.146874 13236 net.cpp:399] inception_5a/output_inception_5a/output_0_split -> inception_5a/output_inception_5a/output_0_split_2
I0403 14:24:20.146893 13236 net.cpp:399] inception_5a/output_inception_5a/output_0_split -> inception_5a/output_inception_5a/output_0_split_3
I0403 14:24:20.147004 13236 net.cpp:141] Setting up inception_5a/output_inception_5a/output_0_split
I0403 14:24:20.147027 13236 net.cpp:148] Top shape: 24 832 7 7 (978432)
I0403 14:24:20.147042 13236 net.cpp:148] Top shape: 24 832 7 7 (978432)
I0403 14:24:20.147058 13236 net.cpp:148] Top shape: 24 832 7 7 (978432)
I0403 14:24:20.147071 13236 net.cpp:148] Top shape: 24 832 7 7 (978432)
I0403 14:24:20.147084 13236 net.cpp:156] Memory required for data: 1325241888
I0403 14:24:20.147097 13236 layer_factory.hpp:77] Creating layer inception_5b/1x1
I0403 14:24:20.147119 13236 net.cpp:91] Creating Layer inception_5b/1x1
I0403 14:24:20.147135 13236 net.cpp:425] inception_5b/1x1 <- inception_5a/output_inception_5a/output_0_split_0
I0403 14:24:20.147157 13236 net.cpp:399] inception_5b/1x1 -> inception_5b/1x1
I0403 14:24:20.150949 13236 net.cpp:141] Setting up inception_5b/1x1
I0403 14:24:20.150979 13236 net.cpp:148] Top shape: 24 384 7 7 (451584)
I0403 14:24:20.150995 13236 net.cpp:156] Memory required for data: 1327048224
I0403 14:24:20.151012 13236 layer_factory.hpp:77] Creating layer inception_5b/relu_1x1
I0403 14:24:20.151033 13236 net.cpp:91] Creating Layer inception_5b/relu_1x1
I0403 14:24:20.151051 13236 net.cpp:425] inception_5b/relu_1x1 <- inception_5b/1x1
I0403 14:24:20.151067 13236 net.cpp:386] inception_5b/relu_1x1 -> inception_5b/1x1 (in-place)
I0403 14:24:20.151388 13236 net.cpp:141] Setting up inception_5b/relu_1x1
I0403 14:24:20.151417 13236 net.cpp:148] Top shape: 24 384 7 7 (451584)
I0403 14:24:20.151432 13236 net.cpp:156] Memory required for data: 1328854560
I0403 14:24:20.151446 13236 layer_factory.hpp:77] Creating layer inception_5b/3x3_reduce
I0403 14:24:20.151471 13236 net.cpp:91] Creating Layer inception_5b/3x3_reduce
I0403 14:24:20.151490 13236 net.cpp:425] inception_5b/3x3_reduce <- inception_5a/output_inception_5a/output_0_split_1
I0403 14:24:20.151513 13236 net.cpp:399] inception_5b/3x3_reduce -> inception_5b/3x3_reduce
I0403 14:24:20.154222 13236 net.cpp:141] Setting up inception_5b/3x3_reduce
I0403 14:24:20.154256 13236 net.cpp:148] Top shape: 24 192 7 7 (225792)
I0403 14:24:20.154273 13236 net.cpp:156] Memory required for data: 1329757728
I0403 14:24:20.154291 13236 layer_factory.hpp:77] Creating layer inception_5b/relu_3x3_reduce
I0403 14:24:20.154309 13236 net.cpp:91] Creating Layer inception_5b/relu_3x3_reduce
I0403 14:24:20.154325 13236 net.cpp:425] inception_5b/relu_3x3_reduce <- inception_5b/3x3_reduce
I0403 14:24:20.154341 13236 net.cpp:386] inception_5b/relu_3x3_reduce -> inception_5b/3x3_reduce (in-place)
I0403 14:24:20.154546 13236 net.cpp:141] Setting up inception_5b/relu_3x3_reduce
I0403 14:24:20.154574 13236 net.cpp:148] Top shape: 24 192 7 7 (225792)
I0403 14:24:20.154590 13236 net.cpp:156] Memory required for data: 1330660896
I0403 14:24:20.154605 13236 layer_factory.hpp:77] Creating layer inception_5b/3x3
I0403 14:24:20.154628 13236 net.cpp:91] Creating Layer inception_5b/3x3
I0403 14:24:20.154645 13236 net.cpp:425] inception_5b/3x3 <- inception_5b/3x3_reduce
I0403 14:24:20.154667 13236 net.cpp:399] inception_5b/3x3 -> inception_5b/3x3
I0403 14:24:20.161473 13236 net.cpp:141] Setting up inception_5b/3x3
I0403 14:24:20.161514 13236 net.cpp:148] Top shape: 24 384 7 7 (451584)
I0403 14:24:20.161532 13236 net.cpp:156] Memory required for data: 1332467232
I0403 14:24:20.161552 13236 layer_factory.hpp:77] Creating layer inception_5b/relu_3x3
I0403 14:24:20.161571 13236 net.cpp:91] Creating Layer inception_5b/relu_3x3
I0403 14:24:20.161586 13236 net.cpp:425] inception_5b/relu_3x3 <- inception_5b/3x3
I0403 14:24:20.161603 13236 net.cpp:386] inception_5b/relu_3x3 -> inception_5b/3x3 (in-place)
I0403 14:24:20.161908 13236 net.cpp:141] Setting up inception_5b/relu_3x3
I0403 14:24:20.161939 13236 net.cpp:148] Top shape: 24 384 7 7 (451584)
I0403 14:24:20.161957 13236 net.cpp:156] Memory required for data: 1334273568
I0403 14:24:20.161972 13236 layer_factory.hpp:77] Creating layer inception_5b/5x5_reduce
I0403 14:24:20.162014 13236 net.cpp:91] Creating Layer inception_5b/5x5_reduce
I0403 14:24:20.162034 13236 net.cpp:425] inception_5b/5x5_reduce <- inception_5a/output_inception_5a/output_0_split_2
I0403 14:24:20.162055 13236 net.cpp:399] inception_5b/5x5_reduce -> inception_5b/5x5_reduce
I0403 14:24:20.163346 13236 net.cpp:141] Setting up inception_5b/5x5_reduce
I0403 14:24:20.163374 13236 net.cpp:148] Top shape: 24 48 7 7 (56448)
I0403 14:24:20.163391 13236 net.cpp:156] Memory required for data: 1334499360
I0403 14:24:20.163410 13236 layer_factory.hpp:77] Creating layer inception_5b/relu_5x5_reduce
I0403 14:24:20.163431 13236 net.cpp:91] Creating Layer inception_5b/relu_5x5_reduce
I0403 14:24:20.163449 13236 net.cpp:425] inception_5b/relu_5x5_reduce <- inception_5b/5x5_reduce
I0403 14:24:20.163467 13236 net.cpp:386] inception_5b/relu_5x5_reduce -> inception_5b/5x5_reduce (in-place)
I0403 14:24:20.163856 13236 net.cpp:141] Setting up inception_5b/relu_5x5_reduce
I0403 14:24:20.163884 13236 net.cpp:148] Top shape: 24 48 7 7 (56448)
I0403 14:24:20.163900 13236 net.cpp:156] Memory required for data: 1334725152
I0403 14:24:20.163915 13236 layer_factory.hpp:77] Creating layer inception_5b/5x5
I0403 14:24:20.163935 13236 net.cpp:91] Creating Layer inception_5b/5x5
I0403 14:24:20.163954 13236 net.cpp:425] inception_5b/5x5 <- inception_5b/5x5_reduce
I0403 14:24:20.163974 13236 net.cpp:399] inception_5b/5x5 -> inception_5b/5x5
I0403 14:24:20.166132 13236 net.cpp:141] Setting up inception_5b/5x5
I0403 14:24:20.166163 13236 net.cpp:148] Top shape: 24 128 7 7 (150528)
I0403 14:24:20.166179 13236 net.cpp:156] Memory required for data: 1335327264
I0403 14:24:20.166198 13236 layer_factory.hpp:77] Creating layer inception_5b/relu_5x5
I0403 14:24:20.166218 13236 net.cpp:91] Creating Layer inception_5b/relu_5x5
I0403 14:24:20.166235 13236 net.cpp:425] inception_5b/relu_5x5 <- inception_5b/5x5
I0403 14:24:20.166256 13236 net.cpp:386] inception_5b/relu_5x5 -> inception_5b/5x5 (in-place)
I0403 14:24:20.166452 13236 net.cpp:141] Setting up inception_5b/relu_5x5
I0403 14:24:20.166478 13236 net.cpp:148] Top shape: 24 128 7 7 (150528)
I0403 14:24:20.166493 13236 net.cpp:156] Memory required for data: 1335929376
I0403 14:24:20.166513 13236 layer_factory.hpp:77] Creating layer inception_5b/pool
I0403 14:24:20.166535 13236 net.cpp:91] Creating Layer inception_5b/pool
I0403 14:24:20.166551 13236 net.cpp:425] inception_5b/pool <- inception_5a/output_inception_5a/output_0_split_3
I0403 14:24:20.166570 13236 net.cpp:399] inception_5b/pool -> inception_5b/pool
I0403 14:24:20.166645 13236 net.cpp:141] Setting up inception_5b/pool
I0403 14:24:20.166668 13236 net.cpp:148] Top shape: 24 832 7 7 (978432)
I0403 14:24:20.166683 13236 net.cpp:156] Memory required for data: 1339843104
I0403 14:24:20.166697 13236 layer_factory.hpp:77] Creating layer inception_5b/pool_proj
I0403 14:24:20.166719 13236 net.cpp:91] Creating Layer inception_5b/pool_proj
I0403 14:24:20.166736 13236 net.cpp:425] inception_5b/pool_proj <- inception_5b/pool
I0403 14:24:20.166757 13236 net.cpp:399] inception_5b/pool_proj -> inception_5b/pool_proj
I0403 14:24:20.169087 13236 net.cpp:141] Setting up inception_5b/pool_proj
I0403 14:24:20.169119 13236 net.cpp:148] Top shape: 24 128 7 7 (150528)
I0403 14:24:20.169137 13236 net.cpp:156] Memory required for data: 1340445216
I0403 14:24:20.169157 13236 layer_factory.hpp:77] Creating layer inception_5b/relu_pool_proj
I0403 14:24:20.169174 13236 net.cpp:91] Creating Layer inception_5b/relu_pool_proj
I0403 14:24:20.169190 13236 net.cpp:425] inception_5b/relu_pool_proj <- inception_5b/pool_proj
I0403 14:24:20.169210 13236 net.cpp:386] inception_5b/relu_pool_proj -> inception_5b/pool_proj (in-place)
I0403 14:24:20.169513 13236 net.cpp:141] Setting up inception_5b/relu_pool_proj
I0403 14:24:20.169544 13236 net.cpp:148] Top shape: 24 128 7 7 (150528)
I0403 14:24:20.169562 13236 net.cpp:156] Memory required for data: 1341047328
I0403 14:24:20.169577 13236 layer_factory.hpp:77] Creating layer inception_5b/output
I0403 14:24:20.169595 13236 net.cpp:91] Creating Layer inception_5b/output
I0403 14:24:20.169625 13236 net.cpp:425] inception_5b/output <- inception_5b/1x1
I0403 14:24:20.169644 13236 net.cpp:425] inception_5b/output <- inception_5b/3x3
I0403 14:24:20.169662 13236 net.cpp:425] inception_5b/output <- inception_5b/5x5
I0403 14:24:20.169679 13236 net.cpp:425] inception_5b/output <- inception_5b/pool_proj
I0403 14:24:20.169698 13236 net.cpp:399] inception_5b/output -> inception_5b/output
I0403 14:24:20.169752 13236 net.cpp:141] Setting up inception_5b/output
I0403 14:24:20.169776 13236 net.cpp:148] Top shape: 24 1024 7 7 (1204224)
I0403 14:24:20.169792 13236 net.cpp:156] Memory required for data: 1345864224
I0403 14:24:20.169807 13236 layer_factory.hpp:77] Creating layer pool5/7x7_s1
I0403 14:24:20.169828 13236 net.cpp:91] Creating Layer pool5/7x7_s1
I0403 14:24:20.169847 13236 net.cpp:425] pool5/7x7_s1 <- inception_5b/output
I0403 14:24:20.169864 13236 net.cpp:399] pool5/7x7_s1 -> pool5/7x7_s1
I0403 14:24:20.170079 13236 net.cpp:141] Setting up pool5/7x7_s1
I0403 14:24:20.170107 13236 net.cpp:148] Top shape: 24 1024 1 1 (24576)
I0403 14:24:20.170122 13236 net.cpp:156] Memory required for data: 1345962528
I0403 14:24:20.170136 13236 layer_factory.hpp:77] Creating layer pool5/drop_7x7_s1
I0403 14:24:20.170155 13236 net.cpp:91] Creating Layer pool5/drop_7x7_s1
I0403 14:24:20.170169 13236 net.cpp:425] pool5/drop_7x7_s1 <- pool5/7x7_s1
I0403 14:24:20.170191 13236 net.cpp:386] pool5/drop_7x7_s1 -> pool5/7x7_s1 (in-place)
I0403 14:24:20.170241 13236 net.cpp:141] Setting up pool5/drop_7x7_s1
I0403 14:24:20.170264 13236 net.cpp:148] Top shape: 24 1024 1 1 (24576)
I0403 14:24:20.170279 13236 net.cpp:156] Memory required for data: 1346060832
I0403 14:24:20.170294 13236 layer_factory.hpp:77] Creating layer loss3/classifier_plantvillage
I0403 14:24:20.170315 13236 net.cpp:91] Creating Layer loss3/classifier_plantvillage
I0403 14:24:20.170331 13236 net.cpp:425] loss3/classifier_plantvillage <- pool5/7x7_s1
I0403 14:24:20.170351 13236 net.cpp:399] loss3/classifier_plantvillage -> loss3/classifier_plantvillage
I0403 14:24:20.170789 13236 net.cpp:141] Setting up loss3/classifier_plantvillage
I0403 14:24:20.170814 13236 net.cpp:148] Top shape: 24 38 (912)
I0403 14:24:20.170828 13236 net.cpp:156] Memory required for data: 1346064480
I0403 14:24:20.170845 13236 layer_factory.hpp:77] Creating layer loss3/classifier_plantvillage_loss3/classifier_plantvillage_0_split
I0403 14:24:20.170866 13236 net.cpp:91] Creating Layer loss3/classifier_plantvillage_loss3/classifier_plantvillage_0_split
I0403 14:24:20.170882 13236 net.cpp:425] loss3/classifier_plantvillage_loss3/classifier_plantvillage_0_split <- loss3/classifier_plantvillage
I0403 14:24:20.170899 13236 net.cpp:399] loss3/classifier_plantvillage_loss3/classifier_plantvillage_0_split -> loss3/classifier_plantvillage_loss3/classifier_plantvillage_0_split_0
I0403 14:24:20.170919 13236 net.cpp:399] loss3/classifier_plantvillage_loss3/classifier_plantvillage_0_split -> loss3/classifier_plantvillage_loss3/classifier_plantvillage_0_split_1
I0403 14:24:20.170939 13236 net.cpp:399] loss3/classifier_plantvillage_loss3/classifier_plantvillage_0_split -> loss3/classifier_plantvillage_loss3/classifier_plantvillage_0_split_2
I0403 14:24:20.170959 13236 net.cpp:399] loss3/classifier_plantvillage_loss3/classifier_plantvillage_0_split -> loss3/classifier_plantvillage_loss3/classifier_plantvillage_0_split_3
I0403 14:24:20.171061 13236 net.cpp:141] Setting up loss3/classifier_plantvillage_loss3/classifier_plantvillage_0_split
I0403 14:24:20.171083 13236 net.cpp:148] Top shape: 24 38 (912)
I0403 14:24:20.171098 13236 net.cpp:148] Top shape: 24 38 (912)
I0403 14:24:20.171113 13236 net.cpp:148] Top shape: 24 38 (912)
I0403 14:24:20.171128 13236 net.cpp:148] Top shape: 24 38 (912)
I0403 14:24:20.171141 13236 net.cpp:156] Memory required for data: 1346079072
I0403 14:24:20.171156 13236 layer_factory.hpp:77] Creating layer loss1/loss
I0403 14:24:20.171177 13236 net.cpp:91] Creating Layer loss1/loss
I0403 14:24:20.171195 13236 net.cpp:425] loss1/loss <- loss1/classifier_plantvillage_loss1/classifier_plantvillage_0_split_0
I0403 14:24:20.171226 13236 net.cpp:425] loss1/loss <- label_data_1_split_0
…
