…
I0403 13:40:03.421665 11894 net.cpp:313] The NetState phase (1) differed from the phase (0) specified by a rule in layer data
I0403 13:40:03.422895 11894 net.cpp:49] Initializing net from parameters: 
state {
  phase: TEST
}
layer {
  name: "data"
  type: "Data"
  top: "data"
  top: "label"
  include {
    phase: TEST
  }
  transform_param {
    mirror: false
    crop_size: 224
    mean_file: "/home/mohanty/data/final_dataset/lmdb/segmented-20-80/mean.binaryproto"
  }
  data_param {
    source: "/home/mohanty/data/final_dataset/lmdb/segmented-20-80/test_db"
    batch_size: 24
    backend: LMDB
  }
}
layer {
  name: "conv1/7x7_s2"
  type: "Convolution"
  bottom: "data"
  top: "conv1/7x7_s2"
  param {
    lr_mult: 1
    decay_mult: 1
  }
  param {
    lr_mult: 2
    decay_mult: 0
  }
  convolution_param {
    num_output: 64
    pad: 3
    kernel_size: 7
    stride: 2
    weight_filler {
      type: "xavier"
      std: 0.1
    }
    bias_filler {
      type: "constant"
      value: 0.2
    }
  }
}
layer {
  name: "conv1/relu_7x7"
  type: "ReLU"
  bottom: "conv1/7x7_s2"
  top: "conv1/7x7_s2"
}
layer {
  name: "pool1/3x3_s2"
  type: "Pooling"
  bottom: "conv1/7x7_s2"
  top: "pool1/3x3_s2"
  pooling_param {
    pool: MAX
    kernel_size: 3
    stride: 2
  }
}
layer {
  name: "pool1/norm1"
  type: "LRN"
  bottom: "pool1/3x3_s2"
  top: "pool1/norm1"
  lrn_param {
    local_size: 5
    alpha: 0.0001
    beta: 0.75
  }
}
layer {
  name: "conv2/3x3_reduce"
  type: "Convolution"
  bottom: "pool1/norm1"
  top: "conv2/3x3_reduce"
  param {
    lr_mult: 1
    decay_mult: 1
  }
  param {
    lr_mult: 2
    decay_mult: 0
  }
  convolution_param {
    num_output: 64
    kernel_size: 1
    weight_filler {
      type: "xavier"
      std: 0.1
    }
    bias_filler {
      type: "constant"
      value: 0.2
    }
  }
}
layer {
  name: "conv2/relu_3x3_reduce"
  type: "ReLU"
  bottom: "conv2/3x3_reduce"
  top: "conv2/3x3_reduce"
}
layer {
  name: "conv2/3x3"
  type: "Convolution"
  bottom: "conv2/3x3_reduce"
  top: "conv2/3x3"
  param {
    lr_mult: 1
    decay_mult: 1
  }
  param {
    lr_mult: 2
    decay_mult: 0
  }
  convolution_param {
    num_output: 192
    pad: 1
    kernel_size: 3
    weight_filler {
      type: "xavier"
      std: 0.03
    }
    bias_filler {
      type: "constant"
      value: 0.2
    }
  }
}
layer {
  name: "conv2/relu_3x3"
  type: "ReLU"
  bottom: "conv2/3x3"
  top: "conv2/3x3"
}
layer {
  name: "conv2/norm2"
  type: "LRN"
  bottom: "conv2/3x3"
  top: "conv2/norm2"
  lrn_param {
    local_size: 5
    alpha: 0.0001
    beta: 0.75
  }
}
layer {
  name: "pool2/3x3_s2"
  type: "Pooling"
  bottom: "conv2/norm2"
  top: "pool2/3x3_s2"
  pooling_param {
    pool: MAX
    kernel_size: 3
    stride: 2
  }
}
layer {
  name: "inception_3a/1x1"
  type: "Convolution"
  bottom: "pool2/3x3_s2"
  top: "inception_3a/1x1"
  param {
    lr_mult: 1
    decay_mult: 1
  }
  param {
    lr_mult: 2
    decay_mult: 0
  }
  convolution_param {
    num_output: 64
    kernel_size: 1
    weight_filler {
      type: "xavier"
      std: 0.03
    }
    bias_filler {
      type: "constant"
      value: 0.2
    }
  }
}
layer {
  name: "inception_3a/relu_1x1"
  type: "ReLU"
  bottom: "inception_3a/1x1"
  top: "inception_3a/1x1"
}
layer {
  name: "inception_3a/3x3_reduce"
  type: "Convolution"
  bottom: "pool2/3x3_s2"
  top: "inception_3a/3x3_reduce"
  param {
    lr_mult: 1
    decay_mult: 1
  }
  param {
    lr_mult: 2
    decay_mult: 0
  }
  convolution_param {
    num_output: 96
    kernel_size: 1
    weight_filler {
      type: "xavier"
      std: 0.09
    }
    bias_filler {
      type: "constant"
      value: 0.2
    }
  }
}
layer {
  name: "inception_3a/relu_3x3_reduce"
  type: "ReLU"
  bottom: "inception_3a/3x3_reduce"
  top: "inception_3a/3x3_reduce"
}
layer {
  name: "inception_3a/3x3"
  type: "Convolution"
  bottom: "inception_3a/3x3_reduce"
  top: "inception_3a/3x3"
  param {
    lr_mult: 1
    decay_mult: 1
  }
  param {
    lr_mult: 2
    decay_mult: 0
  }
  convolution_param {
    num_output: 128
    pad: 1
    kernel_size: 3
    weight_filler {
      type: "xavier"
      std: 0.03
    }
    bias_filler {
      type: "constant"
      value: 0.2
    }
  }
}
layer {
  name: "inception_3a/relu_3x3"
  type: "ReLU"
  bottom: "inception_3a/3x3"
  top: "inception_3a/3x3"
}
layer {
  name: "inception_3a/5x5_reduce"
  type: "Convolution"
  bottom: "pool2/3x3_s2"
  top: "inception_3a/5x5_reduce"
  param {
    lr_mult: 1
    decay_mult: 1
  }
  param {
    lr_mult: 2
    decay_mult: 0
  }
  convolution_param {
    num_output: 16
    kernel_size: 1
    weight_filler {
      type: "xavier"
      std: 0.2
    }
    bias_filler {
      type: "constant"
      value: 0.2
    }
  }
}
layer {
  name: "inception_3a/relu_5x5_reduce"
  type: "ReLU"
  bottom: "inception_3a/5x5_reduce"
  top: "inception_3a/5x5_reduce"
}
layer {
  name: "inception_3a/5x5"
  type: "Convolution"
  bottom: "inception_3a/5x5_reduce"
  top: "inception_3a/5x5"
  param {
    lr_mult: 1
    decay_mult: 1
  }
  param {
    lr_mult: 2
    decay_mult: 0
  }
  convolution_param {
    num_output: 32
    pad: 2
    kernel_size: 5
    weight_filler {
      type: "xavier"
      std: 0.03
    }
    bias_filler {
      type: "constant"
      value: 0.2
    }
  }
}
layer {
  name: "inception_3a/relu_5x5"
  type: "ReLU"
  bottom: "inception_3a/5x5"
  top: "inception_3a/5x5"
}
layer {
  name: "inception_3a/pool"
  type: "Pooling"
  bottom: "pool2/3x3_s2"
  top: "inception_3a/pool"
  pooling_param {
    pool: MAX
    kernel_size: 3
    stride: 1
    pad: 1
  }
}
layer {
  name: "inception_3a/pool_proj"
  type: "Convolution"
  bottom: "inception_3a/pool"
  top: "inception_3a/pool_proj"
  param {
    lr_mult: 1
    decay_mult: 1
  }
  param {
    lr_mult: 2
    decay_mult: 0
  }
  convolution_param {
    num_output: 32
    kernel_size: 1
    weight_filler {
      type: "xavier"
      std: 0.1
    }
    bias_filler {
      type: "constant"
      value: 0.2
    }
  }
}
layer {
  name: "inception_3a/relu_pool_proj"
  type: "ReLU"
  bottom: "inception_3a/pool_proj"
  top: "inception_3a/pool_proj"
}
layer {
  name: "inception_3a/output"
  type: "Concat"
  bottom: "inception_3a/1x1"
  bottom: "inception_3a/3x3"
  bottom: "inception_3a/5x5"
  bottom: "inception_3a/pool_proj"
  top: "inception_3a/output"
}
layer {
  name: "inception_3b/1x1"
  type: "Convolution"
  bottom: "inception_3a/output"
  top: "inception_3b/1x1"
  param {
    lr_mult: 1
    decay_mult: 1
  }
  param {
    lr_mult: 2
    decay_mult: 0
  }
  convolution_param {
    num_output: 128
    kernel_size: 1
    weight_filler {
      type: "xavier"
      std: 0.03
    }
    bias_filler {
      type: "constant"
      value: 0.2
    }
  }
}
layer {
  name: "inception_3b/relu_1x1"
  type: "ReLU"
  bottom: "inception_3b/1x1"
  top: "inception_3b/1x1"
}
layer {
  name: "inception_3b/3x3_reduce"
  type: "Convolution"
  bottom: "inception_3a/output"
  top: "inception_3b/3x3_reduce"
  param {
    lr_mult: 1
    decay_mult: 1
  }
  param {
    lr_mult: 2
    decay_mult: 0
  }
  convolution_param {
    num_output: 128
    kernel_size: 1
    weight_filler {
      type: "xavier"
      std: 0.09
    }
    bias_filler {
      type: "constant"
      value: 0.2
    }
  }
}
layer {
  name: "inception_3b/relu_3x3_reduce"
  type: "ReLU"
  bottom: "inception_3b/3x3_reduce"
  top: "inception_3b/3x3_reduce"
}
layer {
  name: "inception_3b/3x3"
  type: "Convolution"
  bottom: "inception_3b/3x3_reduce"
  top: "inception_3b/3x3"
  param {
    lr_mult: 1
    decay_mult: 1
  }
  param {
    lr_mult: 2
    decay_mult: 0
  }
  convolution_param {
    num_output: 192
    pad: 1
    kernel_size: 3
    weight_filler {
      type: "xavier"
      std: 0.03
    }
    bias_filler {
      type: "constant"
      value: 0.2
    }
  }
}
layer {
  name: "inception_3b/relu_3x3"
  type: "ReLU"
  bottom: "inception_3b/3x3"
  top: "inception_3b/3x3"
}
layer {
  name: "inception_3b/5x5_reduce"
  type: "Convolution"
  bottom: "inception_3a/output"
  top: "inception_3b/5x5_reduce"
  param {
    lr_mult: 1
    decay_mult: 1
  }
  param {
    lr_mult: 2
    decay_mult: 0
  }
  convolution_param {
    num_output: 32
    kernel_size: 1
    weight_filler {
      type: "xavier"
      std: 0.2
    }
    bias_filler {
      type: "constant"
      value: 0.2
    }
  }
}
layer {
  name: "inception_3b/relu_5x5_reduce"
  type: "ReLU"
  bottom: "inception_3b/5x5_reduce"
  top: "inception_3b/5x5_reduce"
}
layer {
  name: "inception_3b/5x5"
  type: "Convolution"
  bottom: "inception_3b/5x5_reduce"
  top: "inception_3b/5x5"
  param {
    lr_mult: 1
    decay_mult: 1
  }
  param {
    lr_mult: 2
    decay_mult: 0
  }
  convolution_param {
    num_output: 96
    pad: 2
    kernel_size: 5
    weight_filler {
      type: "xavier"
      std: 0.03
    }
    bias_filler {
      type: "constant"
      value: 0.2
    }
  }
}
layer {
  name: "inception_3b/relu_5x5"
  type: "ReLU"
  bottom: "inception_3b/5x5"
  top: "inception_3b/5x5"
}
layer {
  name: "inception_3b/pool"
  type: "Pooling"
  bottom: "inception_3a/output"
  top: "inception_3b/pool"
  pooling_param {
    pool: MAX
    kernel_size: 3
    stride: 1
    pad: 1
  }
}
layer {
  name: "inception_3b/pool_proj"
  type: "Convolution"
  bottom: "inception_3b/pool"
  top: "inception_3b/pool_proj"
  param {
    lr_mult: 1
    decay_mult: 1
  }
  param {
    lr_mult: 2
    decay_mult: 0
  }
  convolution_param {
    num_output: 64
    kernel_size: 1
    weight_filler {
      type: "xavier"
      std: 0.1
    }
    bias_filler {
      type: "constant"
      value: 0.2
    }
  }
}
layer {
  name: "inception_3b/relu_pool_proj"
  type: "ReLU"
  bottom: "inception_3b/pool_proj"
  top: "inception_3b/pool_proj"
}
layer {
  name: "inception_3b/output"
  type: "Concat"
  bottom: "inception_3b/1x1"
  bottom: "inception_3b/3x3"
  bottom: "inception_3b/5x5"
  bottom: "inception_3b/pool_proj"
  top: "inception_3b/output"
}
layer {
  name: "pool3/3x3_s2"
  type: "Pooling"
  bottom: "inception_3b/output"
  top: "pool3/3x3_s2"
  pooling_param {
    pool: MAX
    kernel_size: 3
    stride: 2
  }
}
layer {
  name: "inception_4a/1x1"
  type: "Convolution"
  bottom: "pool3/3x3_s2"
  top: "inception_4a/1x1"
  param {
    lr_mult: 1
    decay_mult: 1
  }
  param {
    lr_mult: 2
    decay_mult: 0
  }
  convolution_param {
    num_output: 192
    kernel_size: 1
    weight_filler {
      type: "xavier"
      std: 0.03
    }
    bias_filler {
      type: "constant"
      value: 0.2
    }
  }
}
layer {
  name: "inception_4a/relu_1x1"
  type: "ReLU"
  bottom: "inception_4a/1x1"
  top: "inception_4a/1x1"
}
layer {
  name: "inception_4a/3x3_reduce"
  type: "Convolution"
  bottom: "pool3/3x3_s2"
  top: "inception_4a/3x3_reduce"
  param {
    lr_mult: 1
    decay_mult: 1
  }
  param {
    lr_mult: 2
    decay_mult: 0
  }
  convolution_param {
    num_output: 96
    kernel_size: 1
    weight_filler {
      type: "xavier"
      std: 0.09
    }
    bias_filler {
      type: "constant"
      value: 0.2
    }
  }
}
layer {
  name: "inception_4a/relu_3x3_reduce"
  type: "ReLU"
  bottom: "inception_4a/3x3_reduce"
  top: "inception_4a/3x3_reduce"
}
layer {
  name: "inception_4a/3x3"
  type: "Convolution"
  bottom: "inception_4a/3x3_reduce"
  top: "inception_4a/3x3"
  param {
    lr_mult: 1
    decay_mult: 1
  }
  param {
    lr_mult: 2
    decay_mult: 0
  }
  convolution_param {
    num_output: 208
    pad: 1
    kernel_size: 3
    weight_filler {
      type: "xavier"
      std: 0.03
    }
    bias_filler {
      type: "constant"
      value: 0.2
    }
  }
}
layer {
  name: "inception_4a/relu_3x3"
  type: "ReLU"
  bottom: "inception_4a/3x3"
  top: "inception_4a/3x3"
}
layer {
  name: "inception_4a/5x5_reduce"
  type: "Convolution"
  bottom: "pool3/3x3_s2"
  top: "inception_4a/5x5_reduce"
  param {
    lr_mult: 1
    decay_mult: 1
  }
  param {
    lr_mult: 2
    decay_mult: 0
  }
  convolution_param {
    num_output: 16
    kernel_size: 1
    weight_filler {
      type: "xavier"
      std: 0.2
    }
    bias_filler {
      type: "constant"
      value: 0.2
    }
  }
}
layer {
  name: "inception_4a/relu_5x5_reduce"
  type: "ReLU"
  bottom: "inception_4a/5x5_reduce"
  top: "inception_4a/5x5_reduce"
}
layer {
  name: "inception_4a/5x5"
  type: "Convolution"
  bottom: "inception_4a/5x5_reduce"
  top: "inception_4a/5x5"
  param {
    lr_mult: 1
    decay_mult: 1
  }
  param {
    lr_mult: 2
    decay_mult: 0
  }
  convolution_param {
    num_output: 48
    pad: 2
    kernel_size: 5
    weight_filler {
      type: "xavier"
      std: 0.03
    }
    bias_filler {
      type: "constant"
      value: 0.2
    }
  }
}
layer {
  name: "inception_4a/relu_5x5"
  type: "ReLU"
  bottom: "inception_4a/5x5"
  top: "inception_4a/5x5"
}
layer {
  name: "inception_4a/pool"
  type: "Pooling"
  bottom: "pool3/3x3_s2"
  top: "inception_4a/pool"
  pooling_param {
    pool: MAX
    kernel_size: 3
    stride: 1
    pad: 1
  }
}
layer {
  name: "inception_4a/pool_proj"
  type: "Convolution"
  bottom: "inception_4a/pool"
  top: "inception_4a/pool_proj"
  param {
    lr_mult: 1
    decay_mult: 1
  }
  param {
    lr_mult: 2
    decay_mult: 0
  }
  convolution_param {
    num_output: 64
    kernel_size: 1
    weight_filler {
      type: "xavier"
      std: 0.1
    }
    bias_filler {
      type: "constant"
      value: 0.2
    }
  }
}
layer {
  name: "inception_4a/relu_pool_proj"
  type: "ReLU"
  bottom: "inception_4a/pool_proj"
  top: "inception_4a/pool_proj"
}
layer {
  name: "inception_4a/output"
  type: "Concat"
  bottom: "inception_4a/1x1"
  bottom: "inception_4a/3x3"
  bottom: "inception_4a/5x5"
  bottom: "inception_4a/pool_proj"
  top: "inception_4a/output"
}
layer {
  name: "loss1/ave_pool"
  type: "Pooling"
  bottom: "inception_4a/output"
  top: "loss1/ave_pool"
  pooling_param {
    pool: AVE
    kernel_size: 5
    stride: 3
  }
}
layer {
  name: "loss1/conv"
  type: "Convolution"
  bottom: "loss1/ave_pool"
  top: "loss1/conv"
  param {
    lr_mult: 1
    decay_mult: 1
  }
  param {
    lr_mult: 2
    decay_mult: 0
  }
  convolution_param {
    num_output: 128
    kernel_size: 1
    weight_filler {
      type: "xavier"
      std: 0.08
    }
    bias_filler {
      type: "constant"
      value: 0.2
    }
  }
}
layer {
  name: "loss1/relu_conv"
  type: "ReLU"
  bottom: "loss1/conv"
  top: "loss1/conv"
}
layer {
  name: "loss1/fc"
  type: "InnerProduct"
  bottom: "loss1/conv"
  top: "loss1/fc"
  param {
    lr_mult: 1
    decay_mult: 1
  }
  param {
    lr_mult: 2
    decay_mult: 0
  }
  inner_product_param {
    num_output: 1024
    weight_filler {
      type: "xavier"
      std: 0.02
    }
    bias_filler {
      type: "constant"
      value: 0.2
    }
  }
}
layer {
  name: "loss1/relu_fc"
  type: "ReLU"
  bottom: "loss1/fc"
  top: "loss1/fc"
}
layer {
  name: "loss1/drop_fc"
  type: "Dropout"
  bottom: "loss1/fc"
  top: "loss1/fc"
  dropout_param {
    dropout_ratio: 0.7
  }
}
layer {
  name: "loss1/classifier_plantvillage"
  type: "InnerProduct"
  bottom: "loss1/fc"
  top: "loss1/classifier_plantvillage"
  param {
    lr_mult: 1
    decay_mult: 1
  }
  param {
    lr_mult: 2
    decay_mult: 0
  }
  inner_product_param {
    num_output: 38
    weight_filler {
      type: "xavier"
      std: 0.0009765625
    }
    bias_filler {
      type: "constant"
      value: 0
    }
  }
}
layer {
  name: "inception_4b/1x1"
  type: "Convolution"
  bottom: "inception_4a/output"
  top: "inception_4b/1x1"
  param {
    lr_mult: 1
    decay_mult: 1
  }
  param {
    lr_mult: 2
    decay_mult: 0
  }
  convolution_param {
    num_output: 160
    kernel_size: 1
    weight_filler {
      type: "xavier"
      std: 0.03
    }
    bias_filler {
      type: "constant"
      value: 0.2
    }
  }
}
layer {
  name: "inception_4b/relu_1x1"
  type: "ReLU"
  bottom: "inception_4b/1x1"
  top: "inception_4b/1x1"
}
layer {
  name: "inception_4b/3x3_reduce"
  type: "Convolution"
  bottom: "inception_4a/output"
  top: "inception_4b/3x3_reduce"
  param {
    lr_mult: 1
    decay_mult: 1
  }
  param {
    lr_mult: 2
    decay_mult: 0
  }
  convolution_param {
    num_output: 112
    kernel_size: 1
    weight_filler {
      type: "xavier"
      std: 0.09
    }
    bias_filler {
      type: "constant"
      value: 0.2
    }
  }
}
layer {
  name: "inception_4b/relu_3x3_reduce"
  type: "ReLU"
  bottom: "inception_4b/3x3_reduce"
  top: "inception_4b/3x3_reduce"
}
layer {
  name: "inception_4b/3x3"
  type: "Convolution"
  bottom: "inception_4b/3x3_reduce"
  top: "inception_4b/3x3"
  param {
    lr_mult: 1
    decay_mult: 1
  }
  param {
    lr_mult: 2
    decay_mult: 0
  }
  convolution_param {
    num_output: 224
    pad: 1
    kernel_size: 3
    weight_filler {
      type: "xavier"
      std: 0.03
    }
    bias_filler {
      type: "constant"
      value: 0.2
    }
  }
}
layer {
  name: "inception_4b/relu_3x3"
  type: "ReLU"
  bottom: "inception_4b/3x3"
  top: "inception_4b/3x3"
}
layer {
  name: "inception_4b/5x5_reduce"
  type: "Convolution"
  bottom: "inception_4a/output"
  top: "inception_4b/5x5_reduce"
  param {
    lr_mult: 1
    decay_mult: 1
  }
  param {
    lr_mult: 2
    decay_mult: 0
  }
  convolution_param {
    num_output: 24
    kernel_size: 1
    weight_filler {
      type: "xavier"
      std: 0.2
    }
    bias_filler {
      type: "constant"
      value: 0.2
    }
  }
}
layer {
  name: "inception_4b/relu_5x5_reduce"
  type: "ReLU"
  bottom: "inception_4b/5x5_reduce"
  top: "inception_4b/5x5_reduce"
}
layer {
  name: "inception_4b/5x5"
  type: "Convolution"
  bottom: "inception_4b/5x5_reduce"
  top: "inception_4b/5x5"
  param {
    lr_mult: 1
    decay_mult: 1
  }
  param {
    lr_mult: 2
    decay_mult: 0
  }
  convolution_param {
    num_output: 64
    pad: 2
    kernel_size: 5
    weight_filler {
      type: "xavier"
      std: 0.03
    }
    bias_filler {
      type: "constant"
      value: 0.2
    }
  }
}
layer {
  name: "inception_4b/relu_5x5"
  type: "ReLU"
  bottom: "inception_4b/5x5"
  top: "inception_4b/5x5"
}
layer {
  name: "inception_4b/pool"
  type: "Pooling"
  bottom: "inception_4a/output"
  top: "inception_4b/pool"
  pooling_param {
    pool: MAX
    kernel_size: 3
    stride: 1
    pad: 1
  }
}
layer {
  name: "inception_4b/pool_proj"
  type: "Convolution"
  bottom: "inception_4b/pool"
  top: "inception_4b/pool_proj"
  param {
    lr_mult: 1
    decay_mult: 1
  }
  param {
    lr_mult: 2
    decay_mult: 0
  }
  convolution_param {
    num_output: 64
    kernel_size: 1
    weight_filler {
      type: "xavier"
      std: 0.1
    }
    bias_filler {
      type: "constant"
      value: 0.2
    }
  }
}
layer {
  name: "inception_4b/relu_pool_proj"
  type: "ReLU"
  bottom: "inception_4b/pool_proj"
  top: "inception_4b/pool_proj"
}
layer {
  name: "inception_4b/output"
  type: "Concat"
  bottom: "inception_4b/1x1"
  bottom: "inception_4b/3x3"
  bottom: "inception_4b/5x5"
  bottom: "inception_4b/pool_proj"
  top: "inception_4b/output"
}
layer {
  name: "inception_4c/1x1"
  type: "Convolution"
  bottom: "inception_4b/output"
  top: "inception_4c/1x1"
  param {
    lr_mult: 1
    decay_mult: 1
  }
  param {
    lr_mult: 2
    decay_mult: 0
  }
  convolution_param {
    num_output: 128
    kernel_size: 1
    weight_filler {
      type: "xavier"
      std: 0.03
    }
    bias_filler {
      type: "constant"
      value: 0.2
    }
  }
}
layer {
  name: "inception_4c/relu_1x1"
  type: "ReLU"
  bottom: "inception_4c/1x1"
  top: "inception_4c/1x1"
}
layer {
  name: "inception_4c/3x3_reduce"
  type: "Convolution"
  bottom: "inception_4b/output"
  top: "inception_4c/3x3_reduce"
  param {
    lr_mult: 1
    decay_mult: 1
  }
  param {
    lr_mult: 2
    decay_mult: 0
  }
  convolution_param {
    num_output: 128
    kernel_size: 1
    weight_filler {
      type: "xavier"
      std: 0.09
    }
    bias_filler {
      type: "constant"
      value: 0.2
    }
  }
}
layer {
  name: "inception_4c/relu_3x3_reduce"
  type: "ReLU"
  bottom: "inception_4c/3x3_reduce"
  top: "inception_4c/3x3_reduce"
}
layer {
  name: "inception_4c/3x3"
  type: "Convolution"
  bottom: "inception_4c/3x3_reduce"
  top: "inception_4c/3x3"
  param {
    lr_mult: 1
    decay_mult: 1
  }
  param {
    lr_mult: 2
    decay_mult: 0
  }
  convolution_param {
    num_output: 256
    pad: 1
    kernel_size: 3
    weight_filler {
      type: "xavier"
      std: 0.03
    }
    bias_filler {
      type: "constant"
      value: 0.2
    }
  }
}
layer {
  name: "inception_4c/relu_3x3"
  type: "ReLU"
  bottom: "inception_4c/3x3"
  top: "inception_4c/3x3"
}
layer {
  name: "inception_4c/5x5_reduce"
  type: "Convolution"
  bottom: "inception_4b/output"
  top: "inception_4c/5x5_reduce"
  param {
    lr_mult: 1
    decay_mult: 1
  }
  param {
    lr_mult: 2
    decay_mult: 0
  }
  convolution_param {
    num_output: 24
    kernel_size: 1
    weight_filler {
      type: "xavier"
      std: 0.2
    }
    bias_filler {
      type: "constant"
      value: 0.2
    }
  }
}
layer {
  name: "inception_4c/relu_5x5_reduce"
  type: "ReLU"
  bottom: "inception_4c/5x5_reduce"
  top: "inception_4c/5x5_reduce"
}
layer {
  name: "inception_4c/5x5"
  type: "Convolution"
  bottom: "inception_4c/5x5_reduce"
  top: "inception_4c/5x5"
  param {
    lr_mult: 1
    decay_mult: 1
  }
  param {
    lr_mult: 2
    decay_mult: 0
  }
  convolution_param {
    num_output: 64
    pad: 2
    kernel_size: 5
    weight_filler {
      type: "xavier"
      std: 0.03
    }
    bias_filler {
      type: "constant"
      value: 0.2
    }
  }
}
layer {
  name: "inception_4c/relu_5x5"
  type: "ReLU"
  bottom: "inception_4c/5x5"
  top: "inception_4c/5x5"
}
layer {
  name: "inception_4c/pool"
  type: "Pooling"
  bottom: "inception_4b/output"
  top: "inception_4c/pool"
  pooling_param {
    pool: MAX
    kernel_size: 3
    stride: 1
    pad: 1
  }
}
layer {
  name: "inception_4c/pool_proj"
  type: "Convolution"
  bottom: "inception_4c/pool"
  top: "inception_4c/pool_proj"
  param {
    lr_mult: 1
    decay_mult: 1
  }
  param {
    lr_mult: 2
    decay_mult: 0
  }
  convolution_param {
    num_output: 64
    kernel_size: 1
    weight_filler {
      type: "xavier"
      std: 0.1
    }
    bias_filler {
      type: "constant"
      value: 0.2
    }
  }
}
layer {
  name: "inception_4c/relu_pool_proj"
  type: "ReLU"
  bottom: "inception_4c/pool_proj"
  top: "inception_4c/pool_proj"
}
layer {
  name: "inception_4c/output"
  type: "Concat"
  bottom: "inception_4c/1x1"
  bottom: "inception_4c/3x3"
  bottom: "inception_4c/5x5"
  bottom: "inception_4c/pool_proj"
  top: "inception_4c/output"
}
layer {
  name: "inception_4d/1x1"
  type: "Convolution"
  bottom: "inception_4c/output"
  top: "inception_4d/1x1"
  param {
    lr_mult: 1
    decay_mult: 1
  }
  param {
    lr_mult: 2
    decay_mult: 0
  }
  convolution_param {
    num_output: 112
    kernel_size: 1
    weight_filler {
      type: "xavier"
      std: 0.03
    }
    bias_filler {
      type: "constant"
      value: 0.2
    }
  }
}
layer {
  name: "inception_4d/relu_1x1"
  type: "ReLU"
  bottom: "inception_4d/1x1"
  top: "inception_4d/1x1"
}
layer {
  name: "inception_4d/3x3_reduce"
  type: "Convolution"
  bottom: "inception_4c/output"
  top: "inception_4d/3x3_reduce"
  param {
    lr_mult: 1
    decay_mult: 1
  }
  param {
    lr_mult: 2
    decay_mult: 0
  }
  convolution_param {
    num_output: 144
    kernel_size: 1
    weight_filler {
      type: "xavier"
      std: 0.09
    }
    bias_filler {
      type: "constant"
      value: 0.2
    }
  }
}
layer {
  name: "inception_4d/relu_3x3_reduce"
  type: "ReLU"
  bottom: "inception_4d/3x3_reduce"
  top: "inception_4d/3x3_reduce"
}
layer {
  name: "inception_4d/3x3"
  type: "Convolution"
  bottom: "inception_4d/3x3_reduce"
  top: "inception_4d/3x3"
  param {
    lr_mult: 1
    decay_mult: 1
  }
  param {
    lr_mult: 2
    decay_mult: 0
  }
  convolution_param {
    num_output: 288
    pad: 1
    kernel_size: 3
    weight_filler {
      type: "xavier"
      std: 0.03
    }
    bias_filler {
      type: "constant"
      value: 0.2
    }
  }
}
layer {
  name: "inception_4d/relu_3x3"
  type: "ReLU"
  bottom: "inception_4d/3x3"
  top: "inception_4d/3x3"
}
layer {
  name: "inception_4d/5x5_reduce"
  type: "Convolution"
  bottom: "inception_4c/output"
  top: "inception_4d/5x5_reduce"
  param {
    lr_mult: 1
    decay_mult: 1
  }
  param {
    lr_mult: 2
    decay_mult: 0
  }
  convolution_param {
    num_output: 32
    kernel_size: 1
    weight_filler {
      type: "xavier"
      std: 0.2
    }
    bias_filler {
      type: "constant"
      value: 0.2
    }
  }
}
layer {
  name: "inception_4d/relu_5x5_reduce"
  type: "ReLU"
  bottom: "inception_4d/5x5_reduce"
  top: "inception_4d/5x5_reduce"
}
layer {
  name: "inception_4d/5x5"
  type: "Convolution"
  bottom: "inception_4d/5x5_reduce"
  top: "inception_4d/5x5"
  param {
    lr_mult: 1
    decay_mult: 1
  }
  param {
    lr_mult: 2
    decay_mult: 0
  }
  convolution_param {
    num_output: 64
    pad: 2
    kernel_size: 5
    weight_filler {
      type: "xavier"
      std: 0.03
    }
    bias_filler {
      type: "constant"
      value: 0.2
    }
  }
}
layer {
  name: "inception_4d/relu_5x5"
  type: "ReLU"
  bottom: "inception_4d/5x5"
  top: "inception_4d/5x5"
}
layer {
  name: "inception_4d/pool"
  type: "Pooling"
  bottom: "inception_4c/output"
  top: "inception_4d/pool"
  pooling_param {
    pool: MAX
    kernel_size: 3
    stride: 1
    pad: 1
  }
}
layer {
  name: "inception_4d/pool_proj"
  type: "Convolution"
  bottom: "inception_4d/pool"
  top: "inception_4d/pool_proj"
  param {
    lr_mult: 1
    decay_mult: 1
  }
  param {
    lr_mult: 2
    decay_mult: 0
  }
  convolution_param {
    num_output: 64
    kernel_size: 1
    weight_filler {
      type: "xavier"
      std: 0.1
    }
    bias_filler {
      type: "constant"
      value: 0.2
    }
  }
}
layer {
  name: "inception_4d/relu_pool_proj"
  type: "ReLU"
  bottom: "inception_4d/pool_proj"
  top: "inception_4d/pool_proj"
}
layer {
  name: "inception_4d/output"
  type: "Concat"
  bottom: "inception_4d/1x1"
  bottom: "inception_4d/3x3"
  bottom: "inception_4d/5x5"
  bottom: "inception_4d/pool_proj"
  top: "inception_4d/output"
}
layer {
  name: "loss2/ave_pool"
  type: "Pooling"
  bottom: "inception_4d/output"
  top: "loss2/ave_pool"
  pooling_param {
    pool: AVE
    kernel_size: 5
    stride: 3
  }
}
layer {
  name: "loss2/conv"
  type: "Convolution"
  bottom: "loss2/ave_pool"
  top: "loss2/conv"
  param {
    lr_mult: 1
    decay_mult: 1
  }
  param {
    lr_mult: 2
    decay_mult: 0
  }
  convolution_param {
    num_output: 128
    kernel_size: 1
    weight_filler {
      type: "xavier"
      std: 0.08
    }
    bias_filler {
      type: "constant"
      value: 0.2
    }
  }
}
layer {
  name: "loss2/relu_conv"
  type: "ReLU"
  bottom: "loss2/conv"
  top: "loss2/conv"
}
layer {
  name: "loss2/fc"
  type: "InnerProduct"
  bottom: "loss2/conv"
  top: "loss2/fc"
  param {
    lr_mult: 1
    decay_mult: 1
  }
  param {
    lr_mult: 2
    decay_mult: 0
  }
  inner_product_param {
    num_output: 1024
    weight_filler {
      type: "xavier"
      std: 0.02
    }
    bias_filler {
      type: "constant"
      value: 0.2
    }
  }
}
layer {
  name: "loss2/relu_fc"
  type: "ReLU"
  bottom: "loss2/fc"
  top: "loss2/fc"
}
layer {
  name: "loss2/drop_fc"
  type: "Dropout"
  bottom: "loss2/fc"
  top: "loss2/fc"
  dropout_param {
    dropout_ratio: 0.7
  }
}
layer {
  name: "loss2/classifier_plantvillage"
  type: "InnerProduct"
  bottom: "loss2/fc"
  top: "loss2/classifier_plantvillage"
  param {
    lr_mult: 1
    decay_mult: 1
  }
  param {
    lr_mult: 2
    decay_mult: 0
  }
  inner_product_param {
    num_output: 38
    weight_filler {
      type: "xavier"
      std: 0.0009765625
    }
    bias_filler {
      type: "constant"
      value: 0
    }
  }
}
layer {
  name: "inception_4e/1x1"
  type: "Convolution"
  bottom: "inception_4d/output"
  top: "inception_4e/1x1"
  param {
    lr_mult: 1
    decay_mult: 1
  }
  param {
    lr_mult: 2
    decay_mult: 0
  }
  convolution_param {
    num_output: 256
    kernel_size: 1
    weight_filler {
      type: "xavier"
      std: 0.03
    }
    bias_filler {
      type: "constant"
      value: 0.2
    }
  }
}
layer {
  name: "inception_4e/relu_1x1"
  type: "ReLU"
  bottom: "inception_4e/1x1"
  top: "inception_4e/1x1"
}
layer {
  name: "inception_4e/3x3_reduce"
  type: "Convolution"
  bottom: "inception_4d/output"
  top: "inception_4e/3x3_reduce"
  param {
    lr_mult: 1
    decay_mult: 1
  }
  param {
    lr_mult: 2
    decay_mult: 0
  }
  convolution_param {
    num_output: 160
    kernel_size: 1
    weight_filler {
      type: "xavier"
      std: 0.09
    }
    bias_filler {
      type: "constant"
      value: 0.2
    }
  }
}
layer {
  name: "inception_4e/relu_3x3_reduce"
  type: "ReLU"
  bottom: "inception_4e/3x3_reduce"
  top: "inception_4e/3x3_reduce"
}
layer {
  name: "inception_4e/3x3"
  type: "Convolution"
  bottom: "inception_4e/3x3_reduce"
  top: "inception_4e/3x3"
  param {
    lr_mult: 1
    decay_mult: 1
  }
  param {
    lr_mult: 2
    decay_mult: 0
  }
  convolution_param {
    num_output: 320
    pad: 1
    kernel_size: 3
    weight_filler {
      type: "xavier"
      std: 0.03
    }
    bias_filler {
      type: "constant"
      value: 0.2
    }
  }
}
layer {
  name: "inception_4e/relu_3x3"
  type: "ReLU"
  bottom: "inception_4e/3x3"
  top: "inception_4e/3x3"
}
layer {
  name: "inception_4e/5x5_reduce"
  type: "Convolution"
  bottom: "inception_4d/output"
  top: "inception_4e/5x5_reduce"
  param {
    lr_mult: 1
    decay_mult: 1
  }
  param {
    lr_mult: 2
    decay_mult: 0
  }
  convolution_param {
    num_output: 32
    kernel_size: 1
    weight_filler {
      type: "xavier"
      std: 0.2
    }
    bias_filler {
      type: "constant"
      value: 0.2
    }
  }
}
layer {
  name: "inception_4e/relu_5x5_reduce"
  type: "ReLU"
  bottom: "inception_4e/5x5_reduce"
  top: "inception_4e/5x5_reduce"
}
layer {
  name: "inception_4e/5x5"
  type: "Convolution"
  bottom: "inception_4e/5x5_reduce"
  top: "inception_4e/
I0403 13:40:03.424170 11894 layer_factory.hpp:77] Creating layer data
I0403 13:40:03.424821 11894 net.cpp:91] Creating Layer data
I0403 13:40:03.424855 11894 net.cpp:399] data -> data
I0403 13:40:03.424907 11894 net.cpp:399] data -> label
I0403 13:40:03.424947 11894 data_transformer.cpp:25] Loading mean file from: /home/mohanty/data/final_dataset/lmdb/segmented-20-80/mean.binaryproto
I0403 13:40:03.429688 11902 db_lmdb.cpp:38] Opened lmdb /home/mohanty/data/final_dataset/lmdb/segmented-20-80/test_db
I0403 13:40:03.438313 11894 data_layer.cpp:41] output data size: 24,3,224,224
I0403 13:40:03.465560 11894 net.cpp:141] Setting up data
I0403 13:40:03.465651 11894 net.cpp:148] Top shape: 24 3 224 224 (3612672)
I0403 13:40:03.465673 11894 net.cpp:148] Top shape: 24 (24)
I0403 13:40:03.465689 11894 net.cpp:156] Memory required for data: 14450784
I0403 13:40:03.465718 11894 layer_factory.hpp:77] Creating layer label_data_1_split
I0403 13:40:03.465744 11894 net.cpp:91] Creating Layer label_data_1_split
I0403 13:40:03.465761 11894 net.cpp:425] label_data_1_split <- label
I0403 13:40:03.465795 11894 net.cpp:399] label_data_1_split -> label_data_1_split_0
I0403 13:40:03.465823 11894 net.cpp:399] label_data_1_split -> label_data_1_split_1
I0403 13:40:03.465844 11894 net.cpp:399] label_data_1_split -> label_data_1_split_2
I0403 13:40:03.465865 11894 net.cpp:399] label_data_1_split -> label_data_1_split_3
I0403 13:40:03.465885 11894 net.cpp:399] label_data_1_split -> label_data_1_split_4
I0403 13:40:03.465905 11894 net.cpp:399] label_data_1_split -> label_data_1_split_5
I0403 13:40:03.465925 11894 net.cpp:399] label_data_1_split -> label_data_1_split_6
I0403 13:40:03.465945 11894 net.cpp:399] label_data_1_split -> label_data_1_split_7
I0403 13:40:03.465965 11894 net.cpp:399] label_data_1_split -> label_data_1_split_8
I0403 13:40:03.465986 11894 net.cpp:399] label_data_1_split -> label_data_1_split_9
I0403 13:40:03.466104 11894 net.cpp:141] Setting up label_data_1_split
I0403 13:40:03.466128 11894 net.cpp:148] Top shape: 24 (24)
I0403 13:40:03.466145 11894 net.cpp:148] Top shape: 24 (24)
I0403 13:40:03.466161 11894 net.cpp:148] Top shape: 24 (24)
I0403 13:40:03.466176 11894 net.cpp:148] Top shape: 24 (24)
I0403 13:40:03.466192 11894 net.cpp:148] Top shape: 24 (24)
I0403 13:40:03.466207 11894 net.cpp:148] Top shape: 24 (24)
I0403 13:40:03.466223 11894 net.cpp:148] Top shape: 24 (24)
I0403 13:40:03.466239 11894 net.cpp:148] Top shape: 24 (24)
I0403 13:40:03.466254 11894 net.cpp:148] Top shape: 24 (24)
I0403 13:40:03.466272 11894 net.cpp:148] Top shape: 24 (24)
I0403 13:40:03.466320 11894 net.cpp:156] Memory required for data: 14451744
I0403 13:40:03.466336 11894 layer_factory.hpp:77] Creating layer conv1/7x7_s2
I0403 13:40:03.466368 11894 net.cpp:91] Creating Layer conv1/7x7_s2
I0403 13:40:03.466387 11894 net.cpp:425] conv1/7x7_s2 <- data
I0403 13:40:03.466406 11894 net.cpp:399] conv1/7x7_s2 -> conv1/7x7_s2
I0403 13:40:03.609016 11894 net.cpp:141] Setting up conv1/7x7_s2
I0403 13:40:03.609092 11894 net.cpp:148] Top shape: 24 64 112 112 (19267584)
I0403 13:40:03.609110 11894 net.cpp:156] Memory required for data: 91522080
I0403 13:40:03.609139 11894 layer_factory.hpp:77] Creating layer conv1/relu_7x7
I0403 13:40:03.609165 11894 net.cpp:91] Creating Layer conv1/relu_7x7
I0403 13:40:03.609184 11894 net.cpp:425] conv1/relu_7x7 <- conv1/7x7_s2
I0403 13:40:03.609202 11894 net.cpp:386] conv1/relu_7x7 -> conv1/7x7_s2 (in-place)
I0403 13:40:03.609468 11894 net.cpp:141] Setting up conv1/relu_7x7
I0403 13:40:03.609495 11894 net.cpp:148] Top shape: 24 64 112 112 (19267584)
I0403 13:40:03.609511 11894 net.cpp:156] Memory required for data: 168592416
I0403 13:40:03.609525 11894 layer_factory.hpp:77] Creating layer pool1/3x3_s2
I0403 13:40:03.609555 11894 net.cpp:91] Creating Layer pool1/3x3_s2
I0403 13:40:03.609575 11894 net.cpp:425] pool1/3x3_s2 <- conv1/7x7_s2
I0403 13:40:03.609604 11894 net.cpp:399] pool1/3x3_s2 -> pool1/3x3_s2
I0403 13:40:03.609678 11894 net.cpp:141] Setting up pool1/3x3_s2
I0403 13:40:03.609700 11894 net.cpp:148] Top shape: 24 64 56 56 (4816896)
I0403 13:40:03.609715 11894 net.cpp:156] Memory required for data: 187860000
I0403 13:40:03.609730 11894 layer_factory.hpp:77] Creating layer pool1/norm1
I0403 13:40:03.609753 11894 net.cpp:91] Creating Layer pool1/norm1
I0403 13:40:03.609769 11894 net.cpp:425] pool1/norm1 <- pool1/3x3_s2
I0403 13:40:03.609786 11894 net.cpp:399] pool1/norm1 -> pool1/norm1
I0403 13:40:03.610067 11894 net.cpp:141] Setting up pool1/norm1
I0403 13:40:03.610093 11894 net.cpp:148] Top shape: 24 64 56 56 (4816896)
I0403 13:40:03.610108 11894 net.cpp:156] Memory required for data: 207127584
I0403 13:40:03.610122 11894 layer_factory.hpp:77] Creating layer conv2/3x3_reduce
I0403 13:40:03.610146 11894 net.cpp:91] Creating Layer conv2/3x3_reduce
I0403 13:40:03.610162 11894 net.cpp:425] conv2/3x3_reduce <- pool1/norm1
I0403 13:40:03.610180 11894 net.cpp:399] conv2/3x3_reduce -> conv2/3x3_reduce
I0403 13:40:03.611513 11894 net.cpp:141] Setting up conv2/3x3_reduce
I0403 13:40:03.611551 11894 net.cpp:148] Top shape: 24 64 56 56 (4816896)
I0403 13:40:03.611569 11894 net.cpp:156] Memory required for data: 226395168
I0403 13:40:03.611590 11894 layer_factory.hpp:77] Creating layer conv2/relu_3x3_reduce
I0403 13:40:03.611608 11894 net.cpp:91] Creating Layer conv2/relu_3x3_reduce
I0403 13:40:03.611624 11894 net.cpp:425] conv2/relu_3x3_reduce <- conv2/3x3_reduce
I0403 13:40:03.611641 11894 net.cpp:386] conv2/relu_3x3_reduce -> conv2/3x3_reduce (in-place)
I0403 13:40:03.611907 11894 net.cpp:141] Setting up conv2/relu_3x3_reduce
I0403 13:40:03.611934 11894 net.cpp:148] Top shape: 24 64 56 56 (4816896)
I0403 13:40:03.611950 11894 net.cpp:156] Memory required for data: 245662752
I0403 13:40:03.611964 11894 layer_factory.hpp:77] Creating layer conv2/3x3
I0403 13:40:03.611987 11894 net.cpp:91] Creating Layer conv2/3x3
I0403 13:40:03.612004 11894 net.cpp:425] conv2/3x3 <- conv2/3x3_reduce
I0403 13:40:03.612025 11894 net.cpp:399] conv2/3x3 -> conv2/3x3
I0403 13:40:03.614321 11894 net.cpp:141] Setting up conv2/3x3
I0403 13:40:03.614352 11894 net.cpp:148] Top shape: 24 192 56 56 (14450688)
I0403 13:40:03.614369 11894 net.cpp:156] Memory required for data: 303465504
I0403 13:40:03.614389 11894 layer_factory.hpp:77] Creating layer conv2/relu_3x3
I0403 13:40:03.614408 11894 net.cpp:91] Creating Layer conv2/relu_3x3
I0403 13:40:03.614423 11894 net.cpp:425] conv2/relu_3x3 <- conv2/3x3
I0403 13:40:03.614440 11894 net.cpp:386] conv2/relu_3x3 -> conv2/3x3 (in-place)
I0403 13:40:03.614629 11894 net.cpp:141] Setting up conv2/relu_3x3
I0403 13:40:03.614653 11894 net.cpp:148] Top shape: 24 192 56 56 (14450688)
I0403 13:40:03.614701 11894 net.cpp:156] Memory required for data: 361268256
I0403 13:40:03.614716 11894 layer_factory.hpp:77] Creating layer conv2/norm2
I0403 13:40:03.614737 11894 net.cpp:91] Creating Layer conv2/norm2
I0403 13:40:03.614753 11894 net.cpp:425] conv2/norm2 <- conv2/3x3
I0403 13:40:03.614770 11894 net.cpp:399] conv2/norm2 -> conv2/norm2
I0403 13:40:03.615070 11894 net.cpp:141] Setting up conv2/norm2
I0403 13:40:03.615102 11894 net.cpp:148] Top shape: 24 192 56 56 (14450688)
I0403 13:40:03.615116 11894 net.cpp:156] Memory required for data: 419071008
I0403 13:40:03.615131 11894 layer_factory.hpp:77] Creating layer pool2/3x3_s2
I0403 13:40:03.615149 11894 net.cpp:91] Creating Layer pool2/3x3_s2
I0403 13:40:03.615164 11894 net.cpp:425] pool2/3x3_s2 <- conv2/norm2
I0403 13:40:03.615181 11894 net.cpp:399] pool2/3x3_s2 -> pool2/3x3_s2
I0403 13:40:03.615232 11894 net.cpp:141] Setting up pool2/3x3_s2
I0403 13:40:03.615254 11894 net.cpp:148] Top shape: 24 192 28 28 (3612672)
I0403 13:40:03.615269 11894 net.cpp:156] Memory required for data: 433521696
I0403 13:40:03.615283 11894 layer_factory.hpp:77] Creating layer pool2/3x3_s2_pool2/3x3_s2_0_split
I0403 13:40:03.615303 11894 net.cpp:91] Creating Layer pool2/3x3_s2_pool2/3x3_s2_0_split
I0403 13:40:03.615317 11894 net.cpp:425] pool2/3x3_s2_pool2/3x3_s2_0_split <- pool2/3x3_s2
I0403 13:40:03.615334 11894 net.cpp:399] pool2/3x3_s2_pool2/3x3_s2_0_split -> pool2/3x3_s2_pool2/3x3_s2_0_split_0
I0403 13:40:03.615352 11894 net.cpp:399] pool2/3x3_s2_pool2/3x3_s2_0_split -> pool2/3x3_s2_pool2/3x3_s2_0_split_1
I0403 13:40:03.615370 11894 net.cpp:399] pool2/3x3_s2_pool2/3x3_s2_0_split -> pool2/3x3_s2_pool2/3x3_s2_0_split_2
I0403 13:40:03.615389 11894 net.cpp:399] pool2/3x3_s2_pool2/3x3_s2_0_split -> pool2/3x3_s2_pool2/3x3_s2_0_split_3
I0403 13:40:03.615459 11894 net.cpp:141] Setting up pool2/3x3_s2_pool2/3x3_s2_0_split
I0403 13:40:03.615480 11894 net.cpp:148] Top shape: 24 192 28 28 (3612672)
I0403 13:40:03.615495 11894 net.cpp:148] Top shape: 24 192 28 28 (3612672)
I0403 13:40:03.615511 11894 net.cpp:148] Top shape: 24 192 28 28 (3612672)
I0403 13:40:03.615525 11894 net.cpp:148] Top shape: 24 192 28 28 (3612672)
I0403 13:40:03.615543 11894 net.cpp:156] Memory required for data: 491324448
I0403 13:40:03.615558 11894 layer_factory.hpp:77] Creating layer inception_3a/1x1
I0403 13:40:03.615581 11894 net.cpp:91] Creating Layer inception_3a/1x1
I0403 13:40:03.615597 11894 net.cpp:425] inception_3a/1x1 <- pool2/3x3_s2_pool2/3x3_s2_0_split_0
I0403 13:40:03.615617 11894 net.cpp:399] inception_3a/1x1 -> inception_3a/1x1
I0403 13:40:03.617120 11894 net.cpp:141] Setting up inception_3a/1x1
I0403 13:40:03.617151 11894 net.cpp:148] Top shape: 24 64 28 28 (1204224)
I0403 13:40:03.617166 11894 net.cpp:156] Memory required for data: 496141344
I0403 13:40:03.617183 11894 layer_factory.hpp:77] Creating layer inception_3a/relu_1x1
I0403 13:40:03.617202 11894 net.cpp:91] Creating Layer inception_3a/relu_1x1
I0403 13:40:03.617218 11894 net.cpp:425] inception_3a/relu_1x1 <- inception_3a/1x1
I0403 13:40:03.617238 11894 net.cpp:386] inception_3a/relu_1x1 -> inception_3a/1x1 (in-place)
I0403 13:40:03.617426 11894 net.cpp:141] Setting up inception_3a/relu_1x1
I0403 13:40:03.617451 11894 net.cpp:148] Top shape: 24 64 28 28 (1204224)
I0403 13:40:03.617466 11894 net.cpp:156] Memory required for data: 500958240
I0403 13:40:03.617480 11894 layer_factory.hpp:77] Creating layer inception_3a/3x3_reduce
I0403 13:40:03.617502 11894 net.cpp:91] Creating Layer inception_3a/3x3_reduce
I0403 13:40:03.617519 11894 net.cpp:425] inception_3a/3x3_reduce <- pool2/3x3_s2_pool2/3x3_s2_0_split_1
I0403 13:40:03.617544 11894 net.cpp:399] inception_3a/3x3_reduce -> inception_3a/3x3_reduce
I0403 13:40:03.619269 11894 net.cpp:141] Setting up inception_3a/3x3_reduce
I0403 13:40:03.619300 11894 net.cpp:148] Top shape: 24 96 28 28 (1806336)
I0403 13:40:03.619318 11894 net.cpp:156] Memory required for data: 508183584
I0403 13:40:03.619338 11894 layer_factory.hpp:77] Creating layer inception_3a/relu_3x3_reduce
I0403 13:40:03.619374 11894 net.cpp:91] Creating Layer inception_3a/relu_3x3_reduce
I0403 13:40:03.619391 11894 net.cpp:425] inception_3a/relu_3x3_reduce <- inception_3a/3x3_reduce
I0403 13:40:03.619408 11894 net.cpp:386] inception_3a/relu_3x3_reduce -> inception_3a/3x3_reduce (in-place)
I0403 13:40:03.619590 11894 net.cpp:141] Setting up inception_3a/relu_3x3_reduce
I0403 13:40:03.619617 11894 net.cpp:148] Top shape: 24 96 28 28 (1806336)
I0403 13:40:03.619632 11894 net.cpp:156] Memory required for data: 515408928
I0403 13:40:03.619647 11894 layer_factory.hpp:77] Creating layer inception_3a/3x3
I0403 13:40:03.619668 11894 net.cpp:91] Creating Layer inception_3a/3x3
I0403 13:40:03.619684 11894 net.cpp:425] inception_3a/3x3 <- inception_3a/3x3_reduce
I0403 13:40:03.619702 11894 net.cpp:399] inception_3a/3x3 -> inception_3a/3x3
I0403 13:40:03.621345 11894 net.cpp:141] Setting up inception_3a/3x3
I0403 13:40:03.621373 11894 net.cpp:148] Top shape: 24 128 28 28 (2408448)
I0403 13:40:03.621388 11894 net.cpp:156] Memory required for data: 525042720
I0403 13:40:03.621407 11894 layer_factory.hpp:77] Creating layer inception_3a/relu_3x3
I0403 13:40:03.621423 11894 net.cpp:91] Creating Layer inception_3a/relu_3x3
I0403 13:40:03.621439 11894 net.cpp:425] inception_3a/relu_3x3 <- inception_3a/3x3
I0403 13:40:03.621459 11894 net.cpp:386] inception_3a/relu_3x3 -> inception_3a/3x3 (in-place)
I0403 13:40:03.621752 11894 net.cpp:141] Setting up inception_3a/relu_3x3
I0403 13:40:03.621778 11894 net.cpp:148] Top shape: 24 128 28 28 (2408448)
I0403 13:40:03.621791 11894 net.cpp:156] Memory required for data: 534676512
I0403 13:40:03.621805 11894 layer_factory.hpp:77] Creating layer inception_3a/5x5_reduce
I0403 13:40:03.621827 11894 net.cpp:91] Creating Layer inception_3a/5x5_reduce
I0403 13:40:03.621845 11894 net.cpp:425] inception_3a/5x5_reduce <- pool2/3x3_s2_pool2/3x3_s2_0_split_2
I0403 13:40:03.621865 11894 net.cpp:399] inception_3a/5x5_reduce -> inception_3a/5x5_reduce
I0403 13:40:03.622828 11894 net.cpp:141] Setting up inception_3a/5x5_reduce
I0403 13:40:03.622855 11894 net.cpp:148] Top shape: 24 16 28 28 (301056)
I0403 13:40:03.622870 11894 net.cpp:156] Memory required for data: 535880736
I0403 13:40:03.622887 11894 layer_factory.hpp:77] Creating layer inception_3a/relu_5x5_reduce
I0403 13:40:03.622907 11894 net.cpp:91] Creating Layer inception_3a/relu_5x5_reduce
I0403 13:40:03.622923 11894 net.cpp:425] inception_3a/relu_5x5_reduce <- inception_3a/5x5_reduce
I0403 13:40:03.622941 11894 net.cpp:386] inception_3a/relu_5x5_reduce -> inception_3a/5x5_reduce (in-place)
I0403 13:40:03.623234 11894 net.cpp:141] Setting up inception_3a/relu_5x5_reduce
I0403 13:40:03.623260 11894 net.cpp:148] Top shape: 24 16 28 28 (301056)
I0403 13:40:03.623275 11894 net.cpp:156] Memory required for data: 537084960
I0403 13:40:03.623288 11894 layer_factory.hpp:77] Creating layer inception_3a/5x5
I0403 13:40:03.623311 11894 net.cpp:91] Creating Layer inception_3a/5x5
I0403 13:40:03.623327 11894 net.cpp:425] inception_3a/5x5 <- inception_3a/5x5_reduce
I0403 13:40:03.623347 11894 net.cpp:399] inception_3a/5x5 -> inception_3a/5x5
I0403 13:40:03.624346 11894 net.cpp:141] Setting up inception_3a/5x5
I0403 13:40:03.624373 11894 net.cpp:148] Top shape: 24 32 28 28 (602112)
I0403 13:40:03.624388 11894 net.cpp:156] Memory required for data: 539493408
I0403 13:40:03.624405 11894 layer_factory.hpp:77] Creating layer inception_3a/relu_5x5
I0403 13:40:03.624423 11894 net.cpp:91] Creating Layer inception_3a/relu_5x5
I0403 13:40:03.624438 11894 net.cpp:425] inception_3a/relu_5x5 <- inception_3a/5x5
I0403 13:40:03.624456 11894 net.cpp:386] inception_3a/relu_5x5 -> inception_3a/5x5 (in-place)
I0403 13:40:03.624637 11894 net.cpp:141] Setting up inception_3a/relu_5x5
I0403 13:40:03.624661 11894 net.cpp:148] Top shape: 24 32 28 28 (602112)
I0403 13:40:03.624676 11894 net.cpp:156] Memory required for data: 541901856
I0403 13:40:03.624689 11894 layer_factory.hpp:77] Creating layer inception_3a/pool
I0403 13:40:03.624709 11894 net.cpp:91] Creating Layer inception_3a/pool
I0403 13:40:03.624739 11894 net.cpp:425] inception_3a/pool <- pool2/3x3_s2_pool2/3x3_s2_0_split_3
I0403 13:40:03.624758 11894 net.cpp:399] inception_3a/pool -> inception_3a/pool
I0403 13:40:03.624815 11894 net.cpp:141] Setting up inception_3a/pool
I0403 13:40:03.624837 11894 net.cpp:148] Top shape: 24 192 28 28 (3612672)
I0403 13:40:03.624851 11894 net.cpp:156] Memory required for data: 556352544
I0403 13:40:03.624866 11894 layer_factory.hpp:77] Creating layer inception_3a/pool_proj
I0403 13:40:03.624886 11894 net.cpp:91] Creating Layer inception_3a/pool_proj
I0403 13:40:03.624902 11894 net.cpp:425] inception_3a/pool_proj <- inception_3a/pool
I0403 13:40:03.624923 11894 net.cpp:399] inception_3a/pool_proj -> inception_3a/pool_proj
I0403 13:40:03.625911 11894 net.cpp:141] Setting up inception_3a/pool_proj
I0403 13:40:03.625941 11894 net.cpp:148] Top shape: 24 32 28 28 (602112)
I0403 13:40:03.625957 11894 net.cpp:156] Memory required for data: 558760992
I0403 13:40:03.625978 11894 layer_factory.hpp:77] Creating layer inception_3a/relu_pool_proj
I0403 13:40:03.625998 11894 net.cpp:91] Creating Layer inception_3a/relu_pool_proj
I0403 13:40:03.626014 11894 net.cpp:425] inception_3a/relu_pool_proj <- inception_3a/pool_proj
I0403 13:40:03.626030 11894 net.cpp:386] inception_3a/relu_pool_proj -> inception_3a/pool_proj (in-place)
I0403 13:40:03.626302 11894 net.cpp:141] Setting up inception_3a/relu_pool_proj
I0403 13:40:03.626327 11894 net.cpp:148] Top shape: 24 32 28 28 (602112)
I0403 13:40:03.626343 11894 net.cpp:156] Memory required for data: 561169440
I0403 13:40:03.626356 11894 layer_factory.hpp:77] Creating layer inception_3a/output
I0403 13:40:03.626373 11894 net.cpp:91] Creating Layer inception_3a/output
I0403 13:40:03.626387 11894 net.cpp:425] inception_3a/output <- inception_3a/1x1
I0403 13:40:03.626402 11894 net.cpp:425] inception_3a/output <- inception_3a/3x3
I0403 13:40:03.626417 11894 net.cpp:425] inception_3a/output <- inception_3a/5x5
I0403 13:40:03.626431 11894 net.cpp:425] inception_3a/output <- inception_3a/pool_proj
I0403 13:40:03.626449 11894 net.cpp:399] inception_3a/output -> inception_3a/output
I0403 13:40:03.626495 11894 net.cpp:141] Setting up inception_3a/output
I0403 13:40:03.626520 11894 net.cpp:148] Top shape: 24 256 28 28 (4816896)
I0403 13:40:03.626540 11894 net.cpp:156] Memory required for data: 580437024
I0403 13:40:03.626556 11894 layer_factory.hpp:77] Creating layer inception_3a/output_inception_3a/output_0_split
I0403 13:40:03.626572 11894 net.cpp:91] Creating Layer inception_3a/output_inception_3a/output_0_split
I0403 13:40:03.626587 11894 net.cpp:425] inception_3a/output_inception_3a/output_0_split <- inception_3a/output
I0403 13:40:03.626602 11894 net.cpp:399] inception_3a/output_inception_3a/output_0_split -> inception_3a/output_inception_3a/output_0_split_0
I0403 13:40:03.626624 11894 net.cpp:399] inception_3a/output_inception_3a/output_0_split -> inception_3a/output_inception_3a/output_0_split_1
I0403 13:40:03.626647 11894 net.cpp:399] inception_3a/output_inception_3a/output_0_split -> inception_3a/output_inception_3a/output_0_split_2
I0403 13:40:03.626667 11894 net.cpp:399] inception_3a/output_inception_3a/output_0_split -> inception_3a/output_inception_3a/output_0_split_3
I0403 13:40:03.626741 11894 net.cpp:141] Setting up inception_3a/output_inception_3a/output_0_split
I0403 13:40:03.626765 11894 net.cpp:148] Top shape: 24 256 28 28 (4816896)
I0403 13:40:03.626781 11894 net.cpp:148] Top shape: 24 256 28 28 (4816896)
I0403 13:40:03.626796 11894 net.cpp:148] Top shape: 24 256 28 28 (4816896)
I0403 13:40:03.626812 11894 net.cpp:148] Top shape: 24 256 28 28 (4816896)
I0403 13:40:03.626826 11894 net.cpp:156] Memory required for data: 657507360
I0403 13:40:03.626838 11894 layer_factory.hpp:77] Creating layer inception_3b/1x1
I0403 13:40:03.626860 11894 net.cpp:91] Creating Layer inception_3b/1x1
I0403 13:40:03.626878 11894 net.cpp:425] inception_3b/1x1 <- inception_3a/output_inception_3a/output_0_split_0
I0403 13:40:03.626894 11894 net.cpp:399] inception_3b/1x1 -> inception_3b/1x1
I0403 13:40:03.628012 11894 net.cpp:141] Setting up inception_3b/1x1
I0403 13:40:03.628053 11894 net.cpp:148] Top shape: 24 128 28 28 (2408448)
I0403 13:40:03.628070 11894 net.cpp:156] Memory required for data: 667141152
I0403 13:40:03.628088 11894 layer_factory.hpp:77] Creating layer inception_3b/relu_1x1
I0403 13:40:03.628105 11894 net.cpp:91] Creating Layer inception_3b/relu_1x1
I0403 13:40:03.628120 11894 net.cpp:425] inception_3b/relu_1x1 <- inception_3b/1x1
I0403 13:40:03.628139 11894 net.cpp:386] inception_3b/relu_1x1 -> inception_3b/1x1 (in-place)
I0403 13:40:03.628322 11894 net.cpp:141] Setting up inception_3b/relu_1x1
I0403 13:40:03.628348 11894 net.cpp:148] Top shape: 24 128 28 28 (2408448)
I0403 13:40:03.628363 11894 net.cpp:156] Memory required for data: 676774944
I0403 13:40:03.628377 11894 layer_factory.hpp:77] Creating layer inception_3b/3x3_reduce
I0403 13:40:03.628399 11894 net.cpp:91] Creating Layer inception_3b/3x3_reduce
I0403 13:40:03.628417 11894 net.cpp:425] inception_3b/3x3_reduce <- inception_3a/output_inception_3a/output_0_split_1
I0403 13:40:03.628437 11894 net.cpp:399] inception_3b/3x3_reduce -> inception_3b/3x3_reduce
I0403 13:40:03.629608 11894 net.cpp:141] Setting up inception_3b/3x3_reduce
I0403 13:40:03.629639 11894 net.cpp:148] Top shape: 24 128 28 28 (2408448)
I0403 13:40:03.629654 11894 net.cpp:156] Memory required for data: 686408736
I0403 13:40:03.629672 11894 layer_factory.hpp:77] Creating layer inception_3b/relu_3x3_reduce
I0403 13:40:03.629689 11894 net.cpp:91] Creating Layer inception_3b/relu_3x3_reduce
I0403 13:40:03.629705 11894 net.cpp:425] inception_3b/relu_3x3_reduce <- inception_3b/3x3_reduce
I0403 13:40:03.629721 11894 net.cpp:386] inception_3b/relu_3x3_reduce -> inception_3b/3x3_reduce (in-place)
I0403 13:40:03.629895 11894 net.cpp:141] Setting up inception_3b/relu_3x3_reduce
I0403 13:40:03.629920 11894 net.cpp:148] Top shape: 24 128 28 28 (2408448)
I0403 13:40:03.629935 11894 net.cpp:156] Memory required for data: 696042528
I0403 13:40:03.629947 11894 layer_factory.hpp:77] Creating layer inception_3b/3x3
I0403 13:40:03.629971 11894 net.cpp:91] Creating Layer inception_3b/3x3
I0403 13:40:03.629989 11894 net.cpp:425] inception_3b/3x3 <- inception_3b/3x3_reduce
I0403 13:40:03.630009 11894 net.cpp:399] inception_3b/3x3 -> inception_3b/3x3
I0403 13:40:03.632928 11894 net.cpp:141] Setting up inception_3b/3x3
I0403 13:40:03.632956 11894 net.cpp:148] Top shape: 24 192 28 28 (3612672)
I0403 13:40:03.632972 11894 net.cpp:156] Memory required for data: 710493216
I0403 13:40:03.632989 11894 layer_factory.hpp:77] Creating layer inception_3b/relu_3x3
I0403 13:40:03.633007 11894 net.cpp:91] Creating Layer inception_3b/relu_3x3
I0403 13:40:03.633023 11894 net.cpp:425] inception_3b/relu_3x3 <- inception_3b/3x3
I0403 13:40:03.633040 11894 net.cpp:386] inception_3b/relu_3x3 -> inception_3b/3x3 (in-place)
I0403 13:40:03.633325 11894 net.cpp:141] Setting up inception_3b/relu_3x3
I0403 13:40:03.633352 11894 net.cpp:148] Top shape: 24 192 28 28 (3612672)
I0403 13:40:03.633365 11894 net.cpp:156] Memory required for data: 724943904
I0403 13:40:03.633380 11894 layer_factory.hpp:77] Creating layer inception_3b/5x5_reduce
I0403 13:40:03.633404 11894 net.cpp:91] Creating Layer inception_3b/5x5_reduce
I0403 13:40:03.633420 11894 net.cpp:425] inception_3b/5x5_reduce <- inception_3a/output_inception_3a/output_0_split_2
I0403 13:40:03.633443 11894 net.cpp:399] inception_3b/5x5_reduce -> inception_3b/5x5_reduce
I0403 13:40:03.634469 11894 net.cpp:141] Setting up inception_3b/5x5_reduce
I0403 13:40:03.634497 11894 net.cpp:148] Top shape: 24 32 28 28 (602112)
I0403 13:40:03.634512 11894 net.cpp:156] Memory required for data: 727352352
I0403 13:40:03.634531 11894 layer_factory.hpp:77] Creating layer inception_3b/relu_5x5_reduce
I0403 13:40:03.634562 11894 net.cpp:91] Creating Layer inception_3b/relu_5x5_reduce
I0403 13:40:03.634579 11894 net.cpp:425] inception_3b/relu_5x5_reduce <- inception_3b/5x5_reduce
I0403 13:40:03.634611 11894 net.cpp:386] inception_3b/relu_5x5_reduce -> inception_3b/5x5_reduce (in-place)
I0403 13:40:03.634804 11894 net.cpp:141] Setting up inception_3b/relu_5x5_reduce
I0403 13:40:03.634829 11894 net.cpp:148] Top shape: 24 32 28 28 (602112)
I0403 13:40:03.634843 11894 net.cpp:156] Memory required for data: 729760800
I0403 13:40:03.634857 11894 layer_factory.hpp:77] Creating layer inception_3b/5x5
I0403 13:40:03.634879 11894 net.cpp:91] Creating Layer inception_3b/5x5
I0403 13:40:03.634896 11894 net.cpp:425] inception_3b/5x5 <- inception_3b/5x5_reduce
I0403 13:40:03.634915 11894 net.cpp:399] inception_3b/5x5 -> inception_3b/5x5
I0403 13:40:03.636968 11894 net.cpp:141] Setting up inception_3b/5x5
I0403 13:40:03.637001 11894 net.cpp:148] Top shape: 24 96 28 28 (1806336)
I0403 13:40:03.637018 11894 net.cpp:156] Memory required for data: 736986144
I0403 13:40:03.637035 11894 layer_factory.hpp:77] Creating layer inception_3b/relu_5x5
I0403 13:40:03.637053 11894 net.cpp:91] Creating Layer inception_3b/relu_5x5
I0403 13:40:03.637069 11894 net.cpp:425] inception_3b/relu_5x5 <- inception_3b/5x5
I0403 13:40:03.637086 11894 net.cpp:386] inception_3b/relu_5x5 -> inception_3b/5x5 (in-place)
I0403 13:40:03.637282 11894 net.cpp:141] Setting up inception_3b/relu_5x5
I0403 13:40:03.637320 11894 net.cpp:148] Top shape: 24 96 28 28 (1806336)
I0403 13:40:03.637336 11894 net.cpp:156] Memory required for data: 744211488
I0403 13:40:03.637351 11894 layer_factory.hpp:77] Creating layer inception_3b/pool
I0403 13:40:03.637368 11894 net.cpp:91] Creating Layer inception_3b/pool
I0403 13:40:03.637384 11894 net.cpp:425] inception_3b/pool <- inception_3a/output_inception_3a/output_0_split_3
I0403 13:40:03.637401 11894 net.cpp:399] inception_3b/pool -> inception_3b/pool
I0403 13:40:03.637459 11894 net.cpp:141] Setting up inception_3b/pool
I0403 13:40:03.637486 11894 net.cpp:148] Top shape: 24 256 28 28 (4816896)
I0403 13:40:03.637502 11894 net.cpp:156] Memory required for data: 763479072
I0403 13:40:03.637516 11894 layer_factory.hpp:77] Creating layer inception_3b/pool_proj
I0403 13:40:03.637542 11894 net.cpp:91] Creating Layer inception_3b/pool_proj
I0403 13:40:03.637567 11894 net.cpp:425] inception_3b/pool_proj <- inception_3b/pool
I0403 13:40:03.637598 11894 net.cpp:399] inception_3b/pool_proj -> inception_3b/pool_proj
I0403 13:40:03.638689 11894 net.cpp:141] Setting up inception_3b/pool_proj
I0403 13:40:03.638717 11894 net.cpp:148] Top shape: 24 64 28 28 (1204224)
I0403 13:40:03.638733 11894 net.cpp:156] Memory required for data: 768295968
I0403 13:40:03.638751 11894 layer_factory.hpp:77] Creating layer inception_3b/relu_pool_proj
I0403 13:40:03.638772 11894 net.cpp:91] Creating Layer inception_3b/relu_pool_proj
I0403 13:40:03.638789 11894 net.cpp:425] inception_3b/relu_pool_proj <- inception_3b/pool_proj
I0403 13:40:03.638806 11894 net.cpp:386] inception_3b/relu_pool_proj -> inception_3b/pool_proj (in-place)
I0403 13:40:03.639207 11894 net.cpp:141] Setting up inception_3b/relu_pool_proj
I0403 13:40:03.639233 11894 net.cpp:148] Top shape: 24 64 28 28 (1204224)
I0403 13:40:03.639250 11894 net.cpp:156] Memory required for data: 773112864
I0403 13:40:03.639266 11894 layer_factory.hpp:77] Creating layer inception_3b/output
I0403 13:40:03.639283 11894 net.cpp:91] Creating Layer inception_3b/output
I0403 13:40:03.639299 11894 net.cpp:425] inception_3b/output <- inception_3b/1x1
I0403 13:40:03.639315 11894 net.cpp:425] inception_3b/output <- inception_3b/3x3
I0403 13:40:03.639330 11894 net.cpp:425] inception_3b/output <- inception_3b/5x5
I0403 13:40:03.639346 11894 net.cpp:425] inception_3b/output <- inception_3b/pool_proj
I0403 13:40:03.639364 11894 net.cpp:399] inception_3b/output -> inception_3b/output
I0403 13:40:03.639412 11894 net.cpp:141] Setting up inception_3b/output
I0403 13:40:03.639436 11894 net.cpp:148] Top shape: 24 480 28 28 (9031680)
I0403 13:40:03.639449 11894 net.cpp:156] Memory required for data: 809239584
I0403 13:40:03.639463 11894 layer_factory.hpp:77] Creating layer pool3/3x3_s2
I0403 13:40:03.639480 11894 net.cpp:91] Creating Layer pool3/3x3_s2
I0403 13:40:03.639497 11894 net.cpp:425] pool3/3x3_s2 <- inception_3b/output
I0403 13:40:03.639531 11894 net.cpp:399] pool3/3x3_s2 -> pool3/3x3_s2
I0403 13:40:03.639605 11894 net.cpp:141] Setting up pool3/3x3_s2
I0403 13:40:03.639629 11894 net.cpp:148] Top shape: 24 480 14 14 (2257920)
I0403 13:40:03.639644 11894 net.cpp:156] Memory required for data: 818271264
I0403 13:40:03.639657 11894 layer_factory.hpp:77] Creating layer pool3/3x3_s2_pool3/3x3_s2_0_split
I0403 13:40:03.639677 11894 net.cpp:91] Creating Layer pool3/3x3_s2_pool3/3x3_s2_0_split
I0403 13:40:03.639693 11894 net.cpp:425] pool3/3x3_s2_pool3/3x3_s2_0_split <- pool3/3x3_s2
I0403 13:40:03.639709 11894 net.cpp:399] pool3/3x3_s2_pool3/3x3_s2_0_split -> pool3/3x3_s2_pool3/3x3_s2_0_split_0
I0403 13:40:03.639730 11894 net.cpp:399] pool3/3x3_s2_pool3/3x3_s2_0_split -> pool3/3x3_s2_pool3/3x3_s2_0_split_1
I0403 13:40:03.639751 11894 net.cpp:399] pool3/3x3_s2_pool3/3x3_s2_0_split -> pool3/3x3_s2_pool3/3x3_s2_0_split_2
I0403 13:40:03.639770 11894 net.cpp:399] pool3/3x3_s2_pool3/3x3_s2_0_split -> pool3/3x3_s2_pool3/3x3_s2_0_split_3
I0403 13:40:03.639847 11894 net.cpp:141] Setting up pool3/3x3_s2_pool3/3x3_s2_0_split
I0403 13:40:03.639870 11894 net.cpp:148] Top shape: 24 480 14 14 (2257920)
I0403 13:40:03.639886 11894 net.cpp:148] Top shape: 24 480 14 14 (2257920)
I0403 13:40:03.639901 11894 net.cpp:148] Top shape: 24 480 14 14 (2257920)
I0403 13:40:03.639915 11894 net.cpp:148] Top shape: 24 480 14 14 (2257920)
I0403 13:40:03.639930 11894 net.cpp:156] Memory required for data: 854397984
I0403 13:40:03.639942 11894 layer_factory.hpp:77] Creating layer inception_4a/1x1
I0403 13:40:03.639964 11894 net.cpp:91] Creating Layer inception_4a/1x1
I0403 13:40:03.639981 11894 net.cpp:425] inception_4a/1x1 <- pool3/3x3_s2_pool3/3x3_s2_0_split_0
I0403 13:40:03.640002 11894 net.cpp:399] inception_4a/1x1 -> inception_4a/1x1
I0403 13:40:03.641647 11894 net.cpp:141] Setting up inception_4a/1x1
I0403 13:40:03.641674 11894 net.cpp:148] Top shape: 24 192 14 14 (903168)
I0403 13:40:03.641691 11894 net.cpp:156] Memory required for data: 858010656
I0403 13:40:03.641710 11894 layer_factory.hpp:77] Creating layer inception_4a/relu_1x1
I0403 13:40:03.641731 11894 net.cpp:91] Creating Layer inception_4a/relu_1x1
I0403 13:40:03.641746 11894 net.cpp:425] inception_4a/relu_1x1 <- inception_4a/1x1
I0403 13:40:03.641763 11894 net.cpp:386] inception_4a/relu_1x1 -> inception_4a/1x1 (in-place)
I0403 13:40:03.641947 11894 net.cpp:141] Setting up inception_4a/relu_1x1
I0403 13:40:03.641973 11894 net.cpp:148] Top shape: 24 192 14 14 (903168)
I0403 13:40:03.641989 11894 net.cpp:156] Memory required for data: 861623328
I0403 13:40:03.642004 11894 layer_factory.hpp:77] Creating layer inception_4a/3x3_reduce
I0403 13:40:03.642025 11894 net.cpp:91] Creating Layer inception_4a/3x3_reduce
I0403 13:40:03.642042 11894 net.cpp:425] inception_4a/3x3_reduce <- pool3/3x3_s2_pool3/3x3_s2_0_split_1
I0403 13:40:03.642060 11894 net.cpp:399] inception_4a/3x3_reduce -> inception_4a/3x3_reduce
I0403 13:40:03.643426 11894 net.cpp:141] Setting up inception_4a/3x3_reduce
I0403 13:40:03.643455 11894 net.cpp:148] Top shape: 24 96 14 14 (451584)
I0403 13:40:03.643471 11894 net.cpp:156] Memory required for data: 863429664
I0403 13:40:03.643494 11894 layer_factory.hpp:77] Creating layer inception_4a/relu_3x3_reduce
I0403 13:40:03.643517 11894 net.cpp:91] Creating Layer inception_4a/relu_3x3_reduce
I0403 13:40:03.643533 11894 net.cpp:425] inception_4a/relu_3x3_reduce <- inception_4a/3x3_reduce
I0403 13:40:03.643556 11894 net.cpp:386] inception_4a/relu_3x3_reduce -> inception_4a/3x3_reduce (in-place)
I0403 13:40:03.643744 11894 net.cpp:141] Setting up inception_4a/relu_3x3_reduce
I0403 13:40:03.643771 11894 net.cpp:148] Top shape: 24 96 14 14 (451584)
I0403 13:40:03.643786 11894 net.cpp:156] Memory required for data: 865236000
I0403 13:40:03.643801 11894 layer_factory.hpp:77] Creating layer inception_4a/3x3
I0403 13:40:03.643823 11894 net.cpp:91] Creating Layer inception_4a/3x3
I0403 13:40:03.643841 11894 net.cpp:425] inception_4a/3x3 <- inception_4a/3x3_reduce
I0403 13:40:03.643858 11894 net.cpp:399] inception_4a/3x3 -> inception_4a/3x3
I0403 13:40:03.646641 11894 net.cpp:141] Setting up inception_4a/3x3
I0403 13:40:03.646672 11894 net.cpp:148] Top shape: 24 208 14 14 (978432)
I0403 13:40:03.646688 11894 net.cpp:156] Memory required for data: 869149728
I0403 13:40:03.646706 11894 layer_factory.hpp:77] Creating layer inception_4a/relu_3x3
I0403 13:40:03.646724 11894 net.cpp:91] Creating Layer inception_4a/relu_3x3
I0403 13:40:03.646740 11894 net.cpp:425] inception_4a/relu_3x3 <- inception_4a/3x3
I0403 13:40:03.646759 11894 net.cpp:386] inception_4a/relu_3x3 -> inception_4a/3x3 (in-place)
I0403 13:40:03.647043 11894 net.cpp:141] Setting up inception_4a/relu_3x3
I0403 13:40:03.647073 11894 net.cpp:148] Top shape: 24 208 14 14 (978432)
I0403 13:40:03.647088 11894 net.cpp:156] Memory required for data: 873063456
I0403 13:40:03.647101 11894 layer_factory.hpp:77] Creating layer inception_4a/5x5_reduce
I0403 13:40:03.647125 11894 net.cpp:91] Creating Layer inception_4a/5x5_reduce
I0403 13:40:03.647141 11894 net.cpp:425] inception_4a/5x5_reduce <- pool3/3x3_s2_pool3/3x3_s2_0_split_2
I0403 13:40:03.647159 11894 net.cpp:399] inception_4a/5x5_reduce -> inception_4a/5x5_reduce
I0403 13:40:03.648211 11894 net.cpp:141] Setting up inception_4a/5x5_reduce
I0403 13:40:03.648239 11894 net.cpp:148] Top shape: 24 16 14 14 (75264)
I0403 13:40:03.648255 11894 net.cpp:156] Memory required for data: 873364512
I0403 13:40:03.648273 11894 layer_factory.hpp:77] Creating layer inception_4a/relu_5x5_reduce
I0403 13:40:03.648293 11894 net.cpp:91] Creating Layer inception_4a/relu_5x5_reduce
I0403 13:40:03.648308 11894 net.cpp:425] inception_4a/relu_5x5_reduce <- inception_4a/5x5_reduce
I0403 13:40:03.648326 11894 net.cpp:386] inception_4a/relu_5x5_reduce -> inception_4a/5x5_reduce (in-place)
I0403 13:40:03.648509 11894 net.cpp:141] Setting up inception_4a/relu_5x5_reduce
I0403 13:40:03.648533 11894 net.cpp:148] Top shape: 24 16 14 14 (75264)
I0403 13:40:03.648553 11894 net.cpp:156] Memory required for data: 873665568
I0403 13:40:03.648568 11894 layer_factory.hpp:77] Creating layer inception_4a/5x5
I0403 13:40:03.648591 11894 net.cpp:91] Creating Layer inception_4a/5x5
I0403 13:40:03.648608 11894 net.cpp:425] inception_4a/5x5 <- inception_4a/5x5_reduce
I0403 13:40:03.648629 11894 net.cpp:399] inception_4a/5x5 -> inception_4a/5x5
I0403 13:40:03.649749 11894 net.cpp:141] Setting up inception_4a/5x5
I0403 13:40:03.649775 11894 net.cpp:148] Top shape: 24 48 14 14 (225792)
I0403 13:40:03.649791 11894 net.cpp:156] Memory required for data: 874568736
I0403 13:40:03.649809 11894 layer_factory.hpp:77] Creating layer inception_4a/relu_5x5
I0403 13:40:03.649829 11894 net.cpp:91] Creating Layer inception_4a/relu_5x5
I0403 13:40:03.649844 11894 net.cpp:425] inception_4a/relu_5x5 <- inception_4a/5x5
I0403 13:40:03.649862 11894 net.cpp:386] inception_4a/relu_5x5 -> inception_4a/5x5 (in-place)
I0403 13:40:03.650043 11894 net.cpp:141] Setting up inception_4a/relu_5x5
I0403 13:40:03.650069 11894 net.cpp:148] Top shape: 24 48 14 14 (225792)
I0403 13:40:03.650085 11894 net.cpp:156] Memory required for data: 875471904
I0403 13:40:03.650099 11894 layer_factory.hpp:77] Creating layer inception_4a/pool
I0403 13:40:03.650116 11894 net.cpp:91] Creating Layer inception_4a/pool
I0403 13:40:03.650132 11894 net.cpp:425] inception_4a/pool <- pool3/3x3_s2_pool3/3x3_s2_0_split_3
I0403 13:40:03.650149 11894 net.cpp:399] inception_4a/pool -> inception_4a/pool
I0403 13:40:03.650212 11894 net.cpp:141] Setting up inception_4a/pool
I0403 13:40:03.650234 11894 net.cpp:148] Top shape: 24 480 14 14 (2257920)
I0403 13:40:03.650249 11894 net.cpp:156] Memory required for data: 884503584
I0403 13:40:03.650275 11894 layer_factory.hpp:77] Creating layer inception_4a/pool_proj
I0403 13:40:03.650300 11894 net.cpp:91] Creating Layer inception_4a/pool_proj
I0403 13:40:03.650317 11894 net.cpp:425] inception_4a/pool_proj <- inception_4a/pool
I0403 13:40:03.650339 11894 net.cpp:399] inception_4a/pool_proj -> inception_4a/pool_proj
I0403 13:40:03.651571 11894 net.cpp:141] Setting up inception_4a/pool_proj
I0403 13:40:03.651600 11894 net.cpp:148] Top shape: 24 64 14 14 (301056)
I0403 13:40:03.651633 11894 net.cpp:156] Memory required for data: 885707808
I0403 13:40:03.651653 11894 layer_factory.hpp:77] Creating layer inception_4a/relu_pool_proj
I0403 13:40:03.651674 11894 net.cpp:91] Creating Layer inception_4a/relu_pool_proj
I0403 13:40:03.651691 11894 net.cpp:425] inception_4a/relu_pool_proj <- inception_4a/pool_proj
I0403 13:40:03.651708 11894 net.cpp:386] inception_4a/relu_pool_proj -> inception_4a/pool_proj (in-place)
I0403 13:40:03.652001 11894 net.cpp:141] Setting up inception_4a/relu_pool_proj
I0403 13:40:03.652027 11894 net.cpp:148] Top shape: 24 64 14 14 (301056)
I0403 13:40:03.652042 11894 net.cpp:156] Memory required for data: 886912032
I0403 13:40:03.652057 11894 layer_factory.hpp:77] Creating layer inception_4a/output
I0403 13:40:03.652076 11894 net.cpp:91] Creating Layer inception_4a/output
I0403 13:40:03.652092 11894 net.cpp:425] inception_4a/output <- inception_4a/1x1
I0403 13:40:03.652109 11894 net.cpp:425] inception_4a/output <- inception_4a/3x3
I0403 13:40:03.652124 11894 net.cpp:425] inception_4a/output <- inception_4a/5x5
I0403 13:40:03.652140 11894 net.cpp:425] inception_4a/output <- inception_4a/pool_proj
I0403 13:40:03.652158 11894 net.cpp:399] inception_4a/output -> inception_4a/output
I0403 13:40:03.652204 11894 net.cpp:141] Setting up inception_4a/output
I0403 13:40:03.652227 11894 net.cpp:148] Top shape: 24 512 14 14 (2408448)
I0403 13:40:03.652242 11894 net.cpp:156] Memory required for data: 896545824
I0403 13:40:03.652256 11894 layer_factory.hpp:77] Creating layer inception_4a/output_inception_4a/output_0_split
I0403 13:40:03.652273 11894 net.cpp:91] Creating Layer inception_4a/output_inception_4a/output_0_split
I0403 13:40:03.652288 11894 net.cpp:425] inception_4a/output_inception_4a/output_0_split <- inception_4a/output
I0403 13:40:03.652309 11894 net.cpp:399] inception_4a/output_inception_4a/output_0_split -> inception_4a/output_inception_4a/output_0_split_0
I0403 13:40:03.652331 11894 net.cpp:399] inception_4a/output_inception_4a/output_0_split -> inception_4a/output_inception_4a/output_0_split_1
I0403 13:40:03.652353 11894 net.cpp:399] inception_4a/output_inception_4a/output_0_split -> inception_4a/output_inception_4a/output_0_split_2
I0403 13:40:03.652372 11894 net.cpp:399] inception_4a/output_inception_4a/output_0_split -> inception_4a/output_inception_4a/output_0_split_3
I0403 13:40:03.652395 11894 net.cpp:399] inception_4a/output_inception_4a/output_0_split -> inception_4a/output_inception_4a/output_0_split_4
I0403 13:40:03.652490 11894 net.cpp:141] Setting up inception_4a/output_inception_4a/output_0_split
I0403 13:40:03.652513 11894 net.cpp:148] Top shape: 24 512 14 14 (2408448)
I0403 13:40:03.652529 11894 net.cpp:148] Top shape: 24 512 14 14 (2408448)
I0403 13:40:03.652550 11894 net.cpp:148] Top shape: 24 512 14 14 (2408448)
I0403 13:40:03.652566 11894 net.cpp:148] Top shape: 24 512 14 14 (2408448)
I0403 13:40:03.652581 11894 net.cpp:148] Top shape: 24 512 14 14 (2408448)
I0403 13:40:03.652595 11894 net.cpp:156] Memory required for data: 944714784
I0403 13:40:03.652609 11894 layer_factory.hpp:77] Creating layer loss1/ave_pool
I0403 13:40:03.652626 11894 net.cpp:91] Creating Layer loss1/ave_pool
I0403 13:40:03.652642 11894 net.cpp:425] loss1/ave_pool <- inception_4a/output_inception_4a/output_0_split_0
I0403 13:40:03.652662 11894 net.cpp:399] loss1/ave_pool -> loss1/ave_pool
I0403 13:40:03.652875 11894 net.cpp:141] Setting up loss1/ave_pool
I0403 13:40:03.652901 11894 net.cpp:148] Top shape: 24 512 4 4 (196608)
I0403 13:40:03.652917 11894 net.cpp:156] Memory required for data: 945501216
I0403 13:40:03.652932 11894 layer_factory.hpp:77] Creating layer loss1/conv
I0403 13:40:03.652954 11894 net.cpp:91] Creating Layer loss1/conv
I0403 13:40:03.652973 11894 net.cpp:425] loss1/conv <- loss1/ave_pool
I0403 13:40:03.652992 11894 net.cpp:399] loss1/conv -> loss1/conv
I0403 13:40:03.654443 11894 net.cpp:141] Setting up loss1/conv
I0403 13:40:03.654472 11894 net.cpp:148] Top shape: 24 128 4 4 (49152)
I0403 13:40:03.654502 11894 net.cpp:156] Memory required for data: 945697824
I0403 13:40:03.654521 11894 layer_factory.hpp:77] Creating layer loss1/relu_conv
I0403 13:40:03.654549 11894 net.cpp:91] Creating Layer loss1/relu_conv
I0403 13:40:03.654568 11894 net.cpp:425] loss1/relu_conv <- loss1/conv
I0403 13:40:03.654587 11894 net.cpp:386] loss1/relu_conv -> loss1/conv (in-place)
I0403 13:40:03.654871 11894 net.cpp:141] Setting up loss1/relu_conv
I0403 13:40:03.654897 11894 net.cpp:148] Top shape: 24 128 4 4 (49152)
I0403 13:40:03.654920 11894 net.cpp:156] Memory required for data: 945894432
I0403 13:40:03.654934 11894 layer_factory.hpp:77] Creating layer loss1/fc
I0403 13:40:03.654958 11894 net.cpp:91] Creating Layer loss1/fc
I0403 13:40:03.654973 11894 net.cpp:425] loss1/fc <- loss1/conv
I0403 13:40:03.654994 11894 net.cpp:399] loss1/fc -> loss1/fc
I0403 13:40:03.672945 11894 net.cpp:141] Setting up loss1/fc
I0403 13:40:03.672994 11894 net.cpp:148] Top shape: 24 1024 (24576)
I0403 13:40:03.673010 11894 net.cpp:156] Memory required for data: 945992736
I0403 13:40:03.673040 11894 layer_factory.hpp:77] Creating layer loss1/relu_fc
I0403 13:40:03.673061 11894 net.cpp:91] Creating Layer loss1/relu_fc
I0403 13:40:03.673079 11894 net.cpp:425] loss1/relu_fc <- loss1/fc
I0403 13:40:03.673095 11894 net.cpp:386] loss1/relu_fc -> loss1/fc (in-place)
I0403 13:40:03.673310 11894 net.cpp:141] Setting up loss1/relu_fc
I0403 13:40:03.673336 11894 net.cpp:148] Top shape: 24 1024 (24576)
I0403 13:40:03.673363 11894 net.cpp:156] Memory required for data: 946091040
I0403 13:40:03.673377 11894 layer_factory.hpp:77] Creating layer loss1/drop_fc
I0403 13:40:03.673404 11894 net.cpp:91] Creating Layer loss1/drop_fc
I0403 13:40:03.673421 11894 net.cpp:425] loss1/drop_fc <- loss1/fc
I0403 13:40:03.673437 11894 net.cpp:386] loss1/drop_fc -> loss1/fc (in-place)
I0403 13:40:03.673491 11894 net.cpp:141] Setting up loss1/drop_fc
I0403 13:40:03.673512 11894 net.cpp:148] Top shape: 24 1024 (24576)
I0403 13:40:03.673526 11894 net.cpp:156] Memory required for data: 946189344
I0403 13:40:03.673545 11894 layer_factory.hpp:77] Creating layer loss1/classifier_plantvillage
I0403 13:40:03.673568 11894 net.cpp:91] Creating Layer loss1/classifier_plantvillage
I0403 13:40:03.673583 11894 net.cpp:425] loss1/classifier_plantvillage <- loss1/fc
I0403 13:40:03.673600 11894 net.cpp:399] loss1/classifier_plantvillage -> loss1/classifier_plantvillage
I0403 13:40:03.674512 11894 net.cpp:141] Setting up loss1/classifier_plantvillage
I0403 13:40:03.674563 11894 net.cpp:148] Top shape: 24 38 (912)
I0403 13:40:03.674582 11894 net.cpp:156] Memory required for data: 946192992
I0403 13:40:03.674598 11894 layer_factory.hpp:77] Creating layer loss1/classifier_plantvillage_loss1/classifier_plantvillage_0_split
I0403 13:40:03.674617 11894 net.cpp:91] Creating Layer loss1/classifier_plantvillage_loss1/classifier_plantvillage_0_split
I0403 13:40:03.674631 11894 net.cpp:425] loss1/classifier_plantvillage_loss1/classifier_plantvillage_0_split <- loss1/classifier_plantvillage
I0403 13:40:03.674648 11894 net.cpp:399] loss1/classifier_plantvillage_loss1/classifier_plantvillage_0_split -> loss1/classifier_plantvillage_loss1/classifier_plantvillage_0_split_0
I0403 13:40:03.674665 11894 net.cpp:399] loss1/classifier_plantvillage_loss1/classifier_plantvillage_0_split -> loss1/classifier_plantvillage_loss1/classifier_plantvillage_0_split_1
I0403 13:40:03.674686 11894 net.cpp:399] loss1/classifier_plantvillage_loss1/classifier_plantvillage_0_split -> loss1/classifier_plantvillage_loss1/classifier_plantvillage_0_split_2
I0403 13:40:03.674752 11894 net.cpp:141] Setting up loss1/classifier_plantvillage_loss1/classifier_plantvillage_0_split
I0403 13:40:03.674773 11894 net.cpp:148] Top shape: 24 38 (912)
I0403 13:40:03.674788 11894 net.cpp:148] Top shape: 24 38 (912)
I0403 13:40:03.674803 11894 net.cpp:148] Top shape: 24 38 (912)
I0403 13:40:03.674815 11894 net.cpp:156] Memory required for data: 946203936
I0403 13:40:03.674841 11894 layer_factory.hpp:77] Creating layer inception_4b/1x1
I0403 13:40:03.674861 11894 net.cpp:91] Creating Layer inception_4b/1x1
I0403 13:40:03.674901 11894 net.cpp:425] inception_4b/1x1 <- inception_4a/output_inception_4a/output_0_split_1
I0403 13:40:03.674922 11894 net.cpp:399] inception_4b/1x1 -> inception_4b/1x1
I0403 13:40:03.676628 11894 net.cpp:141] Setting up inception_4b/1x1
I0403 13:40:03.676656 11894 net.cpp:148] Top shape: 24 160 14 14 (752640)
I0403 13:40:03.676684 11894 net.cpp:156] Memory required for data: 949214496
I0403 13:40:03.676702 11894 layer_factory.hpp:77] Creating layer inception_4b/relu_1x1
I0403 13:40:03.676722 11894 net.cpp:91] Creating Layer inception_4b/relu_1x1
I0403 13:40:03.676738 11894 net.cpp:425] inception_4b/relu_1x1 <- inception_4b/1x1
I0403 13:40:03.676758 11894 net.cpp:386] inception_4b/relu_1x1 -> inception_4b/1x1 (in-place)
I0403 13:40:03.676951 11894 net.cpp:141] Setting up inception_4b/relu_1x1
I0403 13:40:03.676976 11894 net.cpp:148] Top shape: 24 160 14 14 (752640)
I0403 13:40:03.676990 11894 net.cpp:156] Memory required for data: 952225056
I0403 13:40:03.677005 11894 layer_factory.hpp:77] Creating layer inception_4b/3x3_reduce
I0403 13:40:03.677038 11894 net.cpp:91] Creating Layer inception_4b/3x3_reduce
I0403 13:40:03.677054 11894 net.cpp:425] inception_4b/3x3_reduce <- inception_4a/output_inception_4a/output_0_split_2
I0403 13:40:03.677073 11894 net.cpp:399] inception_4b/3x3_reduce -> inception_4b/3x3_reduce
I0403 13:40:03.678406 11894 net.cpp:141] Setting up inception_4b/3x3_reduce
I0403 13:40:03.678432 11894 net.cpp:148] Top shape: 24 112 14 14 (526848)
I0403 13:40:03.678448 11894 net.cpp:156] Memory required for data: 954332448
I0403 13:40:03.678465 11894 layer_factory.hpp:77] Creating layer inception_4b/relu_3x3_reduce
I0403 13:40:03.678484 11894 net.cpp:91] Creating Layer inception_4b/relu_3x3_reduce
I0403 13:40:03.678513 11894 net.cpp:425] inception_4b/relu_3x3_reduce <- inception_4b/3x3_reduce
I0403 13:40:03.678530 11894 net.cpp:386] inception_4b/relu_3x3_reduce -> inception_4b/3x3_reduce (in-place)
I0403 13:40:03.678819 11894 net.cpp:141] Setting up inception_4b/relu_3x3_reduce
I0403 13:40:03.678858 11894 net.cpp:148] Top shape: 24 112 14 14 (526848)
I0403 13:40:03.678870 11894 net.cpp:156] Memory required for data: 956439840
I0403 13:40:03.678884 11894 layer_factory.hpp:77] Creating layer inception_4b/3x3
I0403 13:40:03.678905 11894 net.cpp:91] Creating Layer inception_4b/3x3
I0403 13:40:03.678921 11894 net.cpp:425] inception_4b/3x3 <- inception_4b/3x3_reduce
I0403 13:40:03.678943 11894 net.cpp:399] inception_4b/3x3 -> inception_4b/3x3
I0403 13:40:03.681957 11894 net.cpp:141] Setting up inception_4b/3x3
I0403 13:40:03.681985 11894 net.cpp:148] Top shape: 24 224 14 14 (1053696)
I0403 13:40:03.682001 11894 net.cpp:156] Memory required for data: 960654624
I0403 13:40:03.682018 11894 layer_factory.hpp:77] Creating layer inception_4b/relu_3x3
I0403 13:40:03.682035 11894 net.cpp:91] Creating Layer inception_4b/relu_3x3
I0403 13:40:03.682051 11894 net.cpp:425] inception_4b/relu_3x3 <- inception_4b/3x3
I0403 13:40:03.682067 11894 net.cpp:386] inception_4b/relu_3x3 -> inception_4b/3x3 (in-place)
I0403 13:40:03.682258 11894 net.cpp:141] Setting up inception_4b/relu_3x3
I0403 13:40:03.682284 11894 net.cpp:148] Top shape: 24 224 14 14 (1053696)
I0403 13:40:03.682299 11894 net.cpp:156] Memory required for data: 964869408
I0403 13:40:03.682313 11894 layer_factory.hpp:77] Creating layer inception_4b/5x5_reduce
I0403 13:40:03.682334 11894 net.cpp:91] Creating Layer inception_4b/5x5_reduce
I0403 13:40:03.682351 11894 net.cpp:425] inception_4b/5x5_reduce <- inception_4a/output_inception_4a/output_0_split_3
I0403 13:40:03.682369 11894 net.cpp:399] inception_4b/5x5_reduce -> inception_4b/5x5_reduce
I0403 13:40:03.683449 11894 net.cpp:141] Setting up inception_4b/5x5_reduce
I0403 13:40:03.683476 11894 net.cpp:148] Top shape: 24 24 14 14 (112896)
I0403 13:40:03.683491 11894 net.cpp:156] Memory required for data: 965320992
I0403 13:40:03.683508 11894 layer_factory.hpp:77] Creating layer inception_4b/relu_5x5_reduce
I0403 13:40:03.683526 11894 net.cpp:91] Creating Layer inception_4b/relu_5x5_reduce
I0403 13:40:03.683567 11894 net.cpp:425] inception_4b/relu_5x5_reduce <- inception_4b/5x5_reduce
I0403 13:40:03.683585 11894 net.cpp:386] inception_4b/relu_5x5_reduce -> inception_4b/5x5_reduce (in-place)
I0403 13:40:03.683760 11894 net.cpp:141] Setting up inception_4b/relu_5x5_reduce
I0403 13:40:03.683784 11894 net.cpp:148] Top shape: 24 24 14 14 (112896)
I0403 13:40:03.683797 11894 net.cpp:156] Memory required for data: 965772576
I0403 13:40:03.683825 11894 layer_factory.hpp:77] Creating layer inception_4b/5x5
I0403 13:40:03.683846 11894 net.cpp:91] Creating Layer inception_4b/5x5
I0403 13:40:03.683864 11894 net.cpp:425] inception_4b/5x5 <- inception_4b/5x5_reduce
I0403 13:40:03.683887 11894 net.cpp:399] inception_4b/5x5 -> inception_4b/5x5
I0403 13:40:03.685147 11894 net.cpp:141] Setting up inception_4b/5x5
I0403 13:40:03.685173 11894 net.cpp:148] Top shape: 24 64 14 14 (301056)
I0403 13:40:03.685189 11894 net.cpp:156] Memory required for data: 966976800
I0403 13:40:03.685206 11894 layer_factory.hpp:77] Creating layer inception_4b/relu_5x5
I0403 13:40:03.685223 11894 net.cpp:91] Creating Layer inception_4b/relu_5x5
I0403 13:40:03.685240 11894 net.cpp:425] inception_4b/relu_5x5 <- inception_4b/5x5
I0403 13:40:03.685258 11894 net.cpp:386] inception_4b/relu_5x5 -> inception_4b/5x5 (in-place)
I0403 13:40:03.685549 11894 net.cpp:141] Setting up inception_4b/relu_5x5
I0403 13:40:03.685575 11894 net.cpp:148] Top shape: 24 64 14 14 (301056)
I0403 13:40:03.685590 11894 net.cpp:156] Memory required for data: 968181024
I0403 13:40:03.685603 11894 layer_factory.hpp:77] Creating layer inception_4b/pool
I0403 13:40:03.685633 11894 net.cpp:91] Creating Layer inception_4b/pool
I0403 13:40:03.685649 11894 net.cpp:425] inception_4b/pool <- inception_4a/output_inception_4a/output_0_split_4
I0403 13:40:03.685672 11894 net.cpp:399] inception_4b/pool -> inception_4b/pool
I0403 13:40:03.685739 11894 net.cpp:141] Setting up inception_4b/pool
I0403 13:40:03.685763 11894 net.cpp:148] Top shape: 24 512 14 14 (2408448)
I0403 13:40:03.685777 11894 net.cpp:156] Memory required for data: 977814816
I0403 13:40:03.685791 11894 layer_factory.hpp:77] Creating layer inception_4b/pool_proj
I0403 13:40:03.685816 11894 net.cpp:91] Creating Layer inception_4b/pool_proj
I0403 13:40:03.685837 11894 net.cpp:425] inception_4b/pool_proj <- inception_4b/pool
I0403 13:40:03.685856 11894 net.cpp:399] inception_4b/pool_proj -> inception_4b/pool_proj
I0403 13:40:03.687075 11894 net.cpp:141] Setting up inception_4b/pool_proj
I0403 13:40:03.687103 11894 net.cpp:148] Top shape: 24 64 14 14 (301056)
I0403 13:40:03.687119 11894 net.cpp:156] Memory required for data: 979019040
I0403 13:40:03.687137 11894 layer_factory.hpp:77] Creating layer inception_4b/relu_pool_proj
I0403 13:40:03.687155 11894 net.cpp:91] Creating Layer inception_4b/relu_pool_proj
I0403 13:40:03.687170 11894 net.cpp:425] inception_4b/relu_pool_proj <- inception_4b/pool_proj
I0403 13:40:03.687191 11894 net.cpp:386] inception_4b/relu_pool_proj -> inception_4b/pool_proj (in-place)
I0403 13:40:03.687386 11894 net.cpp:141] Setting up inception_4b/relu_pool_proj
I0403 13:40:03.687410 11894 net.cpp:148] Top shape: 24 64 14 14 (301056)
I0403 13:40:03.687425 11894 net.cpp:156] Memory required for data: 980223264
I0403 13:40:03.687440 11894 layer_factory.hpp:77] Creating layer inception_4b/output
I0403 13:40:03.687459 11894 net.cpp:91] Creating Layer inception_4b/output
I0403 13:40:03.687476 11894 net.cpp:425] inception_4b/output <- inception_4b/1x1
I0403 13:40:03.687492 11894 net.cpp:425] inception_4b/output <- inception_4b/3x3
I0403 13:40:03.687508 11894 net.cpp:425] inception_4b/output <- inception_4b/5x5
I0403 13:40:03.687525 11894 net.cpp:425] inception_4b/output <- inception_4b/pool_proj
I0403 13:40:03.687546 11894 net.cpp:399] inception_4b/output -> inception_4b/output
I0403 13:40:03.687595 11894 net.cpp:141] Setting up inception_4b/output
I0403 13:40:03.687619 11894 net.cpp:148] Top shape: 24 512 14 14 (2408448)
I0403 13:40:03.687645 11894 net.cpp:156] Memory required for data: 989857056
I0403 13:40:03.687674 11894 layer_factory.hpp:77] Creating layer inception_4b/output_inception_4b/output_0_split
I0403 13:40:03.687691 11894 net.cpp:91] Creating Layer inception_4b/output_inception_4b/output_0_split
I0403 13:40:03.687705 11894 net.cpp:425] inception_4b/output_inception_4b/output_0_split <- inception_4b/output
I0403 13:40:03.687727 11894 net.cpp:399] inception_4b/output_inception_4b/output_0_split -> inception_4b/output_inception_4b/output_0_split_0
I0403 13:40:03.687748 11894 net.cpp:399] inception_4b/output_inception_4b/output_0_split -> inception_4b/output_inception_4b/output_0_split_1
I0403 13:40:03.687767 11894 net.cpp:399] inception_4b/output_inception_4b/output_0_split -> inception_4b/output_inception_4b/output_0_split_2
I0403 13:40:03.687788 11894 net.cpp:399] inception_4b/output_inception_4b/output_0_split -> inception_4b/output_inception_4b/output_0_split_3
I0403 13:40:03.687870 11894 net.cpp:141] Setting up inception_4b/output_inception_4b/output_0_split
I0403 13:40:03.687896 11894 net.cpp:148] Top shape: 24 512 14 14 (2408448)
I0403 13:40:03.687911 11894 net.cpp:148] Top shape: 24 512 14 14 (2408448)
I0403 13:40:03.687927 11894 net.cpp:148] Top shape: 24 512 14 14 (2408448)
I0403 13:40:03.687942 11894 net.cpp:148] Top shape: 24 512 14 14 (2408448)
I0403 13:40:03.687954 11894 net.cpp:156] Memory required for data: 1028392224
I0403 13:40:03.687968 11894 layer_factory.hpp:77] Creating layer inception_4c/1x1
I0403 13:40:03.687990 11894 net.cpp:91] Creating Layer inception_4c/1x1
I0403 13:40:03.688009 11894 net.cpp:425] inception_4c/1x1 <- inception_4b/output_inception_4b/output_0_split_0
I0403 13:40:03.688025 11894 net.cpp:399] inception_4c/1x1 -> inception_4c/1x1
I0403 13:40:03.689517 11894 net.cpp:141] Setting up inception_4c/1x1
I0403 13:40:03.689550 11894 net.cpp:148] Top shape: 24 128 14 14 (602112)
I0403 13:40:03.689579 11894 net.cpp:156] Memory required for data: 1030800672
I0403 13:40:03.689597 11894 layer_factory.hpp:77] Creating layer inception_4c/relu_1x1
I0403 13:40:03.689617 11894 net.cpp:91] Creating Layer inception_4c/relu_1x1
I0403 13:40:03.689633 11894 net.cpp:425] inception_4c/relu_1x1 <- inception_4c/1x1
I0403 13:40:03.689651 11894 net.cpp:386] inception_4c/relu_1x1 -> inception_4c/1x1 (in-place)
I0403 13:40:03.689839 11894 net.cpp:141] Setting up inception_4c/relu_1x1
I0403 13:40:03.689867 11894 net.cpp:148] Top shape: 24 128 14 14 (602112)
I0403 13:40:03.689882 11894 net.cpp:156] Memory required for data: 1033209120
I0403 13:40:03.689896 11894 layer_factory.hpp:77] Creating layer inception_4c/3x3_reduce
I0403 13:40:03.689918 11894 net.cpp:91] Creating Layer inception_4c/3x3_reduce
I0403 13:40:03.689935 11894 net.cpp:425] inception_4c/3x3_reduce <- inception_4b/output_inception_4b/output_0_split_1
I0403 13:40:03.689954 11894 net.cpp:399] inception_4c/3x3_reduce -> inception_4c/3x3_reduce
I0403 13:40:03.691947 11894 net.cpp:141] Setting up inception_4c/3x3_reduce
I0403 13:40:03.691978 11894 net.cpp:148] Top shape: 24 128 14 14 (602112)
I0403 13:40:03.691994 11894 net.cpp:156] Memory required for data: 1035617568
I0403 13:40:03.692013 11894 layer_factory.hpp:77] Creating layer inception_4c/relu_3x3_reduce
I0403 13:40:03.692029 11894 net.cpp:91] Creating Layer inception_4c/relu_3x3_reduce
I0403 13:40:03.692044 11894 net.cpp:425] inception_4c/relu_3x3_reduce <- inception_4c/3x3_reduce
I0403 13:40:03.692064 11894 net.cpp:386] inception_4c/relu_3x3_reduce -> inception_4c/3x3_reduce (in-place)
I0403 13:40:03.692349 11894 net.cpp:141] Setting up inception_4c/relu_3x3_reduce
I0403 13:40:03.692378 11894 net.cpp:148] Top shape: 24 128 14 14 (602112)
I0403 13:40:03.692394 11894 net.cpp:156] Memory required for data: 1038026016
I0403 13:40:03.692407 11894 layer_factory.hpp:77] Creating layer inception_4c/3x3
I0403 13:40:03.692430 11894 net.cpp:91] Creating Layer inception_4c/3x3
I0403 13:40:03.692446 11894 net.cpp:425] inception_4c/3x3 <- inception_4c/3x3_reduce
I0403 13:40:03.692466 11894 net.cpp:399] inception_4c/3x3 -> inception_4c/3x3
I0403 13:40:03.696225 11894 net.cpp:141] Setting up inception_4c/3x3
I0403 13:40:03.696281 11894 net.cpp:148] Top shape: 24 256 14 14 (1204224)
I0403 13:40:03.696300 11894 net.cpp:156] Memory required for data: 1042842912
I0403 13:40:03.696334 11894 layer_factory.hpp:77] Creating layer inception_4c/relu_3x3
I0403 13:40:03.696357 11894 net.cpp:91] Creating Layer inception_4c/relu_3x3
I0403 13:40:03.696373 11894 net.cpp:425] inception_4c/relu_3x3 <- inception_4c/3x3
I0403 13:40:03.696393 11894 net.cpp:386] inception_4c/relu_3x3 -> inception_4c/3x3 (in-place)
I0403 13:40:03.696605 11894 net.cpp:141] Setting up inception_4c/relu_3x3
I0403 13:40:03.696630 11894 net.cpp:148] Top shape: 24 256 14 14 (1204224)
I0403 13:40:03.696645 11894 net.cpp:156] Memory required for data: 1047659808
I0403 13:40:03.696660 11894 layer_factory.hpp:77] Creating layer inception_4c/5x5_reduce
I0403 13:40:03.696682 11894 net.cpp:91] Creating Layer inception_4c/5x5_reduce
I0403 13:40:03.696699 11894 net.cpp:425] inception_4c/5x5_reduce <- inception_4b/output_inception_4b/output_0_split_2
I0403 13:40:03.696720 11894 net.cpp:399] inception_4c/5x5_reduce -> inception_4c/5x5_reduce
I0403 13:40:03.697852 11894 net.cpp:141] Setting up inception_4c/5x5_reduce
I0403 13:40:03.697881 11894 net.cpp:148] Top shape: 24 24 14 14 (112896)
I0403 13:40:03.697896 11894 net.cpp:156] Memory required for data: 1048111392
I0403 13:40:03.697914 11894 layer_factory.hpp:77] Creating layer inception_4c/relu_5x5_reduce
I0403 13:40:03.697932 11894 net.cpp:91] Creating Layer inception_4c/relu_5x5_reduce
I0403 13:40:03.697948 11894 net.cpp:425] inception_4c/relu_5x5_reduce <- inception_4c/5x5_reduce
I0403 13:40:03.697968 11894 net.cpp:386] inception_4c/relu_5x5_reduce -> inception_4c/5x5_reduce (in-place)
I0403 13:40:03.698155 11894 net.cpp:141] Setting up inception_4c/relu_5x5_reduce
I0403 13:40:03.698180 11894 net.cpp:148] Top shape: 24 24 14 14 (112896)
I0403 13:40:03.698195 11894 net.cpp:156] Memory required for data: 1048562976
I0403 13:40:03.698210 11894 layer_factory.hpp:77] Creating layer inception_4c/5x5
I0403 13:40:03.698232 11894 net.cpp:91] Creating Layer inception_4c/5x5
I0403 13:40:03.698262 11894 net.cpp:425] inception_4c/5x5 <- inception_4c/5x5_reduce
I0403 13:40:03.698284 11894 net.cpp:399] inception_4c/5x5 -> inception_4c/5x5
I0403 13:40:03.699589 11894 net.cpp:141] Setting up inception_4c/5x5
I0403 13:40:03.699616 11894 net.cpp:148] Top shape: 24 64 14 14 (301056)
I0403 13:40:03.699631 11894 net.cpp:156] Memory required for data: 1049767200
I0403 13:40:03.699650 11894 layer_factory.hpp:77] Creating layer inception_4c/relu_5x5
I0403 13:40:03.699669 11894 net.cpp:91] Creating Layer inception_4c/relu_5x5
I0403 13:40:03.699687 11894 net.cpp:425] inception_4c/relu_5x5 <- inception_4c/5x5
I0403 13:40:03.699703 11894 net.cpp:386] inception_4c/relu_5x5 -> inception_4c/5x5 (in-place)
I0403 13:40:03.700000 11894 net.cpp:141] Setting up inception_4c/relu_5x5
I0403 13:40:03.700026 11894 net.cpp:148] Top shape: 24 64 14 14 (301056)
I0403 13:40:03.700040 11894 net.cpp:156] Memory required for data: 1050971424
I0403 13:40:03.700055 11894 layer_factory.hpp:77] Creating layer inception_4c/pool
I0403 13:40:03.700075 11894 net.cpp:91] Creating Layer inception_4c/pool
I0403 13:40:03.700091 11894 net.cpp:425] inception_4c/pool <- inception_4b/output_inception_4b/output_0_split_3
I0403 13:40:03.700109 11894 net.cpp:399] inception_4c/pool -> inception_4c/pool
I0403 13:40:03.700177 11894 net.cpp:141] Setting up inception_4c/pool
I0403 13:40:03.700201 11894 net.cpp:148] Top shape: 24 512 14 14 (2408448)
I0403 13:40:03.700215 11894 net.cpp:156] Memory required for data: 1060605216
I0403 13:40:03.700229 11894 layer_factory.hpp:77] Creating layer inception_4c/pool_proj
I0403 13:40:03.700251 11894 net.cpp:91] Creating Layer inception_4c/pool_proj
I0403 13:40:03.700269 11894 net.cpp:425] inception_4c/pool_proj <- inception_4c/pool
I0403 13:40:03.700289 11894 net.cpp:399] inception_4c/pool_proj -> inception_4c/pool_proj
I0403 13:40:03.701555 11894 net.cpp:141] Setting up inception_4c/pool_proj
I0403 13:40:03.701582 11894 net.cpp:148] Top shape: 24 64 14 14 (301056)
I0403 13:40:03.701612 11894 net.cpp:156] Memory required for data: 1061809440
I0403 13:40:03.701632 11894 layer_factory.hpp:77] Creating layer inception_4c/relu_pool_proj
I0403 13:40:03.701650 11894 net.cpp:91] Creating Layer inception_4c/relu_pool_proj
I0403 13:40:03.701666 11894 net.cpp:425] inception_4c/relu_pool_proj <- inception_4c/pool_proj
I0403 13:40:03.701685 11894 net.cpp:386] inception_4c/relu_pool_proj -> inception_4c/pool_proj (in-place)
I0403 13:40:03.701871 11894 net.cpp:141] Setting up inception_4c/relu_pool_proj
I0403 13:40:03.701896 11894 net.cpp:148] Top shape: 24 64 14 14 (301056)
I0403 13:40:03.701911 11894 net.cpp:156] Memory required for data: 1063013664
I0403 13:40:03.701925 11894 layer_factory.hpp:77] Creating layer inception_4c/output
I0403 13:40:03.701946 11894 net.cpp:91] Creating Layer inception_4c/output
I0403 13:40:03.701961 11894 net.cpp:425] inception_4c/output <- inception_4c/1x1
I0403 13:40:03.701977 11894 net.cpp:425] inception_4c/output <- inception_4c/3x3
I0403 13:40:03.701993 11894 net.cpp:425] inception_4c/output <- inception_4c/5x5
I0403 13:40:03.702008 11894 net.cpp:425] inception_4c/output <- inception_4c/pool_proj
I0403 13:40:03.702024 11894 net.cpp:399] inception_4c/output -> inception_4c/output
I0403 13:40:03.702074 11894 net.cpp:141] Setting up inception_4c/output
I0403 13:40:03.702096 11894 net.cpp:148] Top shape: 24 512 14 14 (2408448)
I0403 13:40:03.702111 11894 net.cpp:156] Memory required for data: 1072647456
I0403 13:40:03.702126 11894 layer_factory.hpp:77] Creating layer inception_4c/output_inception_4c/output_0_split
I0403 13:40:03.702142 11894 net.cpp:91] Creating Layer inception_4c/output_inception_4c/output_0_split
I0403 13:40:03.702157 11894 net.cpp:425] inception_4c/output_inception_4c/output_0_split <- inception_4c/output
I0403 13:40:03.702177 11894 net.cpp:399] inception_4c/output_inception_4c/output_0_split -> inception_4c/output_inception_4c/output_0_split_0
I0403 13:40:03.702196 11894 net.cpp:399] inception_4c/output_inception_4c/output_0_split -> inception_4c/output_inception_4c/output_0_split_1
I0403 13:40:03.702217 11894 net.cpp:399] inception_4c/output_inception_4c/output_0_split -> inception_4c/output_inception_4c/output_0_split_2
I0403 13:40:03.702237 11894 net.cpp:399] inception_4c/output_inception_4c/output_0_split -> inception_4c/output_inception_4c/output_0_split_3
I0403 13:40:03.702340 11894 net.cpp:141] Setting up inception_4c/output_inception_4c/output_0_split
I0403 13:40:03.702368 11894 net.cpp:148] Top shape: 24 512 14 14 (2408448)
I0403 13:40:03.702386 11894 net.cpp:148] Top shape: 24 512 14 14 (2408448)
I0403 13:40:03.702401 11894 net.cpp:148] Top shape: 24 512 14 14 (2408448)
I0403 13:40:03.702416 11894 net.cpp:148] Top shape: 24 512 14 14 (2408448)
I0403 13:40:03.702430 11894 net.cpp:156] Memory required for data: 1111182624
I0403 13:40:03.702445 11894 layer_factory.hpp:77] Creating layer inception_4d/1x1
I0403 13:40:03.702466 11894 net.cpp:91] Creating Layer inception_4d/1x1
I0403 13:40:03.702484 11894 net.cpp:425] inception_4d/1x1 <- inception_4c/output_inception_4c/output_0_split_0
I0403 13:40:03.702503 11894 net.cpp:399] inception_4d/1x1 -> inception_4d/1x1
I0403 13:40:03.703958 11894 net.cpp:141] Setting up inception_4d/1x1
I0403 13:40:03.703987 11894 net.cpp:148] Top shape: 24 112 14 14 (526848)
I0403 13:40:03.704004 11894 net.cpp:156] Memory required for data: 1113290016
I0403 13:40:03.704020 11894 layer_factory.hpp:77] Creating layer inception_4d/relu_1x1
I0403 13:40:03.704038 11894 net.cpp:91] Creating Layer inception_4d/relu_1x1
I0403 13:40:03.704054 11894 net.cpp:425] inception_4d/relu_1x1 <- inception_4d/1x1
I0403 13:40:03.704071 11894 net.cpp:386] inception_4d/relu_1x1 -> inception_4d/1x1 (in-place)
I0403 13:40:03.704257 11894 net.cpp:141] Setting up inception_4d/relu_1x1
I0403 13:40:03.704280 11894 net.cpp:148] Top shape: 24 112 14 14 (526848)
I0403 13:40:03.704295 11894 net.cpp:156] Memory required for data: 1115397408
I0403 13:40:03.704308 11894 layer_factory.hpp:77] Creating layer inception_4d/3x3_reduce
I0403 13:40:03.704345 11894 net.cpp:91] Creating Layer inception_4d/3x3_reduce
I0403 13:40:03.704363 11894 net.cpp:425] inception_4d/3x3_reduce <- inception_4c/output_inception_4c/output_0_split_1
I0403 13:40:03.704385 11894 net.cpp:399] inception_4d/3x3_reduce -> inception_4d/3x3_reduce
I0403 13:40:03.705940 11894 net.cpp:141] Setting up inception_4d/3x3_reduce
I0403 13:40:03.705966 11894 net.cpp:148] Top shape: 24 144 14 14 (677376)
I0403 13:40:03.705981 11894 net.cpp:156] Memory required for data: 1118106912
I0403 13:40:03.705998 11894 layer_factory.hpp:77] Creating layer inception_4d/relu_3x3_reduce
I0403 13:40:03.706018 11894 net.cpp:91] Creating Layer inception_4d/relu_3x3_reduce
I0403 13:40:03.706035 11894 net.cpp:425] inception_4d/relu_3x3_reduce <- inception_4d/3x3_reduce
I0403 13:40:03.706053 11894 net.cpp:386] inception_4d/relu_3x3_reduce -> inception_4d/3x3_reduce (in-place)
I0403 13:40:03.706341 11894 net.cpp:141] Setting up inception_4d/relu_3x3_reduce
I0403 13:40:03.706367 11894 net.cpp:148] Top shape: 24 144 14 14 (677376)
I0403 13:40:03.706380 11894 net.cpp:156] Memory required for data: 1120816416
I0403 13:40:03.706393 11894 layer_factory.hpp:77] Creating layer inception_4d/3x3
I0403 13:40:03.706415 11894 net.cpp:91] Creating Layer inception_4d/3x3
I0403 13:40:03.706434 11894 net.cpp:425] inception_4d/3x3 <- inception_4d/3x3_reduce
I0403 13:40:03.706454 11894 net.cpp:399] inception_4d/3x3 -> inception_4d/3x3
I0403 13:40:03.710731 11894 net.cpp:141] Setting up inception_4d/3x3
I0403 13:40:03.710760 11894 net.cpp:148] Top shape: 24 288 14 14 (1354752)
I0403 13:40:03.710777 11894 net.cpp:156] Memory required for data: 1126235424
I0403 13:40:03.710793 11894 layer_factory.hpp:77] Creating layer inception_4d/relu_3x3
I0403 13:40:03.710810 11894 net.cpp:91] Creating Layer inception_4d/relu_3x3
I0403 13:40:03.710825 11894 net.cpp:425] inception_4d/relu_3x3 <- inception_4d/3x3
I0403 13:40:03.710844 11894 net.cpp:386] inception_4d/relu_3x3 -> inception_4d/3x3 (in-place)
I0403 13:40:03.711017 11894 net.cpp:141] Setting up inception_4d/relu_3x3
I0403 13:40:03.711040 11894 net.cpp:148] Top shape: 24 288 14 14 (1354752)
I0403 13:40:03.711053 11894 net.cpp:156] Memory required for data: 1131654432
I0403 13:40:03.711067 11894 layer_factory.hpp:77] Creating layer inception_4d/5x5_reduce
I0403 13:40:03.711089 11894 net.cpp:91] Creating Layer inception_4d/5x5_reduce
I0403 13:40:03.711107 11894 net.cpp:425] inception_4d/5x5_reduce <- inception_4c/output_inception_4c/output_0_split_2
I0403 13:40:03.711127 11894 net.cpp:399] inception_4d/5x5_reduce -> inception_4d/5x5_reduce
I0403 13:40:03.712282 11894 net.cpp:141] Setting up inception_4d/5x5_reduce
I0403 13:40:03.712312 11894 net.cpp:148] Top shape: 24 32 14 14 (150528)
I0403 13:40:03.712328 11894 net.cpp:156] Memory required for data: 1132256544
I0403 13:40:03.712345 11894 layer_factory.hpp:77] Creating layer inception_4d/relu_5x5_reduce
I0403 13:40:03.712363 11894 net.cpp:91] Creating Layer inception_4d/relu_5x5_reduce
I0403 13:40:03.712378 11894 net.cpp:425] inception_4d/relu_5x5_reduce <- inception_4d/5x5_reduce
I0403 13:40:03.712394 11894 net.cpp:386] inception_4d/relu_5x5_reduce -> inception_4d/5x5_reduce (in-place)
I0403 13:40:03.712599 11894 net.cpp:141] Setting up inception_4d/relu_5x5_reduce
I0403 13:40:03.712623 11894 net.cpp:148] Top shape: 24 32 14 14 (150528)
I0403 13:40:03.712636 11894 net.cpp:156] Memory required for data: 1132858656
I0403 13:40:03.712651 11894 layer_factory.hpp:77] Creating layer inception_4d/5x5
I0403 13:40:03.712671 11894 net.cpp:91] Creating Layer inception_4d/5x5
I0403 13:40:03.712687 11894 net.cpp:425] inception_4d/5x5 <- inception_4d/5x5_reduce
I0403 13:40:03.712707 11894 net.cpp:399] inception_4d/5x5 -> inception_4d/5x5
I0403 13:40:03.714244 11894 net.cpp:141] Setting up inception_4d/5x5
I0403 13:40:03.714284 11894 net.cpp:148] Top shape: 24 64 14 14 (301056)
I0403 13:40:03.714299 11894 net.cpp:156] Memory required for data: 1134062880
I0403 13:40:03.714318 11894 layer_factory.hpp:77] Creating layer inception_4d/relu_5x5
I0403 13:40:03.714354 11894 net.cpp:91] Creating Layer inception_4d/relu_5x5
I0403 13:40:03.714373 11894 net.cpp:425] inception_4d/relu_5x5 <- inception_4d/5x5
I0403 13:40:03.714390 11894 net.cpp:386] inception_4d/relu_5x5 -> inception_4d/5x5 (in-place)
I0403 13:40:03.714714 11894 net.cpp:141] Setting up inception_4d/relu_5x5
I0403 13:40:03.714740 11894 net.cpp:148] Top shape: 24 64 14 14 (301056)
I0403 13:40:03.714756 11894 net.cpp:156] Memory required for data: 1135267104
I0403 13:40:03.714771 11894 layer_factory.hpp:77] Creating layer inception_4d/pool
I0403 13:40:03.714790 11894 net.cpp:91] Creating Layer inception_4d/pool
I0403 13:40:03.714807 11894 net.cpp:425] inception_4d/pool <- inception_4c/output_inception_4c/output_0_split_3
I0403 13:40:03.714824 11894 net.cpp:399] inception_4d/pool -> inception_4d/pool
I0403 13:40:03.714892 11894 net.cpp:141] Setting up inception_4d/pool
I0403 13:40:03.714916 11894 net.cpp:148] Top shape: 24 512 14 14 (2408448)
I0403 13:40:03.714931 11894 net.cpp:156] Memory required for data: 1144900896
I0403 13:40:03.714944 11894 layer_factory.hpp:77] Creating layer inception_4d/pool_proj
I0403 13:40:03.714965 11894 net.cpp:91] Creating Layer inception_4d/pool_proj
I0403 13:40:03.714982 11894 net.cpp:425] inception_4d/pool_proj <- inception_4d/pool
I0403 13:40:03.715003 11894 net.cpp:399] inception_4d/pool_proj -> inception_4d/pool_proj
I0403 13:40:03.716785 11894 net.cpp:141] Setting up inception_4d/pool_proj
I0403 13:40:03.716816 11894 net.cpp:148] Top shape: 24 64 14 14 (301056)
I0403 13:40:03.716832 11894 net.cpp:156] Memory required for data: 1146105120
I0403 13:40:03.716850 11894 layer_factory.hpp:77] Creating layer inception_4d/relu_pool_proj
I0403 13:40:03.716868 11894 net.cpp:91] Creating Layer inception_4d/relu_pool_proj
I0403 13:40:03.716883 11894 net.cpp:425] inception_4d/relu_pool_proj <- inception_4d/pool_proj
I0403 13:40:03.716902 11894 net.cpp:386] inception_4d/relu_pool_proj -> inception_4d/pool_proj (in-place)
I0403 13:40:03.717085 11894 net.cpp:141] Setting up inception_4d/relu_pool_proj
I0403 13:40:03.717109 11894 net.cpp:148] Top shape: 24 64 14 14 (301056)
I0403 13:40:03.717123 11894 net.cpp:156] Memory required for data: 1147309344
I0403 13:40:03.717136 11894 layer_factory.hpp:77] Creating layer inception_4d/output
I0403 13:40:03.717152 11894 net.cpp:91] Creating Layer inception_4d/output
I0403 13:40:03.717167 11894 net.cpp:425] inception_4d/output <- inception_4d/1x1
I0403 13:40:03.717183 11894 net.cpp:425] inception_4d/output <- inception_4d/3x3
I0403 13:40:03.717200 11894 net.cpp:425] inception_4d/output <- inception_4d/5x5
I0403 13:40:03.717214 11894 net.cpp:425] inception_4d/output <- inception_4d/pool_proj
I0403 13:40:03.717232 11894 net.cpp:399] inception_4d/output -> inception_4d/output
I0403 13:40:03.717279 11894 net.cpp:141] Setting up inception_4d/output
I0403 13:40:03.717304 11894 net.cpp:148] Top shape: 24 528 14 14 (2483712)
I0403 13:40:03.717319 11894 net.cpp:156] Memory required for data: 1157244192
I0403 13:40:03.717332 11894 layer_factory.hpp:77] Creating layer inception_4d/output_inception_4d/output_0_split
I0403 13:40:03.717350 11894 net.cpp:91] Creating Layer inception_4d/output_inception_4d/output_0_split
I0403 13:40:03.717363 11894 net.cpp:425] inception_4d/output_inception_4d/output_0_split <- inception_4d/output
I0403 13:40:03.717382 11894 net.cpp:399] inception_4d/output_inception_4d/output_0_split -> inception_4d/output_inception_4d/output_0_split_0
I0403 13:40:03.717403 11894 net.cpp:399] inception_4d/output_inception_4d/output_0_split -> inception_4d/output_inception_4d/output_0_split_1
I0403 13:40:03.717423 11894 net.cpp:399] inception_4d/output_inception_4d/output_0_split -> inception_4d/output_inception_4d/output_0_split_2
I0403 13:40:03.717443 11894 net.cpp:399] inception_4d/output_inception_4d/output_0_split -> inception_4d/output_inception_4d/output_0_split_3
I0403 13:40:03.717463 11894 net.cpp:399] inception_4d/output_inception_4d/output_0_split -> inception_4d/output_inception_4d/output_0_split_4
I0403 13:40:03.717572 11894 net.cpp:141] Setting up inception_4d/output_inception_4d/output_0_split
I0403 13:40:03.717610 11894 net.cpp:148] Top shape: 24 528 14 14 (2483712)
I0403 13:40:03.717628 11894 net.cpp:148] Top shape: 24 528 14 14 (2483712)
I0403 13:40:03.717643 11894 net.cpp:148] Top shape: 24 528 14 14 (2483712)
I0403 13:40:03.717658 11894 net.cpp:148] Top shape: 24 528 14 14 (2483712)
I0403 13:40:03.717672 11894 net.cpp:148] Top shape: 24 528 14 14 (2483712)
I0403 13:40:03.717685 11894 net.cpp:156] Memory required for data: 1206918432
I0403 13:40:03.717699 11894 layer_factory.hpp:77] Creating layer loss2/ave_pool
I0403 13:40:03.717715 11894 net.cpp:91] Creating Layer loss2/ave_pool
I0403 13:40:03.717730 11894 net.cpp:425] loss2/ave_pool <- inception_4d/output_inception_4d/output_0_split_0
I0403 13:40:03.717748 11894 net.cpp:399] loss2/ave_pool -> loss2/ave_pool
I0403 13:40:03.718061 11894 net.cpp:141] Setting up loss2/ave_pool
I0403 13:40:03.718089 11894 net.cpp:148] Top shape: 24 528 4 4 (202752)
I0403 13:40:03.718106 11894 net.cpp:156] Memory required for data: 1207729440
I0403 13:40:03.718121 11894 layer_factory.hpp:77] Creating layer loss2/conv
I0403 13:40:03.718142 11894 net.cpp:91] Creating Layer loss2/conv
I0403 13:40:03.718159 11894 net.cpp:425] loss2/conv <- loss2/ave_pool
I0403 13:40:03.718178 11894 net.cpp:399] loss2/conv -> loss2/conv
I0403 13:40:03.720139 11894 net.cpp:141] Setting up loss2/conv
I0403 13:40:03.720168 11894 net.cpp:148] Top shape: 24 128 4 4 (49152)
I0403 13:40:03.720185 11894 net.cpp:156] Memory required for data: 1207926048
I0403 13:40:03.720202 11894 layer_factory.hpp:77] Creating layer loss2/relu_conv
I0403 13:40:03.720222 11894 net.cpp:91] Creating Layer loss2/relu_conv
I0403 13:40:03.720239 11894 net.cpp:425] loss2/relu_conv <- loss2/conv
I0403 13:40:03.720257 11894 net.cpp:386] loss2/relu_conv -> loss2/conv (in-place)
I0403 13:40:03.720556 11894 net.cpp:141] Setting up loss2/relu_conv
I0403 13:40:03.720583 11894 net.cpp:148] Top shape: 24 128 4 4 (49152)
I0403 13:40:03.720598 11894 net.cpp:156] Memory required for data: 1208122656
I0403 13:40:03.720613 11894 layer_factory.hpp:77] Creating layer loss2/fc
I0403 13:40:03.720634 11894 net.cpp:91] Creating Layer loss2/fc
I0403 13:40:03.720652 11894 net.cpp:425] loss2/fc <- loss2/conv
I0403 13:40:03.720671 11894 net.cpp:399] loss2/fc -> loss2/fc
I0403 13:40:03.738975 11894 net.cpp:141] Setting up loss2/fc
I0403 13:40:03.739019 11894 net.cpp:148] Top shape: 24 1024 (24576)
I0403 13:40:03.739034 11894 net.cpp:156] Memory required for data: 1208220960
I0403 13:40:03.739053 11894 layer_factory.hpp:77] Creating layer loss2/relu_fc
I0403 13:40:03.739071 11894 net.cpp:91] Creating Layer loss2/relu_fc
I0403 13:40:03.739089 11894 net.cpp:425] loss2/relu_fc <- loss2/fc
I0403 13:40:03.739107 11894 net.cpp:386] loss2/relu_fc -> loss2/fc (in-place)
I0403 13:40:03.739444 11894 net.cpp:141] Setting up loss2/relu_fc
I0403 13:40:03.739470 11894 net.cpp:148] Top shape: 24 1024 (24576)
I0403 13:40:03.739485 11894 net.cpp:156] Memory required for data: 1208319264
I0403 13:40:03.739500 11894 layer_factory.hpp:77] Creating layer loss2/drop_fc
I0403 13:40:03.739519 11894 net.cpp:91] Creating Layer loss2/drop_fc
I0403 13:40:03.739534 11894 net.cpp:425] loss2/drop_fc <- loss2/fc
I0403 13:40:03.739570 11894 net.cpp:386] loss2/drop_fc -> loss2/fc (in-place)
I0403 13:40:03.739621 11894 net.cpp:141] Setting up loss2/drop_fc
I0403 13:40:03.739645 11894 net.cpp:148] Top shape: 24 1024 (24576)
I0403 13:40:03.739661 11894 net.cpp:156] Memory required for data: 1208417568
I0403 13:40:03.739675 11894 layer_factory.hpp:77] Creating layer loss2/classifier_plantvillage
I0403 13:40:03.739693 11894 net.cpp:91] Creating Layer loss2/classifier_plantvillage
I0403 13:40:03.739708 11894 net.cpp:425] loss2/classifier_plantvillage <- loss2/fc
I0403 13:40:03.739732 11894 net.cpp:399] loss2/classifier_plantvillage -> loss2/classifier_plantvillage
I0403 13:40:03.740144 11894 net.cpp:141] Setting up loss2/classifier_plantvillage
I0403 13:40:03.740167 11894 net.cpp:148] Top shape: 24 38 (912)
I0403 13:40:03.740206 11894 net.cpp:156] Memory required for data: 1208421216
I0403 13:40:03.740224 11894 layer_factory.hpp:77] Creating layer loss2/classifier_plantvillage_loss2/classifier_plantvillage_0_split
I0403 13:40:03.740244 11894 net.cpp:91] Creating Layer loss2/classifier_plantvillage_loss2/classifier_plantvillage_0_split
I0403 13:40:03.740262 11894 net.cpp:425] loss2/classifier_plantvillage_loss2/classifier_plantvillage_0_split <- loss2/classifier_plantvillage
I0403 13:40:03.740278 11894 net.cpp:399] loss2/classifier_plantvillage_loss2/classifier_plantvillage_0_split -> loss2/classifier_plantvillage_loss2/classifier_plantvillage_0_split_0
I0403 13:40:03.740298 11894 net.cpp:399] loss2/classifier_plantvillage_loss2/classifier_plantvillage_0_split -> loss2/classifier_plantvillage_loss2/classifier_plantvillage_0_split_1
I0403 13:40:03.740317 11894 net.cpp:399] loss2/classifier_plantvillage_loss2/classifier_plantvillage_0_split -> loss2/classifier_plantvillage_loss2/classifier_plantvillage_0_split_2
I0403 13:40:03.740397 11894 net.cpp:141] Setting up loss2/classifier_plantvillage_loss2/classifier_plantvillage_0_split
I0403 13:40:03.740420 11894 net.cpp:148] Top shape: 24 38 (912)
I0403 13:40:03.740435 11894 net.cpp:148] Top shape: 24 38 (912)
I0403 13:40:03.740450 11894 net.cpp:148] Top shape: 24 38 (912)
I0403 13:40:03.740463 11894 net.cpp:156] Memory required for data: 1208432160
I0403 13:40:03.740478 11894 layer_factory.hpp:77] Creating layer inception_4e/1x1
I0403 13:40:03.740500 11894 net.cpp:91] Creating Layer inception_4e/1x1
I0403 13:40:03.740517 11894 net.cpp:425] inception_4e/1x1 <- inception_4d/output_inception_4d/output_0_split_1
I0403 13:40:03.740542 11894 net.cpp:399] inception_4e/1x1 -> inception_4e/1x1
I0403 13:40:03.742414 11894 net.cpp:141] Setting up inception_4e/1x1
I0403 13:40:03.742441 11894 net.cpp:148] Top shape: 24 256 14 14 (1204224)
I0403 13:40:03.742456 11894 net.cpp:156] Memory required for data: 1213249056
I0403 13:40:03.742473 11894 layer_factory.hpp:77] Creating layer inception_4e/relu_1x1
I0403 13:40:03.742493 11894 net.cpp:91] Creating Layer inception_4e/relu_1x1
I0403 13:40:03.742509 11894 net.cpp:425] inception_4e/relu_1x1 <- inception_4e/1x1
I0403 13:40:03.742527 11894 net.cpp:386] inception_4e/relu_1x1 -> inception_4e/1x1 (in-place)
I0403 13:40:03.742835 11894 net.cpp:141] Setting up inception_4e/relu_1x1
I0403 13:40:03.742861 11894 net.cpp:148] Top shape: 24 256 14 14 (1204224)
I0403 13:40:03.742876 11894 net.cpp:156] Memory required for data: 1218065952
I0403 13:40:03.742889 11894 layer_factory.hpp:77] Creating layer inception_4e/3x3_reduce
I0403 13:40:03.742911 11894 net.cpp:91] Creating Layer inception_4e/3x3_reduce
I0403 13:40:03.742928 11894 net.cpp:425] inception_4e/3x3_reduce <- inception_4d/output_inception_4d/output_0_split_2
I0403 13:40:03.742949 11894 net.cpp:399] inception_4e/3x3_reduce -> inception_4e/3x3_reduce
I0403 13:40:03.745126 11894 net.cpp:141] Setting up inception_4e/3x3_reduce
I0403 13:40:03.745154 11894 net.cpp:148] Top shape: 24 160 14 14 (752640)
I0403 13:40:03.745169 11894 net.cpp:156] Memory required for data: 1221076512
I0403 13:40:03.745187 11894 layer_factory.hpp:77] Creating layer inception_4e/relu_3x3_reduce
I0403 13:40:03.745204 11894 net.cpp:91] Creating Layer inception_4e/relu_3x3_reduce
I0403 13:40:03.745219 11894 net.cpp:425] inception_4e/relu_3x3_reduce <- inception_4e/3x3_reduce
I0403 13:40:03.745239 11894 net.cpp:386] inception_4e/relu_3x3_reduce -> inception_4e/3x3_reduce (in-place)
I0403 13:40:03.745424 11894 net.cpp:141] Setting up inception_4e/relu_3x3_reduce
I0403 13:40:03.745447 11894 net.cpp:148] Top shape: 24 160 14 14 (752640)
I0403 13:40:03.745461 11894 net.cpp:156] Memory required for data: 1224087072
I0403 13:40:03.745476 11894 layer_factory.hpp:77] Creating layer inception_4e/3x3
I0403 13:40:03.745497 11894 net.cpp:91] Creating Layer inception_4e/3x3
I0403 13:40:03.745514 11894 net.cpp:425] inception_4e/3x3 <- inception_4e/3x3_reduce
I0403 13:40:03.745534 11894 net.cpp:399] inception_4e/3x3 -> inception_4e/3x3
I0403 13:40:03.750571 11894 net.cpp:141] Setting up inception_4e/3x3
I0403 13:40:03.750614 11894 net.cpp:148] Top shape: 24 320 14 14 (1505280)
I0403 13:40:03.750630 11894 net.cpp:156] Memory required for data: 1230108192
I0403 13:40:03.750649 11894 layer_factory.hpp:77] Creating layer inception_4e/relu_3x3
I0403 13:40:03.750669 11894 net.cpp:91] Creating Layer inception_4e/relu_3x3
I0403 13:40:03.750686 11894 net.cpp:425] inception_4e/relu_3x3 <- inception_4e/3x3
I0403 13:40:03.750702 11894 net.cpp:386] inception_4e/relu_3x3 -> inception_4e/3x3 (in-place)
I0403 13:40:03.751000 11894 net.cpp:141] Setting up inception_4e/relu_3x3
I0403 13:40:03.751029 11894 net.cpp:148] Top shape: 24 320 14 14 (1505280)
I0403 13:40:03.751044 11894 net.cpp:156] Memory required for data: 1236129312
I0403 13:40:03.751060 11894 layer_factory.hpp:77] Creating layer inception_4e/5x5_reduce
I0403 13:40:03.751082 11894 net.cpp:91] Creating Layer inception_4e/5x5_reduce
I0403 13:40:03.751099 11894 net.cpp:425] inception_4e/5x5_reduce <- inception_4d/output_inception_4d/output_0_split_3
I0403 13:40:03.751118 11894 net.cpp:399] inception_4e/5x5_reduce -> inception_4e/5x5_reduce
I0403 13:40:03.752233 11894 net.cpp:141] Setting up inception_4e/5x5_reduce
I0403 13:40:03.752260 11894 net.cpp:148] Top shape: 24 32 14 14 (150528)
I0403 13:40:03.752275 11894 net.cpp:156] Memory required for data: 1236731424
I0403 13:40:03.752293 11894 layer_factory.hpp:77] Creating layer inception_4e/relu_5x5_reduce
I0403 13:40:03.752313 11894 net.cpp:91] Creating Layer inception_4e/relu_5x5_reduce
I0403 13:40:03.752329 11894 net.cpp:425] inception_4e/relu_5x5_reduce <- inception_4e/5x5_reduce
I0403 13:40:03.752346 11894 net.cpp:386] inception_4e/relu_5x5_reduce -> inception_4e/5x5_reduce (in-place)
I0403 13:40:03.752650 11894 net.cpp:141] Setting up inception_4e/relu_5x5_reduce
I0403 13:40:03.752676 11894 net.cpp:148] Top shape: 24 32 14 14 (150528)
I0403 13:40:03.752691 11894 net.cpp:156] Memory required for data: 1237333536
I0403 13:40:03.752706 11894 layer_factory.hpp:77] Creating layer inception_4e/5x5
I0403 13:40:03.752743 11894 net.cpp:91] Creating Layer inception_4e/5x5
I0403 13:40:03.752763 11894 net.cpp:425] inception_4e/5x5 <- inception_4e/5x5_reduce
I0403 13:40:03.752781 11894 net.cpp:399] inception_4e/5x5 -> inception_4e/5x5
I0403 13:40:03.754704 11894 net.cpp:141] Setting up inception_4e/5x5
I0403 13:40:03.754734 11894 net.cpp:148] Top shape: 24 128 14 14 (602112)
I0403 13:40:03.754750 11894 net.cpp:156] Memory required for data: 1239741984
I0403 13:40:03.754768 11894 layer_factory.hpp:77] Creating layer inception_4e/relu_5x5
I0403 13:40:03.754786 11894 net.cpp:91] Creating Layer inception_4e/relu_5x5
I0403 13:40:03.754802 11894 net.cpp:425] inception_4e/relu_5x5 <- inception_4e/5x5
I0403 13:40:03.754820 11894 net.cpp:386] inception_4e/relu_5x5 -> inception_4e/5x5 (in-place)
I0403 13:40:03.755017 11894 net.cpp:141] Setting up inception_4e/relu_5x5
I0403 13:40:03.755043 11894 net.cpp:148] Top shape: 24 128 14 14 (602112)
I0403 13:40:03.755056 11894 net.cpp:156] Memory required for data: 1242150432
I0403 13:40:03.755070 11894 layer_factory.hpp:77] Creating layer inception_4e/pool
I0403 13:40:03.755087 11894 net.cpp:91] Creating Layer inception_4e/pool
I0403 13:40:03.755103 11894 net.cpp:425] inception_4e/pool <- inception_4d/output_inception_4d/output_0_split_4
I0403 13:40:03.755123 11894 net.cpp:399] inception_4e/pool -> inception_4e/pool
I0403 13:40:03.755193 11894 net.cpp:141] Setting up inception_4e/pool
I0403 13:40:03.755216 11894 net.cpp:148] Top shape: 24 528 14 14 (2483712)
I0403 13:40:03.755231 11894 net.cpp:156] Memory required for data: 1252085280
I0403 13:40:03.755244 11894 layer_factory.hpp:77] Creating layer inception_4e/pool_proj
I0403 13:40:03.755266 11894 net.cpp:91] Creating Layer inception_4e/pool_proj
I0403 13:40:03.755283 11894 net.cpp:425] inception_4e/pool_proj <- inception_4e/pool
I0403 13:40:03.755302 11894 net.cpp:399] inception_4e/pool_proj -> inception_4e/pool_proj
I0403 13:40:03.756815 11894 net.cpp:141] Setting up inception_4e/pool_proj
I0403 13:40:03.756857 11894 net.cpp:148] Top shape: 24 128 14 14 (602112)
I0403 13:40:03.756875 11894 net.cpp:156] Memory required for data: 1254493728
I0403 13:40:03.756893 11894 layer_factory.hpp:77] Creating layer inception_4e/relu_pool_proj
I0403 13:40:03.756911 11894 net.cpp:91] Creating Layer inception_4e/relu_pool_proj
I0403 13:40:03.756925 11894 net.cpp:425] inception_4e/relu_pool_proj <- inception_4e/pool_proj
I0403 13:40:03.756947 11894 net.cpp:386] inception_4e/relu_pool_proj -> inception_4e/pool_proj (in-place)
I0403 13:40:03.757246 11894 net.cpp:141] Setting up inception_4e/relu_pool_proj
I0403 13:40:03.757272 11894 net.cpp:148] Top shape: 24 128 14 14 (602112)
I0403 13:40:03.757287 11894 net.cpp:156] Memory required for data: 1256902176
I0403 13:40:03.757302 11894 layer_factory.hpp:77] Creating layer inception_4e/output
I0403 13:40:03.757318 11894 net.cpp:91] Creating Layer inception_4e/output
I0403 13:40:03.757333 11894 net.cpp:425] inception_4e/output <- inception_4e/1x1
I0403 13:40:03.757349 11894 net.cpp:425] inception_4e/output <- inception_4e/3x3
I0403 13:40:03.757364 11894 net.cpp:425] inception_4e/output <- inception_4e/5x5
I0403 13:40:03.757380 11894 net.cpp:425] inception_4e/output <- inception_4e/pool_proj
I0403 13:40:03.757398 11894 net.cpp:399] inception_4e/output -> inception_4e/output
I0403 13:40:03.757448 11894 net.cpp:141] Setting up inception_4e/output
I0403 13:40:03.757472 11894 net.cpp:148] Top shape: 24 832 14 14 (3913728)
I0403 13:40:03.757485 11894 net.cpp:156] Memory required for data: 1272557088
I0403 13:40:03.757498 11894 layer_factory.hpp:77] Creating layer pool4/3x3_s2
I0403 13:40:03.757519 11894 net.cpp:91] Creating Layer pool4/3x3_s2
I0403 13:40:03.757534 11894 net.cpp:425] pool4/3x3_s2 <- inception_4e/output
I0403 13:40:03.757560 11894 net.cpp:399] pool4/3x3_s2 -> pool4/3x3_s2
I0403 13:40:03.757627 11894 net.cpp:141] Setting up pool4/3x3_s2
I0403 13:40:03.757652 11894 net.cpp:148] Top shape: 24 832 7 7 (978432)
I0403 13:40:03.757665 11894 net.cpp:156] Memory required for data: 1276470816
I0403 13:40:03.757679 11894 layer_factory.hpp:77] Creating layer pool4/3x3_s2_pool4/3x3_s2_0_split
I0403 13:40:03.757695 11894 net.cpp:91] Creating Layer pool4/3x3_s2_pool4/3x3_s2_0_split
I0403 13:40:03.757710 11894 net.cpp:425] pool4/3x3_s2_pool4/3x3_s2_0_split <- pool4/3x3_s2
I0403 13:40:03.757728 11894 net.cpp:399] pool4/3x3_s2_pool4/3x3_s2_0_split -> pool4/3x3_s2_pool4/3x3_s2_0_split_0
I0403 13:40:03.757750 11894 net.cpp:399] pool4/3x3_s2_pool4/3x3_s2_0_split -> pool4/3x3_s2_pool4/3x3_s2_0_split_1
I0403 13:40:03.757769 11894 net.cpp:399] pool4/3x3_s2_pool4/3x3_s2_0_split -> pool4/3x3_s2_pool4/3x3_s2_0_split_2
I0403 13:40:03.757788 11894 net.cpp:399] pool4/3x3_s2_pool4/3x3_s2_0_split -> pool4/3x3_s2_pool4/3x3_s2_0_split_3
I0403 13:40:03.757877 11894 net.cpp:141] Setting up pool4/3x3_s2_pool4/3x3_s2_0_split
I0403 13:40:03.757900 11894 net.cpp:148] Top shape: 24 832 7 7 (978432)
I0403 13:40:03.757915 11894 net.cpp:148] Top shape: 24 832 7 7 (978432)
I0403 13:40:03.757930 11894 net.cpp:148] Top shape: 24 832 7 7 (978432)
I0403 13:40:03.757944 11894 net.cpp:148] Top shape: 24 832 7 7 (978432)
I0403 13:40:03.757958 11894 net.cpp:156] Memory required for data: 1292125728
I0403 13:40:03.757972 11894 layer_factory.hpp:77] Creating layer inception_5a/1x1
I0403 13:40:03.757993 11894 net.cpp:91] Creating Layer inception_5a/1x1
I0403 13:40:03.758010 11894 net.cpp:425] inception_5a/1x1 <- pool4/3x3_s2_pool4/3x3_s2_0_split_0
I0403 13:40:03.758030 11894 net.cpp:399] inception_5a/1x1 -> inception_5a/1x1
I0403 13:40:03.760959 11894 net.cpp:141] Setting up inception_5a/1x1
I0403 13:40:03.760988 11894 net.cpp:148] Top shape: 24 256 7 7 (301056)
I0403 13:40:03.761003 11894 net.cpp:156] Memory required for data: 1293329952
I0403 13:40:03.761020 11894 layer_factory.hpp:77] Creating layer inception_5a/relu_1x1
I0403 13:40:03.761039 11894 net.cpp:91] Creating Layer inception_5a/relu_1x1
I0403 13:40:03.761054 11894 net.cpp:425] inception_5a/relu_1x1 <- inception_5a/1x1
I0403 13:40:03.761075 11894 net.cpp:386] inception_5a/relu_1x1 -> inception_5a/1x1 (in-place)
I0403 13:40:03.761389 11894 net.cpp:141] Setting up inception_5a/relu_1x1
I0403 13:40:03.761415 11894 net.cpp:148] Top shape: 24 256 7 7 (301056)
I0403 13:40:03.761430 11894 net.cpp:156] Memory required for data: 1294534176
I0403 13:40:03.761443 11894 layer_factory.hpp:77] Creating layer inception_5a/3x3_reduce
I0403 13:40:03.761466 11894 net.cpp:91] Creating Layer inception_5a/3x3_reduce
I0403 13:40:03.761482 11894 net.cpp:425] inception_5a/3x3_reduce <- pool4/3x3_s2_pool4/3x3_s2_0_split_1
I0403 13:40:03.761503 11894 net.cpp:399] inception_5a/3x3_reduce -> inception_5a/3x3_reduce
I0403 13:40:03.763994 11894 net.cpp:141] Setting up inception_5a/3x3_reduce
I0403 13:40:03.764022 11894 net.cpp:148] Top shape: 24 160 7 7 (188160)
I0403 13:40:03.764037 11894 net.cpp:156] Memory required for data: 1295286816
I0403 13:40:03.764055 11894 layer_factory.hpp:77] Creating layer inception_5a/relu_3x3_reduce
I0403 13:40:03.764076 11894 net.cpp:91] Creating Layer inception_5a/relu_3x3_reduce
I0403 13:40:03.764092 11894 net.cpp:425] inception_5a/relu_3x3_reduce <- inception_5a/3x3_reduce
I0403 13:40:03.764109 11894 net.cpp:386] inception_5a/relu_3x3_reduce -> inception_5a/3x3_reduce (in-place)
I0403 13:40:03.764298 11894 net.cpp:141] Setting up inception_5a/relu_3x3_reduce
I0403 13:40:03.764322 11894 net.cpp:148] Top shape: 24 160 7 7 (188160)
I0403 13:40:03.764336 11894 net.cpp:156] Memory required for data: 1296039456
I0403 13:40:03.764350 11894 layer_factory.hpp:77] Creating layer inception_5a/3x3
I0403 13:40:03.764372 11894 net.cpp:91] Creating Layer inception_5a/3x3
I0403 13:40:03.764389 11894 net.cpp:425] inception_5a/3x3 <- inception_5a/3x3_reduce
I0403 13:40:03.764410 11894 net.cpp:399] inception_5a/3x3 -> inception_5a/3x3
I0403 13:40:03.769495 11894 net.cpp:141] Setting up inception_5a/3x3
I0403 13:40:03.769525 11894 net.cpp:148] Top shape: 24 320 7 7 (376320)
I0403 13:40:03.769544 11894 net.cpp:156] Memory required for data: 1297544736
I0403 13:40:03.769575 11894 layer_factory.hpp:77] Creating layer inception_5a/relu_3x3
I0403 13:40:03.769593 11894 net.cpp:91] Creating Layer inception_5a/relu_3x3
I0403 13:40:03.769609 11894 net.cpp:425] inception_5a/relu_3x3 <- inception_5a/3x3
I0403 13:40:03.769629 11894 net.cpp:386] inception_5a/relu_3x3 -> inception_5a/3x3 (in-place)
I0403 13:40:03.769924 11894 net.cpp:141] Setting up inception_5a/relu_3x3
I0403 13:40:03.769949 11894 net.cpp:148] Top shape: 24 320 7 7 (376320)
I0403 13:40:03.769964 11894 net.cpp:156] Memory required for data: 1299050016
I0403 13:40:03.769979 11894 layer_factory.hpp:77] Creating layer inception_5a/5x5_reduce
I0403 13:40:03.770001 11894 net.cpp:91] Creating Layer inception_5a/5x5_reduce
I0403 13:40:03.770018 11894 net.cpp:425] inception_5a/5x5_reduce <- pool4/3x3_s2_pool4/3x3_s2_0_split_2
I0403 13:40:03.770040 11894 net.cpp:399] inception_5a/5x5_reduce -> inception_5a/5x5_reduce
I0403 13:40:03.771221 11894 net.cpp:141] Setting up inception_5a/5x5_reduce
I0403 13:40:03.771250 11894 net.cpp:148] Top shape: 24 32 7 7 (37632)
I0403 13:40:03.771265 11894 net.cpp:156] Memory required for data: 1299200544
I0403 13:40:03.771282 11894 layer_factory.hpp:77] Creating layer inception_5a/relu_5x5_reduce
I0403 13:40:03.771303 11894 net.cpp:91] Creating Layer inception_5a/relu_5x5_reduce
I0403 13:40:03.771320 11894 net.cpp:425] inception_5a/relu_5x5_reduce <- inception_5a/5x5_reduce
I0403 13:40:03.771337 11894 net.cpp:386] inception_5a/relu_5x5_reduce -> inception_5a/5x5_reduce (in-place)
I0403 13:40:03.771649 11894 net.cpp:141] Setting up inception_5a/relu_5x5_reduce
I0403 13:40:03.771675 11894 net.cpp:148] Top shape: 24 32 7 7 (37632)
I0403 13:40:03.771690 11894 net.cpp:156] Memory required for data: 1299351072
I0403 13:40:03.771704 11894 layer_factory.hpp:77] Creating layer inception_5a/5x5
I0403 13:40:03.771726 11894 net.cpp:91] Creating Layer inception_5a/5x5
I0403 13:40:03.771744 11894 net.cpp:425] inception_5a/5x5 <- inception_5a/5x5_reduce
I0403 13:40:03.771764 11894 net.cpp:399] inception_5a/5x5 -> inception_5a/5x5
I0403 13:40:03.773525 11894 net.cpp:141] Setting up inception_5a/5x5
I0403 13:40:03.773572 11894 net.cpp:148] Top shape: 24 128 7 7 (150528)
I0403 13:40:03.773591 11894 net.cpp:156] Memory required for data: 1299953184
I0403 13:40:03.773608 11894 layer_factory.hpp:77] Creating layer inception_5a/relu_5x5
I0403 13:40:03.773625 11894 net.cpp:91] Creating Layer inception_5a/relu_5x5
I0403 13:40:03.773640 11894 net.cpp:425] inception_5a/relu_5x5 <- inception_5a/5x5
I0403 13:40:03.773659 11894 net.cpp:386] inception_5a/relu_5x5 -> inception_5a/5x5 (in-place)
I0403 13:40:03.773849 11894 net.cpp:141] Setting up inception_5a/relu_5x5
I0403 13:40:03.773874 11894 net.cpp:148] Top shape: 24 128 7 7 (150528)
I0403 13:40:03.773888 11894 net.cpp:156] Memory required for data: 1300555296
I0403 13:40:03.773902 11894 layer_factory.hpp:77] Creating layer inception_5a/pool
I0403 13:40:03.773921 11894 net.cpp:91] Creating Layer inception_5a/pool
I0403 13:40:03.773938 11894 net.cpp:425] inception_5a/pool <- pool4/3x3_s2_pool4/3x3_s2_0_split_3
I0403 13:40:03.773955 11894 net.cpp:399] inception_5a/pool -> inception_5a/pool
I0403 13:40:03.774027 11894 net.cpp:141] Setting up inception_5a/pool
I0403 13:40:03.774051 11894 net.cpp:148] Top shape: 24 832 7 7 (978432)
I0403 13:40:03.774065 11894 net.cpp:156] Memory required for data: 1304469024
I0403 13:40:03.774078 11894 layer_factory.hpp:77] Creating layer inception_5a/pool_proj
I0403 13:40:03.774101 11894 net.cpp:91] Creating Layer inception_5a/pool_proj
I0403 13:40:03.774117 11894 net.cpp:425] inception_5a/pool_proj <- inception_5a/pool
I0403 13:40:03.774137 11894 net.cpp:399] inception_5a/pool_proj -> inception_5a/pool_proj
I0403 13:40:03.776433 11894 net.cpp:141] Setting up inception_5a/pool_proj
I0403 13:40:03.776464 11894 net.cpp:148] Top shape: 24 128 7 7 (150528)
I0403 13:40:03.776480 11894 net.cpp:156] Memory required for data: 1305071136
I0403 13:40:03.776497 11894 layer_factory.hpp:77] Creating layer inception_5a/relu_pool_proj
I0403 13:40:03.776515 11894 net.cpp:91] Creating Layer inception_5a/relu_pool_proj
I0403 13:40:03.776531 11894 net.cpp:425] inception_5a/relu_pool_proj <- inception_5a/pool_proj
I0403 13:40:03.776557 11894 net.cpp:386] inception_5a/relu_pool_proj -> inception_5a/pool_proj (in-place)
I0403 13:40:03.776868 11894 net.cpp:141] Setting up inception_5a/relu_pool_proj
I0403 13:40:03.776897 11894 net.cpp:148] Top shape: 24 128 7 7 (150528)
I0403 13:40:03.776913 11894 net.cpp:156] Memory required for data: 1305673248
I0403 13:40:03.776928 11894 layer_factory.hpp:77] Creating layer inception_5a/output
I0403 13:40:03.776945 11894 net.cpp:91] Creating Layer inception_5a/output
I0403 13:40:03.776960 11894 net.cpp:425] inception_5a/output <- inception_5a/1x1
I0403 13:40:03.776976 11894 net.cpp:425] inception_5a/output <- inception_5a/3x3
I0403 13:40:03.776993 11894 net.cpp:425] inception_5a/output <- inception_5a/5x5
I0403 13:40:03.777009 11894 net.cpp:425] inception_5a/output <- inception_5a/pool_proj
I0403 13:40:03.777024 11894 net.cpp:399] inception_5a/output -> inception_5a/output
I0403 13:40:03.777088 11894 net.cpp:141] Setting up inception_5a/output
I0403 13:40:03.777110 11894 net.cpp:148] Top shape: 24 832 7 7 (978432)
I0403 13:40:03.777125 11894 net.cpp:156] Memory required for data: 1309586976
I0403 13:40:03.777138 11894 layer_factory.hpp:77] Creating layer inception_5a/output_inception_5a/output_0_split
I0403 13:40:03.777158 11894 net.cpp:91] Creating Layer inception_5a/output_inception_5a/output_0_split
I0403 13:40:03.777173 11894 net.cpp:425] inception_5a/output_inception_5a/output_0_split <- inception_5a/output
I0403 13:40:03.777189 11894 net.cpp:399] inception_5a/output_inception_5a/output_0_split -> inception_5a/output_inception_5a/output_0_split_0
I0403 13:40:03.777209 11894 net.cpp:399] inception_5a/output_inception_5a/output_0_split -> inception_5a/output_inception_5a/output_0_split_1
I0403 13:40:03.777227 11894 net.cpp:399] inception_5a/output_inception_5a/output_0_split -> inception_5a/output_inception_5a/output_0_split_2
I0403 13:40:03.777250 11894 net.cpp:399] inception_5a/output_inception_5a/output_0_split -> inception_5a/output_inception_5a/output_0_split_3
I0403 13:40:03.777377 11894 net.cpp:141] Setting up inception_5a/output_inception_5a/output_0_split
I0403 13:40:03.777401 11894 net.cpp:148] Top shape: 24 832 7 7 (978432)
I0403 13:40:03.777417 11894 net.cpp:148] Top shape: 24 832 7 7 (978432)
I0403 13:40:03.777432 11894 net.cpp:148] Top shape: 24 832 7 7 (978432)
I0403 13:40:03.777447 11894 net.cpp:148] Top shape: 24 832 7 7 (978432)
I0403 13:40:03.777461 11894 net.cpp:156] Memory required for data: 1325241888
I0403 13:40:03.777475 11894 layer_factory.hpp:77] Creating layer inception_5b/1x1
I0403 13:40:03.777498 11894 net.cpp:91] Creating Layer inception_5b/1x1
I0403 13:40:03.777514 11894 net.cpp:425] inception_5b/1x1 <- inception_5a/output_inception_5a/output_0_split_0
I0403 13:40:03.777540 11894 net.cpp:399] inception_5b/1x1 -> inception_5b/1x1
I0403 13:40:03.781333 11894 net.cpp:141] Setting up inception_5b/1x1
I0403 13:40:03.781363 11894 net.cpp:148] Top shape: 24 384 7 7 (451584)
I0403 13:40:03.781378 11894 net.cpp:156] Memory required for data: 1327048224
I0403 13:40:03.781401 11894 layer_factory.hpp:77] Creating layer inception_5b/relu_1x1
I0403 13:40:03.781420 11894 net.cpp:91] Creating Layer inception_5b/relu_1x1
I0403 13:40:03.781435 11894 net.cpp:425] inception_5b/relu_1x1 <- inception_5b/1x1
I0403 13:40:03.781452 11894 net.cpp:386] inception_5b/relu_1x1 -> inception_5b/1x1 (in-place)
I0403 13:40:03.781787 11894 net.cpp:141] Setting up inception_5b/relu_1x1
I0403 13:40:03.781813 11894 net.cpp:148] Top shape: 24 384 7 7 (451584)
I0403 13:40:03.781828 11894 net.cpp:156] Memory required for data: 1328854560
I0403 13:40:03.781843 11894 layer_factory.hpp:77] Creating layer inception_5b/3x3_reduce
I0403 13:40:03.781867 11894 net.cpp:91] Creating Layer inception_5b/3x3_reduce
I0403 13:40:03.781885 11894 net.cpp:425] inception_5b/3x3_reduce <- inception_5a/output_inception_5a/output_0_split_1
I0403 13:40:03.781904 11894 net.cpp:399] inception_5b/3x3_reduce -> inception_5b/3x3_reduce
I0403 13:40:03.784729 11894 net.cpp:141] Setting up inception_5b/3x3_reduce
I0403 13:40:03.784761 11894 net.cpp:148] Top shape: 24 192 7 7 (225792)
I0403 13:40:03.784780 11894 net.cpp:156] Memory required for data: 1329757728
I0403 13:40:03.784798 11894 layer_factory.hpp:77] Creating layer inception_5b/relu_3x3_reduce
I0403 13:40:03.784816 11894 net.cpp:91] Creating Layer inception_5b/relu_3x3_reduce
I0403 13:40:03.784832 11894 net.cpp:425] inception_5b/relu_3x3_reduce <- inception_5b/3x3_reduce
I0403 13:40:03.784849 11894 net.cpp:386] inception_5b/relu_3x3_reduce -> inception_5b/3x3_reduce (in-place)
I0403 13:40:03.785049 11894 net.cpp:141] Setting up inception_5b/relu_3x3_reduce
I0403 13:40:03.785074 11894 net.cpp:148] Top shape: 24 192 7 7 (225792)
I0403 13:40:03.785089 11894 net.cpp:156] Memory required for data: 1330660896
I0403 13:40:03.785104 11894 layer_factory.hpp:77] Creating layer inception_5b/3x3
I0403 13:40:03.785126 11894 net.cpp:91] Creating Layer inception_5b/3x3
I0403 13:40:03.785143 11894 net.cpp:425] inception_5b/3x3 <- inception_5b/3x3_reduce
I0403 13:40:03.785166 11894 net.cpp:399] inception_5b/3x3 -> inception_5b/3x3
I0403 13:40:03.792146 11894 net.cpp:141] Setting up inception_5b/3x3
I0403 13:40:03.792179 11894 net.cpp:148] Top shape: 24 384 7 7 (451584)
I0403 13:40:03.792196 11894 net.cpp:156] Memory required for data: 1332467232
I0403 13:40:03.792214 11894 layer_factory.hpp:77] Creating layer inception_5b/relu_3x3
I0403 13:40:03.792232 11894 net.cpp:91] Creating Layer inception_5b/relu_3x3
I0403 13:40:03.792248 11894 net.cpp:425] inception_5b/relu_3x3 <- inception_5b/3x3
I0403 13:40:03.792268 11894 net.cpp:386] inception_5b/relu_3x3 -> inception_5b/3x3 (in-place)
I0403 13:40:03.792582 11894 net.cpp:141] Setting up inception_5b/relu_3x3
I0403 13:40:03.792611 11894 net.cpp:148] Top shape: 24 384 7 7 (451584)
I0403 13:40:03.792628 11894 net.cpp:156] Memory required for data: 1334273568
I0403 13:40:03.792644 11894 layer_factory.hpp:77] Creating layer inception_5b/5x5_reduce
I0403 13:40:03.792686 11894 net.cpp:91] Creating Layer inception_5b/5x5_reduce
I0403 13:40:03.792706 11894 net.cpp:425] inception_5b/5x5_reduce <- inception_5a/output_inception_5a/output_0_split_2
I0403 13:40:03.792727 11894 net.cpp:399] inception_5b/5x5_reduce -> inception_5b/5x5_reduce
I0403 13:40:03.794044 11894 net.cpp:141] Setting up inception_5b/5x5_reduce
I0403 13:40:03.794075 11894 net.cpp:148] Top shape: 24 48 7 7 (56448)
I0403 13:40:03.794092 11894 net.cpp:156] Memory required for data: 1334499360
I0403 13:40:03.794111 11894 layer_factory.hpp:77] Creating layer inception_5b/relu_5x5_reduce
I0403 13:40:03.794129 11894 net.cpp:91] Creating Layer inception_5b/relu_5x5_reduce
I0403 13:40:03.794144 11894 net.cpp:425] inception_5b/relu_5x5_reduce <- inception_5b/5x5_reduce
I0403 13:40:03.794164 11894 net.cpp:386] inception_5b/relu_5x5_reduce -> inception_5b/5x5_reduce (in-place)
I0403 13:40:03.794561 11894 net.cpp:141] Setting up inception_5b/relu_5x5_reduce
I0403 13:40:03.794589 11894 net.cpp:148] Top shape: 24 48 7 7 (56448)
I0403 13:40:03.794603 11894 net.cpp:156] Memory required for data: 1334725152
I0403 13:40:03.794618 11894 layer_factory.hpp:77] Creating layer inception_5b/5x5
I0403 13:40:03.794638 11894 net.cpp:91] Creating Layer inception_5b/5x5
I0403 13:40:03.794656 11894 net.cpp:425] inception_5b/5x5 <- inception_5b/5x5_reduce
I0403 13:40:03.794674 11894 net.cpp:399] inception_5b/5x5 -> inception_5b/5x5
I0403 13:40:03.796850 11894 net.cpp:141] Setting up inception_5b/5x5
I0403 13:40:03.796879 11894 net.cpp:148] Top shape: 24 128 7 7 (150528)
I0403 13:40:03.796895 11894 net.cpp:156] Memory required for data: 1335327264
I0403 13:40:03.796912 11894 layer_factory.hpp:77] Creating layer inception_5b/relu_5x5
I0403 13:40:03.796931 11894 net.cpp:91] Creating Layer inception_5b/relu_5x5
I0403 13:40:03.796947 11894 net.cpp:425] inception_5b/relu_5x5 <- inception_5b/5x5
I0403 13:40:03.796965 11894 net.cpp:386] inception_5b/relu_5x5 -> inception_5b/5x5 (in-place)
I0403 13:40:03.797165 11894 net.cpp:141] Setting up inception_5b/relu_5x5
I0403 13:40:03.797190 11894 net.cpp:148] Top shape: 24 128 7 7 (150528)
I0403 13:40:03.797205 11894 net.cpp:156] Memory required for data: 1335929376
I0403 13:40:03.797219 11894 layer_factory.hpp:77] Creating layer inception_5b/pool
I0403 13:40:03.797240 11894 net.cpp:91] Creating Layer inception_5b/pool
I0403 13:40:03.797256 11894 net.cpp:425] inception_5b/pool <- inception_5a/output_inception_5a/output_0_split_3
I0403 13:40:03.797274 11894 net.cpp:399] inception_5b/pool -> inception_5b/pool
I0403 13:40:03.797351 11894 net.cpp:141] Setting up inception_5b/pool
I0403 13:40:03.797375 11894 net.cpp:148] Top shape: 24 832 7 7 (978432)
I0403 13:40:03.797389 11894 net.cpp:156] Memory required for data: 1339843104
I0403 13:40:03.797404 11894 layer_factory.hpp:77] Creating layer inception_5b/pool_proj
I0403 13:40:03.797426 11894 net.cpp:91] Creating Layer inception_5b/pool_proj
I0403 13:40:03.797443 11894 net.cpp:425] inception_5b/pool_proj <- inception_5b/pool
I0403 13:40:03.797464 11894 net.cpp:399] inception_5b/pool_proj -> inception_5b/pool_proj
I0403 13:40:03.799901 11894 net.cpp:141] Setting up inception_5b/pool_proj
I0403 13:40:03.799933 11894 net.cpp:148] Top shape: 24 128 7 7 (150528)
I0403 13:40:03.799949 11894 net.cpp:156] Memory required for data: 1340445216
I0403 13:40:03.799968 11894 layer_factory.hpp:77] Creating layer inception_5b/relu_pool_proj
I0403 13:40:03.799988 11894 net.cpp:91] Creating Layer inception_5b/relu_pool_proj
I0403 13:40:03.800004 11894 net.cpp:425] inception_5b/relu_pool_proj <- inception_5b/pool_proj
I0403 13:40:03.800024 11894 net.cpp:386] inception_5b/relu_pool_proj -> inception_5b/pool_proj (in-place)
I0403 13:40:03.800338 11894 net.cpp:141] Setting up inception_5b/relu_pool_proj
I0403 13:40:03.800366 11894 net.cpp:148] Top shape: 24 128 7 7 (150528)
I0403 13:40:03.800382 11894 net.cpp:156] Memory required for data: 1341047328
I0403 13:40:03.800396 11894 layer_factory.hpp:77] Creating layer inception_5b/output
I0403 13:40:03.800412 11894 net.cpp:91] Creating Layer inception_5b/output
I0403 13:40:03.800443 11894 net.cpp:425] inception_5b/output <- inception_5b/1x1
I0403 13:40:03.800460 11894 net.cpp:425] inception_5b/output <- inception_5b/3x3
I0403 13:40:03.800477 11894 net.cpp:425] inception_5b/output <- inception_5b/5x5
I0403 13:40:03.800492 11894 net.cpp:425] inception_5b/output <- inception_5b/pool_proj
I0403 13:40:03.800509 11894 net.cpp:399] inception_5b/output -> inception_5b/output
I0403 13:40:03.800567 11894 net.cpp:141] Setting up inception_5b/output
I0403 13:40:03.800602 11894 net.cpp:148] Top shape: 24 1024 7 7 (1204224)
I0403 13:40:03.800617 11894 net.cpp:156] Memory required for data: 1345864224
I0403 13:40:03.800632 11894 layer_factory.hpp:77] Creating layer pool5/7x7_s1
I0403 13:40:03.800654 11894 net.cpp:91] Creating Layer pool5/7x7_s1
I0403 13:40:03.800671 11894 net.cpp:425] pool5/7x7_s1 <- inception_5b/output
I0403 13:40:03.800689 11894 net.cpp:399] pool5/7x7_s1 -> pool5/7x7_s1
I0403 13:40:03.800925 11894 net.cpp:141] Setting up pool5/7x7_s1
I0403 13:40:03.800950 11894 net.cpp:148] Top shape: 24 1024 1 1 (24576)
I0403 13:40:03.800963 11894 net.cpp:156] Memory required for data: 1345962528
I0403 13:40:03.800977 11894 layer_factory.hpp:77] Creating layer pool5/drop_7x7_s1
I0403 13:40:03.800994 11894 net.cpp:91] Creating Layer pool5/drop_7x7_s1
I0403 13:40:03.801009 11894 net.cpp:425] pool5/drop_7x7_s1 <- pool5/7x7_s1
I0403 13:40:03.801028 11894 net.cpp:386] pool5/drop_7x7_s1 -> pool5/7x7_s1 (in-place)
I0403 13:40:03.801079 11894 net.cpp:141] Setting up pool5/drop_7x7_s1
I0403 13:40:03.801101 11894 net.cpp:148] Top shape: 24 1024 1 1 (24576)
I0403 13:40:03.801115 11894 net.cpp:156] Memory required for data: 1346060832
I0403 13:40:03.801128 11894 layer_factory.hpp:77] Creating layer loss3/classifier_plantvillage
I0403 13:40:03.801151 11894 net.cpp:91] Creating Layer loss3/classifier_plantvillage
I0403 13:40:03.801168 11894 net.cpp:425] loss3/classifier_plantvillage <- pool5/7x7_s1
I0403 13:40:03.801188 11894 net.cpp:399] loss3/classifier_plantvillage -> loss3/classifier_plantvillage
I0403 13:40:03.801625 11894 net.cpp:141] Setting up loss3/classifier_plantvillage
I0403 13:40:03.801651 11894 net.cpp:148] Top shape: 24 38 (912)
I0403 13:40:03.801666 11894 net.cpp:156] Memory required for data: 1346064480
I0403 13:40:03.801682 11894 layer_factory.hpp:77] Creating layer loss3/classifier_plantvillage_loss3/classifier_plantvillage_0_split
I0403 13:40:03.801700 11894 net.cpp:91] Creating Layer loss3/classifier_plantvillage_loss3/classifier_plantvillage_0_split
I0403 13:40:03.801717 11894 net.cpp:425] loss3/classifier_plantvillage_loss3/classifier_plantvillage_0_split <- loss3/classifier_plantvillage
I0403 13:40:03.801733 11894 net.cpp:399] loss3/classifier_plantvillage_loss3/classifier_plantvillage_0_split -> loss3/classifier_plantvillage_loss3/classifier_plantvillage_0_split_0
I0403 13:40:03.801753 11894 net.cpp:399] loss3/classifier_plantvillage_loss3/classifier_plantvillage_0_split -> loss3/classifier_plantvillage_loss3/classifier_plantvillage_0_split_1
I0403 13:40:03.801770 11894 net.cpp:399] loss3/classifier_plantvillage_loss3/classifier_plantvillage_0_split -> loss3/classifier_plantvillage_loss3/classifier_plantvillage_0_split_2
I0403 13:40:03.801792 11894 net.cpp:399] loss3/classifier_plantvillage_loss3/classifier_plantvillage_0_split -> loss3/classifier_plantvillage_loss3/classifier_plantvillage_0_split_3
I0403 13:40:03.801895 11894 net.cpp:141] Setting up loss3/classifier_plantvillage_loss3/classifier_plantvillage_0_split
I0403 13:40:03.801918 11894 net.cpp:148] Top shape: 24 38 (912)
I0403 13:40:03.801934 11894 net.cpp:148] Top shape: 24 38 (912)
I0403 13:40:03.801949 11894 net.cpp:148] Top shape: 24 38 (912)
I0403 13:40:03.801962 11894 net.cpp:148] Top shape: 24 38 (912)
I0403 13:40:03.801975 11894 net.cpp:156] Memory required for data: 1346079072
I0403 13:40:03.801988 11894 layer_factory.hpp:77] Creating layer loss1/loss
I0403 13:40:03.802009 11894 net.cpp:91] Creating Layer loss1/loss
I0403 13:40:03.802026 11894 net.cpp:425] loss1/loss <- loss1/classifier_plantvillage_loss1/classifier_plantvillage_0_split_0
I0403 13:40:03.802057 11894 net.cpp:425] loss1/loss <- label_data_1_split_0
…
