…
I0403 13:34:29.965796 11656 net.cpp:313] The NetState phase (1) differed from the phase (0) specified by a rule in layer data
I0403 13:34:29.966950 11656 net.cpp:49] Initializing net from parameters: 
state {
  phase: TEST
}
layer {
  name: "data"
  type: "Data"
  top: "data"
  top: "label"
  include {
    phase: TEST
  }
  transform_param {
    mirror: false
    crop_size: 224
    mean_file: "/home/mohanty/data/final_dataset/lmdb/segmented-20-80/mean.binaryproto"
  }
  data_param {
    source: "/home/mohanty/data/final_dataset/lmdb/segmented-20-80/test_db"
    batch_size: 24
    backend: LMDB
  }
}
layer {
  name: "conv1/7x7_s2"
  type: "Convolution"
  bottom: "data"
  top: "conv1/7x7_s2"
  param {
    lr_mult: 1
    decay_mult: 1
  }
  param {
    lr_mult: 2
    decay_mult: 0
  }
  convolution_param {
    num_output: 64
    pad: 3
    kernel_size: 7
    stride: 2
    weight_filler {
      type: "xavier"
      std: 0.1
    }
    bias_filler {
      type: "constant"
      value: 0.2
    }
  }
}
layer {
  name: "conv1/relu_7x7"
  type: "ReLU"
  bottom: "conv1/7x7_s2"
  top: "conv1/7x7_s2"
}
layer {
  name: "pool1/3x3_s2"
  type: "Pooling"
  bottom: "conv1/7x7_s2"
  top: "pool1/3x3_s2"
  pooling_param {
    pool: MAX
    kernel_size: 3
    stride: 2
  }
}
layer {
  name: "pool1/norm1"
  type: "LRN"
  bottom: "pool1/3x3_s2"
  top: "pool1/norm1"
  lrn_param {
    local_size: 5
    alpha: 0.0001
    beta: 0.75
  }
}
layer {
  name: "conv2/3x3_reduce"
  type: "Convolution"
  bottom: "pool1/norm1"
  top: "conv2/3x3_reduce"
  param {
    lr_mult: 1
    decay_mult: 1
  }
  param {
    lr_mult: 2
    decay_mult: 0
  }
  convolution_param {
    num_output: 64
    kernel_size: 1
    weight_filler {
      type: "xavier"
      std: 0.1
    }
    bias_filler {
      type: "constant"
      value: 0.2
    }
  }
}
layer {
  name: "conv2/relu_3x3_reduce"
  type: "ReLU"
  bottom: "conv2/3x3_reduce"
  top: "conv2/3x3_reduce"
}
layer {
  name: "conv2/3x3"
  type: "Convolution"
  bottom: "conv2/3x3_reduce"
  top: "conv2/3x3"
  param {
    lr_mult: 1
    decay_mult: 1
  }
  param {
    lr_mult: 2
    decay_mult: 0
  }
  convolution_param {
    num_output: 192
    pad: 1
    kernel_size: 3
    weight_filler {
      type: "xavier"
      std: 0.03
    }
    bias_filler {
      type: "constant"
      value: 0.2
    }
  }
}
layer {
  name: "conv2/relu_3x3"
  type: "ReLU"
  bottom: "conv2/3x3"
  top: "conv2/3x3"
}
layer {
  name: "conv2/norm2"
  type: "LRN"
  bottom: "conv2/3x3"
  top: "conv2/norm2"
  lrn_param {
    local_size: 5
    alpha: 0.0001
    beta: 0.75
  }
}
layer {
  name: "pool2/3x3_s2"
  type: "Pooling"
  bottom: "conv2/norm2"
  top: "pool2/3x3_s2"
  pooling_param {
    pool: MAX
    kernel_size: 3
    stride: 2
  }
}
layer {
  name: "inception_3a/1x1"
  type: "Convolution"
  bottom: "pool2/3x3_s2"
  top: "inception_3a/1x1"
  param {
    lr_mult: 1
    decay_mult: 1
  }
  param {
    lr_mult: 2
    decay_mult: 0
  }
  convolution_param {
    num_output: 64
    kernel_size: 1
    weight_filler {
      type: "xavier"
      std: 0.03
    }
    bias_filler {
      type: "constant"
      value: 0.2
    }
  }
}
layer {
  name: "inception_3a/relu_1x1"
  type: "ReLU"
  bottom: "inception_3a/1x1"
  top: "inception_3a/1x1"
}
layer {
  name: "inception_3a/3x3_reduce"
  type: "Convolution"
  bottom: "pool2/3x3_s2"
  top: "inception_3a/3x3_reduce"
  param {
    lr_mult: 1
    decay_mult: 1
  }
  param {
    lr_mult: 2
    decay_mult: 0
  }
  convolution_param {
    num_output: 96
    kernel_size: 1
    weight_filler {
      type: "xavier"
      std: 0.09
    }
    bias_filler {
      type: "constant"
      value: 0.2
    }
  }
}
layer {
  name: "inception_3a/relu_3x3_reduce"
  type: "ReLU"
  bottom: "inception_3a/3x3_reduce"
  top: "inception_3a/3x3_reduce"
}
layer {
  name: "inception_3a/3x3"
  type: "Convolution"
  bottom: "inception_3a/3x3_reduce"
  top: "inception_3a/3x3"
  param {
    lr_mult: 1
    decay_mult: 1
  }
  param {
    lr_mult: 2
    decay_mult: 0
  }
  convolution_param {
    num_output: 128
    pad: 1
    kernel_size: 3
    weight_filler {
      type: "xavier"
      std: 0.03
    }
    bias_filler {
      type: "constant"
      value: 0.2
    }
  }
}
layer {
  name: "inception_3a/relu_3x3"
  type: "ReLU"
  bottom: "inception_3a/3x3"
  top: "inception_3a/3x3"
}
layer {
  name: "inception_3a/5x5_reduce"
  type: "Convolution"
  bottom: "pool2/3x3_s2"
  top: "inception_3a/5x5_reduce"
  param {
    lr_mult: 1
    decay_mult: 1
  }
  param {
    lr_mult: 2
    decay_mult: 0
  }
  convolution_param {
    num_output: 16
    kernel_size: 1
    weight_filler {
      type: "xavier"
      std: 0.2
    }
    bias_filler {
      type: "constant"
      value: 0.2
    }
  }
}
layer {
  name: "inception_3a/relu_5x5_reduce"
  type: "ReLU"
  bottom: "inception_3a/5x5_reduce"
  top: "inception_3a/5x5_reduce"
}
layer {
  name: "inception_3a/5x5"
  type: "Convolution"
  bottom: "inception_3a/5x5_reduce"
  top: "inception_3a/5x5"
  param {
    lr_mult: 1
    decay_mult: 1
  }
  param {
    lr_mult: 2
    decay_mult: 0
  }
  convolution_param {
    num_output: 32
    pad: 2
    kernel_size: 5
    weight_filler {
      type: "xavier"
      std: 0.03
    }
    bias_filler {
      type: "constant"
      value: 0.2
    }
  }
}
layer {
  name: "inception_3a/relu_5x5"
  type: "ReLU"
  bottom: "inception_3a/5x5"
  top: "inception_3a/5x5"
}
layer {
  name: "inception_3a/pool"
  type: "Pooling"
  bottom: "pool2/3x3_s2"
  top: "inception_3a/pool"
  pooling_param {
    pool: MAX
    kernel_size: 3
    stride: 1
    pad: 1
  }
}
layer {
  name: "inception_3a/pool_proj"
  type: "Convolution"
  bottom: "inception_3a/pool"
  top: "inception_3a/pool_proj"
  param {
    lr_mult: 1
    decay_mult: 1
  }
  param {
    lr_mult: 2
    decay_mult: 0
  }
  convolution_param {
    num_output: 32
    kernel_size: 1
    weight_filler {
      type: "xavier"
      std: 0.1
    }
    bias_filler {
      type: "constant"
      value: 0.2
    }
  }
}
layer {
  name: "inception_3a/relu_pool_proj"
  type: "ReLU"
  bottom: "inception_3a/pool_proj"
  top: "inception_3a/pool_proj"
}
layer {
  name: "inception_3a/output"
  type: "Concat"
  bottom: "inception_3a/1x1"
  bottom: "inception_3a/3x3"
  bottom: "inception_3a/5x5"
  bottom: "inception_3a/pool_proj"
  top: "inception_3a/output"
}
layer {
  name: "inception_3b/1x1"
  type: "Convolution"
  bottom: "inception_3a/output"
  top: "inception_3b/1x1"
  param {
    lr_mult: 1
    decay_mult: 1
  }
  param {
    lr_mult: 2
    decay_mult: 0
  }
  convolution_param {
    num_output: 128
    kernel_size: 1
    weight_filler {
      type: "xavier"
      std: 0.03
    }
    bias_filler {
      type: "constant"
      value: 0.2
    }
  }
}
layer {
  name: "inception_3b/relu_1x1"
  type: "ReLU"
  bottom: "inception_3b/1x1"
  top: "inception_3b/1x1"
}
layer {
  name: "inception_3b/3x3_reduce"
  type: "Convolution"
  bottom: "inception_3a/output"
  top: "inception_3b/3x3_reduce"
  param {
    lr_mult: 1
    decay_mult: 1
  }
  param {
    lr_mult: 2
    decay_mult: 0
  }
  convolution_param {
    num_output: 128
    kernel_size: 1
    weight_filler {
      type: "xavier"
      std: 0.09
    }
    bias_filler {
      type: "constant"
      value: 0.2
    }
  }
}
layer {
  name: "inception_3b/relu_3x3_reduce"
  type: "ReLU"
  bottom: "inception_3b/3x3_reduce"
  top: "inception_3b/3x3_reduce"
}
layer {
  name: "inception_3b/3x3"
  type: "Convolution"
  bottom: "inception_3b/3x3_reduce"
  top: "inception_3b/3x3"
  param {
    lr_mult: 1
    decay_mult: 1
  }
  param {
    lr_mult: 2
    decay_mult: 0
  }
  convolution_param {
    num_output: 192
    pad: 1
    kernel_size: 3
    weight_filler {
      type: "xavier"
      std: 0.03
    }
    bias_filler {
      type: "constant"
      value: 0.2
    }
  }
}
layer {
  name: "inception_3b/relu_3x3"
  type: "ReLU"
  bottom: "inception_3b/3x3"
  top: "inception_3b/3x3"
}
layer {
  name: "inception_3b/5x5_reduce"
  type: "Convolution"
  bottom: "inception_3a/output"
  top: "inception_3b/5x5_reduce"
  param {
    lr_mult: 1
    decay_mult: 1
  }
  param {
    lr_mult: 2
    decay_mult: 0
  }
  convolution_param {
    num_output: 32
    kernel_size: 1
    weight_filler {
      type: "xavier"
      std: 0.2
    }
    bias_filler {
      type: "constant"
      value: 0.2
    }
  }
}
layer {
  name: "inception_3b/relu_5x5_reduce"
  type: "ReLU"
  bottom: "inception_3b/5x5_reduce"
  top: "inception_3b/5x5_reduce"
}
layer {
  name: "inception_3b/5x5"
  type: "Convolution"
  bottom: "inception_3b/5x5_reduce"
  top: "inception_3b/5x5"
  param {
    lr_mult: 1
    decay_mult: 1
  }
  param {
    lr_mult: 2
    decay_mult: 0
  }
  convolution_param {
    num_output: 96
    pad: 2
    kernel_size: 5
    weight_filler {
      type: "xavier"
      std: 0.03
    }
    bias_filler {
      type: "constant"
      value: 0.2
    }
  }
}
layer {
  name: "inception_3b/relu_5x5"
  type: "ReLU"
  bottom: "inception_3b/5x5"
  top: "inception_3b/5x5"
}
layer {
  name: "inception_3b/pool"
  type: "Pooling"
  bottom: "inception_3a/output"
  top: "inception_3b/pool"
  pooling_param {
    pool: MAX
    kernel_size: 3
    stride: 1
    pad: 1
  }
}
layer {
  name: "inception_3b/pool_proj"
  type: "Convolution"
  bottom: "inception_3b/pool"
  top: "inception_3b/pool_proj"
  param {
    lr_mult: 1
    decay_mult: 1
  }
  param {
    lr_mult: 2
    decay_mult: 0
  }
  convolution_param {
    num_output: 64
    kernel_size: 1
    weight_filler {
      type: "xavier"
      std: 0.1
    }
    bias_filler {
      type: "constant"
      value: 0.2
    }
  }
}
layer {
  name: "inception_3b/relu_pool_proj"
  type: "ReLU"
  bottom: "inception_3b/pool_proj"
  top: "inception_3b/pool_proj"
}
layer {
  name: "inception_3b/output"
  type: "Concat"
  bottom: "inception_3b/1x1"
  bottom: "inception_3b/3x3"
  bottom: "inception_3b/5x5"
  bottom: "inception_3b/pool_proj"
  top: "inception_3b/output"
}
layer {
  name: "pool3/3x3_s2"
  type: "Pooling"
  bottom: "inception_3b/output"
  top: "pool3/3x3_s2"
  pooling_param {
    pool: MAX
    kernel_size: 3
    stride: 2
  }
}
layer {
  name: "inception_4a/1x1"
  type: "Convolution"
  bottom: "pool3/3x3_s2"
  top: "inception_4a/1x1"
  param {
    lr_mult: 1
    decay_mult: 1
  }
  param {
    lr_mult: 2
    decay_mult: 0
  }
  convolution_param {
    num_output: 192
    kernel_size: 1
    weight_filler {
      type: "xavier"
      std: 0.03
    }
    bias_filler {
      type: "constant"
      value: 0.2
    }
  }
}
layer {
  name: "inception_4a/relu_1x1"
  type: "ReLU"
  bottom: "inception_4a/1x1"
  top: "inception_4a/1x1"
}
layer {
  name: "inception_4a/3x3_reduce"
  type: "Convolution"
  bottom: "pool3/3x3_s2"
  top: "inception_4a/3x3_reduce"
  param {
    lr_mult: 1
    decay_mult: 1
  }
  param {
    lr_mult: 2
    decay_mult: 0
  }
  convolution_param {
    num_output: 96
    kernel_size: 1
    weight_filler {
      type: "xavier"
      std: 0.09
    }
    bias_filler {
      type: "constant"
      value: 0.2
    }
  }
}
layer {
  name: "inception_4a/relu_3x3_reduce"
  type: "ReLU"
  bottom: "inception_4a/3x3_reduce"
  top: "inception_4a/3x3_reduce"
}
layer {
  name: "inception_4a/3x3"
  type: "Convolution"
  bottom: "inception_4a/3x3_reduce"
  top: "inception_4a/3x3"
  param {
    lr_mult: 1
    decay_mult: 1
  }
  param {
    lr_mult: 2
    decay_mult: 0
  }
  convolution_param {
    num_output: 208
    pad: 1
    kernel_size: 3
    weight_filler {
      type: "xavier"
      std: 0.03
    }
    bias_filler {
      type: "constant"
      value: 0.2
    }
  }
}
layer {
  name: "inception_4a/relu_3x3"
  type: "ReLU"
  bottom: "inception_4a/3x3"
  top: "inception_4a/3x3"
}
layer {
  name: "inception_4a/5x5_reduce"
  type: "Convolution"
  bottom: "pool3/3x3_s2"
  top: "inception_4a/5x5_reduce"
  param {
    lr_mult: 1
    decay_mult: 1
  }
  param {
    lr_mult: 2
    decay_mult: 0
  }
  convolution_param {
    num_output: 16
    kernel_size: 1
    weight_filler {
      type: "xavier"
      std: 0.2
    }
    bias_filler {
      type: "constant"
      value: 0.2
    }
  }
}
layer {
  name: "inception_4a/relu_5x5_reduce"
  type: "ReLU"
  bottom: "inception_4a/5x5_reduce"
  top: "inception_4a/5x5_reduce"
}
layer {
  name: "inception_4a/5x5"
  type: "Convolution"
  bottom: "inception_4a/5x5_reduce"
  top: "inception_4a/5x5"
  param {
    lr_mult: 1
    decay_mult: 1
  }
  param {
    lr_mult: 2
    decay_mult: 0
  }
  convolution_param {
    num_output: 48
    pad: 2
    kernel_size: 5
    weight_filler {
      type: "xavier"
      std: 0.03
    }
    bias_filler {
      type: "constant"
      value: 0.2
    }
  }
}
layer {
  name: "inception_4a/relu_5x5"
  type: "ReLU"
  bottom: "inception_4a/5x5"
  top: "inception_4a/5x5"
}
layer {
  name: "inception_4a/pool"
  type: "Pooling"
  bottom: "pool3/3x3_s2"
  top: "inception_4a/pool"
  pooling_param {
    pool: MAX
    kernel_size: 3
    stride: 1
    pad: 1
  }
}
layer {
  name: "inception_4a/pool_proj"
  type: "Convolution"
  bottom: "inception_4a/pool"
  top: "inception_4a/pool_proj"
  param {
    lr_mult: 1
    decay_mult: 1
  }
  param {
    lr_mult: 2
    decay_mult: 0
  }
  convolution_param {
    num_output: 64
    kernel_size: 1
    weight_filler {
      type: "xavier"
      std: 0.1
    }
    bias_filler {
      type: "constant"
      value: 0.2
    }
  }
}
layer {
  name: "inception_4a/relu_pool_proj"
  type: "ReLU"
  bottom: "inception_4a/pool_proj"
  top: "inception_4a/pool_proj"
}
layer {
  name: "inception_4a/output"
  type: "Concat"
  bottom: "inception_4a/1x1"
  bottom: "inception_4a/3x3"
  bottom: "inception_4a/5x5"
  bottom: "inception_4a/pool_proj"
  top: "inception_4a/output"
}
layer {
  name: "loss1/ave_pool"
  type: "Pooling"
  bottom: "inception_4a/output"
  top: "loss1/ave_pool"
  pooling_param {
    pool: AVE
    kernel_size: 5
    stride: 3
  }
}
layer {
  name: "loss1/conv"
  type: "Convolution"
  bottom: "loss1/ave_pool"
  top: "loss1/conv"
  param {
    lr_mult: 1
    decay_mult: 1
  }
  param {
    lr_mult: 2
    decay_mult: 0
  }
  convolution_param {
    num_output: 128
    kernel_size: 1
    weight_filler {
      type: "xavier"
      std: 0.08
    }
    bias_filler {
      type: "constant"
      value: 0.2
    }
  }
}
layer {
  name: "loss1/relu_conv"
  type: "ReLU"
  bottom: "loss1/conv"
  top: "loss1/conv"
}
layer {
  name: "loss1/fc"
  type: "InnerProduct"
  bottom: "loss1/conv"
  top: "loss1/fc"
  param {
    lr_mult: 1
    decay_mult: 1
  }
  param {
    lr_mult: 2
    decay_mult: 0
  }
  inner_product_param {
    num_output: 1024
    weight_filler {
      type: "xavier"
      std: 0.02
    }
    bias_filler {
      type: "constant"
      value: 0.2
    }
  }
}
layer {
  name: "loss1/relu_fc"
  type: "ReLU"
  bottom: "loss1/fc"
  top: "loss1/fc"
}
layer {
  name: "loss1/drop_fc"
  type: "Dropout"
  bottom: "loss1/fc"
  top: "loss1/fc"
  dropout_param {
    dropout_ratio: 0.7
  }
}
layer {
  name: "loss1/classifier_plantvillage"
  type: "InnerProduct"
  bottom: "loss1/fc"
  top: "loss1/classifier_plantvillage"
  param {
    lr_mult: 1
    decay_mult: 1
  }
  param {
    lr_mult: 2
    decay_mult: 0
  }
  inner_product_param {
    num_output: 38
    weight_filler {
      type: "xavier"
      std: 0.0009765625
    }
    bias_filler {
      type: "constant"
      value: 0
    }
  }
}
layer {
  name: "inception_4b/1x1"
  type: "Convolution"
  bottom: "inception_4a/output"
  top: "inception_4b/1x1"
  param {
    lr_mult: 1
    decay_mult: 1
  }
  param {
    lr_mult: 2
    decay_mult: 0
  }
  convolution_param {
    num_output: 160
    kernel_size: 1
    weight_filler {
      type: "xavier"
      std: 0.03
    }
    bias_filler {
      type: "constant"
      value: 0.2
    }
  }
}
layer {
  name: "inception_4b/relu_1x1"
  type: "ReLU"
  bottom: "inception_4b/1x1"
  top: "inception_4b/1x1"
}
layer {
  name: "inception_4b/3x3_reduce"
  type: "Convolution"
  bottom: "inception_4a/output"
  top: "inception_4b/3x3_reduce"
  param {
    lr_mult: 1
    decay_mult: 1
  }
  param {
    lr_mult: 2
    decay_mult: 0
  }
  convolution_param {
    num_output: 112
    kernel_size: 1
    weight_filler {
      type: "xavier"
      std: 0.09
    }
    bias_filler {
      type: "constant"
      value: 0.2
    }
  }
}
layer {
  name: "inception_4b/relu_3x3_reduce"
  type: "ReLU"
  bottom: "inception_4b/3x3_reduce"
  top: "inception_4b/3x3_reduce"
}
layer {
  name: "inception_4b/3x3"
  type: "Convolution"
  bottom: "inception_4b/3x3_reduce"
  top: "inception_4b/3x3"
  param {
    lr_mult: 1
    decay_mult: 1
  }
  param {
    lr_mult: 2
    decay_mult: 0
  }
  convolution_param {
    num_output: 224
    pad: 1
    kernel_size: 3
    weight_filler {
      type: "xavier"
      std: 0.03
    }
    bias_filler {
      type: "constant"
      value: 0.2
    }
  }
}
layer {
  name: "inception_4b/relu_3x3"
  type: "ReLU"
  bottom: "inception_4b/3x3"
  top: "inception_4b/3x3"
}
layer {
  name: "inception_4b/5x5_reduce"
  type: "Convolution"
  bottom: "inception_4a/output"
  top: "inception_4b/5x5_reduce"
  param {
    lr_mult: 1
    decay_mult: 1
  }
  param {
    lr_mult: 2
    decay_mult: 0
  }
  convolution_param {
    num_output: 24
    kernel_size: 1
    weight_filler {
      type: "xavier"
      std: 0.2
    }
    bias_filler {
      type: "constant"
      value: 0.2
    }
  }
}
layer {
  name: "inception_4b/relu_5x5_reduce"
  type: "ReLU"
  bottom: "inception_4b/5x5_reduce"
  top: "inception_4b/5x5_reduce"
}
layer {
  name: "inception_4b/5x5"
  type: "Convolution"
  bottom: "inception_4b/5x5_reduce"
  top: "inception_4b/5x5"
  param {
    lr_mult: 1
    decay_mult: 1
  }
  param {
    lr_mult: 2
    decay_mult: 0
  }
  convolution_param {
    num_output: 64
    pad: 2
    kernel_size: 5
    weight_filler {
      type: "xavier"
      std: 0.03
    }
    bias_filler {
      type: "constant"
      value: 0.2
    }
  }
}
layer {
  name: "inception_4b/relu_5x5"
  type: "ReLU"
  bottom: "inception_4b/5x5"
  top: "inception_4b/5x5"
}
layer {
  name: "inception_4b/pool"
  type: "Pooling"
  bottom: "inception_4a/output"
  top: "inception_4b/pool"
  pooling_param {
    pool: MAX
    kernel_size: 3
    stride: 1
    pad: 1
  }
}
layer {
  name: "inception_4b/pool_proj"
  type: "Convolution"
  bottom: "inception_4b/pool"
  top: "inception_4b/pool_proj"
  param {
    lr_mult: 1
    decay_mult: 1
  }
  param {
    lr_mult: 2
    decay_mult: 0
  }
  convolution_param {
    num_output: 64
    kernel_size: 1
    weight_filler {
      type: "xavier"
      std: 0.1
    }
    bias_filler {
      type: "constant"
      value: 0.2
    }
  }
}
layer {
  name: "inception_4b/relu_pool_proj"
  type: "ReLU"
  bottom: "inception_4b/pool_proj"
  top: "inception_4b/pool_proj"
}
layer {
  name: "inception_4b/output"
  type: "Concat"
  bottom: "inception_4b/1x1"
  bottom: "inception_4b/3x3"
  bottom: "inception_4b/5x5"
  bottom: "inception_4b/pool_proj"
  top: "inception_4b/output"
}
layer {
  name: "inception_4c/1x1"
  type: "Convolution"
  bottom: "inception_4b/output"
  top: "inception_4c/1x1"
  param {
    lr_mult: 1
    decay_mult: 1
  }
  param {
    lr_mult: 2
    decay_mult: 0
  }
  convolution_param {
    num_output: 128
    kernel_size: 1
    weight_filler {
      type: "xavier"
      std: 0.03
    }
    bias_filler {
      type: "constant"
      value: 0.2
    }
  }
}
layer {
  name: "inception_4c/relu_1x1"
  type: "ReLU"
  bottom: "inception_4c/1x1"
  top: "inception_4c/1x1"
}
layer {
  name: "inception_4c/3x3_reduce"
  type: "Convolution"
  bottom: "inception_4b/output"
  top: "inception_4c/3x3_reduce"
  param {
    lr_mult: 1
    decay_mult: 1
  }
  param {
    lr_mult: 2
    decay_mult: 0
  }
  convolution_param {
    num_output: 128
    kernel_size: 1
    weight_filler {
      type: "xavier"
      std: 0.09
    }
    bias_filler {
      type: "constant"
      value: 0.2
    }
  }
}
layer {
  name: "inception_4c/relu_3x3_reduce"
  type: "ReLU"
  bottom: "inception_4c/3x3_reduce"
  top: "inception_4c/3x3_reduce"
}
layer {
  name: "inception_4c/3x3"
  type: "Convolution"
  bottom: "inception_4c/3x3_reduce"
  top: "inception_4c/3x3"
  param {
    lr_mult: 1
    decay_mult: 1
  }
  param {
    lr_mult: 2
    decay_mult: 0
  }
  convolution_param {
    num_output: 256
    pad: 1
    kernel_size: 3
    weight_filler {
      type: "xavier"
      std: 0.03
    }
    bias_filler {
      type: "constant"
      value: 0.2
    }
  }
}
layer {
  name: "inception_4c/relu_3x3"
  type: "ReLU"
  bottom: "inception_4c/3x3"
  top: "inception_4c/3x3"
}
layer {
  name: "inception_4c/5x5_reduce"
  type: "Convolution"
  bottom: "inception_4b/output"
  top: "inception_4c/5x5_reduce"
  param {
    lr_mult: 1
    decay_mult: 1
  }
  param {
    lr_mult: 2
    decay_mult: 0
  }
  convolution_param {
    num_output: 24
    kernel_size: 1
    weight_filler {
      type: "xavier"
      std: 0.2
    }
    bias_filler {
      type: "constant"
      value: 0.2
    }
  }
}
layer {
  name: "inception_4c/relu_5x5_reduce"
  type: "ReLU"
  bottom: "inception_4c/5x5_reduce"
  top: "inception_4c/5x5_reduce"
}
layer {
  name: "inception_4c/5x5"
  type: "Convolution"
  bottom: "inception_4c/5x5_reduce"
  top: "inception_4c/5x5"
  param {
    lr_mult: 1
    decay_mult: 1
  }
  param {
    lr_mult: 2
    decay_mult: 0
  }
  convolution_param {
    num_output: 64
    pad: 2
    kernel_size: 5
    weight_filler {
      type: "xavier"
      std: 0.03
    }
    bias_filler {
      type: "constant"
      value: 0.2
    }
  }
}
layer {
  name: "inception_4c/relu_5x5"
  type: "ReLU"
  bottom: "inception_4c/5x5"
  top: "inception_4c/5x5"
}
layer {
  name: "inception_4c/pool"
  type: "Pooling"
  bottom: "inception_4b/output"
  top: "inception_4c/pool"
  pooling_param {
    pool: MAX
    kernel_size: 3
    stride: 1
    pad: 1
  }
}
layer {
  name: "inception_4c/pool_proj"
  type: "Convolution"
  bottom: "inception_4c/pool"
  top: "inception_4c/pool_proj"
  param {
    lr_mult: 1
    decay_mult: 1
  }
  param {
    lr_mult: 2
    decay_mult: 0
  }
  convolution_param {
    num_output: 64
    kernel_size: 1
    weight_filler {
      type: "xavier"
      std: 0.1
    }
    bias_filler {
      type: "constant"
      value: 0.2
    }
  }
}
layer {
  name: "inception_4c/relu_pool_proj"
  type: "ReLU"
  bottom: "inception_4c/pool_proj"
  top: "inception_4c/pool_proj"
}
layer {
  name: "inception_4c/output"
  type: "Concat"
  bottom: "inception_4c/1x1"
  bottom: "inception_4c/3x3"
  bottom: "inception_4c/5x5"
  bottom: "inception_4c/pool_proj"
  top: "inception_4c/output"
}
layer {
  name: "inception_4d/1x1"
  type: "Convolution"
  bottom: "inception_4c/output"
  top: "inception_4d/1x1"
  param {
    lr_mult: 1
    decay_mult: 1
  }
  param {
    lr_mult: 2
    decay_mult: 0
  }
  convolution_param {
    num_output: 112
    kernel_size: 1
    weight_filler {
      type: "xavier"
      std: 0.03
    }
    bias_filler {
      type: "constant"
      value: 0.2
    }
  }
}
layer {
  name: "inception_4d/relu_1x1"
  type: "ReLU"
  bottom: "inception_4d/1x1"
  top: "inception_4d/1x1"
}
layer {
  name: "inception_4d/3x3_reduce"
  type: "Convolution"
  bottom: "inception_4c/output"
  top: "inception_4d/3x3_reduce"
  param {
    lr_mult: 1
    decay_mult: 1
  }
  param {
    lr_mult: 2
    decay_mult: 0
  }
  convolution_param {
    num_output: 144
    kernel_size: 1
    weight_filler {
      type: "xavier"
      std: 0.09
    }
    bias_filler {
      type: "constant"
      value: 0.2
    }
  }
}
layer {
  name: "inception_4d/relu_3x3_reduce"
  type: "ReLU"
  bottom: "inception_4d/3x3_reduce"
  top: "inception_4d/3x3_reduce"
}
layer {
  name: "inception_4d/3x3"
  type: "Convolution"
  bottom: "inception_4d/3x3_reduce"
  top: "inception_4d/3x3"
  param {
    lr_mult: 1
    decay_mult: 1
  }
  param {
    lr_mult: 2
    decay_mult: 0
  }
  convolution_param {
    num_output: 288
    pad: 1
    kernel_size: 3
    weight_filler {
      type: "xavier"
      std: 0.03
    }
    bias_filler {
      type: "constant"
      value: 0.2
    }
  }
}
layer {
  name: "inception_4d/relu_3x3"
  type: "ReLU"
  bottom: "inception_4d/3x3"
  top: "inception_4d/3x3"
}
layer {
  name: "inception_4d/5x5_reduce"
  type: "Convolution"
  bottom: "inception_4c/output"
  top: "inception_4d/5x5_reduce"
  param {
    lr_mult: 1
    decay_mult: 1
  }
  param {
    lr_mult: 2
    decay_mult: 0
  }
  convolution_param {
    num_output: 32
    kernel_size: 1
    weight_filler {
      type: "xavier"
      std: 0.2
    }
    bias_filler {
      type: "constant"
      value: 0.2
    }
  }
}
layer {
  name: "inception_4d/relu_5x5_reduce"
  type: "ReLU"
  bottom: "inception_4d/5x5_reduce"
  top: "inception_4d/5x5_reduce"
}
layer {
  name: "inception_4d/5x5"
  type: "Convolution"
  bottom: "inception_4d/5x5_reduce"
  top: "inception_4d/5x5"
  param {
    lr_mult: 1
    decay_mult: 1
  }
  param {
    lr_mult: 2
    decay_mult: 0
  }
  convolution_param {
    num_output: 64
    pad: 2
    kernel_size: 5
    weight_filler {
      type: "xavier"
      std: 0.03
    }
    bias_filler {
      type: "constant"
      value: 0.2
    }
  }
}
layer {
  name: "inception_4d/relu_5x5"
  type: "ReLU"
  bottom: "inception_4d/5x5"
  top: "inception_4d/5x5"
}
layer {
  name: "inception_4d/pool"
  type: "Pooling"
  bottom: "inception_4c/output"
  top: "inception_4d/pool"
  pooling_param {
    pool: MAX
    kernel_size: 3
    stride: 1
    pad: 1
  }
}
layer {
  name: "inception_4d/pool_proj"
  type: "Convolution"
  bottom: "inception_4d/pool"
  top: "inception_4d/pool_proj"
  param {
    lr_mult: 1
    decay_mult: 1
  }
  param {
    lr_mult: 2
    decay_mult: 0
  }
  convolution_param {
    num_output: 64
    kernel_size: 1
    weight_filler {
      type: "xavier"
      std: 0.1
    }
    bias_filler {
      type: "constant"
      value: 0.2
    }
  }
}
layer {
  name: "inception_4d/relu_pool_proj"
  type: "ReLU"
  bottom: "inception_4d/pool_proj"
  top: "inception_4d/pool_proj"
}
layer {
  name: "inception_4d/output"
  type: "Concat"
  bottom: "inception_4d/1x1"
  bottom: "inception_4d/3x3"
  bottom: "inception_4d/5x5"
  bottom: "inception_4d/pool_proj"
  top: "inception_4d/output"
}
layer {
  name: "loss2/ave_pool"
  type: "Pooling"
  bottom: "inception_4d/output"
  top: "loss2/ave_pool"
  pooling_param {
    pool: AVE
    kernel_size: 5
    stride: 3
  }
}
layer {
  name: "loss2/conv"
  type: "Convolution"
  bottom: "loss2/ave_pool"
  top: "loss2/conv"
  param {
    lr_mult: 1
    decay_mult: 1
  }
  param {
    lr_mult: 2
    decay_mult: 0
  }
  convolution_param {
    num_output: 128
    kernel_size: 1
    weight_filler {
      type: "xavier"
      std: 0.08
    }
    bias_filler {
      type: "constant"
      value: 0.2
    }
  }
}
layer {
  name: "loss2/relu_conv"
  type: "ReLU"
  bottom: "loss2/conv"
  top: "loss2/conv"
}
layer {
  name: "loss2/fc"
  type: "InnerProduct"
  bottom: "loss2/conv"
  top: "loss2/fc"
  param {
    lr_mult: 1
    decay_mult: 1
  }
  param {
    lr_mult: 2
    decay_mult: 0
  }
  inner_product_param {
    num_output: 1024
    weight_filler {
      type: "xavier"
      std: 0.02
    }
    bias_filler {
      type: "constant"
      value: 0.2
    }
  }
}
layer {
  name: "loss2/relu_fc"
  type: "ReLU"
  bottom: "loss2/fc"
  top: "loss2/fc"
}
layer {
  name: "loss2/drop_fc"
  type: "Dropout"
  bottom: "loss2/fc"
  top: "loss2/fc"
  dropout_param {
    dropout_ratio: 0.7
  }
}
layer {
  name: "loss2/classifier_plantvillage"
  type: "InnerProduct"
  bottom: "loss2/fc"
  top: "loss2/classifier_plantvillage"
  param {
    lr_mult: 1
    decay_mult: 1
  }
  param {
    lr_mult: 2
    decay_mult: 0
  }
  inner_product_param {
    num_output: 38
    weight_filler {
      type: "xavier"
      std: 0.0009765625
    }
    bias_filler {
      type: "constant"
      value: 0
    }
  }
}
layer {
  name: "inception_4e/1x1"
  type: "Convolution"
  bottom: "inception_4d/output"
  top: "inception_4e/1x1"
  param {
    lr_mult: 1
    decay_mult: 1
  }
  param {
    lr_mult: 2
    decay_mult: 0
  }
  convolution_param {
    num_output: 256
    kernel_size: 1
    weight_filler {
      type: "xavier"
      std: 0.03
    }
    bias_filler {
      type: "constant"
      value: 0.2
    }
  }
}
layer {
  name: "inception_4e/relu_1x1"
  type: "ReLU"
  bottom: "inception_4e/1x1"
  top: "inception_4e/1x1"
}
layer {
  name: "inception_4e/3x3_reduce"
  type: "Convolution"
  bottom: "inception_4d/output"
  top: "inception_4e/3x3_reduce"
  param {
    lr_mult: 1
    decay_mult: 1
  }
  param {
    lr_mult: 2
    decay_mult: 0
  }
  convolution_param {
    num_output: 160
    kernel_size: 1
    weight_filler {
      type: "xavier"
      std: 0.09
    }
    bias_filler {
      type: "constant"
      value: 0.2
    }
  }
}
layer {
  name: "inception_4e/relu_3x3_reduce"
  type: "ReLU"
  bottom: "inception_4e/3x3_reduce"
  top: "inception_4e/3x3_reduce"
}
layer {
  name: "inception_4e/3x3"
  type: "Convolution"
  bottom: "inception_4e/3x3_reduce"
  top: "inception_4e/3x3"
  param {
    lr_mult: 1
    decay_mult: 1
  }
  param {
    lr_mult: 2
    decay_mult: 0
  }
  convolution_param {
    num_output: 320
    pad: 1
    kernel_size: 3
    weight_filler {
      type: "xavier"
      std: 0.03
    }
    bias_filler {
      type: "constant"
      value: 0.2
    }
  }
}
layer {
  name: "inception_4e/relu_3x3"
  type: "ReLU"
  bottom: "inception_4e/3x3"
  top: "inception_4e/3x3"
}
layer {
  name: "inception_4e/5x5_reduce"
  type: "Convolution"
  bottom: "inception_4d/output"
  top: "inception_4e/5x5_reduce"
  param {
    lr_mult: 1
    decay_mult: 1
  }
  param {
    lr_mult: 2
    decay_mult: 0
  }
  convolution_param {
    num_output: 32
    kernel_size: 1
    weight_filler {
      type: "xavier"
      std: 0.2
    }
    bias_filler {
      type: "constant"
      value: 0.2
    }
  }
}
layer {
  name: "inception_4e/relu_5x5_reduce"
  type: "ReLU"
  bottom: "inception_4e/5x5_reduce"
  top: "inception_4e/5x5_reduce"
}
layer {
  name: "inception_4e/5x5"
  type: "Convolution"
  bottom: "inception_4e/5x5_reduce"
  top: "inception_4e/
I0403 13:34:29.968271 11656 layer_factory.hpp:77] Creating layer data
I0403 13:34:29.968893 11656 net.cpp:91] Creating Layer data
I0403 13:34:29.968927 11656 net.cpp:399] data -> data
I0403 13:34:29.968981 11656 net.cpp:399] data -> label
I0403 13:34:29.969018 11656 data_transformer.cpp:25] Loading mean file from: /home/mohanty/data/final_dataset/lmdb/segmented-20-80/mean.binaryproto
I0403 13:34:29.974273 11659 db_lmdb.cpp:38] Opened lmdb /home/mohanty/data/final_dataset/lmdb/segmented-20-80/test_db
I0403 13:34:29.982409 11656 data_layer.cpp:41] output data size: 24,3,224,224
I0403 13:34:30.009979 11656 net.cpp:141] Setting up data
I0403 13:34:30.010074 11656 net.cpp:148] Top shape: 24 3 224 224 (3612672)
I0403 13:34:30.010097 11656 net.cpp:148] Top shape: 24 (24)
I0403 13:34:30.010114 11656 net.cpp:156] Memory required for data: 14450784
I0403 13:34:30.010143 11656 layer_factory.hpp:77] Creating layer label_data_1_split
I0403 13:34:30.010170 11656 net.cpp:91] Creating Layer label_data_1_split
I0403 13:34:30.010188 11656 net.cpp:425] label_data_1_split <- label
I0403 13:34:30.010222 11656 net.cpp:399] label_data_1_split -> label_data_1_split_0
I0403 13:34:30.010251 11656 net.cpp:399] label_data_1_split -> label_data_1_split_1
I0403 13:34:30.010274 11656 net.cpp:399] label_data_1_split -> label_data_1_split_2
I0403 13:34:30.010295 11656 net.cpp:399] label_data_1_split -> label_data_1_split_3
I0403 13:34:30.010315 11656 net.cpp:399] label_data_1_split -> label_data_1_split_4
I0403 13:34:30.010335 11656 net.cpp:399] label_data_1_split -> label_data_1_split_5
I0403 13:34:30.010355 11656 net.cpp:399] label_data_1_split -> label_data_1_split_6
I0403 13:34:30.010375 11656 net.cpp:399] label_data_1_split -> label_data_1_split_7
I0403 13:34:30.010396 11656 net.cpp:399] label_data_1_split -> label_data_1_split_8
I0403 13:34:30.010416 11656 net.cpp:399] label_data_1_split -> label_data_1_split_9
I0403 13:34:30.010555 11656 net.cpp:141] Setting up label_data_1_split
I0403 13:34:30.010581 11656 net.cpp:148] Top shape: 24 (24)
I0403 13:34:30.010598 11656 net.cpp:148] Top shape: 24 (24)
I0403 13:34:30.010614 11656 net.cpp:148] Top shape: 24 (24)
I0403 13:34:30.010630 11656 net.cpp:148] Top shape: 24 (24)
I0403 13:34:30.010646 11656 net.cpp:148] Top shape: 24 (24)
I0403 13:34:30.010663 11656 net.cpp:148] Top shape: 24 (24)
I0403 13:34:30.010678 11656 net.cpp:148] Top shape: 24 (24)
I0403 13:34:30.010694 11656 net.cpp:148] Top shape: 24 (24)
I0403 13:34:30.010710 11656 net.cpp:148] Top shape: 24 (24)
I0403 13:34:30.010727 11656 net.cpp:148] Top shape: 24 (24)
I0403 13:34:30.010785 11656 net.cpp:156] Memory required for data: 14451744
I0403 13:34:30.010802 11656 layer_factory.hpp:77] Creating layer conv1/7x7_s2
I0403 13:34:30.010834 11656 net.cpp:91] Creating Layer conv1/7x7_s2
I0403 13:34:30.010854 11656 net.cpp:425] conv1/7x7_s2 <- data
I0403 13:34:30.010874 11656 net.cpp:399] conv1/7x7_s2 -> conv1/7x7_s2
I0403 13:34:30.154377 11656 net.cpp:141] Setting up conv1/7x7_s2
I0403 13:34:30.154455 11656 net.cpp:148] Top shape: 24 64 112 112 (19267584)
I0403 13:34:30.154472 11656 net.cpp:156] Memory required for data: 91522080
I0403 13:34:30.154501 11656 layer_factory.hpp:77] Creating layer conv1/relu_7x7
I0403 13:34:30.154541 11656 net.cpp:91] Creating Layer conv1/relu_7x7
I0403 13:34:30.154561 11656 net.cpp:425] conv1/relu_7x7 <- conv1/7x7_s2
I0403 13:34:30.154579 11656 net.cpp:386] conv1/relu_7x7 -> conv1/7x7_s2 (in-place)
I0403 13:34:30.154834 11656 net.cpp:141] Setting up conv1/relu_7x7
I0403 13:34:30.154860 11656 net.cpp:148] Top shape: 24 64 112 112 (19267584)
I0403 13:34:30.154876 11656 net.cpp:156] Memory required for data: 168592416
I0403 13:34:30.154891 11656 layer_factory.hpp:77] Creating layer pool1/3x3_s2
I0403 13:34:30.154916 11656 net.cpp:91] Creating Layer pool1/3x3_s2
I0403 13:34:30.154932 11656 net.cpp:425] pool1/3x3_s2 <- conv1/7x7_s2
I0403 13:34:30.154950 11656 net.cpp:399] pool1/3x3_s2 -> pool1/3x3_s2
I0403 13:34:30.155022 11656 net.cpp:141] Setting up pool1/3x3_s2
I0403 13:34:30.155046 11656 net.cpp:148] Top shape: 24 64 56 56 (4816896)
I0403 13:34:30.155061 11656 net.cpp:156] Memory required for data: 187860000
I0403 13:34:30.155076 11656 layer_factory.hpp:77] Creating layer pool1/norm1
I0403 13:34:30.155100 11656 net.cpp:91] Creating Layer pool1/norm1
I0403 13:34:30.155117 11656 net.cpp:425] pool1/norm1 <- pool1/3x3_s2
I0403 13:34:30.155134 11656 net.cpp:399] pool1/norm1 -> pool1/norm1
I0403 13:34:30.155414 11656 net.cpp:141] Setting up pool1/norm1
I0403 13:34:30.155441 11656 net.cpp:148] Top shape: 24 64 56 56 (4816896)
I0403 13:34:30.155457 11656 net.cpp:156] Memory required for data: 207127584
I0403 13:34:30.155472 11656 layer_factory.hpp:77] Creating layer conv2/3x3_reduce
I0403 13:34:30.155496 11656 net.cpp:91] Creating Layer conv2/3x3_reduce
I0403 13:34:30.155517 11656 net.cpp:425] conv2/3x3_reduce <- pool1/norm1
I0403 13:34:30.155536 11656 net.cpp:399] conv2/3x3_reduce -> conv2/3x3_reduce
I0403 13:34:30.156842 11656 net.cpp:141] Setting up conv2/3x3_reduce
I0403 13:34:30.156874 11656 net.cpp:148] Top shape: 24 64 56 56 (4816896)
I0403 13:34:30.156890 11656 net.cpp:156] Memory required for data: 226395168
I0403 13:34:30.156911 11656 layer_factory.hpp:77] Creating layer conv2/relu_3x3_reduce
I0403 13:34:30.156930 11656 net.cpp:91] Creating Layer conv2/relu_3x3_reduce
I0403 13:34:30.156946 11656 net.cpp:425] conv2/relu_3x3_reduce <- conv2/3x3_reduce
I0403 13:34:30.156965 11656 net.cpp:386] conv2/relu_3x3_reduce -> conv2/3x3_reduce (in-place)
I0403 13:34:30.157230 11656 net.cpp:141] Setting up conv2/relu_3x3_reduce
I0403 13:34:30.157258 11656 net.cpp:148] Top shape: 24 64 56 56 (4816896)
I0403 13:34:30.157274 11656 net.cpp:156] Memory required for data: 245662752
I0403 13:34:30.157289 11656 layer_factory.hpp:77] Creating layer conv2/3x3
I0403 13:34:30.157312 11656 net.cpp:91] Creating Layer conv2/3x3
I0403 13:34:30.157330 11656 net.cpp:425] conv2/3x3 <- conv2/3x3_reduce
I0403 13:34:30.157348 11656 net.cpp:399] conv2/3x3 -> conv2/3x3
I0403 13:34:30.159606 11656 net.cpp:141] Setting up conv2/3x3
I0403 13:34:30.159638 11656 net.cpp:148] Top shape: 24 192 56 56 (14450688)
I0403 13:34:30.159656 11656 net.cpp:156] Memory required for data: 303465504
I0403 13:34:30.159677 11656 layer_factory.hpp:77] Creating layer conv2/relu_3x3
I0403 13:34:30.159694 11656 net.cpp:91] Creating Layer conv2/relu_3x3
I0403 13:34:30.159709 11656 net.cpp:425] conv2/relu_3x3 <- conv2/3x3
I0403 13:34:30.159729 11656 net.cpp:386] conv2/relu_3x3 -> conv2/3x3 (in-place)
I0403 13:34:30.159900 11656 net.cpp:141] Setting up conv2/relu_3x3
I0403 13:34:30.159924 11656 net.cpp:148] Top shape: 24 192 56 56 (14450688)
I0403 13:34:30.159975 11656 net.cpp:156] Memory required for data: 361268256
I0403 13:34:30.159991 11656 layer_factory.hpp:77] Creating layer conv2/norm2
I0403 13:34:30.160012 11656 net.cpp:91] Creating Layer conv2/norm2
I0403 13:34:30.160027 11656 net.cpp:425] conv2/norm2 <- conv2/3x3
I0403 13:34:30.160044 11656 net.cpp:399] conv2/norm2 -> conv2/norm2
I0403 13:34:30.160346 11656 net.cpp:141] Setting up conv2/norm2
I0403 13:34:30.160372 11656 net.cpp:148] Top shape: 24 192 56 56 (14450688)
I0403 13:34:30.160387 11656 net.cpp:156] Memory required for data: 419071008
I0403 13:34:30.160403 11656 layer_factory.hpp:77] Creating layer pool2/3x3_s2
I0403 13:34:30.160421 11656 net.cpp:91] Creating Layer pool2/3x3_s2
I0403 13:34:30.160439 11656 net.cpp:425] pool2/3x3_s2 <- conv2/norm2
I0403 13:34:30.160455 11656 net.cpp:399] pool2/3x3_s2 -> pool2/3x3_s2
I0403 13:34:30.160511 11656 net.cpp:141] Setting up pool2/3x3_s2
I0403 13:34:30.160536 11656 net.cpp:148] Top shape: 24 192 28 28 (3612672)
I0403 13:34:30.160550 11656 net.cpp:156] Memory required for data: 433521696
I0403 13:34:30.160564 11656 layer_factory.hpp:77] Creating layer pool2/3x3_s2_pool2/3x3_s2_0_split
I0403 13:34:30.160581 11656 net.cpp:91] Creating Layer pool2/3x3_s2_pool2/3x3_s2_0_split
I0403 13:34:30.160596 11656 net.cpp:425] pool2/3x3_s2_pool2/3x3_s2_0_split <- pool2/3x3_s2
I0403 13:34:30.160615 11656 net.cpp:399] pool2/3x3_s2_pool2/3x3_s2_0_split -> pool2/3x3_s2_pool2/3x3_s2_0_split_0
I0403 13:34:30.160635 11656 net.cpp:399] pool2/3x3_s2_pool2/3x3_s2_0_split -> pool2/3x3_s2_pool2/3x3_s2_0_split_1
I0403 13:34:30.160655 11656 net.cpp:399] pool2/3x3_s2_pool2/3x3_s2_0_split -> pool2/3x3_s2_pool2/3x3_s2_0_split_2
I0403 13:34:30.160673 11656 net.cpp:399] pool2/3x3_s2_pool2/3x3_s2_0_split -> pool2/3x3_s2_pool2/3x3_s2_0_split_3
I0403 13:34:30.160743 11656 net.cpp:141] Setting up pool2/3x3_s2_pool2/3x3_s2_0_split
I0403 13:34:30.160766 11656 net.cpp:148] Top shape: 24 192 28 28 (3612672)
I0403 13:34:30.160783 11656 net.cpp:148] Top shape: 24 192 28 28 (3612672)
I0403 13:34:30.160799 11656 net.cpp:148] Top shape: 24 192 28 28 (3612672)
I0403 13:34:30.160814 11656 net.cpp:148] Top shape: 24 192 28 28 (3612672)
I0403 13:34:30.160826 11656 net.cpp:156] Memory required for data: 491324448
I0403 13:34:30.160840 11656 layer_factory.hpp:77] Creating layer inception_3a/1x1
I0403 13:34:30.160862 11656 net.cpp:91] Creating Layer inception_3a/1x1
I0403 13:34:30.160879 11656 net.cpp:425] inception_3a/1x1 <- pool2/3x3_s2_pool2/3x3_s2_0_split_0
I0403 13:34:30.160900 11656 net.cpp:399] inception_3a/1x1 -> inception_3a/1x1
I0403 13:34:30.162400 11656 net.cpp:141] Setting up inception_3a/1x1
I0403 13:34:30.162432 11656 net.cpp:148] Top shape: 24 64 28 28 (1204224)
I0403 13:34:30.162449 11656 net.cpp:156] Memory required for data: 496141344
I0403 13:34:30.162467 11656 layer_factory.hpp:77] Creating layer inception_3a/relu_1x1
I0403 13:34:30.162487 11656 net.cpp:91] Creating Layer inception_3a/relu_1x1
I0403 13:34:30.162503 11656 net.cpp:425] inception_3a/relu_1x1 <- inception_3a/1x1
I0403 13:34:30.162524 11656 net.cpp:386] inception_3a/relu_1x1 -> inception_3a/1x1 (in-place)
I0403 13:34:30.162701 11656 net.cpp:141] Setting up inception_3a/relu_1x1
I0403 13:34:30.162725 11656 net.cpp:148] Top shape: 24 64 28 28 (1204224)
I0403 13:34:30.162740 11656 net.cpp:156] Memory required for data: 500958240
I0403 13:34:30.162755 11656 layer_factory.hpp:77] Creating layer inception_3a/3x3_reduce
I0403 13:34:30.162777 11656 net.cpp:91] Creating Layer inception_3a/3x3_reduce
I0403 13:34:30.162794 11656 net.cpp:425] inception_3a/3x3_reduce <- pool2/3x3_s2_pool2/3x3_s2_0_split_1
I0403 13:34:30.162813 11656 net.cpp:399] inception_3a/3x3_reduce -> inception_3a/3x3_reduce
I0403 13:34:30.164527 11656 net.cpp:141] Setting up inception_3a/3x3_reduce
I0403 13:34:30.164561 11656 net.cpp:148] Top shape: 24 96 28 28 (1806336)
I0403 13:34:30.164577 11656 net.cpp:156] Memory required for data: 508183584
I0403 13:34:30.164599 11656 layer_factory.hpp:77] Creating layer inception_3a/relu_3x3_reduce
I0403 13:34:30.164636 11656 net.cpp:91] Creating Layer inception_3a/relu_3x3_reduce
I0403 13:34:30.164654 11656 net.cpp:425] inception_3a/relu_3x3_reduce <- inception_3a/3x3_reduce
I0403 13:34:30.164674 11656 net.cpp:386] inception_3a/relu_3x3_reduce -> inception_3a/3x3_reduce (in-place)
I0403 13:34:30.164858 11656 net.cpp:141] Setting up inception_3a/relu_3x3_reduce
I0403 13:34:30.164883 11656 net.cpp:148] Top shape: 24 96 28 28 (1806336)
I0403 13:34:30.164899 11656 net.cpp:156] Memory required for data: 515408928
I0403 13:34:30.164913 11656 layer_factory.hpp:77] Creating layer inception_3a/3x3
I0403 13:34:30.164937 11656 net.cpp:91] Creating Layer inception_3a/3x3
I0403 13:34:30.164954 11656 net.cpp:425] inception_3a/3x3 <- inception_3a/3x3_reduce
I0403 13:34:30.164973 11656 net.cpp:399] inception_3a/3x3 -> inception_3a/3x3
I0403 13:34:30.166657 11656 net.cpp:141] Setting up inception_3a/3x3
I0403 13:34:30.166687 11656 net.cpp:148] Top shape: 24 128 28 28 (2408448)
I0403 13:34:30.166702 11656 net.cpp:156] Memory required for data: 525042720
I0403 13:34:30.166721 11656 layer_factory.hpp:77] Creating layer inception_3a/relu_3x3
I0403 13:34:30.166739 11656 net.cpp:91] Creating Layer inception_3a/relu_3x3
I0403 13:34:30.166756 11656 net.cpp:425] inception_3a/relu_3x3 <- inception_3a/3x3
I0403 13:34:30.166777 11656 net.cpp:386] inception_3a/relu_3x3 -> inception_3a/3x3 (in-place)
I0403 13:34:30.167055 11656 net.cpp:141] Setting up inception_3a/relu_3x3
I0403 13:34:30.167083 11656 net.cpp:148] Top shape: 24 128 28 28 (2408448)
I0403 13:34:30.167098 11656 net.cpp:156] Memory required for data: 534676512
I0403 13:34:30.167112 11656 layer_factory.hpp:77] Creating layer inception_3a/5x5_reduce
I0403 13:34:30.167135 11656 net.cpp:91] Creating Layer inception_3a/5x5_reduce
I0403 13:34:30.167152 11656 net.cpp:425] inception_3a/5x5_reduce <- pool2/3x3_s2_pool2/3x3_s2_0_split_2
I0403 13:34:30.167174 11656 net.cpp:399] inception_3a/5x5_reduce -> inception_3a/5x5_reduce
I0403 13:34:30.168151 11656 net.cpp:141] Setting up inception_3a/5x5_reduce
I0403 13:34:30.168180 11656 net.cpp:148] Top shape: 24 16 28 28 (301056)
I0403 13:34:30.168196 11656 net.cpp:156] Memory required for data: 535880736
I0403 13:34:30.168215 11656 layer_factory.hpp:77] Creating layer inception_3a/relu_5x5_reduce
I0403 13:34:30.168233 11656 net.cpp:91] Creating Layer inception_3a/relu_5x5_reduce
I0403 13:34:30.168248 11656 net.cpp:425] inception_3a/relu_5x5_reduce <- inception_3a/5x5_reduce
I0403 13:34:30.168270 11656 net.cpp:386] inception_3a/relu_5x5_reduce -> inception_3a/5x5_reduce (in-place)
I0403 13:34:30.168575 11656 net.cpp:141] Setting up inception_3a/relu_5x5_reduce
I0403 13:34:30.168601 11656 net.cpp:148] Top shape: 24 16 28 28 (301056)
I0403 13:34:30.168617 11656 net.cpp:156] Memory required for data: 537084960
I0403 13:34:30.168632 11656 layer_factory.hpp:77] Creating layer inception_3a/5x5
I0403 13:34:30.168656 11656 net.cpp:91] Creating Layer inception_3a/5x5
I0403 13:34:30.168673 11656 net.cpp:425] inception_3a/5x5 <- inception_3a/5x5_reduce
I0403 13:34:30.168695 11656 net.cpp:399] inception_3a/5x5 -> inception_3a/5x5
I0403 13:34:30.169716 11656 net.cpp:141] Setting up inception_3a/5x5
I0403 13:34:30.169747 11656 net.cpp:148] Top shape: 24 32 28 28 (602112)
I0403 13:34:30.169764 11656 net.cpp:156] Memory required for data: 539493408
I0403 13:34:30.169782 11656 layer_factory.hpp:77] Creating layer inception_3a/relu_5x5
I0403 13:34:30.169800 11656 net.cpp:91] Creating Layer inception_3a/relu_5x5
I0403 13:34:30.169821 11656 net.cpp:425] inception_3a/relu_5x5 <- inception_3a/5x5
I0403 13:34:30.169839 11656 net.cpp:386] inception_3a/relu_5x5 -> inception_3a/5x5 (in-place)
I0403 13:34:30.170017 11656 net.cpp:141] Setting up inception_3a/relu_5x5
I0403 13:34:30.170042 11656 net.cpp:148] Top shape: 24 32 28 28 (602112)
I0403 13:34:30.170061 11656 net.cpp:156] Memory required for data: 541901856
I0403 13:34:30.170076 11656 layer_factory.hpp:77] Creating layer inception_3a/pool
I0403 13:34:30.170094 11656 net.cpp:91] Creating Layer inception_3a/pool
I0403 13:34:30.170130 11656 net.cpp:425] inception_3a/pool <- pool2/3x3_s2_pool2/3x3_s2_0_split_3
I0403 13:34:30.170151 11656 net.cpp:399] inception_3a/pool -> inception_3a/pool
I0403 13:34:30.170209 11656 net.cpp:141] Setting up inception_3a/pool
I0403 13:34:30.170234 11656 net.cpp:148] Top shape: 24 192 28 28 (3612672)
I0403 13:34:30.170250 11656 net.cpp:156] Memory required for data: 556352544
I0403 13:34:30.170266 11656 layer_factory.hpp:77] Creating layer inception_3a/pool_proj
I0403 13:34:30.170289 11656 net.cpp:91] Creating Layer inception_3a/pool_proj
I0403 13:34:30.170305 11656 net.cpp:425] inception_3a/pool_proj <- inception_3a/pool
I0403 13:34:30.170323 11656 net.cpp:399] inception_3a/pool_proj -> inception_3a/pool_proj
I0403 13:34:30.171293 11656 net.cpp:141] Setting up inception_3a/pool_proj
I0403 13:34:30.171320 11656 net.cpp:148] Top shape: 24 32 28 28 (602112)
I0403 13:34:30.171335 11656 net.cpp:156] Memory required for data: 558760992
I0403 13:34:30.171360 11656 layer_factory.hpp:77] Creating layer inception_3a/relu_pool_proj
I0403 13:34:30.171378 11656 net.cpp:91] Creating Layer inception_3a/relu_pool_proj
I0403 13:34:30.171396 11656 net.cpp:425] inception_3a/relu_pool_proj <- inception_3a/pool_proj
I0403 13:34:30.171414 11656 net.cpp:386] inception_3a/relu_pool_proj -> inception_3a/pool_proj (in-place)
I0403 13:34:30.171691 11656 net.cpp:141] Setting up inception_3a/relu_pool_proj
I0403 13:34:30.171717 11656 net.cpp:148] Top shape: 24 32 28 28 (602112)
I0403 13:34:30.171732 11656 net.cpp:156] Memory required for data: 561169440
I0403 13:34:30.171747 11656 layer_factory.hpp:77] Creating layer inception_3a/output
I0403 13:34:30.171766 11656 net.cpp:91] Creating Layer inception_3a/output
I0403 13:34:30.171780 11656 net.cpp:425] inception_3a/output <- inception_3a/1x1
I0403 13:34:30.171797 11656 net.cpp:425] inception_3a/output <- inception_3a/3x3
I0403 13:34:30.171813 11656 net.cpp:425] inception_3a/output <- inception_3a/5x5
I0403 13:34:30.171828 11656 net.cpp:425] inception_3a/output <- inception_3a/pool_proj
I0403 13:34:30.171856 11656 net.cpp:399] inception_3a/output -> inception_3a/output
I0403 13:34:30.171905 11656 net.cpp:141] Setting up inception_3a/output
I0403 13:34:30.171929 11656 net.cpp:148] Top shape: 24 256 28 28 (4816896)
I0403 13:34:30.171944 11656 net.cpp:156] Memory required for data: 580437024
I0403 13:34:30.171959 11656 layer_factory.hpp:77] Creating layer inception_3a/output_inception_3a/output_0_split
I0403 13:34:30.171977 11656 net.cpp:91] Creating Layer inception_3a/output_inception_3a/output_0_split
I0403 13:34:30.171994 11656 net.cpp:425] inception_3a/output_inception_3a/output_0_split <- inception_3a/output
I0403 13:34:30.172011 11656 net.cpp:399] inception_3a/output_inception_3a/output_0_split -> inception_3a/output_inception_3a/output_0_split_0
I0403 13:34:30.172031 11656 net.cpp:399] inception_3a/output_inception_3a/output_0_split -> inception_3a/output_inception_3a/output_0_split_1
I0403 13:34:30.172055 11656 net.cpp:399] inception_3a/output_inception_3a/output_0_split -> inception_3a/output_inception_3a/output_0_split_2
I0403 13:34:30.172077 11656 net.cpp:399] inception_3a/output_inception_3a/output_0_split -> inception_3a/output_inception_3a/output_0_split_3
I0403 13:34:30.172153 11656 net.cpp:141] Setting up inception_3a/output_inception_3a/output_0_split
I0403 13:34:30.172178 11656 net.cpp:148] Top shape: 24 256 28 28 (4816896)
I0403 13:34:30.172205 11656 net.cpp:148] Top shape: 24 256 28 28 (4816896)
I0403 13:34:30.172220 11656 net.cpp:148] Top shape: 24 256 28 28 (4816896)
I0403 13:34:30.172235 11656 net.cpp:148] Top shape: 24 256 28 28 (4816896)
I0403 13:34:30.172248 11656 net.cpp:156] Memory required for data: 657507360
I0403 13:34:30.172265 11656 layer_factory.hpp:77] Creating layer inception_3b/1x1
I0403 13:34:30.172289 11656 net.cpp:91] Creating Layer inception_3b/1x1
I0403 13:34:30.172307 11656 net.cpp:425] inception_3b/1x1 <- inception_3a/output_inception_3a/output_0_split_0
I0403 13:34:30.172324 11656 net.cpp:399] inception_3b/1x1 -> inception_3b/1x1
I0403 13:34:30.173441 11656 net.cpp:141] Setting up inception_3b/1x1
I0403 13:34:30.173480 11656 net.cpp:148] Top shape: 24 128 28 28 (2408448)
I0403 13:34:30.173497 11656 net.cpp:156] Memory required for data: 667141152
I0403 13:34:30.173519 11656 layer_factory.hpp:77] Creating layer inception_3b/relu_1x1
I0403 13:34:30.173542 11656 net.cpp:91] Creating Layer inception_3b/relu_1x1
I0403 13:34:30.173558 11656 net.cpp:425] inception_3b/relu_1x1 <- inception_3b/1x1
I0403 13:34:30.173575 11656 net.cpp:386] inception_3b/relu_1x1 -> inception_3b/1x1 (in-place)
I0403 13:34:30.173760 11656 net.cpp:141] Setting up inception_3b/relu_1x1
I0403 13:34:30.173785 11656 net.cpp:148] Top shape: 24 128 28 28 (2408448)
I0403 13:34:30.173800 11656 net.cpp:156] Memory required for data: 676774944
I0403 13:34:30.173815 11656 layer_factory.hpp:77] Creating layer inception_3b/3x3_reduce
I0403 13:34:30.173837 11656 net.cpp:91] Creating Layer inception_3b/3x3_reduce
I0403 13:34:30.173856 11656 net.cpp:425] inception_3b/3x3_reduce <- inception_3a/output_inception_3a/output_0_split_1
I0403 13:34:30.173877 11656 net.cpp:399] inception_3b/3x3_reduce -> inception_3b/3x3_reduce
I0403 13:34:30.175016 11656 net.cpp:141] Setting up inception_3b/3x3_reduce
I0403 13:34:30.175045 11656 net.cpp:148] Top shape: 24 128 28 28 (2408448)
I0403 13:34:30.175063 11656 net.cpp:156] Memory required for data: 686408736
I0403 13:34:30.175081 11656 layer_factory.hpp:77] Creating layer inception_3b/relu_3x3_reduce
I0403 13:34:30.175101 11656 net.cpp:91] Creating Layer inception_3b/relu_3x3_reduce
I0403 13:34:30.175117 11656 net.cpp:425] inception_3b/relu_3x3_reduce <- inception_3b/3x3_reduce
I0403 13:34:30.175132 11656 net.cpp:386] inception_3b/relu_3x3_reduce -> inception_3b/3x3_reduce (in-place)
I0403 13:34:30.175299 11656 net.cpp:141] Setting up inception_3b/relu_3x3_reduce
I0403 13:34:30.175326 11656 net.cpp:148] Top shape: 24 128 28 28 (2408448)
I0403 13:34:30.175343 11656 net.cpp:156] Memory required for data: 696042528
I0403 13:34:30.175357 11656 layer_factory.hpp:77] Creating layer inception_3b/3x3
I0403 13:34:30.175381 11656 net.cpp:91] Creating Layer inception_3b/3x3
I0403 13:34:30.175400 11656 net.cpp:425] inception_3b/3x3 <- inception_3b/3x3_reduce
I0403 13:34:30.175420 11656 net.cpp:399] inception_3b/3x3 -> inception_3b/3x3
I0403 13:34:30.178346 11656 net.cpp:141] Setting up inception_3b/3x3
I0403 13:34:30.178376 11656 net.cpp:148] Top shape: 24 192 28 28 (3612672)
I0403 13:34:30.178391 11656 net.cpp:156] Memory required for data: 710493216
I0403 13:34:30.178409 11656 layer_factory.hpp:77] Creating layer inception_3b/relu_3x3
I0403 13:34:30.178428 11656 net.cpp:91] Creating Layer inception_3b/relu_3x3
I0403 13:34:30.178443 11656 net.cpp:425] inception_3b/relu_3x3 <- inception_3b/3x3
I0403 13:34:30.178462 11656 net.cpp:386] inception_3b/relu_3x3 -> inception_3b/3x3 (in-place)
I0403 13:34:30.178737 11656 net.cpp:141] Setting up inception_3b/relu_3x3
I0403 13:34:30.178763 11656 net.cpp:148] Top shape: 24 192 28 28 (3612672)
I0403 13:34:30.178778 11656 net.cpp:156] Memory required for data: 724943904
I0403 13:34:30.178793 11656 layer_factory.hpp:77] Creating layer inception_3b/5x5_reduce
I0403 13:34:30.178815 11656 net.cpp:91] Creating Layer inception_3b/5x5_reduce
I0403 13:34:30.178833 11656 net.cpp:425] inception_3b/5x5_reduce <- inception_3a/output_inception_3a/output_0_split_2
I0403 13:34:30.178855 11656 net.cpp:399] inception_3b/5x5_reduce -> inception_3b/5x5_reduce
I0403 13:34:30.179873 11656 net.cpp:141] Setting up inception_3b/5x5_reduce
I0403 13:34:30.179903 11656 net.cpp:148] Top shape: 24 32 28 28 (602112)
I0403 13:34:30.179920 11656 net.cpp:156] Memory required for data: 727352352
I0403 13:34:30.179939 11656 layer_factory.hpp:77] Creating layer inception_3b/relu_5x5_reduce
I0403 13:34:30.179955 11656 net.cpp:91] Creating Layer inception_3b/relu_5x5_reduce
I0403 13:34:30.179971 11656 net.cpp:425] inception_3b/relu_5x5_reduce <- inception_3b/5x5_reduce
I0403 13:34:30.179989 11656 net.cpp:386] inception_3b/relu_5x5_reduce -> inception_3b/5x5_reduce (in-place)
I0403 13:34:30.180181 11656 net.cpp:141] Setting up inception_3b/relu_5x5_reduce
I0403 13:34:30.180205 11656 net.cpp:148] Top shape: 24 32 28 28 (602112)
I0403 13:34:30.180219 11656 net.cpp:156] Memory required for data: 729760800
I0403 13:34:30.180234 11656 layer_factory.hpp:77] Creating layer inception_3b/5x5
I0403 13:34:30.180255 11656 net.cpp:91] Creating Layer inception_3b/5x5
I0403 13:34:30.180272 11656 net.cpp:425] inception_3b/5x5 <- inception_3b/5x5_reduce
I0403 13:34:30.180292 11656 net.cpp:399] inception_3b/5x5 -> inception_3b/5x5
I0403 13:34:30.182281 11656 net.cpp:141] Setting up inception_3b/5x5
I0403 13:34:30.182309 11656 net.cpp:148] Top shape: 24 96 28 28 (1806336)
I0403 13:34:30.182324 11656 net.cpp:156] Memory required for data: 736986144
I0403 13:34:30.182342 11656 layer_factory.hpp:77] Creating layer inception_3b/relu_5x5
I0403 13:34:30.182363 11656 net.cpp:91] Creating Layer inception_3b/relu_5x5
I0403 13:34:30.182379 11656 net.cpp:425] inception_3b/relu_5x5 <- inception_3b/5x5
I0403 13:34:30.182404 11656 net.cpp:386] inception_3b/relu_5x5 -> inception_3b/5x5 (in-place)
I0403 13:34:30.182590 11656 net.cpp:141] Setting up inception_3b/relu_5x5
I0403 13:34:30.182613 11656 net.cpp:148] Top shape: 24 96 28 28 (1806336)
I0403 13:34:30.182627 11656 net.cpp:156] Memory required for data: 744211488
I0403 13:34:30.182641 11656 layer_factory.hpp:77] Creating layer inception_3b/pool
I0403 13:34:30.182658 11656 net.cpp:91] Creating Layer inception_3b/pool
I0403 13:34:30.182674 11656 net.cpp:425] inception_3b/pool <- inception_3a/output_inception_3a/output_0_split_3
I0403 13:34:30.182692 11656 net.cpp:399] inception_3b/pool -> inception_3b/pool
I0403 13:34:30.182757 11656 net.cpp:141] Setting up inception_3b/pool
I0403 13:34:30.182780 11656 net.cpp:148] Top shape: 24 256 28 28 (4816896)
I0403 13:34:30.182795 11656 net.cpp:156] Memory required for data: 763479072
I0403 13:34:30.182808 11656 layer_factory.hpp:77] Creating layer inception_3b/pool_proj
I0403 13:34:30.182831 11656 net.cpp:91] Creating Layer inception_3b/pool_proj
I0403 13:34:30.182847 11656 net.cpp:425] inception_3b/pool_proj <- inception_3b/pool
I0403 13:34:30.182868 11656 net.cpp:399] inception_3b/pool_proj -> inception_3b/pool_proj
I0403 13:34:30.183894 11656 net.cpp:141] Setting up inception_3b/pool_proj
I0403 13:34:30.183922 11656 net.cpp:148] Top shape: 24 64 28 28 (1204224)
I0403 13:34:30.183936 11656 net.cpp:156] Memory required for data: 768295968
I0403 13:34:30.183954 11656 layer_factory.hpp:77] Creating layer inception_3b/relu_pool_proj
I0403 13:34:30.183974 11656 net.cpp:91] Creating Layer inception_3b/relu_pool_proj
I0403 13:34:30.183990 11656 net.cpp:425] inception_3b/relu_pool_proj <- inception_3b/pool_proj
I0403 13:34:30.184005 11656 net.cpp:386] inception_3b/relu_pool_proj -> inception_3b/pool_proj (in-place)
I0403 13:34:30.184386 11656 net.cpp:141] Setting up inception_3b/relu_pool_proj
I0403 13:34:30.184412 11656 net.cpp:148] Top shape: 24 64 28 28 (1204224)
I0403 13:34:30.184427 11656 net.cpp:156] Memory required for data: 773112864
I0403 13:34:30.184453 11656 layer_factory.hpp:77] Creating layer inception_3b/output
I0403 13:34:30.184469 11656 net.cpp:91] Creating Layer inception_3b/output
I0403 13:34:30.184484 11656 net.cpp:425] inception_3b/output <- inception_3b/1x1
I0403 13:34:30.184501 11656 net.cpp:425] inception_3b/output <- inception_3b/3x3
I0403 13:34:30.184530 11656 net.cpp:425] inception_3b/output <- inception_3b/5x5
I0403 13:34:30.184547 11656 net.cpp:425] inception_3b/output <- inception_3b/pool_proj
I0403 13:34:30.184566 11656 net.cpp:399] inception_3b/output -> inception_3b/output
I0403 13:34:30.184610 11656 net.cpp:141] Setting up inception_3b/output
I0403 13:34:30.184635 11656 net.cpp:148] Top shape: 24 480 28 28 (9031680)
I0403 13:34:30.184649 11656 net.cpp:156] Memory required for data: 809239584
I0403 13:34:30.184664 11656 layer_factory.hpp:77] Creating layer pool3/3x3_s2
I0403 13:34:30.184681 11656 net.cpp:91] Creating Layer pool3/3x3_s2
I0403 13:34:30.184695 11656 net.cpp:425] pool3/3x3_s2 <- inception_3b/output
I0403 13:34:30.184728 11656 net.cpp:399] pool3/3x3_s2 -> pool3/3x3_s2
I0403 13:34:30.184799 11656 net.cpp:141] Setting up pool3/3x3_s2
I0403 13:34:30.184821 11656 net.cpp:148] Top shape: 24 480 14 14 (2257920)
I0403 13:34:30.184835 11656 net.cpp:156] Memory required for data: 818271264
I0403 13:34:30.184849 11656 layer_factory.hpp:77] Creating layer pool3/3x3_s2_pool3/3x3_s2_0_split
I0403 13:34:30.184867 11656 net.cpp:91] Creating Layer pool3/3x3_s2_pool3/3x3_s2_0_split
I0403 13:34:30.184882 11656 net.cpp:425] pool3/3x3_s2_pool3/3x3_s2_0_split <- pool3/3x3_s2
I0403 13:34:30.184898 11656 net.cpp:399] pool3/3x3_s2_pool3/3x3_s2_0_split -> pool3/3x3_s2_pool3/3x3_s2_0_split_0
I0403 13:34:30.184916 11656 net.cpp:399] pool3/3x3_s2_pool3/3x3_s2_0_split -> pool3/3x3_s2_pool3/3x3_s2_0_split_1
I0403 13:34:30.184936 11656 net.cpp:399] pool3/3x3_s2_pool3/3x3_s2_0_split -> pool3/3x3_s2_pool3/3x3_s2_0_split_2
I0403 13:34:30.184955 11656 net.cpp:399] pool3/3x3_s2_pool3/3x3_s2_0_split -> pool3/3x3_s2_pool3/3x3_s2_0_split_3
I0403 13:34:30.185029 11656 net.cpp:141] Setting up pool3/3x3_s2_pool3/3x3_s2_0_split
I0403 13:34:30.185050 11656 net.cpp:148] Top shape: 24 480 14 14 (2257920)
I0403 13:34:30.185065 11656 net.cpp:148] Top shape: 24 480 14 14 (2257920)
I0403 13:34:30.185081 11656 net.cpp:148] Top shape: 24 480 14 14 (2257920)
I0403 13:34:30.185096 11656 net.cpp:148] Top shape: 24 480 14 14 (2257920)
I0403 13:34:30.185108 11656 net.cpp:156] Memory required for data: 854397984
I0403 13:34:30.185122 11656 layer_factory.hpp:77] Creating layer inception_4a/1x1
I0403 13:34:30.185142 11656 net.cpp:91] Creating Layer inception_4a/1x1
I0403 13:34:30.185158 11656 net.cpp:425] inception_4a/1x1 <- pool3/3x3_s2_pool3/3x3_s2_0_split_0
I0403 13:34:30.185178 11656 net.cpp:399] inception_4a/1x1 -> inception_4a/1x1
I0403 13:34:30.186745 11656 net.cpp:141] Setting up inception_4a/1x1
I0403 13:34:30.186772 11656 net.cpp:148] Top shape: 24 192 14 14 (903168)
I0403 13:34:30.186787 11656 net.cpp:156] Memory required for data: 858010656
I0403 13:34:30.186805 11656 layer_factory.hpp:77] Creating layer inception_4a/relu_1x1
I0403 13:34:30.186825 11656 net.cpp:91] Creating Layer inception_4a/relu_1x1
I0403 13:34:30.186841 11656 net.cpp:425] inception_4a/relu_1x1 <- inception_4a/1x1
I0403 13:34:30.186856 11656 net.cpp:386] inception_4a/relu_1x1 -> inception_4a/1x1 (in-place)
I0403 13:34:30.187024 11656 net.cpp:141] Setting up inception_4a/relu_1x1
I0403 13:34:30.187048 11656 net.cpp:148] Top shape: 24 192 14 14 (903168)
I0403 13:34:30.187062 11656 net.cpp:156] Memory required for data: 861623328
I0403 13:34:30.187077 11656 layer_factory.hpp:77] Creating layer inception_4a/3x3_reduce
I0403 13:34:30.187099 11656 net.cpp:91] Creating Layer inception_4a/3x3_reduce
I0403 13:34:30.187116 11656 net.cpp:425] inception_4a/3x3_reduce <- pool3/3x3_s2_pool3/3x3_s2_0_split_1
I0403 13:34:30.187134 11656 net.cpp:399] inception_4a/3x3_reduce -> inception_4a/3x3_reduce
I0403 13:34:30.188391 11656 net.cpp:141] Setting up inception_4a/3x3_reduce
I0403 13:34:30.188418 11656 net.cpp:148] Top shape: 24 96 14 14 (451584)
I0403 13:34:30.188433 11656 net.cpp:156] Memory required for data: 863429664
I0403 13:34:30.188457 11656 layer_factory.hpp:77] Creating layer inception_4a/relu_3x3_reduce
I0403 13:34:30.188477 11656 net.cpp:91] Creating Layer inception_4a/relu_3x3_reduce
I0403 13:34:30.188493 11656 net.cpp:425] inception_4a/relu_3x3_reduce <- inception_4a/3x3_reduce
I0403 13:34:30.188515 11656 net.cpp:386] inception_4a/relu_3x3_reduce -> inception_4a/3x3_reduce (in-place)
I0403 13:34:30.188681 11656 net.cpp:141] Setting up inception_4a/relu_3x3_reduce
I0403 13:34:30.188705 11656 net.cpp:148] Top shape: 24 96 14 14 (451584)
I0403 13:34:30.188719 11656 net.cpp:156] Memory required for data: 865236000
I0403 13:34:30.188733 11656 layer_factory.hpp:77] Creating layer inception_4a/3x3
I0403 13:34:30.188755 11656 net.cpp:91] Creating Layer inception_4a/3x3
I0403 13:34:30.188771 11656 net.cpp:425] inception_4a/3x3 <- inception_4a/3x3_reduce
I0403 13:34:30.188789 11656 net.cpp:399] inception_4a/3x3 -> inception_4a/3x3
I0403 13:34:30.191388 11656 net.cpp:141] Setting up inception_4a/3x3
I0403 13:34:30.191418 11656 net.cpp:148] Top shape: 24 208 14 14 (978432)
I0403 13:34:30.191434 11656 net.cpp:156] Memory required for data: 869149728
I0403 13:34:30.191452 11656 layer_factory.hpp:77] Creating layer inception_4a/relu_3x3
I0403 13:34:30.191469 11656 net.cpp:91] Creating Layer inception_4a/relu_3x3
I0403 13:34:30.191485 11656 net.cpp:425] inception_4a/relu_3x3 <- inception_4a/3x3
I0403 13:34:30.191503 11656 net.cpp:386] inception_4a/relu_3x3 -> inception_4a/3x3 (in-place)
I0403 13:34:30.191789 11656 net.cpp:141] Setting up inception_4a/relu_3x3
I0403 13:34:30.191817 11656 net.cpp:148] Top shape: 24 208 14 14 (978432)
I0403 13:34:30.191831 11656 net.cpp:156] Memory required for data: 873063456
I0403 13:34:30.191846 11656 layer_factory.hpp:77] Creating layer inception_4a/5x5_reduce
I0403 13:34:30.191865 11656 net.cpp:91] Creating Layer inception_4a/5x5_reduce
I0403 13:34:30.191880 11656 net.cpp:425] inception_4a/5x5_reduce <- pool3/3x3_s2_pool3/3x3_s2_0_split_2
I0403 13:34:30.191900 11656 net.cpp:399] inception_4a/5x5_reduce -> inception_4a/5x5_reduce
I0403 13:34:30.192864 11656 net.cpp:141] Setting up inception_4a/5x5_reduce
I0403 13:34:30.192893 11656 net.cpp:148] Top shape: 24 16 14 14 (75264)
I0403 13:34:30.192909 11656 net.cpp:156] Memory required for data: 873364512
I0403 13:34:30.192939 11656 layer_factory.hpp:77] Creating layer inception_4a/relu_5x5_reduce
I0403 13:34:30.192957 11656 net.cpp:91] Creating Layer inception_4a/relu_5x5_reduce
I0403 13:34:30.192972 11656 net.cpp:425] inception_4a/relu_5x5_reduce <- inception_4a/5x5_reduce
I0403 13:34:30.192989 11656 net.cpp:386] inception_4a/relu_5x5_reduce -> inception_4a/5x5_reduce (in-place)
I0403 13:34:30.193164 11656 net.cpp:141] Setting up inception_4a/relu_5x5_reduce
I0403 13:34:30.193189 11656 net.cpp:148] Top shape: 24 16 14 14 (75264)
I0403 13:34:30.193203 11656 net.cpp:156] Memory required for data: 873665568
I0403 13:34:30.193230 11656 layer_factory.hpp:77] Creating layer inception_4a/5x5
I0403 13:34:30.193251 11656 net.cpp:91] Creating Layer inception_4a/5x5
I0403 13:34:30.193269 11656 net.cpp:425] inception_4a/5x5 <- inception_4a/5x5_reduce
I0403 13:34:30.193287 11656 net.cpp:399] inception_4a/5x5 -> inception_4a/5x5
I0403 13:34:30.194324 11656 net.cpp:141] Setting up inception_4a/5x5
I0403 13:34:30.194350 11656 net.cpp:148] Top shape: 24 48 14 14 (225792)
I0403 13:34:30.194365 11656 net.cpp:156] Memory required for data: 874568736
I0403 13:34:30.194382 11656 layer_factory.hpp:77] Creating layer inception_4a/relu_5x5
I0403 13:34:30.194399 11656 net.cpp:91] Creating Layer inception_4a/relu_5x5
I0403 13:34:30.194414 11656 net.cpp:425] inception_4a/relu_5x5 <- inception_4a/5x5
I0403 13:34:30.194433 11656 net.cpp:386] inception_4a/relu_5x5 -> inception_4a/5x5 (in-place)
I0403 13:34:30.194628 11656 net.cpp:141] Setting up inception_4a/relu_5x5
I0403 13:34:30.194654 11656 net.cpp:148] Top shape: 24 48 14 14 (225792)
I0403 13:34:30.194669 11656 net.cpp:156] Memory required for data: 875471904
I0403 13:34:30.194682 11656 layer_factory.hpp:77] Creating layer inception_4a/pool
I0403 13:34:30.194701 11656 net.cpp:91] Creating Layer inception_4a/pool
I0403 13:34:30.194717 11656 net.cpp:425] inception_4a/pool <- pool3/3x3_s2_pool3/3x3_s2_0_split_3
I0403 13:34:30.194736 11656 net.cpp:399] inception_4a/pool -> inception_4a/pool
I0403 13:34:30.194795 11656 net.cpp:141] Setting up inception_4a/pool
I0403 13:34:30.194819 11656 net.cpp:148] Top shape: 24 480 14 14 (2257920)
I0403 13:34:30.194833 11656 net.cpp:156] Memory required for data: 884503584
I0403 13:34:30.194847 11656 layer_factory.hpp:77] Creating layer inception_4a/pool_proj
I0403 13:34:30.194869 11656 net.cpp:91] Creating Layer inception_4a/pool_proj
I0403 13:34:30.194886 11656 net.cpp:425] inception_4a/pool_proj <- inception_4a/pool
I0403 13:34:30.194906 11656 net.cpp:399] inception_4a/pool_proj -> inception_4a/pool_proj
I0403 13:34:30.196096 11656 net.cpp:141] Setting up inception_4a/pool_proj
I0403 13:34:30.196125 11656 net.cpp:148] Top shape: 24 64 14 14 (301056)
I0403 13:34:30.196156 11656 net.cpp:156] Memory required for data: 885707808
I0403 13:34:30.196177 11656 layer_factory.hpp:77] Creating layer inception_4a/relu_pool_proj
I0403 13:34:30.196197 11656 net.cpp:91] Creating Layer inception_4a/relu_pool_proj
I0403 13:34:30.196215 11656 net.cpp:425] inception_4a/relu_pool_proj <- inception_4a/pool_proj
I0403 13:34:30.196233 11656 net.cpp:386] inception_4a/relu_pool_proj -> inception_4a/pool_proj (in-place)
I0403 13:34:30.196521 11656 net.cpp:141] Setting up inception_4a/relu_pool_proj
I0403 13:34:30.196548 11656 net.cpp:148] Top shape: 24 64 14 14 (301056)
I0403 13:34:30.196564 11656 net.cpp:156] Memory required for data: 886912032
I0403 13:34:30.196579 11656 layer_factory.hpp:77] Creating layer inception_4a/output
I0403 13:34:30.196598 11656 net.cpp:91] Creating Layer inception_4a/output
I0403 13:34:30.196612 11656 net.cpp:425] inception_4a/output <- inception_4a/1x1
I0403 13:34:30.196630 11656 net.cpp:425] inception_4a/output <- inception_4a/3x3
I0403 13:34:30.196646 11656 net.cpp:425] inception_4a/output <- inception_4a/5x5
I0403 13:34:30.196662 11656 net.cpp:425] inception_4a/output <- inception_4a/pool_proj
I0403 13:34:30.196681 11656 net.cpp:399] inception_4a/output -> inception_4a/output
I0403 13:34:30.196729 11656 net.cpp:141] Setting up inception_4a/output
I0403 13:34:30.196753 11656 net.cpp:148] Top shape: 24 512 14 14 (2408448)
I0403 13:34:30.196768 11656 net.cpp:156] Memory required for data: 896545824
I0403 13:34:30.196782 11656 layer_factory.hpp:77] Creating layer inception_4a/output_inception_4a/output_0_split
I0403 13:34:30.196800 11656 net.cpp:91] Creating Layer inception_4a/output_inception_4a/output_0_split
I0403 13:34:30.196815 11656 net.cpp:425] inception_4a/output_inception_4a/output_0_split <- inception_4a/output
I0403 13:34:30.196835 11656 net.cpp:399] inception_4a/output_inception_4a/output_0_split -> inception_4a/output_inception_4a/output_0_split_0
I0403 13:34:30.196856 11656 net.cpp:399] inception_4a/output_inception_4a/output_0_split -> inception_4a/output_inception_4a/output_0_split_1
I0403 13:34:30.196877 11656 net.cpp:399] inception_4a/output_inception_4a/output_0_split -> inception_4a/output_inception_4a/output_0_split_2
I0403 13:34:30.196897 11656 net.cpp:399] inception_4a/output_inception_4a/output_0_split -> inception_4a/output_inception_4a/output_0_split_3
I0403 13:34:30.196916 11656 net.cpp:399] inception_4a/output_inception_4a/output_0_split -> inception_4a/output_inception_4a/output_0_split_4
I0403 13:34:30.197010 11656 net.cpp:141] Setting up inception_4a/output_inception_4a/output_0_split
I0403 13:34:30.197036 11656 net.cpp:148] Top shape: 24 512 14 14 (2408448)
I0403 13:34:30.197053 11656 net.cpp:148] Top shape: 24 512 14 14 (2408448)
I0403 13:34:30.197069 11656 net.cpp:148] Top shape: 24 512 14 14 (2408448)
I0403 13:34:30.197084 11656 net.cpp:148] Top shape: 24 512 14 14 (2408448)
I0403 13:34:30.197099 11656 net.cpp:148] Top shape: 24 512 14 14 (2408448)
I0403 13:34:30.197113 11656 net.cpp:156] Memory required for data: 944714784
I0403 13:34:30.197129 11656 layer_factory.hpp:77] Creating layer loss1/ave_pool
I0403 13:34:30.197145 11656 net.cpp:91] Creating Layer loss1/ave_pool
I0403 13:34:30.197160 11656 net.cpp:425] loss1/ave_pool <- inception_4a/output_inception_4a/output_0_split_0
I0403 13:34:30.197180 11656 net.cpp:399] loss1/ave_pool -> loss1/ave_pool
I0403 13:34:30.197392 11656 net.cpp:141] Setting up loss1/ave_pool
I0403 13:34:30.197418 11656 net.cpp:148] Top shape: 24 512 4 4 (196608)
I0403 13:34:30.197433 11656 net.cpp:156] Memory required for data: 945501216
I0403 13:34:30.197449 11656 layer_factory.hpp:77] Creating layer loss1/conv
I0403 13:34:30.197471 11656 net.cpp:91] Creating Layer loss1/conv
I0403 13:34:30.197489 11656 net.cpp:425] loss1/conv <- loss1/ave_pool
I0403 13:34:30.197513 11656 net.cpp:399] loss1/conv -> loss1/conv
I0403 13:34:30.198948 11656 net.cpp:141] Setting up loss1/conv
I0403 13:34:30.198978 11656 net.cpp:148] Top shape: 24 128 4 4 (49152)
I0403 13:34:30.199008 11656 net.cpp:156] Memory required for data: 945697824
I0403 13:34:30.199028 11656 layer_factory.hpp:77] Creating layer loss1/relu_conv
I0403 13:34:30.199046 11656 net.cpp:91] Creating Layer loss1/relu_conv
I0403 13:34:30.199062 11656 net.cpp:425] loss1/relu_conv <- loss1/conv
I0403 13:34:30.199079 11656 net.cpp:386] loss1/relu_conv -> loss1/conv (in-place)
I0403 13:34:30.199360 11656 net.cpp:141] Setting up loss1/relu_conv
I0403 13:34:30.199390 11656 net.cpp:148] Top shape: 24 128 4 4 (49152)
I0403 13:34:30.199406 11656 net.cpp:156] Memory required for data: 945894432
I0403 13:34:30.199421 11656 layer_factory.hpp:77] Creating layer loss1/fc
I0403 13:34:30.199445 11656 net.cpp:91] Creating Layer loss1/fc
I0403 13:34:30.199462 11656 net.cpp:425] loss1/fc <- loss1/conv
I0403 13:34:30.199483 11656 net.cpp:399] loss1/fc -> loss1/fc
I0403 13:34:30.217689 11656 net.cpp:141] Setting up loss1/fc
I0403 13:34:30.217756 11656 net.cpp:148] Top shape: 24 1024 (24576)
I0403 13:34:30.217773 11656 net.cpp:156] Memory required for data: 945992736
I0403 13:34:30.217794 11656 layer_factory.hpp:77] Creating layer loss1/relu_fc
I0403 13:34:30.217818 11656 net.cpp:91] Creating Layer loss1/relu_fc
I0403 13:34:30.217835 11656 net.cpp:425] loss1/relu_fc <- loss1/fc
I0403 13:34:30.217854 11656 net.cpp:386] loss1/relu_fc -> loss1/fc (in-place)
I0403 13:34:30.218077 11656 net.cpp:141] Setting up loss1/relu_fc
I0403 13:34:30.218103 11656 net.cpp:148] Top shape: 24 1024 (24576)
I0403 13:34:30.218118 11656 net.cpp:156] Memory required for data: 946091040
I0403 13:34:30.218133 11656 layer_factory.hpp:77] Creating layer loss1/drop_fc
I0403 13:34:30.218160 11656 net.cpp:91] Creating Layer loss1/drop_fc
I0403 13:34:30.218178 11656 net.cpp:425] loss1/drop_fc <- loss1/fc
I0403 13:34:30.218194 11656 net.cpp:386] loss1/drop_fc -> loss1/fc (in-place)
I0403 13:34:30.218246 11656 net.cpp:141] Setting up loss1/drop_fc
I0403 13:34:30.218271 11656 net.cpp:148] Top shape: 24 1024 (24576)
I0403 13:34:30.218284 11656 net.cpp:156] Memory required for data: 946189344
I0403 13:34:30.218298 11656 layer_factory.hpp:77] Creating layer loss1/classifier_plantvillage
I0403 13:34:30.218317 11656 net.cpp:91] Creating Layer loss1/classifier_plantvillage
I0403 13:34:30.218336 11656 net.cpp:425] loss1/classifier_plantvillage <- loss1/fc
I0403 13:34:30.218354 11656 net.cpp:399] loss1/classifier_plantvillage -> loss1/classifier_plantvillage
I0403 13:34:30.219245 11656 net.cpp:141] Setting up loss1/classifier_plantvillage
I0403 13:34:30.219276 11656 net.cpp:148] Top shape: 24 38 (912)
I0403 13:34:30.219292 11656 net.cpp:156] Memory required for data: 946192992
I0403 13:34:30.219310 11656 layer_factory.hpp:77] Creating layer loss1/classifier_plantvillage_loss1/classifier_plantvillage_0_split
I0403 13:34:30.219327 11656 net.cpp:91] Creating Layer loss1/classifier_plantvillage_loss1/classifier_plantvillage_0_split
I0403 13:34:30.219342 11656 net.cpp:425] loss1/classifier_plantvillage_loss1/classifier_plantvillage_0_split <- loss1/classifier_plantvillage
I0403 13:34:30.219358 11656 net.cpp:399] loss1/classifier_plantvillage_loss1/classifier_plantvillage_0_split -> loss1/classifier_plantvillage_loss1/classifier_plantvillage_0_split_0
I0403 13:34:30.219378 11656 net.cpp:399] loss1/classifier_plantvillage_loss1/classifier_plantvillage_0_split -> loss1/classifier_plantvillage_loss1/classifier_plantvillage_0_split_1
I0403 13:34:30.219398 11656 net.cpp:399] loss1/classifier_plantvillage_loss1/classifier_plantvillage_0_split -> loss1/classifier_plantvillage_loss1/classifier_plantvillage_0_split_2
I0403 13:34:30.219462 11656 net.cpp:141] Setting up loss1/classifier_plantvillage_loss1/classifier_plantvillage_0_split
I0403 13:34:30.219485 11656 net.cpp:148] Top shape: 24 38 (912)
I0403 13:34:30.219501 11656 net.cpp:148] Top shape: 24 38 (912)
I0403 13:34:30.219521 11656 net.cpp:148] Top shape: 24 38 (912)
I0403 13:34:30.219547 11656 net.cpp:156] Memory required for data: 946203936
I0403 13:34:30.219561 11656 layer_factory.hpp:77] Creating layer inception_4b/1x1
I0403 13:34:30.219584 11656 net.cpp:91] Creating Layer inception_4b/1x1
I0403 13:34:30.219625 11656 net.cpp:425] inception_4b/1x1 <- inception_4a/output_inception_4a/output_0_split_1
I0403 13:34:30.219648 11656 net.cpp:399] inception_4b/1x1 -> inception_4b/1x1
I0403 13:34:30.221277 11656 net.cpp:141] Setting up inception_4b/1x1
I0403 13:34:30.221321 11656 net.cpp:148] Top shape: 24 160 14 14 (752640)
I0403 13:34:30.221339 11656 net.cpp:156] Memory required for data: 949214496
I0403 13:34:30.221357 11656 layer_factory.hpp:77] Creating layer inception_4b/relu_1x1
I0403 13:34:30.221376 11656 net.cpp:91] Creating Layer inception_4b/relu_1x1
I0403 13:34:30.221393 11656 net.cpp:425] inception_4b/relu_1x1 <- inception_4b/1x1
I0403 13:34:30.221410 11656 net.cpp:386] inception_4b/relu_1x1 -> inception_4b/1x1 (in-place)
I0403 13:34:30.221593 11656 net.cpp:141] Setting up inception_4b/relu_1x1
I0403 13:34:30.221618 11656 net.cpp:148] Top shape: 24 160 14 14 (752640)
I0403 13:34:30.221633 11656 net.cpp:156] Memory required for data: 952225056
I0403 13:34:30.221647 11656 layer_factory.hpp:77] Creating layer inception_4b/3x3_reduce
I0403 13:34:30.221669 11656 net.cpp:91] Creating Layer inception_4b/3x3_reduce
I0403 13:34:30.221686 11656 net.cpp:425] inception_4b/3x3_reduce <- inception_4a/output_inception_4a/output_0_split_2
I0403 13:34:30.221707 11656 net.cpp:399] inception_4b/3x3_reduce -> inception_4b/3x3_reduce
I0403 13:34:30.223038 11656 net.cpp:141] Setting up inception_4b/3x3_reduce
I0403 13:34:30.223067 11656 net.cpp:148] Top shape: 24 112 14 14 (526848)
I0403 13:34:30.223083 11656 net.cpp:156] Memory required for data: 954332448
I0403 13:34:30.223103 11656 layer_factory.hpp:77] Creating layer inception_4b/relu_3x3_reduce
I0403 13:34:30.223120 11656 net.cpp:91] Creating Layer inception_4b/relu_3x3_reduce
I0403 13:34:30.223137 11656 net.cpp:425] inception_4b/relu_3x3_reduce <- inception_4b/3x3_reduce
I0403 13:34:30.223156 11656 net.cpp:386] inception_4b/relu_3x3_reduce -> inception_4b/3x3_reduce (in-place)
I0403 13:34:30.223433 11656 net.cpp:141] Setting up inception_4b/relu_3x3_reduce
I0403 13:34:30.223459 11656 net.cpp:148] Top shape: 24 112 14 14 (526848)
I0403 13:34:30.223474 11656 net.cpp:156] Memory required for data: 956439840
I0403 13:34:30.223487 11656 layer_factory.hpp:77] Creating layer inception_4b/3x3
I0403 13:34:30.223515 11656 net.cpp:91] Creating Layer inception_4b/3x3
I0403 13:34:30.223533 11656 net.cpp:425] inception_4b/3x3 <- inception_4b/3x3_reduce
I0403 13:34:30.223556 11656 net.cpp:399] inception_4b/3x3 -> inception_4b/3x3
I0403 13:34:30.226511 11656 net.cpp:141] Setting up inception_4b/3x3
I0403 13:34:30.226539 11656 net.cpp:148] Top shape: 24 224 14 14 (1053696)
I0403 13:34:30.226555 11656 net.cpp:156] Memory required for data: 960654624
I0403 13:34:30.226572 11656 layer_factory.hpp:77] Creating layer inception_4b/relu_3x3
I0403 13:34:30.226593 11656 net.cpp:91] Creating Layer inception_4b/relu_3x3
I0403 13:34:30.226609 11656 net.cpp:425] inception_4b/relu_3x3 <- inception_4b/3x3
I0403 13:34:30.226626 11656 net.cpp:386] inception_4b/relu_3x3 -> inception_4b/3x3 (in-place)
I0403 13:34:30.226806 11656 net.cpp:141] Setting up inception_4b/relu_3x3
I0403 13:34:30.226833 11656 net.cpp:148] Top shape: 24 224 14 14 (1053696)
I0403 13:34:30.226848 11656 net.cpp:156] Memory required for data: 964869408
I0403 13:34:30.226862 11656 layer_factory.hpp:77] Creating layer inception_4b/5x5_reduce
I0403 13:34:30.226884 11656 net.cpp:91] Creating Layer inception_4b/5x5_reduce
I0403 13:34:30.226902 11656 net.cpp:425] inception_4b/5x5_reduce <- inception_4a/output_inception_4a/output_0_split_3
I0403 13:34:30.226919 11656 net.cpp:399] inception_4b/5x5_reduce -> inception_4b/5x5_reduce
I0403 13:34:30.228008 11656 net.cpp:141] Setting up inception_4b/5x5_reduce
I0403 13:34:30.228039 11656 net.cpp:148] Top shape: 24 24 14 14 (112896)
I0403 13:34:30.228056 11656 net.cpp:156] Memory required for data: 965320992
I0403 13:34:30.228075 11656 layer_factory.hpp:77] Creating layer inception_4b/relu_5x5_reduce
I0403 13:34:30.228093 11656 net.cpp:91] Creating Layer inception_4b/relu_5x5_reduce
I0403 13:34:30.228126 11656 net.cpp:425] inception_4b/relu_5x5_reduce <- inception_4b/5x5_reduce
I0403 13:34:30.228147 11656 net.cpp:386] inception_4b/relu_5x5_reduce -> inception_4b/5x5_reduce (in-place)
I0403 13:34:30.228327 11656 net.cpp:141] Setting up inception_4b/relu_5x5_reduce
I0403 13:34:30.228353 11656 net.cpp:148] Top shape: 24 24 14 14 (112896)
I0403 13:34:30.228368 11656 net.cpp:156] Memory required for data: 965772576
I0403 13:34:30.228382 11656 layer_factory.hpp:77] Creating layer inception_4b/5x5
I0403 13:34:30.228404 11656 net.cpp:91] Creating Layer inception_4b/5x5
I0403 13:34:30.228420 11656 net.cpp:425] inception_4b/5x5 <- inception_4b/5x5_reduce
I0403 13:34:30.228441 11656 net.cpp:399] inception_4b/5x5 -> inception_4b/5x5
I0403 13:34:30.229661 11656 net.cpp:141] Setting up inception_4b/5x5
I0403 13:34:30.229691 11656 net.cpp:148] Top shape: 24 64 14 14 (301056)
I0403 13:34:30.229707 11656 net.cpp:156] Memory required for data: 966976800
I0403 13:34:30.229724 11656 layer_factory.hpp:77] Creating layer inception_4b/relu_5x5
I0403 13:34:30.229743 11656 net.cpp:91] Creating Layer inception_4b/relu_5x5
I0403 13:34:30.229758 11656 net.cpp:425] inception_4b/relu_5x5 <- inception_4b/5x5
I0403 13:34:30.229774 11656 net.cpp:386] inception_4b/relu_5x5 -> inception_4b/5x5 (in-place)
I0403 13:34:30.230062 11656 net.cpp:141] Setting up inception_4b/relu_5x5
I0403 13:34:30.230090 11656 net.cpp:148] Top shape: 24 64 14 14 (301056)
I0403 13:34:30.230106 11656 net.cpp:156] Memory required for data: 968181024
I0403 13:34:30.230121 11656 layer_factory.hpp:77] Creating layer inception_4b/pool
I0403 13:34:30.230139 11656 net.cpp:91] Creating Layer inception_4b/pool
I0403 13:34:30.230154 11656 net.cpp:425] inception_4b/pool <- inception_4a/output_inception_4a/output_0_split_4
I0403 13:34:30.230172 11656 net.cpp:399] inception_4b/pool -> inception_4b/pool
I0403 13:34:30.230239 11656 net.cpp:141] Setting up inception_4b/pool
I0403 13:34:30.230265 11656 net.cpp:148] Top shape: 24 512 14 14 (2408448)
I0403 13:34:30.230279 11656 net.cpp:156] Memory required for data: 977814816
I0403 13:34:30.230293 11656 layer_factory.hpp:77] Creating layer inception_4b/pool_proj
I0403 13:34:30.230315 11656 net.cpp:91] Creating Layer inception_4b/pool_proj
I0403 13:34:30.230334 11656 net.cpp:425] inception_4b/pool_proj <- inception_4b/pool
I0403 13:34:30.230353 11656 net.cpp:399] inception_4b/pool_proj -> inception_4b/pool_proj
I0403 13:34:30.231545 11656 net.cpp:141] Setting up inception_4b/pool_proj
I0403 13:34:30.231575 11656 net.cpp:148] Top shape: 24 64 14 14 (301056)
I0403 13:34:30.231590 11656 net.cpp:156] Memory required for data: 979019040
I0403 13:34:30.231608 11656 layer_factory.hpp:77] Creating layer inception_4b/relu_pool_proj
I0403 13:34:30.231626 11656 net.cpp:91] Creating Layer inception_4b/relu_pool_proj
I0403 13:34:30.231642 11656 net.cpp:425] inception_4b/relu_pool_proj <- inception_4b/pool_proj
I0403 13:34:30.231662 11656 net.cpp:386] inception_4b/relu_pool_proj -> inception_4b/pool_proj (in-place)
I0403 13:34:30.231840 11656 net.cpp:141] Setting up inception_4b/relu_pool_proj
I0403 13:34:30.231865 11656 net.cpp:148] Top shape: 24 64 14 14 (301056)
I0403 13:34:30.231879 11656 net.cpp:156] Memory required for data: 980223264
I0403 13:34:30.231894 11656 layer_factory.hpp:77] Creating layer inception_4b/output
I0403 13:34:30.231911 11656 net.cpp:91] Creating Layer inception_4b/output
I0403 13:34:30.231926 11656 net.cpp:425] inception_4b/output <- inception_4b/1x1
I0403 13:34:30.231942 11656 net.cpp:425] inception_4b/output <- inception_4b/3x3
I0403 13:34:30.231961 11656 net.cpp:425] inception_4b/output <- inception_4b/5x5
I0403 13:34:30.231977 11656 net.cpp:425] inception_4b/output <- inception_4b/pool_proj
I0403 13:34:30.231994 11656 net.cpp:399] inception_4b/output -> inception_4b/output
I0403 13:34:30.232038 11656 net.cpp:141] Setting up inception_4b/output
I0403 13:34:30.232064 11656 net.cpp:148] Top shape: 24 512 14 14 (2408448)
I0403 13:34:30.232079 11656 net.cpp:156] Memory required for data: 989857056
I0403 13:34:30.232107 11656 layer_factory.hpp:77] Creating layer inception_4b/output_inception_4b/output_0_split
I0403 13:34:30.232126 11656 net.cpp:91] Creating Layer inception_4b/output_inception_4b/output_0_split
I0403 13:34:30.232141 11656 net.cpp:425] inception_4b/output_inception_4b/output_0_split <- inception_4b/output
I0403 13:34:30.232161 11656 net.cpp:399] inception_4b/output_inception_4b/output_0_split -> inception_4b/output_inception_4b/output_0_split_0
I0403 13:34:30.232182 11656 net.cpp:399] inception_4b/output_inception_4b/output_0_split -> inception_4b/output_inception_4b/output_0_split_1
I0403 13:34:30.232200 11656 net.cpp:399] inception_4b/output_inception_4b/output_0_split -> inception_4b/output_inception_4b/output_0_split_2
I0403 13:34:30.232220 11656 net.cpp:399] inception_4b/output_inception_4b/output_0_split -> inception_4b/output_inception_4b/output_0_split_3
I0403 13:34:30.232301 11656 net.cpp:141] Setting up inception_4b/output_inception_4b/output_0_split
I0403 13:34:30.232327 11656 net.cpp:148] Top shape: 24 512 14 14 (2408448)
I0403 13:34:30.232344 11656 net.cpp:148] Top shape: 24 512 14 14 (2408448)
I0403 13:34:30.232359 11656 net.cpp:148] Top shape: 24 512 14 14 (2408448)
I0403 13:34:30.232374 11656 net.cpp:148] Top shape: 24 512 14 14 (2408448)
I0403 13:34:30.232388 11656 net.cpp:156] Memory required for data: 1028392224
I0403 13:34:30.232403 11656 layer_factory.hpp:77] Creating layer inception_4c/1x1
I0403 13:34:30.232421 11656 net.cpp:91] Creating Layer inception_4c/1x1
I0403 13:34:30.232437 11656 net.cpp:425] inception_4c/1x1 <- inception_4b/output_inception_4b/output_0_split_0
I0403 13:34:30.232457 11656 net.cpp:399] inception_4c/1x1 -> inception_4c/1x1
I0403 13:34:30.233887 11656 net.cpp:141] Setting up inception_4c/1x1
I0403 13:34:30.233914 11656 net.cpp:148] Top shape: 24 128 14 14 (602112)
I0403 13:34:30.233930 11656 net.cpp:156] Memory required for data: 1030800672
I0403 13:34:30.233947 11656 layer_factory.hpp:77] Creating layer inception_4c/relu_1x1
I0403 13:34:30.233968 11656 net.cpp:91] Creating Layer inception_4c/relu_1x1
I0403 13:34:30.233985 11656 net.cpp:425] inception_4c/relu_1x1 <- inception_4c/1x1
I0403 13:34:30.234001 11656 net.cpp:386] inception_4c/relu_1x1 -> inception_4c/1x1 (in-place)
I0403 13:34:30.234180 11656 net.cpp:141] Setting up inception_4c/relu_1x1
I0403 13:34:30.234205 11656 net.cpp:148] Top shape: 24 128 14 14 (602112)
I0403 13:34:30.234220 11656 net.cpp:156] Memory required for data: 1033209120
I0403 13:34:30.234235 11656 layer_factory.hpp:77] Creating layer inception_4c/3x3_reduce
I0403 13:34:30.234257 11656 net.cpp:91] Creating Layer inception_4c/3x3_reduce
I0403 13:34:30.234274 11656 net.cpp:425] inception_4c/3x3_reduce <- inception_4b/output_inception_4b/output_0_split_1
I0403 13:34:30.234293 11656 net.cpp:399] inception_4c/3x3_reduce -> inception_4c/3x3_reduce
I0403 13:34:30.236299 11656 net.cpp:141] Setting up inception_4c/3x3_reduce
I0403 13:34:30.236330 11656 net.cpp:148] Top shape: 24 128 14 14 (602112)
I0403 13:34:30.236346 11656 net.cpp:156] Memory required for data: 1035617568
I0403 13:34:30.236364 11656 layer_factory.hpp:77] Creating layer inception_4c/relu_3x3_reduce
I0403 13:34:30.236383 11656 net.cpp:91] Creating Layer inception_4c/relu_3x3_reduce
I0403 13:34:30.236399 11656 net.cpp:425] inception_4c/relu_3x3_reduce <- inception_4c/3x3_reduce
I0403 13:34:30.236420 11656 net.cpp:386] inception_4c/relu_3x3_reduce -> inception_4c/3x3_reduce (in-place)
I0403 13:34:30.236717 11656 net.cpp:141] Setting up inception_4c/relu_3x3_reduce
I0403 13:34:30.236744 11656 net.cpp:148] Top shape: 24 128 14 14 (602112)
I0403 13:34:30.236759 11656 net.cpp:156] Memory required for data: 1038026016
I0403 13:34:30.236774 11656 layer_factory.hpp:77] Creating layer inception_4c/3x3
I0403 13:34:30.236798 11656 net.cpp:91] Creating Layer inception_4c/3x3
I0403 13:34:30.236814 11656 net.cpp:425] inception_4c/3x3 <- inception_4c/3x3_reduce
I0403 13:34:30.236831 11656 net.cpp:399] inception_4c/3x3 -> inception_4c/3x3
I0403 13:34:30.240378 11656 net.cpp:141] Setting up inception_4c/3x3
I0403 13:34:30.240420 11656 net.cpp:148] Top shape: 24 256 14 14 (1204224)
I0403 13:34:30.240437 11656 net.cpp:156] Memory required for data: 1042842912
I0403 13:34:30.240468 11656 layer_factory.hpp:77] Creating layer inception_4c/relu_3x3
I0403 13:34:30.240488 11656 net.cpp:91] Creating Layer inception_4c/relu_3x3
I0403 13:34:30.240502 11656 net.cpp:425] inception_4c/relu_3x3 <- inception_4c/3x3
I0403 13:34:30.240525 11656 net.cpp:386] inception_4c/relu_3x3 -> inception_4c/3x3 (in-place)
I0403 13:34:30.240701 11656 net.cpp:141] Setting up inception_4c/relu_3x3
I0403 13:34:30.240727 11656 net.cpp:148] Top shape: 24 256 14 14 (1204224)
I0403 13:34:30.240742 11656 net.cpp:156] Memory required for data: 1047659808
I0403 13:34:30.240757 11656 layer_factory.hpp:77] Creating layer inception_4c/5x5_reduce
I0403 13:34:30.240779 11656 net.cpp:91] Creating Layer inception_4c/5x5_reduce
I0403 13:34:30.240797 11656 net.cpp:425] inception_4c/5x5_reduce <- inception_4b/output_inception_4b/output_0_split_2
I0403 13:34:30.240814 11656 net.cpp:399] inception_4c/5x5_reduce -> inception_4c/5x5_reduce
I0403 13:34:30.241899 11656 net.cpp:141] Setting up inception_4c/5x5_reduce
I0403 13:34:30.241927 11656 net.cpp:148] Top shape: 24 24 14 14 (112896)
I0403 13:34:30.241943 11656 net.cpp:156] Memory required for data: 1048111392
I0403 13:34:30.241961 11656 layer_factory.hpp:77] Creating layer inception_4c/relu_5x5_reduce
I0403 13:34:30.241978 11656 net.cpp:91] Creating Layer inception_4c/relu_5x5_reduce
I0403 13:34:30.241993 11656 net.cpp:425] inception_4c/relu_5x5_reduce <- inception_4c/5x5_reduce
I0403 13:34:30.242012 11656 net.cpp:386] inception_4c/relu_5x5_reduce -> inception_4c/5x5_reduce (in-place)
I0403 13:34:30.242187 11656 net.cpp:141] Setting up inception_4c/relu_5x5_reduce
I0403 13:34:30.242211 11656 net.cpp:148] Top shape: 24 24 14 14 (112896)
I0403 13:34:30.242225 11656 net.cpp:156] Memory required for data: 1048562976
I0403 13:34:30.242239 11656 layer_factory.hpp:77] Creating layer inception_4c/5x5
I0403 13:34:30.242260 11656 net.cpp:91] Creating Layer inception_4c/5x5
I0403 13:34:30.242277 11656 net.cpp:425] inception_4c/5x5 <- inception_4c/5x5_reduce
I0403 13:34:30.242297 11656 net.cpp:399] inception_4c/5x5 -> inception_4c/5x5
I0403 13:34:30.243530 11656 net.cpp:141] Setting up inception_4c/5x5
I0403 13:34:30.243556 11656 net.cpp:148] Top shape: 24 64 14 14 (301056)
I0403 13:34:30.243572 11656 net.cpp:156] Memory required for data: 1049767200
I0403 13:34:30.243590 11656 layer_factory.hpp:77] Creating layer inception_4c/relu_5x5
I0403 13:34:30.243612 11656 net.cpp:91] Creating Layer inception_4c/relu_5x5
I0403 13:34:30.243628 11656 net.cpp:425] inception_4c/relu_5x5 <- inception_4c/5x5
I0403 13:34:30.243644 11656 net.cpp:386] inception_4c/relu_5x5 -> inception_4c/5x5 (in-place)
I0403 13:34:30.243932 11656 net.cpp:141] Setting up inception_4c/relu_5x5
I0403 13:34:30.243958 11656 net.cpp:148] Top shape: 24 64 14 14 (301056)
I0403 13:34:30.243973 11656 net.cpp:156] Memory required for data: 1050971424
I0403 13:34:30.243988 11656 layer_factory.hpp:77] Creating layer inception_4c/pool
I0403 13:34:30.244005 11656 net.cpp:91] Creating Layer inception_4c/pool
I0403 13:34:30.244026 11656 net.cpp:425] inception_4c/pool <- inception_4b/output_inception_4b/output_0_split_3
I0403 13:34:30.244045 11656 net.cpp:399] inception_4c/pool -> inception_4c/pool
I0403 13:34:30.244112 11656 net.cpp:141] Setting up inception_4c/pool
I0403 13:34:30.244135 11656 net.cpp:148] Top shape: 24 512 14 14 (2408448)
I0403 13:34:30.244150 11656 net.cpp:156] Memory required for data: 1060605216
I0403 13:34:30.244165 11656 layer_factory.hpp:77] Creating layer inception_4c/pool_proj
I0403 13:34:30.244186 11656 net.cpp:91] Creating Layer inception_4c/pool_proj
I0403 13:34:30.244204 11656 net.cpp:425] inception_4c/pool_proj <- inception_4c/pool
I0403 13:34:30.244223 11656 net.cpp:399] inception_4c/pool_proj -> inception_4c/pool_proj
I0403 13:34:30.245481 11656 net.cpp:141] Setting up inception_4c/pool_proj
I0403 13:34:30.245517 11656 net.cpp:148] Top shape: 24 64 14 14 (301056)
I0403 13:34:30.245548 11656 net.cpp:156] Memory required for data: 1061809440
I0403 13:34:30.245568 11656 layer_factory.hpp:77] Creating layer inception_4c/relu_pool_proj
I0403 13:34:30.245587 11656 net.cpp:91] Creating Layer inception_4c/relu_pool_proj
I0403 13:34:30.245604 11656 net.cpp:425] inception_4c/relu_pool_proj <- inception_4c/pool_proj
I0403 13:34:30.245622 11656 net.cpp:386] inception_4c/relu_pool_proj -> inception_4c/pool_proj (in-place)
I0403 13:34:30.245810 11656 net.cpp:141] Setting up inception_4c/relu_pool_proj
I0403 13:34:30.245836 11656 net.cpp:148] Top shape: 24 64 14 14 (301056)
I0403 13:34:30.245851 11656 net.cpp:156] Memory required for data: 1063013664
I0403 13:34:30.245865 11656 layer_factory.hpp:77] Creating layer inception_4c/output
I0403 13:34:30.245883 11656 net.cpp:91] Creating Layer inception_4c/output
I0403 13:34:30.245899 11656 net.cpp:425] inception_4c/output <- inception_4c/1x1
I0403 13:34:30.245916 11656 net.cpp:425] inception_4c/output <- inception_4c/3x3
I0403 13:34:30.245932 11656 net.cpp:425] inception_4c/output <- inception_4c/5x5
I0403 13:34:30.245949 11656 net.cpp:425] inception_4c/output <- inception_4c/pool_proj
I0403 13:34:30.245981 11656 net.cpp:399] inception_4c/output -> inception_4c/output
I0403 13:34:30.246029 11656 net.cpp:141] Setting up inception_4c/output
I0403 13:34:30.246057 11656 net.cpp:148] Top shape: 24 512 14 14 (2408448)
I0403 13:34:30.246071 11656 net.cpp:156] Memory required for data: 1072647456
I0403 13:34:30.246085 11656 layer_factory.hpp:77] Creating layer inception_4c/output_inception_4c/output_0_split
I0403 13:34:30.246103 11656 net.cpp:91] Creating Layer inception_4c/output_inception_4c/output_0_split
I0403 13:34:30.246117 11656 net.cpp:425] inception_4c/output_inception_4c/output_0_split <- inception_4c/output
I0403 13:34:30.246136 11656 net.cpp:399] inception_4c/output_inception_4c/output_0_split -> inception_4c/output_inception_4c/output_0_split_0
I0403 13:34:30.246156 11656 net.cpp:399] inception_4c/output_inception_4c/output_0_split -> inception_4c/output_inception_4c/output_0_split_1
I0403 13:34:30.246176 11656 net.cpp:399] inception_4c/output_inception_4c/output_0_split -> inception_4c/output_inception_4c/output_0_split_2
I0403 13:34:30.246196 11656 net.cpp:399] inception_4c/output_inception_4c/output_0_split -> inception_4c/output_inception_4c/output_0_split_3
I0403 13:34:30.246281 11656 net.cpp:141] Setting up inception_4c/output_inception_4c/output_0_split
I0403 13:34:30.246304 11656 net.cpp:148] Top shape: 24 512 14 14 (2408448)
I0403 13:34:30.246322 11656 net.cpp:148] Top shape: 24 512 14 14 (2408448)
I0403 13:34:30.246338 11656 net.cpp:148] Top shape: 24 512 14 14 (2408448)
I0403 13:34:30.246353 11656 net.cpp:148] Top shape: 24 512 14 14 (2408448)
I0403 13:34:30.246366 11656 net.cpp:156] Memory required for data: 1111182624
I0403 13:34:30.246381 11656 layer_factory.hpp:77] Creating layer inception_4d/1x1
I0403 13:34:30.246400 11656 net.cpp:91] Creating Layer inception_4d/1x1
I0403 13:34:30.246417 11656 net.cpp:425] inception_4d/1x1 <- inception_4c/output_inception_4c/output_0_split_0
I0403 13:34:30.246438 11656 net.cpp:399] inception_4d/1x1 -> inception_4d/1x1
I0403 13:34:30.247822 11656 net.cpp:141] Setting up inception_4d/1x1
I0403 13:34:30.247848 11656 net.cpp:148] Top shape: 24 112 14 14 (526848)
I0403 13:34:30.247865 11656 net.cpp:156] Memory required for data: 1113290016
I0403 13:34:30.247882 11656 layer_factory.hpp:77] Creating layer inception_4d/relu_1x1
I0403 13:34:30.247903 11656 net.cpp:91] Creating Layer inception_4d/relu_1x1
I0403 13:34:30.247920 11656 net.cpp:425] inception_4d/relu_1x1 <- inception_4d/1x1
I0403 13:34:30.247937 11656 net.cpp:386] inception_4d/relu_1x1 -> inception_4d/1x1 (in-place)
I0403 13:34:30.248124 11656 net.cpp:141] Setting up inception_4d/relu_1x1
I0403 13:34:30.248152 11656 net.cpp:148] Top shape: 24 112 14 14 (526848)
I0403 13:34:30.248167 11656 net.cpp:156] Memory required for data: 1115397408
I0403 13:34:30.248181 11656 layer_factory.hpp:77] Creating layer inception_4d/3x3_reduce
I0403 13:34:30.248216 11656 net.cpp:91] Creating Layer inception_4d/3x3_reduce
I0403 13:34:30.248235 11656 net.cpp:425] inception_4d/3x3_reduce <- inception_4c/output_inception_4c/output_0_split_1
I0403 13:34:30.248255 11656 net.cpp:399] inception_4d/3x3_reduce -> inception_4d/3x3_reduce
I0403 13:34:30.249801 11656 net.cpp:141] Setting up inception_4d/3x3_reduce
I0403 13:34:30.249830 11656 net.cpp:148] Top shape: 24 144 14 14 (677376)
I0403 13:34:30.249845 11656 net.cpp:156] Memory required for data: 1118106912
I0403 13:34:30.249864 11656 layer_factory.hpp:77] Creating layer inception_4d/relu_3x3_reduce
I0403 13:34:30.249886 11656 net.cpp:91] Creating Layer inception_4d/relu_3x3_reduce
I0403 13:34:30.249902 11656 net.cpp:425] inception_4d/relu_3x3_reduce <- inception_4d/3x3_reduce
I0403 13:34:30.249919 11656 net.cpp:386] inception_4d/relu_3x3_reduce -> inception_4d/3x3_reduce (in-place)
I0403 13:34:30.250214 11656 net.cpp:141] Setting up inception_4d/relu_3x3_reduce
I0403 13:34:30.250241 11656 net.cpp:148] Top shape: 24 144 14 14 (677376)
I0403 13:34:30.250257 11656 net.cpp:156] Memory required for data: 1120816416
I0403 13:34:30.250272 11656 layer_factory.hpp:77] Creating layer inception_4d/3x3
I0403 13:34:30.250295 11656 net.cpp:91] Creating Layer inception_4d/3x3
I0403 13:34:30.250313 11656 net.cpp:425] inception_4d/3x3 <- inception_4d/3x3_reduce
I0403 13:34:30.250334 11656 net.cpp:399] inception_4d/3x3 -> inception_4d/3x3
I0403 13:34:30.254701 11656 net.cpp:141] Setting up inception_4d/3x3
I0403 13:34:30.254730 11656 net.cpp:148] Top shape: 24 288 14 14 (1354752)
I0403 13:34:30.254746 11656 net.cpp:156] Memory required for data: 1126235424
I0403 13:34:30.254765 11656 layer_factory.hpp:77] Creating layer inception_4d/relu_3x3
I0403 13:34:30.254786 11656 net.cpp:91] Creating Layer inception_4d/relu_3x3
I0403 13:34:30.254803 11656 net.cpp:425] inception_4d/relu_3x3 <- inception_4d/3x3
I0403 13:34:30.254822 11656 net.cpp:386] inception_4d/relu_3x3 -> inception_4d/3x3 (in-place)
I0403 13:34:30.255010 11656 net.cpp:141] Setting up inception_4d/relu_3x3
I0403 13:34:30.255035 11656 net.cpp:148] Top shape: 24 288 14 14 (1354752)
I0403 13:34:30.255050 11656 net.cpp:156] Memory required for data: 1131654432
I0403 13:34:30.255065 11656 layer_factory.hpp:77] Creating layer inception_4d/5x5_reduce
I0403 13:34:30.255089 11656 net.cpp:91] Creating Layer inception_4d/5x5_reduce
I0403 13:34:30.255105 11656 net.cpp:425] inception_4d/5x5_reduce <- inception_4c/output_inception_4c/output_0_split_2
I0403 13:34:30.255127 11656 net.cpp:399] inception_4d/5x5_reduce -> inception_4d/5x5_reduce
I0403 13:34:30.256320 11656 net.cpp:141] Setting up inception_4d/5x5_reduce
I0403 13:34:30.256350 11656 net.cpp:148] Top shape: 24 32 14 14 (150528)
I0403 13:34:30.256368 11656 net.cpp:156] Memory required for data: 1132256544
I0403 13:34:30.256386 11656 layer_factory.hpp:77] Creating layer inception_4d/relu_5x5_reduce
I0403 13:34:30.256405 11656 net.cpp:91] Creating Layer inception_4d/relu_5x5_reduce
I0403 13:34:30.256422 11656 net.cpp:425] inception_4d/relu_5x5_reduce <- inception_4d/5x5_reduce
I0403 13:34:30.256438 11656 net.cpp:386] inception_4d/relu_5x5_reduce -> inception_4d/5x5_reduce (in-place)
I0403 13:34:30.256639 11656 net.cpp:141] Setting up inception_4d/relu_5x5_reduce
I0403 13:34:30.256669 11656 net.cpp:148] Top shape: 24 32 14 14 (150528)
I0403 13:34:30.256685 11656 net.cpp:156] Memory required for data: 1132858656
I0403 13:34:30.256700 11656 layer_factory.hpp:77] Creating layer inception_4d/5x5
I0403 13:34:30.256721 11656 net.cpp:91] Creating Layer inception_4d/5x5
I0403 13:34:30.256739 11656 net.cpp:425] inception_4d/5x5 <- inception_4d/5x5_reduce
I0403 13:34:30.256758 11656 net.cpp:399] inception_4d/5x5 -> inception_4d/5x5
I0403 13:34:30.258294 11656 net.cpp:141] Setting up inception_4d/5x5
I0403 13:34:30.258323 11656 net.cpp:148] Top shape: 24 64 14 14 (301056)
I0403 13:34:30.258339 11656 net.cpp:156] Memory required for data: 1134062880
I0403 13:34:30.258359 11656 layer_factory.hpp:77] Creating layer inception_4d/relu_5x5
I0403 13:34:30.258394 11656 net.cpp:91] Creating Layer inception_4d/relu_5x5
I0403 13:34:30.258412 11656 net.cpp:425] inception_4d/relu_5x5 <- inception_4d/5x5
I0403 13:34:30.258432 11656 net.cpp:386] inception_4d/relu_5x5 -> inception_4d/5x5 (in-place)
I0403 13:34:30.258754 11656 net.cpp:141] Setting up inception_4d/relu_5x5
I0403 13:34:30.258780 11656 net.cpp:148] Top shape: 24 64 14 14 (301056)
I0403 13:34:30.258796 11656 net.cpp:156] Memory required for data: 1135267104
I0403 13:34:30.258811 11656 layer_factory.hpp:77] Creating layer inception_4d/pool
I0403 13:34:30.258828 11656 net.cpp:91] Creating Layer inception_4d/pool
I0403 13:34:30.258846 11656 net.cpp:425] inception_4d/pool <- inception_4c/output_inception_4c/output_0_split_3
I0403 13:34:30.258867 11656 net.cpp:399] inception_4d/pool -> inception_4d/pool
I0403 13:34:30.258934 11656 net.cpp:141] Setting up inception_4d/pool
I0403 13:34:30.258961 11656 net.cpp:148] Top shape: 24 512 14 14 (2408448)
I0403 13:34:30.258977 11656 net.cpp:156] Memory required for data: 1144900896
I0403 13:34:30.258991 11656 layer_factory.hpp:77] Creating layer inception_4d/pool_proj
I0403 13:34:30.259014 11656 net.cpp:91] Creating Layer inception_4d/pool_proj
I0403 13:34:30.259032 11656 net.cpp:425] inception_4d/pool_proj <- inception_4d/pool
I0403 13:34:30.259050 11656 net.cpp:399] inception_4d/pool_proj -> inception_4d/pool_proj
I0403 13:34:30.260851 11656 net.cpp:141] Setting up inception_4d/pool_proj
I0403 13:34:30.260880 11656 net.cpp:148] Top shape: 24 64 14 14 (301056)
I0403 13:34:30.260896 11656 net.cpp:156] Memory required for data: 1146105120
I0403 13:34:30.260915 11656 layer_factory.hpp:77] Creating layer inception_4d/relu_pool_proj
I0403 13:34:30.260936 11656 net.cpp:91] Creating Layer inception_4d/relu_pool_proj
I0403 13:34:30.260954 11656 net.cpp:425] inception_4d/relu_pool_proj <- inception_4d/pool_proj
I0403 13:34:30.260972 11656 net.cpp:386] inception_4d/relu_pool_proj -> inception_4d/pool_proj (in-place)
I0403 13:34:30.261162 11656 net.cpp:141] Setting up inception_4d/relu_pool_proj
I0403 13:34:30.261188 11656 net.cpp:148] Top shape: 24 64 14 14 (301056)
I0403 13:34:30.261203 11656 net.cpp:156] Memory required for data: 1147309344
I0403 13:34:30.261216 11656 layer_factory.hpp:77] Creating layer inception_4d/output
I0403 13:34:30.261234 11656 net.cpp:91] Creating Layer inception_4d/output
I0403 13:34:30.261250 11656 net.cpp:425] inception_4d/output <- inception_4d/1x1
I0403 13:34:30.261268 11656 net.cpp:425] inception_4d/output <- inception_4d/3x3
I0403 13:34:30.261284 11656 net.cpp:425] inception_4d/output <- inception_4d/5x5
I0403 13:34:30.261301 11656 net.cpp:425] inception_4d/output <- inception_4d/pool_proj
I0403 13:34:30.261319 11656 net.cpp:399] inception_4d/output -> inception_4d/output
I0403 13:34:30.261368 11656 net.cpp:141] Setting up inception_4d/output
I0403 13:34:30.261394 11656 net.cpp:148] Top shape: 24 528 14 14 (2483712)
I0403 13:34:30.261410 11656 net.cpp:156] Memory required for data: 1157244192
I0403 13:34:30.261425 11656 layer_factory.hpp:77] Creating layer inception_4d/output_inception_4d/output_0_split
I0403 13:34:30.261443 11656 net.cpp:91] Creating Layer inception_4d/output_inception_4d/output_0_split
I0403 13:34:30.261459 11656 net.cpp:425] inception_4d/output_inception_4d/output_0_split <- inception_4d/output
I0403 13:34:30.261476 11656 net.cpp:399] inception_4d/output_inception_4d/output_0_split -> inception_4d/output_inception_4d/output_0_split_0
I0403 13:34:30.261497 11656 net.cpp:399] inception_4d/output_inception_4d/output_0_split -> inception_4d/output_inception_4d/output_0_split_1
I0403 13:34:30.261525 11656 net.cpp:399] inception_4d/output_inception_4d/output_0_split -> inception_4d/output_inception_4d/output_0_split_2
I0403 13:34:30.261548 11656 net.cpp:399] inception_4d/output_inception_4d/output_0_split -> inception_4d/output_inception_4d/output_0_split_3
I0403 13:34:30.261569 11656 net.cpp:399] inception_4d/output_inception_4d/output_0_split -> inception_4d/output_inception_4d/output_0_split_4
I0403 13:34:30.261675 11656 net.cpp:141] Setting up inception_4d/output_inception_4d/output_0_split
I0403 13:34:30.261711 11656 net.cpp:148] Top shape: 24 528 14 14 (2483712)
I0403 13:34:30.261729 11656 net.cpp:148] Top shape: 24 528 14 14 (2483712)
I0403 13:34:30.261745 11656 net.cpp:148] Top shape: 24 528 14 14 (2483712)
I0403 13:34:30.261760 11656 net.cpp:148] Top shape: 24 528 14 14 (2483712)
I0403 13:34:30.261776 11656 net.cpp:148] Top shape: 24 528 14 14 (2483712)
I0403 13:34:30.261790 11656 net.cpp:156] Memory required for data: 1206918432
I0403 13:34:30.261804 11656 layer_factory.hpp:77] Creating layer loss2/ave_pool
I0403 13:34:30.261824 11656 net.cpp:91] Creating Layer loss2/ave_pool
I0403 13:34:30.261842 11656 net.cpp:425] loss2/ave_pool <- inception_4d/output_inception_4d/output_0_split_0
I0403 13:34:30.261860 11656 net.cpp:399] loss2/ave_pool -> loss2/ave_pool
I0403 13:34:30.262178 11656 net.cpp:141] Setting up loss2/ave_pool
I0403 13:34:30.262205 11656 net.cpp:148] Top shape: 24 528 4 4 (202752)
I0403 13:34:30.262222 11656 net.cpp:156] Memory required for data: 1207729440
I0403 13:34:30.262235 11656 layer_factory.hpp:77] Creating layer loss2/conv
I0403 13:34:30.262259 11656 net.cpp:91] Creating Layer loss2/conv
I0403 13:34:30.262277 11656 net.cpp:425] loss2/conv <- loss2/ave_pool
I0403 13:34:30.262297 11656 net.cpp:399] loss2/conv -> loss2/conv
I0403 13:34:30.264210 11656 net.cpp:141] Setting up loss2/conv
I0403 13:34:30.264238 11656 net.cpp:148] Top shape: 24 128 4 4 (49152)
I0403 13:34:30.264253 11656 net.cpp:156] Memory required for data: 1207926048
I0403 13:34:30.264272 11656 layer_factory.hpp:77] Creating layer loss2/relu_conv
I0403 13:34:30.264291 11656 net.cpp:91] Creating Layer loss2/relu_conv
I0403 13:34:30.264307 11656 net.cpp:425] loss2/relu_conv <- loss2/conv
I0403 13:34:30.264325 11656 net.cpp:386] loss2/relu_conv -> loss2/conv (in-place)
I0403 13:34:30.264621 11656 net.cpp:141] Setting up loss2/relu_conv
I0403 13:34:30.264647 11656 net.cpp:148] Top shape: 24 128 4 4 (49152)
I0403 13:34:30.264662 11656 net.cpp:156] Memory required for data: 1208122656
I0403 13:34:30.264677 11656 layer_factory.hpp:77] Creating layer loss2/fc
I0403 13:34:30.264695 11656 net.cpp:91] Creating Layer loss2/fc
I0403 13:34:30.264711 11656 net.cpp:425] loss2/fc <- loss2/conv
I0403 13:34:30.264731 11656 net.cpp:399] loss2/fc -> loss2/fc
I0403 13:34:30.282292 11656 net.cpp:141] Setting up loss2/fc
I0403 13:34:30.282341 11656 net.cpp:148] Top shape: 24 1024 (24576)
I0403 13:34:30.282356 11656 net.cpp:156] Memory required for data: 1208220960
I0403 13:34:30.282377 11656 layer_factory.hpp:77] Creating layer loss2/relu_fc
I0403 13:34:30.282397 11656 net.cpp:91] Creating Layer loss2/relu_fc
I0403 13:34:30.282413 11656 net.cpp:425] loss2/relu_fc <- loss2/fc
I0403 13:34:30.282431 11656 net.cpp:386] loss2/relu_fc -> loss2/fc (in-place)
I0403 13:34:30.282770 11656 net.cpp:141] Setting up loss2/relu_fc
I0403 13:34:30.282799 11656 net.cpp:148] Top shape: 24 1024 (24576)
I0403 13:34:30.282815 11656 net.cpp:156] Memory required for data: 1208319264
I0403 13:34:30.282830 11656 layer_factory.hpp:77] Creating layer loss2/drop_fc
I0403 13:34:30.282848 11656 net.cpp:91] Creating Layer loss2/drop_fc
I0403 13:34:30.282863 11656 net.cpp:425] loss2/drop_fc <- loss2/fc
I0403 13:34:30.282881 11656 net.cpp:386] loss2/drop_fc -> loss2/fc (in-place)
I0403 13:34:30.282933 11656 net.cpp:141] Setting up loss2/drop_fc
I0403 13:34:30.282956 11656 net.cpp:148] Top shape: 24 1024 (24576)
I0403 13:34:30.282971 11656 net.cpp:156] Memory required for data: 1208417568
I0403 13:34:30.282984 11656 layer_factory.hpp:77] Creating layer loss2/classifier_plantvillage
I0403 13:34:30.283005 11656 net.cpp:91] Creating Layer loss2/classifier_plantvillage
I0403 13:34:30.283022 11656 net.cpp:425] loss2/classifier_plantvillage <- loss2/fc
I0403 13:34:30.283040 11656 net.cpp:399] loss2/classifier_plantvillage -> loss2/classifier_plantvillage
I0403 13:34:30.283452 11656 net.cpp:141] Setting up loss2/classifier_plantvillage
I0403 13:34:30.283476 11656 net.cpp:148] Top shape: 24 38 (912)
I0403 13:34:30.283520 11656 net.cpp:156] Memory required for data: 1208421216
I0403 13:34:30.283540 11656 layer_factory.hpp:77] Creating layer loss2/classifier_plantvillage_loss2/classifier_plantvillage_0_split
I0403 13:34:30.283558 11656 net.cpp:91] Creating Layer loss2/classifier_plantvillage_loss2/classifier_plantvillage_0_split
I0403 13:34:30.283573 11656 net.cpp:425] loss2/classifier_plantvillage_loss2/classifier_plantvillage_0_split <- loss2/classifier_plantvillage
I0403 13:34:30.283593 11656 net.cpp:399] loss2/classifier_plantvillage_loss2/classifier_plantvillage_0_split -> loss2/classifier_plantvillage_loss2/classifier_plantvillage_0_split_0
I0403 13:34:30.283613 11656 net.cpp:399] loss2/classifier_plantvillage_loss2/classifier_plantvillage_0_split -> loss2/classifier_plantvillage_loss2/classifier_plantvillage_0_split_1
I0403 13:34:30.283633 11656 net.cpp:399] loss2/classifier_plantvillage_loss2/classifier_plantvillage_0_split -> loss2/classifier_plantvillage_loss2/classifier_plantvillage_0_split_2
I0403 13:34:30.283710 11656 net.cpp:141] Setting up loss2/classifier_plantvillage_loss2/classifier_plantvillage_0_split
I0403 13:34:30.283733 11656 net.cpp:148] Top shape: 24 38 (912)
I0403 13:34:30.283751 11656 net.cpp:148] Top shape: 24 38 (912)
I0403 13:34:30.283766 11656 net.cpp:148] Top shape: 24 38 (912)
I0403 13:34:30.283778 11656 net.cpp:156] Memory required for data: 1208432160
I0403 13:34:30.283793 11656 layer_factory.hpp:77] Creating layer inception_4e/1x1
I0403 13:34:30.283815 11656 net.cpp:91] Creating Layer inception_4e/1x1
I0403 13:34:30.283833 11656 net.cpp:425] inception_4e/1x1 <- inception_4d/output_inception_4d/output_0_split_1
I0403 13:34:30.283851 11656 net.cpp:399] inception_4e/1x1 -> inception_4e/1x1
I0403 13:34:30.285804 11656 net.cpp:141] Setting up inception_4e/1x1
I0403 13:34:30.285831 11656 net.cpp:148] Top shape: 24 256 14 14 (1204224)
I0403 13:34:30.285847 11656 net.cpp:156] Memory required for data: 1213249056
I0403 13:34:30.285866 11656 layer_factory.hpp:77] Creating layer inception_4e/relu_1x1
I0403 13:34:30.285887 11656 net.cpp:91] Creating Layer inception_4e/relu_1x1
I0403 13:34:30.285903 11656 net.cpp:425] inception_4e/relu_1x1 <- inception_4e/1x1
I0403 13:34:30.285920 11656 net.cpp:386] inception_4e/relu_1x1 -> inception_4e/1x1 (in-place)
I0403 13:34:30.286224 11656 net.cpp:141] Setting up inception_4e/relu_1x1
I0403 13:34:30.286250 11656 net.cpp:148] Top shape: 24 256 14 14 (1204224)
I0403 13:34:30.286267 11656 net.cpp:156] Memory required for data: 1218065952
I0403 13:34:30.286281 11656 layer_factory.hpp:77] Creating layer inception_4e/3x3_reduce
I0403 13:34:30.286303 11656 net.cpp:91] Creating Layer inception_4e/3x3_reduce
I0403 13:34:30.286320 11656 net.cpp:425] inception_4e/3x3_reduce <- inception_4d/output_inception_4d/output_0_split_2
I0403 13:34:30.286341 11656 net.cpp:399] inception_4e/3x3_reduce -> inception_4e/3x3_reduce
I0403 13:34:30.288480 11656 net.cpp:141] Setting up inception_4e/3x3_reduce
I0403 13:34:30.288511 11656 net.cpp:148] Top shape: 24 160 14 14 (752640)
I0403 13:34:30.288528 11656 net.cpp:156] Memory required for data: 1221076512
I0403 13:34:30.288547 11656 layer_factory.hpp:77] Creating layer inception_4e/relu_3x3_reduce
I0403 13:34:30.288565 11656 net.cpp:91] Creating Layer inception_4e/relu_3x3_reduce
I0403 13:34:30.288581 11656 net.cpp:425] inception_4e/relu_3x3_reduce <- inception_4e/3x3_reduce
I0403 13:34:30.288599 11656 net.cpp:386] inception_4e/relu_3x3_reduce -> inception_4e/3x3_reduce (in-place)
I0403 13:34:30.288786 11656 net.cpp:141] Setting up inception_4e/relu_3x3_reduce
I0403 13:34:30.288811 11656 net.cpp:148] Top shape: 24 160 14 14 (752640)
I0403 13:34:30.288825 11656 net.cpp:156] Memory required for data: 1224087072
I0403 13:34:30.288839 11656 layer_factory.hpp:77] Creating layer inception_4e/3x3
I0403 13:34:30.288861 11656 net.cpp:91] Creating Layer inception_4e/3x3
I0403 13:34:30.288878 11656 net.cpp:425] inception_4e/3x3 <- inception_4e/3x3_reduce
I0403 13:34:30.288898 11656 net.cpp:399] inception_4e/3x3 -> inception_4e/3x3
I0403 13:34:30.293903 11656 net.cpp:141] Setting up inception_4e/3x3
I0403 13:34:30.293946 11656 net.cpp:148] Top shape: 24 320 14 14 (1505280)
I0403 13:34:30.293962 11656 net.cpp:156] Memory required for data: 1230108192
I0403 13:34:30.293979 11656 layer_factory.hpp:77] Creating layer inception_4e/relu_3x3
I0403 13:34:30.293999 11656 net.cpp:91] Creating Layer inception_4e/relu_3x3
I0403 13:34:30.294016 11656 net.cpp:425] inception_4e/relu_3x3 <- inception_4e/3x3
I0403 13:34:30.294033 11656 net.cpp:386] inception_4e/relu_3x3 -> inception_4e/3x3 (in-place)
I0403 13:34:30.294335 11656 net.cpp:141] Setting up inception_4e/relu_3x3
I0403 13:34:30.294363 11656 net.cpp:148] Top shape: 24 320 14 14 (1505280)
I0403 13:34:30.294378 11656 net.cpp:156] Memory required for data: 1236129312
I0403 13:34:30.294391 11656 layer_factory.hpp:77] Creating layer inception_4e/5x5_reduce
I0403 13:34:30.294414 11656 net.cpp:91] Creating Layer inception_4e/5x5_reduce
I0403 13:34:30.294431 11656 net.cpp:425] inception_4e/5x5_reduce <- inception_4d/output_inception_4d/output_0_split_3
I0403 13:34:30.294452 11656 net.cpp:399] inception_4e/5x5_reduce -> inception_4e/5x5_reduce
I0403 13:34:30.295548 11656 net.cpp:141] Setting up inception_4e/5x5_reduce
I0403 13:34:30.295577 11656 net.cpp:148] Top shape: 24 32 14 14 (150528)
I0403 13:34:30.295593 11656 net.cpp:156] Memory required for data: 1236731424
I0403 13:34:30.295610 11656 layer_factory.hpp:77] Creating layer inception_4e/relu_5x5_reduce
I0403 13:34:30.295629 11656 net.cpp:91] Creating Layer inception_4e/relu_5x5_reduce
I0403 13:34:30.295644 11656 net.cpp:425] inception_4e/relu_5x5_reduce <- inception_4e/5x5_reduce
I0403 13:34:30.295663 11656 net.cpp:386] inception_4e/relu_5x5_reduce -> inception_4e/5x5_reduce (in-place)
I0403 13:34:30.295967 11656 net.cpp:141] Setting up inception_4e/relu_5x5_reduce
I0403 13:34:30.295992 11656 net.cpp:148] Top shape: 24 32 14 14 (150528)
I0403 13:34:30.296008 11656 net.cpp:156] Memory required for data: 1237333536
I0403 13:34:30.296022 11656 layer_factory.hpp:77] Creating layer inception_4e/5x5
I0403 13:34:30.296062 11656 net.cpp:91] Creating Layer inception_4e/5x5
I0403 13:34:30.296082 11656 net.cpp:425] inception_4e/5x5 <- inception_4e/5x5_reduce
I0403 13:34:30.296099 11656 net.cpp:399] inception_4e/5x5 -> inception_4e/5x5
I0403 13:34:30.297953 11656 net.cpp:141] Setting up inception_4e/5x5
I0403 13:34:30.297983 11656 net.cpp:148] Top shape: 24 128 14 14 (602112)
I0403 13:34:30.297999 11656 net.cpp:156] Memory required for data: 1239741984
I0403 13:34:30.298018 11656 layer_factory.hpp:77] Creating layer inception_4e/relu_5x5
I0403 13:34:30.298035 11656 net.cpp:91] Creating Layer inception_4e/relu_5x5
I0403 13:34:30.298051 11656 net.cpp:425] inception_4e/relu_5x5 <- inception_4e/5x5
I0403 13:34:30.298070 11656 net.cpp:386] inception_4e/relu_5x5 -> inception_4e/5x5 (in-place)
I0403 13:34:30.298266 11656 net.cpp:141] Setting up inception_4e/relu_5x5
I0403 13:34:30.298291 11656 net.cpp:148] Top shape: 24 128 14 14 (602112)
I0403 13:34:30.298306 11656 net.cpp:156] Memory required for data: 1242150432
I0403 13:34:30.298321 11656 layer_factory.hpp:77] Creating layer inception_4e/pool
I0403 13:34:30.298338 11656 net.cpp:91] Creating Layer inception_4e/pool
I0403 13:34:30.298354 11656 net.cpp:425] inception_4e/pool <- inception_4d/output_inception_4d/output_0_split_4
I0403 13:34:30.298373 11656 net.cpp:399] inception_4e/pool -> inception_4e/pool
I0403 13:34:30.298445 11656 net.cpp:141] Setting up inception_4e/pool
I0403 13:34:30.298468 11656 net.cpp:148] Top shape: 24 528 14 14 (2483712)
I0403 13:34:30.298483 11656 net.cpp:156] Memory required for data: 1252085280
I0403 13:34:30.298496 11656 layer_factory.hpp:77] Creating layer inception_4e/pool_proj
I0403 13:34:30.298526 11656 net.cpp:91] Creating Layer inception_4e/pool_proj
I0403 13:34:30.298543 11656 net.cpp:425] inception_4e/pool_proj <- inception_4e/pool
I0403 13:34:30.298563 11656 net.cpp:399] inception_4e/pool_proj -> inception_4e/pool_proj
I0403 13:34:30.300109 11656 net.cpp:141] Setting up inception_4e/pool_proj
I0403 13:34:30.300150 11656 net.cpp:148] Top shape: 24 128 14 14 (602112)
I0403 13:34:30.300168 11656 net.cpp:156] Memory required for data: 1254493728
I0403 13:34:30.300186 11656 layer_factory.hpp:77] Creating layer inception_4e/relu_pool_proj
I0403 13:34:30.300207 11656 net.cpp:91] Creating Layer inception_4e/relu_pool_proj
I0403 13:34:30.300225 11656 net.cpp:425] inception_4e/relu_pool_proj <- inception_4e/pool_proj
I0403 13:34:30.300241 11656 net.cpp:386] inception_4e/relu_pool_proj -> inception_4e/pool_proj (in-place)
I0403 13:34:30.300552 11656 net.cpp:141] Setting up inception_4e/relu_pool_proj
I0403 13:34:30.300580 11656 net.cpp:148] Top shape: 24 128 14 14 (602112)
I0403 13:34:30.300595 11656 net.cpp:156] Memory required for data: 1256902176
I0403 13:34:30.300611 11656 layer_factory.hpp:77] Creating layer inception_4e/output
I0403 13:34:30.300631 11656 net.cpp:91] Creating Layer inception_4e/output
I0403 13:34:30.300647 11656 net.cpp:425] inception_4e/output <- inception_4e/1x1
I0403 13:34:30.300664 11656 net.cpp:425] inception_4e/output <- inception_4e/3x3
I0403 13:34:30.300680 11656 net.cpp:425] inception_4e/output <- inception_4e/5x5
I0403 13:34:30.300696 11656 net.cpp:425] inception_4e/output <- inception_4e/pool_proj
I0403 13:34:30.300714 11656 net.cpp:399] inception_4e/output -> inception_4e/output
I0403 13:34:30.300765 11656 net.cpp:141] Setting up inception_4e/output
I0403 13:34:30.300789 11656 net.cpp:148] Top shape: 24 832 14 14 (3913728)
I0403 13:34:30.300804 11656 net.cpp:156] Memory required for data: 1272557088
I0403 13:34:30.300819 11656 layer_factory.hpp:77] Creating layer pool4/3x3_s2
I0403 13:34:30.300837 11656 net.cpp:91] Creating Layer pool4/3x3_s2
I0403 13:34:30.300853 11656 net.cpp:425] pool4/3x3_s2 <- inception_4e/output
I0403 13:34:30.300873 11656 net.cpp:399] pool4/3x3_s2 -> pool4/3x3_s2
I0403 13:34:30.300945 11656 net.cpp:141] Setting up pool4/3x3_s2
I0403 13:34:30.300971 11656 net.cpp:148] Top shape: 24 832 7 7 (978432)
I0403 13:34:30.300986 11656 net.cpp:156] Memory required for data: 1276470816
I0403 13:34:30.301000 11656 layer_factory.hpp:77] Creating layer pool4/3x3_s2_pool4/3x3_s2_0_split
I0403 13:34:30.301017 11656 net.cpp:91] Creating Layer pool4/3x3_s2_pool4/3x3_s2_0_split
I0403 13:34:30.301033 11656 net.cpp:425] pool4/3x3_s2_pool4/3x3_s2_0_split <- pool4/3x3_s2
I0403 13:34:30.301053 11656 net.cpp:399] pool4/3x3_s2_pool4/3x3_s2_0_split -> pool4/3x3_s2_pool4/3x3_s2_0_split_0
I0403 13:34:30.301074 11656 net.cpp:399] pool4/3x3_s2_pool4/3x3_s2_0_split -> pool4/3x3_s2_pool4/3x3_s2_0_split_1
I0403 13:34:30.301095 11656 net.cpp:399] pool4/3x3_s2_pool4/3x3_s2_0_split -> pool4/3x3_s2_pool4/3x3_s2_0_split_2
I0403 13:34:30.301115 11656 net.cpp:399] pool4/3x3_s2_pool4/3x3_s2_0_split -> pool4/3x3_s2_pool4/3x3_s2_0_split_3
I0403 13:34:30.301206 11656 net.cpp:141] Setting up pool4/3x3_s2_pool4/3x3_s2_0_split
I0403 13:34:30.301232 11656 net.cpp:148] Top shape: 24 832 7 7 (978432)
I0403 13:34:30.301249 11656 net.cpp:148] Top shape: 24 832 7 7 (978432)
I0403 13:34:30.301265 11656 net.cpp:148] Top shape: 24 832 7 7 (978432)
I0403 13:34:30.301280 11656 net.cpp:148] Top shape: 24 832 7 7 (978432)
I0403 13:34:30.301297 11656 net.cpp:156] Memory required for data: 1292125728
I0403 13:34:30.301311 11656 layer_factory.hpp:77] Creating layer inception_5a/1x1
I0403 13:34:30.301334 11656 net.cpp:91] Creating Layer inception_5a/1x1
I0403 13:34:30.301352 11656 net.cpp:425] inception_5a/1x1 <- pool4/3x3_s2_pool4/3x3_s2_0_split_0
I0403 13:34:30.301370 11656 net.cpp:399] inception_5a/1x1 -> inception_5a/1x1
I0403 13:34:30.304384 11656 net.cpp:141] Setting up inception_5a/1x1
I0403 13:34:30.304414 11656 net.cpp:148] Top shape: 24 256 7 7 (301056)
I0403 13:34:30.304431 11656 net.cpp:156] Memory required for data: 1293329952
I0403 13:34:30.304450 11656 layer_factory.hpp:77] Creating layer inception_5a/relu_1x1
I0403 13:34:30.304467 11656 net.cpp:91] Creating Layer inception_5a/relu_1x1
I0403 13:34:30.304483 11656 net.cpp:425] inception_5a/relu_1x1 <- inception_5a/1x1
I0403 13:34:30.304503 11656 net.cpp:386] inception_5a/relu_1x1 -> inception_5a/1x1 (in-place)
I0403 13:34:30.304836 11656 net.cpp:141] Setting up inception_5a/relu_1x1
I0403 13:34:30.304863 11656 net.cpp:148] Top shape: 24 256 7 7 (301056)
I0403 13:34:30.304879 11656 net.cpp:156] Memory required for data: 1294534176
I0403 13:34:30.304894 11656 layer_factory.hpp:77] Creating layer inception_5a/3x3_reduce
I0403 13:34:30.304918 11656 net.cpp:91] Creating Layer inception_5a/3x3_reduce
I0403 13:34:30.304935 11656 net.cpp:425] inception_5a/3x3_reduce <- pool4/3x3_s2_pool4/3x3_s2_0_split_1
I0403 13:34:30.304957 11656 net.cpp:399] inception_5a/3x3_reduce -> inception_5a/3x3_reduce
I0403 13:34:30.307483 11656 net.cpp:141] Setting up inception_5a/3x3_reduce
I0403 13:34:30.307517 11656 net.cpp:148] Top shape: 24 160 7 7 (188160)
I0403 13:34:30.307533 11656 net.cpp:156] Memory required for data: 1295286816
I0403 13:34:30.307553 11656 layer_factory.hpp:77] Creating layer inception_5a/relu_3x3_reduce
I0403 13:34:30.307574 11656 net.cpp:91] Creating Layer inception_5a/relu_3x3_reduce
I0403 13:34:30.307590 11656 net.cpp:425] inception_5a/relu_3x3_reduce <- inception_5a/3x3_reduce
I0403 13:34:30.307608 11656 net.cpp:386] inception_5a/relu_3x3_reduce -> inception_5a/3x3_reduce (in-place)
I0403 13:34:30.307801 11656 net.cpp:141] Setting up inception_5a/relu_3x3_reduce
I0403 13:34:30.307828 11656 net.cpp:148] Top shape: 24 160 7 7 (188160)
I0403 13:34:30.307844 11656 net.cpp:156] Memory required for data: 1296039456
I0403 13:34:30.307859 11656 layer_factory.hpp:77] Creating layer inception_5a/3x3
I0403 13:34:30.307883 11656 net.cpp:91] Creating Layer inception_5a/3x3
I0403 13:34:30.307901 11656 net.cpp:425] inception_5a/3x3 <- inception_5a/3x3_reduce
I0403 13:34:30.307920 11656 net.cpp:399] inception_5a/3x3 -> inception_5a/3x3
I0403 13:34:30.313091 11656 net.cpp:141] Setting up inception_5a/3x3
I0403 13:34:30.313122 11656 net.cpp:148] Top shape: 24 320 7 7 (376320)
I0403 13:34:30.313139 11656 net.cpp:156] Memory required for data: 1297544736
I0403 13:34:30.313158 11656 layer_factory.hpp:77] Creating layer inception_5a/relu_3x3
I0403 13:34:30.313177 11656 net.cpp:91] Creating Layer inception_5a/relu_3x3
I0403 13:34:30.313194 11656 net.cpp:425] inception_5a/relu_3x3 <- inception_5a/3x3
I0403 13:34:30.313215 11656 net.cpp:386] inception_5a/relu_3x3 -> inception_5a/3x3 (in-place)
I0403 13:34:30.313551 11656 net.cpp:141] Setting up inception_5a/relu_3x3
I0403 13:34:30.313581 11656 net.cpp:148] Top shape: 24 320 7 7 (376320)
I0403 13:34:30.313597 11656 net.cpp:156] Memory required for data: 1299050016
I0403 13:34:30.313612 11656 layer_factory.hpp:77] Creating layer inception_5a/5x5_reduce
I0403 13:34:30.313637 11656 net.cpp:91] Creating Layer inception_5a/5x5_reduce
I0403 13:34:30.313655 11656 net.cpp:425] inception_5a/5x5_reduce <- pool4/3x3_s2_pool4/3x3_s2_0_split_2
I0403 13:34:30.313675 11656 net.cpp:399] inception_5a/5x5_reduce -> inception_5a/5x5_reduce
I0403 13:34:30.314887 11656 net.cpp:141] Setting up inception_5a/5x5_reduce
I0403 13:34:30.314918 11656 net.cpp:148] Top shape: 24 32 7 7 (37632)
I0403 13:34:30.314934 11656 net.cpp:156] Memory required for data: 1299200544
I0403 13:34:30.314954 11656 layer_factory.hpp:77] Creating layer inception_5a/relu_5x5_reduce
I0403 13:34:30.314971 11656 net.cpp:91] Creating Layer inception_5a/relu_5x5_reduce
I0403 13:34:30.314987 11656 net.cpp:425] inception_5a/relu_5x5_reduce <- inception_5a/5x5_reduce
I0403 13:34:30.315007 11656 net.cpp:386] inception_5a/relu_5x5_reduce -> inception_5a/5x5_reduce (in-place)
I0403 13:34:30.315340 11656 net.cpp:141] Setting up inception_5a/relu_5x5_reduce
I0403 13:34:30.315367 11656 net.cpp:148] Top shape: 24 32 7 7 (37632)
I0403 13:34:30.315383 11656 net.cpp:156] Memory required for data: 1299351072
I0403 13:34:30.315399 11656 layer_factory.hpp:77] Creating layer inception_5a/5x5
I0403 13:34:30.315423 11656 net.cpp:91] Creating Layer inception_5a/5x5
I0403 13:34:30.315441 11656 net.cpp:425] inception_5a/5x5 <- inception_5a/5x5_reduce
I0403 13:34:30.315464 11656 net.cpp:399] inception_5a/5x5 -> inception_5a/5x5
I0403 13:34:30.317265 11656 net.cpp:141] Setting up inception_5a/5x5
I0403 13:34:30.317312 11656 net.cpp:148] Top shape: 24 128 7 7 (150528)
I0403 13:34:30.317329 11656 net.cpp:156] Memory required for data: 1299953184
I0403 13:34:30.317348 11656 layer_factory.hpp:77] Creating layer inception_5a/relu_5x5
I0403 13:34:30.317366 11656 net.cpp:91] Creating Layer inception_5a/relu_5x5
I0403 13:34:30.317384 11656 net.cpp:425] inception_5a/relu_5x5 <- inception_5a/5x5
I0403 13:34:30.317404 11656 net.cpp:386] inception_5a/relu_5x5 -> inception_5a/5x5 (in-place)
I0403 13:34:30.317605 11656 net.cpp:141] Setting up inception_5a/relu_5x5
I0403 13:34:30.317631 11656 net.cpp:148] Top shape: 24 128 7 7 (150528)
I0403 13:34:30.317653 11656 net.cpp:156] Memory required for data: 1300555296
I0403 13:34:30.317668 11656 layer_factory.hpp:77] Creating layer inception_5a/pool
I0403 13:34:30.317687 11656 net.cpp:91] Creating Layer inception_5a/pool
I0403 13:34:30.317703 11656 net.cpp:425] inception_5a/pool <- pool4/3x3_s2_pool4/3x3_s2_0_split_3
I0403 13:34:30.317723 11656 net.cpp:399] inception_5a/pool -> inception_5a/pool
I0403 13:34:30.317796 11656 net.cpp:141] Setting up inception_5a/pool
I0403 13:34:30.317821 11656 net.cpp:148] Top shape: 24 832 7 7 (978432)
I0403 13:34:30.317836 11656 net.cpp:156] Memory required for data: 1304469024
I0403 13:34:30.317852 11656 layer_factory.hpp:77] Creating layer inception_5a/pool_proj
I0403 13:34:30.317875 11656 net.cpp:91] Creating Layer inception_5a/pool_proj
I0403 13:34:30.317893 11656 net.cpp:425] inception_5a/pool_proj <- inception_5a/pool
I0403 13:34:30.317924 11656 net.cpp:399] inception_5a/pool_proj -> inception_5a/pool_proj
I0403 13:34:30.320217 11656 net.cpp:141] Setting up inception_5a/pool_proj
I0403 13:34:30.320250 11656 net.cpp:148] Top shape: 24 128 7 7 (150528)
I0403 13:34:30.320266 11656 net.cpp:156] Memory required for data: 1305071136
I0403 13:34:30.320284 11656 layer_factory.hpp:77] Creating layer inception_5a/relu_pool_proj
I0403 13:34:30.320302 11656 net.cpp:91] Creating Layer inception_5a/relu_pool_proj
I0403 13:34:30.320318 11656 net.cpp:425] inception_5a/relu_pool_proj <- inception_5a/pool_proj
I0403 13:34:30.320335 11656 net.cpp:386] inception_5a/relu_pool_proj -> inception_5a/pool_proj (in-place)
I0403 13:34:30.320638 11656 net.cpp:141] Setting up inception_5a/relu_pool_proj
I0403 13:34:30.320667 11656 net.cpp:148] Top shape: 24 128 7 7 (150528)
I0403 13:34:30.320683 11656 net.cpp:156] Memory required for data: 1305673248
I0403 13:34:30.320696 11656 layer_factory.hpp:77] Creating layer inception_5a/output
I0403 13:34:30.320713 11656 net.cpp:91] Creating Layer inception_5a/output
I0403 13:34:30.320729 11656 net.cpp:425] inception_5a/output <- inception_5a/1x1
I0403 13:34:30.320746 11656 net.cpp:425] inception_5a/output <- inception_5a/3x3
I0403 13:34:30.320762 11656 net.cpp:425] inception_5a/output <- inception_5a/5x5
I0403 13:34:30.320777 11656 net.cpp:425] inception_5a/output <- inception_5a/pool_proj
I0403 13:34:30.320794 11656 net.cpp:399] inception_5a/output -> inception_5a/output
I0403 13:34:30.320845 11656 net.cpp:141] Setting up inception_5a/output
I0403 13:34:30.320869 11656 net.cpp:148] Top shape: 24 832 7 7 (978432)
I0403 13:34:30.320883 11656 net.cpp:156] Memory required for data: 1309586976
I0403 13:34:30.320899 11656 layer_factory.hpp:77] Creating layer inception_5a/output_inception_5a/output_0_split
I0403 13:34:30.320915 11656 net.cpp:91] Creating Layer inception_5a/output_inception_5a/output_0_split
I0403 13:34:30.320933 11656 net.cpp:425] inception_5a/output_inception_5a/output_0_split <- inception_5a/output
I0403 13:34:30.320950 11656 net.cpp:399] inception_5a/output_inception_5a/output_0_split -> inception_5a/output_inception_5a/output_0_split_0
I0403 13:34:30.320971 11656 net.cpp:399] inception_5a/output_inception_5a/output_0_split -> inception_5a/output_inception_5a/output_0_split_1
I0403 13:34:30.320991 11656 net.cpp:399] inception_5a/output_inception_5a/output_0_split -> inception_5a/output_inception_5a/output_0_split_2
I0403 13:34:30.321012 11656 net.cpp:399] inception_5a/output_inception_5a/output_0_split -> inception_5a/output_inception_5a/output_0_split_3
I0403 13:34:30.321125 11656 net.cpp:141] Setting up inception_5a/output_inception_5a/output_0_split
I0403 13:34:30.321148 11656 net.cpp:148] Top shape: 24 832 7 7 (978432)
I0403 13:34:30.321164 11656 net.cpp:148] Top shape: 24 832 7 7 (978432)
I0403 13:34:30.321179 11656 net.cpp:148] Top shape: 24 832 7 7 (978432)
I0403 13:34:30.321195 11656 net.cpp:148] Top shape: 24 832 7 7 (978432)
I0403 13:34:30.321208 11656 net.cpp:156] Memory required for data: 1325241888
I0403 13:34:30.321223 11656 layer_factory.hpp:77] Creating layer inception_5b/1x1
I0403 13:34:30.321244 11656 net.cpp:91] Creating Layer inception_5b/1x1
I0403 13:34:30.321264 11656 net.cpp:425] inception_5b/1x1 <- inception_5a/output_inception_5a/output_0_split_0
I0403 13:34:30.321285 11656 net.cpp:399] inception_5b/1x1 -> inception_5b/1x1
I0403 13:34:30.325063 11656 net.cpp:141] Setting up inception_5b/1x1
I0403 13:34:30.325093 11656 net.cpp:148] Top shape: 24 384 7 7 (451584)
I0403 13:34:30.325109 11656 net.cpp:156] Memory required for data: 1327048224
I0403 13:34:30.325125 11656 layer_factory.hpp:77] Creating layer inception_5b/relu_1x1
I0403 13:34:30.325145 11656 net.cpp:91] Creating Layer inception_5b/relu_1x1
I0403 13:34:30.325162 11656 net.cpp:425] inception_5b/relu_1x1 <- inception_5b/1x1
I0403 13:34:30.325179 11656 net.cpp:386] inception_5b/relu_1x1 -> inception_5b/1x1 (in-place)
I0403 13:34:30.325486 11656 net.cpp:141] Setting up inception_5b/relu_1x1
I0403 13:34:30.325516 11656 net.cpp:148] Top shape: 24 384 7 7 (451584)
I0403 13:34:30.325532 11656 net.cpp:156] Memory required for data: 1328854560
I0403 13:34:30.325546 11656 layer_factory.hpp:77] Creating layer inception_5b/3x3_reduce
I0403 13:34:30.325569 11656 net.cpp:91] Creating Layer inception_5b/3x3_reduce
I0403 13:34:30.325587 11656 net.cpp:425] inception_5b/3x3_reduce <- inception_5a/output_inception_5a/output_0_split_1
I0403 13:34:30.325609 11656 net.cpp:399] inception_5b/3x3_reduce -> inception_5b/3x3_reduce
I0403 13:34:30.328270 11656 net.cpp:141] Setting up inception_5b/3x3_reduce
I0403 13:34:30.328301 11656 net.cpp:148] Top shape: 24 192 7 7 (225792)
I0403 13:34:30.328320 11656 net.cpp:156] Memory required for data: 1329757728
I0403 13:34:30.328338 11656 layer_factory.hpp:77] Creating layer inception_5b/relu_3x3_reduce
I0403 13:34:30.328356 11656 net.cpp:91] Creating Layer inception_5b/relu_3x3_reduce
I0403 13:34:30.328372 11656 net.cpp:425] inception_5b/relu_3x3_reduce <- inception_5b/3x3_reduce
I0403 13:34:30.328389 11656 net.cpp:386] inception_5b/relu_3x3_reduce -> inception_5b/3x3_reduce (in-place)
I0403 13:34:30.328585 11656 net.cpp:141] Setting up inception_5b/relu_3x3_reduce
I0403 13:34:30.328613 11656 net.cpp:148] Top shape: 24 192 7 7 (225792)
I0403 13:34:30.328629 11656 net.cpp:156] Memory required for data: 1330660896
I0403 13:34:30.328642 11656 layer_factory.hpp:77] Creating layer inception_5b/3x3
I0403 13:34:30.328663 11656 net.cpp:91] Creating Layer inception_5b/3x3
I0403 13:34:30.328680 11656 net.cpp:425] inception_5b/3x3 <- inception_5b/3x3_reduce
I0403 13:34:30.328699 11656 net.cpp:399] inception_5b/3x3 -> inception_5b/3x3
I0403 13:34:30.335420 11656 net.cpp:141] Setting up inception_5b/3x3
I0403 13:34:30.335453 11656 net.cpp:148] Top shape: 24 384 7 7 (451584)
I0403 13:34:30.335469 11656 net.cpp:156] Memory required for data: 1332467232
I0403 13:34:30.335487 11656 layer_factory.hpp:77] Creating layer inception_5b/relu_3x3
I0403 13:34:30.335510 11656 net.cpp:91] Creating Layer inception_5b/relu_3x3
I0403 13:34:30.335528 11656 net.cpp:425] inception_5b/relu_3x3 <- inception_5b/3x3
I0403 13:34:30.335544 11656 net.cpp:386] inception_5b/relu_3x3 -> inception_5b/3x3 (in-place)
I0403 13:34:30.335847 11656 net.cpp:141] Setting up inception_5b/relu_3x3
I0403 13:34:30.335875 11656 net.cpp:148] Top shape: 24 384 7 7 (451584)
I0403 13:34:30.335891 11656 net.cpp:156] Memory required for data: 1334273568
I0403 13:34:30.335906 11656 layer_factory.hpp:77] Creating layer inception_5b/5x5_reduce
I0403 13:34:30.335945 11656 net.cpp:91] Creating Layer inception_5b/5x5_reduce
I0403 13:34:30.335964 11656 net.cpp:425] inception_5b/5x5_reduce <- inception_5a/output_inception_5a/output_0_split_2
I0403 13:34:30.335983 11656 net.cpp:399] inception_5b/5x5_reduce -> inception_5b/5x5_reduce
I0403 13:34:30.337270 11656 net.cpp:141] Setting up inception_5b/5x5_reduce
I0403 13:34:30.337298 11656 net.cpp:148] Top shape: 24 48 7 7 (56448)
I0403 13:34:30.337313 11656 net.cpp:156] Memory required for data: 1334499360
I0403 13:34:30.337332 11656 layer_factory.hpp:77] Creating layer inception_5b/relu_5x5_reduce
I0403 13:34:30.337352 11656 net.cpp:91] Creating Layer inception_5b/relu_5x5_reduce
I0403 13:34:30.337369 11656 net.cpp:425] inception_5b/relu_5x5_reduce <- inception_5b/5x5_reduce
I0403 13:34:30.337386 11656 net.cpp:386] inception_5b/relu_5x5_reduce -> inception_5b/5x5_reduce (in-place)
I0403 13:34:30.337766 11656 net.cpp:141] Setting up inception_5b/relu_5x5_reduce
I0403 13:34:30.337793 11656 net.cpp:148] Top shape: 24 48 7 7 (56448)
I0403 13:34:30.337808 11656 net.cpp:156] Memory required for data: 1334725152
I0403 13:34:30.337822 11656 layer_factory.hpp:77] Creating layer inception_5b/5x5
I0403 13:34:30.337842 11656 net.cpp:91] Creating Layer inception_5b/5x5
I0403 13:34:30.337859 11656 net.cpp:425] inception_5b/5x5 <- inception_5b/5x5_reduce
I0403 13:34:30.337877 11656 net.cpp:399] inception_5b/5x5 -> inception_5b/5x5
I0403 13:34:30.339953 11656 net.cpp:141] Setting up inception_5b/5x5
I0403 13:34:30.339982 11656 net.cpp:148] Top shape: 24 128 7 7 (150528)
I0403 13:34:30.339998 11656 net.cpp:156] Memory required for data: 1335327264
I0403 13:34:30.340015 11656 layer_factory.hpp:77] Creating layer inception_5b/relu_5x5
I0403 13:34:30.340034 11656 net.cpp:91] Creating Layer inception_5b/relu_5x5
I0403 13:34:30.340050 11656 net.cpp:425] inception_5b/relu_5x5 <- inception_5b/5x5
I0403 13:34:30.340070 11656 net.cpp:386] inception_5b/relu_5x5 -> inception_5b/5x5 (in-place)
I0403 13:34:30.340265 11656 net.cpp:141] Setting up inception_5b/relu_5x5
I0403 13:34:30.340289 11656 net.cpp:148] Top shape: 24 128 7 7 (150528)
I0403 13:34:30.340304 11656 net.cpp:156] Memory required for data: 1335929376
I0403 13:34:30.340318 11656 layer_factory.hpp:77] Creating layer inception_5b/pool
I0403 13:34:30.340337 11656 net.cpp:91] Creating Layer inception_5b/pool
I0403 13:34:30.340354 11656 net.cpp:425] inception_5b/pool <- inception_5a/output_inception_5a/output_0_split_3
I0403 13:34:30.340373 11656 net.cpp:399] inception_5b/pool -> inception_5b/pool
I0403 13:34:30.340446 11656 net.cpp:141] Setting up inception_5b/pool
I0403 13:34:30.340471 11656 net.cpp:148] Top shape: 24 832 7 7 (978432)
I0403 13:34:30.340484 11656 net.cpp:156] Memory required for data: 1339843104
I0403 13:34:30.340498 11656 layer_factory.hpp:77] Creating layer inception_5b/pool_proj
I0403 13:34:30.340526 11656 net.cpp:91] Creating Layer inception_5b/pool_proj
I0403 13:34:30.340544 11656 net.cpp:425] inception_5b/pool_proj <- inception_5b/pool
I0403 13:34:30.340564 11656 net.cpp:399] inception_5b/pool_proj -> inception_5b/pool_proj
I0403 13:34:30.342877 11656 net.cpp:141] Setting up inception_5b/pool_proj
I0403 13:34:30.342908 11656 net.cpp:148] Top shape: 24 128 7 7 (150528)
I0403 13:34:30.342924 11656 net.cpp:156] Memory required for data: 1340445216
I0403 13:34:30.342943 11656 layer_factory.hpp:77] Creating layer inception_5b/relu_pool_proj
I0403 13:34:30.342962 11656 net.cpp:91] Creating Layer inception_5b/relu_pool_proj
I0403 13:34:30.342978 11656 net.cpp:425] inception_5b/relu_pool_proj <- inception_5b/pool_proj
I0403 13:34:30.342996 11656 net.cpp:386] inception_5b/relu_pool_proj -> inception_5b/pool_proj (in-place)
I0403 13:34:30.343296 11656 net.cpp:141] Setting up inception_5b/relu_pool_proj
I0403 13:34:30.343322 11656 net.cpp:148] Top shape: 24 128 7 7 (150528)
I0403 13:34:30.343338 11656 net.cpp:156] Memory required for data: 1341047328
I0403 13:34:30.343353 11656 layer_factory.hpp:77] Creating layer inception_5b/output
I0403 13:34:30.343370 11656 net.cpp:91] Creating Layer inception_5b/output
I0403 13:34:30.343400 11656 net.cpp:425] inception_5b/output <- inception_5b/1x1
I0403 13:34:30.343418 11656 net.cpp:425] inception_5b/output <- inception_5b/3x3
I0403 13:34:30.343436 11656 net.cpp:425] inception_5b/output <- inception_5b/5x5
I0403 13:34:30.343451 11656 net.cpp:425] inception_5b/output <- inception_5b/pool_proj
I0403 13:34:30.343468 11656 net.cpp:399] inception_5b/output -> inception_5b/output
I0403 13:34:30.343528 11656 net.cpp:141] Setting up inception_5b/output
I0403 13:34:30.343550 11656 net.cpp:148] Top shape: 24 1024 7 7 (1204224)
I0403 13:34:30.343565 11656 net.cpp:156] Memory required for data: 1345864224
I0403 13:34:30.343580 11656 layer_factory.hpp:77] Creating layer pool5/7x7_s1
I0403 13:34:30.343600 11656 net.cpp:91] Creating Layer pool5/7x7_s1
I0403 13:34:30.343616 11656 net.cpp:425] pool5/7x7_s1 <- inception_5b/output
I0403 13:34:30.343634 11656 net.cpp:399] pool5/7x7_s1 -> pool5/7x7_s1
I0403 13:34:30.343853 11656 net.cpp:141] Setting up pool5/7x7_s1
I0403 13:34:30.343881 11656 net.cpp:148] Top shape: 24 1024 1 1 (24576)
I0403 13:34:30.343897 11656 net.cpp:156] Memory required for data: 1345962528
I0403 13:34:30.343912 11656 layer_factory.hpp:77] Creating layer pool5/drop_7x7_s1
I0403 13:34:30.343930 11656 net.cpp:91] Creating Layer pool5/drop_7x7_s1
I0403 13:34:30.343945 11656 net.cpp:425] pool5/drop_7x7_s1 <- pool5/7x7_s1
I0403 13:34:30.343964 11656 net.cpp:386] pool5/drop_7x7_s1 -> pool5/7x7_s1 (in-place)
I0403 13:34:30.344017 11656 net.cpp:141] Setting up pool5/drop_7x7_s1
I0403 13:34:30.344039 11656 net.cpp:148] Top shape: 24 1024 1 1 (24576)
I0403 13:34:30.344053 11656 net.cpp:156] Memory required for data: 1346060832
I0403 13:34:30.344068 11656 layer_factory.hpp:77] Creating layer loss3/classifier_plantvillage
I0403 13:34:30.344087 11656 net.cpp:91] Creating Layer loss3/classifier_plantvillage
I0403 13:34:30.344105 11656 net.cpp:425] loss3/classifier_plantvillage <- pool5/7x7_s1
I0403 13:34:30.344125 11656 net.cpp:399] loss3/classifier_plantvillage -> loss3/classifier_plantvillage
I0403 13:34:30.344568 11656 net.cpp:141] Setting up loss3/classifier_plantvillage
I0403 13:34:30.344594 11656 net.cpp:148] Top shape: 24 38 (912)
I0403 13:34:30.344609 11656 net.cpp:156] Memory required for data: 1346064480
I0403 13:34:30.344626 11656 layer_factory.hpp:77] Creating layer loss3/classifier_plantvillage_loss3/classifier_plantvillage_0_split
I0403 13:34:30.344647 11656 net.cpp:91] Creating Layer loss3/classifier_plantvillage_loss3/classifier_plantvillage_0_split
I0403 13:34:30.344665 11656 net.cpp:425] loss3/classifier_plantvillage_loss3/classifier_plantvillage_0_split <- loss3/classifier_plantvillage
I0403 13:34:30.344682 11656 net.cpp:399] loss3/classifier_plantvillage_loss3/classifier_plantvillage_0_split -> loss3/classifier_plantvillage_loss3/classifier_plantvillage_0_split_0
I0403 13:34:30.344702 11656 net.cpp:399] loss3/classifier_plantvillage_loss3/classifier_plantvillage_0_split -> loss3/classifier_plantvillage_loss3/classifier_plantvillage_0_split_1
I0403 13:34:30.344722 11656 net.cpp:399] loss3/classifier_plantvillage_loss3/classifier_plantvillage_0_split -> loss3/classifier_plantvillage_loss3/classifier_plantvillage_0_split_2
I0403 13:34:30.344740 11656 net.cpp:399] loss3/classifier_plantvillage_loss3/classifier_plantvillage_0_split -> loss3/classifier_plantvillage_loss3/classifier_plantvillage_0_split_3
I0403 13:34:30.344843 11656 net.cpp:141] Setting up loss3/classifier_plantvillage_loss3/classifier_plantvillage_0_split
I0403 13:34:30.344866 11656 net.cpp:148] Top shape: 24 38 (912)
I0403 13:34:30.344882 11656 net.cpp:148] Top shape: 24 38 (912)
I0403 13:34:30.344897 11656 net.cpp:148] Top shape: 24 38 (912)
I0403 13:34:30.344913 11656 net.cpp:148] Top shape: 24 38 (912)
I0403 13:34:30.344925 11656 net.cpp:156] Memory required for data: 1346079072
I0403 13:34:30.344939 11656 layer_factory.hpp:77] Creating layer loss1/loss
I0403 13:34:30.344961 11656 net.cpp:91] Creating Layer loss1/loss
I0403 13:34:30.344979 11656 net.cpp:425] loss1/loss <- loss1/classifier_plantvillage_loss1/classifier_plantvillage_0_split_0
I0403 13:34:30.345010 11656 net.cpp:425] loss1/loss <- label_data_1_split_0
…
