…
I0403 14:21:33.542842 13186 net.cpp:313] The NetState phase (1) differed from the phase (0) specified by a rule in layer data
I0403 14:21:33.543949 13186 net.cpp:49] Initializing net from parameters: 
state {
  phase: TEST
}
layer {
  name: "data"
  type: "Data"
  top: "data"
  top: "label"
  include {
    phase: TEST
  }
  transform_param {
    mirror: false
    crop_size: 224
    mean_file: "/home/mohanty/data/final_dataset/lmdb/segmented-20-80/mean.binaryproto"
  }
  data_param {
    source: "/home/mohanty/data/final_dataset/lmdb/segmented-20-80/test_db"
    batch_size: 24
    backend: LMDB
  }
}
layer {
  name: "conv1/7x7_s2"
  type: "Convolution"
  bottom: "data"
  top: "conv1/7x7_s2"
  param {
    lr_mult: 1
    decay_mult: 1
  }
  param {
    lr_mult: 2
    decay_mult: 0
  }
  convolution_param {
    num_output: 64
    pad: 3
    kernel_size: 7
    stride: 2
    weight_filler {
      type: "xavier"
      std: 0.1
    }
    bias_filler {
      type: "constant"
      value: 0.2
    }
  }
}
layer {
  name: "conv1/relu_7x7"
  type: "ReLU"
  bottom: "conv1/7x7_s2"
  top: "conv1/7x7_s2"
}
layer {
  name: "pool1/3x3_s2"
  type: "Pooling"
  bottom: "conv1/7x7_s2"
  top: "pool1/3x3_s2"
  pooling_param {
    pool: MAX
    kernel_size: 3
    stride: 2
  }
}
layer {
  name: "pool1/norm1"
  type: "LRN"
  bottom: "pool1/3x3_s2"
  top: "pool1/norm1"
  lrn_param {
    local_size: 5
    alpha: 0.0001
    beta: 0.75
  }
}
layer {
  name: "conv2/3x3_reduce"
  type: "Convolution"
  bottom: "pool1/norm1"
  top: "conv2/3x3_reduce"
  param {
    lr_mult: 1
    decay_mult: 1
  }
  param {
    lr_mult: 2
    decay_mult: 0
  }
  convolution_param {
    num_output: 64
    kernel_size: 1
    weight_filler {
      type: "xavier"
      std: 0.1
    }
    bias_filler {
      type: "constant"
      value: 0.2
    }
  }
}
layer {
  name: "conv2/relu_3x3_reduce"
  type: "ReLU"
  bottom: "conv2/3x3_reduce"
  top: "conv2/3x3_reduce"
}
layer {
  name: "conv2/3x3"
  type: "Convolution"
  bottom: "conv2/3x3_reduce"
  top: "conv2/3x3"
  param {
    lr_mult: 1
    decay_mult: 1
  }
  param {
    lr_mult: 2
    decay_mult: 0
  }
  convolution_param {
    num_output: 192
    pad: 1
    kernel_size: 3
    weight_filler {
      type: "xavier"
      std: 0.03
    }
    bias_filler {
      type: "constant"
      value: 0.2
    }
  }
}
layer {
  name: "conv2/relu_3x3"
  type: "ReLU"
  bottom: "conv2/3x3"
  top: "conv2/3x3"
}
layer {
  name: "conv2/norm2"
  type: "LRN"
  bottom: "conv2/3x3"
  top: "conv2/norm2"
  lrn_param {
    local_size: 5
    alpha: 0.0001
    beta: 0.75
  }
}
layer {
  name: "pool2/3x3_s2"
  type: "Pooling"
  bottom: "conv2/norm2"
  top: "pool2/3x3_s2"
  pooling_param {
    pool: MAX
    kernel_size: 3
    stride: 2
  }
}
layer {
  name: "inception_3a/1x1"
  type: "Convolution"
  bottom: "pool2/3x3_s2"
  top: "inception_3a/1x1"
  param {
    lr_mult: 1
    decay_mult: 1
  }
  param {
    lr_mult: 2
    decay_mult: 0
  }
  convolution_param {
    num_output: 64
    kernel_size: 1
    weight_filler {
      type: "xavier"
      std: 0.03
    }
    bias_filler {
      type: "constant"
      value: 0.2
    }
  }
}
layer {
  name: "inception_3a/relu_1x1"
  type: "ReLU"
  bottom: "inception_3a/1x1"
  top: "inception_3a/1x1"
}
layer {
  name: "inception_3a/3x3_reduce"
  type: "Convolution"
  bottom: "pool2/3x3_s2"
  top: "inception_3a/3x3_reduce"
  param {
    lr_mult: 1
    decay_mult: 1
  }
  param {
    lr_mult: 2
    decay_mult: 0
  }
  convolution_param {
    num_output: 96
    kernel_size: 1
    weight_filler {
      type: "xavier"
      std: 0.09
    }
    bias_filler {
      type: "constant"
      value: 0.2
    }
  }
}
layer {
  name: "inception_3a/relu_3x3_reduce"
  type: "ReLU"
  bottom: "inception_3a/3x3_reduce"
  top: "inception_3a/3x3_reduce"
}
layer {
  name: "inception_3a/3x3"
  type: "Convolution"
  bottom: "inception_3a/3x3_reduce"
  top: "inception_3a/3x3"
  param {
    lr_mult: 1
    decay_mult: 1
  }
  param {
    lr_mult: 2
    decay_mult: 0
  }
  convolution_param {
    num_output: 128
    pad: 1
    kernel_size: 3
    weight_filler {
      type: "xavier"
      std: 0.03
    }
    bias_filler {
      type: "constant"
      value: 0.2
    }
  }
}
layer {
  name: "inception_3a/relu_3x3"
  type: "ReLU"
  bottom: "inception_3a/3x3"
  top: "inception_3a/3x3"
}
layer {
  name: "inception_3a/5x5_reduce"
  type: "Convolution"
  bottom: "pool2/3x3_s2"
  top: "inception_3a/5x5_reduce"
  param {
    lr_mult: 1
    decay_mult: 1
  }
  param {
    lr_mult: 2
    decay_mult: 0
  }
  convolution_param {
    num_output: 16
    kernel_size: 1
    weight_filler {
      type: "xavier"
      std: 0.2
    }
    bias_filler {
      type: "constant"
      value: 0.2
    }
  }
}
layer {
  name: "inception_3a/relu_5x5_reduce"
  type: "ReLU"
  bottom: "inception_3a/5x5_reduce"
  top: "inception_3a/5x5_reduce"
}
layer {
  name: "inception_3a/5x5"
  type: "Convolution"
  bottom: "inception_3a/5x5_reduce"
  top: "inception_3a/5x5"
  param {
    lr_mult: 1
    decay_mult: 1
  }
  param {
    lr_mult: 2
    decay_mult: 0
  }
  convolution_param {
    num_output: 32
    pad: 2
    kernel_size: 5
    weight_filler {
      type: "xavier"
      std: 0.03
    }
    bias_filler {
      type: "constant"
      value: 0.2
    }
  }
}
layer {
  name: "inception_3a/relu_5x5"
  type: "ReLU"
  bottom: "inception_3a/5x5"
  top: "inception_3a/5x5"
}
layer {
  name: "inception_3a/pool"
  type: "Pooling"
  bottom: "pool2/3x3_s2"
  top: "inception_3a/pool"
  pooling_param {
    pool: MAX
    kernel_size: 3
    stride: 1
    pad: 1
  }
}
layer {
  name: "inception_3a/pool_proj"
  type: "Convolution"
  bottom: "inception_3a/pool"
  top: "inception_3a/pool_proj"
  param {
    lr_mult: 1
    decay_mult: 1
  }
  param {
    lr_mult: 2
    decay_mult: 0
  }
  convolution_param {
    num_output: 32
    kernel_size: 1
    weight_filler {
      type: "xavier"
      std: 0.1
    }
    bias_filler {
      type: "constant"
      value: 0.2
    }
  }
}
layer {
  name: "inception_3a/relu_pool_proj"
  type: "ReLU"
  bottom: "inception_3a/pool_proj"
  top: "inception_3a/pool_proj"
}
layer {
  name: "inception_3a/output"
  type: "Concat"
  bottom: "inception_3a/1x1"
  bottom: "inception_3a/3x3"
  bottom: "inception_3a/5x5"
  bottom: "inception_3a/pool_proj"
  top: "inception_3a/output"
}
layer {
  name: "inception_3b/1x1"
  type: "Convolution"
  bottom: "inception_3a/output"
  top: "inception_3b/1x1"
  param {
    lr_mult: 1
    decay_mult: 1
  }
  param {
    lr_mult: 2
    decay_mult: 0
  }
  convolution_param {
    num_output: 128
    kernel_size: 1
    weight_filler {
      type: "xavier"
      std: 0.03
    }
    bias_filler {
      type: "constant"
      value: 0.2
    }
  }
}
layer {
  name: "inception_3b/relu_1x1"
  type: "ReLU"
  bottom: "inception_3b/1x1"
  top: "inception_3b/1x1"
}
layer {
  name: "inception_3b/3x3_reduce"
  type: "Convolution"
  bottom: "inception_3a/output"
  top: "inception_3b/3x3_reduce"
  param {
    lr_mult: 1
    decay_mult: 1
  }
  param {
    lr_mult: 2
    decay_mult: 0
  }
  convolution_param {
    num_output: 128
    kernel_size: 1
    weight_filler {
      type: "xavier"
      std: 0.09
    }
    bias_filler {
      type: "constant"
      value: 0.2
    }
  }
}
layer {
  name: "inception_3b/relu_3x3_reduce"
  type: "ReLU"
  bottom: "inception_3b/3x3_reduce"
  top: "inception_3b/3x3_reduce"
}
layer {
  name: "inception_3b/3x3"
  type: "Convolution"
  bottom: "inception_3b/3x3_reduce"
  top: "inception_3b/3x3"
  param {
    lr_mult: 1
    decay_mult: 1
  }
  param {
    lr_mult: 2
    decay_mult: 0
  }
  convolution_param {
    num_output: 192
    pad: 1
    kernel_size: 3
    weight_filler {
      type: "xavier"
      std: 0.03
    }
    bias_filler {
      type: "constant"
      value: 0.2
    }
  }
}
layer {
  name: "inception_3b/relu_3x3"
  type: "ReLU"
  bottom: "inception_3b/3x3"
  top: "inception_3b/3x3"
}
layer {
  name: "inception_3b/5x5_reduce"
  type: "Convolution"
  bottom: "inception_3a/output"
  top: "inception_3b/5x5_reduce"
  param {
    lr_mult: 1
    decay_mult: 1
  }
  param {
    lr_mult: 2
    decay_mult: 0
  }
  convolution_param {
    num_output: 32
    kernel_size: 1
    weight_filler {
      type: "xavier"
      std: 0.2
    }
    bias_filler {
      type: "constant"
      value: 0.2
    }
  }
}
layer {
  name: "inception_3b/relu_5x5_reduce"
  type: "ReLU"
  bottom: "inception_3b/5x5_reduce"
  top: "inception_3b/5x5_reduce"
}
layer {
  name: "inception_3b/5x5"
  type: "Convolution"
  bottom: "inception_3b/5x5_reduce"
  top: "inception_3b/5x5"
  param {
    lr_mult: 1
    decay_mult: 1
  }
  param {
    lr_mult: 2
    decay_mult: 0
  }
  convolution_param {
    num_output: 96
    pad: 2
    kernel_size: 5
    weight_filler {
      type: "xavier"
      std: 0.03
    }
    bias_filler {
      type: "constant"
      value: 0.2
    }
  }
}
layer {
  name: "inception_3b/relu_5x5"
  type: "ReLU"
  bottom: "inception_3b/5x5"
  top: "inception_3b/5x5"
}
layer {
  name: "inception_3b/pool"
  type: "Pooling"
  bottom: "inception_3a/output"
  top: "inception_3b/pool"
  pooling_param {
    pool: MAX
    kernel_size: 3
    stride: 1
    pad: 1
  }
}
layer {
  name: "inception_3b/pool_proj"
  type: "Convolution"
  bottom: "inception_3b/pool"
  top: "inception_3b/pool_proj"
  param {
    lr_mult: 1
    decay_mult: 1
  }
  param {
    lr_mult: 2
    decay_mult: 0
  }
  convolution_param {
    num_output: 64
    kernel_size: 1
    weight_filler {
      type: "xavier"
      std: 0.1
    }
    bias_filler {
      type: "constant"
      value: 0.2
    }
  }
}
layer {
  name: "inception_3b/relu_pool_proj"
  type: "ReLU"
  bottom: "inception_3b/pool_proj"
  top: "inception_3b/pool_proj"
}
layer {
  name: "inception_3b/output"
  type: "Concat"
  bottom: "inception_3b/1x1"
  bottom: "inception_3b/3x3"
  bottom: "inception_3b/5x5"
  bottom: "inception_3b/pool_proj"
  top: "inception_3b/output"
}
layer {
  name: "pool3/3x3_s2"
  type: "Pooling"
  bottom: "inception_3b/output"
  top: "pool3/3x3_s2"
  pooling_param {
    pool: MAX
    kernel_size: 3
    stride: 2
  }
}
layer {
  name: "inception_4a/1x1"
  type: "Convolution"
  bottom: "pool3/3x3_s2"
  top: "inception_4a/1x1"
  param {
    lr_mult: 1
    decay_mult: 1
  }
  param {
    lr_mult: 2
    decay_mult: 0
  }
  convolution_param {
    num_output: 192
    kernel_size: 1
    weight_filler {
      type: "xavier"
      std: 0.03
    }
    bias_filler {
      type: "constant"
      value: 0.2
    }
  }
}
layer {
  name: "inception_4a/relu_1x1"
  type: "ReLU"
  bottom: "inception_4a/1x1"
  top: "inception_4a/1x1"
}
layer {
  name: "inception_4a/3x3_reduce"
  type: "Convolution"
  bottom: "pool3/3x3_s2"
  top: "inception_4a/3x3_reduce"
  param {
    lr_mult: 1
    decay_mult: 1
  }
  param {
    lr_mult: 2
    decay_mult: 0
  }
  convolution_param {
    num_output: 96
    kernel_size: 1
    weight_filler {
      type: "xavier"
      std: 0.09
    }
    bias_filler {
      type: "constant"
      value: 0.2
    }
  }
}
layer {
  name: "inception_4a/relu_3x3_reduce"
  type: "ReLU"
  bottom: "inception_4a/3x3_reduce"
  top: "inception_4a/3x3_reduce"
}
layer {
  name: "inception_4a/3x3"
  type: "Convolution"
  bottom: "inception_4a/3x3_reduce"
  top: "inception_4a/3x3"
  param {
    lr_mult: 1
    decay_mult: 1
  }
  param {
    lr_mult: 2
    decay_mult: 0
  }
  convolution_param {
    num_output: 208
    pad: 1
    kernel_size: 3
    weight_filler {
      type: "xavier"
      std: 0.03
    }
    bias_filler {
      type: "constant"
      value: 0.2
    }
  }
}
layer {
  name: "inception_4a/relu_3x3"
  type: "ReLU"
  bottom: "inception_4a/3x3"
  top: "inception_4a/3x3"
}
layer {
  name: "inception_4a/5x5_reduce"
  type: "Convolution"
  bottom: "pool3/3x3_s2"
  top: "inception_4a/5x5_reduce"
  param {
    lr_mult: 1
    decay_mult: 1
  }
  param {
    lr_mult: 2
    decay_mult: 0
  }
  convolution_param {
    num_output: 16
    kernel_size: 1
    weight_filler {
      type: "xavier"
      std: 0.2
    }
    bias_filler {
      type: "constant"
      value: 0.2
    }
  }
}
layer {
  name: "inception_4a/relu_5x5_reduce"
  type: "ReLU"
  bottom: "inception_4a/5x5_reduce"
  top: "inception_4a/5x5_reduce"
}
layer {
  name: "inception_4a/5x5"
  type: "Convolution"
  bottom: "inception_4a/5x5_reduce"
  top: "inception_4a/5x5"
  param {
    lr_mult: 1
    decay_mult: 1
  }
  param {
    lr_mult: 2
    decay_mult: 0
  }
  convolution_param {
    num_output: 48
    pad: 2
    kernel_size: 5
    weight_filler {
      type: "xavier"
      std: 0.03
    }
    bias_filler {
      type: "constant"
      value: 0.2
    }
  }
}
layer {
  name: "inception_4a/relu_5x5"
  type: "ReLU"
  bottom: "inception_4a/5x5"
  top: "inception_4a/5x5"
}
layer {
  name: "inception_4a/pool"
  type: "Pooling"
  bottom: "pool3/3x3_s2"
  top: "inception_4a/pool"
  pooling_param {
    pool: MAX
    kernel_size: 3
    stride: 1
    pad: 1
  }
}
layer {
  name: "inception_4a/pool_proj"
  type: "Convolution"
  bottom: "inception_4a/pool"
  top: "inception_4a/pool_proj"
  param {
    lr_mult: 1
    decay_mult: 1
  }
  param {
    lr_mult: 2
    decay_mult: 0
  }
  convolution_param {
    num_output: 64
    kernel_size: 1
    weight_filler {
      type: "xavier"
      std: 0.1
    }
    bias_filler {
      type: "constant"
      value: 0.2
    }
  }
}
layer {
  name: "inception_4a/relu_pool_proj"
  type: "ReLU"
  bottom: "inception_4a/pool_proj"
  top: "inception_4a/pool_proj"
}
layer {
  name: "inception_4a/output"
  type: "Concat"
  bottom: "inception_4a/1x1"
  bottom: "inception_4a/3x3"
  bottom: "inception_4a/5x5"
  bottom: "inception_4a/pool_proj"
  top: "inception_4a/output"
}
layer {
  name: "loss1/ave_pool"
  type: "Pooling"
  bottom: "inception_4a/output"
  top: "loss1/ave_pool"
  pooling_param {
    pool: AVE
    kernel_size: 5
    stride: 3
  }
}
layer {
  name: "loss1/conv"
  type: "Convolution"
  bottom: "loss1/ave_pool"
  top: "loss1/conv"
  param {
    lr_mult: 1
    decay_mult: 1
  }
  param {
    lr_mult: 2
    decay_mult: 0
  }
  convolution_param {
    num_output: 128
    kernel_size: 1
    weight_filler {
      type: "xavier"
      std: 0.08
    }
    bias_filler {
      type: "constant"
      value: 0.2
    }
  }
}
layer {
  name: "loss1/relu_conv"
  type: "ReLU"
  bottom: "loss1/conv"
  top: "loss1/conv"
}
layer {
  name: "loss1/fc"
  type: "InnerProduct"
  bottom: "loss1/conv"
  top: "loss1/fc"
  param {
    lr_mult: 1
    decay_mult: 1
  }
  param {
    lr_mult: 2
    decay_mult: 0
  }
  inner_product_param {
    num_output: 1024
    weight_filler {
      type: "xavier"
      std: 0.02
    }
    bias_filler {
      type: "constant"
      value: 0.2
    }
  }
}
layer {
  name: "loss1/relu_fc"
  type: "ReLU"
  bottom: "loss1/fc"
  top: "loss1/fc"
}
layer {
  name: "loss1/drop_fc"
  type: "Dropout"
  bottom: "loss1/fc"
  top: "loss1/fc"
  dropout_param {
    dropout_ratio: 0.7
  }
}
layer {
  name: "loss1/classifier_plantvillage"
  type: "InnerProduct"
  bottom: "loss1/fc"
  top: "loss1/classifier_plantvillage"
  param {
    lr_mult: 1
    decay_mult: 1
  }
  param {
    lr_mult: 2
    decay_mult: 0
  }
  inner_product_param {
    num_output: 38
    weight_filler {
      type: "xavier"
      std: 0.0009765625
    }
    bias_filler {
      type: "constant"
      value: 0
    }
  }
}
layer {
  name: "inception_4b/1x1"
  type: "Convolution"
  bottom: "inception_4a/output"
  top: "inception_4b/1x1"
  param {
    lr_mult: 1
    decay_mult: 1
  }
  param {
    lr_mult: 2
    decay_mult: 0
  }
  convolution_param {
    num_output: 160
    kernel_size: 1
    weight_filler {
      type: "xavier"
      std: 0.03
    }
    bias_filler {
      type: "constant"
      value: 0.2
    }
  }
}
layer {
  name: "inception_4b/relu_1x1"
  type: "ReLU"
  bottom: "inception_4b/1x1"
  top: "inception_4b/1x1"
}
layer {
  name: "inception_4b/3x3_reduce"
  type: "Convolution"
  bottom: "inception_4a/output"
  top: "inception_4b/3x3_reduce"
  param {
    lr_mult: 1
    decay_mult: 1
  }
  param {
    lr_mult: 2
    decay_mult: 0
  }
  convolution_param {
    num_output: 112
    kernel_size: 1
    weight_filler {
      type: "xavier"
      std: 0.09
    }
    bias_filler {
      type: "constant"
      value: 0.2
    }
  }
}
layer {
  name: "inception_4b/relu_3x3_reduce"
  type: "ReLU"
  bottom: "inception_4b/3x3_reduce"
  top: "inception_4b/3x3_reduce"
}
layer {
  name: "inception_4b/3x3"
  type: "Convolution"
  bottom: "inception_4b/3x3_reduce"
  top: "inception_4b/3x3"
  param {
    lr_mult: 1
    decay_mult: 1
  }
  param {
    lr_mult: 2
    decay_mult: 0
  }
  convolution_param {
    num_output: 224
    pad: 1
    kernel_size: 3
    weight_filler {
      type: "xavier"
      std: 0.03
    }
    bias_filler {
      type: "constant"
      value: 0.2
    }
  }
}
layer {
  name: "inception_4b/relu_3x3"
  type: "ReLU"
  bottom: "inception_4b/3x3"
  top: "inception_4b/3x3"
}
layer {
  name: "inception_4b/5x5_reduce"
  type: "Convolution"
  bottom: "inception_4a/output"
  top: "inception_4b/5x5_reduce"
  param {
    lr_mult: 1
    decay_mult: 1
  }
  param {
    lr_mult: 2
    decay_mult: 0
  }
  convolution_param {
    num_output: 24
    kernel_size: 1
    weight_filler {
      type: "xavier"
      std: 0.2
    }
    bias_filler {
      type: "constant"
      value: 0.2
    }
  }
}
layer {
  name: "inception_4b/relu_5x5_reduce"
  type: "ReLU"
  bottom: "inception_4b/5x5_reduce"
  top: "inception_4b/5x5_reduce"
}
layer {
  name: "inception_4b/5x5"
  type: "Convolution"
  bottom: "inception_4b/5x5_reduce"
  top: "inception_4b/5x5"
  param {
    lr_mult: 1
    decay_mult: 1
  }
  param {
    lr_mult: 2
    decay_mult: 0
  }
  convolution_param {
    num_output: 64
    pad: 2
    kernel_size: 5
    weight_filler {
      type: "xavier"
      std: 0.03
    }
    bias_filler {
      type: "constant"
      value: 0.2
    }
  }
}
layer {
  name: "inception_4b/relu_5x5"
  type: "ReLU"
  bottom: "inception_4b/5x5"
  top: "inception_4b/5x5"
}
layer {
  name: "inception_4b/pool"
  type: "Pooling"
  bottom: "inception_4a/output"
  top: "inception_4b/pool"
  pooling_param {
    pool: MAX
    kernel_size: 3
    stride: 1
    pad: 1
  }
}
layer {
  name: "inception_4b/pool_proj"
  type: "Convolution"
  bottom: "inception_4b/pool"
  top: "inception_4b/pool_proj"
  param {
    lr_mult: 1
    decay_mult: 1
  }
  param {
    lr_mult: 2
    decay_mult: 0
  }
  convolution_param {
    num_output: 64
    kernel_size: 1
    weight_filler {
      type: "xavier"
      std: 0.1
    }
    bias_filler {
      type: "constant"
      value: 0.2
    }
  }
}
layer {
  name: "inception_4b/relu_pool_proj"
  type: "ReLU"
  bottom: "inception_4b/pool_proj"
  top: "inception_4b/pool_proj"
}
layer {
  name: "inception_4b/output"
  type: "Concat"
  bottom: "inception_4b/1x1"
  bottom: "inception_4b/3x3"
  bottom: "inception_4b/5x5"
  bottom: "inception_4b/pool_proj"
  top: "inception_4b/output"
}
layer {
  name: "inception_4c/1x1"
  type: "Convolution"
  bottom: "inception_4b/output"
  top: "inception_4c/1x1"
  param {
    lr_mult: 1
    decay_mult: 1
  }
  param {
    lr_mult: 2
    decay_mult: 0
  }
  convolution_param {
    num_output: 128
    kernel_size: 1
    weight_filler {
      type: "xavier"
      std: 0.03
    }
    bias_filler {
      type: "constant"
      value: 0.2
    }
  }
}
layer {
  name: "inception_4c/relu_1x1"
  type: "ReLU"
  bottom: "inception_4c/1x1"
  top: "inception_4c/1x1"
}
layer {
  name: "inception_4c/3x3_reduce"
  type: "Convolution"
  bottom: "inception_4b/output"
  top: "inception_4c/3x3_reduce"
  param {
    lr_mult: 1
    decay_mult: 1
  }
  param {
    lr_mult: 2
    decay_mult: 0
  }
  convolution_param {
    num_output: 128
    kernel_size: 1
    weight_filler {
      type: "xavier"
      std: 0.09
    }
    bias_filler {
      type: "constant"
      value: 0.2
    }
  }
}
layer {
  name: "inception_4c/relu_3x3_reduce"
  type: "ReLU"
  bottom: "inception_4c/3x3_reduce"
  top: "inception_4c/3x3_reduce"
}
layer {
  name: "inception_4c/3x3"
  type: "Convolution"
  bottom: "inception_4c/3x3_reduce"
  top: "inception_4c/3x3"
  param {
    lr_mult: 1
    decay_mult: 1
  }
  param {
    lr_mult: 2
    decay_mult: 0
  }
  convolution_param {
    num_output: 256
    pad: 1
    kernel_size: 3
    weight_filler {
      type: "xavier"
      std: 0.03
    }
    bias_filler {
      type: "constant"
      value: 0.2
    }
  }
}
layer {
  name: "inception_4c/relu_3x3"
  type: "ReLU"
  bottom: "inception_4c/3x3"
  top: "inception_4c/3x3"
}
layer {
  name: "inception_4c/5x5_reduce"
  type: "Convolution"
  bottom: "inception_4b/output"
  top: "inception_4c/5x5_reduce"
  param {
    lr_mult: 1
    decay_mult: 1
  }
  param {
    lr_mult: 2
    decay_mult: 0
  }
  convolution_param {
    num_output: 24
    kernel_size: 1
    weight_filler {
      type: "xavier"
      std: 0.2
    }
    bias_filler {
      type: "constant"
      value: 0.2
    }
  }
}
layer {
  name: "inception_4c/relu_5x5_reduce"
  type: "ReLU"
  bottom: "inception_4c/5x5_reduce"
  top: "inception_4c/5x5_reduce"
}
layer {
  name: "inception_4c/5x5"
  type: "Convolution"
  bottom: "inception_4c/5x5_reduce"
  top: "inception_4c/5x5"
  param {
    lr_mult: 1
    decay_mult: 1
  }
  param {
    lr_mult: 2
    decay_mult: 0
  }
  convolution_param {
    num_output: 64
    pad: 2
    kernel_size: 5
    weight_filler {
      type: "xavier"
      std: 0.03
    }
    bias_filler {
      type: "constant"
      value: 0.2
    }
  }
}
layer {
  name: "inception_4c/relu_5x5"
  type: "ReLU"
  bottom: "inception_4c/5x5"
  top: "inception_4c/5x5"
}
layer {
  name: "inception_4c/pool"
  type: "Pooling"
  bottom: "inception_4b/output"
  top: "inception_4c/pool"
  pooling_param {
    pool: MAX
    kernel_size: 3
    stride: 1
    pad: 1
  }
}
layer {
  name: "inception_4c/pool_proj"
  type: "Convolution"
  bottom: "inception_4c/pool"
  top: "inception_4c/pool_proj"
  param {
    lr_mult: 1
    decay_mult: 1
  }
  param {
    lr_mult: 2
    decay_mult: 0
  }
  convolution_param {
    num_output: 64
    kernel_size: 1
    weight_filler {
      type: "xavier"
      std: 0.1
    }
    bias_filler {
      type: "constant"
      value: 0.2
    }
  }
}
layer {
  name: "inception_4c/relu_pool_proj"
  type: "ReLU"
  bottom: "inception_4c/pool_proj"
  top: "inception_4c/pool_proj"
}
layer {
  name: "inception_4c/output"
  type: "Concat"
  bottom: "inception_4c/1x1"
  bottom: "inception_4c/3x3"
  bottom: "inception_4c/5x5"
  bottom: "inception_4c/pool_proj"
  top: "inception_4c/output"
}
layer {
  name: "inception_4d/1x1"
  type: "Convolution"
  bottom: "inception_4c/output"
  top: "inception_4d/1x1"
  param {
    lr_mult: 1
    decay_mult: 1
  }
  param {
    lr_mult: 2
    decay_mult: 0
  }
  convolution_param {
    num_output: 112
    kernel_size: 1
    weight_filler {
      type: "xavier"
      std: 0.03
    }
    bias_filler {
      type: "constant"
      value: 0.2
    }
  }
}
layer {
  name: "inception_4d/relu_1x1"
  type: "ReLU"
  bottom: "inception_4d/1x1"
  top: "inception_4d/1x1"
}
layer {
  name: "inception_4d/3x3_reduce"
  type: "Convolution"
  bottom: "inception_4c/output"
  top: "inception_4d/3x3_reduce"
  param {
    lr_mult: 1
    decay_mult: 1
  }
  param {
    lr_mult: 2
    decay_mult: 0
  }
  convolution_param {
    num_output: 144
    kernel_size: 1
    weight_filler {
      type: "xavier"
      std: 0.09
    }
    bias_filler {
      type: "constant"
      value: 0.2
    }
  }
}
layer {
  name: "inception_4d/relu_3x3_reduce"
  type: "ReLU"
  bottom: "inception_4d/3x3_reduce"
  top: "inception_4d/3x3_reduce"
}
layer {
  name: "inception_4d/3x3"
  type: "Convolution"
  bottom: "inception_4d/3x3_reduce"
  top: "inception_4d/3x3"
  param {
    lr_mult: 1
    decay_mult: 1
  }
  param {
    lr_mult: 2
    decay_mult: 0
  }
  convolution_param {
    num_output: 288
    pad: 1
    kernel_size: 3
    weight_filler {
      type: "xavier"
      std: 0.03
    }
    bias_filler {
      type: "constant"
      value: 0.2
    }
  }
}
layer {
  name: "inception_4d/relu_3x3"
  type: "ReLU"
  bottom: "inception_4d/3x3"
  top: "inception_4d/3x3"
}
layer {
  name: "inception_4d/5x5_reduce"
  type: "Convolution"
  bottom: "inception_4c/output"
  top: "inception_4d/5x5_reduce"
  param {
    lr_mult: 1
    decay_mult: 1
  }
  param {
    lr_mult: 2
    decay_mult: 0
  }
  convolution_param {
    num_output: 32
    kernel_size: 1
    weight_filler {
      type: "xavier"
      std: 0.2
    }
    bias_filler {
      type: "constant"
      value: 0.2
    }
  }
}
layer {
  name: "inception_4d/relu_5x5_reduce"
  type: "ReLU"
  bottom: "inception_4d/5x5_reduce"
  top: "inception_4d/5x5_reduce"
}
layer {
  name: "inception_4d/5x5"
  type: "Convolution"
  bottom: "inception_4d/5x5_reduce"
  top: "inception_4d/5x5"
  param {
    lr_mult: 1
    decay_mult: 1
  }
  param {
    lr_mult: 2
    decay_mult: 0
  }
  convolution_param {
    num_output: 64
    pad: 2
    kernel_size: 5
    weight_filler {
      type: "xavier"
      std: 0.03
    }
    bias_filler {
      type: "constant"
      value: 0.2
    }
  }
}
layer {
  name: "inception_4d/relu_5x5"
  type: "ReLU"
  bottom: "inception_4d/5x5"
  top: "inception_4d/5x5"
}
layer {
  name: "inception_4d/pool"
  type: "Pooling"
  bottom: "inception_4c/output"
  top: "inception_4d/pool"
  pooling_param {
    pool: MAX
    kernel_size: 3
    stride: 1
    pad: 1
  }
}
layer {
  name: "inception_4d/pool_proj"
  type: "Convolution"
  bottom: "inception_4d/pool"
  top: "inception_4d/pool_proj"
  param {
    lr_mult: 1
    decay_mult: 1
  }
  param {
    lr_mult: 2
    decay_mult: 0
  }
  convolution_param {
    num_output: 64
    kernel_size: 1
    weight_filler {
      type: "xavier"
      std: 0.1
    }
    bias_filler {
      type: "constant"
      value: 0.2
    }
  }
}
layer {
  name: "inception_4d/relu_pool_proj"
  type: "ReLU"
  bottom: "inception_4d/pool_proj"
  top: "inception_4d/pool_proj"
}
layer {
  name: "inception_4d/output"
  type: "Concat"
  bottom: "inception_4d/1x1"
  bottom: "inception_4d/3x3"
  bottom: "inception_4d/5x5"
  bottom: "inception_4d/pool_proj"
  top: "inception_4d/output"
}
layer {
  name: "loss2/ave_pool"
  type: "Pooling"
  bottom: "inception_4d/output"
  top: "loss2/ave_pool"
  pooling_param {
    pool: AVE
    kernel_size: 5
    stride: 3
  }
}
layer {
  name: "loss2/conv"
  type: "Convolution"
  bottom: "loss2/ave_pool"
  top: "loss2/conv"
  param {
    lr_mult: 1
    decay_mult: 1
  }
  param {
    lr_mult: 2
    decay_mult: 0
  }
  convolution_param {
    num_output: 128
    kernel_size: 1
    weight_filler {
      type: "xavier"
      std: 0.08
    }
    bias_filler {
      type: "constant"
      value: 0.2
    }
  }
}
layer {
  name: "loss2/relu_conv"
  type: "ReLU"
  bottom: "loss2/conv"
  top: "loss2/conv"
}
layer {
  name: "loss2/fc"
  type: "InnerProduct"
  bottom: "loss2/conv"
  top: "loss2/fc"
  param {
    lr_mult: 1
    decay_mult: 1
  }
  param {
    lr_mult: 2
    decay_mult: 0
  }
  inner_product_param {
    num_output: 1024
    weight_filler {
      type: "xavier"
      std: 0.02
    }
    bias_filler {
      type: "constant"
      value: 0.2
    }
  }
}
layer {
  name: "loss2/relu_fc"
  type: "ReLU"
  bottom: "loss2/fc"
  top: "loss2/fc"
}
layer {
  name: "loss2/drop_fc"
  type: "Dropout"
  bottom: "loss2/fc"
  top: "loss2/fc"
  dropout_param {
    dropout_ratio: 0.7
  }
}
layer {
  name: "loss2/classifier_plantvillage"
  type: "InnerProduct"
  bottom: "loss2/fc"
  top: "loss2/classifier_plantvillage"
  param {
    lr_mult: 1
    decay_mult: 1
  }
  param {
    lr_mult: 2
    decay_mult: 0
  }
  inner_product_param {
    num_output: 38
    weight_filler {
      type: "xavier"
      std: 0.0009765625
    }
    bias_filler {
      type: "constant"
      value: 0
    }
  }
}
layer {
  name: "inception_4e/1x1"
  type: "Convolution"
  bottom: "inception_4d/output"
  top: "inception_4e/1x1"
  param {
    lr_mult: 1
    decay_mult: 1
  }
  param {
    lr_mult: 2
    decay_mult: 0
  }
  convolution_param {
    num_output: 256
    kernel_size: 1
    weight_filler {
      type: "xavier"
      std: 0.03
    }
    bias_filler {
      type: "constant"
      value: 0.2
    }
  }
}
layer {
  name: "inception_4e/relu_1x1"
  type: "ReLU"
  bottom: "inception_4e/1x1"
  top: "inception_4e/1x1"
}
layer {
  name: "inception_4e/3x3_reduce"
  type: "Convolution"
  bottom: "inception_4d/output"
  top: "inception_4e/3x3_reduce"
  param {
    lr_mult: 1
    decay_mult: 1
  }
  param {
    lr_mult: 2
    decay_mult: 0
  }
  convolution_param {
    num_output: 160
    kernel_size: 1
    weight_filler {
      type: "xavier"
      std: 0.09
    }
    bias_filler {
      type: "constant"
      value: 0.2
    }
  }
}
layer {
  name: "inception_4e/relu_3x3_reduce"
  type: "ReLU"
  bottom: "inception_4e/3x3_reduce"
  top: "inception_4e/3x3_reduce"
}
layer {
  name: "inception_4e/3x3"
  type: "Convolution"
  bottom: "inception_4e/3x3_reduce"
  top: "inception_4e/3x3"
  param {
    lr_mult: 1
    decay_mult: 1
  }
  param {
    lr_mult: 2
    decay_mult: 0
  }
  convolution_param {
    num_output: 320
    pad: 1
    kernel_size: 3
    weight_filler {
      type: "xavier"
      std: 0.03
    }
    bias_filler {
      type: "constant"
      value: 0.2
    }
  }
}
layer {
  name: "inception_4e/relu_3x3"
  type: "ReLU"
  bottom: "inception_4e/3x3"
  top: "inception_4e/3x3"
}
layer {
  name: "inception_4e/5x5_reduce"
  type: "Convolution"
  bottom: "inception_4d/output"
  top: "inception_4e/5x5_reduce"
  param {
    lr_mult: 1
    decay_mult: 1
  }
  param {
    lr_mult: 2
    decay_mult: 0
  }
  convolution_param {
    num_output: 32
    kernel_size: 1
    weight_filler {
      type: "xavier"
      std: 0.2
    }
    bias_filler {
      type: "constant"
      value: 0.2
    }
  }
}
layer {
  name: "inception_4e/relu_5x5_reduce"
  type: "ReLU"
  bottom: "inception_4e/5x5_reduce"
  top: "inception_4e/5x5_reduce"
}
layer {
  name: "inception_4e/5x5"
  type: "Convolution"
  bottom: "inception_4e/5x5_reduce"
  top: "inception_4e/
I0403 14:21:33.545181 13186 layer_factory.hpp:77] Creating layer data
I0403 14:21:33.545769 13186 net.cpp:91] Creating Layer data
I0403 14:21:33.545799 13186 net.cpp:399] data -> data
I0403 14:21:33.545850 13186 net.cpp:399] data -> label
I0403 14:21:33.545884 13186 data_transformer.cpp:25] Loading mean file from: /home/mohanty/data/final_dataset/lmdb/segmented-20-80/mean.binaryproto
I0403 14:21:33.548418 13189 db_lmdb.cpp:38] Opened lmdb /home/mohanty/data/final_dataset/lmdb/segmented-20-80/test_db
I0403 14:21:33.558488 13186 data_layer.cpp:41] output data size: 24,3,224,224
I0403 14:21:33.585716 13186 net.cpp:141] Setting up data
I0403 14:21:33.585805 13186 net.cpp:148] Top shape: 24 3 224 224 (3612672)
I0403 14:21:33.585829 13186 net.cpp:148] Top shape: 24 (24)
I0403 14:21:33.585844 13186 net.cpp:156] Memory required for data: 14450784
I0403 14:21:33.585873 13186 layer_factory.hpp:77] Creating layer label_data_1_split
I0403 14:21:33.585901 13186 net.cpp:91] Creating Layer label_data_1_split
I0403 14:21:33.585921 13186 net.cpp:425] label_data_1_split <- label
I0403 14:21:33.585954 13186 net.cpp:399] label_data_1_split -> label_data_1_split_0
I0403 14:21:33.585983 13186 net.cpp:399] label_data_1_split -> label_data_1_split_1
I0403 14:21:33.586005 13186 net.cpp:399] label_data_1_split -> label_data_1_split_2
I0403 14:21:33.586027 13186 net.cpp:399] label_data_1_split -> label_data_1_split_3
I0403 14:21:33.586048 13186 net.cpp:399] label_data_1_split -> label_data_1_split_4
I0403 14:21:33.586069 13186 net.cpp:399] label_data_1_split -> label_data_1_split_5
I0403 14:21:33.586089 13186 net.cpp:399] label_data_1_split -> label_data_1_split_6
I0403 14:21:33.586112 13186 net.cpp:399] label_data_1_split -> label_data_1_split_7
I0403 14:21:33.586133 13186 net.cpp:399] label_data_1_split -> label_data_1_split_8
I0403 14:21:33.586153 13186 net.cpp:399] label_data_1_split -> label_data_1_split_9
I0403 14:21:33.586273 13186 net.cpp:141] Setting up label_data_1_split
I0403 14:21:33.586298 13186 net.cpp:148] Top shape: 24 (24)
I0403 14:21:33.586316 13186 net.cpp:148] Top shape: 24 (24)
I0403 14:21:33.586333 13186 net.cpp:148] Top shape: 24 (24)
I0403 14:21:33.586350 13186 net.cpp:148] Top shape: 24 (24)
I0403 14:21:33.586367 13186 net.cpp:148] Top shape: 24 (24)
I0403 14:21:33.586383 13186 net.cpp:148] Top shape: 24 (24)
I0403 14:21:33.586400 13186 net.cpp:148] Top shape: 24 (24)
I0403 14:21:33.586416 13186 net.cpp:148] Top shape: 24 (24)
I0403 14:21:33.586433 13186 net.cpp:148] Top shape: 24 (24)
I0403 14:21:33.586452 13186 net.cpp:148] Top shape: 24 (24)
I0403 14:21:33.586500 13186 net.cpp:156] Memory required for data: 14451744
I0403 14:21:33.586518 13186 layer_factory.hpp:77] Creating layer conv1/7x7_s2
I0403 14:21:33.586555 13186 net.cpp:91] Creating Layer conv1/7x7_s2
I0403 14:21:33.586575 13186 net.cpp:425] conv1/7x7_s2 <- data
I0403 14:21:33.586596 13186 net.cpp:399] conv1/7x7_s2 -> conv1/7x7_s2
I0403 14:21:33.726073 13186 net.cpp:141] Setting up conv1/7x7_s2
I0403 14:21:33.726148 13186 net.cpp:148] Top shape: 24 64 112 112 (19267584)
I0403 14:21:33.726166 13186 net.cpp:156] Memory required for data: 91522080
I0403 14:21:33.726197 13186 layer_factory.hpp:77] Creating layer conv1/relu_7x7
I0403 14:21:33.726222 13186 net.cpp:91] Creating Layer conv1/relu_7x7
I0403 14:21:33.726241 13186 net.cpp:425] conv1/relu_7x7 <- conv1/7x7_s2
I0403 14:21:33.726260 13186 net.cpp:386] conv1/relu_7x7 -> conv1/7x7_s2 (in-place)
I0403 14:21:33.726508 13186 net.cpp:141] Setting up conv1/relu_7x7
I0403 14:21:33.726536 13186 net.cpp:148] Top shape: 24 64 112 112 (19267584)
I0403 14:21:33.726555 13186 net.cpp:156] Memory required for data: 168592416
I0403 14:21:33.726570 13186 layer_factory.hpp:77] Creating layer pool1/3x3_s2
I0403 14:21:33.726594 13186 net.cpp:91] Creating Layer pool1/3x3_s2
I0403 14:21:33.726611 13186 net.cpp:425] pool1/3x3_s2 <- conv1/7x7_s2
I0403 14:21:33.726629 13186 net.cpp:399] pool1/3x3_s2 -> pool1/3x3_s2
I0403 14:21:33.726699 13186 net.cpp:141] Setting up pool1/3x3_s2
I0403 14:21:33.726722 13186 net.cpp:148] Top shape: 24 64 56 56 (4816896)
I0403 14:21:33.726737 13186 net.cpp:156] Memory required for data: 187860000
I0403 14:21:33.726752 13186 layer_factory.hpp:77] Creating layer pool1/norm1
I0403 14:21:33.726775 13186 net.cpp:91] Creating Layer pool1/norm1
I0403 14:21:33.726793 13186 net.cpp:425] pool1/norm1 <- pool1/3x3_s2
I0403 14:21:33.726809 13186 net.cpp:399] pool1/norm1 -> pool1/norm1
I0403 14:21:33.727079 13186 net.cpp:141] Setting up pool1/norm1
I0403 14:21:33.727105 13186 net.cpp:148] Top shape: 24 64 56 56 (4816896)
I0403 14:21:33.727120 13186 net.cpp:156] Memory required for data: 207127584
I0403 14:21:33.727136 13186 layer_factory.hpp:77] Creating layer conv2/3x3_reduce
I0403 14:21:33.727160 13186 net.cpp:91] Creating Layer conv2/3x3_reduce
I0403 14:21:33.727177 13186 net.cpp:425] conv2/3x3_reduce <- pool1/norm1
I0403 14:21:33.727195 13186 net.cpp:399] conv2/3x3_reduce -> conv2/3x3_reduce
I0403 14:21:33.728443 13186 net.cpp:141] Setting up conv2/3x3_reduce
I0403 14:21:33.728471 13186 net.cpp:148] Top shape: 24 64 56 56 (4816896)
I0403 14:21:33.728487 13186 net.cpp:156] Memory required for data: 226395168
I0403 14:21:33.728508 13186 layer_factory.hpp:77] Creating layer conv2/relu_3x3_reduce
I0403 14:21:33.728528 13186 net.cpp:91] Creating Layer conv2/relu_3x3_reduce
I0403 14:21:33.728549 13186 net.cpp:425] conv2/relu_3x3_reduce <- conv2/3x3_reduce
I0403 14:21:33.728566 13186 net.cpp:386] conv2/relu_3x3_reduce -> conv2/3x3_reduce (in-place)
I0403 14:21:33.728809 13186 net.cpp:141] Setting up conv2/relu_3x3_reduce
I0403 14:21:33.728835 13186 net.cpp:148] Top shape: 24 64 56 56 (4816896)
I0403 14:21:33.728850 13186 net.cpp:156] Memory required for data: 245662752
I0403 14:21:33.728864 13186 layer_factory.hpp:77] Creating layer conv2/3x3
I0403 14:21:33.728886 13186 net.cpp:91] Creating Layer conv2/3x3
I0403 14:21:33.728904 13186 net.cpp:425] conv2/3x3 <- conv2/3x3_reduce
I0403 14:21:33.728922 13186 net.cpp:399] conv2/3x3 -> conv2/3x3
I0403 14:21:33.731138 13186 net.cpp:141] Setting up conv2/3x3
I0403 14:21:33.731170 13186 net.cpp:148] Top shape: 24 192 56 56 (14450688)
I0403 14:21:33.731187 13186 net.cpp:156] Memory required for data: 303465504
I0403 14:21:33.731209 13186 layer_factory.hpp:77] Creating layer conv2/relu_3x3
I0403 14:21:33.731228 13186 net.cpp:91] Creating Layer conv2/relu_3x3
I0403 14:21:33.731245 13186 net.cpp:425] conv2/relu_3x3 <- conv2/3x3
I0403 14:21:33.731266 13186 net.cpp:386] conv2/relu_3x3 -> conv2/3x3 (in-place)
I0403 14:21:33.731432 13186 net.cpp:141] Setting up conv2/relu_3x3
I0403 14:21:33.731457 13186 net.cpp:148] Top shape: 24 192 56 56 (14450688)
I0403 14:21:33.731505 13186 net.cpp:156] Memory required for data: 361268256
I0403 14:21:33.731521 13186 layer_factory.hpp:77] Creating layer conv2/norm2
I0403 14:21:33.731546 13186 net.cpp:91] Creating Layer conv2/norm2
I0403 14:21:33.731565 13186 net.cpp:425] conv2/norm2 <- conv2/3x3
I0403 14:21:33.731583 13186 net.cpp:399] conv2/norm2 -> conv2/norm2
I0403 14:21:33.731894 13186 net.cpp:141] Setting up conv2/norm2
I0403 14:21:33.731920 13186 net.cpp:148] Top shape: 24 192 56 56 (14450688)
I0403 14:21:33.731935 13186 net.cpp:156] Memory required for data: 419071008
I0403 14:21:33.731950 13186 layer_factory.hpp:77] Creating layer pool2/3x3_s2
I0403 14:21:33.731971 13186 net.cpp:91] Creating Layer pool2/3x3_s2
I0403 14:21:33.731989 13186 net.cpp:425] pool2/3x3_s2 <- conv2/norm2
I0403 14:21:33.732018 13186 net.cpp:399] pool2/3x3_s2 -> pool2/3x3_s2
I0403 14:21:33.732071 13186 net.cpp:141] Setting up pool2/3x3_s2
I0403 14:21:33.732094 13186 net.cpp:148] Top shape: 24 192 28 28 (3612672)
I0403 14:21:33.732108 13186 net.cpp:156] Memory required for data: 433521696
I0403 14:21:33.732122 13186 layer_factory.hpp:77] Creating layer pool2/3x3_s2_pool2/3x3_s2_0_split
I0403 14:21:33.732139 13186 net.cpp:91] Creating Layer pool2/3x3_s2_pool2/3x3_s2_0_split
I0403 14:21:33.732156 13186 net.cpp:425] pool2/3x3_s2_pool2/3x3_s2_0_split <- pool2/3x3_s2
I0403 14:21:33.732175 13186 net.cpp:399] pool2/3x3_s2_pool2/3x3_s2_0_split -> pool2/3x3_s2_pool2/3x3_s2_0_split_0
I0403 14:21:33.732195 13186 net.cpp:399] pool2/3x3_s2_pool2/3x3_s2_0_split -> pool2/3x3_s2_pool2/3x3_s2_0_split_1
I0403 14:21:33.732214 13186 net.cpp:399] pool2/3x3_s2_pool2/3x3_s2_0_split -> pool2/3x3_s2_pool2/3x3_s2_0_split_2
I0403 14:21:33.732234 13186 net.cpp:399] pool2/3x3_s2_pool2/3x3_s2_0_split -> pool2/3x3_s2_pool2/3x3_s2_0_split_3
I0403 14:21:33.732302 13186 net.cpp:141] Setting up pool2/3x3_s2_pool2/3x3_s2_0_split
I0403 14:21:33.732324 13186 net.cpp:148] Top shape: 24 192 28 28 (3612672)
I0403 14:21:33.732341 13186 net.cpp:148] Top shape: 24 192 28 28 (3612672)
I0403 14:21:33.732357 13186 net.cpp:148] Top shape: 24 192 28 28 (3612672)
I0403 14:21:33.732372 13186 net.cpp:148] Top shape: 24 192 28 28 (3612672)
I0403 14:21:33.732384 13186 net.cpp:156] Memory required for data: 491324448
I0403 14:21:33.732399 13186 layer_factory.hpp:77] Creating layer inception_3a/1x1
I0403 14:21:33.732420 13186 net.cpp:91] Creating Layer inception_3a/1x1
I0403 14:21:33.732437 13186 net.cpp:425] inception_3a/1x1 <- pool2/3x3_s2_pool2/3x3_s2_0_split_0
I0403 14:21:33.732457 13186 net.cpp:399] inception_3a/1x1 -> inception_3a/1x1
I0403 14:21:33.733917 13186 net.cpp:141] Setting up inception_3a/1x1
I0403 14:21:33.733947 13186 net.cpp:148] Top shape: 24 64 28 28 (1204224)
I0403 14:21:33.733963 13186 net.cpp:156] Memory required for data: 496141344
I0403 14:21:33.733983 13186 layer_factory.hpp:77] Creating layer inception_3a/relu_1x1
I0403 14:21:33.734000 13186 net.cpp:91] Creating Layer inception_3a/relu_1x1
I0403 14:21:33.734017 13186 net.cpp:425] inception_3a/relu_1x1 <- inception_3a/1x1
I0403 14:21:33.734035 13186 net.cpp:386] inception_3a/relu_1x1 -> inception_3a/1x1 (in-place)
I0403 14:21:33.734201 13186 net.cpp:141] Setting up inception_3a/relu_1x1
I0403 14:21:33.734225 13186 net.cpp:148] Top shape: 24 64 28 28 (1204224)
I0403 14:21:33.734241 13186 net.cpp:156] Memory required for data: 500958240
I0403 14:21:33.734256 13186 layer_factory.hpp:77] Creating layer inception_3a/3x3_reduce
I0403 14:21:33.734277 13186 net.cpp:91] Creating Layer inception_3a/3x3_reduce
I0403 14:21:33.734294 13186 net.cpp:425] inception_3a/3x3_reduce <- pool2/3x3_s2_pool2/3x3_s2_0_split_1
I0403 14:21:33.734314 13186 net.cpp:399] inception_3a/3x3_reduce -> inception_3a/3x3_reduce
I0403 14:21:33.735973 13186 net.cpp:141] Setting up inception_3a/3x3_reduce
I0403 14:21:33.736007 13186 net.cpp:148] Top shape: 24 96 28 28 (1806336)
I0403 14:21:33.736024 13186 net.cpp:156] Memory required for data: 508183584
I0403 14:21:33.736047 13186 layer_factory.hpp:77] Creating layer inception_3a/relu_3x3_reduce
I0403 14:21:33.736081 13186 net.cpp:91] Creating Layer inception_3a/relu_3x3_reduce
I0403 14:21:33.736099 13186 net.cpp:425] inception_3a/relu_3x3_reduce <- inception_3a/3x3_reduce
I0403 14:21:33.736120 13186 net.cpp:386] inception_3a/relu_3x3_reduce -> inception_3a/3x3_reduce (in-place)
I0403 14:21:33.736299 13186 net.cpp:141] Setting up inception_3a/relu_3x3_reduce
I0403 14:21:33.736325 13186 net.cpp:148] Top shape: 24 96 28 28 (1806336)
I0403 14:21:33.736340 13186 net.cpp:156] Memory required for data: 515408928
I0403 14:21:33.736354 13186 layer_factory.hpp:77] Creating layer inception_3a/3x3
I0403 14:21:33.736379 13186 net.cpp:91] Creating Layer inception_3a/3x3
I0403 14:21:33.736397 13186 net.cpp:425] inception_3a/3x3 <- inception_3a/3x3_reduce
I0403 14:21:33.736416 13186 net.cpp:399] inception_3a/3x3 -> inception_3a/3x3
I0403 14:21:33.738044 13186 net.cpp:141] Setting up inception_3a/3x3
I0403 14:21:33.738073 13186 net.cpp:148] Top shape: 24 128 28 28 (2408448)
I0403 14:21:33.738090 13186 net.cpp:156] Memory required for data: 525042720
I0403 14:21:33.738109 13186 layer_factory.hpp:77] Creating layer inception_3a/relu_3x3
I0403 14:21:33.738127 13186 net.cpp:91] Creating Layer inception_3a/relu_3x3
I0403 14:21:33.738143 13186 net.cpp:425] inception_3a/relu_3x3 <- inception_3a/3x3
I0403 14:21:33.738163 13186 net.cpp:386] inception_3a/relu_3x3 -> inception_3a/3x3 (in-place)
I0403 14:21:33.738440 13186 net.cpp:141] Setting up inception_3a/relu_3x3
I0403 14:21:33.738466 13186 net.cpp:148] Top shape: 24 128 28 28 (2408448)
I0403 14:21:33.738481 13186 net.cpp:156] Memory required for data: 534676512
I0403 14:21:33.738497 13186 layer_factory.hpp:77] Creating layer inception_3a/5x5_reduce
I0403 14:21:33.738519 13186 net.cpp:91] Creating Layer inception_3a/5x5_reduce
I0403 14:21:33.738541 13186 net.cpp:425] inception_3a/5x5_reduce <- pool2/3x3_s2_pool2/3x3_s2_0_split_2
I0403 14:21:33.738565 13186 net.cpp:399] inception_3a/5x5_reduce -> inception_3a/5x5_reduce
I0403 14:21:33.739513 13186 net.cpp:141] Setting up inception_3a/5x5_reduce
I0403 14:21:33.739544 13186 net.cpp:148] Top shape: 24 16 28 28 (301056)
I0403 14:21:33.739562 13186 net.cpp:156] Memory required for data: 535880736
I0403 14:21:33.739580 13186 layer_factory.hpp:77] Creating layer inception_3a/relu_5x5_reduce
I0403 14:21:33.739598 13186 net.cpp:91] Creating Layer inception_3a/relu_5x5_reduce
I0403 14:21:33.739614 13186 net.cpp:425] inception_3a/relu_5x5_reduce <- inception_3a/5x5_reduce
I0403 14:21:33.739634 13186 net.cpp:386] inception_3a/relu_5x5_reduce -> inception_3a/5x5_reduce (in-place)
I0403 14:21:33.739933 13186 net.cpp:141] Setting up inception_3a/relu_5x5_reduce
I0403 14:21:33.739959 13186 net.cpp:148] Top shape: 24 16 28 28 (301056)
I0403 14:21:33.739974 13186 net.cpp:156] Memory required for data: 537084960
I0403 14:21:33.739989 13186 layer_factory.hpp:77] Creating layer inception_3a/5x5
I0403 14:21:33.740011 13186 net.cpp:91] Creating Layer inception_3a/5x5
I0403 14:21:33.740031 13186 net.cpp:425] inception_3a/5x5 <- inception_3a/5x5_reduce
I0403 14:21:33.740051 13186 net.cpp:399] inception_3a/5x5 -> inception_3a/5x5
I0403 14:21:33.741052 13186 net.cpp:141] Setting up inception_3a/5x5
I0403 14:21:33.741083 13186 net.cpp:148] Top shape: 24 32 28 28 (602112)
I0403 14:21:33.741101 13186 net.cpp:156] Memory required for data: 539493408
I0403 14:21:33.741119 13186 layer_factory.hpp:77] Creating layer inception_3a/relu_5x5
I0403 14:21:33.741137 13186 net.cpp:91] Creating Layer inception_3a/relu_5x5
I0403 14:21:33.741153 13186 net.cpp:425] inception_3a/relu_5x5 <- inception_3a/5x5
I0403 14:21:33.741171 13186 net.cpp:386] inception_3a/relu_5x5 -> inception_3a/5x5 (in-place)
I0403 14:21:33.741346 13186 net.cpp:141] Setting up inception_3a/relu_5x5
I0403 14:21:33.741370 13186 net.cpp:148] Top shape: 24 32 28 28 (602112)
I0403 14:21:33.741385 13186 net.cpp:156] Memory required for data: 541901856
I0403 14:21:33.741400 13186 layer_factory.hpp:77] Creating layer inception_3a/pool
I0403 14:21:33.741417 13186 net.cpp:91] Creating Layer inception_3a/pool
I0403 14:21:33.741447 13186 net.cpp:425] inception_3a/pool <- pool2/3x3_s2_pool2/3x3_s2_0_split_3
I0403 14:21:33.741469 13186 net.cpp:399] inception_3a/pool -> inception_3a/pool
I0403 14:21:33.741525 13186 net.cpp:141] Setting up inception_3a/pool
I0403 14:21:33.741557 13186 net.cpp:148] Top shape: 24 192 28 28 (3612672)
I0403 14:21:33.741575 13186 net.cpp:156] Memory required for data: 556352544
I0403 14:21:33.741590 13186 layer_factory.hpp:77] Creating layer inception_3a/pool_proj
I0403 14:21:33.741611 13186 net.cpp:91] Creating Layer inception_3a/pool_proj
I0403 14:21:33.741629 13186 net.cpp:425] inception_3a/pool_proj <- inception_3a/pool
I0403 14:21:33.741648 13186 net.cpp:399] inception_3a/pool_proj -> inception_3a/pool_proj
I0403 14:21:33.742597 13186 net.cpp:141] Setting up inception_3a/pool_proj
I0403 14:21:33.742625 13186 net.cpp:148] Top shape: 24 32 28 28 (602112)
I0403 14:21:33.742641 13186 net.cpp:156] Memory required for data: 558760992
I0403 14:21:33.742667 13186 layer_factory.hpp:77] Creating layer inception_3a/relu_pool_proj
I0403 14:21:33.742687 13186 net.cpp:91] Creating Layer inception_3a/relu_pool_proj
I0403 14:21:33.742704 13186 net.cpp:425] inception_3a/relu_pool_proj <- inception_3a/pool_proj
I0403 14:21:33.742724 13186 net.cpp:386] inception_3a/relu_pool_proj -> inception_3a/pool_proj (in-place)
I0403 14:21:33.742991 13186 net.cpp:141] Setting up inception_3a/relu_pool_proj
I0403 14:21:33.743019 13186 net.cpp:148] Top shape: 24 32 28 28 (602112)
I0403 14:21:33.743036 13186 net.cpp:156] Memory required for data: 561169440
I0403 14:21:33.743051 13186 layer_factory.hpp:77] Creating layer inception_3a/output
I0403 14:21:33.743068 13186 net.cpp:91] Creating Layer inception_3a/output
I0403 14:21:33.743084 13186 net.cpp:425] inception_3a/output <- inception_3a/1x1
I0403 14:21:33.743100 13186 net.cpp:425] inception_3a/output <- inception_3a/3x3
I0403 14:21:33.743116 13186 net.cpp:425] inception_3a/output <- inception_3a/5x5
I0403 14:21:33.743134 13186 net.cpp:425] inception_3a/output <- inception_3a/pool_proj
I0403 14:21:33.743150 13186 net.cpp:399] inception_3a/output -> inception_3a/output
I0403 14:21:33.743196 13186 net.cpp:141] Setting up inception_3a/output
I0403 14:21:33.743218 13186 net.cpp:148] Top shape: 24 256 28 28 (4816896)
I0403 14:21:33.743233 13186 net.cpp:156] Memory required for data: 580437024
I0403 14:21:33.743263 13186 layer_factory.hpp:77] Creating layer inception_3a/output_inception_3a/output_0_split
I0403 14:21:33.743283 13186 net.cpp:91] Creating Layer inception_3a/output_inception_3a/output_0_split
I0403 14:21:33.743299 13186 net.cpp:425] inception_3a/output_inception_3a/output_0_split <- inception_3a/output
I0403 14:21:33.743317 13186 net.cpp:399] inception_3a/output_inception_3a/output_0_split -> inception_3a/output_inception_3a/output_0_split_0
I0403 14:21:33.743337 13186 net.cpp:399] inception_3a/output_inception_3a/output_0_split -> inception_3a/output_inception_3a/output_0_split_1
I0403 14:21:33.743362 13186 net.cpp:399] inception_3a/output_inception_3a/output_0_split -> inception_3a/output_inception_3a/output_0_split_2
I0403 14:21:33.743386 13186 net.cpp:399] inception_3a/output_inception_3a/output_0_split -> inception_3a/output_inception_3a/output_0_split_3
I0403 14:21:33.743460 13186 net.cpp:141] Setting up inception_3a/output_inception_3a/output_0_split
I0403 14:21:33.743484 13186 net.cpp:148] Top shape: 24 256 28 28 (4816896)
I0403 14:21:33.743502 13186 net.cpp:148] Top shape: 24 256 28 28 (4816896)
I0403 14:21:33.743518 13186 net.cpp:148] Top shape: 24 256 28 28 (4816896)
I0403 14:21:33.743535 13186 net.cpp:148] Top shape: 24 256 28 28 (4816896)
I0403 14:21:33.743566 13186 net.cpp:156] Memory required for data: 657507360
I0403 14:21:33.743582 13186 layer_factory.hpp:77] Creating layer inception_3b/1x1
I0403 14:21:33.743607 13186 net.cpp:91] Creating Layer inception_3b/1x1
I0403 14:21:33.743625 13186 net.cpp:425] inception_3b/1x1 <- inception_3a/output_inception_3a/output_0_split_0
I0403 14:21:33.743643 13186 net.cpp:399] inception_3b/1x1 -> inception_3b/1x1
I0403 14:21:33.744766 13186 net.cpp:141] Setting up inception_3b/1x1
I0403 14:21:33.744807 13186 net.cpp:148] Top shape: 24 128 28 28 (2408448)
I0403 14:21:33.744823 13186 net.cpp:156] Memory required for data: 667141152
I0403 14:21:33.744842 13186 layer_factory.hpp:77] Creating layer inception_3b/relu_1x1
I0403 14:21:33.744863 13186 net.cpp:91] Creating Layer inception_3b/relu_1x1
I0403 14:21:33.744880 13186 net.cpp:425] inception_3b/relu_1x1 <- inception_3b/1x1
I0403 14:21:33.744897 13186 net.cpp:386] inception_3b/relu_1x1 -> inception_3b/1x1 (in-place)
I0403 14:21:33.745071 13186 net.cpp:141] Setting up inception_3b/relu_1x1
I0403 14:21:33.745096 13186 net.cpp:148] Top shape: 24 128 28 28 (2408448)
I0403 14:21:33.745111 13186 net.cpp:156] Memory required for data: 676774944
I0403 14:21:33.745126 13186 layer_factory.hpp:77] Creating layer inception_3b/3x3_reduce
I0403 14:21:33.745148 13186 net.cpp:91] Creating Layer inception_3b/3x3_reduce
I0403 14:21:33.745167 13186 net.cpp:425] inception_3b/3x3_reduce <- inception_3a/output_inception_3a/output_0_split_1
I0403 14:21:33.745187 13186 net.cpp:399] inception_3b/3x3_reduce -> inception_3b/3x3_reduce
I0403 14:21:33.746304 13186 net.cpp:141] Setting up inception_3b/3x3_reduce
I0403 14:21:33.746332 13186 net.cpp:148] Top shape: 24 128 28 28 (2408448)
I0403 14:21:33.746352 13186 net.cpp:156] Memory required for data: 686408736
I0403 14:21:33.746371 13186 layer_factory.hpp:77] Creating layer inception_3b/relu_3x3_reduce
I0403 14:21:33.746389 13186 net.cpp:91] Creating Layer inception_3b/relu_3x3_reduce
I0403 14:21:33.746407 13186 net.cpp:425] inception_3b/relu_3x3_reduce <- inception_3b/3x3_reduce
I0403 14:21:33.746423 13186 net.cpp:386] inception_3b/relu_3x3_reduce -> inception_3b/3x3_reduce (in-place)
I0403 14:21:33.746600 13186 net.cpp:141] Setting up inception_3b/relu_3x3_reduce
I0403 14:21:33.746628 13186 net.cpp:148] Top shape: 24 128 28 28 (2408448)
I0403 14:21:33.746644 13186 net.cpp:156] Memory required for data: 696042528
I0403 14:21:33.746659 13186 layer_factory.hpp:77] Creating layer inception_3b/3x3
I0403 14:21:33.746685 13186 net.cpp:91] Creating Layer inception_3b/3x3
I0403 14:21:33.746703 13186 net.cpp:425] inception_3b/3x3 <- inception_3b/3x3_reduce
I0403 14:21:33.746724 13186 net.cpp:399] inception_3b/3x3 -> inception_3b/3x3
I0403 14:21:33.749591 13186 net.cpp:141] Setting up inception_3b/3x3
I0403 14:21:33.749621 13186 net.cpp:148] Top shape: 24 192 28 28 (3612672)
I0403 14:21:33.749639 13186 net.cpp:156] Memory required for data: 710493216
I0403 14:21:33.749656 13186 layer_factory.hpp:77] Creating layer inception_3b/relu_3x3
I0403 14:21:33.749675 13186 net.cpp:91] Creating Layer inception_3b/relu_3x3
I0403 14:21:33.749691 13186 net.cpp:425] inception_3b/relu_3x3 <- inception_3b/3x3
I0403 14:21:33.749711 13186 net.cpp:386] inception_3b/relu_3x3 -> inception_3b/3x3 (in-place)
I0403 14:21:33.749989 13186 net.cpp:141] Setting up inception_3b/relu_3x3
I0403 14:21:33.750018 13186 net.cpp:148] Top shape: 24 192 28 28 (3612672)
I0403 14:21:33.750033 13186 net.cpp:156] Memory required for data: 724943904
I0403 14:21:33.750048 13186 layer_factory.hpp:77] Creating layer inception_3b/5x5_reduce
I0403 14:21:33.750072 13186 net.cpp:91] Creating Layer inception_3b/5x5_reduce
I0403 14:21:33.750090 13186 net.cpp:425] inception_3b/5x5_reduce <- inception_3a/output_inception_3a/output_0_split_2
I0403 14:21:33.750113 13186 net.cpp:399] inception_3b/5x5_reduce -> inception_3b/5x5_reduce
I0403 14:21:33.751093 13186 net.cpp:141] Setting up inception_3b/5x5_reduce
I0403 14:21:33.751123 13186 net.cpp:148] Top shape: 24 32 28 28 (602112)
I0403 14:21:33.751139 13186 net.cpp:156] Memory required for data: 727352352
I0403 14:21:33.751158 13186 layer_factory.hpp:77] Creating layer inception_3b/relu_5x5_reduce
I0403 14:21:33.751178 13186 net.cpp:91] Creating Layer inception_3b/relu_5x5_reduce
I0403 14:21:33.751194 13186 net.cpp:425] inception_3b/relu_5x5_reduce <- inception_3b/5x5_reduce
I0403 14:21:33.751214 13186 net.cpp:386] inception_3b/relu_5x5_reduce -> inception_3b/5x5_reduce (in-place)
I0403 14:21:33.751404 13186 net.cpp:141] Setting up inception_3b/relu_5x5_reduce
I0403 14:21:33.751430 13186 net.cpp:148] Top shape: 24 32 28 28 (602112)
I0403 14:21:33.751444 13186 net.cpp:156] Memory required for data: 729760800
I0403 14:21:33.751459 13186 layer_factory.hpp:77] Creating layer inception_3b/5x5
I0403 14:21:33.751482 13186 net.cpp:91] Creating Layer inception_3b/5x5
I0403 14:21:33.751500 13186 net.cpp:425] inception_3b/5x5 <- inception_3b/5x5_reduce
I0403 14:21:33.751523 13186 net.cpp:399] inception_3b/5x5 -> inception_3b/5x5
I0403 14:21:33.753466 13186 net.cpp:141] Setting up inception_3b/5x5
I0403 14:21:33.753495 13186 net.cpp:148] Top shape: 24 96 28 28 (1806336)
I0403 14:21:33.753511 13186 net.cpp:156] Memory required for data: 736986144
I0403 14:21:33.753530 13186 layer_factory.hpp:77] Creating layer inception_3b/relu_5x5
I0403 14:21:33.753559 13186 net.cpp:91] Creating Layer inception_3b/relu_5x5
I0403 14:21:33.753576 13186 net.cpp:425] inception_3b/relu_5x5 <- inception_3b/5x5
I0403 14:21:33.753595 13186 net.cpp:386] inception_3b/relu_5x5 -> inception_3b/5x5 (in-place)
I0403 14:21:33.753787 13186 net.cpp:141] Setting up inception_3b/relu_5x5
I0403 14:21:33.753813 13186 net.cpp:148] Top shape: 24 96 28 28 (1806336)
I0403 14:21:33.753828 13186 net.cpp:156] Memory required for data: 744211488
I0403 14:21:33.753842 13186 layer_factory.hpp:77] Creating layer inception_3b/pool
I0403 14:21:33.753860 13186 net.cpp:91] Creating Layer inception_3b/pool
I0403 14:21:33.753876 13186 net.cpp:425] inception_3b/pool <- inception_3a/output_inception_3a/output_0_split_3
I0403 14:21:33.753895 13186 net.cpp:399] inception_3b/pool -> inception_3b/pool
I0403 14:21:33.753950 13186 net.cpp:141] Setting up inception_3b/pool
I0403 14:21:33.753973 13186 net.cpp:148] Top shape: 24 256 28 28 (4816896)
I0403 14:21:33.753988 13186 net.cpp:156] Memory required for data: 763479072
I0403 14:21:33.754003 13186 layer_factory.hpp:77] Creating layer inception_3b/pool_proj
I0403 14:21:33.754025 13186 net.cpp:91] Creating Layer inception_3b/pool_proj
I0403 14:21:33.754045 13186 net.cpp:425] inception_3b/pool_proj <- inception_3b/pool
I0403 14:21:33.754066 13186 net.cpp:399] inception_3b/pool_proj -> inception_3b/pool_proj
I0403 14:21:33.755142 13186 net.cpp:141] Setting up inception_3b/pool_proj
I0403 14:21:33.755170 13186 net.cpp:148] Top shape: 24 64 28 28 (1204224)
I0403 14:21:33.755187 13186 net.cpp:156] Memory required for data: 768295968
I0403 14:21:33.755204 13186 layer_factory.hpp:77] Creating layer inception_3b/relu_pool_proj
I0403 14:21:33.755225 13186 net.cpp:91] Creating Layer inception_3b/relu_pool_proj
I0403 14:21:33.755242 13186 net.cpp:425] inception_3b/relu_pool_proj <- inception_3b/pool_proj
I0403 14:21:33.755260 13186 net.cpp:386] inception_3b/relu_pool_proj -> inception_3b/pool_proj (in-place)
I0403 14:21:33.755671 13186 net.cpp:141] Setting up inception_3b/relu_pool_proj
I0403 14:21:33.755697 13186 net.cpp:148] Top shape: 24 64 28 28 (1204224)
I0403 14:21:33.755712 13186 net.cpp:156] Memory required for data: 773112864
I0403 14:21:33.755728 13186 layer_factory.hpp:77] Creating layer inception_3b/output
I0403 14:21:33.755745 13186 net.cpp:91] Creating Layer inception_3b/output
I0403 14:21:33.755761 13186 net.cpp:425] inception_3b/output <- inception_3b/1x1
I0403 14:21:33.755779 13186 net.cpp:425] inception_3b/output <- inception_3b/3x3
I0403 14:21:33.755795 13186 net.cpp:425] inception_3b/output <- inception_3b/5x5
I0403 14:21:33.755810 13186 net.cpp:425] inception_3b/output <- inception_3b/pool_proj
I0403 14:21:33.755831 13186 net.cpp:399] inception_3b/output -> inception_3b/output
I0403 14:21:33.755874 13186 net.cpp:141] Setting up inception_3b/output
I0403 14:21:33.755899 13186 net.cpp:148] Top shape: 24 480 28 28 (9031680)
I0403 14:21:33.755916 13186 net.cpp:156] Memory required for data: 809239584
I0403 14:21:33.755930 13186 layer_factory.hpp:77] Creating layer pool3/3x3_s2
I0403 14:21:33.755949 13186 net.cpp:91] Creating Layer pool3/3x3_s2
I0403 14:21:33.755964 13186 net.cpp:425] pool3/3x3_s2 <- inception_3b/output
I0403 14:21:33.756000 13186 net.cpp:399] pool3/3x3_s2 -> pool3/3x3_s2
I0403 14:21:33.756059 13186 net.cpp:141] Setting up pool3/3x3_s2
I0403 14:21:33.756083 13186 net.cpp:148] Top shape: 24 480 14 14 (2257920)
I0403 14:21:33.756098 13186 net.cpp:156] Memory required for data: 818271264
I0403 14:21:33.756113 13186 layer_factory.hpp:77] Creating layer pool3/3x3_s2_pool3/3x3_s2_0_split
I0403 14:21:33.756132 13186 net.cpp:91] Creating Layer pool3/3x3_s2_pool3/3x3_s2_0_split
I0403 14:21:33.756148 13186 net.cpp:425] pool3/3x3_s2_pool3/3x3_s2_0_split <- pool3/3x3_s2
I0403 14:21:33.756165 13186 net.cpp:399] pool3/3x3_s2_pool3/3x3_s2_0_split -> pool3/3x3_s2_pool3/3x3_s2_0_split_0
I0403 14:21:33.756186 13186 net.cpp:399] pool3/3x3_s2_pool3/3x3_s2_0_split -> pool3/3x3_s2_pool3/3x3_s2_0_split_1
I0403 14:21:33.756206 13186 net.cpp:399] pool3/3x3_s2_pool3/3x3_s2_0_split -> pool3/3x3_s2_pool3/3x3_s2_0_split_2
I0403 14:21:33.756227 13186 net.cpp:399] pool3/3x3_s2_pool3/3x3_s2_0_split -> pool3/3x3_s2_pool3/3x3_s2_0_split_3
I0403 14:21:33.756304 13186 net.cpp:141] Setting up pool3/3x3_s2_pool3/3x3_s2_0_split
I0403 14:21:33.756326 13186 net.cpp:148] Top shape: 24 480 14 14 (2257920)
I0403 14:21:33.756342 13186 net.cpp:148] Top shape: 24 480 14 14 (2257920)
I0403 14:21:33.756358 13186 net.cpp:148] Top shape: 24 480 14 14 (2257920)
I0403 14:21:33.756374 13186 net.cpp:148] Top shape: 24 480 14 14 (2257920)
I0403 14:21:33.756387 13186 net.cpp:156] Memory required for data: 854397984
I0403 14:21:33.756402 13186 layer_factory.hpp:77] Creating layer inception_4a/1x1
I0403 14:21:33.756424 13186 net.cpp:91] Creating Layer inception_4a/1x1
I0403 14:21:33.756443 13186 net.cpp:425] inception_4a/1x1 <- pool3/3x3_s2_pool3/3x3_s2_0_split_0
I0403 14:21:33.756464 13186 net.cpp:399] inception_4a/1x1 -> inception_4a/1x1
I0403 14:21:33.758644 13186 net.cpp:141] Setting up inception_4a/1x1
I0403 14:21:33.758677 13186 net.cpp:148] Top shape: 24 192 14 14 (903168)
I0403 14:21:33.758693 13186 net.cpp:156] Memory required for data: 858010656
I0403 14:21:33.758713 13186 layer_factory.hpp:77] Creating layer inception_4a/relu_1x1
I0403 14:21:33.758734 13186 net.cpp:91] Creating Layer inception_4a/relu_1x1
I0403 14:21:33.758752 13186 net.cpp:425] inception_4a/relu_1x1 <- inception_4a/1x1
I0403 14:21:33.758769 13186 net.cpp:386] inception_4a/relu_1x1 -> inception_4a/1x1 (in-place)
I0403 14:21:33.758944 13186 net.cpp:141] Setting up inception_4a/relu_1x1
I0403 14:21:33.758970 13186 net.cpp:148] Top shape: 24 192 14 14 (903168)
I0403 14:21:33.758985 13186 net.cpp:156] Memory required for data: 861623328
I0403 14:21:33.759001 13186 layer_factory.hpp:77] Creating layer inception_4a/3x3_reduce
I0403 14:21:33.759027 13186 net.cpp:91] Creating Layer inception_4a/3x3_reduce
I0403 14:21:33.759044 13186 net.cpp:425] inception_4a/3x3_reduce <- pool3/3x3_s2_pool3/3x3_s2_0_split_1
I0403 14:21:33.759063 13186 net.cpp:399] inception_4a/3x3_reduce -> inception_4a/3x3_reduce
I0403 14:21:33.760339 13186 net.cpp:141] Setting up inception_4a/3x3_reduce
I0403 14:21:33.760366 13186 net.cpp:148] Top shape: 24 96 14 14 (451584)
I0403 14:21:33.760382 13186 net.cpp:156] Memory required for data: 863429664
I0403 14:21:33.760407 13186 layer_factory.hpp:77] Creating layer inception_4a/relu_3x3_reduce
I0403 14:21:33.760427 13186 net.cpp:91] Creating Layer inception_4a/relu_3x3_reduce
I0403 14:21:33.760443 13186 net.cpp:425] inception_4a/relu_3x3_reduce <- inception_4a/3x3_reduce
I0403 14:21:33.760464 13186 net.cpp:386] inception_4a/relu_3x3_reduce -> inception_4a/3x3_reduce (in-place)
I0403 14:21:33.760648 13186 net.cpp:141] Setting up inception_4a/relu_3x3_reduce
I0403 14:21:33.760673 13186 net.cpp:148] Top shape: 24 96 14 14 (451584)
I0403 14:21:33.760689 13186 net.cpp:156] Memory required for data: 865236000
I0403 14:21:33.760704 13186 layer_factory.hpp:77] Creating layer inception_4a/3x3
I0403 14:21:33.760728 13186 net.cpp:91] Creating Layer inception_4a/3x3
I0403 14:21:33.760747 13186 net.cpp:425] inception_4a/3x3 <- inception_4a/3x3_reduce
I0403 14:21:33.760766 13186 net.cpp:399] inception_4a/3x3 -> inception_4a/3x3
I0403 14:21:33.763423 13186 net.cpp:141] Setting up inception_4a/3x3
I0403 14:21:33.763454 13186 net.cpp:148] Top shape: 24 208 14 14 (978432)
I0403 14:21:33.763470 13186 net.cpp:156] Memory required for data: 869149728
I0403 14:21:33.763489 13186 layer_factory.hpp:77] Creating layer inception_4a/relu_3x3
I0403 14:21:33.763509 13186 net.cpp:91] Creating Layer inception_4a/relu_3x3
I0403 14:21:33.763525 13186 net.cpp:425] inception_4a/relu_3x3 <- inception_4a/3x3
I0403 14:21:33.763546 13186 net.cpp:386] inception_4a/relu_3x3 -> inception_4a/3x3 (in-place)
I0403 14:21:33.763828 13186 net.cpp:141] Setting up inception_4a/relu_3x3
I0403 14:21:33.763856 13186 net.cpp:148] Top shape: 24 208 14 14 (978432)
I0403 14:21:33.763872 13186 net.cpp:156] Memory required for data: 873063456
I0403 14:21:33.763887 13186 layer_factory.hpp:77] Creating layer inception_4a/5x5_reduce
I0403 14:21:33.763908 13186 net.cpp:91] Creating Layer inception_4a/5x5_reduce
I0403 14:21:33.763926 13186 net.cpp:425] inception_4a/5x5_reduce <- pool3/3x3_s2_pool3/3x3_s2_0_split_2
I0403 14:21:33.763947 13186 net.cpp:399] inception_4a/5x5_reduce -> inception_4a/5x5_reduce
I0403 14:21:33.764972 13186 net.cpp:141] Setting up inception_4a/5x5_reduce
I0403 14:21:33.765002 13186 net.cpp:148] Top shape: 24 16 14 14 (75264)
I0403 14:21:33.765018 13186 net.cpp:156] Memory required for data: 873364512
I0403 14:21:33.765038 13186 layer_factory.hpp:77] Creating layer inception_4a/relu_5x5_reduce
I0403 14:21:33.765055 13186 net.cpp:91] Creating Layer inception_4a/relu_5x5_reduce
I0403 14:21:33.765072 13186 net.cpp:425] inception_4a/relu_5x5_reduce <- inception_4a/5x5_reduce
I0403 14:21:33.765089 13186 net.cpp:386] inception_4a/relu_5x5_reduce -> inception_4a/5x5_reduce (in-place)
I0403 14:21:33.765269 13186 net.cpp:141] Setting up inception_4a/relu_5x5_reduce
I0403 14:21:33.765295 13186 net.cpp:148] Top shape: 24 16 14 14 (75264)
I0403 14:21:33.765310 13186 net.cpp:156] Memory required for data: 873665568
I0403 14:21:33.765324 13186 layer_factory.hpp:77] Creating layer inception_4a/5x5
I0403 14:21:33.765348 13186 net.cpp:91] Creating Layer inception_4a/5x5
I0403 14:21:33.765367 13186 net.cpp:425] inception_4a/5x5 <- inception_4a/5x5_reduce
I0403 14:21:33.765388 13186 net.cpp:399] inception_4a/5x5 -> inception_4a/5x5
I0403 14:21:33.766471 13186 net.cpp:141] Setting up inception_4a/5x5
I0403 14:21:33.766499 13186 net.cpp:148] Top shape: 24 48 14 14 (225792)
I0403 14:21:33.766515 13186 net.cpp:156] Memory required for data: 874568736
I0403 14:21:33.766532 13186 layer_factory.hpp:77] Creating layer inception_4a/relu_5x5
I0403 14:21:33.766556 13186 net.cpp:91] Creating Layer inception_4a/relu_5x5
I0403 14:21:33.766573 13186 net.cpp:425] inception_4a/relu_5x5 <- inception_4a/5x5
I0403 14:21:33.766594 13186 net.cpp:386] inception_4a/relu_5x5 -> inception_4a/5x5 (in-place)
I0403 14:21:33.766772 13186 net.cpp:141] Setting up inception_4a/relu_5x5
I0403 14:21:33.766798 13186 net.cpp:148] Top shape: 24 48 14 14 (225792)
I0403 14:21:33.766813 13186 net.cpp:156] Memory required for data: 875471904
I0403 14:21:33.766827 13186 layer_factory.hpp:77] Creating layer inception_4a/pool
I0403 14:21:33.766847 13186 net.cpp:91] Creating Layer inception_4a/pool
I0403 14:21:33.766865 13186 net.cpp:425] inception_4a/pool <- pool3/3x3_s2_pool3/3x3_s2_0_split_3
I0403 14:21:33.766883 13186 net.cpp:399] inception_4a/pool -> inception_4a/pool
I0403 14:21:33.766945 13186 net.cpp:141] Setting up inception_4a/pool
I0403 14:21:33.766968 13186 net.cpp:148] Top shape: 24 480 14 14 (2257920)
I0403 14:21:33.766983 13186 net.cpp:156] Memory required for data: 884503584
I0403 14:21:33.766999 13186 layer_factory.hpp:77] Creating layer inception_4a/pool_proj
I0403 14:21:33.767020 13186 net.cpp:91] Creating Layer inception_4a/pool_proj
I0403 14:21:33.767038 13186 net.cpp:425] inception_4a/pool_proj <- inception_4a/pool
I0403 14:21:33.767060 13186 net.cpp:399] inception_4a/pool_proj -> inception_4a/pool_proj
I0403 14:21:33.768224 13186 net.cpp:141] Setting up inception_4a/pool_proj
I0403 14:21:33.768252 13186 net.cpp:148] Top shape: 24 64 14 14 (301056)
I0403 14:21:33.768283 13186 net.cpp:156] Memory required for data: 885707808
I0403 14:21:33.768303 13186 layer_factory.hpp:77] Creating layer inception_4a/relu_pool_proj
I0403 14:21:33.768326 13186 net.cpp:91] Creating Layer inception_4a/relu_pool_proj
I0403 14:21:33.768343 13186 net.cpp:425] inception_4a/relu_pool_proj <- inception_4a/pool_proj
I0403 14:21:33.768362 13186 net.cpp:386] inception_4a/relu_pool_proj -> inception_4a/pool_proj (in-place)
I0403 14:21:33.768652 13186 net.cpp:141] Setting up inception_4a/relu_pool_proj
I0403 14:21:33.768678 13186 net.cpp:148] Top shape: 24 64 14 14 (301056)
I0403 14:21:33.768694 13186 net.cpp:156] Memory required for data: 886912032
I0403 14:21:33.768710 13186 layer_factory.hpp:77] Creating layer inception_4a/output
I0403 14:21:33.768728 13186 net.cpp:91] Creating Layer inception_4a/output
I0403 14:21:33.768744 13186 net.cpp:425] inception_4a/output <- inception_4a/1x1
I0403 14:21:33.768761 13186 net.cpp:425] inception_4a/output <- inception_4a/3x3
I0403 14:21:33.768777 13186 net.cpp:425] inception_4a/output <- inception_4a/5x5
I0403 14:21:33.768793 13186 net.cpp:425] inception_4a/output <- inception_4a/pool_proj
I0403 14:21:33.768813 13186 net.cpp:399] inception_4a/output -> inception_4a/output
I0403 14:21:33.768862 13186 net.cpp:141] Setting up inception_4a/output
I0403 14:21:33.768884 13186 net.cpp:148] Top shape: 24 512 14 14 (2408448)
I0403 14:21:33.768899 13186 net.cpp:156] Memory required for data: 896545824
I0403 14:21:33.768913 13186 layer_factory.hpp:77] Creating layer inception_4a/output_inception_4a/output_0_split
I0403 14:21:33.768932 13186 net.cpp:91] Creating Layer inception_4a/output_inception_4a/output_0_split
I0403 14:21:33.768949 13186 net.cpp:425] inception_4a/output_inception_4a/output_0_split <- inception_4a/output
I0403 14:21:33.768968 13186 net.cpp:399] inception_4a/output_inception_4a/output_0_split -> inception_4a/output_inception_4a/output_0_split_0
I0403 14:21:33.768990 13186 net.cpp:399] inception_4a/output_inception_4a/output_0_split -> inception_4a/output_inception_4a/output_0_split_1
I0403 14:21:33.769011 13186 net.cpp:399] inception_4a/output_inception_4a/output_0_split -> inception_4a/output_inception_4a/output_0_split_2
I0403 14:21:33.769032 13186 net.cpp:399] inception_4a/output_inception_4a/output_0_split -> inception_4a/output_inception_4a/output_0_split_3
I0403 14:21:33.769052 13186 net.cpp:399] inception_4a/output_inception_4a/output_0_split -> inception_4a/output_inception_4a/output_0_split_4
I0403 14:21:33.769142 13186 net.cpp:141] Setting up inception_4a/output_inception_4a/output_0_split
I0403 14:21:33.769168 13186 net.cpp:148] Top shape: 24 512 14 14 (2408448)
I0403 14:21:33.769186 13186 net.cpp:148] Top shape: 24 512 14 14 (2408448)
I0403 14:21:33.769202 13186 net.cpp:148] Top shape: 24 512 14 14 (2408448)
I0403 14:21:33.769218 13186 net.cpp:148] Top shape: 24 512 14 14 (2408448)
I0403 14:21:33.769233 13186 net.cpp:148] Top shape: 24 512 14 14 (2408448)
I0403 14:21:33.769248 13186 net.cpp:156] Memory required for data: 944714784
I0403 14:21:33.769264 13186 layer_factory.hpp:77] Creating layer loss1/ave_pool
I0403 14:21:33.769282 13186 net.cpp:91] Creating Layer loss1/ave_pool
I0403 14:21:33.769299 13186 net.cpp:425] loss1/ave_pool <- inception_4a/output_inception_4a/output_0_split_0
I0403 14:21:33.769320 13186 net.cpp:399] loss1/ave_pool -> loss1/ave_pool
I0403 14:21:33.769527 13186 net.cpp:141] Setting up loss1/ave_pool
I0403 14:21:33.769558 13186 net.cpp:148] Top shape: 24 512 4 4 (196608)
I0403 14:21:33.769574 13186 net.cpp:156] Memory required for data: 945501216
I0403 14:21:33.769589 13186 layer_factory.hpp:77] Creating layer loss1/conv
I0403 14:21:33.769613 13186 net.cpp:91] Creating Layer loss1/conv
I0403 14:21:33.769631 13186 net.cpp:425] loss1/conv <- loss1/ave_pool
I0403 14:21:33.769652 13186 net.cpp:399] loss1/conv -> loss1/conv
I0403 14:21:33.771064 13186 net.cpp:141] Setting up loss1/conv
I0403 14:21:33.771095 13186 net.cpp:148] Top shape: 24 128 4 4 (49152)
I0403 14:21:33.771124 13186 net.cpp:156] Memory required for data: 945697824
I0403 14:21:33.771143 13186 layer_factory.hpp:77] Creating layer loss1/relu_conv
I0403 14:21:33.771162 13186 net.cpp:91] Creating Layer loss1/relu_conv
I0403 14:21:33.771179 13186 net.cpp:425] loss1/relu_conv <- loss1/conv
I0403 14:21:33.771196 13186 net.cpp:386] loss1/relu_conv -> loss1/conv (in-place)
I0403 14:21:33.771484 13186 net.cpp:141] Setting up loss1/relu_conv
I0403 14:21:33.771513 13186 net.cpp:148] Top shape: 24 128 4 4 (49152)
I0403 14:21:33.771529 13186 net.cpp:156] Memory required for data: 945894432
I0403 14:21:33.771549 13186 layer_factory.hpp:77] Creating layer loss1/fc
I0403 14:21:33.771574 13186 net.cpp:91] Creating Layer loss1/fc
I0403 14:21:33.771592 13186 net.cpp:425] loss1/fc <- loss1/conv
I0403 14:21:33.771613 13186 net.cpp:399] loss1/fc -> loss1/fc
I0403 14:21:33.789058 13186 net.cpp:141] Setting up loss1/fc
I0403 14:21:33.789098 13186 net.cpp:148] Top shape: 24 1024 (24576)
I0403 14:21:33.789113 13186 net.cpp:156] Memory required for data: 945992736
I0403 14:21:33.789134 13186 layer_factory.hpp:77] Creating layer loss1/relu_fc
I0403 14:21:33.789155 13186 net.cpp:91] Creating Layer loss1/relu_fc
I0403 14:21:33.789172 13186 net.cpp:425] loss1/relu_fc <- loss1/fc
I0403 14:21:33.789191 13186 net.cpp:386] loss1/relu_fc -> loss1/fc (in-place)
I0403 14:21:33.789389 13186 net.cpp:141] Setting up loss1/relu_fc
I0403 14:21:33.789417 13186 net.cpp:148] Top shape: 24 1024 (24576)
I0403 14:21:33.789433 13186 net.cpp:156] Memory required for data: 946091040
I0403 14:21:33.789448 13186 layer_factory.hpp:77] Creating layer loss1/drop_fc
I0403 14:21:33.789474 13186 net.cpp:91] Creating Layer loss1/drop_fc
I0403 14:21:33.789491 13186 net.cpp:425] loss1/drop_fc <- loss1/fc
I0403 14:21:33.789508 13186 net.cpp:386] loss1/drop_fc -> loss1/fc (in-place)
I0403 14:21:33.789563 13186 net.cpp:141] Setting up loss1/drop_fc
I0403 14:21:33.789587 13186 net.cpp:148] Top shape: 24 1024 (24576)
I0403 14:21:33.789602 13186 net.cpp:156] Memory required for data: 946189344
I0403 14:21:33.789616 13186 layer_factory.hpp:77] Creating layer loss1/classifier_plantvillage
I0403 14:21:33.789634 13186 net.cpp:91] Creating Layer loss1/classifier_plantvillage
I0403 14:21:33.789654 13186 net.cpp:425] loss1/classifier_plantvillage <- loss1/fc
I0403 14:21:33.789672 13186 net.cpp:399] loss1/classifier_plantvillage -> loss1/classifier_plantvillage
I0403 14:21:33.790562 13186 net.cpp:141] Setting up loss1/classifier_plantvillage
I0403 14:21:33.790592 13186 net.cpp:148] Top shape: 24 38 (912)
I0403 14:21:33.790608 13186 net.cpp:156] Memory required for data: 946192992
I0403 14:21:33.790627 13186 layer_factory.hpp:77] Creating layer loss1/classifier_plantvillage_loss1/classifier_plantvillage_0_split
I0403 14:21:33.790645 13186 net.cpp:91] Creating Layer loss1/classifier_plantvillage_loss1/classifier_plantvillage_0_split
I0403 14:21:33.790662 13186 net.cpp:425] loss1/classifier_plantvillage_loss1/classifier_plantvillage_0_split <- loss1/classifier_plantvillage
I0403 14:21:33.790678 13186 net.cpp:399] loss1/classifier_plantvillage_loss1/classifier_plantvillage_0_split -> loss1/classifier_plantvillage_loss1/classifier_plantvillage_0_split_0
I0403 14:21:33.790699 13186 net.cpp:399] loss1/classifier_plantvillage_loss1/classifier_plantvillage_0_split -> loss1/classifier_plantvillage_loss1/classifier_plantvillage_0_split_1
I0403 14:21:33.790719 13186 net.cpp:399] loss1/classifier_plantvillage_loss1/classifier_plantvillage_0_split -> loss1/classifier_plantvillage_loss1/classifier_plantvillage_0_split_2
I0403 14:21:33.790784 13186 net.cpp:141] Setting up loss1/classifier_plantvillage_loss1/classifier_plantvillage_0_split
I0403 14:21:33.790807 13186 net.cpp:148] Top shape: 24 38 (912)
I0403 14:21:33.790822 13186 net.cpp:148] Top shape: 24 38 (912)
I0403 14:21:33.790838 13186 net.cpp:148] Top shape: 24 38 (912)
I0403 14:21:33.790851 13186 net.cpp:156] Memory required for data: 946203936
I0403 14:21:33.790866 13186 layer_factory.hpp:77] Creating layer inception_4b/1x1
I0403 14:21:33.790886 13186 net.cpp:91] Creating Layer inception_4b/1x1
I0403 14:21:33.790922 13186 net.cpp:425] inception_4b/1x1 <- inception_4a/output_inception_4a/output_0_split_1
I0403 14:21:33.790945 13186 net.cpp:399] inception_4b/1x1 -> inception_4b/1x1
I0403 14:21:33.792562 13186 net.cpp:141] Setting up inception_4b/1x1
I0403 14:21:33.792592 13186 net.cpp:148] Top shape: 24 160 14 14 (752640)
I0403 14:21:33.792608 13186 net.cpp:156] Memory required for data: 949214496
I0403 14:21:33.792626 13186 layer_factory.hpp:77] Creating layer inception_4b/relu_1x1
I0403 14:21:33.792644 13186 net.cpp:91] Creating Layer inception_4b/relu_1x1
I0403 14:21:33.792660 13186 net.cpp:425] inception_4b/relu_1x1 <- inception_4b/1x1
I0403 14:21:33.792677 13186 net.cpp:386] inception_4b/relu_1x1 -> inception_4b/1x1 (in-place)
I0403 14:21:33.792853 13186 net.cpp:141] Setting up inception_4b/relu_1x1
I0403 14:21:33.792878 13186 net.cpp:148] Top shape: 24 160 14 14 (752640)
I0403 14:21:33.792892 13186 net.cpp:156] Memory required for data: 952225056
I0403 14:21:33.792907 13186 layer_factory.hpp:77] Creating layer inception_4b/3x3_reduce
I0403 14:21:33.792929 13186 net.cpp:91] Creating Layer inception_4b/3x3_reduce
I0403 14:21:33.792948 13186 net.cpp:425] inception_4b/3x3_reduce <- inception_4a/output_inception_4a/output_0_split_2
I0403 14:21:33.792970 13186 net.cpp:399] inception_4b/3x3_reduce -> inception_4b/3x3_reduce
I0403 14:21:33.794289 13186 net.cpp:141] Setting up inception_4b/3x3_reduce
I0403 14:21:33.794315 13186 net.cpp:148] Top shape: 24 112 14 14 (526848)
I0403 14:21:33.794332 13186 net.cpp:156] Memory required for data: 954332448
I0403 14:21:33.794348 13186 layer_factory.hpp:77] Creating layer inception_4b/relu_3x3_reduce
I0403 14:21:33.794366 13186 net.cpp:91] Creating Layer inception_4b/relu_3x3_reduce
I0403 14:21:33.794384 13186 net.cpp:425] inception_4b/relu_3x3_reduce <- inception_4b/3x3_reduce
I0403 14:21:33.794402 13186 net.cpp:386] inception_4b/relu_3x3_reduce -> inception_4b/3x3_reduce (in-place)
I0403 14:21:33.794694 13186 net.cpp:141] Setting up inception_4b/relu_3x3_reduce
I0403 14:21:33.794720 13186 net.cpp:148] Top shape: 24 112 14 14 (526848)
I0403 14:21:33.794735 13186 net.cpp:156] Memory required for data: 956439840
I0403 14:21:33.794749 13186 layer_factory.hpp:77] Creating layer inception_4b/3x3
I0403 14:21:33.794772 13186 net.cpp:91] Creating Layer inception_4b/3x3
I0403 14:21:33.794790 13186 net.cpp:425] inception_4b/3x3 <- inception_4b/3x3_reduce
I0403 14:21:33.794811 13186 net.cpp:399] inception_4b/3x3 -> inception_4b/3x3
I0403 14:21:33.797698 13186 net.cpp:141] Setting up inception_4b/3x3
I0403 14:21:33.797726 13186 net.cpp:148] Top shape: 24 224 14 14 (1053696)
I0403 14:21:33.797742 13186 net.cpp:156] Memory required for data: 960654624
I0403 14:21:33.797760 13186 layer_factory.hpp:77] Creating layer inception_4b/relu_3x3
I0403 14:21:33.797780 13186 net.cpp:91] Creating Layer inception_4b/relu_3x3
I0403 14:21:33.797798 13186 net.cpp:425] inception_4b/relu_3x3 <- inception_4b/3x3
I0403 14:21:33.797816 13186 net.cpp:386] inception_4b/relu_3x3 -> inception_4b/3x3 (in-place)
I0403 14:21:33.797991 13186 net.cpp:141] Setting up inception_4b/relu_3x3
I0403 14:21:33.798018 13186 net.cpp:148] Top shape: 24 224 14 14 (1053696)
I0403 14:21:33.798034 13186 net.cpp:156] Memory required for data: 964869408
I0403 14:21:33.798048 13186 layer_factory.hpp:77] Creating layer inception_4b/5x5_reduce
I0403 14:21:33.798070 13186 net.cpp:91] Creating Layer inception_4b/5x5_reduce
I0403 14:21:33.798089 13186 net.cpp:425] inception_4b/5x5_reduce <- inception_4a/output_inception_4a/output_0_split_3
I0403 14:21:33.798107 13186 net.cpp:399] inception_4b/5x5_reduce -> inception_4b/5x5_reduce
I0403 14:21:33.799175 13186 net.cpp:141] Setting up inception_4b/5x5_reduce
I0403 14:21:33.799203 13186 net.cpp:148] Top shape: 24 24 14 14 (112896)
I0403 14:21:33.799219 13186 net.cpp:156] Memory required for data: 965320992
I0403 14:21:33.799237 13186 layer_factory.hpp:77] Creating layer inception_4b/relu_5x5_reduce
I0403 14:21:33.799257 13186 net.cpp:91] Creating Layer inception_4b/relu_5x5_reduce
I0403 14:21:33.799286 13186 net.cpp:425] inception_4b/relu_5x5_reduce <- inception_4b/5x5_reduce
I0403 14:21:33.799309 13186 net.cpp:386] inception_4b/relu_5x5_reduce -> inception_4b/5x5_reduce (in-place)
I0403 14:21:33.799489 13186 net.cpp:141] Setting up inception_4b/relu_5x5_reduce
I0403 14:21:33.799515 13186 net.cpp:148] Top shape: 24 24 14 14 (112896)
I0403 14:21:33.799528 13186 net.cpp:156] Memory required for data: 965772576
I0403 14:21:33.799551 13186 layer_factory.hpp:77] Creating layer inception_4b/5x5
I0403 14:21:33.799574 13186 net.cpp:91] Creating Layer inception_4b/5x5
I0403 14:21:33.799593 13186 net.cpp:425] inception_4b/5x5 <- inception_4b/5x5_reduce
I0403 14:21:33.799613 13186 net.cpp:399] inception_4b/5x5 -> inception_4b/5x5
I0403 14:21:33.800809 13186 net.cpp:141] Setting up inception_4b/5x5
I0403 14:21:33.800838 13186 net.cpp:148] Top shape: 24 64 14 14 (301056)
I0403 14:21:33.800854 13186 net.cpp:156] Memory required for data: 966976800
I0403 14:21:33.800873 13186 layer_factory.hpp:77] Creating layer inception_4b/relu_5x5
I0403 14:21:33.800889 13186 net.cpp:91] Creating Layer inception_4b/relu_5x5
I0403 14:21:33.800906 13186 net.cpp:425] inception_4b/relu_5x5 <- inception_4b/5x5
I0403 14:21:33.800923 13186 net.cpp:386] inception_4b/relu_5x5 -> inception_4b/5x5 (in-place)
I0403 14:21:33.801203 13186 net.cpp:141] Setting up inception_4b/relu_5x5
I0403 14:21:33.801230 13186 net.cpp:148] Top shape: 24 64 14 14 (301056)
I0403 14:21:33.801249 13186 net.cpp:156] Memory required for data: 968181024
I0403 14:21:33.801265 13186 layer_factory.hpp:77] Creating layer inception_4b/pool
I0403 14:21:33.801285 13186 net.cpp:91] Creating Layer inception_4b/pool
I0403 14:21:33.801301 13186 net.cpp:425] inception_4b/pool <- inception_4a/output_inception_4a/output_0_split_4
I0403 14:21:33.801318 13186 net.cpp:399] inception_4b/pool -> inception_4b/pool
I0403 14:21:33.801383 13186 net.cpp:141] Setting up inception_4b/pool
I0403 14:21:33.801406 13186 net.cpp:148] Top shape: 24 512 14 14 (2408448)
I0403 14:21:33.801421 13186 net.cpp:156] Memory required for data: 977814816
I0403 14:21:33.801436 13186 layer_factory.hpp:77] Creating layer inception_4b/pool_proj
I0403 14:21:33.801460 13186 net.cpp:91] Creating Layer inception_4b/pool_proj
I0403 14:21:33.801477 13186 net.cpp:425] inception_4b/pool_proj <- inception_4b/pool
I0403 14:21:33.801498 13186 net.cpp:399] inception_4b/pool_proj -> inception_4b/pool_proj
I0403 14:21:33.802698 13186 net.cpp:141] Setting up inception_4b/pool_proj
I0403 14:21:33.802729 13186 net.cpp:148] Top shape: 24 64 14 14 (301056)
I0403 14:21:33.802747 13186 net.cpp:156] Memory required for data: 979019040
I0403 14:21:33.802765 13186 layer_factory.hpp:77] Creating layer inception_4b/relu_pool_proj
I0403 14:21:33.802784 13186 net.cpp:91] Creating Layer inception_4b/relu_pool_proj
I0403 14:21:33.802800 13186 net.cpp:425] inception_4b/relu_pool_proj <- inception_4b/pool_proj
I0403 14:21:33.802820 13186 net.cpp:386] inception_4b/relu_pool_proj -> inception_4b/pool_proj (in-place)
I0403 14:21:33.803000 13186 net.cpp:141] Setting up inception_4b/relu_pool_proj
I0403 14:21:33.803025 13186 net.cpp:148] Top shape: 24 64 14 14 (301056)
I0403 14:21:33.803040 13186 net.cpp:156] Memory required for data: 980223264
I0403 14:21:33.803055 13186 layer_factory.hpp:77] Creating layer inception_4b/output
I0403 14:21:33.803071 13186 net.cpp:91] Creating Layer inception_4b/output
I0403 14:21:33.803087 13186 net.cpp:425] inception_4b/output <- inception_4b/1x1
I0403 14:21:33.803104 13186 net.cpp:425] inception_4b/output <- inception_4b/3x3
I0403 14:21:33.803120 13186 net.cpp:425] inception_4b/output <- inception_4b/5x5
I0403 14:21:33.803136 13186 net.cpp:425] inception_4b/output <- inception_4b/pool_proj
I0403 14:21:33.803155 13186 net.cpp:399] inception_4b/output -> inception_4b/output
I0403 14:21:33.803200 13186 net.cpp:141] Setting up inception_4b/output
I0403 14:21:33.803225 13186 net.cpp:148] Top shape: 24 512 14 14 (2408448)
I0403 14:21:33.803241 13186 net.cpp:156] Memory required for data: 989857056
I0403 14:21:33.803269 13186 layer_factory.hpp:77] Creating layer inception_4b/output_inception_4b/output_0_split
I0403 14:21:33.803287 13186 net.cpp:91] Creating Layer inception_4b/output_inception_4b/output_0_split
I0403 14:21:33.803303 13186 net.cpp:425] inception_4b/output_inception_4b/output_0_split <- inception_4b/output
I0403 14:21:33.803323 13186 net.cpp:399] inception_4b/output_inception_4b/output_0_split -> inception_4b/output_inception_4b/output_0_split_0
I0403 14:21:33.803344 13186 net.cpp:399] inception_4b/output_inception_4b/output_0_split -> inception_4b/output_inception_4b/output_0_split_1
I0403 14:21:33.803365 13186 net.cpp:399] inception_4b/output_inception_4b/output_0_split -> inception_4b/output_inception_4b/output_0_split_2
I0403 14:21:33.803385 13186 net.cpp:399] inception_4b/output_inception_4b/output_0_split -> inception_4b/output_inception_4b/output_0_split_3
I0403 14:21:33.803464 13186 net.cpp:141] Setting up inception_4b/output_inception_4b/output_0_split
I0403 14:21:33.803490 13186 net.cpp:148] Top shape: 24 512 14 14 (2408448)
I0403 14:21:33.803508 13186 net.cpp:148] Top shape: 24 512 14 14 (2408448)
I0403 14:21:33.803524 13186 net.cpp:148] Top shape: 24 512 14 14 (2408448)
I0403 14:21:33.803544 13186 net.cpp:148] Top shape: 24 512 14 14 (2408448)
I0403 14:21:33.803560 13186 net.cpp:156] Memory required for data: 1028392224
I0403 14:21:33.803575 13186 layer_factory.hpp:77] Creating layer inception_4c/1x1
I0403 14:21:33.803594 13186 net.cpp:91] Creating Layer inception_4c/1x1
I0403 14:21:33.803611 13186 net.cpp:425] inception_4c/1x1 <- inception_4b/output_inception_4b/output_0_split_0
I0403 14:21:33.803632 13186 net.cpp:399] inception_4c/1x1 -> inception_4c/1x1
I0403 14:21:33.805030 13186 net.cpp:141] Setting up inception_4c/1x1
I0403 14:21:33.805059 13186 net.cpp:148] Top shape: 24 128 14 14 (602112)
I0403 14:21:33.805076 13186 net.cpp:156] Memory required for data: 1030800672
I0403 14:21:33.805096 13186 layer_factory.hpp:77] Creating layer inception_4c/relu_1x1
I0403 14:21:33.805116 13186 net.cpp:91] Creating Layer inception_4c/relu_1x1
I0403 14:21:33.805135 13186 net.cpp:425] inception_4c/relu_1x1 <- inception_4c/1x1
I0403 14:21:33.805152 13186 net.cpp:386] inception_4c/relu_1x1 -> inception_4c/1x1 (in-place)
I0403 14:21:33.805335 13186 net.cpp:141] Setting up inception_4c/relu_1x1
I0403 14:21:33.805359 13186 net.cpp:148] Top shape: 24 128 14 14 (602112)
I0403 14:21:33.805376 13186 net.cpp:156] Memory required for data: 1033209120
I0403 14:21:33.805390 13186 layer_factory.hpp:77] Creating layer inception_4c/3x3_reduce
I0403 14:21:33.805414 13186 net.cpp:91] Creating Layer inception_4c/3x3_reduce
I0403 14:21:33.805433 13186 net.cpp:425] inception_4c/3x3_reduce <- inception_4b/output_inception_4b/output_0_split_1
I0403 14:21:33.805450 13186 net.cpp:399] inception_4c/3x3_reduce -> inception_4c/3x3_reduce
I0403 14:21:33.807375 13186 net.cpp:141] Setting up inception_4c/3x3_reduce
I0403 14:21:33.807404 13186 net.cpp:148] Top shape: 24 128 14 14 (602112)
I0403 14:21:33.807421 13186 net.cpp:156] Memory required for data: 1035617568
I0403 14:21:33.807440 13186 layer_factory.hpp:77] Creating layer inception_4c/relu_3x3_reduce
I0403 14:21:33.807461 13186 net.cpp:91] Creating Layer inception_4c/relu_3x3_reduce
I0403 14:21:33.807479 13186 net.cpp:425] inception_4c/relu_3x3_reduce <- inception_4c/3x3_reduce
I0403 14:21:33.807498 13186 net.cpp:386] inception_4c/relu_3x3_reduce -> inception_4c/3x3_reduce (in-place)
I0403 14:21:33.807786 13186 net.cpp:141] Setting up inception_4c/relu_3x3_reduce
I0403 14:21:33.807812 13186 net.cpp:148] Top shape: 24 128 14 14 (602112)
I0403 14:21:33.807827 13186 net.cpp:156] Memory required for data: 1038026016
I0403 14:21:33.807842 13186 layer_factory.hpp:77] Creating layer inception_4c/3x3
I0403 14:21:33.807867 13186 net.cpp:91] Creating Layer inception_4c/3x3
I0403 14:21:33.807885 13186 net.cpp:425] inception_4c/3x3 <- inception_4c/3x3_reduce
I0403 14:21:33.807904 13186 net.cpp:399] inception_4c/3x3 -> inception_4c/3x3
I0403 14:21:33.811408 13186 net.cpp:141] Setting up inception_4c/3x3
I0403 14:21:33.811451 13186 net.cpp:148] Top shape: 24 256 14 14 (1204224)
I0403 14:21:33.811470 13186 net.cpp:156] Memory required for data: 1042842912
I0403 14:21:33.811502 13186 layer_factory.hpp:77] Creating layer inception_4c/relu_3x3
I0403 14:21:33.811524 13186 net.cpp:91] Creating Layer inception_4c/relu_3x3
I0403 14:21:33.811547 13186 net.cpp:425] inception_4c/relu_3x3 <- inception_4c/3x3
I0403 14:21:33.811568 13186 net.cpp:386] inception_4c/relu_3x3 -> inception_4c/3x3 (in-place)
I0403 14:21:33.811746 13186 net.cpp:141] Setting up inception_4c/relu_3x3
I0403 14:21:33.811774 13186 net.cpp:148] Top shape: 24 256 14 14 (1204224)
I0403 14:21:33.811789 13186 net.cpp:156] Memory required for data: 1047659808
I0403 14:21:33.811805 13186 layer_factory.hpp:77] Creating layer inception_4c/5x5_reduce
I0403 14:21:33.811827 13186 net.cpp:91] Creating Layer inception_4c/5x5_reduce
I0403 14:21:33.811846 13186 net.cpp:425] inception_4c/5x5_reduce <- inception_4b/output_inception_4b/output_0_split_2
I0403 14:21:33.811863 13186 net.cpp:399] inception_4c/5x5_reduce -> inception_4c/5x5_reduce
I0403 14:21:33.812924 13186 net.cpp:141] Setting up inception_4c/5x5_reduce
I0403 14:21:33.812955 13186 net.cpp:148] Top shape: 24 24 14 14 (112896)
I0403 14:21:33.812973 13186 net.cpp:156] Memory required for data: 1048111392
I0403 14:21:33.812993 13186 layer_factory.hpp:77] Creating layer inception_4c/relu_5x5_reduce
I0403 14:21:33.813012 13186 net.cpp:91] Creating Layer inception_4c/relu_5x5_reduce
I0403 14:21:33.813030 13186 net.cpp:425] inception_4c/relu_5x5_reduce <- inception_4c/5x5_reduce
I0403 14:21:33.813050 13186 net.cpp:386] inception_4c/relu_5x5_reduce -> inception_4c/5x5_reduce (in-place)
I0403 14:21:33.813232 13186 net.cpp:141] Setting up inception_4c/relu_5x5_reduce
I0403 14:21:33.813257 13186 net.cpp:148] Top shape: 24 24 14 14 (112896)
I0403 14:21:33.813273 13186 net.cpp:156] Memory required for data: 1048562976
I0403 14:21:33.813288 13186 layer_factory.hpp:77] Creating layer inception_4c/5x5
I0403 14:21:33.813309 13186 net.cpp:91] Creating Layer inception_4c/5x5
I0403 14:21:33.813328 13186 net.cpp:425] inception_4c/5x5 <- inception_4c/5x5_reduce
I0403 14:21:33.813349 13186 net.cpp:399] inception_4c/5x5 -> inception_4c/5x5
I0403 14:21:33.814579 13186 net.cpp:141] Setting up inception_4c/5x5
I0403 14:21:33.814607 13186 net.cpp:148] Top shape: 24 64 14 14 (301056)
I0403 14:21:33.814626 13186 net.cpp:156] Memory required for data: 1049767200
I0403 14:21:33.814646 13186 layer_factory.hpp:77] Creating layer inception_4c/relu_5x5
I0403 14:21:33.814666 13186 net.cpp:91] Creating Layer inception_4c/relu_5x5
I0403 14:21:33.814684 13186 net.cpp:425] inception_4c/relu_5x5 <- inception_4c/5x5
I0403 14:21:33.814702 13186 net.cpp:386] inception_4c/relu_5x5 -> inception_4c/5x5 (in-place)
I0403 14:21:33.814990 13186 net.cpp:141] Setting up inception_4c/relu_5x5
I0403 14:21:33.815017 13186 net.cpp:148] Top shape: 24 64 14 14 (301056)
I0403 14:21:33.815033 13186 net.cpp:156] Memory required for data: 1050971424
I0403 14:21:33.815049 13186 layer_factory.hpp:77] Creating layer inception_4c/pool
I0403 14:21:33.815068 13186 net.cpp:91] Creating Layer inception_4c/pool
I0403 14:21:33.815085 13186 net.cpp:425] inception_4c/pool <- inception_4b/output_inception_4b/output_0_split_3
I0403 14:21:33.815109 13186 net.cpp:399] inception_4c/pool -> inception_4c/pool
I0403 14:21:33.815176 13186 net.cpp:141] Setting up inception_4c/pool
I0403 14:21:33.815201 13186 net.cpp:148] Top shape: 24 512 14 14 (2408448)
I0403 14:21:33.815215 13186 net.cpp:156] Memory required for data: 1060605216
I0403 14:21:33.815230 13186 layer_factory.hpp:77] Creating layer inception_4c/pool_proj
I0403 14:21:33.815253 13186 net.cpp:91] Creating Layer inception_4c/pool_proj
I0403 14:21:33.815270 13186 net.cpp:425] inception_4c/pool_proj <- inception_4c/pool
I0403 14:21:33.815291 13186 net.cpp:399] inception_4c/pool_proj -> inception_4c/pool_proj
I0403 14:21:33.816484 13186 net.cpp:141] Setting up inception_4c/pool_proj
I0403 14:21:33.816516 13186 net.cpp:148] Top shape: 24 64 14 14 (301056)
I0403 14:21:33.816553 13186 net.cpp:156] Memory required for data: 1061809440
I0403 14:21:33.816576 13186 layer_factory.hpp:77] Creating layer inception_4c/relu_pool_proj
I0403 14:21:33.816594 13186 net.cpp:91] Creating Layer inception_4c/relu_pool_proj
I0403 14:21:33.816612 13186 net.cpp:425] inception_4c/relu_pool_proj <- inception_4c/pool_proj
I0403 14:21:33.816628 13186 net.cpp:386] inception_4c/relu_pool_proj -> inception_4c/pool_proj (in-place)
I0403 14:21:33.816810 13186 net.cpp:141] Setting up inception_4c/relu_pool_proj
I0403 14:21:33.816835 13186 net.cpp:148] Top shape: 24 64 14 14 (301056)
I0403 14:21:33.816850 13186 net.cpp:156] Memory required for data: 1063013664
I0403 14:21:33.816864 13186 layer_factory.hpp:77] Creating layer inception_4c/output
I0403 14:21:33.816882 13186 net.cpp:91] Creating Layer inception_4c/output
I0403 14:21:33.816900 13186 net.cpp:425] inception_4c/output <- inception_4c/1x1
I0403 14:21:33.816915 13186 net.cpp:425] inception_4c/output <- inception_4c/3x3
I0403 14:21:33.816931 13186 net.cpp:425] inception_4c/output <- inception_4c/5x5
I0403 14:21:33.816947 13186 net.cpp:425] inception_4c/output <- inception_4c/pool_proj
I0403 14:21:33.816967 13186 net.cpp:399] inception_4c/output -> inception_4c/output
I0403 14:21:33.817013 13186 net.cpp:141] Setting up inception_4c/output
I0403 14:21:33.817037 13186 net.cpp:148] Top shape: 24 512 14 14 (2408448)
I0403 14:21:33.817052 13186 net.cpp:156] Memory required for data: 1072647456
I0403 14:21:33.817067 13186 layer_factory.hpp:77] Creating layer inception_4c/output_inception_4c/output_0_split
I0403 14:21:33.817085 13186 net.cpp:91] Creating Layer inception_4c/output_inception_4c/output_0_split
I0403 14:21:33.817100 13186 net.cpp:425] inception_4c/output_inception_4c/output_0_split <- inception_4c/output
I0403 14:21:33.817119 13186 net.cpp:399] inception_4c/output_inception_4c/output_0_split -> inception_4c/output_inception_4c/output_0_split_0
I0403 14:21:33.817140 13186 net.cpp:399] inception_4c/output_inception_4c/output_0_split -> inception_4c/output_inception_4c/output_0_split_1
I0403 14:21:33.817160 13186 net.cpp:399] inception_4c/output_inception_4c/output_0_split -> inception_4c/output_inception_4c/output_0_split_2
I0403 14:21:33.817180 13186 net.cpp:399] inception_4c/output_inception_4c/output_0_split -> inception_4c/output_inception_4c/output_0_split_3
I0403 14:21:33.817262 13186 net.cpp:141] Setting up inception_4c/output_inception_4c/output_0_split
I0403 14:21:33.817286 13186 net.cpp:148] Top shape: 24 512 14 14 (2408448)
I0403 14:21:33.817301 13186 net.cpp:148] Top shape: 24 512 14 14 (2408448)
I0403 14:21:33.817317 13186 net.cpp:148] Top shape: 24 512 14 14 (2408448)
I0403 14:21:33.817332 13186 net.cpp:148] Top shape: 24 512 14 14 (2408448)
I0403 14:21:33.817347 13186 net.cpp:156] Memory required for data: 1111182624
I0403 14:21:33.817361 13186 layer_factory.hpp:77] Creating layer inception_4d/1x1
I0403 14:21:33.817383 13186 net.cpp:91] Creating Layer inception_4d/1x1
I0403 14:21:33.817400 13186 net.cpp:425] inception_4d/1x1 <- inception_4c/output_inception_4c/output_0_split_0
I0403 14:21:33.817421 13186 net.cpp:399] inception_4d/1x1 -> inception_4d/1x1
I0403 14:21:33.818764 13186 net.cpp:141] Setting up inception_4d/1x1
I0403 14:21:33.818792 13186 net.cpp:148] Top shape: 24 112 14 14 (526848)
I0403 14:21:33.818809 13186 net.cpp:156] Memory required for data: 1113290016
I0403 14:21:33.818828 13186 layer_factory.hpp:77] Creating layer inception_4d/relu_1x1
I0403 14:21:33.818850 13186 net.cpp:91] Creating Layer inception_4d/relu_1x1
I0403 14:21:33.818868 13186 net.cpp:425] inception_4d/relu_1x1 <- inception_4d/1x1
I0403 14:21:33.818888 13186 net.cpp:386] inception_4d/relu_1x1 -> inception_4d/1x1 (in-place)
I0403 14:21:33.819067 13186 net.cpp:141] Setting up inception_4d/relu_1x1
I0403 14:21:33.819095 13186 net.cpp:148] Top shape: 24 112 14 14 (526848)
I0403 14:21:33.819110 13186 net.cpp:156] Memory required for data: 1115397408
I0403 14:21:33.819125 13186 layer_factory.hpp:77] Creating layer inception_4d/3x3_reduce
I0403 14:21:33.819161 13186 net.cpp:91] Creating Layer inception_4d/3x3_reduce
I0403 14:21:33.819180 13186 net.cpp:425] inception_4d/3x3_reduce <- inception_4c/output_inception_4c/output_0_split_1
I0403 14:21:33.819200 13186 net.cpp:399] inception_4d/3x3_reduce -> inception_4d/3x3_reduce
I0403 14:21:33.820684 13186 net.cpp:141] Setting up inception_4d/3x3_reduce
I0403 14:21:33.820713 13186 net.cpp:148] Top shape: 24 144 14 14 (677376)
I0403 14:21:33.820735 13186 net.cpp:156] Memory required for data: 1118106912
I0403 14:21:33.820755 13186 layer_factory.hpp:77] Creating layer inception_4d/relu_3x3_reduce
I0403 14:21:33.820776 13186 net.cpp:91] Creating Layer inception_4d/relu_3x3_reduce
I0403 14:21:33.820794 13186 net.cpp:425] inception_4d/relu_3x3_reduce <- inception_4d/3x3_reduce
I0403 14:21:33.820812 13186 net.cpp:386] inception_4d/relu_3x3_reduce -> inception_4d/3x3_reduce (in-place)
I0403 14:21:33.821095 13186 net.cpp:141] Setting up inception_4d/relu_3x3_reduce
I0403 14:21:33.821121 13186 net.cpp:148] Top shape: 24 144 14 14 (677376)
I0403 14:21:33.821136 13186 net.cpp:156] Memory required for data: 1120816416
I0403 14:21:33.821151 13186 layer_factory.hpp:77] Creating layer inception_4d/3x3
I0403 14:21:33.821174 13186 net.cpp:91] Creating Layer inception_4d/3x3
I0403 14:21:33.821193 13186 net.cpp:425] inception_4d/3x3 <- inception_4d/3x3_reduce
I0403 14:21:33.821213 13186 net.cpp:399] inception_4d/3x3 -> inception_4d/3x3
I0403 14:21:33.825404 13186 net.cpp:141] Setting up inception_4d/3x3
I0403 14:21:33.825435 13186 net.cpp:148] Top shape: 24 288 14 14 (1354752)
I0403 14:21:33.825453 13186 net.cpp:156] Memory required for data: 1126235424
I0403 14:21:33.825472 13186 layer_factory.hpp:77] Creating layer inception_4d/relu_3x3
I0403 14:21:33.825495 13186 net.cpp:91] Creating Layer inception_4d/relu_3x3
I0403 14:21:33.825513 13186 net.cpp:425] inception_4d/relu_3x3 <- inception_4d/3x3
I0403 14:21:33.825532 13186 net.cpp:386] inception_4d/relu_3x3 -> inception_4d/3x3 (in-place)
I0403 14:21:33.825723 13186 net.cpp:141] Setting up inception_4d/relu_3x3
I0403 14:21:33.825748 13186 net.cpp:148] Top shape: 24 288 14 14 (1354752)
I0403 14:21:33.825764 13186 net.cpp:156] Memory required for data: 1131654432
I0403 14:21:33.825779 13186 layer_factory.hpp:77] Creating layer inception_4d/5x5_reduce
I0403 14:21:33.825803 13186 net.cpp:91] Creating Layer inception_4d/5x5_reduce
I0403 14:21:33.825820 13186 net.cpp:425] inception_4d/5x5_reduce <- inception_4c/output_inception_4c/output_0_split_2
I0403 14:21:33.825844 13186 net.cpp:399] inception_4d/5x5_reduce -> inception_4d/5x5_reduce
I0403 14:21:33.829617 13186 net.cpp:141] Setting up inception_4d/5x5_reduce
I0403 14:21:33.829651 13186 net.cpp:148] Top shape: 24 32 14 14 (150528)
I0403 14:21:33.829669 13186 net.cpp:156] Memory required for data: 1132256544
I0403 14:21:33.829689 13186 layer_factory.hpp:77] Creating layer inception_4d/relu_5x5_reduce
I0403 14:21:33.829711 13186 net.cpp:91] Creating Layer inception_4d/relu_5x5_reduce
I0403 14:21:33.829730 13186 net.cpp:425] inception_4d/relu_5x5_reduce <- inception_4d/5x5_reduce
I0403 14:21:33.829746 13186 net.cpp:386] inception_4d/relu_5x5_reduce -> inception_4d/5x5_reduce (in-place)
I0403 14:21:33.829938 13186 net.cpp:141] Setting up inception_4d/relu_5x5_reduce
I0403 14:21:33.829967 13186 net.cpp:148] Top shape: 24 32 14 14 (150528)
I0403 14:21:33.829982 13186 net.cpp:156] Memory required for data: 1132858656
I0403 14:21:33.829998 13186 layer_factory.hpp:77] Creating layer inception_4d/5x5
I0403 14:21:33.830020 13186 net.cpp:91] Creating Layer inception_4d/5x5
I0403 14:21:33.830039 13186 net.cpp:425] inception_4d/5x5 <- inception_4d/5x5_reduce
I0403 14:21:33.830059 13186 net.cpp:399] inception_4d/5x5 -> inception_4d/5x5
I0403 14:21:33.831557 13186 net.cpp:141] Setting up inception_4d/5x5
I0403 14:21:33.831589 13186 net.cpp:148] Top shape: 24 64 14 14 (301056)
I0403 14:21:33.831609 13186 net.cpp:156] Memory required for data: 1134062880
I0403 14:21:33.831629 13186 layer_factory.hpp:77] Creating layer inception_4d/relu_5x5
I0403 14:21:33.831665 13186 net.cpp:91] Creating Layer inception_4d/relu_5x5
I0403 14:21:33.831684 13186 net.cpp:425] inception_4d/relu_5x5 <- inception_4d/5x5
I0403 14:21:33.831707 13186 net.cpp:386] inception_4d/relu_5x5 -> inception_4d/5x5 (in-place)
I0403 14:21:33.832012 13186 net.cpp:141] Setting up inception_4d/relu_5x5
I0403 14:21:33.832041 13186 net.cpp:148] Top shape: 24 64 14 14 (301056)
I0403 14:21:33.832058 13186 net.cpp:156] Memory required for data: 1135267104
I0403 14:21:33.832073 13186 layer_factory.hpp:77] Creating layer inception_4d/pool
I0403 14:21:33.832092 13186 net.cpp:91] Creating Layer inception_4d/pool
I0403 14:21:33.832109 13186 net.cpp:425] inception_4d/pool <- inception_4c/output_inception_4c/output_0_split_3
I0403 14:21:33.832131 13186 net.cpp:399] inception_4d/pool -> inception_4d/pool
I0403 14:21:33.832198 13186 net.cpp:141] Setting up inception_4d/pool
I0403 14:21:33.832226 13186 net.cpp:148] Top shape: 24 512 14 14 (2408448)
I0403 14:21:33.832242 13186 net.cpp:156] Memory required for data: 1144900896
I0403 14:21:33.832257 13186 layer_factory.hpp:77] Creating layer inception_4d/pool_proj
I0403 14:21:33.832278 13186 net.cpp:91] Creating Layer inception_4d/pool_proj
I0403 14:21:33.832298 13186 net.cpp:425] inception_4d/pool_proj <- inception_4d/pool
I0403 14:21:33.832317 13186 net.cpp:399] inception_4d/pool_proj -> inception_4d/pool_proj
I0403 14:21:33.834084 13186 net.cpp:141] Setting up inception_4d/pool_proj
I0403 14:21:33.834115 13186 net.cpp:148] Top shape: 24 64 14 14 (301056)
I0403 14:21:33.834134 13186 net.cpp:156] Memory required for data: 1146105120
I0403 14:21:33.834154 13186 layer_factory.hpp:77] Creating layer inception_4d/relu_pool_proj
I0403 14:21:33.834175 13186 net.cpp:91] Creating Layer inception_4d/relu_pool_proj
I0403 14:21:33.834194 13186 net.cpp:425] inception_4d/relu_pool_proj <- inception_4d/pool_proj
I0403 14:21:33.834213 13186 net.cpp:386] inception_4d/relu_pool_proj -> inception_4d/pool_proj (in-place)
I0403 14:21:33.834401 13186 net.cpp:141] Setting up inception_4d/relu_pool_proj
I0403 14:21:33.834429 13186 net.cpp:148] Top shape: 24 64 14 14 (301056)
I0403 14:21:33.834445 13186 net.cpp:156] Memory required for data: 1147309344
I0403 14:21:33.834460 13186 layer_factory.hpp:77] Creating layer inception_4d/output
I0403 14:21:33.834478 13186 net.cpp:91] Creating Layer inception_4d/output
I0403 14:21:33.834496 13186 net.cpp:425] inception_4d/output <- inception_4d/1x1
I0403 14:21:33.834514 13186 net.cpp:425] inception_4d/output <- inception_4d/3x3
I0403 14:21:33.834532 13186 net.cpp:425] inception_4d/output <- inception_4d/5x5
I0403 14:21:33.834565 13186 net.cpp:425] inception_4d/output <- inception_4d/pool_proj
I0403 14:21:33.834590 13186 net.cpp:399] inception_4d/output -> inception_4d/output
I0403 14:21:33.834640 13186 net.cpp:141] Setting up inception_4d/output
I0403 14:21:33.834663 13186 net.cpp:148] Top shape: 24 528 14 14 (2483712)
I0403 14:21:33.834681 13186 net.cpp:156] Memory required for data: 1157244192
I0403 14:21:33.834697 13186 layer_factory.hpp:77] Creating layer inception_4d/output_inception_4d/output_0_split
I0403 14:21:33.834714 13186 net.cpp:91] Creating Layer inception_4d/output_inception_4d/output_0_split
I0403 14:21:33.834731 13186 net.cpp:425] inception_4d/output_inception_4d/output_0_split <- inception_4d/output
I0403 14:21:33.834749 13186 net.cpp:399] inception_4d/output_inception_4d/output_0_split -> inception_4d/output_inception_4d/output_0_split_0
I0403 14:21:33.834770 13186 net.cpp:399] inception_4d/output_inception_4d/output_0_split -> inception_4d/output_inception_4d/output_0_split_1
I0403 14:21:33.834794 13186 net.cpp:399] inception_4d/output_inception_4d/output_0_split -> inception_4d/output_inception_4d/output_0_split_2
I0403 14:21:33.834816 13186 net.cpp:399] inception_4d/output_inception_4d/output_0_split -> inception_4d/output_inception_4d/output_0_split_3
I0403 14:21:33.834837 13186 net.cpp:399] inception_4d/output_inception_4d/output_0_split -> inception_4d/output_inception_4d/output_0_split_4
I0403 14:21:33.834939 13186 net.cpp:141] Setting up inception_4d/output_inception_4d/output_0_split
I0403 14:21:33.834976 13186 net.cpp:148] Top shape: 24 528 14 14 (2483712)
I0403 14:21:33.834995 13186 net.cpp:148] Top shape: 24 528 14 14 (2483712)
I0403 14:21:33.835011 13186 net.cpp:148] Top shape: 24 528 14 14 (2483712)
I0403 14:21:33.835026 13186 net.cpp:148] Top shape: 24 528 14 14 (2483712)
I0403 14:21:33.835042 13186 net.cpp:148] Top shape: 24 528 14 14 (2483712)
I0403 14:21:33.835057 13186 net.cpp:156] Memory required for data: 1206918432
I0403 14:21:33.835072 13186 layer_factory.hpp:77] Creating layer loss2/ave_pool
I0403 14:21:33.835093 13186 net.cpp:91] Creating Layer loss2/ave_pool
I0403 14:21:33.835111 13186 net.cpp:425] loss2/ave_pool <- inception_4d/output_inception_4d/output_0_split_0
I0403 14:21:33.835130 13186 net.cpp:399] loss2/ave_pool -> loss2/ave_pool
I0403 14:21:33.835458 13186 net.cpp:141] Setting up loss2/ave_pool
I0403 14:21:33.835484 13186 net.cpp:148] Top shape: 24 528 4 4 (202752)
I0403 14:21:33.835500 13186 net.cpp:156] Memory required for data: 1207729440
I0403 14:21:33.835515 13186 layer_factory.hpp:77] Creating layer loss2/conv
I0403 14:21:33.835543 13186 net.cpp:91] Creating Layer loss2/conv
I0403 14:21:33.835572 13186 net.cpp:425] loss2/conv <- loss2/ave_pool
I0403 14:21:33.835592 13186 net.cpp:399] loss2/conv -> loss2/conv
I0403 14:21:33.837481 13186 net.cpp:141] Setting up loss2/conv
I0403 14:21:33.837510 13186 net.cpp:148] Top shape: 24 128 4 4 (49152)
I0403 14:21:33.837529 13186 net.cpp:156] Memory required for data: 1207926048
I0403 14:21:33.837554 13186 layer_factory.hpp:77] Creating layer loss2/relu_conv
I0403 14:21:33.837575 13186 net.cpp:91] Creating Layer loss2/relu_conv
I0403 14:21:33.837594 13186 net.cpp:425] loss2/relu_conv <- loss2/conv
I0403 14:21:33.837615 13186 net.cpp:386] loss2/relu_conv -> loss2/conv (in-place)
I0403 14:21:33.837908 13186 net.cpp:141] Setting up loss2/relu_conv
I0403 14:21:33.837935 13186 net.cpp:148] Top shape: 24 128 4 4 (49152)
I0403 14:21:33.837954 13186 net.cpp:156] Memory required for data: 1208122656
I0403 14:21:33.837968 13186 layer_factory.hpp:77] Creating layer loss2/fc
I0403 14:21:33.837988 13186 net.cpp:91] Creating Layer loss2/fc
I0403 14:21:33.838006 13186 net.cpp:425] loss2/fc <- loss2/conv
I0403 14:21:33.838027 13186 net.cpp:399] loss2/fc -> loss2/fc
I0403 14:21:33.855710 13186 net.cpp:141] Setting up loss2/fc
I0403 14:21:33.855761 13186 net.cpp:148] Top shape: 24 1024 (24576)
I0403 14:21:33.855777 13186 net.cpp:156] Memory required for data: 1208220960
I0403 14:21:33.855798 13186 layer_factory.hpp:77] Creating layer loss2/relu_fc
I0403 14:21:33.855816 13186 net.cpp:91] Creating Layer loss2/relu_fc
I0403 14:21:33.855834 13186 net.cpp:425] loss2/relu_fc <- loss2/fc
I0403 14:21:33.855852 13186 net.cpp:386] loss2/relu_fc -> loss2/fc (in-place)
I0403 14:21:33.856192 13186 net.cpp:141] Setting up loss2/relu_fc
I0403 14:21:33.856221 13186 net.cpp:148] Top shape: 24 1024 (24576)
I0403 14:21:33.856237 13186 net.cpp:156] Memory required for data: 1208319264
I0403 14:21:33.856253 13186 layer_factory.hpp:77] Creating layer loss2/drop_fc
I0403 14:21:33.856272 13186 net.cpp:91] Creating Layer loss2/drop_fc
I0403 14:21:33.856289 13186 net.cpp:425] loss2/drop_fc <- loss2/fc
I0403 14:21:33.856307 13186 net.cpp:386] loss2/drop_fc -> loss2/fc (in-place)
I0403 14:21:33.856359 13186 net.cpp:141] Setting up loss2/drop_fc
I0403 14:21:33.856384 13186 net.cpp:148] Top shape: 24 1024 (24576)
I0403 14:21:33.856398 13186 net.cpp:156] Memory required for data: 1208417568
I0403 14:21:33.856413 13186 layer_factory.hpp:77] Creating layer loss2/classifier_plantvillage
I0403 14:21:33.856436 13186 net.cpp:91] Creating Layer loss2/classifier_plantvillage
I0403 14:21:33.856453 13186 net.cpp:425] loss2/classifier_plantvillage <- loss2/fc
I0403 14:21:33.856480 13186 net.cpp:399] loss2/classifier_plantvillage -> loss2/classifier_plantvillage
I0403 14:21:33.856899 13186 net.cpp:141] Setting up loss2/classifier_plantvillage
I0403 14:21:33.856926 13186 net.cpp:148] Top shape: 24 38 (912)
I0403 14:21:33.856967 13186 net.cpp:156] Memory required for data: 1208421216
I0403 14:21:33.856988 13186 layer_factory.hpp:77] Creating layer loss2/classifier_plantvillage_loss2/classifier_plantvillage_0_split
I0403 14:21:33.857008 13186 net.cpp:91] Creating Layer loss2/classifier_plantvillage_loss2/classifier_plantvillage_0_split
I0403 14:21:33.857025 13186 net.cpp:425] loss2/classifier_plantvillage_loss2/classifier_plantvillage_0_split <- loss2/classifier_plantvillage
I0403 14:21:33.857048 13186 net.cpp:399] loss2/classifier_plantvillage_loss2/classifier_plantvillage_0_split -> loss2/classifier_plantvillage_loss2/classifier_plantvillage_0_split_0
I0403 14:21:33.857072 13186 net.cpp:399] loss2/classifier_plantvillage_loss2/classifier_plantvillage_0_split -> loss2/classifier_plantvillage_loss2/classifier_plantvillage_0_split_1
I0403 14:21:33.857095 13186 net.cpp:399] loss2/classifier_plantvillage_loss2/classifier_plantvillage_0_split -> loss2/classifier_plantvillage_loss2/classifier_plantvillage_0_split_2
I0403 14:21:33.857175 13186 net.cpp:141] Setting up loss2/classifier_plantvillage_loss2/classifier_plantvillage_0_split
I0403 14:21:33.857200 13186 net.cpp:148] Top shape: 24 38 (912)
I0403 14:21:33.857216 13186 net.cpp:148] Top shape: 24 38 (912)
I0403 14:21:33.857233 13186 net.cpp:148] Top shape: 24 38 (912)
I0403 14:21:33.857246 13186 net.cpp:156] Memory required for data: 1208432160
I0403 14:21:33.857264 13186 layer_factory.hpp:77] Creating layer inception_4e/1x1
I0403 14:21:33.857286 13186 net.cpp:91] Creating Layer inception_4e/1x1
I0403 14:21:33.857306 13186 net.cpp:425] inception_4e/1x1 <- inception_4d/output_inception_4d/output_0_split_1
I0403 14:21:33.857326 13186 net.cpp:399] inception_4e/1x1 -> inception_4e/1x1
I0403 14:21:33.859192 13186 net.cpp:141] Setting up inception_4e/1x1
I0403 14:21:33.859221 13186 net.cpp:148] Top shape: 24 256 14 14 (1204224)
I0403 14:21:33.859238 13186 net.cpp:156] Memory required for data: 1213249056
I0403 14:21:33.859257 13186 layer_factory.hpp:77] Creating layer inception_4e/relu_1x1
I0403 14:21:33.859279 13186 net.cpp:91] Creating Layer inception_4e/relu_1x1
I0403 14:21:33.859298 13186 net.cpp:425] inception_4e/relu_1x1 <- inception_4e/1x1
I0403 14:21:33.859318 13186 net.cpp:386] inception_4e/relu_1x1 -> inception_4e/1x1 (in-place)
I0403 14:21:33.859624 13186 net.cpp:141] Setting up inception_4e/relu_1x1
I0403 14:21:33.859650 13186 net.cpp:148] Top shape: 24 256 14 14 (1204224)
I0403 14:21:33.859665 13186 net.cpp:156] Memory required for data: 1218065952
I0403 14:21:33.859680 13186 layer_factory.hpp:77] Creating layer inception_4e/3x3_reduce
I0403 14:21:33.859704 13186 net.cpp:91] Creating Layer inception_4e/3x3_reduce
I0403 14:21:33.859722 13186 net.cpp:425] inception_4e/3x3_reduce <- inception_4d/output_inception_4d/output_0_split_2
I0403 14:21:33.859745 13186 net.cpp:399] inception_4e/3x3_reduce -> inception_4e/3x3_reduce
I0403 14:21:33.861888 13186 net.cpp:141] Setting up inception_4e/3x3_reduce
I0403 14:21:33.861917 13186 net.cpp:148] Top shape: 24 160 14 14 (752640)
I0403 14:21:33.861935 13186 net.cpp:156] Memory required for data: 1221076512
I0403 14:21:33.861955 13186 layer_factory.hpp:77] Creating layer inception_4e/relu_3x3_reduce
I0403 14:21:33.861975 13186 net.cpp:91] Creating Layer inception_4e/relu_3x3_reduce
I0403 14:21:33.861994 13186 net.cpp:425] inception_4e/relu_3x3_reduce <- inception_4e/3x3_reduce
I0403 14:21:33.862016 13186 net.cpp:386] inception_4e/relu_3x3_reduce -> inception_4e/3x3_reduce (in-place)
I0403 14:21:33.862210 13186 net.cpp:141] Setting up inception_4e/relu_3x3_reduce
I0403 14:21:33.862237 13186 net.cpp:148] Top shape: 24 160 14 14 (752640)
I0403 14:21:33.862253 13186 net.cpp:156] Memory required for data: 1224087072
I0403 14:21:33.862268 13186 layer_factory.hpp:77] Creating layer inception_4e/3x3
I0403 14:21:33.862292 13186 net.cpp:91] Creating Layer inception_4e/3x3
I0403 14:21:33.862309 13186 net.cpp:425] inception_4e/3x3 <- inception_4e/3x3_reduce
I0403 14:21:33.862331 13186 net.cpp:399] inception_4e/3x3 -> inception_4e/3x3
I0403 14:21:33.867355 13186 net.cpp:141] Setting up inception_4e/3x3
I0403 14:21:33.867399 13186 net.cpp:148] Top shape: 24 320 14 14 (1505280)
I0403 14:21:33.867416 13186 net.cpp:156] Memory required for data: 1230108192
I0403 14:21:33.867435 13186 layer_factory.hpp:77] Creating layer inception_4e/relu_3x3
I0403 14:21:33.867457 13186 net.cpp:91] Creating Layer inception_4e/relu_3x3
I0403 14:21:33.867475 13186 net.cpp:425] inception_4e/relu_3x3 <- inception_4e/3x3
I0403 14:21:33.867494 13186 net.cpp:386] inception_4e/relu_3x3 -> inception_4e/3x3 (in-place)
I0403 14:21:33.867820 13186 net.cpp:141] Setting up inception_4e/relu_3x3
I0403 14:21:33.867846 13186 net.cpp:148] Top shape: 24 320 14 14 (1505280)
I0403 14:21:33.867861 13186 net.cpp:156] Memory required for data: 1236129312
I0403 14:21:33.867877 13186 layer_factory.hpp:77] Creating layer inception_4e/5x5_reduce
I0403 14:21:33.867900 13186 net.cpp:91] Creating Layer inception_4e/5x5_reduce
I0403 14:21:33.867918 13186 net.cpp:425] inception_4e/5x5_reduce <- inception_4d/output_inception_4d/output_0_split_3
I0403 14:21:33.867943 13186 net.cpp:399] inception_4e/5x5_reduce -> inception_4e/5x5_reduce
I0403 14:21:33.869014 13186 net.cpp:141] Setting up inception_4e/5x5_reduce
I0403 14:21:33.869045 13186 net.cpp:148] Top shape: 24 32 14 14 (150528)
I0403 14:21:33.869063 13186 net.cpp:156] Memory required for data: 1236731424
I0403 14:21:33.869083 13186 layer_factory.hpp:77] Creating layer inception_4e/relu_5x5_reduce
I0403 14:21:33.869103 13186 net.cpp:91] Creating Layer inception_4e/relu_5x5_reduce
I0403 14:21:33.869122 13186 net.cpp:425] inception_4e/relu_5x5_reduce <- inception_4e/5x5_reduce
I0403 14:21:33.869143 13186 net.cpp:386] inception_4e/relu_5x5_reduce -> inception_4e/5x5_reduce (in-place)
I0403 14:21:33.869443 13186 net.cpp:141] Setting up inception_4e/relu_5x5_reduce
I0403 14:21:33.869473 13186 net.cpp:148] Top shape: 24 32 14 14 (150528)
I0403 14:21:33.869491 13186 net.cpp:156] Memory required for data: 1237333536
I0403 14:21:33.869508 13186 layer_factory.hpp:77] Creating layer inception_4e/5x5
I0403 14:21:33.869554 13186 net.cpp:91] Creating Layer inception_4e/5x5
I0403 14:21:33.869575 13186 net.cpp:425] inception_4e/5x5 <- inception_4e/5x5_reduce
I0403 14:21:33.869596 13186 net.cpp:399] inception_4e/5x5 -> inception_4e/5x5
I0403 14:21:33.871403 13186 net.cpp:141] Setting up inception_4e/5x5
I0403 14:21:33.871433 13186 net.cpp:148] Top shape: 24 128 14 14 (602112)
I0403 14:21:33.871450 13186 net.cpp:156] Memory required for data: 1239741984
I0403 14:21:33.871469 13186 layer_factory.hpp:77] Creating layer inception_4e/relu_5x5
I0403 14:21:33.871489 13186 net.cpp:91] Creating Layer inception_4e/relu_5x5
I0403 14:21:33.871505 13186 net.cpp:425] inception_4e/relu_5x5 <- inception_4e/5x5
I0403 14:21:33.871523 13186 net.cpp:386] inception_4e/relu_5x5 -> inception_4e/5x5 (in-place)
I0403 14:21:33.871723 13186 net.cpp:141] Setting up inception_4e/relu_5x5
I0403 14:21:33.871748 13186 net.cpp:148] Top shape: 24 128 14 14 (602112)
I0403 14:21:33.871763 13186 net.cpp:156] Memory required for data: 1242150432
I0403 14:21:33.871778 13186 layer_factory.hpp:77] Creating layer inception_4e/pool
I0403 14:21:33.871796 13186 net.cpp:91] Creating Layer inception_4e/pool
I0403 14:21:33.871812 13186 net.cpp:425] inception_4e/pool <- inception_4d/output_inception_4d/output_0_split_4
I0403 14:21:33.871831 13186 net.cpp:399] inception_4e/pool -> inception_4e/pool
I0403 14:21:33.871901 13186 net.cpp:141] Setting up inception_4e/pool
I0403 14:21:33.871925 13186 net.cpp:148] Top shape: 24 528 14 14 (2483712)
I0403 14:21:33.871939 13186 net.cpp:156] Memory required for data: 1252085280
I0403 14:21:33.871954 13186 layer_factory.hpp:77] Creating layer inception_4e/pool_proj
I0403 14:21:33.871978 13186 net.cpp:91] Creating Layer inception_4e/pool_proj
I0403 14:21:33.871995 13186 net.cpp:425] inception_4e/pool_proj <- inception_4e/pool
I0403 14:21:33.872014 13186 net.cpp:399] inception_4e/pool_proj -> inception_4e/pool_proj
I0403 14:21:33.873476 13186 net.cpp:141] Setting up inception_4e/pool_proj
I0403 14:21:33.873517 13186 net.cpp:148] Top shape: 24 128 14 14 (602112)
I0403 14:21:33.873534 13186 net.cpp:156] Memory required for data: 1254493728
I0403 14:21:33.873559 13186 layer_factory.hpp:77] Creating layer inception_4e/relu_pool_proj
I0403 14:21:33.873591 13186 net.cpp:91] Creating Layer inception_4e/relu_pool_proj
I0403 14:21:33.873611 13186 net.cpp:425] inception_4e/relu_pool_proj <- inception_4e/pool_proj
I0403 14:21:33.873628 13186 net.cpp:386] inception_4e/relu_pool_proj -> inception_4e/pool_proj (in-place)
I0403 14:21:33.873927 13186 net.cpp:141] Setting up inception_4e/relu_pool_proj
I0403 14:21:33.873953 13186 net.cpp:148] Top shape: 24 128 14 14 (602112)
I0403 14:21:33.873967 13186 net.cpp:156] Memory required for data: 1256902176
I0403 14:21:33.873983 13186 layer_factory.hpp:77] Creating layer inception_4e/output
I0403 14:21:33.874004 13186 net.cpp:91] Creating Layer inception_4e/output
I0403 14:21:33.874020 13186 net.cpp:425] inception_4e/output <- inception_4e/1x1
I0403 14:21:33.874037 13186 net.cpp:425] inception_4e/output <- inception_4e/3x3
I0403 14:21:33.874053 13186 net.cpp:425] inception_4e/output <- inception_4e/5x5
I0403 14:21:33.874070 13186 net.cpp:425] inception_4e/output <- inception_4e/pool_proj
I0403 14:21:33.874088 13186 net.cpp:399] inception_4e/output -> inception_4e/output
I0403 14:21:33.874138 13186 net.cpp:141] Setting up inception_4e/output
I0403 14:21:33.874161 13186 net.cpp:148] Top shape: 24 832 14 14 (3913728)
I0403 14:21:33.874176 13186 net.cpp:156] Memory required for data: 1272557088
I0403 14:21:33.874191 13186 layer_factory.hpp:77] Creating layer pool4/3x3_s2
I0403 14:21:33.874207 13186 net.cpp:91] Creating Layer pool4/3x3_s2
I0403 14:21:33.874223 13186 net.cpp:425] pool4/3x3_s2 <- inception_4e/output
I0403 14:21:33.874243 13186 net.cpp:399] pool4/3x3_s2 -> pool4/3x3_s2
I0403 14:21:33.874321 13186 net.cpp:141] Setting up pool4/3x3_s2
I0403 14:21:33.874346 13186 net.cpp:148] Top shape: 24 832 7 7 (978432)
I0403 14:21:33.874361 13186 net.cpp:156] Memory required for data: 1276470816
I0403 14:21:33.874375 13186 layer_factory.hpp:77] Creating layer pool4/3x3_s2_pool4/3x3_s2_0_split
I0403 14:21:33.874394 13186 net.cpp:91] Creating Layer pool4/3x3_s2_pool4/3x3_s2_0_split
I0403 14:21:33.874411 13186 net.cpp:425] pool4/3x3_s2_pool4/3x3_s2_0_split <- pool4/3x3_s2
I0403 14:21:33.874431 13186 net.cpp:399] pool4/3x3_s2_pool4/3x3_s2_0_split -> pool4/3x3_s2_pool4/3x3_s2_0_split_0
I0403 14:21:33.874451 13186 net.cpp:399] pool4/3x3_s2_pool4/3x3_s2_0_split -> pool4/3x3_s2_pool4/3x3_s2_0_split_1
I0403 14:21:33.874471 13186 net.cpp:399] pool4/3x3_s2_pool4/3x3_s2_0_split -> pool4/3x3_s2_pool4/3x3_s2_0_split_2
I0403 14:21:33.874491 13186 net.cpp:399] pool4/3x3_s2_pool4/3x3_s2_0_split -> pool4/3x3_s2_pool4/3x3_s2_0_split_3
I0403 14:21:33.874593 13186 net.cpp:141] Setting up pool4/3x3_s2_pool4/3x3_s2_0_split
I0403 14:21:33.874619 13186 net.cpp:148] Top shape: 24 832 7 7 (978432)
I0403 14:21:33.874636 13186 net.cpp:148] Top shape: 24 832 7 7 (978432)
I0403 14:21:33.874651 13186 net.cpp:148] Top shape: 24 832 7 7 (978432)
I0403 14:21:33.874667 13186 net.cpp:148] Top shape: 24 832 7 7 (978432)
I0403 14:21:33.874681 13186 net.cpp:156] Memory required for data: 1292125728
I0403 14:21:33.874696 13186 layer_factory.hpp:77] Creating layer inception_5a/1x1
I0403 14:21:33.874718 13186 net.cpp:91] Creating Layer inception_5a/1x1
I0403 14:21:33.874737 13186 net.cpp:425] inception_5a/1x1 <- pool4/3x3_s2_pool4/3x3_s2_0_split_0
I0403 14:21:33.874755 13186 net.cpp:399] inception_5a/1x1 -> inception_5a/1x1
I0403 14:21:33.877596 13186 net.cpp:141] Setting up inception_5a/1x1
I0403 14:21:33.877629 13186 net.cpp:148] Top shape: 24 256 7 7 (301056)
I0403 14:21:33.877646 13186 net.cpp:156] Memory required for data: 1293329952
I0403 14:21:33.877665 13186 layer_factory.hpp:77] Creating layer inception_5a/relu_1x1
I0403 14:21:33.877683 13186 net.cpp:91] Creating Layer inception_5a/relu_1x1
I0403 14:21:33.877701 13186 net.cpp:425] inception_5a/relu_1x1 <- inception_5a/1x1
I0403 14:21:33.877720 13186 net.cpp:386] inception_5a/relu_1x1 -> inception_5a/1x1 (in-place)
I0403 14:21:33.878042 13186 net.cpp:141] Setting up inception_5a/relu_1x1
I0403 14:21:33.878070 13186 net.cpp:148] Top shape: 24 256 7 7 (301056)
I0403 14:21:33.878087 13186 net.cpp:156] Memory required for data: 1294534176
I0403 14:21:33.878101 13186 layer_factory.hpp:77] Creating layer inception_5a/3x3_reduce
I0403 14:21:33.878123 13186 net.cpp:91] Creating Layer inception_5a/3x3_reduce
I0403 14:21:33.878141 13186 net.cpp:425] inception_5a/3x3_reduce <- pool4/3x3_s2_pool4/3x3_s2_0_split_1
I0403 14:21:33.878160 13186 net.cpp:399] inception_5a/3x3_reduce -> inception_5a/3x3_reduce
I0403 14:21:33.880561 13186 net.cpp:141] Setting up inception_5a/3x3_reduce
I0403 14:21:33.880590 13186 net.cpp:148] Top shape: 24 160 7 7 (188160)
I0403 14:21:33.880607 13186 net.cpp:156] Memory required for data: 1295286816
I0403 14:21:33.880626 13186 layer_factory.hpp:77] Creating layer inception_5a/relu_3x3_reduce
I0403 14:21:33.880647 13186 net.cpp:91] Creating Layer inception_5a/relu_3x3_reduce
I0403 14:21:33.880666 13186 net.cpp:425] inception_5a/relu_3x3_reduce <- inception_5a/3x3_reduce
I0403 14:21:33.880683 13186 net.cpp:386] inception_5a/relu_3x3_reduce -> inception_5a/3x3_reduce (in-place)
I0403 14:21:33.880869 13186 net.cpp:141] Setting up inception_5a/relu_3x3_reduce
I0403 14:21:33.880897 13186 net.cpp:148] Top shape: 24 160 7 7 (188160)
I0403 14:21:33.880913 13186 net.cpp:156] Memory required for data: 1296039456
I0403 14:21:33.880928 13186 layer_factory.hpp:77] Creating layer inception_5a/3x3
I0403 14:21:33.880950 13186 net.cpp:91] Creating Layer inception_5a/3x3
I0403 14:21:33.880969 13186 net.cpp:425] inception_5a/3x3 <- inception_5a/3x3_reduce
I0403 14:21:33.880988 13186 net.cpp:399] inception_5a/3x3 -> inception_5a/3x3
I0403 14:21:33.885910 13186 net.cpp:141] Setting up inception_5a/3x3
I0403 14:21:33.885942 13186 net.cpp:148] Top shape: 24 320 7 7 (376320)
I0403 14:21:33.885960 13186 net.cpp:156] Memory required for data: 1297544736
I0403 14:21:33.885979 13186 layer_factory.hpp:77] Creating layer inception_5a/relu_3x3
I0403 14:21:33.885998 13186 net.cpp:91] Creating Layer inception_5a/relu_3x3
I0403 14:21:33.886016 13186 net.cpp:425] inception_5a/relu_3x3 <- inception_5a/3x3
I0403 14:21:33.886037 13186 net.cpp:386] inception_5a/relu_3x3 -> inception_5a/3x3 (in-place)
I0403 14:21:33.886327 13186 net.cpp:141] Setting up inception_5a/relu_3x3
I0403 14:21:33.886356 13186 net.cpp:148] Top shape: 24 320 7 7 (376320)
I0403 14:21:33.886373 13186 net.cpp:156] Memory required for data: 1299050016
I0403 14:21:33.886389 13186 layer_factory.hpp:77] Creating layer inception_5a/5x5_reduce
I0403 14:21:33.886415 13186 net.cpp:91] Creating Layer inception_5a/5x5_reduce
I0403 14:21:33.886433 13186 net.cpp:425] inception_5a/5x5_reduce <- pool4/3x3_s2_pool4/3x3_s2_0_split_2
I0403 14:21:33.886452 13186 net.cpp:399] inception_5a/5x5_reduce -> inception_5a/5x5_reduce
I0403 14:21:33.887603 13186 net.cpp:141] Setting up inception_5a/5x5_reduce
I0403 14:21:33.887634 13186 net.cpp:148] Top shape: 24 32 7 7 (37632)
I0403 14:21:33.887651 13186 net.cpp:156] Memory required for data: 1299200544
I0403 14:21:33.887671 13186 layer_factory.hpp:77] Creating layer inception_5a/relu_5x5_reduce
I0403 14:21:33.887691 13186 net.cpp:91] Creating Layer inception_5a/relu_5x5_reduce
I0403 14:21:33.887708 13186 net.cpp:425] inception_5a/relu_5x5_reduce <- inception_5a/5x5_reduce
I0403 14:21:33.887728 13186 net.cpp:386] inception_5a/relu_5x5_reduce -> inception_5a/5x5_reduce (in-place)
I0403 14:21:33.888025 13186 net.cpp:141] Setting up inception_5a/relu_5x5_reduce
I0403 14:21:33.888051 13186 net.cpp:148] Top shape: 24 32 7 7 (37632)
I0403 14:21:33.888065 13186 net.cpp:156] Memory required for data: 1299351072
I0403 14:21:33.888080 13186 layer_factory.hpp:77] Creating layer inception_5a/5x5
I0403 14:21:33.888103 13186 net.cpp:91] Creating Layer inception_5a/5x5
I0403 14:21:33.888121 13186 net.cpp:425] inception_5a/5x5 <- inception_5a/5x5_reduce
I0403 14:21:33.888142 13186 net.cpp:399] inception_5a/5x5 -> inception_5a/5x5
I0403 14:21:33.889837 13186 net.cpp:141] Setting up inception_5a/5x5
I0403 14:21:33.889879 13186 net.cpp:148] Top shape: 24 128 7 7 (150528)
I0403 14:21:33.889897 13186 net.cpp:156] Memory required for data: 1299953184
I0403 14:21:33.889916 13186 layer_factory.hpp:77] Creating layer inception_5a/relu_5x5
I0403 14:21:33.889935 13186 net.cpp:91] Creating Layer inception_5a/relu_5x5
I0403 14:21:33.889951 13186 net.cpp:425] inception_5a/relu_5x5 <- inception_5a/5x5
I0403 14:21:33.889972 13186 net.cpp:386] inception_5a/relu_5x5 -> inception_5a/5x5 (in-place)
I0403 14:21:33.890162 13186 net.cpp:141] Setting up inception_5a/relu_5x5
I0403 14:21:33.890188 13186 net.cpp:148] Top shape: 24 128 7 7 (150528)
I0403 14:21:33.890205 13186 net.cpp:156] Memory required for data: 1300555296
I0403 14:21:33.890221 13186 layer_factory.hpp:77] Creating layer inception_5a/pool
I0403 14:21:33.890239 13186 net.cpp:91] Creating Layer inception_5a/pool
I0403 14:21:33.890257 13186 net.cpp:425] inception_5a/pool <- pool4/3x3_s2_pool4/3x3_s2_0_split_3
I0403 14:21:33.890277 13186 net.cpp:399] inception_5a/pool -> inception_5a/pool
I0403 14:21:33.890349 13186 net.cpp:141] Setting up inception_5a/pool
I0403 14:21:33.890373 13186 net.cpp:148] Top shape: 24 832 7 7 (978432)
I0403 14:21:33.890388 13186 net.cpp:156] Memory required for data: 1304469024
I0403 14:21:33.890403 13186 layer_factory.hpp:77] Creating layer inception_5a/pool_proj
I0403 14:21:33.890425 13186 net.cpp:91] Creating Layer inception_5a/pool_proj
I0403 14:21:33.890444 13186 net.cpp:425] inception_5a/pool_proj <- inception_5a/pool
I0403 14:21:33.890463 13186 net.cpp:399] inception_5a/pool_proj -> inception_5a/pool_proj
I0403 14:21:33.892698 13186 net.cpp:141] Setting up inception_5a/pool_proj
I0403 14:21:33.892729 13186 net.cpp:148] Top shape: 24 128 7 7 (150528)
I0403 14:21:33.892746 13186 net.cpp:156] Memory required for data: 1305071136
I0403 14:21:33.892766 13186 layer_factory.hpp:77] Creating layer inception_5a/relu_pool_proj
I0403 14:21:33.892786 13186 net.cpp:91] Creating Layer inception_5a/relu_pool_proj
I0403 14:21:33.892803 13186 net.cpp:425] inception_5a/relu_pool_proj <- inception_5a/pool_proj
I0403 14:21:33.892822 13186 net.cpp:386] inception_5a/relu_pool_proj -> inception_5a/pool_proj (in-place)
I0403 14:21:33.893115 13186 net.cpp:141] Setting up inception_5a/relu_pool_proj
I0403 14:21:33.893142 13186 net.cpp:148] Top shape: 24 128 7 7 (150528)
I0403 14:21:33.893159 13186 net.cpp:156] Memory required for data: 1305673248
I0403 14:21:33.893173 13186 layer_factory.hpp:77] Creating layer inception_5a/output
I0403 14:21:33.893192 13186 net.cpp:91] Creating Layer inception_5a/output
I0403 14:21:33.893208 13186 net.cpp:425] inception_5a/output <- inception_5a/1x1
I0403 14:21:33.893224 13186 net.cpp:425] inception_5a/output <- inception_5a/3x3
I0403 14:21:33.893240 13186 net.cpp:425] inception_5a/output <- inception_5a/5x5
I0403 14:21:33.893256 13186 net.cpp:425] inception_5a/output <- inception_5a/pool_proj
I0403 14:21:33.893275 13186 net.cpp:399] inception_5a/output -> inception_5a/output
I0403 14:21:33.893324 13186 net.cpp:141] Setting up inception_5a/output
I0403 14:21:33.893347 13186 net.cpp:148] Top shape: 24 832 7 7 (978432)
I0403 14:21:33.893362 13186 net.cpp:156] Memory required for data: 1309586976
I0403 14:21:33.893378 13186 layer_factory.hpp:77] Creating layer inception_5a/output_inception_5a/output_0_split
I0403 14:21:33.893393 13186 net.cpp:91] Creating Layer inception_5a/output_inception_5a/output_0_split
I0403 14:21:33.893409 13186 net.cpp:425] inception_5a/output_inception_5a/output_0_split <- inception_5a/output
I0403 14:21:33.893430 13186 net.cpp:399] inception_5a/output_inception_5a/output_0_split -> inception_5a/output_inception_5a/output_0_split_0
I0403 14:21:33.893451 13186 net.cpp:399] inception_5a/output_inception_5a/output_0_split -> inception_5a/output_inception_5a/output_0_split_1
I0403 14:21:33.893471 13186 net.cpp:399] inception_5a/output_inception_5a/output_0_split -> inception_5a/output_inception_5a/output_0_split_2
I0403 14:21:33.893491 13186 net.cpp:399] inception_5a/output_inception_5a/output_0_split -> inception_5a/output_inception_5a/output_0_split_3
I0403 14:21:33.893606 13186 net.cpp:141] Setting up inception_5a/output_inception_5a/output_0_split
I0403 14:21:33.893630 13186 net.cpp:148] Top shape: 24 832 7 7 (978432)
I0403 14:21:33.893646 13186 net.cpp:148] Top shape: 24 832 7 7 (978432)
I0403 14:21:33.893662 13186 net.cpp:148] Top shape: 24 832 7 7 (978432)
I0403 14:21:33.893678 13186 net.cpp:148] Top shape: 24 832 7 7 (978432)
I0403 14:21:33.893692 13186 net.cpp:156] Memory required for data: 1325241888
I0403 14:21:33.893707 13186 layer_factory.hpp:77] Creating layer inception_5b/1x1
I0403 14:21:33.893728 13186 net.cpp:91] Creating Layer inception_5b/1x1
I0403 14:21:33.893748 13186 net.cpp:425] inception_5b/1x1 <- inception_5a/output_inception_5a/output_0_split_0
I0403 14:21:33.893769 13186 net.cpp:399] inception_5b/1x1 -> inception_5b/1x1
I0403 14:21:33.897438 13186 net.cpp:141] Setting up inception_5b/1x1
I0403 14:21:33.897467 13186 net.cpp:148] Top shape: 24 384 7 7 (451584)
I0403 14:21:33.897485 13186 net.cpp:156] Memory required for data: 1327048224
I0403 14:21:33.897505 13186 layer_factory.hpp:77] Creating layer inception_5b/relu_1x1
I0403 14:21:33.897526 13186 net.cpp:91] Creating Layer inception_5b/relu_1x1
I0403 14:21:33.897550 13186 net.cpp:425] inception_5b/relu_1x1 <- inception_5b/1x1
I0403 14:21:33.897572 13186 net.cpp:386] inception_5b/relu_1x1 -> inception_5b/1x1 (in-place)
I0403 14:21:33.897872 13186 net.cpp:141] Setting up inception_5b/relu_1x1
I0403 14:21:33.897899 13186 net.cpp:148] Top shape: 24 384 7 7 (451584)
I0403 14:21:33.897917 13186 net.cpp:156] Memory required for data: 1328854560
I0403 14:21:33.897933 13186 layer_factory.hpp:77] Creating layer inception_5b/3x3_reduce
I0403 14:21:33.897955 13186 net.cpp:91] Creating Layer inception_5b/3x3_reduce
I0403 14:21:33.897974 13186 net.cpp:425] inception_5b/3x3_reduce <- inception_5a/output_inception_5a/output_0_split_1
I0403 14:21:33.897999 13186 net.cpp:399] inception_5b/3x3_reduce -> inception_5b/3x3_reduce
I0403 14:21:33.900604 13186 net.cpp:141] Setting up inception_5b/3x3_reduce
I0403 14:21:33.900635 13186 net.cpp:148] Top shape: 24 192 7 7 (225792)
I0403 14:21:33.900652 13186 net.cpp:156] Memory required for data: 1329757728
I0403 14:21:33.900671 13186 layer_factory.hpp:77] Creating layer inception_5b/relu_3x3_reduce
I0403 14:21:33.900694 13186 net.cpp:91] Creating Layer inception_5b/relu_3x3_reduce
I0403 14:21:33.900712 13186 net.cpp:425] inception_5b/relu_3x3_reduce <- inception_5b/3x3_reduce
I0403 14:21:33.900729 13186 net.cpp:386] inception_5b/relu_3x3_reduce -> inception_5b/3x3_reduce (in-place)
I0403 14:21:33.900918 13186 net.cpp:141] Setting up inception_5b/relu_3x3_reduce
I0403 14:21:33.900943 13186 net.cpp:148] Top shape: 24 192 7 7 (225792)
I0403 14:21:33.900959 13186 net.cpp:156] Memory required for data: 1330660896
I0403 14:21:33.900974 13186 layer_factory.hpp:77] Creating layer inception_5b/3x3
I0403 14:21:33.900997 13186 net.cpp:91] Creating Layer inception_5b/3x3
I0403 14:21:33.901016 13186 net.cpp:425] inception_5b/3x3 <- inception_5b/3x3_reduce
I0403 14:21:33.901036 13186 net.cpp:399] inception_5b/3x3 -> inception_5b/3x3
I0403 14:21:33.907635 13186 net.cpp:141] Setting up inception_5b/3x3
I0403 14:21:33.907666 13186 net.cpp:148] Top shape: 24 384 7 7 (451584)
I0403 14:21:33.907685 13186 net.cpp:156] Memory required for data: 1332467232
I0403 14:21:33.907706 13186 layer_factory.hpp:77] Creating layer inception_5b/relu_3x3
I0403 14:21:33.907726 13186 net.cpp:91] Creating Layer inception_5b/relu_3x3
I0403 14:21:33.907743 13186 net.cpp:425] inception_5b/relu_3x3 <- inception_5b/3x3
I0403 14:21:33.907760 13186 net.cpp:386] inception_5b/relu_3x3 -> inception_5b/3x3 (in-place)
I0403 14:21:33.908058 13186 net.cpp:141] Setting up inception_5b/relu_3x3
I0403 14:21:33.908088 13186 net.cpp:148] Top shape: 24 384 7 7 (451584)
I0403 14:21:33.908105 13186 net.cpp:156] Memory required for data: 1334273568
I0403 14:21:33.908121 13186 layer_factory.hpp:77] Creating layer inception_5b/5x5_reduce
I0403 14:21:33.908157 13186 net.cpp:91] Creating Layer inception_5b/5x5_reduce
I0403 14:21:33.908176 13186 net.cpp:425] inception_5b/5x5_reduce <- inception_5a/output_inception_5a/output_0_split_2
I0403 14:21:33.908197 13186 net.cpp:399] inception_5b/5x5_reduce -> inception_5b/5x5_reduce
I0403 14:21:33.909443 13186 net.cpp:141] Setting up inception_5b/5x5_reduce
I0403 14:21:33.909471 13186 net.cpp:148] Top shape: 24 48 7 7 (56448)
I0403 14:21:33.909488 13186 net.cpp:156] Memory required for data: 1334499360
I0403 14:21:33.909507 13186 layer_factory.hpp:77] Creating layer inception_5b/relu_5x5_reduce
I0403 14:21:33.909526 13186 net.cpp:91] Creating Layer inception_5b/relu_5x5_reduce
I0403 14:21:33.909549 13186 net.cpp:425] inception_5b/relu_5x5_reduce <- inception_5b/5x5_reduce
I0403 14:21:33.909569 13186 net.cpp:386] inception_5b/relu_5x5_reduce -> inception_5b/5x5_reduce (in-place)
I0403 14:21:33.909935 13186 net.cpp:141] Setting up inception_5b/relu_5x5_reduce
I0403 14:21:33.909961 13186 net.cpp:148] Top shape: 24 48 7 7 (56448)
I0403 14:21:33.909977 13186 net.cpp:156] Memory required for data: 1334725152
I0403 14:21:33.909992 13186 layer_factory.hpp:77] Creating layer inception_5b/5x5
I0403 14:21:33.910012 13186 net.cpp:91] Creating Layer inception_5b/5x5
I0403 14:21:33.910030 13186 net.cpp:425] inception_5b/5x5 <- inception_5b/5x5_reduce
I0403 14:21:33.910048 13186 net.cpp:399] inception_5b/5x5 -> inception_5b/5x5
I0403 14:21:33.912050 13186 net.cpp:141] Setting up inception_5b/5x5
I0403 14:21:33.912078 13186 net.cpp:148] Top shape: 24 128 7 7 (150528)
I0403 14:21:33.912096 13186 net.cpp:156] Memory required for data: 1335327264
I0403 14:21:33.912113 13186 layer_factory.hpp:77] Creating layer inception_5b/relu_5x5
I0403 14:21:33.912137 13186 net.cpp:91] Creating Layer inception_5b/relu_5x5
I0403 14:21:33.912156 13186 net.cpp:425] inception_5b/relu_5x5 <- inception_5b/5x5
I0403 14:21:33.912175 13186 net.cpp:386] inception_5b/relu_5x5 -> inception_5b/5x5 (in-place)
I0403 14:21:33.912369 13186 net.cpp:141] Setting up inception_5b/relu_5x5
I0403 14:21:33.912394 13186 net.cpp:148] Top shape: 24 128 7 7 (150528)
I0403 14:21:33.912408 13186 net.cpp:156] Memory required for data: 1335929376
I0403 14:21:33.912423 13186 layer_factory.hpp:77] Creating layer inception_5b/pool
I0403 14:21:33.912441 13186 net.cpp:91] Creating Layer inception_5b/pool
I0403 14:21:33.912457 13186 net.cpp:425] inception_5b/pool <- inception_5a/output_inception_5a/output_0_split_3
I0403 14:21:33.912478 13186 net.cpp:399] inception_5b/pool -> inception_5b/pool
I0403 14:21:33.912554 13186 net.cpp:141] Setting up inception_5b/pool
I0403 14:21:33.912578 13186 net.cpp:148] Top shape: 24 832 7 7 (978432)
I0403 14:21:33.912597 13186 net.cpp:156] Memory required for data: 1339843104
I0403 14:21:33.912617 13186 layer_factory.hpp:77] Creating layer inception_5b/pool_proj
I0403 14:21:33.912645 13186 net.cpp:91] Creating Layer inception_5b/pool_proj
I0403 14:21:33.912668 13186 net.cpp:425] inception_5b/pool_proj <- inception_5b/pool
I0403 14:21:33.912693 13186 net.cpp:399] inception_5b/pool_proj -> inception_5b/pool_proj
I0403 14:21:33.915022 13186 net.cpp:141] Setting up inception_5b/pool_proj
I0403 14:21:33.915053 13186 net.cpp:148] Top shape: 24 128 7 7 (150528)
I0403 14:21:33.915071 13186 net.cpp:156] Memory required for data: 1340445216
I0403 14:21:33.915091 13186 layer_factory.hpp:77] Creating layer inception_5b/relu_pool_proj
I0403 14:21:33.915114 13186 net.cpp:91] Creating Layer inception_5b/relu_pool_proj
I0403 14:21:33.915133 13186 net.cpp:425] inception_5b/relu_pool_proj <- inception_5b/pool_proj
I0403 14:21:33.915151 13186 net.cpp:386] inception_5b/relu_pool_proj -> inception_5b/pool_proj (in-place)
I0403 14:21:33.915452 13186 net.cpp:141] Setting up inception_5b/relu_pool_proj
I0403 14:21:33.915480 13186 net.cpp:148] Top shape: 24 128 7 7 (150528)
I0403 14:21:33.915496 13186 net.cpp:156] Memory required for data: 1341047328
I0403 14:21:33.915513 13186 layer_factory.hpp:77] Creating layer inception_5b/output
I0403 14:21:33.915534 13186 net.cpp:91] Creating Layer inception_5b/output
I0403 14:21:33.915570 13186 net.cpp:425] inception_5b/output <- inception_5b/1x1
I0403 14:21:33.915587 13186 net.cpp:425] inception_5b/output <- inception_5b/3x3
I0403 14:21:33.915604 13186 net.cpp:425] inception_5b/output <- inception_5b/5x5
I0403 14:21:33.915621 13186 net.cpp:425] inception_5b/output <- inception_5b/pool_proj
I0403 14:21:33.915639 13186 net.cpp:399] inception_5b/output -> inception_5b/output
I0403 14:21:33.915694 13186 net.cpp:141] Setting up inception_5b/output
I0403 14:21:33.915719 13186 net.cpp:148] Top shape: 24 1024 7 7 (1204224)
I0403 14:21:33.915735 13186 net.cpp:156] Memory required for data: 1345864224
I0403 14:21:33.915750 13186 layer_factory.hpp:77] Creating layer pool5/7x7_s1
I0403 14:21:33.915771 13186 net.cpp:91] Creating Layer pool5/7x7_s1
I0403 14:21:33.915789 13186 net.cpp:425] pool5/7x7_s1 <- inception_5b/output
I0403 14:21:33.915808 13186 net.cpp:399] pool5/7x7_s1 -> pool5/7x7_s1
I0403 14:21:33.916028 13186 net.cpp:141] Setting up pool5/7x7_s1
I0403 14:21:33.916056 13186 net.cpp:148] Top shape: 24 1024 1 1 (24576)
I0403 14:21:33.916072 13186 net.cpp:156] Memory required for data: 1345962528
I0403 14:21:33.916088 13186 layer_factory.hpp:77] Creating layer pool5/drop_7x7_s1
I0403 14:21:33.916107 13186 net.cpp:91] Creating Layer pool5/drop_7x7_s1
I0403 14:21:33.916124 13186 net.cpp:425] pool5/drop_7x7_s1 <- pool5/7x7_s1
I0403 14:21:33.916144 13186 net.cpp:386] pool5/drop_7x7_s1 -> pool5/7x7_s1 (in-place)
I0403 14:21:33.916196 13186 net.cpp:141] Setting up pool5/drop_7x7_s1
I0403 14:21:33.916220 13186 net.cpp:148] Top shape: 24 1024 1 1 (24576)
I0403 14:21:33.916235 13186 net.cpp:156] Memory required for data: 1346060832
I0403 14:21:33.916249 13186 layer_factory.hpp:77] Creating layer loss3/classifier_plantvillage
I0403 14:21:33.916273 13186 net.cpp:91] Creating Layer loss3/classifier_plantvillage
I0403 14:21:33.916291 13186 net.cpp:425] loss3/classifier_plantvillage <- pool5/7x7_s1
I0403 14:21:33.916314 13186 net.cpp:399] loss3/classifier_plantvillage -> loss3/classifier_plantvillage
I0403 14:21:33.916748 13186 net.cpp:141] Setting up loss3/classifier_plantvillage
I0403 14:21:33.916774 13186 net.cpp:148] Top shape: 24 38 (912)
I0403 14:21:33.916788 13186 net.cpp:156] Memory required for data: 1346064480
I0403 14:21:33.916806 13186 layer_factory.hpp:77] Creating layer loss3/classifier_plantvillage_loss3/classifier_plantvillage_0_split
I0403 14:21:33.916824 13186 net.cpp:91] Creating Layer loss3/classifier_plantvillage_loss3/classifier_plantvillage_0_split
I0403 14:21:33.916846 13186 net.cpp:425] loss3/classifier_plantvillage_loss3/classifier_plantvillage_0_split <- loss3/classifier_plantvillage
I0403 14:21:33.916864 13186 net.cpp:399] loss3/classifier_plantvillage_loss3/classifier_plantvillage_0_split -> loss3/classifier_plantvillage_loss3/classifier_plantvillage_0_split_0
I0403 14:21:33.916884 13186 net.cpp:399] loss3/classifier_plantvillage_loss3/classifier_plantvillage_0_split -> loss3/classifier_plantvillage_loss3/classifier_plantvillage_0_split_1
I0403 14:21:33.916905 13186 net.cpp:399] loss3/classifier_plantvillage_loss3/classifier_plantvillage_0_split -> loss3/classifier_plantvillage_loss3/classifier_plantvillage_0_split_2
I0403 14:21:33.916925 13186 net.cpp:399] loss3/classifier_plantvillage_loss3/classifier_plantvillage_0_split -> loss3/classifier_plantvillage_loss3/classifier_plantvillage_0_split_3
I0403 14:21:33.917027 13186 net.cpp:141] Setting up loss3/classifier_plantvillage_loss3/classifier_plantvillage_0_split
I0403 14:21:33.917052 13186 net.cpp:148] Top shape: 24 38 (912)
I0403 14:21:33.917068 13186 net.cpp:148] Top shape: 24 38 (912)
I0403 14:21:33.917083 13186 net.cpp:148] Top shape: 24 38 (912)
I0403 14:21:33.917099 13186 net.cpp:148] Top shape: 24 38 (912)
I0403 14:21:33.917114 13186 net.cpp:156] Memory required for data: 1346079072
I0403 14:21:33.917129 13186 layer_factory.hpp:77] Creating layer loss1/loss
I0403 14:21:33.917150 13186 net.cpp:91] Creating Layer loss1/loss
I0403 14:21:33.917168 13186 net.cpp:425] loss1/loss <- loss1/classifier_plantvillage_loss1/classifier_plantvillage_0_split_0
I0403 14:21:33.917199 13186 net.cpp:425] loss1/loss <- label_data_1_split_0
…
