…
I0403 13:48:18.990386 12082 net.cpp:313] The NetState phase (1) differed from the phase (0) specified by a rule in layer data
I0403 13:48:18.991551 12082 net.cpp:49] Initializing net from parameters: 
state {
  phase: TEST
}
layer {
  name: "data"
  type: "Data"
  top: "data"
  top: "label"
  include {
    phase: TEST
  }
  transform_param {
    mirror: false
    crop_size: 224
    mean_file: "/home/mohanty/data/final_dataset/lmdb/segmented-20-80/mean.binaryproto"
  }
  data_param {
    source: "/home/mohanty/data/final_dataset/lmdb/segmented-20-80/test_db"
    batch_size: 24
    backend: LMDB
  }
}
layer {
  name: "conv1/7x7_s2"
  type: "Convolution"
  bottom: "data"
  top: "conv1/7x7_s2"
  param {
    lr_mult: 1
    decay_mult: 1
  }
  param {
    lr_mult: 2
    decay_mult: 0
  }
  convolution_param {
    num_output: 64
    pad: 3
    kernel_size: 7
    stride: 2
    weight_filler {
      type: "xavier"
      std: 0.1
    }
    bias_filler {
      type: "constant"
      value: 0.2
    }
  }
}
layer {
  name: "conv1/relu_7x7"
  type: "ReLU"
  bottom: "conv1/7x7_s2"
  top: "conv1/7x7_s2"
}
layer {
  name: "pool1/3x3_s2"
  type: "Pooling"
  bottom: "conv1/7x7_s2"
  top: "pool1/3x3_s2"
  pooling_param {
    pool: MAX
    kernel_size: 3
    stride: 2
  }
}
layer {
  name: "pool1/norm1"
  type: "LRN"
  bottom: "pool1/3x3_s2"
  top: "pool1/norm1"
  lrn_param {
    local_size: 5
    alpha: 0.0001
    beta: 0.75
  }
}
layer {
  name: "conv2/3x3_reduce"
  type: "Convolution"
  bottom: "pool1/norm1"
  top: "conv2/3x3_reduce"
  param {
    lr_mult: 1
    decay_mult: 1
  }
  param {
    lr_mult: 2
    decay_mult: 0
  }
  convolution_param {
    num_output: 64
    kernel_size: 1
    weight_filler {
      type: "xavier"
      std: 0.1
    }
    bias_filler {
      type: "constant"
      value: 0.2
    }
  }
}
layer {
  name: "conv2/relu_3x3_reduce"
  type: "ReLU"
  bottom: "conv2/3x3_reduce"
  top: "conv2/3x3_reduce"
}
layer {
  name: "conv2/3x3"
  type: "Convolution"
  bottom: "conv2/3x3_reduce"
  top: "conv2/3x3"
  param {
    lr_mult: 1
    decay_mult: 1
  }
  param {
    lr_mult: 2
    decay_mult: 0
  }
  convolution_param {
    num_output: 192
    pad: 1
    kernel_size: 3
    weight_filler {
      type: "xavier"
      std: 0.03
    }
    bias_filler {
      type: "constant"
      value: 0.2
    }
  }
}
layer {
  name: "conv2/relu_3x3"
  type: "ReLU"
  bottom: "conv2/3x3"
  top: "conv2/3x3"
}
layer {
  name: "conv2/norm2"
  type: "LRN"
  bottom: "conv2/3x3"
  top: "conv2/norm2"
  lrn_param {
    local_size: 5
    alpha: 0.0001
    beta: 0.75
  }
}
layer {
  name: "pool2/3x3_s2"
  type: "Pooling"
  bottom: "conv2/norm2"
  top: "pool2/3x3_s2"
  pooling_param {
    pool: MAX
    kernel_size: 3
    stride: 2
  }
}
layer {
  name: "inception_3a/1x1"
  type: "Convolution"
  bottom: "pool2/3x3_s2"
  top: "inception_3a/1x1"
  param {
    lr_mult: 1
    decay_mult: 1
  }
  param {
    lr_mult: 2
    decay_mult: 0
  }
  convolution_param {
    num_output: 64
    kernel_size: 1
    weight_filler {
      type: "xavier"
      std: 0.03
    }
    bias_filler {
      type: "constant"
      value: 0.2
    }
  }
}
layer {
  name: "inception_3a/relu_1x1"
  type: "ReLU"
  bottom: "inception_3a/1x1"
  top: "inception_3a/1x1"
}
layer {
  name: "inception_3a/3x3_reduce"
  type: "Convolution"
  bottom: "pool2/3x3_s2"
  top: "inception_3a/3x3_reduce"
  param {
    lr_mult: 1
    decay_mult: 1
  }
  param {
    lr_mult: 2
    decay_mult: 0
  }
  convolution_param {
    num_output: 96
    kernel_size: 1
    weight_filler {
      type: "xavier"
      std: 0.09
    }
    bias_filler {
      type: "constant"
      value: 0.2
    }
  }
}
layer {
  name: "inception_3a/relu_3x3_reduce"
  type: "ReLU"
  bottom: "inception_3a/3x3_reduce"
  top: "inception_3a/3x3_reduce"
}
layer {
  name: "inception_3a/3x3"
  type: "Convolution"
  bottom: "inception_3a/3x3_reduce"
  top: "inception_3a/3x3"
  param {
    lr_mult: 1
    decay_mult: 1
  }
  param {
    lr_mult: 2
    decay_mult: 0
  }
  convolution_param {
    num_output: 128
    pad: 1
    kernel_size: 3
    weight_filler {
      type: "xavier"
      std: 0.03
    }
    bias_filler {
      type: "constant"
      value: 0.2
    }
  }
}
layer {
  name: "inception_3a/relu_3x3"
  type: "ReLU"
  bottom: "inception_3a/3x3"
  top: "inception_3a/3x3"
}
layer {
  name: "inception_3a/5x5_reduce"
  type: "Convolution"
  bottom: "pool2/3x3_s2"
  top: "inception_3a/5x5_reduce"
  param {
    lr_mult: 1
    decay_mult: 1
  }
  param {
    lr_mult: 2
    decay_mult: 0
  }
  convolution_param {
    num_output: 16
    kernel_size: 1
    weight_filler {
      type: "xavier"
      std: 0.2
    }
    bias_filler {
      type: "constant"
      value: 0.2
    }
  }
}
layer {
  name: "inception_3a/relu_5x5_reduce"
  type: "ReLU"
  bottom: "inception_3a/5x5_reduce"
  top: "inception_3a/5x5_reduce"
}
layer {
  name: "inception_3a/5x5"
  type: "Convolution"
  bottom: "inception_3a/5x5_reduce"
  top: "inception_3a/5x5"
  param {
    lr_mult: 1
    decay_mult: 1
  }
  param {
    lr_mult: 2
    decay_mult: 0
  }
  convolution_param {
    num_output: 32
    pad: 2
    kernel_size: 5
    weight_filler {
      type: "xavier"
      std: 0.03
    }
    bias_filler {
      type: "constant"
      value: 0.2
    }
  }
}
layer {
  name: "inception_3a/relu_5x5"
  type: "ReLU"
  bottom: "inception_3a/5x5"
  top: "inception_3a/5x5"
}
layer {
  name: "inception_3a/pool"
  type: "Pooling"
  bottom: "pool2/3x3_s2"
  top: "inception_3a/pool"
  pooling_param {
    pool: MAX
    kernel_size: 3
    stride: 1
    pad: 1
  }
}
layer {
  name: "inception_3a/pool_proj"
  type: "Convolution"
  bottom: "inception_3a/pool"
  top: "inception_3a/pool_proj"
  param {
    lr_mult: 1
    decay_mult: 1
  }
  param {
    lr_mult: 2
    decay_mult: 0
  }
  convolution_param {
    num_output: 32
    kernel_size: 1
    weight_filler {
      type: "xavier"
      std: 0.1
    }
    bias_filler {
      type: "constant"
      value: 0.2
    }
  }
}
layer {
  name: "inception_3a/relu_pool_proj"
  type: "ReLU"
  bottom: "inception_3a/pool_proj"
  top: "inception_3a/pool_proj"
}
layer {
  name: "inception_3a/output"
  type: "Concat"
  bottom: "inception_3a/1x1"
  bottom: "inception_3a/3x3"
  bottom: "inception_3a/5x5"
  bottom: "inception_3a/pool_proj"
  top: "inception_3a/output"
}
layer {
  name: "inception_3b/1x1"
  type: "Convolution"
  bottom: "inception_3a/output"
  top: "inception_3b/1x1"
  param {
    lr_mult: 1
    decay_mult: 1
  }
  param {
    lr_mult: 2
    decay_mult: 0
  }
  convolution_param {
    num_output: 128
    kernel_size: 1
    weight_filler {
      type: "xavier"
      std: 0.03
    }
    bias_filler {
      type: "constant"
      value: 0.2
    }
  }
}
layer {
  name: "inception_3b/relu_1x1"
  type: "ReLU"
  bottom: "inception_3b/1x1"
  top: "inception_3b/1x1"
}
layer {
  name: "inception_3b/3x3_reduce"
  type: "Convolution"
  bottom: "inception_3a/output"
  top: "inception_3b/3x3_reduce"
  param {
    lr_mult: 1
    decay_mult: 1
  }
  param {
    lr_mult: 2
    decay_mult: 0
  }
  convolution_param {
    num_output: 128
    kernel_size: 1
    weight_filler {
      type: "xavier"
      std: 0.09
    }
    bias_filler {
      type: "constant"
      value: 0.2
    }
  }
}
layer {
  name: "inception_3b/relu_3x3_reduce"
  type: "ReLU"
  bottom: "inception_3b/3x3_reduce"
  top: "inception_3b/3x3_reduce"
}
layer {
  name: "inception_3b/3x3"
  type: "Convolution"
  bottom: "inception_3b/3x3_reduce"
  top: "inception_3b/3x3"
  param {
    lr_mult: 1
    decay_mult: 1
  }
  param {
    lr_mult: 2
    decay_mult: 0
  }
  convolution_param {
    num_output: 192
    pad: 1
    kernel_size: 3
    weight_filler {
      type: "xavier"
      std: 0.03
    }
    bias_filler {
      type: "constant"
      value: 0.2
    }
  }
}
layer {
  name: "inception_3b/relu_3x3"
  type: "ReLU"
  bottom: "inception_3b/3x3"
  top: "inception_3b/3x3"
}
layer {
  name: "inception_3b/5x5_reduce"
  type: "Convolution"
  bottom: "inception_3a/output"
  top: "inception_3b/5x5_reduce"
  param {
    lr_mult: 1
    decay_mult: 1
  }
  param {
    lr_mult: 2
    decay_mult: 0
  }
  convolution_param {
    num_output: 32
    kernel_size: 1
    weight_filler {
      type: "xavier"
      std: 0.2
    }
    bias_filler {
      type: "constant"
      value: 0.2
    }
  }
}
layer {
  name: "inception_3b/relu_5x5_reduce"
  type: "ReLU"
  bottom: "inception_3b/5x5_reduce"
  top: "inception_3b/5x5_reduce"
}
layer {
  name: "inception_3b/5x5"
  type: "Convolution"
  bottom: "inception_3b/5x5_reduce"
  top: "inception_3b/5x5"
  param {
    lr_mult: 1
    decay_mult: 1
  }
  param {
    lr_mult: 2
    decay_mult: 0
  }
  convolution_param {
    num_output: 96
    pad: 2
    kernel_size: 5
    weight_filler {
      type: "xavier"
      std: 0.03
    }
    bias_filler {
      type: "constant"
      value: 0.2
    }
  }
}
layer {
  name: "inception_3b/relu_5x5"
  type: "ReLU"
  bottom: "inception_3b/5x5"
  top: "inception_3b/5x5"
}
layer {
  name: "inception_3b/pool"
  type: "Pooling"
  bottom: "inception_3a/output"
  top: "inception_3b/pool"
  pooling_param {
    pool: MAX
    kernel_size: 3
    stride: 1
    pad: 1
  }
}
layer {
  name: "inception_3b/pool_proj"
  type: "Convolution"
  bottom: "inception_3b/pool"
  top: "inception_3b/pool_proj"
  param {
    lr_mult: 1
    decay_mult: 1
  }
  param {
    lr_mult: 2
    decay_mult: 0
  }
  convolution_param {
    num_output: 64
    kernel_size: 1
    weight_filler {
      type: "xavier"
      std: 0.1
    }
    bias_filler {
      type: "constant"
      value: 0.2
    }
  }
}
layer {
  name: "inception_3b/relu_pool_proj"
  type: "ReLU"
  bottom: "inception_3b/pool_proj"
  top: "inception_3b/pool_proj"
}
layer {
  name: "inception_3b/output"
  type: "Concat"
  bottom: "inception_3b/1x1"
  bottom: "inception_3b/3x3"
  bottom: "inception_3b/5x5"
  bottom: "inception_3b/pool_proj"
  top: "inception_3b/output"
}
layer {
  name: "pool3/3x3_s2"
  type: "Pooling"
  bottom: "inception_3b/output"
  top: "pool3/3x3_s2"
  pooling_param {
    pool: MAX
    kernel_size: 3
    stride: 2
  }
}
layer {
  name: "inception_4a/1x1"
  type: "Convolution"
  bottom: "pool3/3x3_s2"
  top: "inception_4a/1x1"
  param {
    lr_mult: 1
    decay_mult: 1
  }
  param {
    lr_mult: 2
    decay_mult: 0
  }
  convolution_param {
    num_output: 192
    kernel_size: 1
    weight_filler {
      type: "xavier"
      std: 0.03
    }
    bias_filler {
      type: "constant"
      value: 0.2
    }
  }
}
layer {
  name: "inception_4a/relu_1x1"
  type: "ReLU"
  bottom: "inception_4a/1x1"
  top: "inception_4a/1x1"
}
layer {
  name: "inception_4a/3x3_reduce"
  type: "Convolution"
  bottom: "pool3/3x3_s2"
  top: "inception_4a/3x3_reduce"
  param {
    lr_mult: 1
    decay_mult: 1
  }
  param {
    lr_mult: 2
    decay_mult: 0
  }
  convolution_param {
    num_output: 96
    kernel_size: 1
    weight_filler {
      type: "xavier"
      std: 0.09
    }
    bias_filler {
      type: "constant"
      value: 0.2
    }
  }
}
layer {
  name: "inception_4a/relu_3x3_reduce"
  type: "ReLU"
  bottom: "inception_4a/3x3_reduce"
  top: "inception_4a/3x3_reduce"
}
layer {
  name: "inception_4a/3x3"
  type: "Convolution"
  bottom: "inception_4a/3x3_reduce"
  top: "inception_4a/3x3"
  param {
    lr_mult: 1
    decay_mult: 1
  }
  param {
    lr_mult: 2
    decay_mult: 0
  }
  convolution_param {
    num_output: 208
    pad: 1
    kernel_size: 3
    weight_filler {
      type: "xavier"
      std: 0.03
    }
    bias_filler {
      type: "constant"
      value: 0.2
    }
  }
}
layer {
  name: "inception_4a/relu_3x3"
  type: "ReLU"
  bottom: "inception_4a/3x3"
  top: "inception_4a/3x3"
}
layer {
  name: "inception_4a/5x5_reduce"
  type: "Convolution"
  bottom: "pool3/3x3_s2"
  top: "inception_4a/5x5_reduce"
  param {
    lr_mult: 1
    decay_mult: 1
  }
  param {
    lr_mult: 2
    decay_mult: 0
  }
  convolution_param {
    num_output: 16
    kernel_size: 1
    weight_filler {
      type: "xavier"
      std: 0.2
    }
    bias_filler {
      type: "constant"
      value: 0.2
    }
  }
}
layer {
  name: "inception_4a/relu_5x5_reduce"
  type: "ReLU"
  bottom: "inception_4a/5x5_reduce"
  top: "inception_4a/5x5_reduce"
}
layer {
  name: "inception_4a/5x5"
  type: "Convolution"
  bottom: "inception_4a/5x5_reduce"
  top: "inception_4a/5x5"
  param {
    lr_mult: 1
    decay_mult: 1
  }
  param {
    lr_mult: 2
    decay_mult: 0
  }
  convolution_param {
    num_output: 48
    pad: 2
    kernel_size: 5
    weight_filler {
      type: "xavier"
      std: 0.03
    }
    bias_filler {
      type: "constant"
      value: 0.2
    }
  }
}
layer {
  name: "inception_4a/relu_5x5"
  type: "ReLU"
  bottom: "inception_4a/5x5"
  top: "inception_4a/5x5"
}
layer {
  name: "inception_4a/pool"
  type: "Pooling"
  bottom: "pool3/3x3_s2"
  top: "inception_4a/pool"
  pooling_param {
    pool: MAX
    kernel_size: 3
    stride: 1
    pad: 1
  }
}
layer {
  name: "inception_4a/pool_proj"
  type: "Convolution"
  bottom: "inception_4a/pool"
  top: "inception_4a/pool_proj"
  param {
    lr_mult: 1
    decay_mult: 1
  }
  param {
    lr_mult: 2
    decay_mult: 0
  }
  convolution_param {
    num_output: 64
    kernel_size: 1
    weight_filler {
      type: "xavier"
      std: 0.1
    }
    bias_filler {
      type: "constant"
      value: 0.2
    }
  }
}
layer {
  name: "inception_4a/relu_pool_proj"
  type: "ReLU"
  bottom: "inception_4a/pool_proj"
  top: "inception_4a/pool_proj"
}
layer {
  name: "inception_4a/output"
  type: "Concat"
  bottom: "inception_4a/1x1"
  bottom: "inception_4a/3x3"
  bottom: "inception_4a/5x5"
  bottom: "inception_4a/pool_proj"
  top: "inception_4a/output"
}
layer {
  name: "loss1/ave_pool"
  type: "Pooling"
  bottom: "inception_4a/output"
  top: "loss1/ave_pool"
  pooling_param {
    pool: AVE
    kernel_size: 5
    stride: 3
  }
}
layer {
  name: "loss1/conv"
  type: "Convolution"
  bottom: "loss1/ave_pool"
  top: "loss1/conv"
  param {
    lr_mult: 1
    decay_mult: 1
  }
  param {
    lr_mult: 2
    decay_mult: 0
  }
  convolution_param {
    num_output: 128
    kernel_size: 1
    weight_filler {
      type: "xavier"
      std: 0.08
    }
    bias_filler {
      type: "constant"
      value: 0.2
    }
  }
}
layer {
  name: "loss1/relu_conv"
  type: "ReLU"
  bottom: "loss1/conv"
  top: "loss1/conv"
}
layer {
  name: "loss1/fc"
  type: "InnerProduct"
  bottom: "loss1/conv"
  top: "loss1/fc"
  param {
    lr_mult: 1
    decay_mult: 1
  }
  param {
    lr_mult: 2
    decay_mult: 0
  }
  inner_product_param {
    num_output: 1024
    weight_filler {
      type: "xavier"
      std: 0.02
    }
    bias_filler {
      type: "constant"
      value: 0.2
    }
  }
}
layer {
  name: "loss1/relu_fc"
  type: "ReLU"
  bottom: "loss1/fc"
  top: "loss1/fc"
}
layer {
  name: "loss1/drop_fc"
  type: "Dropout"
  bottom: "loss1/fc"
  top: "loss1/fc"
  dropout_param {
    dropout_ratio: 0.7
  }
}
layer {
  name: "loss1/classifier_plantvillage"
  type: "InnerProduct"
  bottom: "loss1/fc"
  top: "loss1/classifier_plantvillage"
  param {
    lr_mult: 1
    decay_mult: 1
  }
  param {
    lr_mult: 2
    decay_mult: 0
  }
  inner_product_param {
    num_output: 38
    weight_filler {
      type: "xavier"
      std: 0.0009765625
    }
    bias_filler {
      type: "constant"
      value: 0
    }
  }
}
layer {
  name: "inception_4b/1x1"
  type: "Convolution"
  bottom: "inception_4a/output"
  top: "inception_4b/1x1"
  param {
    lr_mult: 1
    decay_mult: 1
  }
  param {
    lr_mult: 2
    decay_mult: 0
  }
  convolution_param {
    num_output: 160
    kernel_size: 1
    weight_filler {
      type: "xavier"
      std: 0.03
    }
    bias_filler {
      type: "constant"
      value: 0.2
    }
  }
}
layer {
  name: "inception_4b/relu_1x1"
  type: "ReLU"
  bottom: "inception_4b/1x1"
  top: "inception_4b/1x1"
}
layer {
  name: "inception_4b/3x3_reduce"
  type: "Convolution"
  bottom: "inception_4a/output"
  top: "inception_4b/3x3_reduce"
  param {
    lr_mult: 1
    decay_mult: 1
  }
  param {
    lr_mult: 2
    decay_mult: 0
  }
  convolution_param {
    num_output: 112
    kernel_size: 1
    weight_filler {
      type: "xavier"
      std: 0.09
    }
    bias_filler {
      type: "constant"
      value: 0.2
    }
  }
}
layer {
  name: "inception_4b/relu_3x3_reduce"
  type: "ReLU"
  bottom: "inception_4b/3x3_reduce"
  top: "inception_4b/3x3_reduce"
}
layer {
  name: "inception_4b/3x3"
  type: "Convolution"
  bottom: "inception_4b/3x3_reduce"
  top: "inception_4b/3x3"
  param {
    lr_mult: 1
    decay_mult: 1
  }
  param {
    lr_mult: 2
    decay_mult: 0
  }
  convolution_param {
    num_output: 224
    pad: 1
    kernel_size: 3
    weight_filler {
      type: "xavier"
      std: 0.03
    }
    bias_filler {
      type: "constant"
      value: 0.2
    }
  }
}
layer {
  name: "inception_4b/relu_3x3"
  type: "ReLU"
  bottom: "inception_4b/3x3"
  top: "inception_4b/3x3"
}
layer {
  name: "inception_4b/5x5_reduce"
  type: "Convolution"
  bottom: "inception_4a/output"
  top: "inception_4b/5x5_reduce"
  param {
    lr_mult: 1
    decay_mult: 1
  }
  param {
    lr_mult: 2
    decay_mult: 0
  }
  convolution_param {
    num_output: 24
    kernel_size: 1
    weight_filler {
      type: "xavier"
      std: 0.2
    }
    bias_filler {
      type: "constant"
      value: 0.2
    }
  }
}
layer {
  name: "inception_4b/relu_5x5_reduce"
  type: "ReLU"
  bottom: "inception_4b/5x5_reduce"
  top: "inception_4b/5x5_reduce"
}
layer {
  name: "inception_4b/5x5"
  type: "Convolution"
  bottom: "inception_4b/5x5_reduce"
  top: "inception_4b/5x5"
  param {
    lr_mult: 1
    decay_mult: 1
  }
  param {
    lr_mult: 2
    decay_mult: 0
  }
  convolution_param {
    num_output: 64
    pad: 2
    kernel_size: 5
    weight_filler {
      type: "xavier"
      std: 0.03
    }
    bias_filler {
      type: "constant"
      value: 0.2
    }
  }
}
layer {
  name: "inception_4b/relu_5x5"
  type: "ReLU"
  bottom: "inception_4b/5x5"
  top: "inception_4b/5x5"
}
layer {
  name: "inception_4b/pool"
  type: "Pooling"
  bottom: "inception_4a/output"
  top: "inception_4b/pool"
  pooling_param {
    pool: MAX
    kernel_size: 3
    stride: 1
    pad: 1
  }
}
layer {
  name: "inception_4b/pool_proj"
  type: "Convolution"
  bottom: "inception_4b/pool"
  top: "inception_4b/pool_proj"
  param {
    lr_mult: 1
    decay_mult: 1
  }
  param {
    lr_mult: 2
    decay_mult: 0
  }
  convolution_param {
    num_output: 64
    kernel_size: 1
    weight_filler {
      type: "xavier"
      std: 0.1
    }
    bias_filler {
      type: "constant"
      value: 0.2
    }
  }
}
layer {
  name: "inception_4b/relu_pool_proj"
  type: "ReLU"
  bottom: "inception_4b/pool_proj"
  top: "inception_4b/pool_proj"
}
layer {
  name: "inception_4b/output"
  type: "Concat"
  bottom: "inception_4b/1x1"
  bottom: "inception_4b/3x3"
  bottom: "inception_4b/5x5"
  bottom: "inception_4b/pool_proj"
  top: "inception_4b/output"
}
layer {
  name: "inception_4c/1x1"
  type: "Convolution"
  bottom: "inception_4b/output"
  top: "inception_4c/1x1"
  param {
    lr_mult: 1
    decay_mult: 1
  }
  param {
    lr_mult: 2
    decay_mult: 0
  }
  convolution_param {
    num_output: 128
    kernel_size: 1
    weight_filler {
      type: "xavier"
      std: 0.03
    }
    bias_filler {
      type: "constant"
      value: 0.2
    }
  }
}
layer {
  name: "inception_4c/relu_1x1"
  type: "ReLU"
  bottom: "inception_4c/1x1"
  top: "inception_4c/1x1"
}
layer {
  name: "inception_4c/3x3_reduce"
  type: "Convolution"
  bottom: "inception_4b/output"
  top: "inception_4c/3x3_reduce"
  param {
    lr_mult: 1
    decay_mult: 1
  }
  param {
    lr_mult: 2
    decay_mult: 0
  }
  convolution_param {
    num_output: 128
    kernel_size: 1
    weight_filler {
      type: "xavier"
      std: 0.09
    }
    bias_filler {
      type: "constant"
      value: 0.2
    }
  }
}
layer {
  name: "inception_4c/relu_3x3_reduce"
  type: "ReLU"
  bottom: "inception_4c/3x3_reduce"
  top: "inception_4c/3x3_reduce"
}
layer {
  name: "inception_4c/3x3"
  type: "Convolution"
  bottom: "inception_4c/3x3_reduce"
  top: "inception_4c/3x3"
  param {
    lr_mult: 1
    decay_mult: 1
  }
  param {
    lr_mult: 2
    decay_mult: 0
  }
  convolution_param {
    num_output: 256
    pad: 1
    kernel_size: 3
    weight_filler {
      type: "xavier"
      std: 0.03
    }
    bias_filler {
      type: "constant"
      value: 0.2
    }
  }
}
layer {
  name: "inception_4c/relu_3x3"
  type: "ReLU"
  bottom: "inception_4c/3x3"
  top: "inception_4c/3x3"
}
layer {
  name: "inception_4c/5x5_reduce"
  type: "Convolution"
  bottom: "inception_4b/output"
  top: "inception_4c/5x5_reduce"
  param {
    lr_mult: 1
    decay_mult: 1
  }
  param {
    lr_mult: 2
    decay_mult: 0
  }
  convolution_param {
    num_output: 24
    kernel_size: 1
    weight_filler {
      type: "xavier"
      std: 0.2
    }
    bias_filler {
      type: "constant"
      value: 0.2
    }
  }
}
layer {
  name: "inception_4c/relu_5x5_reduce"
  type: "ReLU"
  bottom: "inception_4c/5x5_reduce"
  top: "inception_4c/5x5_reduce"
}
layer {
  name: "inception_4c/5x5"
  type: "Convolution"
  bottom: "inception_4c/5x5_reduce"
  top: "inception_4c/5x5"
  param {
    lr_mult: 1
    decay_mult: 1
  }
  param {
    lr_mult: 2
    decay_mult: 0
  }
  convolution_param {
    num_output: 64
    pad: 2
    kernel_size: 5
    weight_filler {
      type: "xavier"
      std: 0.03
    }
    bias_filler {
      type: "constant"
      value: 0.2
    }
  }
}
layer {
  name: "inception_4c/relu_5x5"
  type: "ReLU"
  bottom: "inception_4c/5x5"
  top: "inception_4c/5x5"
}
layer {
  name: "inception_4c/pool"
  type: "Pooling"
  bottom: "inception_4b/output"
  top: "inception_4c/pool"
  pooling_param {
    pool: MAX
    kernel_size: 3
    stride: 1
    pad: 1
  }
}
layer {
  name: "inception_4c/pool_proj"
  type: "Convolution"
  bottom: "inception_4c/pool"
  top: "inception_4c/pool_proj"
  param {
    lr_mult: 1
    decay_mult: 1
  }
  param {
    lr_mult: 2
    decay_mult: 0
  }
  convolution_param {
    num_output: 64
    kernel_size: 1
    weight_filler {
      type: "xavier"
      std: 0.1
    }
    bias_filler {
      type: "constant"
      value: 0.2
    }
  }
}
layer {
  name: "inception_4c/relu_pool_proj"
  type: "ReLU"
  bottom: "inception_4c/pool_proj"
  top: "inception_4c/pool_proj"
}
layer {
  name: "inception_4c/output"
  type: "Concat"
  bottom: "inception_4c/1x1"
  bottom: "inception_4c/3x3"
  bottom: "inception_4c/5x5"
  bottom: "inception_4c/pool_proj"
  top: "inception_4c/output"
}
layer {
  name: "inception_4d/1x1"
  type: "Convolution"
  bottom: "inception_4c/output"
  top: "inception_4d/1x1"
  param {
    lr_mult: 1
    decay_mult: 1
  }
  param {
    lr_mult: 2
    decay_mult: 0
  }
  convolution_param {
    num_output: 112
    kernel_size: 1
    weight_filler {
      type: "xavier"
      std: 0.03
    }
    bias_filler {
      type: "constant"
      value: 0.2
    }
  }
}
layer {
  name: "inception_4d/relu_1x1"
  type: "ReLU"
  bottom: "inception_4d/1x1"
  top: "inception_4d/1x1"
}
layer {
  name: "inception_4d/3x3_reduce"
  type: "Convolution"
  bottom: "inception_4c/output"
  top: "inception_4d/3x3_reduce"
  param {
    lr_mult: 1
    decay_mult: 1
  }
  param {
    lr_mult: 2
    decay_mult: 0
  }
  convolution_param {
    num_output: 144
    kernel_size: 1
    weight_filler {
      type: "xavier"
      std: 0.09
    }
    bias_filler {
      type: "constant"
      value: 0.2
    }
  }
}
layer {
  name: "inception_4d/relu_3x3_reduce"
  type: "ReLU"
  bottom: "inception_4d/3x3_reduce"
  top: "inception_4d/3x3_reduce"
}
layer {
  name: "inception_4d/3x3"
  type: "Convolution"
  bottom: "inception_4d/3x3_reduce"
  top: "inception_4d/3x3"
  param {
    lr_mult: 1
    decay_mult: 1
  }
  param {
    lr_mult: 2
    decay_mult: 0
  }
  convolution_param {
    num_output: 288
    pad: 1
    kernel_size: 3
    weight_filler {
      type: "xavier"
      std: 0.03
    }
    bias_filler {
      type: "constant"
      value: 0.2
    }
  }
}
layer {
  name: "inception_4d/relu_3x3"
  type: "ReLU"
  bottom: "inception_4d/3x3"
  top: "inception_4d/3x3"
}
layer {
  name: "inception_4d/5x5_reduce"
  type: "Convolution"
  bottom: "inception_4c/output"
  top: "inception_4d/5x5_reduce"
  param {
    lr_mult: 1
    decay_mult: 1
  }
  param {
    lr_mult: 2
    decay_mult: 0
  }
  convolution_param {
    num_output: 32
    kernel_size: 1
    weight_filler {
      type: "xavier"
      std: 0.2
    }
    bias_filler {
      type: "constant"
      value: 0.2
    }
  }
}
layer {
  name: "inception_4d/relu_5x5_reduce"
  type: "ReLU"
  bottom: "inception_4d/5x5_reduce"
  top: "inception_4d/5x5_reduce"
}
layer {
  name: "inception_4d/5x5"
  type: "Convolution"
  bottom: "inception_4d/5x5_reduce"
  top: "inception_4d/5x5"
  param {
    lr_mult: 1
    decay_mult: 1
  }
  param {
    lr_mult: 2
    decay_mult: 0
  }
  convolution_param {
    num_output: 64
    pad: 2
    kernel_size: 5
    weight_filler {
      type: "xavier"
      std: 0.03
    }
    bias_filler {
      type: "constant"
      value: 0.2
    }
  }
}
layer {
  name: "inception_4d/relu_5x5"
  type: "ReLU"
  bottom: "inception_4d/5x5"
  top: "inception_4d/5x5"
}
layer {
  name: "inception_4d/pool"
  type: "Pooling"
  bottom: "inception_4c/output"
  top: "inception_4d/pool"
  pooling_param {
    pool: MAX
    kernel_size: 3
    stride: 1
    pad: 1
  }
}
layer {
  name: "inception_4d/pool_proj"
  type: "Convolution"
  bottom: "inception_4d/pool"
  top: "inception_4d/pool_proj"
  param {
    lr_mult: 1
    decay_mult: 1
  }
  param {
    lr_mult: 2
    decay_mult: 0
  }
  convolution_param {
    num_output: 64
    kernel_size: 1
    weight_filler {
      type: "xavier"
      std: 0.1
    }
    bias_filler {
      type: "constant"
      value: 0.2
    }
  }
}
layer {
  name: "inception_4d/relu_pool_proj"
  type: "ReLU"
  bottom: "inception_4d/pool_proj"
  top: "inception_4d/pool_proj"
}
layer {
  name: "inception_4d/output"
  type: "Concat"
  bottom: "inception_4d/1x1"
  bottom: "inception_4d/3x3"
  bottom: "inception_4d/5x5"
  bottom: "inception_4d/pool_proj"
  top: "inception_4d/output"
}
layer {
  name: "loss2/ave_pool"
  type: "Pooling"
  bottom: "inception_4d/output"
  top: "loss2/ave_pool"
  pooling_param {
    pool: AVE
    kernel_size: 5
    stride: 3
  }
}
layer {
  name: "loss2/conv"
  type: "Convolution"
  bottom: "loss2/ave_pool"
  top: "loss2/conv"
  param {
    lr_mult: 1
    decay_mult: 1
  }
  param {
    lr_mult: 2
    decay_mult: 0
  }
  convolution_param {
    num_output: 128
    kernel_size: 1
    weight_filler {
      type: "xavier"
      std: 0.08
    }
    bias_filler {
      type: "constant"
      value: 0.2
    }
  }
}
layer {
  name: "loss2/relu_conv"
  type: "ReLU"
  bottom: "loss2/conv"
  top: "loss2/conv"
}
layer {
  name: "loss2/fc"
  type: "InnerProduct"
  bottom: "loss2/conv"
  top: "loss2/fc"
  param {
    lr_mult: 1
    decay_mult: 1
  }
  param {
    lr_mult: 2
    decay_mult: 0
  }
  inner_product_param {
    num_output: 1024
    weight_filler {
      type: "xavier"
      std: 0.02
    }
    bias_filler {
      type: "constant"
      value: 0.2
    }
  }
}
layer {
  name: "loss2/relu_fc"
  type: "ReLU"
  bottom: "loss2/fc"
  top: "loss2/fc"
}
layer {
  name: "loss2/drop_fc"
  type: "Dropout"
  bottom: "loss2/fc"
  top: "loss2/fc"
  dropout_param {
    dropout_ratio: 0.7
  }
}
layer {
  name: "loss2/classifier_plantvillage"
  type: "InnerProduct"
  bottom: "loss2/fc"
  top: "loss2/classifier_plantvillage"
  param {
    lr_mult: 1
    decay_mult: 1
  }
  param {
    lr_mult: 2
    decay_mult: 0
  }
  inner_product_param {
    num_output: 38
    weight_filler {
      type: "xavier"
      std: 0.0009765625
    }
    bias_filler {
      type: "constant"
      value: 0
    }
  }
}
layer {
  name: "inception_4e/1x1"
  type: "Convolution"
  bottom: "inception_4d/output"
  top: "inception_4e/1x1"
  param {
    lr_mult: 1
    decay_mult: 1
  }
  param {
    lr_mult: 2
    decay_mult: 0
  }
  convolution_param {
    num_output: 256
    kernel_size: 1
    weight_filler {
      type: "xavier"
      std: 0.03
    }
    bias_filler {
      type: "constant"
      value: 0.2
    }
  }
}
layer {
  name: "inception_4e/relu_1x1"
  type: "ReLU"
  bottom: "inception_4e/1x1"
  top: "inception_4e/1x1"
}
layer {
  name: "inception_4e/3x3_reduce"
  type: "Convolution"
  bottom: "inception_4d/output"
  top: "inception_4e/3x3_reduce"
  param {
    lr_mult: 1
    decay_mult: 1
  }
  param {
    lr_mult: 2
    decay_mult: 0
  }
  convolution_param {
    num_output: 160
    kernel_size: 1
    weight_filler {
      type: "xavier"
      std: 0.09
    }
    bias_filler {
      type: "constant"
      value: 0.2
    }
  }
}
layer {
  name: "inception_4e/relu_3x3_reduce"
  type: "ReLU"
  bottom: "inception_4e/3x3_reduce"
  top: "inception_4e/3x3_reduce"
}
layer {
  name: "inception_4e/3x3"
  type: "Convolution"
  bottom: "inception_4e/3x3_reduce"
  top: "inception_4e/3x3"
  param {
    lr_mult: 1
    decay_mult: 1
  }
  param {
    lr_mult: 2
    decay_mult: 0
  }
  convolution_param {
    num_output: 320
    pad: 1
    kernel_size: 3
    weight_filler {
      type: "xavier"
      std: 0.03
    }
    bias_filler {
      type: "constant"
      value: 0.2
    }
  }
}
layer {
  name: "inception_4e/relu_3x3"
  type: "ReLU"
  bottom: "inception_4e/3x3"
  top: "inception_4e/3x3"
}
layer {
  name: "inception_4e/5x5_reduce"
  type: "Convolution"
  bottom: "inception_4d/output"
  top: "inception_4e/5x5_reduce"
  param {
    lr_mult: 1
    decay_mult: 1
  }
  param {
    lr_mult: 2
    decay_mult: 0
  }
  convolution_param {
    num_output: 32
    kernel_size: 1
    weight_filler {
      type: "xavier"
      std: 0.2
    }
    bias_filler {
      type: "constant"
      value: 0.2
    }
  }
}
layer {
  name: "inception_4e/relu_5x5_reduce"
  type: "ReLU"
  bottom: "inception_4e/5x5_reduce"
  top: "inception_4e/5x5_reduce"
}
layer {
  name: "inception_4e/5x5"
  type: "Convolution"
  bottom: "inception_4e/5x5_reduce"
  top: "inception_4e/
I0403 13:48:18.995331 12082 layer_factory.hpp:77] Creating layer data
I0403 13:48:18.995966 12082 net.cpp:91] Creating Layer data
I0403 13:48:18.995998 12082 net.cpp:399] data -> data
I0403 13:48:18.996048 12082 net.cpp:399] data -> label
I0403 13:48:18.996085 12082 data_transformer.cpp:25] Loading mean file from: /home/mohanty/data/final_dataset/lmdb/segmented-20-80/mean.binaryproto
I0403 13:48:19.010493 12086 db_lmdb.cpp:38] Opened lmdb /home/mohanty/data/final_dataset/lmdb/segmented-20-80/test_db
I0403 13:48:19.012611 12082 data_layer.cpp:41] output data size: 24,3,224,224
I0403 13:48:19.039616 12082 net.cpp:141] Setting up data
I0403 13:48:19.039705 12082 net.cpp:148] Top shape: 24 3 224 224 (3612672)
I0403 13:48:19.039726 12082 net.cpp:148] Top shape: 24 (24)
I0403 13:48:19.039742 12082 net.cpp:156] Memory required for data: 14450784
I0403 13:48:19.039770 12082 layer_factory.hpp:77] Creating layer label_data_1_split
I0403 13:48:19.039796 12082 net.cpp:91] Creating Layer label_data_1_split
I0403 13:48:19.039814 12082 net.cpp:425] label_data_1_split <- label
I0403 13:48:19.039846 12082 net.cpp:399] label_data_1_split -> label_data_1_split_0
I0403 13:48:19.039875 12082 net.cpp:399] label_data_1_split -> label_data_1_split_1
I0403 13:48:19.039896 12082 net.cpp:399] label_data_1_split -> label_data_1_split_2
I0403 13:48:19.039917 12082 net.cpp:399] label_data_1_split -> label_data_1_split_3
I0403 13:48:19.039937 12082 net.cpp:399] label_data_1_split -> label_data_1_split_4
I0403 13:48:19.039958 12082 net.cpp:399] label_data_1_split -> label_data_1_split_5
I0403 13:48:19.039978 12082 net.cpp:399] label_data_1_split -> label_data_1_split_6
I0403 13:48:19.039997 12082 net.cpp:399] label_data_1_split -> label_data_1_split_7
I0403 13:48:19.040017 12082 net.cpp:399] label_data_1_split -> label_data_1_split_8
I0403 13:48:19.040037 12082 net.cpp:399] label_data_1_split -> label_data_1_split_9
I0403 13:48:19.040155 12082 net.cpp:141] Setting up label_data_1_split
I0403 13:48:19.040179 12082 net.cpp:148] Top shape: 24 (24)
I0403 13:48:19.040196 12082 net.cpp:148] Top shape: 24 (24)
I0403 13:48:19.040211 12082 net.cpp:148] Top shape: 24 (24)
I0403 13:48:19.040227 12082 net.cpp:148] Top shape: 24 (24)
I0403 13:48:19.040242 12082 net.cpp:148] Top shape: 24 (24)
I0403 13:48:19.040257 12082 net.cpp:148] Top shape: 24 (24)
I0403 13:48:19.040272 12082 net.cpp:148] Top shape: 24 (24)
I0403 13:48:19.040287 12082 net.cpp:148] Top shape: 24 (24)
I0403 13:48:19.040302 12082 net.cpp:148] Top shape: 24 (24)
I0403 13:48:19.040318 12082 net.cpp:148] Top shape: 24 (24)
I0403 13:48:19.040367 12082 net.cpp:156] Memory required for data: 14451744
I0403 13:48:19.040383 12082 layer_factory.hpp:77] Creating layer conv1/7x7_s2
I0403 13:48:19.040416 12082 net.cpp:91] Creating Layer conv1/7x7_s2
I0403 13:48:19.040433 12082 net.cpp:425] conv1/7x7_s2 <- data
I0403 13:48:19.040453 12082 net.cpp:399] conv1/7x7_s2 -> conv1/7x7_s2
I0403 13:48:19.179637 12082 net.cpp:141] Setting up conv1/7x7_s2
I0403 13:48:19.179716 12082 net.cpp:148] Top shape: 24 64 112 112 (19267584)
I0403 13:48:19.179733 12082 net.cpp:156] Memory required for data: 91522080
I0403 13:48:19.179764 12082 layer_factory.hpp:77] Creating layer conv1/relu_7x7
I0403 13:48:19.179791 12082 net.cpp:91] Creating Layer conv1/relu_7x7
I0403 13:48:19.179811 12082 net.cpp:425] conv1/relu_7x7 <- conv1/7x7_s2
I0403 13:48:19.179828 12082 net.cpp:386] conv1/relu_7x7 -> conv1/7x7_s2 (in-place)
I0403 13:48:19.180088 12082 net.cpp:141] Setting up conv1/relu_7x7
I0403 13:48:19.180115 12082 net.cpp:148] Top shape: 24 64 112 112 (19267584)
I0403 13:48:19.180131 12082 net.cpp:156] Memory required for data: 168592416
I0403 13:48:19.180146 12082 layer_factory.hpp:77] Creating layer pool1/3x3_s2
I0403 13:48:19.180171 12082 net.cpp:91] Creating Layer pool1/3x3_s2
I0403 13:48:19.180188 12082 net.cpp:425] pool1/3x3_s2 <- conv1/7x7_s2
I0403 13:48:19.180207 12082 net.cpp:399] pool1/3x3_s2 -> pool1/3x3_s2
I0403 13:48:19.180281 12082 net.cpp:141] Setting up pool1/3x3_s2
I0403 13:48:19.180306 12082 net.cpp:148] Top shape: 24 64 56 56 (4816896)
I0403 13:48:19.180321 12082 net.cpp:156] Memory required for data: 187860000
I0403 13:48:19.180336 12082 layer_factory.hpp:77] Creating layer pool1/norm1
I0403 13:48:19.180362 12082 net.cpp:91] Creating Layer pool1/norm1
I0403 13:48:19.180379 12082 net.cpp:425] pool1/norm1 <- pool1/3x3_s2
I0403 13:48:19.180397 12082 net.cpp:399] pool1/norm1 -> pool1/norm1
I0403 13:48:19.180690 12082 net.cpp:141] Setting up pool1/norm1
I0403 13:48:19.180717 12082 net.cpp:148] Top shape: 24 64 56 56 (4816896)
I0403 13:48:19.180734 12082 net.cpp:156] Memory required for data: 207127584
I0403 13:48:19.180749 12082 layer_factory.hpp:77] Creating layer conv2/3x3_reduce
I0403 13:48:19.180774 12082 net.cpp:91] Creating Layer conv2/3x3_reduce
I0403 13:48:19.180790 12082 net.cpp:425] conv2/3x3_reduce <- pool1/norm1
I0403 13:48:19.180809 12082 net.cpp:399] conv2/3x3_reduce -> conv2/3x3_reduce
I0403 13:48:19.182186 12082 net.cpp:141] Setting up conv2/3x3_reduce
I0403 13:48:19.182216 12082 net.cpp:148] Top shape: 24 64 56 56 (4816896)
I0403 13:48:19.182232 12082 net.cpp:156] Memory required for data: 226395168
I0403 13:48:19.182253 12082 layer_factory.hpp:77] Creating layer conv2/relu_3x3_reduce
I0403 13:48:19.182276 12082 net.cpp:91] Creating Layer conv2/relu_3x3_reduce
I0403 13:48:19.182294 12082 net.cpp:425] conv2/relu_3x3_reduce <- conv2/3x3_reduce
I0403 13:48:19.182312 12082 net.cpp:386] conv2/relu_3x3_reduce -> conv2/3x3_reduce (in-place)
I0403 13:48:19.182593 12082 net.cpp:141] Setting up conv2/relu_3x3_reduce
I0403 13:48:19.182621 12082 net.cpp:148] Top shape: 24 64 56 56 (4816896)
I0403 13:48:19.182637 12082 net.cpp:156] Memory required for data: 245662752
I0403 13:48:19.182652 12082 layer_factory.hpp:77] Creating layer conv2/3x3
I0403 13:48:19.182678 12082 net.cpp:91] Creating Layer conv2/3x3
I0403 13:48:19.182696 12082 net.cpp:425] conv2/3x3 <- conv2/3x3_reduce
I0403 13:48:19.182715 12082 net.cpp:399] conv2/3x3 -> conv2/3x3
I0403 13:48:19.185082 12082 net.cpp:141] Setting up conv2/3x3
I0403 13:48:19.185113 12082 net.cpp:148] Top shape: 24 192 56 56 (14450688)
I0403 13:48:19.185129 12082 net.cpp:156] Memory required for data: 303465504
I0403 13:48:19.185150 12082 layer_factory.hpp:77] Creating layer conv2/relu_3x3
I0403 13:48:19.185171 12082 net.cpp:91] Creating Layer conv2/relu_3x3
I0403 13:48:19.185189 12082 net.cpp:425] conv2/relu_3x3 <- conv2/3x3
I0403 13:48:19.185206 12082 net.cpp:386] conv2/relu_3x3 -> conv2/3x3 (in-place)
I0403 13:48:19.185389 12082 net.cpp:141] Setting up conv2/relu_3x3
I0403 13:48:19.185413 12082 net.cpp:148] Top shape: 24 192 56 56 (14450688)
I0403 13:48:19.185461 12082 net.cpp:156] Memory required for data: 361268256
I0403 13:48:19.185478 12082 layer_factory.hpp:77] Creating layer conv2/norm2
I0403 13:48:19.185498 12082 net.cpp:91] Creating Layer conv2/norm2
I0403 13:48:19.185520 12082 net.cpp:425] conv2/norm2 <- conv2/3x3
I0403 13:48:19.185539 12082 net.cpp:399] conv2/norm2 -> conv2/norm2
I0403 13:48:19.185855 12082 net.cpp:141] Setting up conv2/norm2
I0403 13:48:19.185883 12082 net.cpp:148] Top shape: 24 192 56 56 (14450688)
I0403 13:48:19.185899 12082 net.cpp:156] Memory required for data: 419071008
I0403 13:48:19.185914 12082 layer_factory.hpp:77] Creating layer pool2/3x3_s2
I0403 13:48:19.185935 12082 net.cpp:91] Creating Layer pool2/3x3_s2
I0403 13:48:19.185951 12082 net.cpp:425] pool2/3x3_s2 <- conv2/norm2
I0403 13:48:19.185968 12082 net.cpp:399] pool2/3x3_s2 -> pool2/3x3_s2
I0403 13:48:19.186023 12082 net.cpp:141] Setting up pool2/3x3_s2
I0403 13:48:19.186046 12082 net.cpp:148] Top shape: 24 192 28 28 (3612672)
I0403 13:48:19.186061 12082 net.cpp:156] Memory required for data: 433521696
I0403 13:48:19.186075 12082 layer_factory.hpp:77] Creating layer pool2/3x3_s2_pool2/3x3_s2_0_split
I0403 13:48:19.186092 12082 net.cpp:91] Creating Layer pool2/3x3_s2_pool2/3x3_s2_0_split
I0403 13:48:19.186108 12082 net.cpp:425] pool2/3x3_s2_pool2/3x3_s2_0_split <- pool2/3x3_s2
I0403 13:48:19.186127 12082 net.cpp:399] pool2/3x3_s2_pool2/3x3_s2_0_split -> pool2/3x3_s2_pool2/3x3_s2_0_split_0
I0403 13:48:19.186148 12082 net.cpp:399] pool2/3x3_s2_pool2/3x3_s2_0_split -> pool2/3x3_s2_pool2/3x3_s2_0_split_1
I0403 13:48:19.186169 12082 net.cpp:399] pool2/3x3_s2_pool2/3x3_s2_0_split -> pool2/3x3_s2_pool2/3x3_s2_0_split_2
I0403 13:48:19.186189 12082 net.cpp:399] pool2/3x3_s2_pool2/3x3_s2_0_split -> pool2/3x3_s2_pool2/3x3_s2_0_split_3
I0403 13:48:19.186264 12082 net.cpp:141] Setting up pool2/3x3_s2_pool2/3x3_s2_0_split
I0403 13:48:19.186290 12082 net.cpp:148] Top shape: 24 192 28 28 (3612672)
I0403 13:48:19.186306 12082 net.cpp:148] Top shape: 24 192 28 28 (3612672)
I0403 13:48:19.186322 12082 net.cpp:148] Top shape: 24 192 28 28 (3612672)
I0403 13:48:19.186338 12082 net.cpp:148] Top shape: 24 192 28 28 (3612672)
I0403 13:48:19.186352 12082 net.cpp:156] Memory required for data: 491324448
I0403 13:48:19.186367 12082 layer_factory.hpp:77] Creating layer inception_3a/1x1
I0403 13:48:19.186389 12082 net.cpp:91] Creating Layer inception_3a/1x1
I0403 13:48:19.186408 12082 net.cpp:425] inception_3a/1x1 <- pool2/3x3_s2_pool2/3x3_s2_0_split_0
I0403 13:48:19.186425 12082 net.cpp:399] inception_3a/1x1 -> inception_3a/1x1
I0403 13:48:19.188020 12082 net.cpp:141] Setting up inception_3a/1x1
I0403 13:48:19.188050 12082 net.cpp:148] Top shape: 24 64 28 28 (1204224)
I0403 13:48:19.188066 12082 net.cpp:156] Memory required for data: 496141344
I0403 13:48:19.188086 12082 layer_factory.hpp:77] Creating layer inception_3a/relu_1x1
I0403 13:48:19.188107 12082 net.cpp:91] Creating Layer inception_3a/relu_1x1
I0403 13:48:19.188122 12082 net.cpp:425] inception_3a/relu_1x1 <- inception_3a/1x1
I0403 13:48:19.188139 12082 net.cpp:386] inception_3a/relu_1x1 -> inception_3a/1x1 (in-place)
I0403 13:48:19.188323 12082 net.cpp:141] Setting up inception_3a/relu_1x1
I0403 13:48:19.188349 12082 net.cpp:148] Top shape: 24 64 28 28 (1204224)
I0403 13:48:19.188364 12082 net.cpp:156] Memory required for data: 500958240
I0403 13:48:19.188380 12082 layer_factory.hpp:77] Creating layer inception_3a/3x3_reduce
I0403 13:48:19.188402 12082 net.cpp:91] Creating Layer inception_3a/3x3_reduce
I0403 13:48:19.188419 12082 net.cpp:425] inception_3a/3x3_reduce <- pool2/3x3_s2_pool2/3x3_s2_0_split_1
I0403 13:48:19.188439 12082 net.cpp:399] inception_3a/3x3_reduce -> inception_3a/3x3_reduce
I0403 13:48:19.190178 12082 net.cpp:141] Setting up inception_3a/3x3_reduce
I0403 13:48:19.190208 12082 net.cpp:148] Top shape: 24 96 28 28 (1806336)
I0403 13:48:19.190224 12082 net.cpp:156] Memory required for data: 508183584
I0403 13:48:19.190245 12082 layer_factory.hpp:77] Creating layer inception_3a/relu_3x3_reduce
I0403 13:48:19.190284 12082 net.cpp:91] Creating Layer inception_3a/relu_3x3_reduce
I0403 13:48:19.190304 12082 net.cpp:425] inception_3a/relu_3x3_reduce <- inception_3a/3x3_reduce
I0403 13:48:19.190325 12082 net.cpp:386] inception_3a/relu_3x3_reduce -> inception_3a/3x3_reduce (in-place)
I0403 13:48:19.190515 12082 net.cpp:141] Setting up inception_3a/relu_3x3_reduce
I0403 13:48:19.190541 12082 net.cpp:148] Top shape: 24 96 28 28 (1806336)
I0403 13:48:19.190556 12082 net.cpp:156] Memory required for data: 515408928
I0403 13:48:19.190569 12082 layer_factory.hpp:77] Creating layer inception_3a/3x3
I0403 13:48:19.190593 12082 net.cpp:91] Creating Layer inception_3a/3x3
I0403 13:48:19.190610 12082 net.cpp:425] inception_3a/3x3 <- inception_3a/3x3_reduce
I0403 13:48:19.190632 12082 net.cpp:399] inception_3a/3x3 -> inception_3a/3x3
I0403 13:48:19.192314 12082 net.cpp:141] Setting up inception_3a/3x3
I0403 13:48:19.192345 12082 net.cpp:148] Top shape: 24 128 28 28 (2408448)
I0403 13:48:19.192361 12082 net.cpp:156] Memory required for data: 525042720
I0403 13:48:19.192379 12082 layer_factory.hpp:77] Creating layer inception_3a/relu_3x3
I0403 13:48:19.192399 12082 net.cpp:91] Creating Layer inception_3a/relu_3x3
I0403 13:48:19.192414 12082 net.cpp:425] inception_3a/relu_3x3 <- inception_3a/3x3
I0403 13:48:19.192431 12082 net.cpp:386] inception_3a/relu_3x3 -> inception_3a/3x3 (in-place)
I0403 13:48:19.192714 12082 net.cpp:141] Setting up inception_3a/relu_3x3
I0403 13:48:19.192744 12082 net.cpp:148] Top shape: 24 128 28 28 (2408448)
I0403 13:48:19.192759 12082 net.cpp:156] Memory required for data: 534676512
I0403 13:48:19.192775 12082 layer_factory.hpp:77] Creating layer inception_3a/5x5_reduce
I0403 13:48:19.192797 12082 net.cpp:91] Creating Layer inception_3a/5x5_reduce
I0403 13:48:19.192814 12082 net.cpp:425] inception_3a/5x5_reduce <- pool2/3x3_s2_pool2/3x3_s2_0_split_2
I0403 13:48:19.192834 12082 net.cpp:399] inception_3a/5x5_reduce -> inception_3a/5x5_reduce
I0403 13:48:19.193815 12082 net.cpp:141] Setting up inception_3a/5x5_reduce
I0403 13:48:19.193846 12082 net.cpp:148] Top shape: 24 16 28 28 (301056)
I0403 13:48:19.193862 12082 net.cpp:156] Memory required for data: 535880736
I0403 13:48:19.193881 12082 layer_factory.hpp:77] Creating layer inception_3a/relu_5x5_reduce
I0403 13:48:19.193899 12082 net.cpp:91] Creating Layer inception_3a/relu_5x5_reduce
I0403 13:48:19.193915 12082 net.cpp:425] inception_3a/relu_5x5_reduce <- inception_3a/5x5_reduce
I0403 13:48:19.193935 12082 net.cpp:386] inception_3a/relu_5x5_reduce -> inception_3a/5x5_reduce (in-place)
I0403 13:48:19.194238 12082 net.cpp:141] Setting up inception_3a/relu_5x5_reduce
I0403 13:48:19.194265 12082 net.cpp:148] Top shape: 24 16 28 28 (301056)
I0403 13:48:19.194280 12082 net.cpp:156] Memory required for data: 537084960
I0403 13:48:19.194298 12082 layer_factory.hpp:77] Creating layer inception_3a/5x5
I0403 13:48:19.194320 12082 net.cpp:91] Creating Layer inception_3a/5x5
I0403 13:48:19.194339 12082 net.cpp:425] inception_3a/5x5 <- inception_3a/5x5_reduce
I0403 13:48:19.194360 12082 net.cpp:399] inception_3a/5x5 -> inception_3a/5x5
I0403 13:48:19.195397 12082 net.cpp:141] Setting up inception_3a/5x5
I0403 13:48:19.195425 12082 net.cpp:148] Top shape: 24 32 28 28 (602112)
I0403 13:48:19.195444 12082 net.cpp:156] Memory required for data: 539493408
I0403 13:48:19.195463 12082 layer_factory.hpp:77] Creating layer inception_3a/relu_5x5
I0403 13:48:19.195482 12082 net.cpp:91] Creating Layer inception_3a/relu_5x5
I0403 13:48:19.195497 12082 net.cpp:425] inception_3a/relu_5x5 <- inception_3a/5x5
I0403 13:48:19.195519 12082 net.cpp:386] inception_3a/relu_5x5 -> inception_3a/5x5 (in-place)
I0403 13:48:19.195694 12082 net.cpp:141] Setting up inception_3a/relu_5x5
I0403 13:48:19.195722 12082 net.cpp:148] Top shape: 24 32 28 28 (602112)
I0403 13:48:19.195737 12082 net.cpp:156] Memory required for data: 541901856
I0403 13:48:19.195752 12082 layer_factory.hpp:77] Creating layer inception_3a/pool
I0403 13:48:19.195770 12082 net.cpp:91] Creating Layer inception_3a/pool
I0403 13:48:19.195801 12082 net.cpp:425] inception_3a/pool <- pool2/3x3_s2_pool2/3x3_s2_0_split_3
I0403 13:48:19.195822 12082 net.cpp:399] inception_3a/pool -> inception_3a/pool
I0403 13:48:19.195884 12082 net.cpp:141] Setting up inception_3a/pool
I0403 13:48:19.195910 12082 net.cpp:148] Top shape: 24 192 28 28 (3612672)
I0403 13:48:19.195926 12082 net.cpp:156] Memory required for data: 556352544
I0403 13:48:19.195940 12082 layer_factory.hpp:77] Creating layer inception_3a/pool_proj
I0403 13:48:19.195960 12082 net.cpp:91] Creating Layer inception_3a/pool_proj
I0403 13:48:19.195977 12082 net.cpp:425] inception_3a/pool_proj <- inception_3a/pool
I0403 13:48:19.195998 12082 net.cpp:399] inception_3a/pool_proj -> inception_3a/pool_proj
I0403 13:48:19.196987 12082 net.cpp:141] Setting up inception_3a/pool_proj
I0403 13:48:19.197016 12082 net.cpp:148] Top shape: 24 32 28 28 (602112)
I0403 13:48:19.197032 12082 net.cpp:156] Memory required for data: 558760992
I0403 13:48:19.197057 12082 layer_factory.hpp:77] Creating layer inception_3a/relu_pool_proj
I0403 13:48:19.197077 12082 net.cpp:91] Creating Layer inception_3a/relu_pool_proj
I0403 13:48:19.197093 12082 net.cpp:425] inception_3a/relu_pool_proj <- inception_3a/pool_proj
I0403 13:48:19.197113 12082 net.cpp:386] inception_3a/relu_pool_proj -> inception_3a/pool_proj (in-place)
I0403 13:48:19.197391 12082 net.cpp:141] Setting up inception_3a/relu_pool_proj
I0403 13:48:19.197420 12082 net.cpp:148] Top shape: 24 32 28 28 (602112)
I0403 13:48:19.197435 12082 net.cpp:156] Memory required for data: 561169440
I0403 13:48:19.197450 12082 layer_factory.hpp:77] Creating layer inception_3a/output
I0403 13:48:19.197468 12082 net.cpp:91] Creating Layer inception_3a/output
I0403 13:48:19.197484 12082 net.cpp:425] inception_3a/output <- inception_3a/1x1
I0403 13:48:19.197500 12082 net.cpp:425] inception_3a/output <- inception_3a/3x3
I0403 13:48:19.197521 12082 net.cpp:425] inception_3a/output <- inception_3a/5x5
I0403 13:48:19.197538 12082 net.cpp:425] inception_3a/output <- inception_3a/pool_proj
I0403 13:48:19.197556 12082 net.cpp:399] inception_3a/output -> inception_3a/output
I0403 13:48:19.197603 12082 net.cpp:141] Setting up inception_3a/output
I0403 13:48:19.197626 12082 net.cpp:148] Top shape: 24 256 28 28 (4816896)
I0403 13:48:19.197641 12082 net.cpp:156] Memory required for data: 580437024
I0403 13:48:19.197655 12082 layer_factory.hpp:77] Creating layer inception_3a/output_inception_3a/output_0_split
I0403 13:48:19.197674 12082 net.cpp:91] Creating Layer inception_3a/output_inception_3a/output_0_split
I0403 13:48:19.197690 12082 net.cpp:425] inception_3a/output_inception_3a/output_0_split <- inception_3a/output
I0403 13:48:19.197708 12082 net.cpp:399] inception_3a/output_inception_3a/output_0_split -> inception_3a/output_inception_3a/output_0_split_0
I0403 13:48:19.197728 12082 net.cpp:399] inception_3a/output_inception_3a/output_0_split -> inception_3a/output_inception_3a/output_0_split_1
I0403 13:48:19.197752 12082 net.cpp:399] inception_3a/output_inception_3a/output_0_split -> inception_3a/output_inception_3a/output_0_split_2
I0403 13:48:19.197774 12082 net.cpp:399] inception_3a/output_inception_3a/output_0_split -> inception_3a/output_inception_3a/output_0_split_3
I0403 13:48:19.197850 12082 net.cpp:141] Setting up inception_3a/output_inception_3a/output_0_split
I0403 13:48:19.197873 12082 net.cpp:148] Top shape: 24 256 28 28 (4816896)
I0403 13:48:19.197890 12082 net.cpp:148] Top shape: 24 256 28 28 (4816896)
I0403 13:48:19.197906 12082 net.cpp:148] Top shape: 24 256 28 28 (4816896)
I0403 13:48:19.197921 12082 net.cpp:148] Top shape: 24 256 28 28 (4816896)
I0403 13:48:19.197935 12082 net.cpp:156] Memory required for data: 657507360
I0403 13:48:19.197949 12082 layer_factory.hpp:77] Creating layer inception_3b/1x1
I0403 13:48:19.197973 12082 net.cpp:91] Creating Layer inception_3b/1x1
I0403 13:48:19.197990 12082 net.cpp:425] inception_3b/1x1 <- inception_3a/output_inception_3a/output_0_split_0
I0403 13:48:19.198009 12082 net.cpp:399] inception_3b/1x1 -> inception_3b/1x1
I0403 13:48:19.199169 12082 net.cpp:141] Setting up inception_3b/1x1
I0403 13:48:19.199209 12082 net.cpp:148] Top shape: 24 128 28 28 (2408448)
I0403 13:48:19.199225 12082 net.cpp:156] Memory required for data: 667141152
I0403 13:48:19.199244 12082 layer_factory.hpp:77] Creating layer inception_3b/relu_1x1
I0403 13:48:19.199265 12082 net.cpp:91] Creating Layer inception_3b/relu_1x1
I0403 13:48:19.199282 12082 net.cpp:425] inception_3b/relu_1x1 <- inception_3b/1x1
I0403 13:48:19.199301 12082 net.cpp:386] inception_3b/relu_1x1 -> inception_3b/1x1 (in-place)
I0403 13:48:19.199484 12082 net.cpp:141] Setting up inception_3b/relu_1x1
I0403 13:48:19.199517 12082 net.cpp:148] Top shape: 24 128 28 28 (2408448)
I0403 13:48:19.199533 12082 net.cpp:156] Memory required for data: 676774944
I0403 13:48:19.199548 12082 layer_factory.hpp:77] Creating layer inception_3b/3x3_reduce
I0403 13:48:19.199570 12082 net.cpp:91] Creating Layer inception_3b/3x3_reduce
I0403 13:48:19.199589 12082 net.cpp:425] inception_3b/3x3_reduce <- inception_3a/output_inception_3a/output_0_split_1
I0403 13:48:19.199607 12082 net.cpp:399] inception_3b/3x3_reduce -> inception_3b/3x3_reduce
I0403 13:48:19.200774 12082 net.cpp:141] Setting up inception_3b/3x3_reduce
I0403 13:48:19.200803 12082 net.cpp:148] Top shape: 24 128 28 28 (2408448)
I0403 13:48:19.200819 12082 net.cpp:156] Memory required for data: 686408736
I0403 13:48:19.200836 12082 layer_factory.hpp:77] Creating layer inception_3b/relu_3x3_reduce
I0403 13:48:19.200856 12082 net.cpp:91] Creating Layer inception_3b/relu_3x3_reduce
I0403 13:48:19.200875 12082 net.cpp:425] inception_3b/relu_3x3_reduce <- inception_3b/3x3_reduce
I0403 13:48:19.200891 12082 net.cpp:386] inception_3b/relu_3x3_reduce -> inception_3b/3x3_reduce (in-place)
I0403 13:48:19.201067 12082 net.cpp:141] Setting up inception_3b/relu_3x3_reduce
I0403 13:48:19.201095 12082 net.cpp:148] Top shape: 24 128 28 28 (2408448)
I0403 13:48:19.201110 12082 net.cpp:156] Memory required for data: 696042528
I0403 13:48:19.201125 12082 layer_factory.hpp:77] Creating layer inception_3b/3x3
I0403 13:48:19.201150 12082 net.cpp:91] Creating Layer inception_3b/3x3
I0403 13:48:19.201169 12082 net.cpp:425] inception_3b/3x3 <- inception_3b/3x3_reduce
I0403 13:48:19.201189 12082 net.cpp:399] inception_3b/3x3 -> inception_3b/3x3
I0403 13:48:19.204180 12082 net.cpp:141] Setting up inception_3b/3x3
I0403 13:48:19.204210 12082 net.cpp:148] Top shape: 24 192 28 28 (3612672)
I0403 13:48:19.204229 12082 net.cpp:156] Memory required for data: 710493216
I0403 13:48:19.204247 12082 layer_factory.hpp:77] Creating layer inception_3b/relu_3x3
I0403 13:48:19.204265 12082 net.cpp:91] Creating Layer inception_3b/relu_3x3
I0403 13:48:19.204282 12082 net.cpp:425] inception_3b/relu_3x3 <- inception_3b/3x3
I0403 13:48:19.204301 12082 net.cpp:386] inception_3b/relu_3x3 -> inception_3b/3x3 (in-place)
I0403 13:48:19.204604 12082 net.cpp:141] Setting up inception_3b/relu_3x3
I0403 13:48:19.204633 12082 net.cpp:148] Top shape: 24 192 28 28 (3612672)
I0403 13:48:19.204649 12082 net.cpp:156] Memory required for data: 724943904
I0403 13:48:19.204664 12082 layer_factory.hpp:77] Creating layer inception_3b/5x5_reduce
I0403 13:48:19.204687 12082 net.cpp:91] Creating Layer inception_3b/5x5_reduce
I0403 13:48:19.204705 12082 net.cpp:425] inception_3b/5x5_reduce <- inception_3a/output_inception_3a/output_0_split_2
I0403 13:48:19.204725 12082 net.cpp:399] inception_3b/5x5_reduce -> inception_3b/5x5_reduce
I0403 13:48:19.205745 12082 net.cpp:141] Setting up inception_3b/5x5_reduce
I0403 13:48:19.205776 12082 net.cpp:148] Top shape: 24 32 28 28 (602112)
I0403 13:48:19.205793 12082 net.cpp:156] Memory required for data: 727352352
I0403 13:48:19.205811 12082 layer_factory.hpp:77] Creating layer inception_3b/relu_5x5_reduce
I0403 13:48:19.205831 12082 net.cpp:91] Creating Layer inception_3b/relu_5x5_reduce
I0403 13:48:19.205850 12082 net.cpp:425] inception_3b/relu_5x5_reduce <- inception_3b/5x5_reduce
I0403 13:48:19.205868 12082 net.cpp:386] inception_3b/relu_5x5_reduce -> inception_3b/5x5_reduce (in-place)
I0403 13:48:19.206066 12082 net.cpp:141] Setting up inception_3b/relu_5x5_reduce
I0403 13:48:19.206094 12082 net.cpp:148] Top shape: 24 32 28 28 (602112)
I0403 13:48:19.206110 12082 net.cpp:156] Memory required for data: 729760800
I0403 13:48:19.206125 12082 layer_factory.hpp:77] Creating layer inception_3b/5x5
I0403 13:48:19.206146 12082 net.cpp:91] Creating Layer inception_3b/5x5
I0403 13:48:19.206163 12082 net.cpp:425] inception_3b/5x5 <- inception_3b/5x5_reduce
I0403 13:48:19.206184 12082 net.cpp:399] inception_3b/5x5 -> inception_3b/5x5
I0403 13:48:19.208214 12082 net.cpp:141] Setting up inception_3b/5x5
I0403 13:48:19.208242 12082 net.cpp:148] Top shape: 24 96 28 28 (1806336)
I0403 13:48:19.208258 12082 net.cpp:156] Memory required for data: 736986144
I0403 13:48:19.208276 12082 layer_factory.hpp:77] Creating layer inception_3b/relu_5x5
I0403 13:48:19.208299 12082 net.cpp:91] Creating Layer inception_3b/relu_5x5
I0403 13:48:19.208317 12082 net.cpp:425] inception_3b/relu_5x5 <- inception_3b/5x5
I0403 13:48:19.208334 12082 net.cpp:386] inception_3b/relu_5x5 -> inception_3b/5x5 (in-place)
I0403 13:48:19.208537 12082 net.cpp:141] Setting up inception_3b/relu_5x5
I0403 13:48:19.208564 12082 net.cpp:148] Top shape: 24 96 28 28 (1806336)
I0403 13:48:19.208577 12082 net.cpp:156] Memory required for data: 744211488
I0403 13:48:19.208593 12082 layer_factory.hpp:77] Creating layer inception_3b/pool
I0403 13:48:19.208611 12082 net.cpp:91] Creating Layer inception_3b/pool
I0403 13:48:19.208629 12082 net.cpp:425] inception_3b/pool <- inception_3a/output_inception_3a/output_0_split_3
I0403 13:48:19.208647 12082 net.cpp:399] inception_3b/pool -> inception_3b/pool
I0403 13:48:19.208704 12082 net.cpp:141] Setting up inception_3b/pool
I0403 13:48:19.208727 12082 net.cpp:148] Top shape: 24 256 28 28 (4816896)
I0403 13:48:19.208742 12082 net.cpp:156] Memory required for data: 763479072
I0403 13:48:19.208756 12082 layer_factory.hpp:77] Creating layer inception_3b/pool_proj
I0403 13:48:19.208780 12082 net.cpp:91] Creating Layer inception_3b/pool_proj
I0403 13:48:19.208797 12082 net.cpp:425] inception_3b/pool_proj <- inception_3b/pool
I0403 13:48:19.208818 12082 net.cpp:399] inception_3b/pool_proj -> inception_3b/pool_proj
I0403 13:48:19.209940 12082 net.cpp:141] Setting up inception_3b/pool_proj
I0403 13:48:19.209970 12082 net.cpp:148] Top shape: 24 64 28 28 (1204224)
I0403 13:48:19.209986 12082 net.cpp:156] Memory required for data: 768295968
I0403 13:48:19.210005 12082 layer_factory.hpp:77] Creating layer inception_3b/relu_pool_proj
I0403 13:48:19.210026 12082 net.cpp:91] Creating Layer inception_3b/relu_pool_proj
I0403 13:48:19.210042 12082 net.cpp:425] inception_3b/relu_pool_proj <- inception_3b/pool_proj
I0403 13:48:19.210062 12082 net.cpp:386] inception_3b/relu_pool_proj -> inception_3b/pool_proj (in-place)
I0403 13:48:19.210489 12082 net.cpp:141] Setting up inception_3b/relu_pool_proj
I0403 13:48:19.210521 12082 net.cpp:148] Top shape: 24 64 28 28 (1204224)
I0403 13:48:19.210537 12082 net.cpp:156] Memory required for data: 773112864
I0403 13:48:19.210553 12082 layer_factory.hpp:77] Creating layer inception_3b/output
I0403 13:48:19.210572 12082 net.cpp:91] Creating Layer inception_3b/output
I0403 13:48:19.210588 12082 net.cpp:425] inception_3b/output <- inception_3b/1x1
I0403 13:48:19.210605 12082 net.cpp:425] inception_3b/output <- inception_3b/3x3
I0403 13:48:19.210620 12082 net.cpp:425] inception_3b/output <- inception_3b/5x5
I0403 13:48:19.210636 12082 net.cpp:425] inception_3b/output <- inception_3b/pool_proj
I0403 13:48:19.210656 12082 net.cpp:399] inception_3b/output -> inception_3b/output
I0403 13:48:19.210702 12082 net.cpp:141] Setting up inception_3b/output
I0403 13:48:19.210726 12082 net.cpp:148] Top shape: 24 480 28 28 (9031680)
I0403 13:48:19.210743 12082 net.cpp:156] Memory required for data: 809239584
I0403 13:48:19.210758 12082 layer_factory.hpp:77] Creating layer pool3/3x3_s2
I0403 13:48:19.210777 12082 net.cpp:91] Creating Layer pool3/3x3_s2
I0403 13:48:19.210793 12082 net.cpp:425] pool3/3x3_s2 <- inception_3b/output
I0403 13:48:19.210827 12082 net.cpp:399] pool3/3x3_s2 -> pool3/3x3_s2
I0403 13:48:19.210891 12082 net.cpp:141] Setting up pool3/3x3_s2
I0403 13:48:19.210916 12082 net.cpp:148] Top shape: 24 480 14 14 (2257920)
I0403 13:48:19.210932 12082 net.cpp:156] Memory required for data: 818271264
I0403 13:48:19.210945 12082 layer_factory.hpp:77] Creating layer pool3/3x3_s2_pool3/3x3_s2_0_split
I0403 13:48:19.210963 12082 net.cpp:91] Creating Layer pool3/3x3_s2_pool3/3x3_s2_0_split
I0403 13:48:19.210978 12082 net.cpp:425] pool3/3x3_s2_pool3/3x3_s2_0_split <- pool3/3x3_s2
I0403 13:48:19.210999 12082 net.cpp:399] pool3/3x3_s2_pool3/3x3_s2_0_split -> pool3/3x3_s2_pool3/3x3_s2_0_split_0
I0403 13:48:19.211019 12082 net.cpp:399] pool3/3x3_s2_pool3/3x3_s2_0_split -> pool3/3x3_s2_pool3/3x3_s2_0_split_1
I0403 13:48:19.211040 12082 net.cpp:399] pool3/3x3_s2_pool3/3x3_s2_0_split -> pool3/3x3_s2_pool3/3x3_s2_0_split_2
I0403 13:48:19.211060 12082 net.cpp:399] pool3/3x3_s2_pool3/3x3_s2_0_split -> pool3/3x3_s2_pool3/3x3_s2_0_split_3
I0403 13:48:19.211140 12082 net.cpp:141] Setting up pool3/3x3_s2_pool3/3x3_s2_0_split
I0403 13:48:19.211168 12082 net.cpp:148] Top shape: 24 480 14 14 (2257920)
I0403 13:48:19.211185 12082 net.cpp:148] Top shape: 24 480 14 14 (2257920)
I0403 13:48:19.211201 12082 net.cpp:148] Top shape: 24 480 14 14 (2257920)
I0403 13:48:19.211216 12082 net.cpp:148] Top shape: 24 480 14 14 (2257920)
I0403 13:48:19.211231 12082 net.cpp:156] Memory required for data: 854397984
I0403 13:48:19.211246 12082 layer_factory.hpp:77] Creating layer inception_4a/1x1
I0403 13:48:19.211269 12082 net.cpp:91] Creating Layer inception_4a/1x1
I0403 13:48:19.211287 12082 net.cpp:425] inception_4a/1x1 <- pool3/3x3_s2_pool3/3x3_s2_0_split_0
I0403 13:48:19.211309 12082 net.cpp:399] inception_4a/1x1 -> inception_4a/1x1
I0403 13:48:19.212980 12082 net.cpp:141] Setting up inception_4a/1x1
I0403 13:48:19.213011 12082 net.cpp:148] Top shape: 24 192 14 14 (903168)
I0403 13:48:19.213027 12082 net.cpp:156] Memory required for data: 858010656
I0403 13:48:19.213047 12082 layer_factory.hpp:77] Creating layer inception_4a/relu_1x1
I0403 13:48:19.213068 12082 net.cpp:91] Creating Layer inception_4a/relu_1x1
I0403 13:48:19.213085 12082 net.cpp:425] inception_4a/relu_1x1 <- inception_4a/1x1
I0403 13:48:19.213104 12082 net.cpp:386] inception_4a/relu_1x1 -> inception_4a/1x1 (in-place)
I0403 13:48:19.213289 12082 net.cpp:141] Setting up inception_4a/relu_1x1
I0403 13:48:19.213315 12082 net.cpp:148] Top shape: 24 192 14 14 (903168)
I0403 13:48:19.213330 12082 net.cpp:156] Memory required for data: 861623328
I0403 13:48:19.213346 12082 layer_factory.hpp:77] Creating layer inception_4a/3x3_reduce
I0403 13:48:19.213369 12082 net.cpp:91] Creating Layer inception_4a/3x3_reduce
I0403 13:48:19.213387 12082 net.cpp:425] inception_4a/3x3_reduce <- pool3/3x3_s2_pool3/3x3_s2_0_split_1
I0403 13:48:19.213409 12082 net.cpp:399] inception_4a/3x3_reduce -> inception_4a/3x3_reduce
I0403 13:48:19.214777 12082 net.cpp:141] Setting up inception_4a/3x3_reduce
I0403 13:48:19.214807 12082 net.cpp:148] Top shape: 24 96 14 14 (451584)
I0403 13:48:19.214823 12082 net.cpp:156] Memory required for data: 863429664
I0403 13:48:19.214849 12082 layer_factory.hpp:77] Creating layer inception_4a/relu_3x3_reduce
I0403 13:48:19.214870 12082 net.cpp:91] Creating Layer inception_4a/relu_3x3_reduce
I0403 13:48:19.214887 12082 net.cpp:425] inception_4a/relu_3x3_reduce <- inception_4a/3x3_reduce
I0403 13:48:19.214907 12082 net.cpp:386] inception_4a/relu_3x3_reduce -> inception_4a/3x3_reduce (in-place)
I0403 13:48:19.215097 12082 net.cpp:141] Setting up inception_4a/relu_3x3_reduce
I0403 13:48:19.215123 12082 net.cpp:148] Top shape: 24 96 14 14 (451584)
I0403 13:48:19.215139 12082 net.cpp:156] Memory required for data: 865236000
I0403 13:48:19.215154 12082 layer_factory.hpp:77] Creating layer inception_4a/3x3
I0403 13:48:19.215178 12082 net.cpp:91] Creating Layer inception_4a/3x3
I0403 13:48:19.215196 12082 net.cpp:425] inception_4a/3x3 <- inception_4a/3x3_reduce
I0403 13:48:19.215217 12082 net.cpp:399] inception_4a/3x3 -> inception_4a/3x3
I0403 13:48:19.218066 12082 net.cpp:141] Setting up inception_4a/3x3
I0403 13:48:19.218096 12082 net.cpp:148] Top shape: 24 208 14 14 (978432)
I0403 13:48:19.218112 12082 net.cpp:156] Memory required for data: 869149728
I0403 13:48:19.218132 12082 layer_factory.hpp:77] Creating layer inception_4a/relu_3x3
I0403 13:48:19.218152 12082 net.cpp:91] Creating Layer inception_4a/relu_3x3
I0403 13:48:19.218170 12082 net.cpp:425] inception_4a/relu_3x3 <- inception_4a/3x3
I0403 13:48:19.218189 12082 net.cpp:386] inception_4a/relu_3x3 -> inception_4a/3x3 (in-place)
I0403 13:48:19.218488 12082 net.cpp:141] Setting up inception_4a/relu_3x3
I0403 13:48:19.218519 12082 net.cpp:148] Top shape: 24 208 14 14 (978432)
I0403 13:48:19.218538 12082 net.cpp:156] Memory required for data: 873063456
I0403 13:48:19.218552 12082 layer_factory.hpp:77] Creating layer inception_4a/5x5_reduce
I0403 13:48:19.218576 12082 net.cpp:91] Creating Layer inception_4a/5x5_reduce
I0403 13:48:19.218595 12082 net.cpp:425] inception_4a/5x5_reduce <- pool3/3x3_s2_pool3/3x3_s2_0_split_2
I0403 13:48:19.218617 12082 net.cpp:399] inception_4a/5x5_reduce -> inception_4a/5x5_reduce
I0403 13:48:19.219712 12082 net.cpp:141] Setting up inception_4a/5x5_reduce
I0403 13:48:19.219740 12082 net.cpp:148] Top shape: 24 16 14 14 (75264)
I0403 13:48:19.219759 12082 net.cpp:156] Memory required for data: 873364512
I0403 13:48:19.219779 12082 layer_factory.hpp:77] Creating layer inception_4a/relu_5x5_reduce
I0403 13:48:19.219799 12082 net.cpp:91] Creating Layer inception_4a/relu_5x5_reduce
I0403 13:48:19.219815 12082 net.cpp:425] inception_4a/relu_5x5_reduce <- inception_4a/5x5_reduce
I0403 13:48:19.219832 12082 net.cpp:386] inception_4a/relu_5x5_reduce -> inception_4a/5x5_reduce (in-place)
I0403 13:48:19.220019 12082 net.cpp:141] Setting up inception_4a/relu_5x5_reduce
I0403 13:48:19.220047 12082 net.cpp:148] Top shape: 24 16 14 14 (75264)
I0403 13:48:19.220063 12082 net.cpp:156] Memory required for data: 873665568
I0403 13:48:19.220079 12082 layer_factory.hpp:77] Creating layer inception_4a/5x5
I0403 13:48:19.220103 12082 net.cpp:91] Creating Layer inception_4a/5x5
I0403 13:48:19.220120 12082 net.cpp:425] inception_4a/5x5 <- inception_4a/5x5_reduce
I0403 13:48:19.220140 12082 net.cpp:399] inception_4a/5x5 -> inception_4a/5x5
I0403 13:48:19.221284 12082 net.cpp:141] Setting up inception_4a/5x5
I0403 13:48:19.221315 12082 net.cpp:148] Top shape: 24 48 14 14 (225792)
I0403 13:48:19.221333 12082 net.cpp:156] Memory required for data: 874568736
I0403 13:48:19.221351 12082 layer_factory.hpp:77] Creating layer inception_4a/relu_5x5
I0403 13:48:19.221370 12082 net.cpp:91] Creating Layer inception_4a/relu_5x5
I0403 13:48:19.221386 12082 net.cpp:425] inception_4a/relu_5x5 <- inception_4a/5x5
I0403 13:48:19.221406 12082 net.cpp:386] inception_4a/relu_5x5 -> inception_4a/5x5 (in-place)
I0403 13:48:19.221597 12082 net.cpp:141] Setting up inception_4a/relu_5x5
I0403 13:48:19.221623 12082 net.cpp:148] Top shape: 24 48 14 14 (225792)
I0403 13:48:19.221639 12082 net.cpp:156] Memory required for data: 875471904
I0403 13:48:19.221654 12082 layer_factory.hpp:77] Creating layer inception_4a/pool
I0403 13:48:19.221675 12082 net.cpp:91] Creating Layer inception_4a/pool
I0403 13:48:19.221693 12082 net.cpp:425] inception_4a/pool <- pool3/3x3_s2_pool3/3x3_s2_0_split_3
I0403 13:48:19.221712 12082 net.cpp:399] inception_4a/pool -> inception_4a/pool
I0403 13:48:19.221777 12082 net.cpp:141] Setting up inception_4a/pool
I0403 13:48:19.221802 12082 net.cpp:148] Top shape: 24 480 14 14 (2257920)
I0403 13:48:19.221817 12082 net.cpp:156] Memory required for data: 884503584
I0403 13:48:19.221832 12082 layer_factory.hpp:77] Creating layer inception_4a/pool_proj
I0403 13:48:19.221855 12082 net.cpp:91] Creating Layer inception_4a/pool_proj
I0403 13:48:19.221873 12082 net.cpp:425] inception_4a/pool_proj <- inception_4a/pool
I0403 13:48:19.221895 12082 net.cpp:399] inception_4a/pool_proj -> inception_4a/pool_proj
I0403 13:48:19.223140 12082 net.cpp:141] Setting up inception_4a/pool_proj
I0403 13:48:19.223170 12082 net.cpp:148] Top shape: 24 64 14 14 (301056)
I0403 13:48:19.223201 12082 net.cpp:156] Memory required for data: 885707808
I0403 13:48:19.223222 12082 layer_factory.hpp:77] Creating layer inception_4a/relu_pool_proj
I0403 13:48:19.223240 12082 net.cpp:91] Creating Layer inception_4a/relu_pool_proj
I0403 13:48:19.223258 12082 net.cpp:425] inception_4a/relu_pool_proj <- inception_4a/pool_proj
I0403 13:48:19.223278 12082 net.cpp:386] inception_4a/relu_pool_proj -> inception_4a/pool_proj (in-place)
I0403 13:48:19.223587 12082 net.cpp:141] Setting up inception_4a/relu_pool_proj
I0403 13:48:19.223614 12082 net.cpp:148] Top shape: 24 64 14 14 (301056)
I0403 13:48:19.223630 12082 net.cpp:156] Memory required for data: 886912032
I0403 13:48:19.223645 12082 layer_factory.hpp:77] Creating layer inception_4a/output
I0403 13:48:19.223664 12082 net.cpp:91] Creating Layer inception_4a/output
I0403 13:48:19.223680 12082 net.cpp:425] inception_4a/output <- inception_4a/1x1
I0403 13:48:19.223697 12082 net.cpp:425] inception_4a/output <- inception_4a/3x3
I0403 13:48:19.223714 12082 net.cpp:425] inception_4a/output <- inception_4a/5x5
I0403 13:48:19.223731 12082 net.cpp:425] inception_4a/output <- inception_4a/pool_proj
I0403 13:48:19.223750 12082 net.cpp:399] inception_4a/output -> inception_4a/output
I0403 13:48:19.223796 12082 net.cpp:141] Setting up inception_4a/output
I0403 13:48:19.223822 12082 net.cpp:148] Top shape: 24 512 14 14 (2408448)
I0403 13:48:19.223839 12082 net.cpp:156] Memory required for data: 896545824
I0403 13:48:19.223855 12082 layer_factory.hpp:77] Creating layer inception_4a/output_inception_4a/output_0_split
I0403 13:48:19.223872 12082 net.cpp:91] Creating Layer inception_4a/output_inception_4a/output_0_split
I0403 13:48:19.223888 12082 net.cpp:425] inception_4a/output_inception_4a/output_0_split <- inception_4a/output
I0403 13:48:19.223907 12082 net.cpp:399] inception_4a/output_inception_4a/output_0_split -> inception_4a/output_inception_4a/output_0_split_0
I0403 13:48:19.223932 12082 net.cpp:399] inception_4a/output_inception_4a/output_0_split -> inception_4a/output_inception_4a/output_0_split_1
I0403 13:48:19.223954 12082 net.cpp:399] inception_4a/output_inception_4a/output_0_split -> inception_4a/output_inception_4a/output_0_split_2
I0403 13:48:19.223976 12082 net.cpp:399] inception_4a/output_inception_4a/output_0_split -> inception_4a/output_inception_4a/output_0_split_3
I0403 13:48:19.223999 12082 net.cpp:399] inception_4a/output_inception_4a/output_0_split -> inception_4a/output_inception_4a/output_0_split_4
I0403 13:48:19.224097 12082 net.cpp:141] Setting up inception_4a/output_inception_4a/output_0_split
I0403 13:48:19.224123 12082 net.cpp:148] Top shape: 24 512 14 14 (2408448)
I0403 13:48:19.224140 12082 net.cpp:148] Top shape: 24 512 14 14 (2408448)
I0403 13:48:19.224158 12082 net.cpp:148] Top shape: 24 512 14 14 (2408448)
I0403 13:48:19.224174 12082 net.cpp:148] Top shape: 24 512 14 14 (2408448)
I0403 13:48:19.224190 12082 net.cpp:148] Top shape: 24 512 14 14 (2408448)
I0403 13:48:19.224205 12082 net.cpp:156] Memory required for data: 944714784
I0403 13:48:19.224220 12082 layer_factory.hpp:77] Creating layer loss1/ave_pool
I0403 13:48:19.224238 12082 net.cpp:91] Creating Layer loss1/ave_pool
I0403 13:48:19.224254 12082 net.cpp:425] loss1/ave_pool <- inception_4a/output_inception_4a/output_0_split_0
I0403 13:48:19.224273 12082 net.cpp:399] loss1/ave_pool -> loss1/ave_pool
I0403 13:48:19.224493 12082 net.cpp:141] Setting up loss1/ave_pool
I0403 13:48:19.224531 12082 net.cpp:148] Top shape: 24 512 4 4 (196608)
I0403 13:48:19.224548 12082 net.cpp:156] Memory required for data: 945501216
I0403 13:48:19.224565 12082 layer_factory.hpp:77] Creating layer loss1/conv
I0403 13:48:19.224588 12082 net.cpp:91] Creating Layer loss1/conv
I0403 13:48:19.224606 12082 net.cpp:425] loss1/conv <- loss1/ave_pool
I0403 13:48:19.224628 12082 net.cpp:399] loss1/conv -> loss1/conv
I0403 13:48:19.226128 12082 net.cpp:141] Setting up loss1/conv
I0403 13:48:19.226158 12082 net.cpp:148] Top shape: 24 128 4 4 (49152)
I0403 13:48:19.226189 12082 net.cpp:156] Memory required for data: 945697824
I0403 13:48:19.226210 12082 layer_factory.hpp:77] Creating layer loss1/relu_conv
I0403 13:48:19.226235 12082 net.cpp:91] Creating Layer loss1/relu_conv
I0403 13:48:19.226253 12082 net.cpp:425] loss1/relu_conv <- loss1/conv
I0403 13:48:19.226271 12082 net.cpp:386] loss1/relu_conv -> loss1/conv (in-place)
I0403 13:48:19.226570 12082 net.cpp:141] Setting up loss1/relu_conv
I0403 13:48:19.226598 12082 net.cpp:148] Top shape: 24 128 4 4 (49152)
I0403 13:48:19.226614 12082 net.cpp:156] Memory required for data: 945894432
I0403 13:48:19.226629 12082 layer_factory.hpp:77] Creating layer loss1/fc
I0403 13:48:19.226657 12082 net.cpp:91] Creating Layer loss1/fc
I0403 13:48:19.226677 12082 net.cpp:425] loss1/fc <- loss1/conv
I0403 13:48:19.226696 12082 net.cpp:399] loss1/fc -> loss1/fc
I0403 13:48:19.245048 12082 net.cpp:141] Setting up loss1/fc
I0403 13:48:19.245098 12082 net.cpp:148] Top shape: 24 1024 (24576)
I0403 13:48:19.245115 12082 net.cpp:156] Memory required for data: 945992736
I0403 13:48:19.245134 12082 layer_factory.hpp:77] Creating layer loss1/relu_fc
I0403 13:48:19.245154 12082 net.cpp:91] Creating Layer loss1/relu_fc
I0403 13:48:19.245172 12082 net.cpp:425] loss1/relu_fc <- loss1/fc
I0403 13:48:19.245192 12082 net.cpp:386] loss1/relu_fc -> loss1/fc (in-place)
I0403 13:48:19.245407 12082 net.cpp:141] Setting up loss1/relu_fc
I0403 13:48:19.245432 12082 net.cpp:148] Top shape: 24 1024 (24576)
I0403 13:48:19.245447 12082 net.cpp:156] Memory required for data: 946091040
I0403 13:48:19.245462 12082 layer_factory.hpp:77] Creating layer loss1/drop_fc
I0403 13:48:19.245493 12082 net.cpp:91] Creating Layer loss1/drop_fc
I0403 13:48:19.245517 12082 net.cpp:425] loss1/drop_fc <- loss1/fc
I0403 13:48:19.245534 12082 net.cpp:386] loss1/drop_fc -> loss1/fc (in-place)
I0403 13:48:19.245587 12082 net.cpp:141] Setting up loss1/drop_fc
I0403 13:48:19.245615 12082 net.cpp:148] Top shape: 24 1024 (24576)
I0403 13:48:19.245630 12082 net.cpp:156] Memory required for data: 946189344
I0403 13:48:19.245646 12082 layer_factory.hpp:77] Creating layer loss1/classifier_plantvillage
I0403 13:48:19.245666 12082 net.cpp:91] Creating Layer loss1/classifier_plantvillage
I0403 13:48:19.245681 12082 net.cpp:425] loss1/classifier_plantvillage <- loss1/fc
I0403 13:48:19.245702 12082 net.cpp:399] loss1/classifier_plantvillage -> loss1/classifier_plantvillage
I0403 13:48:19.246657 12082 net.cpp:141] Setting up loss1/classifier_plantvillage
I0403 13:48:19.246685 12082 net.cpp:148] Top shape: 24 38 (912)
I0403 13:48:19.246701 12082 net.cpp:156] Memory required for data: 946192992
I0403 13:48:19.246719 12082 layer_factory.hpp:77] Creating layer loss1/classifier_plantvillage_loss1/classifier_plantvillage_0_split
I0403 13:48:19.246740 12082 net.cpp:91] Creating Layer loss1/classifier_plantvillage_loss1/classifier_plantvillage_0_split
I0403 13:48:19.246757 12082 net.cpp:425] loss1/classifier_plantvillage_loss1/classifier_plantvillage_0_split <- loss1/classifier_plantvillage
I0403 13:48:19.246775 12082 net.cpp:399] loss1/classifier_plantvillage_loss1/classifier_plantvillage_0_split -> loss1/classifier_plantvillage_loss1/classifier_plantvillage_0_split_0
I0403 13:48:19.246796 12082 net.cpp:399] loss1/classifier_plantvillage_loss1/classifier_plantvillage_0_split -> loss1/classifier_plantvillage_loss1/classifier_plantvillage_0_split_1
I0403 13:48:19.246817 12082 net.cpp:399] loss1/classifier_plantvillage_loss1/classifier_plantvillage_0_split -> loss1/classifier_plantvillage_loss1/classifier_plantvillage_0_split_2
I0403 13:48:19.246886 12082 net.cpp:141] Setting up loss1/classifier_plantvillage_loss1/classifier_plantvillage_0_split
I0403 13:48:19.246909 12082 net.cpp:148] Top shape: 24 38 (912)
I0403 13:48:19.246925 12082 net.cpp:148] Top shape: 24 38 (912)
I0403 13:48:19.246940 12082 net.cpp:148] Top shape: 24 38 (912)
I0403 13:48:19.246954 12082 net.cpp:156] Memory required for data: 946203936
I0403 13:48:19.246969 12082 layer_factory.hpp:77] Creating layer inception_4b/1x1
I0403 13:48:19.246990 12082 net.cpp:91] Creating Layer inception_4b/1x1
I0403 13:48:19.247035 12082 net.cpp:425] inception_4b/1x1 <- inception_4a/output_inception_4a/output_0_split_1
I0403 13:48:19.247058 12082 net.cpp:399] inception_4b/1x1 -> inception_4b/1x1
I0403 13:48:19.248797 12082 net.cpp:141] Setting up inception_4b/1x1
I0403 13:48:19.248826 12082 net.cpp:148] Top shape: 24 160 14 14 (752640)
I0403 13:48:19.248842 12082 net.cpp:156] Memory required for data: 949214496
I0403 13:48:19.248862 12082 layer_factory.hpp:77] Creating layer inception_4b/relu_1x1
I0403 13:48:19.248883 12082 net.cpp:91] Creating Layer inception_4b/relu_1x1
I0403 13:48:19.248899 12082 net.cpp:425] inception_4b/relu_1x1 <- inception_4b/1x1
I0403 13:48:19.248919 12082 net.cpp:386] inception_4b/relu_1x1 -> inception_4b/1x1 (in-place)
I0403 13:48:19.249104 12082 net.cpp:141] Setting up inception_4b/relu_1x1
I0403 13:48:19.249131 12082 net.cpp:148] Top shape: 24 160 14 14 (752640)
I0403 13:48:19.249146 12082 net.cpp:156] Memory required for data: 952225056
I0403 13:48:19.249162 12082 layer_factory.hpp:77] Creating layer inception_4b/3x3_reduce
I0403 13:48:19.249184 12082 net.cpp:91] Creating Layer inception_4b/3x3_reduce
I0403 13:48:19.249202 12082 net.cpp:425] inception_4b/3x3_reduce <- inception_4a/output_inception_4a/output_0_split_2
I0403 13:48:19.249222 12082 net.cpp:399] inception_4b/3x3_reduce -> inception_4b/3x3_reduce
I0403 13:48:19.250622 12082 net.cpp:141] Setting up inception_4b/3x3_reduce
I0403 13:48:19.250653 12082 net.cpp:148] Top shape: 24 112 14 14 (526848)
I0403 13:48:19.250671 12082 net.cpp:156] Memory required for data: 954332448
I0403 13:48:19.250689 12082 layer_factory.hpp:77] Creating layer inception_4b/relu_3x3_reduce
I0403 13:48:19.250708 12082 net.cpp:91] Creating Layer inception_4b/relu_3x3_reduce
I0403 13:48:19.250725 12082 net.cpp:425] inception_4b/relu_3x3_reduce <- inception_4b/3x3_reduce
I0403 13:48:19.250744 12082 net.cpp:386] inception_4b/relu_3x3_reduce -> inception_4b/3x3_reduce (in-place)
I0403 13:48:19.251036 12082 net.cpp:141] Setting up inception_4b/relu_3x3_reduce
I0403 13:48:19.251065 12082 net.cpp:148] Top shape: 24 112 14 14 (526848)
I0403 13:48:19.251081 12082 net.cpp:156] Memory required for data: 956439840
I0403 13:48:19.251097 12082 layer_factory.hpp:77] Creating layer inception_4b/3x3
I0403 13:48:19.251119 12082 net.cpp:91] Creating Layer inception_4b/3x3
I0403 13:48:19.251138 12082 net.cpp:425] inception_4b/3x3 <- inception_4b/3x3_reduce
I0403 13:48:19.251157 12082 net.cpp:399] inception_4b/3x3 -> inception_4b/3x3
I0403 13:48:19.254217 12082 net.cpp:141] Setting up inception_4b/3x3
I0403 13:48:19.254246 12082 net.cpp:148] Top shape: 24 224 14 14 (1053696)
I0403 13:48:19.254262 12082 net.cpp:156] Memory required for data: 960654624
I0403 13:48:19.254281 12082 layer_factory.hpp:77] Creating layer inception_4b/relu_3x3
I0403 13:48:19.254303 12082 net.cpp:91] Creating Layer inception_4b/relu_3x3
I0403 13:48:19.254322 12082 net.cpp:425] inception_4b/relu_3x3 <- inception_4b/3x3
I0403 13:48:19.254339 12082 net.cpp:386] inception_4b/relu_3x3 -> inception_4b/3x3 (in-place)
I0403 13:48:19.254536 12082 net.cpp:141] Setting up inception_4b/relu_3x3
I0403 13:48:19.254564 12082 net.cpp:148] Top shape: 24 224 14 14 (1053696)
I0403 13:48:19.254578 12082 net.cpp:156] Memory required for data: 964869408
I0403 13:48:19.254593 12082 layer_factory.hpp:77] Creating layer inception_4b/5x5_reduce
I0403 13:48:19.254618 12082 net.cpp:91] Creating Layer inception_4b/5x5_reduce
I0403 13:48:19.254637 12082 net.cpp:425] inception_4b/5x5_reduce <- inception_4a/output_inception_4a/output_0_split_3
I0403 13:48:19.254657 12082 net.cpp:399] inception_4b/5x5_reduce -> inception_4b/5x5_reduce
I0403 13:48:19.255774 12082 net.cpp:141] Setting up inception_4b/5x5_reduce
I0403 13:48:19.255803 12082 net.cpp:148] Top shape: 24 24 14 14 (112896)
I0403 13:48:19.255818 12082 net.cpp:156] Memory required for data: 965320992
I0403 13:48:19.255839 12082 layer_factory.hpp:77] Creating layer inception_4b/relu_5x5_reduce
I0403 13:48:19.255859 12082 net.cpp:91] Creating Layer inception_4b/relu_5x5_reduce
I0403 13:48:19.255892 12082 net.cpp:425] inception_4b/relu_5x5_reduce <- inception_4b/5x5_reduce
I0403 13:48:19.255910 12082 net.cpp:386] inception_4b/relu_5x5_reduce -> inception_4b/5x5_reduce (in-place)
I0403 13:48:19.256099 12082 net.cpp:141] Setting up inception_4b/relu_5x5_reduce
I0403 13:48:19.256125 12082 net.cpp:148] Top shape: 24 24 14 14 (112896)
I0403 13:48:19.256140 12082 net.cpp:156] Memory required for data: 965772576
I0403 13:48:19.256155 12082 layer_factory.hpp:77] Creating layer inception_4b/5x5
I0403 13:48:19.256178 12082 net.cpp:91] Creating Layer inception_4b/5x5
I0403 13:48:19.256197 12082 net.cpp:425] inception_4b/5x5 <- inception_4b/5x5_reduce
I0403 13:48:19.256218 12082 net.cpp:399] inception_4b/5x5 -> inception_4b/5x5
I0403 13:48:19.257555 12082 net.cpp:141] Setting up inception_4b/5x5
I0403 13:48:19.257585 12082 net.cpp:148] Top shape: 24 64 14 14 (301056)
I0403 13:48:19.257601 12082 net.cpp:156] Memory required for data: 966976800
I0403 13:48:19.257618 12082 layer_factory.hpp:77] Creating layer inception_4b/relu_5x5
I0403 13:48:19.257640 12082 net.cpp:91] Creating Layer inception_4b/relu_5x5
I0403 13:48:19.257658 12082 net.cpp:425] inception_4b/relu_5x5 <- inception_4b/5x5
I0403 13:48:19.257676 12082 net.cpp:386] inception_4b/relu_5x5 -> inception_4b/5x5 (in-place)
I0403 13:48:19.257969 12082 net.cpp:141] Setting up inception_4b/relu_5x5
I0403 13:48:19.257997 12082 net.cpp:148] Top shape: 24 64 14 14 (301056)
I0403 13:48:19.258015 12082 net.cpp:156] Memory required for data: 968181024
I0403 13:48:19.258030 12082 layer_factory.hpp:77] Creating layer inception_4b/pool
I0403 13:48:19.258050 12082 net.cpp:91] Creating Layer inception_4b/pool
I0403 13:48:19.258069 12082 net.cpp:425] inception_4b/pool <- inception_4a/output_inception_4a/output_0_split_4
I0403 13:48:19.258088 12082 net.cpp:399] inception_4b/pool -> inception_4b/pool
I0403 13:48:19.258158 12082 net.cpp:141] Setting up inception_4b/pool
I0403 13:48:19.258183 12082 net.cpp:148] Top shape: 24 512 14 14 (2408448)
I0403 13:48:19.258199 12082 net.cpp:156] Memory required for data: 977814816
I0403 13:48:19.258214 12082 layer_factory.hpp:77] Creating layer inception_4b/pool_proj
I0403 13:48:19.258237 12082 net.cpp:91] Creating Layer inception_4b/pool_proj
I0403 13:48:19.258255 12082 net.cpp:425] inception_4b/pool_proj <- inception_4b/pool
I0403 13:48:19.258277 12082 net.cpp:399] inception_4b/pool_proj -> inception_4b/pool_proj
I0403 13:48:19.259572 12082 net.cpp:141] Setting up inception_4b/pool_proj
I0403 13:48:19.259604 12082 net.cpp:148] Top shape: 24 64 14 14 (301056)
I0403 13:48:19.259621 12082 net.cpp:156] Memory required for data: 979019040
I0403 13:48:19.259640 12082 layer_factory.hpp:77] Creating layer inception_4b/relu_pool_proj
I0403 13:48:19.259660 12082 net.cpp:91] Creating Layer inception_4b/relu_pool_proj
I0403 13:48:19.259676 12082 net.cpp:425] inception_4b/relu_pool_proj <- inception_4b/pool_proj
I0403 13:48:19.259695 12082 net.cpp:386] inception_4b/relu_pool_proj -> inception_4b/pool_proj (in-place)
I0403 13:48:19.259888 12082 net.cpp:141] Setting up inception_4b/relu_pool_proj
I0403 13:48:19.259915 12082 net.cpp:148] Top shape: 24 64 14 14 (301056)
I0403 13:48:19.259930 12082 net.cpp:156] Memory required for data: 980223264
I0403 13:48:19.259945 12082 layer_factory.hpp:77] Creating layer inception_4b/output
I0403 13:48:19.259964 12082 net.cpp:91] Creating Layer inception_4b/output
I0403 13:48:19.259981 12082 net.cpp:425] inception_4b/output <- inception_4b/1x1
I0403 13:48:19.259999 12082 net.cpp:425] inception_4b/output <- inception_4b/3x3
I0403 13:48:19.260015 12082 net.cpp:425] inception_4b/output <- inception_4b/5x5
I0403 13:48:19.260031 12082 net.cpp:425] inception_4b/output <- inception_4b/pool_proj
I0403 13:48:19.260051 12082 net.cpp:399] inception_4b/output -> inception_4b/output
I0403 13:48:19.260100 12082 net.cpp:141] Setting up inception_4b/output
I0403 13:48:19.260124 12082 net.cpp:148] Top shape: 24 512 14 14 (2408448)
I0403 13:48:19.260140 12082 net.cpp:156] Memory required for data: 989857056
I0403 13:48:19.260171 12082 layer_factory.hpp:77] Creating layer inception_4b/output_inception_4b/output_0_split
I0403 13:48:19.260192 12082 net.cpp:91] Creating Layer inception_4b/output_inception_4b/output_0_split
I0403 13:48:19.260210 12082 net.cpp:425] inception_4b/output_inception_4b/output_0_split <- inception_4b/output
I0403 13:48:19.260228 12082 net.cpp:399] inception_4b/output_inception_4b/output_0_split -> inception_4b/output_inception_4b/output_0_split_0
I0403 13:48:19.260252 12082 net.cpp:399] inception_4b/output_inception_4b/output_0_split -> inception_4b/output_inception_4b/output_0_split_1
I0403 13:48:19.260275 12082 net.cpp:399] inception_4b/output_inception_4b/output_0_split -> inception_4b/output_inception_4b/output_0_split_2
I0403 13:48:19.260299 12082 net.cpp:399] inception_4b/output_inception_4b/output_0_split -> inception_4b/output_inception_4b/output_0_split_3
I0403 13:48:19.260385 12082 net.cpp:141] Setting up inception_4b/output_inception_4b/output_0_split
I0403 13:48:19.260411 12082 net.cpp:148] Top shape: 24 512 14 14 (2408448)
I0403 13:48:19.260427 12082 net.cpp:148] Top shape: 24 512 14 14 (2408448)
I0403 13:48:19.260444 12082 net.cpp:148] Top shape: 24 512 14 14 (2408448)
I0403 13:48:19.260459 12082 net.cpp:148] Top shape: 24 512 14 14 (2408448)
I0403 13:48:19.260474 12082 net.cpp:156] Memory required for data: 1028392224
I0403 13:48:19.260489 12082 layer_factory.hpp:77] Creating layer inception_4c/1x1
I0403 13:48:19.260516 12082 net.cpp:91] Creating Layer inception_4c/1x1
I0403 13:48:19.260536 12082 net.cpp:425] inception_4c/1x1 <- inception_4b/output_inception_4b/output_0_split_0
I0403 13:48:19.260560 12082 net.cpp:399] inception_4c/1x1 -> inception_4c/1x1
I0403 13:48:19.262089 12082 net.cpp:141] Setting up inception_4c/1x1
I0403 13:48:19.262118 12082 net.cpp:148] Top shape: 24 128 14 14 (602112)
I0403 13:48:19.262135 12082 net.cpp:156] Memory required for data: 1030800672
I0403 13:48:19.262154 12082 layer_factory.hpp:77] Creating layer inception_4c/relu_1x1
I0403 13:48:19.262173 12082 net.cpp:91] Creating Layer inception_4c/relu_1x1
I0403 13:48:19.262193 12082 net.cpp:425] inception_4c/relu_1x1 <- inception_4c/1x1
I0403 13:48:19.262212 12082 net.cpp:386] inception_4c/relu_1x1 -> inception_4c/1x1 (in-place)
I0403 13:48:19.262404 12082 net.cpp:141] Setting up inception_4c/relu_1x1
I0403 13:48:19.262430 12082 net.cpp:148] Top shape: 24 128 14 14 (602112)
I0403 13:48:19.262445 12082 net.cpp:156] Memory required for data: 1033209120
I0403 13:48:19.262461 12082 layer_factory.hpp:77] Creating layer inception_4c/3x3_reduce
I0403 13:48:19.262485 12082 net.cpp:91] Creating Layer inception_4c/3x3_reduce
I0403 13:48:19.262504 12082 net.cpp:425] inception_4c/3x3_reduce <- inception_4b/output_inception_4b/output_0_split_1
I0403 13:48:19.262531 12082 net.cpp:399] inception_4c/3x3_reduce -> inception_4c/3x3_reduce
I0403 13:48:19.264613 12082 net.cpp:141] Setting up inception_4c/3x3_reduce
I0403 13:48:19.264644 12082 net.cpp:148] Top shape: 24 128 14 14 (602112)
I0403 13:48:19.264662 12082 net.cpp:156] Memory required for data: 1035617568
I0403 13:48:19.264681 12082 layer_factory.hpp:77] Creating layer inception_4c/relu_3x3_reduce
I0403 13:48:19.264703 12082 net.cpp:91] Creating Layer inception_4c/relu_3x3_reduce
I0403 13:48:19.264722 12082 net.cpp:425] inception_4c/relu_3x3_reduce <- inception_4c/3x3_reduce
I0403 13:48:19.264742 12082 net.cpp:386] inception_4c/relu_3x3_reduce -> inception_4c/3x3_reduce (in-place)
I0403 13:48:19.265048 12082 net.cpp:141] Setting up inception_4c/relu_3x3_reduce
I0403 13:48:19.265075 12082 net.cpp:148] Top shape: 24 128 14 14 (602112)
I0403 13:48:19.265091 12082 net.cpp:156] Memory required for data: 1038026016
I0403 13:48:19.265107 12082 layer_factory.hpp:77] Creating layer inception_4c/3x3
I0403 13:48:19.265132 12082 net.cpp:91] Creating Layer inception_4c/3x3
I0403 13:48:19.265151 12082 net.cpp:425] inception_4c/3x3 <- inception_4c/3x3_reduce
I0403 13:48:19.265172 12082 net.cpp:399] inception_4c/3x3 -> inception_4c/3x3
I0403 13:48:19.268992 12082 net.cpp:141] Setting up inception_4c/3x3
I0403 13:48:19.269042 12082 net.cpp:148] Top shape: 24 256 14 14 (1204224)
I0403 13:48:19.269059 12082 net.cpp:156] Memory required for data: 1042842912
I0403 13:48:19.269094 12082 layer_factory.hpp:77] Creating layer inception_4c/relu_3x3
I0403 13:48:19.269116 12082 net.cpp:91] Creating Layer inception_4c/relu_3x3
I0403 13:48:19.269135 12082 net.cpp:425] inception_4c/relu_3x3 <- inception_4c/3x3
I0403 13:48:19.269153 12082 net.cpp:386] inception_4c/relu_3x3 -> inception_4c/3x3 (in-place)
I0403 13:48:19.269346 12082 net.cpp:141] Setting up inception_4c/relu_3x3
I0403 13:48:19.269376 12082 net.cpp:148] Top shape: 24 256 14 14 (1204224)
I0403 13:48:19.269392 12082 net.cpp:156] Memory required for data: 1047659808
I0403 13:48:19.269407 12082 layer_factory.hpp:77] Creating layer inception_4c/5x5_reduce
I0403 13:48:19.269431 12082 net.cpp:91] Creating Layer inception_4c/5x5_reduce
I0403 13:48:19.269450 12082 net.cpp:425] inception_4c/5x5_reduce <- inception_4b/output_inception_4b/output_0_split_2
I0403 13:48:19.269470 12082 net.cpp:399] inception_4c/5x5_reduce -> inception_4c/5x5_reduce
I0403 13:48:19.270632 12082 net.cpp:141] Setting up inception_4c/5x5_reduce
I0403 13:48:19.270660 12082 net.cpp:148] Top shape: 24 24 14 14 (112896)
I0403 13:48:19.270678 12082 net.cpp:156] Memory required for data: 1048111392
I0403 13:48:19.270696 12082 layer_factory.hpp:77] Creating layer inception_4c/relu_5x5_reduce
I0403 13:48:19.270719 12082 net.cpp:91] Creating Layer inception_4c/relu_5x5_reduce
I0403 13:48:19.270736 12082 net.cpp:425] inception_4c/relu_5x5_reduce <- inception_4c/5x5_reduce
I0403 13:48:19.270756 12082 net.cpp:386] inception_4c/relu_5x5_reduce -> inception_4c/5x5_reduce (in-place)
I0403 13:48:19.270957 12082 net.cpp:141] Setting up inception_4c/relu_5x5_reduce
I0403 13:48:19.270984 12082 net.cpp:148] Top shape: 24 24 14 14 (112896)
I0403 13:48:19.270999 12082 net.cpp:156] Memory required for data: 1048562976
I0403 13:48:19.271015 12082 layer_factory.hpp:77] Creating layer inception_4c/5x5
I0403 13:48:19.271039 12082 net.cpp:91] Creating Layer inception_4c/5x5
I0403 13:48:19.271057 12082 net.cpp:425] inception_4c/5x5 <- inception_4c/5x5_reduce
I0403 13:48:19.271080 12082 net.cpp:399] inception_4c/5x5 -> inception_4c/5x5
I0403 13:48:19.272403 12082 net.cpp:141] Setting up inception_4c/5x5
I0403 13:48:19.272433 12082 net.cpp:148] Top shape: 24 64 14 14 (301056)
I0403 13:48:19.272447 12082 net.cpp:156] Memory required for data: 1049767200
I0403 13:48:19.272466 12082 layer_factory.hpp:77] Creating layer inception_4c/relu_5x5
I0403 13:48:19.272485 12082 net.cpp:91] Creating Layer inception_4c/relu_5x5
I0403 13:48:19.272500 12082 net.cpp:425] inception_4c/relu_5x5 <- inception_4c/5x5
I0403 13:48:19.272526 12082 net.cpp:386] inception_4c/relu_5x5 -> inception_4c/5x5 (in-place)
I0403 13:48:19.272824 12082 net.cpp:141] Setting up inception_4c/relu_5x5
I0403 13:48:19.272850 12082 net.cpp:148] Top shape: 24 64 14 14 (301056)
I0403 13:48:19.272866 12082 net.cpp:156] Memory required for data: 1050971424
I0403 13:48:19.272881 12082 layer_factory.hpp:77] Creating layer inception_4c/pool
I0403 13:48:19.272899 12082 net.cpp:91] Creating Layer inception_4c/pool
I0403 13:48:19.272915 12082 net.cpp:425] inception_4c/pool <- inception_4b/output_inception_4b/output_0_split_3
I0403 13:48:19.272936 12082 net.cpp:399] inception_4c/pool -> inception_4c/pool
I0403 13:48:19.273003 12082 net.cpp:141] Setting up inception_4c/pool
I0403 13:48:19.273030 12082 net.cpp:148] Top shape: 24 512 14 14 (2408448)
I0403 13:48:19.273046 12082 net.cpp:156] Memory required for data: 1060605216
I0403 13:48:19.273061 12082 layer_factory.hpp:77] Creating layer inception_4c/pool_proj
I0403 13:48:19.273083 12082 net.cpp:91] Creating Layer inception_4c/pool_proj
I0403 13:48:19.273102 12082 net.cpp:425] inception_4c/pool_proj <- inception_4c/pool
I0403 13:48:19.273120 12082 net.cpp:399] inception_4c/pool_proj -> inception_4c/pool_proj
I0403 13:48:19.274427 12082 net.cpp:141] Setting up inception_4c/pool_proj
I0403 13:48:19.274461 12082 net.cpp:148] Top shape: 24 64 14 14 (301056)
I0403 13:48:19.274492 12082 net.cpp:156] Memory required for data: 1061809440
I0403 13:48:19.274523 12082 layer_factory.hpp:77] Creating layer inception_4c/relu_pool_proj
I0403 13:48:19.274546 12082 net.cpp:91] Creating Layer inception_4c/relu_pool_proj
I0403 13:48:19.274564 12082 net.cpp:425] inception_4c/relu_pool_proj <- inception_4c/pool_proj
I0403 13:48:19.274581 12082 net.cpp:386] inception_4c/relu_pool_proj -> inception_4c/pool_proj (in-place)
I0403 13:48:19.274780 12082 net.cpp:141] Setting up inception_4c/relu_pool_proj
I0403 13:48:19.274808 12082 net.cpp:148] Top shape: 24 64 14 14 (301056)
I0403 13:48:19.274826 12082 net.cpp:156] Memory required for data: 1063013664
I0403 13:48:19.274840 12082 layer_factory.hpp:77] Creating layer inception_4c/output
I0403 13:48:19.274858 12082 net.cpp:91] Creating Layer inception_4c/output
I0403 13:48:19.274874 12082 net.cpp:425] inception_4c/output <- inception_4c/1x1
I0403 13:48:19.274891 12082 net.cpp:425] inception_4c/output <- inception_4c/3x3
I0403 13:48:19.274909 12082 net.cpp:425] inception_4c/output <- inception_4c/5x5
I0403 13:48:19.274925 12082 net.cpp:425] inception_4c/output <- inception_4c/pool_proj
I0403 13:48:19.274946 12082 net.cpp:399] inception_4c/output -> inception_4c/output
I0403 13:48:19.274996 12082 net.cpp:141] Setting up inception_4c/output
I0403 13:48:19.275019 12082 net.cpp:148] Top shape: 24 512 14 14 (2408448)
I0403 13:48:19.275034 12082 net.cpp:156] Memory required for data: 1072647456
I0403 13:48:19.275049 12082 layer_factory.hpp:77] Creating layer inception_4c/output_inception_4c/output_0_split
I0403 13:48:19.275069 12082 net.cpp:91] Creating Layer inception_4c/output_inception_4c/output_0_split
I0403 13:48:19.275086 12082 net.cpp:425] inception_4c/output_inception_4c/output_0_split <- inception_4c/output
I0403 13:48:19.275105 12082 net.cpp:399] inception_4c/output_inception_4c/output_0_split -> inception_4c/output_inception_4c/output_0_split_0
I0403 13:48:19.275130 12082 net.cpp:399] inception_4c/output_inception_4c/output_0_split -> inception_4c/output_inception_4c/output_0_split_1
I0403 13:48:19.275151 12082 net.cpp:399] inception_4c/output_inception_4c/output_0_split -> inception_4c/output_inception_4c/output_0_split_2
I0403 13:48:19.275173 12082 net.cpp:399] inception_4c/output_inception_4c/output_0_split -> inception_4c/output_inception_4c/output_0_split_3
I0403 13:48:19.275264 12082 net.cpp:141] Setting up inception_4c/output_inception_4c/output_0_split
I0403 13:48:19.275288 12082 net.cpp:148] Top shape: 24 512 14 14 (2408448)
I0403 13:48:19.275306 12082 net.cpp:148] Top shape: 24 512 14 14 (2408448)
I0403 13:48:19.275322 12082 net.cpp:148] Top shape: 24 512 14 14 (2408448)
I0403 13:48:19.275339 12082 net.cpp:148] Top shape: 24 512 14 14 (2408448)
I0403 13:48:19.275354 12082 net.cpp:156] Memory required for data: 1111182624
I0403 13:48:19.275369 12082 layer_factory.hpp:77] Creating layer inception_4d/1x1
I0403 13:48:19.275393 12082 net.cpp:91] Creating Layer inception_4d/1x1
I0403 13:48:19.275410 12082 net.cpp:425] inception_4d/1x1 <- inception_4c/output_inception_4c/output_0_split_0
I0403 13:48:19.275432 12082 net.cpp:399] inception_4d/1x1 -> inception_4d/1x1
I0403 13:48:19.276926 12082 net.cpp:141] Setting up inception_4d/1x1
I0403 13:48:19.276955 12082 net.cpp:148] Top shape: 24 112 14 14 (526848)
I0403 13:48:19.276971 12082 net.cpp:156] Memory required for data: 1113290016
I0403 13:48:19.276989 12082 layer_factory.hpp:77] Creating layer inception_4d/relu_1x1
I0403 13:48:19.277011 12082 net.cpp:91] Creating Layer inception_4d/relu_1x1
I0403 13:48:19.277029 12082 net.cpp:425] inception_4d/relu_1x1 <- inception_4d/1x1
I0403 13:48:19.277048 12082 net.cpp:386] inception_4d/relu_1x1 -> inception_4d/1x1 (in-place)
I0403 13:48:19.277247 12082 net.cpp:141] Setting up inception_4d/relu_1x1
I0403 13:48:19.277273 12082 net.cpp:148] Top shape: 24 112 14 14 (526848)
I0403 13:48:19.277288 12082 net.cpp:156] Memory required for data: 1115397408
I0403 13:48:19.277303 12082 layer_factory.hpp:77] Creating layer inception_4d/3x3_reduce
I0403 13:48:19.277344 12082 net.cpp:91] Creating Layer inception_4d/3x3_reduce
I0403 13:48:19.277364 12082 net.cpp:425] inception_4d/3x3_reduce <- inception_4c/output_inception_4c/output_0_split_1
I0403 13:48:19.277384 12082 net.cpp:399] inception_4d/3x3_reduce -> inception_4d/3x3_reduce
I0403 13:48:19.278983 12082 net.cpp:141] Setting up inception_4d/3x3_reduce
I0403 13:48:19.279012 12082 net.cpp:148] Top shape: 24 144 14 14 (677376)
I0403 13:48:19.279028 12082 net.cpp:156] Memory required for data: 1118106912
I0403 13:48:19.279047 12082 layer_factory.hpp:77] Creating layer inception_4d/relu_3x3_reduce
I0403 13:48:19.279064 12082 net.cpp:91] Creating Layer inception_4d/relu_3x3_reduce
I0403 13:48:19.279081 12082 net.cpp:425] inception_4d/relu_3x3_reduce <- inception_4d/3x3_reduce
I0403 13:48:19.279100 12082 net.cpp:386] inception_4d/relu_3x3_reduce -> inception_4d/3x3_reduce (in-place)
I0403 13:48:19.279398 12082 net.cpp:141] Setting up inception_4d/relu_3x3_reduce
I0403 13:48:19.279424 12082 net.cpp:148] Top shape: 24 144 14 14 (677376)
I0403 13:48:19.279440 12082 net.cpp:156] Memory required for data: 1120816416
I0403 13:48:19.279454 12082 layer_factory.hpp:77] Creating layer inception_4d/3x3
I0403 13:48:19.279477 12082 net.cpp:91] Creating Layer inception_4d/3x3
I0403 13:48:19.279496 12082 net.cpp:425] inception_4d/3x3 <- inception_4d/3x3_reduce
I0403 13:48:19.279523 12082 net.cpp:399] inception_4d/3x3 -> inception_4d/3x3
I0403 13:48:19.283907 12082 net.cpp:141] Setting up inception_4d/3x3
I0403 13:48:19.283938 12082 net.cpp:148] Top shape: 24 288 14 14 (1354752)
I0403 13:48:19.283954 12082 net.cpp:156] Memory required for data: 1126235424
I0403 13:48:19.283974 12082 layer_factory.hpp:77] Creating layer inception_4d/relu_3x3
I0403 13:48:19.283994 12082 net.cpp:91] Creating Layer inception_4d/relu_3x3
I0403 13:48:19.284013 12082 net.cpp:425] inception_4d/relu_3x3 <- inception_4d/3x3
I0403 13:48:19.284030 12082 net.cpp:386] inception_4d/relu_3x3 -> inception_4d/3x3 (in-place)
I0403 13:48:19.284219 12082 net.cpp:141] Setting up inception_4d/relu_3x3
I0403 13:48:19.284247 12082 net.cpp:148] Top shape: 24 288 14 14 (1354752)
I0403 13:48:19.284262 12082 net.cpp:156] Memory required for data: 1131654432
I0403 13:48:19.284277 12082 layer_factory.hpp:77] Creating layer inception_4d/5x5_reduce
I0403 13:48:19.284301 12082 net.cpp:91] Creating Layer inception_4d/5x5_reduce
I0403 13:48:19.284319 12082 net.cpp:425] inception_4d/5x5_reduce <- inception_4c/output_inception_4c/output_0_split_2
I0403 13:48:19.284339 12082 net.cpp:399] inception_4d/5x5_reduce -> inception_4d/5x5_reduce
I0403 13:48:19.285549 12082 net.cpp:141] Setting up inception_4d/5x5_reduce
I0403 13:48:19.285578 12082 net.cpp:148] Top shape: 24 32 14 14 (150528)
I0403 13:48:19.285594 12082 net.cpp:156] Memory required for data: 1132256544
I0403 13:48:19.285614 12082 layer_factory.hpp:77] Creating layer inception_4d/relu_5x5_reduce
I0403 13:48:19.285634 12082 net.cpp:91] Creating Layer inception_4d/relu_5x5_reduce
I0403 13:48:19.285650 12082 net.cpp:425] inception_4d/relu_5x5_reduce <- inception_4d/5x5_reduce
I0403 13:48:19.285667 12082 net.cpp:386] inception_4d/relu_5x5_reduce -> inception_4d/5x5_reduce (in-place)
I0403 13:48:19.285861 12082 net.cpp:141] Setting up inception_4d/relu_5x5_reduce
I0403 13:48:19.285889 12082 net.cpp:148] Top shape: 24 32 14 14 (150528)
I0403 13:48:19.285905 12082 net.cpp:156] Memory required for data: 1132858656
I0403 13:48:19.285920 12082 layer_factory.hpp:77] Creating layer inception_4d/5x5
I0403 13:48:19.285943 12082 net.cpp:91] Creating Layer inception_4d/5x5
I0403 13:48:19.285961 12082 net.cpp:425] inception_4d/5x5 <- inception_4d/5x5_reduce
I0403 13:48:19.285980 12082 net.cpp:399] inception_4d/5x5 -> inception_4d/5x5
I0403 13:48:19.287487 12082 net.cpp:141] Setting up inception_4d/5x5
I0403 13:48:19.287519 12082 net.cpp:148] Top shape: 24 64 14 14 (301056)
I0403 13:48:19.287538 12082 net.cpp:156] Memory required for data: 1134062880
I0403 13:48:19.287556 12082 layer_factory.hpp:77] Creating layer inception_4d/relu_5x5
I0403 13:48:19.287605 12082 net.cpp:91] Creating Layer inception_4d/relu_5x5
I0403 13:48:19.287623 12082 net.cpp:425] inception_4d/relu_5x5 <- inception_4d/5x5
I0403 13:48:19.287643 12082 net.cpp:386] inception_4d/relu_5x5 -> inception_4d/5x5 (in-place)
I0403 13:48:19.287952 12082 net.cpp:141] Setting up inception_4d/relu_5x5
I0403 13:48:19.287981 12082 net.cpp:148] Top shape: 24 64 14 14 (301056)
I0403 13:48:19.287997 12082 net.cpp:156] Memory required for data: 1135267104
I0403 13:48:19.288012 12082 layer_factory.hpp:77] Creating layer inception_4d/pool
I0403 13:48:19.288030 12082 net.cpp:91] Creating Layer inception_4d/pool
I0403 13:48:19.288046 12082 net.cpp:425] inception_4d/pool <- inception_4c/output_inception_4c/output_0_split_3
I0403 13:48:19.288067 12082 net.cpp:399] inception_4d/pool -> inception_4d/pool
I0403 13:48:19.288136 12082 net.cpp:141] Setting up inception_4d/pool
I0403 13:48:19.288159 12082 net.cpp:148] Top shape: 24 512 14 14 (2408448)
I0403 13:48:19.288175 12082 net.cpp:156] Memory required for data: 1144900896
I0403 13:48:19.288189 12082 layer_factory.hpp:77] Creating layer inception_4d/pool_proj
I0403 13:48:19.288213 12082 net.cpp:91] Creating Layer inception_4d/pool_proj
I0403 13:48:19.288230 12082 net.cpp:425] inception_4d/pool_proj <- inception_4d/pool
I0403 13:48:19.288251 12082 net.cpp:399] inception_4d/pool_proj -> inception_4d/pool_proj
I0403 13:48:19.290076 12082 net.cpp:141] Setting up inception_4d/pool_proj
I0403 13:48:19.290104 12082 net.cpp:148] Top shape: 24 64 14 14 (301056)
I0403 13:48:19.290119 12082 net.cpp:156] Memory required for data: 1146105120
I0403 13:48:19.290138 12082 layer_factory.hpp:77] Creating layer inception_4d/relu_pool_proj
I0403 13:48:19.290158 12082 net.cpp:91] Creating Layer inception_4d/relu_pool_proj
I0403 13:48:19.290175 12082 net.cpp:425] inception_4d/relu_pool_proj <- inception_4d/pool_proj
I0403 13:48:19.290191 12082 net.cpp:386] inception_4d/relu_pool_proj -> inception_4d/pool_proj (in-place)
I0403 13:48:19.290377 12082 net.cpp:141] Setting up inception_4d/relu_pool_proj
I0403 13:48:19.290405 12082 net.cpp:148] Top shape: 24 64 14 14 (301056)
I0403 13:48:19.290421 12082 net.cpp:156] Memory required for data: 1147309344
I0403 13:48:19.290434 12082 layer_factory.hpp:77] Creating layer inception_4d/output
I0403 13:48:19.290452 12082 net.cpp:91] Creating Layer inception_4d/output
I0403 13:48:19.290467 12082 net.cpp:425] inception_4d/output <- inception_4d/1x1
I0403 13:48:19.290484 12082 net.cpp:425] inception_4d/output <- inception_4d/3x3
I0403 13:48:19.290500 12082 net.cpp:425] inception_4d/output <- inception_4d/5x5
I0403 13:48:19.290521 12082 net.cpp:425] inception_4d/output <- inception_4d/pool_proj
I0403 13:48:19.290539 12082 net.cpp:399] inception_4d/output -> inception_4d/output
I0403 13:48:19.290587 12082 net.cpp:141] Setting up inception_4d/output
I0403 13:48:19.290611 12082 net.cpp:148] Top shape: 24 528 14 14 (2483712)
I0403 13:48:19.290626 12082 net.cpp:156] Memory required for data: 1157244192
I0403 13:48:19.290639 12082 layer_factory.hpp:77] Creating layer inception_4d/output_inception_4d/output_0_split
I0403 13:48:19.290658 12082 net.cpp:91] Creating Layer inception_4d/output_inception_4d/output_0_split
I0403 13:48:19.290674 12082 net.cpp:425] inception_4d/output_inception_4d/output_0_split <- inception_4d/output
I0403 13:48:19.290693 12082 net.cpp:399] inception_4d/output_inception_4d/output_0_split -> inception_4d/output_inception_4d/output_0_split_0
I0403 13:48:19.290711 12082 net.cpp:399] inception_4d/output_inception_4d/output_0_split -> inception_4d/output_inception_4d/output_0_split_1
I0403 13:48:19.290732 12082 net.cpp:399] inception_4d/output_inception_4d/output_0_split -> inception_4d/output_inception_4d/output_0_split_2
I0403 13:48:19.290755 12082 net.cpp:399] inception_4d/output_inception_4d/output_0_split -> inception_4d/output_inception_4d/output_0_split_3
I0403 13:48:19.290776 12082 net.cpp:399] inception_4d/output_inception_4d/output_0_split -> inception_4d/output_inception_4d/output_0_split_4
I0403 13:48:19.290880 12082 net.cpp:141] Setting up inception_4d/output_inception_4d/output_0_split
I0403 13:48:19.290915 12082 net.cpp:148] Top shape: 24 528 14 14 (2483712)
I0403 13:48:19.290932 12082 net.cpp:148] Top shape: 24 528 14 14 (2483712)
I0403 13:48:19.290947 12082 net.cpp:148] Top shape: 24 528 14 14 (2483712)
I0403 13:48:19.290962 12082 net.cpp:148] Top shape: 24 528 14 14 (2483712)
I0403 13:48:19.290977 12082 net.cpp:148] Top shape: 24 528 14 14 (2483712)
I0403 13:48:19.290990 12082 net.cpp:156] Memory required for data: 1206918432
I0403 13:48:19.291004 12082 layer_factory.hpp:77] Creating layer loss2/ave_pool
I0403 13:48:19.291024 12082 net.cpp:91] Creating Layer loss2/ave_pool
I0403 13:48:19.291041 12082 net.cpp:425] loss2/ave_pool <- inception_4d/output_inception_4d/output_0_split_0
I0403 13:48:19.291059 12082 net.cpp:399] loss2/ave_pool -> loss2/ave_pool
I0403 13:48:19.291388 12082 net.cpp:141] Setting up loss2/ave_pool
I0403 13:48:19.291414 12082 net.cpp:148] Top shape: 24 528 4 4 (202752)
I0403 13:48:19.291429 12082 net.cpp:156] Memory required for data: 1207729440
I0403 13:48:19.291443 12082 layer_factory.hpp:77] Creating layer loss2/conv
I0403 13:48:19.291466 12082 net.cpp:91] Creating Layer loss2/conv
I0403 13:48:19.291484 12082 net.cpp:425] loss2/conv <- loss2/ave_pool
I0403 13:48:19.291508 12082 net.cpp:399] loss2/conv -> loss2/conv
I0403 13:48:19.293464 12082 net.cpp:141] Setting up loss2/conv
I0403 13:48:19.293495 12082 net.cpp:148] Top shape: 24 128 4 4 (49152)
I0403 13:48:19.293517 12082 net.cpp:156] Memory required for data: 1207926048
I0403 13:48:19.293536 12082 layer_factory.hpp:77] Creating layer loss2/relu_conv
I0403 13:48:19.293555 12082 net.cpp:91] Creating Layer loss2/relu_conv
I0403 13:48:19.293571 12082 net.cpp:425] loss2/relu_conv <- loss2/conv
I0403 13:48:19.293591 12082 net.cpp:386] loss2/relu_conv -> loss2/conv (in-place)
I0403 13:48:19.293877 12082 net.cpp:141] Setting up loss2/relu_conv
I0403 13:48:19.293905 12082 net.cpp:148] Top shape: 24 128 4 4 (49152)
I0403 13:48:19.293920 12082 net.cpp:156] Memory required for data: 1208122656
I0403 13:48:19.293934 12082 layer_factory.hpp:77] Creating layer loss2/fc
I0403 13:48:19.293954 12082 net.cpp:91] Creating Layer loss2/fc
I0403 13:48:19.293970 12082 net.cpp:425] loss2/fc <- loss2/conv
I0403 13:48:19.293990 12082 net.cpp:399] loss2/fc -> loss2/fc
I0403 13:48:19.312645 12082 net.cpp:141] Setting up loss2/fc
I0403 13:48:19.312701 12082 net.cpp:148] Top shape: 24 1024 (24576)
I0403 13:48:19.312717 12082 net.cpp:156] Memory required for data: 1208220960
I0403 13:48:19.312737 12082 layer_factory.hpp:77] Creating layer loss2/relu_fc
I0403 13:48:19.312757 12082 net.cpp:91] Creating Layer loss2/relu_fc
I0403 13:48:19.312774 12082 net.cpp:425] loss2/relu_fc <- loss2/fc
I0403 13:48:19.312793 12082 net.cpp:386] loss2/relu_fc -> loss2/fc (in-place)
I0403 13:48:19.313181 12082 net.cpp:141] Setting up loss2/relu_fc
I0403 13:48:19.313207 12082 net.cpp:148] Top shape: 24 1024 (24576)
I0403 13:48:19.313225 12082 net.cpp:156] Memory required for data: 1208319264
I0403 13:48:19.313240 12082 layer_factory.hpp:77] Creating layer loss2/drop_fc
I0403 13:48:19.313257 12082 net.cpp:91] Creating Layer loss2/drop_fc
I0403 13:48:19.313273 12082 net.cpp:425] loss2/drop_fc <- loss2/fc
I0403 13:48:19.313289 12082 net.cpp:386] loss2/drop_fc -> loss2/fc (in-place)
I0403 13:48:19.313344 12082 net.cpp:141] Setting up loss2/drop_fc
I0403 13:48:19.313366 12082 net.cpp:148] Top shape: 24 1024 (24576)
I0403 13:48:19.313380 12082 net.cpp:156] Memory required for data: 1208417568
I0403 13:48:19.313408 12082 layer_factory.hpp:77] Creating layer loss2/classifier_plantvillage
I0403 13:48:19.313429 12082 net.cpp:91] Creating Layer loss2/classifier_plantvillage
I0403 13:48:19.313446 12082 net.cpp:425] loss2/classifier_plantvillage <- loss2/fc
I0403 13:48:19.313463 12082 net.cpp:399] loss2/classifier_plantvillage -> loss2/classifier_plantvillage
I0403 13:48:19.313871 12082 net.cpp:141] Setting up loss2/classifier_plantvillage
I0403 13:48:19.313895 12082 net.cpp:148] Top shape: 24 38 (912)
I0403 13:48:19.313938 12082 net.cpp:156] Memory required for data: 1208421216
I0403 13:48:19.313956 12082 layer_factory.hpp:77] Creating layer loss2/classifier_plantvillage_loss2/classifier_plantvillage_0_split
I0403 13:48:19.313974 12082 net.cpp:91] Creating Layer loss2/classifier_plantvillage_loss2/classifier_plantvillage_0_split
I0403 13:48:19.313989 12082 net.cpp:425] loss2/classifier_plantvillage_loss2/classifier_plantvillage_0_split <- loss2/classifier_plantvillage
I0403 13:48:19.314007 12082 net.cpp:399] loss2/classifier_plantvillage_loss2/classifier_plantvillage_0_split -> loss2/classifier_plantvillage_loss2/classifier_plantvillage_0_split_0
I0403 13:48:19.314028 12082 net.cpp:399] loss2/classifier_plantvillage_loss2/classifier_plantvillage_0_split -> loss2/classifier_plantvillage_loss2/classifier_plantvillage_0_split_1
I0403 13:48:19.314049 12082 net.cpp:399] loss2/classifier_plantvillage_loss2/classifier_plantvillage_0_split -> loss2/classifier_plantvillage_loss2/classifier_plantvillage_0_split_2
I0403 13:48:19.314124 12082 net.cpp:141] Setting up loss2/classifier_plantvillage_loss2/classifier_plantvillage_0_split
I0403 13:48:19.314149 12082 net.cpp:148] Top shape: 24 38 (912)
I0403 13:48:19.314165 12082 net.cpp:148] Top shape: 24 38 (912)
I0403 13:48:19.314179 12082 net.cpp:148] Top shape: 24 38 (912)
I0403 13:48:19.314193 12082 net.cpp:156] Memory required for data: 1208432160
I0403 13:48:19.314205 12082 layer_factory.hpp:77] Creating layer inception_4e/1x1
I0403 13:48:19.314227 12082 net.cpp:91] Creating Layer inception_4e/1x1
I0403 13:48:19.314245 12082 net.cpp:425] inception_4e/1x1 <- inception_4d/output_inception_4d/output_0_split_1
I0403 13:48:19.314263 12082 net.cpp:399] inception_4e/1x1 -> inception_4e/1x1
I0403 13:48:19.316123 12082 net.cpp:141] Setting up inception_4e/1x1
I0403 13:48:19.316153 12082 net.cpp:148] Top shape: 24 256 14 14 (1204224)
I0403 13:48:19.316167 12082 net.cpp:156] Memory required for data: 1213249056
I0403 13:48:19.316185 12082 layer_factory.hpp:77] Creating layer inception_4e/relu_1x1
I0403 13:48:19.316202 12082 net.cpp:91] Creating Layer inception_4e/relu_1x1
I0403 13:48:19.316217 12082 net.cpp:425] inception_4e/relu_1x1 <- inception_4e/1x1
I0403 13:48:19.316236 12082 net.cpp:386] inception_4e/relu_1x1 -> inception_4e/1x1 (in-place)
I0403 13:48:19.316548 12082 net.cpp:141] Setting up inception_4e/relu_1x1
I0403 13:48:19.316576 12082 net.cpp:148] Top shape: 24 256 14 14 (1204224)
I0403 13:48:19.316603 12082 net.cpp:156] Memory required for data: 1218065952
I0403 13:48:19.316617 12082 layer_factory.hpp:77] Creating layer inception_4e/3x3_reduce
I0403 13:48:19.316638 12082 net.cpp:91] Creating Layer inception_4e/3x3_reduce
I0403 13:48:19.316655 12082 net.cpp:425] inception_4e/3x3_reduce <- inception_4d/output_inception_4d/output_0_split_2
I0403 13:48:19.316674 12082 net.cpp:399] inception_4e/3x3_reduce -> inception_4e/3x3_reduce
I0403 13:48:19.318784 12082 net.cpp:141] Setting up inception_4e/3x3_reduce
I0403 13:48:19.318814 12082 net.cpp:148] Top shape: 24 160 14 14 (752640)
I0403 13:48:19.318830 12082 net.cpp:156] Memory required for data: 1221076512
I0403 13:48:19.318847 12082 layer_factory.hpp:77] Creating layer inception_4e/relu_3x3_reduce
I0403 13:48:19.318864 12082 net.cpp:91] Creating Layer inception_4e/relu_3x3_reduce
I0403 13:48:19.318881 12082 net.cpp:425] inception_4e/relu_3x3_reduce <- inception_4e/3x3_reduce
I0403 13:48:19.318897 12082 net.cpp:386] inception_4e/relu_3x3_reduce -> inception_4e/3x3_reduce (in-place)
I0403 13:48:19.319082 12082 net.cpp:141] Setting up inception_4e/relu_3x3_reduce
I0403 13:48:19.319105 12082 net.cpp:148] Top shape: 24 160 14 14 (752640)
I0403 13:48:19.319119 12082 net.cpp:156] Memory required for data: 1224087072
I0403 13:48:19.319133 12082 layer_factory.hpp:77] Creating layer inception_4e/3x3
I0403 13:48:19.319154 12082 net.cpp:91] Creating Layer inception_4e/3x3
I0403 13:48:19.319171 12082 net.cpp:425] inception_4e/3x3 <- inception_4e/3x3_reduce
I0403 13:48:19.319191 12082 net.cpp:399] inception_4e/3x3 -> inception_4e/3x3
I0403 13:48:19.324170 12082 net.cpp:141] Setting up inception_4e/3x3
I0403 13:48:19.324213 12082 net.cpp:148] Top shape: 24 320 14 14 (1505280)
I0403 13:48:19.324229 12082 net.cpp:156] Memory required for data: 1230108192
I0403 13:48:19.324245 12082 layer_factory.hpp:77] Creating layer inception_4e/relu_3x3
I0403 13:48:19.324265 12082 net.cpp:91] Creating Layer inception_4e/relu_3x3
I0403 13:48:19.324282 12082 net.cpp:425] inception_4e/relu_3x3 <- inception_4e/3x3
I0403 13:48:19.324300 12082 net.cpp:386] inception_4e/relu_3x3 -> inception_4e/3x3 (in-place)
I0403 13:48:19.324622 12082 net.cpp:141] Setting up inception_4e/relu_3x3
I0403 13:48:19.324651 12082 net.cpp:148] Top shape: 24 320 14 14 (1505280)
I0403 13:48:19.324664 12082 net.cpp:156] Memory required for data: 1236129312
I0403 13:48:19.324679 12082 layer_factory.hpp:77] Creating layer inception_4e/5x5_reduce
I0403 13:48:19.324702 12082 net.cpp:91] Creating Layer inception_4e/5x5_reduce
I0403 13:48:19.324718 12082 net.cpp:425] inception_4e/5x5_reduce <- inception_4d/output_inception_4d/output_0_split_3
I0403 13:48:19.324739 12082 net.cpp:399] inception_4e/5x5_reduce -> inception_4e/5x5_reduce
I0403 13:48:19.325816 12082 net.cpp:141] Setting up inception_4e/5x5_reduce
I0403 13:48:19.325845 12082 net.cpp:148] Top shape: 24 32 14 14 (150528)
I0403 13:48:19.325860 12082 net.cpp:156] Memory required for data: 1236731424
I0403 13:48:19.325877 12082 layer_factory.hpp:77] Creating layer inception_4e/relu_5x5_reduce
I0403 13:48:19.325896 12082 net.cpp:91] Creating Layer inception_4e/relu_5x5_reduce
I0403 13:48:19.325911 12082 net.cpp:425] inception_4e/relu_5x5_reduce <- inception_4e/5x5_reduce
I0403 13:48:19.325929 12082 net.cpp:386] inception_4e/relu_5x5_reduce -> inception_4e/5x5_reduce (in-place)
I0403 13:48:19.326236 12082 net.cpp:141] Setting up inception_4e/relu_5x5_reduce
I0403 13:48:19.326264 12082 net.cpp:148] Top shape: 24 32 14 14 (150528)
I0403 13:48:19.326280 12082 net.cpp:156] Memory required for data: 1237333536
I0403 13:48:19.326295 12082 layer_factory.hpp:77] Creating layer inception_4e/5x5
I0403 13:48:19.326345 12082 net.cpp:91] Creating Layer inception_4e/5x5
I0403 13:48:19.326364 12082 net.cpp:425] inception_4e/5x5 <- inception_4e/5x5_reduce
I0403 13:48:19.326382 12082 net.cpp:399] inception_4e/5x5 -> inception_4e/5x5
I0403 13:48:19.328238 12082 net.cpp:141] Setting up inception_4e/5x5
I0403 13:48:19.328265 12082 net.cpp:148] Top shape: 24 128 14 14 (602112)
I0403 13:48:19.328280 12082 net.cpp:156] Memory required for data: 1239741984
I0403 13:48:19.328299 12082 layer_factory.hpp:77] Creating layer inception_4e/relu_5x5
I0403 13:48:19.328318 12082 net.cpp:91] Creating Layer inception_4e/relu_5x5
I0403 13:48:19.328336 12082 net.cpp:425] inception_4e/relu_5x5 <- inception_4e/5x5
I0403 13:48:19.328353 12082 net.cpp:386] inception_4e/relu_5x5 -> inception_4e/5x5 (in-place)
I0403 13:48:19.328559 12082 net.cpp:141] Setting up inception_4e/relu_5x5
I0403 13:48:19.328584 12082 net.cpp:148] Top shape: 24 128 14 14 (602112)
I0403 13:48:19.328599 12082 net.cpp:156] Memory required for data: 1242150432
I0403 13:48:19.328614 12082 layer_factory.hpp:77] Creating layer inception_4e/pool
I0403 13:48:19.328632 12082 net.cpp:91] Creating Layer inception_4e/pool
I0403 13:48:19.328649 12082 net.cpp:425] inception_4e/pool <- inception_4d/output_inception_4d/output_0_split_4
I0403 13:48:19.328668 12082 net.cpp:399] inception_4e/pool -> inception_4e/pool
I0403 13:48:19.328739 12082 net.cpp:141] Setting up inception_4e/pool
I0403 13:48:19.328763 12082 net.cpp:148] Top shape: 24 528 14 14 (2483712)
I0403 13:48:19.328778 12082 net.cpp:156] Memory required for data: 1252085280
I0403 13:48:19.328791 12082 layer_factory.hpp:77] Creating layer inception_4e/pool_proj
I0403 13:48:19.328814 12082 net.cpp:91] Creating Layer inception_4e/pool_proj
I0403 13:48:19.328832 12082 net.cpp:425] inception_4e/pool_proj <- inception_4e/pool
I0403 13:48:19.328851 12082 net.cpp:399] inception_4e/pool_proj -> inception_4e/pool_proj
I0403 13:48:19.330363 12082 net.cpp:141] Setting up inception_4e/pool_proj
I0403 13:48:19.330402 12082 net.cpp:148] Top shape: 24 128 14 14 (602112)
I0403 13:48:19.330418 12082 net.cpp:156] Memory required for data: 1254493728
I0403 13:48:19.330436 12082 layer_factory.hpp:77] Creating layer inception_4e/relu_pool_proj
I0403 13:48:19.330456 12082 net.cpp:91] Creating Layer inception_4e/relu_pool_proj
I0403 13:48:19.330473 12082 net.cpp:425] inception_4e/relu_pool_proj <- inception_4e/pool_proj
I0403 13:48:19.330490 12082 net.cpp:386] inception_4e/relu_pool_proj -> inception_4e/pool_proj (in-place)
I0403 13:48:19.330788 12082 net.cpp:141] Setting up inception_4e/relu_pool_proj
I0403 13:48:19.330816 12082 net.cpp:148] Top shape: 24 128 14 14 (602112)
I0403 13:48:19.330831 12082 net.cpp:156] Memory required for data: 1256902176
I0403 13:48:19.330845 12082 layer_factory.hpp:77] Creating layer inception_4e/output
I0403 13:48:19.330864 12082 net.cpp:91] Creating Layer inception_4e/output
I0403 13:48:19.330880 12082 net.cpp:425] inception_4e/output <- inception_4e/1x1
I0403 13:48:19.330898 12082 net.cpp:425] inception_4e/output <- inception_4e/3x3
I0403 13:48:19.330912 12082 net.cpp:425] inception_4e/output <- inception_4e/5x5
I0403 13:48:19.330929 12082 net.cpp:425] inception_4e/output <- inception_4e/pool_proj
I0403 13:48:19.330945 12082 net.cpp:399] inception_4e/output -> inception_4e/output
I0403 13:48:19.330996 12082 net.cpp:141] Setting up inception_4e/output
I0403 13:48:19.331019 12082 net.cpp:148] Top shape: 24 832 14 14 (3913728)
I0403 13:48:19.331033 12082 net.cpp:156] Memory required for data: 1272557088
I0403 13:48:19.331048 12082 layer_factory.hpp:77] Creating layer pool4/3x3_s2
I0403 13:48:19.331064 12082 net.cpp:91] Creating Layer pool4/3x3_s2
I0403 13:48:19.331080 12082 net.cpp:425] pool4/3x3_s2 <- inception_4e/output
I0403 13:48:19.331100 12082 net.cpp:399] pool4/3x3_s2 -> pool4/3x3_s2
I0403 13:48:19.331166 12082 net.cpp:141] Setting up pool4/3x3_s2
I0403 13:48:19.331190 12082 net.cpp:148] Top shape: 24 832 7 7 (978432)
I0403 13:48:19.331204 12082 net.cpp:156] Memory required for data: 1276470816
I0403 13:48:19.331218 12082 layer_factory.hpp:77] Creating layer pool4/3x3_s2_pool4/3x3_s2_0_split
I0403 13:48:19.331238 12082 net.cpp:91] Creating Layer pool4/3x3_s2_pool4/3x3_s2_0_split
I0403 13:48:19.331256 12082 net.cpp:425] pool4/3x3_s2_pool4/3x3_s2_0_split <- pool4/3x3_s2
I0403 13:48:19.331275 12082 net.cpp:399] pool4/3x3_s2_pool4/3x3_s2_0_split -> pool4/3x3_s2_pool4/3x3_s2_0_split_0
I0403 13:48:19.331295 12082 net.cpp:399] pool4/3x3_s2_pool4/3x3_s2_0_split -> pool4/3x3_s2_pool4/3x3_s2_0_split_1
I0403 13:48:19.331318 12082 net.cpp:399] pool4/3x3_s2_pool4/3x3_s2_0_split -> pool4/3x3_s2_pool4/3x3_s2_0_split_2
I0403 13:48:19.331338 12082 net.cpp:399] pool4/3x3_s2_pool4/3x3_s2_0_split -> pool4/3x3_s2_pool4/3x3_s2_0_split_3
I0403 13:48:19.331428 12082 net.cpp:141] Setting up pool4/3x3_s2_pool4/3x3_s2_0_split
I0403 13:48:19.331450 12082 net.cpp:148] Top shape: 24 832 7 7 (978432)
I0403 13:48:19.331466 12082 net.cpp:148] Top shape: 24 832 7 7 (978432)
I0403 13:48:19.331481 12082 net.cpp:148] Top shape: 24 832 7 7 (978432)
I0403 13:48:19.331496 12082 net.cpp:148] Top shape: 24 832 7 7 (978432)
I0403 13:48:19.331516 12082 net.cpp:156] Memory required for data: 1292125728
I0403 13:48:19.331531 12082 layer_factory.hpp:77] Creating layer inception_5a/1x1
I0403 13:48:19.331552 12082 net.cpp:91] Creating Layer inception_5a/1x1
I0403 13:48:19.331570 12082 net.cpp:425] inception_5a/1x1 <- pool4/3x3_s2_pool4/3x3_s2_0_split_0
I0403 13:48:19.331593 12082 net.cpp:399] inception_5a/1x1 -> inception_5a/1x1
I0403 13:48:19.334451 12082 net.cpp:141] Setting up inception_5a/1x1
I0403 13:48:19.334482 12082 net.cpp:148] Top shape: 24 256 7 7 (301056)
I0403 13:48:19.334498 12082 net.cpp:156] Memory required for data: 1293329952
I0403 13:48:19.334532 12082 layer_factory.hpp:77] Creating layer inception_5a/relu_1x1
I0403 13:48:19.334552 12082 net.cpp:91] Creating Layer inception_5a/relu_1x1
I0403 13:48:19.334568 12082 net.cpp:425] inception_5a/relu_1x1 <- inception_5a/1x1
I0403 13:48:19.334585 12082 net.cpp:386] inception_5a/relu_1x1 -> inception_5a/1x1 (in-place)
I0403 13:48:19.334897 12082 net.cpp:141] Setting up inception_5a/relu_1x1
I0403 13:48:19.334925 12082 net.cpp:148] Top shape: 24 256 7 7 (301056)
I0403 13:48:19.334941 12082 net.cpp:156] Memory required for data: 1294534176
I0403 13:48:19.334969 12082 layer_factory.hpp:77] Creating layer inception_5a/3x3_reduce
I0403 13:48:19.334990 12082 net.cpp:91] Creating Layer inception_5a/3x3_reduce
I0403 13:48:19.335007 12082 net.cpp:425] inception_5a/3x3_reduce <- pool4/3x3_s2_pool4/3x3_s2_0_split_1
I0403 13:48:19.335026 12082 net.cpp:399] inception_5a/3x3_reduce -> inception_5a/3x3_reduce
I0403 13:48:19.337467 12082 net.cpp:141] Setting up inception_5a/3x3_reduce
I0403 13:48:19.337496 12082 net.cpp:148] Top shape: 24 160 7 7 (188160)
I0403 13:48:19.337517 12082 net.cpp:156] Memory required for data: 1295286816
I0403 13:48:19.337537 12082 layer_factory.hpp:77] Creating layer inception_5a/relu_3x3_reduce
I0403 13:48:19.337556 12082 net.cpp:91] Creating Layer inception_5a/relu_3x3_reduce
I0403 13:48:19.337574 12082 net.cpp:425] inception_5a/relu_3x3_reduce <- inception_5a/3x3_reduce
I0403 13:48:19.337590 12082 net.cpp:386] inception_5a/relu_3x3_reduce -> inception_5a/3x3_reduce (in-place)
I0403 13:48:19.337775 12082 net.cpp:141] Setting up inception_5a/relu_3x3_reduce
I0403 13:48:19.337801 12082 net.cpp:148] Top shape: 24 160 7 7 (188160)
I0403 13:48:19.337817 12082 net.cpp:156] Memory required for data: 1296039456
I0403 13:48:19.337831 12082 layer_factory.hpp:77] Creating layer inception_5a/3x3
I0403 13:48:19.337852 12082 net.cpp:91] Creating Layer inception_5a/3x3
I0403 13:48:19.337867 12082 net.cpp:425] inception_5a/3x3 <- inception_5a/3x3_reduce
I0403 13:48:19.337889 12082 net.cpp:399] inception_5a/3x3 -> inception_5a/3x3
I0403 13:48:19.342954 12082 net.cpp:141] Setting up inception_5a/3x3
I0403 13:48:19.342983 12082 net.cpp:148] Top shape: 24 320 7 7 (376320)
I0403 13:48:19.342998 12082 net.cpp:156] Memory required for data: 1297544736
I0403 13:48:19.343016 12082 layer_factory.hpp:77] Creating layer inception_5a/relu_3x3
I0403 13:48:19.343035 12082 net.cpp:91] Creating Layer inception_5a/relu_3x3
I0403 13:48:19.343052 12082 net.cpp:425] inception_5a/relu_3x3 <- inception_5a/3x3
I0403 13:48:19.343070 12082 net.cpp:386] inception_5a/relu_3x3 -> inception_5a/3x3 (in-place)
I0403 13:48:19.343356 12082 net.cpp:141] Setting up inception_5a/relu_3x3
I0403 13:48:19.343381 12082 net.cpp:148] Top shape: 24 320 7 7 (376320)
I0403 13:48:19.343395 12082 net.cpp:156] Memory required for data: 1299050016
I0403 13:48:19.343410 12082 layer_factory.hpp:77] Creating layer inception_5a/5x5_reduce
I0403 13:48:19.343433 12082 net.cpp:91] Creating Layer inception_5a/5x5_reduce
I0403 13:48:19.343451 12082 net.cpp:425] inception_5a/5x5_reduce <- pool4/3x3_s2_pool4/3x3_s2_0_split_2
I0403 13:48:19.343469 12082 net.cpp:399] inception_5a/5x5_reduce -> inception_5a/5x5_reduce
I0403 13:48:19.344629 12082 net.cpp:141] Setting up inception_5a/5x5_reduce
I0403 13:48:19.344658 12082 net.cpp:148] Top shape: 24 32 7 7 (37632)
I0403 13:48:19.344674 12082 net.cpp:156] Memory required for data: 1299200544
I0403 13:48:19.344692 12082 layer_factory.hpp:77] Creating layer inception_5a/relu_5x5_reduce
I0403 13:48:19.344712 12082 net.cpp:91] Creating Layer inception_5a/relu_5x5_reduce
I0403 13:48:19.344727 12082 net.cpp:425] inception_5a/relu_5x5_reduce <- inception_5a/5x5_reduce
I0403 13:48:19.344745 12082 net.cpp:386] inception_5a/relu_5x5_reduce -> inception_5a/5x5_reduce (in-place)
I0403 13:48:19.345037 12082 net.cpp:141] Setting up inception_5a/relu_5x5_reduce
I0403 13:48:19.345064 12082 net.cpp:148] Top shape: 24 32 7 7 (37632)
I0403 13:48:19.345078 12082 net.cpp:156] Memory required for data: 1299351072
I0403 13:48:19.345093 12082 layer_factory.hpp:77] Creating layer inception_5a/5x5
I0403 13:48:19.345113 12082 net.cpp:91] Creating Layer inception_5a/5x5
I0403 13:48:19.345130 12082 net.cpp:425] inception_5a/5x5 <- inception_5a/5x5_reduce
I0403 13:48:19.345150 12082 net.cpp:399] inception_5a/5x5 -> inception_5a/5x5
I0403 13:48:19.346864 12082 net.cpp:141] Setting up inception_5a/5x5
I0403 13:48:19.346904 12082 net.cpp:148] Top shape: 24 128 7 7 (150528)
I0403 13:48:19.346920 12082 net.cpp:156] Memory required for data: 1299953184
I0403 13:48:19.346937 12082 layer_factory.hpp:77] Creating layer inception_5a/relu_5x5
I0403 13:48:19.346958 12082 net.cpp:91] Creating Layer inception_5a/relu_5x5
I0403 13:48:19.346976 12082 net.cpp:425] inception_5a/relu_5x5 <- inception_5a/5x5
I0403 13:48:19.346992 12082 net.cpp:386] inception_5a/relu_5x5 -> inception_5a/5x5 (in-place)
I0403 13:48:19.347179 12082 net.cpp:141] Setting up inception_5a/relu_5x5
I0403 13:48:19.347203 12082 net.cpp:148] Top shape: 24 128 7 7 (150528)
I0403 13:48:19.347218 12082 net.cpp:156] Memory required for data: 1300555296
I0403 13:48:19.347231 12082 layer_factory.hpp:77] Creating layer inception_5a/pool
I0403 13:48:19.347247 12082 net.cpp:91] Creating Layer inception_5a/pool
I0403 13:48:19.347264 12082 net.cpp:425] inception_5a/pool <- pool4/3x3_s2_pool4/3x3_s2_0_split_3
I0403 13:48:19.347282 12082 net.cpp:399] inception_5a/pool -> inception_5a/pool
I0403 13:48:19.347350 12082 net.cpp:141] Setting up inception_5a/pool
I0403 13:48:19.347373 12082 net.cpp:148] Top shape: 24 832 7 7 (978432)
I0403 13:48:19.347388 12082 net.cpp:156] Memory required for data: 1304469024
I0403 13:48:19.347401 12082 layer_factory.hpp:77] Creating layer inception_5a/pool_proj
I0403 13:48:19.347424 12082 net.cpp:91] Creating Layer inception_5a/pool_proj
I0403 13:48:19.347440 12082 net.cpp:425] inception_5a/pool_proj <- inception_5a/pool
I0403 13:48:19.347458 12082 net.cpp:399] inception_5a/pool_proj -> inception_5a/pool_proj
I0403 13:48:19.349766 12082 net.cpp:141] Setting up inception_5a/pool_proj
I0403 13:48:19.349795 12082 net.cpp:148] Top shape: 24 128 7 7 (150528)
I0403 13:48:19.349812 12082 net.cpp:156] Memory required for data: 1305071136
I0403 13:48:19.349828 12082 layer_factory.hpp:77] Creating layer inception_5a/relu_pool_proj
I0403 13:48:19.349848 12082 net.cpp:91] Creating Layer inception_5a/relu_pool_proj
I0403 13:48:19.349866 12082 net.cpp:425] inception_5a/relu_pool_proj <- inception_5a/pool_proj
I0403 13:48:19.349884 12082 net.cpp:386] inception_5a/relu_pool_proj -> inception_5a/pool_proj (in-place)
I0403 13:48:19.350183 12082 net.cpp:141] Setting up inception_5a/relu_pool_proj
I0403 13:48:19.350209 12082 net.cpp:148] Top shape: 24 128 7 7 (150528)
I0403 13:48:19.350224 12082 net.cpp:156] Memory required for data: 1305673248
I0403 13:48:19.350239 12082 layer_factory.hpp:77] Creating layer inception_5a/output
I0403 13:48:19.350257 12082 net.cpp:91] Creating Layer inception_5a/output
I0403 13:48:19.350273 12082 net.cpp:425] inception_5a/output <- inception_5a/1x1
I0403 13:48:19.350291 12082 net.cpp:425] inception_5a/output <- inception_5a/3x3
I0403 13:48:19.350306 12082 net.cpp:425] inception_5a/output <- inception_5a/5x5
I0403 13:48:19.350322 12082 net.cpp:425] inception_5a/output <- inception_5a/pool_proj
I0403 13:48:19.350338 12082 net.cpp:399] inception_5a/output -> inception_5a/output
I0403 13:48:19.350389 12082 net.cpp:141] Setting up inception_5a/output
I0403 13:48:19.350414 12082 net.cpp:148] Top shape: 24 832 7 7 (978432)
I0403 13:48:19.350428 12082 net.cpp:156] Memory required for data: 1309586976
I0403 13:48:19.350442 12082 layer_factory.hpp:77] Creating layer inception_5a/output_inception_5a/output_0_split
I0403 13:48:19.350460 12082 net.cpp:91] Creating Layer inception_5a/output_inception_5a/output_0_split
I0403 13:48:19.350474 12082 net.cpp:425] inception_5a/output_inception_5a/output_0_split <- inception_5a/output
I0403 13:48:19.350493 12082 net.cpp:399] inception_5a/output_inception_5a/output_0_split -> inception_5a/output_inception_5a/output_0_split_0
I0403 13:48:19.350522 12082 net.cpp:399] inception_5a/output_inception_5a/output_0_split -> inception_5a/output_inception_5a/output_0_split_1
I0403 13:48:19.350543 12082 net.cpp:399] inception_5a/output_inception_5a/output_0_split -> inception_5a/output_inception_5a/output_0_split_2
I0403 13:48:19.350564 12082 net.cpp:399] inception_5a/output_inception_5a/output_0_split -> inception_5a/output_inception_5a/output_0_split_3
I0403 13:48:19.350677 12082 net.cpp:141] Setting up inception_5a/output_inception_5a/output_0_split
I0403 13:48:19.350703 12082 net.cpp:148] Top shape: 24 832 7 7 (978432)
I0403 13:48:19.350718 12082 net.cpp:148] Top shape: 24 832 7 7 (978432)
I0403 13:48:19.350733 12082 net.cpp:148] Top shape: 24 832 7 7 (978432)
I0403 13:48:19.350746 12082 net.cpp:148] Top shape: 24 832 7 7 (978432)
I0403 13:48:19.350759 12082 net.cpp:156] Memory required for data: 1325241888
I0403 13:48:19.350775 12082 layer_factory.hpp:77] Creating layer inception_5b/1x1
I0403 13:48:19.350795 12082 net.cpp:91] Creating Layer inception_5b/1x1
I0403 13:48:19.350812 12082 net.cpp:425] inception_5b/1x1 <- inception_5a/output_inception_5a/output_0_split_0
I0403 13:48:19.350833 12082 net.cpp:399] inception_5b/1x1 -> inception_5b/1x1
I0403 13:48:19.354645 12082 net.cpp:141] Setting up inception_5b/1x1
I0403 13:48:19.354677 12082 net.cpp:148] Top shape: 24 384 7 7 (451584)
I0403 13:48:19.354692 12082 net.cpp:156] Memory required for data: 1327048224
I0403 13:48:19.354710 12082 layer_factory.hpp:77] Creating layer inception_5b/relu_1x1
I0403 13:48:19.354730 12082 net.cpp:91] Creating Layer inception_5b/relu_1x1
I0403 13:48:19.354748 12082 net.cpp:425] inception_5b/relu_1x1 <- inception_5b/1x1
I0403 13:48:19.354764 12082 net.cpp:386] inception_5b/relu_1x1 -> inception_5b/1x1 (in-place)
I0403 13:48:19.355074 12082 net.cpp:141] Setting up inception_5b/relu_1x1
I0403 13:48:19.355101 12082 net.cpp:148] Top shape: 24 384 7 7 (451584)
I0403 13:48:19.355115 12082 net.cpp:156] Memory required for data: 1328854560
I0403 13:48:19.355129 12082 layer_factory.hpp:77] Creating layer inception_5b/3x3_reduce
I0403 13:48:19.355151 12082 net.cpp:91] Creating Layer inception_5b/3x3_reduce
I0403 13:48:19.355170 12082 net.cpp:425] inception_5b/3x3_reduce <- inception_5a/output_inception_5a/output_0_split_1
I0403 13:48:19.355192 12082 net.cpp:399] inception_5b/3x3_reduce -> inception_5b/3x3_reduce
I0403 13:48:19.357867 12082 net.cpp:141] Setting up inception_5b/3x3_reduce
I0403 13:48:19.357897 12082 net.cpp:148] Top shape: 24 192 7 7 (225792)
I0403 13:48:19.357913 12082 net.cpp:156] Memory required for data: 1329757728
I0403 13:48:19.357933 12082 layer_factory.hpp:77] Creating layer inception_5b/relu_3x3_reduce
I0403 13:48:19.357952 12082 net.cpp:91] Creating Layer inception_5b/relu_3x3_reduce
I0403 13:48:19.357969 12082 net.cpp:425] inception_5b/relu_3x3_reduce <- inception_5b/3x3_reduce
I0403 13:48:19.357986 12082 net.cpp:386] inception_5b/relu_3x3_reduce -> inception_5b/3x3_reduce (in-place)
I0403 13:48:19.358176 12082 net.cpp:141] Setting up inception_5b/relu_3x3_reduce
I0403 13:48:19.358203 12082 net.cpp:148] Top shape: 24 192 7 7 (225792)
I0403 13:48:19.358218 12082 net.cpp:156] Memory required for data: 1330660896
I0403 13:48:19.358232 12082 layer_factory.hpp:77] Creating layer inception_5b/3x3
I0403 13:48:19.358254 12082 net.cpp:91] Creating Layer inception_5b/3x3
I0403 13:48:19.358273 12082 net.cpp:425] inception_5b/3x3 <- inception_5b/3x3_reduce
I0403 13:48:19.358290 12082 net.cpp:399] inception_5b/3x3 -> inception_5b/3x3
I0403 13:48:19.365236 12082 net.cpp:141] Setting up inception_5b/3x3
I0403 13:48:19.365267 12082 net.cpp:148] Top shape: 24 384 7 7 (451584)
I0403 13:48:19.365284 12082 net.cpp:156] Memory required for data: 1332467232
I0403 13:48:19.365303 12082 layer_factory.hpp:77] Creating layer inception_5b/relu_3x3
I0403 13:48:19.365324 12082 net.cpp:91] Creating Layer inception_5b/relu_3x3
I0403 13:48:19.365341 12082 net.cpp:425] inception_5b/relu_3x3 <- inception_5b/3x3
I0403 13:48:19.365360 12082 net.cpp:386] inception_5b/relu_3x3 -> inception_5b/3x3 (in-place)
I0403 13:48:19.365677 12082 net.cpp:141] Setting up inception_5b/relu_3x3
I0403 13:48:19.365703 12082 net.cpp:148] Top shape: 24 384 7 7 (451584)
I0403 13:48:19.365720 12082 net.cpp:156] Memory required for data: 1334273568
I0403 13:48:19.365734 12082 layer_factory.hpp:77] Creating layer inception_5b/5x5_reduce
I0403 13:48:19.365777 12082 net.cpp:91] Creating Layer inception_5b/5x5_reduce
I0403 13:48:19.365797 12082 net.cpp:425] inception_5b/5x5_reduce <- inception_5a/output_inception_5a/output_0_split_2
I0403 13:48:19.365818 12082 net.cpp:399] inception_5b/5x5_reduce -> inception_5b/5x5_reduce
I0403 13:48:19.367147 12082 net.cpp:141] Setting up inception_5b/5x5_reduce
I0403 13:48:19.367177 12082 net.cpp:148] Top shape: 24 48 7 7 (56448)
I0403 13:48:19.367192 12082 net.cpp:156] Memory required for data: 1334499360
I0403 13:48:19.367210 12082 layer_factory.hpp:77] Creating layer inception_5b/relu_5x5_reduce
I0403 13:48:19.367231 12082 net.cpp:91] Creating Layer inception_5b/relu_5x5_reduce
I0403 13:48:19.367249 12082 net.cpp:425] inception_5b/relu_5x5_reduce <- inception_5b/5x5_reduce
I0403 13:48:19.367266 12082 net.cpp:386] inception_5b/relu_5x5_reduce -> inception_5b/5x5_reduce (in-place)
I0403 13:48:19.367662 12082 net.cpp:141] Setting up inception_5b/relu_5x5_reduce
I0403 13:48:19.367689 12082 net.cpp:148] Top shape: 24 48 7 7 (56448)
I0403 13:48:19.367705 12082 net.cpp:156] Memory required for data: 1334725152
I0403 13:48:19.367719 12082 layer_factory.hpp:77] Creating layer inception_5b/5x5
I0403 13:48:19.367740 12082 net.cpp:91] Creating Layer inception_5b/5x5
I0403 13:48:19.367758 12082 net.cpp:425] inception_5b/5x5 <- inception_5b/5x5_reduce
I0403 13:48:19.367777 12082 net.cpp:399] inception_5b/5x5 -> inception_5b/5x5
I0403 13:48:19.369941 12082 net.cpp:141] Setting up inception_5b/5x5
I0403 13:48:19.369973 12082 net.cpp:148] Top shape: 24 128 7 7 (150528)
I0403 13:48:19.369990 12082 net.cpp:156] Memory required for data: 1335327264
I0403 13:48:19.370008 12082 layer_factory.hpp:77] Creating layer inception_5b/relu_5x5
I0403 13:48:19.370026 12082 net.cpp:91] Creating Layer inception_5b/relu_5x5
I0403 13:48:19.370043 12082 net.cpp:425] inception_5b/relu_5x5 <- inception_5b/5x5
I0403 13:48:19.370060 12082 net.cpp:386] inception_5b/relu_5x5 -> inception_5b/5x5 (in-place)
I0403 13:48:19.370268 12082 net.cpp:141] Setting up inception_5b/relu_5x5
I0403 13:48:19.370293 12082 net.cpp:148] Top shape: 24 128 7 7 (150528)
I0403 13:48:19.370308 12082 net.cpp:156] Memory required for data: 1335929376
I0403 13:48:19.370323 12082 layer_factory.hpp:77] Creating layer inception_5b/pool
I0403 13:48:19.370342 12082 net.cpp:91] Creating Layer inception_5b/pool
I0403 13:48:19.370359 12082 net.cpp:425] inception_5b/pool <- inception_5a/output_inception_5a/output_0_split_3
I0403 13:48:19.370379 12082 net.cpp:399] inception_5b/pool -> inception_5b/pool
I0403 13:48:19.370453 12082 net.cpp:141] Setting up inception_5b/pool
I0403 13:48:19.370481 12082 net.cpp:148] Top shape: 24 832 7 7 (978432)
I0403 13:48:19.370496 12082 net.cpp:156] Memory required for data: 1339843104
I0403 13:48:19.370517 12082 layer_factory.hpp:77] Creating layer inception_5b/pool_proj
I0403 13:48:19.370540 12082 net.cpp:91] Creating Layer inception_5b/pool_proj
I0403 13:48:19.370559 12082 net.cpp:425] inception_5b/pool_proj <- inception_5b/pool
I0403 13:48:19.370579 12082 net.cpp:399] inception_5b/pool_proj -> inception_5b/pool_proj
I0403 13:48:19.372969 12082 net.cpp:141] Setting up inception_5b/pool_proj
I0403 13:48:19.372999 12082 net.cpp:148] Top shape: 24 128 7 7 (150528)
I0403 13:48:19.373015 12082 net.cpp:156] Memory required for data: 1340445216
I0403 13:48:19.373034 12082 layer_factory.hpp:77] Creating layer inception_5b/relu_pool_proj
I0403 13:48:19.373055 12082 net.cpp:91] Creating Layer inception_5b/relu_pool_proj
I0403 13:48:19.373073 12082 net.cpp:425] inception_5b/relu_pool_proj <- inception_5b/pool_proj
I0403 13:48:19.373090 12082 net.cpp:386] inception_5b/relu_pool_proj -> inception_5b/pool_proj (in-place)
I0403 13:48:19.373404 12082 net.cpp:141] Setting up inception_5b/relu_pool_proj
I0403 13:48:19.373430 12082 net.cpp:148] Top shape: 24 128 7 7 (150528)
I0403 13:48:19.373445 12082 net.cpp:156] Memory required for data: 1341047328
I0403 13:48:19.373461 12082 layer_factory.hpp:77] Creating layer inception_5b/output
I0403 13:48:19.373479 12082 net.cpp:91] Creating Layer inception_5b/output
I0403 13:48:19.373518 12082 net.cpp:425] inception_5b/output <- inception_5b/1x1
I0403 13:48:19.373538 12082 net.cpp:425] inception_5b/output <- inception_5b/3x3
I0403 13:48:19.373555 12082 net.cpp:425] inception_5b/output <- inception_5b/5x5
I0403 13:48:19.373571 12082 net.cpp:425] inception_5b/output <- inception_5b/pool_proj
I0403 13:48:19.373589 12082 net.cpp:399] inception_5b/output -> inception_5b/output
I0403 13:48:19.373644 12082 net.cpp:141] Setting up inception_5b/output
I0403 13:48:19.373668 12082 net.cpp:148] Top shape: 24 1024 7 7 (1204224)
I0403 13:48:19.373682 12082 net.cpp:156] Memory required for data: 1345864224
I0403 13:48:19.373697 12082 layer_factory.hpp:77] Creating layer pool5/7x7_s1
I0403 13:48:19.373715 12082 net.cpp:91] Creating Layer pool5/7x7_s1
I0403 13:48:19.373730 12082 net.cpp:425] pool5/7x7_s1 <- inception_5b/output
I0403 13:48:19.373751 12082 net.cpp:399] pool5/7x7_s1 -> pool5/7x7_s1
I0403 13:48:19.373976 12082 net.cpp:141] Setting up pool5/7x7_s1
I0403 13:48:19.374002 12082 net.cpp:148] Top shape: 24 1024 1 1 (24576)
I0403 13:48:19.374017 12082 net.cpp:156] Memory required for data: 1345962528
I0403 13:48:19.374032 12082 layer_factory.hpp:77] Creating layer pool5/drop_7x7_s1
I0403 13:48:19.374053 12082 net.cpp:91] Creating Layer pool5/drop_7x7_s1
I0403 13:48:19.374069 12082 net.cpp:425] pool5/drop_7x7_s1 <- pool5/7x7_s1
I0403 13:48:19.374086 12082 net.cpp:386] pool5/drop_7x7_s1 -> pool5/7x7_s1 (in-place)
I0403 13:48:19.374140 12082 net.cpp:141] Setting up pool5/drop_7x7_s1
I0403 13:48:19.374163 12082 net.cpp:148] Top shape: 24 1024 1 1 (24576)
I0403 13:48:19.374178 12082 net.cpp:156] Memory required for data: 1346060832
I0403 13:48:19.374193 12082 layer_factory.hpp:77] Creating layer loss3/classifier_plantvillage
I0403 13:48:19.374214 12082 net.cpp:91] Creating Layer loss3/classifier_plantvillage
I0403 13:48:19.374233 12082 net.cpp:425] loss3/classifier_plantvillage <- pool5/7x7_s1
I0403 13:48:19.374250 12082 net.cpp:399] loss3/classifier_plantvillage -> loss3/classifier_plantvillage
I0403 13:48:19.374706 12082 net.cpp:141] Setting up loss3/classifier_plantvillage
I0403 13:48:19.374732 12082 net.cpp:148] Top shape: 24 38 (912)
I0403 13:48:19.374747 12082 net.cpp:156] Memory required for data: 1346064480
I0403 13:48:19.374764 12082 layer_factory.hpp:77] Creating layer loss3/classifier_plantvillage_loss3/classifier_plantvillage_0_split
I0403 13:48:19.374783 12082 net.cpp:91] Creating Layer loss3/classifier_plantvillage_loss3/classifier_plantvillage_0_split
I0403 13:48:19.374799 12082 net.cpp:425] loss3/classifier_plantvillage_loss3/classifier_plantvillage_0_split <- loss3/classifier_plantvillage
I0403 13:48:19.374820 12082 net.cpp:399] loss3/classifier_plantvillage_loss3/classifier_plantvillage_0_split -> loss3/classifier_plantvillage_loss3/classifier_plantvillage_0_split_0
I0403 13:48:19.374842 12082 net.cpp:399] loss3/classifier_plantvillage_loss3/classifier_plantvillage_0_split -> loss3/classifier_plantvillage_loss3/classifier_plantvillage_0_split_1
I0403 13:48:19.374863 12082 net.cpp:399] loss3/classifier_plantvillage_loss3/classifier_plantvillage_0_split -> loss3/classifier_plantvillage_loss3/classifier_plantvillage_0_split_2
I0403 13:48:19.374884 12082 net.cpp:399] loss3/classifier_plantvillage_loss3/classifier_plantvillage_0_split -> loss3/classifier_plantvillage_loss3/classifier_plantvillage_0_split_3
I0403 13:48:19.374989 12082 net.cpp:141] Setting up loss3/classifier_plantvillage_loss3/classifier_plantvillage_0_split
I0403 13:48:19.375012 12082 net.cpp:148] Top shape: 24 38 (912)
I0403 13:48:19.375028 12082 net.cpp:148] Top shape: 24 38 (912)
I0403 13:48:19.375044 12082 net.cpp:148] Top shape: 24 38 (912)
I0403 13:48:19.375061 12082 net.cpp:148] Top shape: 24 38 (912)
I0403 13:48:19.375074 12082 net.cpp:156] Memory required for data: 1346079072
I0403 13:48:19.375089 12082 layer_factory.hpp:77] Creating layer loss1/loss
I0403 13:48:19.375111 12082 net.cpp:91] Creating Layer loss1/loss
I0403 13:48:19.375130 12082 net.cpp:425] loss1/loss <- loss1/classifier_plantvillage_loss1/classifier_plantvillage_0_split_0
I0403 13:48:19.375161 12082 net.cpp:425] loss1/loss <- label_data_1_split_0
…
