…
I0403 09:25:48.670554 23602 net.cpp:313] The NetState phase (0) differed from the phase (1) specified by a rule in layer loss3/top-5
I0403 09:25:48.676689 23602 net.cpp:49] Initializing net from parameters: 
state {
  phase: TRAIN
}
layer {
  name: "data"
  type: "Data"
  top: "data"
  top: "label"
  include {
    phase: TRAIN
  }
  transform_param {
    mirror: true
    crop_size: 224
    mean_file: "/home/mohanty/data/final_dataset/lmdb/grayscale-20-80/mean.binaryproto"
  }
  data_param {
    source: "/home/mohanty/data/final_dataset/lmdb/grayscale-20-80/train_db"
    batch_size: 24
    backend: LMDB
  }
}
layer {
  name: "conv1/7x7_s2"
  type: "Convolution"
  bottom: "data"
  top: "conv1/7x7_s2"
  param {
    lr_mult: 1
    decay_mult: 1
  }
  param {
    lr_mult: 2
    decay_mult: 0
  }
  convolution_param {
    num_output: 64
    pad: 3
    kernel_size: 7
    stride: 2
    weight_filler {
      type: "xavier"
      std: 0.1
    }
    bias_filler {
      type: "constant"
      value: 0.2
    }
  }
}
layer {
  name: "conv1/relu_7x7"
  type: "ReLU"
  bottom: "conv1/7x7_s2"
  top: "conv1/7x7_s2"
}
layer {
  name: "pool1/3x3_s2"
  type: "Pooling"
  bottom: "conv1/7x7_s2"
  top: "pool1/3x3_s2"
  pooling_param {
    pool: MAX
    kernel_size: 3
    stride: 2
  }
}
layer {
  name: "pool1/norm1"
  type: "LRN"
  bottom: "pool1/3x3_s2"
  top: "pool1/norm1"
  lrn_param {
    local_size: 5
    alpha: 0.0001
    beta: 0.75
  }
}
layer {
  name: "conv2/3x3_reduce"
  type: "Convolution"
  bottom: "pool1/norm1"
  top: "conv2/3x3_reduce"
  param {
    lr_mult: 1
    decay_mult: 1
  }
  param {
    lr_mult: 2
    decay_mult: 0
  }
  convolution_param {
    num_output: 64
    kernel_size: 1
    weight_filler {
      type: "xavier"
      std: 0.1
    }
    bias_filler {
      type: "constant"
      value: 0.2
    }
  }
}
layer {
  name: "conv2/relu_3x3_reduce"
  type: "ReLU"
  bottom: "conv2/3x3_reduce"
  top: "conv2/3x3_reduce"
}
layer {
  name: "conv2/3x3"
  type: "Convolution"
  bottom: "conv2/3x3_reduce"
  top: "conv2/3x3"
  param {
    lr_mult: 1
    decay_mult: 1
  }
  param {
    lr_mult: 2
    decay_mult: 0
  }
  convolution_param {
    num_output: 192
    pad: 1
    kernel_size: 3
    weight_filler {
      type: "xavier"
      std: 0.03
    }
    bias_filler {
      type: "constant"
      value: 0.2
    }
  }
}
layer {
  name: "conv2/relu_3x3"
  type: "ReLU"
  bottom: "conv2/3x3"
  top: "conv2/3x3"
}
layer {
  name: "conv2/norm2"
  type: "LRN"
  bottom: "conv2/3x3"
  top: "conv2/norm2"
  lrn_param {
    local_size: 5
    alpha: 0.0001
    beta: 0.75
  }
}
layer {
  name: "pool2/3x3_s2"
  type: "Pooling"
  bottom: "conv2/norm2"
  top: "pool2/3x3_s2"
  pooling_param {
    pool: MAX
    kernel_size: 3
    stride: 2
  }
}
layer {
  name: "inception_3a/1x1"
  type: "Convolution"
  bottom: "pool2/3x3_s2"
  top: "inception_3a/1x1"
  param {
    lr_mult: 1
    decay_mult: 1
  }
  param {
    lr_mult: 2
    decay_mult: 0
  }
  convolution_param {
    num_output: 64
    kernel_size: 1
    weight_filler {
      type: "xavier"
      std: 0.03
    }
    bias_filler {
      type: "constant"
      value: 0.2
    }
  }
}
layer {
  name: "inception_3a/relu_1x1"
  type: "ReLU"
  bottom: "inception_3a/1x1"
  top: "inception_3a/1x1"
}
layer {
  name: "inception_3a/3x3_reduce"
  type: "Convolution"
  bottom: "pool2/3x3_s2"
  top: "inception_3a/3x3_reduce"
  param {
    lr_mult: 1
    decay_mult: 1
  }
  param {
    lr_mult: 2
    decay_mult: 0
  }
  convolution_param {
    num_output: 96
    kernel_size: 1
    weight_filler {
      type: "xavier"
      std: 0.09
    }
    bias_filler {
      type: "constant"
      value: 0.2
    }
  }
}
layer {
  name: "inception_3a/relu_3x3_reduce"
  type: "ReLU"
  bottom: "inception_3a/3x3_reduce"
  top: "inception_3a/3x3_reduce"
}
layer {
  name: "inception_3a/3x3"
  type: "Convolution"
  bottom: "inception_3a/3x3_reduce"
  top: "inception_3a/3x3"
  param {
    lr_mult: 1
    decay_mult: 1
  }
  param {
    lr_mult: 2
    decay_mult: 0
  }
  convolution_param {
    num_output: 128
    pad: 1
    kernel_size: 3
    weight_filler {
      type: "xavier"
      std: 0.03
    }
    bias_filler {
      type: "constant"
      value: 0.2
    }
  }
}
layer {
  name: "inception_3a/relu_3x3"
  type: "ReLU"
  bottom: "inception_3a/3x3"
  top: "inception_3a/3x3"
}
layer {
  name: "inception_3a/5x5_reduce"
  type: "Convolution"
  bottom: "pool2/3x3_s2"
  top: "inception_3a/5x5_reduce"
  param {
    lr_mult: 1
    decay_mult: 1
  }
  param {
    lr_mult: 2
    decay_mult: 0
  }
  convolution_param {
    num_output: 16
    kernel_size: 1
    weight_filler {
      type: "xavier"
      std: 0.2
    }
    bias_filler {
      type: "constant"
      value: 0.2
    }
  }
}
layer {
  name: "inception_3a/relu_5x5_reduce"
  type: "ReLU"
  bottom: "inception_3a/5x5_reduce"
  top: "inception_3a/5x5_reduce"
}
layer {
  name: "inception_3a/5x5"
  type: "Convolution"
  bottom: "inception_3a/5x5_reduce"
  top: "inception_3a/5x5"
  param {
    lr_mult: 1
    decay_mult: 1
  }
  param {
    lr_mult: 2
    decay_mult: 0
  }
  convolution_param {
    num_output: 32
    pad: 2
    kernel_size: 5
    weight_filler {
      type: "xavier"
      std: 0.03
    }
    bias_filler {
      type: "constant"
      value: 0.2
    }
  }
}
layer {
  name: "inception_3a/relu_5x5"
  type: "ReLU"
  bottom: "inception_3a/5x5"
  top: "inception_3a/5x5"
}
layer {
  name: "inception_3a/pool"
  type: "Pooling"
  bottom: "pool2/3x3_s2"
  top: "inception_3a/pool"
  pooling_param {
    pool: MAX
    kernel_size: 3
    stride: 1
    pad: 1
  }
}
layer {
  name: "inception_3a/pool_proj"
  type: "Convolution"
  bottom: "inception_3a/pool"
  top: "inception_3a/pool_proj"
  param {
    lr_mult: 1
    decay_mult: 1
  }
  param {
    lr_mult: 2
    decay_mult: 0
  }
  convolution_param {
    num_output: 32
    kernel_size: 1
    weight_filler {
      type: "xavier"
      std: 0.1
    }
    bias_filler {
      type: "constant"
      value: 0.2
    }
  }
}
layer {
  name: "inception_3a/relu_pool_proj"
  type: "ReLU"
  bottom: "inception_3a/pool_proj"
  top: "inception_3a/pool_proj"
}
layer {
  name: "inception_3a/output"
  type: "Concat"
  bottom: "inception_3a/1x1"
  bottom: "inception_3a/3x3"
  bottom: "inception_3a/5x5"
  bottom: "inception_3a/pool_proj"
  top: "inception_3a/output"
}
layer {
  name: "inception_3b/1x1"
  type: "Convolution"
  bottom: "inception_3a/output"
  top: "inception_3b/1x1"
  param {
    lr_mult: 1
    decay_mult: 1
  }
  param {
    lr_mult: 2
    decay_mult: 0
  }
  convolution_param {
    num_output: 128
    kernel_size: 1
    weight_filler {
      type: "xavier"
      std: 0.03
    }
    bias_filler {
      type: "constant"
      value: 0.2
    }
  }
}
layer {
  name: "inception_3b/relu_1x1"
  type: "ReLU"
  bottom: "inception_3b/1x1"
  top: "inception_3b/1x1"
}
layer {
  name: "inception_3b/3x3_reduce"
  type: "Convolution"
  bottom: "inception_3a/output"
  top: "inception_3b/3x3_reduce"
  param {
    lr_mult: 1
    decay_mult: 1
  }
  param {
    lr_mult: 2
    decay_mult: 0
  }
  convolution_param {
    num_output: 128
    kernel_size: 1
    weight_filler {
      type: "xavier"
      std: 0.09
    }
    bias_filler {
      type: "constant"
      value: 0.2
    }
  }
}
layer {
  name: "inception_3b/relu_3x3_reduce"
  type: "ReLU"
  bottom: "inception_3b/3x3_reduce"
  top: "inception_3b/3x3_reduce"
}
layer {
  name: "inception_3b/3x3"
  type: "Convolution"
  bottom: "inception_3b/3x3_reduce"
  top: "inception_3b/3x3"
  param {
    lr_mult: 1
    decay_mult: 1
  }
  param {
    lr_mult: 2
    decay_mult: 0
  }
  convolution_param {
    num_output: 192
    pad: 1
    kernel_size: 3
    weight_filler {
      type: "xavier"
      std: 0.03
    }
    bias_filler {
      type: "constant"
      value: 0.2
    }
  }
}
layer {
  name: "inception_3b/relu_3x3"
  type: "ReLU"
  bottom: "inception_3b/3x3"
  top: "inception_3b/3x3"
}
layer {
  name: "inception_3b/5x5_reduce"
  type: "Convolution"
  bottom: "inception_3a/output"
  top: "inception_3b/5x5_reduce"
  param {
    lr_mult: 1
    decay_mult: 1
  }
  param {
    lr_mult: 2
    decay_mult: 0
  }
  convolution_param {
    num_output: 32
    kernel_size: 1
    weight_filler {
      type: "xavier"
      std: 0.2
    }
    bias_filler {
      type: "constant"
      value: 0.2
    }
  }
}
layer {
  name: "inception_3b/relu_5x5_reduce"
  type: "ReLU"
  bottom: "inception_3b/5x5_reduce"
  top: "inception_3b/5x5_reduce"
}
layer {
  name: "inception_3b/5x5"
  type: "Convolution"
  bottom: "inception_3b/5x5_reduce"
  top: "inception_3b/5x5"
  param {
    lr_mult: 1
    decay_mult: 1
  }
  param {
    lr_mult: 2
    decay_mult: 0
  }
  convolution_param {
    num_output: 96
    pad: 2
    kernel_size: 5
    weight_filler {
      type: "xavier"
      std: 0.03
    }
    bias_filler {
      type: "constant"
      value: 0.2
    }
  }
}
layer {
  name: "inception_3b/relu_5x5"
  type: "ReLU"
  bottom: "inception_3b/5x5"
  top: "inception_3b/5x5"
}
layer {
  name: "inception_3b/pool"
  type: "Pooling"
  bottom: "inception_3a/output"
  top: "inception_3b/pool"
  pooling_param {
    pool: MAX
    kernel_size: 3
    stride: 1
    pad: 1
  }
}
layer {
  name: "inception_3b/pool_proj"
  type: "Convolution"
  bottom: "inception_3b/pool"
  top: "inception_3b/pool_proj"
  param {
    lr_mult: 1
    decay_mult: 1
  }
  param {
    lr_mult: 2
    decay_mult: 0
  }
  convolution_param {
    num_output: 64
    kernel_size: 1
    weight_filler {
      type: "xavier"
      std: 0.1
    }
    bias_filler {
      type: "constant"
      value: 0.2
    }
  }
}
layer {
  name: "inception_3b/relu_pool_proj"
  type: "ReLU"
  bottom: "inception_3b/pool_proj"
  top: "inception_3b/pool_proj"
}
layer {
  name: "inception_3b/output"
  type: "Concat"
  bottom: "inception_3b/1x1"
  bottom: "inception_3b/3x3"
  bottom: "inception_3b/5x5"
  bottom: "inception_3b/pool_proj"
  top: "inception_3b/output"
}
layer {
  name: "pool3/3x3_s2"
  type: "Pooling"
  bottom: "inception_3b/output"
  top: "pool3/3x3_s2"
  pooling_param {
    pool: MAX
    kernel_size: 3
    stride: 2
  }
}
layer {
  name: "inception_4a/1x1"
  type: "Convolution"
  bottom: "pool3/3x3_s2"
  top: "inception_4a/1x1"
  param {
    lr_mult: 1
    decay_mult: 1
  }
  param {
    lr_mult: 2
    decay_mult: 0
  }
  convolution_param {
    num_output: 192
    kernel_size: 1
    weight_filler {
      type: "xavier"
      std: 0.03
    }
    bias_filler {
      type: "constant"
      value: 0.2
    }
  }
}
layer {
  name: "inception_4a/relu_1x1"
  type: "ReLU"
  bottom: "inception_4a/1x1"
  top: "inception_4a/1x1"
}
layer {
  name: "inception_4a/3x3_reduce"
  type: "Convolution"
  bottom: "pool3/3x3_s2"
  top: "inception_4a/3x3_reduce"
  param {
    lr_mult: 1
    decay_mult: 1
  }
  param {
    lr_mult: 2
    decay_mult: 0
  }
  convolution_param {
    num_output: 96
    kernel_size: 1
    weight_filler {
      type: "xavier"
      std: 0.09
    }
    bias_filler {
      type: "constant"
      value: 0.2
    }
  }
}
layer {
  name: "inception_4a/relu_3x3_reduce"
  type: "ReLU"
  bottom: "inception_4a/3x3_reduce"
  top: "inception_4a/3x3_reduce"
}
layer {
  name: "inception_4a/3x3"
  type: "Convolution"
  bottom: "inception_4a/3x3_reduce"
  top: "inception_4a/3x3"
  param {
    lr_mult: 1
    decay_mult: 1
  }
  param {
    lr_mult: 2
    decay_mult: 0
  }
  convolution_param {
    num_output: 208
    pad: 1
    kernel_size: 3
    weight_filler {
      type: "xavier"
      std: 0.03
    }
    bias_filler {
      type: "constant"
      value: 0.2
    }
  }
}
layer {
  name: "inception_4a/relu_3x3"
  type: "ReLU"
  bottom: "inception_4a/3x3"
  top: "inception_4a/3x3"
}
layer {
  name: "inception_4a/5x5_reduce"
  type: "Convolution"
  bottom: "pool3/3x3_s2"
  top: "inception_4a/5x5_reduce"
  param {
    lr_mult: 1
    decay_mult: 1
  }
  param {
    lr_mult: 2
    decay_mult: 0
  }
  convolution_param {
    num_output: 16
    kernel_size: 1
    weight_filler {
      type: "xavier"
      std: 0.2
    }
    bias_filler {
      type: "constant"
      value: 0.2
    }
  }
}
layer {
  name: "inception_4a/relu_5x5_reduce"
  type: "ReLU"
  bottom: "inception_4a/5x5_reduce"
  top: "inception_4a/5x5_reduce"
}
layer {
  name: "inception_4a/5x5"
  type: "Convolution"
  bottom: "inception_4a/5x5_reduce"
  top: "inception_4a/5x5"
  param {
    lr_mult: 1
    decay_mult: 1
  }
  param {
    lr_mult: 2
    decay_mult: 0
  }
  convolution_param {
    num_output: 48
    pad: 2
    kernel_size: 5
    weight_filler {
      type: "xavier"
      std: 0.03
    }
    bias_filler {
      type: "constant"
      value: 0.2
    }
  }
}
layer {
  name: "inception_4a/relu_5x5"
  type: "ReLU"
  bottom: "inception_4a/5x5"
  top: "inception_4a/5x5"
}
layer {
  name: "inception_4a/pool"
  type: "Pooling"
  bottom: "pool3/3x3_s2"
  top: "inception_4a/pool"
  pooling_param {
    pool: MAX
    kernel_size: 3
    stride: 1
    pad: 1
  }
}
layer {
  name: "inception_4a/pool_proj"
  type: "Convolution"
  bottom: "inception_4a/pool"
  top: "inception_4a/pool_proj"
  param {
    lr_mult: 1
    decay_mult: 1
  }
  param {
    lr_mult: 2
    decay_mult: 0
  }
  convolution_param {
    num_output: 64
    kernel_size: 1
    weight_filler {
      type: "xavier"
      std: 0.1
    }
    bias_filler {
      type: "constant"
      value: 0.2
    }
  }
}
layer {
  name: "inception_4a/relu_pool_proj"
  type: "ReLU"
  bottom: "inception_4a/pool_proj"
  top: "inception_4a/pool_proj"
}
layer {
  name: "inception_4a/output"
  type: "Concat"
  bottom: "inception_4a/1x1"
  bottom: "inception_4a/3x3"
  bottom: "inception_4a/5x5"
  bottom: "inception_4a/pool_proj"
  top: "inception_4a/output"
}
layer {
  name: "loss1/ave_pool"
  type: "Pooling"
  bottom: "inception_4a/output"
  top: "loss1/ave_pool"
  pooling_param {
    pool: AVE
    kernel_size: 5
    stride: 3
  }
}
layer {
  name: "loss1/conv"
  type: "Convolution"
  bottom: "loss1/ave_pool"
  top: "loss1/conv"
  param {
    lr_mult: 1
    decay_mult: 1
  }
  param {
    lr_mult: 2
    decay_mult: 0
  }
  convolution_param {
    num_output: 128
    kernel_size: 1
    weight_filler {
      type: "xavier"
      std: 0.08
    }
    bias_filler {
      type: "constant"
      value: 0.2
    }
  }
}
layer {
  name: "loss1/relu_conv"
  type: "ReLU"
  bottom: "loss1/conv"
  top: "loss1/conv"
}
layer {
  name: "loss1/fc"
  type: "InnerProduct"
  bottom: "loss1/conv"
  top: "loss1/fc"
  param {
    lr_mult: 1
    decay_mult: 1
  }
  param {
    lr_mult: 2
    decay_mult: 0
  }
  inner_product_param {
    num_output: 1024
    weight_filler {
      type: "xavier"
      std: 0.02
    }
    bias_filler {
      type: "constant"
      value: 0.2
    }
  }
}
layer {
  name: "loss1/relu_fc"
  type: "ReLU"
  bottom: "loss1/fc"
  top: "loss1/fc"
}
layer {
  name: "loss1/drop_fc"
  type: "Dropout"
  bottom: "loss1/fc"
  top: "loss1/fc"
  dropout_param {
    dropout_ratio: 0.7
  }
}
layer {
  name: "loss1/classifier_plantvillage"
  type: "InnerProduct"
  bottom: "loss1/fc"
  top: "loss1/classifier_plantvillage"
  param {
    lr_mult: 1
    decay_mult: 1
  }
  param {
    lr_mult: 2
    decay_mult: 0
  }
  inner_product_param {
    num_output: 38
    weight_filler {
      type: "xavier"
      std: 0.0009765625
    }
    bias_filler {
      type: "constant"
      value: 0
    }
  }
}
layer {
  name: "inception_4b/1x1"
  type: "Convolution"
  bottom: "inception_4a/output"
  top: "inception_4b/1x1"
  param {
    lr_mult: 1
    decay_mult: 1
  }
  param {
    lr_mult: 2
    decay_mult: 0
  }
  convolution_param {
    num_output: 160
    kernel_size: 1
    weight_filler {
      type: "xavier"
      std: 0.03
    }
    bias_filler {
      type: "constant"
      value: 0.2
    }
  }
}
layer {
  name: "inception_4b/relu_1x1"
  type: "ReLU"
  bottom: "inception_4b/1x1"
  top: "inception_4b/1x1"
}
layer {
  name: "inception_4b/3x3_reduce"
  type: "Convolution"
  bottom: "inception_4a/output"
  top: "inception_4b/3x3_reduce"
  param {
    lr_mult: 1
    decay_mult: 1
  }
  param {
    lr_mult: 2
    decay_mult: 0
  }
  convolution_param {
    num_output: 112
    kernel_size: 1
    weight_filler {
      type: "xavier"
      std: 0.09
    }
    bias_filler {
      type: "constant"
      value: 0.2
    }
  }
}
layer {
  name: "inception_4b/relu_3x3_reduce"
  type: "ReLU"
  bottom: "inception_4b/3x3_reduce"
  top: "inception_4b/3x3_reduce"
}
layer {
  name: "inception_4b/3x3"
  type: "Convolution"
  bottom: "inception_4b/3x3_reduce"
  top: "inception_4b/3x3"
  param {
    lr_mult: 1
    decay_mult: 1
  }
  param {
    lr_mult: 2
    decay_mult: 0
  }
  convolution_param {
    num_output: 224
    pad: 1
    kernel_size: 3
    weight_filler {
      type: "xavier"
      std: 0.03
    }
    bias_filler {
      type: "constant"
      value: 0.2
    }
  }
}
layer {
  name: "inception_4b/relu_3x3"
  type: "ReLU"
  bottom: "inception_4b/3x3"
  top: "inception_4b/3x3"
}
layer {
  name: "inception_4b/5x5_reduce"
  type: "Convolution"
  bottom: "inception_4a/output"
  top: "inception_4b/5x5_reduce"
  param {
    lr_mult: 1
    decay_mult: 1
  }
  param {
    lr_mult: 2
    decay_mult: 0
  }
  convolution_param {
    num_output: 24
    kernel_size: 1
    weight_filler {
      type: "xavier"
      std: 0.2
    }
    bias_filler {
      type: "constant"
      value: 0.2
    }
  }
}
layer {
  name: "inception_4b/relu_5x5_reduce"
  type: "ReLU"
  bottom: "inception_4b/5x5_reduce"
  top: "inception_4b/5x5_reduce"
}
layer {
  name: "inception_4b/5x5"
  type: "Convolution"
  bottom: "inception_4b/5x5_reduce"
  top: "inception_4b/5x5"
  param {
    lr_mult: 1
    decay_mult: 1
  }
  param {
    lr_mult: 2
    decay_mult: 0
  }
  convolution_param {
    num_output: 64
    pad: 2
    kernel_size: 5
    weight_filler {
      type: "xavier"
      std: 0.03
    }
    bias_filler {
      type: "constant"
      value: 0.2
    }
  }
}
layer {
  name: "inception_4b/relu_5x5"
  type: "ReLU"
  bottom: "inception_4b/5x5"
  top: "inception_4b/5x5"
}
layer {
  name: "inception_4b/pool"
  type: "Pooling"
  bottom: "inception_4a/output"
  top: "inception_4b/pool"
  pooling_param {
    pool: MAX
    kernel_size: 3
    stride: 1
    pad: 1
  }
}
layer {
  name: "inception_4b/pool_proj"
  type: "Convolution"
  bottom: "inception_4b/pool"
  top: "inception_4b/pool_proj"
  param {
    lr_mult: 1
    decay_mult: 1
  }
  param {
    lr_mult: 2
    decay_mult: 0
  }
  convolution_param {
    num_output: 64
    kernel_size: 1
    weight_filler {
      type: "xavier"
      std: 0.1
    }
    bias_filler {
      type: "constant"
      value: 0.2
    }
  }
}
layer {
  name: "inception_4b/relu_pool_proj"
  type: "ReLU"
  bottom: "inception_4b/pool_proj"
  top: "inception_4b/pool_proj"
}
layer {
  name: "inception_4b/output"
  type: "Concat"
  bottom: "inception_4b/1x1"
  bottom: "inception_4b/3x3"
  bottom: "inception_4b/5x5"
  bottom: "inception_4b/pool_proj"
  top: "inception_4b/output"
}
layer {
  name: "inception_4c/1x1"
  type: "Convolution"
  bottom: "inception_4b/output"
  top: "inception_4c/1x1"
  param {
    lr_mult: 1
    decay_mult: 1
  }
  param {
    lr_mult: 2
    decay_mult: 0
  }
  convolution_param {
    num_output: 128
    kernel_size: 1
    weight_filler {
      type: "xavier"
      std: 0.03
    }
    bias_filler {
      type: "constant"
      value: 0.2
    }
  }
}
layer {
  name: "inception_4c/relu_1x1"
  type: "ReLU"
  bottom: "inception_4c/1x1"
  top: "inception_4c/1x1"
}
layer {
  name: "inception_4c/3x3_reduce"
  type: "Convolution"
  bottom: "inception_4b/output"
  top: "inception_4c/3x3_reduce"
  param {
    lr_mult: 1
    decay_mult: 1
  }
  param {
    lr_mult: 2
    decay_mult: 0
  }
  convolution_param {
    num_output: 128
    kernel_size: 1
    weight_filler {
      type: "xavier"
      std: 0.09
    }
    bias_filler {
      type: "constant"
      value: 0.2
    }
  }
}
layer {
  name: "inception_4c/relu_3x3_reduce"
  type: "ReLU"
  bottom: "inception_4c/3x3_reduce"
  top: "inception_4c/3x3_reduce"
}
layer {
  name: "inception_4c/3x3"
  type: "Convolution"
  bottom: "inception_4c/3x3_reduce"
  top: "inception_4c/3x3"
  param {
    lr_mult: 1
    decay_mult: 1
  }
  param {
    lr_mult: 2
    decay_mult: 0
  }
  convolution_param {
    num_output: 256
    pad: 1
    kernel_size: 3
    weight_filler {
      type: "xavier"
      std: 0.03
    }
    bias_filler {
      type: "constant"
      value: 0.2
    }
  }
}
layer {
  name: "inception_4c/relu_3x3"
  type: "ReLU"
  bottom: "inception_4c/3x3"
  top: "inception_4c/3x3"
}
layer {
  name: "inception_4c/5x5_reduce"
  type: "Convolution"
  bottom: "inception_4b/output"
  top: "inception_4c/5x5_reduce"
  param {
    lr_mult: 1
    decay_mult: 1
  }
  param {
    lr_mult: 2
    decay_mult: 0
  }
  convolution_param {
    num_output: 24
    kernel_size: 1
    weight_filler {
      type: "xavier"
      std: 0.2
    }
    bias_filler {
      type: "constant"
      value: 0.2
    }
  }
}
layer {
  name: "inception_4c/relu_5x5_reduce"
  type: "ReLU"
  bottom: "inception_4c/5x5_reduce"
  top: "inception_4c/5x5_reduce"
}
layer {
  name: "inception_4c/5x5"
  type: "Convolution"
  bottom: "inception_4c/5x5_reduce"
  top: "inception_4c/5x5"
  param {
    lr_mult: 1
    decay_mult: 1
  }
  param {
    lr_mult: 2
    decay_mult: 0
  }
  convolution_param {
    num_output: 64
    pad: 2
    kernel_size: 5
    weight_filler {
      type: "xavier"
      std: 0.03
    }
    bias_filler {
      type: "constant"
      value: 0.2
    }
  }
}
layer {
  name: "inception_4c/relu_5x5"
  type: "ReLU"
  bottom: "inception_4c/5x5"
  top: "inception_4c/5x5"
}
layer {
  name: "inception_4c/pool"
  type: "Pooling"
  bottom: "inception_4b/output"
  top: "inception_4c/pool"
  pooling_param {
    pool: MAX
    kernel_size: 3
    stride: 1
    pad: 1
  }
}
layer {
  name: "inception_4c/pool_proj"
  type: "Convolution"
  bottom: "inception_4c/pool"
  top: "inception_4c/pool_proj"
  param {
    lr_mult: 1
    decay_mult: 1
  }
  param {
    lr_mult: 2
    decay_mult: 0
  }
  convolution_param {
    num_output: 64
    kernel_size: 1
    weight_filler {
      type: "xavier"
      std: 0.1
    }
    bias_filler {
      type: "constant"
      value: 0.2
    }
  }
}
layer {
  name: "inception_4c/relu_pool_proj"
  type: "ReLU"
  bottom: "inception_4c/pool_proj"
  top: "inception_4c/pool_proj"
}
layer {
  name: "inception_4c/output"
  type: "Concat"
  bottom: "inception_4c/1x1"
  bottom: "inception_4c/3x3"
  bottom: "inception_4c/5x5"
  bottom: "inception_4c/pool_proj"
  top: "inception_4c/output"
}
layer {
  name: "inception_4d/1x1"
  type: "Convolution"
  bottom: "inception_4c/output"
  top: "inception_4d/1x1"
  param {
    lr_mult: 1
    decay_mult: 1
  }
  param {
    lr_mult: 2
    decay_mult: 0
  }
  convolution_param {
    num_output: 112
    kernel_size: 1
    weight_filler {
      type: "xavier"
      std: 0.03
    }
    bias_filler {
      type: "constant"
      value: 0.2
    }
  }
}
layer {
  name: "inception_4d/relu_1x1"
  type: "ReLU"
  bottom: "inception_4d/1x1"
  top: "inception_4d/1x1"
}
layer {
  name: "inception_4d/3x3_reduce"
  type: "Convolution"
  bottom: "inception_4c/output"
  top: "inception_4d/3x3_reduce"
  param {
    lr_mult: 1
    decay_mult: 1
  }
  param {
    lr_mult: 2
    decay_mult: 0
  }
  convolution_param {
    num_output: 144
    kernel_size: 1
    weight_filler {
      type: "xavier"
      std: 0.09
    }
    bias_filler {
      type: "constant"
      value: 0.2
    }
  }
}
layer {
  name: "inception_4d/relu_3x3_reduce"
  type: "ReLU"
  bottom: "inception_4d/3x3_reduce"
  top: "inception_4d/3x3_reduce"
}
layer {
  name: "inception_4d/3x3"
  type: "Convolution"
  bottom: "inception_4d/3x3_reduce"
  top: "inception_4d/3x3"
  param {
    lr_mult: 1
    decay_mult: 1
  }
  param {
    lr_mult: 2
    decay_mult: 0
  }
  convolution_param {
    num_output: 288
    pad: 1
    kernel_size: 3
    weight_filler {
      type: "xavier"
      std: 0.03
    }
    bias_filler {
      type: "constant"
      value: 0.2
    }
  }
}
layer {
  name: "inception_4d/relu_3x3"
  type: "ReLU"
  bottom: "inception_4d/3x3"
  top: "inception_4d/3x3"
}
layer {
  name: "inception_4d/5x5_reduce"
  type: "Convolution"
  bottom: "inception_4c/output"
  top: "inception_4d/5x5_reduce"
  param {
    lr_mult: 1
    decay_mult: 1
  }
  param {
    lr_mult: 2
    decay_mult: 0
  }
  convolution_param {
    num_output: 32
    kernel_size: 1
    weight_filler {
      type: "xavier"
      std: 0.2
    }
    bias_filler {
      type: "constant"
      value: 0.2
    }
  }
}
layer {
  name: "inception_4d/relu_5x5_reduce"
  type: "ReLU"
  bottom: "inception_4d/5x5_reduce"
  top: "inception_4d/5x5_reduce"
}
layer {
  name: "inception_4d/5x5"
  type: "Convolution"
  bottom: "inception_4d/5x5_reduce"
  top: "inception_4d/5x5"
  param {
    lr_mult: 1
    decay_mult: 1
  }
  param {
    lr_mult: 2
    decay_mult: 0
  }
  convolution_param {
    num_output: 64
    pad: 2
    kernel_size: 5
    weight_filler {
      type: "xavier"
      std: 0.03
    }
    bias_filler {
      type: "constant"
      value: 0.2
    }
  }
}
layer {
  name: "inception_4d/relu_5x5"
  type: "ReLU"
  bottom: "inception_4d/5x5"
  top: "inception_4d/5x5"
}
layer {
  name: "inception_4d/pool"
  type: "Pooling"
  bottom: "inception_4c/output"
  top: "inception_4d/pool"
  pooling_param {
    pool: MAX
    kernel_size: 3
    stride: 1
    pad: 1
  }
}
layer {
  name: "inception_4d/pool_proj"
  type: "Convolution"
  bottom: "inception_4d/pool"
  top: "inception_4d/pool_proj"
  param {
    lr_mult: 1
    decay_mult: 1
  }
  param {
    lr_mult: 2
    decay_mult: 0
  }
  convolution_param {
    num_output: 64
    kernel_size: 1
    weight_filler {
      type: "xavier"
      std: 0.1
    }
    bias_filler {
      type: "constant"
      value: 0.2
    }
  }
}
layer {
  name: "inception_4d/relu_pool_proj"
  type: "ReLU"
  bottom: "inception_4d/pool_proj"
  top: "inception_4d/pool_proj"
}
layer {
  name: "inception_4d/output"
  type: "Concat"
  bottom: "inception_4d/1x1"
  bottom: "inception_4d/3x3"
  bottom: "inception_4d/5x5"
  bottom: "inception_4d/pool_proj"
  top: "inception_4d/output"
}
layer {
  name: "loss2/ave_pool"
  type: "Pooling"
  bottom: "inception_4d/output"
  top: "loss2/ave_pool"
  pooling_param {
    pool: AVE
    kernel_size: 5
    stride: 3
  }
}
layer {
  name: "loss2/conv"
  type: "Convolution"
  bottom: "loss2/ave_pool"
  top: "loss2/conv"
  param {
    lr_mult: 1
    decay_mult: 1
  }
  param {
    lr_mult: 2
    decay_mult: 0
  }
  convolution_param {
    num_output: 128
    kernel_size: 1
    weight_filler {
      type: "xavier"
      std: 0.08
    }
    bias_filler {
      type: "constant"
      value: 0.2
    }
  }
}
layer {
  name: "loss2/relu_conv"
  type: "ReLU"
  bottom: "loss2/conv"
  top: "loss2/conv"
}
layer {
  name: "loss2/fc"
  type: "InnerProduct"
  bottom: "loss2/conv"
  top: "loss2/fc"
  param {
    lr_mult: 1
    decay_mult: 1
  }
  param {
    lr_mult: 2
    decay_mult: 0
  }
  inner_product_param {
    num_output: 1024
    weight_filler {
      type: "xavier"
      std: 0.02
    }
    bias_filler {
      type: "constant"
      value: 0.2
    }
  }
}
layer {
  name: "loss2/relu_fc"
  type: "ReLU"
  bottom: "loss2/fc"
  top: "loss2/fc"
}
layer {
  name: "loss2/drop_fc"
  type: "Dropout"
  bottom: "loss2/fc"
  top: "loss2/fc"
  dropout_param {
    dropout_ratio: 0.7
  }
}
layer {
  name: "loss2/classifier_plantvillage"
  type: "InnerProduct"
  bottom: "loss2/fc"
  top: "loss2/classifier_plantvillage"
  param {
    lr_mult: 1
    decay_mult: 1
  }
  param {
    lr_mult: 2
    decay_mult: 0
  }
  inner_product_param {
    num_output: 38
    weight_filler {
      type: "xavier"
      std: 0.0009765625
    }
    bias_filler {
      type: "constant"
      value: 0
    }
  }
}
layer {
  name: "inception_4e/1x1"
  type: "Convolution"
  bottom: "inception_4d/output"
  top: "inception_4e/1x1"
  param {
    lr_mult: 1
    decay_mult: 1
  }
  param {
    lr_mult: 2
    decay_mult: 0
  }
  convolution_param {
    num_output: 256
    kernel_size: 1
    weight_filler {
      type: "xavier"
      std: 0.03
    }
    bias_filler {
      type: "constant"
      value: 0.2
    }
  }
}
layer {
  name: "inception_4e/relu_1x1"
  type: "ReLU"
  bottom: "inception_4e/1x1"
  top: "inception_4e/1x1"
}
layer {
  name: "inception_4e/3x3_reduce"
  type: "Convolution"
  bottom: "inception_4d/output"
  top: "inception_4e/3x3_reduce"
  param {
    lr_mult: 1
    decay_mult: 1
  }
  param {
    lr_mult: 2
    decay_mult: 0
  }
  convolution_param {
    num_output: 160
    kernel_size: 1
    weight_filler {
      type: "xavier"
      std: 0.09
    }
    bias_filler {
      type: "constant"
      value: 0.2
    }
  }
}
layer {
  name: "inception_4e/relu_3x3_reduce"
  type: "ReLU"
  bottom: "inception_4e/3x3_reduce"
  top: "inception_4e/3x3_reduce"
}
layer {
  name: "inception_4e/3x3"
  type: "Convolution"
  bottom: "inception_4e/3x3_reduce"
  top: "inception_4e/3x3"
  param {
    lr_mult: 1
    decay_mult: 1
  }
  param {
    lr_mult: 2
    decay_mult: 0
  }
  convolution_param {
    num_output: 320
    pad: 1
    kernel_size: 3
    weight_filler {
      type: "xavier"
      std: 0.03
    }
    bias_filler {
      type: "constant"
      value: 0.2
    }
  }
}
layer {
  name: "inception_4e/relu_3x3"
  type: "ReLU"
  bottom: "inception_4e/3x3"
  top: "inception_4e/3x3"
}
layer {
  name: "inception_4e/5x5_reduce"
  type: "Convolution"
  bottom: "inception_4d/output"
  top: "inception_4e/5x5_reduce"
  param {
    lr_mult: 1
    decay_mult: 1
  }
  param {
    lr_mult: 2
    decay_mult: 0
  }
  convolution_param {
    num_output: 32
    kernel_size: 1
    weight_filler {
      type: "xavier"
      std: 0.2
    }
    bias_filler {
      type: "constant"
      value: 0.2
    }
  }
}
layer {
  name: "inception_4e/relu_5x5_reduce"
  type: "ReLU"
  bottom: "inception_4e/5x5_reduce"
  top: "inception_4e/5x5_reduce"
}
layer {
  name: "inception_4e/5x5"
  type: "Convolution"
  bottom: "inception_4e/5x5_reduce"
  top: "inception_4
I0403 09:25:48.678051 23602 layer_factory.hpp:77] Creating layer data
I0403 09:25:48.678809 23602 net.cpp:91] Creating Layer data
I0403 09:25:48.678856 23602 net.cpp:399] data -> data
I0403 09:25:48.678918 23602 net.cpp:399] data -> label
I0403 09:25:48.678961 23602 data_transformer.cpp:25] Loading mean file from: /home/mohanty/data/final_dataset/lmdb/grayscale-20-80/mean.binaryproto
I0403 09:25:48.733963 23605 db_lmdb.cpp:38] Opened lmdb /home/mohanty/data/final_dataset/lmdb/grayscale-20-80/train_db
I0403 09:25:48.767592 23602 data_layer.cpp:41] output data size: 24,3,224,224
I0403 09:25:48.799329 23602 net.cpp:141] Setting up data
I0403 09:25:48.799422 23602 net.cpp:148] Top shape: 24 3 224 224 (3612672)
I0403 09:25:48.799451 23602 net.cpp:148] Top shape: 24 (24)
I0403 09:25:48.799470 23602 net.cpp:156] Memory required for data: 14450784
I0403 09:25:48.799556 23602 layer_factory.hpp:77] Creating layer label_data_1_split
I0403 09:25:48.799595 23602 net.cpp:91] Creating Layer label_data_1_split
I0403 09:25:48.799621 23602 net.cpp:425] label_data_1_split <- label
I0403 09:25:48.799659 23602 net.cpp:399] label_data_1_split -> label_data_1_split_0
I0403 09:25:48.799693 23602 net.cpp:399] label_data_1_split -> label_data_1_split_1
I0403 09:25:48.799721 23602 net.cpp:399] label_data_1_split -> label_data_1_split_2
I0403 09:25:48.799800 23602 net.cpp:141] Setting up label_data_1_split
I0403 09:25:48.799831 23602 net.cpp:148] Top shape: 24 (24)
I0403 09:25:48.799852 23602 net.cpp:148] Top shape: 24 (24)
I0403 09:25:48.799875 23602 net.cpp:148] Top shape: 24 (24)
I0403 09:25:48.799893 23602 net.cpp:156] Memory required for data: 14451072
I0403 09:25:48.799912 23602 layer_factory.hpp:77] Creating layer conv1/7x7_s2
I0403 09:25:48.799954 23602 net.cpp:91] Creating Layer conv1/7x7_s2
I0403 09:25:48.799980 23602 net.cpp:425] conv1/7x7_s2 <- data
I0403 09:25:48.800007 23602 net.cpp:399] conv1/7x7_s2 -> conv1/7x7_s2
I0403 09:25:48.801102 23602 net.cpp:141] Setting up conv1/7x7_s2
I0403 09:25:48.801138 23602 net.cpp:148] Top shape: 24 64 112 112 (19267584)
I0403 09:25:48.801159 23602 net.cpp:156] Memory required for data: 91521408
I0403 09:25:48.801201 23602 layer_factory.hpp:77] Creating layer conv1/relu_7x7
I0403 09:25:48.801234 23602 net.cpp:91] Creating Layer conv1/relu_7x7
I0403 09:25:48.801256 23602 net.cpp:425] conv1/relu_7x7 <- conv1/7x7_s2
I0403 09:25:48.801278 23602 net.cpp:386] conv1/relu_7x7 -> conv1/7x7_s2 (in-place)
I0403 09:25:48.801306 23602 net.cpp:141] Setting up conv1/relu_7x7
I0403 09:25:48.801328 23602 net.cpp:148] Top shape: 24 64 112 112 (19267584)
I0403 09:25:48.801347 23602 net.cpp:156] Memory required for data: 168591744
I0403 09:25:48.801365 23602 layer_factory.hpp:77] Creating layer pool1/3x3_s2
I0403 09:25:48.801390 23602 net.cpp:91] Creating Layer pool1/3x3_s2
I0403 09:25:48.801410 23602 net.cpp:425] pool1/3x3_s2 <- conv1/7x7_s2
I0403 09:25:48.801434 23602 net.cpp:399] pool1/3x3_s2 -> pool1/3x3_s2
I0403 09:25:48.801514 23602 net.cpp:141] Setting up pool1/3x3_s2
I0403 09:25:48.801551 23602 net.cpp:148] Top shape: 24 64 56 56 (4816896)
I0403 09:25:48.801571 23602 net.cpp:156] Memory required for data: 187859328
I0403 09:25:48.801590 23602 layer_factory.hpp:77] Creating layer pool1/norm1
I0403 09:25:48.801615 23602 net.cpp:91] Creating Layer pool1/norm1
I0403 09:25:48.801636 23602 net.cpp:425] pool1/norm1 <- pool1/3x3_s2
I0403 09:25:48.801659 23602 net.cpp:399] pool1/norm1 -> pool1/norm1
I0403 09:25:48.801722 23602 net.cpp:141] Setting up pool1/norm1
I0403 09:25:48.801750 23602 net.cpp:148] Top shape: 24 64 56 56 (4816896)
I0403 09:25:48.801770 23602 net.cpp:156] Memory required for data: 207126912
I0403 09:25:48.801789 23602 layer_factory.hpp:77] Creating layer conv2/3x3_reduce
I0403 09:25:48.801815 23602 net.cpp:91] Creating Layer conv2/3x3_reduce
I0403 09:25:48.801836 23602 net.cpp:425] conv2/3x3_reduce <- pool1/norm1
I0403 09:25:48.801862 23602 net.cpp:399] conv2/3x3_reduce -> conv2/3x3_reduce
I0403 09:25:48.804167 23602 net.cpp:141] Setting up conv2/3x3_reduce
I0403 09:25:48.804215 23602 net.cpp:148] Top shape: 24 64 56 56 (4816896)
I0403 09:25:48.804236 23602 net.cpp:156] Memory required for data: 226394496
I0403 09:25:48.804263 23602 layer_factory.hpp:77] Creating layer conv2/relu_3x3_reduce
I0403 09:25:48.804289 23602 net.cpp:91] Creating Layer conv2/relu_3x3_reduce
I0403 09:25:48.804311 23602 net.cpp:425] conv2/relu_3x3_reduce <- conv2/3x3_reduce
I0403 09:25:48.804335 23602 net.cpp:386] conv2/relu_3x3_reduce -> conv2/3x3_reduce (in-place)
I0403 09:25:48.804359 23602 net.cpp:141] Setting up conv2/relu_3x3_reduce
I0403 09:25:48.804381 23602 net.cpp:148] Top shape: 24 64 56 56 (4816896)
I0403 09:25:48.804399 23602 net.cpp:156] Memory required for data: 245662080
I0403 09:25:48.804419 23602 layer_factory.hpp:77] Creating layer conv2/3x3
I0403 09:25:48.804447 23602 net.cpp:91] Creating Layer conv2/3x3
I0403 09:25:48.804471 23602 net.cpp:425] conv2/3x3 <- conv2/3x3_reduce
I0403 09:25:48.804518 23602 net.cpp:399] conv2/3x3 -> conv2/3x3
I0403 09:25:48.806149 23606 blocking_queue.cpp:50] Waiting for data
I0403 09:25:48.806165 23602 net.cpp:141] Setting up conv2/3x3
I0403 09:25:48.806227 23602 net.cpp:148] Top shape: 24 192 56 56 (14450688)
I0403 09:25:48.806249 23602 net.cpp:156] Memory required for data: 303464832
I0403 09:25:48.806293 23602 layer_factory.hpp:77] Creating layer conv2/relu_3x3
I0403 09:25:48.806318 23602 net.cpp:91] Creating Layer conv2/relu_3x3
I0403 09:25:48.806340 23602 net.cpp:425] conv2/relu_3x3 <- conv2/3x3
I0403 09:25:48.806363 23602 net.cpp:386] conv2/relu_3x3 -> conv2/3x3 (in-place)
I0403 09:25:48.806388 23602 net.cpp:141] Setting up conv2/relu_3x3
I0403 09:25:48.806411 23602 net.cpp:148] Top shape: 24 192 56 56 (14450688)
I0403 09:25:48.806430 23602 net.cpp:156] Memory required for data: 361267584
I0403 09:25:48.806449 23602 layer_factory.hpp:77] Creating layer conv2/norm2
I0403 09:25:48.806473 23602 net.cpp:91] Creating Layer conv2/norm2
I0403 09:25:48.806493 23602 net.cpp:425] conv2/norm2 <- conv2/3x3
I0403 09:25:48.806516 23602 net.cpp:399] conv2/norm2 -> conv2/norm2
I0403 09:25:48.806596 23602 net.cpp:141] Setting up conv2/norm2
I0403 09:25:48.806625 23602 net.cpp:148] Top shape: 24 192 56 56 (14450688)
I0403 09:25:48.806644 23602 net.cpp:156] Memory required for data: 419070336
I0403 09:25:48.806663 23602 layer_factory.hpp:77] Creating layer pool2/3x3_s2
I0403 09:25:48.806687 23602 net.cpp:91] Creating Layer pool2/3x3_s2
I0403 09:25:48.806706 23602 net.cpp:425] pool2/3x3_s2 <- conv2/norm2
I0403 09:25:48.806740 23602 net.cpp:399] pool2/3x3_s2 -> pool2/3x3_s2
I0403 09:25:48.806798 23602 net.cpp:141] Setting up pool2/3x3_s2
I0403 09:25:48.806829 23602 net.cpp:148] Top shape: 24 192 28 28 (3612672)
I0403 09:25:48.806849 23602 net.cpp:156] Memory required for data: 433521024
I0403 09:25:48.806867 23602 layer_factory.hpp:77] Creating layer pool2/3x3_s2_pool2/3x3_s2_0_split
I0403 09:25:48.806891 23602 net.cpp:91] Creating Layer pool2/3x3_s2_pool2/3x3_s2_0_split
I0403 09:25:48.806913 23602 net.cpp:425] pool2/3x3_s2_pool2/3x3_s2_0_split <- pool2/3x3_s2
I0403 09:25:48.806937 23602 net.cpp:399] pool2/3x3_s2_pool2/3x3_s2_0_split -> pool2/3x3_s2_pool2/3x3_s2_0_split_0
I0403 09:25:48.806963 23602 net.cpp:399] pool2/3x3_s2_pool2/3x3_s2_0_split -> pool2/3x3_s2_pool2/3x3_s2_0_split_1
I0403 09:25:48.806989 23602 net.cpp:399] pool2/3x3_s2_pool2/3x3_s2_0_split -> pool2/3x3_s2_pool2/3x3_s2_0_split_2
I0403 09:25:48.807015 23602 net.cpp:399] pool2/3x3_s2_pool2/3x3_s2_0_split -> pool2/3x3_s2_pool2/3x3_s2_0_split_3
I0403 09:25:48.807088 23602 net.cpp:141] Setting up pool2/3x3_s2_pool2/3x3_s2_0_split
I0403 09:25:48.807119 23602 net.cpp:148] Top shape: 24 192 28 28 (3612672)
I0403 09:25:48.807140 23602 net.cpp:148] Top shape: 24 192 28 28 (3612672)
I0403 09:25:48.807162 23602 net.cpp:148] Top shape: 24 192 28 28 (3612672)
I0403 09:25:48.807183 23602 net.cpp:148] Top shape: 24 192 28 28 (3612672)
I0403 09:25:48.807201 23602 net.cpp:156] Memory required for data: 491323776
I0403 09:25:48.807219 23602 layer_factory.hpp:77] Creating layer inception_3a/1x1
I0403 09:25:48.807247 23602 net.cpp:91] Creating Layer inception_3a/1x1
I0403 09:25:48.807271 23602 net.cpp:425] inception_3a/1x1 <- pool2/3x3_s2_pool2/3x3_s2_0_split_0
I0403 09:25:48.807297 23602 net.cpp:399] inception_3a/1x1 -> inception_3a/1x1
I0403 09:25:48.808293 23602 net.cpp:141] Setting up inception_3a/1x1
I0403 09:25:48.808331 23602 net.cpp:148] Top shape: 24 64 28 28 (1204224)
I0403 09:25:48.808351 23602 net.cpp:156] Memory required for data: 496140672
I0403 09:25:48.808375 23602 layer_factory.hpp:77] Creating layer inception_3a/relu_1x1
I0403 09:25:48.808400 23602 net.cpp:91] Creating Layer inception_3a/relu_1x1
I0403 09:25:48.808421 23602 net.cpp:425] inception_3a/relu_1x1 <- inception_3a/1x1
I0403 09:25:48.808444 23602 net.cpp:386] inception_3a/relu_1x1 -> inception_3a/1x1 (in-place)
I0403 09:25:48.808470 23602 net.cpp:141] Setting up inception_3a/relu_1x1
I0403 09:25:48.808492 23602 net.cpp:148] Top shape: 24 64 28 28 (1204224)
I0403 09:25:48.808548 23602 net.cpp:156] Memory required for data: 500957568
I0403 09:25:48.808570 23602 layer_factory.hpp:77] Creating layer inception_3a/3x3_reduce
I0403 09:25:48.808598 23602 net.cpp:91] Creating Layer inception_3a/3x3_reduce
I0403 09:25:48.808619 23602 net.cpp:425] inception_3a/3x3_reduce <- pool2/3x3_s2_pool2/3x3_s2_0_split_1
I0403 09:25:48.808645 23602 net.cpp:399] inception_3a/3x3_reduce -> inception_3a/3x3_reduce
I0403 09:25:48.809687 23602 net.cpp:141] Setting up inception_3a/3x3_reduce
I0403 09:25:48.809722 23602 net.cpp:148] Top shape: 24 96 28 28 (1806336)
I0403 09:25:48.809754 23602 net.cpp:156] Memory required for data: 508182912
I0403 09:25:48.809782 23602 layer_factory.hpp:77] Creating layer inception_3a/relu_3x3_reduce
I0403 09:25:48.809808 23602 net.cpp:91] Creating Layer inception_3a/relu_3x3_reduce
I0403 09:25:48.809830 23602 net.cpp:425] inception_3a/relu_3x3_reduce <- inception_3a/3x3_reduce
I0403 09:25:48.809859 23602 net.cpp:386] inception_3a/relu_3x3_reduce -> inception_3a/3x3_reduce (in-place)
I0403 09:25:48.809885 23602 net.cpp:141] Setting up inception_3a/relu_3x3_reduce
I0403 09:25:48.809908 23602 net.cpp:148] Top shape: 24 96 28 28 (1806336)
I0403 09:25:48.809928 23602 net.cpp:156] Memory required for data: 515408256
I0403 09:25:48.809948 23602 layer_factory.hpp:77] Creating layer inception_3a/3x3
I0403 09:25:48.809978 23602 net.cpp:91] Creating Layer inception_3a/3x3
I0403 09:25:48.809999 23602 net.cpp:425] inception_3a/3x3 <- inception_3a/3x3_reduce
I0403 09:25:48.810024 23602 net.cpp:399] inception_3a/3x3 -> inception_3a/3x3
I0403 09:25:48.811059 23602 net.cpp:141] Setting up inception_3a/3x3
I0403 09:25:48.811092 23602 net.cpp:148] Top shape: 24 128 28 28 (2408448)
I0403 09:25:48.811112 23602 net.cpp:156] Memory required for data: 525042048
I0403 09:25:48.811136 23602 layer_factory.hpp:77] Creating layer inception_3a/relu_3x3
I0403 09:25:48.811159 23602 net.cpp:91] Creating Layer inception_3a/relu_3x3
I0403 09:25:48.811180 23602 net.cpp:425] inception_3a/relu_3x3 <- inception_3a/3x3
I0403 09:25:48.811204 23602 net.cpp:386] inception_3a/relu_3x3 -> inception_3a/3x3 (in-place)
I0403 09:25:48.811230 23602 net.cpp:141] Setting up inception_3a/relu_3x3
I0403 09:25:48.811252 23602 net.cpp:148] Top shape: 24 128 28 28 (2408448)
I0403 09:25:48.811274 23602 net.cpp:156] Memory required for data: 534675840
I0403 09:25:48.811292 23602 layer_factory.hpp:77] Creating layer inception_3a/5x5_reduce
I0403 09:25:48.811319 23602 net.cpp:91] Creating Layer inception_3a/5x5_reduce
I0403 09:25:48.811342 23602 net.cpp:425] inception_3a/5x5_reduce <- pool2/3x3_s2_pool2/3x3_s2_0_split_2
I0403 09:25:48.811369 23602 net.cpp:399] inception_3a/5x5_reduce -> inception_3a/5x5_reduce
I0403 09:25:48.811666 23602 net.cpp:141] Setting up inception_3a/5x5_reduce
I0403 09:25:48.811698 23602 net.cpp:148] Top shape: 24 16 28 28 (301056)
I0403 09:25:48.811717 23602 net.cpp:156] Memory required for data: 535880064
I0403 09:25:48.811753 23602 layer_factory.hpp:77] Creating layer inception_3a/relu_5x5_reduce
I0403 09:25:48.811776 23602 net.cpp:91] Creating Layer inception_3a/relu_5x5_reduce
I0403 09:25:48.811799 23602 net.cpp:425] inception_3a/relu_5x5_reduce <- inception_3a/5x5_reduce
I0403 09:25:48.811825 23602 net.cpp:386] inception_3a/relu_5x5_reduce -> inception_3a/5x5_reduce (in-place)
I0403 09:25:48.811851 23602 net.cpp:141] Setting up inception_3a/relu_5x5_reduce
I0403 09:25:48.811874 23602 net.cpp:148] Top shape: 24 16 28 28 (301056)
I0403 09:25:48.811892 23602 net.cpp:156] Memory required for data: 537084288
I0403 09:25:48.811913 23602 layer_factory.hpp:77] Creating layer inception_3a/5x5
I0403 09:25:48.811942 23602 net.cpp:91] Creating Layer inception_3a/5x5
I0403 09:25:48.811965 23602 net.cpp:425] inception_3a/5x5 <- inception_3a/5x5_reduce
I0403 09:25:48.811991 23602 net.cpp:399] inception_3a/5x5 -> inception_3a/5x5
I0403 09:25:48.812331 23602 net.cpp:141] Setting up inception_3a/5x5
I0403 09:25:48.812364 23602 net.cpp:148] Top shape: 24 32 28 28 (602112)
I0403 09:25:48.812402 23602 net.cpp:156] Memory required for data: 539492736
I0403 09:25:48.812427 23602 layer_factory.hpp:77] Creating layer inception_3a/relu_5x5
I0403 09:25:48.812451 23602 net.cpp:91] Creating Layer inception_3a/relu_5x5
I0403 09:25:48.812472 23602 net.cpp:425] inception_3a/relu_5x5 <- inception_3a/5x5
I0403 09:25:48.812501 23602 net.cpp:386] inception_3a/relu_5x5 -> inception_3a/5x5 (in-place)
I0403 09:25:48.812543 23602 net.cpp:141] Setting up inception_3a/relu_5x5
I0403 09:25:48.812568 23602 net.cpp:148] Top shape: 24 32 28 28 (602112)
I0403 09:25:48.812587 23602 net.cpp:156] Memory required for data: 541901184
I0403 09:25:48.812604 23602 layer_factory.hpp:77] Creating layer inception_3a/pool
I0403 09:25:48.812626 23602 net.cpp:91] Creating Layer inception_3a/pool
I0403 09:25:48.812647 23602 net.cpp:425] inception_3a/pool <- pool2/3x3_s2_pool2/3x3_s2_0_split_3
I0403 09:25:48.812670 23602 net.cpp:399] inception_3a/pool -> inception_3a/pool
I0403 09:25:48.812732 23602 net.cpp:141] Setting up inception_3a/pool
I0403 09:25:48.812775 23602 net.cpp:148] Top shape: 24 192 28 28 (3612672)
I0403 09:25:48.812794 23602 net.cpp:156] Memory required for data: 556351872
I0403 09:25:48.812813 23602 layer_factory.hpp:77] Creating layer inception_3a/pool_proj
I0403 09:25:48.812844 23602 net.cpp:91] Creating Layer inception_3a/pool_proj
I0403 09:25:48.812865 23602 net.cpp:425] inception_3a/pool_proj <- inception_3a/pool
I0403 09:25:48.812894 23602 net.cpp:399] inception_3a/pool_proj -> inception_3a/pool_proj
I0403 09:25:48.813184 23602 net.cpp:141] Setting up inception_3a/pool_proj
I0403 09:25:48.813215 23602 net.cpp:148] Top shape: 24 32 28 28 (602112)
I0403 09:25:48.813235 23602 net.cpp:156] Memory required for data: 558760320
I0403 09:25:48.813266 23602 layer_factory.hpp:77] Creating layer inception_3a/relu_pool_proj
I0403 09:25:48.813292 23602 net.cpp:91] Creating Layer inception_3a/relu_pool_proj
I0403 09:25:48.813314 23602 net.cpp:425] inception_3a/relu_pool_proj <- inception_3a/pool_proj
I0403 09:25:48.813336 23602 net.cpp:386] inception_3a/relu_pool_proj -> inception_3a/pool_proj (in-place)
I0403 09:25:48.813362 23602 net.cpp:141] Setting up inception_3a/relu_pool_proj
I0403 09:25:48.813386 23602 net.cpp:148] Top shape: 24 32 28 28 (602112)
I0403 09:25:48.813405 23602 net.cpp:156] Memory required for data: 561168768
I0403 09:25:48.813424 23602 layer_factory.hpp:77] Creating layer inception_3a/output
I0403 09:25:48.813447 23602 net.cpp:91] Creating Layer inception_3a/output
I0403 09:25:48.813468 23602 net.cpp:425] inception_3a/output <- inception_3a/1x1
I0403 09:25:48.813489 23602 net.cpp:425] inception_3a/output <- inception_3a/3x3
I0403 09:25:48.813510 23602 net.cpp:425] inception_3a/output <- inception_3a/5x5
I0403 09:25:48.813532 23602 net.cpp:425] inception_3a/output <- inception_3a/pool_proj
I0403 09:25:48.813587 23602 net.cpp:399] inception_3a/output -> inception_3a/output
I0403 09:25:48.813645 23602 net.cpp:141] Setting up inception_3a/output
I0403 09:25:48.813674 23602 net.cpp:148] Top shape: 24 256 28 28 (4816896)
I0403 09:25:48.813693 23602 net.cpp:156] Memory required for data: 580436352
I0403 09:25:48.813710 23602 layer_factory.hpp:77] Creating layer inception_3a/output_inception_3a/output_0_split
I0403 09:25:48.813735 23602 net.cpp:91] Creating Layer inception_3a/output_inception_3a/output_0_split
I0403 09:25:48.813757 23602 net.cpp:425] inception_3a/output_inception_3a/output_0_split <- inception_3a/output
I0403 09:25:48.813779 23602 net.cpp:399] inception_3a/output_inception_3a/output_0_split -> inception_3a/output_inception_3a/output_0_split_0
I0403 09:25:48.813803 23602 net.cpp:399] inception_3a/output_inception_3a/output_0_split -> inception_3a/output_inception_3a/output_0_split_1
I0403 09:25:48.813829 23602 net.cpp:399] inception_3a/output_inception_3a/output_0_split -> inception_3a/output_inception_3a/output_0_split_2
I0403 09:25:48.813853 23602 net.cpp:399] inception_3a/output_inception_3a/output_0_split -> inception_3a/output_inception_3a/output_0_split_3
I0403 09:25:48.813933 23602 net.cpp:141] Setting up inception_3a/output_inception_3a/output_0_split
I0403 09:25:48.813977 23602 net.cpp:148] Top shape: 24 256 28 28 (4816896)
I0403 09:25:48.813998 23602 net.cpp:148] Top shape: 24 256 28 28 (4816896)
I0403 09:25:48.814019 23602 net.cpp:148] Top shape: 24 256 28 28 (4816896)
I0403 09:25:48.814038 23602 net.cpp:148] Top shape: 24 256 28 28 (4816896)
I0403 09:25:48.814056 23602 net.cpp:156] Memory required for data: 657506688
I0403 09:25:48.814074 23602 layer_factory.hpp:77] Creating layer inception_3b/1x1
I0403 09:25:48.814102 23602 net.cpp:91] Creating Layer inception_3b/1x1
I0403 09:25:48.814124 23602 net.cpp:425] inception_3b/1x1 <- inception_3a/output_inception_3a/output_0_split_0
I0403 09:25:48.814157 23602 net.cpp:399] inception_3b/1x1 -> inception_3b/1x1
I0403 09:25:48.814615 23602 net.cpp:141] Setting up inception_3b/1x1
I0403 09:25:48.814646 23602 net.cpp:148] Top shape: 24 128 28 28 (2408448)
I0403 09:25:48.814666 23602 net.cpp:156] Memory required for data: 667140480
I0403 09:25:48.814689 23602 layer_factory.hpp:77] Creating layer inception_3b/relu_1x1
I0403 09:25:48.814713 23602 net.cpp:91] Creating Layer inception_3b/relu_1x1
I0403 09:25:48.814734 23602 net.cpp:425] inception_3b/relu_1x1 <- inception_3b/1x1
I0403 09:25:48.814759 23602 net.cpp:386] inception_3b/relu_1x1 -> inception_3b/1x1 (in-place)
I0403 09:25:48.814785 23602 net.cpp:141] Setting up inception_3b/relu_1x1
I0403 09:25:48.814805 23602 net.cpp:148] Top shape: 24 128 28 28 (2408448)
I0403 09:25:48.814824 23602 net.cpp:156] Memory required for data: 676774272
I0403 09:25:48.814842 23602 layer_factory.hpp:77] Creating layer inception_3b/3x3_reduce
I0403 09:25:48.814870 23602 net.cpp:91] Creating Layer inception_3b/3x3_reduce
I0403 09:25:48.814891 23602 net.cpp:425] inception_3b/3x3_reduce <- inception_3a/output_inception_3a/output_0_split_1
I0403 09:25:48.814915 23602 net.cpp:399] inception_3b/3x3_reduce -> inception_3b/3x3_reduce
I0403 09:25:48.815368 23602 net.cpp:141] Setting up inception_3b/3x3_reduce
I0403 09:25:48.815402 23602 net.cpp:148] Top shape: 24 128 28 28 (2408448)
I0403 09:25:48.815419 23602 net.cpp:156] Memory required for data: 686408064
I0403 09:25:48.815443 23602 layer_factory.hpp:77] Creating layer inception_3b/relu_3x3_reduce
I0403 09:25:48.815466 23602 net.cpp:91] Creating Layer inception_3b/relu_3x3_reduce
I0403 09:25:48.815486 23602 net.cpp:425] inception_3b/relu_3x3_reduce <- inception_3b/3x3_reduce
I0403 09:25:48.815510 23602 net.cpp:386] inception_3b/relu_3x3_reduce -> inception_3b/3x3_reduce (in-place)
I0403 09:25:48.815541 23602 net.cpp:141] Setting up inception_3b/relu_3x3_reduce
I0403 09:25:48.815564 23602 net.cpp:148] Top shape: 24 128 28 28 (2408448)
I0403 09:25:48.815582 23602 net.cpp:156] Memory required for data: 696041856
I0403 09:25:48.815601 23602 layer_factory.hpp:77] Creating layer inception_3b/3x3
I0403 09:25:48.815632 23602 net.cpp:91] Creating Layer inception_3b/3x3
I0403 09:25:48.815656 23602 net.cpp:425] inception_3b/3x3 <- inception_3b/3x3_reduce
I0403 09:25:48.815680 23602 net.cpp:399] inception_3b/3x3 -> inception_3b/3x3
I0403 09:25:48.818033 23602 net.cpp:141] Setting up inception_3b/3x3
I0403 09:25:48.818068 23602 net.cpp:148] Top shape: 24 192 28 28 (3612672)
I0403 09:25:48.818086 23602 net.cpp:156] Memory required for data: 710492544
I0403 09:25:48.818111 23602 layer_factory.hpp:77] Creating layer inception_3b/relu_3x3
I0403 09:25:48.818135 23602 net.cpp:91] Creating Layer inception_3b/relu_3x3
I0403 09:25:48.818161 23602 net.cpp:425] inception_3b/relu_3x3 <- inception_3b/3x3
I0403 09:25:48.818183 23602 net.cpp:386] inception_3b/relu_3x3 -> inception_3b/3x3 (in-place)
I0403 09:25:48.818208 23602 net.cpp:141] Setting up inception_3b/relu_3x3
I0403 09:25:48.818231 23602 net.cpp:148] Top shape: 24 192 28 28 (3612672)
I0403 09:25:48.818249 23602 net.cpp:156] Memory required for data: 724943232
I0403 09:25:48.818269 23602 layer_factory.hpp:77] Creating layer inception_3b/5x5_reduce
I0403 09:25:48.818296 23602 net.cpp:91] Creating Layer inception_3b/5x5_reduce
I0403 09:25:48.818320 23602 net.cpp:425] inception_3b/5x5_reduce <- inception_3a/output_inception_3a/output_0_split_2
I0403 09:25:48.818368 23602 net.cpp:399] inception_3b/5x5_reduce -> inception_3b/5x5_reduce
I0403 09:25:48.818681 23602 net.cpp:141] Setting up inception_3b/5x5_reduce
I0403 09:25:48.818713 23602 net.cpp:148] Top shape: 24 32 28 28 (602112)
I0403 09:25:48.818732 23602 net.cpp:156] Memory required for data: 727351680
I0403 09:25:48.818755 23602 layer_factory.hpp:77] Creating layer inception_3b/relu_5x5_reduce
I0403 09:25:48.818779 23602 net.cpp:91] Creating Layer inception_3b/relu_5x5_reduce
I0403 09:25:48.818800 23602 net.cpp:425] inception_3b/relu_5x5_reduce <- inception_3b/5x5_reduce
I0403 09:25:48.818827 23602 net.cpp:386] inception_3b/relu_5x5_reduce -> inception_3b/5x5_reduce (in-place)
I0403 09:25:48.818852 23602 net.cpp:141] Setting up inception_3b/relu_5x5_reduce
I0403 09:25:48.818874 23602 net.cpp:148] Top shape: 24 32 28 28 (602112)
I0403 09:25:48.818892 23602 net.cpp:156] Memory required for data: 729760128
I0403 09:25:48.818910 23602 layer_factory.hpp:77] Creating layer inception_3b/5x5
I0403 09:25:48.818939 23602 net.cpp:91] Creating Layer inception_3b/5x5
I0403 09:25:48.818961 23602 net.cpp:425] inception_3b/5x5 <- inception_3b/5x5_reduce
I0403 09:25:48.818986 23602 net.cpp:399] inception_3b/5x5 -> inception_3b/5x5
I0403 09:25:48.820382 23602 net.cpp:141] Setting up inception_3b/5x5
I0403 09:25:48.820420 23602 net.cpp:148] Top shape: 24 96 28 28 (1806336)
I0403 09:25:48.820441 23602 net.cpp:156] Memory required for data: 736985472
I0403 09:25:48.820463 23602 layer_factory.hpp:77] Creating layer inception_3b/relu_5x5
I0403 09:25:48.820489 23602 net.cpp:91] Creating Layer inception_3b/relu_5x5
I0403 09:25:48.820511 23602 net.cpp:425] inception_3b/relu_5x5 <- inception_3b/5x5
I0403 09:25:48.820538 23602 net.cpp:386] inception_3b/relu_5x5 -> inception_3b/5x5 (in-place)
I0403 09:25:48.820564 23602 net.cpp:141] Setting up inception_3b/relu_5x5
I0403 09:25:48.820586 23602 net.cpp:148] Top shape: 24 96 28 28 (1806336)
I0403 09:25:48.820605 23602 net.cpp:156] Memory required for data: 744210816
I0403 09:25:48.820622 23602 layer_factory.hpp:77] Creating layer inception_3b/pool
I0403 09:25:48.820647 23602 net.cpp:91] Creating Layer inception_3b/pool
I0403 09:25:48.820669 23602 net.cpp:425] inception_3b/pool <- inception_3a/output_inception_3a/output_0_split_3
I0403 09:25:48.820691 23602 net.cpp:399] inception_3b/pool -> inception_3b/pool
I0403 09:25:48.820755 23602 net.cpp:141] Setting up inception_3b/pool
I0403 09:25:48.820785 23602 net.cpp:148] Top shape: 24 256 28 28 (4816896)
I0403 09:25:48.820802 23602 net.cpp:156] Memory required for data: 763478400
I0403 09:25:48.820823 23602 layer_factory.hpp:77] Creating layer inception_3b/pool_proj
I0403 09:25:48.820852 23602 net.cpp:91] Creating Layer inception_3b/pool_proj
I0403 09:25:48.820875 23602 net.cpp:425] inception_3b/pool_proj <- inception_3b/pool
I0403 09:25:48.820900 23602 net.cpp:399] inception_3b/pool_proj -> inception_3b/pool_proj
I0403 09:25:48.821257 23602 net.cpp:141] Setting up inception_3b/pool_proj
I0403 09:25:48.821290 23602 net.cpp:148] Top shape: 24 64 28 28 (1204224)
I0403 09:25:48.821308 23602 net.cpp:156] Memory required for data: 768295296
I0403 09:25:48.821331 23602 layer_factory.hpp:77] Creating layer inception_3b/relu_pool_proj
I0403 09:25:48.821354 23602 net.cpp:91] Creating Layer inception_3b/relu_pool_proj
I0403 09:25:48.821375 23602 net.cpp:425] inception_3b/relu_pool_proj <- inception_3b/pool_proj
I0403 09:25:48.821401 23602 net.cpp:386] inception_3b/relu_pool_proj -> inception_3b/pool_proj (in-place)
I0403 09:25:48.821427 23602 net.cpp:141] Setting up inception_3b/relu_pool_proj
I0403 09:25:48.821450 23602 net.cpp:148] Top shape: 24 64 28 28 (1204224)
I0403 09:25:48.821470 23602 net.cpp:156] Memory required for data: 773112192
I0403 09:25:48.821488 23602 layer_factory.hpp:77] Creating layer inception_3b/output
I0403 09:25:48.821509 23602 net.cpp:91] Creating Layer inception_3b/output
I0403 09:25:48.821529 23602 net.cpp:425] inception_3b/output <- inception_3b/1x1
I0403 09:25:48.821573 23602 net.cpp:425] inception_3b/output <- inception_3b/3x3
I0403 09:25:48.821595 23602 net.cpp:425] inception_3b/output <- inception_3b/5x5
I0403 09:25:48.821616 23602 net.cpp:425] inception_3b/output <- inception_3b/pool_proj
I0403 09:25:48.821642 23602 net.cpp:399] inception_3b/output -> inception_3b/output
I0403 09:25:48.821688 23602 net.cpp:141] Setting up inception_3b/output
I0403 09:25:48.821717 23602 net.cpp:148] Top shape: 24 480 28 28 (9031680)
I0403 09:25:48.821737 23602 net.cpp:156] Memory required for data: 809238912
I0403 09:25:48.821755 23602 layer_factory.hpp:77] Creating layer pool3/3x3_s2
I0403 09:25:48.821780 23602 net.cpp:91] Creating Layer pool3/3x3_s2
I0403 09:25:48.821801 23602 net.cpp:425] pool3/3x3_s2 <- inception_3b/output
I0403 09:25:48.821822 23602 net.cpp:399] pool3/3x3_s2 -> pool3/3x3_s2
I0403 09:25:48.821882 23602 net.cpp:141] Setting up pool3/3x3_s2
I0403 09:25:48.821910 23602 net.cpp:148] Top shape: 24 480 14 14 (2257920)
I0403 09:25:48.821930 23602 net.cpp:156] Memory required for data: 818270592
I0403 09:25:48.821949 23602 layer_factory.hpp:77] Creating layer pool3/3x3_s2_pool3/3x3_s2_0_split
I0403 09:25:48.821971 23602 net.cpp:91] Creating Layer pool3/3x3_s2_pool3/3x3_s2_0_split
I0403 09:25:48.821991 23602 net.cpp:425] pool3/3x3_s2_pool3/3x3_s2_0_split <- pool3/3x3_s2
I0403 09:25:48.822016 23602 net.cpp:399] pool3/3x3_s2_pool3/3x3_s2_0_split -> pool3/3x3_s2_pool3/3x3_s2_0_split_0
I0403 09:25:48.822041 23602 net.cpp:399] pool3/3x3_s2_pool3/3x3_s2_0_split -> pool3/3x3_s2_pool3/3x3_s2_0_split_1
I0403 09:25:48.822067 23602 net.cpp:399] pool3/3x3_s2_pool3/3x3_s2_0_split -> pool3/3x3_s2_pool3/3x3_s2_0_split_2
I0403 09:25:48.822093 23602 net.cpp:399] pool3/3x3_s2_pool3/3x3_s2_0_split -> pool3/3x3_s2_pool3/3x3_s2_0_split_3
I0403 09:25:48.822170 23602 net.cpp:141] Setting up pool3/3x3_s2_pool3/3x3_s2_0_split
I0403 09:25:48.822201 23602 net.cpp:148] Top shape: 24 480 14 14 (2257920)
I0403 09:25:48.822222 23602 net.cpp:148] Top shape: 24 480 14 14 (2257920)
I0403 09:25:48.822242 23602 net.cpp:148] Top shape: 24 480 14 14 (2257920)
I0403 09:25:48.822263 23602 net.cpp:148] Top shape: 24 480 14 14 (2257920)
I0403 09:25:48.822280 23602 net.cpp:156] Memory required for data: 854397312
I0403 09:25:48.822299 23602 layer_factory.hpp:77] Creating layer inception_4a/1x1
I0403 09:25:48.822329 23602 net.cpp:91] Creating Layer inception_4a/1x1
I0403 09:25:48.822352 23602 net.cpp:425] inception_4a/1x1 <- pool3/3x3_s2_pool3/3x3_s2_0_split_0
I0403 09:25:48.822378 23602 net.cpp:399] inception_4a/1x1 -> inception_4a/1x1
I0403 09:25:48.823240 23602 net.cpp:141] Setting up inception_4a/1x1
I0403 09:25:48.823274 23602 net.cpp:148] Top shape: 24 192 14 14 (903168)
I0403 09:25:48.823293 23602 net.cpp:156] Memory required for data: 858009984
I0403 09:25:48.823315 23602 layer_factory.hpp:77] Creating layer inception_4a/relu_1x1
I0403 09:25:48.823336 23602 net.cpp:91] Creating Layer inception_4a/relu_1x1
I0403 09:25:48.823355 23602 net.cpp:425] inception_4a/relu_1x1 <- inception_4a/1x1
I0403 09:25:48.823380 23602 net.cpp:386] inception_4a/relu_1x1 -> inception_4a/1x1 (in-place)
I0403 09:25:48.823405 23602 net.cpp:141] Setting up inception_4a/relu_1x1
I0403 09:25:48.823427 23602 net.cpp:148] Top shape: 24 192 14 14 (903168)
I0403 09:25:48.823446 23602 net.cpp:156] Memory required for data: 861622656
I0403 09:25:48.823463 23602 layer_factory.hpp:77] Creating layer inception_4a/3x3_reduce
I0403 09:25:48.823493 23602 net.cpp:91] Creating Layer inception_4a/3x3_reduce
I0403 09:25:48.823516 23602 net.cpp:425] inception_4a/3x3_reduce <- pool3/3x3_s2_pool3/3x3_s2_0_split_1
I0403 09:25:48.823554 23602 net.cpp:399] inception_4a/3x3_reduce -> inception_4a/3x3_reduce
I0403 09:25:48.824117 23602 net.cpp:141] Setting up inception_4a/3x3_reduce
I0403 09:25:48.824149 23602 net.cpp:148] Top shape: 24 96 14 14 (451584)
I0403 09:25:48.824169 23602 net.cpp:156] Memory required for data: 863428992
I0403 09:25:48.824198 23602 layer_factory.hpp:77] Creating layer inception_4a/relu_3x3_reduce
I0403 09:25:48.824239 23602 net.cpp:91] Creating Layer inception_4a/relu_3x3_reduce
I0403 09:25:48.824262 23602 net.cpp:425] inception_4a/relu_3x3_reduce <- inception_4a/3x3_reduce
I0403 09:25:48.824288 23602 net.cpp:386] inception_4a/relu_3x3_reduce -> inception_4a/3x3_reduce (in-place)
I0403 09:25:48.824314 23602 net.cpp:141] Setting up inception_4a/relu_3x3_reduce
I0403 09:25:48.824337 23602 net.cpp:148] Top shape: 24 96 14 14 (451584)
I0403 09:25:48.824355 23602 net.cpp:156] Memory required for data: 865235328
I0403 09:25:48.824374 23602 layer_factory.hpp:77] Creating layer inception_4a/3x3
I0403 09:25:48.824403 23602 net.cpp:91] Creating Layer inception_4a/3x3
I0403 09:25:48.824424 23602 net.cpp:425] inception_4a/3x3 <- inception_4a/3x3_reduce
I0403 09:25:48.824448 23602 net.cpp:399] inception_4a/3x3 -> inception_4a/3x3
I0403 09:25:48.826531 23602 net.cpp:141] Setting up inception_4a/3x3
I0403 09:25:48.826617 23602 net.cpp:148] Top shape: 24 208 14 14 (978432)
I0403 09:25:48.826637 23602 net.cpp:156] Memory required for data: 869149056
I0403 09:25:48.826660 23602 layer_factory.hpp:77] Creating layer inception_4a/relu_3x3
I0403 09:25:48.826683 23602 net.cpp:91] Creating Layer inception_4a/relu_3x3
I0403 09:25:48.826704 23602 net.cpp:425] inception_4a/relu_3x3 <- inception_4a/3x3
I0403 09:25:48.826727 23602 net.cpp:386] inception_4a/relu_3x3 -> inception_4a/3x3 (in-place)
I0403 09:25:48.826751 23602 net.cpp:141] Setting up inception_4a/relu_3x3
I0403 09:25:48.826773 23602 net.cpp:148] Top shape: 24 208 14 14 (978432)
I0403 09:25:48.826792 23602 net.cpp:156] Memory required for data: 873062784
I0403 09:25:48.826812 23602 layer_factory.hpp:77] Creating layer inception_4a/5x5_reduce
I0403 09:25:48.826839 23602 net.cpp:91] Creating Layer inception_4a/5x5_reduce
I0403 09:25:48.826861 23602 net.cpp:425] inception_4a/5x5_reduce <- pool3/3x3_s2_pool3/3x3_s2_0_split_2
I0403 09:25:48.826889 23602 net.cpp:399] inception_4a/5x5_reduce -> inception_4a/5x5_reduce
I0403 09:25:48.827194 23602 net.cpp:141] Setting up inception_4a/5x5_reduce
I0403 09:25:48.827225 23602 net.cpp:148] Top shape: 24 16 14 14 (75264)
I0403 09:25:48.827244 23602 net.cpp:156] Memory required for data: 873363840
I0403 09:25:48.827270 23602 layer_factory.hpp:77] Creating layer inception_4a/relu_5x5_reduce
I0403 09:25:48.827294 23602 net.cpp:91] Creating Layer inception_4a/relu_5x5_reduce
I0403 09:25:48.827316 23602 net.cpp:425] inception_4a/relu_5x5_reduce <- inception_4a/5x5_reduce
I0403 09:25:48.827338 23602 net.cpp:386] inception_4a/relu_5x5_reduce -> inception_4a/5x5_reduce (in-place)
I0403 09:25:48.827365 23602 net.cpp:141] Setting up inception_4a/relu_5x5_reduce
I0403 09:25:48.827386 23602 net.cpp:148] Top shape: 24 16 14 14 (75264)
I0403 09:25:48.827405 23602 net.cpp:156] Memory required for data: 873664896
I0403 09:25:48.827425 23602 layer_factory.hpp:77] Creating layer inception_4a/5x5
I0403 09:25:48.827450 23602 net.cpp:91] Creating Layer inception_4a/5x5
I0403 09:25:48.827471 23602 net.cpp:425] inception_4a/5x5 <- inception_4a/5x5_reduce
I0403 09:25:48.827499 23602 net.cpp:399] inception_4a/5x5 -> inception_4a/5x5
I0403 09:25:48.827880 23602 net.cpp:141] Setting up inception_4a/5x5
I0403 09:25:48.827911 23602 net.cpp:148] Top shape: 24 48 14 14 (225792)
I0403 09:25:48.827931 23602 net.cpp:156] Memory required for data: 874568064
I0403 09:25:48.827955 23602 layer_factory.hpp:77] Creating layer inception_4a/relu_5x5
I0403 09:25:48.827976 23602 net.cpp:91] Creating Layer inception_4a/relu_5x5
I0403 09:25:48.827997 23602 net.cpp:425] inception_4a/relu_5x5 <- inception_4a/5x5
I0403 09:25:48.828019 23602 net.cpp:386] inception_4a/relu_5x5 -> inception_4a/5x5 (in-place)
I0403 09:25:48.828042 23602 net.cpp:141] Setting up inception_4a/relu_5x5
I0403 09:25:48.828064 23602 net.cpp:148] Top shape: 24 48 14 14 (225792)
I0403 09:25:48.828083 23602 net.cpp:156] Memory required for data: 875471232
I0403 09:25:48.828102 23602 layer_factory.hpp:77] Creating layer inception_4a/pool
I0403 09:25:48.828131 23602 net.cpp:91] Creating Layer inception_4a/pool
I0403 09:25:48.828153 23602 net.cpp:425] inception_4a/pool <- pool3/3x3_s2_pool3/3x3_s2_0_split_3
I0403 09:25:48.828194 23602 net.cpp:399] inception_4a/pool -> inception_4a/pool
I0403 09:25:48.828260 23602 net.cpp:141] Setting up inception_4a/pool
I0403 09:25:48.828289 23602 net.cpp:148] Top shape: 24 480 14 14 (2257920)
I0403 09:25:48.828308 23602 net.cpp:156] Memory required for data: 884502912
I0403 09:25:48.828327 23602 layer_factory.hpp:77] Creating layer inception_4a/pool_proj
I0403 09:25:48.828356 23602 net.cpp:91] Creating Layer inception_4a/pool_proj
I0403 09:25:48.828378 23602 net.cpp:425] inception_4a/pool_proj <- inception_4a/pool
I0403 09:25:48.828407 23602 net.cpp:399] inception_4a/pool_proj -> inception_4a/pool_proj
I0403 09:25:48.828862 23602 net.cpp:141] Setting up inception_4a/pool_proj
I0403 09:25:48.828896 23602 net.cpp:148] Top shape: 24 64 14 14 (301056)
I0403 09:25:48.828914 23602 net.cpp:156] Memory required for data: 885707136
I0403 09:25:48.828935 23602 layer_factory.hpp:77] Creating layer inception_4a/relu_pool_proj
I0403 09:25:48.828958 23602 net.cpp:91] Creating Layer inception_4a/relu_pool_proj
I0403 09:25:48.828979 23602 net.cpp:425] inception_4a/relu_pool_proj <- inception_4a/pool_proj
I0403 09:25:48.829002 23602 net.cpp:386] inception_4a/relu_pool_proj -> inception_4a/pool_proj (in-place)
I0403 09:25:48.829026 23602 net.cpp:141] Setting up inception_4a/relu_pool_proj
I0403 09:25:48.829049 23602 net.cpp:148] Top shape: 24 64 14 14 (301056)
I0403 09:25:48.829067 23602 net.cpp:156] Memory required for data: 886911360
I0403 09:25:48.829085 23602 layer_factory.hpp:77] Creating layer inception_4a/output
I0403 09:25:48.829107 23602 net.cpp:91] Creating Layer inception_4a/output
I0403 09:25:48.829126 23602 net.cpp:425] inception_4a/output <- inception_4a/1x1
I0403 09:25:48.829147 23602 net.cpp:425] inception_4a/output <- inception_4a/3x3
I0403 09:25:48.829169 23602 net.cpp:425] inception_4a/output <- inception_4a/5x5
I0403 09:25:48.829190 23602 net.cpp:425] inception_4a/output <- inception_4a/pool_proj
I0403 09:25:48.829215 23602 net.cpp:399] inception_4a/output -> inception_4a/output
I0403 09:25:48.829260 23602 net.cpp:141] Setting up inception_4a/output
I0403 09:25:48.829293 23602 net.cpp:148] Top shape: 24 512 14 14 (2408448)
I0403 09:25:48.829313 23602 net.cpp:156] Memory required for data: 896545152
I0403 09:25:48.829332 23602 layer_factory.hpp:77] Creating layer inception_4a/output_inception_4a/output_0_split
I0403 09:25:48.829357 23602 net.cpp:91] Creating Layer inception_4a/output_inception_4a/output_0_split
I0403 09:25:48.829377 23602 net.cpp:425] inception_4a/output_inception_4a/output_0_split <- inception_4a/output
I0403 09:25:48.829401 23602 net.cpp:399] inception_4a/output_inception_4a/output_0_split -> inception_4a/output_inception_4a/output_0_split_0
I0403 09:25:48.829426 23602 net.cpp:399] inception_4a/output_inception_4a/output_0_split -> inception_4a/output_inception_4a/output_0_split_1
I0403 09:25:48.829454 23602 net.cpp:399] inception_4a/output_inception_4a/output_0_split -> inception_4a/output_inception_4a/output_0_split_2
I0403 09:25:48.829481 23602 net.cpp:399] inception_4a/output_inception_4a/output_0_split -> inception_4a/output_inception_4a/output_0_split_3
I0403 09:25:48.829506 23602 net.cpp:399] inception_4a/output_inception_4a/output_0_split -> inception_4a/output_inception_4a/output_0_split_4
I0403 09:25:48.829602 23602 net.cpp:141] Setting up inception_4a/output_inception_4a/output_0_split
I0403 09:25:48.829632 23602 net.cpp:148] Top shape: 24 512 14 14 (2408448)
I0403 09:25:48.829651 23602 net.cpp:148] Top shape: 24 512 14 14 (2408448)
I0403 09:25:48.829671 23602 net.cpp:148] Top shape: 24 512 14 14 (2408448)
I0403 09:25:48.829690 23602 net.cpp:148] Top shape: 24 512 14 14 (2408448)
I0403 09:25:48.829710 23602 net.cpp:148] Top shape: 24 512 14 14 (2408448)
I0403 09:25:48.829726 23602 net.cpp:156] Memory required for data: 944714112
I0403 09:25:48.829746 23602 layer_factory.hpp:77] Creating layer loss1/ave_pool
I0403 09:25:48.829771 23602 net.cpp:91] Creating Layer loss1/ave_pool
I0403 09:25:48.829809 23602 net.cpp:425] loss1/ave_pool <- inception_4a/output_inception_4a/output_0_split_0
I0403 09:25:48.829834 23602 net.cpp:399] loss1/ave_pool -> loss1/ave_pool
I0403 09:25:48.829885 23602 net.cpp:141] Setting up loss1/ave_pool
I0403 09:25:48.829913 23602 net.cpp:148] Top shape: 24 512 4 4 (196608)
I0403 09:25:48.829931 23602 net.cpp:156] Memory required for data: 945500544
I0403 09:25:48.829949 23602 layer_factory.hpp:77] Creating layer loss1/conv
I0403 09:25:48.829978 23602 net.cpp:91] Creating Layer loss1/conv
I0403 09:25:48.830000 23602 net.cpp:425] loss1/conv <- loss1/ave_pool
I0403 09:25:48.830027 23602 net.cpp:399] loss1/conv -> loss1/conv
I0403 09:25:48.830713 23602 net.cpp:141] Setting up loss1/conv
I0403 09:25:48.830744 23602 net.cpp:148] Top shape: 24 128 4 4 (49152)
I0403 09:25:48.830763 23602 net.cpp:156] Memory required for data: 945697152
I0403 09:25:48.830785 23602 layer_factory.hpp:77] Creating layer loss1/relu_conv
I0403 09:25:48.830809 23602 net.cpp:91] Creating Layer loss1/relu_conv
I0403 09:25:48.830829 23602 net.cpp:425] loss1/relu_conv <- loss1/conv
I0403 09:25:48.830852 23602 net.cpp:386] loss1/relu_conv -> loss1/conv (in-place)
I0403 09:25:48.830874 23602 net.cpp:141] Setting up loss1/relu_conv
I0403 09:25:48.830894 23602 net.cpp:148] Top shape: 24 128 4 4 (49152)
I0403 09:25:48.830914 23602 net.cpp:156] Memory required for data: 945893760
I0403 09:25:48.830931 23602 layer_factory.hpp:77] Creating layer loss1/fc
I0403 09:25:48.830960 23602 net.cpp:91] Creating Layer loss1/fc
I0403 09:25:48.830981 23602 net.cpp:425] loss1/fc <- loss1/conv
I0403 09:25:48.831009 23602 net.cpp:399] loss1/fc -> loss1/fc
I0403 09:25:48.850625 23602 net.cpp:141] Setting up loss1/fc
I0403 09:25:48.850679 23602 net.cpp:148] Top shape: 24 1024 (24576)
I0403 09:25:48.850703 23602 net.cpp:156] Memory required for data: 945992064
I0403 09:25:48.850728 23602 layer_factory.hpp:77] Creating layer loss1/relu_fc
I0403 09:25:48.850754 23602 net.cpp:91] Creating Layer loss1/relu_fc
I0403 09:25:48.850776 23602 net.cpp:425] loss1/relu_fc <- loss1/fc
I0403 09:25:48.850800 23602 net.cpp:386] loss1/relu_fc -> loss1/fc (in-place)
I0403 09:25:48.850822 23602 net.cpp:141] Setting up loss1/relu_fc
I0403 09:25:48.850844 23602 net.cpp:148] Top shape: 24 1024 (24576)
I0403 09:25:48.850862 23602 net.cpp:156] Memory required for data: 946090368
I0403 09:25:48.850881 23602 layer_factory.hpp:77] Creating layer loss1/drop_fc
I0403 09:25:48.850921 23602 net.cpp:91] Creating Layer loss1/drop_fc
I0403 09:25:48.850944 23602 net.cpp:425] loss1/drop_fc <- loss1/fc
I0403 09:25:48.850970 23602 net.cpp:386] loss1/drop_fc -> loss1/fc (in-place)
I0403 09:25:48.851027 23602 net.cpp:141] Setting up loss1/drop_fc
I0403 09:25:48.851055 23602 net.cpp:148] Top shape: 24 1024 (24576)
I0403 09:25:48.851074 23602 net.cpp:156] Memory required for data: 946188672
I0403 09:25:48.851094 23602 layer_factory.hpp:77] Creating layer loss1/classifier_plantvillage
I0403 09:25:48.851120 23602 net.cpp:91] Creating Layer loss1/classifier_plantvillage
I0403 09:25:48.851142 23602 net.cpp:425] loss1/classifier_plantvillage <- loss1/fc
I0403 09:25:48.851166 23602 net.cpp:399] loss1/classifier_plantvillage -> loss1/classifier_plantvillage
I0403 09:25:48.852196 23602 net.cpp:141] Setting up loss1/classifier_plantvillage
I0403 09:25:48.852231 23602 net.cpp:148] Top shape: 24 38 (912)
I0403 09:25:48.852249 23602 net.cpp:156] Memory required for data: 946192320
I0403 09:25:48.852273 23602 layer_factory.hpp:77] Creating layer inception_4b/1x1
I0403 09:25:48.852305 23602 net.cpp:91] Creating Layer inception_4b/1x1
I0403 09:25:48.852329 23602 net.cpp:425] inception_4b/1x1 <- inception_4a/output_inception_4a/output_0_split_1
I0403 09:25:48.852354 23602 net.cpp:399] inception_4b/1x1 -> inception_4b/1x1
I0403 09:25:48.853166 23602 net.cpp:141] Setting up inception_4b/1x1
I0403 09:25:48.853199 23602 net.cpp:148] Top shape: 24 160 14 14 (752640)
I0403 09:25:48.853219 23602 net.cpp:156] Memory required for data: 949202880
I0403 09:25:48.853243 23602 layer_factory.hpp:77] Creating layer inception_4b/relu_1x1
I0403 09:25:48.853287 23602 net.cpp:91] Creating Layer inception_4b/relu_1x1
I0403 09:25:48.853308 23602 net.cpp:425] inception_4b/relu_1x1 <- inception_4b/1x1
I0403 09:25:48.853333 23602 net.cpp:386] inception_4b/relu_1x1 -> inception_4b/1x1 (in-place)
I0403 09:25:48.853359 23602 net.cpp:141] Setting up inception_4b/relu_1x1
I0403 09:25:48.853381 23602 net.cpp:148] Top shape: 24 160 14 14 (752640)
I0403 09:25:48.853400 23602 net.cpp:156] Memory required for data: 952213440
I0403 09:25:48.853418 23602 layer_factory.hpp:77] Creating layer inception_4b/3x3_reduce
I0403 09:25:48.853446 23602 net.cpp:91] Creating Layer inception_4b/3x3_reduce
I0403 09:25:48.853467 23602 net.cpp:425] inception_4b/3x3_reduce <- inception_4a/output_inception_4a/output_0_split_2
I0403 09:25:48.853492 23602 net.cpp:399] inception_4b/3x3_reduce -> inception_4b/3x3_reduce
I0403 09:25:48.854146 23602 net.cpp:141] Setting up inception_4b/3x3_reduce
I0403 09:25:48.854178 23602 net.cpp:148] Top shape: 24 112 14 14 (526848)
I0403 09:25:48.854197 23602 net.cpp:156] Memory required for data: 954320832
I0403 09:25:48.854218 23602 layer_factory.hpp:77] Creating layer inception_4b/relu_3x3_reduce
I0403 09:25:48.854251 23602 net.cpp:91] Creating Layer inception_4b/relu_3x3_reduce
I0403 09:25:48.854275 23602 net.cpp:425] inception_4b/relu_3x3_reduce <- inception_4b/3x3_reduce
I0403 09:25:48.854298 23602 net.cpp:386] inception_4b/relu_3x3_reduce -> inception_4b/3x3_reduce (in-place)
I0403 09:25:48.854322 23602 net.cpp:141] Setting up inception_4b/relu_3x3_reduce
I0403 09:25:48.854343 23602 net.cpp:148] Top shape: 24 112 14 14 (526848)
I0403 09:25:48.854362 23602 net.cpp:156] Memory required for data: 956428224
I0403 09:25:48.854382 23602 layer_factory.hpp:77] Creating layer inception_4b/3x3
I0403 09:25:48.854414 23602 net.cpp:91] Creating Layer inception_4b/3x3
I0403 09:25:48.854437 23602 net.cpp:425] inception_4b/3x3 <- inception_4b/3x3_reduce
I0403 09:25:48.854461 23602 net.cpp:399] inception_4b/3x3 -> inception_4b/3x3
I0403 09:25:48.856855 23602 net.cpp:141] Setting up inception_4b/3x3
I0403 09:25:48.856890 23602 net.cpp:148] Top shape: 24 224 14 14 (1053696)
I0403 09:25:48.856909 23602 net.cpp:156] Memory required for data: 960643008
I0403 09:25:48.856932 23602 layer_factory.hpp:77] Creating layer inception_4b/relu_3x3
I0403 09:25:48.856956 23602 net.cpp:91] Creating Layer inception_4b/relu_3x3
I0403 09:25:48.856978 23602 net.cpp:425] inception_4b/relu_3x3 <- inception_4b/3x3
I0403 09:25:48.857003 23602 net.cpp:386] inception_4b/relu_3x3 -> inception_4b/3x3 (in-place)
I0403 09:25:48.857029 23602 net.cpp:141] Setting up inception_4b/relu_3x3
I0403 09:25:48.857051 23602 net.cpp:148] Top shape: 24 224 14 14 (1053696)
I0403 09:25:48.857069 23602 net.cpp:156] Memory required for data: 964857792
I0403 09:25:48.857087 23602 layer_factory.hpp:77] Creating layer inception_4b/5x5_reduce
I0403 09:25:48.857116 23602 net.cpp:91] Creating Layer inception_4b/5x5_reduce
I0403 09:25:48.857138 23602 net.cpp:425] inception_4b/5x5_reduce <- inception_4a/output_inception_4a/output_0_split_3
I0403 09:25:48.857162 23602 net.cpp:399] inception_4b/5x5_reduce -> inception_4b/5x5_reduce
I0403 09:25:48.857508 23602 net.cpp:141] Setting up inception_4b/5x5_reduce
I0403 09:25:48.857543 23602 net.cpp:148] Top shape: 24 24 14 14 (112896)
I0403 09:25:48.857563 23602 net.cpp:156] Memory required for data: 965309376
I0403 09:25:48.857588 23602 layer_factory.hpp:77] Creating layer inception_4b/relu_5x5_reduce
I0403 09:25:48.857609 23602 net.cpp:91] Creating Layer inception_4b/relu_5x5_reduce
I0403 09:25:48.857630 23602 net.cpp:425] inception_4b/relu_5x5_reduce <- inception_4b/5x5_reduce
I0403 09:25:48.857656 23602 net.cpp:386] inception_4b/relu_5x5_reduce -> inception_4b/5x5_reduce (in-place)
I0403 09:25:48.857681 23602 net.cpp:141] Setting up inception_4b/relu_5x5_reduce
I0403 09:25:48.857703 23602 net.cpp:148] Top shape: 24 24 14 14 (112896)
I0403 09:25:48.857723 23602 net.cpp:156] Memory required for data: 965760960
I0403 09:25:48.857740 23602 layer_factory.hpp:77] Creating layer inception_4b/5x5
I0403 09:25:48.857789 23602 net.cpp:91] Creating Layer inception_4b/5x5
I0403 09:25:48.857812 23602 net.cpp:425] inception_4b/5x5 <- inception_4b/5x5_reduce
I0403 09:25:48.857836 23602 net.cpp:399] inception_4b/5x5 -> inception_4b/5x5
I0403 09:25:48.858352 23602 net.cpp:141] Setting up inception_4b/5x5
I0403 09:25:48.858386 23602 net.cpp:148] Top shape: 24 64 14 14 (301056)
I0403 09:25:48.858404 23602 net.cpp:156] Memory required for data: 966965184
I0403 09:25:48.858428 23602 layer_factory.hpp:77] Creating layer inception_4b/relu_5x5
I0403 09:25:48.858450 23602 net.cpp:91] Creating Layer inception_4b/relu_5x5
I0403 09:25:48.858471 23602 net.cpp:425] inception_4b/relu_5x5 <- inception_4b/5x5
I0403 09:25:48.858495 23602 net.cpp:386] inception_4b/relu_5x5 -> inception_4b/5x5 (in-place)
I0403 09:25:48.858520 23602 net.cpp:141] Setting up inception_4b/relu_5x5
I0403 09:25:48.858549 23602 net.cpp:148] Top shape: 24 64 14 14 (301056)
I0403 09:25:48.858567 23602 net.cpp:156] Memory required for data: 968169408
I0403 09:25:48.858587 23602 layer_factory.hpp:77] Creating layer inception_4b/pool
I0403 09:25:48.858608 23602 net.cpp:91] Creating Layer inception_4b/pool
I0403 09:25:48.858628 23602 net.cpp:425] inception_4b/pool <- inception_4a/output_inception_4a/output_0_split_4
I0403 09:25:48.858651 23602 net.cpp:399] inception_4b/pool -> inception_4b/pool
I0403 09:25:48.858716 23602 net.cpp:141] Setting up inception_4b/pool
I0403 09:25:48.858746 23602 net.cpp:148] Top shape: 24 512 14 14 (2408448)
I0403 09:25:48.858763 23602 net.cpp:156] Memory required for data: 977803200
I0403 09:25:48.858782 23602 layer_factory.hpp:77] Creating layer inception_4b/pool_proj
I0403 09:25:48.858809 23602 net.cpp:91] Creating Layer inception_4b/pool_proj
I0403 09:25:48.858831 23602 net.cpp:425] inception_4b/pool_proj <- inception_4b/pool
I0403 09:25:48.858860 23602 net.cpp:399] inception_4b/pool_proj -> inception_4b/pool_proj
I0403 09:25:48.859341 23602 net.cpp:141] Setting up inception_4b/pool_proj
I0403 09:25:48.859376 23602 net.cpp:148] Top shape: 24 64 14 14 (301056)
I0403 09:25:48.859395 23602 net.cpp:156] Memory required for data: 979007424
I0403 09:25:48.859417 23602 layer_factory.hpp:77] Creating layer inception_4b/relu_pool_proj
I0403 09:25:48.859441 23602 net.cpp:91] Creating Layer inception_4b/relu_pool_proj
I0403 09:25:48.859462 23602 net.cpp:425] inception_4b/relu_pool_proj <- inception_4b/pool_proj
I0403 09:25:48.859484 23602 net.cpp:386] inception_4b/relu_pool_proj -> inception_4b/pool_proj (in-place)
I0403 09:25:48.859508 23602 net.cpp:141] Setting up inception_4b/relu_pool_proj
I0403 09:25:48.859529 23602 net.cpp:148] Top shape: 24 64 14 14 (301056)
I0403 09:25:48.859552 23602 net.cpp:156] Memory required for data: 980211648
I0403 09:25:48.859571 23602 layer_factory.hpp:77] Creating layer inception_4b/output
I0403 09:25:48.859594 23602 net.cpp:91] Creating Layer inception_4b/output
I0403 09:25:48.859616 23602 net.cpp:425] inception_4b/output <- inception_4b/1x1
I0403 09:25:48.859637 23602 net.cpp:425] inception_4b/output <- inception_4b/3x3
I0403 09:25:48.859657 23602 net.cpp:425] inception_4b/output <- inception_4b/5x5
I0403 09:25:48.859675 23602 net.cpp:425] inception_4b/output <- inception_4b/pool_proj
I0403 09:25:48.859701 23602 net.cpp:399] inception_4b/output -> inception_4b/output
I0403 09:25:48.859751 23602 net.cpp:141] Setting up inception_4b/output
I0403 09:25:48.859781 23602 net.cpp:148] Top shape: 24 512 14 14 (2408448)
I0403 09:25:48.859800 23602 net.cpp:156] Memory required for data: 989845440
I0403 09:25:48.859819 23602 layer_factory.hpp:77] Creating layer inception_4b/output_inception_4b/output_0_split
I0403 09:25:48.859841 23602 net.cpp:91] Creating Layer inception_4b/output_inception_4b/output_0_split
I0403 09:25:48.859863 23602 net.cpp:425] inception_4b/output_inception_4b/output_0_split <- inception_4b/output
I0403 09:25:48.859884 23602 net.cpp:399] inception_4b/output_inception_4b/output_0_split -> inception_4b/output_inception_4b/output_0_split_0
I0403 09:25:48.859915 23602 net.cpp:399] inception_4b/output_inception_4b/output_0_split -> inception_4b/output_inception_4b/output_0_split_1
I0403 09:25:48.859957 23602 net.cpp:399] inception_4b/output_inception_4b/output_0_split -> inception_4b/output_inception_4b/output_0_split_2
I0403 09:25:48.859985 23602 net.cpp:399] inception_4b/output_inception_4b/output_0_split -> inception_4b/output_inception_4b/output_0_split_3
I0403 09:25:48.860069 23602 net.cpp:141] Setting up inception_4b/output_inception_4b/output_0_split
I0403 09:25:48.860097 23602 net.cpp:148] Top shape: 24 512 14 14 (2408448)
I0403 09:25:48.860116 23602 net.cpp:148] Top shape: 24 512 14 14 (2408448)
I0403 09:25:48.860136 23602 net.cpp:148] Top shape: 24 512 14 14 (2408448)
I0403 09:25:48.860157 23602 net.cpp:148] Top shape: 24 512 14 14 (2408448)
I0403 09:25:48.860173 23602 net.cpp:156] Memory required for data: 1028380608
I0403 09:25:48.860191 23602 layer_factory.hpp:77] Creating layer inception_4c/1x1
I0403 09:25:48.860219 23602 net.cpp:91] Creating Layer inception_4c/1x1
I0403 09:25:48.860242 23602 net.cpp:425] inception_4c/1x1 <- inception_4b/output_inception_4b/output_0_split_0
I0403 09:25:48.860270 23602 net.cpp:399] inception_4c/1x1 -> inception_4c/1x1
I0403 09:25:48.860962 23602 net.cpp:141] Setting up inception_4c/1x1
I0403 09:25:48.860994 23602 net.cpp:148] Top shape: 24 128 14 14 (602112)
I0403 09:25:48.861012 23602 net.cpp:156] Memory required for data: 1030789056
I0403 09:25:48.861034 23602 layer_factory.hpp:77] Creating layer inception_4c/relu_1x1
I0403 09:25:48.861060 23602 net.cpp:91] Creating Layer inception_4c/relu_1x1
I0403 09:25:48.861081 23602 net.cpp:425] inception_4c/relu_1x1 <- inception_4c/1x1
I0403 09:25:48.861104 23602 net.cpp:386] inception_4c/relu_1x1 -> inception_4c/1x1 (in-place)
I0403 09:25:48.861129 23602 net.cpp:141] Setting up inception_4c/relu_1x1
I0403 09:25:48.861150 23602 net.cpp:148] Top shape: 24 128 14 14 (602112)
I0403 09:25:48.861167 23602 net.cpp:156] Memory required for data: 1033197504
I0403 09:25:48.861186 23602 layer_factory.hpp:77] Creating layer inception_4c/3x3_reduce
I0403 09:25:48.861213 23602 net.cpp:91] Creating Layer inception_4c/3x3_reduce
I0403 09:25:48.861235 23602 net.cpp:425] inception_4c/3x3_reduce <- inception_4b/output_inception_4b/output_0_split_1
I0403 09:25:48.861263 23602 net.cpp:399] inception_4c/3x3_reduce -> inception_4c/3x3_reduce
I0403 09:25:48.862591 23602 net.cpp:141] Setting up inception_4c/3x3_reduce
I0403 09:25:48.862624 23602 net.cpp:148] Top shape: 24 128 14 14 (602112)
I0403 09:25:48.862644 23602 net.cpp:156] Memory required for data: 1035605952
I0403 09:25:48.862668 23602 layer_factory.hpp:77] Creating layer inception_4c/relu_3x3_reduce
I0403 09:25:48.862690 23602 net.cpp:91] Creating Layer inception_4c/relu_3x3_reduce
I0403 09:25:48.862711 23602 net.cpp:425] inception_4c/relu_3x3_reduce <- inception_4c/3x3_reduce
I0403 09:25:48.862736 23602 net.cpp:386] inception_4c/relu_3x3_reduce -> inception_4c/3x3_reduce (in-place)
I0403 09:25:48.862762 23602 net.cpp:141] Setting up inception_4c/relu_3x3_reduce
I0403 09:25:48.862783 23602 net.cpp:148] Top shape: 24 128 14 14 (602112)
I0403 09:25:48.862802 23602 net.cpp:156] Memory required for data: 1038014400
I0403 09:25:48.862820 23602 layer_factory.hpp:77] Creating layer inception_4c/3x3
I0403 09:25:48.862850 23602 net.cpp:91] Creating Layer inception_4c/3x3
I0403 09:25:48.862872 23602 net.cpp:425] inception_4c/3x3 <- inception_4c/3x3_reduce
I0403 09:25:48.862897 23602 net.cpp:399] inception_4c/3x3 -> inception_4c/3x3
I0403 09:25:48.865816 23602 net.cpp:141] Setting up inception_4c/3x3
I0403 09:25:48.865852 23602 net.cpp:148] Top shape: 24 256 14 14 (1204224)
I0403 09:25:48.865874 23602 net.cpp:156] Memory required for data: 1042831296
I0403 09:25:48.865914 23602 layer_factory.hpp:77] Creating layer inception_4c/relu_3x3
I0403 09:25:48.865941 23602 net.cpp:91] Creating Layer inception_4c/relu_3x3
I0403 09:25:48.865962 23602 net.cpp:425] inception_4c/relu_3x3 <- inception_4c/3x3
I0403 09:25:48.865988 23602 net.cpp:386] inception_4c/relu_3x3 -> inception_4c/3x3 (in-place)
I0403 09:25:48.866032 23602 net.cpp:141] Setting up inception_4c/relu_3x3
I0403 09:25:48.866056 23602 net.cpp:148] Top shape: 24 256 14 14 (1204224)
I0403 09:25:48.866075 23602 net.cpp:156] Memory required for data: 1047648192
I0403 09:25:48.866092 23602 layer_factory.hpp:77] Creating layer inception_4c/5x5_reduce
I0403 09:25:48.866117 23602 net.cpp:91] Creating Layer inception_4c/5x5_reduce
I0403 09:25:48.866138 23602 net.cpp:425] inception_4c/5x5_reduce <- inception_4b/output_inception_4b/output_0_split_2
I0403 09:25:48.866165 23602 net.cpp:399] inception_4c/5x5_reduce -> inception_4c/5x5_reduce
I0403 09:25:48.866509 23602 net.cpp:141] Setting up inception_4c/5x5_reduce
I0403 09:25:48.866546 23602 net.cpp:148] Top shape: 24 24 14 14 (112896)
I0403 09:25:48.866567 23602 net.cpp:156] Memory required for data: 1048099776
I0403 09:25:48.866590 23602 layer_factory.hpp:77] Creating layer inception_4c/relu_5x5_reduce
I0403 09:25:48.866616 23602 net.cpp:91] Creating Layer inception_4c/relu_5x5_reduce
I0403 09:25:48.866637 23602 net.cpp:425] inception_4c/relu_5x5_reduce <- inception_4c/5x5_reduce
I0403 09:25:48.866658 23602 net.cpp:386] inception_4c/relu_5x5_reduce -> inception_4c/5x5_reduce (in-place)
I0403 09:25:48.866683 23602 net.cpp:141] Setting up inception_4c/relu_5x5_reduce
I0403 09:25:48.866704 23602 net.cpp:148] Top shape: 24 24 14 14 (112896)
I0403 09:25:48.866722 23602 net.cpp:156] Memory required for data: 1048551360
I0403 09:25:48.866739 23602 layer_factory.hpp:77] Creating layer inception_4c/5x5
I0403 09:25:48.866770 23602 net.cpp:91] Creating Layer inception_4c/5x5
I0403 09:25:48.866791 23602 net.cpp:425] inception_4c/5x5 <- inception_4c/5x5_reduce
I0403 09:25:48.866817 23602 net.cpp:399] inception_4c/5x5 -> inception_4c/5x5
I0403 09:25:48.867333 23602 net.cpp:141] Setting up inception_4c/5x5
I0403 09:25:48.867364 23602 net.cpp:148] Top shape: 24 64 14 14 (301056)
I0403 09:25:48.867383 23602 net.cpp:156] Memory required for data: 1049755584
I0403 09:25:48.867403 23602 layer_factory.hpp:77] Creating layer inception_4c/relu_5x5
I0403 09:25:48.867426 23602 net.cpp:91] Creating Layer inception_4c/relu_5x5
I0403 09:25:48.867446 23602 net.cpp:425] inception_4c/relu_5x5 <- inception_4c/5x5
I0403 09:25:48.867470 23602 net.cpp:386] inception_4c/relu_5x5 -> inception_4c/5x5 (in-place)
I0403 09:25:48.867493 23602 net.cpp:141] Setting up inception_4c/relu_5x5
I0403 09:25:48.867513 23602 net.cpp:148] Top shape: 24 64 14 14 (301056)
I0403 09:25:48.867532 23602 net.cpp:156] Memory required for data: 1050959808
I0403 09:25:48.867554 23602 layer_factory.hpp:77] Creating layer inception_4c/pool
I0403 09:25:48.867579 23602 net.cpp:91] Creating Layer inception_4c/pool
I0403 09:25:48.867600 23602 net.cpp:425] inception_4c/pool <- inception_4b/output_inception_4b/output_0_split_3
I0403 09:25:48.867624 23602 net.cpp:399] inception_4c/pool -> inception_4c/pool
I0403 09:25:48.867688 23602 net.cpp:141] Setting up inception_4c/pool
I0403 09:25:48.867717 23602 net.cpp:148] Top shape: 24 512 14 14 (2408448)
I0403 09:25:48.867734 23602 net.cpp:156] Memory required for data: 1060593600
I0403 09:25:48.867753 23602 layer_factory.hpp:77] Creating layer inception_4c/pool_proj
I0403 09:25:48.867781 23602 net.cpp:91] Creating Layer inception_4c/pool_proj
I0403 09:25:48.867802 23602 net.cpp:425] inception_4c/pool_proj <- inception_4c/pool
I0403 09:25:48.867826 23602 net.cpp:399] inception_4c/pool_proj -> inception_4c/pool_proj
I0403 09:25:48.868302 23602 net.cpp:141] Setting up inception_4c/pool_proj
I0403 09:25:48.868332 23602 net.cpp:148] Top shape: 24 64 14 14 (301056)
I0403 09:25:48.868351 23602 net.cpp:156] Memory required for data: 1061797824
I0403 09:25:48.868372 23602 layer_factory.hpp:77] Creating layer inception_4c/relu_pool_proj
I0403 09:25:48.868398 23602 net.cpp:91] Creating Layer inception_4c/relu_pool_proj
I0403 09:25:48.868419 23602 net.cpp:425] inception_4c/relu_pool_proj <- inception_4c/pool_proj
I0403 09:25:48.868441 23602 net.cpp:386] inception_4c/relu_pool_proj -> inception_4c/pool_proj (in-place)
I0403 09:25:48.868464 23602 net.cpp:141] Setting up inception_4c/relu_pool_proj
I0403 09:25:48.868502 23602 net.cpp:148] Top shape: 24 64 14 14 (301056)
I0403 09:25:48.868521 23602 net.cpp:156] Memory required for data: 1063002048
I0403 09:25:48.868546 23602 layer_factory.hpp:77] Creating layer inception_4c/output
I0403 09:25:48.868569 23602 net.cpp:91] Creating Layer inception_4c/output
I0403 09:25:48.868588 23602 net.cpp:425] inception_4c/output <- inception_4c/1x1
I0403 09:25:48.868608 23602 net.cpp:425] inception_4c/output <- inception_4c/3x3
I0403 09:25:48.868628 23602 net.cpp:425] inception_4c/output <- inception_4c/5x5
I0403 09:25:48.868649 23602 net.cpp:425] inception_4c/output <- inception_4c/pool_proj
I0403 09:25:48.868674 23602 net.cpp:399] inception_4c/output -> inception_4c/output
I0403 09:25:48.868721 23602 net.cpp:141] Setting up inception_4c/output
I0403 09:25:48.868749 23602 net.cpp:148] Top shape: 24 512 14 14 (2408448)
I0403 09:25:48.868772 23602 net.cpp:156] Memory required for data: 1072635840
I0403 09:25:48.868790 23602 layer_factory.hpp:77] Creating layer inception_4c/output_inception_4c/output_0_split
I0403 09:25:48.868813 23602 net.cpp:91] Creating Layer inception_4c/output_inception_4c/output_0_split
I0403 09:25:48.868832 23602 net.cpp:425] inception_4c/output_inception_4c/output_0_split <- inception_4c/output
I0403 09:25:48.868855 23602 net.cpp:399] inception_4c/output_inception_4c/output_0_split -> inception_4c/output_inception_4c/output_0_split_0
I0403 09:25:48.868880 23602 net.cpp:399] inception_4c/output_inception_4c/output_0_split -> inception_4c/output_inception_4c/output_0_split_1
I0403 09:25:48.868903 23602 net.cpp:399] inception_4c/output_inception_4c/output_0_split -> inception_4c/output_inception_4c/output_0_split_2
I0403 09:25:48.868928 23602 net.cpp:399] inception_4c/output_inception_4c/output_0_split -> inception_4c/output_inception_4c/output_0_split_3
I0403 09:25:48.869016 23602 net.cpp:141] Setting up inception_4c/output_inception_4c/output_0_split
I0403 09:25:48.869043 23602 net.cpp:148] Top shape: 24 512 14 14 (2408448)
I0403 09:25:48.869063 23602 net.cpp:148] Top shape: 24 512 14 14 (2408448)
I0403 09:25:48.869082 23602 net.cpp:148] Top shape: 24 512 14 14 (2408448)
I0403 09:25:48.869102 23602 net.cpp:148] Top shape: 24 512 14 14 (2408448)
I0403 09:25:48.869119 23602 net.cpp:156] Memory required for data: 1111171008
I0403 09:25:48.869138 23602 layer_factory.hpp:77] Creating layer inception_4d/1x1
I0403 09:25:48.869165 23602 net.cpp:91] Creating Layer inception_4d/1x1
I0403 09:25:48.869187 23602 net.cpp:425] inception_4d/1x1 <- inception_4c/output_inception_4c/output_0_split_0
I0403 09:25:48.869215 23602 net.cpp:399] inception_4d/1x1 -> inception_4d/1x1
I0403 09:25:48.869858 23602 net.cpp:141] Setting up inception_4d/1x1
I0403 09:25:48.869889 23602 net.cpp:148] Top shape: 24 112 14 14 (526848)
I0403 09:25:48.869907 23602 net.cpp:156] Memory required for data: 1113278400
I0403 09:25:48.869930 23602 layer_factory.hpp:77] Creating layer inception_4d/relu_1x1
I0403 09:25:48.869956 23602 net.cpp:91] Creating Layer inception_4d/relu_1x1
I0403 09:25:48.869976 23602 net.cpp:425] inception_4d/relu_1x1 <- inception_4d/1x1
I0403 09:25:48.869998 23602 net.cpp:386] inception_4d/relu_1x1 -> inception_4d/1x1 (in-place)
I0403 09:25:48.870021 23602 net.cpp:141] Setting up inception_4d/relu_1x1
I0403 09:25:48.870043 23602 net.cpp:148] Top shape: 24 112 14 14 (526848)
I0403 09:25:48.870059 23602 net.cpp:156] Memory required for data: 1115385792
I0403 09:25:48.870079 23602 layer_factory.hpp:77] Creating layer inception_4d/3x3_reduce
I0403 09:25:48.870105 23602 net.cpp:91] Creating Layer inception_4d/3x3_reduce
I0403 09:25:48.870126 23602 net.cpp:425] inception_4d/3x3_reduce <- inception_4c/output_inception_4c/output_0_split_1
I0403 09:25:48.870152 23602 net.cpp:399] inception_4d/3x3_reduce -> inception_4d/3x3_reduce
I0403 09:25:48.870925 23602 net.cpp:141] Setting up inception_4d/3x3_reduce
I0403 09:25:48.870956 23602 net.cpp:148] Top shape: 24 144 14 14 (677376)
I0403 09:25:48.870975 23602 net.cpp:156] Memory required for data: 1118095296
I0403 09:25:48.871012 23602 layer_factory.hpp:77] Creating layer inception_4d/relu_3x3_reduce
I0403 09:25:48.871037 23602 net.cpp:91] Creating Layer inception_4d/relu_3x3_reduce
I0403 09:25:48.871057 23602 net.cpp:425] inception_4d/relu_3x3_reduce <- inception_4d/3x3_reduce
I0403 09:25:48.871078 23602 net.cpp:386] inception_4d/relu_3x3_reduce -> inception_4d/3x3_reduce (in-place)
I0403 09:25:48.871103 23602 net.cpp:141] Setting up inception_4d/relu_3x3_reduce
I0403 09:25:48.871124 23602 net.cpp:148] Top shape: 24 144 14 14 (677376)
I0403 09:25:48.871141 23602 net.cpp:156] Memory required for data: 1120804800
I0403 09:25:48.871160 23602 layer_factory.hpp:77] Creating layer inception_4d/3x3
I0403 09:25:48.871188 23602 net.cpp:91] Creating Layer inception_4d/3x3
I0403 09:25:48.871211 23602 net.cpp:425] inception_4d/3x3 <- inception_4d/3x3_reduce
I0403 09:25:48.871237 23602 net.cpp:399] inception_4d/3x3 -> inception_4d/3x3
I0403 09:25:48.875190 23602 net.cpp:141] Setting up inception_4d/3x3
I0403 09:25:48.875228 23602 net.cpp:148] Top shape: 24 288 14 14 (1354752)
I0403 09:25:48.875248 23602 net.cpp:156] Memory required for data: 1126223808
I0403 09:25:48.875272 23602 layer_factory.hpp:77] Creating layer inception_4d/relu_3x3
I0403 09:25:48.875298 23602 net.cpp:91] Creating Layer inception_4d/relu_3x3
I0403 09:25:48.875318 23602 net.cpp:425] inception_4d/relu_3x3 <- inception_4d/3x3
I0403 09:25:48.875342 23602 net.cpp:386] inception_4d/relu_3x3 -> inception_4d/3x3 (in-place)
I0403 09:25:48.875367 23602 net.cpp:141] Setting up inception_4d/relu_3x3
I0403 09:25:48.875391 23602 net.cpp:148] Top shape: 24 288 14 14 (1354752)
I0403 09:25:48.875409 23602 net.cpp:156] Memory required for data: 1131642816
I0403 09:25:48.875427 23602 layer_factory.hpp:77] Creating layer inception_4d/5x5_reduce
I0403 09:25:48.875452 23602 net.cpp:91] Creating Layer inception_4d/5x5_reduce
I0403 09:25:48.875473 23602 net.cpp:425] inception_4d/5x5_reduce <- inception_4c/output_inception_4c/output_0_split_2
I0403 09:25:48.875499 23602 net.cpp:399] inception_4d/5x5_reduce -> inception_4d/5x5_reduce
I0403 09:25:48.875881 23602 net.cpp:141] Setting up inception_4d/5x5_reduce
I0403 09:25:48.875912 23602 net.cpp:148] Top shape: 24 32 14 14 (150528)
I0403 09:25:48.875931 23602 net.cpp:156] Memory required for data: 1132244928
I0403 09:25:48.875952 23602 layer_factory.hpp:77] Creating layer inception_4d/relu_5x5_reduce
I0403 09:25:48.875974 23602 net.cpp:91] Creating Layer inception_4d/relu_5x5_reduce
I0403 09:25:48.875994 23602 net.cpp:425] inception_4d/relu_5x5_reduce <- inception_4d/5x5_reduce
I0403 09:25:48.876018 23602 net.cpp:386] inception_4d/relu_5x5_reduce -> inception_4d/5x5_reduce (in-place)
I0403 09:25:48.876040 23602 net.cpp:141] Setting up inception_4d/relu_5x5_reduce
I0403 09:25:48.876060 23602 net.cpp:148] Top shape: 24 32 14 14 (150528)
I0403 09:25:48.876078 23602 net.cpp:156] Memory required for data: 1132847040
I0403 09:25:48.876096 23602 layer_factory.hpp:77] Creating layer inception_4d/5x5
I0403 09:25:48.876124 23602 net.cpp:91] Creating Layer inception_4d/5x5
I0403 09:25:48.876145 23602 net.cpp:425] inception_4d/5x5 <- inception_4d/5x5_reduce
I0403 09:25:48.876173 23602 net.cpp:399] inception_4d/5x5 -> inception_4d/5x5
I0403 09:25:48.876786 23602 net.cpp:141] Setting up inception_4d/5x5
I0403 09:25:48.876817 23602 net.cpp:148] Top shape: 24 64 14 14 (301056)
I0403 09:25:48.876835 23602 net.cpp:156] Memory required for data: 1134051264
I0403 09:25:48.876857 23602 layer_factory.hpp:77] Creating layer inception_4d/relu_5x5
I0403 09:25:48.876879 23602 net.cpp:91] Creating Layer inception_4d/relu_5x5
I0403 09:25:48.876899 23602 net.cpp:425] inception_4d/relu_5x5 <- inception_4d/5x5
I0403 09:25:48.876924 23602 net.cpp:386] inception_4d/relu_5x5 -> inception_4d/5x5 (in-place)
I0403 09:25:48.876948 23602 net.cpp:141] Setting up inception_4d/relu_5x5
I0403 09:25:48.876971 23602 net.cpp:148] Top shape: 24 64 14 14 (301056)
I0403 09:25:48.876988 23602 net.cpp:156] Memory required for data: 1135255488
I0403 09:25:48.877007 23602 layer_factory.hpp:77] Creating layer inception_4d/pool
I0403 09:25:48.877046 23602 net.cpp:91] Creating Layer inception_4d/pool
I0403 09:25:48.877069 23602 net.cpp:425] inception_4d/pool <- inception_4c/output_inception_4c/output_0_split_3
I0403 09:25:48.877091 23602 net.cpp:399] inception_4d/pool -> inception_4d/pool
I0403 09:25:48.877156 23602 net.cpp:141] Setting up inception_4d/pool
I0403 09:25:48.877184 23602 net.cpp:148] Top shape: 24 512 14 14 (2408448)
I0403 09:25:48.877202 23602 net.cpp:156] Memory required for data: 1144889280
I0403 09:25:48.877220 23602 layer_factory.hpp:77] Creating layer inception_4d/pool_proj
I0403 09:25:48.877249 23602 net.cpp:91] Creating Layer inception_4d/pool_proj
I0403 09:25:48.877269 23602 net.cpp:425] inception_4d/pool_proj <- inception_4d/pool
I0403 09:25:48.877298 23602 net.cpp:399] inception_4d/pool_proj -> inception_4d/pool_proj
I0403 09:25:48.878406 23602 net.cpp:141] Setting up inception_4d/pool_proj
I0403 09:25:48.878443 23602 net.cpp:148] Top shape: 24 64 14 14 (301056)
I0403 09:25:48.878463 23602 net.cpp:156] Memory required for data: 1146093504
I0403 09:25:48.878485 23602 layer_factory.hpp:77] Creating layer inception_4d/relu_pool_proj
I0403 09:25:48.878509 23602 net.cpp:91] Creating Layer inception_4d/relu_pool_proj
I0403 09:25:48.878530 23602 net.cpp:425] inception_4d/relu_pool_proj <- inception_4d/pool_proj
I0403 09:25:48.878557 23602 net.cpp:386] inception_4d/relu_pool_proj -> inception_4d/pool_proj (in-place)
I0403 09:25:48.878583 23602 net.cpp:141] Setting up inception_4d/relu_pool_proj
I0403 09:25:48.878605 23602 net.cpp:148] Top shape: 24 64 14 14 (301056)
I0403 09:25:48.878624 23602 net.cpp:156] Memory required for data: 1147297728
I0403 09:25:48.878643 23602 layer_factory.hpp:77] Creating layer inception_4d/output
I0403 09:25:48.878664 23602 net.cpp:91] Creating Layer inception_4d/output
I0403 09:25:48.878682 23602 net.cpp:425] inception_4d/output <- inception_4d/1x1
I0403 09:25:48.878702 23602 net.cpp:425] inception_4d/output <- inception_4d/3x3
I0403 09:25:48.878722 23602 net.cpp:425] inception_4d/output <- inception_4d/5x5
I0403 09:25:48.878743 23602 net.cpp:425] inception_4d/output <- inception_4d/pool_proj
I0403 09:25:48.878768 23602 net.cpp:399] inception_4d/output -> inception_4d/output
I0403 09:25:48.878815 23602 net.cpp:141] Setting up inception_4d/output
I0403 09:25:48.878847 23602 net.cpp:148] Top shape: 24 528 14 14 (2483712)
I0403 09:25:48.878871 23602 net.cpp:156] Memory required for data: 1157232576
I0403 09:25:48.878890 23602 layer_factory.hpp:77] Creating layer inception_4d/output_inception_4d/output_0_split
I0403 09:25:48.878912 23602 net.cpp:91] Creating Layer inception_4d/output_inception_4d/output_0_split
I0403 09:25:48.878933 23602 net.cpp:425] inception_4d/output_inception_4d/output_0_split <- inception_4d/output
I0403 09:25:48.878955 23602 net.cpp:399] inception_4d/output_inception_4d/output_0_split -> inception_4d/output_inception_4d/output_0_split_0
I0403 09:25:48.878980 23602 net.cpp:399] inception_4d/output_inception_4d/output_0_split -> inception_4d/output_inception_4d/output_0_split_1
I0403 09:25:48.879009 23602 net.cpp:399] inception_4d/output_inception_4d/output_0_split -> inception_4d/output_inception_4d/output_0_split_2
I0403 09:25:48.879036 23602 net.cpp:399] inception_4d/output_inception_4d/output_0_split -> inception_4d/output_inception_4d/output_0_split_3
I0403 09:25:48.879060 23602 net.cpp:399] inception_4d/output_inception_4d/output_0_split -> inception_4d/output_inception_4d/output_0_split_4
I0403 09:25:48.879161 23602 net.cpp:141] Setting up inception_4d/output_inception_4d/output_0_split
I0403 09:25:48.879189 23602 net.cpp:148] Top shape: 24 528 14 14 (2483712)
I0403 09:25:48.879209 23602 net.cpp:148] Top shape: 24 528 14 14 (2483712)
I0403 09:25:48.879228 23602 net.cpp:148] Top shape: 24 528 14 14 (2483712)
I0403 09:25:48.879247 23602 net.cpp:148] Top shape: 24 528 14 14 (2483712)
I0403 09:25:48.879266 23602 net.cpp:148] Top shape: 24 528 14 14 (2483712)
I0403 09:25:48.879286 23602 net.cpp:156] Memory required for data: 1206906816
I0403 09:25:48.879319 23602 layer_factory.hpp:77] Creating layer loss2/ave_pool
I0403 09:25:48.879346 23602 net.cpp:91] Creating Layer loss2/ave_pool
I0403 09:25:48.879367 23602 net.cpp:425] loss2/ave_pool <- inception_4d/output_inception_4d/output_0_split_0
I0403 09:25:48.879390 23602 net.cpp:399] loss2/ave_pool -> loss2/ave_pool
I0403 09:25:48.879441 23602 net.cpp:141] Setting up loss2/ave_pool
I0403 09:25:48.879469 23602 net.cpp:148] Top shape: 24 528 4 4 (202752)
I0403 09:25:48.879487 23602 net.cpp:156] Memory required for data: 1207717824
I0403 09:25:48.879505 23602 layer_factory.hpp:77] Creating layer loss2/conv
I0403 09:25:48.879537 23602 net.cpp:91] Creating Layer loss2/conv
I0403 09:25:48.879560 23602 net.cpp:425] loss2/conv <- loss2/ave_pool
I0403 09:25:48.879587 23602 net.cpp:399] loss2/conv -> loss2/conv
I0403 09:25:48.880928 23602 net.cpp:141] Setting up loss2/conv
I0403 09:25:48.880962 23602 net.cpp:148] Top shape: 24 128 4 4 (49152)
I0403 09:25:48.880981 23602 net.cpp:156] Memory required for data: 1207914432
I0403 09:25:48.881003 23602 layer_factory.hpp:77] Creating layer loss2/relu_conv
I0403 09:25:48.881026 23602 net.cpp:91] Creating Layer loss2/relu_conv
I0403 09:25:48.881047 23602 net.cpp:425] loss2/relu_conv <- loss2/conv
I0403 09:25:48.881073 23602 net.cpp:386] loss2/relu_conv -> loss2/conv (in-place)
I0403 09:25:48.881099 23602 net.cpp:141] Setting up loss2/relu_conv
I0403 09:25:48.881121 23602 net.cpp:148] Top shape: 24 128 4 4 (49152)
I0403 09:25:48.881139 23602 net.cpp:156] Memory required for data: 1208111040
I0403 09:25:48.881156 23602 layer_factory.hpp:77] Creating layer loss2/fc
I0403 09:25:48.881180 23602 net.cpp:91] Creating Layer loss2/fc
I0403 09:25:48.881201 23602 net.cpp:425] loss2/fc <- loss2/conv
I0403 09:25:48.881227 23602 net.cpp:399] loss2/fc -> loss2/fc
I0403 09:25:48.900851 23602 net.cpp:141] Setting up loss2/fc
I0403 09:25:48.900894 23602 net.cpp:148] Top shape: 24 1024 (24576)
I0403 09:25:48.900913 23602 net.cpp:156] Memory required for data: 1208209344
I0403 09:25:48.900935 23602 layer_factory.hpp:77] Creating layer loss2/relu_fc
I0403 09:25:48.900962 23602 net.cpp:91] Creating Layer loss2/relu_fc
I0403 09:25:48.900985 23602 net.cpp:425] loss2/relu_fc <- loss2/fc
I0403 09:25:48.901007 23602 net.cpp:386] loss2/relu_fc -> loss2/fc (in-place)
I0403 09:25:48.901031 23602 net.cpp:141] Setting up loss2/relu_fc
I0403 09:25:48.901052 23602 net.cpp:148] Top shape: 24 1024 (24576)
I0403 09:25:48.901070 23602 net.cpp:156] Memory required for data: 1208307648
I0403 09:25:48.901088 23602 layer_factory.hpp:77] Creating layer loss2/drop_fc
I0403 09:25:48.901111 23602 net.cpp:91] Creating Layer loss2/drop_fc
I0403 09:25:48.901135 23602 net.cpp:425] loss2/drop_fc <- loss2/fc
I0403 09:25:48.901156 23602 net.cpp:386] loss2/drop_fc -> loss2/fc (in-place)
I0403 09:25:48.901202 23602 net.cpp:141] Setting up loss2/drop_fc
I0403 09:25:48.901229 23602 net.cpp:148] Top shape: 24 1024 (24576)
I0403 09:25:48.901247 23602 net.cpp:156] Memory required for data: 1208405952
I0403 09:25:48.901264 23602 layer_factory.hpp:77] Creating layer loss2/classifier_plantvillage
I0403 09:25:48.901291 23602 net.cpp:91] Creating Layer loss2/classifier_plantvillage
I0403 09:25:48.901312 23602 net.cpp:425] loss2/classifier_plantvillage <- loss2/fc
I0403 09:25:48.901337 23602 net.cpp:399] loss2/classifier_plantvillage -> loss2/classifier_plantvillage
I0403 09:25:48.901736 23602 net.cpp:141] Setting up loss2/classifier_plantvillage
I0403 09:25:48.901767 23602 net.cpp:148] Top shape: 24 38 (912)
I0403 09:25:48.901787 23602 net.cpp:156] Memory required for data: 1208409600
I0403 09:25:48.901808 23602 layer_factory.hpp:77] Creating layer inception_4e/1x1
I0403 09:25:48.901839 23602 net.cpp:91] Creating Layer inception_4e/1x1
I0403 09:25:48.901860 23602 net.cpp:425] inception_4e/1x1 <- inception_4d/output_inception_4d/output_0_split_1
I0403 09:25:48.901891 23602 net.cpp:399] inception_4e/1x1 -> inception_4e/1x1
I0403 09:25:48.903064 23602 net.cpp:141] Setting up inception_4e/1x1
I0403 09:25:48.903095 23602 net.cpp:148] Top shape: 24 256 14 14 (1204224)
I0403 09:25:48.903131 23602 net.cpp:156] Memory required for data: 1213226496
I0403 09:25:48.903154 23602 layer_factory.hpp:77] Creating layer inception_4e/relu_1x1
I0403 09:25:48.903177 23602 net.cpp:91] Creating Layer inception_4e/relu_1x1
I0403 09:25:48.903198 23602 net.cpp:425] inception_4e/relu_1x1 <- inception_4e/1x1
I0403 09:25:48.903219 23602 net.cpp:386] inception_4e/relu_1x1 -> inception_4e/1x1 (in-place)
I0403 09:25:48.903244 23602 net.cpp:141] Setting up inception_4e/relu_1x1
I0403 09:25:48.903265 23602 net.cpp:148] Top shape: 24 256 14 14 (1204224)
I0403 09:25:48.903283 23602 net.cpp:156] Memory required for data: 1218043392
I0403 09:25:48.903301 23602 layer_factory.hpp:77] Creating layer inception_4e/3x3_reduce
I0403 09:25:48.903329 23602 net.cpp:91] Creating Layer inception_4e/3x3_reduce
I0403 09:25:48.903352 23602 net.cpp:425] inception_4e/3x3_reduce <- inception_4d/output_inception_4d/output_0_split_2
I0403 09:25:48.903378 23602 net.cpp:399] inception_4e/3x3_reduce -> inception_4e/3x3_reduce
I0403 09:25:48.904842 23602 net.cpp:141] Setting up inception_4e/3x3_reduce
I0403 09:25:48.904877 23602 net.cpp:148] Top shape: 24 160 14 14 (752640)
I0403 09:25:48.904896 23602 net.cpp:156] Memory required for data: 1221053952
I0403 09:25:48.904917 23602 layer_factory.hpp:77] Creating layer inception_4e/relu_3x3_reduce
I0403 09:25:48.904942 23602 net.cpp:91] Creating Layer inception_4e/relu_3x3_reduce
I0403 09:25:48.904961 23602 net.cpp:425] inception_4e/relu_3x3_reduce <- inception_4e/3x3_reduce
I0403 09:25:48.904988 23602 net.cpp:386] inception_4e/relu_3x3_reduce -> inception_4e/3x3_reduce (in-place)
I0403 09:25:48.905014 23602 net.cpp:141] Setting up inception_4e/relu_3x3_reduce
I0403 09:25:48.905035 23602 net.cpp:148] Top shape: 24 160 14 14 (752640)
I0403 09:25:48.905052 23602 net.cpp:156] Memory required for data: 1224064512
I0403 09:25:48.905071 23602 layer_factory.hpp:77] Creating layer inception_4e/3x3
I0403 09:25:48.905099 23602 net.cpp:91] Creating Layer inception_4e/3x3
I0403 09:25:48.905122 23602 net.cpp:425] inception_4e/3x3 <- inception_4e/3x3_reduce
I0403 09:25:48.905146 23602 net.cpp:399] inception_4e/3x3 -> inception_4e/3x3
I0403 09:25:48.909845 23602 net.cpp:141] Setting up inception_4e/3x3
I0403 09:25:48.909883 23602 net.cpp:148] Top shape: 24 320 14 14 (1505280)
I0403 09:25:48.909904 23602 net.cpp:156] Memory required for data: 1230085632
I0403 09:25:48.909927 23602 layer_factory.hpp:77] Creating layer inception_4e/relu_3x3
I0403 09:25:48.909955 23602 net.cpp:91] Creating Layer inception_4e/relu_3x3
I0403 09:25:48.909978 23602 net.cpp:425] inception_4e/relu_3x3 <- inception_4e/3x3
I0403 09:25:48.910002 23602 net.cpp:386] inception_4e/relu_3x3 -> inception_4e/3x3 (in-place)
I0403 09:25:48.910028 23602 net.cpp:141] Setting up inception_4e/relu_3x3
I0403 09:25:48.910050 23602 net.cpp:148] Top shape: 24 320 14 14 (1505280)
I0403 09:25:48.910068 23602 net.cpp:156] Memory required for data: 1236106752
I0403 09:25:48.910085 23602 layer_factory.hpp:77] Creating layer inception_4e/5x5_reduce
I0403 09:25:48.910115 23602 net.cpp:91] Creating Layer inception_4e/5x5_reduce
I0403 09:25:48.910136 23602 net.cpp:425] inception_4e/5x5_reduce <- inception_4d/output_inception_4d/output_0_split_3
I0403 09:25:48.910163 23602 net.cpp:399] inception_4e/5x5_reduce -> inception_4e/5x5_reduce
I0403 09:25:48.910552 23602 net.cpp:141] Setting up inception_4e/5x5_reduce
I0403 09:25:48.910583 23602 net.cpp:148] Top shape: 24 32 14 14 (150528)
I0403 09:25:48.910601 23602 net.cpp:156] Memory required for data: 1236708864
I0403 09:25:48.910624 23602 layer_factory.hpp:77] Creating layer inception_4e/relu_5x5_reduce
I0403 09:25:48.910647 23602 net.cpp:91] Creating Layer inception_4e/relu_5x5_reduce
I0403 09:25:48.910667 23602 net.cpp:425] inception_4e/relu_5x5_reduce <- inception_4e/5x5_reduce
I0403 09:25:48.910689 23602 net.cpp:386] inception_4e/relu_5x5_reduce -> inception_4e/5x5_reduce (in-place)
I0403 09:25:48.910713 23602 net.cpp:141] Setting up inception_4e/relu_5x5_reduce
I0403 09:25:48.910753 23602 net.cpp:148] Top shape: 24 32 14 14 (150528)
I0403 09:25:48.910773 23602 net.cpp:156] Memory required for data: 1237310976
I0403 09:25:48.910790 23602 layer_factory.hpp:77] Creating layer inception_4e/5x5
I0403 09:25:48.910820 23602 net.cpp:91] Creating Layer inception_4e/5x5
I0403 09:25:48.910841 23602 net.cpp:425] inception_4e/5x5 <- inception_4e/5x5_reduce
I0403 09:25:48.910871 23602 net.cpp:399] inception_4e/5x5 -> inception_4e/5x5
I0403 09:25:48.911828 23602 net.cpp:141] Setting up inception_4e/5x5
I0403 09:25:48.911859 23602 net.cpp:148] Top shape: 24 128 14 14 (602112)
I0403 09:25:48.911877 23602 net.cpp:156] Memory required for data: 1239719424
I0403 09:25:48.911900 23602 layer_factory.hpp:77] Creating layer inception_4e/relu_5x5
I0403 09:25:48.911927 23602 net.cpp:91] Creating Layer inception_4e/relu_5x5
I0403 09:25:48.911949 23602 net.cpp:425] inception_4e/relu_5x5 <- inception_4e/5x5
I0403 09:25:48.911972 23602 net.cpp:386] inception_4e/relu_5x5 -> inception_4e/5x5 (in-place)
I0403 09:25:48.911994 23602 net.cpp:141] Setting up inception_4e/relu_5x5
I0403 09:25:48.912016 23602 net.cpp:148] Top shape: 24 128 14 14 (602112)
I0403 09:25:48.912034 23602 net.cpp:156] Memory required for data: 1242127872
I0403 09:25:48.912051 23602 layer_factory.hpp:77] Creating layer inception_4e/pool
I0403 09:25:48.912094 23602 net.cpp:91] Creating Layer inception_4e/pool
I0403 09:25:48.912117 23602 net.cpp:425] inception_4e/pool <- inception_4d/output_inception_4d/output_0_split_4
I0403 09:25:48.912139 23602 net.cpp:399] inception_4e/pool -> inception_4e/pool
I0403 09:25:48.912204 23602 net.cpp:141] Setting up inception_4e/pool
I0403 09:25:48.912232 23602 net.cpp:148] Top shape: 24 528 14 14 (2483712)
I0403 09:25:48.912250 23602 net.cpp:156] Memory required for data: 1252062720
I0403 09:25:48.912268 23602 layer_factory.hpp:77] Creating layer inception_4e/pool_proj
I0403 09:25:48.912297 23602 net.cpp:91] Creating Layer inception_4e/pool_proj
I0403 09:25:48.912318 23602 net.cpp:425] inception_4e/pool_proj <- inception_4e/pool
I0403 09:25:48.912345 23602 net.cpp:399] inception_4e/pool_proj -> inception_4e/pool_proj
I0403 09:25:48.913060 23602 net.cpp:141] Setting up inception_4e/pool_proj
I0403 09:25:48.913091 23602 net.cpp:148] Top shape: 24 128 14 14 (602112)
I0403 09:25:48.913110 23602 net.cpp:156] Memory required for data: 1254471168
I0403 09:25:48.913131 23602 layer_factory.hpp:77] Creating layer inception_4e/relu_pool_proj
I0403 09:25:48.913154 23602 net.cpp:91] Creating Layer inception_4e/relu_pool_proj
I0403 09:25:48.913174 23602 net.cpp:425] inception_4e/relu_pool_proj <- inception_4e/pool_proj
I0403 09:25:48.913197 23602 net.cpp:386] inception_4e/relu_pool_proj -> inception_4e/pool_proj (in-place)
I0403 09:25:48.913220 23602 net.cpp:141] Setting up inception_4e/relu_pool_proj
I0403 09:25:48.913242 23602 net.cpp:148] Top shape: 24 128 14 14 (602112)
I0403 09:25:48.913259 23602 net.cpp:156] Memory required for data: 1256879616
I0403 09:25:48.913277 23602 layer_factory.hpp:77] Creating layer inception_4e/output
I0403 09:25:48.913300 23602 net.cpp:91] Creating Layer inception_4e/output
I0403 09:25:48.913321 23602 net.cpp:425] inception_4e/output <- inception_4e/1x1
I0403 09:25:48.913341 23602 net.cpp:425] inception_4e/output <- inception_4e/3x3
I0403 09:25:48.913362 23602 net.cpp:425] inception_4e/output <- inception_4e/5x5
I0403 09:25:48.913381 23602 net.cpp:425] inception_4e/output <- inception_4e/pool_proj
I0403 09:25:48.913403 23602 net.cpp:399] inception_4e/output -> inception_4e/output
I0403 09:25:48.913451 23602 net.cpp:141] Setting up inception_4e/output
I0403 09:25:48.913480 23602 net.cpp:148] Top shape: 24 832 14 14 (3913728)
I0403 09:25:48.913498 23602 net.cpp:156] Memory required for data: 1272534528
I0403 09:25:48.913517 23602 layer_factory.hpp:77] Creating layer pool4/3x3_s2
I0403 09:25:48.913552 23602 net.cpp:91] Creating Layer pool4/3x3_s2
I0403 09:25:48.913578 23602 net.cpp:425] pool4/3x3_s2 <- inception_4e/output
I0403 09:25:48.913600 23602 net.cpp:399] pool4/3x3_s2 -> pool4/3x3_s2
I0403 09:25:48.913679 23602 net.cpp:141] Setting up pool4/3x3_s2
I0403 09:25:48.913708 23602 net.cpp:148] Top shape: 24 832 7 7 (978432)
I0403 09:25:48.913727 23602 net.cpp:156] Memory required for data: 1276448256
I0403 09:25:48.913744 23602 layer_factory.hpp:77] Creating layer pool4/3x3_s2_pool4/3x3_s2_0_split
I0403 09:25:48.913766 23602 net.cpp:91] Creating Layer pool4/3x3_s2_pool4/3x3_s2_0_split
I0403 09:25:48.913785 23602 net.cpp:425] pool4/3x3_s2_pool4/3x3_s2_0_split <- pool4/3x3_s2
I0403 09:25:48.913810 23602 net.cpp:399] pool4/3x3_s2_pool4/3x3_s2_0_split -> pool4/3x3_s2_pool4/3x3_s2_0_split_0
I0403 09:25:48.913837 23602 net.cpp:399] pool4/3x3_s2_pool4/3x3_s2_0_split -> pool4/3x3_s2_pool4/3x3_s2_0_split_1
I0403 09:25:48.913862 23602 net.cpp:399] pool4/3x3_s2_pool4/3x3_s2_0_split -> pool4/3x3_s2_pool4/3x3_s2_0_split_2
I0403 09:25:48.913887 23602 net.cpp:399] pool4/3x3_s2_pool4/3x3_s2_0_split -> pool4/3x3_s2_pool4/3x3_s2_0_split_3
I0403 09:25:48.913970 23602 net.cpp:141] Setting up pool4/3x3_s2_pool4/3x3_s2_0_split
I0403 09:25:48.914000 23602 net.cpp:148] Top shape: 24 832 7 7 (978432)
I0403 09:25:48.914021 23602 net.cpp:148] Top shape: 24 832 7 7 (978432)
I0403 09:25:48.914041 23602 net.cpp:148] Top shape: 24 832 7 7 (978432)
I0403 09:25:48.914060 23602 net.cpp:148] Top shape: 24 832 7 7 (978432)
I0403 09:25:48.914078 23602 net.cpp:156] Memory required for data: 1292103168
I0403 09:25:48.914096 23602 layer_factory.hpp:77] Creating layer inception_5a/1x1
I0403 09:25:48.914125 23602 net.cpp:91] Creating Layer inception_5a/1x1
I0403 09:25:48.914147 23602 net.cpp:425] inception_5a/1x1 <- pool4/3x3_s2_pool4/3x3_s2_0_split_0
I0403 09:25:48.914171 23602 net.cpp:399] inception_5a/1x1 -> inception_5a/1x1
I0403 09:25:48.916501 23602 net.cpp:141] Setting up inception_5a/1x1
I0403 09:25:48.916541 23602 net.cpp:148] Top shape: 24 256 7 7 (301056)
I0403 09:25:48.916565 23602 net.cpp:156] Memory required for data: 1293307392
I0403 09:25:48.916590 23602 layer_factory.hpp:77] Creating layer inception_5a/relu_1x1
I0403 09:25:48.916615 23602 net.cpp:91] Creating Layer inception_5a/relu_1x1
I0403 09:25:48.916638 23602 net.cpp:425] inception_5a/relu_1x1 <- inception_5a/1x1
I0403 09:25:48.916663 23602 net.cpp:386] inception_5a/relu_1x1 -> inception_5a/1x1 (in-place)
I0403 09:25:48.916687 23602 net.cpp:141] Setting up inception_5a/relu_1x1
I0403 09:25:48.916712 23602 net.cpp:148] Top shape: 24 256 7 7 (301056)
I0403 09:25:48.916730 23602 net.cpp:156] Memory required for data: 1294511616
I0403 09:25:48.916749 23602 layer_factory.hpp:77] Creating layer inception_5a/3x3_reduce
I0403 09:25:48.916780 23602 net.cpp:91] Creating Layer inception_5a/3x3_reduce
I0403 09:25:48.916805 23602 net.cpp:425] inception_5a/3x3_reduce <- pool4/3x3_s2_pool4/3x3_s2_0_split_1
I0403 09:25:48.916833 23602 net.cpp:399] inception_5a/3x3_reduce -> inception_5a/3x3_reduce
I0403 09:25:48.918630 23602 net.cpp:141] Setting up inception_5a/3x3_reduce
I0403 09:25:48.918664 23602 net.cpp:148] Top shape: 24 160 7 7 (188160)
I0403 09:25:48.918683 23602 net.cpp:156] Memory required for data: 1295264256
I0403 09:25:48.918705 23602 layer_factory.hpp:77] Creating layer inception_5a/relu_3x3_reduce
I0403 09:25:48.918730 23602 net.cpp:91] Creating Layer inception_5a/relu_3x3_reduce
I0403 09:25:48.918751 23602 net.cpp:425] inception_5a/relu_3x3_reduce <- inception_5a/3x3_reduce
I0403 09:25:48.918772 23602 net.cpp:386] inception_5a/relu_3x3_reduce -> inception_5a/3x3_reduce (in-place)
I0403 09:25:48.918797 23602 net.cpp:141] Setting up inception_5a/relu_3x3_reduce
I0403 09:25:48.918817 23602 net.cpp:148] Top shape: 24 160 7 7 (188160)
I0403 09:25:48.918835 23602 net.cpp:156] Memory required for data: 1296016896
I0403 09:25:48.918853 23602 layer_factory.hpp:77] Creating layer inception_5a/3x3
I0403 09:25:48.918884 23602 net.cpp:91] Creating Layer inception_5a/3x3
I0403 09:25:48.918905 23602 net.cpp:425] inception_5a/3x3 <- inception_5a/3x3_reduce
I0403 09:25:48.918932 23602 net.cpp:399] inception_5a/3x3 -> inception_5a/3x3
I0403 09:25:48.923653 23602 net.cpp:141] Setting up inception_5a/3x3
I0403 09:25:48.923708 23602 net.cpp:148] Top shape: 24 320 7 7 (376320)
I0403 09:25:48.923732 23602 net.cpp:156] Memory required for data: 1297522176
I0403 09:25:48.923758 23602 layer_factory.hpp:77] Creating layer inception_5a/relu_3x3
I0403 09:25:48.923781 23602 net.cpp:91] Creating Layer inception_5a/relu_3x3
I0403 09:25:48.923802 23602 net.cpp:425] inception_5a/relu_3x3 <- inception_5a/3x3
I0403 09:25:48.923823 23602 net.cpp:386] inception_5a/relu_3x3 -> inception_5a/3x3 (in-place)
I0403 09:25:48.923847 23602 net.cpp:141] Setting up inception_5a/relu_3x3
I0403 09:25:48.923869 23602 net.cpp:148] Top shape: 24 320 7 7 (376320)
I0403 09:25:48.923887 23602 net.cpp:156] Memory required for data: 1299027456
I0403 09:25:48.923905 23602 layer_factory.hpp:77] Creating layer inception_5a/5x5_reduce
I0403 09:25:48.923933 23602 net.cpp:91] Creating Layer inception_5a/5x5_reduce
I0403 09:25:48.923956 23602 net.cpp:425] inception_5a/5x5_reduce <- pool4/3x3_s2_pool4/3x3_s2_0_split_2
I0403 09:25:48.923984 23602 net.cpp:399] inception_5a/5x5_reduce -> inception_5a/5x5_reduce
I0403 09:25:48.924448 23602 net.cpp:141] Setting up inception_5a/5x5_reduce
I0403 09:25:48.924479 23602 net.cpp:148] Top shape: 24 32 7 7 (37632)
I0403 09:25:48.924497 23602 net.cpp:156] Memory required for data: 1299177984
I0403 09:25:48.924520 23602 layer_factory.hpp:77] Creating layer inception_5a/relu_5x5_reduce
I0403 09:25:48.924551 23602 net.cpp:91] Creating Layer inception_5a/relu_5x5_reduce
I0403 09:25:48.924573 23602 net.cpp:425] inception_5a/relu_5x5_reduce <- inception_5a/5x5_reduce
I0403 09:25:48.924594 23602 net.cpp:386] inception_5a/relu_5x5_reduce -> inception_5a/5x5_reduce (in-place)
I0403 09:25:48.924619 23602 net.cpp:141] Setting up inception_5a/relu_5x5_reduce
I0403 09:25:48.924641 23602 net.cpp:148] Top shape: 24 32 7 7 (37632)
I0403 09:25:48.924659 23602 net.cpp:156] Memory required for data: 1299328512
I0403 09:25:48.924676 23602 layer_factory.hpp:77] Creating layer inception_5a/5x5
I0403 09:25:48.924705 23602 net.cpp:91] Creating Layer inception_5a/5x5
I0403 09:25:48.924726 23602 net.cpp:425] inception_5a/5x5 <- inception_5a/5x5_reduce
I0403 09:25:48.924756 23602 net.cpp:399] inception_5a/5x5 -> inception_5a/5x5
I0403 09:25:48.925715 23602 net.cpp:141] Setting up inception_5a/5x5
I0403 09:25:48.925747 23602 net.cpp:148] Top shape: 24 128 7 7 (150528)
I0403 09:25:48.925766 23602 net.cpp:156] Memory required for data: 1299930624
I0403 09:25:48.925787 23602 layer_factory.hpp:77] Creating layer inception_5a/relu_5x5
I0403 09:25:48.925812 23602 net.cpp:91] Creating Layer inception_5a/relu_5x5
I0403 09:25:48.925832 23602 net.cpp:425] inception_5a/relu_5x5 <- inception_5a/5x5
I0403 09:25:48.925854 23602 net.cpp:386] inception_5a/relu_5x5 -> inception_5a/5x5 (in-place)
I0403 09:25:48.925878 23602 net.cpp:141] Setting up inception_5a/relu_5x5
I0403 09:25:48.925899 23602 net.cpp:148] Top shape: 24 128 7 7 (150528)
I0403 09:25:48.925916 23602 net.cpp:156] Memory required for data: 1300532736
I0403 09:25:48.925935 23602 layer_factory.hpp:77] Creating layer inception_5a/pool
I0403 09:25:48.925956 23602 net.cpp:91] Creating Layer inception_5a/pool
I0403 09:25:48.925977 23602 net.cpp:425] inception_5a/pool <- pool4/3x3_s2_pool4/3x3_s2_0_split_3
I0403 09:25:48.926002 23602 net.cpp:399] inception_5a/pool -> inception_5a/pool
I0403 09:25:48.926067 23602 net.cpp:141] Setting up inception_5a/pool
I0403 09:25:48.926096 23602 net.cpp:148] Top shape: 24 832 7 7 (978432)
I0403 09:25:48.926115 23602 net.cpp:156] Memory required for data: 1304446464
I0403 09:25:48.926132 23602 layer_factory.hpp:77] Creating layer inception_5a/pool_proj
I0403 09:25:48.926162 23602 net.cpp:91] Creating Layer inception_5a/pool_proj
I0403 09:25:48.926184 23602 net.cpp:425] inception_5a/pool_proj <- inception_5a/pool
I0403 09:25:48.926210 23602 net.cpp:399] inception_5a/pool_proj -> inception_5a/pool_proj
I0403 09:25:48.927829 23602 net.cpp:141] Setting up inception_5a/pool_proj
I0403 09:25:48.927865 23602 net.cpp:148] Top shape: 24 128 7 7 (150528)
I0403 09:25:48.927882 23602 net.cpp:156] Memory required for data: 1305048576
I0403 09:25:48.927922 23602 layer_factory.hpp:77] Creating layer inception_5a/relu_pool_proj
I0403 09:25:48.927948 23602 net.cpp:91] Creating Layer inception_5a/relu_pool_proj
I0403 09:25:48.927968 23602 net.cpp:425] inception_5a/relu_pool_proj <- inception_5a/pool_proj
I0403 09:25:48.927990 23602 net.cpp:386] inception_5a/relu_pool_proj -> inception_5a/pool_proj (in-place)
I0403 09:25:48.928015 23602 net.cpp:141] Setting up inception_5a/relu_pool_proj
I0403 09:25:48.928037 23602 net.cpp:148] Top shape: 24 128 7 7 (150528)
I0403 09:25:48.928056 23602 net.cpp:156] Memory required for data: 1305650688
I0403 09:25:48.928073 23602 layer_factory.hpp:77] Creating layer inception_5a/output
I0403 09:25:48.928097 23602 net.cpp:91] Creating Layer inception_5a/output
I0403 09:25:48.928118 23602 net.cpp:425] inception_5a/output <- inception_5a/1x1
I0403 09:25:48.928138 23602 net.cpp:425] inception_5a/output <- inception_5a/3x3
I0403 09:25:48.928158 23602 net.cpp:425] inception_5a/output <- inception_5a/5x5
I0403 09:25:48.928179 23602 net.cpp:425] inception_5a/output <- inception_5a/pool_proj
I0403 09:25:48.928201 23602 net.cpp:399] inception_5a/output -> inception_5a/output
I0403 09:25:48.928249 23602 net.cpp:141] Setting up inception_5a/output
I0403 09:25:48.928282 23602 net.cpp:148] Top shape: 24 832 7 7 (978432)
I0403 09:25:48.928299 23602 net.cpp:156] Memory required for data: 1309564416
I0403 09:25:48.928316 23602 layer_factory.hpp:77] Creating layer inception_5a/output_inception_5a/output_0_split
I0403 09:25:48.928339 23602 net.cpp:91] Creating Layer inception_5a/output_inception_5a/output_0_split
I0403 09:25:48.928359 23602 net.cpp:425] inception_5a/output_inception_5a/output_0_split <- inception_5a/output
I0403 09:25:48.928381 23602 net.cpp:399] inception_5a/output_inception_5a/output_0_split -> inception_5a/output_inception_5a/output_0_split_0
I0403 09:25:48.928406 23602 net.cpp:399] inception_5a/output_inception_5a/output_0_split -> inception_5a/output_inception_5a/output_0_split_1
I0403 09:25:48.928434 23602 net.cpp:399] inception_5a/output_inception_5a/output_0_split -> inception_5a/output_inception_5a/output_0_split_2
I0403 09:25:48.928462 23602 net.cpp:399] inception_5a/output_inception_5a/output_0_split -> inception_5a/output_inception_5a/output_0_split_3
I0403 09:25:48.928552 23602 net.cpp:141] Setting up inception_5a/output_inception_5a/output_0_split
I0403 09:25:48.928582 23602 net.cpp:148] Top shape: 24 832 7 7 (978432)
I0403 09:25:48.928602 23602 net.cpp:148] Top shape: 24 832 7 7 (978432)
I0403 09:25:48.928622 23602 net.cpp:148] Top shape: 24 832 7 7 (978432)
I0403 09:25:48.928639 23602 net.cpp:148] Top shape: 24 832 7 7 (978432)
I0403 09:25:48.928655 23602 net.cpp:156] Memory required for data: 1325219328
I0403 09:25:48.928673 23602 layer_factory.hpp:77] Creating layer inception_5b/1x1
I0403 09:25:48.928702 23602 net.cpp:91] Creating Layer inception_5b/1x1
I0403 09:25:48.928725 23602 net.cpp:425] inception_5b/1x1 <- inception_5a/output_inception_5a/output_0_split_0
I0403 09:25:48.928751 23602 net.cpp:399] inception_5b/1x1 -> inception_5b/1x1
I0403 09:25:48.931901 23602 net.cpp:141] Setting up inception_5b/1x1
I0403 09:25:48.931936 23602 net.cpp:148] Top shape: 24 384 7 7 (451584)
I0403 09:25:48.931956 23602 net.cpp:156] Memory required for data: 1327025664
I0403 09:25:48.931977 23602 layer_factory.hpp:77] Creating layer inception_5b/relu_1x1
I0403 09:25:48.932001 23602 net.cpp:91] Creating Layer inception_5b/relu_1x1
I0403 09:25:48.932023 23602 net.cpp:425] inception_5b/relu_1x1 <- inception_5b/1x1
I0403 09:25:48.932044 23602 net.cpp:386] inception_5b/relu_1x1 -> inception_5b/1x1 (in-place)
I0403 09:25:48.932068 23602 net.cpp:141] Setting up inception_5b/relu_1x1
I0403 09:25:48.932090 23602 net.cpp:148] Top shape: 24 384 7 7 (451584)
I0403 09:25:48.932107 23602 net.cpp:156] Memory required for data: 1328832000
I0403 09:25:48.932124 23602 layer_factory.hpp:77] Creating layer inception_5b/3x3_reduce
I0403 09:25:48.932153 23602 net.cpp:91] Creating Layer inception_5b/3x3_reduce
I0403 09:25:48.932191 23602 net.cpp:425] inception_5b/3x3_reduce <- inception_5a/output_inception_5a/output_0_split_1
I0403 09:25:48.932220 23602 net.cpp:399] inception_5b/3x3_reduce -> inception_5b/3x3_reduce
I0403 09:25:48.934330 23602 net.cpp:141] Setting up inception_5b/3x3_reduce
I0403 09:25:48.934365 23602 net.cpp:148] Top shape: 24 192 7 7 (225792)
I0403 09:25:48.934384 23602 net.cpp:156] Memory required for data: 1329735168
I0403 09:25:48.934407 23602 layer_factory.hpp:77] Creating layer inception_5b/relu_3x3_reduce
I0403 09:25:48.934429 23602 net.cpp:91] Creating Layer inception_5b/relu_3x3_reduce
I0403 09:25:48.934450 23602 net.cpp:425] inception_5b/relu_3x3_reduce <- inception_5b/3x3_reduce
I0403 09:25:48.934473 23602 net.cpp:386] inception_5b/relu_3x3_reduce -> inception_5b/3x3_reduce (in-place)
I0403 09:25:48.934496 23602 net.cpp:141] Setting up inception_5b/relu_3x3_reduce
I0403 09:25:48.934519 23602 net.cpp:148] Top shape: 24 192 7 7 (225792)
I0403 09:25:48.934541 23602 net.cpp:156] Memory required for data: 1330638336
I0403 09:25:48.934561 23602 layer_factory.hpp:77] Creating layer inception_5b/3x3
I0403 09:25:48.934590 23602 net.cpp:91] Creating Layer inception_5b/3x3
I0403 09:25:48.934612 23602 net.cpp:425] inception_5b/3x3 <- inception_5b/3x3_reduce
I0403 09:25:48.934639 23602 net.cpp:399] inception_5b/3x3 -> inception_5b/3x3
I0403 09:25:48.941221 23602 net.cpp:141] Setting up inception_5b/3x3
I0403 09:25:48.941258 23602 net.cpp:148] Top shape: 24 384 7 7 (451584)
I0403 09:25:48.941279 23602 net.cpp:156] Memory required for data: 1332444672
I0403 09:25:48.941303 23602 layer_factory.hpp:77] Creating layer inception_5b/relu_3x3
I0403 09:25:48.941325 23602 net.cpp:91] Creating Layer inception_5b/relu_3x3
I0403 09:25:48.941349 23602 net.cpp:425] inception_5b/relu_3x3 <- inception_5b/3x3
I0403 09:25:48.941371 23602 net.cpp:386] inception_5b/relu_3x3 -> inception_5b/3x3 (in-place)
I0403 09:25:48.941395 23602 net.cpp:141] Setting up inception_5b/relu_3x3
I0403 09:25:48.941417 23602 net.cpp:148] Top shape: 24 384 7 7 (451584)
I0403 09:25:48.941436 23602 net.cpp:156] Memory required for data: 1334251008
I0403 09:25:48.941453 23602 layer_factory.hpp:77] Creating layer inception_5b/5x5_reduce
I0403 09:25:48.941483 23602 net.cpp:91] Creating Layer inception_5b/5x5_reduce
I0403 09:25:48.941504 23602 net.cpp:425] inception_5b/5x5_reduce <- inception_5a/output_inception_5a/output_0_split_2
I0403 09:25:48.941529 23602 net.cpp:399] inception_5b/5x5_reduce -> inception_5b/5x5_reduce
I0403 09:25:48.942101 23602 net.cpp:141] Setting up inception_5b/5x5_reduce
I0403 09:25:48.942132 23602 net.cpp:148] Top shape: 24 48 7 7 (56448)
I0403 09:25:48.942150 23602 net.cpp:156] Memory required for data: 1334476800
I0403 09:25:48.942173 23602 layer_factory.hpp:77] Creating layer inception_5b/relu_5x5_reduce
I0403 09:25:48.942195 23602 net.cpp:91] Creating Layer inception_5b/relu_5x5_reduce
I0403 09:25:48.942216 23602 net.cpp:425] inception_5b/relu_5x5_reduce <- inception_5b/5x5_reduce
I0403 09:25:48.942240 23602 net.cpp:386] inception_5b/relu_5x5_reduce -> inception_5b/5x5_reduce (in-place)
I0403 09:25:48.942265 23602 net.cpp:141] Setting up inception_5b/relu_5x5_reduce
I0403 09:25:48.942286 23602 net.cpp:148] Top shape: 24 48 7 7 (56448)
I0403 09:25:48.942304 23602 net.cpp:156] Memory required for data: 1334702592
I0403 09:25:48.942322 23602 layer_factory.hpp:77] Creating layer inception_5b/5x5
I0403 09:25:48.942350 23602 net.cpp:91] Creating Layer inception_5b/5x5
I0403 09:25:48.942371 23602 net.cpp:425] inception_5b/5x5 <- inception_5b/5x5_reduce
I0403 09:25:48.942395 23602 net.cpp:399] inception_5b/5x5 -> inception_5b/5x5
I0403 09:25:48.943730 23602 net.cpp:141] Setting up inception_5b/5x5
I0403 09:25:48.943764 23602 net.cpp:148] Top shape: 24 128 7 7 (150528)
I0403 09:25:48.943783 23602 net.cpp:156] Memory required for data: 1335304704
I0403 09:25:48.943805 23602 layer_factory.hpp:77] Creating layer inception_5b/relu_5x5
I0403 09:25:48.943828 23602 net.cpp:91] Creating Layer inception_5b/relu_5x5
I0403 09:25:48.943850 23602 net.cpp:425] inception_5b/relu_5x5 <- inception_5b/5x5
I0403 09:25:48.943892 23602 net.cpp:386] inception_5b/relu_5x5 -> inception_5b/5x5 (in-place)
I0403 09:25:48.943918 23602 net.cpp:141] Setting up inception_5b/relu_5x5
I0403 09:25:48.943940 23602 net.cpp:148] Top shape: 24 128 7 7 (150528)
I0403 09:25:48.943958 23602 net.cpp:156] Memory required for data: 1335906816
I0403 09:25:48.943976 23602 layer_factory.hpp:77] Creating layer inception_5b/pool
I0403 09:25:48.943997 23602 net.cpp:91] Creating Layer inception_5b/pool
I0403 09:25:48.944017 23602 net.cpp:425] inception_5b/pool <- inception_5a/output_inception_5a/output_0_split_3
I0403 09:25:48.944039 23602 net.cpp:399] inception_5b/pool -> inception_5b/pool
I0403 09:25:48.944105 23602 net.cpp:141] Setting up inception_5b/pool
I0403 09:25:48.944134 23602 net.cpp:148] Top shape: 24 832 7 7 (978432)
I0403 09:25:48.944151 23602 net.cpp:156] Memory required for data: 1339820544
I0403 09:25:48.944169 23602 layer_factory.hpp:77] Creating layer inception_5b/pool_proj
I0403 09:25:48.944198 23602 net.cpp:91] Creating Layer inception_5b/pool_proj
I0403 09:25:48.944219 23602 net.cpp:425] inception_5b/pool_proj <- inception_5b/pool
I0403 09:25:48.944244 23602 net.cpp:399] inception_5b/pool_proj -> inception_5b/pool_proj
I0403 09:25:48.945866 23602 net.cpp:141] Setting up inception_5b/pool_proj
I0403 09:25:48.945900 23602 net.cpp:148] Top shape: 24 128 7 7 (150528)
I0403 09:25:48.945919 23602 net.cpp:156] Memory required for data: 1340422656
I0403 09:25:48.945942 23602 layer_factory.hpp:77] Creating layer inception_5b/relu_pool_proj
I0403 09:25:48.945965 23602 net.cpp:91] Creating Layer inception_5b/relu_pool_proj
I0403 09:25:48.945986 23602 net.cpp:425] inception_5b/relu_pool_proj <- inception_5b/pool_proj
I0403 09:25:48.946010 23602 net.cpp:386] inception_5b/relu_pool_proj -> inception_5b/pool_proj (in-place)
I0403 09:25:48.946035 23602 net.cpp:141] Setting up inception_5b/relu_pool_proj
I0403 09:25:48.946058 23602 net.cpp:148] Top shape: 24 128 7 7 (150528)
I0403 09:25:48.946075 23602 net.cpp:156] Memory required for data: 1341024768
I0403 09:25:48.946094 23602 layer_factory.hpp:77] Creating layer inception_5b/output
I0403 09:25:48.946115 23602 net.cpp:91] Creating Layer inception_5b/output
I0403 09:25:48.946135 23602 net.cpp:425] inception_5b/output <- inception_5b/1x1
I0403 09:25:48.946154 23602 net.cpp:425] inception_5b/output <- inception_5b/3x3
I0403 09:25:48.946176 23602 net.cpp:425] inception_5b/output <- inception_5b/5x5
I0403 09:25:48.946195 23602 net.cpp:425] inception_5b/output <- inception_5b/pool_proj
I0403 09:25:48.946216 23602 net.cpp:399] inception_5b/output -> inception_5b/output
I0403 09:25:48.946266 23602 net.cpp:141] Setting up inception_5b/output
I0403 09:25:48.946296 23602 net.cpp:148] Top shape: 24 1024 7 7 (1204224)
I0403 09:25:48.946316 23602 net.cpp:156] Memory required for data: 1345841664
I0403 09:25:48.946333 23602 layer_factory.hpp:77] Creating layer pool5/7x7_s1
I0403 09:25:48.946354 23602 net.cpp:91] Creating Layer pool5/7x7_s1
I0403 09:25:48.946378 23602 net.cpp:425] pool5/7x7_s1 <- inception_5b/output
I0403 09:25:48.946401 23602 net.cpp:399] pool5/7x7_s1 -> pool5/7x7_s1
I0403 09:25:48.946451 23602 net.cpp:141] Setting up pool5/7x7_s1
I0403 09:25:48.946480 23602 net.cpp:148] Top shape: 24 1024 1 1 (24576)
I0403 09:25:48.946497 23602 net.cpp:156] Memory required for data: 1345939968
I0403 09:25:48.946516 23602 layer_factory.hpp:77] Creating layer pool5/drop_7x7_s1
I0403 09:25:48.946542 23602 net.cpp:91] Creating Layer pool5/drop_7x7_s1
I0403 09:25:48.946563 23602 net.cpp:425] pool5/drop_7x7_s1 <- pool5/7x7_s1
I0403 09:25:48.946588 23602 net.cpp:386] pool5/drop_7x7_s1 -> pool5/7x7_s1 (in-place)
I0403 09:25:48.946635 23602 net.cpp:141] Setting up pool5/drop_7x7_s1
I0403 09:25:48.946662 23602 net.cpp:148] Top shape: 24 1024 1 1 (24576)
I0403 09:25:48.946679 23602 net.cpp:156] Memory required for data: 1346038272
I0403 09:25:48.946698 23602 layer_factory.hpp:77] Creating layer loss3/classifier_plantvillage
I0403 09:25:48.946725 23602 net.cpp:91] Creating Layer loss3/classifier_plantvillage
I0403 09:25:48.946763 23602 net.cpp:425] loss3/classifier_plantvillage <- pool5/7x7_s1
I0403 09:25:48.946790 23602 net.cpp:399] loss3/classifier_plantvillage -> loss3/classifier_plantvillage
I0403 09:25:48.947204 23602 net.cpp:141] Setting up loss3/classifier_plantvillage
I0403 09:25:48.947234 23602 net.cpp:148] Top shape: 24 38 (912)
I0403 09:25:48.947253 23602 net.cpp:156] Memory required for data: 1346041920
I0403 09:25:48.947275 23602 layer_factory.hpp:77] Creating layer loss1/loss
I0403 09:25:48.947310 23602 net.cpp:91] Creating Layer loss1/loss
I0403 09:25:48.947334 23602 net.cpp:425] loss1/loss <- loss1/classifier_plantvillage
I0403 09:25:48.947353 23602 net.cpp:425] loss1/loss <- label_data_1_split_0
I0403 09:25:48.947376 23602 net.cpp:399] loss1/loss -> loss1/loss
…
I0403 09:25:48.959286 23602 net.cpp:313] The NetState phase (1) differed from the phase (0) specified by a rule in layer data
I0403 09:25:48.963930 23602 net.cpp:49] Initializing net from parameters: 
state {
  phase: TEST
}
layer {
  name: "data"
  type: "Data"
  top: "data"
  top: "label"
  include {
    phase: TEST
  }
  transform_param {
    mirror: false
    crop_size: 224
    mean_file: "/home/mohanty/data/final_dataset/lmdb/grayscale-20-80/mean.binaryproto"
  }
  data_param {
    source: "/home/mohanty/data/final_dataset/lmdb/grayscale-20-80/test_db"
    batch_size: 24
    backend: LMDB
  }
}
layer {
  name: "conv1/7x7_s2"
  type: "Convolution"
  bottom: "data"
  top: "conv1/7x7_s2"
  param {
    lr_mult: 1
    decay_mult: 1
  }
  param {
    lr_mult: 2
    decay_mult: 0
  }
  convolution_param {
    num_output: 64
    pad: 3
    kernel_size: 7
    stride: 2
    weight_filler {
      type: "xavier"
      std: 0.1
    }
    bias_filler {
      type: "constant"
      value: 0.2
    }
  }
}
layer {
  name: "conv1/relu_7x7"
  type: "ReLU"
  bottom: "conv1/7x7_s2"
  top: "conv1/7x7_s2"
}
layer {
  name: "pool1/3x3_s2"
  type: "Pooling"
  bottom: "conv1/7x7_s2"
  top: "pool1/3x3_s2"
  pooling_param {
    pool: MAX
    kernel_size: 3
    stride: 2
  }
}
layer {
  name: "pool1/norm1"
  type: "LRN"
  bottom: "pool1/3x3_s2"
  top: "pool1/norm1"
  lrn_param {
    local_size: 5
    alpha: 0.0001
    beta: 0.75
  }
}
layer {
  name: "conv2/3x3_reduce"
  type: "Convolution"
  bottom: "pool1/norm1"
  top: "conv2/3x3_reduce"
  param {
    lr_mult: 1
    decay_mult: 1
  }
  param {
    lr_mult: 2
    decay_mult: 0
  }
  convolution_param {
    num_output: 64
    kernel_size: 1
    weight_filler {
      type: "xavier"
      std: 0.1
    }
    bias_filler {
      type: "constant"
      value: 0.2
    }
  }
}
layer {
  name: "conv2/relu_3x3_reduce"
  type: "ReLU"
  bottom: "conv2/3x3_reduce"
  top: "conv2/3x3_reduce"
}
layer {
  name: "conv2/3x3"
  type: "Convolution"
  bottom: "conv2/3x3_reduce"
  top: "conv2/3x3"
  param {
    lr_mult: 1
    decay_mult: 1
  }
  param {
    lr_mult: 2
    decay_mult: 0
  }
  convolution_param {
    num_output: 192
    pad: 1
    kernel_size: 3
    weight_filler {
      type: "xavier"
      std: 0.03
    }
    bias_filler {
      type: "constant"
      value: 0.2
    }
  }
}
layer {
  name: "conv2/relu_3x3"
  type: "ReLU"
  bottom: "conv2/3x3"
  top: "conv2/3x3"
}
layer {
  name: "conv2/norm2"
  type: "LRN"
  bottom: "conv2/3x3"
  top: "conv2/norm2"
  lrn_param {
    local_size: 5
    alpha: 0.0001
    beta: 0.75
  }
}
layer {
  name: "pool2/3x3_s2"
  type: "Pooling"
  bottom: "conv2/norm2"
  top: "pool2/3x3_s2"
  pooling_param {
    pool: MAX
    kernel_size: 3
    stride: 2
  }
}
layer {
  name: "inception_3a/1x1"
  type: "Convolution"
  bottom: "pool2/3x3_s2"
  top: "inception_3a/1x1"
  param {
    lr_mult: 1
    decay_mult: 1
  }
  param {
    lr_mult: 2
    decay_mult: 0
  }
  convolution_param {
    num_output: 64
    kernel_size: 1
    weight_filler {
      type: "xavier"
      std: 0.03
    }
    bias_filler {
      type: "constant"
      value: 0.2
    }
  }
}
layer {
  name: "inception_3a/relu_1x1"
  type: "ReLU"
  bottom: "inception_3a/1x1"
  top: "inception_3a/1x1"
}
layer {
  name: "inception_3a/3x3_reduce"
  type: "Convolution"
  bottom: "pool2/3x3_s2"
  top: "inception_3a/3x3_reduce"
  param {
    lr_mult: 1
    decay_mult: 1
  }
  param {
    lr_mult: 2
    decay_mult: 0
  }
  convolution_param {
    num_output: 96
    kernel_size: 1
    weight_filler {
      type: "xavier"
      std: 0.09
    }
    bias_filler {
      type: "constant"
      value: 0.2
    }
  }
}
layer {
  name: "inception_3a/relu_3x3_reduce"
  type: "ReLU"
  bottom: "inception_3a/3x3_reduce"
  top: "inception_3a/3x3_reduce"
}
layer {
  name: "inception_3a/3x3"
  type: "Convolution"
  bottom: "inception_3a/3x3_reduce"
  top: "inception_3a/3x3"
  param {
    lr_mult: 1
    decay_mult: 1
  }
  param {
    lr_mult: 2
    decay_mult: 0
  }
  convolution_param {
    num_output: 128
    pad: 1
    kernel_size: 3
    weight_filler {
      type: "xavier"
      std: 0.03
    }
    bias_filler {
      type: "constant"
      value: 0.2
    }
  }
}
layer {
  name: "inception_3a/relu_3x3"
  type: "ReLU"
  bottom: "inception_3a/3x3"
  top: "inception_3a/3x3"
}
layer {
  name: "inception_3a/5x5_reduce"
  type: "Convolution"
  bottom: "pool2/3x3_s2"
  top: "inception_3a/5x5_reduce"
  param {
    lr_mult: 1
    decay_mult: 1
  }
  param {
    lr_mult: 2
    decay_mult: 0
  }
  convolution_param {
    num_output: 16
    kernel_size: 1
    weight_filler {
      type: "xavier"
      std: 0.2
    }
    bias_filler {
      type: "constant"
      value: 0.2
    }
  }
}
layer {
  name: "inception_3a/relu_5x5_reduce"
  type: "ReLU"
  bottom: "inception_3a/5x5_reduce"
  top: "inception_3a/5x5_reduce"
}
layer {
  name: "inception_3a/5x5"
  type: "Convolution"
  bottom: "inception_3a/5x5_reduce"
  top: "inception_3a/5x5"
  param {
    lr_mult: 1
    decay_mult: 1
  }
  param {
    lr_mult: 2
    decay_mult: 0
  }
  convolution_param {
    num_output: 32
    pad: 2
    kernel_size: 5
    weight_filler {
      type: "xavier"
      std: 0.03
    }
    bias_filler {
      type: "constant"
      value: 0.2
    }
  }
}
layer {
  name: "inception_3a/relu_5x5"
  type: "ReLU"
  bottom: "inception_3a/5x5"
  top: "inception_3a/5x5"
}
layer {
  name: "inception_3a/pool"
  type: "Pooling"
  bottom: "pool2/3x3_s2"
  top: "inception_3a/pool"
  pooling_param {
    pool: MAX
    kernel_size: 3
    stride: 1
    pad: 1
  }
}
layer {
  name: "inception_3a/pool_proj"
  type: "Convolution"
  bottom: "inception_3a/pool"
  top: "inception_3a/pool_proj"
  param {
    lr_mult: 1
    decay_mult: 1
  }
  param {
    lr_mult: 2
    decay_mult: 0
  }
  convolution_param {
    num_output: 32
    kernel_size: 1
    weight_filler {
      type: "xavier"
      std: 0.1
    }
    bias_filler {
      type: "constant"
      value: 0.2
    }
  }
}
layer {
  name: "inception_3a/relu_pool_proj"
  type: "ReLU"
  bottom: "inception_3a/pool_proj"
  top: "inception_3a/pool_proj"
}
layer {
  name: "inception_3a/output"
  type: "Concat"
  bottom: "inception_3a/1x1"
  bottom: "inception_3a/3x3"
  bottom: "inception_3a/5x5"
  bottom: "inception_3a/pool_proj"
  top: "inception_3a/output"
}
layer {
  name: "inception_3b/1x1"
  type: "Convolution"
  bottom: "inception_3a/output"
  top: "inception_3b/1x1"
  param {
    lr_mult: 1
    decay_mult: 1
  }
  param {
    lr_mult: 2
    decay_mult: 0
  }
  convolution_param {
    num_output: 128
    kernel_size: 1
    weight_filler {
      type: "xavier"
      std: 0.03
    }
    bias_filler {
      type: "constant"
      value: 0.2
    }
  }
}
layer {
  name: "inception_3b/relu_1x1"
  type: "ReLU"
  bottom: "inception_3b/1x1"
  top: "inception_3b/1x1"
}
layer {
  name: "inception_3b/3x3_reduce"
  type: "Convolution"
  bottom: "inception_3a/output"
  top: "inception_3b/3x3_reduce"
  param {
    lr_mult: 1
    decay_mult: 1
  }
  param {
    lr_mult: 2
    decay_mult: 0
  }
  convolution_param {
    num_output: 128
    kernel_size: 1
    weight_filler {
      type: "xavier"
      std: 0.09
    }
    bias_filler {
      type: "constant"
      value: 0.2
    }
  }
}
layer {
  name: "inception_3b/relu_3x3_reduce"
  type: "ReLU"
  bottom: "inception_3b/3x3_reduce"
  top: "inception_3b/3x3_reduce"
}
layer {
  name: "inception_3b/3x3"
  type: "Convolution"
  bottom: "inception_3b/3x3_reduce"
  top: "inception_3b/3x3"
  param {
    lr_mult: 1
    decay_mult: 1
  }
  param {
    lr_mult: 2
    decay_mult: 0
  }
  convolution_param {
    num_output: 192
    pad: 1
    kernel_size: 3
    weight_filler {
      type: "xavier"
      std: 0.03
    }
    bias_filler {
      type: "constant"
      value: 0.2
    }
  }
}
layer {
  name: "inception_3b/relu_3x3"
  type: "ReLU"
  bottom: "inception_3b/3x3"
  top: "inception_3b/3x3"
}
layer {
  name: "inception_3b/5x5_reduce"
  type: "Convolution"
  bottom: "inception_3a/output"
  top: "inception_3b/5x5_reduce"
  param {
    lr_mult: 1
    decay_mult: 1
  }
  param {
    lr_mult: 2
    decay_mult: 0
  }
  convolution_param {
    num_output: 32
    kernel_size: 1
    weight_filler {
      type: "xavier"
      std: 0.2
    }
    bias_filler {
      type: "constant"
      value: 0.2
    }
  }
}
layer {
  name: "inception_3b/relu_5x5_reduce"
  type: "ReLU"
  bottom: "inception_3b/5x5_reduce"
  top: "inception_3b/5x5_reduce"
}
layer {
  name: "inception_3b/5x5"
  type: "Convolution"
  bottom: "inception_3b/5x5_reduce"
  top: "inception_3b/5x5"
  param {
    lr_mult: 1
    decay_mult: 1
  }
  param {
    lr_mult: 2
    decay_mult: 0
  }
  convolution_param {
    num_output: 96
    pad: 2
    kernel_size: 5
    weight_filler {
      type: "xavier"
      std: 0.03
    }
    bias_filler {
      type: "constant"
      value: 0.2
    }
  }
}
layer {
  name: "inception_3b/relu_5x5"
  type: "ReLU"
  bottom: "inception_3b/5x5"
  top: "inception_3b/5x5"
}
layer {
  name: "inception_3b/pool"
  type: "Pooling"
  bottom: "inception_3a/output"
  top: "inception_3b/pool"
  pooling_param {
    pool: MAX
    kernel_size: 3
    stride: 1
    pad: 1
  }
}
layer {
  name: "inception_3b/pool_proj"
  type: "Convolution"
  bottom: "inception_3b/pool"
  top: "inception_3b/pool_proj"
  param {
    lr_mult: 1
    decay_mult: 1
  }
  param {
    lr_mult: 2
    decay_mult: 0
  }
  convolution_param {
    num_output: 64
    kernel_size: 1
    weight_filler {
      type: "xavier"
      std: 0.1
    }
    bias_filler {
      type: "constant"
      value: 0.2
    }
  }
}
layer {
  name: "inception_3b/relu_pool_proj"
  type: "ReLU"
  bottom: "inception_3b/pool_proj"
  top: "inception_3b/pool_proj"
}
layer {
  name: "inception_3b/output"
  type: "Concat"
  bottom: "inception_3b/1x1"
  bottom: "inception_3b/3x3"
  bottom: "inception_3b/5x5"
  bottom: "inception_3b/pool_proj"
  top: "inception_3b/output"
}
layer {
  name: "pool3/3x3_s2"
  type: "Pooling"
  bottom: "inception_3b/output"
  top: "pool3/3x3_s2"
  pooling_param {
    pool: MAX
    kernel_size: 3
    stride: 2
  }
}
layer {
  name: "inception_4a/1x1"
  type: "Convolution"
  bottom: "pool3/3x3_s2"
  top: "inception_4a/1x1"
  param {
    lr_mult: 1
    decay_mult: 1
  }
  param {
    lr_mult: 2
    decay_mult: 0
  }
  convolution_param {
    num_output: 192
    kernel_size: 1
    weight_filler {
      type: "xavier"
      std: 0.03
    }
    bias_filler {
      type: "constant"
      value: 0.2
    }
  }
}
layer {
  name: "inception_4a/relu_1x1"
  type: "ReLU"
  bottom: "inception_4a/1x1"
  top: "inception_4a/1x1"
}
layer {
  name: "inception_4a/3x3_reduce"
  type: "Convolution"
  bottom: "pool3/3x3_s2"
  top: "inception_4a/3x3_reduce"
  param {
    lr_mult: 1
    decay_mult: 1
  }
  param {
    lr_mult: 2
    decay_mult: 0
  }
  convolution_param {
    num_output: 96
    kernel_size: 1
    weight_filler {
      type: "xavier"
      std: 0.09
    }
    bias_filler {
      type: "constant"
      value: 0.2
    }
  }
}
layer {
  name: "inception_4a/relu_3x3_reduce"
  type: "ReLU"
  bottom: "inception_4a/3x3_reduce"
  top: "inception_4a/3x3_reduce"
}
layer {
  name: "inception_4a/3x3"
  type: "Convolution"
  bottom: "inception_4a/3x3_reduce"
  top: "inception_4a/3x3"
  param {
    lr_mult: 1
    decay_mult: 1
  }
  param {
    lr_mult: 2
    decay_mult: 0
  }
  convolution_param {
    num_output: 208
    pad: 1
    kernel_size: 3
    weight_filler {
      type: "xavier"
      std: 0.03
    }
    bias_filler {
      type: "constant"
      value: 0.2
    }
  }
}
layer {
  name: "inception_4a/relu_3x3"
  type: "ReLU"
  bottom: "inception_4a/3x3"
  top: "inception_4a/3x3"
}
layer {
  name: "inception_4a/5x5_reduce"
  type: "Convolution"
  bottom: "pool3/3x3_s2"
  top: "inception_4a/5x5_reduce"
  param {
    lr_mult: 1
    decay_mult: 1
  }
  param {
    lr_mult: 2
    decay_mult: 0
  }
  convolution_param {
    num_output: 16
    kernel_size: 1
    weight_filler {
      type: "xavier"
      std: 0.2
    }
    bias_filler {
      type: "constant"
      value: 0.2
    }
  }
}
layer {
  name: "inception_4a/relu_5x5_reduce"
  type: "ReLU"
  bottom: "inception_4a/5x5_reduce"
  top: "inception_4a/5x5_reduce"
}
layer {
  name: "inception_4a/5x5"
  type: "Convolution"
  bottom: "inception_4a/5x5_reduce"
  top: "inception_4a/5x5"
  param {
    lr_mult: 1
    decay_mult: 1
  }
  param {
    lr_mult: 2
    decay_mult: 0
  }
  convolution_param {
    num_output: 48
    pad: 2
    kernel_size: 5
    weight_filler {
      type: "xavier"
      std: 0.03
    }
    bias_filler {
      type: "constant"
      value: 0.2
    }
  }
}
layer {
  name: "inception_4a/relu_5x5"
  type: "ReLU"
  bottom: "inception_4a/5x5"
  top: "inception_4a/5x5"
}
layer {
  name: "inception_4a/pool"
  type: "Pooling"
  bottom: "pool3/3x3_s2"
  top: "inception_4a/pool"
  pooling_param {
    pool: MAX
    kernel_size: 3
    stride: 1
    pad: 1
  }
}
layer {
  name: "inception_4a/pool_proj"
  type: "Convolution"
  bottom: "inception_4a/pool"
  top: "inception_4a/pool_proj"
  param {
    lr_mult: 1
    decay_mult: 1
  }
  param {
    lr_mult: 2
    decay_mult: 0
  }
  convolution_param {
    num_output: 64
    kernel_size: 1
    weight_filler {
      type: "xavier"
      std: 0.1
    }
    bias_filler {
      type: "constant"
      value: 0.2
    }
  }
}
layer {
  name: "inception_4a/relu_pool_proj"
  type: "ReLU"
  bottom: "inception_4a/pool_proj"
  top: "inception_4a/pool_proj"
}
layer {
  name: "inception_4a/output"
  type: "Concat"
  bottom: "inception_4a/1x1"
  bottom: "inception_4a/3x3"
  bottom: "inception_4a/5x5"
  bottom: "inception_4a/pool_proj"
  top: "inception_4a/output"
}
layer {
  name: "loss1/ave_pool"
  type: "Pooling"
  bottom: "inception_4a/output"
  top: "loss1/ave_pool"
  pooling_param {
    pool: AVE
    kernel_size: 5
    stride: 3
  }
}
layer {
  name: "loss1/conv"
  type: "Convolution"
  bottom: "loss1/ave_pool"
  top: "loss1/conv"
  param {
    lr_mult: 1
    decay_mult: 1
  }
  param {
    lr_mult: 2
    decay_mult: 0
  }
  convolution_param {
    num_output: 128
    kernel_size: 1
    weight_filler {
      type: "xavier"
      std: 0.08
    }
    bias_filler {
      type: "constant"
      value: 0.2
    }
  }
}
layer {
  name: "loss1/relu_conv"
  type: "ReLU"
  bottom: "loss1/conv"
  top: "loss1/conv"
}
layer {
  name: "loss1/fc"
  type: "InnerProduct"
  bottom: "loss1/conv"
  top: "loss1/fc"
  param {
    lr_mult: 1
    decay_mult: 1
  }
  param {
    lr_mult: 2
    decay_mult: 0
  }
  inner_product_param {
    num_output: 1024
    weight_filler {
      type: "xavier"
      std: 0.02
    }
    bias_filler {
      type: "constant"
      value: 0.2
    }
  }
}
layer {
  name: "loss1/relu_fc"
  type: "ReLU"
  bottom: "loss1/fc"
  top: "loss1/fc"
}
layer {
  name: "loss1/drop_fc"
  type: "Dropout"
  bottom: "loss1/fc"
  top: "loss1/fc"
  dropout_param {
    dropout_ratio: 0.7
  }
}
layer {
  name: "loss1/classifier_plantvillage"
  type: "InnerProduct"
  bottom: "loss1/fc"
  top: "loss1/classifier_plantvillage"
  param {
    lr_mult: 1
    decay_mult: 1
  }
  param {
    lr_mult: 2
    decay_mult: 0
  }
  inner_product_param {
    num_output: 38
    weight_filler {
      type: "xavier"
      std: 0.0009765625
    }
    bias_filler {
      type: "constant"
      value: 0
    }
  }
}
layer {
  name: "inception_4b/1x1"
  type: "Convolution"
  bottom: "inception_4a/output"
  top: "inception_4b/1x1"
  param {
    lr_mult: 1
    decay_mult: 1
  }
  param {
    lr_mult: 2
    decay_mult: 0
  }
  convolution_param {
    num_output: 160
    kernel_size: 1
    weight_filler {
      type: "xavier"
      std: 0.03
    }
    bias_filler {
      type: "constant"
      value: 0.2
    }
  }
}
layer {
…
I0403 09:25:49.187116 23602 layer_factory.hpp:77] Creating layer inception_4c/pool
I0403 09:25:49.187140 23602 net.cpp:91] Creating Layer inception_4c/pool
I0403 09:25:49.187161 23602 net.cpp:425] inception_4c/pool <- inception_4b/output_inception_4b/output_0_split_3
I0403 09:25:49.187185 23602 net.cpp:399] inception_4c/pool -> inception_4c/pool
I0403 09:25:49.187257 23602 net.cpp:141] Setting up inception_4c/pool
I0403 09:25:49.187285 23602 net.cpp:148] Top shape: 24 512 14 14 (2408448)
I0403 09:25:49.187304 23602 net.cpp:156] Memory required for data: 1060605120
I0403 09:25:49.187322 23602 layer_factory.hpp:77] Creating layer inception_4c/pool_proj
I0403 09:25:49.187351 23602 net.cpp:91] Creating Layer inception_4c/pool_proj
I0403 09:25:49.187374 23602 net.cpp:425] inception_4c/pool_proj <- inception_4c/pool
I0403 09:25:49.187398 23602 net.cpp:399] inception_4c/pool_proj -> inception_4c/pool_proj
I0403 09:25:49.187924 23602 net.cpp:141] Setting up inception_4c/pool_proj
I0403 09:25:49.187955 23602 net.cpp:148] Top shape: 24 64 14 14 (301056)
I0403 09:25:49.187973 23602 net.cpp:156] Memory required for data: 1061809344
I0403 09:25:49.187996 23602 layer_factory.hpp:77] Creating layer inception_4c/relu_pool_proj
I0403 09:25:49.188027 23602 net.cpp:91] Creating Layer inception_4c/relu_pool_proj
I0403 09:25:49.188050 23602 net.cpp:425] inception_4c/relu_pool_proj <- inception_4c/pool_proj
I0403 09:25:49.188072 23602 net.cpp:386] inception_4c/relu_pool_proj -> inception_4c/pool_proj (in-place)
I0403 09:25:49.188096 23602 net.cpp:141] Setting up inception_4c/relu_pool_proj
I0403 09:25:49.188117 23602 net.cpp:148] Top shape: 24 64 14 14 (301056)
I0403 09:25:49.188134 23602 net.cpp:156] Memory required for data: 1063013568
I0403 09:25:49.188151 23602 layer_factory.hpp:77] Creating layer inception_4c/output
I0403 09:25:49.188182 23602 net.cpp:91] Creating Layer inception_4c/output
I0403 09:25:49.188210 23602 net.cpp:425] inception_4c/output <- inception_4c/1x1
I0403 09:25:49.188236 23602 net.cpp:425] inception_4c/output <- inception_4c/3x3
I0403 09:25:49.188264 23602 net.cpp:425] inception_4c/output <- inception_4c/5x5
I0403 09:25:49.188285 23602 net.cpp:425] inception_4c/output <- inception_4c/pool_proj
I0403 09:25:49.188313 23602 net.cpp:399] inception_4c/output -> inception_4c/output
I0403 09:25:49.188364 23602 net.cpp:141] Setting up inception_4c/output
I0403 09:25:49.188391 23602 net.cpp:148] Top shape: 24 512 14 14 (2408448)
I0403 09:25:49.188410 23602 net.cpp:156] Memory required for data: 1072647360
I0403 09:25:49.188428 23602 layer_factory.hpp:77] Creating layer inception_4c/output_inception_4c/output_0_split
I0403 09:25:49.188453 23602 net.cpp:91] Creating Layer inception_4c/output_inception_4c/output_0_split
I0403 09:25:49.188474 23602 net.cpp:425] inception_4c/output_inception_4c/output_0_split <- inception_4c/output
I0403 09:25:49.188498 23602 net.cpp:399] inception_4c/output_inception_4c/output_0_split -> inception_4c/output_inception_4c/output_0_split_0
I0403 09:25:49.188522 23602 net.cpp:399] inception_4c/output_inception_4c/output_0_split -> inception_4c/output_inception_4c/output_0_split_1
I0403 09:25:49.188554 23602 net.cpp:399] inception_4c/output_inception_4c/output_0_split -> inception_4c/output_inception_4c/output_0_split_2
I0403 09:25:49.188585 23602 net.cpp:399] inception_4c/output_inception_4c/output_0_split -> inception_4c/output_inception_4c/output_0_split_3
I0403 09:25:49.188695 23602 net.cpp:141] Setting up inception_4c/output_inception_4c/output_0_split
I0403 09:25:49.188724 23602 net.cpp:148] Top shape: 24 512 14 14 (2408448)
I0403 09:25:49.188745 23602 net.cpp:148] Top shape: 24 512 14 14 (2408448)
I0403 09:25:49.188765 23602 net.cpp:148] Top shape: 24 512 14 14 (2408448)
I0403 09:25:49.188783 23602 net.cpp:148] Top shape: 24 512 14 14 (2408448)
I0403 09:25:49.188801 23602 net.cpp:156] Memory required for data: 1111182528
I0403 09:25:49.188818 23602 layer_factory.hpp:77] Creating layer inception_4d/1x1
I0403 09:25:49.188848 23602 net.cpp:91] Creating Layer inception_4d/1x1
I0403 09:25:49.188869 23602 net.cpp:425] inception_4d/1x1 <- inception_4c/output_inception_4c/output_0_split_0
I0403 09:25:49.188896 23602 net.cpp:399] inception_4d/1x1 -> inception_4d/1x1
I0403 09:25:49.189587 23602 net.cpp:141] Setting up inception_4d/1x1
I0403 09:25:49.189618 23602 net.cpp:148] Top shape: 24 112 14 14 (526848)
I0403 09:25:49.189636 23602 net.cpp:156] Memory required for data: 1113289920
I0403 09:25:49.189658 23602 layer_factory.hpp:77] Creating layer inception_4d/relu_1x1
I0403 09:25:49.189682 23602 net.cpp:91] Creating Layer inception_4d/relu_1x1
I0403 09:25:49.189702 23602 net.cpp:425] inception_4d/relu_1x1 <- inception_4d/1x1
I0403 09:25:49.189723 23602 net.cpp:386] inception_4d/relu_1x1 -> inception_4d/1x1 (in-place)
I0403 09:25:49.189746 23602 net.cpp:141] Setting up inception_4d/relu_1x1
I0403 09:25:49.189769 23602 net.cpp:148] Top shape: 24 112 14 14 (526848)
I0403 09:25:49.189786 23602 net.cpp:156] Memory required for data: 1115397312
I0403 09:25:49.189805 23602 layer_factory.hpp:77] Creating layer inception_4d/3x3_reduce
I0403 09:25:49.189832 23602 net.cpp:91] Creating Layer inception_4d/3x3_reduce
I0403 09:25:49.189854 23602 net.cpp:425] inception_4d/3x3_reduce <- inception_4c/output_inception_4c/output_0_split_1
I0403 09:25:49.189882 23602 net.cpp:399] inception_4d/3x3_reduce -> inception_4d/3x3_reduce
I0403 09:25:49.190704 23602 net.cpp:141] Setting up inception_4d/3x3_reduce
I0403 09:25:49.190735 23602 net.cpp:148] Top shape: 24 144 14 14 (677376)
I0403 09:25:49.190754 23602 net.cpp:156] Memory required for data: 1118106816
I0403 09:25:49.190776 23602 layer_factory.hpp:77] Creating layer inception_4d/relu_3x3_reduce
I0403 09:25:49.190804 23602 net.cpp:91] Creating Layer inception_4d/relu_3x3_reduce
I0403 09:25:49.190826 23602 net.cpp:425] inception_4d/relu_3x3_reduce <- inception_4d/3x3_reduce
I0403 09:25:49.190848 23602 net.cpp:386] inception_4d/relu_3x3_reduce -> inception_4d/3x3_reduce (in-place)
I0403 09:25:49.190872 23602 net.cpp:141] Setting up inception_4d/relu_3x3_reduce
I0403 09:25:49.190893 23602 net.cpp:148] Top shape: 24 144 14 14 (677376)
I0403 09:25:49.190912 23602 net.cpp:156] Memory required for data: 1120816320
I0403 09:25:49.190929 23602 layer_factory.hpp:77] Creating layer inception_4d/3x3
I0403 09:25:49.190958 23602 net.cpp:91] Creating Layer inception_4d/3x3
I0403 09:25:49.190979 23602 net.cpp:425] inception_4d/3x3 <- inception_4d/3x3_reduce
I0403 09:25:49.191006 23602 net.cpp:399] inception_4d/3x3 -> inception_4d/3x3
I0403 09:25:49.194955 23602 net.cpp:141] Setting up inception_4d/3x3
I0403 09:25:49.194993 23602 net.cpp:148] Top shape: 24 288 14 14 (1354752)
I0403 09:25:49.195013 23602 net.cpp:156] Memory required for data: 1126235328
I0403 09:25:49.195036 23602 layer_factory.hpp:77] Creating layer inception_4d/relu_3x3
I0403 09:25:49.195061 23602 net.cpp:91] Creating Layer inception_4d/relu_3x3
I0403 09:25:49.195082 23602 net.cpp:425] inception_4d/relu_3x3 <- inception_4d/3x3
I0403 09:25:49.195104 23602 net.cpp:386] inception_4d/relu_3x3 -> inception_4d/3x3 (in-place)
I0403 09:25:49.195130 23602 net.cpp:141] Setting up inception_4d/relu_3x3
I0403 09:25:49.195154 23602 net.cpp:148] Top shape: 24 288 14 14 (1354752)
I0403 09:25:49.195173 23602 net.cpp:156] Memory required for data: 1131654336
I0403 09:25:49.195193 23602 layer_factory.hpp:77] Creating layer inception_4d/5x5_reduce
I0403 09:25:49.195238 23602 net.cpp:91] Creating Layer inception_4d/5x5_reduce
I0403 09:25:49.195266 23602 net.cpp:425] inception_4d/5x5_reduce <- inception_4c/output_inception_4c/output_0_split_2
I0403 09:25:49.195291 23602 net.cpp:399] inception_4d/5x5_reduce -> inception_4d/5x5_reduce
I0403 09:25:49.195719 23602 net.cpp:141] Setting up inception_4d/5x5_reduce
I0403 09:25:49.195751 23602 net.cpp:148] Top shape: 24 32 14 14 (150528)
I0403 09:25:49.195771 23602 net.cpp:156] Memory required for data: 1132256448
I0403 09:25:49.195794 23602 layer_factory.hpp:77] Creating layer inception_4d/relu_5x5_reduce
I0403 09:25:49.195818 23602 net.cpp:91] Creating Layer inception_4d/relu_5x5_reduce
I0403 09:25:49.195839 23602 net.cpp:425] inception_4d/relu_5x5_reduce <- inception_4d/5x5_reduce
I0403 09:25:49.195865 23602 net.cpp:386] inception_4d/relu_5x5_reduce -> inception_4d/5x5_reduce (in-place)
I0403 09:25:49.195890 23602 net.cpp:141] Setting up inception_4d/relu_5x5_reduce
I0403 09:25:49.195914 23602 net.cpp:148] Top shape: 24 32 14 14 (150528)
I0403 09:25:49.195932 23602 net.cpp:156] Memory required for data: 1132858560
I0403 09:25:49.195951 23602 layer_factory.hpp:77] Creating layer inception_4d/5x5
I0403 09:25:49.195978 23602 net.cpp:91] Creating Layer inception_4d/5x5
I0403 09:25:49.195998 23602 net.cpp:425] inception_4d/5x5 <- inception_4d/5x5_reduce
I0403 09:25:49.196027 23602 net.cpp:399] inception_4d/5x5 -> inception_4d/5x5
I0403 09:25:49.196682 23602 net.cpp:141] Setting up inception_4d/5x5
I0403 09:25:49.196713 23602 net.cpp:148] Top shape: 24 64 14 14 (301056)
I0403 09:25:49.196732 23602 net.cpp:156] Memory required for data: 1134062784
I0403 09:25:49.196755 23602 layer_factory.hpp:77] Creating layer inception_4d/relu_5x5
I0403 09:25:49.196787 23602 net.cpp:91] Creating Layer inception_4d/relu_5x5
I0403 09:25:49.196817 23602 net.cpp:425] inception_4d/relu_5x5 <- inception_4d/5x5
I0403 09:25:49.196843 23602 net.cpp:386] inception_4d/relu_5x5 -> inception_4d/5x5 (in-place)
I0403 09:25:49.196871 23602 net.cpp:141] Setting up inception_4d/relu_5x5
I0403 09:25:49.196895 23602 net.cpp:148] Top shape: 24 64 14 14 (301056)
I0403 09:25:49.196913 23602 net.cpp:156] Memory required for data: 1135267008
I0403 09:25:49.196931 23602 layer_factory.hpp:77] Creating layer inception_4d/pool
I0403 09:25:49.196954 23602 net.cpp:91] Creating Layer inception_4d/pool
I0403 09:25:49.196974 23602 net.cpp:425] inception_4d/pool <- inception_4c/output_inception_4c/output_0_split_3
I0403 09:25:49.196998 23602 net.cpp:399] inception_4d/pool -> inception_4d/pool
I0403 09:25:49.197070 23602 net.cpp:141] Setting up inception_4d/pool
I0403 09:25:49.197100 23602 net.cpp:148] Top shape: 24 512 14 14 (2408448)
I0403 09:25:49.197119 23602 net.cpp:156] Memory required for data: 1144900800
I0403 09:25:49.197139 23602 layer_factory.hpp:77] Creating layer inception_4d/pool_proj
I0403 09:25:49.197167 23602 net.cpp:91] Creating Layer inception_4d/pool_proj
I0403 09:25:49.197192 23602 net.cpp:425] inception_4d/pool_proj <- inception_4d/pool
I0403 09:25:49.197221 23602 net.cpp:399] inception_4d/pool_proj -> inception_4d/pool_proj
I0403 09:25:49.197741 23602 net.cpp:141] Setting up inception_4d/pool_proj
I0403 09:25:49.197772 23602 net.cpp:148] Top shape: 24 64 14 14 (301056)
I0403 09:25:49.197791 23602 net.cpp:156] Memory required for data: 1146105024
I0403 09:25:49.197813 23602 layer_factory.hpp:77] Creating layer inception_4d/relu_pool_proj
I0403 09:25:49.197837 23602 net.cpp:91] Creating Layer inception_4d/relu_pool_proj
I0403 09:25:49.197859 23602 net.cpp:425] inception_4d/relu_pool_proj <- inception_4d/pool_proj
I0403 09:25:49.197881 23602 net.cpp:386] inception_4d/relu_pool_proj -> inception_4d/pool_proj (in-place)
I0403 09:25:49.197904 23602 net.cpp:141] Setting up inception_4d/relu_pool_proj
I0403 09:25:49.197926 23602 net.cpp:148] Top shape: 24 64 14 14 (301056)
I0403 09:25:49.197944 23602 net.cpp:156] Memory required for data: 1147309248
I0403 09:25:49.197962 23602 layer_factory.hpp:77] Creating layer inception_4d/output
I0403 09:25:49.198004 23602 net.cpp:91] Creating Layer inception_4d/output
I0403 09:25:49.198027 23602 net.cpp:425] inception_4d/output <- inception_4d/1x1
I0403 09:25:49.198047 23602 net.cpp:425] inception_4d/output <- inception_4d/3x3
I0403 09:25:49.198068 23602 net.cpp:425] inception_4d/output <- inception_4d/5x5
I0403 09:25:49.198088 23602 net.cpp:425] inception_4d/output <- inception_4d/pool_proj
I0403 09:25:49.198110 23602 net.cpp:399] inception_4d/output -> inception_4d/output
I0403 09:25:49.198163 23602 net.cpp:141] Setting up inception_4d/output
I0403 09:25:49.198192 23602 net.cpp:148] Top shape: 24 528 14 14 (2483712)
I0403 09:25:49.198210 23602 net.cpp:156] Memory required for data: 1157244096
I0403 09:25:49.198227 23602 layer_factory.hpp:77] Creating layer inception_4d/output_inception_4d/output_0_split
I0403 09:25:49.198251 23602 net.cpp:91] Creating Layer inception_4d/output_inception_4d/output_0_split
I0403 09:25:49.198271 23602 net.cpp:425] inception_4d/output_inception_4d/output_0_split <- inception_4d/output
I0403 09:25:49.198294 23602 net.cpp:399] inception_4d/output_inception_4d/output_0_split -> inception_4d/output_inception_4d/output_0_split_0
I0403 09:25:49.198323 23602 net.cpp:399] inception_4d/output_inception_4d/output_0_split -> inception_4d/output_inception_4d/output_0_split_1
I0403 09:25:49.198350 23602 net.cpp:399] inception_4d/output_inception_4d/output_0_split -> inception_4d/output_inception_4d/output_0_split_2
I0403 09:25:49.198376 23602 net.cpp:399] inception_4d/output_inception_4d/output_0_split -> inception_4d/output_inception_4d/output_0_split_3
I0403 09:25:49.198400 23602 net.cpp:399] inception_4d/output_inception_4d/output_0_split -> inception_4d/output_inception_4d/output_0_split_4
I0403 09:25:49.198505 23602 net.cpp:141] Setting up inception_4d/output_inception_4d/output_0_split
I0403 09:25:49.198541 23602 net.cpp:148] Top shape: 24 528 14 14 (2483712)
I0403 09:25:49.198565 23602 net.cpp:148] Top shape: 24 528 14 14 (2483712)
I0403 09:25:49.198585 23602 net.cpp:148] Top shape: 24 528 14 14 (2483712)
I0403 09:25:49.198602 23602 net.cpp:148] Top shape: 24 528 14 14 (2483712)
I0403 09:25:49.198621 23602 net.cpp:148] Top shape: 24 528 14 14 (2483712)
I0403 09:25:49.198639 23602 net.cpp:156] Memory required for data: 1206918336
I0403 09:25:49.198657 23602 layer_factory.hpp:77] Creating layer loss2/ave_pool
I0403 09:25:49.198679 23602 net.cpp:91] Creating Layer loss2/ave_pool
I0403 09:25:49.198700 23602 net.cpp:425] loss2/ave_pool <- inception_4d/output_inception_4d/output_0_split_0
I0403 09:25:49.198722 23602 net.cpp:399] loss2/ave_pool -> loss2/ave_pool
I0403 09:25:49.198776 23602 net.cpp:141] Setting up loss2/ave_pool
I0403 09:25:49.198803 23602 net.cpp:148] Top shape: 24 528 4 4 (202752)
I0403 09:25:49.198822 23602 net.cpp:156] Memory required for data: 1207729344
I0403 09:25:49.198840 23602 layer_factory.hpp:77] Creating layer loss2/conv
I0403 09:25:49.198868 23602 net.cpp:91] Creating Layer loss2/conv
I0403 09:25:49.198890 23602 net.cpp:425] loss2/conv <- loss2/ave_pool
I0403 09:25:49.198920 23602 net.cpp:399] loss2/conv -> loss2/conv
I0403 09:25:49.200309 23602 net.cpp:141] Setting up loss2/conv
I0403 09:25:49.200345 23602 net.cpp:148] Top shape: 24 128 4 4 (49152)
I0403 09:25:49.200364 23602 net.cpp:156] Memory required for data: 1207925952
I0403 09:25:49.200387 23602 layer_factory.hpp:77] Creating layer loss2/relu_conv
I0403 09:25:49.200409 23602 net.cpp:91] Creating Layer loss2/relu_conv
I0403 09:25:49.200430 23602 net.cpp:425] loss2/relu_conv <- loss2/conv
I0403 09:25:49.200455 23602 net.cpp:386] loss2/relu_conv -> loss2/conv (in-place)
I0403 09:25:49.200480 23602 net.cpp:141] Setting up loss2/relu_conv
I0403 09:25:49.200503 23602 net.cpp:148] Top shape: 24 128 4 4 (49152)
I0403 09:25:49.200521 23602 net.cpp:156] Memory required for data: 1208122560
I0403 09:25:49.200544 23602 layer_factory.hpp:77] Creating layer loss2/fc
I0403 09:25:49.200570 23602 net.cpp:91] Creating Layer loss2/fc
I0403 09:25:49.200592 23602 net.cpp:425] loss2/fc <- loss2/conv
I0403 09:25:49.200618 23602 net.cpp:399] loss2/fc -> loss2/fc
I0403 09:25:49.220203 23602 net.cpp:141] Setting up loss2/fc
I0403 09:25:49.220257 23602 net.cpp:148] Top shape: 24 1024 (24576)
I0403 09:25:49.220278 23602 net.cpp:156] Memory required for data: 1208220864
I0403 09:25:49.220302 23602 layer_factory.hpp:77] Creating layer loss2/relu_fc
I0403 09:25:49.220331 23602 net.cpp:91] Creating Layer loss2/relu_fc
I0403 09:25:49.220355 23602 net.cpp:425] loss2/relu_fc <- loss2/fc
I0403 09:25:49.220378 23602 net.cpp:386] loss2/relu_fc -> loss2/fc (in-place)
I0403 09:25:49.220403 23602 net.cpp:141] Setting up loss2/relu_fc
I0403 09:25:49.220424 23602 net.cpp:148] Top shape: 24 1024 (24576)
I0403 09:25:49.220443 23602 net.cpp:156] Memory required for data: 1208319168
I0403 09:25:49.220461 23602 layer_factory.hpp:77] Creating layer loss2/drop_fc
I0403 09:25:49.220487 23602 net.cpp:91] Creating Layer loss2/drop_fc
I0403 09:25:49.220509 23602 net.cpp:425] loss2/drop_fc <- loss2/fc
I0403 09:25:49.220530 23602 net.cpp:386] loss2/drop_fc -> loss2/fc (in-place)
I0403 09:25:49.220587 23602 net.cpp:141] Setting up loss2/drop_fc
I0403 09:25:49.220618 23602 net.cpp:148] Top shape: 24 1024 (24576)
I0403 09:25:49.220638 23602 net.cpp:156] Memory required for data: 1208417472
I0403 09:25:49.220657 23602 layer_factory.hpp:77] Creating layer loss2/classifier_plantvillage
I0403 09:25:49.220681 23602 net.cpp:91] Creating Layer loss2/classifier_plantvillage
I0403 09:25:49.220701 23602 net.cpp:425] loss2/classifier_plantvillage <- loss2/fc
I0403 09:25:49.220727 23602 net.cpp:399] loss2/classifier_plantvillage -> loss2/classifier_plantvillage
I0403 09:25:49.221160 23602 net.cpp:141] Setting up loss2/classifier_plantvillage
I0403 09:25:49.221194 23602 net.cpp:148] Top shape: 24 38 (912)
I0403 09:25:49.221213 23602 net.cpp:156] Memory required for data: 1208421120
I0403 09:25:49.221235 23602 layer_factory.hpp:77] Creating layer loss2/classifier_plantvillage_loss2/classifier_plantvillage_0_split
I0403 09:25:49.221259 23602 net.cpp:91] Creating Layer loss2/classifier_plantvillage_loss2/classifier_plantvillage_0_split
I0403 09:25:49.221281 23602 net.cpp:425] loss2/classifier_plantvillage_loss2/classifier_plantvillage_0_split <- loss2/classifier_plantvillage
I0403 09:25:49.221302 23602 net.cpp:399] loss2/classifier_plantvillage_loss2/classifier_plantvillage_0_split -> loss2/classifier_plantvillage_loss2/classifier_plantvillage_0_split_0
I0403 09:25:49.221328 23602 net.cpp:399] loss2/classifier_plantvillage_loss2/classifier_plantvillage_0_split -> loss2/classifier_plantvillage_loss2/classifier_plantvillage_0_split_1
I0403 09:25:49.221354 23602 net.cpp:399] loss2/classifier_plantvillage_loss2/classifier_plantvillage_0_split -> loss2/classifier_plantvillage_loss2/classifier_plantvillage_0_split_2
I0403 09:25:49.221437 23602 net.cpp:141] Setting up loss2/classifier_plantvillage_loss2/classifier_plantvillage_0_split
I0403 09:25:49.221467 23602 net.cpp:148] Top shape: 24 38 (912)
I0403 09:25:49.221487 23602 net.cpp:148] Top shape: 24 38 (912)
I0403 09:25:49.221505 23602 net.cpp:148] Top shape: 24 38 (912)
I0403 09:25:49.221523 23602 net.cpp:156] Memory required for data: 1208432064
I0403 09:25:49.221546 23602 layer_factory.hpp:77] Creating layer inception_4e/1x1
I0403 09:25:49.221575 23602 net.cpp:91] Creating Layer inception_4e/1x1
I0403 09:25:49.221596 23602 net.cpp:425] inception_4e/1x1 <- inception_4d/output_inception_4d/output_0_split_1
I0403 09:25:49.221626 23602 net.cpp:399] inception_4e/1x1 -> inception_4e/1x1
I0403 09:25:49.222861 23602 net.cpp:141] Setting up inception_4e/1x1
I0403 09:25:49.222892 23602 net.cpp:148] Top shape: 24 256 14 14 (1204224)
I0403 09:25:49.222910 23602 net.cpp:156] Memory required for data: 1213248960
I0403 09:25:49.222934 23602 layer_factory.hpp:77] Creating layer inception_4e/relu_1x1
I0403 09:25:49.222956 23602 net.cpp:91] Creating Layer inception_4e/relu_1x1
I0403 09:25:49.222977 23602 net.cpp:425] inception_4e/relu_1x1 <- inception_4e/1x1
I0403 09:25:49.223000 23602 net.cpp:386] inception_4e/relu_1x1 -> inception_4e/1x1 (in-place)
I0403 09:25:49.223047 23602 net.cpp:141] Setting up inception_4e/relu_1x1
I0403 09:25:49.223072 23602 net.cpp:148] Top shape: 24 256 14 14 (1204224)
I0403 09:25:49.223089 23602 net.cpp:156] Memory required for data: 1218065856
I0403 09:25:49.223107 23602 layer_factory.hpp:77] Creating layer inception_4e/3x3_reduce
I0403 09:25:49.223136 23602 net.cpp:91] Creating Layer inception_4e/3x3_reduce
I0403 09:25:49.223158 23602 net.cpp:425] inception_4e/3x3_reduce <- inception_4d/output_inception_4d/output_0_split_2
I0403 09:25:49.223181 23602 net.cpp:399] inception_4e/3x3_reduce -> inception_4e/3x3_reduce
I0403 09:25:49.224735 23602 net.cpp:141] Setting up inception_4e/3x3_reduce
I0403 09:25:49.224769 23602 net.cpp:148] Top shape: 24 160 14 14 (752640)
I0403 09:25:49.224789 23602 net.cpp:156] Memory required for data: 1221076416
I0403 09:25:49.224812 23602 layer_factory.hpp:77] Creating layer inception_4e/relu_3x3_reduce
I0403 09:25:49.224836 23602 net.cpp:91] Creating Layer inception_4e/relu_3x3_reduce
I0403 09:25:49.224858 23602 net.cpp:425] inception_4e/relu_3x3_reduce <- inception_4e/3x3_reduce
I0403 09:25:49.224879 23602 net.cpp:386] inception_4e/relu_3x3_reduce -> inception_4e/3x3_reduce (in-place)
I0403 09:25:49.224907 23602 net.cpp:141] Setting up inception_4e/relu_3x3_reduce
I0403 09:25:49.224930 23602 net.cpp:148] Top shape: 24 160 14 14 (752640)
I0403 09:25:49.224947 23602 net.cpp:156] Memory required for data: 1224086976
I0403 09:25:49.224966 23602 layer_factory.hpp:77] Creating layer inception_4e/3x3
I0403 09:25:49.224992 23602 net.cpp:91] Creating Layer inception_4e/3x3
I0403 09:25:49.225011 23602 net.cpp:425] inception_4e/3x3 <- inception_4e/3x3_reduce
I0403 09:25:49.225039 23602 net.cpp:399] inception_4e/3x3 -> inception_4e/3x3
I0403 09:25:49.230885 23602 net.cpp:141] Setting up inception_4e/3x3
I0403 09:25:49.230934 23602 net.cpp:148] Top shape: 24 320 14 14 (1505280)
I0403 09:25:49.230955 23602 net.cpp:156] Memory required for data: 1230108096
I0403 09:25:49.230979 23602 layer_factory.hpp:77] Creating layer inception_4e/relu_3x3
I0403 09:25:49.231009 23602 net.cpp:91] Creating Layer inception_4e/relu_3x3
I0403 09:25:49.231031 23602 net.cpp:425] inception_4e/relu_3x3 <- inception_4e/3x3
I0403 09:25:49.231055 23602 net.cpp:386] inception_4e/relu_3x3 -> inception_4e/3x3 (in-place)
I0403 09:25:49.231081 23602 net.cpp:141] Setting up inception_4e/relu_3x3
I0403 09:25:49.231102 23602 net.cpp:148] Top shape: 24 320 14 14 (1505280)
I0403 09:25:49.231120 23602 net.cpp:156] Memory required for data: 1236129216
I0403 09:25:49.231138 23602 layer_factory.hpp:77] Creating layer inception_4e/5x5_reduce
I0403 09:25:49.231166 23602 net.cpp:91] Creating Layer inception_4e/5x5_reduce
I0403 09:25:49.231189 23602 net.cpp:425] inception_4e/5x5_reduce <- inception_4d/output_inception_4d/output_0_split_3
I0403 09:25:49.231215 23602 net.cpp:399] inception_4e/5x5_reduce -> inception_4e/5x5_reduce
I0403 09:25:49.232247 23602 net.cpp:141] Setting up inception_4e/5x5_reduce
I0403 09:25:49.232282 23602 net.cpp:148] Top shape: 24 32 14 14 (150528)
I0403 09:25:49.232302 23602 net.cpp:156] Memory required for data: 1236731328
I0403 09:25:49.232326 23602 layer_factory.hpp:77] Creating layer inception_4e/relu_5x5_reduce
I0403 09:25:49.232349 23602 net.cpp:91] Creating Layer inception_4e/relu_5x5_reduce
I0403 09:25:49.232370 23602 net.cpp:425] inception_4e/relu_5x5_reduce <- inception_4e/5x5_reduce
I0403 09:25:49.232396 23602 net.cpp:386] inception_4e/relu_5x5_reduce -> inception_4e/5x5_reduce (in-place)
I0403 09:25:49.232421 23602 net.cpp:141] Setting up inception_4e/relu_5x5_reduce
I0403 09:25:49.232444 23602 net.cpp:148] Top shape: 24 32 14 14 (150528)
I0403 09:25:49.232461 23602 net.cpp:156] Memory required for data: 1237333440
I0403 09:25:49.232480 23602 layer_factory.hpp:77] Creating layer inception_4e/5x5
I0403 09:25:49.232532 23602 net.cpp:91] Creating Layer inception_4e/5x5
I0403 09:25:49.232563 23602 net.cpp:425] inception_4e/5x5 <- inception_4e/5x5_reduce
I0403 09:25:49.232590 23602 net.cpp:399] inception_4e/5x5 -> inception_4e/5x5
I0403 09:25:49.233587 23602 net.cpp:141] Setting up inception_4e/5x5
I0403 09:25:49.233620 23602 net.cpp:148] Top shape: 24 128 14 14 (602112)
I0403 09:25:49.233639 23602 net.cpp:156] Memory required for data: 1239741888
I0403 09:25:49.233661 23602 layer_factory.hpp:77] Creating layer inception_4e/relu_5x5
I0403 09:25:49.233685 23602 net.cpp:91] Creating Layer inception_4e/relu_5x5
I0403 09:25:49.233710 23602 net.cpp:425] inception_4e/relu_5x5 <- inception_4e/5x5
I0403 09:25:49.233736 23602 net.cpp:386] inception_4e/relu_5x5 -> inception_4e/5x5 (in-place)
I0403 09:25:49.233762 23602 net.cpp:141] Setting up inception_4e/relu_5x5
I0403 09:25:49.233784 23602 net.cpp:148] Top shape: 24 128 14 14 (602112)
I0403 09:25:49.233803 23602 net.cpp:156] Memory required for data: 1242150336
I0403 09:25:49.233820 23602 layer_factory.hpp:77] Creating layer inception_4e/pool
I0403 09:25:49.233842 23602 net.cpp:91] Creating Layer inception_4e/pool
I0403 09:25:49.233862 23602 net.cpp:425] inception_4e/pool <- inception_4d/output_inception_4d/output_0_split_4
I0403 09:25:49.233888 23602 net.cpp:399] inception_4e/pool -> inception_4e/pool
I0403 09:25:49.233954 23602 net.cpp:141] Setting up inception_4e/pool
I0403 09:25:49.233984 23602 net.cpp:148] Top shape: 24 528 14 14 (2483712)
I0403 09:25:49.234002 23602 net.cpp:156] Memory required for data: 1252085184
I0403 09:25:49.234019 23602 layer_factory.hpp:77] Creating layer inception_4e/pool_proj
I0403 09:25:49.234050 23602 net.cpp:91] Creating Layer inception_4e/pool_proj
I0403 09:25:49.234073 23602 net.cpp:425] inception_4e/pool_proj <- inception_4e/pool
I0403 09:25:49.234100 23602 net.cpp:399] inception_4e/pool_proj -> inception_4e/pool_proj
I0403 09:25:49.234822 23602 net.cpp:141] Setting up inception_4e/pool_proj
I0403 09:25:49.234855 23602 net.cpp:148] Top shape: 24 128 14 14 (602112)
I0403 09:25:49.234875 23602 net.cpp:156] Memory required for data: 1254493632
I0403 09:25:49.234899 23602 layer_factory.hpp:77] Creating layer inception_4e/relu_pool_proj
I0403 09:25:49.234926 23602 net.cpp:91] Creating Layer inception_4e/relu_pool_proj
I0403 09:25:49.234957 23602 net.cpp:425] inception_4e/relu_pool_proj <- inception_4e/pool_proj
I0403 09:25:49.234987 23602 net.cpp:386] inception_4e/relu_pool_proj -> inception_4e/pool_proj (in-place)
I0403 09:25:49.235020 23602 net.cpp:141] Setting up inception_4e/relu_pool_proj
I0403 09:25:49.235043 23602 net.cpp:148] Top shape: 24 128 14 14 (602112)
I0403 09:25:49.235060 23602 net.cpp:156] Memory required for data: 1256902080
I0403 09:25:49.235079 23602 layer_factory.hpp:77] Creating layer inception_4e/output
I0403 09:25:49.235105 23602 net.cpp:91] Creating Layer inception_4e/output
I0403 09:25:49.235126 23602 net.cpp:425] inception_4e/output <- inception_4e/1x1
I0403 09:25:49.235146 23602 net.cpp:425] inception_4e/output <- inception_4e/3x3
I0403 09:25:49.235167 23602 net.cpp:425] inception_4e/output <- inception_4e/5x5
I0403 09:25:49.235188 23602 net.cpp:425] inception_4e/output <- inception_4e/pool_proj
I0403 09:25:49.235209 23602 net.cpp:399] inception_4e/output -> inception_4e/output
I0403 09:25:49.235261 23602 net.cpp:141] Setting up inception_4e/output
I0403 09:25:49.235293 23602 net.cpp:148] Top shape: 24 832 14 14 (3913728)
I0403 09:25:49.235312 23602 net.cpp:156] Memory required for data: 1272556992
I0403 09:25:49.235332 23602 layer_factory.hpp:77] Creating layer pool4/3x3_s2
I0403 09:25:49.235353 23602 net.cpp:91] Creating Layer pool4/3x3_s2
I0403 09:25:49.235374 23602 net.cpp:425] pool4/3x3_s2 <- inception_4e/output
I0403 09:25:49.235397 23602 net.cpp:399] pool4/3x3_s2 -> pool4/3x3_s2
I0403 09:25:49.235460 23602 net.cpp:141] Setting up pool4/3x3_s2
I0403 09:25:49.235489 23602 net.cpp:148] Top shape: 24 832 7 7 (978432)
I0403 09:25:49.235507 23602 net.cpp:156] Memory required for data: 1276470720
I0403 09:25:49.235525 23602 layer_factory.hpp:77] Creating layer pool4/3x3_s2_pool4/3x3_s2_0_split
I0403 09:25:49.235555 23602 net.cpp:91] Creating Layer pool4/3x3_s2_pool4/3x3_s2_0_split
I0403 09:25:49.235581 23602 net.cpp:425] pool4/3x3_s2_pool4/3x3_s2_0_split <- pool4/3x3_s2
I0403 09:25:49.235622 23602 net.cpp:399] pool4/3x3_s2_pool4/3x3_s2_0_split -> pool4/3x3_s2_pool4/3x3_s2_0_split_0
I0403 09:25:49.235648 23602 net.cpp:399] pool4/3x3_s2_pool4/3x3_s2_0_split -> pool4/3x3_s2_pool4/3x3_s2_0_split_1
I0403 09:25:49.235676 23602 net.cpp:399] pool4/3x3_s2_pool4/3x3_s2_0_split -> pool4/3x3_s2_pool4/3x3_s2_0_split_2
I0403 09:25:49.235703 23602 net.cpp:399] pool4/3x3_s2_pool4/3x3_s2_0_split -> pool4/3x3_s2_pool4/3x3_s2_0_split_3
I0403 09:25:49.235787 23602 net.cpp:141] Setting up pool4/3x3_s2_pool4/3x3_s2_0_split
I0403 09:25:49.235816 23602 net.cpp:148] Top shape: 24 832 7 7 (978432)
I0403 09:25:49.235836 23602 net.cpp:148] Top shape: 24 832 7 7 (978432)
I0403 09:25:49.235854 23602 net.cpp:148] Top shape: 24 832 7 7 (978432)
I0403 09:25:49.235873 23602 net.cpp:148] Top shape: 24 832 7 7 (978432)
I0403 09:25:49.235891 23602 net.cpp:156] Memory required for data: 1292125632
I0403 09:25:49.235909 23602 layer_factory.hpp:77] Creating layer inception_5a/1x1
I0403 09:25:49.235937 23602 net.cpp:91] Creating Layer inception_5a/1x1
I0403 09:25:49.235960 23602 net.cpp:425] inception_5a/1x1 <- pool4/3x3_s2_pool4/3x3_s2_0_split_0
I0403 09:25:49.235983 23602 net.cpp:399] inception_5a/1x1 -> inception_5a/1x1
I0403 09:25:49.238301 23602 net.cpp:141] Setting up inception_5a/1x1
I0403 09:25:49.238337 23602 net.cpp:148] Top shape: 24 256 7 7 (301056)
I0403 09:25:49.238358 23602 net.cpp:156] Memory required for data: 1293329856
I0403 09:25:49.238380 23602 layer_factory.hpp:77] Creating layer inception_5a/relu_1x1
I0403 09:25:49.238404 23602 net.cpp:91] Creating Layer inception_5a/relu_1x1
I0403 09:25:49.238425 23602 net.cpp:425] inception_5a/relu_1x1 <- inception_5a/1x1
I0403 09:25:49.238451 23602 net.cpp:386] inception_5a/relu_1x1 -> inception_5a/1x1 (in-place)
I0403 09:25:49.238476 23602 net.cpp:141] Setting up inception_5a/relu_1x1
I0403 09:25:49.238499 23602 net.cpp:148] Top shape: 24 256 7 7 (301056)
I0403 09:25:49.238518 23602 net.cpp:156] Memory required for data: 1294534080
I0403 09:25:49.238540 23602 layer_factory.hpp:77] Creating layer inception_5a/3x3_reduce
I0403 09:25:49.238571 23602 net.cpp:91] Creating Layer inception_5a/3x3_reduce
I0403 09:25:49.238595 23602 net.cpp:425] inception_5a/3x3_reduce <- pool4/3x3_s2_pool4/3x3_s2_0_split_1
I0403 09:25:49.238620 23602 net.cpp:399] inception_5a/3x3_reduce -> inception_5a/3x3_reduce
I0403 09:25:49.240408 23602 net.cpp:141] Setting up inception_5a/3x3_reduce
I0403 09:25:49.240443 23602 net.cpp:148] Top shape: 24 160 7 7 (188160)
I0403 09:25:49.240464 23602 net.cpp:156] Memory required for data: 1295286720
I0403 09:25:49.240488 23602 layer_factory.hpp:77] Creating layer inception_5a/relu_3x3_reduce
I0403 09:25:49.240510 23602 net.cpp:91] Creating Layer inception_5a/relu_3x3_reduce
I0403 09:25:49.240530 23602 net.cpp:425] inception_5a/relu_3x3_reduce <- inception_5a/3x3_reduce
I0403 09:25:49.240561 23602 net.cpp:386] inception_5a/relu_3x3_reduce -> inception_5a/3x3_reduce (in-place)
I0403 09:25:49.240587 23602 net.cpp:141] Setting up inception_5a/relu_3x3_reduce
I0403 09:25:49.240610 23602 net.cpp:148] Top shape: 24 160 7 7 (188160)
I0403 09:25:49.240628 23602 net.cpp:156] Memory required for data: 1296039360
I0403 09:25:49.240646 23602 layer_factory.hpp:77] Creating layer inception_5a/3x3
I0403 09:25:49.240675 23602 net.cpp:91] Creating Layer inception_5a/3x3
I0403 09:25:49.240697 23602 net.cpp:425] inception_5a/3x3 <- inception_5a/3x3_reduce
I0403 09:25:49.240721 23602 net.cpp:399] inception_5a/3x3 -> inception_5a/3x3
I0403 09:25:49.245426 23602 net.cpp:141] Setting up inception_5a/3x3
I0403 09:25:49.245462 23602 net.cpp:148] Top shape: 24 320 7 7 (376320)
I0403 09:25:49.245483 23602 net.cpp:156] Memory required for data: 1297544640
I0403 09:25:49.245507 23602 layer_factory.hpp:77] Creating layer inception_5a/relu_3x3
I0403 09:25:49.245532 23602 net.cpp:91] Creating Layer inception_5a/relu_3x3
I0403 09:25:49.245558 23602 net.cpp:425] inception_5a/relu_3x3 <- inception_5a/3x3
I0403 09:25:49.245584 23602 net.cpp:386] inception_5a/relu_3x3 -> inception_5a/3x3 (in-place)
I0403 09:25:49.245630 23602 net.cpp:141] Setting up inception_5a/relu_3x3
I0403 09:25:49.245656 23602 net.cpp:148] Top shape: 24 320 7 7 (376320)
I0403 09:25:49.245674 23602 net.cpp:156] Memory required for data: 1299049920
I0403 09:25:49.245693 23602 layer_factory.hpp:77] Creating layer inception_5a/5x5_reduce
I0403 09:25:49.245723 23602 net.cpp:91] Creating Layer inception_5a/5x5_reduce
I0403 09:25:49.245749 23602 net.cpp:425] inception_5a/5x5_reduce <- pool4/3x3_s2_pool4/3x3_s2_0_split_2
I0403 09:25:49.245776 23602 net.cpp:399] inception_5a/5x5_reduce -> inception_5a/5x5_reduce
I0403 09:25:49.246239 23602 net.cpp:141] Setting up inception_5a/5x5_reduce
I0403 09:25:49.246271 23602 net.cpp:148] Top shape: 24 32 7 7 (37632)
I0403 09:25:49.246290 23602 net.cpp:156] Memory required for data: 1299200448
I0403 09:25:49.246314 23602 layer_factory.hpp:77] Creating layer inception_5a/relu_5x5_reduce
I0403 09:25:49.246336 23602 net.cpp:91] Creating Layer inception_5a/relu_5x5_reduce
I0403 09:25:49.246357 23602 net.cpp:425] inception_5a/relu_5x5_reduce <- inception_5a/5x5_reduce
I0403 09:25:49.246384 23602 net.cpp:386] inception_5a/relu_5x5_reduce -> inception_5a/5x5_reduce (in-place)
I0403 09:25:49.246412 23602 net.cpp:141] Setting up inception_5a/relu_5x5_reduce
I0403 09:25:49.246433 23602 net.cpp:148] Top shape: 24 32 7 7 (37632)
I0403 09:25:49.246451 23602 net.cpp:156] Memory required for data: 1299350976
I0403 09:25:49.246469 23602 layer_factory.hpp:77] Creating layer inception_5a/5x5
I0403 09:25:49.246495 23602 net.cpp:91] Creating Layer inception_5a/5x5
I0403 09:25:49.246516 23602 net.cpp:425] inception_5a/5x5 <- inception_5a/5x5_reduce
I0403 09:25:49.246548 23602 net.cpp:399] inception_5a/5x5 -> inception_5a/5x5
I0403 09:25:49.247508 23602 net.cpp:141] Setting up inception_5a/5x5
I0403 09:25:49.247547 23602 net.cpp:148] Top shape: 24 128 7 7 (150528)
I0403 09:25:49.247568 23602 net.cpp:156] Memory required for data: 1299953088
I0403 09:25:49.247591 23602 layer_factory.hpp:77] Creating layer inception_5a/relu_5x5
I0403 09:25:49.247614 23602 net.cpp:91] Creating Layer inception_5a/relu_5x5
I0403 09:25:49.247634 23602 net.cpp:425] inception_5a/relu_5x5 <- inception_5a/5x5
I0403 09:25:49.247656 23602 net.cpp:386] inception_5a/relu_5x5 -> inception_5a/5x5 (in-place)
I0403 09:25:49.247680 23602 net.cpp:141] Setting up inception_5a/relu_5x5
I0403 09:25:49.247701 23602 net.cpp:148] Top shape: 24 128 7 7 (150528)
I0403 09:25:49.247720 23602 net.cpp:156] Memory required for data: 1300555200
I0403 09:25:49.247737 23602 layer_factory.hpp:77] Creating layer inception_5a/pool
I0403 09:25:49.247758 23602 net.cpp:91] Creating Layer inception_5a/pool
I0403 09:25:49.247779 23602 net.cpp:425] inception_5a/pool <- pool4/3x3_s2_pool4/3x3_s2_0_split_3
I0403 09:25:49.247805 23602 net.cpp:399] inception_5a/pool -> inception_5a/pool
I0403 09:25:49.247869 23602 net.cpp:141] Setting up inception_5a/pool
I0403 09:25:49.247898 23602 net.cpp:148] Top shape: 24 832 7 7 (978432)
I0403 09:25:49.247923 23602 net.cpp:156] Memory required for data: 1304468928
I0403 09:25:49.247949 23602 layer_factory.hpp:77] Creating layer inception_5a/pool_proj
I0403 09:25:49.247989 23602 net.cpp:91] Creating Layer inception_5a/pool_proj
I0403 09:25:49.248013 23602 net.cpp:425] inception_5a/pool_proj <- inception_5a/pool
I0403 09:25:49.248037 23602 net.cpp:399] inception_5a/pool_proj -> inception_5a/pool_proj
I0403 09:25:49.249637 23602 net.cpp:141] Setting up inception_5a/pool_proj
I0403 09:25:49.249676 23602 net.cpp:148] Top shape: 24 128 7 7 (150528)
I0403 09:25:49.249696 23602 net.cpp:156] Memory required for data: 1305071040
I0403 09:25:49.249722 23602 layer_factory.hpp:77] Creating layer inception_5a/relu_pool_proj
I0403 09:25:49.249744 23602 net.cpp:91] Creating Layer inception_5a/relu_pool_proj
I0403 09:25:49.249766 23602 net.cpp:425] inception_5a/relu_pool_proj <- inception_5a/pool_proj
I0403 09:25:49.249788 23602 net.cpp:386] inception_5a/relu_pool_proj -> inception_5a/pool_proj (in-place)
I0403 09:25:49.249811 23602 net.cpp:141] Setting up inception_5a/relu_pool_proj
I0403 09:25:49.249851 23602 net.cpp:148] Top shape: 24 128 7 7 (150528)
I0403 09:25:49.249871 23602 net.cpp:156] Memory required for data: 1305673152
I0403 09:25:49.249889 23602 layer_factory.hpp:77] Creating layer inception_5a/output
I0403 09:25:49.249914 23602 net.cpp:91] Creating Layer inception_5a/output
I0403 09:25:49.249935 23602 net.cpp:425] inception_5a/output <- inception_5a/1x1
I0403 09:25:49.249956 23602 net.cpp:425] inception_5a/output <- inception_5a/3x3
I0403 09:25:49.249976 23602 net.cpp:425] inception_5a/output <- inception_5a/5x5
I0403 09:25:49.249997 23602 net.cpp:425] inception_5a/output <- inception_5a/pool_proj
I0403 09:25:49.250020 23602 net.cpp:399] inception_5a/output -> inception_5a/output
I0403 09:25:49.250071 23602 net.cpp:141] Setting up inception_5a/output
I0403 09:25:49.250109 23602 net.cpp:148] Top shape: 24 832 7 7 (978432)
I0403 09:25:49.250138 23602 net.cpp:156] Memory required for data: 1309586880
I0403 09:25:49.250164 23602 layer_factory.hpp:77] Creating layer inception_5a/output_inception_5a/output_0_split
I0403 09:25:49.250188 23602 net.cpp:91] Creating Layer inception_5a/output_inception_5a/output_0_split
I0403 09:25:49.250211 23602 net.cpp:425] inception_5a/output_inception_5a/output_0_split <- inception_5a/output
I0403 09:25:49.250232 23602 net.cpp:399] inception_5a/output_inception_5a/output_0_split -> inception_5a/output_inception_5a/output_0_split_0
I0403 09:25:49.250262 23602 net.cpp:399] inception_5a/output_inception_5a/output_0_split -> inception_5a/output_inception_5a/output_0_split_1
I0403 09:25:49.250289 23602 net.cpp:399] inception_5a/output_inception_5a/output_0_split -> inception_5a/output_inception_5a/output_0_split_2
I0403 09:25:49.250316 23602 net.cpp:399] inception_5a/output_inception_5a/output_0_split -> inception_5a/output_inception_5a/output_0_split_3
I0403 09:25:49.250407 23602 net.cpp:141] Setting up inception_5a/output_inception_5a/output_0_split
I0403 09:25:49.250437 23602 net.cpp:148] Top shape: 24 832 7 7 (978432)
I0403 09:25:49.250458 23602 net.cpp:148] Top shape: 24 832 7 7 (978432)
I0403 09:25:49.250476 23602 net.cpp:148] Top shape: 24 832 7 7 (978432)
I0403 09:25:49.250496 23602 net.cpp:148] Top shape: 24 832 7 7 (978432)
I0403 09:25:49.250514 23602 net.cpp:156] Memory required for data: 1325241792
I0403 09:25:49.250531 23602 layer_factory.hpp:77] Creating layer inception_5b/1x1
I0403 09:25:49.250566 23602 net.cpp:91] Creating Layer inception_5b/1x1
I0403 09:25:49.250591 23602 net.cpp:425] inception_5b/1x1 <- inception_5a/output_inception_5a/output_0_split_0
I0403 09:25:49.250615 23602 net.cpp:399] inception_5b/1x1 -> inception_5b/1x1
I0403 09:25:49.253751 23602 net.cpp:141] Setting up inception_5b/1x1
I0403 09:25:49.253787 23602 net.cpp:148] Top shape: 24 384 7 7 (451584)
I0403 09:25:49.253808 23602 net.cpp:156] Memory required for data: 1327048128
I0403 09:25:49.253832 23602 layer_factory.hpp:77] Creating layer inception_5b/relu_1x1
I0403 09:25:49.253855 23602 net.cpp:91] Creating Layer inception_5b/relu_1x1
I0403 09:25:49.253880 23602 net.cpp:425] inception_5b/relu_1x1 <- inception_5b/1x1
I0403 09:25:49.253901 23602 net.cpp:386] inception_5b/relu_1x1 -> inception_5b/1x1 (in-place)
I0403 09:25:49.253926 23602 net.cpp:141] Setting up inception_5b/relu_1x1
I0403 09:25:49.253947 23602 net.cpp:148] Top shape: 24 384 7 7 (451584)
I0403 09:25:49.253965 23602 net.cpp:156] Memory required for data: 1328854464
I0403 09:25:49.253983 23602 layer_factory.hpp:77] Creating layer inception_5b/3x3_reduce
I0403 09:25:49.254011 23602 net.cpp:91] Creating Layer inception_5b/3x3_reduce
I0403 09:25:49.254034 23602 net.cpp:425] inception_5b/3x3_reduce <- inception_5a/output_inception_5a/output_0_split_1
I0403 09:25:49.254063 23602 net.cpp:399] inception_5b/3x3_reduce -> inception_5b/3x3_reduce
I0403 09:25:49.256031 23602 net.cpp:141] Setting up inception_5b/3x3_reduce
I0403 09:25:49.256067 23602 net.cpp:148] Top shape: 24 192 7 7 (225792)
I0403 09:25:49.256086 23602 net.cpp:156] Memory required for data: 1329757632
I0403 09:25:49.256109 23602 layer_factory.hpp:77] Creating layer inception_5b/relu_3x3_reduce
I0403 09:25:49.256150 23602 net.cpp:91] Creating Layer inception_5b/relu_3x3_reduce
I0403 09:25:49.256172 23602 net.cpp:425] inception_5b/relu_3x3_reduce <- inception_5b/3x3_reduce
I0403 09:25:49.256194 23602 net.cpp:386] inception_5b/relu_3x3_reduce -> inception_5b/3x3_reduce (in-place)
I0403 09:25:49.256218 23602 net.cpp:141] Setting up inception_5b/relu_3x3_reduce
I0403 09:25:49.256240 23602 net.cpp:148] Top shape: 24 192 7 7 (225792)
I0403 09:25:49.256259 23602 net.cpp:156] Memory required for data: 1330660800
I0403 09:25:49.256278 23602 layer_factory.hpp:77] Creating layer inception_5b/3x3
I0403 09:25:49.256307 23602 net.cpp:91] Creating Layer inception_5b/3x3
I0403 09:25:49.256330 23602 net.cpp:425] inception_5b/3x3 <- inception_5b/3x3_reduce
I0403 09:25:49.256356 23602 net.cpp:399] inception_5b/3x3 -> inception_5b/3x3
I0403 09:25:49.262846 23602 net.cpp:141] Setting up inception_5b/3x3
I0403 09:25:49.262892 23602 net.cpp:148] Top shape: 24 384 7 7 (451584)
I0403 09:25:49.262915 23602 net.cpp:156] Memory required for data: 1332467136
I0403 09:25:49.262940 23602 layer_factory.hpp:77] Creating layer inception_5b/relu_3x3
I0403 09:25:49.262965 23602 net.cpp:91] Creating Layer inception_5b/relu_3x3
I0403 09:25:49.262986 23602 net.cpp:425] inception_5b/relu_3x3 <- inception_5b/3x3
I0403 09:25:49.263008 23602 net.cpp:386] inception_5b/relu_3x3 -> inception_5b/3x3 (in-place)
I0403 09:25:49.263034 23602 net.cpp:141] Setting up inception_5b/relu_3x3
I0403 09:25:49.263056 23602 net.cpp:148] Top shape: 24 384 7 7 (451584)
I0403 09:25:49.263073 23602 net.cpp:156] Memory required for data: 1334273472
I0403 09:25:49.263092 23602 layer_factory.hpp:77] Creating layer inception_5b/5x5_reduce
I0403 09:25:49.263120 23602 net.cpp:91] Creating Layer inception_5b/5x5_reduce
I0403 09:25:49.263142 23602 net.cpp:425] inception_5b/5x5_reduce <- inception_5a/output_inception_5a/output_0_split_2
I0403 09:25:49.263167 23602 net.cpp:399] inception_5b/5x5_reduce -> inception_5b/5x5_reduce
I0403 09:25:49.264353 23602 net.cpp:141] Setting up inception_5b/5x5_reduce
I0403 09:25:49.264389 23602 net.cpp:148] Top shape: 24 48 7 7 (56448)
I0403 09:25:49.264408 23602 net.cpp:156] Memory required for data: 1334499264
I0403 09:25:49.264431 23602 layer_factory.hpp:77] Creating layer inception_5b/relu_5x5_reduce
I0403 09:25:49.264454 23602 net.cpp:91] Creating Layer inception_5b/relu_5x5_reduce
I0403 09:25:49.264477 23602 net.cpp:425] inception_5b/relu_5x5_reduce <- inception_5b/5x5_reduce
I0403 09:25:49.264503 23602 net.cpp:386] inception_5b/relu_5x5_reduce -> inception_5b/5x5_reduce (in-place)
I0403 09:25:49.264528 23602 net.cpp:141] Setting up inception_5b/relu_5x5_reduce
I0403 09:25:49.264557 23602 net.cpp:148] Top shape: 24 48 7 7 (56448)
I0403 09:25:49.264575 23602 net.cpp:156] Memory required for data: 1334725056
I0403 09:25:49.264593 23602 layer_factory.hpp:77] Creating layer inception_5b/5x5
I0403 09:25:49.264623 23602 net.cpp:91] Creating Layer inception_5b/5x5
I0403 09:25:49.264647 23602 net.cpp:425] inception_5b/5x5 <- inception_5b/5x5_reduce
I0403 09:25:49.264670 23602 net.cpp:399] inception_5b/5x5 -> inception_5b/5x5
I0403 09:25:49.265983 23602 net.cpp:141] Setting up inception_5b/5x5
I0403 09:25:49.266015 23602 net.cpp:148] Top shape: 24 128 7 7 (150528)
I0403 09:25:49.266033 23602 net.cpp:156] Memory required for data: 1335327168
I0403 09:25:49.266057 23602 layer_factory.hpp:77] Creating layer inception_5b/relu_5x5
I0403 09:25:49.266079 23602 net.cpp:91] Creating Layer inception_5b/relu_5x5
I0403 09:25:49.266100 23602 net.cpp:425] inception_5b/relu_5x5 <- inception_5b/5x5
I0403 09:25:49.266121 23602 net.cpp:386] inception_5b/relu_5x5 -> inception_5b/5x5 (in-place)
I0403 09:25:49.266145 23602 net.cpp:141] Setting up inception_5b/relu_5x5
I0403 09:25:49.266167 23602 net.cpp:148] Top shape: 24 128 7 7 (150528)
I0403 09:25:49.266185 23602 net.cpp:156] Memory required for data: 1335929280
I0403 09:25:49.266204 23602 layer_factory.hpp:77] Creating layer inception_5b/pool
I0403 09:25:49.266247 23602 net.cpp:91] Creating Layer inception_5b/pool
I0403 09:25:49.266271 23602 net.cpp:425] inception_5b/pool <- inception_5a/output_inception_5a/output_0_split_3
I0403 09:25:49.266295 23602 net.cpp:399] inception_5b/pool -> inception_5b/pool
I0403 09:25:49.266368 23602 net.cpp:141] Setting up inception_5b/pool
I0403 09:25:49.266397 23602 net.cpp:148] Top shape: 24 832 7 7 (978432)
I0403 09:25:49.266417 23602 net.cpp:156] Memory required for data: 1339843008
I0403 09:25:49.266435 23602 layer_factory.hpp:77] Creating layer inception_5b/pool_proj
I0403 09:25:49.266466 23602 net.cpp:91] Creating Layer inception_5b/pool_proj
I0403 09:25:49.266489 23602 net.cpp:425] inception_5b/pool_proj <- inception_5b/pool
I0403 09:25:49.266515 23602 net.cpp:399] inception_5b/pool_proj -> inception_5b/pool_proj
I0403 09:25:49.268136 23602 net.cpp:141] Setting up inception_5b/pool_proj
I0403 09:25:49.268172 23602 net.cpp:148] Top shape: 24 128 7 7 (150528)
I0403 09:25:49.268192 23602 net.cpp:156] Memory required for data: 1340445120
I0403 09:25:49.268213 23602 layer_factory.hpp:77] Creating layer inception_5b/relu_pool_proj
I0403 09:25:49.268237 23602 net.cpp:91] Creating Layer inception_5b/relu_pool_proj
I0403 09:25:49.268260 23602 net.cpp:425] inception_5b/relu_pool_proj <- inception_5b/pool_proj
I0403 09:25:49.268286 23602 net.cpp:386] inception_5b/relu_pool_proj -> inception_5b/pool_proj (in-place)
I0403 09:25:49.268311 23602 net.cpp:141] Setting up inception_5b/relu_pool_proj
I0403 09:25:49.268334 23602 net.cpp:148] Top shape: 24 128 7 7 (150528)
I0403 09:25:49.268353 23602 net.cpp:156] Memory required for data: 1341047232
I0403 09:25:49.268370 23602 layer_factory.hpp:77] Creating layer inception_5b/output
I0403 09:25:49.268393 23602 net.cpp:91] Creating Layer inception_5b/output
I0403 09:25:49.268414 23602 net.cpp:425] inception_5b/output <- inception_5b/1x1
I0403 09:25:49.268435 23602 net.cpp:425] inception_5b/output <- inception_5b/3x3
I0403 09:25:49.268456 23602 net.cpp:425] inception_5b/output <- inception_5b/5x5
I0403 09:25:49.268478 23602 net.cpp:425] inception_5b/output <- inception_5b/pool_proj
I0403 09:25:49.268501 23602 net.cpp:399] inception_5b/output -> inception_5b/output
I0403 09:25:49.268555 23602 net.cpp:141] Setting up inception_5b/output
I0403 09:25:49.268586 23602 net.cpp:148] Top shape: 24 1024 7 7 (1204224)
I0403 09:25:49.268604 23602 net.cpp:156] Memory required for data: 1345864128
I0403 09:25:49.268622 23602 layer_factory.hpp:77] Creating layer pool5/7x7_s1
I0403 09:25:49.268646 23602 net.cpp:91] Creating Layer pool5/7x7_s1
I0403 09:25:49.268666 23602 net.cpp:425] pool5/7x7_s1 <- inception_5b/output
I0403 09:25:49.268692 23602 net.cpp:399] pool5/7x7_s1 -> pool5/7x7_s1
I0403 09:25:49.268743 23602 net.cpp:141] Setting up pool5/7x7_s1
I0403 09:25:49.268771 23602 net.cpp:148] Top shape: 24 1024 1 1 (24576)
I0403 09:25:49.268790 23602 net.cpp:156] Memory required for data: 1345962432
I0403 09:25:49.268808 23602 layer_factory.hpp:77] Creating layer pool5/drop_7x7_s1
I0403 09:25:49.268831 23602 net.cpp:91] Creating Layer pool5/drop_7x7_s1
I0403 09:25:49.268851 23602 net.cpp:425] pool5/drop_7x7_s1 <- pool5/7x7_s1
I0403 09:25:49.268877 23602 net.cpp:386] pool5/drop_7x7_s1 -> pool5/7x7_s1 (in-place)
I0403 09:25:49.268923 23602 net.cpp:141] Setting up pool5/drop_7x7_s1
I0403 09:25:49.268952 23602 net.cpp:148] Top shape: 24 1024 1 1 (24576)
I0403 09:25:49.268972 23602 net.cpp:156] Memory required for data: 1346060736
I0403 09:25:49.268991 23602 layer_factory.hpp:77] Creating layer loss3/classifier_plantvillage
I0403 09:25:49.269016 23602 net.cpp:91] Creating Layer loss3/classifier_plantvillage
I0403 09:25:49.269035 23602 net.cpp:425] loss3/classifier_plantvillage <- pool5/7x7_s1
I0403 09:25:49.269062 23602 net.cpp:399] loss3/classifier_plantvillage -> loss3/classifier_plantvillage
I0403 09:25:49.269475 23602 net.cpp:141] Setting up loss3/classifier_plantvillage
I0403 09:25:49.269506 23602 net.cpp:148] Top shape: 24 38 (912)
I0403 09:25:49.269525 23602 net.cpp:156] Memory required for data: 1346064384
I0403 09:25:49.269572 23602 layer_factory.hpp:77] Creating layer loss3/classifier_plantvillage_loss3/classifier_plantvillage_0_split
I0403 09:25:49.269598 23602 net.cpp:91] Creating Layer loss3/classifier_plantvillage_loss3/classifier_plantvillage_0_split
I0403 09:25:49.269619 23602 net.cpp:425] loss3/classifier_plantvillage_loss3/classifier_plantvillage_0_split <- loss3/classifier_plantvillage
I0403 09:25:49.269646 23602 net.cpp:399] loss3/classifier_plantvillage_loss3/classifier_plantvillage_0_split -> loss3/classifier_plantvillage_loss3/classifier_plantvillage_0_split_0
I0403 09:25:49.269673 23602 net.cpp:399] loss3/classifier_plantvillage_loss3/classifier_plantvillage_0_split -> loss3/classifier_plantvillage_loss3/classifier_plantvillage_0_split_1
I0403 09:25:49.269700 23602 net.cpp:399] loss3/classifier_plantvillage_loss3/classifier_plantvillage_0_split -> loss3/classifier_plantvillage_loss3/classifier_plantvillage_0_split_2
I0403 09:25:49.269776 23602 net.cpp:141] Setting up loss3/classifier_plantvillage_loss3/classifier_plantvillage_0_split
I0403 09:25:49.269804 23602 net.cpp:148] Top shape: 24 38 (912)
I0403 09:25:49.269825 23602 net.cpp:148] Top shape: 24 38 (912)
I0403 09:25:49.269845 23602 net.cpp:148] Top shape: 24 38 (912)
I0403 09:25:49.269862 23602 net.cpp:156] Memory required for data: 1346075328
I0403 09:25:49.269881 23602 layer_factory.hpp:77] Creating layer loss1/loss
I0403 09:25:49.269904 23602 net.cpp:91] Creating Layer loss1/loss
I0403 09:25:49.269925 23602 net.cpp:425] loss1/loss <- loss1/classifier_plantvillage_loss1/classifier_plantvillage_0_split_0
I0403 09:25:49.269948 23602 net.cpp:425] loss1/loss <- label_data_1_split_0
…
