…
I0403 02:30:36.869079 19293 net.cpp:313] The NetState phase (0) differed from the phase (1) specified by a rule in layer accuracy
I0403 02:30:36.870965 19293 net.cpp:49] Initializing net from parameters: 
state {
  phase: TRAIN
}
layer {
  name: "data"
  type: "Data"
  top: "data"
  top: "label"
  include {
    phase: TRAIN
  }
  transform_param {
    mirror: true
    crop_size: 227
    mean_file: "/home/mohanty/data/final_dataset/lmdb/grayscale-20-80/mean.binaryproto"
  }
  data_param {
    source: "/home/mohanty/data/final_dataset/lmdb/grayscale-20-80/train_db"
    batch_size: 100
    backend: LMDB
  }
}
layer {
  name: "conv1"
  type: "Convolution"
  bottom: "data"
  top: "conv1"
  param {
    lr_mult: 1
    decay_mult: 1
  }
  param {
    lr_mult: 2
    decay_mult: 0
  }
  convolution_param {
    num_output: 96
    kernel_size: 11
    stride: 4
    weight_filler {
      type: "gaussian"
      std: 0.01
    }
    bias_filler {
      type: "constant"
      value: 0
    }
  }
}
layer {
  name: "relu1"
  type: "ReLU"
  bottom: "conv1"
  top: "conv1"
}
layer {
  name: "norm1"
  type: "LRN"
  bottom: "conv1"
  top: "norm1"
  lrn_param {
    local_size: 5
    alpha: 0.0001
    beta: 0.75
  }
}
layer {
  name: "pool1"
  type: "Pooling"
  bottom: "norm1"
  top: "pool1"
  pooling_param {
    pool: MAX
    kernel_size: 3
    stride: 2
  }
}
layer {
  name: "conv2"
  type: "Convolution"
  bottom: "pool1"
  top: "conv2"
  param {
    lr_mult: 1
    decay_mult: 1
  }
  param {
    lr_mult: 2
    decay_mult: 0
  }
  convolution_param {
    num_output: 256
    pad: 2
    kernel_size: 5
    group: 2
    weight_filler {
      type: "gaussian"
      std: 0.01
    }
    bias_filler {
      type: "constant"
      value: 0.1
    }
  }
}
layer {
  name: "relu2"
  type: "ReLU"
  bottom: "conv2"
  top: "conv2"
}
layer {
  name: "norm2"
  type: "LRN"
  bottom: "conv2"
  top: "norm2"
  lrn_param {
    local_size: 5
    alpha: 0.0001
    beta: 0.75
  }
}
layer {
  name: "pool2"
  type: "Pooling"
  bottom: "norm2"
  top: "pool2"
  pooling_param {
    pool: MAX
    kernel_size: 3
    stride: 2
  }
}
layer {
  name: "conv3"
  type: "Convolution"
  bottom: "pool2"
  top: "conv3"
  param {
    lr_mult: 1
    decay_mult: 1
  }
  param {
    lr_mult: 2
    decay_mult: 0
  }
  convolution_param {
    num_output: 384
    pad: 1
    kernel_size: 3
    weight_filler {
      type: "gaussian"
      std: 0.01
    }
    bias_filler {
      type: "constant"
      value: 0
    }
  }
}
layer {
  name: "relu3"
  type: "ReLU"
  bottom: "conv3"
  top: "conv3"
}
layer {
  name: "conv4"
  type: "Convolution"
  bottom: "conv3"
  top: "conv4"
  param {
    lr_mult: 1
    decay_mult: 1
  }
  param {
    lr_mult: 2
    decay_mult: 0
  }
  convolution_param {
    num_output: 384
    pad: 1
    kernel_size: 3
    group: 2
    weight_filler {
      type: "gaussian"
      std: 0.01
    }
    bias_filler {
      type: "constant"
      value: 0.1
    }
  }
}
layer {
  name: "relu4"
  type: "ReLU"
  bottom: "conv4"
  top: "conv4"
}
layer {
  name: "conv5"
  type: "Convolution"
  bottom: "conv4"
  top: "conv5"
  param {
    lr_mult: 1
    decay_mult: 1
  }
  param {
    lr_mult: 2
    decay_mult: 0
  }
  convolution_param {
    num_output: 256
    pad: 1
    kernel_size: 3
    group: 2
    weight_filler {
      type: "gaussian"
      std: 0.01
    }
    bias_filler {
      type: "constant"
      value: 0.1
    }
  }
}
layer {
  name: "relu5"
  type: "ReLU"
  bottom: "conv5"
  top: "conv5"
}
layer {
  name: "pool5"
  type: "Pooling"
  bottom: "conv5"
  top: "pool5"
  pooling_param {
    pool: MAX
    kernel_size: 3
    stride: 2
  }
}
layer {
  name: "fc6"
  type: "InnerProduct"
  bottom: "pool5"
  top: "fc6"
  param {
    lr_mult: 1
    decay_mult: 1
  }
  param {
    lr_mult: 2
    decay_mult: 0
  }
  inner_product_param {
    num_output: 4096
    weight_filler {
      type: "gaussian"
      std: 0.005
    }
    bias_filler {
      type: "constant"
      value: 0.1
    }
  }
}
layer {
  name: "relu6"
  type: "ReLU"
  bottom: "fc6"
  top: "fc6"
}
layer {
  name: "drop6"
  type: "Dropout"
  bottom: "fc6"
  top: "fc6"
  dropout_param {
    dropout_ratio: 0.5
  }
}
layer {
  name: "fc7"
  type: "InnerProduct"
  bottom: "fc6"
  top: "fc7"
  param {
    lr_mult: 1
    decay_mult: 1
  }
  param {
    lr_mult: 2
    decay_mult: 0
  }
  inner_product_param {
    num_output: 4096
    weight_filler {
      type: "gaussian"
      std: 0.005
    }
    bias_filler {
      type: "constant"
      value: 0.1
    }
  }
}
layer {
  name: "relu7"
  type: "ReLU"
  bottom: "fc7"
  top: "fc7"
}
layer {
  name: "drop7"
  type: "Dropout"
  bottom: "fc7"
  top: "fc7"
  dropout_param {
    dropout_ratio: 0.5
  }
}
layer {
  name: "fc8_plantvillage"
  type: "InnerProduct"
  bottom: "fc7"
  top: "fc8_plantvillage"
  param {
    lr_mult: 1
    decay_mult: 1
  }
  param {
    lr_mult: 2
    decay_mult: 0
  }
  inner_product_param {
    num_output: 38
    weight_filler {
      type: "gaussian"
      std: 0.01
    }
    bias_filler {
      type: "constant"
      value: 0
    }
  }
}
layer {
  name: "loss"
  type: "SoftmaxWithLoss"
  bottom: "fc8_plantvillage"
  bottom: "label"
  top: "loss"
}
I0403 02:30:36.873487 19293 layer_factory.hpp:77] Creating layer data
I0403 02:30:36.876132 19293 net.cpp:91] Creating Layer data
I0403 02:30:36.876346 19293 net.cpp:399] data -> data
I0403 02:30:36.876803 19293 net.cpp:399] data -> label
I0403 02:30:36.877063 19293 data_transformer.cpp:25] Loading mean file from: /home/mohanty/data/final_dataset/lmdb/grayscale-20-80/mean.binaryproto
I0403 02:30:36.892213 19300 db_lmdb.cpp:38] Opened lmdb /home/mohanty/data/final_dataset/lmdb/grayscale-20-80/train_db
I0403 02:30:36.951231 19293 data_layer.cpp:41] output data size: 100,3,227,227
I0403 02:30:37.090081 19293 net.cpp:141] Setting up data
I0403 02:30:37.090198 19293 net.cpp:148] Top shape: 100 3 227 227 (15458700)
I0403 02:30:37.090227 19293 net.cpp:148] Top shape: 100 (100)
I0403 02:30:37.090247 19293 net.cpp:156] Memory required for data: 61835200
I0403 02:30:37.090286 19293 layer_factory.hpp:77] Creating layer conv1
I0403 02:30:37.090344 19293 net.cpp:91] Creating Layer conv1
I0403 02:30:37.090374 19293 net.cpp:425] conv1 <- data
I0403 02:30:37.090415 19293 net.cpp:399] conv1 -> conv1
I0403 02:30:37.094269 19293 net.cpp:141] Setting up conv1
I0403 02:30:37.094331 19293 net.cpp:148] Top shape: 100 96 55 55 (29040000)
I0403 02:30:37.094354 19293 net.cpp:156] Memory required for data: 177995200
I0403 02:30:37.094416 19293 layer_factory.hpp:77] Creating layer relu1
I0403 02:30:37.094471 19293 net.cpp:91] Creating Layer relu1
I0403 02:30:37.094499 19293 net.cpp:425] relu1 <- conv1
I0403 02:30:37.094522 19293 net.cpp:386] relu1 -> conv1 (in-place)
I0403 02:30:37.094568 19293 net.cpp:141] Setting up relu1
I0403 02:30:37.094596 19293 net.cpp:148] Top shape: 100 96 55 55 (29040000)
I0403 02:30:37.094616 19293 net.cpp:156] Memory required for data: 294155200
I0403 02:30:37.094636 19293 layer_factory.hpp:77] Creating layer norm1
I0403 02:30:37.094661 19293 net.cpp:91] Creating Layer norm1
I0403 02:30:37.094724 19293 net.cpp:425] norm1 <- conv1
I0403 02:30:37.094749 19293 net.cpp:399] norm1 -> norm1
I0403 02:30:37.100214 19293 net.cpp:141] Setting up norm1
I0403 02:30:37.100263 19293 net.cpp:148] Top shape: 100 96 55 55 (29040000)
I0403 02:30:37.100291 19293 net.cpp:156] Memory required for data: 410315200
I0403 02:30:37.100313 19293 layer_factory.hpp:77] Creating layer pool1
I0403 02:30:37.100343 19293 net.cpp:91] Creating Layer pool1
I0403 02:30:37.100365 19293 net.cpp:425] pool1 <- norm1
I0403 02:30:37.100389 19293 net.cpp:399] pool1 -> pool1
I0403 02:30:37.100497 19293 net.cpp:141] Setting up pool1
I0403 02:30:37.100533 19293 net.cpp:148] Top shape: 100 96 27 27 (6998400)
I0403 02:30:37.100553 19293 net.cpp:156] Memory required for data: 438308800
I0403 02:30:37.100574 19293 layer_factory.hpp:77] Creating layer conv2
I0403 02:30:37.100602 19293 net.cpp:91] Creating Layer conv2
I0403 02:30:37.100625 19293 net.cpp:425] conv2 <- pool1
I0403 02:30:37.100651 19293 net.cpp:399] conv2 -> conv2
I0403 02:30:37.102339 19301 blocking_queue.cpp:50] Waiting for data
I0403 02:30:37.120645 19293 net.cpp:141] Setting up conv2
I0403 02:30:37.120685 19293 net.cpp:148] Top shape: 100 256 27 27 (18662400)
I0403 02:30:37.120708 19293 net.cpp:156] Memory required for data: 512958400
I0403 02:30:37.120738 19293 layer_factory.hpp:77] Creating layer relu2
I0403 02:30:37.120765 19293 net.cpp:91] Creating Layer relu2
I0403 02:30:37.120789 19293 net.cpp:425] relu2 <- conv2
I0403 02:30:37.120823 19293 net.cpp:386] relu2 -> conv2 (in-place)
I0403 02:30:37.120849 19293 net.cpp:141] Setting up relu2
I0403 02:30:37.120872 19293 net.cpp:148] Top shape: 100 256 27 27 (18662400)
I0403 02:30:37.120892 19293 net.cpp:156] Memory required for data: 587608000
I0403 02:30:37.120913 19293 layer_factory.hpp:77] Creating layer norm2
I0403 02:30:37.120937 19293 net.cpp:91] Creating Layer norm2
I0403 02:30:37.120960 19293 net.cpp:425] norm2 <- conv2
I0403 02:30:37.120985 19293 net.cpp:399] norm2 -> norm2
I0403 02:30:37.121043 19293 net.cpp:141] Setting up norm2
I0403 02:30:37.121073 19293 net.cpp:148] Top shape: 100 256 27 27 (18662400)
I0403 02:30:37.121093 19293 net.cpp:156] Memory required for data: 662257600
I0403 02:30:37.121115 19293 layer_factory.hpp:77] Creating layer pool2
I0403 02:30:37.121142 19293 net.cpp:91] Creating Layer pool2
I0403 02:30:37.121165 19293 net.cpp:425] pool2 <- norm2
I0403 02:30:37.121189 19293 net.cpp:399] pool2 -> pool2
I0403 02:30:37.121248 19293 net.cpp:141] Setting up pool2
I0403 02:30:37.121278 19293 net.cpp:148] Top shape: 100 256 13 13 (4326400)
I0403 02:30:37.121299 19293 net.cpp:156] Memory required for data: 679563200
I0403 02:30:37.121320 19293 layer_factory.hpp:77] Creating layer conv3
I0403 02:30:37.121348 19293 net.cpp:91] Creating Layer conv3
I0403 02:30:37.121371 19293 net.cpp:425] conv3 <- pool2
I0403 02:30:37.121398 19293 net.cpp:399] conv3 -> conv3
I0403 02:30:37.163244 19293 net.cpp:141] Setting up conv3
I0403 02:30:37.163287 19293 net.cpp:148] Top shape: 100 384 13 13 (6489600)
I0403 02:30:37.163310 19293 net.cpp:156] Memory required for data: 705521600
I0403 02:30:37.163338 19293 layer_factory.hpp:77] Creating layer relu3
I0403 02:30:37.163363 19293 net.cpp:91] Creating Layer relu3
I0403 02:30:37.163385 19293 net.cpp:425] relu3 <- conv3
I0403 02:30:37.163409 19293 net.cpp:386] relu3 -> conv3 (in-place)
I0403 02:30:37.163434 19293 net.cpp:141] Setting up relu3
I0403 02:30:37.163456 19293 net.cpp:148] Top shape: 100 384 13 13 (6489600)
I0403 02:30:37.163481 19293 net.cpp:156] Memory required for data: 731480000
I0403 02:30:37.163501 19293 layer_factory.hpp:77] Creating layer conv4
I0403 02:30:37.163530 19293 net.cpp:91] Creating Layer conv4
I0403 02:30:37.163553 19293 net.cpp:425] conv4 <- conv3
I0403 02:30:37.163580 19293 net.cpp:399] conv4 -> conv4
I0403 02:30:37.196333 19293 net.cpp:141] Setting up conv4
I0403 02:30:37.196375 19293 net.cpp:148] Top shape: 100 384 13 13 (6489600)
I0403 02:30:37.196395 19293 net.cpp:156] Memory required for data: 757438400
I0403 02:30:37.196444 19293 layer_factory.hpp:77] Creating layer relu4
I0403 02:30:37.196476 19293 net.cpp:91] Creating Layer relu4
I0403 02:30:37.196501 19293 net.cpp:425] relu4 <- conv4
I0403 02:30:37.196523 19293 net.cpp:386] relu4 -> conv4 (in-place)
I0403 02:30:37.196549 19293 net.cpp:141] Setting up relu4
I0403 02:30:37.196573 19293 net.cpp:148] Top shape: 100 384 13 13 (6489600)
I0403 02:30:37.196593 19293 net.cpp:156] Memory required for data: 783396800
I0403 02:30:37.196612 19293 layer_factory.hpp:77] Creating layer conv5
I0403 02:30:37.196641 19293 net.cpp:91] Creating Layer conv5
I0403 02:30:37.196662 19293 net.cpp:425] conv5 <- conv4
I0403 02:30:37.196688 19293 net.cpp:399] conv5 -> conv5
I0403 02:30:37.217813 19293 net.cpp:141] Setting up conv5
I0403 02:30:37.217852 19293 net.cpp:148] Top shape: 100 256 13 13 (4326400)
I0403 02:30:37.217874 19293 net.cpp:156] Memory required for data: 800702400
I0403 02:30:37.217901 19293 layer_factory.hpp:77] Creating layer relu5
I0403 02:30:37.217926 19293 net.cpp:91] Creating Layer relu5
I0403 02:30:37.217948 19293 net.cpp:425] relu5 <- conv5
I0403 02:30:37.217973 19293 net.cpp:386] relu5 -> conv5 (in-place)
I0403 02:30:37.217999 19293 net.cpp:141] Setting up relu5
I0403 02:30:37.218022 19293 net.cpp:148] Top shape: 100 256 13 13 (4326400)
I0403 02:30:37.218040 19293 net.cpp:156] Memory required for data: 818008000
I0403 02:30:37.218060 19293 layer_factory.hpp:77] Creating layer pool5
I0403 02:30:37.218082 19293 net.cpp:91] Creating Layer pool5
I0403 02:30:37.218104 19293 net.cpp:425] pool5 <- conv5
I0403 02:30:37.218132 19293 net.cpp:399] pool5 -> pool5
I0403 02:30:37.218190 19293 net.cpp:141] Setting up pool5
I0403 02:30:37.218220 19293 net.cpp:148] Top shape: 100 256 6 6 (921600)
I0403 02:30:37.218240 19293 net.cpp:156] Memory required for data: 821694400
I0403 02:30:37.218260 19293 layer_factory.hpp:77] Creating layer fc6
I0403 02:30:37.218319 19293 net.cpp:91] Creating Layer fc6
I0403 02:30:37.218346 19293 net.cpp:425] fc6 <- pool5
I0403 02:30:37.218372 19293 net.cpp:399] fc6 -> fc6
I0403 02:30:38.789791 19293 net.cpp:141] Setting up fc6
I0403 02:30:38.789875 19293 net.cpp:148] Top shape: 100 4096 (409600)
I0403 02:30:38.789893 19293 net.cpp:156] Memory required for data: 823332800
I0403 02:30:38.789916 19293 layer_factory.hpp:77] Creating layer relu6
I0403 02:30:38.789942 19293 net.cpp:91] Creating Layer relu6
I0403 02:30:38.789961 19293 net.cpp:425] relu6 <- fc6
I0403 02:30:38.789986 19293 net.cpp:386] relu6 -> fc6 (in-place)
I0403 02:30:38.790011 19293 net.cpp:141] Setting up relu6
I0403 02:30:38.790030 19293 net.cpp:148] Top shape: 100 4096 (409600)
I0403 02:30:38.790046 19293 net.cpp:156] Memory required for data: 824971200
I0403 02:30:38.790061 19293 layer_factory.hpp:77] Creating layer drop6
I0403 02:30:38.790112 19293 net.cpp:91] Creating Layer drop6
I0403 02:30:38.790132 19293 net.cpp:425] drop6 <- fc6
I0403 02:30:38.790153 19293 net.cpp:386] drop6 -> fc6 (in-place)
I0403 02:30:38.790215 19293 net.cpp:141] Setting up drop6
I0403 02:30:38.790237 19293 net.cpp:148] Top shape: 100 4096 (409600)
I0403 02:30:38.790253 19293 net.cpp:156] Memory required for data: 826609600
I0403 02:30:38.790268 19293 layer_factory.hpp:77] Creating layer fc7
I0403 02:30:38.790292 19293 net.cpp:91] Creating Layer fc7
I0403 02:30:38.790312 19293 net.cpp:425] fc7 <- fc6
I0403 02:30:38.790343 19293 net.cpp:399] fc7 -> fc7
I0403 02:30:39.417300 19293 net.cpp:141] Setting up fc7
I0403 02:30:39.417389 19293 net.cpp:148] Top shape: 100 4096 (409600)
I0403 02:30:39.417407 19293 net.cpp:156] Memory required for data: 828248000
I0403 02:30:39.417430 19293 layer_factory.hpp:77] Creating layer relu7
I0403 02:30:39.417456 19293 net.cpp:91] Creating Layer relu7
I0403 02:30:39.417492 19293 net.cpp:425] relu7 <- fc7
I0403 02:30:39.417515 19293 net.cpp:386] relu7 -> fc7 (in-place)
I0403 02:30:39.417539 19293 net.cpp:141] Setting up relu7
I0403 02:30:39.417557 19293 net.cpp:148] Top shape: 100 4096 (409600)
I0403 02:30:39.417573 19293 net.cpp:156] Memory required for data: 829886400
I0403 02:30:39.417589 19293 layer_factory.hpp:77] Creating layer drop7
I0403 02:30:39.417655 19293 net.cpp:91] Creating Layer drop7
I0403 02:30:39.417675 19293 net.cpp:425] drop7 <- fc7
I0403 02:30:39.417695 19293 net.cpp:386] drop7 -> fc7 (in-place)
I0403 02:30:39.417733 19293 net.cpp:141] Setting up drop7
I0403 02:30:39.417770 19293 net.cpp:148] Top shape: 100 4096 (409600)
I0403 02:30:39.417786 19293 net.cpp:156] Memory required for data: 831524800
I0403 02:30:39.417803 19293 layer_factory.hpp:77] Creating layer fc8_plantvillage
I0403 02:30:39.417824 19293 net.cpp:91] Creating Layer fc8_plantvillage
I0403 02:30:39.417841 19293 net.cpp:425] fc8_plantvillage <- fc7
I0403 02:30:39.417862 19293 net.cpp:399] fc8_plantvillage -> fc8_plantvillage
I0403 02:30:39.423977 19293 net.cpp:141] Setting up fc8_plantvillage
I0403 02:30:39.424005 19293 net.cpp:148] Top shape: 100 38 (3800)
I0403 02:30:39.424022 19293 net.cpp:156] Memory required for data: 831540000
I0403 02:30:39.424042 19293 layer_factory.hpp:77] Creating layer loss
I0403 02:30:39.424088 19293 net.cpp:91] Creating Layer loss
I0403 02:30:39.424108 19293 net.cpp:425] loss <- fc8_plantvillage
I0403 02:30:39.424135 19293 net.cpp:425] loss <- label
I0403 02:30:39.424165 19293 net.cpp:399] loss -> loss
I0403 02:30:39.424206 19293 layer_factory.hpp:77] Creating layer loss
…
I0403 02:30:39.426057 19293 net.cpp:313] The NetState phase (1) differed from the phase (0) specified by a rule in layer data
I0403 02:30:39.426712 19293 net.cpp:49] Initializing net from parameters: 
state {
  phase: TEST
}
layer {
  name: "data"
  type: "Data"
  top: "data"
  top: "label"
  include {
    phase: TEST
  }
  transform_param {
    crop_size: 227
    mean_file: "/home/mohanty/data/final_dataset/lmdb/grayscale-20-80/mean.binaryproto"
  }
  data_param {
    source: "/home/mohanty/data/final_dataset/lmdb/grayscale-20-80/test_db"
    batch_size: 100
    backend: LMDB
  }
}
layer {
  name: "conv1"
  type: "Convolution"
  bottom: "data"
  top: "conv1"
  param {
    lr_mult: 1
    decay_mult: 1
  }
  param {
    lr_mult: 2
    decay_mult: 0
  }
  convolution_param {
    num_output: 96
    kernel_size: 11
    stride: 4
    weight_filler {
      type: "gaussian"
      std: 0.01
    }
    bias_filler {
      type: "constant"
      value: 0
    }
  }
}
layer {
  name: "relu1"
  type: "ReLU"
  bottom: "conv1"
  top: "conv1"
}
layer {
  name: "norm1"
  type: "LRN"
  bottom: "conv1"
  top: "norm1"
  lrn_param {
    local_size: 5
    alpha: 0.0001
    beta: 0.75
  }
}
layer {
  name: "pool1"
  type: "Pooling"
  bottom: "norm1"
  top: "pool1"
  pooling_param {
    pool: MAX
    kernel_size: 3
    stride: 2
  }
}
layer {
  name: "conv2"
  type: "Convolution"
  bottom: "pool1"
  top: "conv2"
  param {
    lr_mult: 1
    decay_mult: 1
  }
  param {
    lr_mult: 2
    decay_mult: 0
  }
  convolution_param {
    num_output: 256
    pad: 2
    kernel_size: 5
    group: 2
    weight_filler {
      type: "gaussian"
      std: 0.01
    }
    bias_filler {
      type: "constant"
      value: 0.1
    }
  }
}
layer {
  name: "relu2"
  type: "ReLU"
  bottom: "conv2"
  top: "conv2"
}
layer {
  name: "norm2"
  type: "LRN"
  bottom: "conv2"
  top: "norm2"
  lrn_param {
    local_size: 5
    alpha: 0.0001
    beta: 0.75
  }
}
layer {
  name: "pool2"
  type: "Pooling"
  bottom: "norm2"
  top: "pool2"
  pooling_param {
    pool: MAX
    kernel_size: 3
    stride: 2
  }
}
layer {
  name: "conv3"
  type: "Convolution"
  bottom: "pool2"
  top: "conv3"
  param {
    lr_mult: 1
    decay_mult: 1
  }
  param {
    lr_mult: 2
    decay_mult: 0
  }
  convolution_param {
    num_output: 384
    pad: 1
    kernel_size: 3
    weight_filler {
      type: "gaussian"
      std: 0.01
    }
    bias_filler {
      type: "constant"
      value: 0
    }
  }
}
layer {
  name: "relu3"
  type: "ReLU"
  bottom: "conv3"
  top: "conv3"
}
layer {
  name: "conv4"
  type: "Convolution"
  bottom: "conv3"
  top: "conv4"
  param {
    lr_mult: 1
    decay_mult: 1
  }
  param {
    lr_mult: 2
    decay_mult: 0
  }
  convolution_param {
    num_output: 384
    pad: 1
    kernel_size: 3
    group: 2
    weight_filler {
      type: "gaussian"
      std: 0.01
    }
    bias_filler {
      type: "constant"
      value: 0.1
    }
  }
}
layer {
  name: "relu4"
  type: "ReLU"
  bottom: "conv4"
  top: "conv4"
}
layer {
  name: "conv5"
  type: "Convolution"
  bottom: "conv4"
  top: "conv5"
  param {
    lr_mult: 1
    decay_mult: 1
  }
  param {
    lr_mult: 2
    decay_mult: 0
  }
  convolution_param {
    num_output: 256
    pad: 1
    kernel_size: 3
    group: 2
    weight_filler {
      type: "gaussian"
      std: 0.01
    }
    bias_filler {
      type: "constant"
      value: 0.1
    }
  }
}
layer {
  name: "relu5"
  type: "ReLU"
  bottom: "conv5"
  top: "conv5"
}
layer {
  name: "pool5"
  type: "Pooling"
  bottom: "conv5"
  top: "pool5"
  pooling_param {
    pool: MAX
    kernel_size: 3
    stride: 2
  }
}
layer {
  name: "fc6"
  type: "InnerProduct"
  bottom: "pool5"
  top: "fc6"
  param {
    lr_mult: 1
    decay_mult: 1
  }
  param {
    lr_mult: 2
    decay_mult: 0
  }
  inner_product_param {
    num_output: 4096
    weight_filler {
      type: "gaussian"
      std: 0.005
    }
    bias_filler {
      type: "constant"
      value: 0.1
    }
  }
}
layer {
  name: "relu6"
  type: "ReLU"
  bottom: "fc6"
  top: "fc6"
}
layer {
  name: "drop6"
  type: "Dropout"
  bottom: "fc6"
  top: "fc6"
  dropout_param {
    dropout_ratio: 0.5
  }
}
layer {
  name: "fc7"
  type: "InnerProduct"
  bottom: "fc6"
  top: "fc7"
  param {
    lr_mult: 1
    decay_mult: 1
  }
  param {
    lr_mult: 2
    decay_mult: 0
  }
  inner_product_param {
    num_output: 4096
    weight_filler {
      type: "gaussian"
      std: 0.005
    }
    bias_filler {
      type: "constant"
      value: 0.1
    }
  }
}
layer {
  name: "relu7"
  type: "ReLU"
  bottom: "fc7"
  top: "fc7"
}
layer {
  name: "drop7"
  type: "Dropout"
  bottom: "fc7"
  top: "fc7"
  dropout_param {
    dropout_ratio: 0.5
  }
}
layer {
  name: "fc8_plantvillage"
  type: "InnerProduct"
  bottom: "fc7"
  top: "fc8_plantvillage"
  param {
    lr_mult: 1
    decay_mult: 1
  }
  param {
    lr_mult: 2
    decay_mult: 0
  }
  inner_product_param {
    num_output: 38
    weight_filler {
      type: "gaussian"
      std: 0.01
    }
    bias_filler {
      type: "constant"
      value: 0
    }
  }
}
layer {
  name: "loss"
  type: "SoftmaxWithLoss"
  bottom: "fc8_plantvillage"
  bottom: "label"
  top: "loss"
}
layer {
  name: "accuracy"
  type: "Accuracy"
  bottom: "fc8_plantvillage"
  bottom: "label"
  top: "accuracy"
  include {
    phase: TEST
  }
}
I0403 02:30:39.426882 19293 layer_factory.hpp:77] Creating layer data
I0403 02:30:39.427408 19293 net.cpp:91] Creating Layer data
I0403 02:30:39.427435 19293 net.cpp:399] data -> data
I0403 02:30:39.427467 19293 net.cpp:399] data -> label
I0403 02:30:39.427495 19293 data_transformer.cpp:25] Loading mean file from: /home/mohanty/data/final_dataset/lmdb/grayscale-20-80/mean.binaryproto
I0403 02:30:39.449884 19306 db_lmdb.cpp:38] Opened lmdb /home/mohanty/data/final_dataset/lmdb/grayscale-20-80/test_db
I0403 02:30:39.456312 19293 data_layer.cpp:41] output data size: 100,3,227,227
I0403 02:30:39.599959 19293 net.cpp:141] Setting up data
I0403 02:30:39.600090 19293 net.cpp:148] Top shape: 100 3 227 227 (15458700)
I0403 02:30:39.600168 19293 net.cpp:148] Top shape: 100 (100)
I0403 02:30:39.600242 19293 net.cpp:156] Memory required for data: 61835200
I0403 02:30:39.600347 19293 layer_factory.hpp:77] Creating layer label_data_1_split
I0403 02:30:39.600399 19293 net.cpp:91] Creating Layer label_data_1_split
I0403 02:30:39.600495 19293 net.cpp:425] label_data_1_split <- label
I0403 02:30:39.600625 19293 net.cpp:399] label_data_1_split -> label_data_1_split_0
I0403 02:30:39.600752 19293 net.cpp:399] label_data_1_split -> label_data_1_split_1
I0403 02:30:39.600970 19293 net.cpp:141] Setting up label_data_1_split
I0403 02:30:39.601099 19293 net.cpp:148] Top shape: 100 (100)
I0403 02:30:39.601229 19293 net.cpp:148] Top shape: 100 (100)
I0403 02:30:39.601374 19293 net.cpp:156] Memory required for data: 61836000
I0403 02:30:39.601510 19293 layer_factory.hpp:77] Creating layer conv1
I0403 02:30:39.601624 19293 net.cpp:91] Creating Layer conv1
I0403 02:30:39.601749 19293 net.cpp:425] conv1 <- data
I0403 02:30:39.601886 19293 net.cpp:399] conv1 -> conv1
I0403 02:30:39.603770 19293 net.cpp:141] Setting up conv1
I0403 02:30:39.603804 19293 net.cpp:148] Top shape: 100 96 55 55 (29040000)
I0403 02:30:39.603828 19293 net.cpp:156] Memory required for data: 177996000
I0403 02:30:39.603859 19293 layer_factory.hpp:77] Creating layer relu1
I0403 02:30:39.603884 19293 net.cpp:91] Creating Layer relu1
I0403 02:30:39.603909 19293 net.cpp:425] relu1 <- conv1
I0403 02:30:39.603935 19293 net.cpp:386] relu1 -> conv1 (in-place)
I0403 02:30:39.603962 19293 net.cpp:141] Setting up relu1
I0403 02:30:39.603983 19293 net.cpp:148] Top shape: 100 96 55 55 (29040000)
I0403 02:30:39.604007 19293 net.cpp:156] Memory required for data: 294156000
I0403 02:30:39.604030 19293 layer_factory.hpp:77] Creating layer norm1
I0403 02:30:39.604058 19293 net.cpp:91] Creating Layer norm1
I0403 02:30:39.604077 19293 net.cpp:425] norm1 <- conv1
I0403 02:30:39.604105 19293 net.cpp:399] norm1 -> norm1
I0403 02:30:39.604162 19293 net.cpp:141] Setting up norm1
I0403 02:30:39.604192 19293 net.cpp:148] Top shape: 100 96 55 55 (29040000)
I0403 02:30:39.604209 19293 net.cpp:156] Memory required for data: 410316000
I0403 02:30:39.604231 19293 layer_factory.hpp:77] Creating layer pool1
I0403 02:30:39.604259 19293 net.cpp:91] Creating Layer pool1
I0403 02:30:39.604280 19293 net.cpp:425] pool1 <- norm1
I0403 02:30:39.604305 19293 net.cpp:399] pool1 -> pool1
I0403 02:30:39.604362 19293 net.cpp:141] Setting up pool1
I0403 02:30:39.604390 19293 net.cpp:148] Top shape: 100 96 27 27 (6998400)
I0403 02:30:39.604408 19293 net.cpp:156] Memory required for data: 438309600
I0403 02:30:39.604452 19293 layer_factory.hpp:77] Creating layer conv2
I0403 02:30:39.604497 19293 net.cpp:91] Creating Layer conv2
I0403 02:30:39.604522 19293 net.cpp:425] conv2 <- pool1
I0403 02:30:39.604550 19293 net.cpp:399] conv2 -> conv2
I0403 02:30:39.616658 19293 net.cpp:141] Setting up conv2
I0403 02:30:39.616693 19293 net.cpp:148] Top shape: 100 256 27 27 (18662400)
I0403 02:30:39.616711 19293 net.cpp:156] Memory required for data: 512959200
I0403 02:30:39.616734 19293 layer_factory.hpp:77] Creating layer relu2
I0403 02:30:39.616755 19293 net.cpp:91] Creating Layer relu2
I0403 02:30:39.616775 19293 net.cpp:425] relu2 <- conv2
I0403 02:30:39.616794 19293 net.cpp:386] relu2 -> conv2 (in-place)
I0403 02:30:39.616816 19293 net.cpp:141] Setting up relu2
I0403 02:30:39.616834 19293 net.cpp:148] Top shape: 100 256 27 27 (18662400)
I0403 02:30:39.616850 19293 net.cpp:156] Memory required for data: 587608800
I0403 02:30:39.616866 19293 layer_factory.hpp:77] Creating layer norm2
I0403 02:30:39.616888 19293 net.cpp:91] Creating Layer norm2
I0403 02:30:39.616907 19293 net.cpp:425] norm2 <- conv2
I0403 02:30:39.616927 19293 net.cpp:399] norm2 -> norm2
I0403 02:30:39.616977 19293 net.cpp:141] Setting up norm2
I0403 02:30:39.617002 19293 net.cpp:148] Top shape: 100 256 27 27 (18662400)
I0403 02:30:39.617017 19293 net.cpp:156] Memory required for data: 662258400
I0403 02:30:39.617034 19293 layer_factory.hpp:77] Creating layer pool2
I0403 02:30:39.617054 19293 net.cpp:91] Creating Layer pool2
I0403 02:30:39.617072 19293 net.cpp:425] pool2 <- norm2
I0403 02:30:39.617091 19293 net.cpp:399] pool2 -> pool2
I0403 02:30:39.617137 19293 net.cpp:141] Setting up pool2
I0403 02:30:39.617161 19293 net.cpp:148] Top shape: 100 256 13 13 (4326400)
I0403 02:30:39.617178 19293 net.cpp:156] Memory required for data: 679564000
I0403 02:30:39.617195 19293 layer_factory.hpp:77] Creating layer conv3
I0403 02:30:39.617218 19293 net.cpp:91] Creating Layer conv3
I0403 02:30:39.617238 19293 net.cpp:425] conv3 <- pool2
I0403 02:30:39.617259 19293 net.cpp:399] conv3 -> conv3
I0403 02:30:39.651548 19293 net.cpp:141] Setting up conv3
I0403 02:30:39.663841 19293 net.cpp:148] Top shape: 100 384 13 13 (6489600)
I0403 02:30:39.663916 19293 net.cpp:156] Memory required for data: 705522400
I0403 02:30:39.663956 19293 layer_factory.hpp:77] Creating layer relu3
I0403 02:30:39.664037 19293 net.cpp:91] Creating Layer relu3
I0403 02:30:39.664124 19293 net.cpp:425] relu3 <- conv3
I0403 02:30:39.664227 19293 net.cpp:386] relu3 -> conv3 (in-place)
I0403 02:30:39.664320 19293 net.cpp:141] Setting up relu3
I0403 02:30:39.664356 19293 net.cpp:148] Top shape: 100 384 13 13 (6489600)
I0403 02:30:39.664414 19293 net.cpp:156] Memory required for data: 731480800
I0403 02:30:39.664530 19293 layer_factory.hpp:77] Creating layer conv4
I0403 02:30:39.664628 19293 net.cpp:91] Creating Layer conv4
I0403 02:30:39.664702 19293 net.cpp:425] conv4 <- conv3
I0403 02:30:39.664800 19293 net.cpp:399] conv4 -> conv4
I0403 02:30:39.697613 19293 net.cpp:141] Setting up conv4
I0403 02:30:39.707551 19293 net.cpp:148] Top shape: 100 384 13 13 (6489600)
I0403 02:30:39.707588 19293 net.cpp:156] Memory required for data: 757439200
I0403 02:30:39.707626 19293 layer_factory.hpp:77] Creating layer relu4
I0403 02:30:39.707675 19293 net.cpp:91] Creating Layer relu4
I0403 02:30:39.707720 19293 net.cpp:425] relu4 <- conv4
I0403 02:30:39.707746 19293 net.cpp:386] relu4 -> conv4 (in-place)
I0403 02:30:39.707784 19293 net.cpp:141] Setting up relu4
I0403 02:30:39.707828 19293 net.cpp:148] Top shape: 100 384 13 13 (6489600)
I0403 02:30:39.708034 19293 net.cpp:156] Memory required for data: 783397600
I0403 02:30:39.708217 19293 layer_factory.hpp:77] Creating layer conv5
I0403 02:30:39.708271 19293 net.cpp:91] Creating Layer conv5
I0403 02:30:39.708309 19293 net.cpp:425] conv5 <- conv4
I0403 02:30:39.708353 19293 net.cpp:399] conv5 -> conv5
I0403 02:30:39.730650 19293 net.cpp:141] Setting up conv5
I0403 02:30:39.750921 19293 net.cpp:148] Top shape: 100 256 13 13 (4326400)
I0403 02:30:39.753460 19293 net.cpp:156] Memory required for data: 800703200
I0403 02:30:39.753512 19293 layer_factory.hpp:77] Creating layer relu5
I0403 02:30:39.753550 19293 net.cpp:91] Creating Layer relu5
I0403 02:30:39.753585 19293 net.cpp:425] relu5 <- conv5
I0403 02:30:39.753631 19293 net.cpp:386] relu5 -> conv5 (in-place)
I0403 02:30:39.753654 19293 net.cpp:141] Setting up relu5
I0403 02:30:39.753693 19293 net.cpp:148] Top shape: 100 256 13 13 (4326400)
I0403 02:30:39.753734 19293 net.cpp:156] Memory required for data: 818008800
I0403 02:30:39.753772 19293 layer_factory.hpp:77] Creating layer pool5
I0403 02:30:39.753815 19293 net.cpp:91] Creating Layer pool5
I0403 02:30:39.753859 19293 net.cpp:425] pool5 <- conv5
I0403 02:30:39.753918 19293 net.cpp:399] pool5 -> pool5
I0403 02:30:39.754045 19293 net.cpp:141] Setting up pool5
I0403 02:30:39.754073 19293 net.cpp:148] Top shape: 100 256 6 6 (921600)
I0403 02:30:39.754114 19293 net.cpp:156] Memory required for data: 821695200
I0403 02:30:39.754149 19293 layer_factory.hpp:77] Creating layer fc6
I0403 02:30:39.754194 19293 net.cpp:91] Creating Layer fc6
I0403 02:30:39.754211 19293 net.cpp:425] fc6 <- pool5
I0403 02:30:39.754245 19293 net.cpp:399] fc6 -> fc6
I0403 02:30:41.145566 19293 net.cpp:141] Setting up fc6
I0403 02:30:41.145650 19293 net.cpp:148] Top shape: 100 4096 (409600)
I0403 02:30:41.145668 19293 net.cpp:156] Memory required for data: 823333600
I0403 02:30:41.145691 19293 layer_factory.hpp:77] Creating layer relu6
I0403 02:30:41.145717 19293 net.cpp:91] Creating Layer relu6
I0403 02:30:41.145737 19293 net.cpp:425] relu6 <- fc6
I0403 02:30:41.145761 19293 net.cpp:386] relu6 -> fc6 (in-place)
I0403 02:30:41.145787 19293 net.cpp:141] Setting up relu6
I0403 02:30:41.145804 19293 net.cpp:148] Top shape: 100 4096 (409600)
I0403 02:30:41.145818 19293 net.cpp:156] Memory required for data: 824972000
I0403 02:30:41.145833 19293 layer_factory.hpp:77] Creating layer drop6
I0403 02:30:41.145854 19293 net.cpp:91] Creating Layer drop6
I0403 02:30:41.145872 19293 net.cpp:425] drop6 <- fc6
I0403 02:30:41.145892 19293 net.cpp:386] drop6 -> fc6 (in-place)
I0403 02:30:41.145932 19293 net.cpp:141] Setting up drop6
I0403 02:30:41.145954 19293 net.cpp:148] Top shape: 100 4096 (409600)
I0403 02:30:41.145969 19293 net.cpp:156] Memory required for data: 826610400
I0403 02:30:41.145984 19293 layer_factory.hpp:77] Creating layer fc7
I0403 02:30:41.146006 19293 net.cpp:91] Creating Layer fc7
I0403 02:30:41.146024 19293 net.cpp:425] fc7 <- fc6
I0403 02:30:41.146044 19293 net.cpp:399] fc7 -> fc7
I0403 02:30:41.749228 19293 net.cpp:141] Setting up fc7
I0403 02:30:41.749315 19293 net.cpp:148] Top shape: 100 4096 (409600)
I0403 02:30:41.749335 19293 net.cpp:156] Memory required for data: 828248800
I0403 02:30:41.749357 19293 layer_factory.hpp:77] Creating layer relu7
I0403 02:30:41.749382 19293 net.cpp:91] Creating Layer relu7
I0403 02:30:41.749402 19293 net.cpp:425] relu7 <- fc7
I0403 02:30:41.749423 19293 net.cpp:386] relu7 -> fc7 (in-place)
I0403 02:30:41.749452 19293 net.cpp:141] Setting up relu7
I0403 02:30:41.749470 19293 net.cpp:148] Top shape: 100 4096 (409600)
I0403 02:30:41.749486 19293 net.cpp:156] Memory required for data: 829887200
I0403 02:30:41.749500 19293 layer_factory.hpp:77] Creating layer drop7
I0403 02:30:41.749519 19293 net.cpp:91] Creating Layer drop7
I0403 02:30:41.749536 19293 net.cpp:425] drop7 <- fc7
I0403 02:30:41.749557 19293 net.cpp:386] drop7 -> fc7 (in-place)
I0403 02:30:41.749596 19293 net.cpp:141] Setting up drop7
I0403 02:30:41.749621 19293 net.cpp:148] Top shape: 100 4096 (409600)
I0403 02:30:41.749637 19293 net.cpp:156] Memory required for data: 831525600
I0403 02:30:41.749652 19293 layer_factory.hpp:77] Creating layer fc8_plantvillage
I0403 02:30:41.749675 19293 net.cpp:91] Creating Layer fc8_plantvillage
I0403 02:30:41.749691 19293 net.cpp:425] fc8_plantvillage <- fc7
I0403 02:30:41.749713 19293 net.cpp:399] fc8_plantvillage -> fc8_plantvillage
I0403 02:30:41.755692 19293 net.cpp:141] Setting up fc8_plantvillage
I0403 02:30:41.755722 19293 net.cpp:148] Top shape: 100 38 (3800)
I0403 02:30:41.755784 19293 net.cpp:156] Memory required for data: 831540800
I0403 02:30:41.755802 19293 layer_factory.hpp:77] Creating layer fc8_plantvillage_fc8_plantvillage_0_split
I0403 02:30:41.755825 19293 net.cpp:91] Creating Layer fc8_plantvillage_fc8_plantvillage_0_split
I0403 02:30:41.755843 19293 net.cpp:425] fc8_plantvillage_fc8_plantvillage_0_split <- fc8_plantvillage
I0403 02:30:41.755862 19293 net.cpp:399] fc8_plantvillage_fc8_plantvillage_0_split -> fc8_plantvillage_fc8_plantvillage_0_split_0
I0403 02:30:41.755883 19293 net.cpp:399] fc8_plantvillage_fc8_plantvillage_0_split -> fc8_plantvillage_fc8_plantvillage_0_split_1
I0403 02:30:41.755934 19293 net.cpp:141] Setting up fc8_plantvillage_fc8_plantvillage_0_split
I0403 02:30:41.755956 19293 net.cpp:148] Top shape: 100 38 (3800)
I0403 02:30:41.755973 19293 net.cpp:148] Top shape: 100 38 (3800)
I0403 02:30:41.755988 19293 net.cpp:156] Memory required for data: 831571200
I0403 02:30:41.756005 19293 layer_factory.hpp:77] Creating layer loss
I0403 02:30:41.756022 19293 net.cpp:91] Creating Layer loss
I0403 02:30:41.756037 19293 net.cpp:425] loss <- fc8_plantvillage_fc8_plantvillage_0_split_0
I0403 02:30:41.756054 19293 net.cpp:425] loss <- label_data_1_split_0
I0403 02:30:41.756075 19293 net.cpp:399] loss -> loss
…
