…
I0403 14:18:01.228893  1100 net.cpp:313] The NetState phase (1) differed from the phase (0) specified by a rule in layer data
I0403 14:18:01.229179  1100 net.cpp:49] Initializing net from parameters: 
state {
  phase: TEST
}
layer {
  name: "data"
  type: "Data"
  top: "data"
  top: "label"
  include {
    phase: TEST
  }
  transform_param {
    crop_size: 227
    mean_file: "/home/mohanty/data/final_dataset/lmdb/segmented-50-50/mean.binaryproto"
  }
  data_param {
    source: "/home/mohanty/data/final_dataset/lmdb/segmented-50-50/test_db"
    batch_size: 100
    backend: LMDB
  }
}
layer {
  name: "conv1"
  type: "Convolution"
  bottom: "data"
  top: "conv1"
  param {
    lr_mult: 1
    decay_mult: 1
  }
  param {
    lr_mult: 2
    decay_mult: 0
  }
  convolution_param {
    num_output: 96
    kernel_size: 11
    stride: 4
    weight_filler {
      type: "gaussian"
      std: 0.01
    }
    bias_filler {
      type: "constant"
      value: 0
    }
  }
}
layer {
  name: "relu1"
  type: "ReLU"
  bottom: "conv1"
  top: "conv1"
}
layer {
  name: "norm1"
  type: "LRN"
  bottom: "conv1"
  top: "norm1"
  lrn_param {
    local_size: 5
    alpha: 0.0001
    beta: 0.75
  }
}
layer {
  name: "pool1"
  type: "Pooling"
  bottom: "norm1"
  top: "pool1"
  pooling_param {
    pool: MAX
    kernel_size: 3
    stride: 2
  }
}
layer {
  name: "conv2"
  type: "Convolution"
  bottom: "pool1"
  top: "conv2"
  param {
    lr_mult: 1
    decay_mult: 1
  }
  param {
    lr_mult: 2
    decay_mult: 0
  }
  convolution_param {
    num_output: 256
    pad: 2
    kernel_size: 5
    group: 2
    weight_filler {
      type: "gaussian"
      std: 0.01
    }
    bias_filler {
      type: "constant"
      value: 0.1
    }
  }
}
layer {
  name: "relu2"
  type: "ReLU"
  bottom: "conv2"
  top: "conv2"
}
layer {
  name: "norm2"
  type: "LRN"
  bottom: "conv2"
  top: "norm2"
  lrn_param {
    local_size: 5
    alpha: 0.0001
    beta: 0.75
  }
}
layer {
  name: "pool2"
  type: "Pooling"
  bottom: "norm2"
  top: "pool2"
  pooling_param {
    pool: MAX
    kernel_size: 3
    stride: 2
  }
}
layer {
  name: "conv3"
  type: "Convolution"
  bottom: "pool2"
  top: "conv3"
  param {
    lr_mult: 1
    decay_mult: 1
  }
  param {
    lr_mult: 2
    decay_mult: 0
  }
  convolution_param {
    num_output: 384
    pad: 1
    kernel_size: 3
    weight_filler {
      type: "gaussian"
      std: 0.01
    }
    bias_filler {
      type: "constant"
      value: 0
    }
  }
}
layer {
  name: "relu3"
  type: "ReLU"
  bottom: "conv3"
  top: "conv3"
}
layer {
  name: "conv4"
  type: "Convolution"
  bottom: "conv3"
  top: "conv4"
  param {
    lr_mult: 1
    decay_mult: 1
  }
  param {
    lr_mult: 2
    decay_mult: 0
  }
  convolution_param {
    num_output: 384
    pad: 1
    kernel_size: 3
    group: 2
    weight_filler {
      type: "gaussian"
      std: 0.01
    }
    bias_filler {
      type: "constant"
      value: 0.1
    }
  }
}
layer {
  name: "relu4"
  type: "ReLU"
  bottom: "conv4"
  top: "conv4"
}
layer {
  name: "conv5"
  type: "Convolution"
  bottom: "conv4"
  top: "conv5"
  param {
    lr_mult: 1
    decay_mult: 1
  }
  param {
    lr_mult: 2
    decay_mult: 0
  }
  convolution_param {
    num_output: 256
    pad: 1
    kernel_size: 3
    group: 2
    weight_filler {
      type: "gaussian"
      std: 0.01
    }
    bias_filler {
      type: "constant"
      value: 0.1
    }
  }
}
layer {
  name: "relu5"
  type: "ReLU"
  bottom: "conv5"
  top: "conv5"
}
layer {
  name: "pool5"
  type: "Pooling"
  bottom: "conv5"
  top: "pool5"
  pooling_param {
    pool: MAX
    kernel_size: 3
    stride: 2
  }
}
layer {
  name: "fc6"
  type: "InnerProduct"
  bottom: "pool5"
  top: "fc6"
  param {
    lr_mult: 1
    decay_mult: 1
  }
  param {
    lr_mult: 2
    decay_mult: 0
  }
  inner_product_param {
    num_output: 4096
    weight_filler {
      type: "gaussian"
      std: 0.005
    }
    bias_filler {
      type: "constant"
      value: 0.1
    }
  }
}
layer {
  name: "relu6"
  type: "ReLU"
  bottom: "fc6"
  top: "fc6"
}
layer {
  name: "drop6"
  type: "Dropout"
  bottom: "fc6"
  top: "fc6"
  dropout_param {
    dropout_ratio: 0.5
  }
}
layer {
  name: "fc7"
  type: "InnerProduct"
  bottom: "fc6"
  top: "fc7"
  param {
    lr_mult: 1
    decay_mult: 1
  }
  param {
    lr_mult: 2
    decay_mult: 0
  }
  inner_product_param {
    num_output: 4096
    weight_filler {
      type: "gaussian"
      std: 0.005
    }
    bias_filler {
      type: "constant"
      value: 0.1
    }
  }
}
layer {
  name: "relu7"
  type: "ReLU"
  bottom: "fc7"
  top: "fc7"
}
layer {
  name: "drop7"
  type: "Dropout"
  bottom: "fc7"
  top: "fc7"
  dropout_param {
    dropout_ratio: 0.5
  }
}
layer {
  name: "fc8_plantvillage"
  type: "InnerProduct"
  bottom: "fc7"
  top: "fc8_plantvillage"
  param {
    lr_mult: 1
    decay_mult: 1
  }
  param {
    lr_mult: 2
    decay_mult: 0
  }
  inner_product_param {
    num_output: 38
    weight_filler {
      type: "gaussian"
      std: 0.01
    }
    bias_filler {
      type: "constant"
      value: 0
    }
  }
}
layer {
  name: "prob"
  type: "Softmax"
  bottom: "fc8_plantvillage"
  top: "prob"
  include {
    phase: TEST
  }
}
layer {
  name: "hdf5out"
  type: "HDF5Output"
  bottom: "prob"
  bottom: "label"
  include {
    phase: TEST
  }
  hdf5_output_param {
    file_name: "hdf5_dumps/iter_3484.h5"
  }
}
layer {
  name: "loss"
  type: "SoftmaxWithLoss"
  bottom: "fc8_plantvillage"
  bottom: "label"
  top: "loss"
}
layer {
  name: "accuracy"
  type: "Accuracy"
  bottom: "fc8_plantvillage"
  bottom: "label"
  top: "accuracy"
  include {
    phase: TEST
  }
}
I0403 14:18:01.229801  1100 layer_factory.hpp:77] Creating layer data
I0403 14:18:01.230432  1100 net.cpp:91] Creating Layer data
I0403 14:18:01.230463  1100 net.cpp:399] data -> data
I0403 14:18:01.230512  1100 net.cpp:399] data -> label
I0403 14:18:01.230547  1100 data_transformer.cpp:25] Loading mean file from: /home/mohanty/data/final_dataset/lmdb/segmented-50-50/mean.binaryproto
I0403 14:18:01.233943  1103 db_lmdb.cpp:38] Opened lmdb /home/mohanty/data/final_dataset/lmdb/segmented-50-50/test_db
I0403 14:18:01.244865  1100 data_layer.cpp:41] output data size: 100,3,227,227
I0403 14:18:01.364343  1100 net.cpp:141] Setting up data
I0403 14:18:01.364404  1100 net.cpp:148] Top shape: 100 3 227 227 (15458700)
I0403 14:18:01.364430  1100 net.cpp:148] Top shape: 100 (100)
I0403 14:18:01.364446  1100 net.cpp:156] Memory required for data: 61835200
I0403 14:18:01.364475  1100 layer_factory.hpp:77] Creating layer label_data_1_split
I0403 14:18:01.364500  1100 net.cpp:91] Creating Layer label_data_1_split
I0403 14:18:01.364519  1100 net.cpp:425] label_data_1_split <- label
I0403 14:18:01.364552  1100 net.cpp:399] label_data_1_split -> label_data_1_split_0
I0403 14:18:01.364579  1100 net.cpp:399] label_data_1_split -> label_data_1_split_1
I0403 14:18:01.364601  1100 net.cpp:399] label_data_1_split -> label_data_1_split_2
I0403 14:18:01.364665  1100 net.cpp:141] Setting up label_data_1_split
I0403 14:18:01.364688  1100 net.cpp:148] Top shape: 100 (100)
I0403 14:18:01.364706  1100 net.cpp:148] Top shape: 100 (100)
I0403 14:18:01.364723  1100 net.cpp:148] Top shape: 100 (100)
I0403 14:18:01.364738  1100 net.cpp:156] Memory required for data: 61836400
I0403 14:18:01.364753  1100 layer_factory.hpp:77] Creating layer conv1
I0403 14:18:01.364786  1100 net.cpp:91] Creating Layer conv1
I0403 14:18:01.364805  1100 net.cpp:425] conv1 <- data
I0403 14:18:01.364825  1100 net.cpp:399] conv1 -> conv1
I0403 14:18:01.503855  1100 net.cpp:141] Setting up conv1
I0403 14:18:01.503928  1100 net.cpp:148] Top shape: 100 96 55 55 (29040000)
I0403 14:18:01.503947  1100 net.cpp:156] Memory required for data: 177996400
I0403 14:18:01.503979  1100 layer_factory.hpp:77] Creating layer relu1
I0403 14:18:01.504009  1100 net.cpp:91] Creating Layer relu1
I0403 14:18:01.504027  1100 net.cpp:425] relu1 <- conv1
I0403 14:18:01.504048  1100 net.cpp:386] relu1 -> conv1 (in-place)
I0403 14:18:01.504317  1100 net.cpp:141] Setting up relu1
I0403 14:18:01.504346  1100 net.cpp:148] Top shape: 100 96 55 55 (29040000)
I0403 14:18:01.504393  1100 net.cpp:156] Memory required for data: 294156400
I0403 14:18:01.504411  1100 layer_factory.hpp:77] Creating layer norm1
I0403 14:18:01.504441  1100 net.cpp:91] Creating Layer norm1
I0403 14:18:01.504458  1100 net.cpp:425] norm1 <- conv1
I0403 14:18:01.504477  1100 net.cpp:399] norm1 -> norm1
I0403 14:18:01.504797  1100 net.cpp:141] Setting up norm1
I0403 14:18:01.504827  1100 net.cpp:148] Top shape: 100 96 55 55 (29040000)
I0403 14:18:01.504843  1100 net.cpp:156] Memory required for data: 410316400
I0403 14:18:01.504859  1100 layer_factory.hpp:77] Creating layer pool1
I0403 14:18:01.504884  1100 net.cpp:91] Creating Layer pool1
I0403 14:18:01.504901  1100 net.cpp:425] pool1 <- norm1
I0403 14:18:01.504920  1100 net.cpp:399] pool1 -> pool1
I0403 14:18:01.504992  1100 net.cpp:141] Setting up pool1
I0403 14:18:01.505017  1100 net.cpp:148] Top shape: 100 96 27 27 (6998400)
I0403 14:18:01.505033  1100 net.cpp:156] Memory required for data: 438310000
I0403 14:18:01.505048  1100 layer_factory.hpp:77] Creating layer conv2
I0403 14:18:01.505074  1100 net.cpp:91] Creating Layer conv2
I0403 14:18:01.505090  1100 net.cpp:425] conv2 <- pool1
I0403 14:18:01.505110  1100 net.cpp:399] conv2 -> conv2
I0403 14:18:01.520419  1100 net.cpp:141] Setting up conv2
I0403 14:18:01.520479  1100 net.cpp:148] Top shape: 100 256 27 27 (18662400)
I0403 14:18:01.520498  1100 net.cpp:156] Memory required for data: 512959600
I0403 14:18:01.520522  1100 layer_factory.hpp:77] Creating layer relu2
I0403 14:18:01.520545  1100 net.cpp:91] Creating Layer relu2
I0403 14:18:01.520562  1100 net.cpp:425] relu2 <- conv2
I0403 14:18:01.520581  1100 net.cpp:386] relu2 -> conv2 (in-place)
I0403 14:18:01.520871  1100 net.cpp:141] Setting up relu2
I0403 14:18:01.520902  1100 net.cpp:148] Top shape: 100 256 27 27 (18662400)
I0403 14:18:01.520918  1100 net.cpp:156] Memory required for data: 587609200
I0403 14:18:01.520936  1100 layer_factory.hpp:77] Creating layer norm2
I0403 14:18:01.520959  1100 net.cpp:91] Creating Layer norm2
I0403 14:18:01.520977  1100 net.cpp:425] norm2 <- conv2
I0403 14:18:01.520995  1100 net.cpp:399] norm2 -> norm2
I0403 14:18:01.521201  1100 net.cpp:141] Setting up norm2
I0403 14:18:01.521229  1100 net.cpp:148] Top shape: 100 256 27 27 (18662400)
I0403 14:18:01.521245  1100 net.cpp:156] Memory required for data: 662258800
I0403 14:18:01.521260  1100 layer_factory.hpp:77] Creating layer pool2
I0403 14:18:01.521289  1100 net.cpp:91] Creating Layer pool2
I0403 14:18:01.521308  1100 net.cpp:425] pool2 <- norm2
I0403 14:18:01.521327  1100 net.cpp:399] pool2 -> pool2
I0403 14:18:01.521389  1100 net.cpp:141] Setting up pool2
I0403 14:18:01.521412  1100 net.cpp:148] Top shape: 100 256 13 13 (4326400)
I0403 14:18:01.521427  1100 net.cpp:156] Memory required for data: 679564400
I0403 14:18:01.521443  1100 layer_factory.hpp:77] Creating layer conv3
I0403 14:18:01.521468  1100 net.cpp:91] Creating Layer conv3
I0403 14:18:01.521486  1100 net.cpp:425] conv3 <- pool2
I0403 14:18:01.521508  1100 net.cpp:399] conv3 -> conv3
I0403 14:18:01.560680  1100 net.cpp:141] Setting up conv3
I0403 14:18:01.560739  1100 net.cpp:148] Top shape: 100 384 13 13 (6489600)
I0403 14:18:01.560757  1100 net.cpp:156] Memory required for data: 705522800
I0403 14:18:01.560784  1100 layer_factory.hpp:77] Creating layer relu3
I0403 14:18:01.560807  1100 net.cpp:91] Creating Layer relu3
I0403 14:18:01.560825  1100 net.cpp:425] relu3 <- conv3
I0403 14:18:01.560844  1100 net.cpp:386] relu3 -> conv3 (in-place)
I0403 14:18:01.561170  1100 net.cpp:141] Setting up relu3
I0403 14:18:01.561202  1100 net.cpp:148] Top shape: 100 384 13 13 (6489600)
I0403 14:18:01.561218  1100 net.cpp:156] Memory required for data: 731481200
I0403 14:18:01.561234  1100 layer_factory.hpp:77] Creating layer conv4
I0403 14:18:01.561259  1100 net.cpp:91] Creating Layer conv4
I0403 14:18:01.561281  1100 net.cpp:425] conv4 <- conv3
I0403 14:18:01.561302  1100 net.cpp:399] conv4 -> conv4
I0403 14:18:01.590991  1100 net.cpp:141] Setting up conv4
I0403 14:18:01.591042  1100 net.cpp:148] Top shape: 100 384 13 13 (6489600)
I0403 14:18:01.591089  1100 net.cpp:156] Memory required for data: 757439600
I0403 14:18:01.591111  1100 layer_factory.hpp:77] Creating layer relu4
I0403 14:18:01.591135  1100 net.cpp:91] Creating Layer relu4
I0403 14:18:01.591153  1100 net.cpp:425] relu4 <- conv4
I0403 14:18:01.591172  1100 net.cpp:386] relu4 -> conv4 (in-place)
I0403 14:18:01.591469  1100 net.cpp:141] Setting up relu4
I0403 14:18:01.591496  1100 net.cpp:148] Top shape: 100 384 13 13 (6489600)
I0403 14:18:01.591512  1100 net.cpp:156] Memory required for data: 783398000
I0403 14:18:01.591529  1100 layer_factory.hpp:77] Creating layer conv5
I0403 14:18:01.591554  1100 net.cpp:91] Creating Layer conv5
I0403 14:18:01.591572  1100 net.cpp:425] conv5 <- conv4
I0403 14:18:01.591594  1100 net.cpp:399] conv5 -> conv5
I0403 14:18:01.612771  1100 net.cpp:141] Setting up conv5
I0403 14:18:01.612839  1100 net.cpp:148] Top shape: 100 256 13 13 (4326400)
I0403 14:18:01.612856  1100 net.cpp:156] Memory required for data: 800703600
I0403 14:18:01.612884  1100 layer_factory.hpp:77] Creating layer relu5
I0403 14:18:01.612908  1100 net.cpp:91] Creating Layer relu5
I0403 14:18:01.612926  1100 net.cpp:425] relu5 <- conv5
I0403 14:18:01.612946  1100 net.cpp:386] relu5 -> conv5 (in-place)
I0403 14:18:01.613235  1100 net.cpp:141] Setting up relu5
I0403 14:18:01.613270  1100 net.cpp:148] Top shape: 100 256 13 13 (4326400)
I0403 14:18:01.613291  1100 net.cpp:156] Memory required for data: 818009200
I0403 14:18:01.613308  1100 layer_factory.hpp:77] Creating layer pool5
I0403 14:18:01.613332  1100 net.cpp:91] Creating Layer pool5
I0403 14:18:01.613350  1100 net.cpp:425] pool5 <- conv5
I0403 14:18:01.613373  1100 net.cpp:399] pool5 -> pool5
I0403 14:18:01.613435  1100 net.cpp:141] Setting up pool5
I0403 14:18:01.613462  1100 net.cpp:148] Top shape: 100 256 6 6 (921600)
I0403 14:18:01.613478  1100 net.cpp:156] Memory required for data: 821695600
I0403 14:18:01.613494  1100 layer_factory.hpp:77] Creating layer fc6
I0403 14:18:01.613523  1100 net.cpp:91] Creating Layer fc6
I0403 14:18:01.613540  1100 net.cpp:425] fc6 <- pool5
I0403 14:18:01.613564  1100 net.cpp:399] fc6 -> fc6
I0403 14:18:03.162528  1100 net.cpp:141] Setting up fc6
I0403 14:18:03.162585  1100 net.cpp:148] Top shape: 100 4096 (409600)
I0403 14:18:03.162601  1100 net.cpp:156] Memory required for data: 823334000
I0403 14:18:03.162622  1100 layer_factory.hpp:77] Creating layer relu6
I0403 14:18:03.162647  1100 net.cpp:91] Creating Layer relu6
I0403 14:18:03.162664  1100 net.cpp:425] relu6 <- fc6
I0403 14:18:03.162683  1100 net.cpp:386] relu6 -> fc6 (in-place)
I0403 14:18:03.162894  1100 net.cpp:141] Setting up relu6
I0403 14:18:03.162919  1100 net.cpp:148] Top shape: 100 4096 (409600)
I0403 14:18:03.162935  1100 net.cpp:156] Memory required for data: 824972400
I0403 14:18:03.162950  1100 layer_factory.hpp:77] Creating layer drop6
I0403 14:18:03.162967  1100 net.cpp:91] Creating Layer drop6
I0403 14:18:03.162982  1100 net.cpp:425] drop6 <- fc6
I0403 14:18:03.162999  1100 net.cpp:386] drop6 -> fc6 (in-place)
I0403 14:18:03.163051  1100 net.cpp:141] Setting up drop6
I0403 14:18:03.163074  1100 net.cpp:148] Top shape: 100 4096 (409600)
I0403 14:18:03.163087  1100 net.cpp:156] Memory required for data: 826610800
I0403 14:18:03.163101  1100 layer_factory.hpp:77] Creating layer fc7
I0403 14:18:03.163125  1100 net.cpp:91] Creating Layer fc7
I0403 14:18:03.163141  1100 net.cpp:425] fc7 <- fc6
I0403 14:18:03.163159  1100 net.cpp:399] fc7 -> fc7
I0403 14:18:03.844918  1100 net.cpp:141] Setting up fc7
I0403 14:18:03.844960  1100 net.cpp:148] Top shape: 100 4096 (409600)
I0403 14:18:03.844975  1100 net.cpp:156] Memory required for data: 828249200
I0403 14:18:03.844996  1100 layer_factory.hpp:77] Creating layer relu7
I0403 14:18:03.845017  1100 net.cpp:91] Creating Layer relu7
I0403 14:18:03.845034  1100 net.cpp:425] relu7 <- fc7
I0403 14:18:03.845052  1100 net.cpp:386] relu7 -> fc7 (in-place)
I0403 14:18:03.845476  1100 net.cpp:141] Setting up relu7
I0403 14:18:03.845504  1100 net.cpp:148] Top shape: 100 4096 (409600)
I0403 14:18:03.845551  1100 net.cpp:156] Memory required for data: 829887600
I0403 14:18:03.845567  1100 layer_factory.hpp:77] Creating layer drop7
I0403 14:18:03.845587  1100 net.cpp:91] Creating Layer drop7
I0403 14:18:03.845613  1100 net.cpp:425] drop7 <- fc7
I0403 14:18:03.845630  1100 net.cpp:386] drop7 -> fc7 (in-place)
I0403 14:18:03.845674  1100 net.cpp:141] Setting up drop7
I0403 14:18:03.845696  1100 net.cpp:148] Top shape: 100 4096 (409600)
I0403 14:18:03.845710  1100 net.cpp:156] Memory required for data: 831526000
I0403 14:18:03.845726  1100 layer_factory.hpp:77] Creating layer fc8_plantvillage
I0403 14:18:03.845746  1100 net.cpp:91] Creating Layer fc8_plantvillage
I0403 14:18:03.845762  1100 net.cpp:425] fc8_plantvillage <- fc7
I0403 14:18:03.845779  1100 net.cpp:399] fc8_plantvillage -> fc8_plantvillage
I0403 14:18:03.852471  1100 net.cpp:141] Setting up fc8_plantvillage
I0403 14:18:03.852499  1100 net.cpp:148] Top shape: 100 38 (3800)
I0403 14:18:03.852514  1100 net.cpp:156] Memory required for data: 831541200
I0403 14:18:03.852532  1100 layer_factory.hpp:77] Creating layer fc8_plantvillage_fc8_plantvillage_0_split
I0403 14:18:03.852553  1100 net.cpp:91] Creating Layer fc8_plantvillage_fc8_plantvillage_0_split
I0403 14:18:03.852571  1100 net.cpp:425] fc8_plantvillage_fc8_plantvillage_0_split <- fc8_plantvillage
I0403 14:18:03.852591  1100 net.cpp:399] fc8_plantvillage_fc8_plantvillage_0_split -> fc8_plantvillage_fc8_plantvillage_0_split_0
I0403 14:18:03.852612  1100 net.cpp:399] fc8_plantvillage_fc8_plantvillage_0_split -> fc8_plantvillage_fc8_plantvillage_0_split_1
I0403 14:18:03.852632  1100 net.cpp:399] fc8_plantvillage_fc8_plantvillage_0_split -> fc8_plantvillage_fc8_plantvillage_0_split_2
I0403 14:18:03.852707  1100 net.cpp:141] Setting up fc8_plantvillage_fc8_plantvillage_0_split
I0403 14:18:03.852742  1100 net.cpp:148] Top shape: 100 38 (3800)
I0403 14:18:03.852758  1100 net.cpp:148] Top shape: 100 38 (3800)
I0403 14:18:03.852773  1100 net.cpp:148] Top shape: 100 38 (3800)
I0403 14:18:03.852787  1100 net.cpp:156] Memory required for data: 831586800
I0403 14:18:03.852800  1100 layer_factory.hpp:77] Creating layer prob
I0403 14:18:03.852820  1100 net.cpp:91] Creating Layer prob
I0403 14:18:03.852836  1100 net.cpp:425] prob <- fc8_plantvillage_fc8_plantvillage_0_split_0
I0403 14:18:03.852854  1100 net.cpp:399] prob -> prob
I0403 14:18:03.853070  1100 net.cpp:141] Setting up prob
I0403 14:18:03.853098  1100 net.cpp:148] Top shape: 100 38 (3800)
I0403 14:18:03.853113  1100 net.cpp:156] Memory required for data: 831602000
I0403 14:18:03.853128  1100 layer_factory.hpp:77] Creating layer hdf5out
I0403 14:18:03.853147  1100 net.cpp:91] Creating Layer hdf5out
I0403 14:18:03.853163  1100 net.cpp:425] hdf5out <- prob
I0403 14:18:03.853178  1100 net.cpp:425] hdf5out <- label_data_1_split_0
I0403 14:18:03.855453  1100 net.cpp:141] Setting up hdf5out
…
