…
I0403 14:26:24.889530  1293 net.cpp:313] The NetState phase (1) differed from the phase (0) specified by a rule in layer data
I0403 14:26:24.889824  1293 net.cpp:49] Initializing net from parameters: 
state {
  phase: TEST
}
layer {
  name: "data"
  type: "Data"
  top: "data"
  top: "label"
  include {
    phase: TEST
  }
  transform_param {
    crop_size: 227
    mean_file: "/home/mohanty/data/final_dataset/lmdb/segmented-50-50/mean.binaryproto"
  }
  data_param {
    source: "/home/mohanty/data/final_dataset/lmdb/segmented-50-50/test_db"
    batch_size: 100
    backend: LMDB
  }
}
layer {
  name: "conv1"
  type: "Convolution"
  bottom: "data"
  top: "conv1"
  param {
    lr_mult: 1
    decay_mult: 1
  }
  param {
    lr_mult: 2
    decay_mult: 0
  }
  convolution_param {
    num_output: 96
    kernel_size: 11
    stride: 4
    weight_filler {
      type: "gaussian"
      std: 0.01
    }
    bias_filler {
      type: "constant"
      value: 0
    }
  }
}
layer {
  name: "relu1"
  type: "ReLU"
  bottom: "conv1"
  top: "conv1"
}
layer {
  name: "norm1"
  type: "LRN"
  bottom: "conv1"
  top: "norm1"
  lrn_param {
    local_size: 5
    alpha: 0.0001
    beta: 0.75
  }
}
layer {
  name: "pool1"
  type: "Pooling"
  bottom: "norm1"
  top: "pool1"
  pooling_param {
    pool: MAX
    kernel_size: 3
    stride: 2
  }
}
layer {
  name: "conv2"
  type: "Convolution"
  bottom: "pool1"
  top: "conv2"
  param {
    lr_mult: 1
    decay_mult: 1
  }
  param {
    lr_mult: 2
    decay_mult: 0
  }
  convolution_param {
    num_output: 256
    pad: 2
    kernel_size: 5
    group: 2
    weight_filler {
      type: "gaussian"
      std: 0.01
    }
    bias_filler {
      type: "constant"
      value: 0.1
    }
  }
}
layer {
  name: "relu2"
  type: "ReLU"
  bottom: "conv2"
  top: "conv2"
}
layer {
  name: "norm2"
  type: "LRN"
  bottom: "conv2"
  top: "norm2"
  lrn_param {
    local_size: 5
    alpha: 0.0001
    beta: 0.75
  }
}
layer {
  name: "pool2"
  type: "Pooling"
  bottom: "norm2"
  top: "pool2"
  pooling_param {
    pool: MAX
    kernel_size: 3
    stride: 2
  }
}
layer {
  name: "conv3"
  type: "Convolution"
  bottom: "pool2"
  top: "conv3"
  param {
    lr_mult: 1
    decay_mult: 1
  }
  param {
    lr_mult: 2
    decay_mult: 0
  }
  convolution_param {
    num_output: 384
    pad: 1
    kernel_size: 3
    weight_filler {
      type: "gaussian"
      std: 0.01
    }
    bias_filler {
      type: "constant"
      value: 0
    }
  }
}
layer {
  name: "relu3"
  type: "ReLU"
  bottom: "conv3"
  top: "conv3"
}
layer {
  name: "conv4"
  type: "Convolution"
  bottom: "conv3"
  top: "conv4"
  param {
    lr_mult: 1
    decay_mult: 1
  }
  param {
    lr_mult: 2
    decay_mult: 0
  }
  convolution_param {
    num_output: 384
    pad: 1
    kernel_size: 3
    group: 2
    weight_filler {
      type: "gaussian"
      std: 0.01
    }
    bias_filler {
      type: "constant"
      value: 0.1
    }
  }
}
layer {
  name: "relu4"
  type: "ReLU"
  bottom: "conv4"
  top: "conv4"
}
layer {
  name: "conv5"
  type: "Convolution"
  bottom: "conv4"
  top: "conv5"
  param {
    lr_mult: 1
    decay_mult: 1
  }
  param {
    lr_mult: 2
    decay_mult: 0
  }
  convolution_param {
    num_output: 256
    pad: 1
    kernel_size: 3
    group: 2
    weight_filler {
      type: "gaussian"
      std: 0.01
    }
    bias_filler {
      type: "constant"
      value: 0.1
    }
  }
}
layer {
  name: "relu5"
  type: "ReLU"
  bottom: "conv5"
  top: "conv5"
}
layer {
  name: "pool5"
  type: "Pooling"
  bottom: "conv5"
  top: "pool5"
  pooling_param {
    pool: MAX
    kernel_size: 3
    stride: 2
  }
}
layer {
  name: "fc6"
  type: "InnerProduct"
  bottom: "pool5"
  top: "fc6"
  param {
    lr_mult: 1
    decay_mult: 1
  }
  param {
    lr_mult: 2
    decay_mult: 0
  }
  inner_product_param {
    num_output: 4096
    weight_filler {
      type: "gaussian"
      std: 0.005
    }
    bias_filler {
      type: "constant"
      value: 0.1
    }
  }
}
layer {
  name: "relu6"
  type: "ReLU"
  bottom: "fc6"
  top: "fc6"
}
layer {
  name: "drop6"
  type: "Dropout"
  bottom: "fc6"
  top: "fc6"
  dropout_param {
    dropout_ratio: 0.5
  }
}
layer {
  name: "fc7"
  type: "InnerProduct"
  bottom: "fc6"
  top: "fc7"
  param {
    lr_mult: 1
    decay_mult: 1
  }
  param {
    lr_mult: 2
    decay_mult: 0
  }
  inner_product_param {
    num_output: 4096
    weight_filler {
      type: "gaussian"
      std: 0.005
    }
    bias_filler {
      type: "constant"
      value: 0.1
    }
  }
}
layer {
  name: "relu7"
  type: "ReLU"
  bottom: "fc7"
  top: "fc7"
}
layer {
  name: "drop7"
  type: "Dropout"
  bottom: "fc7"
  top: "fc7"
  dropout_param {
    dropout_ratio: 0.5
  }
}
layer {
  name: "fc8_plantvillage"
  type: "InnerProduct"
  bottom: "fc7"
  top: "fc8_plantvillage"
  param {
    lr_mult: 1
    decay_mult: 1
  }
  param {
    lr_mult: 2
    decay_mult: 0
  }
  inner_product_param {
    num_output: 38
    weight_filler {
      type: "gaussian"
      std: 0.01
    }
    bias_filler {
      type: "constant"
      value: 0
    }
  }
}
layer {
  name: "prob"
  type: "Softmax"
  bottom: "fc8_plantvillage"
  top: "prob"
  include {
    phase: TEST
  }
}
layer {
  name: "hdf5out"
  type: "HDF5Output"
  bottom: "prob"
  bottom: "label"
  include {
    phase: TEST
  }
  hdf5_output_param {
    file_name: "hdf5_dumps/iter_6164.h5"
  }
}
layer {
  name: "loss"
  type: "SoftmaxWithLoss"
  bottom: "fc8_plantvillage"
  bottom: "label"
  top: "loss"
}
layer {
  name: "accuracy"
  type: "Accuracy"
  bottom: "fc8_plantvillage"
  bottom: "label"
  top: "accuracy"
  include {
    phase: TEST
  }
}
I0403 14:26:24.890341  1293 layer_factory.hpp:77] Creating layer data
I0403 14:26:24.890945  1293 net.cpp:91] Creating Layer data
I0403 14:26:24.890976  1293 net.cpp:399] data -> data
I0403 14:26:24.891026  1293 net.cpp:399] data -> label
I0403 14:26:24.891060  1293 data_transformer.cpp:25] Loading mean file from: /home/mohanty/data/final_dataset/lmdb/segmented-50-50/mean.binaryproto
I0403 14:26:24.894557  1298 db_lmdb.cpp:38] Opened lmdb /home/mohanty/data/final_dataset/lmdb/segmented-50-50/test_db
I0403 14:26:24.905411  1293 data_layer.cpp:41] output data size: 100,3,227,227
I0403 14:26:25.025816  1293 net.cpp:141] Setting up data
I0403 14:26:25.025876  1293 net.cpp:148] Top shape: 100 3 227 227 (15458700)
I0403 14:26:25.025898  1293 net.cpp:148] Top shape: 100 (100)
I0403 14:26:25.025913  1293 net.cpp:156] Memory required for data: 61835200
I0403 14:26:25.025941  1293 layer_factory.hpp:77] Creating layer label_data_1_split
I0403 14:26:25.025966  1293 net.cpp:91] Creating Layer label_data_1_split
I0403 14:26:25.025985  1293 net.cpp:425] label_data_1_split <- label
I0403 14:26:25.026015  1293 net.cpp:399] label_data_1_split -> label_data_1_split_0
I0403 14:26:25.026041  1293 net.cpp:399] label_data_1_split -> label_data_1_split_1
I0403 14:26:25.026060  1293 net.cpp:399] label_data_1_split -> label_data_1_split_2
I0403 14:26:25.026123  1293 net.cpp:141] Setting up label_data_1_split
I0403 14:26:25.026145  1293 net.cpp:148] Top shape: 100 (100)
I0403 14:26:25.026162  1293 net.cpp:148] Top shape: 100 (100)
I0403 14:26:25.026178  1293 net.cpp:148] Top shape: 100 (100)
I0403 14:26:25.026192  1293 net.cpp:156] Memory required for data: 61836400
I0403 14:26:25.026207  1293 layer_factory.hpp:77] Creating layer conv1
I0403 14:26:25.026239  1293 net.cpp:91] Creating Layer conv1
I0403 14:26:25.026257  1293 net.cpp:425] conv1 <- data
I0403 14:26:25.026283  1293 net.cpp:399] conv1 -> conv1
I0403 14:26:25.167606  1293 net.cpp:141] Setting up conv1
I0403 14:26:25.167697  1293 net.cpp:148] Top shape: 100 96 55 55 (29040000)
I0403 14:26:25.167716  1293 net.cpp:156] Memory required for data: 177996400
I0403 14:26:25.167757  1293 layer_factory.hpp:77] Creating layer relu1
I0403 14:26:25.167785  1293 net.cpp:91] Creating Layer relu1
I0403 14:26:25.167804  1293 net.cpp:425] relu1 <- conv1
I0403 14:26:25.167824  1293 net.cpp:386] relu1 -> conv1 (in-place)
I0403 14:26:25.168162  1293 net.cpp:141] Setting up relu1
I0403 14:26:25.168191  1293 net.cpp:148] Top shape: 100 96 55 55 (29040000)
I0403 14:26:25.168239  1293 net.cpp:156] Memory required for data: 294156400
I0403 14:26:25.168262  1293 layer_factory.hpp:77] Creating layer norm1
I0403 14:26:25.168298  1293 net.cpp:91] Creating Layer norm1
I0403 14:26:25.168318  1293 net.cpp:425] norm1 <- conv1
I0403 14:26:25.168336  1293 net.cpp:399] norm1 -> norm1
I0403 14:26:25.168651  1293 net.cpp:141] Setting up norm1
I0403 14:26:25.168680  1293 net.cpp:148] Top shape: 100 96 55 55 (29040000)
I0403 14:26:25.168697  1293 net.cpp:156] Memory required for data: 410316400
I0403 14:26:25.168714  1293 layer_factory.hpp:77] Creating layer pool1
I0403 14:26:25.168737  1293 net.cpp:91] Creating Layer pool1
I0403 14:26:25.168756  1293 net.cpp:425] pool1 <- norm1
I0403 14:26:25.168774  1293 net.cpp:399] pool1 -> pool1
I0403 14:26:25.168843  1293 net.cpp:141] Setting up pool1
I0403 14:26:25.168866  1293 net.cpp:148] Top shape: 100 96 27 27 (6998400)
I0403 14:26:25.168881  1293 net.cpp:156] Memory required for data: 438310000
I0403 14:26:25.168897  1293 layer_factory.hpp:77] Creating layer conv2
I0403 14:26:25.168922  1293 net.cpp:91] Creating Layer conv2
I0403 14:26:25.168938  1293 net.cpp:425] conv2 <- pool1
I0403 14:26:25.168957  1293 net.cpp:399] conv2 -> conv2
I0403 14:26:25.184396  1293 net.cpp:141] Setting up conv2
I0403 14:26:25.184456  1293 net.cpp:148] Top shape: 100 256 27 27 (18662400)
I0403 14:26:25.184473  1293 net.cpp:156] Memory required for data: 512959600
I0403 14:26:25.184497  1293 layer_factory.hpp:77] Creating layer relu2
I0403 14:26:25.184521  1293 net.cpp:91] Creating Layer relu2
I0403 14:26:25.184540  1293 net.cpp:425] relu2 <- conv2
I0403 14:26:25.184558  1293 net.cpp:386] relu2 -> conv2 (in-place)
I0403 14:26:25.184845  1293 net.cpp:141] Setting up relu2
I0403 14:26:25.184873  1293 net.cpp:148] Top shape: 100 256 27 27 (18662400)
I0403 14:26:25.184890  1293 net.cpp:156] Memory required for data: 587609200
I0403 14:26:25.184906  1293 layer_factory.hpp:77] Creating layer norm2
I0403 14:26:25.184931  1293 net.cpp:91] Creating Layer norm2
I0403 14:26:25.184949  1293 net.cpp:425] norm2 <- conv2
I0403 14:26:25.184972  1293 net.cpp:399] norm2 -> norm2
I0403 14:26:25.185180  1293 net.cpp:141] Setting up norm2
I0403 14:26:25.185207  1293 net.cpp:148] Top shape: 100 256 27 27 (18662400)
I0403 14:26:25.185225  1293 net.cpp:156] Memory required for data: 662258800
I0403 14:26:25.185241  1293 layer_factory.hpp:77] Creating layer pool2
I0403 14:26:25.185263  1293 net.cpp:91] Creating Layer pool2
I0403 14:26:25.185286  1293 net.cpp:425] pool2 <- norm2
I0403 14:26:25.185305  1293 net.cpp:399] pool2 -> pool2
I0403 14:26:25.185362  1293 net.cpp:141] Setting up pool2
I0403 14:26:25.185386  1293 net.cpp:148] Top shape: 100 256 13 13 (4326400)
I0403 14:26:25.185402  1293 net.cpp:156] Memory required for data: 679564400
I0403 14:26:25.185417  1293 layer_factory.hpp:77] Creating layer conv3
I0403 14:26:25.185441  1293 net.cpp:91] Creating Layer conv3
I0403 14:26:25.185459  1293 net.cpp:425] conv3 <- pool2
I0403 14:26:25.185480  1293 net.cpp:399] conv3 -> conv3
I0403 14:26:25.224053  1293 net.cpp:141] Setting up conv3
I0403 14:26:25.224117  1293 net.cpp:148] Top shape: 100 384 13 13 (6489600)
I0403 14:26:25.224133  1293 net.cpp:156] Memory required for data: 705522800
I0403 14:26:25.224160  1293 layer_factory.hpp:77] Creating layer relu3
I0403 14:26:25.224184  1293 net.cpp:91] Creating Layer relu3
I0403 14:26:25.224200  1293 net.cpp:425] relu3 <- conv3
I0403 14:26:25.224220  1293 net.cpp:386] relu3 -> conv3 (in-place)
I0403 14:26:25.224515  1293 net.cpp:141] Setting up relu3
I0403 14:26:25.224555  1293 net.cpp:148] Top shape: 100 384 13 13 (6489600)
I0403 14:26:25.224571  1293 net.cpp:156] Memory required for data: 731481200
I0403 14:26:25.224586  1293 layer_factory.hpp:77] Creating layer conv4
I0403 14:26:25.224611  1293 net.cpp:91] Creating Layer conv4
I0403 14:26:25.224627  1293 net.cpp:425] conv4 <- conv3
I0403 14:26:25.224648  1293 net.cpp:399] conv4 -> conv4
I0403 14:26:25.253839  1293 net.cpp:141] Setting up conv4
I0403 14:26:25.253885  1293 net.cpp:148] Top shape: 100 384 13 13 (6489600)
I0403 14:26:25.253936  1293 net.cpp:156] Memory required for data: 757439600
I0403 14:26:25.253957  1293 layer_factory.hpp:77] Creating layer relu4
I0403 14:26:25.253979  1293 net.cpp:91] Creating Layer relu4
I0403 14:26:25.253998  1293 net.cpp:425] relu4 <- conv4
I0403 14:26:25.254015  1293 net.cpp:386] relu4 -> conv4 (in-place)
I0403 14:26:25.254318  1293 net.cpp:141] Setting up relu4
I0403 14:26:25.254348  1293 net.cpp:148] Top shape: 100 384 13 13 (6489600)
I0403 14:26:25.254364  1293 net.cpp:156] Memory required for data: 783398000
I0403 14:26:25.254379  1293 layer_factory.hpp:77] Creating layer conv5
I0403 14:26:25.254405  1293 net.cpp:91] Creating Layer conv5
I0403 14:26:25.254423  1293 net.cpp:425] conv5 <- conv4
I0403 14:26:25.254446  1293 net.cpp:399] conv5 -> conv5
I0403 14:26:25.275184  1293 net.cpp:141] Setting up conv5
I0403 14:26:25.275250  1293 net.cpp:148] Top shape: 100 256 13 13 (4326400)
I0403 14:26:25.275269  1293 net.cpp:156] Memory required for data: 800703600
I0403 14:26:25.275298  1293 layer_factory.hpp:77] Creating layer relu5
I0403 14:26:25.275324  1293 net.cpp:91] Creating Layer relu5
I0403 14:26:25.275343  1293 net.cpp:425] relu5 <- conv5
I0403 14:26:25.275362  1293 net.cpp:386] relu5 -> conv5 (in-place)
I0403 14:26:25.275642  1293 net.cpp:141] Setting up relu5
I0403 14:26:25.275671  1293 net.cpp:148] Top shape: 100 256 13 13 (4326400)
I0403 14:26:25.275686  1293 net.cpp:156] Memory required for data: 818009200
I0403 14:26:25.275701  1293 layer_factory.hpp:77] Creating layer pool5
I0403 14:26:25.275725  1293 net.cpp:91] Creating Layer pool5
I0403 14:26:25.275743  1293 net.cpp:425] pool5 <- conv5
I0403 14:26:25.275765  1293 net.cpp:399] pool5 -> pool5
I0403 14:26:25.275826  1293 net.cpp:141] Setting up pool5
I0403 14:26:25.275851  1293 net.cpp:148] Top shape: 100 256 6 6 (921600)
I0403 14:26:25.275864  1293 net.cpp:156] Memory required for data: 821695600
I0403 14:26:25.275879  1293 layer_factory.hpp:77] Creating layer fc6
I0403 14:26:25.275909  1293 net.cpp:91] Creating Layer fc6
I0403 14:26:25.275928  1293 net.cpp:425] fc6 <- pool5
I0403 14:26:25.275946  1293 net.cpp:399] fc6 -> fc6
I0403 14:26:26.824584  1293 net.cpp:141] Setting up fc6
I0403 14:26:26.824625  1293 net.cpp:148] Top shape: 100 4096 (409600)
I0403 14:26:26.824640  1293 net.cpp:156] Memory required for data: 823334000
I0403 14:26:26.824661  1293 layer_factory.hpp:77] Creating layer relu6
I0403 14:26:26.824681  1293 net.cpp:91] Creating Layer relu6
I0403 14:26:26.824699  1293 net.cpp:425] relu6 <- fc6
I0403 14:26:26.824719  1293 net.cpp:386] relu6 -> fc6 (in-place)
I0403 14:26:26.824925  1293 net.cpp:141] Setting up relu6
I0403 14:26:26.824949  1293 net.cpp:148] Top shape: 100 4096 (409600)
I0403 14:26:26.824964  1293 net.cpp:156] Memory required for data: 824972400
I0403 14:26:26.824977  1293 layer_factory.hpp:77] Creating layer drop6
I0403 14:26:26.824998  1293 net.cpp:91] Creating Layer drop6
I0403 14:26:26.825013  1293 net.cpp:425] drop6 <- fc6
I0403 14:26:26.825031  1293 net.cpp:386] drop6 -> fc6 (in-place)
I0403 14:26:26.825083  1293 net.cpp:141] Setting up drop6
I0403 14:26:26.825104  1293 net.cpp:148] Top shape: 100 4096 (409600)
I0403 14:26:26.825119  1293 net.cpp:156] Memory required for data: 826610800
I0403 14:26:26.825134  1293 layer_factory.hpp:77] Creating layer fc7
I0403 14:26:26.825152  1293 net.cpp:91] Creating Layer fc7
I0403 14:26:26.825166  1293 net.cpp:425] fc7 <- fc6
I0403 14:26:26.825191  1293 net.cpp:399] fc7 -> fc7
I0403 14:26:27.529244  1293 net.cpp:141] Setting up fc7
I0403 14:26:27.529290  1293 net.cpp:148] Top shape: 100 4096 (409600)
I0403 14:26:27.529307  1293 net.cpp:156] Memory required for data: 828249200
I0403 14:26:27.529327  1293 layer_factory.hpp:77] Creating layer relu7
I0403 14:26:27.529350  1293 net.cpp:91] Creating Layer relu7
I0403 14:26:27.529367  1293 net.cpp:425] relu7 <- fc7
I0403 14:26:27.529386  1293 net.cpp:386] relu7 -> fc7 (in-place)
I0403 14:26:27.529832  1293 net.cpp:141] Setting up relu7
I0403 14:26:27.529860  1293 net.cpp:148] Top shape: 100 4096 (409600)
I0403 14:26:27.529892  1293 net.cpp:156] Memory required for data: 829887600
I0403 14:26:27.529920  1293 layer_factory.hpp:77] Creating layer drop7
I0403 14:26:27.529940  1293 net.cpp:91] Creating Layer drop7
I0403 14:26:27.529958  1293 net.cpp:425] drop7 <- fc7
I0403 14:26:27.529974  1293 net.cpp:386] drop7 -> fc7 (in-place)
I0403 14:26:27.530017  1293 net.cpp:141] Setting up drop7
I0403 14:26:27.530040  1293 net.cpp:148] Top shape: 100 4096 (409600)
I0403 14:26:27.530053  1293 net.cpp:156] Memory required for data: 831526000
I0403 14:26:27.530066  1293 layer_factory.hpp:77] Creating layer fc8_plantvillage
I0403 14:26:27.530086  1293 net.cpp:91] Creating Layer fc8_plantvillage
I0403 14:26:27.530100  1293 net.cpp:425] fc8_plantvillage <- fc7
I0403 14:26:27.530119  1293 net.cpp:399] fc8_plantvillage -> fc8_plantvillage
I0403 14:26:27.536783  1293 net.cpp:141] Setting up fc8_plantvillage
I0403 14:26:27.536811  1293 net.cpp:148] Top shape: 100 38 (3800)
I0403 14:26:27.536826  1293 net.cpp:156] Memory required for data: 831541200
I0403 14:26:27.536844  1293 layer_factory.hpp:77] Creating layer fc8_plantvillage_fc8_plantvillage_0_split
I0403 14:26:27.536864  1293 net.cpp:91] Creating Layer fc8_plantvillage_fc8_plantvillage_0_split
I0403 14:26:27.536880  1293 net.cpp:425] fc8_plantvillage_fc8_plantvillage_0_split <- fc8_plantvillage
I0403 14:26:27.536896  1293 net.cpp:399] fc8_plantvillage_fc8_plantvillage_0_split -> fc8_plantvillage_fc8_plantvillage_0_split_0
I0403 14:26:27.536916  1293 net.cpp:399] fc8_plantvillage_fc8_plantvillage_0_split -> fc8_plantvillage_fc8_plantvillage_0_split_1
I0403 14:26:27.536936  1293 net.cpp:399] fc8_plantvillage_fc8_plantvillage_0_split -> fc8_plantvillage_fc8_plantvillage_0_split_2
I0403 14:26:27.537010  1293 net.cpp:141] Setting up fc8_plantvillage_fc8_plantvillage_0_split
I0403 14:26:27.537034  1293 net.cpp:148] Top shape: 100 38 (3800)
I0403 14:26:27.537048  1293 net.cpp:148] Top shape: 100 38 (3800)
I0403 14:26:27.537063  1293 net.cpp:148] Top shape: 100 38 (3800)
I0403 14:26:27.537077  1293 net.cpp:156] Memory required for data: 831586800
I0403 14:26:27.537091  1293 layer_factory.hpp:77] Creating layer prob
I0403 14:26:27.537109  1293 net.cpp:91] Creating Layer prob
I0403 14:26:27.537124  1293 net.cpp:425] prob <- fc8_plantvillage_fc8_plantvillage_0_split_0
I0403 14:26:27.537143  1293 net.cpp:399] prob -> prob
I0403 14:26:27.537364  1293 net.cpp:141] Setting up prob
I0403 14:26:27.537389  1293 net.cpp:148] Top shape: 100 38 (3800)
I0403 14:26:27.537402  1293 net.cpp:156] Memory required for data: 831602000
I0403 14:26:27.537416  1293 layer_factory.hpp:77] Creating layer hdf5out
I0403 14:26:27.537449  1293 net.cpp:91] Creating Layer hdf5out
I0403 14:26:27.537467  1293 net.cpp:425] hdf5out <- prob
I0403 14:26:27.537482  1293 net.cpp:425] hdf5out <- label_data_1_split_0
I0403 14:26:27.540001  1293 net.cpp:141] Setting up hdf5out
…
