…
I0403 14:23:03.453570  1212 net.cpp:313] The NetState phase (1) differed from the phase (0) specified by a rule in layer data
I0403 14:23:03.453871  1212 net.cpp:49] Initializing net from parameters: 
state {
  phase: TEST
}
layer {
  name: "data"
  type: "Data"
  top: "data"
  top: "label"
  include {
    phase: TEST
  }
  transform_param {
    crop_size: 227
    mean_file: "/home/mohanty/data/final_dataset/lmdb/segmented-50-50/mean.binaryproto"
  }
  data_param {
    source: "/home/mohanty/data/final_dataset/lmdb/segmented-50-50/test_db"
    batch_size: 100
    backend: LMDB
  }
}
layer {
  name: "conv1"
  type: "Convolution"
  bottom: "data"
  top: "conv1"
  param {
    lr_mult: 1
    decay_mult: 1
  }
  param {
    lr_mult: 2
    decay_mult: 0
  }
  convolution_param {
    num_output: 96
    kernel_size: 11
    stride: 4
    weight_filler {
      type: "gaussian"
      std: 0.01
    }
    bias_filler {
      type: "constant"
      value: 0
    }
  }
}
layer {
  name: "relu1"
  type: "ReLU"
  bottom: "conv1"
  top: "conv1"
}
layer {
  name: "norm1"
  type: "LRN"
  bottom: "conv1"
  top: "norm1"
  lrn_param {
    local_size: 5
    alpha: 0.0001
    beta: 0.75
  }
}
layer {
  name: "pool1"
  type: "Pooling"
  bottom: "norm1"
  top: "pool1"
  pooling_param {
    pool: MAX
    kernel_size: 3
    stride: 2
  }
}
layer {
  name: "conv2"
  type: "Convolution"
  bottom: "pool1"
  top: "conv2"
  param {
    lr_mult: 1
    decay_mult: 1
  }
  param {
    lr_mult: 2
    decay_mult: 0
  }
  convolution_param {
    num_output: 256
    pad: 2
    kernel_size: 5
    group: 2
    weight_filler {
      type: "gaussian"
      std: 0.01
    }
    bias_filler {
      type: "constant"
      value: 0.1
    }
  }
}
layer {
  name: "relu2"
  type: "ReLU"
  bottom: "conv2"
  top: "conv2"
}
layer {
  name: "norm2"
  type: "LRN"
  bottom: "conv2"
  top: "norm2"
  lrn_param {
    local_size: 5
    alpha: 0.0001
    beta: 0.75
  }
}
layer {
  name: "pool2"
  type: "Pooling"
  bottom: "norm2"
  top: "pool2"
  pooling_param {
    pool: MAX
    kernel_size: 3
    stride: 2
  }
}
layer {
  name: "conv3"
  type: "Convolution"
  bottom: "pool2"
  top: "conv3"
  param {
    lr_mult: 1
    decay_mult: 1
  }
  param {
    lr_mult: 2
    decay_mult: 0
  }
  convolution_param {
    num_output: 384
    pad: 1
    kernel_size: 3
    weight_filler {
      type: "gaussian"
      std: 0.01
    }
    bias_filler {
      type: "constant"
      value: 0
    }
  }
}
layer {
  name: "relu3"
  type: "ReLU"
  bottom: "conv3"
  top: "conv3"
}
layer {
  name: "conv4"
  type: "Convolution"
  bottom: "conv3"
  top: "conv4"
  param {
    lr_mult: 1
    decay_mult: 1
  }
  param {
    lr_mult: 2
    decay_mult: 0
  }
  convolution_param {
    num_output: 384
    pad: 1
    kernel_size: 3
    group: 2
    weight_filler {
      type: "gaussian"
      std: 0.01
    }
    bias_filler {
      type: "constant"
      value: 0.1
    }
  }
}
layer {
  name: "relu4"
  type: "ReLU"
  bottom: "conv4"
  top: "conv4"
}
layer {
  name: "conv5"
  type: "Convolution"
  bottom: "conv4"
  top: "conv5"
  param {
    lr_mult: 1
    decay_mult: 1
  }
  param {
    lr_mult: 2
    decay_mult: 0
  }
  convolution_param {
    num_output: 256
    pad: 1
    kernel_size: 3
    group: 2
    weight_filler {
      type: "gaussian"
      std: 0.01
    }
    bias_filler {
      type: "constant"
      value: 0.1
    }
  }
}
layer {
  name: "relu5"
  type: "ReLU"
  bottom: "conv5"
  top: "conv5"
}
layer {
  name: "pool5"
  type: "Pooling"
  bottom: "conv5"
  top: "pool5"
  pooling_param {
    pool: MAX
    kernel_size: 3
    stride: 2
  }
}
layer {
  name: "fc6"
  type: "InnerProduct"
  bottom: "pool5"
  top: "fc6"
  param {
    lr_mult: 1
    decay_mult: 1
  }
  param {
    lr_mult: 2
    decay_mult: 0
  }
  inner_product_param {
    num_output: 4096
    weight_filler {
      type: "gaussian"
      std: 0.005
    }
    bias_filler {
      type: "constant"
      value: 0.1
    }
  }
}
layer {
  name: "relu6"
  type: "ReLU"
  bottom: "fc6"
  top: "fc6"
}
layer {
  name: "drop6"
  type: "Dropout"
  bottom: "fc6"
  top: "fc6"
  dropout_param {
    dropout_ratio: 0.5
  }
}
layer {
  name: "fc7"
  type: "InnerProduct"
  bottom: "fc6"
  top: "fc7"
  param {
    lr_mult: 1
    decay_mult: 1
  }
  param {
    lr_mult: 2
    decay_mult: 0
  }
  inner_product_param {
    num_output: 4096
    weight_filler {
      type: "gaussian"
      std: 0.005
    }
    bias_filler {
      type: "constant"
      value: 0.1
    }
  }
}
layer {
  name: "relu7"
  type: "ReLU"
  bottom: "fc7"
  top: "fc7"
}
layer {
  name: "drop7"
  type: "Dropout"
  bottom: "fc7"
  top: "fc7"
  dropout_param {
    dropout_ratio: 0.5
  }
}
layer {
  name: "fc8_plantvillage"
  type: "InnerProduct"
  bottom: "fc7"
  top: "fc8_plantvillage"
  param {
    lr_mult: 1
    decay_mult: 1
  }
  param {
    lr_mult: 2
    decay_mult: 0
  }
  inner_product_param {
    num_output: 38
    weight_filler {
      type: "gaussian"
      std: 0.01
    }
    bias_filler {
      type: "constant"
      value: 0
    }
  }
}
layer {
  name: "prob"
  type: "Softmax"
  bottom: "fc8_plantvillage"
  top: "prob"
  include {
    phase: TEST
  }
}
layer {
  name: "hdf5out"
  type: "HDF5Output"
  bottom: "prob"
  bottom: "label"
  include {
    phase: TEST
  }
  hdf5_output_param {
    file_name: "hdf5_dumps/iter_5092.h5"
  }
}
layer {
  name: "loss"
  type: "SoftmaxWithLoss"
  bottom: "fc8_plantvillage"
  bottom: "label"
  top: "loss"
}
layer {
  name: "accuracy"
  type: "Accuracy"
  bottom: "fc8_plantvillage"
  bottom: "label"
  top: "accuracy"
  include {
    phase: TEST
  }
}
I0403 14:23:03.454449  1212 layer_factory.hpp:77] Creating layer data
I0403 14:23:03.455087  1212 net.cpp:91] Creating Layer data
I0403 14:23:03.455117  1212 net.cpp:399] data -> data
I0403 14:23:03.455168  1212 net.cpp:399] data -> label
I0403 14:23:03.455204  1212 data_transformer.cpp:25] Loading mean file from: /home/mohanty/data/final_dataset/lmdb/segmented-50-50/mean.binaryproto
I0403 14:23:03.458137  1215 db_lmdb.cpp:38] Opened lmdb /home/mohanty/data/final_dataset/lmdb/segmented-50-50/test_db
I0403 14:23:03.469777  1212 data_layer.cpp:41] output data size: 100,3,227,227
I0403 14:23:03.590070  1212 net.cpp:141] Setting up data
I0403 14:23:03.590162  1212 net.cpp:148] Top shape: 100 3 227 227 (15458700)
I0403 14:23:03.590186  1212 net.cpp:148] Top shape: 100 (100)
I0403 14:23:03.590203  1212 net.cpp:156] Memory required for data: 61835200
I0403 14:23:03.590230  1212 layer_factory.hpp:77] Creating layer label_data_1_split
I0403 14:23:03.590255  1212 net.cpp:91] Creating Layer label_data_1_split
I0403 14:23:03.590277  1212 net.cpp:425] label_data_1_split <- label
I0403 14:23:03.590311  1212 net.cpp:399] label_data_1_split -> label_data_1_split_0
I0403 14:23:03.590337  1212 net.cpp:399] label_data_1_split -> label_data_1_split_1
I0403 14:23:03.590358  1212 net.cpp:399] label_data_1_split -> label_data_1_split_2
I0403 14:23:03.590422  1212 net.cpp:141] Setting up label_data_1_split
I0403 14:23:03.590446  1212 net.cpp:148] Top shape: 100 (100)
I0403 14:23:03.590463  1212 net.cpp:148] Top shape: 100 (100)
I0403 14:23:03.590479  1212 net.cpp:148] Top shape: 100 (100)
I0403 14:23:03.590494  1212 net.cpp:156] Memory required for data: 61836400
I0403 14:23:03.590509  1212 layer_factory.hpp:77] Creating layer conv1
I0403 14:23:03.590541  1212 net.cpp:91] Creating Layer conv1
I0403 14:23:03.590560  1212 net.cpp:425] conv1 <- data
I0403 14:23:03.590580  1212 net.cpp:399] conv1 -> conv1
I0403 14:23:03.730214  1212 net.cpp:141] Setting up conv1
I0403 14:23:03.730258  1212 net.cpp:148] Top shape: 100 96 55 55 (29040000)
I0403 14:23:03.730280  1212 net.cpp:156] Memory required for data: 177996400
I0403 14:23:03.730314  1212 layer_factory.hpp:77] Creating layer relu1
I0403 14:23:03.730343  1212 net.cpp:91] Creating Layer relu1
I0403 14:23:03.730363  1212 net.cpp:425] relu1 <- conv1
I0403 14:23:03.730383  1212 net.cpp:386] relu1 -> conv1 (in-place)
I0403 14:23:03.730664  1212 net.cpp:141] Setting up relu1
I0403 14:23:03.730690  1212 net.cpp:148] Top shape: 100 96 55 55 (29040000)
I0403 14:23:03.730737  1212 net.cpp:156] Memory required for data: 294156400
I0403 14:23:03.730753  1212 layer_factory.hpp:77] Creating layer norm1
I0403 14:23:03.730783  1212 net.cpp:91] Creating Layer norm1
I0403 14:23:03.730803  1212 net.cpp:425] norm1 <- conv1
I0403 14:23:03.730823  1212 net.cpp:399] norm1 -> norm1
I0403 14:23:03.731183  1212 net.cpp:141] Setting up norm1
I0403 14:23:03.731214  1212 net.cpp:148] Top shape: 100 96 55 55 (29040000)
I0403 14:23:03.731230  1212 net.cpp:156] Memory required for data: 410316400
I0403 14:23:03.731247  1212 layer_factory.hpp:77] Creating layer pool1
I0403 14:23:03.731274  1212 net.cpp:91] Creating Layer pool1
I0403 14:23:03.731302  1212 net.cpp:425] pool1 <- norm1
I0403 14:23:03.731324  1212 net.cpp:399] pool1 -> pool1
I0403 14:23:03.731395  1212 net.cpp:141] Setting up pool1
I0403 14:23:03.731420  1212 net.cpp:148] Top shape: 100 96 27 27 (6998400)
I0403 14:23:03.731436  1212 net.cpp:156] Memory required for data: 438310000
I0403 14:23:03.731451  1212 layer_factory.hpp:77] Creating layer conv2
I0403 14:23:03.731477  1212 net.cpp:91] Creating Layer conv2
I0403 14:23:03.731494  1212 net.cpp:425] conv2 <- pool1
I0403 14:23:03.731516  1212 net.cpp:399] conv2 -> conv2
I0403 14:23:03.746747  1212 net.cpp:141] Setting up conv2
I0403 14:23:03.746805  1212 net.cpp:148] Top shape: 100 256 27 27 (18662400)
I0403 14:23:03.746824  1212 net.cpp:156] Memory required for data: 512959600
I0403 14:23:03.746846  1212 layer_factory.hpp:77] Creating layer relu2
I0403 14:23:03.746867  1212 net.cpp:91] Creating Layer relu2
I0403 14:23:03.746883  1212 net.cpp:425] relu2 <- conv2
I0403 14:23:03.746904  1212 net.cpp:386] relu2 -> conv2 (in-place)
I0403 14:23:03.747190  1212 net.cpp:141] Setting up relu2
I0403 14:23:03.747218  1212 net.cpp:148] Top shape: 100 256 27 27 (18662400)
I0403 14:23:03.747234  1212 net.cpp:156] Memory required for data: 587609200
I0403 14:23:03.747251  1212 layer_factory.hpp:77] Creating layer norm2
I0403 14:23:03.747279  1212 net.cpp:91] Creating Layer norm2
I0403 14:23:03.747298  1212 net.cpp:425] norm2 <- conv2
I0403 14:23:03.747318  1212 net.cpp:399] norm2 -> norm2
I0403 14:23:03.747519  1212 net.cpp:141] Setting up norm2
I0403 14:23:03.747547  1212 net.cpp:148] Top shape: 100 256 27 27 (18662400)
I0403 14:23:03.747563  1212 net.cpp:156] Memory required for data: 662258800
I0403 14:23:03.747609  1212 layer_factory.hpp:77] Creating layer pool2
I0403 14:23:03.747629  1212 net.cpp:91] Creating Layer pool2
I0403 14:23:03.747645  1212 net.cpp:425] pool2 <- norm2
I0403 14:23:03.747666  1212 net.cpp:399] pool2 -> pool2
I0403 14:23:03.747720  1212 net.cpp:141] Setting up pool2
I0403 14:23:03.747745  1212 net.cpp:148] Top shape: 100 256 13 13 (4326400)
I0403 14:23:03.747759  1212 net.cpp:156] Memory required for data: 679564400
I0403 14:23:03.747774  1212 layer_factory.hpp:77] Creating layer conv3
I0403 14:23:03.747797  1212 net.cpp:91] Creating Layer conv3
I0403 14:23:03.747817  1212 net.cpp:425] conv3 <- pool2
I0403 14:23:03.747836  1212 net.cpp:399] conv3 -> conv3
I0403 14:23:03.786536  1212 net.cpp:141] Setting up conv3
I0403 14:23:03.786615  1212 net.cpp:148] Top shape: 100 384 13 13 (6489600)
I0403 14:23:03.786633  1212 net.cpp:156] Memory required for data: 705522800
I0403 14:23:03.786659  1212 layer_factory.hpp:77] Creating layer relu3
I0403 14:23:03.786682  1212 net.cpp:91] Creating Layer relu3
I0403 14:23:03.786700  1212 net.cpp:425] relu3 <- conv3
I0403 14:23:03.786720  1212 net.cpp:386] relu3 -> conv3 (in-place)
I0403 14:23:03.787027  1212 net.cpp:141] Setting up relu3
I0403 14:23:03.787057  1212 net.cpp:148] Top shape: 100 384 13 13 (6489600)
I0403 14:23:03.787073  1212 net.cpp:156] Memory required for data: 731481200
I0403 14:23:03.787089  1212 layer_factory.hpp:77] Creating layer conv4
I0403 14:23:03.787114  1212 net.cpp:91] Creating Layer conv4
I0403 14:23:03.787132  1212 net.cpp:425] conv4 <- conv3
I0403 14:23:03.787150  1212 net.cpp:399] conv4 -> conv4
I0403 14:23:03.816505  1212 net.cpp:141] Setting up conv4
I0403 14:23:03.816555  1212 net.cpp:148] Top shape: 100 384 13 13 (6489600)
I0403 14:23:03.816601  1212 net.cpp:156] Memory required for data: 757439600
I0403 14:23:03.816620  1212 layer_factory.hpp:77] Creating layer relu4
I0403 14:23:03.816642  1212 net.cpp:91] Creating Layer relu4
I0403 14:23:03.816660  1212 net.cpp:425] relu4 <- conv4
I0403 14:23:03.816679  1212 net.cpp:386] relu4 -> conv4 (in-place)
I0403 14:23:03.816953  1212 net.cpp:141] Setting up relu4
I0403 14:23:03.816979  1212 net.cpp:148] Top shape: 100 384 13 13 (6489600)
I0403 14:23:03.816994  1212 net.cpp:156] Memory required for data: 783398000
I0403 14:23:03.817009  1212 layer_factory.hpp:77] Creating layer conv5
I0403 14:23:03.817035  1212 net.cpp:91] Creating Layer conv5
I0403 14:23:03.817052  1212 net.cpp:425] conv5 <- conv4
I0403 14:23:03.817071  1212 net.cpp:399] conv5 -> conv5
I0403 14:23:03.837797  1212 net.cpp:141] Setting up conv5
I0403 14:23:03.837859  1212 net.cpp:148] Top shape: 100 256 13 13 (4326400)
I0403 14:23:03.837877  1212 net.cpp:156] Memory required for data: 800703600
I0403 14:23:03.837903  1212 layer_factory.hpp:77] Creating layer relu5
I0403 14:23:03.837925  1212 net.cpp:91] Creating Layer relu5
I0403 14:23:03.837942  1212 net.cpp:425] relu5 <- conv5
I0403 14:23:03.837963  1212 net.cpp:386] relu5 -> conv5 (in-place)
I0403 14:23:03.838253  1212 net.cpp:141] Setting up relu5
I0403 14:23:03.838287  1212 net.cpp:148] Top shape: 100 256 13 13 (4326400)
I0403 14:23:03.838309  1212 net.cpp:156] Memory required for data: 818009200
I0403 14:23:03.838325  1212 layer_factory.hpp:77] Creating layer pool5
I0403 14:23:03.838346  1212 net.cpp:91] Creating Layer pool5
I0403 14:23:03.838363  1212 net.cpp:425] pool5 <- conv5
I0403 14:23:03.838385  1212 net.cpp:399] pool5 -> pool5
I0403 14:23:03.838449  1212 net.cpp:141] Setting up pool5
I0403 14:23:03.838471  1212 net.cpp:148] Top shape: 100 256 6 6 (921600)
I0403 14:23:03.838486  1212 net.cpp:156] Memory required for data: 821695600
I0403 14:23:03.838501  1212 layer_factory.hpp:77] Creating layer fc6
I0403 14:23:03.838531  1212 net.cpp:91] Creating Layer fc6
I0403 14:23:03.838549  1212 net.cpp:425] fc6 <- pool5
I0403 14:23:03.838570  1212 net.cpp:399] fc6 -> fc6
I0403 14:23:05.403475  1212 net.cpp:141] Setting up fc6
I0403 14:23:05.403550  1212 net.cpp:148] Top shape: 100 4096 (409600)
I0403 14:23:05.403568  1212 net.cpp:156] Memory required for data: 823334000
I0403 14:23:05.403589  1212 layer_factory.hpp:77] Creating layer relu6
I0403 14:23:05.403612  1212 net.cpp:91] Creating Layer relu6
I0403 14:23:05.403632  1212 net.cpp:425] relu6 <- fc6
I0403 14:23:05.403652  1212 net.cpp:386] relu6 -> fc6 (in-place)
I0403 14:23:05.403869  1212 net.cpp:141] Setting up relu6
I0403 14:23:05.403895  1212 net.cpp:148] Top shape: 100 4096 (409600)
I0403 14:23:05.403910  1212 net.cpp:156] Memory required for data: 824972400
I0403 14:23:05.403925  1212 layer_factory.hpp:77] Creating layer drop6
I0403 14:23:05.403945  1212 net.cpp:91] Creating Layer drop6
I0403 14:23:05.403960  1212 net.cpp:425] drop6 <- fc6
I0403 14:23:05.403980  1212 net.cpp:386] drop6 -> fc6 (in-place)
I0403 14:23:05.404031  1212 net.cpp:141] Setting up drop6
I0403 14:23:05.404052  1212 net.cpp:148] Top shape: 100 4096 (409600)
I0403 14:23:05.404067  1212 net.cpp:156] Memory required for data: 826610800
I0403 14:23:05.404083  1212 layer_factory.hpp:77] Creating layer fc7
I0403 14:23:05.404104  1212 net.cpp:91] Creating Layer fc7
I0403 14:23:05.404121  1212 net.cpp:425] fc7 <- fc6
I0403 14:23:05.404142  1212 net.cpp:399] fc7 -> fc7
I0403 14:23:06.080757  1212 net.cpp:141] Setting up fc7
I0403 14:23:06.080821  1212 net.cpp:148] Top shape: 100 4096 (409600)
I0403 14:23:06.080837  1212 net.cpp:156] Memory required for data: 828249200
I0403 14:23:06.080857  1212 layer_factory.hpp:77] Creating layer relu7
I0403 14:23:06.080880  1212 net.cpp:91] Creating Layer relu7
I0403 14:23:06.080896  1212 net.cpp:425] relu7 <- fc7
I0403 14:23:06.080919  1212 net.cpp:386] relu7 -> fc7 (in-place)
I0403 14:23:06.081339  1212 net.cpp:141] Setting up relu7
I0403 14:23:06.081368  1212 net.cpp:148] Top shape: 100 4096 (409600)
I0403 14:23:06.081414  1212 net.cpp:156] Memory required for data: 829887600
I0403 14:23:06.081430  1212 layer_factory.hpp:77] Creating layer drop7
I0403 14:23:06.081454  1212 net.cpp:91] Creating Layer drop7
I0403 14:23:06.081470  1212 net.cpp:425] drop7 <- fc7
I0403 14:23:06.081490  1212 net.cpp:386] drop7 -> fc7 (in-place)
I0403 14:23:06.081533  1212 net.cpp:141] Setting up drop7
I0403 14:23:06.081555  1212 net.cpp:148] Top shape: 100 4096 (409600)
I0403 14:23:06.081569  1212 net.cpp:156] Memory required for data: 831526000
I0403 14:23:06.081584  1212 layer_factory.hpp:77] Creating layer fc8_plantvillage
I0403 14:23:06.081610  1212 net.cpp:91] Creating Layer fc8_plantvillage
I0403 14:23:06.081627  1212 net.cpp:425] fc8_plantvillage <- fc7
I0403 14:23:06.081647  1212 net.cpp:399] fc8_plantvillage -> fc8_plantvillage
I0403 14:23:06.088332  1212 net.cpp:141] Setting up fc8_plantvillage
I0403 14:23:06.088363  1212 net.cpp:148] Top shape: 100 38 (3800)
I0403 14:23:06.088378  1212 net.cpp:156] Memory required for data: 831541200
I0403 14:23:06.088397  1212 layer_factory.hpp:77] Creating layer fc8_plantvillage_fc8_plantvillage_0_split
I0403 14:23:06.088414  1212 net.cpp:91] Creating Layer fc8_plantvillage_fc8_plantvillage_0_split
I0403 14:23:06.088429  1212 net.cpp:425] fc8_plantvillage_fc8_plantvillage_0_split <- fc8_plantvillage
I0403 14:23:06.088454  1212 net.cpp:399] fc8_plantvillage_fc8_plantvillage_0_split -> fc8_plantvillage_fc8_plantvillage_0_split_0
I0403 14:23:06.088475  1212 net.cpp:399] fc8_plantvillage_fc8_plantvillage_0_split -> fc8_plantvillage_fc8_plantvillage_0_split_1
I0403 14:23:06.088495  1212 net.cpp:399] fc8_plantvillage_fc8_plantvillage_0_split -> fc8_plantvillage_fc8_plantvillage_0_split_2
I0403 14:23:06.088572  1212 net.cpp:141] Setting up fc8_plantvillage_fc8_plantvillage_0_split
I0403 14:23:06.088595  1212 net.cpp:148] Top shape: 100 38 (3800)
I0403 14:23:06.088611  1212 net.cpp:148] Top shape: 100 38 (3800)
I0403 14:23:06.088626  1212 net.cpp:148] Top shape: 100 38 (3800)
I0403 14:23:06.088639  1212 net.cpp:156] Memory required for data: 831586800
I0403 14:23:06.088655  1212 layer_factory.hpp:77] Creating layer prob
I0403 14:23:06.088673  1212 net.cpp:91] Creating Layer prob
I0403 14:23:06.088688  1212 net.cpp:425] prob <- fc8_plantvillage_fc8_plantvillage_0_split_0
I0403 14:23:06.088707  1212 net.cpp:399] prob -> prob
I0403 14:23:06.088922  1212 net.cpp:141] Setting up prob
I0403 14:23:06.088950  1212 net.cpp:148] Top shape: 100 38 (3800)
I0403 14:23:06.088966  1212 net.cpp:156] Memory required for data: 831602000
I0403 14:23:06.088980  1212 layer_factory.hpp:77] Creating layer hdf5out
I0403 14:23:06.088999  1212 net.cpp:91] Creating Layer hdf5out
I0403 14:23:06.089013  1212 net.cpp:425] hdf5out <- prob
I0403 14:23:06.089030  1212 net.cpp:425] hdf5out <- label_data_1_split_0
I0403 14:23:06.091367  1212 net.cpp:141] Setting up hdf5out
…
