…
I0403 14:12:09.653956   980 net.cpp:313] The NetState phase (1) differed from the phase (0) specified by a rule in layer data
I0403 14:12:09.654263   980 net.cpp:49] Initializing net from parameters: 
state {
  phase: TEST
}
layer {
  name: "data"
  type: "Data"
  top: "data"
  top: "label"
  include {
    phase: TEST
  }
  transform_param {
    crop_size: 227
    mean_file: "/home/mohanty/data/final_dataset/lmdb/segmented-50-50/mean.binaryproto"
  }
  data_param {
    source: "/home/mohanty/data/final_dataset/lmdb/segmented-50-50/test_db"
    batch_size: 100
    backend: LMDB
  }
}
layer {
  name: "conv1"
  type: "Convolution"
  bottom: "data"
  top: "conv1"
  param {
    lr_mult: 1
    decay_mult: 1
  }
  param {
    lr_mult: 2
    decay_mult: 0
  }
  convolution_param {
    num_output: 96
    kernel_size: 11
    stride: 4
    weight_filler {
      type: "gaussian"
      std: 0.01
    }
    bias_filler {
      type: "constant"
      value: 0
    }
  }
}
layer {
  name: "relu1"
  type: "ReLU"
  bottom: "conv1"
  top: "conv1"
}
layer {
  name: "norm1"
  type: "LRN"
  bottom: "conv1"
  top: "norm1"
  lrn_param {
    local_size: 5
    alpha: 0.0001
    beta: 0.75
  }
}
layer {
  name: "pool1"
  type: "Pooling"
  bottom: "norm1"
  top: "pool1"
  pooling_param {
    pool: MAX
    kernel_size: 3
    stride: 2
  }
}
layer {
  name: "conv2"
  type: "Convolution"
  bottom: "pool1"
  top: "conv2"
  param {
    lr_mult: 1
    decay_mult: 1
  }
  param {
    lr_mult: 2
    decay_mult: 0
  }
  convolution_param {
    num_output: 256
    pad: 2
    kernel_size: 5
    group: 2
    weight_filler {
      type: "gaussian"
      std: 0.01
    }
    bias_filler {
      type: "constant"
      value: 0.1
    }
  }
}
layer {
  name: "relu2"
  type: "ReLU"
  bottom: "conv2"
  top: "conv2"
}
layer {
  name: "norm2"
  type: "LRN"
  bottom: "conv2"
  top: "norm2"
  lrn_param {
    local_size: 5
    alpha: 0.0001
    beta: 0.75
  }
}
layer {
  name: "pool2"
  type: "Pooling"
  bottom: "norm2"
  top: "pool2"
  pooling_param {
    pool: MAX
    kernel_size: 3
    stride: 2
  }
}
layer {
  name: "conv3"
  type: "Convolution"
  bottom: "pool2"
  top: "conv3"
  param {
    lr_mult: 1
    decay_mult: 1
  }
  param {
    lr_mult: 2
    decay_mult: 0
  }
  convolution_param {
    num_output: 384
    pad: 1
    kernel_size: 3
    weight_filler {
      type: "gaussian"
      std: 0.01
    }
    bias_filler {
      type: "constant"
      value: 0
    }
  }
}
layer {
  name: "relu3"
  type: "ReLU"
  bottom: "conv3"
  top: "conv3"
}
layer {
  name: "conv4"
  type: "Convolution"
  bottom: "conv3"
  top: "conv4"
  param {
    lr_mult: 1
    decay_mult: 1
  }
  param {
    lr_mult: 2
    decay_mult: 0
  }
  convolution_param {
    num_output: 384
    pad: 1
    kernel_size: 3
    group: 2
    weight_filler {
      type: "gaussian"
      std: 0.01
    }
    bias_filler {
      type: "constant"
      value: 0.1
    }
  }
}
layer {
  name: "relu4"
  type: "ReLU"
  bottom: "conv4"
  top: "conv4"
}
layer {
  name: "conv5"
  type: "Convolution"
  bottom: "conv4"
  top: "conv5"
  param {
    lr_mult: 1
    decay_mult: 1
  }
  param {
    lr_mult: 2
    decay_mult: 0
  }
  convolution_param {
    num_output: 256
    pad: 1
    kernel_size: 3
    group: 2
    weight_filler {
      type: "gaussian"
      std: 0.01
    }
    bias_filler {
      type: "constant"
      value: 0.1
    }
  }
}
layer {
  name: "relu5"
  type: "ReLU"
  bottom: "conv5"
  top: "conv5"
}
layer {
  name: "pool5"
  type: "Pooling"
  bottom: "conv5"
  top: "pool5"
  pooling_param {
    pool: MAX
    kernel_size: 3
    stride: 2
  }
}
layer {
  name: "fc6"
  type: "InnerProduct"
  bottom: "pool5"
  top: "fc6"
  param {
    lr_mult: 1
    decay_mult: 1
  }
  param {
    lr_mult: 2
    decay_mult: 0
  }
  inner_product_param {
    num_output: 4096
    weight_filler {
      type: "gaussian"
      std: 0.005
    }
    bias_filler {
      type: "constant"
      value: 0.1
    }
  }
}
layer {
  name: "relu6"
  type: "ReLU"
  bottom: "fc6"
  top: "fc6"
}
layer {
  name: "drop6"
  type: "Dropout"
  bottom: "fc6"
  top: "fc6"
  dropout_param {
    dropout_ratio: 0.5
  }
}
layer {
  name: "fc7"
  type: "InnerProduct"
  bottom: "fc6"
  top: "fc7"
  param {
    lr_mult: 1
    decay_mult: 1
  }
  param {
    lr_mult: 2
    decay_mult: 0
  }
  inner_product_param {
    num_output: 4096
    weight_filler {
      type: "gaussian"
      std: 0.005
    }
    bias_filler {
      type: "constant"
      value: 0.1
    }
  }
}
layer {
  name: "relu7"
  type: "ReLU"
  bottom: "fc7"
  top: "fc7"
}
layer {
  name: "drop7"
  type: "Dropout"
  bottom: "fc7"
  top: "fc7"
  dropout_param {
    dropout_ratio: 0.5
  }
}
layer {
  name: "fc8_plantvillage"
  type: "InnerProduct"
  bottom: "fc7"
  top: "fc8_plantvillage"
  param {
    lr_mult: 1
    decay_mult: 1
  }
  param {
    lr_mult: 2
    decay_mult: 0
  }
  inner_product_param {
    num_output: 38
    weight_filler {
      type: "gaussian"
      std: 0.01
    }
    bias_filler {
      type: "constant"
      value: 0
    }
  }
}
layer {
  name: "prob"
  type: "Softmax"
  bottom: "fc8_plantvillage"
  top: "prob"
  include {
    phase: TEST
  }
}
layer {
  name: "hdf5out"
  type: "HDF5Output"
  bottom: "prob"
  bottom: "label"
  include {
    phase: TEST
  }
  hdf5_output_param {
    file_name: "hdf5_dumps/iter_1608.h5"
  }
}
layer {
  name: "loss"
  type: "SoftmaxWithLoss"
  bottom: "fc8_plantvillage"
  bottom: "label"
  top: "loss"
}
layer {
  name: "accuracy"
  type: "Accuracy"
  bottom: "fc8_plantvillage"
  bottom: "label"
  top: "accuracy"
  include {
    phase: TEST
  }
}
I0403 14:12:09.654903   980 layer_factory.hpp:77] Creating layer data
I0403 14:12:09.655555   980 net.cpp:91] Creating Layer data
I0403 14:12:09.655588   980 net.cpp:399] data -> data
I0403 14:12:09.655637   980 net.cpp:399] data -> label
I0403 14:12:09.655673   980 data_transformer.cpp:25] Loading mean file from: /home/mohanty/data/final_dataset/lmdb/segmented-50-50/mean.binaryproto
I0403 14:12:09.658936   985 db_lmdb.cpp:38] Opened lmdb /home/mohanty/data/final_dataset/lmdb/segmented-50-50/test_db
I0403 14:12:09.670065   980 data_layer.cpp:41] output data size: 100,3,227,227
I0403 14:12:09.787760   980 net.cpp:141] Setting up data
I0403 14:12:09.787818   980 net.cpp:148] Top shape: 100 3 227 227 (15458700)
I0403 14:12:09.787843   980 net.cpp:148] Top shape: 100 (100)
I0403 14:12:09.787859   980 net.cpp:156] Memory required for data: 61835200
I0403 14:12:09.787888   980 layer_factory.hpp:77] Creating layer label_data_1_split
I0403 14:12:09.787914   980 net.cpp:91] Creating Layer label_data_1_split
I0403 14:12:09.787931   980 net.cpp:425] label_data_1_split <- label
I0403 14:12:09.787963   980 net.cpp:399] label_data_1_split -> label_data_1_split_0
I0403 14:12:09.787991   980 net.cpp:399] label_data_1_split -> label_data_1_split_1
I0403 14:12:09.788012   980 net.cpp:399] label_data_1_split -> label_data_1_split_2
I0403 14:12:09.788074   980 net.cpp:141] Setting up label_data_1_split
I0403 14:12:09.788099   980 net.cpp:148] Top shape: 100 (100)
I0403 14:12:09.788115   980 net.cpp:148] Top shape: 100 (100)
I0403 14:12:09.788133   980 net.cpp:148] Top shape: 100 (100)
I0403 14:12:09.788148   980 net.cpp:156] Memory required for data: 61836400
I0403 14:12:09.788163   980 layer_factory.hpp:77] Creating layer conv1
I0403 14:12:09.788197   980 net.cpp:91] Creating Layer conv1
I0403 14:12:09.788219   980 net.cpp:425] conv1 <- data
I0403 14:12:09.788242   980 net.cpp:399] conv1 -> conv1
I0403 14:12:09.925576   980 net.cpp:141] Setting up conv1
I0403 14:12:09.925658   980 net.cpp:148] Top shape: 100 96 55 55 (29040000)
I0403 14:12:09.925679   980 net.cpp:156] Memory required for data: 177996400
I0403 14:12:09.925711   980 layer_factory.hpp:77] Creating layer relu1
I0403 14:12:09.925740   980 net.cpp:91] Creating Layer relu1
I0403 14:12:09.925758   980 net.cpp:425] relu1 <- conv1
I0403 14:12:09.925776   980 net.cpp:386] relu1 -> conv1 (in-place)
I0403 14:12:09.926048   980 net.cpp:141] Setting up relu1
I0403 14:12:09.926075   980 net.cpp:148] Top shape: 100 96 55 55 (29040000)
I0403 14:12:09.926123   980 net.cpp:156] Memory required for data: 294156400
I0403 14:12:09.926141   980 layer_factory.hpp:77] Creating layer norm1
I0403 14:12:09.926172   980 net.cpp:91] Creating Layer norm1
I0403 14:12:09.926190   980 net.cpp:425] norm1 <- conv1
I0403 14:12:09.926210   980 net.cpp:399] norm1 -> norm1
I0403 14:12:09.926589   980 net.cpp:141] Setting up norm1
I0403 14:12:09.926625   980 net.cpp:148] Top shape: 100 96 55 55 (29040000)
I0403 14:12:09.926640   980 net.cpp:156] Memory required for data: 410316400
I0403 14:12:09.926656   980 layer_factory.hpp:77] Creating layer pool1
I0403 14:12:09.926681   980 net.cpp:91] Creating Layer pool1
I0403 14:12:09.926698   980 net.cpp:425] pool1 <- norm1
I0403 14:12:09.926717   980 net.cpp:399] pool1 -> pool1
I0403 14:12:09.926787   980 net.cpp:141] Setting up pool1
I0403 14:12:09.926811   980 net.cpp:148] Top shape: 100 96 27 27 (6998400)
I0403 14:12:09.926827   980 net.cpp:156] Memory required for data: 438310000
I0403 14:12:09.926842   980 layer_factory.hpp:77] Creating layer conv2
I0403 14:12:09.926868   980 net.cpp:91] Creating Layer conv2
I0403 14:12:09.926885   980 net.cpp:425] conv2 <- pool1
I0403 14:12:09.926906   980 net.cpp:399] conv2 -> conv2
I0403 14:12:09.942425   980 net.cpp:141] Setting up conv2
I0403 14:12:09.942483   980 net.cpp:148] Top shape: 100 256 27 27 (18662400)
I0403 14:12:09.942502   980 net.cpp:156] Memory required for data: 512959600
I0403 14:12:09.942529   980 layer_factory.hpp:77] Creating layer relu2
I0403 14:12:09.942553   980 net.cpp:91] Creating Layer relu2
I0403 14:12:09.942570   980 net.cpp:425] relu2 <- conv2
I0403 14:12:09.942589   980 net.cpp:386] relu2 -> conv2 (in-place)
I0403 14:12:09.942879   980 net.cpp:141] Setting up relu2
I0403 14:12:09.942910   980 net.cpp:148] Top shape: 100 256 27 27 (18662400)
I0403 14:12:09.942926   980 net.cpp:156] Memory required for data: 587609200
I0403 14:12:09.942942   980 layer_factory.hpp:77] Creating layer norm2
I0403 14:12:09.942965   980 net.cpp:91] Creating Layer norm2
I0403 14:12:09.943004   980 net.cpp:425] norm2 <- conv2
I0403 14:12:09.943030   980 net.cpp:399] norm2 -> norm2
I0403 14:12:09.943238   980 net.cpp:141] Setting up norm2
I0403 14:12:09.943269   980 net.cpp:148] Top shape: 100 256 27 27 (18662400)
I0403 14:12:09.943284   980 net.cpp:156] Memory required for data: 662258800
I0403 14:12:09.943300   980 layer_factory.hpp:77] Creating layer pool2
I0403 14:12:09.943321   980 net.cpp:91] Creating Layer pool2
I0403 14:12:09.943346   980 net.cpp:425] pool2 <- norm2
I0403 14:12:09.943363   980 net.cpp:399] pool2 -> pool2
I0403 14:12:09.943421   980 net.cpp:141] Setting up pool2
I0403 14:12:09.943444   980 net.cpp:148] Top shape: 100 256 13 13 (4326400)
I0403 14:12:09.943460   980 net.cpp:156] Memory required for data: 679564400
I0403 14:12:09.943475   980 layer_factory.hpp:77] Creating layer conv3
I0403 14:12:09.943500   980 net.cpp:91] Creating Layer conv3
I0403 14:12:09.943517   980 net.cpp:425] conv3 <- pool2
I0403 14:12:09.943539   980 net.cpp:399] conv3 -> conv3
I0403 14:12:09.983201   980 net.cpp:141] Setting up conv3
I0403 14:12:09.983270   980 net.cpp:148] Top shape: 100 384 13 13 (6489600)
I0403 14:12:09.983289   980 net.cpp:156] Memory required for data: 705522800
I0403 14:12:09.983316   980 layer_factory.hpp:77] Creating layer relu3
I0403 14:12:09.983342   980 net.cpp:91] Creating Layer relu3
I0403 14:12:09.983361   980 net.cpp:425] relu3 <- conv3
I0403 14:12:09.983378   980 net.cpp:386] relu3 -> conv3 (in-place)
I0403 14:12:09.983659   980 net.cpp:141] Setting up relu3
I0403 14:12:09.983686   980 net.cpp:148] Top shape: 100 384 13 13 (6489600)
I0403 14:12:09.983702   980 net.cpp:156] Memory required for data: 731481200
I0403 14:12:09.983718   980 layer_factory.hpp:77] Creating layer conv4
I0403 14:12:09.983746   980 net.cpp:91] Creating Layer conv4
I0403 14:12:09.983763   980 net.cpp:425] conv4 <- conv3
I0403 14:12:09.983783   980 net.cpp:399] conv4 -> conv4
I0403 14:12:10.014123   980 net.cpp:141] Setting up conv4
I0403 14:12:10.014175   980 net.cpp:148] Top shape: 100 384 13 13 (6489600)
I0403 14:12:10.014227   980 net.cpp:156] Memory required for data: 757439600
I0403 14:12:10.014255   980 layer_factory.hpp:77] Creating layer relu4
I0403 14:12:10.014281   980 net.cpp:91] Creating Layer relu4
I0403 14:12:10.014302   980 net.cpp:425] relu4 <- conv4
I0403 14:12:10.014320   980 net.cpp:386] relu4 -> conv4 (in-place)
I0403 14:12:10.014608   980 net.cpp:141] Setting up relu4
I0403 14:12:10.014636   980 net.cpp:148] Top shape: 100 384 13 13 (6489600)
I0403 14:12:10.014652   980 net.cpp:156] Memory required for data: 783398000
I0403 14:12:10.014668   980 layer_factory.hpp:77] Creating layer conv5
I0403 14:12:10.014693   980 net.cpp:91] Creating Layer conv5
I0403 14:12:10.014713   980 net.cpp:425] conv5 <- conv4
I0403 14:12:10.014734   980 net.cpp:399] conv5 -> conv5
I0403 14:12:10.036346   980 net.cpp:141] Setting up conv5
I0403 14:12:10.036440   980 net.cpp:148] Top shape: 100 256 13 13 (4326400)
I0403 14:12:10.036463   980 net.cpp:156] Memory required for data: 800703600
I0403 14:12:10.036492   980 layer_factory.hpp:77] Creating layer relu5
I0403 14:12:10.036517   980 net.cpp:91] Creating Layer relu5
I0403 14:12:10.036535   980 net.cpp:425] relu5 <- conv5
I0403 14:12:10.036555   980 net.cpp:386] relu5 -> conv5 (in-place)
I0403 14:12:10.036849   980 net.cpp:141] Setting up relu5
I0403 14:12:10.036878   980 net.cpp:148] Top shape: 100 256 13 13 (4326400)
I0403 14:12:10.036898   980 net.cpp:156] Memory required for data: 818009200
I0403 14:12:10.036916   980 layer_factory.hpp:77] Creating layer pool5
I0403 14:12:10.036939   980 net.cpp:91] Creating Layer pool5
I0403 14:12:10.036955   980 net.cpp:425] pool5 <- conv5
I0403 14:12:10.036974   980 net.cpp:399] pool5 -> pool5
I0403 14:12:10.037039   980 net.cpp:141] Setting up pool5
I0403 14:12:10.037062   980 net.cpp:148] Top shape: 100 256 6 6 (921600)
I0403 14:12:10.037077   980 net.cpp:156] Memory required for data: 821695600
I0403 14:12:10.037093   980 layer_factory.hpp:77] Creating layer fc6
I0403 14:12:10.037123   980 net.cpp:91] Creating Layer fc6
I0403 14:12:10.037142   980 net.cpp:425] fc6 <- pool5
I0403 14:12:10.037163   980 net.cpp:399] fc6 -> fc6
I0403 14:12:11.602730   980 net.cpp:141] Setting up fc6
I0403 14:12:11.602771   980 net.cpp:148] Top shape: 100 4096 (409600)
I0403 14:12:11.602788   980 net.cpp:156] Memory required for data: 823334000
I0403 14:12:11.602810   980 layer_factory.hpp:77] Creating layer relu6
I0403 14:12:11.602833   980 net.cpp:91] Creating Layer relu6
I0403 14:12:11.602849   980 net.cpp:425] relu6 <- fc6
I0403 14:12:11.602869   980 net.cpp:386] relu6 -> fc6 (in-place)
I0403 14:12:11.603081   980 net.cpp:141] Setting up relu6
I0403 14:12:11.603106   980 net.cpp:148] Top shape: 100 4096 (409600)
I0403 14:12:11.603121   980 net.cpp:156] Memory required for data: 824972400
I0403 14:12:11.603135   980 layer_factory.hpp:77] Creating layer drop6
I0403 14:12:11.603154   980 net.cpp:91] Creating Layer drop6
I0403 14:12:11.603169   980 net.cpp:425] drop6 <- fc6
I0403 14:12:11.603186   980 net.cpp:386] drop6 -> fc6 (in-place)
I0403 14:12:11.603235   980 net.cpp:141] Setting up drop6
I0403 14:12:11.603262   980 net.cpp:148] Top shape: 100 4096 (409600)
I0403 14:12:11.603276   980 net.cpp:156] Memory required for data: 826610800
I0403 14:12:11.603291   980 layer_factory.hpp:77] Creating layer fc7
I0403 14:12:11.603310   980 net.cpp:91] Creating Layer fc7
I0403 14:12:11.603327   980 net.cpp:425] fc7 <- fc6
I0403 14:12:11.603343   980 net.cpp:399] fc7 -> fc7
I0403 14:12:12.287474   980 net.cpp:141] Setting up fc7
I0403 14:12:12.287523   980 net.cpp:148] Top shape: 100 4096 (409600)
I0403 14:12:12.287539   980 net.cpp:156] Memory required for data: 828249200
I0403 14:12:12.287564   980 layer_factory.hpp:77] Creating layer relu7
I0403 14:12:12.287588   980 net.cpp:91] Creating Layer relu7
I0403 14:12:12.287609   980 net.cpp:425] relu7 <- fc7
I0403 14:12:12.287631   980 net.cpp:386] relu7 -> fc7 (in-place)
I0403 14:12:12.288065   980 net.cpp:141] Setting up relu7
I0403 14:12:12.288094   980 net.cpp:148] Top shape: 100 4096 (409600)
I0403 14:12:12.288128   980 net.cpp:156] Memory required for data: 829887600
I0403 14:12:12.288144   980 layer_factory.hpp:77] Creating layer drop7
I0403 14:12:12.288166   980 net.cpp:91] Creating Layer drop7
I0403 14:12:12.288183   980 net.cpp:425] drop7 <- fc7
I0403 14:12:12.288202   980 net.cpp:386] drop7 -> fc7 (in-place)
I0403 14:12:12.288252   980 net.cpp:141] Setting up drop7
I0403 14:12:12.288275   980 net.cpp:148] Top shape: 100 4096 (409600)
I0403 14:12:12.288291   980 net.cpp:156] Memory required for data: 831526000
I0403 14:12:12.288305   980 layer_factory.hpp:77] Creating layer fc8_plantvillage
I0403 14:12:12.288326   980 net.cpp:91] Creating Layer fc8_plantvillage
I0403 14:12:12.288341   980 net.cpp:425] fc8_plantvillage <- fc7
I0403 14:12:12.288362   980 net.cpp:399] fc8_plantvillage -> fc8_plantvillage
I0403 14:12:12.295400   980 net.cpp:141] Setting up fc8_plantvillage
I0403 14:12:12.295444   980 net.cpp:148] Top shape: 100 38 (3800)
I0403 14:12:12.295461   980 net.cpp:156] Memory required for data: 831541200
I0403 14:12:12.295482   980 layer_factory.hpp:77] Creating layer fc8_plantvillage_fc8_plantvillage_0_split
I0403 14:12:12.295501   980 net.cpp:91] Creating Layer fc8_plantvillage_fc8_plantvillage_0_split
I0403 14:12:12.295518   980 net.cpp:425] fc8_plantvillage_fc8_plantvillage_0_split <- fc8_plantvillage
I0403 14:12:12.295536   980 net.cpp:399] fc8_plantvillage_fc8_plantvillage_0_split -> fc8_plantvillage_fc8_plantvillage_0_split_0
I0403 14:12:12.295557   980 net.cpp:399] fc8_plantvillage_fc8_plantvillage_0_split -> fc8_plantvillage_fc8_plantvillage_0_split_1
I0403 14:12:12.295578   980 net.cpp:399] fc8_plantvillage_fc8_plantvillage_0_split -> fc8_plantvillage_fc8_plantvillage_0_split_2
I0403 14:12:12.295655   980 net.cpp:141] Setting up fc8_plantvillage_fc8_plantvillage_0_split
I0403 14:12:12.295680   980 net.cpp:148] Top shape: 100 38 (3800)
I0403 14:12:12.295698   980 net.cpp:148] Top shape: 100 38 (3800)
I0403 14:12:12.295716   980 net.cpp:148] Top shape: 100 38 (3800)
I0403 14:12:12.295742   980 net.cpp:156] Memory required for data: 831586800
I0403 14:12:12.295756   980 layer_factory.hpp:77] Creating layer prob
I0403 14:12:12.295775   980 net.cpp:91] Creating Layer prob
I0403 14:12:12.295791   980 net.cpp:425] prob <- fc8_plantvillage_fc8_plantvillage_0_split_0
I0403 14:12:12.295810   980 net.cpp:399] prob -> prob
I0403 14:12:12.296033   980 net.cpp:141] Setting up prob
I0403 14:12:12.296058   980 net.cpp:148] Top shape: 100 38 (3800)
I0403 14:12:12.296073   980 net.cpp:156] Memory required for data: 831602000
I0403 14:12:12.296088   980 layer_factory.hpp:77] Creating layer hdf5out
I0403 14:12:12.296110   980 net.cpp:91] Creating Layer hdf5out
I0403 14:12:12.296126   980 net.cpp:425] hdf5out <- prob
I0403 14:12:12.296144   980 net.cpp:425] hdf5out <- label_data_1_split_0
I0403 14:12:12.298499   980 net.cpp:141] Setting up hdf5out
…
