…
I0403 14:20:32.002950  1161 net.cpp:313] The NetState phase (1) differed from the phase (0) specified by a rule in layer data
I0403 14:20:32.003258  1161 net.cpp:49] Initializing net from parameters: 
state {
  phase: TEST
}
layer {
  name: "data"
  type: "Data"
  top: "data"
  top: "label"
  include {
    phase: TEST
  }
  transform_param {
    crop_size: 227
    mean_file: "/home/mohanty/data/final_dataset/lmdb/segmented-50-50/mean.binaryproto"
  }
  data_param {
    source: "/home/mohanty/data/final_dataset/lmdb/segmented-50-50/test_db"
    batch_size: 100
    backend: LMDB
  }
}
layer {
  name: "conv1"
  type: "Convolution"
  bottom: "data"
  top: "conv1"
  param {
    lr_mult: 1
    decay_mult: 1
  }
  param {
    lr_mult: 2
    decay_mult: 0
  }
  convolution_param {
    num_output: 96
    kernel_size: 11
    stride: 4
    weight_filler {
      type: "gaussian"
      std: 0.01
    }
    bias_filler {
      type: "constant"
      value: 0
    }
  }
}
layer {
  name: "relu1"
  type: "ReLU"
  bottom: "conv1"
  top: "conv1"
}
layer {
  name: "norm1"
  type: "LRN"
  bottom: "conv1"
  top: "norm1"
  lrn_param {
    local_size: 5
    alpha: 0.0001
    beta: 0.75
  }
}
layer {
  name: "pool1"
  type: "Pooling"
  bottom: "norm1"
  top: "pool1"
  pooling_param {
    pool: MAX
    kernel_size: 3
    stride: 2
  }
}
layer {
  name: "conv2"
  type: "Convolution"
  bottom: "pool1"
  top: "conv2"
  param {
    lr_mult: 1
    decay_mult: 1
  }
  param {
    lr_mult: 2
    decay_mult: 0
  }
  convolution_param {
    num_output: 256
    pad: 2
    kernel_size: 5
    group: 2
    weight_filler {
      type: "gaussian"
      std: 0.01
    }
    bias_filler {
      type: "constant"
      value: 0.1
    }
  }
}
layer {
  name: "relu2"
  type: "ReLU"
  bottom: "conv2"
  top: "conv2"
}
layer {
  name: "norm2"
  type: "LRN"
  bottom: "conv2"
  top: "norm2"
  lrn_param {
    local_size: 5
    alpha: 0.0001
    beta: 0.75
  }
}
layer {
  name: "pool2"
  type: "Pooling"
  bottom: "norm2"
  top: "pool2"
  pooling_param {
    pool: MAX
    kernel_size: 3
    stride: 2
  }
}
layer {
  name: "conv3"
  type: "Convolution"
  bottom: "pool2"
  top: "conv3"
  param {
    lr_mult: 1
    decay_mult: 1
  }
  param {
    lr_mult: 2
    decay_mult: 0
  }
  convolution_param {
    num_output: 384
    pad: 1
    kernel_size: 3
    weight_filler {
      type: "gaussian"
      std: 0.01
    }
    bias_filler {
      type: "constant"
      value: 0
    }
  }
}
layer {
  name: "relu3"
  type: "ReLU"
  bottom: "conv3"
  top: "conv3"
}
layer {
  name: "conv4"
  type: "Convolution"
  bottom: "conv3"
  top: "conv4"
  param {
    lr_mult: 1
    decay_mult: 1
  }
  param {
    lr_mult: 2
    decay_mult: 0
  }
  convolution_param {
    num_output: 384
    pad: 1
    kernel_size: 3
    group: 2
    weight_filler {
      type: "gaussian"
      std: 0.01
    }
    bias_filler {
      type: "constant"
      value: 0.1
    }
  }
}
layer {
  name: "relu4"
  type: "ReLU"
  bottom: "conv4"
  top: "conv4"
}
layer {
  name: "conv5"
  type: "Convolution"
  bottom: "conv4"
  top: "conv5"
  param {
    lr_mult: 1
    decay_mult: 1
  }
  param {
    lr_mult: 2
    decay_mult: 0
  }
  convolution_param {
    num_output: 256
    pad: 1
    kernel_size: 3
    group: 2
    weight_filler {
      type: "gaussian"
      std: 0.01
    }
    bias_filler {
      type: "constant"
      value: 0.1
    }
  }
}
layer {
  name: "relu5"
  type: "ReLU"
  bottom: "conv5"
  top: "conv5"
}
layer {
  name: "pool5"
  type: "Pooling"
  bottom: "conv5"
  top: "pool5"
  pooling_param {
    pool: MAX
    kernel_size: 3
    stride: 2
  }
}
layer {
  name: "fc6"
  type: "InnerProduct"
  bottom: "pool5"
  top: "fc6"
  param {
    lr_mult: 1
    decay_mult: 1
  }
  param {
    lr_mult: 2
    decay_mult: 0
  }
  inner_product_param {
    num_output: 4096
    weight_filler {
      type: "gaussian"
      std: 0.005
    }
    bias_filler {
      type: "constant"
      value: 0.1
    }
  }
}
layer {
  name: "relu6"
  type: "ReLU"
  bottom: "fc6"
  top: "fc6"
}
layer {
  name: "drop6"
  type: "Dropout"
  bottom: "fc6"
  top: "fc6"
  dropout_param {
    dropout_ratio: 0.5
  }
}
layer {
  name: "fc7"
  type: "InnerProduct"
  bottom: "fc6"
  top: "fc7"
  param {
    lr_mult: 1
    decay_mult: 1
  }
  param {
    lr_mult: 2
    decay_mult: 0
  }
  inner_product_param {
    num_output: 4096
    weight_filler {
      type: "gaussian"
      std: 0.005
    }
    bias_filler {
      type: "constant"
      value: 0.1
    }
  }
}
layer {
  name: "relu7"
  type: "ReLU"
  bottom: "fc7"
  top: "fc7"
}
layer {
  name: "drop7"
  type: "Dropout"
  bottom: "fc7"
  top: "fc7"
  dropout_param {
    dropout_ratio: 0.5
  }
}
layer {
  name: "fc8_plantvillage"
  type: "InnerProduct"
  bottom: "fc7"
  top: "fc8_plantvillage"
  param {
    lr_mult: 1
    decay_mult: 1
  }
  param {
    lr_mult: 2
    decay_mult: 0
  }
  inner_product_param {
    num_output: 38
    weight_filler {
      type: "gaussian"
      std: 0.01
    }
    bias_filler {
      type: "constant"
      value: 0
    }
  }
}
layer {
  name: "prob"
  type: "Softmax"
  bottom: "fc8_plantvillage"
  top: "prob"
  include {
    phase: TEST
  }
}
layer {
  name: "hdf5out"
  type: "HDF5Output"
  bottom: "prob"
  bottom: "label"
  include {
    phase: TEST
  }
  hdf5_output_param {
    file_name: "hdf5_dumps/iter_4288.h5"
  }
}
layer {
  name: "loss"
  type: "SoftmaxWithLoss"
  bottom: "fc8_plantvillage"
  bottom: "label"
  top: "loss"
}
layer {
  name: "accuracy"
  type: "Accuracy"
  bottom: "fc8_plantvillage"
  bottom: "label"
  top: "accuracy"
  include {
    phase: TEST
  }
}
I0403 14:20:32.003839  1161 layer_factory.hpp:77] Creating layer data
I0403 14:20:32.004489  1161 net.cpp:91] Creating Layer data
I0403 14:20:32.004519  1161 net.cpp:399] data -> data
I0403 14:20:32.004568  1161 net.cpp:399] data -> label
I0403 14:20:32.004608  1161 data_transformer.cpp:25] Loading mean file from: /home/mohanty/data/final_dataset/lmdb/segmented-50-50/mean.binaryproto
I0403 14:20:32.008502  1165 db_lmdb.cpp:38] Opened lmdb /home/mohanty/data/final_dataset/lmdb/segmented-50-50/test_db
I0403 14:20:32.018889  1161 data_layer.cpp:41] output data size: 100,3,227,227
I0403 14:20:32.138375  1161 net.cpp:141] Setting up data
I0403 14:20:32.138448  1161 net.cpp:148] Top shape: 100 3 227 227 (15458700)
I0403 14:20:32.138470  1161 net.cpp:148] Top shape: 100 (100)
I0403 14:20:32.138486  1161 net.cpp:156] Memory required for data: 61835200
I0403 14:20:32.138514  1161 layer_factory.hpp:77] Creating layer label_data_1_split
I0403 14:20:32.138538  1161 net.cpp:91] Creating Layer label_data_1_split
I0403 14:20:32.138556  1161 net.cpp:425] label_data_1_split <- label
I0403 14:20:32.138587  1161 net.cpp:399] label_data_1_split -> label_data_1_split_0
I0403 14:20:32.138613  1161 net.cpp:399] label_data_1_split -> label_data_1_split_1
I0403 14:20:32.138634  1161 net.cpp:399] label_data_1_split -> label_data_1_split_2
I0403 14:20:32.138696  1161 net.cpp:141] Setting up label_data_1_split
I0403 14:20:32.138720  1161 net.cpp:148] Top shape: 100 (100)
I0403 14:20:32.138738  1161 net.cpp:148] Top shape: 100 (100)
I0403 14:20:32.138756  1161 net.cpp:148] Top shape: 100 (100)
I0403 14:20:32.138769  1161 net.cpp:156] Memory required for data: 61836400
I0403 14:20:32.138784  1161 layer_factory.hpp:77] Creating layer conv1
I0403 14:20:32.138816  1161 net.cpp:91] Creating Layer conv1
I0403 14:20:32.138834  1161 net.cpp:425] conv1 <- data
I0403 14:20:32.138854  1161 net.cpp:399] conv1 -> conv1
I0403 14:20:32.282701  1161 net.cpp:141] Setting up conv1
I0403 14:20:32.282747  1161 net.cpp:148] Top shape: 100 96 55 55 (29040000)
I0403 14:20:32.282769  1161 net.cpp:156] Memory required for data: 177996400
I0403 14:20:32.282804  1161 layer_factory.hpp:77] Creating layer relu1
I0403 14:20:32.282832  1161 net.cpp:91] Creating Layer relu1
I0403 14:20:32.282851  1161 net.cpp:425] relu1 <- conv1
I0403 14:20:32.282872  1161 net.cpp:386] relu1 -> conv1 (in-place)
I0403 14:20:32.283170  1161 net.cpp:141] Setting up relu1
I0403 14:20:32.283200  1161 net.cpp:148] Top shape: 100 96 55 55 (29040000)
I0403 14:20:32.283263  1161 net.cpp:156] Memory required for data: 294156400
I0403 14:20:32.283280  1161 layer_factory.hpp:77] Creating layer norm1
I0403 14:20:32.283309  1161 net.cpp:91] Creating Layer norm1
I0403 14:20:32.283335  1161 net.cpp:425] norm1 <- conv1
I0403 14:20:32.283355  1161 net.cpp:399] norm1 -> norm1
I0403 14:20:32.283690  1161 net.cpp:141] Setting up norm1
I0403 14:20:32.283720  1161 net.cpp:148] Top shape: 100 96 55 55 (29040000)
I0403 14:20:32.283737  1161 net.cpp:156] Memory required for data: 410316400
I0403 14:20:32.283753  1161 layer_factory.hpp:77] Creating layer pool1
I0403 14:20:32.283777  1161 net.cpp:91] Creating Layer pool1
I0403 14:20:32.283795  1161 net.cpp:425] pool1 <- norm1
I0403 14:20:32.283814  1161 net.cpp:399] pool1 -> pool1
I0403 14:20:32.283887  1161 net.cpp:141] Setting up pool1
I0403 14:20:32.283912  1161 net.cpp:148] Top shape: 100 96 27 27 (6998400)
I0403 14:20:32.283928  1161 net.cpp:156] Memory required for data: 438310000
I0403 14:20:32.283944  1161 layer_factory.hpp:77] Creating layer conv2
I0403 14:20:32.283970  1161 net.cpp:91] Creating Layer conv2
I0403 14:20:32.283988  1161 net.cpp:425] conv2 <- pool1
I0403 14:20:32.284008  1161 net.cpp:399] conv2 -> conv2
I0403 14:20:32.299581  1161 net.cpp:141] Setting up conv2
I0403 14:20:32.299648  1161 net.cpp:148] Top shape: 100 256 27 27 (18662400)
I0403 14:20:32.299669  1161 net.cpp:156] Memory required for data: 512959600
I0403 14:20:32.299695  1161 layer_factory.hpp:77] Creating layer relu2
I0403 14:20:32.299715  1161 net.cpp:91] Creating Layer relu2
I0403 14:20:32.299732  1161 net.cpp:425] relu2 <- conv2
I0403 14:20:32.299751  1161 net.cpp:386] relu2 -> conv2 (in-place)
I0403 14:20:32.300034  1161 net.cpp:141] Setting up relu2
I0403 14:20:32.300065  1161 net.cpp:148] Top shape: 100 256 27 27 (18662400)
I0403 14:20:32.300082  1161 net.cpp:156] Memory required for data: 587609200
I0403 14:20:32.300098  1161 layer_factory.hpp:77] Creating layer norm2
I0403 14:20:32.300119  1161 net.cpp:91] Creating Layer norm2
I0403 14:20:32.300135  1161 net.cpp:425] norm2 <- conv2
I0403 14:20:32.300156  1161 net.cpp:399] norm2 -> norm2
I0403 14:20:32.300364  1161 net.cpp:141] Setting up norm2
I0403 14:20:32.300390  1161 net.cpp:148] Top shape: 100 256 27 27 (18662400)
I0403 14:20:32.300405  1161 net.cpp:156] Memory required for data: 662258800
I0403 14:20:32.300420  1161 layer_factory.hpp:77] Creating layer pool2
I0403 14:20:32.300441  1161 net.cpp:91] Creating Layer pool2
I0403 14:20:32.300458  1161 net.cpp:425] pool2 <- norm2
I0403 14:20:32.300477  1161 net.cpp:399] pool2 -> pool2
I0403 14:20:32.300529  1161 net.cpp:141] Setting up pool2
I0403 14:20:32.300552  1161 net.cpp:148] Top shape: 100 256 13 13 (4326400)
I0403 14:20:32.300567  1161 net.cpp:156] Memory required for data: 679564400
I0403 14:20:32.300582  1161 layer_factory.hpp:77] Creating layer conv3
I0403 14:20:32.300606  1161 net.cpp:91] Creating Layer conv3
I0403 14:20:32.300623  1161 net.cpp:425] conv3 <- pool2
I0403 14:20:32.300645  1161 net.cpp:399] conv3 -> conv3
I0403 14:20:32.339620  1161 net.cpp:141] Setting up conv3
I0403 14:20:32.339679  1161 net.cpp:148] Top shape: 100 384 13 13 (6489600)
I0403 14:20:32.339696  1161 net.cpp:156] Memory required for data: 705522800
I0403 14:20:32.339721  1161 layer_factory.hpp:77] Creating layer relu3
I0403 14:20:32.339745  1161 net.cpp:91] Creating Layer relu3
I0403 14:20:32.339766  1161 net.cpp:425] relu3 <- conv3
I0403 14:20:32.339786  1161 net.cpp:386] relu3 -> conv3 (in-place)
I0403 14:20:32.340068  1161 net.cpp:141] Setting up relu3
I0403 14:20:32.340096  1161 net.cpp:148] Top shape: 100 384 13 13 (6489600)
I0403 14:20:32.340112  1161 net.cpp:156] Memory required for data: 731481200
I0403 14:20:32.340129  1161 layer_factory.hpp:77] Creating layer conv4
I0403 14:20:32.340158  1161 net.cpp:91] Creating Layer conv4
I0403 14:20:32.340176  1161 net.cpp:425] conv4 <- conv3
I0403 14:20:32.340199  1161 net.cpp:399] conv4 -> conv4
I0403 14:20:32.371582  1161 net.cpp:141] Setting up conv4
I0403 14:20:32.371623  1161 net.cpp:148] Top shape: 100 384 13 13 (6489600)
I0403 14:20:32.371673  1161 net.cpp:156] Memory required for data: 757439600
I0403 14:20:32.371697  1161 layer_factory.hpp:77] Creating layer relu4
I0403 14:20:32.371727  1161 net.cpp:91] Creating Layer relu4
I0403 14:20:32.371757  1161 net.cpp:425] relu4 <- conv4
I0403 14:20:32.371778  1161 net.cpp:386] relu4 -> conv4 (in-place)
I0403 14:20:32.372074  1161 net.cpp:141] Setting up relu4
I0403 14:20:32.372107  1161 net.cpp:148] Top shape: 100 384 13 13 (6489600)
I0403 14:20:32.372129  1161 net.cpp:156] Memory required for data: 783398000
I0403 14:20:32.372155  1161 layer_factory.hpp:77] Creating layer conv5
I0403 14:20:32.372190  1161 net.cpp:91] Creating Layer conv5
I0403 14:20:32.372210  1161 net.cpp:425] conv5 <- conv4
I0403 14:20:32.372232  1161 net.cpp:399] conv5 -> conv5
I0403 14:20:32.394731  1161 net.cpp:141] Setting up conv5
I0403 14:20:32.394780  1161 net.cpp:148] Top shape: 100 256 13 13 (4326400)
I0403 14:20:32.394798  1161 net.cpp:156] Memory required for data: 800703600
I0403 14:20:32.394824  1161 layer_factory.hpp:77] Creating layer relu5
I0403 14:20:32.394845  1161 net.cpp:91] Creating Layer relu5
I0403 14:20:32.394861  1161 net.cpp:425] relu5 <- conv5
I0403 14:20:32.394879  1161 net.cpp:386] relu5 -> conv5 (in-place)
I0403 14:20:32.395159  1161 net.cpp:141] Setting up relu5
I0403 14:20:32.395190  1161 net.cpp:148] Top shape: 100 256 13 13 (4326400)
I0403 14:20:32.395205  1161 net.cpp:156] Memory required for data: 818009200
I0403 14:20:32.395222  1161 layer_factory.hpp:77] Creating layer pool5
I0403 14:20:32.395248  1161 net.cpp:91] Creating Layer pool5
I0403 14:20:32.395265  1161 net.cpp:425] pool5 <- conv5
I0403 14:20:32.395287  1161 net.cpp:399] pool5 -> pool5
I0403 14:20:32.395347  1161 net.cpp:141] Setting up pool5
I0403 14:20:32.395371  1161 net.cpp:148] Top shape: 100 256 6 6 (921600)
I0403 14:20:32.395386  1161 net.cpp:156] Memory required for data: 821695600
I0403 14:20:32.395402  1161 layer_factory.hpp:77] Creating layer fc6
I0403 14:20:32.395431  1161 net.cpp:91] Creating Layer fc6
I0403 14:20:32.395450  1161 net.cpp:425] fc6 <- pool5
I0403 14:20:32.395472  1161 net.cpp:399] fc6 -> fc6
I0403 14:20:33.935933  1161 net.cpp:141] Setting up fc6
I0403 14:20:33.936003  1161 net.cpp:148] Top shape: 100 4096 (409600)
I0403 14:20:33.936020  1161 net.cpp:156] Memory required for data: 823334000
I0403 14:20:33.936041  1161 layer_factory.hpp:77] Creating layer relu6
I0403 14:20:33.936064  1161 net.cpp:91] Creating Layer relu6
I0403 14:20:33.936080  1161 net.cpp:425] relu6 <- fc6
I0403 14:20:33.936102  1161 net.cpp:386] relu6 -> fc6 (in-place)
I0403 14:20:33.936324  1161 net.cpp:141] Setting up relu6
I0403 14:20:33.936349  1161 net.cpp:148] Top shape: 100 4096 (409600)
I0403 14:20:33.936365  1161 net.cpp:156] Memory required for data: 824972400
I0403 14:20:33.936380  1161 layer_factory.hpp:77] Creating layer drop6
I0403 14:20:33.936401  1161 net.cpp:91] Creating Layer drop6
I0403 14:20:33.936417  1161 net.cpp:425] drop6 <- fc6
I0403 14:20:33.936434  1161 net.cpp:386] drop6 -> fc6 (in-place)
I0403 14:20:33.936488  1161 net.cpp:141] Setting up drop6
I0403 14:20:33.936512  1161 net.cpp:148] Top shape: 100 4096 (409600)
I0403 14:20:33.936527  1161 net.cpp:156] Memory required for data: 826610800
I0403 14:20:33.936542  1161 layer_factory.hpp:77] Creating layer fc7
I0403 14:20:33.936563  1161 net.cpp:91] Creating Layer fc7
I0403 14:20:33.936579  1161 net.cpp:425] fc7 <- fc6
I0403 14:20:33.936597  1161 net.cpp:399] fc7 -> fc7
I0403 14:20:34.613674  1161 net.cpp:141] Setting up fc7
I0403 14:20:34.613716  1161 net.cpp:148] Top shape: 100 4096 (409600)
I0403 14:20:34.613734  1161 net.cpp:156] Memory required for data: 828249200
I0403 14:20:34.613754  1161 layer_factory.hpp:77] Creating layer relu7
I0403 14:20:34.613778  1161 net.cpp:91] Creating Layer relu7
I0403 14:20:34.613795  1161 net.cpp:425] relu7 <- fc7
I0403 14:20:34.613814  1161 net.cpp:386] relu7 -> fc7 (in-place)
I0403 14:20:34.614228  1161 net.cpp:141] Setting up relu7
I0403 14:20:34.614259  1161 net.cpp:148] Top shape: 100 4096 (409600)
I0403 14:20:34.614306  1161 net.cpp:156] Memory required for data: 829887600
I0403 14:20:34.614322  1161 layer_factory.hpp:77] Creating layer drop7
I0403 14:20:34.614343  1161 net.cpp:91] Creating Layer drop7
I0403 14:20:34.614359  1161 net.cpp:425] drop7 <- fc7
I0403 14:20:34.614377  1161 net.cpp:386] drop7 -> fc7 (in-place)
I0403 14:20:34.614423  1161 net.cpp:141] Setting up drop7
I0403 14:20:34.614445  1161 net.cpp:148] Top shape: 100 4096 (409600)
I0403 14:20:34.614459  1161 net.cpp:156] Memory required for data: 831526000
I0403 14:20:34.614475  1161 layer_factory.hpp:77] Creating layer fc8_plantvillage
I0403 14:20:34.614493  1161 net.cpp:91] Creating Layer fc8_plantvillage
I0403 14:20:34.614509  1161 net.cpp:425] fc8_plantvillage <- fc7
I0403 14:20:34.614529  1161 net.cpp:399] fc8_plantvillage -> fc8_plantvillage
I0403 14:20:34.621253  1161 net.cpp:141] Setting up fc8_plantvillage
I0403 14:20:34.621284  1161 net.cpp:148] Top shape: 100 38 (3800)
I0403 14:20:34.621299  1161 net.cpp:156] Memory required for data: 831541200
I0403 14:20:34.621318  1161 layer_factory.hpp:77] Creating layer fc8_plantvillage_fc8_plantvillage_0_split
I0403 14:20:34.621336  1161 net.cpp:91] Creating Layer fc8_plantvillage_fc8_plantvillage_0_split
I0403 14:20:34.621352  1161 net.cpp:425] fc8_plantvillage_fc8_plantvillage_0_split <- fc8_plantvillage
I0403 14:20:34.621371  1161 net.cpp:399] fc8_plantvillage_fc8_plantvillage_0_split -> fc8_plantvillage_fc8_plantvillage_0_split_0
I0403 14:20:34.621390  1161 net.cpp:399] fc8_plantvillage_fc8_plantvillage_0_split -> fc8_plantvillage_fc8_plantvillage_0_split_1
I0403 14:20:34.621413  1161 net.cpp:399] fc8_plantvillage_fc8_plantvillage_0_split -> fc8_plantvillage_fc8_plantvillage_0_split_2
I0403 14:20:34.621490  1161 net.cpp:141] Setting up fc8_plantvillage_fc8_plantvillage_0_split
I0403 14:20:34.621512  1161 net.cpp:148] Top shape: 100 38 (3800)
I0403 14:20:34.621528  1161 net.cpp:148] Top shape: 100 38 (3800)
I0403 14:20:34.621544  1161 net.cpp:148] Top shape: 100 38 (3800)
I0403 14:20:34.621559  1161 net.cpp:156] Memory required for data: 831586800
I0403 14:20:34.621573  1161 layer_factory.hpp:77] Creating layer prob
I0403 14:20:34.621592  1161 net.cpp:91] Creating Layer prob
I0403 14:20:34.621608  1161 net.cpp:425] prob <- fc8_plantvillage_fc8_plantvillage_0_split_0
I0403 14:20:34.621625  1161 net.cpp:399] prob -> prob
I0403 14:20:34.621851  1161 net.cpp:141] Setting up prob
I0403 14:20:34.621877  1161 net.cpp:148] Top shape: 100 38 (3800)
I0403 14:20:34.621891  1161 net.cpp:156] Memory required for data: 831602000
I0403 14:20:34.621906  1161 layer_factory.hpp:77] Creating layer hdf5out
I0403 14:20:34.621928  1161 net.cpp:91] Creating Layer hdf5out
I0403 14:20:34.621945  1161 net.cpp:425] hdf5out <- prob
I0403 14:20:34.621963  1161 net.cpp:425] hdf5out <- label_data_1_split_0
I0403 14:20:34.624147  1161 net.cpp:141] Setting up hdf5out
…
