…
I0403 14:25:34.104231  1274 net.cpp:313] The NetState phase (1) differed from the phase (0) specified by a rule in layer data
I0403 14:25:34.104568  1274 net.cpp:49] Initializing net from parameters: 
state {
  phase: TEST
}
layer {
  name: "data"
  type: "Data"
  top: "data"
  top: "label"
  include {
    phase: TEST
  }
  transform_param {
    crop_size: 227
    mean_file: "/home/mohanty/data/final_dataset/lmdb/segmented-50-50/mean.binaryproto"
  }
  data_param {
    source: "/home/mohanty/data/final_dataset/lmdb/segmented-50-50/test_db"
    batch_size: 100
    backend: LMDB
  }
}
layer {
  name: "conv1"
  type: "Convolution"
  bottom: "data"
  top: "conv1"
  param {
    lr_mult: 1
    decay_mult: 1
  }
  param {
    lr_mult: 2
    decay_mult: 0
  }
  convolution_param {
    num_output: 96
    kernel_size: 11
    stride: 4
    weight_filler {
      type: "gaussian"
      std: 0.01
    }
    bias_filler {
      type: "constant"
      value: 0
    }
  }
}
layer {
  name: "relu1"
  type: "ReLU"
  bottom: "conv1"
  top: "conv1"
}
layer {
  name: "norm1"
  type: "LRN"
  bottom: "conv1"
  top: "norm1"
  lrn_param {
    local_size: 5
    alpha: 0.0001
    beta: 0.75
  }
}
layer {
  name: "pool1"
  type: "Pooling"
  bottom: "norm1"
  top: "pool1"
  pooling_param {
    pool: MAX
    kernel_size: 3
    stride: 2
  }
}
layer {
  name: "conv2"
  type: "Convolution"
  bottom: "pool1"
  top: "conv2"
  param {
    lr_mult: 1
    decay_mult: 1
  }
  param {
    lr_mult: 2
    decay_mult: 0
  }
  convolution_param {
    num_output: 256
    pad: 2
    kernel_size: 5
    group: 2
    weight_filler {
      type: "gaussian"
      std: 0.01
    }
    bias_filler {
      type: "constant"
      value: 0.1
    }
  }
}
layer {
  name: "relu2"
  type: "ReLU"
  bottom: "conv2"
  top: "conv2"
}
layer {
  name: "norm2"
  type: "LRN"
  bottom: "conv2"
  top: "norm2"
  lrn_param {
    local_size: 5
    alpha: 0.0001
    beta: 0.75
  }
}
layer {
  name: "pool2"
  type: "Pooling"
  bottom: "norm2"
  top: "pool2"
  pooling_param {
    pool: MAX
    kernel_size: 3
    stride: 2
  }
}
layer {
  name: "conv3"
  type: "Convolution"
  bottom: "pool2"
  top: "conv3"
  param {
    lr_mult: 1
    decay_mult: 1
  }
  param {
    lr_mult: 2
    decay_mult: 0
  }
  convolution_param {
    num_output: 384
    pad: 1
    kernel_size: 3
    weight_filler {
      type: "gaussian"
      std: 0.01
    }
    bias_filler {
      type: "constant"
      value: 0
    }
  }
}
layer {
  name: "relu3"
  type: "ReLU"
  bottom: "conv3"
  top: "conv3"
}
layer {
  name: "conv4"
  type: "Convolution"
  bottom: "conv3"
  top: "conv4"
  param {
    lr_mult: 1
    decay_mult: 1
  }
  param {
    lr_mult: 2
    decay_mult: 0
  }
  convolution_param {
    num_output: 384
    pad: 1
    kernel_size: 3
    group: 2
    weight_filler {
      type: "gaussian"
      std: 0.01
    }
    bias_filler {
      type: "constant"
      value: 0.1
    }
  }
}
layer {
  name: "relu4"
  type: "ReLU"
  bottom: "conv4"
  top: "conv4"
}
layer {
  name: "conv5"
  type: "Convolution"
  bottom: "conv4"
  top: "conv5"
  param {
    lr_mult: 1
    decay_mult: 1
  }
  param {
    lr_mult: 2
    decay_mult: 0
  }
  convolution_param {
    num_output: 256
    pad: 1
    kernel_size: 3
    group: 2
    weight_filler {
      type: "gaussian"
      std: 0.01
    }
    bias_filler {
      type: "constant"
      value: 0.1
    }
  }
}
layer {
  name: "relu5"
  type: "ReLU"
  bottom: "conv5"
  top: "conv5"
}
layer {
  name: "pool5"
  type: "Pooling"
  bottom: "conv5"
  top: "pool5"
  pooling_param {
    pool: MAX
    kernel_size: 3
    stride: 2
  }
}
layer {
  name: "fc6"
  type: "InnerProduct"
  bottom: "pool5"
  top: "fc6"
  param {
    lr_mult: 1
    decay_mult: 1
  }
  param {
    lr_mult: 2
    decay_mult: 0
  }
  inner_product_param {
    num_output: 4096
    weight_filler {
      type: "gaussian"
      std: 0.005
    }
    bias_filler {
      type: "constant"
      value: 0.1
    }
  }
}
layer {
  name: "relu6"
  type: "ReLU"
  bottom: "fc6"
  top: "fc6"
}
layer {
  name: "drop6"
  type: "Dropout"
  bottom: "fc6"
  top: "fc6"
  dropout_param {
    dropout_ratio: 0.5
  }
}
layer {
  name: "fc7"
  type: "InnerProduct"
  bottom: "fc6"
  top: "fc7"
  param {
    lr_mult: 1
    decay_mult: 1
  }
  param {
    lr_mult: 2
    decay_mult: 0
  }
  inner_product_param {
    num_output: 4096
    weight_filler {
      type: "gaussian"
      std: 0.005
    }
    bias_filler {
      type: "constant"
      value: 0.1
    }
  }
}
layer {
  name: "relu7"
  type: "ReLU"
  bottom: "fc7"
  top: "fc7"
}
layer {
  name: "drop7"
  type: "Dropout"
  bottom: "fc7"
  top: "fc7"
  dropout_param {
    dropout_ratio: 0.5
  }
}
layer {
  name: "fc8_plantvillage"
  type: "InnerProduct"
  bottom: "fc7"
  top: "fc8_plantvillage"
  param {
    lr_mult: 1
    decay_mult: 1
  }
  param {
    lr_mult: 2
    decay_mult: 0
  }
  inner_product_param {
    num_output: 38
    weight_filler {
      type: "gaussian"
      std: 0.01
    }
    bias_filler {
      type: "constant"
      value: 0
    }
  }
}
layer {
  name: "prob"
  type: "Softmax"
  bottom: "fc8_plantvillage"
  top: "prob"
  include {
    phase: TEST
  }
}
layer {
  name: "hdf5out"
  type: "HDF5Output"
  bottom: "prob"
  bottom: "label"
  include {
    phase: TEST
  }
  hdf5_output_param {
    file_name: "hdf5_dumps/iter_5896.h5"
  }
}
layer {
  name: "loss"
  type: "SoftmaxWithLoss"
  bottom: "fc8_plantvillage"
  bottom: "label"
  top: "loss"
}
layer {
  name: "accuracy"
  type: "Accuracy"
  bottom: "fc8_plantvillage"
  bottom: "label"
  top: "accuracy"
  include {
    phase: TEST
  }
}
I0403 14:25:34.105130  1274 layer_factory.hpp:77] Creating layer data
I0403 14:25:34.105795  1274 net.cpp:91] Creating Layer data
I0403 14:25:34.105829  1274 net.cpp:399] data -> data
I0403 14:25:34.105880  1274 net.cpp:399] data -> label
I0403 14:25:34.105916  1274 data_transformer.cpp:25] Loading mean file from: /home/mohanty/data/final_dataset/lmdb/segmented-50-50/mean.binaryproto
I0403 14:25:34.108799  1282 db_lmdb.cpp:38] Opened lmdb /home/mohanty/data/final_dataset/lmdb/segmented-50-50/test_db
I0403 14:25:34.120347  1274 data_layer.cpp:41] output data size: 100,3,227,227
I0403 14:25:34.241060  1274 net.cpp:141] Setting up data
I0403 14:25:34.241147  1274 net.cpp:148] Top shape: 100 3 227 227 (15458700)
I0403 14:25:34.241168  1274 net.cpp:148] Top shape: 100 (100)
I0403 14:25:34.241184  1274 net.cpp:156] Memory required for data: 61835200
I0403 14:25:34.241211  1274 layer_factory.hpp:77] Creating layer label_data_1_split
I0403 14:25:34.241236  1274 net.cpp:91] Creating Layer label_data_1_split
I0403 14:25:34.241255  1274 net.cpp:425] label_data_1_split <- label
I0403 14:25:34.241287  1274 net.cpp:399] label_data_1_split -> label_data_1_split_0
I0403 14:25:34.241314  1274 net.cpp:399] label_data_1_split -> label_data_1_split_1
I0403 14:25:34.241334  1274 net.cpp:399] label_data_1_split -> label_data_1_split_2
I0403 14:25:34.241394  1274 net.cpp:141] Setting up label_data_1_split
I0403 14:25:34.241416  1274 net.cpp:148] Top shape: 100 (100)
I0403 14:25:34.241433  1274 net.cpp:148] Top shape: 100 (100)
I0403 14:25:34.241448  1274 net.cpp:148] Top shape: 100 (100)
I0403 14:25:34.241462  1274 net.cpp:156] Memory required for data: 61836400
I0403 14:25:34.241477  1274 layer_factory.hpp:77] Creating layer conv1
I0403 14:25:34.241508  1274 net.cpp:91] Creating Layer conv1
I0403 14:25:34.241524  1274 net.cpp:425] conv1 <- data
I0403 14:25:34.241544  1274 net.cpp:399] conv1 -> conv1
I0403 14:25:34.381469  1274 net.cpp:141] Setting up conv1
I0403 14:25:34.381567  1274 net.cpp:148] Top shape: 100 96 55 55 (29040000)
I0403 14:25:34.381584  1274 net.cpp:156] Memory required for data: 177996400
I0403 14:25:34.381618  1274 layer_factory.hpp:77] Creating layer relu1
I0403 14:25:34.381644  1274 net.cpp:91] Creating Layer relu1
I0403 14:25:34.381664  1274 net.cpp:425] relu1 <- conv1
I0403 14:25:34.381685  1274 net.cpp:386] relu1 -> conv1 (in-place)
I0403 14:25:34.381948  1274 net.cpp:141] Setting up relu1
I0403 14:25:34.381975  1274 net.cpp:148] Top shape: 100 96 55 55 (29040000)
I0403 14:25:34.382022  1274 net.cpp:156] Memory required for data: 294156400
I0403 14:25:34.382040  1274 layer_factory.hpp:77] Creating layer norm1
I0403 14:25:34.382069  1274 net.cpp:91] Creating Layer norm1
I0403 14:25:34.382088  1274 net.cpp:425] norm1 <- conv1
I0403 14:25:34.382109  1274 net.cpp:399] norm1 -> norm1
I0403 14:25:34.382455  1274 net.cpp:141] Setting up norm1
I0403 14:25:34.382483  1274 net.cpp:148] Top shape: 100 96 55 55 (29040000)
I0403 14:25:34.382500  1274 net.cpp:156] Memory required for data: 410316400
I0403 14:25:34.382516  1274 layer_factory.hpp:77] Creating layer pool1
I0403 14:25:34.382539  1274 net.cpp:91] Creating Layer pool1
I0403 14:25:34.382557  1274 net.cpp:425] pool1 <- norm1
I0403 14:25:34.382580  1274 net.cpp:399] pool1 -> pool1
I0403 14:25:34.382652  1274 net.cpp:141] Setting up pool1
I0403 14:25:34.382678  1274 net.cpp:148] Top shape: 100 96 27 27 (6998400)
I0403 14:25:34.382694  1274 net.cpp:156] Memory required for data: 438310000
I0403 14:25:34.382709  1274 layer_factory.hpp:77] Creating layer conv2
I0403 14:25:34.382736  1274 net.cpp:91] Creating Layer conv2
I0403 14:25:34.382752  1274 net.cpp:425] conv2 <- pool1
I0403 14:25:34.382772  1274 net.cpp:399] conv2 -> conv2
I0403 14:25:34.397938  1274 net.cpp:141] Setting up conv2
I0403 14:25:34.397989  1274 net.cpp:148] Top shape: 100 256 27 27 (18662400)
I0403 14:25:34.398005  1274 net.cpp:156] Memory required for data: 512959600
I0403 14:25:34.398028  1274 layer_factory.hpp:77] Creating layer relu2
I0403 14:25:34.398048  1274 net.cpp:91] Creating Layer relu2
I0403 14:25:34.398064  1274 net.cpp:425] relu2 <- conv2
I0403 14:25:34.398085  1274 net.cpp:386] relu2 -> conv2 (in-place)
I0403 14:25:34.398367  1274 net.cpp:141] Setting up relu2
I0403 14:25:34.398393  1274 net.cpp:148] Top shape: 100 256 27 27 (18662400)
I0403 14:25:34.398408  1274 net.cpp:156] Memory required for data: 587609200
I0403 14:25:34.398423  1274 layer_factory.hpp:77] Creating layer norm2
I0403 14:25:34.398449  1274 net.cpp:91] Creating Layer norm2
I0403 14:25:34.398466  1274 net.cpp:425] norm2 <- conv2
I0403 14:25:34.398484  1274 net.cpp:399] norm2 -> norm2
I0403 14:25:34.398679  1274 net.cpp:141] Setting up norm2
I0403 14:25:34.398704  1274 net.cpp:148] Top shape: 100 256 27 27 (18662400)
I0403 14:25:34.398718  1274 net.cpp:156] Memory required for data: 662258800
I0403 14:25:34.398733  1274 layer_factory.hpp:77] Creating layer pool2
I0403 14:25:34.398751  1274 net.cpp:91] Creating Layer pool2
I0403 14:25:34.398767  1274 net.cpp:425] pool2 <- norm2
I0403 14:25:34.398787  1274 net.cpp:399] pool2 -> pool2
I0403 14:25:34.398841  1274 net.cpp:141] Setting up pool2
I0403 14:25:34.398864  1274 net.cpp:148] Top shape: 100 256 13 13 (4326400)
I0403 14:25:34.398879  1274 net.cpp:156] Memory required for data: 679564400
I0403 14:25:34.398893  1274 layer_factory.hpp:77] Creating layer conv3
I0403 14:25:34.398918  1274 net.cpp:91] Creating Layer conv3
I0403 14:25:34.398934  1274 net.cpp:425] conv3 <- pool2
I0403 14:25:34.398952  1274 net.cpp:399] conv3 -> conv3
I0403 14:25:34.436807  1274 net.cpp:141] Setting up conv3
I0403 14:25:34.436867  1274 net.cpp:148] Top shape: 100 384 13 13 (6489600)
I0403 14:25:34.436884  1274 net.cpp:156] Memory required for data: 705522800
I0403 14:25:34.436909  1274 layer_factory.hpp:77] Creating layer relu3
I0403 14:25:34.436930  1274 net.cpp:91] Creating Layer relu3
I0403 14:25:34.436947  1274 net.cpp:425] relu3 <- conv3
I0403 14:25:34.436969  1274 net.cpp:386] relu3 -> conv3 (in-place)
I0403 14:25:34.437332  1274 net.cpp:141] Setting up relu3
I0403 14:25:34.437361  1274 net.cpp:148] Top shape: 100 384 13 13 (6489600)
I0403 14:25:34.437376  1274 net.cpp:156] Memory required for data: 731481200
I0403 14:25:34.437392  1274 layer_factory.hpp:77] Creating layer conv4
I0403 14:25:34.437417  1274 net.cpp:91] Creating Layer conv4
I0403 14:25:34.437434  1274 net.cpp:425] conv4 <- conv3
I0403 14:25:34.437455  1274 net.cpp:399] conv4 -> conv4
I0403 14:25:34.468016  1274 net.cpp:141] Setting up conv4
I0403 14:25:34.468097  1274 net.cpp:148] Top shape: 100 384 13 13 (6489600)
I0403 14:25:34.468145  1274 net.cpp:156] Memory required for data: 757439600
I0403 14:25:34.468168  1274 layer_factory.hpp:77] Creating layer relu4
I0403 14:25:34.468194  1274 net.cpp:91] Creating Layer relu4
I0403 14:25:34.468211  1274 net.cpp:425] relu4 <- conv4
I0403 14:25:34.468233  1274 net.cpp:386] relu4 -> conv4 (in-place)
I0403 14:25:34.468516  1274 net.cpp:141] Setting up relu4
I0403 14:25:34.468547  1274 net.cpp:148] Top shape: 100 384 13 13 (6489600)
I0403 14:25:34.468595  1274 net.cpp:156] Memory required for data: 783398000
I0403 14:25:34.468612  1274 layer_factory.hpp:77] Creating layer conv5
I0403 14:25:34.468641  1274 net.cpp:91] Creating Layer conv5
I0403 14:25:34.468658  1274 net.cpp:425] conv5 <- conv4
I0403 14:25:34.468677  1274 net.cpp:399] conv5 -> conv5
I0403 14:25:34.489590  1274 net.cpp:141] Setting up conv5
I0403 14:25:34.489644  1274 net.cpp:148] Top shape: 100 256 13 13 (4326400)
I0403 14:25:34.489661  1274 net.cpp:156] Memory required for data: 800703600
I0403 14:25:34.489686  1274 layer_factory.hpp:77] Creating layer relu5
I0403 14:25:34.489707  1274 net.cpp:91] Creating Layer relu5
I0403 14:25:34.489723  1274 net.cpp:425] relu5 <- conv5
I0403 14:25:34.489744  1274 net.cpp:386] relu5 -> conv5 (in-place)
I0403 14:25:34.490080  1274 net.cpp:141] Setting up relu5
I0403 14:25:34.490106  1274 net.cpp:148] Top shape: 100 256 13 13 (4326400)
I0403 14:25:34.490121  1274 net.cpp:156] Memory required for data: 818009200
I0403 14:25:34.490137  1274 layer_factory.hpp:77] Creating layer pool5
I0403 14:25:34.490161  1274 net.cpp:91] Creating Layer pool5
I0403 14:25:34.490178  1274 net.cpp:425] pool5 <- conv5
I0403 14:25:34.490196  1274 net.cpp:399] pool5 -> pool5
I0403 14:25:34.490260  1274 net.cpp:141] Setting up pool5
I0403 14:25:34.490288  1274 net.cpp:148] Top shape: 100 256 6 6 (921600)
I0403 14:25:34.490303  1274 net.cpp:156] Memory required for data: 821695600
I0403 14:25:34.490319  1274 layer_factory.hpp:77] Creating layer fc6
I0403 14:25:34.490346  1274 net.cpp:91] Creating Layer fc6
I0403 14:25:34.490363  1274 net.cpp:425] fc6 <- pool5
I0403 14:25:34.490383  1274 net.cpp:399] fc6 -> fc6
I0403 14:25:36.238243  1274 net.cpp:141] Setting up fc6
I0403 14:25:36.238337  1274 net.cpp:148] Top shape: 100 4096 (409600)
I0403 14:25:36.238353  1274 net.cpp:156] Memory required for data: 823334000
I0403 14:25:36.238376  1274 layer_factory.hpp:77] Creating layer relu6
I0403 14:25:36.238401  1274 net.cpp:91] Creating Layer relu6
I0403 14:25:36.238420  1274 net.cpp:425] relu6 <- fc6
I0403 14:25:36.238440  1274 net.cpp:386] relu6 -> fc6 (in-place)
I0403 14:25:36.238672  1274 net.cpp:141] Setting up relu6
I0403 14:25:36.238698  1274 net.cpp:148] Top shape: 100 4096 (409600)
I0403 14:25:36.238713  1274 net.cpp:156] Memory required for data: 824972400
I0403 14:25:36.238729  1274 layer_factory.hpp:77] Creating layer drop6
I0403 14:25:36.238749  1274 net.cpp:91] Creating Layer drop6
I0403 14:25:36.238765  1274 net.cpp:425] drop6 <- fc6
I0403 14:25:36.238786  1274 net.cpp:386] drop6 -> fc6 (in-place)
I0403 14:25:36.238842  1274 net.cpp:141] Setting up drop6
I0403 14:25:36.238868  1274 net.cpp:148] Top shape: 100 4096 (409600)
I0403 14:25:36.238885  1274 net.cpp:156] Memory required for data: 826610800
I0403 14:25:36.238905  1274 layer_factory.hpp:77] Creating layer fc7
I0403 14:25:36.238927  1274 net.cpp:91] Creating Layer fc7
I0403 14:25:36.238943  1274 net.cpp:425] fc7 <- fc6
I0403 14:25:36.238965  1274 net.cpp:399] fc7 -> fc7
I0403 14:25:36.991988  1274 net.cpp:141] Setting up fc7
I0403 14:25:36.992043  1274 net.cpp:148] Top shape: 100 4096 (409600)
I0403 14:25:36.992058  1274 net.cpp:156] Memory required for data: 828249200
I0403 14:25:36.992079  1274 layer_factory.hpp:77] Creating layer relu7
I0403 14:25:36.992100  1274 net.cpp:91] Creating Layer relu7
I0403 14:25:36.992117  1274 net.cpp:425] relu7 <- fc7
I0403 14:25:36.992138  1274 net.cpp:386] relu7 -> fc7 (in-place)
I0403 14:25:36.992554  1274 net.cpp:141] Setting up relu7
I0403 14:25:36.992581  1274 net.cpp:148] Top shape: 100 4096 (409600)
I0403 14:25:36.992627  1274 net.cpp:156] Memory required for data: 829887600
I0403 14:25:36.992642  1274 layer_factory.hpp:77] Creating layer drop7
I0403 14:25:36.992661  1274 net.cpp:91] Creating Layer drop7
I0403 14:25:36.992676  1274 net.cpp:425] drop7 <- fc7
I0403 14:25:36.992696  1274 net.cpp:386] drop7 -> fc7 (in-place)
I0403 14:25:36.992739  1274 net.cpp:141] Setting up drop7
I0403 14:25:36.992768  1274 net.cpp:148] Top shape: 100 4096 (409600)
I0403 14:25:36.992781  1274 net.cpp:156] Memory required for data: 831526000
I0403 14:25:36.992795  1274 layer_factory.hpp:77] Creating layer fc8_plantvillage
I0403 14:25:36.992817  1274 net.cpp:91] Creating Layer fc8_plantvillage
I0403 14:25:36.992833  1274 net.cpp:425] fc8_plantvillage <- fc7
I0403 14:25:36.992866  1274 net.cpp:399] fc8_plantvillage -> fc8_plantvillage
I0403 14:25:37.000277  1274 net.cpp:141] Setting up fc8_plantvillage
I0403 14:25:37.000319  1274 net.cpp:148] Top shape: 100 38 (3800)
I0403 14:25:37.000334  1274 net.cpp:156] Memory required for data: 831541200
I0403 14:25:37.000352  1274 layer_factory.hpp:77] Creating layer fc8_plantvillage_fc8_plantvillage_0_split
I0403 14:25:37.000372  1274 net.cpp:91] Creating Layer fc8_plantvillage_fc8_plantvillage_0_split
I0403 14:25:37.000388  1274 net.cpp:425] fc8_plantvillage_fc8_plantvillage_0_split <- fc8_plantvillage
I0403 14:25:37.000408  1274 net.cpp:399] fc8_plantvillage_fc8_plantvillage_0_split -> fc8_plantvillage_fc8_plantvillage_0_split_0
I0403 14:25:37.000428  1274 net.cpp:399] fc8_plantvillage_fc8_plantvillage_0_split -> fc8_plantvillage_fc8_plantvillage_0_split_1
I0403 14:25:37.000448  1274 net.cpp:399] fc8_plantvillage_fc8_plantvillage_0_split -> fc8_plantvillage_fc8_plantvillage_0_split_2
I0403 14:25:37.000541  1274 net.cpp:141] Setting up fc8_plantvillage_fc8_plantvillage_0_split
I0403 14:25:37.000566  1274 net.cpp:148] Top shape: 100 38 (3800)
I0403 14:25:37.000582  1274 net.cpp:148] Top shape: 100 38 (3800)
I0403 14:25:37.000598  1274 net.cpp:148] Top shape: 100 38 (3800)
I0403 14:25:37.000612  1274 net.cpp:156] Memory required for data: 831586800
I0403 14:25:37.000627  1274 layer_factory.hpp:77] Creating layer prob
I0403 14:25:37.000646  1274 net.cpp:91] Creating Layer prob
I0403 14:25:37.000663  1274 net.cpp:425] prob <- fc8_plantvillage_fc8_plantvillage_0_split_0
I0403 14:25:37.000682  1274 net.cpp:399] prob -> prob
I0403 14:25:37.000944  1274 net.cpp:141] Setting up prob
I0403 14:25:37.000974  1274 net.cpp:148] Top shape: 100 38 (3800)
I0403 14:25:37.000990  1274 net.cpp:156] Memory required for data: 831602000
I0403 14:25:37.001006  1274 layer_factory.hpp:77] Creating layer hdf5out
I0403 14:25:37.001026  1274 net.cpp:91] Creating Layer hdf5out
I0403 14:25:37.001044  1274 net.cpp:425] hdf5out <- prob
I0403 14:25:37.001072  1274 net.cpp:425] hdf5out <- label_data_1_split_0
I0403 14:25:37.003242  1274 net.cpp:141] Setting up hdf5out
…
