…
I0403 14:22:13.101496  1197 net.cpp:313] The NetState phase (1) differed from the phase (0) specified by a rule in layer data
I0403 14:22:13.101806  1197 net.cpp:49] Initializing net from parameters: 
state {
  phase: TEST
}
layer {
  name: "data"
  type: "Data"
  top: "data"
  top: "label"
  include {
    phase: TEST
  }
  transform_param {
    crop_size: 227
    mean_file: "/home/mohanty/data/final_dataset/lmdb/segmented-50-50/mean.binaryproto"
  }
  data_param {
    source: "/home/mohanty/data/final_dataset/lmdb/segmented-50-50/test_db"
    batch_size: 100
    backend: LMDB
  }
}
layer {
  name: "conv1"
  type: "Convolution"
  bottom: "data"
  top: "conv1"
  param {
    lr_mult: 1
    decay_mult: 1
  }
  param {
    lr_mult: 2
    decay_mult: 0
  }
  convolution_param {
    num_output: 96
    kernel_size: 11
    stride: 4
    weight_filler {
      type: "gaussian"
      std: 0.01
    }
    bias_filler {
      type: "constant"
      value: 0
    }
  }
}
layer {
  name: "relu1"
  type: "ReLU"
  bottom: "conv1"
  top: "conv1"
}
layer {
  name: "norm1"
  type: "LRN"
  bottom: "conv1"
  top: "norm1"
  lrn_param {
    local_size: 5
    alpha: 0.0001
    beta: 0.75
  }
}
layer {
  name: "pool1"
  type: "Pooling"
  bottom: "norm1"
  top: "pool1"
  pooling_param {
    pool: MAX
    kernel_size: 3
    stride: 2
  }
}
layer {
  name: "conv2"
  type: "Convolution"
  bottom: "pool1"
  top: "conv2"
  param {
    lr_mult: 1
    decay_mult: 1
  }
  param {
    lr_mult: 2
    decay_mult: 0
  }
  convolution_param {
    num_output: 256
    pad: 2
    kernel_size: 5
    group: 2
    weight_filler {
      type: "gaussian"
      std: 0.01
    }
    bias_filler {
      type: "constant"
      value: 0.1
    }
  }
}
layer {
  name: "relu2"
  type: "ReLU"
  bottom: "conv2"
  top: "conv2"
}
layer {
  name: "norm2"
  type: "LRN"
  bottom: "conv2"
  top: "norm2"
  lrn_param {
    local_size: 5
    alpha: 0.0001
    beta: 0.75
  }
}
layer {
  name: "pool2"
  type: "Pooling"
  bottom: "norm2"
  top: "pool2"
  pooling_param {
    pool: MAX
    kernel_size: 3
    stride: 2
  }
}
layer {
  name: "conv3"
  type: "Convolution"
  bottom: "pool2"
  top: "conv3"
  param {
    lr_mult: 1
    decay_mult: 1
  }
  param {
    lr_mult: 2
    decay_mult: 0
  }
  convolution_param {
    num_output: 384
    pad: 1
    kernel_size: 3
    weight_filler {
      type: "gaussian"
      std: 0.01
    }
    bias_filler {
      type: "constant"
      value: 0
    }
  }
}
layer {
  name: "relu3"
  type: "ReLU"
  bottom: "conv3"
  top: "conv3"
}
layer {
  name: "conv4"
  type: "Convolution"
  bottom: "conv3"
  top: "conv4"
  param {
    lr_mult: 1
    decay_mult: 1
  }
  param {
    lr_mult: 2
    decay_mult: 0
  }
  convolution_param {
    num_output: 384
    pad: 1
    kernel_size: 3
    group: 2
    weight_filler {
      type: "gaussian"
      std: 0.01
    }
    bias_filler {
      type: "constant"
      value: 0.1
    }
  }
}
layer {
  name: "relu4"
  type: "ReLU"
  bottom: "conv4"
  top: "conv4"
}
layer {
  name: "conv5"
  type: "Convolution"
  bottom: "conv4"
  top: "conv5"
  param {
    lr_mult: 1
    decay_mult: 1
  }
  param {
    lr_mult: 2
    decay_mult: 0
  }
  convolution_param {
    num_output: 256
    pad: 1
    kernel_size: 3
    group: 2
    weight_filler {
      type: "gaussian"
      std: 0.01
    }
    bias_filler {
      type: "constant"
      value: 0.1
    }
  }
}
layer {
  name: "relu5"
  type: "ReLU"
  bottom: "conv5"
  top: "conv5"
}
layer {
  name: "pool5"
  type: "Pooling"
  bottom: "conv5"
  top: "pool5"
  pooling_param {
    pool: MAX
    kernel_size: 3
    stride: 2
  }
}
layer {
  name: "fc6"
  type: "InnerProduct"
  bottom: "pool5"
  top: "fc6"
  param {
    lr_mult: 1
    decay_mult: 1
  }
  param {
    lr_mult: 2
    decay_mult: 0
  }
  inner_product_param {
    num_output: 4096
    weight_filler {
      type: "gaussian"
      std: 0.005
    }
    bias_filler {
      type: "constant"
      value: 0.1
    }
  }
}
layer {
  name: "relu6"
  type: "ReLU"
  bottom: "fc6"
  top: "fc6"
}
layer {
  name: "drop6"
  type: "Dropout"
  bottom: "fc6"
  top: "fc6"
  dropout_param {
    dropout_ratio: 0.5
  }
}
layer {
  name: "fc7"
  type: "InnerProduct"
  bottom: "fc6"
  top: "fc7"
  param {
    lr_mult: 1
    decay_mult: 1
  }
  param {
    lr_mult: 2
    decay_mult: 0
  }
  inner_product_param {
    num_output: 4096
    weight_filler {
      type: "gaussian"
      std: 0.005
    }
    bias_filler {
      type: "constant"
      value: 0.1
    }
  }
}
layer {
  name: "relu7"
  type: "ReLU"
  bottom: "fc7"
  top: "fc7"
}
layer {
  name: "drop7"
  type: "Dropout"
  bottom: "fc7"
  top: "fc7"
  dropout_param {
    dropout_ratio: 0.5
  }
}
layer {
  name: "fc8_plantvillage"
  type: "InnerProduct"
  bottom: "fc7"
  top: "fc8_plantvillage"
  param {
    lr_mult: 1
    decay_mult: 1
  }
  param {
    lr_mult: 2
    decay_mult: 0
  }
  inner_product_param {
    num_output: 38
    weight_filler {
      type: "gaussian"
      std: 0.01
    }
    bias_filler {
      type: "constant"
      value: 0
    }
  }
}
layer {
  name: "prob"
  type: "Softmax"
  bottom: "fc8_plantvillage"
  top: "prob"
  include {
    phase: TEST
  }
}
layer {
  name: "hdf5out"
  type: "HDF5Output"
  bottom: "prob"
  bottom: "label"
  include {
    phase: TEST
  }
  hdf5_output_param {
    file_name: "hdf5_dumps/iter_4824.h5"
  }
}
layer {
  name: "loss"
  type: "SoftmaxWithLoss"
  bottom: "fc8_plantvillage"
  bottom: "label"
  top: "loss"
}
layer {
  name: "accuracy"
  type: "Accuracy"
  bottom: "fc8_plantvillage"
  bottom: "label"
  top: "accuracy"
  include {
    phase: TEST
  }
}
I0403 14:22:13.102349  1197 layer_factory.hpp:77] Creating layer data
I0403 14:22:13.102993  1197 net.cpp:91] Creating Layer data
I0403 14:22:13.103024  1197 net.cpp:399] data -> data
I0403 14:22:13.103077  1197 net.cpp:399] data -> label
I0403 14:22:13.103116  1197 data_transformer.cpp:25] Loading mean file from: /home/mohanty/data/final_dataset/lmdb/segmented-50-50/mean.binaryproto
I0403 14:22:13.106050  1201 db_lmdb.cpp:38] Opened lmdb /home/mohanty/data/final_dataset/lmdb/segmented-50-50/test_db
I0403 14:22:13.117354  1197 data_layer.cpp:41] output data size: 100,3,227,227
I0403 14:22:13.238304  1197 net.cpp:141] Setting up data
I0403 14:22:13.238363  1197 net.cpp:148] Top shape: 100 3 227 227 (15458700)
I0403 14:22:13.238385  1197 net.cpp:148] Top shape: 100 (100)
I0403 14:22:13.238401  1197 net.cpp:156] Memory required for data: 61835200
I0403 14:22:13.238428  1197 layer_factory.hpp:77] Creating layer label_data_1_split
I0403 14:22:13.238453  1197 net.cpp:91] Creating Layer label_data_1_split
I0403 14:22:13.238471  1197 net.cpp:425] label_data_1_split <- label
I0403 14:22:13.238502  1197 net.cpp:399] label_data_1_split -> label_data_1_split_0
I0403 14:22:13.238528  1197 net.cpp:399] label_data_1_split -> label_data_1_split_1
I0403 14:22:13.238548  1197 net.cpp:399] label_data_1_split -> label_data_1_split_2
I0403 14:22:13.238610  1197 net.cpp:141] Setting up label_data_1_split
I0403 14:22:13.238634  1197 net.cpp:148] Top shape: 100 (100)
I0403 14:22:13.238651  1197 net.cpp:148] Top shape: 100 (100)
I0403 14:22:13.238667  1197 net.cpp:148] Top shape: 100 (100)
I0403 14:22:13.238682  1197 net.cpp:156] Memory required for data: 61836400
I0403 14:22:13.238697  1197 layer_factory.hpp:77] Creating layer conv1
I0403 14:22:13.238729  1197 net.cpp:91] Creating Layer conv1
I0403 14:22:13.238746  1197 net.cpp:425] conv1 <- data
I0403 14:22:13.238766  1197 net.cpp:399] conv1 -> conv1
I0403 14:22:13.373664  1197 net.cpp:141] Setting up conv1
I0403 14:22:13.373754  1197 net.cpp:148] Top shape: 100 96 55 55 (29040000)
I0403 14:22:13.373772  1197 net.cpp:156] Memory required for data: 177996400
I0403 14:22:13.373806  1197 layer_factory.hpp:77] Creating layer relu1
I0403 14:22:13.373836  1197 net.cpp:91] Creating Layer relu1
I0403 14:22:13.373854  1197 net.cpp:425] relu1 <- conv1
I0403 14:22:13.373874  1197 net.cpp:386] relu1 -> conv1 (in-place)
I0403 14:22:13.374147  1197 net.cpp:141] Setting up relu1
I0403 14:22:13.374176  1197 net.cpp:148] Top shape: 100 96 55 55 (29040000)
I0403 14:22:13.374224  1197 net.cpp:156] Memory required for data: 294156400
I0403 14:22:13.374245  1197 layer_factory.hpp:77] Creating layer norm1
I0403 14:22:13.374275  1197 net.cpp:91] Creating Layer norm1
I0403 14:22:13.374294  1197 net.cpp:425] norm1 <- conv1
I0403 14:22:13.374317  1197 net.cpp:399] norm1 -> norm1
I0403 14:22:13.374645  1197 net.cpp:141] Setting up norm1
I0403 14:22:13.374675  1197 net.cpp:148] Top shape: 100 96 55 55 (29040000)
I0403 14:22:13.374691  1197 net.cpp:156] Memory required for data: 410316400
I0403 14:22:13.374706  1197 layer_factory.hpp:77] Creating layer pool1
I0403 14:22:13.374729  1197 net.cpp:91] Creating Layer pool1
I0403 14:22:13.374747  1197 net.cpp:425] pool1 <- norm1
I0403 14:22:13.374768  1197 net.cpp:399] pool1 -> pool1
I0403 14:22:13.374838  1197 net.cpp:141] Setting up pool1
I0403 14:22:13.374863  1197 net.cpp:148] Top shape: 100 96 27 27 (6998400)
I0403 14:22:13.374879  1197 net.cpp:156] Memory required for data: 438310000
I0403 14:22:13.374894  1197 layer_factory.hpp:77] Creating layer conv2
I0403 14:22:13.374922  1197 net.cpp:91] Creating Layer conv2
I0403 14:22:13.374940  1197 net.cpp:425] conv2 <- pool1
I0403 14:22:13.374959  1197 net.cpp:399] conv2 -> conv2
I0403 14:22:13.389886  1197 net.cpp:141] Setting up conv2
I0403 14:22:13.389948  1197 net.cpp:148] Top shape: 100 256 27 27 (18662400)
I0403 14:22:13.389966  1197 net.cpp:156] Memory required for data: 512959600
I0403 14:22:13.389991  1197 layer_factory.hpp:77] Creating layer relu2
I0403 14:22:13.390012  1197 net.cpp:91] Creating Layer relu2
I0403 14:22:13.390028  1197 net.cpp:425] relu2 <- conv2
I0403 14:22:13.390049  1197 net.cpp:386] relu2 -> conv2 (in-place)
I0403 14:22:13.390333  1197 net.cpp:141] Setting up relu2
I0403 14:22:13.390360  1197 net.cpp:148] Top shape: 100 256 27 27 (18662400)
I0403 14:22:13.390377  1197 net.cpp:156] Memory required for data: 587609200
I0403 14:22:13.390393  1197 layer_factory.hpp:77] Creating layer norm2
I0403 14:22:13.390416  1197 net.cpp:91] Creating Layer norm2
I0403 14:22:13.390434  1197 net.cpp:425] norm2 <- conv2
I0403 14:22:13.390453  1197 net.cpp:399] norm2 -> norm2
I0403 14:22:13.390650  1197 net.cpp:141] Setting up norm2
I0403 14:22:13.390679  1197 net.cpp:148] Top shape: 100 256 27 27 (18662400)
I0403 14:22:13.390696  1197 net.cpp:156] Memory required for data: 662258800
I0403 14:22:13.390710  1197 layer_factory.hpp:77] Creating layer pool2
I0403 14:22:13.390729  1197 net.cpp:91] Creating Layer pool2
I0403 14:22:13.390745  1197 net.cpp:425] pool2 <- norm2
I0403 14:22:13.390766  1197 net.cpp:399] pool2 -> pool2
I0403 14:22:13.390818  1197 net.cpp:141] Setting up pool2
I0403 14:22:13.390844  1197 net.cpp:148] Top shape: 100 256 13 13 (4326400)
I0403 14:22:13.390859  1197 net.cpp:156] Memory required for data: 679564400
I0403 14:22:13.390875  1197 layer_factory.hpp:77] Creating layer conv3
I0403 14:22:13.390899  1197 net.cpp:91] Creating Layer conv3
I0403 14:22:13.390918  1197 net.cpp:425] conv3 <- pool2
I0403 14:22:13.390936  1197 net.cpp:399] conv3 -> conv3
I0403 14:22:13.428926  1197 net.cpp:141] Setting up conv3
I0403 14:22:13.428978  1197 net.cpp:148] Top shape: 100 384 13 13 (6489600)
I0403 14:22:13.428995  1197 net.cpp:156] Memory required for data: 705522800
I0403 14:22:13.429020  1197 layer_factory.hpp:77] Creating layer relu3
I0403 14:22:13.429041  1197 net.cpp:91] Creating Layer relu3
I0403 14:22:13.429059  1197 net.cpp:425] relu3 <- conv3
I0403 14:22:13.429080  1197 net.cpp:386] relu3 -> conv3 (in-place)
I0403 14:22:13.429353  1197 net.cpp:141] Setting up relu3
I0403 14:22:13.429380  1197 net.cpp:148] Top shape: 100 384 13 13 (6489600)
I0403 14:22:13.429395  1197 net.cpp:156] Memory required for data: 731481200
I0403 14:22:13.429410  1197 layer_factory.hpp:77] Creating layer conv4
I0403 14:22:13.429436  1197 net.cpp:91] Creating Layer conv4
I0403 14:22:13.429455  1197 net.cpp:425] conv4 <- conv3
I0403 14:22:13.429476  1197 net.cpp:399] conv4 -> conv4
I0403 14:22:13.458890  1197 net.cpp:141] Setting up conv4
I0403 14:22:13.458942  1197 net.cpp:148] Top shape: 100 384 13 13 (6489600)
I0403 14:22:13.458989  1197 net.cpp:156] Memory required for data: 757439600
I0403 14:22:13.459012  1197 layer_factory.hpp:77] Creating layer relu4
I0403 14:22:13.459030  1197 net.cpp:91] Creating Layer relu4
I0403 14:22:13.459046  1197 net.cpp:425] relu4 <- conv4
I0403 14:22:13.459065  1197 net.cpp:386] relu4 -> conv4 (in-place)
I0403 14:22:13.459342  1197 net.cpp:141] Setting up relu4
I0403 14:22:13.459370  1197 net.cpp:148] Top shape: 100 384 13 13 (6489600)
I0403 14:22:13.459386  1197 net.cpp:156] Memory required for data: 783398000
I0403 14:22:13.459403  1197 layer_factory.hpp:77] Creating layer conv5
I0403 14:22:13.459455  1197 net.cpp:91] Creating Layer conv5
I0403 14:22:13.459493  1197 net.cpp:425] conv5 <- conv4
I0403 14:22:13.459513  1197 net.cpp:399] conv5 -> conv5
I0403 14:22:13.480392  1197 net.cpp:141] Setting up conv5
I0403 14:22:13.480455  1197 net.cpp:148] Top shape: 100 256 13 13 (4326400)
I0403 14:22:13.480474  1197 net.cpp:156] Memory required for data: 800703600
I0403 14:22:13.480499  1197 layer_factory.hpp:77] Creating layer relu5
I0403 14:22:13.480521  1197 net.cpp:91] Creating Layer relu5
I0403 14:22:13.480540  1197 net.cpp:425] relu5 <- conv5
I0403 14:22:13.480561  1197 net.cpp:386] relu5 -> conv5 (in-place)
I0403 14:22:13.480845  1197 net.cpp:141] Setting up relu5
I0403 14:22:13.480872  1197 net.cpp:148] Top shape: 100 256 13 13 (4326400)
I0403 14:22:13.480890  1197 net.cpp:156] Memory required for data: 818009200
I0403 14:22:13.480906  1197 layer_factory.hpp:77] Creating layer pool5
I0403 14:22:13.480931  1197 net.cpp:91] Creating Layer pool5
I0403 14:22:13.480948  1197 net.cpp:425] pool5 <- conv5
I0403 14:22:13.480968  1197 net.cpp:399] pool5 -> pool5
I0403 14:22:13.481029  1197 net.cpp:141] Setting up pool5
I0403 14:22:13.481055  1197 net.cpp:148] Top shape: 100 256 6 6 (921600)
I0403 14:22:13.481070  1197 net.cpp:156] Memory required for data: 821695600
I0403 14:22:13.481084  1197 layer_factory.hpp:77] Creating layer fc6
I0403 14:22:13.481112  1197 net.cpp:91] Creating Layer fc6
I0403 14:22:13.481129  1197 net.cpp:425] fc6 <- pool5
I0403 14:22:13.481151  1197 net.cpp:399] fc6 -> fc6
I0403 14:22:15.017415  1197 net.cpp:141] Setting up fc6
I0403 14:22:15.017458  1197 net.cpp:148] Top shape: 100 4096 (409600)
I0403 14:22:15.017475  1197 net.cpp:156] Memory required for data: 823334000
I0403 14:22:15.017498  1197 layer_factory.hpp:77] Creating layer relu6
I0403 14:22:15.017521  1197 net.cpp:91] Creating Layer relu6
I0403 14:22:15.017550  1197 net.cpp:425] relu6 <- fc6
I0403 14:22:15.017570  1197 net.cpp:386] relu6 -> fc6 (in-place)
I0403 14:22:15.017786  1197 net.cpp:141] Setting up relu6
I0403 14:22:15.017812  1197 net.cpp:148] Top shape: 100 4096 (409600)
I0403 14:22:15.017827  1197 net.cpp:156] Memory required for data: 824972400
I0403 14:22:15.017841  1197 layer_factory.hpp:77] Creating layer drop6
I0403 14:22:15.017860  1197 net.cpp:91] Creating Layer drop6
I0403 14:22:15.017875  1197 net.cpp:425] drop6 <- fc6
I0403 14:22:15.017895  1197 net.cpp:386] drop6 -> fc6 (in-place)
I0403 14:22:15.017947  1197 net.cpp:141] Setting up drop6
I0403 14:22:15.017971  1197 net.cpp:148] Top shape: 100 4096 (409600)
I0403 14:22:15.017985  1197 net.cpp:156] Memory required for data: 826610800
I0403 14:22:15.018000  1197 layer_factory.hpp:77] Creating layer fc7
I0403 14:22:15.018025  1197 net.cpp:91] Creating Layer fc7
I0403 14:22:15.018043  1197 net.cpp:425] fc7 <- fc6
I0403 14:22:15.018064  1197 net.cpp:399] fc7 -> fc7
I0403 14:22:15.697322  1197 net.cpp:141] Setting up fc7
I0403 14:22:15.697370  1197 net.cpp:148] Top shape: 100 4096 (409600)
I0403 14:22:15.697386  1197 net.cpp:156] Memory required for data: 828249200
I0403 14:22:15.697408  1197 layer_factory.hpp:77] Creating layer relu7
I0403 14:22:15.697430  1197 net.cpp:91] Creating Layer relu7
I0403 14:22:15.697449  1197 net.cpp:425] relu7 <- fc7
I0403 14:22:15.697474  1197 net.cpp:386] relu7 -> fc7 (in-place)
I0403 14:22:15.697868  1197 net.cpp:141] Setting up relu7
I0403 14:22:15.697895  1197 net.cpp:148] Top shape: 100 4096 (409600)
I0403 14:22:15.697942  1197 net.cpp:156] Memory required for data: 829887600
I0403 14:22:15.697958  1197 layer_factory.hpp:77] Creating layer drop7
I0403 14:22:15.697978  1197 net.cpp:91] Creating Layer drop7
I0403 14:22:15.697993  1197 net.cpp:425] drop7 <- fc7
I0403 14:22:15.698014  1197 net.cpp:386] drop7 -> fc7 (in-place)
I0403 14:22:15.698057  1197 net.cpp:141] Setting up drop7
I0403 14:22:15.698082  1197 net.cpp:148] Top shape: 100 4096 (409600)
I0403 14:22:15.698098  1197 net.cpp:156] Memory required for data: 831526000
I0403 14:22:15.698113  1197 layer_factory.hpp:77] Creating layer fc8_plantvillage
I0403 14:22:15.698133  1197 net.cpp:91] Creating Layer fc8_plantvillage
I0403 14:22:15.698149  1197 net.cpp:425] fc8_plantvillage <- fc7
I0403 14:22:15.698170  1197 net.cpp:399] fc8_plantvillage -> fc8_plantvillage
I0403 14:22:15.704870  1197 net.cpp:141] Setting up fc8_plantvillage
I0403 14:22:15.704900  1197 net.cpp:148] Top shape: 100 38 (3800)
I0403 14:22:15.704916  1197 net.cpp:156] Memory required for data: 831541200
I0403 14:22:15.704934  1197 layer_factory.hpp:77] Creating layer fc8_plantvillage_fc8_plantvillage_0_split
I0403 14:22:15.704952  1197 net.cpp:91] Creating Layer fc8_plantvillage_fc8_plantvillage_0_split
I0403 14:22:15.704968  1197 net.cpp:425] fc8_plantvillage_fc8_plantvillage_0_split <- fc8_plantvillage
I0403 14:22:15.704988  1197 net.cpp:399] fc8_plantvillage_fc8_plantvillage_0_split -> fc8_plantvillage_fc8_plantvillage_0_split_0
I0403 14:22:15.705009  1197 net.cpp:399] fc8_plantvillage_fc8_plantvillage_0_split -> fc8_plantvillage_fc8_plantvillage_0_split_1
I0403 14:22:15.705029  1197 net.cpp:399] fc8_plantvillage_fc8_plantvillage_0_split -> fc8_plantvillage_fc8_plantvillage_0_split_2
I0403 14:22:15.705106  1197 net.cpp:141] Setting up fc8_plantvillage_fc8_plantvillage_0_split
I0403 14:22:15.705132  1197 net.cpp:148] Top shape: 100 38 (3800)
I0403 14:22:15.705150  1197 net.cpp:148] Top shape: 100 38 (3800)
I0403 14:22:15.705166  1197 net.cpp:148] Top shape: 100 38 (3800)
I0403 14:22:15.705180  1197 net.cpp:156] Memory required for data: 831586800
I0403 14:22:15.705195  1197 layer_factory.hpp:77] Creating layer prob
I0403 14:22:15.705214  1197 net.cpp:91] Creating Layer prob
I0403 14:22:15.705230  1197 net.cpp:425] prob <- fc8_plantvillage_fc8_plantvillage_0_split_0
I0403 14:22:15.705265  1197 net.cpp:399] prob -> prob
I0403 14:22:15.705499  1197 net.cpp:141] Setting up prob
I0403 14:22:15.705526  1197 net.cpp:148] Top shape: 100 38 (3800)
I0403 14:22:15.705554  1197 net.cpp:156] Memory required for data: 831602000
I0403 14:22:15.705569  1197 layer_factory.hpp:77] Creating layer hdf5out
I0403 14:22:15.705586  1197 net.cpp:91] Creating Layer hdf5out
I0403 14:22:15.705603  1197 net.cpp:425] hdf5out <- prob
I0403 14:22:15.705618  1197 net.cpp:425] hdf5out <- label_data_1_split_0
I0403 14:22:15.708274  1197 net.cpp:141] Setting up hdf5out
…
