…
I0403 14:17:11.261914  1085 net.cpp:313] The NetState phase (1) differed from the phase (0) specified by a rule in layer data
I0403 14:17:11.262217  1085 net.cpp:49] Initializing net from parameters: 
state {
  phase: TEST
}
layer {
  name: "data"
  type: "Data"
  top: "data"
  top: "label"
  include {
    phase: TEST
  }
  transform_param {
    crop_size: 227
    mean_file: "/home/mohanty/data/final_dataset/lmdb/segmented-50-50/mean.binaryproto"
  }
  data_param {
    source: "/home/mohanty/data/final_dataset/lmdb/segmented-50-50/test_db"
    batch_size: 100
    backend: LMDB
  }
}
layer {
  name: "conv1"
  type: "Convolution"
  bottom: "data"
  top: "conv1"
  param {
    lr_mult: 1
    decay_mult: 1
  }
  param {
    lr_mult: 2
    decay_mult: 0
  }
  convolution_param {
    num_output: 96
    kernel_size: 11
    stride: 4
    weight_filler {
      type: "gaussian"
      std: 0.01
    }
    bias_filler {
      type: "constant"
      value: 0
    }
  }
}
layer {
  name: "relu1"
  type: "ReLU"
  bottom: "conv1"
  top: "conv1"
}
layer {
  name: "norm1"
  type: "LRN"
  bottom: "conv1"
  top: "norm1"
  lrn_param {
    local_size: 5
    alpha: 0.0001
    beta: 0.75
  }
}
layer {
  name: "pool1"
  type: "Pooling"
  bottom: "norm1"
  top: "pool1"
  pooling_param {
    pool: MAX
    kernel_size: 3
    stride: 2
  }
}
layer {
  name: "conv2"
  type: "Convolution"
  bottom: "pool1"
  top: "conv2"
  param {
    lr_mult: 1
    decay_mult: 1
  }
  param {
    lr_mult: 2
    decay_mult: 0
  }
  convolution_param {
    num_output: 256
    pad: 2
    kernel_size: 5
    group: 2
    weight_filler {
      type: "gaussian"
      std: 0.01
    }
    bias_filler {
      type: "constant"
      value: 0.1
    }
  }
}
layer {
  name: "relu2"
  type: "ReLU"
  bottom: "conv2"
  top: "conv2"
}
layer {
  name: "norm2"
  type: "LRN"
  bottom: "conv2"
  top: "norm2"
  lrn_param {
    local_size: 5
    alpha: 0.0001
    beta: 0.75
  }
}
layer {
  name: "pool2"
  type: "Pooling"
  bottom: "norm2"
  top: "pool2"
  pooling_param {
    pool: MAX
    kernel_size: 3
    stride: 2
  }
}
layer {
  name: "conv3"
  type: "Convolution"
  bottom: "pool2"
  top: "conv3"
  param {
    lr_mult: 1
    decay_mult: 1
  }
  param {
    lr_mult: 2
    decay_mult: 0
  }
  convolution_param {
    num_output: 384
    pad: 1
    kernel_size: 3
    weight_filler {
      type: "gaussian"
      std: 0.01
    }
    bias_filler {
      type: "constant"
      value: 0
    }
  }
}
layer {
  name: "relu3"
  type: "ReLU"
  bottom: "conv3"
  top: "conv3"
}
layer {
  name: "conv4"
  type: "Convolution"
  bottom: "conv3"
  top: "conv4"
  param {
    lr_mult: 1
    decay_mult: 1
  }
  param {
    lr_mult: 2
    decay_mult: 0
  }
  convolution_param {
    num_output: 384
    pad: 1
    kernel_size: 3
    group: 2
    weight_filler {
      type: "gaussian"
      std: 0.01
    }
    bias_filler {
      type: "constant"
      value: 0.1
    }
  }
}
layer {
  name: "relu4"
  type: "ReLU"
  bottom: "conv4"
  top: "conv4"
}
layer {
  name: "conv5"
  type: "Convolution"
  bottom: "conv4"
  top: "conv5"
  param {
    lr_mult: 1
    decay_mult: 1
  }
  param {
    lr_mult: 2
    decay_mult: 0
  }
  convolution_param {
    num_output: 256
    pad: 1
    kernel_size: 3
    group: 2
    weight_filler {
      type: "gaussian"
      std: 0.01
    }
    bias_filler {
      type: "constant"
      value: 0.1
    }
  }
}
layer {
  name: "relu5"
  type: "ReLU"
  bottom: "conv5"
  top: "conv5"
}
layer {
  name: "pool5"
  type: "Pooling"
  bottom: "conv5"
  top: "pool5"
  pooling_param {
    pool: MAX
    kernel_size: 3
    stride: 2
  }
}
layer {
  name: "fc6"
  type: "InnerProduct"
  bottom: "pool5"
  top: "fc6"
  param {
    lr_mult: 1
    decay_mult: 1
  }
  param {
    lr_mult: 2
    decay_mult: 0
  }
  inner_product_param {
    num_output: 4096
    weight_filler {
      type: "gaussian"
      std: 0.005
    }
    bias_filler {
      type: "constant"
      value: 0.1
    }
  }
}
layer {
  name: "relu6"
  type: "ReLU"
  bottom: "fc6"
  top: "fc6"
}
layer {
  name: "drop6"
  type: "Dropout"
  bottom: "fc6"
  top: "fc6"
  dropout_param {
    dropout_ratio: 0.5
  }
}
layer {
  name: "fc7"
  type: "InnerProduct"
  bottom: "fc6"
  top: "fc7"
  param {
    lr_mult: 1
    decay_mult: 1
  }
  param {
    lr_mult: 2
    decay_mult: 0
  }
  inner_product_param {
    num_output: 4096
    weight_filler {
      type: "gaussian"
      std: 0.005
    }
    bias_filler {
      type: "constant"
      value: 0.1
    }
  }
}
layer {
  name: "relu7"
  type: "ReLU"
  bottom: "fc7"
  top: "fc7"
}
layer {
  name: "drop7"
  type: "Dropout"
  bottom: "fc7"
  top: "fc7"
  dropout_param {
    dropout_ratio: 0.5
  }
}
layer {
  name: "fc8_plantvillage"
  type: "InnerProduct"
  bottom: "fc7"
  top: "fc8_plantvillage"
  param {
    lr_mult: 1
    decay_mult: 1
  }
  param {
    lr_mult: 2
    decay_mult: 0
  }
  inner_product_param {
    num_output: 38
    weight_filler {
      type: "gaussian"
      std: 0.01
    }
    bias_filler {
      type: "constant"
      value: 0
    }
  }
}
layer {
  name: "prob"
  type: "Softmax"
  bottom: "fc8_plantvillage"
  top: "prob"
  include {
    phase: TEST
  }
}
layer {
  name: "hdf5out"
  type: "HDF5Output"
  bottom: "prob"
  bottom: "label"
  include {
    phase: TEST
  }
  hdf5_output_param {
    file_name: "hdf5_dumps/iter_3216.h5"
  }
}
layer {
  name: "loss"
  type: "SoftmaxWithLoss"
  bottom: "fc8_plantvillage"
  bottom: "label"
  top: "loss"
}
layer {
  name: "accuracy"
  type: "Accuracy"
  bottom: "fc8_plantvillage"
  bottom: "label"
  top: "accuracy"
  include {
    phase: TEST
  }
}
I0403 14:17:11.262794  1085 layer_factory.hpp:77] Creating layer data
I0403 14:17:11.263445  1085 net.cpp:91] Creating Layer data
I0403 14:17:11.263478  1085 net.cpp:399] data -> data
I0403 14:17:11.263528  1085 net.cpp:399] data -> label
I0403 14:17:11.263566  1085 data_transformer.cpp:25] Loading mean file from: /home/mohanty/data/final_dataset/lmdb/segmented-50-50/mean.binaryproto
I0403 14:17:11.266428  1090 db_lmdb.cpp:38] Opened lmdb /home/mohanty/data/final_dataset/lmdb/segmented-50-50/test_db
I0403 14:17:11.277793  1085 data_layer.cpp:41] output data size: 100,3,227,227
I0403 14:17:11.398691  1085 net.cpp:141] Setting up data
I0403 14:17:11.398790  1085 net.cpp:148] Top shape: 100 3 227 227 (15458700)
I0403 14:17:11.398813  1085 net.cpp:148] Top shape: 100 (100)
I0403 14:17:11.398829  1085 net.cpp:156] Memory required for data: 61835200
I0403 14:17:11.398856  1085 layer_factory.hpp:77] Creating layer label_data_1_split
I0403 14:17:11.398881  1085 net.cpp:91] Creating Layer label_data_1_split
I0403 14:17:11.398900  1085 net.cpp:425] label_data_1_split <- label
I0403 14:17:11.398931  1085 net.cpp:399] label_data_1_split -> label_data_1_split_0
I0403 14:17:11.398957  1085 net.cpp:399] label_data_1_split -> label_data_1_split_1
I0403 14:17:11.398979  1085 net.cpp:399] label_data_1_split -> label_data_1_split_2
I0403 14:17:11.399044  1085 net.cpp:141] Setting up label_data_1_split
I0403 14:17:11.399068  1085 net.cpp:148] Top shape: 100 (100)
I0403 14:17:11.399085  1085 net.cpp:148] Top shape: 100 (100)
I0403 14:17:11.399101  1085 net.cpp:148] Top shape: 100 (100)
I0403 14:17:11.399116  1085 net.cpp:156] Memory required for data: 61836400
I0403 14:17:11.399132  1085 layer_factory.hpp:77] Creating layer conv1
I0403 14:17:11.399163  1085 net.cpp:91] Creating Layer conv1
I0403 14:17:11.399183  1085 net.cpp:425] conv1 <- data
I0403 14:17:11.399202  1085 net.cpp:399] conv1 -> conv1
I0403 14:17:11.541956  1085 net.cpp:141] Setting up conv1
I0403 14:17:11.542001  1085 net.cpp:148] Top shape: 100 96 55 55 (29040000)
I0403 14:17:11.542018  1085 net.cpp:156] Memory required for data: 177996400
I0403 14:17:11.542050  1085 layer_factory.hpp:77] Creating layer relu1
I0403 14:17:11.542078  1085 net.cpp:91] Creating Layer relu1
I0403 14:17:11.542096  1085 net.cpp:425] relu1 <- conv1
I0403 14:17:11.542115  1085 net.cpp:386] relu1 -> conv1 (in-place)
I0403 14:17:11.542392  1085 net.cpp:141] Setting up relu1
I0403 14:17:11.542419  1085 net.cpp:148] Top shape: 100 96 55 55 (29040000)
I0403 14:17:11.542469  1085 net.cpp:156] Memory required for data: 294156400
I0403 14:17:11.542485  1085 layer_factory.hpp:77] Creating layer norm1
I0403 14:17:11.542515  1085 net.cpp:91] Creating Layer norm1
I0403 14:17:11.542533  1085 net.cpp:425] norm1 <- conv1
I0403 14:17:11.542552  1085 net.cpp:399] norm1 -> norm1
I0403 14:17:11.542876  1085 net.cpp:141] Setting up norm1
I0403 14:17:11.542904  1085 net.cpp:148] Top shape: 100 96 55 55 (29040000)
I0403 14:17:11.542920  1085 net.cpp:156] Memory required for data: 410316400
I0403 14:17:11.542937  1085 layer_factory.hpp:77] Creating layer pool1
I0403 14:17:11.542960  1085 net.cpp:91] Creating Layer pool1
I0403 14:17:11.542979  1085 net.cpp:425] pool1 <- norm1
I0403 14:17:11.542997  1085 net.cpp:399] pool1 -> pool1
I0403 14:17:11.543064  1085 net.cpp:141] Setting up pool1
I0403 14:17:11.543089  1085 net.cpp:148] Top shape: 100 96 27 27 (6998400)
I0403 14:17:11.543105  1085 net.cpp:156] Memory required for data: 438310000
I0403 14:17:11.543122  1085 layer_factory.hpp:77] Creating layer conv2
I0403 14:17:11.543145  1085 net.cpp:91] Creating Layer conv2
I0403 14:17:11.543162  1085 net.cpp:425] conv2 <- pool1
I0403 14:17:11.543181  1085 net.cpp:399] conv2 -> conv2
I0403 14:17:11.558853  1085 net.cpp:141] Setting up conv2
I0403 14:17:11.558908  1085 net.cpp:148] Top shape: 100 256 27 27 (18662400)
I0403 14:17:11.558925  1085 net.cpp:156] Memory required for data: 512959600
I0403 14:17:11.558948  1085 layer_factory.hpp:77] Creating layer relu2
I0403 14:17:11.558972  1085 net.cpp:91] Creating Layer relu2
I0403 14:17:11.558990  1085 net.cpp:425] relu2 <- conv2
I0403 14:17:11.559010  1085 net.cpp:386] relu2 -> conv2 (in-place)
I0403 14:17:11.559309  1085 net.cpp:141] Setting up relu2
I0403 14:17:11.559337  1085 net.cpp:148] Top shape: 100 256 27 27 (18662400)
I0403 14:17:11.559353  1085 net.cpp:156] Memory required for data: 587609200
I0403 14:17:11.559370  1085 layer_factory.hpp:77] Creating layer norm2
I0403 14:17:11.559394  1085 net.cpp:91] Creating Layer norm2
I0403 14:17:11.559412  1085 net.cpp:425] norm2 <- conv2
I0403 14:17:11.559432  1085 net.cpp:399] norm2 -> norm2
I0403 14:17:11.559639  1085 net.cpp:141] Setting up norm2
I0403 14:17:11.559666  1085 net.cpp:148] Top shape: 100 256 27 27 (18662400)
I0403 14:17:11.559682  1085 net.cpp:156] Memory required for data: 662258800
I0403 14:17:11.559697  1085 layer_factory.hpp:77] Creating layer pool2
I0403 14:17:11.559720  1085 net.cpp:91] Creating Layer pool2
I0403 14:17:11.559737  1085 net.cpp:425] pool2 <- norm2
I0403 14:17:11.559756  1085 net.cpp:399] pool2 -> pool2
I0403 14:17:11.559810  1085 net.cpp:141] Setting up pool2
I0403 14:17:11.559834  1085 net.cpp:148] Top shape: 100 256 13 13 (4326400)
I0403 14:17:11.559849  1085 net.cpp:156] Memory required for data: 679564400
I0403 14:17:11.559865  1085 layer_factory.hpp:77] Creating layer conv3
I0403 14:17:11.559890  1085 net.cpp:91] Creating Layer conv3
I0403 14:17:11.559907  1085 net.cpp:425] conv3 <- pool2
I0403 14:17:11.559928  1085 net.cpp:399] conv3 -> conv3
I0403 14:17:11.599689  1085 net.cpp:141] Setting up conv3
I0403 14:17:11.599772  1085 net.cpp:148] Top shape: 100 384 13 13 (6489600)
I0403 14:17:11.599788  1085 net.cpp:156] Memory required for data: 705522800
I0403 14:17:11.599813  1085 layer_factory.hpp:77] Creating layer relu3
I0403 14:17:11.599839  1085 net.cpp:91] Creating Layer relu3
I0403 14:17:11.599858  1085 net.cpp:425] relu3 <- conv3
I0403 14:17:11.599876  1085 net.cpp:386] relu3 -> conv3 (in-place)
I0403 14:17:11.600149  1085 net.cpp:141] Setting up relu3
I0403 14:17:11.600177  1085 net.cpp:148] Top shape: 100 384 13 13 (6489600)
I0403 14:17:11.600191  1085 net.cpp:156] Memory required for data: 731481200
I0403 14:17:11.600206  1085 layer_factory.hpp:77] Creating layer conv4
I0403 14:17:11.600234  1085 net.cpp:91] Creating Layer conv4
I0403 14:17:11.600251  1085 net.cpp:425] conv4 <- conv3
I0403 14:17:11.600276  1085 net.cpp:399] conv4 -> conv4
I0403 14:17:11.630627  1085 net.cpp:141] Setting up conv4
I0403 14:17:11.630663  1085 net.cpp:148] Top shape: 100 384 13 13 (6489600)
I0403 14:17:11.630712  1085 net.cpp:156] Memory required for data: 757439600
I0403 14:17:11.630734  1085 layer_factory.hpp:77] Creating layer relu4
I0403 14:17:11.630755  1085 net.cpp:91] Creating Layer relu4
I0403 14:17:11.630774  1085 net.cpp:425] relu4 <- conv4
I0403 14:17:11.630795  1085 net.cpp:386] relu4 -> conv4 (in-place)
I0403 14:17:11.631083  1085 net.cpp:141] Setting up relu4
I0403 14:17:11.631111  1085 net.cpp:148] Top shape: 100 384 13 13 (6489600)
I0403 14:17:11.631127  1085 net.cpp:156] Memory required for data: 783398000
I0403 14:17:11.631144  1085 layer_factory.hpp:77] Creating layer conv5
I0403 14:17:11.631171  1085 net.cpp:91] Creating Layer conv5
I0403 14:17:11.631189  1085 net.cpp:425] conv5 <- conv4
I0403 14:17:11.631212  1085 net.cpp:399] conv5 -> conv5
I0403 14:17:11.652855  1085 net.cpp:141] Setting up conv5
I0403 14:17:11.652922  1085 net.cpp:148] Top shape: 100 256 13 13 (4326400)
I0403 14:17:11.652940  1085 net.cpp:156] Memory required for data: 800703600
I0403 14:17:11.652992  1085 layer_factory.hpp:77] Creating layer relu5
I0403 14:17:11.653020  1085 net.cpp:91] Creating Layer relu5
I0403 14:17:11.653038  1085 net.cpp:425] relu5 <- conv5
I0403 14:17:11.653058  1085 net.cpp:386] relu5 -> conv5 (in-place)
I0403 14:17:11.653353  1085 net.cpp:141] Setting up relu5
I0403 14:17:11.653381  1085 net.cpp:148] Top shape: 100 256 13 13 (4326400)
I0403 14:17:11.653398  1085 net.cpp:156] Memory required for data: 818009200
I0403 14:17:11.653414  1085 layer_factory.hpp:77] Creating layer pool5
I0403 14:17:11.653440  1085 net.cpp:91] Creating Layer pool5
I0403 14:17:11.653457  1085 net.cpp:425] pool5 <- conv5
I0403 14:17:11.653477  1085 net.cpp:399] pool5 -> pool5
I0403 14:17:11.653543  1085 net.cpp:141] Setting up pool5
I0403 14:17:11.653568  1085 net.cpp:148] Top shape: 100 256 6 6 (921600)
I0403 14:17:11.653584  1085 net.cpp:156] Memory required for data: 821695600
I0403 14:17:11.653599  1085 layer_factory.hpp:77] Creating layer fc6
I0403 14:17:11.653630  1085 net.cpp:91] Creating Layer fc6
I0403 14:17:11.653650  1085 net.cpp:425] fc6 <- pool5
I0403 14:17:11.653668  1085 net.cpp:399] fc6 -> fc6
I0403 14:17:13.205842  1085 net.cpp:141] Setting up fc6
I0403 14:17:13.205914  1085 net.cpp:148] Top shape: 100 4096 (409600)
I0403 14:17:13.205930  1085 net.cpp:156] Memory required for data: 823334000
I0403 14:17:13.205951  1085 layer_factory.hpp:77] Creating layer relu6
I0403 14:17:13.205972  1085 net.cpp:91] Creating Layer relu6
I0403 14:17:13.205989  1085 net.cpp:425] relu6 <- fc6
I0403 14:17:13.206012  1085 net.cpp:386] relu6 -> fc6 (in-place)
I0403 14:17:13.206218  1085 net.cpp:141] Setting up relu6
I0403 14:17:13.206243  1085 net.cpp:148] Top shape: 100 4096 (409600)
I0403 14:17:13.206255  1085 net.cpp:156] Memory required for data: 824972400
I0403 14:17:13.206275  1085 layer_factory.hpp:77] Creating layer drop6
I0403 14:17:13.206297  1085 net.cpp:91] Creating Layer drop6
I0403 14:17:13.206313  1085 net.cpp:425] drop6 <- fc6
I0403 14:17:13.206329  1085 net.cpp:386] drop6 -> fc6 (in-place)
I0403 14:17:13.206379  1085 net.cpp:141] Setting up drop6
I0403 14:17:13.206404  1085 net.cpp:148] Top shape: 100 4096 (409600)
I0403 14:17:13.206419  1085 net.cpp:156] Memory required for data: 826610800
I0403 14:17:13.206434  1085 layer_factory.hpp:77] Creating layer fc7
I0403 14:17:13.206465  1085 net.cpp:91] Creating Layer fc7
I0403 14:17:13.206480  1085 net.cpp:425] fc7 <- fc6
I0403 14:17:13.206499  1085 net.cpp:399] fc7 -> fc7
I0403 14:17:13.888062  1085 net.cpp:141] Setting up fc7
I0403 14:17:13.888134  1085 net.cpp:148] Top shape: 100 4096 (409600)
I0403 14:17:13.888150  1085 net.cpp:156] Memory required for data: 828249200
I0403 14:17:13.888171  1085 layer_factory.hpp:77] Creating layer relu7
I0403 14:17:13.888193  1085 net.cpp:91] Creating Layer relu7
I0403 14:17:13.888211  1085 net.cpp:425] relu7 <- fc7
I0403 14:17:13.888233  1085 net.cpp:386] relu7 -> fc7 (in-place)
I0403 14:17:13.888659  1085 net.cpp:141] Setting up relu7
I0403 14:17:13.888685  1085 net.cpp:148] Top shape: 100 4096 (409600)
I0403 14:17:13.888732  1085 net.cpp:156] Memory required for data: 829887600
I0403 14:17:13.888747  1085 layer_factory.hpp:77] Creating layer drop7
I0403 14:17:13.888767  1085 net.cpp:91] Creating Layer drop7
I0403 14:17:13.888782  1085 net.cpp:425] drop7 <- fc7
I0403 14:17:13.888802  1085 net.cpp:386] drop7 -> fc7 (in-place)
I0403 14:17:13.888845  1085 net.cpp:141] Setting up drop7
I0403 14:17:13.888882  1085 net.cpp:148] Top shape: 100 4096 (409600)
I0403 14:17:13.888896  1085 net.cpp:156] Memory required for data: 831526000
I0403 14:17:13.888911  1085 layer_factory.hpp:77] Creating layer fc8_plantvillage
I0403 14:17:13.888928  1085 net.cpp:91] Creating Layer fc8_plantvillage
I0403 14:17:13.888943  1085 net.cpp:425] fc8_plantvillage <- fc7
I0403 14:17:13.888963  1085 net.cpp:399] fc8_plantvillage -> fc8_plantvillage
I0403 14:17:13.895479  1085 net.cpp:141] Setting up fc8_plantvillage
I0403 14:17:13.895508  1085 net.cpp:148] Top shape: 100 38 (3800)
I0403 14:17:13.895521  1085 net.cpp:156] Memory required for data: 831541200
I0403 14:17:13.895539  1085 layer_factory.hpp:77] Creating layer fc8_plantvillage_fc8_plantvillage_0_split
I0403 14:17:13.895560  1085 net.cpp:91] Creating Layer fc8_plantvillage_fc8_plantvillage_0_split
I0403 14:17:13.895576  1085 net.cpp:425] fc8_plantvillage_fc8_plantvillage_0_split <- fc8_plantvillage
I0403 14:17:13.895592  1085 net.cpp:399] fc8_plantvillage_fc8_plantvillage_0_split -> fc8_plantvillage_fc8_plantvillage_0_split_0
I0403 14:17:13.895611  1085 net.cpp:399] fc8_plantvillage_fc8_plantvillage_0_split -> fc8_plantvillage_fc8_plantvillage_0_split_1
I0403 14:17:13.895629  1085 net.cpp:399] fc8_plantvillage_fc8_plantvillage_0_split -> fc8_plantvillage_fc8_plantvillage_0_split_2
I0403 14:17:13.895705  1085 net.cpp:141] Setting up fc8_plantvillage_fc8_plantvillage_0_split
I0403 14:17:13.895727  1085 net.cpp:148] Top shape: 100 38 (3800)
I0403 14:17:13.895743  1085 net.cpp:148] Top shape: 100 38 (3800)
I0403 14:17:13.895758  1085 net.cpp:148] Top shape: 100 38 (3800)
I0403 14:17:13.895771  1085 net.cpp:156] Memory required for data: 831586800
I0403 14:17:13.895786  1085 layer_factory.hpp:77] Creating layer prob
I0403 14:17:13.895802  1085 net.cpp:91] Creating Layer prob
I0403 14:17:13.895817  1085 net.cpp:425] prob <- fc8_plantvillage_fc8_plantvillage_0_split_0
I0403 14:17:13.895833  1085 net.cpp:399] prob -> prob
I0403 14:17:13.896049  1085 net.cpp:141] Setting up prob
I0403 14:17:13.896073  1085 net.cpp:148] Top shape: 100 38 (3800)
I0403 14:17:13.896087  1085 net.cpp:156] Memory required for data: 831602000
I0403 14:17:13.896101  1085 layer_factory.hpp:77] Creating layer hdf5out
I0403 14:17:13.896119  1085 net.cpp:91] Creating Layer hdf5out
I0403 14:17:13.896134  1085 net.cpp:425] hdf5out <- prob
I0403 14:17:13.896150  1085 net.cpp:425] hdf5out <- label_data_1_split_0
I0403 14:17:13.898438  1085 net.cpp:141] Setting up hdf5out
…
