…
I0403 14:33:09.933356  1469 net.cpp:313] The NetState phase (1) differed from the phase (0) specified by a rule in layer data
I0403 14:33:09.933658  1469 net.cpp:49] Initializing net from parameters: 
state {
  phase: TEST
}
layer {
  name: "data"
  type: "Data"
  top: "data"
  top: "label"
  include {
    phase: TEST
  }
  transform_param {
    crop_size: 227
    mean_file: "/home/mohanty/data/final_dataset/lmdb/segmented-50-50/mean.binaryproto"
  }
  data_param {
    source: "/home/mohanty/data/final_dataset/lmdb/segmented-50-50/test_db"
    batch_size: 100
    backend: LMDB
  }
}
layer {
  name: "conv1"
  type: "Convolution"
  bottom: "data"
  top: "conv1"
  param {
    lr_mult: 1
    decay_mult: 1
  }
  param {
    lr_mult: 2
    decay_mult: 0
  }
  convolution_param {
    num_output: 96
    kernel_size: 11
    stride: 4
    weight_filler {
      type: "gaussian"
      std: 0.01
    }
    bias_filler {
      type: "constant"
      value: 0
    }
  }
}
layer {
  name: "relu1"
  type: "ReLU"
  bottom: "conv1"
  top: "conv1"
}
layer {
  name: "norm1"
  type: "LRN"
  bottom: "conv1"
  top: "norm1"
  lrn_param {
    local_size: 5
    alpha: 0.0001
    beta: 0.75
  }
}
layer {
  name: "pool1"
  type: "Pooling"
  bottom: "norm1"
  top: "pool1"
  pooling_param {
    pool: MAX
    kernel_size: 3
    stride: 2
  }
}
layer {
  name: "conv2"
  type: "Convolution"
  bottom: "pool1"
  top: "conv2"
  param {
    lr_mult: 1
    decay_mult: 1
  }
  param {
    lr_mult: 2
    decay_mult: 0
  }
  convolution_param {
    num_output: 256
    pad: 2
    kernel_size: 5
    group: 2
    weight_filler {
      type: "gaussian"
      std: 0.01
    }
    bias_filler {
      type: "constant"
      value: 0.1
    }
  }
}
layer {
  name: "relu2"
  type: "ReLU"
  bottom: "conv2"
  top: "conv2"
}
layer {
  name: "norm2"
  type: "LRN"
  bottom: "conv2"
  top: "norm2"
  lrn_param {
    local_size: 5
    alpha: 0.0001
    beta: 0.75
  }
}
layer {
  name: "pool2"
  type: "Pooling"
  bottom: "norm2"
  top: "pool2"
  pooling_param {
    pool: MAX
    kernel_size: 3
    stride: 2
  }
}
layer {
  name: "conv3"
  type: "Convolution"
  bottom: "pool2"
  top: "conv3"
  param {
    lr_mult: 1
    decay_mult: 1
  }
  param {
    lr_mult: 2
    decay_mult: 0
  }
  convolution_param {
    num_output: 384
    pad: 1
    kernel_size: 3
    weight_filler {
      type: "gaussian"
      std: 0.01
    }
    bias_filler {
      type: "constant"
      value: 0
    }
  }
}
layer {
  name: "relu3"
  type: "ReLU"
  bottom: "conv3"
  top: "conv3"
}
layer {
  name: "conv4"
  type: "Convolution"
  bottom: "conv3"
  top: "conv4"
  param {
    lr_mult: 1
    decay_mult: 1
  }
  param {
    lr_mult: 2
    decay_mult: 0
  }
  convolution_param {
    num_output: 384
    pad: 1
    kernel_size: 3
    group: 2
    weight_filler {
      type: "gaussian"
      std: 0.01
    }
    bias_filler {
      type: "constant"
      value: 0.1
    }
  }
}
layer {
  name: "relu4"
  type: "ReLU"
  bottom: "conv4"
  top: "conv4"
}
layer {
  name: "conv5"
  type: "Convolution"
  bottom: "conv4"
  top: "conv5"
  param {
    lr_mult: 1
    decay_mult: 1
  }
  param {
    lr_mult: 2
    decay_mult: 0
  }
  convolution_param {
    num_output: 256
    pad: 1
    kernel_size: 3
    group: 2
    weight_filler {
      type: "gaussian"
      std: 0.01
    }
    bias_filler {
      type: "constant"
      value: 0.1
    }
  }
}
layer {
  name: "relu5"
  type: "ReLU"
  bottom: "conv5"
  top: "conv5"
}
layer {
  name: "pool5"
  type: "Pooling"
  bottom: "conv5"
  top: "pool5"
  pooling_param {
    pool: MAX
    kernel_size: 3
    stride: 2
  }
}
layer {
  name: "fc6"
  type: "InnerProduct"
  bottom: "pool5"
  top: "fc6"
  param {
    lr_mult: 1
    decay_mult: 1
  }
  param {
    lr_mult: 2
    decay_mult: 0
  }
  inner_product_param {
    num_output: 4096
    weight_filler {
      type: "gaussian"
      std: 0.005
    }
    bias_filler {
      type: "constant"
      value: 0.1
    }
  }
}
layer {
  name: "relu6"
  type: "ReLU"
  bottom: "fc6"
  top: "fc6"
}
layer {
  name: "drop6"
  type: "Dropout"
  bottom: "fc6"
  top: "fc6"
  dropout_param {
    dropout_ratio: 0.5
  }
}
layer {
  name: "fc7"
  type: "InnerProduct"
  bottom: "fc6"
  top: "fc7"
  param {
    lr_mult: 1
    decay_mult: 1
  }
  param {
    lr_mult: 2
    decay_mult: 0
  }
  inner_product_param {
    num_output: 4096
    weight_filler {
      type: "gaussian"
      std: 0.005
    }
    bias_filler {
      type: "constant"
      value: 0.1
    }
  }
}
layer {
  name: "relu7"
  type: "ReLU"
  bottom: "fc7"
  top: "fc7"
}
layer {
  name: "drop7"
  type: "Dropout"
  bottom: "fc7"
  top: "fc7"
  dropout_param {
    dropout_ratio: 0.5
  }
}
layer {
  name: "fc8_plantvillage"
  type: "InnerProduct"
  bottom: "fc7"
  top: "fc8_plantvillage"
  param {
    lr_mult: 1
    decay_mult: 1
  }
  param {
    lr_mult: 2
    decay_mult: 0
  }
  inner_product_param {
    num_output: 38
    weight_filler {
      type: "gaussian"
      std: 0.01
    }
    bias_filler {
      type: "constant"
      value: 0
    }
  }
}
layer {
  name: "prob"
  type: "Softmax"
  bottom: "fc8_plantvillage"
  top: "prob"
  include {
    phase: TEST
  }
}
layer {
  name: "hdf5out"
  type: "HDF5Output"
  bottom: "prob"
  bottom: "label"
  include {
    phase: TEST
  }
  hdf5_output_param {
    file_name: "hdf5_dumps/iter_8066.h5"
  }
}
layer {
  name: "loss"
  type: "SoftmaxWithLoss"
  bottom: "fc8_plantvillage"
  bottom: "label"
  top: "loss"
}
layer {
  name: "accuracy"
  type: "Accuracy"
  bottom: "fc8_plantvillage"
  bottom: "label"
  top: "accuracy"
  include {
    phase: TEST
  }
}
I0403 14:33:09.934201  1469 layer_factory.hpp:77] Creating layer data
I0403 14:33:09.934849  1469 net.cpp:91] Creating Layer data
I0403 14:33:09.934880  1469 net.cpp:399] data -> data
I0403 14:33:09.934932  1469 net.cpp:399] data -> label
I0403 14:33:09.934972  1469 data_transformer.cpp:25] Loading mean file from: /home/mohanty/data/final_dataset/lmdb/segmented-50-50/mean.binaryproto
I0403 14:33:09.937943  1472 db_lmdb.cpp:38] Opened lmdb /home/mohanty/data/final_dataset/lmdb/segmented-50-50/test_db
I0403 14:33:09.949579  1469 data_layer.cpp:41] output data size: 100,3,227,227
I0403 14:33:10.071379  1469 net.cpp:141] Setting up data
I0403 14:33:10.071439  1469 net.cpp:148] Top shape: 100 3 227 227 (15458700)
I0403 14:33:10.071465  1469 net.cpp:148] Top shape: 100 (100)
I0403 14:33:10.071480  1469 net.cpp:156] Memory required for data: 61835200
I0403 14:33:10.071511  1469 layer_factory.hpp:77] Creating layer label_data_1_split
I0403 14:33:10.071535  1469 net.cpp:91] Creating Layer label_data_1_split
I0403 14:33:10.071554  1469 net.cpp:425] label_data_1_split <- label
I0403 14:33:10.071586  1469 net.cpp:399] label_data_1_split -> label_data_1_split_0
I0403 14:33:10.071614  1469 net.cpp:399] label_data_1_split -> label_data_1_split_1
I0403 14:33:10.071635  1469 net.cpp:399] label_data_1_split -> label_data_1_split_2
I0403 14:33:10.071698  1469 net.cpp:141] Setting up label_data_1_split
I0403 14:33:10.071723  1469 net.cpp:148] Top shape: 100 (100)
I0403 14:33:10.071741  1469 net.cpp:148] Top shape: 100 (100)
I0403 14:33:10.071760  1469 net.cpp:148] Top shape: 100 (100)
I0403 14:33:10.071775  1469 net.cpp:156] Memory required for data: 61836400
I0403 14:33:10.071790  1469 layer_factory.hpp:77] Creating layer conv1
I0403 14:33:10.071822  1469 net.cpp:91] Creating Layer conv1
I0403 14:33:10.071842  1469 net.cpp:425] conv1 <- data
I0403 14:33:10.071862  1469 net.cpp:399] conv1 -> conv1
I0403 14:33:10.215303  1469 net.cpp:141] Setting up conv1
I0403 14:33:10.215390  1469 net.cpp:148] Top shape: 100 96 55 55 (29040000)
I0403 14:33:10.215409  1469 net.cpp:156] Memory required for data: 177996400
I0403 14:33:10.215469  1469 layer_factory.hpp:77] Creating layer relu1
I0403 14:33:10.215502  1469 net.cpp:91] Creating Layer relu1
I0403 14:33:10.215523  1469 net.cpp:425] relu1 <- conv1
I0403 14:33:10.215543  1469 net.cpp:386] relu1 -> conv1 (in-place)
I0403 14:33:10.215808  1469 net.cpp:141] Setting up relu1
I0403 14:33:10.215837  1469 net.cpp:148] Top shape: 100 96 55 55 (29040000)
I0403 14:33:10.215884  1469 net.cpp:156] Memory required for data: 294156400
I0403 14:33:10.215903  1469 layer_factory.hpp:77] Creating layer norm1
I0403 14:33:10.215931  1469 net.cpp:91] Creating Layer norm1
I0403 14:33:10.215950  1469 net.cpp:425] norm1 <- conv1
I0403 14:33:10.215970  1469 net.cpp:399] norm1 -> norm1
I0403 14:33:10.216291  1469 net.cpp:141] Setting up norm1
I0403 14:33:10.216320  1469 net.cpp:148] Top shape: 100 96 55 55 (29040000)
I0403 14:33:10.216336  1469 net.cpp:156] Memory required for data: 410316400
I0403 14:33:10.216353  1469 layer_factory.hpp:77] Creating layer pool1
I0403 14:33:10.216377  1469 net.cpp:91] Creating Layer pool1
I0403 14:33:10.216397  1469 net.cpp:425] pool1 <- norm1
I0403 14:33:10.216415  1469 net.cpp:399] pool1 -> pool1
I0403 14:33:10.216483  1469 net.cpp:141] Setting up pool1
I0403 14:33:10.216508  1469 net.cpp:148] Top shape: 100 96 27 27 (6998400)
I0403 14:33:10.216524  1469 net.cpp:156] Memory required for data: 438310000
I0403 14:33:10.216541  1469 layer_factory.hpp:77] Creating layer conv2
I0403 14:33:10.216565  1469 net.cpp:91] Creating Layer conv2
I0403 14:33:10.216583  1469 net.cpp:425] conv2 <- pool1
I0403 14:33:10.216603  1469 net.cpp:399] conv2 -> conv2
I0403 14:33:10.232367  1469 net.cpp:141] Setting up conv2
I0403 14:33:10.232419  1469 net.cpp:148] Top shape: 100 256 27 27 (18662400)
I0403 14:33:10.232437  1469 net.cpp:156] Memory required for data: 512959600
I0403 14:33:10.232462  1469 layer_factory.hpp:77] Creating layer relu2
I0403 14:33:10.232484  1469 net.cpp:91] Creating Layer relu2
I0403 14:33:10.232502  1469 net.cpp:425] relu2 <- conv2
I0403 14:33:10.232523  1469 net.cpp:386] relu2 -> conv2 (in-place)
I0403 14:33:10.232816  1469 net.cpp:141] Setting up relu2
I0403 14:33:10.232844  1469 net.cpp:148] Top shape: 100 256 27 27 (18662400)
I0403 14:33:10.232861  1469 net.cpp:156] Memory required for data: 587609200
I0403 14:33:10.232877  1469 layer_factory.hpp:77] Creating layer norm2
I0403 14:33:10.232902  1469 net.cpp:91] Creating Layer norm2
I0403 14:33:10.232919  1469 net.cpp:425] norm2 <- conv2
I0403 14:33:10.232939  1469 net.cpp:399] norm2 -> norm2
I0403 14:33:10.233144  1469 net.cpp:141] Setting up norm2
I0403 14:33:10.233172  1469 net.cpp:148] Top shape: 100 256 27 27 (18662400)
I0403 14:33:10.233189  1469 net.cpp:156] Memory required for data: 662258800
I0403 14:33:10.233206  1469 layer_factory.hpp:77] Creating layer pool2
I0403 14:33:10.233225  1469 net.cpp:91] Creating Layer pool2
I0403 14:33:10.233242  1469 net.cpp:425] pool2 <- norm2
I0403 14:33:10.233265  1469 net.cpp:399] pool2 -> pool2
I0403 14:33:10.233326  1469 net.cpp:141] Setting up pool2
I0403 14:33:10.233351  1469 net.cpp:148] Top shape: 100 256 13 13 (4326400)
I0403 14:33:10.233366  1469 net.cpp:156] Memory required for data: 679564400
I0403 14:33:10.233382  1469 layer_factory.hpp:77] Creating layer conv3
I0403 14:33:10.233408  1469 net.cpp:91] Creating Layer conv3
I0403 14:33:10.233428  1469 net.cpp:425] conv3 <- pool2
I0403 14:33:10.233448  1469 net.cpp:399] conv3 -> conv3
I0403 14:33:10.273496  1469 net.cpp:141] Setting up conv3
I0403 14:33:10.273560  1469 net.cpp:148] Top shape: 100 384 13 13 (6489600)
I0403 14:33:10.273613  1469 net.cpp:156] Memory required for data: 705522800
I0403 14:33:10.273646  1469 layer_factory.hpp:77] Creating layer relu3
I0403 14:33:10.273670  1469 net.cpp:91] Creating Layer relu3
I0403 14:33:10.273689  1469 net.cpp:425] relu3 <- conv3
I0403 14:33:10.273712  1469 net.cpp:386] relu3 -> conv3 (in-place)
I0403 14:33:10.273993  1469 net.cpp:141] Setting up relu3
I0403 14:33:10.274024  1469 net.cpp:148] Top shape: 100 384 13 13 (6489600)
I0403 14:33:10.274041  1469 net.cpp:156] Memory required for data: 731481200
I0403 14:33:10.274057  1469 layer_factory.hpp:77] Creating layer conv4
I0403 14:33:10.274083  1469 net.cpp:91] Creating Layer conv4
I0403 14:33:10.274101  1469 net.cpp:425] conv4 <- conv3
I0403 14:33:10.274121  1469 net.cpp:399] conv4 -> conv4
I0403 14:33:10.305469  1469 net.cpp:141] Setting up conv4
I0403 14:33:10.305549  1469 net.cpp:148] Top shape: 100 384 13 13 (6489600)
I0403 14:33:10.305598  1469 net.cpp:156] Memory required for data: 757439600
I0403 14:33:10.305622  1469 layer_factory.hpp:77] Creating layer relu4
I0403 14:33:10.305649  1469 net.cpp:91] Creating Layer relu4
I0403 14:33:10.305670  1469 net.cpp:425] relu4 <- conv4
I0403 14:33:10.305690  1469 net.cpp:386] relu4 -> conv4 (in-place)
I0403 14:33:10.305984  1469 net.cpp:141] Setting up relu4
I0403 14:33:10.306012  1469 net.cpp:148] Top shape: 100 384 13 13 (6489600)
I0403 14:33:10.306030  1469 net.cpp:156] Memory required for data: 783398000
I0403 14:33:10.306046  1469 layer_factory.hpp:77] Creating layer conv5
I0403 14:33:10.306077  1469 net.cpp:91] Creating Layer conv5
I0403 14:33:10.306095  1469 net.cpp:425] conv5 <- conv4
I0403 14:33:10.306116  1469 net.cpp:399] conv5 -> conv5
I0403 14:33:10.327775  1469 net.cpp:141] Setting up conv5
I0403 14:33:10.327831  1469 net.cpp:148] Top shape: 100 256 13 13 (4326400)
I0403 14:33:10.327852  1469 net.cpp:156] Memory required for data: 800703600
I0403 14:33:10.327878  1469 layer_factory.hpp:77] Creating layer relu5
I0403 14:33:10.327903  1469 net.cpp:91] Creating Layer relu5
I0403 14:33:10.327920  1469 net.cpp:425] relu5 <- conv5
I0403 14:33:10.327944  1469 net.cpp:386] relu5 -> conv5 (in-place)
I0403 14:33:10.328234  1469 net.cpp:141] Setting up relu5
I0403 14:33:10.328265  1469 net.cpp:148] Top shape: 100 256 13 13 (4326400)
I0403 14:33:10.328287  1469 net.cpp:156] Memory required for data: 818009200
I0403 14:33:10.328305  1469 layer_factory.hpp:77] Creating layer pool5
I0403 14:33:10.328330  1469 net.cpp:91] Creating Layer pool5
I0403 14:33:10.328348  1469 net.cpp:425] pool5 <- conv5
I0403 14:33:10.328372  1469 net.cpp:399] pool5 -> pool5
I0403 14:33:10.328439  1469 net.cpp:141] Setting up pool5
I0403 14:33:10.328466  1469 net.cpp:148] Top shape: 100 256 6 6 (921600)
I0403 14:33:10.328482  1469 net.cpp:156] Memory required for data: 821695600
I0403 14:33:10.328498  1469 layer_factory.hpp:77] Creating layer fc6
I0403 14:33:10.328529  1469 net.cpp:91] Creating Layer fc6
I0403 14:33:10.328549  1469 net.cpp:425] fc6 <- pool5
I0403 14:33:10.328572  1469 net.cpp:399] fc6 -> fc6
I0403 14:33:11.949267  1469 net.cpp:141] Setting up fc6
I0403 14:33:11.949345  1469 net.cpp:148] Top shape: 100 4096 (409600)
I0403 14:33:11.949363  1469 net.cpp:156] Memory required for data: 823334000
I0403 14:33:11.949383  1469 layer_factory.hpp:77] Creating layer relu6
I0403 14:33:11.949410  1469 net.cpp:91] Creating Layer relu6
I0403 14:33:11.949429  1469 net.cpp:425] relu6 <- fc6
I0403 14:33:11.949448  1469 net.cpp:386] relu6 -> fc6 (in-place)
I0403 14:33:11.949658  1469 net.cpp:141] Setting up relu6
I0403 14:33:11.949683  1469 net.cpp:148] Top shape: 100 4096 (409600)
I0403 14:33:11.949698  1469 net.cpp:156] Memory required for data: 824972400
I0403 14:33:11.949713  1469 layer_factory.hpp:77] Creating layer drop6
I0403 14:33:11.949731  1469 net.cpp:91] Creating Layer drop6
I0403 14:33:11.949746  1469 net.cpp:425] drop6 <- fc6
I0403 14:33:11.949767  1469 net.cpp:386] drop6 -> fc6 (in-place)
I0403 14:33:11.949816  1469 net.cpp:141] Setting up drop6
I0403 14:33:11.949839  1469 net.cpp:148] Top shape: 100 4096 (409600)
I0403 14:33:11.949854  1469 net.cpp:156] Memory required for data: 826610800
I0403 14:33:11.949868  1469 layer_factory.hpp:77] Creating layer fc7
I0403 14:33:11.949889  1469 net.cpp:91] Creating Layer fc7
I0403 14:33:11.949905  1469 net.cpp:425] fc7 <- fc6
I0403 14:33:11.949925  1469 net.cpp:399] fc7 -> fc7
I0403 14:33:12.639997  1469 net.cpp:141] Setting up fc7
I0403 14:33:12.640069  1469 net.cpp:148] Top shape: 100 4096 (409600)
I0403 14:33:12.640085  1469 net.cpp:156] Memory required for data: 828249200
I0403 14:33:12.640105  1469 layer_factory.hpp:77] Creating layer relu7
I0403 14:33:12.640126  1469 net.cpp:91] Creating Layer relu7
I0403 14:33:12.640143  1469 net.cpp:425] relu7 <- fc7
I0403 14:33:12.640166  1469 net.cpp:386] relu7 -> fc7 (in-place)
I0403 14:33:12.640579  1469 net.cpp:141] Setting up relu7
I0403 14:33:12.640609  1469 net.cpp:148] Top shape: 100 4096 (409600)
I0403 14:33:12.640657  1469 net.cpp:156] Memory required for data: 829887600
I0403 14:33:12.640674  1469 layer_factory.hpp:77] Creating layer drop7
I0403 14:33:12.640693  1469 net.cpp:91] Creating Layer drop7
I0403 14:33:12.640709  1469 net.cpp:425] drop7 <- fc7
I0403 14:33:12.640741  1469 net.cpp:386] drop7 -> fc7 (in-place)
I0403 14:33:12.640784  1469 net.cpp:141] Setting up drop7
I0403 14:33:12.640805  1469 net.cpp:148] Top shape: 100 4096 (409600)
I0403 14:33:12.640820  1469 net.cpp:156] Memory required for data: 831526000
I0403 14:33:12.640835  1469 layer_factory.hpp:77] Creating layer fc8_plantvillage
I0403 14:33:12.640856  1469 net.cpp:91] Creating Layer fc8_plantvillage
I0403 14:33:12.640872  1469 net.cpp:425] fc8_plantvillage <- fc7
I0403 14:33:12.640892  1469 net.cpp:399] fc8_plantvillage -> fc8_plantvillage
I0403 14:33:12.647516  1469 net.cpp:141] Setting up fc8_plantvillage
I0403 14:33:12.647546  1469 net.cpp:148] Top shape: 100 38 (3800)
I0403 14:33:12.647562  1469 net.cpp:156] Memory required for data: 831541200
I0403 14:33:12.647581  1469 layer_factory.hpp:77] Creating layer fc8_plantvillage_fc8_plantvillage_0_split
I0403 14:33:12.647600  1469 net.cpp:91] Creating Layer fc8_plantvillage_fc8_plantvillage_0_split
I0403 14:33:12.647615  1469 net.cpp:425] fc8_plantvillage_fc8_plantvillage_0_split <- fc8_plantvillage
I0403 14:33:12.647635  1469 net.cpp:399] fc8_plantvillage_fc8_plantvillage_0_split -> fc8_plantvillage_fc8_plantvillage_0_split_0
I0403 14:33:12.647657  1469 net.cpp:399] fc8_plantvillage_fc8_plantvillage_0_split -> fc8_plantvillage_fc8_plantvillage_0_split_1
I0403 14:33:12.647678  1469 net.cpp:399] fc8_plantvillage_fc8_plantvillage_0_split -> fc8_plantvillage_fc8_plantvillage_0_split_2
I0403 14:33:12.647765  1469 net.cpp:141] Setting up fc8_plantvillage_fc8_plantvillage_0_split
I0403 14:33:12.647788  1469 net.cpp:148] Top shape: 100 38 (3800)
I0403 14:33:12.647804  1469 net.cpp:148] Top shape: 100 38 (3800)
I0403 14:33:12.647819  1469 net.cpp:148] Top shape: 100 38 (3800)
I0403 14:33:12.647833  1469 net.cpp:156] Memory required for data: 831586800
I0403 14:33:12.647847  1469 layer_factory.hpp:77] Creating layer prob
I0403 14:33:12.647866  1469 net.cpp:91] Creating Layer prob
I0403 14:33:12.647881  1469 net.cpp:425] prob <- fc8_plantvillage_fc8_plantvillage_0_split_0
I0403 14:33:12.647900  1469 net.cpp:399] prob -> prob
I0403 14:33:12.648115  1469 net.cpp:141] Setting up prob
I0403 14:33:12.648143  1469 net.cpp:148] Top shape: 100 38 (3800)
I0403 14:33:12.648159  1469 net.cpp:156] Memory required for data: 831602000
I0403 14:33:12.648174  1469 layer_factory.hpp:77] Creating layer hdf5out
I0403 14:33:12.648192  1469 net.cpp:91] Creating Layer hdf5out
I0403 14:33:12.648207  1469 net.cpp:425] hdf5out <- prob
I0403 14:33:12.648223  1469 net.cpp:425] hdf5out <- label_data_1_split_0
I0403 14:33:12.650532  1469 net.cpp:141] Setting up hdf5out
…
