…
I0403 14:27:15.591320  1310 net.cpp:313] The NetState phase (1) differed from the phase (0) specified by a rule in layer data
I0403 14:27:15.591629  1310 net.cpp:49] Initializing net from parameters: 
state {
  phase: TEST
}
layer {
  name: "data"
  type: "Data"
  top: "data"
  top: "label"
  include {
    phase: TEST
  }
  transform_param {
    crop_size: 227
    mean_file: "/home/mohanty/data/final_dataset/lmdb/segmented-50-50/mean.binaryproto"
  }
  data_param {
    source: "/home/mohanty/data/final_dataset/lmdb/segmented-50-50/test_db"
    batch_size: 100
    backend: LMDB
  }
}
layer {
  name: "conv1"
  type: "Convolution"
  bottom: "data"
  top: "conv1"
  param {
    lr_mult: 1
    decay_mult: 1
  }
  param {
    lr_mult: 2
    decay_mult: 0
  }
  convolution_param {
    num_output: 96
    kernel_size: 11
    stride: 4
    weight_filler {
      type: "gaussian"
      std: 0.01
    }
    bias_filler {
      type: "constant"
      value: 0
    }
  }
}
layer {
  name: "relu1"
  type: "ReLU"
  bottom: "conv1"
  top: "conv1"
}
layer {
  name: "norm1"
  type: "LRN"
  bottom: "conv1"
  top: "norm1"
  lrn_param {
    local_size: 5
    alpha: 0.0001
    beta: 0.75
  }
}
layer {
  name: "pool1"
  type: "Pooling"
  bottom: "norm1"
  top: "pool1"
  pooling_param {
    pool: MAX
    kernel_size: 3
    stride: 2
  }
}
layer {
  name: "conv2"
  type: "Convolution"
  bottom: "pool1"
  top: "conv2"
  param {
    lr_mult: 1
    decay_mult: 1
  }
  param {
    lr_mult: 2
    decay_mult: 0
  }
  convolution_param {
    num_output: 256
    pad: 2
    kernel_size: 5
    group: 2
    weight_filler {
      type: "gaussian"
      std: 0.01
    }
    bias_filler {
      type: "constant"
      value: 0.1
    }
  }
}
layer {
  name: "relu2"
  type: "ReLU"
  bottom: "conv2"
  top: "conv2"
}
layer {
  name: "norm2"
  type: "LRN"
  bottom: "conv2"
  top: "norm2"
  lrn_param {
    local_size: 5
    alpha: 0.0001
    beta: 0.75
  }
}
layer {
  name: "pool2"
  type: "Pooling"
  bottom: "norm2"
  top: "pool2"
  pooling_param {
    pool: MAX
    kernel_size: 3
    stride: 2
  }
}
layer {
  name: "conv3"
  type: "Convolution"
  bottom: "pool2"
  top: "conv3"
  param {
    lr_mult: 1
    decay_mult: 1
  }
  param {
    lr_mult: 2
    decay_mult: 0
  }
  convolution_param {
    num_output: 384
    pad: 1
    kernel_size: 3
    weight_filler {
      type: "gaussian"
      std: 0.01
    }
    bias_filler {
      type: "constant"
      value: 0
    }
  }
}
layer {
  name: "relu3"
  type: "ReLU"
  bottom: "conv3"
  top: "conv3"
}
layer {
  name: "conv4"
  type: "Convolution"
  bottom: "conv3"
  top: "conv4"
  param {
    lr_mult: 1
    decay_mult: 1
  }
  param {
    lr_mult: 2
    decay_mult: 0
  }
  convolution_param {
    num_output: 384
    pad: 1
    kernel_size: 3
    group: 2
    weight_filler {
      type: "gaussian"
      std: 0.01
    }
    bias_filler {
      type: "constant"
      value: 0.1
    }
  }
}
layer {
  name: "relu4"
  type: "ReLU"
  bottom: "conv4"
  top: "conv4"
}
layer {
  name: "conv5"
  type: "Convolution"
  bottom: "conv4"
  top: "conv5"
  param {
    lr_mult: 1
    decay_mult: 1
  }
  param {
    lr_mult: 2
    decay_mult: 0
  }
  convolution_param {
    num_output: 256
    pad: 1
    kernel_size: 3
    group: 2
    weight_filler {
      type: "gaussian"
      std: 0.01
    }
    bias_filler {
      type: "constant"
      value: 0.1
    }
  }
}
layer {
  name: "relu5"
  type: "ReLU"
  bottom: "conv5"
  top: "conv5"
}
layer {
  name: "pool5"
  type: "Pooling"
  bottom: "conv5"
  top: "pool5"
  pooling_param {
    pool: MAX
    kernel_size: 3
    stride: 2
  }
}
layer {
  name: "fc6"
  type: "InnerProduct"
  bottom: "pool5"
  top: "fc6"
  param {
    lr_mult: 1
    decay_mult: 1
  }
  param {
    lr_mult: 2
    decay_mult: 0
  }
  inner_product_param {
    num_output: 4096
    weight_filler {
      type: "gaussian"
      std: 0.005
    }
    bias_filler {
      type: "constant"
      value: 0.1
    }
  }
}
layer {
  name: "relu6"
  type: "ReLU"
  bottom: "fc6"
  top: "fc6"
}
layer {
  name: "drop6"
  type: "Dropout"
  bottom: "fc6"
  top: "fc6"
  dropout_param {
    dropout_ratio: 0.5
  }
}
layer {
  name: "fc7"
  type: "InnerProduct"
  bottom: "fc6"
  top: "fc7"
  param {
    lr_mult: 1
    decay_mult: 1
  }
  param {
    lr_mult: 2
    decay_mult: 0
  }
  inner_product_param {
    num_output: 4096
    weight_filler {
      type: "gaussian"
      std: 0.005
    }
    bias_filler {
      type: "constant"
      value: 0.1
    }
  }
}
layer {
  name: "relu7"
  type: "ReLU"
  bottom: "fc7"
  top: "fc7"
}
layer {
  name: "drop7"
  type: "Dropout"
  bottom: "fc7"
  top: "fc7"
  dropout_param {
    dropout_ratio: 0.5
  }
}
layer {
  name: "fc8_plantvillage"
  type: "InnerProduct"
  bottom: "fc7"
  top: "fc8_plantvillage"
  param {
    lr_mult: 1
    decay_mult: 1
  }
  param {
    lr_mult: 2
    decay_mult: 0
  }
  inner_product_param {
    num_output: 38
    weight_filler {
      type: "gaussian"
      std: 0.01
    }
    bias_filler {
      type: "constant"
      value: 0
    }
  }
}
layer {
  name: "prob"
  type: "Softmax"
  bottom: "fc8_plantvillage"
  top: "prob"
  include {
    phase: TEST
  }
}
layer {
  name: "hdf5out"
  type: "HDF5Output"
  bottom: "prob"
  bottom: "label"
  include {
    phase: TEST
  }
  hdf5_output_param {
    file_name: "hdf5_dumps/iter_6432.h5"
  }
}
layer {
  name: "loss"
  type: "SoftmaxWithLoss"
  bottom: "fc8_plantvillage"
  bottom: "label"
  top: "loss"
}
layer {
  name: "accuracy"
  type: "Accuracy"
  bottom: "fc8_plantvillage"
  bottom: "label"
  top: "accuracy"
  include {
    phase: TEST
  }
}
I0403 14:27:15.592193  1310 layer_factory.hpp:77] Creating layer data
I0403 14:27:15.592870  1310 net.cpp:91] Creating Layer data
I0403 14:27:15.592905  1310 net.cpp:399] data -> data
I0403 14:27:15.592963  1310 net.cpp:399] data -> label
I0403 14:27:15.593003  1310 data_transformer.cpp:25] Loading mean file from: /home/mohanty/data/final_dataset/lmdb/segmented-50-50/mean.binaryproto
I0403 14:27:15.596279  1314 db_lmdb.cpp:38] Opened lmdb /home/mohanty/data/final_dataset/lmdb/segmented-50-50/test_db
I0403 14:27:15.608325  1310 data_layer.cpp:41] output data size: 100,3,227,227
I0403 14:27:17.787765  1310 net.cpp:141] Setting up data
I0403 14:27:17.787899  1310 net.cpp:148] Top shape: 100 3 227 227 (15458700)
I0403 14:27:17.787926  1310 net.cpp:148] Top shape: 100 (100)
I0403 14:27:17.787945  1310 net.cpp:156] Memory required for data: 61835200
I0403 14:27:17.787978  1310 layer_factory.hpp:77] Creating layer label_data_1_split
I0403 14:27:17.788009  1310 net.cpp:91] Creating Layer label_data_1_split
I0403 14:27:17.788043  1310 net.cpp:425] label_data_1_split <- label
I0403 14:27:17.788080  1310 net.cpp:399] label_data_1_split -> label_data_1_split_0
I0403 14:27:17.788112  1310 net.cpp:399] label_data_1_split -> label_data_1_split_1
I0403 14:27:17.788136  1310 net.cpp:399] label_data_1_split -> label_data_1_split_2
I0403 14:27:17.788218  1310 net.cpp:141] Setting up label_data_1_split
I0403 14:27:17.788254  1310 net.cpp:148] Top shape: 100 (100)
I0403 14:27:17.788277  1310 net.cpp:148] Top shape: 100 (100)
I0403 14:27:17.788296  1310 net.cpp:148] Top shape: 100 (100)
I0403 14:27:17.788319  1310 net.cpp:156] Memory required for data: 61836400
I0403 14:27:17.788339  1310 layer_factory.hpp:77] Creating layer conv1
I0403 14:27:17.788378  1310 net.cpp:91] Creating Layer conv1
I0403 14:27:17.788403  1310 net.cpp:425] conv1 <- data
I0403 14:27:17.788431  1310 net.cpp:399] conv1 -> conv1
I0403 14:27:18.010447  1310 net.cpp:141] Setting up conv1
I0403 14:27:18.010542  1310 net.cpp:148] Top shape: 100 96 55 55 (29040000)
I0403 14:27:18.010565  1310 net.cpp:156] Memory required for data: 177996400
I0403 14:27:18.010601  1310 layer_factory.hpp:77] Creating layer relu1
I0403 14:27:18.010634  1310 net.cpp:91] Creating Layer relu1
I0403 14:27:18.010658  1310 net.cpp:425] relu1 <- conv1
I0403 14:27:18.010680  1310 net.cpp:386] relu1 -> conv1 (in-place)
I0403 14:27:18.010984  1310 net.cpp:141] Setting up relu1
I0403 14:27:18.011018  1310 net.cpp:148] Top shape: 100 96 55 55 (29040000)
I0403 14:27:18.011075  1310 net.cpp:156] Memory required for data: 294156400
I0403 14:27:18.011095  1310 layer_factory.hpp:77] Creating layer norm1
I0403 14:27:18.011127  1310 net.cpp:91] Creating Layer norm1
I0403 14:27:18.011149  1310 net.cpp:425] norm1 <- conv1
I0403 14:27:18.011173  1310 net.cpp:399] norm1 -> norm1
I0403 14:27:18.011543  1310 net.cpp:141] Setting up norm1
I0403 14:27:18.011579  1310 net.cpp:148] Top shape: 100 96 55 55 (29040000)
I0403 14:27:18.011597  1310 net.cpp:156] Memory required for data: 410316400
I0403 14:27:18.011616  1310 layer_factory.hpp:77] Creating layer pool1
I0403 14:27:18.011644  1310 net.cpp:91] Creating Layer pool1
I0403 14:27:18.011665  1310 net.cpp:425] pool1 <- norm1
I0403 14:27:18.011687  1310 net.cpp:399] pool1 -> pool1
I0403 14:27:18.011766  1310 net.cpp:141] Setting up pool1
I0403 14:27:18.011795  1310 net.cpp:148] Top shape: 100 96 27 27 (6998400)
I0403 14:27:18.011813  1310 net.cpp:156] Memory required for data: 438310000
I0403 14:27:18.011831  1310 layer_factory.hpp:77] Creating layer conv2
I0403 14:27:18.011860  1310 net.cpp:91] Creating Layer conv2
I0403 14:27:18.011880  1310 net.cpp:425] conv2 <- pool1
I0403 14:27:18.011904  1310 net.cpp:399] conv2 -> conv2
I0403 14:27:18.031044  1310 net.cpp:141] Setting up conv2
I0403 14:27:18.031117  1310 net.cpp:148] Top shape: 100 256 27 27 (18662400)
I0403 14:27:18.031139  1310 net.cpp:156] Memory required for data: 512959600
I0403 14:27:18.031168  1310 layer_factory.hpp:77] Creating layer relu2
I0403 14:27:18.031194  1310 net.cpp:91] Creating Layer relu2
I0403 14:27:18.031218  1310 net.cpp:425] relu2 <- conv2
I0403 14:27:18.031249  1310 net.cpp:386] relu2 -> conv2 (in-place)
I0403 14:27:18.031579  1310 net.cpp:141] Setting up relu2
I0403 14:27:18.031617  1310 net.cpp:148] Top shape: 100 256 27 27 (18662400)
I0403 14:27:18.031640  1310 net.cpp:156] Memory required for data: 587609200
I0403 14:27:18.031659  1310 layer_factory.hpp:77] Creating layer norm2
I0403 14:27:18.031689  1310 net.cpp:91] Creating Layer norm2
I0403 14:27:18.031710  1310 net.cpp:425] norm2 <- conv2
I0403 14:27:18.031733  1310 net.cpp:399] norm2 -> norm2
I0403 14:27:18.031968  1310 net.cpp:141] Setting up norm2
I0403 14:27:18.032006  1310 net.cpp:148] Top shape: 100 256 27 27 (18662400)
I0403 14:27:18.032024  1310 net.cpp:156] Memory required for data: 662258800
I0403 14:27:18.032043  1310 layer_factory.hpp:77] Creating layer pool2
I0403 14:27:18.032065  1310 net.cpp:91] Creating Layer pool2
I0403 14:27:18.032084  1310 net.cpp:425] pool2 <- norm2
I0403 14:27:18.032109  1310 net.cpp:399] pool2 -> pool2
I0403 14:27:18.032173  1310 net.cpp:141] Setting up pool2
I0403 14:27:18.032202  1310 net.cpp:148] Top shape: 100 256 13 13 (4326400)
I0403 14:27:18.032222  1310 net.cpp:156] Memory required for data: 679564400
I0403 14:27:18.032254  1310 layer_factory.hpp:77] Creating layer conv3
I0403 14:27:18.032289  1310 net.cpp:91] Creating Layer conv3
I0403 14:27:18.032311  1310 net.cpp:425] conv3 <- pool2
I0403 14:27:18.032336  1310 net.cpp:399] conv3 -> conv3
I0403 14:27:18.079424  1310 net.cpp:141] Setting up conv3
I0403 14:27:18.079478  1310 net.cpp:148] Top shape: 100 384 13 13 (6489600)
I0403 14:27:18.079499  1310 net.cpp:156] Memory required for data: 705522800
I0403 14:27:18.079530  1310 layer_factory.hpp:77] Creating layer relu3
I0403 14:27:18.079555  1310 net.cpp:91] Creating Layer relu3
I0403 14:27:18.079576  1310 net.cpp:425] relu3 <- conv3
I0403 14:27:18.079597  1310 net.cpp:386] relu3 -> conv3 (in-place)
I0403 14:27:18.079927  1310 net.cpp:141] Setting up relu3
I0403 14:27:18.079962  1310 net.cpp:148] Top shape: 100 384 13 13 (6489600)
I0403 14:27:18.079982  1310 net.cpp:156] Memory required for data: 731481200
I0403 14:27:18.080000  1310 layer_factory.hpp:77] Creating layer conv4
I0403 14:27:18.080029  1310 net.cpp:91] Creating Layer conv4
I0403 14:27:18.080051  1310 net.cpp:425] conv4 <- conv3
I0403 14:27:18.080075  1310 net.cpp:399] conv4 -> conv4
I0403 14:27:18.116494  1310 net.cpp:141] Setting up conv4
I0403 14:27:18.116585  1310 net.cpp:148] Top shape: 100 384 13 13 (6489600)
I0403 14:27:18.116641  1310 net.cpp:156] Memory required for data: 757439600
I0403 14:27:18.116668  1310 layer_factory.hpp:77] Creating layer relu4
I0403 14:27:18.116698  1310 net.cpp:91] Creating Layer relu4
I0403 14:27:18.116719  1310 net.cpp:425] relu4 <- conv4
I0403 14:27:18.116742  1310 net.cpp:386] relu4 -> conv4 (in-place)
I0403 14:27:18.117070  1310 net.cpp:141] Setting up relu4
I0403 14:27:18.117102  1310 net.cpp:148] Top shape: 100 384 13 13 (6489600)
I0403 14:27:18.117121  1310 net.cpp:156] Memory required for data: 783398000
I0403 14:27:18.117141  1310 layer_factory.hpp:77] Creating layer conv5
I0403 14:27:18.117172  1310 net.cpp:91] Creating Layer conv5
I0403 14:27:18.117193  1310 net.cpp:425] conv5 <- conv4
I0403 14:27:18.117221  1310 net.cpp:399] conv5 -> conv5
I0403 14:27:18.142196  1310 net.cpp:141] Setting up conv5
I0403 14:27:18.142278  1310 net.cpp:148] Top shape: 100 256 13 13 (4326400)
I0403 14:27:18.142300  1310 net.cpp:156] Memory required for data: 800703600
I0403 14:27:18.142331  1310 layer_factory.hpp:77] Creating layer relu5
I0403 14:27:18.142361  1310 net.cpp:91] Creating Layer relu5
I0403 14:27:18.142384  1310 net.cpp:425] relu5 <- conv5
I0403 14:27:18.142408  1310 net.cpp:386] relu5 -> conv5 (in-place)
I0403 14:27:18.142736  1310 net.cpp:141] Setting up relu5
I0403 14:27:18.142772  1310 net.cpp:148] Top shape: 100 256 13 13 (4326400)
I0403 14:27:18.142791  1310 net.cpp:156] Memory required for data: 818009200
I0403 14:27:18.142810  1310 layer_factory.hpp:77] Creating layer pool5
I0403 14:27:18.142837  1310 net.cpp:91] Creating Layer pool5
I0403 14:27:18.142856  1310 net.cpp:425] pool5 <- conv5
I0403 14:27:18.142884  1310 net.cpp:399] pool5 -> pool5
I0403 14:27:18.142959  1310 net.cpp:141] Setting up pool5
I0403 14:27:18.142990  1310 net.cpp:148] Top shape: 100 256 6 6 (921600)
I0403 14:27:18.143009  1310 net.cpp:156] Memory required for data: 821695600
I0403 14:27:18.143026  1310 layer_factory.hpp:77] Creating layer fc6
I0403 14:27:18.143057  1310 net.cpp:91] Creating Layer fc6
I0403 14:27:18.143079  1310 net.cpp:425] fc6 <- pool5
I0403 14:27:18.143103  1310 net.cpp:399] fc6 -> fc6
I0403 14:27:19.870829  1310 net.cpp:141] Setting up fc6
I0403 14:27:19.870887  1310 net.cpp:148] Top shape: 100 4096 (409600)
I0403 14:27:19.870905  1310 net.cpp:156] Memory required for data: 823334000
I0403 14:27:19.870928  1310 layer_factory.hpp:77] Creating layer relu6
I0403 14:27:19.870950  1310 net.cpp:91] Creating Layer relu6
I0403 14:27:19.870968  1310 net.cpp:425] relu6 <- fc6
I0403 14:27:19.870987  1310 net.cpp:386] relu6 -> fc6 (in-place)
I0403 14:27:19.871207  1310 net.cpp:141] Setting up relu6
I0403 14:27:19.871235  1310 net.cpp:148] Top shape: 100 4096 (409600)
I0403 14:27:19.871258  1310 net.cpp:156] Memory required for data: 824972400
I0403 14:27:19.871274  1310 layer_factory.hpp:77] Creating layer drop6
I0403 14:27:19.871292  1310 net.cpp:91] Creating Layer drop6
I0403 14:27:19.871309  1310 net.cpp:425] drop6 <- fc6
I0403 14:27:19.871327  1310 net.cpp:386] drop6 -> fc6 (in-place)
I0403 14:27:19.871379  1310 net.cpp:141] Setting up drop6
I0403 14:27:19.871403  1310 net.cpp:148] Top shape: 100 4096 (409600)
I0403 14:27:19.871417  1310 net.cpp:156] Memory required for data: 826610800
I0403 14:27:19.871433  1310 layer_factory.hpp:77] Creating layer fc7
I0403 14:27:19.871455  1310 net.cpp:91] Creating Layer fc7
I0403 14:27:19.871472  1310 net.cpp:425] fc7 <- fc6
I0403 14:27:19.871492  1310 net.cpp:399] fc7 -> fc7
I0403 14:27:20.557304  1310 net.cpp:141] Setting up fc7
I0403 14:27:20.557346  1310 net.cpp:148] Top shape: 100 4096 (409600)
I0403 14:27:20.557363  1310 net.cpp:156] Memory required for data: 828249200
I0403 14:27:20.557384  1310 layer_factory.hpp:77] Creating layer relu7
I0403 14:27:20.557405  1310 net.cpp:91] Creating Layer relu7
I0403 14:27:20.557423  1310 net.cpp:425] relu7 <- fc7
I0403 14:27:20.557441  1310 net.cpp:386] relu7 -> fc7 (in-place)
I0403 14:27:20.557868  1310 net.cpp:141] Setting up relu7
I0403 14:27:20.557898  1310 net.cpp:148] Top shape: 100 4096 (409600)
I0403 14:27:20.557932  1310 net.cpp:156] Memory required for data: 829887600
I0403 14:27:20.557948  1310 layer_factory.hpp:77] Creating layer drop7
I0403 14:27:20.557967  1310 net.cpp:91] Creating Layer drop7
I0403 14:27:20.557983  1310 net.cpp:425] drop7 <- fc7
I0403 14:27:20.558001  1310 net.cpp:386] drop7 -> fc7 (in-place)
I0403 14:27:20.558045  1310 net.cpp:141] Setting up drop7
I0403 14:27:20.558068  1310 net.cpp:148] Top shape: 100 4096 (409600)
I0403 14:27:20.558081  1310 net.cpp:156] Memory required for data: 831526000
I0403 14:27:20.558096  1310 layer_factory.hpp:77] Creating layer fc8_plantvillage
I0403 14:27:20.558117  1310 net.cpp:91] Creating Layer fc8_plantvillage
I0403 14:27:20.558133  1310 net.cpp:425] fc8_plantvillage <- fc7
I0403 14:27:20.558152  1310 net.cpp:399] fc8_plantvillage -> fc8_plantvillage
I0403 14:27:20.564940  1310 net.cpp:141] Setting up fc8_plantvillage
I0403 14:27:20.564968  1310 net.cpp:148] Top shape: 100 38 (3800)
I0403 14:27:20.564983  1310 net.cpp:156] Memory required for data: 831541200
I0403 14:27:20.565001  1310 layer_factory.hpp:77] Creating layer fc8_plantvillage_fc8_plantvillage_0_split
I0403 14:27:20.565021  1310 net.cpp:91] Creating Layer fc8_plantvillage_fc8_plantvillage_0_split
I0403 14:27:20.565035  1310 net.cpp:425] fc8_plantvillage_fc8_plantvillage_0_split <- fc8_plantvillage
I0403 14:27:20.565054  1310 net.cpp:399] fc8_plantvillage_fc8_plantvillage_0_split -> fc8_plantvillage_fc8_plantvillage_0_split_0
I0403 14:27:20.565075  1310 net.cpp:399] fc8_plantvillage_fc8_plantvillage_0_split -> fc8_plantvillage_fc8_plantvillage_0_split_1
I0403 14:27:20.565095  1310 net.cpp:399] fc8_plantvillage_fc8_plantvillage_0_split -> fc8_plantvillage_fc8_plantvillage_0_split_2
I0403 14:27:20.565171  1310 net.cpp:141] Setting up fc8_plantvillage_fc8_plantvillage_0_split
I0403 14:27:20.565196  1310 net.cpp:148] Top shape: 100 38 (3800)
I0403 14:27:20.565212  1310 net.cpp:148] Top shape: 100 38 (3800)
I0403 14:27:20.565227  1310 net.cpp:148] Top shape: 100 38 (3800)
I0403 14:27:20.565246  1310 net.cpp:156] Memory required for data: 831586800
I0403 14:27:20.565263  1310 layer_factory.hpp:77] Creating layer prob
I0403 14:27:20.565282  1310 net.cpp:91] Creating Layer prob
I0403 14:27:20.565299  1310 net.cpp:425] prob <- fc8_plantvillage_fc8_plantvillage_0_split_0
I0403 14:27:20.565316  1310 net.cpp:399] prob -> prob
I0403 14:27:20.565551  1310 net.cpp:141] Setting up prob
I0403 14:27:20.565582  1310 net.cpp:148] Top shape: 100 38 (3800)
I0403 14:27:20.565598  1310 net.cpp:156] Memory required for data: 831602000
I0403 14:27:20.565613  1310 layer_factory.hpp:77] Creating layer hdf5out
I0403 14:27:20.565631  1310 net.cpp:91] Creating Layer hdf5out
I0403 14:27:20.565647  1310 net.cpp:425] hdf5out <- prob
I0403 14:27:20.565664  1310 net.cpp:425] hdf5out <- label_data_1_split_0
I0403 14:27:20.567929  1310 net.cpp:141] Setting up hdf5out
…
