…
I0403 14:14:40.881708  1037 net.cpp:313] The NetState phase (1) differed from the phase (0) specified by a rule in layer data
I0403 14:14:40.882442  1037 net.cpp:49] Initializing net from parameters: 
state {
  phase: TEST
}
layer {
  name: "data"
  type: "Data"
  top: "data"
  top: "label"
  include {
    phase: TEST
  }
  transform_param {
    crop_size: 227
    mean_file: "/home/mohanty/data/final_dataset/lmdb/segmented-50-50/mean.binaryproto"
  }
  data_param {
    source: "/home/mohanty/data/final_dataset/lmdb/segmented-50-50/test_db"
    batch_size: 100
    backend: LMDB
  }
}
layer {
  name: "conv1"
  type: "Convolution"
  bottom: "data"
  top: "conv1"
  param {
    lr_mult: 1
    decay_mult: 1
  }
  param {
    lr_mult: 2
    decay_mult: 0
  }
  convolution_param {
    num_output: 96
    kernel_size: 11
    stride: 4
    weight_filler {
      type: "gaussian"
      std: 0.01
    }
    bias_filler {
      type: "constant"
      value: 0
    }
  }
}
layer {
  name: "relu1"
  type: "ReLU"
  bottom: "conv1"
  top: "conv1"
}
layer {
  name: "norm1"
  type: "LRN"
  bottom: "conv1"
  top: "norm1"
  lrn_param {
    local_size: 5
    alpha: 0.0001
    beta: 0.75
  }
}
layer {
  name: "pool1"
  type: "Pooling"
  bottom: "norm1"
  top: "pool1"
  pooling_param {
    pool: MAX
    kernel_size: 3
    stride: 2
  }
}
layer {
  name: "conv2"
  type: "Convolution"
  bottom: "pool1"
  top: "conv2"
  param {
    lr_mult: 1
    decay_mult: 1
  }
  param {
    lr_mult: 2
    decay_mult: 0
  }
  convolution_param {
    num_output: 256
    pad: 2
    kernel_size: 5
    group: 2
    weight_filler {
      type: "gaussian"
      std: 0.01
    }
    bias_filler {
      type: "constant"
      value: 0.1
    }
  }
}
layer {
  name: "relu2"
  type: "ReLU"
  bottom: "conv2"
  top: "conv2"
}
layer {
  name: "norm2"
  type: "LRN"
  bottom: "conv2"
  top: "norm2"
  lrn_param {
    local_size: 5
    alpha: 0.0001
    beta: 0.75
  }
}
layer {
  name: "pool2"
  type: "Pooling"
  bottom: "norm2"
  top: "pool2"
  pooling_param {
    pool: MAX
    kernel_size: 3
    stride: 2
  }
}
layer {
  name: "conv3"
  type: "Convolution"
  bottom: "pool2"
  top: "conv3"
  param {
    lr_mult: 1
    decay_mult: 1
  }
  param {
    lr_mult: 2
    decay_mult: 0
  }
  convolution_param {
    num_output: 384
    pad: 1
    kernel_size: 3
    weight_filler {
      type: "gaussian"
      std: 0.01
    }
    bias_filler {
      type: "constant"
      value: 0
    }
  }
}
layer {
  name: "relu3"
  type: "ReLU"
  bottom: "conv3"
  top: "conv3"
}
layer {
  name: "conv4"
  type: "Convolution"
  bottom: "conv3"
  top: "conv4"
  param {
    lr_mult: 1
    decay_mult: 1
  }
  param {
    lr_mult: 2
    decay_mult: 0
  }
  convolution_param {
    num_output: 384
    pad: 1
    kernel_size: 3
    group: 2
    weight_filler {
      type: "gaussian"
      std: 0.01
    }
    bias_filler {
      type: "constant"
      value: 0.1
    }
  }
}
layer {
  name: "relu4"
  type: "ReLU"
  bottom: "conv4"
  top: "conv4"
}
layer {
  name: "conv5"
  type: "Convolution"
  bottom: "conv4"
  top: "conv5"
  param {
    lr_mult: 1
    decay_mult: 1
  }
  param {
    lr_mult: 2
    decay_mult: 0
  }
  convolution_param {
    num_output: 256
    pad: 1
    kernel_size: 3
    group: 2
    weight_filler {
      type: "gaussian"
      std: 0.01
    }
    bias_filler {
      type: "constant"
      value: 0.1
    }
  }
}
layer {
  name: "relu5"
  type: "ReLU"
  bottom: "conv5"
  top: "conv5"
}
layer {
  name: "pool5"
  type: "Pooling"
  bottom: "conv5"
  top: "pool5"
  pooling_param {
    pool: MAX
    kernel_size: 3
    stride: 2
  }
}
layer {
  name: "fc6"
  type: "InnerProduct"
  bottom: "pool5"
  top: "fc6"
  param {
    lr_mult: 1
    decay_mult: 1
  }
  param {
    lr_mult: 2
    decay_mult: 0
  }
  inner_product_param {
    num_output: 4096
    weight_filler {
      type: "gaussian"
      std: 0.005
    }
    bias_filler {
      type: "constant"
      value: 0.1
    }
  }
}
layer {
  name: "relu6"
  type: "ReLU"
  bottom: "fc6"
  top: "fc6"
}
layer {
  name: "drop6"
  type: "Dropout"
  bottom: "fc6"
  top: "fc6"
  dropout_param {
    dropout_ratio: 0.5
  }
}
layer {
  name: "fc7"
  type: "InnerProduct"
  bottom: "fc6"
  top: "fc7"
  param {
    lr_mult: 1
    decay_mult: 1
  }
  param {
    lr_mult: 2
    decay_mult: 0
  }
  inner_product_param {
    num_output: 4096
    weight_filler {
      type: "gaussian"
      std: 0.005
    }
    bias_filler {
      type: "constant"
      value: 0.1
    }
  }
}
layer {
  name: "relu7"
  type: "ReLU"
  bottom: "fc7"
  top: "fc7"
}
layer {
  name: "drop7"
  type: "Dropout"
  bottom: "fc7"
  top: "fc7"
  dropout_param {
    dropout_ratio: 0.5
  }
}
layer {
  name: "fc8_plantvillage"
  type: "InnerProduct"
  bottom: "fc7"
  top: "fc8_plantvillage"
  param {
    lr_mult: 1
    decay_mult: 1
  }
  param {
    lr_mult: 2
    decay_mult: 0
  }
  inner_product_param {
    num_output: 38
    weight_filler {
      type: "gaussian"
      std: 0.01
    }
    bias_filler {
      type: "constant"
      value: 0
    }
  }
}
layer {
  name: "prob"
  type: "Softmax"
  bottom: "fc8_plantvillage"
  top: "prob"
  include {
    phase: TEST
  }
}
layer {
  name: "hdf5out"
  type: "HDF5Output"
  bottom: "prob"
  bottom: "label"
  include {
    phase: TEST
  }
  hdf5_output_param {
    file_name: "hdf5_dumps/iter_2412.h5"
  }
}
layer {
  name: "loss"
  type: "SoftmaxWithLoss"
  bottom: "fc8_plantvillage"
  bottom: "label"
  top: "loss"
}
layer {
  name: "accuracy"
  type: "Accuracy"
  bottom: "fc8_plantvillage"
  bottom: "label"
  top: "accuracy"
  include {
    phase: TEST
  }
}
I0403 14:14:40.883317  1037 layer_factory.hpp:77] Creating layer data
I0403 14:14:40.883941  1037 net.cpp:91] Creating Layer data
I0403 14:14:40.883971  1037 net.cpp:399] data -> data
I0403 14:14:40.884021  1037 net.cpp:399] data -> label
I0403 14:14:40.884055  1037 data_transformer.cpp:25] Loading mean file from: /home/mohanty/data/final_dataset/lmdb/segmented-50-50/mean.binaryproto
I0403 14:14:40.886945  1042 db_lmdb.cpp:38] Opened lmdb /home/mohanty/data/final_dataset/lmdb/segmented-50-50/test_db
I0403 14:14:40.898074  1037 data_layer.cpp:41] output data size: 100,3,227,227
I0403 14:14:41.020050  1037 net.cpp:141] Setting up data
I0403 14:14:41.020145  1037 net.cpp:148] Top shape: 100 3 227 227 (15458700)
I0403 14:14:41.020167  1037 net.cpp:148] Top shape: 100 (100)
I0403 14:14:41.020184  1037 net.cpp:156] Memory required for data: 61835200
I0403 14:14:41.020212  1037 layer_factory.hpp:77] Creating layer label_data_1_split
I0403 14:14:41.020237  1037 net.cpp:91] Creating Layer label_data_1_split
I0403 14:14:41.020259  1037 net.cpp:425] label_data_1_split <- label
I0403 14:14:41.020292  1037 net.cpp:399] label_data_1_split -> label_data_1_split_0
I0403 14:14:41.020318  1037 net.cpp:399] label_data_1_split -> label_data_1_split_1
I0403 14:14:41.020339  1037 net.cpp:399] label_data_1_split -> label_data_1_split_2
I0403 14:14:41.020404  1037 net.cpp:141] Setting up label_data_1_split
I0403 14:14:41.020427  1037 net.cpp:148] Top shape: 100 (100)
I0403 14:14:41.020444  1037 net.cpp:148] Top shape: 100 (100)
I0403 14:14:41.020460  1037 net.cpp:148] Top shape: 100 (100)
I0403 14:14:41.020474  1037 net.cpp:156] Memory required for data: 61836400
I0403 14:14:41.020489  1037 layer_factory.hpp:77] Creating layer conv1
I0403 14:14:41.020521  1037 net.cpp:91] Creating Layer conv1
I0403 14:14:41.020540  1037 net.cpp:425] conv1 <- data
I0403 14:14:41.020558  1037 net.cpp:399] conv1 -> conv1
I0403 14:14:41.161877  1037 net.cpp:141] Setting up conv1
I0403 14:14:41.161942  1037 net.cpp:148] Top shape: 100 96 55 55 (29040000)
I0403 14:14:41.161959  1037 net.cpp:156] Memory required for data: 177996400
I0403 14:14:41.161993  1037 layer_factory.hpp:77] Creating layer relu1
I0403 14:14:41.162020  1037 net.cpp:91] Creating Layer relu1
I0403 14:14:41.162039  1037 net.cpp:425] relu1 <- conv1
I0403 14:14:41.162058  1037 net.cpp:386] relu1 -> conv1 (in-place)
I0403 14:14:41.162349  1037 net.cpp:141] Setting up relu1
I0403 14:14:41.162379  1037 net.cpp:148] Top shape: 100 96 55 55 (29040000)
I0403 14:14:41.162427  1037 net.cpp:156] Memory required for data: 294156400
I0403 14:14:41.162446  1037 layer_factory.hpp:77] Creating layer norm1
I0403 14:14:41.162473  1037 net.cpp:91] Creating Layer norm1
I0403 14:14:41.162492  1037 net.cpp:425] norm1 <- conv1
I0403 14:14:41.162520  1037 net.cpp:399] norm1 -> norm1
I0403 14:14:41.162837  1037 net.cpp:141] Setting up norm1
I0403 14:14:41.162866  1037 net.cpp:148] Top shape: 100 96 55 55 (29040000)
I0403 14:14:41.162883  1037 net.cpp:156] Memory required for data: 410316400
I0403 14:14:41.162899  1037 layer_factory.hpp:77] Creating layer pool1
I0403 14:14:41.162922  1037 net.cpp:91] Creating Layer pool1
I0403 14:14:41.162940  1037 net.cpp:425] pool1 <- norm1
I0403 14:14:41.162958  1037 net.cpp:399] pool1 -> pool1
I0403 14:14:41.163028  1037 net.cpp:141] Setting up pool1
I0403 14:14:41.163051  1037 net.cpp:148] Top shape: 100 96 27 27 (6998400)
I0403 14:14:41.163067  1037 net.cpp:156] Memory required for data: 438310000
I0403 14:14:41.163082  1037 layer_factory.hpp:77] Creating layer conv2
I0403 14:14:41.163107  1037 net.cpp:91] Creating Layer conv2
I0403 14:14:41.163125  1037 net.cpp:425] conv2 <- pool1
I0403 14:14:41.163142  1037 net.cpp:399] conv2 -> conv2
I0403 14:14:41.179136  1037 net.cpp:141] Setting up conv2
I0403 14:14:41.179201  1037 net.cpp:148] Top shape: 100 256 27 27 (18662400)
I0403 14:14:41.179220  1037 net.cpp:156] Memory required for data: 512959600
I0403 14:14:41.179250  1037 layer_factory.hpp:77] Creating layer relu2
I0403 14:14:41.179271  1037 net.cpp:91] Creating Layer relu2
I0403 14:14:41.179288  1037 net.cpp:425] relu2 <- conv2
I0403 14:14:41.179311  1037 net.cpp:386] relu2 -> conv2 (in-place)
I0403 14:14:41.179605  1037 net.cpp:141] Setting up relu2
I0403 14:14:41.179632  1037 net.cpp:148] Top shape: 100 256 27 27 (18662400)
I0403 14:14:41.179648  1037 net.cpp:156] Memory required for data: 587609200
I0403 14:14:41.179664  1037 layer_factory.hpp:77] Creating layer norm2
I0403 14:14:41.179688  1037 net.cpp:91] Creating Layer norm2
I0403 14:14:41.179705  1037 net.cpp:425] norm2 <- conv2
I0403 14:14:41.179724  1037 net.cpp:399] norm2 -> norm2
I0403 14:14:41.179932  1037 net.cpp:141] Setting up norm2
I0403 14:14:41.179982  1037 net.cpp:148] Top shape: 100 256 27 27 (18662400)
I0403 14:14:41.180003  1037 net.cpp:156] Memory required for data: 662258800
I0403 14:14:41.180021  1037 layer_factory.hpp:77] Creating layer pool2
I0403 14:14:41.180040  1037 net.cpp:91] Creating Layer pool2
I0403 14:14:41.180055  1037 net.cpp:425] pool2 <- norm2
I0403 14:14:41.180076  1037 net.cpp:399] pool2 -> pool2
I0403 14:14:41.180132  1037 net.cpp:141] Setting up pool2
I0403 14:14:41.180160  1037 net.cpp:148] Top shape: 100 256 13 13 (4326400)
I0403 14:14:41.180176  1037 net.cpp:156] Memory required for data: 679564400
I0403 14:14:41.180191  1037 layer_factory.hpp:77] Creating layer conv3
I0403 14:14:41.180215  1037 net.cpp:91] Creating Layer conv3
I0403 14:14:41.180243  1037 net.cpp:425] conv3 <- pool2
I0403 14:14:41.180265  1037 net.cpp:399] conv3 -> conv3
I0403 14:14:41.220473  1037 net.cpp:141] Setting up conv3
I0403 14:14:41.220542  1037 net.cpp:148] Top shape: 100 384 13 13 (6489600)
I0403 14:14:41.220559  1037 net.cpp:156] Memory required for data: 705522800
I0403 14:14:41.220583  1037 layer_factory.hpp:77] Creating layer relu3
I0403 14:14:41.220605  1037 net.cpp:91] Creating Layer relu3
I0403 14:14:41.220623  1037 net.cpp:425] relu3 <- conv3
I0403 14:14:41.220645  1037 net.cpp:386] relu3 -> conv3 (in-place)
I0403 14:14:41.220988  1037 net.cpp:141] Setting up relu3
I0403 14:14:41.221015  1037 net.cpp:148] Top shape: 100 384 13 13 (6489600)
I0403 14:14:41.221030  1037 net.cpp:156] Memory required for data: 731481200
I0403 14:14:41.221045  1037 layer_factory.hpp:77] Creating layer conv4
I0403 14:14:41.221071  1037 net.cpp:91] Creating Layer conv4
I0403 14:14:41.221089  1037 net.cpp:425] conv4 <- conv3
I0403 14:14:41.221112  1037 net.cpp:399] conv4 -> conv4
I0403 14:14:41.251924  1037 net.cpp:141] Setting up conv4
I0403 14:14:41.251971  1037 net.cpp:148] Top shape: 100 384 13 13 (6489600)
I0403 14:14:41.252020  1037 net.cpp:156] Memory required for data: 757439600
I0403 14:14:41.252043  1037 layer_factory.hpp:77] Creating layer relu4
I0403 14:14:41.252065  1037 net.cpp:91] Creating Layer relu4
I0403 14:14:41.252082  1037 net.cpp:425] relu4 <- conv4
I0403 14:14:41.252101  1037 net.cpp:386] relu4 -> conv4 (in-place)
I0403 14:14:41.252406  1037 net.cpp:141] Setting up relu4
I0403 14:14:41.252439  1037 net.cpp:148] Top shape: 100 384 13 13 (6489600)
I0403 14:14:41.252456  1037 net.cpp:156] Memory required for data: 783398000
I0403 14:14:41.252472  1037 layer_factory.hpp:77] Creating layer conv5
I0403 14:14:41.252498  1037 net.cpp:91] Creating Layer conv5
I0403 14:14:41.252516  1037 net.cpp:425] conv5 <- conv4
I0403 14:14:41.252537  1037 net.cpp:399] conv5 -> conv5
I0403 14:14:41.274195  1037 net.cpp:141] Setting up conv5
I0403 14:14:41.274273  1037 net.cpp:148] Top shape: 100 256 13 13 (4326400)
I0403 14:14:41.274302  1037 net.cpp:156] Memory required for data: 800703600
I0403 14:14:41.274328  1037 layer_factory.hpp:77] Creating layer relu5
I0403 14:14:41.274350  1037 net.cpp:91] Creating Layer relu5
I0403 14:14:41.274369  1037 net.cpp:425] relu5 <- conv5
I0403 14:14:41.274391  1037 net.cpp:386] relu5 -> conv5 (in-place)
I0403 14:14:41.274701  1037 net.cpp:141] Setting up relu5
I0403 14:14:41.274730  1037 net.cpp:148] Top shape: 100 256 13 13 (4326400)
I0403 14:14:41.274745  1037 net.cpp:156] Memory required for data: 818009200
I0403 14:14:41.274762  1037 layer_factory.hpp:77] Creating layer pool5
I0403 14:14:41.274786  1037 net.cpp:91] Creating Layer pool5
I0403 14:14:41.274804  1037 net.cpp:425] pool5 <- conv5
I0403 14:14:41.274827  1037 net.cpp:399] pool5 -> pool5
I0403 14:14:41.274893  1037 net.cpp:141] Setting up pool5
I0403 14:14:41.274919  1037 net.cpp:148] Top shape: 100 256 6 6 (921600)
I0403 14:14:41.274933  1037 net.cpp:156] Memory required for data: 821695600
I0403 14:14:41.274948  1037 layer_factory.hpp:77] Creating layer fc6
I0403 14:14:41.274979  1037 net.cpp:91] Creating Layer fc6
I0403 14:14:41.274999  1037 net.cpp:425] fc6 <- pool5
I0403 14:14:41.275020  1037 net.cpp:399] fc6 -> fc6
I0403 14:14:42.812088  1037 net.cpp:141] Setting up fc6
I0403 14:14:42.812161  1037 net.cpp:148] Top shape: 100 4096 (409600)
I0403 14:14:42.812176  1037 net.cpp:156] Memory required for data: 823334000
I0403 14:14:42.812197  1037 layer_factory.hpp:77] Creating layer relu6
I0403 14:14:42.812217  1037 net.cpp:91] Creating Layer relu6
I0403 14:14:42.812233  1037 net.cpp:425] relu6 <- fc6
I0403 14:14:42.812263  1037 net.cpp:386] relu6 -> fc6 (in-place)
I0403 14:14:42.812474  1037 net.cpp:141] Setting up relu6
I0403 14:14:42.812499  1037 net.cpp:148] Top shape: 100 4096 (409600)
I0403 14:14:42.812512  1037 net.cpp:156] Memory required for data: 824972400
I0403 14:14:42.812526  1037 layer_factory.hpp:77] Creating layer drop6
I0403 14:14:42.812544  1037 net.cpp:91] Creating Layer drop6
I0403 14:14:42.812559  1037 net.cpp:425] drop6 <- fc6
I0403 14:14:42.812577  1037 net.cpp:386] drop6 -> fc6 (in-place)
I0403 14:14:42.812626  1037 net.cpp:141] Setting up drop6
I0403 14:14:42.812647  1037 net.cpp:148] Top shape: 100 4096 (409600)
I0403 14:14:42.812661  1037 net.cpp:156] Memory required for data: 826610800
I0403 14:14:42.812675  1037 layer_factory.hpp:77] Creating layer fc7
I0403 14:14:42.812697  1037 net.cpp:91] Creating Layer fc7
I0403 14:14:42.812713  1037 net.cpp:425] fc7 <- fc6
I0403 14:14:42.812732  1037 net.cpp:399] fc7 -> fc7
I0403 14:14:43.491024  1037 net.cpp:141] Setting up fc7
I0403 14:14:43.491086  1037 net.cpp:148] Top shape: 100 4096 (409600)
I0403 14:14:43.491101  1037 net.cpp:156] Memory required for data: 828249200
I0403 14:14:43.491124  1037 layer_factory.hpp:77] Creating layer relu7
I0403 14:14:43.491147  1037 net.cpp:91] Creating Layer relu7
I0403 14:14:43.491164  1037 net.cpp:425] relu7 <- fc7
I0403 14:14:43.491186  1037 net.cpp:386] relu7 -> fc7 (in-place)
I0403 14:14:43.491603  1037 net.cpp:141] Setting up relu7
I0403 14:14:43.491631  1037 net.cpp:148] Top shape: 100 4096 (409600)
I0403 14:14:43.491679  1037 net.cpp:156] Memory required for data: 829887600
I0403 14:14:43.491694  1037 layer_factory.hpp:77] Creating layer drop7
I0403 14:14:43.491714  1037 net.cpp:91] Creating Layer drop7
I0403 14:14:43.491729  1037 net.cpp:425] drop7 <- fc7
I0403 14:14:43.491749  1037 net.cpp:386] drop7 -> fc7 (in-place)
I0403 14:14:43.491791  1037 net.cpp:141] Setting up drop7
I0403 14:14:43.491816  1037 net.cpp:148] Top shape: 100 4096 (409600)
I0403 14:14:43.491832  1037 net.cpp:156] Memory required for data: 831526000
I0403 14:14:43.491847  1037 layer_factory.hpp:77] Creating layer fc8_plantvillage
I0403 14:14:43.491866  1037 net.cpp:91] Creating Layer fc8_plantvillage
I0403 14:14:43.491888  1037 net.cpp:425] fc8_plantvillage <- fc7
I0403 14:14:43.491909  1037 net.cpp:399] fc8_plantvillage -> fc8_plantvillage
I0403 14:14:43.498666  1037 net.cpp:141] Setting up fc8_plantvillage
I0403 14:14:43.498697  1037 net.cpp:148] Top shape: 100 38 (3800)
I0403 14:14:43.498713  1037 net.cpp:156] Memory required for data: 831541200
I0403 14:14:43.498731  1037 layer_factory.hpp:77] Creating layer fc8_plantvillage_fc8_plantvillage_0_split
I0403 14:14:43.498750  1037 net.cpp:91] Creating Layer fc8_plantvillage_fc8_plantvillage_0_split
I0403 14:14:43.498774  1037 net.cpp:425] fc8_plantvillage_fc8_plantvillage_0_split <- fc8_plantvillage
I0403 14:14:43.498793  1037 net.cpp:399] fc8_plantvillage_fc8_plantvillage_0_split -> fc8_plantvillage_fc8_plantvillage_0_split_0
I0403 14:14:43.498813  1037 net.cpp:399] fc8_plantvillage_fc8_plantvillage_0_split -> fc8_plantvillage_fc8_plantvillage_0_split_1
I0403 14:14:43.498833  1037 net.cpp:399] fc8_plantvillage_fc8_plantvillage_0_split -> fc8_plantvillage_fc8_plantvillage_0_split_2
I0403 14:14:43.498910  1037 net.cpp:141] Setting up fc8_plantvillage_fc8_plantvillage_0_split
I0403 14:14:43.498937  1037 net.cpp:148] Top shape: 100 38 (3800)
I0403 14:14:43.498955  1037 net.cpp:148] Top shape: 100 38 (3800)
I0403 14:14:43.498970  1037 net.cpp:148] Top shape: 100 38 (3800)
I0403 14:14:43.498983  1037 net.cpp:156] Memory required for data: 831586800
I0403 14:14:43.498997  1037 layer_factory.hpp:77] Creating layer prob
I0403 14:14:43.499017  1037 net.cpp:91] Creating Layer prob
I0403 14:14:43.499032  1037 net.cpp:425] prob <- fc8_plantvillage_fc8_plantvillage_0_split_0
I0403 14:14:43.499050  1037 net.cpp:399] prob -> prob
I0403 14:14:43.499274  1037 net.cpp:141] Setting up prob
I0403 14:14:43.499300  1037 net.cpp:148] Top shape: 100 38 (3800)
I0403 14:14:43.499313  1037 net.cpp:156] Memory required for data: 831602000
I0403 14:14:43.499327  1037 layer_factory.hpp:77] Creating layer hdf5out
I0403 14:14:43.499346  1037 net.cpp:91] Creating Layer hdf5out
I0403 14:14:43.499361  1037 net.cpp:425] hdf5out <- prob
I0403 14:14:43.499377  1037 net.cpp:425] hdf5out <- label_data_1_split_0
I0403 14:14:43.501652  1037 net.cpp:141] Setting up hdf5out
…
