…
I0403 14:07:57.795044   885 net.cpp:313] The NetState phase (1) differed from the phase (0) specified by a rule in layer data
I0403 14:07:57.795378   885 net.cpp:49] Initializing net from parameters: 
state {
  phase: TEST
}
layer {
  name: "data"
  type: "Data"
  top: "data"
  top: "label"
  include {
    phase: TEST
  }
  transform_param {
    crop_size: 227
    mean_file: "/home/mohanty/data/final_dataset/lmdb/segmented-50-50/mean.binaryproto"
  }
  data_param {
    source: "/home/mohanty/data/final_dataset/lmdb/segmented-50-50/test_db"
    batch_size: 100
    backend: LMDB
  }
}
layer {
  name: "conv1"
  type: "Convolution"
  bottom: "data"
  top: "conv1"
  param {
    lr_mult: 1
    decay_mult: 1
  }
  param {
    lr_mult: 2
    decay_mult: 0
  }
  convolution_param {
    num_output: 96
    kernel_size: 11
    stride: 4
    weight_filler {
      type: "gaussian"
      std: 0.01
    }
    bias_filler {
      type: "constant"
      value: 0
    }
  }
}
layer {
  name: "relu1"
  type: "ReLU"
  bottom: "conv1"
  top: "conv1"
}
layer {
  name: "norm1"
  type: "LRN"
  bottom: "conv1"
  top: "norm1"
  lrn_param {
    local_size: 5
    alpha: 0.0001
    beta: 0.75
  }
}
layer {
  name: "pool1"
  type: "Pooling"
  bottom: "norm1"
  top: "pool1"
  pooling_param {
    pool: MAX
    kernel_size: 3
    stride: 2
  }
}
layer {
  name: "conv2"
  type: "Convolution"
  bottom: "pool1"
  top: "conv2"
  param {
    lr_mult: 1
    decay_mult: 1
  }
  param {
    lr_mult: 2
    decay_mult: 0
  }
  convolution_param {
    num_output: 256
    pad: 2
    kernel_size: 5
    group: 2
    weight_filler {
      type: "gaussian"
      std: 0.01
    }
    bias_filler {
      type: "constant"
      value: 0.1
    }
  }
}
layer {
  name: "relu2"
  type: "ReLU"
  bottom: "conv2"
  top: "conv2"
}
layer {
  name: "norm2"
  type: "LRN"
  bottom: "conv2"
  top: "norm2"
  lrn_param {
    local_size: 5
    alpha: 0.0001
    beta: 0.75
  }
}
layer {
  name: "pool2"
  type: "Pooling"
  bottom: "norm2"
  top: "pool2"
  pooling_param {
    pool: MAX
    kernel_size: 3
    stride: 2
  }
}
layer {
  name: "conv3"
  type: "Convolution"
  bottom: "pool2"
  top: "conv3"
  param {
    lr_mult: 1
    decay_mult: 1
  }
  param {
    lr_mult: 2
    decay_mult: 0
  }
  convolution_param {
    num_output: 384
    pad: 1
    kernel_size: 3
    weight_filler {
      type: "gaussian"
      std: 0.01
    }
    bias_filler {
      type: "constant"
      value: 0
    }
  }
}
layer {
  name: "relu3"
  type: "ReLU"
  bottom: "conv3"
  top: "conv3"
}
layer {
  name: "conv4"
  type: "Convolution"
  bottom: "conv3"
  top: "conv4"
  param {
    lr_mult: 1
    decay_mult: 1
  }
  param {
    lr_mult: 2
    decay_mult: 0
  }
  convolution_param {
    num_output: 384
    pad: 1
    kernel_size: 3
    group: 2
    weight_filler {
      type: "gaussian"
      std: 0.01
    }
    bias_filler {
      type: "constant"
      value: 0.1
    }
  }
}
layer {
  name: "relu4"
  type: "ReLU"
  bottom: "conv4"
  top: "conv4"
}
layer {
  name: "conv5"
  type: "Convolution"
  bottom: "conv4"
  top: "conv5"
  param {
    lr_mult: 1
    decay_mult: 1
  }
  param {
    lr_mult: 2
    decay_mult: 0
  }
  convolution_param {
    num_output: 256
    pad: 1
    kernel_size: 3
    group: 2
    weight_filler {
      type: "gaussian"
      std: 0.01
    }
    bias_filler {
      type: "constant"
      value: 0.1
    }
  }
}
layer {
  name: "relu5"
  type: "ReLU"
  bottom: "conv5"
  top: "conv5"
}
layer {
  name: "pool5"
  type: "Pooling"
  bottom: "conv5"
  top: "pool5"
  pooling_param {
    pool: MAX
    kernel_size: 3
    stride: 2
  }
}
layer {
  name: "fc6"
  type: "InnerProduct"
  bottom: "pool5"
  top: "fc6"
  param {
    lr_mult: 1
    decay_mult: 1
  }
  param {
    lr_mult: 2
    decay_mult: 0
  }
  inner_product_param {
    num_output: 4096
    weight_filler {
      type: "gaussian"
      std: 0.005
    }
    bias_filler {
      type: "constant"
      value: 0.1
    }
  }
}
layer {
  name: "relu6"
  type: "ReLU"
  bottom: "fc6"
  top: "fc6"
}
layer {
  name: "drop6"
  type: "Dropout"
  bottom: "fc6"
  top: "fc6"
  dropout_param {
    dropout_ratio: 0.5
  }
}
layer {
  name: "fc7"
  type: "InnerProduct"
  bottom: "fc6"
  top: "fc7"
  param {
    lr_mult: 1
    decay_mult: 1
  }
  param {
    lr_mult: 2
    decay_mult: 0
  }
  inner_product_param {
    num_output: 4096
    weight_filler {
      type: "gaussian"
      std: 0.005
    }
    bias_filler {
      type: "constant"
      value: 0.1
    }
  }
}
layer {
  name: "relu7"
  type: "ReLU"
  bottom: "fc7"
  top: "fc7"
}
layer {
  name: "drop7"
  type: "Dropout"
  bottom: "fc7"
  top: "fc7"
  dropout_param {
    dropout_ratio: 0.5
  }
}
layer {
  name: "fc8_plantvillage"
  type: "InnerProduct"
  bottom: "fc7"
  top: "fc8_plantvillage"
  param {
    lr_mult: 1
    decay_mult: 1
  }
  param {
    lr_mult: 2
    decay_mult: 0
  }
  inner_product_param {
    num_output: 38
    weight_filler {
      type: "gaussian"
      std: 0.01
    }
    bias_filler {
      type: "constant"
      value: 0
    }
  }
}
layer {
  name: "prob"
  type: "Softmax"
  bottom: "fc8_plantvillage"
  top: "prob"
  include {
    phase: TEST
  }
}
layer {
  name: "hdf5out"
  type: "HDF5Output"
  bottom: "prob"
  bottom: "label"
  include {
    phase: TEST
  }
  hdf5_output_param {
    file_name: "hdf5_dumps/iter_268.h5"
  }
}
layer {
  name: "loss"
  type: "SoftmaxWithLoss"
  bottom: "fc8_plantvillage"
  bottom: "label"
  top: "loss"
}
layer {
  name: "accuracy"
  type: "Accuracy"
  bottom: "fc8_plantvillage"
  bottom: "label"
  top: "accuracy"
  include {
    phase: TEST
  }
}
I0403 14:07:57.795984   885 layer_factory.hpp:77] Creating layer data
I0403 14:07:57.796643   885 net.cpp:91] Creating Layer data
I0403 14:07:57.796676   885 net.cpp:399] data -> data
I0403 14:07:57.796728   885 net.cpp:399] data -> label
I0403 14:07:57.796766   885 data_transformer.cpp:25] Loading mean file from: /home/mohanty/data/final_dataset/lmdb/segmented-50-50/mean.binaryproto
I0403 14:07:57.811998   890 db_lmdb.cpp:38] Opened lmdb /home/mohanty/data/final_dataset/lmdb/segmented-50-50/test_db
I0403 14:07:57.835137   885 data_layer.cpp:41] output data size: 100,3,227,227
I0403 14:07:57.952924   885 net.cpp:141] Setting up data
I0403 14:07:57.953032   885 net.cpp:148] Top shape: 100 3 227 227 (15458700)
I0403 14:07:57.953055   885 net.cpp:148] Top shape: 100 (100)
I0403 14:07:57.953073   885 net.cpp:156] Memory required for data: 61835200
I0403 14:07:57.953099   885 layer_factory.hpp:77] Creating layer label_data_1_split
I0403 14:07:57.953125   885 net.cpp:91] Creating Layer label_data_1_split
I0403 14:07:57.953145   885 net.cpp:425] label_data_1_split <- label
I0403 14:07:57.953177   885 net.cpp:399] label_data_1_split -> label_data_1_split_0
I0403 14:07:57.953205   885 net.cpp:399] label_data_1_split -> label_data_1_split_1
I0403 14:07:57.953227   885 net.cpp:399] label_data_1_split -> label_data_1_split_2
I0403 14:07:57.953297   885 net.cpp:141] Setting up label_data_1_split
I0403 14:07:57.953322   885 net.cpp:148] Top shape: 100 (100)
I0403 14:07:57.953339   885 net.cpp:148] Top shape: 100 (100)
I0403 14:07:57.953356   885 net.cpp:148] Top shape: 100 (100)
I0403 14:07:57.953372   885 net.cpp:156] Memory required for data: 61836400
I0403 14:07:57.953388   885 layer_factory.hpp:77] Creating layer conv1
I0403 14:07:57.953421   885 net.cpp:91] Creating Layer conv1
I0403 14:07:57.953440   885 net.cpp:425] conv1 <- data
I0403 14:07:57.953461   885 net.cpp:399] conv1 -> conv1
I0403 14:07:58.091662   885 net.cpp:141] Setting up conv1
I0403 14:07:58.091749   885 net.cpp:148] Top shape: 100 96 55 55 (29040000)
I0403 14:07:58.091768   885 net.cpp:156] Memory required for data: 177996400
I0403 14:07:58.091799   885 layer_factory.hpp:77] Creating layer relu1
I0403 14:07:58.091831   885 net.cpp:91] Creating Layer relu1
I0403 14:07:58.091851   885 net.cpp:425] relu1 <- conv1
I0403 14:07:58.091871   885 net.cpp:386] relu1 -> conv1 (in-place)
I0403 14:07:58.092124   885 net.cpp:141] Setting up relu1
I0403 14:07:58.092152   885 net.cpp:148] Top shape: 100 96 55 55 (29040000)
I0403 14:07:58.092200   885 net.cpp:156] Memory required for data: 294156400
I0403 14:07:58.092218   885 layer_factory.hpp:77] Creating layer norm1
I0403 14:07:58.092247   885 net.cpp:91] Creating Layer norm1
I0403 14:07:58.092267   885 net.cpp:425] norm1 <- conv1
I0403 14:07:58.092308   885 net.cpp:399] norm1 -> norm1
I0403 14:07:58.092614   885 net.cpp:141] Setting up norm1
I0403 14:07:58.092654   885 net.cpp:148] Top shape: 100 96 55 55 (29040000)
I0403 14:07:58.092703   885 net.cpp:156] Memory required for data: 410316400
I0403 14:07:58.092720   885 layer_factory.hpp:77] Creating layer pool1
I0403 14:07:58.092746   885 net.cpp:91] Creating Layer pool1
I0403 14:07:58.092764   885 net.cpp:425] pool1 <- norm1
I0403 14:07:58.092783   885 net.cpp:399] pool1 -> pool1
I0403 14:07:58.092852   885 net.cpp:141] Setting up pool1
I0403 14:07:58.092877   885 net.cpp:148] Top shape: 100 96 27 27 (6998400)
I0403 14:07:58.092895   885 net.cpp:156] Memory required for data: 438310000
I0403 14:07:58.092911   885 layer_factory.hpp:77] Creating layer conv2
I0403 14:07:58.092936   885 net.cpp:91] Creating Layer conv2
I0403 14:07:58.092954   885 net.cpp:425] conv2 <- pool1
I0403 14:07:58.092979   885 net.cpp:399] conv2 -> conv2
I0403 14:07:58.108717   885 net.cpp:141] Setting up conv2
I0403 14:07:58.108774   885 net.cpp:148] Top shape: 100 256 27 27 (18662400)
I0403 14:07:58.108793   885 net.cpp:156] Memory required for data: 512959600
I0403 14:07:58.108820   885 layer_factory.hpp:77] Creating layer relu2
I0403 14:07:58.108846   885 net.cpp:91] Creating Layer relu2
I0403 14:07:58.108865   885 net.cpp:425] relu2 <- conv2
I0403 14:07:58.108886   885 net.cpp:386] relu2 -> conv2 (in-place)
I0403 14:07:58.109177   885 net.cpp:141] Setting up relu2
I0403 14:07:58.109207   885 net.cpp:148] Top shape: 100 256 27 27 (18662400)
I0403 14:07:58.109225   885 net.cpp:156] Memory required for data: 587609200
I0403 14:07:58.109243   885 layer_factory.hpp:77] Creating layer norm2
I0403 14:07:58.109268   885 net.cpp:91] Creating Layer norm2
I0403 14:07:58.109293   885 net.cpp:425] norm2 <- conv2
I0403 14:07:58.109313   885 net.cpp:399] norm2 -> norm2
I0403 14:07:58.109550   885 net.cpp:141] Setting up norm2
I0403 14:07:58.109578   885 net.cpp:148] Top shape: 100 256 27 27 (18662400)
I0403 14:07:58.109596   885 net.cpp:156] Memory required for data: 662258800
I0403 14:07:58.109612   885 layer_factory.hpp:77] Creating layer pool2
I0403 14:07:58.109634   885 net.cpp:91] Creating Layer pool2
I0403 14:07:58.109652   885 net.cpp:425] pool2 <- norm2
I0403 14:07:58.109673   885 net.cpp:399] pool2 -> pool2
I0403 14:07:58.109731   885 net.cpp:141] Setting up pool2
I0403 14:07:58.109756   885 net.cpp:148] Top shape: 100 256 13 13 (4326400)
I0403 14:07:58.109772   885 net.cpp:156] Memory required for data: 679564400
I0403 14:07:58.109789   885 layer_factory.hpp:77] Creating layer conv3
I0403 14:07:58.109815   885 net.cpp:91] Creating Layer conv3
I0403 14:07:58.109833   885 net.cpp:425] conv3 <- pool2
I0403 14:07:58.109856   885 net.cpp:399] conv3 -> conv3
I0403 14:07:58.149864   885 net.cpp:141] Setting up conv3
I0403 14:07:58.149947   885 net.cpp:148] Top shape: 100 384 13 13 (6489600)
I0403 14:07:58.149966   885 net.cpp:156] Memory required for data: 705522800
I0403 14:07:58.149993   885 layer_factory.hpp:77] Creating layer relu3
I0403 14:07:58.150017   885 net.cpp:91] Creating Layer relu3
I0403 14:07:58.150035   885 net.cpp:425] relu3 <- conv3
I0403 14:07:58.150055   885 net.cpp:386] relu3 -> conv3 (in-place)
I0403 14:07:58.150343   885 net.cpp:141] Setting up relu3
I0403 14:07:58.150373   885 net.cpp:148] Top shape: 100 384 13 13 (6489600)
I0403 14:07:58.150390   885 net.cpp:156] Memory required for data: 731481200
I0403 14:07:58.150408   885 layer_factory.hpp:77] Creating layer conv4
I0403 14:07:58.150434   885 net.cpp:91] Creating Layer conv4
I0403 14:07:58.150454   885 net.cpp:425] conv4 <- conv3
I0403 14:07:58.150475   885 net.cpp:399] conv4 -> conv4
I0403 14:07:58.181062   885 net.cpp:141] Setting up conv4
I0403 14:07:58.181109   885 net.cpp:148] Top shape: 100 384 13 13 (6489600)
I0403 14:07:58.181159   885 net.cpp:156] Memory required for data: 757439600
I0403 14:07:58.181181   885 layer_factory.hpp:77] Creating layer relu4
I0403 14:07:58.181205   885 net.cpp:91] Creating Layer relu4
I0403 14:07:58.181224   885 net.cpp:425] relu4 <- conv4
I0403 14:07:58.181243   885 net.cpp:386] relu4 -> conv4 (in-place)
I0403 14:07:58.181537   885 net.cpp:141] Setting up relu4
I0403 14:07:58.181565   885 net.cpp:148] Top shape: 100 384 13 13 (6489600)
I0403 14:07:58.181581   885 net.cpp:156] Memory required for data: 783398000
I0403 14:07:58.181597   885 layer_factory.hpp:77] Creating layer conv5
I0403 14:07:58.181624   885 net.cpp:91] Creating Layer conv5
I0403 14:07:58.181643   885 net.cpp:425] conv5 <- conv4
I0403 14:07:58.181665   885 net.cpp:399] conv5 -> conv5
I0403 14:07:58.203287   885 net.cpp:141] Setting up conv5
I0403 14:07:58.203351   885 net.cpp:148] Top shape: 100 256 13 13 (4326400)
I0403 14:07:58.203429   885 net.cpp:156] Memory required for data: 800703600
I0403 14:07:58.203464   885 layer_factory.hpp:77] Creating layer relu5
I0403 14:07:58.203491   885 net.cpp:91] Creating Layer relu5
I0403 14:07:58.203511   885 net.cpp:425] relu5 <- conv5
I0403 14:07:58.203531   885 net.cpp:386] relu5 -> conv5 (in-place)
I0403 14:07:58.203824   885 net.cpp:141] Setting up relu5
I0403 14:07:58.203855   885 net.cpp:148] Top shape: 100 256 13 13 (4326400)
I0403 14:07:58.203873   885 net.cpp:156] Memory required for data: 818009200
I0403 14:07:58.203891   885 layer_factory.hpp:77] Creating layer pool5
I0403 14:07:58.203914   885 net.cpp:91] Creating Layer pool5
I0403 14:07:58.203933   885 net.cpp:425] pool5 <- conv5
I0403 14:07:58.203955   885 net.cpp:399] pool5 -> pool5
I0403 14:07:58.204021   885 net.cpp:141] Setting up pool5
I0403 14:07:58.204051   885 net.cpp:148] Top shape: 100 256 6 6 (921600)
I0403 14:07:58.204068   885 net.cpp:156] Memory required for data: 821695600
I0403 14:07:58.204085   885 layer_factory.hpp:77] Creating layer fc6
I0403 14:07:58.204114   885 net.cpp:91] Creating Layer fc6
I0403 14:07:58.204134   885 net.cpp:425] fc6 <- pool5
I0403 14:07:58.204157   885 net.cpp:399] fc6 -> fc6
I0403 14:07:59.786058   885 net.cpp:141] Setting up fc6
I0403 14:07:59.786134   885 net.cpp:148] Top shape: 100 4096 (409600)
I0403 14:07:59.786151   885 net.cpp:156] Memory required for data: 823334000
I0403 14:07:59.786175   885 layer_factory.hpp:77] Creating layer relu6
I0403 14:07:59.786200   885 net.cpp:91] Creating Layer relu6
I0403 14:07:59.786217   885 net.cpp:425] relu6 <- fc6
I0403 14:07:59.786239   885 net.cpp:386] relu6 -> fc6 (in-place)
I0403 14:07:59.786459   885 net.cpp:141] Setting up relu6
I0403 14:07:59.786485   885 net.cpp:148] Top shape: 100 4096 (409600)
I0403 14:07:59.786501   885 net.cpp:156] Memory required for data: 824972400
I0403 14:07:59.786517   885 layer_factory.hpp:77] Creating layer drop6
I0403 14:07:59.786540   885 net.cpp:91] Creating Layer drop6
I0403 14:07:59.786556   885 net.cpp:425] drop6 <- fc6
I0403 14:07:59.786576   885 net.cpp:386] drop6 -> fc6 (in-place)
I0403 14:07:59.786628   885 net.cpp:141] Setting up drop6
I0403 14:07:59.786653   885 net.cpp:148] Top shape: 100 4096 (409600)
I0403 14:07:59.786669   885 net.cpp:156] Memory required for data: 826610800
I0403 14:07:59.786684   885 layer_factory.hpp:77] Creating layer fc7
I0403 14:07:59.786708   885 net.cpp:91] Creating Layer fc7
I0403 14:07:59.786725   885 net.cpp:425] fc7 <- fc6
I0403 14:07:59.786744   885 net.cpp:399] fc7 -> fc7
I0403 14:08:00.465558   885 net.cpp:141] Setting up fc7
I0403 14:08:00.465628   885 net.cpp:148] Top shape: 100 4096 (409600)
I0403 14:08:00.465647   885 net.cpp:156] Memory required for data: 828249200
I0403 14:08:00.465668   885 layer_factory.hpp:77] Creating layer relu7
I0403 14:08:00.465692   885 net.cpp:91] Creating Layer relu7
I0403 14:08:00.465709   885 net.cpp:425] relu7 <- fc7
I0403 14:08:00.465729   885 net.cpp:386] relu7 -> fc7 (in-place)
I0403 14:08:00.466151   885 net.cpp:141] Setting up relu7
I0403 14:08:00.466181   885 net.cpp:148] Top shape: 100 4096 (409600)
I0403 14:08:00.466228   885 net.cpp:156] Memory required for data: 829887600
I0403 14:08:00.466244   885 layer_factory.hpp:77] Creating layer drop7
I0403 14:08:00.466264   885 net.cpp:91] Creating Layer drop7
I0403 14:08:00.466286   885 net.cpp:425] drop7 <- fc7
I0403 14:08:00.466306   885 net.cpp:386] drop7 -> fc7 (in-place)
I0403 14:08:00.466352   885 net.cpp:141] Setting up drop7
I0403 14:08:00.466377   885 net.cpp:148] Top shape: 100 4096 (409600)
I0403 14:08:00.466392   885 net.cpp:156] Memory required for data: 831526000
I0403 14:08:00.466406   885 layer_factory.hpp:77] Creating layer fc8_plantvillage
I0403 14:08:00.466429   885 net.cpp:91] Creating Layer fc8_plantvillage
I0403 14:08:00.466455   885 net.cpp:425] fc8_plantvillage <- fc7
I0403 14:08:00.466475   885 net.cpp:399] fc8_plantvillage -> fc8_plantvillage
I0403 14:08:00.473037   885 net.cpp:141] Setting up fc8_plantvillage
I0403 14:08:00.473064   885 net.cpp:148] Top shape: 100 38 (3800)
I0403 14:08:00.473079   885 net.cpp:156] Memory required for data: 831541200
I0403 14:08:00.473098   885 layer_factory.hpp:77] Creating layer fc8_plantvillage_fc8_plantvillage_0_split
I0403 14:08:00.473119   885 net.cpp:91] Creating Layer fc8_plantvillage_fc8_plantvillage_0_split
I0403 14:08:00.473136   885 net.cpp:425] fc8_plantvillage_fc8_plantvillage_0_split <- fc8_plantvillage
I0403 14:08:00.473155   885 net.cpp:399] fc8_plantvillage_fc8_plantvillage_0_split -> fc8_plantvillage_fc8_plantvillage_0_split_0
I0403 14:08:00.473177   885 net.cpp:399] fc8_plantvillage_fc8_plantvillage_0_split -> fc8_plantvillage_fc8_plantvillage_0_split_1
I0403 14:08:00.473198   885 net.cpp:399] fc8_plantvillage_fc8_plantvillage_0_split -> fc8_plantvillage_fc8_plantvillage_0_split_2
I0403 14:08:00.473278   885 net.cpp:141] Setting up fc8_plantvillage_fc8_plantvillage_0_split
I0403 14:08:00.473301   885 net.cpp:148] Top shape: 100 38 (3800)
I0403 14:08:00.473318   885 net.cpp:148] Top shape: 100 38 (3800)
I0403 14:08:00.473335   885 net.cpp:148] Top shape: 100 38 (3800)
I0403 14:08:00.473350   885 net.cpp:156] Memory required for data: 831586800
I0403 14:08:00.473364   885 layer_factory.hpp:77] Creating layer prob
I0403 14:08:00.473386   885 net.cpp:91] Creating Layer prob
I0403 14:08:00.473402   885 net.cpp:425] prob <- fc8_plantvillage_fc8_plantvillage_0_split_0
I0403 14:08:00.473420   885 net.cpp:399] prob -> prob
I0403 14:08:00.473645   885 net.cpp:141] Setting up prob
I0403 14:08:00.473670   885 net.cpp:148] Top shape: 100 38 (3800)
I0403 14:08:00.473685   885 net.cpp:156] Memory required for data: 831602000
I0403 14:08:00.473701   885 layer_factory.hpp:77] Creating layer hdf5out
I0403 14:08:00.473722   885 net.cpp:91] Creating Layer hdf5out
I0403 14:08:00.473739   885 net.cpp:425] hdf5out <- prob
I0403 14:08:00.473755   885 net.cpp:425] hdf5out <- label_data_1_split_0
I0403 14:08:00.482131   885 net.cpp:141] Setting up hdf5out
…
