…
I0403 14:24:43.873059  1257 net.cpp:313] The NetState phase (1) differed from the phase (0) specified by a rule in layer data
I0403 14:24:43.873395  1257 net.cpp:49] Initializing net from parameters: 
state {
  phase: TEST
}
layer {
  name: "data"
  type: "Data"
  top: "data"
  top: "label"
  include {
    phase: TEST
  }
  transform_param {
    crop_size: 227
    mean_file: "/home/mohanty/data/final_dataset/lmdb/segmented-50-50/mean.binaryproto"
  }
  data_param {
    source: "/home/mohanty/data/final_dataset/lmdb/segmented-50-50/test_db"
    batch_size: 100
    backend: LMDB
  }
}
layer {
  name: "conv1"
  type: "Convolution"
  bottom: "data"
  top: "conv1"
  param {
    lr_mult: 1
    decay_mult: 1
  }
  param {
    lr_mult: 2
    decay_mult: 0
  }
  convolution_param {
    num_output: 96
    kernel_size: 11
    stride: 4
    weight_filler {
      type: "gaussian"
      std: 0.01
    }
    bias_filler {
      type: "constant"
      value: 0
    }
  }
}
layer {
  name: "relu1"
  type: "ReLU"
  bottom: "conv1"
  top: "conv1"
}
layer {
  name: "norm1"
  type: "LRN"
  bottom: "conv1"
  top: "norm1"
  lrn_param {
    local_size: 5
    alpha: 0.0001
    beta: 0.75
  }
}
layer {
  name: "pool1"
  type: "Pooling"
  bottom: "norm1"
  top: "pool1"
  pooling_param {
    pool: MAX
    kernel_size: 3
    stride: 2
  }
}
layer {
  name: "conv2"
  type: "Convolution"
  bottom: "pool1"
  top: "conv2"
  param {
    lr_mult: 1
    decay_mult: 1
  }
  param {
    lr_mult: 2
    decay_mult: 0
  }
  convolution_param {
    num_output: 256
    pad: 2
    kernel_size: 5
    group: 2
    weight_filler {
      type: "gaussian"
      std: 0.01
    }
    bias_filler {
      type: "constant"
      value: 0.1
    }
  }
}
layer {
  name: "relu2"
  type: "ReLU"
  bottom: "conv2"
  top: "conv2"
}
layer {
  name: "norm2"
  type: "LRN"
  bottom: "conv2"
  top: "norm2"
  lrn_param {
    local_size: 5
    alpha: 0.0001
    beta: 0.75
  }
}
layer {
  name: "pool2"
  type: "Pooling"
  bottom: "norm2"
  top: "pool2"
  pooling_param {
    pool: MAX
    kernel_size: 3
    stride: 2
  }
}
layer {
  name: "conv3"
  type: "Convolution"
  bottom: "pool2"
  top: "conv3"
  param {
    lr_mult: 1
    decay_mult: 1
  }
  param {
    lr_mult: 2
    decay_mult: 0
  }
  convolution_param {
    num_output: 384
    pad: 1
    kernel_size: 3
    weight_filler {
      type: "gaussian"
      std: 0.01
    }
    bias_filler {
      type: "constant"
      value: 0
    }
  }
}
layer {
  name: "relu3"
  type: "ReLU"
  bottom: "conv3"
  top: "conv3"
}
layer {
  name: "conv4"
  type: "Convolution"
  bottom: "conv3"
  top: "conv4"
  param {
    lr_mult: 1
    decay_mult: 1
  }
  param {
    lr_mult: 2
    decay_mult: 0
  }
  convolution_param {
    num_output: 384
    pad: 1
    kernel_size: 3
    group: 2
    weight_filler {
      type: "gaussian"
      std: 0.01
    }
    bias_filler {
      type: "constant"
      value: 0.1
    }
  }
}
layer {
  name: "relu4"
  type: "ReLU"
  bottom: "conv4"
  top: "conv4"
}
layer {
  name: "conv5"
  type: "Convolution"
  bottom: "conv4"
  top: "conv5"
  param {
    lr_mult: 1
    decay_mult: 1
  }
  param {
    lr_mult: 2
    decay_mult: 0
  }
  convolution_param {
    num_output: 256
    pad: 1
    kernel_size: 3
    group: 2
    weight_filler {
      type: "gaussian"
      std: 0.01
    }
    bias_filler {
      type: "constant"
      value: 0.1
    }
  }
}
layer {
  name: "relu5"
  type: "ReLU"
  bottom: "conv5"
  top: "conv5"
}
layer {
  name: "pool5"
  type: "Pooling"
  bottom: "conv5"
  top: "pool5"
  pooling_param {
    pool: MAX
    kernel_size: 3
    stride: 2
  }
}
layer {
  name: "fc6"
  type: "InnerProduct"
  bottom: "pool5"
  top: "fc6"
  param {
    lr_mult: 1
    decay_mult: 1
  }
  param {
    lr_mult: 2
    decay_mult: 0
  }
  inner_product_param {
    num_output: 4096
    weight_filler {
      type: "gaussian"
      std: 0.005
    }
    bias_filler {
      type: "constant"
      value: 0.1
    }
  }
}
layer {
  name: "relu6"
  type: "ReLU"
  bottom: "fc6"
  top: "fc6"
}
layer {
  name: "drop6"
  type: "Dropout"
  bottom: "fc6"
  top: "fc6"
  dropout_param {
    dropout_ratio: 0.5
  }
}
layer {
  name: "fc7"
  type: "InnerProduct"
  bottom: "fc6"
  top: "fc7"
  param {
    lr_mult: 1
    decay_mult: 1
  }
  param {
    lr_mult: 2
    decay_mult: 0
  }
  inner_product_param {
    num_output: 4096
    weight_filler {
      type: "gaussian"
      std: 0.005
    }
    bias_filler {
      type: "constant"
      value: 0.1
    }
  }
}
layer {
  name: "relu7"
  type: "ReLU"
  bottom: "fc7"
  top: "fc7"
}
layer {
  name: "drop7"
  type: "Dropout"
  bottom: "fc7"
  top: "fc7"
  dropout_param {
    dropout_ratio: 0.5
  }
}
layer {
  name: "fc8_plantvillage"
  type: "InnerProduct"
  bottom: "fc7"
  top: "fc8_plantvillage"
  param {
    lr_mult: 1
    decay_mult: 1
  }
  param {
    lr_mult: 2
    decay_mult: 0
  }
  inner_product_param {
    num_output: 38
    weight_filler {
      type: "gaussian"
      std: 0.01
    }
    bias_filler {
      type: "constant"
      value: 0
    }
  }
}
layer {
  name: "prob"
  type: "Softmax"
  bottom: "fc8_plantvillage"
  top: "prob"
  include {
    phase: TEST
  }
}
layer {
  name: "hdf5out"
  type: "HDF5Output"
  bottom: "prob"
  bottom: "label"
  include {
    phase: TEST
  }
  hdf5_output_param {
    file_name: "hdf5_dumps/iter_5628.h5"
  }
}
layer {
  name: "loss"
  type: "SoftmaxWithLoss"
  bottom: "fc8_plantvillage"
  bottom: "label"
  top: "loss"
}
layer {
  name: "accuracy"
  type: "Accuracy"
  bottom: "fc8_plantvillage"
  bottom: "label"
  top: "accuracy"
  include {
    phase: TEST
  }
}
I0403 14:24:43.873951  1257 layer_factory.hpp:77] Creating layer data
I0403 14:24:43.874590  1257 net.cpp:91] Creating Layer data
I0403 14:24:43.874624  1257 net.cpp:399] data -> data
I0403 14:24:43.874675  1257 net.cpp:399] data -> label
I0403 14:24:43.874712  1257 data_transformer.cpp:25] Loading mean file from: /home/mohanty/data/final_dataset/lmdb/segmented-50-50/mean.binaryproto
I0403 14:24:43.877722  1260 db_lmdb.cpp:38] Opened lmdb /home/mohanty/data/final_dataset/lmdb/segmented-50-50/test_db
I0403 14:24:43.889314  1257 data_layer.cpp:41] output data size: 100,3,227,227
I0403 14:24:44.011837  1257 net.cpp:141] Setting up data
I0403 14:24:44.011942  1257 net.cpp:148] Top shape: 100 3 227 227 (15458700)
I0403 14:24:44.011966  1257 net.cpp:148] Top shape: 100 (100)
I0403 14:24:44.011982  1257 net.cpp:156] Memory required for data: 61835200
I0403 14:24:44.012012  1257 layer_factory.hpp:77] Creating layer label_data_1_split
I0403 14:24:44.012037  1257 net.cpp:91] Creating Layer label_data_1_split
I0403 14:24:44.012056  1257 net.cpp:425] label_data_1_split <- label
I0403 14:24:44.012089  1257 net.cpp:399] label_data_1_split -> label_data_1_split_0
I0403 14:24:44.012116  1257 net.cpp:399] label_data_1_split -> label_data_1_split_1
I0403 14:24:44.012138  1257 net.cpp:399] label_data_1_split -> label_data_1_split_2
I0403 14:24:44.012204  1257 net.cpp:141] Setting up label_data_1_split
I0403 14:24:44.012229  1257 net.cpp:148] Top shape: 100 (100)
I0403 14:24:44.012248  1257 net.cpp:148] Top shape: 100 (100)
I0403 14:24:44.012265  1257 net.cpp:148] Top shape: 100 (100)
I0403 14:24:44.012291  1257 net.cpp:156] Memory required for data: 61836400
I0403 14:24:44.012310  1257 layer_factory.hpp:77] Creating layer conv1
I0403 14:24:44.012343  1257 net.cpp:91] Creating Layer conv1
I0403 14:24:44.012362  1257 net.cpp:425] conv1 <- data
I0403 14:24:44.012384  1257 net.cpp:399] conv1 -> conv1
I0403 14:24:44.150377  1257 net.cpp:141] Setting up conv1
I0403 14:24:44.150426  1257 net.cpp:148] Top shape: 100 96 55 55 (29040000)
I0403 14:24:44.150444  1257 net.cpp:156] Memory required for data: 177996400
I0403 14:24:44.150476  1257 layer_factory.hpp:77] Creating layer relu1
I0403 14:24:44.150508  1257 net.cpp:91] Creating Layer relu1
I0403 14:24:44.150528  1257 net.cpp:425] relu1 <- conv1
I0403 14:24:44.150548  1257 net.cpp:386] relu1 -> conv1 (in-place)
I0403 14:24:44.150825  1257 net.cpp:141] Setting up relu1
I0403 14:24:44.150852  1257 net.cpp:148] Top shape: 100 96 55 55 (29040000)
I0403 14:24:44.150902  1257 net.cpp:156] Memory required for data: 294156400
I0403 14:24:44.150919  1257 layer_factory.hpp:77] Creating layer norm1
I0403 14:24:44.150949  1257 net.cpp:91] Creating Layer norm1
I0403 14:24:44.150969  1257 net.cpp:425] norm1 <- conv1
I0403 14:24:44.150988  1257 net.cpp:399] norm1 -> norm1
I0403 14:24:44.151324  1257 net.cpp:141] Setting up norm1
I0403 14:24:44.151353  1257 net.cpp:148] Top shape: 100 96 55 55 (29040000)
I0403 14:24:44.151371  1257 net.cpp:156] Memory required for data: 410316400
I0403 14:24:44.151387  1257 layer_factory.hpp:77] Creating layer pool1
I0403 14:24:44.151412  1257 net.cpp:91] Creating Layer pool1
I0403 14:24:44.151429  1257 net.cpp:425] pool1 <- norm1
I0403 14:24:44.151451  1257 net.cpp:399] pool1 -> pool1
I0403 14:24:44.151523  1257 net.cpp:141] Setting up pool1
I0403 14:24:44.151547  1257 net.cpp:148] Top shape: 100 96 27 27 (6998400)
I0403 14:24:44.151563  1257 net.cpp:156] Memory required for data: 438310000
I0403 14:24:44.151579  1257 layer_factory.hpp:77] Creating layer conv2
I0403 14:24:44.151607  1257 net.cpp:91] Creating Layer conv2
I0403 14:24:44.151625  1257 net.cpp:425] conv2 <- pool1
I0403 14:24:44.151648  1257 net.cpp:399] conv2 -> conv2
I0403 14:24:44.166754  1257 net.cpp:141] Setting up conv2
I0403 14:24:44.166800  1257 net.cpp:148] Top shape: 100 256 27 27 (18662400)
I0403 14:24:44.166818  1257 net.cpp:156] Memory required for data: 512959600
I0403 14:24:44.166841  1257 layer_factory.hpp:77] Creating layer relu2
I0403 14:24:44.166862  1257 net.cpp:91] Creating Layer relu2
I0403 14:24:44.166879  1257 net.cpp:425] relu2 <- conv2
I0403 14:24:44.166901  1257 net.cpp:386] relu2 -> conv2 (in-place)
I0403 14:24:44.167183  1257 net.cpp:141] Setting up relu2
I0403 14:24:44.167213  1257 net.cpp:148] Top shape: 100 256 27 27 (18662400)
I0403 14:24:44.167230  1257 net.cpp:156] Memory required for data: 587609200
I0403 14:24:44.167248  1257 layer_factory.hpp:77] Creating layer norm2
I0403 14:24:44.167274  1257 net.cpp:91] Creating Layer norm2
I0403 14:24:44.167294  1257 net.cpp:425] norm2 <- conv2
I0403 14:24:44.167314  1257 net.cpp:399] norm2 -> norm2
I0403 14:24:44.167515  1257 net.cpp:141] Setting up norm2
I0403 14:24:44.167543  1257 net.cpp:148] Top shape: 100 256 27 27 (18662400)
I0403 14:24:44.167559  1257 net.cpp:156] Memory required for data: 662258800
I0403 14:24:44.167575  1257 layer_factory.hpp:77] Creating layer pool2
I0403 14:24:44.167594  1257 net.cpp:91] Creating Layer pool2
I0403 14:24:44.167611  1257 net.cpp:425] pool2 <- norm2
I0403 14:24:44.167632  1257 net.cpp:399] pool2 -> pool2
I0403 14:24:44.167685  1257 net.cpp:141] Setting up pool2
I0403 14:24:44.167709  1257 net.cpp:148] Top shape: 100 256 13 13 (4326400)
I0403 14:24:44.167726  1257 net.cpp:156] Memory required for data: 679564400
I0403 14:24:44.167742  1257 layer_factory.hpp:77] Creating layer conv3
I0403 14:24:44.167765  1257 net.cpp:91] Creating Layer conv3
I0403 14:24:44.167783  1257 net.cpp:425] conv3 <- pool2
I0403 14:24:44.167805  1257 net.cpp:399] conv3 -> conv3
I0403 14:24:44.206305  1257 net.cpp:141] Setting up conv3
I0403 14:24:44.206375  1257 net.cpp:148] Top shape: 100 384 13 13 (6489600)
I0403 14:24:44.206393  1257 net.cpp:156] Memory required for data: 705522800
I0403 14:24:44.206419  1257 layer_factory.hpp:77] Creating layer relu3
I0403 14:24:44.206442  1257 net.cpp:91] Creating Layer relu3
I0403 14:24:44.206460  1257 net.cpp:425] relu3 <- conv3
I0403 14:24:44.206480  1257 net.cpp:386] relu3 -> conv3 (in-place)
I0403 14:24:44.206756  1257 net.cpp:141] Setting up relu3
I0403 14:24:44.206786  1257 net.cpp:148] Top shape: 100 384 13 13 (6489600)
I0403 14:24:44.206804  1257 net.cpp:156] Memory required for data: 731481200
I0403 14:24:44.206820  1257 layer_factory.hpp:77] Creating layer conv4
I0403 14:24:44.206847  1257 net.cpp:91] Creating Layer conv4
I0403 14:24:44.206866  1257 net.cpp:425] conv4 <- conv3
I0403 14:24:44.206884  1257 net.cpp:399] conv4 -> conv4
I0403 14:24:44.236701  1257 net.cpp:141] Setting up conv4
I0403 14:24:44.236740  1257 net.cpp:148] Top shape: 100 384 13 13 (6489600)
I0403 14:24:44.236774  1257 net.cpp:156] Memory required for data: 757439600
I0403 14:24:44.236798  1257 layer_factory.hpp:77] Creating layer relu4
I0403 14:24:44.236824  1257 net.cpp:91] Creating Layer relu4
I0403 14:24:44.236843  1257 net.cpp:425] relu4 <- conv4
I0403 14:24:44.236863  1257 net.cpp:386] relu4 -> conv4 (in-place)
I0403 14:24:44.237152  1257 net.cpp:141] Setting up relu4
I0403 14:24:44.237179  1257 net.cpp:148] Top shape: 100 384 13 13 (6489600)
I0403 14:24:44.237196  1257 net.cpp:156] Memory required for data: 783398000
I0403 14:24:44.237211  1257 layer_factory.hpp:77] Creating layer conv5
I0403 14:24:44.237238  1257 net.cpp:91] Creating Layer conv5
I0403 14:24:44.237257  1257 net.cpp:425] conv5 <- conv4
I0403 14:24:44.237283  1257 net.cpp:399] conv5 -> conv5
I0403 14:24:44.257329  1257 net.cpp:141] Setting up conv5
I0403 14:24:44.257375  1257 net.cpp:148] Top shape: 100 256 13 13 (4326400)
I0403 14:24:44.257391  1257 net.cpp:156] Memory required for data: 800703600
I0403 14:24:44.257416  1257 layer_factory.hpp:77] Creating layer relu5
I0403 14:24:44.257438  1257 net.cpp:91] Creating Layer relu5
I0403 14:24:44.257455  1257 net.cpp:425] relu5 <- conv5
I0403 14:24:44.257477  1257 net.cpp:386] relu5 -> conv5 (in-place)
I0403 14:24:44.257745  1257 net.cpp:141] Setting up relu5
I0403 14:24:44.257774  1257 net.cpp:148] Top shape: 100 256 13 13 (4326400)
I0403 14:24:44.257791  1257 net.cpp:156] Memory required for data: 818009200
I0403 14:24:44.257807  1257 layer_factory.hpp:77] Creating layer pool5
I0403 14:24:44.257830  1257 net.cpp:91] Creating Layer pool5
I0403 14:24:44.257846  1257 net.cpp:425] pool5 <- conv5
I0403 14:24:44.257869  1257 net.cpp:399] pool5 -> pool5
I0403 14:24:44.257927  1257 net.cpp:141] Setting up pool5
I0403 14:24:44.257954  1257 net.cpp:148] Top shape: 100 256 6 6 (921600)
I0403 14:24:44.257971  1257 net.cpp:156] Memory required for data: 821695600
I0403 14:24:44.257987  1257 layer_factory.hpp:77] Creating layer fc6
I0403 14:24:44.258013  1257 net.cpp:91] Creating Layer fc6
I0403 14:24:44.258031  1257 net.cpp:425] fc6 <- pool5
I0403 14:24:44.258054  1257 net.cpp:399] fc6 -> fc6
I0403 14:24:45.788321  1257 net.cpp:141] Setting up fc6
I0403 14:24:45.788368  1257 net.cpp:148] Top shape: 100 4096 (409600)
I0403 14:24:45.788385  1257 net.cpp:156] Memory required for data: 823334000
I0403 14:24:45.788408  1257 layer_factory.hpp:77] Creating layer relu6
I0403 14:24:45.788429  1257 net.cpp:91] Creating Layer relu6
I0403 14:24:45.788447  1257 net.cpp:425] relu6 <- fc6
I0403 14:24:45.788466  1257 net.cpp:386] relu6 -> fc6 (in-place)
I0403 14:24:45.788676  1257 net.cpp:141] Setting up relu6
I0403 14:24:45.788702  1257 net.cpp:148] Top shape: 100 4096 (409600)
I0403 14:24:45.788717  1257 net.cpp:156] Memory required for data: 824972400
I0403 14:24:45.788733  1257 layer_factory.hpp:77] Creating layer drop6
I0403 14:24:45.788751  1257 net.cpp:91] Creating Layer drop6
I0403 14:24:45.788768  1257 net.cpp:425] drop6 <- fc6
I0403 14:24:45.788786  1257 net.cpp:386] drop6 -> fc6 (in-place)
I0403 14:24:45.788836  1257 net.cpp:141] Setting up drop6
I0403 14:24:45.788857  1257 net.cpp:148] Top shape: 100 4096 (409600)
I0403 14:24:45.788872  1257 net.cpp:156] Memory required for data: 826610800
I0403 14:24:45.788887  1257 layer_factory.hpp:77] Creating layer fc7
I0403 14:24:45.788913  1257 net.cpp:91] Creating Layer fc7
I0403 14:24:45.788929  1257 net.cpp:425] fc7 <- fc6
I0403 14:24:45.788950  1257 net.cpp:399] fc7 -> fc7
I0403 14:24:46.467623  1257 net.cpp:141] Setting up fc7
I0403 14:24:46.467664  1257 net.cpp:148] Top shape: 100 4096 (409600)
I0403 14:24:46.467680  1257 net.cpp:156] Memory required for data: 828249200
I0403 14:24:46.467701  1257 layer_factory.hpp:77] Creating layer relu7
I0403 14:24:46.467722  1257 net.cpp:91] Creating Layer relu7
I0403 14:24:46.467739  1257 net.cpp:425] relu7 <- fc7
I0403 14:24:46.467758  1257 net.cpp:386] relu7 -> fc7 (in-place)
I0403 14:24:46.468164  1257 net.cpp:141] Setting up relu7
I0403 14:24:46.468192  1257 net.cpp:148] Top shape: 100 4096 (409600)
I0403 14:24:46.468238  1257 net.cpp:156] Memory required for data: 829887600
I0403 14:24:46.468255  1257 layer_factory.hpp:77] Creating layer drop7
I0403 14:24:46.468279  1257 net.cpp:91] Creating Layer drop7
I0403 14:24:46.468297  1257 net.cpp:425] drop7 <- fc7
I0403 14:24:46.468314  1257 net.cpp:386] drop7 -> fc7 (in-place)
I0403 14:24:46.468358  1257 net.cpp:141] Setting up drop7
I0403 14:24:46.468381  1257 net.cpp:148] Top shape: 100 4096 (409600)
I0403 14:24:46.468396  1257 net.cpp:156] Memory required for data: 831526000
I0403 14:24:46.468410  1257 layer_factory.hpp:77] Creating layer fc8_plantvillage
I0403 14:24:46.468433  1257 net.cpp:91] Creating Layer fc8_plantvillage
I0403 14:24:46.468449  1257 net.cpp:425] fc8_plantvillage <- fc7
I0403 14:24:46.468467  1257 net.cpp:399] fc8_plantvillage -> fc8_plantvillage
I0403 14:24:46.474992  1257 net.cpp:141] Setting up fc8_plantvillage
I0403 14:24:46.475021  1257 net.cpp:148] Top shape: 100 38 (3800)
I0403 14:24:46.475038  1257 net.cpp:156] Memory required for data: 831541200
I0403 14:24:46.475055  1257 layer_factory.hpp:77] Creating layer fc8_plantvillage_fc8_plantvillage_0_split
I0403 14:24:46.475075  1257 net.cpp:91] Creating Layer fc8_plantvillage_fc8_plantvillage_0_split
I0403 14:24:46.475090  1257 net.cpp:425] fc8_plantvillage_fc8_plantvillage_0_split <- fc8_plantvillage
I0403 14:24:46.475111  1257 net.cpp:399] fc8_plantvillage_fc8_plantvillage_0_split -> fc8_plantvillage_fc8_plantvillage_0_split_0
I0403 14:24:46.475132  1257 net.cpp:399] fc8_plantvillage_fc8_plantvillage_0_split -> fc8_plantvillage_fc8_plantvillage_0_split_1
I0403 14:24:46.475152  1257 net.cpp:399] fc8_plantvillage_fc8_plantvillage_0_split -> fc8_plantvillage_fc8_plantvillage_0_split_2
I0403 14:24:46.475226  1257 net.cpp:141] Setting up fc8_plantvillage_fc8_plantvillage_0_split
I0403 14:24:46.475250  1257 net.cpp:148] Top shape: 100 38 (3800)
I0403 14:24:46.475266  1257 net.cpp:148] Top shape: 100 38 (3800)
I0403 14:24:46.475288  1257 net.cpp:148] Top shape: 100 38 (3800)
I0403 14:24:46.475303  1257 net.cpp:156] Memory required for data: 831586800
I0403 14:24:46.475318  1257 layer_factory.hpp:77] Creating layer prob
I0403 14:24:46.475339  1257 net.cpp:91] Creating Layer prob
I0403 14:24:46.475356  1257 net.cpp:425] prob <- fc8_plantvillage_fc8_plantvillage_0_split_0
I0403 14:24:46.475374  1257 net.cpp:399] prob -> prob
I0403 14:24:46.475590  1257 net.cpp:141] Setting up prob
I0403 14:24:46.475618  1257 net.cpp:148] Top shape: 100 38 (3800)
I0403 14:24:46.475635  1257 net.cpp:156] Memory required for data: 831602000
I0403 14:24:46.475651  1257 layer_factory.hpp:77] Creating layer hdf5out
I0403 14:24:46.475669  1257 net.cpp:91] Creating Layer hdf5out
I0403 14:24:46.475685  1257 net.cpp:425] hdf5out <- prob
I0403 14:24:46.475702  1257 net.cpp:425] hdf5out <- label_data_1_split_0
I0403 14:24:46.478210  1257 net.cpp:141] Setting up hdf5out
…
