…
I0403 14:29:48.489085  1374 net.cpp:313] The NetState phase (1) differed from the phase (0) specified by a rule in layer data
I0403 14:29:48.489400  1374 net.cpp:49] Initializing net from parameters: 
state {
  phase: TEST
}
layer {
  name: "data"
  type: "Data"
  top: "data"
  top: "label"
  include {
    phase: TEST
  }
  transform_param {
    crop_size: 227
    mean_file: "/home/mohanty/data/final_dataset/lmdb/segmented-50-50/mean.binaryproto"
  }
  data_param {
    source: "/home/mohanty/data/final_dataset/lmdb/segmented-50-50/test_db"
    batch_size: 100
    backend: LMDB
  }
}
layer {
  name: "conv1"
  type: "Convolution"
  bottom: "data"
  top: "conv1"
  param {
    lr_mult: 1
    decay_mult: 1
  }
  param {
    lr_mult: 2
    decay_mult: 0
  }
  convolution_param {
    num_output: 96
    kernel_size: 11
    stride: 4
    weight_filler {
      type: "gaussian"
      std: 0.01
    }
    bias_filler {
      type: "constant"
      value: 0
    }
  }
}
layer {
  name: "relu1"
  type: "ReLU"
  bottom: "conv1"
  top: "conv1"
}
layer {
  name: "norm1"
  type: "LRN"
  bottom: "conv1"
  top: "norm1"
  lrn_param {
    local_size: 5
    alpha: 0.0001
    beta: 0.75
  }
}
layer {
  name: "pool1"
  type: "Pooling"
  bottom: "norm1"
  top: "pool1"
  pooling_param {
    pool: MAX
    kernel_size: 3
    stride: 2
  }
}
layer {
  name: "conv2"
  type: "Convolution"
  bottom: "pool1"
  top: "conv2"
  param {
    lr_mult: 1
    decay_mult: 1
  }
  param {
    lr_mult: 2
    decay_mult: 0
  }
  convolution_param {
    num_output: 256
    pad: 2
    kernel_size: 5
    group: 2
    weight_filler {
      type: "gaussian"
      std: 0.01
    }
    bias_filler {
      type: "constant"
      value: 0.1
    }
  }
}
layer {
  name: "relu2"
  type: "ReLU"
  bottom: "conv2"
  top: "conv2"
}
layer {
  name: "norm2"
  type: "LRN"
  bottom: "conv2"
  top: "norm2"
  lrn_param {
    local_size: 5
    alpha: 0.0001
    beta: 0.75
  }
}
layer {
  name: "pool2"
  type: "Pooling"
  bottom: "norm2"
  top: "pool2"
  pooling_param {
    pool: MAX
    kernel_size: 3
    stride: 2
  }
}
layer {
  name: "conv3"
  type: "Convolution"
  bottom: "pool2"
  top: "conv3"
  param {
    lr_mult: 1
    decay_mult: 1
  }
  param {
    lr_mult: 2
    decay_mult: 0
  }
  convolution_param {
    num_output: 384
    pad: 1
    kernel_size: 3
    weight_filler {
      type: "gaussian"
      std: 0.01
    }
    bias_filler {
      type: "constant"
      value: 0
    }
  }
}
layer {
  name: "relu3"
  type: "ReLU"
  bottom: "conv3"
  top: "conv3"
}
layer {
  name: "conv4"
  type: "Convolution"
  bottom: "conv3"
  top: "conv4"
  param {
    lr_mult: 1
    decay_mult: 1
  }
  param {
    lr_mult: 2
    decay_mult: 0
  }
  convolution_param {
    num_output: 384
    pad: 1
    kernel_size: 3
    group: 2
    weight_filler {
      type: "gaussian"
      std: 0.01
    }
    bias_filler {
      type: "constant"
      value: 0.1
    }
  }
}
layer {
  name: "relu4"
  type: "ReLU"
  bottom: "conv4"
  top: "conv4"
}
layer {
  name: "conv5"
  type: "Convolution"
  bottom: "conv4"
  top: "conv5"
  param {
    lr_mult: 1
    decay_mult: 1
  }
  param {
    lr_mult: 2
    decay_mult: 0
  }
  convolution_param {
    num_output: 256
    pad: 1
    kernel_size: 3
    group: 2
    weight_filler {
      type: "gaussian"
      std: 0.01
    }
    bias_filler {
      type: "constant"
      value: 0.1
    }
  }
}
layer {
  name: "relu5"
  type: "ReLU"
  bottom: "conv5"
  top: "conv5"
}
layer {
  name: "pool5"
  type: "Pooling"
  bottom: "conv5"
  top: "pool5"
  pooling_param {
    pool: MAX
    kernel_size: 3
    stride: 2
  }
}
layer {
  name: "fc6"
  type: "InnerProduct"
  bottom: "pool5"
  top: "fc6"
  param {
    lr_mult: 1
    decay_mult: 1
  }
  param {
    lr_mult: 2
    decay_mult: 0
  }
  inner_product_param {
    num_output: 4096
    weight_filler {
      type: "gaussian"
      std: 0.005
    }
    bias_filler {
      type: "constant"
      value: 0.1
    }
  }
}
layer {
  name: "relu6"
  type: "ReLU"
  bottom: "fc6"
  top: "fc6"
}
layer {
  name: "drop6"
  type: "Dropout"
  bottom: "fc6"
  top: "fc6"
  dropout_param {
    dropout_ratio: 0.5
  }
}
layer {
  name: "fc7"
  type: "InnerProduct"
  bottom: "fc6"
  top: "fc7"
  param {
    lr_mult: 1
    decay_mult: 1
  }
  param {
    lr_mult: 2
    decay_mult: 0
  }
  inner_product_param {
    num_output: 4096
    weight_filler {
      type: "gaussian"
      std: 0.005
    }
    bias_filler {
      type: "constant"
      value: 0.1
    }
  }
}
layer {
  name: "relu7"
  type: "ReLU"
  bottom: "fc7"
  top: "fc7"
}
layer {
  name: "drop7"
  type: "Dropout"
  bottom: "fc7"
  top: "fc7"
  dropout_param {
    dropout_ratio: 0.5
  }
}
layer {
  name: "fc8_plantvillage"
  type: "InnerProduct"
  bottom: "fc7"
  top: "fc8_plantvillage"
  param {
    lr_mult: 1
    decay_mult: 1
  }
  param {
    lr_mult: 2
    decay_mult: 0
  }
  inner_product_param {
    num_output: 38
    weight_filler {
      type: "gaussian"
      std: 0.01
    }
    bias_filler {
      type: "constant"
      value: 0
    }
  }
}
layer {
  name: "prob"
  type: "Softmax"
  bottom: "fc8_plantvillage"
  top: "prob"
  include {
    phase: TEST
  }
}
layer {
  name: "hdf5out"
  type: "HDF5Output"
  bottom: "prob"
  bottom: "label"
  include {
    phase: TEST
  }
  hdf5_output_param {
    file_name: "hdf5_dumps/iter_7236.h5"
  }
}
layer {
  name: "loss"
  type: "SoftmaxWithLoss"
  bottom: "fc8_plantvillage"
  bottom: "label"
  top: "loss"
}
layer {
  name: "accuracy"
  type: "Accuracy"
  bottom: "fc8_plantvillage"
  bottom: "label"
  top: "accuracy"
  include {
    phase: TEST
  }
}
I0403 14:29:48.490002  1374 layer_factory.hpp:77] Creating layer data
I0403 14:29:48.490648  1374 net.cpp:91] Creating Layer data
I0403 14:29:48.490679  1374 net.cpp:399] data -> data
I0403 14:29:48.490731  1374 net.cpp:399] data -> label
I0403 14:29:48.490767  1374 data_transformer.cpp:25] Loading mean file from: /home/mohanty/data/final_dataset/lmdb/segmented-50-50/mean.binaryproto
I0403 14:29:48.494101  1376 db_lmdb.cpp:38] Opened lmdb /home/mohanty/data/final_dataset/lmdb/segmented-50-50/test_db
I0403 14:29:48.505012  1374 data_layer.cpp:41] output data size: 100,3,227,227
I0403 14:29:48.623498  1374 net.cpp:141] Setting up data
I0403 14:29:48.623558  1374 net.cpp:148] Top shape: 100 3 227 227 (15458700)
I0403 14:29:48.623581  1374 net.cpp:148] Top shape: 100 (100)
I0403 14:29:48.623596  1374 net.cpp:156] Memory required for data: 61835200
I0403 14:29:48.623622  1374 layer_factory.hpp:77] Creating layer label_data_1_split
I0403 14:29:48.623647  1374 net.cpp:91] Creating Layer label_data_1_split
I0403 14:29:48.623666  1374 net.cpp:425] label_data_1_split <- label
I0403 14:29:48.623697  1374 net.cpp:399] label_data_1_split -> label_data_1_split_0
I0403 14:29:48.623723  1374 net.cpp:399] label_data_1_split -> label_data_1_split_1
I0403 14:29:48.623744  1374 net.cpp:399] label_data_1_split -> label_data_1_split_2
I0403 14:29:48.623806  1374 net.cpp:141] Setting up label_data_1_split
I0403 14:29:48.623829  1374 net.cpp:148] Top shape: 100 (100)
I0403 14:29:48.623847  1374 net.cpp:148] Top shape: 100 (100)
I0403 14:29:48.623863  1374 net.cpp:148] Top shape: 100 (100)
I0403 14:29:48.623878  1374 net.cpp:156] Memory required for data: 61836400
I0403 14:29:48.623893  1374 layer_factory.hpp:77] Creating layer conv1
I0403 14:29:48.623925  1374 net.cpp:91] Creating Layer conv1
I0403 14:29:48.623944  1374 net.cpp:425] conv1 <- data
I0403 14:29:48.623963  1374 net.cpp:399] conv1 -> conv1
I0403 14:29:48.767211  1374 net.cpp:141] Setting up conv1
I0403 14:29:48.767297  1374 net.cpp:148] Top shape: 100 96 55 55 (29040000)
I0403 14:29:48.767313  1374 net.cpp:156] Memory required for data: 177996400
I0403 14:29:48.767343  1374 layer_factory.hpp:77] Creating layer relu1
I0403 14:29:48.767369  1374 net.cpp:91] Creating Layer relu1
I0403 14:29:48.767387  1374 net.cpp:425] relu1 <- conv1
I0403 14:29:48.767408  1374 net.cpp:386] relu1 -> conv1 (in-place)
I0403 14:29:48.767679  1374 net.cpp:141] Setting up relu1
I0403 14:29:48.767706  1374 net.cpp:148] Top shape: 100 96 55 55 (29040000)
I0403 14:29:48.767752  1374 net.cpp:156] Memory required for data: 294156400
I0403 14:29:48.767770  1374 layer_factory.hpp:77] Creating layer norm1
I0403 14:29:48.767798  1374 net.cpp:91] Creating Layer norm1
I0403 14:29:48.767815  1374 net.cpp:425] norm1 <- conv1
I0403 14:29:48.767833  1374 net.cpp:399] norm1 -> norm1
I0403 14:29:48.768200  1374 net.cpp:141] Setting up norm1
I0403 14:29:48.768229  1374 net.cpp:148] Top shape: 100 96 55 55 (29040000)
I0403 14:29:48.768249  1374 net.cpp:156] Memory required for data: 410316400
I0403 14:29:48.768263  1374 layer_factory.hpp:77] Creating layer pool1
I0403 14:29:48.768288  1374 net.cpp:91] Creating Layer pool1
I0403 14:29:48.768306  1374 net.cpp:425] pool1 <- norm1
I0403 14:29:48.768324  1374 net.cpp:399] pool1 -> pool1
I0403 14:29:48.768393  1374 net.cpp:141] Setting up pool1
I0403 14:29:48.768415  1374 net.cpp:148] Top shape: 100 96 27 27 (6998400)
I0403 14:29:48.768430  1374 net.cpp:156] Memory required for data: 438310000
I0403 14:29:48.768445  1374 layer_factory.hpp:77] Creating layer conv2
I0403 14:29:48.768471  1374 net.cpp:91] Creating Layer conv2
I0403 14:29:48.768487  1374 net.cpp:425] conv2 <- pool1
I0403 14:29:48.768507  1374 net.cpp:399] conv2 -> conv2
I0403 14:29:48.783344  1374 net.cpp:141] Setting up conv2
I0403 14:29:48.783380  1374 net.cpp:148] Top shape: 100 256 27 27 (18662400)
I0403 14:29:48.783398  1374 net.cpp:156] Memory required for data: 512959600
I0403 14:29:48.783421  1374 layer_factory.hpp:77] Creating layer relu2
I0403 14:29:48.783440  1374 net.cpp:91] Creating Layer relu2
I0403 14:29:48.783455  1374 net.cpp:425] relu2 <- conv2
I0403 14:29:48.783473  1374 net.cpp:386] relu2 -> conv2 (in-place)
I0403 14:29:48.783753  1374 net.cpp:141] Setting up relu2
I0403 14:29:48.783784  1374 net.cpp:148] Top shape: 100 256 27 27 (18662400)
I0403 14:29:48.783802  1374 net.cpp:156] Memory required for data: 587609200
I0403 14:29:48.783817  1374 layer_factory.hpp:77] Creating layer norm2
I0403 14:29:48.783836  1374 net.cpp:91] Creating Layer norm2
I0403 14:29:48.783852  1374 net.cpp:425] norm2 <- conv2
I0403 14:29:48.783874  1374 net.cpp:399] norm2 -> norm2
I0403 14:29:48.784133  1374 net.cpp:141] Setting up norm2
I0403 14:29:48.784163  1374 net.cpp:148] Top shape: 100 256 27 27 (18662400)
I0403 14:29:48.784179  1374 net.cpp:156] Memory required for data: 662258800
I0403 14:29:48.784194  1374 layer_factory.hpp:77] Creating layer pool2
I0403 14:29:48.784212  1374 net.cpp:91] Creating Layer pool2
I0403 14:29:48.784229  1374 net.cpp:425] pool2 <- norm2
I0403 14:29:48.784251  1374 net.cpp:399] pool2 -> pool2
I0403 14:29:48.784307  1374 net.cpp:141] Setting up pool2
I0403 14:29:48.784330  1374 net.cpp:148] Top shape: 100 256 13 13 (4326400)
I0403 14:29:48.784345  1374 net.cpp:156] Memory required for data: 679564400
I0403 14:29:48.784360  1374 layer_factory.hpp:77] Creating layer conv3
I0403 14:29:48.784384  1374 net.cpp:91] Creating Layer conv3
I0403 14:29:48.784401  1374 net.cpp:425] conv3 <- pool2
I0403 14:29:48.784421  1374 net.cpp:399] conv3 -> conv3
I0403 14:29:48.823557  1374 net.cpp:141] Setting up conv3
I0403 14:29:48.823642  1374 net.cpp:148] Top shape: 100 384 13 13 (6489600)
I0403 14:29:48.823658  1374 net.cpp:156] Memory required for data: 705522800
I0403 14:29:48.823683  1374 layer_factory.hpp:77] Creating layer relu3
I0403 14:29:48.823707  1374 net.cpp:91] Creating Layer relu3
I0403 14:29:48.823725  1374 net.cpp:425] relu3 <- conv3
I0403 14:29:48.823745  1374 net.cpp:386] relu3 -> conv3 (in-place)
I0403 14:29:48.824013  1374 net.cpp:141] Setting up relu3
I0403 14:29:48.824043  1374 net.cpp:148] Top shape: 100 384 13 13 (6489600)
I0403 14:29:48.824059  1374 net.cpp:156] Memory required for data: 731481200
I0403 14:29:48.824074  1374 layer_factory.hpp:77] Creating layer conv4
I0403 14:29:48.824097  1374 net.cpp:91] Creating Layer conv4
I0403 14:29:48.824115  1374 net.cpp:425] conv4 <- conv3
I0403 14:29:48.824133  1374 net.cpp:399] conv4 -> conv4
I0403 14:29:48.853696  1374 net.cpp:141] Setting up conv4
I0403 14:29:48.853750  1374 net.cpp:148] Top shape: 100 384 13 13 (6489600)
I0403 14:29:48.853798  1374 net.cpp:156] Memory required for data: 757439600
I0403 14:29:48.853819  1374 layer_factory.hpp:77] Creating layer relu4
I0403 14:29:48.853842  1374 net.cpp:91] Creating Layer relu4
I0403 14:29:48.853859  1374 net.cpp:425] relu4 <- conv4
I0403 14:29:48.853878  1374 net.cpp:386] relu4 -> conv4 (in-place)
I0403 14:29:48.854149  1374 net.cpp:141] Setting up relu4
I0403 14:29:48.854176  1374 net.cpp:148] Top shape: 100 384 13 13 (6489600)
I0403 14:29:48.854190  1374 net.cpp:156] Memory required for data: 783398000
I0403 14:29:48.854205  1374 layer_factory.hpp:77] Creating layer conv5
I0403 14:29:48.854229  1374 net.cpp:91] Creating Layer conv5
I0403 14:29:48.854251  1374 net.cpp:425] conv5 <- conv4
I0403 14:29:48.854274  1374 net.cpp:399] conv5 -> conv5
I0403 14:29:48.874758  1374 net.cpp:141] Setting up conv5
I0403 14:29:48.874794  1374 net.cpp:148] Top shape: 100 256 13 13 (4326400)
I0403 14:29:48.874811  1374 net.cpp:156] Memory required for data: 800703600
I0403 14:29:48.874840  1374 layer_factory.hpp:77] Creating layer relu5
I0403 14:29:48.874861  1374 net.cpp:91] Creating Layer relu5
I0403 14:29:48.874877  1374 net.cpp:425] relu5 <- conv5
I0403 14:29:48.874894  1374 net.cpp:386] relu5 -> conv5 (in-place)
I0403 14:29:48.875205  1374 net.cpp:141] Setting up relu5
I0403 14:29:48.875238  1374 net.cpp:148] Top shape: 100 256 13 13 (4326400)
I0403 14:29:48.875260  1374 net.cpp:156] Memory required for data: 818009200
I0403 14:29:48.875277  1374 layer_factory.hpp:77] Creating layer pool5
I0403 14:29:48.875298  1374 net.cpp:91] Creating Layer pool5
I0403 14:29:48.875314  1374 net.cpp:425] pool5 <- conv5
I0403 14:29:48.875335  1374 net.cpp:399] pool5 -> pool5
I0403 14:29:48.875397  1374 net.cpp:141] Setting up pool5
I0403 14:29:48.875422  1374 net.cpp:148] Top shape: 100 256 6 6 (921600)
I0403 14:29:48.875437  1374 net.cpp:156] Memory required for data: 821695600
I0403 14:29:48.875452  1374 layer_factory.hpp:77] Creating layer fc6
I0403 14:29:48.875481  1374 net.cpp:91] Creating Layer fc6
I0403 14:29:48.875499  1374 net.cpp:425] fc6 <- pool5
I0403 14:29:48.875519  1374 net.cpp:399] fc6 -> fc6
I0403 14:29:50.414165  1374 net.cpp:141] Setting up fc6
I0403 14:29:50.414232  1374 net.cpp:148] Top shape: 100 4096 (409600)
I0403 14:29:50.414253  1374 net.cpp:156] Memory required for data: 823334000
I0403 14:29:50.414274  1374 layer_factory.hpp:77] Creating layer relu6
I0403 14:29:50.414297  1374 net.cpp:91] Creating Layer relu6
I0403 14:29:50.414314  1374 net.cpp:425] relu6 <- fc6
I0403 14:29:50.414335  1374 net.cpp:386] relu6 -> fc6 (in-place)
I0403 14:29:50.414558  1374 net.cpp:141] Setting up relu6
I0403 14:29:50.414585  1374 net.cpp:148] Top shape: 100 4096 (409600)
I0403 14:29:50.414600  1374 net.cpp:156] Memory required for data: 824972400
I0403 14:29:50.414615  1374 layer_factory.hpp:77] Creating layer drop6
I0403 14:29:50.414634  1374 net.cpp:91] Creating Layer drop6
I0403 14:29:50.414649  1374 net.cpp:425] drop6 <- fc6
I0403 14:29:50.414665  1374 net.cpp:386] drop6 -> fc6 (in-place)
I0403 14:29:50.414719  1374 net.cpp:141] Setting up drop6
I0403 14:29:50.414741  1374 net.cpp:148] Top shape: 100 4096 (409600)
I0403 14:29:50.414755  1374 net.cpp:156] Memory required for data: 826610800
I0403 14:29:50.414770  1374 layer_factory.hpp:77] Creating layer fc7
I0403 14:29:50.414793  1374 net.cpp:91] Creating Layer fc7
I0403 14:29:50.414809  1374 net.cpp:425] fc7 <- fc6
I0403 14:29:50.414826  1374 net.cpp:399] fc7 -> fc7
I0403 14:29:51.090267  1374 net.cpp:141] Setting up fc7
I0403 14:29:51.090307  1374 net.cpp:148] Top shape: 100 4096 (409600)
I0403 14:29:51.090323  1374 net.cpp:156] Memory required for data: 828249200
I0403 14:29:51.090345  1374 layer_factory.hpp:77] Creating layer relu7
I0403 14:29:51.090368  1374 net.cpp:91] Creating Layer relu7
I0403 14:29:51.090385  1374 net.cpp:425] relu7 <- fc7
I0403 14:29:51.090404  1374 net.cpp:386] relu7 -> fc7 (in-place)
I0403 14:29:51.090814  1374 net.cpp:141] Setting up relu7
I0403 14:29:51.090840  1374 net.cpp:148] Top shape: 100 4096 (409600)
I0403 14:29:51.090874  1374 net.cpp:156] Memory required for data: 829887600
I0403 14:29:51.090890  1374 layer_factory.hpp:77] Creating layer drop7
I0403 14:29:51.090911  1374 net.cpp:91] Creating Layer drop7
I0403 14:29:51.090927  1374 net.cpp:425] drop7 <- fc7
I0403 14:29:51.090945  1374 net.cpp:386] drop7 -> fc7 (in-place)
I0403 14:29:51.090991  1374 net.cpp:141] Setting up drop7
I0403 14:29:51.091012  1374 net.cpp:148] Top shape: 100 4096 (409600)
I0403 14:29:51.091025  1374 net.cpp:156] Memory required for data: 831526000
I0403 14:29:51.091040  1374 layer_factory.hpp:77] Creating layer fc8_plantvillage
I0403 14:29:51.091061  1374 net.cpp:91] Creating Layer fc8_plantvillage
I0403 14:29:51.091078  1374 net.cpp:425] fc8_plantvillage <- fc7
I0403 14:29:51.091095  1374 net.cpp:399] fc8_plantvillage -> fc8_plantvillage
I0403 14:29:51.097810  1374 net.cpp:141] Setting up fc8_plantvillage
I0403 14:29:51.097838  1374 net.cpp:148] Top shape: 100 38 (3800)
I0403 14:29:51.097853  1374 net.cpp:156] Memory required for data: 831541200
I0403 14:29:51.097872  1374 layer_factory.hpp:77] Creating layer fc8_plantvillage_fc8_plantvillage_0_split
I0403 14:29:51.097890  1374 net.cpp:91] Creating Layer fc8_plantvillage_fc8_plantvillage_0_split
I0403 14:29:51.097905  1374 net.cpp:425] fc8_plantvillage_fc8_plantvillage_0_split <- fc8_plantvillage
I0403 14:29:51.097923  1374 net.cpp:399] fc8_plantvillage_fc8_plantvillage_0_split -> fc8_plantvillage_fc8_plantvillage_0_split_0
I0403 14:29:51.097945  1374 net.cpp:399] fc8_plantvillage_fc8_plantvillage_0_split -> fc8_plantvillage_fc8_plantvillage_0_split_1
I0403 14:29:51.097965  1374 net.cpp:399] fc8_plantvillage_fc8_plantvillage_0_split -> fc8_plantvillage_fc8_plantvillage_0_split_2
I0403 14:29:51.098042  1374 net.cpp:141] Setting up fc8_plantvillage_fc8_plantvillage_0_split
I0403 14:29:51.098065  1374 net.cpp:148] Top shape: 100 38 (3800)
I0403 14:29:51.098081  1374 net.cpp:148] Top shape: 100 38 (3800)
I0403 14:29:51.098098  1374 net.cpp:148] Top shape: 100 38 (3800)
I0403 14:29:51.098110  1374 net.cpp:156] Memory required for data: 831586800
I0403 14:29:51.098124  1374 layer_factory.hpp:77] Creating layer prob
I0403 14:29:51.098142  1374 net.cpp:91] Creating Layer prob
I0403 14:29:51.098157  1374 net.cpp:425] prob <- fc8_plantvillage_fc8_plantvillage_0_split_0
I0403 14:29:51.098176  1374 net.cpp:399] prob -> prob
I0403 14:29:51.098404  1374 net.cpp:141] Setting up prob
I0403 14:29:51.098429  1374 net.cpp:148] Top shape: 100 38 (3800)
I0403 14:29:51.098444  1374 net.cpp:156] Memory required for data: 831602000
I0403 14:29:51.098459  1374 layer_factory.hpp:77] Creating layer hdf5out
I0403 14:29:51.098481  1374 net.cpp:91] Creating Layer hdf5out
I0403 14:29:51.098498  1374 net.cpp:425] hdf5out <- prob
I0403 14:29:51.098515  1374 net.cpp:425] hdf5out <- label_data_1_split_0
I0403 14:29:51.100859  1374 net.cpp:141] Setting up hdf5out
…
