…
I0403 14:32:19.457186  1450 net.cpp:313] The NetState phase (1) differed from the phase (0) specified by a rule in layer data
I0403 14:32:19.457505  1450 net.cpp:49] Initializing net from parameters: 
state {
  phase: TEST
}
layer {
  name: "data"
  type: "Data"
  top: "data"
  top: "label"
  include {
    phase: TEST
  }
  transform_param {
    crop_size: 227
    mean_file: "/home/mohanty/data/final_dataset/lmdb/segmented-50-50/mean.binaryproto"
  }
  data_param {
    source: "/home/mohanty/data/final_dataset/lmdb/segmented-50-50/test_db"
    batch_size: 100
    backend: LMDB
  }
}
layer {
  name: "conv1"
  type: "Convolution"
  bottom: "data"
  top: "conv1"
  param {
    lr_mult: 1
    decay_mult: 1
  }
  param {
    lr_mult: 2
    decay_mult: 0
  }
  convolution_param {
    num_output: 96
    kernel_size: 11
    stride: 4
    weight_filler {
      type: "gaussian"
      std: 0.01
    }
    bias_filler {
      type: "constant"
      value: 0
    }
  }
}
layer {
  name: "relu1"
  type: "ReLU"
  bottom: "conv1"
  top: "conv1"
}
layer {
  name: "norm1"
  type: "LRN"
  bottom: "conv1"
  top: "norm1"
  lrn_param {
    local_size: 5
    alpha: 0.0001
    beta: 0.75
  }
}
layer {
  name: "pool1"
  type: "Pooling"
  bottom: "norm1"
  top: "pool1"
  pooling_param {
    pool: MAX
    kernel_size: 3
    stride: 2
  }
}
layer {
  name: "conv2"
  type: "Convolution"
  bottom: "pool1"
  top: "conv2"
  param {
    lr_mult: 1
    decay_mult: 1
  }
  param {
    lr_mult: 2
    decay_mult: 0
  }
  convolution_param {
    num_output: 256
    pad: 2
    kernel_size: 5
    group: 2
    weight_filler {
      type: "gaussian"
      std: 0.01
    }
    bias_filler {
      type: "constant"
      value: 0.1
    }
  }
}
layer {
  name: "relu2"
  type: "ReLU"
  bottom: "conv2"
  top: "conv2"
}
layer {
  name: "norm2"
  type: "LRN"
  bottom: "conv2"
  top: "norm2"
  lrn_param {
    local_size: 5
    alpha: 0.0001
    beta: 0.75
  }
}
layer {
  name: "pool2"
  type: "Pooling"
  bottom: "norm2"
  top: "pool2"
  pooling_param {
    pool: MAX
    kernel_size: 3
    stride: 2
  }
}
layer {
  name: "conv3"
  type: "Convolution"
  bottom: "pool2"
  top: "conv3"
  param {
    lr_mult: 1
    decay_mult: 1
  }
  param {
    lr_mult: 2
    decay_mult: 0
  }
  convolution_param {
    num_output: 384
    pad: 1
    kernel_size: 3
    weight_filler {
      type: "gaussian"
      std: 0.01
    }
    bias_filler {
      type: "constant"
      value: 0
    }
  }
}
layer {
  name: "relu3"
  type: "ReLU"
  bottom: "conv3"
  top: "conv3"
}
layer {
  name: "conv4"
  type: "Convolution"
  bottom: "conv3"
  top: "conv4"
  param {
    lr_mult: 1
    decay_mult: 1
  }
  param {
    lr_mult: 2
    decay_mult: 0
  }
  convolution_param {
    num_output: 384
    pad: 1
    kernel_size: 3
    group: 2
    weight_filler {
      type: "gaussian"
      std: 0.01
    }
    bias_filler {
      type: "constant"
      value: 0.1
    }
  }
}
layer {
  name: "relu4"
  type: "ReLU"
  bottom: "conv4"
  top: "conv4"
}
layer {
  name: "conv5"
  type: "Convolution"
  bottom: "conv4"
  top: "conv5"
  param {
    lr_mult: 1
    decay_mult: 1
  }
  param {
    lr_mult: 2
    decay_mult: 0
  }
  convolution_param {
    num_output: 256
    pad: 1
    kernel_size: 3
    group: 2
    weight_filler {
      type: "gaussian"
      std: 0.01
    }
    bias_filler {
      type: "constant"
      value: 0.1
    }
  }
}
layer {
  name: "relu5"
  type: "ReLU"
  bottom: "conv5"
  top: "conv5"
}
layer {
  name: "pool5"
  type: "Pooling"
  bottom: "conv5"
  top: "pool5"
  pooling_param {
    pool: MAX
    kernel_size: 3
    stride: 2
  }
}
layer {
  name: "fc6"
  type: "InnerProduct"
  bottom: "pool5"
  top: "fc6"
  param {
    lr_mult: 1
    decay_mult: 1
  }
  param {
    lr_mult: 2
    decay_mult: 0
  }
  inner_product_param {
    num_output: 4096
    weight_filler {
      type: "gaussian"
      std: 0.005
    }
    bias_filler {
      type: "constant"
      value: 0.1
    }
  }
}
layer {
  name: "relu6"
  type: "ReLU"
  bottom: "fc6"
  top: "fc6"
}
layer {
  name: "drop6"
  type: "Dropout"
  bottom: "fc6"
  top: "fc6"
  dropout_param {
    dropout_ratio: 0.5
  }
}
layer {
  name: "fc7"
  type: "InnerProduct"
  bottom: "fc6"
  top: "fc7"
  param {
    lr_mult: 1
    decay_mult: 1
  }
  param {
    lr_mult: 2
    decay_mult: 0
  }
  inner_product_param {
    num_output: 4096
    weight_filler {
      type: "gaussian"
      std: 0.005
    }
    bias_filler {
      type: "constant"
      value: 0.1
    }
  }
}
layer {
  name: "relu7"
  type: "ReLU"
  bottom: "fc7"
  top: "fc7"
}
layer {
  name: "drop7"
  type: "Dropout"
  bottom: "fc7"
  top: "fc7"
  dropout_param {
    dropout_ratio: 0.5
  }
}
layer {
  name: "fc8_plantvillage"
  type: "InnerProduct"
  bottom: "fc7"
  top: "fc8_plantvillage"
  param {
    lr_mult: 1
    decay_mult: 1
  }
  param {
    lr_mult: 2
    decay_mult: 0
  }
  inner_product_param {
    num_output: 38
    weight_filler {
      type: "gaussian"
      std: 0.01
    }
    bias_filler {
      type: "constant"
      value: 0
    }
  }
}
layer {
  name: "prob"
  type: "Softmax"
  bottom: "fc8_plantvillage"
  top: "prob"
  include {
    phase: TEST
  }
}
layer {
  name: "hdf5out"
  type: "HDF5Output"
  bottom: "prob"
  bottom: "label"
  include {
    phase: TEST
  }
  hdf5_output_param {
    file_name: "hdf5_dumps/iter_8040.h5"
  }
}
layer {
  name: "loss"
  type: "SoftmaxWithLoss"
  bottom: "fc8_plantvillage"
  bottom: "label"
  top: "loss"
}
layer {
  name: "accuracy"
  type: "Accuracy"
  bottom: "fc8_plantvillage"
  bottom: "label"
  top: "accuracy"
  include {
    phase: TEST
  }
}
I0403 14:32:19.458063  1450 layer_factory.hpp:77] Creating layer data
I0403 14:32:19.458726  1450 net.cpp:91] Creating Layer data
I0403 14:32:19.458766  1450 net.cpp:399] data -> data
I0403 14:32:19.458817  1450 net.cpp:399] data -> label
I0403 14:32:19.458855  1450 data_transformer.cpp:25] Loading mean file from: /home/mohanty/data/final_dataset/lmdb/segmented-50-50/mean.binaryproto
I0403 14:32:19.463692  1453 db_lmdb.cpp:38] Opened lmdb /home/mohanty/data/final_dataset/lmdb/segmented-50-50/test_db
I0403 14:32:19.473258  1450 data_layer.cpp:41] output data size: 100,3,227,227
I0403 14:32:19.593032  1450 net.cpp:141] Setting up data
I0403 14:32:19.593138  1450 net.cpp:148] Top shape: 100 3 227 227 (15458700)
I0403 14:32:19.593161  1450 net.cpp:148] Top shape: 100 (100)
I0403 14:32:19.593178  1450 net.cpp:156] Memory required for data: 61835200
I0403 14:32:19.593204  1450 layer_factory.hpp:77] Creating layer label_data_1_split
I0403 14:32:19.593230  1450 net.cpp:91] Creating Layer label_data_1_split
I0403 14:32:19.593247  1450 net.cpp:425] label_data_1_split <- label
I0403 14:32:19.593287  1450 net.cpp:399] label_data_1_split -> label_data_1_split_0
I0403 14:32:19.593317  1450 net.cpp:399] label_data_1_split -> label_data_1_split_1
I0403 14:32:19.593336  1450 net.cpp:399] label_data_1_split -> label_data_1_split_2
I0403 14:32:19.593397  1450 net.cpp:141] Setting up label_data_1_split
I0403 14:32:19.593420  1450 net.cpp:148] Top shape: 100 (100)
I0403 14:32:19.593439  1450 net.cpp:148] Top shape: 100 (100)
I0403 14:32:19.593456  1450 net.cpp:148] Top shape: 100 (100)
I0403 14:32:19.593471  1450 net.cpp:156] Memory required for data: 61836400
I0403 14:32:19.593485  1450 layer_factory.hpp:77] Creating layer conv1
I0403 14:32:19.593516  1450 net.cpp:91] Creating Layer conv1
I0403 14:32:19.593534  1450 net.cpp:425] conv1 <- data
I0403 14:32:19.593554  1450 net.cpp:399] conv1 -> conv1
I0403 14:32:19.733274  1450 net.cpp:141] Setting up conv1
I0403 14:32:19.733369  1450 net.cpp:148] Top shape: 100 96 55 55 (29040000)
I0403 14:32:19.733388  1450 net.cpp:156] Memory required for data: 177996400
I0403 14:32:19.733422  1450 layer_factory.hpp:77] Creating layer relu1
I0403 14:32:19.733449  1450 net.cpp:91] Creating Layer relu1
I0403 14:32:19.733469  1450 net.cpp:425] relu1 <- conv1
I0403 14:32:19.733490  1450 net.cpp:386] relu1 -> conv1 (in-place)
I0403 14:32:19.733768  1450 net.cpp:141] Setting up relu1
I0403 14:32:19.733795  1450 net.cpp:148] Top shape: 100 96 55 55 (29040000)
I0403 14:32:19.733887  1450 net.cpp:156] Memory required for data: 294156400
I0403 14:32:19.733908  1450 layer_factory.hpp:77] Creating layer norm1
I0403 14:32:19.733940  1450 net.cpp:91] Creating Layer norm1
I0403 14:32:19.733960  1450 net.cpp:425] norm1 <- conv1
I0403 14:32:19.733980  1450 net.cpp:399] norm1 -> norm1
I0403 14:32:19.734333  1450 net.cpp:141] Setting up norm1
I0403 14:32:19.734362  1450 net.cpp:148] Top shape: 100 96 55 55 (29040000)
I0403 14:32:19.734379  1450 net.cpp:156] Memory required for data: 410316400
I0403 14:32:19.734395  1450 layer_factory.hpp:77] Creating layer pool1
I0403 14:32:19.734421  1450 net.cpp:91] Creating Layer pool1
I0403 14:32:19.734439  1450 net.cpp:425] pool1 <- norm1
I0403 14:32:19.734459  1450 net.cpp:399] pool1 -> pool1
I0403 14:32:19.734532  1450 net.cpp:141] Setting up pool1
I0403 14:32:19.734558  1450 net.cpp:148] Top shape: 100 96 27 27 (6998400)
I0403 14:32:19.734575  1450 net.cpp:156] Memory required for data: 438310000
I0403 14:32:19.734591  1450 layer_factory.hpp:77] Creating layer conv2
I0403 14:32:19.734618  1450 net.cpp:91] Creating Layer conv2
I0403 14:32:19.734637  1450 net.cpp:425] conv2 <- pool1
I0403 14:32:19.734658  1450 net.cpp:399] conv2 -> conv2
I0403 14:32:19.749987  1450 net.cpp:141] Setting up conv2
I0403 14:32:19.750038  1450 net.cpp:148] Top shape: 100 256 27 27 (18662400)
I0403 14:32:19.750056  1450 net.cpp:156] Memory required for data: 512959600
I0403 14:32:19.750082  1450 layer_factory.hpp:77] Creating layer relu2
I0403 14:32:19.750104  1450 net.cpp:91] Creating Layer relu2
I0403 14:32:19.750121  1450 net.cpp:425] relu2 <- conv2
I0403 14:32:19.750140  1450 net.cpp:386] relu2 -> conv2 (in-place)
I0403 14:32:19.750593  1450 net.cpp:141] Setting up relu2
I0403 14:32:19.750622  1450 net.cpp:148] Top shape: 100 256 27 27 (18662400)
I0403 14:32:19.750639  1450 net.cpp:156] Memory required for data: 587609200
I0403 14:32:19.750654  1450 layer_factory.hpp:77] Creating layer norm2
I0403 14:32:19.750675  1450 net.cpp:91] Creating Layer norm2
I0403 14:32:19.750700  1450 net.cpp:425] norm2 <- conv2
I0403 14:32:19.750723  1450 net.cpp:399] norm2 -> norm2
I0403 14:32:19.750919  1450 net.cpp:141] Setting up norm2
I0403 14:32:19.750946  1450 net.cpp:148] Top shape: 100 256 27 27 (18662400)
I0403 14:32:19.750962  1450 net.cpp:156] Memory required for data: 662258800
I0403 14:32:19.750977  1450 layer_factory.hpp:77] Creating layer pool2
I0403 14:32:19.750998  1450 net.cpp:91] Creating Layer pool2
I0403 14:32:19.751015  1450 net.cpp:425] pool2 <- norm2
I0403 14:32:19.751034  1450 net.cpp:399] pool2 -> pool2
I0403 14:32:19.751085  1450 net.cpp:141] Setting up pool2
I0403 14:32:19.751107  1450 net.cpp:148] Top shape: 100 256 13 13 (4326400)
I0403 14:32:19.751122  1450 net.cpp:156] Memory required for data: 679564400
I0403 14:32:19.751137  1450 layer_factory.hpp:77] Creating layer conv3
I0403 14:32:19.751163  1450 net.cpp:91] Creating Layer conv3
I0403 14:32:19.751180  1450 net.cpp:425] conv3 <- pool2
I0403 14:32:19.751201  1450 net.cpp:399] conv3 -> conv3
I0403 14:32:19.789011  1450 net.cpp:141] Setting up conv3
I0403 14:32:19.789067  1450 net.cpp:148] Top shape: 100 384 13 13 (6489600)
I0403 14:32:19.789083  1450 net.cpp:156] Memory required for data: 705522800
I0403 14:32:19.789106  1450 layer_factory.hpp:77] Creating layer relu3
I0403 14:32:19.789130  1450 net.cpp:91] Creating Layer relu3
I0403 14:32:19.789149  1450 net.cpp:425] relu3 <- conv3
I0403 14:32:19.789168  1450 net.cpp:386] relu3 -> conv3 (in-place)
I0403 14:32:19.789440  1450 net.cpp:141] Setting up relu3
I0403 14:32:19.789468  1450 net.cpp:148] Top shape: 100 384 13 13 (6489600)
I0403 14:32:19.789482  1450 net.cpp:156] Memory required for data: 731481200
I0403 14:32:19.789497  1450 layer_factory.hpp:77] Creating layer conv4
I0403 14:32:19.789522  1450 net.cpp:91] Creating Layer conv4
I0403 14:32:19.789540  1450 net.cpp:425] conv4 <- conv3
I0403 14:32:19.789561  1450 net.cpp:399] conv4 -> conv4
I0403 14:32:19.819983  1450 net.cpp:141] Setting up conv4
I0403 14:32:19.820057  1450 net.cpp:148] Top shape: 100 384 13 13 (6489600)
I0403 14:32:19.820106  1450 net.cpp:156] Memory required for data: 757439600
I0403 14:32:19.820128  1450 layer_factory.hpp:77] Creating layer relu4
I0403 14:32:19.820152  1450 net.cpp:91] Creating Layer relu4
I0403 14:32:19.820181  1450 net.cpp:425] relu4 <- conv4
I0403 14:32:19.820209  1450 net.cpp:386] relu4 -> conv4 (in-place)
I0403 14:32:19.820513  1450 net.cpp:141] Setting up relu4
I0403 14:32:19.820541  1450 net.cpp:148] Top shape: 100 384 13 13 (6489600)
I0403 14:32:19.820557  1450 net.cpp:156] Memory required for data: 783398000
I0403 14:32:19.820572  1450 layer_factory.hpp:77] Creating layer conv5
I0403 14:32:19.820600  1450 net.cpp:91] Creating Layer conv5
I0403 14:32:19.820617  1450 net.cpp:425] conv5 <- conv4
I0403 14:32:19.820639  1450 net.cpp:399] conv5 -> conv5
I0403 14:32:19.841557  1450 net.cpp:141] Setting up conv5
I0403 14:32:19.841619  1450 net.cpp:148] Top shape: 100 256 13 13 (4326400)
I0403 14:32:19.841635  1450 net.cpp:156] Memory required for data: 800703600
I0403 14:32:19.841662  1450 layer_factory.hpp:77] Creating layer relu5
I0403 14:32:19.841684  1450 net.cpp:91] Creating Layer relu5
I0403 14:32:19.841701  1450 net.cpp:425] relu5 <- conv5
I0403 14:32:19.841719  1450 net.cpp:386] relu5 -> conv5 (in-place)
I0403 14:32:19.841997  1450 net.cpp:141] Setting up relu5
I0403 14:32:19.842025  1450 net.cpp:148] Top shape: 100 256 13 13 (4326400)
I0403 14:32:19.842039  1450 net.cpp:156] Memory required for data: 818009200
I0403 14:32:19.842056  1450 layer_factory.hpp:77] Creating layer pool5
I0403 14:32:19.842079  1450 net.cpp:91] Creating Layer pool5
I0403 14:32:19.842097  1450 net.cpp:425] pool5 <- conv5
I0403 14:32:19.842115  1450 net.cpp:399] pool5 -> pool5
I0403 14:32:19.842188  1450 net.cpp:141] Setting up pool5
I0403 14:32:19.842212  1450 net.cpp:148] Top shape: 100 256 6 6 (921600)
I0403 14:32:19.842228  1450 net.cpp:156] Memory required for data: 821695600
I0403 14:32:19.842243  1450 layer_factory.hpp:77] Creating layer fc6
I0403 14:32:19.842283  1450 net.cpp:91] Creating Layer fc6
I0403 14:32:19.842357  1450 net.cpp:425] fc6 <- pool5
I0403 14:32:19.842383  1450 net.cpp:399] fc6 -> fc6
I0403 14:32:21.379022  1450 net.cpp:141] Setting up fc6
I0403 14:32:21.379098  1450 net.cpp:148] Top shape: 100 4096 (409600)
I0403 14:32:21.379114  1450 net.cpp:156] Memory required for data: 823334000
I0403 14:32:21.379134  1450 layer_factory.hpp:77] Creating layer relu6
I0403 14:32:21.379156  1450 net.cpp:91] Creating Layer relu6
I0403 14:32:21.379173  1450 net.cpp:425] relu6 <- fc6
I0403 14:32:21.379195  1450 net.cpp:386] relu6 -> fc6 (in-place)
I0403 14:32:21.379411  1450 net.cpp:141] Setting up relu6
I0403 14:32:21.379436  1450 net.cpp:148] Top shape: 100 4096 (409600)
I0403 14:32:21.379451  1450 net.cpp:156] Memory required for data: 824972400
I0403 14:32:21.379465  1450 layer_factory.hpp:77] Creating layer drop6
I0403 14:32:21.379487  1450 net.cpp:91] Creating Layer drop6
I0403 14:32:21.379503  1450 net.cpp:425] drop6 <- fc6
I0403 14:32:21.379520  1450 net.cpp:386] drop6 -> fc6 (in-place)
I0403 14:32:21.379575  1450 net.cpp:141] Setting up drop6
I0403 14:32:21.379596  1450 net.cpp:148] Top shape: 100 4096 (409600)
I0403 14:32:21.379611  1450 net.cpp:156] Memory required for data: 826610800
I0403 14:32:21.379624  1450 layer_factory.hpp:77] Creating layer fc7
I0403 14:32:21.379644  1450 net.cpp:91] Creating Layer fc7
I0403 14:32:21.379659  1450 net.cpp:425] fc7 <- fc6
I0403 14:32:21.379680  1450 net.cpp:399] fc7 -> fc7
I0403 14:32:22.056162  1450 net.cpp:141] Setting up fc7
I0403 14:32:22.056232  1450 net.cpp:148] Top shape: 100 4096 (409600)
I0403 14:32:22.056248  1450 net.cpp:156] Memory required for data: 828249200
I0403 14:32:22.056269  1450 layer_factory.hpp:77] Creating layer relu7
I0403 14:32:22.056299  1450 net.cpp:91] Creating Layer relu7
I0403 14:32:22.056318  1450 net.cpp:425] relu7 <- fc7
I0403 14:32:22.056336  1450 net.cpp:386] relu7 -> fc7 (in-place)
I0403 14:32:22.056738  1450 net.cpp:141] Setting up relu7
I0403 14:32:22.056764  1450 net.cpp:148] Top shape: 100 4096 (409600)
I0403 14:32:22.056809  1450 net.cpp:156] Memory required for data: 829887600
I0403 14:32:22.056824  1450 layer_factory.hpp:77] Creating layer drop7
I0403 14:32:22.056843  1450 net.cpp:91] Creating Layer drop7
I0403 14:32:22.056859  1450 net.cpp:425] drop7 <- fc7
I0403 14:32:22.056879  1450 net.cpp:386] drop7 -> fc7 (in-place)
I0403 14:32:22.056923  1450 net.cpp:141] Setting up drop7
I0403 14:32:22.056946  1450 net.cpp:148] Top shape: 100 4096 (409600)
I0403 14:32:22.056959  1450 net.cpp:156] Memory required for data: 831526000
I0403 14:32:22.056973  1450 layer_factory.hpp:77] Creating layer fc8_plantvillage
I0403 14:32:22.056993  1450 net.cpp:91] Creating Layer fc8_plantvillage
I0403 14:32:22.057008  1450 net.cpp:425] fc8_plantvillage <- fc7
I0403 14:32:22.057029  1450 net.cpp:399] fc8_plantvillage -> fc8_plantvillage
I0403 14:32:22.063581  1450 net.cpp:141] Setting up fc8_plantvillage
I0403 14:32:22.063613  1450 net.cpp:148] Top shape: 100 38 (3800)
I0403 14:32:22.063630  1450 net.cpp:156] Memory required for data: 831541200
I0403 14:32:22.063650  1450 layer_factory.hpp:77] Creating layer fc8_plantvillage_fc8_plantvillage_0_split
I0403 14:32:22.063670  1450 net.cpp:91] Creating Layer fc8_plantvillage_fc8_plantvillage_0_split
I0403 14:32:22.063688  1450 net.cpp:425] fc8_plantvillage_fc8_plantvillage_0_split <- fc8_plantvillage
I0403 14:32:22.063705  1450 net.cpp:399] fc8_plantvillage_fc8_plantvillage_0_split -> fc8_plantvillage_fc8_plantvillage_0_split_0
I0403 14:32:22.063725  1450 net.cpp:399] fc8_plantvillage_fc8_plantvillage_0_split -> fc8_plantvillage_fc8_plantvillage_0_split_1
I0403 14:32:22.063745  1450 net.cpp:399] fc8_plantvillage_fc8_plantvillage_0_split -> fc8_plantvillage_fc8_plantvillage_0_split_2
I0403 14:32:22.063825  1450 net.cpp:141] Setting up fc8_plantvillage_fc8_plantvillage_0_split
I0403 14:32:22.063850  1450 net.cpp:148] Top shape: 100 38 (3800)
I0403 14:32:22.063868  1450 net.cpp:148] Top shape: 100 38 (3800)
I0403 14:32:22.063884  1450 net.cpp:148] Top shape: 100 38 (3800)
I0403 14:32:22.063899  1450 net.cpp:156] Memory required for data: 831586800
I0403 14:32:22.063913  1450 layer_factory.hpp:77] Creating layer prob
I0403 14:32:22.063932  1450 net.cpp:91] Creating Layer prob
I0403 14:32:22.063949  1450 net.cpp:425] prob <- fc8_plantvillage_fc8_plantvillage_0_split_0
I0403 14:32:22.063968  1450 net.cpp:399] prob -> prob
I0403 14:32:22.064193  1450 net.cpp:141] Setting up prob
I0403 14:32:22.064218  1450 net.cpp:148] Top shape: 100 38 (3800)
I0403 14:32:22.064234  1450 net.cpp:156] Memory required for data: 831602000
I0403 14:32:22.064249  1450 layer_factory.hpp:77] Creating layer hdf5out
I0403 14:32:22.064277  1450 net.cpp:91] Creating Layer hdf5out
I0403 14:32:22.064297  1450 net.cpp:425] hdf5out <- prob
I0403 14:32:22.064314  1450 net.cpp:425] hdf5out <- label_data_1_split_0
I0403 14:32:22.066656  1450 net.cpp:141] Setting up hdf5out
…
