…
I0403 14:18:51.306409  1114 net.cpp:313] The NetState phase (1) differed from the phase (0) specified by a rule in layer data
I0403 14:18:51.306704  1114 net.cpp:49] Initializing net from parameters: 
state {
  phase: TEST
}
layer {
  name: "data"
  type: "Data"
  top: "data"
  top: "label"
  include {
    phase: TEST
  }
  transform_param {
    crop_size: 227
    mean_file: "/home/mohanty/data/final_dataset/lmdb/segmented-50-50/mean.binaryproto"
  }
  data_param {
    source: "/home/mohanty/data/final_dataset/lmdb/segmented-50-50/test_db"
    batch_size: 100
    backend: LMDB
  }
}
layer {
  name: "conv1"
  type: "Convolution"
  bottom: "data"
  top: "conv1"
  param {
    lr_mult: 1
    decay_mult: 1
  }
  param {
    lr_mult: 2
    decay_mult: 0
  }
  convolution_param {
    num_output: 96
    kernel_size: 11
    stride: 4
    weight_filler {
      type: "gaussian"
      std: 0.01
    }
    bias_filler {
      type: "constant"
      value: 0
    }
  }
}
layer {
  name: "relu1"
  type: "ReLU"
  bottom: "conv1"
  top: "conv1"
}
layer {
  name: "norm1"
  type: "LRN"
  bottom: "conv1"
  top: "norm1"
  lrn_param {
    local_size: 5
    alpha: 0.0001
    beta: 0.75
  }
}
layer {
  name: "pool1"
  type: "Pooling"
  bottom: "norm1"
  top: "pool1"
  pooling_param {
    pool: MAX
    kernel_size: 3
    stride: 2
  }
}
layer {
  name: "conv2"
  type: "Convolution"
  bottom: "pool1"
  top: "conv2"
  param {
    lr_mult: 1
    decay_mult: 1
  }
  param {
    lr_mult: 2
    decay_mult: 0
  }
  convolution_param {
    num_output: 256
    pad: 2
    kernel_size: 5
    group: 2
    weight_filler {
      type: "gaussian"
      std: 0.01
    }
    bias_filler {
      type: "constant"
      value: 0.1
    }
  }
}
layer {
  name: "relu2"
  type: "ReLU"
  bottom: "conv2"
  top: "conv2"
}
layer {
  name: "norm2"
  type: "LRN"
  bottom: "conv2"
  top: "norm2"
  lrn_param {
    local_size: 5
    alpha: 0.0001
    beta: 0.75
  }
}
layer {
  name: "pool2"
  type: "Pooling"
  bottom: "norm2"
  top: "pool2"
  pooling_param {
    pool: MAX
    kernel_size: 3
    stride: 2
  }
}
layer {
  name: "conv3"
  type: "Convolution"
  bottom: "pool2"
  top: "conv3"
  param {
    lr_mult: 1
    decay_mult: 1
  }
  param {
    lr_mult: 2
    decay_mult: 0
  }
  convolution_param {
    num_output: 384
    pad: 1
    kernel_size: 3
    weight_filler {
      type: "gaussian"
      std: 0.01
    }
    bias_filler {
      type: "constant"
      value: 0
    }
  }
}
layer {
  name: "relu3"
  type: "ReLU"
  bottom: "conv3"
  top: "conv3"
}
layer {
  name: "conv4"
  type: "Convolution"
  bottom: "conv3"
  top: "conv4"
  param {
    lr_mult: 1
    decay_mult: 1
  }
  param {
    lr_mult: 2
    decay_mult: 0
  }
  convolution_param {
    num_output: 384
    pad: 1
    kernel_size: 3
    group: 2
    weight_filler {
      type: "gaussian"
      std: 0.01
    }
    bias_filler {
      type: "constant"
      value: 0.1
    }
  }
}
layer {
  name: "relu4"
  type: "ReLU"
  bottom: "conv4"
  top: "conv4"
}
layer {
  name: "conv5"
  type: "Convolution"
  bottom: "conv4"
  top: "conv5"
  param {
    lr_mult: 1
    decay_mult: 1
  }
  param {
    lr_mult: 2
    decay_mult: 0
  }
  convolution_param {
    num_output: 256
    pad: 1
    kernel_size: 3
    group: 2
    weight_filler {
      type: "gaussian"
      std: 0.01
    }
    bias_filler {
      type: "constant"
      value: 0.1
    }
  }
}
layer {
  name: "relu5"
  type: "ReLU"
  bottom: "conv5"
  top: "conv5"
}
layer {
  name: "pool5"
  type: "Pooling"
  bottom: "conv5"
  top: "pool5"
  pooling_param {
    pool: MAX
    kernel_size: 3
    stride: 2
  }
}
layer {
  name: "fc6"
  type: "InnerProduct"
  bottom: "pool5"
  top: "fc6"
  param {
    lr_mult: 1
    decay_mult: 1
  }
  param {
    lr_mult: 2
    decay_mult: 0
  }
  inner_product_param {
    num_output: 4096
    weight_filler {
      type: "gaussian"
      std: 0.005
    }
    bias_filler {
      type: "constant"
      value: 0.1
    }
  }
}
layer {
  name: "relu6"
  type: "ReLU"
  bottom: "fc6"
  top: "fc6"
}
layer {
  name: "drop6"
  type: "Dropout"
  bottom: "fc6"
  top: "fc6"
  dropout_param {
    dropout_ratio: 0.5
  }
}
layer {
  name: "fc7"
  type: "InnerProduct"
  bottom: "fc6"
  top: "fc7"
  param {
    lr_mult: 1
    decay_mult: 1
  }
  param {
    lr_mult: 2
    decay_mult: 0
  }
  inner_product_param {
    num_output: 4096
    weight_filler {
      type: "gaussian"
      std: 0.005
    }
    bias_filler {
      type: "constant"
      value: 0.1
    }
  }
}
layer {
  name: "relu7"
  type: "ReLU"
  bottom: "fc7"
  top: "fc7"
}
layer {
  name: "drop7"
  type: "Dropout"
  bottom: "fc7"
  top: "fc7"
  dropout_param {
    dropout_ratio: 0.5
  }
}
layer {
  name: "fc8_plantvillage"
  type: "InnerProduct"
  bottom: "fc7"
  top: "fc8_plantvillage"
  param {
    lr_mult: 1
    decay_mult: 1
  }
  param {
    lr_mult: 2
    decay_mult: 0
  }
  inner_product_param {
    num_output: 38
    weight_filler {
      type: "gaussian"
      std: 0.01
    }
    bias_filler {
      type: "constant"
      value: 0
    }
  }
}
layer {
  name: "prob"
  type: "Softmax"
  bottom: "fc8_plantvillage"
  top: "prob"
  include {
    phase: TEST
  }
}
layer {
  name: "hdf5out"
  type: "HDF5Output"
  bottom: "prob"
  bottom: "label"
  include {
    phase: TEST
  }
  hdf5_output_param {
    file_name: "hdf5_dumps/iter_3752.h5"
  }
}
layer {
  name: "loss"
  type: "SoftmaxWithLoss"
  bottom: "fc8_plantvillage"
  bottom: "label"
  top: "loss"
}
layer {
  name: "accuracy"
  type: "Accuracy"
  bottom: "fc8_plantvillage"
  bottom: "label"
  top: "accuracy"
  include {
    phase: TEST
  }
}
I0403 14:18:51.307256  1114 layer_factory.hpp:77] Creating layer data
I0403 14:18:51.307895  1114 net.cpp:91] Creating Layer data
I0403 14:18:51.307929  1114 net.cpp:399] data -> data
I0403 14:18:51.307979  1114 net.cpp:399] data -> label
I0403 14:18:51.308015  1114 data_transformer.cpp:25] Loading mean file from: /home/mohanty/data/final_dataset/lmdb/segmented-50-50/mean.binaryproto
I0403 14:18:51.311427  1117 db_lmdb.cpp:38] Opened lmdb /home/mohanty/data/final_dataset/lmdb/segmented-50-50/test_db
I0403 14:18:51.322605  1114 data_layer.cpp:41] output data size: 100,3,227,227
I0403 14:18:51.441277  1114 net.cpp:141] Setting up data
I0403 14:18:51.441387  1114 net.cpp:148] Top shape: 100 3 227 227 (15458700)
I0403 14:18:51.441412  1114 net.cpp:148] Top shape: 100 (100)
I0403 14:18:51.441428  1114 net.cpp:156] Memory required for data: 61835200
I0403 14:18:51.441457  1114 layer_factory.hpp:77] Creating layer label_data_1_split
I0403 14:18:51.441481  1114 net.cpp:91] Creating Layer label_data_1_split
I0403 14:18:51.441501  1114 net.cpp:425] label_data_1_split <- label
I0403 14:18:51.441534  1114 net.cpp:399] label_data_1_split -> label_data_1_split_0
I0403 14:18:51.441560  1114 net.cpp:399] label_data_1_split -> label_data_1_split_1
I0403 14:18:51.441581  1114 net.cpp:399] label_data_1_split -> label_data_1_split_2
I0403 14:18:51.441645  1114 net.cpp:141] Setting up label_data_1_split
I0403 14:18:51.441668  1114 net.cpp:148] Top shape: 100 (100)
I0403 14:18:51.441685  1114 net.cpp:148] Top shape: 100 (100)
I0403 14:18:51.441702  1114 net.cpp:148] Top shape: 100 (100)
I0403 14:18:51.441716  1114 net.cpp:156] Memory required for data: 61836400
I0403 14:18:51.441731  1114 layer_factory.hpp:77] Creating layer conv1
I0403 14:18:51.441763  1114 net.cpp:91] Creating Layer conv1
I0403 14:18:51.441781  1114 net.cpp:425] conv1 <- data
I0403 14:18:51.441802  1114 net.cpp:399] conv1 -> conv1
I0403 14:18:51.585109  1114 net.cpp:141] Setting up conv1
I0403 14:18:51.585191  1114 net.cpp:148] Top shape: 100 96 55 55 (29040000)
I0403 14:18:51.585209  1114 net.cpp:156] Memory required for data: 177996400
I0403 14:18:51.585240  1114 layer_factory.hpp:77] Creating layer relu1
I0403 14:18:51.585268  1114 net.cpp:91] Creating Layer relu1
I0403 14:18:51.585291  1114 net.cpp:425] relu1 <- conv1
I0403 14:18:51.585310  1114 net.cpp:386] relu1 -> conv1 (in-place)
I0403 14:18:51.585574  1114 net.cpp:141] Setting up relu1
I0403 14:18:51.585602  1114 net.cpp:148] Top shape: 100 96 55 55 (29040000)
I0403 14:18:51.585650  1114 net.cpp:156] Memory required for data: 294156400
I0403 14:18:51.585666  1114 layer_factory.hpp:77] Creating layer norm1
I0403 14:18:51.585692  1114 net.cpp:91] Creating Layer norm1
I0403 14:18:51.585711  1114 net.cpp:425] norm1 <- conv1
I0403 14:18:51.585729  1114 net.cpp:399] norm1 -> norm1
I0403 14:18:51.586045  1114 net.cpp:141] Setting up norm1
I0403 14:18:51.586072  1114 net.cpp:148] Top shape: 100 96 55 55 (29040000)
I0403 14:18:51.586087  1114 net.cpp:156] Memory required for data: 410316400
I0403 14:18:51.586102  1114 layer_factory.hpp:77] Creating layer pool1
I0403 14:18:51.586125  1114 net.cpp:91] Creating Layer pool1
I0403 14:18:51.586143  1114 net.cpp:425] pool1 <- norm1
I0403 14:18:51.586160  1114 net.cpp:399] pool1 -> pool1
I0403 14:18:51.586226  1114 net.cpp:141] Setting up pool1
I0403 14:18:51.586252  1114 net.cpp:148] Top shape: 100 96 27 27 (6998400)
I0403 14:18:51.586267  1114 net.cpp:156] Memory required for data: 438310000
I0403 14:18:51.586287  1114 layer_factory.hpp:77] Creating layer conv2
I0403 14:18:51.586311  1114 net.cpp:91] Creating Layer conv2
I0403 14:18:51.586372  1114 net.cpp:425] conv2 <- pool1
I0403 14:18:51.586395  1114 net.cpp:399] conv2 -> conv2
I0403 14:18:51.601068  1114 net.cpp:141] Setting up conv2
I0403 14:18:51.601104  1114 net.cpp:148] Top shape: 100 256 27 27 (18662400)
I0403 14:18:51.601121  1114 net.cpp:156] Memory required for data: 512959600
I0403 14:18:51.601143  1114 layer_factory.hpp:77] Creating layer relu2
I0403 14:18:51.601166  1114 net.cpp:91] Creating Layer relu2
I0403 14:18:51.601184  1114 net.cpp:425] relu2 <- conv2
I0403 14:18:51.601202  1114 net.cpp:386] relu2 -> conv2 (in-place)
I0403 14:18:51.601507  1114 net.cpp:141] Setting up relu2
I0403 14:18:51.601536  1114 net.cpp:148] Top shape: 100 256 27 27 (18662400)
I0403 14:18:51.601550  1114 net.cpp:156] Memory required for data: 587609200
I0403 14:18:51.601565  1114 layer_factory.hpp:77] Creating layer norm2
I0403 14:18:51.601588  1114 net.cpp:91] Creating Layer norm2
I0403 14:18:51.601605  1114 net.cpp:425] norm2 <- conv2
I0403 14:18:51.601625  1114 net.cpp:399] norm2 -> norm2
I0403 14:18:51.601825  1114 net.cpp:141] Setting up norm2
I0403 14:18:51.601850  1114 net.cpp:148] Top shape: 100 256 27 27 (18662400)
I0403 14:18:51.601866  1114 net.cpp:156] Memory required for data: 662258800
I0403 14:18:51.601881  1114 layer_factory.hpp:77] Creating layer pool2
I0403 14:18:51.601898  1114 net.cpp:91] Creating Layer pool2
I0403 14:18:51.601913  1114 net.cpp:425] pool2 <- norm2
I0403 14:18:51.601935  1114 net.cpp:399] pool2 -> pool2
I0403 14:18:51.601986  1114 net.cpp:141] Setting up pool2
I0403 14:18:51.602010  1114 net.cpp:148] Top shape: 100 256 13 13 (4326400)
I0403 14:18:51.602025  1114 net.cpp:156] Memory required for data: 679564400
I0403 14:18:51.602040  1114 layer_factory.hpp:77] Creating layer conv3
I0403 14:18:51.602061  1114 net.cpp:91] Creating Layer conv3
I0403 14:18:51.602078  1114 net.cpp:425] conv3 <- pool2
I0403 14:18:51.602098  1114 net.cpp:399] conv3 -> conv3
I0403 14:18:51.640394  1114 net.cpp:141] Setting up conv3
I0403 14:18:51.640471  1114 net.cpp:148] Top shape: 100 384 13 13 (6489600)
I0403 14:18:51.640487  1114 net.cpp:156] Memory required for data: 705522800
I0403 14:18:51.640514  1114 layer_factory.hpp:77] Creating layer relu3
I0403 14:18:51.640537  1114 net.cpp:91] Creating Layer relu3
I0403 14:18:51.640553  1114 net.cpp:425] relu3 <- conv3
I0403 14:18:51.640575  1114 net.cpp:386] relu3 -> conv3 (in-place)
I0403 14:18:51.640859  1114 net.cpp:141] Setting up relu3
I0403 14:18:51.640887  1114 net.cpp:148] Top shape: 100 384 13 13 (6489600)
I0403 14:18:51.640903  1114 net.cpp:156] Memory required for data: 731481200
I0403 14:18:51.640919  1114 layer_factory.hpp:77] Creating layer conv4
I0403 14:18:51.640945  1114 net.cpp:91] Creating Layer conv4
I0403 14:18:51.640997  1114 net.cpp:425] conv4 <- conv3
I0403 14:18:51.641027  1114 net.cpp:399] conv4 -> conv4
I0403 14:18:51.671313  1114 net.cpp:141] Setting up conv4
I0403 14:18:51.671358  1114 net.cpp:148] Top shape: 100 384 13 13 (6489600)
I0403 14:18:51.671406  1114 net.cpp:156] Memory required for data: 757439600
I0403 14:18:51.671427  1114 layer_factory.hpp:77] Creating layer relu4
I0403 14:18:51.671448  1114 net.cpp:91] Creating Layer relu4
I0403 14:18:51.671465  1114 net.cpp:425] relu4 <- conv4
I0403 14:18:51.671488  1114 net.cpp:386] relu4 -> conv4 (in-place)
I0403 14:18:51.671771  1114 net.cpp:141] Setting up relu4
I0403 14:18:51.671797  1114 net.cpp:148] Top shape: 100 384 13 13 (6489600)
I0403 14:18:51.671811  1114 net.cpp:156] Memory required for data: 783398000
I0403 14:18:51.671826  1114 layer_factory.hpp:77] Creating layer conv5
I0403 14:18:51.671852  1114 net.cpp:91] Creating Layer conv5
I0403 14:18:51.671870  1114 net.cpp:425] conv5 <- conv4
I0403 14:18:51.671893  1114 net.cpp:399] conv5 -> conv5
I0403 14:18:51.692210  1114 net.cpp:141] Setting up conv5
I0403 14:18:51.692251  1114 net.cpp:148] Top shape: 100 256 13 13 (4326400)
I0403 14:18:51.692267  1114 net.cpp:156] Memory required for data: 800703600
I0403 14:18:51.692306  1114 layer_factory.hpp:77] Creating layer relu5
I0403 14:18:51.692327  1114 net.cpp:91] Creating Layer relu5
I0403 14:18:51.692348  1114 net.cpp:425] relu5 <- conv5
I0403 14:18:51.692405  1114 net.cpp:386] relu5 -> conv5 (in-place)
I0403 14:18:51.692713  1114 net.cpp:141] Setting up relu5
I0403 14:18:51.692741  1114 net.cpp:148] Top shape: 100 256 13 13 (4326400)
I0403 14:18:51.692756  1114 net.cpp:156] Memory required for data: 818009200
I0403 14:18:51.692778  1114 layer_factory.hpp:77] Creating layer pool5
I0403 14:18:51.692802  1114 net.cpp:91] Creating Layer pool5
I0403 14:18:51.692821  1114 net.cpp:425] pool5 <- conv5
I0403 14:18:51.692838  1114 net.cpp:399] pool5 -> pool5
I0403 14:18:51.692901  1114 net.cpp:141] Setting up pool5
I0403 14:18:51.692924  1114 net.cpp:148] Top shape: 100 256 6 6 (921600)
I0403 14:18:51.692939  1114 net.cpp:156] Memory required for data: 821695600
I0403 14:18:51.692955  1114 layer_factory.hpp:77] Creating layer fc6
I0403 14:18:51.692981  1114 net.cpp:91] Creating Layer fc6
I0403 14:18:51.692998  1114 net.cpp:425] fc6 <- pool5
I0403 14:18:51.693019  1114 net.cpp:399] fc6 -> fc6
I0403 14:18:53.268879  1114 net.cpp:141] Setting up fc6
I0403 14:18:53.268928  1114 net.cpp:148] Top shape: 100 4096 (409600)
I0403 14:18:53.268945  1114 net.cpp:156] Memory required for data: 823334000
I0403 14:18:53.268967  1114 layer_factory.hpp:77] Creating layer relu6
I0403 14:18:53.268990  1114 net.cpp:91] Creating Layer relu6
I0403 14:18:53.269008  1114 net.cpp:425] relu6 <- fc6
I0403 14:18:53.269031  1114 net.cpp:386] relu6 -> fc6 (in-place)
I0403 14:18:53.269266  1114 net.cpp:141] Setting up relu6
I0403 14:18:53.269309  1114 net.cpp:148] Top shape: 100 4096 (409600)
I0403 14:18:53.269325  1114 net.cpp:156] Memory required for data: 824972400
I0403 14:18:53.269340  1114 layer_factory.hpp:77] Creating layer drop6
I0403 14:18:53.269359  1114 net.cpp:91] Creating Layer drop6
I0403 14:18:53.269376  1114 net.cpp:425] drop6 <- fc6
I0403 14:18:53.269397  1114 net.cpp:386] drop6 -> fc6 (in-place)
I0403 14:18:53.269450  1114 net.cpp:141] Setting up drop6
I0403 14:18:53.269476  1114 net.cpp:148] Top shape: 100 4096 (409600)
I0403 14:18:53.269492  1114 net.cpp:156] Memory required for data: 826610800
I0403 14:18:53.269507  1114 layer_factory.hpp:77] Creating layer fc7
I0403 14:18:53.269527  1114 net.cpp:91] Creating Layer fc7
I0403 14:18:53.269543  1114 net.cpp:425] fc7 <- fc6
I0403 14:18:53.269564  1114 net.cpp:399] fc7 -> fc7
I0403 14:18:53.962467  1114 net.cpp:141] Setting up fc7
I0403 14:18:53.962510  1114 net.cpp:148] Top shape: 100 4096 (409600)
I0403 14:18:53.962527  1114 net.cpp:156] Memory required for data: 828249200
I0403 14:18:53.962549  1114 layer_factory.hpp:77] Creating layer relu7
I0403 14:18:53.962584  1114 net.cpp:91] Creating Layer relu7
I0403 14:18:53.962601  1114 net.cpp:425] relu7 <- fc7
I0403 14:18:53.962621  1114 net.cpp:386] relu7 -> fc7 (in-place)
I0403 14:18:53.963035  1114 net.cpp:141] Setting up relu7
I0403 14:18:53.963060  1114 net.cpp:148] Top shape: 100 4096 (409600)
I0403 14:18:53.963107  1114 net.cpp:156] Memory required for data: 829887600
I0403 14:18:53.963122  1114 layer_factory.hpp:77] Creating layer drop7
I0403 14:18:53.963140  1114 net.cpp:91] Creating Layer drop7
I0403 14:18:53.963156  1114 net.cpp:425] drop7 <- fc7
I0403 14:18:53.963176  1114 net.cpp:386] drop7 -> fc7 (in-place)
I0403 14:18:53.963217  1114 net.cpp:141] Setting up drop7
I0403 14:18:53.963243  1114 net.cpp:148] Top shape: 100 4096 (409600)
I0403 14:18:53.963258  1114 net.cpp:156] Memory required for data: 831526000
I0403 14:18:53.963275  1114 layer_factory.hpp:77] Creating layer fc8_plantvillage
I0403 14:18:53.963296  1114 net.cpp:91] Creating Layer fc8_plantvillage
I0403 14:18:53.963311  1114 net.cpp:425] fc8_plantvillage <- fc7
I0403 14:18:53.963331  1114 net.cpp:399] fc8_plantvillage -> fc8_plantvillage
I0403 14:18:53.969876  1114 net.cpp:141] Setting up fc8_plantvillage
I0403 14:18:53.969903  1114 net.cpp:148] Top shape: 100 38 (3800)
I0403 14:18:53.969920  1114 net.cpp:156] Memory required for data: 831541200
I0403 14:18:53.969939  1114 layer_factory.hpp:77] Creating layer fc8_plantvillage_fc8_plantvillage_0_split
I0403 14:18:53.969959  1114 net.cpp:91] Creating Layer fc8_plantvillage_fc8_plantvillage_0_split
I0403 14:18:53.969976  1114 net.cpp:425] fc8_plantvillage_fc8_plantvillage_0_split <- fc8_plantvillage
I0403 14:18:53.969995  1114 net.cpp:399] fc8_plantvillage_fc8_plantvillage_0_split -> fc8_plantvillage_fc8_plantvillage_0_split_0
I0403 14:18:53.970015  1114 net.cpp:399] fc8_plantvillage_fc8_plantvillage_0_split -> fc8_plantvillage_fc8_plantvillage_0_split_1
I0403 14:18:53.970034  1114 net.cpp:399] fc8_plantvillage_fc8_plantvillage_0_split -> fc8_plantvillage_fc8_plantvillage_0_split_2
I0403 14:18:53.970111  1114 net.cpp:141] Setting up fc8_plantvillage_fc8_plantvillage_0_split
I0403 14:18:53.970135  1114 net.cpp:148] Top shape: 100 38 (3800)
I0403 14:18:53.970151  1114 net.cpp:148] Top shape: 100 38 (3800)
I0403 14:18:53.970167  1114 net.cpp:148] Top shape: 100 38 (3800)
I0403 14:18:53.970181  1114 net.cpp:156] Memory required for data: 831586800
I0403 14:18:53.970196  1114 layer_factory.hpp:77] Creating layer prob
I0403 14:18:53.970216  1114 net.cpp:91] Creating Layer prob
I0403 14:18:53.970232  1114 net.cpp:425] prob <- fc8_plantvillage_fc8_plantvillage_0_split_0
I0403 14:18:53.970248  1114 net.cpp:399] prob -> prob
I0403 14:18:53.970479  1114 net.cpp:141] Setting up prob
I0403 14:18:53.970504  1114 net.cpp:148] Top shape: 100 38 (3800)
I0403 14:18:53.970518  1114 net.cpp:156] Memory required for data: 831602000
I0403 14:18:53.970531  1114 layer_factory.hpp:77] Creating layer hdf5out
I0403 14:18:53.970549  1114 net.cpp:91] Creating Layer hdf5out
I0403 14:18:53.970564  1114 net.cpp:425] hdf5out <- prob
I0403 14:18:53.970579  1114 net.cpp:425] hdf5out <- label_data_1_split_0
I0403 14:18:53.973146  1114 net.cpp:141] Setting up hdf5out
…
