…
I0403 14:23:53.397289  1226 net.cpp:313] The NetState phase (1) differed from the phase (0) specified by a rule in layer data
I0403 14:23:53.397588  1226 net.cpp:49] Initializing net from parameters: 
state {
  phase: TEST
}
layer {
  name: "data"
  type: "Data"
  top: "data"
  top: "label"
  include {
    phase: TEST
  }
  transform_param {
    crop_size: 227
    mean_file: "/home/mohanty/data/final_dataset/lmdb/segmented-50-50/mean.binaryproto"
  }
  data_param {
    source: "/home/mohanty/data/final_dataset/lmdb/segmented-50-50/test_db"
    batch_size: 100
    backend: LMDB
  }
}
layer {
  name: "conv1"
  type: "Convolution"
  bottom: "data"
  top: "conv1"
  param {
    lr_mult: 1
    decay_mult: 1
  }
  param {
    lr_mult: 2
    decay_mult: 0
  }
  convolution_param {
    num_output: 96
    kernel_size: 11
    stride: 4
    weight_filler {
      type: "gaussian"
      std: 0.01
    }
    bias_filler {
      type: "constant"
      value: 0
    }
  }
}
layer {
  name: "relu1"
  type: "ReLU"
  bottom: "conv1"
  top: "conv1"
}
layer {
  name: "norm1"
  type: "LRN"
  bottom: "conv1"
  top: "norm1"
  lrn_param {
    local_size: 5
    alpha: 0.0001
    beta: 0.75
  }
}
layer {
  name: "pool1"
  type: "Pooling"
  bottom: "norm1"
  top: "pool1"
  pooling_param {
    pool: MAX
    kernel_size: 3
    stride: 2
  }
}
layer {
  name: "conv2"
  type: "Convolution"
  bottom: "pool1"
  top: "conv2"
  param {
    lr_mult: 1
    decay_mult: 1
  }
  param {
    lr_mult: 2
    decay_mult: 0
  }
  convolution_param {
    num_output: 256
    pad: 2
    kernel_size: 5
    group: 2
    weight_filler {
      type: "gaussian"
      std: 0.01
    }
    bias_filler {
      type: "constant"
      value: 0.1
    }
  }
}
layer {
  name: "relu2"
  type: "ReLU"
  bottom: "conv2"
  top: "conv2"
}
layer {
  name: "norm2"
  type: "LRN"
  bottom: "conv2"
  top: "norm2"
  lrn_param {
    local_size: 5
    alpha: 0.0001
    beta: 0.75
  }
}
layer {
  name: "pool2"
  type: "Pooling"
  bottom: "norm2"
  top: "pool2"
  pooling_param {
    pool: MAX
    kernel_size: 3
    stride: 2
  }
}
layer {
  name: "conv3"
  type: "Convolution"
  bottom: "pool2"
  top: "conv3"
  param {
    lr_mult: 1
    decay_mult: 1
  }
  param {
    lr_mult: 2
    decay_mult: 0
  }
  convolution_param {
    num_output: 384
    pad: 1
    kernel_size: 3
    weight_filler {
      type: "gaussian"
      std: 0.01
    }
    bias_filler {
      type: "constant"
      value: 0
    }
  }
}
layer {
  name: "relu3"
  type: "ReLU"
  bottom: "conv3"
  top: "conv3"
}
layer {
  name: "conv4"
  type: "Convolution"
  bottom: "conv3"
  top: "conv4"
  param {
    lr_mult: 1
    decay_mult: 1
  }
  param {
    lr_mult: 2
    decay_mult: 0
  }
  convolution_param {
    num_output: 384
    pad: 1
    kernel_size: 3
    group: 2
    weight_filler {
      type: "gaussian"
      std: 0.01
    }
    bias_filler {
      type: "constant"
      value: 0.1
    }
  }
}
layer {
  name: "relu4"
  type: "ReLU"
  bottom: "conv4"
  top: "conv4"
}
layer {
  name: "conv5"
  type: "Convolution"
  bottom: "conv4"
  top: "conv5"
  param {
    lr_mult: 1
    decay_mult: 1
  }
  param {
    lr_mult: 2
    decay_mult: 0
  }
  convolution_param {
    num_output: 256
    pad: 1
    kernel_size: 3
    group: 2
    weight_filler {
      type: "gaussian"
      std: 0.01
    }
    bias_filler {
      type: "constant"
      value: 0.1
    }
  }
}
layer {
  name: "relu5"
  type: "ReLU"
  bottom: "conv5"
  top: "conv5"
}
layer {
  name: "pool5"
  type: "Pooling"
  bottom: "conv5"
  top: "pool5"
  pooling_param {
    pool: MAX
    kernel_size: 3
    stride: 2
  }
}
layer {
  name: "fc6"
  type: "InnerProduct"
  bottom: "pool5"
  top: "fc6"
  param {
    lr_mult: 1
    decay_mult: 1
  }
  param {
    lr_mult: 2
    decay_mult: 0
  }
  inner_product_param {
    num_output: 4096
    weight_filler {
      type: "gaussian"
      std: 0.005
    }
    bias_filler {
      type: "constant"
      value: 0.1
    }
  }
}
layer {
  name: "relu6"
  type: "ReLU"
  bottom: "fc6"
  top: "fc6"
}
layer {
  name: "drop6"
  type: "Dropout"
  bottom: "fc6"
  top: "fc6"
  dropout_param {
    dropout_ratio: 0.5
  }
}
layer {
  name: "fc7"
  type: "InnerProduct"
  bottom: "fc6"
  top: "fc7"
  param {
    lr_mult: 1
    decay_mult: 1
  }
  param {
    lr_mult: 2
    decay_mult: 0
  }
  inner_product_param {
    num_output: 4096
    weight_filler {
      type: "gaussian"
      std: 0.005
    }
    bias_filler {
      type: "constant"
      value: 0.1
    }
  }
}
layer {
  name: "relu7"
  type: "ReLU"
  bottom: "fc7"
  top: "fc7"
}
layer {
  name: "drop7"
  type: "Dropout"
  bottom: "fc7"
  top: "fc7"
  dropout_param {
    dropout_ratio: 0.5
  }
}
layer {
  name: "fc8_plantvillage"
  type: "InnerProduct"
  bottom: "fc7"
  top: "fc8_plantvillage"
  param {
    lr_mult: 1
    decay_mult: 1
  }
  param {
    lr_mult: 2
    decay_mult: 0
  }
  inner_product_param {
    num_output: 38
    weight_filler {
      type: "gaussian"
      std: 0.01
    }
    bias_filler {
      type: "constant"
      value: 0
    }
  }
}
layer {
  name: "prob"
  type: "Softmax"
  bottom: "fc8_plantvillage"
  top: "prob"
  include {
    phase: TEST
  }
}
layer {
  name: "hdf5out"
  type: "HDF5Output"
  bottom: "prob"
  bottom: "label"
  include {
    phase: TEST
  }
  hdf5_output_param {
    file_name: "hdf5_dumps/iter_5360.h5"
  }
}
layer {
  name: "loss"
  type: "SoftmaxWithLoss"
  bottom: "fc8_plantvillage"
  bottom: "label"
  top: "loss"
}
layer {
  name: "accuracy"
  type: "Accuracy"
  bottom: "fc8_plantvillage"
  bottom: "label"
  top: "accuracy"
  include {
    phase: TEST
  }
}
I0403 14:23:53.398176  1226 layer_factory.hpp:77] Creating layer data
I0403 14:23:53.398833  1226 net.cpp:91] Creating Layer data
I0403 14:23:53.398865  1226 net.cpp:399] data -> data
I0403 14:23:53.398917  1226 net.cpp:399] data -> label
I0403 14:23:53.398955  1226 data_transformer.cpp:25] Loading mean file from: /home/mohanty/data/final_dataset/lmdb/segmented-50-50/mean.binaryproto
I0403 14:23:53.402243  1229 db_lmdb.cpp:38] Opened lmdb /home/mohanty/data/final_dataset/lmdb/segmented-50-50/test_db
I0403 14:23:53.413414  1226 data_layer.cpp:41] output data size: 100,3,227,227
I0403 14:23:53.534289  1226 net.cpp:141] Setting up data
I0403 14:23:53.534349  1226 net.cpp:148] Top shape: 100 3 227 227 (15458700)
I0403 14:23:53.534373  1226 net.cpp:148] Top shape: 100 (100)
I0403 14:23:53.534390  1226 net.cpp:156] Memory required for data: 61835200
I0403 14:23:53.534418  1226 layer_factory.hpp:77] Creating layer label_data_1_split
I0403 14:23:53.534443  1226 net.cpp:91] Creating Layer label_data_1_split
I0403 14:23:53.534462  1226 net.cpp:425] label_data_1_split <- label
I0403 14:23:53.534494  1226 net.cpp:399] label_data_1_split -> label_data_1_split_0
I0403 14:23:53.534523  1226 net.cpp:399] label_data_1_split -> label_data_1_split_1
I0403 14:23:53.534543  1226 net.cpp:399] label_data_1_split -> label_data_1_split_2
I0403 14:23:53.534606  1226 net.cpp:141] Setting up label_data_1_split
I0403 14:23:53.534631  1226 net.cpp:148] Top shape: 100 (100)
I0403 14:23:53.534648  1226 net.cpp:148] Top shape: 100 (100)
I0403 14:23:53.534665  1226 net.cpp:148] Top shape: 100 (100)
I0403 14:23:53.534679  1226 net.cpp:156] Memory required for data: 61836400
I0403 14:23:53.534694  1226 layer_factory.hpp:77] Creating layer conv1
I0403 14:23:53.534729  1226 net.cpp:91] Creating Layer conv1
I0403 14:23:53.534747  1226 net.cpp:425] conv1 <- data
I0403 14:23:53.534767  1226 net.cpp:399] conv1 -> conv1
I0403 14:23:53.672080  1226 net.cpp:141] Setting up conv1
I0403 14:23:53.672158  1226 net.cpp:148] Top shape: 100 96 55 55 (29040000)
I0403 14:23:53.672176  1226 net.cpp:156] Memory required for data: 177996400
I0403 14:23:53.672209  1226 layer_factory.hpp:77] Creating layer relu1
I0403 14:23:53.672236  1226 net.cpp:91] Creating Layer relu1
I0403 14:23:53.672266  1226 net.cpp:425] relu1 <- conv1
I0403 14:23:53.672286  1226 net.cpp:386] relu1 -> conv1 (in-place)
I0403 14:23:53.672540  1226 net.cpp:141] Setting up relu1
I0403 14:23:53.672567  1226 net.cpp:148] Top shape: 100 96 55 55 (29040000)
I0403 14:23:53.672615  1226 net.cpp:156] Memory required for data: 294156400
I0403 14:23:53.672631  1226 layer_factory.hpp:77] Creating layer norm1
I0403 14:23:53.672658  1226 net.cpp:91] Creating Layer norm1
I0403 14:23:53.672675  1226 net.cpp:425] norm1 <- conv1
I0403 14:23:53.672693  1226 net.cpp:399] norm1 -> norm1
I0403 14:23:53.672994  1226 net.cpp:141] Setting up norm1
I0403 14:23:53.673022  1226 net.cpp:148] Top shape: 100 96 55 55 (29040000)
I0403 14:23:53.673038  1226 net.cpp:156] Memory required for data: 410316400
I0403 14:23:53.673053  1226 layer_factory.hpp:77] Creating layer pool1
I0403 14:23:53.673075  1226 net.cpp:91] Creating Layer pool1
I0403 14:23:53.673092  1226 net.cpp:425] pool1 <- norm1
I0403 14:23:53.673110  1226 net.cpp:399] pool1 -> pool1
I0403 14:23:53.673174  1226 net.cpp:141] Setting up pool1
I0403 14:23:53.673198  1226 net.cpp:148] Top shape: 100 96 27 27 (6998400)
I0403 14:23:53.673213  1226 net.cpp:156] Memory required for data: 438310000
I0403 14:23:53.673228  1226 layer_factory.hpp:77] Creating layer conv2
I0403 14:23:53.673255  1226 net.cpp:91] Creating Layer conv2
I0403 14:23:53.673274  1226 net.cpp:425] conv2 <- pool1
I0403 14:23:53.673291  1226 net.cpp:399] conv2 -> conv2
I0403 14:23:53.687669  1226 net.cpp:141] Setting up conv2
I0403 14:23:53.687705  1226 net.cpp:148] Top shape: 100 256 27 27 (18662400)
I0403 14:23:53.687723  1226 net.cpp:156] Memory required for data: 512959600
I0403 14:23:53.687746  1226 layer_factory.hpp:77] Creating layer relu2
I0403 14:23:53.687764  1226 net.cpp:91] Creating Layer relu2
I0403 14:23:53.687780  1226 net.cpp:425] relu2 <- conv2
I0403 14:23:53.687798  1226 net.cpp:386] relu2 -> conv2 (in-place)
I0403 14:23:53.688068  1226 net.cpp:141] Setting up relu2
I0403 14:23:53.688097  1226 net.cpp:148] Top shape: 100 256 27 27 (18662400)
I0403 14:23:53.688112  1226 net.cpp:156] Memory required for data: 587609200
I0403 14:23:53.688128  1226 layer_factory.hpp:77] Creating layer norm2
I0403 14:23:53.688149  1226 net.cpp:91] Creating Layer norm2
I0403 14:23:53.688168  1226 net.cpp:425] norm2 <- conv2
I0403 14:23:53.688189  1226 net.cpp:399] norm2 -> norm2
I0403 14:23:53.688395  1226 net.cpp:141] Setting up norm2
I0403 14:23:53.688422  1226 net.cpp:148] Top shape: 100 256 27 27 (18662400)
I0403 14:23:53.688438  1226 net.cpp:156] Memory required for data: 662258800
I0403 14:23:53.688453  1226 layer_factory.hpp:77] Creating layer pool2
I0403 14:23:53.688472  1226 net.cpp:91] Creating Layer pool2
I0403 14:23:53.688487  1226 net.cpp:425] pool2 <- norm2
I0403 14:23:53.688504  1226 net.cpp:399] pool2 -> pool2
I0403 14:23:53.688556  1226 net.cpp:141] Setting up pool2
I0403 14:23:53.688578  1226 net.cpp:148] Top shape: 100 256 13 13 (4326400)
I0403 14:23:53.688593  1226 net.cpp:156] Memory required for data: 679564400
I0403 14:23:53.688607  1226 layer_factory.hpp:77] Creating layer conv3
I0403 14:23:53.688629  1226 net.cpp:91] Creating Layer conv3
I0403 14:23:53.688647  1226 net.cpp:425] conv3 <- pool2
I0403 14:23:53.688668  1226 net.cpp:399] conv3 -> conv3
I0403 14:23:53.726675  1226 net.cpp:141] Setting up conv3
I0403 14:23:53.726750  1226 net.cpp:148] Top shape: 100 384 13 13 (6489600)
I0403 14:23:53.726768  1226 net.cpp:156] Memory required for data: 705522800
I0403 14:23:53.726794  1226 layer_factory.hpp:77] Creating layer relu3
I0403 14:23:53.726819  1226 net.cpp:91] Creating Layer relu3
I0403 14:23:53.726835  1226 net.cpp:425] relu3 <- conv3
I0403 14:23:53.726855  1226 net.cpp:386] relu3 -> conv3 (in-place)
I0403 14:23:53.727135  1226 net.cpp:141] Setting up relu3
I0403 14:23:53.727164  1226 net.cpp:148] Top shape: 100 384 13 13 (6489600)
I0403 14:23:53.727181  1226 net.cpp:156] Memory required for data: 731481200
I0403 14:23:53.727197  1226 layer_factory.hpp:77] Creating layer conv4
I0403 14:23:53.727223  1226 net.cpp:91] Creating Layer conv4
I0403 14:23:53.727246  1226 net.cpp:425] conv4 <- conv3
I0403 14:23:53.727267  1226 net.cpp:399] conv4 -> conv4
I0403 14:23:53.756938  1226 net.cpp:141] Setting up conv4
I0403 14:23:53.757012  1226 net.cpp:148] Top shape: 100 384 13 13 (6489600)
I0403 14:23:53.757063  1226 net.cpp:156] Memory required for data: 757439600
I0403 14:23:53.757086  1226 layer_factory.hpp:77] Creating layer relu4
I0403 14:23:53.757108  1226 net.cpp:91] Creating Layer relu4
I0403 14:23:53.757128  1226 net.cpp:425] relu4 <- conv4
I0403 14:23:53.757146  1226 net.cpp:386] relu4 -> conv4 (in-place)
I0403 14:23:53.757427  1226 net.cpp:141] Setting up relu4
I0403 14:23:53.757453  1226 net.cpp:148] Top shape: 100 384 13 13 (6489600)
I0403 14:23:53.757468  1226 net.cpp:156] Memory required for data: 783398000
I0403 14:23:53.757483  1226 layer_factory.hpp:77] Creating layer conv5
I0403 14:23:53.757508  1226 net.cpp:91] Creating Layer conv5
I0403 14:23:53.757524  1226 net.cpp:425] conv5 <- conv4
I0403 14:23:53.757546  1226 net.cpp:399] conv5 -> conv5
I0403 14:23:53.777380  1226 net.cpp:141] Setting up conv5
I0403 14:23:53.777415  1226 net.cpp:148] Top shape: 100 256 13 13 (4326400)
I0403 14:23:53.777432  1226 net.cpp:156] Memory required for data: 800703600
I0403 14:23:53.777458  1226 layer_factory.hpp:77] Creating layer relu5
I0403 14:23:53.777477  1226 net.cpp:91] Creating Layer relu5
I0403 14:23:53.777494  1226 net.cpp:425] relu5 <- conv5
I0403 14:23:53.777511  1226 net.cpp:386] relu5 -> conv5 (in-place)
I0403 14:23:53.777791  1226 net.cpp:141] Setting up relu5
I0403 14:23:53.777819  1226 net.cpp:148] Top shape: 100 256 13 13 (4326400)
I0403 14:23:53.777834  1226 net.cpp:156] Memory required for data: 818009200
I0403 14:23:53.777850  1226 layer_factory.hpp:77] Creating layer pool5
I0403 14:23:53.777871  1226 net.cpp:91] Creating Layer pool5
I0403 14:23:53.777889  1226 net.cpp:425] pool5 <- conv5
I0403 14:23:53.777909  1226 net.cpp:399] pool5 -> pool5
I0403 14:23:53.777969  1226 net.cpp:141] Setting up pool5
I0403 14:23:53.777992  1226 net.cpp:148] Top shape: 100 256 6 6 (921600)
I0403 14:23:53.778007  1226 net.cpp:156] Memory required for data: 821695600
I0403 14:23:53.778022  1226 layer_factory.hpp:77] Creating layer fc6
I0403 14:23:53.778049  1226 net.cpp:91] Creating Layer fc6
I0403 14:23:53.778067  1226 net.cpp:425] fc6 <- pool5
I0403 14:23:53.778089  1226 net.cpp:399] fc6 -> fc6
I0403 14:23:55.315731  1226 net.cpp:141] Setting up fc6
I0403 14:23:55.315774  1226 net.cpp:148] Top shape: 100 4096 (409600)
I0403 14:23:55.315793  1226 net.cpp:156] Memory required for data: 823334000
I0403 14:23:55.315815  1226 layer_factory.hpp:77] Creating layer relu6
I0403 14:23:55.315839  1226 net.cpp:91] Creating Layer relu6
I0403 14:23:55.315857  1226 net.cpp:425] relu6 <- fc6
I0403 14:23:55.315879  1226 net.cpp:386] relu6 -> fc6 (in-place)
I0403 14:23:55.316103  1226 net.cpp:141] Setting up relu6
I0403 14:23:55.316131  1226 net.cpp:148] Top shape: 100 4096 (409600)
I0403 14:23:55.316146  1226 net.cpp:156] Memory required for data: 824972400
I0403 14:23:55.316162  1226 layer_factory.hpp:77] Creating layer drop6
I0403 14:23:55.316180  1226 net.cpp:91] Creating Layer drop6
I0403 14:23:55.316196  1226 net.cpp:425] drop6 <- fc6
I0403 14:23:55.316213  1226 net.cpp:386] drop6 -> fc6 (in-place)
I0403 14:23:55.316270  1226 net.cpp:141] Setting up drop6
I0403 14:23:55.316294  1226 net.cpp:148] Top shape: 100 4096 (409600)
I0403 14:23:55.316309  1226 net.cpp:156] Memory required for data: 826610800
I0403 14:23:55.316324  1226 layer_factory.hpp:77] Creating layer fc7
I0403 14:23:55.316347  1226 net.cpp:91] Creating Layer fc7
I0403 14:23:55.316364  1226 net.cpp:425] fc7 <- fc6
I0403 14:23:55.316381  1226 net.cpp:399] fc7 -> fc7
I0403 14:23:55.994391  1226 net.cpp:141] Setting up fc7
I0403 14:23:55.994472  1226 net.cpp:148] Top shape: 100 4096 (409600)
I0403 14:23:55.994488  1226 net.cpp:156] Memory required for data: 828249200
I0403 14:23:55.994508  1226 layer_factory.hpp:77] Creating layer relu7
I0403 14:23:55.994532  1226 net.cpp:91] Creating Layer relu7
I0403 14:23:55.994550  1226 net.cpp:425] relu7 <- fc7
I0403 14:23:55.994570  1226 net.cpp:386] relu7 -> fc7 (in-place)
I0403 14:23:55.994972  1226 net.cpp:141] Setting up relu7
I0403 14:23:55.994997  1226 net.cpp:148] Top shape: 100 4096 (409600)
I0403 14:23:55.995059  1226 net.cpp:156] Memory required for data: 829887600
I0403 14:23:55.995075  1226 layer_factory.hpp:77] Creating layer drop7
I0403 14:23:55.995097  1226 net.cpp:91] Creating Layer drop7
I0403 14:23:55.995115  1226 net.cpp:425] drop7 <- fc7
I0403 14:23:55.995131  1226 net.cpp:386] drop7 -> fc7 (in-place)
I0403 14:23:55.995175  1226 net.cpp:141] Setting up drop7
I0403 14:23:55.995198  1226 net.cpp:148] Top shape: 100 4096 (409600)
I0403 14:23:55.995213  1226 net.cpp:156] Memory required for data: 831526000
I0403 14:23:55.995226  1226 layer_factory.hpp:77] Creating layer fc8_plantvillage
I0403 14:23:55.995254  1226 net.cpp:91] Creating Layer fc8_plantvillage
I0403 14:23:55.995272  1226 net.cpp:425] fc8_plantvillage <- fc7
I0403 14:23:55.995290  1226 net.cpp:399] fc8_plantvillage -> fc8_plantvillage
I0403 14:23:56.001922  1226 net.cpp:141] Setting up fc8_plantvillage
I0403 14:23:56.001952  1226 net.cpp:148] Top shape: 100 38 (3800)
I0403 14:23:56.001968  1226 net.cpp:156] Memory required for data: 831541200
I0403 14:23:56.001988  1226 layer_factory.hpp:77] Creating layer fc8_plantvillage_fc8_plantvillage_0_split
I0403 14:23:56.002007  1226 net.cpp:91] Creating Layer fc8_plantvillage_fc8_plantvillage_0_split
I0403 14:23:56.002023  1226 net.cpp:425] fc8_plantvillage_fc8_plantvillage_0_split <- fc8_plantvillage
I0403 14:23:56.002040  1226 net.cpp:399] fc8_plantvillage_fc8_plantvillage_0_split -> fc8_plantvillage_fc8_plantvillage_0_split_0
I0403 14:23:56.002063  1226 net.cpp:399] fc8_plantvillage_fc8_plantvillage_0_split -> fc8_plantvillage_fc8_plantvillage_0_split_1
I0403 14:23:56.002085  1226 net.cpp:399] fc8_plantvillage_fc8_plantvillage_0_split -> fc8_plantvillage_fc8_plantvillage_0_split_2
I0403 14:23:56.002163  1226 net.cpp:141] Setting up fc8_plantvillage_fc8_plantvillage_0_split
I0403 14:23:56.002187  1226 net.cpp:148] Top shape: 100 38 (3800)
I0403 14:23:56.002204  1226 net.cpp:148] Top shape: 100 38 (3800)
I0403 14:23:56.002220  1226 net.cpp:148] Top shape: 100 38 (3800)
I0403 14:23:56.002234  1226 net.cpp:156] Memory required for data: 831586800
I0403 14:23:56.002260  1226 layer_factory.hpp:77] Creating layer prob
I0403 14:23:56.002281  1226 net.cpp:91] Creating Layer prob
I0403 14:23:56.002297  1226 net.cpp:425] prob <- fc8_plantvillage_fc8_plantvillage_0_split_0
I0403 14:23:56.002316  1226 net.cpp:399] prob -> prob
I0403 14:23:56.002542  1226 net.cpp:141] Setting up prob
I0403 14:23:56.002579  1226 net.cpp:148] Top shape: 100 38 (3800)
I0403 14:23:56.002593  1226 net.cpp:156] Memory required for data: 831602000
I0403 14:23:56.002609  1226 layer_factory.hpp:77] Creating layer hdf5out
I0403 14:23:56.002630  1226 net.cpp:91] Creating Layer hdf5out
I0403 14:23:56.002646  1226 net.cpp:425] hdf5out <- prob
I0403 14:23:56.002662  1226 net.cpp:425] hdf5out <- label_data_1_split_0
I0403 14:23:56.004858  1226 net.cpp:141] Setting up hdf5out
…
