…
I0403 14:19:42.008494  1145 net.cpp:313] The NetState phase (1) differed from the phase (0) specified by a rule in layer data
I0403 14:19:42.008785  1145 net.cpp:49] Initializing net from parameters: 
state {
  phase: TEST
}
layer {
  name: "data"
  type: "Data"
  top: "data"
  top: "label"
  include {
    phase: TEST
  }
  transform_param {
    crop_size: 227
    mean_file: "/home/mohanty/data/final_dataset/lmdb/segmented-50-50/mean.binaryproto"
  }
  data_param {
    source: "/home/mohanty/data/final_dataset/lmdb/segmented-50-50/test_db"
    batch_size: 100
    backend: LMDB
  }
}
layer {
  name: "conv1"
  type: "Convolution"
  bottom: "data"
  top: "conv1"
  param {
    lr_mult: 1
    decay_mult: 1
  }
  param {
    lr_mult: 2
    decay_mult: 0
  }
  convolution_param {
    num_output: 96
    kernel_size: 11
    stride: 4
    weight_filler {
      type: "gaussian"
      std: 0.01
    }
    bias_filler {
      type: "constant"
      value: 0
    }
  }
}
layer {
  name: "relu1"
  type: "ReLU"
  bottom: "conv1"
  top: "conv1"
}
layer {
  name: "norm1"
  type: "LRN"
  bottom: "conv1"
  top: "norm1"
  lrn_param {
    local_size: 5
    alpha: 0.0001
    beta: 0.75
  }
}
layer {
  name: "pool1"
  type: "Pooling"
  bottom: "norm1"
  top: "pool1"
  pooling_param {
    pool: MAX
    kernel_size: 3
    stride: 2
  }
}
layer {
  name: "conv2"
  type: "Convolution"
  bottom: "pool1"
  top: "conv2"
  param {
    lr_mult: 1
    decay_mult: 1
  }
  param {
    lr_mult: 2
    decay_mult: 0
  }
  convolution_param {
    num_output: 256
    pad: 2
    kernel_size: 5
    group: 2
    weight_filler {
      type: "gaussian"
      std: 0.01
    }
    bias_filler {
      type: "constant"
      value: 0.1
    }
  }
}
layer {
  name: "relu2"
  type: "ReLU"
  bottom: "conv2"
  top: "conv2"
}
layer {
  name: "norm2"
  type: "LRN"
  bottom: "conv2"
  top: "norm2"
  lrn_param {
    local_size: 5
    alpha: 0.0001
    beta: 0.75
  }
}
layer {
  name: "pool2"
  type: "Pooling"
  bottom: "norm2"
  top: "pool2"
  pooling_param {
    pool: MAX
    kernel_size: 3
    stride: 2
  }
}
layer {
  name: "conv3"
  type: "Convolution"
  bottom: "pool2"
  top: "conv3"
  param {
    lr_mult: 1
    decay_mult: 1
  }
  param {
    lr_mult: 2
    decay_mult: 0
  }
  convolution_param {
    num_output: 384
    pad: 1
    kernel_size: 3
    weight_filler {
      type: "gaussian"
      std: 0.01
    }
    bias_filler {
      type: "constant"
      value: 0
    }
  }
}
layer {
  name: "relu3"
  type: "ReLU"
  bottom: "conv3"
  top: "conv3"
}
layer {
  name: "conv4"
  type: "Convolution"
  bottom: "conv3"
  top: "conv4"
  param {
    lr_mult: 1
    decay_mult: 1
  }
  param {
    lr_mult: 2
    decay_mult: 0
  }
  convolution_param {
    num_output: 384
    pad: 1
    kernel_size: 3
    group: 2
    weight_filler {
      type: "gaussian"
      std: 0.01
    }
    bias_filler {
      type: "constant"
      value: 0.1
    }
  }
}
layer {
  name: "relu4"
  type: "ReLU"
  bottom: "conv4"
  top: "conv4"
}
layer {
  name: "conv5"
  type: "Convolution"
  bottom: "conv4"
  top: "conv5"
  param {
    lr_mult: 1
    decay_mult: 1
  }
  param {
    lr_mult: 2
    decay_mult: 0
  }
  convolution_param {
    num_output: 256
    pad: 1
    kernel_size: 3
    group: 2
    weight_filler {
      type: "gaussian"
      std: 0.01
    }
    bias_filler {
      type: "constant"
      value: 0.1
    }
  }
}
layer {
  name: "relu5"
  type: "ReLU"
  bottom: "conv5"
  top: "conv5"
}
layer {
  name: "pool5"
  type: "Pooling"
  bottom: "conv5"
  top: "pool5"
  pooling_param {
    pool: MAX
    kernel_size: 3
    stride: 2
  }
}
layer {
  name: "fc6"
  type: "InnerProduct"
  bottom: "pool5"
  top: "fc6"
  param {
    lr_mult: 1
    decay_mult: 1
  }
  param {
    lr_mult: 2
    decay_mult: 0
  }
  inner_product_param {
    num_output: 4096
    weight_filler {
      type: "gaussian"
      std: 0.005
    }
    bias_filler {
      type: "constant"
      value: 0.1
    }
  }
}
layer {
  name: "relu6"
  type: "ReLU"
  bottom: "fc6"
  top: "fc6"
}
layer {
  name: "drop6"
  type: "Dropout"
  bottom: "fc6"
  top: "fc6"
  dropout_param {
    dropout_ratio: 0.5
  }
}
layer {
  name: "fc7"
  type: "InnerProduct"
  bottom: "fc6"
  top: "fc7"
  param {
    lr_mult: 1
    decay_mult: 1
  }
  param {
    lr_mult: 2
    decay_mult: 0
  }
  inner_product_param {
    num_output: 4096
    weight_filler {
      type: "gaussian"
      std: 0.005
    }
    bias_filler {
      type: "constant"
      value: 0.1
    }
  }
}
layer {
  name: "relu7"
  type: "ReLU"
  bottom: "fc7"
  top: "fc7"
}
layer {
  name: "drop7"
  type: "Dropout"
  bottom: "fc7"
  top: "fc7"
  dropout_param {
    dropout_ratio: 0.5
  }
}
layer {
  name: "fc8_plantvillage"
  type: "InnerProduct"
  bottom: "fc7"
  top: "fc8_plantvillage"
  param {
    lr_mult: 1
    decay_mult: 1
  }
  param {
    lr_mult: 2
    decay_mult: 0
  }
  inner_product_param {
    num_output: 38
    weight_filler {
      type: "gaussian"
      std: 0.01
    }
    bias_filler {
      type: "constant"
      value: 0
    }
  }
}
layer {
  name: "prob"
  type: "Softmax"
  bottom: "fc8_plantvillage"
  top: "prob"
  include {
    phase: TEST
  }
}
layer {
  name: "hdf5out"
  type: "HDF5Output"
  bottom: "prob"
  bottom: "label"
  include {
    phase: TEST
  }
  hdf5_output_param {
    file_name: "hdf5_dumps/iter_4020.h5"
  }
}
layer {
  name: "loss"
  type: "SoftmaxWithLoss"
  bottom: "fc8_plantvillage"
  bottom: "label"
  top: "loss"
}
layer {
  name: "accuracy"
  type: "Accuracy"
  bottom: "fc8_plantvillage"
  bottom: "label"
  top: "accuracy"
  include {
    phase: TEST
  }
}
I0403 14:19:42.009433  1145 layer_factory.hpp:77] Creating layer data
I0403 14:19:42.010069  1145 net.cpp:91] Creating Layer data
I0403 14:19:42.010100  1145 net.cpp:399] data -> data
I0403 14:19:42.010149  1145 net.cpp:399] data -> label
I0403 14:19:42.010187  1145 data_transformer.cpp:25] Loading mean file from: /home/mohanty/data/final_dataset/lmdb/segmented-50-50/mean.binaryproto
I0403 14:19:42.013070  1147 db_lmdb.cpp:38] Opened lmdb /home/mohanty/data/final_dataset/lmdb/segmented-50-50/test_db
I0403 14:19:42.024708  1145 data_layer.cpp:41] output data size: 100,3,227,227
I0403 14:19:42.140995  1145 net.cpp:141] Setting up data
I0403 14:19:42.141100  1145 net.cpp:148] Top shape: 100 3 227 227 (15458700)
I0403 14:19:42.141121  1145 net.cpp:148] Top shape: 100 (100)
I0403 14:19:42.141137  1145 net.cpp:156] Memory required for data: 61835200
I0403 14:19:42.141163  1145 layer_factory.hpp:77] Creating layer label_data_1_split
I0403 14:19:42.141188  1145 net.cpp:91] Creating Layer label_data_1_split
I0403 14:19:42.141206  1145 net.cpp:425] label_data_1_split <- label
I0403 14:19:42.141235  1145 net.cpp:399] label_data_1_split -> label_data_1_split_0
I0403 14:19:42.141268  1145 net.cpp:399] label_data_1_split -> label_data_1_split_1
I0403 14:19:42.141288  1145 net.cpp:399] label_data_1_split -> label_data_1_split_2
I0403 14:19:42.141348  1145 net.cpp:141] Setting up label_data_1_split
I0403 14:19:42.141371  1145 net.cpp:148] Top shape: 100 (100)
I0403 14:19:42.141386  1145 net.cpp:148] Top shape: 100 (100)
I0403 14:19:42.141402  1145 net.cpp:148] Top shape: 100 (100)
I0403 14:19:42.141415  1145 net.cpp:156] Memory required for data: 61836400
I0403 14:19:42.141429  1145 layer_factory.hpp:77] Creating layer conv1
I0403 14:19:42.141461  1145 net.cpp:91] Creating Layer conv1
I0403 14:19:42.141479  1145 net.cpp:425] conv1 <- data
I0403 14:19:42.141497  1145 net.cpp:399] conv1 -> conv1
I0403 14:19:42.281838  1145 net.cpp:141] Setting up conv1
I0403 14:19:42.281926  1145 net.cpp:148] Top shape: 100 96 55 55 (29040000)
I0403 14:19:42.281944  1145 net.cpp:156] Memory required for data: 177996400
I0403 14:19:42.281975  1145 layer_factory.hpp:77] Creating layer relu1
I0403 14:19:42.282006  1145 net.cpp:91] Creating Layer relu1
I0403 14:19:42.282024  1145 net.cpp:425] relu1 <- conv1
I0403 14:19:42.282044  1145 net.cpp:386] relu1 -> conv1 (in-place)
I0403 14:19:42.282388  1145 net.cpp:141] Setting up relu1
I0403 14:19:42.282416  1145 net.cpp:148] Top shape: 100 96 55 55 (29040000)
I0403 14:19:42.282464  1145 net.cpp:156] Memory required for data: 294156400
I0403 14:19:42.282480  1145 layer_factory.hpp:77] Creating layer norm1
I0403 14:19:42.282511  1145 net.cpp:91] Creating Layer norm1
I0403 14:19:42.282531  1145 net.cpp:425] norm1 <- conv1
I0403 14:19:42.282552  1145 net.cpp:399] norm1 -> norm1
I0403 14:19:42.282891  1145 net.cpp:141] Setting up norm1
I0403 14:19:42.282922  1145 net.cpp:148] Top shape: 100 96 55 55 (29040000)
I0403 14:19:42.282938  1145 net.cpp:156] Memory required for data: 410316400
I0403 14:19:42.282954  1145 layer_factory.hpp:77] Creating layer pool1
I0403 14:19:42.282977  1145 net.cpp:91] Creating Layer pool1
I0403 14:19:42.282995  1145 net.cpp:425] pool1 <- norm1
I0403 14:19:42.283016  1145 net.cpp:399] pool1 -> pool1
I0403 14:19:42.283088  1145 net.cpp:141] Setting up pool1
I0403 14:19:42.283113  1145 net.cpp:148] Top shape: 100 96 27 27 (6998400)
I0403 14:19:42.283128  1145 net.cpp:156] Memory required for data: 438310000
I0403 14:19:42.283144  1145 layer_factory.hpp:77] Creating layer conv2
I0403 14:19:42.283172  1145 net.cpp:91] Creating Layer conv2
I0403 14:19:42.283193  1145 net.cpp:425] conv2 <- pool1
I0403 14:19:42.283212  1145 net.cpp:399] conv2 -> conv2
I0403 14:19:42.299394  1145 net.cpp:141] Setting up conv2
I0403 14:19:42.299458  1145 net.cpp:148] Top shape: 100 256 27 27 (18662400)
I0403 14:19:42.299476  1145 net.cpp:156] Memory required for data: 512959600
I0403 14:19:42.299501  1145 layer_factory.hpp:77] Creating layer relu2
I0403 14:19:42.299522  1145 net.cpp:91] Creating Layer relu2
I0403 14:19:42.299540  1145 net.cpp:425] relu2 <- conv2
I0403 14:19:42.299561  1145 net.cpp:386] relu2 -> conv2 (in-place)
I0403 14:19:42.299851  1145 net.cpp:141] Setting up relu2
I0403 14:19:42.299880  1145 net.cpp:148] Top shape: 100 256 27 27 (18662400)
I0403 14:19:42.299896  1145 net.cpp:156] Memory required for data: 587609200
I0403 14:19:42.299911  1145 layer_factory.hpp:77] Creating layer norm2
I0403 14:19:42.299935  1145 net.cpp:91] Creating Layer norm2
I0403 14:19:42.299953  1145 net.cpp:425] norm2 <- conv2
I0403 14:19:42.299973  1145 net.cpp:399] norm2 -> norm2
I0403 14:19:42.300178  1145 net.cpp:141] Setting up norm2
I0403 14:19:42.300207  1145 net.cpp:148] Top shape: 100 256 27 27 (18662400)
I0403 14:19:42.300223  1145 net.cpp:156] Memory required for data: 662258800
I0403 14:19:42.300243  1145 layer_factory.hpp:77] Creating layer pool2
I0403 14:19:42.300263  1145 net.cpp:91] Creating Layer pool2
I0403 14:19:42.300279  1145 net.cpp:425] pool2 <- norm2
I0403 14:19:42.300299  1145 net.cpp:399] pool2 -> pool2
I0403 14:19:42.300357  1145 net.cpp:141] Setting up pool2
I0403 14:19:42.300380  1145 net.cpp:148] Top shape: 100 256 13 13 (4326400)
I0403 14:19:42.300395  1145 net.cpp:156] Memory required for data: 679564400
I0403 14:19:42.300410  1145 layer_factory.hpp:77] Creating layer conv3
I0403 14:19:42.300436  1145 net.cpp:91] Creating Layer conv3
I0403 14:19:42.300452  1145 net.cpp:425] conv3 <- pool2
I0403 14:19:42.300473  1145 net.cpp:399] conv3 -> conv3
I0403 14:19:42.339849  1145 net.cpp:141] Setting up conv3
I0403 14:19:42.339929  1145 net.cpp:148] Top shape: 100 384 13 13 (6489600)
I0403 14:19:42.339948  1145 net.cpp:156] Memory required for data: 705522800
I0403 14:19:42.339975  1145 layer_factory.hpp:77] Creating layer relu3
I0403 14:19:42.340000  1145 net.cpp:91] Creating Layer relu3
I0403 14:19:42.340019  1145 net.cpp:425] relu3 <- conv3
I0403 14:19:42.340037  1145 net.cpp:386] relu3 -> conv3 (in-place)
I0403 14:19:42.340314  1145 net.cpp:141] Setting up relu3
I0403 14:19:42.340342  1145 net.cpp:148] Top shape: 100 384 13 13 (6489600)
I0403 14:19:42.340358  1145 net.cpp:156] Memory required for data: 731481200
I0403 14:19:42.340373  1145 layer_factory.hpp:77] Creating layer conv4
I0403 14:19:42.340396  1145 net.cpp:91] Creating Layer conv4
I0403 14:19:42.340414  1145 net.cpp:425] conv4 <- conv3
I0403 14:19:42.340436  1145 net.cpp:399] conv4 -> conv4
I0403 14:19:42.371662  1145 net.cpp:141] Setting up conv4
I0403 14:19:42.371722  1145 net.cpp:148] Top shape: 100 384 13 13 (6489600)
I0403 14:19:42.371773  1145 net.cpp:156] Memory required for data: 757439600
I0403 14:19:42.371795  1145 layer_factory.hpp:77] Creating layer relu4
I0403 14:19:42.371819  1145 net.cpp:91] Creating Layer relu4
I0403 14:19:42.371835  1145 net.cpp:425] relu4 <- conv4
I0403 14:19:42.371855  1145 net.cpp:386] relu4 -> conv4 (in-place)
I0403 14:19:42.372143  1145 net.cpp:141] Setting up relu4
I0403 14:19:42.372171  1145 net.cpp:148] Top shape: 100 384 13 13 (6489600)
I0403 14:19:42.372192  1145 net.cpp:156] Memory required for data: 783398000
I0403 14:19:42.372208  1145 layer_factory.hpp:77] Creating layer conv5
I0403 14:19:42.372231  1145 net.cpp:91] Creating Layer conv5
I0403 14:19:42.372261  1145 net.cpp:425] conv5 <- conv4
I0403 14:19:42.372284  1145 net.cpp:399] conv5 -> conv5
I0403 14:19:42.393506  1145 net.cpp:141] Setting up conv5
I0403 14:19:42.393566  1145 net.cpp:148] Top shape: 100 256 13 13 (4326400)
I0403 14:19:42.393582  1145 net.cpp:156] Memory required for data: 800703600
I0403 14:19:42.393610  1145 layer_factory.hpp:77] Creating layer relu5
I0403 14:19:42.393632  1145 net.cpp:91] Creating Layer relu5
I0403 14:19:42.393649  1145 net.cpp:425] relu5 <- conv5
I0403 14:19:42.393671  1145 net.cpp:386] relu5 -> conv5 (in-place)
I0403 14:19:42.393959  1145 net.cpp:141] Setting up relu5
I0403 14:19:42.393988  1145 net.cpp:148] Top shape: 100 256 13 13 (4326400)
I0403 14:19:42.394006  1145 net.cpp:156] Memory required for data: 818009200
I0403 14:19:42.394021  1145 layer_factory.hpp:77] Creating layer pool5
I0403 14:19:42.394043  1145 net.cpp:91] Creating Layer pool5
I0403 14:19:42.394059  1145 net.cpp:425] pool5 <- conv5
I0403 14:19:42.394080  1145 net.cpp:399] pool5 -> pool5
I0403 14:19:42.394140  1145 net.cpp:141] Setting up pool5
I0403 14:19:42.394166  1145 net.cpp:148] Top shape: 100 256 6 6 (921600)
I0403 14:19:42.394183  1145 net.cpp:156] Memory required for data: 821695600
I0403 14:19:42.394197  1145 layer_factory.hpp:77] Creating layer fc6
I0403 14:19:42.394237  1145 net.cpp:91] Creating Layer fc6
I0403 14:19:42.394260  1145 net.cpp:425] fc6 <- pool5
I0403 14:19:42.394282  1145 net.cpp:399] fc6 -> fc6
I0403 14:19:43.932889  1145 net.cpp:141] Setting up fc6
I0403 14:19:43.932971  1145 net.cpp:148] Top shape: 100 4096 (409600)
I0403 14:19:43.932987  1145 net.cpp:156] Memory required for data: 823334000
I0403 14:19:43.933008  1145 layer_factory.hpp:77] Creating layer relu6
I0403 14:19:43.933030  1145 net.cpp:91] Creating Layer relu6
I0403 14:19:43.933048  1145 net.cpp:425] relu6 <- fc6
I0403 14:19:43.933065  1145 net.cpp:386] relu6 -> fc6 (in-place)
I0403 14:19:43.933285  1145 net.cpp:141] Setting up relu6
I0403 14:19:43.933312  1145 net.cpp:148] Top shape: 100 4096 (409600)
I0403 14:19:43.933327  1145 net.cpp:156] Memory required for data: 824972400
I0403 14:19:43.933341  1145 layer_factory.hpp:77] Creating layer drop6
I0403 14:19:43.933359  1145 net.cpp:91] Creating Layer drop6
I0403 14:19:43.933374  1145 net.cpp:425] drop6 <- fc6
I0403 14:19:43.933393  1145 net.cpp:386] drop6 -> fc6 (in-place)
I0403 14:19:43.933440  1145 net.cpp:141] Setting up drop6
I0403 14:19:43.933461  1145 net.cpp:148] Top shape: 100 4096 (409600)
I0403 14:19:43.933475  1145 net.cpp:156] Memory required for data: 826610800
I0403 14:19:43.933490  1145 layer_factory.hpp:77] Creating layer fc7
I0403 14:19:43.933512  1145 net.cpp:91] Creating Layer fc7
I0403 14:19:43.933529  1145 net.cpp:425] fc7 <- fc6
I0403 14:19:43.933548  1145 net.cpp:399] fc7 -> fc7
I0403 14:19:44.615134  1145 net.cpp:141] Setting up fc7
I0403 14:19:44.615200  1145 net.cpp:148] Top shape: 100 4096 (409600)
I0403 14:19:44.615216  1145 net.cpp:156] Memory required for data: 828249200
I0403 14:19:44.615236  1145 layer_factory.hpp:77] Creating layer relu7
I0403 14:19:44.615262  1145 net.cpp:91] Creating Layer relu7
I0403 14:19:44.615278  1145 net.cpp:425] relu7 <- fc7
I0403 14:19:44.615296  1145 net.cpp:386] relu7 -> fc7 (in-place)
I0403 14:19:44.615700  1145 net.cpp:141] Setting up relu7
I0403 14:19:44.615727  1145 net.cpp:148] Top shape: 100 4096 (409600)
I0403 14:19:44.615772  1145 net.cpp:156] Memory required for data: 829887600
I0403 14:19:44.615787  1145 layer_factory.hpp:77] Creating layer drop7
I0403 14:19:44.615805  1145 net.cpp:91] Creating Layer drop7
I0403 14:19:44.615820  1145 net.cpp:425] drop7 <- fc7
I0403 14:19:44.615836  1145 net.cpp:386] drop7 -> fc7 (in-place)
I0403 14:19:44.615880  1145 net.cpp:141] Setting up drop7
I0403 14:19:44.615901  1145 net.cpp:148] Top shape: 100 4096 (409600)
I0403 14:19:44.615914  1145 net.cpp:156] Memory required for data: 831526000
I0403 14:19:44.615928  1145 layer_factory.hpp:77] Creating layer fc8_plantvillage
I0403 14:19:44.615950  1145 net.cpp:91] Creating Layer fc8_plantvillage
I0403 14:19:44.615967  1145 net.cpp:425] fc8_plantvillage <- fc7
I0403 14:19:44.615983  1145 net.cpp:399] fc8_plantvillage -> fc8_plantvillage
I0403 14:19:44.622612  1145 net.cpp:141] Setting up fc8_plantvillage
I0403 14:19:44.622640  1145 net.cpp:148] Top shape: 100 38 (3800)
I0403 14:19:44.622655  1145 net.cpp:156] Memory required for data: 831541200
I0403 14:19:44.622673  1145 layer_factory.hpp:77] Creating layer fc8_plantvillage_fc8_plantvillage_0_split
I0403 14:19:44.622692  1145 net.cpp:91] Creating Layer fc8_plantvillage_fc8_plantvillage_0_split
I0403 14:19:44.622706  1145 net.cpp:425] fc8_plantvillage_fc8_plantvillage_0_split <- fc8_plantvillage
I0403 14:19:44.622726  1145 net.cpp:399] fc8_plantvillage_fc8_plantvillage_0_split -> fc8_plantvillage_fc8_plantvillage_0_split_0
I0403 14:19:44.622747  1145 net.cpp:399] fc8_plantvillage_fc8_plantvillage_0_split -> fc8_plantvillage_fc8_plantvillage_0_split_1
I0403 14:19:44.622767  1145 net.cpp:399] fc8_plantvillage_fc8_plantvillage_0_split -> fc8_plantvillage_fc8_plantvillage_0_split_2
I0403 14:19:44.622843  1145 net.cpp:141] Setting up fc8_plantvillage_fc8_plantvillage_0_split
I0403 14:19:44.622865  1145 net.cpp:148] Top shape: 100 38 (3800)
I0403 14:19:44.622881  1145 net.cpp:148] Top shape: 100 38 (3800)
I0403 14:19:44.622897  1145 net.cpp:148] Top shape: 100 38 (3800)
I0403 14:19:44.622910  1145 net.cpp:156] Memory required for data: 831586800
I0403 14:19:44.622925  1145 layer_factory.hpp:77] Creating layer prob
I0403 14:19:44.622946  1145 net.cpp:91] Creating Layer prob
I0403 14:19:44.622962  1145 net.cpp:425] prob <- fc8_plantvillage_fc8_plantvillage_0_split_0
I0403 14:19:44.622980  1145 net.cpp:399] prob -> prob
I0403 14:19:44.623213  1145 net.cpp:141] Setting up prob
I0403 14:19:44.623244  1145 net.cpp:148] Top shape: 100 38 (3800)
I0403 14:19:44.623260  1145 net.cpp:156] Memory required for data: 831602000
I0403 14:19:44.623275  1145 layer_factory.hpp:77] Creating layer hdf5out
I0403 14:19:44.623292  1145 net.cpp:91] Creating Layer hdf5out
I0403 14:19:44.623307  1145 net.cpp:425] hdf5out <- prob
I0403 14:19:44.623323  1145 net.cpp:425] hdf5out <- label_data_1_split_0
I0403 14:19:44.625670  1145 net.cpp:141] Setting up hdf5out
…
