…
I0403 14:21:22.432503  1175 net.cpp:313] The NetState phase (1) differed from the phase (0) specified by a rule in layer data
I0403 14:21:22.432801  1175 net.cpp:49] Initializing net from parameters: 
state {
  phase: TEST
}
layer {
  name: "data"
  type: "Data"
  top: "data"
  top: "label"
  include {
    phase: TEST
  }
  transform_param {
    crop_size: 227
    mean_file: "/home/mohanty/data/final_dataset/lmdb/segmented-50-50/mean.binaryproto"
  }
  data_param {
    source: "/home/mohanty/data/final_dataset/lmdb/segmented-50-50/test_db"
    batch_size: 100
    backend: LMDB
  }
}
layer {
  name: "conv1"
  type: "Convolution"
  bottom: "data"
  top: "conv1"
  param {
    lr_mult: 1
    decay_mult: 1
  }
  param {
    lr_mult: 2
    decay_mult: 0
  }
  convolution_param {
    num_output: 96
    kernel_size: 11
    stride: 4
    weight_filler {
      type: "gaussian"
      std: 0.01
    }
    bias_filler {
      type: "constant"
      value: 0
    }
  }
}
layer {
  name: "relu1"
  type: "ReLU"
  bottom: "conv1"
  top: "conv1"
}
layer {
  name: "norm1"
  type: "LRN"
  bottom: "conv1"
  top: "norm1"
  lrn_param {
    local_size: 5
    alpha: 0.0001
    beta: 0.75
  }
}
layer {
  name: "pool1"
  type: "Pooling"
  bottom: "norm1"
  top: "pool1"
  pooling_param {
    pool: MAX
    kernel_size: 3
    stride: 2
  }
}
layer {
  name: "conv2"
  type: "Convolution"
  bottom: "pool1"
  top: "conv2"
  param {
    lr_mult: 1
    decay_mult: 1
  }
  param {
    lr_mult: 2
    decay_mult: 0
  }
  convolution_param {
    num_output: 256
    pad: 2
    kernel_size: 5
    group: 2
    weight_filler {
      type: "gaussian"
      std: 0.01
    }
    bias_filler {
      type: "constant"
      value: 0.1
    }
  }
}
layer {
  name: "relu2"
  type: "ReLU"
  bottom: "conv2"
  top: "conv2"
}
layer {
  name: "norm2"
  type: "LRN"
  bottom: "conv2"
  top: "norm2"
  lrn_param {
    local_size: 5
    alpha: 0.0001
    beta: 0.75
  }
}
layer {
  name: "pool2"
  type: "Pooling"
  bottom: "norm2"
  top: "pool2"
  pooling_param {
    pool: MAX
    kernel_size: 3
    stride: 2
  }
}
layer {
  name: "conv3"
  type: "Convolution"
  bottom: "pool2"
  top: "conv3"
  param {
    lr_mult: 1
    decay_mult: 1
  }
  param {
    lr_mult: 2
    decay_mult: 0
  }
  convolution_param {
    num_output: 384
    pad: 1
    kernel_size: 3
    weight_filler {
      type: "gaussian"
      std: 0.01
    }
    bias_filler {
      type: "constant"
      value: 0
    }
  }
}
layer {
  name: "relu3"
  type: "ReLU"
  bottom: "conv3"
  top: "conv3"
}
layer {
  name: "conv4"
  type: "Convolution"
  bottom: "conv3"
  top: "conv4"
  param {
    lr_mult: 1
    decay_mult: 1
  }
  param {
    lr_mult: 2
    decay_mult: 0
  }
  convolution_param {
    num_output: 384
    pad: 1
    kernel_size: 3
    group: 2
    weight_filler {
      type: "gaussian"
      std: 0.01
    }
    bias_filler {
      type: "constant"
      value: 0.1
    }
  }
}
layer {
  name: "relu4"
  type: "ReLU"
  bottom: "conv4"
  top: "conv4"
}
layer {
  name: "conv5"
  type: "Convolution"
  bottom: "conv4"
  top: "conv5"
  param {
    lr_mult: 1
    decay_mult: 1
  }
  param {
    lr_mult: 2
    decay_mult: 0
  }
  convolution_param {
    num_output: 256
    pad: 1
    kernel_size: 3
    group: 2
    weight_filler {
      type: "gaussian"
      std: 0.01
    }
    bias_filler {
      type: "constant"
      value: 0.1
    }
  }
}
layer {
  name: "relu5"
  type: "ReLU"
  bottom: "conv5"
  top: "conv5"
}
layer {
  name: "pool5"
  type: "Pooling"
  bottom: "conv5"
  top: "pool5"
  pooling_param {
    pool: MAX
    kernel_size: 3
    stride: 2
  }
}
layer {
  name: "fc6"
  type: "InnerProduct"
  bottom: "pool5"
  top: "fc6"
  param {
    lr_mult: 1
    decay_mult: 1
  }
  param {
    lr_mult: 2
    decay_mult: 0
  }
  inner_product_param {
    num_output: 4096
    weight_filler {
      type: "gaussian"
      std: 0.005
    }
    bias_filler {
      type: "constant"
      value: 0.1
    }
  }
}
layer {
  name: "relu6"
  type: "ReLU"
  bottom: "fc6"
  top: "fc6"
}
layer {
  name: "drop6"
  type: "Dropout"
  bottom: "fc6"
  top: "fc6"
  dropout_param {
    dropout_ratio: 0.5
  }
}
layer {
  name: "fc7"
  type: "InnerProduct"
  bottom: "fc6"
  top: "fc7"
  param {
    lr_mult: 1
    decay_mult: 1
  }
  param {
    lr_mult: 2
    decay_mult: 0
  }
  inner_product_param {
    num_output: 4096
    weight_filler {
      type: "gaussian"
      std: 0.005
    }
    bias_filler {
      type: "constant"
      value: 0.1
    }
  }
}
layer {
  name: "relu7"
  type: "ReLU"
  bottom: "fc7"
  top: "fc7"
}
layer {
  name: "drop7"
  type: "Dropout"
  bottom: "fc7"
  top: "fc7"
  dropout_param {
    dropout_ratio: 0.5
  }
}
layer {
  name: "fc8_plantvillage"
  type: "InnerProduct"
  bottom: "fc7"
  top: "fc8_plantvillage"
  param {
    lr_mult: 1
    decay_mult: 1
  }
  param {
    lr_mult: 2
    decay_mult: 0
  }
  inner_product_param {
    num_output: 38
    weight_filler {
      type: "gaussian"
      std: 0.01
    }
    bias_filler {
      type: "constant"
      value: 0
    }
  }
}
layer {
  name: "prob"
  type: "Softmax"
  bottom: "fc8_plantvillage"
  top: "prob"
  include {
    phase: TEST
  }
}
layer {
  name: "hdf5out"
  type: "HDF5Output"
  bottom: "prob"
  bottom: "label"
  include {
    phase: TEST
  }
  hdf5_output_param {
    file_name: "hdf5_dumps/iter_4556.h5"
  }
}
layer {
  name: "loss"
  type: "SoftmaxWithLoss"
  bottom: "fc8_plantvillage"
  bottom: "label"
  top: "loss"
}
layer {
  name: "accuracy"
  type: "Accuracy"
  bottom: "fc8_plantvillage"
  bottom: "label"
  top: "accuracy"
  include {
    phase: TEST
  }
}
I0403 14:21:22.433389  1175 layer_factory.hpp:77] Creating layer data
I0403 14:21:22.434047  1175 net.cpp:91] Creating Layer data
I0403 14:21:22.434080  1175 net.cpp:399] data -> data
I0403 14:21:22.434130  1175 net.cpp:399] data -> label
I0403 14:21:22.434165  1175 data_transformer.cpp:25] Loading mean file from: /home/mohanty/data/final_dataset/lmdb/segmented-50-50/mean.binaryproto
I0403 14:21:22.437206  1178 db_lmdb.cpp:38] Opened lmdb /home/mohanty/data/final_dataset/lmdb/segmented-50-50/test_db
I0403 14:21:22.448209  1175 data_layer.cpp:41] output data size: 100,3,227,227
I0403 14:21:22.564685  1175 net.cpp:141] Setting up data
I0403 14:21:22.564795  1175 net.cpp:148] Top shape: 100 3 227 227 (15458700)
I0403 14:21:22.564817  1175 net.cpp:148] Top shape: 100 (100)
I0403 14:21:22.564832  1175 net.cpp:156] Memory required for data: 61835200
I0403 14:21:22.564859  1175 layer_factory.hpp:77] Creating layer label_data_1_split
I0403 14:21:22.564887  1175 net.cpp:91] Creating Layer label_data_1_split
I0403 14:21:22.564903  1175 net.cpp:425] label_data_1_split <- label
I0403 14:21:22.564935  1175 net.cpp:399] label_data_1_split -> label_data_1_split_0
I0403 14:21:22.564962  1175 net.cpp:399] label_data_1_split -> label_data_1_split_1
I0403 14:21:22.564982  1175 net.cpp:399] label_data_1_split -> label_data_1_split_2
I0403 14:21:22.565045  1175 net.cpp:141] Setting up label_data_1_split
I0403 14:21:22.565069  1175 net.cpp:148] Top shape: 100 (100)
I0403 14:21:22.565086  1175 net.cpp:148] Top shape: 100 (100)
I0403 14:21:22.565102  1175 net.cpp:148] Top shape: 100 (100)
I0403 14:21:22.565116  1175 net.cpp:156] Memory required for data: 61836400
I0403 14:21:22.565130  1175 layer_factory.hpp:77] Creating layer conv1
I0403 14:21:22.565162  1175 net.cpp:91] Creating Layer conv1
I0403 14:21:22.565183  1175 net.cpp:425] conv1 <- data
I0403 14:21:22.565202  1175 net.cpp:399] conv1 -> conv1
I0403 14:21:22.704469  1175 net.cpp:141] Setting up conv1
I0403 14:21:22.704552  1175 net.cpp:148] Top shape: 100 96 55 55 (29040000)
I0403 14:21:22.704569  1175 net.cpp:156] Memory required for data: 177996400
I0403 14:21:22.704599  1175 layer_factory.hpp:77] Creating layer relu1
I0403 14:21:22.704625  1175 net.cpp:91] Creating Layer relu1
I0403 14:21:22.704643  1175 net.cpp:425] relu1 <- conv1
I0403 14:21:22.704660  1175 net.cpp:386] relu1 -> conv1 (in-place)
I0403 14:21:22.704915  1175 net.cpp:141] Setting up relu1
I0403 14:21:22.704941  1175 net.cpp:148] Top shape: 100 96 55 55 (29040000)
I0403 14:21:22.704985  1175 net.cpp:156] Memory required for data: 294156400
I0403 14:21:22.705001  1175 layer_factory.hpp:77] Creating layer norm1
I0403 14:21:22.705027  1175 net.cpp:91] Creating Layer norm1
I0403 14:21:22.705045  1175 net.cpp:425] norm1 <- conv1
I0403 14:21:22.705062  1175 net.cpp:399] norm1 -> norm1
I0403 14:21:22.705368  1175 net.cpp:141] Setting up norm1
I0403 14:21:22.705394  1175 net.cpp:148] Top shape: 100 96 55 55 (29040000)
I0403 14:21:22.705410  1175 net.cpp:156] Memory required for data: 410316400
I0403 14:21:22.705425  1175 layer_factory.hpp:77] Creating layer pool1
I0403 14:21:22.705448  1175 net.cpp:91] Creating Layer pool1
I0403 14:21:22.705466  1175 net.cpp:425] pool1 <- norm1
I0403 14:21:22.705482  1175 net.cpp:399] pool1 -> pool1
I0403 14:21:22.705548  1175 net.cpp:141] Setting up pool1
I0403 14:21:22.705570  1175 net.cpp:148] Top shape: 100 96 27 27 (6998400)
I0403 14:21:22.705585  1175 net.cpp:156] Memory required for data: 438310000
I0403 14:21:22.705600  1175 layer_factory.hpp:77] Creating layer conv2
I0403 14:21:22.705624  1175 net.cpp:91] Creating Layer conv2
I0403 14:21:22.705641  1175 net.cpp:425] conv2 <- pool1
I0403 14:21:22.705657  1175 net.cpp:399] conv2 -> conv2
I0403 14:21:22.720360  1175 net.cpp:141] Setting up conv2
I0403 14:21:22.720398  1175 net.cpp:148] Top shape: 100 256 27 27 (18662400)
I0403 14:21:22.720415  1175 net.cpp:156] Memory required for data: 512959600
I0403 14:21:22.720437  1175 layer_factory.hpp:77] Creating layer relu2
I0403 14:21:22.720455  1175 net.cpp:91] Creating Layer relu2
I0403 14:21:22.720470  1175 net.cpp:425] relu2 <- conv2
I0403 14:21:22.720489  1175 net.cpp:386] relu2 -> conv2 (in-place)
I0403 14:21:22.720764  1175 net.cpp:141] Setting up relu2
I0403 14:21:22.720790  1175 net.cpp:148] Top shape: 100 256 27 27 (18662400)
I0403 14:21:22.720805  1175 net.cpp:156] Memory required for data: 587609200
I0403 14:21:22.720819  1175 layer_factory.hpp:77] Creating layer norm2
I0403 14:21:22.720841  1175 net.cpp:91] Creating Layer norm2
I0403 14:21:22.720859  1175 net.cpp:425] norm2 <- conv2
I0403 14:21:22.720876  1175 net.cpp:399] norm2 -> norm2
I0403 14:21:22.721068  1175 net.cpp:141] Setting up norm2
I0403 14:21:22.721096  1175 net.cpp:148] Top shape: 100 256 27 27 (18662400)
I0403 14:21:22.721110  1175 net.cpp:156] Memory required for data: 662258800
I0403 14:21:22.721125  1175 layer_factory.hpp:77] Creating layer pool2
I0403 14:21:22.721143  1175 net.cpp:91] Creating Layer pool2
I0403 14:21:22.721158  1175 net.cpp:425] pool2 <- norm2
I0403 14:21:22.721177  1175 net.cpp:399] pool2 -> pool2
I0403 14:21:22.721228  1175 net.cpp:141] Setting up pool2
I0403 14:21:22.721251  1175 net.cpp:148] Top shape: 100 256 13 13 (4326400)
I0403 14:21:22.721266  1175 net.cpp:156] Memory required for data: 679564400
I0403 14:21:22.721283  1175 layer_factory.hpp:77] Creating layer conv3
I0403 14:21:22.721307  1175 net.cpp:91] Creating Layer conv3
I0403 14:21:22.721324  1175 net.cpp:425] conv3 <- pool2
I0403 14:21:22.721344  1175 net.cpp:399] conv3 -> conv3
I0403 14:21:22.759600  1175 net.cpp:141] Setting up conv3
I0403 14:21:22.759675  1175 net.cpp:148] Top shape: 100 384 13 13 (6489600)
I0403 14:21:22.759693  1175 net.cpp:156] Memory required for data: 705522800
I0403 14:21:22.759718  1175 layer_factory.hpp:77] Creating layer relu3
I0403 14:21:22.759739  1175 net.cpp:91] Creating Layer relu3
I0403 14:21:22.759757  1175 net.cpp:425] relu3 <- conv3
I0403 14:21:22.759775  1175 net.cpp:386] relu3 -> conv3 (in-place)
I0403 14:21:22.760053  1175 net.cpp:141] Setting up relu3
I0403 14:21:22.760082  1175 net.cpp:148] Top shape: 100 384 13 13 (6489600)
I0403 14:21:22.760098  1175 net.cpp:156] Memory required for data: 731481200
I0403 14:21:22.760114  1175 layer_factory.hpp:77] Creating layer conv4
I0403 14:21:22.760140  1175 net.cpp:91] Creating Layer conv4
I0403 14:21:22.760157  1175 net.cpp:425] conv4 <- conv3
I0403 14:21:22.760179  1175 net.cpp:399] conv4 -> conv4
I0403 14:21:22.790585  1175 net.cpp:141] Setting up conv4
I0403 14:21:22.790627  1175 net.cpp:148] Top shape: 100 384 13 13 (6489600)
I0403 14:21:22.790676  1175 net.cpp:156] Memory required for data: 757439600
I0403 14:21:22.790709  1175 layer_factory.hpp:77] Creating layer relu4
I0403 14:21:22.790729  1175 net.cpp:91] Creating Layer relu4
I0403 14:21:22.790746  1175 net.cpp:425] relu4 <- conv4
I0403 14:21:22.790765  1175 net.cpp:386] relu4 -> conv4 (in-place)
I0403 14:21:22.791038  1175 net.cpp:141] Setting up relu4
I0403 14:21:22.791065  1175 net.cpp:148] Top shape: 100 384 13 13 (6489600)
I0403 14:21:22.791084  1175 net.cpp:156] Memory required for data: 783398000
I0403 14:21:22.791100  1175 layer_factory.hpp:77] Creating layer conv5
I0403 14:21:22.791121  1175 net.cpp:91] Creating Layer conv5
I0403 14:21:22.791137  1175 net.cpp:425] conv5 <- conv4
I0403 14:21:22.791158  1175 net.cpp:399] conv5 -> conv5
I0403 14:21:22.811452  1175 net.cpp:141] Setting up conv5
I0403 14:21:22.811491  1175 net.cpp:148] Top shape: 100 256 13 13 (4326400)
I0403 14:21:22.811506  1175 net.cpp:156] Memory required for data: 800703600
I0403 14:21:22.811532  1175 layer_factory.hpp:77] Creating layer relu5
I0403 14:21:22.811573  1175 net.cpp:91] Creating Layer relu5
I0403 14:21:22.811594  1175 net.cpp:425] relu5 <- conv5
I0403 14:21:22.811614  1175 net.cpp:386] relu5 -> conv5 (in-place)
I0403 14:21:22.811887  1175 net.cpp:141] Setting up relu5
I0403 14:21:22.811916  1175 net.cpp:148] Top shape: 100 256 13 13 (4326400)
I0403 14:21:22.811931  1175 net.cpp:156] Memory required for data: 818009200
I0403 14:21:22.811946  1175 layer_factory.hpp:77] Creating layer pool5
I0403 14:21:22.811969  1175 net.cpp:91] Creating Layer pool5
I0403 14:21:22.811983  1175 net.cpp:425] pool5 <- conv5
I0403 14:21:22.812003  1175 net.cpp:399] pool5 -> pool5
I0403 14:21:22.812060  1175 net.cpp:141] Setting up pool5
I0403 14:21:22.812085  1175 net.cpp:148] Top shape: 100 256 6 6 (921600)
I0403 14:21:22.812100  1175 net.cpp:156] Memory required for data: 821695600
I0403 14:21:22.812114  1175 layer_factory.hpp:77] Creating layer fc6
I0403 14:21:22.812140  1175 net.cpp:91] Creating Layer fc6
I0403 14:21:22.812157  1175 net.cpp:425] fc6 <- pool5
I0403 14:21:22.812177  1175 net.cpp:399] fc6 -> fc6
I0403 14:21:24.368639  1175 net.cpp:141] Setting up fc6
I0403 14:21:24.368727  1175 net.cpp:148] Top shape: 100 4096 (409600)
I0403 14:21:24.368744  1175 net.cpp:156] Memory required for data: 823334000
I0403 14:21:24.368765  1175 layer_factory.hpp:77] Creating layer relu6
I0403 14:21:24.368787  1175 net.cpp:91] Creating Layer relu6
I0403 14:21:24.368803  1175 net.cpp:425] relu6 <- fc6
I0403 14:21:24.368823  1175 net.cpp:386] relu6 -> fc6 (in-place)
I0403 14:21:24.369040  1175 net.cpp:141] Setting up relu6
I0403 14:21:24.369067  1175 net.cpp:148] Top shape: 100 4096 (409600)
I0403 14:21:24.369083  1175 net.cpp:156] Memory required for data: 824972400
I0403 14:21:24.369098  1175 layer_factory.hpp:77] Creating layer drop6
I0403 14:21:24.369117  1175 net.cpp:91] Creating Layer drop6
I0403 14:21:24.369132  1175 net.cpp:425] drop6 <- fc6
I0403 14:21:24.369150  1175 net.cpp:386] drop6 -> fc6 (in-place)
I0403 14:21:24.369199  1175 net.cpp:141] Setting up drop6
I0403 14:21:24.369222  1175 net.cpp:148] Top shape: 100 4096 (409600)
I0403 14:21:24.369236  1175 net.cpp:156] Memory required for data: 826610800
I0403 14:21:24.369251  1175 layer_factory.hpp:77] Creating layer fc7
I0403 14:21:24.369279  1175 net.cpp:91] Creating Layer fc7
I0403 14:21:24.369298  1175 net.cpp:425] fc7 <- fc6
I0403 14:21:24.369318  1175 net.cpp:399] fc7 -> fc7
I0403 14:21:25.044385  1175 net.cpp:141] Setting up fc7
I0403 14:21:25.044425  1175 net.cpp:148] Top shape: 100 4096 (409600)
I0403 14:21:25.044447  1175 net.cpp:156] Memory required for data: 828249200
I0403 14:21:25.044468  1175 layer_factory.hpp:77] Creating layer relu7
I0403 14:21:25.044489  1175 net.cpp:91] Creating Layer relu7
I0403 14:21:25.044507  1175 net.cpp:425] relu7 <- fc7
I0403 14:21:25.044524  1175 net.cpp:386] relu7 -> fc7 (in-place)
I0403 14:21:25.044929  1175 net.cpp:141] Setting up relu7
I0403 14:21:25.044956  1175 net.cpp:148] Top shape: 100 4096 (409600)
I0403 14:21:25.045003  1175 net.cpp:156] Memory required for data: 829887600
I0403 14:21:25.045019  1175 layer_factory.hpp:77] Creating layer drop7
I0403 14:21:25.045037  1175 net.cpp:91] Creating Layer drop7
I0403 14:21:25.045052  1175 net.cpp:425] drop7 <- fc7
I0403 14:21:25.045068  1175 net.cpp:386] drop7 -> fc7 (in-place)
I0403 14:21:25.045111  1175 net.cpp:141] Setting up drop7
I0403 14:21:25.045135  1175 net.cpp:148] Top shape: 100 4096 (409600)
I0403 14:21:25.045148  1175 net.cpp:156] Memory required for data: 831526000
I0403 14:21:25.045162  1175 layer_factory.hpp:77] Creating layer fc8_plantvillage
I0403 14:21:25.045183  1175 net.cpp:91] Creating Layer fc8_plantvillage
I0403 14:21:25.045198  1175 net.cpp:425] fc8_plantvillage <- fc7
I0403 14:21:25.045215  1175 net.cpp:399] fc8_plantvillage -> fc8_plantvillage
I0403 14:21:25.052145  1175 net.cpp:141] Setting up fc8_plantvillage
I0403 14:21:25.052175  1175 net.cpp:148] Top shape: 100 38 (3800)
I0403 14:21:25.052189  1175 net.cpp:156] Memory required for data: 831541200
I0403 14:21:25.052208  1175 layer_factory.hpp:77] Creating layer fc8_plantvillage_fc8_plantvillage_0_split
I0403 14:21:25.052227  1175 net.cpp:91] Creating Layer fc8_plantvillage_fc8_plantvillage_0_split
I0403 14:21:25.052242  1175 net.cpp:425] fc8_plantvillage_fc8_plantvillage_0_split <- fc8_plantvillage
I0403 14:21:25.052263  1175 net.cpp:399] fc8_plantvillage_fc8_plantvillage_0_split -> fc8_plantvillage_fc8_plantvillage_0_split_0
I0403 14:21:25.052297  1175 net.cpp:399] fc8_plantvillage_fc8_plantvillage_0_split -> fc8_plantvillage_fc8_plantvillage_0_split_1
I0403 14:21:25.052320  1175 net.cpp:399] fc8_plantvillage_fc8_plantvillage_0_split -> fc8_plantvillage_fc8_plantvillage_0_split_2
I0403 14:21:25.052398  1175 net.cpp:141] Setting up fc8_plantvillage_fc8_plantvillage_0_split
I0403 14:21:25.052423  1175 net.cpp:148] Top shape: 100 38 (3800)
I0403 14:21:25.052438  1175 net.cpp:148] Top shape: 100 38 (3800)
I0403 14:21:25.052454  1175 net.cpp:148] Top shape: 100 38 (3800)
I0403 14:21:25.052467  1175 net.cpp:156] Memory required for data: 831586800
I0403 14:21:25.052482  1175 layer_factory.hpp:77] Creating layer prob
I0403 14:21:25.052503  1175 net.cpp:91] Creating Layer prob
I0403 14:21:25.052520  1175 net.cpp:425] prob <- fc8_plantvillage_fc8_plantvillage_0_split_0
I0403 14:21:25.052537  1175 net.cpp:399] prob -> prob
I0403 14:21:25.052767  1175 net.cpp:141] Setting up prob
I0403 14:21:25.052796  1175 net.cpp:148] Top shape: 100 38 (3800)
I0403 14:21:25.052813  1175 net.cpp:156] Memory required for data: 831602000
I0403 14:21:25.052829  1175 layer_factory.hpp:77] Creating layer hdf5out
I0403 14:21:25.052847  1175 net.cpp:91] Creating Layer hdf5out
I0403 14:21:25.052862  1175 net.cpp:425] hdf5out <- prob
I0403 14:21:25.052880  1175 net.cpp:425] hdf5out <- label_data_1_split_0
I0403 14:21:25.055486  1175 net.cpp:141] Setting up hdf5out
…
