…
I0403 14:09:38.347890   925 net.cpp:313] The NetState phase (1) differed from the phase (0) specified by a rule in layer data
I0403 14:09:38.348197   925 net.cpp:49] Initializing net from parameters: 
state {
  phase: TEST
}
layer {
  name: "data"
  type: "Data"
  top: "data"
  top: "label"
  include {
    phase: TEST
  }
  transform_param {
    crop_size: 227
    mean_file: "/home/mohanty/data/final_dataset/lmdb/segmented-50-50/mean.binaryproto"
  }
  data_param {
    source: "/home/mohanty/data/final_dataset/lmdb/segmented-50-50/test_db"
    batch_size: 100
    backend: LMDB
  }
}
layer {
  name: "conv1"
  type: "Convolution"
  bottom: "data"
  top: "conv1"
  param {
    lr_mult: 1
    decay_mult: 1
  }
  param {
    lr_mult: 2
    decay_mult: 0
  }
  convolution_param {
    num_output: 96
    kernel_size: 11
    stride: 4
    weight_filler {
      type: "gaussian"
      std: 0.01
    }
    bias_filler {
      type: "constant"
      value: 0
    }
  }
}
layer {
  name: "relu1"
  type: "ReLU"
  bottom: "conv1"
  top: "conv1"
}
layer {
  name: "norm1"
  type: "LRN"
  bottom: "conv1"
  top: "norm1"
  lrn_param {
    local_size: 5
    alpha: 0.0001
    beta: 0.75
  }
}
layer {
  name: "pool1"
  type: "Pooling"
  bottom: "norm1"
  top: "pool1"
  pooling_param {
    pool: MAX
    kernel_size: 3
    stride: 2
  }
}
layer {
  name: "conv2"
  type: "Convolution"
  bottom: "pool1"
  top: "conv2"
  param {
    lr_mult: 1
    decay_mult: 1
  }
  param {
    lr_mult: 2
    decay_mult: 0
  }
  convolution_param {
    num_output: 256
    pad: 2
    kernel_size: 5
    group: 2
    weight_filler {
      type: "gaussian"
      std: 0.01
    }
    bias_filler {
      type: "constant"
      value: 0.1
    }
  }
}
layer {
  name: "relu2"
  type: "ReLU"
  bottom: "conv2"
  top: "conv2"
}
layer {
  name: "norm2"
  type: "LRN"
  bottom: "conv2"
  top: "norm2"
  lrn_param {
    local_size: 5
    alpha: 0.0001
    beta: 0.75
  }
}
layer {
  name: "pool2"
  type: "Pooling"
  bottom: "norm2"
  top: "pool2"
  pooling_param {
    pool: MAX
    kernel_size: 3
    stride: 2
  }
}
layer {
  name: "conv3"
  type: "Convolution"
  bottom: "pool2"
  top: "conv3"
  param {
    lr_mult: 1
    decay_mult: 1
  }
  param {
    lr_mult: 2
    decay_mult: 0
  }
  convolution_param {
    num_output: 384
    pad: 1
    kernel_size: 3
    weight_filler {
      type: "gaussian"
      std: 0.01
    }
    bias_filler {
      type: "constant"
      value: 0
    }
  }
}
layer {
  name: "relu3"
  type: "ReLU"
  bottom: "conv3"
  top: "conv3"
}
layer {
  name: "conv4"
  type: "Convolution"
  bottom: "conv3"
  top: "conv4"
  param {
    lr_mult: 1
    decay_mult: 1
  }
  param {
    lr_mult: 2
    decay_mult: 0
  }
  convolution_param {
    num_output: 384
    pad: 1
    kernel_size: 3
    group: 2
    weight_filler {
      type: "gaussian"
      std: 0.01
    }
    bias_filler {
      type: "constant"
      value: 0.1
    }
  }
}
layer {
  name: "relu4"
  type: "ReLU"
  bottom: "conv4"
  top: "conv4"
}
layer {
  name: "conv5"
  type: "Convolution"
  bottom: "conv4"
  top: "conv5"
  param {
    lr_mult: 1
    decay_mult: 1
  }
  param {
    lr_mult: 2
    decay_mult: 0
  }
  convolution_param {
    num_output: 256
    pad: 1
    kernel_size: 3
    group: 2
    weight_filler {
      type: "gaussian"
      std: 0.01
    }
    bias_filler {
      type: "constant"
      value: 0.1
    }
  }
}
layer {
  name: "relu5"
  type: "ReLU"
  bottom: "conv5"
  top: "conv5"
}
layer {
  name: "pool5"
  type: "Pooling"
  bottom: "conv5"
  top: "pool5"
  pooling_param {
    pool: MAX
    kernel_size: 3
    stride: 2
  }
}
layer {
  name: "fc6"
  type: "InnerProduct"
  bottom: "pool5"
  top: "fc6"
  param {
    lr_mult: 1
    decay_mult: 1
  }
  param {
    lr_mult: 2
    decay_mult: 0
  }
  inner_product_param {
    num_output: 4096
    weight_filler {
      type: "gaussian"
      std: 0.005
    }
    bias_filler {
      type: "constant"
      value: 0.1
    }
  }
}
layer {
  name: "relu6"
  type: "ReLU"
  bottom: "fc6"
  top: "fc6"
}
layer {
  name: "drop6"
  type: "Dropout"
  bottom: "fc6"
  top: "fc6"
  dropout_param {
    dropout_ratio: 0.5
  }
}
layer {
  name: "fc7"
  type: "InnerProduct"
  bottom: "fc6"
  top: "fc7"
  param {
    lr_mult: 1
    decay_mult: 1
  }
  param {
    lr_mult: 2
    decay_mult: 0
  }
  inner_product_param {
    num_output: 4096
    weight_filler {
      type: "gaussian"
      std: 0.005
    }
    bias_filler {
      type: "constant"
      value: 0.1
    }
  }
}
layer {
  name: "relu7"
  type: "ReLU"
  bottom: "fc7"
  top: "fc7"
}
layer {
  name: "drop7"
  type: "Dropout"
  bottom: "fc7"
  top: "fc7"
  dropout_param {
    dropout_ratio: 0.5
  }
}
layer {
  name: "fc8_plantvillage"
  type: "InnerProduct"
  bottom: "fc7"
  top: "fc8_plantvillage"
  param {
    lr_mult: 1
    decay_mult: 1
  }
  param {
    lr_mult: 2
    decay_mult: 0
  }
  inner_product_param {
    num_output: 38
    weight_filler {
      type: "gaussian"
      std: 0.01
    }
    bias_filler {
      type: "constant"
      value: 0
    }
  }
}
layer {
  name: "prob"
  type: "Softmax"
  bottom: "fc8_plantvillage"
  top: "prob"
  include {
    phase: TEST
  }
}
layer {
  name: "hdf5out"
  type: "HDF5Output"
  bottom: "prob"
  bottom: "label"
  include {
    phase: TEST
  }
  hdf5_output_param {
    file_name: "hdf5_dumps/iter_804.h5"
  }
}
layer {
  name: "loss"
  type: "SoftmaxWithLoss"
  bottom: "fc8_plantvillage"
  bottom: "label"
  top: "loss"
}
layer {
  name: "accuracy"
  type: "Accuracy"
  bottom: "fc8_plantvillage"
  bottom: "label"
  top: "accuracy"
  include {
    phase: TEST
  }
}
I0403 14:09:38.348736   925 layer_factory.hpp:77] Creating layer data
I0403 14:09:38.349387   925 net.cpp:91] Creating Layer data
I0403 14:09:38.349421   925 net.cpp:399] data -> data
I0403 14:09:38.349472   925 net.cpp:399] data -> label
I0403 14:09:38.349509   925 data_transformer.cpp:25] Loading mean file from: /home/mohanty/data/final_dataset/lmdb/segmented-50-50/mean.binaryproto
I0403 14:09:38.352653   928 db_lmdb.cpp:38] Opened lmdb /home/mohanty/data/final_dataset/lmdb/segmented-50-50/test_db
I0403 14:09:38.363991   925 data_layer.cpp:41] output data size: 100,3,227,227
I0403 14:09:38.481946   925 net.cpp:141] Setting up data
I0403 14:09:38.482035   925 net.cpp:148] Top shape: 100 3 227 227 (15458700)
I0403 14:09:38.482056   925 net.cpp:148] Top shape: 100 (100)
I0403 14:09:38.482072   925 net.cpp:156] Memory required for data: 61835200
I0403 14:09:38.482098   925 layer_factory.hpp:77] Creating layer label_data_1_split
I0403 14:09:38.482123   925 net.cpp:91] Creating Layer label_data_1_split
I0403 14:09:38.482141   925 net.cpp:425] label_data_1_split <- label
I0403 14:09:38.482172   925 net.cpp:399] label_data_1_split -> label_data_1_split_0
I0403 14:09:38.482199   925 net.cpp:399] label_data_1_split -> label_data_1_split_1
I0403 14:09:38.482220   925 net.cpp:399] label_data_1_split -> label_data_1_split_2
I0403 14:09:38.482285   925 net.cpp:141] Setting up label_data_1_split
I0403 14:09:38.482309   925 net.cpp:148] Top shape: 100 (100)
I0403 14:09:38.482327   925 net.cpp:148] Top shape: 100 (100)
I0403 14:09:38.482343   925 net.cpp:148] Top shape: 100 (100)
I0403 14:09:38.482357   925 net.cpp:156] Memory required for data: 61836400
I0403 14:09:38.482372   925 layer_factory.hpp:77] Creating layer conv1
I0403 14:09:38.482404   925 net.cpp:91] Creating Layer conv1
I0403 14:09:38.482422   925 net.cpp:425] conv1 <- data
I0403 14:09:38.482444   925 net.cpp:399] conv1 -> conv1
I0403 14:09:38.623292   925 net.cpp:141] Setting up conv1
I0403 14:09:38.623376   925 net.cpp:148] Top shape: 100 96 55 55 (29040000)
I0403 14:09:38.623394   925 net.cpp:156] Memory required for data: 177996400
I0403 14:09:38.623425   925 layer_factory.hpp:77] Creating layer relu1
I0403 14:09:38.623453   925 net.cpp:91] Creating Layer relu1
I0403 14:09:38.623472   925 net.cpp:425] relu1 <- conv1
I0403 14:09:38.623494   925 net.cpp:386] relu1 -> conv1 (in-place)
I0403 14:09:38.623775   925 net.cpp:141] Setting up relu1
I0403 14:09:38.623803   925 net.cpp:148] Top shape: 100 96 55 55 (29040000)
I0403 14:09:38.623879   925 net.cpp:156] Memory required for data: 294156400
I0403 14:09:38.623896   925 layer_factory.hpp:77] Creating layer norm1
I0403 14:09:38.623926   925 net.cpp:91] Creating Layer norm1
I0403 14:09:38.623945   925 net.cpp:425] norm1 <- conv1
I0403 14:09:38.623963   925 net.cpp:399] norm1 -> norm1
I0403 14:09:38.624305   925 net.cpp:141] Setting up norm1
I0403 14:09:38.624333   925 net.cpp:148] Top shape: 100 96 55 55 (29040000)
I0403 14:09:38.624352   925 net.cpp:156] Memory required for data: 410316400
I0403 14:09:38.624367   925 layer_factory.hpp:77] Creating layer pool1
I0403 14:09:38.624390   925 net.cpp:91] Creating Layer pool1
I0403 14:09:38.624408   925 net.cpp:425] pool1 <- norm1
I0403 14:09:38.624425   925 net.cpp:399] pool1 -> pool1
I0403 14:09:38.624496   925 net.cpp:141] Setting up pool1
I0403 14:09:38.624521   925 net.cpp:148] Top shape: 100 96 27 27 (6998400)
I0403 14:09:38.624536   925 net.cpp:156] Memory required for data: 438310000
I0403 14:09:38.624552   925 layer_factory.hpp:77] Creating layer conv2
I0403 14:09:38.624577   925 net.cpp:91] Creating Layer conv2
I0403 14:09:38.624594   925 net.cpp:425] conv2 <- pool1
I0403 14:09:38.624615   925 net.cpp:399] conv2 -> conv2
I0403 14:09:38.641787   925 net.cpp:141] Setting up conv2
I0403 14:09:38.641837   925 net.cpp:148] Top shape: 100 256 27 27 (18662400)
I0403 14:09:38.641855   925 net.cpp:156] Memory required for data: 512959600
I0403 14:09:38.641876   925 layer_factory.hpp:77] Creating layer relu2
I0403 14:09:38.641901   925 net.cpp:91] Creating Layer relu2
I0403 14:09:38.641921   925 net.cpp:425] relu2 <- conv2
I0403 14:09:38.641938   925 net.cpp:386] relu2 -> conv2 (in-place)
I0403 14:09:38.642221   925 net.cpp:141] Setting up relu2
I0403 14:09:38.642249   925 net.cpp:148] Top shape: 100 256 27 27 (18662400)
I0403 14:09:38.642266   925 net.cpp:156] Memory required for data: 587609200
I0403 14:09:38.642294   925 layer_factory.hpp:77] Creating layer norm2
I0403 14:09:38.642318   925 net.cpp:91] Creating Layer norm2
I0403 14:09:38.642339   925 net.cpp:425] norm2 <- conv2
I0403 14:09:38.642357   925 net.cpp:399] norm2 -> norm2
I0403 14:09:38.642555   925 net.cpp:141] Setting up norm2
I0403 14:09:38.642580   925 net.cpp:148] Top shape: 100 256 27 27 (18662400)
I0403 14:09:38.642596   925 net.cpp:156] Memory required for data: 662258800
I0403 14:09:38.642609   925 layer_factory.hpp:77] Creating layer pool2
I0403 14:09:38.642632   925 net.cpp:91] Creating Layer pool2
I0403 14:09:38.642648   925 net.cpp:425] pool2 <- norm2
I0403 14:09:38.642665   925 net.cpp:399] pool2 -> pool2
I0403 14:09:38.642719   925 net.cpp:141] Setting up pool2
I0403 14:09:38.642741   925 net.cpp:148] Top shape: 100 256 13 13 (4326400)
I0403 14:09:38.642755   925 net.cpp:156] Memory required for data: 679564400
I0403 14:09:38.642771   925 layer_factory.hpp:77] Creating layer conv3
I0403 14:09:38.642794   925 net.cpp:91] Creating Layer conv3
I0403 14:09:38.642838   925 net.cpp:425] conv3 <- pool2
I0403 14:09:38.642863   925 net.cpp:399] conv3 -> conv3
I0403 14:09:38.680531   925 net.cpp:141] Setting up conv3
I0403 14:09:38.680598   925 net.cpp:148] Top shape: 100 384 13 13 (6489600)
I0403 14:09:38.680615   925 net.cpp:156] Memory required for data: 705522800
I0403 14:09:38.680640   925 layer_factory.hpp:77] Creating layer relu3
I0403 14:09:38.680661   925 net.cpp:91] Creating Layer relu3
I0403 14:09:38.680677   925 net.cpp:425] relu3 <- conv3
I0403 14:09:38.680696   925 net.cpp:386] relu3 -> conv3 (in-place)
I0403 14:09:38.680971   925 net.cpp:141] Setting up relu3
I0403 14:09:38.681000   925 net.cpp:148] Top shape: 100 384 13 13 (6489600)
I0403 14:09:38.681017   925 net.cpp:156] Memory required for data: 731481200
I0403 14:09:38.681033   925 layer_factory.hpp:77] Creating layer conv4
I0403 14:09:38.681056   925 net.cpp:91] Creating Layer conv4
I0403 14:09:38.681072   925 net.cpp:425] conv4 <- conv3
I0403 14:09:38.681095   925 net.cpp:399] conv4 -> conv4
I0403 14:09:38.710989   925 net.cpp:141] Setting up conv4
I0403 14:09:38.711076   925 net.cpp:148] Top shape: 100 384 13 13 (6489600)
I0403 14:09:38.711127   925 net.cpp:156] Memory required for data: 757439600
I0403 14:09:38.711149   925 layer_factory.hpp:77] Creating layer relu4
I0403 14:09:38.711174   925 net.cpp:91] Creating Layer relu4
I0403 14:09:38.711192   925 net.cpp:425] relu4 <- conv4
I0403 14:09:38.711211   925 net.cpp:386] relu4 -> conv4 (in-place)
I0403 14:09:38.711499   925 net.cpp:141] Setting up relu4
I0403 14:09:38.711526   925 net.cpp:148] Top shape: 100 384 13 13 (6489600)
I0403 14:09:38.711542   925 net.cpp:156] Memory required for data: 783398000
I0403 14:09:38.711557   925 layer_factory.hpp:77] Creating layer conv5
I0403 14:09:38.711583   925 net.cpp:91] Creating Layer conv5
I0403 14:09:38.711601   925 net.cpp:425] conv5 <- conv4
I0403 14:09:38.711622   925 net.cpp:399] conv5 -> conv5
I0403 14:09:38.731991   925 net.cpp:141] Setting up conv5
I0403 14:09:38.732035   925 net.cpp:148] Top shape: 100 256 13 13 (4326400)
I0403 14:09:38.732051   925 net.cpp:156] Memory required for data: 800703600
I0403 14:09:38.732074   925 layer_factory.hpp:77] Creating layer relu5
I0403 14:09:38.732100   925 net.cpp:91] Creating Layer relu5
I0403 14:09:38.732117   925 net.cpp:425] relu5 <- conv5
I0403 14:09:38.732136   925 net.cpp:386] relu5 -> conv5 (in-place)
I0403 14:09:38.732419   925 net.cpp:141] Setting up relu5
I0403 14:09:38.732445   925 net.cpp:148] Top shape: 100 256 13 13 (4326400)
I0403 14:09:38.732460   925 net.cpp:156] Memory required for data: 818009200
I0403 14:09:38.732475   925 layer_factory.hpp:77] Creating layer pool5
I0403 14:09:38.732501   925 net.cpp:91] Creating Layer pool5
I0403 14:09:38.732517   925 net.cpp:425] pool5 <- conv5
I0403 14:09:38.732538   925 net.cpp:399] pool5 -> pool5
I0403 14:09:38.732597   925 net.cpp:141] Setting up pool5
I0403 14:09:38.732620   925 net.cpp:148] Top shape: 100 256 6 6 (921600)
I0403 14:09:38.732635   925 net.cpp:156] Memory required for data: 821695600
I0403 14:09:38.732650   925 layer_factory.hpp:77] Creating layer fc6
I0403 14:09:38.732677   925 net.cpp:91] Creating Layer fc6
I0403 14:09:38.732695   925 net.cpp:425] fc6 <- pool5
I0403 14:09:38.732715   925 net.cpp:399] fc6 -> fc6
I0403 14:09:40.276520   925 net.cpp:141] Setting up fc6
I0403 14:09:40.276569   925 net.cpp:148] Top shape: 100 4096 (409600)
I0403 14:09:40.276585   925 net.cpp:156] Memory required for data: 823334000
I0403 14:09:40.276605   925 layer_factory.hpp:77] Creating layer relu6
I0403 14:09:40.276629   925 net.cpp:91] Creating Layer relu6
I0403 14:09:40.276648   925 net.cpp:425] relu6 <- fc6
I0403 14:09:40.276665   925 net.cpp:386] relu6 -> fc6 (in-place)
I0403 14:09:40.276876   925 net.cpp:141] Setting up relu6
I0403 14:09:40.276901   925 net.cpp:148] Top shape: 100 4096 (409600)
I0403 14:09:40.276914   925 net.cpp:156] Memory required for data: 824972400
I0403 14:09:40.276927   925 layer_factory.hpp:77] Creating layer drop6
I0403 14:09:40.276948   925 net.cpp:91] Creating Layer drop6
I0403 14:09:40.276963   925 net.cpp:425] drop6 <- fc6
I0403 14:09:40.276980   925 net.cpp:386] drop6 -> fc6 (in-place)
I0403 14:09:40.277031   925 net.cpp:141] Setting up drop6
I0403 14:09:40.277053   925 net.cpp:148] Top shape: 100 4096 (409600)
I0403 14:09:40.277067   925 net.cpp:156] Memory required for data: 826610800
I0403 14:09:40.277081   925 layer_factory.hpp:77] Creating layer fc7
I0403 14:09:40.277099   925 net.cpp:91] Creating Layer fc7
I0403 14:09:40.277114   925 net.cpp:425] fc7 <- fc6
I0403 14:09:40.277134   925 net.cpp:399] fc7 -> fc7
I0403 14:09:40.968650   925 net.cpp:141] Setting up fc7
I0403 14:09:40.968698   925 net.cpp:148] Top shape: 100 4096 (409600)
I0403 14:09:40.968718   925 net.cpp:156] Memory required for data: 828249200
I0403 14:09:40.968740   925 layer_factory.hpp:77] Creating layer relu7
I0403 14:09:40.968765   925 net.cpp:91] Creating Layer relu7
I0403 14:09:40.968785   925 net.cpp:425] relu7 <- fc7
I0403 14:09:40.968806   925 net.cpp:386] relu7 -> fc7 (in-place)
I0403 14:09:40.969241   925 net.cpp:141] Setting up relu7
I0403 14:09:40.969269   925 net.cpp:148] Top shape: 100 4096 (409600)
I0403 14:09:40.969326   925 net.cpp:156] Memory required for data: 829887600
I0403 14:09:40.969344   925 layer_factory.hpp:77] Creating layer drop7
I0403 14:09:40.969367   925 net.cpp:91] Creating Layer drop7
I0403 14:09:40.969385   925 net.cpp:425] drop7 <- fc7
I0403 14:09:40.969404   925 net.cpp:386] drop7 -> fc7 (in-place)
I0403 14:09:40.969452   925 net.cpp:141] Setting up drop7
I0403 14:09:40.969476   925 net.cpp:148] Top shape: 100 4096 (409600)
I0403 14:09:40.969491   925 net.cpp:156] Memory required for data: 831526000
I0403 14:09:40.969506   925 layer_factory.hpp:77] Creating layer fc8_plantvillage
I0403 14:09:40.969530   925 net.cpp:91] Creating Layer fc8_plantvillage
I0403 14:09:40.969547   925 net.cpp:425] fc8_plantvillage <- fc7
I0403 14:09:40.969566   925 net.cpp:399] fc8_plantvillage -> fc8_plantvillage
I0403 14:09:40.976749   925 net.cpp:141] Setting up fc8_plantvillage
I0403 14:09:40.976781   925 net.cpp:148] Top shape: 100 38 (3800)
I0403 14:09:40.976799   925 net.cpp:156] Memory required for data: 831541200
I0403 14:09:40.976819   925 layer_factory.hpp:77] Creating layer fc8_plantvillage_fc8_plantvillage_0_split
I0403 14:09:40.976841   925 net.cpp:91] Creating Layer fc8_plantvillage_fc8_plantvillage_0_split
I0403 14:09:40.976858   925 net.cpp:425] fc8_plantvillage_fc8_plantvillage_0_split <- fc8_plantvillage
I0403 14:09:40.976877   925 net.cpp:399] fc8_plantvillage_fc8_plantvillage_0_split -> fc8_plantvillage_fc8_plantvillage_0_split_0
I0403 14:09:40.976903   925 net.cpp:399] fc8_plantvillage_fc8_plantvillage_0_split -> fc8_plantvillage_fc8_plantvillage_0_split_1
I0403 14:09:40.976927   925 net.cpp:399] fc8_plantvillage_fc8_plantvillage_0_split -> fc8_plantvillage_fc8_plantvillage_0_split_2
I0403 14:09:40.977010   925 net.cpp:141] Setting up fc8_plantvillage_fc8_plantvillage_0_split
I0403 14:09:40.977036   925 net.cpp:148] Top shape: 100 38 (3800)
I0403 14:09:40.977054   925 net.cpp:148] Top shape: 100 38 (3800)
I0403 14:09:40.977072   925 net.cpp:148] Top shape: 100 38 (3800)
I0403 14:09:40.977087   925 net.cpp:156] Memory required for data: 831586800
I0403 14:09:40.977102   925 layer_factory.hpp:77] Creating layer prob
I0403 14:09:40.977124   925 net.cpp:91] Creating Layer prob
I0403 14:09:40.977143   925 net.cpp:425] prob <- fc8_plantvillage_fc8_plantvillage_0_split_0
I0403 14:09:40.977162   925 net.cpp:399] prob -> prob
I0403 14:09:40.977411   925 net.cpp:141] Setting up prob
I0403 14:09:40.977437   925 net.cpp:148] Top shape: 100 38 (3800)
I0403 14:09:40.977453   925 net.cpp:156] Memory required for data: 831602000
I0403 14:09:40.977468   925 layer_factory.hpp:77] Creating layer hdf5out
I0403 14:09:40.977490   925 net.cpp:91] Creating Layer hdf5out
I0403 14:09:40.977509   925 net.cpp:425] hdf5out <- prob
I0403 14:09:40.977525   925 net.cpp:425] hdf5out <- label_data_1_split_0
I0403 14:09:40.980036   925 net.cpp:141] Setting up hdf5out
…
