…
I0403 14:15:30.782941  1052 net.cpp:313] The NetState phase (1) differed from the phase (0) specified by a rule in layer data
I0403 14:15:30.783254  1052 net.cpp:49] Initializing net from parameters: 
state {
  phase: TEST
}
layer {
  name: "data"
  type: "Data"
  top: "data"
  top: "label"
  include {
    phase: TEST
  }
  transform_param {
    crop_size: 227
    mean_file: "/home/mohanty/data/final_dataset/lmdb/segmented-50-50/mean.binaryproto"
  }
  data_param {
    source: "/home/mohanty/data/final_dataset/lmdb/segmented-50-50/test_db"
    batch_size: 100
    backend: LMDB
  }
}
layer {
  name: "conv1"
  type: "Convolution"
  bottom: "data"
  top: "conv1"
  param {
    lr_mult: 1
    decay_mult: 1
  }
  param {
    lr_mult: 2
    decay_mult: 0
  }
  convolution_param {
    num_output: 96
    kernel_size: 11
    stride: 4
    weight_filler {
      type: "gaussian"
      std: 0.01
    }
    bias_filler {
      type: "constant"
      value: 0
    }
  }
}
layer {
  name: "relu1"
  type: "ReLU"
  bottom: "conv1"
  top: "conv1"
}
layer {
  name: "norm1"
  type: "LRN"
  bottom: "conv1"
  top: "norm1"
  lrn_param {
    local_size: 5
    alpha: 0.0001
    beta: 0.75
  }
}
layer {
  name: "pool1"
  type: "Pooling"
  bottom: "norm1"
  top: "pool1"
  pooling_param {
    pool: MAX
    kernel_size: 3
    stride: 2
  }
}
layer {
  name: "conv2"
  type: "Convolution"
  bottom: "pool1"
  top: "conv2"
  param {
    lr_mult: 1
    decay_mult: 1
  }
  param {
    lr_mult: 2
    decay_mult: 0
  }
  convolution_param {
    num_output: 256
    pad: 2
    kernel_size: 5
    group: 2
    weight_filler {
      type: "gaussian"
      std: 0.01
    }
    bias_filler {
      type: "constant"
      value: 0.1
    }
  }
}
layer {
  name: "relu2"
  type: "ReLU"
  bottom: "conv2"
  top: "conv2"
}
layer {
  name: "norm2"
  type: "LRN"
  bottom: "conv2"
  top: "norm2"
  lrn_param {
    local_size: 5
    alpha: 0.0001
    beta: 0.75
  }
}
layer {
  name: "pool2"
  type: "Pooling"
  bottom: "norm2"
  top: "pool2"
  pooling_param {
    pool: MAX
    kernel_size: 3
    stride: 2
  }
}
layer {
  name: "conv3"
  type: "Convolution"
  bottom: "pool2"
  top: "conv3"
  param {
    lr_mult: 1
    decay_mult: 1
  }
  param {
    lr_mult: 2
    decay_mult: 0
  }
  convolution_param {
    num_output: 384
    pad: 1
    kernel_size: 3
    weight_filler {
      type: "gaussian"
      std: 0.01
    }
    bias_filler {
      type: "constant"
      value: 0
    }
  }
}
layer {
  name: "relu3"
  type: "ReLU"
  bottom: "conv3"
  top: "conv3"
}
layer {
  name: "conv4"
  type: "Convolution"
  bottom: "conv3"
  top: "conv4"
  param {
    lr_mult: 1
    decay_mult: 1
  }
  param {
    lr_mult: 2
    decay_mult: 0
  }
  convolution_param {
    num_output: 384
    pad: 1
    kernel_size: 3
    group: 2
    weight_filler {
      type: "gaussian"
      std: 0.01
    }
    bias_filler {
      type: "constant"
      value: 0.1
    }
  }
}
layer {
  name: "relu4"
  type: "ReLU"
  bottom: "conv4"
  top: "conv4"
}
layer {
  name: "conv5"
  type: "Convolution"
  bottom: "conv4"
  top: "conv5"
  param {
    lr_mult: 1
    decay_mult: 1
  }
  param {
    lr_mult: 2
    decay_mult: 0
  }
  convolution_param {
    num_output: 256
    pad: 1
    kernel_size: 3
    group: 2
    weight_filler {
      type: "gaussian"
      std: 0.01
    }
    bias_filler {
      type: "constant"
      value: 0.1
    }
  }
}
layer {
  name: "relu5"
  type: "ReLU"
  bottom: "conv5"
  top: "conv5"
}
layer {
  name: "pool5"
  type: "Pooling"
  bottom: "conv5"
  top: "pool5"
  pooling_param {
    pool: MAX
    kernel_size: 3
    stride: 2
  }
}
layer {
  name: "fc6"
  type: "InnerProduct"
  bottom: "pool5"
  top: "fc6"
  param {
    lr_mult: 1
    decay_mult: 1
  }
  param {
    lr_mult: 2
    decay_mult: 0
  }
  inner_product_param {
    num_output: 4096
    weight_filler {
      type: "gaussian"
      std: 0.005
    }
    bias_filler {
      type: "constant"
      value: 0.1
    }
  }
}
layer {
  name: "relu6"
  type: "ReLU"
  bottom: "fc6"
  top: "fc6"
}
layer {
  name: "drop6"
  type: "Dropout"
  bottom: "fc6"
  top: "fc6"
  dropout_param {
    dropout_ratio: 0.5
  }
}
layer {
  name: "fc7"
  type: "InnerProduct"
  bottom: "fc6"
  top: "fc7"
  param {
    lr_mult: 1
    decay_mult: 1
  }
  param {
    lr_mult: 2
    decay_mult: 0
  }
  inner_product_param {
    num_output: 4096
    weight_filler {
      type: "gaussian"
      std: 0.005
    }
    bias_filler {
      type: "constant"
      value: 0.1
    }
  }
}
layer {
  name: "relu7"
  type: "ReLU"
  bottom: "fc7"
  top: "fc7"
}
layer {
  name: "drop7"
  type: "Dropout"
  bottom: "fc7"
  top: "fc7"
  dropout_param {
    dropout_ratio: 0.5
  }
}
layer {
  name: "fc8_plantvillage"
  type: "InnerProduct"
  bottom: "fc7"
  top: "fc8_plantvillage"
  param {
    lr_mult: 1
    decay_mult: 1
  }
  param {
    lr_mult: 2
    decay_mult: 0
  }
  inner_product_param {
    num_output: 38
    weight_filler {
      type: "gaussian"
      std: 0.01
    }
    bias_filler {
      type: "constant"
      value: 0
    }
  }
}
layer {
  name: "prob"
  type: "Softmax"
  bottom: "fc8_plantvillage"
  top: "prob"
  include {
    phase: TEST
  }
}
layer {
  name: "hdf5out"
  type: "HDF5Output"
  bottom: "prob"
  bottom: "label"
  include {
    phase: TEST
  }
  hdf5_output_param {
    file_name: "hdf5_dumps/iter_2680.h5"
  }
}
layer {
  name: "loss"
  type: "SoftmaxWithLoss"
  bottom: "fc8_plantvillage"
  bottom: "label"
  top: "loss"
}
layer {
  name: "accuracy"
  type: "Accuracy"
  bottom: "fc8_plantvillage"
  bottom: "label"
  top: "accuracy"
  include {
    phase: TEST
  }
}
I0403 14:15:30.783826  1052 layer_factory.hpp:77] Creating layer data
I0403 14:15:30.784484  1052 net.cpp:91] Creating Layer data
I0403 14:15:30.784520  1052 net.cpp:399] data -> data
I0403 14:15:30.784572  1052 net.cpp:399] data -> label
I0403 14:15:30.784610  1052 data_transformer.cpp:25] Loading mean file from: /home/mohanty/data/final_dataset/lmdb/segmented-50-50/mean.binaryproto
I0403 14:15:30.787901  1055 db_lmdb.cpp:38] Opened lmdb /home/mohanty/data/final_dataset/lmdb/segmented-50-50/test_db
I0403 14:15:30.799036  1052 data_layer.cpp:41] output data size: 100,3,227,227
I0403 14:15:30.918414  1052 net.cpp:141] Setting up data
I0403 14:15:30.918521  1052 net.cpp:148] Top shape: 100 3 227 227 (15458700)
I0403 14:15:30.918557  1052 net.cpp:148] Top shape: 100 (100)
I0403 14:15:30.918572  1052 net.cpp:156] Memory required for data: 61835200
I0403 14:15:30.918599  1052 layer_factory.hpp:77] Creating layer label_data_1_split
I0403 14:15:30.918625  1052 net.cpp:91] Creating Layer label_data_1_split
I0403 14:15:30.918643  1052 net.cpp:425] label_data_1_split <- label
I0403 14:15:30.918675  1052 net.cpp:399] label_data_1_split -> label_data_1_split_0
I0403 14:15:30.918704  1052 net.cpp:399] label_data_1_split -> label_data_1_split_1
I0403 14:15:30.918725  1052 net.cpp:399] label_data_1_split -> label_data_1_split_2
I0403 14:15:30.918788  1052 net.cpp:141] Setting up label_data_1_split
I0403 14:15:30.918812  1052 net.cpp:148] Top shape: 100 (100)
I0403 14:15:30.918829  1052 net.cpp:148] Top shape: 100 (100)
I0403 14:15:30.918845  1052 net.cpp:148] Top shape: 100 (100)
I0403 14:15:30.918859  1052 net.cpp:156] Memory required for data: 61836400
I0403 14:15:30.918874  1052 layer_factory.hpp:77] Creating layer conv1
I0403 14:15:30.918906  1052 net.cpp:91] Creating Layer conv1
I0403 14:15:30.918925  1052 net.cpp:425] conv1 <- data
I0403 14:15:30.918944  1052 net.cpp:399] conv1 -> conv1
I0403 14:15:31.062594  1052 net.cpp:141] Setting up conv1
I0403 14:15:31.062664  1052 net.cpp:148] Top shape: 100 96 55 55 (29040000)
I0403 14:15:31.062682  1052 net.cpp:156] Memory required for data: 177996400
I0403 14:15:31.062714  1052 layer_factory.hpp:77] Creating layer relu1
I0403 14:15:31.062744  1052 net.cpp:91] Creating Layer relu1
I0403 14:15:31.062763  1052 net.cpp:425] relu1 <- conv1
I0403 14:15:31.062783  1052 net.cpp:386] relu1 -> conv1 (in-place)
I0403 14:15:31.063048  1052 net.cpp:141] Setting up relu1
I0403 14:15:31.063077  1052 net.cpp:148] Top shape: 100 96 55 55 (29040000)
I0403 14:15:31.063127  1052 net.cpp:156] Memory required for data: 294156400
I0403 14:15:31.063143  1052 layer_factory.hpp:77] Creating layer norm1
I0403 14:15:31.063171  1052 net.cpp:91] Creating Layer norm1
I0403 14:15:31.063192  1052 net.cpp:425] norm1 <- conv1
I0403 14:15:31.063236  1052 net.cpp:399] norm1 -> norm1
I0403 14:15:31.063561  1052 net.cpp:141] Setting up norm1
I0403 14:15:31.063591  1052 net.cpp:148] Top shape: 100 96 55 55 (29040000)
I0403 14:15:31.063607  1052 net.cpp:156] Memory required for data: 410316400
I0403 14:15:31.063623  1052 layer_factory.hpp:77] Creating layer pool1
I0403 14:15:31.063647  1052 net.cpp:91] Creating Layer pool1
I0403 14:15:31.063665  1052 net.cpp:425] pool1 <- norm1
I0403 14:15:31.063684  1052 net.cpp:399] pool1 -> pool1
I0403 14:15:31.063753  1052 net.cpp:141] Setting up pool1
I0403 14:15:31.063778  1052 net.cpp:148] Top shape: 100 96 27 27 (6998400)
I0403 14:15:31.063794  1052 net.cpp:156] Memory required for data: 438310000
I0403 14:15:31.063810  1052 layer_factory.hpp:77] Creating layer conv2
I0403 14:15:31.063848  1052 net.cpp:91] Creating Layer conv2
I0403 14:15:31.063865  1052 net.cpp:425] conv2 <- pool1
I0403 14:15:31.063884  1052 net.cpp:399] conv2 -> conv2
I0403 14:15:31.078938  1052 net.cpp:141] Setting up conv2
I0403 14:15:31.078976  1052 net.cpp:148] Top shape: 100 256 27 27 (18662400)
I0403 14:15:31.078994  1052 net.cpp:156] Memory required for data: 512959600
I0403 14:15:31.079015  1052 layer_factory.hpp:77] Creating layer relu2
I0403 14:15:31.079035  1052 net.cpp:91] Creating Layer relu2
I0403 14:15:31.079051  1052 net.cpp:425] relu2 <- conv2
I0403 14:15:31.079069  1052 net.cpp:386] relu2 -> conv2 (in-place)
I0403 14:15:31.079357  1052 net.cpp:141] Setting up relu2
I0403 14:15:31.079385  1052 net.cpp:148] Top shape: 100 256 27 27 (18662400)
I0403 14:15:31.079402  1052 net.cpp:156] Memory required for data: 587609200
I0403 14:15:31.079418  1052 layer_factory.hpp:77] Creating layer norm2
I0403 14:15:31.079439  1052 net.cpp:91] Creating Layer norm2
I0403 14:15:31.079457  1052 net.cpp:425] norm2 <- conv2
I0403 14:15:31.079478  1052 net.cpp:399] norm2 -> norm2
I0403 14:15:31.079700  1052 net.cpp:141] Setting up norm2
I0403 14:15:31.079727  1052 net.cpp:148] Top shape: 100 256 27 27 (18662400)
I0403 14:15:31.079743  1052 net.cpp:156] Memory required for data: 662258800
I0403 14:15:31.079758  1052 layer_factory.hpp:77] Creating layer pool2
I0403 14:15:31.079777  1052 net.cpp:91] Creating Layer pool2
I0403 14:15:31.079794  1052 net.cpp:425] pool2 <- norm2
I0403 14:15:31.079813  1052 net.cpp:399] pool2 -> pool2
I0403 14:15:31.079862  1052 net.cpp:141] Setting up pool2
I0403 14:15:31.079886  1052 net.cpp:148] Top shape: 100 256 13 13 (4326400)
I0403 14:15:31.079901  1052 net.cpp:156] Memory required for data: 679564400
I0403 14:15:31.079916  1052 layer_factory.hpp:77] Creating layer conv3
I0403 14:15:31.079937  1052 net.cpp:91] Creating Layer conv3
I0403 14:15:31.079954  1052 net.cpp:425] conv3 <- pool2
I0403 14:15:31.079973  1052 net.cpp:399] conv3 -> conv3
I0403 14:15:31.119654  1052 net.cpp:141] Setting up conv3
I0403 14:15:31.119727  1052 net.cpp:148] Top shape: 100 384 13 13 (6489600)
I0403 14:15:31.119745  1052 net.cpp:156] Memory required for data: 705522800
I0403 14:15:31.119771  1052 layer_factory.hpp:77] Creating layer relu3
I0403 14:15:31.119794  1052 net.cpp:91] Creating Layer relu3
I0403 14:15:31.119812  1052 net.cpp:425] relu3 <- conv3
I0403 14:15:31.119832  1052 net.cpp:386] relu3 -> conv3 (in-place)
I0403 14:15:31.120110  1052 net.cpp:141] Setting up relu3
I0403 14:15:31.120137  1052 net.cpp:148] Top shape: 100 384 13 13 (6489600)
I0403 14:15:31.120153  1052 net.cpp:156] Memory required for data: 731481200
I0403 14:15:31.120170  1052 layer_factory.hpp:77] Creating layer conv4
I0403 14:15:31.120198  1052 net.cpp:91] Creating Layer conv4
I0403 14:15:31.120215  1052 net.cpp:425] conv4 <- conv3
I0403 14:15:31.120242  1052 net.cpp:399] conv4 -> conv4
I0403 14:15:31.151567  1052 net.cpp:141] Setting up conv4
I0403 14:15:31.151609  1052 net.cpp:148] Top shape: 100 384 13 13 (6489600)
I0403 14:15:31.151657  1052 net.cpp:156] Memory required for data: 757439600
I0403 14:15:31.151681  1052 layer_factory.hpp:77] Creating layer relu4
I0403 14:15:31.151705  1052 net.cpp:91] Creating Layer relu4
I0403 14:15:31.151723  1052 net.cpp:425] relu4 <- conv4
I0403 14:15:31.151747  1052 net.cpp:386] relu4 -> conv4 (in-place)
I0403 14:15:31.152040  1052 net.cpp:141] Setting up relu4
I0403 14:15:31.152068  1052 net.cpp:148] Top shape: 100 384 13 13 (6489600)
I0403 14:15:31.152084  1052 net.cpp:156] Memory required for data: 783398000
I0403 14:15:31.152101  1052 layer_factory.hpp:77] Creating layer conv5
I0403 14:15:31.152128  1052 net.cpp:91] Creating Layer conv5
I0403 14:15:31.152148  1052 net.cpp:425] conv5 <- conv4
I0403 14:15:31.152170  1052 net.cpp:399] conv5 -> conv5
I0403 14:15:31.173136  1052 net.cpp:141] Setting up conv5
I0403 14:15:31.173177  1052 net.cpp:148] Top shape: 100 256 13 13 (4326400)
I0403 14:15:31.173194  1052 net.cpp:156] Memory required for data: 800703600
I0403 14:15:31.173219  1052 layer_factory.hpp:77] Creating layer relu5
I0403 14:15:31.173245  1052 net.cpp:91] Creating Layer relu5
I0403 14:15:31.173264  1052 net.cpp:425] relu5 <- conv5
I0403 14:15:31.173283  1052 net.cpp:386] relu5 -> conv5 (in-place)
I0403 14:15:31.173589  1052 net.cpp:141] Setting up relu5
I0403 14:15:31.173616  1052 net.cpp:148] Top shape: 100 256 13 13 (4326400)
I0403 14:15:31.173631  1052 net.cpp:156] Memory required for data: 818009200
I0403 14:15:31.173646  1052 layer_factory.hpp:77] Creating layer pool5
I0403 14:15:31.173671  1052 net.cpp:91] Creating Layer pool5
I0403 14:15:31.173688  1052 net.cpp:425] pool5 <- conv5
I0403 14:15:31.173707  1052 net.cpp:399] pool5 -> pool5
I0403 14:15:31.173771  1052 net.cpp:141] Setting up pool5
I0403 14:15:31.173795  1052 net.cpp:148] Top shape: 100 256 6 6 (921600)
I0403 14:15:31.173810  1052 net.cpp:156] Memory required for data: 821695600
I0403 14:15:31.173825  1052 layer_factory.hpp:77] Creating layer fc6
I0403 14:15:31.173853  1052 net.cpp:91] Creating Layer fc6
I0403 14:15:31.173871  1052 net.cpp:425] fc6 <- pool5
I0403 14:15:31.173892  1052 net.cpp:399] fc6 -> fc6
I0403 14:15:32.717270  1052 net.cpp:141] Setting up fc6
I0403 14:15:32.717319  1052 net.cpp:148] Top shape: 100 4096 (409600)
I0403 14:15:32.717334  1052 net.cpp:156] Memory required for data: 823334000
I0403 14:15:32.717355  1052 layer_factory.hpp:77] Creating layer relu6
I0403 14:15:32.717376  1052 net.cpp:91] Creating Layer relu6
I0403 14:15:32.717394  1052 net.cpp:425] relu6 <- fc6
I0403 14:15:32.717413  1052 net.cpp:386] relu6 -> fc6 (in-place)
I0403 14:15:32.717628  1052 net.cpp:141] Setting up relu6
I0403 14:15:32.717653  1052 net.cpp:148] Top shape: 100 4096 (409600)
I0403 14:15:32.717669  1052 net.cpp:156] Memory required for data: 824972400
I0403 14:15:32.717682  1052 layer_factory.hpp:77] Creating layer drop6
I0403 14:15:32.717701  1052 net.cpp:91] Creating Layer drop6
I0403 14:15:32.717716  1052 net.cpp:425] drop6 <- fc6
I0403 14:15:32.717736  1052 net.cpp:386] drop6 -> fc6 (in-place)
I0403 14:15:32.717787  1052 net.cpp:141] Setting up drop6
I0403 14:15:32.717813  1052 net.cpp:148] Top shape: 100 4096 (409600)
I0403 14:15:32.717828  1052 net.cpp:156] Memory required for data: 826610800
I0403 14:15:32.717842  1052 layer_factory.hpp:77] Creating layer fc7
I0403 14:15:32.717862  1052 net.cpp:91] Creating Layer fc7
I0403 14:15:32.717878  1052 net.cpp:425] fc7 <- fc6
I0403 14:15:32.717898  1052 net.cpp:399] fc7 -> fc7
I0403 14:15:33.394577  1052 net.cpp:141] Setting up fc7
I0403 14:15:33.394618  1052 net.cpp:148] Top shape: 100 4096 (409600)
I0403 14:15:33.394634  1052 net.cpp:156] Memory required for data: 828249200
I0403 14:15:33.394654  1052 layer_factory.hpp:77] Creating layer relu7
I0403 14:15:33.394673  1052 net.cpp:91] Creating Layer relu7
I0403 14:15:33.394690  1052 net.cpp:425] relu7 <- fc7
I0403 14:15:33.394711  1052 net.cpp:386] relu7 -> fc7 (in-place)
I0403 14:15:33.395115  1052 net.cpp:141] Setting up relu7
I0403 14:15:33.395140  1052 net.cpp:148] Top shape: 100 4096 (409600)
I0403 14:15:33.395185  1052 net.cpp:156] Memory required for data: 829887600
I0403 14:15:33.395200  1052 layer_factory.hpp:77] Creating layer drop7
I0403 14:15:33.395218  1052 net.cpp:91] Creating Layer drop7
I0403 14:15:33.395234  1052 net.cpp:425] drop7 <- fc7
I0403 14:15:33.395259  1052 net.cpp:386] drop7 -> fc7 (in-place)
I0403 14:15:33.395303  1052 net.cpp:141] Setting up drop7
I0403 14:15:33.395328  1052 net.cpp:148] Top shape: 100 4096 (409600)
I0403 14:15:33.395342  1052 net.cpp:156] Memory required for data: 831526000
I0403 14:15:33.395356  1052 layer_factory.hpp:77] Creating layer fc8_plantvillage
I0403 14:15:33.395376  1052 net.cpp:91] Creating Layer fc8_plantvillage
I0403 14:15:33.395391  1052 net.cpp:425] fc8_plantvillage <- fc7
I0403 14:15:33.395411  1052 net.cpp:399] fc8_plantvillage -> fc8_plantvillage
I0403 14:15:33.402258  1052 net.cpp:141] Setting up fc8_plantvillage
I0403 14:15:33.402287  1052 net.cpp:148] Top shape: 100 38 (3800)
I0403 14:15:33.402302  1052 net.cpp:156] Memory required for data: 831541200
I0403 14:15:33.402333  1052 layer_factory.hpp:77] Creating layer fc8_plantvillage_fc8_plantvillage_0_split
I0403 14:15:33.402354  1052 net.cpp:91] Creating Layer fc8_plantvillage_fc8_plantvillage_0_split
I0403 14:15:33.402369  1052 net.cpp:425] fc8_plantvillage_fc8_plantvillage_0_split <- fc8_plantvillage
I0403 14:15:33.402387  1052 net.cpp:399] fc8_plantvillage_fc8_plantvillage_0_split -> fc8_plantvillage_fc8_plantvillage_0_split_0
I0403 14:15:33.402408  1052 net.cpp:399] fc8_plantvillage_fc8_plantvillage_0_split -> fc8_plantvillage_fc8_plantvillage_0_split_1
I0403 14:15:33.402428  1052 net.cpp:399] fc8_plantvillage_fc8_plantvillage_0_split -> fc8_plantvillage_fc8_plantvillage_0_split_2
I0403 14:15:33.402509  1052 net.cpp:141] Setting up fc8_plantvillage_fc8_plantvillage_0_split
I0403 14:15:33.402534  1052 net.cpp:148] Top shape: 100 38 (3800)
I0403 14:15:33.402552  1052 net.cpp:148] Top shape: 100 38 (3800)
I0403 14:15:33.402567  1052 net.cpp:148] Top shape: 100 38 (3800)
I0403 14:15:33.402581  1052 net.cpp:156] Memory required for data: 831586800
I0403 14:15:33.402596  1052 layer_factory.hpp:77] Creating layer prob
I0403 14:15:33.402627  1052 net.cpp:91] Creating Layer prob
I0403 14:15:33.402643  1052 net.cpp:425] prob <- fc8_plantvillage_fc8_plantvillage_0_split_0
I0403 14:15:33.402662  1052 net.cpp:399] prob -> prob
I0403 14:15:33.402889  1052 net.cpp:141] Setting up prob
I0403 14:15:33.402915  1052 net.cpp:148] Top shape: 100 38 (3800)
I0403 14:15:33.402930  1052 net.cpp:156] Memory required for data: 831602000
I0403 14:15:33.402945  1052 layer_factory.hpp:77] Creating layer hdf5out
I0403 14:15:33.402962  1052 net.cpp:91] Creating Layer hdf5out
I0403 14:15:33.402978  1052 net.cpp:425] hdf5out <- prob
I0403 14:15:33.402994  1052 net.cpp:425] hdf5out <- label_data_1_split_0
I0403 14:15:33.405375  1052 net.cpp:141] Setting up hdf5out
…
