…
I0403 14:08:48.166347   900 net.cpp:313] The NetState phase (1) differed from the phase (0) specified by a rule in layer data
I0403 14:08:48.166694   900 net.cpp:49] Initializing net from parameters: 
state {
  phase: TEST
}
layer {
  name: "data"
  type: "Data"
  top: "data"
  top: "label"
  include {
    phase: TEST
  }
  transform_param {
    crop_size: 227
    mean_file: "/home/mohanty/data/final_dataset/lmdb/segmented-50-50/mean.binaryproto"
  }
  data_param {
    source: "/home/mohanty/data/final_dataset/lmdb/segmented-50-50/test_db"
    batch_size: 100
    backend: LMDB
  }
}
layer {
  name: "conv1"
  type: "Convolution"
  bottom: "data"
  top: "conv1"
  param {
    lr_mult: 1
    decay_mult: 1
  }
  param {
    lr_mult: 2
    decay_mult: 0
  }
  convolution_param {
    num_output: 96
    kernel_size: 11
    stride: 4
    weight_filler {
      type: "gaussian"
      std: 0.01
    }
    bias_filler {
      type: "constant"
      value: 0
    }
  }
}
layer {
  name: "relu1"
  type: "ReLU"
  bottom: "conv1"
  top: "conv1"
}
layer {
  name: "norm1"
  type: "LRN"
  bottom: "conv1"
  top: "norm1"
  lrn_param {
    local_size: 5
    alpha: 0.0001
    beta: 0.75
  }
}
layer {
  name: "pool1"
  type: "Pooling"
  bottom: "norm1"
  top: "pool1"
  pooling_param {
    pool: MAX
    kernel_size: 3
    stride: 2
  }
}
layer {
  name: "conv2"
  type: "Convolution"
  bottom: "pool1"
  top: "conv2"
  param {
    lr_mult: 1
    decay_mult: 1
  }
  param {
    lr_mult: 2
    decay_mult: 0
  }
  convolution_param {
    num_output: 256
    pad: 2
    kernel_size: 5
    group: 2
    weight_filler {
      type: "gaussian"
      std: 0.01
    }
    bias_filler {
      type: "constant"
      value: 0.1
    }
  }
}
layer {
  name: "relu2"
  type: "ReLU"
  bottom: "conv2"
  top: "conv2"
}
layer {
  name: "norm2"
  type: "LRN"
  bottom: "conv2"
  top: "norm2"
  lrn_param {
    local_size: 5
    alpha: 0.0001
    beta: 0.75
  }
}
layer {
  name: "pool2"
  type: "Pooling"
  bottom: "norm2"
  top: "pool2"
  pooling_param {
    pool: MAX
    kernel_size: 3
    stride: 2
  }
}
layer {
  name: "conv3"
  type: "Convolution"
  bottom: "pool2"
  top: "conv3"
  param {
    lr_mult: 1
    decay_mult: 1
  }
  param {
    lr_mult: 2
    decay_mult: 0
  }
  convolution_param {
    num_output: 384
    pad: 1
    kernel_size: 3
    weight_filler {
      type: "gaussian"
      std: 0.01
    }
    bias_filler {
      type: "constant"
      value: 0
    }
  }
}
layer {
  name: "relu3"
  type: "ReLU"
  bottom: "conv3"
  top: "conv3"
}
layer {
  name: "conv4"
  type: "Convolution"
  bottom: "conv3"
  top: "conv4"
  param {
    lr_mult: 1
    decay_mult: 1
  }
  param {
    lr_mult: 2
    decay_mult: 0
  }
  convolution_param {
    num_output: 384
    pad: 1
    kernel_size: 3
    group: 2
    weight_filler {
      type: "gaussian"
      std: 0.01
    }
    bias_filler {
      type: "constant"
      value: 0.1
    }
  }
}
layer {
  name: "relu4"
  type: "ReLU"
  bottom: "conv4"
  top: "conv4"
}
layer {
  name: "conv5"
  type: "Convolution"
  bottom: "conv4"
  top: "conv5"
  param {
    lr_mult: 1
    decay_mult: 1
  }
  param {
    lr_mult: 2
    decay_mult: 0
  }
  convolution_param {
    num_output: 256
    pad: 1
    kernel_size: 3
    group: 2
    weight_filler {
      type: "gaussian"
      std: 0.01
    }
    bias_filler {
      type: "constant"
      value: 0.1
    }
  }
}
layer {
  name: "relu5"
  type: "ReLU"
  bottom: "conv5"
  top: "conv5"
}
layer {
  name: "pool5"
  type: "Pooling"
  bottom: "conv5"
  top: "pool5"
  pooling_param {
    pool: MAX
    kernel_size: 3
    stride: 2
  }
}
layer {
  name: "fc6"
  type: "InnerProduct"
  bottom: "pool5"
  top: "fc6"
  param {
    lr_mult: 1
    decay_mult: 1
  }
  param {
    lr_mult: 2
    decay_mult: 0
  }
  inner_product_param {
    num_output: 4096
    weight_filler {
      type: "gaussian"
      std: 0.005
    }
    bias_filler {
      type: "constant"
      value: 0.1
    }
  }
}
layer {
  name: "relu6"
  type: "ReLU"
  bottom: "fc6"
  top: "fc6"
}
layer {
  name: "drop6"
  type: "Dropout"
  bottom: "fc6"
  top: "fc6"
  dropout_param {
    dropout_ratio: 0.5
  }
}
layer {
  name: "fc7"
  type: "InnerProduct"
  bottom: "fc6"
  top: "fc7"
  param {
    lr_mult: 1
    decay_mult: 1
  }
  param {
    lr_mult: 2
    decay_mult: 0
  }
  inner_product_param {
    num_output: 4096
    weight_filler {
      type: "gaussian"
      std: 0.005
    }
    bias_filler {
      type: "constant"
      value: 0.1
    }
  }
}
layer {
  name: "relu7"
  type: "ReLU"
  bottom: "fc7"
  top: "fc7"
}
layer {
  name: "drop7"
  type: "Dropout"
  bottom: "fc7"
  top: "fc7"
  dropout_param {
    dropout_ratio: 0.5
  }
}
layer {
  name: "fc8_plantvillage"
  type: "InnerProduct"
  bottom: "fc7"
  top: "fc8_plantvillage"
  param {
    lr_mult: 1
    decay_mult: 1
  }
  param {
    lr_mult: 2
    decay_mult: 0
  }
  inner_product_param {
    num_output: 38
    weight_filler {
      type: "gaussian"
      std: 0.01
    }
    bias_filler {
      type: "constant"
      value: 0
    }
  }
}
layer {
  name: "prob"
  type: "Softmax"
  bottom: "fc8_plantvillage"
  top: "prob"
  include {
    phase: TEST
  }
}
layer {
  name: "hdf5out"
  type: "HDF5Output"
  bottom: "prob"
  bottom: "label"
  include {
    phase: TEST
  }
  hdf5_output_param {
    file_name: "hdf5_dumps/iter_536.h5"
  }
}
layer {
  name: "loss"
  type: "SoftmaxWithLoss"
  bottom: "fc8_plantvillage"
  bottom: "label"
  top: "loss"
}
layer {
  name: "accuracy"
  type: "Accuracy"
  bottom: "fc8_plantvillage"
  bottom: "label"
  top: "accuracy"
  include {
    phase: TEST
  }
}
I0403 14:08:48.167264   900 layer_factory.hpp:77] Creating layer data
I0403 14:08:48.167917   900 net.cpp:91] Creating Layer data
I0403 14:08:48.167950   900 net.cpp:399] data -> data
I0403 14:08:48.168001   900 net.cpp:399] data -> label
I0403 14:08:48.168040   900 data_transformer.cpp:25] Loading mean file from: /home/mohanty/data/final_dataset/lmdb/segmented-50-50/mean.binaryproto
I0403 14:08:48.170641   904 db_lmdb.cpp:38] Opened lmdb /home/mohanty/data/final_dataset/lmdb/segmented-50-50/test_db
I0403 14:08:48.182013   900 data_layer.cpp:41] output data size: 100,3,227,227
I0403 14:08:48.298081   900 net.cpp:141] Setting up data
I0403 14:08:48.298141   900 net.cpp:148] Top shape: 100 3 227 227 (15458700)
I0403 14:08:48.298166   900 net.cpp:148] Top shape: 100 (100)
I0403 14:08:48.298185   900 net.cpp:156] Memory required for data: 61835200
I0403 14:08:48.298213   900 layer_factory.hpp:77] Creating layer label_data_1_split
I0403 14:08:48.298239   900 net.cpp:91] Creating Layer label_data_1_split
I0403 14:08:48.298260   900 net.cpp:425] label_data_1_split <- label
I0403 14:08:48.298300   900 net.cpp:399] label_data_1_split -> label_data_1_split_0
I0403 14:08:48.298329   900 net.cpp:399] label_data_1_split -> label_data_1_split_1
I0403 14:08:48.298352   900 net.cpp:399] label_data_1_split -> label_data_1_split_2
I0403 14:08:48.298413   900 net.cpp:141] Setting up label_data_1_split
I0403 14:08:48.298439   900 net.cpp:148] Top shape: 100 (100)
I0403 14:08:48.298459   900 net.cpp:148] Top shape: 100 (100)
I0403 14:08:48.298476   900 net.cpp:148] Top shape: 100 (100)
I0403 14:08:48.298491   900 net.cpp:156] Memory required for data: 61836400
I0403 14:08:48.298507   900 layer_factory.hpp:77] Creating layer conv1
I0403 14:08:48.298539   900 net.cpp:91] Creating Layer conv1
I0403 14:08:48.298559   900 net.cpp:425] conv1 <- data
I0403 14:08:48.298579   900 net.cpp:399] conv1 -> conv1
I0403 14:08:48.439857   900 net.cpp:141] Setting up conv1
I0403 14:08:48.439946   900 net.cpp:148] Top shape: 100 96 55 55 (29040000)
I0403 14:08:48.439965   900 net.cpp:156] Memory required for data: 177996400
I0403 14:08:48.439996   900 layer_factory.hpp:77] Creating layer relu1
I0403 14:08:48.440022   900 net.cpp:91] Creating Layer relu1
I0403 14:08:48.440042   900 net.cpp:425] relu1 <- conv1
I0403 14:08:48.440062   900 net.cpp:386] relu1 -> conv1 (in-place)
I0403 14:08:48.440315   900 net.cpp:141] Setting up relu1
I0403 14:08:48.440342   900 net.cpp:148] Top shape: 100 96 55 55 (29040000)
I0403 14:08:48.440389   900 net.cpp:156] Memory required for data: 294156400
I0403 14:08:48.440405   900 layer_factory.hpp:77] Creating layer norm1
I0403 14:08:48.440433   900 net.cpp:91] Creating Layer norm1
I0403 14:08:48.440451   900 net.cpp:425] norm1 <- conv1
I0403 14:08:48.440469   900 net.cpp:399] norm1 -> norm1
I0403 14:08:48.440770   900 net.cpp:141] Setting up norm1
I0403 14:08:48.440798   900 net.cpp:148] Top shape: 100 96 55 55 (29040000)
I0403 14:08:48.440814   900 net.cpp:156] Memory required for data: 410316400
I0403 14:08:48.440829   900 layer_factory.hpp:77] Creating layer pool1
I0403 14:08:48.440852   900 net.cpp:91] Creating Layer pool1
I0403 14:08:48.440871   900 net.cpp:425] pool1 <- norm1
I0403 14:08:48.440888   900 net.cpp:399] pool1 -> pool1
I0403 14:08:48.440953   900 net.cpp:141] Setting up pool1
I0403 14:08:48.440978   900 net.cpp:148] Top shape: 100 96 27 27 (6998400)
I0403 14:08:48.440992   900 net.cpp:156] Memory required for data: 438310000
I0403 14:08:48.441007   900 layer_factory.hpp:77] Creating layer conv2
I0403 14:08:48.441031   900 net.cpp:91] Creating Layer conv2
I0403 14:08:48.441050   900 net.cpp:425] conv2 <- pool1
I0403 14:08:48.441067   900 net.cpp:399] conv2 -> conv2
I0403 14:08:48.455718   900 net.cpp:141] Setting up conv2
I0403 14:08:48.455754   900 net.cpp:148] Top shape: 100 256 27 27 (18662400)
I0403 14:08:48.455771   900 net.cpp:156] Memory required for data: 512959600
I0403 14:08:48.455793   900 layer_factory.hpp:77] Creating layer relu2
I0403 14:08:48.455814   900 net.cpp:91] Creating Layer relu2
I0403 14:08:48.455832   900 net.cpp:425] relu2 <- conv2
I0403 14:08:48.455850   900 net.cpp:386] relu2 -> conv2 (in-place)
I0403 14:08:48.456125   900 net.cpp:141] Setting up relu2
I0403 14:08:48.456153   900 net.cpp:148] Top shape: 100 256 27 27 (18662400)
I0403 14:08:48.456171   900 net.cpp:156] Memory required for data: 587609200
I0403 14:08:48.456185   900 layer_factory.hpp:77] Creating layer norm2
I0403 14:08:48.456207   900 net.cpp:91] Creating Layer norm2
I0403 14:08:48.456225   900 net.cpp:425] norm2 <- conv2
I0403 14:08:48.456243   900 net.cpp:399] norm2 -> norm2
I0403 14:08:48.456442   900 net.cpp:141] Setting up norm2
I0403 14:08:48.456470   900 net.cpp:148] Top shape: 100 256 27 27 (18662400)
I0403 14:08:48.456485   900 net.cpp:156] Memory required for data: 662258800
I0403 14:08:48.456501   900 layer_factory.hpp:77] Creating layer pool2
I0403 14:08:48.456518   900 net.cpp:91] Creating Layer pool2
I0403 14:08:48.456534   900 net.cpp:425] pool2 <- norm2
I0403 14:08:48.456555   900 net.cpp:399] pool2 -> pool2
I0403 14:08:48.456607   900 net.cpp:141] Setting up pool2
I0403 14:08:48.456630   900 net.cpp:148] Top shape: 100 256 13 13 (4326400)
I0403 14:08:48.456645   900 net.cpp:156] Memory required for data: 679564400
I0403 14:08:48.456660   900 layer_factory.hpp:77] Creating layer conv3
I0403 14:08:48.456681   900 net.cpp:91] Creating Layer conv3
I0403 14:08:48.456699   900 net.cpp:425] conv3 <- pool2
I0403 14:08:48.456719   900 net.cpp:399] conv3 -> conv3
I0403 14:08:48.495484   900 net.cpp:141] Setting up conv3
I0403 14:08:48.495566   900 net.cpp:148] Top shape: 100 384 13 13 (6489600)
I0403 14:08:48.495585   900 net.cpp:156] Memory required for data: 705522800
I0403 14:08:48.495611   900 layer_factory.hpp:77] Creating layer relu3
I0403 14:08:48.495635   900 net.cpp:91] Creating Layer relu3
I0403 14:08:48.495653   900 net.cpp:425] relu3 <- conv3
I0403 14:08:48.495672   900 net.cpp:386] relu3 -> conv3 (in-place)
I0403 14:08:48.496013   900 net.cpp:141] Setting up relu3
I0403 14:08:48.496044   900 net.cpp:148] Top shape: 100 384 13 13 (6489600)
I0403 14:08:48.496062   900 net.cpp:156] Memory required for data: 731481200
I0403 14:08:48.496078   900 layer_factory.hpp:77] Creating layer conv4
I0403 14:08:48.496104   900 net.cpp:91] Creating Layer conv4
I0403 14:08:48.496124   900 net.cpp:425] conv4 <- conv3
I0403 14:08:48.496143   900 net.cpp:399] conv4 -> conv4
I0403 14:08:48.526187   900 net.cpp:141] Setting up conv4
I0403 14:08:48.526252   900 net.cpp:148] Top shape: 100 384 13 13 (6489600)
I0403 14:08:48.526304   900 net.cpp:156] Memory required for data: 757439600
I0403 14:08:48.526326   900 layer_factory.hpp:77] Creating layer relu4
I0403 14:08:48.526350   900 net.cpp:91] Creating Layer relu4
I0403 14:08:48.526368   900 net.cpp:425] relu4 <- conv4
I0403 14:08:48.526386   900 net.cpp:386] relu4 -> conv4 (in-place)
I0403 14:08:48.526661   900 net.cpp:141] Setting up relu4
I0403 14:08:48.526687   900 net.cpp:148] Top shape: 100 384 13 13 (6489600)
I0403 14:08:48.526703   900 net.cpp:156] Memory required for data: 783398000
I0403 14:08:48.526718   900 layer_factory.hpp:77] Creating layer conv5
I0403 14:08:48.526743   900 net.cpp:91] Creating Layer conv5
I0403 14:08:48.526760   900 net.cpp:425] conv5 <- conv4
I0403 14:08:48.526782   900 net.cpp:399] conv5 -> conv5
I0403 14:08:48.547016   900 net.cpp:141] Setting up conv5
I0403 14:08:48.547052   900 net.cpp:148] Top shape: 100 256 13 13 (4326400)
I0403 14:08:48.547070   900 net.cpp:156] Memory required for data: 800703600
I0403 14:08:48.547093   900 layer_factory.hpp:77] Creating layer relu5
I0403 14:08:48.547117   900 net.cpp:91] Creating Layer relu5
I0403 14:08:48.547137   900 net.cpp:425] relu5 <- conv5
I0403 14:08:48.547158   900 net.cpp:386] relu5 -> conv5 (in-place)
I0403 14:08:48.547469   900 net.cpp:141] Setting up relu5
I0403 14:08:48.547498   900 net.cpp:148] Top shape: 100 256 13 13 (4326400)
I0403 14:08:48.547514   900 net.cpp:156] Memory required for data: 818009200
I0403 14:08:48.547529   900 layer_factory.hpp:77] Creating layer pool5
I0403 14:08:48.547551   900 net.cpp:91] Creating Layer pool5
I0403 14:08:48.547567   900 net.cpp:425] pool5 <- conv5
I0403 14:08:48.547588   900 net.cpp:399] pool5 -> pool5
I0403 14:08:48.547647   900 net.cpp:141] Setting up pool5
I0403 14:08:48.547673   900 net.cpp:148] Top shape: 100 256 6 6 (921600)
I0403 14:08:48.547689   900 net.cpp:156] Memory required for data: 821695600
I0403 14:08:48.547703   900 layer_factory.hpp:77] Creating layer fc6
I0403 14:08:48.547730   900 net.cpp:91] Creating Layer fc6
I0403 14:08:48.547749   900 net.cpp:425] fc6 <- pool5
I0403 14:08:48.547770   900 net.cpp:399] fc6 -> fc6
I0403 14:08:50.120537   900 net.cpp:141] Setting up fc6
I0403 14:08:50.120623   900 net.cpp:148] Top shape: 100 4096 (409600)
I0403 14:08:50.120640   900 net.cpp:156] Memory required for data: 823334000
I0403 14:08:50.120662   900 layer_factory.hpp:77] Creating layer relu6
I0403 14:08:50.120684   900 net.cpp:91] Creating Layer relu6
I0403 14:08:50.120702   900 net.cpp:425] relu6 <- fc6
I0403 14:08:50.120720   900 net.cpp:386] relu6 -> fc6 (in-place)
I0403 14:08:50.120939   900 net.cpp:141] Setting up relu6
I0403 14:08:50.120965   900 net.cpp:148] Top shape: 100 4096 (409600)
I0403 14:08:50.120980   900 net.cpp:156] Memory required for data: 824972400
I0403 14:08:50.120995   900 layer_factory.hpp:77] Creating layer drop6
I0403 14:08:50.121012   900 net.cpp:91] Creating Layer drop6
I0403 14:08:50.121028   900 net.cpp:425] drop6 <- fc6
I0403 14:08:50.121045   900 net.cpp:386] drop6 -> fc6 (in-place)
I0403 14:08:50.121098   900 net.cpp:141] Setting up drop6
I0403 14:08:50.121119   900 net.cpp:148] Top shape: 100 4096 (409600)
I0403 14:08:50.121134   900 net.cpp:156] Memory required for data: 826610800
I0403 14:08:50.121148   900 layer_factory.hpp:77] Creating layer fc7
I0403 14:08:50.121171   900 net.cpp:91] Creating Layer fc7
I0403 14:08:50.121188   900 net.cpp:425] fc7 <- fc6
I0403 14:08:50.121206   900 net.cpp:399] fc7 -> fc7
I0403 14:08:50.799880   900 net.cpp:141] Setting up fc7
I0403 14:08:50.799921   900 net.cpp:148] Top shape: 100 4096 (409600)
I0403 14:08:50.799939   900 net.cpp:156] Memory required for data: 828249200
I0403 14:08:50.799960   900 layer_factory.hpp:77] Creating layer relu7
I0403 14:08:50.799983   900 net.cpp:91] Creating Layer relu7
I0403 14:08:50.800003   900 net.cpp:425] relu7 <- fc7
I0403 14:08:50.800024   900 net.cpp:386] relu7 -> fc7 (in-place)
I0403 14:08:50.800434   900 net.cpp:141] Setting up relu7
I0403 14:08:50.800464   900 net.cpp:148] Top shape: 100 4096 (409600)
I0403 14:08:50.800508   900 net.cpp:156] Memory required for data: 829887600
I0403 14:08:50.800525   900 layer_factory.hpp:77] Creating layer drop7
I0403 14:08:50.800544   900 net.cpp:91] Creating Layer drop7
I0403 14:08:50.800560   900 net.cpp:425] drop7 <- fc7
I0403 14:08:50.800578   900 net.cpp:386] drop7 -> fc7 (in-place)
I0403 14:08:50.800624   900 net.cpp:141] Setting up drop7
I0403 14:08:50.800647   900 net.cpp:148] Top shape: 100 4096 (409600)
I0403 14:08:50.800662   900 net.cpp:156] Memory required for data: 831526000
I0403 14:08:50.800676   900 layer_factory.hpp:77] Creating layer fc8_plantvillage
I0403 14:08:50.800699   900 net.cpp:91] Creating Layer fc8_plantvillage
I0403 14:08:50.800716   900 net.cpp:425] fc8_plantvillage <- fc7
I0403 14:08:50.800734   900 net.cpp:399] fc8_plantvillage -> fc8_plantvillage
I0403 14:08:50.807440   900 net.cpp:141] Setting up fc8_plantvillage
I0403 14:08:50.807469   900 net.cpp:148] Top shape: 100 38 (3800)
I0403 14:08:50.807487   900 net.cpp:156] Memory required for data: 831541200
I0403 14:08:50.807507   900 layer_factory.hpp:77] Creating layer fc8_plantvillage_fc8_plantvillage_0_split
I0403 14:08:50.807525   900 net.cpp:91] Creating Layer fc8_plantvillage_fc8_plantvillage_0_split
I0403 14:08:50.807541   900 net.cpp:425] fc8_plantvillage_fc8_plantvillage_0_split <- fc8_plantvillage
I0403 14:08:50.807562   900 net.cpp:399] fc8_plantvillage_fc8_plantvillage_0_split -> fc8_plantvillage_fc8_plantvillage_0_split_0
I0403 14:08:50.807585   900 net.cpp:399] fc8_plantvillage_fc8_plantvillage_0_split -> fc8_plantvillage_fc8_plantvillage_0_split_1
I0403 14:08:50.807607   900 net.cpp:399] fc8_plantvillage_fc8_plantvillage_0_split -> fc8_plantvillage_fc8_plantvillage_0_split_2
I0403 14:08:50.807684   900 net.cpp:141] Setting up fc8_plantvillage_fc8_plantvillage_0_split
I0403 14:08:50.807710   900 net.cpp:148] Top shape: 100 38 (3800)
I0403 14:08:50.807729   900 net.cpp:148] Top shape: 100 38 (3800)
I0403 14:08:50.807745   900 net.cpp:148] Top shape: 100 38 (3800)
I0403 14:08:50.807760   900 net.cpp:156] Memory required for data: 831586800
I0403 14:08:50.807775   900 layer_factory.hpp:77] Creating layer prob
I0403 14:08:50.807798   900 net.cpp:91] Creating Layer prob
I0403 14:08:50.807818   900 net.cpp:425] prob <- fc8_plantvillage_fc8_plantvillage_0_split_0
I0403 14:08:50.807837   900 net.cpp:399] prob -> prob
I0403 14:08:50.808058   900 net.cpp:141] Setting up prob
I0403 14:08:50.808087   900 net.cpp:148] Top shape: 100 38 (3800)
I0403 14:08:50.808104   900 net.cpp:156] Memory required for data: 831602000
I0403 14:08:50.808120   900 layer_factory.hpp:77] Creating layer hdf5out
I0403 14:08:50.808138   900 net.cpp:91] Creating Layer hdf5out
I0403 14:08:50.808154   900 net.cpp:425] hdf5out <- prob
I0403 14:08:50.808172   900 net.cpp:425] hdf5out <- label_data_1_split_0
I0403 14:08:50.810571   900 net.cpp:141] Setting up hdf5out
…
