…
I0403 14:10:28.809732   943 net.cpp:313] The NetState phase (1) differed from the phase (0) specified by a rule in layer data
I0403 14:10:28.810039   943 net.cpp:49] Initializing net from parameters: 
state {
  phase: TEST
}
layer {
  name: "data"
  type: "Data"
  top: "data"
  top: "label"
  include {
    phase: TEST
  }
  transform_param {
    crop_size: 227
    mean_file: "/home/mohanty/data/final_dataset/lmdb/segmented-50-50/mean.binaryproto"
  }
  data_param {
    source: "/home/mohanty/data/final_dataset/lmdb/segmented-50-50/test_db"
    batch_size: 100
    backend: LMDB
  }
}
layer {
  name: "conv1"
  type: "Convolution"
  bottom: "data"
  top: "conv1"
  param {
    lr_mult: 1
    decay_mult: 1
  }
  param {
    lr_mult: 2
    decay_mult: 0
  }
  convolution_param {
    num_output: 96
    kernel_size: 11
    stride: 4
    weight_filler {
      type: "gaussian"
      std: 0.01
    }
    bias_filler {
      type: "constant"
      value: 0
    }
  }
}
layer {
  name: "relu1"
  type: "ReLU"
  bottom: "conv1"
  top: "conv1"
}
layer {
  name: "norm1"
  type: "LRN"
  bottom: "conv1"
  top: "norm1"
  lrn_param {
    local_size: 5
    alpha: 0.0001
    beta: 0.75
  }
}
layer {
  name: "pool1"
  type: "Pooling"
  bottom: "norm1"
  top: "pool1"
  pooling_param {
    pool: MAX
    kernel_size: 3
    stride: 2
  }
}
layer {
  name: "conv2"
  type: "Convolution"
  bottom: "pool1"
  top: "conv2"
  param {
    lr_mult: 1
    decay_mult: 1
  }
  param {
    lr_mult: 2
    decay_mult: 0
  }
  convolution_param {
    num_output: 256
    pad: 2
    kernel_size: 5
    group: 2
    weight_filler {
      type: "gaussian"
      std: 0.01
    }
    bias_filler {
      type: "constant"
      value: 0.1
    }
  }
}
layer {
  name: "relu2"
  type: "ReLU"
  bottom: "conv2"
  top: "conv2"
}
layer {
  name: "norm2"
  type: "LRN"
  bottom: "conv2"
  top: "norm2"
  lrn_param {
    local_size: 5
    alpha: 0.0001
    beta: 0.75
  }
}
layer {
  name: "pool2"
  type: "Pooling"
  bottom: "norm2"
  top: "pool2"
  pooling_param {
    pool: MAX
    kernel_size: 3
    stride: 2
  }
}
layer {
  name: "conv3"
  type: "Convolution"
  bottom: "pool2"
  top: "conv3"
  param {
    lr_mult: 1
    decay_mult: 1
  }
  param {
    lr_mult: 2
    decay_mult: 0
  }
  convolution_param {
    num_output: 384
    pad: 1
    kernel_size: 3
    weight_filler {
      type: "gaussian"
      std: 0.01
    }
    bias_filler {
      type: "constant"
      value: 0
    }
  }
}
layer {
  name: "relu3"
  type: "ReLU"
  bottom: "conv3"
  top: "conv3"
}
layer {
  name: "conv4"
  type: "Convolution"
  bottom: "conv3"
  top: "conv4"
  param {
    lr_mult: 1
    decay_mult: 1
  }
  param {
    lr_mult: 2
    decay_mult: 0
  }
  convolution_param {
    num_output: 384
    pad: 1
    kernel_size: 3
    group: 2
    weight_filler {
      type: "gaussian"
      std: 0.01
    }
    bias_filler {
      type: "constant"
      value: 0.1
    }
  }
}
layer {
  name: "relu4"
  type: "ReLU"
  bottom: "conv4"
  top: "conv4"
}
layer {
  name: "conv5"
  type: "Convolution"
  bottom: "conv4"
  top: "conv5"
  param {
    lr_mult: 1
    decay_mult: 1
  }
  param {
    lr_mult: 2
    decay_mult: 0
  }
  convolution_param {
    num_output: 256
    pad: 1
    kernel_size: 3
    group: 2
    weight_filler {
      type: "gaussian"
      std: 0.01
    }
    bias_filler {
      type: "constant"
      value: 0.1
    }
  }
}
layer {
  name: "relu5"
  type: "ReLU"
  bottom: "conv5"
  top: "conv5"
}
layer {
  name: "pool5"
  type: "Pooling"
  bottom: "conv5"
  top: "pool5"
  pooling_param {
    pool: MAX
    kernel_size: 3
    stride: 2
  }
}
layer {
  name: "fc6"
  type: "InnerProduct"
  bottom: "pool5"
  top: "fc6"
  param {
    lr_mult: 1
    decay_mult: 1
  }
  param {
    lr_mult: 2
    decay_mult: 0
  }
  inner_product_param {
    num_output: 4096
    weight_filler {
      type: "gaussian"
      std: 0.005
    }
    bias_filler {
      type: "constant"
      value: 0.1
    }
  }
}
layer {
  name: "relu6"
  type: "ReLU"
  bottom: "fc6"
  top: "fc6"
}
layer {
  name: "drop6"
  type: "Dropout"
  bottom: "fc6"
  top: "fc6"
  dropout_param {
    dropout_ratio: 0.5
  }
}
layer {
  name: "fc7"
  type: "InnerProduct"
  bottom: "fc6"
  top: "fc7"
  param {
    lr_mult: 1
    decay_mult: 1
  }
  param {
    lr_mult: 2
    decay_mult: 0
  }
  inner_product_param {
    num_output: 4096
    weight_filler {
      type: "gaussian"
      std: 0.005
    }
    bias_filler {
      type: "constant"
      value: 0.1
    }
  }
}
layer {
  name: "relu7"
  type: "ReLU"
  bottom: "fc7"
  top: "fc7"
}
layer {
  name: "drop7"
  type: "Dropout"
  bottom: "fc7"
  top: "fc7"
  dropout_param {
    dropout_ratio: 0.5
  }
}
layer {
  name: "fc8_plantvillage"
  type: "InnerProduct"
  bottom: "fc7"
  top: "fc8_plantvillage"
  param {
    lr_mult: 1
    decay_mult: 1
  }
  param {
    lr_mult: 2
    decay_mult: 0
  }
  inner_product_param {
    num_output: 38
    weight_filler {
      type: "gaussian"
      std: 0.01
    }
    bias_filler {
      type: "constant"
      value: 0
    }
  }
}
layer {
  name: "prob"
  type: "Softmax"
  bottom: "fc8_plantvillage"
  top: "prob"
  include {
    phase: TEST
  }
}
layer {
  name: "hdf5out"
  type: "HDF5Output"
  bottom: "prob"
  bottom: "label"
  include {
    phase: TEST
  }
  hdf5_output_param {
    file_name: "hdf5_dumps/iter_1072.h5"
  }
}
layer {
  name: "loss"
  type: "SoftmaxWithLoss"
  bottom: "fc8_plantvillage"
  bottom: "label"
  top: "loss"
}
layer {
  name: "accuracy"
  type: "Accuracy"
  bottom: "fc8_plantvillage"
  bottom: "label"
  top: "accuracy"
  include {
    phase: TEST
  }
}
I0403 14:10:28.810603   943 layer_factory.hpp:77] Creating layer data
I0403 14:10:28.811244   943 net.cpp:91] Creating Layer data
I0403 14:10:28.811276   943 net.cpp:399] data -> data
I0403 14:10:28.811331   943 net.cpp:399] data -> label
I0403 14:10:28.811368   943 data_transformer.cpp:25] Loading mean file from: /home/mohanty/data/final_dataset/lmdb/segmented-50-50/mean.binaryproto
I0403 14:10:28.814172   947 db_lmdb.cpp:38] Opened lmdb /home/mohanty/data/final_dataset/lmdb/segmented-50-50/test_db
I0403 14:10:28.825860   943 data_layer.cpp:41] output data size: 100,3,227,227
I0403 14:10:28.947875   943 net.cpp:141] Setting up data
I0403 14:10:28.947978   943 net.cpp:148] Top shape: 100 3 227 227 (15458700)
I0403 14:10:28.948004   943 net.cpp:148] Top shape: 100 (100)
I0403 14:10:28.948021   943 net.cpp:156] Memory required for data: 61835200
I0403 14:10:28.948050   943 layer_factory.hpp:77] Creating layer label_data_1_split
I0403 14:10:28.948077   943 net.cpp:91] Creating Layer label_data_1_split
I0403 14:10:28.948096   943 net.cpp:425] label_data_1_split <- label
I0403 14:10:28.948127   943 net.cpp:399] label_data_1_split -> label_data_1_split_0
I0403 14:10:28.948158   943 net.cpp:399] label_data_1_split -> label_data_1_split_1
I0403 14:10:28.948182   943 net.cpp:399] label_data_1_split -> label_data_1_split_2
I0403 14:10:28.948253   943 net.cpp:141] Setting up label_data_1_split
I0403 14:10:28.948279   943 net.cpp:148] Top shape: 100 (100)
I0403 14:10:28.948297   943 net.cpp:148] Top shape: 100 (100)
I0403 14:10:28.948315   943 net.cpp:148] Top shape: 100 (100)
I0403 14:10:28.948329   943 net.cpp:156] Memory required for data: 61836400
I0403 14:10:28.948345   943 layer_factory.hpp:77] Creating layer conv1
I0403 14:10:28.948379   943 net.cpp:91] Creating Layer conv1
I0403 14:10:28.948397   943 net.cpp:425] conv1 <- data
I0403 14:10:28.948418   943 net.cpp:399] conv1 -> conv1
I0403 14:10:29.092119   943 net.cpp:141] Setting up conv1
I0403 14:10:29.092206   943 net.cpp:148] Top shape: 100 96 55 55 (29040000)
I0403 14:10:29.092258   943 net.cpp:156] Memory required for data: 177996400
I0403 14:10:29.092295   943 layer_factory.hpp:77] Creating layer relu1
I0403 14:10:29.092324   943 net.cpp:91] Creating Layer relu1
I0403 14:10:29.092342   943 net.cpp:425] relu1 <- conv1
I0403 14:10:29.092362   943 net.cpp:386] relu1 -> conv1 (in-place)
I0403 14:10:29.092634   943 net.cpp:141] Setting up relu1
I0403 14:10:29.092661   943 net.cpp:148] Top shape: 100 96 55 55 (29040000)
I0403 14:10:29.092710   943 net.cpp:156] Memory required for data: 294156400
I0403 14:10:29.092727   943 layer_factory.hpp:77] Creating layer norm1
I0403 14:10:29.092764   943 net.cpp:91] Creating Layer norm1
I0403 14:10:29.092783   943 net.cpp:425] norm1 <- conv1
I0403 14:10:29.092803   943 net.cpp:399] norm1 -> norm1
I0403 14:10:29.093107   943 net.cpp:141] Setting up norm1
I0403 14:10:29.093135   943 net.cpp:148] Top shape: 100 96 55 55 (29040000)
I0403 14:10:29.093152   943 net.cpp:156] Memory required for data: 410316400
I0403 14:10:29.093166   943 layer_factory.hpp:77] Creating layer pool1
I0403 14:10:29.093190   943 net.cpp:91] Creating Layer pool1
I0403 14:10:29.093207   943 net.cpp:425] pool1 <- norm1
I0403 14:10:29.093226   943 net.cpp:399] pool1 -> pool1
I0403 14:10:29.093308   943 net.cpp:141] Setting up pool1
I0403 14:10:29.093334   943 net.cpp:148] Top shape: 100 96 27 27 (6998400)
I0403 14:10:29.093350   943 net.cpp:156] Memory required for data: 438310000
I0403 14:10:29.093365   943 layer_factory.hpp:77] Creating layer conv2
I0403 14:10:29.093391   943 net.cpp:91] Creating Layer conv2
I0403 14:10:29.093408   943 net.cpp:425] conv2 <- pool1
I0403 14:10:29.093427   943 net.cpp:399] conv2 -> conv2
I0403 14:10:29.109025   943 net.cpp:141] Setting up conv2
I0403 14:10:29.109068   943 net.cpp:148] Top shape: 100 256 27 27 (18662400)
I0403 14:10:29.109088   943 net.cpp:156] Memory required for data: 512959600
I0403 14:10:29.109112   943 layer_factory.hpp:77] Creating layer relu2
I0403 14:10:29.109134   943 net.cpp:91] Creating Layer relu2
I0403 14:10:29.109153   943 net.cpp:425] relu2 <- conv2
I0403 14:10:29.109174   943 net.cpp:386] relu2 -> conv2 (in-place)
I0403 14:10:29.109473   943 net.cpp:141] Setting up relu2
I0403 14:10:29.109501   943 net.cpp:148] Top shape: 100 256 27 27 (18662400)
I0403 14:10:29.109518   943 net.cpp:156] Memory required for data: 587609200
I0403 14:10:29.109534   943 layer_factory.hpp:77] Creating layer norm2
I0403 14:10:29.109557   943 net.cpp:91] Creating Layer norm2
I0403 14:10:29.109575   943 net.cpp:425] norm2 <- conv2
I0403 14:10:29.109596   943 net.cpp:399] norm2 -> norm2
I0403 14:10:29.109803   943 net.cpp:141] Setting up norm2
I0403 14:10:29.109830   943 net.cpp:148] Top shape: 100 256 27 27 (18662400)
I0403 14:10:29.109846   943 net.cpp:156] Memory required for data: 662258800
I0403 14:10:29.109863   943 layer_factory.hpp:77] Creating layer pool2
I0403 14:10:29.109882   943 net.cpp:91] Creating Layer pool2
I0403 14:10:29.109899   943 net.cpp:425] pool2 <- norm2
I0403 14:10:29.109918   943 net.cpp:399] pool2 -> pool2
I0403 14:10:29.109974   943 net.cpp:141] Setting up pool2
I0403 14:10:29.109998   943 net.cpp:148] Top shape: 100 256 13 13 (4326400)
I0403 14:10:29.110014   943 net.cpp:156] Memory required for data: 679564400
I0403 14:10:29.110029   943 layer_factory.hpp:77] Creating layer conv3
I0403 14:10:29.110056   943 net.cpp:91] Creating Layer conv3
I0403 14:10:29.110074   943 net.cpp:425] conv3 <- pool2
I0403 14:10:29.110095   943 net.cpp:399] conv3 -> conv3
I0403 14:10:29.150341   943 net.cpp:141] Setting up conv3
I0403 14:10:29.150382   943 net.cpp:148] Top shape: 100 384 13 13 (6489600)
I0403 14:10:29.150401   943 net.cpp:156] Memory required for data: 705522800
I0403 14:10:29.150430   943 layer_factory.hpp:77] Creating layer relu3
I0403 14:10:29.150454   943 net.cpp:91] Creating Layer relu3
I0403 14:10:29.150476   943 net.cpp:425] relu3 <- conv3
I0403 14:10:29.150497   943 net.cpp:386] relu3 -> conv3 (in-place)
I0403 14:10:29.150780   943 net.cpp:141] Setting up relu3
I0403 14:10:29.150810   943 net.cpp:148] Top shape: 100 384 13 13 (6489600)
I0403 14:10:29.150827   943 net.cpp:156] Memory required for data: 731481200
I0403 14:10:29.150843   943 layer_factory.hpp:77] Creating layer conv4
I0403 14:10:29.150871   943 net.cpp:91] Creating Layer conv4
I0403 14:10:29.150888   943 net.cpp:425] conv4 <- conv3
I0403 14:10:29.150910   943 net.cpp:399] conv4 -> conv4
I0403 14:10:29.182258   943 net.cpp:141] Setting up conv4
I0403 14:10:29.182322   943 net.cpp:148] Top shape: 100 384 13 13 (6489600)
I0403 14:10:29.182371   943 net.cpp:156] Memory required for data: 757439600
I0403 14:10:29.182394   943 layer_factory.hpp:77] Creating layer relu4
I0403 14:10:29.182416   943 net.cpp:91] Creating Layer relu4
I0403 14:10:29.182435   943 net.cpp:425] relu4 <- conv4
I0403 14:10:29.182456   943 net.cpp:386] relu4 -> conv4 (in-place)
I0403 14:10:29.182752   943 net.cpp:141] Setting up relu4
I0403 14:10:29.182785   943 net.cpp:148] Top shape: 100 384 13 13 (6489600)
I0403 14:10:29.182803   943 net.cpp:156] Memory required for data: 783398000
I0403 14:10:29.182821   943 layer_factory.hpp:77] Creating layer conv5
I0403 14:10:29.182847   943 net.cpp:91] Creating Layer conv5
I0403 14:10:29.182865   943 net.cpp:425] conv5 <- conv4
I0403 14:10:29.182885   943 net.cpp:399] conv5 -> conv5
I0403 14:10:29.204457   943 net.cpp:141] Setting up conv5
I0403 14:10:29.204510   943 net.cpp:148] Top shape: 100 256 13 13 (4326400)
I0403 14:10:29.204530   943 net.cpp:156] Memory required for data: 800703600
I0403 14:10:29.204555   943 layer_factory.hpp:77] Creating layer relu5
I0403 14:10:29.204577   943 net.cpp:91] Creating Layer relu5
I0403 14:10:29.204596   943 net.cpp:425] relu5 <- conv5
I0403 14:10:29.204648   943 net.cpp:386] relu5 -> conv5 (in-place)
I0403 14:10:29.204943   943 net.cpp:141] Setting up relu5
I0403 14:10:29.204972   943 net.cpp:148] Top shape: 100 256 13 13 (4326400)
I0403 14:10:29.204988   943 net.cpp:156] Memory required for data: 818009200
I0403 14:10:29.205004   943 layer_factory.hpp:77] Creating layer pool5
I0403 14:10:29.205030   943 net.cpp:91] Creating Layer pool5
I0403 14:10:29.205049   943 net.cpp:425] pool5 <- conv5
I0403 14:10:29.205067   943 net.cpp:399] pool5 -> pool5
I0403 14:10:29.205130   943 net.cpp:141] Setting up pool5
I0403 14:10:29.205154   943 net.cpp:148] Top shape: 100 256 6 6 (921600)
I0403 14:10:29.205170   943 net.cpp:156] Memory required for data: 821695600
I0403 14:10:29.205186   943 layer_factory.hpp:77] Creating layer fc6
I0403 14:10:29.205214   943 net.cpp:91] Creating Layer fc6
I0403 14:10:29.205235   943 net.cpp:425] fc6 <- pool5
I0403 14:10:29.205261   943 net.cpp:399] fc6 -> fc6
I0403 14:10:30.752888   943 net.cpp:141] Setting up fc6
I0403 14:10:30.752945   943 net.cpp:148] Top shape: 100 4096 (409600)
I0403 14:10:30.752964   943 net.cpp:156] Memory required for data: 823334000
I0403 14:10:30.752986   943 layer_factory.hpp:77] Creating layer relu6
I0403 14:10:30.753012   943 net.cpp:91] Creating Layer relu6
I0403 14:10:30.753031   943 net.cpp:425] relu6 <- fc6
I0403 14:10:30.753051   943 net.cpp:386] relu6 -> fc6 (in-place)
I0403 14:10:30.753279   943 net.cpp:141] Setting up relu6
I0403 14:10:30.753307   943 net.cpp:148] Top shape: 100 4096 (409600)
I0403 14:10:30.753325   943 net.cpp:156] Memory required for data: 824972400
I0403 14:10:30.753342   943 layer_factory.hpp:77] Creating layer drop6
I0403 14:10:30.753361   943 net.cpp:91] Creating Layer drop6
I0403 14:10:30.753377   943 net.cpp:425] drop6 <- fc6
I0403 14:10:30.753399   943 net.cpp:386] drop6 -> fc6 (in-place)
I0403 14:10:30.753453   943 net.cpp:141] Setting up drop6
I0403 14:10:30.753482   943 net.cpp:148] Top shape: 100 4096 (409600)
I0403 14:10:30.753499   943 net.cpp:156] Memory required for data: 826610800
I0403 14:10:30.753515   943 layer_factory.hpp:77] Creating layer fc7
I0403 14:10:30.753535   943 net.cpp:91] Creating Layer fc7
I0403 14:10:30.753551   943 net.cpp:425] fc7 <- fc6
I0403 14:10:30.753573   943 net.cpp:399] fc7 -> fc7
I0403 14:10:31.432767   943 net.cpp:141] Setting up fc7
I0403 14:10:31.432809   943 net.cpp:148] Top shape: 100 4096 (409600)
I0403 14:10:31.432827   943 net.cpp:156] Memory required for data: 828249200
I0403 14:10:31.432848   943 layer_factory.hpp:77] Creating layer relu7
I0403 14:10:31.432869   943 net.cpp:91] Creating Layer relu7
I0403 14:10:31.432888   943 net.cpp:425] relu7 <- fc7
I0403 14:10:31.432909   943 net.cpp:386] relu7 -> fc7 (in-place)
I0403 14:10:31.433344   943 net.cpp:141] Setting up relu7
I0403 14:10:31.433370   943 net.cpp:148] Top shape: 100 4096 (409600)
I0403 14:10:31.433418   943 net.cpp:156] Memory required for data: 829887600
I0403 14:10:31.433432   943 layer_factory.hpp:77] Creating layer drop7
I0403 14:10:31.433450   943 net.cpp:91] Creating Layer drop7
I0403 14:10:31.433465   943 net.cpp:425] drop7 <- fc7
I0403 14:10:31.433485   943 net.cpp:386] drop7 -> fc7 (in-place)
I0403 14:10:31.433527   943 net.cpp:141] Setting up drop7
I0403 14:10:31.433552   943 net.cpp:148] Top shape: 100 4096 (409600)
I0403 14:10:31.433567   943 net.cpp:156] Memory required for data: 831526000
I0403 14:10:31.433580   943 layer_factory.hpp:77] Creating layer fc8_plantvillage
I0403 14:10:31.433609   943 net.cpp:91] Creating Layer fc8_plantvillage
I0403 14:10:31.433624   943 net.cpp:425] fc8_plantvillage <- fc7
I0403 14:10:31.433645   943 net.cpp:399] fc8_plantvillage -> fc8_plantvillage
I0403 14:10:31.440264   943 net.cpp:141] Setting up fc8_plantvillage
I0403 14:10:31.440292   943 net.cpp:148] Top shape: 100 38 (3800)
I0403 14:10:31.440310   943 net.cpp:156] Memory required for data: 831541200
I0403 14:10:31.440330   943 layer_factory.hpp:77] Creating layer fc8_plantvillage_fc8_plantvillage_0_split
I0403 14:10:31.440349   943 net.cpp:91] Creating Layer fc8_plantvillage_fc8_plantvillage_0_split
I0403 14:10:31.440366   943 net.cpp:425] fc8_plantvillage_fc8_plantvillage_0_split <- fc8_plantvillage
I0403 14:10:31.440387   943 net.cpp:399] fc8_plantvillage_fc8_plantvillage_0_split -> fc8_plantvillage_fc8_plantvillage_0_split_0
I0403 14:10:31.440408   943 net.cpp:399] fc8_plantvillage_fc8_plantvillage_0_split -> fc8_plantvillage_fc8_plantvillage_0_split_1
I0403 14:10:31.440429   943 net.cpp:399] fc8_plantvillage_fc8_plantvillage_0_split -> fc8_plantvillage_fc8_plantvillage_0_split_2
I0403 14:10:31.440505   943 net.cpp:141] Setting up fc8_plantvillage_fc8_plantvillage_0_split
I0403 14:10:31.440529   943 net.cpp:148] Top shape: 100 38 (3800)
I0403 14:10:31.440546   943 net.cpp:148] Top shape: 100 38 (3800)
I0403 14:10:31.440562   943 net.cpp:148] Top shape: 100 38 (3800)
I0403 14:10:31.440577   943 net.cpp:156] Memory required for data: 831586800
I0403 14:10:31.440590   943 layer_factory.hpp:77] Creating layer prob
I0403 14:10:31.440608   943 net.cpp:91] Creating Layer prob
I0403 14:10:31.440623   943 net.cpp:425] prob <- fc8_plantvillage_fc8_plantvillage_0_split_0
I0403 14:10:31.440644   943 net.cpp:399] prob -> prob
I0403 14:10:31.440866   943 net.cpp:141] Setting up prob
I0403 14:10:31.440892   943 net.cpp:148] Top shape: 100 38 (3800)
I0403 14:10:31.440907   943 net.cpp:156] Memory required for data: 831602000
I0403 14:10:31.440922   943 layer_factory.hpp:77] Creating layer hdf5out
I0403 14:10:31.440940   943 net.cpp:91] Creating Layer hdf5out
I0403 14:10:31.440956   943 net.cpp:425] hdf5out <- prob
I0403 14:10:31.440973   943 net.cpp:425] hdf5out <- label_data_1_split_0
I0403 14:10:31.443166   943 net.cpp:141] Setting up hdf5out
…
