…
I0403 14:16:21.209815  1070 net.cpp:313] The NetState phase (1) differed from the phase (0) specified by a rule in layer data
I0403 14:16:21.210108  1070 net.cpp:49] Initializing net from parameters: 
state {
  phase: TEST
}
layer {
  name: "data"
  type: "Data"
  top: "data"
  top: "label"
  include {
    phase: TEST
  }
  transform_param {
    crop_size: 227
    mean_file: "/home/mohanty/data/final_dataset/lmdb/segmented-50-50/mean.binaryproto"
  }
  data_param {
    source: "/home/mohanty/data/final_dataset/lmdb/segmented-50-50/test_db"
    batch_size: 100
    backend: LMDB
  }
}
layer {
  name: "conv1"
  type: "Convolution"
  bottom: "data"
  top: "conv1"
  param {
    lr_mult: 1
    decay_mult: 1
  }
  param {
    lr_mult: 2
    decay_mult: 0
  }
  convolution_param {
    num_output: 96
    kernel_size: 11
    stride: 4
    weight_filler {
      type: "gaussian"
      std: 0.01
    }
    bias_filler {
      type: "constant"
      value: 0
    }
  }
}
layer {
  name: "relu1"
  type: "ReLU"
  bottom: "conv1"
  top: "conv1"
}
layer {
  name: "norm1"
  type: "LRN"
  bottom: "conv1"
  top: "norm1"
  lrn_param {
    local_size: 5
    alpha: 0.0001
    beta: 0.75
  }
}
layer {
  name: "pool1"
  type: "Pooling"
  bottom: "norm1"
  top: "pool1"
  pooling_param {
    pool: MAX
    kernel_size: 3
    stride: 2
  }
}
layer {
  name: "conv2"
  type: "Convolution"
  bottom: "pool1"
  top: "conv2"
  param {
    lr_mult: 1
    decay_mult: 1
  }
  param {
    lr_mult: 2
    decay_mult: 0
  }
  convolution_param {
    num_output: 256
    pad: 2
    kernel_size: 5
    group: 2
    weight_filler {
      type: "gaussian"
      std: 0.01
    }
    bias_filler {
      type: "constant"
      value: 0.1
    }
  }
}
layer {
  name: "relu2"
  type: "ReLU"
  bottom: "conv2"
  top: "conv2"
}
layer {
  name: "norm2"
  type: "LRN"
  bottom: "conv2"
  top: "norm2"
  lrn_param {
    local_size: 5
    alpha: 0.0001
    beta: 0.75
  }
}
layer {
  name: "pool2"
  type: "Pooling"
  bottom: "norm2"
  top: "pool2"
  pooling_param {
    pool: MAX
    kernel_size: 3
    stride: 2
  }
}
layer {
  name: "conv3"
  type: "Convolution"
  bottom: "pool2"
  top: "conv3"
  param {
    lr_mult: 1
    decay_mult: 1
  }
  param {
    lr_mult: 2
    decay_mult: 0
  }
  convolution_param {
    num_output: 384
    pad: 1
    kernel_size: 3
    weight_filler {
      type: "gaussian"
      std: 0.01
    }
    bias_filler {
      type: "constant"
      value: 0
    }
  }
}
layer {
  name: "relu3"
  type: "ReLU"
  bottom: "conv3"
  top: "conv3"
}
layer {
  name: "conv4"
  type: "Convolution"
  bottom: "conv3"
  top: "conv4"
  param {
    lr_mult: 1
    decay_mult: 1
  }
  param {
    lr_mult: 2
    decay_mult: 0
  }
  convolution_param {
    num_output: 384
    pad: 1
    kernel_size: 3
    group: 2
    weight_filler {
      type: "gaussian"
      std: 0.01
    }
    bias_filler {
      type: "constant"
      value: 0.1
    }
  }
}
layer {
  name: "relu4"
  type: "ReLU"
  bottom: "conv4"
  top: "conv4"
}
layer {
  name: "conv5"
  type: "Convolution"
  bottom: "conv4"
  top: "conv5"
  param {
    lr_mult: 1
    decay_mult: 1
  }
  param {
    lr_mult: 2
    decay_mult: 0
  }
  convolution_param {
    num_output: 256
    pad: 1
    kernel_size: 3
    group: 2
    weight_filler {
      type: "gaussian"
      std: 0.01
    }
    bias_filler {
      type: "constant"
      value: 0.1
    }
  }
}
layer {
  name: "relu5"
  type: "ReLU"
  bottom: "conv5"
  top: "conv5"
}
layer {
  name: "pool5"
  type: "Pooling"
  bottom: "conv5"
  top: "pool5"
  pooling_param {
    pool: MAX
    kernel_size: 3
    stride: 2
  }
}
layer {
  name: "fc6"
  type: "InnerProduct"
  bottom: "pool5"
  top: "fc6"
  param {
    lr_mult: 1
    decay_mult: 1
  }
  param {
    lr_mult: 2
    decay_mult: 0
  }
  inner_product_param {
    num_output: 4096
    weight_filler {
      type: "gaussian"
      std: 0.005
    }
    bias_filler {
      type: "constant"
      value: 0.1
    }
  }
}
layer {
  name: "relu6"
  type: "ReLU"
  bottom: "fc6"
  top: "fc6"
}
layer {
  name: "drop6"
  type: "Dropout"
  bottom: "fc6"
  top: "fc6"
  dropout_param {
    dropout_ratio: 0.5
  }
}
layer {
  name: "fc7"
  type: "InnerProduct"
  bottom: "fc6"
  top: "fc7"
  param {
    lr_mult: 1
    decay_mult: 1
  }
  param {
    lr_mult: 2
    decay_mult: 0
  }
  inner_product_param {
    num_output: 4096
    weight_filler {
      type: "gaussian"
      std: 0.005
    }
    bias_filler {
      type: "constant"
      value: 0.1
    }
  }
}
layer {
  name: "relu7"
  type: "ReLU"
  bottom: "fc7"
  top: "fc7"
}
layer {
  name: "drop7"
  type: "Dropout"
  bottom: "fc7"
  top: "fc7"
  dropout_param {
    dropout_ratio: 0.5
  }
}
layer {
  name: "fc8_plantvillage"
  type: "InnerProduct"
  bottom: "fc7"
  top: "fc8_plantvillage"
  param {
    lr_mult: 1
    decay_mult: 1
  }
  param {
    lr_mult: 2
    decay_mult: 0
  }
  inner_product_param {
    num_output: 38
    weight_filler {
      type: "gaussian"
      std: 0.01
    }
    bias_filler {
      type: "constant"
      value: 0
    }
  }
}
layer {
  name: "prob"
  type: "Softmax"
  bottom: "fc8_plantvillage"
  top: "prob"
  include {
    phase: TEST
  }
}
layer {
  name: "hdf5out"
  type: "HDF5Output"
  bottom: "prob"
  bottom: "label"
  include {
    phase: TEST
  }
  hdf5_output_param {
    file_name: "hdf5_dumps/iter_2948.h5"
  }
}
layer {
  name: "loss"
  type: "SoftmaxWithLoss"
  bottom: "fc8_plantvillage"
  bottom: "label"
  top: "loss"
}
layer {
  name: "accuracy"
  type: "Accuracy"
  bottom: "fc8_plantvillage"
  bottom: "label"
  top: "accuracy"
  include {
    phase: TEST
  }
}
I0403 14:16:21.210701  1070 layer_factory.hpp:77] Creating layer data
I0403 14:16:21.211344  1070 net.cpp:91] Creating Layer data
I0403 14:16:21.211377  1070 net.cpp:399] data -> data
I0403 14:16:21.211427  1070 net.cpp:399] data -> label
I0403 14:16:21.211465  1070 data_transformer.cpp:25] Loading mean file from: /home/mohanty/data/final_dataset/lmdb/segmented-50-50/mean.binaryproto
I0403 14:16:21.213925  1073 db_lmdb.cpp:38] Opened lmdb /home/mohanty/data/final_dataset/lmdb/segmented-50-50/test_db
I0403 14:16:21.225792  1070 data_layer.cpp:41] output data size: 100,3,227,227
I0403 14:16:21.344548  1070 net.cpp:141] Setting up data
I0403 14:16:21.344655  1070 net.cpp:148] Top shape: 100 3 227 227 (15458700)
I0403 14:16:21.344678  1070 net.cpp:148] Top shape: 100 (100)
I0403 14:16:21.344696  1070 net.cpp:156] Memory required for data: 61835200
I0403 14:16:21.344723  1070 layer_factory.hpp:77] Creating layer label_data_1_split
I0403 14:16:21.344749  1070 net.cpp:91] Creating Layer label_data_1_split
I0403 14:16:21.344769  1070 net.cpp:425] label_data_1_split <- label
I0403 14:16:21.344801  1070 net.cpp:399] label_data_1_split -> label_data_1_split_0
I0403 14:16:21.344830  1070 net.cpp:399] label_data_1_split -> label_data_1_split_1
I0403 14:16:21.344851  1070 net.cpp:399] label_data_1_split -> label_data_1_split_2
I0403 14:16:21.344918  1070 net.cpp:141] Setting up label_data_1_split
I0403 14:16:21.344941  1070 net.cpp:148] Top shape: 100 (100)
I0403 14:16:21.344959  1070 net.cpp:148] Top shape: 100 (100)
I0403 14:16:21.344976  1070 net.cpp:148] Top shape: 100 (100)
I0403 14:16:21.344991  1070 net.cpp:156] Memory required for data: 61836400
I0403 14:16:21.345007  1070 layer_factory.hpp:77] Creating layer conv1
I0403 14:16:21.345041  1070 net.cpp:91] Creating Layer conv1
I0403 14:16:21.345059  1070 net.cpp:425] conv1 <- data
I0403 14:16:21.345080  1070 net.cpp:399] conv1 -> conv1
I0403 14:16:21.487293  1070 net.cpp:141] Setting up conv1
I0403 14:16:21.487356  1070 net.cpp:148] Top shape: 100 96 55 55 (29040000)
I0403 14:16:21.487375  1070 net.cpp:156] Memory required for data: 177996400
I0403 14:16:21.487408  1070 layer_factory.hpp:77] Creating layer relu1
I0403 14:16:21.487437  1070 net.cpp:91] Creating Layer relu1
I0403 14:16:21.487457  1070 net.cpp:425] relu1 <- conv1
I0403 14:16:21.487478  1070 net.cpp:386] relu1 -> conv1 (in-place)
I0403 14:16:21.487774  1070 net.cpp:141] Setting up relu1
I0403 14:16:21.487803  1070 net.cpp:148] Top shape: 100 96 55 55 (29040000)
I0403 14:16:21.487853  1070 net.cpp:156] Memory required for data: 294156400
I0403 14:16:21.487870  1070 layer_factory.hpp:77] Creating layer norm1
I0403 14:16:21.487900  1070 net.cpp:91] Creating Layer norm1
I0403 14:16:21.487918  1070 net.cpp:425] norm1 <- conv1
I0403 14:16:21.487938  1070 net.cpp:399] norm1 -> norm1
I0403 14:16:21.488258  1070 net.cpp:141] Setting up norm1
I0403 14:16:21.488287  1070 net.cpp:148] Top shape: 100 96 55 55 (29040000)
I0403 14:16:21.488306  1070 net.cpp:156] Memory required for data: 410316400
I0403 14:16:21.488322  1070 layer_factory.hpp:77] Creating layer pool1
I0403 14:16:21.488345  1070 net.cpp:91] Creating Layer pool1
I0403 14:16:21.488364  1070 net.cpp:425] pool1 <- norm1
I0403 14:16:21.488384  1070 net.cpp:399] pool1 -> pool1
I0403 14:16:21.488451  1070 net.cpp:141] Setting up pool1
I0403 14:16:21.488476  1070 net.cpp:148] Top shape: 100 96 27 27 (6998400)
I0403 14:16:21.488493  1070 net.cpp:156] Memory required for data: 438310000
I0403 14:16:21.488509  1070 layer_factory.hpp:77] Creating layer conv2
I0403 14:16:21.488534  1070 net.cpp:91] Creating Layer conv2
I0403 14:16:21.488553  1070 net.cpp:425] conv2 <- pool1
I0403 14:16:21.488571  1070 net.cpp:399] conv2 -> conv2
I0403 14:16:21.504215  1070 net.cpp:141] Setting up conv2
I0403 14:16:21.504287  1070 net.cpp:148] Top shape: 100 256 27 27 (18662400)
I0403 14:16:21.504307  1070 net.cpp:156] Memory required for data: 512959600
I0403 14:16:21.504331  1070 layer_factory.hpp:77] Creating layer relu2
I0403 14:16:21.504354  1070 net.cpp:91] Creating Layer relu2
I0403 14:16:21.504370  1070 net.cpp:425] relu2 <- conv2
I0403 14:16:21.504392  1070 net.cpp:386] relu2 -> conv2 (in-place)
I0403 14:16:21.504711  1070 net.cpp:141] Setting up relu2
I0403 14:16:21.504739  1070 net.cpp:148] Top shape: 100 256 27 27 (18662400)
I0403 14:16:21.504755  1070 net.cpp:156] Memory required for data: 587609200
I0403 14:16:21.504771  1070 layer_factory.hpp:77] Creating layer norm2
I0403 14:16:21.504796  1070 net.cpp:91] Creating Layer norm2
I0403 14:16:21.504814  1070 net.cpp:425] norm2 <- conv2
I0403 14:16:21.504833  1070 net.cpp:399] norm2 -> norm2
I0403 14:16:21.505036  1070 net.cpp:141] Setting up norm2
I0403 14:16:21.505066  1070 net.cpp:148] Top shape: 100 256 27 27 (18662400)
I0403 14:16:21.505082  1070 net.cpp:156] Memory required for data: 662258800
I0403 14:16:21.505100  1070 layer_factory.hpp:77] Creating layer pool2
I0403 14:16:21.505118  1070 net.cpp:91] Creating Layer pool2
I0403 14:16:21.505134  1070 net.cpp:425] pool2 <- norm2
I0403 14:16:21.505156  1070 net.cpp:399] pool2 -> pool2
I0403 14:16:21.505209  1070 net.cpp:141] Setting up pool2
I0403 14:16:21.505236  1070 net.cpp:148] Top shape: 100 256 13 13 (4326400)
I0403 14:16:21.505257  1070 net.cpp:156] Memory required for data: 679564400
I0403 14:16:21.505275  1070 layer_factory.hpp:77] Creating layer conv3
I0403 14:16:21.505296  1070 net.cpp:91] Creating Layer conv3
I0403 14:16:21.505312  1070 net.cpp:425] conv3 <- pool2
I0403 14:16:21.505336  1070 net.cpp:399] conv3 -> conv3
I0403 14:16:21.544888  1070 net.cpp:141] Setting up conv3
I0403 14:16:21.544966  1070 net.cpp:148] Top shape: 100 384 13 13 (6489600)
I0403 14:16:21.544983  1070 net.cpp:156] Memory required for data: 705522800
I0403 14:16:21.545008  1070 layer_factory.hpp:77] Creating layer relu3
I0403 14:16:21.545030  1070 net.cpp:91] Creating Layer relu3
I0403 14:16:21.545048  1070 net.cpp:425] relu3 <- conv3
I0403 14:16:21.545070  1070 net.cpp:386] relu3 -> conv3 (in-place)
I0403 14:16:21.545403  1070 net.cpp:141] Setting up relu3
I0403 14:16:21.545430  1070 net.cpp:148] Top shape: 100 384 13 13 (6489600)
I0403 14:16:21.545446  1070 net.cpp:156] Memory required for data: 731481200
I0403 14:16:21.545461  1070 layer_factory.hpp:77] Creating layer conv4
I0403 14:16:21.545488  1070 net.cpp:91] Creating Layer conv4
I0403 14:16:21.545506  1070 net.cpp:425] conv4 <- conv3
I0403 14:16:21.545528  1070 net.cpp:399] conv4 -> conv4
I0403 14:16:21.576148  1070 net.cpp:141] Setting up conv4
I0403 14:16:21.576189  1070 net.cpp:148] Top shape: 100 384 13 13 (6489600)
I0403 14:16:21.576243  1070 net.cpp:156] Memory required for data: 757439600
I0403 14:16:21.576267  1070 layer_factory.hpp:77] Creating layer relu4
I0403 14:16:21.576289  1070 net.cpp:91] Creating Layer relu4
I0403 14:16:21.576308  1070 net.cpp:425] relu4 <- conv4
I0403 14:16:21.576326  1070 net.cpp:386] relu4 -> conv4 (in-place)
I0403 14:16:21.576614  1070 net.cpp:141] Setting up relu4
I0403 14:16:21.576645  1070 net.cpp:148] Top shape: 100 384 13 13 (6489600)
I0403 14:16:21.576663  1070 net.cpp:156] Memory required for data: 783398000
I0403 14:16:21.576680  1070 layer_factory.hpp:77] Creating layer conv5
I0403 14:16:21.576709  1070 net.cpp:91] Creating Layer conv5
I0403 14:16:21.576726  1070 net.cpp:425] conv5 <- conv4
I0403 14:16:21.576747  1070 net.cpp:399] conv5 -> conv5
I0403 14:16:21.598343  1070 net.cpp:141] Setting up conv5
I0403 14:16:21.598410  1070 net.cpp:148] Top shape: 100 256 13 13 (4326400)
I0403 14:16:21.598429  1070 net.cpp:156] Memory required for data: 800703600
I0403 14:16:21.598455  1070 layer_factory.hpp:77] Creating layer relu5
I0403 14:16:21.598498  1070 net.cpp:91] Creating Layer relu5
I0403 14:16:21.598561  1070 net.cpp:425] relu5 <- conv5
I0403 14:16:21.598585  1070 net.cpp:386] relu5 -> conv5 (in-place)
I0403 14:16:21.598878  1070 net.cpp:141] Setting up relu5
I0403 14:16:21.598906  1070 net.cpp:148] Top shape: 100 256 13 13 (4326400)
I0403 14:16:21.598923  1070 net.cpp:156] Memory required for data: 818009200
I0403 14:16:21.598939  1070 layer_factory.hpp:77] Creating layer pool5
I0403 14:16:21.598964  1070 net.cpp:91] Creating Layer pool5
I0403 14:16:21.598984  1070 net.cpp:425] pool5 <- conv5
I0403 14:16:21.599002  1070 net.cpp:399] pool5 -> pool5
I0403 14:16:21.599066  1070 net.cpp:141] Setting up pool5
I0403 14:16:21.599091  1070 net.cpp:148] Top shape: 100 256 6 6 (921600)
I0403 14:16:21.599107  1070 net.cpp:156] Memory required for data: 821695600
I0403 14:16:21.599123  1070 layer_factory.hpp:77] Creating layer fc6
I0403 14:16:21.599150  1070 net.cpp:91] Creating Layer fc6
I0403 14:16:21.599169  1070 net.cpp:425] fc6 <- pool5
I0403 14:16:21.599190  1070 net.cpp:399] fc6 -> fc6
I0403 14:16:23.161537  1070 net.cpp:141] Setting up fc6
I0403 14:16:23.161603  1070 net.cpp:148] Top shape: 100 4096 (409600)
I0403 14:16:23.161623  1070 net.cpp:156] Memory required for data: 823334000
I0403 14:16:23.161656  1070 layer_factory.hpp:77] Creating layer relu6
I0403 14:16:23.161681  1070 net.cpp:91] Creating Layer relu6
I0403 14:16:23.161700  1070 net.cpp:425] relu6 <- fc6
I0403 14:16:23.161720  1070 net.cpp:386] relu6 -> fc6 (in-place)
I0403 14:16:23.161959  1070 net.cpp:141] Setting up relu6
I0403 14:16:23.161993  1070 net.cpp:148] Top shape: 100 4096 (409600)
I0403 14:16:23.162009  1070 net.cpp:156] Memory required for data: 824972400
I0403 14:16:23.162026  1070 layer_factory.hpp:77] Creating layer drop6
I0403 14:16:23.162046  1070 net.cpp:91] Creating Layer drop6
I0403 14:16:23.162078  1070 net.cpp:425] drop6 <- fc6
I0403 14:16:23.162117  1070 net.cpp:386] drop6 -> fc6 (in-place)
I0403 14:16:23.162173  1070 net.cpp:141] Setting up drop6
I0403 14:16:23.162196  1070 net.cpp:148] Top shape: 100 4096 (409600)
I0403 14:16:23.162212  1070 net.cpp:156] Memory required for data: 826610800
I0403 14:16:23.162228  1070 layer_factory.hpp:77] Creating layer fc7
I0403 14:16:23.162267  1070 net.cpp:91] Creating Layer fc7
I0403 14:16:23.162289  1070 net.cpp:425] fc7 <- fc6
I0403 14:16:23.162312  1070 net.cpp:399] fc7 -> fc7
I0403 14:16:23.853168  1070 net.cpp:141] Setting up fc7
I0403 14:16:23.853210  1070 net.cpp:148] Top shape: 100 4096 (409600)
I0403 14:16:23.853227  1070 net.cpp:156] Memory required for data: 828249200
I0403 14:16:23.853252  1070 layer_factory.hpp:77] Creating layer relu7
I0403 14:16:23.853276  1070 net.cpp:91] Creating Layer relu7
I0403 14:16:23.853293  1070 net.cpp:425] relu7 <- fc7
I0403 14:16:23.853315  1070 net.cpp:386] relu7 -> fc7 (in-place)
I0403 14:16:23.853726  1070 net.cpp:141] Setting up relu7
I0403 14:16:23.853754  1070 net.cpp:148] Top shape: 100 4096 (409600)
I0403 14:16:23.853798  1070 net.cpp:156] Memory required for data: 829887600
I0403 14:16:23.853814  1070 layer_factory.hpp:77] Creating layer drop7
I0403 14:16:23.853833  1070 net.cpp:91] Creating Layer drop7
I0403 14:16:23.853850  1070 net.cpp:425] drop7 <- fc7
I0403 14:16:23.853869  1070 net.cpp:386] drop7 -> fc7 (in-place)
I0403 14:16:23.853912  1070 net.cpp:141] Setting up drop7
I0403 14:16:23.853935  1070 net.cpp:148] Top shape: 100 4096 (409600)
I0403 14:16:23.853950  1070 net.cpp:156] Memory required for data: 831526000
I0403 14:16:23.853965  1070 layer_factory.hpp:77] Creating layer fc8_plantvillage
I0403 14:16:23.853986  1070 net.cpp:91] Creating Layer fc8_plantvillage
I0403 14:16:23.854003  1070 net.cpp:425] fc8_plantvillage <- fc7
I0403 14:16:23.854023  1070 net.cpp:399] fc8_plantvillage -> fc8_plantvillage
I0403 14:16:23.860831  1070 net.cpp:141] Setting up fc8_plantvillage
I0403 14:16:23.860860  1070 net.cpp:148] Top shape: 100 38 (3800)
I0403 14:16:23.860877  1070 net.cpp:156] Memory required for data: 831541200
I0403 14:16:23.860895  1070 layer_factory.hpp:77] Creating layer fc8_plantvillage_fc8_plantvillage_0_split
I0403 14:16:23.860914  1070 net.cpp:91] Creating Layer fc8_plantvillage_fc8_plantvillage_0_split
I0403 14:16:23.860930  1070 net.cpp:425] fc8_plantvillage_fc8_plantvillage_0_split <- fc8_plantvillage
I0403 14:16:23.860950  1070 net.cpp:399] fc8_plantvillage_fc8_plantvillage_0_split -> fc8_plantvillage_fc8_plantvillage_0_split_0
I0403 14:16:23.860971  1070 net.cpp:399] fc8_plantvillage_fc8_plantvillage_0_split -> fc8_plantvillage_fc8_plantvillage_0_split_1
I0403 14:16:23.860991  1070 net.cpp:399] fc8_plantvillage_fc8_plantvillage_0_split -> fc8_plantvillage_fc8_plantvillage_0_split_2
I0403 14:16:23.861068  1070 net.cpp:141] Setting up fc8_plantvillage_fc8_plantvillage_0_split
I0403 14:16:23.861095  1070 net.cpp:148] Top shape: 100 38 (3800)
I0403 14:16:23.861114  1070 net.cpp:148] Top shape: 100 38 (3800)
I0403 14:16:23.861129  1070 net.cpp:148] Top shape: 100 38 (3800)
I0403 14:16:23.861143  1070 net.cpp:156] Memory required for data: 831586800
I0403 14:16:23.861158  1070 layer_factory.hpp:77] Creating layer prob
I0403 14:16:23.861176  1070 net.cpp:91] Creating Layer prob
I0403 14:16:23.861192  1070 net.cpp:425] prob <- fc8_plantvillage_fc8_plantvillage_0_split_0
I0403 14:16:23.861210  1070 net.cpp:399] prob -> prob
I0403 14:16:23.861435  1070 net.cpp:141] Setting up prob
I0403 14:16:23.861462  1070 net.cpp:148] Top shape: 100 38 (3800)
I0403 14:16:23.861479  1070 net.cpp:156] Memory required for data: 831602000
I0403 14:16:23.861495  1070 layer_factory.hpp:77] Creating layer hdf5out
I0403 14:16:23.861513  1070 net.cpp:91] Creating Layer hdf5out
I0403 14:16:23.861528  1070 net.cpp:425] hdf5out <- prob
I0403 14:16:23.861546  1070 net.cpp:425] hdf5out <- label_data_1_split_0
I0403 14:16:23.863946  1070 net.cpp:141] Setting up hdf5out
…
