…
I0403 14:11:19.443481   964 net.cpp:313] The NetState phase (1) differed from the phase (0) specified by a rule in layer data
I0403 14:11:19.443781   964 net.cpp:49] Initializing net from parameters: 
state {
  phase: TEST
}
layer {
  name: "data"
  type: "Data"
  top: "data"
  top: "label"
  include {
    phase: TEST
  }
  transform_param {
    crop_size: 227
    mean_file: "/home/mohanty/data/final_dataset/lmdb/segmented-50-50/mean.binaryproto"
  }
  data_param {
    source: "/home/mohanty/data/final_dataset/lmdb/segmented-50-50/test_db"
    batch_size: 100
    backend: LMDB
  }
}
layer {
  name: "conv1"
  type: "Convolution"
  bottom: "data"
  top: "conv1"
  param {
    lr_mult: 1
    decay_mult: 1
  }
  param {
    lr_mult: 2
    decay_mult: 0
  }
  convolution_param {
    num_output: 96
    kernel_size: 11
    stride: 4
    weight_filler {
      type: "gaussian"
      std: 0.01
    }
    bias_filler {
      type: "constant"
      value: 0
    }
  }
}
layer {
  name: "relu1"
  type: "ReLU"
  bottom: "conv1"
  top: "conv1"
}
layer {
  name: "norm1"
  type: "LRN"
  bottom: "conv1"
  top: "norm1"
  lrn_param {
    local_size: 5
    alpha: 0.0001
    beta: 0.75
  }
}
layer {
  name: "pool1"
  type: "Pooling"
  bottom: "norm1"
  top: "pool1"
  pooling_param {
    pool: MAX
    kernel_size: 3
    stride: 2
  }
}
layer {
  name: "conv2"
  type: "Convolution"
  bottom: "pool1"
  top: "conv2"
  param {
    lr_mult: 1
    decay_mult: 1
  }
  param {
    lr_mult: 2
    decay_mult: 0
  }
  convolution_param {
    num_output: 256
    pad: 2
    kernel_size: 5
    group: 2
    weight_filler {
      type: "gaussian"
      std: 0.01
    }
    bias_filler {
      type: "constant"
      value: 0.1
    }
  }
}
layer {
  name: "relu2"
  type: "ReLU"
  bottom: "conv2"
  top: "conv2"
}
layer {
  name: "norm2"
  type: "LRN"
  bottom: "conv2"
  top: "norm2"
  lrn_param {
    local_size: 5
    alpha: 0.0001
    beta: 0.75
  }
}
layer {
  name: "pool2"
  type: "Pooling"
  bottom: "norm2"
  top: "pool2"
  pooling_param {
    pool: MAX
    kernel_size: 3
    stride: 2
  }
}
layer {
  name: "conv3"
  type: "Convolution"
  bottom: "pool2"
  top: "conv3"
  param {
    lr_mult: 1
    decay_mult: 1
  }
  param {
    lr_mult: 2
    decay_mult: 0
  }
  convolution_param {
    num_output: 384
    pad: 1
    kernel_size: 3
    weight_filler {
      type: "gaussian"
      std: 0.01
    }
    bias_filler {
      type: "constant"
      value: 0
    }
  }
}
layer {
  name: "relu3"
  type: "ReLU"
  bottom: "conv3"
  top: "conv3"
}
layer {
  name: "conv4"
  type: "Convolution"
  bottom: "conv3"
  top: "conv4"
  param {
    lr_mult: 1
    decay_mult: 1
  }
  param {
    lr_mult: 2
    decay_mult: 0
  }
  convolution_param {
    num_output: 384
    pad: 1
    kernel_size: 3
    group: 2
    weight_filler {
      type: "gaussian"
      std: 0.01
    }
    bias_filler {
      type: "constant"
      value: 0.1
    }
  }
}
layer {
  name: "relu4"
  type: "ReLU"
  bottom: "conv4"
  top: "conv4"
}
layer {
  name: "conv5"
  type: "Convolution"
  bottom: "conv4"
  top: "conv5"
  param {
    lr_mult: 1
    decay_mult: 1
  }
  param {
    lr_mult: 2
    decay_mult: 0
  }
  convolution_param {
    num_output: 256
    pad: 1
    kernel_size: 3
    group: 2
    weight_filler {
      type: "gaussian"
      std: 0.01
    }
    bias_filler {
      type: "constant"
      value: 0.1
    }
  }
}
layer {
  name: "relu5"
  type: "ReLU"
  bottom: "conv5"
  top: "conv5"
}
layer {
  name: "pool5"
  type: "Pooling"
  bottom: "conv5"
  top: "pool5"
  pooling_param {
    pool: MAX
    kernel_size: 3
    stride: 2
  }
}
layer {
  name: "fc6"
  type: "InnerProduct"
  bottom: "pool5"
  top: "fc6"
  param {
    lr_mult: 1
    decay_mult: 1
  }
  param {
    lr_mult: 2
    decay_mult: 0
  }
  inner_product_param {
    num_output: 4096
    weight_filler {
      type: "gaussian"
      std: 0.005
    }
    bias_filler {
      type: "constant"
      value: 0.1
    }
  }
}
layer {
  name: "relu6"
  type: "ReLU"
  bottom: "fc6"
  top: "fc6"
}
layer {
  name: "drop6"
  type: "Dropout"
  bottom: "fc6"
  top: "fc6"
  dropout_param {
    dropout_ratio: 0.5
  }
}
layer {
  name: "fc7"
  type: "InnerProduct"
  bottom: "fc6"
  top: "fc7"
  param {
    lr_mult: 1
    decay_mult: 1
  }
  param {
    lr_mult: 2
    decay_mult: 0
  }
  inner_product_param {
    num_output: 4096
    weight_filler {
      type: "gaussian"
      std: 0.005
    }
    bias_filler {
      type: "constant"
      value: 0.1
    }
  }
}
layer {
  name: "relu7"
  type: "ReLU"
  bottom: "fc7"
  top: "fc7"
}
layer {
  name: "drop7"
  type: "Dropout"
  bottom: "fc7"
  top: "fc7"
  dropout_param {
    dropout_ratio: 0.5
  }
}
layer {
  name: "fc8_plantvillage"
  type: "InnerProduct"
  bottom: "fc7"
  top: "fc8_plantvillage"
  param {
    lr_mult: 1
    decay_mult: 1
  }
  param {
    lr_mult: 2
    decay_mult: 0
  }
  inner_product_param {
    num_output: 38
    weight_filler {
      type: "gaussian"
      std: 0.01
    }
    bias_filler {
      type: "constant"
      value: 0
    }
  }
}
layer {
  name: "prob"
  type: "Softmax"
  bottom: "fc8_plantvillage"
  top: "prob"
  include {
    phase: TEST
  }
}
layer {
  name: "hdf5out"
  type: "HDF5Output"
  bottom: "prob"
  bottom: "label"
  include {
    phase: TEST
  }
  hdf5_output_param {
    file_name: "hdf5_dumps/iter_1340.h5"
  }
}
layer {
  name: "loss"
  type: "SoftmaxWithLoss"
  bottom: "fc8_plantvillage"
  bottom: "label"
  top: "loss"
}
layer {
  name: "accuracy"
  type: "Accuracy"
  bottom: "fc8_plantvillage"
  bottom: "label"
  top: "accuracy"
  include {
    phase: TEST
  }
}
I0403 14:11:19.444368   964 layer_factory.hpp:77] Creating layer data
I0403 14:11:19.445003   964 net.cpp:91] Creating Layer data
I0403 14:11:19.445034   964 net.cpp:399] data -> data
I0403 14:11:19.445086   964 net.cpp:399] data -> label
I0403 14:11:19.445122   964 data_transformer.cpp:25] Loading mean file from: /home/mohanty/data/final_dataset/lmdb/segmented-50-50/mean.binaryproto
I0403 14:11:19.447804   968 db_lmdb.cpp:38] Opened lmdb /home/mohanty/data/final_dataset/lmdb/segmented-50-50/test_db
I0403 14:11:19.459342   964 data_layer.cpp:41] output data size: 100,3,227,227
I0403 14:11:19.577939   964 net.cpp:141] Setting up data
I0403 14:11:19.577998   964 net.cpp:148] Top shape: 100 3 227 227 (15458700)
I0403 14:11:19.578022   964 net.cpp:148] Top shape: 100 (100)
I0403 14:11:19.578037   964 net.cpp:156] Memory required for data: 61835200
I0403 14:11:19.578063   964 layer_factory.hpp:77] Creating layer label_data_1_split
I0403 14:11:19.578088   964 net.cpp:91] Creating Layer label_data_1_split
I0403 14:11:19.578105   964 net.cpp:425] label_data_1_split <- label
I0403 14:11:19.578136   964 net.cpp:399] label_data_1_split -> label_data_1_split_0
I0403 14:11:19.578161   964 net.cpp:399] label_data_1_split -> label_data_1_split_1
I0403 14:11:19.578183   964 net.cpp:399] label_data_1_split -> label_data_1_split_2
I0403 14:11:19.578245   964 net.cpp:141] Setting up label_data_1_split
I0403 14:11:19.578269   964 net.cpp:148] Top shape: 100 (100)
I0403 14:11:19.578291   964 net.cpp:148] Top shape: 100 (100)
I0403 14:11:19.578308   964 net.cpp:148] Top shape: 100 (100)
I0403 14:11:19.578322   964 net.cpp:156] Memory required for data: 61836400
I0403 14:11:19.578337   964 layer_factory.hpp:77] Creating layer conv1
I0403 14:11:19.578371   964 net.cpp:91] Creating Layer conv1
I0403 14:11:19.578388   964 net.cpp:425] conv1 <- data
I0403 14:11:19.578408   964 net.cpp:399] conv1 -> conv1
I0403 14:11:19.718237   964 net.cpp:141] Setting up conv1
I0403 14:11:19.718332   964 net.cpp:148] Top shape: 100 96 55 55 (29040000)
I0403 14:11:19.718350   964 net.cpp:156] Memory required for data: 177996400
I0403 14:11:19.718381   964 layer_factory.hpp:77] Creating layer relu1
I0403 14:11:19.718412   964 net.cpp:91] Creating Layer relu1
I0403 14:11:19.718431   964 net.cpp:425] relu1 <- conv1
I0403 14:11:19.718451   964 net.cpp:386] relu1 -> conv1 (in-place)
I0403 14:11:19.718725   964 net.cpp:141] Setting up relu1
I0403 14:11:19.718752   964 net.cpp:148] Top shape: 100 96 55 55 (29040000)
I0403 14:11:19.718802   964 net.cpp:156] Memory required for data: 294156400
I0403 14:11:19.718821   964 layer_factory.hpp:77] Creating layer norm1
I0403 14:11:19.718849   964 net.cpp:91] Creating Layer norm1
I0403 14:11:19.718868   964 net.cpp:425] norm1 <- conv1
I0403 14:11:19.718889   964 net.cpp:399] norm1 -> norm1
I0403 14:11:19.719244   964 net.cpp:141] Setting up norm1
I0403 14:11:19.719277   964 net.cpp:148] Top shape: 100 96 55 55 (29040000)
I0403 14:11:19.719295   964 net.cpp:156] Memory required for data: 410316400
I0403 14:11:19.719312   964 layer_factory.hpp:77] Creating layer pool1
I0403 14:11:19.719336   964 net.cpp:91] Creating Layer pool1
I0403 14:11:19.719353   964 net.cpp:425] pool1 <- norm1
I0403 14:11:19.719374   964 net.cpp:399] pool1 -> pool1
I0403 14:11:19.719444   964 net.cpp:141] Setting up pool1
I0403 14:11:19.719472   964 net.cpp:148] Top shape: 100 96 27 27 (6998400)
I0403 14:11:19.719488   964 net.cpp:156] Memory required for data: 438310000
I0403 14:11:19.719503   964 layer_factory.hpp:77] Creating layer conv2
I0403 14:11:19.719530   964 net.cpp:91] Creating Layer conv2
I0403 14:11:19.719547   964 net.cpp:425] conv2 <- pool1
I0403 14:11:19.719566   964 net.cpp:399] conv2 -> conv2
I0403 14:11:19.734983   964 net.cpp:141] Setting up conv2
I0403 14:11:19.735041   964 net.cpp:148] Top shape: 100 256 27 27 (18662400)
I0403 14:11:19.735059   964 net.cpp:156] Memory required for data: 512959600
I0403 14:11:19.735082   964 layer_factory.hpp:77] Creating layer relu2
I0403 14:11:19.735105   964 net.cpp:91] Creating Layer relu2
I0403 14:11:19.735122   964 net.cpp:425] relu2 <- conv2
I0403 14:11:19.735143   964 net.cpp:386] relu2 -> conv2 (in-place)
I0403 14:11:19.735460   964 net.cpp:141] Setting up relu2
I0403 14:11:19.735487   964 net.cpp:148] Top shape: 100 256 27 27 (18662400)
I0403 14:11:19.735503   964 net.cpp:156] Memory required for data: 587609200
I0403 14:11:19.735519   964 layer_factory.hpp:77] Creating layer norm2
I0403 14:11:19.735543   964 net.cpp:91] Creating Layer norm2
I0403 14:11:19.735561   964 net.cpp:425] norm2 <- conv2
I0403 14:11:19.735580   964 net.cpp:399] norm2 -> norm2
I0403 14:11:19.735785   964 net.cpp:141] Setting up norm2
I0403 14:11:19.735810   964 net.cpp:148] Top shape: 100 256 27 27 (18662400)
I0403 14:11:19.735826   964 net.cpp:156] Memory required for data: 662258800
I0403 14:11:19.735841   964 layer_factory.hpp:77] Creating layer pool2
I0403 14:11:19.735859   964 net.cpp:91] Creating Layer pool2
I0403 14:11:19.735875   964 net.cpp:425] pool2 <- norm2
I0403 14:11:19.735894   964 net.cpp:399] pool2 -> pool2
I0403 14:11:19.735949   964 net.cpp:141] Setting up pool2
I0403 14:11:19.735972   964 net.cpp:148] Top shape: 100 256 13 13 (4326400)
I0403 14:11:19.735987   964 net.cpp:156] Memory required for data: 679564400
I0403 14:11:19.736001   964 layer_factory.hpp:77] Creating layer conv3
I0403 14:11:19.736027   964 net.cpp:91] Creating Layer conv3
I0403 14:11:19.736045   964 net.cpp:425] conv3 <- pool2
I0403 14:11:19.736063   964 net.cpp:399] conv3 -> conv3
I0403 14:11:19.775059   964 net.cpp:141] Setting up conv3
I0403 14:11:19.775130   964 net.cpp:148] Top shape: 100 384 13 13 (6489600)
I0403 14:11:19.775146   964 net.cpp:156] Memory required for data: 705522800
I0403 14:11:19.775171   964 layer_factory.hpp:77] Creating layer relu3
I0403 14:11:19.775192   964 net.cpp:91] Creating Layer relu3
I0403 14:11:19.775207   964 net.cpp:425] relu3 <- conv3
I0403 14:11:19.775228   964 net.cpp:386] relu3 -> conv3 (in-place)
I0403 14:11:19.775501   964 net.cpp:141] Setting up relu3
I0403 14:11:19.775527   964 net.cpp:148] Top shape: 100 384 13 13 (6489600)
I0403 14:11:19.775542   964 net.cpp:156] Memory required for data: 731481200
I0403 14:11:19.775557   964 layer_factory.hpp:77] Creating layer conv4
I0403 14:11:19.775581   964 net.cpp:91] Creating Layer conv4
I0403 14:11:19.775599   964 net.cpp:425] conv4 <- conv3
I0403 14:11:19.775620   964 net.cpp:399] conv4 -> conv4
I0403 14:11:19.805762   964 net.cpp:141] Setting up conv4
I0403 14:11:19.805830   964 net.cpp:148] Top shape: 100 384 13 13 (6489600)
I0403 14:11:19.805881   964 net.cpp:156] Memory required for data: 757439600
I0403 14:11:19.805902   964 layer_factory.hpp:77] Creating layer relu4
I0403 14:11:19.805923   964 net.cpp:91] Creating Layer relu4
I0403 14:11:19.805941   964 net.cpp:425] relu4 <- conv4
I0403 14:11:19.805963   964 net.cpp:386] relu4 -> conv4 (in-place)
I0403 14:11:19.806287   964 net.cpp:141] Setting up relu4
I0403 14:11:19.806316   964 net.cpp:148] Top shape: 100 384 13 13 (6489600)
I0403 14:11:19.806332   964 net.cpp:156] Memory required for data: 783398000
I0403 14:11:19.806347   964 layer_factory.hpp:77] Creating layer conv5
I0403 14:11:19.806372   964 net.cpp:91] Creating Layer conv5
I0403 14:11:19.806391   964 net.cpp:425] conv5 <- conv4
I0403 14:11:19.806411   964 net.cpp:399] conv5 -> conv5
I0403 14:11:19.827790   964 net.cpp:141] Setting up conv5
I0403 14:11:19.827862   964 net.cpp:148] Top shape: 100 256 13 13 (4326400)
I0403 14:11:19.827879   964 net.cpp:156] Memory required for data: 800703600
I0403 14:11:19.827905   964 layer_factory.hpp:77] Creating layer relu5
I0403 14:11:19.827929   964 net.cpp:91] Creating Layer relu5
I0403 14:11:19.827945   964 net.cpp:425] relu5 <- conv5
I0403 14:11:19.827966   964 net.cpp:386] relu5 -> conv5 (in-place)
I0403 14:11:19.828295   964 net.cpp:141] Setting up relu5
I0403 14:11:19.828323   964 net.cpp:148] Top shape: 100 256 13 13 (4326400)
I0403 14:11:19.828339   964 net.cpp:156] Memory required for data: 818009200
I0403 14:11:19.828354   964 layer_factory.hpp:77] Creating layer pool5
I0403 14:11:19.828379   964 net.cpp:91] Creating Layer pool5
I0403 14:11:19.828397   964 net.cpp:425] pool5 <- conv5
I0403 14:11:19.828416   964 net.cpp:399] pool5 -> pool5
I0403 14:11:19.828481   964 net.cpp:141] Setting up pool5
I0403 14:11:19.828505   964 net.cpp:148] Top shape: 100 256 6 6 (921600)
I0403 14:11:19.828521   964 net.cpp:156] Memory required for data: 821695600
I0403 14:11:19.828534   964 layer_factory.hpp:77] Creating layer fc6
I0403 14:11:19.828562   964 net.cpp:91] Creating Layer fc6
I0403 14:11:19.828579   964 net.cpp:425] fc6 <- pool5
I0403 14:11:19.828600   964 net.cpp:399] fc6 -> fc6
I0403 14:11:21.367996   964 net.cpp:141] Setting up fc6
I0403 14:11:21.368052   964 net.cpp:148] Top shape: 100 4096 (409600)
I0403 14:11:21.368067   964 net.cpp:156] Memory required for data: 823334000
I0403 14:11:21.368088   964 layer_factory.hpp:77] Creating layer relu6
I0403 14:11:21.368110   964 net.cpp:91] Creating Layer relu6
I0403 14:11:21.368127   964 net.cpp:425] relu6 <- fc6
I0403 14:11:21.368146   964 net.cpp:386] relu6 -> fc6 (in-place)
I0403 14:11:21.368365   964 net.cpp:141] Setting up relu6
I0403 14:11:21.368389   964 net.cpp:148] Top shape: 100 4096 (409600)
I0403 14:11:21.368403   964 net.cpp:156] Memory required for data: 824972400
I0403 14:11:21.368418   964 layer_factory.hpp:77] Creating layer drop6
I0403 14:11:21.368437   964 net.cpp:91] Creating Layer drop6
I0403 14:11:21.368450   964 net.cpp:425] drop6 <- fc6
I0403 14:11:21.368469   964 net.cpp:386] drop6 -> fc6 (in-place)
I0403 14:11:21.368520   964 net.cpp:141] Setting up drop6
I0403 14:11:21.368546   964 net.cpp:148] Top shape: 100 4096 (409600)
I0403 14:11:21.368562   964 net.cpp:156] Memory required for data: 826610800
I0403 14:11:21.368577   964 layer_factory.hpp:77] Creating layer fc7
I0403 14:11:21.368595   964 net.cpp:91] Creating Layer fc7
I0403 14:11:21.368610   964 net.cpp:425] fc7 <- fc6
I0403 14:11:21.368629   964 net.cpp:399] fc7 -> fc7
I0403 14:11:22.046286   964 net.cpp:141] Setting up fc7
I0403 14:11:22.046329   964 net.cpp:148] Top shape: 100 4096 (409600)
I0403 14:11:22.046345   964 net.cpp:156] Memory required for data: 828249200
I0403 14:11:22.046366   964 layer_factory.hpp:77] Creating layer relu7
I0403 14:11:22.046389   964 net.cpp:91] Creating Layer relu7
I0403 14:11:22.046406   964 net.cpp:425] relu7 <- fc7
I0403 14:11:22.046427   964 net.cpp:386] relu7 -> fc7 (in-place)
I0403 14:11:22.046833   964 net.cpp:141] Setting up relu7
I0403 14:11:22.046862   964 net.cpp:148] Top shape: 100 4096 (409600)
I0403 14:11:22.046895   964 net.cpp:156] Memory required for data: 829887600
I0403 14:11:22.046911   964 layer_factory.hpp:77] Creating layer drop7
I0403 14:11:22.046929   964 net.cpp:91] Creating Layer drop7
I0403 14:11:22.046944   964 net.cpp:425] drop7 <- fc7
I0403 14:11:22.046964   964 net.cpp:386] drop7 -> fc7 (in-place)
I0403 14:11:22.047008   964 net.cpp:141] Setting up drop7
I0403 14:11:22.047029   964 net.cpp:148] Top shape: 100 4096 (409600)
I0403 14:11:22.047044   964 net.cpp:156] Memory required for data: 831526000
I0403 14:11:22.047057   964 layer_factory.hpp:77] Creating layer fc8_plantvillage
I0403 14:11:22.047082   964 net.cpp:91] Creating Layer fc8_plantvillage
I0403 14:11:22.047099   964 net.cpp:425] fc8_plantvillage <- fc7
I0403 14:11:22.047119   964 net.cpp:399] fc8_plantvillage -> fc8_plantvillage
I0403 14:11:22.053863   964 net.cpp:141] Setting up fc8_plantvillage
I0403 14:11:22.053891   964 net.cpp:148] Top shape: 100 38 (3800)
I0403 14:11:22.053906   964 net.cpp:156] Memory required for data: 831541200
I0403 14:11:22.053925   964 layer_factory.hpp:77] Creating layer fc8_plantvillage_fc8_plantvillage_0_split
I0403 14:11:22.053944   964 net.cpp:91] Creating Layer fc8_plantvillage_fc8_plantvillage_0_split
I0403 14:11:22.053959   964 net.cpp:425] fc8_plantvillage_fc8_plantvillage_0_split <- fc8_plantvillage
I0403 14:11:22.053979   964 net.cpp:399] fc8_plantvillage_fc8_plantvillage_0_split -> fc8_plantvillage_fc8_plantvillage_0_split_0
I0403 14:11:22.053999   964 net.cpp:399] fc8_plantvillage_fc8_plantvillage_0_split -> fc8_plantvillage_fc8_plantvillage_0_split_1
I0403 14:11:22.054019   964 net.cpp:399] fc8_plantvillage_fc8_plantvillage_0_split -> fc8_plantvillage_fc8_plantvillage_0_split_2
I0403 14:11:22.054096   964 net.cpp:141] Setting up fc8_plantvillage_fc8_plantvillage_0_split
I0403 14:11:22.054121   964 net.cpp:148] Top shape: 100 38 (3800)
I0403 14:11:22.054137   964 net.cpp:148] Top shape: 100 38 (3800)
I0403 14:11:22.054153   964 net.cpp:148] Top shape: 100 38 (3800)
I0403 14:11:22.054167   964 net.cpp:156] Memory required for data: 831586800
I0403 14:11:22.054182   964 layer_factory.hpp:77] Creating layer prob
I0403 14:11:22.054200   964 net.cpp:91] Creating Layer prob
I0403 14:11:22.054215   964 net.cpp:425] prob <- fc8_plantvillage_fc8_plantvillage_0_split_0
I0403 14:11:22.054235   964 net.cpp:399] prob -> prob
I0403 14:11:22.054466   964 net.cpp:141] Setting up prob
I0403 14:11:22.054493   964 net.cpp:148] Top shape: 100 38 (3800)
I0403 14:11:22.054510   964 net.cpp:156] Memory required for data: 831602000
I0403 14:11:22.054525   964 layer_factory.hpp:77] Creating layer hdf5out
I0403 14:11:22.054544   964 net.cpp:91] Creating Layer hdf5out
I0403 14:11:22.054560   964 net.cpp:425] hdf5out <- prob
I0403 14:11:22.054576   964 net.cpp:425] hdf5out <- label_data_1_split_0
I0403 14:11:22.056813   964 net.cpp:141] Setting up hdf5out
…
