…
I0403 14:28:58.502801  1346 net.cpp:313] The NetState phase (1) differed from the phase (0) specified by a rule in layer data
I0403 14:28:58.503087  1346 net.cpp:49] Initializing net from parameters: 
state {
  phase: TEST
}
layer {
  name: "data"
  type: "Data"
  top: "data"
  top: "label"
  include {
    phase: TEST
  }
  transform_param {
    crop_size: 227
    mean_file: "/home/mohanty/data/final_dataset/lmdb/segmented-50-50/mean.binaryproto"
  }
  data_param {
    source: "/home/mohanty/data/final_dataset/lmdb/segmented-50-50/test_db"
    batch_size: 100
    backend: LMDB
  }
}
layer {
  name: "conv1"
  type: "Convolution"
  bottom: "data"
  top: "conv1"
  param {
    lr_mult: 1
    decay_mult: 1
  }
  param {
    lr_mult: 2
    decay_mult: 0
  }
  convolution_param {
    num_output: 96
    kernel_size: 11
    stride: 4
    weight_filler {
      type: "gaussian"
      std: 0.01
    }
    bias_filler {
      type: "constant"
      value: 0
    }
  }
}
layer {
  name: "relu1"
  type: "ReLU"
  bottom: "conv1"
  top: "conv1"
}
layer {
  name: "norm1"
  type: "LRN"
  bottom: "conv1"
  top: "norm1"
  lrn_param {
    local_size: 5
    alpha: 0.0001
    beta: 0.75
  }
}
layer {
  name: "pool1"
  type: "Pooling"
  bottom: "norm1"
  top: "pool1"
  pooling_param {
    pool: MAX
    kernel_size: 3
    stride: 2
  }
}
layer {
  name: "conv2"
  type: "Convolution"
  bottom: "pool1"
  top: "conv2"
  param {
    lr_mult: 1
    decay_mult: 1
  }
  param {
    lr_mult: 2
    decay_mult: 0
  }
  convolution_param {
    num_output: 256
    pad: 2
    kernel_size: 5
    group: 2
    weight_filler {
      type: "gaussian"
      std: 0.01
    }
    bias_filler {
      type: "constant"
      value: 0.1
    }
  }
}
layer {
  name: "relu2"
  type: "ReLU"
  bottom: "conv2"
  top: "conv2"
}
layer {
  name: "norm2"
  type: "LRN"
  bottom: "conv2"
  top: "norm2"
  lrn_param {
    local_size: 5
    alpha: 0.0001
    beta: 0.75
  }
}
layer {
  name: "pool2"
  type: "Pooling"
  bottom: "norm2"
  top: "pool2"
  pooling_param {
    pool: MAX
    kernel_size: 3
    stride: 2
  }
}
layer {
  name: "conv3"
  type: "Convolution"
  bottom: "pool2"
  top: "conv3"
  param {
    lr_mult: 1
    decay_mult: 1
  }
  param {
    lr_mult: 2
    decay_mult: 0
  }
  convolution_param {
    num_output: 384
    pad: 1
    kernel_size: 3
    weight_filler {
      type: "gaussian"
      std: 0.01
    }
    bias_filler {
      type: "constant"
      value: 0
    }
  }
}
layer {
  name: "relu3"
  type: "ReLU"
  bottom: "conv3"
  top: "conv3"
}
layer {
  name: "conv4"
  type: "Convolution"
  bottom: "conv3"
  top: "conv4"
  param {
    lr_mult: 1
    decay_mult: 1
  }
  param {
    lr_mult: 2
    decay_mult: 0
  }
  convolution_param {
    num_output: 384
    pad: 1
    kernel_size: 3
    group: 2
    weight_filler {
      type: "gaussian"
      std: 0.01
    }
    bias_filler {
      type: "constant"
      value: 0.1
    }
  }
}
layer {
  name: "relu4"
  type: "ReLU"
  bottom: "conv4"
  top: "conv4"
}
layer {
  name: "conv5"
  type: "Convolution"
  bottom: "conv4"
  top: "conv5"
  param {
    lr_mult: 1
    decay_mult: 1
  }
  param {
    lr_mult: 2
    decay_mult: 0
  }
  convolution_param {
    num_output: 256
    pad: 1
    kernel_size: 3
    group: 2
    weight_filler {
      type: "gaussian"
      std: 0.01
    }
    bias_filler {
      type: "constant"
      value: 0.1
    }
  }
}
layer {
  name: "relu5"
  type: "ReLU"
  bottom: "conv5"
  top: "conv5"
}
layer {
  name: "pool5"
  type: "Pooling"
  bottom: "conv5"
  top: "pool5"
  pooling_param {
    pool: MAX
    kernel_size: 3
    stride: 2
  }
}
layer {
  name: "fc6"
  type: "InnerProduct"
  bottom: "pool5"
  top: "fc6"
  param {
    lr_mult: 1
    decay_mult: 1
  }
  param {
    lr_mult: 2
    decay_mult: 0
  }
  inner_product_param {
    num_output: 4096
    weight_filler {
      type: "gaussian"
      std: 0.005
    }
    bias_filler {
      type: "constant"
      value: 0.1
    }
  }
}
layer {
  name: "relu6"
  type: "ReLU"
  bottom: "fc6"
  top: "fc6"
}
layer {
  name: "drop6"
  type: "Dropout"
  bottom: "fc6"
  top: "fc6"
  dropout_param {
    dropout_ratio: 0.5
  }
}
layer {
  name: "fc7"
  type: "InnerProduct"
  bottom: "fc6"
  top: "fc7"
  param {
    lr_mult: 1
    decay_mult: 1
  }
  param {
    lr_mult: 2
    decay_mult: 0
  }
  inner_product_param {
    num_output: 4096
    weight_filler {
      type: "gaussian"
      std: 0.005
    }
    bias_filler {
      type: "constant"
      value: 0.1
    }
  }
}
layer {
  name: "relu7"
  type: "ReLU"
  bottom: "fc7"
  top: "fc7"
}
layer {
  name: "drop7"
  type: "Dropout"
  bottom: "fc7"
  top: "fc7"
  dropout_param {
    dropout_ratio: 0.5
  }
}
layer {
  name: "fc8_plantvillage"
  type: "InnerProduct"
  bottom: "fc7"
  top: "fc8_plantvillage"
  param {
    lr_mult: 1
    decay_mult: 1
  }
  param {
    lr_mult: 2
    decay_mult: 0
  }
  inner_product_param {
    num_output: 38
    weight_filler {
      type: "gaussian"
      std: 0.01
    }
    bias_filler {
      type: "constant"
      value: 0
    }
  }
}
layer {
  name: "prob"
  type: "Softmax"
  bottom: "fc8_plantvillage"
  top: "prob"
  include {
    phase: TEST
  }
}
layer {
  name: "hdf5out"
  type: "HDF5Output"
  bottom: "prob"
  bottom: "label"
  include {
    phase: TEST
  }
  hdf5_output_param {
    file_name: "hdf5_dumps/iter_6968.h5"
  }
}
layer {
  name: "loss"
  type: "SoftmaxWithLoss"
  bottom: "fc8_plantvillage"
  bottom: "label"
  top: "loss"
}
layer {
  name: "accuracy"
  type: "Accuracy"
  bottom: "fc8_plantvillage"
  bottom: "label"
  top: "accuracy"
  include {
    phase: TEST
  }
}
I0403 14:28:58.503700  1346 layer_factory.hpp:77] Creating layer data
I0403 14:28:58.504349  1346 net.cpp:91] Creating Layer data
I0403 14:28:58.504381  1346 net.cpp:399] data -> data
I0403 14:28:58.504431  1346 net.cpp:399] data -> label
I0403 14:28:58.504467  1346 data_transformer.cpp:25] Loading mean file from: /home/mohanty/data/final_dataset/lmdb/segmented-50-50/mean.binaryproto
I0403 14:28:58.507166  1349 db_lmdb.cpp:38] Opened lmdb /home/mohanty/data/final_dataset/lmdb/segmented-50-50/test_db
I0403 14:28:58.518564  1346 data_layer.cpp:41] output data size: 100,3,227,227
I0403 14:28:58.636878  1346 net.cpp:141] Setting up data
I0403 14:28:58.636984  1346 net.cpp:148] Top shape: 100 3 227 227 (15458700)
I0403 14:28:58.637006  1346 net.cpp:148] Top shape: 100 (100)
I0403 14:28:58.637022  1346 net.cpp:156] Memory required for data: 61835200
I0403 14:28:58.637048  1346 layer_factory.hpp:77] Creating layer label_data_1_split
I0403 14:28:58.637073  1346 net.cpp:91] Creating Layer label_data_1_split
I0403 14:28:58.637090  1346 net.cpp:425] label_data_1_split <- label
I0403 14:28:58.637120  1346 net.cpp:399] label_data_1_split -> label_data_1_split_0
I0403 14:28:58.637146  1346 net.cpp:399] label_data_1_split -> label_data_1_split_1
I0403 14:28:58.637166  1346 net.cpp:399] label_data_1_split -> label_data_1_split_2
I0403 14:28:58.637229  1346 net.cpp:141] Setting up label_data_1_split
I0403 14:28:58.637253  1346 net.cpp:148] Top shape: 100 (100)
I0403 14:28:58.637269  1346 net.cpp:148] Top shape: 100 (100)
I0403 14:28:58.637289  1346 net.cpp:148] Top shape: 100 (100)
I0403 14:28:58.637303  1346 net.cpp:156] Memory required for data: 61836400
I0403 14:28:58.637318  1346 layer_factory.hpp:77] Creating layer conv1
I0403 14:28:58.637349  1346 net.cpp:91] Creating Layer conv1
I0403 14:28:58.637367  1346 net.cpp:425] conv1 <- data
I0403 14:28:58.637387  1346 net.cpp:399] conv1 -> conv1
I0403 14:28:58.777084  1346 net.cpp:141] Setting up conv1
I0403 14:28:58.777148  1346 net.cpp:148] Top shape: 100 96 55 55 (29040000)
I0403 14:28:58.777163  1346 net.cpp:156] Memory required for data: 177996400
I0403 14:28:58.777194  1346 layer_factory.hpp:77] Creating layer relu1
I0403 14:28:58.777223  1346 net.cpp:91] Creating Layer relu1
I0403 14:28:58.777242  1346 net.cpp:425] relu1 <- conv1
I0403 14:28:58.777261  1346 net.cpp:386] relu1 -> conv1 (in-place)
I0403 14:28:58.777534  1346 net.cpp:141] Setting up relu1
I0403 14:28:58.777560  1346 net.cpp:148] Top shape: 100 96 55 55 (29040000)
I0403 14:28:58.777609  1346 net.cpp:156] Memory required for data: 294156400
I0403 14:28:58.777626  1346 layer_factory.hpp:77] Creating layer norm1
I0403 14:28:58.777654  1346 net.cpp:91] Creating Layer norm1
I0403 14:28:58.777673  1346 net.cpp:425] norm1 <- conv1
I0403 14:28:58.777690  1346 net.cpp:399] norm1 -> norm1
I0403 14:28:58.778038  1346 net.cpp:141] Setting up norm1
I0403 14:28:58.778069  1346 net.cpp:148] Top shape: 100 96 55 55 (29040000)
I0403 14:28:58.778085  1346 net.cpp:156] Memory required for data: 410316400
I0403 14:28:58.778101  1346 layer_factory.hpp:77] Creating layer pool1
I0403 14:28:58.778123  1346 net.cpp:91] Creating Layer pool1
I0403 14:28:58.778141  1346 net.cpp:425] pool1 <- norm1
I0403 14:28:58.778158  1346 net.cpp:399] pool1 -> pool1
I0403 14:28:58.778226  1346 net.cpp:141] Setting up pool1
I0403 14:28:58.778250  1346 net.cpp:148] Top shape: 100 96 27 27 (6998400)
I0403 14:28:58.778264  1346 net.cpp:156] Memory required for data: 438310000
I0403 14:28:58.778293  1346 layer_factory.hpp:77] Creating layer conv2
I0403 14:28:58.778321  1346 net.cpp:91] Creating Layer conv2
I0403 14:28:58.778337  1346 net.cpp:425] conv2 <- pool1
I0403 14:28:58.778358  1346 net.cpp:399] conv2 -> conv2
I0403 14:28:58.793191  1346 net.cpp:141] Setting up conv2
I0403 14:28:58.793227  1346 net.cpp:148] Top shape: 100 256 27 27 (18662400)
I0403 14:28:58.793246  1346 net.cpp:156] Memory required for data: 512959600
I0403 14:28:58.793267  1346 layer_factory.hpp:77] Creating layer relu2
I0403 14:28:58.793295  1346 net.cpp:91] Creating Layer relu2
I0403 14:28:58.793313  1346 net.cpp:425] relu2 <- conv2
I0403 14:28:58.793331  1346 net.cpp:386] relu2 -> conv2 (in-place)
I0403 14:28:58.793627  1346 net.cpp:141] Setting up relu2
I0403 14:28:58.793656  1346 net.cpp:148] Top shape: 100 256 27 27 (18662400)
I0403 14:28:58.793673  1346 net.cpp:156] Memory required for data: 587609200
I0403 14:28:58.793689  1346 layer_factory.hpp:77] Creating layer norm2
I0403 14:28:58.793710  1346 net.cpp:91] Creating Layer norm2
I0403 14:28:58.793728  1346 net.cpp:425] norm2 <- conv2
I0403 14:28:58.793746  1346 net.cpp:399] norm2 -> norm2
I0403 14:28:58.793939  1346 net.cpp:141] Setting up norm2
I0403 14:28:58.793967  1346 net.cpp:148] Top shape: 100 256 27 27 (18662400)
I0403 14:28:58.793982  1346 net.cpp:156] Memory required for data: 662258800
I0403 14:28:58.793998  1346 layer_factory.hpp:77] Creating layer pool2
I0403 14:28:58.794018  1346 net.cpp:91] Creating Layer pool2
I0403 14:28:58.794034  1346 net.cpp:425] pool2 <- norm2
I0403 14:28:58.794050  1346 net.cpp:399] pool2 -> pool2
I0403 14:28:58.794101  1346 net.cpp:141] Setting up pool2
I0403 14:28:58.794124  1346 net.cpp:148] Top shape: 100 256 13 13 (4326400)
I0403 14:28:58.794138  1346 net.cpp:156] Memory required for data: 679564400
I0403 14:28:58.794153  1346 layer_factory.hpp:77] Creating layer conv3
I0403 14:28:58.794175  1346 net.cpp:91] Creating Layer conv3
I0403 14:28:58.794193  1346 net.cpp:425] conv3 <- pool2
I0403 14:28:58.794212  1346 net.cpp:399] conv3 -> conv3
I0403 14:28:58.832893  1346 net.cpp:141] Setting up conv3
I0403 14:28:58.832964  1346 net.cpp:148] Top shape: 100 384 13 13 (6489600)
I0403 14:28:58.832984  1346 net.cpp:156] Memory required for data: 705522800
I0403 14:28:58.833010  1346 layer_factory.hpp:77] Creating layer relu3
I0403 14:28:58.833034  1346 net.cpp:91] Creating Layer relu3
I0403 14:28:58.833051  1346 net.cpp:425] relu3 <- conv3
I0403 14:28:58.833072  1346 net.cpp:386] relu3 -> conv3 (in-place)
I0403 14:28:58.833364  1346 net.cpp:141] Setting up relu3
I0403 14:28:58.833400  1346 net.cpp:148] Top shape: 100 384 13 13 (6489600)
I0403 14:28:58.833418  1346 net.cpp:156] Memory required for data: 731481200
I0403 14:28:58.833434  1346 layer_factory.hpp:77] Creating layer conv4
I0403 14:28:58.833461  1346 net.cpp:91] Creating Layer conv4
I0403 14:28:58.833479  1346 net.cpp:425] conv4 <- conv3
I0403 14:28:58.833499  1346 net.cpp:399] conv4 -> conv4
I0403 14:28:58.864902  1346 net.cpp:141] Setting up conv4
I0403 14:28:58.864943  1346 net.cpp:148] Top shape: 100 384 13 13 (6489600)
I0403 14:28:58.864992  1346 net.cpp:156] Memory required for data: 757439600
I0403 14:28:58.865015  1346 layer_factory.hpp:77] Creating layer relu4
I0403 14:28:58.865041  1346 net.cpp:91] Creating Layer relu4
I0403 14:28:58.865061  1346 net.cpp:425] relu4 <- conv4
I0403 14:28:58.865082  1346 net.cpp:386] relu4 -> conv4 (in-place)
I0403 14:28:58.865380  1346 net.cpp:141] Setting up relu4
I0403 14:28:58.865408  1346 net.cpp:148] Top shape: 100 384 13 13 (6489600)
I0403 14:28:58.865425  1346 net.cpp:156] Memory required for data: 783398000
I0403 14:28:58.865442  1346 layer_factory.hpp:77] Creating layer conv5
I0403 14:28:58.865468  1346 net.cpp:91] Creating Layer conv5
I0403 14:28:58.865488  1346 net.cpp:425] conv5 <- conv4
I0403 14:28:58.865510  1346 net.cpp:399] conv5 -> conv5
I0403 14:28:58.887208  1346 net.cpp:141] Setting up conv5
I0403 14:28:58.887248  1346 net.cpp:148] Top shape: 100 256 13 13 (4326400)
I0403 14:28:58.887267  1346 net.cpp:156] Memory required for data: 800703600
I0403 14:28:58.887300  1346 layer_factory.hpp:77] Creating layer relu5
I0403 14:28:58.887357  1346 net.cpp:91] Creating Layer relu5
I0403 14:28:58.887380  1346 net.cpp:425] relu5 <- conv5
I0403 14:28:58.887401  1346 net.cpp:386] relu5 -> conv5 (in-place)
I0403 14:28:58.887691  1346 net.cpp:141] Setting up relu5
I0403 14:28:58.887722  1346 net.cpp:148] Top shape: 100 256 13 13 (4326400)
I0403 14:28:58.887739  1346 net.cpp:156] Memory required for data: 818009200
I0403 14:28:58.887755  1346 layer_factory.hpp:77] Creating layer pool5
I0403 14:28:58.887778  1346 net.cpp:91] Creating Layer pool5
I0403 14:28:58.887794  1346 net.cpp:425] pool5 <- conv5
I0403 14:28:58.887815  1346 net.cpp:399] pool5 -> pool5
I0403 14:28:58.887879  1346 net.cpp:141] Setting up pool5
I0403 14:28:58.887907  1346 net.cpp:148] Top shape: 100 256 6 6 (921600)
I0403 14:28:58.887923  1346 net.cpp:156] Memory required for data: 821695600
I0403 14:28:58.887938  1346 layer_factory.hpp:77] Creating layer fc6
I0403 14:28:58.887966  1346 net.cpp:91] Creating Layer fc6
I0403 14:28:58.887984  1346 net.cpp:425] fc6 <- pool5
I0403 14:28:58.888005  1346 net.cpp:399] fc6 -> fc6
I0403 14:29:00.472612  1346 net.cpp:141] Setting up fc6
I0403 14:29:00.472687  1346 net.cpp:148] Top shape: 100 4096 (409600)
I0403 14:29:00.472703  1346 net.cpp:156] Memory required for data: 823334000
I0403 14:29:00.472726  1346 layer_factory.hpp:77] Creating layer relu6
I0403 14:29:00.472751  1346 net.cpp:91] Creating Layer relu6
I0403 14:29:00.472770  1346 net.cpp:425] relu6 <- fc6
I0403 14:29:00.472790  1346 net.cpp:386] relu6 -> fc6 (in-place)
I0403 14:29:00.473011  1346 net.cpp:141] Setting up relu6
I0403 14:29:00.473037  1346 net.cpp:148] Top shape: 100 4096 (409600)
I0403 14:29:00.473052  1346 net.cpp:156] Memory required for data: 824972400
I0403 14:29:00.473067  1346 layer_factory.hpp:77] Creating layer drop6
I0403 14:29:00.473088  1346 net.cpp:91] Creating Layer drop6
I0403 14:29:00.473105  1346 net.cpp:425] drop6 <- fc6
I0403 14:29:00.473124  1346 net.cpp:386] drop6 -> fc6 (in-place)
I0403 14:29:00.473177  1346 net.cpp:141] Setting up drop6
I0403 14:29:00.473201  1346 net.cpp:148] Top shape: 100 4096 (409600)
I0403 14:29:00.473215  1346 net.cpp:156] Memory required for data: 826610800
I0403 14:29:00.473230  1346 layer_factory.hpp:77] Creating layer fc7
I0403 14:29:00.473256  1346 net.cpp:91] Creating Layer fc7
I0403 14:29:00.473280  1346 net.cpp:425] fc7 <- fc6
I0403 14:29:00.473300  1346 net.cpp:399] fc7 -> fc7
I0403 14:29:01.161407  1346 net.cpp:141] Setting up fc7
I0403 14:29:01.161454  1346 net.cpp:148] Top shape: 100 4096 (409600)
I0403 14:29:01.161471  1346 net.cpp:156] Memory required for data: 828249200
I0403 14:29:01.161492  1346 layer_factory.hpp:77] Creating layer relu7
I0403 14:29:01.161525  1346 net.cpp:91] Creating Layer relu7
I0403 14:29:01.161543  1346 net.cpp:425] relu7 <- fc7
I0403 14:29:01.161561  1346 net.cpp:386] relu7 -> fc7 (in-place)
I0403 14:29:01.161983  1346 net.cpp:141] Setting up relu7
I0403 14:29:01.162011  1346 net.cpp:148] Top shape: 100 4096 (409600)
I0403 14:29:01.162044  1346 net.cpp:156] Memory required for data: 829887600
I0403 14:29:01.162060  1346 layer_factory.hpp:77] Creating layer drop7
I0403 14:29:01.162077  1346 net.cpp:91] Creating Layer drop7
I0403 14:29:01.162092  1346 net.cpp:425] drop7 <- fc7
I0403 14:29:01.162108  1346 net.cpp:386] drop7 -> fc7 (in-place)
I0403 14:29:01.162152  1346 net.cpp:141] Setting up drop7
I0403 14:29:01.162173  1346 net.cpp:148] Top shape: 100 4096 (409600)
I0403 14:29:01.162188  1346 net.cpp:156] Memory required for data: 831526000
I0403 14:29:01.162202  1346 layer_factory.hpp:77] Creating layer fc8_plantvillage
I0403 14:29:01.162222  1346 net.cpp:91] Creating Layer fc8_plantvillage
I0403 14:29:01.162238  1346 net.cpp:425] fc8_plantvillage <- fc7
I0403 14:29:01.162256  1346 net.cpp:399] fc8_plantvillage -> fc8_plantvillage
I0403 14:29:01.168895  1346 net.cpp:141] Setting up fc8_plantvillage
I0403 14:29:01.168925  1346 net.cpp:148] Top shape: 100 38 (3800)
I0403 14:29:01.168941  1346 net.cpp:156] Memory required for data: 831541200
I0403 14:29:01.168959  1346 layer_factory.hpp:77] Creating layer fc8_plantvillage_fc8_plantvillage_0_split
I0403 14:29:01.168979  1346 net.cpp:91] Creating Layer fc8_plantvillage_fc8_plantvillage_0_split
I0403 14:29:01.168995  1346 net.cpp:425] fc8_plantvillage_fc8_plantvillage_0_split <- fc8_plantvillage
I0403 14:29:01.169015  1346 net.cpp:399] fc8_plantvillage_fc8_plantvillage_0_split -> fc8_plantvillage_fc8_plantvillage_0_split_0
I0403 14:29:01.169036  1346 net.cpp:399] fc8_plantvillage_fc8_plantvillage_0_split -> fc8_plantvillage_fc8_plantvillage_0_split_1
I0403 14:29:01.169056  1346 net.cpp:399] fc8_plantvillage_fc8_plantvillage_0_split -> fc8_plantvillage_fc8_plantvillage_0_split_2
I0403 14:29:01.169131  1346 net.cpp:141] Setting up fc8_plantvillage_fc8_plantvillage_0_split
I0403 14:29:01.169155  1346 net.cpp:148] Top shape: 100 38 (3800)
I0403 14:29:01.169172  1346 net.cpp:148] Top shape: 100 38 (3800)
I0403 14:29:01.169188  1346 net.cpp:148] Top shape: 100 38 (3800)
I0403 14:29:01.169201  1346 net.cpp:156] Memory required for data: 831586800
I0403 14:29:01.169215  1346 layer_factory.hpp:77] Creating layer prob
I0403 14:29:01.169235  1346 net.cpp:91] Creating Layer prob
I0403 14:29:01.169251  1346 net.cpp:425] prob <- fc8_plantvillage_fc8_plantvillage_0_split_0
I0403 14:29:01.169270  1346 net.cpp:399] prob -> prob
I0403 14:29:01.169498  1346 net.cpp:141] Setting up prob
I0403 14:29:01.169524  1346 net.cpp:148] Top shape: 100 38 (3800)
I0403 14:29:01.169543  1346 net.cpp:156] Memory required for data: 831602000
I0403 14:29:01.169558  1346 layer_factory.hpp:77] Creating layer hdf5out
I0403 14:29:01.169576  1346 net.cpp:91] Creating Layer hdf5out
I0403 14:29:01.169592  1346 net.cpp:425] hdf5out <- prob
I0403 14:29:01.169607  1346 net.cpp:425] hdf5out <- label_data_1_split_0
I0403 14:29:01.171856  1346 net.cpp:141] Setting up hdf5out
…
