…
I0403 14:28:08.039223  1328 net.cpp:313] The NetState phase (1) differed from the phase (0) specified by a rule in layer data
I0403 14:28:08.039548  1328 net.cpp:49] Initializing net from parameters: 
state {
  phase: TEST
}
layer {
  name: "data"
  type: "Data"
  top: "data"
  top: "label"
  include {
    phase: TEST
  }
  transform_param {
    crop_size: 227
    mean_file: "/home/mohanty/data/final_dataset/lmdb/segmented-50-50/mean.binaryproto"
  }
  data_param {
    source: "/home/mohanty/data/final_dataset/lmdb/segmented-50-50/test_db"
    batch_size: 100
    backend: LMDB
  }
}
layer {
  name: "conv1"
  type: "Convolution"
  bottom: "data"
  top: "conv1"
  param {
    lr_mult: 1
    decay_mult: 1
  }
  param {
    lr_mult: 2
    decay_mult: 0
  }
  convolution_param {
    num_output: 96
    kernel_size: 11
    stride: 4
    weight_filler {
      type: "gaussian"
      std: 0.01
    }
    bias_filler {
      type: "constant"
      value: 0
    }
  }
}
layer {
  name: "relu1"
  type: "ReLU"
  bottom: "conv1"
  top: "conv1"
}
layer {
  name: "norm1"
  type: "LRN"
  bottom: "conv1"
  top: "norm1"
  lrn_param {
    local_size: 5
    alpha: 0.0001
    beta: 0.75
  }
}
layer {
  name: "pool1"
  type: "Pooling"
  bottom: "norm1"
  top: "pool1"
  pooling_param {
    pool: MAX
    kernel_size: 3
    stride: 2
  }
}
layer {
  name: "conv2"
  type: "Convolution"
  bottom: "pool1"
  top: "conv2"
  param {
    lr_mult: 1
    decay_mult: 1
  }
  param {
    lr_mult: 2
    decay_mult: 0
  }
  convolution_param {
    num_output: 256
    pad: 2
    kernel_size: 5
    group: 2
    weight_filler {
      type: "gaussian"
      std: 0.01
    }
    bias_filler {
      type: "constant"
      value: 0.1
    }
  }
}
layer {
  name: "relu2"
  type: "ReLU"
  bottom: "conv2"
  top: "conv2"
}
layer {
  name: "norm2"
  type: "LRN"
  bottom: "conv2"
  top: "norm2"
  lrn_param {
    local_size: 5
    alpha: 0.0001
    beta: 0.75
  }
}
layer {
  name: "pool2"
  type: "Pooling"
  bottom: "norm2"
  top: "pool2"
  pooling_param {
    pool: MAX
    kernel_size: 3
    stride: 2
  }
}
layer {
  name: "conv3"
  type: "Convolution"
  bottom: "pool2"
  top: "conv3"
  param {
    lr_mult: 1
    decay_mult: 1
  }
  param {
    lr_mult: 2
    decay_mult: 0
  }
  convolution_param {
    num_output: 384
    pad: 1
    kernel_size: 3
    weight_filler {
      type: "gaussian"
      std: 0.01
    }
    bias_filler {
      type: "constant"
      value: 0
    }
  }
}
layer {
  name: "relu3"
  type: "ReLU"
  bottom: "conv3"
  top: "conv3"
}
layer {
  name: "conv4"
  type: "Convolution"
  bottom: "conv3"
  top: "conv4"
  param {
    lr_mult: 1
    decay_mult: 1
  }
  param {
    lr_mult: 2
    decay_mult: 0
  }
  convolution_param {
    num_output: 384
    pad: 1
    kernel_size: 3
    group: 2
    weight_filler {
      type: "gaussian"
      std: 0.01
    }
    bias_filler {
      type: "constant"
      value: 0.1
    }
  }
}
layer {
  name: "relu4"
  type: "ReLU"
  bottom: "conv4"
  top: "conv4"
}
layer {
  name: "conv5"
  type: "Convolution"
  bottom: "conv4"
  top: "conv5"
  param {
    lr_mult: 1
    decay_mult: 1
  }
  param {
    lr_mult: 2
    decay_mult: 0
  }
  convolution_param {
    num_output: 256
    pad: 1
    kernel_size: 3
    group: 2
    weight_filler {
      type: "gaussian"
      std: 0.01
    }
    bias_filler {
      type: "constant"
      value: 0.1
    }
  }
}
layer {
  name: "relu5"
  type: "ReLU"
  bottom: "conv5"
  top: "conv5"
}
layer {
  name: "pool5"
  type: "Pooling"
  bottom: "conv5"
  top: "pool5"
  pooling_param {
    pool: MAX
    kernel_size: 3
    stride: 2
  }
}
layer {
  name: "fc6"
  type: "InnerProduct"
  bottom: "pool5"
  top: "fc6"
  param {
    lr_mult: 1
    decay_mult: 1
  }
  param {
    lr_mult: 2
    decay_mult: 0
  }
  inner_product_param {
    num_output: 4096
    weight_filler {
      type: "gaussian"
      std: 0.005
    }
    bias_filler {
      type: "constant"
      value: 0.1
    }
  }
}
layer {
  name: "relu6"
  type: "ReLU"
  bottom: "fc6"
  top: "fc6"
}
layer {
  name: "drop6"
  type: "Dropout"
  bottom: "fc6"
  top: "fc6"
  dropout_param {
    dropout_ratio: 0.5
  }
}
layer {
  name: "fc7"
  type: "InnerProduct"
  bottom: "fc6"
  top: "fc7"
  param {
    lr_mult: 1
    decay_mult: 1
  }
  param {
    lr_mult: 2
    decay_mult: 0
  }
  inner_product_param {
    num_output: 4096
    weight_filler {
      type: "gaussian"
      std: 0.005
    }
    bias_filler {
      type: "constant"
      value: 0.1
    }
  }
}
layer {
  name: "relu7"
  type: "ReLU"
  bottom: "fc7"
  top: "fc7"
}
layer {
  name: "drop7"
  type: "Dropout"
  bottom: "fc7"
  top: "fc7"
  dropout_param {
    dropout_ratio: 0.5
  }
}
layer {
  name: "fc8_plantvillage"
  type: "InnerProduct"
  bottom: "fc7"
  top: "fc8_plantvillage"
  param {
    lr_mult: 1
    decay_mult: 1
  }
  param {
    lr_mult: 2
    decay_mult: 0
  }
  inner_product_param {
    num_output: 38
    weight_filler {
      type: "gaussian"
      std: 0.01
    }
    bias_filler {
      type: "constant"
      value: 0
    }
  }
}
layer {
  name: "prob"
  type: "Softmax"
  bottom: "fc8_plantvillage"
  top: "prob"
  include {
    phase: TEST
  }
}
layer {
  name: "hdf5out"
  type: "HDF5Output"
  bottom: "prob"
  bottom: "label"
  include {
    phase: TEST
  }
  hdf5_output_param {
    file_name: "hdf5_dumps/iter_6700.h5"
  }
}
layer {
  name: "loss"
  type: "SoftmaxWithLoss"
  bottom: "fc8_plantvillage"
  bottom: "label"
  top: "loss"
}
layer {
  name: "accuracy"
  type: "Accuracy"
  bottom: "fc8_plantvillage"
  bottom: "label"
  top: "accuracy"
  include {
    phase: TEST
  }
}
I0403 14:28:08.040105  1328 layer_factory.hpp:77] Creating layer data
I0403 14:28:08.040766  1328 net.cpp:91] Creating Layer data
I0403 14:28:08.040797  1328 net.cpp:399] data -> data
I0403 14:28:08.040849  1328 net.cpp:399] data -> label
I0403 14:28:08.040886  1328 data_transformer.cpp:25] Loading mean file from: /home/mohanty/data/final_dataset/lmdb/segmented-50-50/mean.binaryproto
I0403 14:28:08.043895  1332 db_lmdb.cpp:38] Opened lmdb /home/mohanty/data/final_dataset/lmdb/segmented-50-50/test_db
I0403 14:28:08.055313  1328 data_layer.cpp:41] output data size: 100,3,227,227
I0403 14:28:08.178374  1328 net.cpp:141] Setting up data
I0403 14:28:08.178433  1328 net.cpp:148] Top shape: 100 3 227 227 (15458700)
I0403 14:28:08.178457  1328 net.cpp:148] Top shape: 100 (100)
I0403 14:28:08.178474  1328 net.cpp:156] Memory required for data: 61835200
I0403 14:28:08.178503  1328 layer_factory.hpp:77] Creating layer label_data_1_split
I0403 14:28:08.178529  1328 net.cpp:91] Creating Layer label_data_1_split
I0403 14:28:08.178550  1328 net.cpp:425] label_data_1_split <- label
I0403 14:28:08.178581  1328 net.cpp:399] label_data_1_split -> label_data_1_split_0
I0403 14:28:08.178608  1328 net.cpp:399] label_data_1_split -> label_data_1_split_1
I0403 14:28:08.178629  1328 net.cpp:399] label_data_1_split -> label_data_1_split_2
I0403 14:28:08.178692  1328 net.cpp:141] Setting up label_data_1_split
I0403 14:28:08.178715  1328 net.cpp:148] Top shape: 100 (100)
I0403 14:28:08.178732  1328 net.cpp:148] Top shape: 100 (100)
I0403 14:28:08.178750  1328 net.cpp:148] Top shape: 100 (100)
I0403 14:28:08.178763  1328 net.cpp:156] Memory required for data: 61836400
I0403 14:28:08.178778  1328 layer_factory.hpp:77] Creating layer conv1
I0403 14:28:08.178810  1328 net.cpp:91] Creating Layer conv1
I0403 14:28:08.178829  1328 net.cpp:425] conv1 <- data
I0403 14:28:08.178849  1328 net.cpp:399] conv1 -> conv1
I0403 14:28:08.322875  1328 net.cpp:141] Setting up conv1
I0403 14:28:08.322965  1328 net.cpp:148] Top shape: 100 96 55 55 (29040000)
I0403 14:28:08.322984  1328 net.cpp:156] Memory required for data: 177996400
I0403 14:28:08.323016  1328 layer_factory.hpp:77] Creating layer relu1
I0403 14:28:08.323046  1328 net.cpp:91] Creating Layer relu1
I0403 14:28:08.323067  1328 net.cpp:425] relu1 <- conv1
I0403 14:28:08.323088  1328 net.cpp:386] relu1 -> conv1 (in-place)
I0403 14:28:08.323366  1328 net.cpp:141] Setting up relu1
I0403 14:28:08.323395  1328 net.cpp:148] Top shape: 100 96 55 55 (29040000)
I0403 14:28:08.323446  1328 net.cpp:156] Memory required for data: 294156400
I0403 14:28:08.323464  1328 layer_factory.hpp:77] Creating layer norm1
I0403 14:28:08.323493  1328 net.cpp:91] Creating Layer norm1
I0403 14:28:08.323511  1328 net.cpp:425] norm1 <- conv1
I0403 14:28:08.323531  1328 net.cpp:399] norm1 -> norm1
I0403 14:28:08.323886  1328 net.cpp:141] Setting up norm1
I0403 14:28:08.323915  1328 net.cpp:148] Top shape: 100 96 55 55 (29040000)
I0403 14:28:08.323932  1328 net.cpp:156] Memory required for data: 410316400
I0403 14:28:08.323950  1328 layer_factory.hpp:77] Creating layer pool1
I0403 14:28:08.323973  1328 net.cpp:91] Creating Layer pool1
I0403 14:28:08.323992  1328 net.cpp:425] pool1 <- norm1
I0403 14:28:08.324012  1328 net.cpp:399] pool1 -> pool1
I0403 14:28:08.324081  1328 net.cpp:141] Setting up pool1
I0403 14:28:08.324107  1328 net.cpp:148] Top shape: 100 96 27 27 (6998400)
I0403 14:28:08.324123  1328 net.cpp:156] Memory required for data: 438310000
I0403 14:28:08.324139  1328 layer_factory.hpp:77] Creating layer conv2
I0403 14:28:08.324164  1328 net.cpp:91] Creating Layer conv2
I0403 14:28:08.324182  1328 net.cpp:425] conv2 <- pool1
I0403 14:28:08.324201  1328 net.cpp:399] conv2 -> conv2
I0403 14:28:08.339834  1328 net.cpp:141] Setting up conv2
I0403 14:28:08.339895  1328 net.cpp:148] Top shape: 100 256 27 27 (18662400)
I0403 14:28:08.339913  1328 net.cpp:156] Memory required for data: 512959600
I0403 14:28:08.339938  1328 layer_factory.hpp:77] Creating layer relu2
I0403 14:28:08.339961  1328 net.cpp:91] Creating Layer relu2
I0403 14:28:08.339978  1328 net.cpp:425] relu2 <- conv2
I0403 14:28:08.339998  1328 net.cpp:386] relu2 -> conv2 (in-place)
I0403 14:28:08.340291  1328 net.cpp:141] Setting up relu2
I0403 14:28:08.340320  1328 net.cpp:148] Top shape: 100 256 27 27 (18662400)
I0403 14:28:08.340338  1328 net.cpp:156] Memory required for data: 587609200
I0403 14:28:08.340355  1328 layer_factory.hpp:77] Creating layer norm2
I0403 14:28:08.340378  1328 net.cpp:91] Creating Layer norm2
I0403 14:28:08.340401  1328 net.cpp:425] norm2 <- conv2
I0403 14:28:08.340422  1328 net.cpp:399] norm2 -> norm2
I0403 14:28:08.340659  1328 net.cpp:141] Setting up norm2
I0403 14:28:08.340687  1328 net.cpp:148] Top shape: 100 256 27 27 (18662400)
I0403 14:28:08.340703  1328 net.cpp:156] Memory required for data: 662258800
I0403 14:28:08.340719  1328 layer_factory.hpp:77] Creating layer pool2
I0403 14:28:08.340741  1328 net.cpp:91] Creating Layer pool2
I0403 14:28:08.340759  1328 net.cpp:425] pool2 <- norm2
I0403 14:28:08.340778  1328 net.cpp:399] pool2 -> pool2
I0403 14:28:08.340834  1328 net.cpp:141] Setting up pool2
I0403 14:28:08.340858  1328 net.cpp:148] Top shape: 100 256 13 13 (4326400)
I0403 14:28:08.340874  1328 net.cpp:156] Memory required for data: 679564400
I0403 14:28:08.340889  1328 layer_factory.hpp:77] Creating layer conv3
I0403 14:28:08.340915  1328 net.cpp:91] Creating Layer conv3
I0403 14:28:08.340934  1328 net.cpp:425] conv3 <- pool2
I0403 14:28:08.340956  1328 net.cpp:399] conv3 -> conv3
I0403 14:28:08.380367  1328 net.cpp:141] Setting up conv3
I0403 14:28:08.380431  1328 net.cpp:148] Top shape: 100 384 13 13 (6489600)
I0403 14:28:08.380450  1328 net.cpp:156] Memory required for data: 705522800
I0403 14:28:08.380480  1328 layer_factory.hpp:77] Creating layer relu3
I0403 14:28:08.380503  1328 net.cpp:91] Creating Layer relu3
I0403 14:28:08.380522  1328 net.cpp:425] relu3 <- conv3
I0403 14:28:08.380542  1328 net.cpp:386] relu3 -> conv3 (in-place)
I0403 14:28:08.380823  1328 net.cpp:141] Setting up relu3
I0403 14:28:08.380852  1328 net.cpp:148] Top shape: 100 384 13 13 (6489600)
I0403 14:28:08.380869  1328 net.cpp:156] Memory required for data: 731481200
I0403 14:28:08.380885  1328 layer_factory.hpp:77] Creating layer conv4
I0403 14:28:08.380908  1328 net.cpp:91] Creating Layer conv4
I0403 14:28:08.380926  1328 net.cpp:425] conv4 <- conv3
I0403 14:28:08.380949  1328 net.cpp:399] conv4 -> conv4
I0403 14:28:08.411738  1328 net.cpp:141] Setting up conv4
I0403 14:28:08.411801  1328 net.cpp:148] Top shape: 100 384 13 13 (6489600)
I0403 14:28:08.411852  1328 net.cpp:156] Memory required for data: 757439600
I0403 14:28:08.411877  1328 layer_factory.hpp:77] Creating layer relu4
I0403 14:28:08.411903  1328 net.cpp:91] Creating Layer relu4
I0403 14:28:08.411924  1328 net.cpp:425] relu4 <- conv4
I0403 14:28:08.411945  1328 net.cpp:386] relu4 -> conv4 (in-place)
I0403 14:28:08.412248  1328 net.cpp:141] Setting up relu4
I0403 14:28:08.412276  1328 net.cpp:148] Top shape: 100 384 13 13 (6489600)
I0403 14:28:08.412293  1328 net.cpp:156] Memory required for data: 783398000
I0403 14:28:08.412309  1328 layer_factory.hpp:77] Creating layer conv5
I0403 14:28:08.412335  1328 net.cpp:91] Creating Layer conv5
I0403 14:28:08.412354  1328 net.cpp:425] conv5 <- conv4
I0403 14:28:08.412376  1328 net.cpp:399] conv5 -> conv5
I0403 14:28:08.434093  1328 net.cpp:141] Setting up conv5
I0403 14:28:08.434159  1328 net.cpp:148] Top shape: 100 256 13 13 (4326400)
I0403 14:28:08.434175  1328 net.cpp:156] Memory required for data: 800703600
I0403 14:28:08.434202  1328 layer_factory.hpp:77] Creating layer relu5
I0403 14:28:08.434231  1328 net.cpp:91] Creating Layer relu5
I0403 14:28:08.434257  1328 net.cpp:425] relu5 <- conv5
I0403 14:28:08.434278  1328 net.cpp:386] relu5 -> conv5 (in-place)
I0403 14:28:08.434569  1328 net.cpp:141] Setting up relu5
I0403 14:28:08.434599  1328 net.cpp:148] Top shape: 100 256 13 13 (4326400)
I0403 14:28:08.434617  1328 net.cpp:156] Memory required for data: 818009200
I0403 14:28:08.434633  1328 layer_factory.hpp:77] Creating layer pool5
I0403 14:28:08.434659  1328 net.cpp:91] Creating Layer pool5
I0403 14:28:08.434677  1328 net.cpp:425] pool5 <- conv5
I0403 14:28:08.434700  1328 net.cpp:399] pool5 -> pool5
I0403 14:28:08.434763  1328 net.cpp:141] Setting up pool5
I0403 14:28:08.434787  1328 net.cpp:148] Top shape: 100 256 6 6 (921600)
I0403 14:28:08.434809  1328 net.cpp:156] Memory required for data: 821695600
I0403 14:28:08.434826  1328 layer_factory.hpp:77] Creating layer fc6
I0403 14:28:08.434861  1328 net.cpp:91] Creating Layer fc6
I0403 14:28:08.434881  1328 net.cpp:425] fc6 <- pool5
I0403 14:28:08.434902  1328 net.cpp:399] fc6 -> fc6
I0403 14:28:09.988780  1328 net.cpp:141] Setting up fc6
I0403 14:28:09.988836  1328 net.cpp:148] Top shape: 100 4096 (409600)
I0403 14:28:09.988853  1328 net.cpp:156] Memory required for data: 823334000
I0403 14:28:09.988875  1328 layer_factory.hpp:77] Creating layer relu6
I0403 14:28:09.988900  1328 net.cpp:91] Creating Layer relu6
I0403 14:28:09.988920  1328 net.cpp:425] relu6 <- fc6
I0403 14:28:09.988941  1328 net.cpp:386] relu6 -> fc6 (in-place)
I0403 14:28:09.989156  1328 net.cpp:141] Setting up relu6
I0403 14:28:09.989181  1328 net.cpp:148] Top shape: 100 4096 (409600)
I0403 14:28:09.989195  1328 net.cpp:156] Memory required for data: 824972400
I0403 14:28:09.989209  1328 layer_factory.hpp:77] Creating layer drop6
I0403 14:28:09.989230  1328 net.cpp:91] Creating Layer drop6
I0403 14:28:09.989253  1328 net.cpp:425] drop6 <- fc6
I0403 14:28:09.989271  1328 net.cpp:386] drop6 -> fc6 (in-place)
I0403 14:28:09.989323  1328 net.cpp:141] Setting up drop6
I0403 14:28:09.989346  1328 net.cpp:148] Top shape: 100 4096 (409600)
I0403 14:28:09.989361  1328 net.cpp:156] Memory required for data: 826610800
I0403 14:28:09.989375  1328 layer_factory.hpp:77] Creating layer fc7
I0403 14:28:09.989395  1328 net.cpp:91] Creating Layer fc7
I0403 14:28:09.989410  1328 net.cpp:425] fc7 <- fc6
I0403 14:28:09.989431  1328 net.cpp:399] fc7 -> fc7
I0403 14:28:10.666455  1328 net.cpp:141] Setting up fc7
I0403 14:28:10.666514  1328 net.cpp:148] Top shape: 100 4096 (409600)
I0403 14:28:10.666534  1328 net.cpp:156] Memory required for data: 828249200
I0403 14:28:10.666555  1328 layer_factory.hpp:77] Creating layer relu7
I0403 14:28:10.666577  1328 net.cpp:91] Creating Layer relu7
I0403 14:28:10.666596  1328 net.cpp:425] relu7 <- fc7
I0403 14:28:10.666616  1328 net.cpp:386] relu7 -> fc7 (in-place)
I0403 14:28:10.667031  1328 net.cpp:141] Setting up relu7
I0403 14:28:10.667057  1328 net.cpp:148] Top shape: 100 4096 (409600)
I0403 14:28:10.667093  1328 net.cpp:156] Memory required for data: 829887600
I0403 14:28:10.667109  1328 layer_factory.hpp:77] Creating layer drop7
I0403 14:28:10.667131  1328 net.cpp:91] Creating Layer drop7
I0403 14:28:10.667148  1328 net.cpp:425] drop7 <- fc7
I0403 14:28:10.667165  1328 net.cpp:386] drop7 -> fc7 (in-place)
I0403 14:28:10.667209  1328 net.cpp:141] Setting up drop7
I0403 14:28:10.667232  1328 net.cpp:148] Top shape: 100 4096 (409600)
I0403 14:28:10.667253  1328 net.cpp:156] Memory required for data: 831526000
I0403 14:28:10.667268  1328 layer_factory.hpp:77] Creating layer fc8_plantvillage
I0403 14:28:10.667291  1328 net.cpp:91] Creating Layer fc8_plantvillage
I0403 14:28:10.667307  1328 net.cpp:425] fc8_plantvillage <- fc7
I0403 14:28:10.667327  1328 net.cpp:399] fc8_plantvillage -> fc8_plantvillage
I0403 14:28:10.673871  1328 net.cpp:141] Setting up fc8_plantvillage
I0403 14:28:10.673900  1328 net.cpp:148] Top shape: 100 38 (3800)
I0403 14:28:10.673918  1328 net.cpp:156] Memory required for data: 831541200
I0403 14:28:10.673936  1328 layer_factory.hpp:77] Creating layer fc8_plantvillage_fc8_plantvillage_0_split
I0403 14:28:10.673956  1328 net.cpp:91] Creating Layer fc8_plantvillage_fc8_plantvillage_0_split
I0403 14:28:10.673974  1328 net.cpp:425] fc8_plantvillage_fc8_plantvillage_0_split <- fc8_plantvillage
I0403 14:28:10.673995  1328 net.cpp:399] fc8_plantvillage_fc8_plantvillage_0_split -> fc8_plantvillage_fc8_plantvillage_0_split_0
I0403 14:28:10.674017  1328 net.cpp:399] fc8_plantvillage_fc8_plantvillage_0_split -> fc8_plantvillage_fc8_plantvillage_0_split_1
I0403 14:28:10.674038  1328 net.cpp:399] fc8_plantvillage_fc8_plantvillage_0_split -> fc8_plantvillage_fc8_plantvillage_0_split_2
I0403 14:28:10.674114  1328 net.cpp:141] Setting up fc8_plantvillage_fc8_plantvillage_0_split
I0403 14:28:10.674139  1328 net.cpp:148] Top shape: 100 38 (3800)
I0403 14:28:10.674155  1328 net.cpp:148] Top shape: 100 38 (3800)
I0403 14:28:10.674171  1328 net.cpp:148] Top shape: 100 38 (3800)
I0403 14:28:10.674185  1328 net.cpp:156] Memory required for data: 831586800
I0403 14:28:10.674198  1328 layer_factory.hpp:77] Creating layer prob
I0403 14:28:10.674219  1328 net.cpp:91] Creating Layer prob
I0403 14:28:10.674235  1328 net.cpp:425] prob <- fc8_plantvillage_fc8_plantvillage_0_split_0
I0403 14:28:10.674259  1328 net.cpp:399] prob -> prob
I0403 14:28:10.674482  1328 net.cpp:141] Setting up prob
I0403 14:28:10.674507  1328 net.cpp:148] Top shape: 100 38 (3800)
I0403 14:28:10.674521  1328 net.cpp:156] Memory required for data: 831602000
I0403 14:28:10.674536  1328 layer_factory.hpp:77] Creating layer hdf5out
I0403 14:28:10.674556  1328 net.cpp:91] Creating Layer hdf5out
I0403 14:28:10.674572  1328 net.cpp:425] hdf5out <- prob
I0403 14:28:10.674588  1328 net.cpp:425] hdf5out <- label_data_1_split_0
I0403 14:28:10.676900  1328 net.cpp:141] Setting up hdf5out
…
