…
I0403 14:31:29.679647  1411 net.cpp:313] The NetState phase (1) differed from the phase (0) specified by a rule in layer data
I0403 14:31:29.679935  1411 net.cpp:49] Initializing net from parameters: 
state {
  phase: TEST
}
layer {
  name: "data"
  type: "Data"
  top: "data"
  top: "label"
  include {
    phase: TEST
  }
  transform_param {
    crop_size: 227
    mean_file: "/home/mohanty/data/final_dataset/lmdb/segmented-50-50/mean.binaryproto"
  }
  data_param {
    source: "/home/mohanty/data/final_dataset/lmdb/segmented-50-50/test_db"
    batch_size: 100
    backend: LMDB
  }
}
layer {
  name: "conv1"
  type: "Convolution"
  bottom: "data"
  top: "conv1"
  param {
    lr_mult: 1
    decay_mult: 1
  }
  param {
    lr_mult: 2
    decay_mult: 0
  }
  convolution_param {
    num_output: 96
    kernel_size: 11
    stride: 4
    weight_filler {
      type: "gaussian"
      std: 0.01
    }
    bias_filler {
      type: "constant"
      value: 0
    }
  }
}
layer {
  name: "relu1"
  type: "ReLU"
  bottom: "conv1"
  top: "conv1"
}
layer {
  name: "norm1"
  type: "LRN"
  bottom: "conv1"
  top: "norm1"
  lrn_param {
    local_size: 5
    alpha: 0.0001
    beta: 0.75
  }
}
layer {
  name: "pool1"
  type: "Pooling"
  bottom: "norm1"
  top: "pool1"
  pooling_param {
    pool: MAX
    kernel_size: 3
    stride: 2
  }
}
layer {
  name: "conv2"
  type: "Convolution"
  bottom: "pool1"
  top: "conv2"
  param {
    lr_mult: 1
    decay_mult: 1
  }
  param {
    lr_mult: 2
    decay_mult: 0
  }
  convolution_param {
    num_output: 256
    pad: 2
    kernel_size: 5
    group: 2
    weight_filler {
      type: "gaussian"
      std: 0.01
    }
    bias_filler {
      type: "constant"
      value: 0.1
    }
  }
}
layer {
  name: "relu2"
  type: "ReLU"
  bottom: "conv2"
  top: "conv2"
}
layer {
  name: "norm2"
  type: "LRN"
  bottom: "conv2"
  top: "norm2"
  lrn_param {
    local_size: 5
    alpha: 0.0001
    beta: 0.75
  }
}
layer {
  name: "pool2"
  type: "Pooling"
  bottom: "norm2"
  top: "pool2"
  pooling_param {
    pool: MAX
    kernel_size: 3
    stride: 2
  }
}
layer {
  name: "conv3"
  type: "Convolution"
  bottom: "pool2"
  top: "conv3"
  param {
    lr_mult: 1
    decay_mult: 1
  }
  param {
    lr_mult: 2
    decay_mult: 0
  }
  convolution_param {
    num_output: 384
    pad: 1
    kernel_size: 3
    weight_filler {
      type: "gaussian"
      std: 0.01
    }
    bias_filler {
      type: "constant"
      value: 0
    }
  }
}
layer {
  name: "relu3"
  type: "ReLU"
  bottom: "conv3"
  top: "conv3"
}
layer {
  name: "conv4"
  type: "Convolution"
  bottom: "conv3"
  top: "conv4"
  param {
    lr_mult: 1
    decay_mult: 1
  }
  param {
    lr_mult: 2
    decay_mult: 0
  }
  convolution_param {
    num_output: 384
    pad: 1
    kernel_size: 3
    group: 2
    weight_filler {
      type: "gaussian"
      std: 0.01
    }
    bias_filler {
      type: "constant"
      value: 0.1
    }
  }
}
layer {
  name: "relu4"
  type: "ReLU"
  bottom: "conv4"
  top: "conv4"
}
layer {
  name: "conv5"
  type: "Convolution"
  bottom: "conv4"
  top: "conv5"
  param {
    lr_mult: 1
    decay_mult: 1
  }
  param {
    lr_mult: 2
    decay_mult: 0
  }
  convolution_param {
    num_output: 256
    pad: 1
    kernel_size: 3
    group: 2
    weight_filler {
      type: "gaussian"
      std: 0.01
    }
    bias_filler {
      type: "constant"
      value: 0.1
    }
  }
}
layer {
  name: "relu5"
  type: "ReLU"
  bottom: "conv5"
  top: "conv5"
}
layer {
  name: "pool5"
  type: "Pooling"
  bottom: "conv5"
  top: "pool5"
  pooling_param {
    pool: MAX
    kernel_size: 3
    stride: 2
  }
}
layer {
  name: "fc6"
  type: "InnerProduct"
  bottom: "pool5"
  top: "fc6"
  param {
    lr_mult: 1
    decay_mult: 1
  }
  param {
    lr_mult: 2
    decay_mult: 0
  }
  inner_product_param {
    num_output: 4096
    weight_filler {
      type: "gaussian"
      std: 0.005
    }
    bias_filler {
      type: "constant"
      value: 0.1
    }
  }
}
layer {
  name: "relu6"
  type: "ReLU"
  bottom: "fc6"
  top: "fc6"
}
layer {
  name: "drop6"
  type: "Dropout"
  bottom: "fc6"
  top: "fc6"
  dropout_param {
    dropout_ratio: 0.5
  }
}
layer {
  name: "fc7"
  type: "InnerProduct"
  bottom: "fc6"
  top: "fc7"
  param {
    lr_mult: 1
    decay_mult: 1
  }
  param {
    lr_mult: 2
    decay_mult: 0
  }
  inner_product_param {
    num_output: 4096
    weight_filler {
      type: "gaussian"
      std: 0.005
    }
    bias_filler {
      type: "constant"
      value: 0.1
    }
  }
}
layer {
  name: "relu7"
  type: "ReLU"
  bottom: "fc7"
  top: "fc7"
}
layer {
  name: "drop7"
  type: "Dropout"
  bottom: "fc7"
  top: "fc7"
  dropout_param {
    dropout_ratio: 0.5
  }
}
layer {
  name: "fc8_plantvillage"
  type: "InnerProduct"
  bottom: "fc7"
  top: "fc8_plantvillage"
  param {
    lr_mult: 1
    decay_mult: 1
  }
  param {
    lr_mult: 2
    decay_mult: 0
  }
  inner_product_param {
    num_output: 38
    weight_filler {
      type: "gaussian"
      std: 0.01
    }
    bias_filler {
      type: "constant"
      value: 0
    }
  }
}
layer {
  name: "prob"
  type: "Softmax"
  bottom: "fc8_plantvillage"
  top: "prob"
  include {
    phase: TEST
  }
}
layer {
  name: "hdf5out"
  type: "HDF5Output"
  bottom: "prob"
  bottom: "label"
  include {
    phase: TEST
  }
  hdf5_output_param {
    file_name: "hdf5_dumps/iter_7772.h5"
  }
}
layer {
  name: "loss"
  type: "SoftmaxWithLoss"
  bottom: "fc8_plantvillage"
  bottom: "label"
  top: "loss"
}
layer {
  name: "accuracy"
  type: "Accuracy"
  bottom: "fc8_plantvillage"
  bottom: "label"
  top: "accuracy"
  include {
    phase: TEST
  }
}
I0403 14:31:29.680455  1411 layer_factory.hpp:77] Creating layer data
I0403 14:31:29.681062  1411 net.cpp:91] Creating Layer data
I0403 14:31:29.681092  1411 net.cpp:399] data -> data
I0403 14:31:29.681141  1411 net.cpp:399] data -> label
I0403 14:31:29.681177  1411 data_transformer.cpp:25] Loading mean file from: /home/mohanty/data/final_dataset/lmdb/segmented-50-50/mean.binaryproto
I0403 14:31:29.683878  1414 db_lmdb.cpp:38] Opened lmdb /home/mohanty/data/final_dataset/lmdb/segmented-50-50/test_db
I0403 14:31:29.695369  1411 data_layer.cpp:41] output data size: 100,3,227,227
I0403 14:31:29.814832  1411 net.cpp:141] Setting up data
I0403 14:31:29.814939  1411 net.cpp:148] Top shape: 100 3 227 227 (15458700)
I0403 14:31:29.814961  1411 net.cpp:148] Top shape: 100 (100)
I0403 14:31:29.814976  1411 net.cpp:156] Memory required for data: 61835200
I0403 14:31:29.815003  1411 layer_factory.hpp:77] Creating layer label_data_1_split
I0403 14:31:29.815028  1411 net.cpp:91] Creating Layer label_data_1_split
I0403 14:31:29.815045  1411 net.cpp:425] label_data_1_split <- label
I0403 14:31:29.815075  1411 net.cpp:399] label_data_1_split -> label_data_1_split_0
I0403 14:31:29.815102  1411 net.cpp:399] label_data_1_split -> label_data_1_split_1
I0403 14:31:29.815124  1411 net.cpp:399] label_data_1_split -> label_data_1_split_2
I0403 14:31:29.815186  1411 net.cpp:141] Setting up label_data_1_split
I0403 14:31:29.815210  1411 net.cpp:148] Top shape: 100 (100)
I0403 14:31:29.815227  1411 net.cpp:148] Top shape: 100 (100)
I0403 14:31:29.815246  1411 net.cpp:148] Top shape: 100 (100)
I0403 14:31:29.815261  1411 net.cpp:156] Memory required for data: 61836400
I0403 14:31:29.815277  1411 layer_factory.hpp:77] Creating layer conv1
I0403 14:31:29.815309  1411 net.cpp:91] Creating Layer conv1
I0403 14:31:29.815327  1411 net.cpp:425] conv1 <- data
I0403 14:31:29.815346  1411 net.cpp:399] conv1 -> conv1
I0403 14:31:29.954630  1411 net.cpp:141] Setting up conv1
I0403 14:31:29.954716  1411 net.cpp:148] Top shape: 100 96 55 55 (29040000)
I0403 14:31:29.954735  1411 net.cpp:156] Memory required for data: 177996400
I0403 14:31:29.954766  1411 layer_factory.hpp:77] Creating layer relu1
I0403 14:31:29.954794  1411 net.cpp:91] Creating Layer relu1
I0403 14:31:29.954813  1411 net.cpp:425] relu1 <- conv1
I0403 14:31:29.954831  1411 net.cpp:386] relu1 -> conv1 (in-place)
I0403 14:31:29.955096  1411 net.cpp:141] Setting up relu1
I0403 14:31:29.955123  1411 net.cpp:148] Top shape: 100 96 55 55 (29040000)
I0403 14:31:29.955170  1411 net.cpp:156] Memory required for data: 294156400
I0403 14:31:29.955188  1411 layer_factory.hpp:77] Creating layer norm1
I0403 14:31:29.955215  1411 net.cpp:91] Creating Layer norm1
I0403 14:31:29.955234  1411 net.cpp:425] norm1 <- conv1
I0403 14:31:29.955257  1411 net.cpp:399] norm1 -> norm1
I0403 14:31:29.955574  1411 net.cpp:141] Setting up norm1
I0403 14:31:29.955602  1411 net.cpp:148] Top shape: 100 96 55 55 (29040000)
I0403 14:31:29.955617  1411 net.cpp:156] Memory required for data: 410316400
I0403 14:31:29.955633  1411 layer_factory.hpp:77] Creating layer pool1
I0403 14:31:29.955657  1411 net.cpp:91] Creating Layer pool1
I0403 14:31:29.955674  1411 net.cpp:425] pool1 <- norm1
I0403 14:31:29.955693  1411 net.cpp:399] pool1 -> pool1
I0403 14:31:29.955760  1411 net.cpp:141] Setting up pool1
I0403 14:31:29.955808  1411 net.cpp:148] Top shape: 100 96 27 27 (6998400)
I0403 14:31:29.955828  1411 net.cpp:156] Memory required for data: 438310000
I0403 14:31:29.955844  1411 layer_factory.hpp:77] Creating layer conv2
I0403 14:31:29.955868  1411 net.cpp:91] Creating Layer conv2
I0403 14:31:29.955886  1411 net.cpp:425] conv2 <- pool1
I0403 14:31:29.955904  1411 net.cpp:399] conv2 -> conv2
I0403 14:31:29.971453  1411 net.cpp:141] Setting up conv2
I0403 14:31:29.971494  1411 net.cpp:148] Top shape: 100 256 27 27 (18662400)
I0403 14:31:29.971511  1411 net.cpp:156] Memory required for data: 512959600
I0403 14:31:29.971534  1411 layer_factory.hpp:77] Creating layer relu2
I0403 14:31:29.971555  1411 net.cpp:91] Creating Layer relu2
I0403 14:31:29.971572  1411 net.cpp:425] relu2 <- conv2
I0403 14:31:29.971590  1411 net.cpp:386] relu2 -> conv2 (in-place)
I0403 14:31:29.971860  1411 net.cpp:141] Setting up relu2
I0403 14:31:29.971889  1411 net.cpp:148] Top shape: 100 256 27 27 (18662400)
I0403 14:31:29.971904  1411 net.cpp:156] Memory required for data: 587609200
I0403 14:31:29.971920  1411 layer_factory.hpp:77] Creating layer norm2
I0403 14:31:29.971941  1411 net.cpp:91] Creating Layer norm2
I0403 14:31:29.971957  1411 net.cpp:425] norm2 <- conv2
I0403 14:31:29.971976  1411 net.cpp:399] norm2 -> norm2
I0403 14:31:29.972165  1411 net.cpp:141] Setting up norm2
I0403 14:31:29.972193  1411 net.cpp:148] Top shape: 100 256 27 27 (18662400)
I0403 14:31:29.972208  1411 net.cpp:156] Memory required for data: 662258800
I0403 14:31:29.972224  1411 layer_factory.hpp:77] Creating layer pool2
I0403 14:31:29.972254  1411 net.cpp:91] Creating Layer pool2
I0403 14:31:29.972273  1411 net.cpp:425] pool2 <- norm2
I0403 14:31:29.972292  1411 net.cpp:399] pool2 -> pool2
I0403 14:31:29.972343  1411 net.cpp:141] Setting up pool2
I0403 14:31:29.972368  1411 net.cpp:148] Top shape: 100 256 13 13 (4326400)
I0403 14:31:29.972383  1411 net.cpp:156] Memory required for data: 679564400
I0403 14:31:29.972398  1411 layer_factory.hpp:77] Creating layer conv3
I0403 14:31:29.972420  1411 net.cpp:91] Creating Layer conv3
I0403 14:31:29.972436  1411 net.cpp:425] conv3 <- pool2
I0403 14:31:29.972455  1411 net.cpp:399] conv3 -> conv3
I0403 14:31:30.011576  1411 net.cpp:141] Setting up conv3
I0403 14:31:30.011708  1411 net.cpp:148] Top shape: 100 384 13 13 (6489600)
I0403 14:31:30.011728  1411 net.cpp:156] Memory required for data: 705522800
I0403 14:31:30.011754  1411 layer_factory.hpp:77] Creating layer relu3
I0403 14:31:30.011775  1411 net.cpp:91] Creating Layer relu3
I0403 14:31:30.011793  1411 net.cpp:425] relu3 <- conv3
I0403 14:31:30.011816  1411 net.cpp:386] relu3 -> conv3 (in-place)
I0403 14:31:30.012096  1411 net.cpp:141] Setting up relu3
I0403 14:31:30.012128  1411 net.cpp:148] Top shape: 100 384 13 13 (6489600)
I0403 14:31:30.012145  1411 net.cpp:156] Memory required for data: 731481200
I0403 14:31:30.012161  1411 layer_factory.hpp:77] Creating layer conv4
I0403 14:31:30.012187  1411 net.cpp:91] Creating Layer conv4
I0403 14:31:30.012204  1411 net.cpp:425] conv4 <- conv3
I0403 14:31:30.012223  1411 net.cpp:399] conv4 -> conv4
I0403 14:31:30.042309  1411 net.cpp:141] Setting up conv4
I0403 14:31:30.042371  1411 net.cpp:148] Top shape: 100 384 13 13 (6489600)
I0403 14:31:30.042415  1411 net.cpp:156] Memory required for data: 757439600
I0403 14:31:30.042438  1411 layer_factory.hpp:77] Creating layer relu4
I0403 14:31:30.042460  1411 net.cpp:91] Creating Layer relu4
I0403 14:31:30.042479  1411 net.cpp:425] relu4 <- conv4
I0403 14:31:30.042497  1411 net.cpp:386] relu4 -> conv4 (in-place)
I0403 14:31:30.042775  1411 net.cpp:141] Setting up relu4
I0403 14:31:30.042801  1411 net.cpp:148] Top shape: 100 384 13 13 (6489600)
I0403 14:31:30.042816  1411 net.cpp:156] Memory required for data: 783398000
I0403 14:31:30.042831  1411 layer_factory.hpp:77] Creating layer conv5
I0403 14:31:30.042857  1411 net.cpp:91] Creating Layer conv5
I0403 14:31:30.042875  1411 net.cpp:425] conv5 <- conv4
I0403 14:31:30.042893  1411 net.cpp:399] conv5 -> conv5
I0403 14:31:30.063227  1411 net.cpp:141] Setting up conv5
I0403 14:31:30.063269  1411 net.cpp:148] Top shape: 100 256 13 13 (4326400)
I0403 14:31:30.063287  1411 net.cpp:156] Memory required for data: 800703600
I0403 14:31:30.063310  1411 layer_factory.hpp:77] Creating layer relu5
I0403 14:31:30.063331  1411 net.cpp:91] Creating Layer relu5
I0403 14:31:30.063372  1411 net.cpp:425] relu5 <- conv5
I0403 14:31:30.063395  1411 net.cpp:386] relu5 -> conv5 (in-place)
I0403 14:31:30.063685  1411 net.cpp:141] Setting up relu5
I0403 14:31:30.063711  1411 net.cpp:148] Top shape: 100 256 13 13 (4326400)
I0403 14:31:30.063727  1411 net.cpp:156] Memory required for data: 818009200
I0403 14:31:30.063742  1411 layer_factory.hpp:77] Creating layer pool5
I0403 14:31:30.063763  1411 net.cpp:91] Creating Layer pool5
I0403 14:31:30.063778  1411 net.cpp:425] pool5 <- conv5
I0403 14:31:30.063798  1411 net.cpp:399] pool5 -> pool5
I0403 14:31:30.063858  1411 net.cpp:141] Setting up pool5
I0403 14:31:30.063880  1411 net.cpp:148] Top shape: 100 256 6 6 (921600)
I0403 14:31:30.063895  1411 net.cpp:156] Memory required for data: 821695600
I0403 14:31:30.063910  1411 layer_factory.hpp:77] Creating layer fc6
I0403 14:31:30.063938  1411 net.cpp:91] Creating Layer fc6
I0403 14:31:30.063956  1411 net.cpp:425] fc6 <- pool5
I0403 14:31:30.063976  1411 net.cpp:399] fc6 -> fc6
I0403 14:31:31.602386  1411 net.cpp:141] Setting up fc6
I0403 14:31:31.602471  1411 net.cpp:148] Top shape: 100 4096 (409600)
I0403 14:31:31.602488  1411 net.cpp:156] Memory required for data: 823334000
I0403 14:31:31.602509  1411 layer_factory.hpp:77] Creating layer relu6
I0403 14:31:31.602533  1411 net.cpp:91] Creating Layer relu6
I0403 14:31:31.602552  1411 net.cpp:425] relu6 <- fc6
I0403 14:31:31.602571  1411 net.cpp:386] relu6 -> fc6 (in-place)
I0403 14:31:31.602787  1411 net.cpp:141] Setting up relu6
I0403 14:31:31.602813  1411 net.cpp:148] Top shape: 100 4096 (409600)
I0403 14:31:31.602828  1411 net.cpp:156] Memory required for data: 824972400
I0403 14:31:31.602843  1411 layer_factory.hpp:77] Creating layer drop6
I0403 14:31:31.602862  1411 net.cpp:91] Creating Layer drop6
I0403 14:31:31.602877  1411 net.cpp:425] drop6 <- fc6
I0403 14:31:31.602895  1411 net.cpp:386] drop6 -> fc6 (in-place)
I0403 14:31:31.602946  1411 net.cpp:141] Setting up drop6
I0403 14:31:31.602968  1411 net.cpp:148] Top shape: 100 4096 (409600)
I0403 14:31:31.602982  1411 net.cpp:156] Memory required for data: 826610800
I0403 14:31:31.602998  1411 layer_factory.hpp:77] Creating layer fc7
I0403 14:31:31.603019  1411 net.cpp:91] Creating Layer fc7
I0403 14:31:31.603034  1411 net.cpp:425] fc7 <- fc6
I0403 14:31:31.603052  1411 net.cpp:399] fc7 -> fc7
I0403 14:31:32.279458  1411 net.cpp:141] Setting up fc7
I0403 14:31:32.279513  1411 net.cpp:148] Top shape: 100 4096 (409600)
I0403 14:31:32.279530  1411 net.cpp:156] Memory required for data: 828249200
I0403 14:31:32.279549  1411 layer_factory.hpp:77] Creating layer relu7
I0403 14:31:32.279572  1411 net.cpp:91] Creating Layer relu7
I0403 14:31:32.279589  1411 net.cpp:425] relu7 <- fc7
I0403 14:31:32.279610  1411 net.cpp:386] relu7 -> fc7 (in-place)
I0403 14:31:32.280021  1411 net.cpp:141] Setting up relu7
I0403 14:31:32.280050  1411 net.cpp:148] Top shape: 100 4096 (409600)
I0403 14:31:32.280112  1411 net.cpp:156] Memory required for data: 829887600
I0403 14:31:32.280128  1411 layer_factory.hpp:77] Creating layer drop7
I0403 14:31:32.280148  1411 net.cpp:91] Creating Layer drop7
I0403 14:31:32.280164  1411 net.cpp:425] drop7 <- fc7
I0403 14:31:32.280184  1411 net.cpp:386] drop7 -> fc7 (in-place)
I0403 14:31:32.280227  1411 net.cpp:141] Setting up drop7
I0403 14:31:32.280256  1411 net.cpp:148] Top shape: 100 4096 (409600)
I0403 14:31:32.280272  1411 net.cpp:156] Memory required for data: 831526000
I0403 14:31:32.280287  1411 layer_factory.hpp:77] Creating layer fc8_plantvillage
I0403 14:31:32.280310  1411 net.cpp:91] Creating Layer fc8_plantvillage
I0403 14:31:32.280328  1411 net.cpp:425] fc8_plantvillage <- fc7
I0403 14:31:32.280349  1411 net.cpp:399] fc8_plantvillage -> fc8_plantvillage
I0403 14:31:32.287113  1411 net.cpp:141] Setting up fc8_plantvillage
I0403 14:31:32.287142  1411 net.cpp:148] Top shape: 100 38 (3800)
I0403 14:31:32.287156  1411 net.cpp:156] Memory required for data: 831541200
I0403 14:31:32.287174  1411 layer_factory.hpp:77] Creating layer fc8_plantvillage_fc8_plantvillage_0_split
I0403 14:31:32.287194  1411 net.cpp:91] Creating Layer fc8_plantvillage_fc8_plantvillage_0_split
I0403 14:31:32.287209  1411 net.cpp:425] fc8_plantvillage_fc8_plantvillage_0_split <- fc8_plantvillage
I0403 14:31:32.287230  1411 net.cpp:399] fc8_plantvillage_fc8_plantvillage_0_split -> fc8_plantvillage_fc8_plantvillage_0_split_0
I0403 14:31:32.287257  1411 net.cpp:399] fc8_plantvillage_fc8_plantvillage_0_split -> fc8_plantvillage_fc8_plantvillage_0_split_1
I0403 14:31:32.287278  1411 net.cpp:399] fc8_plantvillage_fc8_plantvillage_0_split -> fc8_plantvillage_fc8_plantvillage_0_split_2
I0403 14:31:32.287355  1411 net.cpp:141] Setting up fc8_plantvillage_fc8_plantvillage_0_split
I0403 14:31:32.287379  1411 net.cpp:148] Top shape: 100 38 (3800)
I0403 14:31:32.287395  1411 net.cpp:148] Top shape: 100 38 (3800)
I0403 14:31:32.287410  1411 net.cpp:148] Top shape: 100 38 (3800)
I0403 14:31:32.287423  1411 net.cpp:156] Memory required for data: 831586800
I0403 14:31:32.287438  1411 layer_factory.hpp:77] Creating layer prob
I0403 14:31:32.287457  1411 net.cpp:91] Creating Layer prob
I0403 14:31:32.287472  1411 net.cpp:425] prob <- fc8_plantvillage_fc8_plantvillage_0_split_0
I0403 14:31:32.287489  1411 net.cpp:399] prob -> prob
I0403 14:31:32.287711  1411 net.cpp:141] Setting up prob
I0403 14:31:32.287739  1411 net.cpp:148] Top shape: 100 38 (3800)
I0403 14:31:32.287755  1411 net.cpp:156] Memory required for data: 831602000
I0403 14:31:32.287770  1411 layer_factory.hpp:77] Creating layer hdf5out
I0403 14:31:32.287789  1411 net.cpp:91] Creating Layer hdf5out
I0403 14:31:32.287804  1411 net.cpp:425] hdf5out <- prob
I0403 14:31:32.287820  1411 net.cpp:425] hdf5out <- label_data_1_split_0
I0403 14:31:32.290196  1411 net.cpp:141] Setting up hdf5out
…
