…
I0403 14:13:00.189108   994 net.cpp:313] The NetState phase (1) differed from the phase (0) specified by a rule in layer data
I0403 14:13:00.189420   994 net.cpp:49] Initializing net from parameters: 
state {
  phase: TEST
}
layer {
  name: "data"
  type: "Data"
  top: "data"
  top: "label"
  include {
    phase: TEST
  }
  transform_param {
    crop_size: 227
    mean_file: "/home/mohanty/data/final_dataset/lmdb/segmented-50-50/mean.binaryproto"
  }
  data_param {
    source: "/home/mohanty/data/final_dataset/lmdb/segmented-50-50/test_db"
    batch_size: 100
    backend: LMDB
  }
}
layer {
  name: "conv1"
  type: "Convolution"
  bottom: "data"
  top: "conv1"
  param {
    lr_mult: 1
    decay_mult: 1
  }
  param {
    lr_mult: 2
    decay_mult: 0
  }
  convolution_param {
    num_output: 96
    kernel_size: 11
    stride: 4
    weight_filler {
      type: "gaussian"
      std: 0.01
    }
    bias_filler {
      type: "constant"
      value: 0
    }
  }
}
layer {
  name: "relu1"
  type: "ReLU"
  bottom: "conv1"
  top: "conv1"
}
layer {
  name: "norm1"
  type: "LRN"
  bottom: "conv1"
  top: "norm1"
  lrn_param {
    local_size: 5
    alpha: 0.0001
    beta: 0.75
  }
}
layer {
  name: "pool1"
  type: "Pooling"
  bottom: "norm1"
  top: "pool1"
  pooling_param {
    pool: MAX
    kernel_size: 3
    stride: 2
  }
}
layer {
  name: "conv2"
  type: "Convolution"
  bottom: "pool1"
  top: "conv2"
  param {
    lr_mult: 1
    decay_mult: 1
  }
  param {
    lr_mult: 2
    decay_mult: 0
  }
  convolution_param {
    num_output: 256
    pad: 2
    kernel_size: 5
    group: 2
    weight_filler {
      type: "gaussian"
      std: 0.01
    }
    bias_filler {
      type: "constant"
      value: 0.1
    }
  }
}
layer {
  name: "relu2"
  type: "ReLU"
  bottom: "conv2"
  top: "conv2"
}
layer {
  name: "norm2"
  type: "LRN"
  bottom: "conv2"
  top: "norm2"
  lrn_param {
    local_size: 5
    alpha: 0.0001
    beta: 0.75
  }
}
layer {
  name: "pool2"
  type: "Pooling"
  bottom: "norm2"
  top: "pool2"
  pooling_param {
    pool: MAX
    kernel_size: 3
    stride: 2
  }
}
layer {
  name: "conv3"
  type: "Convolution"
  bottom: "pool2"
  top: "conv3"
  param {
    lr_mult: 1
    decay_mult: 1
  }
  param {
    lr_mult: 2
    decay_mult: 0
  }
  convolution_param {
    num_output: 384
    pad: 1
    kernel_size: 3
    weight_filler {
      type: "gaussian"
      std: 0.01
    }
    bias_filler {
      type: "constant"
      value: 0
    }
  }
}
layer {
  name: "relu3"
  type: "ReLU"
  bottom: "conv3"
  top: "conv3"
}
layer {
  name: "conv4"
  type: "Convolution"
  bottom: "conv3"
  top: "conv4"
  param {
    lr_mult: 1
    decay_mult: 1
  }
  param {
    lr_mult: 2
    decay_mult: 0
  }
  convolution_param {
    num_output: 384
    pad: 1
    kernel_size: 3
    group: 2
    weight_filler {
      type: "gaussian"
      std: 0.01
    }
    bias_filler {
      type: "constant"
      value: 0.1
    }
  }
}
layer {
  name: "relu4"
  type: "ReLU"
  bottom: "conv4"
  top: "conv4"
}
layer {
  name: "conv5"
  type: "Convolution"
  bottom: "conv4"
  top: "conv5"
  param {
    lr_mult: 1
    decay_mult: 1
  }
  param {
    lr_mult: 2
    decay_mult: 0
  }
  convolution_param {
    num_output: 256
    pad: 1
    kernel_size: 3
    group: 2
    weight_filler {
      type: "gaussian"
      std: 0.01
    }
    bias_filler {
      type: "constant"
      value: 0.1
    }
  }
}
layer {
  name: "relu5"
  type: "ReLU"
  bottom: "conv5"
  top: "conv5"
}
layer {
  name: "pool5"
  type: "Pooling"
  bottom: "conv5"
  top: "pool5"
  pooling_param {
    pool: MAX
    kernel_size: 3
    stride: 2
  }
}
layer {
  name: "fc6"
  type: "InnerProduct"
  bottom: "pool5"
  top: "fc6"
  param {
    lr_mult: 1
    decay_mult: 1
  }
  param {
    lr_mult: 2
    decay_mult: 0
  }
  inner_product_param {
    num_output: 4096
    weight_filler {
      type: "gaussian"
      std: 0.005
    }
    bias_filler {
      type: "constant"
      value: 0.1
    }
  }
}
layer {
  name: "relu6"
  type: "ReLU"
  bottom: "fc6"
  top: "fc6"
}
layer {
  name: "drop6"
  type: "Dropout"
  bottom: "fc6"
  top: "fc6"
  dropout_param {
    dropout_ratio: 0.5
  }
}
layer {
  name: "fc7"
  type: "InnerProduct"
  bottom: "fc6"
  top: "fc7"
  param {
    lr_mult: 1
    decay_mult: 1
  }
  param {
    lr_mult: 2
    decay_mult: 0
  }
  inner_product_param {
    num_output: 4096
    weight_filler {
      type: "gaussian"
      std: 0.005
    }
    bias_filler {
      type: "constant"
      value: 0.1
    }
  }
}
layer {
  name: "relu7"
  type: "ReLU"
  bottom: "fc7"
  top: "fc7"
}
layer {
  name: "drop7"
  type: "Dropout"
  bottom: "fc7"
  top: "fc7"
  dropout_param {
    dropout_ratio: 0.5
  }
}
layer {
  name: "fc8_plantvillage"
  type: "InnerProduct"
  bottom: "fc7"
  top: "fc8_plantvillage"
  param {
    lr_mult: 1
    decay_mult: 1
  }
  param {
    lr_mult: 2
    decay_mult: 0
  }
  inner_product_param {
    num_output: 38
    weight_filler {
      type: "gaussian"
      std: 0.01
    }
    bias_filler {
      type: "constant"
      value: 0
    }
  }
}
layer {
  name: "prob"
  type: "Softmax"
  bottom: "fc8_plantvillage"
  top: "prob"
  include {
    phase: TEST
  }
}
layer {
  name: "hdf5out"
  type: "HDF5Output"
  bottom: "prob"
  bottom: "label"
  include {
    phase: TEST
  }
  hdf5_output_param {
    file_name: "hdf5_dumps/iter_1876.h5"
  }
}
layer {
  name: "loss"
  type: "SoftmaxWithLoss"
  bottom: "fc8_plantvillage"
  bottom: "label"
  top: "loss"
}
layer {
  name: "accuracy"
  type: "Accuracy"
  bottom: "fc8_plantvillage"
  bottom: "label"
  top: "accuracy"
  include {
    phase: TEST
  }
}
I0403 14:13:00.190013   994 layer_factory.hpp:77] Creating layer data
I0403 14:13:00.190666   994 net.cpp:91] Creating Layer data
I0403 14:13:00.190699   994 net.cpp:399] data -> data
I0403 14:13:00.190752   994 net.cpp:399] data -> label
I0403 14:13:00.190789   994 data_transformer.cpp:25] Loading mean file from: /home/mohanty/data/final_dataset/lmdb/segmented-50-50/mean.binaryproto
I0403 14:13:00.193459   997 db_lmdb.cpp:38] Opened lmdb /home/mohanty/data/final_dataset/lmdb/segmented-50-50/test_db
I0403 14:13:00.205027   994 data_layer.cpp:41] output data size: 100,3,227,227
I0403 14:13:00.325947   994 net.cpp:141] Setting up data
I0403 14:13:00.326056   994 net.cpp:148] Top shape: 100 3 227 227 (15458700)
I0403 14:13:00.326077   994 net.cpp:148] Top shape: 100 (100)
I0403 14:13:00.326093   994 net.cpp:156] Memory required for data: 61835200
I0403 14:13:00.326122   994 layer_factory.hpp:77] Creating layer label_data_1_split
I0403 14:13:00.326148   994 net.cpp:91] Creating Layer label_data_1_split
I0403 14:13:00.326166   994 net.cpp:425] label_data_1_split <- label
I0403 14:13:00.326201   994 net.cpp:399] label_data_1_split -> label_data_1_split_0
I0403 14:13:00.326228   994 net.cpp:399] label_data_1_split -> label_data_1_split_1
I0403 14:13:00.326256   994 net.cpp:399] label_data_1_split -> label_data_1_split_2
I0403 14:13:00.326320   994 net.cpp:141] Setting up label_data_1_split
I0403 14:13:00.326344   994 net.cpp:148] Top shape: 100 (100)
I0403 14:13:00.326362   994 net.cpp:148] Top shape: 100 (100)
I0403 14:13:00.326380   994 net.cpp:148] Top shape: 100 (100)
I0403 14:13:00.326395   994 net.cpp:156] Memory required for data: 61836400
I0403 14:13:00.326409   994 layer_factory.hpp:77] Creating layer conv1
I0403 14:13:00.326442   994 net.cpp:91] Creating Layer conv1
I0403 14:13:00.326462   994 net.cpp:425] conv1 <- data
I0403 14:13:00.326481   994 net.cpp:399] conv1 -> conv1
I0403 14:13:00.470003   994 net.cpp:141] Setting up conv1
I0403 14:13:00.470093   994 net.cpp:148] Top shape: 100 96 55 55 (29040000)
I0403 14:13:00.470109   994 net.cpp:156] Memory required for data: 177996400
I0403 14:13:00.470141   994 layer_factory.hpp:77] Creating layer relu1
I0403 14:13:00.470170   994 net.cpp:91] Creating Layer relu1
I0403 14:13:00.470191   994 net.cpp:425] relu1 <- conv1
I0403 14:13:00.470209   994 net.cpp:386] relu1 -> conv1 (in-place)
I0403 14:13:00.470494   994 net.cpp:141] Setting up relu1
I0403 14:13:00.470522   994 net.cpp:148] Top shape: 100 96 55 55 (29040000)
I0403 14:13:00.470580   994 net.cpp:156] Memory required for data: 294156400
I0403 14:13:00.470598   994 layer_factory.hpp:77] Creating layer norm1
I0403 14:13:00.470625   994 net.cpp:91] Creating Layer norm1
I0403 14:13:00.470644   994 net.cpp:425] norm1 <- conv1
I0403 14:13:00.470664   994 net.cpp:399] norm1 -> norm1
I0403 14:13:00.471004   994 net.cpp:141] Setting up norm1
I0403 14:13:00.471032   994 net.cpp:148] Top shape: 100 96 55 55 (29040000)
I0403 14:13:00.471047   994 net.cpp:156] Memory required for data: 410316400
I0403 14:13:00.471063   994 layer_factory.hpp:77] Creating layer pool1
I0403 14:13:00.471087   994 net.cpp:91] Creating Layer pool1
I0403 14:13:00.471106   994 net.cpp:425] pool1 <- norm1
I0403 14:13:00.471123   994 net.cpp:399] pool1 -> pool1
I0403 14:13:00.471191   994 net.cpp:141] Setting up pool1
I0403 14:13:00.471215   994 net.cpp:148] Top shape: 100 96 27 27 (6998400)
I0403 14:13:00.471230   994 net.cpp:156] Memory required for data: 438310000
I0403 14:13:00.471251   994 layer_factory.hpp:77] Creating layer conv2
I0403 14:13:00.471277   994 net.cpp:91] Creating Layer conv2
I0403 14:13:00.471294   994 net.cpp:425] conv2 <- pool1
I0403 14:13:00.471312   994 net.cpp:399] conv2 -> conv2
I0403 14:13:00.486650   994 net.cpp:141] Setting up conv2
I0403 14:13:00.486697   994 net.cpp:148] Top shape: 100 256 27 27 (18662400)
I0403 14:13:00.486716   994 net.cpp:156] Memory required for data: 512959600
I0403 14:13:00.486739   994 layer_factory.hpp:77] Creating layer relu2
I0403 14:13:00.486760   994 net.cpp:91] Creating Layer relu2
I0403 14:13:00.486778   994 net.cpp:425] relu2 <- conv2
I0403 14:13:00.486795   994 net.cpp:386] relu2 -> conv2 (in-place)
I0403 14:13:00.487085   994 net.cpp:141] Setting up relu2
I0403 14:13:00.487113   994 net.cpp:148] Top shape: 100 256 27 27 (18662400)
I0403 14:13:00.487129   994 net.cpp:156] Memory required for data: 587609200
I0403 14:13:00.487145   994 layer_factory.hpp:77] Creating layer norm2
I0403 14:13:00.487167   994 net.cpp:91] Creating Layer norm2
I0403 14:13:00.487185   994 net.cpp:425] norm2 <- conv2
I0403 14:13:00.487206   994 net.cpp:399] norm2 -> norm2
I0403 14:13:00.487443   994 net.cpp:141] Setting up norm2
I0403 14:13:00.487473   994 net.cpp:148] Top shape: 100 256 27 27 (18662400)
I0403 14:13:00.487489   994 net.cpp:156] Memory required for data: 662258800
I0403 14:13:00.487505   994 layer_factory.hpp:77] Creating layer pool2
I0403 14:13:00.487524   994 net.cpp:91] Creating Layer pool2
I0403 14:13:00.487540   994 net.cpp:425] pool2 <- norm2
I0403 14:13:00.487558   994 net.cpp:399] pool2 -> pool2
I0403 14:13:00.487615   994 net.cpp:141] Setting up pool2
I0403 14:13:00.487639   994 net.cpp:148] Top shape: 100 256 13 13 (4326400)
I0403 14:13:00.487655   994 net.cpp:156] Memory required for data: 679564400
I0403 14:13:00.487670   994 layer_factory.hpp:77] Creating layer conv3
I0403 14:13:00.487694   994 net.cpp:91] Creating Layer conv3
I0403 14:13:00.487712   994 net.cpp:425] conv3 <- pool2
I0403 14:13:00.487735   994 net.cpp:399] conv3 -> conv3
I0403 14:13:00.527009   994 net.cpp:141] Setting up conv3
I0403 14:13:00.527050   994 net.cpp:148] Top shape: 100 384 13 13 (6489600)
I0403 14:13:00.527066   994 net.cpp:156] Memory required for data: 705522800
I0403 14:13:00.527091   994 layer_factory.hpp:77] Creating layer relu3
I0403 14:13:00.527117   994 net.cpp:91] Creating Layer relu3
I0403 14:13:00.527134   994 net.cpp:425] relu3 <- conv3
I0403 14:13:00.527153   994 net.cpp:386] relu3 -> conv3 (in-place)
I0403 14:13:00.527431   994 net.cpp:141] Setting up relu3
I0403 14:13:00.527459   994 net.cpp:148] Top shape: 100 384 13 13 (6489600)
I0403 14:13:00.527475   994 net.cpp:156] Memory required for data: 731481200
I0403 14:13:00.527490   994 layer_factory.hpp:77] Creating layer conv4
I0403 14:13:00.527516   994 net.cpp:91] Creating Layer conv4
I0403 14:13:00.527534   994 net.cpp:425] conv4 <- conv3
I0403 14:13:00.527552   994 net.cpp:399] conv4 -> conv4
I0403 14:13:00.559085   994 net.cpp:141] Setting up conv4
I0403 14:13:00.559140   994 net.cpp:148] Top shape: 100 384 13 13 (6489600)
I0403 14:13:00.559190   994 net.cpp:156] Memory required for data: 757439600
I0403 14:13:00.559212   994 layer_factory.hpp:77] Creating layer relu4
I0403 14:13:00.559234   994 net.cpp:91] Creating Layer relu4
I0403 14:13:00.559257   994 net.cpp:425] relu4 <- conv4
I0403 14:13:00.559275   994 net.cpp:386] relu4 -> conv4 (in-place)
I0403 14:13:00.559593   994 net.cpp:141] Setting up relu4
I0403 14:13:00.559620   994 net.cpp:148] Top shape: 100 384 13 13 (6489600)
I0403 14:13:00.559635   994 net.cpp:156] Memory required for data: 783398000
I0403 14:13:00.559650   994 layer_factory.hpp:77] Creating layer conv5
I0403 14:13:00.559675   994 net.cpp:91] Creating Layer conv5
I0403 14:13:00.559692   994 net.cpp:425] conv5 <- conv4
I0403 14:13:00.559713   994 net.cpp:399] conv5 -> conv5
I0403 14:13:00.580451   994 net.cpp:141] Setting up conv5
I0403 14:13:00.580497   994 net.cpp:148] Top shape: 100 256 13 13 (4326400)
I0403 14:13:00.580513   994 net.cpp:156] Memory required for data: 800703600
I0403 14:13:00.580541   994 layer_factory.hpp:77] Creating layer relu5
I0403 14:13:00.580562   994 net.cpp:91] Creating Layer relu5
I0403 14:13:00.580579   994 net.cpp:425] relu5 <- conv5
I0403 14:13:00.580597   994 net.cpp:386] relu5 -> conv5 (in-place)
I0403 14:13:00.580875   994 net.cpp:141] Setting up relu5
I0403 14:13:00.580905   994 net.cpp:148] Top shape: 100 256 13 13 (4326400)
I0403 14:13:00.580921   994 net.cpp:156] Memory required for data: 818009200
I0403 14:13:00.580936   994 layer_factory.hpp:77] Creating layer pool5
I0403 14:13:00.580958   994 net.cpp:91] Creating Layer pool5
I0403 14:13:00.580974   994 net.cpp:425] pool5 <- conv5
I0403 14:13:00.580996   994 net.cpp:399] pool5 -> pool5
I0403 14:13:00.581055   994 net.cpp:141] Setting up pool5
I0403 14:13:00.581079   994 net.cpp:148] Top shape: 100 256 6 6 (921600)
I0403 14:13:00.581094   994 net.cpp:156] Memory required for data: 821695600
I0403 14:13:00.581110   994 layer_factory.hpp:77] Creating layer fc6
I0403 14:13:00.581141   994 net.cpp:91] Creating Layer fc6
I0403 14:13:00.581161   994 net.cpp:425] fc6 <- pool5
I0403 14:13:00.581182   994 net.cpp:399] fc6 -> fc6
I0403 14:13:02.138957   994 net.cpp:141] Setting up fc6
I0403 14:13:02.139000   994 net.cpp:148] Top shape: 100 4096 (409600)
I0403 14:13:02.139016   994 net.cpp:156] Memory required for data: 823334000
I0403 14:13:02.139039   994 layer_factory.hpp:77] Creating layer relu6
I0403 14:13:02.139062   994 net.cpp:91] Creating Layer relu6
I0403 14:13:02.139081   994 net.cpp:425] relu6 <- fc6
I0403 14:13:02.139099   994 net.cpp:386] relu6 -> fc6 (in-place)
I0403 14:13:02.139318   994 net.cpp:141] Setting up relu6
I0403 14:13:02.139346   994 net.cpp:148] Top shape: 100 4096 (409600)
I0403 14:13:02.139361   994 net.cpp:156] Memory required for data: 824972400
I0403 14:13:02.139376   994 layer_factory.hpp:77] Creating layer drop6
I0403 14:13:02.139395   994 net.cpp:91] Creating Layer drop6
I0403 14:13:02.139410   994 net.cpp:425] drop6 <- fc6
I0403 14:13:02.139427   994 net.cpp:386] drop6 -> fc6 (in-place)
I0403 14:13:02.139480   994 net.cpp:141] Setting up drop6
I0403 14:13:02.139503   994 net.cpp:148] Top shape: 100 4096 (409600)
I0403 14:13:02.139518   994 net.cpp:156] Memory required for data: 826610800
I0403 14:13:02.139531   994 layer_factory.hpp:77] Creating layer fc7
I0403 14:13:02.139554   994 net.cpp:91] Creating Layer fc7
I0403 14:13:02.139569   994 net.cpp:425] fc7 <- fc6
I0403 14:13:02.139587   994 net.cpp:399] fc7 -> fc7
I0403 14:13:02.826128   994 net.cpp:141] Setting up fc7
I0403 14:13:02.826167   994 net.cpp:148] Top shape: 100 4096 (409600)
I0403 14:13:02.826182   994 net.cpp:156] Memory required for data: 828249200
I0403 14:13:02.826203   994 layer_factory.hpp:77] Creating layer relu7
I0403 14:13:02.826226   994 net.cpp:91] Creating Layer relu7
I0403 14:13:02.826305   994 net.cpp:425] relu7 <- fc7
I0403 14:13:02.826329   994 net.cpp:386] relu7 -> fc7 (in-place)
I0403 14:13:02.826737   994 net.cpp:141] Setting up relu7
I0403 14:13:02.826762   994 net.cpp:148] Top shape: 100 4096 (409600)
I0403 14:13:02.826807   994 net.cpp:156] Memory required for data: 829887600
I0403 14:13:02.826822   994 layer_factory.hpp:77] Creating layer drop7
I0403 14:13:02.826843   994 net.cpp:91] Creating Layer drop7
I0403 14:13:02.826858   994 net.cpp:425] drop7 <- fc7
I0403 14:13:02.826874   994 net.cpp:386] drop7 -> fc7 (in-place)
I0403 14:13:02.826918   994 net.cpp:141] Setting up drop7
I0403 14:13:02.826941   994 net.cpp:148] Top shape: 100 4096 (409600)
I0403 14:13:02.826954   994 net.cpp:156] Memory required for data: 831526000
I0403 14:13:02.826968   994 layer_factory.hpp:77] Creating layer fc8_plantvillage
I0403 14:13:02.826989   994 net.cpp:91] Creating Layer fc8_plantvillage
I0403 14:13:02.827006   994 net.cpp:425] fc8_plantvillage <- fc7
I0403 14:13:02.827023   994 net.cpp:399] fc8_plantvillage -> fc8_plantvillage
I0403 14:13:02.833670   994 net.cpp:141] Setting up fc8_plantvillage
I0403 14:13:02.833698   994 net.cpp:148] Top shape: 100 38 (3800)
I0403 14:13:02.833712   994 net.cpp:156] Memory required for data: 831541200
I0403 14:13:02.833730   994 layer_factory.hpp:77] Creating layer fc8_plantvillage_fc8_plantvillage_0_split
I0403 14:13:02.833748   994 net.cpp:91] Creating Layer fc8_plantvillage_fc8_plantvillage_0_split
I0403 14:13:02.833763   994 net.cpp:425] fc8_plantvillage_fc8_plantvillage_0_split <- fc8_plantvillage
I0403 14:13:02.833781   994 net.cpp:399] fc8_plantvillage_fc8_plantvillage_0_split -> fc8_plantvillage_fc8_plantvillage_0_split_0
I0403 14:13:02.833802   994 net.cpp:399] fc8_plantvillage_fc8_plantvillage_0_split -> fc8_plantvillage_fc8_plantvillage_0_split_1
I0403 14:13:02.833822   994 net.cpp:399] fc8_plantvillage_fc8_plantvillage_0_split -> fc8_plantvillage_fc8_plantvillage_0_split_2
I0403 14:13:02.833894   994 net.cpp:141] Setting up fc8_plantvillage_fc8_plantvillage_0_split
I0403 14:13:02.833917   994 net.cpp:148] Top shape: 100 38 (3800)
I0403 14:13:02.833933   994 net.cpp:148] Top shape: 100 38 (3800)
I0403 14:13:02.833948   994 net.cpp:148] Top shape: 100 38 (3800)
I0403 14:13:02.833961   994 net.cpp:156] Memory required for data: 831586800
I0403 14:13:02.833976   994 layer_factory.hpp:77] Creating layer prob
I0403 14:13:02.833993   994 net.cpp:91] Creating Layer prob
I0403 14:13:02.834007   994 net.cpp:425] prob <- fc8_plantvillage_fc8_plantvillage_0_split_0
I0403 14:13:02.834025   994 net.cpp:399] prob -> prob
I0403 14:13:02.834236   994 net.cpp:141] Setting up prob
I0403 14:13:02.834266   994 net.cpp:148] Top shape: 100 38 (3800)
I0403 14:13:02.834280   994 net.cpp:156] Memory required for data: 831602000
I0403 14:13:02.834295   994 layer_factory.hpp:77] Creating layer hdf5out
I0403 14:13:02.834316   994 net.cpp:91] Creating Layer hdf5out
I0403 14:13:02.834332   994 net.cpp:425] hdf5out <- prob
I0403 14:13:02.834348   994 net.cpp:425] hdf5out <- label_data_1_split_0
I0403 14:13:02.836485   994 net.cpp:141] Setting up hdf5out
…
