…
I0403 14:13:50.366008  1013 net.cpp:313] The NetState phase (1) differed from the phase (0) specified by a rule in layer data
I0403 14:13:50.366346  1013 net.cpp:49] Initializing net from parameters: 
state {
  phase: TEST
}
layer {
  name: "data"
  type: "Data"
  top: "data"
  top: "label"
  include {
    phase: TEST
  }
  transform_param {
    crop_size: 227
    mean_file: "/home/mohanty/data/final_dataset/lmdb/segmented-50-50/mean.binaryproto"
  }
  data_param {
    source: "/home/mohanty/data/final_dataset/lmdb/segmented-50-50/test_db"
    batch_size: 100
    backend: LMDB
  }
}
layer {
  name: "conv1"
  type: "Convolution"
  bottom: "data"
  top: "conv1"
  param {
    lr_mult: 1
    decay_mult: 1
  }
  param {
    lr_mult: 2
    decay_mult: 0
  }
  convolution_param {
    num_output: 96
    kernel_size: 11
    stride: 4
    weight_filler {
      type: "gaussian"
      std: 0.01
    }
    bias_filler {
      type: "constant"
      value: 0
    }
  }
}
layer {
  name: "relu1"
  type: "ReLU"
  bottom: "conv1"
  top: "conv1"
}
layer {
  name: "norm1"
  type: "LRN"
  bottom: "conv1"
  top: "norm1"
  lrn_param {
    local_size: 5
    alpha: 0.0001
    beta: 0.75
  }
}
layer {
  name: "pool1"
  type: "Pooling"
  bottom: "norm1"
  top: "pool1"
  pooling_param {
    pool: MAX
    kernel_size: 3
    stride: 2
  }
}
layer {
  name: "conv2"
  type: "Convolution"
  bottom: "pool1"
  top: "conv2"
  param {
    lr_mult: 1
    decay_mult: 1
  }
  param {
    lr_mult: 2
    decay_mult: 0
  }
  convolution_param {
    num_output: 256
    pad: 2
    kernel_size: 5
    group: 2
    weight_filler {
      type: "gaussian"
      std: 0.01
    }
    bias_filler {
      type: "constant"
      value: 0.1
    }
  }
}
layer {
  name: "relu2"
  type: "ReLU"
  bottom: "conv2"
  top: "conv2"
}
layer {
  name: "norm2"
  type: "LRN"
  bottom: "conv2"
  top: "norm2"
  lrn_param {
    local_size: 5
    alpha: 0.0001
    beta: 0.75
  }
}
layer {
  name: "pool2"
  type: "Pooling"
  bottom: "norm2"
  top: "pool2"
  pooling_param {
    pool: MAX
    kernel_size: 3
    stride: 2
  }
}
layer {
  name: "conv3"
  type: "Convolution"
  bottom: "pool2"
  top: "conv3"
  param {
    lr_mult: 1
    decay_mult: 1
  }
  param {
    lr_mult: 2
    decay_mult: 0
  }
  convolution_param {
    num_output: 384
    pad: 1
    kernel_size: 3
    weight_filler {
      type: "gaussian"
      std: 0.01
    }
    bias_filler {
      type: "constant"
      value: 0
    }
  }
}
layer {
  name: "relu3"
  type: "ReLU"
  bottom: "conv3"
  top: "conv3"
}
layer {
  name: "conv4"
  type: "Convolution"
  bottom: "conv3"
  top: "conv4"
  param {
    lr_mult: 1
    decay_mult: 1
  }
  param {
    lr_mult: 2
    decay_mult: 0
  }
  convolution_param {
    num_output: 384
    pad: 1
    kernel_size: 3
    group: 2
    weight_filler {
      type: "gaussian"
      std: 0.01
    }
    bias_filler {
      type: "constant"
      value: 0.1
    }
  }
}
layer {
  name: "relu4"
  type: "ReLU"
  bottom: "conv4"
  top: "conv4"
}
layer {
  name: "conv5"
  type: "Convolution"
  bottom: "conv4"
  top: "conv5"
  param {
    lr_mult: 1
    decay_mult: 1
  }
  param {
    lr_mult: 2
    decay_mult: 0
  }
  convolution_param {
    num_output: 256
    pad: 1
    kernel_size: 3
    group: 2
    weight_filler {
      type: "gaussian"
      std: 0.01
    }
    bias_filler {
      type: "constant"
      value: 0.1
    }
  }
}
layer {
  name: "relu5"
  type: "ReLU"
  bottom: "conv5"
  top: "conv5"
}
layer {
  name: "pool5"
  type: "Pooling"
  bottom: "conv5"
  top: "pool5"
  pooling_param {
    pool: MAX
    kernel_size: 3
    stride: 2
  }
}
layer {
  name: "fc6"
  type: "InnerProduct"
  bottom: "pool5"
  top: "fc6"
  param {
    lr_mult: 1
    decay_mult: 1
  }
  param {
    lr_mult: 2
    decay_mult: 0
  }
  inner_product_param {
    num_output: 4096
    weight_filler {
      type: "gaussian"
      std: 0.005
    }
    bias_filler {
      type: "constant"
      value: 0.1
    }
  }
}
layer {
  name: "relu6"
  type: "ReLU"
  bottom: "fc6"
  top: "fc6"
}
layer {
  name: "drop6"
  type: "Dropout"
  bottom: "fc6"
  top: "fc6"
  dropout_param {
    dropout_ratio: 0.5
  }
}
layer {
  name: "fc7"
  type: "InnerProduct"
  bottom: "fc6"
  top: "fc7"
  param {
    lr_mult: 1
    decay_mult: 1
  }
  param {
    lr_mult: 2
    decay_mult: 0
  }
  inner_product_param {
    num_output: 4096
    weight_filler {
      type: "gaussian"
      std: 0.005
    }
    bias_filler {
      type: "constant"
      value: 0.1
    }
  }
}
layer {
  name: "relu7"
  type: "ReLU"
  bottom: "fc7"
  top: "fc7"
}
layer {
  name: "drop7"
  type: "Dropout"
  bottom: "fc7"
  top: "fc7"
  dropout_param {
    dropout_ratio: 0.5
  }
}
layer {
  name: "fc8_plantvillage"
  type: "InnerProduct"
  bottom: "fc7"
  top: "fc8_plantvillage"
  param {
    lr_mult: 1
    decay_mult: 1
  }
  param {
    lr_mult: 2
    decay_mult: 0
  }
  inner_product_param {
    num_output: 38
    weight_filler {
      type: "gaussian"
      std: 0.01
    }
    bias_filler {
      type: "constant"
      value: 0
    }
  }
}
layer {
  name: "prob"
  type: "Softmax"
  bottom: "fc8_plantvillage"
  top: "prob"
  include {
    phase: TEST
  }
}
layer {
  name: "hdf5out"
  type: "HDF5Output"
  bottom: "prob"
  bottom: "label"
  include {
    phase: TEST
  }
  hdf5_output_param {
    file_name: "hdf5_dumps/iter_2144.h5"
  }
}
layer {
  name: "loss"
  type: "SoftmaxWithLoss"
  bottom: "fc8_plantvillage"
  bottom: "label"
  top: "loss"
}
layer {
  name: "accuracy"
  type: "Accuracy"
  bottom: "fc8_plantvillage"
  bottom: "label"
  top: "accuracy"
  include {
    phase: TEST
  }
}
I0403 14:13:50.366912  1013 layer_factory.hpp:77] Creating layer data
I0403 14:13:50.367564  1013 net.cpp:91] Creating Layer data
I0403 14:13:50.367595  1013 net.cpp:399] data -> data
I0403 14:13:50.367650  1013 net.cpp:399] data -> label
I0403 14:13:50.367686  1013 data_transformer.cpp:25] Loading mean file from: /home/mohanty/data/final_dataset/lmdb/segmented-50-50/mean.binaryproto
I0403 14:13:50.370625  1016 db_lmdb.cpp:38] Opened lmdb /home/mohanty/data/final_dataset/lmdb/segmented-50-50/test_db
I0403 14:13:50.382079  1013 data_layer.cpp:41] output data size: 100,3,227,227
I0403 14:13:50.501224  1013 net.cpp:141] Setting up data
I0403 14:13:50.501287  1013 net.cpp:148] Top shape: 100 3 227 227 (15458700)
I0403 14:13:50.501312  1013 net.cpp:148] Top shape: 100 (100)
I0403 14:13:50.501328  1013 net.cpp:156] Memory required for data: 61835200
I0403 14:13:50.501356  1013 layer_factory.hpp:77] Creating layer label_data_1_split
I0403 14:13:50.501384  1013 net.cpp:91] Creating Layer label_data_1_split
I0403 14:13:50.501401  1013 net.cpp:425] label_data_1_split <- label
I0403 14:13:50.501432  1013 net.cpp:399] label_data_1_split -> label_data_1_split_0
I0403 14:13:50.501459  1013 net.cpp:399] label_data_1_split -> label_data_1_split_1
I0403 14:13:50.501482  1013 net.cpp:399] label_data_1_split -> label_data_1_split_2
I0403 14:13:50.501546  1013 net.cpp:141] Setting up label_data_1_split
I0403 14:13:50.501570  1013 net.cpp:148] Top shape: 100 (100)
I0403 14:13:50.501587  1013 net.cpp:148] Top shape: 100 (100)
I0403 14:13:50.501605  1013 net.cpp:148] Top shape: 100 (100)
I0403 14:13:50.501619  1013 net.cpp:156] Memory required for data: 61836400
I0403 14:13:50.501636  1013 layer_factory.hpp:77] Creating layer conv1
I0403 14:13:50.501668  1013 net.cpp:91] Creating Layer conv1
I0403 14:13:50.501688  1013 net.cpp:425] conv1 <- data
I0403 14:13:50.501708  1013 net.cpp:399] conv1 -> conv1
I0403 14:13:50.644433  1013 net.cpp:141] Setting up conv1
I0403 14:13:50.644523  1013 net.cpp:148] Top shape: 100 96 55 55 (29040000)
I0403 14:13:50.644541  1013 net.cpp:156] Memory required for data: 177996400
I0403 14:13:50.644572  1013 layer_factory.hpp:77] Creating layer relu1
I0403 14:13:50.644600  1013 net.cpp:91] Creating Layer relu1
I0403 14:13:50.644619  1013 net.cpp:425] relu1 <- conv1
I0403 14:13:50.644640  1013 net.cpp:386] relu1 -> conv1 (in-place)
I0403 14:13:50.644914  1013 net.cpp:141] Setting up relu1
I0403 14:13:50.644943  1013 net.cpp:148] Top shape: 100 96 55 55 (29040000)
I0403 14:13:50.644991  1013 net.cpp:156] Memory required for data: 294156400
I0403 14:13:50.645009  1013 layer_factory.hpp:77] Creating layer norm1
I0403 14:13:50.645038  1013 net.cpp:91] Creating Layer norm1
I0403 14:13:50.645056  1013 net.cpp:425] norm1 <- conv1
I0403 14:13:50.645076  1013 net.cpp:399] norm1 -> norm1
I0403 14:13:50.645411  1013 net.cpp:141] Setting up norm1
I0403 14:13:50.645438  1013 net.cpp:148] Top shape: 100 96 55 55 (29040000)
I0403 14:13:50.645454  1013 net.cpp:156] Memory required for data: 410316400
I0403 14:13:50.645470  1013 layer_factory.hpp:77] Creating layer pool1
I0403 14:13:50.645519  1013 net.cpp:91] Creating Layer pool1
I0403 14:13:50.645541  1013 net.cpp:425] pool1 <- norm1
I0403 14:13:50.645560  1013 net.cpp:399] pool1 -> pool1
I0403 14:13:50.645632  1013 net.cpp:141] Setting up pool1
I0403 14:13:50.645658  1013 net.cpp:148] Top shape: 100 96 27 27 (6998400)
I0403 14:13:50.645673  1013 net.cpp:156] Memory required for data: 438310000
I0403 14:13:50.645689  1013 layer_factory.hpp:77] Creating layer conv2
I0403 14:13:50.645715  1013 net.cpp:91] Creating Layer conv2
I0403 14:13:50.645732  1013 net.cpp:425] conv2 <- pool1
I0403 14:13:50.645753  1013 net.cpp:399] conv2 -> conv2
I0403 14:13:50.663833  1013 net.cpp:141] Setting up conv2
I0403 14:13:50.663923  1013 net.cpp:148] Top shape: 100 256 27 27 (18662400)
I0403 14:13:50.663944  1013 net.cpp:156] Memory required for data: 512959600
I0403 14:13:50.663969  1013 layer_factory.hpp:77] Creating layer relu2
I0403 14:13:50.663993  1013 net.cpp:91] Creating Layer relu2
I0403 14:13:50.664013  1013 net.cpp:425] relu2 <- conv2
I0403 14:13:50.664032  1013 net.cpp:386] relu2 -> conv2 (in-place)
I0403 14:13:50.664345  1013 net.cpp:141] Setting up relu2
I0403 14:13:50.664373  1013 net.cpp:148] Top shape: 100 256 27 27 (18662400)
I0403 14:13:50.664389  1013 net.cpp:156] Memory required for data: 587609200
I0403 14:13:50.664405  1013 layer_factory.hpp:77] Creating layer norm2
I0403 14:13:50.664430  1013 net.cpp:91] Creating Layer norm2
I0403 14:13:50.664449  1013 net.cpp:425] norm2 <- conv2
I0403 14:13:50.664470  1013 net.cpp:399] norm2 -> norm2
I0403 14:13:50.664685  1013 net.cpp:141] Setting up norm2
I0403 14:13:50.664712  1013 net.cpp:148] Top shape: 100 256 27 27 (18662400)
I0403 14:13:50.664728  1013 net.cpp:156] Memory required for data: 662258800
I0403 14:13:50.664744  1013 layer_factory.hpp:77] Creating layer pool2
I0403 14:13:50.664764  1013 net.cpp:91] Creating Layer pool2
I0403 14:13:50.664780  1013 net.cpp:425] pool2 <- norm2
I0403 14:13:50.664801  1013 net.cpp:399] pool2 -> pool2
I0403 14:13:50.664858  1013 net.cpp:141] Setting up pool2
I0403 14:13:50.664882  1013 net.cpp:148] Top shape: 100 256 13 13 (4326400)
I0403 14:13:50.664897  1013 net.cpp:156] Memory required for data: 679564400
I0403 14:13:50.664913  1013 layer_factory.hpp:77] Creating layer conv3
I0403 14:13:50.664940  1013 net.cpp:91] Creating Layer conv3
I0403 14:13:50.664958  1013 net.cpp:425] conv3 <- pool2
I0403 14:13:50.664980  1013 net.cpp:399] conv3 -> conv3
I0403 14:13:50.704457  1013 net.cpp:141] Setting up conv3
I0403 14:13:50.704520  1013 net.cpp:148] Top shape: 100 384 13 13 (6489600)
I0403 14:13:50.704550  1013 net.cpp:156] Memory required for data: 705522800
I0403 14:13:50.704574  1013 layer_factory.hpp:77] Creating layer relu3
I0403 14:13:50.704597  1013 net.cpp:91] Creating Layer relu3
I0403 14:13:50.704615  1013 net.cpp:425] relu3 <- conv3
I0403 14:13:50.704635  1013 net.cpp:386] relu3 -> conv3 (in-place)
I0403 14:13:50.704915  1013 net.cpp:141] Setting up relu3
I0403 14:13:50.704941  1013 net.cpp:148] Top shape: 100 384 13 13 (6489600)
I0403 14:13:50.704957  1013 net.cpp:156] Memory required for data: 731481200
I0403 14:13:50.704972  1013 layer_factory.hpp:77] Creating layer conv4
I0403 14:13:50.704996  1013 net.cpp:91] Creating Layer conv4
I0403 14:13:50.705014  1013 net.cpp:425] conv4 <- conv3
I0403 14:13:50.705036  1013 net.cpp:399] conv4 -> conv4
I0403 14:13:50.735960  1013 net.cpp:141] Setting up conv4
I0403 14:13:50.736027  1013 net.cpp:148] Top shape: 100 384 13 13 (6489600)
I0403 14:13:50.736078  1013 net.cpp:156] Memory required for data: 757439600
I0403 14:13:50.736100  1013 layer_factory.hpp:77] Creating layer relu4
I0403 14:13:50.736121  1013 net.cpp:91] Creating Layer relu4
I0403 14:13:50.736143  1013 net.cpp:425] relu4 <- conv4
I0403 14:13:50.736163  1013 net.cpp:386] relu4 -> conv4 (in-place)
I0403 14:13:50.736459  1013 net.cpp:141] Setting up relu4
I0403 14:13:50.736487  1013 net.cpp:148] Top shape: 100 384 13 13 (6489600)
I0403 14:13:50.736503  1013 net.cpp:156] Memory required for data: 783398000
I0403 14:13:50.736520  1013 layer_factory.hpp:77] Creating layer conv5
I0403 14:13:50.736544  1013 net.cpp:91] Creating Layer conv5
I0403 14:13:50.736562  1013 net.cpp:425] conv5 <- conv4
I0403 14:13:50.736584  1013 net.cpp:399] conv5 -> conv5
I0403 14:13:50.758276  1013 net.cpp:141] Setting up conv5
I0403 14:13:50.758316  1013 net.cpp:148] Top shape: 100 256 13 13 (4326400)
I0403 14:13:50.758333  1013 net.cpp:156] Memory required for data: 800703600
I0403 14:13:50.758363  1013 layer_factory.hpp:77] Creating layer relu5
I0403 14:13:50.758388  1013 net.cpp:91] Creating Layer relu5
I0403 14:13:50.758409  1013 net.cpp:425] relu5 <- conv5
I0403 14:13:50.758435  1013 net.cpp:386] relu5 -> conv5 (in-place)
I0403 14:13:50.758735  1013 net.cpp:141] Setting up relu5
I0403 14:13:50.758770  1013 net.cpp:148] Top shape: 100 256 13 13 (4326400)
I0403 14:13:50.758795  1013 net.cpp:156] Memory required for data: 818009200
I0403 14:13:50.758811  1013 layer_factory.hpp:77] Creating layer pool5
I0403 14:13:50.758837  1013 net.cpp:91] Creating Layer pool5
I0403 14:13:50.758858  1013 net.cpp:425] pool5 <- conv5
I0403 14:13:50.758879  1013 net.cpp:399] pool5 -> pool5
I0403 14:13:50.758949  1013 net.cpp:141] Setting up pool5
I0403 14:13:50.758975  1013 net.cpp:148] Top shape: 100 256 6 6 (921600)
I0403 14:13:50.758991  1013 net.cpp:156] Memory required for data: 821695600
I0403 14:13:50.759006  1013 layer_factory.hpp:77] Creating layer fc6
I0403 14:13:50.759037  1013 net.cpp:91] Creating Layer fc6
I0403 14:13:50.759055  1013 net.cpp:425] fc6 <- pool5
I0403 14:13:50.759075  1013 net.cpp:399] fc6 -> fc6
I0403 14:13:52.305501  1013 net.cpp:141] Setting up fc6
I0403 14:13:52.305543  1013 net.cpp:148] Top shape: 100 4096 (409600)
I0403 14:13:52.305559  1013 net.cpp:156] Memory required for data: 823334000
I0403 14:13:52.305580  1013 layer_factory.hpp:77] Creating layer relu6
I0403 14:13:52.305601  1013 net.cpp:91] Creating Layer relu6
I0403 14:13:52.305619  1013 net.cpp:425] relu6 <- fc6
I0403 14:13:52.305639  1013 net.cpp:386] relu6 -> fc6 (in-place)
I0403 14:13:52.305846  1013 net.cpp:141] Setting up relu6
I0403 14:13:52.305871  1013 net.cpp:148] Top shape: 100 4096 (409600)
I0403 14:13:52.305884  1013 net.cpp:156] Memory required for data: 824972400
I0403 14:13:52.305899  1013 layer_factory.hpp:77] Creating layer drop6
I0403 14:13:52.305917  1013 net.cpp:91] Creating Layer drop6
I0403 14:13:52.305932  1013 net.cpp:425] drop6 <- fc6
I0403 14:13:52.305950  1013 net.cpp:386] drop6 -> fc6 (in-place)
I0403 14:13:52.306002  1013 net.cpp:141] Setting up drop6
I0403 14:13:52.306025  1013 net.cpp:148] Top shape: 100 4096 (409600)
I0403 14:13:52.306038  1013 net.cpp:156] Memory required for data: 826610800
I0403 14:13:52.306052  1013 layer_factory.hpp:77] Creating layer fc7
I0403 14:13:52.306071  1013 net.cpp:91] Creating Layer fc7
I0403 14:13:52.306087  1013 net.cpp:425] fc7 <- fc6
I0403 14:13:52.306108  1013 net.cpp:399] fc7 -> fc7
I0403 14:13:52.996878  1013 net.cpp:141] Setting up fc7
I0403 14:13:52.996922  1013 net.cpp:148] Top shape: 100 4096 (409600)
I0403 14:13:52.996939  1013 net.cpp:156] Memory required for data: 828249200
I0403 14:13:52.996961  1013 layer_factory.hpp:77] Creating layer relu7
I0403 14:13:52.996986  1013 net.cpp:91] Creating Layer relu7
I0403 14:13:52.997006  1013 net.cpp:425] relu7 <- fc7
I0403 14:13:52.997026  1013 net.cpp:386] relu7 -> fc7 (in-place)
I0403 14:13:52.997465  1013 net.cpp:141] Setting up relu7
I0403 14:13:52.997493  1013 net.cpp:148] Top shape: 100 4096 (409600)
I0403 14:13:52.997539  1013 net.cpp:156] Memory required for data: 829887600
I0403 14:13:52.997556  1013 layer_factory.hpp:77] Creating layer drop7
I0403 14:13:52.997580  1013 net.cpp:91] Creating Layer drop7
I0403 14:13:52.997597  1013 net.cpp:425] drop7 <- fc7
I0403 14:13:52.997617  1013 net.cpp:386] drop7 -> fc7 (in-place)
I0403 14:13:52.997661  1013 net.cpp:141] Setting up drop7
I0403 14:13:52.997687  1013 net.cpp:148] Top shape: 100 4096 (409600)
I0403 14:13:52.997704  1013 net.cpp:156] Memory required for data: 831526000
I0403 14:13:52.997720  1013 layer_factory.hpp:77] Creating layer fc8_plantvillage
I0403 14:13:52.997740  1013 net.cpp:91] Creating Layer fc8_plantvillage
I0403 14:13:52.997757  1013 net.cpp:425] fc8_plantvillage <- fc7
I0403 14:13:52.997778  1013 net.cpp:399] fc8_plantvillage -> fc8_plantvillage
I0403 14:13:53.004936  1013 net.cpp:141] Setting up fc8_plantvillage
I0403 14:13:53.004966  1013 net.cpp:148] Top shape: 100 38 (3800)
I0403 14:13:53.004983  1013 net.cpp:156] Memory required for data: 831541200
I0403 14:13:53.005003  1013 layer_factory.hpp:77] Creating layer fc8_plantvillage_fc8_plantvillage_0_split
I0403 14:13:53.005026  1013 net.cpp:91] Creating Layer fc8_plantvillage_fc8_plantvillage_0_split
I0403 14:13:53.005043  1013 net.cpp:425] fc8_plantvillage_fc8_plantvillage_0_split <- fc8_plantvillage
I0403 14:13:53.005062  1013 net.cpp:399] fc8_plantvillage_fc8_plantvillage_0_split -> fc8_plantvillage_fc8_plantvillage_0_split_0
I0403 14:13:53.005084  1013 net.cpp:399] fc8_plantvillage_fc8_plantvillage_0_split -> fc8_plantvillage_fc8_plantvillage_0_split_1
I0403 14:13:53.005105  1013 net.cpp:399] fc8_plantvillage_fc8_plantvillage_0_split -> fc8_plantvillage_fc8_plantvillage_0_split_2
I0403 14:13:53.005187  1013 net.cpp:141] Setting up fc8_plantvillage_fc8_plantvillage_0_split
I0403 14:13:53.005213  1013 net.cpp:148] Top shape: 100 38 (3800)
I0403 14:13:53.005229  1013 net.cpp:148] Top shape: 100 38 (3800)
I0403 14:13:53.005246  1013 net.cpp:148] Top shape: 100 38 (3800)
I0403 14:13:53.005261  1013 net.cpp:156] Memory required for data: 831586800
I0403 14:13:53.005283  1013 layer_factory.hpp:77] Creating layer prob
I0403 14:13:53.005305  1013 net.cpp:91] Creating Layer prob
I0403 14:13:53.005322  1013 net.cpp:425] prob <- fc8_plantvillage_fc8_plantvillage_0_split_0
I0403 14:13:53.005343  1013 net.cpp:399] prob -> prob
I0403 14:13:53.005585  1013 net.cpp:141] Setting up prob
I0403 14:13:53.005612  1013 net.cpp:148] Top shape: 100 38 (3800)
I0403 14:13:53.005628  1013 net.cpp:156] Memory required for data: 831602000
I0403 14:13:53.005645  1013 layer_factory.hpp:77] Creating layer hdf5out
I0403 14:13:53.005666  1013 net.cpp:91] Creating Layer hdf5out
I0403 14:13:53.005684  1013 net.cpp:425] hdf5out <- prob
I0403 14:13:53.005702  1013 net.cpp:425] hdf5out <- label_data_1_split_0
I0403 14:13:53.007941  1013 net.cpp:141] Setting up hdf5out
…
