…
I0403 14:30:39.261570  1396 net.cpp:313] The NetState phase (1) differed from the phase (0) specified by a rule in layer data
I0403 14:30:39.261862  1396 net.cpp:49] Initializing net from parameters: 
state {
  phase: TEST
}
layer {
  name: "data"
  type: "Data"
  top: "data"
  top: "label"
  include {
    phase: TEST
  }
  transform_param {
    crop_size: 227
    mean_file: "/home/mohanty/data/final_dataset/lmdb/segmented-50-50/mean.binaryproto"
  }
  data_param {
    source: "/home/mohanty/data/final_dataset/lmdb/segmented-50-50/test_db"
    batch_size: 100
    backend: LMDB
  }
}
layer {
  name: "conv1"
  type: "Convolution"
  bottom: "data"
  top: "conv1"
  param {
    lr_mult: 1
    decay_mult: 1
  }
  param {
    lr_mult: 2
    decay_mult: 0
  }
  convolution_param {
    num_output: 96
    kernel_size: 11
    stride: 4
    weight_filler {
      type: "gaussian"
      std: 0.01
    }
    bias_filler {
      type: "constant"
      value: 0
    }
  }
}
layer {
  name: "relu1"
  type: "ReLU"
  bottom: "conv1"
  top: "conv1"
}
layer {
  name: "norm1"
  type: "LRN"
  bottom: "conv1"
  top: "norm1"
  lrn_param {
    local_size: 5
    alpha: 0.0001
    beta: 0.75
  }
}
layer {
  name: "pool1"
  type: "Pooling"
  bottom: "norm1"
  top: "pool1"
  pooling_param {
    pool: MAX
    kernel_size: 3
    stride: 2
  }
}
layer {
  name: "conv2"
  type: "Convolution"
  bottom: "pool1"
  top: "conv2"
  param {
    lr_mult: 1
    decay_mult: 1
  }
  param {
    lr_mult: 2
    decay_mult: 0
  }
  convolution_param {
    num_output: 256
    pad: 2
    kernel_size: 5
    group: 2
    weight_filler {
      type: "gaussian"
      std: 0.01
    }
    bias_filler {
      type: "constant"
      value: 0.1
    }
  }
}
layer {
  name: "relu2"
  type: "ReLU"
  bottom: "conv2"
  top: "conv2"
}
layer {
  name: "norm2"
  type: "LRN"
  bottom: "conv2"
  top: "norm2"
  lrn_param {
    local_size: 5
    alpha: 0.0001
    beta: 0.75
  }
}
layer {
  name: "pool2"
  type: "Pooling"
  bottom: "norm2"
  top: "pool2"
  pooling_param {
    pool: MAX
    kernel_size: 3
    stride: 2
  }
}
layer {
  name: "conv3"
  type: "Convolution"
  bottom: "pool2"
  top: "conv3"
  param {
    lr_mult: 1
    decay_mult: 1
  }
  param {
    lr_mult: 2
    decay_mult: 0
  }
  convolution_param {
    num_output: 384
    pad: 1
    kernel_size: 3
    weight_filler {
      type: "gaussian"
      std: 0.01
    }
    bias_filler {
      type: "constant"
      value: 0
    }
  }
}
layer {
  name: "relu3"
  type: "ReLU"
  bottom: "conv3"
  top: "conv3"
}
layer {
  name: "conv4"
  type: "Convolution"
  bottom: "conv3"
  top: "conv4"
  param {
    lr_mult: 1
    decay_mult: 1
  }
  param {
    lr_mult: 2
    decay_mult: 0
  }
  convolution_param {
    num_output: 384
    pad: 1
    kernel_size: 3
    group: 2
    weight_filler {
      type: "gaussian"
      std: 0.01
    }
    bias_filler {
      type: "constant"
      value: 0.1
    }
  }
}
layer {
  name: "relu4"
  type: "ReLU"
  bottom: "conv4"
  top: "conv4"
}
layer {
  name: "conv5"
  type: "Convolution"
  bottom: "conv4"
  top: "conv5"
  param {
    lr_mult: 1
    decay_mult: 1
  }
  param {
    lr_mult: 2
    decay_mult: 0
  }
  convolution_param {
    num_output: 256
    pad: 1
    kernel_size: 3
    group: 2
    weight_filler {
      type: "gaussian"
      std: 0.01
    }
    bias_filler {
      type: "constant"
      value: 0.1
    }
  }
}
layer {
  name: "relu5"
  type: "ReLU"
  bottom: "conv5"
  top: "conv5"
}
layer {
  name: "pool5"
  type: "Pooling"
  bottom: "conv5"
  top: "pool5"
  pooling_param {
    pool: MAX
    kernel_size: 3
    stride: 2
  }
}
layer {
  name: "fc6"
  type: "InnerProduct"
  bottom: "pool5"
  top: "fc6"
  param {
    lr_mult: 1
    decay_mult: 1
  }
  param {
    lr_mult: 2
    decay_mult: 0
  }
  inner_product_param {
    num_output: 4096
    weight_filler {
      type: "gaussian"
      std: 0.005
    }
    bias_filler {
      type: "constant"
      value: 0.1
    }
  }
}
layer {
  name: "relu6"
  type: "ReLU"
  bottom: "fc6"
  top: "fc6"
}
layer {
  name: "drop6"
  type: "Dropout"
  bottom: "fc6"
  top: "fc6"
  dropout_param {
    dropout_ratio: 0.5
  }
}
layer {
  name: "fc7"
  type: "InnerProduct"
  bottom: "fc6"
  top: "fc7"
  param {
    lr_mult: 1
    decay_mult: 1
  }
  param {
    lr_mult: 2
    decay_mult: 0
  }
  inner_product_param {
    num_output: 4096
    weight_filler {
      type: "gaussian"
      std: 0.005
    }
    bias_filler {
      type: "constant"
      value: 0.1
    }
  }
}
layer {
  name: "relu7"
  type: "ReLU"
  bottom: "fc7"
  top: "fc7"
}
layer {
  name: "drop7"
  type: "Dropout"
  bottom: "fc7"
  top: "fc7"
  dropout_param {
    dropout_ratio: 0.5
  }
}
layer {
  name: "fc8_plantvillage"
  type: "InnerProduct"
  bottom: "fc7"
  top: "fc8_plantvillage"
  param {
    lr_mult: 1
    decay_mult: 1
  }
  param {
    lr_mult: 2
    decay_mult: 0
  }
  inner_product_param {
    num_output: 38
    weight_filler {
      type: "gaussian"
      std: 0.01
    }
    bias_filler {
      type: "constant"
      value: 0
    }
  }
}
layer {
  name: "prob"
  type: "Softmax"
  bottom: "fc8_plantvillage"
  top: "prob"
  include {
    phase: TEST
  }
}
layer {
  name: "hdf5out"
  type: "HDF5Output"
  bottom: "prob"
  bottom: "label"
  include {
    phase: TEST
  }
  hdf5_output_param {
    file_name: "hdf5_dumps/iter_7504.h5"
  }
}
layer {
  name: "loss"
  type: "SoftmaxWithLoss"
  bottom: "fc8_plantvillage"
  bottom: "label"
  top: "loss"
}
layer {
  name: "accuracy"
  type: "Accuracy"
  bottom: "fc8_plantvillage"
  bottom: "label"
  top: "accuracy"
  include {
    phase: TEST
  }
}
I0403 14:30:39.262472  1396 layer_factory.hpp:77] Creating layer data
I0403 14:30:39.263136  1396 net.cpp:91] Creating Layer data
I0403 14:30:39.263167  1396 net.cpp:399] data -> data
I0403 14:30:39.263219  1396 net.cpp:399] data -> label
I0403 14:30:39.263257  1396 data_transformer.cpp:25] Loading mean file from: /home/mohanty/data/final_dataset/lmdb/segmented-50-50/mean.binaryproto
I0403 14:30:39.266479  1399 db_lmdb.cpp:38] Opened lmdb /home/mohanty/data/final_dataset/lmdb/segmented-50-50/test_db
I0403 14:30:39.277357  1396 data_layer.cpp:41] output data size: 100,3,227,227
I0403 14:30:39.397482  1396 net.cpp:141] Setting up data
I0403 14:30:39.397588  1396 net.cpp:148] Top shape: 100 3 227 227 (15458700)
I0403 14:30:39.397614  1396 net.cpp:148] Top shape: 100 (100)
I0403 14:30:39.397629  1396 net.cpp:156] Memory required for data: 61835200
I0403 14:30:39.397658  1396 layer_factory.hpp:77] Creating layer label_data_1_split
I0403 14:30:39.397686  1396 net.cpp:91] Creating Layer label_data_1_split
I0403 14:30:39.397704  1396 net.cpp:425] label_data_1_split <- label
I0403 14:30:39.397737  1396 net.cpp:399] label_data_1_split -> label_data_1_split_0
I0403 14:30:39.397765  1396 net.cpp:399] label_data_1_split -> label_data_1_split_1
I0403 14:30:39.397786  1396 net.cpp:399] label_data_1_split -> label_data_1_split_2
I0403 14:30:39.397850  1396 net.cpp:141] Setting up label_data_1_split
I0403 14:30:39.397874  1396 net.cpp:148] Top shape: 100 (100)
I0403 14:30:39.397892  1396 net.cpp:148] Top shape: 100 (100)
I0403 14:30:39.397910  1396 net.cpp:148] Top shape: 100 (100)
I0403 14:30:39.397925  1396 net.cpp:156] Memory required for data: 61836400
I0403 14:30:39.397941  1396 layer_factory.hpp:77] Creating layer conv1
I0403 14:30:39.397975  1396 net.cpp:91] Creating Layer conv1
I0403 14:30:39.397995  1396 net.cpp:425] conv1 <- data
I0403 14:30:39.398015  1396 net.cpp:399] conv1 -> conv1
I0403 14:30:39.540113  1396 net.cpp:141] Setting up conv1
I0403 14:30:39.540199  1396 net.cpp:148] Top shape: 100 96 55 55 (29040000)
I0403 14:30:39.540218  1396 net.cpp:156] Memory required for data: 177996400
I0403 14:30:39.540251  1396 layer_factory.hpp:77] Creating layer relu1
I0403 14:30:39.540283  1396 net.cpp:91] Creating Layer relu1
I0403 14:30:39.540303  1396 net.cpp:425] relu1 <- conv1
I0403 14:30:39.540323  1396 net.cpp:386] relu1 -> conv1 (in-place)
I0403 14:30:39.540580  1396 net.cpp:141] Setting up relu1
I0403 14:30:39.540607  1396 net.cpp:148] Top shape: 100 96 55 55 (29040000)
I0403 14:30:39.540655  1396 net.cpp:156] Memory required for data: 294156400
I0403 14:30:39.540673  1396 layer_factory.hpp:77] Creating layer norm1
I0403 14:30:39.540699  1396 net.cpp:91] Creating Layer norm1
I0403 14:30:39.540719  1396 net.cpp:425] norm1 <- conv1
I0403 14:30:39.540736  1396 net.cpp:399] norm1 -> norm1
I0403 14:30:39.541044  1396 net.cpp:141] Setting up norm1
I0403 14:30:39.541072  1396 net.cpp:148] Top shape: 100 96 55 55 (29040000)
I0403 14:30:39.541088  1396 net.cpp:156] Memory required for data: 410316400
I0403 14:30:39.541105  1396 layer_factory.hpp:77] Creating layer pool1
I0403 14:30:39.541128  1396 net.cpp:91] Creating Layer pool1
I0403 14:30:39.541146  1396 net.cpp:425] pool1 <- norm1
I0403 14:30:39.541163  1396 net.cpp:399] pool1 -> pool1
I0403 14:30:39.541229  1396 net.cpp:141] Setting up pool1
I0403 14:30:39.541254  1396 net.cpp:148] Top shape: 100 96 27 27 (6998400)
I0403 14:30:39.541270  1396 net.cpp:156] Memory required for data: 438310000
I0403 14:30:39.541290  1396 layer_factory.hpp:77] Creating layer conv2
I0403 14:30:39.541316  1396 net.cpp:91] Creating Layer conv2
I0403 14:30:39.541332  1396 net.cpp:425] conv2 <- pool1
I0403 14:30:39.541350  1396 net.cpp:399] conv2 -> conv2
I0403 14:30:39.556301  1396 net.cpp:141] Setting up conv2
I0403 14:30:39.556339  1396 net.cpp:148] Top shape: 100 256 27 27 (18662400)
I0403 14:30:39.556357  1396 net.cpp:156] Memory required for data: 512959600
I0403 14:30:39.556380  1396 layer_factory.hpp:77] Creating layer relu2
I0403 14:30:39.556398  1396 net.cpp:91] Creating Layer relu2
I0403 14:30:39.556416  1396 net.cpp:425] relu2 <- conv2
I0403 14:30:39.556435  1396 net.cpp:386] relu2 -> conv2 (in-place)
I0403 14:30:39.556704  1396 net.cpp:141] Setting up relu2
I0403 14:30:39.556731  1396 net.cpp:148] Top shape: 100 256 27 27 (18662400)
I0403 14:30:39.556748  1396 net.cpp:156] Memory required for data: 587609200
I0403 14:30:39.556764  1396 layer_factory.hpp:77] Creating layer norm2
I0403 14:30:39.556785  1396 net.cpp:91] Creating Layer norm2
I0403 14:30:39.556803  1396 net.cpp:425] norm2 <- conv2
I0403 14:30:39.556823  1396 net.cpp:399] norm2 -> norm2
I0403 14:30:39.557003  1396 net.cpp:141] Setting up norm2
I0403 14:30:39.557030  1396 net.cpp:148] Top shape: 100 256 27 27 (18662400)
I0403 14:30:39.557046  1396 net.cpp:156] Memory required for data: 662258800
I0403 14:30:39.557062  1396 layer_factory.hpp:77] Creating layer pool2
I0403 14:30:39.557081  1396 net.cpp:91] Creating Layer pool2
I0403 14:30:39.557097  1396 net.cpp:425] pool2 <- norm2
I0403 14:30:39.557116  1396 net.cpp:399] pool2 -> pool2
I0403 14:30:39.557164  1396 net.cpp:141] Setting up pool2
I0403 14:30:39.557188  1396 net.cpp:148] Top shape: 100 256 13 13 (4326400)
I0403 14:30:39.557204  1396 net.cpp:156] Memory required for data: 679564400
I0403 14:30:39.557219  1396 layer_factory.hpp:77] Creating layer conv3
I0403 14:30:39.557240  1396 net.cpp:91] Creating Layer conv3
I0403 14:30:39.557256  1396 net.cpp:425] conv3 <- pool2
I0403 14:30:39.557279  1396 net.cpp:399] conv3 -> conv3
I0403 14:30:39.596730  1396 net.cpp:141] Setting up conv3
I0403 14:30:39.596813  1396 net.cpp:148] Top shape: 100 384 13 13 (6489600)
I0403 14:30:39.596833  1396 net.cpp:156] Memory required for data: 705522800
I0403 14:30:39.596859  1396 layer_factory.hpp:77] Creating layer relu3
I0403 14:30:39.596882  1396 net.cpp:91] Creating Layer relu3
I0403 14:30:39.596901  1396 net.cpp:425] relu3 <- conv3
I0403 14:30:39.596920  1396 net.cpp:386] relu3 -> conv3 (in-place)
I0403 14:30:39.597242  1396 net.cpp:141] Setting up relu3
I0403 14:30:39.597278  1396 net.cpp:148] Top shape: 100 384 13 13 (6489600)
I0403 14:30:39.597297  1396 net.cpp:156] Memory required for data: 731481200
I0403 14:30:39.597313  1396 layer_factory.hpp:77] Creating layer conv4
I0403 14:30:39.597342  1396 net.cpp:91] Creating Layer conv4
I0403 14:30:39.597359  1396 net.cpp:425] conv4 <- conv3
I0403 14:30:39.597380  1396 net.cpp:399] conv4 -> conv4
I0403 14:30:39.628283  1396 net.cpp:141] Setting up conv4
I0403 14:30:39.628337  1396 net.cpp:148] Top shape: 100 384 13 13 (6489600)
I0403 14:30:39.628376  1396 net.cpp:156] Memory required for data: 757439600
I0403 14:30:39.628399  1396 layer_factory.hpp:77] Creating layer relu4
I0403 14:30:39.628423  1396 net.cpp:91] Creating Layer relu4
I0403 14:30:39.628443  1396 net.cpp:425] relu4 <- conv4
I0403 14:30:39.628461  1396 net.cpp:386] relu4 -> conv4 (in-place)
I0403 14:30:39.628751  1396 net.cpp:141] Setting up relu4
I0403 14:30:39.628778  1396 net.cpp:148] Top shape: 100 384 13 13 (6489600)
I0403 14:30:39.628794  1396 net.cpp:156] Memory required for data: 783398000
I0403 14:30:39.628810  1396 layer_factory.hpp:77] Creating layer conv5
I0403 14:30:39.628836  1396 net.cpp:91] Creating Layer conv5
I0403 14:30:39.628854  1396 net.cpp:425] conv5 <- conv4
I0403 14:30:39.628875  1396 net.cpp:399] conv5 -> conv5
I0403 14:30:39.649559  1396 net.cpp:141] Setting up conv5
I0403 14:30:39.649600  1396 net.cpp:148] Top shape: 100 256 13 13 (4326400)
I0403 14:30:39.649617  1396 net.cpp:156] Memory required for data: 800703600
I0403 14:30:39.649642  1396 layer_factory.hpp:77] Creating layer relu5
I0403 14:30:39.649665  1396 net.cpp:91] Creating Layer relu5
I0403 14:30:39.649684  1396 net.cpp:425] relu5 <- conv5
I0403 14:30:39.649705  1396 net.cpp:386] relu5 -> conv5 (in-place)
I0403 14:30:39.649981  1396 net.cpp:141] Setting up relu5
I0403 14:30:39.650012  1396 net.cpp:148] Top shape: 100 256 13 13 (4326400)
I0403 14:30:39.650032  1396 net.cpp:156] Memory required for data: 818009200
I0403 14:30:39.650048  1396 layer_factory.hpp:77] Creating layer pool5
I0403 14:30:39.650073  1396 net.cpp:91] Creating Layer pool5
I0403 14:30:39.650091  1396 net.cpp:425] pool5 <- conv5
I0403 14:30:39.650116  1396 net.cpp:399] pool5 -> pool5
I0403 14:30:39.650178  1396 net.cpp:141] Setting up pool5
I0403 14:30:39.650207  1396 net.cpp:148] Top shape: 100 256 6 6 (921600)
I0403 14:30:39.650223  1396 net.cpp:156] Memory required for data: 821695600
I0403 14:30:39.650240  1396 layer_factory.hpp:77] Creating layer fc6
I0403 14:30:39.650267  1396 net.cpp:91] Creating Layer fc6
I0403 14:30:39.650290  1396 net.cpp:425] fc6 <- pool5
I0403 14:30:39.650313  1396 net.cpp:399] fc6 -> fc6
I0403 14:30:41.219959  1396 net.cpp:141] Setting up fc6
I0403 14:30:41.220005  1396 net.cpp:148] Top shape: 100 4096 (409600)
I0403 14:30:41.220022  1396 net.cpp:156] Memory required for data: 823334000
I0403 14:30:41.220043  1396 layer_factory.hpp:77] Creating layer relu6
I0403 14:30:41.220064  1396 net.cpp:91] Creating Layer relu6
I0403 14:30:41.220083  1396 net.cpp:425] relu6 <- fc6
I0403 14:30:41.220103  1396 net.cpp:386] relu6 -> fc6 (in-place)
I0403 14:30:41.220319  1396 net.cpp:141] Setting up relu6
I0403 14:30:41.220347  1396 net.cpp:148] Top shape: 100 4096 (409600)
I0403 14:30:41.220365  1396 net.cpp:156] Memory required for data: 824972400
I0403 14:30:41.220379  1396 layer_factory.hpp:77] Creating layer drop6
I0403 14:30:41.220399  1396 net.cpp:91] Creating Layer drop6
I0403 14:30:41.220414  1396 net.cpp:425] drop6 <- fc6
I0403 14:30:41.220434  1396 net.cpp:386] drop6 -> fc6 (in-place)
I0403 14:30:41.220486  1396 net.cpp:141] Setting up drop6
I0403 14:30:41.220510  1396 net.cpp:148] Top shape: 100 4096 (409600)
I0403 14:30:41.220525  1396 net.cpp:156] Memory required for data: 826610800
I0403 14:30:41.220538  1396 layer_factory.hpp:77] Creating layer fc7
I0403 14:30:41.220561  1396 net.cpp:91] Creating Layer fc7
I0403 14:30:41.220578  1396 net.cpp:425] fc7 <- fc6
I0403 14:30:41.220598  1396 net.cpp:399] fc7 -> fc7
I0403 14:30:41.915441  1396 net.cpp:141] Setting up fc7
I0403 14:30:41.915484  1396 net.cpp:148] Top shape: 100 4096 (409600)
I0403 14:30:41.915501  1396 net.cpp:156] Memory required for data: 828249200
I0403 14:30:41.915524  1396 layer_factory.hpp:77] Creating layer relu7
I0403 14:30:41.915545  1396 net.cpp:91] Creating Layer relu7
I0403 14:30:41.915562  1396 net.cpp:425] relu7 <- fc7
I0403 14:30:41.915580  1396 net.cpp:386] relu7 -> fc7 (in-place)
I0403 14:30:41.915995  1396 net.cpp:141] Setting up relu7
I0403 14:30:41.916024  1396 net.cpp:148] Top shape: 100 4096 (409600)
I0403 14:30:41.916071  1396 net.cpp:156] Memory required for data: 829887600
I0403 14:30:41.916087  1396 layer_factory.hpp:77] Creating layer drop7
I0403 14:30:41.916106  1396 net.cpp:91] Creating Layer drop7
I0403 14:30:41.916122  1396 net.cpp:425] drop7 <- fc7
I0403 14:30:41.916138  1396 net.cpp:386] drop7 -> fc7 (in-place)
I0403 14:30:41.916183  1396 net.cpp:141] Setting up drop7
I0403 14:30:41.916205  1396 net.cpp:148] Top shape: 100 4096 (409600)
I0403 14:30:41.916219  1396 net.cpp:156] Memory required for data: 831526000
I0403 14:30:41.916235  1396 layer_factory.hpp:77] Creating layer fc8_plantvillage
I0403 14:30:41.916256  1396 net.cpp:91] Creating Layer fc8_plantvillage
I0403 14:30:41.916277  1396 net.cpp:425] fc8_plantvillage <- fc7
I0403 14:30:41.916296  1396 net.cpp:399] fc8_plantvillage -> fc8_plantvillage
I0403 14:30:41.922879  1396 net.cpp:141] Setting up fc8_plantvillage
I0403 14:30:41.922920  1396 net.cpp:148] Top shape: 100 38 (3800)
I0403 14:30:41.922936  1396 net.cpp:156] Memory required for data: 831541200
I0403 14:30:41.922956  1396 layer_factory.hpp:77] Creating layer fc8_plantvillage_fc8_plantvillage_0_split
I0403 14:30:41.922976  1396 net.cpp:91] Creating Layer fc8_plantvillage_fc8_plantvillage_0_split
I0403 14:30:41.922991  1396 net.cpp:425] fc8_plantvillage_fc8_plantvillage_0_split <- fc8_plantvillage
I0403 14:30:41.923012  1396 net.cpp:399] fc8_plantvillage_fc8_plantvillage_0_split -> fc8_plantvillage_fc8_plantvillage_0_split_0
I0403 14:30:41.923032  1396 net.cpp:399] fc8_plantvillage_fc8_plantvillage_0_split -> fc8_plantvillage_fc8_plantvillage_0_split_1
I0403 14:30:41.923051  1396 net.cpp:399] fc8_plantvillage_fc8_plantvillage_0_split -> fc8_plantvillage_fc8_plantvillage_0_split_2
I0403 14:30:41.923127  1396 net.cpp:141] Setting up fc8_plantvillage_fc8_plantvillage_0_split
I0403 14:30:41.923151  1396 net.cpp:148] Top shape: 100 38 (3800)
I0403 14:30:41.923168  1396 net.cpp:148] Top shape: 100 38 (3800)
I0403 14:30:41.923184  1396 net.cpp:148] Top shape: 100 38 (3800)
I0403 14:30:41.923198  1396 net.cpp:156] Memory required for data: 831586800
I0403 14:30:41.923224  1396 layer_factory.hpp:77] Creating layer prob
I0403 14:30:41.923244  1396 net.cpp:91] Creating Layer prob
I0403 14:30:41.923260  1396 net.cpp:425] prob <- fc8_plantvillage_fc8_plantvillage_0_split_0
I0403 14:30:41.923283  1396 net.cpp:399] prob -> prob
I0403 14:30:41.923501  1396 net.cpp:141] Setting up prob
I0403 14:30:41.923529  1396 net.cpp:148] Top shape: 100 38 (3800)
I0403 14:30:41.923545  1396 net.cpp:156] Memory required for data: 831602000
I0403 14:30:41.923559  1396 layer_factory.hpp:77] Creating layer hdf5out
I0403 14:30:41.923578  1396 net.cpp:91] Creating Layer hdf5out
I0403 14:30:41.923593  1396 net.cpp:425] hdf5out <- prob
I0403 14:30:41.923609  1396 net.cpp:425] hdf5out <- label_data_1_split_0
I0403 14:30:41.925842  1396 net.cpp:141] Setting up hdf5out
…
