…
I0403 02:30:37.712620 19580 net.cpp:313] The NetState phase (0) differed from the phase (1) specified by a rule in layer loss3/top-5
I0403 02:30:37.717334 19580 net.cpp:49] Initializing net from parameters: 
state {
  phase: TRAIN
}
layer {
  name: "data"
  type: "Data"
  top: "data"
  top: "label"
  include {
    phase: TRAIN
  }
  transform_param {
    mirror: true
    crop_size: 224
    mean_file: "/home/mohanty/data/final_dataset/lmdb/grayscale-20-80/mean.binaryproto"
  }
  data_param {
    source: "/home/mohanty/data/final_dataset/lmdb/grayscale-20-80/train_db"
    batch_size: 24
    backend: LMDB
  }
}
layer {
  name: "conv1/7x7_s2"
  type: "Convolution"
  bottom: "data"
  top: "conv1/7x7_s2"
  param {
    lr_mult: 1
    decay_mult: 1
  }
  param {
    lr_mult: 2
    decay_mult: 0
  }
  convolution_param {
    num_output: 64
    pad: 3
    kernel_size: 7
    stride: 2
    weight_filler {
      type: "xavier"
      std: 0.1
    }
    bias_filler {
      type: "constant"
      value: 0.2
    }
  }
}
layer {
  name: "conv1/relu_7x7"
  type: "ReLU"
  bottom: "conv1/7x7_s2"
  top: "conv1/7x7_s2"
}
layer {
  name: "pool1/3x3_s2"
  type: "Pooling"
  bottom: "conv1/7x7_s2"
  top: "pool1/3x3_s2"
  pooling_param {
    pool: MAX
    kernel_size: 3
    stride: 2
  }
}
layer {
  name: "pool1/norm1"
  type: "LRN"
  bottom: "pool1/3x3_s2"
  top: "pool1/norm1"
  lrn_param {
    local_size: 5
    alpha: 0.0001
    beta: 0.75
  }
}
layer {
  name: "conv2/3x3_reduce"
  type: "Convolution"
  bottom: "pool1/norm1"
  top: "conv2/3x3_reduce"
  param {
    lr_mult: 1
    decay_mult: 1
  }
  param {
    lr_mult: 2
    decay_mult: 0
  }
  convolution_param {
    num_output: 64
    kernel_size: 1
    weight_filler {
      type: "xavier"
      std: 0.1
    }
    bias_filler {
      type: "constant"
      value: 0.2
    }
  }
}
layer {
  name: "conv2/relu_3x3_reduce"
  type: "ReLU"
  bottom: "conv2/3x3_reduce"
  top: "conv2/3x3_reduce"
}
layer {
  name: "conv2/3x3"
  type: "Convolution"
  bottom: "conv2/3x3_reduce"
  top: "conv2/3x3"
  param {
    lr_mult: 1
    decay_mult: 1
  }
  param {
    lr_mult: 2
    decay_mult: 0
  }
  convolution_param {
    num_output: 192
    pad: 1
    kernel_size: 3
    weight_filler {
      type: "xavier"
      std: 0.03
    }
    bias_filler {
      type: "constant"
      value: 0.2
    }
  }
}
layer {
  name: "conv2/relu_3x3"
  type: "ReLU"
  bottom: "conv2/3x3"
  top: "conv2/3x3"
}
layer {
  name: "conv2/norm2"
  type: "LRN"
  bottom: "conv2/3x3"
  top: "conv2/norm2"
  lrn_param {
    local_size: 5
    alpha: 0.0001
    beta: 0.75
  }
}
layer {
  name: "pool2/3x3_s2"
  type: "Pooling"
  bottom: "conv2/norm2"
  top: "pool2/3x3_s2"
  pooling_param {
    pool: MAX
    kernel_size: 3
    stride: 2
  }
}
layer {
  name: "inception_3a/1x1"
  type: "Convolution"
  bottom: "pool2/3x3_s2"
  top: "inception_3a/1x1"
  param {
    lr_mult: 1
    decay_mult: 1
  }
  param {
    lr_mult: 2
    decay_mult: 0
  }
  convolution_param {
    num_output: 64
    kernel_size: 1
    weight_filler {
      type: "xavier"
      std: 0.03
    }
    bias_filler {
      type: "constant"
      value: 0.2
    }
  }
}
layer {
  name: "inception_3a/relu_1x1"
  type: "ReLU"
  bottom: "inception_3a/1x1"
  top: "inception_3a/1x1"
}
layer {
  name: "inception_3a/3x3_reduce"
  type: "Convolution"
  bottom: "pool2/3x3_s2"
  top: "inception_3a/3x3_reduce"
  param {
    lr_mult: 1
    decay_mult: 1
  }
  param {
    lr_mult: 2
    decay_mult: 0
  }
  convolution_param {
    num_output: 96
    kernel_size: 1
    weight_filler {
      type: "xavier"
      std: 0.09
    }
    bias_filler {
      type: "constant"
      value: 0.2
    }
  }
}
layer {
  name: "inception_3a/relu_3x3_reduce"
  type: "ReLU"
  bottom: "inception_3a/3x3_reduce"
  top: "inception_3a/3x3_reduce"
}
layer {
  name: "inception_3a/3x3"
  type: "Convolution"
  bottom: "inception_3a/3x3_reduce"
  top: "inception_3a/3x3"
  param {
    lr_mult: 1
    decay_mult: 1
  }
  param {
    lr_mult: 2
    decay_mult: 0
  }
  convolution_param {
    num_output: 128
    pad: 1
    kernel_size: 3
    weight_filler {
      type: "xavier"
      std: 0.03
    }
    bias_filler {
      type: "constant"
      value: 0.2
    }
  }
}
layer {
  name: "inception_3a/relu_3x3"
  type: "ReLU"
  bottom: "inception_3a/3x3"
  top: "inception_3a/3x3"
}
layer {
  name: "inception_3a/5x5_reduce"
  type: "Convolution"
  bottom: "pool2/3x3_s2"
  top: "inception_3a/5x5_reduce"
  param {
    lr_mult: 1
    decay_mult: 1
  }
  param {
    lr_mult: 2
    decay_mult: 0
  }
  convolution_param {
    num_output: 16
    kernel_size: 1
    weight_filler {
      type: "xavier"
      std: 0.2
    }
    bias_filler {
      type: "constant"
      value: 0.2
    }
  }
}
layer {
  name: "inception_3a/relu_5x5_reduce"
  type: "ReLU"
  bottom: "inception_3a/5x5_reduce"
  top: "inception_3a/5x5_reduce"
}
layer {
  name: "inception_3a/5x5"
  type: "Convolution"
  bottom: "inception_3a/5x5_reduce"
  top: "inception_3a/5x5"
  param {
    lr_mult: 1
    decay_mult: 1
  }
  param {
    lr_mult: 2
    decay_mult: 0
  }
  convolution_param {
    num_output: 32
    pad: 2
    kernel_size: 5
    weight_filler {
      type: "xavier"
      std: 0.03
    }
    bias_filler {
      type: "constant"
      value: 0.2
    }
  }
}
layer {
  name: "inception_3a/relu_5x5"
  type: "ReLU"
  bottom: "inception_3a/5x5"
  top: "inception_3a/5x5"
}
layer {
  name: "inception_3a/pool"
  type: "Pooling"
  bottom: "pool2/3x3_s2"
  top: "inception_3a/pool"
  pooling_param {
    pool: MAX
    kernel_size: 3
    stride: 1
    pad: 1
  }
}
layer {
  name: "inception_3a/pool_proj"
  type: "Convolution"
  bottom: "inception_3a/pool"
  top: "inception_3a/pool_proj"
  param {
    lr_mult: 1
    decay_mult: 1
  }
  param {
    lr_mult: 2
    decay_mult: 0
  }
  convolution_param {
    num_output: 32
    kernel_size: 1
    weight_filler {
      type: "xavier"
      std: 0.1
    }
    bias_filler {
      type: "constant"
      value: 0.2
    }
  }
}
layer {
  name: "inception_3a/relu_pool_proj"
  type: "ReLU"
  bottom: "inception_3a/pool_proj"
  top: "inception_3a/pool_proj"
}
layer {
  name: "inception_3a/output"
  type: "Concat"
  bottom: "inception_3a/1x1"
  bottom: "inception_3a/3x3"
  bottom: "inception_3a/5x5"
  bottom: "inception_3a/pool_proj"
  top: "inception_3a/output"
}
layer {
  name: "inception_3b/1x1"
  type: "Convolution"
  bottom: "inception_3a/output"
  top: "inception_3b/1x1"
  param {
    lr_mult: 1
    decay_mult: 1
  }
  param {
    lr_mult: 2
    decay_mult: 0
  }
  convolution_param {
    num_output: 128
    kernel_size: 1
    weight_filler {
      type: "xavier"
      std: 0.03
    }
    bias_filler {
      type: "constant"
      value: 0.2
    }
  }
}
layer {
  name: "inception_3b/relu_1x1"
  type: "ReLU"
  bottom: "inception_3b/1x1"
  top: "inception_3b/1x1"
}
layer {
  name: "inception_3b/3x3_reduce"
  type: "Convolution"
  bottom: "inception_3a/output"
  top: "inception_3b/3x3_reduce"
  param {
    lr_mult: 1
    decay_mult: 1
  }
  param {
    lr_mult: 2
    decay_mult: 0
  }
  convolution_param {
    num_output: 128
    kernel_size: 1
    weight_filler {
      type: "xavier"
      std: 0.09
    }
    bias_filler {
      type: "constant"
      value: 0.2
    }
  }
}
layer {
  name: "inception_3b/relu_3x3_reduce"
  type: "ReLU"
  bottom: "inception_3b/3x3_reduce"
  top: "inception_3b/3x3_reduce"
}
layer {
  name: "inception_3b/3x3"
  type: "Convolution"
  bottom: "inception_3b/3x3_reduce"
  top: "inception_3b/3x3"
  param {
    lr_mult: 1
    decay_mult: 1
  }
  param {
    lr_mult: 2
    decay_mult: 0
  }
  convolution_param {
    num_output: 192
    pad: 1
    kernel_size: 3
    weight_filler {
      type: "xavier"
      std: 0.03
    }
    bias_filler {
      type: "constant"
      value: 0.2
    }
  }
}
layer {
  name: "inception_3b/relu_3x3"
  type: "ReLU"
  bottom: "inception_3b/3x3"
  top: "inception_3b/3x3"
}
layer {
  name: "inception_3b/5x5_reduce"
  type: "Convolution"
  bottom: "inception_3a/output"
  top: "inception_3b/5x5_reduce"
  param {
    lr_mult: 1
    decay_mult: 1
  }
  param {
    lr_mult: 2
    decay_mult: 0
  }
  convolution_param {
    num_output: 32
    kernel_size: 1
    weight_filler {
      type: "xavier"
      std: 0.2
    }
    bias_filler {
      type: "constant"
      value: 0.2
    }
  }
}
layer {
  name: "inception_3b/relu_5x5_reduce"
  type: "ReLU"
  bottom: "inception_3b/5x5_reduce"
  top: "inception_3b/5x5_reduce"
}
layer {
  name: "inception_3b/5x5"
  type: "Convolution"
  bottom: "inception_3b/5x5_reduce"
  top: "inception_3b/5x5"
  param {
    lr_mult: 1
    decay_mult: 1
  }
  param {
    lr_mult: 2
    decay_mult: 0
  }
  convolution_param {
    num_output: 96
    pad: 2
    kernel_size: 5
    weight_filler {
      type: "xavier"
      std: 0.03
    }
    bias_filler {
      type: "constant"
      value: 0.2
    }
  }
}
layer {
  name: "inception_3b/relu_5x5"
  type: "ReLU"
  bottom: "inception_3b/5x5"
  top: "inception_3b/5x5"
}
layer {
  name: "inception_3b/pool"
  type: "Pooling"
  bottom: "inception_3a/output"
  top: "inception_3b/pool"
  pooling_param {
    pool: MAX
    kernel_size: 3
    stride: 1
    pad: 1
  }
}
layer {
  name: "inception_3b/pool_proj"
  type: "Convolution"
  bottom: "inception_3b/pool"
  top: "inception_3b/pool_proj"
  param {
    lr_mult: 1
    decay_mult: 1
  }
  param {
    lr_mult: 2
    decay_mult: 0
  }
  convolution_param {
    num_output: 64
    kernel_size: 1
    weight_filler {
      type: "xavier"
      std: 0.1
    }
    bias_filler {
      type: "constant"
      value: 0.2
    }
  }
}
layer {
  name: "inception_3b/relu_pool_proj"
  type: "ReLU"
  bottom: "inception_3b/pool_proj"
  top: "inception_3b/pool_proj"
}
layer {
  name: "inception_3b/output"
  type: "Concat"
  bottom: "inception_3b/1x1"
  bottom: "inception_3b/3x3"
  bottom: "inception_3b/5x5"
  bottom: "inception_3b/pool_proj"
  top: "inception_3b/output"
}
layer {
  name: "pool3/3x3_s2"
  type: "Pooling"
  bottom: "inception_3b/output"
  top: "pool3/3x3_s2"
  pooling_param {
    pool: MAX
    kernel_size: 3
    stride: 2
  }
}
layer {
  name: "inception_4a/1x1"
  type: "Convolution"
  bottom: "pool3/3x3_s2"
  top: "inception_4a/1x1"
  param {
    lr_mult: 1
    decay_mult: 1
  }
  param {
    lr_mult: 2
    decay_mult: 0
  }
  convolution_param {
    num_output: 192
    kernel_size: 1
    weight_filler {
      type: "xavier"
      std: 0.03
    }
    bias_filler {
      type: "constant"
      value: 0.2
    }
  }
}
layer {
  name: "inception_4a/relu_1x1"
  type: "ReLU"
  bottom: "inception_4a/1x1"
  top: "inception_4a/1x1"
}
layer {
  name: "inception_4a/3x3_reduce"
  type: "Convolution"
  bottom: "pool3/3x3_s2"
  top: "inception_4a/3x3_reduce"
  param {
    lr_mult: 1
    decay_mult: 1
  }
  param {
    lr_mult: 2
    decay_mult: 0
  }
  convolution_param {
    num_output: 96
    kernel_size: 1
    weight_filler {
      type: "xavier"
      std: 0.09
    }
    bias_filler {
      type: "constant"
      value: 0.2
    }
  }
}
layer {
  name: "inception_4a/relu_3x3_reduce"
  type: "ReLU"
  bottom: "inception_4a/3x3_reduce"
  top: "inception_4a/3x3_reduce"
}
layer {
  name: "inception_4a/3x3"
  type: "Convolution"
  bottom: "inception_4a/3x3_reduce"
  top: "inception_4a/3x3"
  param {
    lr_mult: 1
    decay_mult: 1
  }
  param {
    lr_mult: 2
    decay_mult: 0
  }
  convolution_param {
    num_output: 208
    pad: 1
    kernel_size: 3
    weight_filler {
      type: "xavier"
      std: 0.03
    }
    bias_filler {
      type: "constant"
      value: 0.2
    }
  }
}
layer {
  name: "inception_4a/relu_3x3"
  type: "ReLU"
  bottom: "inception_4a/3x3"
  top: "inception_4a/3x3"
}
layer {
  name: "inception_4a/5x5_reduce"
  type: "Convolution"
  bottom: "pool3/3x3_s2"
  top: "inception_4a/5x5_reduce"
  param {
    lr_mult: 1
    decay_mult: 1
  }
  param {
    lr_mult: 2
    decay_mult: 0
  }
  convolution_param {
    num_output: 16
    kernel_size: 1
    weight_filler {
      type: "xavier"
      std: 0.2
    }
    bias_filler {
      type: "constant"
      value: 0.2
    }
  }
}
layer {
  name: "inception_4a/relu_5x5_reduce"
  type: "ReLU"
  bottom: "inception_4a/5x5_reduce"
  top: "inception_4a/5x5_reduce"
}
layer {
  name: "inception_4a/5x5"
  type: "Convolution"
  bottom: "inception_4a/5x5_reduce"
  top: "inception_4a/5x5"
  param {
    lr_mult: 1
    decay_mult: 1
  }
  param {
    lr_mult: 2
    decay_mult: 0
  }
  convolution_param {
    num_output: 48
    pad: 2
    kernel_size: 5
    weight_filler {
      type: "xavier"
      std: 0.03
    }
    bias_filler {
      type: "constant"
      value: 0.2
    }
  }
}
layer {
  name: "inception_4a/relu_5x5"
  type: "ReLU"
  bottom: "inception_4a/5x5"
  top: "inception_4a/5x5"
}
layer {
  name: "inception_4a/pool"
  type: "Pooling"
  bottom: "pool3/3x3_s2"
  top: "inception_4a/pool"
  pooling_param {
    pool: MAX
    kernel_size: 3
    stride: 1
    pad: 1
  }
}
layer {
  name: "inception_4a/pool_proj"
  type: "Convolution"
  bottom: "inception_4a/pool"
  top: "inception_4a/pool_proj"
  param {
    lr_mult: 1
    decay_mult: 1
  }
  param {
    lr_mult: 2
    decay_mult: 0
  }
  convolution_param {
    num_output: 64
    kernel_size: 1
    weight_filler {
      type: "xavier"
      std: 0.1
    }
    bias_filler {
      type: "constant"
      value: 0.2
    }
  }
}
layer {
  name: "inception_4a/relu_pool_proj"
  type: "ReLU"
  bottom: "inception_4a/pool_proj"
  top: "inception_4a/pool_proj"
}
layer {
  name: "inception_4a/output"
  type: "Concat"
  bottom: "inception_4a/1x1"
  bottom: "inception_4a/3x3"
  bottom: "inception_4a/5x5"
  bottom: "inception_4a/pool_proj"
  top: "inception_4a/output"
}
layer {
  name: "loss1/ave_pool"
  type: "Pooling"
  bottom: "inception_4a/output"
  top: "loss1/ave_pool"
  pooling_param {
    pool: AVE
    kernel_size: 5
    stride: 3
  }
}
layer {
  name: "loss1/conv"
  type: "Convolution"
  bottom: "loss1/ave_pool"
  top: "loss1/conv"
  param {
    lr_mult: 1
    decay_mult: 1
  }
  param {
    lr_mult: 2
    decay_mult: 0
  }
  convolution_param {
    num_output: 128
    kernel_size: 1
    weight_filler {
      type: "xavier"
      std: 0.08
    }
    bias_filler {
      type: "constant"
      value: 0.2
    }
  }
}
layer {
  name: "loss1/relu_conv"
  type: "ReLU"
  bottom: "loss1/conv"
  top: "loss1/conv"
}
layer {
  name: "loss1/fc"
  type: "InnerProduct"
  bottom: "loss1/conv"
  top: "loss1/fc"
  param {
    lr_mult: 1
    decay_mult: 1
  }
  param {
    lr_mult: 2
    decay_mult: 0
  }
  inner_product_param {
    num_output: 1024
    weight_filler {
      type: "xavier"
      std: 0.02
    }
    bias_filler {
      type: "constant"
      value: 0.2
    }
  }
}
layer {
  name: "loss1/relu_fc"
  type: "ReLU"
  bottom: "loss1/fc"
  top: "loss1/fc"
}
layer {
  name: "loss1/drop_fc"
  type: "Dropout"
  bottom: "loss1/fc"
  top: "loss1/fc"
  dropout_param {
    dropout_ratio: 0.7
  }
}
layer {
  name: "loss1/classifier_plantvillage"
  type: "InnerProduct"
  bottom: "loss1/fc"
  top: "loss1/classifier_plantvillage"
  param {
    lr_mult: 1
    decay_mult: 1
  }
  param {
    lr_mult: 2
    decay_mult: 0
  }
  inner_product_param {
    num_output: 38
    weight_filler {
      type: "xavier"
      std: 0.0009765625
    }
    bias_filler {
      type: "constant"
      value: 0
    }
  }
}
layer {
  name: "inception_4b/1x1"
  type: "Convolution"
  bottom: "inception_4a/output"
  top: "inception_4b/1x1"
  param {
    lr_mult: 1
    decay_mult: 1
  }
  param {
    lr_mult: 2
    decay_mult: 0
  }
  convolution_param {
    num_output: 160
    kernel_size: 1
    weight_filler {
      type: "xavier"
      std: 0.03
    }
    bias_filler {
      type: "constant"
      value: 0.2
    }
  }
}
layer {
  name: "inception_4b/relu_1x1"
  type: "ReLU"
  bottom: "inception_4b/1x1"
  top: "inception_4b/1x1"
}
layer {
  name: "inception_4b/3x3_reduce"
  type: "Convolution"
  bottom: "inception_4a/output"
  top: "inception_4b/3x3_reduce"
  param {
    lr_mult: 1
    decay_mult: 1
  }
  param {
    lr_mult: 2
    decay_mult: 0
  }
  convolution_param {
    num_output: 112
    kernel_size: 1
    weight_filler {
      type: "xavier"
      std: 0.09
    }
    bias_filler {
      type: "constant"
      value: 0.2
    }
  }
}
layer {
  name: "inception_4b/relu_3x3_reduce"
  type: "ReLU"
  bottom: "inception_4b/3x3_reduce"
  top: "inception_4b/3x3_reduce"
}
layer {
  name: "inception_4b/3x3"
  type: "Convolution"
  bottom: "inception_4b/3x3_reduce"
  top: "inception_4b/3x3"
  param {
    lr_mult: 1
    decay_mult: 1
  }
  param {
    lr_mult: 2
    decay_mult: 0
  }
  convolution_param {
    num_output: 224
    pad: 1
    kernel_size: 3
    weight_filler {
      type: "xavier"
      std: 0.03
    }
    bias_filler {
      type: "constant"
      value: 0.2
    }
  }
}
layer {
  name: "inception_4b/relu_3x3"
  type: "ReLU"
  bottom: "inception_4b/3x3"
  top: "inception_4b/3x3"
}
layer {
  name: "inception_4b/5x5_reduce"
  type: "Convolution"
  bottom: "inception_4a/output"
  top: "inception_4b/5x5_reduce"
  param {
    lr_mult: 1
    decay_mult: 1
  }
  param {
    lr_mult: 2
    decay_mult: 0
  }
  convolution_param {
    num_output: 24
    kernel_size: 1
    weight_filler {
      type: "xavier"
      std: 0.2
    }
    bias_filler {
      type: "constant"
      value: 0.2
    }
  }
}
layer {
  name: "inception_4b/relu_5x5_reduce"
  type: "ReLU"
  bottom: "inception_4b/5x5_reduce"
  top: "inception_4b/5x5_reduce"
}
layer {
  name: "inception_4b/5x5"
  type: "Convolution"
  bottom: "inception_4b/5x5_reduce"
  top: "inception_4b/5x5"
  param {
    lr_mult: 1
    decay_mult: 1
  }
  param {
    lr_mult: 2
    decay_mult: 0
  }
  convolution_param {
    num_output: 64
    pad: 2
    kernel_size: 5
    weight_filler {
      type: "xavier"
      std: 0.03
    }
    bias_filler {
      type: "constant"
      value: 0.2
    }
  }
}
layer {
  name: "inception_4b/relu_5x5"
  type: "ReLU"
  bottom: "inception_4b/5x5"
  top: "inception_4b/5x5"
}
layer {
  name: "inception_4b/pool"
  type: "Pooling"
  bottom: "inception_4a/output"
  top: "inception_4b/pool"
  pooling_param {
    pool: MAX
    kernel_size: 3
    stride: 1
    pad: 1
  }
}
layer {
  name: "inception_4b/pool_proj"
  type: "Convolution"
  bottom: "inception_4b/pool"
  top: "inception_4b/pool_proj"
  param {
    lr_mult: 1
    decay_mult: 1
  }
  param {
    lr_mult: 2
    decay_mult: 0
  }
  convolution_param {
    num_output: 64
    kernel_size: 1
    weight_filler {
      type: "xavier"
      std: 0.1
    }
    bias_filler {
      type: "constant"
      value: 0.2
    }
  }
}
layer {
  name: "inception_4b/relu_pool_proj"
  type: "ReLU"
  bottom: "inception_4b/pool_proj"
  top: "inception_4b/pool_proj"
}
layer {
  name: "inception_4b/output"
  type: "Concat"
  bottom: "inception_4b/1x1"
  bottom: "inception_4b/3x3"
  bottom: "inception_4b/5x5"
  bottom: "inception_4b/pool_proj"
  top: "inception_4b/output"
}
layer {
  name: "inception_4c/1x1"
  type: "Convolution"
  bottom: "inception_4b/output"
  top: "inception_4c/1x1"
  param {
    lr_mult: 1
    decay_mult: 1
  }
  param {
    lr_mult: 2
    decay_mult: 0
  }
  convolution_param {
    num_output: 128
    kernel_size: 1
    weight_filler {
      type: "xavier"
      std: 0.03
    }
    bias_filler {
      type: "constant"
      value: 0.2
    }
  }
}
layer {
  name: "inception_4c/relu_1x1"
  type: "ReLU"
  bottom: "inception_4c/1x1"
  top: "inception_4c/1x1"
}
layer {
  name: "inception_4c/3x3_reduce"
  type: "Convolution"
  bottom: "inception_4b/output"
  top: "inception_4c/3x3_reduce"
  param {
    lr_mult: 1
    decay_mult: 1
  }
  param {
    lr_mult: 2
    decay_mult: 0
  }
  convolution_param {
    num_output: 128
    kernel_size: 1
    weight_filler {
      type: "xavier"
      std: 0.09
    }
    bias_filler {
      type: "constant"
      value: 0.2
    }
  }
}
layer {
  name: "inception_4c/relu_3x3_reduce"
  type: "ReLU"
  bottom: "inception_4c/3x3_reduce"
  top: "inception_4c/3x3_reduce"
}
layer {
  name: "inception_4c/3x3"
  type: "Convolution"
  bottom: "inception_4c/3x3_reduce"
  top: "inception_4c/3x3"
  param {
    lr_mult: 1
    decay_mult: 1
  }
  param {
    lr_mult: 2
    decay_mult: 0
  }
  convolution_param {
    num_output: 256
    pad: 1
    kernel_size: 3
    weight_filler {
      type: "xavier"
      std: 0.03
    }
    bias_filler {
      type: "constant"
      value: 0.2
    }
  }
}
layer {
  name: "inception_4c/relu_3x3"
  type: "ReLU"
  bottom: "inception_4c/3x3"
  top: "inception_4c/3x3"
}
layer {
  name: "inception_4c/5x5_reduce"
  type: "Convolution"
  bottom: "inception_4b/output"
  top: "inception_4c/5x5_reduce"
  param {
    lr_mult: 1
    decay_mult: 1
  }
  param {
    lr_mult: 2
    decay_mult: 0
  }
  convolution_param {
    num_output: 24
    kernel_size: 1
    weight_filler {
      type: "xavier"
      std: 0.2
    }
    bias_filler {
      type: "constant"
      value: 0.2
    }
  }
}
layer {
  name: "inception_4c/relu_5x5_reduce"
  type: "ReLU"
  bottom: "inception_4c/5x5_reduce"
  top: "inception_4c/5x5_reduce"
}
layer {
  name: "inception_4c/5x5"
  type: "Convolution"
  bottom: "inception_4c/5x5_reduce"
  top: "inception_4c/5x5"
  param {
    lr_mult: 1
    decay_mult: 1
  }
  param {
    lr_mult: 2
    decay_mult: 0
  }
  convolution_param {
    num_output: 64
    pad: 2
    kernel_size: 5
    weight_filler {
      type: "xavier"
      std: 0.03
    }
    bias_filler {
      type: "constant"
      value: 0.2
    }
  }
}
layer {
  name: "inception_4c/relu_5x5"
  type: "ReLU"
  bottom: "inception_4c/5x5"
  top: "inception_4c/5x5"
}
layer {
  name: "inception_4c/pool"
  type: "Pooling"
  bottom: "inception_4b/output"
  top: "inception_4c/pool"
  pooling_param {
    pool: MAX
    kernel_size: 3
    stride: 1
    pad: 1
  }
}
layer {
  name: "inception_4c/pool_proj"
  type: "Convolution"
  bottom: "inception_4c/pool"
  top: "inception_4c/pool_proj"
  param {
    lr_mult: 1
    decay_mult: 1
  }
  param {
    lr_mult: 2
    decay_mult: 0
  }
  convolution_param {
    num_output: 64
    kernel_size: 1
    weight_filler {
      type: "xavier"
      std: 0.1
    }
    bias_filler {
      type: "constant"
      value: 0.2
    }
  }
}
layer {
  name: "inception_4c/relu_pool_proj"
  type: "ReLU"
  bottom: "inception_4c/pool_proj"
  top: "inception_4c/pool_proj"
}
layer {
  name: "inception_4c/output"
  type: "Concat"
  bottom: "inception_4c/1x1"
  bottom: "inception_4c/3x3"
  bottom: "inception_4c/5x5"
  bottom: "inception_4c/pool_proj"
  top: "inception_4c/output"
}
layer {
  name: "inception_4d/1x1"
  type: "Convolution"
  bottom: "inception_4c/output"
  top: "inception_4d/1x1"
  param {
    lr_mult: 1
    decay_mult: 1
  }
  param {
    lr_mult: 2
    decay_mult: 0
  }
  convolution_param {
    num_output: 112
    kernel_size: 1
    weight_filler {
      type: "xavier"
      std: 0.03
    }
    bias_filler {
      type: "constant"
      value: 0.2
    }
  }
}
layer {
  name: "inception_4d/relu_1x1"
  type: "ReLU"
  bottom: "inception_4d/1x1"
  top: "inception_4d/1x1"
}
layer {
  name: "inception_4d/3x3_reduce"
  type: "Convolution"
  bottom: "inception_4c/output"
  top: "inception_4d/3x3_reduce"
  param {
    lr_mult: 1
    decay_mult: 1
  }
  param {
    lr_mult: 2
    decay_mult: 0
  }
  convolution_param {
    num_output: 144
    kernel_size: 1
    weight_filler {
      type: "xavier"
      std: 0.09
    }
    bias_filler {
      type: "constant"
      value: 0.2
    }
  }
}
layer {
  name: "inception_4d/relu_3x3_reduce"
  type: "ReLU"
  bottom: "inception_4d/3x3_reduce"
  top: "inception_4d/3x3_reduce"
}
layer {
  name: "inception_4d/3x3"
  type: "Convolution"
  bottom: "inception_4d/3x3_reduce"
  top: "inception_4d/3x3"
  param {
    lr_mult: 1
    decay_mult: 1
  }
  param {
    lr_mult: 2
    decay_mult: 0
  }
  convolution_param {
    num_output: 288
    pad: 1
    kernel_size: 3
    weight_filler {
      type: "xavier"
      std: 0.03
    }
    bias_filler {
      type: "constant"
      value: 0.2
    }
  }
}
layer {
  name: "inception_4d/relu_3x3"
  type: "ReLU"
  bottom: "inception_4d/3x3"
  top: "inception_4d/3x3"
}
layer {
  name: "inception_4d/5x5_reduce"
  type: "Convolution"
  bottom: "inception_4c/output"
  top: "inception_4d/5x5_reduce"
  param {
    lr_mult: 1
    decay_mult: 1
  }
  param {
    lr_mult: 2
    decay_mult: 0
  }
  convolution_param {
    num_output: 32
    kernel_size: 1
    weight_filler {
      type: "xavier"
      std: 0.2
    }
    bias_filler {
      type: "constant"
      value: 0.2
    }
  }
}
layer {
  name: "inception_4d/relu_5x5_reduce"
  type: "ReLU"
  bottom: "inception_4d/5x5_reduce"
  top: "inception_4d/5x5_reduce"
}
layer {
  name: "inception_4d/5x5"
  type: "Convolution"
  bottom: "inception_4d/5x5_reduce"
  top: "inception_4d/5x5"
  param {
    lr_mult: 1
    decay_mult: 1
  }
  param {
    lr_mult: 2
    decay_mult: 0
  }
  convolution_param {
    num_output: 64
    pad: 2
    kernel_size: 5
    weight_filler {
      type: "xavier"
      std: 0.03
    }
    bias_filler {
      type: "constant"
      value: 0.2
    }
  }
}
layer {
  name: "inception_4d/relu_5x5"
  type: "ReLU"
  bottom: "inception_4d/5x5"
  top: "inception_4d/5x5"
}
layer {
  name: "inception_4d/pool"
  type: "Pooling"
  bottom: "inception_4c/output"
  top: "inception_4d/pool"
  pooling_param {
    pool: MAX
    kernel_size: 3
    stride: 1
    pad: 1
  }
}
layer {
  name: "inception_4d/pool_proj"
  type: "Convolution"
  bottom: "inception_4d/pool"
  top: "inception_4d/pool_proj"
  param {
    lr_mult: 1
    decay_mult: 1
  }
  param {
    lr_mult: 2
    decay_mult: 0
  }
  convolution_param {
    num_output: 64
    kernel_size: 1
    weight_filler {
      type: "xavier"
      std: 0.1
    }
    bias_filler {
      type: "constant"
      value: 0.2
    }
  }
}
layer {
  name: "inception_4d/relu_pool_proj"
  type: "ReLU"
  bottom: "inception_4d/pool_proj"
  top: "inception_4d/pool_proj"
}
layer {
  name: "inception_4d/output"
  type: "Concat"
  bottom: "inception_4d/1x1"
  bottom: "inception_4d/3x3"
  bottom: "inception_4d/5x5"
  bottom: "inception_4d/pool_proj"
  top: "inception_4d/output"
}
layer {
  name: "loss2/ave_pool"
  type: "Pooling"
  bottom: "inception_4d/output"
  top: "loss2/ave_pool"
  pooling_param {
    pool: AVE
    kernel_size: 5
    stride: 3
  }
}
layer {
  name: "loss2/conv"
  type: "Convolution"
  bottom: "loss2/ave_pool"
  top: "loss2/conv"
  param {
    lr_mult: 1
    decay_mult: 1
  }
  param {
    lr_mult: 2
    decay_mult: 0
  }
  convolution_param {
    num_output: 128
    kernel_size: 1
    weight_filler {
      type: "xavier"
      std: 0.08
    }
    bias_filler {
      type: "constant"
      value: 0.2
    }
  }
}
layer {
  name: "loss2/relu_conv"
  type: "ReLU"
  bottom: "loss2/conv"
  top: "loss2/conv"
}
layer {
  name: "loss2/fc"
  type: "InnerProduct"
  bottom: "loss2/conv"
  top: "loss2/fc"
  param {
    lr_mult: 1
    decay_mult: 1
  }
  param {
    lr_mult: 2
    decay_mult: 0
  }
  inner_product_param {
    num_output: 1024
    weight_filler {
      type: "xavier"
      std: 0.02
    }
    bias_filler {
      type: "constant"
      value: 0.2
    }
  }
}
layer {
  name: "loss2/relu_fc"
  type: "ReLU"
  bottom: "loss2/fc"
  top: "loss2/fc"
}
layer {
  name: "loss2/drop_fc"
  type: "Dropout"
  bottom: "loss2/fc"
  top: "loss2/fc"
  dropout_param {
    dropout_ratio: 0.7
  }
}
layer {
  name: "loss2/classifier_plantvillage"
  type: "InnerProduct"
  bottom: "loss2/fc"
  top: "loss2/classifier_plantvillage"
  param {
    lr_mult: 1
    decay_mult: 1
  }
  param {
    lr_mult: 2
    decay_mult: 0
  }
  inner_product_param {
    num_output: 38
    weight_filler {
      type: "xavier"
      std: 0.0009765625
    }
    bias_filler {
      type: "constant"
      value: 0
    }
  }
}
layer {
  name: "inception_4e/1x1"
  type: "Convolution"
  bottom: "inception_4d/output"
  top: "inception_4e/1x1"
  param {
    lr_mult: 1
    decay_mult: 1
  }
  param {
    lr_mult: 2
    decay_mult: 0
  }
  convolution_param {
    num_output: 256
    kernel_size: 1
    weight_filler {
      type: "xavier"
      std: 0.03
    }
    bias_filler {
      type: "constant"
      value: 0.2
    }
  }
}
layer {
  name: "inception_4e/relu_1x1"
  type: "ReLU"
  bottom: "inception_4e/1x1"
  top: "inception_4e/1x1"
}
layer {
  name: "inception_4e/3x3_reduce"
  type: "Convolution"
  bottom: "inception_4d/output"
  top: "inception_4e/3x3_reduce"
  param {
    lr_mult: 1
    decay_mult: 1
  }
  param {
    lr_mult: 2
    decay_mult: 0
  }
  convolution_param {
    num_output: 160
    kernel_size: 1
    weight_filler {
      type: "xavier"
      std: 0.09
    }
    bias_filler {
      type: "constant"
      value: 0.2
    }
  }
}
layer {
  name: "inception_4e/relu_3x3_reduce"
  type: "ReLU"
  bottom: "inception_4e/3x3_reduce"
  top: "inception_4e/3x3_reduce"
}
layer {
  name: "inception_4e/3x3"
  type: "Convolution"
  bottom: "inception_4e/3x3_reduce"
  top: "inception_4e/3x3"
  param {
    lr_mult: 1
    decay_mult: 1
  }
  param {
    lr_mult: 2
    decay_mult: 0
  }
  convolution_param {
    num_output: 320
    pad: 1
    kernel_size: 3
    weight_filler {
      type: "xavier"
      std: 0.03
    }
    bias_filler {
      type: "constant"
      value: 0.2
    }
  }
}
layer {
  name: "inception_4e/relu_3x3"
  type: "ReLU"
  bottom: "inception_4e/3x3"
  top: "inception_4e/3x3"
}
layer {
  name: "inception_4e/5x5_reduce"
  type: "Convolution"
  bottom: "inception_4d/output"
  top: "inception_4e/5x5_reduce"
  param {
    lr_mult: 1
    decay_mult: 1
  }
  param {
    lr_mult: 2
    decay_mult: 0
  }
  convolution_param {
    num_output: 32
    kernel_size: 1
    weight_filler {
      type: "xavier"
      std: 0.2
    }
    bias_filler {
      type: "constant"
      value: 0.2
    }
  }
}
layer {
  name: "inception_4e/relu_5x5_reduce"
  type: "ReLU"
  bottom: "inception_4e/5x5_reduce"
  top: "inception_4e/5x5_reduce"
}
layer {
  name: "inception_4e/5x5"
  type: "Convolution"
  bottom: "inception_4e/5x5_reduce"
  top: "inception_4
I0403 02:30:37.720167 19580 layer_factory.hpp:77] Creating layer data
I0403 02:30:37.721066 19580 net.cpp:91] Creating Layer data
I0403 02:30:37.721140 19580 net.cpp:399] data -> data
I0403 02:30:37.721273 19580 net.cpp:399] data -> label
I0403 02:30:37.721343 19580 data_transformer.cpp:25] Loading mean file from: /home/mohanty/data/final_dataset/lmdb/grayscale-20-80/mean.binaryproto
I0403 02:30:37.748414 19586 db_lmdb.cpp:38] Opened lmdb /home/mohanty/data/final_dataset/lmdb/grayscale-20-80/train_db
I0403 02:30:37.776713 19580 data_layer.cpp:41] output data size: 24,3,224,224
I0403 02:30:37.809252 19580 net.cpp:141] Setting up data
I0403 02:30:37.809350 19580 net.cpp:148] Top shape: 24 3 224 224 (3612672)
I0403 02:30:37.809379 19580 net.cpp:148] Top shape: 24 (24)
I0403 02:30:37.809399 19580 net.cpp:156] Memory required for data: 14450784
I0403 02:30:37.809463 19580 layer_factory.hpp:77] Creating layer label_data_1_split
I0403 02:30:37.809500 19580 net.cpp:91] Creating Layer label_data_1_split
I0403 02:30:37.809526 19580 net.cpp:425] label_data_1_split <- label
I0403 02:30:37.809562 19580 net.cpp:399] label_data_1_split -> label_data_1_split_0
I0403 02:30:37.809597 19580 net.cpp:399] label_data_1_split -> label_data_1_split_1
I0403 02:30:37.809623 19580 net.cpp:399] label_data_1_split -> label_data_1_split_2
I0403 02:30:37.809718 19580 net.cpp:141] Setting up label_data_1_split
I0403 02:30:37.809762 19580 net.cpp:148] Top shape: 24 (24)
I0403 02:30:37.809789 19580 net.cpp:148] Top shape: 24 (24)
I0403 02:30:37.809811 19580 net.cpp:148] Top shape: 24 (24)
I0403 02:30:37.809831 19580 net.cpp:156] Memory required for data: 14451072
I0403 02:30:37.809851 19580 layer_factory.hpp:77] Creating layer conv1/7x7_s2
I0403 02:30:37.809892 19580 net.cpp:91] Creating Layer conv1/7x7_s2
I0403 02:30:37.809916 19580 net.cpp:425] conv1/7x7_s2 <- data
I0403 02:30:37.809942 19580 net.cpp:399] conv1/7x7_s2 -> conv1/7x7_s2
I0403 02:30:37.811333 19580 net.cpp:141] Setting up conv1/7x7_s2
I0403 02:30:37.811367 19580 net.cpp:148] Top shape: 24 64 112 112 (19267584)
I0403 02:30:37.811388 19580 net.cpp:156] Memory required for data: 91521408
I0403 02:30:37.811449 19580 layer_factory.hpp:77] Creating layer conv1/relu_7x7
I0403 02:30:37.811499 19580 net.cpp:91] Creating Layer conv1/relu_7x7
I0403 02:30:37.811524 19580 net.cpp:425] conv1/relu_7x7 <- conv1/7x7_s2
I0403 02:30:37.811549 19580 net.cpp:386] conv1/relu_7x7 -> conv1/7x7_s2 (in-place)
I0403 02:30:37.811594 19580 net.cpp:141] Setting up conv1/relu_7x7
I0403 02:30:37.811620 19580 net.cpp:148] Top shape: 24 64 112 112 (19267584)
I0403 02:30:37.811640 19580 net.cpp:156] Memory required for data: 168591744
I0403 02:30:37.811660 19580 layer_factory.hpp:77] Creating layer pool1/3x3_s2
I0403 02:30:37.811687 19580 net.cpp:91] Creating Layer pool1/3x3_s2
I0403 02:30:37.811707 19580 net.cpp:425] pool1/3x3_s2 <- conv1/7x7_s2
I0403 02:30:37.811730 19580 net.cpp:399] pool1/3x3_s2 -> pool1/3x3_s2
I0403 02:30:37.811836 19580 net.cpp:141] Setting up pool1/3x3_s2
I0403 02:30:37.811902 19580 net.cpp:148] Top shape: 24 64 56 56 (4816896)
I0403 02:30:37.811959 19580 net.cpp:156] Memory required for data: 187859328
I0403 02:30:37.811977 19580 layer_factory.hpp:77] Creating layer pool1/norm1
I0403 02:30:37.812001 19580 net.cpp:91] Creating Layer pool1/norm1
I0403 02:30:37.812036 19580 net.cpp:425] pool1/norm1 <- pool1/3x3_s2
I0403 02:30:37.812060 19580 net.cpp:399] pool1/norm1 -> pool1/norm1
I0403 02:30:37.812191 19580 net.cpp:141] Setting up pool1/norm1
I0403 02:30:37.812222 19580 net.cpp:148] Top shape: 24 64 56 56 (4816896)
I0403 02:30:37.812244 19580 net.cpp:156] Memory required for data: 207126912
I0403 02:30:37.812286 19580 layer_factory.hpp:77] Creating layer conv2/3x3_reduce
I0403 02:30:37.812314 19580 net.cpp:91] Creating Layer conv2/3x3_reduce
I0403 02:30:37.812335 19580 net.cpp:425] conv2/3x3_reduce <- pool1/norm1
I0403 02:30:37.812362 19580 net.cpp:399] conv2/3x3_reduce -> conv2/3x3_reduce
I0403 02:30:37.813271 19580 net.cpp:141] Setting up conv2/3x3_reduce
I0403 02:30:37.813308 19580 net.cpp:148] Top shape: 24 64 56 56 (4816896)
I0403 02:30:37.813330 19580 net.cpp:156] Memory required for data: 226394496
I0403 02:30:37.813359 19580 layer_factory.hpp:77] Creating layer conv2/relu_3x3_reduce
I0403 02:30:37.813383 19580 net.cpp:91] Creating Layer conv2/relu_3x3_reduce
I0403 02:30:37.813405 19580 net.cpp:425] conv2/relu_3x3_reduce <- conv2/3x3_reduce
I0403 02:30:37.813428 19580 net.cpp:386] conv2/relu_3x3_reduce -> conv2/3x3_reduce (in-place)
I0403 02:30:37.813452 19580 net.cpp:141] Setting up conv2/relu_3x3_reduce
I0403 02:30:37.813482 19580 net.cpp:148] Top shape: 24 64 56 56 (4816896)
I0403 02:30:37.813503 19580 net.cpp:156] Memory required for data: 245662080
I0403 02:30:37.813522 19580 layer_factory.hpp:77] Creating layer conv2/3x3
I0403 02:30:37.813551 19580 net.cpp:91] Creating Layer conv2/3x3
I0403 02:30:37.813598 19580 net.cpp:425] conv2/3x3 <- conv2/3x3_reduce
I0403 02:30:37.813657 19580 net.cpp:399] conv2/3x3 -> conv2/3x3
I0403 02:30:37.815274 19580 net.cpp:141] Setting up conv2/3x3
I0403 02:30:37.815311 19580 net.cpp:148] Top shape: 24 192 56 56 (14450688)
I0403 02:30:37.815332 19580 net.cpp:156] Memory required for data: 303464832
I0403 02:30:37.815358 19580 layer_factory.hpp:77] Creating layer conv2/relu_3x3
I0403 02:30:37.815382 19580 net.cpp:91] Creating Layer conv2/relu_3x3
I0403 02:30:37.815404 19580 net.cpp:425] conv2/relu_3x3 <- conv2/3x3
I0403 02:30:37.815426 19580 net.cpp:386] conv2/relu_3x3 -> conv2/3x3 (in-place)
I0403 02:30:37.815451 19580 net.cpp:141] Setting up conv2/relu_3x3
I0403 02:30:37.815474 19580 net.cpp:148] Top shape: 24 192 56 56 (14450688)
I0403 02:30:37.815498 19580 net.cpp:156] Memory required for data: 361267584
I0403 02:30:37.815517 19580 layer_factory.hpp:77] Creating layer conv2/norm2
I0403 02:30:37.815541 19580 net.cpp:91] Creating Layer conv2/norm2
I0403 02:30:37.815562 19580 net.cpp:425] conv2/norm2 <- conv2/3x3
I0403 02:30:37.815587 19580 net.cpp:399] conv2/norm2 -> conv2/norm2
I0403 02:30:37.815644 19580 net.cpp:141] Setting up conv2/norm2
I0403 02:30:37.815672 19580 net.cpp:148] Top shape: 24 192 56 56 (14450688)
I0403 02:30:37.815692 19580 net.cpp:156] Memory required for data: 419070336
I0403 02:30:37.815712 19580 layer_factory.hpp:77] Creating layer pool2/3x3_s2
I0403 02:30:37.815735 19580 net.cpp:91] Creating Layer pool2/3x3_s2
I0403 02:30:37.815764 19580 net.cpp:425] pool2/3x3_s2 <- conv2/norm2
I0403 02:30:37.815793 19580 net.cpp:399] pool2/3x3_s2 -> pool2/3x3_s2
I0403 02:30:37.815852 19580 net.cpp:141] Setting up pool2/3x3_s2
I0403 02:30:37.815881 19580 net.cpp:148] Top shape: 24 192 28 28 (3612672)
I0403 02:30:37.815901 19580 net.cpp:156] Memory required for data: 433521024
I0403 02:30:37.815920 19580 layer_factory.hpp:77] Creating layer pool2/3x3_s2_pool2/3x3_s2_0_split
I0403 02:30:37.815944 19580 net.cpp:91] Creating Layer pool2/3x3_s2_pool2/3x3_s2_0_split
I0403 02:30:37.815965 19580 net.cpp:425] pool2/3x3_s2_pool2/3x3_s2_0_split <- pool2/3x3_s2
I0403 02:30:37.815990 19580 net.cpp:399] pool2/3x3_s2_pool2/3x3_s2_0_split -> pool2/3x3_s2_pool2/3x3_s2_0_split_0
I0403 02:30:37.816016 19580 net.cpp:399] pool2/3x3_s2_pool2/3x3_s2_0_split -> pool2/3x3_s2_pool2/3x3_s2_0_split_1
I0403 02:30:37.816045 19580 net.cpp:399] pool2/3x3_s2_pool2/3x3_s2_0_split -> pool2/3x3_s2_pool2/3x3_s2_0_split_2
I0403 02:30:37.816069 19580 net.cpp:399] pool2/3x3_s2_pool2/3x3_s2_0_split -> pool2/3x3_s2_pool2/3x3_s2_0_split_3
I0403 02:30:37.816148 19580 net.cpp:141] Setting up pool2/3x3_s2_pool2/3x3_s2_0_split
I0403 02:30:37.816179 19580 net.cpp:148] Top shape: 24 192 28 28 (3612672)
I0403 02:30:37.816200 19580 net.cpp:148] Top shape: 24 192 28 28 (3612672)
I0403 02:30:37.816229 19580 net.cpp:148] Top shape: 24 192 28 28 (3612672)
I0403 02:30:37.816248 19580 net.cpp:148] Top shape: 24 192 28 28 (3612672)
I0403 02:30:37.816267 19580 net.cpp:156] Memory required for data: 491323776
I0403 02:30:37.816287 19580 layer_factory.hpp:77] Creating layer inception_3a/1x1
I0403 02:30:37.816314 19580 net.cpp:91] Creating Layer inception_3a/1x1
I0403 02:30:37.816336 19580 net.cpp:425] inception_3a/1x1 <- pool2/3x3_s2_pool2/3x3_s2_0_split_0
I0403 02:30:37.816365 19580 net.cpp:399] inception_3a/1x1 -> inception_3a/1x1
I0403 02:30:37.817329 19580 net.cpp:141] Setting up inception_3a/1x1
I0403 02:30:37.817368 19580 net.cpp:148] Top shape: 24 64 28 28 (1204224)
I0403 02:30:37.817389 19580 net.cpp:156] Memory required for data: 496140672
I0403 02:30:37.817414 19580 layer_factory.hpp:77] Creating layer inception_3a/relu_1x1
I0403 02:30:37.817438 19580 net.cpp:91] Creating Layer inception_3a/relu_1x1
I0403 02:30:37.817461 19580 net.cpp:425] inception_3a/relu_1x1 <- inception_3a/1x1
I0403 02:30:37.817483 19580 net.cpp:386] inception_3a/relu_1x1 -> inception_3a/1x1 (in-place)
I0403 02:30:37.817509 19580 net.cpp:141] Setting up inception_3a/relu_1x1
I0403 02:30:37.817533 19580 net.cpp:148] Top shape: 24 64 28 28 (1204224)
I0403 02:30:37.817551 19580 net.cpp:156] Memory required for data: 500957568
I0403 02:30:37.817591 19580 layer_factory.hpp:77] Creating layer inception_3a/3x3_reduce
I0403 02:30:37.817620 19580 net.cpp:91] Creating Layer inception_3a/3x3_reduce
I0403 02:30:37.817641 19580 net.cpp:425] inception_3a/3x3_reduce <- pool2/3x3_s2_pool2/3x3_s2_0_split_1
I0403 02:30:37.817669 19580 net.cpp:399] inception_3a/3x3_reduce -> inception_3a/3x3_reduce
I0403 02:30:37.818683 19580 net.cpp:141] Setting up inception_3a/3x3_reduce
I0403 02:30:37.818718 19580 net.cpp:148] Top shape: 24 96 28 28 (1806336)
I0403 02:30:37.818739 19580 net.cpp:156] Memory required for data: 508182912
I0403 02:30:37.818794 19580 layer_factory.hpp:77] Creating layer inception_3a/relu_3x3_reduce
I0403 02:30:37.818852 19580 net.cpp:91] Creating Layer inception_3a/relu_3x3_reduce
I0403 02:30:37.818884 19580 net.cpp:425] inception_3a/relu_3x3_reduce <- inception_3a/3x3_reduce
I0403 02:30:37.818912 19580 net.cpp:386] inception_3a/relu_3x3_reduce -> inception_3a/3x3_reduce (in-place)
I0403 02:30:37.818946 19580 net.cpp:141] Setting up inception_3a/relu_3x3_reduce
I0403 02:30:37.818979 19580 net.cpp:148] Top shape: 24 96 28 28 (1806336)
I0403 02:30:37.819000 19580 net.cpp:156] Memory required for data: 515408256
I0403 02:30:37.819030 19580 layer_factory.hpp:77] Creating layer inception_3a/3x3
I0403 02:30:37.819056 19580 net.cpp:91] Creating Layer inception_3a/3x3
I0403 02:30:37.819082 19580 net.cpp:425] inception_3a/3x3 <- inception_3a/3x3_reduce
I0403 02:30:37.819124 19580 net.cpp:399] inception_3a/3x3 -> inception_3a/3x3
I0403 02:30:37.826073 19580 net.cpp:141] Setting up inception_3a/3x3
I0403 02:30:37.826130 19580 net.cpp:148] Top shape: 24 128 28 28 (2408448)
I0403 02:30:37.826179 19580 net.cpp:156] Memory required for data: 525042048
I0403 02:30:37.826226 19580 layer_factory.hpp:77] Creating layer inception_3a/relu_3x3
I0403 02:30:37.826282 19580 net.cpp:91] Creating Layer inception_3a/relu_3x3
I0403 02:30:37.826318 19580 net.cpp:425] inception_3a/relu_3x3 <- inception_3a/3x3
I0403 02:30:37.826350 19580 net.cpp:386] inception_3a/relu_3x3 -> inception_3a/3x3 (in-place)
I0403 02:30:37.826393 19580 net.cpp:141] Setting up inception_3a/relu_3x3
I0403 02:30:37.826445 19580 net.cpp:148] Top shape: 24 128 28 28 (2408448)
I0403 02:30:37.826490 19580 net.cpp:156] Memory required for data: 534675840
I0403 02:30:37.826530 19580 layer_factory.hpp:77] Creating layer inception_3a/5x5_reduce
I0403 02:30:37.826586 19580 net.cpp:91] Creating Layer inception_3a/5x5_reduce
I0403 02:30:37.826622 19580 net.cpp:425] inception_3a/5x5_reduce <- pool2/3x3_s2_pool2/3x3_s2_0_split_2
I0403 02:30:37.826658 19580 net.cpp:399] inception_3a/5x5_reduce -> inception_3a/5x5_reduce
I0403 02:30:37.826959 19580 net.cpp:141] Setting up inception_3a/5x5_reduce
I0403 02:30:37.827011 19580 net.cpp:148] Top shape: 24 16 28 28 (301056)
I0403 02:30:37.827044 19580 net.cpp:156] Memory required for data: 535880064
I0403 02:30:37.827080 19580 layer_factory.hpp:77] Creating layer inception_3a/relu_5x5_reduce
I0403 02:30:37.827103 19580 net.cpp:91] Creating Layer inception_3a/relu_5x5_reduce
I0403 02:30:37.827126 19580 net.cpp:425] inception_3a/relu_5x5_reduce <- inception_3a/5x5_reduce
I0403 02:30:37.827148 19580 net.cpp:386] inception_3a/relu_5x5_reduce -> inception_3a/5x5_reduce (in-place)
I0403 02:30:37.827204 19580 net.cpp:141] Setting up inception_3a/relu_5x5_reduce
I0403 02:30:37.827260 19580 net.cpp:148] Top shape: 24 16 28 28 (301056)
I0403 02:30:37.827311 19580 net.cpp:156] Memory required for data: 537084288
I0403 02:30:37.827353 19580 layer_factory.hpp:77] Creating layer inception_3a/5x5
I0403 02:30:37.827406 19580 net.cpp:91] Creating Layer inception_3a/5x5
I0403 02:30:37.827441 19580 net.cpp:425] inception_3a/5x5 <- inception_3a/5x5_reduce
I0403 02:30:37.827468 19580 net.cpp:399] inception_3a/5x5 -> inception_3a/5x5
I0403 02:30:37.827821 19580 net.cpp:141] Setting up inception_3a/5x5
I0403 02:30:37.827854 19580 net.cpp:148] Top shape: 24 32 28 28 (602112)
I0403 02:30:37.827875 19580 net.cpp:156] Memory required for data: 539492736
I0403 02:30:37.827919 19580 layer_factory.hpp:77] Creating layer inception_3a/relu_5x5
I0403 02:30:37.827946 19580 net.cpp:91] Creating Layer inception_3a/relu_5x5
I0403 02:30:37.827967 19580 net.cpp:425] inception_3a/relu_5x5 <- inception_3a/5x5
I0403 02:30:37.827991 19580 net.cpp:386] inception_3a/relu_5x5 -> inception_3a/5x5 (in-place)
I0403 02:30:37.828025 19580 net.cpp:141] Setting up inception_3a/relu_5x5
I0403 02:30:37.828070 19580 net.cpp:148] Top shape: 24 32 28 28 (602112)
I0403 02:30:37.828110 19580 net.cpp:156] Memory required for data: 541901184
I0403 02:30:37.828155 19580 layer_factory.hpp:77] Creating layer inception_3a/pool
I0403 02:30:37.828197 19580 net.cpp:91] Creating Layer inception_3a/pool
I0403 02:30:37.828266 19580 net.cpp:425] inception_3a/pool <- pool2/3x3_s2_pool2/3x3_s2_0_split_3
I0403 02:30:37.828320 19580 net.cpp:399] inception_3a/pool -> inception_3a/pool
I0403 02:30:37.828403 19580 net.cpp:141] Setting up inception_3a/pool
I0403 02:30:37.828454 19580 net.cpp:148] Top shape: 24 192 28 28 (3612672)
I0403 02:30:37.828505 19580 net.cpp:156] Memory required for data: 556351872
I0403 02:30:37.828536 19580 layer_factory.hpp:77] Creating layer inception_3a/pool_proj
I0403 02:30:37.828579 19580 net.cpp:91] Creating Layer inception_3a/pool_proj
I0403 02:30:37.828626 19580 net.cpp:425] inception_3a/pool_proj <- inception_3a/pool
I0403 02:30:37.828654 19580 net.cpp:399] inception_3a/pool_proj -> inception_3a/pool_proj
I0403 02:30:37.828939 19580 net.cpp:141] Setting up inception_3a/pool_proj
I0403 02:30:37.828975 19580 net.cpp:148] Top shape: 24 32 28 28 (602112)
I0403 02:30:37.828999 19580 net.cpp:156] Memory required for data: 558760320
I0403 02:30:37.829032 19580 layer_factory.hpp:77] Creating layer inception_3a/relu_pool_proj
I0403 02:30:37.829057 19580 net.cpp:91] Creating Layer inception_3a/relu_pool_proj
I0403 02:30:37.829079 19580 net.cpp:425] inception_3a/relu_pool_proj <- inception_3a/pool_proj
I0403 02:30:37.829102 19580 net.cpp:386] inception_3a/relu_pool_proj -> inception_3a/pool_proj (in-place)
I0403 02:30:37.829128 19580 net.cpp:141] Setting up inception_3a/relu_pool_proj
I0403 02:30:37.829171 19580 net.cpp:148] Top shape: 24 32 28 28 (602112)
I0403 02:30:37.829203 19580 net.cpp:156] Memory required for data: 561168768
I0403 02:30:37.829246 19580 layer_factory.hpp:77] Creating layer inception_3a/output
I0403 02:30:37.829279 19580 net.cpp:91] Creating Layer inception_3a/output
I0403 02:30:37.829324 19580 net.cpp:425] inception_3a/output <- inception_3a/1x1
I0403 02:30:37.829372 19580 net.cpp:425] inception_3a/output <- inception_3a/3x3
I0403 02:30:37.829417 19580 net.cpp:425] inception_3a/output <- inception_3a/5x5
I0403 02:30:37.829452 19580 net.cpp:425] inception_3a/output <- inception_3a/pool_proj
I0403 02:30:37.829498 19580 net.cpp:399] inception_3a/output -> inception_3a/output
I0403 02:30:37.829584 19580 net.cpp:141] Setting up inception_3a/output
I0403 02:30:37.829632 19580 net.cpp:148] Top shape: 24 256 28 28 (4816896)
I0403 02:30:37.829671 19580 net.cpp:156] Memory required for data: 580436352
I0403 02:30:37.829715 19580 layer_factory.hpp:77] Creating layer inception_3a/output_inception_3a/output_0_split
I0403 02:30:37.829738 19580 net.cpp:91] Creating Layer inception_3a/output_inception_3a/output_0_split
I0403 02:30:37.829776 19580 net.cpp:425] inception_3a/output_inception_3a/output_0_split <- inception_3a/output
I0403 02:30:37.829813 19580 net.cpp:399] inception_3a/output_inception_3a/output_0_split -> inception_3a/output_inception_3a/output_0_split_0
I0403 02:30:37.829843 19580 net.cpp:399] inception_3a/output_inception_3a/output_0_split -> inception_3a/output_inception_3a/output_0_split_1
I0403 02:30:37.829870 19580 net.cpp:399] inception_3a/output_inception_3a/output_0_split -> inception_3a/output_inception_3a/output_0_split_2
I0403 02:30:37.829895 19580 net.cpp:399] inception_3a/output_inception_3a/output_0_split -> inception_3a/output_inception_3a/output_0_split_3
I0403 02:30:37.829977 19580 net.cpp:141] Setting up inception_3a/output_inception_3a/output_0_split
I0403 02:30:37.830023 19580 net.cpp:148] Top shape: 24 256 28 28 (4816896)
I0403 02:30:37.830047 19580 net.cpp:148] Top shape: 24 256 28 28 (4816896)
I0403 02:30:37.830070 19580 net.cpp:148] Top shape: 24 256 28 28 (4816896)
I0403 02:30:37.830090 19580 net.cpp:148] Top shape: 24 256 28 28 (4816896)
I0403 02:30:37.830108 19580 net.cpp:156] Memory required for data: 657506688
I0403 02:30:37.830127 19580 layer_factory.hpp:77] Creating layer inception_3b/1x1
I0403 02:30:37.830157 19580 net.cpp:91] Creating Layer inception_3b/1x1
I0403 02:30:37.830183 19580 net.cpp:425] inception_3b/1x1 <- inception_3a/output_inception_3a/output_0_split_0
I0403 02:30:37.830209 19580 net.cpp:399] inception_3b/1x1 -> inception_3b/1x1
I0403 02:30:37.830663 19580 net.cpp:141] Setting up inception_3b/1x1
I0403 02:30:37.830696 19580 net.cpp:148] Top shape: 24 128 28 28 (2408448)
I0403 02:30:37.830718 19580 net.cpp:156] Memory required for data: 667140480
I0403 02:30:37.830741 19580 layer_factory.hpp:77] Creating layer inception_3b/relu_1x1
I0403 02:30:37.830772 19580 net.cpp:91] Creating Layer inception_3b/relu_1x1
I0403 02:30:37.830796 19580 net.cpp:425] inception_3b/relu_1x1 <- inception_3b/1x1
I0403 02:30:37.830819 19580 net.cpp:386] inception_3b/relu_1x1 -> inception_3b/1x1 (in-place)
I0403 02:30:37.830843 19580 net.cpp:141] Setting up inception_3b/relu_1x1
I0403 02:30:37.830865 19580 net.cpp:148] Top shape: 24 128 28 28 (2408448)
I0403 02:30:37.830884 19580 net.cpp:156] Memory required for data: 676774272
I0403 02:30:37.830904 19580 layer_factory.hpp:77] Creating layer inception_3b/3x3_reduce
I0403 02:30:37.830935 19580 net.cpp:91] Creating Layer inception_3b/3x3_reduce
I0403 02:30:37.830956 19580 net.cpp:425] inception_3b/3x3_reduce <- inception_3a/output_inception_3a/output_0_split_1
I0403 02:30:37.830983 19580 net.cpp:399] inception_3b/3x3_reduce -> inception_3b/3x3_reduce
I0403 02:30:37.831444 19580 net.cpp:141] Setting up inception_3b/3x3_reduce
I0403 02:30:37.831478 19580 net.cpp:148] Top shape: 24 128 28 28 (2408448)
I0403 02:30:37.831498 19580 net.cpp:156] Memory required for data: 686408064
I0403 02:30:37.831523 19580 layer_factory.hpp:77] Creating layer inception_3b/relu_3x3_reduce
I0403 02:30:37.831545 19580 net.cpp:91] Creating Layer inception_3b/relu_3x3_reduce
I0403 02:30:37.831568 19580 net.cpp:425] inception_3b/relu_3x3_reduce <- inception_3b/3x3_reduce
I0403 02:30:37.831589 19580 net.cpp:386] inception_3b/relu_3x3_reduce -> inception_3b/3x3_reduce (in-place)
I0403 02:30:37.831614 19580 net.cpp:141] Setting up inception_3b/relu_3x3_reduce
I0403 02:30:37.831637 19580 net.cpp:148] Top shape: 24 128 28 28 (2408448)
I0403 02:30:37.831656 19580 net.cpp:156] Memory required for data: 696041856
I0403 02:30:37.831675 19580 layer_factory.hpp:77] Creating layer inception_3b/3x3
I0403 02:30:37.831708 19580 net.cpp:91] Creating Layer inception_3b/3x3
I0403 02:30:37.831732 19580 net.cpp:425] inception_3b/3x3 <- inception_3b/3x3_reduce
I0403 02:30:37.831765 19580 net.cpp:399] inception_3b/3x3 -> inception_3b/3x3
I0403 02:30:37.834148 19580 net.cpp:141] Setting up inception_3b/3x3
I0403 02:30:37.834187 19580 net.cpp:148] Top shape: 24 192 28 28 (3612672)
I0403 02:30:37.834208 19580 net.cpp:156] Memory required for data: 710492544
I0403 02:30:37.834231 19580 layer_factory.hpp:77] Creating layer inception_3b/relu_3x3
I0403 02:30:37.834256 19580 net.cpp:91] Creating Layer inception_3b/relu_3x3
I0403 02:30:37.834278 19580 net.cpp:425] inception_3b/relu_3x3 <- inception_3b/3x3
I0403 02:30:37.834301 19580 net.cpp:386] inception_3b/relu_3x3 -> inception_3b/3x3 (in-place)
I0403 02:30:37.834326 19580 net.cpp:141] Setting up inception_3b/relu_3x3
I0403 02:30:37.834349 19580 net.cpp:148] Top shape: 24 192 28 28 (3612672)
I0403 02:30:37.834390 19580 net.cpp:156] Memory required for data: 724943232
I0403 02:30:37.834411 19580 layer_factory.hpp:77] Creating layer inception_3b/5x5_reduce
I0403 02:30:37.834458 19580 net.cpp:91] Creating Layer inception_3b/5x5_reduce
I0403 02:30:37.834501 19580 net.cpp:425] inception_3b/5x5_reduce <- inception_3a/output_inception_3a/output_0_split_2
I0403 02:30:37.834559 19580 net.cpp:399] inception_3b/5x5_reduce -> inception_3b/5x5_reduce
I0403 02:30:37.834895 19580 net.cpp:141] Setting up inception_3b/5x5_reduce
I0403 02:30:37.834936 19580 net.cpp:148] Top shape: 24 32 28 28 (602112)
I0403 02:30:37.834965 19580 net.cpp:156] Memory required for data: 727351680
I0403 02:30:37.834990 19580 layer_factory.hpp:77] Creating layer inception_3b/relu_5x5_reduce
I0403 02:30:37.835014 19580 net.cpp:91] Creating Layer inception_3b/relu_5x5_reduce
I0403 02:30:37.835036 19580 net.cpp:425] inception_3b/relu_5x5_reduce <- inception_3b/5x5_reduce
I0403 02:30:37.835057 19580 net.cpp:386] inception_3b/relu_5x5_reduce -> inception_3b/5x5_reduce (in-place)
I0403 02:30:37.835083 19580 net.cpp:141] Setting up inception_3b/relu_5x5_reduce
I0403 02:30:37.835106 19580 net.cpp:148] Top shape: 24 32 28 28 (602112)
I0403 02:30:37.835125 19580 net.cpp:156] Memory required for data: 729760128
I0403 02:30:37.835144 19580 layer_factory.hpp:77] Creating layer inception_3b/5x5
I0403 02:30:37.835176 19580 net.cpp:91] Creating Layer inception_3b/5x5
I0403 02:30:37.835199 19580 net.cpp:425] inception_3b/5x5 <- inception_3b/5x5_reduce
I0403 02:30:37.835227 19580 net.cpp:399] inception_3b/5x5 -> inception_3b/5x5
I0403 02:30:37.836637 19580 net.cpp:141] Setting up inception_3b/5x5
I0403 02:30:37.836674 19580 net.cpp:148] Top shape: 24 96 28 28 (1806336)
I0403 02:30:37.836694 19580 net.cpp:156] Memory required for data: 736985472
I0403 02:30:37.836719 19580 layer_factory.hpp:77] Creating layer inception_3b/relu_5x5
I0403 02:30:37.836753 19580 net.cpp:91] Creating Layer inception_3b/relu_5x5
I0403 02:30:37.836781 19580 net.cpp:425] inception_3b/relu_5x5 <- inception_3b/5x5
I0403 02:30:37.836807 19580 net.cpp:386] inception_3b/relu_5x5 -> inception_3b/5x5 (in-place)
I0403 02:30:37.836830 19580 net.cpp:141] Setting up inception_3b/relu_5x5
I0403 02:30:37.836851 19580 net.cpp:148] Top shape: 24 96 28 28 (1806336)
I0403 02:30:37.836870 19580 net.cpp:156] Memory required for data: 744210816
I0403 02:30:37.836889 19580 layer_factory.hpp:77] Creating layer inception_3b/pool
I0403 02:30:37.836912 19580 net.cpp:91] Creating Layer inception_3b/pool
I0403 02:30:37.836932 19580 net.cpp:425] inception_3b/pool <- inception_3a/output_inception_3a/output_0_split_3
I0403 02:30:37.836956 19580 net.cpp:399] inception_3b/pool -> inception_3b/pool
I0403 02:30:37.837019 19580 net.cpp:141] Setting up inception_3b/pool
I0403 02:30:37.837050 19580 net.cpp:148] Top shape: 24 256 28 28 (4816896)
I0403 02:30:37.837070 19580 net.cpp:156] Memory required for data: 763478400
I0403 02:30:37.837090 19580 layer_factory.hpp:77] Creating layer inception_3b/pool_proj
I0403 02:30:37.837119 19580 net.cpp:91] Creating Layer inception_3b/pool_proj
I0403 02:30:37.837141 19580 net.cpp:425] inception_3b/pool_proj <- inception_3b/pool
I0403 02:30:37.837170 19580 net.cpp:399] inception_3b/pool_proj -> inception_3b/pool_proj
I0403 02:30:37.837527 19580 net.cpp:141] Setting up inception_3b/pool_proj
I0403 02:30:37.837586 19580 net.cpp:148] Top shape: 24 64 28 28 (1204224)
I0403 02:30:37.837606 19580 net.cpp:156] Memory required for data: 768295296
I0403 02:30:37.837628 19580 layer_factory.hpp:77] Creating layer inception_3b/relu_pool_proj
I0403 02:30:37.837651 19580 net.cpp:91] Creating Layer inception_3b/relu_pool_proj
I0403 02:30:37.837671 19580 net.cpp:425] inception_3b/relu_pool_proj <- inception_3b/pool_proj
I0403 02:30:37.837692 19580 net.cpp:386] inception_3b/relu_pool_proj -> inception_3b/pool_proj (in-place)
I0403 02:30:37.837715 19580 net.cpp:141] Setting up inception_3b/relu_pool_proj
I0403 02:30:37.837750 19580 net.cpp:148] Top shape: 24 64 28 28 (1204224)
I0403 02:30:37.837770 19580 net.cpp:156] Memory required for data: 773112192
I0403 02:30:37.837790 19580 layer_factory.hpp:77] Creating layer inception_3b/output
I0403 02:30:37.837812 19580 net.cpp:91] Creating Layer inception_3b/output
I0403 02:30:37.837831 19580 net.cpp:425] inception_3b/output <- inception_3b/1x1
I0403 02:30:37.837851 19580 net.cpp:425] inception_3b/output <- inception_3b/3x3
I0403 02:30:37.837888 19580 net.cpp:425] inception_3b/output <- inception_3b/5x5
I0403 02:30:37.837909 19580 net.cpp:425] inception_3b/output <- inception_3b/pool_proj
I0403 02:30:37.837930 19580 net.cpp:399] inception_3b/output -> inception_3b/output
I0403 02:30:37.837977 19580 net.cpp:141] Setting up inception_3b/output
I0403 02:30:37.838006 19580 net.cpp:148] Top shape: 24 480 28 28 (9031680)
I0403 02:30:37.838023 19580 net.cpp:156] Memory required for data: 809238912
I0403 02:30:37.838042 19580 layer_factory.hpp:77] Creating layer pool3/3x3_s2
I0403 02:30:37.838063 19580 net.cpp:91] Creating Layer pool3/3x3_s2
I0403 02:30:37.838083 19580 net.cpp:425] pool3/3x3_s2 <- inception_3b/output
I0403 02:30:37.838109 19580 net.cpp:399] pool3/3x3_s2 -> pool3/3x3_s2
I0403 02:30:37.838167 19580 net.cpp:141] Setting up pool3/3x3_s2
I0403 02:30:37.838215 19580 net.cpp:148] Top shape: 24 480 14 14 (2257920)
I0403 02:30:37.838235 19580 net.cpp:156] Memory required for data: 818270592
I0403 02:30:37.838254 19580 layer_factory.hpp:77] Creating layer pool3/3x3_s2_pool3/3x3_s2_0_split
I0403 02:30:37.838294 19580 net.cpp:91] Creating Layer pool3/3x3_s2_pool3/3x3_s2_0_split
I0403 02:30:37.838348 19580 net.cpp:425] pool3/3x3_s2_pool3/3x3_s2_0_split <- pool3/3x3_s2
I0403 02:30:37.838404 19580 net.cpp:399] pool3/3x3_s2_pool3/3x3_s2_0_split -> pool3/3x3_s2_pool3/3x3_s2_0_split_0
I0403 02:30:37.838454 19580 net.cpp:399] pool3/3x3_s2_pool3/3x3_s2_0_split -> pool3/3x3_s2_pool3/3x3_s2_0_split_1
I0403 02:30:37.838502 19580 net.cpp:399] pool3/3x3_s2_pool3/3x3_s2_0_split -> pool3/3x3_s2_pool3/3x3_s2_0_split_2
I0403 02:30:37.838553 19580 net.cpp:399] pool3/3x3_s2_pool3/3x3_s2_0_split -> pool3/3x3_s2_pool3/3x3_s2_0_split_3
I0403 02:30:37.838654 19580 net.cpp:141] Setting up pool3/3x3_s2_pool3/3x3_s2_0_split
I0403 02:30:37.838696 19580 net.cpp:148] Top shape: 24 480 14 14 (2257920)
I0403 02:30:37.838716 19580 net.cpp:148] Top shape: 24 480 14 14 (2257920)
I0403 02:30:37.838735 19580 net.cpp:148] Top shape: 24 480 14 14 (2257920)
I0403 02:30:37.838762 19580 net.cpp:148] Top shape: 24 480 14 14 (2257920)
I0403 02:30:37.838781 19580 net.cpp:156] Memory required for data: 854397312
I0403 02:30:37.838800 19580 layer_factory.hpp:77] Creating layer inception_4a/1x1
I0403 02:30:37.838832 19580 net.cpp:91] Creating Layer inception_4a/1x1
I0403 02:30:37.838855 19580 net.cpp:425] inception_4a/1x1 <- pool3/3x3_s2_pool3/3x3_s2_0_split_0
I0403 02:30:37.838881 19580 net.cpp:399] inception_4a/1x1 -> inception_4a/1x1
I0403 02:30:37.839726 19580 net.cpp:141] Setting up inception_4a/1x1
I0403 02:30:37.840282 19588 blocking_queue.cpp:50] Waiting for data
I0403 02:30:37.840366 19580 net.cpp:148] Top shape: 24 192 14 14 (903168)
I0403 02:30:37.840392 19580 net.cpp:156] Memory required for data: 858009984
I0403 02:30:37.840415 19580 layer_factory.hpp:77] Creating layer inception_4a/relu_1x1
I0403 02:30:37.840440 19580 net.cpp:91] Creating Layer inception_4a/relu_1x1
I0403 02:30:37.840463 19580 net.cpp:425] inception_4a/relu_1x1 <- inception_4a/1x1
I0403 02:30:37.840487 19580 net.cpp:386] inception_4a/relu_1x1 -> inception_4a/1x1 (in-place)
I0403 02:30:37.840510 19580 net.cpp:141] Setting up inception_4a/relu_1x1
I0403 02:30:37.840531 19580 net.cpp:148] Top shape: 24 192 14 14 (903168)
I0403 02:30:37.840549 19580 net.cpp:156] Memory required for data: 861622656
I0403 02:30:37.840566 19580 layer_factory.hpp:77] Creating layer inception_4a/3x3_reduce
I0403 02:30:37.840595 19580 net.cpp:91] Creating Layer inception_4a/3x3_reduce
I0403 02:30:37.840616 19580 net.cpp:425] inception_4a/3x3_reduce <- pool3/3x3_s2_pool3/3x3_s2_0_split_1
I0403 02:30:37.840642 19580 net.cpp:399] inception_4a/3x3_reduce -> inception_4a/3x3_reduce
I0403 02:30:37.841208 19580 net.cpp:141] Setting up inception_4a/3x3_reduce
I0403 02:30:37.841239 19580 net.cpp:148] Top shape: 24 96 14 14 (451584)
I0403 02:30:37.841258 19580 net.cpp:156] Memory required for data: 863428992
I0403 02:30:37.841287 19580 layer_factory.hpp:77] Creating layer inception_4a/relu_3x3_reduce
I0403 02:30:37.841313 19580 net.cpp:91] Creating Layer inception_4a/relu_3x3_reduce
I0403 02:30:37.841351 19580 net.cpp:425] inception_4a/relu_3x3_reduce <- inception_4a/3x3_reduce
I0403 02:30:37.841398 19580 net.cpp:386] inception_4a/relu_3x3_reduce -> inception_4a/3x3_reduce (in-place)
I0403 02:30:37.841454 19580 net.cpp:141] Setting up inception_4a/relu_3x3_reduce
I0403 02:30:37.841492 19580 net.cpp:148] Top shape: 24 96 14 14 (451584)
I0403 02:30:37.841536 19580 net.cpp:156] Memory required for data: 865235328
I0403 02:30:37.841578 19580 layer_factory.hpp:77] Creating layer inception_4a/3x3
I0403 02:30:37.841631 19580 net.cpp:91] Creating Layer inception_4a/3x3
I0403 02:30:37.841666 19580 net.cpp:425] inception_4a/3x3 <- inception_4a/3x3_reduce
I0403 02:30:37.841722 19580 net.cpp:399] inception_4a/3x3 -> inception_4a/3x3
I0403 02:30:37.843830 19580 net.cpp:141] Setting up inception_4a/3x3
I0403 02:30:37.843869 19580 net.cpp:148] Top shape: 24 208 14 14 (978432)
I0403 02:30:37.843889 19580 net.cpp:156] Memory required for data: 869149056
I0403 02:30:37.843941 19580 layer_factory.hpp:77] Creating layer inception_4a/relu_3x3
I0403 02:30:37.844002 19580 net.cpp:91] Creating Layer inception_4a/relu_3x3
I0403 02:30:37.844033 19580 net.cpp:425] inception_4a/relu_3x3 <- inception_4a/3x3
I0403 02:30:37.844085 19580 net.cpp:386] inception_4a/relu_3x3 -> inception_4a/3x3 (in-place)
I0403 02:30:37.844132 19580 net.cpp:141] Setting up inception_4a/relu_3x3
I0403 02:30:37.844169 19580 net.cpp:148] Top shape: 24 208 14 14 (978432)
I0403 02:30:37.844195 19580 net.cpp:156] Memory required for data: 873062784
I0403 02:30:37.844214 19580 layer_factory.hpp:77] Creating layer inception_4a/5x5_reduce
I0403 02:30:37.844244 19580 net.cpp:91] Creating Layer inception_4a/5x5_reduce
I0403 02:30:37.844290 19580 net.cpp:425] inception_4a/5x5_reduce <- pool3/3x3_s2_pool3/3x3_s2_0_split_2
I0403 02:30:37.844326 19580 net.cpp:399] inception_4a/5x5_reduce -> inception_4a/5x5_reduce
I0403 02:30:37.844633 19580 net.cpp:141] Setting up inception_4a/5x5_reduce
I0403 02:30:37.844667 19580 net.cpp:148] Top shape: 24 16 14 14 (75264)
I0403 02:30:37.844688 19580 net.cpp:156] Memory required for data: 873363840
I0403 02:30:37.844712 19580 layer_factory.hpp:77] Creating layer inception_4a/relu_5x5_reduce
I0403 02:30:37.844735 19580 net.cpp:91] Creating Layer inception_4a/relu_5x5_reduce
I0403 02:30:37.844763 19580 net.cpp:425] inception_4a/relu_5x5_reduce <- inception_4a/5x5_reduce
I0403 02:30:37.844789 19580 net.cpp:386] inception_4a/relu_5x5_reduce -> inception_4a/5x5_reduce (in-place)
I0403 02:30:37.844815 19580 net.cpp:141] Setting up inception_4a/relu_5x5_reduce
I0403 02:30:37.844838 19580 net.cpp:148] Top shape: 24 16 14 14 (75264)
I0403 02:30:37.844858 19580 net.cpp:156] Memory required for data: 873664896
I0403 02:30:37.844877 19580 layer_factory.hpp:77] Creating layer inception_4a/5x5
I0403 02:30:37.844907 19580 net.cpp:91] Creating Layer inception_4a/5x5
I0403 02:30:37.844928 19580 net.cpp:425] inception_4a/5x5 <- inception_4a/5x5_reduce
I0403 02:30:37.844952 19580 net.cpp:399] inception_4a/5x5 -> inception_4a/5x5
I0403 02:30:37.845331 19580 net.cpp:141] Setting up inception_4a/5x5
I0403 02:30:37.845388 19580 net.cpp:148] Top shape: 24 48 14 14 (225792)
I0403 02:30:37.845438 19580 net.cpp:156] Memory required for data: 874568064
I0403 02:30:37.845494 19580 layer_factory.hpp:77] Creating layer inception_4a/relu_5x5
I0403 02:30:37.845536 19580 net.cpp:91] Creating Layer inception_4a/relu_5x5
I0403 02:30:37.845558 19580 net.cpp:425] inception_4a/relu_5x5 <- inception_4a/5x5
I0403 02:30:37.845597 19580 net.cpp:386] inception_4a/relu_5x5 -> inception_4a/5x5 (in-place)
I0403 02:30:37.845635 19580 net.cpp:141] Setting up inception_4a/relu_5x5
I0403 02:30:37.845690 19580 net.cpp:148] Top shape: 24 48 14 14 (225792)
I0403 02:30:37.845733 19580 net.cpp:156] Memory required for data: 875471232
I0403 02:30:37.845788 19580 layer_factory.hpp:77] Creating layer inception_4a/pool
I0403 02:30:37.845815 19580 net.cpp:91] Creating Layer inception_4a/pool
I0403 02:30:37.845835 19580 net.cpp:425] inception_4a/pool <- pool3/3x3_s2_pool3/3x3_s2_0_split_3
I0403 02:30:37.845875 19580 net.cpp:399] inception_4a/pool -> inception_4a/pool
I0403 02:30:37.845937 19580 net.cpp:141] Setting up inception_4a/pool
I0403 02:30:37.845966 19580 net.cpp:148] Top shape: 24 480 14 14 (2257920)
I0403 02:30:37.845985 19580 net.cpp:156] Memory required for data: 884502912
I0403 02:30:37.846004 19580 layer_factory.hpp:77] Creating layer inception_4a/pool_proj
I0403 02:30:37.846029 19580 net.cpp:91] Creating Layer inception_4a/pool_proj
I0403 02:30:37.846048 19580 net.cpp:425] inception_4a/pool_proj <- inception_4a/pool
I0403 02:30:37.846074 19580 net.cpp:399] inception_4a/pool_proj -> inception_4a/pool_proj
I0403 02:30:37.846525 19580 net.cpp:141] Setting up inception_4a/pool_proj
I0403 02:30:37.846555 19580 net.cpp:148] Top shape: 24 64 14 14 (301056)
I0403 02:30:37.846573 19580 net.cpp:156] Memory required for data: 885707136
I0403 02:30:37.846595 19580 layer_factory.hpp:77] Creating layer inception_4a/relu_pool_proj
I0403 02:30:37.846616 19580 net.cpp:91] Creating Layer inception_4a/relu_pool_proj
I0403 02:30:37.846635 19580 net.cpp:425] inception_4a/relu_pool_proj <- inception_4a/pool_proj
I0403 02:30:37.846659 19580 net.cpp:386] inception_4a/relu_pool_proj -> inception_4a/pool_proj (in-place)
I0403 02:30:37.846683 19580 net.cpp:141] Setting up inception_4a/relu_pool_proj
I0403 02:30:37.846704 19580 net.cpp:148] Top shape: 24 64 14 14 (301056)
I0403 02:30:37.846722 19580 net.cpp:156] Memory required for data: 886911360
I0403 02:30:37.846740 19580 layer_factory.hpp:77] Creating layer inception_4a/output
I0403 02:30:37.846765 19580 net.cpp:91] Creating Layer inception_4a/output
I0403 02:30:37.846786 19580 net.cpp:425] inception_4a/output <- inception_4a/1x1
I0403 02:30:37.846806 19580 net.cpp:425] inception_4a/output <- inception_4a/3x3
I0403 02:30:37.846824 19580 net.cpp:425] inception_4a/output <- inception_4a/5x5
I0403 02:30:37.846843 19580 net.cpp:425] inception_4a/output <- inception_4a/pool_proj
I0403 02:30:37.846864 19580 net.cpp:399] inception_4a/output -> inception_4a/output
I0403 02:30:37.846911 19580 net.cpp:141] Setting up inception_4a/output
I0403 02:30:37.846938 19580 net.cpp:148] Top shape: 24 512 14 14 (2408448)
I0403 02:30:37.846956 19580 net.cpp:156] Memory required for data: 896545152
I0403 02:30:37.846973 19580 layer_factory.hpp:77] Creating layer inception_4a/output_inception_4a/output_0_split
I0403 02:30:37.846995 19580 net.cpp:91] Creating Layer inception_4a/output_inception_4a/output_0_split
I0403 02:30:37.847014 19580 net.cpp:425] inception_4a/output_inception_4a/output_0_split <- inception_4a/output
I0403 02:30:37.847038 19580 net.cpp:399] inception_4a/output_inception_4a/output_0_split -> inception_4a/output_inception_4a/output_0_split_0
I0403 02:30:37.847064 19580 net.cpp:399] inception_4a/output_inception_4a/output_0_split -> inception_4a/output_inception_4a/output_0_split_1
I0403 02:30:37.847087 19580 net.cpp:399] inception_4a/output_inception_4a/output_0_split -> inception_4a/output_inception_4a/output_0_split_2
I0403 02:30:37.847111 19580 net.cpp:399] inception_4a/output_inception_4a/output_0_split -> inception_4a/output_inception_4a/output_0_split_3
I0403 02:30:37.847137 19580 net.cpp:399] inception_4a/output_inception_4a/output_0_split -> inception_4a/output_inception_4a/output_0_split_4
I0403 02:30:37.847229 19580 net.cpp:141] Setting up inception_4a/output_inception_4a/output_0_split
I0403 02:30:37.847256 19580 net.cpp:148] Top shape: 24 512 14 14 (2408448)
I0403 02:30:37.847276 19580 net.cpp:148] Top shape: 24 512 14 14 (2408448)
I0403 02:30:37.847295 19580 net.cpp:148] Top shape: 24 512 14 14 (2408448)
I0403 02:30:37.847314 19580 net.cpp:148] Top shape: 24 512 14 14 (2408448)
I0403 02:30:37.847332 19580 net.cpp:148] Top shape: 24 512 14 14 (2408448)
I0403 02:30:37.847349 19580 net.cpp:156] Memory required for data: 944714112
I0403 02:30:37.847368 19580 layer_factory.hpp:77] Creating layer loss1/ave_pool
I0403 02:30:37.847388 19580 net.cpp:91] Creating Layer loss1/ave_pool
I0403 02:30:37.847424 19580 net.cpp:425] loss1/ave_pool <- inception_4a/output_inception_4a/output_0_split_0
I0403 02:30:37.847450 19580 net.cpp:399] loss1/ave_pool -> loss1/ave_pool
I0403 02:30:37.847494 19580 net.cpp:141] Setting up loss1/ave_pool
I0403 02:30:37.847528 19580 net.cpp:148] Top shape: 24 512 4 4 (196608)
I0403 02:30:37.847548 19580 net.cpp:156] Memory required for data: 945500544
I0403 02:30:37.847565 19580 layer_factory.hpp:77] Creating layer loss1/conv
I0403 02:30:37.847592 19580 net.cpp:91] Creating Layer loss1/conv
I0403 02:30:37.847614 19580 net.cpp:425] loss1/conv <- loss1/ave_pool
I0403 02:30:37.847637 19580 net.cpp:399] loss1/conv -> loss1/conv
I0403 02:30:37.848320 19580 net.cpp:141] Setting up loss1/conv
I0403 02:30:37.848351 19580 net.cpp:148] Top shape: 24 128 4 4 (49152)
I0403 02:30:37.848369 19580 net.cpp:156] Memory required for data: 945697152
I0403 02:30:37.848392 19580 layer_factory.hpp:77] Creating layer loss1/relu_conv
I0403 02:30:37.848413 19580 net.cpp:91] Creating Layer loss1/relu_conv
I0403 02:30:37.848433 19580 net.cpp:425] loss1/relu_conv <- loss1/conv
I0403 02:30:37.848455 19580 net.cpp:386] loss1/relu_conv -> loss1/conv (in-place)
I0403 02:30:37.848479 19580 net.cpp:141] Setting up loss1/relu_conv
I0403 02:30:37.848500 19580 net.cpp:148] Top shape: 24 128 4 4 (49152)
I0403 02:30:37.848516 19580 net.cpp:156] Memory required for data: 945893760
I0403 02:30:37.848533 19580 layer_factory.hpp:77] Creating layer loss1/fc
I0403 02:30:37.848563 19580 net.cpp:91] Creating Layer loss1/fc
I0403 02:30:37.848584 19580 net.cpp:425] loss1/fc <- loss1/conv
I0403 02:30:37.848609 19580 net.cpp:399] loss1/fc -> loss1/fc
I0403 02:30:37.868479 19580 net.cpp:141] Setting up loss1/fc
I0403 02:30:37.868530 19580 net.cpp:148] Top shape: 24 1024 (24576)
I0403 02:30:37.868551 19580 net.cpp:156] Memory required for data: 945992064
I0403 02:30:37.868576 19580 layer_factory.hpp:77] Creating layer loss1/relu_fc
I0403 02:30:37.868602 19580 net.cpp:91] Creating Layer loss1/relu_fc
I0403 02:30:37.868623 19580 net.cpp:425] loss1/relu_fc <- loss1/fc
I0403 02:30:37.868650 19580 net.cpp:386] loss1/relu_fc -> loss1/fc (in-place)
I0403 02:30:37.868679 19580 net.cpp:141] Setting up loss1/relu_fc
I0403 02:30:37.868702 19580 net.cpp:148] Top shape: 24 1024 (24576)
I0403 02:30:37.868722 19580 net.cpp:156] Memory required for data: 946090368
I0403 02:30:37.868741 19580 layer_factory.hpp:77] Creating layer loss1/drop_fc
I0403 02:30:37.868785 19580 net.cpp:91] Creating Layer loss1/drop_fc
I0403 02:30:37.868809 19580 net.cpp:425] loss1/drop_fc <- loss1/fc
I0403 02:30:37.868831 19580 net.cpp:386] loss1/drop_fc -> loss1/fc (in-place)
I0403 02:30:37.868891 19580 net.cpp:141] Setting up loss1/drop_fc
I0403 02:30:37.868945 19580 net.cpp:148] Top shape: 24 1024 (24576)
I0403 02:30:37.868991 19580 net.cpp:156] Memory required for data: 946188672
I0403 02:30:37.869037 19580 layer_factory.hpp:77] Creating layer loss1/classifier_plantvillage
I0403 02:30:37.869066 19580 net.cpp:91] Creating Layer loss1/classifier_plantvillage
I0403 02:30:37.869091 19580 net.cpp:425] loss1/classifier_plantvillage <- loss1/fc
I0403 02:30:37.869153 19580 net.cpp:399] loss1/classifier_plantvillage -> loss1/classifier_plantvillage
I0403 02:30:37.870203 19580 net.cpp:141] Setting up loss1/classifier_plantvillage
I0403 02:30:37.870239 19580 net.cpp:148] Top shape: 24 38 (912)
I0403 02:30:37.870260 19580 net.cpp:156] Memory required for data: 946192320
I0403 02:30:37.870285 19580 layer_factory.hpp:77] Creating layer inception_4b/1x1
I0403 02:30:37.870316 19580 net.cpp:91] Creating Layer inception_4b/1x1
I0403 02:30:37.870342 19580 net.cpp:425] inception_4b/1x1 <- inception_4a/output_inception_4a/output_0_split_1
I0403 02:30:37.870368 19580 net.cpp:399] inception_4b/1x1 -> inception_4b/1x1
I0403 02:30:37.871178 19580 net.cpp:141] Setting up inception_4b/1x1
I0403 02:30:37.871211 19580 net.cpp:148] Top shape: 24 160 14 14 (752640)
I0403 02:30:37.871243 19580 net.cpp:156] Memory required for data: 949202880
I0403 02:30:37.871266 19580 layer_factory.hpp:77] Creating layer inception_4b/relu_1x1
I0403 02:30:37.871311 19580 net.cpp:91] Creating Layer inception_4b/relu_1x1
I0403 02:30:37.871335 19580 net.cpp:425] inception_4b/relu_1x1 <- inception_4b/1x1
I0403 02:30:37.871356 19580 net.cpp:386] inception_4b/relu_1x1 -> inception_4b/1x1 (in-place)
I0403 02:30:37.871381 19580 net.cpp:141] Setting up inception_4b/relu_1x1
I0403 02:30:37.871407 19580 net.cpp:148] Top shape: 24 160 14 14 (752640)
I0403 02:30:37.871426 19580 net.cpp:156] Memory required for data: 952213440
I0403 02:30:37.871443 19580 layer_factory.hpp:77] Creating layer inception_4b/3x3_reduce
I0403 02:30:37.871470 19580 net.cpp:91] Creating Layer inception_4b/3x3_reduce
I0403 02:30:37.871493 19580 net.cpp:425] inception_4b/3x3_reduce <- inception_4a/output_inception_4a/output_0_split_2
I0403 02:30:37.871520 19580 net.cpp:399] inception_4b/3x3_reduce -> inception_4b/3x3_reduce
I0403 02:30:37.872159 19580 net.cpp:141] Setting up inception_4b/3x3_reduce
I0403 02:30:37.872192 19580 net.cpp:148] Top shape: 24 112 14 14 (526848)
I0403 02:30:37.872212 19580 net.cpp:156] Memory required for data: 954320832
I0403 02:30:37.872236 19580 layer_factory.hpp:77] Creating layer inception_4b/relu_3x3_reduce
I0403 02:30:37.872258 19580 net.cpp:91] Creating Layer inception_4b/relu_3x3_reduce
I0403 02:30:37.872279 19580 net.cpp:425] inception_4b/relu_3x3_reduce <- inception_4b/3x3_reduce
I0403 02:30:37.872300 19580 net.cpp:386] inception_4b/relu_3x3_reduce -> inception_4b/3x3_reduce (in-place)
I0403 02:30:37.872323 19580 net.cpp:141] Setting up inception_4b/relu_3x3_reduce
I0403 02:30:37.872365 19580 net.cpp:148] Top shape: 24 112 14 14 (526848)
I0403 02:30:37.872395 19580 net.cpp:156] Memory required for data: 956428224
I0403 02:30:37.872424 19580 layer_factory.hpp:77] Creating layer inception_4b/3x3
I0403 02:30:37.872455 19580 net.cpp:91] Creating Layer inception_4b/3x3
I0403 02:30:37.872499 19580 net.cpp:425] inception_4b/3x3 <- inception_4b/3x3_reduce
I0403 02:30:37.872557 19580 net.cpp:399] inception_4b/3x3 -> inception_4b/3x3
I0403 02:30:37.874974 19580 net.cpp:141] Setting up inception_4b/3x3
I0403 02:30:37.875035 19580 net.cpp:148] Top shape: 24 224 14 14 (1053696)
I0403 02:30:37.875087 19580 net.cpp:156] Memory required for data: 960643008
I0403 02:30:37.875146 19580 layer_factory.hpp:77] Creating layer inception_4b/relu_3x3
I0403 02:30:37.875193 19580 net.cpp:91] Creating Layer inception_4b/relu_3x3
I0403 02:30:37.875221 19580 net.cpp:425] inception_4b/relu_3x3 <- inception_4b/3x3
I0403 02:30:37.875247 19580 net.cpp:386] inception_4b/relu_3x3 -> inception_4b/3x3 (in-place)
I0403 02:30:37.875303 19580 net.cpp:141] Setting up inception_4b/relu_3x3
I0403 02:30:37.875346 19580 net.cpp:148] Top shape: 24 224 14 14 (1053696)
I0403 02:30:37.875396 19580 net.cpp:156] Memory required for data: 964857792
I0403 02:30:37.875416 19580 layer_factory.hpp:77] Creating layer inception_4b/5x5_reduce
I0403 02:30:37.875443 19580 net.cpp:91] Creating Layer inception_4b/5x5_reduce
I0403 02:30:37.875466 19580 net.cpp:425] inception_4b/5x5_reduce <- inception_4a/output_inception_4a/output_0_split_3
I0403 02:30:37.875494 19580 net.cpp:399] inception_4b/5x5_reduce -> inception_4b/5x5_reduce
I0403 02:30:37.875846 19580 net.cpp:141] Setting up inception_4b/5x5_reduce
I0403 02:30:37.875880 19580 net.cpp:148] Top shape: 24 24 14 14 (112896)
I0403 02:30:37.875900 19580 net.cpp:156] Memory required for data: 965309376
I0403 02:30:37.875921 19580 layer_factory.hpp:77] Creating layer inception_4b/relu_5x5_reduce
I0403 02:30:37.875943 19580 net.cpp:91] Creating Layer inception_4b/relu_5x5_reduce
I0403 02:30:37.875964 19580 net.cpp:425] inception_4b/relu_5x5_reduce <- inception_4b/5x5_reduce
I0403 02:30:37.875985 19580 net.cpp:386] inception_4b/relu_5x5_reduce -> inception_4b/5x5_reduce (in-place)
I0403 02:30:37.876008 19580 net.cpp:141] Setting up inception_4b/relu_5x5_reduce
I0403 02:30:37.876029 19580 net.cpp:148] Top shape: 24 24 14 14 (112896)
I0403 02:30:37.876047 19580 net.cpp:156] Memory required for data: 965760960
I0403 02:30:37.876065 19580 layer_factory.hpp:77] Creating layer inception_4b/5x5
I0403 02:30:37.876127 19580 net.cpp:91] Creating Layer inception_4b/5x5
I0403 02:30:37.876178 19580 net.cpp:425] inception_4b/5x5 <- inception_4b/5x5_reduce
I0403 02:30:37.876231 19580 net.cpp:399] inception_4b/5x5 -> inception_4b/5x5
I0403 02:30:37.876770 19580 net.cpp:141] Setting up inception_4b/5x5
I0403 02:30:37.876803 19580 net.cpp:148] Top shape: 24 64 14 14 (301056)
I0403 02:30:37.876823 19580 net.cpp:156] Memory required for data: 966965184
I0403 02:30:37.876845 19580 layer_factory.hpp:77] Creating layer inception_4b/relu_5x5
I0403 02:30:37.876868 19580 net.cpp:91] Creating Layer inception_4b/relu_5x5
I0403 02:30:37.876888 19580 net.cpp:425] inception_4b/relu_5x5 <- inception_4b/5x5
I0403 02:30:37.876909 19580 net.cpp:386] inception_4b/relu_5x5 -> inception_4b/5x5 (in-place)
I0403 02:30:37.876934 19580 net.cpp:141] Setting up inception_4b/relu_5x5
I0403 02:30:37.876955 19580 net.cpp:148] Top shape: 24 64 14 14 (301056)
I0403 02:30:37.876973 19580 net.cpp:156] Memory required for data: 968169408
I0403 02:30:37.876991 19580 layer_factory.hpp:77] Creating layer inception_4b/pool
I0403 02:30:37.877017 19580 net.cpp:91] Creating Layer inception_4b/pool
I0403 02:30:37.877037 19580 net.cpp:425] inception_4b/pool <- inception_4a/output_inception_4a/output_0_split_4
I0403 02:30:37.877059 19580 net.cpp:399] inception_4b/pool -> inception_4b/pool
I0403 02:30:37.877122 19580 net.cpp:141] Setting up inception_4b/pool
I0403 02:30:37.877152 19580 net.cpp:148] Top shape: 24 512 14 14 (2408448)
I0403 02:30:37.877171 19580 net.cpp:156] Memory required for data: 977803200
I0403 02:30:37.877188 19580 layer_factory.hpp:77] Creating layer inception_4b/pool_proj
I0403 02:30:37.877218 19580 net.cpp:91] Creating Layer inception_4b/pool_proj
I0403 02:30:37.877239 19580 net.cpp:425] inception_4b/pool_proj <- inception_4b/pool
I0403 02:30:37.877264 19580 net.cpp:399] inception_4b/pool_proj -> inception_4b/pool_proj
I0403 02:30:37.877743 19580 net.cpp:141] Setting up inception_4b/pool_proj
I0403 02:30:37.877780 19580 net.cpp:148] Top shape: 24 64 14 14 (301056)
I0403 02:30:37.877812 19580 net.cpp:156] Memory required for data: 979007424
I0403 02:30:37.877868 19580 layer_factory.hpp:77] Creating layer inception_4b/relu_pool_proj
I0403 02:30:37.877909 19580 net.cpp:91] Creating Layer inception_4b/relu_pool_proj
I0403 02:30:37.877940 19580 net.cpp:425] inception_4b/relu_pool_proj <- inception_4b/pool_proj
I0403 02:30:37.877980 19580 net.cpp:386] inception_4b/relu_pool_proj -> inception_4b/pool_proj (in-place)
I0403 02:30:37.878015 19580 net.cpp:141] Setting up inception_4b/relu_pool_proj
I0403 02:30:37.878062 19580 net.cpp:148] Top shape: 24 64 14 14 (301056)
I0403 02:30:37.878114 19580 net.cpp:156] Memory required for data: 980211648
I0403 02:30:37.878161 19580 layer_factory.hpp:77] Creating layer inception_4b/output
I0403 02:30:37.878214 19580 net.cpp:91] Creating Layer inception_4b/output
I0403 02:30:37.878258 19580 net.cpp:425] inception_4b/output <- inception_4b/1x1
I0403 02:30:37.878279 19580 net.cpp:425] inception_4b/output <- inception_4b/3x3
I0403 02:30:37.878305 19580 net.cpp:425] inception_4b/output <- inception_4b/5x5
I0403 02:30:37.878329 19580 net.cpp:425] inception_4b/output <- inception_4b/pool_proj
I0403 02:30:37.878376 19580 net.cpp:399] inception_4b/output -> inception_4b/output
I0403 02:30:37.878422 19580 net.cpp:141] Setting up inception_4b/output
I0403 02:30:37.878448 19580 net.cpp:148] Top shape: 24 512 14 14 (2408448)
I0403 02:30:37.878465 19580 net.cpp:156] Memory required for data: 989845440
I0403 02:30:37.878482 19580 layer_factory.hpp:77] Creating layer inception_4b/output_inception_4b/output_0_split
I0403 02:30:37.878506 19580 net.cpp:91] Creating Layer inception_4b/output_inception_4b/output_0_split
I0403 02:30:37.878526 19580 net.cpp:425] inception_4b/output_inception_4b/output_0_split <- inception_4b/output
I0403 02:30:37.878548 19580 net.cpp:399] inception_4b/output_inception_4b/output_0_split -> inception_4b/output_inception_4b/output_0_split_0
I0403 02:30:37.878573 19580 net.cpp:399] inception_4b/output_inception_4b/output_0_split -> inception_4b/output_inception_4b/output_0_split_1
I0403 02:30:37.878615 19580 net.cpp:399] inception_4b/output_inception_4b/output_0_split -> inception_4b/output_inception_4b/output_0_split_2
I0403 02:30:37.878645 19580 net.cpp:399] inception_4b/output_inception_4b/output_0_split -> inception_4b/output_inception_4b/output_0_split_3
I0403 02:30:37.878732 19580 net.cpp:141] Setting up inception_4b/output_inception_4b/output_0_split
I0403 02:30:37.878763 19580 net.cpp:148] Top shape: 24 512 14 14 (2408448)
I0403 02:30:37.878785 19580 net.cpp:148] Top shape: 24 512 14 14 (2408448)
I0403 02:30:37.878803 19580 net.cpp:148] Top shape: 24 512 14 14 (2408448)
I0403 02:30:37.878823 19580 net.cpp:148] Top shape: 24 512 14 14 (2408448)
I0403 02:30:37.878839 19580 net.cpp:156] Memory required for data: 1028380608
I0403 02:30:37.878857 19580 layer_factory.hpp:77] Creating layer inception_4c/1x1
I0403 02:30:37.878885 19580 net.cpp:91] Creating Layer inception_4c/1x1
I0403 02:30:37.878906 19580 net.cpp:425] inception_4c/1x1 <- inception_4b/output_inception_4b/output_0_split_0
I0403 02:30:37.878932 19580 net.cpp:399] inception_4c/1x1 -> inception_4c/1x1
I0403 02:30:37.879612 19580 net.cpp:141] Setting up inception_4c/1x1
I0403 02:30:37.879643 19580 net.cpp:148] Top shape: 24 128 14 14 (602112)
I0403 02:30:37.879662 19580 net.cpp:156] Memory required for data: 1030789056
I0403 02:30:37.879685 19580 layer_factory.hpp:77] Creating layer inception_4c/relu_1x1
I0403 02:30:37.879708 19580 net.cpp:91] Creating Layer inception_4c/relu_1x1
I0403 02:30:37.879727 19580 net.cpp:425] inception_4c/relu_1x1 <- inception_4c/1x1
I0403 02:30:37.879760 19580 net.cpp:386] inception_4c/relu_1x1 -> inception_4c/1x1 (in-place)
I0403 02:30:37.879786 19580 net.cpp:141] Setting up inception_4c/relu_1x1
I0403 02:30:37.879808 19580 net.cpp:148] Top shape: 24 128 14 14 (602112)
I0403 02:30:37.879825 19580 net.cpp:156] Memory required for data: 1033197504
I0403 02:30:37.879844 19580 layer_factory.hpp:77] Creating layer inception_4c/3x3_reduce
I0403 02:30:37.879873 19580 net.cpp:91] Creating Layer inception_4c/3x3_reduce
I0403 02:30:37.879894 19580 net.cpp:425] inception_4c/3x3_reduce <- inception_4b/output_inception_4b/output_0_split_1
I0403 02:30:37.879916 19580 net.cpp:399] inception_4c/3x3_reduce -> inception_4c/3x3_reduce
I0403 02:30:37.881234 19580 net.cpp:141] Setting up inception_4c/3x3_reduce
I0403 02:30:37.881268 19580 net.cpp:148] Top shape: 24 128 14 14 (602112)
I0403 02:30:37.907167 19580 net.cpp:156] Memory required for data: 1035605952
I0403 02:30:37.907203 19580 layer_factory.hpp:77] Creating layer inception_4c/relu_3x3_reduce
I0403 02:30:37.907238 19580 net.cpp:91] Creating Layer inception_4c/relu_3x3_reduce
I0403 02:30:37.907260 19580 net.cpp:425] inception_4c/relu_3x3_reduce <- inception_4c/3x3_reduce
I0403 02:30:37.907305 19580 net.cpp:386] inception_4c/relu_3x3_reduce -> inception_4c/3x3_reduce (in-place)
I0403 02:30:37.907378 19580 net.cpp:141] Setting up inception_4c/relu_3x3_reduce
I0403 02:30:37.907407 19580 net.cpp:148] Top shape: 24 128 14 14 (602112)
I0403 02:30:37.907446 19580 net.cpp:156] Memory required for data: 1038014400
I0403 02:30:37.907465 19580 layer_factory.hpp:77] Creating layer inception_4c/3x3
I0403 02:30:37.907521 19580 net.cpp:91] Creating Layer inception_4c/3x3
I0403 02:30:37.907549 19580 net.cpp:425] inception_4c/3x3 <- inception_4c/3x3_reduce
I0403 02:30:37.907598 19580 net.cpp:399] inception_4c/3x3 -> inception_4c/3x3
I0403 02:30:37.910614 19580 net.cpp:141] Setting up inception_4c/3x3
I0403 02:30:37.910666 19580 net.cpp:148] Top shape: 24 256 14 14 (1204224)
I0403 02:30:37.910713 19580 net.cpp:156] Memory required for data: 1042831296
I0403 02:30:37.910780 19580 layer_factory.hpp:77] Creating layer inception_4c/relu_3x3
I0403 02:30:37.910817 19580 net.cpp:91] Creating Layer inception_4c/relu_3x3
I0403 02:30:37.910851 19580 net.cpp:425] inception_4c/relu_3x3 <- inception_4c/3x3
I0403 02:30:37.910873 19580 net.cpp:386] inception_4c/relu_3x3 -> inception_4c/3x3 (in-place)
I0403 02:30:37.910917 19580 net.cpp:141] Setting up inception_4c/relu_3x3
I0403 02:30:37.910960 19580 net.cpp:148] Top shape: 24 256 14 14 (1204224)
I0403 02:30:37.911008 19580 net.cpp:156] Memory required for data: 1047648192
I0403 02:30:37.911062 19580 layer_factory.hpp:77] Creating layer inception_4c/5x5_reduce
I0403 02:30:37.911121 19580 net.cpp:91] Creating Layer inception_4c/5x5_reduce
I0403 02:30:37.911154 19580 net.cpp:425] inception_4c/5x5_reduce <- inception_4b/output_inception_4b/output_0_split_2
I0403 02:30:37.911185 19580 net.cpp:399] inception_4c/5x5_reduce -> inception_4c/5x5_reduce
I0403 02:30:37.911548 19580 net.cpp:141] Setting up inception_4c/5x5_reduce
I0403 02:30:37.911608 19580 net.cpp:148] Top shape: 24 24 14 14 (112896)
I0403 02:30:37.911628 19580 net.cpp:156] Memory required for data: 1048099776
I0403 02:30:37.911649 19580 layer_factory.hpp:77] Creating layer inception_4c/relu_5x5_reduce
I0403 02:30:37.911672 19580 net.cpp:91] Creating Layer inception_4c/relu_5x5_reduce
I0403 02:30:37.911697 19580 net.cpp:425] inception_4c/relu_5x5_reduce <- inception_4c/5x5_reduce
I0403 02:30:37.911720 19580 net.cpp:386] inception_4c/relu_5x5_reduce -> inception_4c/5x5_reduce (in-place)
I0403 02:30:37.911743 19580 net.cpp:141] Setting up inception_4c/relu_5x5_reduce
I0403 02:30:37.911772 19580 net.cpp:148] Top shape: 24 24 14 14 (112896)
I0403 02:30:37.911789 19580 net.cpp:156] Memory required for data: 1048551360
I0403 02:30:37.911808 19580 layer_factory.hpp:77] Creating layer inception_4c/5x5
I0403 02:30:37.911835 19580 net.cpp:91] Creating Layer inception_4c/5x5
I0403 02:30:37.911856 19580 net.cpp:425] inception_4c/5x5 <- inception_4c/5x5_reduce
I0403 02:30:37.911881 19580 net.cpp:399] inception_4c/5x5 -> inception_4c/5x5
I0403 02:30:37.912400 19580 net.cpp:141] Setting up inception_4c/5x5
I0403 02:30:37.912441 19580 net.cpp:148] Top shape: 24 64 14 14 (301056)
I0403 02:30:37.912487 19580 net.cpp:156] Memory required for data: 1049755584
I0403 02:30:37.912544 19580 layer_factory.hpp:77] Creating layer inception_4c/relu_5x5
I0403 02:30:37.912581 19580 net.cpp:91] Creating Layer inception_4c/relu_5x5
I0403 02:30:37.912628 19580 net.cpp:425] inception_4c/relu_5x5 <- inception_4c/5x5
I0403 02:30:37.912655 19580 net.cpp:386] inception_4c/relu_5x5 -> inception_4c/5x5 (in-place)
I0403 02:30:37.912681 19580 net.cpp:141] Setting up inception_4c/relu_5x5
I0403 02:30:37.912703 19580 net.cpp:148] Top shape: 24 64 14 14 (301056)
I0403 02:30:37.912721 19580 net.cpp:156] Memory required for data: 1050959808
I0403 02:30:37.912739 19580 layer_factory.hpp:77] Creating layer inception_4c/pool
I0403 02:30:37.912766 19580 net.cpp:91] Creating Layer inception_4c/pool
I0403 02:30:37.912788 19580 net.cpp:425] inception_4c/pool <- inception_4b/output_inception_4b/output_0_split_3
I0403 02:30:37.912814 19580 net.cpp:399] inception_4c/pool -> inception_4c/pool
I0403 02:30:37.912880 19580 net.cpp:141] Setting up inception_4c/pool
I0403 02:30:37.912909 19580 net.cpp:148] Top shape: 24 512 14 14 (2408448)
I0403 02:30:37.912926 19580 net.cpp:156] Memory required for data: 1060593600
I0403 02:30:37.912943 19580 layer_factory.hpp:77] Creating layer inception_4c/pool_proj
I0403 02:30:37.912971 19580 net.cpp:91] Creating Layer inception_4c/pool_proj
I0403 02:30:37.912992 19580 net.cpp:425] inception_4c/pool_proj <- inception_4c/pool
I0403 02:30:37.913018 19580 net.cpp:399] inception_4c/pool_proj -> inception_4c/pool_proj
I0403 02:30:37.913496 19580 net.cpp:141] Setting up inception_4c/pool_proj
I0403 02:30:37.913535 19580 net.cpp:148] Top shape: 24 64 14 14 (301056)
I0403 02:30:37.913557 19580 net.cpp:156] Memory required for data: 1061797824
I0403 02:30:37.913586 19580 layer_factory.hpp:77] Creating layer inception_4c/relu_pool_proj
I0403 02:30:37.913611 19580 net.cpp:91] Creating Layer inception_4c/relu_pool_proj
I0403 02:30:37.913638 19580 net.cpp:425] inception_4c/relu_pool_proj <- inception_4c/pool_proj
I0403 02:30:37.913686 19580 net.cpp:386] inception_4c/relu_pool_proj -> inception_4c/pool_proj (in-place)
I0403 02:30:37.913730 19580 net.cpp:141] Setting up inception_4c/relu_pool_proj
I0403 02:30:37.913774 19580 net.cpp:148] Top shape: 24 64 14 14 (301056)
I0403 02:30:37.913817 19580 net.cpp:156] Memory required for data: 1063002048
I0403 02:30:37.913868 19580 layer_factory.hpp:77] Creating layer inception_4c/output
I0403 02:30:37.913915 19580 net.cpp:91] Creating Layer inception_4c/output
I0403 02:30:37.913938 19580 net.cpp:425] inception_4c/output <- inception_4c/1x1
I0403 02:30:37.913959 19580 net.cpp:425] inception_4c/output <- inception_4c/3x3
I0403 02:30:37.913980 19580 net.cpp:425] inception_4c/output <- inception_4c/5x5
I0403 02:30:37.913998 19580 net.cpp:425] inception_4c/output <- inception_4c/pool_proj
I0403 02:30:37.914019 19580 net.cpp:399] inception_4c/output -> inception_4c/output
I0403 02:30:37.914068 19580 net.cpp:141] Setting up inception_4c/output
I0403 02:30:37.914096 19580 net.cpp:148] Top shape: 24 512 14 14 (2408448)
I0403 02:30:37.914114 19580 net.cpp:156] Memory required for data: 1072635840
I0403 02:30:37.914131 19580 layer_factory.hpp:77] Creating layer inception_4c/output_inception_4c/output_0_split
I0403 02:30:37.914152 19580 net.cpp:91] Creating Layer inception_4c/output_inception_4c/output_0_split
I0403 02:30:37.914171 19580 net.cpp:425] inception_4c/output_inception_4c/output_0_split <- inception_4c/output
I0403 02:30:37.914196 19580 net.cpp:399] inception_4c/output_inception_4c/output_0_split -> inception_4c/output_inception_4c/output_0_split_0
I0403 02:30:37.914222 19580 net.cpp:399] inception_4c/output_inception_4c/output_0_split -> inception_4c/output_inception_4c/output_0_split_1
I0403 02:30:37.914247 19580 net.cpp:399] inception_4c/output_inception_4c/output_0_split -> inception_4c/output_inception_4c/output_0_split_2
I0403 02:30:37.914271 19580 net.cpp:399] inception_4c/output_inception_4c/output_0_split -> inception_4c/output_inception_4c/output_0_split_3
I0403 02:30:37.914355 19580 net.cpp:141] Setting up inception_4c/output_inception_4c/output_0_split
I0403 02:30:37.914384 19580 net.cpp:148] Top shape: 24 512 14 14 (2408448)
I0403 02:30:37.914405 19580 net.cpp:148] Top shape: 24 512 14 14 (2408448)
I0403 02:30:37.914423 19580 net.cpp:148] Top shape: 24 512 14 14 (2408448)
I0403 02:30:37.914443 19580 net.cpp:148] Top shape: 24 512 14 14 (2408448)
I0403 02:30:37.914459 19580 net.cpp:156] Memory required for data: 1111171008
I0403 02:30:37.914477 19580 layer_factory.hpp:77] Creating layer inception_4d/1x1
I0403 02:30:37.914505 19580 net.cpp:91] Creating Layer inception_4d/1x1
I0403 02:30:37.914527 19580 net.cpp:425] inception_4d/1x1 <- inception_4c/output_inception_4c/output_0_split_0
I0403 02:30:37.914551 19580 net.cpp:399] inception_4d/1x1 -> inception_4d/1x1
I0403 02:30:37.915191 19580 net.cpp:141] Setting up inception_4d/1x1
I0403 02:30:37.915222 19580 net.cpp:148] Top shape: 24 112 14 14 (526848)
I0403 02:30:37.915241 19580 net.cpp:156] Memory required for data: 1113278400
I0403 02:30:37.915262 19580 layer_factory.hpp:77] Creating layer inception_4d/relu_1x1
I0403 02:30:37.915284 19580 net.cpp:91] Creating Layer inception_4d/relu_1x1
I0403 02:30:37.915303 19580 net.cpp:425] inception_4d/relu_1x1 <- inception_4d/1x1
I0403 02:30:37.915329 19580 net.cpp:386] inception_4d/relu_1x1 -> inception_4d/1x1 (in-place)
I0403 02:30:37.915354 19580 net.cpp:141] Setting up inception_4d/relu_1x1
I0403 02:30:37.915374 19580 net.cpp:148] Top shape: 24 112 14 14 (526848)
I0403 02:30:37.915392 19580 net.cpp:156] Memory required for data: 1115385792
I0403 02:30:37.915410 19580 layer_factory.hpp:77] Creating layer inception_4d/3x3_reduce
I0403 02:30:37.915437 19580 net.cpp:91] Creating Layer inception_4d/3x3_reduce
I0403 02:30:37.915458 19580 net.cpp:425] inception_4d/3x3_reduce <- inception_4c/output_inception_4c/output_0_split_1
I0403 02:30:37.915482 19580 net.cpp:399] inception_4d/3x3_reduce -> inception_4d/3x3_reduce
I0403 02:30:37.916260 19580 net.cpp:141] Setting up inception_4d/3x3_reduce
I0403 02:30:37.916290 19580 net.cpp:148] Top shape: 24 144 14 14 (677376)
I0403 02:30:37.916307 19580 net.cpp:156] Memory required for data: 1118095296
I0403 02:30:37.916345 19580 layer_factory.hpp:77] Creating layer inception_4d/relu_3x3_reduce
I0403 02:30:37.916368 19580 net.cpp:91] Creating Layer inception_4d/relu_3x3_reduce
I0403 02:30:37.916388 19580 net.cpp:425] inception_4d/relu_3x3_reduce <- inception_4d/3x3_reduce
I0403 02:30:37.916412 19580 net.cpp:386] inception_4d/relu_3x3_reduce -> inception_4d/3x3_reduce (in-place)
I0403 02:30:37.916437 19580 net.cpp:141] Setting up inception_4d/relu_3x3_reduce
I0403 02:30:37.916458 19580 net.cpp:148] Top shape: 24 144 14 14 (677376)
I0403 02:30:37.916476 19580 net.cpp:156] Memory required for data: 1120804800
I0403 02:30:37.916493 19580 layer_factory.hpp:77] Creating layer inception_4d/3x3
I0403 02:30:37.916525 19580 net.cpp:91] Creating Layer inception_4d/3x3
I0403 02:30:37.916548 19580 net.cpp:425] inception_4d/3x3 <- inception_4d/3x3_reduce
I0403 02:30:37.916570 19580 net.cpp:399] inception_4d/3x3 -> inception_4d/3x3
I0403 02:30:37.920446 19580 net.cpp:141] Setting up inception_4d/3x3
I0403 02:30:37.920490 19580 net.cpp:148] Top shape: 24 288 14 14 (1354752)
I0403 02:30:37.920511 19580 net.cpp:156] Memory required for data: 1126223808
I0403 02:30:37.920534 19580 layer_factory.hpp:77] Creating layer inception_4d/relu_3x3
I0403 02:30:37.920557 19580 net.cpp:91] Creating Layer inception_4d/relu_3x3
I0403 02:30:37.920578 19580 net.cpp:425] inception_4d/relu_3x3 <- inception_4d/3x3
I0403 02:30:37.920598 19580 net.cpp:386] inception_4d/relu_3x3 -> inception_4d/3x3 (in-place)
I0403 02:30:37.920621 19580 net.cpp:141] Setting up inception_4d/relu_3x3
I0403 02:30:37.920642 19580 net.cpp:148] Top shape: 24 288 14 14 (1354752)
I0403 02:30:37.920660 19580 net.cpp:156] Memory required for data: 1131642816
I0403 02:30:37.920677 19580 layer_factory.hpp:77] Creating layer inception_4d/5x5_reduce
I0403 02:30:37.920706 19580 net.cpp:91] Creating Layer inception_4d/5x5_reduce
I0403 02:30:37.920727 19580 net.cpp:425] inception_4d/5x5_reduce <- inception_4c/output_inception_4c/output_0_split_2
I0403 02:30:37.920758 19580 net.cpp:399] inception_4d/5x5_reduce -> inception_4d/5x5_reduce
I0403 02:30:37.921138 19580 net.cpp:141] Setting up inception_4d/5x5_reduce
I0403 02:30:37.921183 19580 net.cpp:148] Top shape: 24 32 14 14 (150528)
I0403 02:30:37.921218 19580 net.cpp:156] Memory required for data: 1132244928
I0403 02:30:37.921249 19580 layer_factory.hpp:77] Creating layer inception_4d/relu_5x5_reduce
I0403 02:30:37.921308 19580 net.cpp:91] Creating Layer inception_4d/relu_5x5_reduce
I0403 02:30:37.921335 19580 net.cpp:425] inception_4d/relu_5x5_reduce <- inception_4d/5x5_reduce
I0403 02:30:37.921370 19580 net.cpp:386] inception_4d/relu_5x5_reduce -> inception_4d/5x5_reduce (in-place)
I0403 02:30:37.921399 19580 net.cpp:141] Setting up inception_4d/relu_5x5_reduce
I0403 02:30:37.921428 19580 net.cpp:148] Top shape: 24 32 14 14 (150528)
I0403 02:30:37.921458 19580 net.cpp:156] Memory required for data: 1132847040
I0403 02:30:37.921476 19580 layer_factory.hpp:77] Creating layer inception_4d/5x5
I0403 02:30:37.921531 19580 net.cpp:91] Creating Layer inception_4d/5x5
I0403 02:30:37.921552 19580 net.cpp:425] inception_4d/5x5 <- inception_4d/5x5_reduce
I0403 02:30:37.921597 19580 net.cpp:399] inception_4d/5x5 -> inception_4d/5x5
I0403 02:30:37.922220 19580 net.cpp:141] Setting up inception_4d/5x5
I0403 02:30:37.922282 19580 net.cpp:148] Top shape: 24 64 14 14 (301056)
I0403 02:30:37.922308 19580 net.cpp:156] Memory required for data: 1134051264
I0403 02:30:37.922351 19580 layer_factory.hpp:77] Creating layer inception_4d/relu_5x5
I0403 02:30:37.922406 19580 net.cpp:91] Creating Layer inception_4d/relu_5x5
I0403 02:30:37.922443 19580 net.cpp:425] inception_4d/relu_5x5 <- inception_4d/5x5
I0403 02:30:37.922466 19580 net.cpp:386] inception_4d/relu_5x5 -> inception_4d/5x5 (in-place)
I0403 02:30:37.922489 19580 net.cpp:141] Setting up inception_4d/relu_5x5
I0403 02:30:37.922510 19580 net.cpp:148] Top shape: 24 64 14 14 (301056)
I0403 02:30:37.922529 19580 net.cpp:156] Memory required for data: 1135255488
I0403 02:30:37.922545 19580 layer_factory.hpp:77] Creating layer inception_4d/pool
I0403 02:30:37.922585 19580 net.cpp:91] Creating Layer inception_4d/pool
I0403 02:30:37.922606 19580 net.cpp:425] inception_4d/pool <- inception_4c/output_inception_4c/output_0_split_3
I0403 02:30:37.922631 19580 net.cpp:399] inception_4d/pool -> inception_4d/pool
I0403 02:30:37.922695 19580 net.cpp:141] Setting up inception_4d/pool
I0403 02:30:37.922724 19580 net.cpp:148] Top shape: 24 512 14 14 (2408448)
I0403 02:30:37.922741 19580 net.cpp:156] Memory required for data: 1144889280
I0403 02:30:37.922765 19580 layer_factory.hpp:77] Creating layer inception_4d/pool_proj
I0403 02:30:37.922796 19580 net.cpp:91] Creating Layer inception_4d/pool_proj
I0403 02:30:37.922816 19580 net.cpp:425] inception_4d/pool_proj <- inception_4d/pool
I0403 02:30:37.922840 19580 net.cpp:399] inception_4d/pool_proj -> inception_4d/pool_proj
I0403 02:30:37.923952 19580 net.cpp:141] Setting up inception_4d/pool_proj
I0403 02:30:37.924008 19580 net.cpp:148] Top shape: 24 64 14 14 (301056)
I0403 02:30:37.924031 19580 net.cpp:156] Memory required for data: 1146093504
I0403 02:30:37.924083 19580 layer_factory.hpp:77] Creating layer inception_4d/relu_pool_proj
I0403 02:30:37.924129 19580 net.cpp:91] Creating Layer inception_4d/relu_pool_proj
I0403 02:30:37.924167 19580 net.cpp:425] inception_4d/relu_pool_proj <- inception_4d/pool_proj
I0403 02:30:37.924193 19580 net.cpp:386] inception_4d/relu_pool_proj -> inception_4d/pool_proj (in-place)
I0403 02:30:37.924219 19580 net.cpp:141] Setting up inception_4d/relu_pool_proj
I0403 02:30:37.924240 19580 net.cpp:148] Top shape: 24 64 14 14 (301056)
I0403 02:30:37.924257 19580 net.cpp:156] Memory required for data: 1147297728
I0403 02:30:37.924274 19580 layer_factory.hpp:77] Creating layer inception_4d/output
I0403 02:30:37.924295 19580 net.cpp:91] Creating Layer inception_4d/output
I0403 02:30:37.924314 19580 net.cpp:425] inception_4d/output <- inception_4d/1x1
I0403 02:30:37.924334 19580 net.cpp:425] inception_4d/output <- inception_4d/3x3
I0403 02:30:37.924352 19580 net.cpp:425] inception_4d/output <- inception_4d/5x5
I0403 02:30:37.924371 19580 net.cpp:425] inception_4d/output <- inception_4d/pool_proj
I0403 02:30:37.924392 19580 net.cpp:399] inception_4d/output -> inception_4d/output
I0403 02:30:37.924442 19580 net.cpp:141] Setting up inception_4d/output
I0403 02:30:37.924469 19580 net.cpp:148] Top shape: 24 528 14 14 (2483712)
I0403 02:30:37.924487 19580 net.cpp:156] Memory required for data: 1157232576
I0403 02:30:37.924504 19580 layer_factory.hpp:77] Creating layer inception_4d/output_inception_4d/output_0_split
I0403 02:30:37.924526 19580 net.cpp:91] Creating Layer inception_4d/output_inception_4d/output_0_split
I0403 02:30:37.924546 19580 net.cpp:425] inception_4d/output_inception_4d/output_0_split <- inception_4d/output
I0403 02:30:37.924569 19580 net.cpp:399] inception_4d/output_inception_4d/output_0_split -> inception_4d/output_inception_4d/output_0_split_0
I0403 02:30:37.924595 19580 net.cpp:399] inception_4d/output_inception_4d/output_0_split -> inception_4d/output_inception_4d/output_0_split_1
I0403 02:30:37.924619 19580 net.cpp:399] inception_4d/output_inception_4d/output_0_split -> inception_4d/output_inception_4d/output_0_split_2
I0403 02:30:37.924643 19580 net.cpp:399] inception_4d/output_inception_4d/output_0_split -> inception_4d/output_inception_4d/output_0_split_3
I0403 02:30:37.924667 19580 net.cpp:399] inception_4d/output_inception_4d/output_0_split -> inception_4d/output_inception_4d/output_0_split_4
I0403 02:30:37.924772 19580 net.cpp:141] Setting up inception_4d/output_inception_4d/output_0_split
I0403 02:30:37.924799 19580 net.cpp:148] Top shape: 24 528 14 14 (2483712)
I0403 02:30:37.924820 19580 net.cpp:148] Top shape: 24 528 14 14 (2483712)
I0403 02:30:37.924839 19580 net.cpp:148] Top shape: 24 528 14 14 (2483712)
I0403 02:30:37.924859 19580 net.cpp:148] Top shape: 24 528 14 14 (2483712)
I0403 02:30:37.924877 19580 net.cpp:148] Top shape: 24 528 14 14 (2483712)
I0403 02:30:37.924895 19580 net.cpp:156] Memory required for data: 1206906816
I0403 02:30:37.924929 19580 layer_factory.hpp:77] Creating layer loss2/ave_pool
I0403 02:30:37.924952 19580 net.cpp:91] Creating Layer loss2/ave_pool
I0403 02:30:37.924971 19580 net.cpp:425] loss2/ave_pool <- inception_4d/output_inception_4d/output_0_split_0
I0403 02:30:37.924998 19580 net.cpp:399] loss2/ave_pool -> loss2/ave_pool
I0403 02:30:37.925043 19580 net.cpp:141] Setting up loss2/ave_pool
I0403 02:30:37.925073 19580 net.cpp:148] Top shape: 24 528 4 4 (202752)
I0403 02:30:37.925092 19580 net.cpp:156] Memory required for data: 1207717824
I0403 02:30:37.925110 19580 layer_factory.hpp:77] Creating layer loss2/conv
I0403 02:30:37.925139 19580 net.cpp:91] Creating Layer loss2/conv
I0403 02:30:37.925161 19580 net.cpp:425] loss2/conv <- loss2/ave_pool
I0403 02:30:37.925184 19580 net.cpp:399] loss2/conv -> loss2/conv
I0403 02:30:37.926523 19580 net.cpp:141] Setting up loss2/conv
I0403 02:30:37.926558 19580 net.cpp:148] Top shape: 24 128 4 4 (49152)
I0403 02:30:37.926578 19580 net.cpp:156] Memory required for data: 1207914432
I0403 02:30:37.926599 19580 layer_factory.hpp:77] Creating layer loss2/relu_conv
I0403 02:30:37.926622 19580 net.cpp:91] Creating Layer loss2/relu_conv
I0403 02:30:37.926642 19580 net.cpp:425] loss2/relu_conv <- loss2/conv
I0403 02:30:37.926663 19580 net.cpp:386] loss2/relu_conv -> loss2/conv (in-place)
I0403 02:30:37.926687 19580 net.cpp:141] Setting up loss2/relu_conv
I0403 02:30:37.926708 19580 net.cpp:148] Top shape: 24 128 4 4 (49152)
I0403 02:30:37.926726 19580 net.cpp:156] Memory required for data: 1208111040
I0403 02:30:37.926743 19580 layer_factory.hpp:77] Creating layer loss2/fc
I0403 02:30:37.926776 19580 net.cpp:91] Creating Layer loss2/fc
I0403 02:30:37.926797 19580 net.cpp:425] loss2/fc <- loss2/conv
I0403 02:30:37.926820 19580 net.cpp:399] loss2/fc -> loss2/fc
I0403 02:30:37.946895 19580 net.cpp:141] Setting up loss2/fc
I0403 02:30:37.946944 19580 net.cpp:148] Top shape: 24 1024 (24576)
I0403 02:30:37.946965 19580 net.cpp:156] Memory required for data: 1208209344
I0403 02:30:37.946991 19580 layer_factory.hpp:77] Creating layer loss2/relu_fc
I0403 02:30:37.947017 19580 net.cpp:91] Creating Layer loss2/relu_fc
I0403 02:30:37.947037 19580 net.cpp:425] loss2/relu_fc <- loss2/fc
I0403 02:30:37.947062 19580 net.cpp:386] loss2/relu_fc -> loss2/fc (in-place)
I0403 02:30:37.947089 19580 net.cpp:141] Setting up loss2/relu_fc
I0403 02:30:37.947111 19580 net.cpp:148] Top shape: 24 1024 (24576)
I0403 02:30:37.947130 19580 net.cpp:156] Memory required for data: 1208307648
I0403 02:30:37.947149 19580 layer_factory.hpp:77] Creating layer loss2/drop_fc
I0403 02:30:37.947171 19580 net.cpp:91] Creating Layer loss2/drop_fc
I0403 02:30:37.947192 19580 net.cpp:425] loss2/drop_fc <- loss2/fc
I0403 02:30:37.947213 19580 net.cpp:386] loss2/drop_fc -> loss2/fc (in-place)
I0403 02:30:37.947264 19580 net.cpp:141] Setting up loss2/drop_fc
I0403 02:30:37.947294 19580 net.cpp:148] Top shape: 24 1024 (24576)
I0403 02:30:37.947314 19580 net.cpp:156] Memory required for data: 1208405952
I0403 02:30:37.947332 19580 layer_factory.hpp:77] Creating layer loss2/classifier_plantvillage
I0403 02:30:37.947361 19580 net.cpp:91] Creating Layer loss2/classifier_plantvillage
I0403 02:30:37.947383 19580 net.cpp:425] loss2/classifier_plantvillage <- loss2/fc
I0403 02:30:37.947407 19580 net.cpp:399] loss2/classifier_plantvillage -> loss2/classifier_plantvillage
I0403 02:30:37.947810 19580 net.cpp:141] Setting up loss2/classifier_plantvillage
I0403 02:30:37.947866 19580 net.cpp:148] Top shape: 24 38 (912)
I0403 02:30:37.947912 19580 net.cpp:156] Memory required for data: 1208409600
I0403 02:30:37.947958 19580 layer_factory.hpp:77] Creating layer inception_4e/1x1
I0403 02:30:37.948009 19580 net.cpp:91] Creating Layer inception_4e/1x1
I0403 02:30:37.948035 19580 net.cpp:425] inception_4e/1x1 <- inception_4d/output_inception_4d/output_0_split_1
I0403 02:30:37.948074 19580 net.cpp:399] inception_4e/1x1 -> inception_4e/1x1
I0403 02:30:37.949260 19580 net.cpp:141] Setting up inception_4e/1x1
I0403 02:30:37.949293 19580 net.cpp:148] Top shape: 24 256 14 14 (1204224)
I0403 02:30:37.949332 19580 net.cpp:156] Memory required for data: 1213226496
I0403 02:30:37.949357 19580 layer_factory.hpp:77] Creating layer inception_4e/relu_1x1
I0403 02:30:37.949379 19580 net.cpp:91] Creating Layer inception_4e/relu_1x1
I0403 02:30:37.949398 19580 net.cpp:425] inception_4e/relu_1x1 <- inception_4e/1x1
I0403 02:30:37.949424 19580 net.cpp:386] inception_4e/relu_1x1 -> inception_4e/1x1 (in-place)
I0403 02:30:37.949450 19580 net.cpp:141] Setting up inception_4e/relu_1x1
I0403 02:30:37.949471 19580 net.cpp:148] Top shape: 24 256 14 14 (1204224)
I0403 02:30:37.949491 19580 net.cpp:156] Memory required for data: 1218043392
I0403 02:30:37.949511 19580 layer_factory.hpp:77] Creating layer inception_4e/3x3_reduce
I0403 02:30:37.949539 19580 net.cpp:91] Creating Layer inception_4e/3x3_reduce
I0403 02:30:37.949563 19580 net.cpp:425] inception_4e/3x3_reduce <- inception_4d/output_inception_4d/output_0_split_2
I0403 02:30:37.949587 19580 net.cpp:399] inception_4e/3x3_reduce -> inception_4e/3x3_reduce
I0403 02:30:37.951056 19580 net.cpp:141] Setting up inception_4e/3x3_reduce
I0403 02:30:37.951093 19580 net.cpp:148] Top shape: 24 160 14 14 (752640)
I0403 02:30:37.951115 19580 net.cpp:156] Memory required for data: 1221053952
I0403 02:30:37.951140 19580 layer_factory.hpp:77] Creating layer inception_4e/relu_3x3_reduce
I0403 02:30:37.951165 19580 net.cpp:91] Creating Layer inception_4e/relu_3x3_reduce
I0403 02:30:37.951187 19580 net.cpp:425] inception_4e/relu_3x3_reduce <- inception_4e/3x3_reduce
I0403 02:30:37.951210 19580 net.cpp:386] inception_4e/relu_3x3_reduce -> inception_4e/3x3_reduce (in-place)
I0403 02:30:37.951236 19580 net.cpp:141] Setting up inception_4e/relu_3x3_reduce
I0403 02:30:37.951258 19580 net.cpp:148] Top shape: 24 160 14 14 (752640)
I0403 02:30:37.951278 19580 net.cpp:156] Memory required for data: 1224064512
I0403 02:30:37.951297 19580 layer_factory.hpp:77] Creating layer inception_4e/3x3
I0403 02:30:37.951326 19580 net.cpp:91] Creating Layer inception_4e/3x3
I0403 02:30:37.951349 19580 net.cpp:425] inception_4e/3x3 <- inception_4e/3x3_reduce
I0403 02:30:37.951377 19580 net.cpp:399] inception_4e/3x3 -> inception_4e/3x3
I0403 02:30:37.956055 19580 net.cpp:141] Setting up inception_4e/3x3
I0403 02:30:37.956226 19580 net.cpp:148] Top shape: 24 320 14 14 (1505280)
I0403 02:30:37.956261 19580 net.cpp:156] Memory required for data: 1230085632
I0403 02:30:37.956284 19580 layer_factory.hpp:77] Creating layer inception_4e/relu_3x3
I0403 02:30:37.956313 19580 net.cpp:91] Creating Layer inception_4e/relu_3x3
I0403 02:30:37.956343 19580 net.cpp:425] inception_4e/relu_3x3 <- inception_4e/3x3
I0403 02:30:37.956368 19580 net.cpp:386] inception_4e/relu_3x3 -> inception_4e/3x3 (in-place)
I0403 02:30:37.956404 19580 net.cpp:141] Setting up inception_4e/relu_3x3
I0403 02:30:37.956430 19580 net.cpp:148] Top shape: 24 320 14 14 (1505280)
I0403 02:30:37.956450 19580 net.cpp:156] Memory required for data: 1236106752
I0403 02:30:37.956513 19580 layer_factory.hpp:77] Creating layer inception_4e/5x5_reduce
I0403 02:30:37.956580 19580 net.cpp:91] Creating Layer inception_4e/5x5_reduce
I0403 02:30:37.956614 19580 net.cpp:425] inception_4e/5x5_reduce <- inception_4d/output_inception_4d/output_0_split_3
I0403 02:30:37.956640 19580 net.cpp:399] inception_4e/5x5_reduce -> inception_4e/5x5_reduce
I0403 02:30:37.957049 19580 net.cpp:141] Setting up inception_4e/5x5_reduce
I0403 02:30:37.957082 19580 net.cpp:148] Top shape: 24 32 14 14 (150528)
I0403 02:30:37.957103 19580 net.cpp:156] Memory required for data: 1236708864
I0403 02:30:37.957126 19580 layer_factory.hpp:77] Creating layer inception_4e/relu_5x5_reduce
I0403 02:30:37.957152 19580 net.cpp:91] Creating Layer inception_4e/relu_5x5_reduce
I0403 02:30:37.957173 19580 net.cpp:425] inception_4e/relu_5x5_reduce <- inception_4e/5x5_reduce
I0403 02:30:37.957201 19580 net.cpp:386] inception_4e/relu_5x5_reduce -> inception_4e/5x5_reduce (in-place)
I0403 02:30:37.957227 19580 net.cpp:141] Setting up inception_4e/relu_5x5_reduce
I0403 02:30:37.957252 19580 net.cpp:148] Top shape: 24 32 14 14 (150528)
I0403 02:30:37.957290 19580 net.cpp:156] Memory required for data: 1237310976
I0403 02:30:37.957311 19580 layer_factory.hpp:77] Creating layer inception_4e/5x5
I0403 02:30:37.957342 19580 net.cpp:91] Creating Layer inception_4e/5x5
I0403 02:30:37.957366 19580 net.cpp:425] inception_4e/5x5 <- inception_4e/5x5_reduce
I0403 02:30:37.957392 19580 net.cpp:399] inception_4e/5x5 -> inception_4e/5x5
I0403 02:30:37.958349 19580 net.cpp:141] Setting up inception_4e/5x5
I0403 02:30:37.958387 19580 net.cpp:148] Top shape: 24 128 14 14 (602112)
I0403 02:30:37.958425 19580 net.cpp:156] Memory required for data: 1239719424
I0403 02:30:37.958469 19580 layer_factory.hpp:77] Creating layer inception_4e/relu_5x5
I0403 02:30:37.958520 19580 net.cpp:91] Creating Layer inception_4e/relu_5x5
I0403 02:30:37.958554 19580 net.cpp:425] inception_4e/relu_5x5 <- inception_4e/5x5
I0403 02:30:37.958590 19580 net.cpp:386] inception_4e/relu_5x5 -> inception_4e/5x5 (in-place)
I0403 02:30:37.958629 19580 net.cpp:141] Setting up inception_4e/relu_5x5
I0403 02:30:37.958653 19580 net.cpp:148] Top shape: 24 128 14 14 (602112)
I0403 02:30:37.958704 19580 net.cpp:156] Memory required for data: 1242127872
I0403 02:30:37.958724 19580 layer_factory.hpp:77] Creating layer inception_4e/pool
I0403 02:30:37.958771 19580 net.cpp:91] Creating Layer inception_4e/pool
I0403 02:30:37.958798 19580 net.cpp:425] inception_4e/pool <- inception_4d/output_inception_4d/output_0_split_4
I0403 02:30:37.958822 19580 net.cpp:399] inception_4e/pool -> inception_4e/pool
I0403 02:30:37.958889 19580 net.cpp:141] Setting up inception_4e/pool
I0403 02:30:37.958921 19580 net.cpp:148] Top shape: 24 528 14 14 (2483712)
I0403 02:30:37.958942 19580 net.cpp:156] Memory required for data: 1252062720
I0403 02:30:37.958962 19580 layer_factory.hpp:77] Creating layer inception_4e/pool_proj
I0403 02:30:37.958992 19580 net.cpp:91] Creating Layer inception_4e/pool_proj
I0403 02:30:37.959015 19580 net.cpp:425] inception_4e/pool_proj <- inception_4e/pool
I0403 02:30:37.959040 19580 net.cpp:399] inception_4e/pool_proj -> inception_4e/pool_proj
I0403 02:30:37.959769 19580 net.cpp:141] Setting up inception_4e/pool_proj
I0403 02:30:37.959803 19580 net.cpp:148] Top shape: 24 128 14 14 (602112)
I0403 02:30:37.959823 19580 net.cpp:156] Memory required for data: 1254471168
I0403 02:30:37.959846 19580 layer_factory.hpp:77] Creating layer inception_4e/relu_pool_proj
I0403 02:30:37.959870 19580 net.cpp:91] Creating Layer inception_4e/relu_pool_proj
I0403 02:30:37.959892 19580 net.cpp:425] inception_4e/relu_pool_proj <- inception_4e/pool_proj
I0403 02:30:37.959915 19580 net.cpp:386] inception_4e/relu_pool_proj -> inception_4e/pool_proj (in-place)
I0403 02:30:37.959940 19580 net.cpp:141] Setting up inception_4e/relu_pool_proj
I0403 02:30:37.959964 19580 net.cpp:148] Top shape: 24 128 14 14 (602112)
I0403 02:30:37.959981 19580 net.cpp:156] Memory required for data: 1256879616
I0403 02:30:37.960000 19580 layer_factory.hpp:77] Creating layer inception_4e/output
I0403 02:30:37.960024 19580 net.cpp:91] Creating Layer inception_4e/output
I0403 02:30:37.960046 19580 net.cpp:425] inception_4e/output <- inception_4e/1x1
I0403 02:30:37.960067 19580 net.cpp:425] inception_4e/output <- inception_4e/3x3
I0403 02:30:37.960089 19580 net.cpp:425] inception_4e/output <- inception_4e/5x5
I0403 02:30:37.960111 19580 net.cpp:425] inception_4e/output <- inception_4e/pool_proj
I0403 02:30:37.960134 19580 net.cpp:399] inception_4e/output -> inception_4e/output
I0403 02:30:37.960186 19580 net.cpp:141] Setting up inception_4e/output
I0403 02:30:37.960216 19580 net.cpp:148] Top shape: 24 832 14 14 (3913728)
I0403 02:30:37.960235 19580 net.cpp:156] Memory required for data: 1272534528
I0403 02:30:37.960253 19580 layer_factory.hpp:77] Creating layer pool4/3x3_s2
I0403 02:30:37.960275 19580 net.cpp:91] Creating Layer pool4/3x3_s2
I0403 02:30:37.960295 19580 net.cpp:425] pool4/3x3_s2 <- inception_4e/output
I0403 02:30:37.960320 19580 net.cpp:399] pool4/3x3_s2 -> pool4/3x3_s2
I0403 02:30:37.960382 19580 net.cpp:141] Setting up pool4/3x3_s2
I0403 02:30:37.960424 19580 net.cpp:148] Top shape: 24 832 7 7 (978432)
I0403 02:30:37.960443 19580 net.cpp:156] Memory required for data: 1276448256
I0403 02:30:37.960463 19580 layer_factory.hpp:77] Creating layer pool4/3x3_s2_pool4/3x3_s2_0_split
I0403 02:30:37.960487 19580 net.cpp:91] Creating Layer pool4/3x3_s2_pool4/3x3_s2_0_split
I0403 02:30:37.960507 19580 net.cpp:425] pool4/3x3_s2_pool4/3x3_s2_0_split <- pool4/3x3_s2
I0403 02:30:37.960528 19580 net.cpp:399] pool4/3x3_s2_pool4/3x3_s2_0_split -> pool4/3x3_s2_pool4/3x3_s2_0_split_0
I0403 02:30:37.960554 19580 net.cpp:399] pool4/3x3_s2_pool4/3x3_s2_0_split -> pool4/3x3_s2_pool4/3x3_s2_0_split_1
I0403 02:30:37.960587 19580 net.cpp:399] pool4/3x3_s2_pool4/3x3_s2_0_split -> pool4/3x3_s2_pool4/3x3_s2_0_split_2
I0403 02:30:37.960614 19580 net.cpp:399] pool4/3x3_s2_pool4/3x3_s2_0_split -> pool4/3x3_s2_pool4/3x3_s2_0_split_3
I0403 02:30:37.960700 19580 net.cpp:141] Setting up pool4/3x3_s2_pool4/3x3_s2_0_split
I0403 02:30:37.960731 19580 net.cpp:148] Top shape: 24 832 7 7 (978432)
I0403 02:30:37.960759 19580 net.cpp:148] Top shape: 24 832 7 7 (978432)
I0403 02:30:37.960783 19580 net.cpp:148] Top shape: 24 832 7 7 (978432)
I0403 02:30:37.960803 19580 net.cpp:148] Top shape: 24 832 7 7 (978432)
I0403 02:30:37.960822 19580 net.cpp:156] Memory required for data: 1292103168
I0403 02:30:37.960842 19580 layer_factory.hpp:77] Creating layer inception_5a/1x1
I0403 02:30:37.960871 19580 net.cpp:91] Creating Layer inception_5a/1x1
I0403 02:30:37.960896 19580 net.cpp:425] inception_5a/1x1 <- pool4/3x3_s2_pool4/3x3_s2_0_split_0
I0403 02:30:37.960927 19580 net.cpp:399] inception_5a/1x1 -> inception_5a/1x1
I0403 02:30:37.963243 19580 net.cpp:141] Setting up inception_5a/1x1
I0403 02:30:37.963277 19580 net.cpp:148] Top shape: 24 256 7 7 (301056)
I0403 02:30:37.963315 19580 net.cpp:156] Memory required for data: 1293307392
I0403 02:30:37.963338 19580 layer_factory.hpp:77] Creating layer inception_5a/relu_1x1
I0403 02:30:37.963376 19580 net.cpp:91] Creating Layer inception_5a/relu_1x1
I0403 02:30:37.963410 19580 net.cpp:425] inception_5a/relu_1x1 <- inception_5a/1x1
I0403 02:30:37.963438 19580 net.cpp:386] inception_5a/relu_1x1 -> inception_5a/1x1 (in-place)
I0403 02:30:37.963480 19580 net.cpp:141] Setting up inception_5a/relu_1x1
I0403 02:30:37.963523 19580 net.cpp:148] Top shape: 24 256 7 7 (301056)
I0403 02:30:37.963557 19580 net.cpp:156] Memory required for data: 1294511616
I0403 02:30:37.963587 19580 layer_factory.hpp:77] Creating layer inception_5a/3x3_reduce
I0403 02:30:37.963635 19580 net.cpp:91] Creating Layer inception_5a/3x3_reduce
I0403 02:30:37.963662 19580 net.cpp:425] inception_5a/3x3_reduce <- pool4/3x3_s2_pool4/3x3_s2_0_split_1
I0403 02:30:37.963713 19580 net.cpp:399] inception_5a/3x3_reduce -> inception_5a/3x3_reduce
I0403 02:30:37.965533 19580 net.cpp:141] Setting up inception_5a/3x3_reduce
I0403 02:30:37.965569 19580 net.cpp:148] Top shape: 24 160 7 7 (188160)
I0403 02:30:37.965587 19580 net.cpp:156] Memory required for data: 1295264256
I0403 02:30:37.965610 19580 layer_factory.hpp:77] Creating layer inception_5a/relu_3x3_reduce
I0403 02:30:37.965633 19580 net.cpp:91] Creating Layer inception_5a/relu_3x3_reduce
I0403 02:30:37.965654 19580 net.cpp:425] inception_5a/relu_3x3_reduce <- inception_5a/3x3_reduce
I0403 02:30:37.965678 19580 net.cpp:386] inception_5a/relu_3x3_reduce -> inception_5a/3x3_reduce (in-place)
I0403 02:30:37.965705 19580 net.cpp:141] Setting up inception_5a/relu_3x3_reduce
I0403 02:30:37.965728 19580 net.cpp:148] Top shape: 24 160 7 7 (188160)
I0403 02:30:37.965750 19580 net.cpp:156] Memory required for data: 1296016896
I0403 02:30:37.965771 19580 layer_factory.hpp:77] Creating layer inception_5a/3x3
I0403 02:30:37.965802 19580 net.cpp:91] Creating Layer inception_5a/3x3
I0403 02:30:37.965826 19580 net.cpp:425] inception_5a/3x3 <- inception_5a/3x3_reduce
I0403 02:30:37.965852 19580 net.cpp:399] inception_5a/3x3 -> inception_5a/3x3
I0403 02:30:37.970571 19580 net.cpp:141] Setting up inception_5a/3x3
I0403 02:30:37.970623 19580 net.cpp:148] Top shape: 24 320 7 7 (376320)
I0403 02:30:37.970643 19580 net.cpp:156] Memory required for data: 1297522176
I0403 02:30:37.970665 19580 layer_factory.hpp:77] Creating layer inception_5a/relu_3x3
I0403 02:30:37.970690 19580 net.cpp:91] Creating Layer inception_5a/relu_3x3
I0403 02:30:37.970710 19580 net.cpp:425] inception_5a/relu_3x3 <- inception_5a/3x3
I0403 02:30:37.970757 19580 net.cpp:386] inception_5a/relu_3x3 -> inception_5a/3x3 (in-place)
I0403 02:30:37.970811 19580 net.cpp:141] Setting up inception_5a/relu_3x3
I0403 02:30:37.970865 19580 net.cpp:148] Top shape: 24 320 7 7 (376320)
I0403 02:30:37.970906 19580 net.cpp:156] Memory required for data: 1299027456
I0403 02:30:37.970950 19580 layer_factory.hpp:77] Creating layer inception_5a/5x5_reduce
I0403 02:30:37.970989 19580 net.cpp:91] Creating Layer inception_5a/5x5_reduce
I0403 02:30:37.971035 19580 net.cpp:425] inception_5a/5x5_reduce <- pool4/3x3_s2_pool4/3x3_s2_0_split_2
I0403 02:30:37.971081 19580 net.cpp:399] inception_5a/5x5_reduce -> inception_5a/5x5_reduce
I0403 02:30:37.971571 19580 net.cpp:141] Setting up inception_5a/5x5_reduce
I0403 02:30:37.971606 19580 net.cpp:148] Top shape: 24 32 7 7 (37632)
I0403 02:30:37.971626 19580 net.cpp:156] Memory required for data: 1299177984
I0403 02:30:37.971647 19580 layer_factory.hpp:77] Creating layer inception_5a/relu_5x5_reduce
I0403 02:30:37.971670 19580 net.cpp:91] Creating Layer inception_5a/relu_5x5_reduce
I0403 02:30:37.971691 19580 net.cpp:425] inception_5a/relu_5x5_reduce <- inception_5a/5x5_reduce
I0403 02:30:37.971716 19580 net.cpp:386] inception_5a/relu_5x5_reduce -> inception_5a/5x5_reduce (in-place)
I0403 02:30:37.971742 19580 net.cpp:141] Setting up inception_5a/relu_5x5_reduce
I0403 02:30:37.971772 19580 net.cpp:148] Top shape: 24 32 7 7 (37632)
I0403 02:30:37.971792 19580 net.cpp:156] Memory required for data: 1299328512
I0403 02:30:37.971810 19580 layer_factory.hpp:77] Creating layer inception_5a/5x5
I0403 02:30:37.971840 19580 net.cpp:91] Creating Layer inception_5a/5x5
I0403 02:30:37.971863 19580 net.cpp:425] inception_5a/5x5 <- inception_5a/5x5_reduce
I0403 02:30:37.971887 19580 net.cpp:399] inception_5a/5x5 -> inception_5a/5x5
I0403 02:30:37.972848 19580 net.cpp:141] Setting up inception_5a/5x5
I0403 02:30:37.972882 19580 net.cpp:148] Top shape: 24 128 7 7 (150528)
I0403 02:30:37.972900 19580 net.cpp:156] Memory required for data: 1299930624
I0403 02:30:37.972923 19580 layer_factory.hpp:77] Creating layer inception_5a/relu_5x5
I0403 02:30:37.972949 19580 net.cpp:91] Creating Layer inception_5a/relu_5x5
I0403 02:30:37.972970 19580 net.cpp:425] inception_5a/relu_5x5 <- inception_5a/5x5
I0403 02:30:37.972992 19580 net.cpp:386] inception_5a/relu_5x5 -> inception_5a/5x5 (in-place)
I0403 02:30:37.973016 19580 net.cpp:141] Setting up inception_5a/relu_5x5
I0403 02:30:37.973057 19580 net.cpp:148] Top shape: 24 128 7 7 (150528)
I0403 02:30:37.973101 19580 net.cpp:156] Memory required for data: 1300532736
I0403 02:30:37.973121 19580 layer_factory.hpp:77] Creating layer inception_5a/pool
I0403 02:30:37.973176 19580 net.cpp:91] Creating Layer inception_5a/pool
I0403 02:30:37.973229 19580 net.cpp:425] inception_5a/pool <- pool4/3x3_s2_pool4/3x3_s2_0_split_3
I0403 02:30:37.973265 19580 net.cpp:399] inception_5a/pool -> inception_5a/pool
I0403 02:30:37.973361 19580 net.cpp:141] Setting up inception_5a/pool
I0403 02:30:37.973413 19580 net.cpp:148] Top shape: 24 832 7 7 (978432)
I0403 02:30:37.973450 19580 net.cpp:156] Memory required for data: 1304446464
I0403 02:30:37.973492 19580 layer_factory.hpp:77] Creating layer inception_5a/pool_proj
I0403 02:30:37.973544 19580 net.cpp:91] Creating Layer inception_5a/pool_proj
I0403 02:30:37.973577 19580 net.cpp:425] inception_5a/pool_proj <- inception_5a/pool
I0403 02:30:37.973609 19580 net.cpp:399] inception_5a/pool_proj -> inception_5a/pool_proj
I0403 02:30:37.975237 19580 net.cpp:141] Setting up inception_5a/pool_proj
I0403 02:30:37.975275 19580 net.cpp:148] Top shape: 24 128 7 7 (150528)
I0403 02:30:37.975296 19580 net.cpp:156] Memory required for data: 1305048576
I0403 02:30:37.975338 19580 layer_factory.hpp:77] Creating layer inception_5a/relu_pool_proj
I0403 02:30:37.975363 19580 net.cpp:91] Creating Layer inception_5a/relu_pool_proj
I0403 02:30:37.975383 19580 net.cpp:425] inception_5a/relu_pool_proj <- inception_5a/pool_proj
I0403 02:30:37.975407 19580 net.cpp:386] inception_5a/relu_pool_proj -> inception_5a/pool_proj (in-place)
I0403 02:30:37.975433 19580 net.cpp:141] Setting up inception_5a/relu_pool_proj
I0403 02:30:37.975458 19580 net.cpp:148] Top shape: 24 128 7 7 (150528)
I0403 02:30:37.975478 19580 net.cpp:156] Memory required for data: 1305650688
I0403 02:30:37.975498 19580 layer_factory.hpp:77] Creating layer inception_5a/output
I0403 02:30:37.975522 19580 net.cpp:91] Creating Layer inception_5a/output
I0403 02:30:37.975543 19580 net.cpp:425] inception_5a/output <- inception_5a/1x1
I0403 02:30:37.975563 19580 net.cpp:425] inception_5a/output <- inception_5a/3x3
I0403 02:30:37.975584 19580 net.cpp:425] inception_5a/output <- inception_5a/5x5
I0403 02:30:37.975603 19580 net.cpp:425] inception_5a/output <- inception_5a/pool_proj
I0403 02:30:37.975626 19580 net.cpp:399] inception_5a/output -> inception_5a/output
I0403 02:30:37.975680 19580 net.cpp:141] Setting up inception_5a/output
I0403 02:30:37.975710 19580 net.cpp:148] Top shape: 24 832 7 7 (978432)
I0403 02:30:37.975729 19580 net.cpp:156] Memory required for data: 1309564416
I0403 02:30:37.975754 19580 layer_factory.hpp:77] Creating layer inception_5a/output_inception_5a/output_0_split
I0403 02:30:37.975780 19580 net.cpp:91] Creating Layer inception_5a/output_inception_5a/output_0_split
I0403 02:30:37.975800 19580 net.cpp:425] inception_5a/output_inception_5a/output_0_split <- inception_5a/output
I0403 02:30:37.975826 19580 net.cpp:399] inception_5a/output_inception_5a/output_0_split -> inception_5a/output_inception_5a/output_0_split_0
I0403 02:30:37.975852 19580 net.cpp:399] inception_5a/output_inception_5a/output_0_split -> inception_5a/output_inception_5a/output_0_split_1
I0403 02:30:37.975878 19580 net.cpp:399] inception_5a/output_inception_5a/output_0_split -> inception_5a/output_inception_5a/output_0_split_2
I0403 02:30:37.975903 19580 net.cpp:399] inception_5a/output_inception_5a/output_0_split -> inception_5a/output_inception_5a/output_0_split_3
I0403 02:30:37.975994 19580 net.cpp:141] Setting up inception_5a/output_inception_5a/output_0_split
I0403 02:30:37.976024 19580 net.cpp:148] Top shape: 24 832 7 7 (978432)
I0403 02:30:37.976047 19580 net.cpp:148] Top shape: 24 832 7 7 (978432)
I0403 02:30:37.976085 19580 net.cpp:148] Top shape: 24 832 7 7 (978432)
I0403 02:30:37.976109 19580 net.cpp:148] Top shape: 24 832 7 7 (978432)
I0403 02:30:37.976127 19580 net.cpp:156] Memory required for data: 1325219328
I0403 02:30:37.976145 19580 layer_factory.hpp:77] Creating layer inception_5b/1x1
I0403 02:30:37.976174 19580 net.cpp:91] Creating Layer inception_5b/1x1
I0403 02:30:37.976197 19580 net.cpp:425] inception_5b/1x1 <- inception_5a/output_inception_5a/output_0_split_0
I0403 02:30:37.976222 19580 net.cpp:399] inception_5b/1x1 -> inception_5b/1x1
I0403 02:30:37.979354 19580 net.cpp:141] Setting up inception_5b/1x1
I0403 02:30:37.979393 19580 net.cpp:148] Top shape: 24 384 7 7 (451584)
I0403 02:30:37.979411 19580 net.cpp:156] Memory required for data: 1327025664
I0403 02:30:37.979434 19580 layer_factory.hpp:77] Creating layer inception_5b/relu_1x1
I0403 02:30:37.979457 19580 net.cpp:91] Creating Layer inception_5b/relu_1x1
I0403 02:30:37.979478 19580 net.cpp:425] inception_5b/relu_1x1 <- inception_5b/1x1
I0403 02:30:37.979503 19580 net.cpp:386] inception_5b/relu_1x1 -> inception_5b/1x1 (in-place)
I0403 02:30:37.979531 19580 net.cpp:141] Setting up inception_5b/relu_1x1
I0403 02:30:37.979554 19580 net.cpp:148] Top shape: 24 384 7 7 (451584)
I0403 02:30:37.979573 19580 net.cpp:156] Memory required for data: 1328832000
I0403 02:30:37.979593 19580 layer_factory.hpp:77] Creating layer inception_5b/3x3_reduce
I0403 02:30:37.979624 19580 net.cpp:91] Creating Layer inception_5b/3x3_reduce
I0403 02:30:37.979665 19580 net.cpp:425] inception_5b/3x3_reduce <- inception_5a/output_inception_5a/output_0_split_1
I0403 02:30:37.979693 19580 net.cpp:399] inception_5b/3x3_reduce -> inception_5b/3x3_reduce
I0403 02:30:37.981703 19580 net.cpp:141] Setting up inception_5b/3x3_reduce
I0403 02:30:37.981737 19580 net.cpp:148] Top shape: 24 192 7 7 (225792)
I0403 02:30:37.981762 19580 net.cpp:156] Memory required for data: 1329735168
I0403 02:30:37.981786 19580 layer_factory.hpp:77] Creating layer inception_5b/relu_3x3_reduce
I0403 02:30:37.981809 19580 net.cpp:91] Creating Layer inception_5b/relu_3x3_reduce
I0403 02:30:37.981829 19580 net.cpp:425] inception_5b/relu_3x3_reduce <- inception_5b/3x3_reduce
I0403 02:30:37.981853 19580 net.cpp:386] inception_5b/relu_3x3_reduce -> inception_5b/3x3_reduce (in-place)
I0403 02:30:37.981879 19580 net.cpp:141] Setting up inception_5b/relu_3x3_reduce
I0403 02:30:37.981900 19580 net.cpp:148] Top shape: 24 192 7 7 (225792)
I0403 02:30:37.981917 19580 net.cpp:156] Memory required for data: 1330638336
I0403 02:30:37.981935 19580 layer_factory.hpp:77] Creating layer inception_5b/3x3
I0403 02:30:37.981964 19580 net.cpp:91] Creating Layer inception_5b/3x3
I0403 02:30:37.981986 19580 net.cpp:425] inception_5b/3x3 <- inception_5b/3x3_reduce
I0403 02:30:37.982010 19580 net.cpp:399] inception_5b/3x3 -> inception_5b/3x3
I0403 02:30:37.988587 19580 net.cpp:141] Setting up inception_5b/3x3
I0403 02:30:37.988623 19580 net.cpp:148] Top shape: 24 384 7 7 (451584)
I0403 02:30:37.988643 19580 net.cpp:156] Memory required for data: 1332444672
I0403 02:30:37.988667 19580 layer_factory.hpp:77] Creating layer inception_5b/relu_3x3
I0403 02:30:37.988690 19580 net.cpp:91] Creating Layer inception_5b/relu_3x3
I0403 02:30:37.988711 19580 net.cpp:425] inception_5b/relu_3x3 <- inception_5b/3x3
I0403 02:30:37.988734 19580 net.cpp:386] inception_5b/relu_3x3 -> inception_5b/3x3 (in-place)
I0403 02:30:37.988765 19580 net.cpp:141] Setting up inception_5b/relu_3x3
I0403 02:30:37.988791 19580 net.cpp:148] Top shape: 24 384 7 7 (451584)
I0403 02:30:37.988811 19580 net.cpp:156] Memory required for data: 1334251008
I0403 02:30:37.988828 19580 layer_factory.hpp:77] Creating layer inception_5b/5x5_reduce
I0403 02:30:37.988857 19580 net.cpp:91] Creating Layer inception_5b/5x5_reduce
I0403 02:30:37.988881 19580 net.cpp:425] inception_5b/5x5_reduce <- inception_5a/output_inception_5a/output_0_split_2
I0403 02:30:37.988908 19580 net.cpp:399] inception_5b/5x5_reduce -> inception_5b/5x5_reduce
I0403 02:30:37.989470 19580 net.cpp:141] Setting up inception_5b/5x5_reduce
I0403 02:30:37.989532 19580 net.cpp:148] Top shape: 24 48 7 7 (56448)
I0403 02:30:37.989558 19580 net.cpp:156] Memory required for data: 1334476800
I0403 02:30:37.989588 19580 layer_factory.hpp:77] Creating layer inception_5b/relu_5x5_reduce
I0403 02:30:37.989614 19580 net.cpp:91] Creating Layer inception_5b/relu_5x5_reduce
I0403 02:30:37.989636 19580 net.cpp:425] inception_5b/relu_5x5_reduce <- inception_5b/5x5_reduce
I0403 02:30:37.989660 19580 net.cpp:386] inception_5b/relu_5x5_reduce -> inception_5b/5x5_reduce (in-place)
I0403 02:30:37.989683 19580 net.cpp:141] Setting up inception_5b/relu_5x5_reduce
I0403 02:30:37.989709 19580 net.cpp:148] Top shape: 24 48 7 7 (56448)
I0403 02:30:37.989728 19580 net.cpp:156] Memory required for data: 1334702592
I0403 02:30:37.989759 19580 layer_factory.hpp:77] Creating layer inception_5b/5x5
I0403 02:30:37.989792 19580 net.cpp:91] Creating Layer inception_5b/5x5
I0403 02:30:37.989815 19580 net.cpp:425] inception_5b/5x5 <- inception_5b/5x5_reduce
I0403 02:30:37.989845 19580 net.cpp:399] inception_5b/5x5 -> inception_5b/5x5
I0403 02:30:37.991161 19580 net.cpp:141] Setting up inception_5b/5x5
I0403 02:30:37.991199 19580 net.cpp:148] Top shape: 24 128 7 7 (150528)
I0403 02:30:37.991220 19580 net.cpp:156] Memory required for data: 1335304704
I0403 02:30:37.991278 19580 layer_factory.hpp:77] Creating layer inception_5b/relu_5x5
I0403 02:30:37.991328 19580 net.cpp:91] Creating Layer inception_5b/relu_5x5
I0403 02:30:37.991358 19580 net.cpp:425] inception_5b/relu_5x5 <- inception_5b/5x5
I0403 02:30:37.991421 19580 net.cpp:386] inception_5b/relu_5x5 -> inception_5b/5x5 (in-place)
I0403 02:30:37.991474 19580 net.cpp:141] Setting up inception_5b/relu_5x5
I0403 02:30:37.991518 19580 net.cpp:148] Top shape: 24 128 7 7 (150528)
I0403 02:30:37.991570 19580 net.cpp:156] Memory required for data: 1335906816
I0403 02:30:37.991614 19580 layer_factory.hpp:77] Creating layer inception_5b/pool
I0403 02:30:37.991670 19580 net.cpp:91] Creating Layer inception_5b/pool
I0403 02:30:37.991713 19580 net.cpp:425] inception_5b/pool <- inception_5a/output_inception_5a/output_0_split_3
I0403 02:30:37.991768 19580 net.cpp:399] inception_5b/pool -> inception_5b/pool
I0403 02:30:37.991853 19580 net.cpp:141] Setting up inception_5b/pool
I0403 02:30:37.991896 19580 net.cpp:148] Top shape: 24 832 7 7 (978432)
I0403 02:30:37.991915 19580 net.cpp:156] Memory required for data: 1339820544
I0403 02:30:37.991935 19580 layer_factory.hpp:77] Creating layer inception_5b/pool_proj
I0403 02:30:37.991997 19580 net.cpp:91] Creating Layer inception_5b/pool_proj
I0403 02:30:37.992034 19580 net.cpp:425] inception_5b/pool_proj <- inception_5b/pool
I0403 02:30:37.992074 19580 net.cpp:399] inception_5b/pool_proj -> inception_5b/pool_proj
I0403 02:30:37.993702 19580 net.cpp:141] Setting up inception_5b/pool_proj
I0403 02:30:37.993738 19580 net.cpp:148] Top shape: 24 128 7 7 (150528)
I0403 02:30:37.993784 19580 net.cpp:156] Memory required for data: 1340422656
I0403 02:30:37.993844 19580 layer_factory.hpp:77] Creating layer inception_5b/relu_pool_proj
I0403 02:30:37.993892 19580 net.cpp:91] Creating Layer inception_5b/relu_pool_proj
I0403 02:30:37.993934 19580 net.cpp:425] inception_5b/relu_pool_proj <- inception_5b/pool_proj
I0403 02:30:37.993976 19580 net.cpp:386] inception_5b/relu_pool_proj -> inception_5b/pool_proj (in-place)
I0403 02:30:37.994009 19580 net.cpp:141] Setting up inception_5b/relu_pool_proj
I0403 02:30:37.994034 19580 net.cpp:148] Top shape: 24 128 7 7 (150528)
I0403 02:30:37.994058 19580 net.cpp:156] Memory required for data: 1341024768
I0403 02:30:38.003484 19580 layer_factory.hpp:77] Creating layer inception_5b/output
I0403 02:30:38.003530 19580 net.cpp:91] Creating Layer inception_5b/output
I0403 02:30:38.003562 19580 net.cpp:425] inception_5b/output <- inception_5b/1x1
I0403 02:30:38.003609 19580 net.cpp:425] inception_5b/output <- inception_5b/3x3
I0403 02:30:38.003633 19580 net.cpp:425] inception_5b/output <- inception_5b/5x5
I0403 02:30:38.003654 19580 net.cpp:425] inception_5b/output <- inception_5b/pool_proj
I0403 02:30:38.003675 19580 net.cpp:399] inception_5b/output -> inception_5b/output
I0403 02:30:38.003772 19580 net.cpp:141] Setting up inception_5b/output
I0403 02:30:38.003826 19580 net.cpp:148] Top shape: 24 1024 7 7 (1204224)
I0403 02:30:38.003855 19580 net.cpp:156] Memory required for data: 1345841664
I0403 02:30:38.003881 19580 layer_factory.hpp:77] Creating layer pool5/7x7_s1
I0403 02:30:38.003911 19580 net.cpp:91] Creating Layer pool5/7x7_s1
I0403 02:30:38.003944 19580 net.cpp:425] pool5/7x7_s1 <- inception_5b/output
I0403 02:30:38.003989 19580 net.cpp:399] pool5/7x7_s1 -> pool5/7x7_s1
I0403 02:30:38.004075 19580 net.cpp:141] Setting up pool5/7x7_s1
I0403 02:30:38.004122 19580 net.cpp:148] Top shape: 24 1024 1 1 (24576)
I0403 02:30:38.004175 19580 net.cpp:156] Memory required for data: 1345939968
I0403 02:30:38.004195 19580 layer_factory.hpp:77] Creating layer pool5/drop_7x7_s1
I0403 02:30:38.004268 19580 net.cpp:91] Creating Layer pool5/drop_7x7_s1
I0403 02:30:38.004339 19580 net.cpp:425] pool5/drop_7x7_s1 <- pool5/7x7_s1
I0403 02:30:38.004367 19580 net.cpp:386] pool5/drop_7x7_s1 -> pool5/7x7_s1 (in-place)
I0403 02:30:38.004431 19580 net.cpp:141] Setting up pool5/drop_7x7_s1
I0403 02:30:38.004489 19580 net.cpp:148] Top shape: 24 1024 1 1 (24576)
I0403 02:30:38.004513 19580 net.cpp:156] Memory required for data: 1346038272
I0403 02:30:38.004559 19580 layer_factory.hpp:77] Creating layer loss3/classifier_plantvillage
I0403 02:30:38.004621 19580 net.cpp:91] Creating Layer loss3/classifier_plantvillage
I0403 02:30:38.004684 19580 net.cpp:425] loss3/classifier_plantvillage <- pool5/7x7_s1
I0403 02:30:38.004765 19580 net.cpp:399] loss3/classifier_plantvillage -> loss3/classifier_plantvillage
I0403 02:30:38.005194 19580 net.cpp:141] Setting up loss3/classifier_plantvillage
I0403 02:30:38.005255 19580 net.cpp:148] Top shape: 24 38 (912)
I0403 02:30:38.005280 19580 net.cpp:156] Memory required for data: 1346041920
I0403 02:30:38.005336 19580 layer_factory.hpp:77] Creating layer loss1/loss
I0403 02:30:38.005406 19580 net.cpp:91] Creating Layer loss1/loss
I0403 02:30:38.005465 19580 net.cpp:425] loss1/loss <- loss1/classifier_plantvillage
I0403 02:30:38.005487 19580 net.cpp:425] loss1/loss <- label_data_1_split_0
I0403 02:30:38.005542 19580 net.cpp:399] loss1/loss -> loss1/loss
…
I0403 02:30:38.021693 19580 net.cpp:313] The NetState phase (1) differed from the phase (0) specified by a rule in layer data
I0403 02:30:38.026448 19580 net.cpp:49] Initializing net from parameters: 
state {
  phase: TEST
}
layer {
  name: "data"
  type: "Data"
  top: "data"
  top: "label"
  include {
    phase: TEST
  }
  transform_param {
    mirror: false
    crop_size: 224
    mean_file: "/home/mohanty/data/final_dataset/lmdb/grayscale-20-80/mean.binaryproto"
  }
  data_param {
    source: "/home/mohanty/data/final_dataset/lmdb/grayscale-20-80/test_db"
    batch_size: 24
    backend: LMDB
  }
}
layer {
  name: "conv1/7x7_s2"
  type: "Convolution"
  bottom: "data"
  top: "conv1/7x7_s2"
  param {
    lr_mult: 1
    decay_mult: 1
  }
  param {
    lr_mult: 2
    decay_mult: 0
  }
  convolution_param {
    num_output: 64
    pad: 3
    kernel_size: 7
    stride: 2
    weight_filler {
      type: "xavier"
      std: 0.1
    }
    bias_filler {
      type: "constant"
      value: 0.2
    }
  }
}
layer {
  name: "conv1/relu_7x7"
  type: "ReLU"
  bottom: "conv1/7x7_s2"
  top: "conv1/7x7_s2"
}
layer {
  name: "pool1/3x3_s2"
  type: "Pooling"
  bottom: "conv1/7x7_s2"
  top: "pool1/3x3_s2"
  pooling_param {
    pool: MAX
    kernel_size: 3
    stride: 2
  }
}
layer {
  name: "pool1/norm1"
  type: "LRN"
  bottom: "pool1/3x3_s2"
  top: "pool1/norm1"
  lrn_param {
    local_size: 5
    alpha: 0.0001
    beta: 0.75
  }
}
layer {
  name: "conv2/3x3_reduce"
  type: "Convolution"
  bottom: "pool1/norm1"
  top: "conv2/3x3_reduce"
  param {
    lr_mult: 1
    decay_mult: 1
  }
  param {
    lr_mult: 2
    decay_mult: 0
  }
  convolution_param {
    num_output: 64
    kernel_size: 1
    weight_filler {
      type: "xavier"
      std: 0.1
    }
    bias_filler {
      type: "constant"
      value: 0.2
    }
  }
}
layer {
  name: "conv2/relu_3x3_reduce"
  type: "ReLU"
  bottom: "conv2/3x3_reduce"
  top: "conv2/3x3_reduce"
}
layer {
  name: "conv2/3x3"
  type: "Convolution"
  bottom: "conv2/3x3_reduce"
  top: "conv2/3x3"
  param {
    lr_mult: 1
    decay_mult: 1
  }
  param {
    lr_mult: 2
    decay_mult: 0
  }
  convolution_param {
    num_output: 192
    pad: 1
    kernel_size: 3
    weight_filler {
      type: "xavier"
      std: 0.03
    }
    bias_filler {
      type: "constant"
      value: 0.2
    }
  }
}
layer {
  name: "conv2/relu_3x3"
  type: "ReLU"
  bottom: "conv2/3x3"
  top: "conv2/3x3"
}
layer {
  name: "conv2/norm2"
  type: "LRN"
  bottom: "conv2/3x3"
  top: "conv2/norm2"
  lrn_param {
    local_size: 5
    alpha: 0.0001
    beta: 0.75
  }
}
layer {
  name: "pool2/3x3_s2"
  type: "Pooling"
  bottom: "conv2/norm2"
  top: "pool2/3x3_s2"
  pooling_param {
    pool: MAX
    kernel_size: 3
    stride: 2
  }
}
layer {
  name: "inception_3a/1x1"
  type: "Convolution"
  bottom: "pool2/3x3_s2"
  top: "inception_3a/1x1"
  param {
    lr_mult: 1
    decay_mult: 1
  }
  param {
    lr_mult: 2
    decay_mult: 0
  }
  convolution_param {
    num_output: 64
    kernel_size: 1
    weight_filler {
      type: "xavier"
      std: 0.03
    }
    bias_filler {
      type: "constant"
      value: 0.2
    }
  }
}
layer {
  name: "inception_3a/relu_1x1"
  type: "ReLU"
  bottom: "inception_3a/1x1"
  top: "inception_3a/1x1"
}
layer {
  name: "inception_3a/3x3_reduce"
  type: "Convolution"
  bottom: "pool2/3x3_s2"
  top: "inception_3a/3x3_reduce"
  param {
    lr_mult: 1
    decay_mult: 1
  }
  param {
    lr_mult: 2
    decay_mult: 0
  }
  convolution_param {
    num_output: 96
    kernel_size: 1
    weight_filler {
      type: "xavier"
      std: 0.09
    }
    bias_filler {
      type: "constant"
      value: 0.2
    }
  }
}
layer {
  name: "inception_3a/relu_3x3_reduce"
  type: "ReLU"
  bottom: "inception_3a/3x3_reduce"
  top: "inception_3a/3x3_reduce"
}
layer {
  name: "inception_3a/3x3"
  type: "Convolution"
  bottom: "inception_3a/3x3_reduce"
  top: "inception_3a/3x3"
  param {
    lr_mult: 1
    decay_mult: 1
  }
  param {
    lr_mult: 2
    decay_mult: 0
  }
  convolution_param {
    num_output: 128
    pad: 1
    kernel_size: 3
    weight_filler {
      type: "xavier"
      std: 0.03
    }
    bias_filler {
      type: "constant"
      value: 0.2
    }
  }
}
layer {
  name: "inception_3a/relu_3x3"
  type: "ReLU"
  bottom: "inception_3a/3x3"
  top: "inception_3a/3x3"
}
layer {
  name: "inception_3a/5x5_reduce"
  type: "Convolution"
  bottom: "pool2/3x3_s2"
  top: "inception_3a/5x5_reduce"
  param {
    lr_mult: 1
    decay_mult: 1
  }
  param {
    lr_mult: 2
    decay_mult: 0
  }
  convolution_param {
    num_output: 16
    kernel_size: 1
    weight_filler {
      type: "xavier"
      std: 0.2
    }
    bias_filler {
      type: "constant"
      value: 0.2
    }
  }
}
layer {
  name: "inception_3a/relu_5x5_reduce"
  type: "ReLU"
  bottom: "inception_3a/5x5_reduce"
  top: "inception_3a/5x5_reduce"
}
layer {
  name: "inception_3a/5x5"
  type: "Convolution"
  bottom: "inception_3a/5x5_reduce"
  top: "inception_3a/5x5"
  param {
    lr_mult: 1
    decay_mult: 1
  }
  param {
    lr_mult: 2
    decay_mult: 0
  }
  convolution_param {
    num_output: 32
    pad: 2
    kernel_size: 5
    weight_filler {
      type: "xavier"
      std: 0.03
    }
    bias_filler {
      type: "constant"
      value: 0.2
    }
  }
}
layer {
  name: "inception_3a/relu_5x5"
  type: "ReLU"
  bottom: "inception_3a/5x5"
  top: "inception_3a/5x5"
}
layer {
  name: "inception_3a/pool"
  type: "Pooling"
  bottom: "pool2/3x3_s2"
  top: "inception_3a/pool"
  pooling_param {
    pool: MAX
    kernel_size: 3
    stride: 1
    pad: 1
  }
}
layer {
  name: "inception_3a/pool_proj"
  type: "Convolution"
  bottom: "inception_3a/pool"
  top: "inception_3a/pool_proj"
  param {
    lr_mult: 1
    decay_mult: 1
  }
  param {
    lr_mult: 2
    decay_mult: 0
  }
  convolution_param {
    num_output: 32
    kernel_size: 1
    weight_filler {
      type: "xavier"
      std: 0.1
    }
    bias_filler {
      type: "constant"
      value: 0.2
    }
  }
}
layer {
  name: "inception_3a/relu_pool_proj"
  type: "ReLU"
  bottom: "inception_3a/pool_proj"
  top: "inception_3a/pool_proj"
}
layer {
  name: "inception_3a/output"
  type: "Concat"
  bottom: "inception_3a/1x1"
  bottom: "inception_3a/3x3"
  bottom: "inception_3a/5x5"
  bottom: "inception_3a/pool_proj"
  top: "inception_3a/output"
}
layer {
  name: "inception_3b/1x1"
  type: "Convolution"
  bottom: "inception_3a/output"
  top: "inception_3b/1x1"
  param {
    lr_mult: 1
    decay_mult: 1
  }
  param {
    lr_mult: 2
    decay_mult: 0
  }
  convolution_param {
    num_output: 128
    kernel_size: 1
    weight_filler {
      type: "xavier"
      std: 0.03
    }
    bias_filler {
      type: "constant"
      value: 0.2
    }
  }
}
layer {
  name: "inception_3b/relu_1x1"
  type: "ReLU"
  bottom: "inception_3b/1x1"
  top: "inception_3b/1x1"
}
layer {
  name: "inception_3b/3x3_reduce"
  type: "Convolution"
  bottom: "inception_3a/output"
  top: "inception_3b/3x3_reduce"
  param {
    lr_mult: 1
    decay_mult: 1
  }
  param {
    lr_mult: 2
    decay_mult: 0
  }
  convolution_param {
    num_output: 128
    kernel_size: 1
    weight_filler {
      type: "xavier"
      std: 0.09
    }
    bias_filler {
      type: "constant"
      value: 0.2
    }
  }
}
layer {
  name: "inception_3b/relu_3x3_reduce"
  type: "ReLU"
  bottom: "inception_3b/3x3_reduce"
  top: "inception_3b/3x3_reduce"
}
layer {
  name: "inception_3b/3x3"
  type: "Convolution"
  bottom: "inception_3b/3x3_reduce"
  top: "inception_3b/3x3"
  param {
    lr_mult: 1
    decay_mult: 1
  }
  param {
    lr_mult: 2
    decay_mult: 0
  }
  convolution_param {
    num_output: 192
    pad: 1
    kernel_size: 3
    weight_filler {
      type: "xavier"
      std: 0.03
    }
    bias_filler {
      type: "constant"
      value: 0.2
    }
  }
}
layer {
  name: "inception_3b/relu_3x3"
  type: "ReLU"
  bottom: "inception_3b/3x3"
  top: "inception_3b/3x3"
}
layer {
  name: "inception_3b/5x5_reduce"
  type: "Convolution"
  bottom: "inception_3a/output"
  top: "inception_3b/5x5_reduce"
  param {
    lr_mult: 1
    decay_mult: 1
  }
  param {
    lr_mult: 2
    decay_mult: 0
  }
  convolution_param {
    num_output: 32
    kernel_size: 1
    weight_filler {
      type: "xavier"
      std: 0.2
    }
    bias_filler {
      type: "constant"
      value: 0.2
    }
  }
}
layer {
  name: "inception_3b/relu_5x5_reduce"
  type: "ReLU"
  bottom: "inception_3b/5x5_reduce"
  top: "inception_3b/5x5_reduce"
}
layer {
  name: "inception_3b/5x5"
  type: "Convolution"
  bottom: "inception_3b/5x5_reduce"
  top: "inception_3b/5x5"
  param {
    lr_mult: 1
    decay_mult: 1
  }
  param {
    lr_mult: 2
    decay_mult: 0
  }
  convolution_param {
    num_output: 96
    pad: 2
    kernel_size: 5
    weight_filler {
      type: "xavier"
      std: 0.03
    }
    bias_filler {
      type: "constant"
      value: 0.2
    }
  }
}
layer {
  name: "inception_3b/relu_5x5"
  type: "ReLU"
  bottom: "inception_3b/5x5"
  top: "inception_3b/5x5"
}
layer {
  name: "inception_3b/pool"
  type: "Pooling"
  bottom: "inception_3a/output"
  top: "inception_3b/pool"
  pooling_param {
    pool: MAX
    kernel_size: 3
    stride: 1
    pad: 1
  }
}
layer {
  name: "inception_3b/pool_proj"
  type: "Convolution"
  bottom: "inception_3b/pool"
  top: "inception_3b/pool_proj"
  param {
    lr_mult: 1
    decay_mult: 1
  }
  param {
    lr_mult: 2
    decay_mult: 0
  }
  convolution_param {
    num_output: 64
    kernel_size: 1
    weight_filler {
      type: "xavier"
      std: 0.1
    }
    bias_filler {
      type: "constant"
      value: 0.2
    }
  }
}
layer {
  name: "inception_3b/relu_pool_proj"
  type: "ReLU"
  bottom: "inception_3b/pool_proj"
  top: "inception_3b/pool_proj"
}
layer {
  name: "inception_3b/output"
  type: "Concat"
  bottom: "inception_3b/1x1"
  bottom: "inception_3b/3x3"
  bottom: "inception_3b/5x5"
  bottom: "inception_3b/pool_proj"
  top: "inception_3b/output"
}
layer {
  name: "pool3/3x3_s2"
  type: "Pooling"
  bottom: "inception_3b/output"
  top: "pool3/3x3_s2"
  pooling_param {
    pool: MAX
    kernel_size: 3
    stride: 2
  }
}
layer {
  name: "inception_4a/1x1"
  type: "Convolution"
  bottom: "pool3/3x3_s2"
  top: "inception_4a/1x1"
  param {
    lr_mult: 1
    decay_mult: 1
  }
  param {
    lr_mult: 2
    decay_mult: 0
  }
  convolution_param {
    num_output: 192
    kernel_size: 1
    weight_filler {
      type: "xavier"
      std: 0.03
    }
    bias_filler {
      type: "constant"
      value: 0.2
    }
  }
}
layer {
  name: "inception_4a/relu_1x1"
  type: "ReLU"
  bottom: "inception_4a/1x1"
  top: "inception_4a/1x1"
}
layer {
  name: "inception_4a/3x3_reduce"
  type: "Convolution"
  bottom: "pool3/3x3_s2"
  top: "inception_4a/3x3_reduce"
  param {
    lr_mult: 1
    decay_mult: 1
  }
  param {
    lr_mult: 2
    decay_mult: 0
  }
  convolution_param {
    num_output: 96
    kernel_size: 1
    weight_filler {
      type: "xavier"
      std: 0.09
    }
    bias_filler {
      type: "constant"
      value: 0.2
    }
  }
}
layer {
  name: "inception_4a/relu_3x3_reduce"
  type: "ReLU"
  bottom: "inception_4a/3x3_reduce"
  top: "inception_4a/3x3_reduce"
}
layer {
  name: "inception_4a/3x3"
  type: "Convolution"
  bottom: "inception_4a/3x3_reduce"
  top: "inception_4a/3x3"
  param {
    lr_mult: 1
    decay_mult: 1
  }
  param {
    lr_mult: 2
    decay_mult: 0
  }
  convolution_param {
    num_output: 208
    pad: 1
    kernel_size: 3
    weight_filler {
      type: "xavier"
      std: 0.03
    }
    bias_filler {
      type: "constant"
      value: 0.2
    }
  }
}
layer {
  name: "inception_4a/relu_3x3"
  type: "ReLU"
  bottom: "inception_4a/3x3"
  top: "inception_4a/3x3"
}
layer {
  name: "inception_4a/5x5_reduce"
  type: "Convolution"
  bottom: "pool3/3x3_s2"
  top: "inception_4a/5x5_reduce"
  param {
    lr_mult: 1
    decay_mult: 1
  }
  param {
    lr_mult: 2
    decay_mult: 0
  }
  convolution_param {
    num_output: 16
    kernel_size: 1
    weight_filler {
      type: "xavier"
      std: 0.2
    }
    bias_filler {
      type: "constant"
      value: 0.2
    }
  }
}
layer {
  name: "inception_4a/relu_5x5_reduce"
  type: "ReLU"
  bottom: "inception_4a/5x5_reduce"
  top: "inception_4a/5x5_reduce"
}
layer {
  name: "inception_4a/5x5"
  type: "Convolution"
  bottom: "inception_4a/5x5_reduce"
  top: "inception_4a/5x5"
  param {
    lr_mult: 1
    decay_mult: 1
  }
  param {
    lr_mult: 2
    decay_mult: 0
  }
  convolution_param {
    num_output: 48
    pad: 2
    kernel_size: 5
    weight_filler {
      type: "xavier"
      std: 0.03
    }
    bias_filler {
      type: "constant"
      value: 0.2
    }
  }
}
layer {
  name: "inception_4a/relu_5x5"
  type: "ReLU"
  bottom: "inception_4a/5x5"
  top: "inception_4a/5x5"
}
layer {
  name: "inception_4a/pool"
  type: "Pooling"
  bottom: "pool3/3x3_s2"
  top: "inception_4a/pool"
  pooling_param {
    pool: MAX
    kernel_size: 3
    stride: 1
    pad: 1
  }
}
layer {
  name: "inception_4a/pool_proj"
  type: "Convolution"
  bottom: "inception_4a/pool"
  top: "inception_4a/pool_proj"
  param {
    lr_mult: 1
    decay_mult: 1
  }
  param {
    lr_mult: 2
    decay_mult: 0
  }
  convolution_param {
    num_output: 64
    kernel_size: 1
    weight_filler {
      type: "xavier"
      std: 0.1
    }
    bias_filler {
      type: "constant"
      value: 0.2
    }
  }
}
layer {
  name: "inception_4a/relu_pool_proj"
  type: "ReLU"
  bottom: "inception_4a/pool_proj"
  top: "inception_4a/pool_proj"
}
layer {
  name: "inception_4a/output"
  type: "Concat"
  bottom: "inception_4a/1x1"
  bottom: "inception_4a/3x3"
  bottom: "inception_4a/5x5"
  bottom: "inception_4a/pool_proj"
  top: "inception_4a/output"
}
layer {
  name: "loss1/ave_pool"
  type: "Pooling"
  bottom: "inception_4a/output"
  top: "loss1/ave_pool"
  pooling_param {
    pool: AVE
    kernel_size: 5
    stride: 3
  }
}
layer {
  name: "loss1/conv"
  type: "Convolution"
  bottom: "loss1/ave_pool"
  top: "loss1/conv"
  param {
    lr_mult: 1
    decay_mult: 1
  }
  param {
    lr_mult: 2
    decay_mult: 0
  }
  convolution_param {
    num_output: 128
    kernel_size: 1
    weight_filler {
      type: "xavier"
      std: 0.08
    }
    bias_filler {
      type: "constant"
      value: 0.2
    }
  }
}
layer {
  name: "loss1/relu_conv"
  type: "ReLU"
  bottom: "loss1/conv"
  top: "loss1/conv"
}
layer {
  name: "loss1/fc"
  type: "InnerProduct"
  bottom: "loss1/conv"
  top: "loss1/fc"
  param {
    lr_mult: 1
    decay_mult: 1
  }
  param {
    lr_mult: 2
    decay_mult: 0
  }
  inner_product_param {
    num_output: 1024
    weight_filler {
      type: "xavier"
      std: 0.02
    }
    bias_filler {
      type: "constant"
      value: 0.2
    }
  }
}
layer {
  name: "loss1/relu_fc"
  type: "ReLU"
  bottom: "loss1/fc"
  top: "loss1/fc"
}
layer {
  name: "loss1/drop_fc"
  type: "Dropout"
  bottom: "loss1/fc"
  top: "loss1/fc"
  dropout_param {
    dropout_ratio: 0.7
  }
}
layer {
  name: "loss1/classifier_plantvillage"
  type: "InnerProduct"
  bottom: "loss1/fc"
  top: "loss1/classifier_plantvillage"
  param {
    lr_mult: 1
    decay_mult: 1
  }
  param {
    lr_mult: 2
    decay_mult: 0
  }
  inner_product_param {
    num_output: 38
    weight_filler {
      type: "xavier"
      std: 0.0009765625
    }
    bias_filler {
      type: "constant"
      value: 0
    }
  }
}
layer {
  name: "inception_4b/1x1"
  type: "Convolution"
  bottom: "inception_4a/output"
  top: "inception_4b/1x1"
  param {
    lr_mult: 1
    decay_mult: 1
  }
  param {
    lr_mult: 2
    decay_mult: 0
  }
  convolution_param {
    num_output: 160
    kernel_size: 1
    weight_filler {
      type: "xavier"
      std: 0.03
    }
    bias_filler {
      type: "constant"
      value: 0.2
    }
  }
}
layer {
…
I0403 02:30:38.301136 19580 layer_factory.hpp:77] Creating layer inception_4c/pool
I0403 02:30:38.301157 19580 net.cpp:91] Creating Layer inception_4c/pool
I0403 02:30:38.301177 19580 net.cpp:425] inception_4c/pool <- inception_4b/output_inception_4b/output_0_split_3
I0403 02:30:38.301200 19580 net.cpp:399] inception_4c/pool -> inception_4c/pool
I0403 02:30:38.301273 19580 net.cpp:141] Setting up inception_4c/pool
I0403 02:30:38.301304 19580 net.cpp:148] Top shape: 24 512 14 14 (2408448)
I0403 02:30:38.301323 19580 net.cpp:156] Memory required for data: 1060605120
I0403 02:30:38.301343 19580 layer_factory.hpp:77] Creating layer inception_4c/pool_proj
I0403 02:30:38.301373 19580 net.cpp:91] Creating Layer inception_4c/pool_proj
I0403 02:30:38.301394 19580 net.cpp:425] inception_4c/pool_proj <- inception_4c/pool
I0403 02:30:38.301421 19580 net.cpp:399] inception_4c/pool_proj -> inception_4c/pool_proj
I0403 02:30:38.301962 19580 net.cpp:141] Setting up inception_4c/pool_proj
I0403 02:30:38.302017 19580 net.cpp:148] Top shape: 24 64 14 14 (301056)
I0403 02:30:38.302068 19580 net.cpp:156] Memory required for data: 1061809344
I0403 02:30:38.302094 19580 layer_factory.hpp:77] Creating layer inception_4c/relu_pool_proj
I0403 02:30:38.302124 19580 net.cpp:91] Creating Layer inception_4c/relu_pool_proj
I0403 02:30:38.302147 19580 net.cpp:425] inception_4c/relu_pool_proj <- inception_4c/pool_proj
I0403 02:30:38.302170 19580 net.cpp:386] inception_4c/relu_pool_proj -> inception_4c/pool_proj (in-place)
I0403 02:30:38.302193 19580 net.cpp:141] Setting up inception_4c/relu_pool_proj
I0403 02:30:38.302216 19580 net.cpp:148] Top shape: 24 64 14 14 (301056)
I0403 02:30:38.302235 19580 net.cpp:156] Memory required for data: 1063013568
I0403 02:30:38.302254 19580 layer_factory.hpp:77] Creating layer inception_4c/output
I0403 02:30:38.302280 19580 net.cpp:91] Creating Layer inception_4c/output
I0403 02:30:38.302302 19580 net.cpp:425] inception_4c/output <- inception_4c/1x1
I0403 02:30:38.302323 19580 net.cpp:425] inception_4c/output <- inception_4c/3x3
I0403 02:30:38.302342 19580 net.cpp:425] inception_4c/output <- inception_4c/5x5
I0403 02:30:38.302363 19580 net.cpp:425] inception_4c/output <- inception_4c/pool_proj
I0403 02:30:38.302386 19580 net.cpp:399] inception_4c/output -> inception_4c/output
I0403 02:30:38.302438 19580 net.cpp:141] Setting up inception_4c/output
I0403 02:30:38.302559 19580 net.cpp:148] Top shape: 24 512 14 14 (2408448)
I0403 02:30:38.302580 19580 net.cpp:156] Memory required for data: 1072647360
I0403 02:30:38.302599 19580 layer_factory.hpp:77] Creating layer inception_4c/output_inception_4c/output_0_split
I0403 02:30:38.302623 19580 net.cpp:91] Creating Layer inception_4c/output_inception_4c/output_0_split
I0403 02:30:38.302644 19580 net.cpp:425] inception_4c/output_inception_4c/output_0_split <- inception_4c/output
I0403 02:30:38.302667 19580 net.cpp:399] inception_4c/output_inception_4c/output_0_split -> inception_4c/output_inception_4c/output_0_split_0
I0403 02:30:38.302700 19580 net.cpp:399] inception_4c/output_inception_4c/output_0_split -> inception_4c/output_inception_4c/output_0_split_1
I0403 02:30:38.302726 19580 net.cpp:399] inception_4c/output_inception_4c/output_0_split -> inception_4c/output_inception_4c/output_0_split_2
I0403 02:30:38.302757 19580 net.cpp:399] inception_4c/output_inception_4c/output_0_split -> inception_4c/output_inception_4c/output_0_split_3
I0403 02:30:38.302871 19580 net.cpp:141] Setting up inception_4c/output_inception_4c/output_0_split
I0403 02:30:38.302902 19580 net.cpp:148] Top shape: 24 512 14 14 (2408448)
I0403 02:30:38.302928 19580 net.cpp:148] Top shape: 24 512 14 14 (2408448)
I0403 02:30:38.302948 19580 net.cpp:148] Top shape: 24 512 14 14 (2408448)
I0403 02:30:38.302968 19580 net.cpp:148] Top shape: 24 512 14 14 (2408448)
I0403 02:30:38.302985 19580 net.cpp:156] Memory required for data: 1111182528
I0403 02:30:38.303004 19580 layer_factory.hpp:77] Creating layer inception_4d/1x1
I0403 02:30:38.303032 19580 net.cpp:91] Creating Layer inception_4d/1x1
I0403 02:30:38.303055 19580 net.cpp:425] inception_4d/1x1 <- inception_4c/output_inception_4c/output_0_split_0
I0403 02:30:38.303081 19580 net.cpp:399] inception_4d/1x1 -> inception_4d/1x1
I0403 02:30:38.303779 19580 net.cpp:141] Setting up inception_4d/1x1
I0403 02:30:38.303810 19580 net.cpp:148] Top shape: 24 112 14 14 (526848)
I0403 02:30:38.303828 19580 net.cpp:156] Memory required for data: 1113289920
I0403 02:30:38.303850 19580 layer_factory.hpp:77] Creating layer inception_4d/relu_1x1
I0403 02:30:38.303876 19580 net.cpp:91] Creating Layer inception_4d/relu_1x1
I0403 02:30:38.303896 19580 net.cpp:425] inception_4d/relu_1x1 <- inception_4d/1x1
I0403 02:30:38.303920 19580 net.cpp:386] inception_4d/relu_1x1 -> inception_4d/1x1 (in-place)
I0403 02:30:38.303944 19580 net.cpp:141] Setting up inception_4d/relu_1x1
I0403 02:30:38.303966 19580 net.cpp:148] Top shape: 24 112 14 14 (526848)
I0403 02:30:38.303984 19580 net.cpp:156] Memory required for data: 1115397312
I0403 02:30:38.304010 19580 layer_factory.hpp:77] Creating layer inception_4d/3x3_reduce
I0403 02:30:38.304039 19580 net.cpp:91] Creating Layer inception_4d/3x3_reduce
I0403 02:30:38.304061 19580 net.cpp:425] inception_4d/3x3_reduce <- inception_4c/output_inception_4c/output_0_split_1
I0403 02:30:38.304088 19580 net.cpp:399] inception_4d/3x3_reduce -> inception_4d/3x3_reduce
I0403 02:30:38.305004 19580 net.cpp:141] Setting up inception_4d/3x3_reduce
I0403 02:30:38.305043 19580 net.cpp:148] Top shape: 24 144 14 14 (677376)
I0403 02:30:38.305064 19580 net.cpp:156] Memory required for data: 1118106816
I0403 02:30:38.305088 19580 layer_factory.hpp:77] Creating layer inception_4d/relu_3x3_reduce
I0403 02:30:38.305114 19580 net.cpp:91] Creating Layer inception_4d/relu_3x3_reduce
I0403 02:30:38.305136 19580 net.cpp:425] inception_4d/relu_3x3_reduce <- inception_4d/3x3_reduce
I0403 02:30:38.305166 19580 net.cpp:386] inception_4d/relu_3x3_reduce -> inception_4d/3x3_reduce (in-place)
I0403 02:30:38.305194 19580 net.cpp:141] Setting up inception_4d/relu_3x3_reduce
I0403 02:30:38.305222 19580 net.cpp:148] Top shape: 24 144 14 14 (677376)
I0403 02:30:38.305240 19580 net.cpp:156] Memory required for data: 1120816320
I0403 02:30:38.305258 19580 layer_factory.hpp:77] Creating layer inception_4d/3x3
I0403 02:30:38.305284 19580 net.cpp:91] Creating Layer inception_4d/3x3
I0403 02:30:38.305330 19580 net.cpp:425] inception_4d/3x3 <- inception_4d/3x3_reduce
I0403 02:30:38.305392 19580 net.cpp:399] inception_4d/3x3 -> inception_4d/3x3
I0403 02:30:38.309372 19580 net.cpp:141] Setting up inception_4d/3x3
I0403 02:30:38.337585 19580 net.cpp:148] Top shape: 24 288 14 14 (1354752)
I0403 02:30:38.337615 19580 net.cpp:156] Memory required for data: 1126235328
I0403 02:30:38.337642 19580 layer_factory.hpp:77] Creating layer inception_4d/relu_3x3
I0403 02:30:38.337672 19580 net.cpp:91] Creating Layer inception_4d/relu_3x3
I0403 02:30:38.337699 19580 net.cpp:425] inception_4d/relu_3x3 <- inception_4d/3x3
I0403 02:30:38.337725 19580 net.cpp:386] inception_4d/relu_3x3 -> inception_4d/3x3 (in-place)
I0403 02:30:38.337759 19580 net.cpp:141] Setting up inception_4d/relu_3x3
I0403 02:30:38.337786 19580 net.cpp:148] Top shape: 24 288 14 14 (1354752)
I0403 02:30:38.337810 19580 net.cpp:156] Memory required for data: 1131654336
I0403 02:30:38.337831 19580 layer_factory.hpp:77] Creating layer inception_4d/5x5_reduce
I0403 02:30:38.338009 19580 net.cpp:91] Creating Layer inception_4d/5x5_reduce
I0403 02:30:38.338038 19580 net.cpp:425] inception_4d/5x5_reduce <- inception_4c/output_inception_4c/output_0_split_2
I0403 02:30:38.338066 19580 net.cpp:399] inception_4d/5x5_reduce -> inception_4d/5x5_reduce
I0403 02:30:38.338663 19580 net.cpp:141] Setting up inception_4d/5x5_reduce
I0403 02:30:38.338703 19580 net.cpp:148] Top shape: 24 32 14 14 (150528)
I0403 02:30:38.338727 19580 net.cpp:156] Memory required for data: 1132256448
I0403 02:30:38.338757 19580 layer_factory.hpp:77] Creating layer inception_4d/relu_5x5_reduce
I0403 02:30:38.338785 19580 net.cpp:91] Creating Layer inception_4d/relu_5x5_reduce
I0403 02:30:38.338807 19580 net.cpp:425] inception_4d/relu_5x5_reduce <- inception_4d/5x5_reduce
I0403 02:30:38.338831 19580 net.cpp:386] inception_4d/relu_5x5_reduce -> inception_4d/5x5_reduce (in-place)
I0403 02:30:38.338856 19580 net.cpp:141] Setting up inception_4d/relu_5x5_reduce
I0403 02:30:38.338882 19580 net.cpp:148] Top shape: 24 32 14 14 (150528)
I0403 02:30:38.338902 19580 net.cpp:156] Memory required for data: 1132858560
I0403 02:30:38.338924 19580 layer_factory.hpp:77] Creating layer inception_4d/5x5
I0403 02:30:38.338986 19580 net.cpp:91] Creating Layer inception_4d/5x5
I0403 02:30:38.339012 19580 net.cpp:425] inception_4d/5x5 <- inception_4d/5x5_reduce
I0403 02:30:38.339092 19580 net.cpp:399] inception_4d/5x5 -> inception_4d/5x5
I0403 02:30:38.340082 19580 net.cpp:141] Setting up inception_4d/5x5
I0403 02:30:38.340117 19580 net.cpp:148] Top shape: 24 64 14 14 (301056)
I0403 02:30:38.340138 19580 net.cpp:156] Memory required for data: 1134062784
I0403 02:30:38.340162 19580 layer_factory.hpp:77] Creating layer inception_4d/relu_5x5
I0403 02:30:38.340188 19580 net.cpp:91] Creating Layer inception_4d/relu_5x5
I0403 02:30:38.340209 19580 net.cpp:425] inception_4d/relu_5x5 <- inception_4d/5x5
I0403 02:30:38.340239 19580 net.cpp:386] inception_4d/relu_5x5 -> inception_4d/5x5 (in-place)
I0403 02:30:38.340267 19580 net.cpp:141] Setting up inception_4d/relu_5x5
I0403 02:30:38.340289 19580 net.cpp:148] Top shape: 24 64 14 14 (301056)
I0403 02:30:38.340309 19580 net.cpp:156] Memory required for data: 1135267008
I0403 02:30:38.340328 19580 layer_factory.hpp:77] Creating layer inception_4d/pool
I0403 02:30:38.340353 19580 net.cpp:91] Creating Layer inception_4d/pool
I0403 02:30:38.340373 19580 net.cpp:425] inception_4d/pool <- inception_4c/output_inception_4c/output_0_split_3
I0403 02:30:38.340400 19580 net.cpp:399] inception_4d/pool -> inception_4d/pool
I0403 02:30:38.340476 19580 net.cpp:141] Setting up inception_4d/pool
I0403 02:30:38.340525 19580 net.cpp:148] Top shape: 24 512 14 14 (2408448)
I0403 02:30:38.340561 19580 net.cpp:156] Memory required for data: 1144900800
I0403 02:30:38.340610 19580 layer_factory.hpp:77] Creating layer inception_4d/pool_proj
I0403 02:30:38.340653 19580 net.cpp:91] Creating Layer inception_4d/pool_proj
I0403 02:30:38.340694 19580 net.cpp:425] inception_4d/pool_proj <- inception_4d/pool
I0403 02:30:38.340754 19580 net.cpp:399] inception_4d/pool_proj -> inception_4d/pool_proj
I0403 02:30:38.341291 19580 net.cpp:141] Setting up inception_4d/pool_proj
I0403 02:30:38.341325 19580 net.cpp:148] Top shape: 24 64 14 14 (301056)
I0403 02:30:38.341367 19580 net.cpp:156] Memory required for data: 1146105024
I0403 02:30:38.341404 19580 layer_factory.hpp:77] Creating layer inception_4d/relu_pool_proj
I0403 02:30:38.341459 19580 net.cpp:91] Creating Layer inception_4d/relu_pool_proj
I0403 02:30:38.341508 19580 net.cpp:425] inception_4d/relu_pool_proj <- inception_4d/pool_proj
I0403 02:30:38.341560 19580 net.cpp:386] inception_4d/relu_pool_proj -> inception_4d/pool_proj (in-place)
I0403 02:30:38.341598 19580 net.cpp:141] Setting up inception_4d/relu_pool_proj
I0403 02:30:38.341622 19580 net.cpp:148] Top shape: 24 64 14 14 (301056)
I0403 02:30:38.341662 19580 net.cpp:156] Memory required for data: 1147309248
I0403 02:30:38.341708 19580 layer_factory.hpp:77] Creating layer inception_4d/output
I0403 02:30:38.341766 19580 net.cpp:91] Creating Layer inception_4d/output
I0403 02:30:38.341790 19580 net.cpp:425] inception_4d/output <- inception_4d/1x1
I0403 02:30:38.341811 19580 net.cpp:425] inception_4d/output <- inception_4d/3x3
I0403 02:30:38.341832 19580 net.cpp:425] inception_4d/output <- inception_4d/5x5
I0403 02:30:38.341852 19580 net.cpp:425] inception_4d/output <- inception_4d/pool_proj
I0403 02:30:38.341876 19580 net.cpp:399] inception_4d/output -> inception_4d/output
I0403 02:30:38.342082 19580 net.cpp:141] Setting up inception_4d/output
I0403 02:30:38.342123 19580 net.cpp:148] Top shape: 24 528 14 14 (2483712)
I0403 02:30:38.342144 19580 net.cpp:156] Memory required for data: 1157244096
I0403 02:30:38.342164 19580 layer_factory.hpp:77] Creating layer inception_4d/output_inception_4d/output_0_split
I0403 02:30:38.342190 19580 net.cpp:91] Creating Layer inception_4d/output_inception_4d/output_0_split
I0403 02:30:38.342211 19580 net.cpp:425] inception_4d/output_inception_4d/output_0_split <- inception_4d/output
I0403 02:30:38.342237 19580 net.cpp:399] inception_4d/output_inception_4d/output_0_split -> inception_4d/output_inception_4d/output_0_split_0
I0403 02:30:38.342267 19580 net.cpp:399] inception_4d/output_inception_4d/output_0_split -> inception_4d/output_inception_4d/output_0_split_1
I0403 02:30:38.342296 19580 net.cpp:399] inception_4d/output_inception_4d/output_0_split -> inception_4d/output_inception_4d/output_0_split_2
I0403 02:30:38.342324 19580 net.cpp:399] inception_4d/output_inception_4d/output_0_split -> inception_4d/output_inception_4d/output_0_split_3
I0403 02:30:38.342351 19580 net.cpp:399] inception_4d/output_inception_4d/output_0_split -> inception_4d/output_inception_4d/output_0_split_4
I0403 02:30:38.342463 19580 net.cpp:141] Setting up inception_4d/output_inception_4d/output_0_split
I0403 02:30:38.342497 19580 net.cpp:148] Top shape: 24 528 14 14 (2483712)
I0403 02:30:38.342519 19580 net.cpp:148] Top shape: 24 528 14 14 (2483712)
I0403 02:30:38.342540 19580 net.cpp:148] Top shape: 24 528 14 14 (2483712)
I0403 02:30:38.342560 19580 net.cpp:148] Top shape: 24 528 14 14 (2483712)
I0403 02:30:38.342579 19580 net.cpp:148] Top shape: 24 528 14 14 (2483712)
I0403 02:30:38.342597 19580 net.cpp:156] Memory required for data: 1206918336
I0403 02:30:38.342615 19580 layer_factory.hpp:77] Creating layer loss2/ave_pool
I0403 02:30:38.342638 19580 net.cpp:91] Creating Layer loss2/ave_pool
I0403 02:30:38.342659 19580 net.cpp:425] loss2/ave_pool <- inception_4d/output_inception_4d/output_0_split_0
I0403 02:30:38.342692 19580 net.cpp:399] loss2/ave_pool -> loss2/ave_pool
I0403 02:30:38.342764 19580 net.cpp:141] Setting up loss2/ave_pool
I0403 02:30:38.342808 19580 net.cpp:148] Top shape: 24 528 4 4 (202752)
I0403 02:30:38.342859 19580 net.cpp:156] Memory required for data: 1207729344
I0403 02:30:38.342900 19580 layer_factory.hpp:77] Creating layer loss2/conv
I0403 02:30:38.342928 19580 net.cpp:91] Creating Layer loss2/conv
I0403 02:30:38.342978 19580 net.cpp:425] loss2/conv <- loss2/ave_pool
I0403 02:30:38.343039 19580 net.cpp:399] loss2/conv -> loss2/conv
I0403 02:30:38.344657 19580 net.cpp:141] Setting up loss2/conv
I0403 02:30:38.344693 19580 net.cpp:148] Top shape: 24 128 4 4 (49152)
I0403 02:30:38.344714 19580 net.cpp:156] Memory required for data: 1207925952
I0403 02:30:38.344737 19580 layer_factory.hpp:77] Creating layer loss2/relu_conv
I0403 02:30:38.344771 19580 net.cpp:91] Creating Layer loss2/relu_conv
I0403 02:30:38.344795 19580 net.cpp:425] loss2/relu_conv <- loss2/conv
I0403 02:30:38.344818 19580 net.cpp:386] loss2/relu_conv -> loss2/conv (in-place)
I0403 02:30:38.344846 19580 net.cpp:141] Setting up loss2/relu_conv
I0403 02:30:38.344868 19580 net.cpp:148] Top shape: 24 128 4 4 (49152)
I0403 02:30:38.344887 19580 net.cpp:156] Memory required for data: 1208122560
I0403 02:30:38.344905 19580 layer_factory.hpp:77] Creating layer loss2/fc
I0403 02:30:38.344934 19580 net.cpp:91] Creating Layer loss2/fc
I0403 02:30:38.344956 19580 net.cpp:425] loss2/fc <- loss2/conv
I0403 02:30:38.344980 19580 net.cpp:399] loss2/fc -> loss2/fc
I0403 02:30:38.365370 19580 net.cpp:141] Setting up loss2/fc
I0403 02:30:38.365423 19580 net.cpp:148] Top shape: 24 1024 (24576)
I0403 02:30:38.365447 19580 net.cpp:156] Memory required for data: 1208220864
I0403 02:30:38.365473 19580 layer_factory.hpp:77] Creating layer loss2/relu_fc
I0403 02:30:38.365499 19580 net.cpp:91] Creating Layer loss2/relu_fc
I0403 02:30:38.365522 19580 net.cpp:425] loss2/relu_fc <- loss2/fc
I0403 02:30:38.365548 19580 net.cpp:386] loss2/relu_fc -> loss2/fc (in-place)
I0403 02:30:38.365576 19580 net.cpp:141] Setting up loss2/relu_fc
I0403 02:30:38.365598 19580 net.cpp:148] Top shape: 24 1024 (24576)
I0403 02:30:38.365617 19580 net.cpp:156] Memory required for data: 1208319168
I0403 02:30:38.365643 19580 layer_factory.hpp:77] Creating layer loss2/drop_fc
I0403 02:30:38.365665 19580 net.cpp:91] Creating Layer loss2/drop_fc
I0403 02:30:38.365685 19580 net.cpp:425] loss2/drop_fc <- loss2/fc
I0403 02:30:38.365708 19580 net.cpp:386] loss2/drop_fc -> loss2/fc (in-place)
I0403 02:30:38.365772 19580 net.cpp:141] Setting up loss2/drop_fc
I0403 02:30:38.365803 19580 net.cpp:148] Top shape: 24 1024 (24576)
I0403 02:30:38.365823 19580 net.cpp:156] Memory required for data: 1208417472
I0403 02:30:38.365841 19580 layer_factory.hpp:77] Creating layer loss2/classifier_plantvillage
I0403 02:30:38.365867 19580 net.cpp:91] Creating Layer loss2/classifier_plantvillage
I0403 02:30:38.365890 19580 net.cpp:425] loss2/classifier_plantvillage <- loss2/fc
I0403 02:30:38.365939 19580 net.cpp:399] loss2/classifier_plantvillage -> loss2/classifier_plantvillage
I0403 02:30:38.366379 19580 net.cpp:141] Setting up loss2/classifier_plantvillage
I0403 02:30:38.366411 19580 net.cpp:148] Top shape: 24 38 (912)
I0403 02:30:38.366431 19580 net.cpp:156] Memory required for data: 1208421120
I0403 02:30:38.366454 19580 layer_factory.hpp:77] Creating layer loss2/classifier_plantvillage_loss2/classifier_plantvillage_0_split
I0403 02:30:38.366480 19580 net.cpp:91] Creating Layer loss2/classifier_plantvillage_loss2/classifier_plantvillage_0_split
I0403 02:30:38.366503 19580 net.cpp:425] loss2/classifier_plantvillage_loss2/classifier_plantvillage_0_split <- loss2/classifier_plantvillage
I0403 02:30:38.366525 19580 net.cpp:399] loss2/classifier_plantvillage_loss2/classifier_plantvillage_0_split -> loss2/classifier_plantvillage_loss2/classifier_plantvillage_0_split_0
I0403 02:30:38.366551 19580 net.cpp:399] loss2/classifier_plantvillage_loss2/classifier_plantvillage_0_split -> loss2/classifier_plantvillage_loss2/classifier_plantvillage_0_split_1
I0403 02:30:38.366580 19580 net.cpp:399] loss2/classifier_plantvillage_loss2/classifier_plantvillage_0_split -> loss2/classifier_plantvillage_loss2/classifier_plantvillage_0_split_2
I0403 02:30:38.366667 19580 net.cpp:141] Setting up loss2/classifier_plantvillage_loss2/classifier_plantvillage_0_split
I0403 02:30:38.366695 19580 net.cpp:148] Top shape: 24 38 (912)
I0403 02:30:38.366716 19580 net.cpp:148] Top shape: 24 38 (912)
I0403 02:30:38.366736 19580 net.cpp:148] Top shape: 24 38 (912)
I0403 02:30:38.366760 19580 net.cpp:156] Memory required for data: 1208432064
I0403 02:30:38.366780 19580 layer_factory.hpp:77] Creating layer inception_4e/1x1
I0403 02:30:38.366808 19580 net.cpp:91] Creating Layer inception_4e/1x1
I0403 02:30:38.366830 19580 net.cpp:425] inception_4e/1x1 <- inception_4d/output_inception_4d/output_0_split_1
I0403 02:30:38.366860 19580 net.cpp:399] inception_4e/1x1 -> inception_4e/1x1
I0403 02:30:38.368099 19580 net.cpp:141] Setting up inception_4e/1x1
I0403 02:30:38.368134 19580 net.cpp:148] Top shape: 24 256 14 14 (1204224)
I0403 02:30:38.368155 19580 net.cpp:156] Memory required for data: 1213248960
I0403 02:30:38.368177 19580 layer_factory.hpp:77] Creating layer inception_4e/relu_1x1
I0403 02:30:38.368202 19580 net.cpp:91] Creating Layer inception_4e/relu_1x1
I0403 02:30:38.368224 19580 net.cpp:425] inception_4e/relu_1x1 <- inception_4e/1x1
I0403 02:30:38.368247 19580 net.cpp:386] inception_4e/relu_1x1 -> inception_4e/1x1 (in-place)
I0403 02:30:38.368273 19580 net.cpp:141] Setting up inception_4e/relu_1x1
I0403 02:30:38.368320 19580 net.cpp:148] Top shape: 24 256 14 14 (1204224)
I0403 02:30:38.368341 19580 net.cpp:156] Memory required for data: 1218065856
I0403 02:30:38.368360 19580 layer_factory.hpp:77] Creating layer inception_4e/3x3_reduce
I0403 02:30:38.368387 19580 net.cpp:91] Creating Layer inception_4e/3x3_reduce
I0403 02:30:38.368412 19580 net.cpp:425] inception_4e/3x3_reduce <- inception_4d/output_inception_4d/output_0_split_2
I0403 02:30:38.368439 19580 net.cpp:399] inception_4e/3x3_reduce -> inception_4e/3x3_reduce
I0403 02:30:38.369990 19580 net.cpp:141] Setting up inception_4e/3x3_reduce
I0403 02:30:38.370029 19580 net.cpp:148] Top shape: 24 160 14 14 (752640)
I0403 02:30:38.370053 19580 net.cpp:156] Memory required for data: 1221076416
I0403 02:30:38.370077 19580 layer_factory.hpp:77] Creating layer inception_4e/relu_3x3_reduce
I0403 02:30:38.370101 19580 net.cpp:91] Creating Layer inception_4e/relu_3x3_reduce
I0403 02:30:38.370124 19580 net.cpp:425] inception_4e/relu_3x3_reduce <- inception_4e/3x3_reduce
I0403 02:30:38.370151 19580 net.cpp:386] inception_4e/relu_3x3_reduce -> inception_4e/3x3_reduce (in-place)
I0403 02:30:38.370179 19580 net.cpp:141] Setting up inception_4e/relu_3x3_reduce
I0403 02:30:38.370203 19580 net.cpp:148] Top shape: 24 160 14 14 (752640)
I0403 02:30:38.390260 19580 net.cpp:156] Memory required for data: 1224086976
I0403 02:30:38.390318 19580 layer_factory.hpp:77] Creating layer inception_4e/3x3
I0403 02:30:38.390384 19580 net.cpp:91] Creating Layer inception_4e/3x3
I0403 02:30:38.390413 19580 net.cpp:425] inception_4e/3x3 <- inception_4e/3x3_reduce
I0403 02:30:38.390465 19580 net.cpp:399] inception_4e/3x3 -> inception_4e/3x3
I0403 02:30:38.395556 19580 net.cpp:141] Setting up inception_4e/3x3
I0403 02:30:38.395598 19580 net.cpp:148] Top shape: 24 320 14 14 (1505280)
I0403 02:30:38.395622 19580 net.cpp:156] Memory required for data: 1230108096
I0403 02:30:38.395673 19580 layer_factory.hpp:77] Creating layer inception_4e/relu_3x3
I0403 02:30:38.395707 19580 net.cpp:91] Creating Layer inception_4e/relu_3x3
I0403 02:30:38.395777 19580 net.cpp:425] inception_4e/relu_3x3 <- inception_4e/3x3
I0403 02:30:38.395836 19580 net.cpp:386] inception_4e/relu_3x3 -> inception_4e/3x3 (in-place)
I0403 02:30:38.395865 19580 net.cpp:141] Setting up inception_4e/relu_3x3
I0403 02:30:38.395933 19580 net.cpp:148] Top shape: 24 320 14 14 (1505280)
I0403 02:30:38.395958 19580 net.cpp:156] Memory required for data: 1236129216
I0403 02:30:38.396019 19580 layer_factory.hpp:77] Creating layer inception_4e/5x5_reduce
I0403 02:30:38.396051 19580 net.cpp:91] Creating Layer inception_4e/5x5_reduce
I0403 02:30:38.396088 19580 net.cpp:425] inception_4e/5x5_reduce <- inception_4d/output_inception_4d/output_0_split_3
I0403 02:30:38.396117 19580 net.cpp:399] inception_4e/5x5_reduce -> inception_4e/5x5_reduce
I0403 02:30:38.397181 19580 net.cpp:141] Setting up inception_4e/5x5_reduce
I0403 02:30:38.397220 19580 net.cpp:148] Top shape: 24 32 14 14 (150528)
I0403 02:30:38.397241 19580 net.cpp:156] Memory required for data: 1236731328
I0403 02:30:38.397265 19580 layer_factory.hpp:77] Creating layer inception_4e/relu_5x5_reduce
I0403 02:30:38.397290 19580 net.cpp:91] Creating Layer inception_4e/relu_5x5_reduce
I0403 02:30:38.397311 19580 net.cpp:425] inception_4e/relu_5x5_reduce <- inception_4e/5x5_reduce
I0403 02:30:38.397338 19580 net.cpp:386] inception_4e/relu_5x5_reduce -> inception_4e/5x5_reduce (in-place)
I0403 02:30:38.397366 19580 net.cpp:141] Setting up inception_4e/relu_5x5_reduce
I0403 02:30:38.397389 19580 net.cpp:148] Top shape: 24 32 14 14 (150528)
I0403 02:30:38.397409 19580 net.cpp:156] Memory required for data: 1237333440
I0403 02:30:38.397428 19580 layer_factory.hpp:77] Creating layer inception_4e/5x5
I0403 02:30:38.397481 19580 net.cpp:91] Creating Layer inception_4e/5x5
I0403 02:30:38.397508 19580 net.cpp:425] inception_4e/5x5 <- inception_4e/5x5_reduce
I0403 02:30:38.397534 19580 net.cpp:399] inception_4e/5x5 -> inception_4e/5x5
I0403 02:30:38.398491 19580 net.cpp:141] Setting up inception_4e/5x5
I0403 02:30:38.398542 19580 net.cpp:148] Top shape: 24 128 14 14 (602112)
I0403 02:30:38.398566 19580 net.cpp:156] Memory required for data: 1239741888
I0403 02:30:38.398591 19580 layer_factory.hpp:77] Creating layer inception_4e/relu_5x5
I0403 02:30:38.398618 19580 net.cpp:91] Creating Layer inception_4e/relu_5x5
I0403 02:30:38.398643 19580 net.cpp:425] inception_4e/relu_5x5 <- inception_4e/5x5
I0403 02:30:38.398668 19580 net.cpp:386] inception_4e/relu_5x5 -> inception_4e/5x5 (in-place)
I0403 02:30:38.398694 19580 net.cpp:141] Setting up inception_4e/relu_5x5
I0403 02:30:38.398720 19580 net.cpp:148] Top shape: 24 128 14 14 (602112)
I0403 02:30:38.398738 19580 net.cpp:156] Memory required for data: 1242150336
I0403 02:30:38.398761 19580 layer_factory.hpp:77] Creating layer inception_4e/pool
I0403 02:30:38.398788 19580 net.cpp:91] Creating Layer inception_4e/pool
I0403 02:30:38.398810 19580 net.cpp:425] inception_4e/pool <- inception_4d/output_inception_4d/output_0_split_4
I0403 02:30:38.398834 19580 net.cpp:399] inception_4e/pool -> inception_4e/pool
I0403 02:30:38.398901 19580 net.cpp:141] Setting up inception_4e/pool
I0403 02:30:38.398936 19580 net.cpp:148] Top shape: 24 528 14 14 (2483712)
I0403 02:30:38.398958 19580 net.cpp:156] Memory required for data: 1252085184
I0403 02:30:38.398979 19580 layer_factory.hpp:77] Creating layer inception_4e/pool_proj
I0403 02:30:38.399009 19580 net.cpp:91] Creating Layer inception_4e/pool_proj
I0403 02:30:38.399034 19580 net.cpp:425] inception_4e/pool_proj <- inception_4e/pool
I0403 02:30:38.399067 19580 net.cpp:399] inception_4e/pool_proj -> inception_4e/pool_proj
I0403 02:30:38.399807 19580 net.cpp:141] Setting up inception_4e/pool_proj
I0403 02:30:38.399842 19580 net.cpp:148] Top shape: 24 128 14 14 (602112)
I0403 02:30:38.399863 19580 net.cpp:156] Memory required for data: 1254493632
I0403 02:30:38.399886 19580 layer_factory.hpp:77] Creating layer inception_4e/relu_pool_proj
I0403 02:30:38.399910 19580 net.cpp:91] Creating Layer inception_4e/relu_pool_proj
I0403 02:30:38.399930 19580 net.cpp:425] inception_4e/relu_pool_proj <- inception_4e/pool_proj
I0403 02:30:38.399952 19580 net.cpp:386] inception_4e/relu_pool_proj -> inception_4e/pool_proj (in-place)
I0403 02:30:38.399977 19580 net.cpp:141] Setting up inception_4e/relu_pool_proj
I0403 02:30:38.399999 19580 net.cpp:148] Top shape: 24 128 14 14 (602112)
I0403 02:30:38.400018 19580 net.cpp:156] Memory required for data: 1256902080
I0403 02:30:38.400037 19580 layer_factory.hpp:77] Creating layer inception_4e/output
I0403 02:30:38.400061 19580 net.cpp:91] Creating Layer inception_4e/output
I0403 02:30:38.400082 19580 net.cpp:425] inception_4e/output <- inception_4e/1x1
I0403 02:30:38.400102 19580 net.cpp:425] inception_4e/output <- inception_4e/3x3
I0403 02:30:38.400122 19580 net.cpp:425] inception_4e/output <- inception_4e/5x5
I0403 02:30:38.400142 19580 net.cpp:425] inception_4e/output <- inception_4e/pool_proj
I0403 02:30:38.400166 19580 net.cpp:399] inception_4e/output -> inception_4e/output
I0403 02:30:38.400215 19580 net.cpp:141] Setting up inception_4e/output
I0403 02:30:38.400244 19580 net.cpp:148] Top shape: 24 832 14 14 (3913728)
I0403 02:30:38.400262 19580 net.cpp:156] Memory required for data: 1272556992
I0403 02:30:38.400281 19580 layer_factory.hpp:77] Creating layer pool4/3x3_s2
I0403 02:30:38.400303 19580 net.cpp:91] Creating Layer pool4/3x3_s2
I0403 02:30:38.400324 19580 net.cpp:425] pool4/3x3_s2 <- inception_4e/output
I0403 02:30:38.400352 19580 net.cpp:399] pool4/3x3_s2 -> pool4/3x3_s2
I0403 02:30:38.400415 19580 net.cpp:141] Setting up pool4/3x3_s2
I0403 02:30:38.400442 19580 net.cpp:148] Top shape: 24 832 7 7 (978432)
I0403 02:30:38.400461 19580 net.cpp:156] Memory required for data: 1276470720
I0403 02:30:38.400480 19580 layer_factory.hpp:77] Creating layer pool4/3x3_s2_pool4/3x3_s2_0_split
I0403 02:30:38.400506 19580 net.cpp:91] Creating Layer pool4/3x3_s2_pool4/3x3_s2_0_split
I0403 02:30:38.400527 19580 net.cpp:425] pool4/3x3_s2_pool4/3x3_s2_0_split <- pool4/3x3_s2
I0403 02:30:38.400568 19580 net.cpp:399] pool4/3x3_s2_pool4/3x3_s2_0_split -> pool4/3x3_s2_pool4/3x3_s2_0_split_0
I0403 02:30:38.400594 19580 net.cpp:399] pool4/3x3_s2_pool4/3x3_s2_0_split -> pool4/3x3_s2_pool4/3x3_s2_0_split_1
I0403 02:30:38.400624 19580 net.cpp:399] pool4/3x3_s2_pool4/3x3_s2_0_split -> pool4/3x3_s2_pool4/3x3_s2_0_split_2
I0403 02:30:38.400651 19580 net.cpp:399] pool4/3x3_s2_pool4/3x3_s2_0_split -> pool4/3x3_s2_pool4/3x3_s2_0_split_3
I0403 02:30:38.400734 19580 net.cpp:141] Setting up pool4/3x3_s2_pool4/3x3_s2_0_split
I0403 02:30:38.400769 19580 net.cpp:148] Top shape: 24 832 7 7 (978432)
I0403 02:30:38.400792 19580 net.cpp:148] Top shape: 24 832 7 7 (978432)
I0403 02:30:38.400813 19580 net.cpp:148] Top shape: 24 832 7 7 (978432)
I0403 02:30:38.400833 19580 net.cpp:148] Top shape: 24 832 7 7 (978432)
I0403 02:30:38.400852 19580 net.cpp:156] Memory required for data: 1292125632
I0403 02:30:38.400871 19580 layer_factory.hpp:77] Creating layer inception_5a/1x1
I0403 02:30:38.400902 19580 net.cpp:91] Creating Layer inception_5a/1x1
I0403 02:30:38.400924 19580 net.cpp:425] inception_5a/1x1 <- pool4/3x3_s2_pool4/3x3_s2_0_split_0
I0403 02:30:38.400951 19580 net.cpp:399] inception_5a/1x1 -> inception_5a/1x1
I0403 02:30:38.403270 19580 net.cpp:141] Setting up inception_5a/1x1
I0403 02:30:38.403306 19580 net.cpp:148] Top shape: 24 256 7 7 (301056)
I0403 02:30:38.403326 19580 net.cpp:156] Memory required for data: 1293329856
I0403 02:30:38.403349 19580 layer_factory.hpp:77] Creating layer inception_5a/relu_1x1
I0403 02:30:38.403375 19580 net.cpp:91] Creating Layer inception_5a/relu_1x1
I0403 02:30:38.403398 19580 net.cpp:425] inception_5a/relu_1x1 <- inception_5a/1x1
I0403 02:30:38.403420 19580 net.cpp:386] inception_5a/relu_1x1 -> inception_5a/1x1 (in-place)
I0403 02:30:38.403445 19580 net.cpp:141] Setting up inception_5a/relu_1x1
I0403 02:30:38.403466 19580 net.cpp:148] Top shape: 24 256 7 7 (301056)
I0403 02:30:38.403486 19580 net.cpp:156] Memory required for data: 1294534080
I0403 02:30:38.403503 19580 layer_factory.hpp:77] Creating layer inception_5a/3x3_reduce
I0403 02:30:38.403532 19580 net.cpp:91] Creating Layer inception_5a/3x3_reduce
I0403 02:30:38.403556 19580 net.cpp:425] inception_5a/3x3_reduce <- pool4/3x3_s2_pool4/3x3_s2_0_split_1
I0403 02:30:38.403581 19580 net.cpp:399] inception_5a/3x3_reduce -> inception_5a/3x3_reduce
I0403 02:30:38.405380 19580 net.cpp:141] Setting up inception_5a/3x3_reduce
I0403 02:30:38.405416 19580 net.cpp:148] Top shape: 24 160 7 7 (188160)
I0403 02:30:38.405434 19580 net.cpp:156] Memory required for data: 1295286720
I0403 02:30:38.405457 19580 layer_factory.hpp:77] Creating layer inception_5a/relu_3x3_reduce
I0403 02:30:38.405480 19580 net.cpp:91] Creating Layer inception_5a/relu_3x3_reduce
I0403 02:30:38.405501 19580 net.cpp:425] inception_5a/relu_3x3_reduce <- inception_5a/3x3_reduce
I0403 02:30:38.405527 19580 net.cpp:386] inception_5a/relu_3x3_reduce -> inception_5a/3x3_reduce (in-place)
I0403 02:30:38.405552 19580 net.cpp:141] Setting up inception_5a/relu_3x3_reduce
I0403 02:30:38.405575 19580 net.cpp:148] Top shape: 24 160 7 7 (188160)
I0403 02:30:38.405594 19580 net.cpp:156] Memory required for data: 1296039360
I0403 02:30:38.405612 19580 layer_factory.hpp:77] Creating layer inception_5a/3x3
I0403 02:30:38.405642 19580 net.cpp:91] Creating Layer inception_5a/3x3
I0403 02:30:38.405664 19580 net.cpp:425] inception_5a/3x3 <- inception_5a/3x3_reduce
I0403 02:30:38.405689 19580 net.cpp:399] inception_5a/3x3 -> inception_5a/3x3
I0403 02:30:38.410378 19580 net.cpp:141] Setting up inception_5a/3x3
I0403 02:30:38.410418 19580 net.cpp:148] Top shape: 24 320 7 7 (376320)
I0403 02:30:38.410440 19580 net.cpp:156] Memory required for data: 1297544640
I0403 02:30:38.410464 19580 layer_factory.hpp:77] Creating layer inception_5a/relu_3x3
I0403 02:30:38.410488 19580 net.cpp:91] Creating Layer inception_5a/relu_3x3
I0403 02:30:38.410509 19580 net.cpp:425] inception_5a/relu_3x3 <- inception_5a/3x3
I0403 02:30:38.410536 19580 net.cpp:386] inception_5a/relu_3x3 -> inception_5a/3x3 (in-place)
I0403 02:30:38.410579 19580 net.cpp:141] Setting up inception_5a/relu_3x3
I0403 02:30:38.410604 19580 net.cpp:148] Top shape: 24 320 7 7 (376320)
I0403 02:30:38.410621 19580 net.cpp:156] Memory required for data: 1299049920
I0403 02:30:38.410640 19580 layer_factory.hpp:77] Creating layer inception_5a/5x5_reduce
I0403 02:30:38.410670 19580 net.cpp:91] Creating Layer inception_5a/5x5_reduce
I0403 02:30:38.410693 19580 net.cpp:425] inception_5a/5x5_reduce <- pool4/3x3_s2_pool4/3x3_s2_0_split_2
I0403 02:30:38.410719 19580 net.cpp:399] inception_5a/5x5_reduce -> inception_5a/5x5_reduce
I0403 02:30:38.411186 19580 net.cpp:141] Setting up inception_5a/5x5_reduce
I0403 02:30:38.411221 19580 net.cpp:148] Top shape: 24 32 7 7 (37632)
I0403 02:30:38.411240 19580 net.cpp:156] Memory required for data: 1299200448
I0403 02:30:38.411264 19580 layer_factory.hpp:77] Creating layer inception_5a/relu_5x5_reduce
I0403 02:30:38.411288 19580 net.cpp:91] Creating Layer inception_5a/relu_5x5_reduce
I0403 02:30:38.411308 19580 net.cpp:425] inception_5a/relu_5x5_reduce <- inception_5a/5x5_reduce
I0403 02:30:38.411334 19580 net.cpp:386] inception_5a/relu_5x5_reduce -> inception_5a/5x5_reduce (in-place)
I0403 02:30:38.411358 19580 net.cpp:141] Setting up inception_5a/relu_5x5_reduce
I0403 02:30:38.411381 19580 net.cpp:148] Top shape: 24 32 7 7 (37632)
I0403 02:30:38.411399 19580 net.cpp:156] Memory required for data: 1299350976
I0403 02:30:38.411417 19580 layer_factory.hpp:77] Creating layer inception_5a/5x5
I0403 02:30:38.411445 19580 net.cpp:91] Creating Layer inception_5a/5x5
I0403 02:30:38.411468 19580 net.cpp:425] inception_5a/5x5 <- inception_5a/5x5_reduce
I0403 02:30:38.411491 19580 net.cpp:399] inception_5a/5x5 -> inception_5a/5x5
I0403 02:30:38.412456 19580 net.cpp:141] Setting up inception_5a/5x5
I0403 02:30:38.412490 19580 net.cpp:148] Top shape: 24 128 7 7 (150528)
I0403 02:30:38.412510 19580 net.cpp:156] Memory required for data: 1299953088
I0403 02:30:38.412533 19580 layer_factory.hpp:77] Creating layer inception_5a/relu_5x5
I0403 02:30:38.412555 19580 net.cpp:91] Creating Layer inception_5a/relu_5x5
I0403 02:30:38.412576 19580 net.cpp:425] inception_5a/relu_5x5 <- inception_5a/5x5
I0403 02:30:38.412598 19580 net.cpp:386] inception_5a/relu_5x5 -> inception_5a/5x5 (in-place)
I0403 02:30:38.412623 19580 net.cpp:141] Setting up inception_5a/relu_5x5
I0403 02:30:38.412647 19580 net.cpp:148] Top shape: 24 128 7 7 (150528)
I0403 02:30:38.412665 19580 net.cpp:156] Memory required for data: 1300555200
I0403 02:30:38.412683 19580 layer_factory.hpp:77] Creating layer inception_5a/pool
I0403 02:30:38.412708 19580 net.cpp:91] Creating Layer inception_5a/pool
I0403 02:30:38.412729 19580 net.cpp:425] inception_5a/pool <- pool4/3x3_s2_pool4/3x3_s2_0_split_3
I0403 02:30:38.412756 19580 net.cpp:399] inception_5a/pool -> inception_5a/pool
I0403 02:30:38.412824 19580 net.cpp:141] Setting up inception_5a/pool
I0403 02:30:38.412853 19580 net.cpp:148] Top shape: 24 832 7 7 (978432)
I0403 02:30:38.412871 19580 net.cpp:156] Memory required for data: 1304468928
I0403 02:30:38.412889 19580 layer_factory.hpp:77] Creating layer inception_5a/pool_proj
I0403 02:30:38.412919 19580 net.cpp:91] Creating Layer inception_5a/pool_proj
I0403 02:30:38.412940 19580 net.cpp:425] inception_5a/pool_proj <- inception_5a/pool
I0403 02:30:38.412966 19580 net.cpp:399] inception_5a/pool_proj -> inception_5a/pool_proj
I0403 02:30:38.414566 19580 net.cpp:141] Setting up inception_5a/pool_proj
I0403 02:30:38.414602 19580 net.cpp:148] Top shape: 24 128 7 7 (150528)
I0403 02:30:38.414621 19580 net.cpp:156] Memory required for data: 1305071040
I0403 02:30:38.414644 19580 layer_factory.hpp:77] Creating layer inception_5a/relu_pool_proj
I0403 02:30:38.414667 19580 net.cpp:91] Creating Layer inception_5a/relu_pool_proj
I0403 02:30:38.414687 19580 net.cpp:425] inception_5a/relu_pool_proj <- inception_5a/pool_proj
I0403 02:30:38.414710 19580 net.cpp:386] inception_5a/relu_pool_proj -> inception_5a/pool_proj (in-place)
I0403 02:30:38.414738 19580 net.cpp:141] Setting up inception_5a/relu_pool_proj
I0403 02:30:38.414783 19580 net.cpp:148] Top shape: 24 128 7 7 (150528)
I0403 02:30:38.414804 19580 net.cpp:156] Memory required for data: 1305673152
I0403 02:30:38.414822 19580 layer_factory.hpp:77] Creating layer inception_5a/output
I0403 02:30:38.414845 19580 net.cpp:91] Creating Layer inception_5a/output
I0403 02:30:38.414866 19580 net.cpp:425] inception_5a/output <- inception_5a/1x1
I0403 02:30:38.414888 19580 net.cpp:425] inception_5a/output <- inception_5a/3x3
I0403 02:30:38.414907 19580 net.cpp:425] inception_5a/output <- inception_5a/5x5
I0403 02:30:38.414927 19580 net.cpp:425] inception_5a/output <- inception_5a/pool_proj
I0403 02:30:38.414950 19580 net.cpp:399] inception_5a/output -> inception_5a/output
I0403 02:30:38.415000 19580 net.cpp:141] Setting up inception_5a/output
I0403 02:30:38.415029 19580 net.cpp:148] Top shape: 24 832 7 7 (978432)
I0403 02:30:38.415046 19580 net.cpp:156] Memory required for data: 1309586880
I0403 02:30:38.415065 19580 layer_factory.hpp:77] Creating layer inception_5a/output_inception_5a/output_0_split
I0403 02:30:38.415096 19580 net.cpp:91] Creating Layer inception_5a/output_inception_5a/output_0_split
I0403 02:30:38.415117 19580 net.cpp:425] inception_5a/output_inception_5a/output_0_split <- inception_5a/output
I0403 02:30:38.415165 19580 net.cpp:399] inception_5a/output_inception_5a/output_0_split -> inception_5a/output_inception_5a/output_0_split_0
I0403 02:30:38.415195 19580 net.cpp:399] inception_5a/output_inception_5a/output_0_split -> inception_5a/output_inception_5a/output_0_split_1
I0403 02:30:38.415231 19580 net.cpp:399] inception_5a/output_inception_5a/output_0_split -> inception_5a/output_inception_5a/output_0_split_2
I0403 02:30:38.415285 19580 net.cpp:399] inception_5a/output_inception_5a/output_0_split -> inception_5a/output_inception_5a/output_0_split_3
I0403 02:30:38.415395 19580 net.cpp:141] Setting up inception_5a/output_inception_5a/output_0_split
I0403 02:30:38.415467 19580 net.cpp:148] Top shape: 24 832 7 7 (978432)
I0403 02:30:38.415558 19580 net.cpp:148] Top shape: 24 832 7 7 (978432)
I0403 02:30:38.415619 19580 net.cpp:148] Top shape: 24 832 7 7 (978432)
I0403 02:30:38.415686 19580 net.cpp:148] Top shape: 24 832 7 7 (978432)
I0403 02:30:38.415705 19580 net.cpp:156] Memory required for data: 1325241792
I0403 02:30:38.415722 19580 layer_factory.hpp:77] Creating layer inception_5b/1x1
I0403 02:30:38.415755 19580 net.cpp:91] Creating Layer inception_5b/1x1
I0403 02:30:38.415778 19580 net.cpp:425] inception_5b/1x1 <- inception_5a/output_inception_5a/output_0_split_0
I0403 02:30:38.415803 19580 net.cpp:399] inception_5b/1x1 -> inception_5b/1x1
I0403 02:30:38.418956 19580 net.cpp:141] Setting up inception_5b/1x1
I0403 02:30:38.418993 19580 net.cpp:148] Top shape: 24 384 7 7 (451584)
I0403 02:30:38.419013 19580 net.cpp:156] Memory required for data: 1327048128
I0403 02:30:38.419036 19580 layer_factory.hpp:77] Creating layer inception_5b/relu_1x1
I0403 02:30:38.419060 19580 net.cpp:91] Creating Layer inception_5b/relu_1x1
I0403 02:30:38.419081 19580 net.cpp:425] inception_5b/relu_1x1 <- inception_5b/1x1
I0403 02:30:38.419106 19580 net.cpp:386] inception_5b/relu_1x1 -> inception_5b/1x1 (in-place)
I0403 02:30:38.419131 19580 net.cpp:141] Setting up inception_5b/relu_1x1
I0403 02:30:38.419152 19580 net.cpp:148] Top shape: 24 384 7 7 (451584)
I0403 02:30:38.419169 19580 net.cpp:156] Memory required for data: 1328854464
I0403 02:30:38.419186 19580 layer_factory.hpp:77] Creating layer inception_5b/3x3_reduce
I0403 02:30:38.419215 19580 net.cpp:91] Creating Layer inception_5b/3x3_reduce
I0403 02:30:38.419239 19580 net.cpp:425] inception_5b/3x3_reduce <- inception_5a/output_inception_5a/output_0_split_1
I0403 02:30:38.419262 19580 net.cpp:399] inception_5b/3x3_reduce -> inception_5b/3x3_reduce
I0403 02:30:38.421236 19580 net.cpp:141] Setting up inception_5b/3x3_reduce
I0403 02:30:38.421272 19580 net.cpp:148] Top shape: 24 192 7 7 (225792)
I0403 02:30:38.421293 19580 net.cpp:156] Memory required for data: 1329757632
I0403 02:30:38.421316 19580 layer_factory.hpp:77] Creating layer inception_5b/relu_3x3_reduce
I0403 02:30:38.421382 19580 net.cpp:91] Creating Layer inception_5b/relu_3x3_reduce
I0403 02:30:38.421432 19580 net.cpp:425] inception_5b/relu_3x3_reduce <- inception_5b/3x3_reduce
I0403 02:30:38.421481 19580 net.cpp:386] inception_5b/relu_3x3_reduce -> inception_5b/3x3_reduce (in-place)
I0403 02:30:38.421525 19580 net.cpp:141] Setting up inception_5b/relu_3x3_reduce
I0403 02:30:38.421557 19580 net.cpp:148] Top shape: 24 192 7 7 (225792)
I0403 02:30:38.421584 19580 net.cpp:156] Memory required for data: 1330660800
I0403 02:30:38.421635 19580 layer_factory.hpp:77] Creating layer inception_5b/3x3
I0403 02:30:38.421686 19580 net.cpp:91] Creating Layer inception_5b/3x3
I0403 02:30:38.421720 19580 net.cpp:425] inception_5b/3x3 <- inception_5b/3x3_reduce
I0403 02:30:38.421759 19580 net.cpp:399] inception_5b/3x3 -> inception_5b/3x3
I0403 02:30:38.428371 19580 net.cpp:141] Setting up inception_5b/3x3
I0403 02:30:38.428411 19580 net.cpp:148] Top shape: 24 384 7 7 (451584)
I0403 02:30:38.428431 19580 net.cpp:156] Memory required for data: 1332467136
I0403 02:30:38.428455 19580 layer_factory.hpp:77] Creating layer inception_5b/relu_3x3
I0403 02:30:38.428480 19580 net.cpp:91] Creating Layer inception_5b/relu_3x3
I0403 02:30:38.428503 19580 net.cpp:425] inception_5b/relu_3x3 <- inception_5b/3x3
I0403 02:30:38.428526 19580 net.cpp:386] inception_5b/relu_3x3 -> inception_5b/3x3 (in-place)
I0403 02:30:38.428553 19580 net.cpp:141] Setting up inception_5b/relu_3x3
I0403 02:30:38.428576 19580 net.cpp:148] Top shape: 24 384 7 7 (451584)
I0403 02:30:38.428596 19580 net.cpp:156] Memory required for data: 1334273472
I0403 02:30:38.428616 19580 layer_factory.hpp:77] Creating layer inception_5b/5x5_reduce
I0403 02:30:38.428644 19580 net.cpp:91] Creating Layer inception_5b/5x5_reduce
I0403 02:30:38.428669 19580 net.cpp:425] inception_5b/5x5_reduce <- inception_5a/output_inception_5a/output_0_split_2
I0403 02:30:38.428697 19580 net.cpp:399] inception_5b/5x5_reduce -> inception_5b/5x5_reduce
I0403 02:30:38.429889 19580 net.cpp:141] Setting up inception_5b/5x5_reduce
I0403 02:30:38.443557 19580 net.cpp:148] Top shape: 24 48 7 7 (56448)
I0403 02:30:38.443605 19580 net.cpp:156] Memory required for data: 1334499264
I0403 02:30:38.443650 19580 layer_factory.hpp:77] Creating layer inception_5b/relu_5x5_reduce
I0403 02:30:38.443686 19580 net.cpp:91] Creating Layer inception_5b/relu_5x5_reduce
I0403 02:30:38.443765 19580 net.cpp:425] inception_5b/relu_5x5_reduce <- inception_5b/5x5_reduce
I0403 02:30:38.443805 19580 net.cpp:386] inception_5b/relu_5x5_reduce -> inception_5b/5x5_reduce (in-place)
I0403 02:30:38.443843 19580 net.cpp:141] Setting up inception_5b/relu_5x5_reduce
I0403 02:30:38.443877 19580 net.cpp:148] Top shape: 24 48 7 7 (56448)
I0403 02:30:38.443900 19580 net.cpp:156] Memory required for data: 1334725056
I0403 02:30:38.443938 19580 layer_factory.hpp:77] Creating layer inception_5b/5x5
I0403 02:30:38.443990 19580 net.cpp:91] Creating Layer inception_5b/5x5
I0403 02:30:38.444015 19580 net.cpp:425] inception_5b/5x5 <- inception_5b/5x5_reduce
I0403 02:30:38.444069 19580 net.cpp:399] inception_5b/5x5 -> inception_5b/5x5
I0403 02:30:38.445405 19580 net.cpp:141] Setting up inception_5b/5x5
I0403 02:30:38.445438 19580 net.cpp:148] Top shape: 24 128 7 7 (150528)
I0403 02:30:38.445458 19580 net.cpp:156] Memory required for data: 1335327168
I0403 02:30:38.445480 19580 layer_factory.hpp:77] Creating layer inception_5b/relu_5x5
I0403 02:30:38.445505 19580 net.cpp:91] Creating Layer inception_5b/relu_5x5
I0403 02:30:38.445528 19580 net.cpp:425] inception_5b/relu_5x5 <- inception_5b/5x5
I0403 02:30:38.445554 19580 net.cpp:386] inception_5b/relu_5x5 -> inception_5b/5x5 (in-place)
I0403 02:30:38.445582 19580 net.cpp:141] Setting up inception_5b/relu_5x5
I0403 02:30:38.445607 19580 net.cpp:148] Top shape: 24 128 7 7 (150528)
I0403 02:30:38.445626 19580 net.cpp:156] Memory required for data: 1335929280
I0403 02:30:38.445644 19580 layer_factory.hpp:77] Creating layer inception_5b/pool
I0403 02:30:38.445667 19580 net.cpp:91] Creating Layer inception_5b/pool
I0403 02:30:38.445710 19580 net.cpp:425] inception_5b/pool <- inception_5a/output_inception_5a/output_0_split_3
I0403 02:30:38.445742 19580 net.cpp:399] inception_5b/pool -> inception_5b/pool
I0403 02:30:38.445821 19580 net.cpp:141] Setting up inception_5b/pool
I0403 02:30:38.445857 19580 net.cpp:148] Top shape: 24 832 7 7 (978432)
I0403 02:30:38.445876 19580 net.cpp:156] Memory required for data: 1339843008
I0403 02:30:38.445894 19580 layer_factory.hpp:77] Creating layer inception_5b/pool_proj
I0403 02:30:38.445920 19580 net.cpp:91] Creating Layer inception_5b/pool_proj
I0403 02:30:38.445946 19580 net.cpp:425] inception_5b/pool_proj <- inception_5b/pool
I0403 02:30:38.445974 19580 net.cpp:399] inception_5b/pool_proj -> inception_5b/pool_proj
I0403 02:30:38.447620 19580 net.cpp:141] Setting up inception_5b/pool_proj
I0403 02:30:38.447656 19580 net.cpp:148] Top shape: 24 128 7 7 (150528)
I0403 02:30:38.447679 19580 net.cpp:156] Memory required for data: 1340445120
I0403 02:30:38.447705 19580 layer_factory.hpp:77] Creating layer inception_5b/relu_pool_proj
I0403 02:30:38.447733 19580 net.cpp:91] Creating Layer inception_5b/relu_pool_proj
I0403 02:30:38.447775 19580 net.cpp:425] inception_5b/relu_pool_proj <- inception_5b/pool_proj
I0403 02:30:38.447818 19580 net.cpp:386] inception_5b/relu_pool_proj -> inception_5b/pool_proj (in-place)
I0403 02:30:38.447865 19580 net.cpp:141] Setting up inception_5b/relu_pool_proj
I0403 02:30:38.447906 19580 net.cpp:148] Top shape: 24 128 7 7 (150528)
I0403 02:30:38.447937 19580 net.cpp:156] Memory required for data: 1341047232
I0403 02:30:38.447993 19580 layer_factory.hpp:77] Creating layer inception_5b/output
I0403 02:30:38.448024 19580 net.cpp:91] Creating Layer inception_5b/output
I0403 02:30:38.448060 19580 net.cpp:425] inception_5b/output <- inception_5b/1x1
I0403 02:30:38.448081 19580 net.cpp:425] inception_5b/output <- inception_5b/3x3
I0403 02:30:38.448102 19580 net.cpp:425] inception_5b/output <- inception_5b/5x5
I0403 02:30:38.448125 19580 net.cpp:425] inception_5b/output <- inception_5b/pool_proj
I0403 02:30:38.448149 19580 net.cpp:399] inception_5b/output -> inception_5b/output
I0403 02:30:38.448196 19580 net.cpp:141] Setting up inception_5b/output
I0403 02:30:38.448230 19580 net.cpp:148] Top shape: 24 1024 7 7 (1204224)
I0403 02:30:38.448251 19580 net.cpp:156] Memory required for data: 1345864128
I0403 02:30:38.448271 19580 layer_factory.hpp:77] Creating layer pool5/7x7_s1
I0403 02:30:38.448293 19580 net.cpp:91] Creating Layer pool5/7x7_s1
I0403 02:30:38.448314 19580 net.cpp:425] pool5/7x7_s1 <- inception_5b/output
I0403 02:30:38.448341 19580 net.cpp:399] pool5/7x7_s1 -> pool5/7x7_s1
I0403 02:30:38.448390 19580 net.cpp:141] Setting up pool5/7x7_s1
I0403 02:30:38.448421 19580 net.cpp:148] Top shape: 24 1024 1 1 (24576)
I0403 02:30:38.448439 19580 net.cpp:156] Memory required for data: 1345962432
I0403 02:30:38.448458 19580 layer_factory.hpp:77] Creating layer pool5/drop_7x7_s1
I0403 02:30:38.448487 19580 net.cpp:91] Creating Layer pool5/drop_7x7_s1
I0403 02:30:38.448506 19580 net.cpp:425] pool5/drop_7x7_s1 <- pool5/7x7_s1
I0403 02:30:38.448531 19580 net.cpp:386] pool5/drop_7x7_s1 -> pool5/7x7_s1 (in-place)
I0403 02:30:38.448580 19580 net.cpp:141] Setting up pool5/drop_7x7_s1
I0403 02:30:38.448607 19580 net.cpp:148] Top shape: 24 1024 1 1 (24576)
I0403 02:30:38.448626 19580 net.cpp:156] Memory required for data: 1346060736
I0403 02:30:38.448644 19580 layer_factory.hpp:77] Creating layer loss3/classifier_plantvillage
I0403 02:30:38.448673 19580 net.cpp:91] Creating Layer loss3/classifier_plantvillage
I0403 02:30:38.448693 19580 net.cpp:425] loss3/classifier_plantvillage <- pool5/7x7_s1
I0403 02:30:38.448719 19580 net.cpp:399] loss3/classifier_plantvillage -> loss3/classifier_plantvillage
I0403 02:30:38.449136 19580 net.cpp:141] Setting up loss3/classifier_plantvillage
I0403 02:30:38.449184 19580 net.cpp:148] Top shape: 24 38 (912)
I0403 02:30:38.449215 19580 net.cpp:156] Memory required for data: 1346064384
I0403 02:30:38.449252 19580 layer_factory.hpp:77] Creating layer loss3/classifier_plantvillage_loss3/classifier_plantvillage_0_split
I0403 02:30:38.449317 19580 net.cpp:91] Creating Layer loss3/classifier_plantvillage_loss3/classifier_plantvillage_0_split
I0403 02:30:38.449359 19580 net.cpp:425] loss3/classifier_plantvillage_loss3/classifier_plantvillage_0_split <- loss3/classifier_plantvillage
I0403 02:30:38.449409 19580 net.cpp:399] loss3/classifier_plantvillage_loss3/classifier_plantvillage_0_split -> loss3/classifier_plantvillage_loss3/classifier_plantvillage_0_split_0
I0403 02:30:38.449436 19580 net.cpp:399] loss3/classifier_plantvillage_loss3/classifier_plantvillage_0_split -> loss3/classifier_plantvillage_loss3/classifier_plantvillage_0_split_1
I0403 02:30:38.449463 19580 net.cpp:399] loss3/classifier_plantvillage_loss3/classifier_plantvillage_0_split -> loss3/classifier_plantvillage_loss3/classifier_plantvillage_0_split_2
I0403 02:30:38.449543 19580 net.cpp:141] Setting up loss3/classifier_plantvillage_loss3/classifier_plantvillage_0_split
I0403 02:30:38.449573 19580 net.cpp:148] Top shape: 24 38 (912)
I0403 02:30:38.449594 19580 net.cpp:148] Top shape: 24 38 (912)
I0403 02:30:38.449615 19580 net.cpp:148] Top shape: 24 38 (912)
I0403 02:30:38.449632 19580 net.cpp:156] Memory required for data: 1346075328
I0403 02:30:38.449651 19580 layer_factory.hpp:77] Creating layer loss1/loss
I0403 02:30:38.449676 19580 net.cpp:91] Creating Layer loss1/loss
I0403 02:30:38.449697 19580 net.cpp:425] loss1/loss <- loss1/classifier_plantvillage_loss1/classifier_plantvillage_0_split_0
I0403 02:30:38.449718 19580 net.cpp:425] loss1/loss <- label_data_1_split_0
…
