…
I0403 05:25:21.418532  8733 net.cpp:313] The NetState phase (0) differed from the phase (1) specified by a rule in layer accuracy
I0403 05:25:21.419170  8733 net.cpp:49] Initializing net from parameters: 
state {
  phase: TRAIN
}
layer {
  name: "data"
  type: "Data"
  top: "data"
  top: "label"
  include {
    phase: TRAIN
  }
  transform_param {
    mirror: true
    crop_size: 227
    mean_file: "/home/mohanty/data/final_dataset/lmdb/segmented-20-80/mean.binaryproto"
  }
  data_param {
    source: "/home/mohanty/data/final_dataset/lmdb/segmented-20-80/train_db"
    batch_size: 100
    backend: LMDB
  }
}
layer {
  name: "conv1"
  type: "Convolution"
  bottom: "data"
  top: "conv1"
  param {
    lr_mult: 1
    decay_mult: 1
  }
  param {
    lr_mult: 2
    decay_mult: 0
  }
  convolution_param {
    num_output: 96
    kernel_size: 11
    stride: 4
    weight_filler {
      type: "gaussian"
      std: 0.01
    }
    bias_filler {
      type: "constant"
      value: 0
    }
  }
}
layer {
  name: "relu1"
  type: "ReLU"
  bottom: "conv1"
  top: "conv1"
}
layer {
  name: "norm1"
  type: "LRN"
  bottom: "conv1"
  top: "norm1"
  lrn_param {
    local_size: 5
    alpha: 0.0001
    beta: 0.75
  }
}
layer {
  name: "pool1"
  type: "Pooling"
  bottom: "norm1"
  top: "pool1"
  pooling_param {
    pool: MAX
    kernel_size: 3
    stride: 2
  }
}
layer {
  name: "conv2"
  type: "Convolution"
  bottom: "pool1"
  top: "conv2"
  param {
    lr_mult: 1
    decay_mult: 1
  }
  param {
    lr_mult: 2
    decay_mult: 0
  }
  convolution_param {
    num_output: 256
    pad: 2
    kernel_size: 5
    group: 2
    weight_filler {
      type: "gaussian"
      std: 0.01
    }
    bias_filler {
      type: "constant"
      value: 0.1
    }
  }
}
layer {
  name: "relu2"
  type: "ReLU"
  bottom: "conv2"
  top: "conv2"
}
layer {
  name: "norm2"
  type: "LRN"
  bottom: "conv2"
  top: "norm2"
  lrn_param {
    local_size: 5
    alpha: 0.0001
    beta: 0.75
  }
}
layer {
  name: "pool2"
  type: "Pooling"
  bottom: "norm2"
  top: "pool2"
  pooling_param {
    pool: MAX
    kernel_size: 3
    stride: 2
  }
}
layer {
  name: "conv3"
  type: "Convolution"
  bottom: "pool2"
  top: "conv3"
  param {
    lr_mult: 1
    decay_mult: 1
  }
  param {
    lr_mult: 2
    decay_mult: 0
  }
  convolution_param {
    num_output: 384
    pad: 1
    kernel_size: 3
    weight_filler {
      type: "gaussian"
      std: 0.01
    }
    bias_filler {
      type: "constant"
      value: 0
    }
  }
}
layer {
  name: "relu3"
  type: "ReLU"
  bottom: "conv3"
  top: "conv3"
}
layer {
  name: "conv4"
  type: "Convolution"
  bottom: "conv3"
  top: "conv4"
  param {
    lr_mult: 1
    decay_mult: 1
  }
  param {
    lr_mult: 2
    decay_mult: 0
  }
  convolution_param {
    num_output: 384
    pad: 1
    kernel_size: 3
    group: 2
    weight_filler {
      type: "gaussian"
      std: 0.01
    }
    bias_filler {
      type: "constant"
      value: 0.1
    }
  }
}
layer {
  name: "relu4"
  type: "ReLU"
  bottom: "conv4"
  top: "conv4"
}
layer {
  name: "conv5"
  type: "Convolution"
  bottom: "conv4"
  top: "conv5"
  param {
    lr_mult: 1
    decay_mult: 1
  }
  param {
    lr_mult: 2
    decay_mult: 0
  }
  convolution_param {
    num_output: 256
    pad: 1
    kernel_size: 3
    group: 2
    weight_filler {
      type: "gaussian"
      std: 0.01
    }
    bias_filler {
      type: "constant"
      value: 0.1
    }
  }
}
layer {
  name: "relu5"
  type: "ReLU"
  bottom: "conv5"
  top: "conv5"
}
layer {
  name: "pool5"
  type: "Pooling"
  bottom: "conv5"
  top: "pool5"
  pooling_param {
    pool: MAX
    kernel_size: 3
    stride: 2
  }
}
layer {
  name: "fc6"
  type: "InnerProduct"
  bottom: "pool5"
  top: "fc6"
  param {
    lr_mult: 1
    decay_mult: 1
  }
  param {
    lr_mult: 2
    decay_mult: 0
  }
  inner_product_param {
    num_output: 4096
    weight_filler {
      type: "gaussian"
      std: 0.005
    }
    bias_filler {
      type: "constant"
      value: 0.1
    }
  }
}
layer {
  name: "relu6"
  type: "ReLU"
  bottom: "fc6"
  top: "fc6"
}
layer {
  name: "drop6"
  type: "Dropout"
  bottom: "fc6"
  top: "fc6"
  dropout_param {
    dropout_ratio: 0.5
  }
}
layer {
  name: "fc7"
  type: "InnerProduct"
  bottom: "fc6"
  top: "fc7"
  param {
    lr_mult: 1
    decay_mult: 1
  }
  param {
    lr_mult: 2
    decay_mult: 0
  }
  inner_product_param {
    num_output: 4096
    weight_filler {
      type: "gaussian"
      std: 0.005
    }
    bias_filler {
      type: "constant"
      value: 0.1
    }
  }
}
layer {
  name: "relu7"
  type: "ReLU"
  bottom: "fc7"
  top: "fc7"
}
layer {
  name: "drop7"
  type: "Dropout"
  bottom: "fc7"
  top: "fc7"
  dropout_param {
    dropout_ratio: 0.5
  }
}
layer {
  name: "fc8_plantvillage"
  type: "InnerProduct"
  bottom: "fc7"
  top: "fc8_plantvillage"
  param {
    lr_mult: 1
    decay_mult: 1
  }
  param {
    lr_mult: 2
    decay_mult: 0
  }
  inner_product_param {
    num_output: 38
    weight_filler {
      type: "gaussian"
      std: 0.01
    }
    bias_filler {
      type: "constant"
      value: 0
    }
  }
}
layer {
  name: "loss"
  type: "SoftmaxWithLoss"
  bottom: "fc8_plantvillage"
  bottom: "label"
  top: "loss"
}
I0403 05:25:21.419672  8733 layer_factory.hpp:77] Creating layer data
I0403 05:25:21.420303  8733 net.cpp:91] Creating Layer data
I0403 05:25:21.420341  8733 net.cpp:399] data -> data
I0403 05:25:21.420389  8733 net.cpp:399] data -> label
I0403 05:25:21.420423  8733 data_transformer.cpp:25] Loading mean file from: /home/mohanty/data/final_dataset/lmdb/segmented-20-80/mean.binaryproto
I0403 05:25:21.478169  8736 db_lmdb.cpp:38] Opened lmdb /home/mohanty/data/final_dataset/lmdb/segmented-20-80/train_db
I0403 05:25:21.481941  8733 data_layer.cpp:41] output data size: 100,3,227,227
I0403 05:25:21.599614  8733 net.cpp:141] Setting up data
I0403 05:25:21.599700  8733 net.cpp:148] Top shape: 100 3 227 227 (15458700)
I0403 05:25:21.599722  8733 net.cpp:148] Top shape: 100 (100)
I0403 05:25:21.599738  8733 net.cpp:156] Memory required for data: 61835200
I0403 05:25:21.599768  8733 layer_factory.hpp:77] Creating layer conv1
I0403 05:25:21.599812  8733 net.cpp:91] Creating Layer conv1
I0403 05:25:21.599833  8733 net.cpp:425] conv1 <- data
I0403 05:25:21.599864  8733 net.cpp:399] conv1 -> conv1
I0403 05:25:21.602457  8733 net.cpp:141] Setting up conv1
I0403 05:25:21.602486  8733 net.cpp:148] Top shape: 100 96 55 55 (29040000)
I0403 05:25:21.602502  8733 net.cpp:156] Memory required for data: 177995200
I0403 05:25:21.602537  8733 layer_factory.hpp:77] Creating layer relu1
I0403 05:25:21.602563  8733 net.cpp:91] Creating Layer relu1
I0403 05:25:21.602581  8733 net.cpp:425] relu1 <- conv1
I0403 05:25:21.602601  8733 net.cpp:386] relu1 -> conv1 (in-place)
I0403 05:25:21.602623  8733 net.cpp:141] Setting up relu1
I0403 05:25:21.602643  8733 net.cpp:148] Top shape: 100 96 55 55 (29040000)
I0403 05:25:21.602658  8733 net.cpp:156] Memory required for data: 294155200
I0403 05:25:21.602672  8733 layer_factory.hpp:77] Creating layer norm1
I0403 05:25:21.602731  8733 net.cpp:91] Creating Layer norm1
I0403 05:25:21.602749  8733 net.cpp:425] norm1 <- conv1
I0403 05:25:21.602767  8733 net.cpp:399] norm1 -> norm1
I0403 05:25:21.608458  8733 net.cpp:141] Setting up norm1
I0403 05:25:21.608492  8733 net.cpp:148] Top shape: 100 96 55 55 (29040000)
I0403 05:25:21.608510  8733 net.cpp:156] Memory required for data: 410315200
I0403 05:25:21.608526  8733 layer_factory.hpp:77] Creating layer pool1
I0403 05:25:21.608547  8733 net.cpp:91] Creating Layer pool1
I0403 05:25:21.608564  8733 net.cpp:425] pool1 <- norm1
I0403 05:25:21.608583  8733 net.cpp:399] pool1 -> pool1
I0403 05:25:21.608644  8733 net.cpp:141] Setting up pool1
I0403 05:25:21.608669  8733 net.cpp:148] Top shape: 100 96 27 27 (6998400)
I0403 05:25:21.608685  8733 net.cpp:156] Memory required for data: 438308800
I0403 05:25:21.608700  8733 layer_factory.hpp:77] Creating layer conv2
I0403 05:25:21.608722  8733 net.cpp:91] Creating Layer conv2
I0403 05:25:21.608739  8733 net.cpp:425] conv2 <- pool1
I0403 05:25:21.608758  8733 net.cpp:399] conv2 -> conv2
I0403 05:25:21.609871  8740 blocking_queue.cpp:50] Waiting for data
I0403 05:25:21.624023  8733 net.cpp:141] Setting up conv2
I0403 05:25:21.624053  8733 net.cpp:148] Top shape: 100 256 27 27 (18662400)
I0403 05:25:21.624069  8733 net.cpp:156] Memory required for data: 512958400
I0403 05:25:21.624091  8733 layer_factory.hpp:77] Creating layer relu2
I0403 05:25:21.624110  8733 net.cpp:91] Creating Layer relu2
I0403 05:25:21.624127  8733 net.cpp:425] relu2 <- conv2
I0403 05:25:21.624145  8733 net.cpp:386] relu2 -> conv2 (in-place)
I0403 05:25:21.624163  8733 net.cpp:141] Setting up relu2
I0403 05:25:21.624181  8733 net.cpp:148] Top shape: 100 256 27 27 (18662400)
I0403 05:25:21.624197  8733 net.cpp:156] Memory required for data: 587608000
I0403 05:25:21.624210  8733 layer_factory.hpp:77] Creating layer norm2
I0403 05:25:21.624228  8733 net.cpp:91] Creating Layer norm2
I0403 05:25:21.624248  8733 net.cpp:425] norm2 <- conv2
I0403 05:25:21.624269  8733 net.cpp:399] norm2 -> norm2
I0403 05:25:21.624325  8733 net.cpp:141] Setting up norm2
I0403 05:25:21.624346  8733 net.cpp:148] Top shape: 100 256 27 27 (18662400)
I0403 05:25:21.624361  8733 net.cpp:156] Memory required for data: 662257600
I0403 05:25:21.624377  8733 layer_factory.hpp:77] Creating layer pool2
I0403 05:25:21.624395  8733 net.cpp:91] Creating Layer pool2
I0403 05:25:21.624410  8733 net.cpp:425] pool2 <- norm2
I0403 05:25:21.624428  8733 net.cpp:399] pool2 -> pool2
I0403 05:25:21.624469  8733 net.cpp:141] Setting up pool2
I0403 05:25:21.624491  8733 net.cpp:148] Top shape: 100 256 13 13 (4326400)
I0403 05:25:21.624506  8733 net.cpp:156] Memory required for data: 679563200
I0403 05:25:21.624521  8733 layer_factory.hpp:77] Creating layer conv3
I0403 05:25:21.624541  8733 net.cpp:91] Creating Layer conv3
I0403 05:25:21.624557  8733 net.cpp:425] conv3 <- pool2
I0403 05:25:21.624575  8733 net.cpp:399] conv3 -> conv3
I0403 05:25:21.656810  8733 net.cpp:141] Setting up conv3
I0403 05:25:21.656839  8733 net.cpp:148] Top shape: 100 384 13 13 (6489600)
I0403 05:25:21.656855  8733 net.cpp:156] Memory required for data: 705521600
I0403 05:25:21.656875  8733 layer_factory.hpp:77] Creating layer relu3
I0403 05:25:21.656894  8733 net.cpp:91] Creating Layer relu3
I0403 05:25:21.656910  8733 net.cpp:425] relu3 <- conv3
I0403 05:25:21.656927  8733 net.cpp:386] relu3 -> conv3 (in-place)
I0403 05:25:21.656945  8733 net.cpp:141] Setting up relu3
I0403 05:25:21.656965  8733 net.cpp:148] Top shape: 100 384 13 13 (6489600)
I0403 05:25:21.656977  8733 net.cpp:156] Memory required for data: 731480000
I0403 05:25:21.656991  8733 layer_factory.hpp:77] Creating layer conv4
I0403 05:25:21.657024  8733 net.cpp:91] Creating Layer conv4
I0403 05:25:21.657042  8733 net.cpp:425] conv4 <- conv3
I0403 05:25:21.657060  8733 net.cpp:399] conv4 -> conv4
I0403 05:25:21.681421  8733 net.cpp:141] Setting up conv4
I0403 05:25:21.681452  8733 net.cpp:148] Top shape: 100 384 13 13 (6489600)
I0403 05:25:21.681468  8733 net.cpp:156] Memory required for data: 757438400
I0403 05:25:21.681501  8733 layer_factory.hpp:77] Creating layer relu4
I0403 05:25:21.681522  8733 net.cpp:91] Creating Layer relu4
I0403 05:25:21.681540  8733 net.cpp:425] relu4 <- conv4
I0403 05:25:21.681557  8733 net.cpp:386] relu4 -> conv4 (in-place)
I0403 05:25:21.681576  8733 net.cpp:141] Setting up relu4
I0403 05:25:21.681591  8733 net.cpp:148] Top shape: 100 384 13 13 (6489600)
I0403 05:25:21.681605  8733 net.cpp:156] Memory required for data: 783396800
I0403 05:25:21.681619  8733 layer_factory.hpp:77] Creating layer conv5
I0403 05:25:21.681640  8733 net.cpp:91] Creating Layer conv5
I0403 05:25:21.681656  8733 net.cpp:425] conv5 <- conv4
I0403 05:25:21.681675  8733 net.cpp:399] conv5 -> conv5
I0403 05:25:21.697969  8733 net.cpp:141] Setting up conv5
I0403 05:25:21.697999  8733 net.cpp:148] Top shape: 100 256 13 13 (4326400)
I0403 05:25:21.698015  8733 net.cpp:156] Memory required for data: 800702400
I0403 05:25:21.698037  8733 layer_factory.hpp:77] Creating layer relu5
I0403 05:25:21.698055  8733 net.cpp:91] Creating Layer relu5
I0403 05:25:21.698072  8733 net.cpp:425] relu5 <- conv5
I0403 05:25:21.698091  8733 net.cpp:386] relu5 -> conv5 (in-place)
I0403 05:25:21.698110  8733 net.cpp:141] Setting up relu5
I0403 05:25:21.698127  8733 net.cpp:148] Top shape: 100 256 13 13 (4326400)
I0403 05:25:21.698142  8733 net.cpp:156] Memory required for data: 818008000
I0403 05:25:21.698155  8733 layer_factory.hpp:77] Creating layer pool5
I0403 05:25:21.698173  8733 net.cpp:91] Creating Layer pool5
I0403 05:25:21.698189  8733 net.cpp:425] pool5 <- conv5
I0403 05:25:21.698205  8733 net.cpp:399] pool5 -> pool5
I0403 05:25:21.698263  8733 net.cpp:141] Setting up pool5
I0403 05:25:21.698287  8733 net.cpp:148] Top shape: 100 256 6 6 (921600)
I0403 05:25:21.698302  8733 net.cpp:156] Memory required for data: 821694400
I0403 05:25:21.698318  8733 layer_factory.hpp:77] Creating layer fc6
I0403 05:25:21.698344  8733 net.cpp:91] Creating Layer fc6
I0403 05:25:21.698362  8733 net.cpp:425] fc6 <- pool5
I0403 05:25:21.698381  8733 net.cpp:399] fc6 -> fc6
I0403 05:25:23.069572  8733 net.cpp:141] Setting up fc6
I0403 05:25:23.069654  8733 net.cpp:148] Top shape: 100 4096 (409600)
I0403 05:25:23.069671  8733 net.cpp:156] Memory required for data: 823332800
I0403 05:25:23.069692  8733 layer_factory.hpp:77] Creating layer relu6
I0403 05:25:23.069717  8733 net.cpp:91] Creating Layer relu6
I0403 05:25:23.069735  8733 net.cpp:425] relu6 <- fc6
I0403 05:25:23.069756  8733 net.cpp:386] relu6 -> fc6 (in-place)
I0403 05:25:23.069779  8733 net.cpp:141] Setting up relu6
I0403 05:25:23.069797  8733 net.cpp:148] Top shape: 100 4096 (409600)
I0403 05:25:23.069810  8733 net.cpp:156] Memory required for data: 824971200
I0403 05:25:23.069824  8733 layer_factory.hpp:77] Creating layer drop6
I0403 05:25:23.069849  8733 net.cpp:91] Creating Layer drop6
I0403 05:25:23.069866  8733 net.cpp:425] drop6 <- fc6
I0403 05:25:23.069882  8733 net.cpp:386] drop6 -> fc6 (in-place)
I0403 05:25:23.069929  8733 net.cpp:141] Setting up drop6
I0403 05:25:23.069952  8733 net.cpp:148] Top shape: 100 4096 (409600)
I0403 05:25:23.069967  8733 net.cpp:156] Memory required for data: 826609600
I0403 05:25:23.069983  8733 layer_factory.hpp:77] Creating layer fc7
I0403 05:25:23.070003  8733 net.cpp:91] Creating Layer fc7
I0403 05:25:23.070019  8733 net.cpp:425] fc7 <- fc6
I0403 05:25:23.070037  8733 net.cpp:399] fc7 -> fc7
I0403 05:25:23.678911  8733 net.cpp:141] Setting up fc7
I0403 05:25:23.678992  8733 net.cpp:148] Top shape: 100 4096 (409600)
I0403 05:25:23.679008  8733 net.cpp:156] Memory required for data: 828248000
I0403 05:25:23.679029  8733 layer_factory.hpp:77] Creating layer relu7
I0403 05:25:23.679055  8733 net.cpp:91] Creating Layer relu7
I0403 05:25:23.679075  8733 net.cpp:425] relu7 <- fc7
I0403 05:25:23.679093  8733 net.cpp:386] relu7 -> fc7 (in-place)
I0403 05:25:23.679114  8733 net.cpp:141] Setting up relu7
I0403 05:25:23.679132  8733 net.cpp:148] Top shape: 100 4096 (409600)
I0403 05:25:23.679147  8733 net.cpp:156] Memory required for data: 829886400
I0403 05:25:23.679203  8733 layer_factory.hpp:77] Creating layer drop7
I0403 05:25:23.679224  8733 net.cpp:91] Creating Layer drop7
I0403 05:25:23.679244  8733 net.cpp:425] drop7 <- fc7
I0403 05:25:23.679266  8733 net.cpp:386] drop7 -> fc7 (in-place)
I0403 05:25:23.679306  8733 net.cpp:141] Setting up drop7
I0403 05:25:23.679325  8733 net.cpp:148] Top shape: 100 4096 (409600)
I0403 05:25:23.679340  8733 net.cpp:156] Memory required for data: 831524800
I0403 05:25:23.679355  8733 layer_factory.hpp:77] Creating layer fc8_plantvillage
I0403 05:25:23.679378  8733 net.cpp:91] Creating Layer fc8_plantvillage
I0403 05:25:23.679395  8733 net.cpp:425] fc8_plantvillage <- fc7
I0403 05:25:23.679416  8733 net.cpp:399] fc8_plantvillage -> fc8_plantvillage
I0403 05:25:23.685493  8733 net.cpp:141] Setting up fc8_plantvillage
I0403 05:25:23.685521  8733 net.cpp:148] Top shape: 100 38 (3800)
I0403 05:25:23.685537  8733 net.cpp:156] Memory required for data: 831540000
I0403 05:25:23.685555  8733 layer_factory.hpp:77] Creating layer loss
I0403 05:25:23.685580  8733 net.cpp:91] Creating Layer loss
I0403 05:25:23.685596  8733 net.cpp:425] loss <- fc8_plantvillage
I0403 05:25:23.685612  8733 net.cpp:425] loss <- label
I0403 05:25:23.685636  8733 net.cpp:399] loss -> loss
I0403 05:25:23.685662  8733 layer_factory.hpp:77] Creating layer loss
…
I0403 05:25:23.687343  8733 net.cpp:313] The NetState phase (1) differed from the phase (0) specified by a rule in layer data
I0403 05:25:23.688007  8733 net.cpp:49] Initializing net from parameters: 
state {
  phase: TEST
}
layer {
  name: "data"
  type: "Data"
  top: "data"
  top: "label"
  include {
    phase: TEST
  }
  transform_param {
    crop_size: 227
    mean_file: "/home/mohanty/data/final_dataset/lmdb/segmented-20-80/mean.binaryproto"
  }
  data_param {
    source: "/home/mohanty/data/final_dataset/lmdb/segmented-20-80/test_db"
    batch_size: 100
    backend: LMDB
  }
}
layer {
  name: "conv1"
  type: "Convolution"
  bottom: "data"
  top: "conv1"
  param {
    lr_mult: 1
    decay_mult: 1
  }
  param {
    lr_mult: 2
    decay_mult: 0
  }
  convolution_param {
    num_output: 96
    kernel_size: 11
    stride: 4
    weight_filler {
      type: "gaussian"
      std: 0.01
    }
    bias_filler {
      type: "constant"
      value: 0
    }
  }
}
layer {
  name: "relu1"
  type: "ReLU"
  bottom: "conv1"
  top: "conv1"
}
layer {
  name: "norm1"
  type: "LRN"
  bottom: "conv1"
  top: "norm1"
  lrn_param {
    local_size: 5
    alpha: 0.0001
    beta: 0.75
  }
}
layer {
  name: "pool1"
  type: "Pooling"
  bottom: "norm1"
  top: "pool1"
  pooling_param {
    pool: MAX
    kernel_size: 3
    stride: 2
  }
}
layer {
  name: "conv2"
  type: "Convolution"
  bottom: "pool1"
  top: "conv2"
  param {
    lr_mult: 1
    decay_mult: 1
  }
  param {
    lr_mult: 2
    decay_mult: 0
  }
  convolution_param {
    num_output: 256
    pad: 2
    kernel_size: 5
    group: 2
    weight_filler {
      type: "gaussian"
      std: 0.01
    }
    bias_filler {
      type: "constant"
      value: 0.1
    }
  }
}
layer {
  name: "relu2"
  type: "ReLU"
  bottom: "conv2"
  top: "conv2"
}
layer {
  name: "norm2"
  type: "LRN"
  bottom: "conv2"
  top: "norm2"
  lrn_param {
    local_size: 5
    alpha: 0.0001
    beta: 0.75
  }
}
layer {
  name: "pool2"
  type: "Pooling"
  bottom: "norm2"
  top: "pool2"
  pooling_param {
    pool: MAX
    kernel_size: 3
    stride: 2
  }
}
layer {
  name: "conv3"
  type: "Convolution"
  bottom: "pool2"
  top: "conv3"
  param {
    lr_mult: 1
    decay_mult: 1
  }
  param {
    lr_mult: 2
    decay_mult: 0
  }
  convolution_param {
    num_output: 384
    pad: 1
    kernel_size: 3
    weight_filler {
      type: "gaussian"
      std: 0.01
    }
    bias_filler {
      type: "constant"
      value: 0
    }
  }
}
layer {
  name: "relu3"
  type: "ReLU"
  bottom: "conv3"
  top: "conv3"
}
layer {
  name: "conv4"
  type: "Convolution"
  bottom: "conv3"
  top: "conv4"
  param {
    lr_mult: 1
    decay_mult: 1
  }
  param {
    lr_mult: 2
    decay_mult: 0
  }
  convolution_param {
    num_output: 384
    pad: 1
    kernel_size: 3
    group: 2
    weight_filler {
      type: "gaussian"
      std: 0.01
    }
    bias_filler {
      type: "constant"
      value: 0.1
    }
  }
}
layer {
  name: "relu4"
  type: "ReLU"
  bottom: "conv4"
  top: "conv4"
}
layer {
  name: "conv5"
  type: "Convolution"
  bottom: "conv4"
  top: "conv5"
  param {
    lr_mult: 1
    decay_mult: 1
  }
  param {
    lr_mult: 2
    decay_mult: 0
  }
  convolution_param {
    num_output: 256
    pad: 1
    kernel_size: 3
    group: 2
    weight_filler {
      type: "gaussian"
      std: 0.01
    }
    bias_filler {
      type: "constant"
      value: 0.1
    }
  }
}
layer {
  name: "relu5"
  type: "ReLU"
  bottom: "conv5"
  top: "conv5"
}
layer {
  name: "pool5"
  type: "Pooling"
  bottom: "conv5"
  top: "pool5"
  pooling_param {
    pool: MAX
    kernel_size: 3
    stride: 2
  }
}
layer {
  name: "fc6"
  type: "InnerProduct"
  bottom: "pool5"
  top: "fc6"
  param {
    lr_mult: 1
    decay_mult: 1
  }
  param {
    lr_mult: 2
    decay_mult: 0
  }
  inner_product_param {
    num_output: 4096
    weight_filler {
      type: "gaussian"
      std: 0.005
    }
    bias_filler {
      type: "constant"
      value: 0.1
    }
  }
}
layer {
  name: "relu6"
  type: "ReLU"
  bottom: "fc6"
  top: "fc6"
}
layer {
  name: "drop6"
  type: "Dropout"
  bottom: "fc6"
  top: "fc6"
  dropout_param {
    dropout_ratio: 0.5
  }
}
layer {
  name: "fc7"
  type: "InnerProduct"
  bottom: "fc6"
  top: "fc7"
  param {
    lr_mult: 1
    decay_mult: 1
  }
  param {
    lr_mult: 2
    decay_mult: 0
  }
  inner_product_param {
    num_output: 4096
    weight_filler {
      type: "gaussian"
      std: 0.005
    }
    bias_filler {
      type: "constant"
      value: 0.1
    }
  }
}
layer {
  name: "relu7"
  type: "ReLU"
  bottom: "fc7"
  top: "fc7"
}
layer {
  name: "drop7"
  type: "Dropout"
  bottom: "fc7"
  top: "fc7"
  dropout_param {
    dropout_ratio: 0.5
  }
}
layer {
  name: "fc8_plantvillage"
  type: "InnerProduct"
  bottom: "fc7"
  top: "fc8_plantvillage"
  param {
    lr_mult: 1
    decay_mult: 1
  }
  param {
    lr_mult: 2
    decay_mult: 0
  }
  inner_product_param {
    num_output: 38
    weight_filler {
      type: "gaussian"
      std: 0.01
    }
    bias_filler {
      type: "constant"
      value: 0
    }
  }
}
layer {
  name: "loss"
  type: "SoftmaxWithLoss"
  bottom: "fc8_plantvillage"
  bottom: "label"
  top: "loss"
}
layer {
  name: "accuracy"
  type: "Accuracy"
  bottom: "fc8_plantvillage"
  bottom: "label"
  top: "accuracy"
  include {
    phase: TEST
  }
}
I0403 05:25:23.688166  8733 layer_factory.hpp:77] Creating layer data
I0403 05:25:23.688352  8733 net.cpp:91] Creating Layer data
I0403 05:25:23.688381  8733 net.cpp:399] data -> data
I0403 05:25:23.688408  8733 net.cpp:399] data -> label
I0403 05:25:23.688432  8733 data_transformer.cpp:25] Loading mean file from: /home/mohanty/data/final_dataset/lmdb/segmented-20-80/mean.binaryproto
I0403 05:25:23.756333  8741 db_lmdb.cpp:38] Opened lmdb /home/mohanty/data/final_dataset/lmdb/segmented-20-80/test_db
I0403 05:25:23.806936  8733 data_layer.cpp:41] output data size: 100,3,227,227
I0403 05:25:23.924187  8733 net.cpp:141] Setting up data
I0403 05:25:23.924273  8733 net.cpp:148] Top shape: 100 3 227 227 (15458700)
I0403 05:25:23.924293  8733 net.cpp:148] Top shape: 100 (100)
I0403 05:25:23.924309  8733 net.cpp:156] Memory required for data: 61835200
I0403 05:25:23.924326  8733 layer_factory.hpp:77] Creating layer label_data_1_split
I0403 05:25:23.924355  8733 net.cpp:91] Creating Layer label_data_1_split
I0403 05:25:23.924372  8733 net.cpp:425] label_data_1_split <- label
I0403 05:25:23.924393  8733 net.cpp:399] label_data_1_split -> label_data_1_split_0
I0403 05:25:23.924417  8733 net.cpp:399] label_data_1_split -> label_data_1_split_1
I0403 05:25:23.924474  8733 net.cpp:141] Setting up label_data_1_split
I0403 05:25:23.924497  8733 net.cpp:148] Top shape: 100 (100)
I0403 05:25:23.924513  8733 net.cpp:148] Top shape: 100 (100)
I0403 05:25:23.924527  8733 net.cpp:156] Memory required for data: 61836000
I0403 05:25:23.924541  8733 layer_factory.hpp:77] Creating layer conv1
I0403 05:25:23.924568  8733 net.cpp:91] Creating Layer conv1
I0403 05:25:23.924585  8733 net.cpp:425] conv1 <- data
I0403 05:25:23.924605  8733 net.cpp:399] conv1 -> conv1
I0403 05:25:23.926062  8733 net.cpp:141] Setting up conv1
I0403 05:25:23.926090  8733 net.cpp:148] Top shape: 100 96 55 55 (29040000)
I0403 05:25:23.926105  8733 net.cpp:156] Memory required for data: 177996000
I0403 05:25:23.926127  8733 layer_factory.hpp:77] Creating layer relu1
I0403 05:25:23.926147  8733 net.cpp:91] Creating Layer relu1
I0403 05:25:23.926164  8733 net.cpp:425] relu1 <- conv1
I0403 05:25:23.926182  8733 net.cpp:386] relu1 -> conv1 (in-place)
I0403 05:25:23.926200  8733 net.cpp:141] Setting up relu1
I0403 05:25:23.926218  8733 net.cpp:148] Top shape: 100 96 55 55 (29040000)
I0403 05:25:23.926232  8733 net.cpp:156] Memory required for data: 294156000
I0403 05:25:23.926252  8733 layer_factory.hpp:77] Creating layer norm1
I0403 05:25:23.926273  8733 net.cpp:91] Creating Layer norm1
I0403 05:25:23.926290  8733 net.cpp:425] norm1 <- conv1
I0403 05:25:23.926308  8733 net.cpp:399] norm1 -> norm1
I0403 05:25:23.932286  8733 net.cpp:141] Setting up norm1
I0403 05:25:23.932322  8733 net.cpp:148] Top shape: 100 96 55 55 (29040000)
I0403 05:25:23.932338  8733 net.cpp:156] Memory required for data: 410316000
I0403 05:25:23.932354  8733 layer_factory.hpp:77] Creating layer pool1
I0403 05:25:23.932375  8733 net.cpp:91] Creating Layer pool1
I0403 05:25:23.932392  8733 net.cpp:425] pool1 <- norm1
I0403 05:25:23.932410  8733 net.cpp:399] pool1 -> pool1
I0403 05:25:23.932458  8733 net.cpp:141] Setting up pool1
I0403 05:25:23.932482  8733 net.cpp:148] Top shape: 100 96 27 27 (6998400)
I0403 05:25:23.932497  8733 net.cpp:156] Memory required for data: 438309600
I0403 05:25:23.932541  8733 layer_factory.hpp:77] Creating layer conv2
I0403 05:25:23.932565  8733 net.cpp:91] Creating Layer conv2
I0403 05:25:23.932582  8733 net.cpp:425] conv2 <- pool1
I0403 05:25:23.932601  8733 net.cpp:399] conv2 -> conv2
I0403 05:25:23.944459  8733 net.cpp:141] Setting up conv2
I0403 05:25:23.944490  8733 net.cpp:148] Top shape: 100 256 27 27 (18662400)
I0403 05:25:23.944506  8733 net.cpp:156] Memory required for data: 512959200
I0403 05:25:23.944528  8733 layer_factory.hpp:77] Creating layer relu2
I0403 05:25:23.944550  8733 net.cpp:91] Creating Layer relu2
I0403 05:25:23.944566  8733 net.cpp:425] relu2 <- conv2
I0403 05:25:23.944584  8733 net.cpp:386] relu2 -> conv2 (in-place)
I0403 05:25:23.944603  8733 net.cpp:141] Setting up relu2
I0403 05:25:23.944622  8733 net.cpp:148] Top shape: 100 256 27 27 (18662400)
I0403 05:25:23.944636  8733 net.cpp:156] Memory required for data: 587608800
I0403 05:25:23.944650  8733 layer_factory.hpp:77] Creating layer norm2
I0403 05:25:23.944671  8733 net.cpp:91] Creating Layer norm2
I0403 05:25:23.944689  8733 net.cpp:425] norm2 <- conv2
I0403 05:25:23.944707  8733 net.cpp:399] norm2 -> norm2
I0403 05:25:23.944756  8733 net.cpp:141] Setting up norm2
I0403 05:25:23.944780  8733 net.cpp:148] Top shape: 100 256 27 27 (18662400)
I0403 05:25:23.944797  8733 net.cpp:156] Memory required for data: 662258400
I0403 05:25:23.944811  8733 layer_factory.hpp:77] Creating layer pool2
I0403 05:25:23.944830  8733 net.cpp:91] Creating Layer pool2
I0403 05:25:23.944854  8733 net.cpp:425] pool2 <- norm2
I0403 05:25:23.944881  8733 net.cpp:399] pool2 -> pool2
I0403 05:25:23.944932  8733 net.cpp:141] Setting up pool2
I0403 05:25:23.944957  8733 net.cpp:148] Top shape: 100 256 13 13 (4326400)
I0403 05:25:23.944972  8733 net.cpp:156] Memory required for data: 679564000
I0403 05:25:23.944985  8733 layer_factory.hpp:77] Creating layer conv3
I0403 05:25:23.945008  8733 net.cpp:91] Creating Layer conv3
I0403 05:25:23.945025  8733 net.cpp:425] conv3 <- pool2
I0403 05:25:23.945044  8733 net.cpp:399] conv3 -> conv3
I0403 05:25:23.978250  8733 net.cpp:141] Setting up conv3
I0403 05:25:23.978302  8733 net.cpp:148] Top shape: 100 384 13 13 (6489600)
I0403 05:25:23.978318  8733 net.cpp:156] Memory required for data: 705522400
I0403 05:25:23.978343  8733 layer_factory.hpp:77] Creating layer relu3
I0403 05:25:23.978365  8733 net.cpp:91] Creating Layer relu3
I0403 05:25:23.978382  8733 net.cpp:425] relu3 <- conv3
I0403 05:25:23.978400  8733 net.cpp:386] relu3 -> conv3 (in-place)
I0403 05:25:23.978420  8733 net.cpp:141] Setting up relu3
I0403 05:25:23.978437  8733 net.cpp:148] Top shape: 100 384 13 13 (6489600)
I0403 05:25:23.978452  8733 net.cpp:156] Memory required for data: 731480800
I0403 05:25:23.978466  8733 layer_factory.hpp:77] Creating layer conv4
I0403 05:25:23.978490  8733 net.cpp:91] Creating Layer conv4
I0403 05:25:23.978507  8733 net.cpp:425] conv4 <- conv3
I0403 05:25:23.978526  8733 net.cpp:399] conv4 -> conv4
I0403 05:25:24.003388  8733 net.cpp:141] Setting up conv4
I0403 05:25:24.003427  8733 net.cpp:148] Top shape: 100 384 13 13 (6489600)
I0403 05:25:24.003443  8733 net.cpp:156] Memory required for data: 757439200
I0403 05:25:24.003461  8733 layer_factory.hpp:77] Creating layer relu4
I0403 05:25:24.003481  8733 net.cpp:91] Creating Layer relu4
I0403 05:25:24.003499  8733 net.cpp:425] relu4 <- conv4
I0403 05:25:24.003517  8733 net.cpp:386] relu4 -> conv4 (in-place)
I0403 05:25:24.003538  8733 net.cpp:141] Setting up relu4
I0403 05:25:24.003557  8733 net.cpp:148] Top shape: 100 384 13 13 (6489600)
I0403 05:25:24.003572  8733 net.cpp:156] Memory required for data: 783397600
I0403 05:25:24.003587  8733 layer_factory.hpp:77] Creating layer conv5
I0403 05:25:24.003608  8733 net.cpp:91] Creating Layer conv5
I0403 05:25:24.003625  8733 net.cpp:425] conv5 <- conv4
I0403 05:25:24.003645  8733 net.cpp:399] conv5 -> conv5
I0403 05:25:24.020758  8733 net.cpp:141] Setting up conv5
I0403 05:25:24.020792  8733 net.cpp:148] Top shape: 100 256 13 13 (4326400)
I0403 05:25:24.020845  8733 net.cpp:156] Memory required for data: 800703200
I0403 05:25:24.020870  8733 layer_factory.hpp:77] Creating layer relu5
I0403 05:25:24.020894  8733 net.cpp:91] Creating Layer relu5
I0403 05:25:24.020911  8733 net.cpp:425] relu5 <- conv5
I0403 05:25:24.020930  8733 net.cpp:386] relu5 -> conv5 (in-place)
I0403 05:25:24.020948  8733 net.cpp:141] Setting up relu5
I0403 05:25:24.020967  8733 net.cpp:148] Top shape: 100 256 13 13 (4326400)
I0403 05:25:24.020982  8733 net.cpp:156] Memory required for data: 818008800
I0403 05:25:24.020997  8733 layer_factory.hpp:77] Creating layer pool5
I0403 05:25:24.021018  8733 net.cpp:91] Creating Layer pool5
I0403 05:25:24.021037  8733 net.cpp:425] pool5 <- conv5
I0403 05:25:24.021056  8733 net.cpp:399] pool5 -> pool5
I0403 05:25:24.021108  8733 net.cpp:141] Setting up pool5
I0403 05:25:24.021132  8733 net.cpp:148] Top shape: 100 256 6 6 (921600)
I0403 05:25:24.021148  8733 net.cpp:156] Memory required for data: 821695200
I0403 05:25:24.021164  8733 layer_factory.hpp:77] Creating layer fc6
I0403 05:25:24.021184  8733 net.cpp:91] Creating Layer fc6
I0403 05:25:24.021201  8733 net.cpp:425] fc6 <- pool5
I0403 05:25:24.021224  8733 net.cpp:399] fc6 -> fc6
I0403 05:25:25.401489  8733 net.cpp:141] Setting up fc6
I0403 05:25:25.401569  8733 net.cpp:148] Top shape: 100 4096 (409600)
I0403 05:25:25.401587  8733 net.cpp:156] Memory required for data: 823333600
I0403 05:25:25.401607  8733 layer_factory.hpp:77] Creating layer relu6
I0403 05:25:25.401633  8733 net.cpp:91] Creating Layer relu6
I0403 05:25:25.401650  8733 net.cpp:425] relu6 <- fc6
I0403 05:25:25.401671  8733 net.cpp:386] relu6 -> fc6 (in-place)
I0403 05:25:25.401695  8733 net.cpp:141] Setting up relu6
I0403 05:25:25.401711  8733 net.cpp:148] Top shape: 100 4096 (409600)
I0403 05:25:25.401726  8733 net.cpp:156] Memory required for data: 824972000
I0403 05:25:25.401741  8733 layer_factory.hpp:77] Creating layer drop6
I0403 05:25:25.401758  8733 net.cpp:91] Creating Layer drop6
I0403 05:25:25.401773  8733 net.cpp:425] drop6 <- fc6
I0403 05:25:25.401789  8733 net.cpp:386] drop6 -> fc6 (in-place)
I0403 05:25:25.401830  8733 net.cpp:141] Setting up drop6
I0403 05:25:25.401854  8733 net.cpp:148] Top shape: 100 4096 (409600)
I0403 05:25:25.401867  8733 net.cpp:156] Memory required for data: 826610400
I0403 05:25:25.401881  8733 layer_factory.hpp:77] Creating layer fc7
I0403 05:25:25.401902  8733 net.cpp:91] Creating Layer fc7
I0403 05:25:25.401919  8733 net.cpp:425] fc7 <- fc6
I0403 05:25:25.401937  8733 net.cpp:399] fc7 -> fc7
I0403 05:25:26.009203  8733 net.cpp:141] Setting up fc7
I0403 05:25:26.009289  8733 net.cpp:148] Top shape: 100 4096 (409600)
I0403 05:25:26.009306  8733 net.cpp:156] Memory required for data: 828248800
I0403 05:25:26.009330  8733 layer_factory.hpp:77] Creating layer relu7
I0403 05:25:26.009352  8733 net.cpp:91] Creating Layer relu7
I0403 05:25:26.009369  8733 net.cpp:425] relu7 <- fc7
I0403 05:25:26.009392  8733 net.cpp:386] relu7 -> fc7 (in-place)
I0403 05:25:26.009414  8733 net.cpp:141] Setting up relu7
I0403 05:25:26.009433  8733 net.cpp:148] Top shape: 100 4096 (409600)
I0403 05:25:26.009448  8733 net.cpp:156] Memory required for data: 829887200
I0403 05:25:26.009462  8733 layer_factory.hpp:77] Creating layer drop7
I0403 05:25:26.009481  8733 net.cpp:91] Creating Layer drop7
I0403 05:25:26.009497  8733 net.cpp:425] drop7 <- fc7
I0403 05:25:26.009516  8733 net.cpp:386] drop7 -> fc7 (in-place)
I0403 05:25:26.009557  8733 net.cpp:141] Setting up drop7
I0403 05:25:26.009577  8733 net.cpp:148] Top shape: 100 4096 (409600)
I0403 05:25:26.009591  8733 net.cpp:156] Memory required for data: 831525600
I0403 05:25:26.009606  8733 layer_factory.hpp:77] Creating layer fc8_plantvillage
I0403 05:25:26.009629  8733 net.cpp:91] Creating Layer fc8_plantvillage
I0403 05:25:26.009645  8733 net.cpp:425] fc8_plantvillage <- fc7
I0403 05:25:26.009667  8733 net.cpp:399] fc8_plantvillage -> fc8_plantvillage
I0403 05:25:26.015677  8733 net.cpp:141] Setting up fc8_plantvillage
I0403 05:25:26.015707  8733 net.cpp:148] Top shape: 100 38 (3800)
I0403 05:25:26.015758  8733 net.cpp:156] Memory required for data: 831540800
I0403 05:25:26.015777  8733 layer_factory.hpp:77] Creating layer fc8_plantvillage_fc8_plantvillage_0_split
I0403 05:25:26.015797  8733 net.cpp:91] Creating Layer fc8_plantvillage_fc8_plantvillage_0_split
I0403 05:25:26.015815  8733 net.cpp:425] fc8_plantvillage_fc8_plantvillage_0_split <- fc8_plantvillage
I0403 05:25:26.015836  8733 net.cpp:399] fc8_plantvillage_fc8_plantvillage_0_split -> fc8_plantvillage_fc8_plantvillage_0_split_0
I0403 05:25:26.015856  8733 net.cpp:399] fc8_plantvillage_fc8_plantvillage_0_split -> fc8_plantvillage_fc8_plantvillage_0_split_1
I0403 05:25:26.015904  8733 net.cpp:141] Setting up fc8_plantvillage_fc8_plantvillage_0_split
I0403 05:25:26.015929  8733 net.cpp:148] Top shape: 100 38 (3800)
I0403 05:25:26.015947  8733 net.cpp:148] Top shape: 100 38 (3800)
I0403 05:25:26.015961  8733 net.cpp:156] Memory required for data: 831571200
I0403 05:25:26.015976  8733 layer_factory.hpp:77] Creating layer loss
I0403 05:25:26.015992  8733 net.cpp:91] Creating Layer loss
I0403 05:25:26.016007  8733 net.cpp:425] loss <- fc8_plantvillage_fc8_plantvillage_0_split_0
I0403 05:25:26.016023  8733 net.cpp:425] loss <- label_data_1_split_0
I0403 05:25:26.016041  8733 net.cpp:399] loss -> loss
…
